…
      sampler {
        min_scale: 0.3
        max_scale: 1
        min_aspect_ratio: 0.5
        max_aspect_ratio: 2
      }
      sample_constraint {
        min_jaccard_overlap: 0.9
      }
      max_sample: 1
      max_trials: 50
    }
    batch_sampler {
      sampler {
        min_scale: 0.3
        max_scale: 1
        min_aspect_ratio: 0.5
        max_aspect_ratio: 2
      }
      sample_constraint {
        max_jaccard_overlap: 1
      }
      max_sample: 1
      max_trials: 50
    }
    label_map_file: "data/GTSDB/labelmap_GTSDB.prototxt"
  }
}
layer {
  name: "conv1"
  type: "Convolution"
  bottom: "data"
  top: "conv1"
  param {
    lr_mult: 1
    decay_mult: 1
  }
  convolution_param {
    num_output: 32
    bias_term: false
    pad: 1
    kernel_size: 3
    stride: 2
    weight_filler {
      type: "msra"
    }
  }
}
layer {
  name: "conv1/bn"
  type: "BatchNorm"
  bottom: "conv1"
  top: "conv1"
  batch_norm_param {
    use_global_stats: true
    eps: 1e-05
  }
}
layer {
  name: "conv1/scale"
  type: "Scale"
  bottom: "conv1"
  top: "conv1"
  param {
    lr_mult: 1
    decay_mult: 0
  }
  param {
    lr_mult: 1
    decay_mult: 0
  }
  scale_param {
    bias_term: true
  }
}
layer {
  name: "relu1"
  type: "ReLU"
  bottom: "conv1"
  top: "conv1"
}
layer {
  name: "conv2_1/expand"
  type: "Convolution"
  bottom: "conv1"
  top: "conv2_1/expand"
  param {
    lr_mult: 1
    decay_mult: 1
  }
  convolution_param {
    num_output: 32
    bias_term: false
    kernel_size: 1
    weight_filler {
      type: "msra"
    }
  }
}
layer {
  name: "conv2_1/expand/bn"
  type: "BatchNorm"
  bottom: "conv2_1/expand"
  top: "conv2_1/expand"
  batch_norm_param {
    use_global_stats: true
    eps: 1e-05
  }
}
layer {
  name: "conv2_1/expand/scale"
  type: "Scale"
  bottom: "conv2_1/expand"
  top: "conv2_1/expand"
  param {
    lr_mult: 1
    decay_mult: 0
  }
  param {
    lr_mult: 1
    decay_mult: 0
  }
  scale_param {
    bias_term: true
  }
}
layer {
  name: "relu2_1/expand"
  type: "ReLU"
  bottom: "conv2_1/expand"
  top: "conv2_1/expand"
}
layer {
  name: "conv2_1/dwise"
  type: "DepthwiseConvolution"
  bottom: "conv2_1/expand"
  top: "conv2_1/dwise"
  param {
    lr_mult: 1
    decay_mult: 1
  }
  convolution_param {
    num_output: 32
    bias_term: false
    pad: 1
    kernel_size: 3
    group: 32
    stride: 1
    weight_filler {
      type: "msra"
    }
  }
}
layer {
  name: "conv2_1/dwise/bn"
  type: "BatchNorm"
  bottom: "conv2_1/dwise"
  top: "conv2_1/dwise"
  batch_norm_param {
    use_global_stats: true
    eps: 1e-05
  }
}
layer {
  name: "conv2_1/dwise/scale"
  type: "Scale"
  bottom: "conv2_1/dwise"
  top: "conv2_1/dwise"
  param {
    lr_mult: 1
    decay_mult: 0
  }
  param {
    lr_mult: 1
    decay_mult: 0
  }
  scale_param {
    bias_term: true
  }
}
layer {
  name: "relu2_1/dwise"
  type: "ReLU"
  bottom: "conv2_1/dwise"
  top: "conv2_1/dwise"
}
layer {
  name: "conv2_1/linear"
  type: "Convolution"
  bottom: "conv2_1/dwise"
  top: "conv2_1/linear"
  param {
    lr_mult: 1
    decay_mult: 1
  }
  convolution_param {
    num_output: 16
    bias_term: false
    kernel_size: 1
    weight_filler {
      type: "msra"
    }
  }
}
layer {
  name: "conv2_1/linear/bn"
  type: "BatchNorm"
  bottom: "conv2_1/linear"
  top: "conv2_1/linear"
  batch_norm_param {
    use_global_stats: true
    eps: 1e-05
  }
}
layer {
  name: "conv2_1/linear/scale"
  type: "Scale"
  bottom: "conv2_1/linear"
  top: "conv2_1/linear"
  param {
    lr_mult: 1
    decay_mult: 0
  }
  param {
    lr_mult: 1
    decay_mult: 0
  }
  scale_param {
    bias_term: true
  }
}
layer {
  name: "conv2_2/expand"
  type: "Convolution"
  bottom: "conv2_1/linear"
  top: "conv2_2/expand"
  param {
    lr_mult: 1
    decay_mult: 1
  }
  convolution_param {
    num_output: 96
    bias_term: false
    kernel_size: 1
    weight_filler {
      type: "msra"
    }
  }
}
layer {
  name: "conv2_2/expand/bn"
  type: "BatchNorm"
  bottom: "conv2_2/expand"
  top: "conv2_2/expand"
  batch_norm_param {
    use_global_stats: true
    eps: 1e-05
  }
}
layer {
  name: "conv2_2/expand/scale"
  type: "Scale"
  bottom: "conv2_2/expand"
  top: "conv2_2/expand"
  param {
    lr_mult: 1
    decay_mult: 0
  }
  param {
    lr_mult: 1
    decay_mult: 0
  }
  scale_param {
    bias_term: true
  }
}
layer {
  name: "relu2_2/expand"
  type: "ReLU"
  bottom: "conv2_2/expand"
  top: "conv2_2/expand"
}
layer {
  name: "conv2_2/dwise"
  type: "DepthwiseConvolution"
  bottom: "conv2_2/expand"
  top: "conv2_2/dwise"
  param {
    lr_mult: 1
    decay_mult: 1
  }
  convolution_param {
    num_output: 96
    bias_term: false
    pad: 1
    kernel_size: 3
    group: 96
    stride: 2
    weight_filler {
      type: "msra"
    }
  }
}
layer {
  name: "conv2_2/dwise/bn"
  type: "BatchNorm"
  bottom: "conv2_2/dwise"
  top: "conv2_2/dwise"
  batch_norm_param {
    use_global_stats: true
    eps: 1e-05
  }
}
layer {
  name: "conv2_2/dwise/scale"
  type: "Scale"
  bottom: "conv2_2/dwise"
  top: "conv2_2/dwise"
  param {
    lr_mult: 1
    decay_mult: 0
  }
  param {
    lr_mult: 1
    decay_mult: 0
  }
  scale_param {
    bias_term: true
  }
}
layer {
  name: "relu2_2/dwise"
  type: "ReLU"
  bottom: "conv2_2/dwise"
  top: "conv2_2/dwise"
}
layer {
  name: "conv2_2/linear"
  type: "Convolution"
  bottom: "conv2_2/dwise"
  top: "conv2_2/linear"
  param {
    lr_mult: 1
    decay_mult: 1
  }
  convolution_param {
    num_output: 24
    bias_term: false
    kernel_size: 1
    weight_filler {
      type: "msra"
    }
  }
}
layer {
  name: "conv2_2/linear/bn"
  type: "BatchNorm"
  bottom: "conv2_2/linear"
  top: "conv2_2/linear"
  batch_norm_param {
    use_global_stats: true
    eps: 1e-05
  }
}
layer {
  name: "conv2_2/linear/scale"
  type: "Scale"
  bottom: "conv2_2/linear"
  top: "conv2_2/linear"
  param {
    lr_mult: 1
    decay_mult: 0
  }
  param {
    lr_mult: 1
    decay_mult: 0
  }
  scale_param {
    bias_term: true
  }
}
layer {
  name: "conv3_1/expand"
  type: "Convolution"
  bottom: "conv2_2/linear"
  top: "conv3_1/expand"
  param {
    lr_mult: 1
    decay_mult: 1
  }
  convolution_param {
    num_output: 144
    bias_term: false
    kernel_size: 1
    weight_filler {
      type: "msra"
    }
  }
}
layer {
  name: "conv3_1/expand/bn"
  type: "BatchNorm"
  bottom: "conv3_1/expand"
  top: "conv3_1/expand"
  batch_norm_param {
    use_global_stats: true
    eps: 1e-05
  }
}
layer {
  name: "conv3_1/expand/scale"
  type: "Scale"
  bottom: "conv3_1/expand"
  top: "conv3_1/expand"
  param {
    lr_mult: 1
    decay_mult: 0
  }
  param {
    lr_mult: 1
    decay_mult: 0
  }
  scale_param {
    bias_term: true
  }
}
layer {
  name: "relu3_1/expand"
  type: "ReLU"
  bottom: "conv3_1/expand"
  top: "conv3_1/expand"
}
layer {
  name: "conv3_1/dwise"
  type: "DepthwiseConvolution"
  bottom: "conv3_1/expand"
  top: "conv3_1/dwise"
  param {
    lr_mult: 1
    decay_mult: 1
  }
  convolution_param {
    num_output: 144
    bias_term: false
    pad: 1
    kernel_size: 3
    group: 144
    stride: 1
    weight_filler {
      type: "msra"
    }
  }
}
layer {
  name: "conv3_1/dwise/bn"
  type: "BatchNorm"
  bottom: "conv3_1/dwise"
  top: "conv3_1/dwise"
  batch_norm_param {
    use_global_stats: true
    eps: 1e-05
  }
}
layer {
  name: "conv3_1/dwise/scale"
  type: "Scale"
  bottom: "conv3_1/dwise"
  top: "conv3_1/dwise"
  param {
    lr_mult: 1
    decay_mult: 0
  }
  param {
    lr_mult: 1
    decay_mult: 0
  }
  scale_param {
    bias_term: true
  }
}
layer {
  name: "relu3_1/dwise"
  type: "ReLU"
  bottom: "conv3_1/dwise"
  top: "conv3_1/dwise"
}
layer {
  name: "conv3_1/linear"
  type: "Convolution"
  bottom: "conv3_1/dwise"
  top: "conv3_1/linear"
  param {
    lr_mult: 1
    decay_mult: 1
  }
  convolution_param {
    num_output: 24
    bias_term: false
    kernel_size: 1
    weight_filler {
      type: "msra"
    }
  }
}
layer {
  name: "conv3_1/linear/bn"
  type: "BatchNorm"
  bottom: "conv3_1/linear"
  top: "conv3_1/linear"
  batch_norm_param {
    use_global_stats: true
    eps: 1e-05
  }
}
layer {
  name: "conv3_1/linear/scale"
  type: "Scale"
  bottom: "conv3_1/linear"
  top: "conv3_1/linear"
  param {
    lr_mult: 1
    decay_mult: 0
  }
  param {
    lr_mult: 1
    decay_mult: 0
  }
  scale_param {
    bias_term: true
  }
}
layer {
  name: "block_3_1"
  type: "Eltwise"
  bottom: "conv2_2/linear"
  bottom: "conv3_1/linear"
  top: "block_3_1"
}
layer {
  name: "conv3_2/expand"
  type: "Convolution"
  bottom: "block_3_1"
  top: "conv3_2/expand"
  param {
    lr_mult: 1
    decay_mult: 1
  }
  convolution_param {
    num_output: 144
    bias_term: false
    kernel_size: 1
    weight_filler {
      type: "msra"
    }
  }
}
layer {
  name: "conv3_2/expand/bn"
  type: "BatchNorm"
  bottom: "conv3_2/expand"
  top: "conv3_2/expand"
  batch_norm_param {
    use_global_stats: true
    eps: 1e-05
  }
}
layer {
  name: "conv3_2/expand/scale"
  type: "Scale"
  bottom: "conv3_2/expand"
  top: "conv3_2/expand"
  param {
    lr_mult: 1
    decay_mult: 0
  }
  param {
    lr_mult: 1
    decay_mult: 0
  }
  scale_param {
    bias_term: true
  }
}
layer {
  name: "relu3_2/expand"
  type: "ReLU"
  bottom: "conv3_2/expand"
  top: "conv3_2/expand"
}
layer {
  name: "conv3_2/dwise"
  type: "DepthwiseConvolution"
  bottom: "conv3_2/expand"
  top: "conv3_2/dwise"
  param {
    lr_mult: 1
    decay_mult: 1
  }
  convolution_param {
    num_output: 144
    bias_term: false
    pad: 1
    kernel_size: 3
    group: 144
    stride: 2
    weight_filler {
      type: "msra"
    }
  }
}
layer {
  name: "conv3_2/dwise/bn"
  type: "BatchNorm"
  bottom: "conv3_2/dwise"
  top: "conv3_2/dwise"
  batch_norm_param {
    use_global_stats: true
    eps: 1e-05
  }
}
layer {
  name: "conv3_2/dwise/scale"
  type: "Scale"
  bottom: "conv3_2/dwise"
  top: "conv3_2/dwise"
  param {
    lr_mult: 1
    decay_mult: 0
  }
  param {
    lr_mult: 1
    decay_mult: 0
  }
  scale_param {
    bias_term: true
  }
}
layer {
  name: "relu3_2/dwise"
  type: "ReLU"
  bottom: "conv3_2/dwise"
  top: "conv3_2/dwise"
}
layer {
  name: "conv3_2/linear"
  type: "Convolution"
  bottom: "conv3_2/dwise"
  top: "conv3_2/linear"
  param {
    lr_mult: 1
    decay_mult: 1
  }
  convolution_param {
    num_output: 32
    bias_term: false
    kernel_size: 1
    weight_filler {
      type: "msra"
    }
  }
}
layer {
  name: "conv3_2/linear/bn"
  type: "BatchNorm"
  bottom: "conv3_2/linear"
  top: "conv3_2/linear"
  batch_norm_param {
    use_global_stats: true
    eps: 1e-05
  }
}
layer {
  name: "conv3_2/linear/scale"
  type: "Scale"
  bottom: "conv3_2/linear"
  top: "conv3_2/linear"
  param {
    lr_mult: 1
    decay_mult: 0
  }
  param {
    lr_mult: 1
    decay_mult: 0
  }
  scale_param {
    bias_term: true
  }
}
layer {
  name: "conv4_1/expand"
  type: "Convolution"
  bottom: "conv3_2/linear"
  top: "conv4_1/expand"
  param {
    lr_mult: 1
    decay_mult: 1
  }
  convolution_param {
    num_output: 192
    bias_term: false
    kernel_size: 1
    weight_filler {
      type: "msra"
    }
  }
}
layer {
  name: "conv4_1/expand/bn"
  type: "BatchNorm"
  bottom: "conv4_1/expand"
  top: "conv4_1/expand"
  batch_norm_param {
    use_global_stats: true
    eps: 1e-05
  }
}
layer {
  name: "conv4_1/expand/scale"
  type: "Scale"
  bottom: "conv4_1/expand"
  top: "conv4_1/expand"
  param {
    lr_mult: 1
    decay_mult: 0
  }
  param {
    lr_mult: 1
    decay_mult: 0
  }
  scale_param {
    bias_term: true
  }
}
layer {
  name: "relu4_1/expand"
  type: "ReLU"
  bottom: "conv4_1/expand"
  top: "conv4_1/expand"
}
layer {
  name: "conv4_1/dwise"
  type: "DepthwiseConvolution"
  bottom: "conv4_1/expand"
  top: "conv4_1/dwise"
  param {
    lr_mult: 1
    decay_mult: 1
  }
  convolution_param {
    num_output: 192
    bias_term: false
    pad: 1
    kernel_size: 3
    group: 192
    stride: 1
    weight_filler {
      type: "msra"
    }
  }
}
layer {
  name: "conv4_1/dwise/bn"
  type: "BatchNorm"
  bottom: "conv4_1/dwise"
  top: "conv4_1/dwise"
  batch_norm_param {
    use_global_stats: true
    eps: 1e-05
  }
}
layer {
  name: "conv4_1/dwise/scale"
  type: "Scale"
  bottom: "conv4_1/dwise"
  top: "conv4_1/dwise"
  param {
    lr_mult: 1
    decay_mult: 0
  }
  param {
    lr_mult: 1
    decay_mult: 0
  }
  scale_param {
    bias_term: true
  }
}
layer {
  name: "relu4_1/dwise"
  type: "ReLU"
  bottom: "conv4_1/dwise"
  top: "conv4_1/dwise"
}
layer {
  name: "conv4_1/linear"
  type: "Convolution"
  bottom: "conv4_1/dwise"
  top: "conv4_1/linear"
  param {
    lr_mult: 1
    decay_mult: 1
  }
  convolution_param {
    num_output: 32
    bias_term: false
    kernel_size: 1
    weight_filler {
      type: "msra"
    }
  }
}
layer {
  name: "conv4_1/linear/bn"
  type: "BatchNorm"
  bottom: "conv4_1/linear"
  top: "conv4_1/linear"
  batch_norm_param {
    use_global_stats: true
    eps: 1e-05
  }
}
layer {
  name: "conv4_1/linear/scale"
  type: "Scale"
  bottom: "conv4_1/linear"
  top: "conv4_1/linear"
  param {
    lr_mult: 1
    decay_mult: 0
  }
  param {
    lr_mult: 1
    decay_mult: 0
  }
  scale_param {
    bias_term: true
  }
}
layer {
  name: "block_4_1"
  type: "Eltwise"
  bottom: "conv3_2/linear"
  bottom: "conv4_1/linear"
  top: "block_4_1"
}
layer {
  name: "conv4_2/expand"
  type: "Convolution"
  bottom: "block_4_1"
  top: "conv4_2/expand"
  param {
    lr_mult: 1
    decay_mult: 1
  }
  convolution_param {
    num_output: 192
    bias_term: false
    kernel_size: 1
    weight_filler {
      type: "msra"
    }
  }
}
layer {
  name: "conv4_2/expand/bn"
  type: "BatchNorm"
  bottom: "conv4_2/expand"
  top: "conv4_2/expand"
  batch_norm_param {
    use_global_stats: true
    eps: 1e-05
  }
}
layer {
  name: "conv4_2/expand/scale"
  type: "Scale"
  bottom: "conv4_2/expand"
  top: "conv4_2/expand"
  param {
    lr_mult: 1
    decay_mult: 0
  }
  param {
    lr_mult: 1
    decay_mult: 0
  }
  scale_param {
    bias_term: true
  }
}
layer {
  name: "relu4_2/expand"
  type: "ReLU"
  bottom: "conv4_2/expand"
  top: "conv4_2/expand"
}
layer {
  name: "conv4_2/dwise"
  type: "DepthwiseConvolution"
  bottom: "conv4_2/expand"
  top: "conv4_2/dwise"
  param {
    lr_mult: 1
    decay_mult: 1
  }
  convolution_param {
    num_output: 192
    bias_term: false
    pad: 1
    kernel_size: 3
    group: 192
    stride: 1
    weight_filler {
      type: "msra"
    }
  }
}
layer {
  name: "conv4_2/dwise/bn"
  type: "BatchNorm"
  bottom: "conv4_2/dwise"
  top: "conv4_2/dwise"
  batch_norm_param {
    use_global_stats: true
    eps: 1e-05
  }
}
layer {
  name: "conv4_2/dwise/scale"
  type: "Scale"
  bottom: "conv4_2/dwise"
  top: "conv4_2/dwise"
  param {
    lr_mult: 1
    decay_mult: 0
  }
  param {
    lr_mult: 1
    decay_mult: 0
  }
  scale_param {
    bias_term: true
  }
}
layer {
  name: "relu4_2/dwise"
  type: "ReLU"
  bottom: "conv4_2/dwise"
  top: "conv4_2/dwise"
}
layer {
  name: "conv4_2/linear"
  type: "Convolution"
  bottom: "conv4_2/dwise"
  top: "conv4_2/linear"
  param {
    lr_mult: 1
    decay_mult: 1
  }
  convolution_param {
    num_output: 32
    bias_term: false
    kernel_size: 1
    weight_filler {
      type: "msra"
    }
  }
}
layer {
  name: "conv4_2/linear/bn"
  type: "BatchNorm"
  bottom: "conv4_2/linear"
  top: "conv4_2/linear"
  batch_norm_param {
    use_global_stats: true
    eps: 1e-05
  }
}
layer {
  name: "conv4_2/linear/scale"
  type: "Scale"
  bottom: "conv4_2/linear"
  top: "conv4_2/linear"
  param {
    lr_mult: 1
    decay_mult: 0
  }
  param {
    lr_mult: 1
    decay_mult: 0
  }
  scale_param {
    bias_term: true
  }
}
layer {
  name: "block_4_2"
  type: "Eltwise"
  bottom: "block_4_1"
  bottom: "conv4_2/linear"
  top: "block_4_2"
}
layer {
  name: "conv4_3/expand"
  type: "Convolution"
  bottom: "block_4_2"
  top: "conv4_3/expand"
  param {
    lr_mult: 1
    decay_mult: 1
  }
  convolution_param {
    num_output: 192
    bias_term: false
    kernel_size: 1
    weight_filler {
      type: "msra"
    }
  }
}
layer {
  name: "conv4_3/expand/bn"
  type: "BatchNorm"
  bottom: "conv4_3/expand"
  top: "conv4_3/expand"
  batch_norm_param {
    use_global_stats: true
    eps: 1e-05
  }
}
layer {
  name: "conv4_3/expand/scale"
  type: "Scale"
  bottom: "conv4_3/expand"
  top: "conv4_3/expand"
  param {
    lr_mult: 1
    decay_mult: 0
  }
  param {
    lr_mult: 1
    decay_mult: 0
  }
  scale_param {
    bias_term: true
  }
}
layer {
  name: "relu4_3/expand"
  type: "ReLU"
  bottom: "conv4_3/expand"
  top: "conv4_3/expand"
}
layer {
  name: "conv4_3/dwise"
  type: "DepthwiseConvolution"
  bottom: "conv4_3/expand"
  top: "conv4_3/dwise"
  param {
    lr_mult: 1
    decay_mult: 1
  }
  convolution_param {
    num_output: 192
    bias_term: false
    pad: 1
    kernel_size: 3
    group: 192
    stride: 1
    weight_filler {
      type: "msra"
    }
  }
}
layer {
  name: "conv4_3/dwise/bn"
  type: "BatchNorm"
  bottom: "conv4_3/dwise"
  top: "conv4_3/dwise"
  batch_norm_param {
    use_global_stats: true
    eps: 1e-05
  }
}
layer {
  name: "conv4_3/dwise/scale"
  type: "Scale"
  bottom: "conv4_3/dwise"
  top: "conv4_3/dwise"
  param {
    lr_mult: 1
    decay_mult: 0
  }
  param {
    lr_mult: 1
    decay_mult: 0
  }
  scale_param {
    bias_term: true
  }
}
layer {
  name: "relu4_3/dwise"
  type: "ReLU"
  bottom: "conv4_3/dwise"
  top: "conv4_3/dwise"
}
layer {
  name: "conv4_3/linear"
  type: "Convolution"
  bottom: "conv4_3/dwise"
  top: "conv4_3/linear"
  param {
    lr_mult: 1
    decay_mult: 1
  }
  convolution_param {
    num_output: 64
    bias_term: false
    kernel_size: 1
    weight_filler {
      type: "msra"
    }
  }
}
layer {
  name: "conv4_3/linear/bn"
  type: "BatchNorm"
  bottom: "conv4_3/linear"
  top: "conv4_3/linear"
  batch_norm_param {
    use_global_stats: true
    eps: 1e-05
  }
}
layer {
  name: "conv4_3/linear/scale"
  type: "Scale"
  bottom: "conv4_3/linear"
  top: "conv4_3/linear"
  param {
    lr_mult: 1
    decay_mult: 0
  }
  param {
    lr_mult: 1
    decay_mult: 0
  }
  scale_param {
    bias_term: true
  }
}
layer {
  name: "conv4_4/expand"
  type: "Convolution"
  bottom: "conv4_3/linear"
  top: "conv4_4/expand"
  param {
    lr_mult: 1
    decay_mult: 1
  }
  convolution_param {
    num_output: 384
    bias_term: false
    kernel_size: 1
    weight_filler {
      type: "msra"
    }
  }
}
layer {
  name: "conv4_4/expand/bn"
  type: "BatchNorm"
  bottom: "conv4_4/expand"
  top: "conv4_4/expand"
  batch_norm_param {
    use_global_stats: true
    eps: 1e-05
  }
}
layer {
  name: "conv4_4/expand/scale"
  type: "Scale"
  bottom: "conv4_4/expand"
  top: "conv4_4/expand"
  param {
    lr_mult: 1
    decay_mult: 0
  }
  param {
    lr_mult: 1
    decay_mult: 0
  }
  scale_param {
    bias_term: true
  }
}
layer {
  name: "relu4_4/expand"
  type: "ReLU"
  bottom: "conv4_4/expand"
  top: "conv4_4/expand"
}
layer {
  name: "conv4_4/dwise"
  type: "DepthwiseConvolution"
  bottom: "conv4_4/expand"
  top: "conv4_4/dwise"
  param {
    lr_mult: 1
    decay_mult: 1
  }
  convolution_param {
    num_output: 384
    bias_term: false
    pad: 1
    kernel_size: 3
    group: 384
    stride: 1
    weight_filler {
      type: "msra"
    }
  }
}
layer {
  name: "conv4_4/dwise/bn"
  type: "BatchNorm"
  bottom: "conv4_4/dwise"
  top: "conv4_4/dwise"
  batch_norm_param {
    use_global_stats: true
    eps: 1e-05
  }
}
layer {
  name: "conv4_4/dwise/scale"
  type: "Scale"
  bottom: "conv4_4/dwise"
  top: "conv4_4/dwise"
  param {
    lr_mult: 1
    decay_mult: 0
  }
  param {
    lr_mult: 1
    decay_mult: 0
  }
  scale_param {
    bias_term: true
  }
}
layer {
  name: "relu4_4/dwise"
  type: "ReLU"
  bottom: "conv4_4/dwise"
  top: "conv4_4/dwise"
}
layer {
  name: "conv4_4/linear"
  type: "Convolution"
  bottom: "conv4_4/dwise"
  top: "conv4_4/linear"
  param {
    lr_mult: 1
    decay_mult: 1
  }
  convolution_param {
    num_output: 64
    bias_term: false
    kernel_size: 1
    weight_filler {
      type: "msra"
    }
  }
}
layer {
  name: "conv4_4/linear/bn"
  type: "BatchNorm"
  bottom: "conv4_4/linear"
  top: "conv4_4/linear"
  batch_norm_param {
    use_global_stats: true
    eps: 1e-05
  }
}
layer {
  name: "conv4_4/linear/scale"
  type: "Scale"
  bottom: "conv4_4/linear"
  top: "conv4_4/linear"
  param {
    lr_mult: 1
    decay_mult: 0
  }
  param {
    lr_mult: 1
    decay_mult: 0
  }
  scale_param {
    bias_term: true
  }
}
layer {
  name: "block_4_4"
  type: "Eltwise"
  bottom: "conv4_3/linear"
  bottom: "conv4_4/linear"
  top: "block_4_4"
}
layer {
  name: "conv4_5/expand"
  type: "Convolution"
  bottom: "block_4_4"
  top: "conv4_5/expand"
  param {
    lr_mult: 1
    decay_mult: 1
  }
  convolution_param {
    num_output: 384
    bias_term: false
    kernel_size: 1
    weight_filler {
      type: "msra"
    }
  }
}
layer {
  name: "conv4_5/expand/bn"
  type: "BatchNorm"
  bottom: "conv4_5/expand"
  top: "conv4_5/expand"
  batch_norm_param {
    use_global_stats: true
    eps: 1e-05
  }
}
layer {
  name: "conv4_5/expand/scale"
  type: "Scale"
  bottom: "conv4_5/expand"
  top: "conv4_5/expand"
  param {
    lr_mult: 1
    decay_mult: 0
  }
  param {
    lr_mult: 1
    decay_mult: 0
  }
  scale_param {
    bias_term: true
  }
}
layer {
  name: "relu4_5/expand"
  type: "ReLU"
  bottom: "conv4_5/expand"
  top: "conv4_5/expand"
}
layer {
  name: "conv4_5/dwise"
  type: "DepthwiseConvolution"
  bottom: "conv4_5/expand"
  top: "conv4_5/dwise"
  param {
    lr_mult: 1
    decay_mult: 1
  }
  convolution_param {
    num_output: 384
    bias_term: false
    pad: 1
    kernel_size: 3
    group: 384
    stride: 1
    weight_filler {
      type: "msra"
    }
  }
}
layer {
  name: "conv4_5/dwise/bn"
  type: "BatchNorm"
  bottom: "conv4_5/dwise"
  top: "conv4_5/dwise"
  batch_norm_param {
    use_global_stats: true
    eps: 1e-05
  }
}
layer {
  name: "conv4_5/dwise/scale"
  type: "Scale"
  bottom: "conv4_5/dwise"
  top: "conv4_5/dwise"
  param {
    lr_mult: 1
    decay_mult: 0
  }
  param {
    lr_mult: 1
    decay_mult: 0
  }
  scale_param {
    bias_term: true
  }
}
layer {
  name: "relu4_5/dwise"
  type: "ReLU"
  bottom: "conv4_5/dwise"
  top: "conv4_5/dwise"
}
layer {
  name: "conv4_5/linear"
  type: "Convolution"
  bottom: "conv4_5/dwise"
  top: "conv4_5/linear"
  param {
    lr_mult: 1
    decay_mult: 1
  }
  convolution_param {
    num_output: 64
    bias_term: false
    kernel_size: 1
    weight_filler {
      type: "msra"
    }
  }
}
layer {
  name: "conv4_5/linear/bn"
  type: "BatchNorm"
  bottom: "conv4_5/linear"
  top: "conv4_5/linear"
  batch_norm_param {
    use_global_stats: true
    eps: 1e-05
  }
}
layer {
  name: "conv4_5/linear/scale"
  type: "Scale"
  bottom: "conv4_5/linear"
  top: "conv4_5/linear"
  param {
    lr_mult: 1
    decay_mult: 0
  }
  param {
    lr_mult: 1
    decay_mult: 0
  }
  scale_param {
    bias_term: true
  }
}
layer {
  name: "block_4_5"
  type: "Eltwise"
  bottom: "block_4_4"
  bottom: "conv4_5/linear"
  top: "block_4_5"
}
layer {
  name: "conv4_6/expand"
  type: "Convolution"
  bottom: "block_4_5"
  top: "conv4_6/expand"
  param {
    lr_mult: 1
    decay_mult: 1
  }
  convolution_param {
    num_output: 384
    bias_term: false
    kernel_size: 1
    weight_filler {
      type: "msra"
    }
  }
}
layer {
  name: "conv4_6/expand/bn"
  type: "BatchNorm"
  bottom: "conv4_6/expand"
  top: "conv4_6/expand"
  batch_norm_param {
    use_global_stats: true
    eps: 1e-05
  }
}
layer {
  name: "conv4_6/expand/scale"
  type: "Scale"
  bottom: "conv4_6/expand"
  top: "conv4_6/expand"
  param {
    lr_mult: 1
    decay_mult: 0
  }
  param {
    lr_mult: 1
    decay_mult: 0
  }
  scale_param {
    bias_term: true
  }
}
layer {
  name: "relu4_6/expand"
  type: "ReLU"
  bottom: "conv4_6/expand"
  top: "conv4_6/expand"
}
layer {
  name: "conv4_6/dwise"
  type: "DepthwiseConvolution"
  bottom: "conv4_6/expand"
  top: "conv4_6/dwise"
  param {
    lr_mult: 1
    decay_mult: 1
  }
  convolution_param {
    num_output: 384
    bias_term: false
    pad: 1
    kernel_size: 3
    group: 384
    stride: 1
    weight_filler {
      type: "msra"
    }
  }
}
layer {
  name: "conv4_6/dwise/bn"
  type: "BatchNorm"
  bottom: "conv4_6/dwise"
  top: "conv4_6/dwise"
  batch_norm_param {
    use_global_stats: true
    eps: 1e-05
  }
}
layer {
  name: "conv4_6/dwise/scale"
  type: "Scale"
  bottom: "conv4_6/dwise"
  top: "conv4_6/dwise"
  param {
    lr_mult: 1
    decay_mult: 0
  }
  param {
    lr_mult: 1
    decay_mult: 0
  }
  scale_param {
    bias_term: true
  }
}
layer {
  name: "relu4_6/dwise"
  type: "ReLU"
  bottom: "conv4_6/dwise"
  top: "conv4_6/dwise"
}
layer {
  name: "conv4_6/linear"
  type: "Convolution"
  bottom: "conv4_6/dwise"
  top: "conv4_6/linear"
  param {
    lr_mult: 1
    decay_mult: 1
  }
  convolution_param {
    num_output: 64
    bias_term: false
    kernel_size: 1
    weight_filler {
      type: "msra"
    }
  }
}
layer {
  name: "conv4_6/linear/bn"
  type: "BatchNorm"
  bottom: "conv4_6/linear"
  top: "conv4_6/linear"
  batch_norm_param {
    use_global_stats: true
    eps: 1e-05
  }
}
layer {
  name: "conv4_6/linear/scale"
  type: "Scale"
  bottom: "conv4_6/linear"
  top: "conv4_6/linear"
  param {
    lr_mult: 1
    decay_mult: 0
  }
  param {
    lr_mult: 1
    decay_mult: 0
  }
  scale_param {
    bias_term: true
  }
}
layer {
  name: "block_4_6"
  type: "Eltwise"
  bottom: "block_4_5"
  bottom: "conv4_6/linear"
  top: "block_4_6"
}
layer {
  name: "conv4_7/expand"
  type: "Convolution"
  bottom: "block_4_6"
  top: "conv4_7/expand"
  param {
    lr_mult: 1
    decay_mult: 1
  }
  convolution_param {
    num_output: 384
    bias_term: false
    kernel_size: 1
    weight_filler {
      type: "msra"
    }
  }
}
layer {
  name: "conv4_7/expand/bn"
  type: "BatchNorm"
  bottom: "conv4_7/expand"
  top: "conv4_7/expand"
  batch_norm_param {
    use_global_stats: true
    eps: 1e-05
  }
}
layer {
  name: "conv4_7/expand/scale"
  type: "Scale"
  bottom: "conv4_7/expand"
  top: "conv4_7/expand"
  param {
    lr_mult: 1
    decay_mult: 0
  }
  param {
    lr_mult: 1
    decay_mult: 0
  }
  scale_param {
    bias_term: true
  }
}
layer {
  name: "relu4_7/expand"
  type: "ReLU"
  bottom: "conv4_7/expand"
  top: "conv4_7/expand"
}
layer {
  name: "conv4_7/dwise"
  type: "DepthwiseConvolution"
  bottom: "conv4_7/expand"
  top: "conv4_7/dwise"
  param {
    lr_mult: 1
    decay_mult: 1
  }
  convolution_param {
    num_output: 384
    bias_term: false
    pad: 1
    kernel_size: 3
    group: 384
    stride: 2
    weight_filler {
      type: "msra"
    }
  }
}
layer {
  name: "conv4_7/dwise/bn"
  type: "BatchNorm"
  bottom: "conv4_7/dwise"
  top: "conv4_7/dwise"
  batch_norm_param {
    use_global_stats: true
    eps: 1e-05
  }
}
layer {
  name: "conv4_7/dwise/scale"
  type: "Scale"
  bottom: "conv4_7/dwise"
  top: "conv4_7/dwise"
  param {
    lr_mult: 1
    decay_mult: 0
  }
  param {
    lr_mult: 1
    decay_mult: 0
  }
  scale_param {
    bias_term: true
  }
}
layer {
  name: "relu4_7/dwise"
  type: "ReLU"
  bottom: "conv4_7/dwise"
  top: "conv4_7/dwise"
}
layer {
  name: "conv4_7/linear"
  type: "Convolution"
  bottom: "conv4_7/dwise"
  top: "conv4_7/linear"
  param {
    lr_mult: 1
    decay_mult: 1
  }
  convolution_param {
    num_output: 96
    bias_term: false
    kernel_size: 1
    weight_filler {
      type: "msra"
    }
  }
}
layer {
  name: "conv4_7/linear/bn"
  type: "BatchNorm"
  bottom: "conv4_7/linear"
  top: "conv4_7/linear"
  batch_norm_param {
    use_global_stats: true
    eps: 1e-05
  }
}
layer {
  name: "conv4_7/linear/scale"
  type: "Scale"
  bottom: "conv4_7/linear"
  top: "conv4_7/linear"
  param {
    lr_mult: 1
    de
I0929 19:41:48.300926 12521 layer_factory.hpp:77] Creating layer data
I0929 19:41:48.301017 12521 net.cpp:100] Creating Layer data
I0929 19:41:48.301025 12521 net.cpp:408] data -> data
I0929 19:41:48.301049 12521 net.cpp:408] data -> label
I0929 19:41:48.301573 12531 db_lmdb.cpp:35] Opened lmdb examples/GTSDB/GTSDB_trainval_lmdb
I0929 19:41:48.314146 12521 annotated_data_layer.cpp:62] output data size: 1,3,300,510
I0929 19:41:48.316843 12521 net.cpp:150] Setting up data
I0929 19:41:48.316860 12521 net.cpp:157] Top shape: 1 3 300 510 (459000)
I0929 19:41:48.316864 12521 net.cpp:157] Top shape: 1 1 3 8 (24)
I0929 19:41:48.316865 12521 net.cpp:165] Memory required for data: 1836096
I0929 19:41:48.316874 12521 layer_factory.hpp:77] Creating layer data_data_0_split
I0929 19:41:48.316882 12521 net.cpp:100] Creating Layer data_data_0_split
I0929 19:41:48.316885 12521 net.cpp:434] data_data_0_split <- data
I0929 19:41:48.316895 12521 net.cpp:408] data_data_0_split -> data_data_0_split_0
I0929 19:41:48.316902 12521 net.cpp:408] data_data_0_split -> data_data_0_split_1
I0929 19:41:48.316906 12521 net.cpp:408] data_data_0_split -> data_data_0_split_2
I0929 19:41:48.316911 12521 net.cpp:408] data_data_0_split -> data_data_0_split_3
I0929 19:41:48.316915 12521 net.cpp:408] data_data_0_split -> data_data_0_split_4
I0929 19:41:48.316918 12521 net.cpp:408] data_data_0_split -> data_data_0_split_5
I0929 19:41:48.316921 12521 net.cpp:408] data_data_0_split -> data_data_0_split_6
I0929 19:41:48.316987 12521 net.cpp:150] Setting up data_data_0_split
I0929 19:41:48.316992 12521 net.cpp:157] Top shape: 1 3 300 510 (459000)
I0929 19:41:48.316994 12521 net.cpp:157] Top shape: 1 3 300 510 (459000)
I0929 19:41:48.316998 12521 net.cpp:157] Top shape: 1 3 300 510 (459000)
I0929 19:41:48.316999 12521 net.cpp:157] Top shape: 1 3 300 510 (459000)
I0929 19:41:48.317001 12521 net.cpp:157] Top shape: 1 3 300 510 (459000)
I0929 19:41:48.317004 12521 net.cpp:157] Top shape: 1 3 300 510 (459000)
I0929 19:41:48.317006 12521 net.cpp:157] Top shape: 1 3 300 510 (459000)
I0929 19:41:48.317008 12521 net.cpp:165] Memory required for data: 14688096
I0929 19:41:48.317010 12521 layer_factory.hpp:77] Creating layer conv1
I0929 19:41:48.317020 12521 net.cpp:100] Creating Layer conv1
I0929 19:41:48.317023 12521 net.cpp:434] conv1 <- data_data_0_split_0
I0929 19:41:48.317026 12521 net.cpp:408] conv1 -> conv1
I0929 19:41:48.640836 12521 net.cpp:150] Setting up conv1
I0929 19:41:48.640853 12521 net.cpp:157] Top shape: 1 32 150 255 (1224000)
I0929 19:41:48.640856 12521 net.cpp:165] Memory required for data: 19584096
I0929 19:41:48.640872 12521 layer_factory.hpp:77] Creating layer conv1/bn
I0929 19:41:48.640878 12521 net.cpp:100] Creating Layer conv1/bn
I0929 19:41:48.640882 12521 net.cpp:434] conv1/bn <- conv1
I0929 19:41:48.640884 12521 net.cpp:395] conv1/bn -> conv1 (in-place)
I0929 19:41:48.641453 12521 net.cpp:150] Setting up conv1/bn
I0929 19:41:48.641461 12521 net.cpp:157] Top shape: 1 32 150 255 (1224000)
I0929 19:41:48.641463 12521 net.cpp:165] Memory required for data: 24480096
I0929 19:41:48.641471 12521 layer_factory.hpp:77] Creating layer conv1/scale
I0929 19:41:48.641477 12521 net.cpp:100] Creating Layer conv1/scale
I0929 19:41:48.641479 12521 net.cpp:434] conv1/scale <- conv1
I0929 19:41:48.641484 12521 net.cpp:395] conv1/scale -> conv1 (in-place)
I0929 19:41:48.641510 12521 layer_factory.hpp:77] Creating layer conv1/scale
I0929 19:41:48.641594 12521 net.cpp:150] Setting up conv1/scale
I0929 19:41:48.641599 12521 net.cpp:157] Top shape: 1 32 150 255 (1224000)
I0929 19:41:48.641602 12521 net.cpp:165] Memory required for data: 29376096
I0929 19:41:48.641605 12521 layer_factory.hpp:77] Creating layer relu1
I0929 19:41:48.641609 12521 net.cpp:100] Creating Layer relu1
I0929 19:41:48.641611 12521 net.cpp:434] relu1 <- conv1
I0929 19:41:48.641614 12521 net.cpp:395] relu1 -> conv1 (in-place)
I0929 19:41:48.641885 12521 net.cpp:150] Setting up relu1
I0929 19:41:48.641891 12521 net.cpp:157] Top shape: 1 32 150 255 (1224000)
I0929 19:41:48.641892 12521 net.cpp:165] Memory required for data: 34272096
I0929 19:41:48.641894 12521 layer_factory.hpp:77] Creating layer conv2_1/expand
I0929 19:41:48.641901 12521 net.cpp:100] Creating Layer conv2_1/expand
I0929 19:41:48.641903 12521 net.cpp:434] conv2_1/expand <- conv1
I0929 19:41:48.641906 12521 net.cpp:408] conv2_1/expand -> conv2_1/expand
I0929 19:41:48.643024 12521 net.cpp:150] Setting up conv2_1/expand
I0929 19:41:48.643031 12521 net.cpp:157] Top shape: 1 32 150 255 (1224000)
I0929 19:41:48.643033 12521 net.cpp:165] Memory required for data: 39168096
I0929 19:41:48.643036 12521 layer_factory.hpp:77] Creating layer conv2_1/expand/bn
I0929 19:41:48.643043 12521 net.cpp:100] Creating Layer conv2_1/expand/bn
I0929 19:41:48.643044 12521 net.cpp:434] conv2_1/expand/bn <- conv2_1/expand
I0929 19:41:48.643046 12521 net.cpp:395] conv2_1/expand/bn -> conv2_1/expand (in-place)
I0929 19:41:48.643172 12521 net.cpp:150] Setting up conv2_1/expand/bn
I0929 19:41:48.643177 12521 net.cpp:157] Top shape: 1 32 150 255 (1224000)
I0929 19:41:48.643177 12521 net.cpp:165] Memory required for data: 44064096
I0929 19:41:48.643184 12521 layer_factory.hpp:77] Creating layer conv2_1/expand/scale
I0929 19:41:48.643188 12521 net.cpp:100] Creating Layer conv2_1/expand/scale
I0929 19:41:48.643191 12521 net.cpp:434] conv2_1/expand/scale <- conv2_1/expand
I0929 19:41:48.643194 12521 net.cpp:395] conv2_1/expand/scale -> conv2_1/expand (in-place)
I0929 19:41:48.643216 12521 layer_factory.hpp:77] Creating layer conv2_1/expand/scale
I0929 19:41:48.643311 12521 net.cpp:150] Setting up conv2_1/expand/scale
I0929 19:41:48.643316 12521 net.cpp:157] Top shape: 1 32 150 255 (1224000)
I0929 19:41:48.643317 12521 net.cpp:165] Memory required for data: 48960096
I0929 19:41:48.643321 12521 layer_factory.hpp:77] Creating layer relu2_1/expand
I0929 19:41:48.643324 12521 net.cpp:100] Creating Layer relu2_1/expand
I0929 19:41:48.643327 12521 net.cpp:434] relu2_1/expand <- conv2_1/expand
I0929 19:41:48.643329 12521 net.cpp:395] relu2_1/expand -> conv2_1/expand (in-place)
I0929 19:41:48.643585 12521 net.cpp:150] Setting up relu2_1/expand
I0929 19:41:48.643590 12521 net.cpp:157] Top shape: 1 32 150 255 (1224000)
I0929 19:41:48.643594 12521 net.cpp:165] Memory required for data: 53856096
I0929 19:41:48.643595 12521 layer_factory.hpp:77] Creating layer conv2_1/dwise
I0929 19:41:48.643600 12521 net.cpp:100] Creating Layer conv2_1/dwise
I0929 19:41:48.643602 12521 net.cpp:434] conv2_1/dwise <- conv2_1/expand
I0929 19:41:48.643606 12521 net.cpp:408] conv2_1/dwise -> conv2_1/dwise
I0929 19:41:48.643721 12521 net.cpp:150] Setting up conv2_1/dwise
I0929 19:41:48.643726 12521 net.cpp:157] Top shape: 1 32 150 255 (1224000)
I0929 19:41:48.643728 12521 net.cpp:165] Memory required for data: 58752096
I0929 19:41:48.643731 12521 layer_factory.hpp:77] Creating layer conv2_1/dwise/bn
I0929 19:41:48.643735 12521 net.cpp:100] Creating Layer conv2_1/dwise/bn
I0929 19:41:48.643738 12521 net.cpp:434] conv2_1/dwise/bn <- conv2_1/dwise
I0929 19:41:48.643740 12521 net.cpp:395] conv2_1/dwise/bn -> conv2_1/dwise (in-place)
I0929 19:41:48.643862 12521 net.cpp:150] Setting up conv2_1/dwise/bn
I0929 19:41:48.643865 12521 net.cpp:157] Top shape: 1 32 150 255 (1224000)
I0929 19:41:48.643867 12521 net.cpp:165] Memory required for data: 63648096
I0929 19:41:48.643870 12521 layer_factory.hpp:77] Creating layer conv2_1/dwise/scale
I0929 19:41:48.643874 12521 net.cpp:100] Creating Layer conv2_1/dwise/scale
I0929 19:41:48.643877 12521 net.cpp:434] conv2_1/dwise/scale <- conv2_1/dwise
I0929 19:41:48.643879 12521 net.cpp:395] conv2_1/dwise/scale -> conv2_1/dwise (in-place)
I0929 19:41:48.643901 12521 layer_factory.hpp:77] Creating layer conv2_1/dwise/scale
I0929 19:41:48.643985 12521 net.cpp:150] Setting up conv2_1/dwise/scale
I0929 19:41:48.643990 12521 net.cpp:157] Top shape: 1 32 150 255 (1224000)
I0929 19:41:48.643991 12521 net.cpp:165] Memory required for data: 68544096
I0929 19:41:48.643997 12521 layer_factory.hpp:77] Creating layer relu2_1/dwise
I0929 19:41:48.644001 12521 net.cpp:100] Creating Layer relu2_1/dwise
I0929 19:41:48.644004 12521 net.cpp:434] relu2_1/dwise <- conv2_1/dwise
I0929 19:41:48.644006 12521 net.cpp:395] relu2_1/dwise -> conv2_1/dwise (in-place)
I0929 19:41:48.644264 12521 net.cpp:150] Setting up relu2_1/dwise
I0929 19:41:48.644271 12521 net.cpp:157] Top shape: 1 32 150 255 (1224000)
I0929 19:41:48.644273 12521 net.cpp:165] Memory required for data: 73440096
I0929 19:41:48.644275 12521 layer_factory.hpp:77] Creating layer conv2_1/linear
I0929 19:41:48.644280 12521 net.cpp:100] Creating Layer conv2_1/linear
I0929 19:41:48.644284 12521 net.cpp:434] conv2_1/linear <- conv2_1/dwise
I0929 19:41:48.644286 12521 net.cpp:408] conv2_1/linear -> conv2_1/linear
I0929 19:41:48.645382 12521 net.cpp:150] Setting up conv2_1/linear
I0929 19:41:48.645390 12521 net.cpp:157] Top shape: 1 16 150 255 (612000)
I0929 19:41:48.645391 12521 net.cpp:165] Memory required for data: 75888096
I0929 19:41:48.645395 12521 layer_factory.hpp:77] Creating layer conv2_1/linear/bn
I0929 19:41:48.645400 12521 net.cpp:100] Creating Layer conv2_1/linear/bn
I0929 19:41:48.645402 12521 net.cpp:434] conv2_1/linear/bn <- conv2_1/linear
I0929 19:41:48.645406 12521 net.cpp:395] conv2_1/linear/bn -> conv2_1/linear (in-place)
I0929 19:41:48.645534 12521 net.cpp:150] Setting up conv2_1/linear/bn
I0929 19:41:48.645539 12521 net.cpp:157] Top shape: 1 16 150 255 (612000)
I0929 19:41:48.645540 12521 net.cpp:165] Memory required for data: 78336096
I0929 19:41:48.645545 12521 layer_factory.hpp:77] Creating layer conv2_1/linear/scale
I0929 19:41:48.645558 12521 net.cpp:100] Creating Layer conv2_1/linear/scale
I0929 19:41:48.645560 12521 net.cpp:434] conv2_1/linear/scale <- conv2_1/linear
I0929 19:41:48.645565 12521 net.cpp:395] conv2_1/linear/scale -> conv2_1/linear (in-place)
I0929 19:41:48.645588 12521 layer_factory.hpp:77] Creating layer conv2_1/linear/scale
I0929 19:41:48.645673 12521 net.cpp:150] Setting up conv2_1/linear/scale
I0929 19:41:48.645678 12521 net.cpp:157] Top shape: 1 16 150 255 (612000)
I0929 19:41:48.645679 12521 net.cpp:165] Memory required for data: 80784096
I0929 19:41:48.645684 12521 layer_factory.hpp:77] Creating layer conv2_2/expand
I0929 19:41:48.645689 12521 net.cpp:100] Creating Layer conv2_2/expand
I0929 19:41:48.645690 12521 net.cpp:434] conv2_2/expand <- conv2_1/linear
I0929 19:41:48.645694 12521 net.cpp:408] conv2_2/expand -> conv2_2/expand
I0929 19:41:48.647262 12521 net.cpp:150] Setting up conv2_2/expand
I0929 19:41:48.647272 12521 net.cpp:157] Top shape: 1 96 150 255 (3672000)
I0929 19:41:48.647274 12521 net.cpp:165] Memory required for data: 95472096
I0929 19:41:48.647279 12521 layer_factory.hpp:77] Creating layer conv2_2/expand/bn
I0929 19:41:48.647284 12521 net.cpp:100] Creating Layer conv2_2/expand/bn
I0929 19:41:48.647286 12521 net.cpp:434] conv2_2/expand/bn <- conv2_2/expand
I0929 19:41:48.647290 12521 net.cpp:395] conv2_2/expand/bn -> conv2_2/expand (in-place)
I0929 19:41:48.647421 12521 net.cpp:150] Setting up conv2_2/expand/bn
I0929 19:41:48.647426 12521 net.cpp:157] Top shape: 1 96 150 255 (3672000)
I0929 19:41:48.647428 12521 net.cpp:165] Memory required for data: 110160096
I0929 19:41:48.647433 12521 layer_factory.hpp:77] Creating layer conv2_2/expand/scale
I0929 19:41:48.647436 12521 net.cpp:100] Creating Layer conv2_2/expand/scale
I0929 19:41:48.647439 12521 net.cpp:434] conv2_2/expand/scale <- conv2_2/expand
I0929 19:41:48.647441 12521 net.cpp:395] conv2_2/expand/scale -> conv2_2/expand (in-place)
I0929 19:41:48.647465 12521 layer_factory.hpp:77] Creating layer conv2_2/expand/scale
I0929 19:41:48.647972 12521 net.cpp:150] Setting up conv2_2/expand/scale
I0929 19:41:48.647979 12521 net.cpp:157] Top shape: 1 96 150 255 (3672000)
I0929 19:41:48.647981 12521 net.cpp:165] Memory required for data: 124848096
I0929 19:41:48.647985 12521 layer_factory.hpp:77] Creating layer relu2_2/expand
I0929 19:41:48.647990 12521 net.cpp:100] Creating Layer relu2_2/expand
I0929 19:41:48.647992 12521 net.cpp:434] relu2_2/expand <- conv2_2/expand
I0929 19:41:48.647995 12521 net.cpp:395] relu2_2/expand -> conv2_2/expand (in-place)
I0929 19:41:48.648262 12521 net.cpp:150] Setting up relu2_2/expand
I0929 19:41:48.648267 12521 net.cpp:157] Top shape: 1 96 150 255 (3672000)
I0929 19:41:48.648269 12521 net.cpp:165] Memory required for data: 139536096
I0929 19:41:48.648272 12521 layer_factory.hpp:77] Creating layer conv2_2/dwise
I0929 19:41:48.648277 12521 net.cpp:100] Creating Layer conv2_2/dwise
I0929 19:41:48.648279 12521 net.cpp:434] conv2_2/dwise <- conv2_2/expand
I0929 19:41:48.648283 12521 net.cpp:408] conv2_2/dwise -> conv2_2/dwise
I0929 19:41:48.648409 12521 net.cpp:150] Setting up conv2_2/dwise
I0929 19:41:48.648414 12521 net.cpp:157] Top shape: 1 96 75 128 (921600)
I0929 19:41:48.648416 12521 net.cpp:165] Memory required for data: 143222496
I0929 19:41:48.648419 12521 layer_factory.hpp:77] Creating layer conv2_2/dwise/bn
I0929 19:41:48.648423 12521 net.cpp:100] Creating Layer conv2_2/dwise/bn
I0929 19:41:48.648427 12521 net.cpp:434] conv2_2/dwise/bn <- conv2_2/dwise
I0929 19:41:48.648428 12521 net.cpp:395] conv2_2/dwise/bn -> conv2_2/dwise (in-place)
I0929 19:41:48.649068 12521 net.cpp:150] Setting up conv2_2/dwise/bn
I0929 19:41:48.649076 12521 net.cpp:157] Top shape: 1 96 75 128 (921600)
I0929 19:41:48.649077 12521 net.cpp:165] Memory required for data: 146908896
I0929 19:41:48.649087 12521 layer_factory.hpp:77] Creating layer conv2_2/dwise/scale
I0929 19:41:48.649093 12521 net.cpp:100] Creating Layer conv2_2/dwise/scale
I0929 19:41:48.649096 12521 net.cpp:434] conv2_2/dwise/scale <- conv2_2/dwise
I0929 19:41:48.649116 12521 net.cpp:395] conv2_2/dwise/scale -> conv2_2/dwise (in-place)
I0929 19:41:48.649147 12521 layer_factory.hpp:77] Creating layer conv2_2/dwise/scale
I0929 19:41:48.649221 12521 net.cpp:150] Setting up conv2_2/dwise/scale
I0929 19:41:48.649225 12521 net.cpp:157] Top shape: 1 96 75 128 (921600)
I0929 19:41:48.649227 12521 net.cpp:165] Memory required for data: 150595296
I0929 19:41:48.649230 12521 layer_factory.hpp:77] Creating layer relu2_2/dwise
I0929 19:41:48.649235 12521 net.cpp:100] Creating Layer relu2_2/dwise
I0929 19:41:48.649237 12521 net.cpp:434] relu2_2/dwise <- conv2_2/dwise
I0929 19:41:48.649240 12521 net.cpp:395] relu2_2/dwise -> conv2_2/dwise (in-place)
I0929 19:41:48.649636 12521 net.cpp:150] Setting up relu2_2/dwise
I0929 19:41:48.649643 12521 net.cpp:157] Top shape: 1 96 75 128 (921600)
I0929 19:41:48.649646 12521 net.cpp:165] Memory required for data: 154281696
I0929 19:41:48.649647 12521 layer_factory.hpp:77] Creating layer conv2_2/linear
I0929 19:41:48.649654 12521 net.cpp:100] Creating Layer conv2_2/linear
I0929 19:41:48.649657 12521 net.cpp:434] conv2_2/linear <- conv2_2/dwise
I0929 19:41:48.649662 12521 net.cpp:408] conv2_2/linear -> conv2_2/linear
I0929 19:41:48.651080 12521 net.cpp:150] Setting up conv2_2/linear
I0929 19:41:48.651106 12521 net.cpp:157] Top shape: 1 24 75 128 (230400)
I0929 19:41:48.651109 12521 net.cpp:165] Memory required for data: 155203296
I0929 19:41:48.651118 12521 layer_factory.hpp:77] Creating layer conv2_2/linear/bn
I0929 19:41:48.651129 12521 net.cpp:100] Creating Layer conv2_2/linear/bn
I0929 19:41:48.651132 12521 net.cpp:434] conv2_2/linear/bn <- conv2_2/linear
I0929 19:41:48.651137 12521 net.cpp:395] conv2_2/linear/bn -> conv2_2/linear (in-place)
I0929 19:41:48.651284 12521 net.cpp:150] Setting up conv2_2/linear/bn
I0929 19:41:48.651289 12521 net.cpp:157] Top shape: 1 24 75 128 (230400)
I0929 19:41:48.651291 12521 net.cpp:165] Memory required for data: 156124896
I0929 19:41:48.651298 12521 layer_factory.hpp:77] Creating layer conv2_2/linear/scale
I0929 19:41:48.651304 12521 net.cpp:100] Creating Layer conv2_2/linear/scale
I0929 19:41:48.651305 12521 net.cpp:434] conv2_2/linear/scale <- conv2_2/linear
I0929 19:41:48.651309 12521 net.cpp:395] conv2_2/linear/scale -> conv2_2/linear (in-place)
I0929 19:41:48.651335 12521 layer_factory.hpp:77] Creating layer conv2_2/linear/scale
I0929 19:41:48.651409 12521 net.cpp:150] Setting up conv2_2/linear/scale
I0929 19:41:48.651413 12521 net.cpp:157] Top shape: 1 24 75 128 (230400)
I0929 19:41:48.651415 12521 net.cpp:165] Memory required for data: 157046496
I0929 19:41:48.651418 12521 layer_factory.hpp:77] Creating layer conv2_2/linear_conv2_2/linear/scale_0_split
I0929 19:41:48.651423 12521 net.cpp:100] Creating Layer conv2_2/linear_conv2_2/linear/scale_0_split
I0929 19:41:48.651425 12521 net.cpp:434] conv2_2/linear_conv2_2/linear/scale_0_split <- conv2_2/linear
I0929 19:41:48.651428 12521 net.cpp:408] conv2_2/linear_conv2_2/linear/scale_0_split -> conv2_2/linear_conv2_2/linear/scale_0_split_0
I0929 19:41:48.651437 12521 net.cpp:408] conv2_2/linear_conv2_2/linear/scale_0_split -> conv2_2/linear_conv2_2/linear/scale_0_split_1
I0929 19:41:48.651459 12521 net.cpp:150] Setting up conv2_2/linear_conv2_2/linear/scale_0_split
I0929 19:41:48.651463 12521 net.cpp:157] Top shape: 1 24 75 128 (230400)
I0929 19:41:48.651465 12521 net.cpp:157] Top shape: 1 24 75 128 (230400)
I0929 19:41:48.651468 12521 net.cpp:165] Memory required for data: 158889696
I0929 19:41:48.651469 12521 layer_factory.hpp:77] Creating layer conv3_1/expand
I0929 19:41:48.651475 12521 net.cpp:100] Creating Layer conv3_1/expand
I0929 19:41:48.651479 12521 net.cpp:434] conv3_1/expand <- conv2_2/linear_conv2_2/linear/scale_0_split_0
I0929 19:41:48.651481 12521 net.cpp:408] conv3_1/expand -> conv3_1/expand
I0929 19:41:48.652751 12521 net.cpp:150] Setting up conv3_1/expand
I0929 19:41:48.652765 12521 net.cpp:157] Top shape: 1 144 75 128 (1382400)
I0929 19:41:48.652767 12521 net.cpp:165] Memory required for data: 164419296
I0929 19:41:48.652789 12521 layer_factory.hpp:77] Creating layer conv3_1/expand/bn
I0929 19:41:48.652797 12521 net.cpp:100] Creating Layer conv3_1/expand/bn
I0929 19:41:48.652801 12521 net.cpp:434] conv3_1/expand/bn <- conv3_1/expand
I0929 19:41:48.652804 12521 net.cpp:395] conv3_1/expand/bn -> conv3_1/expand (in-place)
I0929 19:41:48.652932 12521 net.cpp:150] Setting up conv3_1/expand/bn
I0929 19:41:48.652937 12521 net.cpp:157] Top shape: 1 144 75 128 (1382400)
I0929 19:41:48.652940 12521 net.cpp:165] Memory required for data: 169948896
I0929 19:41:48.652946 12521 layer_factory.hpp:77] Creating layer conv3_1/expand/scale
I0929 19:41:48.652952 12521 net.cpp:100] Creating Layer conv3_1/expand/scale
I0929 19:41:48.652956 12521 net.cpp:434] conv3_1/expand/scale <- conv3_1/expand
I0929 19:41:48.652961 12521 net.cpp:395] conv3_1/expand/scale -> conv3_1/expand (in-place)
I0929 19:41:48.652999 12521 layer_factory.hpp:77] Creating layer conv3_1/expand/scale
I0929 19:41:48.653091 12521 net.cpp:150] Setting up conv3_1/expand/scale
I0929 19:41:48.653097 12521 net.cpp:157] Top shape: 1 144 75 128 (1382400)
I0929 19:41:48.653098 12521 net.cpp:165] Memory required for data: 175478496
I0929 19:41:48.653102 12521 layer_factory.hpp:77] Creating layer relu3_1/expand
I0929 19:41:48.653111 12521 net.cpp:100] Creating Layer relu3_1/expand
I0929 19:41:48.653113 12521 net.cpp:434] relu3_1/expand <- conv3_1/expand
I0929 19:41:48.653116 12521 net.cpp:395] relu3_1/expand -> conv3_1/expand (in-place)
I0929 19:41:48.653391 12521 net.cpp:150] Setting up relu3_1/expand
I0929 19:41:48.653398 12521 net.cpp:157] Top shape: 1 144 75 128 (1382400)
I0929 19:41:48.653400 12521 net.cpp:165] Memory required for data: 181008096
I0929 19:41:48.653403 12521 layer_factory.hpp:77] Creating layer conv3_1/dwise
I0929 19:41:48.653409 12521 net.cpp:100] Creating Layer conv3_1/dwise
I0929 19:41:48.653410 12521 net.cpp:434] conv3_1/dwise <- conv3_1/expand
I0929 19:41:48.653414 12521 net.cpp:408] conv3_1/dwise -> conv3_1/dwise
I0929 19:41:48.653545 12521 net.cpp:150] Setting up conv3_1/dwise
I0929 19:41:48.653549 12521 net.cpp:157] Top shape: 1 144 75 128 (1382400)
I0929 19:41:48.653551 12521 net.cpp:165] Memory required for data: 186537696
I0929 19:41:48.653554 12521 layer_factory.hpp:77] Creating layer conv3_1/dwise/bn
I0929 19:41:48.653558 12521 net.cpp:100] Creating Layer conv3_1/dwise/bn
I0929 19:41:48.653560 12521 net.cpp:434] conv3_1/dwise/bn <- conv3_1/dwise
I0929 19:41:48.653563 12521 net.cpp:395] conv3_1/dwise/bn -> conv3_1/dwise (in-place)
I0929 19:41:48.653678 12521 net.cpp:150] Setting up conv3_1/dwise/bn
I0929 19:41:48.653682 12521 net.cpp:157] Top shape: 1 144 75 128 (1382400)
I0929 19:41:48.653684 12521 net.cpp:165] Memory required for data: 192067296
I0929 19:41:48.653689 12521 layer_factory.hpp:77] Creating layer conv3_1/dwise/scale
I0929 19:41:48.653693 12521 net.cpp:100] Creating Layer conv3_1/dwise/scale
I0929 19:41:48.653695 12521 net.cpp:434] conv3_1/dwise/scale <- conv3_1/dwise
I0929 19:41:48.653698 12521 net.cpp:395] conv3_1/dwise/scale -> conv3_1/dwise (in-place)
I0929 19:41:48.653720 12521 layer_factory.hpp:77] Creating layer conv3_1/dwise/scale
I0929 19:41:48.653789 12521 net.cpp:150] Setting up conv3_1/dwise/scale
I0929 19:41:48.653792 12521 net.cpp:157] Top shape: 1 144 75 128 (1382400)
I0929 19:41:48.653795 12521 net.cpp:165] Memory required for data: 197596896
I0929 19:41:48.653798 12521 layer_factory.hpp:77] Creating layer relu3_1/dwise
I0929 19:41:48.653803 12521 net.cpp:100] Creating Layer relu3_1/dwise
I0929 19:41:48.653805 12521 net.cpp:434] relu3_1/dwise <- conv3_1/dwise
I0929 19:41:48.653807 12521 net.cpp:395] relu3_1/dwise -> conv3_1/dwise (in-place)
I0929 19:41:48.654296 12521 net.cpp:150] Setting up relu3_1/dwise
I0929 19:41:48.654307 12521 net.cpp:157] Top shape: 1 144 75 128 (1382400)
I0929 19:41:48.654310 12521 net.cpp:165] Memory required for data: 203126496
I0929 19:41:48.654314 12521 layer_factory.hpp:77] Creating layer conv3_1/linear
I0929 19:41:48.654325 12521 net.cpp:100] Creating Layer conv3_1/linear
I0929 19:41:48.654337 12521 net.cpp:434] conv3_1/linear <- conv3_1/dwise
I0929 19:41:48.654343 12521 net.cpp:408] conv3_1/linear -> conv3_1/linear
I0929 19:41:48.655462 12521 net.cpp:150] Setting up conv3_1/linear
I0929 19:41:48.655473 12521 net.cpp:157] Top shape: 1 24 75 128 (230400)
I0929 19:41:48.655477 12521 net.cpp:165] Memory required for data: 204048096
I0929 19:41:48.655483 12521 layer_factory.hpp:77] Creating layer conv3_1/linear/bn
I0929 19:41:48.655489 12521 net.cpp:100] Creating Layer conv3_1/linear/bn
I0929 19:41:48.655493 12521 net.cpp:434] conv3_1/linear/bn <- conv3_1/linear
I0929 19:41:48.655498 12521 net.cpp:395] conv3_1/linear/bn -> conv3_1/linear (in-place)
I0929 19:41:48.655628 12521 net.cpp:150] Setting up conv3_1/linear/bn
I0929 19:41:48.655633 12521 net.cpp:157] Top shape: 1 24 75 128 (230400)
I0929 19:41:48.655637 12521 net.cpp:165] Memory required for data: 204969696
I0929 19:41:48.655643 12521 layer_factory.hpp:77] Creating layer conv3_1/linear/scale
I0929 19:41:48.655649 12521 net.cpp:100] Creating Layer conv3_1/linear/scale
I0929 19:41:48.655652 12521 net.cpp:434] conv3_1/linear/scale <- conv3_1/linear
I0929 19:41:48.655659 12521 net.cpp:395] conv3_1/linear/scale -> conv3_1/linear (in-place)
I0929 19:41:48.655688 12521 layer_factory.hpp:77] Creating layer conv3_1/linear/scale
I0929 19:41:48.655762 12521 net.cpp:150] Setting up conv3_1/linear/scale
I0929 19:41:48.655767 12521 net.cpp:157] Top shape: 1 24 75 128 (230400)
I0929 19:41:48.655771 12521 net.cpp:165] Memory required for data: 205891296
I0929 19:41:48.655777 12521 layer_factory.hpp:77] Creating layer block_3_1
I0929 19:41:48.655782 12521 net.cpp:100] Creating Layer block_3_1
I0929 19:41:48.655786 12521 net.cpp:434] block_3_1 <- conv2_2/linear_conv2_2/linear/scale_0_split_1
I0929 19:41:48.655791 12521 net.cpp:434] block_3_1 <- conv3_1/linear
I0929 19:41:48.655797 12521 net.cpp:408] block_3_1 -> block_3_1
I0929 19:41:48.655814 12521 net.cpp:150] Setting up block_3_1
I0929 19:41:48.655822 12521 net.cpp:157] Top shape: 1 24 75 128 (230400)
I0929 19:41:48.655824 12521 net.cpp:165] Memory required for data: 206812896
I0929 19:41:48.655827 12521 layer_factory.hpp:77] Creating layer conv3_2/expand
I0929 19:41:48.655834 12521 net.cpp:100] Creating Layer conv3_2/expand
I0929 19:41:48.655838 12521 net.cpp:434] conv3_2/expand <- block_3_1
I0929 19:41:48.655843 12521 net.cpp:408] conv3_2/expand -> conv3_2/expand
I0929 19:41:48.656942 12521 net.cpp:150] Setting up conv3_2/expand
I0929 19:41:48.656951 12521 net.cpp:157] Top shape: 1 144 75 128 (1382400)
I0929 19:41:48.656953 12521 net.cpp:165] Memory required for data: 212342496
I0929 19:41:48.656960 12521 layer_factory.hpp:77] Creating layer conv3_2/expand/bn
I0929 19:41:48.656967 12521 net.cpp:100] Creating Layer conv3_2/expand/bn
I0929 19:41:48.656970 12521 net.cpp:434] conv3_2/expand/bn <- conv3_2/expand
I0929 19:41:48.656977 12521 net.cpp:395] conv3_2/expand/bn -> conv3_2/expand (in-place)
I0929 19:41:48.657104 12521 net.cpp:150] Setting up conv3_2/expand/bn
I0929 19:41:48.657109 12521 net.cpp:157] Top shape: 1 144 75 128 (1382400)
I0929 19:41:48.657111 12521 net.cpp:165] Memory required for data: 217872096
I0929 19:41:48.657117 12521 layer_factory.hpp:77] Creating layer conv3_2/expand/scale
I0929 19:41:48.657124 12521 net.cpp:100] Creating Layer conv3_2/expand/scale
I0929 19:41:48.657127 12521 net.cpp:434] conv3_2/expand/scale <- conv3_2/expand
I0929 19:41:48.657131 12521 net.cpp:395] conv3_2/expand/scale -> conv3_2/expand (in-place)
I0929 19:41:48.657160 12521 layer_factory.hpp:77] Creating layer conv3_2/expand/scale
I0929 19:41:48.657235 12521 net.cpp:150] Setting up conv3_2/expand/scale
I0929 19:41:48.657240 12521 net.cpp:157] Top shape: 1 144 75 128 (1382400)
I0929 19:41:48.657243 12521 net.cpp:165] Memory required for data: 223401696
I0929 19:41:48.657254 12521 layer_factory.hpp:77] Creating layer relu3_2/expand
I0929 19:41:48.657259 12521 net.cpp:100] Creating Layer relu3_2/expand
I0929 19:41:48.657263 12521 net.cpp:434] relu3_2/expand <- conv3_2/expand
I0929 19:41:48.657268 12521 net.cpp:395] relu3_2/expand -> conv3_2/expand (in-place)
I0929 19:41:48.657657 12521 net.cpp:150] Setting up relu3_2/expand
I0929 19:41:48.657665 12521 net.cpp:157] Top shape: 1 144 75 128 (1382400)
I0929 19:41:48.657668 12521 net.cpp:165] Memory required for data: 228931296
I0929 19:41:48.657671 12521 layer_factory.hpp:77] Creating layer conv3_2/dwise
I0929 19:41:48.657680 12521 net.cpp:100] Creating Layer conv3_2/dwise
I0929 19:41:48.657682 12521 net.cpp:434] conv3_2/dwise <- conv3_2/expand
I0929 19:41:48.657687 12521 net.cpp:408] conv3_2/dwise -> conv3_2/dwise
I0929 19:41:48.657822 12521 net.cpp:150] Setting up conv3_2/dwise
I0929 19:41:48.657829 12521 net.cpp:157] Top shape: 1 144 38 64 (350208)
I0929 19:41:48.657832 12521 net.cpp:165] Memory required for data: 230332128
I0929 19:41:48.657837 12521 layer_factory.hpp:77] Creating layer conv3_2/dwise/bn
I0929 19:41:48.657842 12521 net.cpp:100] Creating Layer conv3_2/dwise/bn
I0929 19:41:48.657846 12521 net.cpp:434] conv3_2/dwise/bn <- conv3_2/dwise
I0929 19:41:48.657851 12521 net.cpp:395] conv3_2/dwise/bn -> conv3_2/dwise (in-place)
I0929 19:41:48.657974 12521 net.cpp:150] Setting up conv3_2/dwise/bn
I0929 19:41:48.657979 12521 net.cpp:157] Top shape: 1 144 38 64 (350208)
I0929 19:41:48.657981 12521 net.cpp:165] Memory required for data: 231732960
I0929 19:41:48.657989 12521 layer_factory.hpp:77] Creating layer conv3_2/dwise/scale
I0929 19:41:48.657995 12521 net.cpp:100] Creating Layer conv3_2/dwise/scale
I0929 19:41:48.657999 12521 net.cpp:434] conv3_2/dwise/scale <- conv3_2/dwise
I0929 19:41:48.658004 12521 net.cpp:395] conv3_2/dwise/scale -> conv3_2/dwise (in-place)
I0929 19:41:48.658030 12521 layer_factory.hpp:77] Creating layer conv3_2/dwise/scale
I0929 19:41:48.658100 12521 net.cpp:150] Setting up conv3_2/dwise/scale
I0929 19:41:48.658105 12521 net.cpp:157] Top shape: 1 144 38 64 (350208)
I0929 19:41:48.658108 12521 net.cpp:165] Memory required for data: 233133792
I0929 19:41:48.658114 12521 layer_factory.hpp:77] Creating layer relu3_2/dwise
I0929 19:41:48.658119 12521 net.cpp:100] Creating Layer relu3_2/dwise
I0929 19:41:48.658123 12521 net.cpp:434] relu3_2/dwise <- conv3_2/dwise
I0929 19:41:48.658128 12521 net.cpp:395] relu3_2/dwise -> conv3_2/dwise (in-place)
I0929 19:41:48.658394 12521 net.cpp:150] Setting up relu3_2/dwise
I0929 19:41:48.658402 12521 net.cpp:157] Top shape: 1 144 38 64 (350208)
I0929 19:41:48.658406 12521 net.cpp:165] Memory required for data: 234534624
I0929 19:41:48.658408 12521 layer_factory.hpp:77] Creating layer conv3_2/linear
I0929 19:41:48.658416 12521 net.cpp:100] Creating Layer conv3_2/linear
I0929 19:41:48.658419 12521 net.cpp:434] conv3_2/linear <- conv3_2/dwise
I0929 19:41:48.658423 12521 net.cpp:408] conv3_2/linear -> conv3_2/linear
I0929 19:41:48.659507 12521 net.cpp:150] Setting up conv3_2/linear
I0929 19:41:48.659515 12521 net.cpp:157] Top shape: 1 32 38 64 (77824)
I0929 19:41:48.659518 12521 net.cpp:165] Memory required for data: 234845920
I0929 19:41:48.659523 12521 layer_factory.hpp:77] Creating layer conv3_2/linear/bn
I0929 19:41:48.659530 12521 net.cpp:100] Creating Layer conv3_2/linear/bn
I0929 19:41:48.659533 12521 net.cpp:434] conv3_2/linear/bn <- conv3_2/linear
I0929 19:41:48.659539 12521 net.cpp:395] conv3_2/linear/bn -> conv3_2/linear (in-place)
I0929 19:41:48.659669 12521 net.cpp:150] Setting up conv3_2/linear/bn
I0929 19:41:48.659674 12521 net.cpp:157] Top shape: 1 32 38 64 (77824)
I0929 19:41:48.659677 12521 net.cpp:165] Memory required for data: 235157216
I0929 19:41:48.659684 12521 layer_factory.hpp:77] Creating layer conv3_2/linear/scale
I0929 19:41:48.659690 12521 net.cpp:100] Creating Layer conv3_2/linear/scale
I0929 19:41:48.659693 12521 net.cpp:434] conv3_2/linear/scale <- conv3_2/linear
I0929 19:41:48.659698 12521 net.cpp:395] conv3_2/linear/scale -> conv3_2/linear (in-place)
I0929 19:41:48.659727 12521 layer_factory.hpp:77] Creating layer conv3_2/linear/scale
I0929 19:41:48.659799 12521 net.cpp:150] Setting up conv3_2/linear/scale
I0929 19:41:48.659806 12521 net.cpp:157] Top shape: 1 32 38 64 (77824)
I0929 19:41:48.659808 12521 net.cpp:165] Memory required for data: 235468512
I0929 19:41:48.659823 12521 layer_factory.hpp:77] Creating layer conv3_2/linear_conv3_2/linear/scale_0_split
I0929 19:41:48.659831 12521 net.cpp:100] Creating Layer conv3_2/linear_conv3_2/linear/scale_0_split
I0929 19:41:48.659833 12521 net.cpp:434] conv3_2/linear_conv3_2/linear/scale_0_split <- conv3_2/linear
I0929 19:41:48.659839 12521 net.cpp:408] conv3_2/linear_conv3_2/linear/scale_0_split -> conv3_2/linear_conv3_2/linear/scale_0_split_0
I0929 19:41:48.659845 12521 net.cpp:408] conv3_2/linear_conv3_2/linear/scale_0_split -> conv3_2/linear_conv3_2/linear/scale_0_split_1
I0929 19:41:48.659873 12521 net.cpp:150] Setting up conv3_2/linear_conv3_2/linear/scale_0_split
I0929 19:41:48.659878 12521 net.cpp:157] Top shape: 1 32 38 64 (77824)
I0929 19:41:48.659881 12521 net.cpp:157] Top shape: 1 32 38 64 (77824)
I0929 19:41:48.659884 12521 net.cpp:165] Memory required for data: 236091104
I0929 19:41:48.659888 12521 layer_factory.hpp:77] Creating layer conv4_1/expand
I0929 19:41:48.659894 12521 net.cpp:100] Creating Layer conv4_1/expand
I0929 19:41:48.659898 12521 net.cpp:434] conv4_1/expand <- conv3_2/linear_conv3_2/linear/scale_0_split_0
I0929 19:41:48.659903 12521 net.cpp:408] conv4_1/expand -> conv4_1/expand
I0929 19:41:48.661011 12521 net.cpp:150] Setting up conv4_1/expand
I0929 19:41:48.661020 12521 net.cpp:157] Top shape: 1 192 38 64 (466944)
I0929 19:41:48.661022 12521 net.cpp:165] Memory required for data: 237958880
I0929 19:41:48.661027 12521 layer_factory.hpp:77] Creating layer conv4_1/expand/bn
I0929 19:41:48.661036 12521 net.cpp:100] Creating Layer conv4_1/expand/bn
I0929 19:41:48.661038 12521 net.cpp:434] conv4_1/expand/bn <- conv4_1/expand
I0929 19:41:48.661044 12521 net.cpp:395] conv4_1/expand/bn -> conv4_1/expand (in-place)
I0929 19:41:48.661172 12521 net.cpp:150] Setting up conv4_1/expand/bn
I0929 19:41:48.661178 12521 net.cpp:157] Top shape: 1 192 38 64 (466944)
I0929 19:41:48.661180 12521 net.cpp:165] Memory required for data: 239826656
I0929 19:41:48.661186 12521 layer_factory.hpp:77] Creating layer conv4_1/expand/scale
I0929 19:41:48.661191 12521 net.cpp:100] Creating Layer conv4_1/expand/scale
I0929 19:41:48.661193 12521 net.cpp:434] conv4_1/expand/scale <- conv4_1/expand
I0929 19:41:48.661197 12521 net.cpp:395] conv4_1/expand/scale -> conv4_1/expand (in-place)
I0929 19:41:48.661229 12521 layer_factory.hpp:77] Creating layer conv4_1/expand/scale
I0929 19:41:48.661300 12521 net.cpp:150] Setting up conv4_1/expand/scale
I0929 19:41:48.661304 12521 net.cpp:157] Top shape: 1 192 38 64 (466944)
I0929 19:41:48.661306 12521 net.cpp:165] Memory required for data: 241694432
I0929 19:41:48.661310 12521 layer_factory.hpp:77] Creating layer relu4_1/expand
I0929 19:41:48.661314 12521 net.cpp:100] Creating Layer relu4_1/expand
I0929 19:41:48.661316 12521 net.cpp:434] relu4_1/expand <- conv4_1/expand
I0929 19:41:48.661319 12521 net.cpp:395] relu4_1/expand -> conv4_1/expand (in-place)
I0929 19:41:48.661712 12521 net.cpp:150] Setting up relu4_1/expand
I0929 19:41:48.661718 12521 net.cpp:157] Top shape: 1 192 38 64 (466944)
I0929 19:41:48.661720 12521 net.cpp:165] Memory required for data: 243562208
I0929 19:41:48.661722 12521 layer_factory.hpp:77] Creating layer conv4_1/dwise
I0929 19:41:48.661728 12521 net.cpp:100] Creating Layer conv4_1/dwise
I0929 19:41:48.661731 12521 net.cpp:434] conv4_1/dwise <- conv4_1/expand
I0929 19:41:48.661734 12521 net.cpp:408] conv4_1/dwise -> conv4_1/dwise
I0929 19:41:48.661873 12521 net.cpp:150] Setting up conv4_1/dwise
I0929 19:41:48.661877 12521 net.cpp:157] Top shape: 1 192 38 64 (466944)
I0929 19:41:48.661880 12521 net.cpp:165] Memory required for data: 245429984
I0929 19:41:48.661883 12521 layer_factory.hpp:77] Creating layer conv4_1/dwise/bn
I0929 19:41:48.661887 12521 net.cpp:100] Creating Layer conv4_1/dwise/bn
I0929 19:41:48.661890 12521 net.cpp:434] conv4_1/dwise/bn <- conv4_1/dwise
I0929 19:41:48.661892 12521 net.cpp:395] conv4_1/dwise/bn -> conv4_1/dwise (in-place)
I0929 19:41:48.662012 12521 net.cpp:150] Setting up conv4_1/dwise/bn
I0929 19:41:48.662024 12521 net.cpp:157] Top shape: 1 192 38 64 (466944)
I0929 19:41:48.662026 12521 net.cpp:165] Memory required for data: 247297760
I0929 19:41:48.662031 12521 layer_factory.hpp:77] Creating layer conv4_1/dwise/scale
I0929 19:41:48.662034 12521 net.cpp:100] Creating Layer conv4_1/dwise/scale
I0929 19:41:48.662037 12521 net.cpp:434] conv4_1/dwise/scale <- conv4_1/dwise
I0929 19:41:48.662040 12521 net.cpp:395] conv4_1/dwise/scale -> conv4_1/dwise (in-place)
I0929 19:41:48.662065 12521 layer_factory.hpp:77] Creating layer conv4_1/dwise/scale
I0929 19:41:48.662133 12521 net.cpp:150] Setting up conv4_1/dwise/scale
I0929 19:41:48.662137 12521 net.cpp:157] Top shape: 1 192 38 64 (466944)
I0929 19:41:48.662140 12521 net.cpp:165] Memory required for data: 249165536
I0929 19:41:48.662143 12521 layer_factory.hpp:77] Creating layer relu4_1/dwise
I0929 19:41:48.662147 12521 net.cpp:100] Creating Layer relu4_1/dwise
I0929 19:41:48.662148 12521 net.cpp:434] relu4_1/dwise <- conv4_1/dwise
I0929 19:41:48.662153 12521 net.cpp:395] relu4_1/dwise -> conv4_1/dwise (in-place)
I0929 19:41:48.662484 12521 net.cpp:150] Setting up relu4_1/dwise
I0929 19:41:48.662490 12521 net.cpp:157] Top shape: 1 192 38 64 (466944)
I0929 19:41:48.662492 12521 net.cpp:165] Memory required for data: 251033312
I0929 19:41:48.662494 12521 layer_factory.hpp:77] Creating layer conv4_1/linear
I0929 19:41:48.662499 12521 net.cpp:100] Creating Layer conv4_1/linear
I0929 19:41:48.662501 12521 net.cpp:434] conv4_1/linear <- conv4_1/dwise
I0929 19:41:48.662505 12521 net.cpp:408] conv4_1/linear -> conv4_1/linear
I0929 19:41:48.663625 12521 net.cpp:150] Setting up conv4_1/linear
I0929 19:41:48.663633 12521 net.cpp:157] Top shape: 1 32 38 64 (77824)
I0929 19:41:48.663635 12521 net.cpp:165] Memory required for data: 251344608
I0929 19:41:48.663638 12521 layer_factory.hpp:77] Creating layer conv4_1/linear/bn
I0929 19:41:48.663643 12521 net.cpp:100] Creating Layer conv4_1/linear/bn
I0929 19:41:48.663645 12521 net.cpp:434] conv4_1/linear/bn <- conv4_1/linear
I0929 19:41:48.663648 12521 net.cpp:395] conv4_1/linear/bn -> conv4_1/linear (in-place)
I0929 19:41:48.663775 12521 net.cpp:150] Setting up conv4_1/linear/bn
I0929 19:41:48.663779 12521 net.cpp:157] Top shape: 1 32 38 64 (77824)
I0929 19:41:48.663781 12521 net.cpp:165] Memory required for data: 251655904
I0929 19:41:48.663785 12521 layer_factory.hpp:77] Creating layer conv4_1/linear/scale
I0929 19:41:48.663789 12521 net.cpp:100] Creating Layer conv4_1/linear/scale
I0929 19:41:48.663791 12521 net.cpp:434] conv4_1/linear/scale <- conv4_1/linear
I0929 19:41:48.663794 12521 net.cpp:395] conv4_1/linear/scale -> conv4_1/linear (in-place)
I0929 19:41:48.663818 12521 layer_factory.hpp:77] Creating layer conv4_1/linear/scale
I0929 19:41:48.663887 12521 net.cpp:150] Setting up conv4_1/linear/scale
I0929 19:41:48.663892 12521 net.cpp:157] Top shape: 1 32 38 64 (77824)
I0929 19:41:48.663893 12521 net.cpp:165] Memory required for data: 251967200
I0929 19:41:48.663897 12521 layer_factory.hpp:77] Creating layer block_4_1
I0929 19:41:48.663908 12521 net.cpp:100] Creating Layer block_4_1
I0929 19:41:48.663910 12521 net.cpp:434] block_4_1 <- conv3_2/linear_conv3_2/linear/scale_0_split_1
I0929 19:41:48.663913 12521 net.cpp:434] block_4_1 <- conv4_1/linear
I0929 19:41:48.663915 12521 net.cpp:408] block_4_1 -> block_4_1
I0929 19:41:48.663930 12521 net.cpp:150] Setting up block_4_1
I0929 19:41:48.663934 12521 net.cpp:157] Top shape: 1 32 38 64 (77824)
I0929 19:41:48.663936 12521 net.cpp:165] Memory required for data: 252278496
I0929 19:41:48.663938 12521 layer_factory.hpp:77] Creating layer block_4_1_block_4_1_0_split
I0929 19:41:48.663941 12521 net.cpp:100] Creating Layer block_4_1_block_4_1_0_split
I0929 19:41:48.663944 12521 net.cpp:434] block_4_1_block_4_1_0_split <- block_4_1
I0929 19:41:48.663946 12521 net.cpp:408] block_4_1_block_4_1_0_split -> block_4_1_block_4_1_0_split_0
I0929 19:41:48.663949 12521 net.cpp:408] block_4_1_block_4_1_0_split -> block_4_1_block_4_1_0_split_1
I0929 19:41:48.663975 12521 net.cpp:150] Setting up block_4_1_block_4_1_0_split
I0929 19:41:48.663986 12521 net.cpp:157] Top shape: 1 32 38 64 (77824)
I0929 19:41:48.663990 12521 net.cpp:157] Top shape: 1 32 38 64 (77824)
I0929 19:41:48.663991 12521 net.cpp:165] Memory required for data: 252901088
I0929 19:41:48.663993 12521 layer_factory.hpp:77] Creating layer conv4_2/expand
I0929 19:41:48.663998 12521 net.cpp:100] Creating Layer conv4_2/expand
I0929 19:41:48.664001 12521 net.cpp:434] conv4_2/expand <- block_4_1_block_4_1_0_split_0
I0929 19:41:48.664005 12521 net.cpp:408] conv4_2/expand -> conv4_2/expand
I0929 19:41:48.665216 12521 net.cpp:150] Setting up conv4_2/expand
I0929 19:41:48.665225 12521 net.cpp:157] Top shape: 1 192 38 64 (466944)
I0929 19:41:48.665226 12521 net.cpp:165] Memory required for data: 254768864
I0929 19:41:48.665230 12521 layer_factory.hpp:77] Creating layer conv4_2/expand/bn
I0929 19:41:48.665235 12521 net.cpp:100] Creating Layer conv4_2/expand/bn
I0929 19:41:48.665237 12521 net.cpp:434] conv4_2/expand/bn <- conv4_2/expand
I0929 19:41:48.665241 12521 net.cpp:395] conv4_2/expand/bn -> conv4_2/expand (in-place)
I0929 19:41:48.665365 12521 net.cpp:150] Setting up conv4_2/expand/bn
I0929 19:41:48.665369 12521 net.cpp:157] Top shape: 1 192 38 64 (466944)
I0929 19:41:48.665371 12521 net.cpp:165] Memory required for data: 256636640
I0929 19:41:48.665375 12521 layer_factory.hpp:77] Creating layer conv4_2/expand/scale
I0929 19:41:48.665380 12521 net.cpp:100] Creating Layer conv4_2/expand/scale
I0929 19:41:48.665381 12521 net.cpp:434] conv4_2/expand/scale <- conv4_2/expand
I0929 19:41:48.665385 12521 net.cpp:395] conv4_2/expand/scale -> conv4_2/expand (in-place)
I0929 19:41:48.665408 12521 layer_factory.hpp:77] Creating layer conv4_2/expand/scale
I0929 19:41:48.665477 12521 net.cpp:150] Setting up conv4_2/expand/scale
I0929 19:41:48.665480 12521 net.cpp:157] Top shape: 1 192 38 64 (466944)
I0929 19:41:48.665482 12521 net.cpp:165] Memory required for data: 258504416
I0929 19:41:48.665486 12521 layer_factory.hpp:77] Creating layer relu4_2/expand
I0929 19:41:48.665489 12521 net.cpp:100] Creating Layer relu4_2/expand
I0929 19:41:48.665491 12521 net.cpp:434] relu4_2/expand <- conv4_2/expand
I0929 19:41:48.665494 12521 net.cpp:395] relu4_2/expand -> conv4_2/expand (in-place)
I0929 19:41:48.665762 12521 net.cpp:150] Setting up relu4_2/expand
I0929 19:41:48.665768 12521 net.cpp:157] Top shape: 1 192 38 64 (466944)
I0929 19:41:48.665771 12521 net.cpp:165] Memory required for data: 260372192
I0929 19:41:48.665773 12521 layer_factory.hpp:77] Creating layer conv4_2/dwise
I0929 19:41:48.665776 12521 net.cpp:100] Creating Layer conv4_2/dwise
I0929 19:41:48.665779 12521 net.cpp:434] conv4_2/dwise <- conv4_2/expand
I0929 19:41:48.665782 12521 net.cpp:408] conv4_2/dwise -> conv4_2/dwise
I0929 19:41:48.665916 12521 net.cpp:150] Setting up conv4_2/dwise
I0929 19:41:48.665921 12521 net.cpp:157] Top shape: 1 192 38 64 (466944)
I0929 19:41:48.665923 12521 net.cpp:165] Memory required for data: 262239968
I0929 19:41:48.665926 12521 layer_factory.hpp:77] Creating layer conv4_2/dwise/bn
I0929 19:41:48.665930 12521 net.cpp:100] Creating Layer conv4_2/dwise/bn
I0929 19:41:48.665932 12521 net.cpp:434] conv4_2/dwise/bn <- conv4_2/dwise
I0929 19:41:48.665935 12521 net.cpp:395] conv4_2/dwise/bn -> conv4_2/dwise (in-place)
I0929 19:41:48.666059 12521 net.cpp:150] Setting up conv4_2/dwise/bn
I0929 19:41:48.666062 12521 net.cpp:157] Top shape: 1 192 38 64 (466944)
I0929 19:41:48.666064 12521 net.cpp:165] Memory required for data: 264107744
I0929 19:41:48.666067 12521 layer_factory.hpp:77] Creating layer conv4_2/dwise/scale
I0929 19:41:48.666071 12521 net.cpp:100] Creating Layer conv4_2/dwise/scale
I0929 19:41:48.666074 12521 net.cpp:434] conv4_2/dwise/scale <- conv4_2/dwise
I0929 19:41:48.666076 12521 net.cpp:395] conv4_2/dwise/scale -> conv4_2/dwise (in-place)
I0929 19:41:48.666100 12521 layer_factory.hpp:77] Creating layer conv4_2/dwise/scale
I0929 19:41:48.666167 12521 net.cpp:150] Setting up conv4_2/dwise/scale
I0929 19:41:48.666172 12521 net.cpp:157] Top shape: 1 192 38 64 (466944)
I0929 19:41:48.666180 12521 net.cpp:165] Memory required for data: 265975520
I0929 19:41:48.666184 12521 layer_factory.hpp:77] Creating layer relu4_2/dwise
I0929 19:41:48.666188 12521 net.cpp:100] Creating Layer relu4_2/dwise
I0929 19:41:48.666190 12521 net.cpp:434] relu4_2/dwise <- conv4_2/dwise
I0929 19:41:48.666193 12521 net.cpp:395] relu4_2/dwise -> conv4_2/dwise (in-place)
I0929 19:41:48.666457 12521 net.cpp:150] Setting up relu4_2/dwise
I0929 19:41:48.666462 12521 net.cpp:157] Top shape: 1 192 38 64 (466944)
I0929 19:41:48.666465 12521 net.cpp:165] Memory required for data: 267843296
I0929 19:41:48.666467 12521 layer_factory.hpp:77] Creating layer conv4_2/linear
I0929 19:41:48.666472 12521 net.cpp:100] Creating Layer conv4_2/linear
I0929 19:41:48.666474 12521 net.cpp:434] conv4_2/linear <- conv4_2/dwise
I0929 19:41:48.666477 12521 net.cpp:408] conv4_2/linear -> conv4_2/linear
I0929 19:41:48.667654 12521 net.cpp:150] Setting up conv4_2/linear
I0929 19:41:48.667662 12521 net.cpp:157] Top shape: 1 32 38 64 (77824)
I0929 19:41:48.667663 12521 net.cpp:165] Memory required for data: 268154592
I0929 19:41:48.667667 12521 layer_factory.hpp:77] Creating layer conv4_2/linear/bn
I0929 19:41:48.667671 12521 net.cpp:100] Creating Layer conv4_2/linear/bn
I0929 19:41:48.667675 12521 net.cpp:434] conv4_2/linear/bn <- conv4_2/linear
I0929 19:41:48.667677 12521 net.cpp:395] conv4_2/linear/bn -> conv4_2/linear (in-place)
I0929 19:41:48.667806 12521 net.cpp:150] Setting up conv4_2/linear/bn
I0929 19:41:48.667810 12521 net.cpp:157] Top shape: 1 32 38 64 (77824)
I0929 19:41:48.667811 12521 net.cpp:165] Memory required for data: 268465888
I0929 19:41:48.667815 12521 layer_factory.hpp:77] Creating layer conv4_2/linear/scale
I0929 19:41:48.667820 12521 net.cpp:100] Creating Layer conv4_2/linear/scale
I0929 19:41:48.667822 12521 net.cpp:434] conv4_2/linear/scale <- conv4_2/linear
I0929 19:41:48.667825 12521 net.cpp:395] conv4_2/linear/scale -> conv4_2/linear (in-place)
I0929 19:41:48.667850 12521 layer_factory.hpp:77] Creating layer conv4_2/linear/scale
I0929 19:41:48.667920 12521 net.cpp:150] Setting up conv4_2/linear/scale
I0929 19:41:48.667925 12521 net.cpp:157] Top shape: 1 32 38 64 (77824)
I0929 19:41:48.667927 12521 net.cpp:165] Memory required for data: 268777184
I0929 19:41:48.667930 12521 layer_factory.hpp:77] Creating layer block_4_2
I0929 19:41:48.667934 12521 net.cpp:100] Creating Layer block_4_2
I0929 19:41:48.667937 12521 net.cpp:434] block_4_2 <- block_4_1_block_4_1_0_split_1
I0929 19:41:48.667939 12521 net.cpp:434] block_4_2 <- conv4_2/linear
I0929 19:41:48.667942 12521 net.cpp:408] block_4_2 -> block_4_2
I0929 19:41:48.667958 12521 net.cpp:150] Setting up block_4_2
I0929 19:41:48.667961 12521 net.cpp:157] Top shape: 1 32 38 64 (77824)
I0929 19:41:48.667963 12521 net.cpp:165] Memory required for data: 269088480
I0929 19:41:48.667964 12521 layer_factory.hpp:77] Creating layer conv4_3/expand
I0929 19:41:48.667969 12521 net.cpp:100] Creating Layer conv4_3/expand
I0929 19:41:48.667971 12521 net.cpp:434] conv4_3/expand <- block_4_2
I0929 19:41:48.667974 12521 net.cpp:408] conv4_3/expand -> conv4_3/expand
I0929 19:41:48.669179 12521 net.cpp:150] Setting up conv4_3/expand
I0929 19:41:48.669188 12521 net.cpp:157] Top shape: 1 192 38 64 (466944)
I0929 19:41:48.669190 12521 net.cpp:165] Memory required for data: 270956256
I0929 19:41:48.669193 12521 layer_factory.hpp:77] Creating layer conv4_3/expand/bn
I0929 19:41:48.669198 12521 net.cpp:100] Creating Layer conv4_3/expand/bn
I0929 19:41:48.669201 12521 net.cpp:434] conv4_3/expand/bn <- conv4_3/expand
I0929 19:41:48.669205 12521 net.cpp:395] conv4_3/expand/bn -> conv4_3/expand (in-place)
I0929 19:41:48.669333 12521 net.cpp:150] Setting up conv4_3/expand/bn
I0929 19:41:48.669337 12521 net.cpp:157] Top shape: 1 192 38 64 (466944)
I0929 19:41:48.669339 12521 net.cpp:165] Memory required for data: 272824032
I0929 19:41:48.669343 12521 layer_factory.hpp:77] Creating layer conv4_3/expand/scale
I0929 19:41:48.669348 12521 net.cpp:100] Creating Layer conv4_3/expand/scale
I0929 19:41:48.669359 12521 net.cpp:434] conv4_3/expand/scale <- conv4_3/expand
I0929 19:41:48.669363 12521 net.cpp:395] conv4_3/expand/scale -> conv4_3/expand (in-place)
I0929 19:41:48.669387 12521 layer_factory.hpp:77] Creating layer conv4_3/expand/scale
I0929 19:41:48.669458 12521 net.cpp:150] Setting up conv4_3/expand/scale
I0929 19:41:48.669463 12521 net.cpp:157] Top shape: 1 192 38 64 (466944)
I0929 19:41:48.669466 12521 net.cpp:165] Memory required for data: 274691808
I0929 19:41:48.669468 12521 layer_factory.hpp:77] Creating layer relu4_3/expand
I0929 19:41:48.669472 12521 net.cpp:100] Creating Layer relu4_3/expand
I0929 19:41:48.669474 12521 net.cpp:434] relu4_3/expand <- conv4_3/expand
I0929 19:41:48.669478 12521 net.cpp:395] relu4_3/expand -> conv4_3/expand (in-place)
I0929 19:41:48.669750 12521 net.cpp:150] Setting up relu4_3/expand
I0929 19:41:48.669756 12521 net.cpp:157] Top shape: 1 192 38 64 (466944)
I0929 19:41:48.669759 12521 net.cpp:165] Memory required for data: 276559584
I0929 19:41:48.669761 12521 layer_factory.hpp:77] Creating layer conv4_3/dwise
I0929 19:41:48.669767 12521 net.cpp:100] Creating Layer conv4_3/dwise
I0929 19:41:48.669770 12521 net.cpp:434] conv4_3/dwise <- conv4_3/expand
I0929 19:41:48.669773 12521 net.cpp:408] conv4_3/dwise -> conv4_3/dwise
I0929 19:41:48.669912 12521 net.cpp:150] Setting up conv4_3/dwise
I0929 19:41:48.669917 12521 net.cpp:157] Top shape: 1 192 38 64 (466944)
I0929 19:41:48.669919 12521 net.cpp:165] Memory required for data: 278427360
I0929 19:41:48.669922 12521 layer_factory.hpp:77] Creating layer conv4_3/dwise/bn
I0929 19:41:48.669926 12521 net.cpp:100] Creating Layer conv4_3/dwise/bn
I0929 19:41:48.669929 12521 net.cpp:434] conv4_3/dwise/bn <- conv4_3/dwise
I0929 19:41:48.669931 12521 net.cpp:395] conv4_3/dwise/bn -> conv4_3/dwise (in-place)
I0929 19:41:48.670059 12521 net.cpp:150] Setting up conv4_3/dwise/bn
I0929 19:41:48.670063 12521 net.cpp:157] Top shape: 1 192 38 64 (466944)
I0929 19:41:48.670065 12521 net.cpp:165] Memory required for data: 280295136
I0929 19:41:48.670069 12521 layer_factory.hpp:77] Creating layer conv4_3/dwise/scale
I0929 19:41:48.670073 12521 net.cpp:100] Creating Layer conv4_3/dwise/scale
I0929 19:41:48.670076 12521 net.cpp:434] conv4_3/dwise/scale <- conv4_3/dwise
I0929 19:41:48.670078 12521 net.cpp:395] conv4_3/dwise/scale -> conv4_3/dwise (in-place)
I0929 19:41:48.670102 12521 layer_factory.hpp:77] Creating layer conv4_3/dwise/scale
I0929 19:41:48.670173 12521 net.cpp:150] Setting up conv4_3/dwise/scale
I0929 19:41:48.670178 12521 net.cpp:157] Top shape: 1 192 38 64 (466944)
I0929 19:41:48.670181 12521 net.cpp:165] Memory required for data: 282162912
I0929 19:41:48.670183 12521 layer_factory.hpp:77] Creating layer relu4_3/dwise
I0929 19:41:48.670186 12521 net.cpp:100] Creating Layer relu4_3/dwise
I0929 19:41:48.670189 12521 net.cpp:434] relu4_3/dwise <- conv4_3/dwise
I0929 19:41:48.670192 12521 net.cpp:395] relu4_3/dwise -> conv4_3/dwise (in-place)
I0929 19:41:48.670456 12521 net.cpp:150] Setting up relu4_3/dwise
I0929 19:41:48.670462 12521 net.cpp:157] Top shape: 1 192 38 64 (466944)
I0929 19:41:48.670464 12521 net.cpp:165] Memory required for data: 284030688
I0929 19:41:48.670466 12521 layer_factory.hpp:77] Creating layer conv4_3/linear
I0929 19:41:48.670472 12521 net.cpp:100] Creating Layer conv4_3/linear
I0929 19:41:48.670475 12521 net.cpp:434] conv4_3/linear <- conv4_3/dwise
I0929 19:41:48.670478 12521 net.cpp:408] conv4_3/linear -> conv4_3/linear
I0929 19:41:48.671726 12521 net.cpp:150] Setting up conv4_3/linear
I0929 19:41:48.671736 12521 net.cpp:157] Top shape: 1 64 38 64 (155648)
I0929 19:41:48.671737 12521 net.cpp:165] Memory required for data: 284653280
I0929 19:41:48.671741 12521 layer_factory.hpp:77] Creating layer conv4_3/linear/bn
I0929 19:41:48.671746 12521 net.cpp:100] Creating Layer conv4_3/linear/bn
I0929 19:41:48.671749 12521 net.cpp:434] conv4_3/linear/bn <- conv4_3/linear
I0929 19:41:48.671752 12521 net.cpp:395] conv4_3/linear/bn -> conv4_3/linear (in-place)
I0929 19:41:48.671882 12521 net.cpp:150] Setting up conv4_3/linear/bn
I0929 19:41:48.671895 12521 net.cpp:157] Top shape: 1 64 38 64 (155648)
I0929 19:41:48.671896 12521 net.cpp:165] Memory required for data: 285275872
I0929 19:41:48.671911 12521 layer_factory.hpp:77] Creating layer conv4_3/linear/scale
I0929 19:41:48.671916 12521 net.cpp:100] Creating Layer conv4_3/linear/scale
I0929 19:41:48.671918 12521 net.cpp:434] conv4_3/linear/scale <- conv4_3/linear
I0929 19:41:48.671921 12521 net.cpp:395] conv4_3/linear/scale -> conv4_3/linear (in-place)
I0929 19:41:48.671948 12521 layer_factory.hpp:77] Creating layer conv4_3/linear/scale
I0929 19:41:48.672019 12521 net.cpp:150] Setting up conv4_3/linear/scale
I0929 19:41:48.672024 12521 net.cpp:157] Top shape: 1 64 38 64 (155648)
I0929 19:41:48.672024 12521 net.cpp:165] Memory required for data: 285898464
I0929 19:41:48.672029 12521 layer_factory.hpp:77] Creating layer conv4_3/linear_conv4_3/linear/scale_0_split
I0929 19:41:48.672034 12521 net.cpp:100] Creating Layer conv4_3/linear_conv4_3/linear/scale_0_split
I0929 19:41:48.672036 12521 net.cpp:434] conv4_3/linear_conv4_3/linear/scale_0_split <- conv4_3/linear
I0929 19:41:48.672039 12521 net.cpp:408] conv4_3/linear_conv4_3/linear/scale_0_split -> conv4_3/linear_conv4_3/linear/scale_0_split_0
I0929 19:41:48.672044 12521 net.cpp:408] conv4_3/linear_conv4_3/linear/scale_0_split -> conv4_3/linear_conv4_3/linear/scale_0_split_1
I0929 19:41:48.672067 12521 net.cpp:150] Setting up conv4_3/linear_conv4_3/linear/scale_0_split
I0929 19:41:48.672071 12521 net.cpp:157] Top shape: 1 64 38 64 (155648)
I0929 19:41:48.672073 12521 net.cpp:157] Top shape: 1 64 38 64 (155648)
I0929 19:41:48.672075 12521 net.cpp:165] Memory required for data: 287143648
I0929 19:41:48.672077 12521 layer_factory.hpp:77] Creating layer conv4_4/expand
I0929 19:41:48.672081 12521 net.cpp:100] Creating Layer conv4_4/expand
I0929 19:41:48.672085 12521 net.cpp:434] conv4_4/expand <- conv4_3/linear_conv4_3/linear/scale_0_split_0
I0929 19:41:48.672087 12521 net.cpp:408] conv4_4/expand -> conv4_4/expand
I0929 19:41:48.673286 12521 net.cpp:150] Setting up conv4_4/expand
I0929 19:41:48.673293 12521 net.cpp:157] Top shape: 1 384 38 64 (933888)
I0929 19:41:48.673296 12521 net.cpp:165] Memory required for data: 290879200
I0929 19:41:48.673300 12521 layer_factory.hpp:77] Creating layer conv4_4/expand/bn
I0929 19:41:48.673305 12521 net.cpp:100] Creating Layer conv4_4/expand/bn
I0929 19:41:48.673307 12521 net.cpp:434] conv4_4/expand/bn <- conv4_4/expand
I0929 19:41:48.673310 12521 net.cpp:395] conv4_4/expand/bn -> conv4_4/expand (in-place)
I0929 19:41:48.673442 12521 net.cpp:150] Setting up conv4_4/expand/bn
I0929 19:41:48.673447 12521 net.cpp:157] Top shape: 1 384 38 64 (933888)
I0929 19:41:48.673449 12521 net.cpp:165] Memory required for data: 294614752
I0929 19:41:48.673454 12521 layer_factory.hpp:77] Creating layer conv4_4/expand/scale
I0929 19:41:48.673456 12521 net.cpp:100] Creating Layer conv4_4/expand/scale
I0929 19:41:48.673460 12521 net.cpp:434] conv4_4/expand/scale <- conv4_4/expand
I0929 19:41:48.673461 12521 net.cpp:395] conv4_4/expand/scale -> conv4_4/expand (in-place)
I0929 19:41:48.673485 12521 layer_factory.hpp:77] Creating layer conv4_4/expand/scale
I0929 19:41:48.673554 12521 net.cpp:150] Setting up conv4_4/expand/scale
I0929 19:41:48.673559 12521 net.cpp:157] Top shape: 1 384 38 64 (933888)
I0929 19:41:48.673560 12521 net.cpp:165] Memory required for data: 298350304
I0929 19:41:48.673563 12521 layer_factory.hpp:77] Creating layer relu4_4/expand
I0929 19:41:48.673568 12521 net.cpp:100] Creating Layer relu4_4/expand
I0929 19:41:48.673569 12521 net.cpp:434] relu4_4/expand <- conv4_4/expand
I0929 19:41:48.673573 12521 net.cpp:395] relu4_4/expand -> conv4_4/expand (in-place)
I0929 19:41:48.673887 12521 net.cpp:150] Setting up relu4_4/expand
I0929 19:41:48.673892 12521 net.cpp:157] Top shape: 1 384 38 64 (933888)
I0929 19:41:48.673894 12521 net.cpp:165] Memory required for data: 302085856
I0929 19:41:48.673897 12521 layer_factory.hpp:77] Creating layer conv4_4/dwise
I0929 19:41:48.673902 12521 net.cpp:100] Creating Layer conv4_4/dwise
I0929 19:41:48.673912 12521 net.cpp:434] conv4_4/dwise <- conv4_4/expand
I0929 19:41:48.673915 12521 net.cpp:408] conv4_4/dwise -> conv4_4/dwise
I0929 19:41:48.674069 12521 net.cpp:150] Setting up conv4_4/dwise
I0929 19:41:48.674073 12521 net.cpp:157] Top shape: 1 384 38 64 (933888)
I0929 19:41:48.674075 12521 net.cpp:165] Memory required for data: 305821408
I0929 19:41:48.674079 12521 layer_factory.hpp:77] Creating layer conv4_4/dwise/bn
I0929 19:41:48.674083 12521 net.cpp:100] Creating Layer conv4_4/dwise/bn
I0929 19:41:48.674085 12521 net.cpp:434] conv4_4/dwise/bn <- conv4_4/dwise
I0929 19:41:48.674088 12521 net.cpp:395] conv4_4/dwise/bn -> conv4_4/dwise (in-place)
I0929 19:41:48.674209 12521 net.cpp:150] Setting up conv4_4/dwise/bn
I0929 19:41:48.674213 12521 net.cpp:157] Top shape: 1 384 38 64 (933888)
I0929 19:41:48.674216 12521 net.cpp:165] Memory required for data: 309556960
I0929 19:41:48.674219 12521 layer_factory.hpp:77] Creating layer conv4_4/dwise/scale
I0929 19:41:48.674223 12521 net.cpp:100] Creating Layer conv4_4/dwise/scale
I0929 19:41:48.674226 12521 net.cpp:434] conv4_4/dwise/scale <- conv4_4/dwise
I0929 19:41:48.674228 12521 net.cpp:395] conv4_4/dwise/scale -> conv4_4/dwise (in-place)
I0929 19:41:48.674250 12521 layer_factory.hpp:77] Creating layer conv4_4/dwise/scale
I0929 19:41:48.674320 12521 net.cpp:150] Setting up conv4_4/dwise/scale
I0929 19:41:48.674324 12521 net.cpp:157] Top shape: 1 384 38 64 (933888)
I0929 19:41:48.674326 12521 net.cpp:165] Memory required for data: 313292512
I0929 19:41:48.674329 12521 layer_factory.hpp:77] Creating layer relu4_4/dwise
I0929 19:41:48.674332 12521 net.cpp:100] Creating Layer relu4_4/dwise
I0929 19:41:48.674335 12521 net.cpp:434] relu4_4/dwise <- conv4_4/dwise
I0929 19:41:48.674337 12521 net.cpp:395] relu4_4/dwise -> conv4_4/dwise (in-place)
I0929 19:41:48.674717 12521 net.cpp:150] Setting up relu4_4/dwise
I0929 19:41:48.674724 12521 net.cpp:157] Top shape: 1 384 38 64 (933888)
I0929 19:41:48.674726 12521 net.cpp:165] Memory required for data: 317028064
I0929 19:41:48.674728 12521 layer_factory.hpp:77] Creating layer conv4_4/linear
I0929 19:41:48.674733 12521 net.cpp:100] Creating Layer conv4_4/linear
I0929 19:41:48.674736 12521 net.cpp:434] conv4_4/linear <- conv4_4/dwise
I0929 19:41:48.674739 12521 net.cpp:408] conv4_4/linear -> conv4_4/linear
I0929 19:41:48.675977 12521 net.cpp:150] Setting up conv4_4/linear
I0929 19:41:48.675985 12521 net.cpp:157] Top shape: 1 64 38 64 (155648)
I0929 19:41:48.675987 12521 net.cpp:165] Memory required for data: 317650656
I0929 19:41:48.675992 12521 layer_factory.hpp:77] Creating layer conv4_4/linear/bn
I0929 19:41:48.675995 12521 net.cpp:100] Creating Layer conv4_4/linear/bn
I0929 19:41:48.675998 12521 net.cpp:434] conv4_4/linear/bn <- conv4_4/linear
I0929 19:41:48.676002 12521 net.cpp:395] conv4_4/linear/bn -> conv4_4/linear (in-place)
I0929 19:41:48.676136 12521 net.cpp:150] Setting up conv4_4/linear/bn
I0929 19:41:48.676141 12521 net.cpp:157] Top shape: 1 64 38 64 (155648)
I0929 19:41:48.676141 12521 net.cpp:165] Memory required for data: 318273248
I0929 19:41:48.676146 12521 layer_factory.hpp:77] Creating layer conv4_4/linear/scale
I0929 19:41:48.676149 12521 net.cpp:100] Creating Layer conv4_4/linear/scale
I0929 19:41:48.676151 12521 net.cpp:434] conv4_4/linear/scale <- conv4_4/linear
I0929 19:41:48.676154 12521 net.cpp:395] conv4_4/linear/scale -> conv4_4/linear (in-place)
I0929 19:41:48.676179 12521 layer_factory.hpp:77] Creating layer conv4_4/linear/scale
I0929 19:41:48.676250 12521 net.cpp:150] Setting up conv4_4/linear/scale
I0929 19:41:48.676255 12521 net.cpp:157] Top shape: 1 64 38 64 (155648)
I0929 19:41:48.676256 12521 net.cpp:165] Memory required for data: 318895840
I0929 19:41:48.676260 12521 layer_factory.hpp:77] Creating layer block_4_4
I0929 19:41:48.676264 12521 net.cpp:100] Creating Layer block_4_4
I0929 19:41:48.676265 12521 net.cpp:434] block_4_4 <- conv4_3/linear_conv4_3/linear/scale_0_split_1
I0929 19:41:48.676268 12521 net.cpp:434] block_4_4 <- conv4_4/linear
I0929 19:41:48.676272 12521 net.cpp:408] block_4_4 -> block_4_4
I0929 19:41:48.676296 12521 net.cpp:150] Setting up block_4_4
I0929 19:41:48.676301 12521 net.cpp:157] Top shape: 1 64 38 64 (155648)
I0929 19:41:48.676303 12521 net.cpp:165] Memory required for data: 319518432
I0929 19:41:48.676306 12521 layer_factory.hpp:77] Creating layer block_4_4_block_4_4_0_split
I0929 19:41:48.676308 12521 net.cpp:100] Creating Layer block_4_4_block_4_4_0_split
I0929 19:41:48.676311 12521 net.cpp:434] block_4_4_block_4_4_0_split <- block_4_4
I0929 19:41:48.676314 12521 net.cpp:408] block_4_4_block_4_4_0_split -> block_4_4_block_4_4_0_split_0
I0929 19:41:48.676319 12521 net.cpp:408] block_4_4_block_4_4_0_split -> block_4_4_block_4_4_0_split_1
I0929 19:41:48.676342 12521 net.cpp:150] Setting up block_4_4_block_4_4_0_split
I0929 19:41:48.676347 12521 net.cpp:157] Top shape: 1 64 38 64 (155648)
I0929 19:41:48.676348 12521 net.cpp:157] Top shape: 1 64 38 64 (155648)
I0929 19:41:48.676350 12521 net.cpp:165] Memory required for data: 320763616
I0929 19:41:48.676352 12521 layer_factory.hpp:77] Creating layer conv4_5/expand
I0929 19:41:48.676357 12521 net.cpp:100] Creating Layer conv4_5/expand
I0929 19:41:48.676359 12521 net.cpp:434] conv4_5/expand <- block_4_4_block_4_4_0_split_0
I0929 19:41:48.676363 12521 net.cpp:408] conv4_5/expand -> conv4_5/expand
I0929 19:41:48.677544 12521 net.cpp:150] Setting up conv4_5/expand
I0929 19:41:48.677551 12521 net.cpp:157] Top shape: 1 384 38 64 (933888)
I0929 19:41:48.677552 12521 net.cpp:165] Memory required for data: 324499168
I0929 19:41:48.677556 12521 layer_factory.hpp:77] Creating layer conv4_5/expand/bn
I0929 19:41:48.677561 12521 net.cpp:100] Creating Layer conv4_5/expand/bn
I0929 19:41:48.677564 12521 net.cpp:434] conv4_5/expand/bn <- conv4_5/expand
I0929 19:41:48.677567 12521 net.cpp:395] conv4_5/expand/bn -> conv4_5/expand (in-place)
I0929 19:41:48.677696 12521 net.cpp:150] Setting up conv4_5/expand/bn
I0929 19:41:48.677700 12521 net.cpp:157] Top shape: 1 384 38 64 (933888)
I0929 19:41:48.677701 12521 net.cpp:165] Memory required for data: 328234720
I0929 19:41:48.677706 12521 layer_factory.hpp:77] Creating layer conv4_5/expand/scale
I0929 19:41:48.677711 12521 net.cpp:100] Creating Layer conv4_5/expand/scale
I0929 19:41:48.677712 12521 net.cpp:434] conv4_5/expand/scale <- conv4_5/expand
I0929 19:41:48.677716 12521 net.cpp:395] conv4_5/expand/scale -> conv4_5/expand (in-place)
I0929 19:41:48.677738 12521 layer_factory.hpp:77] Creating layer conv4_5/expand/scale
I0929 19:41:48.677808 12521 net.cpp:150] Setting up conv4_5/expand/scale
I0929 19:41:48.677812 12521 net.cpp:157] Top shape: 1 384 38 64 (933888)
I0929 19:41:48.677814 12521 net.cpp:165] Memory required for data: 331970272
I0929 19:41:48.677819 12521 layer_factory.hpp:77] Creating layer relu4_5/expand
I0929 19:41:48.677822 12521 net.cpp:100] Creating Layer relu4_5/expand
I0929 19:41:48.677824 12521 net.cpp:434] relu4_5/expand <- conv4_5/expand
I0929 19:41:48.677826 12521 net.cpp:395] relu4_5/expand -> conv4_5/expand (in-place)
I0929 19:41:48.678097 12521 net.cpp:150] Setting up relu4_5/expand
I0929 19:41:48.678102 12521 net.cpp:157] Top shape: 1 384 38 64 (933888)
I0929 19:41:48.678104 12521 net.cpp:165] Memory required for data: 335705824
I0929 19:41:48.678107 12521 layer_factory.hpp:77] Creating layer conv4_5/dwise
I0929 19:41:48.678112 12521 net.cpp:100] Creating Layer conv4_5/dwise
I0929 19:41:48.678113 12521 net.cpp:434] conv4_5/dwise <- conv4_5/expand
I0929 19:41:48.678118 12521 net.cpp:408] conv4_5/dwise -> conv4_5/dwise
I0929 19:41:48.678266 12521 net.cpp:150] Setting up conv4_5/dwise
I0929 19:41:48.678269 12521 net.cpp:157] Top shape: 1 384 38 64 (933888)
I0929 19:41:48.678272 12521 net.cpp:165] Memory required for data: 339441376
I0929 19:41:48.678275 12521 layer_factory.hpp:77] Creating layer conv4_5/dwise/bn
I0929 19:41:48.678278 12521 net.cpp:100] Creating Layer conv4_5/dwise/bn
I0929 19:41:48.678280 12521 net.cpp:434] conv4_5/dwise/bn <- conv4_5/dwise
I0929 19:41:48.678283 12521 net.cpp:395] conv4_5/dwise/bn -> conv4_5/dwise (in-place)
I0929 19:41:48.678406 12521 net.cpp:150] Setting up conv4_5/dwise/bn
I0929 19:41:48.678416 12521 net.cpp:157] Top shape: 1 384 38 64 (933888)
I0929 19:41:48.678418 12521 net.cpp:165] Memory required for data: 343176928
I0929 19:41:48.678422 12521 layer_factory.hpp:77] Creating layer conv4_5/dwise/scale
I0929 19:41:48.678427 12521 net.cpp:100] Creating Layer conv4_5/dwise/scale
I0929 19:41:48.678429 12521 net.cpp:434] conv4_5/dwise/scale <- conv4_5/dwise
I0929 19:41:48.678432 12521 net.cpp:395] conv4_5/dwise/scale -> conv4_5/dwise (in-place)
I0929 19:41:48.678455 12521 layer_factory.hpp:77] Creating layer conv4_5/dwise/scale
I0929 19:41:48.678524 12521 net.cpp:150] Setting up conv4_5/dwise/scale
I0929 19:41:48.678529 12521 net.cpp:157] Top shape: 1 384 38 64 (933888)
I0929 19:41:48.678530 12521 net.cpp:165] Memory required for data: 346912480
I0929 19:41:48.678534 12521 layer_factory.hpp:77] Creating layer relu4_5/dwise
I0929 19:41:48.678537 12521 net.cpp:100] Creating Layer relu4_5/dwise
I0929 19:41:48.678539 12521 net.cpp:434] relu4_5/dwise <- conv4_5/dwise
I0929 19:41:48.678542 12521 net.cpp:395] relu4_5/dwise -> conv4_5/dwise (in-place)
I0929 19:41:48.678918 12521 net.cpp:150] Setting up relu4_5/dwise
I0929 19:41:48.678925 12521 net.cpp:157] Top shape: 1 384 38 64 (933888)
I0929 19:41:48.678927 12521 net.cpp:165] Memory required for data: 350648032
I0929 19:41:48.678930 12521 layer_factory.hpp:77] Creating layer conv4_5/linear
I0929 19:41:48.678936 12521 net.cpp:100] Creating Layer conv4_5/linear
I0929 19:41:48.678937 12521 net.cpp:434] conv4_5/linear <- conv4_5/dwise
I0929 19:41:48.678941 12521 net.cpp:408] conv4_5/linear -> conv4_5/linear
I0929 19:41:48.680142 12521 net.cpp:150] Setting up conv4_5/linear
I0929 19:41:48.680150 12521 net.cpp:157] Top shape: 1 64 38 64 (155648)
I0929 19:41:48.680151 12521 net.cpp:165] Memory required for data: 351270624
I0929 19:41:48.680155 12521 layer_factory.hpp:77] Creating layer conv4_5/linear/bn
I0929 19:41:48.680160 12521 net.cpp:100] Creating Layer conv4_5/linear/bn
I0929 19:41:48.680162 12521 net.cpp:434] conv4_5/linear/bn <- conv4_5/linear
I0929 19:41:48.680166 12521 net.cpp:395] conv4_5/linear/bn -> conv4_5/linear (in-place)
I0929 19:41:48.680297 12521 net.cpp:150] Setting up conv4_5/linear/bn
I0929 19:41:48.680301 12521 net.cpp:157] Top shape: 1 64 38 64 (155648)
I0929 19:41:48.680303 12521 net.cpp:165] Memory required for data: 351893216
I0929 19:41:48.680307 12521 layer_factory.hpp:77] Creating layer conv4_5/linear/scale
I0929 19:41:48.680310 12521 net.cpp:100] Creating Layer conv4_5/linear/scale
I0929 19:41:48.680312 12521 net.cpp:434] conv4_5/linear/scale <- conv4_5/linear
I0929 19:41:48.680315 12521 net.cpp:395] conv4_5/linear/scale -> conv4_5/linear (in-place)
I0929 19:41:48.680341 12521 layer_factory.hpp:77] Creating layer conv4_5/linear/scale
I0929 19:41:48.680413 12521 net.cpp:150] Setting up conv4_5/linear/scale
I0929 19:41:48.680418 12521 net.cpp:157] Top shape: 1 64 38 64 (155648)
I0929 19:41:48.680421 12521 net.cpp:165] Memory required for data: 352515808
I0929 19:41:48.680424 12521 layer_factory.hpp:77] Creating layer block_4_5
I0929 19:41:48.680428 12521 net.cpp:100] Creating Layer block_4_5
I0929 19:41:48.680430 12521 net.cpp:434] block_4_5 <- block_4_4_block_4_4_0_split_1
I0929 19:41:48.680434 12521 net.cpp:434] block_4_5 <- conv4_5/linear
I0929 19:41:48.680436 12521 net.cpp:408] block_4_5 -> block_4_5
I0929 19:41:48.680452 12521 net.cpp:150] Setting up block_4_5
I0929 19:41:48.680455 12521 net.cpp:157] Top shape: 1 64 38 64 (155648)
I0929 19:41:48.680457 12521 net.cpp:165] Memory required for data: 353138400
I0929 19:41:48.680459 12521 layer_factory.hpp:77] Creating layer block_4_5_block_4_5_0_split
I0929 19:41:48.680464 12521 net.cpp:100] Creating Layer block_4_5_block_4_5_0_split
I0929 19:41:48.680465 12521 net.cpp:434] block_4_5_block_4_5_0_split <- block_4_5
I0929 19:41:48.680469 12521 net.cpp:408] block_4_5_block_4_5_0_split -> block_4_5_block_4_5_0_split_0
I0929 19:41:48.680472 12521 net.cpp:408] block_4_5_block_4_5_0_split -> block_4_5_block_4_5_0_split_1
I0929 19:41:48.680505 12521 net.cpp:150] Setting up block_4_5_block_4_5_0_split
I0929 19:41:48.680507 12521 net.cpp:157] Top shape: 1 64 38 64 (155648)
I0929 19:41:48.680511 12521 net.cpp:157] Top shape: 1 64 38 64 (155648)
I0929 19:41:48.680512 12521 net.cpp:165] Memory required for data: 354383584
I0929 19:41:48.680514 12521 layer_factory.hpp:77] Creating layer conv4_6/expand
I0929 19:41:48.680519 12521 net.cpp:100] Creating Layer conv4_6/expand
I0929 19:41:48.680521 12521 net.cpp:434] conv4_6/expand <- block_4_5_block_4_5_0_split_0
I0929 19:41:48.680524 12521 net.cpp:408] conv4_6/expand -> conv4_6/expand
I0929 19:41:48.681710 12521 net.cpp:150] Setting up conv4_6/expand
I0929 19:41:48.681718 12521 net.cpp:157] Top shape: 1 384 38 64 (933888)
I0929 19:41:48.681721 12521 net.cpp:165] Memory required for data: 358119136
I0929 19:41:48.681725 12521 layer_factory.hpp:77] Creating layer conv4_6/expand/bn
I0929 19:41:48.681730 12521 net.cpp:100] Creating Layer conv4_6/expand/bn
I0929 19:41:48.681731 12521 net.cpp:434] conv4_6/expand/bn <- conv4_6/expand
I0929 19:41:48.681735 12521 net.cpp:395] conv4_6/expand/bn -> conv4_6/expand (in-place)
I0929 19:41:48.681865 12521 net.cpp:150] Setting up conv4_6/expand/bn
I0929 19:41:48.681869 12521 net.cpp:157] Top shape: 1 384 38 64 (933888)
I0929 19:41:48.681870 12521 net.cpp:165] Memory required for data: 361854688
I0929 19:41:48.681874 12521 layer_factory.hpp:77] Creating layer conv4_6/expand/scale
I0929 19:41:48.681879 12521 net.cpp:100] Creating Layer conv4_6/expand/scale
I0929 19:41:48.681880 12521 net.cpp:434] conv4_6/expand/scale <- conv4_6/expand
I0929 19:41:48.681885 12521 net.cpp:395] conv4_6/expand/scale -> conv4_6/expand (in-place)
I0929 19:41:48.681907 12521 layer_factory.hpp:77] Creating layer conv4_6/expand/scale
I0929 19:41:48.681978 12521 net.cpp:150] Setting up conv4_6/expand/scale
I0929 19:41:48.681983 12521 net.cpp:157] Top shape: 1 384 38 64 (933888)
I0929 19:41:48.681984 12521 net.cpp:165] Memory required for data: 365590240
I0929 19:41:48.681988 12521 layer_factory.hpp:77] Creating layer relu4_6/expand
I0929 19:41:48.681991 12521 net.cpp:100] Creating Layer relu4_6/expand
I0929 19:41:48.681993 12521 net.cpp:434] relu4_6/expand <- conv4_6/expand
I0929 19:41:48.681996 12521 net.cpp:395] relu4_6/expand -> conv4_6/expand (in-place)
I0929 19:41:48.682384 12521 net.cpp:150] Setting up relu4_6/expand
I0929 19:41:48.682391 12521 net.cpp:157] Top shape: 1 384 38 64 (933888)
I0929 19:41:48.682394 12521 net.cpp:165] Memory required for data: 369325792
I0929 19:41:48.682396 12521 layer_factory.hpp:77] Creating layer conv4_6/dwise
I0929 19:41:48.682401 12521 net.cpp:100] Creating Layer conv4_6/dwise
I0929 19:41:48.682404 12521 net.cpp:434] conv4_6/dwise <- conv4_6/expand
I0929 19:41:48.682407 12521 net.cpp:408] conv4_6/dwise -> conv4_6/dwise
I0929 19:41:48.682562 12521 net.cpp:150] Setting up conv4_6/dwise
I0929 19:41:48.682566 12521 net.cpp:157] Top shape: 1 384 38 64 (933888)
I0929 19:41:48.682569 12521 net.cpp:165] Memory required for data: 373061344
I0929 19:41:48.682571 12521 layer_factory.hpp:77] Creating layer conv4_6/dwise/bn
I0929 19:41:48.682574 12521 net.cpp:100] Creating Layer conv4_6/dwise/bn
I0929 19:41:48.682577 12521 net.cpp:434] conv4_6/dwise/bn <- conv4_6/dwise
I0929 19:41:48.682580 12521 net.cpp:395] conv4_6/dwise/bn -> conv4_6/dwise (in-place)
I0929 19:41:48.682704 12521 net.cpp:150] Setting up conv4_6/dwise/bn
I0929 19:41:48.682708 12521 net.cpp:157] Top shape: 1 384 38 64 (933888)
I0929 19:41:48.682710 12521 net.cpp:165] Memory required for data: 376796896
I0929 19:41:48.682714 12521 layer_factory.hpp:77] Creating layer conv4_6/dwise/scale
I0929 19:41:48.682718 12521 net.cpp:100] Creating Layer conv4_6/dwise/scale
I0929 19:41:48.682721 12521 net.cpp:434] conv4_6/dwise/scale <- conv4_6/dwise
I0929 19:41:48.682723 12521 net.cpp:395] conv4_6/dwise/scale -> conv4_6/dwise (in-place)
I0929 19:41:48.682749 12521 layer_factory.hpp:77] Creating layer conv4_6/dwise/scale
I0929 19:41:48.682821 12521 net.cpp:150] Setting up conv4_6/dwise/scale
I0929 19:41:48.682824 12521 net.cpp:157] Top shape: 1 384 38 64 (933888)
I0929 19:41:48.682835 12521 net.cpp:165] Memory required for data: 380532448
I0929 19:41:48.682839 12521 layer_factory.hpp:77] Creating layer relu4_6/dwise
I0929 19:41:48.682843 12521 net.cpp:100] Creating Layer relu4_6/dwise
I0929 19:41:48.682845 12521 net.cpp:434] relu4_6/dwise <- conv4_6/dwise
I0929 19:41:48.682849 12521 net.cpp:395] relu4_6/dwise -> conv4_6/dwise (in-place)
I0929 19:41:48.683135 12521 net.cpp:150] Setting up relu4_6/dwise
I0929 19:41:48.683141 12521 net.cpp:157] Top shape: 1 384 38 64 (933888)
I0929 19:41:48.683142 12521 net.cpp:165] Memory required for data: 384268000
I0929 19:41:48.683145 12521 layer_factory.hpp:77] Creating layer conv4_6/linear
I0929 19:41:48.683151 12521 net.cpp:100] Creating Layer conv4_6/linear
I0929 19:41:48.683153 12521 net.cpp:434] conv4_6/linear <- conv4_6/dwise
I0929 19:41:48.683157 12521 net.cpp:408] conv4_6/linear -> conv4_6/linear
I0929 19:41:48.684752 12521 net.cpp:150] Setting up conv4_6/linear
I0929 19:41:48.684777 12521 net.cpp:157] Top shape: 1 64 38 64 (155648)
I0929 19:41:48.684778 12521 net.cpp:165] Memory required for data: 384890592
I0929 19:41:48.684787 12521 layer_factory.hpp:77] Creating layer conv4_6/linear/bn
I0929 19:41:48.684798 12521 net.cpp:100] Creating Layer conv4_6/linear/bn
I0929 19:41:48.684801 12521 net.cpp:434] conv4_6/linear/bn <- conv4_6/linear
I0929 19:41:48.684808 12521 net.cpp:395] conv4_6/linear/bn -> conv4_6/linear (in-place)
I0929 19:41:48.684962 12521 net.cpp:150] Setting up conv4_6/linear/bn
I0929 19:41:48.684965 12521 net.cpp:157] Top shape: 1 64 38 64 (155648)
I0929 19:41:48.684967 12521 net.cpp:165] Memory required for data: 385513184
I0929 19:41:48.684972 12521 layer_factory.hpp:77] Creating layer conv4_6/linear/scale
I0929 19:41:48.684976 12521 net.cpp:100] Creating Layer conv4_6/linear/scale
I0929 19:41:48.684979 12521 net.cpp:434] conv4_6/linear/scale <- conv4_6/linear
I0929 19:41:48.684983 12521 net.cpp:395] conv4_6/linear/scale -> conv4_6/linear (in-place)
I0929 19:41:48.685009 12521 layer_factory.hpp:77] Creating layer conv4_6/linear/scale
I0929 19:41:48.685084 12521 net.cpp:150] Setting up conv4_6/linear/scale
I0929 19:41:48.685089 12521 net.cpp:157] Top shape: 1 64 38 64 (155648)
I0929 19:41:48.685091 12521 net.cpp:165] Memory required for data: 386135776
I0929 19:41:48.685094 12521 layer_factory.hpp:77] Creating layer block_4_6
I0929 19:41:48.685098 12521 net.cpp:100] Creating Layer block_4_6
I0929 19:41:48.685101 12521 net.cpp:434] block_4_6 <- block_4_5_block_4_5_0_split_1
I0929 19:41:48.685103 12521 net.cpp:434] block_4_6 <- conv4_6/linear
I0929 19:41:48.685107 12521 net.cpp:408] block_4_6 -> block_4_6
I0929 19:41:48.685123 12521 net.cpp:150] Setting up block_4_6
I0929 19:41:48.685127 12521 net.cpp:157] Top shape: 1 64 38 64 (155648)
I0929 19:41:48.685128 12521 net.cpp:165] Memory required for data: 386758368
I0929 19:41:48.685130 12521 layer_factory.hpp:77] Creating layer conv4_7/expand
I0929 19:41:48.685144 12521 net.cpp:100] Creating Layer conv4_7/expand
I0929 19:41:48.685148 12521 net.cpp:434] conv4_7/expand <- block_4_6
I0929 19:41:48.685150 12521 net.cpp:408] conv4_7/expand -> conv4_7/expand
I0929 19:41:48.686409 12521 net.cpp:150] Setting up conv4_7/expand
I0929 19:41:48.686416 12521 net.cpp:157] Top shape: 1 384 38 64 (933888)
I0929 19:41:48.686419 12521 net.cpp:165] Memory required for data: 390493920
I0929 19:41:48.686422 12521 layer_factory.hpp:77] Creating layer conv4_7/expand/bn
I0929 19:41:48.686427 12521 net.cpp:100] Creating Layer conv4_7/expand/bn
I0929 19:41:48.686429 12521 net.cpp:434] conv4_7/expand/bn <- conv4_7/expand
I0929 19:41:48.686434 12521 net.cpp:395] conv4_7/expand/bn -> conv4_7/expand (in-place)
I0929 19:41:48.686564 12521 net.cpp:150] Setting up conv4_7/expand/bn
I0929 19:41:48.686568 12521 net.cpp:157] Top shape: 1 384 38 64 (933888)
I0929 19:41:48.686571 12521 net.cpp:165] Memory required for data: 394229472
I0929 19:41:48.686576 12521 layer_factory.hpp:77] Creating layer conv4_7/expand/scale
I0929 19:41:48.686580 12521 net.cpp:100] Creating Layer conv4_7/expand/scale
I0929 19:41:48.686594 12521 net.cpp:434] conv4_7/expand/scale <- conv4_7/expand
I0929 19:41:48.686597 12521 net.cpp:395] conv4_7/expand/scale -> conv4_7/expand (in-place)
I0929 19:41:48.686623 12521 layer_factory.hpp:77] Creating layer conv4_7/expand/scale
I0929 19:41:48.686694 12521 net.cpp:150] Setting up conv4_7/expand/scale
I0929 19:41:48.686699 12521 net.cpp:157] Top shape: 1 384 38 64 (933888)
I0929 19:41:48.686702 12521 net.cpp:165] Memory required for data: 397965024
I0929 19:41:48.686704 12521 layer_factory.hpp:77] Creating layer relu4_7/expand
I0929 19:41:48.686708 12521 net.cpp:100] Creating Layer relu4_7/expand
I0929 19:41:48.686712 12521 net.cpp:434] relu4_7/expand <- conv4_7/expand
I0929 19:41:48.686713 12521 net.cpp:395] relu4_7/expand -> conv4_7/expand (in-place)
I0929 19:41:48.687108 12521 net.cpp:150] Setting up relu4_7/expand
I0929 19:41:48.687114 12521 net.cpp:157] Top shape: 1 384 38 64 (933888)
I0929 19:41:48.687116 12521 net.cpp:165] Memory required for data: 401700576
I0929 19:41:48.687119 12521 layer_factory.hpp:77] Creating layer conv4_7/dwise
I0929 19:41:48.687124 12521 net.cpp:100] Creating Layer conv4_7/dwise
I0929 19:41:48.687127 12521 net.cpp:434] conv4_7/dwise <- conv4_7/expand
I0929 19:41:48.687131 12521 net.cpp:408] conv4_7/dwise -> conv4_7/dwise
I0929 19:41:48.687284 12521 net.cpp:150] Setting up conv4_7/dwise
I0929 19:41:48.687289 12521 net.cpp:157] Top shape: 1 384 19 32 (233472)
I0929 19:41:48.687291 12521 net.cpp:165] Memory required for data: 402634464
I0929 19:41:48.687294 12521 layer_factory.hpp:77] Creating layer conv4_7/dwise/bn
I0929 19:41:48.687299 12521 net.cpp:100] Creating Layer conv4_7/dwise/bn
I0929 19:41:48.687301 12521 net.cpp:434] conv4_7/dwise/bn <- conv4_7/dwise
I0929 19:41:48.687304 12521 net.cpp:395] conv4_7/dwise/bn -> conv4_7/dwise (in-place)
I0929 19:41:48.687428 12521 net.cpp:150] Setting up conv4_7/dwise/bn
I0929 19:41:48.687433 12521 net.cpp:157] Top shape: 1 384 19 32 (233472)
I0929 19:41:48.687434 12521 net.cpp:165] Memory required for data: 403568352
I0929 19:41:48.687438 12521 layer_factory.hpp:77] Creating layer conv4_7/dwise/scale
I0929 19:41:48.687443 12521 net.cpp:100] Creating Layer conv4_7/dwise/scale
I0929 19:41:48.687445 12521 net.cpp:434] conv4_7/dwise/scale <- conv4_7/dwise
I0929 19:41:48.687448 12521 net.cpp:395] conv4_7/dwise/scale -> conv4_7/dwise (in-place)
I0929 19:41:48.687476 12521 layer_factory.hpp:77] Creating layer conv4_7/dwise/scale
I0929 19:41:48.687552 12521 net.cpp:150] Setting up conv4_7/dwise/scale
I0929 19:41:48.687556 12521 net.cpp:157] Top shape: 1 384 19 32 (233472)
I0929 19:41:48.687558 12521 net.cpp:165] Memory required for data: 404502240
I0929 19:41:48.687562 12521 layer_factory.hpp:77] Creating layer relu4_7/dwise
I0929 19:41:48.687564 12521 net.cpp:100] Creating Layer relu4_7/dwise
I0929 19:41:48.687566 12521 net.cpp:434] relu4_7/dwise <- conv4_7/dwise
I0929 19:41:48.687571 12521 net.cpp:395] relu4_7/dwise -> conv4_7/dwise (in-place)
I0929 19:41:48.687839 12521 net.cpp:150] Setting up relu4_7/dwise
I0929 19:41:48.687844 12521 net.cpp:157] Top shape: 1 384 19 32 (233472)
I0929 19:41:48.687846 12521 net.cpp:165] Memory required for data: 405436128
I0929 19:41:48.687849 12521 layer_factory.hpp:77] Creating layer conv4_7/linear
I0929 19:41:48.687853 12521 net.cpp:100] Creating Layer conv4_7/linear
I0929 19:41:48.687855 12521 net.cpp:434] conv4_7/linear <- conv4_7/dwise
I0929 19:41:48.687860 12521 net.cpp:408] conv4_7/linear -> conv4_7/linear
I0929 19:41:48.689121 12521 net.cpp:150] Setting up conv4_7/linear
I0929 19:41:48.689127 12521 net.cpp:157] Top shape: 1 96 19 32 (58368)
I0929 19:41:48.689131 12521 net.cpp:165] Memory required for data: 405669600
I0929 19:41:48.689133 12521 layer_factory.hpp:77] Creating layer conv4_7/linear/bn
I0929 19:41:48.689139 12521 net.cpp:100] Creating Layer conv4_7/linear/bn
I0929 19:41:48.689141 12521 net.cpp:434] conv4_7/linear/bn <- conv4_7/linear
I0929 19:41:48.689146 12521 net.cpp:395] conv4_7/linear/bn -> conv4_7/linear (in-place)
I0929 19:41:48.689286 12521 net.cpp:150] Setting up conv4_7/linear/bn
I0929 19:41:48.689297 12521 net.cpp:157] Top shape: 1 96 19 32 (58368)
I0929 19:41:48.689299 12521 net.cpp:165] Memory required for data: 405903072
I0929 19:41:48.689303 12521 layer_factory.hpp:77] Creating layer conv4_7/linear/scale
I0929 19:41:48.689306 12521 net.cpp:100] Creating Layer conv4_7/linear/scale
I0929 19:41:48.689309 12521 net.cpp:434] conv4_7/linear/scale <- conv4_7/linear
I0929 19:41:48.689312 12521 net.cpp:395] conv4_7/linear/scale -> conv4_7/linear (in-place)
I0929 19:41:48.689339 12521 layer_factory.hpp:77] Creating layer conv4_7/linear/scale
I0929 19:41:48.689420 12521 net.cpp:150] Setting up conv4_7/linear/scale
I0929 19:41:48.689425 12521 net.cpp:157] Top shape: 1 96 19 32 (58368)
I0929 19:41:48.689426 12521 net.cpp:165] Memory required for data: 406136544
I0929 19:41:48.689430 12521 layer_factory.hpp:77] Creating layer conv4_7/linear_conv4_7/linear/scale_0_split
I0929 19:41:48.689433 12521 net.cpp:100] Creating Layer conv4_7/linear_conv4_7/linear/scale_0_split
I0929 19:41:48.689436 12521 net.cpp:434] conv4_7/linear_conv4_7/linear/scale_0_split <- conv4_7/linear
I0929 19:41:48.689440 12521 net.cpp:408] conv4_7/linear_conv4_7/linear/scale_0_split -> conv4_7/linear_conv4_7/linear/scale_0_split_0
I0929 19:41:48.689443 12521 net.cpp:408] conv4_7/linear_conv4_7/linear/scale_0_split -> conv4_7/linear_conv4_7/linear/scale_0_split_1
I0929 19:41:48.689469 12521 net.cpp:150] Setting up conv4_7/linear_conv4_7/linear/scale_0_split
I0929 19:41:48.689473 12521 net.cpp:157] Top shape: 1 96 19 32 (58368)
I0929 19:41:48.689476 12521 net.cpp:157] Top shape: 1 96 19 32 (58368)
I0929 19:41:48.689477 12521 net.cpp:165] Memory required for data: 406603488
I0929 19:41:48.689478 12521 layer_factory.hpp:77] Creating layer conv5_1/expand
I0929 19:41:48.689482 12521 net.cpp:100] Creating Layer conv5_1/expand
I0929 19:41:48.689486 12521 net.cpp:434] conv5_1/expand <- conv4_7/linear_conv4_7/linear/scale_0_split_0
I0929 19:41:48.689488 12521 net.cpp:408] conv5_1/expand -> conv5_1/expand
I0929 19:41:48.690986 12521 net.cpp:150] Setting up conv5_1/expand
I0929 19:41:48.690994 12521 net.cpp:157] Top shape: 1 576 19 32 (350208)
I0929 19:41:48.690996 12521 net.cpp:165] Memory required for data: 408004320
I0929 19:41:48.690999 12521 layer_factory.hpp:77] Creating layer conv5_1/expand/bn
I0929 19:41:48.691004 12521 net.cpp:100] Creating Layer conv5_1/expand/bn
I0929 19:41:48.691006 12521 net.cpp:434] conv5_1/expand/bn <- conv5_1/expand
I0929 19:41:48.691009 12521 net.cpp:395] conv5_1/expand/bn -> conv5_1/expand (in-place)
I0929 19:41:48.691149 12521 net.cpp:150] Setting up conv5_1/expand/bn
I0929 19:41:48.691154 12521 net.cpp:157] Top shape: 1 576 19 32 (350208)
I0929 19:41:48.691156 12521 net.cpp:165] Memory required for data: 409405152
I0929 19:41:48.691160 12521 layer_factory.hpp:77] Creating layer conv5_1/expand/scale
I0929 19:41:48.691164 12521 net.cpp:100] Creating Layer conv5_1/expand/scale
I0929 19:41:48.691166 12521 net.cpp:434] conv5_1/expand/scale <- conv5_1/expand
I0929 19:41:48.691169 12521 net.cpp:395] conv5_1/expand/scale -> conv5_1/expand (in-place)
I0929 19:41:48.691195 12521 layer_factory.hpp:77] Creating layer conv5_1/expand/scale
I0929 19:41:48.691279 12521 net.cpp:150] Setting up conv5_1/expand/scale
I0929 19:41:48.691283 12521 net.cpp:157] Top shape: 1 576 19 32 (350208)
I0929 19:41:48.691285 12521 net.cpp:165] Memory required for data: 410805984
I0929 19:41:48.691288 12521 layer_factory.hpp:77] Creating layer relu5_1/expand
I0929 19:41:48.691292 12521 net.cpp:100] Creating Layer relu5_1/expand
I0929 19:41:48.691293 12521 net.cpp:434] relu5_1/expand <- conv5_1/expand
I0929 19:41:48.691298 12521 net.cpp:395] relu5_1/expand -> conv5_1/expand (in-place)
I0929 19:41:48.691576 12521 net.cpp:150] Setting up relu5_1/expand
I0929 19:41:48.691581 12521 net.cpp:157] Top shape: 1 576 19 32 (350208)
I0929 19:41:48.691583 12521 net.cpp:165] Memory required for data: 412206816
I0929 19:41:48.691586 12521 layer_factory.hpp:77] Creating layer conv5_1/dwise
I0929 19:41:48.691591 12521 net.cpp:100] Creating Layer conv5_1/dwise
I0929 19:41:48.691601 12521 net.cpp:434] conv5_1/dwise <- conv5_1/expand
I0929 19:41:48.691606 12521 net.cpp:408] conv5_1/dwise -> conv5_1/dwise
I0929 19:41:48.691782 12521 net.cpp:150] Setting up conv5_1/dwise
I0929 19:41:48.691788 12521 net.cpp:157] Top shape: 1 576 19 32 (350208)
I0929 19:41:48.691790 12521 net.cpp:165] Memory required for data: 413607648
I0929 19:41:48.691793 12521 layer_factory.hpp:77] Creating layer conv5_1/dwise/bn
I0929 19:41:48.691797 12521 net.cpp:100] Creating Layer conv5_1/dwise/bn
I0929 19:41:48.691800 12521 net.cpp:434] conv5_1/dwise/bn <- conv5_1/dwise
I0929 19:41:48.691802 12521 net.cpp:395] conv5_1/dwise/bn -> conv5_1/dwise (in-place)
I0929 19:41:48.691941 12521 net.cpp:150] Setting up conv5_1/dwise/bn
I0929 19:41:48.691946 12521 net.cpp:157] Top shape: 1 576 19 32 (350208)
I0929 19:41:48.691946 12521 net.cpp:165] Memory required for data: 415008480
I0929 19:41:48.691951 12521 layer_factory.hpp:77] Creating layer conv5_1/dwise/scale
I0929 19:41:48.691954 12521 net.cpp:100] Creating Layer conv5_1/dwise/scale
I0929 19:41:48.691956 12521 net.cpp:434] conv5_1/dwise/scale <- conv5_1/dwise
I0929 19:41:48.691958 12521 net.cpp:395] conv5_1/dwise/scale -> conv5_1/dwise (in-place)
I0929 19:41:48.691985 12521 layer_factory.hpp:77] Creating layer conv5_1/dwise/scale
I0929 19:41:48.692065 12521 net.cpp:150] Setting up conv5_1/dwise/scale
I0929 19:41:48.692070 12521 net.cpp:157] Top shape: 1 576 19 32 (350208)
I0929 19:41:48.692071 12521 net.cpp:165] Memory required for data: 416409312
I0929 19:41:48.692075 12521 layer_factory.hpp:77] Creating layer relu5_1/dwise
I0929 19:41:48.692076 12521 net.cpp:100] Creating Layer relu5_1/dwise
I0929 19:41:48.692080 12521 net.cpp:434] relu5_1/dwise <- conv5_1/dwise
I0929 19:41:48.692081 12521 net.cpp:395] relu5_1/dwise -> conv5_1/dwise (in-place)
I0929 19:41:48.692370 12521 net.cpp:150] Setting up relu5_1/dwise
I0929 19:41:48.692375 12521 net.cpp:157] Top shape: 1 576 19 32 (350208)
I0929 19:41:48.692378 12521 net.cpp:165] Memory required for data: 417810144
I0929 19:41:48.692380 12521 layer_factory.hpp:77] Creating layer conv5_1/linear
I0929 19:41:48.692385 12521 net.cpp:100] Creating Layer conv5_1/linear
I0929 19:41:48.692389 12521 net.cpp:434] conv5_1/linear <- conv5_1/dwise
I0929 19:41:48.692392 12521 net.cpp:408] conv5_1/linear -> conv5_1/linear
I0929 19:41:48.694175 12521 net.cpp:150] Setting up conv5_1/linear
I0929 19:41:48.694188 12521 net.cpp:157] Top shape: 1 96 19 32 (58368)
I0929 19:41:48.694190 12521 net.cpp:165] Memory required for data: 418043616
I0929 19:41:48.694196 12521 layer_factory.hpp:77] Creating layer conv5_1/linear/bn
I0929 19:41:48.694203 12521 net.cpp:100] Creating Layer conv5_1/linear/bn
I0929 19:41:48.694205 12521 net.cpp:434] conv5_1/linear/bn <- conv5_1/linear
I0929 19:41:48.694209 12521 net.cpp:395] conv5_1/linear/bn -> conv5_1/linear (in-place)
I0929 19:41:48.694361 12521 net.cpp:150] Setting up conv5_1/linear/bn
I0929 19:41:48.694366 12521 net.cpp:157] Top shape: 1 96 19 32 (58368)
I0929 19:41:48.694368 12521 net.cpp:165] Memory required for data: 418277088
I0929 19:41:48.694372 12521 layer_factory.hpp:77] Creating layer conv5_1/linear/scale
I0929 19:41:48.694376 12521 net.cpp:100] Creating Layer conv5_1/linear/scale
I0929 19:41:48.694378 12521 net.cpp:434] conv5_1/linear/scale <- conv5_1/linear
I0929 19:41:48.694381 12521 net.cpp:395] conv5_1/linear/scale -> conv5_1/linear (in-place)
I0929 19:41:48.694409 12521 layer_factory.hpp:77] Creating layer conv5_1/linear/scale
I0929 19:41:48.694494 12521 net.cpp:150] Setting up conv5_1/linear/scale
I0929 19:41:48.694499 12521 net.cpp:157] Top shape: 1 96 19 32 (58368)
I0929 19:41:48.694500 12521 net.cpp:165] Memory required for data: 418510560
I0929 19:41:48.694504 12521 layer_factory.hpp:77] Creating layer block_5_1
I0929 19:41:48.694507 12521 net.cpp:100] Creating Layer block_5_1
I0929 19:41:48.694510 12521 net.cpp:434] block_5_1 <- conv4_7/linear_conv4_7/linear/scale_0_split_1
I0929 19:41:48.694512 12521 net.cpp:434] block_5_1 <- conv5_1/linear
I0929 19:41:48.694525 12521 net.cpp:408] block_5_1 -> block_5_1
I0929 19:41:48.694543 12521 net.cpp:150] Setting up block_5_1
I0929 19:41:48.694547 12521 net.cpp:157] Top shape: 1 96 19 32 (58368)
I0929 19:41:48.694548 12521 net.cpp:165] Memory required for data: 418744032
I0929 19:41:48.694550 12521 layer_factory.hpp:77] Creating layer block_5_1_block_5_1_0_split
I0929 19:41:48.694553 12521 net.cpp:100] Creating Layer block_5_1_block_5_1_0_split
I0929 19:41:48.694555 12521 net.cpp:434] block_5_1_block_5_1_0_split <- block_5_1
I0929 19:41:48.694558 12521 net.cpp:408] block_5_1_block_5_1_0_split -> block_5_1_block_5_1_0_split_0
I0929 19:41:48.694561 12521 net.cpp:408] block_5_1_block_5_1_0_split -> block_5_1_block_5_1_0_split_1
I0929 19:41:48.694586 12521 net.cpp:150] Setting up block_5_1_block_5_1_0_split
I0929 19:41:48.694589 12521 net.cpp:157] Top shape: 1 96 19 32 (58368)
I0929 19:41:48.694592 12521 net.cpp:157] Top shape: 1 96 19 32 (58368)
I0929 19:41:48.694593 12521 net.cpp:165] Memory required for data: 419210976
I0929 19:41:48.694595 12521 layer_factory.hpp:77] Creating layer conv5_2/expand
I0929 19:41:48.694599 12521 net.cpp:100] Creating Layer conv5_2/expand
I0929 19:41:48.694602 12521 net.cpp:434] conv5_2/expand <- block_5_1_block_5_1_0_split_0
I0929 19:41:48.694604 12521 net.cpp:408] conv5_2/expand -> conv5_2/expand
I0929 19:41:48.696102 12521 net.cpp:150] Setting up conv5_2/expand
I0929 19:41:48.696112 12521 net.cpp:157] Top shape: 1 576 19 32 (350208)
I0929 19:41:48.696115 12521 net.cpp:165] Memory required for data: 420611808
I0929 19:41:48.696117 12521 layer_factory.hpp:77] Creating layer conv5_2/expand/bn
I0929 19:41:48.696121 12521 net.cpp:100] Creating Layer conv5_2/expand/bn
I0929 19:41:48.696123 12521 net.cpp:434] conv5_2/expand/bn <- conv5_2/expand
I0929 19:41:48.696127 12521 net.cpp:395] conv5_2/expand/bn -> conv5_2/expand (in-place)
I0929 19:41:48.696272 12521 net.cpp:150] Setting up conv5_2/expand/bn
I0929 19:41:48.696276 12521 net.cpp:157] Top shape: 1 576 19 32 (350208)
I0929 19:41:48.696279 12521 net.cpp:165] Memory required for data: 422012640
I0929 19:41:48.696282 12521 layer_factory.hpp:77] Creating layer conv5_2/expand/scale
I0929 19:41:48.696286 12521 net.cpp:100] Creating Layer conv5_2/expand/scale
I0929 19:41:48.696288 12521 net.cpp:434] conv5_2/expand/scale <- conv5_2/expand
I0929 19:41:48.696291 12521 net.cpp:395] conv5_2/expand/scale -> conv5_2/expand (in-place)
I0929 19:41:48.696317 12521 layer_factory.hpp:77] Creating layer conv5_2/expand/scale
I0929 19:41:48.696399 12521 net.cpp:150] Setting up conv5_2/expand/scale
I0929 19:41:48.696403 12521 net.cpp:157] Top shape: 1 576 19 32 (350208)
I0929 19:41:48.696405 12521 net.cpp:165] Memory required for data: 423413472
I0929 19:41:48.696408 12521 layer_factory.hpp:77] Creating layer relu5_2/expand
I0929 19:41:48.696411 12521 net.cpp:100] Creating Layer relu5_2/expand
I0929 19:41:48.696413 12521 net.cpp:434] relu5_2/expand <- conv5_2/expand
I0929 19:41:48.696416 12521 net.cpp:395] relu5_2/expand -> conv5_2/expand (in-place)
I0929 19:41:48.696692 12521 net.cpp:150] Setting up relu5_2/expand
I0929 19:41:48.696698 12521 net.cpp:157] Top shape: 1 576 19 32 (350208)
I0929 19:41:48.696702 12521 net.cpp:165] Memory required for data: 424814304
I0929 19:41:48.696705 12521 layer_factory.hpp:77] Creating layer conv5_2/dwise
I0929 19:41:48.696712 12521 net.cpp:100] Creating Layer conv5_2/dwise
I0929 19:41:48.696714 12521 net.cpp:434] conv5_2/dwise <- conv5_2/expand
I0929 19:41:48.696722 12521 net.cpp:408] conv5_2/dwise -> conv5_2/dwise
I0929 19:41:48.696907 12521 net.cpp:150] Setting up conv5_2/dwise
I0929 19:41:48.696913 12521 net.cpp:157] Top shape: 1 576 19 32 (350208)
I0929 19:41:48.696915 12521 net.cpp:165] Memory required for data: 426215136
I0929 19:41:48.696919 12521 layer_factory.hpp:77] Creating layer conv5_2/dwise/bn
I0929 19:41:48.696925 12521 net.cpp:100] Creating Layer conv5_2/dwise/bn
I0929 19:41:48.696929 12521 net.cpp:434] conv5_2/dwise/bn <- conv5_2/dwise
I0929 19:41:48.696933 12521 net.cpp:395] conv5_2/dwise/bn -> conv5_2/dwise (in-place)
I0929 19:41:48.697087 12521 net.cpp:150] Setting up conv5_2/dwise/bn
I0929 19:41:48.697091 12521 net.cpp:157] Top shape: 1 576 19 32 (350208)
I0929 19:41:48.697094 12521 net.cpp:165] Memory required for data: 427615968
I0929 19:41:48.697100 12521 layer_factory.hpp:77] Creating layer conv5_2/dwise/scale
I0929 19:41:48.697105 12521 net.cpp:100] Creating Layer conv5_2/dwise/scale
I0929 19:41:48.697109 12521 net.cpp:434] conv5_2/dwise/scale <- conv5_2/dwise
I0929 19:41:48.697114 12521 net.cpp:395] conv5_2/dwise/scale -> conv5_2/dwise (in-place)
I0929 19:41:48.697147 12521 layer_factory.hpp:77] Creating layer conv5_2/dwise/scale
I0929 19:41:48.697232 12521 net.cpp:150] Setting up conv5_2/dwise/scale
I0929 19:41:48.697237 12521 net.cpp:157] Top shape: 1 576 19 32 (350208)
I0929 19:41:48.697239 12521 net.cpp:165] Memory required for data: 429016800
I0929 19:41:48.697245 12521 layer_factory.hpp:77] Creating layer relu5_2/dwise
I0929 19:41:48.697249 12521 net.cpp:100] Creating Layer relu5_2/dwise
I0929 19:41:48.697253 12521 net.cpp:434] relu5_2/dwise <- conv5_2/dwise
I0929 19:41:48.697258 12521 net.cpp:395] relu5_2/dwise -> conv5_2/dwise (in-place)
I0929 19:41:48.697648 12521 net.cpp:150] Setting up relu5_2/dwise
I0929 19:41:48.697655 12521 net.cpp:157] Top shape: 1 576 19 32 (350208)
I0929 19:41:48.697659 12521 net.cpp:165] Memory required for data: 430417632
I0929 19:41:48.697662 12521 layer_factory.hpp:77] Creating layer conv5_2/linear
I0929 19:41:48.697670 12521 net.cpp:100] Creating Layer conv5_2/linear
I0929 19:41:48.697674 12521 net.cpp:434] conv5_2/linear <- conv5_2/dwise
I0929 19:41:48.697680 12521 net.cpp:408] conv5_2/linear -> conv5_2/linear
I0929 19:41:48.699066 12521 net.cpp:150] Setting up conv5_2/linear
I0929 19:41:48.699074 12521 net.cpp:157] Top shape: 1 96 19 32 (58368)
I0929 19:41:48.699077 12521 net.cpp:165] Memory required for data: 430651104
I0929 19:41:48.699084 12521 layer_factory.hpp:77] Creating layer conv5_2/linear/bn
I0929 19:41:48.699090 12521 net.cpp:100] Creating Layer conv5_2/linear/bn
I0929 19:41:48.699095 12521 net.cpp:434] conv5_2/linear/bn <- conv5_2/linear
I0929 19:41:48.699098 12521 net.cpp:395] conv5_2/linear/bn -> conv5_2/linear (in-place)
I0929 19:41:48.699247 12521 net.cpp:150] Setting up conv5_2/linear/bn
I0929 19:41:48.699254 12521 net.cpp:157] Top shape: 1 96 19 32 (58368)
I0929 19:41:48.699255 12521 net.cpp:165] Memory required for data: 430884576
I0929 19:41:48.699262 12521 layer_factory.hpp:77] Creating layer conv5_2/linear/scale
I0929 19:41:48.699267 12521 net.cpp:100] Creating Layer conv5_2/linear/scale
I0929 19:41:48.699270 12521 net.cpp:434] conv5_2/linear/scale <- conv5_2/linear
I0929 19:41:48.699275 12521 net.cpp:395] conv5_2/linear/scale -> conv5_2/linear (in-place)
I0929 19:41:48.699306 12521 layer_factory.hpp:77] Creating layer conv5_2/linear/scale
I0929 19:41:48.699395 12521 net.cpp:150] Setting up conv5_2/linear/scale
I0929 19:41:48.699400 12521 net.cpp:157] Top shape: 1 96 19 32 (58368)
I0929 19:41:48.699403 12521 net.cpp:165] Memory required for data: 431118048
I0929 19:41:48.699407 12521 layer_factory.hpp:77] Creating layer block_5_2
I0929 19:41:48.699414 12521 net.cpp:100] Creating Layer block_5_2
I0929 19:41:48.699417 12521 net.cpp:434] block_5_2 <- block_5_1_block_5_1_0_split_1
I0929 19:41:48.699421 12521 net.cpp:434] block_5_2 <- conv5_2/linear
I0929 19:41:48.699427 12521 net.cpp:408] block_5_2 -> block_5_2
I0929 19:41:48.699447 12521 net.cpp:150] Setting up block_5_2
I0929 19:41:48.699452 12521 net.cpp:157] Top shape: 1 96 19 32 (58368)
I0929 19:41:48.699455 12521 net.cpp:165] Memory required for data: 431351520
I0929 19:41:48.699457 12521 layer_factory.hpp:77] Creating layer conv5_3/expand
I0929 19:41:48.699465 12521 net.cpp:100] Creating Layer conv5_3/expand
I0929 19:41:48.699468 12521 net.cpp:434] conv5_3/expand <- block_5_2
I0929 19:41:48.699472 12521 net.cpp:408] conv5_3/expand -> conv5_3/expand
I0929 19:41:48.701369 12521 net.cpp:150] Setting up conv5_3/expand
I0929 19:41:48.701381 12521 net.cpp:157] Top shape: 1 576 19 32 (350208)
I0929 19:41:48.701385 12521 net.cpp:165] Memory required for data: 432752352
I0929 19:41:48.701406 12521 layer_factory.hpp:77] Creating layer conv5_3/expand/bn
I0929 19:41:48.701416 12521 net.cpp:100] Creating Layer conv5_3/expand/bn
I0929 19:41:48.701421 12521 net.cpp:434] conv5_3/expand/bn <- conv5_3/expand
I0929 19:41:48.701426 12521 net.cpp:395] conv5_3/expand/bn -> conv5_3/expand (in-place)
I0929 19:41:48.701586 12521 net.cpp:150] Setting up conv5_3/expand/bn
I0929 19:41:48.701591 12521 net.cpp:157] Top shape: 1 576 19 32 (350208)
I0929 19:41:48.701596 12521 net.cpp:165] Memory required for data: 434153184
I0929 19:41:48.701602 12521 layer_factory.hpp:77] Creating layer conv5_3/expand/scale
I0929 19:41:48.701608 12521 net.cpp:100] Creating Layer conv5_3/expand/scale
I0929 19:41:48.701612 12521 net.cpp:434] conv5_3/expand/scale <- conv5_3/expand
I0929 19:41:48.701617 12521 net.cpp:395] conv5_3/expand/scale -> conv5_3/expand (in-place)
I0929 19:41:48.701651 12521 layer_factory.hpp:77] Creating layer conv5_3/expand/scale
I0929 19:41:48.701740 12521 net.cpp:150] Setting up conv5_3/expand/scale
I0929 19:41:48.701745 12521 net.cpp:157] Top shape: 1 576 19 32 (350208)
I0929 19:41:48.701748 12521 net.cpp:165] Memory required for data: 435554016
I0929 19:41:48.701753 12521 layer_factory.hpp:77] Creating layer relu5_3/expand
I0929 19:41:48.701758 12521 net.cpp:100] Creating Layer relu5_3/expand
I0929 19:41:48.701761 12521 net.cpp:434] relu5_3/expand <- conv5_3/expand
I0929 19:41:48.701766 12521 net.cpp:395] relu5_3/expand -> conv5_3/expand (in-place)
I0929 19:41:48.702052 12521 net.cpp:150] Setting up relu5_3/expand
I0929 19:41:48.702059 12521 net.cpp:157] Top shape: 1 576 19 32 (350208)
I0929 19:41:48.702061 12521 net.cpp:165] Memory required for data: 436954848
I0929 19:41:48.702064 12521 layer_factory.hpp:77] Creating layer conv5_3/expand_relu5_3/expand_0_split
I0929 19:41:48.702070 12521 net.cpp:100] Creating Layer conv5_3/expand_relu5_3/expand_0_split
I0929 19:41:48.702075 12521 net.cpp:434] conv5_3/expand_relu5_3/expand_0_split <- conv5_3/expand
I0929 19:41:48.702080 12521 net.cpp:408] conv5_3/expand_relu5_3/expand_0_split -> conv5_3/expand_relu5_3/expand_0_split_0
I0929 19:41:48.702086 12521 net.cpp:408] conv5_3/expand_relu5_3/expand_0_split -> conv5_3/expand_relu5_3/expand_0_split_1
I0929 19:41:48.702118 12521 net.cpp:150] Setting up conv5_3/expand_relu5_3/expand_0_split
I0929 19:41:48.702123 12521 net.cpp:157] Top shape: 1 576 19 32 (350208)
I0929 19:41:48.702127 12521 net.cpp:157] Top shape: 1 576 19 32 (350208)
I0929 19:41:48.702131 12521 net.cpp:165] Memory required for data: 439756512
I0929 19:41:48.702133 12521 layer_factory.hpp:77] Creating layer conv5_3/dwise
I0929 19:41:48.702141 12521 net.cpp:100] Creating Layer conv5_3/dwise
I0929 19:41:48.702143 12521 net.cpp:434] conv5_3/dwise <- conv5_3/expand_relu5_3/expand_0_split_0
I0929 19:41:48.702148 12521 net.cpp:408] conv5_3/dwise -> conv5_3/dwise
I0929 19:41:48.702323 12521 net.cpp:150] Setting up conv5_3/dwise
I0929 19:41:48.702329 12521 net.cpp:157] Top shape: 1 576 10 16 (92160)
I0929 19:41:48.702332 12521 net.cpp:165] Memory required for data: 440125152
I0929 19:41:48.702337 12521 layer_factory.hpp:77] Creating layer conv5_3/dwise/bn
I0929 19:41:48.702342 12521 net.cpp:100] Creating Layer conv5_3/dwise/bn
I0929 19:41:48.702345 12521 net.cpp:434] conv5_3/dwise/bn <- conv5_3/dwise
I0929 19:41:48.702349 12521 net.cpp:395] conv5_3/dwise/bn -> conv5_3/dwise (in-place)
I0929 19:41:48.702491 12521 net.cpp:150] Setting up conv5_3/dwise/bn
I0929 19:41:48.702497 12521 net.cpp:157] Top shape: 1 576 10 16 (92160)
I0929 19:41:48.702500 12521 net.cpp:165] Memory required for data: 440493792
I0929 19:41:48.702507 12521 layer_factory.hpp:77] Creating layer conv5_3/dwise/scale
I0929 19:41:48.702512 12521 net.cpp:100] Creating Layer conv5_3/dwise/scale
I0929 19:41:48.702515 12521 net.cpp:434] conv5_3/dwise/scale <- conv5_3/dwise
I0929 19:41:48.702520 12521 net.cpp:395] conv5_3/dwise/scale -> conv5_3/dwise (in-place)
I0929 19:41:48.702551 12521 layer_factory.hpp:77] Creating layer conv5_3/dwise/scale
I0929 19:41:48.702646 12521 net.cpp:150] Setting up conv5_3/dwise/scale
I0929 19:41:48.702651 12521 net.cpp:157] Top shape: 1 576 10 16 (92160)
I0929 19:41:48.702656 12521 net.cpp:165] Memory required for data: 440862432
I0929 19:41:48.702661 12521 layer_factory.hpp:77] Creating layer relu5_3/dwise
I0929 19:41:48.702666 12521 net.cpp:100] Creating Layer relu5_3/dwise
I0929 19:41:48.702668 12521 net.cpp:434] relu5_3/dwise <- conv5_3/dwise
I0929 19:41:48.702674 12521 net.cpp:395] relu5_3/dwise -> conv5_3/dwise (in-place)
I0929 19:41:48.703096 12521 net.cpp:150] Setting up relu5_3/dwise
I0929 19:41:48.703104 12521 net.cpp:157] Top shape: 1 576 10 16 (92160)
I0929 19:41:48.703106 12521 net.cpp:165] Memory required for data: 441231072
I0929 19:41:48.703110 12521 layer_factory.hpp:77] Creating layer conv5_3/linear
I0929 19:41:48.703119 12521 net.cpp:100] Creating Layer conv5_3/linear
I0929 19:41:48.703121 12521 net.cpp:434] conv5_3/linear <- conv5_3/dwise
I0929 19:41:48.703128 12521 net.cpp:408] conv5_3/linear -> conv5_3/linear
I0929 19:41:48.705374 12521 net.cpp:150] Setting up conv5_3/linear
I0929 19:41:48.705385 12521 net.cpp:157] Top shape: 1 160 10 16 (25600)
I0929 19:41:48.705389 12521 net.cpp:165] Memory required for data: 441333472
I0929 19:41:48.705394 12521 layer_factory.hpp:77] Creating layer conv5_3/linear/bn
I0929 19:41:48.705404 12521 net.cpp:100] Creating Layer conv5_3/linear/bn
I0929 19:41:48.705407 12521 net.cpp:434] conv5_3/linear/bn <- conv5_3/linear
I0929 19:41:48.705412 12521 net.cpp:395] conv5_3/linear/bn -> conv5_3/linear (in-place)
I0929 19:41:48.705560 12521 net.cpp:150] Setting up conv5_3/linear/bn
I0929 19:41:48.705565 12521 net.cpp:157] Top shape: 1 160 10 16 (25600)
I0929 19:41:48.705569 12521 net.cpp:165] Memory required for data: 441435872
I0929 19:41:48.705574 12521 layer_factory.hpp:77] Creating layer conv5_3/linear/scale
I0929 19:41:48.705580 12521 net.cpp:100] Creating Layer conv5_3/linear/scale
I0929 19:41:48.705585 12521 net.cpp:434] conv5_3/linear/scale <- conv5_3/linear
I0929 19:41:48.705590 12521 net.cpp:395] conv5_3/linear/scale -> conv5_3/linear (in-place)
I0929 19:41:48.705621 12521 layer_factory.hpp:77] Creating layer conv5_3/linear/scale
I0929 19:41:48.705706 12521 net.cpp:150] Setting up conv5_3/linear/scale
I0929 19:41:48.705711 12521 net.cpp:157] Top shape: 1 160 10 16 (25600)
I0929 19:41:48.705714 12521 net.cpp:165] Memory required for data: 441538272
I0929 19:41:48.705737 12521 layer_factory.hpp:77] Creating layer conv5_3/linear_conv5_3/linear/scale_0_split
I0929 19:41:48.705742 12521 net.cpp:100] Creating Layer conv5_3/linear_conv5_3/linear/scale_0_split
I0929 19:41:48.705746 12521 net.cpp:434] conv5_3/linear_conv5_3/linear/scale_0_split <- conv5_3/linear
I0929 19:41:48.705751 12521 net.cpp:408] conv5_3/linear_conv5_3/linear/scale_0_split -> conv5_3/linear_conv5_3/linear/scale_0_split_0
I0929 19:41:48.705759 12521 net.cpp:408] conv5_3/linear_conv5_3/linear/scale_0_split -> conv5_3/linear_conv5_3/linear/scale_0_split_1
I0929 19:41:48.705788 12521 net.cpp:150] Setting up conv5_3/linear_conv5_3/linear/scale_0_split
I0929 19:41:48.705793 12521 net.cpp:157] Top shape: 1 160 10 16 (25600)
I0929 19:41:48.705797 12521 net.cpp:157] Top shape: 1 160 10 16 (25600)
I0929 19:41:48.705801 12521 net.cpp:165] Memory required for data: 441743072
I0929 19:41:48.705803 12521 layer_factory.hpp:77] Creating layer conv6_1/expand
I0929 19:41:48.705811 12521 net.cpp:100] Creating Layer conv6_1/expand
I0929 19:41:48.705816 12521 net.cpp:434] conv6_1/expand <- conv5_3/linear_conv5_3/linear/scale_0_split_0
I0929 19:41:48.705821 12521 net.cpp:408] conv6_1/expand -> conv6_1/expand
I0929 19:41:48.707782 12521 net.cpp:150] Setting up conv6_1/expand
I0929 19:41:48.707792 12521 net.cpp:157] Top shape: 1 960 10 16 (153600)
I0929 19:41:48.707794 12521 net.cpp:165] Memory required for data: 442357472
I0929 19:41:48.707798 12521 layer_factory.hpp:77] Creating layer conv6_1/expand/bn
I0929 19:41:48.707805 12521 net.cpp:100] Creating Layer conv6_1/expand/bn
I0929 19:41:48.707809 12521 net.cpp:434] conv6_1/expand/bn <- conv6_1/expand
I0929 19:41:48.707823 12521 net.cpp:395] conv6_1/expand/bn -> conv6_1/expand (in-place)
I0929 19:41:48.707975 12521 net.cpp:150] Setting up conv6_1/expand/bn
I0929 19:41:48.707981 12521 net.cpp:157] Top shape: 1 960 10 16 (153600)
I0929 19:41:48.707985 12521 net.cpp:165] Memory required for data: 442971872
I0929 19:41:48.707993 12521 layer_factory.hpp:77] Creating layer conv6_1/expand/scale
I0929 19:41:48.707996 12521 net.cpp:100] Creating Layer conv6_1/expand/scale
I0929 19:41:48.708000 12521 net.cpp:434] conv6_1/expand/scale <- conv6_1/expand
I0929 19:41:48.708006 12521 net.cpp:395] conv6_1/expand/scale -> conv6_1/expand (in-place)
I0929 19:41:48.708039 12521 layer_factory.hpp:77] Creating layer conv6_1/expand/scale
I0929 19:41:48.708123 12521 net.cpp:150] Setting up conv6_1/expand/scale
I0929 19:41:48.708128 12521 net.cpp:157] Top shape: 1 960 10 16 (153600)
I0929 19:41:48.708132 12521 net.cpp:165] Memory required for data: 443586272
I0929 19:41:48.708137 12521 layer_factory.hpp:77] Creating layer relu6_1/expand
I0929 19:41:48.708143 12521 net.cpp:100] Creating Layer relu6_1/expand
I0929 19:41:48.708147 12521 net.cpp:434] relu6_1/expand <- conv6_1/expand
I0929 19:41:48.708153 12521 net.cpp:395] relu6_1/expand -> conv6_1/expand (in-place)
I0929 19:41:48.708534 12521 net.cpp:150] Setting up relu6_1/expand
I0929 19:41:48.708541 12521 net.cpp:157] Top shape: 1 960 10 16 (153600)
I0929 19:41:48.708544 12521 net.cpp:165] Memory required for data: 444200672
I0929 19:41:48.708547 12521 layer_factory.hpp:77] Creating layer conv6_1/dwise
I0929 19:41:48.708554 12521 net.cpp:100] Creating Layer conv6_1/dwise
I0929 19:41:48.708559 12521 net.cpp:434] conv6_1/dwise <- conv6_1/expand
I0929 19:41:48.708564 12521 net.cpp:408] conv6_1/dwise -> conv6_1/dwise
I0929 19:41:48.708763 12521 net.cpp:150] Setting up conv6_1/dwise
I0929 19:41:48.708770 12521 net.cpp:157] Top shape: 1 960 10 16 (153600)
I0929 19:41:48.708772 12521 net.cpp:165] Memory required for data: 444815072
I0929 19:41:48.708776 12521 layer_factory.hpp:77] Creating layer conv6_1/dwise/bn
I0929 19:41:48.708782 12521 net.cpp:100] Creating Layer conv6_1/dwise/bn
I0929 19:41:48.708786 12521 net.cpp:434] conv6_1/dwise/bn <- conv6_1/dwise
I0929 19:41:48.708791 12521 net.cpp:395] conv6_1/dwise/bn -> conv6_1/dwise (in-place)
I0929 19:41:48.708935 12521 net.cpp:150] Setting up conv6_1/dwise/bn
I0929 19:41:48.708940 12521 net.cpp:157] Top shape: 1 960 10 16 (153600)
I0929 19:41:48.708943 12521 net.cpp:165] Memory required for data: 445429472
I0929 19:41:48.708951 12521 layer_factory.hpp:77] Creating layer conv6_1/dwise/scale
I0929 19:41:48.708956 12521 net.cpp:100] Creating Layer conv6_1/dwise/scale
I0929 19:41:48.708959 12521 net.cpp:434] conv6_1/dwise/scale <- conv6_1/dwise
I0929 19:41:48.708963 12521 net.cpp:395] conv6_1/dwise/scale -> conv6_1/dwise (in-place)
I0929 19:41:48.708995 12521 layer_factory.hpp:77] Creating layer conv6_1/dwise/scale
I0929 19:41:48.709095 12521 net.cpp:150] Setting up conv6_1/dwise/scale
I0929 19:41:48.709100 12521 net.cpp:157] Top shape: 1 960 10 16 (153600)
I0929 19:41:48.709103 12521 net.cpp:165] Memory required for data: 446043872
I0929 19:41:48.709110 12521 layer_factory.hpp:77] Creating layer relu6_1/dwise
I0929 19:41:48.709113 12521 net.cpp:100] Creating Layer relu6_1/dwise
I0929 19:41:48.709117 12521 net.cpp:434] relu6_1/dwise <- conv6_1/dwise
I0929 19:41:48.709121 12521 net.cpp:395] relu6_1/dwise -> conv6_1/dwise (in-place)
I0929 19:41:48.709405 12521 net.cpp:150] Setting up relu6_1/dwise
I0929 19:41:48.709411 12521 net.cpp:157] Top shape: 1 960 10 16 (153600)
I0929 19:41:48.709414 12521 net.cpp:165] Memory required for data: 446658272
I0929 19:41:48.709416 12521 layer_factory.hpp:77] Creating layer conv6_1/linear
I0929 19:41:48.709424 12521 net.cpp:100] Creating Layer conv6_1/linear
I0929 19:41:48.709427 12521 net.cpp:434] conv6_1/linear <- conv6_1/dwise
I0929 19:41:48.709434 12521 net.cpp:408] conv6_1/linear -> conv6_1/linear
I0929 19:41:48.711398 12521 net.cpp:150] Setting up conv6_1/linear
I0929 19:41:48.711407 12521 net.cpp:157] Top shape: 1 160 10 16 (25600)
I0929 19:41:48.711419 12521 net.cpp:165] Memory required for data: 446760672
I0929 19:41:48.711426 12521 layer_factory.hpp:77] Creating layer conv6_1/linear/bn
I0929 19:41:48.711433 12521 net.cpp:100] Creating Layer conv6_1/linear/bn
I0929 19:41:48.711436 12521 net.cpp:434] conv6_1/linear/bn <- conv6_1/linear
I0929 19:41:48.711441 12521 net.cpp:395] conv6_1/linear/bn -> conv6_1/linear (in-place)
I0929 19:41:48.711586 12521 net.cpp:150] Setting up conv6_1/linear/bn
I0929 19:41:48.711591 12521 net.cpp:157] Top shape: 1 160 10 16 (25600)
I0929 19:41:48.711594 12521 net.cpp:165] Memory required for data: 446863072
I0929 19:41:48.711601 12521 layer_factory.hpp:77] Creating layer conv6_1/linear/scale
I0929 19:41:48.711607 12521 net.cpp:100] Creating Layer conv6_1/linear/scale
I0929 19:41:48.711611 12521 net.cpp:434] conv6_1/linear/scale <- conv6_1/linear
I0929 19:41:48.711616 12521 net.cpp:395] conv6_1/linear/scale -> conv6_1/linear (in-place)
I0929 19:41:48.711647 12521 layer_factory.hpp:77] Creating layer conv6_1/linear/scale
I0929 19:41:48.711730 12521 net.cpp:150] Setting up conv6_1/linear/scale
I0929 19:41:48.711735 12521 net.cpp:157] Top shape: 1 160 10 16 (25600)
I0929 19:41:48.711737 12521 net.cpp:165] Memory required for data: 446965472
I0929 19:41:48.711745 12521 layer_factory.hpp:77] Creating layer block_6_1
I0929 19:41:48.711750 12521 net.cpp:100] Creating Layer block_6_1
I0929 19:41:48.711753 12521 net.cpp:434] block_6_1 <- conv5_3/linear_conv5_3/linear/scale_0_split_1
I0929 19:41:48.711757 12521 net.cpp:434] block_6_1 <- conv6_1/linear
I0929 19:41:48.711762 12521 net.cpp:408] block_6_1 -> block_6_1
I0929 19:41:48.711783 12521 net.cpp:150] Setting up block_6_1
I0929 19:41:48.711787 12521 net.cpp:157] Top shape: 1 160 10 16 (25600)
I0929 19:41:48.711791 12521 net.cpp:165] Memory required for data: 447067872
I0929 19:41:48.711794 12521 layer_factory.hpp:77] Creating layer block_6_1_block_6_1_0_split
I0929 19:41:48.711798 12521 net.cpp:100] Creating Layer block_6_1_block_6_1_0_split
I0929 19:41:48.711802 12521 net.cpp:434] block_6_1_block_6_1_0_split <- block_6_1
I0929 19:41:48.711805 12521 net.cpp:408] block_6_1_block_6_1_0_split -> block_6_1_block_6_1_0_split_0
I0929 19:41:48.711812 12521 net.cpp:408] block_6_1_block_6_1_0_split -> block_6_1_block_6_1_0_split_1
I0929 19:41:48.711840 12521 net.cpp:150] Setting up block_6_1_block_6_1_0_split
I0929 19:41:48.711844 12521 net.cpp:157] Top shape: 1 160 10 16 (25600)
I0929 19:41:48.711848 12521 net.cpp:157] Top shape: 1 160 10 16 (25600)
I0929 19:41:48.711851 12521 net.cpp:165] Memory required for data: 447272672
I0929 19:41:48.711855 12521 layer_factory.hpp:77] Creating layer conv6_2/expand
I0929 19:41:48.711863 12521 net.cpp:100] Creating Layer conv6_2/expand
I0929 19:41:48.711865 12521 net.cpp:434] conv6_2/expand <- block_6_1_block_6_1_0_split_0
I0929 19:41:48.711870 12521 net.cpp:408] conv6_2/expand -> conv6_2/expand
I0929 19:41:48.714319 12521 net.cpp:150] Setting up conv6_2/expand
I0929 19:41:48.714334 12521 net.cpp:157] Top shape: 1 960 10 16 (153600)
I0929 19:41:48.714335 12521 net.cpp:165] Memory required for data: 447887072
I0929 19:41:48.714342 12521 layer_factory.hpp:77] Creating layer conv6_2/expand/bn
I0929 19:41:48.714350 12521 net.cpp:100] Creating Layer conv6_2/expand/bn
I0929 19:41:48.714355 12521 net.cpp:434] conv6_2/expand/bn <- conv6_2/expand
I0929 19:41:48.714361 12521 net.cpp:395] conv6_2/expand/bn -> conv6_2/expand (in-place)
I0929 19:41:48.714519 12521 net.cpp:150] Setting up conv6_2/expand/bn
I0929 19:41:48.714525 12521 net.cpp:157] Top shape: 1 960 10 16 (153600)
I0929 19:41:48.714527 12521 net.cpp:165] Memory required for data: 448501472
I0929 19:41:48.714534 12521 layer_factory.hpp:77] Creating layer conv6_2/expand/scale
I0929 19:41:48.714540 12521 net.cpp:100] Creating Layer conv6_2/expand/scale
I0929 19:41:48.714543 12521 net.cpp:434] conv6_2/expand/scale <- conv6_2/expand
I0929 19:41:48.714548 12521 net.cpp:395] conv6_2/expand/scale -> conv6_2/expand (in-place)
I0929 19:41:48.714586 12521 layer_factory.hpp:77] Creating layer conv6_2/expand/scale
I0929 19:41:48.714684 12521 net.cpp:150] Setting up conv6_2/expand/scale
I0929 19:41:48.714689 12521 net.cpp:157] Top shape: 1 960 10 16 (153600)
I0929 19:41:48.714692 12521 net.cpp:165] Memory required for data: 449115872
I0929 19:41:48.714697 12521 layer_factory.hpp:77] Creating layer relu6_2/expand
I0929 19:41:48.714704 12521 net.cpp:100] Creating Layer relu6_2/expand
I0929 19:41:48.714706 12521 net.cpp:434] relu6_2/expand <- conv6_2/expand
I0929 19:41:48.714711 12521 net.cpp:395] relu6_2/expand -> conv6_2/expand (in-place)
I0929 19:41:48.715126 12521 net.cpp:150] Setting up relu6_2/expand
I0929 19:41:48.715134 12521 net.cpp:157] Top shape: 1 960 10 16 (153600)
I0929 19:41:48.715137 12521 net.cpp:165] Memory required for data: 449730272
I0929 19:41:48.715140 12521 layer_factory.hpp:77] Creating layer conv6_2/dwise
I0929 19:41:48.715148 12521 net.cpp:100] Creating Layer conv6_2/dwise
I0929 19:41:48.715152 12521 net.cpp:434] conv6_2/dwise <- conv6_2/expand
I0929 19:41:48.715158 12521 net.cpp:408] conv6_2/dwise -> conv6_2/dwise
I0929 19:41:48.715363 12521 net.cpp:150] Setting up conv6_2/dwise
I0929 19:41:48.715368 12521 net.cpp:157] Top shape: 1 960 10 16 (153600)
I0929 19:41:48.715370 12521 net.cpp:165] Memory required for data: 450344672
I0929 19:41:48.715376 12521 layer_factory.hpp:77] Creating layer conv6_2/dwise/bn
I0929 19:41:48.715382 12521 net.cpp:100] Creating Layer conv6_2/dwise/bn
I0929 19:41:48.715385 12521 net.cpp:434] conv6_2/dwise/bn <- conv6_2/dwise
I0929 19:41:48.715389 12521 net.cpp:395] conv6_2/dwise/bn -> conv6_2/dwise (in-place)
I0929 19:41:48.715536 12521 net.cpp:150] Setting up conv6_2/dwise/bn
I0929 19:41:48.715541 12521 net.cpp:157] Top shape: 1 960 10 16 (153600)
I0929 19:41:48.715543 12521 net.cpp:165] Memory required for data: 450959072
I0929 19:41:48.715550 12521 layer_factory.hpp:77] Creating layer conv6_2/dwise/scale
I0929 19:41:48.715555 12521 net.cpp:100] Creating Layer conv6_2/dwise/scale
I0929 19:41:48.715559 12521 net.cpp:434] conv6_2/dwise/scale <- conv6_2/dwise
I0929 19:41:48.715562 12521 net.cpp:395] conv6_2/dwise/scale -> conv6_2/dwise (in-place)
I0929 19:41:48.715595 12521 layer_factory.hpp:77] Creating layer conv6_2/dwise/scale
I0929 19:41:48.715682 12521 net.cpp:150] Setting up conv6_2/dwise/scale
I0929 19:41:48.715687 12521 net.cpp:157] Top shape: 1 960 10 16 (153600)
I0929 19:41:48.715689 12521 net.cpp:165] Memory required for data: 451573472
I0929 19:41:48.715695 12521 layer_factory.hpp:77] Creating layer relu6_2/dwise
I0929 19:41:48.715700 12521 net.cpp:100] Creating Layer relu6_2/dwise
I0929 19:41:48.715703 12521 net.cpp:434] relu6_2/dwise <- conv6_2/dwise
I0929 19:41:48.715708 12521 net.cpp:395] relu6_2/dwise -> conv6_2/dwise (in-place)
I0929 19:41:48.715988 12521 net.cpp:150] Setting up relu6_2/dwise
I0929 19:41:48.715994 12521 net.cpp:157] Top shape: 1 960 10 16 (153600)
I0929 19:41:48.715997 12521 net.cpp:165] Memory required for data: 452187872
I0929 19:41:48.716001 12521 layer_factory.hpp:77] Creating layer conv6_2/linear
I0929 19:41:48.716007 12521 net.cpp:100] Creating Layer conv6_2/linear
I0929 19:41:48.716012 12521 net.cpp:434] conv6_2/linear <- conv6_2/dwise
I0929 19:41:48.716017 12521 net.cpp:408] conv6_2/linear -> conv6_2/linear
I0929 19:41:48.717970 12521 net.cpp:150] Setting up conv6_2/linear
I0929 19:41:48.717979 12521 net.cpp:157] Top shape: 1 160 10 16 (25600)
I0929 19:41:48.717983 12521 net.cpp:165] Memory required for data: 452290272
I0929 19:41:48.717988 12521 layer_factory.hpp:77] Creating layer conv6_2/linear/bn
I0929 19:41:48.717994 12521 net.cpp:100] Creating Layer conv6_2/linear/bn
I0929 19:41:48.717998 12521 net.cpp:434] conv6_2/linear/bn <- conv6_2/linear
I0929 19:41:48.718003 12521 net.cpp:395] conv6_2/linear/bn -> conv6_2/linear (in-place)
I0929 19:41:48.718152 12521 net.cpp:150] Setting up conv6_2/linear/bn
I0929 19:41:48.718158 12521 net.cpp:157] Top shape: 1 160 10 16 (25600)
I0929 19:41:48.718159 12521 net.cpp:165] Memory required for data: 452392672
I0929 19:41:48.718168 12521 layer_factory.hpp:77] Creating layer conv6_2/linear/scale
I0929 19:41:48.718183 12521 net.cpp:100] Creating Layer conv6_2/linear/scale
I0929 19:41:48.718186 12521 net.cpp:434] conv6_2/linear/scale <- conv6_2/linear
I0929 19:41:48.718190 12521 net.cpp:395] conv6_2/linear/scale -> conv6_2/linear (in-place)
I0929 19:41:48.718224 12521 layer_factory.hpp:77] Creating layer conv6_2/linear/scale
I0929 19:41:48.718310 12521 net.cpp:150] Setting up conv6_2/linear/scale
I0929 19:41:48.718315 12521 net.cpp:157] Top shape: 1 160 10 16 (25600)
I0929 19:41:48.718318 12521 net.cpp:165] Memory required for data: 452495072
I0929 19:41:48.718324 12521 layer_factory.hpp:77] Creating layer block_6_2
I0929 19:41:48.718329 12521 net.cpp:100] Creating Layer block_6_2
I0929 19:41:48.718333 12521 net.cpp:434] block_6_2 <- block_6_1_block_6_1_0_split_1
I0929 19:41:48.718338 12521 net.cpp:434] block_6_2 <- conv6_2/linear
I0929 19:41:48.718344 12521 net.cpp:408] block_6_2 -> block_6_2
I0929 19:41:48.718364 12521 net.cpp:150] Setting up block_6_2
I0929 19:41:48.718369 12521 net.cpp:157] Top shape: 1 160 10 16 (25600)
I0929 19:41:48.718371 12521 net.cpp:165] Memory required for data: 452597472
I0929 19:41:48.718374 12521 layer_factory.hpp:77] Creating layer conv6_3/expand
I0929 19:41:48.718382 12521 net.cpp:100] Creating Layer conv6_3/expand
I0929 19:41:48.718384 12521 net.cpp:434] conv6_3/expand <- block_6_2
I0929 19:41:48.718389 12521 net.cpp:408] conv6_3/expand -> conv6_3/expand
I0929 19:41:48.720496 12521 net.cpp:150] Setting up conv6_3/expand
I0929 19:41:48.720505 12521 net.cpp:157] Top shape: 1 960 10 16 (153600)
I0929 19:41:48.720508 12521 net.cpp:165] Memory required for data: 453211872
I0929 19:41:48.720513 12521 layer_factory.hpp:77] Creating layer conv6_3/expand/bn
I0929 19:41:48.720521 12521 net.cpp:100] Creating Layer conv6_3/expand/bn
I0929 19:41:48.720525 12521 net.cpp:434] conv6_3/expand/bn <- conv6_3/expand
I0929 19:41:48.720530 12521 net.cpp:395] conv6_3/expand/bn -> conv6_3/expand (in-place)
I0929 19:41:48.720685 12521 net.cpp:150] Setting up conv6_3/expand/bn
I0929 19:41:48.720690 12521 net.cpp:157] Top shape: 1 960 10 16 (153600)
I0929 19:41:48.720693 12521 net.cpp:165] Memory required for data: 453826272
I0929 19:41:48.720700 12521 layer_factory.hpp:77] Creating layer conv6_3/expand/scale
I0929 19:41:48.720705 12521 net.cpp:100] Creating Layer conv6_3/expand/scale
I0929 19:41:48.720710 12521 net.cpp:434] conv6_3/expand/scale <- conv6_3/expand
I0929 19:41:48.720715 12521 net.cpp:395] conv6_3/expand/scale -> conv6_3/expand (in-place)
I0929 19:41:48.720748 12521 layer_factory.hpp:77] Creating layer conv6_3/expand/scale
I0929 19:41:48.720839 12521 net.cpp:150] Setting up conv6_3/expand/scale
I0929 19:41:48.720844 12521 net.cpp:157] Top shape: 1 960 10 16 (153600)
I0929 19:41:48.720846 12521 net.cpp:165] Memory required for data: 454440672
I0929 19:41:48.720851 12521 layer_factory.hpp:77] Creating layer relu6_3/expand
I0929 19:41:48.720856 12521 net.cpp:100] Creating Layer relu6_3/expand
I0929 19:41:48.720860 12521 net.cpp:434] relu6_3/expand <- conv6_3/expand
I0929 19:41:48.720867 12521 net.cpp:395] relu6_3/expand -> conv6_3/expand (in-place)
I0929 19:41:48.721149 12521 net.cpp:150] Setting up relu6_3/expand
I0929 19:41:48.721155 12521 net.cpp:157] Top shape: 1 960 10 16 (153600)
I0929 19:41:48.721158 12521 net.cpp:165] Memory required for data: 455055072
I0929 19:41:48.721163 12521 layer_factory.hpp:77] Creating layer conv6_3/dwise
I0929 19:41:48.721169 12521 net.cpp:100] Creating Layer conv6_3/dwise
I0929 19:41:48.721173 12521 net.cpp:434] conv6_3/dwise <- conv6_3/expand
I0929 19:41:48.721179 12521 net.cpp:408] conv6_3/dwise -> conv6_3/dwise
I0929 19:41:48.721377 12521 net.cpp:150] Setting up conv6_3/dwise
I0929 19:41:48.721384 12521 net.cpp:157] Top shape: 1 960 10 16 (153600)
I0929 19:41:48.721386 12521 net.cpp:165] Memory required for data: 455669472
I0929 19:41:48.721391 12521 layer_factory.hpp:77] Creating layer conv6_3/dwise/bn
I0929 19:41:48.721397 12521 net.cpp:100] Creating Layer conv6_3/dwise/bn
I0929 19:41:48.721400 12521 net.cpp:434] conv6_3/dwise/bn <- conv6_3/dwise
I0929 19:41:48.721413 12521 net.cpp:395] conv6_3/dwise/bn -> conv6_3/dwise (in-place)
I0929 19:41:48.721562 12521 net.cpp:150] Setting up conv6_3/dwise/bn
I0929 19:41:48.721567 12521 net.cpp:157] Top shape: 1 960 10 16 (153600)
I0929 19:41:48.721570 12521 net.cpp:165] Memory required for data: 456283872
I0929 19:41:48.721576 12521 layer_factory.hpp:77] Creating layer conv6_3/dwise/scale
I0929 19:41:48.721582 12521 net.cpp:100] Creating Layer conv6_3/dwise/scale
I0929 19:41:48.721586 12521 net.cpp:434] conv6_3/dwise/scale <- conv6_3/dwise
I0929 19:41:48.721590 12521 net.cpp:395] conv6_3/dwise/scale -> conv6_3/dwise (in-place)
I0929 19:41:48.721621 12521 layer_factory.hpp:77] Creating layer conv6_3/dwise/scale
I0929 19:41:48.721709 12521 net.cpp:150] Setting up conv6_3/dwise/scale
I0929 19:41:48.721714 12521 net.cpp:157] Top shape: 1 960 10 16 (153600)
I0929 19:41:48.721716 12521 net.cpp:165] Memory required for data: 456898272
I0929 19:41:48.721722 12521 layer_factory.hpp:77] Creating layer relu6_3/dwise
I0929 19:41:48.721726 12521 net.cpp:100] Creating Layer relu6_3/dwise
I0929 19:41:48.721730 12521 net.cpp:434] relu6_3/dwise <- conv6_3/dwise
I0929 19:41:48.721735 12521 net.cpp:395] relu6_3/dwise -> conv6_3/dwise (in-place)
I0929 19:41:48.722013 12521 net.cpp:150] Setting up relu6_3/dwise
I0929 19:41:48.722020 12521 net.cpp:157] Top shape: 1 960 10 16 (153600)
I0929 19:41:48.722024 12521 net.cpp:165] Memory required for data: 457512672
I0929 19:41:48.722028 12521 layer_factory.hpp:77] Creating layer conv6_3/linear
I0929 19:41:48.722034 12521 net.cpp:100] Creating Layer conv6_3/linear
I0929 19:41:48.722038 12521 net.cpp:434] conv6_3/linear <- conv6_3/dwise
I0929 19:41:48.722044 12521 net.cpp:408] conv6_3/linear -> conv6_3/linear
I0929 19:41:48.725438 12521 net.cpp:150] Setting up conv6_3/linear
I0929 19:41:48.725450 12521 net.cpp:157] Top shape: 1 320 10 16 (51200)
I0929 19:41:48.725453 12521 net.cpp:165] Memory required for data: 457717472
…
I0929 19:41:48.893991 12521 layer_factory.hpp:77] Creating layer conv8_2/dw/scale
I0929 19:41:48.893996 12521 net.cpp:100] Creating Layer conv8_2/dw/scale
I0929 19:41:48.893998 12521 net.cpp:434] conv8_2/dw/scale <- conv8_2/dw
I0929 19:41:48.894001 12521 net.cpp:395] conv8_2/dw/scale -> conv8_2/dw (in-place)
I0929 19:41:48.894026 12521 layer_factory.hpp:77] Creating layer conv8_2/dw/scale
I0929 19:41:48.894091 12521 net.cpp:150] Setting up conv8_2/dw/scale
I0929 19:41:48.894095 12521 net.cpp:157] Top shape: 1 128 3 4 (1536)
I0929 19:41:48.894096 12521 net.cpp:165] Memory required for data: 465886880
I0929 19:41:48.894101 12521 layer_factory.hpp:77] Creating layer relu8_2/dw
I0929 19:41:48.894105 12521 net.cpp:100] Creating Layer relu8_2/dw
I0929 19:41:48.894109 12521 net.cpp:434] relu8_2/dw <- conv8_2/dw
I0929 19:41:48.894111 12521 net.cpp:395] relu8_2/dw -> conv8_2/dw (in-place)
I0929 19:41:48.894400 12521 net.cpp:150] Setting up relu8_2/dw
I0929 19:41:48.894407 12521 net.cpp:157] Top shape: 1 128 3 4 (1536)
I0929 19:41:48.894409 12521 net.cpp:165] Memory required for data: 465893024
I0929 19:41:48.894412 12521 layer_factory.hpp:77] Creating layer conv8_2/sep
I0929 19:41:48.894418 12521 net.cpp:100] Creating Layer conv8_2/sep
I0929 19:41:48.894420 12521 net.cpp:434] conv8_2/sep <- conv8_2/dw
I0929 19:41:48.894423 12521 net.cpp:408] conv8_2/sep -> conv8_2/sep
I0929 19:41:48.895853 12521 net.cpp:150] Setting up conv8_2/sep
I0929 19:41:48.895861 12521 net.cpp:157] Top shape: 1 256 3 4 (3072)
I0929 19:41:48.895864 12521 net.cpp:165] Memory required for data: 465905312
I0929 19:41:48.895869 12521 layer_factory.hpp:77] Creating layer conv8_2/sep/bn
I0929 19:41:48.895872 12521 net.cpp:100] Creating Layer conv8_2/sep/bn
I0929 19:41:48.895875 12521 net.cpp:434] conv8_2/sep/bn <- conv8_2/sep
I0929 19:41:48.895879 12521 net.cpp:395] conv8_2/sep/bn -> conv8_2/sep (in-place)
I0929 19:41:48.895998 12521 net.cpp:150] Setting up conv8_2/sep/bn
I0929 19:41:48.896001 12521 net.cpp:157] Top shape: 1 256 3 4 (3072)
I0929 19:41:48.896003 12521 net.cpp:165] Memory required for data: 465917600
I0929 19:41:48.896008 12521 layer_factory.hpp:77] Creating layer conv8_2/sep/scale
I0929 19:41:48.896013 12521 net.cpp:100] Creating Layer conv8_2/sep/scale
I0929 19:41:48.896014 12521 net.cpp:434] conv8_2/sep/scale <- conv8_2/sep
I0929 19:41:48.896018 12521 net.cpp:395] conv8_2/sep/scale -> conv8_2/sep (in-place)
I0929 19:41:48.896040 12521 layer_factory.hpp:77] Creating layer conv8_2/sep/scale
I0929 19:41:48.896106 12521 net.cpp:150] Setting up conv8_2/sep/scale
I0929 19:41:48.896111 12521 net.cpp:157] Top shape: 1 256 3 4 (3072)
I0929 19:41:48.896113 12521 net.cpp:165] Memory required for data: 465929888
I0929 19:41:48.896117 12521 layer_factory.hpp:77] Creating layer relu8_2/sep
I0929 19:41:48.896121 12521 net.cpp:100] Creating Layer relu8_2/sep
I0929 19:41:48.896122 12521 net.cpp:434] relu8_2/sep <- conv8_2/sep
I0929 19:41:48.896126 12521 net.cpp:395] relu8_2/sep -> conv8_2/sep (in-place)
I0929 19:41:48.896411 12521 net.cpp:150] Setting up relu8_2/sep
I0929 19:41:48.896423 12521 net.cpp:157] Top shape: 1 256 3 4 (3072)
I0929 19:41:48.896425 12521 net.cpp:165] Memory required for data: 465942176
I0929 19:41:48.896428 12521 layer_factory.hpp:77] Creating layer conv8_2/sep_relu8_2/sep_0_split
I0929 19:41:48.896432 12521 net.cpp:100] Creating Layer conv8_2/sep_relu8_2/sep_0_split
I0929 19:41:48.896435 12521 net.cpp:434] conv8_2/sep_relu8_2/sep_0_split <- conv8_2/sep
I0929 19:41:48.896437 12521 net.cpp:408] conv8_2/sep_relu8_2/sep_0_split -> conv8_2/sep_relu8_2/sep_0_split_0
I0929 19:41:48.896445 12521 net.cpp:408] conv8_2/sep_relu8_2/sep_0_split -> conv8_2/sep_relu8_2/sep_0_split_1
I0929 19:41:48.896450 12521 net.cpp:408] conv8_2/sep_relu8_2/sep_0_split -> conv8_2/sep_relu8_2/sep_0_split_2
I0929 19:41:48.896452 12521 net.cpp:408] conv8_2/sep_relu8_2/sep_0_split -> conv8_2/sep_relu8_2/sep_0_split_3
I0929 19:41:48.896495 12521 net.cpp:150] Setting up conv8_2/sep_relu8_2/sep_0_split
I0929 19:41:48.896499 12521 net.cpp:157] Top shape: 1 256 3 4 (3072)
I0929 19:41:48.896502 12521 net.cpp:157] Top shape: 1 256 3 4 (3072)
I0929 19:41:48.896505 12521 net.cpp:157] Top shape: 1 256 3 4 (3072)
I0929 19:41:48.896508 12521 net.cpp:157] Top shape: 1 256 3 4 (3072)
I0929 19:41:48.896510 12521 net.cpp:165] Memory required for data: 465991328
I0929 19:41:48.896512 12521 layer_factory.hpp:77] Creating layer conv9_1
I0929 19:41:48.896517 12521 net.cpp:100] Creating Layer conv9_1
I0929 19:41:48.896519 12521 net.cpp:434] conv9_1 <- conv8_2/sep_relu8_2/sep_0_split_0
I0929 19:41:48.896523 12521 net.cpp:408] conv9_1 -> conv9_1
I0929 19:41:48.897768 12521 net.cpp:150] Setting up conv9_1
I0929 19:41:48.897774 12521 net.cpp:157] Top shape: 1 128 3 4 (1536)
I0929 19:41:48.897776 12521 net.cpp:165] Memory required for data: 465997472
I0929 19:41:48.897783 12521 layer_factory.hpp:77] Creating layer conv9_1_relu
I0929 19:41:48.897788 12521 net.cpp:100] Creating Layer conv9_1_relu
I0929 19:41:48.897789 12521 net.cpp:434] conv9_1_relu <- conv9_1
I0929 19:41:48.897792 12521 net.cpp:395] conv9_1_relu -> conv9_1 (in-place)
I0929 19:41:48.898192 12521 net.cpp:150] Setting up conv9_1_relu
I0929 19:41:48.898198 12521 net.cpp:157] Top shape: 1 128 3 4 (1536)
I0929 19:41:48.898201 12521 net.cpp:165] Memory required for data: 466003616
I0929 19:41:48.898203 12521 layer_factory.hpp:77] Creating layer conv9_2/dw
I0929 19:41:48.898208 12521 net.cpp:100] Creating Layer conv9_2/dw
I0929 19:41:48.898211 12521 net.cpp:434] conv9_2/dw <- conv9_1
I0929 19:41:48.898216 12521 net.cpp:408] conv9_2/dw -> conv9_2/dw
I0929 19:41:48.898356 12521 net.cpp:150] Setting up conv9_2/dw
I0929 19:41:48.898361 12521 net.cpp:157] Top shape: 1 128 2 2 (512)
I0929 19:41:48.898365 12521 net.cpp:165] Memory required for data: 466005664
I0929 19:41:48.898367 12521 layer_factory.hpp:77] Creating layer conv9_2/dw/bn
I0929 19:41:48.898370 12521 net.cpp:100] Creating Layer conv9_2/dw/bn
I0929 19:41:48.898373 12521 net.cpp:434] conv9_2/dw/bn <- conv9_2/dw
I0929 19:41:48.898375 12521 net.cpp:395] conv9_2/dw/bn -> conv9_2/dw (in-place)
I0929 19:41:48.898488 12521 net.cpp:150] Setting up conv9_2/dw/bn
I0929 19:41:48.898492 12521 net.cpp:157] Top shape: 1 128 2 2 (512)
I0929 19:41:48.898494 12521 net.cpp:165] Memory required for data: 466007712
I0929 19:41:48.898499 12521 layer_factory.hpp:77] Creating layer conv9_2/dw/scale
I0929 19:41:48.898502 12521 net.cpp:100] Creating Layer conv9_2/dw/scale
I0929 19:41:48.898504 12521 net.cpp:434] conv9_2/dw/scale <- conv9_2/dw
I0929 19:41:48.898507 12521 net.cpp:395] conv9_2/dw/scale -> conv9_2/dw (in-place)
I0929 19:41:48.898532 12521 layer_factory.hpp:77] Creating layer conv9_2/dw/scale
I0929 19:41:48.898597 12521 net.cpp:150] Setting up conv9_2/dw/scale
I0929 19:41:48.898602 12521 net.cpp:157] Top shape: 1 128 2 2 (512)
I0929 19:41:48.898603 12521 net.cpp:165] Memory required for data: 466009760
I0929 19:41:48.898607 12521 layer_factory.hpp:77] Creating layer relu9_2/dw
I0929 19:41:48.898609 12521 net.cpp:100] Creating Layer relu9_2/dw
I0929 19:41:48.898612 12521 net.cpp:434] relu9_2/dw <- conv9_2/dw
I0929 19:41:48.898622 12521 net.cpp:395] relu9_2/dw -> conv9_2/dw (in-place)
I0929 19:41:48.898913 12521 net.cpp:150] Setting up relu9_2/dw
I0929 19:41:48.898919 12521 net.cpp:157] Top shape: 1 128 2 2 (512)
I0929 19:41:48.898921 12521 net.cpp:165] Memory required for data: 466011808
I0929 19:41:48.898924 12521 layer_factory.hpp:77] Creating layer conv9_2/sep
I0929 19:41:48.898929 12521 net.cpp:100] Creating Layer conv9_2/sep
I0929 19:41:48.898932 12521 net.cpp:434] conv9_2/sep <- conv9_2/dw
I0929 19:41:48.898936 12521 net.cpp:408] conv9_2/sep -> conv9_2/sep
I0929 19:41:48.900224 12521 net.cpp:150] Setting up conv9_2/sep
I0929 19:41:48.900231 12521 net.cpp:157] Top shape: 1 256 2 2 (1024)
I0929 19:41:48.900233 12521 net.cpp:165] Memory required for data: 466015904
I0929 19:41:48.900238 12521 layer_factory.hpp:77] Creating layer conv9_2/sep/bn
I0929 19:41:48.900243 12521 net.cpp:100] Creating Layer conv9_2/sep/bn
I0929 19:41:48.900244 12521 net.cpp:434] conv9_2/sep/bn <- conv9_2/sep
I0929 19:41:48.900247 12521 net.cpp:395] conv9_2/sep/bn -> conv9_2/sep (in-place)
I0929 19:41:48.900364 12521 net.cpp:150] Setting up conv9_2/sep/bn
I0929 19:41:48.900368 12521 net.cpp:157] Top shape: 1 256 2 2 (1024)
I0929 19:41:48.900370 12521 net.cpp:165] Memory required for data: 466020000
I0929 19:41:48.900374 12521 layer_factory.hpp:77] Creating layer conv9_2/sep/scale
I0929 19:41:48.900378 12521 net.cpp:100] Creating Layer conv9_2/sep/scale
I0929 19:41:48.900382 12521 net.cpp:434] conv9_2/sep/scale <- conv9_2/sep
I0929 19:41:48.900384 12521 net.cpp:395] conv9_2/sep/scale -> conv9_2/sep (in-place)
I0929 19:41:48.900408 12521 layer_factory.hpp:77] Creating layer conv9_2/sep/scale
I0929 19:41:48.900473 12521 net.cpp:150] Setting up conv9_2/sep/scale
I0929 19:41:48.900478 12521 net.cpp:157] Top shape: 1 256 2 2 (1024)
I0929 19:41:48.900480 12521 net.cpp:165] Memory required for data: 466024096
I0929 19:41:48.900482 12521 layer_factory.hpp:77] Creating layer relu9_2/sep
I0929 19:41:48.900485 12521 net.cpp:100] Creating Layer relu9_2/sep
I0929 19:41:48.900490 12521 net.cpp:434] relu9_2/sep <- conv9_2/sep
I0929 19:41:48.900491 12521 net.cpp:395] relu9_2/sep -> conv9_2/sep (in-place)
I0929 19:41:48.900888 12521 net.cpp:150] Setting up relu9_2/sep
I0929 19:41:48.900894 12521 net.cpp:157] Top shape: 1 256 2 2 (1024)
I0929 19:41:48.900897 12521 net.cpp:165] Memory required for data: 466028192
I0929 19:41:48.900899 12521 layer_factory.hpp:77] Creating layer conv9_2/sep_relu9_2/sep_0_split
I0929 19:41:48.900903 12521 net.cpp:100] Creating Layer conv9_2/sep_relu9_2/sep_0_split
I0929 19:41:48.900907 12521 net.cpp:434] conv9_2/sep_relu9_2/sep_0_split <- conv9_2/sep
I0929 19:41:48.900910 12521 net.cpp:408] conv9_2/sep_relu9_2/sep_0_split -> conv9_2/sep_relu9_2/sep_0_split_0
I0929 19:41:48.900915 12521 net.cpp:408] conv9_2/sep_relu9_2/sep_0_split -> conv9_2/sep_relu9_2/sep_0_split_1
I0929 19:41:48.900919 12521 net.cpp:408] conv9_2/sep_relu9_2/sep_0_split -> conv9_2/sep_relu9_2/sep_0_split_2
I0929 19:41:48.900924 12521 net.cpp:408] conv9_2/sep_relu9_2/sep_0_split -> conv9_2/sep_relu9_2/sep_0_split_3
I0929 19:41:48.900966 12521 net.cpp:150] Setting up conv9_2/sep_relu9_2/sep_0_split
I0929 19:41:48.900970 12521 net.cpp:157] Top shape: 1 256 2 2 (1024)
I0929 19:41:48.900974 12521 net.cpp:157] Top shape: 1 256 2 2 (1024)
I0929 19:41:48.900975 12521 net.cpp:157] Top shape: 1 256 2 2 (1024)
I0929 19:41:48.900979 12521 net.cpp:157] Top shape: 1 256 2 2 (1024)
I0929 19:41:48.900980 12521 net.cpp:165] Memory required for data: 466044576
I0929 19:41:48.900982 12521 layer_factory.hpp:77] Creating layer conv10_1
I0929 19:41:48.900988 12521 net.cpp:100] Creating Layer conv10_1
I0929 19:41:48.900992 12521 net.cpp:434] conv10_1 <- conv9_2/sep_relu9_2/sep_0_split_0
I0929 19:41:48.900995 12521 net.cpp:408] conv10_1 -> conv10_1
I0929 19:41:48.902235 12521 net.cpp:150] Setting up conv10_1
I0929 19:41:48.902241 12521 net.cpp:157] Top shape: 1 128 2 2 (512)
I0929 19:41:48.902245 12521 net.cpp:165] Memory required for data: 466046624
I0929 19:41:48.902248 12521 layer_factory.hpp:77] Creating layer conv10_1_relu
I0929 19:41:48.902259 12521 net.cpp:100] Creating Layer conv10_1_relu
I0929 19:41:48.902262 12521 net.cpp:434] conv10_1_relu <- conv10_1
I0929 19:41:48.902266 12521 net.cpp:395] conv10_1_relu -> conv10_1 (in-place)
I0929 19:41:48.902658 12521 net.cpp:150] Setting up conv10_1_relu
I0929 19:41:48.902665 12521 net.cpp:157] Top shape: 1 128 2 2 (512)
I0929 19:41:48.902667 12521 net.cpp:165] Memory required for data: 466048672
I0929 19:41:48.902670 12521 layer_factory.hpp:77] Creating layer conv10_2/dw
I0929 19:41:48.902675 12521 net.cpp:100] Creating Layer conv10_2/dw
I0929 19:41:48.902678 12521 net.cpp:434] conv10_2/dw <- conv10_1
I0929 19:41:48.902681 12521 net.cpp:408] conv10_2/dw -> conv10_2/dw
I0929 19:41:48.902824 12521 net.cpp:150] Setting up conv10_2/dw
I0929 19:41:48.902829 12521 net.cpp:157] Top shape: 1 128 1 1 (128)
I0929 19:41:48.902832 12521 net.cpp:165] Memory required for data: 466049184
I0929 19:41:48.902834 12521 layer_factory.hpp:77] Creating layer conv10_2/dw/bn
I0929 19:41:48.902839 12521 net.cpp:100] Creating Layer conv10_2/dw/bn
I0929 19:41:48.902842 12521 net.cpp:434] conv10_2/dw/bn <- conv10_2/dw
I0929 19:41:48.902843 12521 net.cpp:395] conv10_2/dw/bn -> conv10_2/dw (in-place)
I0929 19:41:48.902963 12521 net.cpp:150] Setting up conv10_2/dw/bn
I0929 19:41:48.902967 12521 net.cpp:157] Top shape: 1 128 1 1 (128)
I0929 19:41:48.902969 12521 net.cpp:165] Memory required for data: 466049696
I0929 19:41:48.902973 12521 layer_factory.hpp:77] Creating layer conv10_2/dw/scale
I0929 19:41:48.902997 12521 net.cpp:100] Creating Layer conv10_2/dw/scale
I0929 19:41:48.903000 12521 net.cpp:434] conv10_2/dw/scale <- conv10_2/dw
I0929 19:41:48.903003 12521 net.cpp:395] conv10_2/dw/scale -> conv10_2/dw (in-place)
I0929 19:41:48.903028 12521 layer_factory.hpp:77] Creating layer conv10_2/dw/scale
I0929 19:41:48.903091 12521 net.cpp:150] Setting up conv10_2/dw/scale
I0929 19:41:48.903095 12521 net.cpp:157] Top shape: 1 128 1 1 (128)
I0929 19:41:48.903097 12521 net.cpp:165] Memory required for data: 466050208
I0929 19:41:48.903100 12521 layer_factory.hpp:77] Creating layer relu10_2/dw
I0929 19:41:48.903105 12521 net.cpp:100] Creating Layer relu10_2/dw
I0929 19:41:48.903107 12521 net.cpp:434] relu10_2/dw <- conv10_2/dw
I0929 19:41:48.903110 12521 net.cpp:395] relu10_2/dw -> conv10_2/dw (in-place)
I0929 19:41:48.903410 12521 net.cpp:150] Setting up relu10_2/dw
I0929 19:41:48.903416 12521 net.cpp:157] Top shape: 1 128 1 1 (128)
I0929 19:41:48.903419 12521 net.cpp:165] Memory required for data: 466050720
I0929 19:41:48.903420 12521 layer_factory.hpp:77] Creating layer conv10_2/sep
I0929 19:41:48.903426 12521 net.cpp:100] Creating Layer conv10_2/sep
I0929 19:41:48.903429 12521 net.cpp:434] conv10_2/sep <- conv10_2/dw
I0929 19:41:48.903434 12521 net.cpp:408] conv10_2/sep -> conv10_2/sep
I0929 19:41:48.904841 12521 net.cpp:150] Setting up conv10_2/sep
I0929 19:41:48.904850 12521 net.cpp:157] Top shape: 1 256 1 1 (256)
I0929 19:41:48.904850 12521 net.cpp:165] Memory required for data: 466051744
I0929 19:41:48.904855 12521 layer_factory.hpp:77] Creating layer conv10_2/sep/bn
I0929 19:41:48.904860 12521 net.cpp:100] Creating Layer conv10_2/sep/bn
I0929 19:41:48.904862 12521 net.cpp:434] conv10_2/sep/bn <- conv10_2/sep
I0929 19:41:48.904865 12521 net.cpp:395] conv10_2/sep/bn -> conv10_2/sep (in-place)
I0929 19:41:48.904985 12521 net.cpp:150] Setting up conv10_2/sep/bn
I0929 19:41:48.904990 12521 net.cpp:157] Top shape: 1 256 1 1 (256)
I0929 19:41:48.904991 12521 net.cpp:165] Memory required for data: 466052768
I0929 19:41:48.904995 12521 layer_factory.hpp:77] Creating layer conv10_2/sep/scale
I0929 19:41:48.905000 12521 net.cpp:100] Creating Layer conv10_2/sep/scale
I0929 19:41:48.905001 12521 net.cpp:434] conv10_2/sep/scale <- conv10_2/sep
I0929 19:41:48.905004 12521 net.cpp:395] conv10_2/sep/scale -> conv10_2/sep (in-place)
I0929 19:41:48.905028 12521 layer_factory.hpp:77] Creating layer conv10_2/sep/scale
I0929 19:41:48.905095 12521 net.cpp:150] Setting up conv10_2/sep/scale
I0929 19:41:48.905108 12521 net.cpp:157] Top shape: 1 256 1 1 (256)
I0929 19:41:48.905109 12521 net.cpp:165] Memory required for data: 466053792
I0929 19:41:48.905113 12521 layer_factory.hpp:77] Creating layer relu10_2/sep
I0929 19:41:48.905117 12521 net.cpp:100] Creating Layer relu10_2/sep
I0929 19:41:48.905120 12521 net.cpp:434] relu10_2/sep <- conv10_2/sep
I0929 19:41:48.905122 12521 net.cpp:395] relu10_2/sep -> conv10_2/sep (in-place)
I0929 19:41:48.905412 12521 net.cpp:150] Setting up relu10_2/sep
I0929 19:41:48.905418 12521 net.cpp:157] Top shape: 1 256 1 1 (256)
I0929 19:41:48.905421 12521 net.cpp:165] Memory required for data: 466054816
I0929 19:41:48.905422 12521 layer_factory.hpp:77] Creating layer conv10_2/sep_relu10_2/sep_0_split
I0929 19:41:48.905426 12521 net.cpp:100] Creating Layer conv10_2/sep_relu10_2/sep_0_split
I0929 19:41:48.905428 12521 net.cpp:434] conv10_2/sep_relu10_2/sep_0_split <- conv10_2/sep
I0929 19:41:48.905432 12521 net.cpp:408] conv10_2/sep_relu10_2/sep_0_split -> conv10_2/sep_relu10_2/sep_0_split_0
I0929 19:41:48.905436 12521 net.cpp:408] conv10_2/sep_relu10_2/sep_0_split -> conv10_2/sep_relu10_2/sep_0_split_1
I0929 19:41:48.905441 12521 net.cpp:408] conv10_2/sep_relu10_2/sep_0_split -> conv10_2/sep_relu10_2/sep_0_split_2
I0929 19:41:48.905478 12521 net.cpp:150] Setting up conv10_2/sep_relu10_2/sep_0_split
I0929 19:41:48.905480 12521 net.cpp:157] Top shape: 1 256 1 1 (256)
I0929 19:41:48.905483 12521 net.cpp:157] Top shape: 1 256 1 1 (256)
I0929 19:41:48.905485 12521 net.cpp:157] Top shape: 1 256 1 1 (256)
I0929 19:41:48.905488 12521 net.cpp:165] Memory required for data: 466057888
I0929 19:41:48.905489 12521 layer_factory.hpp:77] Creating layer conv5_3/expand_norm
I0929 19:41:48.905494 12521 net.cpp:100] Creating Layer conv5_3/expand_norm
I0929 19:41:48.905498 12521 net.cpp:434] conv5_3/expand_norm <- conv5_3/expand_relu5_3/expand_0_split_1
I0929 19:41:48.905503 12521 net.cpp:408] conv5_3/expand_norm -> conv5_3/expand_norm
I0929 19:41:48.905628 12521 net.cpp:150] Setting up conv5_3/expand_norm
I0929 19:41:48.905632 12521 net.cpp:157] Top shape: 1 576 19 32 (350208)
I0929 19:41:48.905635 12521 net.cpp:165] Memory required for data: 467458720
I0929 19:41:48.905638 12521 layer_factory.hpp:77] Creating layer conv5_3/expand_norm_conv5_3/expand_norm_0_split
I0929 19:41:48.905642 12521 net.cpp:100] Creating Layer conv5_3/expand_norm_conv5_3/expand_norm_0_split
I0929 19:41:48.905645 12521 net.cpp:434] conv5_3/expand_norm_conv5_3/expand_norm_0_split <- conv5_3/expand_norm
I0929 19:41:48.905647 12521 net.cpp:408] conv5_3/expand_norm_conv5_3/expand_norm_0_split -> conv5_3/expand_norm_conv5_3/expand_norm_0_split_0
I0929 19:41:48.905652 12521 net.cpp:408] conv5_3/expand_norm_conv5_3/expand_norm_0_split -> conv5_3/expand_norm_conv5_3/expand_norm_0_split_1
I0929 19:41:48.905656 12521 net.cpp:408] conv5_3/expand_norm_conv5_3/expand_norm_0_split -> conv5_3/expand_norm_conv5_3/expand_norm_0_split_2
I0929 19:41:48.905696 12521 net.cpp:150] Setting up conv5_3/expand_norm_conv5_3/expand_norm_0_split
I0929 19:41:48.905700 12521 net.cpp:157] Top shape: 1 576 19 32 (350208)
I0929 19:41:48.905704 12521 net.cpp:157] Top shape: 1 576 19 32 (350208)
I0929 19:41:48.905706 12521 net.cpp:157] Top shape: 1 576 19 32 (350208)
I0929 19:41:48.905709 12521 net.cpp:165] Memory required for data: 471661216
I0929 19:41:48.905710 12521 layer_factory.hpp:77] Creating layer conv5_3/expand_norm_mbox_loc
I0929 19:41:48.905716 12521 net.cpp:100] Creating Layer conv5_3/expand_norm_mbox_loc
I0929 19:41:48.905719 12521 net.cpp:434] conv5_3/expand_norm_mbox_loc <- conv5_3/expand_norm_conv5_3/expand_norm_0_split_0
I0929 19:41:48.905722 12521 net.cpp:408] conv5_3/expand_norm_mbox_loc -> conv5_3/expand_norm_mbox_loc
I0929 19:41:48.907160 12521 net.cpp:150] Setting up conv5_3/expand_norm_mbox_loc
I0929 19:41:48.907171 12521 net.cpp:157] Top shape: 1 8 19 32 (4864)
I0929 19:41:48.907171 12521 net.cpp:165] Memory required for data: 471680672
I0929 19:41:48.907176 12521 layer_factory.hpp:77] Creating layer conv5_3/expand_norm_mbox_loc_perm
I0929 19:41:48.907191 12521 net.cpp:100] Creating Layer conv5_3/expand_norm_mbox_loc_perm
I0929 19:41:48.907193 12521 net.cpp:434] conv5_3/expand_norm_mbox_loc_perm <- conv5_3/expand_norm_mbox_loc
I0929 19:41:48.907198 12521 net.cpp:408] conv5_3/expand_norm_mbox_loc_perm -> conv5_3/expand_norm_mbox_loc_perm
I0929 19:41:48.907269 12521 net.cpp:150] Setting up conv5_3/expand_norm_mbox_loc_perm
I0929 19:41:48.907274 12521 net.cpp:157] Top shape: 1 19 32 8 (4864)
I0929 19:41:48.907276 12521 net.cpp:165] Memory required for data: 471700128
I0929 19:41:48.907279 12521 layer_factory.hpp:77] Creating layer conv5_3/expand_norm_mbox_loc_flat
I0929 19:41:48.907282 12521 net.cpp:100] Creating Layer conv5_3/expand_norm_mbox_loc_flat
I0929 19:41:48.907284 12521 net.cpp:434] conv5_3/expand_norm_mbox_loc_flat <- conv5_3/expand_norm_mbox_loc_perm
I0929 19:41:48.907287 12521 net.cpp:408] conv5_3/expand_norm_mbox_loc_flat -> conv5_3/expand_norm_mbox_loc_flat
I0929 19:41:48.907302 12521 net.cpp:150] Setting up conv5_3/expand_norm_mbox_loc_flat
I0929 19:41:48.907307 12521 net.cpp:157] Top shape: 1 4864 (4864)
I0929 19:41:48.907308 12521 net.cpp:165] Memory required for data: 471719584
I0929 19:41:48.907311 12521 layer_factory.hpp:77] Creating layer conv5_3/expand_norm_mbox_conf
I0929 19:41:48.907316 12521 net.cpp:100] Creating Layer conv5_3/expand_norm_mbox_conf
I0929 19:41:48.907320 12521 net.cpp:434] conv5_3/expand_norm_mbox_conf <- conv5_3/expand_norm_conv5_3/expand_norm_0_split_1
I0929 19:41:48.907323 12521 net.cpp:408] conv5_3/expand_norm_mbox_conf -> conv5_3/expand_norm_mbox_conf
I0929 19:41:48.908885 12521 net.cpp:150] Setting up conv5_3/expand_norm_mbox_conf
I0929 19:41:48.908893 12521 net.cpp:157] Top shape: 1 10 19 32 (6080)
I0929 19:41:48.908895 12521 net.cpp:165] Memory required for data: 471743904
I0929 19:41:48.908900 12521 layer_factory.hpp:77] Creating layer conv5_3/expand_norm_mbox_conf_perm
I0929 19:41:48.908905 12521 net.cpp:100] Creating Layer conv5_3/expand_norm_mbox_conf_perm
I0929 19:41:48.908908 12521 net.cpp:434] conv5_3/expand_norm_mbox_conf_perm <- conv5_3/expand_norm_mbox_conf
I0929 19:41:48.908911 12521 net.cpp:408] conv5_3/expand_norm_mbox_conf_perm -> conv5_3/expand_norm_mbox_conf_perm
I0929 19:41:48.908980 12521 net.cpp:150] Setting up conv5_3/expand_norm_mbox_conf_perm
I0929 19:41:48.908985 12521 net.cpp:157] Top shape: 1 19 32 10 (6080)
I0929 19:41:48.908987 12521 net.cpp:165] Memory required for data: 471768224
I0929 19:41:48.908989 12521 layer_factory.hpp:77] Creating layer conv5_3/expand_norm_mbox_conf_flat
I0929 19:41:48.908993 12521 net.cpp:100] Creating Layer conv5_3/expand_norm_mbox_conf_flat
I0929 19:41:48.908995 12521 net.cpp:434] conv5_3/expand_norm_mbox_conf_flat <- conv5_3/expand_norm_mbox_conf_perm
I0929 19:41:48.908998 12521 net.cpp:408] conv5_3/expand_norm_mbox_conf_flat -> conv5_3/expand_norm_mbox_conf_flat
I0929 19:41:48.909014 12521 net.cpp:150] Setting up conv5_3/expand_norm_mbox_conf_flat
I0929 19:41:48.909018 12521 net.cpp:157] Top shape: 1 6080 (6080)
I0929 19:41:48.909020 12521 net.cpp:165] Memory required for data: 471792544
I0929 19:41:48.909023 12521 layer_factory.hpp:77] Creating layer conv5_3/expand_norm_mbox_priorbox
I0929 19:41:48.909026 12521 net.cpp:100] Creating Layer conv5_3/expand_norm_mbox_priorbox
I0929 19:41:48.909029 12521 net.cpp:434] conv5_3/expand_norm_mbox_priorbox <- conv5_3/expand_norm_conv5_3/expand_norm_0_split_2
I0929 19:41:48.909032 12521 net.cpp:434] conv5_3/expand_norm_mbox_priorbox <- data_data_0_split_1
I0929 19:41:48.909036 12521 net.cpp:408] conv5_3/expand_norm_mbox_priorbox -> conv5_3/expand_norm_mbox_priorbox
I0929 19:41:48.909054 12521 net.cpp:150] Setting up conv5_3/expand_norm_mbox_priorbox
I0929 19:41:48.909057 12521 net.cpp:157] Top shape: 1 2 4864 (9728)
I0929 19:41:48.909060 12521 net.cpp:165] Memory required for data: 471831456
I0929 19:41:48.909061 12521 layer_factory.hpp:77] Creating layer conv6_4_mbox_loc
I0929 19:41:48.909066 12521 net.cpp:100] Creating Layer conv6_4_mbox_loc
I0929 19:41:48.909070 12521 net.cpp:434] conv6_4_mbox_loc <- conv6_4_relu6_4_0_split_1
I0929 19:41:48.909080 12521 net.cpp:408] conv6_4_mbox_loc -> conv6_4_mbox_loc
I0929 19:41:48.910634 12521 net.cpp:150] Setting up conv6_4_mbox_loc
I0929 19:41:48.910643 12521 net.cpp:157] Top shape: 1 8 10 16 (1280)
I0929 19:41:48.910646 12521 net.cpp:165] Memory required for data: 471836576
I0929 19:41:48.910650 12521 layer_factory.hpp:77] Creating layer conv6_4_mbox_loc_perm
I0929 19:41:48.910655 12521 net.cpp:100] Creating Layer conv6_4_mbox_loc_perm
I0929 19:41:48.910657 12521 net.cpp:434] conv6_4_mbox_loc_perm <- conv6_4_mbox_loc
I0929 19:41:48.910661 12521 net.cpp:408] conv6_4_mbox_loc_perm -> conv6_4_mbox_loc_perm
I0929 19:41:48.910730 12521 net.cpp:150] Setting up conv6_4_mbox_loc_perm
I0929 19:41:48.910734 12521 net.cpp:157] Top shape: 1 10 16 8 (1280)
I0929 19:41:48.910737 12521 net.cpp:165] Memory required for data: 471841696
I0929 19:41:48.910738 12521 layer_factory.hpp:77] Creating layer conv6_4_mbox_loc_flat
I0929 19:41:48.910742 12521 net.cpp:100] Creating Layer conv6_4_mbox_loc_flat
I0929 19:41:48.910743 12521 net.cpp:434] conv6_4_mbox_loc_flat <- conv6_4_mbox_loc_perm
I0929 19:41:48.910748 12521 net.cpp:408] conv6_4_mbox_loc_flat -> conv6_4_mbox_loc_flat
I0929 19:41:48.910761 12521 net.cpp:150] Setting up conv6_4_mbox_loc_flat
I0929 19:41:48.910766 12521 net.cpp:157] Top shape: 1 1280 (1280)
I0929 19:41:48.910768 12521 net.cpp:165] Memory required for data: 471846816
I0929 19:41:48.910769 12521 layer_factory.hpp:77] Creating layer conv6_4_mbox_conf
I0929 19:41:48.910775 12521 net.cpp:100] Creating Layer conv6_4_mbox_conf
I0929 19:41:48.910778 12521 net.cpp:434] conv6_4_mbox_conf <- conv6_4_relu6_4_0_split_2
I0929 19:41:48.910782 12521 net.cpp:408] conv6_4_mbox_conf -> conv6_4_mbox_conf
I0929 19:41:48.912405 12521 net.cpp:150] Setting up conv6_4_mbox_conf
I0929 19:41:48.912413 12521 net.cpp:157] Top shape: 1 10 10 16 (1600)
I0929 19:41:48.912416 12521 net.cpp:165] Memory required for data: 471853216
I0929 19:41:48.912420 12521 layer_factory.hpp:77] Creating layer conv6_4_mbox_conf_perm
I0929 19:41:48.912425 12521 net.cpp:100] Creating Layer conv6_4_mbox_conf_perm
I0929 19:41:48.912427 12521 net.cpp:434] conv6_4_mbox_conf_perm <- conv6_4_mbox_conf
I0929 19:41:48.912431 12521 net.cpp:408] conv6_4_mbox_conf_perm -> conv6_4_mbox_conf_perm
I0929 19:41:48.912503 12521 net.cpp:150] Setting up conv6_4_mbox_conf_perm
I0929 19:41:48.912506 12521 net.cpp:157] Top shape: 1 10 16 10 (1600)
I0929 19:41:48.912508 12521 net.cpp:165] Memory required for data: 471859616
I0929 19:41:48.912510 12521 layer_factory.hpp:77] Creating layer conv6_4_mbox_conf_flat
I0929 19:41:48.912513 12521 net.cpp:100] Creating Layer conv6_4_mbox_conf_flat
I0929 19:41:48.912515 12521 net.cpp:434] conv6_4_mbox_conf_flat <- conv6_4_mbox_conf_perm
I0929 19:41:48.912519 12521 net.cpp:408] conv6_4_mbox_conf_flat -> conv6_4_mbox_conf_flat
I0929 19:41:48.912535 12521 net.cpp:150] Setting up conv6_4_mbox_conf_flat
I0929 19:41:48.912539 12521 net.cpp:157] Top shape: 1 1600 (1600)
I0929 19:41:48.912540 12521 net.cpp:165] Memory required for data: 471866016
I0929 19:41:48.912542 12521 layer_factory.hpp:77] Creating layer conv6_4_mbox_priorbox
I0929 19:41:48.912545 12521 net.cpp:100] Creating Layer conv6_4_mbox_priorbox
I0929 19:41:48.912549 12521 net.cpp:434] conv6_4_mbox_priorbox <- conv6_4_relu6_4_0_split_3
I0929 19:41:48.912551 12521 net.cpp:434] conv6_4_mbox_priorbox <- data_data_0_split_2
I0929 19:41:48.912554 12521 net.cpp:408] conv6_4_mbox_priorbox -> conv6_4_mbox_priorbox
I0929 19:41:48.912571 12521 net.cpp:150] Setting up conv6_4_mbox_priorbox
I0929 19:41:48.912575 12521 net.cpp:157] Top shape: 1 2 1280 (2560)
I0929 19:41:48.912576 12521 net.cpp:165] Memory required for data: 471876256
I0929 19:41:48.912578 12521 layer_factory.hpp:77] Creating layer conv7_2/sep_mbox_loc
I0929 19:41:48.912585 12521 net.cpp:100] Creating Layer conv7_2/sep_mbox_loc
I0929 19:41:48.912587 12521 net.cpp:434] conv7_2/sep_mbox_loc <- conv7_2/sep_relu7_2/sep_0_split_1
I0929 19:41:48.912591 12521 net.cpp:408] conv7_2/sep_mbox_loc -> conv7_2/sep_mbox_loc
I0929 19:41:48.913997 12521 net.cpp:150] Setting up conv7_2/sep_mbox_loc
I0929 19:41:48.914005 12521 net.cpp:157] Top shape: 1 8 5 8 (320)
I0929 19:41:48.914007 12521 net.cpp:165] Memory required for data: 471877536
I0929 19:41:48.914011 12521 layer_factory.hpp:77] Creating layer conv7_2/sep_mbox_loc_perm
I0929 19:41:48.914016 12521 net.cpp:100] Creating Layer conv7_2/sep_mbox_loc_perm
I0929 19:41:48.914019 12521 net.cpp:434] conv7_2/sep_mbox_loc_perm <- conv7_2/sep_mbox_loc
I0929 19:41:48.914022 12521 net.cpp:408] conv7_2/sep_mbox_loc_perm -> conv7_2/sep_mbox_loc_perm
I0929 19:41:48.914094 12521 net.cpp:150] Setting up conv7_2/sep_mbox_loc_perm
I0929 19:41:48.914098 12521 net.cpp:157] Top shape: 1 5 8 8 (320)
I0929 19:41:48.914100 12521 net.cpp:165] Memory required for data: 471878816
I0929 19:41:48.914103 12521 layer_factory.hpp:77] Creating layer conv7_2/sep_mbox_loc_flat
I0929 19:41:48.914106 12521 net.cpp:100] Creating Layer conv7_2/sep_mbox_loc_flat
I0929 19:41:48.914109 12521 net.cpp:434] conv7_2/sep_mbox_loc_flat <- conv7_2/sep_mbox_loc_perm
I0929 19:41:48.914113 12521 net.cpp:408] conv7_2/sep_mbox_loc_flat -> conv7_2/sep_mbox_loc_flat
I0929 19:41:48.914129 12521 net.cpp:150] Setting up conv7_2/sep_mbox_loc_flat
I0929 19:41:48.914131 12521 net.cpp:157] Top shape: 1 320 (320)
I0929 19:41:48.914134 12521 net.cpp:165] Memory required for data: 471880096
I0929 19:41:48.914135 12521 layer_factory.hpp:77] Creating layer conv7_2/sep_mbox_conf
I0929 19:41:48.914140 12521 net.cpp:100] Creating Layer conv7_2/sep_mbox_conf
I0929 19:41:48.914144 12521 net.cpp:434] conv7_2/sep_mbox_conf <- conv7_2/sep_relu7_2/sep_0_split_2
I0929 19:41:48.914147 12521 net.cpp:408] conv7_2/sep_mbox_conf -> conv7_2/sep_mbox_conf
I0929 19:41:48.915575 12521 net.cpp:150] Setting up conv7_2/sep_mbox_conf
I0929 19:41:48.915582 12521 net.cpp:157] Top shape: 1 10 5 8 (400)
I0929 19:41:48.915585 12521 net.cpp:165] Memory required for data: 471881696
I0929 19:41:48.915590 12521 layer_factory.hpp:77] Creating layer conv7_2/sep_mbox_conf_perm
I0929 19:41:48.915594 12521 net.cpp:100] Creating Layer conv7_2/sep_mbox_conf_perm
I0929 19:41:48.915597 12521 net.cpp:434] conv7_2/sep_mbox_conf_perm <- conv7_2/sep_mbox_conf
I0929 19:41:48.915601 12521 net.cpp:408] conv7_2/sep_mbox_conf_perm -> conv7_2/sep_mbox_conf_perm
I0929 19:41:48.915671 12521 net.cpp:150] Setting up conv7_2/sep_mbox_conf_perm
I0929 19:41:48.915676 12521 net.cpp:157] Top shape: 1 5 8 10 (400)
I0929 19:41:48.915678 12521 net.cpp:165] Memory required for data: 471883296
I0929 19:41:48.915680 12521 layer_factory.hpp:77] Creating layer conv7_2/sep_mbox_conf_flat
I0929 19:41:48.915683 12521 net.cpp:100] Creating Layer conv7_2/sep_mbox_conf_flat
I0929 19:41:48.915686 12521 net.cpp:434] conv7_2/sep_mbox_conf_flat <- conv7_2/sep_mbox_conf_perm
I0929 19:41:48.915689 12521 net.cpp:408] conv7_2/sep_mbox_conf_flat -> conv7_2/sep_mbox_conf_flat
I0929 19:41:48.915704 12521 net.cpp:150] Setting up conv7_2/sep_mbox_conf_flat
I0929 19:41:48.915709 12521 net.cpp:157] Top shape: 1 400 (400)
I0929 19:41:48.915710 12521 net.cpp:165] Memory required for data: 471884896
I0929 19:41:48.915712 12521 layer_factory.hpp:77] Creating layer conv7_2/sep_mbox_priorbox
I0929 19:41:48.915715 12521 net.cpp:100] Creating Layer conv7_2/sep_mbox_priorbox
I0929 19:41:48.915719 12521 net.cpp:434] conv7_2/sep_mbox_priorbox <- conv7_2/sep_relu7_2/sep_0_split_3
I0929 19:41:48.915721 12521 net.cpp:434] conv7_2/sep_mbox_priorbox <- data_data_0_split_3
I0929 19:41:48.915726 12521 net.cpp:408] conv7_2/sep_mbox_priorbox -> conv7_2/sep_mbox_priorbox
I0929 19:41:48.915742 12521 net.cpp:150] Setting up conv7_2/sep_mbox_priorbox
I0929 19:41:48.915746 12521 net.cpp:157] Top shape: 1 2 320 (640)
I0929 19:41:48.915748 12521 net.cpp:165] Memory required for data: 471887456
I0929 19:41:48.915750 12521 layer_factory.hpp:77] Creating layer conv8_2/sep_mbox_loc
I0929 19:41:48.915755 12521 net.cpp:100] Creating Layer conv8_2/sep_mbox_loc
I0929 19:41:48.915758 12521 net.cpp:434] conv8_2/sep_mbox_loc <- conv8_2/sep_relu8_2/sep_0_split_1
I0929 19:41:48.915762 12521 net.cpp:408] conv8_2/sep_mbox_loc -> conv8_2/sep_mbox_loc
I0929 19:41:48.917105 12521 net.cpp:150] Setting up conv8_2/sep_mbox_loc
I0929 19:41:48.917114 12521 net.cpp:157] Top shape: 1 8 3 4 (96)
I0929 19:41:48.917115 12521 net.cpp:165] Memory required for data: 471887840
I0929 19:41:48.917120 12521 layer_factory.hpp:77] Creating layer conv8_2/sep_mbox_loc_perm
I0929 19:41:48.917124 12521 net.cpp:100] Creating Layer conv8_2/sep_mbox_loc_perm
I0929 19:41:48.917126 12521 net.cpp:434] conv8_2/sep_mbox_loc_perm <- conv8_2/sep_mbox_loc
I0929 19:41:48.917130 12521 net.cpp:408] conv8_2/sep_mbox_loc_perm -> conv8_2/sep_mbox_loc_perm
I0929 19:41:48.917201 12521 net.cpp:150] Setting up conv8_2/sep_mbox_loc_perm
I0929 19:41:48.917204 12521 net.cpp:157] Top shape: 1 3 4 8 (96)
I0929 19:41:48.917206 12521 net.cpp:165] Memory required for data: 471888224
I0929 19:41:48.917207 12521 layer_factory.hpp:77] Creating layer conv8_2/sep_mbox_loc_flat
I0929 19:41:48.917212 12521 net.cpp:100] Creating Layer conv8_2/sep_mbox_loc_flat
I0929 19:41:48.917213 12521 net.cpp:434] conv8_2/sep_mbox_loc_flat <- conv8_2/sep_mbox_loc_perm
I0929 19:41:48.917217 12521 net.cpp:408] conv8_2/sep_mbox_loc_flat -> conv8_2/sep_mbox_loc_flat
I0929 19:41:48.917232 12521 net.cpp:150] Setting up conv8_2/sep_mbox_loc_flat
I0929 19:41:48.917235 12521 net.cpp:157] Top shape: 1 96 (96)
I0929 19:41:48.917237 12521 net.cpp:165] Memory required for data: 471888608
I0929 19:41:48.917238 12521 layer_factory.hpp:77] Creating layer conv8_2/sep_mbox_conf
I0929 19:41:48.917244 12521 net.cpp:100] Creating Layer conv8_2/sep_mbox_conf
I0929 19:41:48.917248 12521 net.cpp:434] conv8_2/sep_mbox_conf <- conv8_2/sep_relu8_2/sep_0_split_2
I0929 19:41:48.917251 12521 net.cpp:408] conv8_2/sep_mbox_conf -> conv8_2/sep_mbox_conf
I0929 19:41:48.918488 12521 net.cpp:150] Setting up conv8_2/sep_mbox_conf
I0929 19:41:48.918495 12521 net.cpp:157] Top shape: 1 10 3 4 (120)
I0929 19:41:48.918498 12521 net.cpp:165] Memory required for data: 471889088
I0929 19:41:48.918501 12521 layer_factory.hpp:77] Creating layer conv8_2/sep_mbox_conf_perm
I0929 19:41:48.918506 12521 net.cpp:100] Creating Layer conv8_2/sep_mbox_conf_perm
I0929 19:41:48.918509 12521 net.cpp:434] conv8_2/sep_mbox_conf_perm <- conv8_2/sep_mbox_conf
I0929 19:41:48.918514 12521 net.cpp:408] conv8_2/sep_mbox_conf_perm -> conv8_2/sep_mbox_conf_perm
I0929 19:41:48.918581 12521 net.cpp:150] Setting up conv8_2/sep_mbox_conf_perm
I0929 19:41:48.918586 12521 net.cpp:157] Top shape: 1 3 4 10 (120)
I0929 19:41:48.918586 12521 net.cpp:165] Memory required for data: 471889568
I0929 19:41:48.918589 12521 layer_factory.hpp:77] Creating layer conv8_2/sep_mbox_conf_flat
I0929 19:41:48.918592 12521 net.cpp:100] Creating Layer conv8_2/sep_mbox_conf_flat
I0929 19:41:48.918596 12521 net.cpp:434] conv8_2/sep_mbox_conf_flat <- conv8_2/sep_mbox_conf_perm
I0929 19:41:48.918597 12521 net.cpp:408] conv8_2/sep_mbox_conf_flat -> conv8_2/sep_mbox_conf_flat
I0929 19:41:48.918614 12521 net.cpp:150] Setting up conv8_2/sep_mbox_conf_flat
I0929 19:41:48.918617 12521 net.cpp:157] Top shape: 1 120 (120)
I0929 19:41:48.918618 12521 net.cpp:165] Memory required for data: 471890048
I0929 19:41:48.918620 12521 layer_factory.hpp:77] Creating layer conv8_2/sep_mbox_priorbox
I0929 19:41:48.918624 12521 net.cpp:100] Creating Layer conv8_2/sep_mbox_priorbox
I0929 19:41:48.918627 12521 net.cpp:434] conv8_2/sep_mbox_priorbox <- conv8_2/sep_relu8_2/sep_0_split_3
I0929 19:41:48.918629 12521 net.cpp:434] conv8_2/sep_mbox_priorbox <- data_data_0_split_4
I0929 19:41:48.918632 12521 net.cpp:408] conv8_2/sep_mbox_priorbox -> conv8_2/sep_mbox_priorbox
I0929 19:41:48.918650 12521 net.cpp:150] Setting up conv8_2/sep_mbox_priorbox
I0929 19:41:48.918653 12521 net.cpp:157] Top shape: 1 2 96 (192)
I0929 19:41:48.918655 12521 net.cpp:165] Memory required for data: 471890816
I0929 19:41:48.918658 12521 layer_factory.hpp:77] Creating layer conv9_2/sep_mbox_loc
I0929 19:41:48.918663 12521 net.cpp:100] Creating Layer conv9_2/sep_mbox_loc
I0929 19:41:48.918665 12521 net.cpp:434] conv9_2/sep_mbox_loc <- conv9_2/sep_relu9_2/sep_0_split_1
I0929 19:41:48.918676 12521 net.cpp:408] conv9_2/sep_mbox_loc -> conv9_2/sep_mbox_loc
I0929 19:41:48.920368 12521 net.cpp:150] Setting up conv9_2/sep_mbox_loc
I0929 19:41:48.920377 12521 net.cpp:157] Top shape: 1 8 2 2 (32)
I0929 19:41:48.920379 12521 net.cpp:165] Memory required for data: 471890944
I0929 19:41:48.920384 12521 layer_factory.hpp:77] Creating layer conv9_2/sep_mbox_loc_perm
I0929 19:41:48.920389 12521 net.cpp:100] Creating Layer conv9_2/sep_mbox_loc_perm
I0929 19:41:48.920392 12521 net.cpp:434] conv9_2/sep_mbox_loc_perm <- conv9_2/sep_mbox_loc
I0929 19:41:48.920397 12521 net.cpp:408] conv9_2/sep_mbox_loc_perm -> conv9_2/sep_mbox_loc_perm
I0929 19:41:48.920464 12521 net.cpp:150] Setting up conv9_2/sep_mbox_loc_perm
I0929 19:41:48.920469 12521 net.cpp:157] Top shape: 1 2 2 8 (32)
I0929 19:41:48.920470 12521 net.cpp:165] Memory required for data: 471891072
I0929 19:41:48.920472 12521 layer_factory.hpp:77] Creating layer conv9_2/sep_mbox_loc_flat
I0929 19:41:48.920476 12521 net.cpp:100] Creating Layer conv9_2/sep_mbox_loc_flat
I0929 19:41:48.920478 12521 net.cpp:434] conv9_2/sep_mbox_loc_flat <- conv9_2/sep_mbox_loc_perm
I0929 19:41:48.920482 12521 net.cpp:408] conv9_2/sep_mbox_loc_flat -> conv9_2/sep_mbox_loc_flat
I0929 19:41:48.920497 12521 net.cpp:150] Setting up conv9_2/sep_mbox_loc_flat
I0929 19:41:48.920501 12521 net.cpp:157] Top shape: 1 32 (32)
I0929 19:41:48.920502 12521 net.cpp:165] Memory required for data: 471891200
I0929 19:41:48.920505 12521 layer_factory.hpp:77] Creating layer conv9_2/sep_mbox_conf
I0929 19:41:48.920511 12521 net.cpp:100] Creating Layer conv9_2/sep_mbox_conf
I0929 19:41:48.920513 12521 net.cpp:434] conv9_2/sep_mbox_conf <- conv9_2/sep_relu9_2/sep_0_split_2
I0929 19:41:48.920516 12521 net.cpp:408] conv9_2/sep_mbox_conf -> conv9_2/sep_mbox_conf
I0929 19:41:48.921747 12521 net.cpp:150] Setting up conv9_2/sep_mbox_conf
I0929 19:41:48.921756 12521 net.cpp:157] Top shape: 1 10 2 2 (40)
I0929 19:41:48.921757 12521 net.cpp:165] Memory required for data: 471891360
I0929 19:41:48.921761 12521 layer_factory.hpp:77] Creating layer conv9_2/sep_mbox_conf_perm
I0929 19:41:48.921766 12521 net.cpp:100] Creating Layer conv9_2/sep_mbox_conf_perm
I0929 19:41:48.921767 12521 net.cpp:434] conv9_2/sep_mbox_conf_perm <- conv9_2/sep_mbox_conf
I0929 19:41:48.921772 12521 net.cpp:408] conv9_2/sep_mbox_conf_perm -> conv9_2/sep_mbox_conf_perm
I0929 19:41:48.921839 12521 net.cpp:150] Setting up conv9_2/sep_mbox_conf_perm
I0929 19:41:48.921844 12521 net.cpp:157] Top shape: 1 2 2 10 (40)
I0929 19:41:48.921845 12521 net.cpp:165] Memory required for data: 471891520
I0929 19:41:48.921846 12521 layer_factory.hpp:77] Creating layer conv9_2/sep_mbox_conf_flat
I0929 19:41:48.921850 12521 net.cpp:100] Creating Layer conv9_2/sep_mbox_conf_flat
I0929 19:41:48.921854 12521 net.cpp:434] conv9_2/sep_mbox_conf_flat <- conv9_2/sep_mbox_conf_perm
I0929 19:41:48.921856 12521 net.cpp:408] conv9_2/sep_mbox_conf_flat -> conv9_2/sep_mbox_conf_flat
I0929 19:41:48.921871 12521 net.cpp:150] Setting up conv9_2/sep_mbox_conf_flat
I0929 19:41:48.921875 12521 net.cpp:157] Top shape: 1 40 (40)
I0929 19:41:48.921876 12521 net.cpp:165] Memory required for data: 471891680
I0929 19:41:48.921878 12521 layer_factory.hpp:77] Creating layer conv9_2/sep_mbox_priorbox
I0929 19:41:48.921882 12521 net.cpp:100] Creating Layer conv9_2/sep_mbox_priorbox
I0929 19:41:48.921885 12521 net.cpp:434] conv9_2/sep_mbox_priorbox <- conv9_2/sep_relu9_2/sep_0_split_3
I0929 19:41:48.921887 12521 net.cpp:434] conv9_2/sep_mbox_priorbox <- data_data_0_split_5
I0929 19:41:48.921891 12521 net.cpp:408] conv9_2/sep_mbox_priorbox -> conv9_2/sep_mbox_priorbox
I0929 19:41:48.921908 12521 net.cpp:150] Setting up conv9_2/sep_mbox_priorbox
I0929 19:41:48.921911 12521 net.cpp:157] Top shape: 1 2 32 (64)
I0929 19:41:48.921913 12521 net.cpp:165] Memory required for data: 471891936
I0929 19:41:48.921916 12521 layer_factory.hpp:77] Creating layer conv10_2/sep_mbox_loc
I0929 19:41:48.921921 12521 net.cpp:100] Creating Layer conv10_2/sep_mbox_loc
I0929 19:41:48.921932 12521 net.cpp:434] conv10_2/sep_mbox_loc <- conv10_2/sep_relu10_2/sep_0_split_0
I0929 19:41:48.921937 12521 net.cpp:408] conv10_2/sep_mbox_loc -> conv10_2/sep_mbox_loc
I0929 19:41:48.923208 12521 net.cpp:150] Setting up conv10_2/sep_mbox_loc
I0929 19:41:48.923221 12521 net.cpp:157] Top shape: 1 8 1 1 (8)
I0929 19:41:48.923223 12521 net.cpp:165] Memory required for data: 471891968
I0929 19:41:48.923229 12521 layer_factory.hpp:77] Creating layer conv10_2/sep_mbox_loc_perm
I0929 19:41:48.923236 12521 net.cpp:100] Creating Layer conv10_2/sep_mbox_loc_perm
I0929 19:41:48.923240 12521 net.cpp:434] conv10_2/sep_mbox_loc_perm <- conv10_2/sep_mbox_loc
I0929 19:41:48.923246 12521 net.cpp:408] conv10_2/sep_mbox_loc_perm -> conv10_2/sep_mbox_loc_perm
I0929 19:41:48.923318 12521 net.cpp:150] Setting up conv10_2/sep_mbox_loc_perm
I0929 19:41:48.923322 12521 net.cpp:157] Top shape: 1 1 1 8 (8)
I0929 19:41:48.923323 12521 net.cpp:165] Memory required for data: 471892000
I0929 19:41:48.923326 12521 layer_factory.hpp:77] Creating layer conv10_2/sep_mbox_loc_flat
I0929 19:41:48.923329 12521 net.cpp:100] Creating Layer conv10_2/sep_mbox_loc_flat
I0929 19:41:48.923332 12521 net.cpp:434] conv10_2/sep_mbox_loc_flat <- conv10_2/sep_mbox_loc_perm
I0929 19:41:48.923336 12521 net.cpp:408] conv10_2/sep_mbox_loc_flat -> conv10_2/sep_mbox_loc_flat
I0929 19:41:48.923352 12521 net.cpp:150] Setting up conv10_2/sep_mbox_loc_flat
I0929 19:41:48.923355 12521 net.cpp:157] Top shape: 1 8 (8)
I0929 19:41:48.923357 12521 net.cpp:165] Memory required for data: 471892032
I0929 19:41:48.923358 12521 layer_factory.hpp:77] Creating layer conv10_2/sep_mbox_conf
I0929 19:41:48.923365 12521 net.cpp:100] Creating Layer conv10_2/sep_mbox_conf
I0929 19:41:48.923368 12521 net.cpp:434] conv10_2/sep_mbox_conf <- conv10_2/sep_relu10_2/sep_0_split_1
I0929 19:41:48.923373 12521 net.cpp:408] conv10_2/sep_mbox_conf -> conv10_2/sep_mbox_conf
I0929 19:41:48.924962 12521 net.cpp:150] Setting up conv10_2/sep_mbox_conf
I0929 19:41:48.924975 12521 net.cpp:157] Top shape: 1 10 1 1 (10)
I0929 19:41:48.924978 12521 net.cpp:165] Memory required for data: 471892072
I0929 19:41:48.924984 12521 layer_factory.hpp:77] Creating layer conv10_2/sep_mbox_conf_perm
I0929 19:41:48.924991 12521 net.cpp:100] Creating Layer conv10_2/sep_mbox_conf_perm
I0929 19:41:48.924995 12521 net.cpp:434] conv10_2/sep_mbox_conf_perm <- conv10_2/sep_mbox_conf
I0929 19:41:48.925002 12521 net.cpp:408] conv10_2/sep_mbox_conf_perm -> conv10_2/sep_mbox_conf_perm
I0929 19:41:48.925073 12521 net.cpp:150] Setting up conv10_2/sep_mbox_conf_perm
I0929 19:41:48.925077 12521 net.cpp:157] Top shape: 1 1 1 10 (10)
I0929 19:41:48.925079 12521 net.cpp:165] Memory required for data: 471892112
I0929 19:41:48.925081 12521 layer_factory.hpp:77] Creating layer conv10_2/sep_mbox_conf_flat
I0929 19:41:48.925084 12521 net.cpp:100] Creating Layer conv10_2/sep_mbox_conf_flat
I0929 19:41:48.925086 12521 net.cpp:434] conv10_2/sep_mbox_conf_flat <- conv10_2/sep_mbox_conf_perm
I0929 19:41:48.925091 12521 net.cpp:408] conv10_2/sep_mbox_conf_flat -> conv10_2/sep_mbox_conf_flat
I0929 19:41:48.925107 12521 net.cpp:150] Setting up conv10_2/sep_mbox_conf_flat
I0929 19:41:48.925110 12521 net.cpp:157] Top shape: 1 10 (10)
I0929 19:41:48.925112 12521 net.cpp:165] Memory required for data: 471892152
I0929 19:41:48.925113 12521 layer_factory.hpp:77] Creating layer conv10_2/sep_mbox_priorbox
I0929 19:41:48.925117 12521 net.cpp:100] Creating Layer conv10_2/sep_mbox_priorbox
I0929 19:41:48.925119 12521 net.cpp:434] conv10_2/sep_mbox_priorbox <- conv10_2/sep_relu10_2/sep_0_split_2
I0929 19:41:48.925123 12521 net.cpp:434] conv10_2/sep_mbox_priorbox <- data_data_0_split_6
I0929 19:41:48.925127 12521 net.cpp:408] conv10_2/sep_mbox_priorbox -> conv10_2/sep_mbox_priorbox
I0929 19:41:48.925149 12521 net.cpp:150] Setting up conv10_2/sep_mbox_priorbox
I0929 19:41:48.925153 12521 net.cpp:157] Top shape: 1 2 8 (16)
I0929 19:41:48.925154 12521 net.cpp:165] Memory required for data: 471892216
I0929 19:41:48.925156 12521 layer_factory.hpp:77] Creating layer mbox_loc
I0929 19:41:48.925173 12521 net.cpp:100] Creating Layer mbox_loc
I0929 19:41:48.925175 12521 net.cpp:434] mbox_loc <- conv5_3/expand_norm_mbox_loc_flat
I0929 19:41:48.925179 12521 net.cpp:434] mbox_loc <- conv6_4_mbox_loc_flat
I0929 19:41:48.925184 12521 net.cpp:434] mbox_loc <- conv7_2/sep_mbox_loc_flat
I0929 19:41:48.925186 12521 net.cpp:434] mbox_loc <- conv8_2/sep_mbox_loc_flat
I0929 19:41:48.925189 12521 net.cpp:434] mbox_loc <- conv9_2/sep_mbox_loc_flat
I0929 19:41:48.925192 12521 net.cpp:434] mbox_loc <- conv10_2/sep_mbox_loc_flat
I0929 19:41:48.925195 12521 net.cpp:408] mbox_loc -> mbox_loc
I0929 19:41:48.925215 12521 net.cpp:150] Setting up mbox_loc
I0929 19:41:48.925217 12521 net.cpp:157] Top shape: 1 6600 (6600)
I0929 19:41:48.925220 12521 net.cpp:165] Memory required for data: 471918616
I0929 19:41:48.925221 12521 layer_factory.hpp:77] Creating layer mbox_conf
I0929 19:41:48.925225 12521 net.cpp:100] Creating Layer mbox_conf
I0929 19:41:48.925226 12521 net.cpp:434] mbox_conf <- conv5_3/expand_norm_mbox_conf_flat
I0929 19:41:48.925230 12521 net.cpp:434] mbox_conf <- conv6_4_mbox_conf_flat
I0929 19:41:48.925231 12521 net.cpp:434] mbox_conf <- conv7_2/sep_mbox_conf_flat
I0929 19:41:48.925235 12521 net.cpp:434] mbox_conf <- conv8_2/sep_mbox_conf_flat
I0929 19:41:48.925236 12521 net.cpp:434] mbox_conf <- conv9_2/sep_mbox_conf_flat
I0929 19:41:48.925238 12521 net.cpp:434] mbox_conf <- conv10_2/sep_mbox_conf_flat
I0929 19:41:48.925243 12521 net.cpp:408] mbox_conf -> mbox_conf
I0929 19:41:48.925258 12521 net.cpp:150] Setting up mbox_conf
I0929 19:41:48.925262 12521 net.cpp:157] Top shape: 1 8250 (8250)
I0929 19:41:48.925263 12521 net.cpp:165] Memory required for data: 471951616
I0929 19:41:48.925266 12521 layer_factory.hpp:77] Creating layer mbox_priorbox
I0929 19:41:48.925268 12521 net.cpp:100] Creating Layer mbox_priorbox
I0929 19:41:48.925271 12521 net.cpp:434] mbox_priorbox <- conv5_3/expand_norm_mbox_priorbox
I0929 19:41:48.925274 12521 net.cpp:434] mbox_priorbox <- conv6_4_mbox_priorbox
I0929 19:41:48.925276 12521 net.cpp:434] mbox_priorbox <- conv7_2/sep_mbox_priorbox
I0929 19:41:48.925279 12521 net.cpp:434] mbox_priorbox <- conv8_2/sep_mbox_priorbox
I0929 19:41:48.925282 12521 net.cpp:434] mbox_priorbox <- conv9_2/sep_mbox_priorbox
I0929 19:41:48.925283 12521 net.cpp:434] mbox_priorbox <- conv10_2/sep_mbox_priorbox
I0929 19:41:48.925287 12521 net.cpp:408] mbox_priorbox -> mbox_priorbox
I0929 19:41:48.925302 12521 net.cpp:150] Setting up mbox_priorbox
I0929 19:41:48.925305 12521 net.cpp:157] Top shape: 1 2 6600 (13200)
I0929 19:41:48.925307 12521 net.cpp:165] Memory required for data: 472004416
I0929 19:41:48.925308 12521 layer_factory.hpp:77] Creating layer mbox_conf_reshape
I0929 19:41:48.925313 12521 net.cpp:100] Creating Layer mbox_conf_reshape
I0929 19:41:48.925315 12521 net.cpp:434] mbox_conf_reshape <- mbox_conf
I0929 19:41:48.925319 12521 net.cpp:408] mbox_conf_reshape -> mbox_conf_reshape
I0929 19:41:48.925341 12521 net.cpp:150] Setting up mbox_conf_reshape
I0929 19:41:48.925345 12521 net.cpp:157] Top shape: 1 1650 5 (8250)
I0929 19:41:48.925346 12521 net.cpp:165] Memory required for data: 472037416
I0929 19:41:48.925348 12521 layer_factory.hpp:77] Creating layer mbox_conf_softmax
I0929 19:41:48.925352 12521 net.cpp:100] Creating Layer mbox_conf_softmax
I0929 19:41:48.925354 12521 net.cpp:434] mbox_conf_softmax <- mbox_conf_reshape
I0929 19:41:48.925359 12521 net.cpp:408] mbox_conf_softmax -> mbox_conf_softmax
I0929 19:41:48.925704 12521 net.cpp:150] Setting up mbox_conf_softmax
I0929 19:41:48.925710 12521 net.cpp:157] Top shape: 1 1650 5 (8250)
I0929 19:41:48.925714 12521 net.cpp:165] Memory required for data: 472070416
I0929 19:41:48.925715 12521 layer_factory.hpp:77] Creating layer mbox_conf_flatten
I0929 19:41:48.925719 12521 net.cpp:100] Creating Layer mbox_conf_flatten
I0929 19:41:48.925720 12521 net.cpp:434] mbox_conf_flatten <- mbox_conf_softmax
I0929 19:41:48.925724 12521 net.cpp:408] mbox_conf_flatten -> mbox_conf_flatten
I0929 19:41:48.925741 12521 net.cpp:150] Setting up mbox_conf_flatten
I0929 19:41:48.925751 12521 net.cpp:157] Top shape: 1 8250 (8250)
I0929 19:41:48.925752 12521 net.cpp:165] Memory required for data: 472103416
I0929 19:41:48.925755 12521 layer_factory.hpp:77] Creating layer detection_out
I0929 19:41:48.925762 12521 net.cpp:100] Creating Layer detection_out
I0929 19:41:48.925765 12521 net.cpp:434] detection_out <- mbox_loc
I0929 19:41:48.925767 12521 net.cpp:434] detection_out <- mbox_conf_flatten
I0929 19:41:48.925771 12521 net.cpp:434] detection_out <- mbox_priorbox
I0929 19:41:48.925776 12521 net.cpp:408] detection_out -> detection_out
W0929 19:41:48.925799 12521 detection_output_layer.cpp:49] Failed to create directory: /home/zhongyilin/Documents/data/GTSDBdevkit/results/GTSDB/SSDLite_510x300_100_40_6_True_1/Main
I0929 19:41:48.926115 12521 net.cpp:150] Setting up detection_out
I0929 19:41:48.926121 12521 net.cpp:157] Top shape: 1 1 1 7 (7)
I0929 19:41:48.926123 12521 net.cpp:165] Memory required for data: 472103444
I0929 19:41:48.926126 12521 layer_factory.hpp:77] Creating layer detection_eval
I0929 19:41:48.926131 12521 net.cpp:100] Creating Layer detection_eval
I0929 19:41:48.926133 12521 net.cpp:434] detection_eval <- detection_out
I0929 19:41:48.926136 12521 net.cpp:434] detection_eval <- label
I0929 19:41:48.926139 12521 net.cpp:408] detection_eval -> detection_eval
I0929 19:41:48.926218 12521 net.cpp:150] Setting up detection_eval
I0929 19:41:48.926223 12521 net.cpp:157] Top shape: 1 1 5 5 (25)
I0929 19:41:48.926225 12521 net.cpp:165] Memory required for data: 472103544
I0929 19:41:48.926228 12521 net.cpp:228] detection_eval does not need backward computation.
I0929 19:41:48.926229 12521 net.cpp:228] detection_out does not need backward computation.
I0929 19:41:48.926232 12521 net.cpp:228] mbox_conf_flatten does not need backward computation.
I0929 19:41:48.926234 12521 net.cpp:228] mbox_conf_softmax does not need backward computation.
…
