…
      sampler {
        min_scale: 0.3
        max_scale: 1
        min_aspect_ratio: 0.5
        max_aspect_ratio: 2
      }
      sample_constraint {
        min_jaccard_overlap: 0.9
      }
      max_sample: 1
      max_trials: 50
    }
    batch_sampler {
      sampler {
        min_scale: 0.3
        max_scale: 1
        min_aspect_ratio: 0.5
        max_aspect_ratio: 2
      }
      sample_constraint {
        max_jaccard_overlap: 1
      }
      max_sample: 1
      max_trials: 50
    }
    label_map_file: "data/GTSDB/labelmap_GTSDB.prototxt"
  }
}
layer {
  name: "conv1"
  type: "Convolution"
  bottom: "data"
  top: "conv1"
  param {
    lr_mult: 1
    decay_mult: 1
  }
  convolution_param {
    num_output: 32
    bias_term: false
    pad: 1
    kernel_size: 3
    stride: 2
    weight_filler {
      type: "msra"
    }
  }
}
layer {
  name: "conv1/bn"
  type: "BatchNorm"
  bottom: "conv1"
  top: "conv1"
  batch_norm_param {
    use_global_stats: true
    eps: 1e-05
  }
}
layer {
  name: "conv1/scale"
  type: "Scale"
  bottom: "conv1"
  top: "conv1"
  param {
    lr_mult: 1
    decay_mult: 0
  }
  param {
    lr_mult: 1
    decay_mult: 0
  }
  scale_param {
    bias_term: true
  }
}
layer {
  name: "relu1"
  type: "ReLU"
  bottom: "conv1"
  top: "conv1"
}
layer {
  name: "conv2_1/expand"
  type: "Convolution"
  bottom: "conv1"
  top: "conv2_1/expand"
  param {
    lr_mult: 1
    decay_mult: 1
  }
  convolution_param {
    num_output: 32
    bias_term: false
    kernel_size: 1
    weight_filler {
      type: "msra"
    }
  }
}
layer {
  name: "conv2_1/expand/bn"
  type: "BatchNorm"
  bottom: "conv2_1/expand"
  top: "conv2_1/expand"
  batch_norm_param {
    use_global_stats: true
    eps: 1e-05
  }
}
layer {
  name: "conv2_1/expand/scale"
  type: "Scale"
  bottom: "conv2_1/expand"
  top: "conv2_1/expand"
  param {
    lr_mult: 1
    decay_mult: 0
  }
  param {
    lr_mult: 1
    decay_mult: 0
  }
  scale_param {
    bias_term: true
  }
}
layer {
  name: "relu2_1/expand"
  type: "ReLU"
  bottom: "conv2_1/expand"
  top: "conv2_1/expand"
}
layer {
  name: "conv2_1/dwise"
  type: "DepthwiseConvolution"
  bottom: "conv2_1/expand"
  top: "conv2_1/dwise"
  param {
    lr_mult: 1
    decay_mult: 1
  }
  convolution_param {
    num_output: 32
    bias_term: false
    pad: 1
    kernel_size: 3
    group: 32
    stride: 1
    weight_filler {
      type: "msra"
    }
  }
}
layer {
  name: "conv2_1/dwise/bn"
  type: "BatchNorm"
  bottom: "conv2_1/dwise"
  top: "conv2_1/dwise"
  batch_norm_param {
    use_global_stats: true
    eps: 1e-05
  }
}
layer {
  name: "conv2_1/dwise/scale"
  type: "Scale"
  bottom: "conv2_1/dwise"
  top: "conv2_1/dwise"
  param {
    lr_mult: 1
    decay_mult: 0
  }
  param {
    lr_mult: 1
    decay_mult: 0
  }
  scale_param {
    bias_term: true
  }
}
layer {
  name: "relu2_1/dwise"
  type: "ReLU"
  bottom: "conv2_1/dwise"
  top: "conv2_1/dwise"
}
layer {
  name: "conv2_1/linear"
  type: "Convolution"
  bottom: "conv2_1/dwise"
  top: "conv2_1/linear"
  param {
    lr_mult: 1
    decay_mult: 1
  }
  convolution_param {
    num_output: 16
    bias_term: false
    kernel_size: 1
    weight_filler {
      type: "msra"
    }
  }
}
layer {
  name: "conv2_1/linear/bn"
  type: "BatchNorm"
  bottom: "conv2_1/linear"
  top: "conv2_1/linear"
  batch_norm_param {
    use_global_stats: true
    eps: 1e-05
  }
}
layer {
  name: "conv2_1/linear/scale"
  type: "Scale"
  bottom: "conv2_1/linear"
  top: "conv2_1/linear"
  param {
    lr_mult: 1
    decay_mult: 0
  }
  param {
    lr_mult: 1
    decay_mult: 0
  }
  scale_param {
    bias_term: true
  }
}
layer {
  name: "conv2_2/expand"
  type: "Convolution"
  bottom: "conv2_1/linear"
  top: "conv2_2/expand"
  param {
    lr_mult: 1
    decay_mult: 1
  }
  convolution_param {
    num_output: 96
    bias_term: false
    kernel_size: 1
    weight_filler {
      type: "msra"
    }
  }
}
layer {
  name: "conv2_2/expand/bn"
  type: "BatchNorm"
  bottom: "conv2_2/expand"
  top: "conv2_2/expand"
  batch_norm_param {
    use_global_stats: true
    eps: 1e-05
  }
}
layer {
  name: "conv2_2/expand/scale"
  type: "Scale"
  bottom: "conv2_2/expand"
  top: "conv2_2/expand"
  param {
    lr_mult: 1
    decay_mult: 0
  }
  param {
    lr_mult: 1
    decay_mult: 0
  }
  scale_param {
    bias_term: true
  }
}
layer {
  name: "relu2_2/expand"
  type: "ReLU"
  bottom: "conv2_2/expand"
  top: "conv2_2/expand"
}
layer {
  name: "conv2_2/dwise"
  type: "DepthwiseConvolution"
  bottom: "conv2_2/expand"
  top: "conv2_2/dwise"
  param {
    lr_mult: 1
    decay_mult: 1
  }
  convolution_param {
    num_output: 96
    bias_term: false
    pad: 1
    kernel_size: 3
    group: 96
    stride: 2
    weight_filler {
      type: "msra"
    }
  }
}
layer {
  name: "conv2_2/dwise/bn"
  type: "BatchNorm"
  bottom: "conv2_2/dwise"
  top: "conv2_2/dwise"
  batch_norm_param {
    use_global_stats: true
    eps: 1e-05
  }
}
layer {
  name: "conv2_2/dwise/scale"
  type: "Scale"
  bottom: "conv2_2/dwise"
  top: "conv2_2/dwise"
  param {
    lr_mult: 1
    decay_mult: 0
  }
  param {
    lr_mult: 1
    decay_mult: 0
  }
  scale_param {
    bias_term: true
  }
}
layer {
  name: "relu2_2/dwise"
  type: "ReLU"
  bottom: "conv2_2/dwise"
  top: "conv2_2/dwise"
}
layer {
  name: "conv2_2/linear"
  type: "Convolution"
  bottom: "conv2_2/dwise"
  top: "conv2_2/linear"
  param {
    lr_mult: 1
    decay_mult: 1
  }
  convolution_param {
    num_output: 24
    bias_term: false
    kernel_size: 1
    weight_filler {
      type: "msra"
    }
  }
}
layer {
  name: "conv2_2/linear/bn"
  type: "BatchNorm"
  bottom: "conv2_2/linear"
  top: "conv2_2/linear"
  batch_norm_param {
    use_global_stats: true
    eps: 1e-05
  }
}
layer {
  name: "conv2_2/linear/scale"
  type: "Scale"
  bottom: "conv2_2/linear"
  top: "conv2_2/linear"
  param {
    lr_mult: 1
    decay_mult: 0
  }
  param {
    lr_mult: 1
    decay_mult: 0
  }
  scale_param {
    bias_term: true
  }
}
layer {
  name: "conv3_1/expand"
  type: "Convolution"
  bottom: "conv2_2/linear"
  top: "conv3_1/expand"
  param {
    lr_mult: 1
    decay_mult: 1
  }
  convolution_param {
    num_output: 144
    bias_term: false
    kernel_size: 1
    weight_filler {
      type: "msra"
    }
  }
}
layer {
  name: "conv3_1/expand/bn"
  type: "BatchNorm"
  bottom: "conv3_1/expand"
  top: "conv3_1/expand"
  batch_norm_param {
    use_global_stats: true
    eps: 1e-05
  }
}
layer {
  name: "conv3_1/expand/scale"
  type: "Scale"
  bottom: "conv3_1/expand"
  top: "conv3_1/expand"
  param {
    lr_mult: 1
    decay_mult: 0
  }
  param {
    lr_mult: 1
    decay_mult: 0
  }
  scale_param {
    bias_term: true
  }
}
layer {
  name: "relu3_1/expand"
  type: "ReLU"
  bottom: "conv3_1/expand"
  top: "conv3_1/expand"
}
layer {
  name: "conv3_1/dwise"
  type: "DepthwiseConvolution"
  bottom: "conv3_1/expand"
  top: "conv3_1/dwise"
  param {
    lr_mult: 1
    decay_mult: 1
  }
  convolution_param {
    num_output: 144
    bias_term: false
    pad: 1
    kernel_size: 3
    group: 144
    stride: 1
    weight_filler {
      type: "msra"
    }
  }
}
layer {
  name: "conv3_1/dwise/bn"
  type: "BatchNorm"
  bottom: "conv3_1/dwise"
  top: "conv3_1/dwise"
  batch_norm_param {
    use_global_stats: true
    eps: 1e-05
  }
}
layer {
  name: "conv3_1/dwise/scale"
  type: "Scale"
  bottom: "conv3_1/dwise"
  top: "conv3_1/dwise"
  param {
    lr_mult: 1
    decay_mult: 0
  }
  param {
    lr_mult: 1
    decay_mult: 0
  }
  scale_param {
    bias_term: true
  }
}
layer {
  name: "relu3_1/dwise"
  type: "ReLU"
  bottom: "conv3_1/dwise"
  top: "conv3_1/dwise"
}
layer {
  name: "conv3_1/linear"
  type: "Convolution"
  bottom: "conv3_1/dwise"
  top: "conv3_1/linear"
  param {
    lr_mult: 1
    decay_mult: 1
  }
  convolution_param {
    num_output: 24
    bias_term: false
    kernel_size: 1
    weight_filler {
      type: "msra"
    }
  }
}
layer {
  name: "conv3_1/linear/bn"
  type: "BatchNorm"
  bottom: "conv3_1/linear"
  top: "conv3_1/linear"
  batch_norm_param {
    use_global_stats: true
    eps: 1e-05
  }
}
layer {
  name: "conv3_1/linear/scale"
  type: "Scale"
  bottom: "conv3_1/linear"
  top: "conv3_1/linear"
  param {
    lr_mult: 1
    decay_mult: 0
  }
  param {
    lr_mult: 1
    decay_mult: 0
  }
  scale_param {
    bias_term: true
  }
}
layer {
  name: "block_3_1"
  type: "Eltwise"
  bottom: "conv2_2/linear"
  bottom: "conv3_1/linear"
  top: "block_3_1"
}
layer {
  name: "conv3_2/expand"
  type: "Convolution"
  bottom: "block_3_1"
  top: "conv3_2/expand"
  param {
    lr_mult: 1
    decay_mult: 1
  }
  convolution_param {
    num_output: 144
    bias_term: false
    kernel_size: 1
    weight_filler {
      type: "msra"
    }
  }
}
layer {
  name: "conv3_2/expand/bn"
  type: "BatchNorm"
  bottom: "conv3_2/expand"
  top: "conv3_2/expand"
  batch_norm_param {
    use_global_stats: true
    eps: 1e-05
  }
}
layer {
  name: "conv3_2/expand/scale"
  type: "Scale"
  bottom: "conv3_2/expand"
  top: "conv3_2/expand"
  param {
    lr_mult: 1
    decay_mult: 0
  }
  param {
    lr_mult: 1
    decay_mult: 0
  }
  scale_param {
    bias_term: true
  }
}
layer {
  name: "relu3_2/expand"
  type: "ReLU"
  bottom: "conv3_2/expand"
  top: "conv3_2/expand"
}
layer {
  name: "conv3_2/dwise"
  type: "DepthwiseConvolution"
  bottom: "conv3_2/expand"
  top: "conv3_2/dwise"
  param {
    lr_mult: 1
    decay_mult: 1
  }
  convolution_param {
    num_output: 144
    bias_term: false
    pad: 1
    kernel_size: 3
    group: 144
    stride: 2
    weight_filler {
      type: "msra"
    }
  }
}
layer {
  name: "conv3_2/dwise/bn"
  type: "BatchNorm"
  bottom: "conv3_2/dwise"
  top: "conv3_2/dwise"
  batch_norm_param {
    use_global_stats: true
    eps: 1e-05
  }
}
layer {
  name: "conv3_2/dwise/scale"
  type: "Scale"
  bottom: "conv3_2/dwise"
  top: "conv3_2/dwise"
  param {
    lr_mult: 1
    decay_mult: 0
  }
  param {
    lr_mult: 1
    decay_mult: 0
  }
  scale_param {
    bias_term: true
  }
}
layer {
  name: "relu3_2/dwise"
  type: "ReLU"
  bottom: "conv3_2/dwise"
  top: "conv3_2/dwise"
}
layer {
  name: "conv3_2/linear"
  type: "Convolution"
  bottom: "conv3_2/dwise"
  top: "conv3_2/linear"
  param {
    lr_mult: 1
    decay_mult: 1
  }
  convolution_param {
    num_output: 32
    bias_term: false
    kernel_size: 1
    weight_filler {
      type: "msra"
    }
  }
}
layer {
  name: "conv3_2/linear/bn"
  type: "BatchNorm"
  bottom: "conv3_2/linear"
  top: "conv3_2/linear"
  batch_norm_param {
    use_global_stats: true
    eps: 1e-05
  }
}
layer {
  name: "conv3_2/linear/scale"
  type: "Scale"
  bottom: "conv3_2/linear"
  top: "conv3_2/linear"
  param {
    lr_mult: 1
    decay_mult: 0
  }
  param {
    lr_mult: 1
    decay_mult: 0
  }
  scale_param {
    bias_term: true
  }
}
layer {
  name: "conv4_1/expand"
  type: "Convolution"
  bottom: "conv3_2/linear"
  top: "conv4_1/expand"
  param {
    lr_mult: 1
    decay_mult: 1
  }
  convolution_param {
    num_output: 192
    bias_term: false
    kernel_size: 1
    weight_filler {
      type: "msra"
    }
  }
}
layer {
  name: "conv4_1/expand/bn"
  type: "BatchNorm"
  bottom: "conv4_1/expand"
  top: "conv4_1/expand"
  batch_norm_param {
    use_global_stats: true
    eps: 1e-05
  }
}
layer {
  name: "conv4_1/expand/scale"
  type: "Scale"
  bottom: "conv4_1/expand"
  top: "conv4_1/expand"
  param {
    lr_mult: 1
    decay_mult: 0
  }
  param {
    lr_mult: 1
    decay_mult: 0
  }
  scale_param {
    bias_term: true
  }
}
layer {
  name: "relu4_1/expand"
  type: "ReLU"
  bottom: "conv4_1/expand"
  top: "conv4_1/expand"
}
layer {
  name: "conv4_1/dwise"
  type: "DepthwiseConvolution"
  bottom: "conv4_1/expand"
  top: "conv4_1/dwise"
  param {
    lr_mult: 1
    decay_mult: 1
  }
  convolution_param {
    num_output: 192
    bias_term: false
    pad: 1
    kernel_size: 3
    group: 192
    stride: 1
    weight_filler {
      type: "msra"
    }
  }
}
layer {
  name: "conv4_1/dwise/bn"
  type: "BatchNorm"
  bottom: "conv4_1/dwise"
  top: "conv4_1/dwise"
  batch_norm_param {
    use_global_stats: true
    eps: 1e-05
  }
}
layer {
  name: "conv4_1/dwise/scale"
  type: "Scale"
  bottom: "conv4_1/dwise"
  top: "conv4_1/dwise"
  param {
    lr_mult: 1
    decay_mult: 0
  }
  param {
    lr_mult: 1
    decay_mult: 0
  }
  scale_param {
    bias_term: true
  }
}
layer {
  name: "relu4_1/dwise"
  type: "ReLU"
  bottom: "conv4_1/dwise"
  top: "conv4_1/dwise"
}
layer {
  name: "conv4_1/linear"
  type: "Convolution"
  bottom: "conv4_1/dwise"
  top: "conv4_1/linear"
  param {
    lr_mult: 1
    decay_mult: 1
  }
  convolution_param {
    num_output: 32
    bias_term: false
    kernel_size: 1
    weight_filler {
      type: "msra"
    }
  }
}
layer {
  name: "conv4_1/linear/bn"
  type: "BatchNorm"
  bottom: "conv4_1/linear"
  top: "conv4_1/linear"
  batch_norm_param {
    use_global_stats: true
    eps: 1e-05
  }
}
layer {
  name: "conv4_1/linear/scale"
  type: "Scale"
  bottom: "conv4_1/linear"
  top: "conv4_1/linear"
  param {
    lr_mult: 1
    decay_mult: 0
  }
  param {
    lr_mult: 1
    decay_mult: 0
  }
  scale_param {
    bias_term: true
  }
}
layer {
  name: "block_4_1"
  type: "Eltwise"
  bottom: "conv3_2/linear"
  bottom: "conv4_1/linear"
  top: "block_4_1"
}
layer {
  name: "conv4_2/expand"
  type: "Convolution"
  bottom: "block_4_1"
  top: "conv4_2/expand"
  param {
    lr_mult: 1
    decay_mult: 1
  }
  convolution_param {
    num_output: 192
    bias_term: false
    kernel_size: 1
    weight_filler {
      type: "msra"
    }
  }
}
layer {
  name: "conv4_2/expand/bn"
  type: "BatchNorm"
  bottom: "conv4_2/expand"
  top: "conv4_2/expand"
  batch_norm_param {
    use_global_stats: true
    eps: 1e-05
  }
}
layer {
  name: "conv4_2/expand/scale"
  type: "Scale"
  bottom: "conv4_2/expand"
  top: "conv4_2/expand"
  param {
    lr_mult: 1
    decay_mult: 0
  }
  param {
    lr_mult: 1
    decay_mult: 0
  }
  scale_param {
    bias_term: true
  }
}
layer {
  name: "relu4_2/expand"
  type: "ReLU"
  bottom: "conv4_2/expand"
  top: "conv4_2/expand"
}
layer {
  name: "conv4_2/dwise"
  type: "DepthwiseConvolution"
  bottom: "conv4_2/expand"
  top: "conv4_2/dwise"
  param {
    lr_mult: 1
    decay_mult: 1
  }
  convolution_param {
    num_output: 192
    bias_term: false
    pad: 1
    kernel_size: 3
    group: 192
    stride: 1
    weight_filler {
      type: "msra"
    }
  }
}
layer {
  name: "conv4_2/dwise/bn"
  type: "BatchNorm"
  bottom: "conv4_2/dwise"
  top: "conv4_2/dwise"
  batch_norm_param {
    use_global_stats: true
    eps: 1e-05
  }
}
layer {
  name: "conv4_2/dwise/scale"
  type: "Scale"
  bottom: "conv4_2/dwise"
  top: "conv4_2/dwise"
  param {
    lr_mult: 1
    decay_mult: 0
  }
  param {
    lr_mult: 1
    decay_mult: 0
  }
  scale_param {
    bias_term: true
  }
}
layer {
  name: "relu4_2/dwise"
  type: "ReLU"
  bottom: "conv4_2/dwise"
  top: "conv4_2/dwise"
}
layer {
  name: "conv4_2/linear"
  type: "Convolution"
  bottom: "conv4_2/dwise"
  top: "conv4_2/linear"
  param {
    lr_mult: 1
    decay_mult: 1
  }
  convolution_param {
    num_output: 32
    bias_term: false
    kernel_size: 1
    weight_filler {
      type: "msra"
    }
  }
}
layer {
  name: "conv4_2/linear/bn"
  type: "BatchNorm"
  bottom: "conv4_2/linear"
  top: "conv4_2/linear"
  batch_norm_param {
    use_global_stats: true
    eps: 1e-05
  }
}
layer {
  name: "conv4_2/linear/scale"
  type: "Scale"
  bottom: "conv4_2/linear"
  top: "conv4_2/linear"
  param {
    lr_mult: 1
    decay_mult: 0
  }
  param {
    lr_mult: 1
    decay_mult: 0
  }
  scale_param {
    bias_term: true
  }
}
layer {
  name: "block_4_2"
  type: "Eltwise"
  bottom: "block_4_1"
  bottom: "conv4_2/linear"
  top: "block_4_2"
}
layer {
  name: "conv4_3/expand"
  type: "Convolution"
  bottom: "block_4_2"
  top: "conv4_3/expand"
  param {
    lr_mult: 1
    decay_mult: 1
  }
  convolution_param {
    num_output: 192
    bias_term: false
    kernel_size: 1
    weight_filler {
      type: "msra"
    }
  }
}
layer {
  name: "conv4_3/expand/bn"
  type: "BatchNorm"
  bottom: "conv4_3/expand"
  top: "conv4_3/expand"
  batch_norm_param {
    use_global_stats: true
    eps: 1e-05
  }
}
layer {
  name: "conv4_3/expand/scale"
  type: "Scale"
  bottom: "conv4_3/expand"
  top: "conv4_3/expand"
  param {
    lr_mult: 1
    decay_mult: 0
  }
  param {
    lr_mult: 1
    decay_mult: 0
  }
  scale_param {
    bias_term: true
  }
}
layer {
  name: "relu4_3/expand"
  type: "ReLU"
  bottom: "conv4_3/expand"
  top: "conv4_3/expand"
}
layer {
  name: "conv4_3/dwise"
  type: "DepthwiseConvolution"
  bottom: "conv4_3/expand"
  top: "conv4_3/dwise"
  param {
    lr_mult: 1
    decay_mult: 1
  }
  convolution_param {
    num_output: 192
    bias_term: false
    pad: 1
    kernel_size: 3
    group: 192
    stride: 1
    weight_filler {
      type: "msra"
    }
  }
}
layer {
  name: "conv4_3/dwise/bn"
  type: "BatchNorm"
  bottom: "conv4_3/dwise"
  top: "conv4_3/dwise"
  batch_norm_param {
    use_global_stats: true
    eps: 1e-05
  }
}
layer {
  name: "conv4_3/dwise/scale"
  type: "Scale"
  bottom: "conv4_3/dwise"
  top: "conv4_3/dwise"
  param {
    lr_mult: 1
    decay_mult: 0
  }
  param {
    lr_mult: 1
    decay_mult: 0
  }
  scale_param {
    bias_term: true
  }
}
layer {
  name: "relu4_3/dwise"
  type: "ReLU"
  bottom: "conv4_3/dwise"
  top: "conv4_3/dwise"
}
layer {
  name: "conv4_3/linear"
  type: "Convolution"
  bottom: "conv4_3/dwise"
  top: "conv4_3/linear"
  param {
    lr_mult: 1
    decay_mult: 1
  }
  convolution_param {
    num_output: 64
    bias_term: false
    kernel_size: 1
    weight_filler {
      type: "msra"
    }
  }
}
layer {
  name: "conv4_3/linear/bn"
  type: "BatchNorm"
  bottom: "conv4_3/linear"
  top: "conv4_3/linear"
  batch_norm_param {
    use_global_stats: true
    eps: 1e-05
  }
}
layer {
  name: "conv4_3/linear/scale"
  type: "Scale"
  bottom: "conv4_3/linear"
  top: "conv4_3/linear"
  param {
    lr_mult: 1
    decay_mult: 0
  }
  param {
    lr_mult: 1
    decay_mult: 0
  }
  scale_param {
    bias_term: true
  }
}
layer {
  name: "conv4_4/expand"
  type: "Convolution"
  bottom: "conv4_3/linear"
  top: "conv4_4/expand"
  param {
    lr_mult: 1
    decay_mult: 1
  }
  convolution_param {
    num_output: 384
    bias_term: false
    kernel_size: 1
    weight_filler {
      type: "msra"
    }
  }
}
layer {
  name: "conv4_4/expand/bn"
  type: "BatchNorm"
  bottom: "conv4_4/expand"
  top: "conv4_4/expand"
  batch_norm_param {
    use_global_stats: true
    eps: 1e-05
  }
}
layer {
  name: "conv4_4/expand/scale"
  type: "Scale"
  bottom: "conv4_4/expand"
  top: "conv4_4/expand"
  param {
    lr_mult: 1
    decay_mult: 0
  }
  param {
    lr_mult: 1
    decay_mult: 0
  }
  scale_param {
    bias_term: true
  }
}
layer {
  name: "relu4_4/expand"
  type: "ReLU"
  bottom: "conv4_4/expand"
  top: "conv4_4/expand"
}
layer {
  name: "conv4_4/dwise"
  type: "DepthwiseConvolution"
  bottom: "conv4_4/expand"
  top: "conv4_4/dwise"
  param {
    lr_mult: 1
    decay_mult: 1
  }
  convolution_param {
    num_output: 384
    bias_term: false
    pad: 1
    kernel_size: 3
    group: 384
    stride: 1
    weight_filler {
      type: "msra"
    }
  }
}
layer {
  name: "conv4_4/dwise/bn"
  type: "BatchNorm"
  bottom: "conv4_4/dwise"
  top: "conv4_4/dwise"
  batch_norm_param {
    use_global_stats: true
    eps: 1e-05
  }
}
layer {
  name: "conv4_4/dwise/scale"
  type: "Scale"
  bottom: "conv4_4/dwise"
  top: "conv4_4/dwise"
  param {
    lr_mult: 1
    decay_mult: 0
  }
  param {
    lr_mult: 1
    decay_mult: 0
  }
  scale_param {
    bias_term: true
  }
}
layer {
  name: "relu4_4/dwise"
  type: "ReLU"
  bottom: "conv4_4/dwise"
  top: "conv4_4/dwise"
}
layer {
  name: "conv4_4/linear"
  type: "Convolution"
  bottom: "conv4_4/dwise"
  top: "conv4_4/linear"
  param {
    lr_mult: 1
    decay_mult: 1
  }
  convolution_param {
    num_output: 64
    bias_term: false
    kernel_size: 1
    weight_filler {
      type: "msra"
    }
  }
}
layer {
  name: "conv4_4/linear/bn"
  type: "BatchNorm"
  bottom: "conv4_4/linear"
  top: "conv4_4/linear"
  batch_norm_param {
    use_global_stats: true
    eps: 1e-05
  }
}
layer {
  name: "conv4_4/linear/scale"
  type: "Scale"
  bottom: "conv4_4/linear"
  top: "conv4_4/linear"
  param {
    lr_mult: 1
    decay_mult: 0
  }
  param {
    lr_mult: 1
    decay_mult: 0
  }
  scale_param {
    bias_term: true
  }
}
layer {
  name: "block_4_4"
  type: "Eltwise"
  bottom: "conv4_3/linear"
  bottom: "conv4_4/linear"
  top: "block_4_4"
}
layer {
  name: "conv4_5/expand"
  type: "Convolution"
  bottom: "block_4_4"
  top: "conv4_5/expand"
  param {
    lr_mult: 1
    decay_mult: 1
  }
  convolution_param {
    num_output: 384
    bias_term: false
    kernel_size: 1
    weight_filler {
      type: "msra"
    }
  }
}
layer {
  name: "conv4_5/expand/bn"
  type: "BatchNorm"
  bottom: "conv4_5/expand"
  top: "conv4_5/expand"
  batch_norm_param {
    use_global_stats: true
    eps: 1e-05
  }
}
layer {
  name: "conv4_5/expand/scale"
  type: "Scale"
  bottom: "conv4_5/expand"
  top: "conv4_5/expand"
  param {
    lr_mult: 1
    decay_mult: 0
  }
  param {
    lr_mult: 1
    decay_mult: 0
  }
  scale_param {
    bias_term: true
  }
}
layer {
  name: "relu4_5/expand"
  type: "ReLU"
  bottom: "conv4_5/expand"
  top: "conv4_5/expand"
}
layer {
  name: "conv4_5/dwise"
  type: "DepthwiseConvolution"
  bottom: "conv4_5/expand"
  top: "conv4_5/dwise"
  param {
    lr_mult: 1
    decay_mult: 1
  }
  convolution_param {
    num_output: 384
    bias_term: false
    pad: 1
    kernel_size: 3
    group: 384
    stride: 1
    weight_filler {
      type: "msra"
    }
  }
}
layer {
  name: "conv4_5/dwise/bn"
  type: "BatchNorm"
  bottom: "conv4_5/dwise"
  top: "conv4_5/dwise"
  batch_norm_param {
    use_global_stats: true
    eps: 1e-05
  }
}
layer {
  name: "conv4_5/dwise/scale"
  type: "Scale"
  bottom: "conv4_5/dwise"
  top: "conv4_5/dwise"
  param {
    lr_mult: 1
    decay_mult: 0
  }
  param {
    lr_mult: 1
    decay_mult: 0
  }
  scale_param {
    bias_term: true
  }
}
layer {
  name: "relu4_5/dwise"
  type: "ReLU"
  bottom: "conv4_5/dwise"
  top: "conv4_5/dwise"
}
layer {
  name: "conv4_5/linear"
  type: "Convolution"
  bottom: "conv4_5/dwise"
  top: "conv4_5/linear"
  param {
    lr_mult: 1
    decay_mult: 1
  }
  convolution_param {
    num_output: 64
    bias_term: false
    kernel_size: 1
    weight_filler {
      type: "msra"
    }
  }
}
layer {
  name: "conv4_5/linear/bn"
  type: "BatchNorm"
  bottom: "conv4_5/linear"
  top: "conv4_5/linear"
  batch_norm_param {
    use_global_stats: true
    eps: 1e-05
  }
}
layer {
  name: "conv4_5/linear/scale"
  type: "Scale"
  bottom: "conv4_5/linear"
  top: "conv4_5/linear"
  param {
    lr_mult: 1
    decay_mult: 0
  }
  param {
    lr_mult: 1
    decay_mult: 0
  }
  scale_param {
    bias_term: true
  }
}
layer {
  name: "block_4_5"
  type: "Eltwise"
  bottom: "block_4_4"
  bottom: "conv4_5/linear"
  top: "block_4_5"
}
layer {
  name: "conv4_6/expand"
  type: "Convolution"
  bottom: "block_4_5"
  top: "conv4_6/expand"
  param {
    lr_mult: 1
    decay_mult: 1
  }
  convolution_param {
    num_output: 384
    bias_term: false
    kernel_size: 1
    weight_filler {
      type: "msra"
    }
  }
}
layer {
  name: "conv4_6/expand/bn"
  type: "BatchNorm"
  bottom: "conv4_6/expand"
  top: "conv4_6/expand"
  batch_norm_param {
    use_global_stats: true
    eps: 1e-05
  }
}
layer {
  name: "conv4_6/expand/scale"
  type: "Scale"
  bottom: "conv4_6/expand"
  top: "conv4_6/expand"
  param {
    lr_mult: 1
    decay_mult: 0
  }
  param {
    lr_mult: 1
    decay_mult: 0
  }
  scale_param {
    bias_term: true
  }
}
layer {
  name: "relu4_6/expand"
  type: "ReLU"
  bottom: "conv4_6/expand"
  top: "conv4_6/expand"
}
layer {
  name: "conv4_6/dwise"
  type: "DepthwiseConvolution"
  bottom: "conv4_6/expand"
  top: "conv4_6/dwise"
  param {
    lr_mult: 1
    decay_mult: 1
  }
  convolution_param {
    num_output: 384
    bias_term: false
    pad: 1
    kernel_size: 3
    group: 384
    stride: 1
    weight_filler {
      type: "msra"
    }
  }
}
layer {
  name: "conv4_6/dwise/bn"
  type: "BatchNorm"
  bottom: "conv4_6/dwise"
  top: "conv4_6/dwise"
  batch_norm_param {
    use_global_stats: true
    eps: 1e-05
  }
}
layer {
  name: "conv4_6/dwise/scale"
  type: "Scale"
  bottom: "conv4_6/dwise"
  top: "conv4_6/dwise"
  param {
    lr_mult: 1
    decay_mult: 0
  }
  param {
    lr_mult: 1
    decay_mult: 0
  }
  scale_param {
    bias_term: true
  }
}
layer {
  name: "relu4_6/dwise"
  type: "ReLU"
  bottom: "conv4_6/dwise"
  top: "conv4_6/dwise"
}
layer {
  name: "conv4_6/linear"
  type: "Convolution"
  bottom: "conv4_6/dwise"
  top: "conv4_6/linear"
  param {
    lr_mult: 1
    decay_mult: 1
  }
  convolution_param {
    num_output: 64
    bias_term: false
    kernel_size: 1
    weight_filler {
      type: "msra"
    }
  }
}
layer {
  name: "conv4_6/linear/bn"
  type: "BatchNorm"
  bottom: "conv4_6/linear"
  top: "conv4_6/linear"
  batch_norm_param {
    use_global_stats: true
    eps: 1e-05
  }
}
layer {
  name: "conv4_6/linear/scale"
  type: "Scale"
  bottom: "conv4_6/linear"
  top: "conv4_6/linear"
  param {
    lr_mult: 1
    decay_mult: 0
  }
  param {
    lr_mult: 1
    decay_mult: 0
  }
  scale_param {
    bias_term: true
  }
}
layer {
  name: "block_4_6"
  type: "Eltwise"
  bottom: "block_4_5"
  bottom: "conv4_6/linear"
  top: "block_4_6"
}
layer {
  name: "conv4_7/expand"
  type: "Convolution"
  bottom: "block_4_6"
  top: "conv4_7/expand"
  param {
    lr_mult: 1
    decay_mult: 1
  }
  convolution_param {
    num_output: 384
    bias_term: false
    kernel_size: 1
    weight_filler {
      type: "msra"
    }
  }
}
layer {
  name: "conv4_7/expand/bn"
  type: "BatchNorm"
  bottom: "conv4_7/expand"
  top: "conv4_7/expand"
  batch_norm_param {
    use_global_stats: true
    eps: 1e-05
  }
}
layer {
  name: "conv4_7/expand/scale"
  type: "Scale"
  bottom: "conv4_7/expand"
  top: "conv4_7/expand"
  param {
    lr_mult: 1
    decay_mult: 0
  }
  param {
    lr_mult: 1
    decay_mult: 0
  }
  scale_param {
    bias_term: true
  }
}
layer {
  name: "relu4_7/expand"
  type: "ReLU"
  bottom: "conv4_7/expand"
  top: "conv4_7/expand"
}
layer {
  name: "conv4_7/dwise"
  type: "DepthwiseConvolution"
  bottom: "conv4_7/expand"
  top: "conv4_7/dwise"
  param {
    lr_mult: 1
    decay_mult: 1
  }
  convolution_param {
    num_output: 384
    bias_term: false
    pad: 1
    kernel_size: 3
    group: 384
    stride: 2
    weight_filler {
      type: "msra"
    }
  }
}
layer {
  name: "conv4_7/dwise/bn"
  type: "BatchNorm"
  bottom: "conv4_7/dwise"
  top: "conv4_7/dwise"
  batch_norm_param {
    use_global_stats: true
    eps: 1e-05
  }
}
layer {
  name: "conv4_7/dwise/scale"
  type: "Scale"
  bottom: "conv4_7/dwise"
  top: "conv4_7/dwise"
  param {
    lr_mult: 1
    decay_mult: 0
  }
  param {
    lr_mult: 1
    decay_mult: 0
  }
  scale_param {
    bias_term: true
  }
}
layer {
  name: "relu4_7/dwise"
  type: "ReLU"
  bottom: "conv4_7/dwise"
  top: "conv4_7/dwise"
}
layer {
  name: "conv4_7/linear"
  type: "Convolution"
  bottom: "conv4_7/dwise"
  top: "conv4_7/linear"
  param {
    lr_mult: 1
    decay_mult: 1
  }
  convolution_param {
    num_output: 96
    bias_term: false
    kernel_size: 1
    weight_filler {
      type: "msra"
    }
  }
}
layer {
  name: "conv4_7/linear/bn"
  type: "BatchNorm"
  bottom: "conv4_7/linear"
  top: "conv4_7/linear"
  batch_norm_param {
    use_global_stats: true
    eps: 1e-05
  }
}
layer {
  name: "conv4_7/linear/scale"
  type: "Scale"
  bottom: "conv4_7/linear"
  top: "conv4_7/linear"
  param {
    lr_mult: 1
    de
I1001 23:59:13.781468 32484 layer_factory.hpp:77] Creating layer data
I1001 23:59:13.781563 32484 net.cpp:100] Creating Layer data
I1001 23:59:13.781572 32484 net.cpp:408] data -> data
I1001 23:59:13.781594 32484 net.cpp:408] data -> label
I1001 23:59:13.782099 32492 db_lmdb.cpp:35] Opened lmdb examples/GTSDB/GTSDB_trainval_lmdb
I1001 23:59:13.795073 32484 annotated_data_layer.cpp:62] output data size: 2,3,300,510
I1001 23:59:13.799419 32484 net.cpp:150] Setting up data
I1001 23:59:13.799434 32484 net.cpp:157] Top shape: 2 3 300 510 (918000)
I1001 23:59:13.799437 32484 net.cpp:157] Top shape: 1 1 3 8 (24)
I1001 23:59:13.799439 32484 net.cpp:165] Memory required for data: 3672096
I1001 23:59:13.799446 32484 layer_factory.hpp:77] Creating layer data_data_0_split
I1001 23:59:13.799454 32484 net.cpp:100] Creating Layer data_data_0_split
I1001 23:59:13.799458 32484 net.cpp:434] data_data_0_split <- data
I1001 23:59:13.799468 32484 net.cpp:408] data_data_0_split -> data_data_0_split_0
I1001 23:59:13.799475 32484 net.cpp:408] data_data_0_split -> data_data_0_split_1
I1001 23:59:13.799480 32484 net.cpp:408] data_data_0_split -> data_data_0_split_2
I1001 23:59:13.799484 32484 net.cpp:408] data_data_0_split -> data_data_0_split_3
I1001 23:59:13.799489 32484 net.cpp:408] data_data_0_split -> data_data_0_split_4
I1001 23:59:13.799492 32484 net.cpp:408] data_data_0_split -> data_data_0_split_5
I1001 23:59:13.799496 32484 net.cpp:408] data_data_0_split -> data_data_0_split_6
I1001 23:59:13.799562 32484 net.cpp:150] Setting up data_data_0_split
I1001 23:59:13.799567 32484 net.cpp:157] Top shape: 2 3 300 510 (918000)
I1001 23:59:13.799571 32484 net.cpp:157] Top shape: 2 3 300 510 (918000)
I1001 23:59:13.799573 32484 net.cpp:157] Top shape: 2 3 300 510 (918000)
I1001 23:59:13.799576 32484 net.cpp:157] Top shape: 2 3 300 510 (918000)
I1001 23:59:13.799577 32484 net.cpp:157] Top shape: 2 3 300 510 (918000)
I1001 23:59:13.799580 32484 net.cpp:157] Top shape: 2 3 300 510 (918000)
I1001 23:59:13.799582 32484 net.cpp:157] Top shape: 2 3 300 510 (918000)
I1001 23:59:13.799584 32484 net.cpp:165] Memory required for data: 29376096
I1001 23:59:13.799585 32484 layer_factory.hpp:77] Creating layer conv1
I1001 23:59:13.799599 32484 net.cpp:100] Creating Layer conv1
I1001 23:59:13.799602 32484 net.cpp:434] conv1 <- data_data_0_split_0
I1001 23:59:13.799605 32484 net.cpp:408] conv1 -> conv1
I1001 23:59:14.154337 32484 net.cpp:150] Setting up conv1
I1001 23:59:14.154356 32484 net.cpp:157] Top shape: 2 32 150 255 (2448000)
I1001 23:59:14.154359 32484 net.cpp:165] Memory required for data: 39168096
I1001 23:59:14.154374 32484 layer_factory.hpp:77] Creating layer conv1/bn
I1001 23:59:14.154383 32484 net.cpp:100] Creating Layer conv1/bn
I1001 23:59:14.154387 32484 net.cpp:434] conv1/bn <- conv1
I1001 23:59:14.154392 32484 net.cpp:395] conv1/bn -> conv1 (in-place)
I1001 23:59:14.155170 32484 net.cpp:150] Setting up conv1/bn
I1001 23:59:14.155180 32484 net.cpp:157] Top shape: 2 32 150 255 (2448000)
I1001 23:59:14.155184 32484 net.cpp:165] Memory required for data: 48960096
I1001 23:59:14.155195 32484 layer_factory.hpp:77] Creating layer conv1/scale
I1001 23:59:14.155203 32484 net.cpp:100] Creating Layer conv1/scale
I1001 23:59:14.155206 32484 net.cpp:434] conv1/scale <- conv1
I1001 23:59:14.155211 32484 net.cpp:395] conv1/scale -> conv1 (in-place)
I1001 23:59:14.155262 32484 layer_factory.hpp:77] Creating layer conv1/scale
I1001 23:59:14.155383 32484 net.cpp:150] Setting up conv1/scale
I1001 23:59:14.155390 32484 net.cpp:157] Top shape: 2 32 150 255 (2448000)
I1001 23:59:14.155393 32484 net.cpp:165] Memory required for data: 58752096
I1001 23:59:14.155400 32484 layer_factory.hpp:77] Creating layer relu1
I1001 23:59:14.155405 32484 net.cpp:100] Creating Layer relu1
I1001 23:59:14.155407 32484 net.cpp:434] relu1 <- conv1
I1001 23:59:14.155411 32484 net.cpp:395] relu1 -> conv1 (in-place)
I1001 23:59:14.155740 32484 net.cpp:150] Setting up relu1
I1001 23:59:14.155745 32484 net.cpp:157] Top shape: 2 32 150 255 (2448000)
I1001 23:59:14.155748 32484 net.cpp:165] Memory required for data: 68544096
I1001 23:59:14.155751 32484 layer_factory.hpp:77] Creating layer conv2_1/expand
I1001 23:59:14.155758 32484 net.cpp:100] Creating Layer conv2_1/expand
I1001 23:59:14.155761 32484 net.cpp:434] conv2_1/expand <- conv1
I1001 23:59:14.155766 32484 net.cpp:408] conv2_1/expand -> conv2_1/expand
I1001 23:59:14.157236 32484 net.cpp:150] Setting up conv2_1/expand
I1001 23:59:14.157245 32484 net.cpp:157] Top shape: 2 32 150 255 (2448000)
I1001 23:59:14.157249 32484 net.cpp:165] Memory required for data: 78336096
I1001 23:59:14.157254 32484 layer_factory.hpp:77] Creating layer conv2_1/expand/bn
I1001 23:59:14.157261 32484 net.cpp:100] Creating Layer conv2_1/expand/bn
I1001 23:59:14.157265 32484 net.cpp:434] conv2_1/expand/bn <- conv2_1/expand
I1001 23:59:14.157269 32484 net.cpp:395] conv2_1/expand/bn -> conv2_1/expand (in-place)
I1001 23:59:14.157441 32484 net.cpp:150] Setting up conv2_1/expand/bn
I1001 23:59:14.157447 32484 net.cpp:157] Top shape: 2 32 150 255 (2448000)
I1001 23:59:14.157450 32484 net.cpp:165] Memory required for data: 88128096
I1001 23:59:14.157459 32484 layer_factory.hpp:77] Creating layer conv2_1/expand/scale
I1001 23:59:14.157466 32484 net.cpp:100] Creating Layer conv2_1/expand/scale
I1001 23:59:14.157469 32484 net.cpp:434] conv2_1/expand/scale <- conv2_1/expand
I1001 23:59:14.157474 32484 net.cpp:395] conv2_1/expand/scale -> conv2_1/expand (in-place)
I1001 23:59:14.157505 32484 layer_factory.hpp:77] Creating layer conv2_1/expand/scale
I1001 23:59:14.158198 32484 net.cpp:150] Setting up conv2_1/expand/scale
I1001 23:59:14.158205 32484 net.cpp:157] Top shape: 2 32 150 255 (2448000)
I1001 23:59:14.158207 32484 net.cpp:165] Memory required for data: 97920096
I1001 23:59:14.158212 32484 layer_factory.hpp:77] Creating layer relu2_1/expand
I1001 23:59:14.158217 32484 net.cpp:100] Creating Layer relu2_1/expand
I1001 23:59:14.158221 32484 net.cpp:434] relu2_1/expand <- conv2_1/expand
I1001 23:59:14.158223 32484 net.cpp:395] relu2_1/expand -> conv2_1/expand (in-place)
I1001 23:59:14.158573 32484 net.cpp:150] Setting up relu2_1/expand
I1001 23:59:14.158579 32484 net.cpp:157] Top shape: 2 32 150 255 (2448000)
I1001 23:59:14.158582 32484 net.cpp:165] Memory required for data: 107712096
I1001 23:59:14.158586 32484 layer_factory.hpp:77] Creating layer conv2_1/dwise
I1001 23:59:14.158591 32484 net.cpp:100] Creating Layer conv2_1/dwise
I1001 23:59:14.158594 32484 net.cpp:434] conv2_1/dwise <- conv2_1/expand
I1001 23:59:14.158599 32484 net.cpp:408] conv2_1/dwise -> conv2_1/dwise
I1001 23:59:14.158759 32484 net.cpp:150] Setting up conv2_1/dwise
I1001 23:59:14.158766 32484 net.cpp:157] Top shape: 2 32 150 255 (2448000)
I1001 23:59:14.158767 32484 net.cpp:165] Memory required for data: 117504096
I1001 23:59:14.158771 32484 layer_factory.hpp:77] Creating layer conv2_1/dwise/bn
I1001 23:59:14.158777 32484 net.cpp:100] Creating Layer conv2_1/dwise/bn
I1001 23:59:14.158779 32484 net.cpp:434] conv2_1/dwise/bn <- conv2_1/dwise
I1001 23:59:14.158783 32484 net.cpp:395] conv2_1/dwise/bn -> conv2_1/dwise (in-place)
I1001 23:59:14.158951 32484 net.cpp:150] Setting up conv2_1/dwise/bn
I1001 23:59:14.158957 32484 net.cpp:157] Top shape: 2 32 150 255 (2448000)
I1001 23:59:14.158958 32484 net.cpp:165] Memory required for data: 127296096
I1001 23:59:14.158964 32484 layer_factory.hpp:77] Creating layer conv2_1/dwise/scale
I1001 23:59:14.158969 32484 net.cpp:100] Creating Layer conv2_1/dwise/scale
I1001 23:59:14.158972 32484 net.cpp:434] conv2_1/dwise/scale <- conv2_1/dwise
I1001 23:59:14.158975 32484 net.cpp:395] conv2_1/dwise/scale -> conv2_1/dwise (in-place)
I1001 23:59:14.159006 32484 layer_factory.hpp:77] Creating layer conv2_1/dwise/scale
I1001 23:59:14.159123 32484 net.cpp:150] Setting up conv2_1/dwise/scale
I1001 23:59:14.159130 32484 net.cpp:157] Top shape: 2 32 150 255 (2448000)
I1001 23:59:14.159132 32484 net.cpp:165] Memory required for data: 137088096
I1001 23:59:14.159138 32484 layer_factory.hpp:77] Creating layer relu2_1/dwise
I1001 23:59:14.159143 32484 net.cpp:100] Creating Layer relu2_1/dwise
I1001 23:59:14.159147 32484 net.cpp:434] relu2_1/dwise <- conv2_1/dwise
I1001 23:59:14.159150 32484 net.cpp:395] relu2_1/dwise -> conv2_1/dwise (in-place)
I1001 23:59:14.159513 32484 net.cpp:150] Setting up relu2_1/dwise
I1001 23:59:14.159521 32484 net.cpp:157] Top shape: 2 32 150 255 (2448000)
I1001 23:59:14.159524 32484 net.cpp:165] Memory required for data: 146880096
I1001 23:59:14.159528 32484 layer_factory.hpp:77] Creating layer conv2_1/linear
I1001 23:59:14.159533 32484 net.cpp:100] Creating Layer conv2_1/linear
I1001 23:59:14.159536 32484 net.cpp:434] conv2_1/linear <- conv2_1/dwise
I1001 23:59:14.159540 32484 net.cpp:408] conv2_1/linear -> conv2_1/linear
I1001 23:59:14.161042 32484 net.cpp:150] Setting up conv2_1/linear
I1001 23:59:14.161051 32484 net.cpp:157] Top shape: 2 16 150 255 (1224000)
I1001 23:59:14.161054 32484 net.cpp:165] Memory required for data: 151776096
I1001 23:59:14.161058 32484 layer_factory.hpp:77] Creating layer conv2_1/linear/bn
I1001 23:59:14.161064 32484 net.cpp:100] Creating Layer conv2_1/linear/bn
I1001 23:59:14.161067 32484 net.cpp:434] conv2_1/linear/bn <- conv2_1/linear
I1001 23:59:14.161072 32484 net.cpp:395] conv2_1/linear/bn -> conv2_1/linear (in-place)
I1001 23:59:14.161247 32484 net.cpp:150] Setting up conv2_1/linear/bn
I1001 23:59:14.161252 32484 net.cpp:157] Top shape: 2 16 150 255 (1224000)
I1001 23:59:14.161254 32484 net.cpp:165] Memory required for data: 156672096
I1001 23:59:14.161270 32484 layer_factory.hpp:77] Creating layer conv2_1/linear/scale
I1001 23:59:14.161278 32484 net.cpp:100] Creating Layer conv2_1/linear/scale
I1001 23:59:14.161281 32484 net.cpp:434] conv2_1/linear/scale <- conv2_1/linear
I1001 23:59:14.161284 32484 net.cpp:395] conv2_1/linear/scale -> conv2_1/linear (in-place)
I1001 23:59:14.161319 32484 layer_factory.hpp:77] Creating layer conv2_1/linear/scale
I1001 23:59:14.161434 32484 net.cpp:150] Setting up conv2_1/linear/scale
I1001 23:59:14.161440 32484 net.cpp:157] Top shape: 2 16 150 255 (1224000)
I1001 23:59:14.161442 32484 net.cpp:165] Memory required for data: 161568096
I1001 23:59:14.161448 32484 layer_factory.hpp:77] Creating layer conv2_2/expand
I1001 23:59:14.161453 32484 net.cpp:100] Creating Layer conv2_2/expand
I1001 23:59:14.161456 32484 net.cpp:434] conv2_2/expand <- conv2_1/linear
I1001 23:59:14.161460 32484 net.cpp:408] conv2_2/expand -> conv2_2/expand
I1001 23:59:14.163600 32484 net.cpp:150] Setting up conv2_2/expand
I1001 23:59:14.163619 32484 net.cpp:157] Top shape: 2 96 150 255 (7344000)
I1001 23:59:14.163621 32484 net.cpp:165] Memory required for data: 190944096
I1001 23:59:14.163628 32484 layer_factory.hpp:77] Creating layer conv2_2/expand/bn
I1001 23:59:14.163636 32484 net.cpp:100] Creating Layer conv2_2/expand/bn
I1001 23:59:14.163640 32484 net.cpp:434] conv2_2/expand/bn <- conv2_2/expand
I1001 23:59:14.163645 32484 net.cpp:395] conv2_2/expand/bn -> conv2_2/expand (in-place)
I1001 23:59:14.163835 32484 net.cpp:150] Setting up conv2_2/expand/bn
I1001 23:59:14.163839 32484 net.cpp:157] Top shape: 2 96 150 255 (7344000)
I1001 23:59:14.163841 32484 net.cpp:165] Memory required for data: 220320096
I1001 23:59:14.163847 32484 layer_factory.hpp:77] Creating layer conv2_2/expand/scale
I1001 23:59:14.163853 32484 net.cpp:100] Creating Layer conv2_2/expand/scale
I1001 23:59:14.163856 32484 net.cpp:434] conv2_2/expand/scale <- conv2_2/expand
I1001 23:59:14.163861 32484 net.cpp:395] conv2_2/expand/scale -> conv2_2/expand (in-place)
I1001 23:59:14.163894 32484 layer_factory.hpp:77] Creating layer conv2_2/expand/scale
I1001 23:59:14.164600 32484 net.cpp:150] Setting up conv2_2/expand/scale
I1001 23:59:14.164608 32484 net.cpp:157] Top shape: 2 96 150 255 (7344000)
I1001 23:59:14.164610 32484 net.cpp:165] Memory required for data: 249696096
I1001 23:59:14.164615 32484 layer_factory.hpp:77] Creating layer relu2_2/expand
I1001 23:59:14.164621 32484 net.cpp:100] Creating Layer relu2_2/expand
I1001 23:59:14.164624 32484 net.cpp:434] relu2_2/expand <- conv2_2/expand
I1001 23:59:14.164628 32484 net.cpp:395] relu2_2/expand -> conv2_2/expand (in-place)
I1001 23:59:14.164912 32484 net.cpp:150] Setting up relu2_2/expand
I1001 23:59:14.164918 32484 net.cpp:157] Top shape: 2 96 150 255 (7344000)
I1001 23:59:14.164921 32484 net.cpp:165] Memory required for data: 279072096
I1001 23:59:14.164923 32484 layer_factory.hpp:77] Creating layer conv2_2/dwise
I1001 23:59:14.164928 32484 net.cpp:100] Creating Layer conv2_2/dwise
I1001 23:59:14.164929 32484 net.cpp:434] conv2_2/dwise <- conv2_2/expand
I1001 23:59:14.164933 32484 net.cpp:408] conv2_2/dwise -> conv2_2/dwise
I1001 23:59:14.165073 32484 net.cpp:150] Setting up conv2_2/dwise
I1001 23:59:14.165078 32484 net.cpp:157] Top shape: 2 96 75 128 (1843200)
I1001 23:59:14.165081 32484 net.cpp:165] Memory required for data: 286444896
I1001 23:59:14.165083 32484 layer_factory.hpp:77] Creating layer conv2_2/dwise/bn
I1001 23:59:14.165087 32484 net.cpp:100] Creating Layer conv2_2/dwise/bn
I1001 23:59:14.165089 32484 net.cpp:434] conv2_2/dwise/bn <- conv2_2/dwise
I1001 23:59:14.165092 32484 net.cpp:395] conv2_2/dwise/bn -> conv2_2/dwise (in-place)
I1001 23:59:14.165735 32484 net.cpp:150] Setting up conv2_2/dwise/bn
I1001 23:59:14.165745 32484 net.cpp:157] Top shape: 2 96 75 128 (1843200)
I1001 23:59:14.165748 32484 net.cpp:165] Memory required for data: 293817696
I1001 23:59:14.165760 32484 layer_factory.hpp:77] Creating layer conv2_2/dwise/scale
I1001 23:59:14.165768 32484 net.cpp:100] Creating Layer conv2_2/dwise/scale
I1001 23:59:14.165771 32484 net.cpp:434] conv2_2/dwise/scale <- conv2_2/dwise
I1001 23:59:14.165787 32484 net.cpp:395] conv2_2/dwise/scale -> conv2_2/dwise (in-place)
I1001 23:59:14.165825 32484 layer_factory.hpp:77] Creating layer conv2_2/dwise/scale
I1001 23:59:14.165904 32484 net.cpp:150] Setting up conv2_2/dwise/scale
I1001 23:59:14.165908 32484 net.cpp:157] Top shape: 2 96 75 128 (1843200)
I1001 23:59:14.165910 32484 net.cpp:165] Memory required for data: 301190496
I1001 23:59:14.165913 32484 layer_factory.hpp:77] Creating layer relu2_2/dwise
I1001 23:59:14.165917 32484 net.cpp:100] Creating Layer relu2_2/dwise
I1001 23:59:14.165920 32484 net.cpp:434] relu2_2/dwise <- conv2_2/dwise
I1001 23:59:14.165922 32484 net.cpp:395] relu2_2/dwise -> conv2_2/dwise (in-place)
I1001 23:59:14.166368 32484 net.cpp:150] Setting up relu2_2/dwise
I1001 23:59:14.166378 32484 net.cpp:157] Top shape: 2 96 75 128 (1843200)
I1001 23:59:14.166379 32484 net.cpp:165] Memory required for data: 308563296
I1001 23:59:14.166381 32484 layer_factory.hpp:77] Creating layer conv2_2/linear
I1001 23:59:14.166389 32484 net.cpp:100] Creating Layer conv2_2/linear
I1001 23:59:14.166393 32484 net.cpp:434] conv2_2/linear <- conv2_2/dwise
I1001 23:59:14.166398 32484 net.cpp:408] conv2_2/linear -> conv2_2/linear
I1001 23:59:14.167649 32484 net.cpp:150] Setting up conv2_2/linear
I1001 23:59:14.167662 32484 net.cpp:157] Top shape: 2 24 75 128 (460800)
I1001 23:59:14.167667 32484 net.cpp:165] Memory required for data: 310406496
I1001 23:59:14.167675 32484 layer_factory.hpp:77] Creating layer conv2_2/linear/bn
I1001 23:59:14.167688 32484 net.cpp:100] Creating Layer conv2_2/linear/bn
I1001 23:59:14.167692 32484 net.cpp:434] conv2_2/linear/bn <- conv2_2/linear
I1001 23:59:14.167701 32484 net.cpp:395] conv2_2/linear/bn -> conv2_2/linear (in-place)
I1001 23:59:14.167840 32484 net.cpp:150] Setting up conv2_2/linear/bn
I1001 23:59:14.167846 32484 net.cpp:157] Top shape: 2 24 75 128 (460800)
I1001 23:59:14.167848 32484 net.cpp:165] Memory required for data: 312249696
I1001 23:59:14.167856 32484 layer_factory.hpp:77] Creating layer conv2_2/linear/scale
I1001 23:59:14.167863 32484 net.cpp:100] Creating Layer conv2_2/linear/scale
I1001 23:59:14.167865 32484 net.cpp:434] conv2_2/linear/scale <- conv2_2/linear
I1001 23:59:14.167871 32484 net.cpp:395] conv2_2/linear/scale -> conv2_2/linear (in-place)
I1001 23:59:14.167908 32484 layer_factory.hpp:77] Creating layer conv2_2/linear/scale
I1001 23:59:14.167996 32484 net.cpp:150] Setting up conv2_2/linear/scale
I1001 23:59:14.168002 32484 net.cpp:157] Top shape: 2 24 75 128 (460800)
I1001 23:59:14.168005 32484 net.cpp:165] Memory required for data: 314092896
I1001 23:59:14.168011 32484 layer_factory.hpp:77] Creating layer conv2_2/linear_conv2_2/linear/scale_0_split
I1001 23:59:14.168017 32484 net.cpp:100] Creating Layer conv2_2/linear_conv2_2/linear/scale_0_split
I1001 23:59:14.168020 32484 net.cpp:434] conv2_2/linear_conv2_2/linear/scale_0_split <- conv2_2/linear
I1001 23:59:14.168025 32484 net.cpp:408] conv2_2/linear_conv2_2/linear/scale_0_split -> conv2_2/linear_conv2_2/linear/scale_0_split_0
I1001 23:59:14.168036 32484 net.cpp:408] conv2_2/linear_conv2_2/linear/scale_0_split -> conv2_2/linear_conv2_2/linear/scale_0_split_1
I1001 23:59:14.168071 32484 net.cpp:150] Setting up conv2_2/linear_conv2_2/linear/scale_0_split
I1001 23:59:14.168076 32484 net.cpp:157] Top shape: 2 24 75 128 (460800)
I1001 23:59:14.168079 32484 net.cpp:157] Top shape: 2 24 75 128 (460800)
I1001 23:59:14.168083 32484 net.cpp:165] Memory required for data: 317779296
I1001 23:59:14.168087 32484 layer_factory.hpp:77] Creating layer conv3_1/expand
I1001 23:59:14.168093 32484 net.cpp:100] Creating Layer conv3_1/expand
I1001 23:59:14.168097 32484 net.cpp:434] conv3_1/expand <- conv2_2/linear_conv2_2/linear/scale_0_split_0
I1001 23:59:14.168103 32484 net.cpp:408] conv3_1/expand -> conv3_1/expand
I1001 23:59:14.169185 32484 net.cpp:150] Setting up conv3_1/expand
I1001 23:59:14.169193 32484 net.cpp:157] Top shape: 2 144 75 128 (2764800)
I1001 23:59:14.169195 32484 net.cpp:165] Memory required for data: 328838496
I1001 23:59:14.169212 32484 layer_factory.hpp:77] Creating layer conv3_1/expand/bn
I1001 23:59:14.169219 32484 net.cpp:100] Creating Layer conv3_1/expand/bn
I1001 23:59:14.169222 32484 net.cpp:434] conv3_1/expand/bn <- conv3_1/expand
I1001 23:59:14.169227 32484 net.cpp:395] conv3_1/expand/bn -> conv3_1/expand (in-place)
I1001 23:59:14.169359 32484 net.cpp:150] Setting up conv3_1/expand/bn
I1001 23:59:14.169364 32484 net.cpp:157] Top shape: 2 144 75 128 (2764800)
I1001 23:59:14.169368 32484 net.cpp:165] Memory required for data: 339897696
I1001 23:59:14.169373 32484 layer_factory.hpp:77] Creating layer conv3_1/expand/scale
I1001 23:59:14.169378 32484 net.cpp:100] Creating Layer conv3_1/expand/scale
I1001 23:59:14.169381 32484 net.cpp:434] conv3_1/expand/scale <- conv3_1/expand
I1001 23:59:14.169385 32484 net.cpp:395] conv3_1/expand/scale -> conv3_1/expand (in-place)
I1001 23:59:14.169416 32484 layer_factory.hpp:77] Creating layer conv3_1/expand/scale
I1001 23:59:14.169493 32484 net.cpp:150] Setting up conv3_1/expand/scale
I1001 23:59:14.169498 32484 net.cpp:157] Top shape: 2 144 75 128 (2764800)
I1001 23:59:14.169502 32484 net.cpp:165] Memory required for data: 350956896
I1001 23:59:14.169507 32484 layer_factory.hpp:77] Creating layer relu3_1/expand
I1001 23:59:14.169517 32484 net.cpp:100] Creating Layer relu3_1/expand
I1001 23:59:14.169520 32484 net.cpp:434] relu3_1/expand <- conv3_1/expand
I1001 23:59:14.169524 32484 net.cpp:395] relu3_1/expand -> conv3_1/expand (in-place)
I1001 23:59:14.169798 32484 net.cpp:150] Setting up relu3_1/expand
I1001 23:59:14.169806 32484 net.cpp:157] Top shape: 2 144 75 128 (2764800)
I1001 23:59:14.169808 32484 net.cpp:165] Memory required for data: 362016096
I1001 23:59:14.169811 32484 layer_factory.hpp:77] Creating layer conv3_1/dwise
I1001 23:59:14.169818 32484 net.cpp:100] Creating Layer conv3_1/dwise
I1001 23:59:14.169821 32484 net.cpp:434] conv3_1/dwise <- conv3_1/expand
I1001 23:59:14.169827 32484 net.cpp:408] conv3_1/dwise -> conv3_1/dwise
I1001 23:59:14.169961 32484 net.cpp:150] Setting up conv3_1/dwise
I1001 23:59:14.169967 32484 net.cpp:157] Top shape: 2 144 75 128 (2764800)
I1001 23:59:14.169971 32484 net.cpp:165] Memory required for data: 373075296
I1001 23:59:14.169975 32484 layer_factory.hpp:77] Creating layer conv3_1/dwise/bn
I1001 23:59:14.169981 32484 net.cpp:100] Creating Layer conv3_1/dwise/bn
I1001 23:59:14.169983 32484 net.cpp:434] conv3_1/dwise/bn <- conv3_1/dwise
I1001 23:59:14.169989 32484 net.cpp:395] conv3_1/dwise/bn -> conv3_1/dwise (in-place)
I1001 23:59:14.170114 32484 net.cpp:150] Setting up conv3_1/dwise/bn
I1001 23:59:14.170119 32484 net.cpp:157] Top shape: 2 144 75 128 (2764800)
I1001 23:59:14.170120 32484 net.cpp:165] Memory required for data: 384134496
I1001 23:59:14.170127 32484 layer_factory.hpp:77] Creating layer conv3_1/dwise/scale
I1001 23:59:14.170131 32484 net.cpp:100] Creating Layer conv3_1/dwise/scale
I1001 23:59:14.170135 32484 net.cpp:434] conv3_1/dwise/scale <- conv3_1/dwise
I1001 23:59:14.170140 32484 net.cpp:395] conv3_1/dwise/scale -> conv3_1/dwise (in-place)
I1001 23:59:14.170168 32484 layer_factory.hpp:77] Creating layer conv3_1/dwise/scale
I1001 23:59:14.170243 32484 net.cpp:150] Setting up conv3_1/dwise/scale
I1001 23:59:14.170248 32484 net.cpp:157] Top shape: 2 144 75 128 (2764800)
I1001 23:59:14.170250 32484 net.cpp:165] Memory required for data: 395193696
I1001 23:59:14.170256 32484 layer_factory.hpp:77] Creating layer relu3_1/dwise
I1001 23:59:14.170260 32484 net.cpp:100] Creating Layer relu3_1/dwise
I1001 23:59:14.170264 32484 net.cpp:434] relu3_1/dwise <- conv3_1/dwise
I1001 23:59:14.170269 32484 net.cpp:395] relu3_1/dwise -> conv3_1/dwise (in-place)
I1001 23:59:14.170636 32484 net.cpp:150] Setting up relu3_1/dwise
I1001 23:59:14.170644 32484 net.cpp:157] Top shape: 2 144 75 128 (2764800)
I1001 23:59:14.170645 32484 net.cpp:165] Memory required for data: 406252896
I1001 23:59:14.170648 32484 layer_factory.hpp:77] Creating layer conv3_1/linear
I1001 23:59:14.170656 32484 net.cpp:100] Creating Layer conv3_1/linear
I1001 23:59:14.170666 32484 net.cpp:434] conv3_1/linear <- conv3_1/dwise
I1001 23:59:14.170672 32484 net.cpp:408] conv3_1/linear -> conv3_1/linear
I1001 23:59:14.171727 32484 net.cpp:150] Setting up conv3_1/linear
I1001 23:59:14.171736 32484 net.cpp:157] Top shape: 2 24 75 128 (460800)
I1001 23:59:14.171738 32484 net.cpp:165] Memory required for data: 408096096
I1001 23:59:14.171743 32484 layer_factory.hpp:77] Creating layer conv3_1/linear/bn
I1001 23:59:14.171751 32484 net.cpp:100] Creating Layer conv3_1/linear/bn
I1001 23:59:14.171754 32484 net.cpp:434] conv3_1/linear/bn <- conv3_1/linear
I1001 23:59:14.171758 32484 net.cpp:395] conv3_1/linear/bn -> conv3_1/linear (in-place)
I1001 23:59:14.171887 32484 net.cpp:150] Setting up conv3_1/linear/bn
I1001 23:59:14.171892 32484 net.cpp:157] Top shape: 2 24 75 128 (460800)
I1001 23:59:14.171895 32484 net.cpp:165] Memory required for data: 409939296
I1001 23:59:14.171901 32484 layer_factory.hpp:77] Creating layer conv3_1/linear/scale
I1001 23:59:14.171906 32484 net.cpp:100] Creating Layer conv3_1/linear/scale
I1001 23:59:14.171910 32484 net.cpp:434] conv3_1/linear/scale <- conv3_1/linear
I1001 23:59:14.171914 32484 net.cpp:395] conv3_1/linear/scale -> conv3_1/linear (in-place)
I1001 23:59:14.171947 32484 layer_factory.hpp:77] Creating layer conv3_1/linear/scale
I1001 23:59:14.172022 32484 net.cpp:150] Setting up conv3_1/linear/scale
I1001 23:59:14.172029 32484 net.cpp:157] Top shape: 2 24 75 128 (460800)
I1001 23:59:14.172032 32484 net.cpp:165] Memory required for data: 411782496
I1001 23:59:14.172037 32484 layer_factory.hpp:77] Creating layer block_3_1
I1001 23:59:14.172044 32484 net.cpp:100] Creating Layer block_3_1
I1001 23:59:14.172047 32484 net.cpp:434] block_3_1 <- conv2_2/linear_conv2_2/linear/scale_0_split_1
I1001 23:59:14.172051 32484 net.cpp:434] block_3_1 <- conv3_1/linear
I1001 23:59:14.172055 32484 net.cpp:408] block_3_1 -> block_3_1
I1001 23:59:14.172075 32484 net.cpp:150] Setting up block_3_1
I1001 23:59:14.172080 32484 net.cpp:157] Top shape: 2 24 75 128 (460800)
I1001 23:59:14.172083 32484 net.cpp:165] Memory required for data: 413625696
I1001 23:59:14.172086 32484 layer_factory.hpp:77] Creating layer conv3_2/expand
I1001 23:59:14.172093 32484 net.cpp:100] Creating Layer conv3_2/expand
I1001 23:59:14.172096 32484 net.cpp:434] conv3_2/expand <- block_3_1
I1001 23:59:14.172102 32484 net.cpp:408] conv3_2/expand -> conv3_2/expand
I1001 23:59:14.173185 32484 net.cpp:150] Setting up conv3_2/expand
I1001 23:59:14.173193 32484 net.cpp:157] Top shape: 2 144 75 128 (2764800)
I1001 23:59:14.173197 32484 net.cpp:165] Memory required for data: 424684896
I1001 23:59:14.173202 32484 layer_factory.hpp:77] Creating layer conv3_2/expand/bn
I1001 23:59:14.173209 32484 net.cpp:100] Creating Layer conv3_2/expand/bn
I1001 23:59:14.173213 32484 net.cpp:434] conv3_2/expand/bn <- conv3_2/expand
I1001 23:59:14.173218 32484 net.cpp:395] conv3_2/expand/bn -> conv3_2/expand (in-place)
I1001 23:59:14.173348 32484 net.cpp:150] Setting up conv3_2/expand/bn
I1001 23:59:14.173353 32484 net.cpp:157] Top shape: 2 144 75 128 (2764800)
I1001 23:59:14.173357 32484 net.cpp:165] Memory required for data: 435744096
I1001 23:59:14.173362 32484 layer_factory.hpp:77] Creating layer conv3_2/expand/scale
I1001 23:59:14.173368 32484 net.cpp:100] Creating Layer conv3_2/expand/scale
I1001 23:59:14.173372 32484 net.cpp:434] conv3_2/expand/scale <- conv3_2/expand
I1001 23:59:14.173377 32484 net.cpp:395] conv3_2/expand/scale -> conv3_2/expand (in-place)
I1001 23:59:14.173404 32484 layer_factory.hpp:77] Creating layer conv3_2/expand/scale
I1001 23:59:14.173481 32484 net.cpp:150] Setting up conv3_2/expand/scale
I1001 23:59:14.173486 32484 net.cpp:157] Top shape: 2 144 75 128 (2764800)
I1001 23:59:14.173490 32484 net.cpp:165] Memory required for data: 446803296
I1001 23:59:14.173501 32484 layer_factory.hpp:77] Creating layer relu3_2/expand
I1001 23:59:14.173506 32484 net.cpp:100] Creating Layer relu3_2/expand
I1001 23:59:14.173509 32484 net.cpp:434] relu3_2/expand <- conv3_2/expand
I1001 23:59:14.173512 32484 net.cpp:395] relu3_2/expand -> conv3_2/expand (in-place)
I1001 23:59:14.173889 32484 net.cpp:150] Setting up relu3_2/expand
I1001 23:59:14.173897 32484 net.cpp:157] Top shape: 2 144 75 128 (2764800)
I1001 23:59:14.173900 32484 net.cpp:165] Memory required for data: 457862496
I1001 23:59:14.173903 32484 layer_factory.hpp:77] Creating layer conv3_2/dwise
I1001 23:59:14.173910 32484 net.cpp:100] Creating Layer conv3_2/dwise
I1001 23:59:14.173914 32484 net.cpp:434] conv3_2/dwise <- conv3_2/expand
I1001 23:59:14.173920 32484 net.cpp:408] conv3_2/dwise -> conv3_2/dwise
I1001 23:59:14.174059 32484 net.cpp:150] Setting up conv3_2/dwise
I1001 23:59:14.174064 32484 net.cpp:157] Top shape: 2 144 38 64 (700416)
I1001 23:59:14.174068 32484 net.cpp:165] Memory required for data: 460664160
I1001 23:59:14.174073 32484 layer_factory.hpp:77] Creating layer conv3_2/dwise/bn
I1001 23:59:14.174078 32484 net.cpp:100] Creating Layer conv3_2/dwise/bn
I1001 23:59:14.174082 32484 net.cpp:434] conv3_2/dwise/bn <- conv3_2/dwise
I1001 23:59:14.174088 32484 net.cpp:395] conv3_2/dwise/bn -> conv3_2/dwise (in-place)
I1001 23:59:14.174216 32484 net.cpp:150] Setting up conv3_2/dwise/bn
I1001 23:59:14.174221 32484 net.cpp:157] Top shape: 2 144 38 64 (700416)
I1001 23:59:14.174222 32484 net.cpp:165] Memory required for data: 463465824
I1001 23:59:14.174229 32484 layer_factory.hpp:77] Creating layer conv3_2/dwise/scale
I1001 23:59:14.174234 32484 net.cpp:100] Creating Layer conv3_2/dwise/scale
I1001 23:59:14.174237 32484 net.cpp:434] conv3_2/dwise/scale <- conv3_2/dwise
I1001 23:59:14.174243 32484 net.cpp:395] conv3_2/dwise/scale -> conv3_2/dwise (in-place)
I1001 23:59:14.174271 32484 layer_factory.hpp:77] Creating layer conv3_2/dwise/scale
I1001 23:59:14.174342 32484 net.cpp:150] Setting up conv3_2/dwise/scale
I1001 23:59:14.174347 32484 net.cpp:157] Top shape: 2 144 38 64 (700416)
I1001 23:59:14.174350 32484 net.cpp:165] Memory required for data: 466267488
I1001 23:59:14.174356 32484 layer_factory.hpp:77] Creating layer relu3_2/dwise
I1001 23:59:14.174361 32484 net.cpp:100] Creating Layer relu3_2/dwise
I1001 23:59:14.174365 32484 net.cpp:434] relu3_2/dwise <- conv3_2/dwise
I1001 23:59:14.174371 32484 net.cpp:395] relu3_2/dwise -> conv3_2/dwise (in-place)
I1001 23:59:14.174652 32484 net.cpp:150] Setting up relu3_2/dwise
I1001 23:59:14.174659 32484 net.cpp:157] Top shape: 2 144 38 64 (700416)
I1001 23:59:14.174662 32484 net.cpp:165] Memory required for data: 469069152
I1001 23:59:14.174664 32484 layer_factory.hpp:77] Creating layer conv3_2/linear
I1001 23:59:14.174674 32484 net.cpp:100] Creating Layer conv3_2/linear
I1001 23:59:14.174676 32484 net.cpp:434] conv3_2/linear <- conv3_2/dwise
I1001 23:59:14.174681 32484 net.cpp:408] conv3_2/linear -> conv3_2/linear
I1001 23:59:14.175757 32484 net.cpp:150] Setting up conv3_2/linear
I1001 23:59:14.175765 32484 net.cpp:157] Top shape: 2 32 38 64 (155648)
I1001 23:59:14.175768 32484 net.cpp:165] Memory required for data: 469691744
I1001 23:59:14.175773 32484 layer_factory.hpp:77] Creating layer conv3_2/linear/bn
I1001 23:59:14.175779 32484 net.cpp:100] Creating Layer conv3_2/linear/bn
I1001 23:59:14.175783 32484 net.cpp:434] conv3_2/linear/bn <- conv3_2/linear
I1001 23:59:14.175789 32484 net.cpp:395] conv3_2/linear/bn -> conv3_2/linear (in-place)
I1001 23:59:14.175925 32484 net.cpp:150] Setting up conv3_2/linear/bn
I1001 23:59:14.175930 32484 net.cpp:157] Top shape: 2 32 38 64 (155648)
I1001 23:59:14.175933 32484 net.cpp:165] Memory required for data: 470314336
I1001 23:59:14.175940 32484 layer_factory.hpp:77] Creating layer conv3_2/linear/scale
I1001 23:59:14.175945 32484 net.cpp:100] Creating Layer conv3_2/linear/scale
I1001 23:59:14.175948 32484 net.cpp:434] conv3_2/linear/scale <- conv3_2/linear
I1001 23:59:14.175954 32484 net.cpp:395] conv3_2/linear/scale -> conv3_2/linear (in-place)
I1001 23:59:14.175983 32484 layer_factory.hpp:77] Creating layer conv3_2/linear/scale
I1001 23:59:14.176057 32484 net.cpp:150] Setting up conv3_2/linear/scale
I1001 23:59:14.176062 32484 net.cpp:157] Top shape: 2 32 38 64 (155648)
I1001 23:59:14.176072 32484 net.cpp:165] Memory required for data: 470936928
I1001 23:59:14.176079 32484 layer_factory.hpp:77] Creating layer conv3_2/linear_conv3_2/linear/scale_0_split
I1001 23:59:14.176084 32484 net.cpp:100] Creating Layer conv3_2/linear_conv3_2/linear/scale_0_split
I1001 23:59:14.176089 32484 net.cpp:434] conv3_2/linear_conv3_2/linear/scale_0_split <- conv3_2/linear
I1001 23:59:14.176092 32484 net.cpp:408] conv3_2/linear_conv3_2/linear/scale_0_split -> conv3_2/linear_conv3_2/linear/scale_0_split_0
I1001 23:59:14.176100 32484 net.cpp:408] conv3_2/linear_conv3_2/linear/scale_0_split -> conv3_2/linear_conv3_2/linear/scale_0_split_1
I1001 23:59:14.176128 32484 net.cpp:150] Setting up conv3_2/linear_conv3_2/linear/scale_0_split
I1001 23:59:14.176132 32484 net.cpp:157] Top shape: 2 32 38 64 (155648)
I1001 23:59:14.176137 32484 net.cpp:157] Top shape: 2 32 38 64 (155648)
I1001 23:59:14.176141 32484 net.cpp:165] Memory required for data: 472182112
I1001 23:59:14.176143 32484 layer_factory.hpp:77] Creating layer conv4_1/expand
I1001 23:59:14.176148 32484 net.cpp:100] Creating Layer conv4_1/expand
I1001 23:59:14.176152 32484 net.cpp:434] conv4_1/expand <- conv3_2/linear_conv3_2/linear/scale_0_split_0
I1001 23:59:14.176158 32484 net.cpp:408] conv4_1/expand -> conv4_1/expand
I1001 23:59:14.177227 32484 net.cpp:150] Setting up conv4_1/expand
I1001 23:59:14.177233 32484 net.cpp:157] Top shape: 2 192 38 64 (933888)
I1001 23:59:14.177237 32484 net.cpp:165] Memory required for data: 475917664
I1001 23:59:14.177242 32484 layer_factory.hpp:77] Creating layer conv4_1/expand/bn
I1001 23:59:14.177248 32484 net.cpp:100] Creating Layer conv4_1/expand/bn
I1001 23:59:14.177253 32484 net.cpp:434] conv4_1/expand/bn <- conv4_1/expand
I1001 23:59:14.177258 32484 net.cpp:395] conv4_1/expand/bn -> conv4_1/expand (in-place)
I1001 23:59:14.177388 32484 net.cpp:150] Setting up conv4_1/expand/bn
I1001 23:59:14.177393 32484 net.cpp:157] Top shape: 2 192 38 64 (933888)
I1001 23:59:14.177395 32484 net.cpp:165] Memory required for data: 479653216
I1001 23:59:14.177403 32484 layer_factory.hpp:77] Creating layer conv4_1/expand/scale
I1001 23:59:14.177408 32484 net.cpp:100] Creating Layer conv4_1/expand/scale
I1001 23:59:14.177412 32484 net.cpp:434] conv4_1/expand/scale <- conv4_1/expand
I1001 23:59:14.177415 32484 net.cpp:395] conv4_1/expand/scale -> conv4_1/expand (in-place)
I1001 23:59:14.177445 32484 layer_factory.hpp:77] Creating layer conv4_1/expand/scale
I1001 23:59:14.177520 32484 net.cpp:150] Setting up conv4_1/expand/scale
I1001 23:59:14.177525 32484 net.cpp:157] Top shape: 2 192 38 64 (933888)
I1001 23:59:14.177527 32484 net.cpp:165] Memory required for data: 483388768
I1001 23:59:14.177534 32484 layer_factory.hpp:77] Creating layer relu4_1/expand
I1001 23:59:14.177538 32484 net.cpp:100] Creating Layer relu4_1/expand
I1001 23:59:14.177543 32484 net.cpp:434] relu4_1/expand <- conv4_1/expand
I1001 23:59:14.177547 32484 net.cpp:395] relu4_1/expand -> conv4_1/expand (in-place)
I1001 23:59:14.177942 32484 net.cpp:150] Setting up relu4_1/expand
I1001 23:59:14.177950 32484 net.cpp:157] Top shape: 2 192 38 64 (933888)
I1001 23:59:14.177953 32484 net.cpp:165] Memory required for data: 487124320
I1001 23:59:14.177955 32484 layer_factory.hpp:77] Creating layer conv4_1/dwise
I1001 23:59:14.177963 32484 net.cpp:100] Creating Layer conv4_1/dwise
I1001 23:59:14.177966 32484 net.cpp:434] conv4_1/dwise <- conv4_1/expand
I1001 23:59:14.177973 32484 net.cpp:408] conv4_1/dwise -> conv4_1/dwise
I1001 23:59:14.178112 32484 net.cpp:150] Setting up conv4_1/dwise
I1001 23:59:14.178118 32484 net.cpp:157] Top shape: 2 192 38 64 (933888)
I1001 23:59:14.178120 32484 net.cpp:165] Memory required for data: 490859872
I1001 23:59:14.178125 32484 layer_factory.hpp:77] Creating layer conv4_1/dwise/bn
I1001 23:59:14.178131 32484 net.cpp:100] Creating Layer conv4_1/dwise/bn
I1001 23:59:14.178135 32484 net.cpp:434] conv4_1/dwise/bn <- conv4_1/dwise
I1001 23:59:14.178139 32484 net.cpp:395] conv4_1/dwise/bn -> conv4_1/dwise (in-place)
I1001 23:59:14.178269 32484 net.cpp:150] Setting up conv4_1/dwise/bn
I1001 23:59:14.178280 32484 net.cpp:157] Top shape: 2 192 38 64 (933888)
I1001 23:59:14.178284 32484 net.cpp:165] Memory required for data: 494595424
I1001 23:59:14.178290 32484 layer_factory.hpp:77] Creating layer conv4_1/dwise/scale
I1001 23:59:14.178297 32484 net.cpp:100] Creating Layer conv4_1/dwise/scale
I1001 23:59:14.178299 32484 net.cpp:434] conv4_1/dwise/scale <- conv4_1/dwise
I1001 23:59:14.178304 32484 net.cpp:395] conv4_1/dwise/scale -> conv4_1/dwise (in-place)
I1001 23:59:14.178333 32484 layer_factory.hpp:77] Creating layer conv4_1/dwise/scale
I1001 23:59:14.178409 32484 net.cpp:150] Setting up conv4_1/dwise/scale
I1001 23:59:14.178414 32484 net.cpp:157] Top shape: 2 192 38 64 (933888)
I1001 23:59:14.178417 32484 net.cpp:165] Memory required for data: 498330976
I1001 23:59:14.178423 32484 layer_factory.hpp:77] Creating layer relu4_1/dwise
I1001 23:59:14.178428 32484 net.cpp:100] Creating Layer relu4_1/dwise
I1001 23:59:14.178431 32484 net.cpp:434] relu4_1/dwise <- conv4_1/dwise
I1001 23:59:14.178437 32484 net.cpp:395] relu4_1/dwise -> conv4_1/dwise (in-place)
I1001 23:59:14.178719 32484 net.cpp:150] Setting up relu4_1/dwise
I1001 23:59:14.178725 32484 net.cpp:157] Top shape: 2 192 38 64 (933888)
I1001 23:59:14.178727 32484 net.cpp:165] Memory required for data: 502066528
I1001 23:59:14.178731 32484 layer_factory.hpp:77] Creating layer conv4_1/linear
I1001 23:59:14.178741 32484 net.cpp:100] Creating Layer conv4_1/linear
I1001 23:59:14.178745 32484 net.cpp:434] conv4_1/linear <- conv4_1/dwise
I1001 23:59:14.178750 32484 net.cpp:408] conv4_1/linear -> conv4_1/linear
I1001 23:59:14.180292 32484 net.cpp:150] Setting up conv4_1/linear
I1001 23:59:14.180311 32484 net.cpp:157] Top shape: 2 32 38 64 (155648)
I1001 23:59:14.180313 32484 net.cpp:165] Memory required for data: 502689120
I1001 23:59:14.180322 32484 layer_factory.hpp:77] Creating layer conv4_1/linear/bn
I1001 23:59:14.180333 32484 net.cpp:100] Creating Layer conv4_1/linear/bn
I1001 23:59:14.180337 32484 net.cpp:434] conv4_1/linear/bn <- conv4_1/linear
I1001 23:59:14.180343 32484 net.cpp:395] conv4_1/linear/bn -> conv4_1/linear (in-place)
I1001 23:59:14.180493 32484 net.cpp:150] Setting up conv4_1/linear/bn
I1001 23:59:14.180500 32484 net.cpp:157] Top shape: 2 32 38 64 (155648)
I1001 23:59:14.180501 32484 net.cpp:165] Memory required for data: 503311712
I1001 23:59:14.180508 32484 layer_factory.hpp:77] Creating layer conv4_1/linear/scale
I1001 23:59:14.180516 32484 net.cpp:100] Creating Layer conv4_1/linear/scale
I1001 23:59:14.180519 32484 net.cpp:434] conv4_1/linear/scale <- conv4_1/linear
I1001 23:59:14.180523 32484 net.cpp:395] conv4_1/linear/scale -> conv4_1/linear (in-place)
I1001 23:59:14.180559 32484 layer_factory.hpp:77] Creating layer conv4_1/linear/scale
I1001 23:59:14.180639 32484 net.cpp:150] Setting up conv4_1/linear/scale
I1001 23:59:14.180644 32484 net.cpp:157] Top shape: 2 32 38 64 (155648)
I1001 23:59:14.180647 32484 net.cpp:165] Memory required for data: 503934304
I1001 23:59:14.180654 32484 layer_factory.hpp:77] Creating layer block_4_1
I1001 23:59:14.180666 32484 net.cpp:100] Creating Layer block_4_1
I1001 23:59:14.180670 32484 net.cpp:434] block_4_1 <- conv3_2/linear_conv3_2/linear/scale_0_split_1
I1001 23:59:14.180675 32484 net.cpp:434] block_4_1 <- conv4_1/linear
I1001 23:59:14.180680 32484 net.cpp:408] block_4_1 -> block_4_1
I1001 23:59:14.180697 32484 net.cpp:150] Setting up block_4_1
I1001 23:59:14.180703 32484 net.cpp:157] Top shape: 2 32 38 64 (155648)
I1001 23:59:14.180706 32484 net.cpp:165] Memory required for data: 504556896
I1001 23:59:14.180709 32484 layer_factory.hpp:77] Creating layer block_4_1_block_4_1_0_split
I1001 23:59:14.180716 32484 net.cpp:100] Creating Layer block_4_1_block_4_1_0_split
I1001 23:59:14.180719 32484 net.cpp:434] block_4_1_block_4_1_0_split <- block_4_1
I1001 23:59:14.180723 32484 net.cpp:408] block_4_1_block_4_1_0_split -> block_4_1_block_4_1_0_split_0
I1001 23:59:14.180729 32484 net.cpp:408] block_4_1_block_4_1_0_split -> block_4_1_block_4_1_0_split_1
I1001 23:59:14.180773 32484 net.cpp:150] Setting up block_4_1_block_4_1_0_split
I1001 23:59:14.180778 32484 net.cpp:157] Top shape: 2 32 38 64 (155648)
I1001 23:59:14.180781 32484 net.cpp:157] Top shape: 2 32 38 64 (155648)
I1001 23:59:14.180784 32484 net.cpp:165] Memory required for data: 505802080
I1001 23:59:14.180788 32484 layer_factory.hpp:77] Creating layer conv4_2/expand
I1001 23:59:14.180796 32484 net.cpp:100] Creating Layer conv4_2/expand
I1001 23:59:14.180799 32484 net.cpp:434] conv4_2/expand <- block_4_1_block_4_1_0_split_0
I1001 23:59:14.180805 32484 net.cpp:408] conv4_2/expand -> conv4_2/expand
I1001 23:59:14.182252 32484 net.cpp:150] Setting up conv4_2/expand
I1001 23:59:14.182268 32484 net.cpp:157] Top shape: 2 192 38 64 (933888)
I1001 23:59:14.182271 32484 net.cpp:165] Memory required for data: 509537632
I1001 23:59:14.182277 32484 layer_factory.hpp:77] Creating layer conv4_2/expand/bn
I1001 23:59:14.182287 32484 net.cpp:100] Creating Layer conv4_2/expand/bn
I1001 23:59:14.182291 32484 net.cpp:434] conv4_2/expand/bn <- conv4_2/expand
I1001 23:59:14.182298 32484 net.cpp:395] conv4_2/expand/bn -> conv4_2/expand (in-place)
I1001 23:59:14.182436 32484 net.cpp:150] Setting up conv4_2/expand/bn
I1001 23:59:14.182441 32484 net.cpp:157] Top shape: 2 192 38 64 (933888)
I1001 23:59:14.182446 32484 net.cpp:165] Memory required for data: 513273184
I1001 23:59:14.182452 32484 layer_factory.hpp:77] Creating layer conv4_2/expand/scale
I1001 23:59:14.182458 32484 net.cpp:100] Creating Layer conv4_2/expand/scale
I1001 23:59:14.182461 32484 net.cpp:434] conv4_2/expand/scale <- conv4_2/expand
I1001 23:59:14.182466 32484 net.cpp:395] conv4_2/expand/scale -> conv4_2/expand (in-place)
I1001 23:59:14.182500 32484 layer_factory.hpp:77] Creating layer conv4_2/expand/scale
I1001 23:59:14.182576 32484 net.cpp:150] Setting up conv4_2/expand/scale
I1001 23:59:14.182581 32484 net.cpp:157] Top shape: 2 192 38 64 (933888)
I1001 23:59:14.182585 32484 net.cpp:165] Memory required for data: 517008736
I1001 23:59:14.182590 32484 layer_factory.hpp:77] Creating layer relu4_2/expand
I1001 23:59:14.182596 32484 net.cpp:100] Creating Layer relu4_2/expand
I1001 23:59:14.182600 32484 net.cpp:434] relu4_2/expand <- conv4_2/expand
I1001 23:59:14.182605 32484 net.cpp:395] relu4_2/expand -> conv4_2/expand (in-place)
I1001 23:59:14.182893 32484 net.cpp:150] Setting up relu4_2/expand
I1001 23:59:14.182899 32484 net.cpp:157] Top shape: 2 192 38 64 (933888)
I1001 23:59:14.182902 32484 net.cpp:165] Memory required for data: 520744288
I1001 23:59:14.182906 32484 layer_factory.hpp:77] Creating layer conv4_2/dwise
I1001 23:59:14.182912 32484 net.cpp:100] Creating Layer conv4_2/dwise
I1001 23:59:14.182915 32484 net.cpp:434] conv4_2/dwise <- conv4_2/expand
I1001 23:59:14.182921 32484 net.cpp:408] conv4_2/dwise -> conv4_2/dwise
I1001 23:59:14.183071 32484 net.cpp:150] Setting up conv4_2/dwise
I1001 23:59:14.183077 32484 net.cpp:157] Top shape: 2 192 38 64 (933888)
I1001 23:59:14.183079 32484 net.cpp:165] Memory required for data: 524479840
I1001 23:59:14.183084 32484 layer_factory.hpp:77] Creating layer conv4_2/dwise/bn
I1001 23:59:14.183089 32484 net.cpp:100] Creating Layer conv4_2/dwise/bn
I1001 23:59:14.183094 32484 net.cpp:434] conv4_2/dwise/bn <- conv4_2/dwise
I1001 23:59:14.183097 32484 net.cpp:395] conv4_2/dwise/bn -> conv4_2/dwise (in-place)
I1001 23:59:14.183240 32484 net.cpp:150] Setting up conv4_2/dwise/bn
I1001 23:59:14.183246 32484 net.cpp:157] Top shape: 2 192 38 64 (933888)
I1001 23:59:14.183248 32484 net.cpp:165] Memory required for data: 528215392
I1001 23:59:14.183255 32484 layer_factory.hpp:77] Creating layer conv4_2/dwise/scale
I1001 23:59:14.183260 32484 net.cpp:100] Creating Layer conv4_2/dwise/scale
I1001 23:59:14.183264 32484 net.cpp:434] conv4_2/dwise/scale <- conv4_2/dwise
I1001 23:59:14.183269 32484 net.cpp:395] conv4_2/dwise/scale -> conv4_2/dwise (in-place)
I1001 23:59:14.183300 32484 layer_factory.hpp:77] Creating layer conv4_2/dwise/scale
I1001 23:59:14.183374 32484 net.cpp:150] Setting up conv4_2/dwise/scale
I1001 23:59:14.183382 32484 net.cpp:157] Top shape: 2 192 38 64 (933888)
I1001 23:59:14.183393 32484 net.cpp:165] Memory required for data: 531950944
I1001 23:59:14.183398 32484 layer_factory.hpp:77] Creating layer relu4_2/dwise
I1001 23:59:14.183403 32484 net.cpp:100] Creating Layer relu4_2/dwise
I1001 23:59:14.183408 32484 net.cpp:434] relu4_2/dwise <- conv4_2/dwise
I1001 23:59:14.183411 32484 net.cpp:395] relu4_2/dwise -> conv4_2/dwise (in-place)
I1001 23:59:14.183698 32484 net.cpp:150] Setting up relu4_2/dwise
I1001 23:59:14.183704 32484 net.cpp:157] Top shape: 2 192 38 64 (933888)
I1001 23:59:14.183707 32484 net.cpp:165] Memory required for data: 535686496
I1001 23:59:14.183710 32484 layer_factory.hpp:77] Creating layer conv4_2/linear
I1001 23:59:14.183718 32484 net.cpp:100] Creating Layer conv4_2/linear
I1001 23:59:14.183722 32484 net.cpp:434] conv4_2/linear <- conv4_2/dwise
I1001 23:59:14.183727 32484 net.cpp:408] conv4_2/linear -> conv4_2/linear
I1001 23:59:14.185012 32484 net.cpp:150] Setting up conv4_2/linear
I1001 23:59:14.185024 32484 net.cpp:157] Top shape: 2 32 38 64 (155648)
I1001 23:59:14.185025 32484 net.cpp:165] Memory required for data: 536309088
I1001 23:59:14.185032 32484 layer_factory.hpp:77] Creating layer conv4_2/linear/bn
I1001 23:59:14.185041 32484 net.cpp:100] Creating Layer conv4_2/linear/bn
I1001 23:59:14.185045 32484 net.cpp:434] conv4_2/linear/bn <- conv4_2/linear
I1001 23:59:14.185050 32484 net.cpp:395] conv4_2/linear/bn -> conv4_2/linear (in-place)
I1001 23:59:14.185190 32484 net.cpp:150] Setting up conv4_2/linear/bn
I1001 23:59:14.185195 32484 net.cpp:157] Top shape: 2 32 38 64 (155648)
I1001 23:59:14.185199 32484 net.cpp:165] Memory required for data: 536931680
I1001 23:59:14.185204 32484 layer_factory.hpp:77] Creating layer conv4_2/linear/scale
I1001 23:59:14.185211 32484 net.cpp:100] Creating Layer conv4_2/linear/scale
I1001 23:59:14.185215 32484 net.cpp:434] conv4_2/linear/scale <- conv4_2/linear
I1001 23:59:14.185220 32484 net.cpp:395] conv4_2/linear/scale -> conv4_2/linear (in-place)
I1001 23:59:14.185253 32484 layer_factory.hpp:77] Creating layer conv4_2/linear/scale
I1001 23:59:14.185333 32484 net.cpp:150] Setting up conv4_2/linear/scale
I1001 23:59:14.185338 32484 net.cpp:157] Top shape: 2 32 38 64 (155648)
I1001 23:59:14.185340 32484 net.cpp:165] Memory required for data: 537554272
I1001 23:59:14.185345 32484 layer_factory.hpp:77] Creating layer block_4_2
I1001 23:59:14.185353 32484 net.cpp:100] Creating Layer block_4_2
I1001 23:59:14.185356 32484 net.cpp:434] block_4_2 <- block_4_1_block_4_1_0_split_1
I1001 23:59:14.185360 32484 net.cpp:434] block_4_2 <- conv4_2/linear
I1001 23:59:14.185365 32484 net.cpp:408] block_4_2 -> block_4_2
I1001 23:59:14.185385 32484 net.cpp:150] Setting up block_4_2
I1001 23:59:14.185390 32484 net.cpp:157] Top shape: 2 32 38 64 (155648)
I1001 23:59:14.185392 32484 net.cpp:165] Memory required for data: 538176864
I1001 23:59:14.185396 32484 layer_factory.hpp:77] Creating layer conv4_3/expand
I1001 23:59:14.185405 32484 net.cpp:100] Creating Layer conv4_3/expand
I1001 23:59:14.185407 32484 net.cpp:434] conv4_3/expand <- block_4_2
I1001 23:59:14.185412 32484 net.cpp:408] conv4_3/expand -> conv4_3/expand
I1001 23:59:14.186609 32484 net.cpp:150] Setting up conv4_3/expand
I1001 23:59:14.186616 32484 net.cpp:157] Top shape: 2 192 38 64 (933888)
I1001 23:59:14.186619 32484 net.cpp:165] Memory required for data: 541912416
I1001 23:59:14.186625 32484 layer_factory.hpp:77] Creating layer conv4_3/expand/bn
I1001 23:59:14.186631 32484 net.cpp:100] Creating Layer conv4_3/expand/bn
I1001 23:59:14.186635 32484 net.cpp:434] conv4_3/expand/bn <- conv4_3/expand
I1001 23:59:14.186640 32484 net.cpp:395] conv4_3/expand/bn -> conv4_3/expand (in-place)
I1001 23:59:14.186775 32484 net.cpp:150] Setting up conv4_3/expand/bn
I1001 23:59:14.186780 32484 net.cpp:157] Top shape: 2 192 38 64 (933888)
I1001 23:59:14.186784 32484 net.cpp:165] Memory required for data: 545647968
I1001 23:59:14.186791 32484 layer_factory.hpp:77] Creating layer conv4_3/expand/scale
I1001 23:59:14.186795 32484 net.cpp:100] Creating Layer conv4_3/expand/scale
I1001 23:59:14.186806 32484 net.cpp:434] conv4_3/expand/scale <- conv4_3/expand
I1001 23:59:14.186811 32484 net.cpp:395] conv4_3/expand/scale -> conv4_3/expand (in-place)
I1001 23:59:14.186842 32484 layer_factory.hpp:77] Creating layer conv4_3/expand/scale
I1001 23:59:14.186918 32484 net.cpp:150] Setting up conv4_3/expand/scale
I1001 23:59:14.186923 32484 net.cpp:157] Top shape: 2 192 38 64 (933888)
I1001 23:59:14.186926 32484 net.cpp:165] Memory required for data: 549383520
I1001 23:59:14.186931 32484 layer_factory.hpp:77] Creating layer relu4_3/expand
I1001 23:59:14.186938 32484 net.cpp:100] Creating Layer relu4_3/expand
I1001 23:59:14.186941 32484 net.cpp:434] relu4_3/expand <- conv4_3/expand
I1001 23:59:14.186945 32484 net.cpp:395] relu4_3/expand -> conv4_3/expand (in-place)
I1001 23:59:14.187232 32484 net.cpp:150] Setting up relu4_3/expand
I1001 23:59:14.187237 32484 net.cpp:157] Top shape: 2 192 38 64 (933888)
I1001 23:59:14.187240 32484 net.cpp:165] Memory required for data: 553119072
I1001 23:59:14.187244 32484 layer_factory.hpp:77] Creating layer conv4_3/dwise
I1001 23:59:14.187252 32484 net.cpp:100] Creating Layer conv4_3/dwise
I1001 23:59:14.187254 32484 net.cpp:434] conv4_3/dwise <- conv4_3/expand
I1001 23:59:14.187259 32484 net.cpp:408] conv4_3/dwise -> conv4_3/dwise
I1001 23:59:14.187407 32484 net.cpp:150] Setting up conv4_3/dwise
I1001 23:59:14.187412 32484 net.cpp:157] Top shape: 2 192 38 64 (933888)
I1001 23:59:14.187414 32484 net.cpp:165] Memory required for data: 556854624
I1001 23:59:14.187419 32484 layer_factory.hpp:77] Creating layer conv4_3/dwise/bn
I1001 23:59:14.187424 32484 net.cpp:100] Creating Layer conv4_3/dwise/bn
I1001 23:59:14.187428 32484 net.cpp:434] conv4_3/dwise/bn <- conv4_3/dwise
I1001 23:59:14.187431 32484 net.cpp:395] conv4_3/dwise/bn -> conv4_3/dwise (in-place)
I1001 23:59:14.187566 32484 net.cpp:150] Setting up conv4_3/dwise/bn
I1001 23:59:14.187572 32484 net.cpp:157] Top shape: 2 192 38 64 (933888)
I1001 23:59:14.187574 32484 net.cpp:165] Memory required for data: 560590176
I1001 23:59:14.187580 32484 layer_factory.hpp:77] Creating layer conv4_3/dwise/scale
I1001 23:59:14.187584 32484 net.cpp:100] Creating Layer conv4_3/dwise/scale
I1001 23:59:14.187588 32484 net.cpp:434] conv4_3/dwise/scale <- conv4_3/dwise
I1001 23:59:14.187595 32484 net.cpp:395] conv4_3/dwise/scale -> conv4_3/dwise (in-place)
I1001 23:59:14.187624 32484 layer_factory.hpp:77] Creating layer conv4_3/dwise/scale
I1001 23:59:14.187700 32484 net.cpp:150] Setting up conv4_3/dwise/scale
I1001 23:59:14.187705 32484 net.cpp:157] Top shape: 2 192 38 64 (933888)
I1001 23:59:14.187707 32484 net.cpp:165] Memory required for data: 564325728
I1001 23:59:14.187712 32484 layer_factory.hpp:77] Creating layer relu4_3/dwise
I1001 23:59:14.187716 32484 net.cpp:100] Creating Layer relu4_3/dwise
I1001 23:59:14.187721 32484 net.cpp:434] relu4_3/dwise <- conv4_3/dwise
I1001 23:59:14.187724 32484 net.cpp:395] relu4_3/dwise -> conv4_3/dwise (in-place)
I1001 23:59:14.188011 32484 net.cpp:150] Setting up relu4_3/dwise
I1001 23:59:14.188019 32484 net.cpp:157] Top shape: 2 192 38 64 (933888)
I1001 23:59:14.188021 32484 net.cpp:165] Memory required for data: 568061280
I1001 23:59:14.188024 32484 layer_factory.hpp:77] Creating layer conv4_3/linear
I1001 23:59:14.188032 32484 net.cpp:100] Creating Layer conv4_3/linear
I1001 23:59:14.188036 32484 net.cpp:434] conv4_3/linear <- conv4_3/dwise
I1001 23:59:14.188042 32484 net.cpp:408] conv4_3/linear -> conv4_3/linear
I1001 23:59:14.189502 32484 net.cpp:150] Setting up conv4_3/linear
I1001 23:59:14.189517 32484 net.cpp:157] Top shape: 2 64 38 64 (311296)
I1001 23:59:14.189519 32484 net.cpp:165] Memory required for data: 569306464
I1001 23:59:14.189529 32484 layer_factory.hpp:77] Creating layer conv4_3/linear/bn
I1001 23:59:14.189540 32484 net.cpp:100] Creating Layer conv4_3/linear/bn
I1001 23:59:14.189545 32484 net.cpp:434] conv4_3/linear/bn <- conv4_3/linear
I1001 23:59:14.189551 32484 net.cpp:395] conv4_3/linear/bn -> conv4_3/linear (in-place)
I1001 23:59:14.189699 32484 net.cpp:150] Setting up conv4_3/linear/bn
I1001 23:59:14.189714 32484 net.cpp:157] Top shape: 2 64 38 64 (311296)
I1001 23:59:14.189718 32484 net.cpp:165] Memory required for data: 570551648
I1001 23:59:14.189735 32484 layer_factory.hpp:77] Creating layer conv4_3/linear/scale
I1001 23:59:14.189744 32484 net.cpp:100] Creating Layer conv4_3/linear/scale
I1001 23:59:14.189749 32484 net.cpp:434] conv4_3/linear/scale <- conv4_3/linear
I1001 23:59:14.189752 32484 net.cpp:395] conv4_3/linear/scale -> conv4_3/linear (in-place)
I1001 23:59:14.189793 32484 layer_factory.hpp:77] Creating layer conv4_3/linear/scale
I1001 23:59:14.189873 32484 net.cpp:150] Setting up conv4_3/linear/scale
I1001 23:59:14.189878 32484 net.cpp:157] Top shape: 2 64 38 64 (311296)
I1001 23:59:14.189882 32484 net.cpp:165] Memory required for data: 571796832
I1001 23:59:14.189887 32484 layer_factory.hpp:77] Creating layer conv4_3/linear_conv4_3/linear/scale_0_split
I1001 23:59:14.189893 32484 net.cpp:100] Creating Layer conv4_3/linear_conv4_3/linear/scale_0_split
I1001 23:59:14.189894 32484 net.cpp:434] conv4_3/linear_conv4_3/linear/scale_0_split <- conv4_3/linear
I1001 23:59:14.189900 32484 net.cpp:408] conv4_3/linear_conv4_3/linear/scale_0_split -> conv4_3/linear_conv4_3/linear/scale_0_split_0
I1001 23:59:14.189906 32484 net.cpp:408] conv4_3/linear_conv4_3/linear/scale_0_split -> conv4_3/linear_conv4_3/linear/scale_0_split_1
I1001 23:59:14.189936 32484 net.cpp:150] Setting up conv4_3/linear_conv4_3/linear/scale_0_split
I1001 23:59:14.189941 32484 net.cpp:157] Top shape: 2 64 38 64 (311296)
I1001 23:59:14.189944 32484 net.cpp:157] Top shape: 2 64 38 64 (311296)
I1001 23:59:14.189947 32484 net.cpp:165] Memory required for data: 574287200
I1001 23:59:14.189951 32484 layer_factory.hpp:77] Creating layer conv4_4/expand
I1001 23:59:14.189959 32484 net.cpp:100] Creating Layer conv4_4/expand
I1001 23:59:14.189961 32484 net.cpp:434] conv4_4/expand <- conv4_3/linear_conv4_3/linear/scale_0_split_0
I1001 23:59:14.189966 32484 net.cpp:408] conv4_4/expand -> conv4_4/expand
I1001 23:59:14.191669 32484 net.cpp:150] Setting up conv4_4/expand
I1001 23:59:14.191679 32484 net.cpp:157] Top shape: 2 384 38 64 (1867776)
I1001 23:59:14.191682 32484 net.cpp:165] Memory required for data: 581758304
I1001 23:59:14.191687 32484 layer_factory.hpp:77] Creating layer conv4_4/expand/bn
I1001 23:59:14.191696 32484 net.cpp:100] Creating Layer conv4_4/expand/bn
I1001 23:59:14.191699 32484 net.cpp:434] conv4_4/expand/bn <- conv4_4/expand
I1001 23:59:14.191705 32484 net.cpp:395] conv4_4/expand/bn -> conv4_4/expand (in-place)
I1001 23:59:14.191892 32484 net.cpp:150] Setting up conv4_4/expand/bn
I1001 23:59:14.191898 32484 net.cpp:157] Top shape: 2 384 38 64 (1867776)
I1001 23:59:14.191901 32484 net.cpp:165] Memory required for data: 589229408
I1001 23:59:14.191907 32484 layer_factory.hpp:77] Creating layer conv4_4/expand/scale
I1001 23:59:14.191913 32484 net.cpp:100] Creating Layer conv4_4/expand/scale
I1001 23:59:14.191917 32484 net.cpp:434] conv4_4/expand/scale <- conv4_4/expand
I1001 23:59:14.191921 32484 net.cpp:395] conv4_4/expand/scale -> conv4_4/expand (in-place)
I1001 23:59:14.191956 32484 layer_factory.hpp:77] Creating layer conv4_4/expand/scale
I1001 23:59:14.192052 32484 net.cpp:150] Setting up conv4_4/expand/scale
I1001 23:59:14.192059 32484 net.cpp:157] Top shape: 2 384 38 64 (1867776)
I1001 23:59:14.192061 32484 net.cpp:165] Memory required for data: 596700512
I1001 23:59:14.192066 32484 layer_factory.hpp:77] Creating layer relu4_4/expand
I1001 23:59:14.192071 32484 net.cpp:100] Creating Layer relu4_4/expand
I1001 23:59:14.192075 32484 net.cpp:434] relu4_4/expand <- conv4_4/expand
I1001 23:59:14.192080 32484 net.cpp:395] relu4_4/expand -> conv4_4/expand (in-place)
I1001 23:59:14.192445 32484 net.cpp:150] Setting up relu4_4/expand
I1001 23:59:14.192451 32484 net.cpp:157] Top shape: 2 384 38 64 (1867776)
I1001 23:59:14.192456 32484 net.cpp:165] Memory required for data: 604171616
I1001 23:59:14.192458 32484 layer_factory.hpp:77] Creating layer conv4_4/dwise
I1001 23:59:14.192466 32484 net.cpp:100] Creating Layer conv4_4/dwise
I1001 23:59:14.192477 32484 net.cpp:434] conv4_4/dwise <- conv4_4/expand
I1001 23:59:14.192483 32484 net.cpp:408] conv4_4/dwise -> conv4_4/dwise
I1001 23:59:14.192697 32484 net.cpp:150] Setting up conv4_4/dwise
I1001 23:59:14.192701 32484 net.cpp:157] Top shape: 2 384 38 64 (1867776)
I1001 23:59:14.192704 32484 net.cpp:165] Memory required for data: 611642720
I1001 23:59:14.192710 32484 layer_factory.hpp:77] Creating layer conv4_4/dwise/bn
I1001 23:59:14.192715 32484 net.cpp:100] Creating Layer conv4_4/dwise/bn
I1001 23:59:14.192719 32484 net.cpp:434] conv4_4/dwise/bn <- conv4_4/dwise
I1001 23:59:14.192723 32484 net.cpp:395] conv4_4/dwise/bn -> conv4_4/dwise (in-place)
I1001 23:59:14.192893 32484 net.cpp:150] Setting up conv4_4/dwise/bn
I1001 23:59:14.192898 32484 net.cpp:157] Top shape: 2 384 38 64 (1867776)
I1001 23:59:14.192900 32484 net.cpp:165] Memory required for data: 619113824
I1001 23:59:14.192906 32484 layer_factory.hpp:77] Creating layer conv4_4/dwise/scale
I1001 23:59:14.192911 32484 net.cpp:100] Creating Layer conv4_4/dwise/scale
I1001 23:59:14.192915 32484 net.cpp:434] conv4_4/dwise/scale <- conv4_4/dwise
I1001 23:59:14.192919 32484 net.cpp:395] conv4_4/dwise/scale -> conv4_4/dwise (in-place)
I1001 23:59:14.192950 32484 layer_factory.hpp:77] Creating layer conv4_4/dwise/scale
I1001 23:59:14.193042 32484 net.cpp:150] Setting up conv4_4/dwise/scale
I1001 23:59:14.193048 32484 net.cpp:157] Top shape: 2 384 38 64 (1867776)
I1001 23:59:14.193050 32484 net.cpp:165] Memory required for data: 626584928
I1001 23:59:14.193055 32484 layer_factory.hpp:77] Creating layer relu4_4/dwise
I1001 23:59:14.193060 32484 net.cpp:100] Creating Layer relu4_4/dwise
I1001 23:59:14.193064 32484 net.cpp:434] relu4_4/dwise <- conv4_4/dwise
I1001 23:59:14.193068 32484 net.cpp:395] relu4_4/dwise -> conv4_4/dwise (in-place)
I1001 23:59:14.193565 32484 net.cpp:150] Setting up relu4_4/dwise
I1001 23:59:14.193574 32484 net.cpp:157] Top shape: 2 384 38 64 (1867776)
I1001 23:59:14.193578 32484 net.cpp:165] Memory required for data: 634056032
I1001 23:59:14.193580 32484 layer_factory.hpp:77] Creating layer conv4_4/linear
I1001 23:59:14.193588 32484 net.cpp:100] Creating Layer conv4_4/linear
I1001 23:59:14.193591 32484 net.cpp:434] conv4_4/linear <- conv4_4/dwise
I1001 23:59:14.193598 32484 net.cpp:408] conv4_4/linear -> conv4_4/linear
I1001 23:59:14.195297 32484 net.cpp:150] Setting up conv4_4/linear
I1001 23:59:14.195305 32484 net.cpp:157] Top shape: 2 64 38 64 (311296)
I1001 23:59:14.195309 32484 net.cpp:165] Memory required for data: 635301216
I1001 23:59:14.195314 32484 layer_factory.hpp:77] Creating layer conv4_4/linear/bn
I1001 23:59:14.195320 32484 net.cpp:100] Creating Layer conv4_4/linear/bn
I1001 23:59:14.195324 32484 net.cpp:434] conv4_4/linear/bn <- conv4_4/linear
I1001 23:59:14.195329 32484 net.cpp:395] conv4_4/linear/bn -> conv4_4/linear (in-place)
I1001 23:59:14.195513 32484 net.cpp:150] Setting up conv4_4/linear/bn
I1001 23:59:14.195518 32484 net.cpp:157] Top shape: 2 64 38 64 (311296)
I1001 23:59:14.195521 32484 net.cpp:165] Memory required for data: 636546400
I1001 23:59:14.195528 32484 layer_factory.hpp:77] Creating layer conv4_4/linear/scale
I1001 23:59:14.195533 32484 net.cpp:100] Creating Layer conv4_4/linear/scale
I1001 23:59:14.195536 32484 net.cpp:434] conv4_4/linear/scale <- conv4_4/linear
I1001 23:59:14.195540 32484 net.cpp:395] conv4_4/linear/scale -> conv4_4/linear (in-place)
I1001 23:59:14.195576 32484 layer_factory.hpp:77] Creating layer conv4_4/linear/scale
I1001 23:59:14.195673 32484 net.cpp:150] Setting up conv4_4/linear/scale
I1001 23:59:14.195678 32484 net.cpp:157] Top shape: 2 64 38 64 (311296)
I1001 23:59:14.195682 32484 net.cpp:165] Memory required for data: 637791584
I1001 23:59:14.195688 32484 layer_factory.hpp:77] Creating layer block_4_4
I1001 23:59:14.195693 32484 net.cpp:100] Creating Layer block_4_4
I1001 23:59:14.195696 32484 net.cpp:434] block_4_4 <- conv4_3/linear_conv4_3/linear/scale_0_split_1
I1001 23:59:14.195700 32484 net.cpp:434] block_4_4 <- conv4_4/linear
I1001 23:59:14.195714 32484 net.cpp:408] block_4_4 -> block_4_4
I1001 23:59:14.195737 32484 net.cpp:150] Setting up block_4_4
I1001 23:59:14.195742 32484 net.cpp:157] Top shape: 2 64 38 64 (311296)
I1001 23:59:14.195745 32484 net.cpp:165] Memory required for data: 639036768
I1001 23:59:14.195749 32484 layer_factory.hpp:77] Creating layer block_4_4_block_4_4_0_split
I1001 23:59:14.195753 32484 net.cpp:100] Creating Layer block_4_4_block_4_4_0_split
I1001 23:59:14.195756 32484 net.cpp:434] block_4_4_block_4_4_0_split <- block_4_4
I1001 23:59:14.195760 32484 net.cpp:408] block_4_4_block_4_4_0_split -> block_4_4_block_4_4_0_split_0
I1001 23:59:14.195766 32484 net.cpp:408] block_4_4_block_4_4_0_split -> block_4_4_block_4_4_0_split_1
I1001 23:59:14.195798 32484 net.cpp:150] Setting up block_4_4_block_4_4_0_split
I1001 23:59:14.195803 32484 net.cpp:157] Top shape: 2 64 38 64 (311296)
I1001 23:59:14.195808 32484 net.cpp:157] Top shape: 2 64 38 64 (311296)
I1001 23:59:14.195811 32484 net.cpp:165] Memory required for data: 641527136
I1001 23:59:14.195814 32484 layer_factory.hpp:77] Creating layer conv4_5/expand
I1001 23:59:14.195821 32484 net.cpp:100] Creating Layer conv4_5/expand
I1001 23:59:14.195823 32484 net.cpp:434] conv4_5/expand <- block_4_4_block_4_4_0_split_0
I1001 23:59:14.195829 32484 net.cpp:408] conv4_5/expand -> conv4_5/expand
I1001 23:59:14.197464 32484 net.cpp:150] Setting up conv4_5/expand
I1001 23:59:14.197474 32484 net.cpp:157] Top shape: 2 384 38 64 (1867776)
I1001 23:59:14.197477 32484 net.cpp:165] Memory required for data: 648998240
I1001 23:59:14.197484 32484 layer_factory.hpp:77] Creating layer conv4_5/expand/bn
I1001 23:59:14.197489 32484 net.cpp:100] Creating Layer conv4_5/expand/bn
I1001 23:59:14.197491 32484 net.cpp:434] conv4_5/expand/bn <- conv4_5/expand
I1001 23:59:14.197497 32484 net.cpp:395] conv4_5/expand/bn -> conv4_5/expand (in-place)
I1001 23:59:14.197674 32484 net.cpp:150] Setting up conv4_5/expand/bn
I1001 23:59:14.197679 32484 net.cpp:157] Top shape: 2 384 38 64 (1867776)
I1001 23:59:14.197681 32484 net.cpp:165] Memory required for data: 656469344
I1001 23:59:14.197687 32484 layer_factory.hpp:77] Creating layer conv4_5/expand/scale
I1001 23:59:14.197692 32484 net.cpp:100] Creating Layer conv4_5/expand/scale
I1001 23:59:14.197696 32484 net.cpp:434] conv4_5/expand/scale <- conv4_5/expand
I1001 23:59:14.197700 32484 net.cpp:395] conv4_5/expand/scale -> conv4_5/expand (in-place)
I1001 23:59:14.197732 32484 layer_factory.hpp:77] Creating layer conv4_5/expand/scale
I1001 23:59:14.197830 32484 net.cpp:150] Setting up conv4_5/expand/scale
I1001 23:59:14.197836 32484 net.cpp:157] Top shape: 2 384 38 64 (1867776)
I1001 23:59:14.197839 32484 net.cpp:165] Memory required for data: 663940448
I1001 23:59:14.197844 32484 layer_factory.hpp:77] Creating layer relu4_5/expand
I1001 23:59:14.197849 32484 net.cpp:100] Creating Layer relu4_5/expand
I1001 23:59:14.197852 32484 net.cpp:434] relu4_5/expand <- conv4_5/expand
I1001 23:59:14.197856 32484 net.cpp:395] relu4_5/expand -> conv4_5/expand (in-place)
I1001 23:59:14.198220 32484 net.cpp:150] Setting up relu4_5/expand
I1001 23:59:14.198227 32484 net.cpp:157] Top shape: 2 384 38 64 (1867776)
I1001 23:59:14.198230 32484 net.cpp:165] Memory required for data: 671411552
I1001 23:59:14.198233 32484 layer_factory.hpp:77] Creating layer conv4_5/dwise
I1001 23:59:14.198240 32484 net.cpp:100] Creating Layer conv4_5/dwise
I1001 23:59:14.198245 32484 net.cpp:434] conv4_5/dwise <- conv4_5/expand
I1001 23:59:14.198249 32484 net.cpp:408] conv4_5/dwise -> conv4_5/dwise
I1001 23:59:14.198460 32484 net.cpp:150] Setting up conv4_5/dwise
I1001 23:59:14.198467 32484 net.cpp:157] Top shape: 2 384 38 64 (1867776)
I1001 23:59:14.198469 32484 net.cpp:165] Memory required for data: 678882656
I1001 23:59:14.198474 32484 layer_factory.hpp:77] Creating layer conv4_5/dwise/bn
I1001 23:59:14.198480 32484 net.cpp:100] Creating Layer conv4_5/dwise/bn
I1001 23:59:14.198483 32484 net.cpp:434] conv4_5/dwise/bn <- conv4_5/dwise
I1001 23:59:14.198489 32484 net.cpp:395] conv4_5/dwise/bn -> conv4_5/dwise (in-place)
I1001 23:59:14.198667 32484 net.cpp:150] Setting up conv4_5/dwise/bn
I1001 23:59:14.198671 32484 net.cpp:157] Top shape: 2 384 38 64 (1867776)
I1001 23:59:14.198674 32484 net.cpp:165] Memory required for data: 686353760
I1001 23:59:14.198681 32484 layer_factory.hpp:77] Creating layer conv4_5/dwise/scale
I1001 23:59:14.198688 32484 net.cpp:100] Creating Layer conv4_5/dwise/scale
I1001 23:59:14.198690 32484 net.cpp:434] conv4_5/dwise/scale <- conv4_5/dwise
I1001 23:59:14.198694 32484 net.cpp:395] conv4_5/dwise/scale -> conv4_5/dwise (in-place)
I1001 23:59:14.198727 32484 layer_factory.hpp:77] Creating layer conv4_5/dwise/scale
I1001 23:59:14.198822 32484 net.cpp:150] Setting up conv4_5/dwise/scale
I1001 23:59:14.198828 32484 net.cpp:157] Top shape: 2 384 38 64 (1867776)
I1001 23:59:14.198832 32484 net.cpp:165] Memory required for data: 693824864
I1001 23:59:14.198837 32484 layer_factory.hpp:77] Creating layer relu4_5/dwise
I1001 23:59:14.198843 32484 net.cpp:100] Creating Layer relu4_5/dwise
I1001 23:59:14.198845 32484 net.cpp:434] relu4_5/dwise <- conv4_5/dwise
I1001 23:59:14.198849 32484 net.cpp:395] relu4_5/dwise -> conv4_5/dwise (in-place)
I1001 23:59:14.199340 32484 net.cpp:150] Setting up relu4_5/dwise
I1001 23:59:14.199347 32484 net.cpp:157] Top shape: 2 384 38 64 (1867776)
I1001 23:59:14.199352 32484 net.cpp:165] Memory required for data: 701295968
I1001 23:59:14.199353 32484 layer_factory.hpp:77] Creating layer conv4_5/linear
I1001 23:59:14.199362 32484 net.cpp:100] Creating Layer conv4_5/linear
I1001 23:59:14.199365 32484 net.cpp:434] conv4_5/linear <- conv4_5/dwise
I1001 23:59:14.199371 32484 net.cpp:408] conv4_5/linear -> conv4_5/linear
I1001 23:59:14.201016 32484 net.cpp:150] Setting up conv4_5/linear
I1001 23:59:14.201026 32484 net.cpp:157] Top shape: 2 64 38 64 (311296)
I1001 23:59:14.201030 32484 net.cpp:165] Memory required for data: 702541152
I1001 23:59:14.201033 32484 layer_factory.hpp:77] Creating layer conv4_5/linear/bn
I1001 23:59:14.201040 32484 net.cpp:100] Creating Layer conv4_5/linear/bn
I1001 23:59:14.201043 32484 net.cpp:434] conv4_5/linear/bn <- conv4_5/linear
I1001 23:59:14.201047 32484 net.cpp:395] conv4_5/linear/bn -> conv4_5/linear (in-place)
I1001 23:59:14.201231 32484 net.cpp:150] Setting up conv4_5/linear/bn
I1001 23:59:14.201236 32484 net.cpp:157] Top shape: 2 64 38 64 (311296)
I1001 23:59:14.201239 32484 net.cpp:165] Memory required for data: 703786336
I1001 23:59:14.201246 32484 layer_factory.hpp:77] Creating layer conv4_5/linear/scale
I1001 23:59:14.201251 32484 net.cpp:100] Creating Layer conv4_5/linear/scale
I1001 23:59:14.201253 32484 net.cpp:434] conv4_5/linear/scale <- conv4_5/linear
I1001 23:59:14.201257 32484 net.cpp:395] conv4_5/linear/scale -> conv4_5/linear (in-place)
I1001 23:59:14.201293 32484 layer_factory.hpp:77] Creating layer conv4_5/linear/scale
I1001 23:59:14.201395 32484 net.cpp:150] Setting up conv4_5/linear/scale
I1001 23:59:14.201400 32484 net.cpp:157] Top shape: 2 64 38 64 (311296)
I1001 23:59:14.201403 32484 net.cpp:165] Memory required for data: 705031520
I1001 23:59:14.201407 32484 layer_factory.hpp:77] Creating layer block_4_5
I1001 23:59:14.201412 32484 net.cpp:100] Creating Layer block_4_5
I1001 23:59:14.201416 32484 net.cpp:434] block_4_5 <- block_4_4_block_4_4_0_split_1
I1001 23:59:14.201419 32484 net.cpp:434] block_4_5 <- conv4_5/linear
I1001 23:59:14.201424 32484 net.cpp:408] block_4_5 -> block_4_5
I1001 23:59:14.201444 32484 net.cpp:150] Setting up block_4_5
I1001 23:59:14.201448 32484 net.cpp:157] Top shape: 2 64 38 64 (311296)
I1001 23:59:14.201452 32484 net.cpp:165] Memory required for data: 706276704
I1001 23:59:14.201454 32484 layer_factory.hpp:77] Creating layer block_4_5_block_4_5_0_split
I1001 23:59:14.201460 32484 net.cpp:100] Creating Layer block_4_5_block_4_5_0_split
I1001 23:59:14.201463 32484 net.cpp:434] block_4_5_block_4_5_0_split <- block_4_5
I1001 23:59:14.201467 32484 net.cpp:408] block_4_5_block_4_5_0_split -> block_4_5_block_4_5_0_split_0
I1001 23:59:14.201473 32484 net.cpp:408] block_4_5_block_4_5_0_split -> block_4_5_block_4_5_0_split_1
I1001 23:59:14.201515 32484 net.cpp:150] Setting up block_4_5_block_4_5_0_split
I1001 23:59:14.201521 32484 net.cpp:157] Top shape: 2 64 38 64 (311296)
I1001 23:59:14.201525 32484 net.cpp:157] Top shape: 2 64 38 64 (311296)
I1001 23:59:14.201527 32484 net.cpp:165] Memory required for data: 708767072
I1001 23:59:14.201530 32484 layer_factory.hpp:77] Creating layer conv4_6/expand
I1001 23:59:14.201536 32484 net.cpp:100] Creating Layer conv4_6/expand
I1001 23:59:14.201540 32484 net.cpp:434] conv4_6/expand <- block_4_5_block_4_5_0_split_0
I1001 23:59:14.201546 32484 net.cpp:408] conv4_6/expand -> conv4_6/expand
I1001 23:59:14.203249 32484 net.cpp:150] Setting up conv4_6/expand
I1001 23:59:14.203258 32484 net.cpp:157] Top shape: 2 384 38 64 (1867776)
I1001 23:59:14.203263 32484 net.cpp:165] Memory required for data: 716238176
I1001 23:59:14.203267 32484 layer_factory.hpp:77] Creating layer conv4_6/expand/bn
I1001 23:59:14.203275 32484 net.cpp:100] Creating Layer conv4_6/expand/bn
I1001 23:59:14.203279 32484 net.cpp:434] conv4_6/expand/bn <- conv4_6/expand
I1001 23:59:14.203284 32484 net.cpp:395] conv4_6/expand/bn -> conv4_6/expand (in-place)
I1001 23:59:14.203462 32484 net.cpp:150] Setting up conv4_6/expand/bn
I1001 23:59:14.203469 32484 net.cpp:157] Top shape: 2 384 38 64 (1867776)
I1001 23:59:14.203471 32484 net.cpp:165] Memory required for data: 723709280
I1001 23:59:14.203477 32484 layer_factory.hpp:77] Creating layer conv4_6/expand/scale
I1001 23:59:14.203482 32484 net.cpp:100] Creating Layer conv4_6/expand/scale
I1001 23:59:14.203486 32484 net.cpp:434] conv4_6/expand/scale <- conv4_6/expand
I1001 23:59:14.203490 32484 net.cpp:395] conv4_6/expand/scale -> conv4_6/expand (in-place)
I1001 23:59:14.203523 32484 layer_factory.hpp:77] Creating layer conv4_6/expand/scale
I1001 23:59:14.203621 32484 net.cpp:150] Setting up conv4_6/expand/scale
I1001 23:59:14.203626 32484 net.cpp:157] Top shape: 2 384 38 64 (1867776)
I1001 23:59:14.203629 32484 net.cpp:165] Memory required for data: 731180384
I1001 23:59:14.203634 32484 layer_factory.hpp:77] Creating layer relu4_6/expand
I1001 23:59:14.203640 32484 net.cpp:100] Creating Layer relu4_6/expand
I1001 23:59:14.203644 32484 net.cpp:434] relu4_6/expand <- conv4_6/expand
I1001 23:59:14.203647 32484 net.cpp:395] relu4_6/expand -> conv4_6/expand (in-place)
I1001 23:59:14.204161 32484 net.cpp:150] Setting up relu4_6/expand
I1001 23:59:14.204169 32484 net.cpp:157] Top shape: 2 384 38 64 (1867776)
I1001 23:59:14.204171 32484 net.cpp:165] Memory required for data: 738651488
I1001 23:59:14.204174 32484 layer_factory.hpp:77] Creating layer conv4_6/dwise
I1001 23:59:14.204181 32484 net.cpp:100] Creating Layer conv4_6/dwise
I1001 23:59:14.204185 32484 net.cpp:434] conv4_6/dwise <- conv4_6/expand
I1001 23:59:14.204190 32484 net.cpp:408] conv4_6/dwise -> conv4_6/dwise
I1001 23:59:14.204408 32484 net.cpp:150] Setting up conv4_6/dwise
I1001 23:59:14.204414 32484 net.cpp:157] Top shape: 2 384 38 64 (1867776)
I1001 23:59:14.204417 32484 net.cpp:165] Memory required for data: 746122592
I1001 23:59:14.204421 32484 layer_factory.hpp:77] Creating layer conv4_6/dwise/bn
I1001 23:59:14.204427 32484 net.cpp:100] Creating Layer conv4_6/dwise/bn
I1001 23:59:14.204430 32484 net.cpp:434] conv4_6/dwise/bn <- conv4_6/dwise
I1001 23:59:14.204435 32484 net.cpp:395] conv4_6/dwise/bn -> conv4_6/dwise (in-place)
I1001 23:59:14.204610 32484 net.cpp:150] Setting up conv4_6/dwise/bn
I1001 23:59:14.204615 32484 net.cpp:157] Top shape: 2 384 38 64 (1867776)
I1001 23:59:14.204618 32484 net.cpp:165] Memory required for data: 753593696
I1001 23:59:14.204624 32484 layer_factory.hpp:77] Creating layer conv4_6/dwise/scale
I1001 23:59:14.204630 32484 net.cpp:100] Creating Layer conv4_6/dwise/scale
I1001 23:59:14.204633 32484 net.cpp:434] conv4_6/dwise/scale <- conv4_6/dwise
I1001 23:59:14.204638 32484 net.cpp:395] conv4_6/dwise/scale -> conv4_6/dwise (in-place)
I1001 23:59:14.204670 32484 layer_factory.hpp:77] Creating layer conv4_6/dwise/scale
I1001 23:59:14.204766 32484 net.cpp:150] Setting up conv4_6/dwise/scale
I1001 23:59:14.204779 32484 net.cpp:157] Top shape: 2 384 38 64 (1867776)
I1001 23:59:14.204783 32484 net.cpp:165] Memory required for data: 761064800
I1001 23:59:14.204788 32484 layer_factory.hpp:77] Creating layer relu4_6/dwise
I1001 23:59:14.204794 32484 net.cpp:100] Creating Layer relu4_6/dwise
I1001 23:59:14.204798 32484 net.cpp:434] relu4_6/dwise <- conv4_6/dwise
I1001 23:59:14.204802 32484 net.cpp:395] relu4_6/dwise -> conv4_6/dwise (in-place)
I1001 23:59:14.205164 32484 net.cpp:150] Setting up relu4_6/dwise
I1001 23:59:14.205171 32484 net.cpp:157] Top shape: 2 384 38 64 (1867776)
I1001 23:59:14.205174 32484 net.cpp:165] Memory required for data: 768535904
I1001 23:59:14.205178 32484 layer_factory.hpp:77] Creating layer conv4_6/linear
I1001 23:59:14.205184 32484 net.cpp:100] Creating Layer conv4_6/linear
I1001 23:59:14.205188 32484 net.cpp:434] conv4_6/linear <- conv4_6/dwise
I1001 23:59:14.205191 32484 net.cpp:408] conv4_6/linear -> conv4_6/linear
I1001 23:59:14.206830 32484 net.cpp:150] Setting up conv4_6/linear
I1001 23:59:14.206838 32484 net.cpp:157] Top shape: 2 64 38 64 (311296)
I1001 23:59:14.206840 32484 net.cpp:165] Memory required for data: 769781088
I1001 23:59:14.206845 32484 layer_factory.hpp:77] Creating layer conv4_6/linear/bn
I1001 23:59:14.206849 32484 net.cpp:100] Creating Layer conv4_6/linear/bn
I1001 23:59:14.206851 32484 net.cpp:434] conv4_6/linear/bn <- conv4_6/linear
I1001 23:59:14.206854 32484 net.cpp:395] conv4_6/linear/bn -> conv4_6/linear (in-place)
I1001 23:59:14.206995 32484 net.cpp:150] Setting up conv4_6/linear/bn
I1001 23:59:14.206998 32484 net.cpp:157] Top shape: 2 64 38 64 (311296)
I1001 23:59:14.207000 32484 net.cpp:165] Memory required for data: 771026272
I1001 23:59:14.207005 32484 layer_factory.hpp:77] Creating layer conv4_6/linear/scale
I1001 23:59:14.207008 32484 net.cpp:100] Creating Layer conv4_6/linear/scale
I1001 23:59:14.207010 32484 net.cpp:434] conv4_6/linear/scale <- conv4_6/linear
I1001 23:59:14.207013 32484 net.cpp:395] conv4_6/linear/scale -> conv4_6/linear (in-place)
I1001 23:59:14.207041 32484 layer_factory.hpp:77] Creating layer conv4_6/linear/scale
I1001 23:59:14.207118 32484 net.cpp:150] Setting up conv4_6/linear/scale
I1001 23:59:14.207121 32484 net.cpp:157] Top shape: 2 64 38 64 (311296)
I1001 23:59:14.207123 32484 net.cpp:165] Memory required for data: 772271456
I1001 23:59:14.207126 32484 layer_factory.hpp:77] Creating layer block_4_6
I1001 23:59:14.207130 32484 net.cpp:100] Creating Layer block_4_6
I1001 23:59:14.207132 32484 net.cpp:434] block_4_6 <- block_4_5_block_4_5_0_split_1
I1001 23:59:14.207135 32484 net.cpp:434] block_4_6 <- conv4_6/linear
I1001 23:59:14.207137 32484 net.cpp:408] block_4_6 -> block_4_6
I1001 23:59:14.207154 32484 net.cpp:150] Setting up block_4_6
I1001 23:59:14.207156 32484 net.cpp:157] Top shape: 2 64 38 64 (311296)
I1001 23:59:14.207159 32484 net.cpp:165] Memory required for data: 773516640
I1001 23:59:14.207159 32484 layer_factory.hpp:77] Creating layer conv4_7/expand
I1001 23:59:14.207173 32484 net.cpp:100] Creating Layer conv4_7/expand
I1001 23:59:14.207176 32484 net.cpp:434] conv4_7/expand <- block_4_6
I1001 23:59:14.207180 32484 net.cpp:408] conv4_7/expand -> conv4_7/expand
I1001 23:59:14.208400 32484 net.cpp:150] Setting up conv4_7/expand
I1001 23:59:14.208407 32484 net.cpp:157] Top shape: 2 384 38 64 (1867776)
I1001 23:59:14.208410 32484 net.cpp:165] Memory required for data: 780987744
I1001 23:59:14.208415 32484 layer_factory.hpp:77] Creating layer conv4_7/expand/bn
I1001 23:59:14.208420 32484 net.cpp:100] Creating Layer conv4_7/expand/bn
I1001 23:59:14.208421 32484 net.cpp:434] conv4_7/expand/bn <- conv4_7/expand
I1001 23:59:14.208425 32484 net.cpp:395] conv4_7/expand/bn -> conv4_7/expand (in-place)
I1001 23:59:14.208559 32484 net.cpp:150] Setting up conv4_7/expand/bn
I1001 23:59:14.208564 32484 net.cpp:157] Top shape: 2 384 38 64 (1867776)
I1001 23:59:14.208564 32484 net.cpp:165] Memory required for data: 788458848
I1001 23:59:14.208568 32484 layer_factory.hpp:77] Creating layer conv4_7/expand/scale
I1001 23:59:14.208581 32484 net.cpp:100] Creating Layer conv4_7/expand/scale
I1001 23:59:14.208583 32484 net.cpp:434] conv4_7/expand/scale <- conv4_7/expand
I1001 23:59:14.208585 32484 net.cpp:395] conv4_7/expand/scale -> conv4_7/expand (in-place)
I1001 23:59:14.208611 32484 layer_factory.hpp:77] Creating layer conv4_7/expand/scale
I1001 23:59:14.208684 32484 net.cpp:150] Setting up conv4_7/expand/scale
I1001 23:59:14.208689 32484 net.cpp:157] Top shape: 2 384 38 64 (1867776)
I1001 23:59:14.208690 32484 net.cpp:165] Memory required for data: 795929952
I1001 23:59:14.208693 32484 layer_factory.hpp:77] Creating layer relu4_7/expand
I1001 23:59:14.208698 32484 net.cpp:100] Creating Layer relu4_7/expand
I1001 23:59:14.208699 32484 net.cpp:434] relu4_7/expand <- conv4_7/expand
I1001 23:59:14.208703 32484 net.cpp:395] relu4_7/expand -> conv4_7/expand (in-place)
I1001 23:59:14.209079 32484 net.cpp:150] Setting up relu4_7/expand
I1001 23:59:14.209086 32484 net.cpp:157] Top shape: 2 384 38 64 (1867776)
I1001 23:59:14.209089 32484 net.cpp:165] Memory required for data: 803401056
I1001 23:59:14.209091 32484 layer_factory.hpp:77] Creating layer conv4_7/dwise
I1001 23:59:14.209095 32484 net.cpp:100] Creating Layer conv4_7/dwise
I1001 23:59:14.209098 32484 net.cpp:434] conv4_7/dwise <- conv4_7/expand
I1001 23:59:14.209102 32484 net.cpp:408] conv4_7/dwise -> conv4_7/dwise
I1001 23:59:14.209260 32484 net.cpp:150] Setting up conv4_7/dwise
I1001 23:59:14.209265 32484 net.cpp:157] Top shape: 2 384 19 32 (466944)
I1001 23:59:14.209267 32484 net.cpp:165] Memory required for data: 805268832
I1001 23:59:14.209270 32484 layer_factory.hpp:77] Creating layer conv4_7/dwise/bn
I1001 23:59:14.209273 32484 net.cpp:100] Creating Layer conv4_7/dwise/bn
I1001 23:59:14.209275 32484 net.cpp:434] conv4_7/dwise/bn <- conv4_7/dwise
I1001 23:59:14.209278 32484 net.cpp:395] conv4_7/dwise/bn -> conv4_7/dwise (in-place)
I1001 23:59:14.209405 32484 net.cpp:150] Setting up conv4_7/dwise/bn
I1001 23:59:14.209409 32484 net.cpp:157] Top shape: 2 384 19 32 (466944)
I1001 23:59:14.209410 32484 net.cpp:165] Memory required for data: 807136608
I1001 23:59:14.209415 32484 layer_factory.hpp:77] Creating layer conv4_7/dwise/scale
I1001 23:59:14.209419 32484 net.cpp:100] Creating Layer conv4_7/dwise/scale
I1001 23:59:14.209422 32484 net.cpp:434] conv4_7/dwise/scale <- conv4_7/dwise
I1001 23:59:14.209424 32484 net.cpp:395] conv4_7/dwise/scale -> conv4_7/dwise (in-place)
I1001 23:59:14.209453 32484 layer_factory.hpp:77] Creating layer conv4_7/dwise/scale
I1001 23:59:14.209529 32484 net.cpp:150] Setting up conv4_7/dwise/scale
I1001 23:59:14.209533 32484 net.cpp:157] Top shape: 2 384 19 32 (466944)
I1001 23:59:14.209535 32484 net.cpp:165] Memory required for data: 809004384
I1001 23:59:14.209538 32484 layer_factory.hpp:77] Creating layer relu4_7/dwise
I1001 23:59:14.209542 32484 net.cpp:100] Creating Layer relu4_7/dwise
I1001 23:59:14.209544 32484 net.cpp:434] relu4_7/dwise <- conv4_7/dwise
I1001 23:59:14.209547 32484 net.cpp:395] relu4_7/dwise -> conv4_7/dwise (in-place)
I1001 23:59:14.209820 32484 net.cpp:150] Setting up relu4_7/dwise
I1001 23:59:14.209825 32484 net.cpp:157] Top shape: 2 384 19 32 (466944)
I1001 23:59:14.209827 32484 net.cpp:165] Memory required for data: 810872160
I1001 23:59:14.209830 32484 layer_factory.hpp:77] Creating layer conv4_7/linear
I1001 23:59:14.209834 32484 net.cpp:100] Creating Layer conv4_7/linear
I1001 23:59:14.209836 32484 net.cpp:434] conv4_7/linear <- conv4_7/dwise
I1001 23:59:14.209839 32484 net.cpp:408] conv4_7/linear -> conv4_7/linear
I1001 23:59:14.211105 32484 net.cpp:150] Setting up conv4_7/linear
I1001 23:59:14.211112 32484 net.cpp:157] Top shape: 2 96 19 32 (116736)
I1001 23:59:14.211114 32484 net.cpp:165] Memory required for data: 811339104
I1001 23:59:14.211118 32484 layer_factory.hpp:77] Creating layer conv4_7/linear/bn
I1001 23:59:14.211122 32484 net.cpp:100] Creating Layer conv4_7/linear/bn
I1001 23:59:14.211125 32484 net.cpp:434] conv4_7/linear/bn <- conv4_7/linear
I1001 23:59:14.211128 32484 net.cpp:395] conv4_7/linear/bn -> conv4_7/linear (in-place)
I1001 23:59:14.211287 32484 net.cpp:150] Setting up conv4_7/linear/bn
I1001 23:59:14.211292 32484 net.cpp:157] Top shape: 2 96 19 32 (116736)
I1001 23:59:14.211293 32484 net.cpp:165] Memory required for data: 811806048
I1001 23:59:14.211297 32484 layer_factory.hpp:77] Creating layer conv4_7/linear/scale
I1001 23:59:14.211302 32484 net.cpp:100] Creating Layer conv4_7/linear/scale
I1001 23:59:14.211303 32484 net.cpp:434] conv4_7/linear/scale <- conv4_7/linear
I1001 23:59:14.211307 32484 net.cpp:395] conv4_7/linear/scale -> conv4_7/linear (in-place)
I1001 23:59:14.211334 32484 layer_factory.hpp:77] Creating layer conv4_7/linear/scale
I1001 23:59:14.211416 32484 net.cpp:150] Setting up conv4_7/linear/scale
I1001 23:59:14.211421 32484 net.cpp:157] Top shape: 2 96 19 32 (116736)
I1001 23:59:14.211423 32484 net.cpp:165] Memory required for data: 812272992
I1001 23:59:14.211426 32484 layer_factory.hpp:77] Creating layer conv4_7/linear_conv4_7/linear/scale_0_split
I1001 23:59:14.211431 32484 net.cpp:100] Creating Layer conv4_7/linear_conv4_7/linear/scale_0_split
I1001 23:59:14.211431 32484 net.cpp:434] conv4_7/linear_conv4_7/linear/scale_0_split <- conv4_7/linear
I1001 23:59:14.211434 32484 net.cpp:408] conv4_7/linear_conv4_7/linear/scale_0_split -> conv4_7/linear_conv4_7/linear/scale_0_split_0
I1001 23:59:14.211439 32484 net.cpp:408] conv4_7/linear_conv4_7/linear/scale_0_split -> conv4_7/linear_conv4_7/linear/scale_0_split_1
I1001 23:59:14.211464 32484 net.cpp:150] Setting up conv4_7/linear_conv4_7/linear/scale_0_split
I1001 23:59:14.211467 32484 net.cpp:157] Top shape: 2 96 19 32 (116736)
I1001 23:59:14.211470 32484 net.cpp:157] Top shape: 2 96 19 32 (116736)
I1001 23:59:14.211472 32484 net.cpp:165] Memory required for data: 813206880
I1001 23:59:14.211473 32484 layer_factory.hpp:77] Creating layer conv5_1/expand
I1001 23:59:14.211478 32484 net.cpp:100] Creating Layer conv5_1/expand
I1001 23:59:14.211480 32484 net.cpp:434] conv5_1/expand <- conv4_7/linear_conv4_7/linear/scale_0_split_0
I1001 23:59:14.211483 32484 net.cpp:408] conv5_1/expand -> conv5_1/expand
I1001 23:59:14.212949 32484 net.cpp:150] Setting up conv5_1/expand
I1001 23:59:14.212955 32484 net.cpp:157] Top shape: 2 576 19 32 (700416)
I1001 23:59:14.212957 32484 net.cpp:165] Memory required for data: 816008544
I1001 23:59:14.212960 32484 layer_factory.hpp:77] Creating layer conv5_1/expand/bn
I1001 23:59:14.212965 32484 net.cpp:100] Creating Layer conv5_1/expand/bn
I1001 23:59:14.212967 32484 net.cpp:434] conv5_1/expand/bn <- conv5_1/expand
I1001 23:59:14.212970 32484 net.cpp:395] conv5_1/expand/bn -> conv5_1/expand (in-place)
I1001 23:59:14.213115 32484 net.cpp:150] Setting up conv5_1/expand/bn
I1001 23:59:14.213119 32484 net.cpp:157] Top shape: 2 576 19 32 (700416)
I1001 23:59:14.213121 32484 net.cpp:165] Memory required for data: 818810208
I1001 23:59:14.213125 32484 layer_factory.hpp:77] Creating layer conv5_1/expand/scale
I1001 23:59:14.213129 32484 net.cpp:100] Creating Layer conv5_1/expand/scale
I1001 23:59:14.213131 32484 net.cpp:434] conv5_1/expand/scale <- conv5_1/expand
I1001 23:59:14.213135 32484 net.cpp:395] conv5_1/expand/scale -> conv5_1/expand (in-place)
I1001 23:59:14.213163 32484 layer_factory.hpp:77] Creating layer conv5_1/expand/scale
I1001 23:59:14.213246 32484 net.cpp:150] Setting up conv5_1/expand/scale
I1001 23:59:14.213250 32484 net.cpp:157] Top shape: 2 576 19 32 (700416)
I1001 23:59:14.213253 32484 net.cpp:165] Memory required for data: 821611872
I1001 23:59:14.213255 32484 layer_factory.hpp:77] Creating layer relu5_1/expand
I1001 23:59:14.213258 32484 net.cpp:100] Creating Layer relu5_1/expand
I1001 23:59:14.213260 32484 net.cpp:434] relu5_1/expand <- conv5_1/expand
I1001 23:59:14.213264 32484 net.cpp:395] relu5_1/expand -> conv5_1/expand (in-place)
I1001 23:59:14.213538 32484 net.cpp:150] Setting up relu5_1/expand
I1001 23:59:14.213544 32484 net.cpp:157] Top shape: 2 576 19 32 (700416)
I1001 23:59:14.213546 32484 net.cpp:165] Memory required for data: 824413536
I1001 23:59:14.213548 32484 layer_factory.hpp:77] Creating layer conv5_1/dwise
I1001 23:59:14.213560 32484 net.cpp:100] Creating Layer conv5_1/dwise
I1001 23:59:14.213563 32484 net.cpp:434] conv5_1/dwise <- conv5_1/expand
I1001 23:59:14.213567 32484 net.cpp:408] conv5_1/dwise -> conv5_1/dwise
I1001 23:59:14.213742 32484 net.cpp:150] Setting up conv5_1/dwise
I1001 23:59:14.213747 32484 net.cpp:157] Top shape: 2 576 19 32 (700416)
I1001 23:59:14.213749 32484 net.cpp:165] Memory required for data: 827215200
I1001 23:59:14.213752 32484 layer_factory.hpp:77] Creating layer conv5_1/dwise/bn
I1001 23:59:14.213755 32484 net.cpp:100] Creating Layer conv5_1/dwise/bn
I1001 23:59:14.213758 32484 net.cpp:434] conv5_1/dwise/bn <- conv5_1/dwise
I1001 23:59:14.213760 32484 net.cpp:395] conv5_1/dwise/bn -> conv5_1/dwise (in-place)
I1001 23:59:14.213901 32484 net.cpp:150] Setting up conv5_1/dwise/bn
I1001 23:59:14.213905 32484 net.cpp:157] Top shape: 2 576 19 32 (700416)
I1001 23:59:14.213907 32484 net.cpp:165] Memory required for data: 830016864
I1001 23:59:14.213912 32484 layer_factory.hpp:77] Creating layer conv5_1/dwise/scale
I1001 23:59:14.213915 32484 net.cpp:100] Creating Layer conv5_1/dwise/scale
I1001 23:59:14.213918 32484 net.cpp:434] conv5_1/dwise/scale <- conv5_1/dwise
I1001 23:59:14.213922 32484 net.cpp:395] conv5_1/dwise/scale -> conv5_1/dwise (in-place)
I1001 23:59:14.213948 32484 layer_factory.hpp:77] Creating layer conv5_1/dwise/scale
I1001 23:59:14.214028 32484 net.cpp:150] Setting up conv5_1/dwise/scale
I1001 23:59:14.214032 32484 net.cpp:157] Top shape: 2 576 19 32 (700416)
I1001 23:59:14.214035 32484 net.cpp:165] Memory required for data: 832818528
I1001 23:59:14.214038 32484 layer_factory.hpp:77] Creating layer relu5_1/dwise
I1001 23:59:14.214040 32484 net.cpp:100] Creating Layer relu5_1/dwise
I1001 23:59:14.214042 32484 net.cpp:434] relu5_1/dwise <- conv5_1/dwise
I1001 23:59:14.214046 32484 net.cpp:395] relu5_1/dwise -> conv5_1/dwise (in-place)
I1001 23:59:14.214319 32484 net.cpp:150] Setting up relu5_1/dwise
I1001 23:59:14.214324 32484 net.cpp:157] Top shape: 2 576 19 32 (700416)
I1001 23:59:14.214326 32484 net.cpp:165] Memory required for data: 835620192
I1001 23:59:14.214329 32484 layer_factory.hpp:77] Creating layer conv5_1/linear
I1001 23:59:14.214334 32484 net.cpp:100] Creating Layer conv5_1/linear
I1001 23:59:14.214336 32484 net.cpp:434] conv5_1/linear <- conv5_1/dwise
I1001 23:59:14.214339 32484 net.cpp:408] conv5_1/linear -> conv5_1/linear
I1001 23:59:14.215921 32484 net.cpp:150] Setting up conv5_1/linear
I1001 23:59:14.215930 32484 net.cpp:157] Top shape: 2 96 19 32 (116736)
I1001 23:59:14.215932 32484 net.cpp:165] Memory required for data: 836087136
I1001 23:59:14.215936 32484 layer_factory.hpp:77] Creating layer conv5_1/linear/bn
I1001 23:59:14.215942 32484 net.cpp:100] Creating Layer conv5_1/linear/bn
I1001 23:59:14.215945 32484 net.cpp:434] conv5_1/linear/bn <- conv5_1/linear
I1001 23:59:14.215948 32484 net.cpp:395] conv5_1/linear/bn -> conv5_1/linear (in-place)
I1001 23:59:14.216097 32484 net.cpp:150] Setting up conv5_1/linear/bn
I1001 23:59:14.216101 32484 net.cpp:157] Top shape: 2 96 19 32 (116736)
I1001 23:59:14.216104 32484 net.cpp:165] Memory required for data: 836554080
I1001 23:59:14.216107 32484 layer_factory.hpp:77] Creating layer conv5_1/linear/scale
I1001 23:59:14.216111 32484 net.cpp:100] Creating Layer conv5_1/linear/scale
I1001 23:59:14.216114 32484 net.cpp:434] conv5_1/linear/scale <- conv5_1/linear
I1001 23:59:14.216116 32484 net.cpp:395] conv5_1/linear/scale -> conv5_1/linear (in-place)
I1001 23:59:14.216145 32484 layer_factory.hpp:77] Creating layer conv5_1/linear/scale
I1001 23:59:14.216226 32484 net.cpp:150] Setting up conv5_1/linear/scale
I1001 23:59:14.216230 32484 net.cpp:157] Top shape: 2 96 19 32 (116736)
I1001 23:59:14.216233 32484 net.cpp:165] Memory required for data: 837021024
I1001 23:59:14.216235 32484 layer_factory.hpp:77] Creating layer block_5_1
I1001 23:59:14.216239 32484 net.cpp:100] Creating Layer block_5_1
I1001 23:59:14.216241 32484 net.cpp:434] block_5_1 <- conv4_7/linear_conv4_7/linear/scale_0_split_1
I1001 23:59:14.216253 32484 net.cpp:434] block_5_1 <- conv5_1/linear
I1001 23:59:14.216255 32484 net.cpp:408] block_5_1 -> block_5_1
I1001 23:59:14.216272 32484 net.cpp:150] Setting up block_5_1
I1001 23:59:14.216276 32484 net.cpp:157] Top shape: 2 96 19 32 (116736)
I1001 23:59:14.216279 32484 net.cpp:165] Memory required for data: 837487968
I1001 23:59:14.216280 32484 layer_factory.hpp:77] Creating layer block_5_1_block_5_1_0_split
I1001 23:59:14.216282 32484 net.cpp:100] Creating Layer block_5_1_block_5_1_0_split
I1001 23:59:14.216284 32484 net.cpp:434] block_5_1_block_5_1_0_split <- block_5_1
I1001 23:59:14.216287 32484 net.cpp:408] block_5_1_block_5_1_0_split -> block_5_1_block_5_1_0_split_0
I1001 23:59:14.216290 32484 net.cpp:408] block_5_1_block_5_1_0_split -> block_5_1_block_5_1_0_split_1
I1001 23:59:14.216315 32484 net.cpp:150] Setting up block_5_1_block_5_1_0_split
I1001 23:59:14.216320 32484 net.cpp:157] Top shape: 2 96 19 32 (116736)
I1001 23:59:14.216321 32484 net.cpp:157] Top shape: 2 96 19 32 (116736)
I1001 23:59:14.216322 32484 net.cpp:165] Memory required for data: 838421856
I1001 23:59:14.216325 32484 layer_factory.hpp:77] Creating layer conv5_2/expand
I1001 23:59:14.216331 32484 net.cpp:100] Creating Layer conv5_2/expand
I1001 23:59:14.216333 32484 net.cpp:434] conv5_2/expand <- block_5_1_block_5_1_0_split_0
I1001 23:59:14.216336 32484 net.cpp:408] conv5_2/expand -> conv5_2/expand
I1001 23:59:14.217869 32484 net.cpp:150] Setting up conv5_2/expand
I1001 23:59:14.217878 32484 net.cpp:157] Top shape: 2 576 19 32 (700416)
I1001 23:59:14.217880 32484 net.cpp:165] Memory required for data: 841223520
I1001 23:59:14.217885 32484 layer_factory.hpp:77] Creating layer conv5_2/expand/bn
I1001 23:59:14.217890 32484 net.cpp:100] Creating Layer conv5_2/expand/bn
I1001 23:59:14.217892 32484 net.cpp:434] conv5_2/expand/bn <- conv5_2/expand
I1001 23:59:14.217895 32484 net.cpp:395] conv5_2/expand/bn -> conv5_2/expand (in-place)
I1001 23:59:14.218050 32484 net.cpp:150] Setting up conv5_2/expand/bn
I1001 23:59:14.218055 32484 net.cpp:157] Top shape: 2 576 19 32 (700416)
I1001 23:59:14.218056 32484 net.cpp:165] Memory required for data: 844025184
I1001 23:59:14.218060 32484 layer_factory.hpp:77] Creating layer conv5_2/expand/scale
I1001 23:59:14.218065 32484 net.cpp:100] Creating Layer conv5_2/expand/scale
I1001 23:59:14.218067 32484 net.cpp:434] conv5_2/expand/scale <- conv5_2/expand
I1001 23:59:14.218071 32484 net.cpp:395] conv5_2/expand/scale -> conv5_2/expand (in-place)
I1001 23:59:14.218103 32484 layer_factory.hpp:77] Creating layer conv5_2/expand/scale
I1001 23:59:14.218189 32484 net.cpp:150] Setting up conv5_2/expand/scale
I1001 23:59:14.218192 32484 net.cpp:157] Top shape: 2 576 19 32 (700416)
I1001 23:59:14.218194 32484 net.cpp:165] Memory required for data: 846826848
I1001 23:59:14.218197 32484 layer_factory.hpp:77] Creating layer relu5_2/expand
I1001 23:59:14.218201 32484 net.cpp:100] Creating Layer relu5_2/expand
I1001 23:59:14.218204 32484 net.cpp:434] relu5_2/expand <- conv5_2/expand
I1001 23:59:14.218207 32484 net.cpp:395] relu5_2/expand -> conv5_2/expand (in-place)
I1001 23:59:14.218503 32484 net.cpp:150] Setting up relu5_2/expand
I1001 23:59:14.218510 32484 net.cpp:157] Top shape: 2 576 19 32 (700416)
I1001 23:59:14.218511 32484 net.cpp:165] Memory required for data: 849628512
I1001 23:59:14.218514 32484 layer_factory.hpp:77] Creating layer conv5_2/dwise
I1001 23:59:14.218519 32484 net.cpp:100] Creating Layer conv5_2/dwise
I1001 23:59:14.218521 32484 net.cpp:434] conv5_2/dwise <- conv5_2/expand
I1001 23:59:14.218524 32484 net.cpp:408] conv5_2/dwise -> conv5_2/dwise
I1001 23:59:14.218710 32484 net.cpp:150] Setting up conv5_2/dwise
I1001 23:59:14.218715 32484 net.cpp:157] Top shape: 2 576 19 32 (700416)
I1001 23:59:14.218716 32484 net.cpp:165] Memory required for data: 852430176
I1001 23:59:14.218719 32484 layer_factory.hpp:77] Creating layer conv5_2/dwise/bn
I1001 23:59:14.218724 32484 net.cpp:100] Creating Layer conv5_2/dwise/bn
I1001 23:59:14.218726 32484 net.cpp:434] conv5_2/dwise/bn <- conv5_2/dwise
I1001 23:59:14.218739 32484 net.cpp:395] conv5_2/dwise/bn -> conv5_2/dwise (in-place)
I1001 23:59:14.218885 32484 net.cpp:150] Setting up conv5_2/dwise/bn
I1001 23:59:14.218890 32484 net.cpp:157] Top shape: 2 576 19 32 (700416)
I1001 23:59:14.218891 32484 net.cpp:165] Memory required for data: 855231840
I1001 23:59:14.218895 32484 layer_factory.hpp:77] Creating layer conv5_2/dwise/scale
I1001 23:59:14.218900 32484 net.cpp:100] Creating Layer conv5_2/dwise/scale
I1001 23:59:14.218904 32484 net.cpp:434] conv5_2/dwise/scale <- conv5_2/dwise
I1001 23:59:14.218905 32484 net.cpp:395] conv5_2/dwise/scale -> conv5_2/dwise (in-place)
I1001 23:59:14.218935 32484 layer_factory.hpp:77] Creating layer conv5_2/dwise/scale
I1001 23:59:14.219019 32484 net.cpp:150] Setting up conv5_2/dwise/scale
I1001 23:59:14.219023 32484 net.cpp:157] Top shape: 2 576 19 32 (700416)
I1001 23:59:14.219025 32484 net.cpp:165] Memory required for data: 858033504
I1001 23:59:14.219028 32484 layer_factory.hpp:77] Creating layer relu5_2/dwise
I1001 23:59:14.219033 32484 net.cpp:100] Creating Layer relu5_2/dwise
I1001 23:59:14.219034 32484 net.cpp:434] relu5_2/dwise <- conv5_2/dwise
I1001 23:59:14.219038 32484 net.cpp:395] relu5_2/dwise -> conv5_2/dwise (in-place)
I1001 23:59:14.219446 32484 net.cpp:150] Setting up relu5_2/dwise
I1001 23:59:14.219453 32484 net.cpp:157] Top shape: 2 576 19 32 (700416)
I1001 23:59:14.219455 32484 net.cpp:165] Memory required for data: 860835168
I1001 23:59:14.219457 32484 layer_factory.hpp:77] Creating layer conv5_2/linear
I1001 23:59:14.219463 32484 net.cpp:100] Creating Layer conv5_2/linear
I1001 23:59:14.219466 32484 net.cpp:434] conv5_2/linear <- conv5_2/dwise
I1001 23:59:14.219470 32484 net.cpp:408] conv5_2/linear -> conv5_2/linear
I1001 23:59:14.220860 32484 net.cpp:150] Setting up conv5_2/linear
I1001 23:59:14.220867 32484 net.cpp:157] Top shape: 2 96 19 32 (116736)
I1001 23:59:14.220870 32484 net.cpp:165] Memory required for data: 861302112
I1001 23:59:14.220873 32484 layer_factory.hpp:77] Creating layer conv5_2/linear/bn
I1001 23:59:14.220880 32484 net.cpp:100] Creating Layer conv5_2/linear/bn
I1001 23:59:14.220883 32484 net.cpp:434] conv5_2/linear/bn <- conv5_2/linear
I1001 23:59:14.220886 32484 net.cpp:395] conv5_2/linear/bn -> conv5_2/linear (in-place)
I1001 23:59:14.221035 32484 net.cpp:150] Setting up conv5_2/linear/bn
I1001 23:59:14.221040 32484 net.cpp:157] Top shape: 2 96 19 32 (116736)
I1001 23:59:14.221040 32484 net.cpp:165] Memory required for data: 861769056
I1001 23:59:14.221045 32484 layer_factory.hpp:77] Creating layer conv5_2/linear/scale
I1001 23:59:14.221050 32484 net.cpp:100] Creating Layer conv5_2/linear/scale
I1001 23:59:14.221052 32484 net.cpp:434] conv5_2/linear/scale <- conv5_2/linear
I1001 23:59:14.221055 32484 net.cpp:395] conv5_2/linear/scale -> conv5_2/linear (in-place)
I1001 23:59:14.221082 32484 layer_factory.hpp:77] Creating layer conv5_2/linear/scale
I1001 23:59:14.221168 32484 net.cpp:150] Setting up conv5_2/linear/scale
I1001 23:59:14.221171 32484 net.cpp:157] Top shape: 2 96 19 32 (116736)
I1001 23:59:14.221174 32484 net.cpp:165] Memory required for data: 862236000
I1001 23:59:14.221177 32484 layer_factory.hpp:77] Creating layer block_5_2
I1001 23:59:14.221181 32484 net.cpp:100] Creating Layer block_5_2
I1001 23:59:14.221184 32484 net.cpp:434] block_5_2 <- block_5_1_block_5_1_0_split_1
I1001 23:59:14.221187 32484 net.cpp:434] block_5_2 <- conv5_2/linear
I1001 23:59:14.221189 32484 net.cpp:408] block_5_2 -> block_5_2
I1001 23:59:14.221207 32484 net.cpp:150] Setting up block_5_2
I1001 23:59:14.221210 32484 net.cpp:157] Top shape: 2 96 19 32 (116736)
I1001 23:59:14.221212 32484 net.cpp:165] Memory required for data: 862702944
I1001 23:59:14.221215 32484 layer_factory.hpp:77] Creating layer conv5_3/expand
I1001 23:59:14.221218 32484 net.cpp:100] Creating Layer conv5_3/expand
I1001 23:59:14.221220 32484 net.cpp:434] conv5_3/expand <- block_5_2
I1001 23:59:14.221223 32484 net.cpp:408] conv5_3/expand -> conv5_3/expand
I1001 23:59:14.223074 32484 net.cpp:150] Setting up conv5_3/expand
I1001 23:59:14.223083 32484 net.cpp:157] Top shape: 2 576 19 32 (700416)
I1001 23:59:14.223094 32484 net.cpp:165] Memory required for data: 865504608
I1001 23:59:14.223098 32484 layer_factory.hpp:77] Creating layer conv5_3/expand/bn
I1001 23:59:14.223104 32484 net.cpp:100] Creating Layer conv5_3/expand/bn
I1001 23:59:14.223106 32484 net.cpp:434] conv5_3/expand/bn <- conv5_3/expand
I1001 23:59:14.223109 32484 net.cpp:395] conv5_3/expand/bn -> conv5_3/expand (in-place)
I1001 23:59:14.223270 32484 net.cpp:150] Setting up conv5_3/expand/bn
I1001 23:59:14.223275 32484 net.cpp:157] Top shape: 2 576 19 32 (700416)
I1001 23:59:14.223278 32484 net.cpp:165] Memory required for data: 868306272
I1001 23:59:14.223282 32484 layer_factory.hpp:77] Creating layer conv5_3/expand/scale
I1001 23:59:14.223286 32484 net.cpp:100] Creating Layer conv5_3/expand/scale
I1001 23:59:14.223289 32484 net.cpp:434] conv5_3/expand/scale <- conv5_3/expand
I1001 23:59:14.223291 32484 net.cpp:395] conv5_3/expand/scale -> conv5_3/expand (in-place)
I1001 23:59:14.223321 32484 layer_factory.hpp:77] Creating layer conv5_3/expand/scale
I1001 23:59:14.223407 32484 net.cpp:150] Setting up conv5_3/expand/scale
I1001 23:59:14.223412 32484 net.cpp:157] Top shape: 2 576 19 32 (700416)
I1001 23:59:14.223413 32484 net.cpp:165] Memory required for data: 871107936
I1001 23:59:14.223417 32484 layer_factory.hpp:77] Creating layer relu5_3/expand
I1001 23:59:14.223420 32484 net.cpp:100] Creating Layer relu5_3/expand
I1001 23:59:14.223423 32484 net.cpp:434] relu5_3/expand <- conv5_3/expand
I1001 23:59:14.223426 32484 net.cpp:395] relu5_3/expand -> conv5_3/expand (in-place)
I1001 23:59:14.223709 32484 net.cpp:150] Setting up relu5_3/expand
I1001 23:59:14.223714 32484 net.cpp:157] Top shape: 2 576 19 32 (700416)
I1001 23:59:14.223716 32484 net.cpp:165] Memory required for data: 873909600
I1001 23:59:14.223718 32484 layer_factory.hpp:77] Creating layer conv5_3/expand_relu5_3/expand_0_split
I1001 23:59:14.223723 32484 net.cpp:100] Creating Layer conv5_3/expand_relu5_3/expand_0_split
I1001 23:59:14.223724 32484 net.cpp:434] conv5_3/expand_relu5_3/expand_0_split <- conv5_3/expand
I1001 23:59:14.223727 32484 net.cpp:408] conv5_3/expand_relu5_3/expand_0_split -> conv5_3/expand_relu5_3/expand_0_split_0
I1001 23:59:14.223732 32484 net.cpp:408] conv5_3/expand_relu5_3/expand_0_split -> conv5_3/expand_relu5_3/expand_0_split_1
I1001 23:59:14.223737 32484 net.cpp:408] conv5_3/expand_relu5_3/expand_0_split -> conv5_3/expand_relu5_3/expand_0_split_2
I1001 23:59:14.223739 32484 net.cpp:408] conv5_3/expand_relu5_3/expand_0_split -> conv5_3/expand_relu5_3/expand_0_split_3
I1001 23:59:14.223788 32484 net.cpp:150] Setting up conv5_3/expand_relu5_3/expand_0_split
I1001 23:59:14.223791 32484 net.cpp:157] Top shape: 2 576 19 32 (700416)
I1001 23:59:14.223794 32484 net.cpp:157] Top shape: 2 576 19 32 (700416)
I1001 23:59:14.223796 32484 net.cpp:157] Top shape: 2 576 19 32 (700416)
I1001 23:59:14.223798 32484 net.cpp:157] Top shape: 2 576 19 32 (700416)
I1001 23:59:14.223800 32484 net.cpp:165] Memory required for data: 885116256
I1001 23:59:14.223803 32484 layer_factory.hpp:77] Creating layer conv5_3/dwise
I1001 23:59:14.223807 32484 net.cpp:100] Creating Layer conv5_3/dwise
I1001 23:59:14.223809 32484 net.cpp:434] conv5_3/dwise <- conv5_3/expand_relu5_3/expand_0_split_0
I1001 23:59:14.223814 32484 net.cpp:408] conv5_3/dwise -> conv5_3/dwise
I1001 23:59:14.223986 32484 net.cpp:150] Setting up conv5_3/dwise
I1001 23:59:14.223991 32484 net.cpp:157] Top shape: 2 576 10 16 (184320)
I1001 23:59:14.223992 32484 net.cpp:165] Memory required for data: 885853536
I1001 23:59:14.223995 32484 layer_factory.hpp:77] Creating layer conv5_3/dwise/bn
I1001 23:59:14.223999 32484 net.cpp:100] Creating Layer conv5_3/dwise/bn
I1001 23:59:14.224001 32484 net.cpp:434] conv5_3/dwise/bn <- conv5_3/dwise
I1001 23:59:14.224004 32484 net.cpp:395] conv5_3/dwise/bn -> conv5_3/dwise (in-place)
I1001 23:59:14.224148 32484 net.cpp:150] Setting up conv5_3/dwise/bn
I1001 23:59:14.224153 32484 net.cpp:157] Top shape: 2 576 10 16 (184320)
I1001 23:59:14.224153 32484 net.cpp:165] Memory required for data: 886590816
I1001 23:59:14.224165 32484 layer_factory.hpp:77] Creating layer conv5_3/dwise/scale
I1001 23:59:14.224170 32484 net.cpp:100] Creating Layer conv5_3/dwise/scale
I1001 23:59:14.224172 32484 net.cpp:434] conv5_3/dwise/scale <- conv5_3/dwise
I1001 23:59:14.224174 32484 net.cpp:395] conv5_3/dwise/scale -> conv5_3/dwise (in-place)
I1001 23:59:14.224203 32484 layer_factory.hpp:77] Creating layer conv5_3/dwise/scale
I1001 23:59:14.224289 32484 net.cpp:150] Setting up conv5_3/dwise/scale
I1001 23:59:14.224293 32484 net.cpp:157] Top shape: 2 576 10 16 (184320)
I1001 23:59:14.224295 32484 net.cpp:165] Memory required for data: 887328096
I1001 23:59:14.224298 32484 layer_factory.hpp:77] Creating layer relu5_3/dwise
I1001 23:59:14.224303 32484 net.cpp:100] Creating Layer relu5_3/dwise
I1001 23:59:14.224304 32484 net.cpp:434] relu5_3/dwise <- conv5_3/dwise
I1001 23:59:14.224308 32484 net.cpp:395] relu5_3/dwise -> conv5_3/dwise (in-place)
I1001 23:59:14.224714 32484 net.cpp:150] Setting up relu5_3/dwise
I1001 23:59:14.224722 32484 net.cpp:157] Top shape: 2 576 10 16 (184320)
I1001 23:59:14.224725 32484 net.cpp:165] Memory required for data: 888065376
I1001 23:59:14.224727 32484 layer_factory.hpp:77] Creating layer conv5_3/linear
I1001 23:59:14.224732 32484 net.cpp:100] Creating Layer conv5_3/linear
I1001 23:59:14.224735 32484 net.cpp:434] conv5_3/linear <- conv5_3/dwise
I1001 23:59:14.224738 32484 net.cpp:408] conv5_3/linear -> conv5_3/linear
I1001 23:59:14.226882 32484 net.cpp:150] Setting up conv5_3/linear
I1001 23:59:14.226891 32484 net.cpp:157] Top shape: 2 160 10 16 (51200)
I1001 23:59:14.226893 32484 net.cpp:165] Memory required for data: 888270176
I1001 23:59:14.226897 32484 layer_factory.hpp:77] Creating layer conv5_3/linear/bn
I1001 23:59:14.226902 32484 net.cpp:100] Creating Layer conv5_3/linear/bn
I1001 23:59:14.226904 32484 net.cpp:434] conv5_3/linear/bn <- conv5_3/linear
I1001 23:59:14.226909 32484 net.cpp:395] conv5_3/linear/bn -> conv5_3/linear (in-place)
I1001 23:59:14.227057 32484 net.cpp:150] Setting up conv5_3/linear/bn
I1001 23:59:14.227061 32484 net.cpp:157] Top shape: 2 160 10 16 (51200)
I1001 23:59:14.227062 32484 net.cpp:165] Memory required for data: 888474976
I1001 23:59:14.227067 32484 layer_factory.hpp:77] Creating layer conv5_3/linear/scale
I1001 23:59:14.227071 32484 net.cpp:100] Creating Layer conv5_3/linear/scale
I1001 23:59:14.227072 32484 net.cpp:434] conv5_3/linear/scale <- conv5_3/linear
I1001 23:59:14.227075 32484 net.cpp:395] conv5_3/linear/scale -> conv5_3/linear (in-place)
I1001 23:59:14.227105 32484 layer_factory.hpp:77] Creating layer conv5_3/linear/scale
I1001 23:59:14.227190 32484 net.cpp:150] Setting up conv5_3/linear/scale
I1001 23:59:14.227193 32484 net.cpp:157] Top shape: 2 160 10 16 (51200)
I1001 23:59:14.227195 32484 net.cpp:165] Memory required for data: 888679776
I1001 23:59:14.227212 32484 layer_factory.hpp:77] Creating layer conv5_3/linear_conv5_3/linear/scale_0_split
I1001 23:59:14.227221 32484 net.cpp:100] Creating Layer conv5_3/linear_conv5_3/linear/scale_0_split
I1001 23:59:14.227223 32484 net.cpp:434] conv5_3/linear_conv5_3/linear/scale_0_split <- conv5_3/linear
I1001 23:59:14.227226 32484 net.cpp:408] conv5_3/linear_conv5_3/linear/scale_0_split -> conv5_3/linear_conv5_3/linear/scale_0_split_0
I1001 23:59:14.227231 32484 net.cpp:408] conv5_3/linear_conv5_3/linear/scale_0_split -> conv5_3/linear_conv5_3/linear/scale_0_split_1
I1001 23:59:14.227258 32484 net.cpp:150] Setting up conv5_3/linear_conv5_3/linear/scale_0_split
I1001 23:59:14.227262 32484 net.cpp:157] Top shape: 2 160 10 16 (51200)
I1001 23:59:14.227264 32484 net.cpp:157] Top shape: 2 160 10 16 (51200)
I1001 23:59:14.227267 32484 net.cpp:165] Memory required for data: 889089376
I1001 23:59:14.227269 32484 layer_factory.hpp:77] Creating layer conv6_1/expand
I1001 23:59:14.227273 32484 net.cpp:100] Creating Layer conv6_1/expand
I1001 23:59:14.227275 32484 net.cpp:434] conv6_1/expand <- conv5_3/linear_conv5_3/linear/scale_0_split_0
I1001 23:59:14.227279 32484 net.cpp:408] conv6_1/expand -> conv6_1/expand
I1001 23:59:14.229274 32484 net.cpp:150] Setting up conv6_1/expand
I1001 23:59:14.229282 32484 net.cpp:157] Top shape: 2 960 10 16 (307200)
I1001 23:59:14.229284 32484 net.cpp:165] Memory required for data: 890318176
I1001 23:59:14.229290 32484 layer_factory.hpp:77] Creating layer conv6_1/expand/bn
I1001 23:59:14.229295 32484 net.cpp:100] Creating Layer conv6_1/expand/bn
I1001 23:59:14.229296 32484 net.cpp:434] conv6_1/expand/bn <- conv6_1/expand
I1001 23:59:14.229300 32484 net.cpp:395] conv6_1/expand/bn -> conv6_1/expand (in-place)
I1001 23:59:14.229460 32484 net.cpp:150] Setting up conv6_1/expand/bn
I1001 23:59:14.229463 32484 net.cpp:157] Top shape: 2 960 10 16 (307200)
I1001 23:59:14.229465 32484 net.cpp:165] Memory required for data: 891546976
I1001 23:59:14.229470 32484 layer_factory.hpp:77] Creating layer conv6_1/expand/scale
I1001 23:59:14.229475 32484 net.cpp:100] Creating Layer conv6_1/expand/scale
I1001 23:59:14.229476 32484 net.cpp:434] conv6_1/expand/scale <- conv6_1/expand
I1001 23:59:14.229480 32484 net.cpp:395] conv6_1/expand/scale -> conv6_1/expand (in-place)
I1001 23:59:14.229513 32484 layer_factory.hpp:77] Creating layer conv6_1/expand/scale
I1001 23:59:14.229599 32484 net.cpp:150] Setting up conv6_1/expand/scale
I1001 23:59:14.229604 32484 net.cpp:157] Top shape: 2 960 10 16 (307200)
I1001 23:59:14.229605 32484 net.cpp:165] Memory required for data: 892775776
I1001 23:59:14.229609 32484 layer_factory.hpp:77] Creating layer relu6_1/expand
I1001 23:59:14.229614 32484 net.cpp:100] Creating Layer relu6_1/expand
I1001 23:59:14.229615 32484 net.cpp:434] relu6_1/expand <- conv6_1/expand
I1001 23:59:14.229617 32484 net.cpp:395] relu6_1/expand -> conv6_1/expand (in-place)
I1001 23:59:14.230087 32484 net.cpp:150] Setting up relu6_1/expand
I1001 23:59:14.230093 32484 net.cpp:157] Top shape: 2 960 10 16 (307200)
I1001 23:59:14.230095 32484 net.cpp:165] Memory required for data: 894004576
I1001 23:59:14.230098 32484 layer_factory.hpp:77] Creating layer conv6_1/dwise
I1001 23:59:14.230104 32484 net.cpp:100] Creating Layer conv6_1/dwise
I1001 23:59:14.230108 32484 net.cpp:434] conv6_1/dwise <- conv6_1/expand
I1001 23:59:14.230110 32484 net.cpp:408] conv6_1/dwise -> conv6_1/dwise
I1001 23:59:14.230338 32484 net.cpp:150] Setting up conv6_1/dwise
I1001 23:59:14.230345 32484 net.cpp:157] Top shape: 2 960 10 16 (307200)
I1001 23:59:14.230348 32484 net.cpp:165] Memory required for data: 895233376
I1001 23:59:14.230353 32484 layer_factory.hpp:77] Creating layer conv6_1/dwise/bn
I1001 23:59:14.230360 32484 net.cpp:100] Creating Layer conv6_1/dwise/bn
I1001 23:59:14.230363 32484 net.cpp:434] conv6_1/dwise/bn <- conv6_1/dwise
I1001 23:59:14.230368 32484 net.cpp:395] conv6_1/dwise/bn -> conv6_1/dwise (in-place)
I1001 23:59:14.230537 32484 net.cpp:150] Setting up conv6_1/dwise/bn
I1001 23:59:14.230542 32484 net.cpp:157] Top shape: 2 960 10 16 (307200)
I1001 23:59:14.230545 32484 net.cpp:165] Memory required for data: 896462176
I1001 23:59:14.230551 32484 layer_factory.hpp:77] Creating layer conv6_1/dwise/scale
I1001 23:59:14.230562 32484 net.cpp:100] Creating Layer conv6_1/dwise/scale
I1001 23:59:14.230566 32484 net.cpp:434] conv6_1/dwise/scale <- conv6_1/dwise
I1001 23:59:14.230571 32484 net.cpp:395] conv6_1/dwise/scale -> conv6_1/dwise (in-place)
I1001 23:59:14.230612 32484 layer_factory.hpp:77] Creating layer conv6_1/dwise/scale
I1001 23:59:14.230705 32484 net.cpp:150] Setting up conv6_1/dwise/scale
I1001 23:59:14.230712 32484 net.cpp:157] Top shape: 2 960 10 16 (307200)
I1001 23:59:14.230715 32484 net.cpp:165] Memory required for data: 897690976
I1001 23:59:14.230720 32484 layer_factory.hpp:77] Creating layer relu6_1/dwise
I1001 23:59:14.230726 32484 net.cpp:100] Creating Layer relu6_1/dwise
I1001 23:59:14.230729 32484 net.cpp:434] relu6_1/dwise <- conv6_1/dwise
I1001 23:59:14.230733 32484 net.cpp:395] relu6_1/dwise -> conv6_1/dwise (in-place)
I1001 23:59:14.231078 32484 net.cpp:150] Setting up relu6_1/dwise
I1001 23:59:14.231086 32484 net.cpp:157] Top shape: 2 960 10 16 (307200)
I1001 23:59:14.231103 32484 net.cpp:165] Memory required for data: 898919776
I1001 23:59:14.231106 32484 layer_factory.hpp:77] Creating layer conv6_1/linear
I1001 23:59:14.231117 32484 net.cpp:100] Creating Layer conv6_1/linear
I1001 23:59:14.231120 32484 net.cpp:434] conv6_1/linear <- conv6_1/dwise
I1001 23:59:14.231127 32484 net.cpp:408] conv6_1/linear -> conv6_1/linear
I1001 23:59:14.234158 32484 net.cpp:150] Setting up conv6_1/linear
I1001 23:59:14.234172 32484 net.cpp:157] Top shape: 2 160 10 16 (51200)
I1001 23:59:14.234175 32484 net.cpp:165] Memory required for data: 899124576
I1001 23:59:14.234181 32484 layer_factory.hpp:77] Creating layer conv6_1/linear/bn
I1001 23:59:14.234189 32484 net.cpp:100] Creating Layer conv6_1/linear/bn
I1001 23:59:14.234194 32484 net.cpp:434] conv6_1/linear/bn <- conv6_1/linear
I1001 23:59:14.234200 32484 net.cpp:395] conv6_1/linear/bn -> conv6_1/linear (in-place)
I1001 23:59:14.234406 32484 net.cpp:150] Setting up conv6_1/linear/bn
I1001 23:59:14.234412 32484 net.cpp:157] Top shape: 2 160 10 16 (51200)
I1001 23:59:14.234416 32484 net.cpp:165] Memory required for data: 899329376
I1001 23:59:14.234421 32484 layer_factory.hpp:77] Creating layer conv6_1/linear/scale
I1001 23:59:14.234427 32484 net.cpp:100] Creating Layer conv6_1/linear/scale
I1001 23:59:14.234431 32484 net.cpp:434] conv6_1/linear/scale <- conv6_1/linear
I1001 23:59:14.234434 32484 net.cpp:395] conv6_1/linear/scale -> conv6_1/linear (in-place)
I1001 23:59:14.234474 32484 layer_factory.hpp:77] Creating layer conv6_1/linear/scale
I1001 23:59:14.234589 32484 net.cpp:150] Setting up conv6_1/linear/scale
I1001 23:59:14.234596 32484 net.cpp:157] Top shape: 2 160 10 16 (51200)
I1001 23:59:14.234598 32484 net.cpp:165] Memory required for data: 899534176
I1001 23:59:14.234603 32484 layer_factory.hpp:77] Creating layer block_6_1
I1001 23:59:14.234608 32484 net.cpp:100] Creating Layer block_6_1
I1001 23:59:14.234612 32484 net.cpp:434] block_6_1 <- conv5_3/linear_conv5_3/linear/scale_0_split_1
I1001 23:59:14.234616 32484 net.cpp:434] block_6_1 <- conv6_1/linear
I1001 23:59:14.234623 32484 net.cpp:408] block_6_1 -> block_6_1
I1001 23:59:14.234645 32484 net.cpp:150] Setting up block_6_1
I1001 23:59:14.234650 32484 net.cpp:157] Top shape: 2 160 10 16 (51200)
I1001 23:59:14.234654 32484 net.cpp:165] Memory required for data: 899738976
I1001 23:59:14.234657 32484 layer_factory.hpp:77] Creating layer block_6_1_block_6_1_0_split
I1001 23:59:14.234661 32484 net.cpp:100] Creating Layer block_6_1_block_6_1_0_split
I1001 23:59:14.234664 32484 net.cpp:434] block_6_1_block_6_1_0_split <- block_6_1
I1001 23:59:14.234669 32484 net.cpp:408] block_6_1_block_6_1_0_split -> block_6_1_block_6_1_0_split_0
I1001 23:59:14.234674 32484 net.cpp:408] block_6_1_block_6_1_0_split -> block_6_1_block_6_1_0_split_1
I1001 23:59:14.234707 32484 net.cpp:150] Setting up block_6_1_block_6_1_0_split
I1001 23:59:14.234714 32484 net.cpp:157] Top shape: 2 160 10 16 (51200)
I1001 23:59:14.234717 32484 net.cpp:157] Top shape: 2 160 10 16 (51200)
I1001 23:59:14.234720 32484 net.cpp:165] Memory required for data: 900148576
I1001 23:59:14.234722 32484 layer_factory.hpp:77] Creating layer conv6_2/expand
I1001 23:59:14.234728 32484 net.cpp:100] Creating Layer conv6_2/expand
I1001 23:59:14.234732 32484 net.cpp:434] conv6_2/expand <- block_6_1_block_6_1_0_split_0
I1001 23:59:14.234738 32484 net.cpp:408] conv6_2/expand -> conv6_2/expand
I1001 23:59:14.238373 32484 net.cpp:150] Setting up conv6_2/expand
I1001 23:59:14.238385 32484 net.cpp:157] Top shape: 2 960 10 16 (307200)
I1001 23:59:14.238389 32484 net.cpp:165] Memory required for data: 901377376
I1001 23:59:14.238395 32484 layer_factory.hpp:77] Creating layer conv6_2/expand/bn
I1001 23:59:14.238407 32484 net.cpp:100] Creating Layer conv6_2/expand/bn
I1001 23:59:14.238411 32484 net.cpp:434] conv6_2/expand/bn <- conv6_2/expand
I1001 23:59:14.238417 32484 net.cpp:395] conv6_2/expand/bn -> conv6_2/expand (in-place)
I1001 23:59:14.238631 32484 net.cpp:150] Setting up conv6_2/expand/bn
I1001 23:59:14.238636 32484 net.cpp:157] Top shape: 2 960 10 16 (307200)
I1001 23:59:14.238648 32484 net.cpp:165] Memory required for data: 902606176
I1001 23:59:14.238656 32484 layer_factory.hpp:77] Creating layer conv6_2/expand/scale
I1001 23:59:14.238664 32484 net.cpp:100] Creating Layer conv6_2/expand/scale
I1001 23:59:14.238668 32484 net.cpp:434] conv6_2/expand/scale <- conv6_2/expand
I1001 23:59:14.238672 32484 net.cpp:395] conv6_2/expand/scale -> conv6_2/expand (in-place)
I1001 23:59:14.238718 32484 layer_factory.hpp:77] Creating layer conv6_2/expand/scale
I1001 23:59:14.238833 32484 net.cpp:150] Setting up conv6_2/expand/scale
I1001 23:59:14.238840 32484 net.cpp:157] Top shape: 2 960 10 16 (307200)
I1001 23:59:14.238843 32484 net.cpp:165] Memory required for data: 903834976
I1001 23:59:14.238848 32484 layer_factory.hpp:77] Creating layer relu6_2/expand
I1001 23:59:14.238853 32484 net.cpp:100] Creating Layer relu6_2/expand
I1001 23:59:14.238857 32484 net.cpp:434] relu6_2/expand <- conv6_2/expand
I1001 23:59:14.238862 32484 net.cpp:395] relu6_2/expand -> conv6_2/expand (in-place)
I1001 23:59:14.239370 32484 net.cpp:150] Setting up relu6_2/expand
I1001 23:59:14.239379 32484 net.cpp:157] Top shape: 2 960 10 16 (307200)
I1001 23:59:14.239382 32484 net.cpp:165] Memory required for data: 905063776
I1001 23:59:14.239385 32484 layer_factory.hpp:77] Creating layer conv6_2/dwise
I1001 23:59:14.239394 32484 net.cpp:100] Creating Layer conv6_2/dwise
I1001 23:59:14.239398 32484 net.cpp:434] conv6_2/dwise <- conv6_2/expand
I1001 23:59:14.239403 32484 net.cpp:408] conv6_2/dwise -> conv6_2/dwise
I1001 23:59:14.239694 32484 net.cpp:150] Setting up conv6_2/dwise
I1001 23:59:14.239701 32484 net.cpp:157] Top shape: 2 960 10 16 (307200)
I1001 23:59:14.239703 32484 net.cpp:165] Memory required for data: 906292576
I1001 23:59:14.239708 32484 layer_factory.hpp:77] Creating layer conv6_2/dwise/bn
I1001 23:59:14.239713 32484 net.cpp:100] Creating Layer conv6_2/dwise/bn
I1001 23:59:14.239718 32484 net.cpp:434] conv6_2/dwise/bn <- conv6_2/dwise
I1001 23:59:14.239722 32484 net.cpp:395] conv6_2/dwise/bn -> conv6_2/dwise (in-place)
I1001 23:59:14.239924 32484 net.cpp:150] Setting up conv6_2/dwise/bn
I1001 23:59:14.239930 32484 net.cpp:157] Top shape: 2 960 10 16 (307200)
I1001 23:59:14.239933 32484 net.cpp:165] Memory required for data: 907521376
I1001 23:59:14.239939 32484 layer_factory.hpp:77] Creating layer conv6_2/dwise/scale
I1001 23:59:14.239944 32484 net.cpp:100] Creating Layer conv6_2/dwise/scale
I1001 23:59:14.239948 32484 net.cpp:434] conv6_2/dwise/scale <- conv6_2/dwise
I1001 23:59:14.239951 32484 net.cpp:395] conv6_2/dwise/scale -> conv6_2/dwise (in-place)
I1001 23:59:14.239990 32484 layer_factory.hpp:77] Creating layer conv6_2/dwise/scale
I1001 23:59:14.240105 32484 net.cpp:150] Setting up conv6_2/dwise/scale
I1001 23:59:14.240111 32484 net.cpp:157] Top shape: 2 960 10 16 (307200)
I1001 23:59:14.240114 32484 net.cpp:165] Memory required for data: 908750176
I1001 23:59:14.240118 32484 layer_factory.hpp:77] Creating layer relu6_2/dwise
I1001 23:59:14.240123 32484 net.cpp:100] Creating Layer relu6_2/dwise
I1001 23:59:14.240124 32484 net.cpp:434] relu6_2/dwise <- conv6_2/dwise
I1001 23:59:14.240128 32484 net.cpp:395] relu6_2/dwise -> conv6_2/dwise (in-place)
I1001 23:59:14.240504 32484 net.cpp:150] Setting up relu6_2/dwise
I1001 23:59:14.240511 32484 net.cpp:157] Top shape: 2 960 10 16 (307200)
I1001 23:59:14.240514 32484 net.cpp:165] Memory required for data: 909978976
I1001 23:59:14.240517 32484 layer_factory.hpp:77] Creating layer conv6_2/linear
I1001 23:59:14.240523 32484 net.cpp:100] Creating Layer conv6_2/linear
I1001 23:59:14.240526 32484 net.cpp:434] conv6_2/linear <- conv6_2/dwise
I1001 23:59:14.240530 32484 net.cpp:408] conv6_2/linear -> conv6_2/linear
I1001 23:59:14.243551 32484 net.cpp:150] Setting up conv6_2/linear
I1001 23:59:14.243561 32484 net.cpp:157] Top shape: 2 160 10 16 (51200)
I1001 23:59:14.243564 32484 net.cpp:165] Memory required for data: 910183776
I1001 23:59:14.243569 32484 layer_factory.hpp:77] Creating layer conv6_2/linear/bn
I1001 23:59:14.243577 32484 net.cpp:100] Creating Layer conv6_2/linear/bn
I1001 23:59:14.243592 32484 net.cpp:434] conv6_2/linear/bn <- conv6_2/linear
I1001 23:59:14.243597 32484 net.cpp:395] conv6_2/linear/bn -> conv6_2/linear (in-place)
I1001 23:59:14.243809 32484 net.cpp:150] Setting up conv6_2/linear/bn
I1001 23:59:14.243816 32484 net.cpp:157] Top shape: 2 160 10 16 (51200)
I1001 23:59:14.243818 32484 net.cpp:165] Memory required for data: 910388576
I1001 23:59:14.243824 32484 layer_factory.hpp:77] Creating layer conv6_2/linear/scale
I1001 23:59:14.243829 32484 net.cpp:100] Creating Layer conv6_2/linear/scale
I1001 23:59:14.243832 32484 net.cpp:434] conv6_2/linear/scale <- conv6_2/linear
I1001 23:59:14.243837 32484 net.cpp:395] conv6_2/linear/scale -> conv6_2/linear (in-place)
I1001 23:59:14.243876 32484 layer_factory.hpp:77] Creating layer conv6_2/linear/scale
I1001 23:59:14.243993 32484 net.cpp:150] Setting up conv6_2/linear/scale
I1001 23:59:14.243999 32484 net.cpp:157] Top shape: 2 160 10 16 (51200)
I1001 23:59:14.244000 32484 net.cpp:165] Memory required for data: 910593376
I1001 23:59:14.244004 32484 layer_factory.hpp:77] Creating layer block_6_2
I1001 23:59:14.244009 32484 net.cpp:100] Creating Layer block_6_2
I1001 23:59:14.244014 32484 net.cpp:434] block_6_2 <- block_6_1_block_6_1_0_split_1
I1001 23:59:14.244017 32484 net.cpp:434] block_6_2 <- conv6_2/linear
I1001 23:59:14.244022 32484 net.cpp:408] block_6_2 -> block_6_2
I1001 23:59:14.244043 32484 net.cpp:150] Setting up block_6_2
I1001 23:59:14.244048 32484 net.cpp:157] Top shape: 2 160 10 16 (51200)
I1001 23:59:14.244050 32484 net.cpp:165] Memory required for data: 910798176
I1001 23:59:14.244053 32484 layer_factory.hpp:77] Creating layer conv6_3/expand
I1001 23:59:14.244060 32484 net.cpp:100] Creating Layer conv6_3/expand
I1001 23:59:14.244062 32484 net.cpp:434] conv6_3/expand <- block_6_2
I1001 23:59:14.244066 32484 net.cpp:408] conv6_3/expand -> conv6_3/expand
I1001 23:59:14.247153 32484 net.cpp:150] Setting up conv6_3/expand
I1001 23:59:14.247162 32484 net.cpp:157] Top shape: 2 960 10 16 (307200)
I1001 23:59:14.247166 32484 net.cpp:165] Memory required for data: 912026976
I1001 23:59:14.247171 32484 layer_factory.hpp:77] Creating layer conv6_3/expand/bn
I1001 23:59:14.247179 32484 net.cpp:100] Creating Layer conv6_3/expand/bn
I1001 23:59:14.247184 32484 net.cpp:434] conv6_3/expand/bn <- conv6_3/expand
I1001 23:59:14.247187 32484 net.cpp:395] conv6_3/expand/bn -> conv6_3/expand (in-place)
I1001 23:59:14.247401 32484 net.cpp:150] Setting up conv6_3/expand/bn
I1001 23:59:14.247407 32484 net.cpp:157] Top shape: 2 960 10 16 (307200)
I1001 23:59:14.247411 32484 net.cpp:165] Memory required for data: 913255776
I1001 23:59:14.247416 32484 layer_factory.hpp:77] Creating layer conv6_3/expand/scale
I1001 23:59:14.247422 32484 net.cpp:100] Creating Layer conv6_3/expand/scale
I1001 23:59:14.247426 32484 net.cpp:434] conv6_3/expand/scale <- conv6_3/expand
I1001 23:59:14.247429 32484 net.cpp:395] conv6_3/expand/scale -> conv6_3/expand (in-place)
I1001 23:59:14.247473 32484 layer_factory.hpp:77] Creating layer conv6_3/expand/scale
I1001 23:59:14.247591 32484 net.cpp:150] Setting up conv6_3/expand/scale
I1001 23:59:14.247597 32484 net.cpp:157] Top shape: 2 960 10 16 (307200)
I1001 23:59:14.247601 32484 net.cpp:165] Memory required for data: 914484576
I1001 23:59:14.247606 32484 layer_factory.hpp:77] Creating layer relu6_3/expand
I1001 23:59:14.247611 32484 net.cpp:100] Creating Layer relu6_3/expand
I1001 23:59:14.247615 32484 net.cpp:434] relu6_3/expand <- conv6_3/expand
I1001 23:59:14.247620 32484 net.cpp:395] relu6_3/expand -> conv6_3/expand (in-place)
I1001 23:59:14.248003 32484 net.cpp:150] Setting up relu6_3/expand
I1001 23:59:14.248011 32484 net.cpp:157] Top shape: 2 960 10 16 (307200)
I1001 23:59:14.248014 32484 net.cpp:165] Memory required for data: 915713376
I1001 23:59:14.248018 32484 layer_factory.hpp:77] Creating layer conv6_3/dwise
I1001 23:59:14.248025 32484 net.cpp:100] Creating Layer conv6_3/dwise
I1001 23:59:14.248029 32484 net.cpp:434] conv6_3/dwise <- conv6_3/expand
I1001 23:59:14.248045 32484 net.cpp:408] conv6_3/dwise -> conv6_3/dwise
I1001 23:59:14.248358 32484 net.cpp:150] Setting up conv6_3/dwise
I1001 23:59:14.248366 32484 net.cpp:157] Top shape: 2 960 10 16 (307200)
I1001 23:59:14.248368 32484 net.cpp:165] Memory required for data: 916942176
I1001 23:59:14.248373 32484 layer_factory.hpp:77] Creating layer conv6_3/dwise/bn
I1001 23:59:14.248378 32484 net.cpp:100] Creating Layer conv6_3/dwise/bn
I1001 23:59:14.248380 32484 net.cpp:434] conv6_3/dwise/bn <- conv6_3/dwise
I1001 23:59:14.248385 32484 net.cpp:395] conv6_3/dwise/bn -> conv6_3/dwise (in-place)
I1001 23:59:14.248610 32484 net.cpp:150] Setting up conv6_3/dwise/bn
I1001 23:59:14.248615 32484 net.cpp:157] Top shape: 2 960 10 16 (307200)
I1001 23:59:14.248618 32484 net.cpp:165] Memory required for data: 918170976
I1001 23:59:14.248625 32484 layer_factory.hpp:77] Creating layer conv6_3/dwise/scale
I1001 23:59:14.248631 32484 net.cpp:100] Creating Layer conv6_3/dwise/scale
I1001 23:59:14.248633 32484 net.cpp:434] conv6_3/dwise/scale <- conv6_3/dwise
I1001 23:59:14.248638 32484 net.cpp:395] conv6_3/dwise/scale -> conv6_3/dwise (in-place)
I1001 23:59:14.248678 32484 layer_factory.hpp:77] Creating layer conv6_3/dwise/scale
I1001 23:59:14.248800 32484 net.cpp:150] Setting up conv6_3/dwise/scale
I1001 23:59:14.248806 32484 net.cpp:157] Top shape: 2 960 10 16 (307200)
I1001 23:59:14.248811 32484 net.cpp:165] Memory required for data: 919399776
I1001 23:59:14.248816 32484 layer_factory.hpp:77] Creating layer relu6_3/dwise
I1001 23:59:14.248821 32484 net.cpp:100] Creating Layer relu6_3/dwise
I1001 23:59:14.248824 32484 net.cpp:434] relu6_3/dwise <- conv6_3/dwise
I1001 23:59:14.248829 32484 net.cpp:395] relu6_3/dwise -> conv6_3/dwise (in-place)
I1001 23:59:14.249227 32484 net.cpp:150] Setting up relu6_3/dwise
I1001 23:59:14.249234 32484 net.cpp:157] Top shape: 2 960 10 16 (307200)
I1001 23:59:14.249238 32484 net.cpp:165] Memory required for data: 920628576
I1001 23:59:14.249241 32484 layer_factory.hpp:77] Creating layer conv6_3/linear
…
I1001 23:59:14.430366 32484 layer_factory.hpp:77] Creating layer conv8_1
I1001 23:59:14.430375 32484 net.cpp:100] Creating Layer conv8_1
I1001 23:59:14.430378 32484 net.cpp:434] conv8_1 <- conv7_2/sep_relu7_2/sep_0_split_0
I1001 23:59:14.430383 32484 net.cpp:408] conv8_1 -> conv8_1
I1001 23:59:14.432327 32484 net.cpp:150] Setting up conv8_1
I1001 23:59:14.432337 32484 net.cpp:157] Top shape: 1 128 5 8 (5120)
I1001 23:59:14.432339 32484 net.cpp:165] Memory required for data: 468649632
I1001 23:59:14.432345 32484 layer_factory.hpp:77] Creating layer conv8_1_relu
I1001 23:59:14.432353 32484 net.cpp:100] Creating Layer conv8_1_relu
I1001 23:59:14.432356 32484 net.cpp:434] conv8_1_relu <- conv8_1
I1001 23:59:14.432361 32484 net.cpp:395] conv8_1_relu -> conv8_1 (in-place)
I1001 23:59:14.432652 32484 net.cpp:150] Setting up conv8_1_relu
I1001 23:59:14.432658 32484 net.cpp:157] Top shape: 1 128 5 8 (5120)
I1001 23:59:14.432662 32484 net.cpp:165] Memory required for data: 468670112
I1001 23:59:14.432664 32484 layer_factory.hpp:77] Creating layer conv8_2/dw
I1001 23:59:14.432672 32484 net.cpp:100] Creating Layer conv8_2/dw
I1001 23:59:14.432675 32484 net.cpp:434] conv8_2/dw <- conv8_1
I1001 23:59:14.432682 32484 net.cpp:408] conv8_2/dw -> conv8_2/dw
I1001 23:59:14.432826 32484 net.cpp:150] Setting up conv8_2/dw
I1001 23:59:14.432832 32484 net.cpp:157] Top shape: 1 128 3 4 (1536)
I1001 23:59:14.432834 32484 net.cpp:165] Memory required for data: 468676256
I1001 23:59:14.432838 32484 layer_factory.hpp:77] Creating layer conv8_2/dw/bn
I1001 23:59:14.432845 32484 net.cpp:100] Creating Layer conv8_2/dw/bn
I1001 23:59:14.432849 32484 net.cpp:434] conv8_2/dw/bn <- conv8_2/dw
I1001 23:59:14.432853 32484 net.cpp:395] conv8_2/dw/bn -> conv8_2/dw (in-place)
I1001 23:59:14.432971 32484 net.cpp:150] Setting up conv8_2/dw/bn
I1001 23:59:14.432977 32484 net.cpp:157] Top shape: 1 128 3 4 (1536)
I1001 23:59:14.432979 32484 net.cpp:165] Memory required for data: 468682400
I1001 23:59:14.432986 32484 layer_factory.hpp:77] Creating layer conv8_2/dw/scale
I1001 23:59:14.432993 32484 net.cpp:100] Creating Layer conv8_2/dw/scale
I1001 23:59:14.432997 32484 net.cpp:434] conv8_2/dw/scale <- conv8_2/dw
I1001 23:59:14.433002 32484 net.cpp:395] conv8_2/dw/scale -> conv8_2/dw (in-place)
I1001 23:59:14.433030 32484 layer_factory.hpp:77] Creating layer conv8_2/dw/scale
I1001 23:59:14.433107 32484 net.cpp:150] Setting up conv8_2/dw/scale
I1001 23:59:14.433112 32484 net.cpp:157] Top shape: 1 128 3 4 (1536)
I1001 23:59:14.433115 32484 net.cpp:165] Memory required for data: 468688544
I1001 23:59:14.433121 32484 layer_factory.hpp:77] Creating layer relu8_2/dw
I1001 23:59:14.433126 32484 net.cpp:100] Creating Layer relu8_2/dw
I1001 23:59:14.433130 32484 net.cpp:434] relu8_2/dw <- conv8_2/dw
I1001 23:59:14.433135 32484 net.cpp:395] relu8_2/dw -> conv8_2/dw (in-place)
I1001 23:59:14.433423 32484 net.cpp:150] Setting up relu8_2/dw
I1001 23:59:14.433430 32484 net.cpp:157] Top shape: 1 128 3 4 (1536)
I1001 23:59:14.433434 32484 net.cpp:165] Memory required for data: 468694688
I1001 23:59:14.433437 32484 layer_factory.hpp:77] Creating layer conv8_2/sep
I1001 23:59:14.433444 32484 net.cpp:100] Creating Layer conv8_2/sep
I1001 23:59:14.433449 32484 net.cpp:434] conv8_2/sep <- conv8_2/dw
I1001 23:59:14.433454 32484 net.cpp:408] conv8_2/sep -> conv8_2/sep
I1001 23:59:14.434844 32484 net.cpp:150] Setting up conv8_2/sep
I1001 23:59:14.434851 32484 net.cpp:157] Top shape: 1 256 3 4 (3072)
I1001 23:59:14.434854 32484 net.cpp:165] Memory required for data: 468706976
I1001 23:59:14.434860 32484 layer_factory.hpp:77] Creating layer conv8_2/sep/bn
I1001 23:59:14.434866 32484 net.cpp:100] Creating Layer conv8_2/sep/bn
I1001 23:59:14.434870 32484 net.cpp:434] conv8_2/sep/bn <- conv8_2/sep
I1001 23:59:14.434875 32484 net.cpp:395] conv8_2/sep/bn -> conv8_2/sep (in-place)
I1001 23:59:14.435010 32484 net.cpp:150] Setting up conv8_2/sep/bn
I1001 23:59:14.435016 32484 net.cpp:157] Top shape: 1 256 3 4 (3072)
I1001 23:59:14.435019 32484 net.cpp:165] Memory required for data: 468719264
I1001 23:59:14.435026 32484 layer_factory.hpp:77] Creating layer conv8_2/sep/scale
I1001 23:59:14.435032 32484 net.cpp:100] Creating Layer conv8_2/sep/scale
I1001 23:59:14.435035 32484 net.cpp:434] conv8_2/sep/scale <- conv8_2/sep
I1001 23:59:14.435042 32484 net.cpp:395] conv8_2/sep/scale -> conv8_2/sep (in-place)
I1001 23:59:14.435070 32484 layer_factory.hpp:77] Creating layer conv8_2/sep/scale
I1001 23:59:14.435138 32484 net.cpp:150] Setting up conv8_2/sep/scale
I1001 23:59:14.435144 32484 net.cpp:157] Top shape: 1 256 3 4 (3072)
I1001 23:59:14.435147 32484 net.cpp:165] Memory required for data: 468731552
I1001 23:59:14.435153 32484 layer_factory.hpp:77] Creating layer relu8_2/sep
I1001 23:59:14.435158 32484 net.cpp:100] Creating Layer relu8_2/sep
I1001 23:59:14.435160 32484 net.cpp:434] relu8_2/sep <- conv8_2/sep
I1001 23:59:14.435164 32484 net.cpp:395] relu8_2/sep -> conv8_2/sep (in-place)
I1001 23:59:14.435463 32484 net.cpp:150] Setting up relu8_2/sep
I1001 23:59:14.435470 32484 net.cpp:157] Top shape: 1 256 3 4 (3072)
I1001 23:59:14.435473 32484 net.cpp:165] Memory required for data: 468743840
I1001 23:59:14.435477 32484 layer_factory.hpp:77] Creating layer conv8_2/sep_relu8_2/sep_0_split
I1001 23:59:14.435482 32484 net.cpp:100] Creating Layer conv8_2/sep_relu8_2/sep_0_split
I1001 23:59:14.435485 32484 net.cpp:434] conv8_2/sep_relu8_2/sep_0_split <- conv8_2/sep
I1001 23:59:14.435492 32484 net.cpp:408] conv8_2/sep_relu8_2/sep_0_split -> conv8_2/sep_relu8_2/sep_0_split_0
I1001 23:59:14.435499 32484 net.cpp:408] conv8_2/sep_relu8_2/sep_0_split -> conv8_2/sep_relu8_2/sep_0_split_1
I1001 23:59:14.435505 32484 net.cpp:408] conv8_2/sep_relu8_2/sep_0_split -> conv8_2/sep_relu8_2/sep_0_split_2
I1001 23:59:14.435511 32484 net.cpp:408] conv8_2/sep_relu8_2/sep_0_split -> conv8_2/sep_relu8_2/sep_0_split_3
I1001 23:59:14.435557 32484 net.cpp:150] Setting up conv8_2/sep_relu8_2/sep_0_split
I1001 23:59:14.435562 32484 net.cpp:157] Top shape: 1 256 3 4 (3072)
I1001 23:59:14.435565 32484 net.cpp:157] Top shape: 1 256 3 4 (3072)
I1001 23:59:14.435570 32484 net.cpp:157] Top shape: 1 256 3 4 (3072)
I1001 23:59:14.435575 32484 net.cpp:157] Top shape: 1 256 3 4 (3072)
I1001 23:59:14.435577 32484 net.cpp:165] Memory required for data: 468792992
I1001 23:59:14.435580 32484 layer_factory.hpp:77] Creating layer conv9_1
I1001 23:59:14.435596 32484 net.cpp:100] Creating Layer conv9_1
I1001 23:59:14.435600 32484 net.cpp:434] conv9_1 <- conv8_2/sep_relu8_2/sep_0_split_0
I1001 23:59:14.435606 32484 net.cpp:408] conv9_1 -> conv9_1
I1001 23:59:14.436868 32484 net.cpp:150] Setting up conv9_1
I1001 23:59:14.436877 32484 net.cpp:157] Top shape: 1 128 3 4 (1536)
I1001 23:59:14.436879 32484 net.cpp:165] Memory required for data: 468799136
I1001 23:59:14.436885 32484 layer_factory.hpp:77] Creating layer conv9_1_relu
I1001 23:59:14.436892 32484 net.cpp:100] Creating Layer conv9_1_relu
I1001 23:59:14.436897 32484 net.cpp:434] conv9_1_relu <- conv9_1
I1001 23:59:14.436902 32484 net.cpp:395] conv9_1_relu -> conv9_1 (in-place)
I1001 23:59:14.437325 32484 net.cpp:150] Setting up conv9_1_relu
I1001 23:59:14.437335 32484 net.cpp:157] Top shape: 1 128 3 4 (1536)
I1001 23:59:14.437337 32484 net.cpp:165] Memory required for data: 468805280
I1001 23:59:14.437340 32484 layer_factory.hpp:77] Creating layer conv9_2/dw
I1001 23:59:14.437348 32484 net.cpp:100] Creating Layer conv9_2/dw
I1001 23:59:14.437352 32484 net.cpp:434] conv9_2/dw <- conv9_1
I1001 23:59:14.437357 32484 net.cpp:408] conv9_2/dw -> conv9_2/dw
I1001 23:59:14.437518 32484 net.cpp:150] Setting up conv9_2/dw
I1001 23:59:14.437525 32484 net.cpp:157] Top shape: 1 128 2 2 (512)
I1001 23:59:14.437527 32484 net.cpp:165] Memory required for data: 468807328
I1001 23:59:14.437531 32484 layer_factory.hpp:77] Creating layer conv9_2/dw/bn
I1001 23:59:14.437538 32484 net.cpp:100] Creating Layer conv9_2/dw/bn
I1001 23:59:14.437541 32484 net.cpp:434] conv9_2/dw/bn <- conv9_2/dw
I1001 23:59:14.437546 32484 net.cpp:395] conv9_2/dw/bn -> conv9_2/dw (in-place)
I1001 23:59:14.437666 32484 net.cpp:150] Setting up conv9_2/dw/bn
I1001 23:59:14.437671 32484 net.cpp:157] Top shape: 1 128 2 2 (512)
I1001 23:59:14.437674 32484 net.cpp:165] Memory required for data: 468809376
I1001 23:59:14.437680 32484 layer_factory.hpp:77] Creating layer conv9_2/dw/scale
I1001 23:59:14.437687 32484 net.cpp:100] Creating Layer conv9_2/dw/scale
I1001 23:59:14.437691 32484 net.cpp:434] conv9_2/dw/scale <- conv9_2/dw
I1001 23:59:14.437695 32484 net.cpp:395] conv9_2/dw/scale -> conv9_2/dw (in-place)
I1001 23:59:14.437724 32484 layer_factory.hpp:77] Creating layer conv9_2/dw/scale
I1001 23:59:14.437793 32484 net.cpp:150] Setting up conv9_2/dw/scale
I1001 23:59:14.437799 32484 net.cpp:157] Top shape: 1 128 2 2 (512)
I1001 23:59:14.437801 32484 net.cpp:165] Memory required for data: 468811424
I1001 23:59:14.437806 32484 layer_factory.hpp:77] Creating layer relu9_2/dw
I1001 23:59:14.437813 32484 net.cpp:100] Creating Layer relu9_2/dw
I1001 23:59:14.437816 32484 net.cpp:434] relu9_2/dw <- conv9_2/dw
I1001 23:59:14.437820 32484 net.cpp:395] relu9_2/dw -> conv9_2/dw (in-place)
I1001 23:59:14.438129 32484 net.cpp:150] Setting up relu9_2/dw
I1001 23:59:14.438138 32484 net.cpp:157] Top shape: 1 128 2 2 (512)
I1001 23:59:14.438140 32484 net.cpp:165] Memory required for data: 468813472
I1001 23:59:14.438143 32484 layer_factory.hpp:77] Creating layer conv9_2/sep
I1001 23:59:14.438151 32484 net.cpp:100] Creating Layer conv9_2/sep
I1001 23:59:14.438154 32484 net.cpp:434] conv9_2/sep <- conv9_2/dw
I1001 23:59:14.438160 32484 net.cpp:408] conv9_2/sep -> conv9_2/sep
I1001 23:59:14.439651 32484 net.cpp:150] Setting up conv9_2/sep
I1001 23:59:14.439667 32484 net.cpp:157] Top shape: 1 256 2 2 (1024)
I1001 23:59:14.439671 32484 net.cpp:165] Memory required for data: 468817568
I1001 23:59:14.439679 32484 layer_factory.hpp:77] Creating layer conv9_2/sep/bn
I1001 23:59:14.439692 32484 net.cpp:100] Creating Layer conv9_2/sep/bn
I1001 23:59:14.439697 32484 net.cpp:434] conv9_2/sep/bn <- conv9_2/sep
I1001 23:59:14.439702 32484 net.cpp:395] conv9_2/sep/bn -> conv9_2/sep (in-place)
I1001 23:59:14.439833 32484 net.cpp:150] Setting up conv9_2/sep/bn
I1001 23:59:14.439838 32484 net.cpp:157] Top shape: 1 256 2 2 (1024)
I1001 23:59:14.439841 32484 net.cpp:165] Memory required for data: 468821664
I1001 23:59:14.439848 32484 layer_factory.hpp:77] Creating layer conv9_2/sep/scale
I1001 23:59:14.439864 32484 net.cpp:100] Creating Layer conv9_2/sep/scale
I1001 23:59:14.439867 32484 net.cpp:434] conv9_2/sep/scale <- conv9_2/sep
I1001 23:59:14.439872 32484 net.cpp:395] conv9_2/sep/scale -> conv9_2/sep (in-place)
I1001 23:59:14.439903 32484 layer_factory.hpp:77] Creating layer conv9_2/sep/scale
I1001 23:59:14.439975 32484 net.cpp:150] Setting up conv9_2/sep/scale
I1001 23:59:14.439980 32484 net.cpp:157] Top shape: 1 256 2 2 (1024)
I1001 23:59:14.439983 32484 net.cpp:165] Memory required for data: 468825760
I1001 23:59:14.439990 32484 layer_factory.hpp:77] Creating layer relu9_2/sep
I1001 23:59:14.439994 32484 net.cpp:100] Creating Layer relu9_2/sep
I1001 23:59:14.439997 32484 net.cpp:434] relu9_2/sep <- conv9_2/sep
I1001 23:59:14.440002 32484 net.cpp:395] relu9_2/sep -> conv9_2/sep (in-place)
I1001 23:59:14.440440 32484 net.cpp:150] Setting up relu9_2/sep
I1001 23:59:14.440448 32484 net.cpp:157] Top shape: 1 256 2 2 (1024)
I1001 23:59:14.440450 32484 net.cpp:165] Memory required for data: 468829856
I1001 23:59:14.440454 32484 layer_factory.hpp:77] Creating layer conv9_2/sep_relu9_2/sep_0_split
I1001 23:59:14.440461 32484 net.cpp:100] Creating Layer conv9_2/sep_relu9_2/sep_0_split
I1001 23:59:14.440465 32484 net.cpp:434] conv9_2/sep_relu9_2/sep_0_split <- conv9_2/sep
I1001 23:59:14.440472 32484 net.cpp:408] conv9_2/sep_relu9_2/sep_0_split -> conv9_2/sep_relu9_2/sep_0_split_0
I1001 23:59:14.440479 32484 net.cpp:408] conv9_2/sep_relu9_2/sep_0_split -> conv9_2/sep_relu9_2/sep_0_split_1
I1001 23:59:14.440485 32484 net.cpp:408] conv9_2/sep_relu9_2/sep_0_split -> conv9_2/sep_relu9_2/sep_0_split_2
I1001 23:59:14.440490 32484 net.cpp:408] conv9_2/sep_relu9_2/sep_0_split -> conv9_2/sep_relu9_2/sep_0_split_3
I1001 23:59:14.440536 32484 net.cpp:150] Setting up conv9_2/sep_relu9_2/sep_0_split
I1001 23:59:14.440541 32484 net.cpp:157] Top shape: 1 256 2 2 (1024)
I1001 23:59:14.440546 32484 net.cpp:157] Top shape: 1 256 2 2 (1024)
I1001 23:59:14.440551 32484 net.cpp:157] Top shape: 1 256 2 2 (1024)
I1001 23:59:14.440554 32484 net.cpp:157] Top shape: 1 256 2 2 (1024)
I1001 23:59:14.440557 32484 net.cpp:165] Memory required for data: 468846240
I1001 23:59:14.440560 32484 layer_factory.hpp:77] Creating layer conv10_1
I1001 23:59:14.440569 32484 net.cpp:100] Creating Layer conv10_1
I1001 23:59:14.440572 32484 net.cpp:434] conv10_1 <- conv9_2/sep_relu9_2/sep_0_split_0
I1001 23:59:14.440580 32484 net.cpp:408] conv10_1 -> conv10_1
I1001 23:59:14.441836 32484 net.cpp:150] Setting up conv10_1
I1001 23:59:14.441844 32484 net.cpp:157] Top shape: 1 64 2 2 (256)
I1001 23:59:14.441846 32484 net.cpp:165] Memory required for data: 468847264
I1001 23:59:14.441853 32484 layer_factory.hpp:77] Creating layer conv10_1_relu
I1001 23:59:14.441857 32484 net.cpp:100] Creating Layer conv10_1_relu
I1001 23:59:14.441861 32484 net.cpp:434] conv10_1_relu <- conv10_1
I1001 23:59:14.441867 32484 net.cpp:395] conv10_1_relu -> conv10_1 (in-place)
I1001 23:59:14.442267 32484 net.cpp:150] Setting up conv10_1_relu
I1001 23:59:14.442275 32484 net.cpp:157] Top shape: 1 64 2 2 (256)
I1001 23:59:14.442277 32484 net.cpp:165] Memory required for data: 468848288
I1001 23:59:14.442281 32484 layer_factory.hpp:77] Creating layer conv10_2/dw
I1001 23:59:14.442288 32484 net.cpp:100] Creating Layer conv10_2/dw
I1001 23:59:14.442291 32484 net.cpp:434] conv10_2/dw <- conv10_1
I1001 23:59:14.442298 32484 net.cpp:408] conv10_2/dw -> conv10_2/dw
I1001 23:59:14.442451 32484 net.cpp:150] Setting up conv10_2/dw
I1001 23:59:14.442456 32484 net.cpp:157] Top shape: 1 64 1 1 (64)
I1001 23:59:14.442459 32484 net.cpp:165] Memory required for data: 468848544
I1001 23:59:14.442464 32484 layer_factory.hpp:77] Creating layer conv10_2/dw/bn
I1001 23:59:14.442471 32484 net.cpp:100] Creating Layer conv10_2/dw/bn
I1001 23:59:14.442473 32484 net.cpp:434] conv10_2/dw/bn <- conv10_2/dw
I1001 23:59:14.442478 32484 net.cpp:395] conv10_2/dw/bn -> conv10_2/dw (in-place)
I1001 23:59:14.442601 32484 net.cpp:150] Setting up conv10_2/dw/bn
I1001 23:59:14.442606 32484 net.cpp:157] Top shape: 1 64 1 1 (64)
I1001 23:59:14.442616 32484 net.cpp:165] Memory required for data: 468848800
I1001 23:59:14.442623 32484 layer_factory.hpp:77] Creating layer conv10_2/dw/scale
I1001 23:59:14.442648 32484 net.cpp:100] Creating Layer conv10_2/dw/scale
I1001 23:59:14.442651 32484 net.cpp:434] conv10_2/dw/scale <- conv10_2/dw
I1001 23:59:14.442656 32484 net.cpp:395] conv10_2/dw/scale -> conv10_2/dw (in-place)
I1001 23:59:14.442685 32484 layer_factory.hpp:77] Creating layer conv10_2/dw/scale
I1001 23:59:14.442761 32484 net.cpp:150] Setting up conv10_2/dw/scale
I1001 23:59:14.442766 32484 net.cpp:157] Top shape: 1 64 1 1 (64)
I1001 23:59:14.442770 32484 net.cpp:165] Memory required for data: 468849056
I1001 23:59:14.442775 32484 layer_factory.hpp:77] Creating layer relu10_2/dw
I1001 23:59:14.442780 32484 net.cpp:100] Creating Layer relu10_2/dw
I1001 23:59:14.442783 32484 net.cpp:434] relu10_2/dw <- conv10_2/dw
I1001 23:59:14.442790 32484 net.cpp:395] relu10_2/dw -> conv10_2/dw (in-place)
I1001 23:59:14.443086 32484 net.cpp:150] Setting up relu10_2/dw
I1001 23:59:14.443092 32484 net.cpp:157] Top shape: 1 64 1 1 (64)
I1001 23:59:14.443096 32484 net.cpp:165] Memory required for data: 468849312
I1001 23:59:14.443099 32484 layer_factory.hpp:77] Creating layer conv10_2/sep
I1001 23:59:14.443107 32484 net.cpp:100] Creating Layer conv10_2/sep
I1001 23:59:14.443110 32484 net.cpp:434] conv10_2/sep <- conv10_2/dw
I1001 23:59:14.443117 32484 net.cpp:408] conv10_2/sep -> conv10_2/sep
I1001 23:59:14.444412 32484 net.cpp:150] Setting up conv10_2/sep
I1001 23:59:14.444420 32484 net.cpp:157] Top shape: 1 128 1 1 (128)
I1001 23:59:14.444423 32484 net.cpp:165] Memory required for data: 468849824
I1001 23:59:14.444428 32484 layer_factory.hpp:77] Creating layer conv10_2/sep/bn
I1001 23:59:14.444435 32484 net.cpp:100] Creating Layer conv10_2/sep/bn
I1001 23:59:14.444439 32484 net.cpp:434] conv10_2/sep/bn <- conv10_2/sep
I1001 23:59:14.444444 32484 net.cpp:395] conv10_2/sep/bn -> conv10_2/sep (in-place)
I1001 23:59:14.444569 32484 net.cpp:150] Setting up conv10_2/sep/bn
I1001 23:59:14.444574 32484 net.cpp:157] Top shape: 1 128 1 1 (128)
I1001 23:59:14.444577 32484 net.cpp:165] Memory required for data: 468850336
I1001 23:59:14.444583 32484 layer_factory.hpp:77] Creating layer conv10_2/sep/scale
I1001 23:59:14.444591 32484 net.cpp:100] Creating Layer conv10_2/sep/scale
I1001 23:59:14.444594 32484 net.cpp:434] conv10_2/sep/scale <- conv10_2/sep
I1001 23:59:14.444598 32484 net.cpp:395] conv10_2/sep/scale -> conv10_2/sep (in-place)
I1001 23:59:14.444628 32484 layer_factory.hpp:77] Creating layer conv10_2/sep/scale
I1001 23:59:14.444697 32484 net.cpp:150] Setting up conv10_2/sep/scale
I1001 23:59:14.444703 32484 net.cpp:157] Top shape: 1 128 1 1 (128)
I1001 23:59:14.444705 32484 net.cpp:165] Memory required for data: 468850848
I1001 23:59:14.444710 32484 layer_factory.hpp:77] Creating layer relu10_2/sep
I1001 23:59:14.444715 32484 net.cpp:100] Creating Layer relu10_2/sep
I1001 23:59:14.444720 32484 net.cpp:434] relu10_2/sep <- conv10_2/sep
I1001 23:59:14.444725 32484 net.cpp:395] relu10_2/sep -> conv10_2/sep (in-place)
I1001 23:59:14.445016 32484 net.cpp:150] Setting up relu10_2/sep
I1001 23:59:14.445024 32484 net.cpp:157] Top shape: 1 128 1 1 (128)
I1001 23:59:14.445026 32484 net.cpp:165] Memory required for data: 468851360
I1001 23:59:14.445029 32484 layer_factory.hpp:77] Creating layer conv10_2/sep_relu10_2/sep_0_split
I1001 23:59:14.445034 32484 net.cpp:100] Creating Layer conv10_2/sep_relu10_2/sep_0_split
I1001 23:59:14.445039 32484 net.cpp:434] conv10_2/sep_relu10_2/sep_0_split <- conv10_2/sep
I1001 23:59:14.445044 32484 net.cpp:408] conv10_2/sep_relu10_2/sep_0_split -> conv10_2/sep_relu10_2/sep_0_split_0
I1001 23:59:14.445051 32484 net.cpp:408] conv10_2/sep_relu10_2/sep_0_split -> conv10_2/sep_relu10_2/sep_0_split_1
I1001 23:59:14.445057 32484 net.cpp:408] conv10_2/sep_relu10_2/sep_0_split -> conv10_2/sep_relu10_2/sep_0_split_2
I1001 23:59:14.445096 32484 net.cpp:150] Setting up conv10_2/sep_relu10_2/sep_0_split
I1001 23:59:14.445102 32484 net.cpp:157] Top shape: 1 128 1 1 (128)
I1001 23:59:14.445114 32484 net.cpp:157] Top shape: 1 128 1 1 (128)
I1001 23:59:14.445119 32484 net.cpp:157] Top shape: 1 128 1 1 (128)
I1001 23:59:14.445122 32484 net.cpp:165] Memory required for data: 468852896
I1001 23:59:14.445125 32484 layer_factory.hpp:77] Creating layer conv5_3/expand_mbox_loc
I1001 23:59:14.445134 32484 net.cpp:100] Creating Layer conv5_3/expand_mbox_loc
I1001 23:59:14.445137 32484 net.cpp:434] conv5_3/expand_mbox_loc <- conv5_3/expand_relu5_3/expand_0_split_1
I1001 23:59:14.445144 32484 net.cpp:408] conv5_3/expand_mbox_loc -> conv5_3/expand_mbox_loc
I1001 23:59:14.446593 32484 net.cpp:150] Setting up conv5_3/expand_mbox_loc
I1001 23:59:14.446604 32484 net.cpp:157] Top shape: 1 8 19 32 (4864)
I1001 23:59:14.446607 32484 net.cpp:165] Memory required for data: 468872352
I1001 23:59:14.446614 32484 layer_factory.hpp:77] Creating layer conv5_3/expand_mbox_loc_perm
I1001 23:59:14.446622 32484 net.cpp:100] Creating Layer conv5_3/expand_mbox_loc_perm
I1001 23:59:14.446626 32484 net.cpp:434] conv5_3/expand_mbox_loc_perm <- conv5_3/expand_mbox_loc
I1001 23:59:14.446633 32484 net.cpp:408] conv5_3/expand_mbox_loc_perm -> conv5_3/expand_mbox_loc_perm
I1001 23:59:14.446717 32484 net.cpp:150] Setting up conv5_3/expand_mbox_loc_perm
I1001 23:59:14.446724 32484 net.cpp:157] Top shape: 1 19 32 8 (4864)
I1001 23:59:14.446727 32484 net.cpp:165] Memory required for data: 468891808
I1001 23:59:14.446729 32484 layer_factory.hpp:77] Creating layer conv5_3/expand_mbox_loc_flat
I1001 23:59:14.446736 32484 net.cpp:100] Creating Layer conv5_3/expand_mbox_loc_flat
I1001 23:59:14.446739 32484 net.cpp:434] conv5_3/expand_mbox_loc_flat <- conv5_3/expand_mbox_loc_perm
I1001 23:59:14.446743 32484 net.cpp:408] conv5_3/expand_mbox_loc_flat -> conv5_3/expand_mbox_loc_flat
I1001 23:59:14.446763 32484 net.cpp:150] Setting up conv5_3/expand_mbox_loc_flat
I1001 23:59:14.446768 32484 net.cpp:157] Top shape: 1 4864 (4864)
I1001 23:59:14.446771 32484 net.cpp:165] Memory required for data: 468911264
I1001 23:59:14.446774 32484 layer_factory.hpp:77] Creating layer conv5_3/expand_mbox_conf
I1001 23:59:14.446782 32484 net.cpp:100] Creating Layer conv5_3/expand_mbox_conf
I1001 23:59:14.446785 32484 net.cpp:434] conv5_3/expand_mbox_conf <- conv5_3/expand_relu5_3/expand_0_split_2
I1001 23:59:14.446791 32484 net.cpp:408] conv5_3/expand_mbox_conf -> conv5_3/expand_mbox_conf
I1001 23:59:14.448376 32484 net.cpp:150] Setting up conv5_3/expand_mbox_conf
I1001 23:59:14.448386 32484 net.cpp:157] Top shape: 1 10 19 32 (6080)
I1001 23:59:14.448390 32484 net.cpp:165] Memory required for data: 468935584
I1001 23:59:14.448396 32484 layer_factory.hpp:77] Creating layer conv5_3/expand_mbox_conf_perm
I1001 23:59:14.448405 32484 net.cpp:100] Creating Layer conv5_3/expand_mbox_conf_perm
I1001 23:59:14.448408 32484 net.cpp:434] conv5_3/expand_mbox_conf_perm <- conv5_3/expand_mbox_conf
I1001 23:59:14.448415 32484 net.cpp:408] conv5_3/expand_mbox_conf_perm -> conv5_3/expand_mbox_conf_perm
I1001 23:59:14.448488 32484 net.cpp:150] Setting up conv5_3/expand_mbox_conf_perm
I1001 23:59:14.448493 32484 net.cpp:157] Top shape: 1 19 32 10 (6080)
I1001 23:59:14.448496 32484 net.cpp:165] Memory required for data: 468959904
I1001 23:59:14.448499 32484 layer_factory.hpp:77] Creating layer conv5_3/expand_mbox_conf_flat
I1001 23:59:14.448505 32484 net.cpp:100] Creating Layer conv5_3/expand_mbox_conf_flat
I1001 23:59:14.448509 32484 net.cpp:434] conv5_3/expand_mbox_conf_flat <- conv5_3/expand_mbox_conf_perm
I1001 23:59:14.448513 32484 net.cpp:408] conv5_3/expand_mbox_conf_flat -> conv5_3/expand_mbox_conf_flat
I1001 23:59:14.448532 32484 net.cpp:150] Setting up conv5_3/expand_mbox_conf_flat
I1001 23:59:14.448536 32484 net.cpp:157] Top shape: 1 6080 (6080)
I1001 23:59:14.448540 32484 net.cpp:165] Memory required for data: 468984224
I1001 23:59:14.448544 32484 layer_factory.hpp:77] Creating layer conv5_3/expand_mbox_priorbox
I1001 23:59:14.448550 32484 net.cpp:100] Creating Layer conv5_3/expand_mbox_priorbox
I1001 23:59:14.448554 32484 net.cpp:434] conv5_3/expand_mbox_priorbox <- conv5_3/expand_relu5_3/expand_0_split_3
I1001 23:59:14.448566 32484 net.cpp:434] conv5_3/expand_mbox_priorbox <- data_data_0_split_1
I1001 23:59:14.448573 32484 net.cpp:408] conv5_3/expand_mbox_priorbox -> conv5_3/expand_mbox_priorbox
I1001 23:59:14.448595 32484 net.cpp:150] Setting up conv5_3/expand_mbox_priorbox
I1001 23:59:14.448599 32484 net.cpp:157] Top shape: 1 2 4864 (9728)
I1001 23:59:14.448602 32484 net.cpp:165] Memory required for data: 469023136
I1001 23:59:14.448606 32484 layer_factory.hpp:77] Creating layer conv6_4_mbox_loc
I1001 23:59:14.448614 32484 net.cpp:100] Creating Layer conv6_4_mbox_loc
I1001 23:59:14.448617 32484 net.cpp:434] conv6_4_mbox_loc <- conv6_4_relu6_4_0_split_1
I1001 23:59:14.448623 32484 net.cpp:408] conv6_4_mbox_loc -> conv6_4_mbox_loc
I1001 23:59:14.450207 32484 net.cpp:150] Setting up conv6_4_mbox_loc
I1001 23:59:14.450215 32484 net.cpp:157] Top shape: 1 8 10 16 (1280)
I1001 23:59:14.450219 32484 net.cpp:165] Memory required for data: 469028256
I1001 23:59:14.450225 32484 layer_factory.hpp:77] Creating layer conv6_4_mbox_loc_perm
I1001 23:59:14.450233 32484 net.cpp:100] Creating Layer conv6_4_mbox_loc_perm
I1001 23:59:14.450237 32484 net.cpp:434] conv6_4_mbox_loc_perm <- conv6_4_mbox_loc
I1001 23:59:14.450245 32484 net.cpp:408] conv6_4_mbox_loc_perm -> conv6_4_mbox_loc_perm
I1001 23:59:14.450316 32484 net.cpp:150] Setting up conv6_4_mbox_loc_perm
I1001 23:59:14.450322 32484 net.cpp:157] Top shape: 1 10 16 8 (1280)
I1001 23:59:14.450325 32484 net.cpp:165] Memory required for data: 469033376
I1001 23:59:14.450330 32484 layer_factory.hpp:77] Creating layer conv6_4_mbox_loc_flat
I1001 23:59:14.450335 32484 net.cpp:100] Creating Layer conv6_4_mbox_loc_flat
I1001 23:59:14.450338 32484 net.cpp:434] conv6_4_mbox_loc_flat <- conv6_4_mbox_loc_perm
I1001 23:59:14.450343 32484 net.cpp:408] conv6_4_mbox_loc_flat -> conv6_4_mbox_loc_flat
I1001 23:59:14.450361 32484 net.cpp:150] Setting up conv6_4_mbox_loc_flat
I1001 23:59:14.450366 32484 net.cpp:157] Top shape: 1 1280 (1280)
I1001 23:59:14.450369 32484 net.cpp:165] Memory required for data: 469038496
I1001 23:59:14.450372 32484 layer_factory.hpp:77] Creating layer conv6_4_mbox_conf
I1001 23:59:14.450381 32484 net.cpp:100] Creating Layer conv6_4_mbox_conf
I1001 23:59:14.450383 32484 net.cpp:434] conv6_4_mbox_conf <- conv6_4_relu6_4_0_split_2
I1001 23:59:14.450389 32484 net.cpp:408] conv6_4_mbox_conf -> conv6_4_mbox_conf
I1001 23:59:14.452051 32484 net.cpp:150] Setting up conv6_4_mbox_conf
I1001 23:59:14.452060 32484 net.cpp:157] Top shape: 1 10 10 16 (1600)
I1001 23:59:14.452062 32484 net.cpp:165] Memory required for data: 469044896
I1001 23:59:14.452069 32484 layer_factory.hpp:77] Creating layer conv6_4_mbox_conf_perm
I1001 23:59:14.452075 32484 net.cpp:100] Creating Layer conv6_4_mbox_conf_perm
I1001 23:59:14.452080 32484 net.cpp:434] conv6_4_mbox_conf_perm <- conv6_4_mbox_conf
I1001 23:59:14.452085 32484 net.cpp:408] conv6_4_mbox_conf_perm -> conv6_4_mbox_conf_perm
I1001 23:59:14.452160 32484 net.cpp:150] Setting up conv6_4_mbox_conf_perm
I1001 23:59:14.452165 32484 net.cpp:157] Top shape: 1 10 16 10 (1600)
I1001 23:59:14.452168 32484 net.cpp:165] Memory required for data: 469051296
I1001 23:59:14.452172 32484 layer_factory.hpp:77] Creating layer conv6_4_mbox_conf_flat
I1001 23:59:14.452178 32484 net.cpp:100] Creating Layer conv6_4_mbox_conf_flat
I1001 23:59:14.452181 32484 net.cpp:434] conv6_4_mbox_conf_flat <- conv6_4_mbox_conf_perm
I1001 23:59:14.452186 32484 net.cpp:408] conv6_4_mbox_conf_flat -> conv6_4_mbox_conf_flat
I1001 23:59:14.452205 32484 net.cpp:150] Setting up conv6_4_mbox_conf_flat
I1001 23:59:14.452209 32484 net.cpp:157] Top shape: 1 1600 (1600)
I1001 23:59:14.452213 32484 net.cpp:165] Memory required for data: 469057696
I1001 23:59:14.452215 32484 layer_factory.hpp:77] Creating layer conv6_4_mbox_priorbox
I1001 23:59:14.452221 32484 net.cpp:100] Creating Layer conv6_4_mbox_priorbox
I1001 23:59:14.452224 32484 net.cpp:434] conv6_4_mbox_priorbox <- conv6_4_relu6_4_0_split_3
I1001 23:59:14.452237 32484 net.cpp:434] conv6_4_mbox_priorbox <- data_data_0_split_2
I1001 23:59:14.452244 32484 net.cpp:408] conv6_4_mbox_priorbox -> conv6_4_mbox_priorbox
I1001 23:59:14.452265 32484 net.cpp:150] Setting up conv6_4_mbox_priorbox
I1001 23:59:14.452268 32484 net.cpp:157] Top shape: 1 2 1280 (2560)
I1001 23:59:14.452271 32484 net.cpp:165] Memory required for data: 469067936
I1001 23:59:14.452275 32484 layer_factory.hpp:77] Creating layer conv7_2/sep_mbox_loc
I1001 23:59:14.452282 32484 net.cpp:100] Creating Layer conv7_2/sep_mbox_loc
I1001 23:59:14.452286 32484 net.cpp:434] conv7_2/sep_mbox_loc <- conv7_2/sep_relu7_2/sep_0_split_1
I1001 23:59:14.452292 32484 net.cpp:408] conv7_2/sep_mbox_loc -> conv7_2/sep_mbox_loc
I1001 23:59:14.453703 32484 net.cpp:150] Setting up conv7_2/sep_mbox_loc
I1001 23:59:14.453712 32484 net.cpp:157] Top shape: 1 8 5 8 (320)
I1001 23:59:14.453714 32484 net.cpp:165] Memory required for data: 469069216
I1001 23:59:14.453722 32484 layer_factory.hpp:77] Creating layer conv7_2/sep_mbox_loc_perm
I1001 23:59:14.453729 32484 net.cpp:100] Creating Layer conv7_2/sep_mbox_loc_perm
I1001 23:59:14.453733 32484 net.cpp:434] conv7_2/sep_mbox_loc_perm <- conv7_2/sep_mbox_loc
I1001 23:59:14.453739 32484 net.cpp:408] conv7_2/sep_mbox_loc_perm -> conv7_2/sep_mbox_loc_perm
I1001 23:59:14.453814 32484 net.cpp:150] Setting up conv7_2/sep_mbox_loc_perm
I1001 23:59:14.453819 32484 net.cpp:157] Top shape: 1 5 8 8 (320)
I1001 23:59:14.453821 32484 net.cpp:165] Memory required for data: 469070496
I1001 23:59:14.453824 32484 layer_factory.hpp:77] Creating layer conv7_2/sep_mbox_loc_flat
I1001 23:59:14.453830 32484 net.cpp:100] Creating Layer conv7_2/sep_mbox_loc_flat
I1001 23:59:14.453835 32484 net.cpp:434] conv7_2/sep_mbox_loc_flat <- conv7_2/sep_mbox_loc_perm
I1001 23:59:14.453840 32484 net.cpp:408] conv7_2/sep_mbox_loc_flat -> conv7_2/sep_mbox_loc_flat
I1001 23:59:14.453860 32484 net.cpp:150] Setting up conv7_2/sep_mbox_loc_flat
I1001 23:59:14.453863 32484 net.cpp:157] Top shape: 1 320 (320)
I1001 23:59:14.453866 32484 net.cpp:165] Memory required for data: 469071776
I1001 23:59:14.453869 32484 layer_factory.hpp:77] Creating layer conv7_2/sep_mbox_conf
I1001 23:59:14.453878 32484 net.cpp:100] Creating Layer conv7_2/sep_mbox_conf
I1001 23:59:14.453881 32484 net.cpp:434] conv7_2/sep_mbox_conf <- conv7_2/sep_relu7_2/sep_0_split_2
I1001 23:59:14.453886 32484 net.cpp:408] conv7_2/sep_mbox_conf -> conv7_2/sep_mbox_conf
I1001 23:59:14.455314 32484 net.cpp:150] Setting up conv7_2/sep_mbox_conf
I1001 23:59:14.455323 32484 net.cpp:157] Top shape: 1 10 5 8 (400)
I1001 23:59:14.455325 32484 net.cpp:165] Memory required for data: 469073376
I1001 23:59:14.455332 32484 layer_factory.hpp:77] Creating layer conv7_2/sep_mbox_conf_perm
I1001 23:59:14.455339 32484 net.cpp:100] Creating Layer conv7_2/sep_mbox_conf_perm
I1001 23:59:14.455343 32484 net.cpp:434] conv7_2/sep_mbox_conf_perm <- conv7_2/sep_mbox_conf
I1001 23:59:14.455349 32484 net.cpp:408] conv7_2/sep_mbox_conf_perm -> conv7_2/sep_mbox_conf_perm
I1001 23:59:14.455423 32484 net.cpp:150] Setting up conv7_2/sep_mbox_conf_perm
I1001 23:59:14.455430 32484 net.cpp:157] Top shape: 1 5 8 10 (400)
I1001 23:59:14.455432 32484 net.cpp:165] Memory required for data: 469074976
I1001 23:59:14.455435 32484 layer_factory.hpp:77] Creating layer conv7_2/sep_mbox_conf_flat
I1001 23:59:14.455440 32484 net.cpp:100] Creating Layer conv7_2/sep_mbox_conf_flat
I1001 23:59:14.455443 32484 net.cpp:434] conv7_2/sep_mbox_conf_flat <- conv7_2/sep_mbox_conf_perm
I1001 23:59:14.455451 32484 net.cpp:408] conv7_2/sep_mbox_conf_flat -> conv7_2/sep_mbox_conf_flat
I1001 23:59:14.455467 32484 net.cpp:150] Setting up conv7_2/sep_mbox_conf_flat
I1001 23:59:14.455473 32484 net.cpp:157] Top shape: 1 400 (400)
I1001 23:59:14.455476 32484 net.cpp:165] Memory required for data: 469076576
I1001 23:59:14.455479 32484 layer_factory.hpp:77] Creating layer conv7_2/sep_mbox_priorbox
I1001 23:59:14.455484 32484 net.cpp:100] Creating Layer conv7_2/sep_mbox_priorbox
I1001 23:59:14.455487 32484 net.cpp:434] conv7_2/sep_mbox_priorbox <- conv7_2/sep_relu7_2/sep_0_split_3
I1001 23:59:14.455502 32484 net.cpp:434] conv7_2/sep_mbox_priorbox <- data_data_0_split_3
I1001 23:59:14.455508 32484 net.cpp:408] conv7_2/sep_mbox_priorbox -> conv7_2/sep_mbox_priorbox
I1001 23:59:14.455529 32484 net.cpp:150] Setting up conv7_2/sep_mbox_priorbox
I1001 23:59:14.455533 32484 net.cpp:157] Top shape: 1 2 320 (640)
I1001 23:59:14.455536 32484 net.cpp:165] Memory required for data: 469079136
I1001 23:59:14.455539 32484 layer_factory.hpp:77] Creating layer conv8_2/sep_mbox_loc
I1001 23:59:14.455548 32484 net.cpp:100] Creating Layer conv8_2/sep_mbox_loc
I1001 23:59:14.455550 32484 net.cpp:434] conv8_2/sep_mbox_loc <- conv8_2/sep_relu8_2/sep_0_split_1
I1001 23:59:14.455556 32484 net.cpp:408] conv8_2/sep_mbox_loc -> conv8_2/sep_mbox_loc
I1001 23:59:14.456897 32484 net.cpp:150] Setting up conv8_2/sep_mbox_loc
I1001 23:59:14.456907 32484 net.cpp:157] Top shape: 1 8 3 4 (96)
I1001 23:59:14.456909 32484 net.cpp:165] Memory required for data: 469079520
I1001 23:59:14.456917 32484 layer_factory.hpp:77] Creating layer conv8_2/sep_mbox_loc_perm
I1001 23:59:14.456923 32484 net.cpp:100] Creating Layer conv8_2/sep_mbox_loc_perm
I1001 23:59:14.456926 32484 net.cpp:434] conv8_2/sep_mbox_loc_perm <- conv8_2/sep_mbox_loc
I1001 23:59:14.456933 32484 net.cpp:408] conv8_2/sep_mbox_loc_perm -> conv8_2/sep_mbox_loc_perm
I1001 23:59:14.457005 32484 net.cpp:150] Setting up conv8_2/sep_mbox_loc_perm
I1001 23:59:14.457010 32484 net.cpp:157] Top shape: 1 3 4 8 (96)
I1001 23:59:14.457012 32484 net.cpp:165] Memory required for data: 469079904
I1001 23:59:14.457016 32484 layer_factory.hpp:77] Creating layer conv8_2/sep_mbox_loc_flat
I1001 23:59:14.457022 32484 net.cpp:100] Creating Layer conv8_2/sep_mbox_loc_flat
I1001 23:59:14.457026 32484 net.cpp:434] conv8_2/sep_mbox_loc_flat <- conv8_2/sep_mbox_loc_perm
I1001 23:59:14.457031 32484 net.cpp:408] conv8_2/sep_mbox_loc_flat -> conv8_2/sep_mbox_loc_flat
I1001 23:59:14.457048 32484 net.cpp:150] Setting up conv8_2/sep_mbox_loc_flat
I1001 23:59:14.457053 32484 net.cpp:157] Top shape: 1 96 (96)
I1001 23:59:14.457056 32484 net.cpp:165] Memory required for data: 469080288
I1001 23:59:14.457058 32484 layer_factory.hpp:77] Creating layer conv8_2/sep_mbox_conf
I1001 23:59:14.457067 32484 net.cpp:100] Creating Layer conv8_2/sep_mbox_conf
I1001 23:59:14.457070 32484 net.cpp:434] conv8_2/sep_mbox_conf <- conv8_2/sep_relu8_2/sep_0_split_2
I1001 23:59:14.457077 32484 net.cpp:408] conv8_2/sep_mbox_conf -> conv8_2/sep_mbox_conf
I1001 23:59:14.458318 32484 net.cpp:150] Setting up conv8_2/sep_mbox_conf
I1001 23:59:14.458325 32484 net.cpp:157] Top shape: 1 10 3 4 (120)
I1001 23:59:14.458329 32484 net.cpp:165] Memory required for data: 469080768
I1001 23:59:14.458335 32484 layer_factory.hpp:77] Creating layer conv8_2/sep_mbox_conf_perm
I1001 23:59:14.458340 32484 net.cpp:100] Creating Layer conv8_2/sep_mbox_conf_perm
I1001 23:59:14.458344 32484 net.cpp:434] conv8_2/sep_mbox_conf_perm <- conv8_2/sep_mbox_conf
I1001 23:59:14.458353 32484 net.cpp:408] conv8_2/sep_mbox_conf_perm -> conv8_2/sep_mbox_conf_perm
I1001 23:59:14.458425 32484 net.cpp:150] Setting up conv8_2/sep_mbox_conf_perm
I1001 23:59:14.458431 32484 net.cpp:157] Top shape: 1 3 4 10 (120)
I1001 23:59:14.458433 32484 net.cpp:165] Memory required for data: 469081248
I1001 23:59:14.458437 32484 layer_factory.hpp:77] Creating layer conv8_2/sep_mbox_conf_flat
I1001 23:59:14.458441 32484 net.cpp:100] Creating Layer conv8_2/sep_mbox_conf_flat
I1001 23:59:14.458446 32484 net.cpp:434] conv8_2/sep_mbox_conf_flat <- conv8_2/sep_mbox_conf_perm
I1001 23:59:14.458451 32484 net.cpp:408] conv8_2/sep_mbox_conf_flat -> conv8_2/sep_mbox_conf_flat
I1001 23:59:14.458469 32484 net.cpp:150] Setting up conv8_2/sep_mbox_conf_flat
I1001 23:59:14.458474 32484 net.cpp:157] Top shape: 1 120 (120)
I1001 23:59:14.458477 32484 net.cpp:165] Memory required for data: 469081728
I1001 23:59:14.458479 32484 layer_factory.hpp:77] Creating layer conv8_2/sep_mbox_priorbox
I1001 23:59:14.458485 32484 net.cpp:100] Creating Layer conv8_2/sep_mbox_priorbox
I1001 23:59:14.458495 32484 net.cpp:434] conv8_2/sep_mbox_priorbox <- conv8_2/sep_relu8_2/sep_0_split_3
I1001 23:59:14.458500 32484 net.cpp:434] conv8_2/sep_mbox_priorbox <- data_data_0_split_4
I1001 23:59:14.458506 32484 net.cpp:408] conv8_2/sep_mbox_priorbox -> conv8_2/sep_mbox_priorbox
I1001 23:59:14.458526 32484 net.cpp:150] Setting up conv8_2/sep_mbox_priorbox
I1001 23:59:14.458531 32484 net.cpp:157] Top shape: 1 2 96 (192)
I1001 23:59:14.458534 32484 net.cpp:165] Memory required for data: 469082496
I1001 23:59:14.458536 32484 layer_factory.hpp:77] Creating layer conv9_2/sep_mbox_loc
I1001 23:59:14.458545 32484 net.cpp:100] Creating Layer conv9_2/sep_mbox_loc
I1001 23:59:14.458549 32484 net.cpp:434] conv9_2/sep_mbox_loc <- conv9_2/sep_relu9_2/sep_0_split_1
I1001 23:59:14.458555 32484 net.cpp:408] conv9_2/sep_mbox_loc -> conv9_2/sep_mbox_loc
I1001 23:59:14.459791 32484 net.cpp:150] Setting up conv9_2/sep_mbox_loc
I1001 23:59:14.459800 32484 net.cpp:157] Top shape: 1 8 2 2 (32)
I1001 23:59:14.459802 32484 net.cpp:165] Memory required for data: 469082624
I1001 23:59:14.459808 32484 layer_factory.hpp:77] Creating layer conv9_2/sep_mbox_loc_perm
I1001 23:59:14.459813 32484 net.cpp:100] Creating Layer conv9_2/sep_mbox_loc_perm
I1001 23:59:14.459818 32484 net.cpp:434] conv9_2/sep_mbox_loc_perm <- conv9_2/sep_mbox_loc
I1001 23:59:14.459825 32484 net.cpp:408] conv9_2/sep_mbox_loc_perm -> conv9_2/sep_mbox_loc_perm
I1001 23:59:14.459892 32484 net.cpp:150] Setting up conv9_2/sep_mbox_loc_perm
I1001 23:59:14.459897 32484 net.cpp:157] Top shape: 1 2 2 8 (32)
I1001 23:59:14.459900 32484 net.cpp:165] Memory required for data: 469082752
I1001 23:59:14.459904 32484 layer_factory.hpp:77] Creating layer conv9_2/sep_mbox_loc_flat
I1001 23:59:14.459909 32484 net.cpp:100] Creating Layer conv9_2/sep_mbox_loc_flat
I1001 23:59:14.459913 32484 net.cpp:434] conv9_2/sep_mbox_loc_flat <- conv9_2/sep_mbox_loc_perm
I1001 23:59:14.459918 32484 net.cpp:408] conv9_2/sep_mbox_loc_flat -> conv9_2/sep_mbox_loc_flat
I1001 23:59:14.459938 32484 net.cpp:150] Setting up conv9_2/sep_mbox_loc_flat
I1001 23:59:14.459941 32484 net.cpp:157] Top shape: 1 32 (32)
I1001 23:59:14.459944 32484 net.cpp:165] Memory required for data: 469082880
I1001 23:59:14.459947 32484 layer_factory.hpp:77] Creating layer conv9_2/sep_mbox_conf
I1001 23:59:14.459954 32484 net.cpp:100] Creating Layer conv9_2/sep_mbox_conf
I1001 23:59:14.459959 32484 net.cpp:434] conv9_2/sep_mbox_conf <- conv9_2/sep_relu9_2/sep_0_split_2
I1001 23:59:14.459964 32484 net.cpp:408] conv9_2/sep_mbox_conf -> conv9_2/sep_mbox_conf
I1001 23:59:14.461220 32484 net.cpp:150] Setting up conv9_2/sep_mbox_conf
I1001 23:59:14.461227 32484 net.cpp:157] Top shape: 1 10 2 2 (40)
I1001 23:59:14.461230 32484 net.cpp:165] Memory required for data: 469083040
I1001 23:59:14.461236 32484 layer_factory.hpp:77] Creating layer conv9_2/sep_mbox_conf_perm
I1001 23:59:14.461243 32484 net.cpp:100] Creating Layer conv9_2/sep_mbox_conf_perm
I1001 23:59:14.461247 32484 net.cpp:434] conv9_2/sep_mbox_conf_perm <- conv9_2/sep_mbox_conf
I1001 23:59:14.461252 32484 net.cpp:408] conv9_2/sep_mbox_conf_perm -> conv9_2/sep_mbox_conf_perm
I1001 23:59:14.461323 32484 net.cpp:150] Setting up conv9_2/sep_mbox_conf_perm
I1001 23:59:14.461328 32484 net.cpp:157] Top shape: 1 2 2 10 (40)
I1001 23:59:14.461331 32484 net.cpp:165] Memory required for data: 469083200
I1001 23:59:14.461333 32484 layer_factory.hpp:77] Creating layer conv9_2/sep_mbox_conf_flat
I1001 23:59:14.461339 32484 net.cpp:100] Creating Layer conv9_2/sep_mbox_conf_flat
I1001 23:59:14.461344 32484 net.cpp:434] conv9_2/sep_mbox_conf_flat <- conv9_2/sep_mbox_conf_perm
I1001 23:59:14.461347 32484 net.cpp:408] conv9_2/sep_mbox_conf_flat -> conv9_2/sep_mbox_conf_flat
I1001 23:59:14.461366 32484 net.cpp:150] Setting up conv9_2/sep_mbox_conf_flat
I1001 23:59:14.461370 32484 net.cpp:157] Top shape: 1 40 (40)
I1001 23:59:14.461374 32484 net.cpp:165] Memory required for data: 469083360
I1001 23:59:14.461376 32484 layer_factory.hpp:77] Creating layer conv9_2/sep_mbox_priorbox
I1001 23:59:14.461381 32484 net.cpp:100] Creating Layer conv9_2/sep_mbox_priorbox
I1001 23:59:14.461391 32484 net.cpp:434] conv9_2/sep_mbox_priorbox <- conv9_2/sep_relu9_2/sep_0_split_3
I1001 23:59:14.461396 32484 net.cpp:434] conv9_2/sep_mbox_priorbox <- data_data_0_split_5
I1001 23:59:14.461402 32484 net.cpp:408] conv9_2/sep_mbox_priorbox -> conv9_2/sep_mbox_priorbox
I1001 23:59:14.461423 32484 net.cpp:150] Setting up conv9_2/sep_mbox_priorbox
I1001 23:59:14.461427 32484 net.cpp:157] Top shape: 1 2 32 (64)
I1001 23:59:14.461431 32484 net.cpp:165] Memory required for data: 469083616
I1001 23:59:14.461434 32484 layer_factory.hpp:77] Creating layer conv10_2/sep_mbox_loc
I1001 23:59:14.461442 32484 net.cpp:100] Creating Layer conv10_2/sep_mbox_loc
I1001 23:59:14.461447 32484 net.cpp:434] conv10_2/sep_mbox_loc <- conv10_2/sep_relu10_2/sep_0_split_0
I1001 23:59:14.461454 32484 net.cpp:408] conv10_2/sep_mbox_loc -> conv10_2/sep_mbox_loc
I1001 23:59:14.462666 32484 net.cpp:150] Setting up conv10_2/sep_mbox_loc
I1001 23:59:14.462674 32484 net.cpp:157] Top shape: 1 8 1 1 (8)
I1001 23:59:14.462677 32484 net.cpp:165] Memory required for data: 469083648
I1001 23:59:14.462682 32484 layer_factory.hpp:77] Creating layer conv10_2/sep_mbox_loc_perm
I1001 23:59:14.462692 32484 net.cpp:100] Creating Layer conv10_2/sep_mbox_loc_perm
I1001 23:59:14.462694 32484 net.cpp:434] conv10_2/sep_mbox_loc_perm <- conv10_2/sep_mbox_loc
I1001 23:59:14.462700 32484 net.cpp:408] conv10_2/sep_mbox_loc_perm -> conv10_2/sep_mbox_loc_perm
I1001 23:59:14.462770 32484 net.cpp:150] Setting up conv10_2/sep_mbox_loc_perm
I1001 23:59:14.462777 32484 net.cpp:157] Top shape: 1 1 1 8 (8)
I1001 23:59:14.462780 32484 net.cpp:165] Memory required for data: 469083680
I1001 23:59:14.462783 32484 layer_factory.hpp:77] Creating layer conv10_2/sep_mbox_loc_flat
I1001 23:59:14.462787 32484 net.cpp:100] Creating Layer conv10_2/sep_mbox_loc_flat
I1001 23:59:14.462791 32484 net.cpp:434] conv10_2/sep_mbox_loc_flat <- conv10_2/sep_mbox_loc_perm
I1001 23:59:14.462795 32484 net.cpp:408] conv10_2/sep_mbox_loc_flat -> conv10_2/sep_mbox_loc_flat
I1001 23:59:14.462815 32484 net.cpp:150] Setting up conv10_2/sep_mbox_loc_flat
I1001 23:59:14.462821 32484 net.cpp:157] Top shape: 1 8 (8)
I1001 23:59:14.462823 32484 net.cpp:165] Memory required for data: 469083712
I1001 23:59:14.462826 32484 layer_factory.hpp:77] Creating layer conv10_2/sep_mbox_conf
I1001 23:59:14.462833 32484 net.cpp:100] Creating Layer conv10_2/sep_mbox_conf
I1001 23:59:14.462837 32484 net.cpp:434] conv10_2/sep_mbox_conf <- conv10_2/sep_relu10_2/sep_0_split_1
I1001 23:59:14.462842 32484 net.cpp:408] conv10_2/sep_mbox_conf -> conv10_2/sep_mbox_conf
I1001 23:59:14.464293 32484 net.cpp:150] Setting up conv10_2/sep_mbox_conf
I1001 23:59:14.464301 32484 net.cpp:157] Top shape: 1 10 1 1 (10)
I1001 23:59:14.464303 32484 net.cpp:165] Memory required for data: 469083752
I1001 23:59:14.464310 32484 layer_factory.hpp:77] Creating layer conv10_2/sep_mbox_conf_perm
I1001 23:59:14.464318 32484 net.cpp:100] Creating Layer conv10_2/sep_mbox_conf_perm
I1001 23:59:14.464321 32484 net.cpp:434] conv10_2/sep_mbox_conf_perm <- conv10_2/sep_mbox_conf
I1001 23:59:14.464327 32484 net.cpp:408] conv10_2/sep_mbox_conf_perm -> conv10_2/sep_mbox_conf_perm
I1001 23:59:14.464403 32484 net.cpp:150] Setting up conv10_2/sep_mbox_conf_perm
I1001 23:59:14.464408 32484 net.cpp:157] Top shape: 1 1 1 10 (10)
I1001 23:59:14.464411 32484 net.cpp:165] Memory required for data: 469083792
I1001 23:59:14.464413 32484 layer_factory.hpp:77] Creating layer conv10_2/sep_mbox_conf_flat
I1001 23:59:14.464418 32484 net.cpp:100] Creating Layer conv10_2/sep_mbox_conf_flat
I1001 23:59:14.464422 32484 net.cpp:434] conv10_2/sep_mbox_conf_flat <- conv10_2/sep_mbox_conf_perm
I1001 23:59:14.464428 32484 net.cpp:408] conv10_2/sep_mbox_conf_flat -> conv10_2/sep_mbox_conf_flat
I1001 23:59:14.464447 32484 net.cpp:150] Setting up conv10_2/sep_mbox_conf_flat
I1001 23:59:14.464452 32484 net.cpp:157] Top shape: 1 10 (10)
I1001 23:59:14.464454 32484 net.cpp:165] Memory required for data: 469083832
I1001 23:59:14.464465 32484 layer_factory.hpp:77] Creating layer conv10_2/sep_mbox_priorbox
I1001 23:59:14.464471 32484 net.cpp:100] Creating Layer conv10_2/sep_mbox_priorbox
I1001 23:59:14.464475 32484 net.cpp:434] conv10_2/sep_mbox_priorbox <- conv10_2/sep_relu10_2/sep_0_split_2
I1001 23:59:14.464480 32484 net.cpp:434] conv10_2/sep_mbox_priorbox <- data_data_0_split_6
I1001 23:59:14.464488 32484 net.cpp:408] conv10_2/sep_mbox_priorbox -> conv10_2/sep_mbox_priorbox
I1001 23:59:14.464509 32484 net.cpp:150] Setting up conv10_2/sep_mbox_priorbox
I1001 23:59:14.464514 32484 net.cpp:157] Top shape: 1 2 8 (16)
I1001 23:59:14.464516 32484 net.cpp:165] Memory required for data: 469083896
I1001 23:59:14.464519 32484 layer_factory.hpp:77] Creating layer mbox_loc
I1001 23:59:14.464524 32484 net.cpp:100] Creating Layer mbox_loc
I1001 23:59:14.464529 32484 net.cpp:434] mbox_loc <- conv5_3/expand_mbox_loc_flat
I1001 23:59:14.464534 32484 net.cpp:434] mbox_loc <- conv6_4_mbox_loc_flat
I1001 23:59:14.464538 32484 net.cpp:434] mbox_loc <- conv7_2/sep_mbox_loc_flat
I1001 23:59:14.464542 32484 net.cpp:434] mbox_loc <- conv8_2/sep_mbox_loc_flat
I1001 23:59:14.464547 32484 net.cpp:434] mbox_loc <- conv9_2/sep_mbox_loc_flat
I1001 23:59:14.464551 32484 net.cpp:434] mbox_loc <- conv10_2/sep_mbox_loc_flat
I1001 23:59:14.464557 32484 net.cpp:408] mbox_loc -> mbox_loc
I1001 23:59:14.464576 32484 net.cpp:150] Setting up mbox_loc
I1001 23:59:14.464581 32484 net.cpp:157] Top shape: 1 6600 (6600)
I1001 23:59:14.464583 32484 net.cpp:165] Memory required for data: 469110296
I1001 23:59:14.464586 32484 layer_factory.hpp:77] Creating layer mbox_conf
I1001 23:59:14.464591 32484 net.cpp:100] Creating Layer mbox_conf
I1001 23:59:14.464594 32484 net.cpp:434] mbox_conf <- conv5_3/expand_mbox_conf_flat
I1001 23:59:14.464598 32484 net.cpp:434] mbox_conf <- conv6_4_mbox_conf_flat
I1001 23:59:14.464603 32484 net.cpp:434] mbox_conf <- conv7_2/sep_mbox_conf_flat
I1001 23:59:14.464607 32484 net.cpp:434] mbox_conf <- conv8_2/sep_mbox_conf_flat
I1001 23:59:14.464612 32484 net.cpp:434] mbox_conf <- conv9_2/sep_mbox_conf_flat
I1001 23:59:14.464614 32484 net.cpp:434] mbox_conf <- conv10_2/sep_mbox_conf_flat
I1001 23:59:14.464619 32484 net.cpp:408] mbox_conf -> mbox_conf
I1001 23:59:14.464638 32484 net.cpp:150] Setting up mbox_conf
I1001 23:59:14.464643 32484 net.cpp:157] Top shape: 1 8250 (8250)
I1001 23:59:14.464645 32484 net.cpp:165] Memory required for data: 469143296
I1001 23:59:14.464648 32484 layer_factory.hpp:77] Creating layer mbox_priorbox
I1001 23:59:14.464653 32484 net.cpp:100] Creating Layer mbox_priorbox
I1001 23:59:14.464656 32484 net.cpp:434] mbox_priorbox <- conv5_3/expand_mbox_priorbox
I1001 23:59:14.464660 32484 net.cpp:434] mbox_priorbox <- conv6_4_mbox_priorbox
I1001 23:59:14.464664 32484 net.cpp:434] mbox_priorbox <- conv7_2/sep_mbox_priorbox
I1001 23:59:14.464668 32484 net.cpp:434] mbox_priorbox <- conv8_2/sep_mbox_priorbox
I1001 23:59:14.464673 32484 net.cpp:434] mbox_priorbox <- conv9_2/sep_mbox_priorbox
I1001 23:59:14.464675 32484 net.cpp:434] mbox_priorbox <- conv10_2/sep_mbox_priorbox
I1001 23:59:14.464680 32484 net.cpp:408] mbox_priorbox -> mbox_priorbox
I1001 23:59:14.464699 32484 net.cpp:150] Setting up mbox_priorbox
I1001 23:59:14.464704 32484 net.cpp:157] Top shape: 1 2 6600 (13200)
I1001 23:59:14.464707 32484 net.cpp:165] Memory required for data: 469196096
I1001 23:59:14.464709 32484 layer_factory.hpp:77] Creating layer mbox_conf_reshape
I1001 23:59:14.464715 32484 net.cpp:100] Creating Layer mbox_conf_reshape
I1001 23:59:14.464718 32484 net.cpp:434] mbox_conf_reshape <- mbox_conf
I1001 23:59:14.464723 32484 net.cpp:408] mbox_conf_reshape -> mbox_conf_reshape
I1001 23:59:14.464746 32484 net.cpp:150] Setting up mbox_conf_reshape
I1001 23:59:14.464751 32484 net.cpp:157] Top shape: 1 1650 5 (8250)
I1001 23:59:14.464754 32484 net.cpp:165] Memory required for data: 469229096
I1001 23:59:14.464757 32484 layer_factory.hpp:77] Creating layer mbox_conf_softmax
I1001 23:59:14.464763 32484 net.cpp:100] Creating Layer mbox_conf_softmax
I1001 23:59:14.464766 32484 net.cpp:434] mbox_conf_softmax <- mbox_conf_reshape
I1001 23:59:14.464777 32484 net.cpp:408] mbox_conf_softmax -> mbox_conf_softmax
I1001 23:59:14.465127 32484 net.cpp:150] Setting up mbox_conf_softmax
I1001 23:59:14.465133 32484 net.cpp:157] Top shape: 1 1650 5 (8250)
I1001 23:59:14.465137 32484 net.cpp:165] Memory required for data: 469262096
I1001 23:59:14.465139 32484 layer_factory.hpp:77] Creating layer mbox_conf_flatten
I1001 23:59:14.465147 32484 net.cpp:100] Creating Layer mbox_conf_flatten
I1001 23:59:14.465149 32484 net.cpp:434] mbox_conf_flatten <- mbox_conf_softmax
I1001 23:59:14.465154 32484 net.cpp:408] mbox_conf_flatten -> mbox_conf_flatten
I1001 23:59:14.465173 32484 net.cpp:150] Setting up mbox_conf_flatten
I1001 23:59:14.465178 32484 net.cpp:157] Top shape: 1 8250 (8250)
I1001 23:59:14.465180 32484 net.cpp:165] Memory required for data: 469295096
I1001 23:59:14.465183 32484 layer_factory.hpp:77] Creating layer detection_out
I1001 23:59:14.465193 32484 net.cpp:100] Creating Layer detection_out
I1001 23:59:14.465196 32484 net.cpp:434] detection_out <- mbox_loc
I1001 23:59:14.465200 32484 net.cpp:434] detection_out <- mbox_conf_flatten
I1001 23:59:14.465204 32484 net.cpp:434] detection_out <- mbox_priorbox
I1001 23:59:14.465211 32484 net.cpp:408] detection_out -> detection_out
W1001 23:59:14.465234 32484 detection_output_layer.cpp:49] Failed to create directory: /home/zhongyilin/Documents/data/GTSDBdevkit/results/GTSDB/SSDLite_510x300_100_40_6_True_1/Main
I1001 23:59:14.465528 32484 net.cpp:150] Setting up detection_out
I1001 23:59:14.465535 32484 net.cpp:157] Top shape: 1 1 1 7 (7)
I1001 23:59:14.465538 32484 net.cpp:165] Memory required for data: 469295124
I1001 23:59:14.465543 32484 layer_factory.hpp:77] Creating layer detection_eval
I1001 23:59:14.465548 32484 net.cpp:100] Creating Layer detection_eval
I1001 23:59:14.465551 32484 net.cpp:434] detection_eval <- detection_out
I1001 23:59:14.465556 32484 net.cpp:434] detection_eval <- label
I1001 23:59:14.465561 32484 net.cpp:408] detection_eval -> detection_eval
I1001 23:59:14.465641 32484 net.cpp:150] Setting up detection_eval
I1001 23:59:14.465646 32484 net.cpp:157] Top shape: 1 1 5 5 (25)
I1001 23:59:14.465649 32484 net.cpp:165] Memory required for data: 469295224
I1001 23:59:14.465652 32484 net.cpp:228] detection_eval does not need backward computation.
I1001 23:59:14.465656 32484 net.cpp:228] detection_out does not need backward computation.
I1001 23:59:14.465659 32484 net.cpp:228] mbox_conf_flatten does not need backward computation.
I1001 23:59:14.465664 32484 net.cpp:228] mbox_conf_softmax does not need backward computation.
…
