…
      sampler {
        min_scale: 0.3
        max_scale: 1
        min_aspect_ratio: 0.5
        max_aspect_ratio: 2
      }
      sample_constraint {
        min_jaccard_overlap: 0.9
      }
      max_sample: 1
      max_trials: 50
    }
    batch_sampler {
      sampler {
        min_scale: 0.3
        max_scale: 1
        min_aspect_ratio: 0.5
        max_aspect_ratio: 2
      }
      sample_constraint {
        max_jaccard_overlap: 1
      }
      max_sample: 1
      max_trials: 50
    }
    label_map_file: "data/GTSDB/labelmap_GTSDB.prototxt"
  }
}
layer {
  name: "conv1"
  type: "Convolution"
  bottom: "data"
  top: "conv1"
  param {
    lr_mult: 1
    decay_mult: 1
  }
  convolution_param {
    num_output: 32
    bias_term: false
    pad: 1
    kernel_size: 3
    stride: 2
    weight_filler {
      type: "msra"
    }
  }
}
layer {
  name: "conv1/bn"
  type: "BatchNorm"
  bottom: "conv1"
  top: "conv1"
  batch_norm_param {
    use_global_stats: true
    eps: 1e-05
  }
}
layer {
  name: "conv1/scale"
  type: "Scale"
  bottom: "conv1"
  top: "conv1"
  param {
    lr_mult: 1
    decay_mult: 0
  }
  param {
    lr_mult: 1
    decay_mult: 0
  }
  scale_param {
    bias_term: true
  }
}
layer {
  name: "relu1"
  type: "ReLU"
  bottom: "conv1"
  top: "conv1"
}
layer {
  name: "conv2_1/expand"
  type: "Convolution"
  bottom: "conv1"
  top: "conv2_1/expand"
  param {
    lr_mult: 1
    decay_mult: 1
  }
  convolution_param {
    num_output: 32
    bias_term: false
    kernel_size: 1
    weight_filler {
      type: "msra"
    }
  }
}
layer {
  name: "conv2_1/expand/bn"
  type: "BatchNorm"
  bottom: "conv2_1/expand"
  top: "conv2_1/expand"
  batch_norm_param {
    use_global_stats: true
    eps: 1e-05
  }
}
layer {
  name: "conv2_1/expand/scale"
  type: "Scale"
  bottom: "conv2_1/expand"
  top: "conv2_1/expand"
  param {
    lr_mult: 1
    decay_mult: 0
  }
  param {
    lr_mult: 1
    decay_mult: 0
  }
  scale_param {
    bias_term: true
  }
}
layer {
  name: "relu2_1/expand"
  type: "ReLU"
  bottom: "conv2_1/expand"
  top: "conv2_1/expand"
}
layer {
  name: "conv2_1/dwise"
  type: "DepthwiseConvolution"
  bottom: "conv2_1/expand"
  top: "conv2_1/dwise"
  param {
    lr_mult: 1
    decay_mult: 1
  }
  convolution_param {
    num_output: 32
    bias_term: false
    pad: 1
    kernel_size: 3
    group: 32
    stride: 1
    weight_filler {
      type: "msra"
    }
  }
}
layer {
  name: "conv2_1/dwise/bn"
  type: "BatchNorm"
  bottom: "conv2_1/dwise"
  top: "conv2_1/dwise"
  batch_norm_param {
    use_global_stats: true
    eps: 1e-05
  }
}
layer {
  name: "conv2_1/dwise/scale"
  type: "Scale"
  bottom: "conv2_1/dwise"
  top: "conv2_1/dwise"
  param {
    lr_mult: 1
    decay_mult: 0
  }
  param {
    lr_mult: 1
    decay_mult: 0
  }
  scale_param {
    bias_term: true
  }
}
layer {
  name: "relu2_1/dwise"
  type: "ReLU"
  bottom: "conv2_1/dwise"
  top: "conv2_1/dwise"
}
layer {
  name: "conv2_1/linear"
  type: "Convolution"
  bottom: "conv2_1/dwise"
  top: "conv2_1/linear"
  param {
    lr_mult: 1
    decay_mult: 1
  }
  convolution_param {
    num_output: 16
    bias_term: false
    kernel_size: 1
    weight_filler {
      type: "msra"
    }
  }
}
layer {
  name: "conv2_1/linear/bn"
  type: "BatchNorm"
  bottom: "conv2_1/linear"
  top: "conv2_1/linear"
  batch_norm_param {
    use_global_stats: true
    eps: 1e-05
  }
}
layer {
  name: "conv2_1/linear/scale"
  type: "Scale"
  bottom: "conv2_1/linear"
  top: "conv2_1/linear"
  param {
    lr_mult: 1
    decay_mult: 0
  }
  param {
    lr_mult: 1
    decay_mult: 0
  }
  scale_param {
    bias_term: true
  }
}
layer {
  name: "conv2_2/expand"
  type: "Convolution"
  bottom: "conv2_1/linear"
  top: "conv2_2/expand"
  param {
    lr_mult: 1
    decay_mult: 1
  }
  convolution_param {
    num_output: 96
    bias_term: false
    kernel_size: 1
    weight_filler {
      type: "msra"
    }
  }
}
layer {
  name: "conv2_2/expand/bn"
  type: "BatchNorm"
  bottom: "conv2_2/expand"
  top: "conv2_2/expand"
  batch_norm_param {
    use_global_stats: true
    eps: 1e-05
  }
}
layer {
  name: "conv2_2/expand/scale"
  type: "Scale"
  bottom: "conv2_2/expand"
  top: "conv2_2/expand"
  param {
    lr_mult: 1
    decay_mult: 0
  }
  param {
    lr_mult: 1
    decay_mult: 0
  }
  scale_param {
    bias_term: true
  }
}
layer {
  name: "relu2_2/expand"
  type: "ReLU"
  bottom: "conv2_2/expand"
  top: "conv2_2/expand"
}
layer {
  name: "conv2_2/dwise"
  type: "DepthwiseConvolution"
  bottom: "conv2_2/expand"
  top: "conv2_2/dwise"
  param {
    lr_mult: 1
    decay_mult: 1
  }
  convolution_param {
    num_output: 96
    bias_term: false
    pad: 1
    kernel_size: 3
    group: 96
    stride: 2
    weight_filler {
      type: "msra"
    }
  }
}
layer {
  name: "conv2_2/dwise/bn"
  type: "BatchNorm"
  bottom: "conv2_2/dwise"
  top: "conv2_2/dwise"
  batch_norm_param {
    use_global_stats: true
    eps: 1e-05
  }
}
layer {
  name: "conv2_2/dwise/scale"
  type: "Scale"
  bottom: "conv2_2/dwise"
  top: "conv2_2/dwise"
  param {
    lr_mult: 1
    decay_mult: 0
  }
  param {
    lr_mult: 1
    decay_mult: 0
  }
  scale_param {
    bias_term: true
  }
}
layer {
  name: "relu2_2/dwise"
  type: "ReLU"
  bottom: "conv2_2/dwise"
  top: "conv2_2/dwise"
}
layer {
  name: "conv2_2/linear"
  type: "Convolution"
  bottom: "conv2_2/dwise"
  top: "conv2_2/linear"
  param {
    lr_mult: 1
    decay_mult: 1
  }
  convolution_param {
    num_output: 24
    bias_term: false
    kernel_size: 1
    weight_filler {
      type: "msra"
    }
  }
}
layer {
  name: "conv2_2/linear/bn"
  type: "BatchNorm"
  bottom: "conv2_2/linear"
  top: "conv2_2/linear"
  batch_norm_param {
    use_global_stats: true
    eps: 1e-05
  }
}
layer {
  name: "conv2_2/linear/scale"
  type: "Scale"
  bottom: "conv2_2/linear"
  top: "conv2_2/linear"
  param {
    lr_mult: 1
    decay_mult: 0
  }
  param {
    lr_mult: 1
    decay_mult: 0
  }
  scale_param {
    bias_term: true
  }
}
layer {
  name: "conv3_1/expand"
  type: "Convolution"
  bottom: "conv2_2/linear"
  top: "conv3_1/expand"
  param {
    lr_mult: 1
    decay_mult: 1
  }
  convolution_param {
    num_output: 144
    bias_term: false
    kernel_size: 1
    weight_filler {
      type: "msra"
    }
  }
}
layer {
  name: "conv3_1/expand/bn"
  type: "BatchNorm"
  bottom: "conv3_1/expand"
  top: "conv3_1/expand"
  batch_norm_param {
    use_global_stats: true
    eps: 1e-05
  }
}
layer {
  name: "conv3_1/expand/scale"
  type: "Scale"
  bottom: "conv3_1/expand"
  top: "conv3_1/expand"
  param {
    lr_mult: 1
    decay_mult: 0
  }
  param {
    lr_mult: 1
    decay_mult: 0
  }
  scale_param {
    bias_term: true
  }
}
layer {
  name: "relu3_1/expand"
  type: "ReLU"
  bottom: "conv3_1/expand"
  top: "conv3_1/expand"
}
layer {
  name: "conv3_1/dwise"
  type: "DepthwiseConvolution"
  bottom: "conv3_1/expand"
  top: "conv3_1/dwise"
  param {
    lr_mult: 1
    decay_mult: 1
  }
  convolution_param {
    num_output: 144
    bias_term: false
    pad: 1
    kernel_size: 3
    group: 144
    stride: 1
    weight_filler {
      type: "msra"
    }
  }
}
layer {
  name: "conv3_1/dwise/bn"
  type: "BatchNorm"
  bottom: "conv3_1/dwise"
  top: "conv3_1/dwise"
  batch_norm_param {
    use_global_stats: true
    eps: 1e-05
  }
}
layer {
  name: "conv3_1/dwise/scale"
  type: "Scale"
  bottom: "conv3_1/dwise"
  top: "conv3_1/dwise"
  param {
    lr_mult: 1
    decay_mult: 0
  }
  param {
    lr_mult: 1
    decay_mult: 0
  }
  scale_param {
    bias_term: true
  }
}
layer {
  name: "relu3_1/dwise"
  type: "ReLU"
  bottom: "conv3_1/dwise"
  top: "conv3_1/dwise"
}
layer {
  name: "conv3_1/linear"
  type: "Convolution"
  bottom: "conv3_1/dwise"
  top: "conv3_1/linear"
  param {
    lr_mult: 1
    decay_mult: 1
  }
  convolution_param {
    num_output: 24
    bias_term: false
    kernel_size: 1
    weight_filler {
      type: "msra"
    }
  }
}
layer {
  name: "conv3_1/linear/bn"
  type: "BatchNorm"
  bottom: "conv3_1/linear"
  top: "conv3_1/linear"
  batch_norm_param {
    use_global_stats: true
    eps: 1e-05
  }
}
layer {
  name: "conv3_1/linear/scale"
  type: "Scale"
  bottom: "conv3_1/linear"
  top: "conv3_1/linear"
  param {
    lr_mult: 1
    decay_mult: 0
  }
  param {
    lr_mult: 1
    decay_mult: 0
  }
  scale_param {
    bias_term: true
  }
}
layer {
  name: "block_3_1"
  type: "Eltwise"
  bottom: "conv2_2/linear"
  bottom: "conv3_1/linear"
  top: "block_3_1"
}
layer {
  name: "conv3_2/expand"
  type: "Convolution"
  bottom: "block_3_1"
  top: "conv3_2/expand"
  param {
    lr_mult: 1
    decay_mult: 1
  }
  convolution_param {
    num_output: 144
    bias_term: false
    kernel_size: 1
    weight_filler {
      type: "msra"
    }
  }
}
layer {
  name: "conv3_2/expand/bn"
  type: "BatchNorm"
  bottom: "conv3_2/expand"
  top: "conv3_2/expand"
  batch_norm_param {
    use_global_stats: true
    eps: 1e-05
  }
}
layer {
  name: "conv3_2/expand/scale"
  type: "Scale"
  bottom: "conv3_2/expand"
  top: "conv3_2/expand"
  param {
    lr_mult: 1
    decay_mult: 0
  }
  param {
    lr_mult: 1
    decay_mult: 0
  }
  scale_param {
    bias_term: true
  }
}
layer {
  name: "relu3_2/expand"
  type: "ReLU"
  bottom: "conv3_2/expand"
  top: "conv3_2/expand"
}
layer {
  name: "conv3_2/dwise"
  type: "DepthwiseConvolution"
  bottom: "conv3_2/expand"
  top: "conv3_2/dwise"
  param {
    lr_mult: 1
    decay_mult: 1
  }
  convolution_param {
    num_output: 144
    bias_term: false
    pad: 1
    kernel_size: 3
    group: 144
    stride: 2
    weight_filler {
      type: "msra"
    }
  }
}
layer {
  name: "conv3_2/dwise/bn"
  type: "BatchNorm"
  bottom: "conv3_2/dwise"
  top: "conv3_2/dwise"
  batch_norm_param {
    use_global_stats: true
    eps: 1e-05
  }
}
layer {
  name: "conv3_2/dwise/scale"
  type: "Scale"
  bottom: "conv3_2/dwise"
  top: "conv3_2/dwise"
  param {
    lr_mult: 1
    decay_mult: 0
  }
  param {
    lr_mult: 1
    decay_mult: 0
  }
  scale_param {
    bias_term: true
  }
}
layer {
  name: "relu3_2/dwise"
  type: "ReLU"
  bottom: "conv3_2/dwise"
  top: "conv3_2/dwise"
}
layer {
  name: "conv3_2/linear"
  type: "Convolution"
  bottom: "conv3_2/dwise"
  top: "conv3_2/linear"
  param {
    lr_mult: 1
    decay_mult: 1
  }
  convolution_param {
    num_output: 32
    bias_term: false
    kernel_size: 1
    weight_filler {
      type: "msra"
    }
  }
}
layer {
  name: "conv3_2/linear/bn"
  type: "BatchNorm"
  bottom: "conv3_2/linear"
  top: "conv3_2/linear"
  batch_norm_param {
    use_global_stats: true
    eps: 1e-05
  }
}
layer {
  name: "conv3_2/linear/scale"
  type: "Scale"
  bottom: "conv3_2/linear"
  top: "conv3_2/linear"
  param {
    lr_mult: 1
    decay_mult: 0
  }
  param {
    lr_mult: 1
    decay_mult: 0
  }
  scale_param {
    bias_term: true
  }
}
layer {
  name: "conv4_1/expand"
  type: "Convolution"
  bottom: "conv3_2/linear"
  top: "conv4_1/expand"
  param {
    lr_mult: 1
    decay_mult: 1
  }
  convolution_param {
    num_output: 192
    bias_term: false
    kernel_size: 1
    weight_filler {
      type: "msra"
    }
  }
}
layer {
  name: "conv4_1/expand/bn"
  type: "BatchNorm"
  bottom: "conv4_1/expand"
  top: "conv4_1/expand"
  batch_norm_param {
    use_global_stats: true
    eps: 1e-05
  }
}
layer {
  name: "conv4_1/expand/scale"
  type: "Scale"
  bottom: "conv4_1/expand"
  top: "conv4_1/expand"
  param {
    lr_mult: 1
    decay_mult: 0
  }
  param {
    lr_mult: 1
    decay_mult: 0
  }
  scale_param {
    bias_term: true
  }
}
layer {
  name: "relu4_1/expand"
  type: "ReLU"
  bottom: "conv4_1/expand"
  top: "conv4_1/expand"
}
layer {
  name: "conv4_1/dwise"
  type: "DepthwiseConvolution"
  bottom: "conv4_1/expand"
  top: "conv4_1/dwise"
  param {
    lr_mult: 1
    decay_mult: 1
  }
  convolution_param {
    num_output: 192
    bias_term: false
    pad: 1
    kernel_size: 3
    group: 192
    stride: 1
    weight_filler {
      type: "msra"
    }
  }
}
layer {
  name: "conv4_1/dwise/bn"
  type: "BatchNorm"
  bottom: "conv4_1/dwise"
  top: "conv4_1/dwise"
  batch_norm_param {
    use_global_stats: true
    eps: 1e-05
  }
}
layer {
  name: "conv4_1/dwise/scale"
  type: "Scale"
  bottom: "conv4_1/dwise"
  top: "conv4_1/dwise"
  param {
    lr_mult: 1
    decay_mult: 0
  }
  param {
    lr_mult: 1
    decay_mult: 0
  }
  scale_param {
    bias_term: true
  }
}
layer {
  name: "relu4_1/dwise"
  type: "ReLU"
  bottom: "conv4_1/dwise"
  top: "conv4_1/dwise"
}
layer {
  name: "conv4_1/linear"
  type: "Convolution"
  bottom: "conv4_1/dwise"
  top: "conv4_1/linear"
  param {
    lr_mult: 1
    decay_mult: 1
  }
  convolution_param {
    num_output: 32
    bias_term: false
    kernel_size: 1
    weight_filler {
      type: "msra"
    }
  }
}
layer {
  name: "conv4_1/linear/bn"
  type: "BatchNorm"
  bottom: "conv4_1/linear"
  top: "conv4_1/linear"
  batch_norm_param {
    use_global_stats: true
    eps: 1e-05
  }
}
layer {
  name: "conv4_1/linear/scale"
  type: "Scale"
  bottom: "conv4_1/linear"
  top: "conv4_1/linear"
  param {
    lr_mult: 1
    decay_mult: 0
  }
  param {
    lr_mult: 1
    decay_mult: 0
  }
  scale_param {
    bias_term: true
  }
}
layer {
  name: "block_4_1"
  type: "Eltwise"
  bottom: "conv3_2/linear"
  bottom: "conv4_1/linear"
  top: "block_4_1"
}
layer {
  name: "conv4_2/expand"
  type: "Convolution"
  bottom: "block_4_1"
  top: "conv4_2/expand"
  param {
    lr_mult: 1
    decay_mult: 1
  }
  convolution_param {
    num_output: 192
    bias_term: false
    kernel_size: 1
    weight_filler {
      type: "msra"
    }
  }
}
layer {
  name: "conv4_2/expand/bn"
  type: "BatchNorm"
  bottom: "conv4_2/expand"
  top: "conv4_2/expand"
  batch_norm_param {
    use_global_stats: true
    eps: 1e-05
  }
}
layer {
  name: "conv4_2/expand/scale"
  type: "Scale"
  bottom: "conv4_2/expand"
  top: "conv4_2/expand"
  param {
    lr_mult: 1
    decay_mult: 0
  }
  param {
    lr_mult: 1
    decay_mult: 0
  }
  scale_param {
    bias_term: true
  }
}
layer {
  name: "relu4_2/expand"
  type: "ReLU"
  bottom: "conv4_2/expand"
  top: "conv4_2/expand"
}
layer {
  name: "conv4_2/dwise"
  type: "DepthwiseConvolution"
  bottom: "conv4_2/expand"
  top: "conv4_2/dwise"
  param {
    lr_mult: 1
    decay_mult: 1
  }
  convolution_param {
    num_output: 192
    bias_term: false
    pad: 1
    kernel_size: 3
    group: 192
    stride: 1
    weight_filler {
      type: "msra"
    }
  }
}
layer {
  name: "conv4_2/dwise/bn"
  type: "BatchNorm"
  bottom: "conv4_2/dwise"
  top: "conv4_2/dwise"
  batch_norm_param {
    use_global_stats: true
    eps: 1e-05
  }
}
layer {
  name: "conv4_2/dwise/scale"
  type: "Scale"
  bottom: "conv4_2/dwise"
  top: "conv4_2/dwise"
  param {
    lr_mult: 1
    decay_mult: 0
  }
  param {
    lr_mult: 1
    decay_mult: 0
  }
  scale_param {
    bias_term: true
  }
}
layer {
  name: "relu4_2/dwise"
  type: "ReLU"
  bottom: "conv4_2/dwise"
  top: "conv4_2/dwise"
}
layer {
  name: "conv4_2/linear"
  type: "Convolution"
  bottom: "conv4_2/dwise"
  top: "conv4_2/linear"
  param {
    lr_mult: 1
    decay_mult: 1
  }
  convolution_param {
    num_output: 32
    bias_term: false
    kernel_size: 1
    weight_filler {
      type: "msra"
    }
  }
}
layer {
  name: "conv4_2/linear/bn"
  type: "BatchNorm"
  bottom: "conv4_2/linear"
  top: "conv4_2/linear"
  batch_norm_param {
    use_global_stats: true
    eps: 1e-05
  }
}
layer {
  name: "conv4_2/linear/scale"
  type: "Scale"
  bottom: "conv4_2/linear"
  top: "conv4_2/linear"
  param {
    lr_mult: 1
    decay_mult: 0
  }
  param {
    lr_mult: 1
    decay_mult: 0
  }
  scale_param {
    bias_term: true
  }
}
layer {
  name: "block_4_2"
  type: "Eltwise"
  bottom: "block_4_1"
  bottom: "conv4_2/linear"
  top: "block_4_2"
}
layer {
  name: "conv4_3/expand"
  type: "Convolution"
  bottom: "block_4_2"
  top: "conv4_3/expand"
  param {
    lr_mult: 1
    decay_mult: 1
  }
  convolution_param {
    num_output: 192
    bias_term: false
    kernel_size: 1
    weight_filler {
      type: "msra"
    }
  }
}
layer {
  name: "conv4_3/expand/bn"
  type: "BatchNorm"
  bottom: "conv4_3/expand"
  top: "conv4_3/expand"
  batch_norm_param {
    use_global_stats: true
    eps: 1e-05
  }
}
layer {
  name: "conv4_3/expand/scale"
  type: "Scale"
  bottom: "conv4_3/expand"
  top: "conv4_3/expand"
  param {
    lr_mult: 1
    decay_mult: 0
  }
  param {
    lr_mult: 1
    decay_mult: 0
  }
  scale_param {
    bias_term: true
  }
}
layer {
  name: "relu4_3/expand"
  type: "ReLU"
  bottom: "conv4_3/expand"
  top: "conv4_3/expand"
}
layer {
  name: "conv4_3/dwise"
  type: "DepthwiseConvolution"
  bottom: "conv4_3/expand"
  top: "conv4_3/dwise"
  param {
    lr_mult: 1
    decay_mult: 1
  }
  convolution_param {
    num_output: 192
    bias_term: false
    pad: 1
    kernel_size: 3
    group: 192
    stride: 1
    weight_filler {
      type: "msra"
    }
  }
}
layer {
  name: "conv4_3/dwise/bn"
  type: "BatchNorm"
  bottom: "conv4_3/dwise"
  top: "conv4_3/dwise"
  batch_norm_param {
    use_global_stats: true
    eps: 1e-05
  }
}
layer {
  name: "conv4_3/dwise/scale"
  type: "Scale"
  bottom: "conv4_3/dwise"
  top: "conv4_3/dwise"
  param {
    lr_mult: 1
    decay_mult: 0
  }
  param {
    lr_mult: 1
    decay_mult: 0
  }
  scale_param {
    bias_term: true
  }
}
layer {
  name: "relu4_3/dwise"
  type: "ReLU"
  bottom: "conv4_3/dwise"
  top: "conv4_3/dwise"
}
layer {
  name: "conv4_3/linear"
  type: "Convolution"
  bottom: "conv4_3/dwise"
  top: "conv4_3/linear"
  param {
    lr_mult: 1
    decay_mult: 1
  }
  convolution_param {
    num_output: 64
    bias_term: false
    kernel_size: 1
    weight_filler {
      type: "msra"
    }
  }
}
layer {
  name: "conv4_3/linear/bn"
  type: "BatchNorm"
  bottom: "conv4_3/linear"
  top: "conv4_3/linear"
  batch_norm_param {
    use_global_stats: true
    eps: 1e-05
  }
}
layer {
  name: "conv4_3/linear/scale"
  type: "Scale"
  bottom: "conv4_3/linear"
  top: "conv4_3/linear"
  param {
    lr_mult: 1
    decay_mult: 0
  }
  param {
    lr_mult: 1
    decay_mult: 0
  }
  scale_param {
    bias_term: true
  }
}
layer {
  name: "conv4_4/expand"
  type: "Convolution"
  bottom: "conv4_3/linear"
  top: "conv4_4/expand"
  param {
    lr_mult: 1
    decay_mult: 1
  }
  convolution_param {
    num_output: 384
    bias_term: false
    kernel_size: 1
    weight_filler {
      type: "msra"
    }
  }
}
layer {
  name: "conv4_4/expand/bn"
  type: "BatchNorm"
  bottom: "conv4_4/expand"
  top: "conv4_4/expand"
  batch_norm_param {
    use_global_stats: true
    eps: 1e-05
  }
}
layer {
  name: "conv4_4/expand/scale"
  type: "Scale"
  bottom: "conv4_4/expand"
  top: "conv4_4/expand"
  param {
    lr_mult: 1
    decay_mult: 0
  }
  param {
    lr_mult: 1
    decay_mult: 0
  }
  scale_param {
    bias_term: true
  }
}
layer {
  name: "relu4_4/expand"
  type: "ReLU"
  bottom: "conv4_4/expand"
  top: "conv4_4/expand"
}
layer {
  name: "conv4_4/dwise"
  type: "DepthwiseConvolution"
  bottom: "conv4_4/expand"
  top: "conv4_4/dwise"
  param {
    lr_mult: 1
    decay_mult: 1
  }
  convolution_param {
    num_output: 384
    bias_term: false
    pad: 1
    kernel_size: 3
    group: 384
    stride: 1
    weight_filler {
      type: "msra"
    }
  }
}
layer {
  name: "conv4_4/dwise/bn"
  type: "BatchNorm"
  bottom: "conv4_4/dwise"
  top: "conv4_4/dwise"
  batch_norm_param {
    use_global_stats: true
    eps: 1e-05
  }
}
layer {
  name: "conv4_4/dwise/scale"
  type: "Scale"
  bottom: "conv4_4/dwise"
  top: "conv4_4/dwise"
  param {
    lr_mult: 1
    decay_mult: 0
  }
  param {
    lr_mult: 1
    decay_mult: 0
  }
  scale_param {
    bias_term: true
  }
}
layer {
  name: "relu4_4/dwise"
  type: "ReLU"
  bottom: "conv4_4/dwise"
  top: "conv4_4/dwise"
}
layer {
  name: "conv4_4/linear"
  type: "Convolution"
  bottom: "conv4_4/dwise"
  top: "conv4_4/linear"
  param {
    lr_mult: 1
    decay_mult: 1
  }
  convolution_param {
    num_output: 64
    bias_term: false
    kernel_size: 1
    weight_filler {
      type: "msra"
    }
  }
}
layer {
  name: "conv4_4/linear/bn"
  type: "BatchNorm"
  bottom: "conv4_4/linear"
  top: "conv4_4/linear"
  batch_norm_param {
    use_global_stats: true
    eps: 1e-05
  }
}
layer {
  name: "conv4_4/linear/scale"
  type: "Scale"
  bottom: "conv4_4/linear"
  top: "conv4_4/linear"
  param {
    lr_mult: 1
    decay_mult: 0
  }
  param {
    lr_mult: 1
    decay_mult: 0
  }
  scale_param {
    bias_term: true
  }
}
layer {
  name: "block_4_4"
  type: "Eltwise"
  bottom: "conv4_3/linear"
  bottom: "conv4_4/linear"
  top: "block_4_4"
}
layer {
  name: "conv4_5/expand"
  type: "Convolution"
  bottom: "block_4_4"
  top: "conv4_5/expand"
  param {
    lr_mult: 1
    decay_mult: 1
  }
  convolution_param {
    num_output: 384
    bias_term: false
    kernel_size: 1
    weight_filler {
      type: "msra"
    }
  }
}
layer {
  name: "conv4_5/expand/bn"
  type: "BatchNorm"
  bottom: "conv4_5/expand"
  top: "conv4_5/expand"
  batch_norm_param {
    use_global_stats: true
    eps: 1e-05
  }
}
layer {
  name: "conv4_5/expand/scale"
  type: "Scale"
  bottom: "conv4_5/expand"
  top: "conv4_5/expand"
  param {
    lr_mult: 1
    decay_mult: 0
  }
  param {
    lr_mult: 1
    decay_mult: 0
  }
  scale_param {
    bias_term: true
  }
}
layer {
  name: "relu4_5/expand"
  type: "ReLU"
  bottom: "conv4_5/expand"
  top: "conv4_5/expand"
}
layer {
  name: "conv4_5/dwise"
  type: "DepthwiseConvolution"
  bottom: "conv4_5/expand"
  top: "conv4_5/dwise"
  param {
    lr_mult: 1
    decay_mult: 1
  }
  convolution_param {
    num_output: 384
    bias_term: false
    pad: 1
    kernel_size: 3
    group: 384
    stride: 1
    weight_filler {
      type: "msra"
    }
  }
}
layer {
  name: "conv4_5/dwise/bn"
  type: "BatchNorm"
  bottom: "conv4_5/dwise"
  top: "conv4_5/dwise"
  batch_norm_param {
    use_global_stats: true
    eps: 1e-05
  }
}
layer {
  name: "conv4_5/dwise/scale"
  type: "Scale"
  bottom: "conv4_5/dwise"
  top: "conv4_5/dwise"
  param {
    lr_mult: 1
    decay_mult: 0
  }
  param {
    lr_mult: 1
    decay_mult: 0
  }
  scale_param {
    bias_term: true
  }
}
layer {
  name: "relu4_5/dwise"
  type: "ReLU"
  bottom: "conv4_5/dwise"
  top: "conv4_5/dwise"
}
layer {
  name: "conv4_5/linear"
  type: "Convolution"
  bottom: "conv4_5/dwise"
  top: "conv4_5/linear"
  param {
    lr_mult: 1
    decay_mult: 1
  }
  convolution_param {
    num_output: 64
    bias_term: false
    kernel_size: 1
    weight_filler {
      type: "msra"
    }
  }
}
layer {
  name: "conv4_5/linear/bn"
  type: "BatchNorm"
  bottom: "conv4_5/linear"
  top: "conv4_5/linear"
  batch_norm_param {
    use_global_stats: true
    eps: 1e-05
  }
}
layer {
  name: "conv4_5/linear/scale"
  type: "Scale"
  bottom: "conv4_5/linear"
  top: "conv4_5/linear"
  param {
    lr_mult: 1
    decay_mult: 0
  }
  param {
    lr_mult: 1
    decay_mult: 0
  }
  scale_param {
    bias_term: true
  }
}
layer {
  name: "block_4_5"
  type: "Eltwise"
  bottom: "block_4_4"
  bottom: "conv4_5/linear"
  top: "block_4_5"
}
layer {
  name: "conv4_6/expand"
  type: "Convolution"
  bottom: "block_4_5"
  top: "conv4_6/expand"
  param {
    lr_mult: 1
    decay_mult: 1
  }
  convolution_param {
    num_output: 384
    bias_term: false
    kernel_size: 1
    weight_filler {
      type: "msra"
    }
  }
}
layer {
  name: "conv4_6/expand/bn"
  type: "BatchNorm"
  bottom: "conv4_6/expand"
  top: "conv4_6/expand"
  batch_norm_param {
    use_global_stats: true
    eps: 1e-05
  }
}
layer {
  name: "conv4_6/expand/scale"
  type: "Scale"
  bottom: "conv4_6/expand"
  top: "conv4_6/expand"
  param {
    lr_mult: 1
    decay_mult: 0
  }
  param {
    lr_mult: 1
    decay_mult: 0
  }
  scale_param {
    bias_term: true
  }
}
layer {
  name: "relu4_6/expand"
  type: "ReLU"
  bottom: "conv4_6/expand"
  top: "conv4_6/expand"
}
layer {
  name: "conv4_6/dwise"
  type: "DepthwiseConvolution"
  bottom: "conv4_6/expand"
  top: "conv4_6/dwise"
  param {
    lr_mult: 1
    decay_mult: 1
  }
  convolution_param {
    num_output: 384
    bias_term: false
    pad: 1
    kernel_size: 3
    group: 384
    stride: 1
    weight_filler {
      type: "msra"
    }
  }
}
layer {
  name: "conv4_6/dwise/bn"
  type: "BatchNorm"
  bottom: "conv4_6/dwise"
  top: "conv4_6/dwise"
  batch_norm_param {
    use_global_stats: true
    eps: 1e-05
  }
}
layer {
  name: "conv4_6/dwise/scale"
  type: "Scale"
  bottom: "conv4_6/dwise"
  top: "conv4_6/dwise"
  param {
    lr_mult: 1
    decay_mult: 0
  }
  param {
    lr_mult: 1
    decay_mult: 0
  }
  scale_param {
    bias_term: true
  }
}
layer {
  name: "relu4_6/dwise"
  type: "ReLU"
  bottom: "conv4_6/dwise"
  top: "conv4_6/dwise"
}
layer {
  name: "conv4_6/linear"
  type: "Convolution"
  bottom: "conv4_6/dwise"
  top: "conv4_6/linear"
  param {
    lr_mult: 1
    decay_mult: 1
  }
  convolution_param {
    num_output: 64
    bias_term: false
    kernel_size: 1
    weight_filler {
      type: "msra"
    }
  }
}
layer {
  name: "conv4_6/linear/bn"
  type: "BatchNorm"
  bottom: "conv4_6/linear"
  top: "conv4_6/linear"
  batch_norm_param {
    use_global_stats: true
    eps: 1e-05
  }
}
layer {
  name: "conv4_6/linear/scale"
  type: "Scale"
  bottom: "conv4_6/linear"
  top: "conv4_6/linear"
  param {
    lr_mult: 1
    decay_mult: 0
  }
  param {
    lr_mult: 1
    decay_mult: 0
  }
  scale_param {
    bias_term: true
  }
}
layer {
  name: "block_4_6"
  type: "Eltwise"
  bottom: "block_4_5"
  bottom: "conv4_6/linear"
  top: "block_4_6"
}
layer {
  name: "conv4_7/expand"
  type: "Convolution"
  bottom: "block_4_6"
  top: "conv4_7/expand"
  param {
    lr_mult: 1
    decay_mult: 1
  }
  convolution_param {
    num_output: 384
    bias_term: false
    kernel_size: 1
    weight_filler {
      type: "msra"
    }
  }
}
layer {
  name: "conv4_7/expand/bn"
  type: "BatchNorm"
  bottom: "conv4_7/expand"
  top: "conv4_7/expand"
  batch_norm_param {
    use_global_stats: true
    eps: 1e-05
  }
}
layer {
  name: "conv4_7/expand/scale"
  type: "Scale"
  bottom: "conv4_7/expand"
  top: "conv4_7/expand"
  param {
    lr_mult: 1
    decay_mult: 0
  }
  param {
    lr_mult: 1
    decay_mult: 0
  }
  scale_param {
    bias_term: true
  }
}
layer {
  name: "relu4_7/expand"
  type: "ReLU"
  bottom: "conv4_7/expand"
  top: "conv4_7/expand"
}
layer {
  name: "conv4_7/dwise"
  type: "DepthwiseConvolution"
  bottom: "conv4_7/expand"
  top: "conv4_7/dwise"
  param {
    lr_mult: 1
    decay_mult: 1
  }
  convolution_param {
    num_output: 384
    bias_term: false
    pad: 1
    kernel_size: 3
    group: 384
    stride: 2
    weight_filler {
      type: "msra"
    }
  }
}
layer {
  name: "conv4_7/dwise/bn"
  type: "BatchNorm"
  bottom: "conv4_7/dwise"
  top: "conv4_7/dwise"
  batch_norm_param {
    use_global_stats: true
    eps: 1e-05
  }
}
layer {
  name: "conv4_7/dwise/scale"
  type: "Scale"
  bottom: "conv4_7/dwise"
  top: "conv4_7/dwise"
  param {
    lr_mult: 1
    decay_mult: 0
  }
  param {
    lr_mult: 1
    decay_mult: 0
  }
  scale_param {
    bias_term: true
  }
}
layer {
  name: "relu4_7/dwise"
  type: "ReLU"
  bottom: "conv4_7/dwise"
  top: "conv4_7/dwise"
}
layer {
  name: "conv4_7/linear"
  type: "Convolution"
  bottom: "conv4_7/dwise"
  top: "conv4_7/linear"
  param {
    lr_mult: 1
    decay_mult: 1
  }
  convolution_param {
    num_output: 96
    bias_term: false
    kernel_size: 1
    weight_filler {
      type: "msra"
    }
  }
}
layer {
  name: "conv4_7/linear/bn"
  type: "BatchNorm"
  bottom: "conv4_7/linear"
  top: "conv4_7/linear"
  batch_norm_param {
    use_global_stats: true
    eps: 1e-05
  }
}
layer {
  name: "conv4_7/linear/scale"
  type: "Scale"
  bottom: "conv4_7/linear"
  top: "conv4_7/linear"
  param {
    lr_mult: 1
    de
I1002 14:54:27.628211 10714 layer_factory.hpp:77] Creating layer data
I1002 14:54:27.628383 10714 net.cpp:100] Creating Layer data
I1002 14:54:27.628391 10714 net.cpp:408] data -> data
I1002 14:54:27.628417 10714 net.cpp:408] data -> label
I1002 14:54:27.628922 10725 db_lmdb.cpp:35] Opened lmdb examples/GTSDB/GTSDB_trainval_lmdb
I1002 14:54:27.641736 10714 annotated_data_layer.cpp:62] output data size: 1,3,300,510
I1002 14:54:27.644343 10714 net.cpp:150] Setting up data
I1002 14:54:27.644358 10714 net.cpp:157] Top shape: 1 3 300 510 (459000)
I1002 14:54:27.644361 10714 net.cpp:157] Top shape: 1 1 3 8 (24)
I1002 14:54:27.644363 10714 net.cpp:165] Memory required for data: 1836096
I1002 14:54:27.644371 10714 layer_factory.hpp:77] Creating layer data_data_0_split
I1002 14:54:27.644379 10714 net.cpp:100] Creating Layer data_data_0_split
I1002 14:54:27.644383 10714 net.cpp:434] data_data_0_split <- data
I1002 14:54:27.644393 10714 net.cpp:408] data_data_0_split -> data_data_0_split_0
I1002 14:54:27.644400 10714 net.cpp:408] data_data_0_split -> data_data_0_split_1
I1002 14:54:27.644404 10714 net.cpp:408] data_data_0_split -> data_data_0_split_2
I1002 14:54:27.644410 10714 net.cpp:408] data_data_0_split -> data_data_0_split_3
I1002 14:54:27.644413 10714 net.cpp:408] data_data_0_split -> data_data_0_split_4
I1002 14:54:27.644418 10714 net.cpp:408] data_data_0_split -> data_data_0_split_5
I1002 14:54:27.644423 10714 net.cpp:408] data_data_0_split -> data_data_0_split_6
I1002 14:54:27.644490 10714 net.cpp:150] Setting up data_data_0_split
I1002 14:54:27.644495 10714 net.cpp:157] Top shape: 1 3 300 510 (459000)
I1002 14:54:27.644497 10714 net.cpp:157] Top shape: 1 3 300 510 (459000)
I1002 14:54:27.644500 10714 net.cpp:157] Top shape: 1 3 300 510 (459000)
I1002 14:54:27.644502 10714 net.cpp:157] Top shape: 1 3 300 510 (459000)
I1002 14:54:27.644505 10714 net.cpp:157] Top shape: 1 3 300 510 (459000)
I1002 14:54:27.644508 10714 net.cpp:157] Top shape: 1 3 300 510 (459000)
I1002 14:54:27.644511 10714 net.cpp:157] Top shape: 1 3 300 510 (459000)
I1002 14:54:27.644512 10714 net.cpp:165] Memory required for data: 14688096
I1002 14:54:27.644515 10714 layer_factory.hpp:77] Creating layer conv1
I1002 14:54:27.644526 10714 net.cpp:100] Creating Layer conv1
I1002 14:54:27.644528 10714 net.cpp:434] conv1 <- data_data_0_split_0
I1002 14:54:27.644531 10714 net.cpp:408] conv1 -> conv1
I1002 14:54:27.962918 10714 net.cpp:150] Setting up conv1
I1002 14:54:27.962939 10714 net.cpp:157] Top shape: 1 32 150 255 (1224000)
I1002 14:54:27.962941 10714 net.cpp:165] Memory required for data: 19584096
I1002 14:54:27.962957 10714 layer_factory.hpp:77] Creating layer conv1/bn
I1002 14:54:27.962966 10714 net.cpp:100] Creating Layer conv1/bn
I1002 14:54:27.962970 10714 net.cpp:434] conv1/bn <- conv1
I1002 14:54:27.962972 10714 net.cpp:395] conv1/bn -> conv1 (in-place)
I1002 14:54:27.963546 10714 net.cpp:150] Setting up conv1/bn
I1002 14:54:27.963552 10714 net.cpp:157] Top shape: 1 32 150 255 (1224000)
I1002 14:54:27.963555 10714 net.cpp:165] Memory required for data: 24480096
I1002 14:54:27.963562 10714 layer_factory.hpp:77] Creating layer conv1/scale
I1002 14:54:27.963568 10714 net.cpp:100] Creating Layer conv1/scale
I1002 14:54:27.963570 10714 net.cpp:434] conv1/scale <- conv1
I1002 14:54:27.963574 10714 net.cpp:395] conv1/scale -> conv1 (in-place)
I1002 14:54:27.963603 10714 layer_factory.hpp:77] Creating layer conv1/scale
I1002 14:54:27.963692 10714 net.cpp:150] Setting up conv1/scale
I1002 14:54:27.963697 10714 net.cpp:157] Top shape: 1 32 150 255 (1224000)
I1002 14:54:27.963699 10714 net.cpp:165] Memory required for data: 29376096
I1002 14:54:27.963703 10714 layer_factory.hpp:77] Creating layer relu1
I1002 14:54:27.963707 10714 net.cpp:100] Creating Layer relu1
I1002 14:54:27.963709 10714 net.cpp:434] relu1 <- conv1
I1002 14:54:27.963712 10714 net.cpp:395] relu1 -> conv1 (in-place)
I1002 14:54:27.963984 10714 net.cpp:150] Setting up relu1
I1002 14:54:27.963989 10714 net.cpp:157] Top shape: 1 32 150 255 (1224000)
I1002 14:54:27.963991 10714 net.cpp:165] Memory required for data: 34272096
I1002 14:54:27.963994 10714 layer_factory.hpp:77] Creating layer conv2_1/expand
I1002 14:54:27.963999 10714 net.cpp:100] Creating Layer conv2_1/expand
I1002 14:54:27.964001 10714 net.cpp:434] conv2_1/expand <- conv1
I1002 14:54:27.964004 10714 net.cpp:408] conv2_1/expand -> conv2_1/expand
I1002 14:54:27.965131 10714 net.cpp:150] Setting up conv2_1/expand
I1002 14:54:27.965138 10714 net.cpp:157] Top shape: 1 32 150 255 (1224000)
I1002 14:54:27.965140 10714 net.cpp:165] Memory required for data: 39168096
I1002 14:54:27.965143 10714 layer_factory.hpp:77] Creating layer conv2_1/expand/bn
I1002 14:54:27.965148 10714 net.cpp:100] Creating Layer conv2_1/expand/bn
I1002 14:54:27.965149 10714 net.cpp:434] conv2_1/expand/bn <- conv2_1/expand
I1002 14:54:27.965153 10714 net.cpp:395] conv2_1/expand/bn -> conv2_1/expand (in-place)
I1002 14:54:27.965281 10714 net.cpp:150] Setting up conv2_1/expand/bn
I1002 14:54:27.965286 10714 net.cpp:157] Top shape: 1 32 150 255 (1224000)
I1002 14:54:27.965286 10714 net.cpp:165] Memory required for data: 44064096
I1002 14:54:27.965292 10714 layer_factory.hpp:77] Creating layer conv2_1/expand/scale
I1002 14:54:27.965297 10714 net.cpp:100] Creating Layer conv2_1/expand/scale
I1002 14:54:27.965301 10714 net.cpp:434] conv2_1/expand/scale <- conv2_1/expand
I1002 14:54:27.965303 10714 net.cpp:395] conv2_1/expand/scale -> conv2_1/expand (in-place)
I1002 14:54:27.965327 10714 layer_factory.hpp:77] Creating layer conv2_1/expand/scale
I1002 14:54:27.965425 10714 net.cpp:150] Setting up conv2_1/expand/scale
I1002 14:54:27.965430 10714 net.cpp:157] Top shape: 1 32 150 255 (1224000)
I1002 14:54:27.965431 10714 net.cpp:165] Memory required for data: 48960096
I1002 14:54:27.965435 10714 layer_factory.hpp:77] Creating layer relu2_1/expand
I1002 14:54:27.965438 10714 net.cpp:100] Creating Layer relu2_1/expand
I1002 14:54:27.965441 10714 net.cpp:434] relu2_1/expand <- conv2_1/expand
I1002 14:54:27.965443 10714 net.cpp:395] relu2_1/expand -> conv2_1/expand (in-place)
I1002 14:54:27.965708 10714 net.cpp:150] Setting up relu2_1/expand
I1002 14:54:27.965713 10714 net.cpp:157] Top shape: 1 32 150 255 (1224000)
I1002 14:54:27.965715 10714 net.cpp:165] Memory required for data: 53856096
I1002 14:54:27.965718 10714 layer_factory.hpp:77] Creating layer conv2_1/dwise
I1002 14:54:27.965723 10714 net.cpp:100] Creating Layer conv2_1/dwise
I1002 14:54:27.965724 10714 net.cpp:434] conv2_1/dwise <- conv2_1/expand
I1002 14:54:27.965728 10714 net.cpp:408] conv2_1/dwise -> conv2_1/dwise
I1002 14:54:27.965848 10714 net.cpp:150] Setting up conv2_1/dwise
I1002 14:54:27.965852 10714 net.cpp:157] Top shape: 1 32 150 255 (1224000)
I1002 14:54:27.965854 10714 net.cpp:165] Memory required for data: 58752096
I1002 14:54:27.965857 10714 layer_factory.hpp:77] Creating layer conv2_1/dwise/bn
I1002 14:54:27.965862 10714 net.cpp:100] Creating Layer conv2_1/dwise/bn
I1002 14:54:27.965863 10714 net.cpp:434] conv2_1/dwise/bn <- conv2_1/dwise
I1002 14:54:27.965867 10714 net.cpp:395] conv2_1/dwise/bn -> conv2_1/dwise (in-place)
I1002 14:54:27.965991 10714 net.cpp:150] Setting up conv2_1/dwise/bn
I1002 14:54:27.965996 10714 net.cpp:157] Top shape: 1 32 150 255 (1224000)
I1002 14:54:27.965997 10714 net.cpp:165] Memory required for data: 63648096
I1002 14:54:27.966001 10714 layer_factory.hpp:77] Creating layer conv2_1/dwise/scale
I1002 14:54:27.966006 10714 net.cpp:100] Creating Layer conv2_1/dwise/scale
I1002 14:54:27.966007 10714 net.cpp:434] conv2_1/dwise/scale <- conv2_1/dwise
I1002 14:54:27.966011 10714 net.cpp:395] conv2_1/dwise/scale -> conv2_1/dwise (in-place)
I1002 14:54:27.966033 10714 layer_factory.hpp:77] Creating layer conv2_1/dwise/scale
I1002 14:54:27.966120 10714 net.cpp:150] Setting up conv2_1/dwise/scale
I1002 14:54:27.966123 10714 net.cpp:157] Top shape: 1 32 150 255 (1224000)
I1002 14:54:27.966125 10714 net.cpp:165] Memory required for data: 68544096
I1002 14:54:27.966131 10714 layer_factory.hpp:77] Creating layer relu2_1/dwise
I1002 14:54:27.966135 10714 net.cpp:100] Creating Layer relu2_1/dwise
I1002 14:54:27.966137 10714 net.cpp:434] relu2_1/dwise <- conv2_1/dwise
I1002 14:54:27.966141 10714 net.cpp:395] relu2_1/dwise -> conv2_1/dwise (in-place)
I1002 14:54:27.966401 10714 net.cpp:150] Setting up relu2_1/dwise
I1002 14:54:27.966408 10714 net.cpp:157] Top shape: 1 32 150 255 (1224000)
I1002 14:54:27.966409 10714 net.cpp:165] Memory required for data: 73440096
I1002 14:54:27.966411 10714 layer_factory.hpp:77] Creating layer conv2_1/linear
I1002 14:54:27.966416 10714 net.cpp:100] Creating Layer conv2_1/linear
I1002 14:54:27.966419 10714 net.cpp:434] conv2_1/linear <- conv2_1/dwise
I1002 14:54:27.966423 10714 net.cpp:408] conv2_1/linear -> conv2_1/linear
I1002 14:54:27.967532 10714 net.cpp:150] Setting up conv2_1/linear
I1002 14:54:27.967540 10714 net.cpp:157] Top shape: 1 16 150 255 (612000)
I1002 14:54:27.967542 10714 net.cpp:165] Memory required for data: 75888096
I1002 14:54:27.967546 10714 layer_factory.hpp:77] Creating layer conv2_1/linear/bn
I1002 14:54:27.967550 10714 net.cpp:100] Creating Layer conv2_1/linear/bn
I1002 14:54:27.967552 10714 net.cpp:434] conv2_1/linear/bn <- conv2_1/linear
I1002 14:54:27.967556 10714 net.cpp:395] conv2_1/linear/bn -> conv2_1/linear (in-place)
I1002 14:54:27.967686 10714 net.cpp:150] Setting up conv2_1/linear/bn
I1002 14:54:27.967690 10714 net.cpp:157] Top shape: 1 16 150 255 (612000)
I1002 14:54:27.967692 10714 net.cpp:165] Memory required for data: 78336096
I1002 14:54:27.967696 10714 layer_factory.hpp:77] Creating layer conv2_1/linear/scale
I1002 14:54:27.967711 10714 net.cpp:100] Creating Layer conv2_1/linear/scale
I1002 14:54:27.967715 10714 net.cpp:434] conv2_1/linear/scale <- conv2_1/linear
I1002 14:54:27.967718 10714 net.cpp:395] conv2_1/linear/scale -> conv2_1/linear (in-place)
I1002 14:54:27.967743 10714 layer_factory.hpp:77] Creating layer conv2_1/linear/scale
I1002 14:54:27.967831 10714 net.cpp:150] Setting up conv2_1/linear/scale
I1002 14:54:27.967835 10714 net.cpp:157] Top shape: 1 16 150 255 (612000)
I1002 14:54:27.967838 10714 net.cpp:165] Memory required for data: 80784096
I1002 14:54:27.967841 10714 layer_factory.hpp:77] Creating layer conv2_2/expand
I1002 14:54:27.967845 10714 net.cpp:100] Creating Layer conv2_2/expand
I1002 14:54:27.967849 10714 net.cpp:434] conv2_2/expand <- conv2_1/linear
I1002 14:54:27.967851 10714 net.cpp:408] conv2_2/expand -> conv2_2/expand
I1002 14:54:27.969449 10714 net.cpp:150] Setting up conv2_2/expand
I1002 14:54:27.969456 10714 net.cpp:157] Top shape: 1 96 150 255 (3672000)
I1002 14:54:27.969458 10714 net.cpp:165] Memory required for data: 95472096
I1002 14:54:27.969467 10714 layer_factory.hpp:77] Creating layer conv2_2/expand/bn
I1002 14:54:27.969472 10714 net.cpp:100] Creating Layer conv2_2/expand/bn
I1002 14:54:27.969475 10714 net.cpp:434] conv2_2/expand/bn <- conv2_2/expand
I1002 14:54:27.969478 10714 net.cpp:395] conv2_2/expand/bn -> conv2_2/expand (in-place)
I1002 14:54:27.969614 10714 net.cpp:150] Setting up conv2_2/expand/bn
I1002 14:54:27.969619 10714 net.cpp:157] Top shape: 1 96 150 255 (3672000)
I1002 14:54:27.969620 10714 net.cpp:165] Memory required for data: 110160096
I1002 14:54:27.969625 10714 layer_factory.hpp:77] Creating layer conv2_2/expand/scale
I1002 14:54:27.969630 10714 net.cpp:100] Creating Layer conv2_2/expand/scale
I1002 14:54:27.969631 10714 net.cpp:434] conv2_2/expand/scale <- conv2_2/expand
I1002 14:54:27.969635 10714 net.cpp:395] conv2_2/expand/scale -> conv2_2/expand (in-place)
I1002 14:54:27.969657 10714 layer_factory.hpp:77] Creating layer conv2_2/expand/scale
I1002 14:54:27.970161 10714 net.cpp:150] Setting up conv2_2/expand/scale
I1002 14:54:27.970168 10714 net.cpp:157] Top shape: 1 96 150 255 (3672000)
I1002 14:54:27.970170 10714 net.cpp:165] Memory required for data: 124848096
I1002 14:54:27.970173 10714 layer_factory.hpp:77] Creating layer relu2_2/expand
I1002 14:54:27.970178 10714 net.cpp:100] Creating Layer relu2_2/expand
I1002 14:54:27.970181 10714 net.cpp:434] relu2_2/expand <- conv2_2/expand
I1002 14:54:27.970185 10714 net.cpp:395] relu2_2/expand -> conv2_2/expand (in-place)
I1002 14:54:27.970453 10714 net.cpp:150] Setting up relu2_2/expand
I1002 14:54:27.970459 10714 net.cpp:157] Top shape: 1 96 150 255 (3672000)
I1002 14:54:27.970461 10714 net.cpp:165] Memory required for data: 139536096
I1002 14:54:27.970463 10714 layer_factory.hpp:77] Creating layer conv2_2/dwise
I1002 14:54:27.970468 10714 net.cpp:100] Creating Layer conv2_2/dwise
I1002 14:54:27.970470 10714 net.cpp:434] conv2_2/dwise <- conv2_2/expand
I1002 14:54:27.970474 10714 net.cpp:408] conv2_2/dwise -> conv2_2/dwise
I1002 14:54:27.970603 10714 net.cpp:150] Setting up conv2_2/dwise
I1002 14:54:27.970607 10714 net.cpp:157] Top shape: 1 96 75 128 (921600)
I1002 14:54:27.970610 10714 net.cpp:165] Memory required for data: 143222496
I1002 14:54:27.970613 10714 layer_factory.hpp:77] Creating layer conv2_2/dwise/bn
I1002 14:54:27.970618 10714 net.cpp:100] Creating Layer conv2_2/dwise/bn
I1002 14:54:27.970620 10714 net.cpp:434] conv2_2/dwise/bn <- conv2_2/dwise
I1002 14:54:27.970623 10714 net.cpp:395] conv2_2/dwise/bn -> conv2_2/dwise (in-place)
I1002 14:54:27.971153 10714 net.cpp:150] Setting up conv2_2/dwise/bn
I1002 14:54:27.971158 10714 net.cpp:157] Top shape: 1 96 75 128 (921600)
I1002 14:54:27.971160 10714 net.cpp:165] Memory required for data: 146908896
I1002 14:54:27.971168 10714 layer_factory.hpp:77] Creating layer conv2_2/dwise/scale
I1002 14:54:27.971174 10714 net.cpp:100] Creating Layer conv2_2/dwise/scale
I1002 14:54:27.971176 10714 net.cpp:434] conv2_2/dwise/scale <- conv2_2/dwise
I1002 14:54:27.971189 10714 net.cpp:395] conv2_2/dwise/scale -> conv2_2/dwise (in-place)
I1002 14:54:27.971216 10714 layer_factory.hpp:77] Creating layer conv2_2/dwise/scale
I1002 14:54:27.971287 10714 net.cpp:150] Setting up conv2_2/dwise/scale
I1002 14:54:27.971290 10714 net.cpp:157] Top shape: 1 96 75 128 (921600)
I1002 14:54:27.971293 10714 net.cpp:165] Memory required for data: 150595296
I1002 14:54:27.971297 10714 layer_factory.hpp:77] Creating layer relu2_2/dwise
I1002 14:54:27.971300 10714 net.cpp:100] Creating Layer relu2_2/dwise
I1002 14:54:27.971302 10714 net.cpp:434] relu2_2/dwise <- conv2_2/dwise
I1002 14:54:27.971304 10714 net.cpp:395] relu2_2/dwise -> conv2_2/dwise (in-place)
I1002 14:54:27.971678 10714 net.cpp:150] Setting up relu2_2/dwise
I1002 14:54:27.971684 10714 net.cpp:157] Top shape: 1 96 75 128 (921600)
I1002 14:54:27.971686 10714 net.cpp:165] Memory required for data: 154281696
I1002 14:54:27.971689 10714 layer_factory.hpp:77] Creating layer conv2_2/linear
I1002 14:54:27.971694 10714 net.cpp:100] Creating Layer conv2_2/linear
I1002 14:54:27.971698 10714 net.cpp:434] conv2_2/linear <- conv2_2/dwise
I1002 14:54:27.971701 10714 net.cpp:408] conv2_2/linear -> conv2_2/linear
I1002 14:54:27.972843 10714 net.cpp:150] Setting up conv2_2/linear
I1002 14:54:27.972851 10714 net.cpp:157] Top shape: 1 24 75 128 (230400)
I1002 14:54:27.972853 10714 net.cpp:165] Memory required for data: 155203296
I1002 14:54:27.972856 10714 layer_factory.hpp:77] Creating layer conv2_2/linear/bn
I1002 14:54:27.972862 10714 net.cpp:100] Creating Layer conv2_2/linear/bn
I1002 14:54:27.972863 10714 net.cpp:434] conv2_2/linear/bn <- conv2_2/linear
I1002 14:54:27.972867 10714 net.cpp:395] conv2_2/linear/bn -> conv2_2/linear (in-place)
I1002 14:54:27.972996 10714 net.cpp:150] Setting up conv2_2/linear/bn
I1002 14:54:27.973001 10714 net.cpp:157] Top shape: 1 24 75 128 (230400)
I1002 14:54:27.973002 10714 net.cpp:165] Memory required for data: 156124896
I1002 14:54:27.973006 10714 layer_factory.hpp:77] Creating layer conv2_2/linear/scale
I1002 14:54:27.973011 10714 net.cpp:100] Creating Layer conv2_2/linear/scale
I1002 14:54:27.973013 10714 net.cpp:434] conv2_2/linear/scale <- conv2_2/linear
I1002 14:54:27.973016 10714 net.cpp:395] conv2_2/linear/scale -> conv2_2/linear (in-place)
I1002 14:54:27.973039 10714 layer_factory.hpp:77] Creating layer conv2_2/linear/scale
I1002 14:54:27.973109 10714 net.cpp:150] Setting up conv2_2/linear/scale
I1002 14:54:27.973114 10714 net.cpp:157] Top shape: 1 24 75 128 (230400)
I1002 14:54:27.973115 10714 net.cpp:165] Memory required for data: 157046496
I1002 14:54:27.973119 10714 layer_factory.hpp:77] Creating layer conv2_2/linear_conv2_2/linear/scale_0_split
I1002 14:54:27.973124 10714 net.cpp:100] Creating Layer conv2_2/linear_conv2_2/linear/scale_0_split
I1002 14:54:27.973126 10714 net.cpp:434] conv2_2/linear_conv2_2/linear/scale_0_split <- conv2_2/linear
I1002 14:54:27.973129 10714 net.cpp:408] conv2_2/linear_conv2_2/linear/scale_0_split -> conv2_2/linear_conv2_2/linear/scale_0_split_0
I1002 14:54:27.973135 10714 net.cpp:408] conv2_2/linear_conv2_2/linear/scale_0_split -> conv2_2/linear_conv2_2/linear/scale_0_split_1
I1002 14:54:27.973158 10714 net.cpp:150] Setting up conv2_2/linear_conv2_2/linear/scale_0_split
I1002 14:54:27.973162 10714 net.cpp:157] Top shape: 1 24 75 128 (230400)
I1002 14:54:27.973165 10714 net.cpp:157] Top shape: 1 24 75 128 (230400)
I1002 14:54:27.973167 10714 net.cpp:165] Memory required for data: 158889696
I1002 14:54:27.973170 10714 layer_factory.hpp:77] Creating layer conv3_1/expand
I1002 14:54:27.973175 10714 net.cpp:100] Creating Layer conv3_1/expand
I1002 14:54:27.973176 10714 net.cpp:434] conv3_1/expand <- conv2_2/linear_conv2_2/linear/scale_0_split_0
I1002 14:54:27.973181 10714 net.cpp:408] conv3_1/expand -> conv3_1/expand
I1002 14:54:27.974228 10714 net.cpp:150] Setting up conv3_1/expand
I1002 14:54:27.974236 10714 net.cpp:157] Top shape: 1 144 75 128 (1382400)
I1002 14:54:27.974237 10714 net.cpp:165] Memory required for data: 164419296
I1002 14:54:27.974249 10714 layer_factory.hpp:77] Creating layer conv3_1/expand/bn
I1002 14:54:27.974253 10714 net.cpp:100] Creating Layer conv3_1/expand/bn
I1002 14:54:27.974256 10714 net.cpp:434] conv3_1/expand/bn <- conv3_1/expand
I1002 14:54:27.974261 10714 net.cpp:395] conv3_1/expand/bn -> conv3_1/expand (in-place)
I1002 14:54:27.974386 10714 net.cpp:150] Setting up conv3_1/expand/bn
I1002 14:54:27.974390 10714 net.cpp:157] Top shape: 1 144 75 128 (1382400)
I1002 14:54:27.974392 10714 net.cpp:165] Memory required for data: 169948896
I1002 14:54:27.974396 10714 layer_factory.hpp:77] Creating layer conv3_1/expand/scale
I1002 14:54:27.974400 10714 net.cpp:100] Creating Layer conv3_1/expand/scale
I1002 14:54:27.974402 10714 net.cpp:434] conv3_1/expand/scale <- conv3_1/expand
I1002 14:54:27.974406 10714 net.cpp:395] conv3_1/expand/scale -> conv3_1/expand (in-place)
I1002 14:54:27.974429 10714 layer_factory.hpp:77] Creating layer conv3_1/expand/scale
I1002 14:54:27.974498 10714 net.cpp:150] Setting up conv3_1/expand/scale
I1002 14:54:27.974503 10714 net.cpp:157] Top shape: 1 144 75 128 (1382400)
I1002 14:54:27.974505 10714 net.cpp:165] Memory required for data: 175478496
I1002 14:54:27.974509 10714 layer_factory.hpp:77] Creating layer relu3_1/expand
I1002 14:54:27.974517 10714 net.cpp:100] Creating Layer relu3_1/expand
I1002 14:54:27.974519 10714 net.cpp:434] relu3_1/expand <- conv3_1/expand
I1002 14:54:27.974522 10714 net.cpp:395] relu3_1/expand -> conv3_1/expand (in-place)
I1002 14:54:27.974782 10714 net.cpp:150] Setting up relu3_1/expand
I1002 14:54:27.974789 10714 net.cpp:157] Top shape: 1 144 75 128 (1382400)
I1002 14:54:27.974792 10714 net.cpp:165] Memory required for data: 181008096
I1002 14:54:27.974793 10714 layer_factory.hpp:77] Creating layer conv3_1/dwise
I1002 14:54:27.974797 10714 net.cpp:100] Creating Layer conv3_1/dwise
I1002 14:54:27.974800 10714 net.cpp:434] conv3_1/dwise <- conv3_1/expand
I1002 14:54:27.974803 10714 net.cpp:408] conv3_1/dwise -> conv3_1/dwise
I1002 14:54:27.974936 10714 net.cpp:150] Setting up conv3_1/dwise
I1002 14:54:27.974939 10714 net.cpp:157] Top shape: 1 144 75 128 (1382400)
I1002 14:54:27.974941 10714 net.cpp:165] Memory required for data: 186537696
I1002 14:54:27.974944 10714 layer_factory.hpp:77] Creating layer conv3_1/dwise/bn
I1002 14:54:27.974948 10714 net.cpp:100] Creating Layer conv3_1/dwise/bn
I1002 14:54:27.974951 10714 net.cpp:434] conv3_1/dwise/bn <- conv3_1/dwise
I1002 14:54:27.974953 10714 net.cpp:395] conv3_1/dwise/bn -> conv3_1/dwise (in-place)
I1002 14:54:27.975072 10714 net.cpp:150] Setting up conv3_1/dwise/bn
I1002 14:54:27.975076 10714 net.cpp:157] Top shape: 1 144 75 128 (1382400)
I1002 14:54:27.975078 10714 net.cpp:165] Memory required for data: 192067296
I1002 14:54:27.975082 10714 layer_factory.hpp:77] Creating layer conv3_1/dwise/scale
I1002 14:54:27.975086 10714 net.cpp:100] Creating Layer conv3_1/dwise/scale
I1002 14:54:27.975090 10714 net.cpp:434] conv3_1/dwise/scale <- conv3_1/dwise
I1002 14:54:27.975091 10714 net.cpp:395] conv3_1/dwise/scale -> conv3_1/dwise (in-place)
I1002 14:54:27.975114 10714 layer_factory.hpp:77] Creating layer conv3_1/dwise/scale
I1002 14:54:27.975183 10714 net.cpp:150] Setting up conv3_1/dwise/scale
I1002 14:54:27.975188 10714 net.cpp:157] Top shape: 1 144 75 128 (1382400)
I1002 14:54:27.975190 10714 net.cpp:165] Memory required for data: 197596896
I1002 14:54:27.975194 10714 layer_factory.hpp:77] Creating layer relu3_1/dwise
I1002 14:54:27.975198 10714 net.cpp:100] Creating Layer relu3_1/dwise
I1002 14:54:27.975200 10714 net.cpp:434] relu3_1/dwise <- conv3_1/dwise
I1002 14:54:27.975203 10714 net.cpp:395] relu3_1/dwise -> conv3_1/dwise (in-place)
I1002 14:54:27.975561 10714 net.cpp:150] Setting up relu3_1/dwise
I1002 14:54:27.975569 10714 net.cpp:157] Top shape: 1 144 75 128 (1382400)
I1002 14:54:27.975571 10714 net.cpp:165] Memory required for data: 203126496
I1002 14:54:27.975574 10714 layer_factory.hpp:77] Creating layer conv3_1/linear
I1002 14:54:27.975579 10714 net.cpp:100] Creating Layer conv3_1/linear
I1002 14:54:27.975581 10714 net.cpp:434] conv3_1/linear <- conv3_1/dwise
I1002 14:54:27.975591 10714 net.cpp:408] conv3_1/linear -> conv3_1/linear
I1002 14:54:27.976631 10714 net.cpp:150] Setting up conv3_1/linear
I1002 14:54:27.976639 10714 net.cpp:157] Top shape: 1 24 75 128 (230400)
I1002 14:54:27.976641 10714 net.cpp:165] Memory required for data: 204048096
I1002 14:54:27.976644 10714 layer_factory.hpp:77] Creating layer conv3_1/linear/bn
I1002 14:54:27.976649 10714 net.cpp:100] Creating Layer conv3_1/linear/bn
I1002 14:54:27.976651 10714 net.cpp:434] conv3_1/linear/bn <- conv3_1/linear
I1002 14:54:27.976655 10714 net.cpp:395] conv3_1/linear/bn -> conv3_1/linear (in-place)
I1002 14:54:27.976779 10714 net.cpp:150] Setting up conv3_1/linear/bn
I1002 14:54:27.976783 10714 net.cpp:157] Top shape: 1 24 75 128 (230400)
I1002 14:54:27.976785 10714 net.cpp:165] Memory required for data: 204969696
I1002 14:54:27.976789 10714 layer_factory.hpp:77] Creating layer conv3_1/linear/scale
I1002 14:54:27.976794 10714 net.cpp:100] Creating Layer conv3_1/linear/scale
I1002 14:54:27.976795 10714 net.cpp:434] conv3_1/linear/scale <- conv3_1/linear
I1002 14:54:27.976799 10714 net.cpp:395] conv3_1/linear/scale -> conv3_1/linear (in-place)
I1002 14:54:27.976822 10714 layer_factory.hpp:77] Creating layer conv3_1/linear/scale
I1002 14:54:27.976894 10714 net.cpp:150] Setting up conv3_1/linear/scale
I1002 14:54:27.976898 10714 net.cpp:157] Top shape: 1 24 75 128 (230400)
I1002 14:54:27.976902 10714 net.cpp:165] Memory required for data: 205891296
I1002 14:54:27.976904 10714 layer_factory.hpp:77] Creating layer block_3_1
I1002 14:54:27.976907 10714 net.cpp:100] Creating Layer block_3_1
I1002 14:54:27.976910 10714 net.cpp:434] block_3_1 <- conv2_2/linear_conv2_2/linear/scale_0_split_1
I1002 14:54:27.976912 10714 net.cpp:434] block_3_1 <- conv3_1/linear
I1002 14:54:27.976917 10714 net.cpp:408] block_3_1 -> block_3_1
I1002 14:54:27.976933 10714 net.cpp:150] Setting up block_3_1
I1002 14:54:27.976938 10714 net.cpp:157] Top shape: 1 24 75 128 (230400)
I1002 14:54:27.976939 10714 net.cpp:165] Memory required for data: 206812896
I1002 14:54:27.976941 10714 layer_factory.hpp:77] Creating layer conv3_2/expand
I1002 14:54:27.976945 10714 net.cpp:100] Creating Layer conv3_2/expand
I1002 14:54:27.976948 10714 net.cpp:434] conv3_2/expand <- block_3_1
I1002 14:54:27.976951 10714 net.cpp:408] conv3_2/expand -> conv3_2/expand
I1002 14:54:27.978009 10714 net.cpp:150] Setting up conv3_2/expand
I1002 14:54:27.978016 10714 net.cpp:157] Top shape: 1 144 75 128 (1382400)
I1002 14:54:27.978018 10714 net.cpp:165] Memory required for data: 212342496
I1002 14:54:27.978021 10714 layer_factory.hpp:77] Creating layer conv3_2/expand/bn
I1002 14:54:27.978026 10714 net.cpp:100] Creating Layer conv3_2/expand/bn
I1002 14:54:27.978029 10714 net.cpp:434] conv3_2/expand/bn <- conv3_2/expand
I1002 14:54:27.978032 10714 net.cpp:395] conv3_2/expand/bn -> conv3_2/expand (in-place)
I1002 14:54:27.978157 10714 net.cpp:150] Setting up conv3_2/expand/bn
I1002 14:54:27.978161 10714 net.cpp:157] Top shape: 1 144 75 128 (1382400)
I1002 14:54:27.978163 10714 net.cpp:165] Memory required for data: 217872096
I1002 14:54:27.978168 10714 layer_factory.hpp:77] Creating layer conv3_2/expand/scale
I1002 14:54:27.978173 10714 net.cpp:100] Creating Layer conv3_2/expand/scale
I1002 14:54:27.978174 10714 net.cpp:434] conv3_2/expand/scale <- conv3_2/expand
I1002 14:54:27.978178 10714 net.cpp:395] conv3_2/expand/scale -> conv3_2/expand (in-place)
I1002 14:54:27.978200 10714 layer_factory.hpp:77] Creating layer conv3_2/expand/scale
I1002 14:54:27.978271 10714 net.cpp:150] Setting up conv3_2/expand/scale
I1002 14:54:27.978276 10714 net.cpp:157] Top shape: 1 144 75 128 (1382400)
I1002 14:54:27.978277 10714 net.cpp:165] Memory required for data: 223401696
I1002 14:54:27.978286 10714 layer_factory.hpp:77] Creating layer relu3_2/expand
I1002 14:54:27.978289 10714 net.cpp:100] Creating Layer relu3_2/expand
I1002 14:54:27.978292 10714 net.cpp:434] relu3_2/expand <- conv3_2/expand
I1002 14:54:27.978294 10714 net.cpp:395] relu3_2/expand -> conv3_2/expand (in-place)
I1002 14:54:27.978664 10714 net.cpp:150] Setting up relu3_2/expand
I1002 14:54:27.978672 10714 net.cpp:157] Top shape: 1 144 75 128 (1382400)
I1002 14:54:27.978674 10714 net.cpp:165] Memory required for data: 228931296
I1002 14:54:27.978677 10714 layer_factory.hpp:77] Creating layer conv3_2/dwise
I1002 14:54:27.978680 10714 net.cpp:100] Creating Layer conv3_2/dwise
I1002 14:54:27.978683 10714 net.cpp:434] conv3_2/dwise <- conv3_2/expand
I1002 14:54:27.978688 10714 net.cpp:408] conv3_2/dwise -> conv3_2/dwise
I1002 14:54:27.978818 10714 net.cpp:150] Setting up conv3_2/dwise
I1002 14:54:27.978822 10714 net.cpp:157] Top shape: 1 144 38 64 (350208)
I1002 14:54:27.978826 10714 net.cpp:165] Memory required for data: 230332128
I1002 14:54:27.978828 10714 layer_factory.hpp:77] Creating layer conv3_2/dwise/bn
I1002 14:54:27.978832 10714 net.cpp:100] Creating Layer conv3_2/dwise/bn
I1002 14:54:27.978834 10714 net.cpp:434] conv3_2/dwise/bn <- conv3_2/dwise
I1002 14:54:27.978837 10714 net.cpp:395] conv3_2/dwise/bn -> conv3_2/dwise (in-place)
I1002 14:54:27.978960 10714 net.cpp:150] Setting up conv3_2/dwise/bn
I1002 14:54:27.978962 10714 net.cpp:157] Top shape: 1 144 38 64 (350208)
I1002 14:54:27.978965 10714 net.cpp:165] Memory required for data: 231732960
I1002 14:54:27.978969 10714 layer_factory.hpp:77] Creating layer conv3_2/dwise/scale
I1002 14:54:27.978973 10714 net.cpp:100] Creating Layer conv3_2/dwise/scale
I1002 14:54:27.978976 10714 net.cpp:434] conv3_2/dwise/scale <- conv3_2/dwise
I1002 14:54:27.978978 10714 net.cpp:395] conv3_2/dwise/scale -> conv3_2/dwise (in-place)
I1002 14:54:27.979001 10714 layer_factory.hpp:77] Creating layer conv3_2/dwise/scale
I1002 14:54:27.979068 10714 net.cpp:150] Setting up conv3_2/dwise/scale
I1002 14:54:27.979073 10714 net.cpp:157] Top shape: 1 144 38 64 (350208)
I1002 14:54:27.979074 10714 net.cpp:165] Memory required for data: 233133792
I1002 14:54:27.979079 10714 layer_factory.hpp:77] Creating layer relu3_2/dwise
I1002 14:54:27.979081 10714 net.cpp:100] Creating Layer relu3_2/dwise
I1002 14:54:27.979084 10714 net.cpp:434] relu3_2/dwise <- conv3_2/dwise
I1002 14:54:27.979086 10714 net.cpp:395] relu3_2/dwise -> conv3_2/dwise (in-place)
I1002 14:54:27.979349 10714 net.cpp:150] Setting up relu3_2/dwise
I1002 14:54:27.979355 10714 net.cpp:157] Top shape: 1 144 38 64 (350208)
I1002 14:54:27.979357 10714 net.cpp:165] Memory required for data: 234534624
I1002 14:54:27.979359 10714 layer_factory.hpp:77] Creating layer conv3_2/linear
I1002 14:54:27.979365 10714 net.cpp:100] Creating Layer conv3_2/linear
I1002 14:54:27.979367 10714 net.cpp:434] conv3_2/linear <- conv3_2/dwise
I1002 14:54:27.979370 10714 net.cpp:408] conv3_2/linear -> conv3_2/linear
I1002 14:54:27.980415 10714 net.cpp:150] Setting up conv3_2/linear
I1002 14:54:27.980422 10714 net.cpp:157] Top shape: 1 32 38 64 (77824)
I1002 14:54:27.980424 10714 net.cpp:165] Memory required for data: 234845920
I1002 14:54:27.980427 10714 layer_factory.hpp:77] Creating layer conv3_2/linear/bn
I1002 14:54:27.980432 10714 net.cpp:100] Creating Layer conv3_2/linear/bn
I1002 14:54:27.980435 10714 net.cpp:434] conv3_2/linear/bn <- conv3_2/linear
I1002 14:54:27.980438 10714 net.cpp:395] conv3_2/linear/bn -> conv3_2/linear (in-place)
I1002 14:54:27.980564 10714 net.cpp:150] Setting up conv3_2/linear/bn
I1002 14:54:27.980568 10714 net.cpp:157] Top shape: 1 32 38 64 (77824)
I1002 14:54:27.980571 10714 net.cpp:165] Memory required for data: 235157216
I1002 14:54:27.980574 10714 layer_factory.hpp:77] Creating layer conv3_2/linear/scale
I1002 14:54:27.980579 10714 net.cpp:100] Creating Layer conv3_2/linear/scale
I1002 14:54:27.980581 10714 net.cpp:434] conv3_2/linear/scale <- conv3_2/linear
I1002 14:54:27.980584 10714 net.cpp:395] conv3_2/linear/scale -> conv3_2/linear (in-place)
I1002 14:54:27.980609 10714 layer_factory.hpp:77] Creating layer conv3_2/linear/scale
I1002 14:54:27.980679 10714 net.cpp:150] Setting up conv3_2/linear/scale
I1002 14:54:27.980684 10714 net.cpp:157] Top shape: 1 32 38 64 (77824)
I1002 14:54:27.980685 10714 net.cpp:165] Memory required for data: 235468512
I1002 14:54:27.980696 10714 layer_factory.hpp:77] Creating layer conv3_2/linear_conv3_2/linear/scale_0_split
I1002 14:54:27.980701 10714 net.cpp:100] Creating Layer conv3_2/linear_conv3_2/linear/scale_0_split
I1002 14:54:27.980703 10714 net.cpp:434] conv3_2/linear_conv3_2/linear/scale_0_split <- conv3_2/linear
I1002 14:54:27.980707 10714 net.cpp:408] conv3_2/linear_conv3_2/linear/scale_0_split -> conv3_2/linear_conv3_2/linear/scale_0_split_0
I1002 14:54:27.980712 10714 net.cpp:408] conv3_2/linear_conv3_2/linear/scale_0_split -> conv3_2/linear_conv3_2/linear/scale_0_split_1
I1002 14:54:27.980736 10714 net.cpp:150] Setting up conv3_2/linear_conv3_2/linear/scale_0_split
I1002 14:54:27.980739 10714 net.cpp:157] Top shape: 1 32 38 64 (77824)
I1002 14:54:27.980742 10714 net.cpp:157] Top shape: 1 32 38 64 (77824)
I1002 14:54:27.980744 10714 net.cpp:165] Memory required for data: 236091104
I1002 14:54:27.980746 10714 layer_factory.hpp:77] Creating layer conv4_1/expand
I1002 14:54:27.980751 10714 net.cpp:100] Creating Layer conv4_1/expand
I1002 14:54:27.980753 10714 net.cpp:434] conv4_1/expand <- conv3_2/linear_conv3_2/linear/scale_0_split_0
I1002 14:54:27.980756 10714 net.cpp:408] conv4_1/expand -> conv4_1/expand
I1002 14:54:27.981827 10714 net.cpp:150] Setting up conv4_1/expand
I1002 14:54:27.981834 10714 net.cpp:157] Top shape: 1 192 38 64 (466944)
I1002 14:54:27.981837 10714 net.cpp:165] Memory required for data: 237958880
I1002 14:54:27.981840 10714 layer_factory.hpp:77] Creating layer conv4_1/expand/bn
I1002 14:54:27.981844 10714 net.cpp:100] Creating Layer conv4_1/expand/bn
I1002 14:54:27.981847 10714 net.cpp:434] conv4_1/expand/bn <- conv4_1/expand
I1002 14:54:27.981849 10714 net.cpp:395] conv4_1/expand/bn -> conv4_1/expand (in-place)
I1002 14:54:27.981977 10714 net.cpp:150] Setting up conv4_1/expand/bn
I1002 14:54:27.981981 10714 net.cpp:157] Top shape: 1 192 38 64 (466944)
I1002 14:54:27.981982 10714 net.cpp:165] Memory required for data: 239826656
I1002 14:54:27.981987 10714 layer_factory.hpp:77] Creating layer conv4_1/expand/scale
I1002 14:54:27.981990 10714 net.cpp:100] Creating Layer conv4_1/expand/scale
I1002 14:54:27.981992 10714 net.cpp:434] conv4_1/expand/scale <- conv4_1/expand
I1002 14:54:27.981995 10714 net.cpp:395] conv4_1/expand/scale -> conv4_1/expand (in-place)
I1002 14:54:27.982020 10714 layer_factory.hpp:77] Creating layer conv4_1/expand/scale
I1002 14:54:27.982089 10714 net.cpp:150] Setting up conv4_1/expand/scale
I1002 14:54:27.982094 10714 net.cpp:157] Top shape: 1 192 38 64 (466944)
I1002 14:54:27.982095 10714 net.cpp:165] Memory required for data: 241694432
I1002 14:54:27.982098 10714 layer_factory.hpp:77] Creating layer relu4_1/expand
I1002 14:54:27.982101 10714 net.cpp:100] Creating Layer relu4_1/expand
I1002 14:54:27.982103 10714 net.cpp:434] relu4_1/expand <- conv4_1/expand
I1002 14:54:27.982105 10714 net.cpp:395] relu4_1/expand -> conv4_1/expand (in-place)
I1002 14:54:27.982494 10714 net.cpp:150] Setting up relu4_1/expand
I1002 14:54:27.982501 10714 net.cpp:157] Top shape: 1 192 38 64 (466944)
I1002 14:54:27.982503 10714 net.cpp:165] Memory required for data: 243562208
I1002 14:54:27.982506 10714 layer_factory.hpp:77] Creating layer conv4_1/dwise
I1002 14:54:27.982511 10714 net.cpp:100] Creating Layer conv4_1/dwise
I1002 14:54:27.982513 10714 net.cpp:434] conv4_1/dwise <- conv4_1/expand
I1002 14:54:27.982517 10714 net.cpp:408] conv4_1/dwise -> conv4_1/dwise
I1002 14:54:27.982657 10714 net.cpp:150] Setting up conv4_1/dwise
I1002 14:54:27.982661 10714 net.cpp:157] Top shape: 1 192 38 64 (466944)
I1002 14:54:27.982663 10714 net.cpp:165] Memory required for data: 245429984
I1002 14:54:27.982666 10714 layer_factory.hpp:77] Creating layer conv4_1/dwise/bn
I1002 14:54:27.982671 10714 net.cpp:100] Creating Layer conv4_1/dwise/bn
I1002 14:54:27.982673 10714 net.cpp:434] conv4_1/dwise/bn <- conv4_1/dwise
I1002 14:54:27.982676 10714 net.cpp:395] conv4_1/dwise/bn -> conv4_1/dwise (in-place)
I1002 14:54:27.982798 10714 net.cpp:150] Setting up conv4_1/dwise/bn
I1002 14:54:27.982810 10714 net.cpp:157] Top shape: 1 192 38 64 (466944)
I1002 14:54:27.982813 10714 net.cpp:165] Memory required for data: 247297760
I1002 14:54:27.982817 10714 layer_factory.hpp:77] Creating layer conv4_1/dwise/scale
I1002 14:54:27.982821 10714 net.cpp:100] Creating Layer conv4_1/dwise/scale
I1002 14:54:27.982825 10714 net.cpp:434] conv4_1/dwise/scale <- conv4_1/dwise
I1002 14:54:27.982827 10714 net.cpp:395] conv4_1/dwise/scale -> conv4_1/dwise (in-place)
I1002 14:54:27.982852 10714 layer_factory.hpp:77] Creating layer conv4_1/dwise/scale
I1002 14:54:27.982920 10714 net.cpp:150] Setting up conv4_1/dwise/scale
I1002 14:54:27.982924 10714 net.cpp:157] Top shape: 1 192 38 64 (466944)
I1002 14:54:27.982926 10714 net.cpp:165] Memory required for data: 249165536
I1002 14:54:27.982930 10714 layer_factory.hpp:77] Creating layer relu4_1/dwise
I1002 14:54:27.982933 10714 net.cpp:100] Creating Layer relu4_1/dwise
I1002 14:54:27.982935 10714 net.cpp:434] relu4_1/dwise <- conv4_1/dwise
I1002 14:54:27.982939 10714 net.cpp:395] relu4_1/dwise -> conv4_1/dwise (in-place)
I1002 14:54:27.983206 10714 net.cpp:150] Setting up relu4_1/dwise
I1002 14:54:27.983211 10714 net.cpp:157] Top shape: 1 192 38 64 (466944)
I1002 14:54:27.983213 10714 net.cpp:165] Memory required for data: 251033312
I1002 14:54:27.983216 10714 layer_factory.hpp:77] Creating layer conv4_1/linear
I1002 14:54:27.983222 10714 net.cpp:100] Creating Layer conv4_1/linear
I1002 14:54:27.983223 10714 net.cpp:434] conv4_1/linear <- conv4_1/dwise
I1002 14:54:27.983228 10714 net.cpp:408] conv4_1/linear -> conv4_1/linear
I1002 14:54:27.984411 10714 net.cpp:150] Setting up conv4_1/linear
I1002 14:54:27.984419 10714 net.cpp:157] Top shape: 1 32 38 64 (77824)
I1002 14:54:27.984421 10714 net.cpp:165] Memory required for data: 251344608
I1002 14:54:27.984424 10714 layer_factory.hpp:77] Creating layer conv4_1/linear/bn
I1002 14:54:27.984429 10714 net.cpp:100] Creating Layer conv4_1/linear/bn
I1002 14:54:27.984433 10714 net.cpp:434] conv4_1/linear/bn <- conv4_1/linear
I1002 14:54:27.984436 10714 net.cpp:395] conv4_1/linear/bn -> conv4_1/linear (in-place)
I1002 14:54:27.984567 10714 net.cpp:150] Setting up conv4_1/linear/bn
I1002 14:54:27.984572 10714 net.cpp:157] Top shape: 1 32 38 64 (77824)
I1002 14:54:27.984575 10714 net.cpp:165] Memory required for data: 251655904
I1002 14:54:27.984578 10714 layer_factory.hpp:77] Creating layer conv4_1/linear/scale
I1002 14:54:27.984582 10714 net.cpp:100] Creating Layer conv4_1/linear/scale
I1002 14:54:27.984586 10714 net.cpp:434] conv4_1/linear/scale <- conv4_1/linear
I1002 14:54:27.984587 10714 net.cpp:395] conv4_1/linear/scale -> conv4_1/linear (in-place)
I1002 14:54:27.984612 10714 layer_factory.hpp:77] Creating layer conv4_1/linear/scale
I1002 14:54:27.984683 10714 net.cpp:150] Setting up conv4_1/linear/scale
I1002 14:54:27.984686 10714 net.cpp:157] Top shape: 1 32 38 64 (77824)
I1002 14:54:27.984688 10714 net.cpp:165] Memory required for data: 251967200
I1002 14:54:27.984691 10714 layer_factory.hpp:77] Creating layer block_4_1
I1002 14:54:27.984701 10714 net.cpp:100] Creating Layer block_4_1
I1002 14:54:27.984704 10714 net.cpp:434] block_4_1 <- conv3_2/linear_conv3_2/linear/scale_0_split_1
I1002 14:54:27.984707 10714 net.cpp:434] block_4_1 <- conv4_1/linear
I1002 14:54:27.984710 10714 net.cpp:408] block_4_1 -> block_4_1
I1002 14:54:27.984724 10714 net.cpp:150] Setting up block_4_1
I1002 14:54:27.984728 10714 net.cpp:157] Top shape: 1 32 38 64 (77824)
I1002 14:54:27.984731 10714 net.cpp:165] Memory required for data: 252278496
I1002 14:54:27.984733 10714 layer_factory.hpp:77] Creating layer block_4_1_block_4_1_0_split
I1002 14:54:27.984737 10714 net.cpp:100] Creating Layer block_4_1_block_4_1_0_split
I1002 14:54:27.984740 10714 net.cpp:434] block_4_1_block_4_1_0_split <- block_4_1
I1002 14:54:27.984742 10714 net.cpp:408] block_4_1_block_4_1_0_split -> block_4_1_block_4_1_0_split_0
I1002 14:54:27.984746 10714 net.cpp:408] block_4_1_block_4_1_0_split -> block_4_1_block_4_1_0_split_1
I1002 14:54:27.984771 10714 net.cpp:150] Setting up block_4_1_block_4_1_0_split
I1002 14:54:27.984783 10714 net.cpp:157] Top shape: 1 32 38 64 (77824)
I1002 14:54:27.984786 10714 net.cpp:157] Top shape: 1 32 38 64 (77824)
I1002 14:54:27.984788 10714 net.cpp:165] Memory required for data: 252901088
I1002 14:54:27.984791 10714 layer_factory.hpp:77] Creating layer conv4_2/expand
I1002 14:54:27.984797 10714 net.cpp:100] Creating Layer conv4_2/expand
I1002 14:54:27.984798 10714 net.cpp:434] conv4_2/expand <- block_4_1_block_4_1_0_split_0
I1002 14:54:27.984802 10714 net.cpp:408] conv4_2/expand -> conv4_2/expand
I1002 14:54:27.985986 10714 net.cpp:150] Setting up conv4_2/expand
I1002 14:54:27.985994 10714 net.cpp:157] Top shape: 1 192 38 64 (466944)
I1002 14:54:27.985996 10714 net.cpp:165] Memory required for data: 254768864
I1002 14:54:27.985999 10714 layer_factory.hpp:77] Creating layer conv4_2/expand/bn
I1002 14:54:27.986004 10714 net.cpp:100] Creating Layer conv4_2/expand/bn
I1002 14:54:27.986007 10714 net.cpp:434] conv4_2/expand/bn <- conv4_2/expand
I1002 14:54:27.986011 10714 net.cpp:395] conv4_2/expand/bn -> conv4_2/expand (in-place)
I1002 14:54:27.986137 10714 net.cpp:150] Setting up conv4_2/expand/bn
I1002 14:54:27.986141 10714 net.cpp:157] Top shape: 1 192 38 64 (466944)
I1002 14:54:27.986145 10714 net.cpp:165] Memory required for data: 256636640
I1002 14:54:27.986148 10714 layer_factory.hpp:77] Creating layer conv4_2/expand/scale
I1002 14:54:27.986152 10714 net.cpp:100] Creating Layer conv4_2/expand/scale
I1002 14:54:27.986155 10714 net.cpp:434] conv4_2/expand/scale <- conv4_2/expand
I1002 14:54:27.986157 10714 net.cpp:395] conv4_2/expand/scale -> conv4_2/expand (in-place)
I1002 14:54:27.986183 10714 layer_factory.hpp:77] Creating layer conv4_2/expand/scale
I1002 14:54:27.986253 10714 net.cpp:150] Setting up conv4_2/expand/scale
I1002 14:54:27.986258 10714 net.cpp:157] Top shape: 1 192 38 64 (466944)
I1002 14:54:27.986259 10714 net.cpp:165] Memory required for data: 258504416
I1002 14:54:27.986263 10714 layer_factory.hpp:77] Creating layer relu4_2/expand
I1002 14:54:27.986266 10714 net.cpp:100] Creating Layer relu4_2/expand
I1002 14:54:27.986268 10714 net.cpp:434] relu4_2/expand <- conv4_2/expand
I1002 14:54:27.986272 10714 net.cpp:395] relu4_2/expand -> conv4_2/expand (in-place)
I1002 14:54:27.986541 10714 net.cpp:150] Setting up relu4_2/expand
I1002 14:54:27.986546 10714 net.cpp:157] Top shape: 1 192 38 64 (466944)
I1002 14:54:27.986548 10714 net.cpp:165] Memory required for data: 260372192
I1002 14:54:27.986551 10714 layer_factory.hpp:77] Creating layer conv4_2/dwise
I1002 14:54:27.986554 10714 net.cpp:100] Creating Layer conv4_2/dwise
I1002 14:54:27.986557 10714 net.cpp:434] conv4_2/dwise <- conv4_2/expand
I1002 14:54:27.986560 10714 net.cpp:408] conv4_2/dwise -> conv4_2/dwise
I1002 14:54:27.986703 10714 net.cpp:150] Setting up conv4_2/dwise
I1002 14:54:27.986708 10714 net.cpp:157] Top shape: 1 192 38 64 (466944)
I1002 14:54:27.986711 10714 net.cpp:165] Memory required for data: 262239968
I1002 14:54:27.986713 10714 layer_factory.hpp:77] Creating layer conv4_2/dwise/bn
I1002 14:54:27.986717 10714 net.cpp:100] Creating Layer conv4_2/dwise/bn
I1002 14:54:27.986719 10714 net.cpp:434] conv4_2/dwise/bn <- conv4_2/dwise
I1002 14:54:27.986722 10714 net.cpp:395] conv4_2/dwise/bn -> conv4_2/dwise (in-place)
I1002 14:54:27.986847 10714 net.cpp:150] Setting up conv4_2/dwise/bn
I1002 14:54:27.986851 10714 net.cpp:157] Top shape: 1 192 38 64 (466944)
I1002 14:54:27.986853 10714 net.cpp:165] Memory required for data: 264107744
I1002 14:54:27.986857 10714 layer_factory.hpp:77] Creating layer conv4_2/dwise/scale
I1002 14:54:27.986860 10714 net.cpp:100] Creating Layer conv4_2/dwise/scale
I1002 14:54:27.986863 10714 net.cpp:434] conv4_2/dwise/scale <- conv4_2/dwise
I1002 14:54:27.986865 10714 net.cpp:395] conv4_2/dwise/scale -> conv4_2/dwise (in-place)
I1002 14:54:27.986888 10714 layer_factory.hpp:77] Creating layer conv4_2/dwise/scale
I1002 14:54:27.986958 10714 net.cpp:150] Setting up conv4_2/dwise/scale
I1002 14:54:27.986963 10714 net.cpp:157] Top shape: 1 192 38 64 (466944)
I1002 14:54:27.986971 10714 net.cpp:165] Memory required for data: 265975520
I1002 14:54:27.986974 10714 layer_factory.hpp:77] Creating layer relu4_2/dwise
I1002 14:54:27.986977 10714 net.cpp:100] Creating Layer relu4_2/dwise
I1002 14:54:27.986980 10714 net.cpp:434] relu4_2/dwise <- conv4_2/dwise
I1002 14:54:27.986984 10714 net.cpp:395] relu4_2/dwise -> conv4_2/dwise (in-place)
I1002 14:54:27.987251 10714 net.cpp:150] Setting up relu4_2/dwise
I1002 14:54:27.987257 10714 net.cpp:157] Top shape: 1 192 38 64 (466944)
I1002 14:54:27.987258 10714 net.cpp:165] Memory required for data: 267843296
I1002 14:54:27.987260 10714 layer_factory.hpp:77] Creating layer conv4_2/linear
I1002 14:54:27.987265 10714 net.cpp:100] Creating Layer conv4_2/linear
I1002 14:54:27.987267 10714 net.cpp:434] conv4_2/linear <- conv4_2/dwise
I1002 14:54:27.987272 10714 net.cpp:408] conv4_2/linear -> conv4_2/linear
I1002 14:54:27.988440 10714 net.cpp:150] Setting up conv4_2/linear
I1002 14:54:27.988446 10714 net.cpp:157] Top shape: 1 32 38 64 (77824)
I1002 14:54:27.988448 10714 net.cpp:165] Memory required for data: 268154592
I1002 14:54:27.988452 10714 layer_factory.hpp:77] Creating layer conv4_2/linear/bn
I1002 14:54:27.988457 10714 net.cpp:100] Creating Layer conv4_2/linear/bn
I1002 14:54:27.988459 10714 net.cpp:434] conv4_2/linear/bn <- conv4_2/linear
I1002 14:54:27.988462 10714 net.cpp:395] conv4_2/linear/bn -> conv4_2/linear (in-place)
I1002 14:54:27.988593 10714 net.cpp:150] Setting up conv4_2/linear/bn
I1002 14:54:27.988597 10714 net.cpp:157] Top shape: 1 32 38 64 (77824)
I1002 14:54:27.988600 10714 net.cpp:165] Memory required for data: 268465888
I1002 14:54:27.988603 10714 layer_factory.hpp:77] Creating layer conv4_2/linear/scale
I1002 14:54:27.988607 10714 net.cpp:100] Creating Layer conv4_2/linear/scale
I1002 14:54:27.988610 10714 net.cpp:434] conv4_2/linear/scale <- conv4_2/linear
I1002 14:54:27.988611 10714 net.cpp:395] conv4_2/linear/scale -> conv4_2/linear (in-place)
I1002 14:54:27.988636 10714 layer_factory.hpp:77] Creating layer conv4_2/linear/scale
I1002 14:54:27.988706 10714 net.cpp:150] Setting up conv4_2/linear/scale
I1002 14:54:27.988710 10714 net.cpp:157] Top shape: 1 32 38 64 (77824)
I1002 14:54:27.988713 10714 net.cpp:165] Memory required for data: 268777184
I1002 14:54:27.988715 10714 layer_factory.hpp:77] Creating layer block_4_2
I1002 14:54:27.988719 10714 net.cpp:100] Creating Layer block_4_2
I1002 14:54:27.988721 10714 net.cpp:434] block_4_2 <- block_4_1_block_4_1_0_split_1
I1002 14:54:27.988724 10714 net.cpp:434] block_4_2 <- conv4_2/linear
I1002 14:54:27.988726 10714 net.cpp:408] block_4_2 -> block_4_2
I1002 14:54:27.988742 10714 net.cpp:150] Setting up block_4_2
I1002 14:54:27.988746 10714 net.cpp:157] Top shape: 1 32 38 64 (77824)
I1002 14:54:27.988747 10714 net.cpp:165] Memory required for data: 269088480
I1002 14:54:27.988749 10714 layer_factory.hpp:77] Creating layer conv4_3/expand
I1002 14:54:27.988754 10714 net.cpp:100] Creating Layer conv4_3/expand
I1002 14:54:27.988755 10714 net.cpp:434] conv4_3/expand <- block_4_2
I1002 14:54:27.988759 10714 net.cpp:408] conv4_3/expand -> conv4_3/expand
I1002 14:54:27.989935 10714 net.cpp:150] Setting up conv4_3/expand
I1002 14:54:27.989943 10714 net.cpp:157] Top shape: 1 192 38 64 (466944)
I1002 14:54:27.989945 10714 net.cpp:165] Memory required for data: 270956256
I1002 14:54:27.989948 10714 layer_factory.hpp:77] Creating layer conv4_3/expand/bn
I1002 14:54:27.989953 10714 net.cpp:100] Creating Layer conv4_3/expand/bn
I1002 14:54:27.989956 10714 net.cpp:434] conv4_3/expand/bn <- conv4_3/expand
I1002 14:54:27.989959 10714 net.cpp:395] conv4_3/expand/bn -> conv4_3/expand (in-place)
I1002 14:54:27.990089 10714 net.cpp:150] Setting up conv4_3/expand/bn
I1002 14:54:27.990093 10714 net.cpp:157] Top shape: 1 192 38 64 (466944)
I1002 14:54:27.990095 10714 net.cpp:165] Memory required for data: 272824032
I1002 14:54:27.990099 10714 layer_factory.hpp:77] Creating layer conv4_3/expand/scale
I1002 14:54:27.990103 10714 net.cpp:100] Creating Layer conv4_3/expand/scale
I1002 14:54:27.990105 10714 net.cpp:434] conv4_3/expand/scale <- conv4_3/expand
I1002 14:54:27.990116 10714 net.cpp:395] conv4_3/expand/scale -> conv4_3/expand (in-place)
I1002 14:54:27.990141 10714 layer_factory.hpp:77] Creating layer conv4_3/expand/scale
I1002 14:54:27.990214 10714 net.cpp:150] Setting up conv4_3/expand/scale
I1002 14:54:27.990218 10714 net.cpp:157] Top shape: 1 192 38 64 (466944)
I1002 14:54:27.990221 10714 net.cpp:165] Memory required for data: 274691808
I1002 14:54:27.990224 10714 layer_factory.hpp:77] Creating layer relu4_3/expand
I1002 14:54:27.990228 10714 net.cpp:100] Creating Layer relu4_3/expand
I1002 14:54:27.990231 10714 net.cpp:434] relu4_3/expand <- conv4_3/expand
I1002 14:54:27.990234 10714 net.cpp:395] relu4_3/expand -> conv4_3/expand (in-place)
I1002 14:54:27.990504 10714 net.cpp:150] Setting up relu4_3/expand
I1002 14:54:27.990510 10714 net.cpp:157] Top shape: 1 192 38 64 (466944)
I1002 14:54:27.990512 10714 net.cpp:165] Memory required for data: 276559584
I1002 14:54:27.990514 10714 layer_factory.hpp:77] Creating layer conv4_3/dwise
I1002 14:54:27.990520 10714 net.cpp:100] Creating Layer conv4_3/dwise
I1002 14:54:27.990521 10714 net.cpp:434] conv4_3/dwise <- conv4_3/expand
I1002 14:54:27.990525 10714 net.cpp:408] conv4_3/dwise -> conv4_3/dwise
I1002 14:54:27.990667 10714 net.cpp:150] Setting up conv4_3/dwise
I1002 14:54:27.990671 10714 net.cpp:157] Top shape: 1 192 38 64 (466944)
I1002 14:54:27.990674 10714 net.cpp:165] Memory required for data: 278427360
I1002 14:54:27.990676 10714 layer_factory.hpp:77] Creating layer conv4_3/dwise/bn
I1002 14:54:27.990680 10714 net.cpp:100] Creating Layer conv4_3/dwise/bn
I1002 14:54:27.990682 10714 net.cpp:434] conv4_3/dwise/bn <- conv4_3/dwise
I1002 14:54:27.990685 10714 net.cpp:395] conv4_3/dwise/bn -> conv4_3/dwise (in-place)
I1002 14:54:27.990815 10714 net.cpp:150] Setting up conv4_3/dwise/bn
I1002 14:54:27.990819 10714 net.cpp:157] Top shape: 1 192 38 64 (466944)
I1002 14:54:27.990823 10714 net.cpp:165] Memory required for data: 280295136
I1002 14:54:27.990826 10714 layer_factory.hpp:77] Creating layer conv4_3/dwise/scale
I1002 14:54:27.990830 10714 net.cpp:100] Creating Layer conv4_3/dwise/scale
I1002 14:54:27.990833 10714 net.cpp:434] conv4_3/dwise/scale <- conv4_3/dwise
I1002 14:54:27.990835 10714 net.cpp:395] conv4_3/dwise/scale -> conv4_3/dwise (in-place)
I1002 14:54:27.990859 10714 layer_factory.hpp:77] Creating layer conv4_3/dwise/scale
I1002 14:54:27.990931 10714 net.cpp:150] Setting up conv4_3/dwise/scale
I1002 14:54:27.990936 10714 net.cpp:157] Top shape: 1 192 38 64 (466944)
I1002 14:54:27.990938 10714 net.cpp:165] Memory required for data: 282162912
I1002 14:54:27.990942 10714 layer_factory.hpp:77] Creating layer relu4_3/dwise
I1002 14:54:27.990944 10714 net.cpp:100] Creating Layer relu4_3/dwise
I1002 14:54:27.990947 10714 net.cpp:434] relu4_3/dwise <- conv4_3/dwise
I1002 14:54:27.990950 10714 net.cpp:395] relu4_3/dwise -> conv4_3/dwise (in-place)
I1002 14:54:27.991215 10714 net.cpp:150] Setting up relu4_3/dwise
I1002 14:54:27.991220 10714 net.cpp:157] Top shape: 1 192 38 64 (466944)
I1002 14:54:27.991223 10714 net.cpp:165] Memory required for data: 284030688
I1002 14:54:27.991225 10714 layer_factory.hpp:77] Creating layer conv4_3/linear
I1002 14:54:27.991230 10714 net.cpp:100] Creating Layer conv4_3/linear
I1002 14:54:27.991232 10714 net.cpp:434] conv4_3/linear <- conv4_3/dwise
I1002 14:54:27.991236 10714 net.cpp:408] conv4_3/linear -> conv4_3/linear
I1002 14:54:27.992442 10714 net.cpp:150] Setting up conv4_3/linear
I1002 14:54:27.992449 10714 net.cpp:157] Top shape: 1 64 38 64 (155648)
I1002 14:54:27.992451 10714 net.cpp:165] Memory required for data: 284653280
I1002 14:54:27.992455 10714 layer_factory.hpp:77] Creating layer conv4_3/linear/bn
I1002 14:54:27.992460 10714 net.cpp:100] Creating Layer conv4_3/linear/bn
I1002 14:54:27.992462 10714 net.cpp:434] conv4_3/linear/bn <- conv4_3/linear
I1002 14:54:27.992465 10714 net.cpp:395] conv4_3/linear/bn -> conv4_3/linear (in-place)
I1002 14:54:27.992599 10714 net.cpp:150] Setting up conv4_3/linear/bn
I1002 14:54:27.992609 10714 net.cpp:157] Top shape: 1 64 38 64 (155648)
I1002 14:54:27.992610 10714 net.cpp:165] Memory required for data: 285275872
I1002 14:54:27.992622 10714 layer_factory.hpp:77] Creating layer conv4_3/linear/scale
I1002 14:54:27.992627 10714 net.cpp:100] Creating Layer conv4_3/linear/scale
I1002 14:54:27.992630 10714 net.cpp:434] conv4_3/linear/scale <- conv4_3/linear
I1002 14:54:27.992632 10714 net.cpp:395] conv4_3/linear/scale -> conv4_3/linear (in-place)
I1002 14:54:27.992660 10714 layer_factory.hpp:77] Creating layer conv4_3/linear/scale
I1002 14:54:27.992732 10714 net.cpp:150] Setting up conv4_3/linear/scale
I1002 14:54:27.992735 10714 net.cpp:157] Top shape: 1 64 38 64 (155648)
I1002 14:54:27.992738 10714 net.cpp:165] Memory required for data: 285898464
I1002 14:54:27.992741 10714 layer_factory.hpp:77] Creating layer conv4_3/linear_conv4_3/linear/scale_0_split
I1002 14:54:27.992746 10714 net.cpp:100] Creating Layer conv4_3/linear_conv4_3/linear/scale_0_split
I1002 14:54:27.992748 10714 net.cpp:434] conv4_3/linear_conv4_3/linear/scale_0_split <- conv4_3/linear
I1002 14:54:27.992751 10714 net.cpp:408] conv4_3/linear_conv4_3/linear/scale_0_split -> conv4_3/linear_conv4_3/linear/scale_0_split_0
I1002 14:54:27.992755 10714 net.cpp:408] conv4_3/linear_conv4_3/linear/scale_0_split -> conv4_3/linear_conv4_3/linear/scale_0_split_1
I1002 14:54:27.992780 10714 net.cpp:150] Setting up conv4_3/linear_conv4_3/linear/scale_0_split
I1002 14:54:27.992784 10714 net.cpp:157] Top shape: 1 64 38 64 (155648)
I1002 14:54:27.992786 10714 net.cpp:157] Top shape: 1 64 38 64 (155648)
I1002 14:54:27.992789 10714 net.cpp:165] Memory required for data: 287143648
I1002 14:54:27.992790 10714 layer_factory.hpp:77] Creating layer conv4_4/expand
I1002 14:54:27.992794 10714 net.cpp:100] Creating Layer conv4_4/expand
I1002 14:54:27.992797 10714 net.cpp:434] conv4_4/expand <- conv4_3/linear_conv4_3/linear/scale_0_split_0
I1002 14:54:27.992800 10714 net.cpp:408] conv4_4/expand -> conv4_4/expand
I1002 14:54:27.993995 10714 net.cpp:150] Setting up conv4_4/expand
I1002 14:54:27.994002 10714 net.cpp:157] Top shape: 1 384 38 64 (933888)
I1002 14:54:27.994004 10714 net.cpp:165] Memory required for data: 290879200
I1002 14:54:27.994007 10714 layer_factory.hpp:77] Creating layer conv4_4/expand/bn
I1002 14:54:27.994012 10714 net.cpp:100] Creating Layer conv4_4/expand/bn
I1002 14:54:27.994014 10714 net.cpp:434] conv4_4/expand/bn <- conv4_4/expand
I1002 14:54:27.994017 10714 net.cpp:395] conv4_4/expand/bn -> conv4_4/expand (in-place)
I1002 14:54:27.994153 10714 net.cpp:150] Setting up conv4_4/expand/bn
I1002 14:54:27.994158 10714 net.cpp:157] Top shape: 1 384 38 64 (933888)
I1002 14:54:27.994159 10714 net.cpp:165] Memory required for data: 294614752
I1002 14:54:27.994163 10714 layer_factory.hpp:77] Creating layer conv4_4/expand/scale
I1002 14:54:27.994165 10714 net.cpp:100] Creating Layer conv4_4/expand/scale
I1002 14:54:27.994168 10714 net.cpp:434] conv4_4/expand/scale <- conv4_4/expand
I1002 14:54:27.994170 10714 net.cpp:395] conv4_4/expand/scale -> conv4_4/expand (in-place)
I1002 14:54:27.994194 10714 layer_factory.hpp:77] Creating layer conv4_4/expand/scale
I1002 14:54:27.994264 10714 net.cpp:150] Setting up conv4_4/expand/scale
I1002 14:54:27.994269 10714 net.cpp:157] Top shape: 1 384 38 64 (933888)
I1002 14:54:27.994271 10714 net.cpp:165] Memory required for data: 298350304
I1002 14:54:27.994273 10714 layer_factory.hpp:77] Creating layer relu4_4/expand
I1002 14:54:27.994277 10714 net.cpp:100] Creating Layer relu4_4/expand
I1002 14:54:27.994278 10714 net.cpp:434] relu4_4/expand <- conv4_4/expand
I1002 14:54:27.994282 10714 net.cpp:395] relu4_4/expand -> conv4_4/expand (in-place)
I1002 14:54:27.994549 10714 net.cpp:150] Setting up relu4_4/expand
I1002 14:54:27.994555 10714 net.cpp:157] Top shape: 1 384 38 64 (933888)
I1002 14:54:27.994557 10714 net.cpp:165] Memory required for data: 302085856
I1002 14:54:27.994560 10714 layer_factory.hpp:77] Creating layer conv4_4/dwise
I1002 14:54:27.994563 10714 net.cpp:100] Creating Layer conv4_4/dwise
I1002 14:54:27.994572 10714 net.cpp:434] conv4_4/dwise <- conv4_4/expand
I1002 14:54:27.994577 10714 net.cpp:408] conv4_4/dwise -> conv4_4/dwise
I1002 14:54:27.994729 10714 net.cpp:150] Setting up conv4_4/dwise
I1002 14:54:27.994734 10714 net.cpp:157] Top shape: 1 384 38 64 (933888)
I1002 14:54:27.994736 10714 net.cpp:165] Memory required for data: 305821408
I1002 14:54:27.994740 10714 layer_factory.hpp:77] Creating layer conv4_4/dwise/bn
I1002 14:54:27.994743 10714 net.cpp:100] Creating Layer conv4_4/dwise/bn
I1002 14:54:27.994745 10714 net.cpp:434] conv4_4/dwise/bn <- conv4_4/dwise
I1002 14:54:27.994748 10714 net.cpp:395] conv4_4/dwise/bn -> conv4_4/dwise (in-place)
I1002 14:54:27.994874 10714 net.cpp:150] Setting up conv4_4/dwise/bn
I1002 14:54:27.994877 10714 net.cpp:157] Top shape: 1 384 38 64 (933888)
I1002 14:54:27.994879 10714 net.cpp:165] Memory required for data: 309556960
I1002 14:54:27.994884 10714 layer_factory.hpp:77] Creating layer conv4_4/dwise/scale
I1002 14:54:27.994887 10714 net.cpp:100] Creating Layer conv4_4/dwise/scale
I1002 14:54:27.994890 10714 net.cpp:434] conv4_4/dwise/scale <- conv4_4/dwise
I1002 14:54:27.994892 10714 net.cpp:395] conv4_4/dwise/scale -> conv4_4/dwise (in-place)
I1002 14:54:27.994915 10714 layer_factory.hpp:77] Creating layer conv4_4/dwise/scale
I1002 14:54:27.994987 10714 net.cpp:150] Setting up conv4_4/dwise/scale
I1002 14:54:27.994992 10714 net.cpp:157] Top shape: 1 384 38 64 (933888)
I1002 14:54:27.994993 10714 net.cpp:165] Memory required for data: 313292512
I1002 14:54:27.994997 10714 layer_factory.hpp:77] Creating layer relu4_4/dwise
I1002 14:54:27.995000 10714 net.cpp:100] Creating Layer relu4_4/dwise
I1002 14:54:27.995002 10714 net.cpp:434] relu4_4/dwise <- conv4_4/dwise
I1002 14:54:27.995004 10714 net.cpp:395] relu4_4/dwise -> conv4_4/dwise (in-place)
I1002 14:54:27.995375 10714 net.cpp:150] Setting up relu4_4/dwise
I1002 14:54:27.995381 10714 net.cpp:157] Top shape: 1 384 38 64 (933888)
I1002 14:54:27.995384 10714 net.cpp:165] Memory required for data: 317028064
I1002 14:54:27.995386 10714 layer_factory.hpp:77] Creating layer conv4_4/linear
I1002 14:54:27.995391 10714 net.cpp:100] Creating Layer conv4_4/linear
I1002 14:54:27.995394 10714 net.cpp:434] conv4_4/linear <- conv4_4/dwise
I1002 14:54:27.995398 10714 net.cpp:408] conv4_4/linear -> conv4_4/linear
I1002 14:54:27.996619 10714 net.cpp:150] Setting up conv4_4/linear
I1002 14:54:27.996625 10714 net.cpp:157] Top shape: 1 64 38 64 (155648)
I1002 14:54:27.996628 10714 net.cpp:165] Memory required for data: 317650656
I1002 14:54:27.996632 10714 layer_factory.hpp:77] Creating layer conv4_4/linear/bn
I1002 14:54:27.996636 10714 net.cpp:100] Creating Layer conv4_4/linear/bn
I1002 14:54:27.996639 10714 net.cpp:434] conv4_4/linear/bn <- conv4_4/linear
I1002 14:54:27.996642 10714 net.cpp:395] conv4_4/linear/bn -> conv4_4/linear (in-place)
I1002 14:54:27.996778 10714 net.cpp:150] Setting up conv4_4/linear/bn
I1002 14:54:27.996783 10714 net.cpp:157] Top shape: 1 64 38 64 (155648)
I1002 14:54:27.996784 10714 net.cpp:165] Memory required for data: 318273248
I1002 14:54:27.996789 10714 layer_factory.hpp:77] Creating layer conv4_4/linear/scale
I1002 14:54:27.996793 10714 net.cpp:100] Creating Layer conv4_4/linear/scale
I1002 14:54:27.996795 10714 net.cpp:434] conv4_4/linear/scale <- conv4_4/linear
I1002 14:54:27.996798 10714 net.cpp:395] conv4_4/linear/scale -> conv4_4/linear (in-place)
I1002 14:54:27.996824 10714 layer_factory.hpp:77] Creating layer conv4_4/linear/scale
I1002 14:54:27.996898 10714 net.cpp:150] Setting up conv4_4/linear/scale
I1002 14:54:27.996903 10714 net.cpp:157] Top shape: 1 64 38 64 (155648)
I1002 14:54:27.996904 10714 net.cpp:165] Memory required for data: 318895840
I1002 14:54:27.996908 10714 layer_factory.hpp:77] Creating layer block_4_4
I1002 14:54:27.996912 10714 net.cpp:100] Creating Layer block_4_4
I1002 14:54:27.996913 10714 net.cpp:434] block_4_4 <- conv4_3/linear_conv4_3/linear/scale_0_split_1
I1002 14:54:27.996915 10714 net.cpp:434] block_4_4 <- conv4_4/linear
I1002 14:54:27.996919 10714 net.cpp:408] block_4_4 -> block_4_4
I1002 14:54:27.996944 10714 net.cpp:150] Setting up block_4_4
I1002 14:54:27.996949 10714 net.cpp:157] Top shape: 1 64 38 64 (155648)
I1002 14:54:27.996951 10714 net.cpp:165] Memory required for data: 319518432
I1002 14:54:27.996953 10714 layer_factory.hpp:77] Creating layer block_4_4_block_4_4_0_split
I1002 14:54:27.996956 10714 net.cpp:100] Creating Layer block_4_4_block_4_4_0_split
I1002 14:54:27.996959 10714 net.cpp:434] block_4_4_block_4_4_0_split <- block_4_4
I1002 14:54:27.996961 10714 net.cpp:408] block_4_4_block_4_4_0_split -> block_4_4_block_4_4_0_split_0
I1002 14:54:27.996966 10714 net.cpp:408] block_4_4_block_4_4_0_split -> block_4_4_block_4_4_0_split_1
I1002 14:54:27.996990 10714 net.cpp:150] Setting up block_4_4_block_4_4_0_split
I1002 14:54:27.996994 10714 net.cpp:157] Top shape: 1 64 38 64 (155648)
I1002 14:54:27.996996 10714 net.cpp:157] Top shape: 1 64 38 64 (155648)
I1002 14:54:27.996999 10714 net.cpp:165] Memory required for data: 320763616
I1002 14:54:27.997000 10714 layer_factory.hpp:77] Creating layer conv4_5/expand
I1002 14:54:27.997004 10714 net.cpp:100] Creating Layer conv4_5/expand
I1002 14:54:27.997007 10714 net.cpp:434] conv4_5/expand <- block_4_4_block_4_4_0_split_0
I1002 14:54:27.997011 10714 net.cpp:408] conv4_5/expand -> conv4_5/expand
I1002 14:54:27.998208 10714 net.cpp:150] Setting up conv4_5/expand
I1002 14:54:27.998214 10714 net.cpp:157] Top shape: 1 384 38 64 (933888)
I1002 14:54:27.998216 10714 net.cpp:165] Memory required for data: 324499168
I1002 14:54:27.998219 10714 layer_factory.hpp:77] Creating layer conv4_5/expand/bn
I1002 14:54:27.998224 10714 net.cpp:100] Creating Layer conv4_5/expand/bn
I1002 14:54:27.998226 10714 net.cpp:434] conv4_5/expand/bn <- conv4_5/expand
I1002 14:54:27.998229 10714 net.cpp:395] conv4_5/expand/bn -> conv4_5/expand (in-place)
I1002 14:54:27.998363 10714 net.cpp:150] Setting up conv4_5/expand/bn
I1002 14:54:27.998366 10714 net.cpp:157] Top shape: 1 384 38 64 (933888)
I1002 14:54:27.998368 10714 net.cpp:165] Memory required for data: 328234720
I1002 14:54:27.998371 10714 layer_factory.hpp:77] Creating layer conv4_5/expand/scale
I1002 14:54:27.998375 10714 net.cpp:100] Creating Layer conv4_5/expand/scale
I1002 14:54:27.998378 10714 net.cpp:434] conv4_5/expand/scale <- conv4_5/expand
I1002 14:54:27.998380 10714 net.cpp:395] conv4_5/expand/scale -> conv4_5/expand (in-place)
I1002 14:54:27.998402 10714 layer_factory.hpp:77] Creating layer conv4_5/expand/scale
I1002 14:54:27.998474 10714 net.cpp:150] Setting up conv4_5/expand/scale
I1002 14:54:27.998478 10714 net.cpp:157] Top shape: 1 384 38 64 (933888)
I1002 14:54:27.998481 10714 net.cpp:165] Memory required for data: 331970272
I1002 14:54:27.998484 10714 layer_factory.hpp:77] Creating layer relu4_5/expand
I1002 14:54:27.998487 10714 net.cpp:100] Creating Layer relu4_5/expand
I1002 14:54:27.998489 10714 net.cpp:434] relu4_5/expand <- conv4_5/expand
I1002 14:54:27.998492 10714 net.cpp:395] relu4_5/expand -> conv4_5/expand (in-place)
I1002 14:54:27.998765 10714 net.cpp:150] Setting up relu4_5/expand
I1002 14:54:27.998770 10714 net.cpp:157] Top shape: 1 384 38 64 (933888)
I1002 14:54:27.998772 10714 net.cpp:165] Memory required for data: 335705824
I1002 14:54:27.998775 10714 layer_factory.hpp:77] Creating layer conv4_5/dwise
I1002 14:54:27.998780 10714 net.cpp:100] Creating Layer conv4_5/dwise
I1002 14:54:27.998781 10714 net.cpp:434] conv4_5/dwise <- conv4_5/expand
I1002 14:54:27.998786 10714 net.cpp:408] conv4_5/dwise -> conv4_5/dwise
I1002 14:54:27.998939 10714 net.cpp:150] Setting up conv4_5/dwise
I1002 14:54:27.998944 10714 net.cpp:157] Top shape: 1 384 38 64 (933888)
I1002 14:54:27.998945 10714 net.cpp:165] Memory required for data: 339441376
I1002 14:54:27.998948 10714 layer_factory.hpp:77] Creating layer conv4_5/dwise/bn
I1002 14:54:27.998951 10714 net.cpp:100] Creating Layer conv4_5/dwise/bn
I1002 14:54:27.998953 10714 net.cpp:434] conv4_5/dwise/bn <- conv4_5/dwise
I1002 14:54:27.998956 10714 net.cpp:395] conv4_5/dwise/bn -> conv4_5/dwise (in-place)
I1002 14:54:27.999081 10714 net.cpp:150] Setting up conv4_5/dwise/bn
I1002 14:54:27.999092 10714 net.cpp:157] Top shape: 1 384 38 64 (933888)
I1002 14:54:27.999094 10714 net.cpp:165] Memory required for data: 343176928
I1002 14:54:27.999099 10714 layer_factory.hpp:77] Creating layer conv4_5/dwise/scale
I1002 14:54:27.999104 10714 net.cpp:100] Creating Layer conv4_5/dwise/scale
I1002 14:54:27.999105 10714 net.cpp:434] conv4_5/dwise/scale <- conv4_5/dwise
I1002 14:54:27.999109 10714 net.cpp:395] conv4_5/dwise/scale -> conv4_5/dwise (in-place)
I1002 14:54:27.999132 10714 layer_factory.hpp:77] Creating layer conv4_5/dwise/scale
I1002 14:54:27.999202 10714 net.cpp:150] Setting up conv4_5/dwise/scale
I1002 14:54:27.999207 10714 net.cpp:157] Top shape: 1 384 38 64 (933888)
I1002 14:54:27.999208 10714 net.cpp:165] Memory required for data: 346912480
I1002 14:54:27.999212 10714 layer_factory.hpp:77] Creating layer relu4_5/dwise
I1002 14:54:27.999215 10714 net.cpp:100] Creating Layer relu4_5/dwise
I1002 14:54:27.999218 10714 net.cpp:434] relu4_5/dwise <- conv4_5/dwise
I1002 14:54:27.999222 10714 net.cpp:395] relu4_5/dwise -> conv4_5/dwise (in-place)
I1002 14:54:27.999590 10714 net.cpp:150] Setting up relu4_5/dwise
I1002 14:54:27.999598 10714 net.cpp:157] Top shape: 1 384 38 64 (933888)
I1002 14:54:27.999600 10714 net.cpp:165] Memory required for data: 350648032
I1002 14:54:27.999603 10714 layer_factory.hpp:77] Creating layer conv4_5/linear
I1002 14:54:27.999606 10714 net.cpp:100] Creating Layer conv4_5/linear
I1002 14:54:27.999609 10714 net.cpp:434] conv4_5/linear <- conv4_5/dwise
I1002 14:54:27.999614 10714 net.cpp:408] conv4_5/linear -> conv4_5/linear
I1002 14:54:28.000797 10714 net.cpp:150] Setting up conv4_5/linear
I1002 14:54:28.000804 10714 net.cpp:157] Top shape: 1 64 38 64 (155648)
I1002 14:54:28.000807 10714 net.cpp:165] Memory required for data: 351270624
I1002 14:54:28.000810 10714 layer_factory.hpp:77] Creating layer conv4_5/linear/bn
I1002 14:54:28.000815 10714 net.cpp:100] Creating Layer conv4_5/linear/bn
I1002 14:54:28.000818 10714 net.cpp:434] conv4_5/linear/bn <- conv4_5/linear
I1002 14:54:28.000821 10714 net.cpp:395] conv4_5/linear/bn -> conv4_5/linear (in-place)
I1002 14:54:28.000957 10714 net.cpp:150] Setting up conv4_5/linear/bn
I1002 14:54:28.000962 10714 net.cpp:157] Top shape: 1 64 38 64 (155648)
I1002 14:54:28.000963 10714 net.cpp:165] Memory required for data: 351893216
I1002 14:54:28.000967 10714 layer_factory.hpp:77] Creating layer conv4_5/linear/scale
I1002 14:54:28.000970 10714 net.cpp:100] Creating Layer conv4_5/linear/scale
I1002 14:54:28.000972 10714 net.cpp:434] conv4_5/linear/scale <- conv4_5/linear
I1002 14:54:28.000975 10714 net.cpp:395] conv4_5/linear/scale -> conv4_5/linear (in-place)
I1002 14:54:28.001001 10714 layer_factory.hpp:77] Creating layer conv4_5/linear/scale
I1002 14:54:28.001076 10714 net.cpp:150] Setting up conv4_5/linear/scale
I1002 14:54:28.001080 10714 net.cpp:157] Top shape: 1 64 38 64 (155648)
I1002 14:54:28.001082 10714 net.cpp:165] Memory required for data: 352515808
I1002 14:54:28.001085 10714 layer_factory.hpp:77] Creating layer block_4_5
I1002 14:54:28.001089 10714 net.cpp:100] Creating Layer block_4_5
I1002 14:54:28.001092 10714 net.cpp:434] block_4_5 <- block_4_4_block_4_4_0_split_1
I1002 14:54:28.001096 10714 net.cpp:434] block_4_5 <- conv4_5/linear
I1002 14:54:28.001098 10714 net.cpp:408] block_4_5 -> block_4_5
I1002 14:54:28.001114 10714 net.cpp:150] Setting up block_4_5
I1002 14:54:28.001117 10714 net.cpp:157] Top shape: 1 64 38 64 (155648)
I1002 14:54:28.001119 10714 net.cpp:165] Memory required for data: 353138400
I1002 14:54:28.001121 10714 layer_factory.hpp:77] Creating layer block_4_5_block_4_5_0_split
I1002 14:54:28.001124 10714 net.cpp:100] Creating Layer block_4_5_block_4_5_0_split
I1002 14:54:28.001128 10714 net.cpp:434] block_4_5_block_4_5_0_split <- block_4_5
I1002 14:54:28.001132 10714 net.cpp:408] block_4_5_block_4_5_0_split -> block_4_5_block_4_5_0_split_0
I1002 14:54:28.001135 10714 net.cpp:408] block_4_5_block_4_5_0_split -> block_4_5_block_4_5_0_split_1
I1002 14:54:28.001159 10714 net.cpp:150] Setting up block_4_5_block_4_5_0_split
I1002 14:54:28.001169 10714 net.cpp:157] Top shape: 1 64 38 64 (155648)
I1002 14:54:28.001173 10714 net.cpp:157] Top shape: 1 64 38 64 (155648)
I1002 14:54:28.001174 10714 net.cpp:165] Memory required for data: 354383584
I1002 14:54:28.001176 10714 layer_factory.hpp:77] Creating layer conv4_6/expand
I1002 14:54:28.001181 10714 net.cpp:100] Creating Layer conv4_6/expand
I1002 14:54:28.001184 10714 net.cpp:434] conv4_6/expand <- block_4_5_block_4_5_0_split_0
I1002 14:54:28.001188 10714 net.cpp:408] conv4_6/expand -> conv4_6/expand
I1002 14:54:28.002377 10714 net.cpp:150] Setting up conv4_6/expand
I1002 14:54:28.002384 10714 net.cpp:157] Top shape: 1 384 38 64 (933888)
I1002 14:54:28.002388 10714 net.cpp:165] Memory required for data: 358119136
I1002 14:54:28.002390 10714 layer_factory.hpp:77] Creating layer conv4_6/expand/bn
I1002 14:54:28.002394 10714 net.cpp:100] Creating Layer conv4_6/expand/bn
I1002 14:54:28.002398 10714 net.cpp:434] conv4_6/expand/bn <- conv4_6/expand
I1002 14:54:28.002401 10714 net.cpp:395] conv4_6/expand/bn -> conv4_6/expand (in-place)
I1002 14:54:28.002534 10714 net.cpp:150] Setting up conv4_6/expand/bn
I1002 14:54:28.002538 10714 net.cpp:157] Top shape: 1 384 38 64 (933888)
I1002 14:54:28.002542 10714 net.cpp:165] Memory required for data: 361854688
I1002 14:54:28.002547 10714 layer_factory.hpp:77] Creating layer conv4_6/expand/scale
I1002 14:54:28.002550 10714 net.cpp:100] Creating Layer conv4_6/expand/scale
I1002 14:54:28.002552 10714 net.cpp:434] conv4_6/expand/scale <- conv4_6/expand
I1002 14:54:28.002555 10714 net.cpp:395] conv4_6/expand/scale -> conv4_6/expand (in-place)
I1002 14:54:28.002579 10714 layer_factory.hpp:77] Creating layer conv4_6/expand/scale
I1002 14:54:28.002651 10714 net.cpp:150] Setting up conv4_6/expand/scale
I1002 14:54:28.002655 10714 net.cpp:157] Top shape: 1 384 38 64 (933888)
I1002 14:54:28.002657 10714 net.cpp:165] Memory required for data: 365590240
I1002 14:54:28.002660 10714 layer_factory.hpp:77] Creating layer relu4_6/expand
I1002 14:54:28.002665 10714 net.cpp:100] Creating Layer relu4_6/expand
I1002 14:54:28.002666 10714 net.cpp:434] relu4_6/expand <- conv4_6/expand
I1002 14:54:28.002669 10714 net.cpp:395] relu4_6/expand -> conv4_6/expand (in-place)
I1002 14:54:28.003057 10714 net.cpp:150] Setting up relu4_6/expand
I1002 14:54:28.003063 10714 net.cpp:157] Top shape: 1 384 38 64 (933888)
I1002 14:54:28.003065 10714 net.cpp:165] Memory required for data: 369325792
I1002 14:54:28.003067 10714 layer_factory.hpp:77] Creating layer conv4_6/dwise
I1002 14:54:28.003072 10714 net.cpp:100] Creating Layer conv4_6/dwise
I1002 14:54:28.003075 10714 net.cpp:434] conv4_6/dwise <- conv4_6/expand
I1002 14:54:28.003078 10714 net.cpp:408] conv4_6/dwise -> conv4_6/dwise
I1002 14:54:28.003235 10714 net.cpp:150] Setting up conv4_6/dwise
I1002 14:54:28.003240 10714 net.cpp:157] Top shape: 1 384 38 64 (933888)
I1002 14:54:28.003242 10714 net.cpp:165] Memory required for data: 373061344
I1002 14:54:28.003245 10714 layer_factory.hpp:77] Creating layer conv4_6/dwise/bn
I1002 14:54:28.003248 10714 net.cpp:100] Creating Layer conv4_6/dwise/bn
I1002 14:54:28.003252 10714 net.cpp:434] conv4_6/dwise/bn <- conv4_6/dwise
I1002 14:54:28.003254 10714 net.cpp:395] conv4_6/dwise/bn -> conv4_6/dwise (in-place)
I1002 14:54:28.003383 10714 net.cpp:150] Setting up conv4_6/dwise/bn
I1002 14:54:28.003386 10714 net.cpp:157] Top shape: 1 384 38 64 (933888)
I1002 14:54:28.003389 10714 net.cpp:165] Memory required for data: 376796896
I1002 14:54:28.003393 10714 layer_factory.hpp:77] Creating layer conv4_6/dwise/scale
I1002 14:54:28.003396 10714 net.cpp:100] Creating Layer conv4_6/dwise/scale
I1002 14:54:28.003398 10714 net.cpp:434] conv4_6/dwise/scale <- conv4_6/dwise
I1002 14:54:28.003401 10714 net.cpp:395] conv4_6/dwise/scale -> conv4_6/dwise (in-place)
I1002 14:54:28.003424 10714 layer_factory.hpp:77] Creating layer conv4_6/dwise/scale
I1002 14:54:28.003499 10714 net.cpp:150] Setting up conv4_6/dwise/scale
I1002 14:54:28.003502 10714 net.cpp:157] Top shape: 1 384 38 64 (933888)
I1002 14:54:28.003510 10714 net.cpp:165] Memory required for data: 380532448
I1002 14:54:28.003515 10714 layer_factory.hpp:77] Creating layer relu4_6/dwise
I1002 14:54:28.003517 10714 net.cpp:100] Creating Layer relu4_6/dwise
I1002 14:54:28.003520 10714 net.cpp:434] relu4_6/dwise <- conv4_6/dwise
I1002 14:54:28.003523 10714 net.cpp:395] relu4_6/dwise -> conv4_6/dwise (in-place)
I1002 14:54:28.003792 10714 net.cpp:150] Setting up relu4_6/dwise
I1002 14:54:28.003798 10714 net.cpp:157] Top shape: 1 384 38 64 (933888)
I1002 14:54:28.003799 10714 net.cpp:165] Memory required for data: 384268000
I1002 14:54:28.003801 10714 layer_factory.hpp:77] Creating layer conv4_6/linear
I1002 14:54:28.003806 10714 net.cpp:100] Creating Layer conv4_6/linear
I1002 14:54:28.003809 10714 net.cpp:434] conv4_6/linear <- conv4_6/dwise
I1002 14:54:28.003813 10714 net.cpp:408] conv4_6/linear -> conv4_6/linear
I1002 14:54:28.005002 10714 net.cpp:150] Setting up conv4_6/linear
I1002 14:54:28.005009 10714 net.cpp:157] Top shape: 1 64 38 64 (155648)
I1002 14:54:28.005012 10714 net.cpp:165] Memory required for data: 384890592
I1002 14:54:28.005014 10714 layer_factory.hpp:77] Creating layer conv4_6/linear/bn
I1002 14:54:28.005019 10714 net.cpp:100] Creating Layer conv4_6/linear/bn
I1002 14:54:28.005023 10714 net.cpp:434] conv4_6/linear/bn <- conv4_6/linear
I1002 14:54:28.005025 10714 net.cpp:395] conv4_6/linear/bn -> conv4_6/linear (in-place)
I1002 14:54:28.005164 10714 net.cpp:150] Setting up conv4_6/linear/bn
I1002 14:54:28.005168 10714 net.cpp:157] Top shape: 1 64 38 64 (155648)
I1002 14:54:28.005170 10714 net.cpp:165] Memory required for data: 385513184
I1002 14:54:28.005174 10714 layer_factory.hpp:77] Creating layer conv4_6/linear/scale
I1002 14:54:28.005178 10714 net.cpp:100] Creating Layer conv4_6/linear/scale
I1002 14:54:28.005182 10714 net.cpp:434] conv4_6/linear/scale <- conv4_6/linear
I1002 14:54:28.005183 10714 net.cpp:395] conv4_6/linear/scale -> conv4_6/linear (in-place)
I1002 14:54:28.005209 10714 layer_factory.hpp:77] Creating layer conv4_6/linear/scale
I1002 14:54:28.005285 10714 net.cpp:150] Setting up conv4_6/linear/scale
I1002 14:54:28.005290 10714 net.cpp:157] Top shape: 1 64 38 64 (155648)
I1002 14:54:28.005291 10714 net.cpp:165] Memory required for data: 386135776
I1002 14:54:28.005295 10714 layer_factory.hpp:77] Creating layer block_4_6
I1002 14:54:28.005298 10714 net.cpp:100] Creating Layer block_4_6
I1002 14:54:28.005300 10714 net.cpp:434] block_4_6 <- block_4_5_block_4_5_0_split_1
I1002 14:54:28.005303 10714 net.cpp:434] block_4_6 <- conv4_6/linear
I1002 14:54:28.005306 10714 net.cpp:408] block_4_6 -> block_4_6
I1002 14:54:28.005322 10714 net.cpp:150] Setting up block_4_6
I1002 14:54:28.005326 10714 net.cpp:157] Top shape: 1 64 38 64 (155648)
I1002 14:54:28.005328 10714 net.cpp:165] Memory required for data: 386758368
I1002 14:54:28.005329 10714 layer_factory.hpp:77] Creating layer conv4_7/expand
I1002 14:54:28.005343 10714 net.cpp:100] Creating Layer conv4_7/expand
I1002 14:54:28.005347 10714 net.cpp:434] conv4_7/expand <- block_4_6
I1002 14:54:28.005349 10714 net.cpp:408] conv4_7/expand -> conv4_7/expand
I1002 14:54:28.006541 10714 net.cpp:150] Setting up conv4_7/expand
I1002 14:54:28.006548 10714 net.cpp:157] Top shape: 1 384 38 64 (933888)
I1002 14:54:28.006551 10714 net.cpp:165] Memory required for data: 390493920
I1002 14:54:28.006553 10714 layer_factory.hpp:77] Creating layer conv4_7/expand/bn
I1002 14:54:28.006558 10714 net.cpp:100] Creating Layer conv4_7/expand/bn
I1002 14:54:28.006561 10714 net.cpp:434] conv4_7/expand/bn <- conv4_7/expand
I1002 14:54:28.006564 10714 net.cpp:395] conv4_7/expand/bn -> conv4_7/expand (in-place)
I1002 14:54:28.006698 10714 net.cpp:150] Setting up conv4_7/expand/bn
I1002 14:54:28.006702 10714 net.cpp:157] Top shape: 1 384 38 64 (933888)
I1002 14:54:28.006705 10714 net.cpp:165] Memory required for data: 394229472
I1002 14:54:28.006708 10714 layer_factory.hpp:77] Creating layer conv4_7/expand/scale
I1002 14:54:28.006713 10714 net.cpp:100] Creating Layer conv4_7/expand/scale
I1002 14:54:28.006722 10714 net.cpp:434] conv4_7/expand/scale <- conv4_7/expand
I1002 14:54:28.006726 10714 net.cpp:395] conv4_7/expand/scale -> conv4_7/expand (in-place)
I1002 14:54:28.006752 10714 layer_factory.hpp:77] Creating layer conv4_7/expand/scale
I1002 14:54:28.006826 10714 net.cpp:150] Setting up conv4_7/expand/scale
I1002 14:54:28.006830 10714 net.cpp:157] Top shape: 1 384 38 64 (933888)
I1002 14:54:28.006831 10714 net.cpp:165] Memory required for data: 397965024
I1002 14:54:28.006835 10714 layer_factory.hpp:77] Creating layer relu4_7/expand
I1002 14:54:28.006839 10714 net.cpp:100] Creating Layer relu4_7/expand
I1002 14:54:28.006841 10714 net.cpp:434] relu4_7/expand <- conv4_7/expand
I1002 14:54:28.006844 10714 net.cpp:395] relu4_7/expand -> conv4_7/expand (in-place)
I1002 14:54:28.007220 10714 net.cpp:150] Setting up relu4_7/expand
I1002 14:54:28.007226 10714 net.cpp:157] Top shape: 1 384 38 64 (933888)
I1002 14:54:28.007228 10714 net.cpp:165] Memory required for data: 401700576
I1002 14:54:28.007230 10714 layer_factory.hpp:77] Creating layer conv4_7/dwise
I1002 14:54:28.007236 10714 net.cpp:100] Creating Layer conv4_7/dwise
I1002 14:54:28.007238 10714 net.cpp:434] conv4_7/dwise <- conv4_7/expand
I1002 14:54:28.007242 10714 net.cpp:408] conv4_7/dwise -> conv4_7/dwise
I1002 14:54:28.007400 10714 net.cpp:150] Setting up conv4_7/dwise
I1002 14:54:28.007405 10714 net.cpp:157] Top shape: 1 384 19 32 (233472)
I1002 14:54:28.007407 10714 net.cpp:165] Memory required for data: 402634464
I1002 14:54:28.007411 10714 layer_factory.hpp:77] Creating layer conv4_7/dwise/bn
I1002 14:54:28.007413 10714 net.cpp:100] Creating Layer conv4_7/dwise/bn
I1002 14:54:28.007416 10714 net.cpp:434] conv4_7/dwise/bn <- conv4_7/dwise
I1002 14:54:28.007418 10714 net.cpp:395] conv4_7/dwise/bn -> conv4_7/dwise (in-place)
I1002 14:54:28.007546 10714 net.cpp:150] Setting up conv4_7/dwise/bn
I1002 14:54:28.007550 10714 net.cpp:157] Top shape: 1 384 19 32 (233472)
I1002 14:54:28.007552 10714 net.cpp:165] Memory required for data: 403568352
I1002 14:54:28.007556 10714 layer_factory.hpp:77] Creating layer conv4_7/dwise/scale
I1002 14:54:28.007560 10714 net.cpp:100] Creating Layer conv4_7/dwise/scale
I1002 14:54:28.007563 10714 net.cpp:434] conv4_7/dwise/scale <- conv4_7/dwise
I1002 14:54:28.007566 10714 net.cpp:395] conv4_7/dwise/scale -> conv4_7/dwise (in-place)
I1002 14:54:28.007594 10714 layer_factory.hpp:77] Creating layer conv4_7/dwise/scale
I1002 14:54:28.007671 10714 net.cpp:150] Setting up conv4_7/dwise/scale
I1002 14:54:28.007675 10714 net.cpp:157] Top shape: 1 384 19 32 (233472)
I1002 14:54:28.007678 10714 net.cpp:165] Memory required for data: 404502240
I1002 14:54:28.007681 10714 layer_factory.hpp:77] Creating layer relu4_7/dwise
I1002 14:54:28.007684 10714 net.cpp:100] Creating Layer relu4_7/dwise
I1002 14:54:28.007686 10714 net.cpp:434] relu4_7/dwise <- conv4_7/dwise
I1002 14:54:28.007689 10714 net.cpp:395] relu4_7/dwise -> conv4_7/dwise (in-place)
I1002 14:54:28.007959 10714 net.cpp:150] Setting up relu4_7/dwise
I1002 14:54:28.007964 10714 net.cpp:157] Top shape: 1 384 19 32 (233472)
I1002 14:54:28.007966 10714 net.cpp:165] Memory required for data: 405436128
I1002 14:54:28.007968 10714 layer_factory.hpp:77] Creating layer conv4_7/linear
I1002 14:54:28.007973 10714 net.cpp:100] Creating Layer conv4_7/linear
I1002 14:54:28.007975 10714 net.cpp:434] conv4_7/linear <- conv4_7/dwise
I1002 14:54:28.007979 10714 net.cpp:408] conv4_7/linear -> conv4_7/linear
I1002 14:54:28.009246 10714 net.cpp:150] Setting up conv4_7/linear
I1002 14:54:28.009253 10714 net.cpp:157] Top shape: 1 96 19 32 (58368)
I1002 14:54:28.009255 10714 net.cpp:165] Memory required for data: 405669600
I1002 14:54:28.009258 10714 layer_factory.hpp:77] Creating layer conv4_7/linear/bn
I1002 14:54:28.009263 10714 net.cpp:100] Creating Layer conv4_7/linear/bn
I1002 14:54:28.009266 10714 net.cpp:434] conv4_7/linear/bn <- conv4_7/linear
I1002 14:54:28.009270 10714 net.cpp:395] conv4_7/linear/bn -> conv4_7/linear (in-place)
I1002 14:54:28.009413 10714 net.cpp:150] Setting up conv4_7/linear/bn
I1002 14:54:28.009423 10714 net.cpp:157] Top shape: 1 96 19 32 (58368)
I1002 14:54:28.009426 10714 net.cpp:165] Memory required for data: 405903072
I1002 14:54:28.009430 10714 layer_factory.hpp:77] Creating layer conv4_7/linear/scale
I1002 14:54:28.009434 10714 net.cpp:100] Creating Layer conv4_7/linear/scale
I1002 14:54:28.009438 10714 net.cpp:434] conv4_7/linear/scale <- conv4_7/linear
I1002 14:54:28.009439 10714 net.cpp:395] conv4_7/linear/scale -> conv4_7/linear (in-place)
I1002 14:54:28.009471 10714 layer_factory.hpp:77] Creating layer conv4_7/linear/scale
I1002 14:54:28.009557 10714 net.cpp:150] Setting up conv4_7/linear/scale
I1002 14:54:28.009562 10714 net.cpp:157] Top shape: 1 96 19 32 (58368)
I1002 14:54:28.009563 10714 net.cpp:165] Memory required for data: 406136544
I1002 14:54:28.009567 10714 layer_factory.hpp:77] Creating layer conv4_7/linear_conv4_7/linear/scale_0_split
I1002 14:54:28.009570 10714 net.cpp:100] Creating Layer conv4_7/linear_conv4_7/linear/scale_0_split
I1002 14:54:28.009572 10714 net.cpp:434] conv4_7/linear_conv4_7/linear/scale_0_split <- conv4_7/linear
I1002 14:54:28.009577 10714 net.cpp:408] conv4_7/linear_conv4_7/linear/scale_0_split -> conv4_7/linear_conv4_7/linear/scale_0_split_0
I1002 14:54:28.009580 10714 net.cpp:408] conv4_7/linear_conv4_7/linear/scale_0_split -> conv4_7/linear_conv4_7/linear/scale_0_split_1
I1002 14:54:28.009604 10714 net.cpp:150] Setting up conv4_7/linear_conv4_7/linear/scale_0_split
I1002 14:54:28.009608 10714 net.cpp:157] Top shape: 1 96 19 32 (58368)
I1002 14:54:28.009610 10714 net.cpp:157] Top shape: 1 96 19 32 (58368)
I1002 14:54:28.009613 10714 net.cpp:165] Memory required for data: 406603488
I1002 14:54:28.009614 10714 layer_factory.hpp:77] Creating layer conv5_1/expand
I1002 14:54:28.009618 10714 net.cpp:100] Creating Layer conv5_1/expand
I1002 14:54:28.009620 10714 net.cpp:434] conv5_1/expand <- conv4_7/linear_conv4_7/linear/scale_0_split_0
I1002 14:54:28.009622 10714 net.cpp:408] conv5_1/expand -> conv5_1/expand
I1002 14:54:28.011117 10714 net.cpp:150] Setting up conv5_1/expand
I1002 14:54:28.011126 10714 net.cpp:157] Top shape: 1 576 19 32 (350208)
I1002 14:54:28.011127 10714 net.cpp:165] Memory required for data: 408004320
I1002 14:54:28.011132 10714 layer_factory.hpp:77] Creating layer conv5_1/expand/bn
I1002 14:54:28.011135 10714 net.cpp:100] Creating Layer conv5_1/expand/bn
I1002 14:54:28.011138 10714 net.cpp:434] conv5_1/expand/bn <- conv5_1/expand
I1002 14:54:28.011142 10714 net.cpp:395] conv5_1/expand/bn -> conv5_1/expand (in-place)
I1002 14:54:28.011286 10714 net.cpp:150] Setting up conv5_1/expand/bn
I1002 14:54:28.011291 10714 net.cpp:157] Top shape: 1 576 19 32 (350208)
I1002 14:54:28.011293 10714 net.cpp:165] Memory required for data: 409405152
I1002 14:54:28.011297 10714 layer_factory.hpp:77] Creating layer conv5_1/expand/scale
I1002 14:54:28.011301 10714 net.cpp:100] Creating Layer conv5_1/expand/scale
I1002 14:54:28.011303 10714 net.cpp:434] conv5_1/expand/scale <- conv5_1/expand
I1002 14:54:28.011307 10714 net.cpp:395] conv5_1/expand/scale -> conv5_1/expand (in-place)
I1002 14:54:28.011333 10714 layer_factory.hpp:77] Creating layer conv5_1/expand/scale
I1002 14:54:28.011417 10714 net.cpp:150] Setting up conv5_1/expand/scale
I1002 14:54:28.011421 10714 net.cpp:157] Top shape: 1 576 19 32 (350208)
I1002 14:54:28.011423 10714 net.cpp:165] Memory required for data: 410805984
I1002 14:54:28.011427 10714 layer_factory.hpp:77] Creating layer relu5_1/expand
I1002 14:54:28.011430 10714 net.cpp:100] Creating Layer relu5_1/expand
I1002 14:54:28.011433 10714 net.cpp:434] relu5_1/expand <- conv5_1/expand
I1002 14:54:28.011436 10714 net.cpp:395] relu5_1/expand -> conv5_1/expand (in-place)
I1002 14:54:28.011708 10714 net.cpp:150] Setting up relu5_1/expand
I1002 14:54:28.011714 10714 net.cpp:157] Top shape: 1 576 19 32 (350208)
I1002 14:54:28.011716 10714 net.cpp:165] Memory required for data: 412206816
I1002 14:54:28.011718 10714 layer_factory.hpp:77] Creating layer conv5_1/dwise
I1002 14:54:28.011723 10714 net.cpp:100] Creating Layer conv5_1/dwise
I1002 14:54:28.011732 10714 net.cpp:434] conv5_1/dwise <- conv5_1/expand
I1002 14:54:28.011735 10714 net.cpp:408] conv5_1/dwise -> conv5_1/dwise
I1002 14:54:28.011910 10714 net.cpp:150] Setting up conv5_1/dwise
I1002 14:54:28.011915 10714 net.cpp:157] Top shape: 1 576 19 32 (350208)
I1002 14:54:28.011919 10714 net.cpp:165] Memory required for data: 413607648
I1002 14:54:28.011921 10714 layer_factory.hpp:77] Creating layer conv5_1/dwise/bn
I1002 14:54:28.011924 10714 net.cpp:100] Creating Layer conv5_1/dwise/bn
I1002 14:54:28.011927 10714 net.cpp:434] conv5_1/dwise/bn <- conv5_1/dwise
I1002 14:54:28.011929 10714 net.cpp:395] conv5_1/dwise/bn -> conv5_1/dwise (in-place)
I1002 14:54:28.012068 10714 net.cpp:150] Setting up conv5_1/dwise/bn
I1002 14:54:28.012073 10714 net.cpp:157] Top shape: 1 576 19 32 (350208)
I1002 14:54:28.012075 10714 net.cpp:165] Memory required for data: 415008480
I1002 14:54:28.012079 10714 layer_factory.hpp:77] Creating layer conv5_1/dwise/scale
I1002 14:54:28.012082 10714 net.cpp:100] Creating Layer conv5_1/dwise/scale
I1002 14:54:28.012084 10714 net.cpp:434] conv5_1/dwise/scale <- conv5_1/dwise
I1002 14:54:28.012087 10714 net.cpp:395] conv5_1/dwise/scale -> conv5_1/dwise (in-place)
I1002 14:54:28.012115 10714 layer_factory.hpp:77] Creating layer conv5_1/dwise/scale
I1002 14:54:28.012194 10714 net.cpp:150] Setting up conv5_1/dwise/scale
I1002 14:54:28.012199 10714 net.cpp:157] Top shape: 1 576 19 32 (350208)
I1002 14:54:28.012200 10714 net.cpp:165] Memory required for data: 416409312
I1002 14:54:28.012204 10714 layer_factory.hpp:77] Creating layer relu5_1/dwise
I1002 14:54:28.012207 10714 net.cpp:100] Creating Layer relu5_1/dwise
I1002 14:54:28.012209 10714 net.cpp:434] relu5_1/dwise <- conv5_1/dwise
I1002 14:54:28.012212 10714 net.cpp:395] relu5_1/dwise -> conv5_1/dwise (in-place)
I1002 14:54:28.012485 10714 net.cpp:150] Setting up relu5_1/dwise
I1002 14:54:28.012490 10714 net.cpp:157] Top shape: 1 576 19 32 (350208)
I1002 14:54:28.012491 10714 net.cpp:165] Memory required for data: 417810144
I1002 14:54:28.012493 10714 layer_factory.hpp:77] Creating layer conv5_1/linear
I1002 14:54:28.012498 10714 net.cpp:100] Creating Layer conv5_1/linear
I1002 14:54:28.012501 10714 net.cpp:434] conv5_1/linear <- conv5_1/dwise
I1002 14:54:28.012506 10714 net.cpp:408] conv5_1/linear -> conv5_1/linear
I1002 14:54:28.014036 10714 net.cpp:150] Setting up conv5_1/linear
I1002 14:54:28.014045 10714 net.cpp:157] Top shape: 1 96 19 32 (58368)
I1002 14:54:28.014045 10714 net.cpp:165] Memory required for data: 418043616
I1002 14:54:28.014050 10714 layer_factory.hpp:77] Creating layer conv5_1/linear/bn
I1002 14:54:28.014055 10714 net.cpp:100] Creating Layer conv5_1/linear/bn
I1002 14:54:28.014057 10714 net.cpp:434] conv5_1/linear/bn <- conv5_1/linear
I1002 14:54:28.014060 10714 net.cpp:395] conv5_1/linear/bn -> conv5_1/linear (in-place)
I1002 14:54:28.014205 10714 net.cpp:150] Setting up conv5_1/linear/bn
I1002 14:54:28.014209 10714 net.cpp:157] Top shape: 1 96 19 32 (58368)
I1002 14:54:28.014211 10714 net.cpp:165] Memory required for data: 418277088
I1002 14:54:28.014215 10714 layer_factory.hpp:77] Creating layer conv5_1/linear/scale
I1002 14:54:28.014219 10714 net.cpp:100] Creating Layer conv5_1/linear/scale
I1002 14:54:28.014221 10714 net.cpp:434] conv5_1/linear/scale <- conv5_1/linear
I1002 14:54:28.014225 10714 net.cpp:395] conv5_1/linear/scale -> conv5_1/linear (in-place)
I1002 14:54:28.014250 10714 layer_factory.hpp:77] Creating layer conv5_1/linear/scale
I1002 14:54:28.014334 10714 net.cpp:150] Setting up conv5_1/linear/scale
I1002 14:54:28.014338 10714 net.cpp:157] Top shape: 1 96 19 32 (58368)
I1002 14:54:28.014340 10714 net.cpp:165] Memory required for data: 418510560
I1002 14:54:28.014343 10714 layer_factory.hpp:77] Creating layer block_5_1
I1002 14:54:28.014348 10714 net.cpp:100] Creating Layer block_5_1
I1002 14:54:28.014351 10714 net.cpp:434] block_5_1 <- conv4_7/linear_conv4_7/linear/scale_0_split_1
I1002 14:54:28.014353 10714 net.cpp:434] block_5_1 <- conv5_1/linear
I1002 14:54:28.014356 10714 net.cpp:408] block_5_1 -> block_5_1
I1002 14:54:28.014384 10714 net.cpp:150] Setting up block_5_1
I1002 14:54:28.014387 10714 net.cpp:157] Top shape: 1 96 19 32 (58368)
I1002 14:54:28.014389 10714 net.cpp:165] Memory required for data: 418744032
I1002 14:54:28.014390 10714 layer_factory.hpp:77] Creating layer block_5_1_block_5_1_0_split
I1002 14:54:28.014394 10714 net.cpp:100] Creating Layer block_5_1_block_5_1_0_split
I1002 14:54:28.014397 10714 net.cpp:434] block_5_1_block_5_1_0_split <- block_5_1
I1002 14:54:28.014400 10714 net.cpp:408] block_5_1_block_5_1_0_split -> block_5_1_block_5_1_0_split_0
I1002 14:54:28.014405 10714 net.cpp:408] block_5_1_block_5_1_0_split -> block_5_1_block_5_1_0_split_1
I1002 14:54:28.014430 10714 net.cpp:150] Setting up block_5_1_block_5_1_0_split
I1002 14:54:28.014433 10714 net.cpp:157] Top shape: 1 96 19 32 (58368)
I1002 14:54:28.014437 10714 net.cpp:157] Top shape: 1 96 19 32 (58368)
I1002 14:54:28.014438 10714 net.cpp:165] Memory required for data: 419210976
I1002 14:54:28.014441 10714 layer_factory.hpp:77] Creating layer conv5_2/expand
I1002 14:54:28.014446 10714 net.cpp:100] Creating Layer conv5_2/expand
I1002 14:54:28.014448 10714 net.cpp:434] conv5_2/expand <- block_5_1_block_5_1_0_split_0
I1002 14:54:28.014452 10714 net.cpp:408] conv5_2/expand -> conv5_2/expand
I1002 14:54:28.015923 10714 net.cpp:150] Setting up conv5_2/expand
I1002 14:54:28.015931 10714 net.cpp:157] Top shape: 1 576 19 32 (350208)
I1002 14:54:28.015933 10714 net.cpp:165] Memory required for data: 420611808
I1002 14:54:28.015938 10714 layer_factory.hpp:77] Creating layer conv5_2/expand/bn
I1002 14:54:28.015942 10714 net.cpp:100] Creating Layer conv5_2/expand/bn
I1002 14:54:28.015945 10714 net.cpp:434] conv5_2/expand/bn <- conv5_2/expand
I1002 14:54:28.015949 10714 net.cpp:395] conv5_2/expand/bn -> conv5_2/expand (in-place)
I1002 14:54:28.016098 10714 net.cpp:150] Setting up conv5_2/expand/bn
I1002 14:54:28.016103 10714 net.cpp:157] Top shape: 1 576 19 32 (350208)
I1002 14:54:28.016104 10714 net.cpp:165] Memory required for data: 422012640
I1002 14:54:28.016109 10714 layer_factory.hpp:77] Creating layer conv5_2/expand/scale
I1002 14:54:28.016113 10714 net.cpp:100] Creating Layer conv5_2/expand/scale
I1002 14:54:28.016116 10714 net.cpp:434] conv5_2/expand/scale <- conv5_2/expand
I1002 14:54:28.016119 10714 net.cpp:395] conv5_2/expand/scale -> conv5_2/expand (in-place)
I1002 14:54:28.016146 10714 layer_factory.hpp:77] Creating layer conv5_2/expand/scale
I1002 14:54:28.016230 10714 net.cpp:150] Setting up conv5_2/expand/scale
I1002 14:54:28.016234 10714 net.cpp:157] Top shape: 1 576 19 32 (350208)
I1002 14:54:28.016237 10714 net.cpp:165] Memory required for data: 423413472
I1002 14:54:28.016239 10714 layer_factory.hpp:77] Creating layer relu5_2/expand
I1002 14:54:28.016243 10714 net.cpp:100] Creating Layer relu5_2/expand
I1002 14:54:28.016247 10714 net.cpp:434] relu5_2/expand <- conv5_2/expand
I1002 14:54:28.016249 10714 net.cpp:395] relu5_2/expand -> conv5_2/expand (in-place)
I1002 14:54:28.016525 10714 net.cpp:150] Setting up relu5_2/expand
I1002 14:54:28.016530 10714 net.cpp:157] Top shape: 1 576 19 32 (350208)
I1002 14:54:28.016532 10714 net.cpp:165] Memory required for data: 424814304
I1002 14:54:28.016535 10714 layer_factory.hpp:77] Creating layer conv5_2/dwise
I1002 14:54:28.016539 10714 net.cpp:100] Creating Layer conv5_2/dwise
I1002 14:54:28.016541 10714 net.cpp:434] conv5_2/dwise <- conv5_2/expand
I1002 14:54:28.016546 10714 net.cpp:408] conv5_2/dwise -> conv5_2/dwise
I1002 14:54:28.016724 10714 net.cpp:150] Setting up conv5_2/dwise
I1002 14:54:28.016729 10714 net.cpp:157] Top shape: 1 576 19 32 (350208)
I1002 14:54:28.016731 10714 net.cpp:165] Memory required for data: 426215136
I1002 14:54:28.016734 10714 layer_factory.hpp:77] Creating layer conv5_2/dwise/bn
I1002 14:54:28.016738 10714 net.cpp:100] Creating Layer conv5_2/dwise/bn
I1002 14:54:28.016741 10714 net.cpp:434] conv5_2/dwise/bn <- conv5_2/dwise
I1002 14:54:28.016743 10714 net.cpp:395] conv5_2/dwise/bn -> conv5_2/dwise (in-place)
I1002 14:54:28.016894 10714 net.cpp:150] Setting up conv5_2/dwise/bn
I1002 14:54:28.016898 10714 net.cpp:157] Top shape: 1 576 19 32 (350208)
I1002 14:54:28.016901 10714 net.cpp:165] Memory required for data: 427615968
I1002 14:54:28.016906 10714 layer_factory.hpp:77] Creating layer conv5_2/dwise/scale
I1002 14:54:28.016909 10714 net.cpp:100] Creating Layer conv5_2/dwise/scale
I1002 14:54:28.016911 10714 net.cpp:434] conv5_2/dwise/scale <- conv5_2/dwise
I1002 14:54:28.016914 10714 net.cpp:395] conv5_2/dwise/scale -> conv5_2/dwise (in-place)
I1002 14:54:28.016942 10714 layer_factory.hpp:77] Creating layer conv5_2/dwise/scale
I1002 14:54:28.017024 10714 net.cpp:150] Setting up conv5_2/dwise/scale
I1002 14:54:28.017027 10714 net.cpp:157] Top shape: 1 576 19 32 (350208)
I1002 14:54:28.017030 10714 net.cpp:165] Memory required for data: 429016800
I1002 14:54:28.017033 10714 layer_factory.hpp:77] Creating layer relu5_2/dwise
I1002 14:54:28.017036 10714 net.cpp:100] Creating Layer relu5_2/dwise
I1002 14:54:28.017038 10714 net.cpp:434] relu5_2/dwise <- conv5_2/dwise
I1002 14:54:28.017041 10714 net.cpp:395] relu5_2/dwise -> conv5_2/dwise (in-place)
I1002 14:54:28.017470 10714 net.cpp:150] Setting up relu5_2/dwise
I1002 14:54:28.017478 10714 net.cpp:157] Top shape: 1 576 19 32 (350208)
I1002 14:54:28.017480 10714 net.cpp:165] Memory required for data: 430417632
I1002 14:54:28.017482 10714 layer_factory.hpp:77] Creating layer conv5_2/linear
I1002 14:54:28.017488 10714 net.cpp:100] Creating Layer conv5_2/linear
I1002 14:54:28.017491 10714 net.cpp:434] conv5_2/linear <- conv5_2/dwise
I1002 14:54:28.017496 10714 net.cpp:408] conv5_2/linear -> conv5_2/linear
I1002 14:54:28.018937 10714 net.cpp:150] Setting up conv5_2/linear
I1002 14:54:28.018944 10714 net.cpp:157] Top shape: 1 96 19 32 (58368)
I1002 14:54:28.018947 10714 net.cpp:165] Memory required for data: 430651104
I1002 14:54:28.018950 10714 layer_factory.hpp:77] Creating layer conv5_2/linear/bn
I1002 14:54:28.018955 10714 net.cpp:100] Creating Layer conv5_2/linear/bn
I1002 14:54:28.018957 10714 net.cpp:434] conv5_2/linear/bn <- conv5_2/linear
I1002 14:54:28.018960 10714 net.cpp:395] conv5_2/linear/bn -> conv5_2/linear (in-place)
I1002 14:54:28.019109 10714 net.cpp:150] Setting up conv5_2/linear/bn
I1002 14:54:28.019114 10714 net.cpp:157] Top shape: 1 96 19 32 (58368)
I1002 14:54:28.019114 10714 net.cpp:165] Memory required for data: 430884576
I1002 14:54:28.019119 10714 layer_factory.hpp:77] Creating layer conv5_2/linear/scale
I1002 14:54:28.019122 10714 net.cpp:100] Creating Layer conv5_2/linear/scale
I1002 14:54:28.019124 10714 net.cpp:434] conv5_2/linear/scale <- conv5_2/linear
I1002 14:54:28.019126 10714 net.cpp:395] conv5_2/linear/scale -> conv5_2/linear (in-place)
I1002 14:54:28.019155 10714 layer_factory.hpp:77] Creating layer conv5_2/linear/scale
I1002 14:54:28.019242 10714 net.cpp:150] Setting up conv5_2/linear/scale
I1002 14:54:28.019245 10714 net.cpp:157] Top shape: 1 96 19 32 (58368)
I1002 14:54:28.019246 10714 net.cpp:165] Memory required for data: 431118048
I1002 14:54:28.019250 10714 layer_factory.hpp:77] Creating layer block_5_2
I1002 14:54:28.019253 10714 net.cpp:100] Creating Layer block_5_2
I1002 14:54:28.019255 10714 net.cpp:434] block_5_2 <- block_5_1_block_5_1_0_split_1
I1002 14:54:28.019258 10714 net.cpp:434] block_5_2 <- conv5_2/linear
I1002 14:54:28.019261 10714 net.cpp:408] block_5_2 -> block_5_2
I1002 14:54:28.019278 10714 net.cpp:150] Setting up block_5_2
I1002 14:54:28.019281 10714 net.cpp:157] Top shape: 1 96 19 32 (58368)
I1002 14:54:28.019282 10714 net.cpp:165] Memory required for data: 431351520
I1002 14:54:28.019284 10714 layer_factory.hpp:77] Creating layer conv5_3/expand
I1002 14:54:28.019289 10714 net.cpp:100] Creating Layer conv5_3/expand
I1002 14:54:28.019291 10714 net.cpp:434] conv5_3/expand <- block_5_2
I1002 14:54:28.019294 10714 net.cpp:408] conv5_3/expand -> conv5_3/expand
I1002 14:54:28.021124 10714 net.cpp:150] Setting up conv5_3/expand
I1002 14:54:28.021131 10714 net.cpp:157] Top shape: 1 576 19 32 (350208)
I1002 14:54:28.021133 10714 net.cpp:165] Memory required for data: 432752352
I1002 14:54:28.021147 10714 layer_factory.hpp:77] Creating layer conv5_3/expand/bn
I1002 14:54:28.021152 10714 net.cpp:100] Creating Layer conv5_3/expand/bn
I1002 14:54:28.021153 10714 net.cpp:434] conv5_3/expand/bn <- conv5_3/expand
I1002 14:54:28.021157 10714 net.cpp:395] conv5_3/expand/bn -> conv5_3/expand (in-place)
I1002 14:54:28.021306 10714 net.cpp:150] Setting up conv5_3/expand/bn
I1002 14:54:28.021311 10714 net.cpp:157] Top shape: 1 576 19 32 (350208)
I1002 14:54:28.021312 10714 net.cpp:165] Memory required for data: 434153184
I1002 14:54:28.021317 10714 layer_factory.hpp:77] Creating layer conv5_3/expand/scale
I1002 14:54:28.021320 10714 net.cpp:100] Creating Layer conv5_3/expand/scale
I1002 14:54:28.021322 10714 net.cpp:434] conv5_3/expand/scale <- conv5_3/expand
I1002 14:54:28.021324 10714 net.cpp:395] conv5_3/expand/scale -> conv5_3/expand (in-place)
I1002 14:54:28.021351 10714 layer_factory.hpp:77] Creating layer conv5_3/expand/scale
I1002 14:54:28.021437 10714 net.cpp:150] Setting up conv5_3/expand/scale
I1002 14:54:28.021441 10714 net.cpp:157] Top shape: 1 576 19 32 (350208)
I1002 14:54:28.021443 10714 net.cpp:165] Memory required for data: 435554016
I1002 14:54:28.021446 10714 layer_factory.hpp:77] Creating layer relu5_3/expand
I1002 14:54:28.021450 10714 net.cpp:100] Creating Layer relu5_3/expand
I1002 14:54:28.021452 10714 net.cpp:434] relu5_3/expand <- conv5_3/expand
I1002 14:54:28.021455 10714 net.cpp:395] relu5_3/expand -> conv5_3/expand (in-place)
I1002 14:54:28.021739 10714 net.cpp:150] Setting up relu5_3/expand
I1002 14:54:28.021744 10714 net.cpp:157] Top shape: 1 576 19 32 (350208)
I1002 14:54:28.021746 10714 net.cpp:165] Memory required for data: 436954848
I1002 14:54:28.021749 10714 layer_factory.hpp:77] Creating layer conv5_3/expand_relu5_3/expand_0_split
I1002 14:54:28.021754 10714 net.cpp:100] Creating Layer conv5_3/expand_relu5_3/expand_0_split
I1002 14:54:28.021755 10714 net.cpp:434] conv5_3/expand_relu5_3/expand_0_split <- conv5_3/expand
I1002 14:54:28.021759 10714 net.cpp:408] conv5_3/expand_relu5_3/expand_0_split -> conv5_3/expand_relu5_3/expand_0_split_0
I1002 14:54:28.021764 10714 net.cpp:408] conv5_3/expand_relu5_3/expand_0_split -> conv5_3/expand_relu5_3/expand_0_split_1
I1002 14:54:28.021769 10714 net.cpp:408] conv5_3/expand_relu5_3/expand_0_split -> conv5_3/expand_relu5_3/expand_0_split_2
I1002 14:54:28.021772 10714 net.cpp:408] conv5_3/expand_relu5_3/expand_0_split -> conv5_3/expand_relu5_3/expand_0_split_3
I1002 14:54:28.021819 10714 net.cpp:150] Setting up conv5_3/expand_relu5_3/expand_0_split
I1002 14:54:28.021823 10714 net.cpp:157] Top shape: 1 576 19 32 (350208)
I1002 14:54:28.021826 10714 net.cpp:157] Top shape: 1 576 19 32 (350208)
I1002 14:54:28.021829 10714 net.cpp:157] Top shape: 1 576 19 32 (350208)
I1002 14:54:28.021832 10714 net.cpp:157] Top shape: 1 576 19 32 (350208)
I1002 14:54:28.021833 10714 net.cpp:165] Memory required for data: 442558176
I1002 14:54:28.021836 10714 layer_factory.hpp:77] Creating layer conv5_3/dwise
I1002 14:54:28.021839 10714 net.cpp:100] Creating Layer conv5_3/dwise
I1002 14:54:28.021842 10714 net.cpp:434] conv5_3/dwise <- conv5_3/expand_relu5_3/expand_0_split_0
I1002 14:54:28.021845 10714 net.cpp:408] conv5_3/dwise -> conv5_3/dwise
I1002 14:54:28.022017 10714 net.cpp:150] Setting up conv5_3/dwise
I1002 14:54:28.022022 10714 net.cpp:157] Top shape: 1 576 10 16 (92160)
I1002 14:54:28.022024 10714 net.cpp:165] Memory required for data: 442926816
I1002 14:54:28.022027 10714 layer_factory.hpp:77] Creating layer conv5_3/dwise/bn
I1002 14:54:28.022030 10714 net.cpp:100] Creating Layer conv5_3/dwise/bn
I1002 14:54:28.022033 10714 net.cpp:434] conv5_3/dwise/bn <- conv5_3/dwise
I1002 14:54:28.022037 10714 net.cpp:395] conv5_3/dwise/bn -> conv5_3/dwise (in-place)
I1002 14:54:28.022179 10714 net.cpp:150] Setting up conv5_3/dwise/bn
I1002 14:54:28.022182 10714 net.cpp:157] Top shape: 1 576 10 16 (92160)
I1002 14:54:28.022186 10714 net.cpp:165] Memory required for data: 443295456
I1002 14:54:28.022189 10714 layer_factory.hpp:77] Creating layer conv5_3/dwise/scale
I1002 14:54:28.022200 10714 net.cpp:100] Creating Layer conv5_3/dwise/scale
I1002 14:54:28.022202 10714 net.cpp:434] conv5_3/dwise/scale <- conv5_3/dwise
I1002 14:54:28.022207 10714 net.cpp:395] conv5_3/dwise/scale -> conv5_3/dwise (in-place)
I1002 14:54:28.022236 10714 layer_factory.hpp:77] Creating layer conv5_3/dwise/scale
I1002 14:54:28.022320 10714 net.cpp:150] Setting up conv5_3/dwise/scale
I1002 14:54:28.022323 10714 net.cpp:157] Top shape: 1 576 10 16 (92160)
I1002 14:54:28.022325 10714 net.cpp:165] Memory required for data: 443664096
I1002 14:54:28.022330 10714 layer_factory.hpp:77] Creating layer relu5_3/dwise
I1002 14:54:28.022333 10714 net.cpp:100] Creating Layer relu5_3/dwise
I1002 14:54:28.022336 10714 net.cpp:434] relu5_3/dwise <- conv5_3/dwise
I1002 14:54:28.022338 10714 net.cpp:395] relu5_3/dwise -> conv5_3/dwise (in-place)
I1002 14:54:28.022719 10714 net.cpp:150] Setting up relu5_3/dwise
I1002 14:54:28.022727 10714 net.cpp:157] Top shape: 1 576 10 16 (92160)
I1002 14:54:28.022728 10714 net.cpp:165] Memory required for data: 444032736
I1002 14:54:28.022730 10714 layer_factory.hpp:77] Creating layer conv5_3/linear
I1002 14:54:28.022735 10714 net.cpp:100] Creating Layer conv5_3/linear
I1002 14:54:28.022738 10714 net.cpp:434] conv5_3/linear <- conv5_3/dwise
I1002 14:54:28.022743 10714 net.cpp:408] conv5_3/linear -> conv5_3/linear
I1002 14:54:28.024868 10714 net.cpp:150] Setting up conv5_3/linear
I1002 14:54:28.024876 10714 net.cpp:157] Top shape: 1 160 10 16 (25600)
I1002 14:54:28.024879 10714 net.cpp:165] Memory required for data: 444135136
I1002 14:54:28.024883 10714 layer_factory.hpp:77] Creating layer conv5_3/linear/bn
I1002 14:54:28.024888 10714 net.cpp:100] Creating Layer conv5_3/linear/bn
I1002 14:54:28.024890 10714 net.cpp:434] conv5_3/linear/bn <- conv5_3/linear
I1002 14:54:28.024893 10714 net.cpp:395] conv5_3/linear/bn -> conv5_3/linear (in-place)
I1002 14:54:28.025043 10714 net.cpp:150] Setting up conv5_3/linear/bn
I1002 14:54:28.025048 10714 net.cpp:157] Top shape: 1 160 10 16 (25600)
I1002 14:54:28.025049 10714 net.cpp:165] Memory required for data: 444237536
I1002 14:54:28.025054 10714 layer_factory.hpp:77] Creating layer conv5_3/linear/scale
I1002 14:54:28.025058 10714 net.cpp:100] Creating Layer conv5_3/linear/scale
I1002 14:54:28.025060 10714 net.cpp:434] conv5_3/linear/scale <- conv5_3/linear
I1002 14:54:28.025063 10714 net.cpp:395] conv5_3/linear/scale -> conv5_3/linear (in-place)
I1002 14:54:28.025092 10714 layer_factory.hpp:77] Creating layer conv5_3/linear/scale
I1002 14:54:28.025174 10714 net.cpp:150] Setting up conv5_3/linear/scale
I1002 14:54:28.025178 10714 net.cpp:157] Top shape: 1 160 10 16 (25600)
I1002 14:54:28.025180 10714 net.cpp:165] Memory required for data: 444339936
I1002 14:54:28.025197 10714 layer_factory.hpp:77] Creating layer conv5_3/linear_conv5_3/linear/scale_0_split
I1002 14:54:28.025202 10714 net.cpp:100] Creating Layer conv5_3/linear_conv5_3/linear/scale_0_split
I1002 14:54:28.025204 10714 net.cpp:434] conv5_3/linear_conv5_3/linear/scale_0_split <- conv5_3/linear
I1002 14:54:28.025207 10714 net.cpp:408] conv5_3/linear_conv5_3/linear/scale_0_split -> conv5_3/linear_conv5_3/linear/scale_0_split_0
I1002 14:54:28.025212 10714 net.cpp:408] conv5_3/linear_conv5_3/linear/scale_0_split -> conv5_3/linear_conv5_3/linear/scale_0_split_1
I1002 14:54:28.025238 10714 net.cpp:150] Setting up conv5_3/linear_conv5_3/linear/scale_0_split
I1002 14:54:28.025241 10714 net.cpp:157] Top shape: 1 160 10 16 (25600)
I1002 14:54:28.025244 10714 net.cpp:157] Top shape: 1 160 10 16 (25600)
I1002 14:54:28.025246 10714 net.cpp:165] Memory required for data: 444544736
I1002 14:54:28.025249 10714 layer_factory.hpp:77] Creating layer conv6_1/expand
I1002 14:54:28.025254 10714 net.cpp:100] Creating Layer conv6_1/expand
I1002 14:54:28.025255 10714 net.cpp:434] conv6_1/expand <- conv5_3/linear_conv5_3/linear/scale_0_split_0
I1002 14:54:28.025259 10714 net.cpp:408] conv6_1/expand -> conv6_1/expand
I1002 14:54:28.027205 10714 net.cpp:150] Setting up conv6_1/expand
I1002 14:54:28.027222 10714 net.cpp:157] Top shape: 1 960 10 16 (153600)
I1002 14:54:28.027225 10714 net.cpp:165] Memory required for data: 445159136
I1002 14:54:28.027228 10714 layer_factory.hpp:77] Creating layer conv6_1/expand/bn
I1002 14:54:28.027233 10714 net.cpp:100] Creating Layer conv6_1/expand/bn
I1002 14:54:28.027236 10714 net.cpp:434] conv6_1/expand/bn <- conv6_1/expand
I1002 14:54:28.027240 10714 net.cpp:395] conv6_1/expand/bn -> conv6_1/expand (in-place)
I1002 14:54:28.027390 10714 net.cpp:150] Setting up conv6_1/expand/bn
I1002 14:54:28.027395 10714 net.cpp:157] Top shape: 1 960 10 16 (153600)
I1002 14:54:28.027396 10714 net.cpp:165] Memory required for data: 445773536
I1002 14:54:28.027401 10714 layer_factory.hpp:77] Creating layer conv6_1/expand/scale
I1002 14:54:28.027405 10714 net.cpp:100] Creating Layer conv6_1/expand/scale
I1002 14:54:28.027406 10714 net.cpp:434] conv6_1/expand/scale <- conv6_1/expand
I1002 14:54:28.027410 10714 net.cpp:395] conv6_1/expand/scale -> conv6_1/expand (in-place)
I1002 14:54:28.027439 10714 layer_factory.hpp:77] Creating layer conv6_1/expand/scale
I1002 14:54:28.027523 10714 net.cpp:150] Setting up conv6_1/expand/scale
I1002 14:54:28.027528 10714 net.cpp:157] Top shape: 1 960 10 16 (153600)
I1002 14:54:28.027529 10714 net.cpp:165] Memory required for data: 446387936
I1002 14:54:28.027532 10714 layer_factory.hpp:77] Creating layer relu6_1/expand
I1002 14:54:28.027536 10714 net.cpp:100] Creating Layer relu6_1/expand
I1002 14:54:28.027539 10714 net.cpp:434] relu6_1/expand <- conv6_1/expand
I1002 14:54:28.027540 10714 net.cpp:395] relu6_1/expand -> conv6_1/expand (in-place)
I1002 14:54:28.027920 10714 net.cpp:150] Setting up relu6_1/expand
I1002 14:54:28.027927 10714 net.cpp:157] Top shape: 1 960 10 16 (153600)
I1002 14:54:28.027930 10714 net.cpp:165] Memory required for data: 447002336
I1002 14:54:28.027931 10714 layer_factory.hpp:77] Creating layer conv6_1/dwise
I1002 14:54:28.027936 10714 net.cpp:100] Creating Layer conv6_1/dwise
I1002 14:54:28.027938 10714 net.cpp:434] conv6_1/dwise <- conv6_1/expand
I1002 14:54:28.027942 10714 net.cpp:408] conv6_1/dwise -> conv6_1/dwise
I1002 14:54:28.028144 10714 net.cpp:150] Setting up conv6_1/dwise
I1002 14:54:28.028149 10714 net.cpp:157] Top shape: 1 960 10 16 (153600)
I1002 14:54:28.028151 10714 net.cpp:165] Memory required for data: 447616736
I1002 14:54:28.028153 10714 layer_factory.hpp:77] Creating layer conv6_1/dwise/bn
I1002 14:54:28.028156 10714 net.cpp:100] Creating Layer conv6_1/dwise/bn
I1002 14:54:28.028159 10714 net.cpp:434] conv6_1/dwise/bn <- conv6_1/dwise
I1002 14:54:28.028162 10714 net.cpp:395] conv6_1/dwise/bn -> conv6_1/dwise (in-place)
I1002 14:54:28.028306 10714 net.cpp:150] Setting up conv6_1/dwise/bn
I1002 14:54:28.028309 10714 net.cpp:157] Top shape: 1 960 10 16 (153600)
I1002 14:54:28.028311 10714 net.cpp:165] Memory required for data: 448231136
I1002 14:54:28.028314 10714 layer_factory.hpp:77] Creating layer conv6_1/dwise/scale
I1002 14:54:28.028318 10714 net.cpp:100] Creating Layer conv6_1/dwise/scale
I1002 14:54:28.028319 10714 net.cpp:434] conv6_1/dwise/scale <- conv6_1/dwise
I1002 14:54:28.028323 10714 net.cpp:395] conv6_1/dwise/scale -> conv6_1/dwise (in-place)
I1002 14:54:28.028350 10714 layer_factory.hpp:77] Creating layer conv6_1/dwise/scale
I1002 14:54:28.028434 10714 net.cpp:150] Setting up conv6_1/dwise/scale
I1002 14:54:28.028439 10714 net.cpp:157] Top shape: 1 960 10 16 (153600)
I1002 14:54:28.028440 10714 net.cpp:165] Memory required for data: 448845536
I1002 14:54:28.028445 10714 layer_factory.hpp:77] Creating layer relu6_1/dwise
I1002 14:54:28.028446 10714 net.cpp:100] Creating Layer relu6_1/dwise
I1002 14:54:28.028448 10714 net.cpp:434] relu6_1/dwise <- conv6_1/dwise
I1002 14:54:28.028452 10714 net.cpp:395] relu6_1/dwise -> conv6_1/dwise (in-place)
I1002 14:54:28.028725 10714 net.cpp:150] Setting up relu6_1/dwise
I1002 14:54:28.028730 10714 net.cpp:157] Top shape: 1 960 10 16 (153600)
I1002 14:54:28.028733 10714 net.cpp:165] Memory required for data: 449459936
I1002 14:54:28.028734 10714 layer_factory.hpp:77] Creating layer conv6_1/linear
I1002 14:54:28.028746 10714 net.cpp:100] Creating Layer conv6_1/linear
I1002 14:54:28.028748 10714 net.cpp:434] conv6_1/linear <- conv6_1/dwise
I1002 14:54:28.028751 10714 net.cpp:408] conv6_1/linear -> conv6_1/linear
I1002 14:54:28.030725 10714 net.cpp:150] Setting up conv6_1/linear
I1002 14:54:28.030730 10714 net.cpp:157] Top shape: 1 160 10 16 (25600)
I1002 14:54:28.030732 10714 net.cpp:165] Memory required for data: 449562336
I1002 14:54:28.030735 10714 layer_factory.hpp:77] Creating layer conv6_1/linear/bn
I1002 14:54:28.030741 10714 net.cpp:100] Creating Layer conv6_1/linear/bn
I1002 14:54:28.030743 10714 net.cpp:434] conv6_1/linear/bn <- conv6_1/linear
I1002 14:54:28.030745 10714 net.cpp:395] conv6_1/linear/bn -> conv6_1/linear (in-place)
I1002 14:54:28.030891 10714 net.cpp:150] Setting up conv6_1/linear/bn
I1002 14:54:28.030895 10714 net.cpp:157] Top shape: 1 160 10 16 (25600)
I1002 14:54:28.030897 10714 net.cpp:165] Memory required for data: 449664736
I1002 14:54:28.030901 10714 layer_factory.hpp:77] Creating layer conv6_1/linear/scale
I1002 14:54:28.030905 10714 net.cpp:100] Creating Layer conv6_1/linear/scale
I1002 14:54:28.030906 10714 net.cpp:434] conv6_1/linear/scale <- conv6_1/linear
I1002 14:54:28.030908 10714 net.cpp:395] conv6_1/linear/scale -> conv6_1/linear (in-place)
I1002 14:54:28.030936 10714 layer_factory.hpp:77] Creating layer conv6_1/linear/scale
I1002 14:54:28.031018 10714 net.cpp:150] Setting up conv6_1/linear/scale
I1002 14:54:28.031021 10714 net.cpp:157] Top shape: 1 160 10 16 (25600)
I1002 14:54:28.031023 10714 net.cpp:165] Memory required for data: 449767136
I1002 14:54:28.031026 10714 layer_factory.hpp:77] Creating layer block_6_1
I1002 14:54:28.031029 10714 net.cpp:100] Creating Layer block_6_1
I1002 14:54:28.031033 10714 net.cpp:434] block_6_1 <- conv5_3/linear_conv5_3/linear/scale_0_split_1
I1002 14:54:28.031034 10714 net.cpp:434] block_6_1 <- conv6_1/linear
I1002 14:54:28.031038 10714 net.cpp:408] block_6_1 -> block_6_1
I1002 14:54:28.031055 10714 net.cpp:150] Setting up block_6_1
I1002 14:54:28.031059 10714 net.cpp:157] Top shape: 1 160 10 16 (25600)
I1002 14:54:28.031061 10714 net.cpp:165] Memory required for data: 449869536
I1002 14:54:28.031064 10714 layer_factory.hpp:77] Creating layer block_6_1_block_6_1_0_split
I1002 14:54:28.031066 10714 net.cpp:100] Creating Layer block_6_1_block_6_1_0_split
I1002 14:54:28.031069 10714 net.cpp:434] block_6_1_block_6_1_0_split <- block_6_1
I1002 14:54:28.031072 10714 net.cpp:408] block_6_1_block_6_1_0_split -> block_6_1_block_6_1_0_split_0
I1002 14:54:28.031077 10714 net.cpp:408] block_6_1_block_6_1_0_split -> block_6_1_block_6_1_0_split_1
I1002 14:54:28.031103 10714 net.cpp:150] Setting up block_6_1_block_6_1_0_split
I1002 14:54:28.031106 10714 net.cpp:157] Top shape: 1 160 10 16 (25600)
I1002 14:54:28.031110 10714 net.cpp:157] Top shape: 1 160 10 16 (25600)
I1002 14:54:28.031111 10714 net.cpp:165] Memory required for data: 450074336
I1002 14:54:28.031112 10714 layer_factory.hpp:77] Creating layer conv6_2/expand
I1002 14:54:28.031117 10714 net.cpp:100] Creating Layer conv6_2/expand
I1002 14:54:28.031119 10714 net.cpp:434] conv6_2/expand <- block_6_1_block_6_1_0_split_0
I1002 14:54:28.031122 10714 net.cpp:408] conv6_2/expand -> conv6_2/expand
I1002 14:54:28.033502 10714 net.cpp:150] Setting up conv6_2/expand
I1002 14:54:28.033510 10714 net.cpp:157] Top shape: 1 960 10 16 (153600)
I1002 14:54:28.033512 10714 net.cpp:165] Memory required for data: 450688736
I1002 14:54:28.033516 10714 layer_factory.hpp:77] Creating layer conv6_2/expand/bn
I1002 14:54:28.033521 10714 net.cpp:100] Creating Layer conv6_2/expand/bn
I1002 14:54:28.033524 10714 net.cpp:434] conv6_2/expand/bn <- conv6_2/expand
I1002 14:54:28.033527 10714 net.cpp:395] conv6_2/expand/bn -> conv6_2/expand (in-place)
I1002 14:54:28.033680 10714 net.cpp:150] Setting up conv6_2/expand/bn
I1002 14:54:28.033684 10714 net.cpp:157] Top shape: 1 960 10 16 (153600)
I1002 14:54:28.033686 10714 net.cpp:165] Memory required for data: 451303136
I1002 14:54:28.033699 10714 layer_factory.hpp:77] Creating layer conv6_2/expand/scale
I1002 14:54:28.033702 10714 net.cpp:100] Creating Layer conv6_2/expand/scale
I1002 14:54:28.033704 10714 net.cpp:434] conv6_2/expand/scale <- conv6_2/expand
I1002 14:54:28.033709 10714 net.cpp:395] conv6_2/expand/scale -> conv6_2/expand (in-place)
I1002 14:54:28.033737 10714 layer_factory.hpp:77] Creating layer conv6_2/expand/scale
I1002 14:54:28.033823 10714 net.cpp:150] Setting up conv6_2/expand/scale
I1002 14:54:28.033826 10714 net.cpp:157] Top shape: 1 960 10 16 (153600)
I1002 14:54:28.033828 10714 net.cpp:165] Memory required for data: 451917536
I1002 14:54:28.033831 10714 layer_factory.hpp:77] Creating layer relu6_2/expand
I1002 14:54:28.033835 10714 net.cpp:100] Creating Layer relu6_2/expand
I1002 14:54:28.033838 10714 net.cpp:434] relu6_2/expand <- conv6_2/expand
I1002 14:54:28.033839 10714 net.cpp:395] relu6_2/expand -> conv6_2/expand (in-place)
I1002 14:54:28.034221 10714 net.cpp:150] Setting up relu6_2/expand
I1002 14:54:28.034227 10714 net.cpp:157] Top shape: 1 960 10 16 (153600)
I1002 14:54:28.034229 10714 net.cpp:165] Memory required for data: 452531936
I1002 14:54:28.034231 10714 layer_factory.hpp:77] Creating layer conv6_2/dwise
I1002 14:54:28.034237 10714 net.cpp:100] Creating Layer conv6_2/dwise
I1002 14:54:28.034238 10714 net.cpp:434] conv6_2/dwise <- conv6_2/expand
I1002 14:54:28.034242 10714 net.cpp:408] conv6_2/dwise -> conv6_2/dwise
I1002 14:54:28.034442 10714 net.cpp:150] Setting up conv6_2/dwise
I1002 14:54:28.034447 10714 net.cpp:157] Top shape: 1 960 10 16 (153600)
I1002 14:54:28.034449 10714 net.cpp:165] Memory required for data: 453146336
I1002 14:54:28.034452 10714 layer_factory.hpp:77] Creating layer conv6_2/dwise/bn
I1002 14:54:28.034456 10714 net.cpp:100] Creating Layer conv6_2/dwise/bn
I1002 14:54:28.034458 10714 net.cpp:434] conv6_2/dwise/bn <- conv6_2/dwise
I1002 14:54:28.034461 10714 net.cpp:395] conv6_2/dwise/bn -> conv6_2/dwise (in-place)
I1002 14:54:28.034605 10714 net.cpp:150] Setting up conv6_2/dwise/bn
I1002 14:54:28.034610 10714 net.cpp:157] Top shape: 1 960 10 16 (153600)
I1002 14:54:28.034612 10714 net.cpp:165] Memory required for data: 453760736
I1002 14:54:28.034615 10714 layer_factory.hpp:77] Creating layer conv6_2/dwise/scale
I1002 14:54:28.034620 10714 net.cpp:100] Creating Layer conv6_2/dwise/scale
I1002 14:54:28.034621 10714 net.cpp:434] conv6_2/dwise/scale <- conv6_2/dwise
I1002 14:54:28.034624 10714 net.cpp:395] conv6_2/dwise/scale -> conv6_2/dwise (in-place)
I1002 14:54:28.034652 10714 layer_factory.hpp:77] Creating layer conv6_2/dwise/scale
I1002 14:54:28.034737 10714 net.cpp:150] Setting up conv6_2/dwise/scale
I1002 14:54:28.034741 10714 net.cpp:157] Top shape: 1 960 10 16 (153600)
I1002 14:54:28.034744 10714 net.cpp:165] Memory required for data: 454375136
I1002 14:54:28.034746 10714 layer_factory.hpp:77] Creating layer relu6_2/dwise
I1002 14:54:28.034749 10714 net.cpp:100] Creating Layer relu6_2/dwise
I1002 14:54:28.034752 10714 net.cpp:434] relu6_2/dwise <- conv6_2/dwise
I1002 14:54:28.034754 10714 net.cpp:395] relu6_2/dwise -> conv6_2/dwise (in-place)
I1002 14:54:28.035030 10714 net.cpp:150] Setting up relu6_2/dwise
I1002 14:54:28.035037 10714 net.cpp:157] Top shape: 1 960 10 16 (153600)
I1002 14:54:28.035039 10714 net.cpp:165] Memory required for data: 454989536
I1002 14:54:28.035042 10714 layer_factory.hpp:77] Creating layer conv6_2/linear
I1002 14:54:28.035045 10714 net.cpp:100] Creating Layer conv6_2/linear
I1002 14:54:28.035048 10714 net.cpp:434] conv6_2/linear <- conv6_2/dwise
I1002 14:54:28.035053 10714 net.cpp:408] conv6_2/linear -> conv6_2/linear
I1002 14:54:28.036994 10714 net.cpp:150] Setting up conv6_2/linear
I1002 14:54:28.037001 10714 net.cpp:157] Top shape: 1 160 10 16 (25600)
I1002 14:54:28.037003 10714 net.cpp:165] Memory required for data: 455091936
I1002 14:54:28.037008 10714 layer_factory.hpp:77] Creating layer conv6_2/linear/bn
I1002 14:54:28.037012 10714 net.cpp:100] Creating Layer conv6_2/linear/bn
I1002 14:54:28.037014 10714 net.cpp:434] conv6_2/linear/bn <- conv6_2/linear
I1002 14:54:28.037025 10714 net.cpp:395] conv6_2/linear/bn -> conv6_2/linear (in-place)
I1002 14:54:28.037174 10714 net.cpp:150] Setting up conv6_2/linear/bn
I1002 14:54:28.037178 10714 net.cpp:157] Top shape: 1 160 10 16 (25600)
I1002 14:54:28.037180 10714 net.cpp:165] Memory required for data: 455194336
I1002 14:54:28.037184 10714 layer_factory.hpp:77] Creating layer conv6_2/linear/scale
I1002 14:54:28.037189 10714 net.cpp:100] Creating Layer conv6_2/linear/scale
I1002 14:54:28.037191 10714 net.cpp:434] conv6_2/linear/scale <- conv6_2/linear
I1002 14:54:28.037194 10714 net.cpp:395] conv6_2/linear/scale -> conv6_2/linear (in-place)
I1002 14:54:28.037220 10714 layer_factory.hpp:77] Creating layer conv6_2/linear/scale
I1002 14:54:28.037303 10714 net.cpp:150] Setting up conv6_2/linear/scale
I1002 14:54:28.037307 10714 net.cpp:157] Top shape: 1 160 10 16 (25600)
I1002 14:54:28.037309 10714 net.cpp:165] Memory required for data: 455296736
I1002 14:54:28.037312 10714 layer_factory.hpp:77] Creating layer block_6_2
I1002 14:54:28.037317 10714 net.cpp:100] Creating Layer block_6_2
I1002 14:54:28.037319 10714 net.cpp:434] block_6_2 <- block_6_1_block_6_1_0_split_1
I1002 14:54:28.037322 10714 net.cpp:434] block_6_2 <- conv6_2/linear
I1002 14:54:28.037324 10714 net.cpp:408] block_6_2 -> block_6_2
I1002 14:54:28.037343 10714 net.cpp:150] Setting up block_6_2
I1002 14:54:28.037346 10714 net.cpp:157] Top shape: 1 160 10 16 (25600)
I1002 14:54:28.037348 10714 net.cpp:165] Memory required for data: 455399136
I1002 14:54:28.037349 10714 layer_factory.hpp:77] Creating layer conv6_3/expand
I1002 14:54:28.037353 10714 net.cpp:100] Creating Layer conv6_3/expand
I1002 14:54:28.037356 10714 net.cpp:434] conv6_3/expand <- block_6_2
I1002 14:54:28.037359 10714 net.cpp:408] conv6_3/expand -> conv6_3/expand
I1002 14:54:28.039402 10714 net.cpp:150] Setting up conv6_3/expand
I1002 14:54:28.039409 10714 net.cpp:157] Top shape: 1 960 10 16 (153600)
I1002 14:54:28.039412 10714 net.cpp:165] Memory required for data: 456013536
I1002 14:54:28.039415 10714 layer_factory.hpp:77] Creating layer conv6_3/expand/bn
I1002 14:54:28.039419 10714 net.cpp:100] Creating Layer conv6_3/expand/bn
I1002 14:54:28.039422 10714 net.cpp:434] conv6_3/expand/bn <- conv6_3/expand
I1002 14:54:28.039427 10714 net.cpp:395] conv6_3/expand/bn -> conv6_3/expand (in-place)
I1002 14:54:28.039578 10714 net.cpp:150] Setting up conv6_3/expand/bn
I1002 14:54:28.039582 10714 net.cpp:157] Top shape: 1 960 10 16 (153600)
I1002 14:54:28.039584 10714 net.cpp:165] Memory required for data: 456627936
I1002 14:54:28.039588 10714 layer_factory.hpp:77] Creating layer conv6_3/expand/scale
I1002 14:54:28.039593 10714 net.cpp:100] Creating Layer conv6_3/expand/scale
I1002 14:54:28.039595 10714 net.cpp:434] conv6_3/expand/scale <- conv6_3/expand
I1002 14:54:28.039598 10714 net.cpp:395] conv6_3/expand/scale -> conv6_3/expand (in-place)
I1002 14:54:28.039626 10714 layer_factory.hpp:77] Creating layer conv6_3/expand/scale
I1002 14:54:28.039714 10714 net.cpp:150] Setting up conv6_3/expand/scale
I1002 14:54:28.039718 10714 net.cpp:157] Top shape: 1 960 10 16 (153600)
I1002 14:54:28.039721 10714 net.cpp:165] Memory required for data: 457242336
I1002 14:54:28.039724 10714 layer_factory.hpp:77] Creating layer relu6_3/expand
I1002 14:54:28.039727 10714 net.cpp:100] Creating Layer relu6_3/expand
I1002 14:54:28.039729 10714 net.cpp:434] relu6_3/expand <- conv6_3/expand
I1002 14:54:28.039733 10714 net.cpp:395] relu6_3/expand -> conv6_3/expand (in-place)
I1002 14:54:28.040010 10714 net.cpp:150] Setting up relu6_3/expand
I1002 14:54:28.040015 10714 net.cpp:157] Top shape: 1 960 10 16 (153600)
I1002 14:54:28.040017 10714 net.cpp:165] Memory required for data: 457856736
I1002 14:54:28.040020 10714 layer_factory.hpp:77] Creating layer conv6_3/dwise
I1002 14:54:28.040024 10714 net.cpp:100] Creating Layer conv6_3/dwise
I1002 14:54:28.040027 10714 net.cpp:434] conv6_3/dwise <- conv6_3/expand
I1002 14:54:28.040030 10714 net.cpp:408] conv6_3/dwise -> conv6_3/dwise
I1002 14:54:28.040232 10714 net.cpp:150] Setting up conv6_3/dwise
I1002 14:54:28.040244 10714 net.cpp:157] Top shape: 1 960 10 16 (153600)
I1002 14:54:28.040246 10714 net.cpp:165] Memory required for data: 458471136
I1002 14:54:28.040249 10714 layer_factory.hpp:77] Creating layer conv6_3/dwise/bn
I1002 14:54:28.040254 10714 net.cpp:100] Creating Layer conv6_3/dwise/bn
I1002 14:54:28.040256 10714 net.cpp:434] conv6_3/dwise/bn <- conv6_3/dwise
I1002 14:54:28.040259 10714 net.cpp:395] conv6_3/dwise/bn -> conv6_3/dwise (in-place)
I1002 14:54:28.040405 10714 net.cpp:150] Setting up conv6_3/dwise/bn
I1002 14:54:28.040408 10714 net.cpp:157] Top shape: 1 960 10 16 (153600)
I1002 14:54:28.040410 10714 net.cpp:165] Memory required for data: 459085536
I1002 14:54:28.040415 10714 layer_factory.hpp:77] Creating layer conv6_3/dwise/scale
I1002 14:54:28.040417 10714 net.cpp:100] Creating Layer conv6_3/dwise/scale
I1002 14:54:28.040421 10714 net.cpp:434] conv6_3/dwise/scale <- conv6_3/dwise
I1002 14:54:28.040423 10714 net.cpp:395] conv6_3/dwise/scale -> conv6_3/dwise (in-place)
I1002 14:54:28.040452 10714 layer_factory.hpp:77] Creating layer conv6_3/dwise/scale
I1002 14:54:28.040535 10714 net.cpp:150] Setting up conv6_3/dwise/scale
I1002 14:54:28.040540 10714 net.cpp:157] Top shape: 1 960 10 16 (153600)
I1002 14:54:28.040541 10714 net.cpp:165] Memory required for data: 459699936
I1002 14:54:28.040545 10714 layer_factory.hpp:77] Creating layer relu6_3/dwise
I1002 14:54:28.040547 10714 net.cpp:100] Creating Layer relu6_3/dwise
I1002 14:54:28.040550 10714 net.cpp:434] relu6_3/dwise <- conv6_3/dwise
I1002 14:54:28.040554 10714 net.cpp:395] relu6_3/dwise -> conv6_3/dwise (in-place)
I1002 14:54:28.040832 10714 net.cpp:150] Setting up relu6_3/dwise
I1002 14:54:28.040837 10714 net.cpp:157] Top shape: 1 960 10 16 (153600)
I1002 14:54:28.040839 10714 net.cpp:165] Memory required for data: 460314336
I1002 14:54:28.040841 10714 layer_factory.hpp:77] Creating layer conv6_3/linear
I1002 14:54:28.040846 10714 net.cpp:100] Creating Layer conv6_3/linear
…
I1002 14:54:28.203665 10714 layer_factory.hpp:77] Creating layer conv8_1
I1002 14:54:28.203670 10714 net.cpp:100] Creating Layer conv8_1
I1002 14:54:28.203672 10714 net.cpp:434] conv8_1 <- conv7_2/sep_relu7_2/sep_0_split_0
I1002 14:54:28.203676 10714 net.cpp:408] conv8_1 -> conv8_1
I1002 14:54:28.205595 10714 net.cpp:150] Setting up conv8_1
I1002 14:54:28.205603 10714 net.cpp:157] Top shape: 1 128 5 8 (5120)
I1002 14:54:28.205605 10714 net.cpp:165] Memory required for data: 468649632
I1002 14:54:28.205610 10714 layer_factory.hpp:77] Creating layer conv8_1_relu
I1002 14:54:28.205615 10714 net.cpp:100] Creating Layer conv8_1_relu
I1002 14:54:28.205617 10714 net.cpp:434] conv8_1_relu <- conv8_1
I1002 14:54:28.205621 10714 net.cpp:395] conv8_1_relu -> conv8_1 (in-place)
I1002 14:54:28.205911 10714 net.cpp:150] Setting up conv8_1_relu
I1002 14:54:28.205917 10714 net.cpp:157] Top shape: 1 128 5 8 (5120)
I1002 14:54:28.205920 10714 net.cpp:165] Memory required for data: 468670112
I1002 14:54:28.205922 10714 layer_factory.hpp:77] Creating layer conv8_2/dw
I1002 14:54:28.205926 10714 net.cpp:100] Creating Layer conv8_2/dw
I1002 14:54:28.205929 10714 net.cpp:434] conv8_2/dw <- conv8_1
I1002 14:54:28.205934 10714 net.cpp:408] conv8_2/dw -> conv8_2/dw
I1002 14:54:28.206075 10714 net.cpp:150] Setting up conv8_2/dw
I1002 14:54:28.206080 10714 net.cpp:157] Top shape: 1 128 3 4 (1536)
I1002 14:54:28.206084 10714 net.cpp:165] Memory required for data: 468676256
I1002 14:54:28.206086 10714 layer_factory.hpp:77] Creating layer conv8_2/dw/bn
I1002 14:54:28.206089 10714 net.cpp:100] Creating Layer conv8_2/dw/bn
I1002 14:54:28.206091 10714 net.cpp:434] conv8_2/dw/bn <- conv8_2/dw
I1002 14:54:28.206096 10714 net.cpp:395] conv8_2/dw/bn -> conv8_2/dw (in-place)
I1002 14:54:28.206213 10714 net.cpp:150] Setting up conv8_2/dw/bn
I1002 14:54:28.206218 10714 net.cpp:157] Top shape: 1 128 3 4 (1536)
I1002 14:54:28.206219 10714 net.cpp:165] Memory required for data: 468682400
I1002 14:54:28.206224 10714 layer_factory.hpp:77] Creating layer conv8_2/dw/scale
I1002 14:54:28.206228 10714 net.cpp:100] Creating Layer conv8_2/dw/scale
I1002 14:54:28.206230 10714 net.cpp:434] conv8_2/dw/scale <- conv8_2/dw
I1002 14:54:28.206233 10714 net.cpp:395] conv8_2/dw/scale -> conv8_2/dw (in-place)
I1002 14:54:28.206257 10714 layer_factory.hpp:77] Creating layer conv8_2/dw/scale
I1002 14:54:28.206321 10714 net.cpp:150] Setting up conv8_2/dw/scale
I1002 14:54:28.206333 10714 net.cpp:157] Top shape: 1 128 3 4 (1536)
I1002 14:54:28.206336 10714 net.cpp:165] Memory required for data: 468688544
I1002 14:54:28.206339 10714 layer_factory.hpp:77] Creating layer relu8_2/dw
I1002 14:54:28.206343 10714 net.cpp:100] Creating Layer relu8_2/dw
I1002 14:54:28.206346 10714 net.cpp:434] relu8_2/dw <- conv8_2/dw
I1002 14:54:28.206349 10714 net.cpp:395] relu8_2/dw -> conv8_2/dw (in-place)
I1002 14:54:28.206637 10714 net.cpp:150] Setting up relu8_2/dw
I1002 14:54:28.206643 10714 net.cpp:157] Top shape: 1 128 3 4 (1536)
I1002 14:54:28.206645 10714 net.cpp:165] Memory required for data: 468694688
I1002 14:54:28.206647 10714 layer_factory.hpp:77] Creating layer conv8_2/sep
I1002 14:54:28.206653 10714 net.cpp:100] Creating Layer conv8_2/sep
I1002 14:54:28.206655 10714 net.cpp:434] conv8_2/sep <- conv8_2/dw
I1002 14:54:28.206660 10714 net.cpp:408] conv8_2/sep -> conv8_2/sep
I1002 14:54:28.208081 10714 net.cpp:150] Setting up conv8_2/sep
I1002 14:54:28.208087 10714 net.cpp:157] Top shape: 1 256 3 4 (3072)
I1002 14:54:28.208089 10714 net.cpp:165] Memory required for data: 468706976
I1002 14:54:28.208092 10714 layer_factory.hpp:77] Creating layer conv8_2/sep/bn
I1002 14:54:28.208096 10714 net.cpp:100] Creating Layer conv8_2/sep/bn
I1002 14:54:28.208099 10714 net.cpp:434] conv8_2/sep/bn <- conv8_2/sep
I1002 14:54:28.208101 10714 net.cpp:395] conv8_2/sep/bn -> conv8_2/sep (in-place)
I1002 14:54:28.208221 10714 net.cpp:150] Setting up conv8_2/sep/bn
I1002 14:54:28.208225 10714 net.cpp:157] Top shape: 1 256 3 4 (3072)
I1002 14:54:28.208227 10714 net.cpp:165] Memory required for data: 468719264
I1002 14:54:28.208231 10714 layer_factory.hpp:77] Creating layer conv8_2/sep/scale
I1002 14:54:28.208235 10714 net.cpp:100] Creating Layer conv8_2/sep/scale
I1002 14:54:28.208236 10714 net.cpp:434] conv8_2/sep/scale <- conv8_2/sep
I1002 14:54:28.208240 10714 net.cpp:395] conv8_2/sep/scale -> conv8_2/sep (in-place)
I1002 14:54:28.208263 10714 layer_factory.hpp:77] Creating layer conv8_2/sep/scale
I1002 14:54:28.208328 10714 net.cpp:150] Setting up conv8_2/sep/scale
I1002 14:54:28.208333 10714 net.cpp:157] Top shape: 1 256 3 4 (3072)
I1002 14:54:28.208335 10714 net.cpp:165] Memory required for data: 468731552
I1002 14:54:28.208338 10714 layer_factory.hpp:77] Creating layer relu8_2/sep
I1002 14:54:28.208340 10714 net.cpp:100] Creating Layer relu8_2/sep
I1002 14:54:28.208343 10714 net.cpp:434] relu8_2/sep <- conv8_2/sep
I1002 14:54:28.208345 10714 net.cpp:395] relu8_2/sep -> conv8_2/sep (in-place)
I1002 14:54:28.208628 10714 net.cpp:150] Setting up relu8_2/sep
I1002 14:54:28.208634 10714 net.cpp:157] Top shape: 1 256 3 4 (3072)
I1002 14:54:28.208636 10714 net.cpp:165] Memory required for data: 468743840
I1002 14:54:28.208638 10714 layer_factory.hpp:77] Creating layer conv8_2/sep_relu8_2/sep_0_split
I1002 14:54:28.208642 10714 net.cpp:100] Creating Layer conv8_2/sep_relu8_2/sep_0_split
I1002 14:54:28.208643 10714 net.cpp:434] conv8_2/sep_relu8_2/sep_0_split <- conv8_2/sep
I1002 14:54:28.208647 10714 net.cpp:408] conv8_2/sep_relu8_2/sep_0_split -> conv8_2/sep_relu8_2/sep_0_split_0
I1002 14:54:28.208652 10714 net.cpp:408] conv8_2/sep_relu8_2/sep_0_split -> conv8_2/sep_relu8_2/sep_0_split_1
I1002 14:54:28.208655 10714 net.cpp:408] conv8_2/sep_relu8_2/sep_0_split -> conv8_2/sep_relu8_2/sep_0_split_2
I1002 14:54:28.208658 10714 net.cpp:408] conv8_2/sep_relu8_2/sep_0_split -> conv8_2/sep_relu8_2/sep_0_split_3
I1002 14:54:28.208700 10714 net.cpp:150] Setting up conv8_2/sep_relu8_2/sep_0_split
I1002 14:54:28.208704 10714 net.cpp:157] Top shape: 1 256 3 4 (3072)
I1002 14:54:28.208706 10714 net.cpp:157] Top shape: 1 256 3 4 (3072)
I1002 14:54:28.208709 10714 net.cpp:157] Top shape: 1 256 3 4 (3072)
I1002 14:54:28.208710 10714 net.cpp:157] Top shape: 1 256 3 4 (3072)
I1002 14:54:28.208712 10714 net.cpp:165] Memory required for data: 468792992
I1002 14:54:28.208714 10714 layer_factory.hpp:77] Creating layer conv9_1
I1002 14:54:28.208720 10714 net.cpp:100] Creating Layer conv9_1
I1002 14:54:28.208721 10714 net.cpp:434] conv9_1 <- conv8_2/sep_relu8_2/sep_0_split_0
I1002 14:54:28.208734 10714 net.cpp:408] conv9_1 -> conv9_1
I1002 14:54:28.209987 10714 net.cpp:150] Setting up conv9_1
I1002 14:54:28.209995 10714 net.cpp:157] Top shape: 1 128 3 4 (1536)
I1002 14:54:28.209997 10714 net.cpp:165] Memory required for data: 468799136
I1002 14:54:28.210002 10714 layer_factory.hpp:77] Creating layer conv9_1_relu
I1002 14:54:28.210005 10714 net.cpp:100] Creating Layer conv9_1_relu
I1002 14:54:28.210008 10714 net.cpp:434] conv9_1_relu <- conv9_1
I1002 14:54:28.210012 10714 net.cpp:395] conv9_1_relu -> conv9_1 (in-place)
I1002 14:54:28.210407 10714 net.cpp:150] Setting up conv9_1_relu
I1002 14:54:28.210414 10714 net.cpp:157] Top shape: 1 128 3 4 (1536)
I1002 14:54:28.210417 10714 net.cpp:165] Memory required for data: 468805280
I1002 14:54:28.210418 10714 layer_factory.hpp:77] Creating layer conv9_2/dw
I1002 14:54:28.210423 10714 net.cpp:100] Creating Layer conv9_2/dw
I1002 14:54:28.210427 10714 net.cpp:434] conv9_2/dw <- conv9_1
I1002 14:54:28.210430 10714 net.cpp:408] conv9_2/dw -> conv9_2/dw
I1002 14:54:28.210572 10714 net.cpp:150] Setting up conv9_2/dw
I1002 14:54:28.210577 10714 net.cpp:157] Top shape: 1 128 2 2 (512)
I1002 14:54:28.210579 10714 net.cpp:165] Memory required for data: 468807328
I1002 14:54:28.210582 10714 layer_factory.hpp:77] Creating layer conv9_2/dw/bn
I1002 14:54:28.210587 10714 net.cpp:100] Creating Layer conv9_2/dw/bn
I1002 14:54:28.210589 10714 net.cpp:434] conv9_2/dw/bn <- conv9_2/dw
I1002 14:54:28.210592 10714 net.cpp:395] conv9_2/dw/bn -> conv9_2/dw (in-place)
I1002 14:54:28.210702 10714 net.cpp:150] Setting up conv9_2/dw/bn
I1002 14:54:28.210706 10714 net.cpp:157] Top shape: 1 128 2 2 (512)
I1002 14:54:28.210710 10714 net.cpp:165] Memory required for data: 468809376
I1002 14:54:28.210713 10714 layer_factory.hpp:77] Creating layer conv9_2/dw/scale
I1002 14:54:28.210717 10714 net.cpp:100] Creating Layer conv9_2/dw/scale
I1002 14:54:28.210721 10714 net.cpp:434] conv9_2/dw/scale <- conv9_2/dw
I1002 14:54:28.210724 10714 net.cpp:395] conv9_2/dw/scale -> conv9_2/dw (in-place)
I1002 14:54:28.210747 10714 layer_factory.hpp:77] Creating layer conv9_2/dw/scale
I1002 14:54:28.210810 10714 net.cpp:150] Setting up conv9_2/dw/scale
I1002 14:54:28.210814 10714 net.cpp:157] Top shape: 1 128 2 2 (512)
I1002 14:54:28.210816 10714 net.cpp:165] Memory required for data: 468811424
I1002 14:54:28.210819 10714 layer_factory.hpp:77] Creating layer relu9_2/dw
I1002 14:54:28.210824 10714 net.cpp:100] Creating Layer relu9_2/dw
I1002 14:54:28.210825 10714 net.cpp:434] relu9_2/dw <- conv9_2/dw
I1002 14:54:28.210829 10714 net.cpp:395] relu9_2/dw -> conv9_2/dw (in-place)
I1002 14:54:28.211117 10714 net.cpp:150] Setting up relu9_2/dw
I1002 14:54:28.211122 10714 net.cpp:157] Top shape: 1 128 2 2 (512)
I1002 14:54:28.211124 10714 net.cpp:165] Memory required for data: 468813472
I1002 14:54:28.211127 10714 layer_factory.hpp:77] Creating layer conv9_2/sep
I1002 14:54:28.211133 10714 net.cpp:100] Creating Layer conv9_2/sep
I1002 14:54:28.211134 10714 net.cpp:434] conv9_2/sep <- conv9_2/dw
I1002 14:54:28.211138 10714 net.cpp:408] conv9_2/sep -> conv9_2/sep
I1002 14:54:28.212438 10714 net.cpp:150] Setting up conv9_2/sep
I1002 14:54:28.212445 10714 net.cpp:157] Top shape: 1 256 2 2 (1024)
I1002 14:54:28.212447 10714 net.cpp:165] Memory required for data: 468817568
I1002 14:54:28.212450 10714 layer_factory.hpp:77] Creating layer conv9_2/sep/bn
I1002 14:54:28.212456 10714 net.cpp:100] Creating Layer conv9_2/sep/bn
I1002 14:54:28.212458 10714 net.cpp:434] conv9_2/sep/bn <- conv9_2/sep
I1002 14:54:28.212461 10714 net.cpp:395] conv9_2/sep/bn -> conv9_2/sep (in-place)
I1002 14:54:28.212584 10714 net.cpp:150] Setting up conv9_2/sep/bn
I1002 14:54:28.212587 10714 net.cpp:157] Top shape: 1 256 2 2 (1024)
I1002 14:54:28.212589 10714 net.cpp:165] Memory required for data: 468821664
I1002 14:54:28.212594 10714 layer_factory.hpp:77] Creating layer conv9_2/sep/scale
I1002 14:54:28.212599 10714 net.cpp:100] Creating Layer conv9_2/sep/scale
I1002 14:54:28.212600 10714 net.cpp:434] conv9_2/sep/scale <- conv9_2/sep
I1002 14:54:28.212611 10714 net.cpp:395] conv9_2/sep/scale -> conv9_2/sep (in-place)
I1002 14:54:28.212638 10714 layer_factory.hpp:77] Creating layer conv9_2/sep/scale
I1002 14:54:28.212702 10714 net.cpp:150] Setting up conv9_2/sep/scale
I1002 14:54:28.212707 10714 net.cpp:157] Top shape: 1 256 2 2 (1024)
I1002 14:54:28.212708 10714 net.cpp:165] Memory required for data: 468825760
I1002 14:54:28.212712 10714 layer_factory.hpp:77] Creating layer relu9_2/sep
I1002 14:54:28.212716 10714 net.cpp:100] Creating Layer relu9_2/sep
I1002 14:54:28.212719 10714 net.cpp:434] relu9_2/sep <- conv9_2/sep
I1002 14:54:28.212721 10714 net.cpp:395] relu9_2/sep -> conv9_2/sep (in-place)
I1002 14:54:28.213119 10714 net.cpp:150] Setting up relu9_2/sep
I1002 14:54:28.213125 10714 net.cpp:157] Top shape: 1 256 2 2 (1024)
I1002 14:54:28.213129 10714 net.cpp:165] Memory required for data: 468829856
I1002 14:54:28.213130 10714 layer_factory.hpp:77] Creating layer conv9_2/sep_relu9_2/sep_0_split
I1002 14:54:28.213135 10714 net.cpp:100] Creating Layer conv9_2/sep_relu9_2/sep_0_split
I1002 14:54:28.213138 10714 net.cpp:434] conv9_2/sep_relu9_2/sep_0_split <- conv9_2/sep
I1002 14:54:28.213142 10714 net.cpp:408] conv9_2/sep_relu9_2/sep_0_split -> conv9_2/sep_relu9_2/sep_0_split_0
I1002 14:54:28.213147 10714 net.cpp:408] conv9_2/sep_relu9_2/sep_0_split -> conv9_2/sep_relu9_2/sep_0_split_1
I1002 14:54:28.213151 10714 net.cpp:408] conv9_2/sep_relu9_2/sep_0_split -> conv9_2/sep_relu9_2/sep_0_split_2
I1002 14:54:28.213155 10714 net.cpp:408] conv9_2/sep_relu9_2/sep_0_split -> conv9_2/sep_relu9_2/sep_0_split_3
I1002 14:54:28.213198 10714 net.cpp:150] Setting up conv9_2/sep_relu9_2/sep_0_split
I1002 14:54:28.213202 10714 net.cpp:157] Top shape: 1 256 2 2 (1024)
I1002 14:54:28.213205 10714 net.cpp:157] Top shape: 1 256 2 2 (1024)
I1002 14:54:28.213207 10714 net.cpp:157] Top shape: 1 256 2 2 (1024)
I1002 14:54:28.213210 10714 net.cpp:157] Top shape: 1 256 2 2 (1024)
I1002 14:54:28.213212 10714 net.cpp:165] Memory required for data: 468846240
I1002 14:54:28.213214 10714 layer_factory.hpp:77] Creating layer conv10_1
I1002 14:54:28.213219 10714 net.cpp:100] Creating Layer conv10_1
I1002 14:54:28.213222 10714 net.cpp:434] conv10_1 <- conv9_2/sep_relu9_2/sep_0_split_0
I1002 14:54:28.213227 10714 net.cpp:408] conv10_1 -> conv10_1
I1002 14:54:28.214442 10714 net.cpp:150] Setting up conv10_1
I1002 14:54:28.214448 10714 net.cpp:157] Top shape: 1 64 2 2 (256)
I1002 14:54:28.214450 10714 net.cpp:165] Memory required for data: 468847264
I1002 14:54:28.214454 10714 layer_factory.hpp:77] Creating layer conv10_1_relu
I1002 14:54:28.214459 10714 net.cpp:100] Creating Layer conv10_1_relu
I1002 14:54:28.214462 10714 net.cpp:434] conv10_1_relu <- conv10_1
I1002 14:54:28.214465 10714 net.cpp:395] conv10_1_relu -> conv10_1 (in-place)
I1002 14:54:28.214860 10714 net.cpp:150] Setting up conv10_1_relu
I1002 14:54:28.214867 10714 net.cpp:157] Top shape: 1 64 2 2 (256)
I1002 14:54:28.214869 10714 net.cpp:165] Memory required for data: 468848288
I1002 14:54:28.214872 10714 layer_factory.hpp:77] Creating layer conv10_2/dw
I1002 14:54:28.214877 10714 net.cpp:100] Creating Layer conv10_2/dw
I1002 14:54:28.214879 10714 net.cpp:434] conv10_2/dw <- conv10_1
I1002 14:54:28.214884 10714 net.cpp:408] conv10_2/dw -> conv10_2/dw
I1002 14:54:28.215031 10714 net.cpp:150] Setting up conv10_2/dw
I1002 14:54:28.215035 10714 net.cpp:157] Top shape: 1 64 1 1 (64)
I1002 14:54:28.215037 10714 net.cpp:165] Memory required for data: 468848544
I1002 14:54:28.215040 10714 layer_factory.hpp:77] Creating layer conv10_2/dw/bn
I1002 14:54:28.215045 10714 net.cpp:100] Creating Layer conv10_2/dw/bn
I1002 14:54:28.215049 10714 net.cpp:434] conv10_2/dw/bn <- conv10_2/dw
I1002 14:54:28.215050 10714 net.cpp:395] conv10_2/dw/bn -> conv10_2/dw (in-place)
I1002 14:54:28.215173 10714 net.cpp:150] Setting up conv10_2/dw/bn
I1002 14:54:28.215178 10714 net.cpp:157] Top shape: 1 64 1 1 (64)
I1002 14:54:28.215179 10714 net.cpp:165] Memory required for data: 468848800
I1002 14:54:28.215191 10714 layer_factory.hpp:77] Creating layer conv10_2/dw/scale
I1002 14:54:28.215215 10714 net.cpp:100] Creating Layer conv10_2/dw/scale
I1002 14:54:28.215219 10714 net.cpp:434] conv10_2/dw/scale <- conv10_2/dw
I1002 14:54:28.215221 10714 net.cpp:395] conv10_2/dw/scale -> conv10_2/dw (in-place)
I1002 14:54:28.215247 10714 layer_factory.hpp:77] Creating layer conv10_2/dw/scale
I1002 14:54:28.215319 10714 net.cpp:150] Setting up conv10_2/dw/scale
I1002 14:54:28.215323 10714 net.cpp:157] Top shape: 1 64 1 1 (64)
I1002 14:54:28.215325 10714 net.cpp:165] Memory required for data: 468849056
I1002 14:54:28.215329 10714 layer_factory.hpp:77] Creating layer relu10_2/dw
I1002 14:54:28.215332 10714 net.cpp:100] Creating Layer relu10_2/dw
I1002 14:54:28.215335 10714 net.cpp:434] relu10_2/dw <- conv10_2/dw
I1002 14:54:28.215338 10714 net.cpp:395] relu10_2/dw -> conv10_2/dw (in-place)
I1002 14:54:28.215628 10714 net.cpp:150] Setting up relu10_2/dw
I1002 14:54:28.215634 10714 net.cpp:157] Top shape: 1 64 1 1 (64)
I1002 14:54:28.215636 10714 net.cpp:165] Memory required for data: 468849312
I1002 14:54:28.215638 10714 layer_factory.hpp:77] Creating layer conv10_2/sep
I1002 14:54:28.215643 10714 net.cpp:100] Creating Layer conv10_2/sep
I1002 14:54:28.215646 10714 net.cpp:434] conv10_2/sep <- conv10_2/dw
I1002 14:54:28.215649 10714 net.cpp:408] conv10_2/sep -> conv10_2/sep
I1002 14:54:28.216938 10714 net.cpp:150] Setting up conv10_2/sep
I1002 14:54:28.216946 10714 net.cpp:157] Top shape: 1 128 1 1 (128)
I1002 14:54:28.216948 10714 net.cpp:165] Memory required for data: 468849824
I1002 14:54:28.216951 10714 layer_factory.hpp:77] Creating layer conv10_2/sep/bn
I1002 14:54:28.216956 10714 net.cpp:100] Creating Layer conv10_2/sep/bn
I1002 14:54:28.216958 10714 net.cpp:434] conv10_2/sep/bn <- conv10_2/sep
I1002 14:54:28.216961 10714 net.cpp:395] conv10_2/sep/bn -> conv10_2/sep (in-place)
I1002 14:54:28.217082 10714 net.cpp:150] Setting up conv10_2/sep/bn
I1002 14:54:28.217087 10714 net.cpp:157] Top shape: 1 128 1 1 (128)
I1002 14:54:28.217088 10714 net.cpp:165] Memory required for data: 468850336
I1002 14:54:28.217092 10714 layer_factory.hpp:77] Creating layer conv10_2/sep/scale
I1002 14:54:28.217097 10714 net.cpp:100] Creating Layer conv10_2/sep/scale
I1002 14:54:28.217098 10714 net.cpp:434] conv10_2/sep/scale <- conv10_2/sep
I1002 14:54:28.217101 10714 net.cpp:395] conv10_2/sep/scale -> conv10_2/sep (in-place)
I1002 14:54:28.217124 10714 layer_factory.hpp:77] Creating layer conv10_2/sep/scale
I1002 14:54:28.217190 10714 net.cpp:150] Setting up conv10_2/sep/scale
I1002 14:54:28.217193 10714 net.cpp:157] Top shape: 1 128 1 1 (128)
I1002 14:54:28.217195 10714 net.cpp:165] Memory required for data: 468850848
I1002 14:54:28.217200 10714 layer_factory.hpp:77] Creating layer relu10_2/sep
I1002 14:54:28.217203 10714 net.cpp:100] Creating Layer relu10_2/sep
I1002 14:54:28.217206 10714 net.cpp:434] relu10_2/sep <- conv10_2/sep
I1002 14:54:28.217208 10714 net.cpp:395] relu10_2/sep -> conv10_2/sep (in-place)
I1002 14:54:28.217502 10714 net.cpp:150] Setting up relu10_2/sep
I1002 14:54:28.217509 10714 net.cpp:157] Top shape: 1 128 1 1 (128)
I1002 14:54:28.217510 10714 net.cpp:165] Memory required for data: 468851360
I1002 14:54:28.217512 10714 layer_factory.hpp:77] Creating layer conv10_2/sep_relu10_2/sep_0_split
I1002 14:54:28.217515 10714 net.cpp:100] Creating Layer conv10_2/sep_relu10_2/sep_0_split
I1002 14:54:28.217519 10714 net.cpp:434] conv10_2/sep_relu10_2/sep_0_split <- conv10_2/sep
I1002 14:54:28.217522 10714 net.cpp:408] conv10_2/sep_relu10_2/sep_0_split -> conv10_2/sep_relu10_2/sep_0_split_0
I1002 14:54:28.217526 10714 net.cpp:408] conv10_2/sep_relu10_2/sep_0_split -> conv10_2/sep_relu10_2/sep_0_split_1
I1002 14:54:28.217530 10714 net.cpp:408] conv10_2/sep_relu10_2/sep_0_split -> conv10_2/sep_relu10_2/sep_0_split_2
I1002 14:54:28.217566 10714 net.cpp:150] Setting up conv10_2/sep_relu10_2/sep_0_split
I1002 14:54:28.217571 10714 net.cpp:157] Top shape: 1 128 1 1 (128)
I1002 14:54:28.217573 10714 net.cpp:157] Top shape: 1 128 1 1 (128)
I1002 14:54:28.217584 10714 net.cpp:157] Top shape: 1 128 1 1 (128)
I1002 14:54:28.217587 10714 net.cpp:165] Memory required for data: 468852896
I1002 14:54:28.217588 10714 layer_factory.hpp:77] Creating layer conv5_3/expand_mbox_loc
I1002 14:54:28.217594 10714 net.cpp:100] Creating Layer conv5_3/expand_mbox_loc
I1002 14:54:28.217597 10714 net.cpp:434] conv5_3/expand_mbox_loc <- conv5_3/expand_relu5_3/expand_0_split_1
I1002 14:54:28.217602 10714 net.cpp:408] conv5_3/expand_mbox_loc -> conv5_3/expand_mbox_loc
I1002 14:54:28.219115 10714 net.cpp:150] Setting up conv5_3/expand_mbox_loc
I1002 14:54:28.219122 10714 net.cpp:157] Top shape: 1 8 19 32 (4864)
I1002 14:54:28.219125 10714 net.cpp:165] Memory required for data: 468872352
I1002 14:54:28.219130 10714 layer_factory.hpp:77] Creating layer conv5_3/expand_mbox_loc_perm
I1002 14:54:28.219135 10714 net.cpp:100] Creating Layer conv5_3/expand_mbox_loc_perm
I1002 14:54:28.219138 10714 net.cpp:434] conv5_3/expand_mbox_loc_perm <- conv5_3/expand_mbox_loc
I1002 14:54:28.219142 10714 net.cpp:408] conv5_3/expand_mbox_loc_perm -> conv5_3/expand_mbox_loc_perm
I1002 14:54:28.219223 10714 net.cpp:150] Setting up conv5_3/expand_mbox_loc_perm
I1002 14:54:28.219228 10714 net.cpp:157] Top shape: 1 19 32 8 (4864)
I1002 14:54:28.219230 10714 net.cpp:165] Memory required for data: 468891808
I1002 14:54:28.219233 10714 layer_factory.hpp:77] Creating layer conv5_3/expand_mbox_loc_flat
I1002 14:54:28.219236 10714 net.cpp:100] Creating Layer conv5_3/expand_mbox_loc_flat
I1002 14:54:28.219238 10714 net.cpp:434] conv5_3/expand_mbox_loc_flat <- conv5_3/expand_mbox_loc_perm
I1002 14:54:28.219241 10714 net.cpp:408] conv5_3/expand_mbox_loc_flat -> conv5_3/expand_mbox_loc_flat
I1002 14:54:28.219257 10714 net.cpp:150] Setting up conv5_3/expand_mbox_loc_flat
I1002 14:54:28.219261 10714 net.cpp:157] Top shape: 1 4864 (4864)
I1002 14:54:28.219264 10714 net.cpp:165] Memory required for data: 468911264
I1002 14:54:28.219265 10714 layer_factory.hpp:77] Creating layer conv5_3/expand_mbox_conf
I1002 14:54:28.219271 10714 net.cpp:100] Creating Layer conv5_3/expand_mbox_conf
I1002 14:54:28.219274 10714 net.cpp:434] conv5_3/expand_mbox_conf <- conv5_3/expand_relu5_3/expand_0_split_2
I1002 14:54:28.219277 10714 net.cpp:408] conv5_3/expand_mbox_conf -> conv5_3/expand_mbox_conf
I1002 14:54:28.220844 10714 net.cpp:150] Setting up conv5_3/expand_mbox_conf
I1002 14:54:28.220850 10714 net.cpp:157] Top shape: 1 10 19 32 (6080)
I1002 14:54:28.220854 10714 net.cpp:165] Memory required for data: 468935584
I1002 14:54:28.220857 10714 layer_factory.hpp:77] Creating layer conv5_3/expand_mbox_conf_perm
I1002 14:54:28.220862 10714 net.cpp:100] Creating Layer conv5_3/expand_mbox_conf_perm
I1002 14:54:28.220865 10714 net.cpp:434] conv5_3/expand_mbox_conf_perm <- conv5_3/expand_mbox_conf
I1002 14:54:28.220870 10714 net.cpp:408] conv5_3/expand_mbox_conf_perm -> conv5_3/expand_mbox_conf_perm
I1002 14:54:28.220940 10714 net.cpp:150] Setting up conv5_3/expand_mbox_conf_perm
I1002 14:54:28.220944 10714 net.cpp:157] Top shape: 1 19 32 10 (6080)
I1002 14:54:28.220947 10714 net.cpp:165] Memory required for data: 468959904
I1002 14:54:28.220948 10714 layer_factory.hpp:77] Creating layer conv5_3/expand_mbox_conf_flat
I1002 14:54:28.220952 10714 net.cpp:100] Creating Layer conv5_3/expand_mbox_conf_flat
I1002 14:54:28.220954 10714 net.cpp:434] conv5_3/expand_mbox_conf_flat <- conv5_3/expand_mbox_conf_perm
I1002 14:54:28.220957 10714 net.cpp:408] conv5_3/expand_mbox_conf_flat -> conv5_3/expand_mbox_conf_flat
I1002 14:54:28.220973 10714 net.cpp:150] Setting up conv5_3/expand_mbox_conf_flat
I1002 14:54:28.220976 10714 net.cpp:157] Top shape: 1 6080 (6080)
I1002 14:54:28.220978 10714 net.cpp:165] Memory required for data: 468984224
I1002 14:54:28.220979 10714 layer_factory.hpp:77] Creating layer conv5_3/expand_mbox_priorbox
I1002 14:54:28.220984 10714 net.cpp:100] Creating Layer conv5_3/expand_mbox_priorbox
I1002 14:54:28.220988 10714 net.cpp:434] conv5_3/expand_mbox_priorbox <- conv5_3/expand_relu5_3/expand_0_split_3
I1002 14:54:28.220990 10714 net.cpp:434] conv5_3/expand_mbox_priorbox <- data_data_0_split_1
I1002 14:54:28.221002 10714 net.cpp:408] conv5_3/expand_mbox_priorbox -> conv5_3/expand_mbox_priorbox
I1002 14:54:28.221021 10714 net.cpp:150] Setting up conv5_3/expand_mbox_priorbox
I1002 14:54:28.221024 10714 net.cpp:157] Top shape: 1 2 4864 (9728)
I1002 14:54:28.221026 10714 net.cpp:165] Memory required for data: 469023136
I1002 14:54:28.221029 10714 layer_factory.hpp:77] Creating layer conv6_4_mbox_loc
I1002 14:54:28.221035 10714 net.cpp:100] Creating Layer conv6_4_mbox_loc
I1002 14:54:28.221037 10714 net.cpp:434] conv6_4_mbox_loc <- conv6_4_relu6_4_0_split_1
I1002 14:54:28.221042 10714 net.cpp:408] conv6_4_mbox_loc -> conv6_4_mbox_loc
I1002 14:54:28.222618 10714 net.cpp:150] Setting up conv6_4_mbox_loc
I1002 14:54:28.222627 10714 net.cpp:157] Top shape: 1 8 10 16 (1280)
I1002 14:54:28.222630 10714 net.cpp:165] Memory required for data: 469028256
I1002 14:54:28.222633 10714 layer_factory.hpp:77] Creating layer conv6_4_mbox_loc_perm
I1002 14:54:28.222638 10714 net.cpp:100] Creating Layer conv6_4_mbox_loc_perm
I1002 14:54:28.222641 10714 net.cpp:434] conv6_4_mbox_loc_perm <- conv6_4_mbox_loc
I1002 14:54:28.222645 10714 net.cpp:408] conv6_4_mbox_loc_perm -> conv6_4_mbox_loc_perm
I1002 14:54:28.222718 10714 net.cpp:150] Setting up conv6_4_mbox_loc_perm
I1002 14:54:28.222721 10714 net.cpp:157] Top shape: 1 10 16 8 (1280)
I1002 14:54:28.222723 10714 net.cpp:165] Memory required for data: 469033376
I1002 14:54:28.222725 10714 layer_factory.hpp:77] Creating layer conv6_4_mbox_loc_flat
I1002 14:54:28.222728 10714 net.cpp:100] Creating Layer conv6_4_mbox_loc_flat
I1002 14:54:28.222730 10714 net.cpp:434] conv6_4_mbox_loc_flat <- conv6_4_mbox_loc_perm
I1002 14:54:28.222734 10714 net.cpp:408] conv6_4_mbox_loc_flat -> conv6_4_mbox_loc_flat
I1002 14:54:28.222749 10714 net.cpp:150] Setting up conv6_4_mbox_loc_flat
I1002 14:54:28.222754 10714 net.cpp:157] Top shape: 1 1280 (1280)
I1002 14:54:28.222755 10714 net.cpp:165] Memory required for data: 469038496
I1002 14:54:28.222757 10714 layer_factory.hpp:77] Creating layer conv6_4_mbox_conf
I1002 14:54:28.222764 10714 net.cpp:100] Creating Layer conv6_4_mbox_conf
I1002 14:54:28.222765 10714 net.cpp:434] conv6_4_mbox_conf <- conv6_4_relu6_4_0_split_2
I1002 14:54:28.222769 10714 net.cpp:408] conv6_4_mbox_conf -> conv6_4_mbox_conf
I1002 14:54:28.224404 10714 net.cpp:150] Setting up conv6_4_mbox_conf
I1002 14:54:28.224411 10714 net.cpp:157] Top shape: 1 10 10 16 (1600)
I1002 14:54:28.224413 10714 net.cpp:165] Memory required for data: 469044896
I1002 14:54:28.224417 10714 layer_factory.hpp:77] Creating layer conv6_4_mbox_conf_perm
I1002 14:54:28.224422 10714 net.cpp:100] Creating Layer conv6_4_mbox_conf_perm
I1002 14:54:28.224426 10714 net.cpp:434] conv6_4_mbox_conf_perm <- conv6_4_mbox_conf
I1002 14:54:28.224429 10714 net.cpp:408] conv6_4_mbox_conf_perm -> conv6_4_mbox_conf_perm
I1002 14:54:28.224500 10714 net.cpp:150] Setting up conv6_4_mbox_conf_perm
I1002 14:54:28.224505 10714 net.cpp:157] Top shape: 1 10 16 10 (1600)
I1002 14:54:28.224508 10714 net.cpp:165] Memory required for data: 469051296
I1002 14:54:28.224509 10714 layer_factory.hpp:77] Creating layer conv6_4_mbox_conf_flat
I1002 14:54:28.224512 10714 net.cpp:100] Creating Layer conv6_4_mbox_conf_flat
I1002 14:54:28.224515 10714 net.cpp:434] conv6_4_mbox_conf_flat <- conv6_4_mbox_conf_perm
I1002 14:54:28.224519 10714 net.cpp:408] conv6_4_mbox_conf_flat -> conv6_4_mbox_conf_flat
I1002 14:54:28.224534 10714 net.cpp:150] Setting up conv6_4_mbox_conf_flat
I1002 14:54:28.224539 10714 net.cpp:157] Top shape: 1 1600 (1600)
I1002 14:54:28.224540 10714 net.cpp:165] Memory required for data: 469057696
I1002 14:54:28.224542 10714 layer_factory.hpp:77] Creating layer conv6_4_mbox_priorbox
I1002 14:54:28.224545 10714 net.cpp:100] Creating Layer conv6_4_mbox_priorbox
I1002 14:54:28.224548 10714 net.cpp:434] conv6_4_mbox_priorbox <- conv6_4_relu6_4_0_split_3
I1002 14:54:28.224551 10714 net.cpp:434] conv6_4_mbox_priorbox <- data_data_0_split_2
I1002 14:54:28.224556 10714 net.cpp:408] conv6_4_mbox_priorbox -> conv6_4_mbox_priorbox
I1002 14:54:28.224581 10714 net.cpp:150] Setting up conv6_4_mbox_priorbox
I1002 14:54:28.224586 10714 net.cpp:157] Top shape: 1 2 1280 (2560)
I1002 14:54:28.224588 10714 net.cpp:165] Memory required for data: 469067936
I1002 14:54:28.224589 10714 layer_factory.hpp:77] Creating layer conv7_2/sep_mbox_loc
I1002 14:54:28.224596 10714 net.cpp:100] Creating Layer conv7_2/sep_mbox_loc
I1002 14:54:28.224597 10714 net.cpp:434] conv7_2/sep_mbox_loc <- conv7_2/sep_relu7_2/sep_0_split_1
I1002 14:54:28.224602 10714 net.cpp:408] conv7_2/sep_mbox_loc -> conv7_2/sep_mbox_loc
I1002 14:54:28.225997 10714 net.cpp:150] Setting up conv7_2/sep_mbox_loc
I1002 14:54:28.226004 10714 net.cpp:157] Top shape: 1 8 5 8 (320)
I1002 14:54:28.226006 10714 net.cpp:165] Memory required for data: 469069216
I1002 14:54:28.226011 10714 layer_factory.hpp:77] Creating layer conv7_2/sep_mbox_loc_perm
I1002 14:54:28.226016 10714 net.cpp:100] Creating Layer conv7_2/sep_mbox_loc_perm
I1002 14:54:28.226018 10714 net.cpp:434] conv7_2/sep_mbox_loc_perm <- conv7_2/sep_mbox_loc
I1002 14:54:28.226022 10714 net.cpp:408] conv7_2/sep_mbox_loc_perm -> conv7_2/sep_mbox_loc_perm
I1002 14:54:28.226094 10714 net.cpp:150] Setting up conv7_2/sep_mbox_loc_perm
I1002 14:54:28.226099 10714 net.cpp:157] Top shape: 1 5 8 8 (320)
I1002 14:54:28.226100 10714 net.cpp:165] Memory required for data: 469070496
I1002 14:54:28.226101 10714 layer_factory.hpp:77] Creating layer conv7_2/sep_mbox_loc_flat
I1002 14:54:28.226106 10714 net.cpp:100] Creating Layer conv7_2/sep_mbox_loc_flat
I1002 14:54:28.226109 10714 net.cpp:434] conv7_2/sep_mbox_loc_flat <- conv7_2/sep_mbox_loc_perm
I1002 14:54:28.226111 10714 net.cpp:408] conv7_2/sep_mbox_loc_flat -> conv7_2/sep_mbox_loc_flat
I1002 14:54:28.226127 10714 net.cpp:150] Setting up conv7_2/sep_mbox_loc_flat
I1002 14:54:28.226131 10714 net.cpp:157] Top shape: 1 320 (320)
I1002 14:54:28.226132 10714 net.cpp:165] Memory required for data: 469071776
I1002 14:54:28.226135 10714 layer_factory.hpp:77] Creating layer conv7_2/sep_mbox_conf
I1002 14:54:28.226140 10714 net.cpp:100] Creating Layer conv7_2/sep_mbox_conf
I1002 14:54:28.226143 10714 net.cpp:434] conv7_2/sep_mbox_conf <- conv7_2/sep_relu7_2/sep_0_split_2
I1002 14:54:28.226146 10714 net.cpp:408] conv7_2/sep_mbox_conf -> conv7_2/sep_mbox_conf
I1002 14:54:28.227573 10714 net.cpp:150] Setting up conv7_2/sep_mbox_conf
I1002 14:54:28.227581 10714 net.cpp:157] Top shape: 1 10 5 8 (400)
I1002 14:54:28.227583 10714 net.cpp:165] Memory required for data: 469073376
I1002 14:54:28.227587 10714 layer_factory.hpp:77] Creating layer conv7_2/sep_mbox_conf_perm
I1002 14:54:28.227591 10714 net.cpp:100] Creating Layer conv7_2/sep_mbox_conf_perm
I1002 14:54:28.227594 10714 net.cpp:434] conv7_2/sep_mbox_conf_perm <- conv7_2/sep_mbox_conf
I1002 14:54:28.227598 10714 net.cpp:408] conv7_2/sep_mbox_conf_perm -> conv7_2/sep_mbox_conf_perm
I1002 14:54:28.227669 10714 net.cpp:150] Setting up conv7_2/sep_mbox_conf_perm
I1002 14:54:28.227674 10714 net.cpp:157] Top shape: 1 5 8 10 (400)
I1002 14:54:28.227675 10714 net.cpp:165] Memory required for data: 469074976
I1002 14:54:28.227679 10714 layer_factory.hpp:77] Creating layer conv7_2/sep_mbox_conf_flat
I1002 14:54:28.227681 10714 net.cpp:100] Creating Layer conv7_2/sep_mbox_conf_flat
I1002 14:54:28.227682 10714 net.cpp:434] conv7_2/sep_mbox_conf_flat <- conv7_2/sep_mbox_conf_perm
I1002 14:54:28.227686 10714 net.cpp:408] conv7_2/sep_mbox_conf_flat -> conv7_2/sep_mbox_conf_flat
I1002 14:54:28.227700 10714 net.cpp:150] Setting up conv7_2/sep_mbox_conf_flat
I1002 14:54:28.227706 10714 net.cpp:157] Top shape: 1 400 (400)
I1002 14:54:28.227707 10714 net.cpp:165] Memory required for data: 469076576
I1002 14:54:28.227710 10714 layer_factory.hpp:77] Creating layer conv7_2/sep_mbox_priorbox
I1002 14:54:28.227713 10714 net.cpp:100] Creating Layer conv7_2/sep_mbox_priorbox
I1002 14:54:28.227715 10714 net.cpp:434] conv7_2/sep_mbox_priorbox <- conv7_2/sep_relu7_2/sep_0_split_3
I1002 14:54:28.227718 10714 net.cpp:434] conv7_2/sep_mbox_priorbox <- data_data_0_split_3
I1002 14:54:28.227730 10714 net.cpp:408] conv7_2/sep_mbox_priorbox -> conv7_2/sep_mbox_priorbox
I1002 14:54:28.227748 10714 net.cpp:150] Setting up conv7_2/sep_mbox_priorbox
I1002 14:54:28.227752 10714 net.cpp:157] Top shape: 1 2 320 (640)
I1002 14:54:28.227753 10714 net.cpp:165] Memory required for data: 469079136
I1002 14:54:28.227756 10714 layer_factory.hpp:77] Creating layer conv8_2/sep_mbox_loc
I1002 14:54:28.227761 10714 net.cpp:100] Creating Layer conv8_2/sep_mbox_loc
I1002 14:54:28.227764 10714 net.cpp:434] conv8_2/sep_mbox_loc <- conv8_2/sep_relu8_2/sep_0_split_1
I1002 14:54:28.227767 10714 net.cpp:408] conv8_2/sep_mbox_loc -> conv8_2/sep_mbox_loc
I1002 14:54:28.229109 10714 net.cpp:150] Setting up conv8_2/sep_mbox_loc
I1002 14:54:28.229117 10714 net.cpp:157] Top shape: 1 8 3 4 (96)
I1002 14:54:28.229120 10714 net.cpp:165] Memory required for data: 469079520
I1002 14:54:28.229123 10714 layer_factory.hpp:77] Creating layer conv8_2/sep_mbox_loc_perm
I1002 14:54:28.229127 10714 net.cpp:100] Creating Layer conv8_2/sep_mbox_loc_perm
I1002 14:54:28.229130 10714 net.cpp:434] conv8_2/sep_mbox_loc_perm <- conv8_2/sep_mbox_loc
I1002 14:54:28.229135 10714 net.cpp:408] conv8_2/sep_mbox_loc_perm -> conv8_2/sep_mbox_loc_perm
I1002 14:54:28.229205 10714 net.cpp:150] Setting up conv8_2/sep_mbox_loc_perm
I1002 14:54:28.229209 10714 net.cpp:157] Top shape: 1 3 4 8 (96)
I1002 14:54:28.229212 10714 net.cpp:165] Memory required for data: 469079904
I1002 14:54:28.229213 10714 layer_factory.hpp:77] Creating layer conv8_2/sep_mbox_loc_flat
I1002 14:54:28.229218 10714 net.cpp:100] Creating Layer conv8_2/sep_mbox_loc_flat
I1002 14:54:28.229220 10714 net.cpp:434] conv8_2/sep_mbox_loc_flat <- conv8_2/sep_mbox_loc_perm
I1002 14:54:28.229224 10714 net.cpp:408] conv8_2/sep_mbox_loc_flat -> conv8_2/sep_mbox_loc_flat
I1002 14:54:28.229239 10714 net.cpp:150] Setting up conv8_2/sep_mbox_loc_flat
I1002 14:54:28.229243 10714 net.cpp:157] Top shape: 1 96 (96)
I1002 14:54:28.229243 10714 net.cpp:165] Memory required for data: 469080288
I1002 14:54:28.229246 10714 layer_factory.hpp:77] Creating layer conv8_2/sep_mbox_conf
I1002 14:54:28.229254 10714 net.cpp:100] Creating Layer conv8_2/sep_mbox_conf
I1002 14:54:28.229256 10714 net.cpp:434] conv8_2/sep_mbox_conf <- conv8_2/sep_relu8_2/sep_0_split_2
I1002 14:54:28.229260 10714 net.cpp:408] conv8_2/sep_mbox_conf -> conv8_2/sep_mbox_conf
I1002 14:54:28.230497 10714 net.cpp:150] Setting up conv8_2/sep_mbox_conf
I1002 14:54:28.230504 10714 net.cpp:157] Top shape: 1 10 3 4 (120)
I1002 14:54:28.230506 10714 net.cpp:165] Memory required for data: 469080768
I1002 14:54:28.230510 10714 layer_factory.hpp:77] Creating layer conv8_2/sep_mbox_conf_perm
I1002 14:54:28.230515 10714 net.cpp:100] Creating Layer conv8_2/sep_mbox_conf_perm
I1002 14:54:28.230518 10714 net.cpp:434] conv8_2/sep_mbox_conf_perm <- conv8_2/sep_mbox_conf
I1002 14:54:28.230522 10714 net.cpp:408] conv8_2/sep_mbox_conf_perm -> conv8_2/sep_mbox_conf_perm
I1002 14:54:28.230592 10714 net.cpp:150] Setting up conv8_2/sep_mbox_conf_perm
I1002 14:54:28.230595 10714 net.cpp:157] Top shape: 1 3 4 10 (120)
I1002 14:54:28.230597 10714 net.cpp:165] Memory required for data: 469081248
I1002 14:54:28.230599 10714 layer_factory.hpp:77] Creating layer conv8_2/sep_mbox_conf_flat
I1002 14:54:28.230602 10714 net.cpp:100] Creating Layer conv8_2/sep_mbox_conf_flat
I1002 14:54:28.230605 10714 net.cpp:434] conv8_2/sep_mbox_conf_flat <- conv8_2/sep_mbox_conf_perm
I1002 14:54:28.230608 10714 net.cpp:408] conv8_2/sep_mbox_conf_flat -> conv8_2/sep_mbox_conf_flat
I1002 14:54:28.230624 10714 net.cpp:150] Setting up conv8_2/sep_mbox_conf_flat
I1002 14:54:28.230628 10714 net.cpp:157] Top shape: 1 120 (120)
I1002 14:54:28.230630 10714 net.cpp:165] Memory required for data: 469081728
I1002 14:54:28.230633 10714 layer_factory.hpp:77] Creating layer conv8_2/sep_mbox_priorbox
I1002 14:54:28.230635 10714 net.cpp:100] Creating Layer conv8_2/sep_mbox_priorbox
I1002 14:54:28.230638 10714 net.cpp:434] conv8_2/sep_mbox_priorbox <- conv8_2/sep_relu8_2/sep_0_split_3
I1002 14:54:28.230649 10714 net.cpp:434] conv8_2/sep_mbox_priorbox <- data_data_0_split_4
I1002 14:54:28.230654 10714 net.cpp:408] conv8_2/sep_mbox_priorbox -> conv8_2/sep_mbox_priorbox
I1002 14:54:28.230671 10714 net.cpp:150] Setting up conv8_2/sep_mbox_priorbox
I1002 14:54:28.230674 10714 net.cpp:157] Top shape: 1 2 96 (192)
I1002 14:54:28.230677 10714 net.cpp:165] Memory required for data: 469082496
I1002 14:54:28.230679 10714 layer_factory.hpp:77] Creating layer conv9_2/sep_mbox_loc
I1002 14:54:28.230684 10714 net.cpp:100] Creating Layer conv9_2/sep_mbox_loc
I1002 14:54:28.230686 10714 net.cpp:434] conv9_2/sep_mbox_loc <- conv9_2/sep_relu9_2/sep_0_split_1
I1002 14:54:28.230691 10714 net.cpp:408] conv9_2/sep_mbox_loc -> conv9_2/sep_mbox_loc
I1002 14:54:28.231905 10714 net.cpp:150] Setting up conv9_2/sep_mbox_loc
I1002 14:54:28.231912 10714 net.cpp:157] Top shape: 1 8 2 2 (32)
I1002 14:54:28.231914 10714 net.cpp:165] Memory required for data: 469082624
I1002 14:54:28.231918 10714 layer_factory.hpp:77] Creating layer conv9_2/sep_mbox_loc_perm
I1002 14:54:28.231923 10714 net.cpp:100] Creating Layer conv9_2/sep_mbox_loc_perm
I1002 14:54:28.231926 10714 net.cpp:434] conv9_2/sep_mbox_loc_perm <- conv9_2/sep_mbox_loc
I1002 14:54:28.231930 10714 net.cpp:408] conv9_2/sep_mbox_loc_perm -> conv9_2/sep_mbox_loc_perm
I1002 14:54:28.231997 10714 net.cpp:150] Setting up conv9_2/sep_mbox_loc_perm
I1002 14:54:28.232000 10714 net.cpp:157] Top shape: 1 2 2 8 (32)
I1002 14:54:28.232002 10714 net.cpp:165] Memory required for data: 469082752
I1002 14:54:28.232003 10714 layer_factory.hpp:77] Creating layer conv9_2/sep_mbox_loc_flat
I1002 14:54:28.232007 10714 net.cpp:100] Creating Layer conv9_2/sep_mbox_loc_flat
I1002 14:54:28.232009 10714 net.cpp:434] conv9_2/sep_mbox_loc_flat <- conv9_2/sep_mbox_loc_perm
I1002 14:54:28.232012 10714 net.cpp:408] conv9_2/sep_mbox_loc_flat -> conv9_2/sep_mbox_loc_flat
I1002 14:54:28.232028 10714 net.cpp:150] Setting up conv9_2/sep_mbox_loc_flat
I1002 14:54:28.232031 10714 net.cpp:157] Top shape: 1 32 (32)
I1002 14:54:28.232033 10714 net.cpp:165] Memory required for data: 469082880
I1002 14:54:28.232034 10714 layer_factory.hpp:77] Creating layer conv9_2/sep_mbox_conf
I1002 14:54:28.232040 10714 net.cpp:100] Creating Layer conv9_2/sep_mbox_conf
I1002 14:54:28.232043 10714 net.cpp:434] conv9_2/sep_mbox_conf <- conv9_2/sep_relu9_2/sep_0_split_2
I1002 14:54:28.232048 10714 net.cpp:408] conv9_2/sep_mbox_conf -> conv9_2/sep_mbox_conf
I1002 14:54:28.233284 10714 net.cpp:150] Setting up conv9_2/sep_mbox_conf
I1002 14:54:28.233291 10714 net.cpp:157] Top shape: 1 10 2 2 (40)
I1002 14:54:28.233294 10714 net.cpp:165] Memory required for data: 469083040
I1002 14:54:28.233297 10714 layer_factory.hpp:77] Creating layer conv9_2/sep_mbox_conf_perm
I1002 14:54:28.233302 10714 net.cpp:100] Creating Layer conv9_2/sep_mbox_conf_perm
I1002 14:54:28.233305 10714 net.cpp:434] conv9_2/sep_mbox_conf_perm <- conv9_2/sep_mbox_conf
I1002 14:54:28.233309 10714 net.cpp:408] conv9_2/sep_mbox_conf_perm -> conv9_2/sep_mbox_conf_perm
I1002 14:54:28.233376 10714 net.cpp:150] Setting up conv9_2/sep_mbox_conf_perm
I1002 14:54:28.233379 10714 net.cpp:157] Top shape: 1 2 2 10 (40)
I1002 14:54:28.233381 10714 net.cpp:165] Memory required for data: 469083200
I1002 14:54:28.233384 10714 layer_factory.hpp:77] Creating layer conv9_2/sep_mbox_conf_flat
I1002 14:54:28.233387 10714 net.cpp:100] Creating Layer conv9_2/sep_mbox_conf_flat
I1002 14:54:28.233389 10714 net.cpp:434] conv9_2/sep_mbox_conf_flat <- conv9_2/sep_mbox_conf_perm
I1002 14:54:28.233392 10714 net.cpp:408] conv9_2/sep_mbox_conf_flat -> conv9_2/sep_mbox_conf_flat
I1002 14:54:28.233408 10714 net.cpp:150] Setting up conv9_2/sep_mbox_conf_flat
I1002 14:54:28.233412 10714 net.cpp:157] Top shape: 1 40 (40)
I1002 14:54:28.233413 10714 net.cpp:165] Memory required for data: 469083360
I1002 14:54:28.233415 10714 layer_factory.hpp:77] Creating layer conv9_2/sep_mbox_priorbox
I1002 14:54:28.233420 10714 net.cpp:100] Creating Layer conv9_2/sep_mbox_priorbox
I1002 14:54:28.233423 10714 net.cpp:434] conv9_2/sep_mbox_priorbox <- conv9_2/sep_relu9_2/sep_0_split_3
I1002 14:54:28.233433 10714 net.cpp:434] conv9_2/sep_mbox_priorbox <- data_data_0_split_5
I1002 14:54:28.233438 10714 net.cpp:408] conv9_2/sep_mbox_priorbox -> conv9_2/sep_mbox_priorbox
I1002 14:54:28.233455 10714 net.cpp:150] Setting up conv9_2/sep_mbox_priorbox
I1002 14:54:28.233459 10714 net.cpp:157] Top shape: 1 2 32 (64)
I1002 14:54:28.233461 10714 net.cpp:165] Memory required for data: 469083616
I1002 14:54:28.233466 10714 layer_factory.hpp:77] Creating layer conv10_2/sep_mbox_loc
I1002 14:54:28.233472 10714 net.cpp:100] Creating Layer conv10_2/sep_mbox_loc
I1002 14:54:28.233475 10714 net.cpp:434] conv10_2/sep_mbox_loc <- conv10_2/sep_relu10_2/sep_0_split_0
I1002 14:54:28.233479 10714 net.cpp:408] conv10_2/sep_mbox_loc -> conv10_2/sep_mbox_loc
I1002 14:54:28.234676 10714 net.cpp:150] Setting up conv10_2/sep_mbox_loc
I1002 14:54:28.234683 10714 net.cpp:157] Top shape: 1 8 1 1 (8)
I1002 14:54:28.234685 10714 net.cpp:165] Memory required for data: 469083648
I1002 14:54:28.234689 10714 layer_factory.hpp:77] Creating layer conv10_2/sep_mbox_loc_perm
I1002 14:54:28.234695 10714 net.cpp:100] Creating Layer conv10_2/sep_mbox_loc_perm
I1002 14:54:28.234699 10714 net.cpp:434] conv10_2/sep_mbox_loc_perm <- conv10_2/sep_mbox_loc
I1002 14:54:28.234702 10714 net.cpp:408] conv10_2/sep_mbox_loc_perm -> conv10_2/sep_mbox_loc_perm
I1002 14:54:28.234768 10714 net.cpp:150] Setting up conv10_2/sep_mbox_loc_perm
I1002 14:54:28.234772 10714 net.cpp:157] Top shape: 1 1 1 8 (8)
I1002 14:54:28.234774 10714 net.cpp:165] Memory required for data: 469083680
I1002 14:54:28.234776 10714 layer_factory.hpp:77] Creating layer conv10_2/sep_mbox_loc_flat
I1002 14:54:28.234781 10714 net.cpp:100] Creating Layer conv10_2/sep_mbox_loc_flat
I1002 14:54:28.234783 10714 net.cpp:434] conv10_2/sep_mbox_loc_flat <- conv10_2/sep_mbox_loc_perm
I1002 14:54:28.234786 10714 net.cpp:408] conv10_2/sep_mbox_loc_flat -> conv10_2/sep_mbox_loc_flat
I1002 14:54:28.234802 10714 net.cpp:150] Setting up conv10_2/sep_mbox_loc_flat
I1002 14:54:28.234805 10714 net.cpp:157] Top shape: 1 8 (8)
I1002 14:54:28.234807 10714 net.cpp:165] Memory required for data: 469083712
I1002 14:54:28.234809 10714 layer_factory.hpp:77] Creating layer conv10_2/sep_mbox_conf
I1002 14:54:28.234815 10714 net.cpp:100] Creating Layer conv10_2/sep_mbox_conf
I1002 14:54:28.234817 10714 net.cpp:434] conv10_2/sep_mbox_conf <- conv10_2/sep_relu10_2/sep_0_split_1
I1002 14:54:28.234822 10714 net.cpp:408] conv10_2/sep_mbox_conf -> conv10_2/sep_mbox_conf
I1002 14:54:28.236240 10714 net.cpp:150] Setting up conv10_2/sep_mbox_conf
I1002 14:54:28.236248 10714 net.cpp:157] Top shape: 1 10 1 1 (10)
I1002 14:54:28.236249 10714 net.cpp:165] Memory required for data: 469083752
I1002 14:54:28.236253 10714 layer_factory.hpp:77] Creating layer conv10_2/sep_mbox_conf_perm
I1002 14:54:28.236259 10714 net.cpp:100] Creating Layer conv10_2/sep_mbox_conf_perm
I1002 14:54:28.236263 10714 net.cpp:434] conv10_2/sep_mbox_conf_perm <- conv10_2/sep_mbox_conf
I1002 14:54:28.236266 10714 net.cpp:408] conv10_2/sep_mbox_conf_perm -> conv10_2/sep_mbox_conf_perm
I1002 14:54:28.236337 10714 net.cpp:150] Setting up conv10_2/sep_mbox_conf_perm
I1002 14:54:28.236342 10714 net.cpp:157] Top shape: 1 1 1 10 (10)
I1002 14:54:28.236344 10714 net.cpp:165] Memory required for data: 469083792
I1002 14:54:28.236346 10714 layer_factory.hpp:77] Creating layer conv10_2/sep_mbox_conf_flat
I1002 14:54:28.236349 10714 net.cpp:100] Creating Layer conv10_2/sep_mbox_conf_flat
I1002 14:54:28.236352 10714 net.cpp:434] conv10_2/sep_mbox_conf_flat <- conv10_2/sep_mbox_conf_perm
I1002 14:54:28.236356 10714 net.cpp:408] conv10_2/sep_mbox_conf_flat -> conv10_2/sep_mbox_conf_flat
I1002 14:54:28.236371 10714 net.cpp:150] Setting up conv10_2/sep_mbox_conf_flat
I1002 14:54:28.236374 10714 net.cpp:157] Top shape: 1 10 (10)
I1002 14:54:28.236377 10714 net.cpp:165] Memory required for data: 469083832
I1002 14:54:28.236378 10714 layer_factory.hpp:77] Creating layer conv10_2/sep_mbox_priorbox
I1002 14:54:28.236382 10714 net.cpp:100] Creating Layer conv10_2/sep_mbox_priorbox
I1002 14:54:28.236392 10714 net.cpp:434] conv10_2/sep_mbox_priorbox <- conv10_2/sep_relu10_2/sep_0_split_2
I1002 14:54:28.236395 10714 net.cpp:434] conv10_2/sep_mbox_priorbox <- data_data_0_split_6
I1002 14:54:28.236400 10714 net.cpp:408] conv10_2/sep_mbox_priorbox -> conv10_2/sep_mbox_priorbox
I1002 14:54:28.236418 10714 net.cpp:150] Setting up conv10_2/sep_mbox_priorbox
I1002 14:54:28.236421 10714 net.cpp:157] Top shape: 1 2 8 (16)
I1002 14:54:28.236423 10714 net.cpp:165] Memory required for data: 469083896
I1002 14:54:28.236425 10714 layer_factory.hpp:77] Creating layer mbox_loc
I1002 14:54:28.236428 10714 net.cpp:100] Creating Layer mbox_loc
I1002 14:54:28.236431 10714 net.cpp:434] mbox_loc <- conv5_3/expand_mbox_loc_flat
I1002 14:54:28.236435 10714 net.cpp:434] mbox_loc <- conv6_4_mbox_loc_flat
I1002 14:54:28.236438 10714 net.cpp:434] mbox_loc <- conv7_2/sep_mbox_loc_flat
I1002 14:54:28.236441 10714 net.cpp:434] mbox_loc <- conv8_2/sep_mbox_loc_flat
I1002 14:54:28.236443 10714 net.cpp:434] mbox_loc <- conv9_2/sep_mbox_loc_flat
I1002 14:54:28.236446 10714 net.cpp:434] mbox_loc <- conv10_2/sep_mbox_loc_flat
I1002 14:54:28.236450 10714 net.cpp:408] mbox_loc -> mbox_loc
I1002 14:54:28.236466 10714 net.cpp:150] Setting up mbox_loc
I1002 14:54:28.236469 10714 net.cpp:157] Top shape: 1 6600 (6600)
I1002 14:54:28.236472 10714 net.cpp:165] Memory required for data: 469110296
I1002 14:54:28.236474 10714 layer_factory.hpp:77] Creating layer mbox_conf
I1002 14:54:28.236476 10714 net.cpp:100] Creating Layer mbox_conf
I1002 14:54:28.236479 10714 net.cpp:434] mbox_conf <- conv5_3/expand_mbox_conf_flat
I1002 14:54:28.236481 10714 net.cpp:434] mbox_conf <- conv6_4_mbox_conf_flat
I1002 14:54:28.236485 10714 net.cpp:434] mbox_conf <- conv7_2/sep_mbox_conf_flat
I1002 14:54:28.236487 10714 net.cpp:434] mbox_conf <- conv8_2/sep_mbox_conf_flat
I1002 14:54:28.236490 10714 net.cpp:434] mbox_conf <- conv9_2/sep_mbox_conf_flat
I1002 14:54:28.236492 10714 net.cpp:434] mbox_conf <- conv10_2/sep_mbox_conf_flat
I1002 14:54:28.236495 10714 net.cpp:408] mbox_conf -> mbox_conf
I1002 14:54:28.236510 10714 net.cpp:150] Setting up mbox_conf
I1002 14:54:28.236513 10714 net.cpp:157] Top shape: 1 8250 (8250)
I1002 14:54:28.236515 10714 net.cpp:165] Memory required for data: 469143296
I1002 14:54:28.236517 10714 layer_factory.hpp:77] Creating layer mbox_priorbox
I1002 14:54:28.236521 10714 net.cpp:100] Creating Layer mbox_priorbox
I1002 14:54:28.236522 10714 net.cpp:434] mbox_priorbox <- conv5_3/expand_mbox_priorbox
I1002 14:54:28.236526 10714 net.cpp:434] mbox_priorbox <- conv6_4_mbox_priorbox
I1002 14:54:28.236527 10714 net.cpp:434] mbox_priorbox <- conv7_2/sep_mbox_priorbox
I1002 14:54:28.236531 10714 net.cpp:434] mbox_priorbox <- conv8_2/sep_mbox_priorbox
I1002 14:54:28.236532 10714 net.cpp:434] mbox_priorbox <- conv9_2/sep_mbox_priorbox
I1002 14:54:28.236534 10714 net.cpp:434] mbox_priorbox <- conv10_2/sep_mbox_priorbox
I1002 14:54:28.236537 10714 net.cpp:408] mbox_priorbox -> mbox_priorbox
I1002 14:54:28.236552 10714 net.cpp:150] Setting up mbox_priorbox
I1002 14:54:28.236555 10714 net.cpp:157] Top shape: 1 2 6600 (13200)
I1002 14:54:28.236558 10714 net.cpp:165] Memory required for data: 469196096
I1002 14:54:28.236559 10714 layer_factory.hpp:77] Creating layer mbox_conf_reshape
I1002 14:54:28.236563 10714 net.cpp:100] Creating Layer mbox_conf_reshape
I1002 14:54:28.236565 10714 net.cpp:434] mbox_conf_reshape <- mbox_conf
I1002 14:54:28.236569 10714 net.cpp:408] mbox_conf_reshape -> mbox_conf_reshape
I1002 14:54:28.236589 10714 net.cpp:150] Setting up mbox_conf_reshape
I1002 14:54:28.236593 10714 net.cpp:157] Top shape: 1 1650 5 (8250)
I1002 14:54:28.236594 10714 net.cpp:165] Memory required for data: 469229096
I1002 14:54:28.236598 10714 layer_factory.hpp:77] Creating layer mbox_conf_softmax
I1002 14:54:28.236601 10714 net.cpp:100] Creating Layer mbox_conf_softmax
I1002 14:54:28.236603 10714 net.cpp:434] mbox_conf_softmax <- mbox_conf_reshape
I1002 14:54:28.236606 10714 net.cpp:408] mbox_conf_softmax -> mbox_conf_softmax
I1002 14:54:28.236958 10714 net.cpp:150] Setting up mbox_conf_softmax
I1002 14:54:28.236963 10714 net.cpp:157] Top shape: 1 1650 5 (8250)
I1002 14:54:28.236964 10714 net.cpp:165] Memory required for data: 469262096
I1002 14:54:28.236966 10714 layer_factory.hpp:77] Creating layer mbox_conf_flatten
I1002 14:54:28.236971 10714 net.cpp:100] Creating Layer mbox_conf_flatten
I1002 14:54:28.236974 10714 net.cpp:434] mbox_conf_flatten <- mbox_conf_softmax
I1002 14:54:28.236977 10714 net.cpp:408] mbox_conf_flatten -> mbox_conf_flatten
I1002 14:54:28.236994 10714 net.cpp:150] Setting up mbox_conf_flatten
I1002 14:54:28.236997 10714 net.cpp:157] Top shape: 1 8250 (8250)
I1002 14:54:28.236999 10714 net.cpp:165] Memory required for data: 469295096
I1002 14:54:28.237000 10714 layer_factory.hpp:77] Creating layer detection_out
I1002 14:54:28.237012 10714 net.cpp:100] Creating Layer detection_out
I1002 14:54:28.237015 10714 net.cpp:434] detection_out <- mbox_loc
I1002 14:54:28.237017 10714 net.cpp:434] detection_out <- mbox_conf_flatten
I1002 14:54:28.237020 10714 net.cpp:434] detection_out <- mbox_priorbox
I1002 14:54:28.237025 10714 net.cpp:408] detection_out -> detection_out
W1002 14:54:28.237047 10714 detection_output_layer.cpp:49] Failed to create directory: /home/zhongyilin/Documents/data/GTSDBdevkit/results/GTSDB/SSDLite_510x300_100_40_6_True_1/Main
I1002 14:54:28.237355 10714 net.cpp:150] Setting up detection_out
I1002 14:54:28.237362 10714 net.cpp:157] Top shape: 1 1 1 7 (7)
I1002 14:54:28.237365 10714 net.cpp:165] Memory required for data: 469295124
I1002 14:54:28.237366 10714 layer_factory.hpp:77] Creating layer detection_eval
I1002 14:54:28.237370 10714 net.cpp:100] Creating Layer detection_eval
I1002 14:54:28.237373 10714 net.cpp:434] detection_eval <- detection_out
I1002 14:54:28.237375 10714 net.cpp:434] detection_eval <- label
I1002 14:54:28.237380 10714 net.cpp:408] detection_eval -> detection_eval
I1002 14:54:28.237454 10714 net.cpp:150] Setting up detection_eval
I1002 14:54:28.237458 10714 net.cpp:157] Top shape: 1 1 5 5 (25)
I1002 14:54:28.237460 10714 net.cpp:165] Memory required for data: 469295224
I1002 14:54:28.237468 10714 net.cpp:228] detection_eval does not need backward computation.
I1002 14:54:28.237470 10714 net.cpp:228] detection_out does not need backward computation.
I1002 14:54:28.237473 10714 net.cpp:228] mbox_conf_flatten does not need backward computation.
I1002 14:54:28.237475 10714 net.cpp:228] mbox_conf_softmax does not need backward computation.
…
