…
      sampler {
        min_scale: 0.3
        max_scale: 1
        min_aspect_ratio: 0.5
        max_aspect_ratio: 2
      }
      sample_constraint {
        min_jaccard_overlap: 0.9
      }
      max_sample: 1
      max_trials: 50
    }
    batch_sampler {
      sampler {
        min_scale: 0.3
        max_scale: 1
        min_aspect_ratio: 0.5
        max_aspect_ratio: 2
      }
      sample_constraint {
        max_jaccard_overlap: 1
      }
      max_sample: 1
      max_trials: 50
    }
    label_map_file: "data/GTSDB/labelmap_GTSDB.prototxt"
  }
}
layer {
  name: "conv1"
  type: "Convolution"
  bottom: "data"
  top: "conv1"
  param {
    lr_mult: 1
    decay_mult: 1
  }
  convolution_param {
    num_output: 32
    bias_term: false
    pad: 1
    kernel_size: 3
    stride: 2
    weight_filler {
      type: "msra"
    }
  }
}
layer {
  name: "conv1/bn"
  type: "BatchNorm"
  bottom: "conv1"
  top: "conv1"
  batch_norm_param {
    use_global_stats: true
    eps: 1e-05
  }
}
layer {
  name: "conv1/scale"
  type: "Scale"
  bottom: "conv1"
  top: "conv1"
  param {
    lr_mult: 1
    decay_mult: 0
  }
  param {
    lr_mult: 1
    decay_mult: 0
  }
  scale_param {
    bias_term: true
  }
}
layer {
  name: "relu1"
  type: "ReLU"
  bottom: "conv1"
  top: "conv1"
}
layer {
  name: "conv2_1/expand"
  type: "Convolution"
  bottom: "conv1"
  top: "conv2_1/expand"
  param {
    lr_mult: 1
    decay_mult: 1
  }
  convolution_param {
    num_output: 32
    bias_term: false
    kernel_size: 1
    weight_filler {
      type: "msra"
    }
  }
}
layer {
  name: "conv2_1/expand/bn"
  type: "BatchNorm"
  bottom: "conv2_1/expand"
  top: "conv2_1/expand"
  batch_norm_param {
    use_global_stats: true
    eps: 1e-05
  }
}
layer {
  name: "conv2_1/expand/scale"
  type: "Scale"
  bottom: "conv2_1/expand"
  top: "conv2_1/expand"
  param {
    lr_mult: 1
    decay_mult: 0
  }
  param {
    lr_mult: 1
    decay_mult: 0
  }
  scale_param {
    bias_term: true
  }
}
layer {
  name: "relu2_1/expand"
  type: "ReLU"
  bottom: "conv2_1/expand"
  top: "conv2_1/expand"
}
layer {
  name: "conv2_1/dwise"
  type: "DepthwiseConvolution"
  bottom: "conv2_1/expand"
  top: "conv2_1/dwise"
  param {
    lr_mult: 1
    decay_mult: 1
  }
  convolution_param {
    num_output: 32
    bias_term: false
    pad: 1
    kernel_size: 3
    group: 32
    stride: 1
    weight_filler {
      type: "msra"
    }
  }
}
layer {
  name: "conv2_1/dwise/bn"
  type: "BatchNorm"
  bottom: "conv2_1/dwise"
  top: "conv2_1/dwise"
  batch_norm_param {
    use_global_stats: true
    eps: 1e-05
  }
}
layer {
  name: "conv2_1/dwise/scale"
  type: "Scale"
  bottom: "conv2_1/dwise"
  top: "conv2_1/dwise"
  param {
    lr_mult: 1
    decay_mult: 0
  }
  param {
    lr_mult: 1
    decay_mult: 0
  }
  scale_param {
    bias_term: true
  }
}
layer {
  name: "relu2_1/dwise"
  type: "ReLU"
  bottom: "conv2_1/dwise"
  top: "conv2_1/dwise"
}
layer {
  name: "conv2_1/linear"
  type: "Convolution"
  bottom: "conv2_1/dwise"
  top: "conv2_1/linear"
  param {
    lr_mult: 1
    decay_mult: 1
  }
  convolution_param {
    num_output: 16
    bias_term: false
    kernel_size: 1
    weight_filler {
      type: "msra"
    }
  }
}
layer {
  name: "conv2_1/linear/bn"
  type: "BatchNorm"
  bottom: "conv2_1/linear"
  top: "conv2_1/linear"
  batch_norm_param {
    use_global_stats: true
    eps: 1e-05
  }
}
layer {
  name: "conv2_1/linear/scale"
  type: "Scale"
  bottom: "conv2_1/linear"
  top: "conv2_1/linear"
  param {
    lr_mult: 1
    decay_mult: 0
  }
  param {
    lr_mult: 1
    decay_mult: 0
  }
  scale_param {
    bias_term: true
  }
}
layer {
  name: "conv2_2/expand"
  type: "Convolution"
  bottom: "conv2_1/linear"
  top: "conv2_2/expand"
  param {
    lr_mult: 1
    decay_mult: 1
  }
  convolution_param {
    num_output: 96
    bias_term: false
    kernel_size: 1
    weight_filler {
      type: "msra"
    }
  }
}
layer {
  name: "conv2_2/expand/bn"
  type: "BatchNorm"
  bottom: "conv2_2/expand"
  top: "conv2_2/expand"
  batch_norm_param {
    use_global_stats: true
    eps: 1e-05
  }
}
layer {
  name: "conv2_2/expand/scale"
  type: "Scale"
  bottom: "conv2_2/expand"
  top: "conv2_2/expand"
  param {
    lr_mult: 1
    decay_mult: 0
  }
  param {
    lr_mult: 1
    decay_mult: 0
  }
  scale_param {
    bias_term: true
  }
}
layer {
  name: "relu2_2/expand"
  type: "ReLU"
  bottom: "conv2_2/expand"
  top: "conv2_2/expand"
}
layer {
  name: "conv2_2/dwise"
  type: "DepthwiseConvolution"
  bottom: "conv2_2/expand"
  top: "conv2_2/dwise"
  param {
    lr_mult: 1
    decay_mult: 1
  }
  convolution_param {
    num_output: 96
    bias_term: false
    pad: 1
    kernel_size: 3
    group: 96
    stride: 2
    weight_filler {
      type: "msra"
    }
  }
}
layer {
  name: "conv2_2/dwise/bn"
  type: "BatchNorm"
  bottom: "conv2_2/dwise"
  top: "conv2_2/dwise"
  batch_norm_param {
    use_global_stats: true
    eps: 1e-05
  }
}
layer {
  name: "conv2_2/dwise/scale"
  type: "Scale"
  bottom: "conv2_2/dwise"
  top: "conv2_2/dwise"
  param {
    lr_mult: 1
    decay_mult: 0
  }
  param {
    lr_mult: 1
    decay_mult: 0
  }
  scale_param {
    bias_term: true
  }
}
layer {
  name: "relu2_2/dwise"
  type: "ReLU"
  bottom: "conv2_2/dwise"
  top: "conv2_2/dwise"
}
layer {
  name: "conv2_2/linear"
  type: "Convolution"
  bottom: "conv2_2/dwise"
  top: "conv2_2/linear"
  param {
    lr_mult: 1
    decay_mult: 1
  }
  convolution_param {
    num_output: 24
    bias_term: false
    kernel_size: 1
    weight_filler {
      type: "msra"
    }
  }
}
layer {
  name: "conv2_2/linear/bn"
  type: "BatchNorm"
  bottom: "conv2_2/linear"
  top: "conv2_2/linear"
  batch_norm_param {
    use_global_stats: true
    eps: 1e-05
  }
}
layer {
  name: "conv2_2/linear/scale"
  type: "Scale"
  bottom: "conv2_2/linear"
  top: "conv2_2/linear"
  param {
    lr_mult: 1
    decay_mult: 0
  }
  param {
    lr_mult: 1
    decay_mult: 0
  }
  scale_param {
    bias_term: true
  }
}
layer {
  name: "conv3_1/expand"
  type: "Convolution"
  bottom: "conv2_2/linear"
  top: "conv3_1/expand"
  param {
    lr_mult: 1
    decay_mult: 1
  }
  convolution_param {
    num_output: 144
    bias_term: false
    kernel_size: 1
    weight_filler {
      type: "msra"
    }
  }
}
layer {
  name: "conv3_1/expand/bn"
  type: "BatchNorm"
  bottom: "conv3_1/expand"
  top: "conv3_1/expand"
  batch_norm_param {
    use_global_stats: true
    eps: 1e-05
  }
}
layer {
  name: "conv3_1/expand/scale"
  type: "Scale"
  bottom: "conv3_1/expand"
  top: "conv3_1/expand"
  param {
    lr_mult: 1
    decay_mult: 0
  }
  param {
    lr_mult: 1
    decay_mult: 0
  }
  scale_param {
    bias_term: true
  }
}
layer {
  name: "relu3_1/expand"
  type: "ReLU"
  bottom: "conv3_1/expand"
  top: "conv3_1/expand"
}
layer {
  name: "conv3_1/dwise"
  type: "DepthwiseConvolution"
  bottom: "conv3_1/expand"
  top: "conv3_1/dwise"
  param {
    lr_mult: 1
    decay_mult: 1
  }
  convolution_param {
    num_output: 144
    bias_term: false
    pad: 1
    kernel_size: 3
    group: 144
    stride: 1
    weight_filler {
      type: "msra"
    }
  }
}
layer {
  name: "conv3_1/dwise/bn"
  type: "BatchNorm"
  bottom: "conv3_1/dwise"
  top: "conv3_1/dwise"
  batch_norm_param {
    use_global_stats: true
    eps: 1e-05
  }
}
layer {
  name: "conv3_1/dwise/scale"
  type: "Scale"
  bottom: "conv3_1/dwise"
  top: "conv3_1/dwise"
  param {
    lr_mult: 1
    decay_mult: 0
  }
  param {
    lr_mult: 1
    decay_mult: 0
  }
  scale_param {
    bias_term: true
  }
}
layer {
  name: "relu3_1/dwise"
  type: "ReLU"
  bottom: "conv3_1/dwise"
  top: "conv3_1/dwise"
}
layer {
  name: "conv3_1/linear"
  type: "Convolution"
  bottom: "conv3_1/dwise"
  top: "conv3_1/linear"
  param {
    lr_mult: 1
    decay_mult: 1
  }
  convolution_param {
    num_output: 24
    bias_term: false
    kernel_size: 1
    weight_filler {
      type: "msra"
    }
  }
}
layer {
  name: "conv3_1/linear/bn"
  type: "BatchNorm"
  bottom: "conv3_1/linear"
  top: "conv3_1/linear"
  batch_norm_param {
    use_global_stats: true
    eps: 1e-05
  }
}
layer {
  name: "conv3_1/linear/scale"
  type: "Scale"
  bottom: "conv3_1/linear"
  top: "conv3_1/linear"
  param {
    lr_mult: 1
    decay_mult: 0
  }
  param {
    lr_mult: 1
    decay_mult: 0
  }
  scale_param {
    bias_term: true
  }
}
layer {
  name: "block_3_1"
  type: "Eltwise"
  bottom: "conv2_2/linear"
  bottom: "conv3_1/linear"
  top: "block_3_1"
}
layer {
  name: "conv3_2/expand"
  type: "Convolution"
  bottom: "block_3_1"
  top: "conv3_2/expand"
  param {
    lr_mult: 1
    decay_mult: 1
  }
  convolution_param {
    num_output: 144
    bias_term: false
    kernel_size: 1
    weight_filler {
      type: "msra"
    }
  }
}
layer {
  name: "conv3_2/expand/bn"
  type: "BatchNorm"
  bottom: "conv3_2/expand"
  top: "conv3_2/expand"
  batch_norm_param {
    use_global_stats: true
    eps: 1e-05
  }
}
layer {
  name: "conv3_2/expand/scale"
  type: "Scale"
  bottom: "conv3_2/expand"
  top: "conv3_2/expand"
  param {
    lr_mult: 1
    decay_mult: 0
  }
  param {
    lr_mult: 1
    decay_mult: 0
  }
  scale_param {
    bias_term: true
  }
}
layer {
  name: "relu3_2/expand"
  type: "ReLU"
  bottom: "conv3_2/expand"
  top: "conv3_2/expand"
}
layer {
  name: "conv3_2/dwise"
  type: "DepthwiseConvolution"
  bottom: "conv3_2/expand"
  top: "conv3_2/dwise"
  param {
    lr_mult: 1
    decay_mult: 1
  }
  convolution_param {
    num_output: 144
    bias_term: false
    pad: 1
    kernel_size: 3
    group: 144
    stride: 2
    weight_filler {
      type: "msra"
    }
  }
}
layer {
  name: "conv3_2/dwise/bn"
  type: "BatchNorm"
  bottom: "conv3_2/dwise"
  top: "conv3_2/dwise"
  batch_norm_param {
    use_global_stats: true
    eps: 1e-05
  }
}
layer {
  name: "conv3_2/dwise/scale"
  type: "Scale"
  bottom: "conv3_2/dwise"
  top: "conv3_2/dwise"
  param {
    lr_mult: 1
    decay_mult: 0
  }
  param {
    lr_mult: 1
    decay_mult: 0
  }
  scale_param {
    bias_term: true
  }
}
layer {
  name: "relu3_2/dwise"
  type: "ReLU"
  bottom: "conv3_2/dwise"
  top: "conv3_2/dwise"
}
layer {
  name: "conv3_2/linear"
  type: "Convolution"
  bottom: "conv3_2/dwise"
  top: "conv3_2/linear"
  param {
    lr_mult: 1
    decay_mult: 1
  }
  convolution_param {
    num_output: 32
    bias_term: false
    kernel_size: 1
    weight_filler {
      type: "msra"
    }
  }
}
layer {
  name: "conv3_2/linear/bn"
  type: "BatchNorm"
  bottom: "conv3_2/linear"
  top: "conv3_2/linear"
  batch_norm_param {
    use_global_stats: true
    eps: 1e-05
  }
}
layer {
  name: "conv3_2/linear/scale"
  type: "Scale"
  bottom: "conv3_2/linear"
  top: "conv3_2/linear"
  param {
    lr_mult: 1
    decay_mult: 0
  }
  param {
    lr_mult: 1
    decay_mult: 0
  }
  scale_param {
    bias_term: true
  }
}
layer {
  name: "conv4_1/expand"
  type: "Convolution"
  bottom: "conv3_2/linear"
  top: "conv4_1/expand"
  param {
    lr_mult: 1
    decay_mult: 1
  }
  convolution_param {
    num_output: 192
    bias_term: false
    kernel_size: 1
    weight_filler {
      type: "msra"
    }
  }
}
layer {
  name: "conv4_1/expand/bn"
  type: "BatchNorm"
  bottom: "conv4_1/expand"
  top: "conv4_1/expand"
  batch_norm_param {
    use_global_stats: true
    eps: 1e-05
  }
}
layer {
  name: "conv4_1/expand/scale"
  type: "Scale"
  bottom: "conv4_1/expand"
  top: "conv4_1/expand"
  param {
    lr_mult: 1
    decay_mult: 0
  }
  param {
    lr_mult: 1
    decay_mult: 0
  }
  scale_param {
    bias_term: true
  }
}
layer {
  name: "relu4_1/expand"
  type: "ReLU"
  bottom: "conv4_1/expand"
  top: "conv4_1/expand"
}
layer {
  name: "conv4_1/dwise"
  type: "DepthwiseConvolution"
  bottom: "conv4_1/expand"
  top: "conv4_1/dwise"
  param {
    lr_mult: 1
    decay_mult: 1
  }
  convolution_param {
    num_output: 192
    bias_term: false
    pad: 1
    kernel_size: 3
    group: 192
    stride: 1
    weight_filler {
      type: "msra"
    }
  }
}
layer {
  name: "conv4_1/dwise/bn"
  type: "BatchNorm"
  bottom: "conv4_1/dwise"
  top: "conv4_1/dwise"
  batch_norm_param {
    use_global_stats: true
    eps: 1e-05
  }
}
layer {
  name: "conv4_1/dwise/scale"
  type: "Scale"
  bottom: "conv4_1/dwise"
  top: "conv4_1/dwise"
  param {
    lr_mult: 1
    decay_mult: 0
  }
  param {
    lr_mult: 1
    decay_mult: 0
  }
  scale_param {
    bias_term: true
  }
}
layer {
  name: "relu4_1/dwise"
  type: "ReLU"
  bottom: "conv4_1/dwise"
  top: "conv4_1/dwise"
}
layer {
  name: "conv4_1/linear"
  type: "Convolution"
  bottom: "conv4_1/dwise"
  top: "conv4_1/linear"
  param {
    lr_mult: 1
    decay_mult: 1
  }
  convolution_param {
    num_output: 32
    bias_term: false
    kernel_size: 1
    weight_filler {
      type: "msra"
    }
  }
}
layer {
  name: "conv4_1/linear/bn"
  type: "BatchNorm"
  bottom: "conv4_1/linear"
  top: "conv4_1/linear"
  batch_norm_param {
    use_global_stats: true
    eps: 1e-05
  }
}
layer {
  name: "conv4_1/linear/scale"
  type: "Scale"
  bottom: "conv4_1/linear"
  top: "conv4_1/linear"
  param {
    lr_mult: 1
    decay_mult: 0
  }
  param {
    lr_mult: 1
    decay_mult: 0
  }
  scale_param {
    bias_term: true
  }
}
layer {
  name: "block_4_1"
  type: "Eltwise"
  bottom: "conv3_2/linear"
  bottom: "conv4_1/linear"
  top: "block_4_1"
}
layer {
  name: "conv4_2/expand"
  type: "Convolution"
  bottom: "block_4_1"
  top: "conv4_2/expand"
  param {
    lr_mult: 1
    decay_mult: 1
  }
  convolution_param {
    num_output: 192
    bias_term: false
    kernel_size: 1
    weight_filler {
      type: "msra"
    }
  }
}
layer {
  name: "conv4_2/expand/bn"
  type: "BatchNorm"
  bottom: "conv4_2/expand"
  top: "conv4_2/expand"
  batch_norm_param {
    use_global_stats: true
    eps: 1e-05
  }
}
layer {
  name: "conv4_2/expand/scale"
  type: "Scale"
  bottom: "conv4_2/expand"
  top: "conv4_2/expand"
  param {
    lr_mult: 1
    decay_mult: 0
  }
  param {
    lr_mult: 1
    decay_mult: 0
  }
  scale_param {
    bias_term: true
  }
}
layer {
  name: "relu4_2/expand"
  type: "ReLU"
  bottom: "conv4_2/expand"
  top: "conv4_2/expand"
}
layer {
  name: "conv4_2/dwise"
  type: "DepthwiseConvolution"
  bottom: "conv4_2/expand"
  top: "conv4_2/dwise"
  param {
    lr_mult: 1
    decay_mult: 1
  }
  convolution_param {
    num_output: 192
    bias_term: false
    pad: 1
    kernel_size: 3
    group: 192
    stride: 1
    weight_filler {
      type: "msra"
    }
  }
}
layer {
  name: "conv4_2/dwise/bn"
  type: "BatchNorm"
  bottom: "conv4_2/dwise"
  top: "conv4_2/dwise"
  batch_norm_param {
    use_global_stats: true
    eps: 1e-05
  }
}
layer {
  name: "conv4_2/dwise/scale"
  type: "Scale"
  bottom: "conv4_2/dwise"
  top: "conv4_2/dwise"
  param {
    lr_mult: 1
    decay_mult: 0
  }
  param {
    lr_mult: 1
    decay_mult: 0
  }
  scale_param {
    bias_term: true
  }
}
layer {
  name: "relu4_2/dwise"
  type: "ReLU"
  bottom: "conv4_2/dwise"
  top: "conv4_2/dwise"
}
layer {
  name: "conv4_2/linear"
  type: "Convolution"
  bottom: "conv4_2/dwise"
  top: "conv4_2/linear"
  param {
    lr_mult: 1
    decay_mult: 1
  }
  convolution_param {
    num_output: 32
    bias_term: false
    kernel_size: 1
    weight_filler {
      type: "msra"
    }
  }
}
layer {
  name: "conv4_2/linear/bn"
  type: "BatchNorm"
  bottom: "conv4_2/linear"
  top: "conv4_2/linear"
  batch_norm_param {
    use_global_stats: true
    eps: 1e-05
  }
}
layer {
  name: "conv4_2/linear/scale"
  type: "Scale"
  bottom: "conv4_2/linear"
  top: "conv4_2/linear"
  param {
    lr_mult: 1
    decay_mult: 0
  }
  param {
    lr_mult: 1
    decay_mult: 0
  }
  scale_param {
    bias_term: true
  }
}
layer {
  name: "block_4_2"
  type: "Eltwise"
  bottom: "block_4_1"
  bottom: "conv4_2/linear"
  top: "block_4_2"
}
layer {
  name: "conv4_3/expand"
  type: "Convolution"
  bottom: "block_4_2"
  top: "conv4_3/expand"
  param {
    lr_mult: 1
    decay_mult: 1
  }
  convolution_param {
    num_output: 192
    bias_term: false
    kernel_size: 1
    weight_filler {
      type: "msra"
    }
  }
}
layer {
  name: "conv4_3/expand/bn"
  type: "BatchNorm"
  bottom: "conv4_3/expand"
  top: "conv4_3/expand"
  batch_norm_param {
    use_global_stats: true
    eps: 1e-05
  }
}
layer {
  name: "conv4_3/expand/scale"
  type: "Scale"
  bottom: "conv4_3/expand"
  top: "conv4_3/expand"
  param {
    lr_mult: 1
    decay_mult: 0
  }
  param {
    lr_mult: 1
    decay_mult: 0
  }
  scale_param {
    bias_term: true
  }
}
layer {
  name: "relu4_3/expand"
  type: "ReLU"
  bottom: "conv4_3/expand"
  top: "conv4_3/expand"
}
layer {
  name: "conv4_3/dwise"
  type: "DepthwiseConvolution"
  bottom: "conv4_3/expand"
  top: "conv4_3/dwise"
  param {
    lr_mult: 1
    decay_mult: 1
  }
  convolution_param {
    num_output: 192
    bias_term: false
    pad: 1
    kernel_size: 3
    group: 192
    stride: 1
    weight_filler {
      type: "msra"
    }
  }
}
layer {
  name: "conv4_3/dwise/bn"
  type: "BatchNorm"
  bottom: "conv4_3/dwise"
  top: "conv4_3/dwise"
  batch_norm_param {
    use_global_stats: true
    eps: 1e-05
  }
}
layer {
  name: "conv4_3/dwise/scale"
  type: "Scale"
  bottom: "conv4_3/dwise"
  top: "conv4_3/dwise"
  param {
    lr_mult: 1
    decay_mult: 0
  }
  param {
    lr_mult: 1
    decay_mult: 0
  }
  scale_param {
    bias_term: true
  }
}
layer {
  name: "relu4_3/dwise"
  type: "ReLU"
  bottom: "conv4_3/dwise"
  top: "conv4_3/dwise"
}
layer {
  name: "conv4_3/linear"
  type: "Convolution"
  bottom: "conv4_3/dwise"
  top: "conv4_3/linear"
  param {
    lr_mult: 1
    decay_mult: 1
  }
  convolution_param {
    num_output: 64
    bias_term: false
    kernel_size: 1
    weight_filler {
      type: "msra"
    }
  }
}
layer {
  name: "conv4_3/linear/bn"
  type: "BatchNorm"
  bottom: "conv4_3/linear"
  top: "conv4_3/linear"
  batch_norm_param {
    use_global_stats: true
    eps: 1e-05
  }
}
layer {
  name: "conv4_3/linear/scale"
  type: "Scale"
  bottom: "conv4_3/linear"
  top: "conv4_3/linear"
  param {
    lr_mult: 1
    decay_mult: 0
  }
  param {
    lr_mult: 1
    decay_mult: 0
  }
  scale_param {
    bias_term: true
  }
}
layer {
  name: "conv4_4/expand"
  type: "Convolution"
  bottom: "conv4_3/linear"
  top: "conv4_4/expand"
  param {
    lr_mult: 1
    decay_mult: 1
  }
  convolution_param {
    num_output: 384
    bias_term: false
    kernel_size: 1
    weight_filler {
      type: "msra"
    }
  }
}
layer {
  name: "conv4_4/expand/bn"
  type: "BatchNorm"
  bottom: "conv4_4/expand"
  top: "conv4_4/expand"
  batch_norm_param {
    use_global_stats: true
    eps: 1e-05
  }
}
layer {
  name: "conv4_4/expand/scale"
  type: "Scale"
  bottom: "conv4_4/expand"
  top: "conv4_4/expand"
  param {
    lr_mult: 1
    decay_mult: 0
  }
  param {
    lr_mult: 1
    decay_mult: 0
  }
  scale_param {
    bias_term: true
  }
}
layer {
  name: "relu4_4/expand"
  type: "ReLU"
  bottom: "conv4_4/expand"
  top: "conv4_4/expand"
}
layer {
  name: "conv4_4/dwise"
  type: "DepthwiseConvolution"
  bottom: "conv4_4/expand"
  top: "conv4_4/dwise"
  param {
    lr_mult: 1
    decay_mult: 1
  }
  convolution_param {
    num_output: 384
    bias_term: false
    pad: 1
    kernel_size: 3
    group: 384
    stride: 1
    weight_filler {
      type: "msra"
    }
  }
}
layer {
  name: "conv4_4/dwise/bn"
  type: "BatchNorm"
  bottom: "conv4_4/dwise"
  top: "conv4_4/dwise"
  batch_norm_param {
    use_global_stats: true
    eps: 1e-05
  }
}
layer {
  name: "conv4_4/dwise/scale"
  type: "Scale"
  bottom: "conv4_4/dwise"
  top: "conv4_4/dwise"
  param {
    lr_mult: 1
    decay_mult: 0
  }
  param {
    lr_mult: 1
    decay_mult: 0
  }
  scale_param {
    bias_term: true
  }
}
layer {
  name: "relu4_4/dwise"
  type: "ReLU"
  bottom: "conv4_4/dwise"
  top: "conv4_4/dwise"
}
layer {
  name: "conv4_4/linear"
  type: "Convolution"
  bottom: "conv4_4/dwise"
  top: "conv4_4/linear"
  param {
    lr_mult: 1
    decay_mult: 1
  }
  convolution_param {
    num_output: 64
    bias_term: false
    kernel_size: 1
    weight_filler {
      type: "msra"
    }
  }
}
layer {
  name: "conv4_4/linear/bn"
  type: "BatchNorm"
  bottom: "conv4_4/linear"
  top: "conv4_4/linear"
  batch_norm_param {
    use_global_stats: true
    eps: 1e-05
  }
}
layer {
  name: "conv4_4/linear/scale"
  type: "Scale"
  bottom: "conv4_4/linear"
  top: "conv4_4/linear"
  param {
    lr_mult: 1
    decay_mult: 0
  }
  param {
    lr_mult: 1
    decay_mult: 0
  }
  scale_param {
    bias_term: true
  }
}
layer {
  name: "block_4_4"
  type: "Eltwise"
  bottom: "conv4_3/linear"
  bottom: "conv4_4/linear"
  top: "block_4_4"
}
layer {
  name: "conv4_5/expand"
  type: "Convolution"
  bottom: "block_4_4"
  top: "conv4_5/expand"
  param {
    lr_mult: 1
    decay_mult: 1
  }
  convolution_param {
    num_output: 384
    bias_term: false
    kernel_size: 1
    weight_filler {
      type: "msra"
    }
  }
}
layer {
  name: "conv4_5/expand/bn"
  type: "BatchNorm"
  bottom: "conv4_5/expand"
  top: "conv4_5/expand"
  batch_norm_param {
    use_global_stats: true
    eps: 1e-05
  }
}
layer {
  name: "conv4_5/expand/scale"
  type: "Scale"
  bottom: "conv4_5/expand"
  top: "conv4_5/expand"
  param {
    lr_mult: 1
    decay_mult: 0
  }
  param {
    lr_mult: 1
    decay_mult: 0
  }
  scale_param {
    bias_term: true
  }
}
layer {
  name: "relu4_5/expand"
  type: "ReLU"
  bottom: "conv4_5/expand"
  top: "conv4_5/expand"
}
layer {
  name: "conv4_5/dwise"
  type: "DepthwiseConvolution"
  bottom: "conv4_5/expand"
  top: "conv4_5/dwise"
  param {
    lr_mult: 1
    decay_mult: 1
  }
  convolution_param {
    num_output: 384
    bias_term: false
    pad: 1
    kernel_size: 3
    group: 384
    stride: 1
    weight_filler {
      type: "msra"
    }
  }
}
layer {
  name: "conv4_5/dwise/bn"
  type: "BatchNorm"
  bottom: "conv4_5/dwise"
  top: "conv4_5/dwise"
  batch_norm_param {
    use_global_stats: true
    eps: 1e-05
  }
}
layer {
  name: "conv4_5/dwise/scale"
  type: "Scale"
  bottom: "conv4_5/dwise"
  top: "conv4_5/dwise"
  param {
    lr_mult: 1
    decay_mult: 0
  }
  param {
    lr_mult: 1
    decay_mult: 0
  }
  scale_param {
    bias_term: true
  }
}
layer {
  name: "relu4_5/dwise"
  type: "ReLU"
  bottom: "conv4_5/dwise"
  top: "conv4_5/dwise"
}
layer {
  name: "conv4_5/linear"
  type: "Convolution"
  bottom: "conv4_5/dwise"
  top: "conv4_5/linear"
  param {
    lr_mult: 1
    decay_mult: 1
  }
  convolution_param {
    num_output: 64
    bias_term: false
    kernel_size: 1
    weight_filler {
      type: "msra"
    }
  }
}
layer {
  name: "conv4_5/linear/bn"
  type: "BatchNorm"
  bottom: "conv4_5/linear"
  top: "conv4_5/linear"
  batch_norm_param {
    use_global_stats: true
    eps: 1e-05
  }
}
layer {
  name: "conv4_5/linear/scale"
  type: "Scale"
  bottom: "conv4_5/linear"
  top: "conv4_5/linear"
  param {
    lr_mult: 1
    decay_mult: 0
  }
  param {
    lr_mult: 1
    decay_mult: 0
  }
  scale_param {
    bias_term: true
  }
}
layer {
  name: "block_4_5"
  type: "Eltwise"
  bottom: "block_4_4"
  bottom: "conv4_5/linear"
  top: "block_4_5"
}
layer {
  name: "conv4_6/expand"
  type: "Convolution"
  bottom: "block_4_5"
  top: "conv4_6/expand"
  param {
    lr_mult: 1
    decay_mult: 1
  }
  convolution_param {
    num_output: 384
    bias_term: false
    kernel_size: 1
    weight_filler {
      type: "msra"
    }
  }
}
layer {
  name: "conv4_6/expand/bn"
  type: "BatchNorm"
  bottom: "conv4_6/expand"
  top: "conv4_6/expand"
  batch_norm_param {
    use_global_stats: true
    eps: 1e-05
  }
}
layer {
  name: "conv4_6/expand/scale"
  type: "Scale"
  bottom: "conv4_6/expand"
  top: "conv4_6/expand"
  param {
    lr_mult: 1
    decay_mult: 0
  }
  param {
    lr_mult: 1
    decay_mult: 0
  }
  scale_param {
    bias_term: true
  }
}
layer {
  name: "relu4_6/expand"
  type: "ReLU"
  bottom: "conv4_6/expand"
  top: "conv4_6/expand"
}
layer {
  name: "conv4_6/dwise"
  type: "DepthwiseConvolution"
  bottom: "conv4_6/expand"
  top: "conv4_6/dwise"
  param {
    lr_mult: 1
    decay_mult: 1
  }
  convolution_param {
    num_output: 384
    bias_term: false
    pad: 1
    kernel_size: 3
    group: 384
    stride: 1
    weight_filler {
      type: "msra"
    }
  }
}
layer {
  name: "conv4_6/dwise/bn"
  type: "BatchNorm"
  bottom: "conv4_6/dwise"
  top: "conv4_6/dwise"
  batch_norm_param {
    use_global_stats: true
    eps: 1e-05
  }
}
layer {
  name: "conv4_6/dwise/scale"
  type: "Scale"
  bottom: "conv4_6/dwise"
  top: "conv4_6/dwise"
  param {
    lr_mult: 1
    decay_mult: 0
  }
  param {
    lr_mult: 1
    decay_mult: 0
  }
  scale_param {
    bias_term: true
  }
}
layer {
  name: "relu4_6/dwise"
  type: "ReLU"
  bottom: "conv4_6/dwise"
  top: "conv4_6/dwise"
}
layer {
  name: "conv4_6/linear"
  type: "Convolution"
  bottom: "conv4_6/dwise"
  top: "conv4_6/linear"
  param {
    lr_mult: 1
    decay_mult: 1
  }
  convolution_param {
    num_output: 64
    bias_term: false
    kernel_size: 1
    weight_filler {
      type: "msra"
    }
  }
}
layer {
  name: "conv4_6/linear/bn"
  type: "BatchNorm"
  bottom: "conv4_6/linear"
  top: "conv4_6/linear"
  batch_norm_param {
    use_global_stats: true
    eps: 1e-05
  }
}
layer {
  name: "conv4_6/linear/scale"
  type: "Scale"
  bottom: "conv4_6/linear"
  top: "conv4_6/linear"
  param {
    lr_mult: 1
    decay_mult: 0
  }
  param {
    lr_mult: 1
    decay_mult: 0
  }
  scale_param {
    bias_term: true
  }
}
layer {
  name: "block_4_6"
  type: "Eltwise"
  bottom: "block_4_5"
  bottom: "conv4_6/linear"
  top: "block_4_6"
}
layer {
  name: "conv4_7/expand"
  type: "Convolution"
  bottom: "block_4_6"
  top: "conv4_7/expand"
  param {
    lr_mult: 1
    decay_mult: 1
  }
  convolution_param {
    num_output: 384
    bias_term: false
    kernel_size: 1
    weight_filler {
      type: "msra"
    }
  }
}
layer {
  name: "conv4_7/expand/bn"
  type: "BatchNorm"
  bottom: "conv4_7/expand"
  top: "conv4_7/expand"
  batch_norm_param {
    use_global_stats: true
    eps: 1e-05
  }
}
layer {
  name: "conv4_7/expand/scale"
  type: "Scale"
  bottom: "conv4_7/expand"
  top: "conv4_7/expand"
  param {
    lr_mult: 1
    decay_mult: 0
  }
  param {
    lr_mult: 1
    decay_mult: 0
  }
  scale_param {
    bias_term: true
  }
}
layer {
  name: "relu4_7/expand"
  type: "ReLU"
  bottom: "conv4_7/expand"
  top: "conv4_7/expand"
}
layer {
  name: "conv4_7/dwise"
  type: "DepthwiseConvolution"
  bottom: "conv4_7/expand"
  top: "conv4_7/dwise"
  param {
    lr_mult: 1
    decay_mult: 1
  }
  convolution_param {
    num_output: 384
    bias_term: false
    pad: 1
    kernel_size: 3
    group: 384
    stride: 2
    weight_filler {
      type: "msra"
    }
  }
}
layer {
  name: "conv4_7/dwise/bn"
  type: "BatchNorm"
  bottom: "conv4_7/dwise"
  top: "conv4_7/dwise"
  batch_norm_param {
    use_global_stats: true
    eps: 1e-05
  }
}
layer {
  name: "conv4_7/dwise/scale"
  type: "Scale"
  bottom: "conv4_7/dwise"
  top: "conv4_7/dwise"
  param {
    lr_mult: 1
    decay_mult: 0
  }
  param {
    lr_mult: 1
    decay_mult: 0
  }
  scale_param {
    bias_term: true
  }
}
layer {
  name: "relu4_7/dwise"
  type: "ReLU"
  bottom: "conv4_7/dwise"
  top: "conv4_7/dwise"
}
layer {
  name: "conv4_7/linear"
  type: "Convolution"
  bottom: "conv4_7/dwise"
  top: "conv4_7/linear"
  param {
    lr_mult: 1
    decay_mult: 1
  }
  convolution_param {
    num_output: 96
    bias_term: false
    kernel_size: 1
    weight_filler {
      type: "msra"
    }
  }
}
layer {
  name: "conv4_7/linear/bn"
  type: "BatchNorm"
  bottom: "conv4_7/linear"
  top: "conv4_7/linear"
  batch_norm_param {
    use_global_stats: true
    eps: 1e-05
  }
}
layer {
  name: "conv4_7/linear/scale"
  type: "Scale"
  bottom: "conv4_7/linear"
  top: "conv4_7/linear"
  param {
    lr_mult: 1
    de
I1002 14:55:12.002746 13372 layer_factory.hpp:77] Creating layer data
I1002 14:55:12.002841 13372 net.cpp:100] Creating Layer data
I1002 14:55:12.002848 13372 net.cpp:408] data -> data
I1002 14:55:12.002873 13372 net.cpp:408] data -> label
I1002 14:55:12.003370 13380 db_lmdb.cpp:35] Opened lmdb examples/GTSDB/GTSDB_trainval_lmdb
I1002 14:55:12.015941 13372 annotated_data_layer.cpp:62] output data size: 1,3,300,510
I1002 14:55:12.018597 13372 net.cpp:150] Setting up data
I1002 14:55:12.018615 13372 net.cpp:157] Top shape: 1 3 300 510 (459000)
I1002 14:55:12.018617 13372 net.cpp:157] Top shape: 1 1 3 8 (24)
I1002 14:55:12.018620 13372 net.cpp:165] Memory required for data: 1836096
I1002 14:55:12.018625 13372 layer_factory.hpp:77] Creating layer data_data_0_split
I1002 14:55:12.018635 13372 net.cpp:100] Creating Layer data_data_0_split
I1002 14:55:12.018640 13372 net.cpp:434] data_data_0_split <- data
I1002 14:55:12.018651 13372 net.cpp:408] data_data_0_split -> data_data_0_split_0
I1002 14:55:12.018661 13372 net.cpp:408] data_data_0_split -> data_data_0_split_1
I1002 14:55:12.018667 13372 net.cpp:408] data_data_0_split -> data_data_0_split_2
I1002 14:55:12.018674 13372 net.cpp:408] data_data_0_split -> data_data_0_split_3
I1002 14:55:12.018682 13372 net.cpp:408] data_data_0_split -> data_data_0_split_4
I1002 14:55:12.018688 13372 net.cpp:408] data_data_0_split -> data_data_0_split_5
I1002 14:55:12.018695 13372 net.cpp:408] data_data_0_split -> data_data_0_split_6
I1002 14:55:12.018764 13372 net.cpp:150] Setting up data_data_0_split
I1002 14:55:12.018769 13372 net.cpp:157] Top shape: 1 3 300 510 (459000)
I1002 14:55:12.018771 13372 net.cpp:157] Top shape: 1 3 300 510 (459000)
I1002 14:55:12.018774 13372 net.cpp:157] Top shape: 1 3 300 510 (459000)
I1002 14:55:12.018777 13372 net.cpp:157] Top shape: 1 3 300 510 (459000)
I1002 14:55:12.018779 13372 net.cpp:157] Top shape: 1 3 300 510 (459000)
I1002 14:55:12.018781 13372 net.cpp:157] Top shape: 1 3 300 510 (459000)
I1002 14:55:12.018784 13372 net.cpp:157] Top shape: 1 3 300 510 (459000)
I1002 14:55:12.018786 13372 net.cpp:165] Memory required for data: 14688096
I1002 14:55:12.018788 13372 layer_factory.hpp:77] Creating layer conv1
I1002 14:55:12.018801 13372 net.cpp:100] Creating Layer conv1
I1002 14:55:12.018805 13372 net.cpp:434] conv1 <- data_data_0_split_0
I1002 14:55:12.018810 13372 net.cpp:408] conv1 -> conv1
I1002 14:55:12.339649 13372 net.cpp:150] Setting up conv1
I1002 14:55:12.339680 13372 net.cpp:157] Top shape: 1 32 150 255 (1224000)
I1002 14:55:12.339682 13372 net.cpp:165] Memory required for data: 19584096
I1002 14:55:12.339716 13372 layer_factory.hpp:77] Creating layer conv1/bn
I1002 14:55:12.339732 13372 net.cpp:100] Creating Layer conv1/bn
I1002 14:55:12.339736 13372 net.cpp:434] conv1/bn <- conv1
I1002 14:55:12.339741 13372 net.cpp:395] conv1/bn -> conv1 (in-place)
I1002 14:55:12.340441 13372 net.cpp:150] Setting up conv1/bn
I1002 14:55:12.340461 13372 net.cpp:157] Top shape: 1 32 150 255 (1224000)
I1002 14:55:12.340462 13372 net.cpp:165] Memory required for data: 24480096
I1002 14:55:12.340477 13372 layer_factory.hpp:77] Creating layer conv1/scale
I1002 14:55:12.340488 13372 net.cpp:100] Creating Layer conv1/scale
I1002 14:55:12.340492 13372 net.cpp:434] conv1/scale <- conv1
I1002 14:55:12.340495 13372 net.cpp:395] conv1/scale -> conv1 (in-place)
I1002 14:55:12.340538 13372 layer_factory.hpp:77] Creating layer conv1/scale
I1002 14:55:12.340643 13372 net.cpp:150] Setting up conv1/scale
I1002 14:55:12.340647 13372 net.cpp:157] Top shape: 1 32 150 255 (1224000)
I1002 14:55:12.340649 13372 net.cpp:165] Memory required for data: 29376096
I1002 14:55:12.340656 13372 layer_factory.hpp:77] Creating layer relu1
I1002 14:55:12.340659 13372 net.cpp:100] Creating Layer relu1
I1002 14:55:12.340662 13372 net.cpp:434] relu1 <- conv1
I1002 14:55:12.340664 13372 net.cpp:395] relu1 -> conv1 (in-place)
I1002 14:55:12.340950 13372 net.cpp:150] Setting up relu1
I1002 14:55:12.340955 13372 net.cpp:157] Top shape: 1 32 150 255 (1224000)
I1002 14:55:12.340957 13372 net.cpp:165] Memory required for data: 34272096
I1002 14:55:12.340960 13372 layer_factory.hpp:77] Creating layer conv2_1/expand
I1002 14:55:12.340965 13372 net.cpp:100] Creating Layer conv2_1/expand
I1002 14:55:12.340967 13372 net.cpp:434] conv2_1/expand <- conv1
I1002 14:55:12.340971 13372 net.cpp:408] conv2_1/expand -> conv2_1/expand
I1002 14:55:12.342182 13372 net.cpp:150] Setting up conv2_1/expand
I1002 14:55:12.342191 13372 net.cpp:157] Top shape: 1 32 150 255 (1224000)
I1002 14:55:12.342195 13372 net.cpp:165] Memory required for data: 39168096
I1002 14:55:12.342200 13372 layer_factory.hpp:77] Creating layer conv2_1/expand/bn
I1002 14:55:12.342206 13372 net.cpp:100] Creating Layer conv2_1/expand/bn
I1002 14:55:12.342209 13372 net.cpp:434] conv2_1/expand/bn <- conv2_1/expand
I1002 14:55:12.342213 13372 net.cpp:395] conv2_1/expand/bn -> conv2_1/expand (in-place)
I1002 14:55:12.342342 13372 net.cpp:150] Setting up conv2_1/expand/bn
I1002 14:55:12.342346 13372 net.cpp:157] Top shape: 1 32 150 255 (1224000)
I1002 14:55:12.342348 13372 net.cpp:165] Memory required for data: 44064096
I1002 14:55:12.342355 13372 layer_factory.hpp:77] Creating layer conv2_1/expand/scale
I1002 14:55:12.342360 13372 net.cpp:100] Creating Layer conv2_1/expand/scale
I1002 14:55:12.342363 13372 net.cpp:434] conv2_1/expand/scale <- conv2_1/expand
I1002 14:55:12.342365 13372 net.cpp:395] conv2_1/expand/scale -> conv2_1/expand (in-place)
I1002 14:55:12.342388 13372 layer_factory.hpp:77] Creating layer conv2_1/expand/scale
I1002 14:55:12.342487 13372 net.cpp:150] Setting up conv2_1/expand/scale
I1002 14:55:12.342492 13372 net.cpp:157] Top shape: 1 32 150 255 (1224000)
I1002 14:55:12.342494 13372 net.cpp:165] Memory required for data: 48960096
I1002 14:55:12.342499 13372 layer_factory.hpp:77] Creating layer relu2_1/expand
I1002 14:55:12.342502 13372 net.cpp:100] Creating Layer relu2_1/expand
I1002 14:55:12.342505 13372 net.cpp:434] relu2_1/expand <- conv2_1/expand
I1002 14:55:12.342509 13372 net.cpp:395] relu2_1/expand -> conv2_1/expand (in-place)
I1002 14:55:12.342769 13372 net.cpp:150] Setting up relu2_1/expand
I1002 14:55:12.342774 13372 net.cpp:157] Top shape: 1 32 150 255 (1224000)
I1002 14:55:12.342777 13372 net.cpp:165] Memory required for data: 53856096
I1002 14:55:12.342778 13372 layer_factory.hpp:77] Creating layer conv2_1/dwise
I1002 14:55:12.342783 13372 net.cpp:100] Creating Layer conv2_1/dwise
I1002 14:55:12.342787 13372 net.cpp:434] conv2_1/dwise <- conv2_1/expand
I1002 14:55:12.342789 13372 net.cpp:408] conv2_1/dwise -> conv2_1/dwise
I1002 14:55:12.342907 13372 net.cpp:150] Setting up conv2_1/dwise
I1002 14:55:12.342912 13372 net.cpp:157] Top shape: 1 32 150 255 (1224000)
I1002 14:55:12.342914 13372 net.cpp:165] Memory required for data: 58752096
I1002 14:55:12.342916 13372 layer_factory.hpp:77] Creating layer conv2_1/dwise/bn
I1002 14:55:12.342921 13372 net.cpp:100] Creating Layer conv2_1/dwise/bn
I1002 14:55:12.342923 13372 net.cpp:434] conv2_1/dwise/bn <- conv2_1/dwise
I1002 14:55:12.342926 13372 net.cpp:395] conv2_1/dwise/bn -> conv2_1/dwise (in-place)
I1002 14:55:12.343047 13372 net.cpp:150] Setting up conv2_1/dwise/bn
I1002 14:55:12.343051 13372 net.cpp:157] Top shape: 1 32 150 255 (1224000)
I1002 14:55:12.343053 13372 net.cpp:165] Memory required for data: 63648096
I1002 14:55:12.343056 13372 layer_factory.hpp:77] Creating layer conv2_1/dwise/scale
I1002 14:55:12.343060 13372 net.cpp:100] Creating Layer conv2_1/dwise/scale
I1002 14:55:12.343062 13372 net.cpp:434] conv2_1/dwise/scale <- conv2_1/dwise
I1002 14:55:12.343065 13372 net.cpp:395] conv2_1/dwise/scale -> conv2_1/dwise (in-place)
I1002 14:55:12.343092 13372 layer_factory.hpp:77] Creating layer conv2_1/dwise/scale
I1002 14:55:12.343181 13372 net.cpp:150] Setting up conv2_1/dwise/scale
I1002 14:55:12.343186 13372 net.cpp:157] Top shape: 1 32 150 255 (1224000)
I1002 14:55:12.343190 13372 net.cpp:165] Memory required for data: 68544096
I1002 14:55:12.343197 13372 layer_factory.hpp:77] Creating layer relu2_1/dwise
I1002 14:55:12.343201 13372 net.cpp:100] Creating Layer relu2_1/dwise
I1002 14:55:12.343204 13372 net.cpp:434] relu2_1/dwise <- conv2_1/dwise
I1002 14:55:12.343206 13372 net.cpp:395] relu2_1/dwise -> conv2_1/dwise (in-place)
I1002 14:55:12.343466 13372 net.cpp:150] Setting up relu2_1/dwise
I1002 14:55:12.343472 13372 net.cpp:157] Top shape: 1 32 150 255 (1224000)
I1002 14:55:12.343473 13372 net.cpp:165] Memory required for data: 73440096
I1002 14:55:12.343477 13372 layer_factory.hpp:77] Creating layer conv2_1/linear
I1002 14:55:12.343482 13372 net.cpp:100] Creating Layer conv2_1/linear
I1002 14:55:12.343483 13372 net.cpp:434] conv2_1/linear <- conv2_1/dwise
I1002 14:55:12.343487 13372 net.cpp:408] conv2_1/linear -> conv2_1/linear
I1002 14:55:12.344607 13372 net.cpp:150] Setting up conv2_1/linear
I1002 14:55:12.344614 13372 net.cpp:157] Top shape: 1 16 150 255 (612000)
I1002 14:55:12.344615 13372 net.cpp:165] Memory required for data: 75888096
I1002 14:55:12.344619 13372 layer_factory.hpp:77] Creating layer conv2_1/linear/bn
I1002 14:55:12.344624 13372 net.cpp:100] Creating Layer conv2_1/linear/bn
I1002 14:55:12.344626 13372 net.cpp:434] conv2_1/linear/bn <- conv2_1/linear
I1002 14:55:12.344630 13372 net.cpp:395] conv2_1/linear/bn -> conv2_1/linear (in-place)
I1002 14:55:12.344761 13372 net.cpp:150] Setting up conv2_1/linear/bn
I1002 14:55:12.344766 13372 net.cpp:157] Top shape: 1 16 150 255 (612000)
I1002 14:55:12.344769 13372 net.cpp:165] Memory required for data: 78336096
I1002 14:55:12.344775 13372 layer_factory.hpp:77] Creating layer conv2_1/linear/scale
I1002 14:55:12.344789 13372 net.cpp:100] Creating Layer conv2_1/linear/scale
I1002 14:55:12.344792 13372 net.cpp:434] conv2_1/linear/scale <- conv2_1/linear
I1002 14:55:12.344795 13372 net.cpp:395] conv2_1/linear/scale -> conv2_1/linear (in-place)
I1002 14:55:12.344820 13372 layer_factory.hpp:77] Creating layer conv2_1/linear/scale
I1002 14:55:12.344907 13372 net.cpp:150] Setting up conv2_1/linear/scale
I1002 14:55:12.344913 13372 net.cpp:157] Top shape: 1 16 150 255 (612000)
I1002 14:55:12.344914 13372 net.cpp:165] Memory required for data: 80784096
I1002 14:55:12.344918 13372 layer_factory.hpp:77] Creating layer conv2_2/expand
I1002 14:55:12.344923 13372 net.cpp:100] Creating Layer conv2_2/expand
I1002 14:55:12.344924 13372 net.cpp:434] conv2_2/expand <- conv2_1/linear
I1002 14:55:12.344928 13372 net.cpp:408] conv2_2/expand -> conv2_2/expand
I1002 14:55:12.346506 13372 net.cpp:150] Setting up conv2_2/expand
I1002 14:55:12.346514 13372 net.cpp:157] Top shape: 1 96 150 255 (3672000)
I1002 14:55:12.346518 13372 net.cpp:165] Memory required for data: 95472096
I1002 14:55:12.346520 13372 layer_factory.hpp:77] Creating layer conv2_2/expand/bn
I1002 14:55:12.346524 13372 net.cpp:100] Creating Layer conv2_2/expand/bn
I1002 14:55:12.346527 13372 net.cpp:434] conv2_2/expand/bn <- conv2_2/expand
I1002 14:55:12.346531 13372 net.cpp:395] conv2_2/expand/bn -> conv2_2/expand (in-place)
I1002 14:55:12.346663 13372 net.cpp:150] Setting up conv2_2/expand/bn
I1002 14:55:12.346668 13372 net.cpp:157] Top shape: 1 96 150 255 (3672000)
I1002 14:55:12.346669 13372 net.cpp:165] Memory required for data: 110160096
I1002 14:55:12.346673 13372 layer_factory.hpp:77] Creating layer conv2_2/expand/scale
I1002 14:55:12.346678 13372 net.cpp:100] Creating Layer conv2_2/expand/scale
I1002 14:55:12.346680 13372 net.cpp:434] conv2_2/expand/scale <- conv2_2/expand
I1002 14:55:12.346683 13372 net.cpp:395] conv2_2/expand/scale -> conv2_2/expand (in-place)
I1002 14:55:12.346705 13372 layer_factory.hpp:77] Creating layer conv2_2/expand/scale
I1002 14:55:12.347208 13372 net.cpp:150] Setting up conv2_2/expand/scale
I1002 14:55:12.347214 13372 net.cpp:157] Top shape: 1 96 150 255 (3672000)
I1002 14:55:12.347216 13372 net.cpp:165] Memory required for data: 124848096
I1002 14:55:12.347220 13372 layer_factory.hpp:77] Creating layer relu2_2/expand
I1002 14:55:12.347224 13372 net.cpp:100] Creating Layer relu2_2/expand
I1002 14:55:12.347226 13372 net.cpp:434] relu2_2/expand <- conv2_2/expand
I1002 14:55:12.347229 13372 net.cpp:395] relu2_2/expand -> conv2_2/expand (in-place)
I1002 14:55:12.347501 13372 net.cpp:150] Setting up relu2_2/expand
I1002 14:55:12.347506 13372 net.cpp:157] Top shape: 1 96 150 255 (3672000)
I1002 14:55:12.347507 13372 net.cpp:165] Memory required for data: 139536096
I1002 14:55:12.347509 13372 layer_factory.hpp:77] Creating layer conv2_2/dwise
I1002 14:55:12.347515 13372 net.cpp:100] Creating Layer conv2_2/dwise
I1002 14:55:12.347517 13372 net.cpp:434] conv2_2/dwise <- conv2_2/expand
I1002 14:55:12.347522 13372 net.cpp:408] conv2_2/dwise -> conv2_2/dwise
I1002 14:55:12.347651 13372 net.cpp:150] Setting up conv2_2/dwise
I1002 14:55:12.347656 13372 net.cpp:157] Top shape: 1 96 75 128 (921600)
I1002 14:55:12.347658 13372 net.cpp:165] Memory required for data: 143222496
I1002 14:55:12.347662 13372 layer_factory.hpp:77] Creating layer conv2_2/dwise/bn
I1002 14:55:12.347667 13372 net.cpp:100] Creating Layer conv2_2/dwise/bn
I1002 14:55:12.347671 13372 net.cpp:434] conv2_2/dwise/bn <- conv2_2/dwise
I1002 14:55:12.347676 13372 net.cpp:395] conv2_2/dwise/bn -> conv2_2/dwise (in-place)
I1002 14:55:12.348209 13372 net.cpp:150] Setting up conv2_2/dwise/bn
I1002 14:55:12.348215 13372 net.cpp:157] Top shape: 1 96 75 128 (921600)
I1002 14:55:12.348217 13372 net.cpp:165] Memory required for data: 146908896
I1002 14:55:12.348227 13372 layer_factory.hpp:77] Creating layer conv2_2/dwise/scale
I1002 14:55:12.348232 13372 net.cpp:100] Creating Layer conv2_2/dwise/scale
I1002 14:55:12.348237 13372 net.cpp:434] conv2_2/dwise/scale <- conv2_2/dwise
I1002 14:55:12.348250 13372 net.cpp:395] conv2_2/dwise/scale -> conv2_2/dwise (in-place)
I1002 14:55:12.348281 13372 layer_factory.hpp:77] Creating layer conv2_2/dwise/scale
I1002 14:55:12.348356 13372 net.cpp:150] Setting up conv2_2/dwise/scale
I1002 14:55:12.348359 13372 net.cpp:157] Top shape: 1 96 75 128 (921600)
I1002 14:55:12.348362 13372 net.cpp:165] Memory required for data: 150595296
I1002 14:55:12.348368 13372 layer_factory.hpp:77] Creating layer relu2_2/dwise
I1002 14:55:12.348372 13372 net.cpp:100] Creating Layer relu2_2/dwise
I1002 14:55:12.348374 13372 net.cpp:434] relu2_2/dwise <- conv2_2/dwise
I1002 14:55:12.348377 13372 net.cpp:395] relu2_2/dwise -> conv2_2/dwise (in-place)
I1002 14:55:12.348753 13372 net.cpp:150] Setting up relu2_2/dwise
I1002 14:55:12.348760 13372 net.cpp:157] Top shape: 1 96 75 128 (921600)
I1002 14:55:12.348762 13372 net.cpp:165] Memory required for data: 154281696
I1002 14:55:12.348764 13372 layer_factory.hpp:77] Creating layer conv2_2/linear
I1002 14:55:12.348770 13372 net.cpp:100] Creating Layer conv2_2/linear
I1002 14:55:12.348773 13372 net.cpp:434] conv2_2/linear <- conv2_2/dwise
I1002 14:55:12.348776 13372 net.cpp:408] conv2_2/linear -> conv2_2/linear
I1002 14:55:12.349961 13372 net.cpp:150] Setting up conv2_2/linear
I1002 14:55:12.349968 13372 net.cpp:157] Top shape: 1 24 75 128 (230400)
I1002 14:55:12.349970 13372 net.cpp:165] Memory required for data: 155203296
I1002 14:55:12.349973 13372 layer_factory.hpp:77] Creating layer conv2_2/linear/bn
I1002 14:55:12.349978 13372 net.cpp:100] Creating Layer conv2_2/linear/bn
I1002 14:55:12.349982 13372 net.cpp:434] conv2_2/linear/bn <- conv2_2/linear
I1002 14:55:12.349984 13372 net.cpp:395] conv2_2/linear/bn -> conv2_2/linear (in-place)
I1002 14:55:12.350111 13372 net.cpp:150] Setting up conv2_2/linear/bn
I1002 14:55:12.350116 13372 net.cpp:157] Top shape: 1 24 75 128 (230400)
I1002 14:55:12.350117 13372 net.cpp:165] Memory required for data: 156124896
I1002 14:55:12.350121 13372 layer_factory.hpp:77] Creating layer conv2_2/linear/scale
I1002 14:55:12.350126 13372 net.cpp:100] Creating Layer conv2_2/linear/scale
I1002 14:55:12.350126 13372 net.cpp:434] conv2_2/linear/scale <- conv2_2/linear
I1002 14:55:12.350131 13372 net.cpp:395] conv2_2/linear/scale -> conv2_2/linear (in-place)
I1002 14:55:12.350152 13372 layer_factory.hpp:77] Creating layer conv2_2/linear/scale
I1002 14:55:12.350221 13372 net.cpp:150] Setting up conv2_2/linear/scale
I1002 14:55:12.350225 13372 net.cpp:157] Top shape: 1 24 75 128 (230400)
I1002 14:55:12.350227 13372 net.cpp:165] Memory required for data: 157046496
I1002 14:55:12.350230 13372 layer_factory.hpp:77] Creating layer conv2_2/linear_conv2_2/linear/scale_0_split
I1002 14:55:12.350234 13372 net.cpp:100] Creating Layer conv2_2/linear_conv2_2/linear/scale_0_split
I1002 14:55:12.350236 13372 net.cpp:434] conv2_2/linear_conv2_2/linear/scale_0_split <- conv2_2/linear
I1002 14:55:12.350240 13372 net.cpp:408] conv2_2/linear_conv2_2/linear/scale_0_split -> conv2_2/linear_conv2_2/linear/scale_0_split_0
I1002 14:55:12.350246 13372 net.cpp:408] conv2_2/linear_conv2_2/linear/scale_0_split -> conv2_2/linear_conv2_2/linear/scale_0_split_1
I1002 14:55:12.350270 13372 net.cpp:150] Setting up conv2_2/linear_conv2_2/linear/scale_0_split
I1002 14:55:12.350273 13372 net.cpp:157] Top shape: 1 24 75 128 (230400)
I1002 14:55:12.350276 13372 net.cpp:157] Top shape: 1 24 75 128 (230400)
I1002 14:55:12.350277 13372 net.cpp:165] Memory required for data: 158889696
I1002 14:55:12.350280 13372 layer_factory.hpp:77] Creating layer conv3_1/expand
I1002 14:55:12.350283 13372 net.cpp:100] Creating Layer conv3_1/expand
I1002 14:55:12.350286 13372 net.cpp:434] conv3_1/expand <- conv2_2/linear_conv2_2/linear/scale_0_split_0
I1002 14:55:12.350291 13372 net.cpp:408] conv3_1/expand -> conv3_1/expand
I1002 14:55:12.351346 13372 net.cpp:150] Setting up conv3_1/expand
I1002 14:55:12.351354 13372 net.cpp:157] Top shape: 1 144 75 128 (1382400)
I1002 14:55:12.351356 13372 net.cpp:165] Memory required for data: 164419296
I1002 14:55:12.351369 13372 layer_factory.hpp:77] Creating layer conv3_1/expand/bn
I1002 14:55:12.351374 13372 net.cpp:100] Creating Layer conv3_1/expand/bn
I1002 14:55:12.351377 13372 net.cpp:434] conv3_1/expand/bn <- conv3_1/expand
I1002 14:55:12.351380 13372 net.cpp:395] conv3_1/expand/bn -> conv3_1/expand (in-place)
I1002 14:55:12.351506 13372 net.cpp:150] Setting up conv3_1/expand/bn
I1002 14:55:12.351511 13372 net.cpp:157] Top shape: 1 144 75 128 (1382400)
I1002 14:55:12.351512 13372 net.cpp:165] Memory required for data: 169948896
I1002 14:55:12.351517 13372 layer_factory.hpp:77] Creating layer conv3_1/expand/scale
I1002 14:55:12.351521 13372 net.cpp:100] Creating Layer conv3_1/expand/scale
I1002 14:55:12.351523 13372 net.cpp:434] conv3_1/expand/scale <- conv3_1/expand
I1002 14:55:12.351526 13372 net.cpp:395] conv3_1/expand/scale -> conv3_1/expand (in-place)
I1002 14:55:12.351549 13372 layer_factory.hpp:77] Creating layer conv3_1/expand/scale
I1002 14:55:12.351619 13372 net.cpp:150] Setting up conv3_1/expand/scale
I1002 14:55:12.351624 13372 net.cpp:157] Top shape: 1 144 75 128 (1382400)
I1002 14:55:12.351625 13372 net.cpp:165] Memory required for data: 175478496
I1002 14:55:12.351629 13372 layer_factory.hpp:77] Creating layer relu3_1/expand
I1002 14:55:12.351636 13372 net.cpp:100] Creating Layer relu3_1/expand
I1002 14:55:12.351639 13372 net.cpp:434] relu3_1/expand <- conv3_1/expand
I1002 14:55:12.351641 13372 net.cpp:395] relu3_1/expand -> conv3_1/expand (in-place)
I1002 14:55:12.351904 13372 net.cpp:150] Setting up relu3_1/expand
I1002 14:55:12.351909 13372 net.cpp:157] Top shape: 1 144 75 128 (1382400)
I1002 14:55:12.351912 13372 net.cpp:165] Memory required for data: 181008096
I1002 14:55:12.351913 13372 layer_factory.hpp:77] Creating layer conv3_1/dwise
I1002 14:55:12.351918 13372 net.cpp:100] Creating Layer conv3_1/dwise
I1002 14:55:12.351920 13372 net.cpp:434] conv3_1/dwise <- conv3_1/expand
I1002 14:55:12.351924 13372 net.cpp:408] conv3_1/dwise -> conv3_1/dwise
I1002 14:55:12.352053 13372 net.cpp:150] Setting up conv3_1/dwise
I1002 14:55:12.352058 13372 net.cpp:157] Top shape: 1 144 75 128 (1382400)
I1002 14:55:12.352061 13372 net.cpp:165] Memory required for data: 186537696
I1002 14:55:12.352062 13372 layer_factory.hpp:77] Creating layer conv3_1/dwise/bn
I1002 14:55:12.352066 13372 net.cpp:100] Creating Layer conv3_1/dwise/bn
I1002 14:55:12.352068 13372 net.cpp:434] conv3_1/dwise/bn <- conv3_1/dwise
I1002 14:55:12.352072 13372 net.cpp:395] conv3_1/dwise/bn -> conv3_1/dwise (in-place)
I1002 14:55:12.352195 13372 net.cpp:150] Setting up conv3_1/dwise/bn
I1002 14:55:12.352200 13372 net.cpp:157] Top shape: 1 144 75 128 (1382400)
I1002 14:55:12.352201 13372 net.cpp:165] Memory required for data: 192067296
I1002 14:55:12.352205 13372 layer_factory.hpp:77] Creating layer conv3_1/dwise/scale
I1002 14:55:12.352210 13372 net.cpp:100] Creating Layer conv3_1/dwise/scale
I1002 14:55:12.352211 13372 net.cpp:434] conv3_1/dwise/scale <- conv3_1/dwise
I1002 14:55:12.352216 13372 net.cpp:395] conv3_1/dwise/scale -> conv3_1/dwise (in-place)
I1002 14:55:12.352242 13372 layer_factory.hpp:77] Creating layer conv3_1/dwise/scale
I1002 14:55:12.352314 13372 net.cpp:150] Setting up conv3_1/dwise/scale
I1002 14:55:12.352319 13372 net.cpp:157] Top shape: 1 144 75 128 (1382400)
I1002 14:55:12.352322 13372 net.cpp:165] Memory required for data: 197596896
I1002 14:55:12.352327 13372 layer_factory.hpp:77] Creating layer relu3_1/dwise
I1002 14:55:12.352332 13372 net.cpp:100] Creating Layer relu3_1/dwise
I1002 14:55:12.352336 13372 net.cpp:434] relu3_1/dwise <- conv3_1/dwise
I1002 14:55:12.352341 13372 net.cpp:395] relu3_1/dwise -> conv3_1/dwise (in-place)
I1002 14:55:12.352756 13372 net.cpp:150] Setting up relu3_1/dwise
I1002 14:55:12.352763 13372 net.cpp:157] Top shape: 1 144 75 128 (1382400)
I1002 14:55:12.352766 13372 net.cpp:165] Memory required for data: 203126496
I1002 14:55:12.352768 13372 layer_factory.hpp:77] Creating layer conv3_1/linear
I1002 14:55:12.352777 13372 net.cpp:100] Creating Layer conv3_1/linear
I1002 14:55:12.352782 13372 net.cpp:434] conv3_1/linear <- conv3_1/dwise
I1002 14:55:12.352797 13372 net.cpp:408] conv3_1/linear -> conv3_1/linear
I1002 14:55:12.353880 13372 net.cpp:150] Setting up conv3_1/linear
I1002 14:55:12.353888 13372 net.cpp:157] Top shape: 1 24 75 128 (230400)
I1002 14:55:12.353891 13372 net.cpp:165] Memory required for data: 204048096
I1002 14:55:12.353896 13372 layer_factory.hpp:77] Creating layer conv3_1/linear/bn
I1002 14:55:12.353904 13372 net.cpp:100] Creating Layer conv3_1/linear/bn
I1002 14:55:12.353909 13372 net.cpp:434] conv3_1/linear/bn <- conv3_1/linear
I1002 14:55:12.353914 13372 net.cpp:395] conv3_1/linear/bn -> conv3_1/linear (in-place)
I1002 14:55:12.354045 13372 net.cpp:150] Setting up conv3_1/linear/bn
I1002 14:55:12.354049 13372 net.cpp:157] Top shape: 1 24 75 128 (230400)
I1002 14:55:12.354051 13372 net.cpp:165] Memory required for data: 204969696
I1002 14:55:12.354058 13372 layer_factory.hpp:77] Creating layer conv3_1/linear/scale
I1002 14:55:12.354063 13372 net.cpp:100] Creating Layer conv3_1/linear/scale
I1002 14:55:12.354068 13372 net.cpp:434] conv3_1/linear/scale <- conv3_1/linear
I1002 14:55:12.354073 13372 net.cpp:395] conv3_1/linear/scale -> conv3_1/linear (in-place)
I1002 14:55:12.354105 13372 layer_factory.hpp:77] Creating layer conv3_1/linear/scale
I1002 14:55:12.354184 13372 net.cpp:150] Setting up conv3_1/linear/scale
I1002 14:55:12.354189 13372 net.cpp:157] Top shape: 1 24 75 128 (230400)
I1002 14:55:12.354192 13372 net.cpp:165] Memory required for data: 205891296
I1002 14:55:12.354197 13372 layer_factory.hpp:77] Creating layer block_3_1
I1002 14:55:12.354205 13372 net.cpp:100] Creating Layer block_3_1
I1002 14:55:12.354208 13372 net.cpp:434] block_3_1 <- conv2_2/linear_conv2_2/linear/scale_0_split_1
I1002 14:55:12.354213 13372 net.cpp:434] block_3_1 <- conv3_1/linear
I1002 14:55:12.354218 13372 net.cpp:408] block_3_1 -> block_3_1
I1002 14:55:12.354240 13372 net.cpp:150] Setting up block_3_1
I1002 14:55:12.354244 13372 net.cpp:157] Top shape: 1 24 75 128 (230400)
I1002 14:55:12.354248 13372 net.cpp:165] Memory required for data: 206812896
I1002 14:55:12.354250 13372 layer_factory.hpp:77] Creating layer conv3_2/expand
I1002 14:55:12.354257 13372 net.cpp:100] Creating Layer conv3_2/expand
I1002 14:55:12.354261 13372 net.cpp:434] conv3_2/expand <- block_3_1
I1002 14:55:12.354269 13372 net.cpp:408] conv3_2/expand -> conv3_2/expand
I1002 14:55:12.355342 13372 net.cpp:150] Setting up conv3_2/expand
I1002 14:55:12.355350 13372 net.cpp:157] Top shape: 1 144 75 128 (1382400)
I1002 14:55:12.355353 13372 net.cpp:165] Memory required for data: 212342496
I1002 14:55:12.355360 13372 layer_factory.hpp:77] Creating layer conv3_2/expand/bn
I1002 14:55:12.355366 13372 net.cpp:100] Creating Layer conv3_2/expand/bn
I1002 14:55:12.355370 13372 net.cpp:434] conv3_2/expand/bn <- conv3_2/expand
I1002 14:55:12.355376 13372 net.cpp:395] conv3_2/expand/bn -> conv3_2/expand (in-place)
I1002 14:55:12.355507 13372 net.cpp:150] Setting up conv3_2/expand/bn
I1002 14:55:12.355511 13372 net.cpp:157] Top shape: 1 144 75 128 (1382400)
I1002 14:55:12.355515 13372 net.cpp:165] Memory required for data: 217872096
I1002 14:55:12.355520 13372 layer_factory.hpp:77] Creating layer conv3_2/expand/scale
I1002 14:55:12.355527 13372 net.cpp:100] Creating Layer conv3_2/expand/scale
I1002 14:55:12.355531 13372 net.cpp:434] conv3_2/expand/scale <- conv3_2/expand
I1002 14:55:12.355536 13372 net.cpp:395] conv3_2/expand/scale -> conv3_2/expand (in-place)
I1002 14:55:12.355566 13372 layer_factory.hpp:77] Creating layer conv3_2/expand/scale
I1002 14:55:12.355643 13372 net.cpp:150] Setting up conv3_2/expand/scale
I1002 14:55:12.355648 13372 net.cpp:157] Top shape: 1 144 75 128 (1382400)
I1002 14:55:12.355650 13372 net.cpp:165] Memory required for data: 223401696
I1002 14:55:12.355664 13372 layer_factory.hpp:77] Creating layer relu3_2/expand
I1002 14:55:12.355669 13372 net.cpp:100] Creating Layer relu3_2/expand
I1002 14:55:12.355672 13372 net.cpp:434] relu3_2/expand <- conv3_2/expand
I1002 14:55:12.355676 13372 net.cpp:395] relu3_2/expand -> conv3_2/expand (in-place)
I1002 14:55:12.356058 13372 net.cpp:150] Setting up relu3_2/expand
I1002 14:55:12.356065 13372 net.cpp:157] Top shape: 1 144 75 128 (1382400)
I1002 14:55:12.356068 13372 net.cpp:165] Memory required for data: 228931296
I1002 14:55:12.356071 13372 layer_factory.hpp:77] Creating layer conv3_2/dwise
I1002 14:55:12.356079 13372 net.cpp:100] Creating Layer conv3_2/dwise
I1002 14:55:12.356084 13372 net.cpp:434] conv3_2/dwise <- conv3_2/expand
I1002 14:55:12.356092 13372 net.cpp:408] conv3_2/dwise -> conv3_2/dwise
I1002 14:55:12.356230 13372 net.cpp:150] Setting up conv3_2/dwise
I1002 14:55:12.356235 13372 net.cpp:157] Top shape: 1 144 38 64 (350208)
I1002 14:55:12.356238 13372 net.cpp:165] Memory required for data: 230332128
I1002 14:55:12.356242 13372 layer_factory.hpp:77] Creating layer conv3_2/dwise/bn
I1002 14:55:12.356248 13372 net.cpp:100] Creating Layer conv3_2/dwise/bn
I1002 14:55:12.356252 13372 net.cpp:434] conv3_2/dwise/bn <- conv3_2/dwise
I1002 14:55:12.356257 13372 net.cpp:395] conv3_2/dwise/bn -> conv3_2/dwise (in-place)
I1002 14:55:12.356387 13372 net.cpp:150] Setting up conv3_2/dwise/bn
I1002 14:55:12.356391 13372 net.cpp:157] Top shape: 1 144 38 64 (350208)
I1002 14:55:12.356395 13372 net.cpp:165] Memory required for data: 231732960
I1002 14:55:12.356400 13372 layer_factory.hpp:77] Creating layer conv3_2/dwise/scale
I1002 14:55:12.356406 13372 net.cpp:100] Creating Layer conv3_2/dwise/scale
I1002 14:55:12.356410 13372 net.cpp:434] conv3_2/dwise/scale <- conv3_2/dwise
I1002 14:55:12.356415 13372 net.cpp:395] conv3_2/dwise/scale -> conv3_2/dwise (in-place)
I1002 14:55:12.356448 13372 layer_factory.hpp:77] Creating layer conv3_2/dwise/scale
I1002 14:55:12.356521 13372 net.cpp:150] Setting up conv3_2/dwise/scale
I1002 14:55:12.356525 13372 net.cpp:157] Top shape: 1 144 38 64 (350208)
I1002 14:55:12.356528 13372 net.cpp:165] Memory required for data: 233133792
I1002 14:55:12.356534 13372 layer_factory.hpp:77] Creating layer relu3_2/dwise
I1002 14:55:12.356539 13372 net.cpp:100] Creating Layer relu3_2/dwise
I1002 14:55:12.356542 13372 net.cpp:434] relu3_2/dwise <- conv3_2/dwise
I1002 14:55:12.356549 13372 net.cpp:395] relu3_2/dwise -> conv3_2/dwise (in-place)
I1002 14:55:12.356822 13372 net.cpp:150] Setting up relu3_2/dwise
I1002 14:55:12.356827 13372 net.cpp:157] Top shape: 1 144 38 64 (350208)
I1002 14:55:12.356830 13372 net.cpp:165] Memory required for data: 234534624
I1002 14:55:12.356832 13372 layer_factory.hpp:77] Creating layer conv3_2/linear
I1002 14:55:12.356840 13372 net.cpp:100] Creating Layer conv3_2/linear
I1002 14:55:12.356844 13372 net.cpp:434] conv3_2/linear <- conv3_2/dwise
I1002 14:55:12.356851 13372 net.cpp:408] conv3_2/linear -> conv3_2/linear
I1002 14:55:12.357934 13372 net.cpp:150] Setting up conv3_2/linear
I1002 14:55:12.357941 13372 net.cpp:157] Top shape: 1 32 38 64 (77824)
I1002 14:55:12.357944 13372 net.cpp:165] Memory required for data: 234845920
I1002 14:55:12.357949 13372 layer_factory.hpp:77] Creating layer conv3_2/linear/bn
I1002 14:55:12.357954 13372 net.cpp:100] Creating Layer conv3_2/linear/bn
I1002 14:55:12.357959 13372 net.cpp:434] conv3_2/linear/bn <- conv3_2/linear
I1002 14:55:12.357964 13372 net.cpp:395] conv3_2/linear/bn -> conv3_2/linear (in-place)
I1002 14:55:12.358098 13372 net.cpp:150] Setting up conv3_2/linear/bn
I1002 14:55:12.358103 13372 net.cpp:157] Top shape: 1 32 38 64 (77824)
I1002 14:55:12.358105 13372 net.cpp:165] Memory required for data: 235157216
I1002 14:55:12.358112 13372 layer_factory.hpp:77] Creating layer conv3_2/linear/scale
I1002 14:55:12.358119 13372 net.cpp:100] Creating Layer conv3_2/linear/scale
I1002 14:55:12.358122 13372 net.cpp:434] conv3_2/linear/scale <- conv3_2/linear
I1002 14:55:12.358129 13372 net.cpp:395] conv3_2/linear/scale -> conv3_2/linear (in-place)
I1002 14:55:12.358160 13372 layer_factory.hpp:77] Creating layer conv3_2/linear/scale
I1002 14:55:12.358237 13372 net.cpp:150] Setting up conv3_2/linear/scale
I1002 14:55:12.358242 13372 net.cpp:157] Top shape: 1 32 38 64 (77824)
I1002 14:55:12.358245 13372 net.cpp:165] Memory required for data: 235468512
I1002 14:55:12.358260 13372 layer_factory.hpp:77] Creating layer conv3_2/linear_conv3_2/linear/scale_0_split
I1002 14:55:12.358266 13372 net.cpp:100] Creating Layer conv3_2/linear_conv3_2/linear/scale_0_split
I1002 14:55:12.358270 13372 net.cpp:434] conv3_2/linear_conv3_2/linear/scale_0_split <- conv3_2/linear
I1002 14:55:12.358276 13372 net.cpp:408] conv3_2/linear_conv3_2/linear/scale_0_split -> conv3_2/linear_conv3_2/linear/scale_0_split_0
I1002 14:55:12.358283 13372 net.cpp:408] conv3_2/linear_conv3_2/linear/scale_0_split -> conv3_2/linear_conv3_2/linear/scale_0_split_1
I1002 14:55:12.358315 13372 net.cpp:150] Setting up conv3_2/linear_conv3_2/linear/scale_0_split
I1002 14:55:12.358320 13372 net.cpp:157] Top shape: 1 32 38 64 (77824)
I1002 14:55:12.358325 13372 net.cpp:157] Top shape: 1 32 38 64 (77824)
I1002 14:55:12.358327 13372 net.cpp:165] Memory required for data: 236091104
I1002 14:55:12.358331 13372 layer_factory.hpp:77] Creating layer conv4_1/expand
I1002 14:55:12.358337 13372 net.cpp:100] Creating Layer conv4_1/expand
I1002 14:55:12.358341 13372 net.cpp:434] conv4_1/expand <- conv3_2/linear_conv3_2/linear/scale_0_split_0
I1002 14:55:12.358346 13372 net.cpp:408] conv4_1/expand -> conv4_1/expand
I1002 14:55:12.359414 13372 net.cpp:150] Setting up conv4_1/expand
I1002 14:55:12.359421 13372 net.cpp:157] Top shape: 1 192 38 64 (466944)
I1002 14:55:12.359424 13372 net.cpp:165] Memory required for data: 237958880
I1002 14:55:12.359427 13372 layer_factory.hpp:77] Creating layer conv4_1/expand/bn
I1002 14:55:12.359432 13372 net.cpp:100] Creating Layer conv4_1/expand/bn
I1002 14:55:12.359436 13372 net.cpp:434] conv4_1/expand/bn <- conv4_1/expand
I1002 14:55:12.359437 13372 net.cpp:395] conv4_1/expand/bn -> conv4_1/expand (in-place)
I1002 14:55:12.359571 13372 net.cpp:150] Setting up conv4_1/expand/bn
I1002 14:55:12.359576 13372 net.cpp:157] Top shape: 1 192 38 64 (466944)
I1002 14:55:12.359578 13372 net.cpp:165] Memory required for data: 239826656
I1002 14:55:12.359582 13372 layer_factory.hpp:77] Creating layer conv4_1/expand/scale
I1002 14:55:12.359586 13372 net.cpp:100] Creating Layer conv4_1/expand/scale
I1002 14:55:12.359588 13372 net.cpp:434] conv4_1/expand/scale <- conv4_1/expand
I1002 14:55:12.359591 13372 net.cpp:395] conv4_1/expand/scale -> conv4_1/expand (in-place)
I1002 14:55:12.359622 13372 layer_factory.hpp:77] Creating layer conv4_1/expand/scale
I1002 14:55:12.359697 13372 net.cpp:150] Setting up conv4_1/expand/scale
I1002 14:55:12.359702 13372 net.cpp:157] Top shape: 1 192 38 64 (466944)
I1002 14:55:12.359704 13372 net.cpp:165] Memory required for data: 241694432
I1002 14:55:12.359707 13372 layer_factory.hpp:77] Creating layer relu4_1/expand
I1002 14:55:12.359711 13372 net.cpp:100] Creating Layer relu4_1/expand
I1002 14:55:12.359714 13372 net.cpp:434] relu4_1/expand <- conv4_1/expand
I1002 14:55:12.359716 13372 net.cpp:395] relu4_1/expand -> conv4_1/expand (in-place)
I1002 14:55:12.360096 13372 net.cpp:150] Setting up relu4_1/expand
I1002 14:55:12.360105 13372 net.cpp:157] Top shape: 1 192 38 64 (466944)
I1002 14:55:12.360106 13372 net.cpp:165] Memory required for data: 243562208
I1002 14:55:12.360108 13372 layer_factory.hpp:77] Creating layer conv4_1/dwise
I1002 14:55:12.360114 13372 net.cpp:100] Creating Layer conv4_1/dwise
I1002 14:55:12.360116 13372 net.cpp:434] conv4_1/dwise <- conv4_1/expand
I1002 14:55:12.360121 13372 net.cpp:408] conv4_1/dwise -> conv4_1/dwise
I1002 14:55:12.360262 13372 net.cpp:150] Setting up conv4_1/dwise
I1002 14:55:12.360268 13372 net.cpp:157] Top shape: 1 192 38 64 (466944)
I1002 14:55:12.360270 13372 net.cpp:165] Memory required for data: 245429984
I1002 14:55:12.360273 13372 layer_factory.hpp:77] Creating layer conv4_1/dwise/bn
I1002 14:55:12.360277 13372 net.cpp:100] Creating Layer conv4_1/dwise/bn
I1002 14:55:12.360280 13372 net.cpp:434] conv4_1/dwise/bn <- conv4_1/dwise
I1002 14:55:12.360282 13372 net.cpp:395] conv4_1/dwise/bn -> conv4_1/dwise (in-place)
I1002 14:55:12.360412 13372 net.cpp:150] Setting up conv4_1/dwise/bn
I1002 14:55:12.360424 13372 net.cpp:157] Top shape: 1 192 38 64 (466944)
I1002 14:55:12.360426 13372 net.cpp:165] Memory required for data: 247297760
I1002 14:55:12.360430 13372 layer_factory.hpp:77] Creating layer conv4_1/dwise/scale
I1002 14:55:12.360435 13372 net.cpp:100] Creating Layer conv4_1/dwise/scale
I1002 14:55:12.360438 13372 net.cpp:434] conv4_1/dwise/scale <- conv4_1/dwise
I1002 14:55:12.360440 13372 net.cpp:395] conv4_1/dwise/scale -> conv4_1/dwise (in-place)
I1002 14:55:12.360471 13372 layer_factory.hpp:77] Creating layer conv4_1/dwise/scale
I1002 14:55:12.360548 13372 net.cpp:150] Setting up conv4_1/dwise/scale
I1002 14:55:12.360553 13372 net.cpp:157] Top shape: 1 192 38 64 (466944)
I1002 14:55:12.360554 13372 net.cpp:165] Memory required for data: 249165536
I1002 14:55:12.360558 13372 layer_factory.hpp:77] Creating layer relu4_1/dwise
I1002 14:55:12.360563 13372 net.cpp:100] Creating Layer relu4_1/dwise
I1002 14:55:12.360564 13372 net.cpp:434] relu4_1/dwise <- conv4_1/dwise
I1002 14:55:12.360568 13372 net.cpp:395] relu4_1/dwise -> conv4_1/dwise (in-place)
I1002 14:55:12.360837 13372 net.cpp:150] Setting up relu4_1/dwise
I1002 14:55:12.360844 13372 net.cpp:157] Top shape: 1 192 38 64 (466944)
I1002 14:55:12.360846 13372 net.cpp:165] Memory required for data: 251033312
I1002 14:55:12.360848 13372 layer_factory.hpp:77] Creating layer conv4_1/linear
I1002 14:55:12.360853 13372 net.cpp:100] Creating Layer conv4_1/linear
I1002 14:55:12.360857 13372 net.cpp:434] conv4_1/linear <- conv4_1/dwise
I1002 14:55:12.360859 13372 net.cpp:408] conv4_1/linear -> conv4_1/linear
I1002 14:55:12.361953 13372 net.cpp:150] Setting up conv4_1/linear
I1002 14:55:12.361960 13372 net.cpp:157] Top shape: 1 32 38 64 (77824)
I1002 14:55:12.361963 13372 net.cpp:165] Memory required for data: 251344608
I1002 14:55:12.361966 13372 layer_factory.hpp:77] Creating layer conv4_1/linear/bn
I1002 14:55:12.361971 13372 net.cpp:100] Creating Layer conv4_1/linear/bn
I1002 14:55:12.361974 13372 net.cpp:434] conv4_1/linear/bn <- conv4_1/linear
I1002 14:55:12.361979 13372 net.cpp:395] conv4_1/linear/bn -> conv4_1/linear (in-place)
I1002 14:55:12.362113 13372 net.cpp:150] Setting up conv4_1/linear/bn
I1002 14:55:12.362118 13372 net.cpp:157] Top shape: 1 32 38 64 (77824)
I1002 14:55:12.362119 13372 net.cpp:165] Memory required for data: 251655904
I1002 14:55:12.362124 13372 layer_factory.hpp:77] Creating layer conv4_1/linear/scale
I1002 14:55:12.362128 13372 net.cpp:100] Creating Layer conv4_1/linear/scale
I1002 14:55:12.362131 13372 net.cpp:434] conv4_1/linear/scale <- conv4_1/linear
I1002 14:55:12.362133 13372 net.cpp:395] conv4_1/linear/scale -> conv4_1/linear (in-place)
I1002 14:55:12.362164 13372 layer_factory.hpp:77] Creating layer conv4_1/linear/scale
I1002 14:55:12.362241 13372 net.cpp:150] Setting up conv4_1/linear/scale
I1002 14:55:12.362246 13372 net.cpp:157] Top shape: 1 32 38 64 (77824)
I1002 14:55:12.362248 13372 net.cpp:165] Memory required for data: 251967200
I1002 14:55:12.362252 13372 layer_factory.hpp:77] Creating layer block_4_1
I1002 14:55:12.362262 13372 net.cpp:100] Creating Layer block_4_1
I1002 14:55:12.362264 13372 net.cpp:434] block_4_1 <- conv3_2/linear_conv3_2/linear/scale_0_split_1
I1002 14:55:12.362267 13372 net.cpp:434] block_4_1 <- conv4_1/linear
I1002 14:55:12.362270 13372 net.cpp:408] block_4_1 -> block_4_1
I1002 14:55:12.362290 13372 net.cpp:150] Setting up block_4_1
I1002 14:55:12.362294 13372 net.cpp:157] Top shape: 1 32 38 64 (77824)
I1002 14:55:12.362296 13372 net.cpp:165] Memory required for data: 252278496
I1002 14:55:12.362299 13372 layer_factory.hpp:77] Creating layer block_4_1_block_4_1_0_split
I1002 14:55:12.362303 13372 net.cpp:100] Creating Layer block_4_1_block_4_1_0_split
I1002 14:55:12.362305 13372 net.cpp:434] block_4_1_block_4_1_0_split <- block_4_1
I1002 14:55:12.362308 13372 net.cpp:408] block_4_1_block_4_1_0_split -> block_4_1_block_4_1_0_split_0
I1002 14:55:12.362313 13372 net.cpp:408] block_4_1_block_4_1_0_split -> block_4_1_block_4_1_0_split_1
I1002 14:55:12.362346 13372 net.cpp:150] Setting up block_4_1_block_4_1_0_split
I1002 14:55:12.362357 13372 net.cpp:157] Top shape: 1 32 38 64 (77824)
I1002 14:55:12.362360 13372 net.cpp:157] Top shape: 1 32 38 64 (77824)
I1002 14:55:12.362363 13372 net.cpp:165] Memory required for data: 252901088
I1002 14:55:12.362365 13372 layer_factory.hpp:77] Creating layer conv4_2/expand
I1002 14:55:12.362370 13372 net.cpp:100] Creating Layer conv4_2/expand
I1002 14:55:12.362372 13372 net.cpp:434] conv4_2/expand <- block_4_1_block_4_1_0_split_0
I1002 14:55:12.362377 13372 net.cpp:408] conv4_2/expand -> conv4_2/expand
I1002 14:55:12.363545 13372 net.cpp:150] Setting up conv4_2/expand
I1002 14:55:12.363553 13372 net.cpp:157] Top shape: 1 192 38 64 (466944)
I1002 14:55:12.363554 13372 net.cpp:165] Memory required for data: 254768864
I1002 14:55:12.363559 13372 layer_factory.hpp:77] Creating layer conv4_2/expand/bn
I1002 14:55:12.363562 13372 net.cpp:100] Creating Layer conv4_2/expand/bn
I1002 14:55:12.363564 13372 net.cpp:434] conv4_2/expand/bn <- conv4_2/expand
I1002 14:55:12.363566 13372 net.cpp:395] conv4_2/expand/bn -> conv4_2/expand (in-place)
I1002 14:55:12.363703 13372 net.cpp:150] Setting up conv4_2/expand/bn
I1002 14:55:12.363709 13372 net.cpp:157] Top shape: 1 192 38 64 (466944)
I1002 14:55:12.363711 13372 net.cpp:165] Memory required for data: 256636640
I1002 14:55:12.363718 13372 layer_factory.hpp:77] Creating layer conv4_2/expand/scale
I1002 14:55:12.363725 13372 net.cpp:100] Creating Layer conv4_2/expand/scale
I1002 14:55:12.363729 13372 net.cpp:434] conv4_2/expand/scale <- conv4_2/expand
I1002 14:55:12.363734 13372 net.cpp:395] conv4_2/expand/scale -> conv4_2/expand (in-place)
I1002 14:55:12.363762 13372 layer_factory.hpp:77] Creating layer conv4_2/expand/scale
I1002 14:55:12.363837 13372 net.cpp:150] Setting up conv4_2/expand/scale
I1002 14:55:12.363842 13372 net.cpp:157] Top shape: 1 192 38 64 (466944)
I1002 14:55:12.363845 13372 net.cpp:165] Memory required for data: 258504416
I1002 14:55:12.363850 13372 layer_factory.hpp:77] Creating layer relu4_2/expand
I1002 14:55:12.363857 13372 net.cpp:100] Creating Layer relu4_2/expand
I1002 14:55:12.363860 13372 net.cpp:434] relu4_2/expand <- conv4_2/expand
I1002 14:55:12.363863 13372 net.cpp:395] relu4_2/expand -> conv4_2/expand (in-place)
I1002 14:55:12.364145 13372 net.cpp:150] Setting up relu4_2/expand
I1002 14:55:12.364151 13372 net.cpp:157] Top shape: 1 192 38 64 (466944)
I1002 14:55:12.364154 13372 net.cpp:165] Memory required for data: 260372192
I1002 14:55:12.364157 13372 layer_factory.hpp:77] Creating layer conv4_2/dwise
I1002 14:55:12.364163 13372 net.cpp:100] Creating Layer conv4_2/dwise
I1002 14:55:12.364167 13372 net.cpp:434] conv4_2/dwise <- conv4_2/expand
I1002 14:55:12.364173 13372 net.cpp:408] conv4_2/dwise -> conv4_2/dwise
I1002 14:55:12.364316 13372 net.cpp:150] Setting up conv4_2/dwise
I1002 14:55:12.364322 13372 net.cpp:157] Top shape: 1 192 38 64 (466944)
I1002 14:55:12.364326 13372 net.cpp:165] Memory required for data: 262239968
I1002 14:55:12.364331 13372 layer_factory.hpp:77] Creating layer conv4_2/dwise/bn
I1002 14:55:12.364336 13372 net.cpp:100] Creating Layer conv4_2/dwise/bn
I1002 14:55:12.364341 13372 net.cpp:434] conv4_2/dwise/bn <- conv4_2/dwise
I1002 14:55:12.364344 13372 net.cpp:395] conv4_2/dwise/bn -> conv4_2/dwise (in-place)
I1002 14:55:12.364475 13372 net.cpp:150] Setting up conv4_2/dwise/bn
I1002 14:55:12.364478 13372 net.cpp:157] Top shape: 1 192 38 64 (466944)
I1002 14:55:12.364481 13372 net.cpp:165] Memory required for data: 264107744
I1002 14:55:12.364488 13372 layer_factory.hpp:77] Creating layer conv4_2/dwise/scale
I1002 14:55:12.364495 13372 net.cpp:100] Creating Layer conv4_2/dwise/scale
I1002 14:55:12.364498 13372 net.cpp:434] conv4_2/dwise/scale <- conv4_2/dwise
I1002 14:55:12.364502 13372 net.cpp:395] conv4_2/dwise/scale -> conv4_2/dwise (in-place)
I1002 14:55:12.364531 13372 layer_factory.hpp:77] Creating layer conv4_2/dwise/scale
I1002 14:55:12.364605 13372 net.cpp:150] Setting up conv4_2/dwise/scale
I1002 14:55:12.364610 13372 net.cpp:157] Top shape: 1 192 38 64 (466944)
I1002 14:55:12.364621 13372 net.cpp:165] Memory required for data: 265975520
I1002 14:55:12.364627 13372 layer_factory.hpp:77] Creating layer relu4_2/dwise
I1002 14:55:12.364631 13372 net.cpp:100] Creating Layer relu4_2/dwise
I1002 14:55:12.364635 13372 net.cpp:434] relu4_2/dwise <- conv4_2/dwise
I1002 14:55:12.364640 13372 net.cpp:395] relu4_2/dwise -> conv4_2/dwise (in-place)
I1002 14:55:12.364912 13372 net.cpp:150] Setting up relu4_2/dwise
I1002 14:55:12.364918 13372 net.cpp:157] Top shape: 1 192 38 64 (466944)
I1002 14:55:12.364922 13372 net.cpp:165] Memory required for data: 267843296
I1002 14:55:12.364924 13372 layer_factory.hpp:77] Creating layer conv4_2/linear
I1002 14:55:12.364931 13372 net.cpp:100] Creating Layer conv4_2/linear
I1002 14:55:12.364935 13372 net.cpp:434] conv4_2/linear <- conv4_2/dwise
I1002 14:55:12.364940 13372 net.cpp:408] conv4_2/linear -> conv4_2/linear
I1002 14:55:12.366140 13372 net.cpp:150] Setting up conv4_2/linear
I1002 14:55:12.366150 13372 net.cpp:157] Top shape: 1 32 38 64 (77824)
I1002 14:55:12.366153 13372 net.cpp:165] Memory required for data: 268154592
I1002 14:55:12.366158 13372 layer_factory.hpp:77] Creating layer conv4_2/linear/bn
I1002 14:55:12.366164 13372 net.cpp:100] Creating Layer conv4_2/linear/bn
I1002 14:55:12.366169 13372 net.cpp:434] conv4_2/linear/bn <- conv4_2/linear
I1002 14:55:12.366175 13372 net.cpp:395] conv4_2/linear/bn -> conv4_2/linear (in-place)
I1002 14:55:12.366310 13372 net.cpp:150] Setting up conv4_2/linear/bn
I1002 14:55:12.366315 13372 net.cpp:157] Top shape: 1 32 38 64 (77824)
I1002 14:55:12.366319 13372 net.cpp:165] Memory required for data: 268465888
I1002 14:55:12.366325 13372 layer_factory.hpp:77] Creating layer conv4_2/linear/scale
I1002 14:55:12.366331 13372 net.cpp:100] Creating Layer conv4_2/linear/scale
I1002 14:55:12.366334 13372 net.cpp:434] conv4_2/linear/scale <- conv4_2/linear
I1002 14:55:12.366340 13372 net.cpp:395] conv4_2/linear/scale -> conv4_2/linear (in-place)
I1002 14:55:12.366370 13372 layer_factory.hpp:77] Creating layer conv4_2/linear/scale
I1002 14:55:12.366448 13372 net.cpp:150] Setting up conv4_2/linear/scale
I1002 14:55:12.366453 13372 net.cpp:157] Top shape: 1 32 38 64 (77824)
I1002 14:55:12.366456 13372 net.cpp:165] Memory required for data: 268777184
I1002 14:55:12.366461 13372 layer_factory.hpp:77] Creating layer block_4_2
I1002 14:55:12.366466 13372 net.cpp:100] Creating Layer block_4_2
I1002 14:55:12.366470 13372 net.cpp:434] block_4_2 <- block_4_1_block_4_1_0_split_1
I1002 14:55:12.366474 13372 net.cpp:434] block_4_2 <- conv4_2/linear
I1002 14:55:12.366479 13372 net.cpp:408] block_4_2 -> block_4_2
I1002 14:55:12.366498 13372 net.cpp:150] Setting up block_4_2
I1002 14:55:12.366504 13372 net.cpp:157] Top shape: 1 32 38 64 (77824)
I1002 14:55:12.366508 13372 net.cpp:165] Memory required for data: 269088480
I1002 14:55:12.366511 13372 layer_factory.hpp:77] Creating layer conv4_3/expand
I1002 14:55:12.366518 13372 net.cpp:100] Creating Layer conv4_3/expand
I1002 14:55:12.366520 13372 net.cpp:434] conv4_3/expand <- block_4_2
I1002 14:55:12.366526 13372 net.cpp:408] conv4_3/expand -> conv4_3/expand
I1002 14:55:12.367746 13372 net.cpp:150] Setting up conv4_3/expand
I1002 14:55:12.367753 13372 net.cpp:157] Top shape: 1 192 38 64 (466944)
I1002 14:55:12.367756 13372 net.cpp:165] Memory required for data: 270956256
I1002 14:55:12.367761 13372 layer_factory.hpp:77] Creating layer conv4_3/expand/bn
I1002 14:55:12.367769 13372 net.cpp:100] Creating Layer conv4_3/expand/bn
I1002 14:55:12.367772 13372 net.cpp:434] conv4_3/expand/bn <- conv4_3/expand
I1002 14:55:12.367776 13372 net.cpp:395] conv4_3/expand/bn -> conv4_3/expand (in-place)
I1002 14:55:12.367909 13372 net.cpp:150] Setting up conv4_3/expand/bn
I1002 14:55:12.367914 13372 net.cpp:157] Top shape: 1 192 38 64 (466944)
I1002 14:55:12.367918 13372 net.cpp:165] Memory required for data: 272824032
I1002 14:55:12.367924 13372 layer_factory.hpp:77] Creating layer conv4_3/expand/scale
I1002 14:55:12.367928 13372 net.cpp:100] Creating Layer conv4_3/expand/scale
I1002 14:55:12.367931 13372 net.cpp:434] conv4_3/expand/scale <- conv4_3/expand
I1002 14:55:12.367945 13372 net.cpp:395] conv4_3/expand/scale -> conv4_3/expand (in-place)
I1002 14:55:12.367975 13372 layer_factory.hpp:77] Creating layer conv4_3/expand/scale
I1002 14:55:12.368052 13372 net.cpp:150] Setting up conv4_3/expand/scale
I1002 14:55:12.368057 13372 net.cpp:157] Top shape: 1 192 38 64 (466944)
I1002 14:55:12.368060 13372 net.cpp:165] Memory required for data: 274691808
I1002 14:55:12.368065 13372 layer_factory.hpp:77] Creating layer relu4_3/expand
I1002 14:55:12.368072 13372 net.cpp:100] Creating Layer relu4_3/expand
I1002 14:55:12.368075 13372 net.cpp:434] relu4_3/expand <- conv4_3/expand
I1002 14:55:12.368079 13372 net.cpp:395] relu4_3/expand -> conv4_3/expand (in-place)
I1002 14:55:12.368357 13372 net.cpp:150] Setting up relu4_3/expand
I1002 14:55:12.368363 13372 net.cpp:157] Top shape: 1 192 38 64 (466944)
I1002 14:55:12.368366 13372 net.cpp:165] Memory required for data: 276559584
I1002 14:55:12.368369 13372 layer_factory.hpp:77] Creating layer conv4_3/dwise
I1002 14:55:12.368376 13372 net.cpp:100] Creating Layer conv4_3/dwise
I1002 14:55:12.368379 13372 net.cpp:434] conv4_3/dwise <- conv4_3/expand
I1002 14:55:12.368384 13372 net.cpp:408] conv4_3/dwise -> conv4_3/dwise
I1002 14:55:12.368530 13372 net.cpp:150] Setting up conv4_3/dwise
I1002 14:55:12.368535 13372 net.cpp:157] Top shape: 1 192 38 64 (466944)
I1002 14:55:12.368537 13372 net.cpp:165] Memory required for data: 278427360
I1002 14:55:12.368542 13372 layer_factory.hpp:77] Creating layer conv4_3/dwise/bn
I1002 14:55:12.368547 13372 net.cpp:100] Creating Layer conv4_3/dwise/bn
I1002 14:55:12.368551 13372 net.cpp:434] conv4_3/dwise/bn <- conv4_3/dwise
I1002 14:55:12.368556 13372 net.cpp:395] conv4_3/dwise/bn -> conv4_3/dwise (in-place)
I1002 14:55:12.368687 13372 net.cpp:150] Setting up conv4_3/dwise/bn
I1002 14:55:12.368693 13372 net.cpp:157] Top shape: 1 192 38 64 (466944)
I1002 14:55:12.368695 13372 net.cpp:165] Memory required for data: 280295136
I1002 14:55:12.368701 13372 layer_factory.hpp:77] Creating layer conv4_3/dwise/scale
I1002 14:55:12.368706 13372 net.cpp:100] Creating Layer conv4_3/dwise/scale
I1002 14:55:12.368710 13372 net.cpp:434] conv4_3/dwise/scale <- conv4_3/dwise
I1002 14:55:12.368716 13372 net.cpp:395] conv4_3/dwise/scale -> conv4_3/dwise (in-place)
I1002 14:55:12.368743 13372 layer_factory.hpp:77] Creating layer conv4_3/dwise/scale
I1002 14:55:12.368818 13372 net.cpp:150] Setting up conv4_3/dwise/scale
I1002 14:55:12.368824 13372 net.cpp:157] Top shape: 1 192 38 64 (466944)
I1002 14:55:12.368826 13372 net.cpp:165] Memory required for data: 282162912
I1002 14:55:12.368831 13372 layer_factory.hpp:77] Creating layer relu4_3/dwise
I1002 14:55:12.368836 13372 net.cpp:100] Creating Layer relu4_3/dwise
I1002 14:55:12.368839 13372 net.cpp:434] relu4_3/dwise <- conv4_3/dwise
I1002 14:55:12.368844 13372 net.cpp:395] relu4_3/dwise -> conv4_3/dwise (in-place)
I1002 14:55:12.369118 13372 net.cpp:150] Setting up relu4_3/dwise
I1002 14:55:12.369124 13372 net.cpp:157] Top shape: 1 192 38 64 (466944)
I1002 14:55:12.369127 13372 net.cpp:165] Memory required for data: 284030688
I1002 14:55:12.369130 13372 layer_factory.hpp:77] Creating layer conv4_3/linear
I1002 14:55:12.369138 13372 net.cpp:100] Creating Layer conv4_3/linear
I1002 14:55:12.369140 13372 net.cpp:434] conv4_3/linear <- conv4_3/dwise
I1002 14:55:12.369146 13372 net.cpp:408] conv4_3/linear -> conv4_3/linear
I1002 14:55:12.370393 13372 net.cpp:150] Setting up conv4_3/linear
I1002 14:55:12.370402 13372 net.cpp:157] Top shape: 1 64 38 64 (155648)
I1002 14:55:12.370405 13372 net.cpp:165] Memory required for data: 284653280
I1002 14:55:12.370410 13372 layer_factory.hpp:77] Creating layer conv4_3/linear/bn
I1002 14:55:12.370419 13372 net.cpp:100] Creating Layer conv4_3/linear/bn
I1002 14:55:12.370421 13372 net.cpp:434] conv4_3/linear/bn <- conv4_3/linear
I1002 14:55:12.370426 13372 net.cpp:395] conv4_3/linear/bn -> conv4_3/linear (in-place)
I1002 14:55:12.370564 13372 net.cpp:150] Setting up conv4_3/linear/bn
I1002 14:55:12.370579 13372 net.cpp:157] Top shape: 1 64 38 64 (155648)
I1002 14:55:12.370581 13372 net.cpp:165] Memory required for data: 285275872
I1002 14:55:12.370596 13372 layer_factory.hpp:77] Creating layer conv4_3/linear/scale
I1002 14:55:12.370604 13372 net.cpp:100] Creating Layer conv4_3/linear/scale
I1002 14:55:12.370607 13372 net.cpp:434] conv4_3/linear/scale <- conv4_3/linear
I1002 14:55:12.370611 13372 net.cpp:395] conv4_3/linear/scale -> conv4_3/linear (in-place)
I1002 14:55:12.370643 13372 layer_factory.hpp:77] Creating layer conv4_3/linear/scale
I1002 14:55:12.370721 13372 net.cpp:150] Setting up conv4_3/linear/scale
I1002 14:55:12.370726 13372 net.cpp:157] Top shape: 1 64 38 64 (155648)
I1002 14:55:12.370729 13372 net.cpp:165] Memory required for data: 285898464
I1002 14:55:12.370734 13372 layer_factory.hpp:77] Creating layer conv4_3/linear_conv4_3/linear/scale_0_split
I1002 14:55:12.370740 13372 net.cpp:100] Creating Layer conv4_3/linear_conv4_3/linear/scale_0_split
I1002 14:55:12.370743 13372 net.cpp:434] conv4_3/linear_conv4_3/linear/scale_0_split <- conv4_3/linear
I1002 14:55:12.370749 13372 net.cpp:408] conv4_3/linear_conv4_3/linear/scale_0_split -> conv4_3/linear_conv4_3/linear/scale_0_split_0
I1002 14:55:12.370755 13372 net.cpp:408] conv4_3/linear_conv4_3/linear/scale_0_split -> conv4_3/linear_conv4_3/linear/scale_0_split_1
I1002 14:55:12.370784 13372 net.cpp:150] Setting up conv4_3/linear_conv4_3/linear/scale_0_split
I1002 14:55:12.370790 13372 net.cpp:157] Top shape: 1 64 38 64 (155648)
I1002 14:55:12.370792 13372 net.cpp:157] Top shape: 1 64 38 64 (155648)
I1002 14:55:12.370795 13372 net.cpp:165] Memory required for data: 287143648
I1002 14:55:12.370800 13372 layer_factory.hpp:77] Creating layer conv4_4/expand
I1002 14:55:12.370805 13372 net.cpp:100] Creating Layer conv4_4/expand
I1002 14:55:12.370808 13372 net.cpp:434] conv4_4/expand <- conv4_3/linear_conv4_3/linear/scale_0_split_0
I1002 14:55:12.370812 13372 net.cpp:408] conv4_4/expand -> conv4_4/expand
I1002 14:55:12.372015 13372 net.cpp:150] Setting up conv4_4/expand
I1002 14:55:12.372023 13372 net.cpp:157] Top shape: 1 384 38 64 (933888)
I1002 14:55:12.372026 13372 net.cpp:165] Memory required for data: 290879200
I1002 14:55:12.372030 13372 layer_factory.hpp:77] Creating layer conv4_4/expand/bn
I1002 14:55:12.372038 13372 net.cpp:100] Creating Layer conv4_4/expand/bn
I1002 14:55:12.372042 13372 net.cpp:434] conv4_4/expand/bn <- conv4_4/expand
I1002 14:55:12.372047 13372 net.cpp:395] conv4_4/expand/bn -> conv4_4/expand (in-place)
I1002 14:55:12.372185 13372 net.cpp:150] Setting up conv4_4/expand/bn
I1002 14:55:12.372191 13372 net.cpp:157] Top shape: 1 384 38 64 (933888)
I1002 14:55:12.372193 13372 net.cpp:165] Memory required for data: 294614752
I1002 14:55:12.372200 13372 layer_factory.hpp:77] Creating layer conv4_4/expand/scale
I1002 14:55:12.372205 13372 net.cpp:100] Creating Layer conv4_4/expand/scale
I1002 14:55:12.372210 13372 net.cpp:434] conv4_4/expand/scale <- conv4_4/expand
I1002 14:55:12.372213 13372 net.cpp:395] conv4_4/expand/scale -> conv4_4/expand (in-place)
I1002 14:55:12.372241 13372 layer_factory.hpp:77] Creating layer conv4_4/expand/scale
I1002 14:55:12.372315 13372 net.cpp:150] Setting up conv4_4/expand/scale
I1002 14:55:12.372320 13372 net.cpp:157] Top shape: 1 384 38 64 (933888)
I1002 14:55:12.372323 13372 net.cpp:165] Memory required for data: 298350304
I1002 14:55:12.372328 13372 layer_factory.hpp:77] Creating layer relu4_4/expand
I1002 14:55:12.372334 13372 net.cpp:100] Creating Layer relu4_4/expand
I1002 14:55:12.372337 13372 net.cpp:434] relu4_4/expand <- conv4_4/expand
I1002 14:55:12.372342 13372 net.cpp:395] relu4_4/expand -> conv4_4/expand (in-place)
I1002 14:55:12.372617 13372 net.cpp:150] Setting up relu4_4/expand
I1002 14:55:12.372624 13372 net.cpp:157] Top shape: 1 384 38 64 (933888)
I1002 14:55:12.372628 13372 net.cpp:165] Memory required for data: 302085856
I1002 14:55:12.372632 13372 layer_factory.hpp:77] Creating layer conv4_4/dwise
I1002 14:55:12.372638 13372 net.cpp:100] Creating Layer conv4_4/dwise
I1002 14:55:12.372648 13372 net.cpp:434] conv4_4/dwise <- conv4_4/expand
I1002 14:55:12.372654 13372 net.cpp:408] conv4_4/dwise -> conv4_4/dwise
I1002 14:55:12.372808 13372 net.cpp:150] Setting up conv4_4/dwise
I1002 14:55:12.372814 13372 net.cpp:157] Top shape: 1 384 38 64 (933888)
I1002 14:55:12.372817 13372 net.cpp:165] Memory required for data: 305821408
I1002 14:55:12.372822 13372 layer_factory.hpp:77] Creating layer conv4_4/dwise/bn
I1002 14:55:12.372829 13372 net.cpp:100] Creating Layer conv4_4/dwise/bn
I1002 14:55:12.372833 13372 net.cpp:434] conv4_4/dwise/bn <- conv4_4/dwise
I1002 14:55:12.372836 13372 net.cpp:395] conv4_4/dwise/bn -> conv4_4/dwise (in-place)
I1002 14:55:12.372964 13372 net.cpp:150] Setting up conv4_4/dwise/bn
I1002 14:55:12.372969 13372 net.cpp:157] Top shape: 1 384 38 64 (933888)
I1002 14:55:12.372972 13372 net.cpp:165] Memory required for data: 309556960
I1002 14:55:12.372978 13372 layer_factory.hpp:77] Creating layer conv4_4/dwise/scale
I1002 14:55:12.372983 13372 net.cpp:100] Creating Layer conv4_4/dwise/scale
I1002 14:55:12.372987 13372 net.cpp:434] conv4_4/dwise/scale <- conv4_4/dwise
I1002 14:55:12.372992 13372 net.cpp:395] conv4_4/dwise/scale -> conv4_4/dwise (in-place)
I1002 14:55:12.373018 13372 layer_factory.hpp:77] Creating layer conv4_4/dwise/scale
I1002 14:55:12.373091 13372 net.cpp:150] Setting up conv4_4/dwise/scale
I1002 14:55:12.373096 13372 net.cpp:157] Top shape: 1 384 38 64 (933888)
I1002 14:55:12.373100 13372 net.cpp:165] Memory required for data: 313292512
I1002 14:55:12.373105 13372 layer_factory.hpp:77] Creating layer relu4_4/dwise
I1002 14:55:12.373111 13372 net.cpp:100] Creating Layer relu4_4/dwise
I1002 14:55:12.373113 13372 net.cpp:434] relu4_4/dwise <- conv4_4/dwise
I1002 14:55:12.373117 13372 net.cpp:395] relu4_4/dwise -> conv4_4/dwise (in-place)
I1002 14:55:12.373512 13372 net.cpp:150] Setting up relu4_4/dwise
I1002 14:55:12.373519 13372 net.cpp:157] Top shape: 1 384 38 64 (933888)
I1002 14:55:12.373522 13372 net.cpp:165] Memory required for data: 317028064
I1002 14:55:12.373525 13372 layer_factory.hpp:77] Creating layer conv4_4/linear
I1002 14:55:12.373533 13372 net.cpp:100] Creating Layer conv4_4/linear
I1002 14:55:12.373538 13372 net.cpp:434] conv4_4/linear <- conv4_4/dwise
I1002 14:55:12.373543 13372 net.cpp:408] conv4_4/linear -> conv4_4/linear
I1002 14:55:12.374802 13372 net.cpp:150] Setting up conv4_4/linear
I1002 14:55:12.374810 13372 net.cpp:157] Top shape: 1 64 38 64 (155648)
I1002 14:55:12.374812 13372 net.cpp:165] Memory required for data: 317650656
I1002 14:55:12.374817 13372 layer_factory.hpp:77] Creating layer conv4_4/linear/bn
I1002 14:55:12.374825 13372 net.cpp:100] Creating Layer conv4_4/linear/bn
I1002 14:55:12.374830 13372 net.cpp:434] conv4_4/linear/bn <- conv4_4/linear
I1002 14:55:12.374833 13372 net.cpp:395] conv4_4/linear/bn -> conv4_4/linear (in-place)
I1002 14:55:12.374972 13372 net.cpp:150] Setting up conv4_4/linear/bn
I1002 14:55:12.374977 13372 net.cpp:157] Top shape: 1 64 38 64 (155648)
I1002 14:55:12.374979 13372 net.cpp:165] Memory required for data: 318273248
I1002 14:55:12.374986 13372 layer_factory.hpp:77] Creating layer conv4_4/linear/scale
I1002 14:55:12.374991 13372 net.cpp:100] Creating Layer conv4_4/linear/scale
I1002 14:55:12.374995 13372 net.cpp:434] conv4_4/linear/scale <- conv4_4/linear
I1002 14:55:12.375000 13372 net.cpp:395] conv4_4/linear/scale -> conv4_4/linear (in-place)
I1002 14:55:12.375030 13372 layer_factory.hpp:77] Creating layer conv4_4/linear/scale
I1002 14:55:12.375108 13372 net.cpp:150] Setting up conv4_4/linear/scale
I1002 14:55:12.375113 13372 net.cpp:157] Top shape: 1 64 38 64 (155648)
I1002 14:55:12.375115 13372 net.cpp:165] Memory required for data: 318895840
I1002 14:55:12.375120 13372 layer_factory.hpp:77] Creating layer block_4_4
I1002 14:55:12.375126 13372 net.cpp:100] Creating Layer block_4_4
I1002 14:55:12.375130 13372 net.cpp:434] block_4_4 <- conv4_3/linear_conv4_3/linear/scale_0_split_1
I1002 14:55:12.375134 13372 net.cpp:434] block_4_4 <- conv4_4/linear
I1002 14:55:12.375139 13372 net.cpp:408] block_4_4 -> block_4_4
I1002 14:55:12.375166 13372 net.cpp:150] Setting up block_4_4
I1002 14:55:12.375172 13372 net.cpp:157] Top shape: 1 64 38 64 (155648)
I1002 14:55:12.375174 13372 net.cpp:165] Memory required for data: 319518432
I1002 14:55:12.375177 13372 layer_factory.hpp:77] Creating layer block_4_4_block_4_4_0_split
I1002 14:55:12.375182 13372 net.cpp:100] Creating Layer block_4_4_block_4_4_0_split
I1002 14:55:12.375186 13372 net.cpp:434] block_4_4_block_4_4_0_split <- block_4_4
I1002 14:55:12.375191 13372 net.cpp:408] block_4_4_block_4_4_0_split -> block_4_4_block_4_4_0_split_0
I1002 14:55:12.375197 13372 net.cpp:408] block_4_4_block_4_4_0_split -> block_4_4_block_4_4_0_split_1
I1002 14:55:12.375226 13372 net.cpp:150] Setting up block_4_4_block_4_4_0_split
I1002 14:55:12.375231 13372 net.cpp:157] Top shape: 1 64 38 64 (155648)
I1002 14:55:12.375234 13372 net.cpp:157] Top shape: 1 64 38 64 (155648)
I1002 14:55:12.375236 13372 net.cpp:165] Memory required for data: 320763616
I1002 14:55:12.375239 13372 layer_factory.hpp:77] Creating layer conv4_5/expand
I1002 14:55:12.375247 13372 net.cpp:100] Creating Layer conv4_5/expand
I1002 14:55:12.375250 13372 net.cpp:434] conv4_5/expand <- block_4_4_block_4_4_0_split_0
I1002 14:55:12.375255 13372 net.cpp:408] conv4_5/expand -> conv4_5/expand
I1002 14:55:12.376454 13372 net.cpp:150] Setting up conv4_5/expand
I1002 14:55:12.376463 13372 net.cpp:157] Top shape: 1 384 38 64 (933888)
I1002 14:55:12.376466 13372 net.cpp:165] Memory required for data: 324499168
I1002 14:55:12.376471 13372 layer_factory.hpp:77] Creating layer conv4_5/expand/bn
I1002 14:55:12.376477 13372 net.cpp:100] Creating Layer conv4_5/expand/bn
I1002 14:55:12.376480 13372 net.cpp:434] conv4_5/expand/bn <- conv4_5/expand
I1002 14:55:12.376487 13372 net.cpp:395] conv4_5/expand/bn -> conv4_5/expand (in-place)
I1002 14:55:12.376619 13372 net.cpp:150] Setting up conv4_5/expand/bn
I1002 14:55:12.376624 13372 net.cpp:157] Top shape: 1 384 38 64 (933888)
I1002 14:55:12.376628 13372 net.cpp:165] Memory required for data: 328234720
I1002 14:55:12.376636 13372 layer_factory.hpp:77] Creating layer conv4_5/expand/scale
I1002 14:55:12.376639 13372 net.cpp:100] Creating Layer conv4_5/expand/scale
I1002 14:55:12.376643 13372 net.cpp:434] conv4_5/expand/scale <- conv4_5/expand
I1002 14:55:12.376647 13372 net.cpp:395] conv4_5/expand/scale -> conv4_5/expand (in-place)
I1002 14:55:12.376675 13372 layer_factory.hpp:77] Creating layer conv4_5/expand/scale
I1002 14:55:12.376750 13372 net.cpp:150] Setting up conv4_5/expand/scale
I1002 14:55:12.376754 13372 net.cpp:157] Top shape: 1 384 38 64 (933888)
I1002 14:55:12.376758 13372 net.cpp:165] Memory required for data: 331970272
I1002 14:55:12.376765 13372 layer_factory.hpp:77] Creating layer relu4_5/expand
I1002 14:55:12.376770 13372 net.cpp:100] Creating Layer relu4_5/expand
I1002 14:55:12.376772 13372 net.cpp:434] relu4_5/expand <- conv4_5/expand
I1002 14:55:12.376778 13372 net.cpp:395] relu4_5/expand -> conv4_5/expand (in-place)
I1002 14:55:12.377053 13372 net.cpp:150] Setting up relu4_5/expand
I1002 14:55:12.377058 13372 net.cpp:157] Top shape: 1 384 38 64 (933888)
I1002 14:55:12.377061 13372 net.cpp:165] Memory required for data: 335705824
I1002 14:55:12.377064 13372 layer_factory.hpp:77] Creating layer conv4_5/dwise
I1002 14:55:12.377070 13372 net.cpp:100] Creating Layer conv4_5/dwise
I1002 14:55:12.377074 13372 net.cpp:434] conv4_5/dwise <- conv4_5/expand
I1002 14:55:12.377079 13372 net.cpp:408] conv4_5/dwise -> conv4_5/dwise
I1002 14:55:12.377234 13372 net.cpp:150] Setting up conv4_5/dwise
I1002 14:55:12.377239 13372 net.cpp:157] Top shape: 1 384 38 64 (933888)
I1002 14:55:12.377243 13372 net.cpp:165] Memory required for data: 339441376
I1002 14:55:12.377246 13372 layer_factory.hpp:77] Creating layer conv4_5/dwise/bn
I1002 14:55:12.377254 13372 net.cpp:100] Creating Layer conv4_5/dwise/bn
I1002 14:55:12.377256 13372 net.cpp:434] conv4_5/dwise/bn <- conv4_5/dwise
I1002 14:55:12.377260 13372 net.cpp:395] conv4_5/dwise/bn -> conv4_5/dwise (in-place)
I1002 14:55:12.377389 13372 net.cpp:150] Setting up conv4_5/dwise/bn
I1002 14:55:12.377401 13372 net.cpp:157] Top shape: 1 384 38 64 (933888)
I1002 14:55:12.377404 13372 net.cpp:165] Memory required for data: 343176928
I1002 14:55:12.377411 13372 layer_factory.hpp:77] Creating layer conv4_5/dwise/scale
I1002 14:55:12.377418 13372 net.cpp:100] Creating Layer conv4_5/dwise/scale
I1002 14:55:12.377420 13372 net.cpp:434] conv4_5/dwise/scale <- conv4_5/dwise
I1002 14:55:12.377425 13372 net.cpp:395] conv4_5/dwise/scale -> conv4_5/dwise (in-place)
I1002 14:55:12.377452 13372 layer_factory.hpp:77] Creating layer conv4_5/dwise/scale
I1002 14:55:12.377532 13372 net.cpp:150] Setting up conv4_5/dwise/scale
I1002 14:55:12.377537 13372 net.cpp:157] Top shape: 1 384 38 64 (933888)
I1002 14:55:12.377539 13372 net.cpp:165] Memory required for data: 346912480
I1002 14:55:12.377544 13372 layer_factory.hpp:77] Creating layer relu4_5/dwise
I1002 14:55:12.377549 13372 net.cpp:100] Creating Layer relu4_5/dwise
I1002 14:55:12.377553 13372 net.cpp:434] relu4_5/dwise <- conv4_5/dwise
I1002 14:55:12.377557 13372 net.cpp:395] relu4_5/dwise -> conv4_5/dwise (in-place)
I1002 14:55:12.377931 13372 net.cpp:150] Setting up relu4_5/dwise
I1002 14:55:12.377939 13372 net.cpp:157] Top shape: 1 384 38 64 (933888)
I1002 14:55:12.377943 13372 net.cpp:165] Memory required for data: 350648032
I1002 14:55:12.377945 13372 layer_factory.hpp:77] Creating layer conv4_5/linear
I1002 14:55:12.377952 13372 net.cpp:100] Creating Layer conv4_5/linear
I1002 14:55:12.377955 13372 net.cpp:434] conv4_5/linear <- conv4_5/dwise
I1002 14:55:12.377962 13372 net.cpp:408] conv4_5/linear -> conv4_5/linear
I1002 14:55:12.379156 13372 net.cpp:150] Setting up conv4_5/linear
I1002 14:55:12.379164 13372 net.cpp:157] Top shape: 1 64 38 64 (155648)
I1002 14:55:12.379166 13372 net.cpp:165] Memory required for data: 351270624
I1002 14:55:12.379173 13372 layer_factory.hpp:77] Creating layer conv4_5/linear/bn
I1002 14:55:12.379179 13372 net.cpp:100] Creating Layer conv4_5/linear/bn
I1002 14:55:12.379182 13372 net.cpp:434] conv4_5/linear/bn <- conv4_5/linear
I1002 14:55:12.379189 13372 net.cpp:395] conv4_5/linear/bn -> conv4_5/linear (in-place)
I1002 14:55:12.379324 13372 net.cpp:150] Setting up conv4_5/linear/bn
I1002 14:55:12.379329 13372 net.cpp:157] Top shape: 1 64 38 64 (155648)
I1002 14:55:12.379331 13372 net.cpp:165] Memory required for data: 351893216
I1002 14:55:12.379338 13372 layer_factory.hpp:77] Creating layer conv4_5/linear/scale
I1002 14:55:12.379344 13372 net.cpp:100] Creating Layer conv4_5/linear/scale
I1002 14:55:12.379348 13372 net.cpp:434] conv4_5/linear/scale <- conv4_5/linear
I1002 14:55:12.379351 13372 net.cpp:395] conv4_5/linear/scale -> conv4_5/linear (in-place)
I1002 14:55:12.379384 13372 layer_factory.hpp:77] Creating layer conv4_5/linear/scale
I1002 14:55:12.379462 13372 net.cpp:150] Setting up conv4_5/linear/scale
I1002 14:55:12.379467 13372 net.cpp:157] Top shape: 1 64 38 64 (155648)
I1002 14:55:12.379469 13372 net.cpp:165] Memory required for data: 352515808
I1002 14:55:12.379474 13372 layer_factory.hpp:77] Creating layer block_4_5
I1002 14:55:12.379479 13372 net.cpp:100] Creating Layer block_4_5
I1002 14:55:12.379482 13372 net.cpp:434] block_4_5 <- block_4_4_block_4_4_0_split_1
I1002 14:55:12.379485 13372 net.cpp:434] block_4_5 <- conv4_5/linear
I1002 14:55:12.379492 13372 net.cpp:408] block_4_5 -> block_4_5
I1002 14:55:12.379510 13372 net.cpp:150] Setting up block_4_5
I1002 14:55:12.379514 13372 net.cpp:157] Top shape: 1 64 38 64 (155648)
I1002 14:55:12.379518 13372 net.cpp:165] Memory required for data: 353138400
I1002 14:55:12.379520 13372 layer_factory.hpp:77] Creating layer block_4_5_block_4_5_0_split
I1002 14:55:12.379526 13372 net.cpp:100] Creating Layer block_4_5_block_4_5_0_split
I1002 14:55:12.379530 13372 net.cpp:434] block_4_5_block_4_5_0_split <- block_4_5
I1002 14:55:12.379534 13372 net.cpp:408] block_4_5_block_4_5_0_split -> block_4_5_block_4_5_0_split_0
I1002 14:55:12.379540 13372 net.cpp:408] block_4_5_block_4_5_0_split -> block_4_5_block_4_5_0_split_1
I1002 14:55:12.379570 13372 net.cpp:150] Setting up block_4_5_block_4_5_0_split
I1002 14:55:12.379580 13372 net.cpp:157] Top shape: 1 64 38 64 (155648)
I1002 14:55:12.379583 13372 net.cpp:157] Top shape: 1 64 38 64 (155648)
I1002 14:55:12.379586 13372 net.cpp:165] Memory required for data: 354383584
I1002 14:55:12.379590 13372 layer_factory.hpp:77] Creating layer conv4_6/expand
I1002 14:55:12.379596 13372 net.cpp:100] Creating Layer conv4_6/expand
I1002 14:55:12.379600 13372 net.cpp:434] conv4_6/expand <- block_4_5_block_4_5_0_split_0
I1002 14:55:12.379606 13372 net.cpp:408] conv4_6/expand -> conv4_6/expand
I1002 14:55:12.380794 13372 net.cpp:150] Setting up conv4_6/expand
I1002 14:55:12.380801 13372 net.cpp:157] Top shape: 1 384 38 64 (933888)
I1002 14:55:12.380803 13372 net.cpp:165] Memory required for data: 358119136
I1002 14:55:12.380808 13372 layer_factory.hpp:77] Creating layer conv4_6/expand/bn
I1002 14:55:12.380816 13372 net.cpp:100] Creating Layer conv4_6/expand/bn
I1002 14:55:12.380820 13372 net.cpp:434] conv4_6/expand/bn <- conv4_6/expand
I1002 14:55:12.380823 13372 net.cpp:395] conv4_6/expand/bn -> conv4_6/expand (in-place)
I1002 14:55:12.380959 13372 net.cpp:150] Setting up conv4_6/expand/bn
I1002 14:55:12.380964 13372 net.cpp:157] Top shape: 1 384 38 64 (933888)
I1002 14:55:12.380966 13372 net.cpp:165] Memory required for data: 361854688
I1002 14:55:12.380972 13372 layer_factory.hpp:77] Creating layer conv4_6/expand/scale
I1002 14:55:12.380978 13372 net.cpp:100] Creating Layer conv4_6/expand/scale
I1002 14:55:12.380982 13372 net.cpp:434] conv4_6/expand/scale <- conv4_6/expand
I1002 14:55:12.380986 13372 net.cpp:395] conv4_6/expand/scale -> conv4_6/expand (in-place)
I1002 14:55:12.381013 13372 layer_factory.hpp:77] Creating layer conv4_6/expand/scale
I1002 14:55:12.381089 13372 net.cpp:150] Setting up conv4_6/expand/scale
I1002 14:55:12.381094 13372 net.cpp:157] Top shape: 1 384 38 64 (933888)
I1002 14:55:12.381098 13372 net.cpp:165] Memory required for data: 365590240
I1002 14:55:12.381103 13372 layer_factory.hpp:77] Creating layer relu4_6/expand
I1002 14:55:12.381108 13372 net.cpp:100] Creating Layer relu4_6/expand
I1002 14:55:12.381111 13372 net.cpp:434] relu4_6/expand <- conv4_6/expand
I1002 14:55:12.381115 13372 net.cpp:395] relu4_6/expand -> conv4_6/expand (in-place)
I1002 14:55:12.381511 13372 net.cpp:150] Setting up relu4_6/expand
I1002 14:55:12.381518 13372 net.cpp:157] Top shape: 1 384 38 64 (933888)
I1002 14:55:12.381521 13372 net.cpp:165] Memory required for data: 369325792
I1002 14:55:12.381525 13372 layer_factory.hpp:77] Creating layer conv4_6/dwise
I1002 14:55:12.381531 13372 net.cpp:100] Creating Layer conv4_6/dwise
I1002 14:55:12.381536 13372 net.cpp:434] conv4_6/dwise <- conv4_6/expand
I1002 14:55:12.381541 13372 net.cpp:408] conv4_6/dwise -> conv4_6/dwise
I1002 14:55:12.381700 13372 net.cpp:150] Setting up conv4_6/dwise
I1002 14:55:12.381706 13372 net.cpp:157] Top shape: 1 384 38 64 (933888)
I1002 14:55:12.381708 13372 net.cpp:165] Memory required for data: 373061344
I1002 14:55:12.381714 13372 layer_factory.hpp:77] Creating layer conv4_6/dwise/bn
I1002 14:55:12.381719 13372 net.cpp:100] Creating Layer conv4_6/dwise/bn
I1002 14:55:12.381723 13372 net.cpp:434] conv4_6/dwise/bn <- conv4_6/dwise
I1002 14:55:12.381727 13372 net.cpp:395] conv4_6/dwise/bn -> conv4_6/dwise (in-place)
I1002 14:55:12.381860 13372 net.cpp:150] Setting up conv4_6/dwise/bn
I1002 14:55:12.381865 13372 net.cpp:157] Top shape: 1 384 38 64 (933888)
I1002 14:55:12.381867 13372 net.cpp:165] Memory required for data: 376796896
I1002 14:55:12.381873 13372 layer_factory.hpp:77] Creating layer conv4_6/dwise/scale
I1002 14:55:12.381880 13372 net.cpp:100] Creating Layer conv4_6/dwise/scale
I1002 14:55:12.381883 13372 net.cpp:434] conv4_6/dwise/scale <- conv4_6/dwise
I1002 14:55:12.381887 13372 net.cpp:395] conv4_6/dwise/scale -> conv4_6/dwise (in-place)
I1002 14:55:12.381916 13372 layer_factory.hpp:77] Creating layer conv4_6/dwise/scale
I1002 14:55:12.381992 13372 net.cpp:150] Setting up conv4_6/dwise/scale
I1002 14:55:12.381997 13372 net.cpp:157] Top shape: 1 384 38 64 (933888)
I1002 14:55:12.382006 13372 net.cpp:165] Memory required for data: 380532448
I1002 14:55:12.382012 13372 layer_factory.hpp:77] Creating layer relu4_6/dwise
I1002 14:55:12.382017 13372 net.cpp:100] Creating Layer relu4_6/dwise
I1002 14:55:12.382020 13372 net.cpp:434] relu4_6/dwise <- conv4_6/dwise
I1002 14:55:12.382025 13372 net.cpp:395] relu4_6/dwise -> conv4_6/dwise (in-place)
I1002 14:55:12.382302 13372 net.cpp:150] Setting up relu4_6/dwise
I1002 14:55:12.382308 13372 net.cpp:157] Top shape: 1 384 38 64 (933888)
I1002 14:55:12.382311 13372 net.cpp:165] Memory required for data: 384268000
I1002 14:55:12.382314 13372 layer_factory.hpp:77] Creating layer conv4_6/linear
I1002 14:55:12.382323 13372 net.cpp:100] Creating Layer conv4_6/linear
I1002 14:55:12.382325 13372 net.cpp:434] conv4_6/linear <- conv4_6/dwise
I1002 14:55:12.382330 13372 net.cpp:408] conv4_6/linear -> conv4_6/linear
I1002 14:55:12.383523 13372 net.cpp:150] Setting up conv4_6/linear
I1002 14:55:12.383530 13372 net.cpp:157] Top shape: 1 64 38 64 (155648)
I1002 14:55:12.383534 13372 net.cpp:165] Memory required for data: 384890592
I1002 14:55:12.383538 13372 layer_factory.hpp:77] Creating layer conv4_6/linear/bn
I1002 14:55:12.383545 13372 net.cpp:100] Creating Layer conv4_6/linear/bn
I1002 14:55:12.383549 13372 net.cpp:434] conv4_6/linear/bn <- conv4_6/linear
I1002 14:55:12.383553 13372 net.cpp:395] conv4_6/linear/bn -> conv4_6/linear (in-place)
I1002 14:55:12.383695 13372 net.cpp:150] Setting up conv4_6/linear/bn
I1002 14:55:12.383700 13372 net.cpp:157] Top shape: 1 64 38 64 (155648)
I1002 14:55:12.383702 13372 net.cpp:165] Memory required for data: 385513184
I1002 14:55:12.383709 13372 layer_factory.hpp:77] Creating layer conv4_6/linear/scale
I1002 14:55:12.383715 13372 net.cpp:100] Creating Layer conv4_6/linear/scale
I1002 14:55:12.383718 13372 net.cpp:434] conv4_6/linear/scale <- conv4_6/linear
I1002 14:55:12.383723 13372 net.cpp:395] conv4_6/linear/scale -> conv4_6/linear (in-place)
I1002 14:55:12.383754 13372 layer_factory.hpp:77] Creating layer conv4_6/linear/scale
I1002 14:55:12.383833 13372 net.cpp:150] Setting up conv4_6/linear/scale
I1002 14:55:12.383838 13372 net.cpp:157] Top shape: 1 64 38 64 (155648)
I1002 14:55:12.383841 13372 net.cpp:165] Memory required for data: 386135776
I1002 14:55:12.383847 13372 layer_factory.hpp:77] Creating layer block_4_6
I1002 14:55:12.383853 13372 net.cpp:100] Creating Layer block_4_6
I1002 14:55:12.383857 13372 net.cpp:434] block_4_6 <- block_4_5_block_4_5_0_split_1
I1002 14:55:12.383862 13372 net.cpp:434] block_4_6 <- conv4_6/linear
I1002 14:55:12.383867 13372 net.cpp:408] block_4_6 -> block_4_6
I1002 14:55:12.383886 13372 net.cpp:150] Setting up block_4_6
I1002 14:55:12.383891 13372 net.cpp:157] Top shape: 1 64 38 64 (155648)
I1002 14:55:12.383893 13372 net.cpp:165] Memory required for data: 386758368
I1002 14:55:12.383898 13372 layer_factory.hpp:77] Creating layer conv4_7/expand
I1002 14:55:12.383913 13372 net.cpp:100] Creating Layer conv4_7/expand
I1002 14:55:12.383915 13372 net.cpp:434] conv4_7/expand <- block_4_6
I1002 14:55:12.383920 13372 net.cpp:408] conv4_7/expand -> conv4_7/expand
I1002 14:55:12.385121 13372 net.cpp:150] Setting up conv4_7/expand
I1002 14:55:12.385129 13372 net.cpp:157] Top shape: 1 384 38 64 (933888)
I1002 14:55:12.385131 13372 net.cpp:165] Memory required for data: 390493920
I1002 14:55:12.385136 13372 layer_factory.hpp:77] Creating layer conv4_7/expand/bn
I1002 14:55:12.385144 13372 net.cpp:100] Creating Layer conv4_7/expand/bn
I1002 14:55:12.385148 13372 net.cpp:434] conv4_7/expand/bn <- conv4_7/expand
I1002 14:55:12.385152 13372 net.cpp:395] conv4_7/expand/bn -> conv4_7/expand (in-place)
I1002 14:55:12.385287 13372 net.cpp:150] Setting up conv4_7/expand/bn
I1002 14:55:12.385293 13372 net.cpp:157] Top shape: 1 384 38 64 (933888)
I1002 14:55:12.385294 13372 net.cpp:165] Memory required for data: 394229472
I1002 14:55:12.385301 13372 layer_factory.hpp:77] Creating layer conv4_7/expand/scale
I1002 14:55:12.385308 13372 net.cpp:100] Creating Layer conv4_7/expand/scale
I1002 14:55:12.385318 13372 net.cpp:434] conv4_7/expand/scale <- conv4_7/expand
I1002 14:55:12.385323 13372 net.cpp:395] conv4_7/expand/scale -> conv4_7/expand (in-place)
I1002 14:55:12.385350 13372 layer_factory.hpp:77] Creating layer conv4_7/expand/scale
I1002 14:55:12.385427 13372 net.cpp:150] Setting up conv4_7/expand/scale
I1002 14:55:12.385433 13372 net.cpp:157] Top shape: 1 384 38 64 (933888)
I1002 14:55:12.385435 13372 net.cpp:165] Memory required for data: 397965024
I1002 14:55:12.385442 13372 layer_factory.hpp:77] Creating layer relu4_7/expand
I1002 14:55:12.385445 13372 net.cpp:100] Creating Layer relu4_7/expand
I1002 14:55:12.385449 13372 net.cpp:434] relu4_7/expand <- conv4_7/expand
I1002 14:55:12.385454 13372 net.cpp:395] relu4_7/expand -> conv4_7/expand (in-place)
I1002 14:55:12.385854 13372 net.cpp:150] Setting up relu4_7/expand
I1002 14:55:12.385860 13372 net.cpp:157] Top shape: 1 384 38 64 (933888)
I1002 14:55:12.385862 13372 net.cpp:165] Memory required for data: 401700576
I1002 14:55:12.385864 13372 layer_factory.hpp:77] Creating layer conv4_7/dwise
I1002 14:55:12.385869 13372 net.cpp:100] Creating Layer conv4_7/dwise
I1002 14:55:12.385872 13372 net.cpp:434] conv4_7/dwise <- conv4_7/expand
I1002 14:55:12.385876 13372 net.cpp:408] conv4_7/dwise -> conv4_7/dwise
I1002 14:55:12.386034 13372 net.cpp:150] Setting up conv4_7/dwise
I1002 14:55:12.386037 13372 net.cpp:157] Top shape: 1 384 19 32 (233472)
I1002 14:55:12.386039 13372 net.cpp:165] Memory required for data: 402634464
I1002 14:55:12.386042 13372 layer_factory.hpp:77] Creating layer conv4_7/dwise/bn
I1002 14:55:12.386046 13372 net.cpp:100] Creating Layer conv4_7/dwise/bn
I1002 14:55:12.386049 13372 net.cpp:434] conv4_7/dwise/bn <- conv4_7/dwise
I1002 14:55:12.386051 13372 net.cpp:395] conv4_7/dwise/bn -> conv4_7/dwise (in-place)
I1002 14:55:12.386178 13372 net.cpp:150] Setting up conv4_7/dwise/bn
I1002 14:55:12.386181 13372 net.cpp:157] Top shape: 1 384 19 32 (233472)
I1002 14:55:12.386183 13372 net.cpp:165] Memory required for data: 403568352
I1002 14:55:12.386186 13372 layer_factory.hpp:77] Creating layer conv4_7/dwise/scale
I1002 14:55:12.386190 13372 net.cpp:100] Creating Layer conv4_7/dwise/scale
I1002 14:55:12.386193 13372 net.cpp:434] conv4_7/dwise/scale <- conv4_7/dwise
I1002 14:55:12.386196 13372 net.cpp:395] conv4_7/dwise/scale -> conv4_7/dwise (in-place)
I1002 14:55:12.386225 13372 layer_factory.hpp:77] Creating layer conv4_7/dwise/scale
I1002 14:55:12.386301 13372 net.cpp:150] Setting up conv4_7/dwise/scale
I1002 14:55:12.386306 13372 net.cpp:157] Top shape: 1 384 19 32 (233472)
I1002 14:55:12.386307 13372 net.cpp:165] Memory required for data: 404502240
I1002 14:55:12.386312 13372 layer_factory.hpp:77] Creating layer relu4_7/dwise
I1002 14:55:12.386315 13372 net.cpp:100] Creating Layer relu4_7/dwise
I1002 14:55:12.386318 13372 net.cpp:434] relu4_7/dwise <- conv4_7/dwise
I1002 14:55:12.386320 13372 net.cpp:395] relu4_7/dwise -> conv4_7/dwise (in-place)
I1002 14:55:12.386588 13372 net.cpp:150] Setting up relu4_7/dwise
I1002 14:55:12.386595 13372 net.cpp:157] Top shape: 1 384 19 32 (233472)
I1002 14:55:12.386596 13372 net.cpp:165] Memory required for data: 405436128
I1002 14:55:12.386598 13372 layer_factory.hpp:77] Creating layer conv4_7/linear
I1002 14:55:12.386603 13372 net.cpp:100] Creating Layer conv4_7/linear
I1002 14:55:12.386606 13372 net.cpp:434] conv4_7/linear <- conv4_7/dwise
I1002 14:55:12.386610 13372 net.cpp:408] conv4_7/linear -> conv4_7/linear
I1002 14:55:12.387866 13372 net.cpp:150] Setting up conv4_7/linear
I1002 14:55:12.387871 13372 net.cpp:157] Top shape: 1 96 19 32 (58368)
I1002 14:55:12.387874 13372 net.cpp:165] Memory required for data: 405669600
I1002 14:55:12.387877 13372 layer_factory.hpp:77] Creating layer conv4_7/linear/bn
I1002 14:55:12.387882 13372 net.cpp:100] Creating Layer conv4_7/linear/bn
I1002 14:55:12.387884 13372 net.cpp:434] conv4_7/linear/bn <- conv4_7/linear
I1002 14:55:12.387887 13372 net.cpp:395] conv4_7/linear/bn -> conv4_7/linear (in-place)
I1002 14:55:12.388036 13372 net.cpp:150] Setting up conv4_7/linear/bn
I1002 14:55:12.388047 13372 net.cpp:157] Top shape: 1 96 19 32 (58368)
I1002 14:55:12.388051 13372 net.cpp:165] Memory required for data: 405903072
I1002 14:55:12.388057 13372 layer_factory.hpp:77] Creating layer conv4_7/linear/scale
I1002 14:55:12.388062 13372 net.cpp:100] Creating Layer conv4_7/linear/scale
I1002 14:55:12.388064 13372 net.cpp:434] conv4_7/linear/scale <- conv4_7/linear
I1002 14:55:12.388067 13372 net.cpp:395] conv4_7/linear/scale -> conv4_7/linear (in-place)
I1002 14:55:12.388097 13372 layer_factory.hpp:77] Creating layer conv4_7/linear/scale
I1002 14:55:12.388183 13372 net.cpp:150] Setting up conv4_7/linear/scale
I1002 14:55:12.388187 13372 net.cpp:157] Top shape: 1 96 19 32 (58368)
I1002 14:55:12.388190 13372 net.cpp:165] Memory required for data: 406136544
I1002 14:55:12.388196 13372 layer_factory.hpp:77] Creating layer conv4_7/linear_conv4_7/linear/scale_0_split
I1002 14:55:12.388202 13372 net.cpp:100] Creating Layer conv4_7/linear_conv4_7/linear/scale_0_split
I1002 14:55:12.388206 13372 net.cpp:434] conv4_7/linear_conv4_7/linear/scale_0_split <- conv4_7/linear
I1002 14:55:12.388209 13372 net.cpp:408] conv4_7/linear_conv4_7/linear/scale_0_split -> conv4_7/linear_conv4_7/linear/scale_0_split_0
I1002 14:55:12.388216 13372 net.cpp:408] conv4_7/linear_conv4_7/linear/scale_0_split -> conv4_7/linear_conv4_7/linear/scale_0_split_1
I1002 14:55:12.388244 13372 net.cpp:150] Setting up conv4_7/linear_conv4_7/linear/scale_0_split
I1002 14:55:12.388247 13372 net.cpp:157] Top shape: 1 96 19 32 (58368)
I1002 14:55:12.388252 13372 net.cpp:157] Top shape: 1 96 19 32 (58368)
I1002 14:55:12.388255 13372 net.cpp:165] Memory required for data: 406603488
I1002 14:55:12.388258 13372 layer_factory.hpp:77] Creating layer conv5_1/expand
I1002 14:55:12.388263 13372 net.cpp:100] Creating Layer conv5_1/expand
I1002 14:55:12.388267 13372 net.cpp:434] conv5_1/expand <- conv4_7/linear_conv4_7/linear/scale_0_split_0
I1002 14:55:12.388269 13372 net.cpp:408] conv5_1/expand -> conv5_1/expand
I1002 14:55:12.389765 13372 net.cpp:150] Setting up conv5_1/expand
I1002 14:55:12.389773 13372 net.cpp:157] Top shape: 1 576 19 32 (350208)
I1002 14:55:12.389776 13372 net.cpp:165] Memory required for data: 408004320
I1002 14:55:12.389782 13372 layer_factory.hpp:77] Creating layer conv5_1/expand/bn
I1002 14:55:12.389787 13372 net.cpp:100] Creating Layer conv5_1/expand/bn
I1002 14:55:12.389791 13372 net.cpp:434] conv5_1/expand/bn <- conv5_1/expand
I1002 14:55:12.389796 13372 net.cpp:395] conv5_1/expand/bn -> conv5_1/expand (in-place)
I1002 14:55:12.389943 13372 net.cpp:150] Setting up conv5_1/expand/bn
I1002 14:55:12.389947 13372 net.cpp:157] Top shape: 1 576 19 32 (350208)
I1002 14:55:12.389950 13372 net.cpp:165] Memory required for data: 409405152
I1002 14:55:12.389956 13372 layer_factory.hpp:77] Creating layer conv5_1/expand/scale
I1002 14:55:12.389961 13372 net.cpp:100] Creating Layer conv5_1/expand/scale
I1002 14:55:12.389964 13372 net.cpp:434] conv5_1/expand/scale <- conv5_1/expand
I1002 14:55:12.389969 13372 net.cpp:395] conv5_1/expand/scale -> conv5_1/expand (in-place)
I1002 14:55:12.389997 13372 layer_factory.hpp:77] Creating layer conv5_1/expand/scale
I1002 14:55:12.390081 13372 net.cpp:150] Setting up conv5_1/expand/scale
I1002 14:55:12.390085 13372 net.cpp:157] Top shape: 1 576 19 32 (350208)
I1002 14:55:12.390086 13372 net.cpp:165] Memory required for data: 410805984
I1002 14:55:12.390090 13372 layer_factory.hpp:77] Creating layer relu5_1/expand
I1002 14:55:12.390094 13372 net.cpp:100] Creating Layer relu5_1/expand
I1002 14:55:12.390096 13372 net.cpp:434] relu5_1/expand <- conv5_1/expand
I1002 14:55:12.390100 13372 net.cpp:395] relu5_1/expand -> conv5_1/expand (in-place)
I1002 14:55:12.390373 13372 net.cpp:150] Setting up relu5_1/expand
I1002 14:55:12.390379 13372 net.cpp:157] Top shape: 1 576 19 32 (350208)
I1002 14:55:12.390383 13372 net.cpp:165] Memory required for data: 412206816
I1002 14:55:12.390385 13372 layer_factory.hpp:77] Creating layer conv5_1/dwise
I1002 14:55:12.390393 13372 net.cpp:100] Creating Layer conv5_1/dwise
I1002 14:55:12.390403 13372 net.cpp:434] conv5_1/dwise <- conv5_1/expand
I1002 14:55:12.390408 13372 net.cpp:408] conv5_1/dwise -> conv5_1/dwise
I1002 14:55:12.390580 13372 net.cpp:150] Setting up conv5_1/dwise
I1002 14:55:12.390585 13372 net.cpp:157] Top shape: 1 576 19 32 (350208)
I1002 14:55:12.390588 13372 net.cpp:165] Memory required for data: 413607648
I1002 14:55:12.390591 13372 layer_factory.hpp:77] Creating layer conv5_1/dwise/bn
I1002 14:55:12.390595 13372 net.cpp:100] Creating Layer conv5_1/dwise/bn
I1002 14:55:12.390599 13372 net.cpp:434] conv5_1/dwise/bn <- conv5_1/dwise
I1002 14:55:12.390601 13372 net.cpp:395] conv5_1/dwise/bn -> conv5_1/dwise (in-place)
I1002 14:55:12.390740 13372 net.cpp:150] Setting up conv5_1/dwise/bn
I1002 14:55:12.390744 13372 net.cpp:157] Top shape: 1 576 19 32 (350208)
I1002 14:55:12.390746 13372 net.cpp:165] Memory required for data: 415008480
I1002 14:55:12.390753 13372 layer_factory.hpp:77] Creating layer conv5_1/dwise/scale
I1002 14:55:12.390756 13372 net.cpp:100] Creating Layer conv5_1/dwise/scale
I1002 14:55:12.390758 13372 net.cpp:434] conv5_1/dwise/scale <- conv5_1/dwise
I1002 14:55:12.390761 13372 net.cpp:395] conv5_1/dwise/scale -> conv5_1/dwise (in-place)
I1002 14:55:12.390789 13372 layer_factory.hpp:77] Creating layer conv5_1/dwise/scale
I1002 14:55:12.390868 13372 net.cpp:150] Setting up conv5_1/dwise/scale
I1002 14:55:12.390872 13372 net.cpp:157] Top shape: 1 576 19 32 (350208)
I1002 14:55:12.390873 13372 net.cpp:165] Memory required for data: 416409312
I1002 14:55:12.390877 13372 layer_factory.hpp:77] Creating layer relu5_1/dwise
I1002 14:55:12.390882 13372 net.cpp:100] Creating Layer relu5_1/dwise
I1002 14:55:12.390882 13372 net.cpp:434] relu5_1/dwise <- conv5_1/dwise
I1002 14:55:12.390885 13372 net.cpp:395] relu5_1/dwise -> conv5_1/dwise (in-place)
I1002 14:55:12.391160 13372 net.cpp:150] Setting up relu5_1/dwise
I1002 14:55:12.391166 13372 net.cpp:157] Top shape: 1 576 19 32 (350208)
I1002 14:55:12.391168 13372 net.cpp:165] Memory required for data: 417810144
I1002 14:55:12.391170 13372 layer_factory.hpp:77] Creating layer conv5_1/linear
I1002 14:55:12.391175 13372 net.cpp:100] Creating Layer conv5_1/linear
I1002 14:55:12.391178 13372 net.cpp:434] conv5_1/linear <- conv5_1/dwise
I1002 14:55:12.391181 13372 net.cpp:408] conv5_1/linear -> conv5_1/linear
I1002 14:55:12.392719 13372 net.cpp:150] Setting up conv5_1/linear
I1002 14:55:12.392726 13372 net.cpp:157] Top shape: 1 96 19 32 (58368)
I1002 14:55:12.392729 13372 net.cpp:165] Memory required for data: 418043616
I1002 14:55:12.392732 13372 layer_factory.hpp:77] Creating layer conv5_1/linear/bn
I1002 14:55:12.392737 13372 net.cpp:100] Creating Layer conv5_1/linear/bn
I1002 14:55:12.392740 13372 net.cpp:434] conv5_1/linear/bn <- conv5_1/linear
I1002 14:55:12.392743 13372 net.cpp:395] conv5_1/linear/bn -> conv5_1/linear (in-place)
I1002 14:55:12.392889 13372 net.cpp:150] Setting up conv5_1/linear/bn
I1002 14:55:12.392892 13372 net.cpp:157] Top shape: 1 96 19 32 (58368)
I1002 14:55:12.392894 13372 net.cpp:165] Memory required for data: 418277088
I1002 14:55:12.392899 13372 layer_factory.hpp:77] Creating layer conv5_1/linear/scale
I1002 14:55:12.392902 13372 net.cpp:100] Creating Layer conv5_1/linear/scale
I1002 14:55:12.392906 13372 net.cpp:434] conv5_1/linear/scale <- conv5_1/linear
I1002 14:55:12.392910 13372 net.cpp:395] conv5_1/linear/scale -> conv5_1/linear (in-place)
I1002 14:55:12.392941 13372 layer_factory.hpp:77] Creating layer conv5_1/linear/scale
I1002 14:55:12.393028 13372 net.cpp:150] Setting up conv5_1/linear/scale
I1002 14:55:12.393033 13372 net.cpp:157] Top shape: 1 96 19 32 (58368)
I1002 14:55:12.393034 13372 net.cpp:165] Memory required for data: 418510560
I1002 14:55:12.393038 13372 layer_factory.hpp:77] Creating layer block_5_1
I1002 14:55:12.393040 13372 net.cpp:100] Creating Layer block_5_1
I1002 14:55:12.393043 13372 net.cpp:434] block_5_1 <- conv4_7/linear_conv4_7/linear/scale_0_split_1
I1002 14:55:12.393046 13372 net.cpp:434] block_5_1 <- conv5_1/linear
I1002 14:55:12.393050 13372 net.cpp:408] block_5_1 -> block_5_1
I1002 14:55:12.393074 13372 net.cpp:150] Setting up block_5_1
I1002 14:55:12.393079 13372 net.cpp:157] Top shape: 1 96 19 32 (58368)
I1002 14:55:12.393081 13372 net.cpp:165] Memory required for data: 418744032
I1002 14:55:12.393082 13372 layer_factory.hpp:77] Creating layer block_5_1_block_5_1_0_split
I1002 14:55:12.393086 13372 net.cpp:100] Creating Layer block_5_1_block_5_1_0_split
I1002 14:55:12.393088 13372 net.cpp:434] block_5_1_block_5_1_0_split <- block_5_1
I1002 14:55:12.393092 13372 net.cpp:408] block_5_1_block_5_1_0_split -> block_5_1_block_5_1_0_split_0
I1002 14:55:12.393097 13372 net.cpp:408] block_5_1_block_5_1_0_split -> block_5_1_block_5_1_0_split_1
I1002 14:55:12.393121 13372 net.cpp:150] Setting up block_5_1_block_5_1_0_split
I1002 14:55:12.393126 13372 net.cpp:157] Top shape: 1 96 19 32 (58368)
I1002 14:55:12.393128 13372 net.cpp:157] Top shape: 1 96 19 32 (58368)
I1002 14:55:12.393129 13372 net.cpp:165] Memory required for data: 419210976
I1002 14:55:12.393131 13372 layer_factory.hpp:77] Creating layer conv5_2/expand
I1002 14:55:12.393136 13372 net.cpp:100] Creating Layer conv5_2/expand
I1002 14:55:12.393138 13372 net.cpp:434] conv5_2/expand <- block_5_1_block_5_1_0_split_0
I1002 14:55:12.393142 13372 net.cpp:408] conv5_2/expand -> conv5_2/expand
I1002 14:55:12.394652 13372 net.cpp:150] Setting up conv5_2/expand
I1002 14:55:12.394660 13372 net.cpp:157] Top shape: 1 576 19 32 (350208)
I1002 14:55:12.394662 13372 net.cpp:165] Memory required for data: 420611808
I1002 14:55:12.394666 13372 layer_factory.hpp:77] Creating layer conv5_2/expand/bn
I1002 14:55:12.394675 13372 net.cpp:100] Creating Layer conv5_2/expand/bn
I1002 14:55:12.394678 13372 net.cpp:434] conv5_2/expand/bn <- conv5_2/expand
I1002 14:55:12.394683 13372 net.cpp:395] conv5_2/expand/bn -> conv5_2/expand (in-place)
I1002 14:55:12.394836 13372 net.cpp:150] Setting up conv5_2/expand/bn
I1002 14:55:12.394840 13372 net.cpp:157] Top shape: 1 576 19 32 (350208)
I1002 14:55:12.394843 13372 net.cpp:165] Memory required for data: 422012640
I1002 14:55:12.394851 13372 layer_factory.hpp:77] Creating layer conv5_2/expand/scale
I1002 14:55:12.394856 13372 net.cpp:100] Creating Layer conv5_2/expand/scale
I1002 14:55:12.394860 13372 net.cpp:434] conv5_2/expand/scale <- conv5_2/expand
I1002 14:55:12.394865 13372 net.cpp:395] conv5_2/expand/scale -> conv5_2/expand (in-place)
I1002 14:55:12.394894 13372 layer_factory.hpp:77] Creating layer conv5_2/expand/scale
I1002 14:55:12.394978 13372 net.cpp:150] Setting up conv5_2/expand/scale
I1002 14:55:12.394981 13372 net.cpp:157] Top shape: 1 576 19 32 (350208)
I1002 14:55:12.394984 13372 net.cpp:165] Memory required for data: 423413472
I1002 14:55:12.394987 13372 layer_factory.hpp:77] Creating layer relu5_2/expand
I1002 14:55:12.394991 13372 net.cpp:100] Creating Layer relu5_2/expand
I1002 14:55:12.394994 13372 net.cpp:434] relu5_2/expand <- conv5_2/expand
I1002 14:55:12.394996 13372 net.cpp:395] relu5_2/expand -> conv5_2/expand (in-place)
I1002 14:55:12.395275 13372 net.cpp:150] Setting up relu5_2/expand
I1002 14:55:12.395282 13372 net.cpp:157] Top shape: 1 576 19 32 (350208)
I1002 14:55:12.395284 13372 net.cpp:165] Memory required for data: 424814304
I1002 14:55:12.395287 13372 layer_factory.hpp:77] Creating layer conv5_2/dwise
I1002 14:55:12.395296 13372 net.cpp:100] Creating Layer conv5_2/dwise
I1002 14:55:12.395299 13372 net.cpp:434] conv5_2/dwise <- conv5_2/expand
I1002 14:55:12.395304 13372 net.cpp:408] conv5_2/dwise -> conv5_2/dwise
I1002 14:55:12.395481 13372 net.cpp:150] Setting up conv5_2/dwise
I1002 14:55:12.395486 13372 net.cpp:157] Top shape: 1 576 19 32 (350208)
I1002 14:55:12.395488 13372 net.cpp:165] Memory required for data: 426215136
I1002 14:55:12.395491 13372 layer_factory.hpp:77] Creating layer conv5_2/dwise/bn
I1002 14:55:12.395496 13372 net.cpp:100] Creating Layer conv5_2/dwise/bn
I1002 14:55:12.395501 13372 net.cpp:434] conv5_2/dwise/bn <- conv5_2/dwise
I1002 14:55:12.395504 13372 net.cpp:395] conv5_2/dwise/bn -> conv5_2/dwise (in-place)
I1002 14:55:12.395658 13372 net.cpp:150] Setting up conv5_2/dwise/bn
I1002 14:55:12.395663 13372 net.cpp:157] Top shape: 1 576 19 32 (350208)
I1002 14:55:12.395665 13372 net.cpp:165] Memory required for data: 427615968
I1002 14:55:12.395673 13372 layer_factory.hpp:77] Creating layer conv5_2/dwise/scale
I1002 14:55:12.395678 13372 net.cpp:100] Creating Layer conv5_2/dwise/scale
I1002 14:55:12.395681 13372 net.cpp:434] conv5_2/dwise/scale <- conv5_2/dwise
I1002 14:55:12.395685 13372 net.cpp:395] conv5_2/dwise/scale -> conv5_2/dwise (in-place)
I1002 14:55:12.395714 13372 layer_factory.hpp:77] Creating layer conv5_2/dwise/scale
I1002 14:55:12.395795 13372 net.cpp:150] Setting up conv5_2/dwise/scale
I1002 14:55:12.395799 13372 net.cpp:157] Top shape: 1 576 19 32 (350208)
I1002 14:55:12.395802 13372 net.cpp:165] Memory required for data: 429016800
I1002 14:55:12.395805 13372 layer_factory.hpp:77] Creating layer relu5_2/dwise
I1002 14:55:12.395809 13372 net.cpp:100] Creating Layer relu5_2/dwise
I1002 14:55:12.395812 13372 net.cpp:434] relu5_2/dwise <- conv5_2/dwise
I1002 14:55:12.395817 13372 net.cpp:395] relu5_2/dwise -> conv5_2/dwise (in-place)
I1002 14:55:12.396199 13372 net.cpp:150] Setting up relu5_2/dwise
I1002 14:55:12.396206 13372 net.cpp:157] Top shape: 1 576 19 32 (350208)
I1002 14:55:12.396209 13372 net.cpp:165] Memory required for data: 430417632
I1002 14:55:12.396212 13372 layer_factory.hpp:77] Creating layer conv5_2/linear
I1002 14:55:12.396219 13372 net.cpp:100] Creating Layer conv5_2/linear
I1002 14:55:12.396222 13372 net.cpp:434] conv5_2/linear <- conv5_2/dwise
I1002 14:55:12.396225 13372 net.cpp:408] conv5_2/linear -> conv5_2/linear
I1002 14:55:12.397610 13372 net.cpp:150] Setting up conv5_2/linear
I1002 14:55:12.397617 13372 net.cpp:157] Top shape: 1 96 19 32 (58368)
I1002 14:55:12.397620 13372 net.cpp:165] Memory required for data: 430651104
I1002 14:55:12.397625 13372 layer_factory.hpp:77] Creating layer conv5_2/linear/bn
I1002 14:55:12.397631 13372 net.cpp:100] Creating Layer conv5_2/linear/bn
I1002 14:55:12.397635 13372 net.cpp:434] conv5_2/linear/bn <- conv5_2/linear
I1002 14:55:12.397639 13372 net.cpp:395] conv5_2/linear/bn -> conv5_2/linear (in-place)
I1002 14:55:12.397785 13372 net.cpp:150] Setting up conv5_2/linear/bn
I1002 14:55:12.397789 13372 net.cpp:157] Top shape: 1 96 19 32 (58368)
I1002 14:55:12.397794 13372 net.cpp:165] Memory required for data: 430884576
I1002 14:55:12.397799 13372 layer_factory.hpp:77] Creating layer conv5_2/linear/scale
I1002 14:55:12.397804 13372 net.cpp:100] Creating Layer conv5_2/linear/scale
I1002 14:55:12.397807 13372 net.cpp:434] conv5_2/linear/scale <- conv5_2/linear
I1002 14:55:12.397811 13372 net.cpp:395] conv5_2/linear/scale -> conv5_2/linear (in-place)
I1002 14:55:12.397841 13372 layer_factory.hpp:77] Creating layer conv5_2/linear/scale
I1002 14:55:12.397927 13372 net.cpp:150] Setting up conv5_2/linear/scale
I1002 14:55:12.397931 13372 net.cpp:157] Top shape: 1 96 19 32 (58368)
I1002 14:55:12.397935 13372 net.cpp:165] Memory required for data: 431118048
I1002 14:55:12.397939 13372 layer_factory.hpp:77] Creating layer block_5_2
I1002 14:55:12.397943 13372 net.cpp:100] Creating Layer block_5_2
I1002 14:55:12.397948 13372 net.cpp:434] block_5_2 <- block_5_1_block_5_1_0_split_1
I1002 14:55:12.397953 13372 net.cpp:434] block_5_2 <- conv5_2/linear
I1002 14:55:12.397956 13372 net.cpp:408] block_5_2 -> block_5_2
I1002 14:55:12.397975 13372 net.cpp:150] Setting up block_5_2
I1002 14:55:12.397979 13372 net.cpp:157] Top shape: 1 96 19 32 (58368)
I1002 14:55:12.397984 13372 net.cpp:165] Memory required for data: 431351520
I1002 14:55:12.397985 13372 layer_factory.hpp:77] Creating layer conv5_3/expand
I1002 14:55:12.397991 13372 net.cpp:100] Creating Layer conv5_3/expand
I1002 14:55:12.397994 13372 net.cpp:434] conv5_3/expand <- block_5_2
I1002 14:55:12.398000 13372 net.cpp:408] conv5_3/expand -> conv5_3/expand
I1002 14:55:12.399868 13372 net.cpp:150] Setting up conv5_3/expand
I1002 14:55:12.399878 13372 net.cpp:157] Top shape: 1 576 19 32 (350208)
I1002 14:55:12.399878 13372 net.cpp:165] Memory required for data: 432752352
I1002 14:55:12.399895 13372 layer_factory.hpp:77] Creating layer conv5_3/expand/bn
I1002 14:55:12.399904 13372 net.cpp:100] Creating Layer conv5_3/expand/bn
I1002 14:55:12.399907 13372 net.cpp:434] conv5_3/expand/bn <- conv5_3/expand
I1002 14:55:12.399912 13372 net.cpp:395] conv5_3/expand/bn -> conv5_3/expand (in-place)
I1002 14:55:12.400066 13372 net.cpp:150] Setting up conv5_3/expand/bn
I1002 14:55:12.400071 13372 net.cpp:157] Top shape: 1 576 19 32 (350208)
I1002 14:55:12.400074 13372 net.cpp:165] Memory required for data: 434153184
I1002 14:55:12.400080 13372 layer_factory.hpp:77] Creating layer conv5_3/expand/scale
I1002 14:55:12.400085 13372 net.cpp:100] Creating Layer conv5_3/expand/scale
I1002 14:55:12.400089 13372 net.cpp:434] conv5_3/expand/scale <- conv5_3/expand
I1002 14:55:12.400092 13372 net.cpp:395] conv5_3/expand/scale -> conv5_3/expand (in-place)
I1002 14:55:12.400123 13372 layer_factory.hpp:77] Creating layer conv5_3/expand/scale
I1002 14:55:12.400209 13372 net.cpp:150] Setting up conv5_3/expand/scale
I1002 14:55:12.400214 13372 net.cpp:157] Top shape: 1 576 19 32 (350208)
I1002 14:55:12.400218 13372 net.cpp:165] Memory required for data: 435554016
I1002 14:55:12.400221 13372 layer_factory.hpp:77] Creating layer relu5_3/expand
I1002 14:55:12.400228 13372 net.cpp:100] Creating Layer relu5_3/expand
I1002 14:55:12.400230 13372 net.cpp:434] relu5_3/expand <- conv5_3/expand
I1002 14:55:12.400233 13372 net.cpp:395] relu5_3/expand -> conv5_3/expand (in-place)
I1002 14:55:12.400517 13372 net.cpp:150] Setting up relu5_3/expand
I1002 14:55:12.400523 13372 net.cpp:157] Top shape: 1 576 19 32 (350208)
I1002 14:55:12.400527 13372 net.cpp:165] Memory required for data: 436954848
I1002 14:55:12.400529 13372 layer_factory.hpp:77] Creating layer conv5_3/expand_relu5_3/expand_0_split
I1002 14:55:12.400535 13372 net.cpp:100] Creating Layer conv5_3/expand_relu5_3/expand_0_split
I1002 14:55:12.400538 13372 net.cpp:434] conv5_3/expand_relu5_3/expand_0_split <- conv5_3/expand
I1002 14:55:12.400543 13372 net.cpp:408] conv5_3/expand_relu5_3/expand_0_split -> conv5_3/expand_relu5_3/expand_0_split_0
I1002 14:55:12.400548 13372 net.cpp:408] conv5_3/expand_relu5_3/expand_0_split -> conv5_3/expand_relu5_3/expand_0_split_1
I1002 14:55:12.400553 13372 net.cpp:408] conv5_3/expand_relu5_3/expand_0_split -> conv5_3/expand_relu5_3/expand_0_split_2
I1002 14:55:12.400557 13372 net.cpp:408] conv5_3/expand_relu5_3/expand_0_split -> conv5_3/expand_relu5_3/expand_0_split_3
I1002 14:55:12.400605 13372 net.cpp:150] Setting up conv5_3/expand_relu5_3/expand_0_split
I1002 14:55:12.400609 13372 net.cpp:157] Top shape: 1 576 19 32 (350208)
I1002 14:55:12.400611 13372 net.cpp:157] Top shape: 1 576 19 32 (350208)
I1002 14:55:12.400614 13372 net.cpp:157] Top shape: 1 576 19 32 (350208)
I1002 14:55:12.400617 13372 net.cpp:157] Top shape: 1 576 19 32 (350208)
I1002 14:55:12.400619 13372 net.cpp:165] Memory required for data: 442558176
I1002 14:55:12.400620 13372 layer_factory.hpp:77] Creating layer conv5_3/dwise
I1002 14:55:12.400626 13372 net.cpp:100] Creating Layer conv5_3/dwise
I1002 14:55:12.400629 13372 net.cpp:434] conv5_3/dwise <- conv5_3/expand_relu5_3/expand_0_split_0
I1002 14:55:12.400635 13372 net.cpp:408] conv5_3/dwise -> conv5_3/dwise
I1002 14:55:12.400810 13372 net.cpp:150] Setting up conv5_3/dwise
I1002 14:55:12.400815 13372 net.cpp:157] Top shape: 1 576 10 16 (92160)
I1002 14:55:12.400817 13372 net.cpp:165] Memory required for data: 442926816
I1002 14:55:12.400821 13372 layer_factory.hpp:77] Creating layer conv5_3/dwise/bn
I1002 14:55:12.400827 13372 net.cpp:100] Creating Layer conv5_3/dwise/bn
I1002 14:55:12.400831 13372 net.cpp:434] conv5_3/dwise/bn <- conv5_3/dwise
I1002 14:55:12.400836 13372 net.cpp:395] conv5_3/dwise/bn -> conv5_3/dwise (in-place)
I1002 14:55:12.400981 13372 net.cpp:150] Setting up conv5_3/dwise/bn
I1002 14:55:12.400985 13372 net.cpp:157] Top shape: 1 576 10 16 (92160)
I1002 14:55:12.400988 13372 net.cpp:165] Memory required for data: 443295456
I1002 14:55:12.400996 13372 layer_factory.hpp:77] Creating layer conv5_3/dwise/scale
I1002 14:55:12.401006 13372 net.cpp:100] Creating Layer conv5_3/dwise/scale
I1002 14:55:12.401010 13372 net.cpp:434] conv5_3/dwise/scale <- conv5_3/dwise
I1002 14:55:12.401015 13372 net.cpp:395] conv5_3/dwise/scale -> conv5_3/dwise (in-place)
I1002 14:55:12.401046 13372 layer_factory.hpp:77] Creating layer conv5_3/dwise/scale
I1002 14:55:12.401127 13372 net.cpp:150] Setting up conv5_3/dwise/scale
I1002 14:55:12.401131 13372 net.cpp:157] Top shape: 1 576 10 16 (92160)
I1002 14:55:12.401134 13372 net.cpp:165] Memory required for data: 443664096
I1002 14:55:12.401137 13372 layer_factory.hpp:77] Creating layer relu5_3/dwise
I1002 14:55:12.401142 13372 net.cpp:100] Creating Layer relu5_3/dwise
I1002 14:55:12.401145 13372 net.cpp:434] relu5_3/dwise <- conv5_3/dwise
I1002 14:55:12.401150 13372 net.cpp:395] relu5_3/dwise -> conv5_3/dwise (in-place)
I1002 14:55:12.401558 13372 net.cpp:150] Setting up relu5_3/dwise
I1002 14:55:12.401566 13372 net.cpp:157] Top shape: 1 576 10 16 (92160)
I1002 14:55:12.401567 13372 net.cpp:165] Memory required for data: 444032736
I1002 14:55:12.401571 13372 layer_factory.hpp:77] Creating layer conv5_3/linear
I1002 14:55:12.401577 13372 net.cpp:100] Creating Layer conv5_3/linear
I1002 14:55:12.401581 13372 net.cpp:434] conv5_3/linear <- conv5_3/dwise
I1002 14:55:12.401584 13372 net.cpp:408] conv5_3/linear -> conv5_3/linear
I1002 14:55:12.403838 13372 net.cpp:150] Setting up conv5_3/linear
I1002 14:55:12.403852 13372 net.cpp:157] Top shape: 1 160 10 16 (25600)
I1002 14:55:12.403853 13372 net.cpp:165] Memory required for data: 444135136
I1002 14:55:12.403859 13372 layer_factory.hpp:77] Creating layer conv5_3/linear/bn
I1002 14:55:12.403867 13372 net.cpp:100] Creating Layer conv5_3/linear/bn
I1002 14:55:12.403870 13372 net.cpp:434] conv5_3/linear/bn <- conv5_3/linear
I1002 14:55:12.403874 13372 net.cpp:395] conv5_3/linear/bn -> conv5_3/linear (in-place)
I1002 14:55:12.404024 13372 net.cpp:150] Setting up conv5_3/linear/bn
I1002 14:55:12.404028 13372 net.cpp:157] Top shape: 1 160 10 16 (25600)
I1002 14:55:12.404031 13372 net.cpp:165] Memory required for data: 444237536
I1002 14:55:12.404034 13372 layer_factory.hpp:77] Creating layer conv5_3/linear/scale
I1002 14:55:12.404038 13372 net.cpp:100] Creating Layer conv5_3/linear/scale
I1002 14:55:12.404040 13372 net.cpp:434] conv5_3/linear/scale <- conv5_3/linear
I1002 14:55:12.404044 13372 net.cpp:395] conv5_3/linear/scale -> conv5_3/linear (in-place)
I1002 14:55:12.404072 13372 layer_factory.hpp:77] Creating layer conv5_3/linear/scale
I1002 14:55:12.404155 13372 net.cpp:150] Setting up conv5_3/linear/scale
I1002 14:55:12.404158 13372 net.cpp:157] Top shape: 1 160 10 16 (25600)
I1002 14:55:12.404160 13372 net.cpp:165] Memory required for data: 444339936
I1002 14:55:12.404178 13372 layer_factory.hpp:77] Creating layer conv5_3/linear_conv5_3/linear/scale_0_split
I1002 14:55:12.404183 13372 net.cpp:100] Creating Layer conv5_3/linear_conv5_3/linear/scale_0_split
I1002 14:55:12.404186 13372 net.cpp:434] conv5_3/linear_conv5_3/linear/scale_0_split <- conv5_3/linear
I1002 14:55:12.404192 13372 net.cpp:408] conv5_3/linear_conv5_3/linear/scale_0_split -> conv5_3/linear_conv5_3/linear/scale_0_split_0
I1002 14:55:12.404198 13372 net.cpp:408] conv5_3/linear_conv5_3/linear/scale_0_split -> conv5_3/linear_conv5_3/linear/scale_0_split_1
I1002 14:55:12.404229 13372 net.cpp:150] Setting up conv5_3/linear_conv5_3/linear/scale_0_split
I1002 14:55:12.404233 13372 net.cpp:157] Top shape: 1 160 10 16 (25600)
I1002 14:55:12.404238 13372 net.cpp:157] Top shape: 1 160 10 16 (25600)
I1002 14:55:12.404242 13372 net.cpp:165] Memory required for data: 444544736
I1002 14:55:12.404243 13372 layer_factory.hpp:77] Creating layer conv6_1/expand
I1002 14:55:12.404250 13372 net.cpp:100] Creating Layer conv6_1/expand
I1002 14:55:12.404254 13372 net.cpp:434] conv6_1/expand <- conv5_3/linear_conv5_3/linear/scale_0_split_0
I1002 14:55:12.404259 13372 net.cpp:408] conv6_1/expand -> conv6_1/expand
I1002 14:55:12.406216 13372 net.cpp:150] Setting up conv6_1/expand
I1002 14:55:12.406231 13372 net.cpp:157] Top shape: 1 960 10 16 (153600)
I1002 14:55:12.406235 13372 net.cpp:165] Memory required for data: 445159136
I1002 14:55:12.406241 13372 layer_factory.hpp:77] Creating layer conv6_1/expand/bn
I1002 14:55:12.406247 13372 net.cpp:100] Creating Layer conv6_1/expand/bn
I1002 14:55:12.406250 13372 net.cpp:434] conv6_1/expand/bn <- conv6_1/expand
I1002 14:55:12.406256 13372 net.cpp:395] conv6_1/expand/bn -> conv6_1/expand (in-place)
I1002 14:55:12.406409 13372 net.cpp:150] Setting up conv6_1/expand/bn
I1002 14:55:12.406414 13372 net.cpp:157] Top shape: 1 960 10 16 (153600)
I1002 14:55:12.406416 13372 net.cpp:165] Memory required for data: 445773536
I1002 14:55:12.406424 13372 layer_factory.hpp:77] Creating layer conv6_1/expand/scale
I1002 14:55:12.406428 13372 net.cpp:100] Creating Layer conv6_1/expand/scale
I1002 14:55:12.406431 13372 net.cpp:434] conv6_1/expand/scale <- conv6_1/expand
I1002 14:55:12.406435 13372 net.cpp:395] conv6_1/expand/scale -> conv6_1/expand (in-place)
I1002 14:55:12.406466 13372 layer_factory.hpp:77] Creating layer conv6_1/expand/scale
I1002 14:55:12.406550 13372 net.cpp:150] Setting up conv6_1/expand/scale
I1002 14:55:12.406555 13372 net.cpp:157] Top shape: 1 960 10 16 (153600)
I1002 14:55:12.406558 13372 net.cpp:165] Memory required for data: 446387936
I1002 14:55:12.406564 13372 layer_factory.hpp:77] Creating layer relu6_1/expand
I1002 14:55:12.406569 13372 net.cpp:100] Creating Layer relu6_1/expand
I1002 14:55:12.406571 13372 net.cpp:434] relu6_1/expand <- conv6_1/expand
I1002 14:55:12.406575 13372 net.cpp:395] relu6_1/expand -> conv6_1/expand (in-place)
I1002 14:55:12.406961 13372 net.cpp:150] Setting up relu6_1/expand
I1002 14:55:12.406968 13372 net.cpp:157] Top shape: 1 960 10 16 (153600)
I1002 14:55:12.406971 13372 net.cpp:165] Memory required for data: 447002336
I1002 14:55:12.406975 13372 layer_factory.hpp:77] Creating layer conv6_1/dwise
I1002 14:55:12.406982 13372 net.cpp:100] Creating Layer conv6_1/dwise
I1002 14:55:12.406985 13372 net.cpp:434] conv6_1/dwise <- conv6_1/expand
I1002 14:55:12.406991 13372 net.cpp:408] conv6_1/dwise -> conv6_1/dwise
I1002 14:55:12.407188 13372 net.cpp:150] Setting up conv6_1/dwise
I1002 14:55:12.407193 13372 net.cpp:157] Top shape: 1 960 10 16 (153600)
I1002 14:55:12.407196 13372 net.cpp:165] Memory required for data: 447616736
I1002 14:55:12.407198 13372 layer_factory.hpp:77] Creating layer conv6_1/dwise/bn
I1002 14:55:12.407202 13372 net.cpp:100] Creating Layer conv6_1/dwise/bn
I1002 14:55:12.407205 13372 net.cpp:434] conv6_1/dwise/bn <- conv6_1/dwise
I1002 14:55:12.407207 13372 net.cpp:395] conv6_1/dwise/bn -> conv6_1/dwise (in-place)
I1002 14:55:12.407349 13372 net.cpp:150] Setting up conv6_1/dwise/bn
I1002 14:55:12.407353 13372 net.cpp:157] Top shape: 1 960 10 16 (153600)
I1002 14:55:12.407356 13372 net.cpp:165] Memory required for data: 448231136
I1002 14:55:12.407359 13372 layer_factory.hpp:77] Creating layer conv6_1/dwise/scale
I1002 14:55:12.407363 13372 net.cpp:100] Creating Layer conv6_1/dwise/scale
I1002 14:55:12.407366 13372 net.cpp:434] conv6_1/dwise/scale <- conv6_1/dwise
I1002 14:55:12.407369 13372 net.cpp:395] conv6_1/dwise/scale -> conv6_1/dwise (in-place)
I1002 14:55:12.407397 13372 layer_factory.hpp:77] Creating layer conv6_1/dwise/scale
I1002 14:55:12.407480 13372 net.cpp:150] Setting up conv6_1/dwise/scale
I1002 14:55:12.407483 13372 net.cpp:157] Top shape: 1 960 10 16 (153600)
I1002 14:55:12.407485 13372 net.cpp:165] Memory required for data: 448845536
I1002 14:55:12.407488 13372 layer_factory.hpp:77] Creating layer relu6_1/dwise
I1002 14:55:12.407491 13372 net.cpp:100] Creating Layer relu6_1/dwise
I1002 14:55:12.407495 13372 net.cpp:434] relu6_1/dwise <- conv6_1/dwise
I1002 14:55:12.407496 13372 net.cpp:395] relu6_1/dwise -> conv6_1/dwise (in-place)
I1002 14:55:12.407771 13372 net.cpp:150] Setting up relu6_1/dwise
I1002 14:55:12.407776 13372 net.cpp:157] Top shape: 1 960 10 16 (153600)
I1002 14:55:12.407778 13372 net.cpp:165] Memory required for data: 449459936
I1002 14:55:12.407780 13372 layer_factory.hpp:77] Creating layer conv6_1/linear
I1002 14:55:12.407793 13372 net.cpp:100] Creating Layer conv6_1/linear
I1002 14:55:12.407795 13372 net.cpp:434] conv6_1/linear <- conv6_1/dwise
I1002 14:55:12.407799 13372 net.cpp:408] conv6_1/linear -> conv6_1/linear
I1002 14:55:12.409757 13372 net.cpp:150] Setting up conv6_1/linear
I1002 14:55:12.409763 13372 net.cpp:157] Top shape: 1 160 10 16 (25600)
I1002 14:55:12.409765 13372 net.cpp:165] Memory required for data: 449562336
I1002 14:55:12.409770 13372 layer_factory.hpp:77] Creating layer conv6_1/linear/bn
I1002 14:55:12.409775 13372 net.cpp:100] Creating Layer conv6_1/linear/bn
I1002 14:55:12.409776 13372 net.cpp:434] conv6_1/linear/bn <- conv6_1/linear
I1002 14:55:12.409780 13372 net.cpp:395] conv6_1/linear/bn -> conv6_1/linear (in-place)
I1002 14:55:12.409921 13372 net.cpp:150] Setting up conv6_1/linear/bn
I1002 14:55:12.409925 13372 net.cpp:157] Top shape: 1 160 10 16 (25600)
I1002 14:55:12.409927 13372 net.cpp:165] Memory required for data: 449664736
I1002 14:55:12.409931 13372 layer_factory.hpp:77] Creating layer conv6_1/linear/scale
I1002 14:55:12.409935 13372 net.cpp:100] Creating Layer conv6_1/linear/scale
I1002 14:55:12.409938 13372 net.cpp:434] conv6_1/linear/scale <- conv6_1/linear
I1002 14:55:12.409941 13372 net.cpp:395] conv6_1/linear/scale -> conv6_1/linear (in-place)
I1002 14:55:12.409967 13372 layer_factory.hpp:77] Creating layer conv6_1/linear/scale
I1002 14:55:12.410048 13372 net.cpp:150] Setting up conv6_1/linear/scale
I1002 14:55:12.410053 13372 net.cpp:157] Top shape: 1 160 10 16 (25600)
I1002 14:55:12.410054 13372 net.cpp:165] Memory required for data: 449767136
I1002 14:55:12.410058 13372 layer_factory.hpp:77] Creating layer block_6_1
I1002 14:55:12.410061 13372 net.cpp:100] Creating Layer block_6_1
I1002 14:55:12.410064 13372 net.cpp:434] block_6_1 <- conv5_3/linear_conv5_3/linear/scale_0_split_1
I1002 14:55:12.410066 13372 net.cpp:434] block_6_1 <- conv6_1/linear
I1002 14:55:12.410069 13372 net.cpp:408] block_6_1 -> block_6_1
I1002 14:55:12.410087 13372 net.cpp:150] Setting up block_6_1
I1002 14:55:12.410091 13372 net.cpp:157] Top shape: 1 160 10 16 (25600)
I1002 14:55:12.410094 13372 net.cpp:165] Memory required for data: 449869536
I1002 14:55:12.410094 13372 layer_factory.hpp:77] Creating layer block_6_1_block_6_1_0_split
I1002 14:55:12.410097 13372 net.cpp:100] Creating Layer block_6_1_block_6_1_0_split
I1002 14:55:12.410100 13372 net.cpp:434] block_6_1_block_6_1_0_split <- block_6_1
I1002 14:55:12.410104 13372 net.cpp:408] block_6_1_block_6_1_0_split -> block_6_1_block_6_1_0_split_0
I1002 14:55:12.410109 13372 net.cpp:408] block_6_1_block_6_1_0_split -> block_6_1_block_6_1_0_split_1
I1002 14:55:12.410137 13372 net.cpp:150] Setting up block_6_1_block_6_1_0_split
I1002 14:55:12.410142 13372 net.cpp:157] Top shape: 1 160 10 16 (25600)
I1002 14:55:12.410146 13372 net.cpp:157] Top shape: 1 160 10 16 (25600)
I1002 14:55:12.410149 13372 net.cpp:165] Memory required for data: 450074336
I1002 14:55:12.410152 13372 layer_factory.hpp:77] Creating layer conv6_2/expand
I1002 14:55:12.410158 13372 net.cpp:100] Creating Layer conv6_2/expand
I1002 14:55:12.410161 13372 net.cpp:434] conv6_2/expand <- block_6_1_block_6_1_0_split_0
I1002 14:55:12.410164 13372 net.cpp:408] conv6_2/expand -> conv6_2/expand
I1002 14:55:12.412554 13372 net.cpp:150] Setting up conv6_2/expand
I1002 14:55:12.412562 13372 net.cpp:157] Top shape: 1 960 10 16 (153600)
I1002 14:55:12.412564 13372 net.cpp:165] Memory required for data: 450688736
I1002 14:55:12.412569 13372 layer_factory.hpp:77] Creating layer conv6_2/expand/bn
I1002 14:55:12.412575 13372 net.cpp:100] Creating Layer conv6_2/expand/bn
I1002 14:55:12.412580 13372 net.cpp:434] conv6_2/expand/bn <- conv6_2/expand
I1002 14:55:12.412582 13372 net.cpp:395] conv6_2/expand/bn -> conv6_2/expand (in-place)
I1002 14:55:12.412736 13372 net.cpp:150] Setting up conv6_2/expand/bn
I1002 14:55:12.412741 13372 net.cpp:157] Top shape: 1 960 10 16 (153600)
I1002 14:55:12.412744 13372 net.cpp:165] Memory required for data: 451303136
I1002 14:55:12.412760 13372 layer_factory.hpp:77] Creating layer conv6_2/expand/scale
I1002 14:55:12.412765 13372 net.cpp:100] Creating Layer conv6_2/expand/scale
I1002 14:55:12.412767 13372 net.cpp:434] conv6_2/expand/scale <- conv6_2/expand
I1002 14:55:12.412772 13372 net.cpp:395] conv6_2/expand/scale -> conv6_2/expand (in-place)
I1002 14:55:12.412803 13372 layer_factory.hpp:77] Creating layer conv6_2/expand/scale
I1002 14:55:12.412887 13372 net.cpp:150] Setting up conv6_2/expand/scale
I1002 14:55:12.412891 13372 net.cpp:157] Top shape: 1 960 10 16 (153600)
I1002 14:55:12.412894 13372 net.cpp:165] Memory required for data: 451917536
I1002 14:55:12.412896 13372 layer_factory.hpp:77] Creating layer relu6_2/expand
I1002 14:55:12.412901 13372 net.cpp:100] Creating Layer relu6_2/expand
I1002 14:55:12.412905 13372 net.cpp:434] relu6_2/expand <- conv6_2/expand
I1002 14:55:12.412910 13372 net.cpp:395] relu6_2/expand -> conv6_2/expand (in-place)
I1002 14:55:12.413295 13372 net.cpp:150] Setting up relu6_2/expand
I1002 14:55:12.413301 13372 net.cpp:157] Top shape: 1 960 10 16 (153600)
I1002 14:55:12.413305 13372 net.cpp:165] Memory required for data: 452531936
I1002 14:55:12.413309 13372 layer_factory.hpp:77] Creating layer conv6_2/dwise
I1002 14:55:12.413317 13372 net.cpp:100] Creating Layer conv6_2/dwise
I1002 14:55:12.413321 13372 net.cpp:434] conv6_2/dwise <- conv6_2/expand
I1002 14:55:12.413326 13372 net.cpp:408] conv6_2/dwise -> conv6_2/dwise
I1002 14:55:12.413530 13372 net.cpp:150] Setting up conv6_2/dwise
I1002 14:55:12.413535 13372 net.cpp:157] Top shape: 1 960 10 16 (153600)
I1002 14:55:12.413538 13372 net.cpp:165] Memory required for data: 453146336
I1002 14:55:12.413542 13372 layer_factory.hpp:77] Creating layer conv6_2/dwise/bn
I1002 14:55:12.413548 13372 net.cpp:100] Creating Layer conv6_2/dwise/bn
I1002 14:55:12.413552 13372 net.cpp:434] conv6_2/dwise/bn <- conv6_2/dwise
I1002 14:55:12.413555 13372 net.cpp:395] conv6_2/dwise/bn -> conv6_2/dwise (in-place)
I1002 14:55:12.413699 13372 net.cpp:150] Setting up conv6_2/dwise/bn
I1002 14:55:12.413703 13372 net.cpp:157] Top shape: 1 960 10 16 (153600)
I1002 14:55:12.413705 13372 net.cpp:165] Memory required for data: 453760736
I1002 14:55:12.413710 13372 layer_factory.hpp:77] Creating layer conv6_2/dwise/scale
I1002 14:55:12.413714 13372 net.cpp:100] Creating Layer conv6_2/dwise/scale
I1002 14:55:12.413718 13372 net.cpp:434] conv6_2/dwise/scale <- conv6_2/dwise
I1002 14:55:12.413722 13372 net.cpp:395] conv6_2/dwise/scale -> conv6_2/dwise (in-place)
I1002 14:55:12.413753 13372 layer_factory.hpp:77] Creating layer conv6_2/dwise/scale
I1002 14:55:12.413836 13372 net.cpp:150] Setting up conv6_2/dwise/scale
I1002 14:55:12.413839 13372 net.cpp:157] Top shape: 1 960 10 16 (153600)
I1002 14:55:12.413841 13372 net.cpp:165] Memory required for data: 454375136
I1002 14:55:12.413846 13372 layer_factory.hpp:77] Creating layer relu6_2/dwise
I1002 14:55:12.413848 13372 net.cpp:100] Creating Layer relu6_2/dwise
I1002 14:55:12.413851 13372 net.cpp:434] relu6_2/dwise <- conv6_2/dwise
I1002 14:55:12.413854 13372 net.cpp:395] relu6_2/dwise -> conv6_2/dwise (in-place)
I1002 14:55:12.414134 13372 net.cpp:150] Setting up relu6_2/dwise
I1002 14:55:12.414139 13372 net.cpp:157] Top shape: 1 960 10 16 (153600)
I1002 14:55:12.414140 13372 net.cpp:165] Memory required for data: 454989536
I1002 14:55:12.414142 13372 layer_factory.hpp:77] Creating layer conv6_2/linear
I1002 14:55:12.414149 13372 net.cpp:100] Creating Layer conv6_2/linear
I1002 14:55:12.414151 13372 net.cpp:434] conv6_2/linear <- conv6_2/dwise
I1002 14:55:12.414158 13372 net.cpp:408] conv6_2/linear -> conv6_2/linear
I1002 14:55:12.416102 13372 net.cpp:150] Setting up conv6_2/linear
I1002 14:55:12.416110 13372 net.cpp:157] Top shape: 1 160 10 16 (25600)
I1002 14:55:12.416112 13372 net.cpp:165] Memory required for data: 455091936
I1002 14:55:12.416118 13372 layer_factory.hpp:77] Creating layer conv6_2/linear/bn
I1002 14:55:12.416124 13372 net.cpp:100] Creating Layer conv6_2/linear/bn
I1002 14:55:12.416128 13372 net.cpp:434] conv6_2/linear/bn <- conv6_2/linear
I1002 14:55:12.416141 13372 net.cpp:395] conv6_2/linear/bn -> conv6_2/linear (in-place)
I1002 14:55:12.416287 13372 net.cpp:150] Setting up conv6_2/linear/bn
I1002 14:55:12.416291 13372 net.cpp:157] Top shape: 1 160 10 16 (25600)
I1002 14:55:12.416293 13372 net.cpp:165] Memory required for data: 455194336
I1002 14:55:12.416298 13372 layer_factory.hpp:77] Creating layer conv6_2/linear/scale
I1002 14:55:12.416304 13372 net.cpp:100] Creating Layer conv6_2/linear/scale
I1002 14:55:12.416308 13372 net.cpp:434] conv6_2/linear/scale <- conv6_2/linear
I1002 14:55:12.416311 13372 net.cpp:395] conv6_2/linear/scale -> conv6_2/linear (in-place)
I1002 14:55:12.416342 13372 layer_factory.hpp:77] Creating layer conv6_2/linear/scale
I1002 14:55:12.416424 13372 net.cpp:150] Setting up conv6_2/linear/scale
I1002 14:55:12.416429 13372 net.cpp:157] Top shape: 1 160 10 16 (25600)
I1002 14:55:12.416432 13372 net.cpp:165] Memory required for data: 455296736
I1002 14:55:12.416437 13372 layer_factory.hpp:77] Creating layer block_6_2
I1002 14:55:12.416441 13372 net.cpp:100] Creating Layer block_6_2
I1002 14:55:12.416445 13372 net.cpp:434] block_6_2 <- block_6_1_block_6_1_0_split_1
I1002 14:55:12.416447 13372 net.cpp:434] block_6_2 <- conv6_2/linear
I1002 14:55:12.416451 13372 net.cpp:408] block_6_2 -> block_6_2
I1002 14:55:12.416471 13372 net.cpp:150] Setting up block_6_2
I1002 14:55:12.416476 13372 net.cpp:157] Top shape: 1 160 10 16 (25600)
I1002 14:55:12.416478 13372 net.cpp:165] Memory required for data: 455399136
I1002 14:55:12.416481 13372 layer_factory.hpp:77] Creating layer conv6_3/expand
I1002 14:55:12.416487 13372 net.cpp:100] Creating Layer conv6_3/expand
I1002 14:55:12.416491 13372 net.cpp:434] conv6_3/expand <- block_6_2
I1002 14:55:12.416493 13372 net.cpp:408] conv6_3/expand -> conv6_3/expand
I1002 14:55:12.418609 13372 net.cpp:150] Setting up conv6_3/expand
I1002 14:55:12.418617 13372 net.cpp:157] Top shape: 1 960 10 16 (153600)
I1002 14:55:12.418620 13372 net.cpp:165] Memory required for data: 456013536
I1002 14:55:12.418625 13372 layer_factory.hpp:77] Creating layer conv6_3/expand/bn
I1002 14:55:12.418630 13372 net.cpp:100] Creating Layer conv6_3/expand/bn
I1002 14:55:12.418633 13372 net.cpp:434] conv6_3/expand/bn <- conv6_3/expand
I1002 14:55:12.418637 13372 net.cpp:395] conv6_3/expand/bn -> conv6_3/expand (in-place)
I1002 14:55:12.418792 13372 net.cpp:150] Setting up conv6_3/expand/bn
I1002 14:55:12.418795 13372 net.cpp:157] Top shape: 1 960 10 16 (153600)
I1002 14:55:12.418797 13372 net.cpp:165] Memory required for data: 456627936
I1002 14:55:12.418802 13372 layer_factory.hpp:77] Creating layer conv6_3/expand/scale
I1002 14:55:12.418803 13372 net.cpp:100] Creating Layer conv6_3/expand/scale
I1002 14:55:12.418805 13372 net.cpp:434] conv6_3/expand/scale <- conv6_3/expand
I1002 14:55:12.418809 13372 net.cpp:395] conv6_3/expand/scale -> conv6_3/expand (in-place)
I1002 14:55:12.418840 13372 layer_factory.hpp:77] Creating layer conv6_3/expand/scale
I1002 14:55:12.418927 13372 net.cpp:150] Setting up conv6_3/expand/scale
I1002 14:55:12.418931 13372 net.cpp:157] Top shape: 1 960 10 16 (153600)
I1002 14:55:12.418933 13372 net.cpp:165] Memory required for data: 457242336
I1002 14:55:12.418936 13372 layer_factory.hpp:77] Creating layer relu6_3/expand
I1002 14:55:12.418941 13372 net.cpp:100] Creating Layer relu6_3/expand
I1002 14:55:12.418942 13372 net.cpp:434] relu6_3/expand <- conv6_3/expand
I1002 14:55:12.418946 13372 net.cpp:395] relu6_3/expand -> conv6_3/expand (in-place)
I1002 14:55:12.419224 13372 net.cpp:150] Setting up relu6_3/expand
I1002 14:55:12.419230 13372 net.cpp:157] Top shape: 1 960 10 16 (153600)
I1002 14:55:12.419232 13372 net.cpp:165] Memory required for data: 457856736
I1002 14:55:12.419234 13372 layer_factory.hpp:77] Creating layer conv6_3/dwise
I1002 14:55:12.419239 13372 net.cpp:100] Creating Layer conv6_3/dwise
I1002 14:55:12.419240 13372 net.cpp:434] conv6_3/dwise <- conv6_3/expand
I1002 14:55:12.419243 13372 net.cpp:408] conv6_3/dwise -> conv6_3/dwise
I1002 14:55:12.419445 13372 net.cpp:150] Setting up conv6_3/dwise
I1002 14:55:12.419457 13372 net.cpp:157] Top shape: 1 960 10 16 (153600)
I1002 14:55:12.419459 13372 net.cpp:165] Memory required for data: 458471136
I1002 14:55:12.419462 13372 layer_factory.hpp:77] Creating layer conv6_3/dwise/bn
I1002 14:55:12.419466 13372 net.cpp:100] Creating Layer conv6_3/dwise/bn
I1002 14:55:12.419468 13372 net.cpp:434] conv6_3/dwise/bn <- conv6_3/dwise
I1002 14:55:12.419471 13372 net.cpp:395] conv6_3/dwise/bn -> conv6_3/dwise (in-place)
I1002 14:55:12.419616 13372 net.cpp:150] Setting up conv6_3/dwise/bn
I1002 14:55:12.419621 13372 net.cpp:157] Top shape: 1 960 10 16 (153600)
I1002 14:55:12.419622 13372 net.cpp:165] Memory required for data: 459085536
I1002 14:55:12.419626 13372 layer_factory.hpp:77] Creating layer conv6_3/dwise/scale
I1002 14:55:12.419631 13372 net.cpp:100] Creating Layer conv6_3/dwise/scale
I1002 14:55:12.419632 13372 net.cpp:434] conv6_3/dwise/scale <- conv6_3/dwise
I1002 14:55:12.419634 13372 net.cpp:395] conv6_3/dwise/scale -> conv6_3/dwise (in-place)
I1002 14:55:12.419665 13372 layer_factory.hpp:77] Creating layer conv6_3/dwise/scale
I1002 14:55:12.419750 13372 net.cpp:150] Setting up conv6_3/dwise/scale
I1002 14:55:12.419756 13372 net.cpp:157] Top shape: 1 960 10 16 (153600)
I1002 14:55:12.419759 13372 net.cpp:165] Memory required for data: 459699936
I1002 14:55:12.419764 13372 layer_factory.hpp:77] Creating layer relu6_3/dwise
I1002 14:55:12.419769 13372 net.cpp:100] Creating Layer relu6_3/dwise
I1002 14:55:12.419772 13372 net.cpp:434] relu6_3/dwise <- conv6_3/dwise
I1002 14:55:12.419775 13372 net.cpp:395] relu6_3/dwise -> conv6_3/dwise (in-place)
I1002 14:55:12.420056 13372 net.cpp:150] Setting up relu6_3/dwise
I1002 14:55:12.420063 13372 net.cpp:157] Top shape: 1 960 10 16 (153600)
I1002 14:55:12.420066 13372 net.cpp:165] Memory required for data: 460314336
I1002 14:55:12.420069 13372 layer_factory.hpp:77] Creating layer conv6_3/linear
I1002 14:55:12.420076 13372 net.cpp:100] Creating Layer conv6_3/linear
…
I1002 14:55:12.593909 13372 layer_factory.hpp:77] Creating layer conv8_1
I1002 14:55:12.593919 13372 net.cpp:100] Creating Layer conv8_1
I1002 14:55:12.593924 13372 net.cpp:434] conv8_1 <- conv7_2/sep_relu7_2/sep_0_split_0
I1002 14:55:12.593930 13372 net.cpp:408] conv8_1 -> conv8_1
I1002 14:55:12.595860 13372 net.cpp:150] Setting up conv8_1
I1002 14:55:12.595867 13372 net.cpp:157] Top shape: 1 128 5 8 (5120)
I1002 14:55:12.595870 13372 net.cpp:165] Memory required for data: 468649632
I1002 14:55:12.595875 13372 layer_factory.hpp:77] Creating layer conv8_1_relu
I1002 14:55:12.595881 13372 net.cpp:100] Creating Layer conv8_1_relu
I1002 14:55:12.595886 13372 net.cpp:434] conv8_1_relu <- conv8_1
I1002 14:55:12.595893 13372 net.cpp:395] conv8_1_relu -> conv8_1 (in-place)
I1002 14:55:12.596192 13372 net.cpp:150] Setting up conv8_1_relu
I1002 14:55:12.596199 13372 net.cpp:157] Top shape: 1 128 5 8 (5120)
I1002 14:55:12.596201 13372 net.cpp:165] Memory required for data: 468670112
I1002 14:55:12.596205 13372 layer_factory.hpp:77] Creating layer conv8_2/dw
I1002 14:55:12.596212 13372 net.cpp:100] Creating Layer conv8_2/dw
I1002 14:55:12.596217 13372 net.cpp:434] conv8_2/dw <- conv8_1
I1002 14:55:12.596225 13372 net.cpp:408] conv8_2/dw -> conv8_2/dw
I1002 14:55:12.596375 13372 net.cpp:150] Setting up conv8_2/dw
I1002 14:55:12.596381 13372 net.cpp:157] Top shape: 1 128 3 4 (1536)
I1002 14:55:12.596384 13372 net.cpp:165] Memory required for data: 468676256
I1002 14:55:12.596388 13372 layer_factory.hpp:77] Creating layer conv8_2/dw/bn
I1002 14:55:12.596393 13372 net.cpp:100] Creating Layer conv8_2/dw/bn
I1002 14:55:12.596398 13372 net.cpp:434] conv8_2/dw/bn <- conv8_2/dw
I1002 14:55:12.596403 13372 net.cpp:395] conv8_2/dw/bn -> conv8_2/dw (in-place)
I1002 14:55:12.596526 13372 net.cpp:150] Setting up conv8_2/dw/bn
I1002 14:55:12.596531 13372 net.cpp:157] Top shape: 1 128 3 4 (1536)
I1002 14:55:12.596534 13372 net.cpp:165] Memory required for data: 468682400
I1002 14:55:12.596541 13372 layer_factory.hpp:77] Creating layer conv8_2/dw/scale
I1002 14:55:12.596549 13372 net.cpp:100] Creating Layer conv8_2/dw/scale
I1002 14:55:12.596552 13372 net.cpp:434] conv8_2/dw/scale <- conv8_2/dw
I1002 14:55:12.596559 13372 net.cpp:395] conv8_2/dw/scale -> conv8_2/dw (in-place)
I1002 14:55:12.596588 13372 layer_factory.hpp:77] Creating layer conv8_2/dw/scale
I1002 14:55:12.596659 13372 net.cpp:150] Setting up conv8_2/dw/scale
I1002 14:55:12.596673 13372 net.cpp:157] Top shape: 1 128 3 4 (1536)
I1002 14:55:12.596675 13372 net.cpp:165] Memory required for data: 468688544
I1002 14:55:12.596681 13372 layer_factory.hpp:77] Creating layer relu8_2/dw
I1002 14:55:12.596686 13372 net.cpp:100] Creating Layer relu8_2/dw
I1002 14:55:12.596690 13372 net.cpp:434] relu8_2/dw <- conv8_2/dw
I1002 14:55:12.596696 13372 net.cpp:395] relu8_2/dw -> conv8_2/dw (in-place)
I1002 14:55:12.596994 13372 net.cpp:150] Setting up relu8_2/dw
I1002 14:55:12.597000 13372 net.cpp:157] Top shape: 1 128 3 4 (1536)
I1002 14:55:12.597003 13372 net.cpp:165] Memory required for data: 468694688
I1002 14:55:12.597007 13372 layer_factory.hpp:77] Creating layer conv8_2/sep
I1002 14:55:12.597016 13372 net.cpp:100] Creating Layer conv8_2/sep
I1002 14:55:12.597020 13372 net.cpp:434] conv8_2/sep <- conv8_2/dw
I1002 14:55:12.597028 13372 net.cpp:408] conv8_2/sep -> conv8_2/sep
I1002 14:55:12.598474 13372 net.cpp:150] Setting up conv8_2/sep
I1002 14:55:12.598480 13372 net.cpp:157] Top shape: 1 256 3 4 (3072)
I1002 14:55:12.598482 13372 net.cpp:165] Memory required for data: 468706976
I1002 14:55:12.598489 13372 layer_factory.hpp:77] Creating layer conv8_2/sep/bn
I1002 14:55:12.598495 13372 net.cpp:100] Creating Layer conv8_2/sep/bn
I1002 14:55:12.598500 13372 net.cpp:434] conv8_2/sep/bn <- conv8_2/sep
I1002 14:55:12.598505 13372 net.cpp:395] conv8_2/sep/bn -> conv8_2/sep (in-place)
I1002 14:55:12.598630 13372 net.cpp:150] Setting up conv8_2/sep/bn
I1002 14:55:12.598635 13372 net.cpp:157] Top shape: 1 256 3 4 (3072)
I1002 14:55:12.598639 13372 net.cpp:165] Memory required for data: 468719264
I1002 14:55:12.598644 13372 layer_factory.hpp:77] Creating layer conv8_2/sep/scale
I1002 14:55:12.598651 13372 net.cpp:100] Creating Layer conv8_2/sep/scale
I1002 14:55:12.598655 13372 net.cpp:434] conv8_2/sep/scale <- conv8_2/sep
I1002 14:55:12.598661 13372 net.cpp:395] conv8_2/sep/scale -> conv8_2/sep (in-place)
I1002 14:55:12.598692 13372 layer_factory.hpp:77] Creating layer conv8_2/sep/scale
I1002 14:55:12.598764 13372 net.cpp:150] Setting up conv8_2/sep/scale
I1002 14:55:12.598769 13372 net.cpp:157] Top shape: 1 256 3 4 (3072)
I1002 14:55:12.598773 13372 net.cpp:165] Memory required for data: 468731552
I1002 14:55:12.598778 13372 layer_factory.hpp:77] Creating layer relu8_2/sep
I1002 14:55:12.598783 13372 net.cpp:100] Creating Layer relu8_2/sep
I1002 14:55:12.598788 13372 net.cpp:434] relu8_2/sep <- conv8_2/sep
I1002 14:55:12.598793 13372 net.cpp:395] relu8_2/sep -> conv8_2/sep (in-place)
I1002 14:55:12.599086 13372 net.cpp:150] Setting up relu8_2/sep
I1002 14:55:12.599092 13372 net.cpp:157] Top shape: 1 256 3 4 (3072)
I1002 14:55:12.599095 13372 net.cpp:165] Memory required for data: 468743840
I1002 14:55:12.599099 13372 layer_factory.hpp:77] Creating layer conv8_2/sep_relu8_2/sep_0_split
I1002 14:55:12.599104 13372 net.cpp:100] Creating Layer conv8_2/sep_relu8_2/sep_0_split
I1002 14:55:12.599108 13372 net.cpp:434] conv8_2/sep_relu8_2/sep_0_split <- conv8_2/sep
I1002 14:55:12.599115 13372 net.cpp:408] conv8_2/sep_relu8_2/sep_0_split -> conv8_2/sep_relu8_2/sep_0_split_0
I1002 14:55:12.599123 13372 net.cpp:408] conv8_2/sep_relu8_2/sep_0_split -> conv8_2/sep_relu8_2/sep_0_split_1
I1002 14:55:12.599129 13372 net.cpp:408] conv8_2/sep_relu8_2/sep_0_split -> conv8_2/sep_relu8_2/sep_0_split_2
I1002 14:55:12.599136 13372 net.cpp:408] conv8_2/sep_relu8_2/sep_0_split -> conv8_2/sep_relu8_2/sep_0_split_3
I1002 14:55:12.599186 13372 net.cpp:150] Setting up conv8_2/sep_relu8_2/sep_0_split
I1002 14:55:12.599191 13372 net.cpp:157] Top shape: 1 256 3 4 (3072)
I1002 14:55:12.599195 13372 net.cpp:157] Top shape: 1 256 3 4 (3072)
I1002 14:55:12.599196 13372 net.cpp:157] Top shape: 1 256 3 4 (3072)
I1002 14:55:12.599200 13372 net.cpp:157] Top shape: 1 256 3 4 (3072)
I1002 14:55:12.599201 13372 net.cpp:165] Memory required for data: 468792992
I1002 14:55:12.599203 13372 layer_factory.hpp:77] Creating layer conv9_1
I1002 14:55:12.599208 13372 net.cpp:100] Creating Layer conv9_1
I1002 14:55:12.599212 13372 net.cpp:434] conv9_1 <- conv8_2/sep_relu8_2/sep_0_split_0
I1002 14:55:12.599225 13372 net.cpp:408] conv9_1 -> conv9_1
I1002 14:55:12.600487 13372 net.cpp:150] Setting up conv9_1
I1002 14:55:12.600493 13372 net.cpp:157] Top shape: 1 128 3 4 (1536)
I1002 14:55:12.600495 13372 net.cpp:165] Memory required for data: 468799136
I1002 14:55:12.600500 13372 layer_factory.hpp:77] Creating layer conv9_1_relu
I1002 14:55:12.600504 13372 net.cpp:100] Creating Layer conv9_1_relu
I1002 14:55:12.600507 13372 net.cpp:434] conv9_1_relu <- conv9_1
I1002 14:55:12.600510 13372 net.cpp:395] conv9_1_relu -> conv9_1 (in-place)
I1002 14:55:12.600914 13372 net.cpp:150] Setting up conv9_1_relu
I1002 14:55:12.600920 13372 net.cpp:157] Top shape: 1 128 3 4 (1536)
I1002 14:55:12.600922 13372 net.cpp:165] Memory required for data: 468805280
I1002 14:55:12.600924 13372 layer_factory.hpp:77] Creating layer conv9_2/dw
I1002 14:55:12.600930 13372 net.cpp:100] Creating Layer conv9_2/dw
I1002 14:55:12.600932 13372 net.cpp:434] conv9_2/dw <- conv9_1
I1002 14:55:12.600936 13372 net.cpp:408] conv9_2/dw -> conv9_2/dw
I1002 14:55:12.601085 13372 net.cpp:150] Setting up conv9_2/dw
I1002 14:55:12.601091 13372 net.cpp:157] Top shape: 1 128 2 2 (512)
I1002 14:55:12.601094 13372 net.cpp:165] Memory required for data: 468807328
I1002 14:55:12.601096 13372 layer_factory.hpp:77] Creating layer conv9_2/dw/bn
I1002 14:55:12.601100 13372 net.cpp:100] Creating Layer conv9_2/dw/bn
I1002 14:55:12.601104 13372 net.cpp:434] conv9_2/dw/bn <- conv9_2/dw
I1002 14:55:12.601106 13372 net.cpp:395] conv9_2/dw/bn -> conv9_2/dw (in-place)
I1002 14:55:12.601224 13372 net.cpp:150] Setting up conv9_2/dw/bn
I1002 14:55:12.601229 13372 net.cpp:157] Top shape: 1 128 2 2 (512)
I1002 14:55:12.601231 13372 net.cpp:165] Memory required for data: 468809376
I1002 14:55:12.601236 13372 layer_factory.hpp:77] Creating layer conv9_2/dw/scale
I1002 14:55:12.601239 13372 net.cpp:100] Creating Layer conv9_2/dw/scale
I1002 14:55:12.601243 13372 net.cpp:434] conv9_2/dw/scale <- conv9_2/dw
I1002 14:55:12.601246 13372 net.cpp:395] conv9_2/dw/scale -> conv9_2/dw (in-place)
I1002 14:55:12.601275 13372 layer_factory.hpp:77] Creating layer conv9_2/dw/scale
I1002 14:55:12.601347 13372 net.cpp:150] Setting up conv9_2/dw/scale
I1002 14:55:12.601351 13372 net.cpp:157] Top shape: 1 128 2 2 (512)
I1002 14:55:12.601354 13372 net.cpp:165] Memory required for data: 468811424
I1002 14:55:12.601357 13372 layer_factory.hpp:77] Creating layer relu9_2/dw
I1002 14:55:12.601361 13372 net.cpp:100] Creating Layer relu9_2/dw
I1002 14:55:12.601363 13372 net.cpp:434] relu9_2/dw <- conv9_2/dw
I1002 14:55:12.601367 13372 net.cpp:395] relu9_2/dw -> conv9_2/dw (in-place)
I1002 14:55:12.601665 13372 net.cpp:150] Setting up relu9_2/dw
I1002 14:55:12.601672 13372 net.cpp:157] Top shape: 1 128 2 2 (512)
I1002 14:55:12.601675 13372 net.cpp:165] Memory required for data: 468813472
I1002 14:55:12.601676 13372 layer_factory.hpp:77] Creating layer conv9_2/sep
I1002 14:55:12.601682 13372 net.cpp:100] Creating Layer conv9_2/sep
I1002 14:55:12.601685 13372 net.cpp:434] conv9_2/sep <- conv9_2/dw
I1002 14:55:12.601689 13372 net.cpp:408] conv9_2/sep -> conv9_2/sep
I1002 14:55:12.603001 13372 net.cpp:150] Setting up conv9_2/sep
I1002 14:55:12.603008 13372 net.cpp:157] Top shape: 1 256 2 2 (1024)
I1002 14:55:12.603010 13372 net.cpp:165] Memory required for data: 468817568
I1002 14:55:12.603013 13372 layer_factory.hpp:77] Creating layer conv9_2/sep/bn
I1002 14:55:12.603019 13372 net.cpp:100] Creating Layer conv9_2/sep/bn
I1002 14:55:12.603022 13372 net.cpp:434] conv9_2/sep/bn <- conv9_2/sep
I1002 14:55:12.603025 13372 net.cpp:395] conv9_2/sep/bn -> conv9_2/sep (in-place)
I1002 14:55:12.603150 13372 net.cpp:150] Setting up conv9_2/sep/bn
I1002 14:55:12.603155 13372 net.cpp:157] Top shape: 1 256 2 2 (1024)
I1002 14:55:12.603157 13372 net.cpp:165] Memory required for data: 468821664
I1002 14:55:12.603164 13372 layer_factory.hpp:77] Creating layer conv9_2/sep/scale
I1002 14:55:12.603173 13372 net.cpp:100] Creating Layer conv9_2/sep/scale
I1002 14:55:12.603176 13372 net.cpp:434] conv9_2/sep/scale <- conv9_2/sep
I1002 14:55:12.603191 13372 net.cpp:395] conv9_2/sep/scale -> conv9_2/sep (in-place)
I1002 14:55:12.603222 13372 layer_factory.hpp:77] Creating layer conv9_2/sep/scale
I1002 14:55:12.603294 13372 net.cpp:150] Setting up conv9_2/sep/scale
I1002 14:55:12.603299 13372 net.cpp:157] Top shape: 1 256 2 2 (1024)
I1002 14:55:12.603302 13372 net.cpp:165] Memory required for data: 468825760
I1002 14:55:12.603304 13372 layer_factory.hpp:77] Creating layer relu9_2/sep
I1002 14:55:12.603309 13372 net.cpp:100] Creating Layer relu9_2/sep
I1002 14:55:12.603312 13372 net.cpp:434] relu9_2/sep <- conv9_2/sep
I1002 14:55:12.603314 13372 net.cpp:395] relu9_2/sep -> conv9_2/sep (in-place)
I1002 14:55:12.603718 13372 net.cpp:150] Setting up relu9_2/sep
I1002 14:55:12.603724 13372 net.cpp:157] Top shape: 1 256 2 2 (1024)
I1002 14:55:12.603727 13372 net.cpp:165] Memory required for data: 468829856
I1002 14:55:12.603730 13372 layer_factory.hpp:77] Creating layer conv9_2/sep_relu9_2/sep_0_split
I1002 14:55:12.603736 13372 net.cpp:100] Creating Layer conv9_2/sep_relu9_2/sep_0_split
I1002 14:55:12.603739 13372 net.cpp:434] conv9_2/sep_relu9_2/sep_0_split <- conv9_2/sep
I1002 14:55:12.603749 13372 net.cpp:408] conv9_2/sep_relu9_2/sep_0_split -> conv9_2/sep_relu9_2/sep_0_split_0
I1002 14:55:12.603755 13372 net.cpp:408] conv9_2/sep_relu9_2/sep_0_split -> conv9_2/sep_relu9_2/sep_0_split_1
I1002 14:55:12.603762 13372 net.cpp:408] conv9_2/sep_relu9_2/sep_0_split -> conv9_2/sep_relu9_2/sep_0_split_2
I1002 14:55:12.603768 13372 net.cpp:408] conv9_2/sep_relu9_2/sep_0_split -> conv9_2/sep_relu9_2/sep_0_split_3
I1002 14:55:12.603819 13372 net.cpp:150] Setting up conv9_2/sep_relu9_2/sep_0_split
I1002 14:55:12.603823 13372 net.cpp:157] Top shape: 1 256 2 2 (1024)
I1002 14:55:12.603826 13372 net.cpp:157] Top shape: 1 256 2 2 (1024)
I1002 14:55:12.603829 13372 net.cpp:157] Top shape: 1 256 2 2 (1024)
I1002 14:55:12.603832 13372 net.cpp:157] Top shape: 1 256 2 2 (1024)
I1002 14:55:12.603834 13372 net.cpp:165] Memory required for data: 468846240
I1002 14:55:12.603837 13372 layer_factory.hpp:77] Creating layer conv10_1
I1002 14:55:12.603842 13372 net.cpp:100] Creating Layer conv10_1
I1002 14:55:12.603845 13372 net.cpp:434] conv10_1 <- conv9_2/sep_relu9_2/sep_0_split_0
I1002 14:55:12.603850 13372 net.cpp:408] conv10_1 -> conv10_1
I1002 14:55:12.605072 13372 net.cpp:150] Setting up conv10_1
I1002 14:55:12.605078 13372 net.cpp:157] Top shape: 1 64 2 2 (256)
I1002 14:55:12.605082 13372 net.cpp:165] Memory required for data: 468847264
I1002 14:55:12.605085 13372 layer_factory.hpp:77] Creating layer conv10_1_relu
I1002 14:55:12.605092 13372 net.cpp:100] Creating Layer conv10_1_relu
I1002 14:55:12.605095 13372 net.cpp:434] conv10_1_relu <- conv10_1
I1002 14:55:12.605101 13372 net.cpp:395] conv10_1_relu -> conv10_1 (in-place)
I1002 14:55:12.605509 13372 net.cpp:150] Setting up conv10_1_relu
I1002 14:55:12.605516 13372 net.cpp:157] Top shape: 1 64 2 2 (256)
I1002 14:55:12.605520 13372 net.cpp:165] Memory required for data: 468848288
I1002 14:55:12.605523 13372 layer_factory.hpp:77] Creating layer conv10_2/dw
I1002 14:55:12.605530 13372 net.cpp:100] Creating Layer conv10_2/dw
I1002 14:55:12.605535 13372 net.cpp:434] conv10_2/dw <- conv10_1
I1002 14:55:12.605541 13372 net.cpp:408] conv10_2/dw -> conv10_2/dw
I1002 14:55:12.605695 13372 net.cpp:150] Setting up conv10_2/dw
I1002 14:55:12.605700 13372 net.cpp:157] Top shape: 1 64 1 1 (64)
I1002 14:55:12.605702 13372 net.cpp:165] Memory required for data: 468848544
I1002 14:55:12.605706 13372 layer_factory.hpp:77] Creating layer conv10_2/dw/bn
I1002 14:55:12.605712 13372 net.cpp:100] Creating Layer conv10_2/dw/bn
I1002 14:55:12.605716 13372 net.cpp:434] conv10_2/dw/bn <- conv10_2/dw
I1002 14:55:12.605721 13372 net.cpp:395] conv10_2/dw/bn -> conv10_2/dw (in-place)
I1002 14:55:12.605850 13372 net.cpp:150] Setting up conv10_2/dw/bn
I1002 14:55:12.605854 13372 net.cpp:157] Top shape: 1 64 1 1 (64)
I1002 14:55:12.605857 13372 net.cpp:165] Memory required for data: 468848800
I1002 14:55:12.605872 13372 layer_factory.hpp:77] Creating layer conv10_2/dw/scale
I1002 14:55:12.605901 13372 net.cpp:100] Creating Layer conv10_2/dw/scale
I1002 14:55:12.605904 13372 net.cpp:434] conv10_2/dw/scale <- conv10_2/dw
I1002 14:55:12.605908 13372 net.cpp:395] conv10_2/dw/scale -> conv10_2/dw (in-place)
I1002 14:55:12.605938 13372 layer_factory.hpp:77] Creating layer conv10_2/dw/scale
I1002 14:55:12.606017 13372 net.cpp:150] Setting up conv10_2/dw/scale
I1002 14:55:12.606022 13372 net.cpp:157] Top shape: 1 64 1 1 (64)
I1002 14:55:12.606025 13372 net.cpp:165] Memory required for data: 468849056
I1002 14:55:12.606030 13372 layer_factory.hpp:77] Creating layer relu10_2/dw
I1002 14:55:12.606035 13372 net.cpp:100] Creating Layer relu10_2/dw
I1002 14:55:12.606040 13372 net.cpp:434] relu10_2/dw <- conv10_2/dw
I1002 14:55:12.606045 13372 net.cpp:395] relu10_2/dw -> conv10_2/dw (in-place)
I1002 14:55:12.606344 13372 net.cpp:150] Setting up relu10_2/dw
I1002 14:55:12.606350 13372 net.cpp:157] Top shape: 1 64 1 1 (64)
I1002 14:55:12.606353 13372 net.cpp:165] Memory required for data: 468849312
I1002 14:55:12.606356 13372 layer_factory.hpp:77] Creating layer conv10_2/sep
I1002 14:55:12.606365 13372 net.cpp:100] Creating Layer conv10_2/sep
I1002 14:55:12.606369 13372 net.cpp:434] conv10_2/sep <- conv10_2/dw
I1002 14:55:12.606375 13372 net.cpp:408] conv10_2/sep -> conv10_2/sep
I1002 14:55:12.607738 13372 net.cpp:150] Setting up conv10_2/sep
I1002 14:55:12.607748 13372 net.cpp:157] Top shape: 1 128 1 1 (128)
I1002 14:55:12.607750 13372 net.cpp:165] Memory required for data: 468849824
I1002 14:55:12.607756 13372 layer_factory.hpp:77] Creating layer conv10_2/sep/bn
I1002 14:55:12.607762 13372 net.cpp:100] Creating Layer conv10_2/sep/bn
I1002 14:55:12.607766 13372 net.cpp:434] conv10_2/sep/bn <- conv10_2/sep
I1002 14:55:12.607772 13372 net.cpp:395] conv10_2/sep/bn -> conv10_2/sep (in-place)
I1002 14:55:12.607936 13372 net.cpp:150] Setting up conv10_2/sep/bn
I1002 14:55:12.607942 13372 net.cpp:157] Top shape: 1 128 1 1 (128)
I1002 14:55:12.607945 13372 net.cpp:165] Memory required for data: 468850336
I1002 14:55:12.607952 13372 layer_factory.hpp:77] Creating layer conv10_2/sep/scale
I1002 14:55:12.607959 13372 net.cpp:100] Creating Layer conv10_2/sep/scale
I1002 14:55:12.607961 13372 net.cpp:434] conv10_2/sep/scale <- conv10_2/sep
I1002 14:55:12.607967 13372 net.cpp:395] conv10_2/sep/scale -> conv10_2/sep (in-place)
I1002 14:55:12.608000 13372 layer_factory.hpp:77] Creating layer conv10_2/sep/scale
I1002 14:55:12.608093 13372 net.cpp:150] Setting up conv10_2/sep/scale
I1002 14:55:12.608098 13372 net.cpp:157] Top shape: 1 128 1 1 (128)
I1002 14:55:12.608101 13372 net.cpp:165] Memory required for data: 468850848
I1002 14:55:12.608106 13372 layer_factory.hpp:77] Creating layer relu10_2/sep
I1002 14:55:12.608111 13372 net.cpp:100] Creating Layer relu10_2/sep
I1002 14:55:12.608114 13372 net.cpp:434] relu10_2/sep <- conv10_2/sep
I1002 14:55:12.608119 13372 net.cpp:395] relu10_2/sep -> conv10_2/sep (in-place)
I1002 14:55:12.608521 13372 net.cpp:150] Setting up relu10_2/sep
I1002 14:55:12.608530 13372 net.cpp:157] Top shape: 1 128 1 1 (128)
I1002 14:55:12.608532 13372 net.cpp:165] Memory required for data: 468851360
I1002 14:55:12.608536 13372 layer_factory.hpp:77] Creating layer conv10_2/sep_relu10_2/sep_0_split
I1002 14:55:12.608541 13372 net.cpp:100] Creating Layer conv10_2/sep_relu10_2/sep_0_split
I1002 14:55:12.608546 13372 net.cpp:434] conv10_2/sep_relu10_2/sep_0_split <- conv10_2/sep
I1002 14:55:12.608551 13372 net.cpp:408] conv10_2/sep_relu10_2/sep_0_split -> conv10_2/sep_relu10_2/sep_0_split_0
I1002 14:55:12.608558 13372 net.cpp:408] conv10_2/sep_relu10_2/sep_0_split -> conv10_2/sep_relu10_2/sep_0_split_1
I1002 14:55:12.608566 13372 net.cpp:408] conv10_2/sep_relu10_2/sep_0_split -> conv10_2/sep_relu10_2/sep_0_split_2
I1002 14:55:12.608614 13372 net.cpp:150] Setting up conv10_2/sep_relu10_2/sep_0_split
I1002 14:55:12.608620 13372 net.cpp:157] Top shape: 1 128 1 1 (128)
I1002 14:55:12.608625 13372 net.cpp:157] Top shape: 1 128 1 1 (128)
I1002 14:55:12.608638 13372 net.cpp:157] Top shape: 1 128 1 1 (128)
I1002 14:55:12.608640 13372 net.cpp:165] Memory required for data: 468852896
I1002 14:55:12.608644 13372 layer_factory.hpp:77] Creating layer conv5_3/expand_mbox_loc
I1002 14:55:12.608652 13372 net.cpp:100] Creating Layer conv5_3/expand_mbox_loc
I1002 14:55:12.608657 13372 net.cpp:434] conv5_3/expand_mbox_loc <- conv5_3/expand_relu5_3/expand_0_split_1
I1002 14:55:12.608664 13372 net.cpp:408] conv5_3/expand_mbox_loc -> conv5_3/expand_mbox_loc
I1002 14:55:12.610625 13372 net.cpp:150] Setting up conv5_3/expand_mbox_loc
I1002 14:55:12.610635 13372 net.cpp:157] Top shape: 1 8 19 32 (4864)
I1002 14:55:12.610637 13372 net.cpp:165] Memory required for data: 468872352
I1002 14:55:12.610643 13372 layer_factory.hpp:77] Creating layer conv5_3/expand_mbox_loc_perm
I1002 14:55:12.610652 13372 net.cpp:100] Creating Layer conv5_3/expand_mbox_loc_perm
I1002 14:55:12.610656 13372 net.cpp:434] conv5_3/expand_mbox_loc_perm <- conv5_3/expand_mbox_loc
I1002 14:55:12.610663 13372 net.cpp:408] conv5_3/expand_mbox_loc_perm -> conv5_3/expand_mbox_loc_perm
I1002 14:55:12.610774 13372 net.cpp:150] Setting up conv5_3/expand_mbox_loc_perm
I1002 14:55:12.610781 13372 net.cpp:157] Top shape: 1 19 32 8 (4864)
I1002 14:55:12.610785 13372 net.cpp:165] Memory required for data: 468891808
I1002 14:55:12.610787 13372 layer_factory.hpp:77] Creating layer conv5_3/expand_mbox_loc_flat
I1002 14:55:12.610792 13372 net.cpp:100] Creating Layer conv5_3/expand_mbox_loc_flat
I1002 14:55:12.610797 13372 net.cpp:434] conv5_3/expand_mbox_loc_flat <- conv5_3/expand_mbox_loc_perm
I1002 14:55:12.610802 13372 net.cpp:408] conv5_3/expand_mbox_loc_flat -> conv5_3/expand_mbox_loc_flat
I1002 14:55:12.610823 13372 net.cpp:150] Setting up conv5_3/expand_mbox_loc_flat
I1002 14:55:12.610828 13372 net.cpp:157] Top shape: 1 4864 (4864)
I1002 14:55:12.610831 13372 net.cpp:165] Memory required for data: 468911264
I1002 14:55:12.610832 13372 layer_factory.hpp:77] Creating layer conv5_3/expand_mbox_conf
I1002 14:55:12.610837 13372 net.cpp:100] Creating Layer conv5_3/expand_mbox_conf
I1002 14:55:12.610841 13372 net.cpp:434] conv5_3/expand_mbox_conf <- conv5_3/expand_relu5_3/expand_0_split_2
I1002 14:55:12.610844 13372 net.cpp:408] conv5_3/expand_mbox_conf -> conv5_3/expand_mbox_conf
I1002 14:55:12.612694 13372 net.cpp:150] Setting up conv5_3/expand_mbox_conf
I1002 14:55:12.612702 13372 net.cpp:157] Top shape: 1 10 19 32 (6080)
I1002 14:55:12.612704 13372 net.cpp:165] Memory required for data: 468935584
I1002 14:55:12.612710 13372 layer_factory.hpp:77] Creating layer conv5_3/expand_mbox_conf_perm
I1002 14:55:12.612718 13372 net.cpp:100] Creating Layer conv5_3/expand_mbox_conf_perm
I1002 14:55:12.612722 13372 net.cpp:434] conv5_3/expand_mbox_conf_perm <- conv5_3/expand_mbox_conf
I1002 14:55:12.612730 13372 net.cpp:408] conv5_3/expand_mbox_conf_perm -> conv5_3/expand_mbox_conf_perm
I1002 14:55:12.612807 13372 net.cpp:150] Setting up conv5_3/expand_mbox_conf_perm
I1002 14:55:12.612812 13372 net.cpp:157] Top shape: 1 19 32 10 (6080)
I1002 14:55:12.612815 13372 net.cpp:165] Memory required for data: 468959904
I1002 14:55:12.612818 13372 layer_factory.hpp:77] Creating layer conv5_3/expand_mbox_conf_flat
I1002 14:55:12.612824 13372 net.cpp:100] Creating Layer conv5_3/expand_mbox_conf_flat
I1002 14:55:12.612829 13372 net.cpp:434] conv5_3/expand_mbox_conf_flat <- conv5_3/expand_mbox_conf_perm
I1002 14:55:12.612834 13372 net.cpp:408] conv5_3/expand_mbox_conf_flat -> conv5_3/expand_mbox_conf_flat
I1002 14:55:12.612855 13372 net.cpp:150] Setting up conv5_3/expand_mbox_conf_flat
I1002 14:55:12.612860 13372 net.cpp:157] Top shape: 1 6080 (6080)
I1002 14:55:12.612861 13372 net.cpp:165] Memory required for data: 468984224
I1002 14:55:12.612864 13372 layer_factory.hpp:77] Creating layer conv5_3/expand_mbox_priorbox
I1002 14:55:12.612867 13372 net.cpp:100] Creating Layer conv5_3/expand_mbox_priorbox
I1002 14:55:12.612870 13372 net.cpp:434] conv5_3/expand_mbox_priorbox <- conv5_3/expand_relu5_3/expand_0_split_3
I1002 14:55:12.612874 13372 net.cpp:434] conv5_3/expand_mbox_priorbox <- data_data_0_split_1
I1002 14:55:12.612887 13372 net.cpp:408] conv5_3/expand_mbox_priorbox -> conv5_3/expand_mbox_priorbox
I1002 14:55:12.612910 13372 net.cpp:150] Setting up conv5_3/expand_mbox_priorbox
I1002 14:55:12.612915 13372 net.cpp:157] Top shape: 1 2 4864 (9728)
I1002 14:55:12.612918 13372 net.cpp:165] Memory required for data: 469023136
I1002 14:55:12.612921 13372 layer_factory.hpp:77] Creating layer conv6_4_mbox_loc
I1002 14:55:12.612928 13372 net.cpp:100] Creating Layer conv6_4_mbox_loc
I1002 14:55:12.612933 13372 net.cpp:434] conv6_4_mbox_loc <- conv6_4_relu6_4_0_split_1
I1002 14:55:12.612941 13372 net.cpp:408] conv6_4_mbox_loc -> conv6_4_mbox_loc
I1002 14:55:12.614555 13372 net.cpp:150] Setting up conv6_4_mbox_loc
I1002 14:55:12.614564 13372 net.cpp:157] Top shape: 1 8 10 16 (1280)
I1002 14:55:12.614567 13372 net.cpp:165] Memory required for data: 469028256
I1002 14:55:12.614572 13372 layer_factory.hpp:77] Creating layer conv6_4_mbox_loc_perm
I1002 14:55:12.614575 13372 net.cpp:100] Creating Layer conv6_4_mbox_loc_perm
I1002 14:55:12.614578 13372 net.cpp:434] conv6_4_mbox_loc_perm <- conv6_4_mbox_loc
I1002 14:55:12.614581 13372 net.cpp:408] conv6_4_mbox_loc_perm -> conv6_4_mbox_loc_perm
I1002 14:55:12.614660 13372 net.cpp:150] Setting up conv6_4_mbox_loc_perm
I1002 14:55:12.614665 13372 net.cpp:157] Top shape: 1 10 16 8 (1280)
I1002 14:55:12.614665 13372 net.cpp:165] Memory required for data: 469033376
I1002 14:55:12.614667 13372 layer_factory.hpp:77] Creating layer conv6_4_mbox_loc_flat
I1002 14:55:12.614671 13372 net.cpp:100] Creating Layer conv6_4_mbox_loc_flat
I1002 14:55:12.614672 13372 net.cpp:434] conv6_4_mbox_loc_flat <- conv6_4_mbox_loc_perm
I1002 14:55:12.614676 13372 net.cpp:408] conv6_4_mbox_loc_flat -> conv6_4_mbox_loc_flat
I1002 14:55:12.614691 13372 net.cpp:150] Setting up conv6_4_mbox_loc_flat
I1002 14:55:12.614693 13372 net.cpp:157] Top shape: 1 1280 (1280)
I1002 14:55:12.614696 13372 net.cpp:165] Memory required for data: 469038496
I1002 14:55:12.614697 13372 layer_factory.hpp:77] Creating layer conv6_4_mbox_conf
I1002 14:55:12.614706 13372 net.cpp:100] Creating Layer conv6_4_mbox_conf
I1002 14:55:12.614711 13372 net.cpp:434] conv6_4_mbox_conf <- conv6_4_relu6_4_0_split_2
I1002 14:55:12.614718 13372 net.cpp:408] conv6_4_mbox_conf -> conv6_4_mbox_conf
I1002 14:55:12.616371 13372 net.cpp:150] Setting up conv6_4_mbox_conf
I1002 14:55:12.616379 13372 net.cpp:157] Top shape: 1 10 10 16 (1600)
I1002 14:55:12.616381 13372 net.cpp:165] Memory required for data: 469044896
I1002 14:55:12.616389 13372 layer_factory.hpp:77] Creating layer conv6_4_mbox_conf_perm
I1002 14:55:12.616395 13372 net.cpp:100] Creating Layer conv6_4_mbox_conf_perm
I1002 14:55:12.616400 13372 net.cpp:434] conv6_4_mbox_conf_perm <- conv6_4_mbox_conf
I1002 14:55:12.616405 13372 net.cpp:408] conv6_4_mbox_conf_perm -> conv6_4_mbox_conf_perm
I1002 14:55:12.616482 13372 net.cpp:150] Setting up conv6_4_mbox_conf_perm
I1002 14:55:12.616487 13372 net.cpp:157] Top shape: 1 10 16 10 (1600)
I1002 14:55:12.616489 13372 net.cpp:165] Memory required for data: 469051296
I1002 14:55:12.616492 13372 layer_factory.hpp:77] Creating layer conv6_4_mbox_conf_flat
I1002 14:55:12.616497 13372 net.cpp:100] Creating Layer conv6_4_mbox_conf_flat
I1002 14:55:12.616502 13372 net.cpp:434] conv6_4_mbox_conf_flat <- conv6_4_mbox_conf_perm
I1002 14:55:12.616508 13372 net.cpp:408] conv6_4_mbox_conf_flat -> conv6_4_mbox_conf_flat
I1002 14:55:12.616529 13372 net.cpp:150] Setting up conv6_4_mbox_conf_flat
I1002 14:55:12.616534 13372 net.cpp:157] Top shape: 1 1600 (1600)
I1002 14:55:12.616536 13372 net.cpp:165] Memory required for data: 469057696
I1002 14:55:12.616539 13372 layer_factory.hpp:77] Creating layer conv6_4_mbox_priorbox
I1002 14:55:12.616544 13372 net.cpp:100] Creating Layer conv6_4_mbox_priorbox
I1002 14:55:12.616549 13372 net.cpp:434] conv6_4_mbox_priorbox <- conv6_4_relu6_4_0_split_3
I1002 14:55:12.616554 13372 net.cpp:434] conv6_4_mbox_priorbox <- data_data_0_split_2
I1002 14:55:12.616561 13372 net.cpp:408] conv6_4_mbox_priorbox -> conv6_4_mbox_priorbox
I1002 14:55:12.616592 13372 net.cpp:150] Setting up conv6_4_mbox_priorbox
I1002 14:55:12.616597 13372 net.cpp:157] Top shape: 1 2 1280 (2560)
I1002 14:55:12.616600 13372 net.cpp:165] Memory required for data: 469067936
I1002 14:55:12.616602 13372 layer_factory.hpp:77] Creating layer conv7_2/sep_mbox_loc
I1002 14:55:12.616611 13372 net.cpp:100] Creating Layer conv7_2/sep_mbox_loc
I1002 14:55:12.616616 13372 net.cpp:434] conv7_2/sep_mbox_loc <- conv7_2/sep_relu7_2/sep_0_split_1
I1002 14:55:12.616621 13372 net.cpp:408] conv7_2/sep_mbox_loc -> conv7_2/sep_mbox_loc
I1002 14:55:12.618036 13372 net.cpp:150] Setting up conv7_2/sep_mbox_loc
I1002 14:55:12.618044 13372 net.cpp:157] Top shape: 1 8 5 8 (320)
I1002 14:55:12.618047 13372 net.cpp:165] Memory required for data: 469069216
I1002 14:55:12.618052 13372 layer_factory.hpp:77] Creating layer conv7_2/sep_mbox_loc_perm
I1002 14:55:12.618060 13372 net.cpp:100] Creating Layer conv7_2/sep_mbox_loc_perm
I1002 14:55:12.618064 13372 net.cpp:434] conv7_2/sep_mbox_loc_perm <- conv7_2/sep_mbox_loc
I1002 14:55:12.618072 13372 net.cpp:408] conv7_2/sep_mbox_loc_perm -> conv7_2/sep_mbox_loc_perm
I1002 14:55:12.618149 13372 net.cpp:150] Setting up conv7_2/sep_mbox_loc_perm
I1002 14:55:12.618152 13372 net.cpp:157] Top shape: 1 5 8 8 (320)
I1002 14:55:12.618155 13372 net.cpp:165] Memory required for data: 469070496
I1002 14:55:12.618160 13372 layer_factory.hpp:77] Creating layer conv7_2/sep_mbox_loc_flat
I1002 14:55:12.618166 13372 net.cpp:100] Creating Layer conv7_2/sep_mbox_loc_flat
I1002 14:55:12.618170 13372 net.cpp:434] conv7_2/sep_mbox_loc_flat <- conv7_2/sep_mbox_loc_perm
I1002 14:55:12.618175 13372 net.cpp:408] conv7_2/sep_mbox_loc_flat -> conv7_2/sep_mbox_loc_flat
I1002 14:55:12.618197 13372 net.cpp:150] Setting up conv7_2/sep_mbox_loc_flat
I1002 14:55:12.618201 13372 net.cpp:157] Top shape: 1 320 (320)
I1002 14:55:12.618204 13372 net.cpp:165] Memory required for data: 469071776
I1002 14:55:12.618206 13372 layer_factory.hpp:77] Creating layer conv7_2/sep_mbox_conf
I1002 14:55:12.618216 13372 net.cpp:100] Creating Layer conv7_2/sep_mbox_conf
I1002 14:55:12.618221 13372 net.cpp:434] conv7_2/sep_mbox_conf <- conv7_2/sep_relu7_2/sep_0_split_2
I1002 14:55:12.618225 13372 net.cpp:408] conv7_2/sep_mbox_conf -> conv7_2/sep_mbox_conf
I1002 14:55:12.619663 13372 net.cpp:150] Setting up conv7_2/sep_mbox_conf
I1002 14:55:12.619670 13372 net.cpp:157] Top shape: 1 10 5 8 (400)
I1002 14:55:12.619674 13372 net.cpp:165] Memory required for data: 469073376
I1002 14:55:12.619679 13372 layer_factory.hpp:77] Creating layer conv7_2/sep_mbox_conf_perm
I1002 14:55:12.619685 13372 net.cpp:100] Creating Layer conv7_2/sep_mbox_conf_perm
I1002 14:55:12.619689 13372 net.cpp:434] conv7_2/sep_mbox_conf_perm <- conv7_2/sep_mbox_conf
I1002 14:55:12.619698 13372 net.cpp:408] conv7_2/sep_mbox_conf_perm -> conv7_2/sep_mbox_conf_perm
I1002 14:55:12.619776 13372 net.cpp:150] Setting up conv7_2/sep_mbox_conf_perm
I1002 14:55:12.619779 13372 net.cpp:157] Top shape: 1 5 8 10 (400)
I1002 14:55:12.619782 13372 net.cpp:165] Memory required for data: 469074976
I1002 14:55:12.619786 13372 layer_factory.hpp:77] Creating layer conv7_2/sep_mbox_conf_flat
I1002 14:55:12.619791 13372 net.cpp:100] Creating Layer conv7_2/sep_mbox_conf_flat
I1002 14:55:12.619796 13372 net.cpp:434] conv7_2/sep_mbox_conf_flat <- conv7_2/sep_mbox_conf_perm
I1002 14:55:12.619801 13372 net.cpp:408] conv7_2/sep_mbox_conf_flat -> conv7_2/sep_mbox_conf_flat
I1002 14:55:12.619822 13372 net.cpp:150] Setting up conv7_2/sep_mbox_conf_flat
I1002 14:55:12.619827 13372 net.cpp:157] Top shape: 1 400 (400)
I1002 14:55:12.619828 13372 net.cpp:165] Memory required for data: 469076576
I1002 14:55:12.619832 13372 layer_factory.hpp:77] Creating layer conv7_2/sep_mbox_priorbox
I1002 14:55:12.619838 13372 net.cpp:100] Creating Layer conv7_2/sep_mbox_priorbox
I1002 14:55:12.619843 13372 net.cpp:434] conv7_2/sep_mbox_priorbox <- conv7_2/sep_relu7_2/sep_0_split_3
I1002 14:55:12.619848 13372 net.cpp:434] conv7_2/sep_mbox_priorbox <- data_data_0_split_3
I1002 14:55:12.619861 13372 net.cpp:408] conv7_2/sep_mbox_priorbox -> conv7_2/sep_mbox_priorbox
I1002 14:55:12.619884 13372 net.cpp:150] Setting up conv7_2/sep_mbox_priorbox
I1002 14:55:12.619889 13372 net.cpp:157] Top shape: 1 2 320 (640)
I1002 14:55:12.619891 13372 net.cpp:165] Memory required for data: 469079136
I1002 14:55:12.619894 13372 layer_factory.hpp:77] Creating layer conv8_2/sep_mbox_loc
I1002 14:55:12.619904 13372 net.cpp:100] Creating Layer conv8_2/sep_mbox_loc
I1002 14:55:12.619909 13372 net.cpp:434] conv8_2/sep_mbox_loc <- conv8_2/sep_relu8_2/sep_0_split_1
I1002 14:55:12.619915 13372 net.cpp:408] conv8_2/sep_mbox_loc -> conv8_2/sep_mbox_loc
I1002 14:55:12.621256 13372 net.cpp:150] Setting up conv8_2/sep_mbox_loc
I1002 14:55:12.621263 13372 net.cpp:157] Top shape: 1 8 3 4 (96)
I1002 14:55:12.621266 13372 net.cpp:165] Memory required for data: 469079520
I1002 14:55:12.621273 13372 layer_factory.hpp:77] Creating layer conv8_2/sep_mbox_loc_perm
I1002 14:55:12.621281 13372 net.cpp:100] Creating Layer conv8_2/sep_mbox_loc_perm
I1002 14:55:12.621285 13372 net.cpp:434] conv8_2/sep_mbox_loc_perm <- conv8_2/sep_mbox_loc
I1002 14:55:12.621294 13372 net.cpp:408] conv8_2/sep_mbox_loc_perm -> conv8_2/sep_mbox_loc_perm
I1002 14:55:12.621367 13372 net.cpp:150] Setting up conv8_2/sep_mbox_loc_perm
I1002 14:55:12.621372 13372 net.cpp:157] Top shape: 1 3 4 8 (96)
I1002 14:55:12.621374 13372 net.cpp:165] Memory required for data: 469079904
I1002 14:55:12.621378 13372 layer_factory.hpp:77] Creating layer conv8_2/sep_mbox_loc_flat
I1002 14:55:12.621383 13372 net.cpp:100] Creating Layer conv8_2/sep_mbox_loc_flat
I1002 14:55:12.621387 13372 net.cpp:434] conv8_2/sep_mbox_loc_flat <- conv8_2/sep_mbox_loc_perm
I1002 14:55:12.621393 13372 net.cpp:408] conv8_2/sep_mbox_loc_flat -> conv8_2/sep_mbox_loc_flat
I1002 14:55:12.621415 13372 net.cpp:150] Setting up conv8_2/sep_mbox_loc_flat
I1002 14:55:12.621419 13372 net.cpp:157] Top shape: 1 96 (96)
I1002 14:55:12.621423 13372 net.cpp:165] Memory required for data: 469080288
I1002 14:55:12.621425 13372 layer_factory.hpp:77] Creating layer conv8_2/sep_mbox_conf
I1002 14:55:12.621433 13372 net.cpp:100] Creating Layer conv8_2/sep_mbox_conf
I1002 14:55:12.621438 13372 net.cpp:434] conv8_2/sep_mbox_conf <- conv8_2/sep_relu8_2/sep_0_split_2
I1002 14:55:12.621445 13372 net.cpp:408] conv8_2/sep_mbox_conf -> conv8_2/sep_mbox_conf
I1002 14:55:12.622856 13372 net.cpp:150] Setting up conv8_2/sep_mbox_conf
I1002 14:55:12.622865 13372 net.cpp:157] Top shape: 1 10 3 4 (120)
I1002 14:55:12.622869 13372 net.cpp:165] Memory required for data: 469080768
I1002 14:55:12.622874 13372 layer_factory.hpp:77] Creating layer conv8_2/sep_mbox_conf_perm
I1002 14:55:12.622881 13372 net.cpp:100] Creating Layer conv8_2/sep_mbox_conf_perm
I1002 14:55:12.622885 13372 net.cpp:434] conv8_2/sep_mbox_conf_perm <- conv8_2/sep_mbox_conf
I1002 14:55:12.622891 13372 net.cpp:408] conv8_2/sep_mbox_conf_perm -> conv8_2/sep_mbox_conf_perm
I1002 14:55:12.622968 13372 net.cpp:150] Setting up conv8_2/sep_mbox_conf_perm
I1002 14:55:12.622973 13372 net.cpp:157] Top shape: 1 3 4 10 (120)
I1002 14:55:12.622975 13372 net.cpp:165] Memory required for data: 469081248
I1002 14:55:12.622977 13372 layer_factory.hpp:77] Creating layer conv8_2/sep_mbox_conf_flat
I1002 14:55:12.622980 13372 net.cpp:100] Creating Layer conv8_2/sep_mbox_conf_flat
I1002 14:55:12.622983 13372 net.cpp:434] conv8_2/sep_mbox_conf_flat <- conv8_2/sep_mbox_conf_perm
I1002 14:55:12.622987 13372 net.cpp:408] conv8_2/sep_mbox_conf_flat -> conv8_2/sep_mbox_conf_flat
I1002 14:55:12.623006 13372 net.cpp:150] Setting up conv8_2/sep_mbox_conf_flat
I1002 14:55:12.623011 13372 net.cpp:157] Top shape: 1 120 (120)
I1002 14:55:12.623013 13372 net.cpp:165] Memory required for data: 469081728
I1002 14:55:12.623015 13372 layer_factory.hpp:77] Creating layer conv8_2/sep_mbox_priorbox
I1002 14:55:12.623019 13372 net.cpp:100] Creating Layer conv8_2/sep_mbox_priorbox
I1002 14:55:12.623021 13372 net.cpp:434] conv8_2/sep_mbox_priorbox <- conv8_2/sep_relu8_2/sep_0_split_3
I1002 14:55:12.623031 13372 net.cpp:434] conv8_2/sep_mbox_priorbox <- data_data_0_split_4
I1002 14:55:12.623039 13372 net.cpp:408] conv8_2/sep_mbox_priorbox -> conv8_2/sep_mbox_priorbox
I1002 14:55:12.623060 13372 net.cpp:150] Setting up conv8_2/sep_mbox_priorbox
I1002 14:55:12.623064 13372 net.cpp:157] Top shape: 1 2 96 (192)
I1002 14:55:12.623066 13372 net.cpp:165] Memory required for data: 469082496
I1002 14:55:12.623070 13372 layer_factory.hpp:77] Creating layer conv9_2/sep_mbox_loc
I1002 14:55:12.623078 13372 net.cpp:100] Creating Layer conv9_2/sep_mbox_loc
I1002 14:55:12.623082 13372 net.cpp:434] conv9_2/sep_mbox_loc <- conv9_2/sep_relu9_2/sep_0_split_1
I1002 14:55:12.623088 13372 net.cpp:408] conv9_2/sep_mbox_loc -> conv9_2/sep_mbox_loc
I1002 14:55:12.624315 13372 net.cpp:150] Setting up conv9_2/sep_mbox_loc
I1002 14:55:12.624321 13372 net.cpp:157] Top shape: 1 8 2 2 (32)
I1002 14:55:12.624325 13372 net.cpp:165] Memory required for data: 469082624
I1002 14:55:12.624330 13372 layer_factory.hpp:77] Creating layer conv9_2/sep_mbox_loc_perm
I1002 14:55:12.624337 13372 net.cpp:100] Creating Layer conv9_2/sep_mbox_loc_perm
I1002 14:55:12.624341 13372 net.cpp:434] conv9_2/sep_mbox_loc_perm <- conv9_2/sep_mbox_loc
I1002 14:55:12.624347 13372 net.cpp:408] conv9_2/sep_mbox_loc_perm -> conv9_2/sep_mbox_loc_perm
I1002 14:55:12.624420 13372 net.cpp:150] Setting up conv9_2/sep_mbox_loc_perm
I1002 14:55:12.624424 13372 net.cpp:157] Top shape: 1 2 2 8 (32)
I1002 14:55:12.624428 13372 net.cpp:165] Memory required for data: 469082752
I1002 14:55:12.624429 13372 layer_factory.hpp:77] Creating layer conv9_2/sep_mbox_loc_flat
I1002 14:55:12.624436 13372 net.cpp:100] Creating Layer conv9_2/sep_mbox_loc_flat
I1002 14:55:12.624440 13372 net.cpp:434] conv9_2/sep_mbox_loc_flat <- conv9_2/sep_mbox_loc_perm
I1002 14:55:12.624445 13372 net.cpp:408] conv9_2/sep_mbox_loc_flat -> conv9_2/sep_mbox_loc_flat
I1002 14:55:12.624467 13372 net.cpp:150] Setting up conv9_2/sep_mbox_loc_flat
I1002 14:55:12.624471 13372 net.cpp:157] Top shape: 1 32 (32)
I1002 14:55:12.624474 13372 net.cpp:165] Memory required for data: 469082880
I1002 14:55:12.624476 13372 layer_factory.hpp:77] Creating layer conv9_2/sep_mbox_conf
I1002 14:55:12.624481 13372 net.cpp:100] Creating Layer conv9_2/sep_mbox_conf
I1002 14:55:12.624485 13372 net.cpp:434] conv9_2/sep_mbox_conf <- conv9_2/sep_relu9_2/sep_0_split_2
I1002 14:55:12.624490 13372 net.cpp:408] conv9_2/sep_mbox_conf -> conv9_2/sep_mbox_conf
I1002 14:55:12.625757 13372 net.cpp:150] Setting up conv9_2/sep_mbox_conf
I1002 14:55:12.625766 13372 net.cpp:157] Top shape: 1 10 2 2 (40)
I1002 14:55:12.625766 13372 net.cpp:165] Memory required for data: 469083040
I1002 14:55:12.625771 13372 layer_factory.hpp:77] Creating layer conv9_2/sep_mbox_conf_perm
I1002 14:55:12.625779 13372 net.cpp:100] Creating Layer conv9_2/sep_mbox_conf_perm
I1002 14:55:12.625784 13372 net.cpp:434] conv9_2/sep_mbox_conf_perm <- conv9_2/sep_mbox_conf
I1002 14:55:12.625789 13372 net.cpp:408] conv9_2/sep_mbox_conf_perm -> conv9_2/sep_mbox_conf_perm
I1002 14:55:12.625864 13372 net.cpp:150] Setting up conv9_2/sep_mbox_conf_perm
I1002 14:55:12.625869 13372 net.cpp:157] Top shape: 1 2 2 10 (40)
I1002 14:55:12.625870 13372 net.cpp:165] Memory required for data: 469083200
I1002 14:55:12.625872 13372 layer_factory.hpp:77] Creating layer conv9_2/sep_mbox_conf_flat
I1002 14:55:12.625879 13372 net.cpp:100] Creating Layer conv9_2/sep_mbox_conf_flat
I1002 14:55:12.625882 13372 net.cpp:434] conv9_2/sep_mbox_conf_flat <- conv9_2/sep_mbox_conf_perm
I1002 14:55:12.625887 13372 net.cpp:408] conv9_2/sep_mbox_conf_flat -> conv9_2/sep_mbox_conf_flat
I1002 14:55:12.625908 13372 net.cpp:150] Setting up conv9_2/sep_mbox_conf_flat
I1002 14:55:12.625913 13372 net.cpp:157] Top shape: 1 40 (40)
I1002 14:55:12.625916 13372 net.cpp:165] Memory required for data: 469083360
I1002 14:55:12.625918 13372 layer_factory.hpp:77] Creating layer conv9_2/sep_mbox_priorbox
I1002 14:55:12.625926 13372 net.cpp:100] Creating Layer conv9_2/sep_mbox_priorbox
I1002 14:55:12.625929 13372 net.cpp:434] conv9_2/sep_mbox_priorbox <- conv9_2/sep_relu9_2/sep_0_split_3
I1002 14:55:12.625944 13372 net.cpp:434] conv9_2/sep_mbox_priorbox <- data_data_0_split_5
I1002 14:55:12.625952 13372 net.cpp:408] conv9_2/sep_mbox_priorbox -> conv9_2/sep_mbox_priorbox
I1002 14:55:12.625974 13372 net.cpp:150] Setting up conv9_2/sep_mbox_priorbox
I1002 14:55:12.625978 13372 net.cpp:157] Top shape: 1 2 32 (64)
I1002 14:55:12.625982 13372 net.cpp:165] Memory required for data: 469083616
I1002 14:55:12.625984 13372 layer_factory.hpp:77] Creating layer conv10_2/sep_mbox_loc
I1002 14:55:12.625994 13372 net.cpp:100] Creating Layer conv10_2/sep_mbox_loc
I1002 14:55:12.625999 13372 net.cpp:434] conv10_2/sep_mbox_loc <- conv10_2/sep_relu10_2/sep_0_split_0
I1002 14:55:12.626005 13372 net.cpp:408] conv10_2/sep_mbox_loc -> conv10_2/sep_mbox_loc
I1002 14:55:12.627220 13372 net.cpp:150] Setting up conv10_2/sep_mbox_loc
I1002 14:55:12.627226 13372 net.cpp:157] Top shape: 1 8 1 1 (8)
I1002 14:55:12.627229 13372 net.cpp:165] Memory required for data: 469083648
I1002 14:55:12.627238 13372 layer_factory.hpp:77] Creating layer conv10_2/sep_mbox_loc_perm
I1002 14:55:12.627244 13372 net.cpp:100] Creating Layer conv10_2/sep_mbox_loc_perm
I1002 14:55:12.627249 13372 net.cpp:434] conv10_2/sep_mbox_loc_perm <- conv10_2/sep_mbox_loc
I1002 14:55:12.627256 13372 net.cpp:408] conv10_2/sep_mbox_loc_perm -> conv10_2/sep_mbox_loc_perm
I1002 14:55:12.627333 13372 net.cpp:150] Setting up conv10_2/sep_mbox_loc_perm
I1002 14:55:12.627337 13372 net.cpp:157] Top shape: 1 1 1 8 (8)
I1002 14:55:12.627341 13372 net.cpp:165] Memory required for data: 469083680
I1002 14:55:12.627343 13372 layer_factory.hpp:77] Creating layer conv10_2/sep_mbox_loc_flat
I1002 14:55:12.627351 13372 net.cpp:100] Creating Layer conv10_2/sep_mbox_loc_flat
I1002 14:55:12.627354 13372 net.cpp:434] conv10_2/sep_mbox_loc_flat <- conv10_2/sep_mbox_loc_perm
I1002 14:55:12.627362 13372 net.cpp:408] conv10_2/sep_mbox_loc_flat -> conv10_2/sep_mbox_loc_flat
I1002 14:55:12.627382 13372 net.cpp:150] Setting up conv10_2/sep_mbox_loc_flat
I1002 14:55:12.627387 13372 net.cpp:157] Top shape: 1 8 (8)
I1002 14:55:12.627389 13372 net.cpp:165] Memory required for data: 469083712
I1002 14:55:12.627391 13372 layer_factory.hpp:77] Creating layer conv10_2/sep_mbox_conf
I1002 14:55:12.627401 13372 net.cpp:100] Creating Layer conv10_2/sep_mbox_conf
I1002 14:55:12.627406 13372 net.cpp:434] conv10_2/sep_mbox_conf <- conv10_2/sep_relu10_2/sep_0_split_1
I1002 14:55:12.627411 13372 net.cpp:408] conv10_2/sep_mbox_conf -> conv10_2/sep_mbox_conf
I1002 14:55:12.628835 13372 net.cpp:150] Setting up conv10_2/sep_mbox_conf
I1002 14:55:12.628844 13372 net.cpp:157] Top shape: 1 10 1 1 (10)
I1002 14:55:12.628845 13372 net.cpp:165] Memory required for data: 469083752
I1002 14:55:12.628850 13372 layer_factory.hpp:77] Creating layer conv10_2/sep_mbox_conf_perm
I1002 14:55:12.628856 13372 net.cpp:100] Creating Layer conv10_2/sep_mbox_conf_perm
I1002 14:55:12.628860 13372 net.cpp:434] conv10_2/sep_mbox_conf_perm <- conv10_2/sep_mbox_conf
I1002 14:55:12.628868 13372 net.cpp:408] conv10_2/sep_mbox_conf_perm -> conv10_2/sep_mbox_conf_perm
I1002 14:55:12.628947 13372 net.cpp:150] Setting up conv10_2/sep_mbox_conf_perm
I1002 14:55:12.628952 13372 net.cpp:157] Top shape: 1 1 1 10 (10)
I1002 14:55:12.628954 13372 net.cpp:165] Memory required for data: 469083792
I1002 14:55:12.628957 13372 layer_factory.hpp:77] Creating layer conv10_2/sep_mbox_conf_flat
I1002 14:55:12.628963 13372 net.cpp:100] Creating Layer conv10_2/sep_mbox_conf_flat
I1002 14:55:12.628968 13372 net.cpp:434] conv10_2/sep_mbox_conf_flat <- conv10_2/sep_mbox_conf_perm
I1002 14:55:12.628974 13372 net.cpp:408] conv10_2/sep_mbox_conf_flat -> conv10_2/sep_mbox_conf_flat
I1002 14:55:12.628995 13372 net.cpp:150] Setting up conv10_2/sep_mbox_conf_flat
I1002 14:55:12.628999 13372 net.cpp:157] Top shape: 1 10 (10)
I1002 14:55:12.629001 13372 net.cpp:165] Memory required for data: 469083832
I1002 14:55:12.629004 13372 layer_factory.hpp:77] Creating layer conv10_2/sep_mbox_priorbox
I1002 14:55:12.629012 13372 net.cpp:100] Creating Layer conv10_2/sep_mbox_priorbox
I1002 14:55:12.629024 13372 net.cpp:434] conv10_2/sep_mbox_priorbox <- conv10_2/sep_relu10_2/sep_0_split_2
I1002 14:55:12.629029 13372 net.cpp:434] conv10_2/sep_mbox_priorbox <- data_data_0_split_6
I1002 14:55:12.629035 13372 net.cpp:408] conv10_2/sep_mbox_priorbox -> conv10_2/sep_mbox_priorbox
I1002 14:55:12.629060 13372 net.cpp:150] Setting up conv10_2/sep_mbox_priorbox
I1002 14:55:12.629063 13372 net.cpp:157] Top shape: 1 2 8 (16)
I1002 14:55:12.629065 13372 net.cpp:165] Memory required for data: 469083896
I1002 14:55:12.629068 13372 layer_factory.hpp:77] Creating layer mbox_loc
I1002 14:55:12.629076 13372 net.cpp:100] Creating Layer mbox_loc
I1002 14:55:12.629079 13372 net.cpp:434] mbox_loc <- conv5_3/expand_mbox_loc_flat
I1002 14:55:12.629084 13372 net.cpp:434] mbox_loc <- conv6_4_mbox_loc_flat
I1002 14:55:12.629089 13372 net.cpp:434] mbox_loc <- conv7_2/sep_mbox_loc_flat
I1002 14:55:12.629094 13372 net.cpp:434] mbox_loc <- conv8_2/sep_mbox_loc_flat
I1002 14:55:12.629098 13372 net.cpp:434] mbox_loc <- conv9_2/sep_mbox_loc_flat
I1002 14:55:12.629103 13372 net.cpp:434] mbox_loc <- conv10_2/sep_mbox_loc_flat
I1002 14:55:12.629110 13372 net.cpp:408] mbox_loc -> mbox_loc
I1002 14:55:12.629132 13372 net.cpp:150] Setting up mbox_loc
I1002 14:55:12.629137 13372 net.cpp:157] Top shape: 1 6600 (6600)
I1002 14:55:12.629139 13372 net.cpp:165] Memory required for data: 469110296
I1002 14:55:12.629142 13372 layer_factory.hpp:77] Creating layer mbox_conf
I1002 14:55:12.629148 13372 net.cpp:100] Creating Layer mbox_conf
I1002 14:55:12.629153 13372 net.cpp:434] mbox_conf <- conv5_3/expand_mbox_conf_flat
I1002 14:55:12.629158 13372 net.cpp:434] mbox_conf <- conv6_4_mbox_conf_flat
I1002 14:55:12.629161 13372 net.cpp:434] mbox_conf <- conv7_2/sep_mbox_conf_flat
I1002 14:55:12.629166 13372 net.cpp:434] mbox_conf <- conv8_2/sep_mbox_conf_flat
I1002 14:55:12.629171 13372 net.cpp:434] mbox_conf <- conv9_2/sep_mbox_conf_flat
I1002 14:55:12.629175 13372 net.cpp:434] mbox_conf <- conv10_2/sep_mbox_conf_flat
I1002 14:55:12.629180 13372 net.cpp:408] mbox_conf -> mbox_conf
I1002 14:55:12.629201 13372 net.cpp:150] Setting up mbox_conf
I1002 14:55:12.629205 13372 net.cpp:157] Top shape: 1 8250 (8250)
I1002 14:55:12.629206 13372 net.cpp:165] Memory required for data: 469143296
I1002 14:55:12.629210 13372 layer_factory.hpp:77] Creating layer mbox_priorbox
I1002 14:55:12.629215 13372 net.cpp:100] Creating Layer mbox_priorbox
I1002 14:55:12.629220 13372 net.cpp:434] mbox_priorbox <- conv5_3/expand_mbox_priorbox
I1002 14:55:12.629225 13372 net.cpp:434] mbox_priorbox <- conv6_4_mbox_priorbox
I1002 14:55:12.629230 13372 net.cpp:434] mbox_priorbox <- conv7_2/sep_mbox_priorbox
I1002 14:55:12.629235 13372 net.cpp:434] mbox_priorbox <- conv8_2/sep_mbox_priorbox
I1002 14:55:12.629237 13372 net.cpp:434] mbox_priorbox <- conv9_2/sep_mbox_priorbox
I1002 14:55:12.629242 13372 net.cpp:434] mbox_priorbox <- conv10_2/sep_mbox_priorbox
I1002 14:55:12.629247 13372 net.cpp:408] mbox_priorbox -> mbox_priorbox
I1002 14:55:12.629267 13372 net.cpp:150] Setting up mbox_priorbox
I1002 14:55:12.629271 13372 net.cpp:157] Top shape: 1 2 6600 (13200)
I1002 14:55:12.629274 13372 net.cpp:165] Memory required for data: 469196096
I1002 14:55:12.629277 13372 layer_factory.hpp:77] Creating layer mbox_conf_reshape
I1002 14:55:12.629283 13372 net.cpp:100] Creating Layer mbox_conf_reshape
I1002 14:55:12.629287 13372 net.cpp:434] mbox_conf_reshape <- mbox_conf
I1002 14:55:12.629294 13372 net.cpp:408] mbox_conf_reshape -> mbox_conf_reshape
I1002 14:55:12.629321 13372 net.cpp:150] Setting up mbox_conf_reshape
I1002 14:55:12.629325 13372 net.cpp:157] Top shape: 1 1650 5 (8250)
I1002 14:55:12.629328 13372 net.cpp:165] Memory required for data: 469229096
I1002 14:55:12.629333 13372 layer_factory.hpp:77] Creating layer mbox_conf_softmax
I1002 14:55:12.629338 13372 net.cpp:100] Creating Layer mbox_conf_softmax
I1002 14:55:12.629340 13372 net.cpp:434] mbox_conf_softmax <- mbox_conf_reshape
I1002 14:55:12.629348 13372 net.cpp:408] mbox_conf_softmax -> mbox_conf_softmax
I1002 14:55:12.629709 13372 net.cpp:150] Setting up mbox_conf_softmax
I1002 14:55:12.629716 13372 net.cpp:157] Top shape: 1 1650 5 (8250)
I1002 14:55:12.629719 13372 net.cpp:165] Memory required for data: 469262096
I1002 14:55:12.629721 13372 layer_factory.hpp:77] Creating layer mbox_conf_flatten
I1002 14:55:12.629726 13372 net.cpp:100] Creating Layer mbox_conf_flatten
I1002 14:55:12.629731 13372 net.cpp:434] mbox_conf_flatten <- mbox_conf_softmax
I1002 14:55:12.629739 13372 net.cpp:408] mbox_conf_flatten -> mbox_conf_flatten
I1002 14:55:12.629760 13372 net.cpp:150] Setting up mbox_conf_flatten
I1002 14:55:12.629765 13372 net.cpp:157] Top shape: 1 8250 (8250)
I1002 14:55:12.629768 13372 net.cpp:165] Memory required for data: 469295096
I1002 14:55:12.629770 13372 layer_factory.hpp:77] Creating layer detection_out
I1002 14:55:12.629784 13372 net.cpp:100] Creating Layer detection_out
I1002 14:55:12.629788 13372 net.cpp:434] detection_out <- mbox_loc
I1002 14:55:12.629791 13372 net.cpp:434] detection_out <- mbox_conf_flatten
I1002 14:55:12.629796 13372 net.cpp:434] detection_out <- mbox_priorbox
I1002 14:55:12.629802 13372 net.cpp:408] detection_out -> detection_out
W1002 14:55:12.629828 13372 detection_output_layer.cpp:49] Failed to create directory: /home/zhongyilin/Documents/data/GTSDBdevkit/results/GTSDB/SSDLite_510x300_100_40_6_True_1/Main
I1002 14:55:12.630141 13372 net.cpp:150] Setting up detection_out
I1002 14:55:12.630146 13372 net.cpp:157] Top shape: 1 1 1 7 (7)
I1002 14:55:12.630149 13372 net.cpp:165] Memory required for data: 469295124
I1002 14:55:12.630152 13372 layer_factory.hpp:77] Creating layer detection_eval
I1002 14:55:12.630159 13372 net.cpp:100] Creating Layer detection_eval
I1002 14:55:12.630163 13372 net.cpp:434] detection_eval <- detection_out
I1002 14:55:12.630168 13372 net.cpp:434] detection_eval <- label
I1002 14:55:12.630174 13372 net.cpp:408] detection_eval -> detection_eval
I1002 14:55:12.630254 13372 net.cpp:150] Setting up detection_eval
I1002 14:55:12.630260 13372 net.cpp:157] Top shape: 1 1 5 5 (25)
I1002 14:55:12.630262 13372 net.cpp:165] Memory required for data: 469295224
I1002 14:55:12.630265 13372 net.cpp:228] detection_eval does not need backward computation.
I1002 14:55:12.630270 13372 net.cpp:228] detection_out does not need backward computation.
I1002 14:55:12.630275 13372 net.cpp:228] mbox_conf_flatten does not need backward computation.
I1002 14:55:12.630278 13372 net.cpp:228] mbox_conf_softmax does not need backward computation.
…
