…
      sampler {
        min_scale: 0.3
        max_scale: 1
        min_aspect_ratio: 0.5
        max_aspect_ratio: 2
      }
      sample_constraint {
        min_jaccard_overlap: 0.9
      }
      max_sample: 1
      max_trials: 50
    }
    batch_sampler {
      sampler {
        min_scale: 0.3
        max_scale: 1
        min_aspect_ratio: 0.5
        max_aspect_ratio: 2
      }
      sample_constraint {
        max_jaccard_overlap: 1
      }
      max_sample: 1
      max_trials: 50
    }
    label_map_file: "data/GTSDB/labelmap_GTSDB.prototxt"
  }
}
layer {
  name: "conv1_1"
  type: "Convolution"
  bottom: "data"
  top: "conv1_1"
  param {
    lr_mult: 1
    decay_mult: 1
  }
  param {
    lr_mult: 2
    decay_mult: 0
  }
  convolution_param {
    num_output: 64
    pad: 1
    kernel_size: 3
    weight_filler {
      type: "xavier"
    }
    bias_filler {
      type: "constant"
      value: 0
    }
  }
}
layer {
  name: "relu1_1"
  type: "ReLU"
  bottom: "conv1_1"
  top: "conv1_1"
}
layer {
  name: "conv1_2"
  type: "Convolution"
  bottom: "conv1_1"
  top: "conv1_2"
  param {
    lr_mult: 1
    decay_mult: 1
  }
  param {
    lr_mult: 2
    decay_mult: 0
  }
  convolution_param {
    num_output: 64
    pad: 1
    kernel_size: 3
    weight_filler {
      type: "xavier"
    }
    bias_filler {
      type: "constant"
      value: 0
    }
  }
}
layer {
  name: "relu1_2"
  type: "ReLU"
  bottom: "conv1_2"
  top: "conv1_2"
}
layer {
  name: "pool1"
  type: "Pooling"
  bottom: "conv1_2"
  top: "pool1"
  pooling_param {
    pool: MAX
    kernel_size: 2
    stride: 2
  }
}
layer {
  name: "conv2_1"
  type: "Convolution"
  bottom: "pool1"
  top: "conv2_1"
  param {
    lr_mult: 1
    decay_mult: 1
  }
  param {
    lr_mult: 2
    decay_mult: 0
  }
  convolution_param {
    num_output: 128
    pad: 1
    kernel_size: 3
    weight_filler {
      type: "xavier"
    }
    bias_filler {
      type: "constant"
      value: 0
    }
  }
}
layer {
  name: "relu2_1"
  type: "ReLU"
  bottom: "conv2_1"
  top: "conv2_1"
}
layer {
  name: "conv2_2"
  type: "Convolution"
  bottom: "conv2_1"
  top: "conv2_2"
  param {
    lr_mult: 1
    decay_mult: 1
  }
  param {
    lr_mult: 2
    decay_mult: 0
  }
  convolution_param {
    num_output: 128
    pad: 1
    kernel_size: 3
    weight_filler {
      type: "xavier"
    }
    bias_filler {
      type: "constant"
      value: 0
    }
  }
}
layer {
  name: "relu2_2"
  type: "ReLU"
  bottom: "conv2_2"
  top: "conv2_2"
}
layer {
  name: "pool2"
  type: "Pooling"
  bottom: "conv2_2"
  top: "pool2"
  pooling_param {
    pool: MAX
    kernel_size: 2
    stride: 2
  }
}
layer {
  name: "conv3_1"
  type: "Convolution"
  bottom: "pool2"
  top: "conv3_1"
  param {
    lr_mult: 1
    decay_mult: 1
  }
  param {
    lr_mult: 2
    decay_mult: 0
  }
  convolution_param {
    num_output: 256
    pad: 1
    kernel_size: 3
    weight_filler {
      type: "xavier"
    }
    bias_filler {
      type: "constant"
      value: 0
    }
  }
}
layer {
  name: "relu3_1"
  type: "ReLU"
  bottom: "conv3_1"
  top: "conv3_1"
}
layer {
  name: "conv3_2"
  type: "Convolution"
  bottom: "conv3_1"
  top: "conv3_2"
  param {
    lr_mult: 1
    decay_mult: 1
  }
  param {
    lr_mult: 2
    decay_mult: 0
  }
  convolution_param {
    num_output: 256
    pad: 1
    kernel_size: 3
    weight_filler {
      type: "xavier"
    }
    bias_filler {
      type: "constant"
      value: 0
    }
  }
}
layer {
  name: "relu3_2"
  type: "ReLU"
  bottom: "conv3_2"
  top: "conv3_2"
}
layer {
  name: "conv3_3"
  type: "Convolution"
  bottom: "conv3_2"
  top: "conv3_3"
  param {
    lr_mult: 1
    decay_mult: 1
  }
  param {
    lr_mult: 2
    decay_mult: 0
  }
  convolution_param {
    num_output: 256
    pad: 1
    kernel_size: 3
    weight_filler {
      type: "xavier"
    }
    bias_filler {
      type: "constant"
      value: 0
    }
  }
}
layer {
  name: "relu3_3"
  type: "ReLU"
  bottom: "conv3_3"
  top: "conv3_3"
}
layer {
  name: "pool3"
  type: "Pooling"
  bottom: "conv3_3"
  top: "pool3"
  pooling_param {
    pool: MAX
    kernel_size: 2
    stride: 2
  }
}
layer {
  name: "conv4_1"
  type: "Convolution"
  bottom: "pool3"
  top: "conv4_1"
  param {
    lr_mult: 1
    decay_mult: 1
  }
  param {
    lr_mult: 2
    decay_mult: 0
  }
  convolution_param {
    num_output: 512
    pad: 1
    kernel_size: 3
    weight_filler {
      type: "xavier"
    }
    bias_filler {
      type: "constant"
      value: 0
    }
  }
}
layer {
  name: "relu4_1"
  type: "ReLU"
  bottom: "conv4_1"
  top: "conv4_1"
}
layer {
  name: "conv4_2"
  type: "Convolution"
  bottom: "conv4_1"
  top: "conv4_2"
  param {
    lr_mult: 1
    decay_mult: 1
  }
  param {
    lr_mult: 2
    decay_mult: 0
  }
  convolution_param {
    num_output: 512
    pad: 1
    kernel_size: 3
    weight_filler {
      type: "xavier"
    }
    bias_filler {
      type: "constant"
      value: 0
    }
  }
}
layer {
  name: "relu4_2"
  type: "ReLU"
  bottom: "conv4_2"
  top: "conv4_2"
}
layer {
  name: "conv4_3"
  type: "Convolution"
  bottom: "conv4_2"
  top: "conv4_3"
  param {
    lr_mult: 1
    decay_mult: 1
  }
  param {
    lr_mult: 2
    decay_mult: 0
  }
  convolution_param {
    num_output: 512
    pad: 1
    kernel_size: 3
    weight_filler {
      type: "xavier"
    }
    bias_filler {
      type: "constant"
      value: 0
    }
  }
}
layer {
  name: "relu4_3"
  type: "ReLU"
  bottom: "conv4_3"
  top: "conv4_3"
}
layer {
  name: "pool4"
  type: "Pooling"
  bottom: "conv4_3"
  top: "pool4"
  pooling_param {
    pool: MAX
    kernel_size: 2
    stride: 2
  }
}
layer {
  name: "conv5_1"
  type: "Convolution"
  bottom: "pool4"
  top: "conv5_1"
  param {
    lr_mult: 1
    decay_mult: 1
  }
  param {
    lr_mult: 2
    decay_mult: 0
  }
  convolution_param {
    num_output: 512
    pad: 1
    kernel_size: 3
    weight_filler {
      type: "xavier"
    }
    bias_filler {
      type: "constant"
      value: 0
    }
    dilation: 1
  }
}
layer {
  name: "relu5_1"
  type: "ReLU"
  bottom: "conv5_1"
  top: "conv5_1"
}
layer {
  name: "conv5_2"
  type: "Convolution"
  bottom: "conv5_1"
  top: "conv5_2"
  param {
    lr_mult: 1
    decay_mult: 1
  }
  param {
    lr_mult: 2
    decay_mult: 0
  }
  convolution_param {
    num_output: 512
    pad: 1
    kernel_size: 3
    weight_filler {
      type: "xavier"
    }
    bias_filler {
      type: "constant"
      value: 0
    }
    dilation: 1
  }
}
layer {
  name: "relu5_2"
  type: "ReLU"
  bottom: "conv5_2"
  top: "conv5_2"
}
layer {
  name: "conv5_3"
  type: "Convolution"
  bottom: "conv5_2"
  top: "conv5_3"
  param {
    lr_mult: 1
    decay_mult: 1
  }
  param {
    lr_mult: 2
    decay_mult: 0
  }
  convolution_param {
    num_output: 512
    pad: 1
    kernel_size: 3
    weight_filler {
      type: "xavier"
    }
    bias_filler {
      type: "constant"
      value: 0
    }
    dilation: 1
  }
}
layer {
  name: "relu5_3"
  type: "ReLU"
  bottom: "conv5_3"
  top: "conv5_3"
}
layer {
  name: "pool5"
  type: "Pooling"
  bottom: "conv5_3"
  top: "pool5"
  pooling_param {
    pool: MAX
    kernel_size: 3
    stride: 1
    pad: 1
  }
}
layer {
  name: "fc6"
  type: "Convolution"
  bottom: "pool5"
  top: "fc6"
  param {
    lr_mult: 1
    decay_mult: 1
  }
  param {
    lr_mult: 2
    decay_mult: 0
  }
  convolution_param {
    num_output: 1024
    pad: 6
    kernel_size: 3
    weight_filler {
      type: "xavier"
    }
    bias_filler {
      type: "constant"
      value: 0
    }
    dilation: 6
  }
}
layer {
  name: "relu6"
  type: "ReLU"
  bottom: "fc6"
  top: "fc6"
}
layer {
  name: "fc7"
  type: "Convolution"
  bottom: "fc6"
  top: "fc7"
  param {
    lr_mult: 1
    decay_mult: 1
  }
  param {
    lr_mult: 2
    decay_mult: 0
  }
  convolution_param {
    num_output: 1024
    kernel_size: 1
    weight_filler {
      type: "xavier"
    }
    bias_filler {
      type: "constant"
      value: 0
    }
  }
}
layer {
  name: "relu7"
  type: "ReLU"
  bottom: "fc7"
  top: "fc7"
}
layer {
  name: "ssd1_1"
  type: "Convolution"
  bottom: "fc7"
  top: "ssd1_1"
  param {
    lr_mult: 1
    decay_mult: 1
  }
  param {
    lr_mult: 2
    decay_mult: 0
  }
  convolution_param {
    num_output: 256
    pad: 0
    kernel_size: 1
    stride: 1
    weight_filler {
      type: "xavier"
    }
    bias_filler {
      type: "constant"
      value: 0
    }
  }
}
layer {
  name: "ssd1_1_relu"
  type: "ReLU"
  bottom: "ssd1_1"
  top: "ssd1_1"
}
layer {
  name: "ssd1_2"
  type: "Convolution"
  bottom: "ssd1_1"
  top: "ssd1_2"
  param {
    lr_mult: 1
    decay_mult: 1
  }
  param {
    lr_mult: 2
    decay_mult: 0
  }
  convolution_param {
    num_output: 512
    pad: 1
    kernel_size: 3
    stride: 2
    weight_filler {
      type: "xavier"
    }
    bias_filler {
      type: "constant"
      value: 0
    }
  }
}
layer {
  name: "ssd1_2_relu"
  type: "ReLU"
  bottom: "ssd1_2"
  top: "ssd1_2"
}
layer {
  name: "ssd2_1"
  type: "Convolution"
  bottom: "ssd1_2"
  top: "ssd2_1"
  param {
    lr_mult: 1
    decay_mult: 1
  }
  param {
    lr_mult: 2
    decay_mult: 0
  }
  convolution_param {
    num_output: 128
    pad: 0
    kernel_size: 1
    stride: 1
    weight_filler {
      type: "xavier"
    }
    bias_filler {
      type: "constant"
      value: 0
    }
  }
}
layer {
  name: "ssd2_1_relu"
  type: "ReLU"
  bottom: "ssd2_1"
  top: "ssd2_1"
}
layer {
  name: "ssd2_2"
  type: "Convolution"
  bottom: "ssd2_1"
  top: "ssd2_2"
  param {
    lr_mult: 1
    decay_mult: 1
  }
  param {
    lr_mult: 2
    decay_mult: 0
  }
  convolution_param {
    num_output: 256
    pad: 1
    kernel_size: 3
    stride: 2
    weight_filler {
      type: "xavier"
    }
    bias_filler {
      type: "constant"
      value: 0
    }
  }
}
layer {
  name: "ssd2_2_relu"
  type: "ReLU"
  bottom: "ssd2_2"
  top: "ssd2_2"
}
layer {
  name: "ssd3_1"
  type: "Convolution"
  bottom: "ssd2_2"
  top: "ssd3_1"
  param {
    lr_mult: 1
    decay_mult: 1
  }
  param {
    lr_mult: 2
    decay_mult: 0
  }
  convolution_param {
    num_output: 128
    pad: 0
    kernel_size: 1
    stride: 1
    weight_filler {
      type: "xavier"
    }
    bias_filler {
      type: "constant"
      value: 0
    }
  }
}
layer {
  name: "ssd3_1_relu"
  type: "ReLU"
  bottom: "ssd3_1"
  top: "ssd3_1"
}
layer {
  name: "ssd3_2"
  type: "Convolution"
  bottom: "ssd3_1"
  top: "ssd3_2"
  param {
    lr_mult: 1
    decay_mult: 1
  }
  param {
    lr_mult: 2
    decay_mult: 0
  }
  convolution_param {
    num_output: 256
    pad: 0
    kernel_size: 3
    stride: 1
    weight_filler {
      type: "xavier"
    }
    bias_filler {
      type: "constant"
      value: 0
    }
  }
}
layer {
  name: "ssd3_2_relu"
  type: "ReLU"
  bottom: "ssd3_2"
  top: "ssd3_2"
}
layer {
  name: "ssd4_1"
  type: "Convolution"
  bottom: "ssd3_2"
  top: "ssd4_1"
  param {
    lr_mult: 1
    decay_mult: 1
  }
  param {
    lr_mult: 2
    decay_mult: 0
  }
  convolution_param {
    num_output: 128
    pad: 0
    kernel_size: 1
    stride: 1
    weight_filler {
      type: "xavier"
    }
    bias_filler {
      type: "constant"
      value: 0
    }
  }
}
layer {
  name: "ssd4_1_relu"
  type: "ReLU"
  bottom: "ssd4_1"
  top: "ssd4_1"
}
layer {
  name: "ssd4_2"
  type: "Convolution"
  bottom: "ssd4_1"
  top: "ssd4_2"
  param {
    lr_mult: 1
    decay_mult: 1
  }
  param {
    lr_mult: 2
    decay_mult: 0
  }
  convolution_param {
    num_output: 256
    pad: 0
    kernel_size: 3
    stride: 1
    weight_filler {
      type: "xavier"
    }
    bias_filler {
      type: "constant"
      value: 0
    }
  }
}
layer {
  name: "ssd4_2_relu"
  type: "ReLU"
  bottom: "ssd4_2"
  top: "ssd4_2"
}
layer {
  name: "conv4_3_norm"
  type: "Normalize"
  bottom: "conv4_3"
  top: "conv4_3_norm"
  norm_param {
    across_spatial: false
    scale_filler {
      type: "constant"
      value: 20
    }
    channel_shared: false
  }
}
layer {
  name: "conv4_3_norm_mbox_loc"
  type: "Convolution"
  bottom: "conv4_3_norm"
  top: "conv4_3_norm_mbox_loc"
  param {
    lr_mult: 1
    decay_mult: 1
  }
  param {
    lr_mult: 2
    decay_mult: 0
  }
  convolution_param {
    num_output: 8
    pad: 1
    kernel_size: 3
    stride: 1
    weight_filler {
      type: "xavier"
    }
    bias_filler {
      type: "constant"
      value: 0
    }
  }
}
layer {
  name: "conv4_3_norm_mbox_loc_perm"
  type: "Permute"
  bottom: "conv4_3_norm_mbox_loc"
  top: "conv4_3_norm_mbox_loc_perm"
  permute_param {
    order: 0
    order: 2
    order: 3
    order: 1
  }
}
layer {
  name: "conv4_3_norm_mbox_loc_flat"
  type: "Flatten"
  bottom: "conv4_3_norm_mbox_loc_perm"
  top: "conv4_3_norm_mbox_loc_flat"
  flatten_param {
    axis: 1
  }
}
layer {
  name: "conv4_3_norm_mbox_conf"
  type: "Convolution"
  bottom: "conv4_3_norm"
  top: "conv4_3_norm_mbox_conf"
  param {
    lr_mult: 1
    decay_mult: 1
  }
  param {
    lr_mult: 2
    decay_mult: 0
  }
  convolution_param {
    num_output: 10
    pad: 1
    kernel_size: 3
    stride: 1
    weight_filler {
      type: "xavier"
    }
    bias_filler {
      type: "constant"
      value: 0
    }
  }
}
layer {
  name: "conv4_3_norm_mbox_conf_perm"
  type: "Permute"
  bottom: "conv4_3_norm_mbox_conf"
  top: "conv4_3_norm_mbox_conf_perm"
  permute_param {
    order: 0
    order: 2
    order: 3
    order: 1
  }
}
layer {
  name: "conv4_3_norm_mbox_conf_flat"
  type: "Flatten"
  bottom: "conv4_3_norm_mbox_conf_perm"
  top: "conv4_3_norm_mbox_conf_flat"
  flatten_param {
    axis: 1
  }
}
layer {
  name: "conv4_3_norm_mbox_priorbox"
  type: "PriorBox"
  bottom: "conv4_3_norm"
  bottom: "data"
  top: "conv4_3_norm_mbox_priorbox"
  prior_box_param {
    min_size: 15
    max_size: 30
    clip: false
    variance: 0.1
    variance: 0.1
    variance: 0.2
    variance: 0.2
    step: 8
    offset: 0.5
  }
}
layer {
  name: "fc7_mbox_loc"
  type: "Convolution"
  bottom: "fc7"
  top: "fc7_mbox_loc"
  param {
    lr_mult: 1
    decay_mult: 1
  }
  param {
    lr_mult: 2
    decay_mult: 0
  }
  convolution_param {
    num_output: 8
    pad: 1
    kernel_size: 3
    stride: 1
    weight_filler {
      type: "xavier"
    }
    bias_filler {
      type: "constant"
      value: 0
    }
  }
}
layer {
  name: "fc7_mbox_loc_perm"
  type: "Permute"
  bottom: "fc7_mbox_loc"
  top: "fc7_mbox_loc_perm"
  permute_param {
    order: 0
    order: 2
    order: 3
    order: 1
  }
}
layer {
  name: "fc7_mbox_loc_flat"
  type: "Flatten"
  bottom: "fc7_mbox_loc_perm"
  top: "fc7_mbox_loc_flat"
  flatten_param {
    axis: 1
  }
}
layer {
  name: "fc7_mbox_conf"
  type: "Convolution"
  bottom: "fc7"
  top: "fc7_mbox_conf"
  param {
    lr_mult: 1
    decay_mult: 1
  }
  param {
    lr_mult: 2
    decay_mult: 0
  }
  convolution_param {
    num_output: 10
    pad: 1
    kernel_size: 3
    stride: 1
    weight_filler {
      type: "xavier"
    }
    bias_filler {
      type: "constant"
      value: 0
    }
  }
}
layer {
  name: "fc7_mbox_conf_perm"
  type: "Permute"
  bottom: "fc7_mbox_conf"
  top: "fc7_mbox_conf_perm"
  permute_param {
    order: 0
    order: 2
    order: 3
    order: 1
  }
}
layer {
  name: "fc7_mbox_conf_flat"
  type: "Flatten"
  bottom: "fc7_mbox_conf_perm"
  top: "fc7_mbox_conf_flat"
  flatten_param {
    axis: 1
  }
}
layer {
  name: "fc7_mbox_priorbox"
  type: "PriorBox"
  bottom: "fc7"
  bottom: "data"
  top: "fc7_mbox_priorbox"
  prior_box_param {
    min_size: 30
    max_size: 60
    clip: false
    variance: 0.1
    variance: 0.1
    variance: 0.2
    variance: 0.2
    step: 16
    offset: 0.5
  }
}
layer {
  name: "ssd1_2_mbox_loc"
  type: "Convolution"
  bottom: "ssd1_2"
  top: "ssd1_2_mbox_loc"
  param {
    lr_mult: 1
    decay_mult: 1
  }
  param {
    lr_mult: 2
    decay_mult: 0
  }
  convolution_param {
    num_output: 8
    pad: 1
    kernel_size: 3
    stride: 1
    weight_filler {
      type: "xavier"
    }
    bias_filler {
      type: "constant"
      value: 0
    }
  }
}
layer {
  name: "ssd1_2_mbox_loc_perm"
  type: "Permute"
  bottom: "ssd1_2_mbox_loc"
  top: "ssd1_2_mbox_loc_perm"
  permute_param {
    order: 0
    order: 2
    order: 3
    order: 1
  }
}
layer {
  name: "ssd1_2_mbox_loc_flat"
  type: "Flatten"
  bottom: "ssd1_2_mbox_loc_perm"
  top: "ssd1_2_mbox_loc_flat"
  flatten_param {
    axis: 1
  }
}
layer {
  name: "ssd1_2_mbox_conf"
  type: "Convolution"
  bottom: "ssd1_2"
  top: "ssd1_2_mbox_conf"
  param {
    lr_mult: 1
    decay_mult: 1
  }
  param {
    lr_mult: 2
    decay_mult: 0
  }
  convolution_param {
    num_output: 10
    pad: 1
    kernel_size: 3
    stride: 1
    weight_filler {
      type: "xavier"
    }
    bias_filler {
      type: "constant"
      value: 0
    }
  }
}
layer {
  name: "ssd1_2_mbox_conf_perm"
  type: "Permute"
  bottom: "ssd1_2_mbox_conf"
  top: "ssd1_2_mbox_conf_perm"
  permute_param {
    order: 0
    order: 2
    order: 3
    order: 1
  }
}
layer {
  name: "ssd1_2_mbox_conf_flat"
  type: "Flatten"
  bottom: "ssd1_2_mbox_conf_perm"
  top: "ssd1_2_mbox_conf_flat"
  flatten_param {
    axis: 1
  }
}
layer {
  name: "ssd1_2_mbox_priorbox"
  type: "PriorBox"
  bottom: "ssd1_2"
  bottom: "data"
  top: "ssd1_2_mbox_priorbox"
  prior_box_param {
    min_size: 60
    max_size: 90
    clip: false
    variance: 0.1
    variance: 0.1
    variance: 0.2
    variance: 0.2
    step: 32
    offset: 0.5
  }
}
layer {
  name: "ssd2_2_mbox_loc"
  type: "Convolution"
  bottom: "ssd2_2"
  top: "ssd2_2_mbox_loc"
  param {
    lr_mult: 1
    decay_mult: 1
  }
  param {
    lr_mult: 2
    decay_mult: 0
  }
  convolution_param {
    num_output: 8
    pad: 1
    kernel_size: 3
    stride: 1
    weight_filler {
      type: "xavier"
    }
    bias_filler {
      type: "constant"
      value: 0
    }
  }
}
layer {
  name: "ssd2_2_mbox_loc_perm"
  type: "Permute"
  bottom: "ssd2_2_mbox_loc"
  top: "ssd2_2_mbox_loc_perm"
  permute_param {
    order: 0
    order: 2
    order: 3
    order: 1
  }
}
layer {
  name: "ssd2_2_mbox_loc_flat"
  type: "Flatten"
  bottom: "ssd2_2_mbox_loc_perm"
  top: "ssd2_2_mbox_loc_flat"
  flatten_param {
    axis: 1
  }
}
layer {
  name: "ssd2_2_mbox_conf"
  type: "Convolution"
  bottom: "ssd2_2"
  top: "ssd2_2_mbox_conf"
  param {
    lr_mult: 1
    decay_mult: 1
  }
  param {
    lr_mult: 2
    decay_mult: 0
  }
  convolution_param {
    num_output: 10
    pad: 1
    kernel_size: 3
    stride: 1
    weight_filler {
      type: "xavier"
    }
    bias_filler {
      type: "constant"
      value: 0
    }
  }
}
layer {
  name: "ssd2_2_mbox_conf_perm"
  type: "Permute"
  bottom: "ssd2_2_mbox_conf"
  top: "ssd2_2_mbox_conf_perm"
  permute_param {
    order: 0
    order: 2
    order: 3
    order: 1
  }
}
layer {
  name: "ssd2_2_mbox_conf_flat"
  type: "Flatten"
  bottom: "ssd2_2_mbox_conf_perm"
  top: "ssd2_2_mbox_conf_flat"
  flatten_param {
    axis: 1
  }
}
layer {
  name: "ssd2_2_mbox_priorbox"
  type: "PriorBox"
  bottom: "ssd2_2"
  bottom: "data"
  top: "ssd2_2_mbox_priorbox"
  prior_box_param {
    min_size: 90
    max_size: 120
    clip: false
    variance: 0.1
    variance: 0.1
    variance: 0.2
    variance: 0.2
    step: 64
    offset: 0.5
  }
}
layer {
  name: "ssd3_2_mbox_loc"
  type: "Convolution"
  bottom: "ssd3_2"
  top: "ssd3_2_mbox_loc"
  param {
    lr_mult: 1
    decay_mult: 1
  }
  param {
    lr_mult: 2
    decay_mult: 0
  }
  convolution_param {
    num_output: 8
    pad: 1
    kernel_size: 3
    stride: 1
    weight_filler {
      type: "xavier"
    }
    bias_filler {
      type: "constant"
      value: 0
    }
  }
}
layer {
  name: "ssd3_2_mbox_loc_perm"
  type: "Permute"
  bottom: "ssd3_2_mbox_loc"
  top: "ssd3_2_mbox_loc_perm"
  permute_param {
    order: 0
    order: 2
    order: 3
    order: 1
  }
}
layer {
  name: "ssd3_2_mbox_loc_flat"
  type: "Flatten"
  bottom: "ssd3_2_mbox_loc_perm"
  top: "ssd3_2_mbox_loc_flat"
  flatten_param {
    axis: 1
  }
}
layer {
  name: "ssd3_2_mbox_conf"
  type: "Convolution"
  bottom: "ssd3_2"
  top: "ssd3_2_mbox_conf"
  param {
    lr_mult: 1
    decay_mult: 1
  }
  param {
    lr_mult: 2
    decay_mult: 0
  }
  convolution_param {
    num_output: 10
    pad: 1
    kernel_size: 3
    stride: 1
    weight_filler {
      type: "xavier"
    }
    bias_filler {
      type: "constant"
      value: 0
    }
  }
}
layer {
  name: "ssd3_2_mbox_conf_perm"
  type: "Permute"
  bottom: "ssd3_2_mbox_conf"
  top: "ssd3_2_mbox_conf_perm"
  permute_param {
    order: 0
    order: 2
    order: 3
    order: 1
  }
}
layer {
  name: "ssd3_2_mbox_conf_flat"
  type: "Flatten"
  bottom: "ssd3_2_mbox_conf_perm"
  top: "ssd3_2_mbox_conf_flat"
  flatten_param {
    axis: 1
  }
}
layer {
  name: "ssd3_2_mbox_priorbox"
  type: "PriorBox"
  bottom: "ssd3_2"
  bottom: "data"
  top: "ssd3_2_mbox_priorbox"
  prior_box_param {
    min_size: 120
    max_size: 150
    clip: false
    variance: 0.1
    variance: 0.1
    variance: 0.2
    variance: 0.2
    step: 100
    offset: 0.5
  }
}
layer {
  name: "ssd4_2_mbox_loc"
  type: "Convolution"
  bottom: "ssd4_2"
  top: "ssd4_2_mbox_loc"
  param {
    lr_mult: 1
    decay_mult: 1
  }
  param {
    lr_mult: 2
    decay_mult: 0
  }
  convolution_param {
    num_output: 8
    pad: 1
    kernel_size: 3
    stride: 1
    weight_filler {
      type: "xavier"
    }
    bias_filler {
      type: "constant"
      value: 0
    }
  }
}
layer {
  name: "ssd4_2_mbox_loc_perm"
  type: "Permute"
  bottom: "ssd4_2_mbox_loc"
  top: "ssd4_2_mbox_loc_perm"
  permute_param {
    order: 0
    order: 2
    order: 3
    order: 1
  }
}
layer {
  name: "ssd4_2_mbox_loc_flat"
  type: "Flatten"
  bottom: "ssd4_2_mbox_loc_perm"
  top: "ssd4_2_mbox_loc_flat"
  flatten_param {
    axis: 1
  }
}
layer {
  name: "ssd4_2_mbox_conf"
  type: "Convolution"
  bottom: "ssd4_2"
  top: "ssd4_2_mbox_conf"
  param {
    lr_mult: 1
    decay_mult: 1
  }
  param {
    lr_mult: 2
    decay_mult: 0
  }
  convolution_param {
    num_output: 10
    pad: 1
    kernel_size: 3
    stride: 1
    weight_filler {
      type: "xavier"
    }
    bias_filler {
      type: "constant"
      value: 0
    }
  }
}
layer {
  name: "ssd4_2_mbox_conf_perm"
  type: "Permute"
  bottom: "ssd4_2_mbox_conf"
  top: "ssd4_2_mbox_conf_perm"
  permute_param {
    order: 0
    order: 2
    order: 3
    order: 1
  }
}
layer {
  name: "ssd4_2_mbox_conf_flat"
  type: "Flatten"
  bottom: "ssd4_2_mbox_conf_perm"
  top: "ssd4_2_mbox_conf_flat"
  flatten_param {
    axis: 1
  }
}
layer {
  name: "ssd4_2_mbox_priorbox"
  type: "PriorBox"
  bottom: "ssd4_2"
  bottom: "data"
  top: "ssd4_2_mbox_priorbox"
  prior_box_param {
    min_size: 150
    max_size: 180
    clip: false
    variance: 0.1
    variance: 0.1
    variance: 0.2
    variance: 0.2
    step: 300
    offset: 0.5
  }
}
layer {
  name: "mbox_loc"
  type: "Concat"
  bottom: "conv4_3_norm_mbox_loc_flat"
  bottom: "fc7_mbox_loc_flat"
  bottom: "ssd1_2_mbox_loc_flat"
  bottom: "ssd2_2_mbox_loc_flat"
  bottom: "ssd3_2_mbox_loc_flat"
  bottom: "ssd4_2_mbox_loc_flat"
  top: "mbox_loc"
  concat_param {
    axis: 1
  }
}
layer {
  name: "mbox_conf"
  type: "Concat"
  bottom: "conv4_3_norm_mbox_conf_flat"
  bottom: "fc7_mbox_conf_flat"
  bottom: "ssd1_2_mbox_conf_flat"
  bottom: "ssd2_2_mbox_conf_flat"
  bottom: "ssd3_2_mbox_conf_flat"
  bottom: "ssd4_2_mbox_conf_flat"
  top: "mbox_conf"
  concat_param {
    axis: 1
  }
}
layer {
  name: "mbox_priorbox"
  type: "Concat"
  bottom: "conv4_3_norm_mbox_priorbox"
  bottom: "fc7_mbox_priorbox"
  bottom: "ssd1_2_mbox_priorbox"
  bottom: "ssd2_2_mbox_priorbox"
  bottom: "ssd3_2_mbox_priorbox"
  bottom: "ssd4_2_mbox_priorbox"
  top: "mbox_priorbox"
  concat_param {
    axis: 2
  }
}
layer {
  name: "mbox_loss"
  type: "MultiBoxLoss"
  bottom: "mbox_loc"
  bottom: "mbox_conf"
  bottom: "mbox_priorbox"
  bottom: "label"
  top: "mbox_loss"
  include {
    phase: TRAIN
  }
  propagate_down: true
  propagate_down: true
  propagate_down: false
  propagate_down: false
  loss_param {
    normalization: VALID
  }
  multibox_loss_param {
    loc_loss_type: SMOOTH_L1
    conf_loss_type: SOFTMAX
    loc_weight: 1
    num_classes: 5
    share_location: true
    match_type: PER_PREDICTION
    overlap_threshold: 0.5
    use_prior_for_matching: true
    background_label_id: 0
    use_difficult_gt: true
    neg_pos_ratio: 3
    neg_overlap: 0.5
    code_type: CENTER_SIZE
    ignore_cross_boundary_bbox: false
    mining_type: MAX_NEGATIVE
  }
}
I0906 23:25:28.182822 13884 layer_factory.hpp:77] Creating layer data
I0906 23:25:28.182906 13884 net.cpp:100] Creating Layer data
I0906 23:25:28.182914 13884 net.cpp:408] data -> data
I0906 23:25:28.182932 13884 net.cpp:408] data -> label
I0906 23:25:28.183697 13891 db_lmdb.cpp:35] Opened lmdb examples/GTSDB/GTSDB_trainval_lmdb
I0906 23:25:28.198040 13884 annotated_data_layer.cpp:62] output data size: 2,3,300,510
I0906 23:25:28.202411 13884 net.cpp:150] Setting up data
I0906 23:25:28.202427 13884 net.cpp:157] Top shape: 2 3 300 510 (918000)
I0906 23:25:28.202431 13884 net.cpp:157] Top shape: 1 1 3 8 (24)
I0906 23:25:28.202432 13884 net.cpp:165] Memory required for data: 3672096
I0906 23:25:28.202440 13884 layer_factory.hpp:77] Creating layer data_data_0_split
I0906 23:25:28.202446 13884 net.cpp:100] Creating Layer data_data_0_split
I0906 23:25:28.202450 13884 net.cpp:434] data_data_0_split <- data
I0906 23:25:28.202461 13884 net.cpp:408] data_data_0_split -> data_data_0_split_0
I0906 23:25:28.202478 13884 net.cpp:408] data_data_0_split -> data_data_0_split_1
I0906 23:25:28.202486 13884 net.cpp:408] data_data_0_split -> data_data_0_split_2
I0906 23:25:28.202492 13884 net.cpp:408] data_data_0_split -> data_data_0_split_3
I0906 23:25:28.202497 13884 net.cpp:408] data_data_0_split -> data_data_0_split_4
I0906 23:25:28.202502 13884 net.cpp:408] data_data_0_split -> data_data_0_split_5
I0906 23:25:28.202507 13884 net.cpp:408] data_data_0_split -> data_data_0_split_6
I0906 23:25:28.202565 13884 net.cpp:150] Setting up data_data_0_split
I0906 23:25:28.202569 13884 net.cpp:157] Top shape: 2 3 300 510 (918000)
I0906 23:25:28.202571 13884 net.cpp:157] Top shape: 2 3 300 510 (918000)
I0906 23:25:28.202574 13884 net.cpp:157] Top shape: 2 3 300 510 (918000)
I0906 23:25:28.202577 13884 net.cpp:157] Top shape: 2 3 300 510 (918000)
I0906 23:25:28.202579 13884 net.cpp:157] Top shape: 2 3 300 510 (918000)
I0906 23:25:28.202582 13884 net.cpp:157] Top shape: 2 3 300 510 (918000)
I0906 23:25:28.202584 13884 net.cpp:157] Top shape: 2 3 300 510 (918000)
I0906 23:25:28.202586 13884 net.cpp:165] Memory required for data: 29376096
I0906 23:25:28.202589 13884 layer_factory.hpp:77] Creating layer conv1_1
I0906 23:25:28.202600 13884 net.cpp:100] Creating Layer conv1_1
I0906 23:25:28.202602 13884 net.cpp:434] conv1_1 <- data_data_0_split_0
I0906 23:25:28.202606 13884 net.cpp:408] conv1_1 -> conv1_1
I0906 23:25:28.545053 13884 net.cpp:150] Setting up conv1_1
I0906 23:25:28.545069 13884 net.cpp:157] Top shape: 2 64 300 510 (19584000)
I0906 23:25:28.545071 13884 net.cpp:165] Memory required for data: 107712096
I0906 23:25:28.545085 13884 layer_factory.hpp:77] Creating layer relu1_1
I0906 23:25:28.545091 13884 net.cpp:100] Creating Layer relu1_1
I0906 23:25:28.545094 13884 net.cpp:434] relu1_1 <- conv1_1
I0906 23:25:28.545097 13884 net.cpp:395] relu1_1 -> conv1_1 (in-place)
I0906 23:25:28.545337 13884 net.cpp:150] Setting up relu1_1
I0906 23:25:28.545343 13884 net.cpp:157] Top shape: 2 64 300 510 (19584000)
I0906 23:25:28.545346 13884 net.cpp:165] Memory required for data: 186048096
I0906 23:25:28.545347 13884 layer_factory.hpp:77] Creating layer conv1_2
I0906 23:25:28.545356 13884 net.cpp:100] Creating Layer conv1_2
I0906 23:25:28.545357 13884 net.cpp:434] conv1_2 <- conv1_1
I0906 23:25:28.545362 13884 net.cpp:408] conv1_2 -> conv1_2
I0906 23:25:28.546838 13884 net.cpp:150] Setting up conv1_2
I0906 23:25:28.546845 13884 net.cpp:157] Top shape: 2 64 300 510 (19584000)
I0906 23:25:28.546849 13884 net.cpp:165] Memory required for data: 264384096
I0906 23:25:28.546854 13884 layer_factory.hpp:77] Creating layer relu1_2
I0906 23:25:28.546857 13884 net.cpp:100] Creating Layer relu1_2
I0906 23:25:28.546859 13884 net.cpp:434] relu1_2 <- conv1_2
I0906 23:25:28.546862 13884 net.cpp:395] relu1_2 -> conv1_2 (in-place)
I0906 23:25:28.547077 13884 net.cpp:150] Setting up relu1_2
I0906 23:25:28.547083 13884 net.cpp:157] Top shape: 2 64 300 510 (19584000)
I0906 23:25:28.547085 13884 net.cpp:165] Memory required for data: 342720096
I0906 23:25:28.547087 13884 layer_factory.hpp:77] Creating layer pool1
I0906 23:25:28.547091 13884 net.cpp:100] Creating Layer pool1
I0906 23:25:28.547092 13884 net.cpp:434] pool1 <- conv1_2
I0906 23:25:28.547096 13884 net.cpp:408] pool1 -> pool1
I0906 23:25:28.547129 13884 net.cpp:150] Setting up pool1
I0906 23:25:28.547133 13884 net.cpp:157] Top shape: 2 64 150 255 (4896000)
I0906 23:25:28.547135 13884 net.cpp:165] Memory required for data: 362304096
I0906 23:25:28.547137 13884 layer_factory.hpp:77] Creating layer conv2_1
I0906 23:25:28.547147 13884 net.cpp:100] Creating Layer conv2_1
I0906 23:25:28.547149 13884 net.cpp:434] conv2_1 <- pool1
I0906 23:25:28.547153 13884 net.cpp:408] conv2_1 -> conv2_1
I0906 23:25:28.548384 13884 net.cpp:150] Setting up conv2_1
I0906 23:25:28.548393 13884 net.cpp:157] Top shape: 2 128 150 255 (9792000)
I0906 23:25:28.548394 13884 net.cpp:165] Memory required for data: 401472096
I0906 23:25:28.548400 13884 layer_factory.hpp:77] Creating layer relu2_1
I0906 23:25:28.548404 13884 net.cpp:100] Creating Layer relu2_1
I0906 23:25:28.548418 13884 net.cpp:434] relu2_1 <- conv2_1
I0906 23:25:28.548422 13884 net.cpp:395] relu2_1 -> conv2_1 (in-place)
I0906 23:25:28.548641 13884 net.cpp:150] Setting up relu2_1
I0906 23:25:28.548646 13884 net.cpp:157] Top shape: 2 128 150 255 (9792000)
I0906 23:25:28.548648 13884 net.cpp:165] Memory required for data: 440640096
I0906 23:25:28.548650 13884 layer_factory.hpp:77] Creating layer conv2_2
I0906 23:25:28.548655 13884 net.cpp:100] Creating Layer conv2_2
I0906 23:25:28.548657 13884 net.cpp:434] conv2_2 <- conv2_1
I0906 23:25:28.548661 13884 net.cpp:408] conv2_2 -> conv2_2
I0906 23:25:28.550528 13884 net.cpp:150] Setting up conv2_2
I0906 23:25:28.550535 13884 net.cpp:157] Top shape: 2 128 150 255 (9792000)
I0906 23:25:28.550536 13884 net.cpp:165] Memory required for data: 479808096
I0906 23:25:28.550541 13884 layer_factory.hpp:77] Creating layer relu2_2
I0906 23:25:28.550545 13884 net.cpp:100] Creating Layer relu2_2
I0906 23:25:28.550547 13884 net.cpp:434] relu2_2 <- conv2_2
I0906 23:25:28.550550 13884 net.cpp:395] relu2_2 -> conv2_2 (in-place)
I0906 23:25:28.550858 13884 net.cpp:150] Setting up relu2_2
I0906 23:25:28.550863 13884 net.cpp:157] Top shape: 2 128 150 255 (9792000)
I0906 23:25:28.550865 13884 net.cpp:165] Memory required for data: 518976096
I0906 23:25:28.550868 13884 layer_factory.hpp:77] Creating layer pool2
I0906 23:25:28.550871 13884 net.cpp:100] Creating Layer pool2
I0906 23:25:28.550873 13884 net.cpp:434] pool2 <- conv2_2
I0906 23:25:28.550878 13884 net.cpp:408] pool2 -> pool2
I0906 23:25:28.550902 13884 net.cpp:150] Setting up pool2
I0906 23:25:28.550906 13884 net.cpp:157] Top shape: 2 128 75 128 (2457600)
I0906 23:25:28.550909 13884 net.cpp:165] Memory required for data: 528806496
I0906 23:25:28.550909 13884 layer_factory.hpp:77] Creating layer conv3_1
I0906 23:25:28.550915 13884 net.cpp:100] Creating Layer conv3_1
I0906 23:25:28.550916 13884 net.cpp:434] conv3_1 <- pool2
I0906 23:25:28.550920 13884 net.cpp:408] conv3_1 -> conv3_1
I0906 23:25:28.553244 13884 net.cpp:150] Setting up conv3_1
I0906 23:25:28.553253 13884 net.cpp:157] Top shape: 2 256 75 128 (4915200)
I0906 23:25:28.553256 13884 net.cpp:165] Memory required for data: 548467296
I0906 23:25:28.553262 13884 layer_factory.hpp:77] Creating layer relu3_1
I0906 23:25:28.553266 13884 net.cpp:100] Creating Layer relu3_1
I0906 23:25:28.553267 13884 net.cpp:434] relu3_1 <- conv3_1
I0906 23:25:28.553272 13884 net.cpp:395] relu3_1 -> conv3_1 (in-place)
I0906 23:25:28.553493 13884 net.cpp:150] Setting up relu3_1
I0906 23:25:28.553498 13884 net.cpp:157] Top shape: 2 256 75 128 (4915200)
I0906 23:25:28.553500 13884 net.cpp:165] Memory required for data: 568128096
I0906 23:25:28.553503 13884 layer_factory.hpp:77] Creating layer conv3_2
I0906 23:25:28.553509 13884 net.cpp:100] Creating Layer conv3_2
I0906 23:25:28.553511 13884 net.cpp:434] conv3_2 <- conv3_1
I0906 23:25:28.553514 13884 net.cpp:408] conv3_2 -> conv3_2
I0906 23:25:28.556812 13884 net.cpp:150] Setting up conv3_2
I0906 23:25:28.556820 13884 net.cpp:157] Top shape: 2 256 75 128 (4915200)
I0906 23:25:28.556823 13884 net.cpp:165] Memory required for data: 587788896
I0906 23:25:28.556826 13884 layer_factory.hpp:77] Creating layer relu3_2
I0906 23:25:28.556830 13884 net.cpp:100] Creating Layer relu3_2
I0906 23:25:28.556833 13884 net.cpp:434] relu3_2 <- conv3_2
I0906 23:25:28.556836 13884 net.cpp:395] relu3_2 -> conv3_2 (in-place)
I0906 23:25:28.557051 13884 net.cpp:150] Setting up relu3_2
I0906 23:25:28.557056 13884 net.cpp:157] Top shape: 2 256 75 128 (4915200)
I0906 23:25:28.557059 13884 net.cpp:165] Memory required for data: 607449696
I0906 23:25:28.557060 13884 layer_factory.hpp:77] Creating layer conv3_3
I0906 23:25:28.557068 13884 net.cpp:100] Creating Layer conv3_3
I0906 23:25:28.557070 13884 net.cpp:434] conv3_3 <- conv3_2
I0906 23:25:28.557075 13884 net.cpp:408] conv3_3 -> conv3_3
I0906 23:25:28.560395 13884 net.cpp:150] Setting up conv3_3
I0906 23:25:28.560403 13884 net.cpp:157] Top shape: 2 256 75 128 (4915200)
I0906 23:25:28.560407 13884 net.cpp:165] Memory required for data: 627110496
I0906 23:25:28.560425 13884 layer_factory.hpp:77] Creating layer relu3_3
I0906 23:25:28.560429 13884 net.cpp:100] Creating Layer relu3_3
I0906 23:25:28.560431 13884 net.cpp:434] relu3_3 <- conv3_3
I0906 23:25:28.560434 13884 net.cpp:395] relu3_3 -> conv3_3 (in-place)
I0906 23:25:28.560655 13884 net.cpp:150] Setting up relu3_3
I0906 23:25:28.560662 13884 net.cpp:157] Top shape: 2 256 75 128 (4915200)
I0906 23:25:28.560662 13884 net.cpp:165] Memory required for data: 646771296
I0906 23:25:28.560665 13884 layer_factory.hpp:77] Creating layer pool3
I0906 23:25:28.560669 13884 net.cpp:100] Creating Layer pool3
I0906 23:25:28.560670 13884 net.cpp:434] pool3 <- conv3_3
I0906 23:25:28.560674 13884 net.cpp:408] pool3 -> pool3
I0906 23:25:28.560701 13884 net.cpp:150] Setting up pool3
I0906 23:25:28.560704 13884 net.cpp:157] Top shape: 2 256 38 64 (1245184)
I0906 23:25:28.560706 13884 net.cpp:165] Memory required for data: 651752032
I0906 23:25:28.560708 13884 layer_factory.hpp:77] Creating layer conv4_1
I0906 23:25:28.560714 13884 net.cpp:100] Creating Layer conv4_1
I0906 23:25:28.560716 13884 net.cpp:434] conv4_1 <- pool3
I0906 23:25:28.560719 13884 net.cpp:408] conv4_1 -> conv4_1
I0906 23:25:28.566737 13884 net.cpp:150] Setting up conv4_1
I0906 23:25:28.566754 13884 net.cpp:157] Top shape: 2 512 38 64 (2490368)
I0906 23:25:28.566756 13884 net.cpp:165] Memory required for data: 661713504
I0906 23:25:28.566761 13884 layer_factory.hpp:77] Creating layer relu4_1
I0906 23:25:28.566766 13884 net.cpp:100] Creating Layer relu4_1
I0906 23:25:28.566769 13884 net.cpp:434] relu4_1 <- conv4_1
I0906 23:25:28.566773 13884 net.cpp:395] relu4_1 -> conv4_1 (in-place)
I0906 23:25:28.567088 13884 net.cpp:150] Setting up relu4_1
I0906 23:25:28.567095 13884 net.cpp:157] Top shape: 2 512 38 64 (2490368)
I0906 23:25:28.567098 13884 net.cpp:165] Memory required for data: 671674976
I0906 23:25:28.567100 13884 layer_factory.hpp:77] Creating layer conv4_2
I0906 23:25:28.567106 13884 net.cpp:100] Creating Layer conv4_2
I0906 23:25:28.567108 13884 net.cpp:434] conv4_2 <- conv4_1
I0906 23:25:28.567113 13884 net.cpp:408] conv4_2 -> conv4_2
I0906 23:25:28.576905 13884 net.cpp:150] Setting up conv4_2
I0906 23:25:28.576921 13884 net.cpp:157] Top shape: 2 512 38 64 (2490368)
I0906 23:25:28.576922 13884 net.cpp:165] Memory required for data: 681636448
I0906 23:25:28.576932 13884 layer_factory.hpp:77] Creating layer relu4_2
I0906 23:25:28.576937 13884 net.cpp:100] Creating Layer relu4_2
I0906 23:25:28.576941 13884 net.cpp:434] relu4_2 <- conv4_2
I0906 23:25:28.576944 13884 net.cpp:395] relu4_2 -> conv4_2 (in-place)
I0906 23:25:28.577318 13884 net.cpp:150] Setting up relu4_2
I0906 23:25:28.577325 13884 net.cpp:157] Top shape: 2 512 38 64 (2490368)
I0906 23:25:28.577327 13884 net.cpp:165] Memory required for data: 691597920
I0906 23:25:28.577329 13884 layer_factory.hpp:77] Creating layer conv4_3
I0906 23:25:28.577337 13884 net.cpp:100] Creating Layer conv4_3
I0906 23:25:28.577338 13884 net.cpp:434] conv4_3 <- conv4_2
I0906 23:25:28.577342 13884 net.cpp:408] conv4_3 -> conv4_3
I0906 23:25:28.587316 13884 net.cpp:150] Setting up conv4_3
I0906 23:25:28.587332 13884 net.cpp:157] Top shape: 2 512 38 64 (2490368)
I0906 23:25:28.587334 13884 net.cpp:165] Memory required for data: 701559392
I0906 23:25:28.587340 13884 layer_factory.hpp:77] Creating layer relu4_3
I0906 23:25:28.587345 13884 net.cpp:100] Creating Layer relu4_3
I0906 23:25:28.587352 13884 net.cpp:434] relu4_3 <- conv4_3
I0906 23:25:28.587358 13884 net.cpp:395] relu4_3 -> conv4_3 (in-place)
I0906 23:25:28.587580 13884 net.cpp:150] Setting up relu4_3
I0906 23:25:28.587586 13884 net.cpp:157] Top shape: 2 512 38 64 (2490368)
I0906 23:25:28.587589 13884 net.cpp:165] Memory required for data: 711520864
I0906 23:25:28.587590 13884 layer_factory.hpp:77] Creating layer conv4_3_relu4_3_0_split
I0906 23:25:28.587594 13884 net.cpp:100] Creating Layer conv4_3_relu4_3_0_split
I0906 23:25:28.587596 13884 net.cpp:434] conv4_3_relu4_3_0_split <- conv4_3
I0906 23:25:28.587599 13884 net.cpp:408] conv4_3_relu4_3_0_split -> conv4_3_relu4_3_0_split_0
I0906 23:25:28.587615 13884 net.cpp:408] conv4_3_relu4_3_0_split -> conv4_3_relu4_3_0_split_1
I0906 23:25:28.587642 13884 net.cpp:150] Setting up conv4_3_relu4_3_0_split
I0906 23:25:28.587646 13884 net.cpp:157] Top shape: 2 512 38 64 (2490368)
I0906 23:25:28.587649 13884 net.cpp:157] Top shape: 2 512 38 64 (2490368)
I0906 23:25:28.587651 13884 net.cpp:165] Memory required for data: 731443808
I0906 23:25:28.587652 13884 layer_factory.hpp:77] Creating layer pool4
I0906 23:25:28.587656 13884 net.cpp:100] Creating Layer pool4
I0906 23:25:28.587658 13884 net.cpp:434] pool4 <- conv4_3_relu4_3_0_split_0
I0906 23:25:28.587661 13884 net.cpp:408] pool4 -> pool4
I0906 23:25:28.587687 13884 net.cpp:150] Setting up pool4
I0906 23:25:28.587690 13884 net.cpp:157] Top shape: 2 512 19 32 (622592)
I0906 23:25:28.587692 13884 net.cpp:165] Memory required for data: 733934176
I0906 23:25:28.587693 13884 layer_factory.hpp:77] Creating layer conv5_1
I0906 23:25:28.587700 13884 net.cpp:100] Creating Layer conv5_1
I0906 23:25:28.587702 13884 net.cpp:434] conv5_1 <- pool4
I0906 23:25:28.587707 13884 net.cpp:408] conv5_1 -> conv5_1
I0906 23:25:28.597787 13884 net.cpp:150] Setting up conv5_1
I0906 23:25:28.597805 13884 net.cpp:157] Top shape: 2 512 19 32 (622592)
I0906 23:25:28.597806 13884 net.cpp:165] Memory required for data: 736424544
I0906 23:25:28.597812 13884 layer_factory.hpp:77] Creating layer relu5_1
I0906 23:25:28.597820 13884 net.cpp:100] Creating Layer relu5_1
I0906 23:25:28.597821 13884 net.cpp:434] relu5_1 <- conv5_1
I0906 23:25:28.597826 13884 net.cpp:395] relu5_1 -> conv5_1 (in-place)
I0906 23:25:28.598053 13884 net.cpp:150] Setting up relu5_1
I0906 23:25:28.598059 13884 net.cpp:157] Top shape: 2 512 19 32 (622592)
I0906 23:25:28.598060 13884 net.cpp:165] Memory required for data: 738914912
I0906 23:25:28.598062 13884 layer_factory.hpp:77] Creating layer conv5_2
I0906 23:25:28.598069 13884 net.cpp:100] Creating Layer conv5_2
I0906 23:25:28.598071 13884 net.cpp:434] conv5_2 <- conv5_1
I0906 23:25:28.598075 13884 net.cpp:408] conv5_2 -> conv5_2
I0906 23:25:28.608091 13884 net.cpp:150] Setting up conv5_2
I0906 23:25:28.608108 13884 net.cpp:157] Top shape: 2 512 19 32 (622592)
I0906 23:25:28.608109 13884 net.cpp:165] Memory required for data: 741405280
I0906 23:25:28.608115 13884 layer_factory.hpp:77] Creating layer relu5_2
I0906 23:25:28.608121 13884 net.cpp:100] Creating Layer relu5_2
I0906 23:25:28.608124 13884 net.cpp:434] relu5_2 <- conv5_2
I0906 23:25:28.608129 13884 net.cpp:395] relu5_2 -> conv5_2 (in-place)
I0906 23:25:28.608351 13884 net.cpp:150] Setting up relu5_2
I0906 23:25:28.608357 13884 net.cpp:157] Top shape: 2 512 19 32 (622592)
I0906 23:25:28.608359 13884 net.cpp:165] Memory required for data: 743895648
I0906 23:25:28.608361 13884 layer_factory.hpp:77] Creating layer conv5_3
I0906 23:25:28.608367 13884 net.cpp:100] Creating Layer conv5_3
I0906 23:25:28.608371 13884 net.cpp:434] conv5_3 <- conv5_2
I0906 23:25:28.608374 13884 net.cpp:408] conv5_3 -> conv5_3
I0906 23:25:28.618355 13884 net.cpp:150] Setting up conv5_3
I0906 23:25:28.618371 13884 net.cpp:157] Top shape: 2 512 19 32 (622592)
I0906 23:25:28.618372 13884 net.cpp:165] Memory required for data: 746386016
I0906 23:25:28.618378 13884 layer_factory.hpp:77] Creating layer relu5_3
I0906 23:25:28.618386 13884 net.cpp:100] Creating Layer relu5_3
I0906 23:25:28.618389 13884 net.cpp:434] relu5_3 <- conv5_3
I0906 23:25:28.618393 13884 net.cpp:395] relu5_3 -> conv5_3 (in-place)
I0906 23:25:28.618728 13884 net.cpp:150] Setting up relu5_3
I0906 23:25:28.618734 13884 net.cpp:157] Top shape: 2 512 19 32 (622592)
I0906 23:25:28.618736 13884 net.cpp:165] Memory required for data: 748876384
I0906 23:25:28.618738 13884 layer_factory.hpp:77] Creating layer pool5
I0906 23:25:28.618743 13884 net.cpp:100] Creating Layer pool5
I0906 23:25:28.618746 13884 net.cpp:434] pool5 <- conv5_3
I0906 23:25:28.618748 13884 net.cpp:408] pool5 -> pool5
I0906 23:25:28.618780 13884 net.cpp:150] Setting up pool5
I0906 23:25:28.618784 13884 net.cpp:157] Top shape: 2 512 19 32 (622592)
I0906 23:25:28.618796 13884 net.cpp:165] Memory required for data: 751366752
I0906 23:25:28.618798 13884 layer_factory.hpp:77] Creating layer fc6
I0906 23:25:28.618804 13884 net.cpp:100] Creating Layer fc6
I0906 23:25:28.618806 13884 net.cpp:434] fc6 <- pool5
I0906 23:25:28.618810 13884 net.cpp:408] fc6 -> fc6
I0906 23:25:28.636652 13884 net.cpp:150] Setting up fc6
I0906 23:25:28.636668 13884 net.cpp:157] Top shape: 2 1024 19 32 (1245184)
I0906 23:25:28.636672 13884 net.cpp:165] Memory required for data: 756347488
I0906 23:25:28.636677 13884 layer_factory.hpp:77] Creating layer relu6
I0906 23:25:28.636683 13884 net.cpp:100] Creating Layer relu6
I0906 23:25:28.636685 13884 net.cpp:434] relu6 <- fc6
I0906 23:25:28.636689 13884 net.cpp:395] relu6 -> fc6 (in-place)
I0906 23:25:28.636960 13884 net.cpp:150] Setting up relu6
I0906 23:25:28.636967 13884 net.cpp:157] Top shape: 2 1024 19 32 (1245184)
I0906 23:25:28.636970 13884 net.cpp:165] Memory required for data: 761328224
I0906 23:25:28.636970 13884 layer_factory.hpp:77] Creating layer fc7
I0906 23:25:28.636976 13884 net.cpp:100] Creating Layer fc7
I0906 23:25:28.636979 13884 net.cpp:434] fc7 <- fc6
I0906 23:25:28.636982 13884 net.cpp:408] fc7 -> fc7
I0906 23:25:28.642024 13884 net.cpp:150] Setting up fc7
I0906 23:25:28.642035 13884 net.cpp:157] Top shape: 2 1024 19 32 (1245184)
I0906 23:25:28.642037 13884 net.cpp:165] Memory required for data: 766308960
I0906 23:25:28.642042 13884 layer_factory.hpp:77] Creating layer relu7
I0906 23:25:28.642046 13884 net.cpp:100] Creating Layer relu7
I0906 23:25:28.642048 13884 net.cpp:434] relu7 <- fc7
I0906 23:25:28.642052 13884 net.cpp:395] relu7 -> fc7 (in-place)
I0906 23:25:28.642282 13884 net.cpp:150] Setting up relu7
I0906 23:25:28.642288 13884 net.cpp:157] Top shape: 2 1024 19 32 (1245184)
I0906 23:25:28.642290 13884 net.cpp:165] Memory required for data: 771289696
I0906 23:25:28.642292 13884 layer_factory.hpp:77] Creating layer fc7_relu7_0_split
I0906 23:25:28.642297 13884 net.cpp:100] Creating Layer fc7_relu7_0_split
I0906 23:25:28.642298 13884 net.cpp:434] fc7_relu7_0_split <- fc7
I0906 23:25:28.642302 13884 net.cpp:408] fc7_relu7_0_split -> fc7_relu7_0_split_0
I0906 23:25:28.642307 13884 net.cpp:408] fc7_relu7_0_split -> fc7_relu7_0_split_1
I0906 23:25:28.642314 13884 net.cpp:408] fc7_relu7_0_split -> fc7_relu7_0_split_2
I0906 23:25:28.642320 13884 net.cpp:408] fc7_relu7_0_split -> fc7_relu7_0_split_3
I0906 23:25:28.642369 13884 net.cpp:150] Setting up fc7_relu7_0_split
I0906 23:25:28.642372 13884 net.cpp:157] Top shape: 2 1024 19 32 (1245184)
I0906 23:25:28.642376 13884 net.cpp:157] Top shape: 2 1024 19 32 (1245184)
I0906 23:25:28.642379 13884 net.cpp:157] Top shape: 2 1024 19 32 (1245184)
I0906 23:25:28.642380 13884 net.cpp:157] Top shape: 2 1024 19 32 (1245184)
I0906 23:25:28.642382 13884 net.cpp:165] Memory required for data: 791212640
I0906 23:25:28.642385 13884 layer_factory.hpp:77] Creating layer ssd1_1
I0906 23:25:28.642391 13884 net.cpp:100] Creating Layer ssd1_1
I0906 23:25:28.642395 13884 net.cpp:434] ssd1_1 <- fc7_relu7_0_split_0
I0906 23:25:28.642401 13884 net.cpp:408] ssd1_1 -> ssd1_1
I0906 23:25:28.644737 13884 net.cpp:150] Setting up ssd1_1
I0906 23:25:28.644745 13884 net.cpp:157] Top shape: 2 256 19 32 (311296)
I0906 23:25:28.644747 13884 net.cpp:165] Memory required for data: 792457824
I0906 23:25:28.644752 13884 layer_factory.hpp:77] Creating layer ssd1_1_relu
I0906 23:25:28.644755 13884 net.cpp:100] Creating Layer ssd1_1_relu
I0906 23:25:28.644758 13884 net.cpp:434] ssd1_1_relu <- ssd1_1
I0906 23:25:28.644760 13884 net.cpp:395] ssd1_1_relu -> ssd1_1 (in-place)
I0906 23:25:28.644987 13884 net.cpp:150] Setting up ssd1_1_relu
I0906 23:25:28.644994 13884 net.cpp:157] Top shape: 2 256 19 32 (311296)
I0906 23:25:28.644994 13884 net.cpp:165] Memory required for data: 793703008
I0906 23:25:28.644997 13884 layer_factory.hpp:77] Creating layer ssd1_2
I0906 23:25:28.645004 13884 net.cpp:100] Creating Layer ssd1_2
I0906 23:25:28.645005 13884 net.cpp:434] ssd1_2 <- ssd1_1
I0906 23:25:28.645020 13884 net.cpp:408] ssd1_2 -> ssd1_2
I0906 23:25:28.650604 13884 net.cpp:150] Setting up ssd1_2
I0906 23:25:28.650617 13884 net.cpp:157] Top shape: 2 512 10 16 (163840)
I0906 23:25:28.650619 13884 net.cpp:165] Memory required for data: 794358368
I0906 23:25:28.650629 13884 layer_factory.hpp:77] Creating layer ssd1_2_relu
I0906 23:25:28.650635 13884 net.cpp:100] Creating Layer ssd1_2_relu
I0906 23:25:28.650637 13884 net.cpp:434] ssd1_2_relu <- ssd1_2
I0906 23:25:28.650641 13884 net.cpp:395] ssd1_2_relu -> ssd1_2 (in-place)
I0906 23:25:28.650972 13884 net.cpp:150] Setting up ssd1_2_relu
I0906 23:25:28.650979 13884 net.cpp:157] Top shape: 2 512 10 16 (163840)
I0906 23:25:28.650981 13884 net.cpp:165] Memory required for data: 795013728
I0906 23:25:28.650984 13884 layer_factory.hpp:77] Creating layer ssd1_2_ssd1_2_relu_0_split
I0906 23:25:28.650988 13884 net.cpp:100] Creating Layer ssd1_2_ssd1_2_relu_0_split
I0906 23:25:28.650990 13884 net.cpp:434] ssd1_2_ssd1_2_relu_0_split <- ssd1_2
I0906 23:25:28.650995 13884 net.cpp:408] ssd1_2_ssd1_2_relu_0_split -> ssd1_2_ssd1_2_relu_0_split_0
I0906 23:25:28.650998 13884 net.cpp:408] ssd1_2_ssd1_2_relu_0_split -> ssd1_2_ssd1_2_relu_0_split_1
I0906 23:25:28.651002 13884 net.cpp:408] ssd1_2_ssd1_2_relu_0_split -> ssd1_2_ssd1_2_relu_0_split_2
I0906 23:25:28.651006 13884 net.cpp:408] ssd1_2_ssd1_2_relu_0_split -> ssd1_2_ssd1_2_relu_0_split_3
I0906 23:25:28.651054 13884 net.cpp:150] Setting up ssd1_2_ssd1_2_relu_0_split
I0906 23:25:28.651058 13884 net.cpp:157] Top shape: 2 512 10 16 (163840)
I0906 23:25:28.651060 13884 net.cpp:157] Top shape: 2 512 10 16 (163840)
I0906 23:25:28.651063 13884 net.cpp:157] Top shape: 2 512 10 16 (163840)
I0906 23:25:28.651065 13884 net.cpp:157] Top shape: 2 512 10 16 (163840)
I0906 23:25:28.651067 13884 net.cpp:165] Memory required for data: 797635168
I0906 23:25:28.651068 13884 layer_factory.hpp:77] Creating layer ssd2_1
I0906 23:25:28.651074 13884 net.cpp:100] Creating Layer ssd2_1
I0906 23:25:28.651077 13884 net.cpp:434] ssd2_1 <- ssd1_2_ssd1_2_relu_0_split_0
I0906 23:25:28.651082 13884 net.cpp:408] ssd2_1 -> ssd2_1
I0906 23:25:28.652240 13884 net.cpp:150] Setting up ssd2_1
I0906 23:25:28.652247 13884 net.cpp:157] Top shape: 2 128 10 16 (40960)
I0906 23:25:28.652249 13884 net.cpp:165] Memory required for data: 797799008
I0906 23:25:28.652253 13884 layer_factory.hpp:77] Creating layer ssd2_1_relu
I0906 23:25:28.652256 13884 net.cpp:100] Creating Layer ssd2_1_relu
I0906 23:25:28.652258 13884 net.cpp:434] ssd2_1_relu <- ssd2_1
I0906 23:25:28.652262 13884 net.cpp:395] ssd2_1_relu -> ssd2_1 (in-place)
I0906 23:25:28.652484 13884 net.cpp:150] Setting up ssd2_1_relu
I0906 23:25:28.652490 13884 net.cpp:157] Top shape: 2 128 10 16 (40960)
I0906 23:25:28.652492 13884 net.cpp:165] Memory required for data: 797962848
I0906 23:25:28.652494 13884 layer_factory.hpp:77] Creating layer ssd2_2
I0906 23:25:28.652499 13884 net.cpp:100] Creating Layer ssd2_2
I0906 23:25:28.652501 13884 net.cpp:434] ssd2_2 <- ssd2_1
I0906 23:25:28.652504 13884 net.cpp:408] ssd2_2 -> ssd2_2
I0906 23:25:28.654810 13884 net.cpp:150] Setting up ssd2_2
I0906 23:25:28.654819 13884 net.cpp:157] Top shape: 2 256 5 8 (20480)
I0906 23:25:28.654820 13884 net.cpp:165] Memory required for data: 798044768
I0906 23:25:28.654824 13884 layer_factory.hpp:77] Creating layer ssd2_2_relu
I0906 23:25:28.654829 13884 net.cpp:100] Creating Layer ssd2_2_relu
I0906 23:25:28.654831 13884 net.cpp:434] ssd2_2_relu <- ssd2_2
I0906 23:25:28.654834 13884 net.cpp:395] ssd2_2_relu -> ssd2_2 (in-place)
I0906 23:25:28.655058 13884 net.cpp:150] Setting up ssd2_2_relu
I0906 23:25:28.655064 13884 net.cpp:157] Top shape: 2 256 5 8 (20480)
I0906 23:25:28.655066 13884 net.cpp:165] Memory required for data: 798126688
I0906 23:25:28.655067 13884 layer_factory.hpp:77] Creating layer ssd2_2_ssd2_2_relu_0_split
I0906 23:25:28.655071 13884 net.cpp:100] Creating Layer ssd2_2_ssd2_2_relu_0_split
I0906 23:25:28.655073 13884 net.cpp:434] ssd2_2_ssd2_2_relu_0_split <- ssd2_2
I0906 23:25:28.655077 13884 net.cpp:408] ssd2_2_ssd2_2_relu_0_split -> ssd2_2_ssd2_2_relu_0_split_0
I0906 23:25:28.655093 13884 net.cpp:408] ssd2_2_ssd2_2_relu_0_split -> ssd2_2_ssd2_2_relu_0_split_1
I0906 23:25:28.655100 13884 net.cpp:408] ssd2_2_ssd2_2_relu_0_split -> ssd2_2_ssd2_2_relu_0_split_2
I0906 23:25:28.655112 13884 net.cpp:408] ssd2_2_ssd2_2_relu_0_split -> ssd2_2_ssd2_2_relu_0_split_3
I0906 23:25:28.655166 13884 net.cpp:150] Setting up ssd2_2_ssd2_2_relu_0_split
I0906 23:25:28.655171 13884 net.cpp:157] Top shape: 2 256 5 8 (20480)
I0906 23:25:28.655174 13884 net.cpp:157] Top shape: 2 256 5 8 (20480)
I0906 23:25:28.655176 13884 net.cpp:157] Top shape: 2 256 5 8 (20480)
I0906 23:25:28.655179 13884 net.cpp:157] Top shape: 2 256 5 8 (20480)
I0906 23:25:28.655180 13884 net.cpp:165] Memory required for data: 798454368
I0906 23:25:28.655181 13884 layer_factory.hpp:77] Creating layer ssd3_1
I0906 23:25:28.655187 13884 net.cpp:100] Creating Layer ssd3_1
I0906 23:25:28.655189 13884 net.cpp:434] ssd3_1 <- ssd2_2_ssd2_2_relu_0_split_0
I0906 23:25:28.655194 13884 net.cpp:408] ssd3_1 -> ssd3_1
I0906 23:25:28.656263 13884 net.cpp:150] Setting up ssd3_1
I0906 23:25:28.656271 13884 net.cpp:157] Top shape: 2 128 5 8 (10240)
I0906 23:25:28.656273 13884 net.cpp:165] Memory required for data: 798495328
I0906 23:25:28.656276 13884 layer_factory.hpp:77] Creating layer ssd3_1_relu
I0906 23:25:28.656280 13884 net.cpp:100] Creating Layer ssd3_1_relu
I0906 23:25:28.656282 13884 net.cpp:434] ssd3_1_relu <- ssd3_1
I0906 23:25:28.656286 13884 net.cpp:395] ssd3_1_relu -> ssd3_1 (in-place)
I0906 23:25:28.656514 13884 net.cpp:150] Setting up ssd3_1_relu
I0906 23:25:28.656520 13884 net.cpp:157] Top shape: 2 128 5 8 (10240)
I0906 23:25:28.656523 13884 net.cpp:165] Memory required for data: 798536288
I0906 23:25:28.656525 13884 layer_factory.hpp:77] Creating layer ssd3_2
I0906 23:25:28.656530 13884 net.cpp:100] Creating Layer ssd3_2
I0906 23:25:28.656533 13884 net.cpp:434] ssd3_2 <- ssd3_1
I0906 23:25:28.656536 13884 net.cpp:408] ssd3_2 -> ssd3_2
I0906 23:25:28.658944 13884 net.cpp:150] Setting up ssd3_2
I0906 23:25:28.658952 13884 net.cpp:157] Top shape: 2 256 3 6 (9216)
I0906 23:25:28.658954 13884 net.cpp:165] Memory required for data: 798573152
I0906 23:25:28.658959 13884 layer_factory.hpp:77] Creating layer ssd3_2_relu
I0906 23:25:28.658962 13884 net.cpp:100] Creating Layer ssd3_2_relu
I0906 23:25:28.658964 13884 net.cpp:434] ssd3_2_relu <- ssd3_2
I0906 23:25:28.658967 13884 net.cpp:395] ssd3_2_relu -> ssd3_2 (in-place)
I0906 23:25:28.659205 13884 net.cpp:150] Setting up ssd3_2_relu
I0906 23:25:28.659211 13884 net.cpp:157] Top shape: 2 256 3 6 (9216)
I0906 23:25:28.659214 13884 net.cpp:165] Memory required for data: 798610016
I0906 23:25:28.659215 13884 layer_factory.hpp:77] Creating layer ssd3_2_ssd3_2_relu_0_split
I0906 23:25:28.659220 13884 net.cpp:100] Creating Layer ssd3_2_ssd3_2_relu_0_split
I0906 23:25:28.659222 13884 net.cpp:434] ssd3_2_ssd3_2_relu_0_split <- ssd3_2
I0906 23:25:28.659226 13884 net.cpp:408] ssd3_2_ssd3_2_relu_0_split -> ssd3_2_ssd3_2_relu_0_split_0
I0906 23:25:28.659230 13884 net.cpp:408] ssd3_2_ssd3_2_relu_0_split -> ssd3_2_ssd3_2_relu_0_split_1
I0906 23:25:28.659234 13884 net.cpp:408] ssd3_2_ssd3_2_relu_0_split -> ssd3_2_ssd3_2_relu_0_split_2
I0906 23:25:28.659236 13884 net.cpp:408] ssd3_2_ssd3_2_relu_0_split -> ssd3_2_ssd3_2_relu_0_split_3
I0906 23:25:28.659291 13884 net.cpp:150] Setting up ssd3_2_ssd3_2_relu_0_split
I0906 23:25:28.659296 13884 net.cpp:157] Top shape: 2 256 3 6 (9216)
I0906 23:25:28.659299 13884 net.cpp:157] Top shape: 2 256 3 6 (9216)
I0906 23:25:28.659301 13884 net.cpp:157] Top shape: 2 256 3 6 (9216)
I0906 23:25:28.659303 13884 net.cpp:157] Top shape: 2 256 3 6 (9216)
I0906 23:25:28.659304 13884 net.cpp:165] Memory required for data: 798757472
I0906 23:25:28.659307 13884 layer_factory.hpp:77] Creating layer ssd4_1
I0906 23:25:28.659312 13884 net.cpp:100] Creating Layer ssd4_1
I0906 23:25:28.659314 13884 net.cpp:434] ssd4_1 <- ssd3_2_ssd3_2_relu_0_split_0
I0906 23:25:28.659318 13884 net.cpp:408] ssd4_1 -> ssd4_1
I0906 23:25:28.660377 13884 net.cpp:150] Setting up ssd4_1
I0906 23:25:28.660392 13884 net.cpp:157] Top shape: 2 128 3 6 (4608)
I0906 23:25:28.660393 13884 net.cpp:165] Memory required for data: 798775904
I0906 23:25:28.660398 13884 layer_factory.hpp:77] Creating layer ssd4_1_relu
I0906 23:25:28.660401 13884 net.cpp:100] Creating Layer ssd4_1_relu
I0906 23:25:28.660403 13884 net.cpp:434] ssd4_1_relu <- ssd4_1
I0906 23:25:28.660406 13884 net.cpp:395] ssd4_1_relu -> ssd4_1 (in-place)
I0906 23:25:28.660734 13884 net.cpp:150] Setting up ssd4_1_relu
I0906 23:25:28.660742 13884 net.cpp:157] Top shape: 2 128 3 6 (4608)
I0906 23:25:28.660743 13884 net.cpp:165] Memory required for data: 798794336
I0906 23:25:28.660744 13884 layer_factory.hpp:77] Creating layer ssd4_2
I0906 23:25:28.660750 13884 net.cpp:100] Creating Layer ssd4_2
I0906 23:25:28.660753 13884 net.cpp:434] ssd4_2 <- ssd4_1
I0906 23:25:28.660756 13884 net.cpp:408] ssd4_2 -> ssd4_2
I0906 23:25:28.663202 13884 net.cpp:150] Setting up ssd4_2
I0906 23:25:28.663209 13884 net.cpp:157] Top shape: 2 256 1 4 (2048)
I0906 23:25:28.663211 13884 net.cpp:165] Memory required for data: 798802528
I0906 23:25:28.663215 13884 layer_factory.hpp:77] Creating layer ssd4_2_relu
I0906 23:25:28.663218 13884 net.cpp:100] Creating Layer ssd4_2_relu
I0906 23:25:28.663221 13884 net.cpp:434] ssd4_2_relu <- ssd4_2
I0906 23:25:28.663225 13884 net.cpp:395] ssd4_2_relu -> ssd4_2 (in-place)
I0906 23:25:28.663466 13884 net.cpp:150] Setting up ssd4_2_relu
I0906 23:25:28.663472 13884 net.cpp:157] Top shape: 2 256 1 4 (2048)
I0906 23:25:28.663475 13884 net.cpp:165] Memory required for data: 798810720
I0906 23:25:28.663476 13884 layer_factory.hpp:77] Creating layer ssd4_2_ssd4_2_relu_0_split
I0906 23:25:28.663480 13884 net.cpp:100] Creating Layer ssd4_2_ssd4_2_relu_0_split
I0906 23:25:28.663482 13884 net.cpp:434] ssd4_2_ssd4_2_relu_0_split <- ssd4_2
I0906 23:25:28.663486 13884 net.cpp:408] ssd4_2_ssd4_2_relu_0_split -> ssd4_2_ssd4_2_relu_0_split_0
I0906 23:25:28.663491 13884 net.cpp:408] ssd4_2_ssd4_2_relu_0_split -> ssd4_2_ssd4_2_relu_0_split_1
I0906 23:25:28.663494 13884 net.cpp:408] ssd4_2_ssd4_2_relu_0_split -> ssd4_2_ssd4_2_relu_0_split_2
I0906 23:25:28.663535 13884 net.cpp:150] Setting up ssd4_2_ssd4_2_relu_0_split
I0906 23:25:28.663542 13884 net.cpp:157] Top shape: 2 256 1 4 (2048)
I0906 23:25:28.663547 13884 net.cpp:157] Top shape: 2 256 1 4 (2048)
I0906 23:25:28.663548 13884 net.cpp:157] Top shape: 2 256 1 4 (2048)
I0906 23:25:28.663549 13884 net.cpp:165] Memory required for data: 798835296
I0906 23:25:28.663552 13884 layer_factory.hpp:77] Creating layer conv4_3_norm
I0906 23:25:28.663555 13884 net.cpp:100] Creating Layer conv4_3_norm
I0906 23:25:28.663558 13884 net.cpp:434] conv4_3_norm <- conv4_3_relu4_3_0_split_1
I0906 23:25:28.663563 13884 net.cpp:408] conv4_3_norm -> conv4_3_norm
I0906 23:25:28.663678 13884 net.cpp:150] Setting up conv4_3_norm
I0906 23:25:28.663683 13884 net.cpp:157] Top shape: 2 512 38 64 (2490368)
I0906 23:25:28.663686 13884 net.cpp:165] Memory required for data: 808796768
I0906 23:25:28.663687 13884 layer_factory.hpp:77] Creating layer conv4_3_norm_conv4_3_norm_0_split
I0906 23:25:28.663691 13884 net.cpp:100] Creating Layer conv4_3_norm_conv4_3_norm_0_split
I0906 23:25:28.663693 13884 net.cpp:434] conv4_3_norm_conv4_3_norm_0_split <- conv4_3_norm
I0906 23:25:28.663697 13884 net.cpp:408] conv4_3_norm_conv4_3_norm_0_split -> conv4_3_norm_conv4_3_norm_0_split_0
I0906 23:25:28.663700 13884 net.cpp:408] conv4_3_norm_conv4_3_norm_0_split -> conv4_3_norm_conv4_3_norm_0_split_1
I0906 23:25:28.663703 13884 net.cpp:408] conv4_3_norm_conv4_3_norm_0_split -> conv4_3_norm_conv4_3_norm_0_split_2
I0906 23:25:28.663735 13884 net.cpp:150] Setting up conv4_3_norm_conv4_3_norm_0_split
I0906 23:25:28.663741 13884 net.cpp:157] Top shape: 2 512 38 64 (2490368)
I0906 23:25:28.663745 13884 net.cpp:157] Top shape: 2 512 38 64 (2490368)
I0906 23:25:28.663748 13884 net.cpp:157] Top shape: 2 512 38 64 (2490368)
I0906 23:25:28.663751 13884 net.cpp:165] Memory required for data: 838681184
I0906 23:25:28.663754 13884 layer_factory.hpp:77] Creating layer conv4_3_norm_mbox_loc
I0906 23:25:28.663767 13884 net.cpp:100] Creating Layer conv4_3_norm_mbox_loc
I0906 23:25:28.663769 13884 net.cpp:434] conv4_3_norm_mbox_loc <- conv4_3_norm_conv4_3_norm_0_split_0
I0906 23:25:28.663774 13884 net.cpp:408] conv4_3_norm_mbox_loc -> conv4_3_norm_mbox_loc
I0906 23:25:28.664955 13884 net.cpp:150] Setting up conv4_3_norm_mbox_loc
I0906 23:25:28.664963 13884 net.cpp:157] Top shape: 2 8 38 64 (38912)
I0906 23:25:28.664964 13884 net.cpp:165] Memory required for data: 838836832
I0906 23:25:28.664968 13884 layer_factory.hpp:77] Creating layer conv4_3_norm_mbox_loc_perm
I0906 23:25:28.664973 13884 net.cpp:100] Creating Layer conv4_3_norm_mbox_loc_perm
I0906 23:25:28.664975 13884 net.cpp:434] conv4_3_norm_mbox_loc_perm <- conv4_3_norm_mbox_loc
I0906 23:25:28.664978 13884 net.cpp:408] conv4_3_norm_mbox_loc_perm -> conv4_3_norm_mbox_loc_perm
I0906 23:25:28.665067 13884 net.cpp:150] Setting up conv4_3_norm_mbox_loc_perm
I0906 23:25:28.665073 13884 net.cpp:157] Top shape: 2 38 64 8 (38912)
I0906 23:25:28.665076 13884 net.cpp:165] Memory required for data: 838992480
I0906 23:25:28.665076 13884 layer_factory.hpp:77] Creating layer conv4_3_norm_mbox_loc_flat
I0906 23:25:28.665081 13884 net.cpp:100] Creating Layer conv4_3_norm_mbox_loc_flat
I0906 23:25:28.665082 13884 net.cpp:434] conv4_3_norm_mbox_loc_flat <- conv4_3_norm_mbox_loc_perm
I0906 23:25:28.665086 13884 net.cpp:408] conv4_3_norm_mbox_loc_flat -> conv4_3_norm_mbox_loc_flat
I0906 23:25:28.665112 13884 net.cpp:150] Setting up conv4_3_norm_mbox_loc_flat
I0906 23:25:28.665118 13884 net.cpp:157] Top shape: 2 19456 (38912)
I0906 23:25:28.665122 13884 net.cpp:165] Memory required for data: 839148128
I0906 23:25:28.665124 13884 layer_factory.hpp:77] Creating layer conv4_3_norm_mbox_conf
I0906 23:25:28.665133 13884 net.cpp:100] Creating Layer conv4_3_norm_mbox_conf
I0906 23:25:28.665136 13884 net.cpp:434] conv4_3_norm_mbox_conf <- conv4_3_norm_conv4_3_norm_0_split_1
I0906 23:25:28.665139 13884 net.cpp:408] conv4_3_norm_mbox_conf -> conv4_3_norm_mbox_conf
I0906 23:25:28.666353 13884 net.cpp:150] Setting up conv4_3_norm_mbox_conf
I0906 23:25:28.666360 13884 net.cpp:157] Top shape: 2 10 38 64 (48640)
I0906 23:25:28.666363 13884 net.cpp:165] Memory required for data: 839342688
I0906 23:25:28.666368 13884 layer_factory.hpp:77] Creating layer conv4_3_norm_mbox_conf_perm
I0906 23:25:28.666371 13884 net.cpp:100] Creating Layer conv4_3_norm_mbox_conf_perm
I0906 23:25:28.666374 13884 net.cpp:434] conv4_3_norm_mbox_conf_perm <- conv4_3_norm_mbox_conf
I0906 23:25:28.666378 13884 net.cpp:408] conv4_3_norm_mbox_conf_perm -> conv4_3_norm_mbox_conf_perm
I0906 23:25:28.666462 13884 net.cpp:150] Setting up conv4_3_norm_mbox_conf_perm
I0906 23:25:28.666467 13884 net.cpp:157] Top shape: 2 38 64 10 (48640)
I0906 23:25:28.666469 13884 net.cpp:165] Memory required for data: 839537248
I0906 23:25:28.666471 13884 layer_factory.hpp:77] Creating layer conv4_3_norm_mbox_conf_flat
I0906 23:25:28.666476 13884 net.cpp:100] Creating Layer conv4_3_norm_mbox_conf_flat
I0906 23:25:28.666479 13884 net.cpp:434] conv4_3_norm_mbox_conf_flat <- conv4_3_norm_mbox_conf_perm
I0906 23:25:28.666482 13884 net.cpp:408] conv4_3_norm_mbox_conf_flat -> conv4_3_norm_mbox_conf_flat
I0906 23:25:28.666503 13884 net.cpp:150] Setting up conv4_3_norm_mbox_conf_flat
I0906 23:25:28.666509 13884 net.cpp:157] Top shape: 2 24320 (48640)
I0906 23:25:28.666513 13884 net.cpp:165] Memory required for data: 839731808
I0906 23:25:28.666517 13884 layer_factory.hpp:77] Creating layer conv4_3_norm_mbox_priorbox
I0906 23:25:28.666523 13884 net.cpp:100] Creating Layer conv4_3_norm_mbox_priorbox
I0906 23:25:28.666527 13884 net.cpp:434] conv4_3_norm_mbox_priorbox <- conv4_3_norm_conv4_3_norm_0_split_2
I0906 23:25:28.666533 13884 net.cpp:434] conv4_3_norm_mbox_priorbox <- data_data_0_split_1
I0906 23:25:28.666539 13884 net.cpp:408] conv4_3_norm_mbox_priorbox -> conv4_3_norm_mbox_priorbox
I0906 23:25:28.666563 13884 net.cpp:150] Setting up conv4_3_norm_mbox_priorbox
I0906 23:25:28.666568 13884 net.cpp:157] Top shape: 1 2 19456 (38912)
I0906 23:25:28.666579 13884 net.cpp:165] Memory required for data: 839887456
I0906 23:25:28.666582 13884 layer_factory.hpp:77] Creating layer fc7_mbox_loc
I0906 23:25:28.666591 13884 net.cpp:100] Creating Layer fc7_mbox_loc
I0906 23:25:28.666595 13884 net.cpp:434] fc7_mbox_loc <- fc7_relu7_0_split_1
I0906 23:25:28.666604 13884 net.cpp:408] fc7_mbox_loc -> fc7_mbox_loc
I0906 23:25:28.667902 13884 net.cpp:150] Setting up fc7_mbox_loc
I0906 23:25:28.667909 13884 net.cpp:157] Top shape: 2 8 19 32 (9728)
I0906 23:25:28.667912 13884 net.cpp:165] Memory required for data: 839926368
I0906 23:25:28.667919 13884 layer_factory.hpp:77] Creating layer fc7_mbox_loc_perm
I0906 23:25:28.667927 13884 net.cpp:100] Creating Layer fc7_mbox_loc_perm
I0906 23:25:28.667930 13884 net.cpp:434] fc7_mbox_loc_perm <- fc7_mbox_loc
I0906 23:25:28.667937 13884 net.cpp:408] fc7_mbox_loc_perm -> fc7_mbox_loc_perm
I0906 23:25:28.668017 13884 net.cpp:150] Setting up fc7_mbox_loc_perm
I0906 23:25:28.668021 13884 net.cpp:157] Top shape: 2 19 32 8 (9728)
I0906 23:25:28.668025 13884 net.cpp:165] Memory required for data: 839965280
I0906 23:25:28.668027 13884 layer_factory.hpp:77] Creating layer fc7_mbox_loc_flat
I0906 23:25:28.668035 13884 net.cpp:100] Creating Layer fc7_mbox_loc_flat
I0906 23:25:28.668037 13884 net.cpp:434] fc7_mbox_loc_flat <- fc7_mbox_loc_perm
I0906 23:25:28.668043 13884 net.cpp:408] fc7_mbox_loc_flat -> fc7_mbox_loc_flat
I0906 23:25:28.668067 13884 net.cpp:150] Setting up fc7_mbox_loc_flat
I0906 23:25:28.668071 13884 net.cpp:157] Top shape: 2 4864 (9728)
I0906 23:25:28.668073 13884 net.cpp:165] Memory required for data: 840004192
I0906 23:25:28.668076 13884 layer_factory.hpp:77] Creating layer fc7_mbox_conf
I0906 23:25:28.668084 13884 net.cpp:100] Creating Layer fc7_mbox_conf
I0906 23:25:28.668088 13884 net.cpp:434] fc7_mbox_conf <- fc7_relu7_0_split_2
I0906 23:25:28.668097 13884 net.cpp:408] fc7_mbox_conf -> fc7_mbox_conf
I0906 23:25:28.669440 13884 net.cpp:150] Setting up fc7_mbox_conf
I0906 23:25:28.669446 13884 net.cpp:157] Top shape: 2 10 19 32 (12160)
I0906 23:25:28.669450 13884 net.cpp:165] Memory required for data: 840052832
I0906 23:25:28.669456 13884 layer_factory.hpp:77] Creating layer fc7_mbox_conf_perm
I0906 23:25:28.669463 13884 net.cpp:100] Creating Layer fc7_mbox_conf_perm
I0906 23:25:28.669468 13884 net.cpp:434] fc7_mbox_conf_perm <- fc7_mbox_conf
I0906 23:25:28.669473 13884 net.cpp:408] fc7_mbox_conf_perm -> fc7_mbox_conf_perm
I0906 23:25:28.669555 13884 net.cpp:150] Setting up fc7_mbox_conf_perm
I0906 23:25:28.669559 13884 net.cpp:157] Top shape: 2 19 32 10 (12160)
I0906 23:25:28.669562 13884 net.cpp:165] Memory required for data: 840101472
I0906 23:25:28.669566 13884 layer_factory.hpp:77] Creating layer fc7_mbox_conf_flat
I0906 23:25:28.669574 13884 net.cpp:100] Creating Layer fc7_mbox_conf_flat
I0906 23:25:28.669577 13884 net.cpp:434] fc7_mbox_conf_flat <- fc7_mbox_conf_perm
I0906 23:25:28.669582 13884 net.cpp:408] fc7_mbox_conf_flat -> fc7_mbox_conf_flat
I0906 23:25:28.669605 13884 net.cpp:150] Setting up fc7_mbox_conf_flat
I0906 23:25:28.669610 13884 net.cpp:157] Top shape: 2 6080 (12160)
I0906 23:25:28.669612 13884 net.cpp:165] Memory required for data: 840150112
I0906 23:25:28.669615 13884 layer_factory.hpp:77] Creating layer fc7_mbox_priorbox
I0906 23:25:28.669621 13884 net.cpp:100] Creating Layer fc7_mbox_priorbox
I0906 23:25:28.669625 13884 net.cpp:434] fc7_mbox_priorbox <- fc7_relu7_0_split_3
I0906 23:25:28.669631 13884 net.cpp:434] fc7_mbox_priorbox <- data_data_0_split_2
I0906 23:25:28.669636 13884 net.cpp:408] fc7_mbox_priorbox -> fc7_mbox_priorbox
I0906 23:25:28.669657 13884 net.cpp:150] Setting up fc7_mbox_priorbox
I0906 23:25:28.669662 13884 net.cpp:157] Top shape: 1 2 4864 (9728)
I0906 23:25:28.669665 13884 net.cpp:165] Memory required for data: 840189024
I0906 23:25:28.669667 13884 layer_factory.hpp:77] Creating layer ssd1_2_mbox_loc
I0906 23:25:28.669677 13884 net.cpp:100] Creating Layer ssd1_2_mbox_loc
I0906 23:25:28.669682 13884 net.cpp:434] ssd1_2_mbox_loc <- ssd1_2_ssd1_2_relu_0_split_1
I0906 23:25:28.669697 13884 net.cpp:408] ssd1_2_mbox_loc -> ssd1_2_mbox_loc
I0906 23:25:28.670888 13884 net.cpp:150] Setting up ssd1_2_mbox_loc
I0906 23:25:28.670895 13884 net.cpp:157] Top shape: 2 8 10 16 (2560)
I0906 23:25:28.670899 13884 net.cpp:165] Memory required for data: 840199264
I0906 23:25:28.670905 13884 layer_factory.hpp:77] Creating layer ssd1_2_mbox_loc_perm
I0906 23:25:28.670913 13884 net.cpp:100] Creating Layer ssd1_2_mbox_loc_perm
I0906 23:25:28.670917 13884 net.cpp:434] ssd1_2_mbox_loc_perm <- ssd1_2_mbox_loc
I0906 23:25:28.670923 13884 net.cpp:408] ssd1_2_mbox_loc_perm -> ssd1_2_mbox_loc_perm
I0906 23:25:28.671005 13884 net.cpp:150] Setting up ssd1_2_mbox_loc_perm
I0906 23:25:28.671010 13884 net.cpp:157] Top shape: 2 10 16 8 (2560)
I0906 23:25:28.671013 13884 net.cpp:165] Memory required for data: 840209504
I0906 23:25:28.671017 13884 layer_factory.hpp:77] Creating layer ssd1_2_mbox_loc_flat
I0906 23:25:28.671023 13884 net.cpp:100] Creating Layer ssd1_2_mbox_loc_flat
I0906 23:25:28.671027 13884 net.cpp:434] ssd1_2_mbox_loc_flat <- ssd1_2_mbox_loc_perm
I0906 23:25:28.671032 13884 net.cpp:408] ssd1_2_mbox_loc_flat -> ssd1_2_mbox_loc_flat
I0906 23:25:28.671056 13884 net.cpp:150] Setting up ssd1_2_mbox_loc_flat
I0906 23:25:28.671059 13884 net.cpp:157] Top shape: 2 1280 (2560)
I0906 23:25:28.671061 13884 net.cpp:165] Memory required for data: 840219744
I0906 23:25:28.671063 13884 layer_factory.hpp:77] Creating layer ssd1_2_mbox_conf
I0906 23:25:28.671072 13884 net.cpp:100] Creating Layer ssd1_2_mbox_conf
I0906 23:25:28.671077 13884 net.cpp:434] ssd1_2_mbox_conf <- ssd1_2_ssd1_2_relu_0_split_2
I0906 23:25:28.671083 13884 net.cpp:408] ssd1_2_mbox_conf -> ssd1_2_mbox_conf
I0906 23:25:28.672289 13884 net.cpp:150] Setting up ssd1_2_mbox_conf
I0906 23:25:28.672297 13884 net.cpp:157] Top shape: 2 10 10 16 (3200)
I0906 23:25:28.672300 13884 net.cpp:165] Memory required for data: 840232544
I0906 23:25:28.672307 13884 layer_factory.hpp:77] Creating layer ssd1_2_mbox_conf_perm
I0906 23:25:28.672312 13884 net.cpp:100] Creating Layer ssd1_2_mbox_conf_perm
I0906 23:25:28.672317 13884 net.cpp:434] ssd1_2_mbox_conf_perm <- ssd1_2_mbox_conf
I0906 23:25:28.672323 13884 net.cpp:408] ssd1_2_mbox_conf_perm -> ssd1_2_mbox_conf_perm
I0906 23:25:28.672407 13884 net.cpp:150] Setting up ssd1_2_mbox_conf_perm
I0906 23:25:28.672412 13884 net.cpp:157] Top shape: 2 10 16 10 (3200)
I0906 23:25:28.672415 13884 net.cpp:165] Memory required for data: 840245344
I0906 23:25:28.672418 13884 layer_factory.hpp:77] Creating layer ssd1_2_mbox_conf_flat
I0906 23:25:28.672425 13884 net.cpp:100] Creating Layer ssd1_2_mbox_conf_flat
I0906 23:25:28.672428 13884 net.cpp:434] ssd1_2_mbox_conf_flat <- ssd1_2_mbox_conf_perm
I0906 23:25:28.672435 13884 net.cpp:408] ssd1_2_mbox_conf_flat -> ssd1_2_mbox_conf_flat
I0906 23:25:28.672457 13884 net.cpp:150] Setting up ssd1_2_mbox_conf_flat
I0906 23:25:28.672461 13884 net.cpp:157] Top shape: 2 1600 (3200)
I0906 23:25:28.672464 13884 net.cpp:165] Memory required for data: 840258144
I0906 23:25:28.672468 13884 layer_factory.hpp:77] Creating layer ssd1_2_mbox_priorbox
I0906 23:25:28.672475 13884 net.cpp:100] Creating Layer ssd1_2_mbox_priorbox
I0906 23:25:28.672479 13884 net.cpp:434] ssd1_2_mbox_priorbox <- ssd1_2_ssd1_2_relu_0_split_3
I0906 23:25:28.672484 13884 net.cpp:434] ssd1_2_mbox_priorbox <- data_data_0_split_3
I0906 23:25:28.672492 13884 net.cpp:408] ssd1_2_mbox_priorbox -> ssd1_2_mbox_priorbox
I0906 23:25:28.672513 13884 net.cpp:150] Setting up ssd1_2_mbox_priorbox
I0906 23:25:28.672518 13884 net.cpp:157] Top shape: 1 2 1280 (2560)
I0906 23:25:28.672520 13884 net.cpp:165] Memory required for data: 840268384
I0906 23:25:28.672524 13884 layer_factory.hpp:77] Creating layer ssd2_2_mbox_loc
I0906 23:25:28.672535 13884 net.cpp:100] Creating Layer ssd2_2_mbox_loc
I0906 23:25:28.672539 13884 net.cpp:434] ssd2_2_mbox_loc <- ssd2_2_ssd2_2_relu_0_split_1
I0906 23:25:28.672544 13884 net.cpp:408] ssd2_2_mbox_loc -> ssd2_2_mbox_loc
I0906 23:25:28.673564 13884 net.cpp:150] Setting up ssd2_2_mbox_loc
I0906 23:25:28.673579 13884 net.cpp:157] Top shape: 2 8 5 8 (640)
I0906 23:25:28.673581 13884 net.cpp:165] Memory required for data: 840270944
I0906 23:25:28.673588 13884 layer_factory.hpp:77] Creating layer ssd2_2_mbox_loc_perm
I0906 23:25:28.673594 13884 net.cpp:100] Creating Layer ssd2_2_mbox_loc_perm
I0906 23:25:28.673599 13884 net.cpp:434] ssd2_2_mbox_loc_perm <- ssd2_2_mbox_loc
I0906 23:25:28.673605 13884 net.cpp:408] ssd2_2_mbox_loc_perm -> ssd2_2_mbox_loc_perm
I0906 23:25:28.673691 13884 net.cpp:150] Setting up ssd2_2_mbox_loc_perm
I0906 23:25:28.673696 13884 net.cpp:157] Top shape: 2 5 8 8 (640)
I0906 23:25:28.673698 13884 net.cpp:165] Memory required for data: 840273504
I0906 23:25:28.673702 13884 layer_factory.hpp:77] Creating layer ssd2_2_mbox_loc_flat
I0906 23:25:28.673707 13884 net.cpp:100] Creating Layer ssd2_2_mbox_loc_flat
I0906 23:25:28.673712 13884 net.cpp:434] ssd2_2_mbox_loc_flat <- ssd2_2_mbox_loc_perm
I0906 23:25:28.673717 13884 net.cpp:408] ssd2_2_mbox_loc_flat -> ssd2_2_mbox_loc_flat
I0906 23:25:28.673739 13884 net.cpp:150] Setting up ssd2_2_mbox_loc_flat
I0906 23:25:28.673743 13884 net.cpp:157] Top shape: 2 320 (640)
I0906 23:25:28.673746 13884 net.cpp:165] Memory required for data: 840276064
I0906 23:25:28.673749 13884 layer_factory.hpp:77] Creating layer ssd2_2_mbox_conf
I0906 23:25:28.673758 13884 net.cpp:100] Creating Layer ssd2_2_mbox_conf
I0906 23:25:28.673763 13884 net.cpp:434] ssd2_2_mbox_conf <- ssd2_2_ssd2_2_relu_0_split_2
I0906 23:25:28.673770 13884 net.cpp:408] ssd2_2_mbox_conf -> ssd2_2_mbox_conf
I0906 23:25:28.674914 13884 net.cpp:150] Setting up ssd2_2_mbox_conf
I0906 23:25:28.674921 13884 net.cpp:157] Top shape: 2 10 5 8 (800)
I0906 23:25:28.674924 13884 net.cpp:165] Memory required for data: 840279264
I0906 23:25:28.674932 13884 layer_factory.hpp:77] Creating layer ssd2_2_mbox_conf_perm
I0906 23:25:28.674939 13884 net.cpp:100] Creating Layer ssd2_2_mbox_conf_perm
I0906 23:25:28.674943 13884 net.cpp:434] ssd2_2_mbox_conf_perm <- ssd2_2_mbox_conf
I0906 23:25:28.674949 13884 net.cpp:408] ssd2_2_mbox_conf_perm -> ssd2_2_mbox_conf_perm
I0906 23:25:28.675034 13884 net.cpp:150] Setting up ssd2_2_mbox_conf_perm
I0906 23:25:28.675038 13884 net.cpp:157] Top shape: 2 5 8 10 (800)
I0906 23:25:28.675040 13884 net.cpp:165] Memory required for data: 840282464
I0906 23:25:28.675042 13884 layer_factory.hpp:77] Creating layer ssd2_2_mbox_conf_flat
I0906 23:25:28.675046 13884 net.cpp:100] Creating Layer ssd2_2_mbox_conf_flat
I0906 23:25:28.675048 13884 net.cpp:434] ssd2_2_mbox_conf_flat <- ssd2_2_mbox_conf_perm
I0906 23:25:28.675051 13884 net.cpp:408] ssd2_2_mbox_conf_flat -> ssd2_2_mbox_conf_flat
I0906 23:25:28.675068 13884 net.cpp:150] Setting up ssd2_2_mbox_conf_flat
I0906 23:25:28.675072 13884 net.cpp:157] Top shape: 2 400 (800)
I0906 23:25:28.675074 13884 net.cpp:165] Memory required for data: 840285664
I0906 23:25:28.675076 13884 layer_factory.hpp:77] Creating layer ssd2_2_mbox_priorbox
I0906 23:25:28.675079 13884 net.cpp:100] Creating Layer ssd2_2_mbox_priorbox
I0906 23:25:28.675082 13884 net.cpp:434] ssd2_2_mbox_priorbox <- ssd2_2_ssd2_2_relu_0_split_3
I0906 23:25:28.675086 13884 net.cpp:434] ssd2_2_mbox_priorbox <- data_data_0_split_4
I0906 23:25:28.675089 13884 net.cpp:408] ssd2_2_mbox_priorbox -> ssd2_2_mbox_priorbox
I0906 23:25:28.675107 13884 net.cpp:150] Setting up ssd2_2_mbox_priorbox
I0906 23:25:28.675110 13884 net.cpp:157] Top shape: 1 2 320 (640)
I0906 23:25:28.675112 13884 net.cpp:165] Memory required for data: 840288224
I0906 23:25:28.675114 13884 layer_factory.hpp:77] Creating layer ssd3_2_mbox_loc
I0906 23:25:28.675119 13884 net.cpp:100] Creating Layer ssd3_2_mbox_loc
I0906 23:25:28.675122 13884 net.cpp:434] ssd3_2_mbox_loc <- ssd3_2_ssd3_2_relu_0_split_1
I0906 23:25:28.675127 13884 net.cpp:408] ssd3_2_mbox_loc -> ssd3_2_mbox_loc
I0906 23:25:28.676153 13884 net.cpp:150] Setting up ssd3_2_mbox_loc
I0906 23:25:28.676160 13884 net.cpp:157] Top shape: 2 8 3 6 (288)
I0906 23:25:28.676162 13884 net.cpp:165] Memory required for data: 840289376
I0906 23:25:28.676172 13884 layer_factory.hpp:77] Creating layer ssd3_2_mbox_loc_perm
I0906 23:25:28.676184 13884 net.cpp:100] Creating Layer ssd3_2_mbox_loc_perm
I0906 23:25:28.676187 13884 net.cpp:434] ssd3_2_mbox_loc_perm <- ssd3_2_mbox_loc
I0906 23:25:28.676190 13884 net.cpp:408] ssd3_2_mbox_loc_perm -> ssd3_2_mbox_loc_perm
I0906 23:25:28.676270 13884 net.cpp:150] Setting up ssd3_2_mbox_loc_perm
I0906 23:25:28.676273 13884 net.cpp:157] Top shape: 2 3 6 8 (288)
I0906 23:25:28.676275 13884 net.cpp:165] Memory required for data: 840290528
I0906 23:25:28.676276 13884 layer_factory.hpp:77] Creating layer ssd3_2_mbox_loc_flat
I0906 23:25:28.676280 13884 net.cpp:100] Creating Layer ssd3_2_mbox_loc_flat
I0906 23:25:28.676282 13884 net.cpp:434] ssd3_2_mbox_loc_flat <- ssd3_2_mbox_loc_perm
I0906 23:25:28.676286 13884 net.cpp:408] ssd3_2_mbox_loc_flat -> ssd3_2_mbox_loc_flat
I0906 23:25:28.676302 13884 net.cpp:150] Setting up ssd3_2_mbox_loc_flat
I0906 23:25:28.676306 13884 net.cpp:157] Top shape: 2 144 (288)
I0906 23:25:28.676307 13884 net.cpp:165] Memory required for data: 840291680
I0906 23:25:28.676309 13884 layer_factory.hpp:77] Creating layer ssd3_2_mbox_conf
I0906 23:25:28.676316 13884 net.cpp:100] Creating Layer ssd3_2_mbox_conf
I0906 23:25:28.676318 13884 net.cpp:434] ssd3_2_mbox_conf <- ssd3_2_ssd3_2_relu_0_split_2
I0906 23:25:28.676322 13884 net.cpp:408] ssd3_2_mbox_conf -> ssd3_2_mbox_conf
I0906 23:25:28.677346 13884 net.cpp:150] Setting up ssd3_2_mbox_conf
I0906 23:25:28.677353 13884 net.cpp:157] Top shape: 2 10 3 6 (360)
I0906 23:25:28.677356 13884 net.cpp:165] Memory required for data: 840293120
I0906 23:25:28.677359 13884 layer_factory.hpp:77] Creating layer ssd3_2_mbox_conf_perm
I0906 23:25:28.677363 13884 net.cpp:100] Creating Layer ssd3_2_mbox_conf_perm
I0906 23:25:28.677366 13884 net.cpp:434] ssd3_2_mbox_conf_perm <- ssd3_2_mbox_conf
I0906 23:25:28.677371 13884 net.cpp:408] ssd3_2_mbox_conf_perm -> ssd3_2_mbox_conf_perm
I0906 23:25:28.677448 13884 net.cpp:150] Setting up ssd3_2_mbox_conf_perm
I0906 23:25:28.677451 13884 net.cpp:157] Top shape: 2 3 6 10 (360)
I0906 23:25:28.677453 13884 net.cpp:165] Memory required for data: 840294560
I0906 23:25:28.677455 13884 layer_factory.hpp:77] Creating layer ssd3_2_mbox_conf_flat
I0906 23:25:28.677458 13884 net.cpp:100] Creating Layer ssd3_2_mbox_conf_flat
I0906 23:25:28.677460 13884 net.cpp:434] ssd3_2_mbox_conf_flat <- ssd3_2_mbox_conf_perm
I0906 23:25:28.677464 13884 net.cpp:408] ssd3_2_mbox_conf_flat -> ssd3_2_mbox_conf_flat
I0906 23:25:28.677480 13884 net.cpp:150] Setting up ssd3_2_mbox_conf_flat
I0906 23:25:28.677484 13884 net.cpp:157] Top shape: 2 180 (360)
I0906 23:25:28.677485 13884 net.cpp:165] Memory required for data: 840296000
I0906 23:25:28.677487 13884 layer_factory.hpp:77] Creating layer ssd3_2_mbox_priorbox
I0906 23:25:28.677491 13884 net.cpp:100] Creating Layer ssd3_2_mbox_priorbox
I0906 23:25:28.677497 13884 net.cpp:434] ssd3_2_mbox_priorbox <- ssd3_2_ssd3_2_relu_0_split_3
I0906 23:25:28.677500 13884 net.cpp:434] ssd3_2_mbox_priorbox <- data_data_0_split_5
I0906 23:25:28.677502 13884 net.cpp:408] ssd3_2_mbox_priorbox -> ssd3_2_mbox_priorbox
I0906 23:25:28.677520 13884 net.cpp:150] Setting up ssd3_2_mbox_priorbox
I0906 23:25:28.677523 13884 net.cpp:157] Top shape: 1 2 144 (288)
I0906 23:25:28.677525 13884 net.cpp:165] Memory required for data: 840297152
I0906 23:25:28.677526 13884 layer_factory.hpp:77] Creating layer ssd4_2_mbox_loc
I0906 23:25:28.677532 13884 net.cpp:100] Creating Layer ssd4_2_mbox_loc
I0906 23:25:28.677536 13884 net.cpp:434] ssd4_2_mbox_loc <- ssd4_2_ssd4_2_relu_0_split_0
I0906 23:25:28.677539 13884 net.cpp:408] ssd4_2_mbox_loc -> ssd4_2_mbox_loc
I0906 23:25:28.678653 13884 net.cpp:150] Setting up ssd4_2_mbox_loc
I0906 23:25:28.678660 13884 net.cpp:157] Top shape: 2 8 1 4 (64)
I0906 23:25:28.678663 13884 net.cpp:165] Memory required for data: 840297408
I0906 23:25:28.678668 13884 layer_factory.hpp:77] Creating layer ssd4_2_mbox_loc_perm
I0906 23:25:28.678673 13884 net.cpp:100] Creating Layer ssd4_2_mbox_loc_perm
I0906 23:25:28.678675 13884 net.cpp:434] ssd4_2_mbox_loc_perm <- ssd4_2_mbox_loc
I0906 23:25:28.678686 13884 net.cpp:408] ssd4_2_mbox_loc_perm -> ssd4_2_mbox_loc_perm
I0906 23:25:28.678762 13884 net.cpp:150] Setting up ssd4_2_mbox_loc_perm
I0906 23:25:28.678766 13884 net.cpp:157] Top shape: 2 1 4 8 (64)
I0906 23:25:28.678769 13884 net.cpp:165] Memory required for data: 840297664
I0906 23:25:28.678771 13884 layer_factory.hpp:77] Creating layer ssd4_2_mbox_loc_flat
I0906 23:25:28.678774 13884 net.cpp:100] Creating Layer ssd4_2_mbox_loc_flat
I0906 23:25:28.678777 13884 net.cpp:434] ssd4_2_mbox_loc_flat <- ssd4_2_mbox_loc_perm
I0906 23:25:28.678781 13884 net.cpp:408] ssd4_2_mbox_loc_flat -> ssd4_2_mbox_loc_flat
I0906 23:25:28.678797 13884 net.cpp:150] Setting up ssd4_2_mbox_loc_flat
I0906 23:25:28.678800 13884 net.cpp:157] Top shape: 2 32 (64)
I0906 23:25:28.678802 13884 net.cpp:165] Memory required for data: 840297920
I0906 23:25:28.678804 13884 layer_factory.hpp:77] Creating layer ssd4_2_mbox_conf
I0906 23:25:28.678809 13884 net.cpp:100] Creating Layer ssd4_2_mbox_conf
I0906 23:25:28.678812 13884 net.cpp:434] ssd4_2_mbox_conf <- ssd4_2_ssd4_2_relu_0_split_1
I0906 23:25:28.678817 13884 net.cpp:408] ssd4_2_mbox_conf -> ssd4_2_mbox_conf
I0906 23:25:28.680318 13884 net.cpp:150] Setting up ssd4_2_mbox_conf
I0906 23:25:28.680327 13884 net.cpp:157] Top shape: 2 10 1 4 (80)
I0906 23:25:28.680328 13884 net.cpp:165] Memory required for data: 840298240
I0906 23:25:28.680332 13884 layer_factory.hpp:77] Creating layer ssd4_2_mbox_conf_perm
I0906 23:25:28.680338 13884 net.cpp:100] Creating Layer ssd4_2_mbox_conf_perm
I0906 23:25:28.680341 13884 net.cpp:434] ssd4_2_mbox_conf_perm <- ssd4_2_mbox_conf
I0906 23:25:28.680346 13884 net.cpp:408] ssd4_2_mbox_conf_perm -> ssd4_2_mbox_conf_perm
I0906 23:25:28.680418 13884 net.cpp:150] Setting up ssd4_2_mbox_conf_perm
I0906 23:25:28.680423 13884 net.cpp:157] Top shape: 2 1 4 10 (80)
I0906 23:25:28.680425 13884 net.cpp:165] Memory required for data: 840298560
I0906 23:25:28.680426 13884 layer_factory.hpp:77] Creating layer ssd4_2_mbox_conf_flat
I0906 23:25:28.680429 13884 net.cpp:100] Creating Layer ssd4_2_mbox_conf_flat
I0906 23:25:28.680433 13884 net.cpp:434] ssd4_2_mbox_conf_flat <- ssd4_2_mbox_conf_perm
I0906 23:25:28.680438 13884 net.cpp:408] ssd4_2_mbox_conf_flat -> ssd4_2_mbox_conf_flat
I0906 23:25:28.680454 13884 net.cpp:150] Setting up ssd4_2_mbox_conf_flat
I0906 23:25:28.680457 13884 net.cpp:157] Top shape: 2 40 (80)
I0906 23:25:28.680460 13884 net.cpp:165] Memory required for data: 840298880
I0906 23:25:28.680461 13884 layer_factory.hpp:77] Creating layer ssd4_2_mbox_priorbox
I0906 23:25:28.680465 13884 net.cpp:100] Creating Layer ssd4_2_mbox_priorbox
I0906 23:25:28.680467 13884 net.cpp:434] ssd4_2_mbox_priorbox <- ssd4_2_ssd4_2_relu_0_split_2
I0906 23:25:28.680470 13884 net.cpp:434] ssd4_2_mbox_priorbox <- data_data_0_split_6
I0906 23:25:28.680474 13884 net.cpp:408] ssd4_2_mbox_priorbox -> ssd4_2_mbox_priorbox
I0906 23:25:28.680492 13884 net.cpp:150] Setting up ssd4_2_mbox_priorbox
I0906 23:25:28.680496 13884 net.cpp:157] Top shape: 1 2 32 (64)
I0906 23:25:28.680498 13884 net.cpp:165] Memory required for data: 840299136
I0906 23:25:28.680500 13884 layer_factory.hpp:77] Creating layer mbox_loc
I0906 23:25:28.680503 13884 net.cpp:100] Creating Layer mbox_loc
I0906 23:25:28.680506 13884 net.cpp:434] mbox_loc <- conv4_3_norm_mbox_loc_flat
I0906 23:25:28.680510 13884 net.cpp:434] mbox_loc <- fc7_mbox_loc_flat
I0906 23:25:28.680513 13884 net.cpp:434] mbox_loc <- ssd1_2_mbox_loc_flat
I0906 23:25:28.680516 13884 net.cpp:434] mbox_loc <- ssd2_2_mbox_loc_flat
I0906 23:25:28.680518 13884 net.cpp:434] mbox_loc <- ssd3_2_mbox_loc_flat
I0906 23:25:28.680521 13884 net.cpp:434] mbox_loc <- ssd4_2_mbox_loc_flat
I0906 23:25:28.680526 13884 net.cpp:408] mbox_loc -> mbox_loc
I0906 23:25:28.680544 13884 net.cpp:150] Setting up mbox_loc
I0906 23:25:28.680548 13884 net.cpp:157] Top shape: 2 26096 (52192)
I0906 23:25:28.680550 13884 net.cpp:165] Memory required for data: 840507904
I0906 23:25:28.680552 13884 layer_factory.hpp:77] Creating layer mbox_conf
I0906 23:25:28.680555 13884 net.cpp:100] Creating Layer mbox_conf
I0906 23:25:28.680565 13884 net.cpp:434] mbox_conf <- conv4_3_norm_mbox_conf_flat
I0906 23:25:28.680569 13884 net.cpp:434] mbox_conf <- fc7_mbox_conf_flat
I0906 23:25:28.680572 13884 net.cpp:434] mbox_conf <- ssd1_2_mbox_conf_flat
I0906 23:25:28.680574 13884 net.cpp:434] mbox_conf <- ssd2_2_mbox_conf_flat
I0906 23:25:28.680577 13884 net.cpp:434] mbox_conf <- ssd3_2_mbox_conf_flat
I0906 23:25:28.680582 13884 net.cpp:434] mbox_conf <- ssd4_2_mbox_conf_flat
I0906 23:25:28.680583 13884 net.cpp:408] mbox_conf -> mbox_conf
I0906 23:25:28.680601 13884 net.cpp:150] Setting up mbox_conf
I0906 23:25:28.680605 13884 net.cpp:157] Top shape: 2 32620 (65240)
I0906 23:25:28.680608 13884 net.cpp:165] Memory required for data: 840768864
I0906 23:25:28.680609 13884 layer_factory.hpp:77] Creating layer mbox_priorbox
I0906 23:25:28.680611 13884 net.cpp:100] Creating Layer mbox_priorbox
I0906 23:25:28.680613 13884 net.cpp:434] mbox_priorbox <- conv4_3_norm_mbox_priorbox
I0906 23:25:28.680616 13884 net.cpp:434] mbox_priorbox <- fc7_mbox_priorbox
I0906 23:25:28.680619 13884 net.cpp:434] mbox_priorbox <- ssd1_2_mbox_priorbox
I0906 23:25:28.680621 13884 net.cpp:434] mbox_priorbox <- ssd2_2_mbox_priorbox
I0906 23:25:28.680624 13884 net.cpp:434] mbox_priorbox <- ssd3_2_mbox_priorbox
I0906 23:25:28.680626 13884 net.cpp:434] mbox_priorbox <- ssd4_2_mbox_priorbox
I0906 23:25:28.680629 13884 net.cpp:408] mbox_priorbox -> mbox_priorbox
I0906 23:25:28.680644 13884 net.cpp:150] Setting up mbox_priorbox
I0906 23:25:28.680649 13884 net.cpp:157] Top shape: 1 2 26096 (52192)
I0906 23:25:28.680650 13884 net.cpp:165] Memory required for data: 840977632
I0906 23:25:28.680652 13884 layer_factory.hpp:77] Creating layer mbox_loss
I0906 23:25:28.680660 13884 net.cpp:100] Creating Layer mbox_loss
I0906 23:25:28.680661 13884 net.cpp:434] mbox_loss <- mbox_loc
I0906 23:25:28.680665 13884 net.cpp:434] mbox_loss <- mbox_conf
I0906 23:25:28.680666 13884 net.cpp:434] mbox_loss <- mbox_priorbox
…
state {
  phase: TEST
}
layer {
  name: "data"
  type: "AnnotatedData"
  top: "data"
  top: "label"
  include {
    phase: TEST
  }
  transform_param {
    mean_value: 130
    mean_value: 127
    mean_value: 125
    resize_param {
      prob: 1
      resize_mode: WARP
      height: 300
      width: 510
      interp_mode: LINEAR
    }
  }
  data_param {
    source: "examples/GTSDB/GTSDB_test_lmdb"
    batch_size: 1
    backend: LMDB
  }
  annotated_data_param {
    batch_sampler {
    }
    label_map_file: "data/GTSDB/labelmap_GTSDB.prototxt"
  }
}
layer {
  name: "conv1_1"
  type: "Convolution"
  bottom: "data"
  top: "conv1_1"
  param {
    lr_mult: 1
    decay_mult: 1
  }
  param {
    lr_mult: 2
    decay_mult: 0
  }
  convolution_param {
    num_output: 64
    pad: 1
    kernel_size: 3
    weight_filler {
      type: "xavier"
    }
    bias_filler {
      type: "constant"
      value: 0
    }
  }
}
layer {
  name: "relu1_1"
  type: "ReLU"
  bottom: "conv1_1"
  top: "conv1_1"
}
layer {
  name: "conv1_2"
  type: "Convolution"
  bottom: "conv1_1"
  top: "conv1_2"
  param {
    lr_mult: 1
    decay_mult: 1
  }
  param {
    lr_mult: 2
    decay_mult: 0
  }
  convolution_param {
    num_output: 64
    pad: 1
    kernel_size: 3
    weight_filler {
      type: "xavier"
    }
    bias_filler {
      type: "constant"
      value: 0
    }
  }
}
layer {
  name: "relu1_2"
  type: "ReLU"
  bottom: "conv1_2"
  top: "conv1_2"
}
layer {
  name: "pool1"
  type: "Pooling"
  bottom: "conv1_2"
  top: "pool1"
  pooling_param {
    pool: MAX
    kernel_size: 2
    stride: 2
  }
}
layer {
  name: "conv2_1"
  type: "Convolution"
  bottom: "pool1"
  top: "conv2_1"
  param {
    lr_mult: 1
    decay_mult: 1
  }
  param {
    lr_mult: 2
    decay_mult: 0
  }
  convolution_param {
    num_output: 128
    pad: 1
    kernel_size: 3
    weight_filler {
      type: "xavier"
    }
    bias_filler {
      type: "constant"
      value: 0
    }
  }
}
layer {
  name: "relu2_1"
  type: "ReLU"
  bottom: "conv2_1"
  top: "conv2_1"
}
layer {
  name: "conv2_2"
  type: "Convolution"
  bottom: "conv2_1"
  top: "conv2_2"
  param {
    lr_mult: 1
    decay_mult: 1
  }
  param {
    lr_mult: 2
    decay_mult: 0
  }
  convolution_param {
    num_output: 128
    pad: 1
    kernel_size: 3
    weight_filler {
      type: "xavier"
    }
    bias_filler {
      type: "constant"
      value: 0
    }
  }
}
layer {
  name: "relu2_2"
  type: "ReLU"
  bottom: "conv2_2"
  top: "conv2_2"
}
layer {
  name: "pool2"
  type: "Pooling"
  bottom: "conv2_2"
  top: "pool2"
  pooling_param {
    pool: MAX
    kernel_size: 2
    stride: 2
  }
}
layer {
  name: "conv3_1"
  type: "Convolution"
  bottom: "pool2"
  top: "conv3_1"
  param {
    lr_mult: 1
    decay_mult: 1
  }
  param {
    lr_mult: 2
    decay_mult: 0
  }
  convolution_param {
    num_output: 256
    pad: 1
    kernel_size: 3
    weight_filler {
      type: "xavier"
    }
    bias_filler {
      type: "constant"
      value: 0
    }
  }
}
layer {
  name: "relu3_1"
  type: "ReLU"
  bottom: "conv3_1"
  top: "conv3_1"
}
layer {
  name: "conv3_2"
  type: "Convolution"
  bottom: "conv3_1"
  top: "conv3_2"
  param {
    lr_mult: 1
    decay_mult: 1
  }
  param {
    lr_mult: 2
    decay_mult: 0
  }
  convolution_param {
    num_output: 256
    pad: 1
    kernel_size: 3
    weight_filler {
      type: "xavier"
    }
    bias_filler {
      type: "constant"
      value: 0
    }
  }
}
layer {
  name: "relu3_2"
  type: "ReLU"
  bottom: "conv3_2"
  top: "conv3_2"
}
layer {
  name: "conv3_3"
  type: "Convolution"
  bottom: "conv3_2"
  top: "conv3_3"
  param {
    lr_mult: 1
    decay_mult: 1
  }
  param {
    lr_mult: 2
    decay_mult: 0
  }
  convolution_param {
    num_output: 256
    pad: 1
    kernel_size: 3
    weight_filler {
      type: "xavier"
    }
    bias_filler {
      type: "constant"
      value: 0
    }
  }
}
layer {
  name: "relu3_3"
  type: "ReLU"
  bottom: "conv3_3"
  top: "conv3_3"
}
layer {
  name: "pool3"
  type: "Pooling"
  bottom: "conv3_3"
  top: "pool3"
  pooling_param {
    pool: MAX
    kernel_size: 2
    stride: 2
  }
}
layer {
  name: "conv4_1"
  type: "Convolution"
  bottom: "pool3"
  top: "conv4_1"
  param {
    lr_mult: 1
    decay_mult: 1
  }
  param {
    lr_mult: 2
    decay_mult: 0
  }
  convolution_param {
    num_output: 512
    pad: 1
    kernel_size: 3
    weight_filler {
      type: "xavier"
    }
    bias_filler {
      type: "constant"
      value: 0
    }
  }
}
layer {
  name: "relu4_1"
  type: "ReLU"
  bottom: "conv4_1"
  top: "conv4_1"
}
layer {
  name: "conv4_2"
  type: "Convolution"
  bottom: "conv4_1"
  top: "conv4_2"
  param {
    lr_mult: 1
    decay_mult: 1
  }
  param {
    lr_mult: 2
    decay_mult: 0
  }
  convolution_param {
    num_output: 512
    pad: 1
    kernel_size: 3
    weight_filler {
      type: "xavier"
    }
    bias_filler {
      type: "constant"
      value: 0
    }
  }
}
layer {
  name: "relu4_2"
  type: "ReLU"
  bottom: "conv4_2"
  top: "conv4_2"
}
layer {
  name: "conv4_3"
  type: "Convolution"
  bottom: "conv4_2"
  top: "conv4_3"
  param {
    lr_mult: 1
    decay_mult: 1
  }
  param {
    lr_mult: 2
    decay_mult: 0
  }
  convolution_param {
    num_output: 512
    pad: 1
    kernel_size: 3
    weight_filler {
      type: "xavier"
    }
    bias_filler {
      type: "constant"
      value: 0
    }
  }
}
layer {
  name: "relu4_3"
  type: "ReLU"
  bottom: "conv4_3"
  top: "conv4_3"
}
layer {
  name: "pool4"
  type: "Pooling"
  bottom: "conv4_3"
  top: "pool4"
  pooling_param {
    pool: MAX
    kernel_size: 2
    stride: 2
  }
}
layer {
  name: "conv5_1"
  type: "Convolution"
  bottom: "pool4"
  top: "conv5_1"
  param {
    lr_mult: 1
    decay_mult: 1
  }
  param {
    lr_mult: 2
    decay_mult: 0
  }
  convolution_param {
    num_output: 512
    pad: 1
    kernel_size: 3
    weight_filler {
      type: "xavier"
    }
    bias_filler {
      type: "constant"
      value: 0
    }
    dilation: 1
  }
}
layer {
  name: "relu5_1"
  type: "ReLU"
  bottom: "conv5_1"
  top: "conv5_1"
}
layer {
  name: "conv5_2"
  type: "Convolution"
  bottom: "conv5_1"
  top: "conv5_2"
  param {
    lr_mult: 1
    decay_mult: 1
  }
  param {
    lr_mult: 2
    decay_mult: 0
  }
  convolution_param {
    num_output: 512
    pad: 1
    kernel_size: 3
    weight_filler {
      type: "xavier"
    }
    bias_filler {
      type: "constant"
      value: 0
    }
    dilation: 1
  }
}
layer {
  name: "relu5_2"
  type: "ReLU"
  bottom: "conv5_2"
  top: "conv5_2"
}
layer {
  name: "conv5_3"
  type: "Convolution"
  bottom: "conv5_2"
  top: "conv5_3"
  param {
    lr_mult: 1
    decay_mult: 1
  }
  param {
    lr_mult: 2
    decay_mult: 0
  }
  convolution_param {
    num_output: 512
    pad: 1
    kernel_size: 3
    weight_filler {
      type: "xavier"
    }
    bias_filler {
      type: "constant"
      value: 0
    }
    dilation: 1
  }
}
layer {
  name: "relu5_3"
  type: "ReLU"
  bottom: "conv5_3"
  top: "conv5_3"
}
layer {
  name: "pool5"
  type: "Pooling"
  bottom: "conv5_3"
  top: "pool5"
  pooling_param {
    pool: MAX
    kernel_size: 3
    stride: 1
    pad: 1
  }
}
layer {
  name: "fc6"
  type: "Convolution"
  bottom: "pool5"
  top: "fc6"
  param {
    lr_mult: 1
    decay_mult: 1
  }
  param {
    lr_mult: 2
    decay_mult: 0
  }
  convolution_param {
    num_output: 1024
    pad: 6
    kernel_size: 3
    weight_filler {
      type: "xavier"
    }
    bias_filler {
      type: "constant"
      value: 0
    }
    dilation: 6
  }
}
layer {
  name: "relu6"
  type: "ReLU"
  bottom: "fc6"
  top: "fc6"
}
layer {
  name: "fc7"
  type: "Convolution"
  bottom: "fc6"
  top: "fc7"
  param {
    lr_mult: 1
    decay_mult: 1
  }
  param {
    lr_mult: 2
    decay_mult: 0
  }
  convolution_param {
    num_output: 1024
    kernel_size: 1
    weight_filler {
      type: "xavier"
    }
    bias_filler {
      type: "constant"
      value: 0
    }
  }
}
layer {
  name: "relu7"
  type: "ReLU"
  bottom: "fc7"
  top: "fc7"
}
layer {
  name: "ssd1_1"
  type: "Convolution"
  bottom: "fc7"
  top: "ssd1_1"
  param {
    lr_mult: 1
    decay_mult: 1
  }
  param {
    lr_mult: 2
    decay_mult: 0
  }
  convolution_param {
    num_output: 256
    pad: 0
    kernel_size: 1
    stride: 1
    weight_filler {
      type: "xavier"
    }
    bias_filler {
      type: "constant"
      value: 0
    }
  }
}
layer {
  name: "ssd1_1_relu"
  type: "ReLU"
  bottom: "ssd1_1"
  top: "ssd1_1"
}
layer {
  name: "ssd1_2"
  type: "Convolution"
  bottom: "ssd1_1"
  top: "ssd1_2"
  param {
    lr_mult: 1
    decay_mult: 1
  }
  param {
    lr_mult: 2
    decay_mult: 0
  }
  convolution_param {
    num_output: 512
    pad: 1
    kernel_size: 3
    stride: 2
    weight_filler {
      type: "xavier"
    }
    bias_filler {
      type: "constant"
      value: 0
    }
  }
}
layer {
  name: "ssd1_2_relu"
  type: "ReLU"
  bottom: "ssd1_2"
  top: "ssd1_2"
}
layer {
  name: "ssd2_1"
  type: "Convolution"
  bottom: "ssd1_2"
  top: "ssd2_1"
  param {
    lr_mult: 1
    decay_mult: 1
  }
  param {
    lr_mult: 2
    decay_mult: 0
  }
  convolution_param {
    num_output: 128
    pad: 0
    kernel_size: 1
    stride: 1
    weight_filler {
      type: "xavier"
    }
    bias_filler {
      type: "constant"
      value: 0
    }
  }
}
layer {
  name: "ssd2_1_relu"
  type: "ReLU"
  bottom: "ssd2_1"
  top: "ssd2_1"
}
layer {
  name: "ssd2_2"
  type: "Convolution"
  bottom: "ssd2_1"
  top: "ssd2_2"
  param {
    lr_mult: 1
    decay_mult: 1
  }
  param {
    lr_mult: 2
    decay_mult: 0
  }
  convolution_param {
    num_output: 256
    pad: 1
    kernel_size: 3
    stride: 2
    weight_filler {
      type: "xavier"
    }
    bias_filler {
      type: "constant"
      value: 0
    }
  }
}
layer {
  name: "ssd2_2_relu"
  type: "ReLU"
  bottom: "ssd2_2"
  top: "ssd2_2"
}
layer {
  name: "ssd3_1"
  type: "Convolution"
  bottom: "ssd2_2"
  top: "ssd3_1"
  param {
    lr_mult: 1
    decay_mult: 1
  }
  param {
    lr_mult: 2
    decay_mult: 0
  }
  convolution_param {
    num_output: 128
    pad: 0
    kernel_size: 1
    stride: 1
    weight_filler {
      type: "xavier"
    }
    bias_filler {
      type: "constant"
      value: 0
    }
  }
}
layer {
  name: "ssd3_1_relu"
  type: "ReLU"
  bottom: "ssd3_1"
  top: "ssd3_1"
}
layer {
  name: "ssd3_2"
  type: "Convolution"
  bottom: "ssd3_1"
  top: "ssd3_2"
  param {
    lr_mult: 1
    decay_mult: 1
  }
  param {
    lr_mult: 2
    decay_mult: 0
  }
  convolution_param {
    num_output: 256
    pad: 0
    kernel_size: 3
    stride: 1
    weight_filler {
      type: "xavier"
    }
    bias_filler {
      type: "constant"
      value: 0
    }
  }
}
layer {
  name: "ssd3_2_relu"
  type: "ReLU"
  bottom: "ssd3_2"
  top: "ssd3_2"
}
layer {
  name: "ssd4_1"
  type: "Convolution"
  bottom: "ssd3_2"
  top: "ssd4_1"
  param {
    lr_mult: 1
    decay_mult: 1
  }
  param {
    lr_mult: 2
    decay_mult: 0
  }
  convolution_param {
    num_output: 128
    pad: 0
    kernel_size: 1
    stride: 1
    weight_filler {
      type: "xavier"
    }
    bias_filler {
      type: "constant"
      value: 0
    }
  }
}
layer {
  name: "ssd4_1_relu"
  type: "ReLU"
  bottom: "ssd4_1"
  top: "ssd4_1"
}
layer {
  name: "ssd4_2"
  type: "Convolution"
  bottom: "ssd4_1"
  top: "ssd4_2"
  param {
    lr_mult: 1
    decay_mult: 1
  }
  param {
    lr_mult: 2
    decay_mult: 0
  }
  convolution_param {
    num_output: 256
    pad: 0
    kernel_size: 3
    stride: 1
    weight_filler {
      type: "xavier"
    }
    bias_filler {
      type: "constant"
      value: 0
    }
  }
}
layer {
  name: "ssd4_2_relu"
  type: "ReLU"
  bottom: "ssd4_2"
  top: "ssd4_2"
}
layer {
  name: "conv4_3_norm"
  type: "Normalize"
  bottom: "conv4_3"
  top: "conv4_3_norm"
  norm_param {
    across_spatial: false
    scale_filler {
      type: "constant"
      value: 20
    }
    channel_shared: false
  }
}
layer {
  name: "conv4_3_norm_mbox_loc"
  type: "Convolution"
  bottom: "conv4_3_norm"
  top: "conv4_3_norm_mbox_loc"
  param {
    lr_mult: 1
    decay_mult: 1
  }
  param {
    lr_mult: 2
    decay_mult: 0
  }
  convolution_param {
    num_output: 8
    pad: 1
    kernel_size: 3
    stride: 1
    weight_filler {
      type: "xavier"
    }
    bias_filler {
      type: "constant"
      value: 0
    }
  }
}
layer {
  name: "conv4_3_norm_mbox_loc_perm"
  type: "Permute"
  bottom: "conv4_3_norm_mbox_loc"
  top: "conv4_3_norm_mbox_loc_perm"
  permute_param {
    order: 0
    order: 2
    order: 3
    order: 1
  }
}
layer {
  name: "conv4_3_norm_mbox_loc_flat"
  type: "Flatten"
  bottom: "conv4_3_norm_mbox_loc_perm"
  top: "conv4_3_norm_mbox_loc_flat"
  flatten_param {
    axis: 1
  }
}
layer {
  name: "conv4_3_norm_mbox_conf"
  type: "Convolution"
  bottom: "conv4_3_norm"
  top: "conv4_3_norm_mbox_conf"
  param {
    lr_mult: 1
    decay_mult: 1
  }
  param {
    lr_mult: 2
    decay_mult: 0
  }
  convolution_param {
    num_output: 10
    pad: 1
    kernel_size: 3
    stride: 1
    weight_filler {
      type: "xavier"
    }
    bias_filler {
      type: "constant"
      value: 0
    }
  }
}
layer {
  name: "conv4_3_norm_mbox_conf_perm"
  type: "Permute"
  bottom: "conv4_3_norm_mbox_conf"
  top: "conv4_3_norm_mbox_conf_perm"
  permute_param {
    order: 0
    order: 2
    order: 3
    order: 1
  }
}
layer {
  name: "conv4_3_norm_mbox_conf_flat"
  type: "Flatten"
  bottom: "conv4_3_norm_mbox_conf_perm"
  top: "conv4_3_norm_mbox_conf_flat"
  flatten_param {
    axis: 1
  }
}
layer {
  name: "conv4_3_norm_mbox_priorbox"
  type: "PriorBox"
  bottom: "conv4_3_norm"
  bottom: "data"
  top: "conv4_3_norm_mbox_priorbox"
  prior_box_param {
    min_size: 15
    max_size: 30
    clip: false
    variance: 0.1
    variance: 0.1
    variance: 0.2
    variance: 0.2
    step: 8
    offset: 0.5
  }
}
layer {
  name: "fc7_mbox_loc"
  type: "Convolution"
  bottom: "fc7"
  top: "fc7_mbox_loc"
  param {
    lr_mult: 1
    decay_mult: 1
  }
  param {
    lr_mult: 2
    decay_mult: 0
  }
  convolution_param {
    num_output: 8
    pad: 1
    kernel_size: 3
    stride: 1
    weight_filler {
      type: "xavier"
    }
    bias_filler {
      type: "constant"
      value: 0
    }
  }
}
layer {
  name: "fc7_mbox_loc_perm"
  type: "Permute"
  bottom: "fc7_mbox_loc"
  top: "fc7_mbox_loc_perm"
  permute_param {
    order: 0
    order: 2
    order: 3
    order: 1
  }
}
layer {
  name: "fc7_mbox_loc_flat"
  type: "Flatten"
  bottom: "fc7_mbox_loc_perm"
  top: "fc7_mbox_loc_flat"
  flatten_param {
    axis: 1
  }
}
layer {
  name: "fc7_mbox_conf"
  type: "Convolution"
  bottom: "fc7"
  top: "fc7_mbox_conf"
  param {
    lr_mult: 1
    decay_mult: 1
  }
  param {
    lr_mult: 2
    decay_mult: 0
  }
  convolution_param {
    num_output: 10
    pad: 1
    kernel_size: 3
    stride: 1
    weight_filler {
      type: "xavier"
    }
    bias_filler {
      type: "constant"
      value: 0
    }
  }
}
layer {
  name: "fc7_mbox_conf_perm"
  type: "Permute"
  bottom: "fc7_mbox_conf"
  top: "fc7_mbox_conf_perm"
  permute_param {
    order: 0
    order: 2
    order: 3
    order: 1
  }
}
layer {
  name: "fc7_mbox_conf_flat"
  type: "Flatten"
  bottom: "fc7_mbox_conf_perm"
  top: "fc7_mbox_conf_flat"
  flatten_param {
    axis: 1
  }
}
layer {
  name: "fc7_mbox_priorbox"
  type: "PriorBox"
  bottom: "fc7"
  bottom: "data"
  top: "fc7_mbox_priorbox"
  prior_box_param {
    min_size: 30
    max_size: 60
    clip: false
    variance: 0.1
    variance: 0.1
    variance: 0.2
    variance: 0.2
    step: 16
    offset: 0.5
  }
}
layer {
  name: "ssd1_2_mbox_loc"
  type: "Convolution"
  bottom: "ssd1_2"
  top: "ssd1_2_mbox_loc"
  param {
    lr_mult: 1
    decay_mult: 1
  }
  param {
    lr_mult: 2
    decay_mult: 0
  }
  convolution_param {
    num_output: 8
    pad: 1
    kernel_size: 3
    stride: 1
    weight_filler {
      type: "xavier"
    }
    bias_filler {
      type: "constant"
      value: 0
    }
  }
}
layer {
  name: "ssd1_2_mbox_loc_perm"
  type: "Permute"
  bottom: "ssd1_2_mbox_loc"
  top: "ssd1_2_mbox_loc_perm"
  permute_param {
    order: 0
    order: 2
    order: 3
    order: 1
  }
}
layer {
  name: "ssd1_2_mbox_loc_flat"
  type: "Flatten"
  bottom: "ssd1_2_mbox_loc_perm"
  top: "ssd1_2_mbox_loc_flat"
  flatten_param {
    axis: 1
  }
}
layer {
  name: "ssd1_2_mbox_conf"
  type: "Convolution"
  bottom: "ssd1_2"
  top: "ssd1_2_mbox_conf"
  param {
    lr_mult: 1
    decay_mult: 1
  }
  param {
    lr_mult: 2
    decay_mult: 0
  }
  convolution_param {
    num_output: 10
    pad: 1
    kernel_size: 3
    stride: 1
    weight_filler {
      type: "xavier"
    }
    bias_filler {
      type: "constant"
      value: 0
    }
  }
}
layer {
  name: "ssd1_2_mbox_conf_perm"
  type: "Permute"
  bottom: "ssd1_2_mbox_conf"
  top: "ssd1_2_mbox_conf_perm"
  permute_param {
    order: 0
    order: 2
    order: 3
    order: 1
  }
}
layer {
  name: "ssd1_2_mbox_conf_flat"
  type: "Flatten"
  bottom: "ssd1_2_mbox_conf_perm"
  top: "ssd1_2_mbox_conf_flat"
  flatten_param {
    axis: 1
  }
}
layer {
  name: "ssd1_2_mbox_priorbox"
  type: "PriorBox"
  bottom: "ssd1_2"
  bottom: "data"
  top: "ssd1_2_mbox_priorbox"
  prior_box_param {
    min_size: 60
    max_size: 90
    clip: false
    variance: 0.1
    variance: 0.1
    variance: 0.2
    variance: 0.2
    step: 32
    offset: 0.5
  }
}
layer {
  name: "ssd2_2_mbox_loc"
  type: "Convolution"
  bottom: "ssd2_2"
  top: "ssd2_2_mbox_loc"
  param {
    lr_mult: 1
    decay_mult: 1
  }
  param {
    lr_mult: 2
    decay_mult: 0
  }
  convolution_param {
    num_output: 8
    pad: 1
    kernel_size: 3
    stride: 1
    weight_filler {
      type: "xavier"
    }
    bias_filler {
      type: "constant"
      value: 0
    }
  }
}
layer {
  name: "ssd2_2_mbox_loc_perm"
  type: "Permute"
  bottom: "ssd2_2_mbox_loc"
  top: "ssd2_2_mbox_loc_perm"
  permute_param {
    order: 0
    order: 2
    order: 3
    order: 1
  }
}
layer {
  name: "ssd2_2_mbox_loc_flat"
  type: "Flatten"
  bottom: "ssd2_2_mbox_loc_perm"
  top: "ssd2_2_mbox_loc_flat"
  flatten_param {
    axis: 1
  }
}
layer {
  name: "ssd2_2_mbox_conf"
  type: "Convolution"
  bottom: "ssd2_2"
  top: "ssd2_2_mbox_conf"
  param {
    lr_mult: 1
    decay_mult: 1
  }
  param {
    lr_mult: 2
    decay_mult: 0
  }
  convolution_param {
    num_output: 10
    pad: 1
    kernel_size: 3
    stride: 1
    weight_filler {
      type: "xavier"
    }
    bias_filler {
      type: "constant"
      value: 0
    }
  }
}
layer {
  name: "ssd2_2_mbox_conf_perm"
  type: "Permute"
  bottom: "ssd2_2_mbox_conf"
  top: "ssd2_2_mbox_conf_perm"
  permute_param {
    order: 0
    order: 2
    order: 3
    order: 1
  }
}
layer {
  name: "ssd2_2_mbox_conf_flat"
  type: "Flatten"
  bottom: "ssd2_2_mbox_conf_perm"
  top: "ssd2_2_mbox_conf_flat"
  flatten_param {
    axis: 1
  }
}
layer {
  name: "ssd2_2_mbox_priorbox"
  type: "PriorBox"
  bottom: "ssd2_2"
  bottom: "data"
  top: "ssd2_2_mbox_priorbox"
  prior_box_param {
    min_size: 90
    max_size: 120
    clip: false
    variance: 0.1
    variance: 0.1
    variance: 0.2
    variance: 0.2
    step: 64
    offset: 0.5
  }
}
layer {
  name: "ssd3_2_mbox_loc"
  type: "Convolution"
  bottom: "ssd3_2"
  top: "ssd3_2_mbox_loc"
  param {
    lr_mult: 1
    decay_mult: 1
  }
  param {
    lr_mult: 2
    decay_mult: 0
  }
  convolution_param {
    num_output: 8
    pad: 1
    kernel_size: 3
    stride: 1
    weight_filler {
      type: "xavier"
    }
    bias_filler {
      type: "constant"
      value: 0
    }
  }
}
layer {
  name: "ssd3_2_mbox_loc_perm"
  type: "Permute"
  bottom: "ssd3_2_mbox_loc"
  top: "ssd3_2_mbox_loc_perm"
  permute_param {
    order: 0
    order: 2
    order: 3
    order: 1
  }
}
layer {
  name: "ssd3_2_mbox_loc_flat"
  type: "Flatten"
  bottom: "ssd3_2_mbox_loc_perm"
  top: "ssd3_2_mbox_loc_flat"
  flatten_param {
    axis: 1
  }
}
layer {
  name: "ssd3_2_mbox_conf"
  type: "Convolution"
  bottom: "ssd3_2"
  top: "ssd3_2_mbox_conf"
  param {
    lr_mult: 1
    decay_mult: 1
  }
  param {
    lr_mult: 2
    decay_mult: 0
  }
  convolution_param {
    num_output: 10
    pad: 1
    kernel_size: 3
    stride: 1
    weight_filler {
      type: "xavier"
    }
    bias_filler {
      type: "constant"
      value: 0
    }
  }
}
layer {
  name: "ssd3_2_mbox_conf_perm"
  type: "Permute"
  bottom: "ssd3_2_mbox_conf"
  top: "ssd3_2_mbox_conf_perm"
  permute_param {
    order: 0
    order: 2
    order: 3
    order: 1
  }
}
layer {
  name: "ssd3_2_mbox_conf_flat"
  type: "Flatten"
  bottom: "ssd3_2_mbox_conf_perm"
  top: "ssd3_2_mbox_conf_flat"
  flatten_param {
    axis: 1
  }
}
layer {
  name: "ssd3_2_mbox_priorbox"
  type: "PriorBox"
  bottom: "ssd3_2"
  bottom: "data"
  top: "ssd3_2_mbox_priorbox"
  prior_box_param {
    min_size: 120
    max_size: 150
    clip: false
    variance: 0.1
    variance: 0.1
    variance: 0.2
    variance: 0.2
    step: 100
    offset: 0.5
  }
}
layer {
  name: "ssd4_2_mbox_loc"
  type: "Convolution"
  bottom: "ssd4_2"
  top: "ssd4_2_mbox_loc"
  param {
    lr_mult: 1
    decay_mult: 1
  }
  param {
    lr_mult: 2
    decay_mult: 0
  }
  convolution_param {
    num_output: 8
    pad: 1
    kernel_size: 3
    stride: 1
    weight_filler {
      type: "xavier"
    }
    bias_filler {
      type: "constant"
      value: 0
    }
  }
}
layer {
  name: "ssd4_2_mbox_loc_perm"
  type: "Permute"
  bottom: "ssd4_2_mbox_loc"
  top: "ssd4_2_mbox_loc_perm"
  permute_param {
    order: 0
    order: 2
    order: 3
    order: 1
  }
}
layer {
  name: "ssd4_2_mbox_loc_flat"
  type: "Flatten"
  bottom: "ssd4_2_mbox_loc_perm"
  top: "ssd4_2_mbox_loc_flat"
  flatten_param {
    axis: 1
  }
}
layer {
  name: "ssd4_2_mbox_conf"
  type: "Convolution"
  bottom: "ssd4_2"
  top: "ssd4_2_mbox_conf"
  param {
    lr_mult: 1
    decay_mult: 1
  }
  param {
    lr_mult: 2
    decay_mult: 0
  }
  convolution_param {
    num_output: 10
    pad: 1
    kernel_size: 3
    stride: 1
    weight_filler {
      type: "xavier"
    }
    bias_filler {
      type: "constant"
      value: 0
    }
  }
}
layer {
  name: "ssd4_2_mbox_conf_perm"
  type: "Permute"
  bottom: "ssd4_2_mbox_conf"
  top: "ssd4_2_mbox_conf_perm"
  permute_param {
    order: 0
    order: 2
    order: 3
    order: 1
  }
}
layer {
  name: "ssd4_2_mbox_conf_flat"
  type: "Flatten"
  bottom: "ssd4_2_mbox_conf_perm"
  top: "ssd4_2_mbox_conf_flat"
  flatten_param {
    axis: 1
  }
}
layer {
  name: "ssd4_2_mbox_priorbox"
  type: "PriorBox"
  bottom: "ssd4_2"
  bottom: "data"
  top: "ssd4_2_mbox_priorbox"
  prior_box_param {
    min_size: 150
    max_size: 180
    clip: false
    variance: 0.1
    variance: 0.1
    variance: 0.2
    variance: 0.2
    step: 300
    offset: 0.5
  }
}
layer {
  name: "mbox_loc"
  type: "Concat"
  bottom: "conv4_3_norm_mbox_loc_flat"
  bottom: "fc7_mbox_loc_flat"
  bottom: "ssd1_2_mbox_loc_flat"
  bottom: "ssd2_2_mbox_loc_flat"
  bottom: "ssd3_2_mbox_loc_flat"
  bottom: "ssd4_2_mbox_loc_flat"
  top: "mbox_loc"
  concat_param {
    axis: 1
  }
}
layer {
  name: "mbox_conf"
  type: "Concat"
  bottom: "conv4_3_norm_mbox_conf_flat"
  bottom: "fc7_mbox_conf_flat"
  bottom: "ssd1_2_mbox_conf_flat"
  bottom: "ssd2_2_mbox_conf_flat"
  bottom: "ssd3_2_mbox_conf_flat"
  bottom: "ssd4_2_mbox_conf_flat"
  top: "mbox_conf"
  concat_param {
    axis: 1
  }
}
layer {
  name: "mbox_priorbox"
  type: "Concat"
  bottom: "conv4_3_norm_mbox_priorbox"
  bottom: "fc7_mbox_priorbox"
  bottom: "ssd1_2_mbox_priorbox"
  bottom: "ssd2_2_mbox_priorbox"
  bottom: "ssd3_2_mbox_priorbox"
  bottom: "ssd4_2_mbox_priorbox"
  top: "mbox_priorbox"
  concat_param {
    axis: 2
  }
}
layer {
  name: "mbox_conf_reshape"
  type: "Reshape"
  bottom: "mbox_conf"
  top: "mbox_conf_reshape"
  reshape_param {
    shape {
      dim: 0
      dim: -1
      dim: 5
    }
  }
}
layer {
  name: "mbox_conf_softmax"
  type: "Softmax"
  bottom: "mbox_conf_reshape"
  top: "mbox_conf_softmax"
  softmax_param {
    axis: 2
  }
}
layer {
  name: "mbox_conf_flatten"
  type: "Flatten"
  bottom: "mbox_conf_softmax"
  top: "mbox_conf_flatten"
  flatten_param {
    axis: 1
  }
}
layer {
  name: "detection_out"
  type: "DetectionOutput"
  bottom: "mbox_loc"
  bottom: "mbox_conf_flatten"
  bottom: "mbox_priorbox"
  top: "detection_out"
  include {
    phase: TEST
  }
  detection_output_param {
    num_classes: 5
    share_location: true
    background_label_id: 0
    nms_param {
      nms_threshold: 0.45
      top_k: 100
    }
    save_output_param {
      output_directory: "/home/zhongyilin/Documents/data/GTSDBdevkit/results/GTSDB/SSD_510x300_100_40_6_True/Main"
      output_name_prefix: "comp4_det_test_"
      output_format: "VOC"
      label_map_file: "data/GTSDB/labelmap_GTSDB.prototxt"
      name_size_file: "data/GTSDB/test_name_size.txt"
      num_test_image: 153
    }
    code_type: CENTER_SIZE
    keep_top_k: 40
    confidence_threshold: 0.01
  }
}
layer {
  name: "detection_eval"
  type: "DetectionEvaluate"
  bottom: "detection_out"
  bottom: "label"
  top: "detection_eval"
  include {
    phase: TEST
  }
  detection_evaluate_param {
    num_classes: 5
    background_label_id: 0
    overlap_threshold: 0.5
    evaluate_difficult_gt: false
    name_size_file: "data/GTSDB/test_name_size.txt"
  }
}
I0906 23:25:28.682648 13884 layer_factory.hpp:77] Creating layer data
I0906 23:25:28.682683 13884 net.cpp:100] Creating Layer data
I0906 23:25:28.682688 13884 net.cpp:408] data -> data
I0906 23:25:28.682694 13884 net.cpp:408] data -> label
I0906 23:25:28.683622 13900 db_lmdb.cpp:35] Opened lmdb examples/GTSDB/GTSDB_test_lmdb
I0906 23:25:28.693588 13884 annotated_data_layer.cpp:62] output data size: 1,3,300,510
I0906 23:25:28.696384 13884 net.cpp:150] Setting up data
I0906 23:25:28.696399 13884 net.cpp:157] Top shape: 1 3 300 510 (459000)
I0906 23:25:28.696403 13884 net.cpp:157] Top shape: 1 1 1 8 (8)
I0906 23:25:28.696405 13884 net.cpp:165] Memory required for data: 1836032
I0906 23:25:28.696410 13884 layer_factory.hpp:77] Creating layer data_data_0_split
I0906 23:25:28.696422 13884 net.cpp:100] Creating Layer data_data_0_split
I0906 23:25:28.696425 13884 net.cpp:434] data_data_0_split <- data
I0906 23:25:28.696431 13884 net.cpp:408] data_data_0_split -> data_data_0_split_0
I0906 23:25:28.696441 13884 net.cpp:408] data_data_0_split -> data_data_0_split_1
I0906 23:25:28.696447 13884 net.cpp:408] data_data_0_split -> data_data_0_split_2
I0906 23:25:28.696454 13884 net.cpp:408] data_data_0_split -> data_data_0_split_3
I0906 23:25:28.696460 13884 net.cpp:408] data_data_0_split -> data_data_0_split_4
I0906 23:25:28.696465 13884 net.cpp:408] data_data_0_split -> data_data_0_split_5
I0906 23:25:28.696470 13884 net.cpp:408] data_data_0_split -> data_data_0_split_6
I0906 23:25:28.696565 13884 net.cpp:150] Setting up data_data_0_split
I0906 23:25:28.696570 13884 net.cpp:157] Top shape: 1 3 300 510 (459000)
I0906 23:25:28.696575 13884 net.cpp:157] Top shape: 1 3 300 510 (459000)
I0906 23:25:28.696579 13884 net.cpp:157] Top shape: 1 3 300 510 (459000)
I0906 23:25:28.696584 13884 net.cpp:157] Top shape: 1 3 300 510 (459000)
I0906 23:25:28.696588 13884 net.cpp:157] Top shape: 1 3 300 510 (459000)
I0906 23:25:28.696593 13884 net.cpp:157] Top shape: 1 3 300 510 (459000)
I0906 23:25:28.696597 13884 net.cpp:157] Top shape: 1 3 300 510 (459000)
I0906 23:25:28.696601 13884 net.cpp:165] Memory required for data: 14688032
I0906 23:25:28.696604 13884 layer_factory.hpp:77] Creating layer conv1_1
I0906 23:25:28.696614 13884 net.cpp:100] Creating Layer conv1_1
I0906 23:25:28.696617 13884 net.cpp:434] conv1_1 <- data_data_0_split_0
I0906 23:25:28.696624 13884 net.cpp:408] conv1_1 -> conv1_1
I0906 23:25:28.697742 13884 net.cpp:150] Setting up conv1_1
I0906 23:25:28.697751 13884 net.cpp:157] Top shape: 1 64 300 510 (9792000)
I0906 23:25:28.697754 13884 net.cpp:165] Memory required for data: 53856032
I0906 23:25:28.697762 13884 layer_factory.hpp:77] Creating layer relu1_1
I0906 23:25:28.697768 13884 net.cpp:100] Creating Layer relu1_1
I0906 23:25:28.697772 13884 net.cpp:434] relu1_1 <- conv1_1
I0906 23:25:28.697777 13884 net.cpp:395] relu1_1 -> conv1_1 (in-place)
I0906 23:25:28.698081 13884 net.cpp:150] Setting up relu1_1
I0906 23:25:28.698088 13884 net.cpp:157] Top shape: 1 64 300 510 (9792000)
I0906 23:25:28.698091 13884 net.cpp:165] Memory required for data: 93024032
I0906 23:25:28.698094 13884 layer_factory.hpp:77] Creating layer conv1_2
I0906 23:25:28.698102 13884 net.cpp:100] Creating Layer conv1_2
I0906 23:25:28.698105 13884 net.cpp:434] conv1_2 <- conv1_1
I0906 23:25:28.698112 13884 net.cpp:408] conv1_2 -> conv1_2
I0906 23:25:28.699205 13884 net.cpp:150] Setting up conv1_2
I0906 23:25:28.699213 13884 net.cpp:157] Top shape: 1 64 300 510 (9792000)
I0906 23:25:28.699216 13884 net.cpp:165] Memory required for data: 132192032
I0906 23:25:28.699224 13884 layer_factory.hpp:77] Creating layer relu1_2
I0906 23:25:28.699239 13884 net.cpp:100] Creating Layer relu1_2
I0906 23:25:28.699242 13884 net.cpp:434] relu1_2 <- conv1_2
I0906 23:25:28.699247 13884 net.cpp:395] relu1_2 -> conv1_2 (in-place)
I0906 23:25:28.699453 13884 net.cpp:150] Setting up relu1_2
I0906 23:25:28.699460 13884 net.cpp:157] Top shape: 1 64 300 510 (9792000)
I0906 23:25:28.699462 13884 net.cpp:165] Memory required for data: 171360032
I0906 23:25:28.699465 13884 layer_factory.hpp:77] Creating layer pool1
I0906 23:25:28.699471 13884 net.cpp:100] Creating Layer pool1
I0906 23:25:28.699476 13884 net.cpp:434] pool1 <- conv1_2
I0906 23:25:28.699479 13884 net.cpp:408] pool1 -> pool1
I0906 23:25:28.699513 13884 net.cpp:150] Setting up pool1
I0906 23:25:28.699518 13884 net.cpp:157] Top shape: 1 64 150 255 (2448000)
I0906 23:25:28.699522 13884 net.cpp:165] Memory required for data: 181152032
I0906 23:25:28.699524 13884 layer_factory.hpp:77] Creating layer conv2_1
I0906 23:25:28.699530 13884 net.cpp:100] Creating Layer conv2_1
I0906 23:25:28.699534 13884 net.cpp:434] conv2_1 <- pool1
I0906 23:25:28.699538 13884 net.cpp:408] conv2_1 -> conv2_1
I0906 23:25:28.700733 13884 net.cpp:150] Setting up conv2_1
I0906 23:25:28.700742 13884 net.cpp:157] Top shape: 1 128 150 255 (4896000)
I0906 23:25:28.700744 13884 net.cpp:165] Memory required for data: 200736032
I0906 23:25:28.700752 13884 layer_factory.hpp:77] Creating layer relu2_1
I0906 23:25:28.700758 13884 net.cpp:100] Creating Layer relu2_1
I0906 23:25:28.700762 13884 net.cpp:434] relu2_1 <- conv2_1
I0906 23:25:28.700767 13884 net.cpp:395] relu2_1 -> conv2_1 (in-place)
I0906 23:25:28.700964 13884 net.cpp:150] Setting up relu2_1
I0906 23:25:28.700970 13884 net.cpp:157] Top shape: 1 128 150 255 (4896000)
I0906 23:25:28.700973 13884 net.cpp:165] Memory required for data: 220320032
I0906 23:25:28.700976 13884 layer_factory.hpp:77] Creating layer conv2_2
I0906 23:25:28.700984 13884 net.cpp:100] Creating Layer conv2_2
I0906 23:25:28.700987 13884 net.cpp:434] conv2_2 <- conv2_1
I0906 23:25:28.700992 13884 net.cpp:408] conv2_2 -> conv2_2
I0906 23:25:28.702414 13884 net.cpp:150] Setting up conv2_2
I0906 23:25:28.702422 13884 net.cpp:157] Top shape: 1 128 150 255 (4896000)
I0906 23:25:28.702425 13884 net.cpp:165] Memory required for data: 239904032
I0906 23:25:28.702431 13884 layer_factory.hpp:77] Creating layer relu2_2
I0906 23:25:28.702437 13884 net.cpp:100] Creating Layer relu2_2
I0906 23:25:28.702440 13884 net.cpp:434] relu2_2 <- conv2_2
I0906 23:25:28.702445 13884 net.cpp:395] relu2_2 -> conv2_2 (in-place)
I0906 23:25:28.702677 13884 net.cpp:150] Setting up relu2_2
I0906 23:25:28.702683 13884 net.cpp:157] Top shape: 1 128 150 255 (4896000)
I0906 23:25:28.702687 13884 net.cpp:165] Memory required for data: 259488032
I0906 23:25:28.702689 13884 layer_factory.hpp:77] Creating layer pool2
I0906 23:25:28.702694 13884 net.cpp:100] Creating Layer pool2
I0906 23:25:28.702698 13884 net.cpp:434] pool2 <- conv2_2
I0906 23:25:28.702703 13884 net.cpp:408] pool2 -> pool2
I0906 23:25:28.702739 13884 net.cpp:150] Setting up pool2
I0906 23:25:28.702745 13884 net.cpp:157] Top shape: 1 128 75 128 (1228800)
I0906 23:25:28.702749 13884 net.cpp:165] Memory required for data: 264403232
I0906 23:25:28.702751 13884 layer_factory.hpp:77] Creating layer conv3_1
I0906 23:25:28.702759 13884 net.cpp:100] Creating Layer conv3_1
I0906 23:25:28.702761 13884 net.cpp:434] conv3_1 <- pool2
I0906 23:25:28.702769 13884 net.cpp:408] conv3_1 -> conv3_1
I0906 23:25:28.705219 13884 net.cpp:150] Setting up conv3_1
I0906 23:25:28.705229 13884 net.cpp:157] Top shape: 1 256 75 128 (2457600)
I0906 23:25:28.705231 13884 net.cpp:165] Memory required for data: 274233632
I0906 23:25:28.705241 13884 layer_factory.hpp:77] Creating layer relu3_1
I0906 23:25:28.705247 13884 net.cpp:100] Creating Layer relu3_1
I0906 23:25:28.705250 13884 net.cpp:434] relu3_1 <- conv3_1
I0906 23:25:28.705255 13884 net.cpp:395] relu3_1 -> conv3_1 (in-place)
I0906 23:25:28.705591 13884 net.cpp:150] Setting up relu3_1
I0906 23:25:28.705598 13884 net.cpp:157] Top shape: 1 256 75 128 (2457600)
I0906 23:25:28.705612 13884 net.cpp:165] Memory required for data: 284064032
I0906 23:25:28.705615 13884 layer_factory.hpp:77] Creating layer conv3_2
I0906 23:25:28.705624 13884 net.cpp:100] Creating Layer conv3_2
I0906 23:25:28.705627 13884 net.cpp:434] conv3_2 <- conv3_1
I0906 23:25:28.705633 13884 net.cpp:408] conv3_2 -> conv3_2
I0906 23:25:28.708968 13884 net.cpp:150] Setting up conv3_2
I0906 23:25:28.708981 13884 net.cpp:157] Top shape: 1 256 75 128 (2457600)
I0906 23:25:28.708983 13884 net.cpp:165] Memory required for data: 293894432
I0906 23:25:28.708989 13884 layer_factory.hpp:77] Creating layer relu3_2
I0906 23:25:28.708995 13884 net.cpp:100] Creating Layer relu3_2
I0906 23:25:28.709000 13884 net.cpp:434] relu3_2 <- conv3_2
I0906 23:25:28.709005 13884 net.cpp:395] relu3_2 -> conv3_2 (in-place)
I0906 23:25:28.709343 13884 net.cpp:150] Setting up relu3_2
I0906 23:25:28.709350 13884 net.cpp:157] Top shape: 1 256 75 128 (2457600)
I0906 23:25:28.709353 13884 net.cpp:165] Memory required for data: 303724832
I0906 23:25:28.709357 13884 layer_factory.hpp:77] Creating layer conv3_3
I0906 23:25:28.709367 13884 net.cpp:100] Creating Layer conv3_3
I0906 23:25:28.709369 13884 net.cpp:434] conv3_3 <- conv3_2
I0906 23:25:28.709375 13884 net.cpp:408] conv3_3 -> conv3_3
I0906 23:25:28.712831 13884 net.cpp:150] Setting up conv3_3
I0906 23:25:28.712843 13884 net.cpp:157] Top shape: 1 256 75 128 (2457600)
I0906 23:25:28.712846 13884 net.cpp:165] Memory required for data: 313555232
I0906 23:25:28.712852 13884 layer_factory.hpp:77] Creating layer relu3_3
I0906 23:25:28.712860 13884 net.cpp:100] Creating Layer relu3_3
I0906 23:25:28.712864 13884 net.cpp:434] relu3_3 <- conv3_3
I0906 23:25:28.712868 13884 net.cpp:395] relu3_3 -> conv3_3 (in-place)
I0906 23:25:28.713107 13884 net.cpp:150] Setting up relu3_3
I0906 23:25:28.713114 13884 net.cpp:157] Top shape: 1 256 75 128 (2457600)
I0906 23:25:28.713115 13884 net.cpp:165] Memory required for data: 323385632
I0906 23:25:28.713119 13884 layer_factory.hpp:77] Creating layer pool3
I0906 23:25:28.713124 13884 net.cpp:100] Creating Layer pool3
I0906 23:25:28.713129 13884 net.cpp:434] pool3 <- conv3_3
I0906 23:25:28.713133 13884 net.cpp:408] pool3 -> pool3
I0906 23:25:28.713171 13884 net.cpp:150] Setting up pool3
I0906 23:25:28.713176 13884 net.cpp:157] Top shape: 1 256 38 64 (622592)
I0906 23:25:28.713178 13884 net.cpp:165] Memory required for data: 325876000
I0906 23:25:28.713181 13884 layer_factory.hpp:77] Creating layer conv4_1
I0906 23:25:28.713189 13884 net.cpp:100] Creating Layer conv4_1
I0906 23:25:28.713193 13884 net.cpp:434] conv4_1 <- pool3
I0906 23:25:28.713198 13884 net.cpp:408] conv4_1 -> conv4_1
I0906 23:25:28.718953 13884 net.cpp:150] Setting up conv4_1
I0906 23:25:28.718971 13884 net.cpp:157] Top shape: 1 512 38 64 (1245184)
I0906 23:25:28.718974 13884 net.cpp:165] Memory required for data: 330856736
I0906 23:25:28.718982 13884 layer_factory.hpp:77] Creating layer relu4_1
I0906 23:25:28.718989 13884 net.cpp:100] Creating Layer relu4_1
I0906 23:25:28.718994 13884 net.cpp:434] relu4_1 <- conv4_1
I0906 23:25:28.719002 13884 net.cpp:395] relu4_1 -> conv4_1 (in-place)
I0906 23:25:28.719244 13884 net.cpp:150] Setting up relu4_1
I0906 23:25:28.719251 13884 net.cpp:157] Top shape: 1 512 38 64 (1245184)
I0906 23:25:28.719255 13884 net.cpp:165] Memory required for data: 335837472
I0906 23:25:28.719259 13884 layer_factory.hpp:77] Creating layer conv4_2
I0906 23:25:28.719269 13884 net.cpp:100] Creating Layer conv4_2
I0906 23:25:28.719271 13884 net.cpp:434] conv4_2 <- conv4_1
I0906 23:25:28.719276 13884 net.cpp:408] conv4_2 -> conv4_2
I0906 23:25:28.729346 13884 net.cpp:150] Setting up conv4_2
I0906 23:25:28.729364 13884 net.cpp:157] Top shape: 1 512 38 64 (1245184)
I0906 23:25:28.729367 13884 net.cpp:165] Memory required for data: 340818208
I0906 23:25:28.729379 13884 layer_factory.hpp:77] Creating layer relu4_2
I0906 23:25:28.729387 13884 net.cpp:100] Creating Layer relu4_2
I0906 23:25:28.729391 13884 net.cpp:434] relu4_2 <- conv4_2
I0906 23:25:28.729398 13884 net.cpp:395] relu4_2 -> conv4_2 (in-place)
I0906 23:25:28.729648 13884 net.cpp:150] Setting up relu4_2
I0906 23:25:28.729655 13884 net.cpp:157] Top shape: 1 512 38 64 (1245184)
I0906 23:25:28.729658 13884 net.cpp:165] Memory required for data: 345798944
I0906 23:25:28.729661 13884 layer_factory.hpp:77] Creating layer conv4_3
I0906 23:25:28.729670 13884 net.cpp:100] Creating Layer conv4_3
I0906 23:25:28.729673 13884 net.cpp:434] conv4_3 <- conv4_2
I0906 23:25:28.729679 13884 net.cpp:408] conv4_3 -> conv4_3
I0906 23:25:28.739787 13884 net.cpp:150] Setting up conv4_3
I0906 23:25:28.739804 13884 net.cpp:157] Top shape: 1 512 38 64 (1245184)
I0906 23:25:28.739807 13884 net.cpp:165] Memory required for data: 350779680
I0906 23:25:28.739815 13884 layer_factory.hpp:77] Creating layer relu4_3
I0906 23:25:28.739822 13884 net.cpp:100] Creating Layer relu4_3
I0906 23:25:28.739827 13884 net.cpp:434] relu4_3 <- conv4_3
I0906 23:25:28.739835 13884 net.cpp:395] relu4_3 -> conv4_3 (in-place)
I0906 23:25:28.740186 13884 net.cpp:150] Setting up relu4_3
I0906 23:25:28.740195 13884 net.cpp:157] Top shape: 1 512 38 64 (1245184)
I0906 23:25:28.740197 13884 net.cpp:165] Memory required for data: 355760416
I0906 23:25:28.740200 13884 layer_factory.hpp:77] Creating layer conv4_3_relu4_3_0_split
I0906 23:25:28.740207 13884 net.cpp:100] Creating Layer conv4_3_relu4_3_0_split
I0906 23:25:28.740211 13884 net.cpp:434] conv4_3_relu4_3_0_split <- conv4_3
I0906 23:25:28.740216 13884 net.cpp:408] conv4_3_relu4_3_0_split -> conv4_3_relu4_3_0_split_0
I0906 23:25:28.740222 13884 net.cpp:408] conv4_3_relu4_3_0_split -> conv4_3_relu4_3_0_split_1
I0906 23:25:28.740259 13884 net.cpp:150] Setting up conv4_3_relu4_3_0_split
I0906 23:25:28.740264 13884 net.cpp:157] Top shape: 1 512 38 64 (1245184)
I0906 23:25:28.740268 13884 net.cpp:157] Top shape: 1 512 38 64 (1245184)
I0906 23:25:28.740272 13884 net.cpp:165] Memory required for data: 365721888
I0906 23:25:28.740274 13884 layer_factory.hpp:77] Creating layer pool4
I0906 23:25:28.740279 13884 net.cpp:100] Creating Layer pool4
I0906 23:25:28.740283 13884 net.cpp:434] pool4 <- conv4_3_relu4_3_0_split_0
I0906 23:25:28.740288 13884 net.cpp:408] pool4 -> pool4
I0906 23:25:28.740321 13884 net.cpp:150] Setting up pool4
I0906 23:25:28.740325 13884 net.cpp:157] Top shape: 1 512 19 32 (311296)
I0906 23:25:28.740329 13884 net.cpp:165] Memory required for data: 366967072
I0906 23:25:28.740332 13884 layer_factory.hpp:77] Creating layer conv5_1
I0906 23:25:28.740342 13884 net.cpp:100] Creating Layer conv5_1
I0906 23:25:28.740345 13884 net.cpp:434] conv5_1 <- pool4
I0906 23:25:28.740351 13884 net.cpp:408] conv5_1 -> conv5_1
I0906 23:25:28.758168 13884 net.cpp:150] Setting up conv5_1
I0906 23:25:28.758184 13884 net.cpp:157] Top shape: 1 512 19 32 (311296)
I0906 23:25:28.758186 13884 net.cpp:165] Memory required for data: 368212256
I0906 23:25:28.758194 13884 layer_factory.hpp:77] Creating layer relu5_1
I0906 23:25:28.758203 13884 net.cpp:100] Creating Layer relu5_1
I0906 23:25:28.758208 13884 net.cpp:434] relu5_1 <- conv5_1
I0906 23:25:28.758214 13884 net.cpp:395] relu5_1 -> conv5_1 (in-place)
I0906 23:25:28.758450 13884 net.cpp:150] Setting up relu5_1
I0906 23:25:28.758457 13884 net.cpp:157] Top shape: 1 512 19 32 (311296)
I0906 23:25:28.758460 13884 net.cpp:165] Memory required for data: 369457440
I0906 23:25:28.758463 13884 layer_factory.hpp:77] Creating layer conv5_2
I0906 23:25:28.758472 13884 net.cpp:100] Creating Layer conv5_2
I0906 23:25:28.758479 13884 net.cpp:434] conv5_2 <- conv5_1
I0906 23:25:28.758486 13884 net.cpp:408] conv5_2 -> conv5_2
I0906 23:25:28.772058 13884 net.cpp:150] Setting up conv5_2
I0906 23:25:28.772073 13884 net.cpp:157] Top shape: 1 512 19 32 (311296)
I0906 23:25:28.772076 13884 net.cpp:165] Memory required for data: 370702624
I0906 23:25:28.772083 13884 layer_factory.hpp:77] Creating layer relu5_2
I0906 23:25:28.772091 13884 net.cpp:100] Creating Layer relu5_2
I0906 23:25:28.772095 13884 net.cpp:434] relu5_2 <- conv5_2
I0906 23:25:28.772101 13884 net.cpp:395] relu5_2 -> conv5_2 (in-place)
I0906 23:25:28.772954 13884 net.cpp:150] Setting up relu5_2
I0906 23:25:28.772974 13884 net.cpp:157] Top shape: 1 512 19 32 (311296)
I0906 23:25:28.772977 13884 net.cpp:165] Memory required for data: 371947808
I0906 23:25:28.772981 13884 layer_factory.hpp:77] Creating layer conv5_3
I0906 23:25:28.772992 13884 net.cpp:100] Creating Layer conv5_3
I0906 23:25:28.773000 13884 net.cpp:434] conv5_3 <- conv5_2
I0906 23:25:28.773008 13884 net.cpp:408] conv5_3 -> conv5_3
I0906 23:25:28.783134 13884 net.cpp:150] Setting up conv5_3
I0906 23:25:28.783150 13884 net.cpp:157] Top shape: 1 512 19 32 (311296)
I0906 23:25:28.783152 13884 net.cpp:165] Memory required for data: 373192992
I0906 23:25:28.783159 13884 layer_factory.hpp:77] Creating layer relu5_3
I0906 23:25:28.783172 13884 net.cpp:100] Creating Layer relu5_3
I0906 23:25:28.783176 13884 net.cpp:434] relu5_3 <- conv5_3
I0906 23:25:28.783181 13884 net.cpp:395] relu5_3 -> conv5_3 (in-place)
I0906 23:25:28.783422 13884 net.cpp:150] Setting up relu5_3
I0906 23:25:28.783429 13884 net.cpp:157] Top shape: 1 512 19 32 (311296)
I0906 23:25:28.783432 13884 net.cpp:165] Memory required for data: 374438176
I0906 23:25:28.783435 13884 layer_factory.hpp:77] Creating layer pool5
I0906 23:25:28.783442 13884 net.cpp:100] Creating Layer pool5
I0906 23:25:28.783445 13884 net.cpp:434] pool5 <- conv5_3
I0906 23:25:28.783450 13884 net.cpp:408] pool5 -> pool5
I0906 23:25:28.783489 13884 net.cpp:150] Setting up pool5
I0906 23:25:28.783493 13884 net.cpp:157] Top shape: 1 512 19 32 (311296)
I0906 23:25:28.783496 13884 net.cpp:165] Memory required for data: 375683360
I0906 23:25:28.783499 13884 layer_factory.hpp:77] Creating layer fc6
I0906 23:25:28.783509 13884 net.cpp:100] Creating Layer fc6
I0906 23:25:28.783510 13884 net.cpp:434] fc6 <- pool5
I0906 23:25:28.783517 13884 net.cpp:408] fc6 -> fc6
I0906 23:25:28.801435 13884 net.cpp:150] Setting up fc6
I0906 23:25:28.801452 13884 net.cpp:157] Top shape: 1 1024 19 32 (622592)
I0906 23:25:28.801455 13884 net.cpp:165] Memory required for data: 378173728
I0906 23:25:28.801462 13884 layer_factory.hpp:77] Creating layer relu6
I0906 23:25:28.801471 13884 net.cpp:100] Creating Layer relu6
I0906 23:25:28.801476 13884 net.cpp:434] relu6 <- fc6
I0906 23:25:28.801481 13884 net.cpp:395] relu6 -> fc6 (in-place)
I0906 23:25:28.802016 13884 net.cpp:150] Setting up relu6
I0906 23:25:28.802024 13884 net.cpp:157] Top shape: 1 1024 19 32 (622592)
I0906 23:25:28.802027 13884 net.cpp:165] Memory required for data: 380664096
I0906 23:25:28.802031 13884 layer_factory.hpp:77] Creating layer fc7
I0906 23:25:28.802040 13884 net.cpp:100] Creating Layer fc7
I0906 23:25:28.802044 13884 net.cpp:434] fc7 <- fc6
I0906 23:25:28.802049 13884 net.cpp:408] fc7 -> fc7
I0906 23:25:28.807168 13884 net.cpp:150] Setting up fc7
I0906 23:25:28.807184 13884 net.cpp:157] Top shape: 1 1024 19 32 (622592)
I0906 23:25:28.807186 13884 net.cpp:165] Memory required for data: 383154464
I0906 23:25:28.807193 13884 layer_factory.hpp:77] Creating layer relu7
I0906 23:25:28.807200 13884 net.cpp:100] Creating Layer relu7
I0906 23:25:28.807205 13884 net.cpp:434] relu7 <- fc7
I0906 23:25:28.807210 13884 net.cpp:395] relu7 -> fc7 (in-place)
I0906 23:25:28.807456 13884 net.cpp:150] Setting up relu7
I0906 23:25:28.807462 13884 net.cpp:157] Top shape: 1 1024 19 32 (622592)
I0906 23:25:28.807466 13884 net.cpp:165] Memory required for data: 385644832
I0906 23:25:28.807468 13884 layer_factory.hpp:77] Creating layer fc7_relu7_0_split
I0906 23:25:28.807473 13884 net.cpp:100] Creating Layer fc7_relu7_0_split
I0906 23:25:28.807477 13884 net.cpp:434] fc7_relu7_0_split <- fc7
I0906 23:25:28.807483 13884 net.cpp:408] fc7_relu7_0_split -> fc7_relu7_0_split_0
I0906 23:25:28.807490 13884 net.cpp:408] fc7_relu7_0_split -> fc7_relu7_0_split_1
I0906 23:25:28.807502 13884 net.cpp:408] fc7_relu7_0_split -> fc7_relu7_0_split_2
I0906 23:25:28.807507 13884 net.cpp:408] fc7_relu7_0_split -> fc7_relu7_0_split_3
I0906 23:25:28.807569 13884 net.cpp:150] Setting up fc7_relu7_0_split
I0906 23:25:28.807574 13884 net.cpp:157] Top shape: 1 1024 19 32 (622592)
I0906 23:25:28.807579 13884 net.cpp:157] Top shape: 1 1024 19 32 (622592)
I0906 23:25:28.807590 13884 net.cpp:157] Top shape: 1 1024 19 32 (622592)
I0906 23:25:28.807595 13884 net.cpp:157] Top shape: 1 1024 19 32 (622592)
I0906 23:25:28.807598 13884 net.cpp:165] Memory required for data: 395606304
I0906 23:25:28.807601 13884 layer_factory.hpp:77] Creating layer ssd1_1
I0906 23:25:28.807610 13884 net.cpp:100] Creating Layer ssd1_1
I0906 23:25:28.807615 13884 net.cpp:434] ssd1_1 <- fc7_relu7_0_split_0
I0906 23:25:28.807621 13884 net.cpp:408] ssd1_1 -> ssd1_1
I0906 23:25:28.809939 13884 net.cpp:150] Setting up ssd1_1
I0906 23:25:28.809948 13884 net.cpp:157] Top shape: 1 256 19 32 (155648)
I0906 23:25:28.809952 13884 net.cpp:165] Memory required for data: 396228896
I0906 23:25:28.809957 13884 layer_factory.hpp:77] Creating layer ssd1_1_relu
I0906 23:25:28.809964 13884 net.cpp:100] Creating Layer ssd1_1_relu
I0906 23:25:28.809967 13884 net.cpp:434] ssd1_1_relu <- ssd1_1
I0906 23:25:28.809974 13884 net.cpp:395] ssd1_1_relu -> ssd1_1 (in-place)
I0906 23:25:28.810211 13884 net.cpp:150] Setting up ssd1_1_relu
I0906 23:25:28.810217 13884 net.cpp:157] Top shape: 1 256 19 32 (155648)
I0906 23:25:28.810220 13884 net.cpp:165] Memory required for data: 396851488
I0906 23:25:28.810225 13884 layer_factory.hpp:77] Creating layer ssd1_2
I0906 23:25:28.810233 13884 net.cpp:100] Creating Layer ssd1_2
I0906 23:25:28.810236 13884 net.cpp:434] ssd1_2 <- ssd1_1
I0906 23:25:28.810242 13884 net.cpp:408] ssd1_2 -> ssd1_2
I0906 23:25:28.815948 13884 net.cpp:150] Setting up ssd1_2
I0906 23:25:28.815963 13884 net.cpp:157] Top shape: 1 512 10 16 (81920)
I0906 23:25:28.815966 13884 net.cpp:165] Memory required for data: 397179168
I0906 23:25:28.815979 13884 layer_factory.hpp:77] Creating layer ssd1_2_relu
I0906 23:25:28.815986 13884 net.cpp:100] Creating Layer ssd1_2_relu
I0906 23:25:28.815990 13884 net.cpp:434] ssd1_2_relu <- ssd1_2
I0906 23:25:28.815997 13884 net.cpp:395] ssd1_2_relu -> ssd1_2 (in-place)
I0906 23:25:28.816239 13884 net.cpp:150] Setting up ssd1_2_relu
I0906 23:25:28.816246 13884 net.cpp:157] Top shape: 1 512 10 16 (81920)
I0906 23:25:28.816248 13884 net.cpp:165] Memory required for data: 397506848
I0906 23:25:28.816251 13884 layer_factory.hpp:77] Creating layer ssd1_2_ssd1_2_relu_0_split
I0906 23:25:28.816258 13884 net.cpp:100] Creating Layer ssd1_2_ssd1_2_relu_0_split
I0906 23:25:28.816262 13884 net.cpp:434] ssd1_2_ssd1_2_relu_0_split <- ssd1_2
I0906 23:25:28.816267 13884 net.cpp:408] ssd1_2_ssd1_2_relu_0_split -> ssd1_2_ssd1_2_relu_0_split_0
I0906 23:25:28.816275 13884 net.cpp:408] ssd1_2_ssd1_2_relu_0_split -> ssd1_2_ssd1_2_relu_0_split_1
I0906 23:25:28.816282 13884 net.cpp:408] ssd1_2_ssd1_2_relu_0_split -> ssd1_2_ssd1_2_relu_0_split_2
I0906 23:25:28.816287 13884 net.cpp:408] ssd1_2_ssd1_2_relu_0_split -> ssd1_2_ssd1_2_relu_0_split_3
I0906 23:25:28.816346 13884 net.cpp:150] Setting up ssd1_2_ssd1_2_relu_0_split
I0906 23:25:28.816350 13884 net.cpp:157] Top shape: 1 512 10 16 (81920)
I0906 23:25:28.816355 13884 net.cpp:157] Top shape: 1 512 10 16 (81920)
I0906 23:25:28.816359 13884 net.cpp:157] Top shape: 1 512 10 16 (81920)
I0906 23:25:28.816365 13884 net.cpp:157] Top shape: 1 512 10 16 (81920)
I0906 23:25:28.816367 13884 net.cpp:165] Memory required for data: 398817568
I0906 23:25:28.816370 13884 layer_factory.hpp:77] Creating layer ssd2_1
I0906 23:25:28.816380 13884 net.cpp:100] Creating Layer ssd2_1
I0906 23:25:28.816383 13884 net.cpp:434] ssd2_1 <- ssd1_2_ssd1_2_relu_0_split_0
I0906 23:25:28.816390 13884 net.cpp:408] ssd2_1 -> ssd2_1
I0906 23:25:28.817636 13884 net.cpp:150] Setting up ssd2_1
I0906 23:25:28.817644 13884 net.cpp:157] Top shape: 1 128 10 16 (20480)
I0906 23:25:28.817647 13884 net.cpp:165] Memory required for data: 398899488
I0906 23:25:28.817653 13884 layer_factory.hpp:77] Creating layer ssd2_1_relu
I0906 23:25:28.817658 13884 net.cpp:100] Creating Layer ssd2_1_relu
I0906 23:25:28.817662 13884 net.cpp:434] ssd2_1_relu <- ssd2_1
I0906 23:25:28.817667 13884 net.cpp:395] ssd2_1_relu -> ssd2_1 (in-place)
I0906 23:25:28.817904 13884 net.cpp:150] Setting up ssd2_1_relu
I0906 23:25:28.817919 13884 net.cpp:157] Top shape: 1 128 10 16 (20480)
I0906 23:25:28.817922 13884 net.cpp:165] Memory required for data: 398981408
I0906 23:25:28.817925 13884 layer_factory.hpp:77] Creating layer ssd2_2
I0906 23:25:28.817935 13884 net.cpp:100] Creating Layer ssd2_2
I0906 23:25:28.817939 13884 net.cpp:434] ssd2_2 <- ssd2_1
I0906 23:25:28.817943 13884 net.cpp:408] ssd2_2 -> ssd2_2
I0906 23:25:28.820713 13884 net.cpp:150] Setting up ssd2_2
I0906 23:25:28.820726 13884 net.cpp:157] Top shape: 1 256 5 8 (10240)
I0906 23:25:28.820730 13884 net.cpp:165] Memory required for data: 399022368
I0906 23:25:28.820736 13884 layer_factory.hpp:77] Creating layer ssd2_2_relu
I0906 23:25:28.820742 13884 net.cpp:100] Creating Layer ssd2_2_relu
I0906 23:25:28.820746 13884 net.cpp:434] ssd2_2_relu <- ssd2_2
I0906 23:25:28.820752 13884 net.cpp:395] ssd2_2_relu -> ssd2_2 (in-place)
I0906 23:25:28.821137 13884 net.cpp:150] Setting up ssd2_2_relu
I0906 23:25:28.821146 13884 net.cpp:157] Top shape: 1 256 5 8 (10240)
I0906 23:25:28.821146 13884 net.cpp:165] Memory required for data: 399063328
I0906 23:25:28.821149 13884 layer_factory.hpp:77] Creating layer ssd2_2_ssd2_2_relu_0_split
I0906 23:25:28.821154 13884 net.cpp:100] Creating Layer ssd2_2_ssd2_2_relu_0_split
I0906 23:25:28.821156 13884 net.cpp:434] ssd2_2_ssd2_2_relu_0_split <- ssd2_2
I0906 23:25:28.821159 13884 net.cpp:408] ssd2_2_ssd2_2_relu_0_split -> ssd2_2_ssd2_2_relu_0_split_0
I0906 23:25:28.821164 13884 net.cpp:408] ssd2_2_ssd2_2_relu_0_split -> ssd2_2_ssd2_2_relu_0_split_1
I0906 23:25:28.821169 13884 net.cpp:408] ssd2_2_ssd2_2_relu_0_split -> ssd2_2_ssd2_2_relu_0_split_2
I0906 23:25:28.821172 13884 net.cpp:408] ssd2_2_ssd2_2_relu_0_split -> ssd2_2_ssd2_2_relu_0_split_3
I0906 23:25:28.821230 13884 net.cpp:150] Setting up ssd2_2_ssd2_2_relu_0_split
I0906 23:25:28.821234 13884 net.cpp:157] Top shape: 1 256 5 8 (10240)
I0906 23:25:28.821236 13884 net.cpp:157] Top shape: 1 256 5 8 (10240)
I0906 23:25:28.821238 13884 net.cpp:157] Top shape: 1 256 5 8 (10240)
I0906 23:25:28.821240 13884 net.cpp:157] Top shape: 1 256 5 8 (10240)
I0906 23:25:28.821243 13884 net.cpp:165] Memory required for data: 399227168
I0906 23:25:28.821244 13884 layer_factory.hpp:77] Creating layer ssd3_1
I0906 23:25:28.821251 13884 net.cpp:100] Creating Layer ssd3_1
I0906 23:25:28.821254 13884 net.cpp:434] ssd3_1 <- ssd2_2_ssd2_2_relu_0_split_0
I0906 23:25:28.821257 13884 net.cpp:408] ssd3_1 -> ssd3_1
I0906 23:25:28.822413 13884 net.cpp:150] Setting up ssd3_1
I0906 23:25:28.822420 13884 net.cpp:157] Top shape: 1 128 5 8 (5120)
I0906 23:25:28.822422 13884 net.cpp:165] Memory required for data: 399247648
I0906 23:25:28.822427 13884 layer_factory.hpp:77] Creating layer ssd3_1_relu
I0906 23:25:28.822430 13884 net.cpp:100] Creating Layer ssd3_1_relu
I0906 23:25:28.822432 13884 net.cpp:434] ssd3_1_relu <- ssd3_1
I0906 23:25:28.822435 13884 net.cpp:395] ssd3_1_relu -> ssd3_1 (in-place)
I0906 23:25:28.822666 13884 net.cpp:150] Setting up ssd3_1_relu
I0906 23:25:28.822671 13884 net.cpp:157] Top shape: 1 128 5 8 (5120)
I0906 23:25:28.822674 13884 net.cpp:165] Memory required for data: 399268128
I0906 23:25:28.822675 13884 layer_factory.hpp:77] Creating layer ssd3_2
I0906 23:25:28.822680 13884 net.cpp:100] Creating Layer ssd3_2
I0906 23:25:28.822682 13884 net.cpp:434] ssd3_2 <- ssd3_1
I0906 23:25:28.822686 13884 net.cpp:408] ssd3_2 -> ssd3_2
I0906 23:25:28.825227 13884 net.cpp:150] Setting up ssd3_2
I0906 23:25:28.825237 13884 net.cpp:157] Top shape: 1 256 3 6 (4608)
I0906 23:25:28.825238 13884 net.cpp:165] Memory required for data: 399286560
I0906 23:25:28.825242 13884 layer_factory.hpp:77] Creating layer ssd3_2_relu
I0906 23:25:28.825245 13884 net.cpp:100] Creating Layer ssd3_2_relu
I0906 23:25:28.825248 13884 net.cpp:434] ssd3_2_relu <- ssd3_2
I0906 23:25:28.825251 13884 net.cpp:395] ssd3_2_relu -> ssd3_2 (in-place)
I0906 23:25:28.825489 13884 net.cpp:150] Setting up ssd3_2_relu
I0906 23:25:28.825495 13884 net.cpp:157] Top shape: 1 256 3 6 (4608)
I0906 23:25:28.825497 13884 net.cpp:165] Memory required for data: 399304992
I0906 23:25:28.825510 13884 layer_factory.hpp:77] Creating layer ssd3_2_ssd3_2_relu_0_split
I0906 23:25:28.825513 13884 net.cpp:100] Creating Layer ssd3_2_ssd3_2_relu_0_split
I0906 23:25:28.825515 13884 net.cpp:434] ssd3_2_ssd3_2_relu_0_split <- ssd3_2
I0906 23:25:28.825520 13884 net.cpp:408] ssd3_2_ssd3_2_relu_0_split -> ssd3_2_ssd3_2_relu_0_split_0
I0906 23:25:28.825523 13884 net.cpp:408] ssd3_2_ssd3_2_relu_0_split -> ssd3_2_ssd3_2_relu_0_split_1
I0906 23:25:28.825527 13884 net.cpp:408] ssd3_2_ssd3_2_relu_0_split -> ssd3_2_ssd3_2_relu_0_split_2
I0906 23:25:28.825531 13884 net.cpp:408] ssd3_2_ssd3_2_relu_0_split -> ssd3_2_ssd3_2_relu_0_split_3
I0906 23:25:28.825587 13884 net.cpp:150] Setting up ssd3_2_ssd3_2_relu_0_split
I0906 23:25:28.825592 13884 net.cpp:157] Top shape: 1 256 3 6 (4608)
I0906 23:25:28.825593 13884 net.cpp:157] Top shape: 1 256 3 6 (4608)
I0906 23:25:28.825597 13884 net.cpp:157] Top shape: 1 256 3 6 (4608)
I0906 23:25:28.825598 13884 net.cpp:157] Top shape: 1 256 3 6 (4608)
I0906 23:25:28.825599 13884 net.cpp:165] Memory required for data: 399378720
I0906 23:25:28.825601 13884 layer_factory.hpp:77] Creating layer ssd4_1
I0906 23:25:28.825608 13884 net.cpp:100] Creating Layer ssd4_1
I0906 23:25:28.825609 13884 net.cpp:434] ssd4_1 <- ssd3_2_ssd3_2_relu_0_split_0
I0906 23:25:28.825613 13884 net.cpp:408] ssd4_1 -> ssd4_1
I0906 23:25:28.826778 13884 net.cpp:150] Setting up ssd4_1
I0906 23:25:28.826786 13884 net.cpp:157] Top shape: 1 128 3 6 (2304)
I0906 23:25:28.826787 13884 net.cpp:165] Memory required for data: 399387936
I0906 23:25:28.826792 13884 layer_factory.hpp:77] Creating layer ssd4_1_relu
I0906 23:25:28.826794 13884 net.cpp:100] Creating Layer ssd4_1_relu
I0906 23:25:28.826797 13884 net.cpp:434] ssd4_1_relu <- ssd4_1
I0906 23:25:28.826800 13884 net.cpp:395] ssd4_1_relu -> ssd4_1 (in-place)
I0906 23:25:28.827031 13884 net.cpp:150] Setting up ssd4_1_relu
I0906 23:25:28.827036 13884 net.cpp:157] Top shape: 1 128 3 6 (2304)
I0906 23:25:28.827037 13884 net.cpp:165] Memory required for data: 399397152
I0906 23:25:28.827040 13884 layer_factory.hpp:77] Creating layer ssd4_2
I0906 23:25:28.827046 13884 net.cpp:100] Creating Layer ssd4_2
I0906 23:25:28.827049 13884 net.cpp:434] ssd4_2 <- ssd4_1
I0906 23:25:28.827052 13884 net.cpp:408] ssd4_2 -> ssd4_2
I0906 23:25:28.829535 13884 net.cpp:150] Setting up ssd4_2
I0906 23:25:28.829545 13884 net.cpp:157] Top shape: 1 256 1 4 (1024)
I0906 23:25:28.829546 13884 net.cpp:165] Memory required for data: 399401248
I0906 23:25:28.829550 13884 layer_factory.hpp:77] Creating layer ssd4_2_relu
I0906 23:25:28.829555 13884 net.cpp:100] Creating Layer ssd4_2_relu
I0906 23:25:28.829556 13884 net.cpp:434] ssd4_2_relu <- ssd4_2
I0906 23:25:28.829560 13884 net.cpp:395] ssd4_2_relu -> ssd4_2 (in-place)
I0906 23:25:28.829895 13884 net.cpp:150] Setting up ssd4_2_relu
I0906 23:25:28.829901 13884 net.cpp:157] Top shape: 1 256 1 4 (1024)
I0906 23:25:28.829903 13884 net.cpp:165] Memory required for data: 399405344
I0906 23:25:28.829905 13884 layer_factory.hpp:77] Creating layer ssd4_2_ssd4_2_relu_0_split
I0906 23:25:28.829910 13884 net.cpp:100] Creating Layer ssd4_2_ssd4_2_relu_0_split
I0906 23:25:28.829911 13884 net.cpp:434] ssd4_2_ssd4_2_relu_0_split <- ssd4_2
I0906 23:25:28.829916 13884 net.cpp:408] ssd4_2_ssd4_2_relu_0_split -> ssd4_2_ssd4_2_relu_0_split_0
I0906 23:25:28.829919 13884 net.cpp:408] ssd4_2_ssd4_2_relu_0_split -> ssd4_2_ssd4_2_relu_0_split_1
I0906 23:25:28.829922 13884 net.cpp:408] ssd4_2_ssd4_2_relu_0_split -> ssd4_2_ssd4_2_relu_0_split_2
I0906 23:25:28.829967 13884 net.cpp:150] Setting up ssd4_2_ssd4_2_relu_0_split
I0906 23:25:28.829972 13884 net.cpp:157] Top shape: 1 256 1 4 (1024)
I0906 23:25:28.829973 13884 net.cpp:157] Top shape: 1 256 1 4 (1024)
I0906 23:25:28.829975 13884 net.cpp:157] Top shape: 1 256 1 4 (1024)
I0906 23:25:28.829977 13884 net.cpp:165] Memory required for data: 399417632
I0906 23:25:28.829979 13884 layer_factory.hpp:77] Creating layer conv4_3_norm
I0906 23:25:28.829983 13884 net.cpp:100] Creating Layer conv4_3_norm
I0906 23:25:28.829994 13884 net.cpp:434] conv4_3_norm <- conv4_3_relu4_3_0_split_1
I0906 23:25:28.829999 13884 net.cpp:408] conv4_3_norm -> conv4_3_norm
I0906 23:25:28.830132 13884 net.cpp:150] Setting up conv4_3_norm
I0906 23:25:28.830137 13884 net.cpp:157] Top shape: 1 512 38 64 (1245184)
I0906 23:25:28.830138 13884 net.cpp:165] Memory required for data: 404398368
I0906 23:25:28.830142 13884 layer_factory.hpp:77] Creating layer conv4_3_norm_conv4_3_norm_0_split
I0906 23:25:28.830144 13884 net.cpp:100] Creating Layer conv4_3_norm_conv4_3_norm_0_split
I0906 23:25:28.830147 13884 net.cpp:434] conv4_3_norm_conv4_3_norm_0_split <- conv4_3_norm
I0906 23:25:28.830149 13884 net.cpp:408] conv4_3_norm_conv4_3_norm_0_split -> conv4_3_norm_conv4_3_norm_0_split_0
I0906 23:25:28.830153 13884 net.cpp:408] conv4_3_norm_conv4_3_norm_0_split -> conv4_3_norm_conv4_3_norm_0_split_1
I0906 23:25:28.830157 13884 net.cpp:408] conv4_3_norm_conv4_3_norm_0_split -> conv4_3_norm_conv4_3_norm_0_split_2
I0906 23:25:28.830196 13884 net.cpp:150] Setting up conv4_3_norm_conv4_3_norm_0_split
I0906 23:25:28.830199 13884 net.cpp:157] Top shape: 1 512 38 64 (1245184)
I0906 23:25:28.830202 13884 net.cpp:157] Top shape: 1 512 38 64 (1245184)
I0906 23:25:28.830204 13884 net.cpp:157] Top shape: 1 512 38 64 (1245184)
I0906 23:25:28.830206 13884 net.cpp:165] Memory required for data: 419340576
I0906 23:25:28.830207 13884 layer_factory.hpp:77] Creating layer conv4_3_norm_mbox_loc
I0906 23:25:28.830212 13884 net.cpp:100] Creating Layer conv4_3_norm_mbox_loc
I0906 23:25:28.830214 13884 net.cpp:434] conv4_3_norm_mbox_loc <- conv4_3_norm_conv4_3_norm_0_split_0
I0906 23:25:28.830219 13884 net.cpp:408] conv4_3_norm_mbox_loc -> conv4_3_norm_mbox_loc
I0906 23:25:28.831583 13884 net.cpp:150] Setting up conv4_3_norm_mbox_loc
I0906 23:25:28.831594 13884 net.cpp:157] Top shape: 1 8 38 64 (19456)
I0906 23:25:28.831596 13884 net.cpp:165] Memory required for data: 419418400
I0906 23:25:28.831602 13884 layer_factory.hpp:77] Creating layer conv4_3_norm_mbox_loc_perm
I0906 23:25:28.831609 13884 net.cpp:100] Creating Layer conv4_3_norm_mbox_loc_perm
I0906 23:25:28.831612 13884 net.cpp:434] conv4_3_norm_mbox_loc_perm <- conv4_3_norm_mbox_loc
I0906 23:25:28.831619 13884 net.cpp:408] conv4_3_norm_mbox_loc_perm -> conv4_3_norm_mbox_loc_perm
I0906 23:25:28.831744 13884 net.cpp:150] Setting up conv4_3_norm_mbox_loc_perm
I0906 23:25:28.831748 13884 net.cpp:157] Top shape: 1 38 64 8 (19456)
I0906 23:25:28.831751 13884 net.cpp:165] Memory required for data: 419496224
I0906 23:25:28.831754 13884 layer_factory.hpp:77] Creating layer conv4_3_norm_mbox_loc_flat
I0906 23:25:28.831758 13884 net.cpp:100] Creating Layer conv4_3_norm_mbox_loc_flat
I0906 23:25:28.831761 13884 net.cpp:434] conv4_3_norm_mbox_loc_flat <- conv4_3_norm_mbox_loc_perm
I0906 23:25:28.831766 13884 net.cpp:408] conv4_3_norm_mbox_loc_flat -> conv4_3_norm_mbox_loc_flat
I0906 23:25:28.831799 13884 net.cpp:150] Setting up conv4_3_norm_mbox_loc_flat
I0906 23:25:28.831804 13884 net.cpp:157] Top shape: 1 19456 (19456)
I0906 23:25:28.831805 13884 net.cpp:165] Memory required for data: 419574048
I0906 23:25:28.831809 13884 layer_factory.hpp:77] Creating layer conv4_3_norm_mbox_conf
I0906 23:25:28.831820 13884 net.cpp:100] Creating Layer conv4_3_norm_mbox_conf
I0906 23:25:28.831823 13884 net.cpp:434] conv4_3_norm_mbox_conf <- conv4_3_norm_conv4_3_norm_0_split_1
I0906 23:25:28.831828 13884 net.cpp:408] conv4_3_norm_mbox_conf -> conv4_3_norm_mbox_conf
I0906 23:25:28.833322 13884 net.cpp:150] Setting up conv4_3_norm_mbox_conf
I0906 23:25:28.833329 13884 net.cpp:157] Top shape: 1 10 38 64 (24320)
I0906 23:25:28.833331 13884 net.cpp:165] Memory required for data: 419671328
I0906 23:25:28.833336 13884 layer_factory.hpp:77] Creating layer conv4_3_norm_mbox_conf_perm
I0906 23:25:28.833341 13884 net.cpp:100] Creating Layer conv4_3_norm_mbox_conf_perm
I0906 23:25:28.833344 13884 net.cpp:434] conv4_3_norm_mbox_conf_perm <- conv4_3_norm_mbox_conf
I0906 23:25:28.833348 13884 net.cpp:408] conv4_3_norm_mbox_conf_perm -> conv4_3_norm_mbox_conf_perm
I0906 23:25:28.833451 13884 net.cpp:150] Setting up conv4_3_norm_mbox_conf_perm
I0906 23:25:28.833456 13884 net.cpp:157] Top shape: 1 38 64 10 (24320)
I0906 23:25:28.833456 13884 net.cpp:165] Memory required for data: 419768608
I0906 23:25:28.833458 13884 layer_factory.hpp:77] Creating layer conv4_3_norm_mbox_conf_flat
I0906 23:25:28.833463 13884 net.cpp:100] Creating Layer conv4_3_norm_mbox_conf_flat
I0906 23:25:28.833465 13884 net.cpp:434] conv4_3_norm_mbox_conf_flat <- conv4_3_norm_mbox_conf_perm
I0906 23:25:28.833468 13884 net.cpp:408] conv4_3_norm_mbox_conf_flat -> conv4_3_norm_mbox_conf_flat
I0906 23:25:28.833487 13884 net.cpp:150] Setting up conv4_3_norm_mbox_conf_flat
I0906 23:25:28.833490 13884 net.cpp:157] Top shape: 1 24320 (24320)
I0906 23:25:28.833492 13884 net.cpp:165] Memory required for data: 419865888
I0906 23:25:28.833494 13884 layer_factory.hpp:77] Creating layer conv4_3_norm_mbox_priorbox
I0906 23:25:28.833498 13884 net.cpp:100] Creating Layer conv4_3_norm_mbox_priorbox
I0906 23:25:28.833501 13884 net.cpp:434] conv4_3_norm_mbox_priorbox <- conv4_3_norm_conv4_3_norm_0_split_2
I0906 23:25:28.833505 13884 net.cpp:434] conv4_3_norm_mbox_priorbox <- data_data_0_split_1
I0906 23:25:28.833508 13884 net.cpp:408] conv4_3_norm_mbox_priorbox -> conv4_3_norm_mbox_priorbox
I0906 23:25:28.833529 13884 net.cpp:150] Setting up conv4_3_norm_mbox_priorbox
I0906 23:25:28.833534 13884 net.cpp:157] Top shape: 1 2 19456 (38912)
I0906 23:25:28.833535 13884 net.cpp:165] Memory required for data: 420021536
I0906 23:25:28.833537 13884 layer_factory.hpp:77] Creating layer fc7_mbox_loc
I0906 23:25:28.833541 13884 net.cpp:100] Creating Layer fc7_mbox_loc
I0906 23:25:28.833544 13884 net.cpp:434] fc7_mbox_loc <- fc7_relu7_0_split_1
I0906 23:25:28.833549 13884 net.cpp:408] fc7_mbox_loc -> fc7_mbox_loc
I0906 23:25:28.835192 13884 net.cpp:150] Setting up fc7_mbox_loc
I0906 23:25:28.835208 13884 net.cpp:157] Top shape: 1 8 19 32 (4864)
I0906 23:25:28.835211 13884 net.cpp:165] Memory required for data: 420040992
I0906 23:25:28.835219 13884 layer_factory.hpp:77] Creating layer fc7_mbox_loc_perm
I0906 23:25:28.835227 13884 net.cpp:100] Creating Layer fc7_mbox_loc_perm
I0906 23:25:28.835232 13884 net.cpp:434] fc7_mbox_loc_perm <- fc7_mbox_loc
I0906 23:25:28.835237 13884 net.cpp:408] fc7_mbox_loc_perm -> fc7_mbox_loc_perm
I0906 23:25:28.835377 13884 net.cpp:150] Setting up fc7_mbox_loc_perm
I0906 23:25:28.835384 13884 net.cpp:157] Top shape: 1 19 32 8 (4864)
I0906 23:25:28.835386 13884 net.cpp:165] Memory required for data: 420060448
I0906 23:25:28.835389 13884 layer_factory.hpp:77] Creating layer fc7_mbox_loc_flat
I0906 23:25:28.835395 13884 net.cpp:100] Creating Layer fc7_mbox_loc_flat
I0906 23:25:28.835398 13884 net.cpp:434] fc7_mbox_loc_flat <- fc7_mbox_loc_perm
I0906 23:25:28.835403 13884 net.cpp:408] fc7_mbox_loc_flat -> fc7_mbox_loc_flat
I0906 23:25:28.835427 13884 net.cpp:150] Setting up fc7_mbox_loc_flat
I0906 23:25:28.835433 13884 net.cpp:157] Top shape: 1 4864 (4864)
I0906 23:25:28.835435 13884 net.cpp:165] Memory required for data: 420079904
I0906 23:25:28.835438 13884 layer_factory.hpp:77] Creating layer fc7_mbox_conf
I0906 23:25:28.835448 13884 net.cpp:100] Creating Layer fc7_mbox_conf
I0906 23:25:28.835453 13884 net.cpp:434] fc7_mbox_conf <- fc7_relu7_0_split_2
I0906 23:25:28.835458 13884 net.cpp:408] fc7_mbox_conf -> fc7_mbox_conf
I0906 23:25:28.836980 13884 net.cpp:150] Setting up fc7_mbox_conf
I0906 23:25:28.836988 13884 net.cpp:157] Top shape: 1 10 19 32 (6080)
I0906 23:25:28.836990 13884 net.cpp:165] Memory required for data: 420104224
I0906 23:25:28.836994 13884 layer_factory.hpp:77] Creating layer fc7_mbox_conf_perm
I0906 23:25:28.836998 13884 net.cpp:100] Creating Layer fc7_mbox_conf_perm
I0906 23:25:28.837000 13884 net.cpp:434] fc7_mbox_conf_perm <- fc7_mbox_conf
I0906 23:25:28.837004 13884 net.cpp:408] fc7_mbox_conf_perm -> fc7_mbox_conf_perm
I0906 23:25:28.837095 13884 net.cpp:150] Setting up fc7_mbox_conf_perm
I0906 23:25:28.837100 13884 net.cpp:157] Top shape: 1 19 32 10 (6080)
I0906 23:25:28.837101 13884 net.cpp:165] Memory required for data: 420128544
I0906 23:25:28.837115 13884 layer_factory.hpp:77] Creating layer fc7_mbox_conf_flat
I0906 23:25:28.837117 13884 net.cpp:100] Creating Layer fc7_mbox_conf_flat
I0906 23:25:28.837119 13884 net.cpp:434] fc7_mbox_conf_flat <- fc7_mbox_conf_perm
I0906 23:25:28.837123 13884 net.cpp:408] fc7_mbox_conf_flat -> fc7_mbox_conf_flat
I0906 23:25:28.837142 13884 net.cpp:150] Setting up fc7_mbox_conf_flat
I0906 23:25:28.837147 13884 net.cpp:157] Top shape: 1 6080 (6080)
I0906 23:25:28.837148 13884 net.cpp:165] Memory required for data: 420152864
I0906 23:25:28.837150 13884 layer_factory.hpp:77] Creating layer fc7_mbox_priorbox
I0906 23:25:28.837154 13884 net.cpp:100] Creating Layer fc7_mbox_priorbox
I0906 23:25:28.837157 13884 net.cpp:434] fc7_mbox_priorbox <- fc7_relu7_0_split_3
I0906 23:25:28.837158 13884 net.cpp:434] fc7_mbox_priorbox <- data_data_0_split_2
I0906 23:25:28.837162 13884 net.cpp:408] fc7_mbox_priorbox -> fc7_mbox_priorbox
I0906 23:25:28.837183 13884 net.cpp:150] Setting up fc7_mbox_priorbox
I0906 23:25:28.837188 13884 net.cpp:157] Top shape: 1 2 4864 (9728)
I0906 23:25:28.837189 13884 net.cpp:165] Memory required for data: 420191776
I0906 23:25:28.837191 13884 layer_factory.hpp:77] Creating layer ssd1_2_mbox_loc
I0906 23:25:28.837198 13884 net.cpp:100] Creating Layer ssd1_2_mbox_loc
I0906 23:25:28.837199 13884 net.cpp:434] ssd1_2_mbox_loc <- ssd1_2_ssd1_2_relu_0_split_1
I0906 23:25:28.837203 13884 net.cpp:408] ssd1_2_mbox_loc -> ssd1_2_mbox_loc
I0906 23:25:28.838507 13884 net.cpp:150] Setting up ssd1_2_mbox_loc
I0906 23:25:28.838515 13884 net.cpp:157] Top shape: 1 8 10 16 (1280)
I0906 23:25:28.838517 13884 net.cpp:165] Memory required for data: 420196896
I0906 23:25:28.838521 13884 layer_factory.hpp:77] Creating layer ssd1_2_mbox_loc_perm
I0906 23:25:28.838526 13884 net.cpp:100] Creating Layer ssd1_2_mbox_loc_perm
I0906 23:25:28.838528 13884 net.cpp:434] ssd1_2_mbox_loc_perm <- ssd1_2_mbox_loc
I0906 23:25:28.838531 13884 net.cpp:408] ssd1_2_mbox_loc_perm -> ssd1_2_mbox_loc_perm
I0906 23:25:28.838623 13884 net.cpp:150] Setting up ssd1_2_mbox_loc_perm
I0906 23:25:28.838626 13884 net.cpp:157] Top shape: 1 10 16 8 (1280)
I0906 23:25:28.838629 13884 net.cpp:165] Memory required for data: 420202016
I0906 23:25:28.838630 13884 layer_factory.hpp:77] Creating layer ssd1_2_mbox_loc_flat
I0906 23:25:28.838635 13884 net.cpp:100] Creating Layer ssd1_2_mbox_loc_flat
I0906 23:25:28.838637 13884 net.cpp:434] ssd1_2_mbox_loc_flat <- ssd1_2_mbox_loc_perm
I0906 23:25:28.838641 13884 net.cpp:408] ssd1_2_mbox_loc_flat -> ssd1_2_mbox_loc_flat
I0906 23:25:28.838659 13884 net.cpp:150] Setting up ssd1_2_mbox_loc_flat
I0906 23:25:28.838662 13884 net.cpp:157] Top shape: 1 1280 (1280)
I0906 23:25:28.838663 13884 net.cpp:165] Memory required for data: 420207136
I0906 23:25:28.838665 13884 layer_factory.hpp:77] Creating layer ssd1_2_mbox_conf
I0906 23:25:28.838671 13884 net.cpp:100] Creating Layer ssd1_2_mbox_conf
I0906 23:25:28.838673 13884 net.cpp:434] ssd1_2_mbox_conf <- ssd1_2_ssd1_2_relu_0_split_2
I0906 23:25:28.838677 13884 net.cpp:408] ssd1_2_mbox_conf -> ssd1_2_mbox_conf
I0906 23:25:28.839960 13884 net.cpp:150] Setting up ssd1_2_mbox_conf
I0906 23:25:28.839968 13884 net.cpp:157] Top shape: 1 10 10 16 (1600)
I0906 23:25:28.839969 13884 net.cpp:165] Memory required for data: 420213536
I0906 23:25:28.839973 13884 layer_factory.hpp:77] Creating layer ssd1_2_mbox_conf_perm
I0906 23:25:28.839977 13884 net.cpp:100] Creating Layer ssd1_2_mbox_conf_perm
I0906 23:25:28.839979 13884 net.cpp:434] ssd1_2_mbox_conf_perm <- ssd1_2_mbox_conf
I0906 23:25:28.839983 13884 net.cpp:408] ssd1_2_mbox_conf_perm -> ssd1_2_mbox_conf_perm
I0906 23:25:28.840075 13884 net.cpp:150] Setting up ssd1_2_mbox_conf_perm
I0906 23:25:28.840080 13884 net.cpp:157] Top shape: 1 10 16 10 (1600)
I0906 23:25:28.840081 13884 net.cpp:165] Memory required for data: 420219936
I0906 23:25:28.840082 13884 layer_factory.hpp:77] Creating layer ssd1_2_mbox_conf_flat
I0906 23:25:28.840085 13884 net.cpp:100] Creating Layer ssd1_2_mbox_conf_flat
I0906 23:25:28.840095 13884 net.cpp:434] ssd1_2_mbox_conf_flat <- ssd1_2_mbox_conf_perm
I0906 23:25:28.840101 13884 net.cpp:408] ssd1_2_mbox_conf_flat -> ssd1_2_mbox_conf_flat
I0906 23:25:28.840119 13884 net.cpp:150] Setting up ssd1_2_mbox_conf_flat
I0906 23:25:28.840123 13884 net.cpp:157] Top shape: 1 1600 (1600)
I0906 23:25:28.840126 13884 net.cpp:165] Memory required for data: 420226336
I0906 23:25:28.840127 13884 layer_factory.hpp:77] Creating layer ssd1_2_mbox_priorbox
I0906 23:25:28.840131 13884 net.cpp:100] Creating Layer ssd1_2_mbox_priorbox
I0906 23:25:28.840132 13884 net.cpp:434] ssd1_2_mbox_priorbox <- ssd1_2_ssd1_2_relu_0_split_3
I0906 23:25:28.840137 13884 net.cpp:434] ssd1_2_mbox_priorbox <- data_data_0_split_3
I0906 23:25:28.840139 13884 net.cpp:408] ssd1_2_mbox_priorbox -> ssd1_2_mbox_priorbox
I0906 23:25:28.840159 13884 net.cpp:150] Setting up ssd1_2_mbox_priorbox
I0906 23:25:28.840163 13884 net.cpp:157] Top shape: 1 2 1280 (2560)
I0906 23:25:28.840165 13884 net.cpp:165] Memory required for data: 420236576
I0906 23:25:28.840167 13884 layer_factory.hpp:77] Creating layer ssd2_2_mbox_loc
I0906 23:25:28.840173 13884 net.cpp:100] Creating Layer ssd2_2_mbox_loc
I0906 23:25:28.840174 13884 net.cpp:434] ssd2_2_mbox_loc <- ssd2_2_ssd2_2_relu_0_split_1
I0906 23:25:28.840178 13884 net.cpp:408] ssd2_2_mbox_loc -> ssd2_2_mbox_loc
I0906 23:25:28.841281 13884 net.cpp:150] Setting up ssd2_2_mbox_loc
I0906 23:25:28.841289 13884 net.cpp:157] Top shape: 1 8 5 8 (320)
I0906 23:25:28.841289 13884 net.cpp:165] Memory required for data: 420237856
I0906 23:25:28.841295 13884 layer_factory.hpp:77] Creating layer ssd2_2_mbox_loc_perm
I0906 23:25:28.841297 13884 net.cpp:100] Creating Layer ssd2_2_mbox_loc_perm
I0906 23:25:28.841300 13884 net.cpp:434] ssd2_2_mbox_loc_perm <- ssd2_2_mbox_loc
I0906 23:25:28.841303 13884 net.cpp:408] ssd2_2_mbox_loc_perm -> ssd2_2_mbox_loc_perm
I0906 23:25:28.841395 13884 net.cpp:150] Setting up ssd2_2_mbox_loc_perm
I0906 23:25:28.841399 13884 net.cpp:157] Top shape: 1 5 8 8 (320)
I0906 23:25:28.841401 13884 net.cpp:165] Memory required for data: 420239136
I0906 23:25:28.841403 13884 layer_factory.hpp:77] Creating layer ssd2_2_mbox_loc_flat
I0906 23:25:28.841406 13884 net.cpp:100] Creating Layer ssd2_2_mbox_loc_flat
I0906 23:25:28.841408 13884 net.cpp:434] ssd2_2_mbox_loc_flat <- ssd2_2_mbox_loc_perm
I0906 23:25:28.841411 13884 net.cpp:408] ssd2_2_mbox_loc_flat -> ssd2_2_mbox_loc_flat
I0906 23:25:28.841429 13884 net.cpp:150] Setting up ssd2_2_mbox_loc_flat
I0906 23:25:28.841433 13884 net.cpp:157] Top shape: 1 320 (320)
I0906 23:25:28.841434 13884 net.cpp:165] Memory required for data: 420240416
I0906 23:25:28.841435 13884 layer_factory.hpp:77] Creating layer ssd2_2_mbox_conf
I0906 23:25:28.841440 13884 net.cpp:100] Creating Layer ssd2_2_mbox_conf
I0906 23:25:28.841444 13884 net.cpp:434] ssd2_2_mbox_conf <- ssd2_2_ssd2_2_relu_0_split_2
I0906 23:25:28.841447 13884 net.cpp:408] ssd2_2_mbox_conf -> ssd2_2_mbox_conf
I0906 23:25:28.842658 13884 net.cpp:150] Setting up ssd2_2_mbox_conf
I0906 23:25:28.842664 13884 net.cpp:157] Top shape: 1 10 5 8 (400)
I0906 23:25:28.842666 13884 net.cpp:165] Memory required for data: 420242016
I0906 23:25:28.842670 13884 layer_factory.hpp:77] Creating layer ssd2_2_mbox_conf_perm
I0906 23:25:28.842674 13884 net.cpp:100] Creating Layer ssd2_2_mbox_conf_perm
I0906 23:25:28.842677 13884 net.cpp:434] ssd2_2_mbox_conf_perm <- ssd2_2_mbox_conf
I0906 23:25:28.842680 13884 net.cpp:408] ssd2_2_mbox_conf_perm -> ssd2_2_mbox_conf_perm
I0906 23:25:28.842774 13884 net.cpp:150] Setting up ssd2_2_mbox_conf_perm
I0906 23:25:28.842778 13884 net.cpp:157] Top shape: 1 5 8 10 (400)
I0906 23:25:28.842779 13884 net.cpp:165] Memory required for data: 420243616
I0906 23:25:28.842782 13884 layer_factory.hpp:77] Creating layer ssd2_2_mbox_conf_flat
I0906 23:25:28.842785 13884 net.cpp:100] Creating Layer ssd2_2_mbox_conf_flat
I0906 23:25:28.842787 13884 net.cpp:434] ssd2_2_mbox_conf_flat <- ssd2_2_mbox_conf_perm
I0906 23:25:28.842790 13884 net.cpp:408] ssd2_2_mbox_conf_flat -> ssd2_2_mbox_conf_flat
I0906 23:25:28.842818 13884 net.cpp:150] Setting up ssd2_2_mbox_conf_flat
I0906 23:25:28.842821 13884 net.cpp:157] Top shape: 1 400 (400)
I0906 23:25:28.842823 13884 net.cpp:165] Memory required for data: 420245216
I0906 23:25:28.842824 13884 layer_factory.hpp:77] Creating layer ssd2_2_mbox_priorbox
I0906 23:25:28.842829 13884 net.cpp:100] Creating Layer ssd2_2_mbox_priorbox
I0906 23:25:28.842830 13884 net.cpp:434] ssd2_2_mbox_priorbox <- ssd2_2_ssd2_2_relu_0_split_3
I0906 23:25:28.842833 13884 net.cpp:434] ssd2_2_mbox_priorbox <- data_data_0_split_4
I0906 23:25:28.842836 13884 net.cpp:408] ssd2_2_mbox_priorbox -> ssd2_2_mbox_priorbox
I0906 23:25:28.842856 13884 net.cpp:150] Setting up ssd2_2_mbox_priorbox
I0906 23:25:28.842860 13884 net.cpp:157] Top shape: 1 2 320 (640)
I0906 23:25:28.842861 13884 net.cpp:165] Memory required for data: 420247776
I0906 23:25:28.842864 13884 layer_factory.hpp:77] Creating layer ssd3_2_mbox_loc
I0906 23:25:28.842869 13884 net.cpp:100] Creating Layer ssd3_2_mbox_loc
I0906 23:25:28.842870 13884 net.cpp:434] ssd3_2_mbox_loc <- ssd3_2_ssd3_2_relu_0_split_1
I0906 23:25:28.842875 13884 net.cpp:408] ssd3_2_mbox_loc -> ssd3_2_mbox_loc
I0906 23:25:28.844121 13884 net.cpp:150] Setting up ssd3_2_mbox_loc
I0906 23:25:28.844130 13884 net.cpp:157] Top shape: 1 8 3 6 (144)
I0906 23:25:28.844131 13884 net.cpp:165] Memory required for data: 420248352
I0906 23:25:28.844141 13884 layer_factory.hpp:77] Creating layer ssd3_2_mbox_loc_perm
I0906 23:25:28.844144 13884 net.cpp:100] Creating Layer ssd3_2_mbox_loc_perm
I0906 23:25:28.844147 13884 net.cpp:434] ssd3_2_mbox_loc_perm <- ssd3_2_mbox_loc
I0906 23:25:28.844151 13884 net.cpp:408] ssd3_2_mbox_loc_perm -> ssd3_2_mbox_loc_perm
I0906 23:25:28.844244 13884 net.cpp:150] Setting up ssd3_2_mbox_loc_perm
I0906 23:25:28.844247 13884 net.cpp:157] Top shape: 1 3 6 8 (144)
I0906 23:25:28.844249 13884 net.cpp:165] Memory required for data: 420248928
I0906 23:25:28.844251 13884 layer_factory.hpp:77] Creating layer ssd3_2_mbox_loc_flat
I0906 23:25:28.844255 13884 net.cpp:100] Creating Layer ssd3_2_mbox_loc_flat
I0906 23:25:28.844257 13884 net.cpp:434] ssd3_2_mbox_loc_flat <- ssd3_2_mbox_loc_perm
I0906 23:25:28.844260 13884 net.cpp:408] ssd3_2_mbox_loc_flat -> ssd3_2_mbox_loc_flat
I0906 23:25:28.844280 13884 net.cpp:150] Setting up ssd3_2_mbox_loc_flat
I0906 23:25:28.844282 13884 net.cpp:157] Top shape: 1 144 (144)
I0906 23:25:28.844285 13884 net.cpp:165] Memory required for data: 420249504
I0906 23:25:28.844286 13884 layer_factory.hpp:77] Creating layer ssd3_2_mbox_conf
I0906 23:25:28.844291 13884 net.cpp:100] Creating Layer ssd3_2_mbox_conf
I0906 23:25:28.844293 13884 net.cpp:434] ssd3_2_mbox_conf <- ssd3_2_ssd3_2_relu_0_split_2
I0906 23:25:28.844296 13884 net.cpp:408] ssd3_2_mbox_conf -> ssd3_2_mbox_conf
I0906 23:25:28.846010 13884 net.cpp:150] Setting up ssd3_2_mbox_conf
I0906 23:25:28.846019 13884 net.cpp:157] Top shape: 1 10 3 6 (180)
I0906 23:25:28.846020 13884 net.cpp:165] Memory required for data: 420250224
I0906 23:25:28.846024 13884 layer_factory.hpp:77] Creating layer ssd3_2_mbox_conf_perm
I0906 23:25:28.846029 13884 net.cpp:100] Creating Layer ssd3_2_mbox_conf_perm
I0906 23:25:28.846032 13884 net.cpp:434] ssd3_2_mbox_conf_perm <- ssd3_2_mbox_conf
I0906 23:25:28.846035 13884 net.cpp:408] ssd3_2_mbox_conf_perm -> ssd3_2_mbox_conf_perm
I0906 23:25:28.846127 13884 net.cpp:150] Setting up ssd3_2_mbox_conf_perm
I0906 23:25:28.846132 13884 net.cpp:157] Top shape: 1 3 6 10 (180)
I0906 23:25:28.846133 13884 net.cpp:165] Memory required for data: 420250944
I0906 23:25:28.846134 13884 layer_factory.hpp:77] Creating layer ssd3_2_mbox_conf_flat
I0906 23:25:28.846139 13884 net.cpp:100] Creating Layer ssd3_2_mbox_conf_flat
I0906 23:25:28.846141 13884 net.cpp:434] ssd3_2_mbox_conf_flat <- ssd3_2_mbox_conf_perm
I0906 23:25:28.846144 13884 net.cpp:408] ssd3_2_mbox_conf_flat -> ssd3_2_mbox_conf_flat
I0906 23:25:28.846163 13884 net.cpp:150] Setting up ssd3_2_mbox_conf_flat
I0906 23:25:28.846168 13884 net.cpp:157] Top shape: 1 180 (180)
I0906 23:25:28.846169 13884 net.cpp:165] Memory required for data: 420251664
I0906 23:25:28.846180 13884 layer_factory.hpp:77] Creating layer ssd3_2_mbox_priorbox
I0906 23:25:28.846184 13884 net.cpp:100] Creating Layer ssd3_2_mbox_priorbox
I0906 23:25:28.846186 13884 net.cpp:434] ssd3_2_mbox_priorbox <- ssd3_2_ssd3_2_relu_0_split_3
I0906 23:25:28.846190 13884 net.cpp:434] ssd3_2_mbox_priorbox <- data_data_0_split_5
I0906 23:25:28.846194 13884 net.cpp:408] ssd3_2_mbox_priorbox -> ssd3_2_mbox_priorbox
I0906 23:25:28.846215 13884 net.cpp:150] Setting up ssd3_2_mbox_priorbox
I0906 23:25:28.846217 13884 net.cpp:157] Top shape: 1 2 144 (288)
I0906 23:25:28.846220 13884 net.cpp:165] Memory required for data: 420252816
I0906 23:25:28.846221 13884 layer_factory.hpp:77] Creating layer ssd4_2_mbox_loc
I0906 23:25:28.846227 13884 net.cpp:100] Creating Layer ssd4_2_mbox_loc
I0906 23:25:28.846230 13884 net.cpp:434] ssd4_2_mbox_loc <- ssd4_2_ssd4_2_relu_0_split_0
I0906 23:25:28.846233 13884 net.cpp:408] ssd4_2_mbox_loc -> ssd4_2_mbox_loc
I0906 23:25:28.848178 13884 net.cpp:150] Setting up ssd4_2_mbox_loc
I0906 23:25:28.848187 13884 net.cpp:157] Top shape: 1 8 1 4 (32)
I0906 23:25:28.848189 13884 net.cpp:165] Memory required for data: 420252944
I0906 23:25:28.848194 13884 layer_factory.hpp:77] Creating layer ssd4_2_mbox_loc_perm
I0906 23:25:28.848199 13884 net.cpp:100] Creating Layer ssd4_2_mbox_loc_perm
I0906 23:25:28.848202 13884 net.cpp:434] ssd4_2_mbox_loc_perm <- ssd4_2_mbox_loc
I0906 23:25:28.848206 13884 net.cpp:408] ssd4_2_mbox_loc_perm -> ssd4_2_mbox_loc_perm
I0906 23:25:28.848295 13884 net.cpp:150] Setting up ssd4_2_mbox_loc_perm
I0906 23:25:28.848299 13884 net.cpp:157] Top shape: 1 1 4 8 (32)
I0906 23:25:28.848300 13884 net.cpp:165] Memory required for data: 420253072
I0906 23:25:28.848302 13884 layer_factory.hpp:77] Creating layer ssd4_2_mbox_loc_flat
I0906 23:25:28.848305 13884 net.cpp:100] Creating Layer ssd4_2_mbox_loc_flat
I0906 23:25:28.848307 13884 net.cpp:434] ssd4_2_mbox_loc_flat <- ssd4_2_mbox_loc_perm
I0906 23:25:28.848311 13884 net.cpp:408] ssd4_2_mbox_loc_flat -> ssd4_2_mbox_loc_flat
I0906 23:25:28.848330 13884 net.cpp:150] Setting up ssd4_2_mbox_loc_flat
I0906 23:25:28.848335 13884 net.cpp:157] Top shape: 1 32 (32)
I0906 23:25:28.848335 13884 net.cpp:165] Memory required for data: 420253200
I0906 23:25:28.848337 13884 layer_factory.hpp:77] Creating layer ssd4_2_mbox_conf
I0906 23:25:28.848343 13884 net.cpp:100] Creating Layer ssd4_2_mbox_conf
I0906 23:25:28.848345 13884 net.cpp:434] ssd4_2_mbox_conf <- ssd4_2_ssd4_2_relu_0_split_1
I0906 23:25:28.848350 13884 net.cpp:408] ssd4_2_mbox_conf -> ssd4_2_mbox_conf
I0906 23:25:28.849478 13884 net.cpp:150] Setting up ssd4_2_mbox_conf
I0906 23:25:28.849484 13884 net.cpp:157] Top shape: 1 10 1 4 (40)
I0906 23:25:28.849488 13884 net.cpp:165] Memory required for data: 420253360
I0906 23:25:28.849490 13884 layer_factory.hpp:77] Creating layer ssd4_2_mbox_conf_perm
I0906 23:25:28.849494 13884 net.cpp:100] Creating Layer ssd4_2_mbox_conf_perm
I0906 23:25:28.849498 13884 net.cpp:434] ssd4_2_mbox_conf_perm <- ssd4_2_mbox_conf
I0906 23:25:28.849501 13884 net.cpp:408] ssd4_2_mbox_conf_perm -> ssd4_2_mbox_conf_perm
I0906 23:25:28.849589 13884 net.cpp:150] Setting up ssd4_2_mbox_conf_perm
I0906 23:25:28.849593 13884 net.cpp:157] Top shape: 1 1 4 10 (40)
I0906 23:25:28.849594 13884 net.cpp:165] Memory required for data: 420253520
I0906 23:25:28.849596 13884 layer_factory.hpp:77] Creating layer ssd4_2_mbox_conf_flat
I0906 23:25:28.849599 13884 net.cpp:100] Creating Layer ssd4_2_mbox_conf_flat
I0906 23:25:28.849601 13884 net.cpp:434] ssd4_2_mbox_conf_flat <- ssd4_2_mbox_conf_perm
I0906 23:25:28.849604 13884 net.cpp:408] ssd4_2_mbox_conf_flat -> ssd4_2_mbox_conf_flat
I0906 23:25:28.849623 13884 net.cpp:150] Setting up ssd4_2_mbox_conf_flat
I0906 23:25:28.849627 13884 net.cpp:157] Top shape: 1 40 (40)
I0906 23:25:28.849628 13884 net.cpp:165] Memory required for data: 420253680
I0906 23:25:28.849630 13884 layer_factory.hpp:77] Creating layer ssd4_2_mbox_priorbox
I0906 23:25:28.849633 13884 net.cpp:100] Creating Layer ssd4_2_mbox_priorbox
I0906 23:25:28.849647 13884 net.cpp:434] ssd4_2_mbox_priorbox <- ssd4_2_ssd4_2_relu_0_split_2
I0906 23:25:28.849653 13884 net.cpp:434] ssd4_2_mbox_priorbox <- data_data_0_split_6
I0906 23:25:28.849658 13884 net.cpp:408] ssd4_2_mbox_priorbox -> ssd4_2_mbox_priorbox
I0906 23:25:28.849685 13884 net.cpp:150] Setting up ssd4_2_mbox_priorbox
I0906 23:25:28.849690 13884 net.cpp:157] Top shape: 1 2 32 (64)
I0906 23:25:28.849694 13884 net.cpp:165] Memory required for data: 420253936
I0906 23:25:28.849695 13884 layer_factory.hpp:77] Creating layer mbox_loc
I0906 23:25:28.849702 13884 net.cpp:100] Creating Layer mbox_loc
I0906 23:25:28.849706 13884 net.cpp:434] mbox_loc <- conv4_3_norm_mbox_loc_flat
I0906 23:25:28.849710 13884 net.cpp:434] mbox_loc <- fc7_mbox_loc_flat
I0906 23:25:28.849715 13884 net.cpp:434] mbox_loc <- ssd1_2_mbox_loc_flat
I0906 23:25:28.849722 13884 net.cpp:434] mbox_loc <- ssd2_2_mbox_loc_flat
I0906 23:25:28.849725 13884 net.cpp:434] mbox_loc <- ssd3_2_mbox_loc_flat
I0906 23:25:28.849730 13884 net.cpp:434] mbox_loc <- ssd4_2_mbox_loc_flat
I0906 23:25:28.849735 13884 net.cpp:408] mbox_loc -> mbox_loc
I0906 23:25:28.849761 13884 net.cpp:150] Setting up mbox_loc
I0906 23:25:28.849766 13884 net.cpp:157] Top shape: 1 26096 (26096)
I0906 23:25:28.849767 13884 net.cpp:165] Memory required for data: 420358320
I0906 23:25:28.849771 13884 layer_factory.hpp:77] Creating layer mbox_conf
I0906 23:25:28.849776 13884 net.cpp:100] Creating Layer mbox_conf
I0906 23:25:28.849779 13884 net.cpp:434] mbox_conf <- conv4_3_norm_mbox_conf_flat
I0906 23:25:28.849783 13884 net.cpp:434] mbox_conf <- fc7_mbox_conf_flat
I0906 23:25:28.849786 13884 net.cpp:434] mbox_conf <- ssd1_2_mbox_conf_flat
I0906 23:25:28.849792 13884 net.cpp:434] mbox_conf <- ssd2_2_mbox_conf_flat
I0906 23:25:28.849794 13884 net.cpp:434] mbox_conf <- ssd3_2_mbox_conf_flat
I0906 23:25:28.849797 13884 net.cpp:434] mbox_conf <- ssd4_2_mbox_conf_flat
I0906 23:25:28.849803 13884 net.cpp:408] mbox_conf -> mbox_conf
I0906 23:25:28.849826 13884 net.cpp:150] Setting up mbox_conf
I0906 23:25:28.849831 13884 net.cpp:157] Top shape: 1 32620 (32620)
I0906 23:25:28.849833 13884 net.cpp:165] Memory required for data: 420488800
I0906 23:25:28.849836 13884 layer_factory.hpp:77] Creating layer mbox_priorbox
I0906 23:25:28.849841 13884 net.cpp:100] Creating Layer mbox_priorbox
I0906 23:25:28.849844 13884 net.cpp:434] mbox_priorbox <- conv4_3_norm_mbox_priorbox
I0906 23:25:28.849849 13884 net.cpp:434] mbox_priorbox <- fc7_mbox_priorbox
I0906 23:25:28.849853 13884 net.cpp:434] mbox_priorbox <- ssd1_2_mbox_priorbox
I0906 23:25:28.849858 13884 net.cpp:434] mbox_priorbox <- ssd2_2_mbox_priorbox
I0906 23:25:28.849862 13884 net.cpp:434] mbox_priorbox <- ssd3_2_mbox_priorbox
I0906 23:25:28.849866 13884 net.cpp:434] mbox_priorbox <- ssd4_2_mbox_priorbox
I0906 23:25:28.849871 13884 net.cpp:408] mbox_priorbox -> mbox_priorbox
I0906 23:25:28.849895 13884 net.cpp:150] Setting up mbox_priorbox
I0906 23:25:28.849898 13884 net.cpp:157] Top shape: 1 2 26096 (52192)
I0906 23:25:28.849901 13884 net.cpp:165] Memory required for data: 420697568
I0906 23:25:28.849903 13884 layer_factory.hpp:77] Creating layer mbox_conf_reshape
I0906 23:25:28.849911 13884 net.cpp:100] Creating Layer mbox_conf_reshape
I0906 23:25:28.849915 13884 net.cpp:434] mbox_conf_reshape <- mbox_conf
I0906 23:25:28.849918 13884 net.cpp:408] mbox_conf_reshape -> mbox_conf_reshape
I0906 23:25:28.849946 13884 net.cpp:150] Setting up mbox_conf_reshape
I0906 23:25:28.849951 13884 net.cpp:157] Top shape: 1 6524 5 (32620)
I0906 23:25:28.849953 13884 net.cpp:165] Memory required for data: 420828048
I0906 23:25:28.849956 13884 layer_factory.hpp:77] Creating layer mbox_conf_softmax
I0906 23:25:28.849961 13884 net.cpp:100] Creating Layer mbox_conf_softmax
I0906 23:25:28.849966 13884 net.cpp:434] mbox_conf_softmax <- mbox_conf_reshape
I0906 23:25:28.849970 13884 net.cpp:408] mbox_conf_softmax -> mbox_conf_softmax
I0906 23:25:28.850270 13884 net.cpp:150] Setting up mbox_conf_softmax
I0906 23:25:28.850276 13884 net.cpp:157] Top shape: 1 6524 5 (32620)
I0906 23:25:28.850286 13884 net.cpp:165] Memory required for data: 420958528
I0906 23:25:28.850288 13884 layer_factory.hpp:77] Creating layer mbox_conf_flatten
I0906 23:25:28.850293 13884 net.cpp:100] Creating Layer mbox_conf_flatten
I0906 23:25:28.850298 13884 net.cpp:434] mbox_conf_flatten <- mbox_conf_softmax
I0906 23:25:28.850304 13884 net.cpp:408] mbox_conf_flatten -> mbox_conf_flatten
I0906 23:25:28.850327 13884 net.cpp:150] Setting up mbox_conf_flatten
I0906 23:25:28.850332 13884 net.cpp:157] Top shape: 1 32620 (32620)
I0906 23:25:28.850334 13884 net.cpp:165] Memory required for data: 421089008
I0906 23:25:28.850338 13884 layer_factory.hpp:77] Creating layer detection_out
I0906 23:25:28.850350 13884 net.cpp:100] Creating Layer detection_out
I0906 23:25:28.850353 13884 net.cpp:434] detection_out <- mbox_loc
I0906 23:25:28.850358 13884 net.cpp:434] detection_out <- mbox_conf_flatten
I0906 23:25:28.850361 13884 net.cpp:434] detection_out <- mbox_priorbox
I0906 23:25:28.850368 13884 net.cpp:408] detection_out -> detection_out
W0906 23:25:28.850391 13884 detection_output_layer.cpp:49] Failed to create directory: /home/zhongyilin/Documents/data/GTSDBdevkit/results/GTSDB/SSD_510x300_100_40_6_True/Main
I0906 23:25:28.850654 13884 net.cpp:150] Setting up detection_out
I0906 23:25:28.850662 13884 net.cpp:157] Top shape: 1 1 1 7 (7)
I0906 23:25:28.850664 13884 net.cpp:165] Memory required for data: 421089036
I0906 23:25:28.850667 13884 layer_factory.hpp:77] Creating layer detection_eval
I0906 23:25:28.850673 13884 net.cpp:100] Creating Layer detection_eval
I0906 23:25:28.850677 13884 net.cpp:434] detection_eval <- detection_out
I0906 23:25:28.850682 13884 net.cpp:434] detection_eval <- label
I0906 23:25:28.850687 13884 net.cpp:408] detection_eval -> detection_eval
I0906 23:25:28.850773 13884 net.cpp:150] Setting up detection_eval
I0906 23:25:28.850778 13884 net.cpp:157] Top shape: 1 1 5 5 (25)
I0906 23:25:28.850781 13884 net.cpp:165] Memory required for data: 421089136
I0906 23:25:28.850785 13884 net.cpp:228] detection_eval does not need backward computation.
I0906 23:25:28.850787 13884 net.cpp:228] detection_out does not need backward computation.
I0906 23:25:28.850792 13884 net.cpp:228] mbox_conf_flatten does not need backward computation.
I0906 23:25:28.850795 13884 net.cpp:228] mbox_conf_softmax does not need backward computation.
…
