…
      sampler {
        min_scale: 0.3
        max_scale: 1
        min_aspect_ratio: 0.5
        max_aspect_ratio: 2
      }
      sample_constraint {
        min_jaccard_overlap: 0.9
      }
      max_sample: 1
      max_trials: 50
    }
    batch_sampler {
      sampler {
        min_scale: 0.3
        max_scale: 1
        min_aspect_ratio: 0.5
        max_aspect_ratio: 2
      }
      sample_constraint {
        max_jaccard_overlap: 1
      }
      max_sample: 1
      max_trials: 50
    }
    label_map_file: "data/GTSDB/labelmap_GTSDB.prototxt"
  }
}
layer {
  name: "conv1"
  type: "Convolution"
  bottom: "data"
  top: "conv1"
  param {
    lr_mult: 1
    decay_mult: 1
  }
  convolution_param {
    num_output: 32
    bias_term: false
    pad: 1
    kernel_size: 3
    stride: 2
    weight_filler {
      type: "msra"
    }
  }
}
layer {
  name: "conv1/bn"
  type: "BatchNorm"
  bottom: "conv1"
  top: "conv1"
  batch_norm_param {
    use_global_stats: true
    eps: 1e-05
  }
}
layer {
  name: "conv1/scale"
  type: "Scale"
  bottom: "conv1"
  top: "conv1"
  param {
    lr_mult: 1
    decay_mult: 0
  }
  param {
    lr_mult: 1
    decay_mult: 0
  }
  scale_param {
    bias_term: true
  }
}
layer {
  name: "relu1"
  type: "ReLU"
  bottom: "conv1"
  top: "conv1"
}
layer {
  name: "conv2_1/expand"
  type: "Convolution"
  bottom: "conv1"
  top: "conv2_1/expand"
  param {
    lr_mult: 1
    decay_mult: 1
  }
  convolution_param {
    num_output: 32
    bias_term: false
    kernel_size: 1
    weight_filler {
      type: "msra"
    }
  }
}
layer {
  name: "conv2_1/expand/bn"
  type: "BatchNorm"
  bottom: "conv2_1/expand"
  top: "conv2_1/expand"
  batch_norm_param {
    use_global_stats: true
    eps: 1e-05
  }
}
layer {
  name: "conv2_1/expand/scale"
  type: "Scale"
  bottom: "conv2_1/expand"
  top: "conv2_1/expand"
  param {
    lr_mult: 1
    decay_mult: 0
  }
  param {
    lr_mult: 1
    decay_mult: 0
  }
  scale_param {
    bias_term: true
  }
}
layer {
  name: "relu2_1/expand"
  type: "ReLU"
  bottom: "conv2_1/expand"
  top: "conv2_1/expand"
}
layer {
  name: "conv2_1/dwise"
  type: "DepthwiseConvolution"
  bottom: "conv2_1/expand"
  top: "conv2_1/dwise"
  param {
    lr_mult: 1
    decay_mult: 1
  }
  convolution_param {
    num_output: 32
    bias_term: false
    pad: 1
    kernel_size: 3
    group: 32
    stride: 1
    weight_filler {
      type: "msra"
    }
  }
}
layer {
  name: "conv2_1/dwise/bn"
  type: "BatchNorm"
  bottom: "conv2_1/dwise"
  top: "conv2_1/dwise"
  batch_norm_param {
    use_global_stats: true
    eps: 1e-05
  }
}
layer {
  name: "conv2_1/dwise/scale"
  type: "Scale"
  bottom: "conv2_1/dwise"
  top: "conv2_1/dwise"
  param {
    lr_mult: 1
    decay_mult: 0
  }
  param {
    lr_mult: 1
    decay_mult: 0
  }
  scale_param {
    bias_term: true
  }
}
layer {
  name: "relu2_1/dwise"
  type: "ReLU"
  bottom: "conv2_1/dwise"
  top: "conv2_1/dwise"
}
layer {
  name: "conv2_1/linear"
  type: "Convolution"
  bottom: "conv2_1/dwise"
  top: "conv2_1/linear"
  param {
    lr_mult: 1
    decay_mult: 1
  }
  convolution_param {
    num_output: 16
    bias_term: false
    kernel_size: 1
    weight_filler {
      type: "msra"
    }
  }
}
layer {
  name: "conv2_1/linear/bn"
  type: "BatchNorm"
  bottom: "conv2_1/linear"
  top: "conv2_1/linear"
  batch_norm_param {
    use_global_stats: true
    eps: 1e-05
  }
}
layer {
  name: "conv2_1/linear/scale"
  type: "Scale"
  bottom: "conv2_1/linear"
  top: "conv2_1/linear"
  param {
    lr_mult: 1
    decay_mult: 0
  }
  param {
    lr_mult: 1
    decay_mult: 0
  }
  scale_param {
    bias_term: true
  }
}
layer {
  name: "conv2_2/expand"
  type: "Convolution"
  bottom: "conv2_1/linear"
  top: "conv2_2/expand"
  param {
    lr_mult: 1
    decay_mult: 1
  }
  convolution_param {
    num_output: 96
    bias_term: false
    kernel_size: 1
    weight_filler {
      type: "msra"
    }
  }
}
layer {
  name: "conv2_2/expand/bn"
  type: "BatchNorm"
  bottom: "conv2_2/expand"
  top: "conv2_2/expand"
  batch_norm_param {
    use_global_stats: true
    eps: 1e-05
  }
}
layer {
  name: "conv2_2/expand/scale"
  type: "Scale"
  bottom: "conv2_2/expand"
  top: "conv2_2/expand"
  param {
    lr_mult: 1
    decay_mult: 0
  }
  param {
    lr_mult: 1
    decay_mult: 0
  }
  scale_param {
    bias_term: true
  }
}
layer {
  name: "relu2_2/expand"
  type: "ReLU"
  bottom: "conv2_2/expand"
  top: "conv2_2/expand"
}
layer {
  name: "conv2_2/dwise"
  type: "DepthwiseConvolution"
  bottom: "conv2_2/expand"
  top: "conv2_2/dwise"
  param {
    lr_mult: 1
    decay_mult: 1
  }
  convolution_param {
    num_output: 96
    bias_term: false
    pad: 1
    kernel_size: 3
    group: 96
    stride: 2
    weight_filler {
      type: "msra"
    }
  }
}
layer {
  name: "conv2_2/dwise/bn"
  type: "BatchNorm"
  bottom: "conv2_2/dwise"
  top: "conv2_2/dwise"
  batch_norm_param {
    use_global_stats: true
    eps: 1e-05
  }
}
layer {
  name: "conv2_2/dwise/scale"
  type: "Scale"
  bottom: "conv2_2/dwise"
  top: "conv2_2/dwise"
  param {
    lr_mult: 1
    decay_mult: 0
  }
  param {
    lr_mult: 1
    decay_mult: 0
  }
  scale_param {
    bias_term: true
  }
}
layer {
  name: "relu2_2/dwise"
  type: "ReLU"
  bottom: "conv2_2/dwise"
  top: "conv2_2/dwise"
}
layer {
  name: "conv2_2/linear"
  type: "Convolution"
  bottom: "conv2_2/dwise"
  top: "conv2_2/linear"
  param {
    lr_mult: 1
    decay_mult: 1
  }
  convolution_param {
    num_output: 24
    bias_term: false
    kernel_size: 1
    weight_filler {
      type: "msra"
    }
  }
}
layer {
  name: "conv2_2/linear/bn"
  type: "BatchNorm"
  bottom: "conv2_2/linear"
  top: "conv2_2/linear"
  batch_norm_param {
    use_global_stats: true
    eps: 1e-05
  }
}
layer {
  name: "conv2_2/linear/scale"
  type: "Scale"
  bottom: "conv2_2/linear"
  top: "conv2_2/linear"
  param {
    lr_mult: 1
    decay_mult: 0
  }
  param {
    lr_mult: 1
    decay_mult: 0
  }
  scale_param {
    bias_term: true
  }
}
layer {
  name: "conv3_1/expand"
  type: "Convolution"
  bottom: "conv2_2/linear"
  top: "conv3_1/expand"
  param {
    lr_mult: 1
    decay_mult: 1
  }
  convolution_param {
    num_output: 144
    bias_term: false
    kernel_size: 1
    weight_filler {
      type: "msra"
    }
  }
}
layer {
  name: "conv3_1/expand/bn"
  type: "BatchNorm"
  bottom: "conv3_1/expand"
  top: "conv3_1/expand"
  batch_norm_param {
    use_global_stats: true
    eps: 1e-05
  }
}
layer {
  name: "conv3_1/expand/scale"
  type: "Scale"
  bottom: "conv3_1/expand"
  top: "conv3_1/expand"
  param {
    lr_mult: 1
    decay_mult: 0
  }
  param {
    lr_mult: 1
    decay_mult: 0
  }
  scale_param {
    bias_term: true
  }
}
layer {
  name: "relu3_1/expand"
  type: "ReLU"
  bottom: "conv3_1/expand"
  top: "conv3_1/expand"
}
layer {
  name: "conv3_1/dwise"
  type: "DepthwiseConvolution"
  bottom: "conv3_1/expand"
  top: "conv3_1/dwise"
  param {
    lr_mult: 1
    decay_mult: 1
  }
  convolution_param {
    num_output: 144
    bias_term: false
    pad: 1
    kernel_size: 3
    group: 144
    stride: 1
    weight_filler {
      type: "msra"
    }
  }
}
layer {
  name: "conv3_1/dwise/bn"
  type: "BatchNorm"
  bottom: "conv3_1/dwise"
  top: "conv3_1/dwise"
  batch_norm_param {
    use_global_stats: true
    eps: 1e-05
  }
}
layer {
  name: "conv3_1/dwise/scale"
  type: "Scale"
  bottom: "conv3_1/dwise"
  top: "conv3_1/dwise"
  param {
    lr_mult: 1
    decay_mult: 0
  }
  param {
    lr_mult: 1
    decay_mult: 0
  }
  scale_param {
    bias_term: true
  }
}
layer {
  name: "relu3_1/dwise"
  type: "ReLU"
  bottom: "conv3_1/dwise"
  top: "conv3_1/dwise"
}
layer {
  name: "conv3_1/linear"
  type: "Convolution"
  bottom: "conv3_1/dwise"
  top: "conv3_1/linear"
  param {
    lr_mult: 1
    decay_mult: 1
  }
  convolution_param {
    num_output: 24
    bias_term: false
    kernel_size: 1
    weight_filler {
      type: "msra"
    }
  }
}
layer {
  name: "conv3_1/linear/bn"
  type: "BatchNorm"
  bottom: "conv3_1/linear"
  top: "conv3_1/linear"
  batch_norm_param {
    use_global_stats: true
    eps: 1e-05
  }
}
layer {
  name: "conv3_1/linear/scale"
  type: "Scale"
  bottom: "conv3_1/linear"
  top: "conv3_1/linear"
  param {
    lr_mult: 1
    decay_mult: 0
  }
  param {
    lr_mult: 1
    decay_mult: 0
  }
  scale_param {
    bias_term: true
  }
}
layer {
  name: "block_3_1"
  type: "Eltwise"
  bottom: "conv2_2/linear"
  bottom: "conv3_1/linear"
  top: "block_3_1"
}
layer {
  name: "conv3_2/expand"
  type: "Convolution"
  bottom: "block_3_1"
  top: "conv3_2/expand"
  param {
    lr_mult: 1
    decay_mult: 1
  }
  convolution_param {
    num_output: 144
    bias_term: false
    kernel_size: 1
    weight_filler {
      type: "msra"
    }
  }
}
layer {
  name: "conv3_2/expand/bn"
  type: "BatchNorm"
  bottom: "conv3_2/expand"
  top: "conv3_2/expand"
  batch_norm_param {
    use_global_stats: true
    eps: 1e-05
  }
}
layer {
  name: "conv3_2/expand/scale"
  type: "Scale"
  bottom: "conv3_2/expand"
  top: "conv3_2/expand"
  param {
    lr_mult: 1
    decay_mult: 0
  }
  param {
    lr_mult: 1
    decay_mult: 0
  }
  scale_param {
    bias_term: true
  }
}
layer {
  name: "relu3_2/expand"
  type: "ReLU"
  bottom: "conv3_2/expand"
  top: "conv3_2/expand"
}
layer {
  name: "conv3_2/dwise"
  type: "DepthwiseConvolution"
  bottom: "conv3_2/expand"
  top: "conv3_2/dwise"
  param {
    lr_mult: 1
    decay_mult: 1
  }
  convolution_param {
    num_output: 144
    bias_term: false
    pad: 1
    kernel_size: 3
    group: 144
    stride: 2
    weight_filler {
      type: "msra"
    }
  }
}
layer {
  name: "conv3_2/dwise/bn"
  type: "BatchNorm"
  bottom: "conv3_2/dwise"
  top: "conv3_2/dwise"
  batch_norm_param {
    use_global_stats: true
    eps: 1e-05
  }
}
layer {
  name: "conv3_2/dwise/scale"
  type: "Scale"
  bottom: "conv3_2/dwise"
  top: "conv3_2/dwise"
  param {
    lr_mult: 1
    decay_mult: 0
  }
  param {
    lr_mult: 1
    decay_mult: 0
  }
  scale_param {
    bias_term: true
  }
}
layer {
  name: "relu3_2/dwise"
  type: "ReLU"
  bottom: "conv3_2/dwise"
  top: "conv3_2/dwise"
}
layer {
  name: "conv3_2/linear"
  type: "Convolution"
  bottom: "conv3_2/dwise"
  top: "conv3_2/linear"
  param {
    lr_mult: 1
    decay_mult: 1
  }
  convolution_param {
    num_output: 32
    bias_term: false
    kernel_size: 1
    weight_filler {
      type: "msra"
    }
  }
}
layer {
  name: "conv3_2/linear/bn"
  type: "BatchNorm"
  bottom: "conv3_2/linear"
  top: "conv3_2/linear"
  batch_norm_param {
    use_global_stats: true
    eps: 1e-05
  }
}
layer {
  name: "conv3_2/linear/scale"
  type: "Scale"
  bottom: "conv3_2/linear"
  top: "conv3_2/linear"
  param {
    lr_mult: 1
    decay_mult: 0
  }
  param {
    lr_mult: 1
    decay_mult: 0
  }
  scale_param {
    bias_term: true
  }
}
layer {
  name: "conv4_1/expand"
  type: "Convolution"
  bottom: "conv3_2/linear"
  top: "conv4_1/expand"
  param {
    lr_mult: 1
    decay_mult: 1
  }
  convolution_param {
    num_output: 192
    bias_term: false
    kernel_size: 1
    weight_filler {
      type: "msra"
    }
  }
}
layer {
  name: "conv4_1/expand/bn"
  type: "BatchNorm"
  bottom: "conv4_1/expand"
  top: "conv4_1/expand"
  batch_norm_param {
    use_global_stats: true
    eps: 1e-05
  }
}
layer {
  name: "conv4_1/expand/scale"
  type: "Scale"
  bottom: "conv4_1/expand"
  top: "conv4_1/expand"
  param {
    lr_mult: 1
    decay_mult: 0
  }
  param {
    lr_mult: 1
    decay_mult: 0
  }
  scale_param {
    bias_term: true
  }
}
layer {
  name: "relu4_1/expand"
  type: "ReLU"
  bottom: "conv4_1/expand"
  top: "conv4_1/expand"
}
layer {
  name: "conv4_1/dwise"
  type: "DepthwiseConvolution"
  bottom: "conv4_1/expand"
  top: "conv4_1/dwise"
  param {
    lr_mult: 1
    decay_mult: 1
  }
  convolution_param {
    num_output: 192
    bias_term: false
    pad: 1
    kernel_size: 3
    group: 192
    stride: 1
    weight_filler {
      type: "msra"
    }
  }
}
layer {
  name: "conv4_1/dwise/bn"
  type: "BatchNorm"
  bottom: "conv4_1/dwise"
  top: "conv4_1/dwise"
  batch_norm_param {
    use_global_stats: true
    eps: 1e-05
  }
}
layer {
  name: "conv4_1/dwise/scale"
  type: "Scale"
  bottom: "conv4_1/dwise"
  top: "conv4_1/dwise"
  param {
    lr_mult: 1
    decay_mult: 0
  }
  param {
    lr_mult: 1
    decay_mult: 0
  }
  scale_param {
    bias_term: true
  }
}
layer {
  name: "relu4_1/dwise"
  type: "ReLU"
  bottom: "conv4_1/dwise"
  top: "conv4_1/dwise"
}
layer {
  name: "conv4_1/linear"
  type: "Convolution"
  bottom: "conv4_1/dwise"
  top: "conv4_1/linear"
  param {
    lr_mult: 1
    decay_mult: 1
  }
  convolution_param {
    num_output: 32
    bias_term: false
    kernel_size: 1
    weight_filler {
      type: "msra"
    }
  }
}
layer {
  name: "conv4_1/linear/bn"
  type: "BatchNorm"
  bottom: "conv4_1/linear"
  top: "conv4_1/linear"
  batch_norm_param {
    use_global_stats: true
    eps: 1e-05
  }
}
layer {
  name: "conv4_1/linear/scale"
  type: "Scale"
  bottom: "conv4_1/linear"
  top: "conv4_1/linear"
  param {
    lr_mult: 1
    decay_mult: 0
  }
  param {
    lr_mult: 1
    decay_mult: 0
  }
  scale_param {
    bias_term: true
  }
}
layer {
  name: "block_4_1"
  type: "Eltwise"
  bottom: "conv3_2/linear"
  bottom: "conv4_1/linear"
  top: "block_4_1"
}
layer {
  name: "conv4_2/expand"
  type: "Convolution"
  bottom: "block_4_1"
  top: "conv4_2/expand"
  param {
    lr_mult: 1
    decay_mult: 1
  }
  convolution_param {
    num_output: 192
    bias_term: false
    kernel_size: 1
    weight_filler {
      type: "msra"
    }
  }
}
layer {
  name: "conv4_2/expand/bn"
  type: "BatchNorm"
  bottom: "conv4_2/expand"
  top: "conv4_2/expand"
  batch_norm_param {
    use_global_stats: true
    eps: 1e-05
  }
}
layer {
  name: "conv4_2/expand/scale"
  type: "Scale"
  bottom: "conv4_2/expand"
  top: "conv4_2/expand"
  param {
    lr_mult: 1
    decay_mult: 0
  }
  param {
    lr_mult: 1
    decay_mult: 0
  }
  scale_param {
    bias_term: true
  }
}
layer {
  name: "relu4_2/expand"
  type: "ReLU"
  bottom: "conv4_2/expand"
  top: "conv4_2/expand"
}
layer {
  name: "conv4_2/dwise"
  type: "DepthwiseConvolution"
  bottom: "conv4_2/expand"
  top: "conv4_2/dwise"
  param {
    lr_mult: 1
    decay_mult: 1
  }
  convolution_param {
    num_output: 192
    bias_term: false
    pad: 1
    kernel_size: 3
    group: 192
    stride: 1
    weight_filler {
      type: "msra"
    }
  }
}
layer {
  name: "conv4_2/dwise/bn"
  type: "BatchNorm"
  bottom: "conv4_2/dwise"
  top: "conv4_2/dwise"
  batch_norm_param {
    use_global_stats: true
    eps: 1e-05
  }
}
layer {
  name: "conv4_2/dwise/scale"
  type: "Scale"
  bottom: "conv4_2/dwise"
  top: "conv4_2/dwise"
  param {
    lr_mult: 1
    decay_mult: 0
  }
  param {
    lr_mult: 1
    decay_mult: 0
  }
  scale_param {
    bias_term: true
  }
}
layer {
  name: "relu4_2/dwise"
  type: "ReLU"
  bottom: "conv4_2/dwise"
  top: "conv4_2/dwise"
}
layer {
  name: "conv4_2/linear"
  type: "Convolution"
  bottom: "conv4_2/dwise"
  top: "conv4_2/linear"
  param {
    lr_mult: 1
    decay_mult: 1
  }
  convolution_param {
    num_output: 32
    bias_term: false
    kernel_size: 1
    weight_filler {
      type: "msra"
    }
  }
}
layer {
  name: "conv4_2/linear/bn"
  type: "BatchNorm"
  bottom: "conv4_2/linear"
  top: "conv4_2/linear"
  batch_norm_param {
    use_global_stats: true
    eps: 1e-05
  }
}
layer {
  name: "conv4_2/linear/scale"
  type: "Scale"
  bottom: "conv4_2/linear"
  top: "conv4_2/linear"
  param {
    lr_mult: 1
    decay_mult: 0
  }
  param {
    lr_mult: 1
    decay_mult: 0
  }
  scale_param {
    bias_term: true
  }
}
layer {
  name: "block_4_2"
  type: "Eltwise"
  bottom: "block_4_1"
  bottom: "conv4_2/linear"
  top: "block_4_2"
}
layer {
  name: "conv4_3/expand"
  type: "Convolution"
  bottom: "block_4_2"
  top: "conv4_3/expand"
  param {
    lr_mult: 1
    decay_mult: 1
  }
  convolution_param {
    num_output: 192
    bias_term: false
    kernel_size: 1
    weight_filler {
      type: "msra"
    }
  }
}
layer {
  name: "conv4_3/expand/bn"
  type: "BatchNorm"
  bottom: "conv4_3/expand"
  top: "conv4_3/expand"
  batch_norm_param {
    use_global_stats: true
    eps: 1e-05
  }
}
layer {
  name: "conv4_3/expand/scale"
  type: "Scale"
  bottom: "conv4_3/expand"
  top: "conv4_3/expand"
  param {
    lr_mult: 1
    decay_mult: 0
  }
  param {
    lr_mult: 1
    decay_mult: 0
  }
  scale_param {
    bias_term: true
  }
}
layer {
  name: "relu4_3/expand"
  type: "ReLU"
  bottom: "conv4_3/expand"
  top: "conv4_3/expand"
}
layer {
  name: "conv4_3/dwise"
  type: "DepthwiseConvolution"
  bottom: "conv4_3/expand"
  top: "conv4_3/dwise"
  param {
    lr_mult: 1
    decay_mult: 1
  }
  convolution_param {
    num_output: 192
    bias_term: false
    pad: 1
    kernel_size: 3
    group: 192
    stride: 1
    weight_filler {
      type: "msra"
    }
  }
}
layer {
  name: "conv4_3/dwise/bn"
  type: "BatchNorm"
  bottom: "conv4_3/dwise"
  top: "conv4_3/dwise"
  batch_norm_param {
    use_global_stats: true
    eps: 1e-05
  }
}
layer {
  name: "conv4_3/dwise/scale"
  type: "Scale"
  bottom: "conv4_3/dwise"
  top: "conv4_3/dwise"
  param {
    lr_mult: 1
    decay_mult: 0
  }
  param {
    lr_mult: 1
    decay_mult: 0
  }
  scale_param {
    bias_term: true
  }
}
layer {
  name: "relu4_3/dwise"
  type: "ReLU"
  bottom: "conv4_3/dwise"
  top: "conv4_3/dwise"
}
layer {
  name: "conv4_3/linear"
  type: "Convolution"
  bottom: "conv4_3/dwise"
  top: "conv4_3/linear"
  param {
    lr_mult: 1
    decay_mult: 1
  }
  convolution_param {
    num_output: 64
    bias_term: false
    kernel_size: 1
    weight_filler {
      type: "msra"
    }
  }
}
layer {
  name: "conv4_3/linear/bn"
  type: "BatchNorm"
  bottom: "conv4_3/linear"
  top: "conv4_3/linear"
  batch_norm_param {
    use_global_stats: true
    eps: 1e-05
  }
}
layer {
  name: "conv4_3/linear/scale"
  type: "Scale"
  bottom: "conv4_3/linear"
  top: "conv4_3/linear"
  param {
    lr_mult: 1
    decay_mult: 0
  }
  param {
    lr_mult: 1
    decay_mult: 0
  }
  scale_param {
    bias_term: true
  }
}
layer {
  name: "conv4_4/expand"
  type: "Convolution"
  bottom: "conv4_3/linear"
  top: "conv4_4/expand"
  param {
    lr_mult: 1
    decay_mult: 1
  }
  convolution_param {
    num_output: 384
    bias_term: false
    kernel_size: 1
    weight_filler {
      type: "msra"
    }
  }
}
layer {
  name: "conv4_4/expand/bn"
  type: "BatchNorm"
  bottom: "conv4_4/expand"
  top: "conv4_4/expand"
  batch_norm_param {
    use_global_stats: true
    eps: 1e-05
  }
}
layer {
  name: "conv4_4/expand/scale"
  type: "Scale"
  bottom: "conv4_4/expand"
  top: "conv4_4/expand"
  param {
    lr_mult: 1
    decay_mult: 0
  }
  param {
    lr_mult: 1
    decay_mult: 0
  }
  scale_param {
    bias_term: true
  }
}
layer {
  name: "relu4_4/expand"
  type: "ReLU"
  bottom: "conv4_4/expand"
  top: "conv4_4/expand"
}
layer {
  name: "conv4_4/dwise"
  type: "DepthwiseConvolution"
  bottom: "conv4_4/expand"
  top: "conv4_4/dwise"
  param {
    lr_mult: 1
    decay_mult: 1
  }
  convolution_param {
    num_output: 384
    bias_term: false
    pad: 1
    kernel_size: 3
    group: 384
    stride: 1
    weight_filler {
      type: "msra"
    }
  }
}
layer {
  name: "conv4_4/dwise/bn"
  type: "BatchNorm"
  bottom: "conv4_4/dwise"
  top: "conv4_4/dwise"
  batch_norm_param {
    use_global_stats: true
    eps: 1e-05
  }
}
layer {
  name: "conv4_4/dwise/scale"
  type: "Scale"
  bottom: "conv4_4/dwise"
  top: "conv4_4/dwise"
  param {
    lr_mult: 1
    decay_mult: 0
  }
  param {
    lr_mult: 1
    decay_mult: 0
  }
  scale_param {
    bias_term: true
  }
}
layer {
  name: "relu4_4/dwise"
  type: "ReLU"
  bottom: "conv4_4/dwise"
  top: "conv4_4/dwise"
}
layer {
  name: "conv4_4/linear"
  type: "Convolution"
  bottom: "conv4_4/dwise"
  top: "conv4_4/linear"
  param {
    lr_mult: 1
    decay_mult: 1
  }
  convolution_param {
    num_output: 64
    bias_term: false
    kernel_size: 1
    weight_filler {
      type: "msra"
    }
  }
}
layer {
  name: "conv4_4/linear/bn"
  type: "BatchNorm"
  bottom: "conv4_4/linear"
  top: "conv4_4/linear"
  batch_norm_param {
    use_global_stats: true
    eps: 1e-05
  }
}
layer {
  name: "conv4_4/linear/scale"
  type: "Scale"
  bottom: "conv4_4/linear"
  top: "conv4_4/linear"
  param {
    lr_mult: 1
    decay_mult: 0
  }
  param {
    lr_mult: 1
    decay_mult: 0
  }
  scale_param {
    bias_term: true
  }
}
layer {
  name: "block_4_4"
  type: "Eltwise"
  bottom: "conv4_3/linear"
  bottom: "conv4_4/linear"
  top: "block_4_4"
}
layer {
  name: "conv4_5/expand"
  type: "Convolution"
  bottom: "block_4_4"
  top: "conv4_5/expand"
  param {
    lr_mult: 1
    decay_mult: 1
  }
  convolution_param {
    num_output: 384
    bias_term: false
    kernel_size: 1
    weight_filler {
      type: "msra"
    }
  }
}
layer {
  name: "conv4_5/expand/bn"
  type: "BatchNorm"
  bottom: "conv4_5/expand"
  top: "conv4_5/expand"
  batch_norm_param {
    use_global_stats: true
    eps: 1e-05
  }
}
layer {
  name: "conv4_5/expand/scale"
  type: "Scale"
  bottom: "conv4_5/expand"
  top: "conv4_5/expand"
  param {
    lr_mult: 1
    decay_mult: 0
  }
  param {
    lr_mult: 1
    decay_mult: 0
  }
  scale_param {
    bias_term: true
  }
}
layer {
  name: "relu4_5/expand"
  type: "ReLU"
  bottom: "conv4_5/expand"
  top: "conv4_5/expand"
}
layer {
  name: "conv4_5/dwise"
  type: "DepthwiseConvolution"
  bottom: "conv4_5/expand"
  top: "conv4_5/dwise"
  param {
    lr_mult: 1
    decay_mult: 1
  }
  convolution_param {
    num_output: 384
    bias_term: false
    pad: 1
    kernel_size: 3
    group: 384
    stride: 1
    weight_filler {
      type: "msra"
    }
  }
}
layer {
  name: "conv4_5/dwise/bn"
  type: "BatchNorm"
  bottom: "conv4_5/dwise"
  top: "conv4_5/dwise"
  batch_norm_param {
    use_global_stats: true
    eps: 1e-05
  }
}
layer {
  name: "conv4_5/dwise/scale"
  type: "Scale"
  bottom: "conv4_5/dwise"
  top: "conv4_5/dwise"
  param {
    lr_mult: 1
    decay_mult: 0
  }
  param {
    lr_mult: 1
    decay_mult: 0
  }
  scale_param {
    bias_term: true
  }
}
layer {
  name: "relu4_5/dwise"
  type: "ReLU"
  bottom: "conv4_5/dwise"
  top: "conv4_5/dwise"
}
layer {
  name: "conv4_5/linear"
  type: "Convolution"
  bottom: "conv4_5/dwise"
  top: "conv4_5/linear"
  param {
    lr_mult: 1
    decay_mult: 1
  }
  convolution_param {
    num_output: 64
    bias_term: false
    kernel_size: 1
    weight_filler {
      type: "msra"
    }
  }
}
layer {
  name: "conv4_5/linear/bn"
  type: "BatchNorm"
  bottom: "conv4_5/linear"
  top: "conv4_5/linear"
  batch_norm_param {
    use_global_stats: true
    eps: 1e-05
  }
}
layer {
  name: "conv4_5/linear/scale"
  type: "Scale"
  bottom: "conv4_5/linear"
  top: "conv4_5/linear"
  param {
    lr_mult: 1
    decay_mult: 0
  }
  param {
    lr_mult: 1
    decay_mult: 0
  }
  scale_param {
    bias_term: true
  }
}
layer {
  name: "block_4_5"
  type: "Eltwise"
  bottom: "block_4_4"
  bottom: "conv4_5/linear"
  top: "block_4_5"
}
layer {
  name: "conv4_6/expand"
  type: "Convolution"
  bottom: "block_4_5"
  top: "conv4_6/expand"
  param {
    lr_mult: 1
    decay_mult: 1
  }
  convolution_param {
    num_output: 384
    bias_term: false
    kernel_size: 1
    weight_filler {
      type: "msra"
    }
  }
}
layer {
  name: "conv4_6/expand/bn"
  type: "BatchNorm"
  bottom: "conv4_6/expand"
  top: "conv4_6/expand"
  batch_norm_param {
    use_global_stats: true
    eps: 1e-05
  }
}
layer {
  name: "conv4_6/expand/scale"
  type: "Scale"
  bottom: "conv4_6/expand"
  top: "conv4_6/expand"
  param {
    lr_mult: 1
    decay_mult: 0
  }
  param {
    lr_mult: 1
    decay_mult: 0
  }
  scale_param {
    bias_term: true
  }
}
layer {
  name: "relu4_6/expand"
  type: "ReLU"
  bottom: "conv4_6/expand"
  top: "conv4_6/expand"
}
layer {
  name: "conv4_6/dwise"
  type: "DepthwiseConvolution"
  bottom: "conv4_6/expand"
  top: "conv4_6/dwise"
  param {
    lr_mult: 1
    decay_mult: 1
  }
  convolution_param {
    num_output: 384
    bias_term: false
    pad: 1
    kernel_size: 3
    group: 384
    stride: 1
    weight_filler {
      type: "msra"
    }
  }
}
layer {
  name: "conv4_6/dwise/bn"
  type: "BatchNorm"
  bottom: "conv4_6/dwise"
  top: "conv4_6/dwise"
  batch_norm_param {
    use_global_stats: true
    eps: 1e-05
  }
}
layer {
  name: "conv4_6/dwise/scale"
  type: "Scale"
  bottom: "conv4_6/dwise"
  top: "conv4_6/dwise"
  param {
    lr_mult: 1
    decay_mult: 0
  }
  param {
    lr_mult: 1
    decay_mult: 0
  }
  scale_param {
    bias_term: true
  }
}
layer {
  name: "relu4_6/dwise"
  type: "ReLU"
  bottom: "conv4_6/dwise"
  top: "conv4_6/dwise"
}
layer {
  name: "conv4_6/linear"
  type: "Convolution"
  bottom: "conv4_6/dwise"
  top: "conv4_6/linear"
  param {
    lr_mult: 1
    decay_mult: 1
  }
  convolution_param {
    num_output: 64
    bias_term: false
    kernel_size: 1
    weight_filler {
      type: "msra"
    }
  }
}
layer {
  name: "conv4_6/linear/bn"
  type: "BatchNorm"
  bottom: "conv4_6/linear"
  top: "conv4_6/linear"
  batch_norm_param {
    use_global_stats: true
    eps: 1e-05
  }
}
layer {
  name: "conv4_6/linear/scale"
  type: "Scale"
  bottom: "conv4_6/linear"
  top: "conv4_6/linear"
  param {
    lr_mult: 1
    decay_mult: 0
  }
  param {
    lr_mult: 1
    decay_mult: 0
  }
  scale_param {
    bias_term: true
  }
}
layer {
  name: "block_4_6"
  type: "Eltwise"
  bottom: "block_4_5"
  bottom: "conv4_6/linear"
  top: "block_4_6"
}
layer {
  name: "conv4_7/expand"
  type: "Convolution"
  bottom: "block_4_6"
  top: "conv4_7/expand"
  param {
    lr_mult: 1
    decay_mult: 1
  }
  convolution_param {
    num_output: 384
    bias_term: false
    kernel_size: 1
    weight_filler {
      type: "msra"
    }
  }
}
layer {
  name: "conv4_7/expand/bn"
  type: "BatchNorm"
  bottom: "conv4_7/expand"
  top: "conv4_7/expand"
  batch_norm_param {
    use_global_stats: true
    eps: 1e-05
  }
}
layer {
  name: "conv4_7/expand/scale"
  type: "Scale"
  bottom: "conv4_7/expand"
  top: "conv4_7/expand"
  param {
    lr_mult: 1
    decay_mult: 0
  }
  param {
    lr_mult: 1
    decay_mult: 0
  }
  scale_param {
    bias_term: true
  }
}
layer {
  name: "relu4_7/expand"
  type: "ReLU"
  bottom: "conv4_7/expand"
  top: "conv4_7/expand"
}
layer {
  name: "conv4_7/dwise"
  type: "DepthwiseConvolution"
  bottom: "conv4_7/expand"
  top: "conv4_7/dwise"
  param {
    lr_mult: 1
    decay_mult: 1
  }
  convolution_param {
    num_output: 384
    bias_term: false
    pad: 1
    kernel_size: 3
    group: 384
    stride: 2
    weight_filler {
      type: "msra"
    }
  }
}
layer {
  name: "conv4_7/dwise/bn"
  type: "BatchNorm"
  bottom: "conv4_7/dwise"
  top: "conv4_7/dwise"
  batch_norm_param {
    use_global_stats: true
    eps: 1e-05
  }
}
layer {
  name: "conv4_7/dwise/scale"
  type: "Scale"
  bottom: "conv4_7/dwise"
  top: "conv4_7/dwise"
  param {
    lr_mult: 1
    decay_mult: 0
  }
  param {
    lr_mult: 1
    decay_mult: 0
  }
  scale_param {
    bias_term: true
  }
}
layer {
  name: "relu4_7/dwise"
  type: "ReLU"
  bottom: "conv4_7/dwise"
  top: "conv4_7/dwise"
}
layer {
  name: "conv4_7/linear"
  type: "Convolution"
  bottom: "conv4_7/dwise"
  top: "conv4_7/linear"
  param {
    lr_mult: 1
    decay_mult: 1
  }
  convolution_param {
    num_output: 96
    bias_term: false
    kernel_size: 1
    weight_filler {
      type: "msra"
    }
  }
}
layer {
  name: "conv4_7/linear/bn"
  type: "BatchNorm"
  bottom: "conv4_7/linear"
  top: "conv4_7/linear"
  batch_norm_param {
    use_global_stats: true
    eps: 1e-05
  }
}
layer {
  name: "conv4_7/linear/scale"
  type: "Scale"
  bottom: "conv4_7/linear"
  top: "conv4_7/linear"
  param {
    lr_mult: 1
    decay_
I1009 21:37:38.126904   918 layer_factory.hpp:77] Creating layer data
I1009 21:37:38.127007   918 net.cpp:100] Creating Layer data
I1009 21:37:38.127015   918 net.cpp:408] data -> data
I1009 21:37:38.127039   918 net.cpp:408] data -> label
I1009 21:37:38.127555   927 db_lmdb.cpp:35] Opened lmdb examples/GTSDB/GTSDB_trainval_lmdb
I1009 21:37:38.140281   918 annotated_data_layer.cpp:62] output data size: 2,3,300,510
I1009 21:37:38.144659   918 net.cpp:150] Setting up data
I1009 21:37:38.144676   918 net.cpp:157] Top shape: 2 3 300 510 (918000)
I1009 21:37:38.144680   918 net.cpp:157] Top shape: 1 1 3 8 (24)
I1009 21:37:38.144682   918 net.cpp:165] Memory required for data: 3672096
I1009 21:37:38.144692   918 layer_factory.hpp:77] Creating layer data_data_0_split
I1009 21:37:38.144704   918 net.cpp:100] Creating Layer data_data_0_split
I1009 21:37:38.144708   918 net.cpp:434] data_data_0_split <- data
I1009 21:37:38.144721   918 net.cpp:408] data_data_0_split -> data_data_0_split_0
I1009 21:37:38.144731   918 net.cpp:408] data_data_0_split -> data_data_0_split_1
I1009 21:37:38.144737   918 net.cpp:408] data_data_0_split -> data_data_0_split_2
I1009 21:37:38.144745   918 net.cpp:408] data_data_0_split -> data_data_0_split_3
I1009 21:37:38.144752   918 net.cpp:408] data_data_0_split -> data_data_0_split_4
I1009 21:37:38.144758   918 net.cpp:408] data_data_0_split -> data_data_0_split_5
I1009 21:37:38.144764   918 net.cpp:408] data_data_0_split -> data_data_0_split_6
I1009 21:37:38.144836   918 net.cpp:150] Setting up data_data_0_split
I1009 21:37:38.144842   918 net.cpp:157] Top shape: 2 3 300 510 (918000)
I1009 21:37:38.144847   918 net.cpp:157] Top shape: 2 3 300 510 (918000)
I1009 21:37:38.144852   918 net.cpp:157] Top shape: 2 3 300 510 (918000)
I1009 21:37:38.144857   918 net.cpp:157] Top shape: 2 3 300 510 (918000)
I1009 21:37:38.144862   918 net.cpp:157] Top shape: 2 3 300 510 (918000)
I1009 21:37:38.144866   918 net.cpp:157] Top shape: 2 3 300 510 (918000)
I1009 21:37:38.144871   918 net.cpp:157] Top shape: 2 3 300 510 (918000)
I1009 21:37:38.144874   918 net.cpp:165] Memory required for data: 29376096
I1009 21:37:38.144877   918 layer_factory.hpp:77] Creating layer conv1
I1009 21:37:38.144891   918 net.cpp:100] Creating Layer conv1
I1009 21:37:38.144893   918 net.cpp:434] conv1 <- data_data_0_split_0
I1009 21:37:38.144898   918 net.cpp:408] conv1 -> conv1
I1009 21:37:38.473340   918 net.cpp:150] Setting up conv1
I1009 21:37:38.473359   918 net.cpp:157] Top shape: 2 32 150 255 (2448000)
I1009 21:37:38.473362   918 net.cpp:165] Memory required for data: 39168096
I1009 21:37:38.473382   918 layer_factory.hpp:77] Creating layer conv1/bn
I1009 21:37:38.473392   918 net.cpp:100] Creating Layer conv1/bn
I1009 21:37:38.473395   918 net.cpp:434] conv1/bn <- conv1
I1009 21:37:38.473402   918 net.cpp:395] conv1/bn -> conv1 (in-place)
I1009 21:37:38.473985   918 net.cpp:150] Setting up conv1/bn
I1009 21:37:38.473994   918 net.cpp:157] Top shape: 2 32 150 255 (2448000)
I1009 21:37:38.473996   918 net.cpp:165] Memory required for data: 48960096
I1009 21:37:38.474006   918 layer_factory.hpp:77] Creating layer conv1/scale
I1009 21:37:38.474015   918 net.cpp:100] Creating Layer conv1/scale
I1009 21:37:38.474018   918 net.cpp:434] conv1/scale <- conv1
I1009 21:37:38.474022   918 net.cpp:395] conv1/scale -> conv1 (in-place)
I1009 21:37:38.474057   918 layer_factory.hpp:77] Creating layer conv1/scale
I1009 21:37:38.474151   918 net.cpp:150] Setting up conv1/scale
I1009 21:37:38.474158   918 net.cpp:157] Top shape: 2 32 150 255 (2448000)
I1009 21:37:38.474160   918 net.cpp:165] Memory required for data: 58752096
I1009 21:37:38.474169   918 layer_factory.hpp:77] Creating layer relu1
I1009 21:37:38.474174   918 net.cpp:100] Creating Layer relu1
I1009 21:37:38.474176   918 net.cpp:434] relu1 <- conv1
I1009 21:37:38.474180   918 net.cpp:395] relu1 -> conv1 (in-place)
I1009 21:37:38.474436   918 net.cpp:150] Setting up relu1
I1009 21:37:38.474442   918 net.cpp:157] Top shape: 2 32 150 255 (2448000)
I1009 21:37:38.474444   918 net.cpp:165] Memory required for data: 68544096
I1009 21:37:38.474447   918 layer_factory.hpp:77] Creating layer conv2_1/expand
I1009 21:37:38.474457   918 net.cpp:100] Creating Layer conv2_1/expand
I1009 21:37:38.474458   918 net.cpp:434] conv2_1/expand <- conv1
I1009 21:37:38.474464   918 net.cpp:408] conv2_1/expand -> conv2_1/expand
I1009 21:37:38.475625   918 net.cpp:150] Setting up conv2_1/expand
I1009 21:37:38.475632   918 net.cpp:157] Top shape: 2 32 150 255 (2448000)
I1009 21:37:38.475636   918 net.cpp:165] Memory required for data: 78336096
I1009 21:37:38.475641   918 layer_factory.hpp:77] Creating layer conv2_1/expand/bn
I1009 21:37:38.475648   918 net.cpp:100] Creating Layer conv2_1/expand/bn
I1009 21:37:38.475651   918 net.cpp:434] conv2_1/expand/bn <- conv2_1/expand
I1009 21:37:38.475656   918 net.cpp:395] conv2_1/expand/bn -> conv2_1/expand (in-place)
I1009 21:37:38.475793   918 net.cpp:150] Setting up conv2_1/expand/bn
I1009 21:37:38.475798   918 net.cpp:157] Top shape: 2 32 150 255 (2448000)
I1009 21:37:38.475801   918 net.cpp:165] Memory required for data: 88128096
I1009 21:37:38.475811   918 layer_factory.hpp:77] Creating layer conv2_1/expand/scale
I1009 21:37:38.475817   918 net.cpp:100] Creating Layer conv2_1/expand/scale
I1009 21:37:38.475821   918 net.cpp:434] conv2_1/expand/scale <- conv2_1/expand
I1009 21:37:38.475826   918 net.cpp:395] conv2_1/expand/scale -> conv2_1/expand (in-place)
I1009 21:37:38.475858   918 layer_factory.hpp:77] Creating layer conv2_1/expand/scale
I1009 21:37:38.475961   918 net.cpp:150] Setting up conv2_1/expand/scale
I1009 21:37:38.475966   918 net.cpp:157] Top shape: 2 32 150 255 (2448000)
I1009 21:37:38.475970   918 net.cpp:165] Memory required for data: 97920096
I1009 21:37:38.475975   918 layer_factory.hpp:77] Creating layer relu2_1/expand
I1009 21:37:38.475981   918 net.cpp:100] Creating Layer relu2_1/expand
I1009 21:37:38.475986   918 net.cpp:434] relu2_1/expand <- conv2_1/expand
I1009 21:37:38.475989   918 net.cpp:395] relu2_1/expand -> conv2_1/expand (in-place)
I1009 21:37:38.476255   918 net.cpp:150] Setting up relu2_1/expand
I1009 21:37:38.476261   918 net.cpp:157] Top shape: 2 32 150 255 (2448000)
I1009 21:37:38.476263   918 net.cpp:165] Memory required for data: 107712096
I1009 21:37:38.476267   918 layer_factory.hpp:77] Creating layer conv2_1/dwise
I1009 21:37:38.476274   918 net.cpp:100] Creating Layer conv2_1/dwise
I1009 21:37:38.476276   918 net.cpp:434] conv2_1/dwise <- conv2_1/expand
I1009 21:37:38.476282   918 net.cpp:408] conv2_1/dwise -> conv2_1/dwise
I1009 21:37:38.476410   918 net.cpp:150] Setting up conv2_1/dwise
I1009 21:37:38.476416   918 net.cpp:157] Top shape: 2 32 150 255 (2448000)
I1009 21:37:38.476418   918 net.cpp:165] Memory required for data: 117504096
I1009 21:37:38.476423   918 layer_factory.hpp:77] Creating layer conv2_1/dwise/bn
I1009 21:37:38.476428   918 net.cpp:100] Creating Layer conv2_1/dwise/bn
I1009 21:37:38.476433   918 net.cpp:434] conv2_1/dwise/bn <- conv2_1/dwise
I1009 21:37:38.476435   918 net.cpp:395] conv2_1/dwise/bn -> conv2_1/dwise (in-place)
I1009 21:37:38.476567   918 net.cpp:150] Setting up conv2_1/dwise/bn
I1009 21:37:38.476572   918 net.cpp:157] Top shape: 2 32 150 255 (2448000)
I1009 21:37:38.476575   918 net.cpp:165] Memory required for data: 127296096
I1009 21:37:38.476581   918 layer_factory.hpp:77] Creating layer conv2_1/dwise/scale
I1009 21:37:38.476586   918 net.cpp:100] Creating Layer conv2_1/dwise/scale
I1009 21:37:38.476589   918 net.cpp:434] conv2_1/dwise/scale <- conv2_1/dwise
I1009 21:37:38.476594   918 net.cpp:395] conv2_1/dwise/scale -> conv2_1/dwise (in-place)
I1009 21:37:38.476624   918 layer_factory.hpp:77] Creating layer conv2_1/dwise/scale
I1009 21:37:38.476716   918 net.cpp:150] Setting up conv2_1/dwise/scale
I1009 21:37:38.476722   918 net.cpp:157] Top shape: 2 32 150 255 (2448000)
I1009 21:37:38.476724   918 net.cpp:165] Memory required for data: 137088096
I1009 21:37:38.476732   918 layer_factory.hpp:77] Creating layer relu2_1/dwise
I1009 21:37:38.476737   918 net.cpp:100] Creating Layer relu2_1/dwise
I1009 21:37:38.476740   918 net.cpp:434] relu2_1/dwise <- conv2_1/dwise
I1009 21:37:38.476745   918 net.cpp:395] relu2_1/dwise -> conv2_1/dwise (in-place)
I1009 21:37:38.477015   918 net.cpp:150] Setting up relu2_1/dwise
I1009 21:37:38.477021   918 net.cpp:157] Top shape: 2 32 150 255 (2448000)
I1009 21:37:38.477025   918 net.cpp:165] Memory required for data: 146880096
I1009 21:37:38.477028   918 layer_factory.hpp:77] Creating layer conv2_1/linear
I1009 21:37:38.477035   918 net.cpp:100] Creating Layer conv2_1/linear
I1009 21:37:38.477038   918 net.cpp:434] conv2_1/linear <- conv2_1/dwise
I1009 21:37:38.477043   918 net.cpp:408] conv2_1/linear -> conv2_1/linear
I1009 21:37:38.478863   918 net.cpp:150] Setting up conv2_1/linear
I1009 21:37:38.478873   918 net.cpp:157] Top shape: 2 16 150 255 (1224000)
I1009 21:37:38.478875   918 net.cpp:165] Memory required for data: 151776096
I1009 21:37:38.478881   918 layer_factory.hpp:77] Creating layer conv2_1/linear/bn
I1009 21:37:38.478889   918 net.cpp:100] Creating Layer conv2_1/linear/bn
I1009 21:37:38.478893   918 net.cpp:434] conv2_1/linear/bn <- conv2_1/linear
I1009 21:37:38.478898   918 net.cpp:395] conv2_1/linear/bn -> conv2_1/linear (in-place)
I1009 21:37:38.479044   918 net.cpp:150] Setting up conv2_1/linear/bn
I1009 21:37:38.479049   918 net.cpp:157] Top shape: 2 16 150 255 (1224000)
I1009 21:37:38.479053   918 net.cpp:165] Memory required for data: 156672096
I1009 21:37:38.479058   918 layer_factory.hpp:77] Creating layer conv2_1/linear/scale
I1009 21:37:38.479076   918 net.cpp:100] Creating Layer conv2_1/linear/scale
I1009 21:37:38.479079   918 net.cpp:434] conv2_1/linear/scale <- conv2_1/linear
I1009 21:37:38.479084   918 net.cpp:395] conv2_1/linear/scale -> conv2_1/linear (in-place)
I1009 21:37:38.479115   918 layer_factory.hpp:77] Creating layer conv2_1/linear/scale
I1009 21:37:38.479215   918 net.cpp:150] Setting up conv2_1/linear/scale
I1009 21:37:38.479221   918 net.cpp:157] Top shape: 2 16 150 255 (1224000)
I1009 21:37:38.479223   918 net.cpp:165] Memory required for data: 161568096
I1009 21:37:38.479229   918 layer_factory.hpp:77] Creating layer conv2_2/expand
I1009 21:37:38.479238   918 net.cpp:100] Creating Layer conv2_2/expand
I1009 21:37:38.479240   918 net.cpp:434] conv2_2/expand <- conv2_1/linear
I1009 21:37:38.479246   918 net.cpp:408] conv2_2/expand -> conv2_2/expand
I1009 21:37:38.480831   918 net.cpp:150] Setting up conv2_2/expand
I1009 21:37:38.480841   918 net.cpp:157] Top shape: 2 96 150 255 (7344000)
I1009 21:37:38.480844   918 net.cpp:165] Memory required for data: 190944096
I1009 21:37:38.480849   918 layer_factory.hpp:77] Creating layer conv2_2/expand/bn
I1009 21:37:38.480855   918 net.cpp:100] Creating Layer conv2_2/expand/bn
I1009 21:37:38.480859   918 net.cpp:434] conv2_2/expand/bn <- conv2_2/expand
I1009 21:37:38.480865   918 net.cpp:395] conv2_2/expand/bn -> conv2_2/expand (in-place)
I1009 21:37:38.481010   918 net.cpp:150] Setting up conv2_2/expand/bn
I1009 21:37:38.481015   918 net.cpp:157] Top shape: 2 96 150 255 (7344000)
I1009 21:37:38.481019   918 net.cpp:165] Memory required for data: 220320096
I1009 21:37:38.481026   918 layer_factory.hpp:77] Creating layer conv2_2/expand/scale
I1009 21:37:38.481030   918 net.cpp:100] Creating Layer conv2_2/expand/scale
I1009 21:37:38.481034   918 net.cpp:434] conv2_2/expand/scale <- conv2_2/expand
I1009 21:37:38.481040   918 net.cpp:395] conv2_2/expand/scale -> conv2_2/expand (in-place)
I1009 21:37:38.481068   918 layer_factory.hpp:77] Creating layer conv2_2/expand/scale
I1009 21:37:38.481585   918 net.cpp:150] Setting up conv2_2/expand/scale
I1009 21:37:38.481593   918 net.cpp:157] Top shape: 2 96 150 255 (7344000)
I1009 21:37:38.481598   918 net.cpp:165] Memory required for data: 249696096
I1009 21:37:38.481603   918 layer_factory.hpp:77] Creating layer relu2_2/expand
I1009 21:37:38.481609   918 net.cpp:100] Creating Layer relu2_2/expand
I1009 21:37:38.481612   918 net.cpp:434] relu2_2/expand <- conv2_2/expand
I1009 21:37:38.481617   918 net.cpp:395] relu2_2/expand -> conv2_2/expand (in-place)
I1009 21:37:38.481894   918 net.cpp:150] Setting up relu2_2/expand
I1009 21:37:38.481900   918 net.cpp:157] Top shape: 2 96 150 255 (7344000)
I1009 21:37:38.481902   918 net.cpp:165] Memory required for data: 279072096
I1009 21:37:38.481906   918 layer_factory.hpp:77] Creating layer conv2_2/dwise
I1009 21:37:38.481914   918 net.cpp:100] Creating Layer conv2_2/dwise
I1009 21:37:38.481916   918 net.cpp:434] conv2_2/dwise <- conv2_2/expand
I1009 21:37:38.481921   918 net.cpp:408] conv2_2/dwise -> conv2_2/dwise
I1009 21:37:38.482061   918 net.cpp:150] Setting up conv2_2/dwise
I1009 21:37:38.482066   918 net.cpp:157] Top shape: 2 96 75 128 (1843200)
I1009 21:37:38.482069   918 net.cpp:165] Memory required for data: 286444896
I1009 21:37:38.482074   918 layer_factory.hpp:77] Creating layer conv2_2/dwise/bn
I1009 21:37:38.482079   918 net.cpp:100] Creating Layer conv2_2/dwise/bn
I1009 21:37:38.482082   918 net.cpp:434] conv2_2/dwise/bn <- conv2_2/dwise
I1009 21:37:38.482086   918 net.cpp:395] conv2_2/dwise/bn -> conv2_2/dwise (in-place)
I1009 21:37:38.482633   918 net.cpp:150] Setting up conv2_2/dwise/bn
I1009 21:37:38.482641   918 net.cpp:157] Top shape: 2 96 75 128 (1843200)
I1009 21:37:38.482643   918 net.cpp:165] Memory required for data: 293817696
I1009 21:37:38.482656   918 layer_factory.hpp:77] Creating layer conv2_2/dwise/scale
I1009 21:37:38.482661   918 net.cpp:100] Creating Layer conv2_2/dwise/scale
I1009 21:37:38.482666   918 net.cpp:434] conv2_2/dwise/scale <- conv2_2/dwise
I1009 21:37:38.482681   918 net.cpp:395] conv2_2/dwise/scale -> conv2_2/dwise (in-place)
I1009 21:37:38.482712   918 layer_factory.hpp:77] Creating layer conv2_2/dwise/scale
I1009 21:37:38.482789   918 net.cpp:150] Setting up conv2_2/dwise/scale
I1009 21:37:38.482795   918 net.cpp:157] Top shape: 2 96 75 128 (1843200)
I1009 21:37:38.482797   918 net.cpp:165] Memory required for data: 301190496
I1009 21:37:38.482803   918 layer_factory.hpp:77] Creating layer relu2_2/dwise
I1009 21:37:38.482807   918 net.cpp:100] Creating Layer relu2_2/dwise
I1009 21:37:38.482811   918 net.cpp:434] relu2_2/dwise <- conv2_2/dwise
I1009 21:37:38.482815   918 net.cpp:395] relu2_2/dwise -> conv2_2/dwise (in-place)
I1009 21:37:38.483201   918 net.cpp:150] Setting up relu2_2/dwise
I1009 21:37:38.483208   918 net.cpp:157] Top shape: 2 96 75 128 (1843200)
I1009 21:37:38.483211   918 net.cpp:165] Memory required for data: 308563296
I1009 21:37:38.483214   918 layer_factory.hpp:77] Creating layer conv2_2/linear
I1009 21:37:38.483222   918 net.cpp:100] Creating Layer conv2_2/linear
I1009 21:37:38.483227   918 net.cpp:434] conv2_2/linear <- conv2_2/dwise
I1009 21:37:38.483232   918 net.cpp:408] conv2_2/linear -> conv2_2/linear
I1009 21:37:38.485108   918 net.cpp:150] Setting up conv2_2/linear
I1009 21:37:38.485122   918 net.cpp:157] Top shape: 2 24 75 128 (460800)
I1009 21:37:38.485126   918 net.cpp:165] Memory required for data: 310406496
I1009 21:37:38.485133   918 layer_factory.hpp:77] Creating layer conv2_2/linear/bn
I1009 21:37:38.485141   918 net.cpp:100] Creating Layer conv2_2/linear/bn
I1009 21:37:38.485144   918 net.cpp:434] conv2_2/linear/bn <- conv2_2/linear
I1009 21:37:38.485150   918 net.cpp:395] conv2_2/linear/bn -> conv2_2/linear (in-place)
I1009 21:37:38.485345   918 net.cpp:150] Setting up conv2_2/linear/bn
I1009 21:37:38.485352   918 net.cpp:157] Top shape: 2 24 75 128 (460800)
I1009 21:37:38.485354   918 net.cpp:165] Memory required for data: 312249696
I1009 21:37:38.485360   918 layer_factory.hpp:77] Creating layer conv2_2/linear/scale
I1009 21:37:38.485368   918 net.cpp:100] Creating Layer conv2_2/linear/scale
I1009 21:37:38.485371   918 net.cpp:434] conv2_2/linear/scale <- conv2_2/linear
I1009 21:37:38.485375   918 net.cpp:395] conv2_2/linear/scale -> conv2_2/linear (in-place)
I1009 21:37:38.485414   918 layer_factory.hpp:77] Creating layer conv2_2/linear/scale
I1009 21:37:38.485517   918 net.cpp:150] Setting up conv2_2/linear/scale
I1009 21:37:38.485534   918 net.cpp:157] Top shape: 2 24 75 128 (460800)
I1009 21:37:38.485543   918 net.cpp:165] Memory required for data: 314092896
I1009 21:37:38.485553   918 layer_factory.hpp:77] Creating layer conv2_2/linear_conv2_2/linear/scale_0_split
I1009 21:37:38.485565   918 net.cpp:100] Creating Layer conv2_2/linear_conv2_2/linear/scale_0_split
I1009 21:37:38.485574   918 net.cpp:434] conv2_2/linear_conv2_2/linear/scale_0_split <- conv2_2/linear
I1009 21:37:38.485579   918 net.cpp:408] conv2_2/linear_conv2_2/linear/scale_0_split -> conv2_2/linear_conv2_2/linear/scale_0_split_0
I1009 21:37:38.485589   918 net.cpp:408] conv2_2/linear_conv2_2/linear/scale_0_split -> conv2_2/linear_conv2_2/linear/scale_0_split_1
I1009 21:37:38.485626   918 net.cpp:150] Setting up conv2_2/linear_conv2_2/linear/scale_0_split
I1009 21:37:38.485633   918 net.cpp:157] Top shape: 2 24 75 128 (460800)
I1009 21:37:38.485637   918 net.cpp:157] Top shape: 2 24 75 128 (460800)
I1009 21:37:38.485640   918 net.cpp:165] Memory required for data: 317779296
I1009 21:37:38.485642   918 layer_factory.hpp:77] Creating layer conv3_1/expand
I1009 21:37:38.485651   918 net.cpp:100] Creating Layer conv3_1/expand
I1009 21:37:38.485652   918 net.cpp:434] conv3_1/expand <- conv2_2/linear_conv2_2/linear/scale_0_split_0
I1009 21:37:38.485656   918 net.cpp:408] conv3_1/expand -> conv3_1/expand
I1009 21:37:38.487118   918 net.cpp:150] Setting up conv3_1/expand
I1009 21:37:38.487128   918 net.cpp:157] Top shape: 2 144 75 128 (2764800)
I1009 21:37:38.487130   918 net.cpp:165] Memory required for data: 328838496
I1009 21:37:38.487146   918 layer_factory.hpp:77] Creating layer conv3_1/expand/bn
I1009 21:37:38.487154   918 net.cpp:100] Creating Layer conv3_1/expand/bn
I1009 21:37:38.487159   918 net.cpp:434] conv3_1/expand/bn <- conv3_1/expand
I1009 21:37:38.487164   918 net.cpp:395] conv3_1/expand/bn -> conv3_1/expand (in-place)
I1009 21:37:38.487352   918 net.cpp:150] Setting up conv3_1/expand/bn
I1009 21:37:38.487359   918 net.cpp:157] Top shape: 2 144 75 128 (2764800)
I1009 21:37:38.487361   918 net.cpp:165] Memory required for data: 339897696
I1009 21:37:38.487368   918 layer_factory.hpp:77] Creating layer conv3_1/expand/scale
I1009 21:37:38.487375   918 net.cpp:100] Creating Layer conv3_1/expand/scale
I1009 21:37:38.487377   918 net.cpp:434] conv3_1/expand/scale <- conv3_1/expand
I1009 21:37:38.487382   918 net.cpp:395] conv3_1/expand/scale -> conv3_1/expand (in-place)
I1009 21:37:38.487416   918 layer_factory.hpp:77] Creating layer conv3_1/expand/scale
I1009 21:37:38.487519   918 net.cpp:150] Setting up conv3_1/expand/scale
I1009 21:37:38.487524   918 net.cpp:157] Top shape: 2 144 75 128 (2764800)
I1009 21:37:38.487529   918 net.cpp:165] Memory required for data: 350956896
I1009 21:37:38.487534   918 layer_factory.hpp:77] Creating layer relu3_1/expand
I1009 21:37:38.487543   918 net.cpp:100] Creating Layer relu3_1/expand
I1009 21:37:38.487547   918 net.cpp:434] relu3_1/expand <- conv3_1/expand
I1009 21:37:38.487552   918 net.cpp:395] relu3_1/expand -> conv3_1/expand (in-place)
I1009 21:37:38.487912   918 net.cpp:150] Setting up relu3_1/expand
I1009 21:37:38.487920   918 net.cpp:157] Top shape: 2 144 75 128 (2764800)
I1009 21:37:38.487922   918 net.cpp:165] Memory required for data: 362016096
I1009 21:37:38.487927   918 layer_factory.hpp:77] Creating layer conv3_1/dwise
I1009 21:37:38.487933   918 net.cpp:100] Creating Layer conv3_1/dwise
I1009 21:37:38.487936   918 net.cpp:434] conv3_1/dwise <- conv3_1/expand
I1009 21:37:38.487941   918 net.cpp:408] conv3_1/dwise -> conv3_1/dwise
I1009 21:37:38.488135   918 net.cpp:150] Setting up conv3_1/dwise
I1009 21:37:38.488140   918 net.cpp:157] Top shape: 2 144 75 128 (2764800)
I1009 21:37:38.488144   918 net.cpp:165] Memory required for data: 373075296
I1009 21:37:38.488147   918 layer_factory.hpp:77] Creating layer conv3_1/dwise/bn
I1009 21:37:38.488154   918 net.cpp:100] Creating Layer conv3_1/dwise/bn
I1009 21:37:38.488157   918 net.cpp:434] conv3_1/dwise/bn <- conv3_1/dwise
I1009 21:37:38.488162   918 net.cpp:395] conv3_1/dwise/bn -> conv3_1/dwise (in-place)
I1009 21:37:38.488337   918 net.cpp:150] Setting up conv3_1/dwise/bn
I1009 21:37:38.488343   918 net.cpp:157] Top shape: 2 144 75 128 (2764800)
I1009 21:37:38.488345   918 net.cpp:165] Memory required for data: 384134496
I1009 21:37:38.488350   918 layer_factory.hpp:77] Creating layer conv3_1/dwise/scale
I1009 21:37:38.488356   918 net.cpp:100] Creating Layer conv3_1/dwise/scale
I1009 21:37:38.488360   918 net.cpp:434] conv3_1/dwise/scale <- conv3_1/dwise
I1009 21:37:38.488363   918 net.cpp:395] conv3_1/dwise/scale -> conv3_1/dwise (in-place)
I1009 21:37:38.488399   918 layer_factory.hpp:77] Creating layer conv3_1/dwise/scale
I1009 21:37:38.488497   918 net.cpp:150] Setting up conv3_1/dwise/scale
I1009 21:37:38.488503   918 net.cpp:157] Top shape: 2 144 75 128 (2764800)
I1009 21:37:38.488507   918 net.cpp:165] Memory required for data: 395193696
I1009 21:37:38.488512   918 layer_factory.hpp:77] Creating layer relu3_1/dwise
I1009 21:37:38.488517   918 net.cpp:100] Creating Layer relu3_1/dwise
I1009 21:37:38.488520   918 net.cpp:434] relu3_1/dwise <- conv3_1/dwise
I1009 21:37:38.488524   918 net.cpp:395] relu3_1/dwise -> conv3_1/dwise (in-place)
I1009 21:37:38.489009   918 net.cpp:150] Setting up relu3_1/dwise
I1009 21:37:38.489017   918 net.cpp:157] Top shape: 2 144 75 128 (2764800)
I1009 21:37:38.489022   918 net.cpp:165] Memory required for data: 406252896
I1009 21:37:38.489024   918 layer_factory.hpp:77] Creating layer conv3_1/linear
I1009 21:37:38.489032   918 net.cpp:100] Creating Layer conv3_1/linear
I1009 21:37:38.489043   918 net.cpp:434] conv3_1/linear <- conv3_1/dwise
I1009 21:37:38.489050   918 net.cpp:408] conv3_1/linear -> conv3_1/linear
I1009 21:37:38.490475   918 net.cpp:150] Setting up conv3_1/linear
I1009 21:37:38.490484   918 net.cpp:157] Top shape: 2 24 75 128 (460800)
I1009 21:37:38.490487   918 net.cpp:165] Memory required for data: 408096096
I1009 21:37:38.490494   918 layer_factory.hpp:77] Creating layer conv3_1/linear/bn
I1009 21:37:38.490499   918 net.cpp:100] Creating Layer conv3_1/linear/bn
I1009 21:37:38.490502   918 net.cpp:434] conv3_1/linear/bn <- conv3_1/linear
I1009 21:37:38.490507   918 net.cpp:395] conv3_1/linear/bn -> conv3_1/linear (in-place)
I1009 21:37:38.490694   918 net.cpp:150] Setting up conv3_1/linear/bn
I1009 21:37:38.490698   918 net.cpp:157] Top shape: 2 24 75 128 (460800)
I1009 21:37:38.490701   918 net.cpp:165] Memory required for data: 409939296
I1009 21:37:38.490707   918 layer_factory.hpp:77] Creating layer conv3_1/linear/scale
I1009 21:37:38.490715   918 net.cpp:100] Creating Layer conv3_1/linear/scale
I1009 21:37:38.490720   918 net.cpp:434] conv3_1/linear/scale <- conv3_1/linear
I1009 21:37:38.490723   918 net.cpp:395] conv3_1/linear/scale -> conv3_1/linear (in-place)
I1009 21:37:38.490756   918 layer_factory.hpp:77] Creating layer conv3_1/linear/scale
I1009 21:37:38.490859   918 net.cpp:150] Setting up conv3_1/linear/scale
I1009 21:37:38.490864   918 net.cpp:157] Top shape: 2 24 75 128 (460800)
I1009 21:37:38.490866   918 net.cpp:165] Memory required for data: 411782496
I1009 21:37:38.490871   918 layer_factory.hpp:77] Creating layer block_3_1
I1009 21:37:38.490877   918 net.cpp:100] Creating Layer block_3_1
I1009 21:37:38.490881   918 net.cpp:434] block_3_1 <- conv2_2/linear_conv2_2/linear/scale_0_split_1
I1009 21:37:38.490885   918 net.cpp:434] block_3_1 <- conv3_1/linear
I1009 21:37:38.490890   918 net.cpp:408] block_3_1 -> block_3_1
I1009 21:37:38.490912   918 net.cpp:150] Setting up block_3_1
I1009 21:37:38.490917   918 net.cpp:157] Top shape: 2 24 75 128 (460800)
I1009 21:37:38.490921   918 net.cpp:165] Memory required for data: 413625696
I1009 21:37:38.490923   918 layer_factory.hpp:77] Creating layer conv3_2/expand
I1009 21:37:38.490931   918 net.cpp:100] Creating Layer conv3_2/expand
I1009 21:37:38.490933   918 net.cpp:434] conv3_2/expand <- block_3_1
I1009 21:37:38.490937   918 net.cpp:408] conv3_2/expand -> conv3_2/expand
I1009 21:37:38.493173   918 net.cpp:150] Setting up conv3_2/expand
I1009 21:37:38.493185   918 net.cpp:157] Top shape: 2 144 75 128 (2764800)
I1009 21:37:38.493187   918 net.cpp:165] Memory required for data: 424684896
I1009 21:37:38.493192   918 layer_factory.hpp:77] Creating layer conv3_2/expand/bn
I1009 21:37:38.493199   918 net.cpp:100] Creating Layer conv3_2/expand/bn
I1009 21:37:38.493203   918 net.cpp:434] conv3_2/expand/bn <- conv3_2/expand
I1009 21:37:38.493208   918 net.cpp:395] conv3_2/expand/bn -> conv3_2/expand (in-place)
I1009 21:37:38.493393   918 net.cpp:150] Setting up conv3_2/expand/bn
I1009 21:37:38.493399   918 net.cpp:157] Top shape: 2 144 75 128 (2764800)
I1009 21:37:38.493402   918 net.cpp:165] Memory required for data: 435744096
I1009 21:37:38.493408   918 layer_factory.hpp:77] Creating layer conv3_2/expand/scale
I1009 21:37:38.493413   918 net.cpp:100] Creating Layer conv3_2/expand/scale
I1009 21:37:38.493417   918 net.cpp:434] conv3_2/expand/scale <- conv3_2/expand
I1009 21:37:38.493422   918 net.cpp:395] conv3_2/expand/scale -> conv3_2/expand (in-place)
I1009 21:37:38.493458   918 layer_factory.hpp:77] Creating layer conv3_2/expand/scale
I1009 21:37:38.493558   918 net.cpp:150] Setting up conv3_2/expand/scale
I1009 21:37:38.493564   918 net.cpp:157] Top shape: 2 144 75 128 (2764800)
I1009 21:37:38.493567   918 net.cpp:165] Memory required for data: 446803296
I1009 21:37:38.493580   918 layer_factory.hpp:77] Creating layer relu3_2/expand
I1009 21:37:38.493587   918 net.cpp:100] Creating Layer relu3_2/expand
I1009 21:37:38.493590   918 net.cpp:434] relu3_2/expand <- conv3_2/expand
I1009 21:37:38.493593   918 net.cpp:395] relu3_2/expand -> conv3_2/expand (in-place)
I1009 21:37:38.494084   918 net.cpp:150] Setting up relu3_2/expand
I1009 21:37:38.494093   918 net.cpp:157] Top shape: 2 144 75 128 (2764800)
I1009 21:37:38.494096   918 net.cpp:165] Memory required for data: 457862496
I1009 21:37:38.494099   918 layer_factory.hpp:77] Creating layer conv3_2/dwise
I1009 21:37:38.494107   918 net.cpp:100] Creating Layer conv3_2/dwise
I1009 21:37:38.494112   918 net.cpp:434] conv3_2/dwise <- conv3_2/expand
I1009 21:37:38.494117   918 net.cpp:408] conv3_2/dwise -> conv3_2/dwise
I1009 21:37:38.494313   918 net.cpp:150] Setting up conv3_2/dwise
I1009 21:37:38.494318   918 net.cpp:157] Top shape: 2 144 38 64 (700416)
I1009 21:37:38.494321   918 net.cpp:165] Memory required for data: 460664160
I1009 21:37:38.494325   918 layer_factory.hpp:77] Creating layer conv3_2/dwise/bn
I1009 21:37:38.494330   918 net.cpp:100] Creating Layer conv3_2/dwise/bn
I1009 21:37:38.494333   918 net.cpp:434] conv3_2/dwise/bn <- conv3_2/dwise
I1009 21:37:38.494339   918 net.cpp:395] conv3_2/dwise/bn -> conv3_2/dwise (in-place)
I1009 21:37:38.494520   918 net.cpp:150] Setting up conv3_2/dwise/bn
I1009 21:37:38.494525   918 net.cpp:157] Top shape: 2 144 38 64 (700416)
I1009 21:37:38.494529   918 net.cpp:165] Memory required for data: 463465824
I1009 21:37:38.494535   918 layer_factory.hpp:77] Creating layer conv3_2/dwise/scale
I1009 21:37:38.494540   918 net.cpp:100] Creating Layer conv3_2/dwise/scale
I1009 21:37:38.494544   918 net.cpp:434] conv3_2/dwise/scale <- conv3_2/dwise
I1009 21:37:38.494547   918 net.cpp:395] conv3_2/dwise/scale -> conv3_2/dwise (in-place)
I1009 21:37:38.494581   918 layer_factory.hpp:77] Creating layer conv3_2/dwise/scale
I1009 21:37:38.494679   918 net.cpp:150] Setting up conv3_2/dwise/scale
I1009 21:37:38.494684   918 net.cpp:157] Top shape: 2 144 38 64 (700416)
I1009 21:37:38.494688   918 net.cpp:165] Memory required for data: 466267488
I1009 21:37:38.494693   918 layer_factory.hpp:77] Creating layer relu3_2/dwise
I1009 21:37:38.494699   918 net.cpp:100] Creating Layer relu3_2/dwise
I1009 21:37:38.494701   918 net.cpp:434] relu3_2/dwise <- conv3_2/dwise
I1009 21:37:38.494705   918 net.cpp:395] relu3_2/dwise -> conv3_2/dwise (in-place)
I1009 21:37:38.495067   918 net.cpp:150] Setting up relu3_2/dwise
I1009 21:37:38.495074   918 net.cpp:157] Top shape: 2 144 38 64 (700416)
I1009 21:37:38.495077   918 net.cpp:165] Memory required for data: 469069152
I1009 21:37:38.495080   918 layer_factory.hpp:77] Creating layer conv3_2/linear
I1009 21:37:38.495087   918 net.cpp:100] Creating Layer conv3_2/linear
I1009 21:37:38.495093   918 net.cpp:434] conv3_2/linear <- conv3_2/dwise
I1009 21:37:38.495098   918 net.cpp:408] conv3_2/linear -> conv3_2/linear
I1009 21:37:38.496649   918 net.cpp:150] Setting up conv3_2/linear
I1009 21:37:38.496672   918 net.cpp:157] Top shape: 2 32 38 64 (155648)
I1009 21:37:38.496675   918 net.cpp:165] Memory required for data: 469691744
I1009 21:37:38.496685   918 layer_factory.hpp:77] Creating layer conv3_2/linear/bn
I1009 21:37:38.496695   918 net.cpp:100] Creating Layer conv3_2/linear/bn
I1009 21:37:38.496701   918 net.cpp:434] conv3_2/linear/bn <- conv3_2/linear
I1009 21:37:38.496706   918 net.cpp:395] conv3_2/linear/bn -> conv3_2/linear (in-place)
I1009 21:37:38.496908   918 net.cpp:150] Setting up conv3_2/linear/bn
I1009 21:37:38.496915   918 net.cpp:157] Top shape: 2 32 38 64 (155648)
I1009 21:37:38.496919   918 net.cpp:165] Memory required for data: 470314336
I1009 21:37:38.496927   918 layer_factory.hpp:77] Creating layer conv3_2/linear/scale
I1009 21:37:38.496933   918 net.cpp:100] Creating Layer conv3_2/linear/scale
I1009 21:37:38.496937   918 net.cpp:434] conv3_2/linear/scale <- conv3_2/linear
I1009 21:37:38.496942   918 net.cpp:395] conv3_2/linear/scale -> conv3_2/linear (in-place)
I1009 21:37:38.496984   918 layer_factory.hpp:77] Creating layer conv3_2/linear/scale
I1009 21:37:38.497087   918 net.cpp:150] Setting up conv3_2/linear/scale
I1009 21:37:38.497093   918 net.cpp:157] Top shape: 2 32 38 64 (155648)
I1009 21:37:38.497109   918 net.cpp:165] Memory required for data: 470936928
I1009 21:37:38.497115   918 layer_factory.hpp:77] Creating layer conv3_2/linear_conv3_2/linear/scale_0_split
I1009 21:37:38.497120   918 net.cpp:100] Creating Layer conv3_2/linear_conv3_2/linear/scale_0_split
I1009 21:37:38.497125   918 net.cpp:434] conv3_2/linear_conv3_2/linear/scale_0_split <- conv3_2/linear
I1009 21:37:38.497131   918 net.cpp:408] conv3_2/linear_conv3_2/linear/scale_0_split -> conv3_2/linear_conv3_2/linear/scale_0_split_0
I1009 21:37:38.497138   918 net.cpp:408] conv3_2/linear_conv3_2/linear/scale_0_split -> conv3_2/linear_conv3_2/linear/scale_0_split_1
I1009 21:37:38.497171   918 net.cpp:150] Setting up conv3_2/linear_conv3_2/linear/scale_0_split
I1009 21:37:38.497176   918 net.cpp:157] Top shape: 2 32 38 64 (155648)
I1009 21:37:38.497181   918 net.cpp:157] Top shape: 2 32 38 64 (155648)
I1009 21:37:38.497184   918 net.cpp:165] Memory required for data: 472182112
I1009 21:37:38.497187   918 layer_factory.hpp:77] Creating layer conv4_1/expand
I1009 21:37:38.497195   918 net.cpp:100] Creating Layer conv4_1/expand
I1009 21:37:38.497200   918 net.cpp:434] conv4_1/expand <- conv3_2/linear_conv3_2/linear/scale_0_split_0
I1009 21:37:38.497205   918 net.cpp:408] conv4_1/expand -> conv4_1/expand
I1009 21:37:38.498744   918 net.cpp:150] Setting up conv4_1/expand
I1009 21:37:38.498751   918 net.cpp:157] Top shape: 2 192 38 64 (933888)
I1009 21:37:38.498755   918 net.cpp:165] Memory required for data: 475917664
I1009 21:37:38.498759   918 layer_factory.hpp:77] Creating layer conv4_1/expand/bn
I1009 21:37:38.498765   918 net.cpp:100] Creating Layer conv4_1/expand/bn
I1009 21:37:38.498769   918 net.cpp:434] conv4_1/expand/bn <- conv4_1/expand
I1009 21:37:38.498773   918 net.cpp:395] conv4_1/expand/bn -> conv4_1/expand (in-place)
I1009 21:37:38.498960   918 net.cpp:150] Setting up conv4_1/expand/bn
I1009 21:37:38.498965   918 net.cpp:157] Top shape: 2 192 38 64 (933888)
I1009 21:37:38.498967   918 net.cpp:165] Memory required for data: 479653216
I1009 21:37:38.498975   918 layer_factory.hpp:77] Creating layer conv4_1/expand/scale
I1009 21:37:38.498980   918 net.cpp:100] Creating Layer conv4_1/expand/scale
I1009 21:37:38.498982   918 net.cpp:434] conv4_1/expand/scale <- conv4_1/expand
I1009 21:37:38.498986   918 net.cpp:395] conv4_1/expand/scale -> conv4_1/expand (in-place)
I1009 21:37:38.499022   918 layer_factory.hpp:77] Creating layer conv4_1/expand/scale
I1009 21:37:38.499132   918 net.cpp:150] Setting up conv4_1/expand/scale
I1009 21:37:38.499138   918 net.cpp:157] Top shape: 2 192 38 64 (933888)
I1009 21:37:38.499142   918 net.cpp:165] Memory required for data: 483388768
I1009 21:37:38.499148   918 layer_factory.hpp:77] Creating layer relu4_1/expand
I1009 21:37:38.499155   918 net.cpp:100] Creating Layer relu4_1/expand
I1009 21:37:38.499157   918 net.cpp:434] relu4_1/expand <- conv4_1/expand
I1009 21:37:38.499162   918 net.cpp:395] relu4_1/expand -> conv4_1/expand (in-place)
I1009 21:37:38.500536   918 net.cpp:150] Setting up relu4_1/expand
I1009 21:37:38.500547   918 net.cpp:157] Top shape: 2 192 38 64 (933888)
I1009 21:37:38.500550   918 net.cpp:165] Memory required for data: 487124320
I1009 21:37:38.500555   918 layer_factory.hpp:77] Creating layer conv4_1/dwise
I1009 21:37:38.500563   918 net.cpp:100] Creating Layer conv4_1/dwise
I1009 21:37:38.500566   918 net.cpp:434] conv4_1/dwise <- conv4_1/expand
I1009 21:37:38.500572   918 net.cpp:408] conv4_1/dwise -> conv4_1/dwise
I1009 21:37:38.500785   918 net.cpp:150] Setting up conv4_1/dwise
I1009 21:37:38.500792   918 net.cpp:157] Top shape: 2 192 38 64 (933888)
I1009 21:37:38.500795   918 net.cpp:165] Memory required for data: 490859872
I1009 21:37:38.500799   918 layer_factory.hpp:77] Creating layer conv4_1/dwise/bn
I1009 21:37:38.500805   918 net.cpp:100] Creating Layer conv4_1/dwise/bn
I1009 21:37:38.500810   918 net.cpp:434] conv4_1/dwise/bn <- conv4_1/dwise
I1009 21:37:38.500813   918 net.cpp:395] conv4_1/dwise/bn -> conv4_1/dwise (in-place)
I1009 21:37:38.501000   918 net.cpp:150] Setting up conv4_1/dwise/bn
I1009 21:37:38.501018   918 net.cpp:157] Top shape: 2 192 38 64 (933888)
I1009 21:37:38.501020   918 net.cpp:165] Memory required for data: 494595424
I1009 21:37:38.501027   918 layer_factory.hpp:77] Creating layer conv4_1/dwise/scale
I1009 21:37:38.501032   918 net.cpp:100] Creating Layer conv4_1/dwise/scale
I1009 21:37:38.501035   918 net.cpp:434] conv4_1/dwise/scale <- conv4_1/dwise
I1009 21:37:38.501040   918 net.cpp:395] conv4_1/dwise/scale -> conv4_1/dwise (in-place)
I1009 21:37:38.501076   918 layer_factory.hpp:77] Creating layer conv4_1/dwise/scale
I1009 21:37:38.501178   918 net.cpp:150] Setting up conv4_1/dwise/scale
I1009 21:37:38.501183   918 net.cpp:157] Top shape: 2 192 38 64 (933888)
I1009 21:37:38.501185   918 net.cpp:165] Memory required for data: 498330976
I1009 21:37:38.501191   918 layer_factory.hpp:77] Creating layer relu4_1/dwise
I1009 21:37:38.501195   918 net.cpp:100] Creating Layer relu4_1/dwise
I1009 21:37:38.501199   918 net.cpp:434] relu4_1/dwise <- conv4_1/dwise
I1009 21:37:38.501204   918 net.cpp:395] relu4_1/dwise -> conv4_1/dwise (in-place)
I1009 21:37:38.501570   918 net.cpp:150] Setting up relu4_1/dwise
I1009 21:37:38.501576   918 net.cpp:157] Top shape: 2 192 38 64 (933888)
I1009 21:37:38.501580   918 net.cpp:165] Memory required for data: 502066528
I1009 21:37:38.501583   918 layer_factory.hpp:77] Creating layer conv4_1/linear
I1009 21:37:38.501591   918 net.cpp:100] Creating Layer conv4_1/linear
I1009 21:37:38.501595   918 net.cpp:434] conv4_1/linear <- conv4_1/dwise
I1009 21:37:38.501600   918 net.cpp:408] conv4_1/linear -> conv4_1/linear
I1009 21:37:38.503119   918 net.cpp:150] Setting up conv4_1/linear
I1009 21:37:38.503129   918 net.cpp:157] Top shape: 2 32 38 64 (155648)
I1009 21:37:38.503132   918 net.cpp:165] Memory required for data: 502689120
I1009 21:37:38.503137   918 layer_factory.hpp:77] Creating layer conv4_1/linear/bn
I1009 21:37:38.503144   918 net.cpp:100] Creating Layer conv4_1/linear/bn
I1009 21:37:38.503147   918 net.cpp:434] conv4_1/linear/bn <- conv4_1/linear
I1009 21:37:38.503152   918 net.cpp:395] conv4_1/linear/bn -> conv4_1/linear (in-place)
I1009 21:37:38.503350   918 net.cpp:150] Setting up conv4_1/linear/bn
I1009 21:37:38.503355   918 net.cpp:157] Top shape: 2 32 38 64 (155648)
I1009 21:37:38.503358   918 net.cpp:165] Memory required for data: 503311712
I1009 21:37:38.503365   918 layer_factory.hpp:77] Creating layer conv4_1/linear/scale
I1009 21:37:38.503371   918 net.cpp:100] Creating Layer conv4_1/linear/scale
I1009 21:37:38.503373   918 net.cpp:434] conv4_1/linear/scale <- conv4_1/linear
I1009 21:37:38.503378   918 net.cpp:395] conv4_1/linear/scale -> conv4_1/linear (in-place)
I1009 21:37:38.503413   918 layer_factory.hpp:77] Creating layer conv4_1/linear/scale
I1009 21:37:38.503515   918 net.cpp:150] Setting up conv4_1/linear/scale
I1009 21:37:38.503521   918 net.cpp:157] Top shape: 2 32 38 64 (155648)
I1009 21:37:38.503525   918 net.cpp:165] Memory required for data: 503934304
I1009 21:37:38.503530   918 layer_factory.hpp:77] Creating layer block_4_1
I1009 21:37:38.503542   918 net.cpp:100] Creating Layer block_4_1
I1009 21:37:38.503546   918 net.cpp:434] block_4_1 <- conv3_2/linear_conv3_2/linear/scale_0_split_1
I1009 21:37:38.503549   918 net.cpp:434] block_4_1 <- conv4_1/linear
I1009 21:37:38.503554   918 net.cpp:408] block_4_1 -> block_4_1
I1009 21:37:38.503574   918 net.cpp:150] Setting up block_4_1
I1009 21:37:38.503581   918 net.cpp:157] Top shape: 2 32 38 64 (155648)
I1009 21:37:38.503583   918 net.cpp:165] Memory required for data: 504556896
I1009 21:37:38.503587   918 layer_factory.hpp:77] Creating layer block_4_1_block_4_1_0_split
I1009 21:37:38.503590   918 net.cpp:100] Creating Layer block_4_1_block_4_1_0_split
I1009 21:37:38.503593   918 net.cpp:434] block_4_1_block_4_1_0_split <- block_4_1
I1009 21:37:38.503597   918 net.cpp:408] block_4_1_block_4_1_0_split -> block_4_1_block_4_1_0_split_0
I1009 21:37:38.503603   918 net.cpp:408] block_4_1_block_4_1_0_split -> block_4_1_block_4_1_0_split_1
I1009 21:37:38.503639   918 net.cpp:150] Setting up block_4_1_block_4_1_0_split
I1009 21:37:38.503654   918 net.cpp:157] Top shape: 2 32 38 64 (155648)
I1009 21:37:38.503659   918 net.cpp:157] Top shape: 2 32 38 64 (155648)
I1009 21:37:38.503661   918 net.cpp:165] Memory required for data: 505802080
I1009 21:37:38.503664   918 layer_factory.hpp:77] Creating layer conv4_2/expand
I1009 21:37:38.503671   918 net.cpp:100] Creating Layer conv4_2/expand
I1009 21:37:38.503674   918 net.cpp:434] conv4_2/expand <- block_4_1_block_4_1_0_split_0
I1009 21:37:38.503679   918 net.cpp:408] conv4_2/expand -> conv4_2/expand
I1009 21:37:38.505276   918 net.cpp:150] Setting up conv4_2/expand
I1009 21:37:38.505286   918 net.cpp:157] Top shape: 2 192 38 64 (933888)
I1009 21:37:38.505290   918 net.cpp:165] Memory required for data: 509537632
I1009 21:37:38.505295   918 layer_factory.hpp:77] Creating layer conv4_2/expand/bn
I1009 21:37:38.505300   918 net.cpp:100] Creating Layer conv4_2/expand/bn
I1009 21:37:38.505303   918 net.cpp:434] conv4_2/expand/bn <- conv4_2/expand
I1009 21:37:38.505309   918 net.cpp:395] conv4_2/expand/bn -> conv4_2/expand (in-place)
I1009 21:37:38.505497   918 net.cpp:150] Setting up conv4_2/expand/bn
I1009 21:37:38.505502   918 net.cpp:157] Top shape: 2 192 38 64 (933888)
I1009 21:37:38.505506   918 net.cpp:165] Memory required for data: 513273184
I1009 21:37:38.505511   918 layer_factory.hpp:77] Creating layer conv4_2/expand/scale
I1009 21:37:38.505517   918 net.cpp:100] Creating Layer conv4_2/expand/scale
I1009 21:37:38.505519   918 net.cpp:434] conv4_2/expand/scale <- conv4_2/expand
I1009 21:37:38.505524   918 net.cpp:395] conv4_2/expand/scale -> conv4_2/expand (in-place)
I1009 21:37:38.505560   918 layer_factory.hpp:77] Creating layer conv4_2/expand/scale
I1009 21:37:38.505662   918 net.cpp:150] Setting up conv4_2/expand/scale
I1009 21:37:38.505667   918 net.cpp:157] Top shape: 2 192 38 64 (933888)
I1009 21:37:38.505671   918 net.cpp:165] Memory required for data: 517008736
I1009 21:37:38.505676   918 layer_factory.hpp:77] Creating layer relu4_2/expand
I1009 21:37:38.505681   918 net.cpp:100] Creating Layer relu4_2/expand
I1009 21:37:38.505682   918 net.cpp:434] relu4_2/expand <- conv4_2/expand
I1009 21:37:38.505688   918 net.cpp:395] relu4_2/expand -> conv4_2/expand (in-place)
I1009 21:37:38.506057   918 net.cpp:150] Setting up relu4_2/expand
I1009 21:37:38.506063   918 net.cpp:157] Top shape: 2 192 38 64 (933888)
I1009 21:37:38.506067   918 net.cpp:165] Memory required for data: 520744288
I1009 21:37:38.506069   918 layer_factory.hpp:77] Creating layer conv4_2/dwise
I1009 21:37:38.506075   918 net.cpp:100] Creating Layer conv4_2/dwise
I1009 21:37:38.506078   918 net.cpp:434] conv4_2/dwise <- conv4_2/expand
I1009 21:37:38.506083   918 net.cpp:408] conv4_2/dwise -> conv4_2/dwise
I1009 21:37:38.506289   918 net.cpp:150] Setting up conv4_2/dwise
I1009 21:37:38.506294   918 net.cpp:157] Top shape: 2 192 38 64 (933888)
I1009 21:37:38.506296   918 net.cpp:165] Memory required for data: 524479840
I1009 21:37:38.506301   918 layer_factory.hpp:77] Creating layer conv4_2/dwise/bn
I1009 21:37:38.506306   918 net.cpp:100] Creating Layer conv4_2/dwise/bn
I1009 21:37:38.506309   918 net.cpp:434] conv4_2/dwise/bn <- conv4_2/dwise
I1009 21:37:38.506315   918 net.cpp:395] conv4_2/dwise/bn -> conv4_2/dwise (in-place)
I1009 21:37:38.506501   918 net.cpp:150] Setting up conv4_2/dwise/bn
I1009 21:37:38.506507   918 net.cpp:157] Top shape: 2 192 38 64 (933888)
I1009 21:37:38.506510   918 net.cpp:165] Memory required for data: 528215392
I1009 21:37:38.506516   918 layer_factory.hpp:77] Creating layer conv4_2/dwise/scale
I1009 21:37:38.506521   918 net.cpp:100] Creating Layer conv4_2/dwise/scale
I1009 21:37:38.506525   918 net.cpp:434] conv4_2/dwise/scale <- conv4_2/dwise
I1009 21:37:38.506531   918 net.cpp:395] conv4_2/dwise/scale -> conv4_2/dwise (in-place)
I1009 21:37:38.506564   918 layer_factory.hpp:77] Creating layer conv4_2/dwise/scale
I1009 21:37:38.506665   918 net.cpp:150] Setting up conv4_2/dwise/scale
I1009 21:37:38.506671   918 net.cpp:157] Top shape: 2 192 38 64 (933888)
I1009 21:37:38.506682   918 net.cpp:165] Memory required for data: 531950944
I1009 21:37:38.506687   918 layer_factory.hpp:77] Creating layer relu4_2/dwise
I1009 21:37:38.506692   918 net.cpp:100] Creating Layer relu4_2/dwise
I1009 21:37:38.506696   918 net.cpp:434] relu4_2/dwise <- conv4_2/dwise
I1009 21:37:38.506701   918 net.cpp:395] relu4_2/dwise -> conv4_2/dwise (in-place)
I1009 21:37:38.507063   918 net.cpp:150] Setting up relu4_2/dwise
I1009 21:37:38.507071   918 net.cpp:157] Top shape: 2 192 38 64 (933888)
I1009 21:37:38.507074   918 net.cpp:165] Memory required for data: 535686496
I1009 21:37:38.507077   918 layer_factory.hpp:77] Creating layer conv4_2/linear
I1009 21:37:38.507082   918 net.cpp:100] Creating Layer conv4_2/linear
I1009 21:37:38.507086   918 net.cpp:434] conv4_2/linear <- conv4_2/dwise
I1009 21:37:38.507092   918 net.cpp:408] conv4_2/linear -> conv4_2/linear
I1009 21:37:38.509064   918 net.cpp:150] Setting up conv4_2/linear
I1009 21:37:38.509073   918 net.cpp:157] Top shape: 2 32 38 64 (155648)
I1009 21:37:38.509075   918 net.cpp:165] Memory required for data: 536309088
I1009 21:37:38.509080   918 layer_factory.hpp:77] Creating layer conv4_2/linear/bn
I1009 21:37:38.509085   918 net.cpp:100] Creating Layer conv4_2/linear/bn
I1009 21:37:38.509088   918 net.cpp:434] conv4_2/linear/bn <- conv4_2/linear
I1009 21:37:38.509091   918 net.cpp:395] conv4_2/linear/bn -> conv4_2/linear (in-place)
I1009 21:37:38.509233   918 net.cpp:150] Setting up conv4_2/linear/bn
I1009 21:37:38.509238   918 net.cpp:157] Top shape: 2 32 38 64 (155648)
I1009 21:37:38.509238   918 net.cpp:165] Memory required for data: 536931680
I1009 21:37:38.509243   918 layer_factory.hpp:77] Creating layer conv4_2/linear/scale
I1009 21:37:38.509248   918 net.cpp:100] Creating Layer conv4_2/linear/scale
I1009 21:37:38.509250   918 net.cpp:434] conv4_2/linear/scale <- conv4_2/linear
I1009 21:37:38.509253   918 net.cpp:395] conv4_2/linear/scale -> conv4_2/linear (in-place)
I1009 21:37:38.509281   918 layer_factory.hpp:77] Creating layer conv4_2/linear/scale
I1009 21:37:38.509356   918 net.cpp:150] Setting up conv4_2/linear/scale
I1009 21:37:38.509361   918 net.cpp:157] Top shape: 2 32 38 64 (155648)
I1009 21:37:38.509362   918 net.cpp:165] Memory required for data: 537554272
I1009 21:37:38.509366   918 layer_factory.hpp:77] Creating layer block_4_2
I1009 21:37:38.509371   918 net.cpp:100] Creating Layer block_4_2
I1009 21:37:38.509372   918 net.cpp:434] block_4_2 <- block_4_1_block_4_1_0_split_1
I1009 21:37:38.509376   918 net.cpp:434] block_4_2 <- conv4_2/linear
I1009 21:37:38.509377   918 net.cpp:408] block_4_2 -> block_4_2
I1009 21:37:38.509393   918 net.cpp:150] Setting up block_4_2
I1009 21:37:38.509397   918 net.cpp:157] Top shape: 2 32 38 64 (155648)
I1009 21:37:38.509398   918 net.cpp:165] Memory required for data: 538176864
I1009 21:37:38.509400   918 layer_factory.hpp:77] Creating layer conv4_3/expand
I1009 21:37:38.509405   918 net.cpp:100] Creating Layer conv4_3/expand
I1009 21:37:38.509408   918 net.cpp:434] conv4_3/expand <- block_4_2
I1009 21:37:38.509410   918 net.cpp:408] conv4_3/expand -> conv4_3/expand
I1009 21:37:38.510602   918 net.cpp:150] Setting up conv4_3/expand
I1009 21:37:38.510610   918 net.cpp:157] Top shape: 2 192 38 64 (933888)
I1009 21:37:38.510612   918 net.cpp:165] Memory required for data: 541912416
I1009 21:37:38.510615   918 layer_factory.hpp:77] Creating layer conv4_3/expand/bn
I1009 21:37:38.510619   918 net.cpp:100] Creating Layer conv4_3/expand/bn
I1009 21:37:38.510622   918 net.cpp:434] conv4_3/expand/bn <- conv4_3/expand
I1009 21:37:38.510627   918 net.cpp:395] conv4_3/expand/bn -> conv4_3/expand (in-place)
I1009 21:37:38.510767   918 net.cpp:150] Setting up conv4_3/expand/bn
I1009 21:37:38.510771   918 net.cpp:157] Top shape: 2 192 38 64 (933888)
I1009 21:37:38.510773   918 net.cpp:165] Memory required for data: 545647968
I1009 21:37:38.510777   918 layer_factory.hpp:77] Creating layer conv4_3/expand/scale
I1009 21:37:38.510782   918 net.cpp:100] Creating Layer conv4_3/expand/scale
I1009 21:37:38.510792   918 net.cpp:434] conv4_3/expand/scale <- conv4_3/expand
I1009 21:37:38.510797   918 net.cpp:395] conv4_3/expand/scale -> conv4_3/expand (in-place)
I1009 21:37:38.510823   918 layer_factory.hpp:77] Creating layer conv4_3/expand/scale
I1009 21:37:38.510898   918 net.cpp:150] Setting up conv4_3/expand/scale
I1009 21:37:38.510902   918 net.cpp:157] Top shape: 2 192 38 64 (933888)
I1009 21:37:38.510905   918 net.cpp:165] Memory required for data: 549383520
I1009 21:37:38.510908   918 layer_factory.hpp:77] Creating layer relu4_3/expand
I1009 21:37:38.510911   918 net.cpp:100] Creating Layer relu4_3/expand
I1009 21:37:38.510913   918 net.cpp:434] relu4_3/expand <- conv4_3/expand
I1009 21:37:38.510917   918 net.cpp:395] relu4_3/expand -> conv4_3/expand (in-place)
I1009 21:37:38.511204   918 net.cpp:150] Setting up relu4_3/expand
I1009 21:37:38.511209   918 net.cpp:157] Top shape: 2 192 38 64 (933888)
I1009 21:37:38.511210   918 net.cpp:165] Memory required for data: 553119072
I1009 21:37:38.511214   918 layer_factory.hpp:77] Creating layer conv4_3/dwise
I1009 21:37:38.511217   918 net.cpp:100] Creating Layer conv4_3/dwise
I1009 21:37:38.511220   918 net.cpp:434] conv4_3/dwise <- conv4_3/expand
I1009 21:37:38.511224   918 net.cpp:408] conv4_3/dwise -> conv4_3/dwise
I1009 21:37:38.511370   918 net.cpp:150] Setting up conv4_3/dwise
I1009 21:37:38.511374   918 net.cpp:157] Top shape: 2 192 38 64 (933888)
I1009 21:37:38.511375   918 net.cpp:165] Memory required for data: 556854624
I1009 21:37:38.511379   918 layer_factory.hpp:77] Creating layer conv4_3/dwise/bn
I1009 21:37:38.511381   918 net.cpp:100] Creating Layer conv4_3/dwise/bn
I1009 21:37:38.511384   918 net.cpp:434] conv4_3/dwise/bn <- conv4_3/dwise
I1009 21:37:38.511387   918 net.cpp:395] conv4_3/dwise/bn -> conv4_3/dwise (in-place)
I1009 21:37:38.511523   918 net.cpp:150] Setting up conv4_3/dwise/bn
I1009 21:37:38.511528   918 net.cpp:157] Top shape: 2 192 38 64 (933888)
I1009 21:37:38.511529   918 net.cpp:165] Memory required for data: 560590176
I1009 21:37:38.511533   918 layer_factory.hpp:77] Creating layer conv4_3/dwise/scale
I1009 21:37:38.511538   918 net.cpp:100] Creating Layer conv4_3/dwise/scale
I1009 21:37:38.511540   918 net.cpp:434] conv4_3/dwise/scale <- conv4_3/dwise
I1009 21:37:38.511543   918 net.cpp:395] conv4_3/dwise/scale -> conv4_3/dwise (in-place)
I1009 21:37:38.511569   918 layer_factory.hpp:77] Creating layer conv4_3/dwise/scale
I1009 21:37:38.511641   918 net.cpp:150] Setting up conv4_3/dwise/scale
I1009 21:37:38.511646   918 net.cpp:157] Top shape: 2 192 38 64 (933888)
I1009 21:37:38.511648   918 net.cpp:165] Memory required for data: 564325728
I1009 21:37:38.511651   918 layer_factory.hpp:77] Creating layer relu4_3/dwise
I1009 21:37:38.511654   918 net.cpp:100] Creating Layer relu4_3/dwise
I1009 21:37:38.511656   918 net.cpp:434] relu4_3/dwise <- conv4_3/dwise
I1009 21:37:38.511659   918 net.cpp:395] relu4_3/dwise -> conv4_3/dwise (in-place)
I1009 21:37:38.511931   918 net.cpp:150] Setting up relu4_3/dwise
I1009 21:37:38.511939   918 net.cpp:157] Top shape: 2 192 38 64 (933888)
I1009 21:37:38.511940   918 net.cpp:165] Memory required for data: 568061280
I1009 21:37:38.511942   918 layer_factory.hpp:77] Creating layer conv4_3/linear
I1009 21:37:38.511948   918 net.cpp:100] Creating Layer conv4_3/linear
I1009 21:37:38.511950   918 net.cpp:434] conv4_3/linear <- conv4_3/dwise
I1009 21:37:38.511955   918 net.cpp:408] conv4_3/linear -> conv4_3/linear
I1009 21:37:38.513870   918 net.cpp:150] Setting up conv4_3/linear
I1009 21:37:38.513880   918 net.cpp:157] Top shape: 2 64 38 64 (311296)
I1009 21:37:38.513882   918 net.cpp:165] Memory required for data: 569306464
I1009 21:37:38.513887   918 layer_factory.hpp:77] Creating layer conv4_3/linear/bn
I1009 21:37:38.513895   918 net.cpp:100] Creating Layer conv4_3/linear/bn
I1009 21:37:38.513897   918 net.cpp:434] conv4_3/linear/bn <- conv4_3/linear
I1009 21:37:38.513901   918 net.cpp:395] conv4_3/linear/bn -> conv4_3/linear (in-place)
I1009 21:37:38.514045   918 net.cpp:150] Setting up conv4_3/linear/bn
I1009 21:37:38.514057   918 net.cpp:157] Top shape: 2 64 38 64 (311296)
I1009 21:37:38.514060   918 net.cpp:165] Memory required for data: 570551648
I1009 21:37:38.514075   918 layer_factory.hpp:77] Creating layer conv4_3/linear/scale
I1009 21:37:38.514081   918 net.cpp:100] Creating Layer conv4_3/linear/scale
I1009 21:37:38.514082   918 net.cpp:434] conv4_3/linear/scale <- conv4_3/linear
I1009 21:37:38.514086   918 net.cpp:395] conv4_3/linear/scale -> conv4_3/linear (in-place)
I1009 21:37:38.514117   918 layer_factory.hpp:77] Creating layer conv4_3/linear/scale
I1009 21:37:38.514191   918 net.cpp:150] Setting up conv4_3/linear/scale
I1009 21:37:38.514195   918 net.cpp:157] Top shape: 2 64 38 64 (311296)
I1009 21:37:38.514197   918 net.cpp:165] Memory required for data: 571796832
I1009 21:37:38.514200   918 layer_factory.hpp:77] Creating layer conv4_3/linear_conv4_3/linear/scale_0_split
I1009 21:37:38.514204   918 net.cpp:100] Creating Layer conv4_3/linear_conv4_3/linear/scale_0_split
I1009 21:37:38.514206   918 net.cpp:434] conv4_3/linear_conv4_3/linear/scale_0_split <- conv4_3/linear
I1009 21:37:38.514210   918 net.cpp:408] conv4_3/linear_conv4_3/linear/scale_0_split -> conv4_3/linear_conv4_3/linear/scale_0_split_0
I1009 21:37:38.514214   918 net.cpp:408] conv4_3/linear_conv4_3/linear/scale_0_split -> conv4_3/linear_conv4_3/linear/scale_0_split_1
I1009 21:37:38.514240   918 net.cpp:150] Setting up conv4_3/linear_conv4_3/linear/scale_0_split
I1009 21:37:38.514243   918 net.cpp:157] Top shape: 2 64 38 64 (311296)
I1009 21:37:38.514246   918 net.cpp:157] Top shape: 2 64 38 64 (311296)
I1009 21:37:38.514248   918 net.cpp:165] Memory required for data: 574287200
I1009 21:37:38.514250   918 layer_factory.hpp:77] Creating layer conv4_4/expand
I1009 21:37:38.514256   918 net.cpp:100] Creating Layer conv4_4/expand
I1009 21:37:38.514258   918 net.cpp:434] conv4_4/expand <- conv4_3/linear_conv4_3/linear/scale_0_split_0
I1009 21:37:38.514261   918 net.cpp:408] conv4_4/expand -> conv4_4/expand
I1009 21:37:38.515480   918 net.cpp:150] Setting up conv4_4/expand
I1009 21:37:38.515486   918 net.cpp:157] Top shape: 2 384 38 64 (1867776)
I1009 21:37:38.515488   918 net.cpp:165] Memory required for data: 581758304
I1009 21:37:38.515492   918 layer_factory.hpp:77] Creating layer conv4_4/expand/bn
I1009 21:37:38.515497   918 net.cpp:100] Creating Layer conv4_4/expand/bn
I1009 21:37:38.515501   918 net.cpp:434] conv4_4/expand/bn <- conv4_4/expand
I1009 21:37:38.515503   918 net.cpp:395] conv4_4/expand/bn -> conv4_4/expand (in-place)
I1009 21:37:38.515650   918 net.cpp:150] Setting up conv4_4/expand/bn
I1009 21:37:38.515655   918 net.cpp:157] Top shape: 2 384 38 64 (1867776)
I1009 21:37:38.515657   918 net.cpp:165] Memory required for data: 589229408
I1009 21:37:38.515661   918 layer_factory.hpp:77] Creating layer conv4_4/expand/scale
I1009 21:37:38.515664   918 net.cpp:100] Creating Layer conv4_4/expand/scale
I1009 21:37:38.515666   918 net.cpp:434] conv4_4/expand/scale <- conv4_4/expand
I1009 21:37:38.515671   918 net.cpp:395] conv4_4/expand/scale -> conv4_4/expand (in-place)
I1009 21:37:38.515696   918 layer_factory.hpp:77] Creating layer conv4_4/expand/scale
I1009 21:37:38.515769   918 net.cpp:150] Setting up conv4_4/expand/scale
I1009 21:37:38.515772   918 net.cpp:157] Top shape: 2 384 38 64 (1867776)
I1009 21:37:38.515774   918 net.cpp:165] Memory required for data: 596700512
I1009 21:37:38.515777   918 layer_factory.hpp:77] Creating layer relu4_4/expand
I1009 21:37:38.515781   918 net.cpp:100] Creating Layer relu4_4/expand
I1009 21:37:38.515784   918 net.cpp:434] relu4_4/expand <- conv4_4/expand
I1009 21:37:38.515787   918 net.cpp:395] relu4_4/expand -> conv4_4/expand (in-place)
I1009 21:37:38.516060   918 net.cpp:150] Setting up relu4_4/expand
I1009 21:37:38.516067   918 net.cpp:157] Top shape: 2 384 38 64 (1867776)
I1009 21:37:38.516068   918 net.cpp:165] Memory required for data: 604171616
I1009 21:37:38.516072   918 layer_factory.hpp:77] Creating layer conv4_4/dwise
I1009 21:37:38.516077   918 net.cpp:100] Creating Layer conv4_4/dwise
I1009 21:37:38.516085   918 net.cpp:434] conv4_4/dwise <- conv4_4/expand
I1009 21:37:38.516088   918 net.cpp:408] conv4_4/dwise -> conv4_4/dwise
I1009 21:37:38.516249   918 net.cpp:150] Setting up conv4_4/dwise
I1009 21:37:38.516253   918 net.cpp:157] Top shape: 2 384 38 64 (1867776)
I1009 21:37:38.516255   918 net.cpp:165] Memory required for data: 611642720
I1009 21:37:38.516258   918 layer_factory.hpp:77] Creating layer conv4_4/dwise/bn
I1009 21:37:38.516263   918 net.cpp:100] Creating Layer conv4_4/dwise/bn
I1009 21:37:38.516265   918 net.cpp:434] conv4_4/dwise/bn <- conv4_4/dwise
I1009 21:37:38.516268   918 net.cpp:395] conv4_4/dwise/bn -> conv4_4/dwise (in-place)
I1009 21:37:38.516399   918 net.cpp:150] Setting up conv4_4/dwise/bn
I1009 21:37:38.516404   918 net.cpp:157] Top shape: 2 384 38 64 (1867776)
I1009 21:37:38.516407   918 net.cpp:165] Memory required for data: 619113824
I1009 21:37:38.516410   918 layer_factory.hpp:77] Creating layer conv4_4/dwise/scale
I1009 21:37:38.516413   918 net.cpp:100] Creating Layer conv4_4/dwise/scale
I1009 21:37:38.516417   918 net.cpp:434] conv4_4/dwise/scale <- conv4_4/dwise
I1009 21:37:38.516419   918 net.cpp:395] conv4_4/dwise/scale -> conv4_4/dwise (in-place)
I1009 21:37:38.516443   918 layer_factory.hpp:77] Creating layer conv4_4/dwise/scale
I1009 21:37:38.516515   918 net.cpp:150] Setting up conv4_4/dwise/scale
I1009 21:37:38.516520   918 net.cpp:157] Top shape: 2 384 38 64 (1867776)
I1009 21:37:38.516521   918 net.cpp:165] Memory required for data: 626584928
I1009 21:37:38.516525   918 layer_factory.hpp:77] Creating layer relu4_4/dwise
I1009 21:37:38.516527   918 net.cpp:100] Creating Layer relu4_4/dwise
I1009 21:37:38.516530   918 net.cpp:434] relu4_4/dwise <- conv4_4/dwise
I1009 21:37:38.516533   918 net.cpp:395] relu4_4/dwise -> conv4_4/dwise (in-place)
I1009 21:37:38.516908   918 net.cpp:150] Setting up relu4_4/dwise
I1009 21:37:38.516914   918 net.cpp:157] Top shape: 2 384 38 64 (1867776)
I1009 21:37:38.516917   918 net.cpp:165] Memory required for data: 634056032
I1009 21:37:38.516919   918 layer_factory.hpp:77] Creating layer conv4_4/linear
I1009 21:37:38.516924   918 net.cpp:100] Creating Layer conv4_4/linear
I1009 21:37:38.516927   918 net.cpp:434] conv4_4/linear <- conv4_4/dwise
I1009 21:37:38.516932   918 net.cpp:408] conv4_4/linear -> conv4_4/linear
I1009 21:37:38.518167   918 net.cpp:150] Setting up conv4_4/linear
I1009 21:37:38.518174   918 net.cpp:157] Top shape: 2 64 38 64 (311296)
I1009 21:37:38.518177   918 net.cpp:165] Memory required for data: 635301216
I1009 21:37:38.518180   918 layer_factory.hpp:77] Creating layer conv4_4/linear/bn
I1009 21:37:38.518184   918 net.cpp:100] Creating Layer conv4_4/linear/bn
I1009 21:37:38.518187   918 net.cpp:434] conv4_4/linear/bn <- conv4_4/linear
I1009 21:37:38.518190   918 net.cpp:395] conv4_4/linear/bn -> conv4_4/linear (in-place)
I1009 21:37:38.518332   918 net.cpp:150] Setting up conv4_4/linear/bn
I1009 21:37:38.518337   918 net.cpp:157] Top shape: 2 64 38 64 (311296)
I1009 21:37:38.518338   918 net.cpp:165] Memory required for data: 636546400
I1009 21:37:38.518342   918 layer_factory.hpp:77] Creating layer conv4_4/linear/scale
I1009 21:37:38.518347   918 net.cpp:100] Creating Layer conv4_4/linear/scale
I1009 21:37:38.518349   918 net.cpp:434] conv4_4/linear/scale <- conv4_4/linear
I1009 21:37:38.518352   918 net.cpp:395] conv4_4/linear/scale -> conv4_4/linear (in-place)
I1009 21:37:38.518379   918 layer_factory.hpp:77] Creating layer conv4_4/linear/scale
I1009 21:37:38.518457   918 net.cpp:150] Setting up conv4_4/linear/scale
I1009 21:37:38.518461   918 net.cpp:157] Top shape: 2 64 38 64 (311296)
I1009 21:37:38.518463   918 net.cpp:165] Memory required for data: 637791584
I1009 21:37:38.518466   918 layer_factory.hpp:77] Creating layer block_4_4
I1009 21:37:38.518471   918 net.cpp:100] Creating Layer block_4_4
I1009 21:37:38.518473   918 net.cpp:434] block_4_4 <- conv4_3/linear_conv4_3/linear/scale_0_split_1
I1009 21:37:38.518476   918 net.cpp:434] block_4_4 <- conv4_4/linear
I1009 21:37:38.518486   918 net.cpp:408] block_4_4 -> block_4_4
I1009 21:37:38.518504   918 net.cpp:150] Setting up block_4_4
I1009 21:37:38.518508   918 net.cpp:157] Top shape: 2 64 38 64 (311296)
I1009 21:37:38.518510   918 net.cpp:165] Memory required for data: 639036768
I1009 21:37:38.518512   918 layer_factory.hpp:77] Creating layer block_4_4_block_4_4_0_split
I1009 21:37:38.518515   918 net.cpp:100] Creating Layer block_4_4_block_4_4_0_split
I1009 21:37:38.518517   918 net.cpp:434] block_4_4_block_4_4_0_split <- block_4_4
I1009 21:37:38.518519   918 net.cpp:408] block_4_4_block_4_4_0_split -> block_4_4_block_4_4_0_split_0
I1009 21:37:38.518523   918 net.cpp:408] block_4_4_block_4_4_0_split -> block_4_4_block_4_4_0_split_1
I1009 21:37:38.518548   918 net.cpp:150] Setting up block_4_4_block_4_4_0_split
I1009 21:37:38.518551   918 net.cpp:157] Top shape: 2 64 38 64 (311296)
I1009 21:37:38.518554   918 net.cpp:157] Top shape: 2 64 38 64 (311296)
I1009 21:37:38.518556   918 net.cpp:165] Memory required for data: 641527136
I1009 21:37:38.518558   918 layer_factory.hpp:77] Creating layer conv4_5/expand
I1009 21:37:38.518563   918 net.cpp:100] Creating Layer conv4_5/expand
I1009 21:37:38.518565   918 net.cpp:434] conv4_5/expand <- block_4_4_block_4_4_0_split_0
I1009 21:37:38.518568   918 net.cpp:408] conv4_5/expand -> conv4_5/expand
I1009 21:37:38.520475   918 net.cpp:150] Setting up conv4_5/expand
I1009 21:37:38.520485   918 net.cpp:157] Top shape: 2 384 38 64 (1867776)
I1009 21:37:38.520488   918 net.cpp:165] Memory required for data: 648998240
I1009 21:37:38.520491   918 layer_factory.hpp:77] Creating layer conv4_5/expand/bn
I1009 21:37:38.520498   918 net.cpp:100] Creating Layer conv4_5/expand/bn
I1009 21:37:38.520500   918 net.cpp:434] conv4_5/expand/bn <- conv4_5/expand
I1009 21:37:38.520505   918 net.cpp:395] conv4_5/expand/bn -> conv4_5/expand (in-place)
I1009 21:37:38.520643   918 net.cpp:150] Setting up conv4_5/expand/bn
I1009 21:37:38.520648   918 net.cpp:157] Top shape: 2 384 38 64 (1867776)
I1009 21:37:38.520650   918 net.cpp:165] Memory required for data: 656469344
I1009 21:37:38.520654   918 layer_factory.hpp:77] Creating layer conv4_5/expand/scale
I1009 21:37:38.520658   918 net.cpp:100] Creating Layer conv4_5/expand/scale
I1009 21:37:38.520661   918 net.cpp:434] conv4_5/expand/scale <- conv4_5/expand
I1009 21:37:38.520664   918 net.cpp:395] conv4_5/expand/scale -> conv4_5/expand (in-place)
I1009 21:37:38.520689   918 layer_factory.hpp:77] Creating layer conv4_5/expand/scale
I1009 21:37:38.520764   918 net.cpp:150] Setting up conv4_5/expand/scale
I1009 21:37:38.520769   918 net.cpp:157] Top shape: 2 384 38 64 (1867776)
I1009 21:37:38.520771   918 net.cpp:165] Memory required for data: 663940448
I1009 21:37:38.520774   918 layer_factory.hpp:77] Creating layer relu4_5/expand
I1009 21:37:38.520777   918 net.cpp:100] Creating Layer relu4_5/expand
I1009 21:37:38.520781   918 net.cpp:434] relu4_5/expand <- conv4_5/expand
I1009 21:37:38.520782   918 net.cpp:395] relu4_5/expand -> conv4_5/expand (in-place)
I1009 21:37:38.521059   918 net.cpp:150] Setting up relu4_5/expand
I1009 21:37:38.521064   918 net.cpp:157] Top shape: 2 384 38 64 (1867776)
I1009 21:37:38.521067   918 net.cpp:165] Memory required for data: 671411552
I1009 21:37:38.521070   918 layer_factory.hpp:77] Creating layer conv4_5/dwise
I1009 21:37:38.521075   918 net.cpp:100] Creating Layer conv4_5/dwise
I1009 21:37:38.521076   918 net.cpp:434] conv4_5/dwise <- conv4_5/expand
I1009 21:37:38.521080   918 net.cpp:408] conv4_5/dwise -> conv4_5/dwise
I1009 21:37:38.521240   918 net.cpp:150] Setting up conv4_5/dwise
I1009 21:37:38.521245   918 net.cpp:157] Top shape: 2 384 38 64 (1867776)
I1009 21:37:38.521246   918 net.cpp:165] Memory required for data: 678882656
I1009 21:37:38.521250   918 layer_factory.hpp:77] Creating layer conv4_5/dwise/bn
I1009 21:37:38.521255   918 net.cpp:100] Creating Layer conv4_5/dwise/bn
I1009 21:37:38.521256   918 net.cpp:434] conv4_5/dwise/bn <- conv4_5/dwise
I1009 21:37:38.521260   918 net.cpp:395] conv4_5/dwise/bn -> conv4_5/dwise (in-place)
I1009 21:37:38.521399   918 net.cpp:150] Setting up conv4_5/dwise/bn
I1009 21:37:38.521404   918 net.cpp:157] Top shape: 2 384 38 64 (1867776)
I1009 21:37:38.521405   918 net.cpp:165] Memory required for data: 686353760
I1009 21:37:38.521409   918 layer_factory.hpp:77] Creating layer conv4_5/dwise/scale
I1009 21:37:38.521414   918 net.cpp:100] Creating Layer conv4_5/dwise/scale
I1009 21:37:38.521416   918 net.cpp:434] conv4_5/dwise/scale <- conv4_5/dwise
I1009 21:37:38.521420   918 net.cpp:395] conv4_5/dwise/scale -> conv4_5/dwise (in-place)
I1009 21:37:38.521443   918 layer_factory.hpp:77] Creating layer conv4_5/dwise/scale
I1009 21:37:38.521517   918 net.cpp:150] Setting up conv4_5/dwise/scale
I1009 21:37:38.521520   918 net.cpp:157] Top shape: 2 384 38 64 (1867776)
I1009 21:37:38.521523   918 net.cpp:165] Memory required for data: 693824864
I1009 21:37:38.521526   918 layer_factory.hpp:77] Creating layer relu4_5/dwise
I1009 21:37:38.521529   918 net.cpp:100] Creating Layer relu4_5/dwise
I1009 21:37:38.521533   918 net.cpp:434] relu4_5/dwise <- conv4_5/dwise
I1009 21:37:38.521534   918 net.cpp:395] relu4_5/dwise -> conv4_5/dwise (in-place)
I1009 21:37:38.521914   918 net.cpp:150] Setting up relu4_5/dwise
I1009 21:37:38.521922   918 net.cpp:157] Top shape: 2 384 38 64 (1867776)
I1009 21:37:38.521924   918 net.cpp:165] Memory required for data: 701295968
I1009 21:37:38.521926   918 layer_factory.hpp:77] Creating layer conv4_5/linear
I1009 21:37:38.521932   918 net.cpp:100] Creating Layer conv4_5/linear
I1009 21:37:38.521934   918 net.cpp:434] conv4_5/linear <- conv4_5/dwise
I1009 21:37:38.521939   918 net.cpp:408] conv4_5/linear -> conv4_5/linear
I1009 21:37:38.523265   918 net.cpp:150] Setting up conv4_5/linear
I1009 21:37:38.523280   918 net.cpp:157] Top shape: 2 64 38 64 (311296)
I1009 21:37:38.523283   918 net.cpp:165] Memory required for data: 702541152
I1009 21:37:38.523290   918 layer_factory.hpp:77] Creating layer conv4_5/linear/bn
I1009 21:37:38.523299   918 net.cpp:100] Creating Layer conv4_5/linear/bn
I1009 21:37:38.523304   918 net.cpp:434] conv4_5/linear/bn <- conv4_5/linear
I1009 21:37:38.523310   918 net.cpp:395] conv4_5/linear/bn -> conv4_5/linear (in-place)
I1009 21:37:38.523479   918 net.cpp:150] Setting up conv4_5/linear/bn
I1009 21:37:38.523484   918 net.cpp:157] Top shape: 2 64 38 64 (311296)
I1009 21:37:38.523486   918 net.cpp:165] Memory required for data: 703786336
I1009 21:37:38.523494   918 layer_factory.hpp:77] Creating layer conv4_5/linear/scale
I1009 21:37:38.523499   918 net.cpp:100] Creating Layer conv4_5/linear/scale
I1009 21:37:38.523502   918 net.cpp:434] conv4_5/linear/scale <- conv4_5/linear
I1009 21:37:38.523506   918 net.cpp:395] conv4_5/linear/scale -> conv4_5/linear (in-place)
I1009 21:37:38.523546   918 layer_factory.hpp:77] Creating layer conv4_5/linear/scale
I1009 21:37:38.523630   918 net.cpp:150] Setting up conv4_5/linear/scale
I1009 21:37:38.523635   918 net.cpp:157] Top shape: 2 64 38 64 (311296)
I1009 21:37:38.523638   918 net.cpp:165] Memory required for data: 705031520
I1009 21:37:38.523643   918 layer_factory.hpp:77] Creating layer block_4_5
I1009 21:37:38.523648   918 net.cpp:100] Creating Layer block_4_5
I1009 21:37:38.523653   918 net.cpp:434] block_4_5 <- block_4_4_block_4_4_0_split_1
I1009 21:37:38.523658   918 net.cpp:434] block_4_5 <- conv4_5/linear
I1009 21:37:38.523663   918 net.cpp:408] block_4_5 -> block_4_5
I1009 21:37:38.523684   918 net.cpp:150] Setting up block_4_5
I1009 21:37:38.523689   918 net.cpp:157] Top shape: 2 64 38 64 (311296)
I1009 21:37:38.523691   918 net.cpp:165] Memory required for data: 706276704
I1009 21:37:38.523694   918 layer_factory.hpp:77] Creating layer block_4_5_block_4_5_0_split
I1009 21:37:38.523700   918 net.cpp:100] Creating Layer block_4_5_block_4_5_0_split
I1009 21:37:38.523705   918 net.cpp:434] block_4_5_block_4_5_0_split <- block_4_5
I1009 21:37:38.523708   918 net.cpp:408] block_4_5_block_4_5_0_split -> block_4_5_block_4_5_0_split_0
I1009 21:37:38.523715   918 net.cpp:408] block_4_5_block_4_5_0_split -> block_4_5_block_4_5_0_split_1
I1009 21:37:38.523758   918 net.cpp:150] Setting up block_4_5_block_4_5_0_split
I1009 21:37:38.523763   918 net.cpp:157] Top shape: 2 64 38 64 (311296)
I1009 21:37:38.523767   918 net.cpp:157] Top shape: 2 64 38 64 (311296)
I1009 21:37:38.523771   918 net.cpp:165] Memory required for data: 708767072
I1009 21:37:38.523773   918 layer_factory.hpp:77] Creating layer conv4_6/expand
I1009 21:37:38.523782   918 net.cpp:100] Creating Layer conv4_6/expand
I1009 21:37:38.523785   918 net.cpp:434] conv4_6/expand <- block_4_5_block_4_5_0_split_0
I1009 21:37:38.523790   918 net.cpp:408] conv4_6/expand -> conv4_6/expand
I1009 21:37:38.525164   918 net.cpp:150] Setting up conv4_6/expand
I1009 21:37:38.525174   918 net.cpp:157] Top shape: 2 384 38 64 (1867776)
I1009 21:37:38.525177   918 net.cpp:165] Memory required for data: 716238176
I1009 21:37:38.525182   918 layer_factory.hpp:77] Creating layer conv4_6/expand/bn
I1009 21:37:38.525188   918 net.cpp:100] Creating Layer conv4_6/expand/bn
I1009 21:37:38.525192   918 net.cpp:434] conv4_6/expand/bn <- conv4_6/expand
I1009 21:37:38.525197   918 net.cpp:395] conv4_6/expand/bn -> conv4_6/expand (in-place)
I1009 21:37:38.525347   918 net.cpp:150] Setting up conv4_6/expand/bn
I1009 21:37:38.525352   918 net.cpp:157] Top shape: 2 384 38 64 (1867776)
I1009 21:37:38.525355   918 net.cpp:165] Memory required for data: 723709280
I1009 21:37:38.525362   918 layer_factory.hpp:77] Creating layer conv4_6/expand/scale
I1009 21:37:38.525367   918 net.cpp:100] Creating Layer conv4_6/expand/scale
I1009 21:37:38.525370   918 net.cpp:434] conv4_6/expand/scale <- conv4_6/expand
I1009 21:37:38.525377   918 net.cpp:395] conv4_6/expand/scale -> conv4_6/expand (in-place)
I1009 21:37:38.525408   918 layer_factory.hpp:77] Creating layer conv4_6/expand/scale
I1009 21:37:38.525491   918 net.cpp:150] Setting up conv4_6/expand/scale
I1009 21:37:38.525496   918 net.cpp:157] Top shape: 2 384 38 64 (1867776)
I1009 21:37:38.525499   918 net.cpp:165] Memory required for data: 731180384
I1009 21:37:38.525504   918 layer_factory.hpp:77] Creating layer relu4_6/expand
I1009 21:37:38.525511   918 net.cpp:100] Creating Layer relu4_6/expand
I1009 21:37:38.525512   918 net.cpp:434] relu4_6/expand <- conv4_6/expand
I1009 21:37:38.525518   918 net.cpp:395] relu4_6/expand -> conv4_6/expand (in-place)
I1009 21:37:38.526625   918 net.cpp:150] Setting up relu4_6/expand
I1009 21:37:38.526634   918 net.cpp:157] Top shape: 2 384 38 64 (1867776)
I1009 21:37:38.526638   918 net.cpp:165] Memory required for data: 738651488
I1009 21:37:38.526640   918 layer_factory.hpp:77] Creating layer conv4_6/dwise
I1009 21:37:38.526648   918 net.cpp:100] Creating Layer conv4_6/dwise
I1009 21:37:38.526651   918 net.cpp:434] conv4_6/dwise <- conv4_6/expand
I1009 21:37:38.526657   918 net.cpp:408] conv4_6/dwise -> conv4_6/dwise
I1009 21:37:38.526834   918 net.cpp:150] Setting up conv4_6/dwise
I1009 21:37:38.526839   918 net.cpp:157] Top shape: 2 384 38 64 (1867776)
I1009 21:37:38.526842   918 net.cpp:165] Memory required for data: 746122592
I1009 21:37:38.526847   918 layer_factory.hpp:77] Creating layer conv4_6/dwise/bn
I1009 21:37:38.526854   918 net.cpp:100] Creating Layer conv4_6/dwise/bn
I1009 21:37:38.526856   918 net.cpp:434] conv4_6/dwise/bn <- conv4_6/dwise
I1009 21:37:38.526860   918 net.cpp:395] conv4_6/dwise/bn -> conv4_6/dwise (in-place)
I1009 21:37:38.527002   918 net.cpp:150] Setting up conv4_6/dwise/bn
I1009 21:37:38.527007   918 net.cpp:157] Top shape: 2 384 38 64 (1867776)
I1009 21:37:38.527010   918 net.cpp:165] Memory required for data: 753593696
I1009 21:37:38.527016   918 layer_factory.hpp:77] Creating layer conv4_6/dwise/scale
I1009 21:37:38.527022   918 net.cpp:100] Creating Layer conv4_6/dwise/scale
I1009 21:37:38.527026   918 net.cpp:434] conv4_6/dwise/scale <- conv4_6/dwise
I1009 21:37:38.527030   918 net.cpp:395] conv4_6/dwise/scale -> conv4_6/dwise (in-place)
I1009 21:37:38.527062   918 layer_factory.hpp:77] Creating layer conv4_6/dwise/scale
I1009 21:37:38.527144   918 net.cpp:150] Setting up conv4_6/dwise/scale
I1009 21:37:38.527158   918 net.cpp:157] Top shape: 2 384 38 64 (1867776)
I1009 21:37:38.527161   918 net.cpp:165] Memory required for data: 761064800
I1009 21:37:38.527166   918 layer_factory.hpp:77] Creating layer relu4_6/dwise
I1009 21:37:38.527175   918 net.cpp:100] Creating Layer relu4_6/dwise
I1009 21:37:38.527180   918 net.cpp:434] relu4_6/dwise <- conv4_6/dwise
I1009 21:37:38.527185   918 net.cpp:395] relu4_6/dwise -> conv4_6/dwise (in-place)
I1009 21:37:38.527469   918 net.cpp:150] Setting up relu4_6/dwise
I1009 21:37:38.527477   918 net.cpp:157] Top shape: 2 384 38 64 (1867776)
I1009 21:37:38.527479   918 net.cpp:165] Memory required for data: 768535904
I1009 21:37:38.527483   918 layer_factory.hpp:77] Creating layer conv4_6/linear
I1009 21:37:38.527489   918 net.cpp:100] Creating Layer conv4_6/linear
I1009 21:37:38.527493   918 net.cpp:434] conv4_6/linear <- conv4_6/dwise
I1009 21:37:38.527499   918 net.cpp:408] conv4_6/linear -> conv4_6/linear
I1009 21:37:38.528736   918 net.cpp:150] Setting up conv4_6/linear
I1009 21:37:38.528743   918 net.cpp:157] Top shape: 2 64 38 64 (311296)
I1009 21:37:38.528746   918 net.cpp:165] Memory required for data: 769781088
I1009 21:37:38.528751   918 layer_factory.hpp:77] Creating layer conv4_6/linear/bn
I1009 21:37:38.528758   918 net.cpp:100] Creating Layer conv4_6/linear/bn
I1009 21:37:38.528761   918 net.cpp:434] conv4_6/linear/bn <- conv4_6/linear
I1009 21:37:38.528767   918 net.cpp:395] conv4_6/linear/bn -> conv4_6/linear (in-place)
I1009 21:37:38.528918   918 net.cpp:150] Setting up conv4_6/linear/bn
I1009 21:37:38.528923   918 net.cpp:157] Top shape: 2 64 38 64 (311296)
I1009 21:37:38.528926   918 net.cpp:165] Memory required for data: 771026272
I1009 21:37:38.528934   918 layer_factory.hpp:77] Creating layer conv4_6/linear/scale
I1009 21:37:38.528939   918 net.cpp:100] Creating Layer conv4_6/linear/scale
I1009 21:37:38.528942   918 net.cpp:434] conv4_6/linear/scale <- conv4_6/linear
I1009 21:37:38.528949   918 net.cpp:395] conv4_6/linear/scale -> conv4_6/linear (in-place)
I1009 21:37:38.528981   918 layer_factory.hpp:77] Creating layer conv4_6/linear/scale
I1009 21:37:38.529063   918 net.cpp:150] Setting up conv4_6/linear/scale
I1009 21:37:38.529069   918 net.cpp:157] Top shape: 2 64 38 64 (311296)
I1009 21:37:38.529072   918 net.cpp:165] Memory required for data: 772271456
I1009 21:37:38.529078   918 layer_factory.hpp:77] Creating layer block_4_6
I1009 21:37:38.529083   918 net.cpp:100] Creating Layer block_4_6
I1009 21:37:38.529086   918 net.cpp:434] block_4_6 <- block_4_5_block_4_5_0_split_1
I1009 21:37:38.529090   918 net.cpp:434] block_4_6 <- conv4_6/linear
I1009 21:37:38.529096   918 net.cpp:408] block_4_6 -> block_4_6
I1009 21:37:38.529116   918 net.cpp:150] Setting up block_4_6
I1009 21:37:38.529121   918 net.cpp:157] Top shape: 2 64 38 64 (311296)
I1009 21:37:38.529124   918 net.cpp:165] Memory required for data: 773516640
I1009 21:37:38.529126   918 layer_factory.hpp:77] Creating layer conv4_7/expand
I1009 21:37:38.529144   918 net.cpp:100] Creating Layer conv4_7/expand
I1009 21:37:38.529146   918 net.cpp:434] conv4_7/expand <- block_4_6
I1009 21:37:38.529151   918 net.cpp:408] conv4_7/expand -> conv4_7/expand
I1009 21:37:38.530386   918 net.cpp:150] Setting up conv4_7/expand
I1009 21:37:38.530393   918 net.cpp:157] Top shape: 2 384 38 64 (1867776)
I1009 21:37:38.530397   918 net.cpp:165] Memory required for data: 780987744
I1009 21:37:38.530402   918 layer_factory.hpp:77] Creating layer conv4_7/expand/bn
I1009 21:37:38.530408   918 net.cpp:100] Creating Layer conv4_7/expand/bn
I1009 21:37:38.530412   918 net.cpp:434] conv4_7/expand/bn <- conv4_7/expand
I1009 21:37:38.530417   918 net.cpp:395] conv4_7/expand/bn -> conv4_7/expand (in-place)
I1009 21:37:38.530565   918 net.cpp:150] Setting up conv4_7/expand/bn
I1009 21:37:38.530570   918 net.cpp:157] Top shape: 2 384 38 64 (1867776)
I1009 21:37:38.530573   918 net.cpp:165] Memory required for data: 788458848
I1009 21:37:38.530580   918 layer_factory.hpp:77] Creating layer conv4_7/expand/scale
I1009 21:37:38.530593   918 net.cpp:100] Creating Layer conv4_7/expand/scale
I1009 21:37:38.530596   918 net.cpp:434] conv4_7/expand/scale <- conv4_7/expand
I1009 21:37:38.530601   918 net.cpp:395] conv4_7/expand/scale -> conv4_7/expand (in-place)
I1009 21:37:38.530632   918 layer_factory.hpp:77] Creating layer conv4_7/expand/scale
I1009 21:37:38.530715   918 net.cpp:150] Setting up conv4_7/expand/scale
I1009 21:37:38.530720   918 net.cpp:157] Top shape: 2 384 38 64 (1867776)
I1009 21:37:38.530722   918 net.cpp:165] Memory required for data: 795929952
I1009 21:37:38.530730   918 layer_factory.hpp:77] Creating layer relu4_7/expand
I1009 21:37:38.530735   918 net.cpp:100] Creating Layer relu4_7/expand
I1009 21:37:38.530738   918 net.cpp:434] relu4_7/expand <- conv4_7/expand
I1009 21:37:38.530742   918 net.cpp:395] relu4_7/expand -> conv4_7/expand (in-place)
I1009 21:37:38.531127   918 net.cpp:150] Setting up relu4_7/expand
I1009 21:37:38.531136   918 net.cpp:157] Top shape: 2 384 38 64 (1867776)
I1009 21:37:38.531138   918 net.cpp:165] Memory required for data: 803401056
I1009 21:37:38.531141   918 layer_factory.hpp:77] Creating layer conv4_7/dwise
I1009 21:37:38.531149   918 net.cpp:100] Creating Layer conv4_7/dwise
I1009 21:37:38.531153   918 net.cpp:434] conv4_7/dwise <- conv4_7/expand
I1009 21:37:38.531157   918 net.cpp:408] conv4_7/dwise -> conv4_7/dwise
I1009 21:37:38.531332   918 net.cpp:150] Setting up conv4_7/dwise
I1009 21:37:38.531338   918 net.cpp:157] Top shape: 2 384 19 32 (466944)
I1009 21:37:38.531342   918 net.cpp:165] Memory required for data: 805268832
I1009 21:37:38.531345   918 layer_factory.hpp:77] Creating layer conv4_7/dwise/bn
I1009 21:37:38.531352   918 net.cpp:100] Creating Layer conv4_7/dwise/bn
I1009 21:37:38.531355   918 net.cpp:434] conv4_7/dwise/bn <- conv4_7/dwise
I1009 21:37:38.531359   918 net.cpp:395] conv4_7/dwise/bn -> conv4_7/dwise (in-place)
I1009 21:37:38.531499   918 net.cpp:150] Setting up conv4_7/dwise/bn
I1009 21:37:38.531504   918 net.cpp:157] Top shape: 2 384 19 32 (466944)
I1009 21:37:38.531507   918 net.cpp:165] Memory required for data: 807136608
I1009 21:37:38.531514   918 layer_factory.hpp:77] Creating layer conv4_7/dwise/scale
I1009 21:37:38.531520   918 net.cpp:100] Creating Layer conv4_7/dwise/scale
I1009 21:37:38.531523   918 net.cpp:434] conv4_7/dwise/scale <- conv4_7/dwise
I1009 21:37:38.531527   918 net.cpp:395] conv4_7/dwise/scale -> conv4_7/dwise (in-place)
I1009 21:37:38.531564   918 layer_factory.hpp:77] Creating layer conv4_7/dwise/scale
I1009 21:37:38.531651   918 net.cpp:150] Setting up conv4_7/dwise/scale
I1009 21:37:38.531656   918 net.cpp:157] Top shape: 2 384 19 32 (466944)
I1009 21:37:38.531658   918 net.cpp:165] Memory required for data: 809004384
I1009 21:37:38.531663   918 layer_factory.hpp:77] Creating layer relu4_7/dwise
I1009 21:37:38.531671   918 net.cpp:100] Creating Layer relu4_7/dwise
I1009 21:37:38.531673   918 net.cpp:434] relu4_7/dwise <- conv4_7/dwise
I1009 21:37:38.531677   918 net.cpp:395] relu4_7/dwise -> conv4_7/dwise (in-place)
I1009 21:37:38.531960   918 net.cpp:150] Setting up relu4_7/dwise
I1009 21:37:38.531966   918 net.cpp:157] Top shape: 2 384 19 32 (466944)
I1009 21:37:38.531968   918 net.cpp:165] Memory required for data: 810872160
I1009 21:37:38.531971   918 layer_factory.hpp:77] Creating layer conv4_7/linear
I1009 21:37:38.531980   918 net.cpp:100] Creating Layer conv4_7/linear
I1009 21:37:38.531983   918 net.cpp:434] conv4_7/linear <- conv4_7/dwise
I1009 21:37:38.531988   918 net.cpp:408] conv4_7/linear -> conv4_7/linear
I1009 21:37:38.534041   918 net.cpp:150] Setting up conv4_7/linear
I1009 21:37:38.534054   918 net.cpp:157] Top shape: 2 96 19 32 (116736)
I1009 21:37:38.534056   918 net.cpp:165] Memory required for data: 811339104
I1009 21:37:38.534062   918 layer_factory.hpp:77] Creating layer conv4_7/linear/bn
I1009 21:37:38.534070   918 net.cpp:100] Creating Layer conv4_7/linear/bn
I1009 21:37:38.534073   918 net.cpp:434] conv4_7/linear/bn <- conv4_7/linear
I1009 21:37:38.534080   918 net.cpp:395] conv4_7/linear/bn -> conv4_7/linear (in-place)
I1009 21:37:38.534256   918 net.cpp:150] Setting up conv4_7/linear/bn
I1009 21:37:38.534261   918 net.cpp:157] Top shape: 2 96 19 32 (116736)
I1009 21:37:38.534265   918 net.cpp:165] Memory required for data: 811806048
I1009 21:37:38.534271   918 layer_factory.hpp:77] Creating layer conv4_7/linear/scale
I1009 21:37:38.534278   918 net.cpp:100] Creating Layer conv4_7/linear/scale
I1009 21:37:38.534281   918 net.cpp:434] conv4_7/linear/scale <- conv4_7/linear
I1009 21:37:38.534286   918 net.cpp:395] conv4_7/linear/scale -> conv4_7/linear (in-place)
I1009 21:37:38.534322   918 layer_factory.hpp:77] Creating layer conv4_7/linear/scale
I1009 21:37:38.534417   918 net.cpp:150] Setting up conv4_7/linear/scale
I1009 21:37:38.534422   918 net.cpp:157] Top shape: 2 96 19 32 (116736)
I1009 21:37:38.534425   918 net.cpp:165] Memory required for data: 812272992
I1009 21:37:38.534431   918 layer_factory.hpp:77] Creating layer conv4_7/linear_conv4_7/linear/scale_0_split
I1009 21:37:38.534436   918 net.cpp:100] Creating Layer conv4_7/linear_conv4_7/linear/scale_0_split
I1009 21:37:38.534441   918 net.cpp:434] conv4_7/linear_conv4_7/linear/scale_0_split <- conv4_7/linear
I1009 21:37:38.534447   918 net.cpp:408] conv4_7/linear_conv4_7/linear/scale_0_split -> conv4_7/linear_conv4_7/linear/scale_0_split_0
I1009 21:37:38.534453   918 net.cpp:408] conv4_7/linear_conv4_7/linear/scale_0_split -> conv4_7/linear_conv4_7/linear/scale_0_split_1
I1009 21:37:38.534484   918 net.cpp:150] Setting up conv4_7/linear_conv4_7/linear/scale_0_split
I1009 21:37:38.534488   918 net.cpp:157] Top shape: 2 96 19 32 (116736)
I1009 21:37:38.534493   918 net.cpp:157] Top shape: 2 96 19 32 (116736)
I1009 21:37:38.534497   918 net.cpp:165] Memory required for data: 813206880
I1009 21:37:38.534499   918 layer_factory.hpp:77] Creating layer conv5_1/expand
I1009 21:37:38.534507   918 net.cpp:100] Creating Layer conv5_1/expand
I1009 21:37:38.534509   918 net.cpp:434] conv5_1/expand <- conv4_7/linear_conv4_7/linear/scale_0_split_0
I1009 21:37:38.534514   918 net.cpp:408] conv5_1/expand -> conv5_1/expand
I1009 21:37:38.536140   918 net.cpp:150] Setting up conv5_1/expand
I1009 21:37:38.536152   918 net.cpp:157] Top shape: 2 576 19 32 (700416)
I1009 21:37:38.536155   918 net.cpp:165] Memory required for data: 816008544
I1009 21:37:38.536161   918 layer_factory.hpp:77] Creating layer conv5_1/expand/bn
I1009 21:37:38.536170   918 net.cpp:100] Creating Layer conv5_1/expand/bn
I1009 21:37:38.536175   918 net.cpp:434] conv5_1/expand/bn <- conv5_1/expand
I1009 21:37:38.536181   918 net.cpp:395] conv5_1/expand/bn -> conv5_1/expand (in-place)
I1009 21:37:38.536353   918 net.cpp:150] Setting up conv5_1/expand/bn
I1009 21:37:38.536358   918 net.cpp:157] Top shape: 2 576 19 32 (700416)
I1009 21:37:38.536361   918 net.cpp:165] Memory required for data: 818810208
I1009 21:37:38.536370   918 layer_factory.hpp:77] Creating layer conv5_1/expand/scale
I1009 21:37:38.536375   918 net.cpp:100] Creating Layer conv5_1/expand/scale
I1009 21:37:38.536378   918 net.cpp:434] conv5_1/expand/scale <- conv5_1/expand
I1009 21:37:38.536384   918 net.cpp:395] conv5_1/expand/scale -> conv5_1/expand (in-place)
I1009 21:37:38.536420   918 layer_factory.hpp:77] Creating layer conv5_1/expand/scale
I1009 21:37:38.536517   918 net.cpp:150] Setting up conv5_1/expand/scale
I1009 21:37:38.536522   918 net.cpp:157] Top shape: 2 576 19 32 (700416)
I1009 21:37:38.536525   918 net.cpp:165] Memory required for data: 821611872
I1009 21:37:38.536530   918 layer_factory.hpp:77] Creating layer relu5_1/expand
I1009 21:37:38.536536   918 net.cpp:100] Creating Layer relu5_1/expand
I1009 21:37:38.536540   918 net.cpp:434] relu5_1/expand <- conv5_1/expand
I1009 21:37:38.536543   918 net.cpp:395] relu5_1/expand -> conv5_1/expand (in-place)
I1009 21:37:38.536835   918 net.cpp:150] Setting up relu5_1/expand
I1009 21:37:38.536841   918 net.cpp:157] Top shape: 2 576 19 32 (700416)
I1009 21:37:38.536844   918 net.cpp:165] Memory required for data: 824413536
I1009 21:37:38.536847   918 layer_factory.hpp:77] Creating layer conv5_1/dwise
I1009 21:37:38.536862   918 net.cpp:100] Creating Layer conv5_1/dwise
I1009 21:37:38.536866   918 net.cpp:434] conv5_1/dwise <- conv5_1/expand
I1009 21:37:38.536872   918 net.cpp:408] conv5_1/dwise -> conv5_1/dwise
I1009 21:37:38.537065   918 net.cpp:150] Setting up conv5_1/dwise
I1009 21:37:38.537070   918 net.cpp:157] Top shape: 2 576 19 32 (700416)
I1009 21:37:38.537075   918 net.cpp:165] Memory required for data: 827215200
I1009 21:37:38.537080   918 layer_factory.hpp:77] Creating layer conv5_1/dwise/bn
I1009 21:37:38.537084   918 net.cpp:100] Creating Layer conv5_1/dwise/bn
I1009 21:37:38.537087   918 net.cpp:434] conv5_1/dwise/bn <- conv5_1/dwise
I1009 21:37:38.537093   918 net.cpp:395] conv5_1/dwise/bn -> conv5_1/dwise (in-place)
I1009 21:37:38.537250   918 net.cpp:150] Setting up conv5_1/dwise/bn
I1009 21:37:38.537256   918 net.cpp:157] Top shape: 2 576 19 32 (700416)
I1009 21:37:38.537258   918 net.cpp:165] Memory required for data: 830016864
I1009 21:37:38.537266   918 layer_factory.hpp:77] Creating layer conv5_1/dwise/scale
I1009 21:37:38.537271   918 net.cpp:100] Creating Layer conv5_1/dwise/scale
I1009 21:37:38.537273   918 net.cpp:434] conv5_1/dwise/scale <- conv5_1/dwise
I1009 21:37:38.537278   918 net.cpp:395] conv5_1/dwise/scale -> conv5_1/dwise (in-place)
I1009 21:37:38.537312   918 layer_factory.hpp:77] Creating layer conv5_1/dwise/scale
I1009 21:37:38.537405   918 net.cpp:150] Setting up conv5_1/dwise/scale
I1009 21:37:38.537410   918 net.cpp:157] Top shape: 2 576 19 32 (700416)
I1009 21:37:38.537411   918 net.cpp:165] Memory required for data: 832818528
I1009 21:37:38.537418   918 layer_factory.hpp:77] Creating layer relu5_1/dwise
I1009 21:37:38.537423   918 net.cpp:100] Creating Layer relu5_1/dwise
I1009 21:37:38.537426   918 net.cpp:434] relu5_1/dwise <- conv5_1/dwise
I1009 21:37:38.537431   918 net.cpp:395] relu5_1/dwise -> conv5_1/dwise (in-place)
I1009 21:37:38.537719   918 net.cpp:150] Setting up relu5_1/dwise
I1009 21:37:38.537724   918 net.cpp:157] Top shape: 2 576 19 32 (700416)
I1009 21:37:38.537727   918 net.cpp:165] Memory required for data: 835620192
I1009 21:37:38.537730   918 layer_factory.hpp:77] Creating layer conv5_1/linear
I1009 21:37:38.537737   918 net.cpp:100] Creating Layer conv5_1/linear
I1009 21:37:38.537742   918 net.cpp:434] conv5_1/linear <- conv5_1/dwise
I1009 21:37:38.537746   918 net.cpp:408] conv5_1/linear -> conv5_1/linear
I1009 21:37:38.540040   918 net.cpp:150] Setting up conv5_1/linear
I1009 21:37:38.540050   918 net.cpp:157] Top shape: 2 96 19 32 (116736)
I1009 21:37:38.540053   918 net.cpp:165] Memory required for data: 836087136
I1009 21:37:38.540058   918 layer_factory.hpp:77] Creating layer conv5_1/linear/bn
I1009 21:37:38.540066   918 net.cpp:100] Creating Layer conv5_1/linear/bn
I1009 21:37:38.540069   918 net.cpp:434] conv5_1/linear/bn <- conv5_1/linear
I1009 21:37:38.540074   918 net.cpp:395] conv5_1/linear/bn -> conv5_1/linear (in-place)
I1009 21:37:38.540242   918 net.cpp:150] Setting up conv5_1/linear/bn
I1009 21:37:38.540247   918 net.cpp:157] Top shape: 2 96 19 32 (116736)
I1009 21:37:38.540251   918 net.cpp:165] Memory required for data: 836554080
I1009 21:37:38.540257   918 layer_factory.hpp:77] Creating layer conv5_1/linear/scale
I1009 21:37:38.540263   918 net.cpp:100] Creating Layer conv5_1/linear/scale
I1009 21:37:38.540267   918 net.cpp:434] conv5_1/linear/scale <- conv5_1/linear
I1009 21:37:38.540271   918 net.cpp:395] conv5_1/linear/scale -> conv5_1/linear (in-place)
I1009 21:37:38.540307   918 layer_factory.hpp:77] Creating layer conv5_1/linear/scale
I1009 21:37:38.540402   918 net.cpp:150] Setting up conv5_1/linear/scale
I1009 21:37:38.540407   918 net.cpp:157] Top shape: 2 96 19 32 (116736)
I1009 21:37:38.540410   918 net.cpp:165] Memory required for data: 837021024
I1009 21:37:38.540416   918 layer_factory.hpp:77] Creating layer block_5_1
I1009 21:37:38.540421   918 net.cpp:100] Creating Layer block_5_1
I1009 21:37:38.540423   918 net.cpp:434] block_5_1 <- conv4_7/linear_conv4_7/linear/scale_0_split_1
I1009 21:37:38.540428   918 net.cpp:434] block_5_1 <- conv5_1/linear
I1009 21:37:38.540442   918 net.cpp:408] block_5_1 -> block_5_1
I1009 21:37:38.540462   918 net.cpp:150] Setting up block_5_1
I1009 21:37:38.540467   918 net.cpp:157] Top shape: 2 96 19 32 (116736)
I1009 21:37:38.540470   918 net.cpp:165] Memory required for data: 837487968
I1009 21:37:38.540474   918 layer_factory.hpp:77] Creating layer block_5_1_block_5_1_0_split
I1009 21:37:38.540480   918 net.cpp:100] Creating Layer block_5_1_block_5_1_0_split
I1009 21:37:38.540483   918 net.cpp:434] block_5_1_block_5_1_0_split <- block_5_1
I1009 21:37:38.540488   918 net.cpp:408] block_5_1_block_5_1_0_split -> block_5_1_block_5_1_0_split_0
I1009 21:37:38.540494   918 net.cpp:408] block_5_1_block_5_1_0_split -> block_5_1_block_5_1_0_split_1
I1009 21:37:38.540524   918 net.cpp:150] Setting up block_5_1_block_5_1_0_split
I1009 21:37:38.540529   918 net.cpp:157] Top shape: 2 96 19 32 (116736)
I1009 21:37:38.540534   918 net.cpp:157] Top shape: 2 96 19 32 (116736)
I1009 21:37:38.540536   918 net.cpp:165] Memory required for data: 838421856
I1009 21:37:38.540539   918 layer_factory.hpp:77] Creating layer conv5_2/expand
I1009 21:37:38.540546   918 net.cpp:100] Creating Layer conv5_2/expand
I1009 21:37:38.540549   918 net.cpp:434] conv5_2/expand <- block_5_1_block_5_1_0_split_0
I1009 21:37:38.540555   918 net.cpp:408] conv5_2/expand -> conv5_2/expand
I1009 21:37:38.542070   918 net.cpp:150] Setting up conv5_2/expand
I1009 21:37:38.542078   918 net.cpp:157] Top shape: 2 576 19 32 (700416)
I1009 21:37:38.542081   918 net.cpp:165] Memory required for data: 841223520
I1009 21:37:38.542086   918 layer_factory.hpp:77] Creating layer conv5_2/expand/bn
I1009 21:37:38.542093   918 net.cpp:100] Creating Layer conv5_2/expand/bn
I1009 21:37:38.542098   918 net.cpp:434] conv5_2/expand/bn <- conv5_2/expand
I1009 21:37:38.542102   918 net.cpp:395] conv5_2/expand/bn -> conv5_2/expand (in-place)
I1009 21:37:38.542266   918 net.cpp:150] Setting up conv5_2/expand/bn
I1009 21:37:38.542271   918 net.cpp:157] Top shape: 2 576 19 32 (700416)
I1009 21:37:38.542273   918 net.cpp:165] Memory required for data: 844025184
I1009 21:37:38.542280   918 layer_factory.hpp:77] Creating layer conv5_2/expand/scale
I1009 21:37:38.542285   918 net.cpp:100] Creating Layer conv5_2/expand/scale
I1009 21:37:38.542289   918 net.cpp:434] conv5_2/expand/scale <- conv5_2/expand
I1009 21:37:38.542294   918 net.cpp:395] conv5_2/expand/scale -> conv5_2/expand (in-place)
I1009 21:37:38.542330   918 layer_factory.hpp:77] Creating layer conv5_2/expand/scale
I1009 21:37:38.542423   918 net.cpp:150] Setting up conv5_2/expand/scale
I1009 21:37:38.542428   918 net.cpp:157] Top shape: 2 576 19 32 (700416)
I1009 21:37:38.542430   918 net.cpp:165] Memory required for data: 846826848
I1009 21:37:38.542436   918 layer_factory.hpp:77] Creating layer relu5_2/expand
I1009 21:37:38.542441   918 net.cpp:100] Creating Layer relu5_2/expand
I1009 21:37:38.542445   918 net.cpp:434] relu5_2/expand <- conv5_2/expand
I1009 21:37:38.542449   918 net.cpp:395] relu5_2/expand -> conv5_2/expand (in-place)
I1009 21:37:38.542737   918 net.cpp:150] Setting up relu5_2/expand
I1009 21:37:38.542743   918 net.cpp:157] Top shape: 2 576 19 32 (700416)
I1009 21:37:38.542747   918 net.cpp:165] Memory required for data: 849628512
I1009 21:37:38.542749   918 layer_factory.hpp:77] Creating layer conv5_2/dwise
I1009 21:37:38.542757   918 net.cpp:100] Creating Layer conv5_2/dwise
I1009 21:37:38.542760   918 net.cpp:434] conv5_2/dwise <- conv5_2/expand
I1009 21:37:38.542765   918 net.cpp:408] conv5_2/dwise -> conv5_2/dwise
I1009 21:37:38.542956   918 net.cpp:150] Setting up conv5_2/dwise
I1009 21:37:38.542961   918 net.cpp:157] Top shape: 2 576 19 32 (700416)
I1009 21:37:38.542964   918 net.cpp:165] Memory required for data: 852430176
I1009 21:37:38.542968   918 layer_factory.hpp:77] Creating layer conv5_2/dwise/bn
I1009 21:37:38.542973   918 net.cpp:100] Creating Layer conv5_2/dwise/bn
I1009 21:37:38.542978   918 net.cpp:434] conv5_2/dwise/bn <- conv5_2/dwise
I1009 21:37:38.542982   918 net.cpp:395] conv5_2/dwise/bn -> conv5_2/dwise (in-place)
I1009 21:37:38.543148   918 net.cpp:150] Setting up conv5_2/dwise/bn
I1009 21:37:38.543153   918 net.cpp:157] Top shape: 2 576 19 32 (700416)
I1009 21:37:38.543155   918 net.cpp:165] Memory required for data: 855231840
I1009 21:37:38.543161   918 layer_factory.hpp:77] Creating layer conv5_2/dwise/scale
I1009 21:37:38.543166   918 net.cpp:100] Creating Layer conv5_2/dwise/scale
I1009 21:37:38.543174   918 net.cpp:434] conv5_2/dwise/scale <- conv5_2/dwise
I1009 21:37:38.543179   918 net.cpp:395] conv5_2/dwise/scale -> conv5_2/dwise (in-place)
I1009 21:37:38.543213   918 layer_factory.hpp:77] Creating layer conv5_2/dwise/scale
I1009 21:37:38.543308   918 net.cpp:150] Setting up conv5_2/dwise/scale
I1009 21:37:38.543313   918 net.cpp:157] Top shape: 2 576 19 32 (700416)
I1009 21:37:38.543315   918 net.cpp:165] Memory required for data: 858033504
I1009 21:37:38.543320   918 layer_factory.hpp:77] Creating layer relu5_2/dwise
I1009 21:37:38.543326   918 net.cpp:100] Creating Layer relu5_2/dwise
I1009 21:37:38.543329   918 net.cpp:434] relu5_2/dwise <- conv5_2/dwise
I1009 21:37:38.543334   918 net.cpp:395] relu5_2/dwise -> conv5_2/dwise (in-place)
I1009 21:37:38.543722   918 net.cpp:150] Setting up relu5_2/dwise
I1009 21:37:38.543730   918 net.cpp:157] Top shape: 2 576 19 32 (700416)
I1009 21:37:38.543733   918 net.cpp:165] Memory required for data: 860835168
I1009 21:37:38.543736   918 layer_factory.hpp:77] Creating layer conv5_2/linear
I1009 21:37:38.543745   918 net.cpp:100] Creating Layer conv5_2/linear
I1009 21:37:38.543748   918 net.cpp:434] conv5_2/linear <- conv5_2/dwise
I1009 21:37:38.543753   918 net.cpp:408] conv5_2/linear -> conv5_2/linear
I1009 21:37:38.545158   918 net.cpp:150] Setting up conv5_2/linear
I1009 21:37:38.545166   918 net.cpp:157] Top shape: 2 96 19 32 (116736)
I1009 21:37:38.545168   918 net.cpp:165] Memory required for data: 861302112
I1009 21:37:38.545173   918 layer_factory.hpp:77] Creating layer conv5_2/linear/bn
I1009 21:37:38.545179   918 net.cpp:100] Creating Layer conv5_2/linear/bn
I1009 21:37:38.545183   918 net.cpp:434] conv5_2/linear/bn <- conv5_2/linear
I1009 21:37:38.545188   918 net.cpp:395] conv5_2/linear/bn -> conv5_2/linear (in-place)
I1009 21:37:38.545351   918 net.cpp:150] Setting up conv5_2/linear/bn
I1009 21:37:38.545356   918 net.cpp:157] Top shape: 2 96 19 32 (116736)
I1009 21:37:38.545358   918 net.cpp:165] Memory required for data: 861769056
I1009 21:37:38.545366   918 layer_factory.hpp:77] Creating layer conv5_2/linear/scale
I1009 21:37:38.545370   918 net.cpp:100] Creating Layer conv5_2/linear/scale
I1009 21:37:38.545374   918 net.cpp:434] conv5_2/linear/scale <- conv5_2/linear
I1009 21:37:38.545378   918 net.cpp:395] conv5_2/linear/scale -> conv5_2/linear (in-place)
I1009 21:37:38.545413   918 layer_factory.hpp:77] Creating layer conv5_2/linear/scale
I1009 21:37:38.545509   918 net.cpp:150] Setting up conv5_2/linear/scale
I1009 21:37:38.545516   918 net.cpp:157] Top shape: 2 96 19 32 (116736)
I1009 21:37:38.545517   918 net.cpp:165] Memory required for data: 862236000
I1009 21:37:38.545523   918 layer_factory.hpp:77] Creating layer block_5_2
I1009 21:37:38.545529   918 net.cpp:100] Creating Layer block_5_2
I1009 21:37:38.545533   918 net.cpp:434] block_5_2 <- block_5_1_block_5_1_0_split_1
I1009 21:37:38.545536   918 net.cpp:434] block_5_2 <- conv5_2/linear
I1009 21:37:38.545542   918 net.cpp:408] block_5_2 -> block_5_2
I1009 21:37:38.545562   918 net.cpp:150] Setting up block_5_2
I1009 21:37:38.545567   918 net.cpp:157] Top shape: 2 96 19 32 (116736)
I1009 21:37:38.545569   918 net.cpp:165] Memory required for data: 862702944
I1009 21:37:38.545572   918 layer_factory.hpp:77] Creating layer conv5_3/expand
I1009 21:37:38.545578   918 net.cpp:100] Creating Layer conv5_3/expand
I1009 21:37:38.545581   918 net.cpp:434] conv5_3/expand <- block_5_2
I1009 21:37:38.545585   918 net.cpp:408] conv5_3/expand -> conv5_3/expand
I1009 21:37:38.548166   918 net.cpp:150] Setting up conv5_3/expand
I1009 21:37:38.548177   918 net.cpp:157] Top shape: 2 576 19 32 (700416)
I1009 21:37:38.548193   918 net.cpp:165] Memory required for data: 865504608
I1009 21:37:38.548199   918 layer_factory.hpp:77] Creating layer conv5_3/expand/bn
I1009 21:37:38.548207   918 net.cpp:100] Creating Layer conv5_3/expand/bn
I1009 21:37:38.548210   918 net.cpp:434] conv5_3/expand/bn <- conv5_3/expand
I1009 21:37:38.548216   918 net.cpp:395] conv5_3/expand/bn -> conv5_3/expand (in-place)
I1009 21:37:38.548388   918 net.cpp:150] Setting up conv5_3/expand/bn
I1009 21:37:38.548393   918 net.cpp:157] Top shape: 2 576 19 32 (700416)
I1009 21:37:38.548394   918 net.cpp:165] Memory required for data: 868306272
I1009 21:37:38.548401   918 layer_factory.hpp:77] Creating layer conv5_3/expand/scale
I1009 21:37:38.548406   918 net.cpp:100] Creating Layer conv5_3/expand/scale
I1009 21:37:38.548410   918 net.cpp:434] conv5_3/expand/scale <- conv5_3/expand
I1009 21:37:38.548415   918 net.cpp:395] conv5_3/expand/scale -> conv5_3/expand (in-place)
I1009 21:37:38.548451   918 layer_factory.hpp:77] Creating layer conv5_3/expand/scale
I1009 21:37:38.548548   918 net.cpp:150] Setting up conv5_3/expand/scale
I1009 21:37:38.548553   918 net.cpp:157] Top shape: 2 576 19 32 (700416)
I1009 21:37:38.548555   918 net.cpp:165] Memory required for data: 871107936
I1009 21:37:38.548563   918 layer_factory.hpp:77] Creating layer relu5_3/expand
I1009 21:37:38.548568   918 net.cpp:100] Creating Layer relu5_3/expand
I1009 21:37:38.548571   918 net.cpp:434] relu5_3/expand <- conv5_3/expand
I1009 21:37:38.548576   918 net.cpp:395] relu5_3/expand -> conv5_3/expand (in-place)
I1009 21:37:38.548866   918 net.cpp:150] Setting up relu5_3/expand
I1009 21:37:38.548873   918 net.cpp:157] Top shape: 2 576 19 32 (700416)
I1009 21:37:38.548877   918 net.cpp:165] Memory required for data: 873909600
I1009 21:37:38.548880   918 layer_factory.hpp:77] Creating layer conv5_3/expand_relu5_3/expand_0_split
I1009 21:37:38.548885   918 net.cpp:100] Creating Layer conv5_3/expand_relu5_3/expand_0_split
I1009 21:37:38.548888   918 net.cpp:434] conv5_3/expand_relu5_3/expand_0_split <- conv5_3/expand
I1009 21:37:38.548894   918 net.cpp:408] conv5_3/expand_relu5_3/expand_0_split -> conv5_3/expand_relu5_3/expand_0_split_0
I1009 21:37:38.548902   918 net.cpp:408] conv5_3/expand_relu5_3/expand_0_split -> conv5_3/expand_relu5_3/expand_0_split_1
I1009 21:37:38.548907   918 net.cpp:408] conv5_3/expand_relu5_3/expand_0_split -> conv5_3/expand_relu5_3/expand_0_split_2
I1009 21:37:38.548913   918 net.cpp:408] conv5_3/expand_relu5_3/expand_0_split -> conv5_3/expand_relu5_3/expand_0_split_3
I1009 21:37:38.548967   918 net.cpp:150] Setting up conv5_3/expand_relu5_3/expand_0_split
I1009 21:37:38.548971   918 net.cpp:157] Top shape: 2 576 19 32 (700416)
I1009 21:37:38.548976   918 net.cpp:157] Top shape: 2 576 19 32 (700416)
I1009 21:37:38.548980   918 net.cpp:157] Top shape: 2 576 19 32 (700416)
I1009 21:37:38.548985   918 net.cpp:157] Top shape: 2 576 19 32 (700416)
I1009 21:37:38.548987   918 net.cpp:165] Memory required for data: 885116256
I1009 21:37:38.548990   918 layer_factory.hpp:77] Creating layer conv5_3/dwise
I1009 21:37:38.548997   918 net.cpp:100] Creating Layer conv5_3/dwise
I1009 21:37:38.549000   918 net.cpp:434] conv5_3/dwise <- conv5_3/expand_relu5_3/expand_0_split_0
I1009 21:37:38.549006   918 net.cpp:408] conv5_3/dwise -> conv5_3/dwise
I1009 21:37:38.549190   918 net.cpp:150] Setting up conv5_3/dwise
I1009 21:37:38.549196   918 net.cpp:157] Top shape: 2 576 10 16 (184320)
I1009 21:37:38.549198   918 net.cpp:165] Memory required for data: 885853536
I1009 21:37:38.549202   918 layer_factory.hpp:77] Creating layer conv5_3/dwise/bn
I1009 21:37:38.549208   918 net.cpp:100] Creating Layer conv5_3/dwise/bn
I1009 21:37:38.549211   918 net.cpp:434] conv5_3/dwise/bn <- conv5_3/dwise
I1009 21:37:38.549217   918 net.cpp:395] conv5_3/dwise/bn -> conv5_3/dwise (in-place)
I1009 21:37:38.549374   918 net.cpp:150] Setting up conv5_3/dwise/bn
I1009 21:37:38.549381   918 net.cpp:157] Top shape: 2 576 10 16 (184320)
I1009 21:37:38.549382   918 net.cpp:165] Memory required for data: 886590816
I1009 21:37:38.549394   918 layer_factory.hpp:77] Creating layer conv5_3/dwise/scale
I1009 21:37:38.549399   918 net.cpp:100] Creating Layer conv5_3/dwise/scale
I1009 21:37:38.549403   918 net.cpp:434] conv5_3/dwise/scale <- conv5_3/dwise
I1009 21:37:38.549409   918 net.cpp:395] conv5_3/dwise/scale -> conv5_3/dwise (in-place)
I1009 21:37:38.549443   918 layer_factory.hpp:77] Creating layer conv5_3/dwise/scale
I1009 21:37:38.549536   918 net.cpp:150] Setting up conv5_3/dwise/scale
I1009 21:37:38.549542   918 net.cpp:157] Top shape: 2 576 10 16 (184320)
I1009 21:37:38.549544   918 net.cpp:165] Memory required for data: 887328096
I1009 21:37:38.549549   918 layer_factory.hpp:77] Creating layer relu5_3/dwise
I1009 21:37:38.549556   918 net.cpp:100] Creating Layer relu5_3/dwise
I1009 21:37:38.549561   918 net.cpp:434] relu5_3/dwise <- conv5_3/dwise
I1009 21:37:38.549563   918 net.cpp:395] relu5_3/dwise -> conv5_3/dwise (in-place)
I1009 21:37:38.549963   918 net.cpp:150] Setting up relu5_3/dwise
I1009 21:37:38.549971   918 net.cpp:157] Top shape: 2 576 10 16 (184320)
I1009 21:37:38.549974   918 net.cpp:165] Memory required for data: 888065376
I1009 21:37:38.549978   918 layer_factory.hpp:77] Creating layer conv5_3/linear
I1009 21:37:38.549984   918 net.cpp:100] Creating Layer conv5_3/linear
I1009 21:37:38.549988   918 net.cpp:434] conv5_3/linear <- conv5_3/dwise
I1009 21:37:38.549994   918 net.cpp:408] conv5_3/linear -> conv5_3/linear
I1009 21:37:38.552163   918 net.cpp:150] Setting up conv5_3/linear
I1009 21:37:38.552172   918 net.cpp:157] Top shape: 2 160 10 16 (51200)
I1009 21:37:38.552175   918 net.cpp:165] Memory required for data: 888270176
I1009 21:37:38.552181   918 layer_factory.hpp:77] Creating layer conv5_3/linear/bn
I1009 21:37:38.552186   918 net.cpp:100] Creating Layer conv5_3/linear/bn
I1009 21:37:38.552191   918 net.cpp:434] conv5_3/linear/bn <- conv5_3/linear
I1009 21:37:38.552196   918 net.cpp:395] conv5_3/linear/bn -> conv5_3/linear (in-place)
I1009 21:37:38.552361   918 net.cpp:150] Setting up conv5_3/linear/bn
I1009 21:37:38.552366   918 net.cpp:157] Top shape: 2 160 10 16 (51200)
I1009 21:37:38.552367   918 net.cpp:165] Memory required for data: 888474976
I1009 21:37:38.552373   918 layer_factory.hpp:77] Creating layer conv5_3/linear/scale
I1009 21:37:38.552381   918 net.cpp:100] Creating Layer conv5_3/linear/scale
I1009 21:37:38.552383   918 net.cpp:434] conv5_3/linear/scale <- conv5_3/linear
I1009 21:37:38.552388   918 net.cpp:395] conv5_3/linear/scale -> conv5_3/linear (in-place)
I1009 21:37:38.552423   918 layer_factory.hpp:77] Creating layer conv5_3/linear/scale
I1009 21:37:38.552516   918 net.cpp:150] Setting up conv5_3/linear/scale
I1009 21:37:38.552521   918 net.cpp:157] Top shape: 2 160 10 16 (51200)
I1009 21:37:38.552523   918 net.cpp:165] Memory required for data: 888679776
I1009 21:37:38.552542   918 layer_factory.hpp:77] Creating layer conv5_3/linear_conv5_3/linear/scale_0_split
I1009 21:37:38.552548   918 net.cpp:100] Creating Layer conv5_3/linear_conv5_3/linear/scale_0_split
I1009 21:37:38.552551   918 net.cpp:434] conv5_3/linear_conv5_3/linear/scale_0_split <- conv5_3/linear
I1009 21:37:38.552556   918 net.cpp:408] conv5_3/linear_conv5_3/linear/scale_0_split -> conv5_3/linear_conv5_3/linear/scale_0_split_0
I1009 21:37:38.552562   918 net.cpp:408] conv5_3/linear_conv5_3/linear/scale_0_split -> conv5_3/linear_conv5_3/linear/scale_0_split_1
I1009 21:37:38.552595   918 net.cpp:150] Setting up conv5_3/linear_conv5_3/linear/scale_0_split
I1009 21:37:38.552599   918 net.cpp:157] Top shape: 2 160 10 16 (51200)
I1009 21:37:38.552603   918 net.cpp:157] Top shape: 2 160 10 16 (51200)
I1009 21:37:38.552606   918 net.cpp:165] Memory required for data: 889089376
I1009 21:37:38.552609   918 layer_factory.hpp:77] Creating layer conv6_1/expand
I1009 21:37:38.552618   918 net.cpp:100] Creating Layer conv6_1/expand
I1009 21:37:38.552620   918 net.cpp:434] conv6_1/expand <- conv5_3/linear_conv5_3/linear/scale_0_split_0
I1009 21:37:38.552625   918 net.cpp:408] conv6_1/expand -> conv6_1/expand
I1009 21:37:38.554606   918 net.cpp:150] Setting up conv6_1/expand
I1009 21:37:38.554613   918 net.cpp:157] Top shape: 2 960 10 16 (307200)
I1009 21:37:38.554616   918 net.cpp:165] Memory required for data: 890318176
I1009 21:37:38.554621   918 layer_factory.hpp:77] Creating layer conv6_1/expand/bn
I1009 21:37:38.554628   918 net.cpp:100] Creating Layer conv6_1/expand/bn
I1009 21:37:38.554632   918 net.cpp:434] conv6_1/expand/bn <- conv6_1/expand
I1009 21:37:38.554638   918 net.cpp:395] conv6_1/expand/bn -> conv6_1/expand (in-place)
I1009 21:37:38.554803   918 net.cpp:150] Setting up conv6_1/expand/bn
I1009 21:37:38.554808   918 net.cpp:157] Top shape: 2 960 10 16 (307200)
I1009 21:37:38.554811   918 net.cpp:165] Memory required for data: 891546976
I1009 21:37:38.554817   918 layer_factory.hpp:77] Creating layer conv6_1/expand/scale
I1009 21:37:38.554822   918 net.cpp:100] Creating Layer conv6_1/expand/scale
I1009 21:37:38.554826   918 net.cpp:434] conv6_1/expand/scale <- conv6_1/expand
I1009 21:37:38.554831   918 net.cpp:395] conv6_1/expand/scale -> conv6_1/expand (in-place)
I1009 21:37:38.554865   918 layer_factory.hpp:77] Creating layer conv6_1/expand/scale
I1009 21:37:38.554960   918 net.cpp:150] Setting up conv6_1/expand/scale
I1009 21:37:38.554966   918 net.cpp:157] Top shape: 2 960 10 16 (307200)
I1009 21:37:38.554968   918 net.cpp:165] Memory required for data: 892775776
I1009 21:37:38.554973   918 layer_factory.hpp:77] Creating layer relu6_1/expand
I1009 21:37:38.554978   918 net.cpp:100] Creating Layer relu6_1/expand
I1009 21:37:38.554982   918 net.cpp:434] relu6_1/expand <- conv6_1/expand
I1009 21:37:38.554986   918 net.cpp:395] relu6_1/expand -> conv6_1/expand (in-place)
I1009 21:37:38.556109   918 net.cpp:150] Setting up relu6_1/expand
I1009 21:37:38.556118   918 net.cpp:157] Top shape: 2 960 10 16 (307200)
I1009 21:37:38.556120   918 net.cpp:165] Memory required for data: 894004576
I1009 21:37:38.556123   918 layer_factory.hpp:77] Creating layer conv6_1/dwise
I1009 21:37:38.556133   918 net.cpp:100] Creating Layer conv6_1/dwise
I1009 21:37:38.556136   918 net.cpp:434] conv6_1/dwise <- conv6_1/expand
I1009 21:37:38.556143   918 net.cpp:408] conv6_1/dwise -> conv6_1/dwise
I1009 21:37:38.556360   918 net.cpp:150] Setting up conv6_1/dwise
I1009 21:37:38.556365   918 net.cpp:157] Top shape: 2 960 10 16 (307200)
I1009 21:37:38.556367   918 net.cpp:165] Memory required for data: 895233376
I1009 21:37:38.556372   918 layer_factory.hpp:77] Creating layer conv6_1/dwise/bn
I1009 21:37:38.556378   918 net.cpp:100] Creating Layer conv6_1/dwise/bn
I1009 21:37:38.556381   918 net.cpp:434] conv6_1/dwise/bn <- conv6_1/dwise
I1009 21:37:38.556387   918 net.cpp:395] conv6_1/dwise/bn -> conv6_1/dwise (in-place)
I1009 21:37:38.556550   918 net.cpp:150] Setting up conv6_1/dwise/bn
I1009 21:37:38.556555   918 net.cpp:157] Top shape: 2 960 10 16 (307200)
I1009 21:37:38.556557   918 net.cpp:165] Memory required for data: 896462176
I1009 21:37:38.556565   918 layer_factory.hpp:77] Creating layer conv6_1/dwise/scale
I1009 21:37:38.556571   918 net.cpp:100] Creating Layer conv6_1/dwise/scale
I1009 21:37:38.556574   918 net.cpp:434] conv6_1/dwise/scale <- conv6_1/dwise
I1009 21:37:38.556578   918 net.cpp:395] conv6_1/dwise/scale -> conv6_1/dwise (in-place)
I1009 21:37:38.556613   918 layer_factory.hpp:77] Creating layer conv6_1/dwise/scale
I1009 21:37:38.556708   918 net.cpp:150] Setting up conv6_1/dwise/scale
I1009 21:37:38.556713   918 net.cpp:157] Top shape: 2 960 10 16 (307200)
I1009 21:37:38.556716   918 net.cpp:165] Memory required for data: 897690976
I1009 21:37:38.556721   918 layer_factory.hpp:77] Creating layer relu6_1/dwise
I1009 21:37:38.556727   918 net.cpp:100] Creating Layer relu6_1/dwise
I1009 21:37:38.556730   918 net.cpp:434] relu6_1/dwise <- conv6_1/dwise
I1009 21:37:38.556735   918 net.cpp:395] relu6_1/dwise -> conv6_1/dwise (in-place)
I1009 21:37:38.557021   918 net.cpp:150] Setting up relu6_1/dwise
I1009 21:37:38.557027   918 net.cpp:157] Top shape: 2 960 10 16 (307200)
I1009 21:37:38.557030   918 net.cpp:165] Memory required for data: 898919776
I1009 21:37:38.557042   918 layer_factory.hpp:77] Creating layer conv6_1/linear
I1009 21:37:38.557050   918 net.cpp:100] Creating Layer conv6_1/linear
I1009 21:37:38.557054   918 net.cpp:434] conv6_1/linear <- conv6_1/dwise
I1009 21:37:38.557060   918 net.cpp:408] conv6_1/linear -> conv6_1/linear
I1009 21:37:38.559021   918 net.cpp:150] Setting up conv6_1/linear
I1009 21:37:38.559028   918 net.cpp:157] Top shape: 2 160 10 16 (51200)
I1009 21:37:38.559032   918 net.cpp:165] Memory required for data: 899124576
I1009 21:37:38.559037   918 layer_factory.hpp:77] Creating layer conv6_1/linear/bn
I1009 21:37:38.559043   918 net.cpp:100] Creating Layer conv6_1/linear/bn
I1009 21:37:38.559047   918 net.cpp:434] conv6_1/linear/bn <- conv6_1/linear
I1009 21:37:38.559053   918 net.cpp:395] conv6_1/linear/bn -> conv6_1/linear (in-place)
I1009 21:37:38.559221   918 net.cpp:150] Setting up conv6_1/linear/bn
I1009 21:37:38.559227   918 net.cpp:157] Top shape: 2 160 10 16 (51200)
I1009 21:37:38.559229   918 net.cpp:165] Memory required for data: 899329376
I1009 21:37:38.559237   918 layer_factory.hpp:77] Creating layer conv6_1/linear/scale
I1009 21:37:38.559242   918 net.cpp:100] Creating Layer conv6_1/linear/scale
I1009 21:37:38.559244   918 net.cpp:434] conv6_1/linear/scale <- conv6_1/linear
I1009 21:37:38.559248   918 net.cpp:395] conv6_1/linear/scale -> conv6_1/linear (in-place)
I1009 21:37:38.559283   918 layer_factory.hpp:77] Creating layer conv6_1/linear/scale
I1009 21:37:38.559376   918 net.cpp:150] Setting up conv6_1/linear/scale
I1009 21:37:38.559381   918 net.cpp:157] Top shape: 2 160 10 16 (51200)
I1009 21:37:38.559383   918 net.cpp:165] Memory required for data: 899534176
I1009 21:37:38.559388   918 layer_factory.hpp:77] Creating layer block_6_1
I1009 21:37:38.559393   918 net.cpp:100] Creating Layer block_6_1
I1009 21:37:38.559396   918 net.cpp:434] block_6_1 <- conv5_3/linear_conv5_3/linear/scale_0_split_1
I1009 21:37:38.559401   918 net.cpp:434] block_6_1 <- conv6_1/linear
I1009 21:37:38.559407   918 net.cpp:408] block_6_1 -> block_6_1
I1009 21:37:38.559427   918 net.cpp:150] Setting up block_6_1
I1009 21:37:38.559433   918 net.cpp:157] Top shape: 2 160 10 16 (51200)
I1009 21:37:38.559437   918 net.cpp:165] Memory required for data: 899738976
I1009 21:37:38.559439   918 layer_factory.hpp:77] Creating layer block_6_1_block_6_1_0_split
I1009 21:37:38.559444   918 net.cpp:100] Creating Layer block_6_1_block_6_1_0_split
I1009 21:37:38.559448   918 net.cpp:434] block_6_1_block_6_1_0_split <- block_6_1
I1009 21:37:38.559453   918 net.cpp:408] block_6_1_block_6_1_0_split -> block_6_1_block_6_1_0_split_0
I1009 21:37:38.559460   918 net.cpp:408] block_6_1_block_6_1_0_split -> block_6_1_block_6_1_0_split_1
I1009 21:37:38.559489   918 net.cpp:150] Setting up block_6_1_block_6_1_0_split
I1009 21:37:38.559494   918 net.cpp:157] Top shape: 2 160 10 16 (51200)
I1009 21:37:38.559497   918 net.cpp:157] Top shape: 2 160 10 16 (51200)
I1009 21:37:38.559501   918 net.cpp:165] Memory required for data: 900148576
I1009 21:37:38.559504   918 layer_factory.hpp:77] Creating layer conv6_2/expand
I1009 21:37:38.559510   918 net.cpp:100] Creating Layer conv6_2/expand
I1009 21:37:38.559514   918 net.cpp:434] conv6_2/expand <- block_6_1_block_6_1_0_split_0
I1009 21:37:38.559520   918 net.cpp:408] conv6_2/expand -> conv6_2/expand
I1009 21:37:38.561950   918 net.cpp:150] Setting up conv6_2/expand
I1009 21:37:38.561959   918 net.cpp:157] Top shape: 2 960 10 16 (307200)
I1009 21:37:38.561961   918 net.cpp:165] Memory required for data: 901377376
I1009 21:37:38.561967   918 layer_factory.hpp:77] Creating layer conv6_2/expand/bn
I1009 21:37:38.561975   918 net.cpp:100] Creating Layer conv6_2/expand/bn
I1009 21:37:38.561978   918 net.cpp:434] conv6_2/expand/bn <- conv6_2/expand
I1009 21:37:38.561985   918 net.cpp:395] conv6_2/expand/bn -> conv6_2/expand (in-place)
I1009 21:37:38.562155   918 net.cpp:150] Setting up conv6_2/expand/bn
I1009 21:37:38.562160   918 net.cpp:157] Top shape: 2 960 10 16 (307200)
I1009 21:37:38.562171   918 net.cpp:165] Memory required for data: 902606176
I1009 21:37:38.562178   918 layer_factory.hpp:77] Creating layer conv6_2/expand/scale
I1009 21:37:38.562186   918 net.cpp:100] Creating Layer conv6_2/expand/scale
I1009 21:37:38.562188   918 net.cpp:434] conv6_2/expand/scale <- conv6_2/expand
I1009 21:37:38.562192   918 net.cpp:395] conv6_2/expand/scale -> conv6_2/expand (in-place)
I1009 21:37:38.562230   918 layer_factory.hpp:77] Creating layer conv6_2/expand/scale
I1009 21:37:38.562328   918 net.cpp:150] Setting up conv6_2/expand/scale
I1009 21:37:38.562335   918 net.cpp:157] Top shape: 2 960 10 16 (307200)
I1009 21:37:38.562337   918 net.cpp:165] Memory required for data: 903834976
I1009 21:37:38.562342   918 layer_factory.hpp:77] Creating layer relu6_2/expand
I1009 21:37:38.562348   918 net.cpp:100] Creating Layer relu6_2/expand
I1009 21:37:38.562351   918 net.cpp:434] relu6_2/expand <- conv6_2/expand
I1009 21:37:38.562355   918 net.cpp:395] relu6_2/expand -> conv6_2/expand (in-place)
I1009 21:37:38.562747   918 net.cpp:150] Setting up relu6_2/expand
I1009 21:37:38.562754   918 net.cpp:157] Top shape: 2 960 10 16 (307200)
I1009 21:37:38.562757   918 net.cpp:165] Memory required for data: 905063776
I1009 21:37:38.562760   918 layer_factory.hpp:77] Creating layer conv6_2/dwise
I1009 21:37:38.562767   918 net.cpp:100] Creating Layer conv6_2/dwise
I1009 21:37:38.562772   918 net.cpp:434] conv6_2/dwise <- conv6_2/expand
I1009 21:37:38.562777   918 net.cpp:408] conv6_2/dwise -> conv6_2/dwise
I1009 21:37:38.562994   918 net.cpp:150] Setting up conv6_2/dwise
I1009 21:37:38.562999   918 net.cpp:157] Top shape: 2 960 10 16 (307200)
I1009 21:37:38.563002   918 net.cpp:165] Memory required for data: 906292576
I1009 21:37:38.563006   918 layer_factory.hpp:77] Creating layer conv6_2/dwise/bn
I1009 21:37:38.563011   918 net.cpp:100] Creating Layer conv6_2/dwise/bn
I1009 21:37:38.563014   918 net.cpp:434] conv6_2/dwise/bn <- conv6_2/dwise
I1009 21:37:38.563019   918 net.cpp:395] conv6_2/dwise/bn -> conv6_2/dwise (in-place)
I1009 21:37:38.563187   918 net.cpp:150] Setting up conv6_2/dwise/bn
I1009 21:37:38.563194   918 net.cpp:157] Top shape: 2 960 10 16 (307200)
I1009 21:37:38.563195   918 net.cpp:165] Memory required for data: 907521376
I1009 21:37:38.563202   918 layer_factory.hpp:77] Creating layer conv6_2/dwise/scale
I1009 21:37:38.563207   918 net.cpp:100] Creating Layer conv6_2/dwise/scale
I1009 21:37:38.563210   918 net.cpp:434] conv6_2/dwise/scale <- conv6_2/dwise
I1009 21:37:38.563215   918 net.cpp:395] conv6_2/dwise/scale -> conv6_2/dwise (in-place)
I1009 21:37:38.563252   918 layer_factory.hpp:77] Creating layer conv6_2/dwise/scale
I1009 21:37:38.563347   918 net.cpp:150] Setting up conv6_2/dwise/scale
I1009 21:37:38.563352   918 net.cpp:157] Top shape: 2 960 10 16 (307200)
I1009 21:37:38.563355   918 net.cpp:165] Memory required for data: 908750176
I1009 21:37:38.563361   918 layer_factory.hpp:77] Creating layer relu6_2/dwise
I1009 21:37:38.563367   918 net.cpp:100] Creating Layer relu6_2/dwise
I1009 21:37:38.563370   918 net.cpp:434] relu6_2/dwise <- conv6_2/dwise
I1009 21:37:38.563374   918 net.cpp:395] relu6_2/dwise -> conv6_2/dwise (in-place)
I1009 21:37:38.563663   918 net.cpp:150] Setting up relu6_2/dwise
I1009 21:37:38.563670   918 net.cpp:157] Top shape: 2 960 10 16 (307200)
I1009 21:37:38.563673   918 net.cpp:165] Memory required for data: 909978976
I1009 21:37:38.563676   918 layer_factory.hpp:77] Creating layer conv6_2/linear
I1009 21:37:38.563684   918 net.cpp:100] Creating Layer conv6_2/linear
I1009 21:37:38.563688   918 net.cpp:434] conv6_2/linear <- conv6_2/dwise
I1009 21:37:38.563693   918 net.cpp:408] conv6_2/linear -> conv6_2/linear
I1009 21:37:38.566404   918 net.cpp:150] Setting up conv6_2/linear
I1009 21:37:38.566413   918 net.cpp:157] Top shape: 2 160 10 16 (51200)
I1009 21:37:38.566416   918 net.cpp:165] Memory required for data: 910183776
I1009 21:37:38.566421   918 layer_factory.hpp:77] Creating layer conv6_2/linear/bn
I1009 21:37:38.566429   918 net.cpp:100] Creating Layer conv6_2/linear/bn
I1009 21:37:38.566442   918 net.cpp:434] conv6_2/linear/bn <- conv6_2/linear
I1009 21:37:38.566447   918 net.cpp:395] conv6_2/linear/bn -> conv6_2/linear (in-place)
I1009 21:37:38.566612   918 net.cpp:150] Setting up conv6_2/linear/bn
I1009 21:37:38.566617   918 net.cpp:157] Top shape: 2 160 10 16 (51200)
I1009 21:37:38.566620   918 net.cpp:165] Memory required for data: 910388576
I1009 21:37:38.566627   918 layer_factory.hpp:77] Creating layer conv6_2/linear/scale
I1009 21:37:38.566632   918 net.cpp:100] Creating Layer conv6_2/linear/scale
I1009 21:37:38.566635   918 net.cpp:434] conv6_2/linear/scale <- conv6_2/linear
I1009 21:37:38.566640   918 net.cpp:395] conv6_2/linear/scale -> conv6_2/linear (in-place)
I1009 21:37:38.566678   918 layer_factory.hpp:77] Creating layer conv6_2/linear/scale
I1009 21:37:38.566772   918 net.cpp:150] Setting up conv6_2/linear/scale
I1009 21:37:38.566777   918 net.cpp:157] Top shape: 2 160 10 16 (51200)
I1009 21:37:38.566781   918 net.cpp:165] Memory required for data: 910593376
I1009 21:37:38.566787   918 layer_factory.hpp:77] Creating layer block_6_2
I1009 21:37:38.566792   918 net.cpp:100] Creating Layer block_6_2
I1009 21:37:38.566797   918 net.cpp:434] block_6_2 <- block_6_1_block_6_1_0_split_1
I1009 21:37:38.566800   918 net.cpp:434] block_6_2 <- conv6_2/linear
I1009 21:37:38.566805   918 net.cpp:408] block_6_2 -> block_6_2
I1009 21:37:38.566826   918 net.cpp:150] Setting up block_6_2
I1009 21:37:38.566831   918 net.cpp:157] Top shape: 2 160 10 16 (51200)
I1009 21:37:38.566834   918 net.cpp:165] Memory required for data: 910798176
I1009 21:37:38.566838   918 layer_factory.hpp:77] Creating layer conv6_3/expand
I1009 21:37:38.566843   918 net.cpp:100] Creating Layer conv6_3/expand
I1009 21:37:38.566846   918 net.cpp:434] conv6_3/expand <- block_6_2
I1009 21:37:38.566854   918 net.cpp:408] conv6_3/expand -> conv6_3/expand
I1009 21:37:38.568980   918 net.cpp:150] Setting up conv6_3/expand
I1009 21:37:38.568990   918 net.cpp:157] Top shape: 2 960 10 16 (307200)
I1009 21:37:38.568992   918 net.cpp:165] Memory required for data: 912026976
I1009 21:37:38.568998   918 layer_factory.hpp:77] Creating layer conv6_3/expand/bn
I1009 21:37:38.569005   918 net.cpp:100] Creating Layer conv6_3/expand/bn
I1009 21:37:38.569010   918 net.cpp:434] conv6_3/expand/bn <- conv6_3/expand
I1009 21:37:38.569016   918 net.cpp:395] conv6_3/expand/bn -> conv6_3/expand (in-place)
I1009 21:37:38.569187   918 net.cpp:150] Setting up conv6_3/expand/bn
I1009 21:37:38.569193   918 net.cpp:157] Top shape: 2 960 10 16 (307200)
I1009 21:37:38.569195   918 net.cpp:165] Memory required for data: 913255776
I1009 21:37:38.569202   918 layer_factory.hpp:77] Creating layer conv6_3/expand/scale
I1009 21:37:38.569208   918 net.cpp:100] Creating Layer conv6_3/expand/scale
I1009 21:37:38.569211   918 net.cpp:434] conv6_3/expand/scale <- conv6_3/expand
I1009 21:37:38.569216   918 net.cpp:395] conv6_3/expand/scale -> conv6_3/expand (in-place)
I1009 21:37:38.569257   918 layer_factory.hpp:77] Creating layer conv6_3/expand/scale
I1009 21:37:38.569353   918 net.cpp:150] Setting up conv6_3/expand/scale
I1009 21:37:38.569358   918 net.cpp:157] Top shape: 2 960 10 16 (307200)
I1009 21:37:38.569360   918 net.cpp:165] Memory required for data: 914484576
I1009 21:37:38.569366   918 layer_factory.hpp:77] Creating layer relu6_3/expand
I1009 21:37:38.569371   918 net.cpp:100] Creating Layer relu6_3/expand
I1009 21:37:38.569375   918 net.cpp:434] relu6_3/expand <- conv6_3/expand
I1009 21:37:38.569380   918 net.cpp:395] relu6_3/expand -> conv6_3/expand (in-place)
I1009 21:37:38.569671   918 net.cpp:150] Setting up relu6_3/expand
I1009 21:37:38.569677   918 net.cpp:157] Top shape: 2 960 10 16 (307200)
I1009 21:37:38.569680   918 net.cpp:165] Memory required for data: 915713376
I1009 21:37:38.569684   918 layer_factory.hpp:77] Creating layer conv6_3/dwise
I1009 21:37:38.569690   918 net.cpp:100] Creating Layer conv6_3/dwise
I1009 21:37:38.569694   918 net.cpp:434] conv6_3/dwise <- conv6_3/expand
I1009 21:37:38.569700   918 net.cpp:408] conv6_3/dwise -> conv6_3/dwise
I1009 21:37:38.569926   918 net.cpp:150] Setting up conv6_3/dwise
I1009 21:37:38.569931   918 net.cpp:157] Top shape: 2 960 10 16 (307200)
I1009 21:37:38.569934   918 net.cpp:165] Memory required for data: 916942176
I1009 21:37:38.569941   918 layer_factory.hpp:77] Creating layer conv6_3/dwise/bn
I1009 21:37:38.569945   918 net.cpp:100] Creating Layer conv6_3/dwise/bn
I1009 21:37:38.569949   918 net.cpp:434] conv6_3/dwise/bn <- conv6_3/dwise
I1009 21:37:38.569953   918 net.cpp:395] conv6_3/dwise/bn -> conv6_3/dwise (in-place)
I1009 21:37:38.570117   918 net.cpp:150] Setting up conv6_3/dwise/bn
I1009 21:37:38.570122   918 net.cpp:157] Top shape: 2 960 10 16 (307200)
I1009 21:37:38.570124   918 net.cpp:165] Memory required for data: 918170976
I1009 21:37:38.570130   918 layer_factory.hpp:77] Creating layer conv6_3/dwise/scale
I1009 21:37:38.570135   918 net.cpp:100] Creating Layer conv6_3/dwise/scale
I1009 21:37:38.570138   918 net.cpp:434] conv6_3/dwise/scale <- conv6_3/dwise
I1009 21:37:38.570142   918 net.cpp:395] conv6_3/dwise/scale -> conv6_3/dwise (in-place)
I1009 21:37:38.570179   918 layer_factory.hpp:77] Creating layer conv6_3/dwise/scale
I1009 21:37:38.570276   918 net.cpp:150] Setting up conv6_3/dwise/scale
I1009 21:37:38.570281   918 net.cpp:157] Top shape: 2 960 10 16 (307200)
I1009 21:37:38.570283   918 net.cpp:165] Memory required for data: 919399776
I1009 21:37:38.570289   918 layer_factory.hpp:77] Creating layer relu6_3/dwise
I1009 21:37:38.570294   918 net.cpp:100] Creating Layer relu6_3/dwise
I1009 21:37:38.570297   918 net.cpp:434] relu6_3/dwise <- conv6_3/dwise
I1009 21:37:38.570302   918 net.cpp:395] relu6_3/dwise -> conv6_3/dwise (in-place)
I1009 21:37:38.570598   918 net.cpp:150] Setting up relu6_3/dwise
I1009 21:37:38.570605   918 net.cpp:157] Top shape: 2 960 10 16 (307200)
I1009 21:37:38.570607   918 net.cpp:165] Memory required for data: 920628576
I1009 21:37:38.570611   918 layer_factory.hpp:77] Creating layer conv6_3/linear
…
I1009 21:37:38.754592   918 net.cpp:165] Memory required for data: 456627872
I1009 21:37:38.754598   918 layer_factory.hpp:77] Creating layer conv6_3/expand/scale
I1009 21:37:38.754606   918 net.cpp:100] Creating Layer conv6_3/expand/scale
I1009 21:37:38.754609   918 net.cpp:434] conv6_3/expand/scale <- conv6_3/expand
I1009 21:37:38.754613   918 net.cpp:395] conv6_3/expand/scale -> conv6_3/expand (in-place)
I1009 21:37:38.754652   918 layer_factory.hpp:77] Creating layer conv6_3/expand/scale
I1009 21:37:38.754739   918 net.cpp:150] Setting up conv6_3/expand/scale
I1009 21:37:38.754743   918 net.cpp:157] Top shape: 1 960 10 16 (153600)
I1009 21:37:38.754746   918 net.cpp:165] Memory required for data: 457242272
I1009 21:37:38.754752   918 layer_factory.hpp:77] Creating layer relu6_3/expand
I1009 21:37:38.754757   918 net.cpp:100] Creating Layer relu6_3/expand
I1009 21:37:38.754760   918 net.cpp:434] relu6_3/expand <- conv6_3/expand
I1009 21:37:38.754765   918 net.cpp:395] relu6_3/expand -> conv6_3/expand (in-place)
I1009 21:37:38.755079   918 net.cpp:150] Setting up relu6_3/expand
I1009 21:37:38.755086   918 net.cpp:157] Top shape: 1 960 10 16 (153600)
I1009 21:37:38.755089   918 net.cpp:165] Memory required for data: 457856672
I1009 21:37:38.755091   918 layer_factory.hpp:77] Creating layer conv6_3/dwise
I1009 21:37:38.755100   918 net.cpp:100] Creating Layer conv6_3/dwise
I1009 21:37:38.755102   918 net.cpp:434] conv6_3/dwise <- conv6_3/expand
I1009 21:37:38.755108   918 net.cpp:408] conv6_3/dwise -> conv6_3/dwise
I1009 21:37:38.755749   918 net.cpp:150] Setting up conv6_3/dwise
I1009 21:37:38.755756   918 net.cpp:157] Top shape: 1 960 10 16 (153600)
I1009 21:37:38.755759   918 net.cpp:165] Memory required for data: 458471072
I1009 21:37:38.755764   918 layer_factory.hpp:77] Creating layer conv6_3/dwise/bn
I1009 21:37:38.755770   918 net.cpp:100] Creating Layer conv6_3/dwise/bn
I1009 21:37:38.755774   918 net.cpp:434] conv6_3/dwise/bn <- conv6_3/dwise
I1009 21:37:38.755780   918 net.cpp:395] conv6_3/dwise/bn -> conv6_3/dwise (in-place)
I1009 21:37:38.755928   918 net.cpp:150] Setting up conv6_3/dwise/bn
I1009 21:37:38.755933   918 net.cpp:157] Top shape: 1 960 10 16 (153600)
I1009 21:37:38.755935   918 net.cpp:165] Memory required for data: 459085472
I1009 21:37:38.755942   918 layer_factory.hpp:77] Creating layer conv6_3/dwise/scale
I1009 21:37:38.755947   918 net.cpp:100] Creating Layer conv6_3/dwise/scale
I1009 21:37:38.755950   918 net.cpp:434] conv6_3/dwise/scale <- conv6_3/dwise
I1009 21:37:38.755956   918 net.cpp:395] conv6_3/dwise/scale -> conv6_3/dwise (in-place)
I1009 21:37:38.755995   918 layer_factory.hpp:77] Creating layer conv6_3/dwise/scale
I1009 21:37:38.756080   918 net.cpp:150] Setting up conv6_3/dwise/scale
I1009 21:37:38.756085   918 net.cpp:157] Top shape: 1 960 10 16 (153600)
I1009 21:37:38.756088   918 net.cpp:165] Memory required for data: 459699872
I1009 21:37:38.756094   918 layer_factory.hpp:77] Creating layer relu6_3/dwise
I1009 21:37:38.756099   918 net.cpp:100] Creating Layer relu6_3/dwise
I1009 21:37:38.756103   918 net.cpp:434] relu6_3/dwise <- conv6_3/dwise
I1009 21:37:38.756106   918 net.cpp:395] relu6_3/dwise -> conv6_3/dwise (in-place)
I1009 21:37:38.756541   918 net.cpp:150] Setting up relu6_3/dwise
I1009 21:37:38.756547   918 net.cpp:157] Top shape: 1 960 10 16 (153600)
I1009 21:37:38.756551   918 net.cpp:165] Memory required for data: 460314272
I1009 21:37:38.756553   918 layer_factory.hpp:77] Creating layer conv6_3/linear
I1009 21:37:38.756562   918 net.cpp:100] Creating Layer conv6_3/linear
I1009 21:37:38.756566   918 net.cpp:434] conv6_3/linear <- conv6_3/dwise
I1009 21:37:38.756572   918 net.cpp:408] conv6_3/linear -> conv6_3/linear
I1009 21:37:38.760769   918 net.cpp:150] Setting up conv6_3/linear
I1009 21:37:38.760782   918 net.cpp:157] Top shape: 1 320 10 16 (51200)
I1009 21:37:38.760784   918 net.cpp:165] Memory required for data: 460519072
I1009 21:37:38.760790   918 layer_factory.hpp:77] Creating layer conv6_3/linear/bn
I1009 21:37:38.760797   918 net.cpp:100] Creating Layer conv6_3/linear/bn
I1009 21:37:38.760802   918 net.cpp:434] conv6_3/linear/bn <- conv6_3/linear
I1009 21:37:38.760807   918 net.cpp:395] conv6_3/linear/bn -> conv6_3/linear (in-place)
I1009 21:37:38.760963   918 net.cpp:150] Setting up conv6_3/linear/bn
I1009 21:37:38.760968   918 net.cpp:157] Top shape: 1 320 10 16 (51200)
I1009 21:37:38.760972   918 net.cpp:165] Memory required for data: 460723872
I1009 21:37:38.760978   918 layer_factory.hpp:77] Creating layer conv6_3/linear/scale
I1009 21:37:38.760985   918 net.cpp:100] Creating Layer conv6_3/linear/scale
I1009 21:37:38.760988   918 net.cpp:434] conv6_3/linear/scale <- conv6_3/linear
I1009 21:37:38.760993   918 net.cpp:395] conv6_3/linear/scale -> conv6_3/linear (in-place)
I1009 21:37:38.761034   918 layer_factory.hpp:77] Creating layer conv6_3/linear/scale
I1009 21:37:38.761122   918 net.cpp:150] Setting up conv6_3/linear/scale
I1009 21:37:38.761127   918 net.cpp:157] Top shape: 1 320 10 16 (51200)
I1009 21:37:38.761140   918 net.cpp:165] Memory required for data: 460928672
I1009 21:37:38.761147   918 layer_factory.hpp:77] Creating layer conv6_4
I1009 21:37:38.761154   918 net.cpp:100] Creating Layer conv6_4
I1009 21:37:38.761157   918 net.cpp:434] conv6_4 <- conv6_3/linear
I1009 21:37:38.761164   918 net.cpp:408] conv6_4 -> conv6_4
I1009 21:37:38.765023   918 net.cpp:150] Setting up conv6_4
I1009 21:37:38.765033   918 net.cpp:157] Top shape: 1 1280 10 16 (204800)
I1009 21:37:38.765035   918 net.cpp:165] Memory required for data: 461747872
I1009 21:37:38.765040   918 layer_factory.hpp:77] Creating layer conv6_4/bn
I1009 21:37:38.765048   918 net.cpp:100] Creating Layer conv6_4/bn
I1009 21:37:38.765050   918 net.cpp:434] conv6_4/bn <- conv6_4
I1009 21:37:38.765054   918 net.cpp:395] conv6_4/bn -> conv6_4 (in-place)
I1009 21:37:38.765197   918 net.cpp:150] Setting up conv6_4/bn
I1009 21:37:38.765202   918 net.cpp:157] Top shape: 1 1280 10 16 (204800)
I1009 21:37:38.765204   918 net.cpp:165] Memory required for data: 462567072
I1009 21:37:38.765210   918 layer_factory.hpp:77] Creating layer conv6_4/scale
I1009 21:37:38.765218   918 net.cpp:100] Creating Layer conv6_4/scale
I1009 21:37:38.765220   918 net.cpp:434] conv6_4/scale <- conv6_4
I1009 21:37:38.765225   918 net.cpp:395] conv6_4/scale -> conv6_4 (in-place)
I1009 21:37:38.765259   918 layer_factory.hpp:77] Creating layer conv6_4/scale
I1009 21:37:38.765342   918 net.cpp:150] Setting up conv6_4/scale
I1009 21:37:38.765347   918 net.cpp:157] Top shape: 1 1280 10 16 (204800)
I1009 21:37:38.765349   918 net.cpp:165] Memory required for data: 463386272
I1009 21:37:38.765357   918 layer_factory.hpp:77] Creating layer relu6_4
I1009 21:37:38.765362   918 net.cpp:100] Creating Layer relu6_4
I1009 21:37:38.765364   918 net.cpp:434] relu6_4 <- conv6_4
I1009 21:37:38.765369   918 net.cpp:395] relu6_4 -> conv6_4 (in-place)
I1009 21:37:38.765676   918 net.cpp:150] Setting up relu6_4
I1009 21:37:38.765682   918 net.cpp:157] Top shape: 1 1280 10 16 (204800)
I1009 21:37:38.765686   918 net.cpp:165] Memory required for data: 464205472
I1009 21:37:38.765688   918 layer_factory.hpp:77] Creating layer conv6_4_relu6_4_0_split
I1009 21:37:38.765696   918 net.cpp:100] Creating Layer conv6_4_relu6_4_0_split
I1009 21:37:38.765698   918 net.cpp:434] conv6_4_relu6_4_0_split <- conv6_4
I1009 21:37:38.765703   918 net.cpp:408] conv6_4_relu6_4_0_split -> conv6_4_relu6_4_0_split_0
I1009 21:37:38.765710   918 net.cpp:408] conv6_4_relu6_4_0_split -> conv6_4_relu6_4_0_split_1
I1009 21:37:38.765717   918 net.cpp:408] conv6_4_relu6_4_0_split -> conv6_4_relu6_4_0_split_2
I1009 21:37:38.765722   918 net.cpp:408] conv6_4_relu6_4_0_split -> conv6_4_relu6_4_0_split_3
I1009 21:37:38.765767   918 net.cpp:150] Setting up conv6_4_relu6_4_0_split
I1009 21:37:38.765772   918 net.cpp:157] Top shape: 1 1280 10 16 (204800)
I1009 21:37:38.765776   918 net.cpp:157] Top shape: 1 1280 10 16 (204800)
I1009 21:37:38.765780   918 net.cpp:157] Top shape: 1 1280 10 16 (204800)
I1009 21:37:38.765785   918 net.cpp:157] Top shape: 1 1280 10 16 (204800)
I1009 21:37:38.765789   918 net.cpp:165] Memory required for data: 467482272
I1009 21:37:38.765791   918 layer_factory.hpp:77] Creating layer ssd1_1
I1009 21:37:38.765800   918 net.cpp:100] Creating Layer ssd1_1
I1009 21:37:38.765803   918 net.cpp:434] ssd1_1 <- conv6_4_relu6_4_0_split_0
I1009 21:37:38.765808   918 net.cpp:408] ssd1_1 -> ssd1_1
I1009 21:37:38.768641   918 net.cpp:150] Setting up ssd1_1
I1009 21:37:38.768656   918 net.cpp:157] Top shape: 1 256 10 16 (40960)
I1009 21:37:38.768658   918 net.cpp:165] Memory required for data: 467646112
I1009 21:37:38.768666   918 layer_factory.hpp:77] Creating layer ssd1_1_relu
I1009 21:37:38.768672   918 net.cpp:100] Creating Layer ssd1_1_relu
I1009 21:37:38.768676   918 net.cpp:434] ssd1_1_relu <- ssd1_1
I1009 21:37:38.768682   918 net.cpp:395] ssd1_1_relu -> ssd1_1 (in-place)
I1009 21:37:38.770030   918 net.cpp:150] Setting up ssd1_1_relu
I1009 21:37:38.770041   918 net.cpp:157] Top shape: 1 256 10 16 (40960)
I1009 21:37:38.770045   918 net.cpp:165] Memory required for data: 467809952
I1009 21:37:38.770059   918 layer_factory.hpp:77] Creating layer ssd1_2
I1009 21:37:38.770071   918 net.cpp:100] Creating Layer ssd1_2
I1009 21:37:38.770074   918 net.cpp:434] ssd1_2 <- ssd1_1
I1009 21:37:38.770081   918 net.cpp:408] ssd1_2 -> ssd1_2
I1009 21:37:38.775985   918 net.cpp:150] Setting up ssd1_2
I1009 21:37:38.776000   918 net.cpp:157] Top shape: 1 512 5 8 (20480)
I1009 21:37:38.776001   918 net.cpp:165] Memory required for data: 467891872
I1009 21:37:38.776010   918 layer_factory.hpp:77] Creating layer ssd1_2_relu
I1009 21:37:38.776017   918 net.cpp:100] Creating Layer ssd1_2_relu
I1009 21:37:38.776022   918 net.cpp:434] ssd1_2_relu <- ssd1_2
I1009 21:37:38.776027   918 net.cpp:395] ssd1_2_relu -> ssd1_2 (in-place)
I1009 21:37:38.776473   918 net.cpp:150] Setting up ssd1_2_relu
I1009 21:37:38.776480   918 net.cpp:157] Top shape: 1 512 5 8 (20480)
I1009 21:37:38.776484   918 net.cpp:165] Memory required for data: 467973792
I1009 21:37:38.776486   918 layer_factory.hpp:77] Creating layer ssd1_2_ssd1_2_relu_0_split
I1009 21:37:38.776492   918 net.cpp:100] Creating Layer ssd1_2_ssd1_2_relu_0_split
I1009 21:37:38.776496   918 net.cpp:434] ssd1_2_ssd1_2_relu_0_split <- ssd1_2
I1009 21:37:38.776504   918 net.cpp:408] ssd1_2_ssd1_2_relu_0_split -> ssd1_2_ssd1_2_relu_0_split_0
I1009 21:37:38.776511   918 net.cpp:408] ssd1_2_ssd1_2_relu_0_split -> ssd1_2_ssd1_2_relu_0_split_1
I1009 21:37:38.776517   918 net.cpp:408] ssd1_2_ssd1_2_relu_0_split -> ssd1_2_ssd1_2_relu_0_split_2
I1009 21:37:38.776523   918 net.cpp:408] ssd1_2_ssd1_2_relu_0_split -> ssd1_2_ssd1_2_relu_0_split_3
I1009 21:37:38.776571   918 net.cpp:150] Setting up ssd1_2_ssd1_2_relu_0_split
I1009 21:37:38.776576   918 net.cpp:157] Top shape: 1 512 5 8 (20480)
I1009 21:37:38.776579   918 net.cpp:157] Top shape: 1 512 5 8 (20480)
I1009 21:37:38.776584   918 net.cpp:157] Top shape: 1 512 5 8 (20480)
I1009 21:37:38.776588   918 net.cpp:157] Top shape: 1 512 5 8 (20480)
I1009 21:37:38.776592   918 net.cpp:165] Memory required for data: 468301472
I1009 21:37:38.776594   918 layer_factory.hpp:77] Creating layer ssd2_1
I1009 21:37:38.776603   918 net.cpp:100] Creating Layer ssd2_1
I1009 21:37:38.776607   918 net.cpp:434] ssd2_1 <- ssd1_2_ssd1_2_relu_0_split_0
I1009 21:37:38.776612   918 net.cpp:408] ssd2_1 -> ssd2_1
I1009 21:37:38.778013   918 net.cpp:150] Setting up ssd2_1
I1009 21:37:38.778021   918 net.cpp:157] Top shape: 1 128 5 8 (5120)
I1009 21:37:38.778025   918 net.cpp:165] Memory required for data: 468321952
I1009 21:37:38.778031   918 layer_factory.hpp:77] Creating layer ssd2_1_relu
I1009 21:37:38.778038   918 net.cpp:100] Creating Layer ssd2_1_relu
I1009 21:37:38.778041   918 net.cpp:434] ssd2_1_relu <- ssd2_1
I1009 21:37:38.778045   918 net.cpp:395] ssd2_1_relu -> ssd2_1 (in-place)
I1009 21:37:38.778357   918 net.cpp:150] Setting up ssd2_1_relu
I1009 21:37:38.778363   918 net.cpp:157] Top shape: 1 128 5 8 (5120)
I1009 21:37:38.778367   918 net.cpp:165] Memory required for data: 468342432
I1009 21:37:38.778369   918 layer_factory.hpp:77] Creating layer ssd2_2
I1009 21:37:38.778378   918 net.cpp:100] Creating Layer ssd2_2
I1009 21:37:38.778381   918 net.cpp:434] ssd2_2 <- ssd2_1
I1009 21:37:38.778386   918 net.cpp:408] ssd2_2 -> ssd2_2
I1009 21:37:38.782322   918 net.cpp:150] Setting up ssd2_2
I1009 21:37:38.782338   918 net.cpp:157] Top shape: 1 256 3 4 (3072)
I1009 21:37:38.782341   918 net.cpp:165] Memory required for data: 468354720
I1009 21:37:38.782349   918 layer_factory.hpp:77] Creating layer ssd2_2_relu
I1009 21:37:38.782357   918 net.cpp:100] Creating Layer ssd2_2_relu
I1009 21:37:38.782361   918 net.cpp:434] ssd2_2_relu <- ssd2_2
I1009 21:37:38.782368   918 net.cpp:395] ssd2_2_relu -> ssd2_2 (in-place)
I1009 21:37:38.782809   918 net.cpp:150] Setting up ssd2_2_relu
I1009 21:37:38.782815   918 net.cpp:157] Top shape: 1 256 3 4 (3072)
I1009 21:37:38.782819   918 net.cpp:165] Memory required for data: 468367008
I1009 21:37:38.782821   918 layer_factory.hpp:77] Creating layer ssd2_2_ssd2_2_relu_0_split
I1009 21:37:38.782840   918 net.cpp:100] Creating Layer ssd2_2_ssd2_2_relu_0_split
I1009 21:37:38.782843   918 net.cpp:434] ssd2_2_ssd2_2_relu_0_split <- ssd2_2
I1009 21:37:38.782850   918 net.cpp:408] ssd2_2_ssd2_2_relu_0_split -> ssd2_2_ssd2_2_relu_0_split_0
I1009 21:37:38.782856   918 net.cpp:408] ssd2_2_ssd2_2_relu_0_split -> ssd2_2_ssd2_2_relu_0_split_1
I1009 21:37:38.782862   918 net.cpp:408] ssd2_2_ssd2_2_relu_0_split -> ssd2_2_ssd2_2_relu_0_split_2
I1009 21:37:38.782869   918 net.cpp:408] ssd2_2_ssd2_2_relu_0_split -> ssd2_2_ssd2_2_relu_0_split_3
I1009 21:37:38.782918   918 net.cpp:150] Setting up ssd2_2_ssd2_2_relu_0_split
I1009 21:37:38.782924   918 net.cpp:157] Top shape: 1 256 3 4 (3072)
I1009 21:37:38.782929   918 net.cpp:157] Top shape: 1 256 3 4 (3072)
I1009 21:37:38.782934   918 net.cpp:157] Top shape: 1 256 3 4 (3072)
I1009 21:37:38.782938   918 net.cpp:157] Top shape: 1 256 3 4 (3072)
I1009 21:37:38.782940   918 net.cpp:165] Memory required for data: 468416160
I1009 21:37:38.782943   918 layer_factory.hpp:77] Creating layer ssd3_1
I1009 21:37:38.782953   918 net.cpp:100] Creating Layer ssd3_1
I1009 21:37:38.782955   918 net.cpp:434] ssd3_1 <- ssd2_2_ssd2_2_relu_0_split_0
I1009 21:37:38.782961   918 net.cpp:408] ssd3_1 -> ssd3_1
I1009 21:37:38.784261   918 net.cpp:150] Setting up ssd3_1
I1009 21:37:38.784271   918 net.cpp:157] Top shape: 1 128 3 4 (1536)
I1009 21:37:38.784273   918 net.cpp:165] Memory required for data: 468422304
I1009 21:37:38.784279   918 layer_factory.hpp:77] Creating layer ssd3_1_relu
I1009 21:37:38.784284   918 net.cpp:100] Creating Layer ssd3_1_relu
I1009 21:37:38.784288   918 net.cpp:434] ssd3_1_relu <- ssd3_1
I1009 21:37:38.784293   918 net.cpp:395] ssd3_1_relu -> ssd3_1 (in-place)
I1009 21:37:38.784605   918 net.cpp:150] Setting up ssd3_1_relu
I1009 21:37:38.784611   918 net.cpp:157] Top shape: 1 128 3 4 (1536)
I1009 21:37:38.784615   918 net.cpp:165] Memory required for data: 468428448
I1009 21:37:38.784617   918 layer_factory.hpp:77] Creating layer ssd3_2
I1009 21:37:38.784626   918 net.cpp:100] Creating Layer ssd3_2
I1009 21:37:38.784628   918 net.cpp:434] ssd3_2 <- ssd3_1
I1009 21:37:38.784636   918 net.cpp:408] ssd3_2 -> ssd3_2
I1009 21:37:38.787309   918 net.cpp:150] Setting up ssd3_2
I1009 21:37:38.787318   918 net.cpp:157] Top shape: 1 256 2 2 (1024)
I1009 21:37:38.787322   918 net.cpp:165] Memory required for data: 468432544
I1009 21:37:38.787328   918 layer_factory.hpp:77] Creating layer ssd3_2_relu
I1009 21:37:38.787335   918 net.cpp:100] Creating Layer ssd3_2_relu
I1009 21:37:38.787339   918 net.cpp:434] ssd3_2_relu <- ssd3_2
I1009 21:37:38.787345   918 net.cpp:395] ssd3_2_relu -> ssd3_2 (in-place)
I1009 21:37:38.788571   918 net.cpp:150] Setting up ssd3_2_relu
I1009 21:37:38.788580   918 net.cpp:157] Top shape: 1 256 2 2 (1024)
I1009 21:37:38.788583   918 net.cpp:165] Memory required for data: 468436640
I1009 21:37:38.788586   918 layer_factory.hpp:77] Creating layer ssd3_2_ssd3_2_relu_0_split
I1009 21:37:38.788594   918 net.cpp:100] Creating Layer ssd3_2_ssd3_2_relu_0_split
I1009 21:37:38.788599   918 net.cpp:434] ssd3_2_ssd3_2_relu_0_split <- ssd3_2
I1009 21:37:38.788604   918 net.cpp:408] ssd3_2_ssd3_2_relu_0_split -> ssd3_2_ssd3_2_relu_0_split_0
I1009 21:37:38.788612   918 net.cpp:408] ssd3_2_ssd3_2_relu_0_split -> ssd3_2_ssd3_2_relu_0_split_1
I1009 21:37:38.788619   918 net.cpp:408] ssd3_2_ssd3_2_relu_0_split -> ssd3_2_ssd3_2_relu_0_split_2
I1009 21:37:38.788625   918 net.cpp:408] ssd3_2_ssd3_2_relu_0_split -> ssd3_2_ssd3_2_relu_0_split_3
I1009 21:37:38.788673   918 net.cpp:150] Setting up ssd3_2_ssd3_2_relu_0_split
I1009 21:37:38.788679   918 net.cpp:157] Top shape: 1 256 2 2 (1024)
I1009 21:37:38.788684   918 net.cpp:157] Top shape: 1 256 2 2 (1024)
I1009 21:37:38.788688   918 net.cpp:157] Top shape: 1 256 2 2 (1024)
I1009 21:37:38.788692   918 net.cpp:157] Top shape: 1 256 2 2 (1024)
I1009 21:37:38.788695   918 net.cpp:165] Memory required for data: 468453024
I1009 21:37:38.788698   918 layer_factory.hpp:77] Creating layer ssd4_1
I1009 21:37:38.788707   918 net.cpp:100] Creating Layer ssd4_1
I1009 21:37:38.788719   918 net.cpp:434] ssd4_1 <- ssd3_2_ssd3_2_relu_0_split_0
I1009 21:37:38.788727   918 net.cpp:408] ssd4_1 -> ssd4_1
I1009 21:37:38.790036   918 net.cpp:150] Setting up ssd4_1
I1009 21:37:38.790045   918 net.cpp:157] Top shape: 1 128 2 2 (512)
I1009 21:37:38.790048   918 net.cpp:165] Memory required for data: 468455072
I1009 21:37:38.790055   918 layer_factory.hpp:77] Creating layer ssd4_1_relu
I1009 21:37:38.790060   918 net.cpp:100] Creating Layer ssd4_1_relu
I1009 21:37:38.790063   918 net.cpp:434] ssd4_1_relu <- ssd4_1
I1009 21:37:38.790067   918 net.cpp:395] ssd4_1_relu -> ssd4_1 (in-place)
I1009 21:37:38.790380   918 net.cpp:150] Setting up ssd4_1_relu
I1009 21:37:38.790387   918 net.cpp:157] Top shape: 1 128 2 2 (512)
I1009 21:37:38.790390   918 net.cpp:165] Memory required for data: 468457120
I1009 21:37:38.790392   918 layer_factory.hpp:77] Creating layer ssd4_2
I1009 21:37:38.790400   918 net.cpp:100] Creating Layer ssd4_2
I1009 21:37:38.790405   918 net.cpp:434] ssd4_2 <- ssd4_1
I1009 21:37:38.790410   918 net.cpp:408] ssd4_2 -> ssd4_2
I1009 21:37:38.793081   918 net.cpp:150] Setting up ssd4_2
I1009 21:37:38.793090   918 net.cpp:157] Top shape: 1 256 1 1 (256)
I1009 21:37:38.793093   918 net.cpp:165] Memory required for data: 468458144
I1009 21:37:38.793100   918 layer_factory.hpp:77] Creating layer ssd4_2_relu
I1009 21:37:38.793105   918 net.cpp:100] Creating Layer ssd4_2_relu
I1009 21:37:38.793109   918 net.cpp:434] ssd4_2_relu <- ssd4_2
I1009 21:37:38.793115   918 net.cpp:395] ssd4_2_relu -> ssd4_2 (in-place)
I1009 21:37:38.793429   918 net.cpp:150] Setting up ssd4_2_relu
I1009 21:37:38.793437   918 net.cpp:157] Top shape: 1 256 1 1 (256)
I1009 21:37:38.793438   918 net.cpp:165] Memory required for data: 468459168
I1009 21:37:38.793442   918 layer_factory.hpp:77] Creating layer ssd4_2_ssd4_2_relu_0_split
I1009 21:37:38.793448   918 net.cpp:100] Creating Layer ssd4_2_ssd4_2_relu_0_split
I1009 21:37:38.793452   918 net.cpp:434] ssd4_2_ssd4_2_relu_0_split <- ssd4_2
I1009 21:37:38.793457   918 net.cpp:408] ssd4_2_ssd4_2_relu_0_split -> ssd4_2_ssd4_2_relu_0_split_0
I1009 21:37:38.793463   918 net.cpp:408] ssd4_2_ssd4_2_relu_0_split -> ssd4_2_ssd4_2_relu_0_split_1
I1009 21:37:38.793469   918 net.cpp:408] ssd4_2_ssd4_2_relu_0_split -> ssd4_2_ssd4_2_relu_0_split_2
I1009 21:37:38.793509   918 net.cpp:150] Setting up ssd4_2_ssd4_2_relu_0_split
I1009 21:37:38.793514   918 net.cpp:157] Top shape: 1 256 1 1 (256)
I1009 21:37:38.793519   918 net.cpp:157] Top shape: 1 256 1 1 (256)
I1009 21:37:38.793522   918 net.cpp:157] Top shape: 1 256 1 1 (256)
I1009 21:37:38.793525   918 net.cpp:165] Memory required for data: 468462240
I1009 21:37:38.793529   918 layer_factory.hpp:77] Creating layer conv5_3/expand_mbox_loc
I1009 21:37:38.793537   918 net.cpp:100] Creating Layer conv5_3/expand_mbox_loc
I1009 21:37:38.793541   918 net.cpp:434] conv5_3/expand_mbox_loc <- conv5_3/expand_relu5_3/expand_0_split_1
I1009 21:37:38.793546   918 net.cpp:408] conv5_3/expand_mbox_loc -> conv5_3/expand_mbox_loc
I1009 21:37:38.796000   918 net.cpp:150] Setting up conv5_3/expand_mbox_loc
I1009 21:37:38.796010   918 net.cpp:157] Top shape: 1 8 19 32 (4864)
I1009 21:37:38.796012   918 net.cpp:165] Memory required for data: 468481696
I1009 21:37:38.796020   918 layer_factory.hpp:77] Creating layer conv5_3/expand_mbox_loc_perm
I1009 21:37:38.796028   918 net.cpp:100] Creating Layer conv5_3/expand_mbox_loc_perm
I1009 21:37:38.796031   918 net.cpp:434] conv5_3/expand_mbox_loc_perm <- conv5_3/expand_mbox_loc
I1009 21:37:38.796038   918 net.cpp:408] conv5_3/expand_mbox_loc_perm -> conv5_3/expand_mbox_loc_perm
I1009 21:37:38.796111   918 net.cpp:150] Setting up conv5_3/expand_mbox_loc_perm
I1009 21:37:38.796118   918 net.cpp:157] Top shape: 1 19 32 8 (4864)
I1009 21:37:38.796119   918 net.cpp:165] Memory required for data: 468501152
I1009 21:37:38.796123   918 layer_factory.hpp:77] Creating layer conv5_3/expand_mbox_loc_flat
I1009 21:37:38.796130   918 net.cpp:100] Creating Layer conv5_3/expand_mbox_loc_flat
I1009 21:37:38.796141   918 net.cpp:434] conv5_3/expand_mbox_loc_flat <- conv5_3/expand_mbox_loc_perm
I1009 21:37:38.796147   918 net.cpp:408] conv5_3/expand_mbox_loc_flat -> conv5_3/expand_mbox_loc_flat
I1009 21:37:38.796166   918 net.cpp:150] Setting up conv5_3/expand_mbox_loc_flat
I1009 21:37:38.796171   918 net.cpp:157] Top shape: 1 4864 (4864)
I1009 21:37:38.796175   918 net.cpp:165] Memory required for data: 468520608
I1009 21:37:38.796177   918 layer_factory.hpp:77] Creating layer conv5_3/expand_mbox_conf
I1009 21:37:38.796186   918 net.cpp:100] Creating Layer conv5_3/expand_mbox_conf
I1009 21:37:38.796190   918 net.cpp:434] conv5_3/expand_mbox_conf <- conv5_3/expand_relu5_3/expand_0_split_2
I1009 21:37:38.796195   918 net.cpp:408] conv5_3/expand_mbox_conf -> conv5_3/expand_mbox_conf
I1009 21:37:38.797773   918 net.cpp:150] Setting up conv5_3/expand_mbox_conf
I1009 21:37:38.797781   918 net.cpp:157] Top shape: 1 10 19 32 (6080)
I1009 21:37:38.797785   918 net.cpp:165] Memory required for data: 468544928
I1009 21:37:38.797791   918 layer_factory.hpp:77] Creating layer conv5_3/expand_mbox_conf_perm
I1009 21:37:38.797797   918 net.cpp:100] Creating Layer conv5_3/expand_mbox_conf_perm
I1009 21:37:38.797801   918 net.cpp:434] conv5_3/expand_mbox_conf_perm <- conv5_3/expand_mbox_conf
I1009 21:37:38.797806   918 net.cpp:408] conv5_3/expand_mbox_conf_perm -> conv5_3/expand_mbox_conf_perm
I1009 21:37:38.797880   918 net.cpp:150] Setting up conv5_3/expand_mbox_conf_perm
I1009 21:37:38.797885   918 net.cpp:157] Top shape: 1 19 32 10 (6080)
I1009 21:37:38.797888   918 net.cpp:165] Memory required for data: 468569248
I1009 21:37:38.797890   918 layer_factory.hpp:77] Creating layer conv5_3/expand_mbox_conf_flat
I1009 21:37:38.797897   918 net.cpp:100] Creating Layer conv5_3/expand_mbox_conf_flat
I1009 21:37:38.797900   918 net.cpp:434] conv5_3/expand_mbox_conf_flat <- conv5_3/expand_mbox_conf_perm
I1009 21:37:38.797907   918 net.cpp:408] conv5_3/expand_mbox_conf_flat -> conv5_3/expand_mbox_conf_flat
I1009 21:37:38.797935   918 net.cpp:150] Setting up conv5_3/expand_mbox_conf_flat
I1009 21:37:38.797941   918 net.cpp:157] Top shape: 1 6080 (6080)
I1009 21:37:38.797943   918 net.cpp:165] Memory required for data: 468593568
I1009 21:37:38.797946   918 layer_factory.hpp:77] Creating layer conv5_3/expand_mbox_priorbox
I1009 21:37:38.797952   918 net.cpp:100] Creating Layer conv5_3/expand_mbox_priorbox
I1009 21:37:38.797955   918 net.cpp:434] conv5_3/expand_mbox_priorbox <- conv5_3/expand_relu5_3/expand_0_split_3
I1009 21:37:38.797960   918 net.cpp:434] conv5_3/expand_mbox_priorbox <- data_data_0_split_1
I1009 21:37:38.797966   918 net.cpp:408] conv5_3/expand_mbox_priorbox -> conv5_3/expand_mbox_priorbox
I1009 21:37:38.797986   918 net.cpp:150] Setting up conv5_3/expand_mbox_priorbox
I1009 21:37:38.797991   918 net.cpp:157] Top shape: 1 2 4864 (9728)
I1009 21:37:38.797992   918 net.cpp:165] Memory required for data: 468632480
I1009 21:37:38.797996   918 layer_factory.hpp:77] Creating layer conv6_4_mbox_loc
I1009 21:37:38.798002   918 net.cpp:100] Creating Layer conv6_4_mbox_loc
I1009 21:37:38.798007   918 net.cpp:434] conv6_4_mbox_loc <- conv6_4_relu6_4_0_split_1
I1009 21:37:38.798012   918 net.cpp:408] conv6_4_mbox_loc -> conv6_4_mbox_loc
I1009 21:37:38.799643   918 net.cpp:150] Setting up conv6_4_mbox_loc
I1009 21:37:38.799654   918 net.cpp:157] Top shape: 1 8 10 16 (1280)
I1009 21:37:38.799657   918 net.cpp:165] Memory required for data: 468637600
I1009 21:37:38.799664   918 layer_factory.hpp:77] Creating layer conv6_4_mbox_loc_perm
I1009 21:37:38.799674   918 net.cpp:100] Creating Layer conv6_4_mbox_loc_perm
I1009 21:37:38.799676   918 net.cpp:434] conv6_4_mbox_loc_perm <- conv6_4_mbox_loc
I1009 21:37:38.799684   918 net.cpp:408] conv6_4_mbox_loc_perm -> conv6_4_mbox_loc_perm
I1009 21:37:38.799759   918 net.cpp:150] Setting up conv6_4_mbox_loc_perm
I1009 21:37:38.799763   918 net.cpp:157] Top shape: 1 10 16 8 (1280)
I1009 21:37:38.799767   918 net.cpp:165] Memory required for data: 468642720
I1009 21:37:38.799769   918 layer_factory.hpp:77] Creating layer conv6_4_mbox_loc_flat
I1009 21:37:38.799783   918 net.cpp:100] Creating Layer conv6_4_mbox_loc_flat
I1009 21:37:38.799787   918 net.cpp:434] conv6_4_mbox_loc_flat <- conv6_4_mbox_loc_perm
I1009 21:37:38.799793   918 net.cpp:408] conv6_4_mbox_loc_flat -> conv6_4_mbox_loc_flat
I1009 21:37:38.799813   918 net.cpp:150] Setting up conv6_4_mbox_loc_flat
I1009 21:37:38.799816   918 net.cpp:157] Top shape: 1 1280 (1280)
I1009 21:37:38.799819   918 net.cpp:165] Memory required for data: 468647840
I1009 21:37:38.799821   918 layer_factory.hpp:77] Creating layer conv6_4_mbox_conf
I1009 21:37:38.799830   918 net.cpp:100] Creating Layer conv6_4_mbox_conf
I1009 21:37:38.799834   918 net.cpp:434] conv6_4_mbox_conf <- conv6_4_relu6_4_0_split_2
I1009 21:37:38.799840   918 net.cpp:408] conv6_4_mbox_conf -> conv6_4_mbox_conf
I1009 21:37:38.802608   918 net.cpp:150] Setting up conv6_4_mbox_conf
I1009 21:37:38.802621   918 net.cpp:157] Top shape: 1 10 10 16 (1600)
I1009 21:37:38.802624   918 net.cpp:165] Memory required for data: 468654240
I1009 21:37:38.802631   918 layer_factory.hpp:77] Creating layer conv6_4_mbox_conf_perm
I1009 21:37:38.802640   918 net.cpp:100] Creating Layer conv6_4_mbox_conf_perm
I1009 21:37:38.802644   918 net.cpp:434] conv6_4_mbox_conf_perm <- conv6_4_mbox_conf
I1009 21:37:38.802651   918 net.cpp:408] conv6_4_mbox_conf_perm -> conv6_4_mbox_conf_perm
I1009 21:37:38.802731   918 net.cpp:150] Setting up conv6_4_mbox_conf_perm
I1009 21:37:38.802736   918 net.cpp:157] Top shape: 1 10 16 10 (1600)
I1009 21:37:38.802738   918 net.cpp:165] Memory required for data: 468660640
I1009 21:37:38.802742   918 layer_factory.hpp:77] Creating layer conv6_4_mbox_conf_flat
I1009 21:37:38.802747   918 net.cpp:100] Creating Layer conv6_4_mbox_conf_flat
I1009 21:37:38.802752   918 net.cpp:434] conv6_4_mbox_conf_flat <- conv6_4_mbox_conf_perm
I1009 21:37:38.802757   918 net.cpp:408] conv6_4_mbox_conf_flat -> conv6_4_mbox_conf_flat
I1009 21:37:38.802776   918 net.cpp:150] Setting up conv6_4_mbox_conf_flat
I1009 21:37:38.802780   918 net.cpp:157] Top shape: 1 1600 (1600)
I1009 21:37:38.802783   918 net.cpp:165] Memory required for data: 468667040
I1009 21:37:38.802786   918 layer_factory.hpp:77] Creating layer conv6_4_mbox_priorbox
I1009 21:37:38.802793   918 net.cpp:100] Creating Layer conv6_4_mbox_priorbox
I1009 21:37:38.802796   918 net.cpp:434] conv6_4_mbox_priorbox <- conv6_4_relu6_4_0_split_3
I1009 21:37:38.802800   918 net.cpp:434] conv6_4_mbox_priorbox <- data_data_0_split_2
I1009 21:37:38.802805   918 net.cpp:408] conv6_4_mbox_priorbox -> conv6_4_mbox_priorbox
I1009 21:37:38.802829   918 net.cpp:150] Setting up conv6_4_mbox_priorbox
I1009 21:37:38.802832   918 net.cpp:157] Top shape: 1 2 1280 (2560)
I1009 21:37:38.802834   918 net.cpp:165] Memory required for data: 468677280
I1009 21:37:38.802839   918 layer_factory.hpp:77] Creating layer ssd1_2_mbox_loc
I1009 21:37:38.802846   918 net.cpp:100] Creating Layer ssd1_2_mbox_loc
I1009 21:37:38.802850   918 net.cpp:434] ssd1_2_mbox_loc <- ssd1_2_ssd1_2_relu_0_split_1
I1009 21:37:38.802857   918 net.cpp:408] ssd1_2_mbox_loc -> ssd1_2_mbox_loc
I1009 21:37:38.804332   918 net.cpp:150] Setting up ssd1_2_mbox_loc
I1009 21:37:38.804340   918 net.cpp:157] Top shape: 1 8 5 8 (320)
I1009 21:37:38.804343   918 net.cpp:165] Memory required for data: 468678560
I1009 21:37:38.804349   918 layer_factory.hpp:77] Creating layer ssd1_2_mbox_loc_perm
I1009 21:37:38.804356   918 net.cpp:100] Creating Layer ssd1_2_mbox_loc_perm
I1009 21:37:38.804360   918 net.cpp:434] ssd1_2_mbox_loc_perm <- ssd1_2_mbox_loc
I1009 21:37:38.804365   918 net.cpp:408] ssd1_2_mbox_loc_perm -> ssd1_2_mbox_loc_perm
I1009 21:37:38.804441   918 net.cpp:150] Setting up ssd1_2_mbox_loc_perm
I1009 21:37:38.804446   918 net.cpp:157] Top shape: 1 5 8 8 (320)
I1009 21:37:38.804450   918 net.cpp:165] Memory required for data: 468679840
I1009 21:37:38.804452   918 layer_factory.hpp:77] Creating layer ssd1_2_mbox_loc_flat
I1009 21:37:38.804457   918 net.cpp:100] Creating Layer ssd1_2_mbox_loc_flat
I1009 21:37:38.804471   918 net.cpp:434] ssd1_2_mbox_loc_flat <- ssd1_2_mbox_loc_perm
I1009 21:37:38.804474   918 net.cpp:408] ssd1_2_mbox_loc_flat -> ssd1_2_mbox_loc_flat
I1009 21:37:38.804494   918 net.cpp:150] Setting up ssd1_2_mbox_loc_flat
I1009 21:37:38.804499   918 net.cpp:157] Top shape: 1 320 (320)
I1009 21:37:38.804502   918 net.cpp:165] Memory required for data: 468681120
I1009 21:37:38.804505   918 layer_factory.hpp:77] Creating layer ssd1_2_mbox_conf
I1009 21:37:38.804535   918 net.cpp:100] Creating Layer ssd1_2_mbox_conf
I1009 21:37:38.804538   918 net.cpp:434] ssd1_2_mbox_conf <- ssd1_2_ssd1_2_relu_0_split_2
I1009 21:37:38.804544   918 net.cpp:408] ssd1_2_mbox_conf -> ssd1_2_mbox_conf
I1009 21:37:38.805994   918 net.cpp:150] Setting up ssd1_2_mbox_conf
I1009 21:37:38.806002   918 net.cpp:157] Top shape: 1 10 5 8 (400)
I1009 21:37:38.806005   918 net.cpp:165] Memory required for data: 468682720
I1009 21:37:38.806012   918 layer_factory.hpp:77] Creating layer ssd1_2_mbox_conf_perm
I1009 21:37:38.806018   918 net.cpp:100] Creating Layer ssd1_2_mbox_conf_perm
I1009 21:37:38.806022   918 net.cpp:434] ssd1_2_mbox_conf_perm <- ssd1_2_mbox_conf
I1009 21:37:38.806027   918 net.cpp:408] ssd1_2_mbox_conf_perm -> ssd1_2_mbox_conf_perm
I1009 21:37:38.806102   918 net.cpp:150] Setting up ssd1_2_mbox_conf_perm
I1009 21:37:38.806108   918 net.cpp:157] Top shape: 1 5 8 10 (400)
I1009 21:37:38.806110   918 net.cpp:165] Memory required for data: 468684320
I1009 21:37:38.806113   918 layer_factory.hpp:77] Creating layer ssd1_2_mbox_conf_flat
I1009 21:37:38.806121   918 net.cpp:100] Creating Layer ssd1_2_mbox_conf_flat
I1009 21:37:38.806124   918 net.cpp:434] ssd1_2_mbox_conf_flat <- ssd1_2_mbox_conf_perm
I1009 21:37:38.806129   918 net.cpp:408] ssd1_2_mbox_conf_flat -> ssd1_2_mbox_conf_flat
I1009 21:37:38.806149   918 net.cpp:150] Setting up ssd1_2_mbox_conf_flat
I1009 21:37:38.806154   918 net.cpp:157] Top shape: 1 400 (400)
I1009 21:37:38.806155   918 net.cpp:165] Memory required for data: 468685920
I1009 21:37:38.806159   918 layer_factory.hpp:77] Creating layer ssd1_2_mbox_priorbox
I1009 21:37:38.806164   918 net.cpp:100] Creating Layer ssd1_2_mbox_priorbox
I1009 21:37:38.806167   918 net.cpp:434] ssd1_2_mbox_priorbox <- ssd1_2_ssd1_2_relu_0_split_3
I1009 21:37:38.806171   918 net.cpp:434] ssd1_2_mbox_priorbox <- data_data_0_split_3
I1009 21:37:38.806176   918 net.cpp:408] ssd1_2_mbox_priorbox -> ssd1_2_mbox_priorbox
I1009 21:37:38.806196   918 net.cpp:150] Setting up ssd1_2_mbox_priorbox
I1009 21:37:38.806201   918 net.cpp:157] Top shape: 1 2 320 (640)
I1009 21:37:38.806203   918 net.cpp:165] Memory required for data: 468688480
I1009 21:37:38.806206   918 layer_factory.hpp:77] Creating layer ssd2_2_mbox_loc
I1009 21:37:38.806213   918 net.cpp:100] Creating Layer ssd2_2_mbox_loc
I1009 21:37:38.806216   918 net.cpp:434] ssd2_2_mbox_loc <- ssd2_2_ssd2_2_relu_0_split_1
I1009 21:37:38.806223   918 net.cpp:408] ssd2_2_mbox_loc -> ssd2_2_mbox_loc
I1009 21:37:38.808498   918 net.cpp:150] Setting up ssd2_2_mbox_loc
I1009 21:37:38.808509   918 net.cpp:157] Top shape: 1 8 3 4 (96)
I1009 21:37:38.808512   918 net.cpp:165] Memory required for data: 468688864
I1009 21:37:38.808518   918 layer_factory.hpp:77] Creating layer ssd2_2_mbox_loc_perm
I1009 21:37:38.808526   918 net.cpp:100] Creating Layer ssd2_2_mbox_loc_perm
I1009 21:37:38.808531   918 net.cpp:434] ssd2_2_mbox_loc_perm <- ssd2_2_mbox_loc
I1009 21:37:38.808537   918 net.cpp:408] ssd2_2_mbox_loc_perm -> ssd2_2_mbox_loc_perm
I1009 21:37:38.808612   918 net.cpp:150] Setting up ssd2_2_mbox_loc_perm
I1009 21:37:38.808616   918 net.cpp:157] Top shape: 1 3 4 8 (96)
I1009 21:37:38.808619   918 net.cpp:165] Memory required for data: 468689248
I1009 21:37:38.808624   918 layer_factory.hpp:77] Creating layer ssd2_2_mbox_loc_flat
I1009 21:37:38.808629   918 net.cpp:100] Creating Layer ssd2_2_mbox_loc_flat
I1009 21:37:38.808632   918 net.cpp:434] ssd2_2_mbox_loc_flat <- ssd2_2_mbox_loc_perm
I1009 21:37:38.808636   918 net.cpp:408] ssd2_2_mbox_loc_flat -> ssd2_2_mbox_loc_flat
I1009 21:37:38.808665   918 net.cpp:150] Setting up ssd2_2_mbox_loc_flat
I1009 21:37:38.808670   918 net.cpp:157] Top shape: 1 96 (96)
I1009 21:37:38.808672   918 net.cpp:165] Memory required for data: 468689632
I1009 21:37:38.808676   918 layer_factory.hpp:77] Creating layer ssd2_2_mbox_conf
I1009 21:37:38.808684   918 net.cpp:100] Creating Layer ssd2_2_mbox_conf
I1009 21:37:38.808688   918 net.cpp:434] ssd2_2_mbox_conf <- ssd2_2_ssd2_2_relu_0_split_2
I1009 21:37:38.808694   918 net.cpp:408] ssd2_2_mbox_conf -> ssd2_2_mbox_conf
I1009 21:37:38.809981   918 net.cpp:150] Setting up ssd2_2_mbox_conf
I1009 21:37:38.809989   918 net.cpp:157] Top shape: 1 10 3 4 (120)
I1009 21:37:38.809993   918 net.cpp:165] Memory required for data: 468690112
I1009 21:37:38.809998   918 layer_factory.hpp:77] Creating layer ssd2_2_mbox_conf_perm
I1009 21:37:38.810005   918 net.cpp:100] Creating Layer ssd2_2_mbox_conf_perm
I1009 21:37:38.810009   918 net.cpp:434] ssd2_2_mbox_conf_perm <- ssd2_2_mbox_conf
I1009 21:37:38.810014   918 net.cpp:408] ssd2_2_mbox_conf_perm -> ssd2_2_mbox_conf_perm
I1009 21:37:38.810087   918 net.cpp:150] Setting up ssd2_2_mbox_conf_perm
I1009 21:37:38.810092   918 net.cpp:157] Top shape: 1 3 4 10 (120)
I1009 21:37:38.810096   918 net.cpp:165] Memory required for data: 468690592
I1009 21:37:38.810097   918 layer_factory.hpp:77] Creating layer ssd2_2_mbox_conf_flat
I1009 21:37:38.810103   918 net.cpp:100] Creating Layer ssd2_2_mbox_conf_flat
I1009 21:37:38.810107   918 net.cpp:434] ssd2_2_mbox_conf_flat <- ssd2_2_mbox_conf_perm
I1009 21:37:38.810112   918 net.cpp:408] ssd2_2_mbox_conf_flat -> ssd2_2_mbox_conf_flat
I1009 21:37:38.810132   918 net.cpp:150] Setting up ssd2_2_mbox_conf_flat
I1009 21:37:38.810137   918 net.cpp:157] Top shape: 1 120 (120)
I1009 21:37:38.810139   918 net.cpp:165] Memory required for data: 468691072
I1009 21:37:38.810142   918 layer_factory.hpp:77] Creating layer ssd2_2_mbox_priorbox
I1009 21:37:38.810149   918 net.cpp:100] Creating Layer ssd2_2_mbox_priorbox
I1009 21:37:38.810153   918 net.cpp:434] ssd2_2_mbox_priorbox <- ssd2_2_ssd2_2_relu_0_split_3
I1009 21:37:38.810156   918 net.cpp:434] ssd2_2_mbox_priorbox <- data_data_0_split_4
I1009 21:37:38.810161   918 net.cpp:408] ssd2_2_mbox_priorbox -> ssd2_2_mbox_priorbox
I1009 21:37:38.810183   918 net.cpp:150] Setting up ssd2_2_mbox_priorbox
I1009 21:37:38.810187   918 net.cpp:157] Top shape: 1 2 96 (192)
I1009 21:37:38.810189   918 net.cpp:165] Memory required for data: 468691840
I1009 21:37:38.810192   918 layer_factory.hpp:77] Creating layer ssd3_2_mbox_loc
I1009 21:37:38.810201   918 net.cpp:100] Creating Layer ssd3_2_mbox_loc
I1009 21:37:38.810204   918 net.cpp:434] ssd3_2_mbox_loc <- ssd3_2_ssd3_2_relu_0_split_1
I1009 21:37:38.810210   918 net.cpp:408] ssd3_2_mbox_loc -> ssd3_2_mbox_loc
I1009 21:37:38.811480   918 net.cpp:150] Setting up ssd3_2_mbox_loc
I1009 21:37:38.811488   918 net.cpp:157] Top shape: 1 8 2 2 (32)
I1009 21:37:38.811491   918 net.cpp:165] Memory required for data: 468691968
I1009 21:37:38.811496   918 layer_factory.hpp:77] Creating layer ssd3_2_mbox_loc_perm
I1009 21:37:38.811503   918 net.cpp:100] Creating Layer ssd3_2_mbox_loc_perm
I1009 21:37:38.811507   918 net.cpp:434] ssd3_2_mbox_loc_perm <- ssd3_2_mbox_loc
I1009 21:37:38.811512   918 net.cpp:408] ssd3_2_mbox_loc_perm -> ssd3_2_mbox_loc_perm
I1009 21:37:38.811585   918 net.cpp:150] Setting up ssd3_2_mbox_loc_perm
I1009 21:37:38.811589   918 net.cpp:157] Top shape: 1 2 2 8 (32)
I1009 21:37:38.811592   918 net.cpp:165] Memory required for data: 468692096
I1009 21:37:38.811595   918 layer_factory.hpp:77] Creating layer ssd3_2_mbox_loc_flat
I1009 21:37:38.811601   918 net.cpp:100] Creating Layer ssd3_2_mbox_loc_flat
I1009 21:37:38.811605   918 net.cpp:434] ssd3_2_mbox_loc_flat <- ssd3_2_mbox_loc_perm
I1009 21:37:38.811610   918 net.cpp:408] ssd3_2_mbox_loc_flat -> ssd3_2_mbox_loc_flat
I1009 21:37:38.811630   918 net.cpp:150] Setting up ssd3_2_mbox_loc_flat
I1009 21:37:38.811633   918 net.cpp:157] Top shape: 1 32 (32)
I1009 21:37:38.811636   918 net.cpp:165] Memory required for data: 468692224
I1009 21:37:38.811646   918 layer_factory.hpp:77] Creating layer ssd3_2_mbox_conf
I1009 21:37:38.811655   918 net.cpp:100] Creating Layer ssd3_2_mbox_conf
I1009 21:37:38.811657   918 net.cpp:434] ssd3_2_mbox_conf <- ssd3_2_ssd3_2_relu_0_split_2
I1009 21:37:38.811664   918 net.cpp:408] ssd3_2_mbox_conf -> ssd3_2_mbox_conf
I1009 21:37:38.813071   918 net.cpp:150] Setting up ssd3_2_mbox_conf
I1009 21:37:38.813089   918 net.cpp:157] Top shape: 1 10 2 2 (40)
I1009 21:37:38.813092   918 net.cpp:165] Memory required for data: 468692384
I1009 21:37:38.813102   918 layer_factory.hpp:77] Creating layer ssd3_2_mbox_conf_perm
I1009 21:37:38.813112   918 net.cpp:100] Creating Layer ssd3_2_mbox_conf_perm
I1009 21:37:38.813117   918 net.cpp:434] ssd3_2_mbox_conf_perm <- ssd3_2_mbox_conf
I1009 21:37:38.813123   918 net.cpp:408] ssd3_2_mbox_conf_perm -> ssd3_2_mbox_conf_perm
I1009 21:37:38.813201   918 net.cpp:150] Setting up ssd3_2_mbox_conf_perm
I1009 21:37:38.813206   918 net.cpp:157] Top shape: 1 2 2 10 (40)
I1009 21:37:38.813210   918 net.cpp:165] Memory required for data: 468692544
I1009 21:37:38.813212   918 layer_factory.hpp:77] Creating layer ssd3_2_mbox_conf_flat
I1009 21:37:38.813217   918 net.cpp:100] Creating Layer ssd3_2_mbox_conf_flat
I1009 21:37:38.813221   918 net.cpp:434] ssd3_2_mbox_conf_flat <- ssd3_2_mbox_conf_perm
I1009 21:37:38.813226   918 net.cpp:408] ssd3_2_mbox_conf_flat -> ssd3_2_mbox_conf_flat
I1009 21:37:38.813247   918 net.cpp:150] Setting up ssd3_2_mbox_conf_flat
I1009 21:37:38.813252   918 net.cpp:157] Top shape: 1 40 (40)
I1009 21:37:38.813256   918 net.cpp:165] Memory required for data: 468692704
I1009 21:37:38.813257   918 layer_factory.hpp:77] Creating layer ssd3_2_mbox_priorbox
I1009 21:37:38.813264   918 net.cpp:100] Creating Layer ssd3_2_mbox_priorbox
I1009 21:37:38.813268   918 net.cpp:434] ssd3_2_mbox_priorbox <- ssd3_2_ssd3_2_relu_0_split_3
I1009 21:37:38.813274   918 net.cpp:434] ssd3_2_mbox_priorbox <- data_data_0_split_5
I1009 21:37:38.813279   918 net.cpp:408] ssd3_2_mbox_priorbox -> ssd3_2_mbox_priorbox
I1009 21:37:38.813304   918 net.cpp:150] Setting up ssd3_2_mbox_priorbox
I1009 21:37:38.813308   918 net.cpp:157] Top shape: 1 2 32 (64)
I1009 21:37:38.813311   918 net.cpp:165] Memory required for data: 468692960
I1009 21:37:38.813313   918 layer_factory.hpp:77] Creating layer ssd4_2_mbox_loc
I1009 21:37:38.813324   918 net.cpp:100] Creating Layer ssd4_2_mbox_loc
I1009 21:37:38.813328   918 net.cpp:434] ssd4_2_mbox_loc <- ssd4_2_ssd4_2_relu_0_split_0
I1009 21:37:38.813334   918 net.cpp:408] ssd4_2_mbox_loc -> ssd4_2_mbox_loc
I1009 21:37:38.815764   918 net.cpp:150] Setting up ssd4_2_mbox_loc
I1009 21:37:38.815775   918 net.cpp:157] Top shape: 1 8 1 1 (8)
I1009 21:37:38.815778   918 net.cpp:165] Memory required for data: 468692992
I1009 21:37:38.815785   918 layer_factory.hpp:77] Creating layer ssd4_2_mbox_loc_perm
I1009 21:37:38.815793   918 net.cpp:100] Creating Layer ssd4_2_mbox_loc_perm
I1009 21:37:38.815798   918 net.cpp:434] ssd4_2_mbox_loc_perm <- ssd4_2_mbox_loc
I1009 21:37:38.815804   918 net.cpp:408] ssd4_2_mbox_loc_perm -> ssd4_2_mbox_loc_perm
I1009 21:37:38.815877   918 net.cpp:150] Setting up ssd4_2_mbox_loc_perm
I1009 21:37:38.815882   918 net.cpp:157] Top shape: 1 1 1 8 (8)
I1009 21:37:38.815884   918 net.cpp:165] Memory required for data: 468693024
I1009 21:37:38.815887   918 layer_factory.hpp:77] Creating layer ssd4_2_mbox_loc_flat
I1009 21:37:38.815894   918 net.cpp:100] Creating Layer ssd4_2_mbox_loc_flat
I1009 21:37:38.815897   918 net.cpp:434] ssd4_2_mbox_loc_flat <- ssd4_2_mbox_loc_perm
I1009 21:37:38.815902   918 net.cpp:408] ssd4_2_mbox_loc_flat -> ssd4_2_mbox_loc_flat
I1009 21:37:38.815922   918 net.cpp:150] Setting up ssd4_2_mbox_loc_flat
I1009 21:37:38.815927   918 net.cpp:157] Top shape: 1 8 (8)
I1009 21:37:38.815928   918 net.cpp:165] Memory required for data: 468693056
I1009 21:37:38.815932   918 layer_factory.hpp:77] Creating layer ssd4_2_mbox_conf
I1009 21:37:38.815940   918 net.cpp:100] Creating Layer ssd4_2_mbox_conf
I1009 21:37:38.815943   918 net.cpp:434] ssd4_2_mbox_conf <- ssd4_2_ssd4_2_relu_0_split_1
I1009 21:37:38.815959   918 net.cpp:408] ssd4_2_mbox_conf -> ssd4_2_mbox_conf
I1009 21:37:38.817376   918 net.cpp:150] Setting up ssd4_2_mbox_conf
I1009 21:37:38.817384   918 net.cpp:157] Top shape: 1 10 1 1 (10)
I1009 21:37:38.817387   918 net.cpp:165] Memory required for data: 468693096
I1009 21:37:38.817394   918 layer_factory.hpp:77] Creating layer ssd4_2_mbox_conf_perm
I1009 21:37:38.817400   918 net.cpp:100] Creating Layer ssd4_2_mbox_conf_perm
I1009 21:37:38.817404   918 net.cpp:434] ssd4_2_mbox_conf_perm <- ssd4_2_mbox_conf
I1009 21:37:38.817410   918 net.cpp:408] ssd4_2_mbox_conf_perm -> ssd4_2_mbox_conf_perm
I1009 21:37:38.817482   918 net.cpp:150] Setting up ssd4_2_mbox_conf_perm
I1009 21:37:38.817487   918 net.cpp:157] Top shape: 1 1 1 10 (10)
I1009 21:37:38.817489   918 net.cpp:165] Memory required for data: 468693136
I1009 21:37:38.817493   918 layer_factory.hpp:77] Creating layer ssd4_2_mbox_conf_flat
I1009 21:37:38.817498   918 net.cpp:100] Creating Layer ssd4_2_mbox_conf_flat
I1009 21:37:38.817502   918 net.cpp:434] ssd4_2_mbox_conf_flat <- ssd4_2_mbox_conf_perm
I1009 21:37:38.817508   918 net.cpp:408] ssd4_2_mbox_conf_flat -> ssd4_2_mbox_conf_flat
I1009 21:37:38.817528   918 net.cpp:150] Setting up ssd4_2_mbox_conf_flat
I1009 21:37:38.817533   918 net.cpp:157] Top shape: 1 10 (10)
I1009 21:37:38.817534   918 net.cpp:165] Memory required for data: 468693176
I1009 21:37:38.817538   918 layer_factory.hpp:77] Creating layer ssd4_2_mbox_priorbox
I1009 21:37:38.817543   918 net.cpp:100] Creating Layer ssd4_2_mbox_priorbox
I1009 21:37:38.817546   918 net.cpp:434] ssd4_2_mbox_priorbox <- ssd4_2_ssd4_2_relu_0_split_2
I1009 21:37:38.817550   918 net.cpp:434] ssd4_2_mbox_priorbox <- data_data_0_split_6
I1009 21:37:38.817556   918 net.cpp:408] ssd4_2_mbox_priorbox -> ssd4_2_mbox_priorbox
I1009 21:37:38.817579   918 net.cpp:150] Setting up ssd4_2_mbox_priorbox
I1009 21:37:38.817582   918 net.cpp:157] Top shape: 1 2 8 (16)
I1009 21:37:38.817584   918 net.cpp:165] Memory required for data: 468693240
I1009 21:37:38.817587   918 layer_factory.hpp:77] Creating layer mbox_loc
I1009 21:37:38.817593   918 net.cpp:100] Creating Layer mbox_loc
I1009 21:37:38.817597   918 net.cpp:434] mbox_loc <- conv5_3/expand_mbox_loc_flat
I1009 21:37:38.817601   918 net.cpp:434] mbox_loc <- conv6_4_mbox_loc_flat
I1009 21:37:38.817605   918 net.cpp:434] mbox_loc <- ssd1_2_mbox_loc_flat
I1009 21:37:38.817610   918 net.cpp:434] mbox_loc <- ssd2_2_mbox_loc_flat
I1009 21:37:38.817615   918 net.cpp:434] mbox_loc <- ssd3_2_mbox_loc_flat
I1009 21:37:38.817618   918 net.cpp:434] mbox_loc <- ssd4_2_mbox_loc_flat
I1009 21:37:38.817625   918 net.cpp:408] mbox_loc -> mbox_loc
I1009 21:37:38.817643   918 net.cpp:150] Setting up mbox_loc
I1009 21:37:38.817647   918 net.cpp:157] Top shape: 1 6600 (6600)
I1009 21:37:38.817651   918 net.cpp:165] Memory required for data: 468719640
I1009 21:37:38.817652   918 layer_factory.hpp:77] Creating layer mbox_conf
I1009 21:37:38.817658   918 net.cpp:100] Creating Layer mbox_conf
I1009 21:37:38.817662   918 net.cpp:434] mbox_conf <- conv5_3/expand_mbox_conf_flat
I1009 21:37:38.817665   918 net.cpp:434] mbox_conf <- conv6_4_mbox_conf_flat
I1009 21:37:38.817669   918 net.cpp:434] mbox_conf <- ssd1_2_mbox_conf_flat
I1009 21:37:38.817674   918 net.cpp:434] mbox_conf <- ssd2_2_mbox_conf_flat
I1009 21:37:38.817677   918 net.cpp:434] mbox_conf <- ssd3_2_mbox_conf_flat
I1009 21:37:38.817680   918 net.cpp:434] mbox_conf <- ssd4_2_mbox_conf_flat
I1009 21:37:38.817687   918 net.cpp:408] mbox_conf -> mbox_conf
I1009 21:37:38.817704   918 net.cpp:150] Setting up mbox_conf
I1009 21:37:38.817708   918 net.cpp:157] Top shape: 1 8250 (8250)
I1009 21:37:38.817711   918 net.cpp:165] Memory required for data: 468752640
I1009 21:37:38.817713   918 layer_factory.hpp:77] Creating layer mbox_priorbox
I1009 21:37:38.817718   918 net.cpp:100] Creating Layer mbox_priorbox
I1009 21:37:38.817723   918 net.cpp:434] mbox_priorbox <- conv5_3/expand_mbox_priorbox
I1009 21:37:38.817726   918 net.cpp:434] mbox_priorbox <- conv6_4_mbox_priorbox
I1009 21:37:38.817736   918 net.cpp:434] mbox_priorbox <- ssd1_2_mbox_priorbox
I1009 21:37:38.817741   918 net.cpp:434] mbox_priorbox <- ssd2_2_mbox_priorbox
I1009 21:37:38.817744   918 net.cpp:434] mbox_priorbox <- ssd3_2_mbox_priorbox
I1009 21:37:38.817749   918 net.cpp:434] mbox_priorbox <- ssd4_2_mbox_priorbox
I1009 21:37:38.817752   918 net.cpp:408] mbox_priorbox -> mbox_priorbox
I1009 21:37:38.817773   918 net.cpp:150] Setting up mbox_priorbox
I1009 21:37:38.817777   918 net.cpp:157] Top shape: 1 2 6600 (13200)
I1009 21:37:38.817780   918 net.cpp:165] Memory required for data: 468805440
I1009 21:37:38.817782   918 layer_factory.hpp:77] Creating layer mbox_conf_reshape
I1009 21:37:38.817790   918 net.cpp:100] Creating Layer mbox_conf_reshape
I1009 21:37:38.817793   918 net.cpp:434] mbox_conf_reshape <- mbox_conf
I1009 21:37:38.817797   918 net.cpp:408] mbox_conf_reshape -> mbox_conf_reshape
I1009 21:37:38.817822   918 net.cpp:150] Setting up mbox_conf_reshape
I1009 21:37:38.817826   918 net.cpp:157] Top shape: 1 1650 5 (8250)
I1009 21:37:38.817829   918 net.cpp:165] Memory required for data: 468838440
I1009 21:37:38.817831   918 layer_factory.hpp:77] Creating layer mbox_conf_softmax
I1009 21:37:38.817836   918 net.cpp:100] Creating Layer mbox_conf_softmax
I1009 21:37:38.817842   918 net.cpp:434] mbox_conf_softmax <- mbox_conf_reshape
I1009 21:37:38.817845   918 net.cpp:408] mbox_conf_softmax -> mbox_conf_softmax
I1009 21:37:38.818210   918 net.cpp:150] Setting up mbox_conf_softmax
I1009 21:37:38.818217   918 net.cpp:157] Top shape: 1 1650 5 (8250)
I1009 21:37:38.818219   918 net.cpp:165] Memory required for data: 468871440
I1009 21:37:38.818222   918 layer_factory.hpp:77] Creating layer mbox_conf_flatten
I1009 21:37:38.818228   918 net.cpp:100] Creating Layer mbox_conf_flatten
I1009 21:37:38.818230   918 net.cpp:434] mbox_conf_flatten <- mbox_conf_softmax
I1009 21:37:38.818238   918 net.cpp:408] mbox_conf_flatten -> mbox_conf_flatten
I1009 21:37:38.818258   918 net.cpp:150] Setting up mbox_conf_flatten
I1009 21:37:38.818262   918 net.cpp:157] Top shape: 1 8250 (8250)
I1009 21:37:38.818264   918 net.cpp:165] Memory required for data: 468904440
I1009 21:37:38.818267   918 layer_factory.hpp:77] Creating layer detection_out
I1009 21:37:38.818279   918 net.cpp:100] Creating Layer detection_out
I1009 21:37:38.818281   918 net.cpp:434] detection_out <- mbox_loc
I1009 21:37:38.818284   918 net.cpp:434] detection_out <- mbox_conf_flatten
I1009 21:37:38.818289   918 net.cpp:434] detection_out <- mbox_priorbox
I1009 21:37:38.818295   918 net.cpp:408] detection_out -> detection_out
W1009 21:37:38.818317   918 detection_output_layer.cpp:49] Failed to create directory: /home/zhongyilin/Documents/data/GTSDBdevkit/results/GTSDB/SSD_510x300_100_40_Square_1/Main
I1009 21:37:38.818574   918 net.cpp:150] Setting up detection_out
I1009 21:37:38.818581   918 net.cpp:157] Top shape: 1 1 1 7 (7)
I1009 21:37:38.818583   918 net.cpp:165] Memory required for data: 468904468
I1009 21:37:38.818586   918 layer_factory.hpp:77] Creating layer detection_eval
I1009 21:37:38.818593   918 net.cpp:100] Creating Layer detection_eval
I1009 21:37:38.818596   918 net.cpp:434] detection_eval <- detection_out
I1009 21:37:38.818600   918 net.cpp:434] detection_eval <- label
I1009 21:37:38.818604   918 net.cpp:408] detection_eval -> detection_eval
I1009 21:37:38.818684   918 net.cpp:150] Setting up detection_eval
I1009 21:37:38.818689   918 net.cpp:157] Top shape: 1 1 5 5 (25)
I1009 21:37:38.818692   918 net.cpp:165] Memory required for data: 468904568
I1009 21:37:38.818696   918 net.cpp:228] detection_eval does not need backward computation.
I1009 21:37:38.818698   918 net.cpp:228] detection_out does not need backward computation.
I1009 21:37:38.818702   918 net.cpp:228] mbox_conf_flatten does not need backward computation.
I1009 21:37:38.818706   918 net.cpp:228] mbox_conf_softmax does not need backward computation.
…
