…
      sampler {
        min_scale: 0.3
        max_scale: 1
        min_aspect_ratio: 0.5
        max_aspect_ratio: 2
      }
      sample_constraint {
        min_jaccard_overlap: 0.9
      }
      max_sample: 1
      max_trials: 50
    }
    batch_sampler {
      sampler {
        min_scale: 0.3
        max_scale: 1
        min_aspect_ratio: 0.5
        max_aspect_ratio: 2
      }
      sample_constraint {
        max_jaccard_overlap: 1
      }
      max_sample: 1
      max_trials: 50
    }
    label_map_file: "data/GTSDB/labelmap_GTSDB.prototxt"
  }
}
layer {
  name: "conv1"
  type: "Convolution"
  bottom: "data"
  top: "conv1"
  param {
    lr_mult: 1
    decay_mult: 1
  }
  convolution_param {
    num_output: 32
    bias_term: false
    pad: 1
    kernel_size: 3
    stride: 2
    weight_filler {
      type: "msra"
    }
  }
}
layer {
  name: "conv1/bn"
  type: "BatchNorm"
  bottom: "conv1"
  top: "conv1"
  batch_norm_param {
    use_global_stats: true
    eps: 1e-05
  }
}
layer {
  name: "conv1/scale"
  type: "Scale"
  bottom: "conv1"
  top: "conv1"
  param {
    lr_mult: 1
    decay_mult: 0
  }
  param {
    lr_mult: 1
    decay_mult: 0
  }
  scale_param {
    filler {
      type: "constant"
      value: 1
    }
    bias_term: true
    bias_filler {
      type: "constant"
      value: 0
    }
  }
}
layer {
  name: "relu1"
  type: "ReLU"
  bottom: "conv1"
  top: "conv1"
}
layer {
  name: "conv2_1/dw"
  type: "DepthwiseConvolution"
  bottom: "conv1"
  top: "conv2_1/dw"
  param {
    lr_mult: 1
    decay_mult: 1
  }
  convolution_param {
    num_output: 32
    bias_term: false
    pad: 1
    kernel_size: 3
    group: 32
    stride: 1
    weight_filler {
      type: "msra"
    }
  }
}
layer {
  name: "conv2_1/dw/bn"
  type: "BatchNorm"
  bottom: "conv2_1/dw"
  top: "conv2_1/dw"
  batch_norm_param {
    use_global_stats: true
    eps: 1e-05
  }
}
layer {
  name: "conv2_1/dw/scale"
  type: "Scale"
  bottom: "conv2_1/dw"
  top: "conv2_1/dw"
  param {
    lr_mult: 1
    decay_mult: 0
  }
  param {
    lr_mult: 1
    decay_mult: 0
  }
  scale_param {
    filler {
      type: "constant"
      value: 1
    }
    bias_term: true
    bias_filler {
      type: "constant"
      value: 0
    }
  }
}
layer {
  name: "relu2_1/dw"
  type: "ReLU"
  bottom: "conv2_1/dw"
  top: "conv2_1/dw"
}
layer {
  name: "conv2_1/sep"
  type: "Convolution"
  bottom: "conv2_1/dw"
  top: "conv2_1/sep"
  param {
    lr_mult: 1
    decay_mult: 1
  }
  convolution_param {
    num_output: 64
    bias_term: false
    pad: 0
    kernel_size: 1
    stride: 1
    weight_filler {
      type: "msra"
    }
  }
}
layer {
  name: "conv2_1/sep/bn"
  type: "BatchNorm"
  bottom: "conv2_1/sep"
  top: "conv2_1/sep"
  batch_norm_param {
    use_global_stats: true
    eps: 1e-05
  }
}
layer {
  name: "conv2_1/sep/scale"
  type: "Scale"
  bottom: "conv2_1/sep"
  top: "conv2_1/sep"
  param {
    lr_mult: 1
    decay_mult: 0
  }
  param {
    lr_mult: 1
    decay_mult: 0
  }
  scale_param {
    filler {
      type: "constant"
      value: 1
    }
    bias_term: true
    bias_filler {
      type: "constant"
      value: 0
    }
  }
}
layer {
  name: "relu2_1/sep"
  type: "ReLU"
  bottom: "conv2_1/sep"
  top: "conv2_1/sep"
}
layer {
  name: "conv2_2/dw"
  type: "DepthwiseConvolution"
  bottom: "conv2_1/sep"
  top: "conv2_2/dw"
  param {
    lr_mult: 1
    decay_mult: 1
  }
  convolution_param {
    num_output: 64
    bias_term: false
    pad: 1
    kernel_size: 3
    group: 64
    stride: 2
    weight_filler {
      type: "msra"
    }
  }
}
layer {
  name: "conv2_2/dw/bn"
  type: "BatchNorm"
  bottom: "conv2_2/dw"
  top: "conv2_2/dw"
  batch_norm_param {
    use_global_stats: true
    eps: 1e-05
  }
}
layer {
  name: "conv2_2/dw/scale"
  type: "Scale"
  bottom: "conv2_2/dw"
  top: "conv2_2/dw"
  param {
    lr_mult: 1
    decay_mult: 0
  }
  param {
    lr_mult: 1
    decay_mult: 0
  }
  scale_param {
    filler {
      type: "constant"
      value: 1
    }
    bias_term: true
    bias_filler {
      type: "constant"
      value: 0
    }
  }
}
layer {
  name: "relu2_2/dw"
  type: "ReLU"
  bottom: "conv2_2/dw"
  top: "conv2_2/dw"
}
layer {
  name: "conv2_2/sep"
  type: "Convolution"
  bottom: "conv2_2/dw"
  top: "conv2_2/sep"
  param {
    lr_mult: 1
    decay_mult: 1
  }
  convolution_param {
    num_output: 128
    bias_term: false
    pad: 0
    kernel_size: 1
    stride: 1
    weight_filler {
      type: "msra"
    }
  }
}
layer {
  name: "conv2_2/sep/bn"
  type: "BatchNorm"
  bottom: "conv2_2/sep"
  top: "conv2_2/sep"
  batch_norm_param {
    use_global_stats: true
    eps: 1e-05
  }
}
layer {
  name: "conv2_2/sep/scale"
  type: "Scale"
  bottom: "conv2_2/sep"
  top: "conv2_2/sep"
  param {
    lr_mult: 1
    decay_mult: 0
  }
  param {
    lr_mult: 1
    decay_mult: 0
  }
  scale_param {
    filler {
      type: "constant"
      value: 1
    }
    bias_term: true
    bias_filler {
      type: "constant"
      value: 0
    }
  }
}
layer {
  name: "relu2_2/sep"
  type: "ReLU"
  bottom: "conv2_2/sep"
  top: "conv2_2/sep"
}
layer {
  name: "conv3_1/dw"
  type: "DepthwiseConvolution"
  bottom: "conv2_2/sep"
  top: "conv3_1/dw"
  param {
    lr_mult: 1
    decay_mult: 1
  }
  convolution_param {
    num_output: 128
    bias_term: false
    pad: 1
    kernel_size: 3
    group: 128
    stride: 1
    weight_filler {
      type: "msra"
    }
  }
}
layer {
  name: "conv3_1/dw/bn"
  type: "BatchNorm"
  bottom: "conv3_1/dw"
  top: "conv3_1/dw"
  batch_norm_param {
    use_global_stats: true
    eps: 1e-05
  }
}
layer {
  name: "conv3_1/dw/scale"
  type: "Scale"
  bottom: "conv3_1/dw"
  top: "conv3_1/dw"
  param {
    lr_mult: 1
    decay_mult: 0
  }
  param {
    lr_mult: 1
    decay_mult: 0
  }
  scale_param {
    filler {
      type: "constant"
      value: 1
    }
    bias_term: true
    bias_filler {
      type: "constant"
      value: 0
    }
  }
}
layer {
  name: "relu3_1/dw"
  type: "ReLU"
  bottom: "conv3_1/dw"
  top: "conv3_1/dw"
}
layer {
  name: "conv3_1/sep"
  type: "Convolution"
  bottom: "conv3_1/dw"
  top: "conv3_1/sep"
  param {
    lr_mult: 1
    decay_mult: 1
  }
  convolution_param {
    num_output: 128
    bias_term: false
    pad: 0
    kernel_size: 1
    stride: 1
    weight_filler {
      type: "msra"
    }
  }
}
layer {
  name: "conv3_1/sep/bn"
  type: "BatchNorm"
  bottom: "conv3_1/sep"
  top: "conv3_1/sep"
  batch_norm_param {
    use_global_stats: true
    eps: 1e-05
  }
}
layer {
  name: "conv3_1/sep/scale"
  type: "Scale"
  bottom: "conv3_1/sep"
  top: "conv3_1/sep"
  param {
    lr_mult: 1
    decay_mult: 0
  }
  param {
    lr_mult: 1
    decay_mult: 0
  }
  scale_param {
    filler {
      type: "constant"
      value: 1
    }
    bias_term: true
    bias_filler {
      type: "constant"
      value: 0
    }
  }
}
layer {
  name: "relu3_1/sep"
  type: "ReLU"
  bottom: "conv3_1/sep"
  top: "conv3_1/sep"
}
layer {
  name: "conv3_2/dw"
  type: "DepthwiseConvolution"
  bottom: "conv3_1/sep"
  top: "conv3_2/dw"
  param {
    lr_mult: 1
    decay_mult: 1
  }
  convolution_param {
    num_output: 128
    bias_term: false
    pad: 1
    kernel_size: 3
    group: 128
    stride: 2
    weight_filler {
      type: "msra"
    }
  }
}
layer {
  name: "conv3_2/dw/bn"
  type: "BatchNorm"
  bottom: "conv3_2/dw"
  top: "conv3_2/dw"
  batch_norm_param {
    use_global_stats: true
    eps: 1e-05
  }
}
layer {
  name: "conv3_2/dw/scale"
  type: "Scale"
  bottom: "conv3_2/dw"
  top: "conv3_2/dw"
  param {
    lr_mult: 1
    decay_mult: 0
  }
  param {
    lr_mult: 1
    decay_mult: 0
  }
  scale_param {
    filler {
      type: "constant"
      value: 1
    }
    bias_term: true
    bias_filler {
      type: "constant"
      value: 0
    }
  }
}
layer {
  name: "relu3_2/dw"
  type: "ReLU"
  bottom: "conv3_2/dw"
  top: "conv3_2/dw"
}
layer {
  name: "conv3_2/sep"
  type: "Convolution"
  bottom: "conv3_2/dw"
  top: "conv3_2/sep"
  param {
    lr_mult: 1
    decay_mult: 1
  }
  convolution_param {
    num_output: 256
    bias_term: false
    pad: 0
    kernel_size: 1
    stride: 1
    weight_filler {
      type: "msra"
    }
  }
}
layer {
  name: "conv3_2/sep/bn"
  type: "BatchNorm"
  bottom: "conv3_2/sep"
  top: "conv3_2/sep"
  batch_norm_param {
    use_global_stats: true
    eps: 1e-05
  }
}
layer {
  name: "conv3_2/sep/scale"
  type: "Scale"
  bottom: "conv3_2/sep"
  top: "conv3_2/sep"
  param {
    lr_mult: 1
    decay_mult: 0
  }
  param {
    lr_mult: 1
    decay_mult: 0
  }
  scale_param {
    filler {
      type: "constant"
      value: 1
    }
    bias_term: true
    bias_filler {
      type: "constant"
      value: 0
    }
  }
}
layer {
  name: "relu3_2/sep"
  type: "ReLU"
  bottom: "conv3_2/sep"
  top: "conv3_2/sep"
}
layer {
  name: "conv4_1/dw"
  type: "DepthwiseConvolution"
  bottom: "conv3_2/sep"
  top: "conv4_1/dw"
  param {
    lr_mult: 1
    decay_mult: 1
  }
  convolution_param {
    num_output: 256
    bias_term: false
    pad: 1
    kernel_size: 3
    group: 256
    stride: 1
    weight_filler {
      type: "msra"
    }
  }
}
layer {
  name: "conv4_1/dw/bn"
  type: "BatchNorm"
  bottom: "conv4_1/dw"
  top: "conv4_1/dw"
  batch_norm_param {
    use_global_stats: true
    eps: 1e-05
  }
}
layer {
  name: "conv4_1/dw/scale"
  type: "Scale"
  bottom: "conv4_1/dw"
  top: "conv4_1/dw"
  param {
    lr_mult: 1
    decay_mult: 0
  }
  param {
    lr_mult: 1
    decay_mult: 0
  }
  scale_param {
    filler {
      type: "constant"
      value: 1
    }
    bias_term: true
    bias_filler {
      type: "constant"
      value: 0
    }
  }
}
layer {
  name: "relu4_1/dw"
  type: "ReLU"
  bottom: "conv4_1/dw"
  top: "conv4_1/dw"
}
layer {
  name: "conv4_1/sep"
  type: "Convolution"
  bottom: "conv4_1/dw"
  top: "conv4_1/sep"
  param {
    lr_mult: 1
    decay_mult: 1
  }
  convolution_param {
    num_output: 256
    bias_term: false
    pad: 0
    kernel_size: 1
    stride: 1
    weight_filler {
      type: "msra"
    }
  }
}
layer {
  name: "conv4_1/sep/bn"
  type: "BatchNorm"
  bottom: "conv4_1/sep"
  top: "conv4_1/sep"
  batch_norm_param {
    use_global_stats: true
    eps: 1e-05
  }
}
layer {
  name: "conv4_1/sep/scale"
  type: "Scale"
  bottom: "conv4_1/sep"
  top: "conv4_1/sep"
  param {
    lr_mult: 1
    decay_mult: 0
  }
  param {
    lr_mult: 1
    decay_mult: 0
  }
  scale_param {
    filler {
      type: "constant"
      value: 1
    }
    bias_term: true
    bias_filler {
      type: "constant"
      value: 0
    }
  }
}
layer {
  name: "relu4_1/sep"
  type: "ReLU"
  bottom: "conv4_1/sep"
  top: "conv4_1/sep"
}
layer {
  name: "conv4_2/dw"
  type: "DepthwiseConvolution"
  bottom: "conv4_1/sep"
  top: "conv4_2/dw"
  param {
    lr_mult: 1
    decay_mult: 1
  }
  convolution_param {
    num_output: 256
    bias_term: false
    pad: 1
    kernel_size: 3
    group: 256
    stride: 2
    weight_filler {
      type: "msra"
    }
  }
}
layer {
  name: "conv4_2/dw/bn"
  type: "BatchNorm"
  bottom: "conv4_2/dw"
  top: "conv4_2/dw"
  batch_norm_param {
    use_global_stats: true
    eps: 1e-05
  }
}
layer {
  name: "conv4_2/dw/scale"
  type: "Scale"
  bottom: "conv4_2/dw"
  top: "conv4_2/dw"
  param {
    lr_mult: 1
    decay_mult: 0
  }
  param {
    lr_mult: 1
    decay_mult: 0
  }
  scale_param {
    filler {
      type: "constant"
      value: 1
    }
    bias_term: true
    bias_filler {
      type: "constant"
      value: 0
    }
  }
}
layer {
  name: "relu4_2/dw"
  type: "ReLU"
  bottom: "conv4_2/dw"
  top: "conv4_2/dw"
}
layer {
  name: "conv4_2/sep"
  type: "Convolution"
  bottom: "conv4_2/dw"
  top: "conv4_2/sep"
  param {
    lr_mult: 1
    decay_mult: 1
  }
  convolution_param {
    num_output: 512
    bias_term: false
    pad: 0
    kernel_size: 1
    stride: 1
    weight_filler {
      type: "msra"
    }
  }
}
layer {
  name: "conv4_2/sep/bn"
  type: "BatchNorm"
  bottom: "conv4_2/sep"
  top: "conv4_2/sep"
  batch_norm_param {
    use_global_stats: true
    eps: 1e-05
  }
}
layer {
  name: "conv4_2/sep/scale"
  type: "Scale"
  bottom: "conv4_2/sep"
  top: "conv4_2/sep"
  param {
    lr_mult: 1
    decay_mult: 0
  }
  param {
    lr_mult: 1
    decay_mult: 0
  }
  scale_param {
    filler {
      type: "constant"
      value: 1
    }
    bias_term: true
    bias_filler {
      type: "constant"
      value: 0
    }
  }
}
layer {
  name: "relu4_2/sep"
  type: "ReLU"
  bottom: "conv4_2/sep"
  top: "conv4_2/sep"
}
layer {
  name: "conv5_1/dw"
  type: "DepthwiseConvolution"
  bottom: "conv4_2/sep"
  top: "conv5_1/dw"
  param {
    lr_mult: 1
    decay_mult: 1
  }
  convolution_param {
    num_output: 512
    bias_term: false
    pad: 1
    kernel_size: 3
    group: 512
    stride: 1
    weight_filler {
      type: "msra"
    }
  }
}
layer {
  name: "conv5_1/dw/bn"
  type: "BatchNorm"
  bottom: "conv5_1/dw"
  top: "conv5_1/dw"
  batch_norm_param {
    use_global_stats: true
    eps: 1e-05
  }
}
layer {
  name: "conv5_1/dw/scale"
  type: "Scale"
  bottom: "conv5_1/dw"
  top: "conv5_1/dw"
  param {
    lr_mult: 1
    decay_mult: 0
  }
  param {
    lr_mult: 1
    decay_mult: 0
  }
  scale_param {
    filler {
      type: "constant"
      value: 1
    }
    bias_term: true
    bias_filler {
      type: "constant"
      value: 0
    }
  }
}
layer {
  name: "relu5_1/dw"
  type: "ReLU"
  bottom: "conv5_1/dw"
  top: "conv5_1/dw"
}
layer {
  name: "conv5_1/sep"
  type: "Convolution"
  bottom: "conv5_1/dw"
  top: "conv5_1/sep"
  param {
    lr_mult: 1
    decay_mult: 1
  }
  convolution_param {
    num_output: 512
    bias_term: false
    pad: 0
    kernel_size: 1
    stride: 1
    weight_filler {
      type: "msra"
    }
  }
}
layer {
  name: "conv5_1/sep/bn"
  type: "BatchNorm"
  bottom: "conv5_1/sep"
  top: "conv5_1/sep"
  batch_norm_param {
    use_global_stats: true
    eps: 1e-05
  }
}
layer {
  name: "conv5_1/sep/scale"
  type: "Scale"
  bottom: "conv5_1/sep"
  top: "conv5_1/sep"
  param {
    lr_mult: 1
    decay_mult: 0
  }
  param {
    lr_mult: 1
    decay_mult: 0
  }
  scale_param {
    filler {
      type: "constant"
      value: 1
    }
    bias_term: true
    bias_filler {
      type: "constant"
      value: 0
    }
  }
}
layer {
  name: "relu5_1/sep"
  type: "ReLU"
  bottom: "conv5_1/sep"
  top: "conv5_1/sep"
}
layer {
  name: "conv5_2/dw"
  type: "DepthwiseConvolution"
  bottom: "conv5_1/sep"
  top: "conv5_2/dw"
  param {
    lr_mult: 1
    decay_mult: 1
  }
  convolution_param {
    num_output: 512
    bias_term: false
    pad: 1
    kernel_size: 3
    group: 512
    stride: 1
    weight_filler {
      type: "msra"
    }
  }
}
layer {
  name: "conv5_2/dw/bn"
  type: "BatchNorm"
  bottom: "conv5_2/dw"
  top: "conv5_2/dw"
  batch_norm_param {
    use_global_stats: true
    eps: 1e-05
  }
}
layer {
  name: "conv5_2/dw/scale"
  type: "Scale"
  bottom: "conv5_2/dw"
  top: "conv5_2/dw"
  param {
    lr_mult: 1
    decay_mult: 0
  }
  param {
    lr_mult: 1
    decay_mult: 0
  }
  scale_param {
    filler {
      type: "constant"
      value: 1
    }
    bias_term: true
    bias_filler {
      type: "constant"
      value: 0
    }
  }
}
layer {
  name: "relu5_2/dw"
  type: "ReLU"
  bottom: "conv5_2/dw"
  top: "conv5_2/dw"
}
layer {
  name: "conv5_2/sep"
  type: "Convolution"
  bottom: "conv5_2/dw"
  top: "conv5_2/sep"
  param {
    lr_mult: 1
    decay_mult: 1
  }
  convolution_param {
    num_output: 512
    bias_term: false
    pad: 0
    kernel_size: 1
    stride: 1
    weight_filler {
      type: "msra"
    }
  }
}
layer {
  name: "conv5_2/sep/bn"
  type: "BatchNorm"
  bottom: "conv5_2/sep"
  top: "conv5_2/sep"
  batch_norm_param {
    use_global_stats: true
    eps: 1e-05
  }
}
layer {
  name: "conv5_2/sep/scale"
  type: "Scale"
  bottom: "conv5_2/sep"
  top: "conv5_2/sep"
  param {
    lr_mult: 1
    decay_mult: 0
  }
  param {
    lr_mult: 1
    decay_mult: 0
  }
  scale_param {
    filler {
      type: "constant"
      value: 1
    }
    bias_term: true
    bias_filler {
      type: "constant"
      value: 0
    }
  }
}
layer {
  name: "relu5_2/sep"
  type: "ReLU"
  bottom: "conv5_2/sep"
  top: "conv5_2/sep"
}
layer {
  name: "conv5_3/dw"
  type: "DepthwiseConvolution"
  bottom: "conv5_2/sep"
  top: "conv5_3/dw"
  param {
    lr_mult: 1
    decay_mult: 1
  }
  convolution_param {
    num_output: 512
    bias_term: false
    pad: 1
    kernel_size: 3
    group: 512
    stride: 1
    weight_filler {
      type: "msra"
    }
  }
}
layer {
  name: "conv5_3/dw/bn"
  type: "BatchNorm"
  bottom: "conv5_3/dw"
  top: "conv5_3/dw"
  batch_norm_param {
    use_global_stats: true
    eps: 1e-05
  }
}
layer {
  name: "conv5_3/dw/scale"
  type: "Scale"
  bottom: "conv5_3/dw"
  top: "conv5_3/dw"
  param {
    lr_mult: 1
    decay_mult: 0
  }
  param {
    lr_mult: 1
    decay_mult: 0
  }
  scale_param {
    filler {
      type: "constant"
      value: 1
    }
    bias_term: true
    bias_filler {
      type: "constant"
      value: 0
    }
  }
}
layer {
  name: "relu5_3/dw"
  type: "ReLU"
  bottom: "conv5_3/dw"
  top: "conv5_3/dw"
}
layer {
  name: "conv5_3/sep"
  type: "Convolution"
  bottom: "conv5_3/dw"
  top: "conv5_3/sep"
  param {
    lr_mult: 1
    decay_mult: 1
  }
  convolution_param {
    num_output: 512
    bias_term: false
    pad: 0
    kernel_size: 1
    stride: 1
    weight_filler {
      type: "msra"
    }
  }
}
layer {
  name: "conv5_3/sep/bn"
  type: "BatchNorm"
  bottom: "conv5_3/sep"
  top: "conv5_3/sep"
  batch_norm_param {
    use_global_stats: true
    eps: 1e-05
  }
}
layer {
  name: "conv5_3/sep/scale"
  type: "Scale"
  bottom: "conv5_3/sep"
  top: "conv5_3/sep"
  param {
    lr_mult: 1
    decay_mult: 0
  }
  param {
    lr_mult: 1
    decay_mult: 0
  }
  scale_param {
    filler {
      type: "constant"
      value: 1
    }
    bias_term: true
    bias_filler {
      type: "constant"
      value: 0
    }
  }
}
layer {
  name: "relu5_3/sep"
  type: "ReLU"
  bottom: "conv5_3/sep"
  top: "conv5_3/sep"
}
layer {
  name: "conv5_4/dw"
  type: "DepthwiseConvolution"
  bottom: "conv5_3/sep"
  top: "conv5_4/dw"
  param {
    lr_mult: 1
    decay_mult: 1
  }
  convolution_param {
    num_output: 512
    bias_term: false
    pad: 1
    kernel_size: 3
    group: 512
    stride: 1
    weight_filler {
      type: "msra"
    }
  }
}
layer {
  name: "conv5_4/dw/bn"
  type: "BatchNorm"
  bottom: "conv5_4/dw"
  top: "conv5_4/dw"
  batch_norm_param {
    use_global_stats: true
    eps: 1e-05
  }
}
layer {
  name: "conv5_4/dw/scale"
  type: "Scale"
  bottom: "conv5_4/dw"
  top: "conv5_4/dw"
  param {
    lr_mult: 1
    decay_mult: 0
  }
  param {
    lr_mult: 1
    decay_mult: 0
  }
  scale_param {
    filler {
      type: "constant"
      value: 1
    }
    bias_term: true
    bias_filler {
      type: "constant"
      value: 0
    }
  }
}
layer {
  name: "relu5_4/dw"
  type: "ReLU"
  bottom: "conv5_4/dw"
  top: "conv5_4/dw"
}
layer {
  name: "conv5_4/sep"
  type: "Convolution"
  bottom: "conv5_4/dw"
  top: "conv5_4/sep"
  param {
    lr_mult: 1
    decay_mult: 1
  }
  convolution_param {
    num_output: 512
    bias_term: false
    pad: 0
    kernel_size: 1
    stride: 1
    weight_filler {
      type: "msra"
    }
  }
}
layer {
  name: "conv5_4/sep/bn"
  type: "BatchNorm"
  bottom: "conv5_4/sep"
  top: "conv5_4/sep"
  batch_norm_param {
    use_global_stats: true
    eps: 1e-05
  }
}
layer {
  name: "conv5_4/sep/scale"
  type: "Scale"
  bottom: "conv5_4/sep"
  top: "conv5_4/sep"
  param {
    lr_mult: 1
    decay_mult: 0
  }
  param {
    lr_mult: 1
    decay_mult: 0
  }
  scale_param {
    filler {
      type: "constant"
      value: 1
    }
    bias_term: true
    bias_filler {
      type: "constant"
      value: 0
    }
  }
}
layer {
  name: "relu5_4/sep"
  type: "ReLU"
  bottom: "conv5_4/sep"
  top: "conv5_4/sep"
}
layer {
  name: "conv5_5/dw"
  type: "DepthwiseConvolution"
  bottom: "conv5_4/sep"
  top: "conv5_5/dw"
  param {
    lr_mult: 1
    decay_mult: 1
  }
  convolution_param {
    num_output: 512
    bias_term: false
    pad: 1
    kernel_size: 3
    group: 512
    stride: 1
    weight_filler {
      type: "msra"
    }
  }
}
layer {
  name: "conv5_5/dw/bn"
  type: "BatchNorm"
  bottom: "conv5_5/dw"
  top: "conv5_5/dw"
  batch_norm_param {
    use_global_stats: true
    eps: 1e-05
  }
}
layer {
  name: "conv5_5/dw/scale"
  type: "Scale"
  bottom: "conv5_5/dw"
  top: "conv5_5/dw"
  param {
    lr_mult: 1
    decay_mult: 0
  }
  param {
    lr_mult: 1
    decay_mult: 0
  }
  scale_param {
    filler {
      type: "constant"
      value: 1
    }
    bias_term: true
    bias_filler {
      type: "constant"
      value: 0
    }
  }
}
layer {
  name: "relu5_5/dw"
  type: "ReLU"
  bottom: "conv5_5/dw"
  top: "conv5_5/dw"
}
layer {
  name: "conv5_5/sep"
  type: "Convolution"
  bottom: "conv5_5/dw"
  top: "conv5_5/sep"
  param {
    lr_mult: 1
    decay_mult: 1
  }
  convolution_param {
    num_output: 512
    bias_term: false
    pad: 0
    kernel_size: 1
    stride: 1
    weight_filler {
      type: "msra"
    }
  }
}
layer {
  name: "conv5_5/sep/bn"
  type: "BatchNorm"
  bottom: "conv5_5/sep"
  top: "conv5_5/sep"
  batch_norm_param {
    use_global_stats: true
    eps: 1e-05
  }
}
layer {
  name: "conv5_5/sep/scale"
  type: "Scale"
  bottom: "conv5_5/sep"
  top: "conv5_5/sep"
  param {
    lr_mult: 1
    decay_mult: 0
  }
  param {
    lr_mult: 1
    decay_mult: 0
  }
  scale_param {
    filler {
      type: "constant"
      value: 1
    }
    bias_term: true
    bias_filler {
      type: "constant"
      value: 0
    }
  }
}
layer {
  name: "relu5_5/sep"
  type: "ReLU"
  bottom: "conv5_5/sep"
  top: "conv5_5/sep"
}
layer {
  name: "conv5_6/dw"
  type: "DepthwiseConvolution"
  bottom: "conv5_5/sep"
  top: "conv5_6/dw"
  param {
    lr_mult: 1
    decay_mult: 1
  }
  convolution_param {
    num_output: 512
    bias_term: false
    pad: 1
    kernel_size: 3
    group: 512
    stride: 2
    weight_filler {
      type: "msra"
    }
  }
}
layer {
  name: "conv5_6/dw/bn"
  type: "BatchNorm"
  bottom: "conv5_6/dw"
  top: "conv5_6/dw"
  batch_norm_param {
    use_global_stats: true
    eps: 1e-05
  }
}
layer {
  name: "conv5_6/dw/scale"
  type: "Scale"
  bottom: "conv5_6/dw"
  top: "conv5_6/dw"
  param {
    lr_mult: 1
    decay_mult: 0
  }
  param {
    lr_mult: 1
    decay_mult: 0
  }
  scale_param {
    filler {
      type: "constant"
      value: 1
    }
    bias_term: true
    bias_filler {
      type: "constant"
      value: 0
    }
  }
}
layer {
  name: "relu5_6/dw"
  type: "ReLU"
  bottom: "conv5_6/dw"
  top: "conv5_6/dw"
}
layer {
  name: "conv5_6/sep"
  type: "Convolution"
  bottom: "conv5_6/dw"
  top: "conv5_6/sep"
  param {
    lr_mult: 1
    decay_mult: 1
  }
  convolution_param {
    num_output: 1024
    bias_term: false
    pad: 0
    kernel_size: 1
    stride: 1
    weight_filler {
      type: "msra"
    }
  }
}
layer {
  name: "conv5_6/sep/bn"
  type: "BatchNorm"
  bottom: "conv5_6/sep"
  top: "conv5_6/sep"
  batch_norm_param {
    use_global_stats: true
    eps: 1e-05
  }
}
layer {
  name: "conv5_6/sep/scale"
  type: "Scale"
  bottom: "conv5_6/sep"
  top: "conv5_6/sep"
  param {
    lr_mult: 1
    decay_mult: 0
  }
  param {
    lr_mult: 1
    decay_mult: 0
  }
  scale_param {
    filler {
      type: "constant"
      value: 1
    }
    bias_term: true
    bias_filler {
      type: "constant"
      value: 0
    }
  }
}
layer {
  name: "relu5_6/sep"
  type: "ReLU"
  bottom: "conv5_6/sep"
  top: "conv5_6/sep"
}
layer {
  name: "conv6/dw"
  type: "DepthwiseConvolution"
  bottom: "conv5_6/sep"
  top: "conv6/dw"
  param {
    lr_mult: 1
    decay_mult: 1
  }
  convolution_param {
    num_output: 1024
    bias_term: false
    pad: 1
    kernel_size: 3
    group: 1024
    stride: 1
    weight_filler {
      type: "msra"
    }
  }
}
layer {
  name: "conv6/dw/bn"
  type: "BatchNorm"
  bottom: "conv6/dw"
  top: "conv6/dw"
  batch_norm_param {
    use_global_stats: true
    eps: 1e-05
  }
}
layer {
  name: "conv6/dw/scale"
  type: "Scale"
  bottom: "conv6/dw"
  top: "conv6/dw"
  param {
    lr_mult: 1
    decay_mult: 0
  }
  param {
    lr_mult: 1
    decay_mult: 0
  }
  scale_param {
    filler {
      type: "constant"
      value: 1
    }
    bias_term: true
    bias_filler {
      type: "constant"
      value: 0
    }
  }
}
layer {
  name: "relu6/dw"
  type: "ReLU"
  bottom: "conv6/dw"
  top: "conv6/dw"
}
layer {
  name: "conv6/sep"
  type: "Convolution"
  bottom: "conv6/dw"
  top: "conv6/sep"
  param {
    lr_mult: 1
    decay_mult: 1
  }
  convolution_param {
    num_output: 1024
    bias_term: false
    pad: 0
    kernel_size: 1
    stride: 1
    weight_filler {
      type: "msra"
    }
  }
}
layer {
  name: "conv6/sep/bn"
  type: "BatchNorm"
  bottom: "conv6/sep"
  top: "conv6/sep"
  batch_norm_param {
    use_global_stats: true
    eps: 1e-05
  }
}
layer {
  name: "conv6/sep/scale"
  type: "Scale"
  bottom: "conv6/sep"
  top: "conv6/sep"
  param {
    lr_mult: 1
    decay_mult: 0
  }
  param {
    lr_mult: 1
    decay_mult: 0
  }
  scale_param {
    filler {
      type: "constant"
      value: 1
    }
    bias_term: true
    bias_filler {
      type: "constant"
      value: 0
    }
  }
}
layer {
  name: "relu6/sep"
  type: "ReLU"
  bottom: "conv6/sep"
  top: "conv6/sep"
}
layer {
  name: "ssd1_1"
  type: "Convolution"
  bottom: "conv6/sep"
  top: "ssd1_1"
  param {
    lr_mult: 1
    decay_mult: 1
  }
  param {
    lr_mult: 2
    decay_mult: 0
  }
  convolution_param {
    num_output: 256
    pad: 0
    kernel_size: 1
    stride: 1
    weight_filler {
      type: "xavier"
    }
    bias_filler {
      type: "constant"
      value: 0
    }
  }
}
layer {
  name: "ssd1_1_relu"
  type: "ReLU"
  bottom: "ssd1_1"
  top: "ssd1_1"
}
layer {
  name: "ssd1_2"
  type: "Convolution"
  bottom: "ssd1_1"
  top: "ssd1_2"
  param {
    lr_mult: 1
    decay_mult: 1
  }
  param {
    lr_mult: 2
    decay_mult: 0
  }
  convolution_param {
    num_output: 512
    pad: 1
    kernel_size: 3
    stride: 2
    weight_filler {
      type: "xavier"
    }
    bias_filler {
      type: "constant"
      value: 0
    }
  }
}
layer {
  name: "ssd1_2_relu"
  type: "ReLU"
  bottom: "ssd1_2"
  top: "ssd1_2"
}
layer {
  name: "ssd2_1"
  type: "Convolution"
  bottom: "ssd1_2"
  top: "ssd2_1"
  param {
    lr_mult: 1
    decay_mult: 1
  }
  param {
    lr_mult: 2
    decay_mult: 0
  }
  convolution_param {
    num_output: 128
    pad: 0
    kernel_size: 1
    stride: 1
    weight_filler {
      type: "xavier"
    }
    bias_filler {
      type: "constant"
      value: 0
    }
  }
}
layer {
  name: "ssd2_1_relu"
  type: "ReLU"
  bottom: "ssd2_1"
  top: "ssd2_1"
}
layer {
  name: "ssd2_2"
  type: "Convolution"
  bottom: "ssd2_1"
  top: "ssd2_2"
  param {
    lr_mult: 1
    decay_mult: 1
  }
  param {
    lr_mult: 2
    decay_mult: 0
  }
  convolution_param {
    num_output: 256
    pad: 1
    kernel_size: 3
    stride: 2
    weight_filler {
      type: "xavier"
    }
    bias_filler {
      type: "constant"
      value: 0
    }
  }
}
layer {
  name: "ssd2_2_relu"
  type: "ReLU"
  bottom: "ssd2_2"
  top: "ssd2_2"
}
layer {
  name: "ssd3_1"
  type: "Convolution"
  bottom: "ssd2_2"
  top: "ssd3_1"
  param {
    lr_mult: 1
    decay_mult: 1
  }
  param {
    lr_mult: 2
    decay_mult: 0
  }
  convolution_param {
    num_output: 128
    pad: 0
    kernel_size: 1
    stride: 1
    weight_filler {
      type: "xavier"
    }
    bias_filler {
      type: "constant"
      value: 0
    }
  }
}
layer {
  name: "ssd3_1_relu"
  type: "ReLU"
  bottom: "ssd3_1"
  top: "ssd3_1"
}
layer {
  name: "ssd3_2"
  type: "Convolution"
  bottom: "ssd3_1"
  top: "ssd3_2"
  param {
    lr_mult: 1
    decay_mult: 1
  }
  param {
    lr_mult: 2
    d
I1208 11:51:29.201669  7581 layer_factory.hpp:77] Creating layer data
I1208 11:51:29.201766  7581 net.cpp:100] Creating Layer data
I1208 11:51:29.201774  7581 net.cpp:408] data -> data
I1208 11:51:29.201793  7581 net.cpp:408] data -> label
I1208 11:51:29.202373  7589 db_lmdb.cpp:35] Opened lmdb examples/GTSDB/GTSDB_trainval_lmdb
I1208 11:51:29.214970  7581 annotated_data_layer.cpp:62] output data size: 1,3,300,510
I1208 11:51:29.217625  7581 net.cpp:150] Setting up data
I1208 11:51:29.217641  7581 net.cpp:157] Top shape: 1 3 300 510 (459000)
I1208 11:51:29.217645  7581 net.cpp:157] Top shape: 1 1 3 8 (24)
I1208 11:51:29.217648  7581 net.cpp:165] Memory required for data: 1836096
I1208 11:51:29.217654  7581 layer_factory.hpp:77] Creating layer data_data_0_split
I1208 11:51:29.217664  7581 net.cpp:100] Creating Layer data_data_0_split
I1208 11:51:29.217667  7581 net.cpp:434] data_data_0_split <- data
I1208 11:51:29.217676  7581 net.cpp:408] data_data_0_split -> data_data_0_split_0
I1208 11:51:29.217684  7581 net.cpp:408] data_data_0_split -> data_data_0_split_1
I1208 11:51:29.217689  7581 net.cpp:408] data_data_0_split -> data_data_0_split_2
I1208 11:51:29.217692  7581 net.cpp:408] data_data_0_split -> data_data_0_split_3
I1208 11:51:29.217696  7581 net.cpp:408] data_data_0_split -> data_data_0_split_4
I1208 11:51:29.217700  7581 net.cpp:408] data_data_0_split -> data_data_0_split_5
I1208 11:51:29.217705  7581 net.cpp:408] data_data_0_split -> data_data_0_split_6
I1208 11:51:29.217820  7581 net.cpp:150] Setting up data_data_0_split
I1208 11:51:29.217826  7581 net.cpp:157] Top shape: 1 3 300 510 (459000)
I1208 11:51:29.217829  7581 net.cpp:157] Top shape: 1 3 300 510 (459000)
I1208 11:51:29.217833  7581 net.cpp:157] Top shape: 1 3 300 510 (459000)
I1208 11:51:29.217834  7581 net.cpp:157] Top shape: 1 3 300 510 (459000)
I1208 11:51:29.217838  7581 net.cpp:157] Top shape: 1 3 300 510 (459000)
I1208 11:51:29.217840  7581 net.cpp:157] Top shape: 1 3 300 510 (459000)
I1208 11:51:29.217844  7581 net.cpp:157] Top shape: 1 3 300 510 (459000)
I1208 11:51:29.217845  7581 net.cpp:165] Memory required for data: 14688096
I1208 11:51:29.217847  7581 layer_factory.hpp:77] Creating layer conv1
I1208 11:51:29.217859  7581 net.cpp:100] Creating Layer conv1
I1208 11:51:29.217861  7581 net.cpp:434] conv1 <- data_data_0_split_0
I1208 11:51:29.217866  7581 net.cpp:408] conv1 -> conv1
I1208 11:51:29.569473  7581 net.cpp:150] Setting up conv1
I1208 11:51:29.569490  7581 net.cpp:157] Top shape: 1 32 150 255 (1224000)
I1208 11:51:29.569492  7581 net.cpp:165] Memory required for data: 19584096
I1208 11:51:29.569507  7581 layer_factory.hpp:77] Creating layer conv1/bn
I1208 11:51:29.569515  7581 net.cpp:100] Creating Layer conv1/bn
I1208 11:51:29.569517  7581 net.cpp:434] conv1/bn <- conv1
I1208 11:51:29.569521  7581 net.cpp:395] conv1/bn -> conv1 (in-place)
I1208 11:51:29.570087  7581 net.cpp:150] Setting up conv1/bn
I1208 11:51:29.570094  7581 net.cpp:157] Top shape: 1 32 150 255 (1224000)
I1208 11:51:29.570097  7581 net.cpp:165] Memory required for data: 24480096
I1208 11:51:29.570104  7581 layer_factory.hpp:77] Creating layer conv1/scale
I1208 11:51:29.570111  7581 net.cpp:100] Creating Layer conv1/scale
I1208 11:51:29.570113  7581 net.cpp:434] conv1/scale <- conv1
I1208 11:51:29.570117  7581 net.cpp:395] conv1/scale -> conv1 (in-place)
I1208 11:51:29.570145  7581 layer_factory.hpp:77] Creating layer conv1/scale
I1208 11:51:29.570232  7581 net.cpp:150] Setting up conv1/scale
I1208 11:51:29.570236  7581 net.cpp:157] Top shape: 1 32 150 255 (1224000)
I1208 11:51:29.570238  7581 net.cpp:165] Memory required for data: 29376096
I1208 11:51:29.570242  7581 layer_factory.hpp:77] Creating layer relu1
I1208 11:51:29.570245  7581 net.cpp:100] Creating Layer relu1
I1208 11:51:29.570247  7581 net.cpp:434] relu1 <- conv1
I1208 11:51:29.570250  7581 net.cpp:395] relu1 -> conv1 (in-place)
I1208 11:51:29.570483  7581 net.cpp:150] Setting up relu1
I1208 11:51:29.570488  7581 net.cpp:157] Top shape: 1 32 150 255 (1224000)
I1208 11:51:29.570489  7581 net.cpp:165] Memory required for data: 34272096
I1208 11:51:29.570492  7581 layer_factory.hpp:77] Creating layer conv2_1/dw
I1208 11:51:29.570497  7581 net.cpp:100] Creating Layer conv2_1/dw
I1208 11:51:29.570498  7581 net.cpp:434] conv2_1/dw <- conv1
I1208 11:51:29.570502  7581 net.cpp:408] conv2_1/dw -> conv2_1/dw
I1208 11:51:29.570628  7581 net.cpp:150] Setting up conv2_1/dw
I1208 11:51:29.570632  7581 net.cpp:157] Top shape: 1 32 150 255 (1224000)
I1208 11:51:29.570634  7581 net.cpp:165] Memory required for data: 39168096
I1208 11:51:29.570636  7581 layer_factory.hpp:77] Creating layer conv2_1/dw/bn
I1208 11:51:29.570641  7581 net.cpp:100] Creating Layer conv2_1/dw/bn
I1208 11:51:29.570642  7581 net.cpp:434] conv2_1/dw/bn <- conv2_1/dw
I1208 11:51:29.570644  7581 net.cpp:395] conv2_1/dw/bn -> conv2_1/dw (in-place)
I1208 11:51:29.570765  7581 net.cpp:150] Setting up conv2_1/dw/bn
I1208 11:51:29.570770  7581 net.cpp:157] Top shape: 1 32 150 255 (1224000)
I1208 11:51:29.570771  7581 net.cpp:165] Memory required for data: 44064096
I1208 11:51:29.570777  7581 layer_factory.hpp:77] Creating layer conv2_1/dw/scale
I1208 11:51:29.570781  7581 net.cpp:100] Creating Layer conv2_1/dw/scale
I1208 11:51:29.570783  7581 net.cpp:434] conv2_1/dw/scale <- conv2_1/dw
I1208 11:51:29.570786  7581 net.cpp:395] conv2_1/dw/scale -> conv2_1/dw (in-place)
I1208 11:51:29.570808  7581 layer_factory.hpp:77] Creating layer conv2_1/dw/scale
I1208 11:51:29.570893  7581 net.cpp:150] Setting up conv2_1/dw/scale
I1208 11:51:29.570906  7581 net.cpp:157] Top shape: 1 32 150 255 (1224000)
I1208 11:51:29.570907  7581 net.cpp:165] Memory required for data: 48960096
I1208 11:51:29.570911  7581 layer_factory.hpp:77] Creating layer relu2_1/dw
I1208 11:51:29.570914  7581 net.cpp:100] Creating Layer relu2_1/dw
I1208 11:51:29.570916  7581 net.cpp:434] relu2_1/dw <- conv2_1/dw
I1208 11:51:29.570919  7581 net.cpp:395] relu2_1/dw -> conv2_1/dw (in-place)
I1208 11:51:29.571280  7581 net.cpp:150] Setting up relu2_1/dw
I1208 11:51:29.571286  7581 net.cpp:157] Top shape: 1 32 150 255 (1224000)
I1208 11:51:29.571288  7581 net.cpp:165] Memory required for data: 53856096
I1208 11:51:29.571290  7581 layer_factory.hpp:77] Creating layer conv2_1/sep
I1208 11:51:29.571295  7581 net.cpp:100] Creating Layer conv2_1/sep
I1208 11:51:29.571298  7581 net.cpp:434] conv2_1/sep <- conv2_1/dw
I1208 11:51:29.571302  7581 net.cpp:408] conv2_1/sep -> conv2_1/sep
I1208 11:51:29.572742  7581 net.cpp:150] Setting up conv2_1/sep
I1208 11:51:29.572751  7581 net.cpp:157] Top shape: 1 64 150 255 (2448000)
I1208 11:51:29.572752  7581 net.cpp:165] Memory required for data: 63648096
I1208 11:51:29.572755  7581 layer_factory.hpp:77] Creating layer conv2_1/sep/bn
I1208 11:51:29.572760  7581 net.cpp:100] Creating Layer conv2_1/sep/bn
I1208 11:51:29.572762  7581 net.cpp:434] conv2_1/sep/bn <- conv2_1/sep
I1208 11:51:29.572764  7581 net.cpp:395] conv2_1/sep/bn -> conv2_1/sep (in-place)
I1208 11:51:29.572894  7581 net.cpp:150] Setting up conv2_1/sep/bn
I1208 11:51:29.572898  7581 net.cpp:157] Top shape: 1 64 150 255 (2448000)
I1208 11:51:29.572901  7581 net.cpp:165] Memory required for data: 73440096
I1208 11:51:29.572904  7581 layer_factory.hpp:77] Creating layer conv2_1/sep/scale
I1208 11:51:29.572908  7581 net.cpp:100] Creating Layer conv2_1/sep/scale
I1208 11:51:29.572909  7581 net.cpp:434] conv2_1/sep/scale <- conv2_1/sep
I1208 11:51:29.572912  7581 net.cpp:395] conv2_1/sep/scale -> conv2_1/sep (in-place)
I1208 11:51:29.572937  7581 layer_factory.hpp:77] Creating layer conv2_1/sep/scale
I1208 11:51:29.573024  7581 net.cpp:150] Setting up conv2_1/sep/scale
I1208 11:51:29.573027  7581 net.cpp:157] Top shape: 1 64 150 255 (2448000)
I1208 11:51:29.573029  7581 net.cpp:165] Memory required for data: 83232096
I1208 11:51:29.573035  7581 layer_factory.hpp:77] Creating layer relu2_1/sep
I1208 11:51:29.573038  7581 net.cpp:100] Creating Layer relu2_1/sep
I1208 11:51:29.573040  7581 net.cpp:434] relu2_1/sep <- conv2_1/sep
I1208 11:51:29.573042  7581 net.cpp:395] relu2_1/sep -> conv2_1/sep (in-place)
I1208 11:51:29.573297  7581 net.cpp:150] Setting up relu2_1/sep
I1208 11:51:29.573302  7581 net.cpp:157] Top shape: 1 64 150 255 (2448000)
I1208 11:51:29.573304  7581 net.cpp:165] Memory required for data: 93024096
I1208 11:51:29.573307  7581 layer_factory.hpp:77] Creating layer conv2_2/dw
I1208 11:51:29.573310  7581 net.cpp:100] Creating Layer conv2_2/dw
I1208 11:51:29.573312  7581 net.cpp:434] conv2_2/dw <- conv2_1/sep
I1208 11:51:29.573316  7581 net.cpp:408] conv2_2/dw -> conv2_2/dw
I1208 11:51:29.573448  7581 net.cpp:150] Setting up conv2_2/dw
I1208 11:51:29.573452  7581 net.cpp:157] Top shape: 1 64 75 128 (614400)
I1208 11:51:29.573454  7581 net.cpp:165] Memory required for data: 95481696
I1208 11:51:29.573457  7581 layer_factory.hpp:77] Creating layer conv2_2/dw/bn
I1208 11:51:29.573460  7581 net.cpp:100] Creating Layer conv2_2/dw/bn
I1208 11:51:29.573462  7581 net.cpp:434] conv2_2/dw/bn <- conv2_2/dw
I1208 11:51:29.573464  7581 net.cpp:395] conv2_2/dw/bn -> conv2_2/dw (in-place)
I1208 11:51:29.574009  7581 net.cpp:150] Setting up conv2_2/dw/bn
I1208 11:51:29.574015  7581 net.cpp:157] Top shape: 1 64 75 128 (614400)
I1208 11:51:29.574018  7581 net.cpp:165] Memory required for data: 97939296
I1208 11:51:29.574023  7581 layer_factory.hpp:77] Creating layer conv2_2/dw/scale
I1208 11:51:29.574028  7581 net.cpp:100] Creating Layer conv2_2/dw/scale
I1208 11:51:29.574030  7581 net.cpp:434] conv2_2/dw/scale <- conv2_2/dw
I1208 11:51:29.574033  7581 net.cpp:395] conv2_2/dw/scale -> conv2_2/dw (in-place)
I1208 11:51:29.574069  7581 layer_factory.hpp:77] Creating layer conv2_2/dw/scale
I1208 11:51:29.574139  7581 net.cpp:150] Setting up conv2_2/dw/scale
I1208 11:51:29.574143  7581 net.cpp:157] Top shape: 1 64 75 128 (614400)
I1208 11:51:29.574146  7581 net.cpp:165] Memory required for data: 100396896
I1208 11:51:29.574149  7581 layer_factory.hpp:77] Creating layer relu2_2/dw
I1208 11:51:29.574151  7581 net.cpp:100] Creating Layer relu2_2/dw
I1208 11:51:29.574153  7581 net.cpp:434] relu2_2/dw <- conv2_2/dw
I1208 11:51:29.574156  7581 net.cpp:395] relu2_2/dw -> conv2_2/dw (in-place)
I1208 11:51:29.575124  7581 net.cpp:150] Setting up relu2_2/dw
I1208 11:51:29.575131  7581 net.cpp:157] Top shape: 1 64 75 128 (614400)
I1208 11:51:29.575134  7581 net.cpp:165] Memory required for data: 102854496
I1208 11:51:29.575135  7581 layer_factory.hpp:77] Creating layer conv2_2/sep
I1208 11:51:29.575141  7581 net.cpp:100] Creating Layer conv2_2/sep
I1208 11:51:29.575143  7581 net.cpp:434] conv2_2/sep <- conv2_2/dw
I1208 11:51:29.575147  7581 net.cpp:408] conv2_2/sep -> conv2_2/sep
I1208 11:51:29.576301  7581 net.cpp:150] Setting up conv2_2/sep
I1208 11:51:29.576309  7581 net.cpp:157] Top shape: 1 128 75 128 (1228800)
I1208 11:51:29.576310  7581 net.cpp:165] Memory required for data: 107769696
I1208 11:51:29.576314  7581 layer_factory.hpp:77] Creating layer conv2_2/sep/bn
I1208 11:51:29.576318  7581 net.cpp:100] Creating Layer conv2_2/sep/bn
I1208 11:51:29.576321  7581 net.cpp:434] conv2_2/sep/bn <- conv2_2/sep
I1208 11:51:29.576323  7581 net.cpp:395] conv2_2/sep/bn -> conv2_2/sep (in-place)
I1208 11:51:29.576443  7581 net.cpp:150] Setting up conv2_2/sep/bn
I1208 11:51:29.576447  7581 net.cpp:157] Top shape: 1 128 75 128 (1228800)
I1208 11:51:29.576449  7581 net.cpp:165] Memory required for data: 112684896
I1208 11:51:29.576453  7581 layer_factory.hpp:77] Creating layer conv2_2/sep/scale
I1208 11:51:29.576457  7581 net.cpp:100] Creating Layer conv2_2/sep/scale
I1208 11:51:29.576458  7581 net.cpp:434] conv2_2/sep/scale <- conv2_2/sep
I1208 11:51:29.576462  7581 net.cpp:395] conv2_2/sep/scale -> conv2_2/sep (in-place)
I1208 11:51:29.576485  7581 layer_factory.hpp:77] Creating layer conv2_2/sep/scale
I1208 11:51:29.576551  7581 net.cpp:150] Setting up conv2_2/sep/scale
I1208 11:51:29.576555  7581 net.cpp:157] Top shape: 1 128 75 128 (1228800)
I1208 11:51:29.576557  7581 net.cpp:165] Memory required for data: 117600096
I1208 11:51:29.576560  7581 layer_factory.hpp:77] Creating layer relu2_2/sep
I1208 11:51:29.576563  7581 net.cpp:100] Creating Layer relu2_2/sep
I1208 11:51:29.576565  7581 net.cpp:434] relu2_2/sep <- conv2_2/sep
I1208 11:51:29.576567  7581 net.cpp:395] relu2_2/sep -> conv2_2/sep (in-place)
I1208 11:51:29.576827  7581 net.cpp:150] Setting up relu2_2/sep
I1208 11:51:29.576831  7581 net.cpp:157] Top shape: 1 128 75 128 (1228800)
I1208 11:51:29.576834  7581 net.cpp:165] Memory required for data: 122515296
I1208 11:51:29.576836  7581 layer_factory.hpp:77] Creating layer conv3_1/dw
I1208 11:51:29.576841  7581 net.cpp:100] Creating Layer conv3_1/dw
I1208 11:51:29.576843  7581 net.cpp:434] conv3_1/dw <- conv2_2/sep
I1208 11:51:29.576846  7581 net.cpp:408] conv3_1/dw -> conv3_1/dw
I1208 11:51:29.576975  7581 net.cpp:150] Setting up conv3_1/dw
I1208 11:51:29.576979  7581 net.cpp:157] Top shape: 1 128 75 128 (1228800)
I1208 11:51:29.576982  7581 net.cpp:165] Memory required for data: 127430496
I1208 11:51:29.576984  7581 layer_factory.hpp:77] Creating layer conv3_1/dw/bn
I1208 11:51:29.576989  7581 net.cpp:100] Creating Layer conv3_1/dw/bn
I1208 11:51:29.576992  7581 net.cpp:434] conv3_1/dw/bn <- conv3_1/dw
I1208 11:51:29.576993  7581 net.cpp:395] conv3_1/dw/bn -> conv3_1/dw (in-place)
I1208 11:51:29.577107  7581 net.cpp:150] Setting up conv3_1/dw/bn
I1208 11:51:29.577111  7581 net.cpp:157] Top shape: 1 128 75 128 (1228800)
I1208 11:51:29.577113  7581 net.cpp:165] Memory required for data: 132345696
I1208 11:51:29.577121  7581 layer_factory.hpp:77] Creating layer conv3_1/dw/scale
I1208 11:51:29.577126  7581 net.cpp:100] Creating Layer conv3_1/dw/scale
I1208 11:51:29.577136  7581 net.cpp:434] conv3_1/dw/scale <- conv3_1/dw
I1208 11:51:29.577139  7581 net.cpp:395] conv3_1/dw/scale -> conv3_1/dw (in-place)
I1208 11:51:29.577163  7581 layer_factory.hpp:77] Creating layer conv3_1/dw/scale
I1208 11:51:29.577227  7581 net.cpp:150] Setting up conv3_1/dw/scale
I1208 11:51:29.577232  7581 net.cpp:157] Top shape: 1 128 75 128 (1228800)
I1208 11:51:29.577234  7581 net.cpp:165] Memory required for data: 137260896
I1208 11:51:29.577237  7581 layer_factory.hpp:77] Creating layer relu3_1/dw
I1208 11:51:29.577240  7581 net.cpp:100] Creating Layer relu3_1/dw
I1208 11:51:29.577244  7581 net.cpp:434] relu3_1/dw <- conv3_1/dw
I1208 11:51:29.577247  7581 net.cpp:395] relu3_1/dw -> conv3_1/dw (in-place)
I1208 11:51:29.577603  7581 net.cpp:150] Setting up relu3_1/dw
I1208 11:51:29.577610  7581 net.cpp:157] Top shape: 1 128 75 128 (1228800)
I1208 11:51:29.577612  7581 net.cpp:165] Memory required for data: 142176096
I1208 11:51:29.577615  7581 layer_factory.hpp:77] Creating layer conv3_1/sep
I1208 11:51:29.577620  7581 net.cpp:100] Creating Layer conv3_1/sep
I1208 11:51:29.577623  7581 net.cpp:434] conv3_1/sep <- conv3_1/dw
I1208 11:51:29.577627  7581 net.cpp:408] conv3_1/sep -> conv3_1/sep
I1208 11:51:29.578716  7581 net.cpp:150] Setting up conv3_1/sep
I1208 11:51:29.578722  7581 net.cpp:157] Top shape: 1 128 75 128 (1228800)
I1208 11:51:29.578724  7581 net.cpp:165] Memory required for data: 147091296
I1208 11:51:29.578728  7581 layer_factory.hpp:77] Creating layer conv3_1/sep/bn
I1208 11:51:29.578732  7581 net.cpp:100] Creating Layer conv3_1/sep/bn
I1208 11:51:29.578735  7581 net.cpp:434] conv3_1/sep/bn <- conv3_1/sep
I1208 11:51:29.578738  7581 net.cpp:395] conv3_1/sep/bn -> conv3_1/sep (in-place)
I1208 11:51:29.578860  7581 net.cpp:150] Setting up conv3_1/sep/bn
I1208 11:51:29.578863  7581 net.cpp:157] Top shape: 1 128 75 128 (1228800)
I1208 11:51:29.578866  7581 net.cpp:165] Memory required for data: 152006496
I1208 11:51:29.578869  7581 layer_factory.hpp:77] Creating layer conv3_1/sep/scale
I1208 11:51:29.578873  7581 net.cpp:100] Creating Layer conv3_1/sep/scale
I1208 11:51:29.578876  7581 net.cpp:434] conv3_1/sep/scale <- conv3_1/sep
I1208 11:51:29.578879  7581 net.cpp:395] conv3_1/sep/scale -> conv3_1/sep (in-place)
I1208 11:51:29.578902  7581 layer_factory.hpp:77] Creating layer conv3_1/sep/scale
I1208 11:51:29.578968  7581 net.cpp:150] Setting up conv3_1/sep/scale
I1208 11:51:29.578972  7581 net.cpp:157] Top shape: 1 128 75 128 (1228800)
I1208 11:51:29.578974  7581 net.cpp:165] Memory required for data: 156921696
I1208 11:51:29.578977  7581 layer_factory.hpp:77] Creating layer relu3_1/sep
I1208 11:51:29.578981  7581 net.cpp:100] Creating Layer relu3_1/sep
I1208 11:51:29.578984  7581 net.cpp:434] relu3_1/sep <- conv3_1/sep
I1208 11:51:29.578985  7581 net.cpp:395] relu3_1/sep -> conv3_1/sep (in-place)
I1208 11:51:29.579241  7581 net.cpp:150] Setting up relu3_1/sep
I1208 11:51:29.579246  7581 net.cpp:157] Top shape: 1 128 75 128 (1228800)
I1208 11:51:29.579249  7581 net.cpp:165] Memory required for data: 161836896
I1208 11:51:29.579250  7581 layer_factory.hpp:77] Creating layer conv3_2/dw
I1208 11:51:29.579255  7581 net.cpp:100] Creating Layer conv3_2/dw
I1208 11:51:29.579258  7581 net.cpp:434] conv3_2/dw <- conv3_1/sep
I1208 11:51:29.579262  7581 net.cpp:408] conv3_2/dw -> conv3_2/dw
I1208 11:51:29.579391  7581 net.cpp:150] Setting up conv3_2/dw
I1208 11:51:29.579394  7581 net.cpp:157] Top shape: 1 128 38 64 (311296)
I1208 11:51:29.579397  7581 net.cpp:165] Memory required for data: 163082080
I1208 11:51:29.579399  7581 layer_factory.hpp:77] Creating layer conv3_2/dw/bn
I1208 11:51:29.579403  7581 net.cpp:100] Creating Layer conv3_2/dw/bn
I1208 11:51:29.579406  7581 net.cpp:434] conv3_2/dw/bn <- conv3_2/dw
I1208 11:51:29.579409  7581 net.cpp:395] conv3_2/dw/bn -> conv3_2/dw (in-place)
I1208 11:51:29.579526  7581 net.cpp:150] Setting up conv3_2/dw/bn
I1208 11:51:29.579530  7581 net.cpp:157] Top shape: 1 128 38 64 (311296)
I1208 11:51:29.579532  7581 net.cpp:165] Memory required for data: 164327264
I1208 11:51:29.579545  7581 layer_factory.hpp:77] Creating layer conv3_2/dw/scale
I1208 11:51:29.579551  7581 net.cpp:100] Creating Layer conv3_2/dw/scale
I1208 11:51:29.579553  7581 net.cpp:434] conv3_2/dw/scale <- conv3_2/dw
I1208 11:51:29.579556  7581 net.cpp:395] conv3_2/dw/scale -> conv3_2/dw (in-place)
I1208 11:51:29.579581  7581 layer_factory.hpp:77] Creating layer conv3_2/dw/scale
I1208 11:51:29.579643  7581 net.cpp:150] Setting up conv3_2/dw/scale
I1208 11:51:29.579648  7581 net.cpp:157] Top shape: 1 128 38 64 (311296)
I1208 11:51:29.579649  7581 net.cpp:165] Memory required for data: 165572448
I1208 11:51:29.579653  7581 layer_factory.hpp:77] Creating layer relu3_2/dw
I1208 11:51:29.579658  7581 net.cpp:100] Creating Layer relu3_2/dw
I1208 11:51:29.579659  7581 net.cpp:434] relu3_2/dw <- conv3_2/dw
I1208 11:51:29.579663  7581 net.cpp:395] relu3_2/dw -> conv3_2/dw (in-place)
I1208 11:51:29.580652  7581 net.cpp:150] Setting up relu3_2/dw
I1208 11:51:29.580660  7581 net.cpp:157] Top shape: 1 128 38 64 (311296)
I1208 11:51:29.580663  7581 net.cpp:165] Memory required for data: 166817632
I1208 11:51:29.580665  7581 layer_factory.hpp:77] Creating layer conv3_2/sep
I1208 11:51:29.580672  7581 net.cpp:100] Creating Layer conv3_2/sep
I1208 11:51:29.580674  7581 net.cpp:434] conv3_2/sep <- conv3_2/dw
I1208 11:51:29.580678  7581 net.cpp:408] conv3_2/sep -> conv3_2/sep
I1208 11:51:29.581889  7581 net.cpp:150] Setting up conv3_2/sep
I1208 11:51:29.581897  7581 net.cpp:157] Top shape: 1 256 38 64 (622592)
I1208 11:51:29.581899  7581 net.cpp:165] Memory required for data: 169308000
I1208 11:51:29.581902  7581 layer_factory.hpp:77] Creating layer conv3_2/sep/bn
I1208 11:51:29.581907  7581 net.cpp:100] Creating Layer conv3_2/sep/bn
I1208 11:51:29.581910  7581 net.cpp:434] conv3_2/sep/bn <- conv3_2/sep
I1208 11:51:29.581913  7581 net.cpp:395] conv3_2/sep/bn -> conv3_2/sep (in-place)
I1208 11:51:29.582033  7581 net.cpp:150] Setting up conv3_2/sep/bn
I1208 11:51:29.582037  7581 net.cpp:157] Top shape: 1 256 38 64 (622592)
I1208 11:51:29.582041  7581 net.cpp:165] Memory required for data: 171798368
I1208 11:51:29.582044  7581 layer_factory.hpp:77] Creating layer conv3_2/sep/scale
I1208 11:51:29.582048  7581 net.cpp:100] Creating Layer conv3_2/sep/scale
I1208 11:51:29.582051  7581 net.cpp:434] conv3_2/sep/scale <- conv3_2/sep
I1208 11:51:29.582054  7581 net.cpp:395] conv3_2/sep/scale -> conv3_2/sep (in-place)
I1208 11:51:29.582077  7581 layer_factory.hpp:77] Creating layer conv3_2/sep/scale
I1208 11:51:29.582144  7581 net.cpp:150] Setting up conv3_2/sep/scale
I1208 11:51:29.582147  7581 net.cpp:157] Top shape: 1 256 38 64 (622592)
I1208 11:51:29.582150  7581 net.cpp:165] Memory required for data: 174288736
I1208 11:51:29.582154  7581 layer_factory.hpp:77] Creating layer relu3_2/sep
I1208 11:51:29.582156  7581 net.cpp:100] Creating Layer relu3_2/sep
I1208 11:51:29.582159  7581 net.cpp:434] relu3_2/sep <- conv3_2/sep
I1208 11:51:29.582162  7581 net.cpp:395] relu3_2/sep -> conv3_2/sep (in-place)
I1208 11:51:29.582423  7581 net.cpp:150] Setting up relu3_2/sep
I1208 11:51:29.582428  7581 net.cpp:157] Top shape: 1 256 38 64 (622592)
I1208 11:51:29.582432  7581 net.cpp:165] Memory required for data: 176779104
I1208 11:51:29.582433  7581 layer_factory.hpp:77] Creating layer conv4_1/dw
I1208 11:51:29.582438  7581 net.cpp:100] Creating Layer conv4_1/dw
I1208 11:51:29.582440  7581 net.cpp:434] conv4_1/dw <- conv3_2/sep
I1208 11:51:29.582443  7581 net.cpp:408] conv4_1/dw -> conv4_1/dw
I1208 11:51:29.582579  7581 net.cpp:150] Setting up conv4_1/dw
I1208 11:51:29.582584  7581 net.cpp:157] Top shape: 1 256 38 64 (622592)
I1208 11:51:29.582587  7581 net.cpp:165] Memory required for data: 179269472
I1208 11:51:29.582588  7581 layer_factory.hpp:77] Creating layer conv4_1/dw/bn
I1208 11:51:29.582592  7581 net.cpp:100] Creating Layer conv4_1/dw/bn
I1208 11:51:29.582594  7581 net.cpp:434] conv4_1/dw/bn <- conv4_1/dw
I1208 11:51:29.582597  7581 net.cpp:395] conv4_1/dw/bn -> conv4_1/dw (in-place)
I1208 11:51:29.582713  7581 net.cpp:150] Setting up conv4_1/dw/bn
I1208 11:51:29.582726  7581 net.cpp:157] Top shape: 1 256 38 64 (622592)
I1208 11:51:29.582727  7581 net.cpp:165] Memory required for data: 181759840
I1208 11:51:29.582731  7581 layer_factory.hpp:77] Creating layer conv4_1/dw/scale
I1208 11:51:29.582736  7581 net.cpp:100] Creating Layer conv4_1/dw/scale
I1208 11:51:29.582738  7581 net.cpp:434] conv4_1/dw/scale <- conv4_1/dw
I1208 11:51:29.582741  7581 net.cpp:395] conv4_1/dw/scale -> conv4_1/dw (in-place)
I1208 11:51:29.582765  7581 layer_factory.hpp:77] Creating layer conv4_1/dw/scale
I1208 11:51:29.582828  7581 net.cpp:150] Setting up conv4_1/dw/scale
I1208 11:51:29.582832  7581 net.cpp:157] Top shape: 1 256 38 64 (622592)
I1208 11:51:29.582834  7581 net.cpp:165] Memory required for data: 184250208
I1208 11:51:29.582837  7581 layer_factory.hpp:77] Creating layer relu4_1/dw
I1208 11:51:29.582841  7581 net.cpp:100] Creating Layer relu4_1/dw
I1208 11:51:29.582844  7581 net.cpp:434] relu4_1/dw <- conv4_1/dw
I1208 11:51:29.582845  7581 net.cpp:395] relu4_1/dw -> conv4_1/dw (in-place)
I1208 11:51:29.583205  7581 net.cpp:150] Setting up relu4_1/dw
I1208 11:51:29.583212  7581 net.cpp:157] Top shape: 1 256 38 64 (622592)
I1208 11:51:29.583214  7581 net.cpp:165] Memory required for data: 186740576
I1208 11:51:29.583216  7581 layer_factory.hpp:77] Creating layer conv4_1/sep
I1208 11:51:29.583222  7581 net.cpp:100] Creating Layer conv4_1/sep
I1208 11:51:29.583225  7581 net.cpp:434] conv4_1/sep <- conv4_1/dw
I1208 11:51:29.583230  7581 net.cpp:408] conv4_1/sep -> conv4_1/sep
I1208 11:51:29.584611  7581 net.cpp:150] Setting up conv4_1/sep
I1208 11:51:29.584619  7581 net.cpp:157] Top shape: 1 256 38 64 (622592)
I1208 11:51:29.584621  7581 net.cpp:165] Memory required for data: 189230944
I1208 11:51:29.584625  7581 layer_factory.hpp:77] Creating layer conv4_1/sep/bn
I1208 11:51:29.584630  7581 net.cpp:100] Creating Layer conv4_1/sep/bn
I1208 11:51:29.584632  7581 net.cpp:434] conv4_1/sep/bn <- conv4_1/sep
I1208 11:51:29.584635  7581 net.cpp:395] conv4_1/sep/bn -> conv4_1/sep (in-place)
I1208 11:51:29.584756  7581 net.cpp:150] Setting up conv4_1/sep/bn
I1208 11:51:29.584760  7581 net.cpp:157] Top shape: 1 256 38 64 (622592)
I1208 11:51:29.584762  7581 net.cpp:165] Memory required for data: 191721312
I1208 11:51:29.584766  7581 layer_factory.hpp:77] Creating layer conv4_1/sep/scale
I1208 11:51:29.584771  7581 net.cpp:100] Creating Layer conv4_1/sep/scale
I1208 11:51:29.584774  7581 net.cpp:434] conv4_1/sep/scale <- conv4_1/sep
I1208 11:51:29.584775  7581 net.cpp:395] conv4_1/sep/scale -> conv4_1/sep (in-place)
I1208 11:51:29.584800  7581 layer_factory.hpp:77] Creating layer conv4_1/sep/scale
I1208 11:51:29.584863  7581 net.cpp:150] Setting up conv4_1/sep/scale
I1208 11:51:29.584867  7581 net.cpp:157] Top shape: 1 256 38 64 (622592)
I1208 11:51:29.584869  7581 net.cpp:165] Memory required for data: 194211680
I1208 11:51:29.584877  7581 layer_factory.hpp:77] Creating layer relu4_1/sep
I1208 11:51:29.584882  7581 net.cpp:100] Creating Layer relu4_1/sep
I1208 11:51:29.584883  7581 net.cpp:434] relu4_1/sep <- conv4_1/sep
I1208 11:51:29.584885  7581 net.cpp:395] relu4_1/sep -> conv4_1/sep (in-place)
I1208 11:51:29.585150  7581 net.cpp:150] Setting up relu4_1/sep
I1208 11:51:29.585155  7581 net.cpp:157] Top shape: 1 256 38 64 (622592)
I1208 11:51:29.585157  7581 net.cpp:165] Memory required for data: 196702048
I1208 11:51:29.585160  7581 layer_factory.hpp:77] Creating layer conv4_2/dw
I1208 11:51:29.585165  7581 net.cpp:100] Creating Layer conv4_2/dw
I1208 11:51:29.585167  7581 net.cpp:434] conv4_2/dw <- conv4_1/sep
I1208 11:51:29.585170  7581 net.cpp:408] conv4_2/dw -> conv4_2/dw
I1208 11:51:29.585309  7581 net.cpp:150] Setting up conv4_2/dw
I1208 11:51:29.585312  7581 net.cpp:157] Top shape: 1 256 19 32 (155648)
I1208 11:51:29.585314  7581 net.cpp:165] Memory required for data: 197324640
I1208 11:51:29.585317  7581 layer_factory.hpp:77] Creating layer conv4_2/dw/bn
I1208 11:51:29.585320  7581 net.cpp:100] Creating Layer conv4_2/dw/bn
I1208 11:51:29.585330  7581 net.cpp:434] conv4_2/dw/bn <- conv4_2/dw
I1208 11:51:29.585333  7581 net.cpp:395] conv4_2/dw/bn -> conv4_2/dw (in-place)
I1208 11:51:29.585458  7581 net.cpp:150] Setting up conv4_2/dw/bn
I1208 11:51:29.585463  7581 net.cpp:157] Top shape: 1 256 19 32 (155648)
I1208 11:51:29.585464  7581 net.cpp:165] Memory required for data: 197947232
I1208 11:51:29.585469  7581 layer_factory.hpp:77] Creating layer conv4_2/dw/scale
I1208 11:51:29.585472  7581 net.cpp:100] Creating Layer conv4_2/dw/scale
I1208 11:51:29.585474  7581 net.cpp:434] conv4_2/dw/scale <- conv4_2/dw
I1208 11:51:29.585477  7581 net.cpp:395] conv4_2/dw/scale -> conv4_2/dw (in-place)
I1208 11:51:29.585501  7581 layer_factory.hpp:77] Creating layer conv4_2/dw/scale
I1208 11:51:29.585575  7581 net.cpp:150] Setting up conv4_2/dw/scale
I1208 11:51:29.585579  7581 net.cpp:157] Top shape: 1 256 19 32 (155648)
I1208 11:51:29.585582  7581 net.cpp:165] Memory required for data: 198569824
I1208 11:51:29.585587  7581 layer_factory.hpp:77] Creating layer relu4_2/dw
I1208 11:51:29.585589  7581 net.cpp:100] Creating Layer relu4_2/dw
I1208 11:51:29.585592  7581 net.cpp:434] relu4_2/dw <- conv4_2/dw
I1208 11:51:29.585593  7581 net.cpp:395] relu4_2/dw -> conv4_2/dw (in-place)
I1208 11:51:29.586571  7581 net.cpp:150] Setting up relu4_2/dw
I1208 11:51:29.586578  7581 net.cpp:157] Top shape: 1 256 19 32 (155648)
I1208 11:51:29.586580  7581 net.cpp:165] Memory required for data: 199192416
I1208 11:51:29.586583  7581 layer_factory.hpp:77] Creating layer conv4_2/sep
I1208 11:51:29.586591  7581 net.cpp:100] Creating Layer conv4_2/sep
I1208 11:51:29.586592  7581 net.cpp:434] conv4_2/sep <- conv4_2/dw
I1208 11:51:29.586596  7581 net.cpp:408] conv4_2/sep -> conv4_2/sep
I1208 11:51:29.588783  7581 net.cpp:150] Setting up conv4_2/sep
I1208 11:51:29.588793  7581 net.cpp:157] Top shape: 1 512 19 32 (311296)
I1208 11:51:29.588794  7581 net.cpp:165] Memory required for data: 200437600
I1208 11:51:29.588799  7581 layer_factory.hpp:77] Creating layer conv4_2/sep/bn
I1208 11:51:29.588804  7581 net.cpp:100] Creating Layer conv4_2/sep/bn
I1208 11:51:29.588806  7581 net.cpp:434] conv4_2/sep/bn <- conv4_2/sep
I1208 11:51:29.588810  7581 net.cpp:395] conv4_2/sep/bn -> conv4_2/sep (in-place)
I1208 11:51:29.588941  7581 net.cpp:150] Setting up conv4_2/sep/bn
I1208 11:51:29.588945  7581 net.cpp:157] Top shape: 1 512 19 32 (311296)
I1208 11:51:29.588948  7581 net.cpp:165] Memory required for data: 201682784
I1208 11:51:29.588951  7581 layer_factory.hpp:77] Creating layer conv4_2/sep/scale
I1208 11:51:29.588955  7581 net.cpp:100] Creating Layer conv4_2/sep/scale
I1208 11:51:29.588958  7581 net.cpp:434] conv4_2/sep/scale <- conv4_2/sep
I1208 11:51:29.588960  7581 net.cpp:395] conv4_2/sep/scale -> conv4_2/sep (in-place)
I1208 11:51:29.588985  7581 layer_factory.hpp:77] Creating layer conv4_2/sep/scale
I1208 11:51:29.589059  7581 net.cpp:150] Setting up conv4_2/sep/scale
I1208 11:51:29.589062  7581 net.cpp:157] Top shape: 1 512 19 32 (311296)
I1208 11:51:29.589064  7581 net.cpp:165] Memory required for data: 202927968
I1208 11:51:29.589067  7581 layer_factory.hpp:77] Creating layer relu4_2/sep
I1208 11:51:29.589071  7581 net.cpp:100] Creating Layer relu4_2/sep
I1208 11:51:29.589072  7581 net.cpp:434] relu4_2/sep <- conv4_2/sep
I1208 11:51:29.589076  7581 net.cpp:395] relu4_2/sep -> conv4_2/sep (in-place)
I1208 11:51:29.589340  7581 net.cpp:150] Setting up relu4_2/sep
I1208 11:51:29.589345  7581 net.cpp:157] Top shape: 1 512 19 32 (311296)
I1208 11:51:29.589347  7581 net.cpp:165] Memory required for data: 204173152
I1208 11:51:29.589349  7581 layer_factory.hpp:77] Creating layer conv5_1/dw
I1208 11:51:29.589354  7581 net.cpp:100] Creating Layer conv5_1/dw
I1208 11:51:29.589355  7581 net.cpp:434] conv5_1/dw <- conv4_2/sep
I1208 11:51:29.589359  7581 net.cpp:408] conv5_1/dw -> conv5_1/dw
I1208 11:51:29.589514  7581 net.cpp:150] Setting up conv5_1/dw
I1208 11:51:29.589517  7581 net.cpp:157] Top shape: 1 512 19 32 (311296)
I1208 11:51:29.589519  7581 net.cpp:165] Memory required for data: 205418336
I1208 11:51:29.589530  7581 layer_factory.hpp:77] Creating layer conv5_1/dw/bn
I1208 11:51:29.589534  7581 net.cpp:100] Creating Layer conv5_1/dw/bn
I1208 11:51:29.589536  7581 net.cpp:434] conv5_1/dw/bn <- conv5_1/dw
I1208 11:51:29.589538  7581 net.cpp:395] conv5_1/dw/bn -> conv5_1/dw (in-place)
I1208 11:51:29.589666  7581 net.cpp:150] Setting up conv5_1/dw/bn
I1208 11:51:29.589670  7581 net.cpp:157] Top shape: 1 512 19 32 (311296)
I1208 11:51:29.589671  7581 net.cpp:165] Memory required for data: 206663520
I1208 11:51:29.589675  7581 layer_factory.hpp:77] Creating layer conv5_1/dw/scale
I1208 11:51:29.589679  7581 net.cpp:100] Creating Layer conv5_1/dw/scale
I1208 11:51:29.589681  7581 net.cpp:434] conv5_1/dw/scale <- conv5_1/dw
I1208 11:51:29.589684  7581 net.cpp:395] conv5_1/dw/scale -> conv5_1/dw (in-place)
I1208 11:51:29.589709  7581 layer_factory.hpp:77] Creating layer conv5_1/dw/scale
I1208 11:51:29.589782  7581 net.cpp:150] Setting up conv5_1/dw/scale
I1208 11:51:29.589787  7581 net.cpp:157] Top shape: 1 512 19 32 (311296)
I1208 11:51:29.589788  7581 net.cpp:165] Memory required for data: 207908704
I1208 11:51:29.589792  7581 layer_factory.hpp:77] Creating layer relu5_1/dw
I1208 11:51:29.589794  7581 net.cpp:100] Creating Layer relu5_1/dw
I1208 11:51:29.589797  7581 net.cpp:434] relu5_1/dw <- conv5_1/dw
I1208 11:51:29.589798  7581 net.cpp:395] relu5_1/dw -> conv5_1/dw (in-place)
I1208 11:51:29.590159  7581 net.cpp:150] Setting up relu5_1/dw
I1208 11:51:29.590165  7581 net.cpp:157] Top shape: 1 512 19 32 (311296)
I1208 11:51:29.590167  7581 net.cpp:165] Memory required for data: 209153888
I1208 11:51:29.590169  7581 layer_factory.hpp:77] Creating layer conv5_1/sep
I1208 11:51:29.590175  7581 net.cpp:100] Creating Layer conv5_1/sep
I1208 11:51:29.590178  7581 net.cpp:434] conv5_1/sep <- conv5_1/dw
I1208 11:51:29.590181  7581 net.cpp:408] conv5_1/sep -> conv5_1/sep
I1208 11:51:29.592634  7581 net.cpp:150] Setting up conv5_1/sep
I1208 11:51:29.592641  7581 net.cpp:157] Top shape: 1 512 19 32 (311296)
I1208 11:51:29.592643  7581 net.cpp:165] Memory required for data: 210399072
I1208 11:51:29.592646  7581 layer_factory.hpp:77] Creating layer conv5_1/sep/bn
I1208 11:51:29.592650  7581 net.cpp:100] Creating Layer conv5_1/sep/bn
I1208 11:51:29.592653  7581 net.cpp:434] conv5_1/sep/bn <- conv5_1/sep
I1208 11:51:29.592655  7581 net.cpp:395] conv5_1/sep/bn -> conv5_1/sep (in-place)
I1208 11:51:29.592788  7581 net.cpp:150] Setting up conv5_1/sep/bn
I1208 11:51:29.592792  7581 net.cpp:157] Top shape: 1 512 19 32 (311296)
I1208 11:51:29.592793  7581 net.cpp:165] Memory required for data: 211644256
I1208 11:51:29.592797  7581 layer_factory.hpp:77] Creating layer conv5_1/sep/scale
I1208 11:51:29.592802  7581 net.cpp:100] Creating Layer conv5_1/sep/scale
I1208 11:51:29.592803  7581 net.cpp:434] conv5_1/sep/scale <- conv5_1/sep
I1208 11:51:29.592806  7581 net.cpp:395] conv5_1/sep/scale -> conv5_1/sep (in-place)
I1208 11:51:29.592831  7581 layer_factory.hpp:77] Creating layer conv5_1/sep/scale
I1208 11:51:29.592905  7581 net.cpp:150] Setting up conv5_1/sep/scale
I1208 11:51:29.592909  7581 net.cpp:157] Top shape: 1 512 19 32 (311296)
I1208 11:51:29.592911  7581 net.cpp:165] Memory required for data: 212889440
I1208 11:51:29.592913  7581 layer_factory.hpp:77] Creating layer relu5_1/sep
I1208 11:51:29.592917  7581 net.cpp:100] Creating Layer relu5_1/sep
I1208 11:51:29.592918  7581 net.cpp:434] relu5_1/sep <- conv5_1/sep
I1208 11:51:29.592921  7581 net.cpp:395] relu5_1/sep -> conv5_1/sep (in-place)
I1208 11:51:29.593185  7581 net.cpp:150] Setting up relu5_1/sep
I1208 11:51:29.593191  7581 net.cpp:157] Top shape: 1 512 19 32 (311296)
I1208 11:51:29.593194  7581 net.cpp:165] Memory required for data: 214134624
I1208 11:51:29.593194  7581 layer_factory.hpp:77] Creating layer conv5_2/dw
I1208 11:51:29.593199  7581 net.cpp:100] Creating Layer conv5_2/dw
I1208 11:51:29.593200  7581 net.cpp:434] conv5_2/dw <- conv5_1/sep
I1208 11:51:29.593204  7581 net.cpp:408] conv5_2/dw -> conv5_2/dw
I1208 11:51:29.593359  7581 net.cpp:150] Setting up conv5_2/dw
I1208 11:51:29.593369  7581 net.cpp:157] Top shape: 1 512 19 32 (311296)
I1208 11:51:29.593371  7581 net.cpp:165] Memory required for data: 215379808
I1208 11:51:29.593374  7581 layer_factory.hpp:77] Creating layer conv5_2/dw/bn
I1208 11:51:29.593379  7581 net.cpp:100] Creating Layer conv5_2/dw/bn
I1208 11:51:29.593380  7581 net.cpp:434] conv5_2/dw/bn <- conv5_2/dw
I1208 11:51:29.593384  7581 net.cpp:395] conv5_2/dw/bn -> conv5_2/dw (in-place)
I1208 11:51:29.593509  7581 net.cpp:150] Setting up conv5_2/dw/bn
I1208 11:51:29.593513  7581 net.cpp:157] Top shape: 1 512 19 32 (311296)
I1208 11:51:29.593515  7581 net.cpp:165] Memory required for data: 216624992
I1208 11:51:29.593519  7581 layer_factory.hpp:77] Creating layer conv5_2/dw/scale
I1208 11:51:29.593528  7581 net.cpp:100] Creating Layer conv5_2/dw/scale
I1208 11:51:29.593529  7581 net.cpp:434] conv5_2/dw/scale <- conv5_2/dw
I1208 11:51:29.593533  7581 net.cpp:395] conv5_2/dw/scale -> conv5_2/dw (in-place)
I1208 11:51:29.593559  7581 layer_factory.hpp:77] Creating layer conv5_2/dw/scale
I1208 11:51:29.593632  7581 net.cpp:150] Setting up conv5_2/dw/scale
I1208 11:51:29.593636  7581 net.cpp:157] Top shape: 1 512 19 32 (311296)
I1208 11:51:29.593638  7581 net.cpp:165] Memory required for data: 217870176
I1208 11:51:29.593642  7581 layer_factory.hpp:77] Creating layer relu5_2/dw
I1208 11:51:29.593647  7581 net.cpp:100] Creating Layer relu5_2/dw
I1208 11:51:29.593648  7581 net.cpp:434] relu5_2/dw <- conv5_2/dw
I1208 11:51:29.593650  7581 net.cpp:395] relu5_2/dw -> conv5_2/dw (in-place)
I1208 11:51:29.594012  7581 net.cpp:150] Setting up relu5_2/dw
I1208 11:51:29.594019  7581 net.cpp:157] Top shape: 1 512 19 32 (311296)
I1208 11:51:29.594022  7581 net.cpp:165] Memory required for data: 219115360
I1208 11:51:29.594023  7581 layer_factory.hpp:77] Creating layer conv5_2/sep
I1208 11:51:29.594029  7581 net.cpp:100] Creating Layer conv5_2/sep
I1208 11:51:29.594033  7581 net.cpp:434] conv5_2/sep <- conv5_2/dw
I1208 11:51:29.594036  7581 net.cpp:408] conv5_2/sep -> conv5_2/sep
I1208 11:51:29.597609  7581 net.cpp:150] Setting up conv5_2/sep
I1208 11:51:29.597620  7581 net.cpp:157] Top shape: 1 512 19 32 (311296)
I1208 11:51:29.597622  7581 net.cpp:165] Memory required for data: 220360544
I1208 11:51:29.597627  7581 layer_factory.hpp:77] Creating layer conv5_2/sep/bn
I1208 11:51:29.597631  7581 net.cpp:100] Creating Layer conv5_2/sep/bn
I1208 11:51:29.597635  7581 net.cpp:434] conv5_2/sep/bn <- conv5_2/sep
I1208 11:51:29.597638  7581 net.cpp:395] conv5_2/sep/bn -> conv5_2/sep (in-place)
I1208 11:51:29.597774  7581 net.cpp:150] Setting up conv5_2/sep/bn
I1208 11:51:29.597779  7581 net.cpp:157] Top shape: 1 512 19 32 (311296)
I1208 11:51:29.597780  7581 net.cpp:165] Memory required for data: 221605728
I1208 11:51:29.597784  7581 layer_factory.hpp:77] Creating layer conv5_2/sep/scale
I1208 11:51:29.597789  7581 net.cpp:100] Creating Layer conv5_2/sep/scale
I1208 11:51:29.597790  7581 net.cpp:434] conv5_2/sep/scale <- conv5_2/sep
I1208 11:51:29.597793  7581 net.cpp:395] conv5_2/sep/scale -> conv5_2/sep (in-place)
I1208 11:51:29.597820  7581 layer_factory.hpp:77] Creating layer conv5_2/sep/scale
I1208 11:51:29.597898  7581 net.cpp:150] Setting up conv5_2/sep/scale
I1208 11:51:29.597901  7581 net.cpp:157] Top shape: 1 512 19 32 (311296)
I1208 11:51:29.597903  7581 net.cpp:165] Memory required for data: 222850912
I1208 11:51:29.597906  7581 layer_factory.hpp:77] Creating layer relu5_2/sep
I1208 11:51:29.597909  7581 net.cpp:100] Creating Layer relu5_2/sep
I1208 11:51:29.597911  7581 net.cpp:434] relu5_2/sep <- conv5_2/sep
I1208 11:51:29.597913  7581 net.cpp:395] relu5_2/sep -> conv5_2/sep (in-place)
I1208 11:51:29.598179  7581 net.cpp:150] Setting up relu5_2/sep
I1208 11:51:29.598184  7581 net.cpp:157] Top shape: 1 512 19 32 (311296)
I1208 11:51:29.598186  7581 net.cpp:165] Memory required for data: 224096096
I1208 11:51:29.598188  7581 layer_factory.hpp:77] Creating layer conv5_3/dw
I1208 11:51:29.598192  7581 net.cpp:100] Creating Layer conv5_3/dw
I1208 11:51:29.598194  7581 net.cpp:434] conv5_3/dw <- conv5_2/sep
I1208 11:51:29.598207  7581 net.cpp:408] conv5_3/dw -> conv5_3/dw
I1208 11:51:29.598367  7581 net.cpp:150] Setting up conv5_3/dw
I1208 11:51:29.598372  7581 net.cpp:157] Top shape: 1 512 19 32 (311296)
I1208 11:51:29.598373  7581 net.cpp:165] Memory required for data: 225341280
I1208 11:51:29.598376  7581 layer_factory.hpp:77] Creating layer conv5_3/dw/bn
I1208 11:51:29.598379  7581 net.cpp:100] Creating Layer conv5_3/dw/bn
I1208 11:51:29.598381  7581 net.cpp:434] conv5_3/dw/bn <- conv5_3/dw
I1208 11:51:29.598383  7581 net.cpp:395] conv5_3/dw/bn -> conv5_3/dw (in-place)
I1208 11:51:29.598515  7581 net.cpp:150] Setting up conv5_3/dw/bn
I1208 11:51:29.598518  7581 net.cpp:157] Top shape: 1 512 19 32 (311296)
I1208 11:51:29.598520  7581 net.cpp:165] Memory required for data: 226586464
I1208 11:51:29.598523  7581 layer_factory.hpp:77] Creating layer conv5_3/dw/scale
I1208 11:51:29.598526  7581 net.cpp:100] Creating Layer conv5_3/dw/scale
I1208 11:51:29.598528  7581 net.cpp:434] conv5_3/dw/scale <- conv5_3/dw
I1208 11:51:29.598531  7581 net.cpp:395] conv5_3/dw/scale -> conv5_3/dw (in-place)
I1208 11:51:29.598557  7581 layer_factory.hpp:77] Creating layer conv5_3/dw/scale
I1208 11:51:29.598632  7581 net.cpp:150] Setting up conv5_3/dw/scale
I1208 11:51:29.598636  7581 net.cpp:157] Top shape: 1 512 19 32 (311296)
I1208 11:51:29.598637  7581 net.cpp:165] Memory required for data: 227831648
I1208 11:51:29.598640  7581 layer_factory.hpp:77] Creating layer relu5_3/dw
I1208 11:51:29.598644  7581 net.cpp:100] Creating Layer relu5_3/dw
I1208 11:51:29.598645  7581 net.cpp:434] relu5_3/dw <- conv5_3/dw
I1208 11:51:29.598647  7581 net.cpp:395] relu5_3/dw -> conv5_3/dw (in-place)
I1208 11:51:29.599009  7581 net.cpp:150] Setting up relu5_3/dw
I1208 11:51:29.599016  7581 net.cpp:157] Top shape: 1 512 19 32 (311296)
I1208 11:51:29.599018  7581 net.cpp:165] Memory required for data: 229076832
I1208 11:51:29.599020  7581 layer_factory.hpp:77] Creating layer conv5_3/sep
I1208 11:51:29.599025  7581 net.cpp:100] Creating Layer conv5_3/sep
I1208 11:51:29.599026  7581 net.cpp:434] conv5_3/sep <- conv5_3/dw
I1208 11:51:29.599030  7581 net.cpp:408] conv5_3/sep -> conv5_3/sep
I1208 11:51:29.601491  7581 net.cpp:150] Setting up conv5_3/sep
I1208 11:51:29.601498  7581 net.cpp:157] Top shape: 1 512 19 32 (311296)
I1208 11:51:29.601500  7581 net.cpp:165] Memory required for data: 230322016
I1208 11:51:29.601505  7581 layer_factory.hpp:77] Creating layer conv5_3/sep/bn
I1208 11:51:29.601507  7581 net.cpp:100] Creating Layer conv5_3/sep/bn
I1208 11:51:29.601510  7581 net.cpp:434] conv5_3/sep/bn <- conv5_3/sep
I1208 11:51:29.601512  7581 net.cpp:395] conv5_3/sep/bn -> conv5_3/sep (in-place)
I1208 11:51:29.601650  7581 net.cpp:150] Setting up conv5_3/sep/bn
I1208 11:51:29.601655  7581 net.cpp:157] Top shape: 1 512 19 32 (311296)
I1208 11:51:29.601655  7581 net.cpp:165] Memory required for data: 231567200
I1208 11:51:29.601660  7581 layer_factory.hpp:77] Creating layer conv5_3/sep/scale
I1208 11:51:29.601665  7581 net.cpp:100] Creating Layer conv5_3/sep/scale
I1208 11:51:29.601665  7581 net.cpp:434] conv5_3/sep/scale <- conv5_3/sep
I1208 11:51:29.601668  7581 net.cpp:395] conv5_3/sep/scale -> conv5_3/sep (in-place)
I1208 11:51:29.601694  7581 layer_factory.hpp:77] Creating layer conv5_3/sep/scale
I1208 11:51:29.601769  7581 net.cpp:150] Setting up conv5_3/sep/scale
I1208 11:51:29.601773  7581 net.cpp:157] Top shape: 1 512 19 32 (311296)
I1208 11:51:29.601775  7581 net.cpp:165] Memory required for data: 232812384
I1208 11:51:29.601778  7581 layer_factory.hpp:77] Creating layer relu5_3/sep
I1208 11:51:29.601783  7581 net.cpp:100] Creating Layer relu5_3/sep
I1208 11:51:29.601783  7581 net.cpp:434] relu5_3/sep <- conv5_3/sep
I1208 11:51:29.601785  7581 net.cpp:395] relu5_3/sep -> conv5_3/sep (in-place)
I1208 11:51:29.602054  7581 net.cpp:150] Setting up relu5_3/sep
I1208 11:51:29.602059  7581 net.cpp:157] Top shape: 1 512 19 32 (311296)
I1208 11:51:29.602061  7581 net.cpp:165] Memory required for data: 234057568
I1208 11:51:29.602063  7581 layer_factory.hpp:77] Creating layer conv5_4/dw
I1208 11:51:29.602074  7581 net.cpp:100] Creating Layer conv5_4/dw
I1208 11:51:29.602077  7581 net.cpp:434] conv5_4/dw <- conv5_3/sep
I1208 11:51:29.602080  7581 net.cpp:408] conv5_4/dw -> conv5_4/dw
I1208 11:51:29.602241  7581 net.cpp:150] Setting up conv5_4/dw
I1208 11:51:29.602244  7581 net.cpp:157] Top shape: 1 512 19 32 (311296)
I1208 11:51:29.602246  7581 net.cpp:165] Memory required for data: 235302752
I1208 11:51:29.602248  7581 layer_factory.hpp:77] Creating layer conv5_4/dw/bn
I1208 11:51:29.602252  7581 net.cpp:100] Creating Layer conv5_4/dw/bn
I1208 11:51:29.602253  7581 net.cpp:434] conv5_4/dw/bn <- conv5_4/dw
I1208 11:51:29.602257  7581 net.cpp:395] conv5_4/dw/bn -> conv5_4/dw (in-place)
I1208 11:51:29.602387  7581 net.cpp:150] Setting up conv5_4/dw/bn
I1208 11:51:29.602391  7581 net.cpp:157] Top shape: 1 512 19 32 (311296)
I1208 11:51:29.602392  7581 net.cpp:165] Memory required for data: 236547936
I1208 11:51:29.602396  7581 layer_factory.hpp:77] Creating layer conv5_4/dw/scale
I1208 11:51:29.602399  7581 net.cpp:100] Creating Layer conv5_4/dw/scale
I1208 11:51:29.602401  7581 net.cpp:434] conv5_4/dw/scale <- conv5_4/dw
I1208 11:51:29.602404  7581 net.cpp:395] conv5_4/dw/scale -> conv5_4/dw (in-place)
I1208 11:51:29.602429  7581 layer_factory.hpp:77] Creating layer conv5_4/dw/scale
I1208 11:51:29.602504  7581 net.cpp:150] Setting up conv5_4/dw/scale
I1208 11:51:29.602509  7581 net.cpp:157] Top shape: 1 512 19 32 (311296)
I1208 11:51:29.602510  7581 net.cpp:165] Memory required for data: 237793120
I1208 11:51:29.602514  7581 layer_factory.hpp:77] Creating layer relu5_4/dw
I1208 11:51:29.602517  7581 net.cpp:100] Creating Layer relu5_4/dw
I1208 11:51:29.602519  7581 net.cpp:434] relu5_4/dw <- conv5_4/dw
I1208 11:51:29.602522  7581 net.cpp:395] relu5_4/dw -> conv5_4/dw (in-place)
I1208 11:51:29.602785  7581 net.cpp:150] Setting up relu5_4/dw
I1208 11:51:29.602792  7581 net.cpp:157] Top shape: 1 512 19 32 (311296)
I1208 11:51:29.602793  7581 net.cpp:165] Memory required for data: 239038304
I1208 11:51:29.602795  7581 layer_factory.hpp:77] Creating layer conv5_4/sep
I1208 11:51:29.602800  7581 net.cpp:100] Creating Layer conv5_4/sep
I1208 11:51:29.602802  7581 net.cpp:434] conv5_4/sep <- conv5_4/dw
I1208 11:51:29.602804  7581 net.cpp:408] conv5_4/sep -> conv5_4/sep
I1208 11:51:29.606468  7581 net.cpp:150] Setting up conv5_4/sep
I1208 11:51:29.606480  7581 net.cpp:157] Top shape: 1 512 19 32 (311296)
I1208 11:51:29.606482  7581 net.cpp:165] Memory required for data: 240283488
I1208 11:51:29.606487  7581 layer_factory.hpp:77] Creating layer conv5_4/sep/bn
I1208 11:51:29.606490  7581 net.cpp:100] Creating Layer conv5_4/sep/bn
I1208 11:51:29.606493  7581 net.cpp:434] conv5_4/sep/bn <- conv5_4/sep
I1208 11:51:29.606496  7581 net.cpp:395] conv5_4/sep/bn -> conv5_4/sep (in-place)
I1208 11:51:29.606637  7581 net.cpp:150] Setting up conv5_4/sep/bn
I1208 11:51:29.606640  7581 net.cpp:157] Top shape: 1 512 19 32 (311296)
I1208 11:51:29.606642  7581 net.cpp:165] Memory required for data: 241528672
I1208 11:51:29.606647  7581 layer_factory.hpp:77] Creating layer conv5_4/sep/scale
I1208 11:51:29.606652  7581 net.cpp:100] Creating Layer conv5_4/sep/scale
I1208 11:51:29.606652  7581 net.cpp:434] conv5_4/sep/scale <- conv5_4/sep
I1208 11:51:29.606657  7581 net.cpp:395] conv5_4/sep/scale -> conv5_4/sep (in-place)
I1208 11:51:29.606683  7581 layer_factory.hpp:77] Creating layer conv5_4/sep/scale
I1208 11:51:29.606762  7581 net.cpp:150] Setting up conv5_4/sep/scale
I1208 11:51:29.606765  7581 net.cpp:157] Top shape: 1 512 19 32 (311296)
I1208 11:51:29.606767  7581 net.cpp:165] Memory required for data: 242773856
I1208 11:51:29.606770  7581 layer_factory.hpp:77] Creating layer relu5_4/sep
I1208 11:51:29.606773  7581 net.cpp:100] Creating Layer relu5_4/sep
I1208 11:51:29.606775  7581 net.cpp:434] relu5_4/sep <- conv5_4/sep
I1208 11:51:29.606778  7581 net.cpp:395] relu5_4/sep -> conv5_4/sep (in-place)
I1208 11:51:29.607048  7581 net.cpp:150] Setting up relu5_4/sep
I1208 11:51:29.607061  7581 net.cpp:157] Top shape: 1 512 19 32 (311296)
I1208 11:51:29.607064  7581 net.cpp:165] Memory required for data: 244019040
I1208 11:51:29.607065  7581 layer_factory.hpp:77] Creating layer conv5_5/dw
I1208 11:51:29.607070  7581 net.cpp:100] Creating Layer conv5_5/dw
I1208 11:51:29.607072  7581 net.cpp:434] conv5_5/dw <- conv5_4/sep
I1208 11:51:29.607076  7581 net.cpp:408] conv5_5/dw -> conv5_5/dw
I1208 11:51:29.607239  7581 net.cpp:150] Setting up conv5_5/dw
I1208 11:51:29.607244  7581 net.cpp:157] Top shape: 1 512 19 32 (311296)
I1208 11:51:29.607245  7581 net.cpp:165] Memory required for data: 245264224
I1208 11:51:29.607249  7581 layer_factory.hpp:77] Creating layer conv5_5/dw/bn
I1208 11:51:29.607251  7581 net.cpp:100] Creating Layer conv5_5/dw/bn
I1208 11:51:29.607254  7581 net.cpp:434] conv5_5/dw/bn <- conv5_5/dw
I1208 11:51:29.607255  7581 net.cpp:395] conv5_5/dw/bn -> conv5_5/dw (in-place)
I1208 11:51:29.607388  7581 net.cpp:150] Setting up conv5_5/dw/bn
I1208 11:51:29.607393  7581 net.cpp:157] Top shape: 1 512 19 32 (311296)
I1208 11:51:29.607393  7581 net.cpp:165] Memory required for data: 246509408
I1208 11:51:29.607406  7581 layer_factory.hpp:77] Creating layer conv5_5/dw/scale
I1208 11:51:29.607410  7581 net.cpp:100] Creating Layer conv5_5/dw/scale
I1208 11:51:29.607412  7581 net.cpp:434] conv5_5/dw/scale <- conv5_5/dw
I1208 11:51:29.607415  7581 net.cpp:395] conv5_5/dw/scale -> conv5_5/dw (in-place)
I1208 11:51:29.607442  7581 layer_factory.hpp:77] Creating layer conv5_5/dw/scale
I1208 11:51:29.607522  7581 net.cpp:150] Setting up conv5_5/dw/scale
I1208 11:51:29.607527  7581 net.cpp:157] Top shape: 1 512 19 32 (311296)
I1208 11:51:29.607528  7581 net.cpp:165] Memory required for data: 247754592
I1208 11:51:29.607532  7581 layer_factory.hpp:77] Creating layer relu5_5/dw
I1208 11:51:29.607535  7581 net.cpp:100] Creating Layer relu5_5/dw
I1208 11:51:29.607537  7581 net.cpp:434] relu5_5/dw <- conv5_5/dw
I1208 11:51:29.607540  7581 net.cpp:395] relu5_5/dw -> conv5_5/dw (in-place)
I1208 11:51:29.607808  7581 net.cpp:150] Setting up relu5_5/dw
I1208 11:51:29.607813  7581 net.cpp:157] Top shape: 1 512 19 32 (311296)
I1208 11:51:29.607815  7581 net.cpp:165] Memory required for data: 248999776
I1208 11:51:29.607817  7581 layer_factory.hpp:77] Creating layer conv5_5/sep
I1208 11:51:29.607821  7581 net.cpp:100] Creating Layer conv5_5/sep
I1208 11:51:29.607823  7581 net.cpp:434] conv5_5/sep <- conv5_5/dw
I1208 11:51:29.607827  7581 net.cpp:408] conv5_5/sep -> conv5_5/sep
I1208 11:51:29.610499  7581 net.cpp:150] Setting up conv5_5/sep
I1208 11:51:29.610507  7581 net.cpp:157] Top shape: 1 512 19 32 (311296)
I1208 11:51:29.610507  7581 net.cpp:165] Memory required for data: 250244960
I1208 11:51:29.610512  7581 layer_factory.hpp:77] Creating layer conv5_5/sep/bn
I1208 11:51:29.610515  7581 net.cpp:100] Creating Layer conv5_5/sep/bn
I1208 11:51:29.610517  7581 net.cpp:434] conv5_5/sep/bn <- conv5_5/sep
I1208 11:51:29.610520  7581 net.cpp:395] conv5_5/sep/bn -> conv5_5/sep (in-place)
I1208 11:51:29.610657  7581 net.cpp:150] Setting up conv5_5/sep/bn
I1208 11:51:29.610661  7581 net.cpp:157] Top shape: 1 512 19 32 (311296)
I1208 11:51:29.610662  7581 net.cpp:165] Memory required for data: 251490144
I1208 11:51:29.610666  7581 layer_factory.hpp:77] Creating layer conv5_5/sep/scale
I1208 11:51:29.610671  7581 net.cpp:100] Creating Layer conv5_5/sep/scale
I1208 11:51:29.610672  7581 net.cpp:434] conv5_5/sep/scale <- conv5_5/sep
I1208 11:51:29.610675  7581 net.cpp:395] conv5_5/sep/scale -> conv5_5/sep (in-place)
I1208 11:51:29.610702  7581 layer_factory.hpp:77] Creating layer conv5_5/sep/scale
I1208 11:51:29.610780  7581 net.cpp:150] Setting up conv5_5/sep/scale
I1208 11:51:29.610783  7581 net.cpp:157] Top shape: 1 512 19 32 (311296)
I1208 11:51:29.610785  7581 net.cpp:165] Memory required for data: 252735328
I1208 11:51:29.610787  7581 layer_factory.hpp:77] Creating layer relu5_5/sep
I1208 11:51:29.610791  7581 net.cpp:100] Creating Layer relu5_5/sep
I1208 11:51:29.610792  7581 net.cpp:434] relu5_5/sep <- conv5_5/sep
I1208 11:51:29.610802  7581 net.cpp:395] relu5_5/sep -> conv5_5/sep (in-place)
I1208 11:51:29.611071  7581 net.cpp:150] Setting up relu5_5/sep
I1208 11:51:29.611078  7581 net.cpp:157] Top shape: 1 512 19 32 (311296)
I1208 11:51:29.611078  7581 net.cpp:165] Memory required for data: 253980512
I1208 11:51:29.611080  7581 layer_factory.hpp:77] Creating layer conv5_5/sep_relu5_5/sep_0_split
I1208 11:51:29.611084  7581 net.cpp:100] Creating Layer conv5_5/sep_relu5_5/sep_0_split
I1208 11:51:29.611086  7581 net.cpp:434] conv5_5/sep_relu5_5/sep_0_split <- conv5_5/sep
I1208 11:51:29.611089  7581 net.cpp:408] conv5_5/sep_relu5_5/sep_0_split -> conv5_5/sep_relu5_5/sep_0_split_0
I1208 11:51:29.611096  7581 net.cpp:408] conv5_5/sep_relu5_5/sep_0_split -> conv5_5/sep_relu5_5/sep_0_split_1
I1208 11:51:29.611100  7581 net.cpp:408] conv5_5/sep_relu5_5/sep_0_split -> conv5_5/sep_relu5_5/sep_0_split_2
I1208 11:51:29.611104  7581 net.cpp:408] conv5_5/sep_relu5_5/sep_0_split -> conv5_5/sep_relu5_5/sep_0_split_3
I1208 11:51:29.611150  7581 net.cpp:150] Setting up conv5_5/sep_relu5_5/sep_0_split
I1208 11:51:29.611155  7581 net.cpp:157] Top shape: 1 512 19 32 (311296)
I1208 11:51:29.611158  7581 net.cpp:157] Top shape: 1 512 19 32 (311296)
I1208 11:51:29.611161  7581 net.cpp:157] Top shape: 1 512 19 32 (311296)
I1208 11:51:29.611165  7581 net.cpp:157] Top shape: 1 512 19 32 (311296)
I1208 11:51:29.611166  7581 net.cpp:165] Memory required for data: 258961248
I1208 11:51:29.611168  7581 layer_factory.hpp:77] Creating layer conv5_6/dw
I1208 11:51:29.611172  7581 net.cpp:100] Creating Layer conv5_6/dw
I1208 11:51:29.611174  7581 net.cpp:434] conv5_6/dw <- conv5_5/sep_relu5_5/sep_0_split_0
I1208 11:51:29.611177  7581 net.cpp:408] conv5_6/dw -> conv5_6/dw
I1208 11:51:29.611336  7581 net.cpp:150] Setting up conv5_6/dw
I1208 11:51:29.611340  7581 net.cpp:157] Top shape: 1 512 10 16 (81920)
I1208 11:51:29.611342  7581 net.cpp:165] Memory required for data: 259288928
I1208 11:51:29.611346  7581 layer_factory.hpp:77] Creating layer conv5_6/dw/bn
I1208 11:51:29.611348  7581 net.cpp:100] Creating Layer conv5_6/dw/bn
I1208 11:51:29.611351  7581 net.cpp:434] conv5_6/dw/bn <- conv5_6/dw
I1208 11:51:29.611353  7581 net.cpp:395] conv5_6/dw/bn -> conv5_6/dw (in-place)
I1208 11:51:29.611495  7581 net.cpp:150] Setting up conv5_6/dw/bn
I1208 11:51:29.611500  7581 net.cpp:157] Top shape: 1 512 10 16 (81920)
I1208 11:51:29.611501  7581 net.cpp:165] Memory required for data: 259616608
I1208 11:51:29.611505  7581 layer_factory.hpp:77] Creating layer conv5_6/dw/scale
I1208 11:51:29.611508  7581 net.cpp:100] Creating Layer conv5_6/dw/scale
I1208 11:51:29.611511  7581 net.cpp:434] conv5_6/dw/scale <- conv5_6/dw
I1208 11:51:29.611515  7581 net.cpp:395] conv5_6/dw/scale -> conv5_6/dw (in-place)
I1208 11:51:29.611538  7581 layer_factory.hpp:77] Creating layer conv5_6/dw/scale
I1208 11:51:29.611618  7581 net.cpp:150] Setting up conv5_6/dw/scale
I1208 11:51:29.611623  7581 net.cpp:157] Top shape: 1 512 10 16 (81920)
I1208 11:51:29.611625  7581 net.cpp:165] Memory required for data: 259944288
I1208 11:51:29.611629  7581 layer_factory.hpp:77] Creating layer relu5_6/dw
I1208 11:51:29.611631  7581 net.cpp:100] Creating Layer relu5_6/dw
I1208 11:51:29.611634  7581 net.cpp:434] relu5_6/dw <- conv5_6/dw
I1208 11:51:29.611636  7581 net.cpp:395] relu5_6/dw -> conv5_6/dw (in-place)
I1208 11:51:29.611899  7581 net.cpp:150] Setting up relu5_6/dw
I1208 11:51:29.611904  7581 net.cpp:157] Top shape: 1 512 10 16 (81920)
I1208 11:51:29.611907  7581 net.cpp:165] Memory required for data: 260271968
I1208 11:51:29.611909  7581 layer_factory.hpp:77] Creating layer conv5_6/sep
I1208 11:51:29.611913  7581 net.cpp:100] Creating Layer conv5_6/sep
I1208 11:51:29.611917  7581 net.cpp:434] conv5_6/sep <- conv5_6/dw
I1208 11:51:29.611919  7581 net.cpp:408] conv5_6/sep -> conv5_6/sep
I1208 11:51:29.617113  7581 net.cpp:150] Setting up conv5_6/sep
I1208 11:51:29.617126  7581 net.cpp:157] Top shape: 1 1024 10 16 (163840)
I1208 11:51:29.617128  7581 net.cpp:165] Memory required for data: 260927328
I1208 11:51:29.617143  7581 layer_factory.hpp:77] Creating layer conv5_6/sep/bn
I1208 11:51:29.617151  7581 net.cpp:100] Creating Layer conv5_6/sep/bn
I1208 11:51:29.617153  7581 net.cpp:434] conv5_6/sep/bn <- conv5_6/sep
I1208 11:51:29.617158  7581 net.cpp:395] conv5_6/sep/bn -> conv5_6/sep (in-place)
I1208 11:51:29.617302  7581 net.cpp:150] Setting up conv5_6/sep/bn
I1208 11:51:29.617307  7581 net.cpp:157] Top shape: 1 1024 10 16 (163840)
I1208 11:51:29.617310  7581 net.cpp:165] Memory required for data: 261582688
I1208 11:51:29.617313  7581 layer_factory.hpp:77] Creating layer conv5_6/sep/scale
I1208 11:51:29.617318  7581 net.cpp:100] Creating Layer conv5_6/sep/scale
I1208 11:51:29.617321  7581 net.cpp:434] conv5_6/sep/scale <- conv5_6/sep
I1208 11:51:29.617323  7581 net.cpp:395] conv5_6/sep/scale -> conv5_6/sep (in-place)
I1208 11:51:29.617349  7581 layer_factory.hpp:77] Creating layer conv5_6/sep/scale
I1208 11:51:29.617430  7581 net.cpp:150] Setting up conv5_6/sep/scale
I1208 11:51:29.617434  7581 net.cpp:157] Top shape: 1 1024 10 16 (163840)
I1208 11:51:29.617436  7581 net.cpp:165] Memory required for data: 262238048
I1208 11:51:29.617439  7581 layer_factory.hpp:77] Creating layer relu5_6/sep
I1208 11:51:29.617444  7581 net.cpp:100] Creating Layer relu5_6/sep
I1208 11:51:29.617445  7581 net.cpp:434] relu5_6/sep <- conv5_6/sep
I1208 11:51:29.617449  7581 net.cpp:395] relu5_6/sep -> conv5_6/sep (in-place)
I1208 11:51:29.617717  7581 net.cpp:150] Setting up relu5_6/sep
I1208 11:51:29.617723  7581 net.cpp:157] Top shape: 1 1024 10 16 (163840)
I1208 11:51:29.617725  7581 net.cpp:165] Memory required for data: 262893408
I1208 11:51:29.617727  7581 layer_factory.hpp:77] Creating layer conv6/dw
I1208 11:51:29.617733  7581 net.cpp:100] Creating Layer conv6/dw
I1208 11:51:29.617735  7581 net.cpp:434] conv6/dw <- conv5_6/sep
I1208 11:51:29.617739  7581 net.cpp:408] conv6/dw -> conv6/dw
I1208 11:51:29.617934  7581 net.cpp:150] Setting up conv6/dw
I1208 11:51:29.617938  7581 net.cpp:157] Top shape: 1 1024 10 16 (163840)
I1208 11:51:29.617940  7581 net.cpp:165] Memory required for data: 263548768
I1208 11:51:29.617944  7581 layer_factory.hpp:77] Creating layer conv6/dw/bn
I1208 11:51:29.617947  7581 net.cpp:100] Creating Layer conv6/dw/bn
I1208 11:51:29.617950  7581 net.cpp:434] conv6/dw/bn <- conv6/dw
I1208 11:51:29.617952  7581 net.cpp:395] conv6/dw/bn -> conv6/dw (in-place)
I1208 11:51:29.618088  7581 net.cpp:150] Setting up conv6/dw/bn
I1208 11:51:29.618090  7581 net.cpp:157] Top shape: 1 1024 10 16 (163840)
I1208 11:51:29.618093  7581 net.cpp:165] Memory required for data: 264204128
I1208 11:51:29.618096  7581 layer_factory.hpp:77] Creating layer conv6/dw/scale
I1208 11:51:29.618100  7581 net.cpp:100] Creating Layer conv6/dw/scale
I1208 11:51:29.618103  7581 net.cpp:434] conv6/dw/scale <- conv6/dw
I1208 11:51:29.618105  7581 net.cpp:395] conv6/dw/scale -> conv6/dw (in-place)
I1208 11:51:29.618130  7581 layer_factory.hpp:77] Creating layer conv6/dw/scale
I1208 11:51:29.618208  7581 net.cpp:150] Setting up conv6/dw/scale
I1208 11:51:29.618212  7581 net.cpp:157] Top shape: 1 1024 10 16 (163840)
I1208 11:51:29.618214  7581 net.cpp:165] Memory required for data: 264859488
I1208 11:51:29.618218  7581 layer_factory.hpp:77] Creating layer relu6/dw
I1208 11:51:29.618222  7581 net.cpp:100] Creating Layer relu6/dw
I1208 11:51:29.618224  7581 net.cpp:434] relu6/dw <- conv6/dw
I1208 11:51:29.618227  7581 net.cpp:395] relu6/dw -> conv6/dw (in-place)
I1208 11:51:29.618496  7581 net.cpp:150] Setting up relu6/dw
I1208 11:51:29.618501  7581 net.cpp:157] Top shape: 1 1024 10 16 (163840)
I1208 11:51:29.618504  7581 net.cpp:165] Memory required for data: 265514848
I1208 11:51:29.618505  7581 layer_factory.hpp:77] Creating layer conv6/sep
I1208 11:51:29.618511  7581 net.cpp:100] Creating Layer conv6/sep
I1208 11:51:29.618513  7581 net.cpp:434] conv6/sep <- conv6/dw
I1208 11:51:29.618517  7581 net.cpp:408] conv6/sep -> conv6/sep
I1208 11:51:29.626207  7581 net.cpp:150] Setting up conv6/sep
I1208 11:51:29.626221  7581 net.cpp:157] Top shape: 1 1024 10 16 (163840)
I1208 11:51:29.626232  7581 net.cpp:165] Memory required for data: 266170208
I1208 11:51:29.626237  7581 layer_factory.hpp:77] Creating layer conv6/sep/bn
I1208 11:51:29.626242  7581 net.cpp:100] Creating Layer conv6/sep/bn
I1208 11:51:29.626245  7581 net.cpp:434] conv6/sep/bn <- conv6/sep
I1208 11:51:29.626250  7581 net.cpp:395] conv6/sep/bn -> conv6/sep (in-place)
I1208 11:51:29.626395  7581 net.cpp:150] Setting up conv6/sep/bn
I1208 11:51:29.626399  7581 net.cpp:157] Top shape: 1 1024 10 16 (163840)
I1208 11:51:29.626401  7581 net.cpp:165] Memory required for data: 266825568
I1208 11:51:29.626406  7581 layer_factory.hpp:77] Creating layer conv6/sep/scale
I1208 11:51:29.626410  7581 net.cpp:100] Creating Layer conv6/sep/scale
I1208 11:51:29.626413  7581 net.cpp:434] conv6/sep/scale <- conv6/sep
I1208 11:51:29.626415  7581 net.cpp:395] conv6/sep/scale -> conv6/sep (in-place)
I1208 11:51:29.626442  7581 layer_factory.hpp:77] Creating layer conv6/sep/scale
I1208 11:51:29.626523  7581 net.cpp:150] Setting up conv6/sep/scale
I1208 11:51:29.626526  7581 net.cpp:157] Top shape: 1 1024 10 16 (163840)
I1208 11:51:29.626528  7581 net.cpp:165] Memory required for data: 267480928
I1208 11:51:29.626533  7581 layer_factory.hpp:77] Creating layer relu6/sep
I1208 11:51:29.626536  7581 net.cpp:100] Creating Layer relu6/sep
I1208 11:51:29.626538  7581 net.cpp:434] relu6/sep <- conv6/sep
I1208 11:51:29.626541  7581 net.cpp:395] relu6/sep -> conv6/sep (in-place)
I1208 11:51:29.626817  7581 net.cpp:150] Setting up relu6/sep
I1208 11:51:29.626822  7581 net.cpp:157] Top shape: 1 1024 10 16 (163840)
I1208 11:51:29.626824  7581 net.cpp:165] Memory required for data: 268136288
I1208 11:51:29.626827  7581 layer_factory.hpp:77] Creating layer conv6/sep_relu6/sep_0_split
I1208 11:51:29.626830  7581 net.cpp:100] Creating Layer conv6/sep_relu6/sep_0_split
I1208 11:51:29.626832  7581 net.cpp:434] conv6/sep_relu6/sep_0_split <- conv6/sep
I1208 11:51:29.626837  7581 net.cpp:408] conv6/sep_relu6/sep_0_split -> conv6/sep_relu6/sep_0_split_0
I1208 11:51:29.626842  7581 net.cpp:408] conv6/sep_relu6/sep_0_split -> conv6/sep_relu6/sep_0_split_1
I1208 11:51:29.626847  7581 net.cpp:408] conv6/sep_relu6/sep_0_split -> conv6/sep_relu6/sep_0_split_2
I1208 11:51:29.626849  7581 net.cpp:408] conv6/sep_relu6/sep_0_split -> conv6/sep_relu6/sep_0_split_3
I1208 11:51:29.626896  7581 net.cpp:150] Setting up conv6/sep_relu6/sep_0_split
I1208 11:51:29.626900  7581 net.cpp:157] Top shape: 1 1024 10 16 (163840)
I1208 11:51:29.626904  7581 net.cpp:157] Top shape: 1 1024 10 16 (163840)
I1208 11:51:29.626905  7581 net.cpp:157] Top shape: 1 1024 10 16 (163840)
I1208 11:51:29.626907  7581 net.cpp:157] Top shape: 1 1024 10 16 (163840)
I1208 11:51:29.626909  7581 net.cpp:165] Memory required for data: 270757728
I1208 11:51:29.626911  7581 layer_factory.hpp:77] Creating layer ssd1_1
I1208 11:51:29.626917  7581 net.cpp:100] Creating Layer ssd1_1
I1208 11:51:29.626919  7581 net.cpp:434] ssd1_1 <- conv6/sep_relu6/sep_0_split_0
I1208 11:51:29.626924  7581 net.cpp:408] ssd1_1 -> ssd1_1
I1208 11:51:29.630049  7581 net.cpp:150] Setting up ssd1_1
I1208 11:51:29.630060  7581 net.cpp:157] Top shape: 1 256 10 16 (40960)
I1208 11:51:29.630062  7581 net.cpp:165] Memory required for data: 270921568
I1208 11:51:29.630067  7581 layer_factory.hpp:77] Creating layer ssd1_1_relu
I1208 11:51:29.630074  7581 net.cpp:100] Creating Layer ssd1_1_relu
I1208 11:51:29.630076  7581 net.cpp:434] ssd1_1_relu <- ssd1_1
I1208 11:51:29.630079  7581 net.cpp:395] ssd1_1_relu -> ssd1_1 (in-place)
I1208 11:51:29.630465  7581 net.cpp:150] Setting up ssd1_1_relu
I1208 11:51:29.630471  7581 net.cpp:157] Top shape: 1 256 10 16 (40960)
I1208 11:51:29.630473  7581 net.cpp:165] Memory required for data: 271085408
I1208 11:51:29.630475  7581 layer_factory.hpp:77] Creating layer ssd1_2
I1208 11:51:29.630481  7581 net.cpp:100] Creating Layer ssd1_2
I1208 11:51:29.630484  7581 net.cpp:434] ssd1_2 <- ssd1_1
I1208 11:51:29.630488  7581 net.cpp:408] ssd1_2 -> ssd1_2
I1208 11:51:29.636109  7581 net.cpp:150] Setting up ssd1_2
I1208 11:51:29.636133  7581 net.cpp:157] Top shape: 1 512 5 8 (20480)
I1208 11:51:29.636137  7581 net.cpp:165] Memory required for data: 271167328
I1208 11:51:29.636142  7581 layer_factory.hpp:77] Creating layer ssd1_2_relu
I1208 11:51:29.636147  7581 net.cpp:100] Creating Layer ssd1_2_relu
I1208 11:51:29.636148  7581 net.cpp:434] ssd1_2_relu <- ssd1_2
I1208 11:51:29.636152  7581 net.cpp:395] ssd1_2_relu -> ssd1_2 (in-place)
I1208 11:51:29.636431  7581 net.cpp:150] Setting up ssd1_2_relu
I1208 11:51:29.636437  7581 net.cpp:157] Top shape: 1 512 5 8 (20480)
I1208 11:51:29.636438  7581 net.cpp:165] Memory required for data: 271249248
I1208 11:51:29.636441  7581 layer_factory.hpp:77] Creating layer ssd1_2_ssd1_2_relu_0_split
I1208 11:51:29.636445  7581 net.cpp:100] Creating Layer ssd1_2_ssd1_2_relu_0_split
I1208 11:51:29.636447  7581 net.cpp:434] ssd1_2_ssd1_2_relu_0_split <- ssd1_2
I1208 11:51:29.636451  7581 net.cpp:408] ssd1_2_ssd1_2_relu_0_split -> ssd1_2_ssd1_2_relu_0_split_0
I1208 11:51:29.636456  7581 net.cpp:408] ssd1_2_ssd1_2_relu_0_split -> ssd1_2_ssd1_2_relu_0_split_1
I1208 11:51:29.636458  7581 net.cpp:408] ssd1_2_ssd1_2_relu_0_split -> ssd1_2_ssd1_2_relu_0_split_2
I1208 11:51:29.636462  7581 net.cpp:408] ssd1_2_ssd1_2_relu_0_split -> ssd1_2_ssd1_2_relu_0_split_3
I1208 11:51:29.636512  7581 net.cpp:150] Setting up ssd1_2_ssd1_2_relu_0_split
I1208 11:51:29.636517  7581 net.cpp:157] Top shape: 1 512 5 8 (20480)
I1208 11:51:29.636518  7581 net.cpp:157] Top shape: 1 512 5 8 (20480)
I1208 11:51:29.636520  7581 net.cpp:157] Top shape: 1 512 5 8 (20480)
I1208 11:51:29.636523  7581 net.cpp:157] Top shape: 1 512 5 8 (20480)
I1208 11:51:29.636524  7581 net.cpp:165] Memory required for data: 271576928
I1208 11:51:29.636526  7581 layer_factory.hpp:77] Creating layer ssd2_1
I1208 11:51:29.636531  7581 net.cpp:100] Creating Layer ssd2_1
I1208 11:51:29.636533  7581 net.cpp:434] ssd2_1 <- ssd1_2_ssd1_2_relu_0_split_0
I1208 11:51:29.636538  7581 net.cpp:408] ssd2_1 -> ssd2_1
I1208 11:51:29.637950  7581 net.cpp:150] Setting up ssd2_1
I1208 11:51:29.637957  7581 net.cpp:157] Top shape: 1 128 5 8 (5120)
I1208 11:51:29.637959  7581 net.cpp:165] Memory required for data: 271597408
I1208 11:51:29.637964  7581 layer_factory.hpp:77] Creating layer ssd2_1_relu
I1208 11:51:29.637967  7581 net.cpp:100] Creating Layer ssd2_1_relu
I1208 11:51:29.637969  7581 net.cpp:434] ssd2_1_relu <- ssd2_1
I1208 11:51:29.637972  7581 net.cpp:395] ssd2_1_relu -> ssd2_1 (in-place)
I1208 11:51:29.639031  7581 net.cpp:150] Setting up ssd2_1_relu
I1208 11:51:29.639039  7581 net.cpp:157] Top shape: 1 128 5 8 (5120)
I1208 11:51:29.639041  7581 net.cpp:165] Memory required for data: 271617888
I1208 11:51:29.639044  7581 layer_factory.hpp:77] Creating layer ssd2_2
I1208 11:51:29.639050  7581 net.cpp:100] Creating Layer ssd2_2
I1208 11:51:29.639052  7581 net.cpp:434] ssd2_2 <- ssd2_1
I1208 11:51:29.639056  7581 net.cpp:408] ssd2_2 -> ssd2_2
I1208 11:51:29.641539  7581 net.cpp:150] Setting up ssd2_2
I1208 11:51:29.641547  7581 net.cpp:157] Top shape: 1 256 3 4 (3072)
I1208 11:51:29.641549  7581 net.cpp:165] Memory required for data: 271630176
I1208 11:51:29.641553  7581 layer_factory.hpp:77] Creating layer ssd2_2_relu
I1208 11:51:29.641559  7581 net.cpp:100] Creating Layer ssd2_2_relu
I1208 11:51:29.641561  7581 net.cpp:434] ssd2_2_relu <- ssd2_2
I1208 11:51:29.641564  7581 net.cpp:395] ssd2_2_relu -> ssd2_2 (in-place)
I1208 11:51:29.641834  7581 net.cpp:150] Setting up ssd2_2_relu
I1208 11:51:29.641839  7581 net.cpp:157] Top shape: 1 256 3 4 (3072)
I1208 11:51:29.641840  7581 net.cpp:165] Memory required for data: 271642464
I1208 11:51:29.641842  7581 layer_factory.hpp:77] Creating layer ssd2_2_ssd2_2_relu_0_split
I1208 11:51:29.641847  7581 net.cpp:100] Creating Layer ssd2_2_ssd2_2_relu_0_split
I1208 11:51:29.641849  7581 net.cpp:434] ssd2_2_ssd2_2_relu_0_split <- ssd2_2
I1208 11:51:29.641854  7581 net.cpp:408] ssd2_2_ssd2_2_relu_0_split -> ssd2_2_ssd2_2_relu_0_split_0
I1208 11:51:29.641857  7581 net.cpp:408] ssd2_2_ssd2_2_relu_0_split -> ssd2_2_ssd2_2_relu_0_split_1
I1208 11:51:29.641870  7581 net.cpp:408] ssd2_2_ssd2_2_relu_0_split -> ssd2_2_ssd2_2_relu_0_split_2
I1208 11:51:29.641873  7581 net.cpp:408] ssd2_2_ssd2_2_relu_0_split -> ssd2_2_ssd2_2_relu_0_split_3
I1208 11:51:29.641923  7581 net.cpp:150] Setting up ssd2_2_ssd2_2_relu_0_split
I1208 11:51:29.641927  7581 net.cpp:157] Top shape: 1 256 3 4 (3072)
I1208 11:51:29.641930  7581 net.cpp:157] Top shape: 1 256 3 4 (3072)
I1208 11:51:29.641932  7581 net.cpp:157] Top shape: 1 256 3 4 (3072)
I1208 11:51:29.641934  7581 net.cpp:157] Top shape: 1 256 3 4 (3072)
I1208 11:51:29.641937  7581 net.cpp:165] Memory required for data: 271691616
I1208 11:51:29.641938  7581 layer_factory.hpp:77] Creating layer ssd3_1
I1208 11:51:29.641943  7581 net.cpp:100] Creating Layer ssd3_1
I1208 11:51:29.641947  7581 net.cpp:434] ssd3_1 <- ssd2_2_ssd2_2_relu_0_split_0
I1208 11:51:29.641950  7581 net.cpp:408] ssd3_1 -> ssd3_1
I1208 11:51:29.643700  7581 net.cpp:150] Setting up ssd3_1
I1208 11:51:29.643708  7581 net.cpp:157] Top shape: 1 128 3 4 (1536)
I1208 11:51:29.643710  7581 net.cpp:165] Memory required for data: 271697760
I1208 11:51:29.643714  7581 layer_factory.hpp:77] Creating layer ssd3_1_relu
I1208 11:51:29.643718  7581 net.cpp:100] Creating Layer ssd3_1_relu
I1208 11:51:29.643719  7581 net.cpp:434] ssd3_1_relu <- ssd3_1
I1208 11:51:29.643723  7581 net.cpp:395] ssd3_1_relu -> ssd3_1 (in-place)
I1208 11:51:29.643996  7581 net.cpp:150] Setting up ssd3_1_relu
I1208 11:51:29.644001  7581 net.cpp:157] Top shape: 1 128 3 4 (1536)
I1208 11:51:29.644002  7581 net.cpp:165] Memory required for data: 271703904
I1208 11:51:29.644004  7581 layer_factory.hpp:77] Creating layer ssd3_2
I1208 11:51:29.644009  7581 net.cpp:100] Creating Layer ssd3_2
I1208 11:51:29.644011  7581 net.cpp:434] ssd3_2 <- ssd3_1
I1208 11:51:29.644016  7581 net.cpp:408] ssd3_2 -> ssd3_2
I1208 11:51:29.647163  7581 net.cpp:150] Setting up ssd3_2
I1208 11:51:29.647173  7581 net.cpp:157] Top shape: 1 256 2 2 (1024)
I1208 11:51:29.647176  7581 net.cpp:165] Memory required for data: 271708000
I1208 11:51:29.647181  7581 layer_factory.hpp:77] Creating layer ssd3_2_relu
I1208 11:51:29.647186  7581 net.cpp:100] Creating Layer ssd3_2_relu
I1208 11:51:29.647187  7581 net.cpp:434] ssd3_2_relu <- ssd3_2
I1208 11:51:29.647192  7581 net.cpp:395] ssd3_2_relu -> ssd3_2 (in-place)
I1208 11:51:29.647580  7581 net.cpp:150] Setting up ssd3_2_relu
I1208 11:51:29.647588  7581 net.cpp:157] Top shape: 1 256 2 2 (1024)
I1208 11:51:29.647589  7581 net.cpp:165] Memory required for data: 271712096
I1208 11:51:29.647591  7581 layer_factory.hpp:77] Creating layer ssd3_2_ssd3_2_relu_0_split
I1208 11:51:29.647595  7581 net.cpp:100] Creating Layer ssd3_2_ssd3_2_relu_0_split
I1208 11:51:29.647598  7581 net.cpp:434] ssd3_2_ssd3_2_relu_0_split <- ssd3_2
I1208 11:51:29.647601  7581 net.cpp:408] ssd3_2_ssd3_2_relu_0_split -> ssd3_2_ssd3_2_relu_0_split_0
I1208 11:51:29.647605  7581 net.cpp:408] ssd3_2_ssd3_2_relu_0_split -> ssd3_2_ssd3_2_relu_0_split_1
I1208 11:51:29.647609  7581 net.cpp:408] ssd3_2_ssd3_2_relu_0_split -> ssd3_2_ssd3_2_relu_0_split_2
I1208 11:51:29.647614  7581 net.cpp:408] ssd3_2_ssd3_2_relu_0_split -> ssd3_2_ssd3_2_relu_0_split_3
I1208 11:51:29.647663  7581 net.cpp:150] Setting up ssd3_2_ssd3_2_relu_0_split
I1208 11:51:29.647667  7581 net.cpp:157] Top shape: 1 256 2 2 (1024)
I1208 11:51:29.647670  7581 net.cpp:157] Top shape: 1 256 2 2 (1024)
I1208 11:51:29.647672  7581 net.cpp:157] Top shape: 1 256 2 2 (1024)
I1208 11:51:29.647675  7581 net.cpp:157] Top shape: 1 256 2 2 (1024)
I1208 11:51:29.647676  7581 net.cpp:165] Memory required for data: 271728480
I1208 11:51:29.647677  7581 layer_factory.hpp:77] Creating layer ssd4_1
I1208 11:51:29.647683  7581 net.cpp:100] Creating Layer ssd4_1
I1208 11:51:29.647686  7581 net.cpp:434] ssd4_1 <- ssd3_2_ssd3_2_relu_0_split_0
I1208 11:51:29.647689  7581 net.cpp:408] ssd4_1 -> ssd4_1
I1208 11:51:29.648938  7581 net.cpp:150] Setting up ssd4_1
I1208 11:51:29.648947  7581 net.cpp:157] Top shape: 1 128 2 2 (512)
I1208 11:51:29.648948  7581 net.cpp:165] Memory required for data: 271730528
I1208 11:51:29.648962  7581 layer_factory.hpp:77] Creating layer ssd4_1_relu
I1208 11:51:29.648974  7581 net.cpp:100] Creating Layer ssd4_1_relu
I1208 11:51:29.648977  7581 net.cpp:434] ssd4_1_relu <- ssd4_1
I1208 11:51:29.648982  7581 net.cpp:395] ssd4_1_relu -> ssd4_1 (in-place)
I1208 11:51:29.649256  7581 net.cpp:150] Setting up ssd4_1_relu
I1208 11:51:29.649261  7581 net.cpp:157] Top shape: 1 128 2 2 (512)
I1208 11:51:29.649263  7581 net.cpp:165] Memory required for data: 271732576
I1208 11:51:29.649266  7581 layer_factory.hpp:77] Creating layer ssd4_2
I1208 11:51:29.649271  7581 net.cpp:100] Creating Layer ssd4_2
I1208 11:51:29.649272  7581 net.cpp:434] ssd4_2 <- ssd4_1
I1208 11:51:29.649276  7581 net.cpp:408] ssd4_2 -> ssd4_2
I1208 11:51:29.651756  7581 net.cpp:150] Setting up ssd4_2
I1208 11:51:29.651763  7581 net.cpp:157] Top shape: 1 256 1 1 (256)
I1208 11:51:29.651764  7581 net.cpp:165] Memory required for data: 271733600
I1208 11:51:29.651769  7581 layer_factory.hpp:77] Creating layer ssd4_2_relu
I1208 11:51:29.651774  7581 net.cpp:100] Creating Layer ssd4_2_relu
I1208 11:51:29.651777  7581 net.cpp:434] ssd4_2_relu <- ssd4_2
I1208 11:51:29.651778  7581 net.cpp:395] ssd4_2_relu -> ssd4_2 (in-place)
I1208 11:51:29.652832  7581 net.cpp:150] Setting up ssd4_2_relu
I1208 11:51:29.652839  7581 net.cpp:157] Top shape: 1 256 1 1 (256)
I1208 11:51:29.652842  7581 net.cpp:165] Memory required for data: 271734624
I1208 11:51:29.652843  7581 layer_factory.hpp:77] Creating layer ssd4_2_ssd4_2_relu_0_split
I1208 11:51:29.652848  7581 net.cpp:100] Creating Layer ssd4_2_ssd4_2_relu_0_split
I1208 11:51:29.652849  7581 net.cpp:434] ssd4_2_ssd4_2_relu_0_split <- ssd4_2
I1208 11:51:29.652853  7581 net.cpp:408] ssd4_2_ssd4_2_relu_0_split -> ssd4_2_ssd4_2_relu_0_split_0
I1208 11:51:29.652864  7581 net.cpp:408] ssd4_2_ssd4_2_relu_0_split -> ssd4_2_ssd4_2_relu_0_split_1
I1208 11:51:29.652868  7581 net.cpp:408] ssd4_2_ssd4_2_relu_0_split -> ssd4_2_ssd4_2_relu_0_split_2
I1208 11:51:29.652912  7581 net.cpp:150] Setting up ssd4_2_ssd4_2_relu_0_split
I1208 11:51:29.652917  7581 net.cpp:157] Top shape: 1 256 1 1 (256)
I1208 11:51:29.652920  7581 net.cpp:157] Top shape: 1 256 1 1 (256)
I1208 11:51:29.652921  7581 net.cpp:157] Top shape: 1 256 1 1 (256)
I1208 11:51:29.652923  7581 net.cpp:165] Memory required for data: 271737696
I1208 11:51:29.652925  7581 layer_factory.hpp:77] Creating layer conv5_5/sep_mbox_loc
I1208 11:51:29.652930  7581 net.cpp:100] Creating Layer conv5_5/sep_mbox_loc
I1208 11:51:29.652933  7581 net.cpp:434] conv5_5/sep_mbox_loc <- conv5_5/sep_relu5_5/sep_0_split_1
I1208 11:51:29.652937  7581 net.cpp:408] conv5_5/sep_mbox_loc -> conv5_5/sep_mbox_loc
I1208 11:51:29.654289  7581 net.cpp:150] Setting up conv5_5/sep_mbox_loc
I1208 11:51:29.654295  7581 net.cpp:157] Top shape: 1 8 19 32 (4864)
I1208 11:51:29.654299  7581 net.cpp:165] Memory required for data: 271757152
I1208 11:51:29.654302  7581 layer_factory.hpp:77] Creating layer conv5_5/sep_mbox_loc_perm
I1208 11:51:29.654307  7581 net.cpp:100] Creating Layer conv5_5/sep_mbox_loc_perm
I1208 11:51:29.654309  7581 net.cpp:434] conv5_5/sep_mbox_loc_perm <- conv5_5/sep_mbox_loc
I1208 11:51:29.654312  7581 net.cpp:408] conv5_5/sep_mbox_loc_perm -> conv5_5/sep_mbox_loc_perm
I1208 11:51:29.654398  7581 net.cpp:150] Setting up conv5_5/sep_mbox_loc_perm
I1208 11:51:29.654402  7581 net.cpp:157] Top shape: 1 19 32 8 (4864)
I1208 11:51:29.654403  7581 net.cpp:165] Memory required for data: 271776608
I1208 11:51:29.654405  7581 layer_factory.hpp:77] Creating layer conv5_5/sep_mbox_loc_flat
I1208 11:51:29.654409  7581 net.cpp:100] Creating Layer conv5_5/sep_mbox_loc_flat
I1208 11:51:29.654412  7581 net.cpp:434] conv5_5/sep_mbox_loc_flat <- conv5_5/sep_mbox_loc_perm
I1208 11:51:29.654414  7581 net.cpp:408] conv5_5/sep_mbox_loc_flat -> conv5_5/sep_mbox_loc_flat
I1208 11:51:29.654433  7581 net.cpp:150] Setting up conv5_5/sep_mbox_loc_flat
I1208 11:51:29.654436  7581 net.cpp:157] Top shape: 1 4864 (4864)
I1208 11:51:29.654438  7581 net.cpp:165] Memory required for data: 271796064
I1208 11:51:29.654448  7581 layer_factory.hpp:77] Creating layer conv5_5/sep_mbox_conf
I1208 11:51:29.654454  7581 net.cpp:100] Creating Layer conv5_5/sep_mbox_conf
I1208 11:51:29.654459  7581 net.cpp:434] conv5_5/sep_mbox_conf <- conv5_5/sep_relu5_5/sep_0_split_2
I1208 11:51:29.654462  7581 net.cpp:408] conv5_5/sep_mbox_conf -> conv5_5/sep_mbox_conf
I1208 11:51:29.655863  7581 net.cpp:150] Setting up conv5_5/sep_mbox_conf
I1208 11:51:29.655870  7581 net.cpp:157] Top shape: 1 10 19 32 (6080)
I1208 11:51:29.655872  7581 net.cpp:165] Memory required for data: 271820384
I1208 11:51:29.655875  7581 layer_factory.hpp:77] Creating layer conv5_5/sep_mbox_conf_perm
I1208 11:51:29.655879  7581 net.cpp:100] Creating Layer conv5_5/sep_mbox_conf_perm
I1208 11:51:29.655881  7581 net.cpp:434] conv5_5/sep_mbox_conf_perm <- conv5_5/sep_mbox_conf
I1208 11:51:29.655885  7581 net.cpp:408] conv5_5/sep_mbox_conf_perm -> conv5_5/sep_mbox_conf_perm
I1208 11:51:29.655968  7581 net.cpp:150] Setting up conv5_5/sep_mbox_conf_perm
I1208 11:51:29.655972  7581 net.cpp:157] Top shape: 1 19 32 10 (6080)
I1208 11:51:29.655974  7581 net.cpp:165] Memory required for data: 271844704
I1208 11:51:29.655975  7581 layer_factory.hpp:77] Creating layer conv5_5/sep_mbox_conf_flat
I1208 11:51:29.655978  7581 net.cpp:100] Creating Layer conv5_5/sep_mbox_conf_flat
I1208 11:51:29.655980  7581 net.cpp:434] conv5_5/sep_mbox_conf_flat <- conv5_5/sep_mbox_conf_perm
I1208 11:51:29.655984  7581 net.cpp:408] conv5_5/sep_mbox_conf_flat -> conv5_5/sep_mbox_conf_flat
I1208 11:51:29.656000  7581 net.cpp:150] Setting up conv5_5/sep_mbox_conf_flat
I1208 11:51:29.656003  7581 net.cpp:157] Top shape: 1 6080 (6080)
I1208 11:51:29.656005  7581 net.cpp:165] Memory required for data: 271869024
I1208 11:51:29.656008  7581 layer_factory.hpp:77] Creating layer conv5_5/sep_mbox_priorbox
I1208 11:51:29.656011  7581 net.cpp:100] Creating Layer conv5_5/sep_mbox_priorbox
I1208 11:51:29.656015  7581 net.cpp:434] conv5_5/sep_mbox_priorbox <- conv5_5/sep_relu5_5/sep_0_split_3
I1208 11:51:29.656018  7581 net.cpp:434] conv5_5/sep_mbox_priorbox <- data_data_0_split_1
I1208 11:51:29.656021  7581 net.cpp:408] conv5_5/sep_mbox_priorbox -> conv5_5/sep_mbox_priorbox
I1208 11:51:29.656042  7581 net.cpp:150] Setting up conv5_5/sep_mbox_priorbox
I1208 11:51:29.656045  7581 net.cpp:157] Top shape: 1 2 4864 (9728)
I1208 11:51:29.656047  7581 net.cpp:165] Memory required for data: 271907936
I1208 11:51:29.656049  7581 layer_factory.hpp:77] Creating layer conv6/sep_mbox_loc
I1208 11:51:29.656055  7581 net.cpp:100] Creating Layer conv6/sep_mbox_loc
I1208 11:51:29.656059  7581 net.cpp:434] conv6/sep_mbox_loc <- conv6/sep_relu6/sep_0_split_1
I1208 11:51:29.656062  7581 net.cpp:408] conv6/sep_mbox_loc -> conv6/sep_mbox_loc
I1208 11:51:29.657519  7581 net.cpp:150] Setting up conv6/sep_mbox_loc
I1208 11:51:29.657527  7581 net.cpp:157] Top shape: 1 8 10 16 (1280)
I1208 11:51:29.657531  7581 net.cpp:165] Memory required for data: 271913056
I1208 11:51:29.657534  7581 layer_factory.hpp:77] Creating layer conv6/sep_mbox_loc_perm
I1208 11:51:29.657538  7581 net.cpp:100] Creating Layer conv6/sep_mbox_loc_perm
I1208 11:51:29.657541  7581 net.cpp:434] conv6/sep_mbox_loc_perm <- conv6/sep_mbox_loc
I1208 11:51:29.657546  7581 net.cpp:408] conv6/sep_mbox_loc_perm -> conv6/sep_mbox_loc_perm
I1208 11:51:29.657629  7581 net.cpp:150] Setting up conv6/sep_mbox_loc_perm
I1208 11:51:29.657634  7581 net.cpp:157] Top shape: 1 10 16 8 (1280)
I1208 11:51:29.657636  7581 net.cpp:165] Memory required for data: 271918176
I1208 11:51:29.657637  7581 layer_factory.hpp:77] Creating layer conv6/sep_mbox_loc_flat
I1208 11:51:29.657640  7581 net.cpp:100] Creating Layer conv6/sep_mbox_loc_flat
I1208 11:51:29.657644  7581 net.cpp:434] conv6/sep_mbox_loc_flat <- conv6/sep_mbox_loc_perm
I1208 11:51:29.657646  7581 net.cpp:408] conv6/sep_mbox_loc_flat -> conv6/sep_mbox_loc_flat
I1208 11:51:29.657663  7581 net.cpp:150] Setting up conv6/sep_mbox_loc_flat
I1208 11:51:29.657667  7581 net.cpp:157] Top shape: 1 1280 (1280)
I1208 11:51:29.657670  7581 net.cpp:165] Memory required for data: 271923296
I1208 11:51:29.657680  7581 layer_factory.hpp:77] Creating layer conv6/sep_mbox_conf
I1208 11:51:29.657685  7581 net.cpp:100] Creating Layer conv6/sep_mbox_conf
I1208 11:51:29.657687  7581 net.cpp:434] conv6/sep_mbox_conf <- conv6/sep_relu6/sep_0_split_2
I1208 11:51:29.657692  7581 net.cpp:408] conv6/sep_mbox_conf -> conv6/sep_mbox_conf
I1208 11:51:29.660034  7581 net.cpp:150] Setting up conv6/sep_mbox_conf
I1208 11:51:29.660043  7581 net.cpp:157] Top shape: 1 10 10 16 (1600)
I1208 11:51:29.660045  7581 net.cpp:165] Memory required for data: 271929696
I1208 11:51:29.660050  7581 layer_factory.hpp:77] Creating layer conv6/sep_mbox_conf_perm
I1208 11:51:29.660055  7581 net.cpp:100] Creating Layer conv6/sep_mbox_conf_perm
I1208 11:51:29.660058  7581 net.cpp:434] conv6/sep_mbox_conf_perm <- conv6/sep_mbox_conf
I1208 11:51:29.660063  7581 net.cpp:408] conv6/sep_mbox_conf_perm -> conv6/sep_mbox_conf_perm
I1208 11:51:29.660148  7581 net.cpp:150] Setting up conv6/sep_mbox_conf_perm
I1208 11:51:29.660151  7581 net.cpp:157] Top shape: 1 10 16 10 (1600)
I1208 11:51:29.660153  7581 net.cpp:165] Memory required for data: 271936096
I1208 11:51:29.660156  7581 layer_factory.hpp:77] Creating layer conv6/sep_mbox_conf_flat
I1208 11:51:29.660158  7581 net.cpp:100] Creating Layer conv6/sep_mbox_conf_flat
I1208 11:51:29.660161  7581 net.cpp:434] conv6/sep_mbox_conf_flat <- conv6/sep_mbox_conf_perm
I1208 11:51:29.660166  7581 net.cpp:408] conv6/sep_mbox_conf_flat -> conv6/sep_mbox_conf_flat
I1208 11:51:29.660183  7581 net.cpp:150] Setting up conv6/sep_mbox_conf_flat
I1208 11:51:29.660187  7581 net.cpp:157] Top shape: 1 1600 (1600)
I1208 11:51:29.660189  7581 net.cpp:165] Memory required for data: 271942496
I1208 11:51:29.660190  7581 layer_factory.hpp:77] Creating layer conv6/sep_mbox_priorbox
I1208 11:51:29.660193  7581 net.cpp:100] Creating Layer conv6/sep_mbox_priorbox
I1208 11:51:29.660197  7581 net.cpp:434] conv6/sep_mbox_priorbox <- conv6/sep_relu6/sep_0_split_3
I1208 11:51:29.660198  7581 net.cpp:434] conv6/sep_mbox_priorbox <- data_data_0_split_2
I1208 11:51:29.660202  7581 net.cpp:408] conv6/sep_mbox_priorbox -> conv6/sep_mbox_priorbox
I1208 11:51:29.660221  7581 net.cpp:150] Setting up conv6/sep_mbox_priorbox
I1208 11:51:29.660225  7581 net.cpp:157] Top shape: 1 2 1280 (2560)
I1208 11:51:29.660226  7581 net.cpp:165] Memory required for data: 271952736
I1208 11:51:29.660228  7581 layer_factory.hpp:77] Creating layer ssd1_2_mbox_loc
I1208 11:51:29.660233  7581 net.cpp:100] Creating Layer ssd1_2_mbox_loc
I1208 11:51:29.660236  7581 net.cpp:434] ssd1_2_mbox_loc <- ssd1_2_ssd1_2_relu_0_split_1
I1208 11:51:29.660240  7581 net.cpp:408] ssd1_2_mbox_loc -> ssd1_2_mbox_loc
I1208 11:51:29.661608  7581 net.cpp:150] Setting up ssd1_2_mbox_loc
I1208 11:51:29.661617  7581 net.cpp:157] Top shape: 1 8 5 8 (320)
I1208 11:51:29.661618  7581 net.cpp:165] Memory required for data: 271954016
I1208 11:51:29.661623  7581 layer_factory.hpp:77] Creating layer ssd1_2_mbox_loc_perm
I1208 11:51:29.661628  7581 net.cpp:100] Creating Layer ssd1_2_mbox_loc_perm
I1208 11:51:29.661630  7581 net.cpp:434] ssd1_2_mbox_loc_perm <- ssd1_2_mbox_loc
I1208 11:51:29.661634  7581 net.cpp:408] ssd1_2_mbox_loc_perm -> ssd1_2_mbox_loc_perm
I1208 11:51:29.661720  7581 net.cpp:150] Setting up ssd1_2_mbox_loc_perm
I1208 11:51:29.661723  7581 net.cpp:157] Top shape: 1 5 8 8 (320)
I1208 11:51:29.661725  7581 net.cpp:165] Memory required for data: 271955296
I1208 11:51:29.661728  7581 layer_factory.hpp:77] Creating layer ssd1_2_mbox_loc_flat
I1208 11:51:29.661731  7581 net.cpp:100] Creating Layer ssd1_2_mbox_loc_flat
I1208 11:51:29.661733  7581 net.cpp:434] ssd1_2_mbox_loc_flat <- ssd1_2_mbox_loc_perm
I1208 11:51:29.661736  7581 net.cpp:408] ssd1_2_mbox_loc_flat -> ssd1_2_mbox_loc_flat
I1208 11:51:29.661754  7581 net.cpp:150] Setting up ssd1_2_mbox_loc_flat
I1208 11:51:29.661757  7581 net.cpp:157] Top shape: 1 320 (320)
I1208 11:51:29.661758  7581 net.cpp:165] Memory required for data: 271956576
I1208 11:51:29.661761  7581 layer_factory.hpp:77] Creating layer ssd1_2_mbox_conf
I1208 11:51:29.661774  7581 net.cpp:100] Creating Layer ssd1_2_mbox_conf
I1208 11:51:29.661777  7581 net.cpp:434] ssd1_2_mbox_conf <- ssd1_2_ssd1_2_relu_0_split_2
I1208 11:51:29.661782  7581 net.cpp:408] ssd1_2_mbox_conf -> ssd1_2_mbox_conf
I1208 11:51:29.663259  7581 net.cpp:150] Setting up ssd1_2_mbox_conf
I1208 11:51:29.663266  7581 net.cpp:157] Top shape: 1 10 5 8 (400)
I1208 11:51:29.663269  7581 net.cpp:165] Memory required for data: 271958176
I1208 11:51:29.663273  7581 layer_factory.hpp:77] Creating layer ssd1_2_mbox_conf_perm
I1208 11:51:29.663277  7581 net.cpp:100] Creating Layer ssd1_2_mbox_conf_perm
I1208 11:51:29.663280  7581 net.cpp:434] ssd1_2_mbox_conf_perm <- ssd1_2_mbox_conf
I1208 11:51:29.663285  7581 net.cpp:408] ssd1_2_mbox_conf_perm -> ssd1_2_mbox_conf_perm
I1208 11:51:29.663368  7581 net.cpp:150] Setting up ssd1_2_mbox_conf_perm
I1208 11:51:29.663372  7581 net.cpp:157] Top shape: 1 5 8 10 (400)
I1208 11:51:29.663374  7581 net.cpp:165] Memory required for data: 271959776
I1208 11:51:29.663377  7581 layer_factory.hpp:77] Creating layer ssd1_2_mbox_conf_flat
I1208 11:51:29.663379  7581 net.cpp:100] Creating Layer ssd1_2_mbox_conf_flat
I1208 11:51:29.663381  7581 net.cpp:434] ssd1_2_mbox_conf_flat <- ssd1_2_mbox_conf_perm
I1208 11:51:29.663385  7581 net.cpp:408] ssd1_2_mbox_conf_flat -> ssd1_2_mbox_conf_flat
I1208 11:51:29.663403  7581 net.cpp:150] Setting up ssd1_2_mbox_conf_flat
I1208 11:51:29.663405  7581 net.cpp:157] Top shape: 1 400 (400)
I1208 11:51:29.663408  7581 net.cpp:165] Memory required for data: 271961376
I1208 11:51:29.663409  7581 layer_factory.hpp:77] Creating layer ssd1_2_mbox_priorbox
I1208 11:51:29.663414  7581 net.cpp:100] Creating Layer ssd1_2_mbox_priorbox
I1208 11:51:29.663415  7581 net.cpp:434] ssd1_2_mbox_priorbox <- ssd1_2_ssd1_2_relu_0_split_3
I1208 11:51:29.663419  7581 net.cpp:434] ssd1_2_mbox_priorbox <- data_data_0_split_3
I1208 11:51:29.663422  7581 net.cpp:408] ssd1_2_mbox_priorbox -> ssd1_2_mbox_priorbox
I1208 11:51:29.663441  7581 net.cpp:150] Setting up ssd1_2_mbox_priorbox
I1208 11:51:29.663444  7581 net.cpp:157] Top shape: 1 2 320 (640)
I1208 11:51:29.663446  7581 net.cpp:165] Memory required for data: 271963936
I1208 11:51:29.663449  7581 layer_factory.hpp:77] Creating layer ssd2_2_mbox_loc
I1208 11:51:29.663455  7581 net.cpp:100] Creating Layer ssd2_2_mbox_loc
I1208 11:51:29.663456  7581 net.cpp:434] ssd2_2_mbox_loc <- ssd2_2_ssd2_2_relu_0_split_1
I1208 11:51:29.663466  7581 net.cpp:408] ssd2_2_mbox_loc -> ssd2_2_mbox_loc
I1208 11:51:29.665374  7581 net.cpp:150] Setting up ssd2_2_mbox_loc
I1208 11:51:29.665381  7581 net.cpp:157] Top shape: 1 8 3 4 (96)
I1208 11:51:29.665383  7581 net.cpp:165] Memory required for data: 271964320
I1208 11:51:29.665388  7581 layer_factory.hpp:77] Creating layer ssd2_2_mbox_loc_perm
I1208 11:51:29.665393  7581 net.cpp:100] Creating Layer ssd2_2_mbox_loc_perm
I1208 11:51:29.665396  7581 net.cpp:434] ssd2_2_mbox_loc_perm <- ssd2_2_mbox_loc
I1208 11:51:29.665400  7581 net.cpp:408] ssd2_2_mbox_loc_perm -> ssd2_2_mbox_loc_perm
I1208 11:51:29.665484  7581 net.cpp:150] Setting up ssd2_2_mbox_loc_perm
I1208 11:51:29.665488  7581 net.cpp:157] Top shape: 1 3 4 8 (96)
I1208 11:51:29.665490  7581 net.cpp:165] Memory required for data: 271964704
I1208 11:51:29.665493  7581 layer_factory.hpp:77] Creating layer ssd2_2_mbox_loc_flat
I1208 11:51:29.665495  7581 net.cpp:100] Creating Layer ssd2_2_mbox_loc_flat
I1208 11:51:29.665498  7581 net.cpp:434] ssd2_2_mbox_loc_flat <- ssd2_2_mbox_loc_perm
I1208 11:51:29.665501  7581 net.cpp:408] ssd2_2_mbox_loc_flat -> ssd2_2_mbox_loc_flat
I1208 11:51:29.665518  7581 net.cpp:150] Setting up ssd2_2_mbox_loc_flat
I1208 11:51:29.665522  7581 net.cpp:157] Top shape: 1 96 (96)
I1208 11:51:29.665524  7581 net.cpp:165] Memory required for data: 271965088
I1208 11:51:29.665526  7581 layer_factory.hpp:77] Creating layer ssd2_2_mbox_conf
I1208 11:51:29.665531  7581 net.cpp:100] Creating Layer ssd2_2_mbox_conf
I1208 11:51:29.665534  7581 net.cpp:434] ssd2_2_mbox_conf <- ssd2_2_ssd2_2_relu_0_split_2
I1208 11:51:29.665546  7581 net.cpp:408] ssd2_2_mbox_conf -> ssd2_2_mbox_conf
I1208 11:51:29.666766  7581 net.cpp:150] Setting up ssd2_2_mbox_conf
I1208 11:51:29.666774  7581 net.cpp:157] Top shape: 1 10 3 4 (120)
I1208 11:51:29.666775  7581 net.cpp:165] Memory required for data: 271965568
I1208 11:51:29.666780  7581 layer_factory.hpp:77] Creating layer ssd2_2_mbox_conf_perm
I1208 11:51:29.666785  7581 net.cpp:100] Creating Layer ssd2_2_mbox_conf_perm
I1208 11:51:29.666786  7581 net.cpp:434] ssd2_2_mbox_conf_perm <- ssd2_2_mbox_conf
I1208 11:51:29.666790  7581 net.cpp:408] ssd2_2_mbox_conf_perm -> ssd2_2_mbox_conf_perm
I1208 11:51:29.666874  7581 net.cpp:150] Setting up ssd2_2_mbox_conf_perm
I1208 11:51:29.666878  7581 net.cpp:157] Top shape: 1 3 4 10 (120)
I1208 11:51:29.666879  7581 net.cpp:165] Memory required for data: 271966048
I1208 11:51:29.666882  7581 layer_factory.hpp:77] Creating layer ssd2_2_mbox_conf_flat
I1208 11:51:29.666885  7581 net.cpp:100] Creating Layer ssd2_2_mbox_conf_flat
I1208 11:51:29.666887  7581 net.cpp:434] ssd2_2_mbox_conf_flat <- ssd2_2_mbox_conf_perm
I1208 11:51:29.666890  7581 net.cpp:408] ssd2_2_mbox_conf_flat -> ssd2_2_mbox_conf_flat
I1208 11:51:29.666908  7581 net.cpp:150] Setting up ssd2_2_mbox_conf_flat
I1208 11:51:29.666913  7581 net.cpp:157] Top shape: 1 120 (120)
I1208 11:51:29.666913  7581 net.cpp:165] Memory required for data: 271966528
I1208 11:51:29.666915  7581 layer_factory.hpp:77] Creating layer ssd2_2_mbox_priorbox
I1208 11:51:29.666918  7581 net.cpp:100] Creating Layer ssd2_2_mbox_priorbox
I1208 11:51:29.666921  7581 net.cpp:434] ssd2_2_mbox_priorbox <- ssd2_2_ssd2_2_relu_0_split_3
I1208 11:51:29.666924  7581 net.cpp:434] ssd2_2_mbox_priorbox <- data_data_0_split_4
I1208 11:51:29.666929  7581 net.cpp:408] ssd2_2_mbox_priorbox -> ssd2_2_mbox_priorbox
I1208 11:51:29.666947  7581 net.cpp:150] Setting up ssd2_2_mbox_priorbox
I1208 11:51:29.666951  7581 net.cpp:157] Top shape: 1 2 96 (192)
I1208 11:51:29.666952  7581 net.cpp:165] Memory required for data: 271967296
I1208 11:51:29.666954  7581 layer_factory.hpp:77] Creating layer ssd3_2_mbox_loc
I1208 11:51:29.666960  7581 net.cpp:100] Creating Layer ssd3_2_mbox_loc
I1208 11:51:29.666963  7581 net.cpp:434] ssd3_2_mbox_loc <- ssd3_2_ssd3_2_relu_0_split_1
I1208 11:51:29.666967  7581 net.cpp:408] ssd3_2_mbox_loc -> ssd3_2_mbox_loc
I1208 11:51:29.668274  7581 net.cpp:150] Setting up ssd3_2_mbox_loc
I1208 11:51:29.668282  7581 net.cpp:157] Top shape: 1 8 2 2 (32)
I1208 11:51:29.668284  7581 net.cpp:165] Memory required for data: 271967424
I1208 11:51:29.668287  7581 layer_factory.hpp:77] Creating layer ssd3_2_mbox_loc_perm
I1208 11:51:29.668292  7581 net.cpp:100] Creating Layer ssd3_2_mbox_loc_perm
I1208 11:51:29.668295  7581 net.cpp:434] ssd3_2_mbox_loc_perm <- ssd3_2_mbox_loc
I1208 11:51:29.668299  7581 net.cpp:408] ssd3_2_mbox_loc_perm -> ssd3_2_mbox_loc_perm
I1208 11:51:29.668381  7581 net.cpp:150] Setting up ssd3_2_mbox_loc_perm
I1208 11:51:29.668385  7581 net.cpp:157] Top shape: 1 2 2 8 (32)
I1208 11:51:29.668386  7581 net.cpp:165] Memory required for data: 271967552
I1208 11:51:29.668390  7581 layer_factory.hpp:77] Creating layer ssd3_2_mbox_loc_flat
I1208 11:51:29.668392  7581 net.cpp:100] Creating Layer ssd3_2_mbox_loc_flat
I1208 11:51:29.668395  7581 net.cpp:434] ssd3_2_mbox_loc_flat <- ssd3_2_mbox_loc_perm
I1208 11:51:29.668397  7581 net.cpp:408] ssd3_2_mbox_loc_flat -> ssd3_2_mbox_loc_flat
I1208 11:51:29.668416  7581 net.cpp:150] Setting up ssd3_2_mbox_loc_flat
I1208 11:51:29.668418  7581 net.cpp:157] Top shape: 1 32 (32)
I1208 11:51:29.668421  7581 net.cpp:165] Memory required for data: 271967680
I1208 11:51:29.668421  7581 layer_factory.hpp:77] Creating layer ssd3_2_mbox_conf
I1208 11:51:29.668427  7581 net.cpp:100] Creating Layer ssd3_2_mbox_conf
I1208 11:51:29.668429  7581 net.cpp:434] ssd3_2_mbox_conf <- ssd3_2_ssd3_2_relu_0_split_2
I1208 11:51:29.668433  7581 net.cpp:408] ssd3_2_mbox_conf -> ssd3_2_mbox_conf
I1208 11:51:29.670382  7581 net.cpp:150] Setting up ssd3_2_mbox_conf
I1208 11:51:29.670390  7581 net.cpp:157] Top shape: 1 10 2 2 (40)
I1208 11:51:29.670400  7581 net.cpp:165] Memory required for data: 271967840
I1208 11:51:29.670405  7581 layer_factory.hpp:77] Creating layer ssd3_2_mbox_conf_perm
I1208 11:51:29.670409  7581 net.cpp:100] Creating Layer ssd3_2_mbox_conf_perm
I1208 11:51:29.670413  7581 net.cpp:434] ssd3_2_mbox_conf_perm <- ssd3_2_mbox_conf
I1208 11:51:29.670416  7581 net.cpp:408] ssd3_2_mbox_conf_perm -> ssd3_2_mbox_conf_perm
I1208 11:51:29.670500  7581 net.cpp:150] Setting up ssd3_2_mbox_conf_perm
I1208 11:51:29.670503  7581 net.cpp:157] Top shape: 1 2 2 10 (40)
I1208 11:51:29.670506  7581 net.cpp:165] Memory required for data: 271968000
I1208 11:51:29.670507  7581 layer_factory.hpp:77] Creating layer ssd3_2_mbox_conf_flat
I1208 11:51:29.670511  7581 net.cpp:100] Creating Layer ssd3_2_mbox_conf_flat
I1208 11:51:29.670513  7581 net.cpp:434] ssd3_2_mbox_conf_flat <- ssd3_2_mbox_conf_perm
I1208 11:51:29.670516  7581 net.cpp:408] ssd3_2_mbox_conf_flat -> ssd3_2_mbox_conf_flat
I1208 11:51:29.670533  7581 net.cpp:150] Setting up ssd3_2_mbox_conf_flat
I1208 11:51:29.670536  7581 net.cpp:157] Top shape: 1 40 (40)
I1208 11:51:29.670538  7581 net.cpp:165] Memory required for data: 271968160
I1208 11:51:29.670542  7581 layer_factory.hpp:77] Creating layer ssd3_2_mbox_priorbox
I1208 11:51:29.670545  7581 net.cpp:100] Creating Layer ssd3_2_mbox_priorbox
I1208 11:51:29.670548  7581 net.cpp:434] ssd3_2_mbox_priorbox <- ssd3_2_ssd3_2_relu_0_split_3
I1208 11:51:29.670550  7581 net.cpp:434] ssd3_2_mbox_priorbox <- data_data_0_split_5
I1208 11:51:29.670554  7581 net.cpp:408] ssd3_2_mbox_priorbox -> ssd3_2_mbox_priorbox
I1208 11:51:29.670574  7581 net.cpp:150] Setting up ssd3_2_mbox_priorbox
I1208 11:51:29.670578  7581 net.cpp:157] Top shape: 1 2 32 (64)
I1208 11:51:29.670579  7581 net.cpp:165] Memory required for data: 271968416
I1208 11:51:29.670581  7581 layer_factory.hpp:77] Creating layer ssd4_2_mbox_loc
I1208 11:51:29.670586  7581 net.cpp:100] Creating Layer ssd4_2_mbox_loc
I1208 11:51:29.670589  7581 net.cpp:434] ssd4_2_mbox_loc <- ssd4_2_ssd4_2_relu_0_split_0
I1208 11:51:29.670593  7581 net.cpp:408] ssd4_2_mbox_loc -> ssd4_2_mbox_loc
I1208 11:51:29.671824  7581 net.cpp:150] Setting up ssd4_2_mbox_loc
I1208 11:51:29.671831  7581 net.cpp:157] Top shape: 1 8 1 1 (8)
I1208 11:51:29.671833  7581 net.cpp:165] Memory required for data: 271968448
I1208 11:51:29.671838  7581 layer_factory.hpp:77] Creating layer ssd4_2_mbox_loc_perm
I1208 11:51:29.671842  7581 net.cpp:100] Creating Layer ssd4_2_mbox_loc_perm
I1208 11:51:29.671847  7581 net.cpp:434] ssd4_2_mbox_loc_perm <- ssd4_2_mbox_loc
I1208 11:51:29.671850  7581 net.cpp:408] ssd4_2_mbox_loc_perm -> ssd4_2_mbox_loc_perm
I1208 11:51:29.671933  7581 net.cpp:150] Setting up ssd4_2_mbox_loc_perm
I1208 11:51:29.671937  7581 net.cpp:157] Top shape: 1 1 1 8 (8)
I1208 11:51:29.671939  7581 net.cpp:165] Memory required for data: 271968480
I1208 11:51:29.671941  7581 layer_factory.hpp:77] Creating layer ssd4_2_mbox_loc_flat
I1208 11:51:29.671943  7581 net.cpp:100] Creating Layer ssd4_2_mbox_loc_flat
I1208 11:51:29.671947  7581 net.cpp:434] ssd4_2_mbox_loc_flat <- ssd4_2_mbox_loc_perm
I1208 11:51:29.671950  7581 net.cpp:408] ssd4_2_mbox_loc_flat -> ssd4_2_mbox_loc_flat
I1208 11:51:29.671967  7581 net.cpp:150] Setting up ssd4_2_mbox_loc_flat
I1208 11:51:29.671972  7581 net.cpp:157] Top shape: 1 8 (8)
I1208 11:51:29.671973  7581 net.cpp:165] Memory required for data: 271968512
I1208 11:51:29.671975  7581 layer_factory.hpp:77] Creating layer ssd4_2_mbox_conf
I1208 11:51:29.671980  7581 net.cpp:100] Creating Layer ssd4_2_mbox_conf
I1208 11:51:29.671983  7581 net.cpp:434] ssd4_2_mbox_conf <- ssd4_2_ssd4_2_relu_0_split_1
I1208 11:51:29.671988  7581 net.cpp:408] ssd4_2_mbox_conf -> ssd4_2_mbox_conf
I1208 11:51:29.673209  7581 net.cpp:150] Setting up ssd4_2_mbox_conf
I1208 11:51:29.673215  7581 net.cpp:157] Top shape: 1 10 1 1 (10)
I1208 11:51:29.673218  7581 net.cpp:165] Memory required for data: 271968552
I1208 11:51:29.673223  7581 layer_factory.hpp:77] Creating layer ssd4_2_mbox_conf_perm
I1208 11:51:29.673235  7581 net.cpp:100] Creating Layer ssd4_2_mbox_conf_perm
I1208 11:51:29.673238  7581 net.cpp:434] ssd4_2_mbox_conf_perm <- ssd4_2_mbox_conf
I1208 11:51:29.673243  7581 net.cpp:408] ssd4_2_mbox_conf_perm -> ssd4_2_mbox_conf_perm
I1208 11:51:29.673326  7581 net.cpp:150] Setting up ssd4_2_mbox_conf_perm
I1208 11:51:29.673331  7581 net.cpp:157] Top shape: 1 1 1 10 (10)
I1208 11:51:29.673332  7581 net.cpp:165] Memory required for data: 271968592
I1208 11:51:29.673334  7581 layer_factory.hpp:77] Creating layer ssd4_2_mbox_conf_flat
I1208 11:51:29.673337  7581 net.cpp:100] Creating Layer ssd4_2_mbox_conf_flat
I1208 11:51:29.673339  7581 net.cpp:434] ssd4_2_mbox_conf_flat <- ssd4_2_mbox_conf_perm
I1208 11:51:29.673343  7581 net.cpp:408] ssd4_2_mbox_conf_flat -> ssd4_2_mbox_conf_flat
I1208 11:51:29.673360  7581 net.cpp:150] Setting up ssd4_2_mbox_conf_flat
I1208 11:51:29.673364  7581 net.cpp:157] Top shape: 1 10 (10)
I1208 11:51:29.673367  7581 net.cpp:165] Memory required for data: 271968632
I1208 11:51:29.673368  7581 layer_factory.hpp:77] Creating layer ssd4_2_mbox_priorbox
I1208 11:51:29.673372  7581 net.cpp:100] Creating Layer ssd4_2_mbox_priorbox
I1208 11:51:29.673374  7581 net.cpp:434] ssd4_2_mbox_priorbox <- ssd4_2_ssd4_2_relu_0_split_2
I1208 11:51:29.673377  7581 net.cpp:434] ssd4_2_mbox_priorbox <- data_data_0_split_6
I1208 11:51:29.673380  7581 net.cpp:408] ssd4_2_mbox_priorbox -> ssd4_2_mbox_priorbox
I1208 11:51:29.673399  7581 net.cpp:150] Setting up ssd4_2_mbox_priorbox
I1208 11:51:29.673403  7581 net.cpp:157] Top shape: 1 2 8 (16)
I1208 11:51:29.673405  7581 net.cpp:165] Memory required for data: 271968696
I1208 11:51:29.673406  7581 layer_factory.hpp:77] Creating layer mbox_loc
I1208 11:51:29.673410  7581 net.cpp:100] Creating Layer mbox_loc
I1208 11:51:29.673413  7581 net.cpp:434] mbox_loc <- conv5_5/sep_mbox_loc_flat
I1208 11:51:29.673418  7581 net.cpp:434] mbox_loc <- conv6/sep_mbox_loc_flat
I1208 11:51:29.673420  7581 net.cpp:434] mbox_loc <- ssd1_2_mbox_loc_flat
I1208 11:51:29.673422  7581 net.cpp:434] mbox_loc <- ssd2_2_mbox_loc_flat
I1208 11:51:29.673425  7581 net.cpp:434] mbox_loc <- ssd3_2_mbox_loc_flat
I1208 11:51:29.673427  7581 net.cpp:434] mbox_loc <- ssd4_2_mbox_loc_flat
I1208 11:51:29.673432  7581 net.cpp:408] mbox_loc -> mbox_loc
I1208 11:51:29.673454  7581 net.cpp:150] Setting up mbox_loc
I1208 11:51:29.673457  7581 net.cpp:157] Top shape: 1 6600 (6600)
I1208 11:51:29.673458  7581 net.cpp:165] Memory required for data: 271995096
I1208 11:51:29.673460  7581 layer_factory.hpp:77] Creating layer mbox_conf
I1208 11:51:29.673463  7581 net.cpp:100] Creating Layer mbox_conf
I1208 11:51:29.673465  7581 net.cpp:434] mbox_conf <- conv5_5/sep_mbox_conf_flat
I1208 11:51:29.673468  7581 net.cpp:434] mbox_conf <- conv6/sep_mbox_conf_flat
I1208 11:51:29.673471  7581 net.cpp:434] mbox_conf <- ssd1_2_mbox_conf_flat
I1208 11:51:29.673475  7581 net.cpp:434] mbox_conf <- ssd2_2_mbox_conf_flat
I1208 11:51:29.673476  7581 net.cpp:434] mbox_conf <- ssd3_2_mbox_conf_flat
I1208 11:51:29.673480  7581 net.cpp:434] mbox_conf <- ssd4_2_mbox_conf_flat
I1208 11:51:29.673481  7581 net.cpp:408] mbox_conf -> mbox_conf
I1208 11:51:29.673499  7581 net.cpp:150] Setting up mbox_conf
I1208 11:51:29.673503  7581 net.cpp:157] Top shape: 1 8250 (8250)
I1208 11:51:29.673506  7581 net.cpp:165] Memory required for data: 272028096
I1208 11:51:29.673506  7581 layer_factory.hpp:77] Creating layer mbox_priorbox
I1208 11:51:29.673509  7581 net.cpp:100] Creating Layer mbox_priorbox
I1208 11:51:29.673512  7581 net.cpp:434] mbox_priorbox <- conv5_5/sep_mbox_priorbox
I1208 11:51:29.673514  7581 net.cpp:434] mbox_priorbox <- conv6/sep_mbox_priorbox
I1208 11:51:29.673517  7581 net.cpp:434] mbox_priorbox <- ssd1_2_mbox_priorbox
I1208 11:51:29.673519  7581 net.cpp:434] mbox_priorbox <- ssd2_2_mbox_priorbox
I1208 11:51:29.673522  7581 net.cpp:434] mbox_priorbox <- ssd3_2_mbox_priorbox
I1208 11:51:29.673524  7581 net.cpp:434] mbox_priorbox <- ssd4_2_mbox_priorbox
I1208 11:51:29.673527  7581 net.cpp:408] mbox_priorbox -> mbox_priorbox
I1208 11:51:29.673552  7581 net.cpp:150] Setting up mbox_priorbox
I1208 11:51:29.673555  7581 net.cpp:157] Top shape: 1 2 6600 (13200)
I1208 11:51:29.673557  7581 net.cpp:165] Memory required for data: 272080896
I1208 11:51:29.673559  7581 layer_factory.hpp:77] Creating layer mbox_loss
I1208 11:51:29.673565  7581 net.cpp:100] Creating Layer mbox_loss
I1208 11:51:29.673568  7581 net.cpp:434] mbox_loss <- mbox_loc
I1208 11:51:29.673570  7581 net.cpp:434] mbox_loss <- mbox_conf
I1208 11:51:29.673573  7581 net.cpp:434] mbox_loss <- mbox_priorbox
…
name: "MobileNet_GTSDB_SSD_510x300_100_40_Square_1_test"
state {
  phase: TEST
}
layer {
  name: "data"
  type: "AnnotatedData"
  top: "data"
  top: "label"
  include {
    phase: TEST
  }
  transform_param {
    mean_value: 125
    mean_value: 127
    mean_value: 130
    resize_param {
      prob: 1
      resize_mode: WARP
      height: 300
      width: 510
      interp_mode: LINEAR
    }
  }
  data_param {
    source: "examples/GTSDB/GTSDB_test_lmdb"
    batch_size: 4
    backend: LMDB
  }
  annotated_data_param {
    batch_sampler {
    }
    label_map_file: "data/GTSDB/labelmap_GTSDB.prototxt"
  }
}
layer {
  name: "conv1"
  type: "Convolution"
  bottom: "data"
  top: "conv1"
  param {
    lr_mult: 1
    decay_mult: 1
  }
  convolution_param {
    num_output: 32
    bias_term: false
    pad: 1
    kernel_size: 3
    stride: 2
    weight_filler {
      type: "msra"
    }
  }
}
layer {
  name: "conv1/bn"
  type: "BatchNorm"
  bottom: "conv1"
  top: "conv1"
  batch_norm_param {
    use_global_stats: true
    eps: 1e-05
  }
}
layer {
  name: "conv1/scale"
  type: "Scale"
  bottom: "conv1"
  top: "conv1"
  param {
    lr_mult: 1
    decay_mult: 0
  }
  param {
    lr_mult: 1
    decay_mult: 0
  }
  scale_param {
    filler {
      type: "constant"
      value: 1
    }
    bias_term: true
    bias_filler {
      type: "constant"
      value: 0
    }
  }
}
layer {
  name: "relu1"
  type: "ReLU"
  bottom: "conv1"
  top: "conv1"
}
layer {
  name: "conv2_1/dw"
  type: "DepthwiseConvolution"
  bottom: "conv1"
  top: "conv2_1/dw"
  param {
    lr_mult: 1
    decay_mult: 1
  }
  convolution_param {
    num_output: 32
    bias_term: false
    pad: 1
    kernel_size: 3
    group: 32
    stride: 1
    weight_filler {
      type: "msra"
    }
  }
}
layer {
  name: "conv2_1/dw/bn"
  type: "BatchNorm"
  bottom: "conv2_1/dw"
  top: "conv2_1/dw"
  batch_norm_param {
    use_global_stats: true
    eps: 1e-05
  }
}
layer {
  name: "conv2_1/dw/scale"
  type: "Scale"
  bottom: "conv2_1/dw"
  top: "conv2_1/dw"
  param {
    lr_mult: 1
    decay_mult: 0
  }
  param {
    lr_mult: 1
    decay_mult: 0
  }
  scale_param {
    filler {
      type: "constant"
      value: 1
    }
    bias_term: true
    bias_filler {
      type: "constant"
      value: 0
    }
  }
}
layer {
  name: "relu2_1/dw"
  type: "ReLU"
  bottom: "conv2_1/dw"
  top: "conv2_1/dw"
}
layer {
  name: "conv2_1/sep"
  type: "Convolution"
  bottom: "conv2_1/dw"
  top: "conv2_1/sep"
  param {
    lr_mult: 1
    decay_mult: 1
  }
  convolution_param {
    num_output: 64
    bias_term: false
    pad: 0
    kernel_size: 1
    stride: 1
    weight_filler {
      type: "msra"
    }
  }
}
layer {
  name: "conv2_1/sep/bn"
  type: "BatchNorm"
  bottom: "conv2_1/sep"
  top: "conv2_1/sep"
  batch_norm_param {
    use_global_stats: true
    eps: 1e-05
  }
}
layer {
  name: "conv2_1/sep/scale"
  type: "Scale"
  bottom: "conv2_1/sep"
  top: "conv2_1/sep"
  param {
    lr_mult: 1
    decay_mult: 0
  }
  param {
    lr_mult: 1
    decay_mult: 0
  }
  scale_param {
    filler {
      type: "constant"
      value: 1
    }
    bias_term: true
    bias_filler {
      type: "constant"
      value: 0
    }
  }
}
layer {
  name: "relu2_1/sep"
  type: "ReLU"
  bottom: "conv2_1/sep"
  top: "conv2_1/sep"
}
layer {
  name: "conv2_2/dw"
  type: "DepthwiseConvolution"
  bottom: "conv2_1/sep"
  top: "conv2_2/dw"
  param {
    lr_mult: 1
    decay_mult: 1
  }
  convolution_param {
    num_output: 64
    bias_term: false
    pad: 1
    kernel_size: 3
    group: 64
    stride: 2
    weight_filler {
      type: "msra"
    }
  }
}
layer {
  name: "conv2_2/dw/bn"
  type: "BatchNorm"
  bottom: "conv2_2/dw"
  top: "conv2_2/dw"
  batch_norm_param {
    use_global_stats: true
    eps: 1e-05
  }
}
layer {
  name: "conv2_2/dw/scale"
  type: "Scale"
  bottom: "conv2_2/dw"
  top: "conv2_2/dw"
  param {
    lr_mult: 1
    decay_mult: 0
  }
  param {
    lr_mult: 1
    decay_mult: 0
  }
  scale_param {
    filler {
      type: "constant"
      value: 1
    }
    bias_term: true
    bias_filler {
      type: "constant"
      value: 0
    }
  }
}
layer {
  name: "relu2_2/dw"
  type: "ReLU"
  bottom: "conv2_2/dw"
  top: "conv2_2/dw"
}
layer {
  name: "conv2_2/sep"
  type: "Convolution"
  bottom: "conv2_2/dw"
  top: "conv2_2/sep"
  param {
    lr_mult: 1
    decay_mult: 1
  }
  convolution_param {
    num_output: 128
    bias_term: false
    pad: 0
    kernel_size: 1
    stride: 1
    weight_filler {
      type: "msra"
    }
  }
}
layer {
  name: "conv2_2/sep/bn"
  type: "BatchNorm"
  bottom: "conv2_2/sep"
  top: "conv2_2/sep"
  batch_norm_param {
    use_global_stats: true
    eps: 1e-05
  }
}
layer {
  name: "conv2_2/sep/scale"
  type: "Scale"
  bottom: "conv2_2/sep"
  top: "conv2_2/sep"
  param {
    lr_mult: 1
    decay_mult: 0
  }
  param {
    lr_mult: 1
    decay_mult: 0
  }
  scale_param {
    filler {
      type: "constant"
      value: 1
    }
    bias_term: true
    bias_filler {
      type: "constant"
      value: 0
    }
  }
}
layer {
  name: "relu2_2/sep"
  type: "ReLU"
  bottom: "conv2_2/sep"
  top: "conv2_2/sep"
}
layer {
  name: "conv3_1/dw"
  type: "DepthwiseConvolution"
  bottom: "conv2_2/sep"
  top: "conv3_1/dw"
  param {
    lr_mult: 1
    decay_mult: 1
  }
  convolution_param {
    num_output: 128
    bias_term: false
    pad: 1
    kernel_size: 3
    group: 128
    stride: 1
    weight_filler {
      type: "msra"
    }
  }
}
layer {
  name: "conv3_1/dw/bn"
  type: "BatchNorm"
  bottom: "conv3_1/dw"
  top: "conv3_1/dw"
  batch_norm_param {
    use_global_stats: true
    eps: 1e-05
  }
}
layer {
  name: "conv3_1/dw/scale"
  type: "Scale"
  bottom: "conv3_1/dw"
  top: "conv3_1/dw"
  param {
    lr_mult: 1
    decay_mult: 0
  }
  param {
    lr_mult: 1
    decay_mult: 0
  }
  scale_param {
    filler {
      type: "constant"
      value: 1
    }
    bias_term: true
    bias_filler {
      type: "constant"
      value: 0
    }
  }
}
layer {
  name: "relu3_1/dw"
  type: "ReLU"
  bottom: "conv3_1/dw"
  top: "conv3_1/dw"
}
layer {
  name: "conv3_1/sep"
  type: "Convolution"
  bottom: "conv3_1/dw"
  top: "conv3_1/sep"
  param {
    lr_mult: 1
    decay_mult: 1
  }
  convolution_param {
    num_output: 128
    bias_term: false
    pad: 0
    kernel_size: 1
    stride: 1
    weight_filler {
      type: "msra"
    }
  }
}
layer {
  name: "conv3_1/sep/bn"
  type: "BatchNorm"
  bottom: "conv3_1/sep"
  top: "conv3_1/sep"
  batch_norm_param {
    use_global_stats: true
    eps: 1e-05
  }
}
layer {
  name: "conv3_1/sep/scale"
  type: "Scale"
  bottom: "conv3_1/sep"
  top: "conv3_1/sep"
  param {
    lr_mult: 1
    decay_mult: 0
  }
  param {
    lr_mult: 1
    decay_mult: 0
  }
  scale_param {
    filler {
      type: "constant"
      value: 1
    }
    bias_term: true
    bias_filler {
      type: "constant"
      value: 0
    }
  }
}
layer {
  name: "relu3_1/sep"
  type: "ReLU"
  bottom: "conv3_1/sep"
  top: "conv3_1/sep"
}
layer {
  name: "conv3_2/dw"
  type: "DepthwiseConvolution"
  bottom: "conv3_1/sep"
  top: "conv3_2/dw"
  param {
    lr_mult: 1
    decay_mult: 1
  }
  convolution_param {
    num_output: 128
    bias_term: false
    pad: 1
    kernel_size: 3
    group: 128
    stride: 2
    weight_filler {
      type: "msra"
    }
  }
}
layer {
  name: "conv3_2/dw/bn"
  type: "BatchNorm"
  bottom: "conv3_2/dw"
  top: "conv3_2/dw"
  batch_norm_param {
    use_global_stats: true
    eps: 1e-05
  }
}
layer {
  name: "conv3_2/dw/scale"
  type: "Scale"
  bottom: "conv3_2/dw"
  top: "conv3_2/dw"
  param {
    lr_mult: 1
    decay_mult: 0
  }
  param {
    lr_mult: 1
    decay_mult: 0
  }
  scale_param {
    filler {
      type: "constant"
      value: 1
    }
    bias_term: true
    bias_filler {
      type: "constant"
      value: 0
    }
  }
}
layer {
  name: "relu3_2/dw"
  type: "ReLU"
  bottom: "conv3_2/dw"
  top: "conv3_2/dw"
}
layer {
  name: "conv3_2/sep"
  type: "Convolution"
  bottom: "conv3_2/dw"
  top: "conv3_2/sep"
  param {
    lr_mult: 1
    decay_mult: 1
  }
  convolution_param {
    num_output: 256
    bias_term: false
    pad: 0
    kernel_size: 1
    stride: 1
    weight_filler {
      type: "msra"
    }
  }
}
layer {
  name: "conv3_2/sep/bn"
  type: "BatchNorm"
  bottom: "conv3_2/sep"
  top: "conv3_2/sep"
  batch_norm_param {
    use_global_stats: true
    eps: 1e-05
  }
}
layer {
  name: "conv3_2/sep/scale"
  type: "Scale"
  bottom: "conv3_2/sep"
  top: "conv3_2/sep"
  param {
    lr_mult: 1
    decay_mult: 0
  }
  param {
    lr_mult: 1
    decay_mult: 0
  }
  scale_param {
    filler {
      type: "constant"
      value: 1
    }
    bias_term: true
    bias_filler {
      type: "constant"
      value: 0
    }
  }
}
layer {
  name: "relu3_2/sep"
  type: "ReLU"
  bottom: "conv3_2/sep"
  top: "conv3_2/sep"
}
layer {
  name: "conv4_1/dw"
  type: "DepthwiseConvolution"
  bottom: "conv3_2/sep"
  top: "conv4_1/dw"
  param {
    lr_mult: 1
    decay_mult: 1
  }
  convolution_param {
    num_output: 256
    bias_term: false
    pad: 1
    kernel_size: 3
    group: 256
    stride: 1
    weight_filler {
      type: "msra"
    }
  }
}
layer {
  name: "conv4_1/dw/bn"
  type: "BatchNorm"
  bottom: "conv4_1/dw"
  top: "conv4_1/dw"
  batch_norm_param {
    use_global_stats: true
    eps: 1e-05
  }
}
layer {
  name: "conv4_1/dw/scale"
  type: "Scale"
  bottom: "conv4_1/dw"
  top: "conv4_1/dw"
  param {
    lr_mult: 1
    decay_mult: 0
  }
  param {
    lr_mult: 1
    decay_mult: 0
  }
  scale_param {
    filler {
      type: "constant"
      value: 1
    }
    bias_term: true
    bias_filler {
      type: "constant"
      value: 0
    }
  }
}
layer {
  name: "relu4_1/dw"
  type: "ReLU"
  bottom: "conv4_1/dw"
  top: "conv4_1/dw"
}
layer {
  name: "conv4_1/sep"
  type: "Convolution"
  bottom: "conv4_1/dw"
  top: "conv4_1/sep"
  param {
    lr_mult: 1
    decay_mult: 1
  }
  convolution_param {
    num_output: 256
    bias_term: false
    pad: 0
    kernel_size: 1
    stride: 1
    weight_filler {
      type: "msra"
    }
  }
}
layer {
  name: "conv4_1/sep/bn"
  type: "BatchNorm"
  bottom: "conv4_1/sep"
  top: "conv4_1/sep"
  batch_norm_param {
    use_global_stats: true
    eps: 1e-05
  }
}
layer {
  name: "conv4_1/sep/scale"
  type: "Scale"
  bottom: "conv4_1/sep"
  top: "conv4_1/sep"
  param {
    lr_mult: 1
    decay_mult: 0
  }
  param {
    lr_mult: 1
    decay_mult: 0
  }
  scale_param {
    filler {
      type: "constant"
      value: 1
    }
    bias_term: true
    bias_filler {
      type: "constant"
      value: 0
    }
  }
}
layer {
  name: "relu4_1/sep"
  type: "ReLU"
  bottom: "conv4_1/sep"
  top: "conv4_1/sep"
}
layer {
  name: "conv4_2/dw"
  type: "DepthwiseConvolution"
  bottom: "conv4_1/sep"
  top: "conv4_2/dw"
  param {
    lr_mult: 1
    decay_mult: 1
  }
  convolution_param {
    num_output: 256
    bias_term: false
    pad: 1
    kernel_size: 3
    group: 256
    stride: 2
    weight_filler {
      type: "msra"
    }
  }
}
layer {
  name: "conv4_2/dw/bn"
  type: "BatchNorm"
  bottom: "conv4_2/dw"
  top: "conv4_2/dw"
  batch_norm_param {
    use_global_stats: true
    eps: 1e-05
  }
}
layer {
  name: "conv4_2/dw/scale"
  type: "Scale"
  bottom: "conv4_2/dw"
  top: "conv4_2/dw"
  param {
    lr_mult: 1
    decay_mult: 0
  }
  param {
    lr_mult: 1
    decay_mult: 0
  }
  scale_param {
    filler {
      type: "constant"
      value: 1
    }
    bias_term: true
    bias_filler {
      type: "constant"
      value: 0
    }
  }
}
layer {
  name: "relu4_2/dw"
  type: "ReLU"
  bottom: "conv4_2/dw"
  top: "conv4_2/dw"
}
layer {
  name: "conv4_2/sep"
  type: "Convolution"
  bottom: "conv4_2/dw"
  top: "conv4_2/sep"
  param {
    lr_mult: 1
    decay_mult: 1
  }
  convolution_param {
    num_output: 512
    bias_term: false
    pad: 0
    kernel_size: 1
    stride: 1
    weight_filler {
      type: "msra"
    }
  }
}
layer {
  name: "conv4_2/sep/bn"
  type: "BatchNorm"
  bottom: "conv4_2/sep"
  top: "conv4_2/sep"
  batch_norm_param {
    use_global_stats: true
    eps: 1e-05
  }
}
layer {
  name: "conv4_2/sep/scale"
  type: "Scale"
  bottom: "conv4_2/sep"
  top: "conv4_2/sep"
  param {
    lr_mult: 1
    decay_mult: 0
  }
  param {
    lr_mult: 1
    decay_mult: 0
  }
  scale_param {
    filler {
      type: "constant"
      value: 1
    }
    bias_term: true
    bias_filler {
      type: "constant"
      value: 0
    }
  }
}
layer {
  name: "relu4_2/sep"
  type: "ReLU"
  bottom: "conv4_2/sep"
  top: "conv4_2/sep"
}
layer {
  name: "conv5_1/dw"
  type: "DepthwiseConvolution"
  bottom: "conv4_2/sep"
  top: "conv5_1/dw"
  param {
    lr_mult: 1
    decay_mult: 1
  }
  convolution_param {
    num_output: 512
    bias_term: false
    pad: 1
    kernel_size: 3
    group: 512
    stride: 1
    weight_filler {
      type: "msra"
    }
  }
}
layer {
  name: "conv5_1/dw/bn"
  type: "BatchNorm"
  bottom: "conv5_1/dw"
  top: "conv5_1/dw"
  batch_norm_param {
    use_global_stats: true
    eps: 1e-05
  }
}
layer {
  name: "conv5_1/dw/scale"
  type: "Scale"
  bottom: "conv5_1/dw"
  top: "conv5_1/dw"
  param {
    lr_mult: 1
    decay_mult: 0
  }
  param {
    lr_mult: 1
    decay_mult: 0
  }
  scale_param {
    filler {
      type: "constant"
      value: 1
    }
    bias_term: true
    bias_filler {
      type: "constant"
      value: 0
    }
  }
}
layer {
  name: "relu5_1/dw"
  type: "ReLU"
  bottom: "conv5_1/dw"
  top: "conv5_1/dw"
}
layer {
  name: "conv5_1/sep"
  type: "Convolution"
  bottom: "conv5_1/dw"
  top: "conv5_1/sep"
  param {
    lr_mult: 1
    decay_mult: 1
  }
  convolution_param {
    num_output: 512
    bias_term: false
    pad: 0
    kernel_size: 1
    stride: 1
    weight_filler {
      type: "msra"
    }
  }
}
layer {
  name: "conv5_1/sep/bn"
  type: "BatchNorm"
  bottom: "conv5_1/sep"
  top: "conv5_1/sep"
  batch_norm_param {
    use_global_stats: true
    eps: 1e-05
  }
}
layer {
  name: "conv5_1/sep/scale"
  type: "Scale"
  bottom: "conv5_1/sep"
  top: "conv5_1/sep"
  param {
    lr_mult: 1
    decay_mult: 0
  }
  param {
    lr_mult: 1
    decay_mult: 0
  }
  scale_param {
    filler {
      type: "constant"
      value: 1
    }
    bias_term: true
    bias_filler {
      type: "constant"
      value: 0
    }
  }
}
layer {
  name: "relu5_1/sep"
  type: "ReLU"
  bottom: "conv5_1/sep"
  top: "conv5_1/sep"
}
layer {
  name: "conv5_2/dw"
  type: "DepthwiseConvolution"
  bottom: "conv5_1/sep"
  top: "conv5_2/dw"
  param {
    lr_mult: 1
    decay_mult: 1
  }
  convolution_param {
    num_output: 512
    bias_term: false
    pad: 1
    kernel_size: 3
    group: 512
    stride: 1
    weight_filler {
      type: "msra"
    }
  }
}
layer {
  name: "conv5_2/dw/bn"
  type: "BatchNorm"
  bottom: "conv5_2/dw"
  top: "conv5_2/dw"
  batch_norm_param {
    use_global_stats: true
    eps: 1e-05
  }
}
layer {
  name: "conv5_2/dw/scale"
  type: "Scale"
  bottom: "conv5_2/dw"
  top: "conv5_2/dw"
  param {
    lr_mult: 1
    decay_mult: 0
  }
  param {
    lr_mult: 1
    decay_mult: 0
  }
  scale_param {
    filler {
      type: "constant"
      value: 1
    }
    bias_term: true
    bias_filler {
      type: "constant"
      value: 0
    }
  }
}
layer {
  name: "relu5_2/dw"
  type: "ReLU"
  bottom: "conv5_2/dw"
  top: "conv5_2/dw"
}
layer {
  name: "conv5_2/sep"
  type: "Convolution"
  bottom: "conv5_2/dw"
  top: "conv5_2/sep"
  param {
    lr_mult: 1
    decay_mult: 1
  }
  convolution_param {
    num_output: 512
    bias_term: false
    pad: 0
    kernel_size: 1
    stride: 1
    weight_filler {
      type: "msra"
    }
  }
}
layer {
  name: "conv5_2/sep/bn"
  type: "BatchNorm"
  bottom: "conv5_2/sep"
  top: "conv5_2/sep"
  batch_norm_param {
    use_global_stats: true
    eps: 1e-05
  }
}
layer {
  name: "conv5_2/sep/scale"
  type: "Scale"
  bottom: "conv5_2/sep"
  top: "conv5_2/sep"
  param {
    lr_mult: 1
    decay_mult: 0
  }
  param {
    lr_mult: 1
    decay_mult: 0
  }
  scale_param {
    filler {
      type: "constant"
      value: 1
    }
    bias_term: true
    bias_filler {
      type: "constant"
      value: 0
    }
  }
}
layer {
  name: "relu5_2/sep"
  type: "ReLU"
  bottom: "conv5_2/sep"
  top: "conv5_2/sep"
}
layer {
  name: "conv5_3/dw"
  type: "DepthwiseConvolution"
  bottom: "conv5_2/sep"
  top: "conv5_3/dw"
  param {
    lr_mult: 1
    decay_mult: 1
  }
  convolution_param {
    num_output: 512
    bias_term: false
    pad: 1
    kernel_size: 3
    group: 512
    stride: 1
    weight_filler {
      type: "msra"
    }
  }
}
layer {
  name: "conv5_3/dw/bn"
  type: "BatchNorm"
  bottom: "conv5_3/dw"
  top: "conv5_3/dw"
  batch_norm_param {
    use_global_stats: true
    eps: 1e-05
  }
}
layer {
  name: "conv5_3/dw/scale"
  type: "Scale"
  bottom: "conv5_3/dw"
  top: "conv5_3/dw"
  param {
    lr_mult: 1
    decay_mult: 0
  }
  param {
    lr_mult: 1
    decay_mult: 0
  }
  scale_param {
    filler {
      type: "constant"
      value: 1
    }
    bias_term: true
    bias_filler {
      type: "constant"
      value: 0
    }
  }
}
layer {
  name: "relu5_3/dw"
  type: "ReLU"
  bottom: "conv5_3/dw"
  top: "conv5_3/dw"
}
layer {
  name: "conv5_3/sep"
  type: "Convolution"
  bottom: "conv5_3/dw"
  top: "conv5_3/sep"
  param {
    lr_mult: 1
    decay_mult: 1
  }
  convolution_param {
    num_output: 512
    bias_term: false
    pad: 0
    kernel_size: 1
    stride: 1
    weight_filler {
      type: "msra"
    }
  }
}
layer {
  name: "conv5_3/sep/bn"
  type: "BatchNorm"
  bottom: "conv5_3/sep"
  top: "conv5_3/sep"
  batch_norm_param {
    use_global_stats: true
    eps: 1e-05
  }
}
layer {
  name: "conv5_3/sep/scale"
  type: "Scale"
  bottom: "conv5_3/sep"
  top: "conv5_3/sep"
  param {
    lr_mult: 1
    decay_mult: 0
  }
  param {
    lr_mult: 1
    decay_mult: 0
  }
  scale_param {
    filler {
      type: "constant"
      value: 1
    }
    bias_term: true
    bias_filler {
      type: "constant"
      value: 0
    }
  }
}
layer {
  name: "relu5_3/sep"
  type: "ReLU"
  bottom: "conv5_3/sep"
  top: "conv5_3/sep"
}
layer {
  name: "conv5_4/dw"
  type: "DepthwiseConvolution"
  bottom: "conv5_3/sep"
  top: "conv5_4/dw"
  param {
    lr_mult: 1
    decay_mult: 1
  }
  convolution_param {
    num_output: 512
    bias_term: false
    pad: 1
    kernel_size: 3
    group: 512
    stride: 1
    weight_filler {
      type: "msra"
    }
  }
}
layer {
  name: "conv5_4/dw/bn"
  type: "BatchNorm"
  bottom: "conv5_4/dw"
  top: "conv5_4/dw"
  batch_norm_param {
    use_global_stats: true
    eps: 1e-05
  }
}
layer {
  name: "conv5_4/dw/scale"
  type: "Scale"
  bottom: "conv5_4/dw"
  top: "conv5_4/dw"
  param {
    lr_mult: 1
    decay_mult: 0
  }
  param {
    lr_mult: 1
    decay_mult: 0
  }
  scale_param {
    filler {
      type: "constant"
      value: 1
    }
    bias_term: true
    bias_filler {
      type: "constant"
      value: 0
    }
  }
}
layer {
  name: "relu5_4/dw"
  type: "ReLU"
  bottom: "conv5_4/dw"
  top: "conv5_4/dw"
}
layer {
  name: "conv5_4/sep"
  type: "Convolution"
  bottom: "conv5_4/dw"
  top: "conv5_4/sep"
  param {
    lr_mult: 1
    decay_mult: 1
  }
  convolution_param {
    num_output: 512
    bias_term: false
    pad: 0
    kernel_size: 1
    stride: 1
    weight_filler {
      type: "msra"
    }
  }
}
layer {
  name: "conv5_4/sep/bn"
  type: "BatchNorm"
  bottom: "conv5_4/sep"
  top: "conv5_4/sep"
  batch_norm_param {
    use_global_stats: true
    eps: 1e-05
  }
}
layer {
  name: "conv5_4/sep/scale"
  type: "Scale"
  bottom: "conv5_4/sep"
  top: "conv5_4/sep"
  param {
    lr_mult: 1
    decay_mult: 0
  }
  param {
    lr_mult: 1
    decay_mult: 0
  }
  scale_param {
    filler {
      type: "constant"
      value: 1
    }
    bias_term: true
    bias_filler {
      type: "constant"
      value: 0
    }
  }
}
layer {
  name: "relu5_4/sep"
  type: "ReLU"
  bottom: "conv5_4/sep"
  top: "conv5_4/sep"
}
layer {
  name: "conv5_5/dw"
  type: "DepthwiseConvolution"
  bottom: "conv5_4/sep"
  top: "conv5_5/dw"
  param {
    lr_mult: 1
    decay_mult: 1
  }
  convolution_param {
    num_output: 512
    bias_term: false
    pad: 1
    kernel_size: 3
    group: 512
    stride: 1
    weight_filler {
      type: "msra"
    }
  }
}
layer {
  name: "conv5_5/dw/bn"
  type: "BatchNorm"
  bottom: "conv5_5/dw"
  top: "conv5_5/dw"
  batch_norm_param {
    use_global_stats: true
    eps: 1e-05
  }
}
layer {
  name: "conv5_5/dw/scale"
  type: "Scale"
  bottom: "conv5_5/dw"
  top: "conv5_5/dw"
  param {
    lr_mult: 1
    decay_mult: 0
  }
  param {
    lr_mult: 1
    decay_mult: 0
  }
  scale_param {
    filler {
      type: "constant"
      value: 1
    }
    bias_term: true
    bias_filler {
      type: "constant"
      value: 0
    }
  }
}
layer {
  name: "relu5_5/dw"
  type: "ReLU"
  bottom: "conv5_5/dw"
  top: "conv5_5/dw"
}
layer {
  name: "conv5_5/sep"
  type: "Convolution"
  bottom: "conv5_5/dw"
  top: "conv5_5/sep"
  param {
    lr_mult: 1
    decay_mult: 1
  }
  convolution_param {
    num_output: 512
    bias_term: false
    pad: 0
    kernel_size: 1
    stride: 1
    weight_filler {
      type: "msra"
    }
  }
}
layer {
  name: "conv5_5/sep/bn"
  type: "BatchNorm"
  bottom: "conv5_5/sep"
  top: "conv5_5/sep"
  batch_norm_param {
    use_global_stats: true
    eps: 1e-05
  }
}
layer {
  name: "conv5_5/sep/scale"
  type: "Scale"
  bottom: "conv5_5/sep"
  top: "conv5_5/sep"
  param {
    lr_mult: 1
    decay_mult: 0
  }
  param {
    lr_mult: 1
    decay_mult: 0
  }
  scale_param {
    filler {
      type: "constant"
      value: 1
    }
    bias_term: true
    bias_filler {
      type: "constant"
      value: 0
    }
  }
}
layer {
  name: "relu5_5/sep"
  type: "ReLU"
  bottom: "conv5_5/sep"
  top: "conv5_5/sep"
}
layer {
  name: "conv5_6/dw"
  type: "DepthwiseConvolution"
  bottom: "conv5_5/sep"
  top: "conv5_6/dw"
  param {
    lr_mult: 1
    decay_mult: 1
  }
  convolution_param {
    num_output: 512
    bias_term: false
    pad: 1
    kernel_size: 3
    group: 512
    stride: 2
…
I1208 11:51:29.741176  7581 layer_factory.hpp:77] Creating layer conv5_6/dw/scale
I1208 11:51:29.741283  7581 net.cpp:150] Setting up conv5_6/dw/scale
I1208 11:51:29.741288  7581 net.cpp:157] Top shape: 4 512 10 16 (327680)
I1208 11:51:29.741292  7581 net.cpp:165] Memory required for data: 1039776800
I1208 11:51:29.741298  7581 layer_factory.hpp:77] Creating layer relu5_6/dw
I1208 11:51:29.741304  7581 net.cpp:100] Creating Layer relu5_6/dw
I1208 11:51:29.741307  7581 net.cpp:434] relu5_6/dw <- conv5_6/dw
I1208 11:51:29.741312  7581 net.cpp:395] relu5_6/dw -> conv5_6/dw (in-place)
I1208 11:51:29.741607  7581 net.cpp:150] Setting up relu5_6/dw
I1208 11:51:29.741613  7581 net.cpp:157] Top shape: 4 512 10 16 (327680)
I1208 11:51:29.741616  7581 net.cpp:165] Memory required for data: 1041087520
I1208 11:51:29.741619  7581 layer_factory.hpp:77] Creating layer conv5_6/sep
I1208 11:51:29.741627  7581 net.cpp:100] Creating Layer conv5_6/sep
I1208 11:51:29.741631  7581 net.cpp:434] conv5_6/sep <- conv5_6/dw
I1208 11:51:29.741636  7581 net.cpp:408] conv5_6/sep -> conv5_6/sep
I1208 11:51:29.747092  7581 net.cpp:150] Setting up conv5_6/sep
I1208 11:51:29.747107  7581 net.cpp:157] Top shape: 4 1024 10 16 (655360)
I1208 11:51:29.747108  7581 net.cpp:165] Memory required for data: 1043708960
I1208 11:51:29.747115  7581 layer_factory.hpp:77] Creating layer conv5_6/sep/bn
I1208 11:51:29.747124  7581 net.cpp:100] Creating Layer conv5_6/sep/bn
I1208 11:51:29.747129  7581 net.cpp:434] conv5_6/sep/bn <- conv5_6/sep
I1208 11:51:29.747133  7581 net.cpp:395] conv5_6/sep/bn -> conv5_6/sep (in-place)
I1208 11:51:29.747330  7581 net.cpp:150] Setting up conv5_6/sep/bn
I1208 11:51:29.747336  7581 net.cpp:157] Top shape: 4 1024 10 16 (655360)
I1208 11:51:29.747339  7581 net.cpp:165] Memory required for data: 1046330400
I1208 11:51:29.747346  7581 layer_factory.hpp:77] Creating layer conv5_6/sep/scale
I1208 11:51:29.747354  7581 net.cpp:100] Creating Layer conv5_6/sep/scale
I1208 11:51:29.747366  7581 net.cpp:434] conv5_6/sep/scale <- conv5_6/sep
I1208 11:51:29.747371  7581 net.cpp:395] conv5_6/sep/scale -> conv5_6/sep (in-place)
I1208 11:51:29.747409  7581 layer_factory.hpp:77] Creating layer conv5_6/sep/scale
I1208 11:51:29.747529  7581 net.cpp:150] Setting up conv5_6/sep/scale
I1208 11:51:29.747534  7581 net.cpp:157] Top shape: 4 1024 10 16 (655360)
I1208 11:51:29.747536  7581 net.cpp:165] Memory required for data: 1048951840
I1208 11:51:29.747542  7581 layer_factory.hpp:77] Creating layer relu5_6/sep
I1208 11:51:29.747546  7581 net.cpp:100] Creating Layer relu5_6/sep
I1208 11:51:29.747550  7581 net.cpp:434] relu5_6/sep <- conv5_6/sep
I1208 11:51:29.747555  7581 net.cpp:395] relu5_6/sep -> conv5_6/sep (in-place)
I1208 11:51:29.747854  7581 net.cpp:150] Setting up relu5_6/sep
I1208 11:51:29.747862  7581 net.cpp:157] Top shape: 4 1024 10 16 (655360)
I1208 11:51:29.747865  7581 net.cpp:165] Memory required for data: 1051573280
I1208 11:51:29.747869  7581 layer_factory.hpp:77] Creating layer conv6/dw
I1208 11:51:29.747875  7581 net.cpp:100] Creating Layer conv6/dw
I1208 11:51:29.747879  7581 net.cpp:434] conv6/dw <- conv5_6/sep
I1208 11:51:29.747884  7581 net.cpp:408] conv6/dw -> conv6/dw
I1208 11:51:29.748133  7581 net.cpp:150] Setting up conv6/dw
I1208 11:51:29.748138  7581 net.cpp:157] Top shape: 4 1024 10 16 (655360)
I1208 11:51:29.748142  7581 net.cpp:165] Memory required for data: 1054194720
I1208 11:51:29.748147  7581 layer_factory.hpp:77] Creating layer conv6/dw/bn
I1208 11:51:29.748152  7581 net.cpp:100] Creating Layer conv6/dw/bn
I1208 11:51:29.748155  7581 net.cpp:434] conv6/dw/bn <- conv6/dw
I1208 11:51:29.748160  7581 net.cpp:395] conv6/dw/bn -> conv6/dw (in-place)
I1208 11:51:29.748345  7581 net.cpp:150] Setting up conv6/dw/bn
I1208 11:51:29.748350  7581 net.cpp:157] Top shape: 4 1024 10 16 (655360)
I1208 11:51:29.748353  7581 net.cpp:165] Memory required for data: 1056816160
I1208 11:51:29.748360  7581 layer_factory.hpp:77] Creating layer conv6/dw/scale
I1208 11:51:29.748366  7581 net.cpp:100] Creating Layer conv6/dw/scale
I1208 11:51:29.748369  7581 net.cpp:434] conv6/dw/scale <- conv6/dw
I1208 11:51:29.748373  7581 net.cpp:395] conv6/dw/scale -> conv6/dw (in-place)
I1208 11:51:29.748410  7581 layer_factory.hpp:77] Creating layer conv6/dw/scale
I1208 11:51:29.748519  7581 net.cpp:150] Setting up conv6/dw/scale
I1208 11:51:29.748524  7581 net.cpp:157] Top shape: 4 1024 10 16 (655360)
I1208 11:51:29.748526  7581 net.cpp:165] Memory required for data: 1059437600
I1208 11:51:29.748533  7581 layer_factory.hpp:77] Creating layer relu6/dw
I1208 11:51:29.748538  7581 net.cpp:100] Creating Layer relu6/dw
I1208 11:51:29.748540  7581 net.cpp:434] relu6/dw <- conv6/dw
I1208 11:51:29.748545  7581 net.cpp:395] relu6/dw -> conv6/dw (in-place)
I1208 11:51:29.748842  7581 net.cpp:150] Setting up relu6/dw
I1208 11:51:29.748848  7581 net.cpp:157] Top shape: 4 1024 10 16 (655360)
I1208 11:51:29.748852  7581 net.cpp:165] Memory required for data: 1062059040
I1208 11:51:29.748855  7581 layer_factory.hpp:77] Creating layer conv6/sep
I1208 11:51:29.748862  7581 net.cpp:100] Creating Layer conv6/sep
I1208 11:51:29.748865  7581 net.cpp:434] conv6/sep <- conv6/dw
I1208 11:51:29.748870  7581 net.cpp:408] conv6/sep -> conv6/sep
I1208 11:51:29.756853  7581 net.cpp:150] Setting up conv6/sep
I1208 11:51:29.756871  7581 net.cpp:157] Top shape: 4 1024 10 16 (655360)
I1208 11:51:29.756875  7581 net.cpp:165] Memory required for data: 1064680480
I1208 11:51:29.756881  7581 layer_factory.hpp:77] Creating layer conv6/sep/bn
I1208 11:51:29.756889  7581 net.cpp:100] Creating Layer conv6/sep/bn
I1208 11:51:29.756894  7581 net.cpp:434] conv6/sep/bn <- conv6/sep
I1208 11:51:29.756902  7581 net.cpp:395] conv6/sep/bn -> conv6/sep (in-place)
I1208 11:51:29.757102  7581 net.cpp:150] Setting up conv6/sep/bn
I1208 11:51:29.757108  7581 net.cpp:157] Top shape: 4 1024 10 16 (655360)
I1208 11:51:29.757110  7581 net.cpp:165] Memory required for data: 1067301920
I1208 11:51:29.757117  7581 layer_factory.hpp:77] Creating layer conv6/sep/scale
I1208 11:51:29.757133  7581 net.cpp:100] Creating Layer conv6/sep/scale
I1208 11:51:29.757135  7581 net.cpp:434] conv6/sep/scale <- conv6/sep
I1208 11:51:29.757140  7581 net.cpp:395] conv6/sep/scale -> conv6/sep (in-place)
I1208 11:51:29.757180  7581 layer_factory.hpp:77] Creating layer conv6/sep/scale
I1208 11:51:29.757292  7581 net.cpp:150] Setting up conv6/sep/scale
I1208 11:51:29.757297  7581 net.cpp:157] Top shape: 4 1024 10 16 (655360)
I1208 11:51:29.757299  7581 net.cpp:165] Memory required for data: 1069923360
I1208 11:51:29.757305  7581 layer_factory.hpp:77] Creating layer relu6/sep
I1208 11:51:29.757310  7581 net.cpp:100] Creating Layer relu6/sep
I1208 11:51:29.757313  7581 net.cpp:434] relu6/sep <- conv6/sep
I1208 11:51:29.757319  7581 net.cpp:395] relu6/sep -> conv6/sep (in-place)
I1208 11:51:29.757616  7581 net.cpp:150] Setting up relu6/sep
I1208 11:51:29.757622  7581 net.cpp:157] Top shape: 4 1024 10 16 (655360)
I1208 11:51:29.757624  7581 net.cpp:165] Memory required for data: 1072544800
I1208 11:51:29.757627  7581 layer_factory.hpp:77] Creating layer conv6/sep_relu6/sep_0_split
I1208 11:51:29.757633  7581 net.cpp:100] Creating Layer conv6/sep_relu6/sep_0_split
I1208 11:51:29.757637  7581 net.cpp:434] conv6/sep_relu6/sep_0_split <- conv6/sep
I1208 11:51:29.757642  7581 net.cpp:408] conv6/sep_relu6/sep_0_split -> conv6/sep_relu6/sep_0_split_0
I1208 11:51:29.757648  7581 net.cpp:408] conv6/sep_relu6/sep_0_split -> conv6/sep_relu6/sep_0_split_1
I1208 11:51:29.757654  7581 net.cpp:408] conv6/sep_relu6/sep_0_split -> conv6/sep_relu6/sep_0_split_2
I1208 11:51:29.757661  7581 net.cpp:408] conv6/sep_relu6/sep_0_split -> conv6/sep_relu6/sep_0_split_3
I1208 11:51:29.757726  7581 net.cpp:150] Setting up conv6/sep_relu6/sep_0_split
I1208 11:51:29.757731  7581 net.cpp:157] Top shape: 4 1024 10 16 (655360)
I1208 11:51:29.757736  7581 net.cpp:157] Top shape: 4 1024 10 16 (655360)
I1208 11:51:29.757740  7581 net.cpp:157] Top shape: 4 1024 10 16 (655360)
I1208 11:51:29.757745  7581 net.cpp:157] Top shape: 4 1024 10 16 (655360)
I1208 11:51:29.757747  7581 net.cpp:165] Memory required for data: 1083030560
I1208 11:51:29.757751  7581 layer_factory.hpp:77] Creating layer ssd1_1
I1208 11:51:29.757760  7581 net.cpp:100] Creating Layer ssd1_1
I1208 11:51:29.757762  7581 net.cpp:434] ssd1_1 <- conv6/sep_relu6/sep_0_split_0
I1208 11:51:29.757767  7581 net.cpp:408] ssd1_1 -> ssd1_1
I1208 11:51:29.760313  7581 net.cpp:150] Setting up ssd1_1
I1208 11:51:29.760324  7581 net.cpp:157] Top shape: 4 256 10 16 (163840)
I1208 11:51:29.760325  7581 net.cpp:165] Memory required for data: 1083685920
I1208 11:51:29.760332  7581 layer_factory.hpp:77] Creating layer ssd1_1_relu
I1208 11:51:29.760339  7581 net.cpp:100] Creating Layer ssd1_1_relu
I1208 11:51:29.760342  7581 net.cpp:434] ssd1_1_relu <- ssd1_1
I1208 11:51:29.760349  7581 net.cpp:395] ssd1_1_relu -> ssd1_1 (in-place)
I1208 11:51:29.760767  7581 net.cpp:150] Setting up ssd1_1_relu
I1208 11:51:29.760776  7581 net.cpp:157] Top shape: 4 256 10 16 (163840)
I1208 11:51:29.760778  7581 net.cpp:165] Memory required for data: 1084341280
I1208 11:51:29.760782  7581 layer_factory.hpp:77] Creating layer ssd1_2
I1208 11:51:29.760789  7581 net.cpp:100] Creating Layer ssd1_2
I1208 11:51:29.760793  7581 net.cpp:434] ssd1_2 <- ssd1_1
I1208 11:51:29.760799  7581 net.cpp:408] ssd1_2 -> ssd1_2
I1208 11:51:29.767592  7581 net.cpp:150] Setting up ssd1_2
I1208 11:51:29.767608  7581 net.cpp:157] Top shape: 4 512 5 8 (81920)
I1208 11:51:29.767611  7581 net.cpp:165] Memory required for data: 1084668960
I1208 11:51:29.767619  7581 layer_factory.hpp:77] Creating layer ssd1_2_relu
I1208 11:51:29.767627  7581 net.cpp:100] Creating Layer ssd1_2_relu
I1208 11:51:29.767632  7581 net.cpp:434] ssd1_2_relu <- ssd1_2
I1208 11:51:29.767638  7581 net.cpp:395] ssd1_2_relu -> ssd1_2 (in-place)
I1208 11:51:29.767961  7581 net.cpp:150] Setting up ssd1_2_relu
I1208 11:51:29.767967  7581 net.cpp:157] Top shape: 4 512 5 8 (81920)
I1208 11:51:29.767969  7581 net.cpp:165] Memory required for data: 1084996640
I1208 11:51:29.767987  7581 layer_factory.hpp:77] Creating layer ssd1_2_ssd1_2_relu_0_split
I1208 11:51:29.767992  7581 net.cpp:100] Creating Layer ssd1_2_ssd1_2_relu_0_split
I1208 11:51:29.767995  7581 net.cpp:434] ssd1_2_ssd1_2_relu_0_split <- ssd1_2
I1208 11:51:29.768002  7581 net.cpp:408] ssd1_2_ssd1_2_relu_0_split -> ssd1_2_ssd1_2_relu_0_split_0
I1208 11:51:29.768008  7581 net.cpp:408] ssd1_2_ssd1_2_relu_0_split -> ssd1_2_ssd1_2_relu_0_split_1
I1208 11:51:29.768015  7581 net.cpp:408] ssd1_2_ssd1_2_relu_0_split -> ssd1_2_ssd1_2_relu_0_split_2
I1208 11:51:29.768021  7581 net.cpp:408] ssd1_2_ssd1_2_relu_0_split -> ssd1_2_ssd1_2_relu_0_split_3
I1208 11:51:29.768091  7581 net.cpp:150] Setting up ssd1_2_ssd1_2_relu_0_split
I1208 11:51:29.768097  7581 net.cpp:157] Top shape: 4 512 5 8 (81920)
I1208 11:51:29.768101  7581 net.cpp:157] Top shape: 4 512 5 8 (81920)
I1208 11:51:29.768105  7581 net.cpp:157] Top shape: 4 512 5 8 (81920)
I1208 11:51:29.768110  7581 net.cpp:157] Top shape: 4 512 5 8 (81920)
I1208 11:51:29.768112  7581 net.cpp:165] Memory required for data: 1086307360
I1208 11:51:29.768115  7581 layer_factory.hpp:77] Creating layer ssd2_1
I1208 11:51:29.768126  7581 net.cpp:100] Creating Layer ssd2_1
I1208 11:51:29.768127  7581 net.cpp:434] ssd2_1 <- ssd1_2_ssd1_2_relu_0_split_0
I1208 11:51:29.768134  7581 net.cpp:408] ssd2_1 -> ssd2_1
I1208 11:51:29.769600  7581 net.cpp:150] Setting up ssd2_1
I1208 11:51:29.769609  7581 net.cpp:157] Top shape: 4 128 5 8 (20480)
I1208 11:51:29.769613  7581 net.cpp:165] Memory required for data: 1086389280
I1208 11:51:29.769619  7581 layer_factory.hpp:77] Creating layer ssd2_1_relu
I1208 11:51:29.769623  7581 net.cpp:100] Creating Layer ssd2_1_relu
I1208 11:51:29.769628  7581 net.cpp:434] ssd2_1_relu <- ssd2_1
I1208 11:51:29.769631  7581 net.cpp:395] ssd2_1_relu -> ssd2_1 (in-place)
I1208 11:51:29.770040  7581 net.cpp:150] Setting up ssd2_1_relu
I1208 11:51:29.770047  7581 net.cpp:157] Top shape: 4 128 5 8 (20480)
I1208 11:51:29.770050  7581 net.cpp:165] Memory required for data: 1086471200
I1208 11:51:29.770053  7581 layer_factory.hpp:77] Creating layer ssd2_2
I1208 11:51:29.770061  7581 net.cpp:100] Creating Layer ssd2_2
I1208 11:51:29.770066  7581 net.cpp:434] ssd2_2 <- ssd2_1
I1208 11:51:29.770071  7581 net.cpp:408] ssd2_2 -> ssd2_2
I1208 11:51:29.773499  7581 net.cpp:150] Setting up ssd2_2
I1208 11:51:29.773514  7581 net.cpp:157] Top shape: 4 256 3 4 (12288)
I1208 11:51:29.773516  7581 net.cpp:165] Memory required for data: 1086520352
I1208 11:51:29.773524  7581 layer_factory.hpp:77] Creating layer ssd2_2_relu
I1208 11:51:29.773532  7581 net.cpp:100] Creating Layer ssd2_2_relu
I1208 11:51:29.773536  7581 net.cpp:434] ssd2_2_relu <- ssd2_2
I1208 11:51:29.773541  7581 net.cpp:395] ssd2_2_relu -> ssd2_2 (in-place)
I1208 11:51:29.773849  7581 net.cpp:150] Setting up ssd2_2_relu
I1208 11:51:29.773855  7581 net.cpp:157] Top shape: 4 256 3 4 (12288)
I1208 11:51:29.773859  7581 net.cpp:165] Memory required for data: 1086569504
I1208 11:51:29.773861  7581 layer_factory.hpp:77] Creating layer ssd2_2_ssd2_2_relu_0_split
I1208 11:51:29.773869  7581 net.cpp:100] Creating Layer ssd2_2_ssd2_2_relu_0_split
I1208 11:51:29.773871  7581 net.cpp:434] ssd2_2_ssd2_2_relu_0_split <- ssd2_2
I1208 11:51:29.773876  7581 net.cpp:408] ssd2_2_ssd2_2_relu_0_split -> ssd2_2_ssd2_2_relu_0_split_0
I1208 11:51:29.773885  7581 net.cpp:408] ssd2_2_ssd2_2_relu_0_split -> ssd2_2_ssd2_2_relu_0_split_1
I1208 11:51:29.773891  7581 net.cpp:408] ssd2_2_ssd2_2_relu_0_split -> ssd2_2_ssd2_2_relu_0_split_2
I1208 11:51:29.773896  7581 net.cpp:408] ssd2_2_ssd2_2_relu_0_split -> ssd2_2_ssd2_2_relu_0_split_3
I1208 11:51:29.773962  7581 net.cpp:150] Setting up ssd2_2_ssd2_2_relu_0_split
I1208 11:51:29.773967  7581 net.cpp:157] Top shape: 4 256 3 4 (12288)
I1208 11:51:29.773972  7581 net.cpp:157] Top shape: 4 256 3 4 (12288)
I1208 11:51:29.773975  7581 net.cpp:157] Top shape: 4 256 3 4 (12288)
I1208 11:51:29.773980  7581 net.cpp:157] Top shape: 4 256 3 4 (12288)
I1208 11:51:29.773983  7581 net.cpp:165] Memory required for data: 1086766112
I1208 11:51:29.773998  7581 layer_factory.hpp:77] Creating layer ssd3_1
I1208 11:51:29.774008  7581 net.cpp:100] Creating Layer ssd3_1
I1208 11:51:29.774011  7581 net.cpp:434] ssd3_1 <- ssd2_2_ssd2_2_relu_0_split_0
I1208 11:51:29.774018  7581 net.cpp:408] ssd3_1 -> ssd3_1
I1208 11:51:29.775496  7581 net.cpp:150] Setting up ssd3_1
I1208 11:51:29.775503  7581 net.cpp:157] Top shape: 4 128 3 4 (6144)
I1208 11:51:29.775507  7581 net.cpp:165] Memory required for data: 1086790688
I1208 11:51:29.775513  7581 layer_factory.hpp:77] Creating layer ssd3_1_relu
I1208 11:51:29.775518  7581 net.cpp:100] Creating Layer ssd3_1_relu
I1208 11:51:29.775522  7581 net.cpp:434] ssd3_1_relu <- ssd3_1
I1208 11:51:29.775528  7581 net.cpp:395] ssd3_1_relu -> ssd3_1 (in-place)
I1208 11:51:29.775830  7581 net.cpp:150] Setting up ssd3_1_relu
I1208 11:51:29.775835  7581 net.cpp:157] Top shape: 4 128 3 4 (6144)
I1208 11:51:29.775838  7581 net.cpp:165] Memory required for data: 1086815264
I1208 11:51:29.775841  7581 layer_factory.hpp:77] Creating layer ssd3_2
I1208 11:51:29.775849  7581 net.cpp:100] Creating Layer ssd3_2
I1208 11:51:29.775852  7581 net.cpp:434] ssd3_2 <- ssd3_1
I1208 11:51:29.775858  7581 net.cpp:408] ssd3_2 -> ssd3_2
I1208 11:51:29.778506  7581 net.cpp:150] Setting up ssd3_2
I1208 11:51:29.778517  7581 net.cpp:157] Top shape: 4 256 2 2 (4096)
I1208 11:51:29.778520  7581 net.cpp:165] Memory required for data: 1086831648
I1208 11:51:29.778527  7581 layer_factory.hpp:77] Creating layer ssd3_2_relu
I1208 11:51:29.778533  7581 net.cpp:100] Creating Layer ssd3_2_relu
I1208 11:51:29.778537  7581 net.cpp:434] ssd3_2_relu <- ssd3_2
I1208 11:51:29.778542  7581 net.cpp:395] ssd3_2_relu -> ssd3_2 (in-place)
I1208 11:51:29.778967  7581 net.cpp:150] Setting up ssd3_2_relu
I1208 11:51:29.778977  7581 net.cpp:157] Top shape: 4 256 2 2 (4096)
I1208 11:51:29.778980  7581 net.cpp:165] Memory required for data: 1086848032
I1208 11:51:29.778983  7581 layer_factory.hpp:77] Creating layer ssd3_2_ssd3_2_relu_0_split
I1208 11:51:29.778988  7581 net.cpp:100] Creating Layer ssd3_2_ssd3_2_relu_0_split
I1208 11:51:29.778992  7581 net.cpp:434] ssd3_2_ssd3_2_relu_0_split <- ssd3_2
I1208 11:51:29.778998  7581 net.cpp:408] ssd3_2_ssd3_2_relu_0_split -> ssd3_2_ssd3_2_relu_0_split_0
I1208 11:51:29.779006  7581 net.cpp:408] ssd3_2_ssd3_2_relu_0_split -> ssd3_2_ssd3_2_relu_0_split_1
I1208 11:51:29.779011  7581 net.cpp:408] ssd3_2_ssd3_2_relu_0_split -> ssd3_2_ssd3_2_relu_0_split_2
I1208 11:51:29.779018  7581 net.cpp:408] ssd3_2_ssd3_2_relu_0_split -> ssd3_2_ssd3_2_relu_0_split_3
I1208 11:51:29.779084  7581 net.cpp:150] Setting up ssd3_2_ssd3_2_relu_0_split
I1208 11:51:29.779089  7581 net.cpp:157] Top shape: 4 256 2 2 (4096)
I1208 11:51:29.779093  7581 net.cpp:157] Top shape: 4 256 2 2 (4096)
I1208 11:51:29.779098  7581 net.cpp:157] Top shape: 4 256 2 2 (4096)
I1208 11:51:29.779101  7581 net.cpp:157] Top shape: 4 256 2 2 (4096)
I1208 11:51:29.779104  7581 net.cpp:165] Memory required for data: 1086913568
I1208 11:51:29.779108  7581 layer_factory.hpp:77] Creating layer ssd4_1
I1208 11:51:29.779116  7581 net.cpp:100] Creating Layer ssd4_1
I1208 11:51:29.779119  7581 net.cpp:434] ssd4_1 <- ssd3_2_ssd3_2_relu_0_split_0
I1208 11:51:29.779125  7581 net.cpp:408] ssd4_1 -> ssd4_1
I1208 11:51:29.781339  7581 net.cpp:150] Setting up ssd4_1
I1208 11:51:29.781350  7581 net.cpp:157] Top shape: 4 128 2 2 (2048)
I1208 11:51:29.781353  7581 net.cpp:165] Memory required for data: 1086921760
I1208 11:51:29.781360  7581 layer_factory.hpp:77] Creating layer ssd4_1_relu
I1208 11:51:29.781375  7581 net.cpp:100] Creating Layer ssd4_1_relu
I1208 11:51:29.781379  7581 net.cpp:434] ssd4_1_relu <- ssd4_1
I1208 11:51:29.781383  7581 net.cpp:395] ssd4_1_relu -> ssd4_1 (in-place)
I1208 11:51:29.781687  7581 net.cpp:150] Setting up ssd4_1_relu
I1208 11:51:29.781694  7581 net.cpp:157] Top shape: 4 128 2 2 (2048)
I1208 11:51:29.781697  7581 net.cpp:165] Memory required for data: 1086929952
I1208 11:51:29.781702  7581 layer_factory.hpp:77] Creating layer ssd4_2
I1208 11:51:29.781709  7581 net.cpp:100] Creating Layer ssd4_2
I1208 11:51:29.781721  7581 net.cpp:434] ssd4_2 <- ssd4_1
I1208 11:51:29.781728  7581 net.cpp:408] ssd4_2 -> ssd4_2
I1208 11:51:29.784484  7581 net.cpp:150] Setting up ssd4_2
I1208 11:51:29.784494  7581 net.cpp:157] Top shape: 4 256 1 1 (1024)
I1208 11:51:29.784497  7581 net.cpp:165] Memory required for data: 1086934048
I1208 11:51:29.784504  7581 layer_factory.hpp:77] Creating layer ssd4_2_relu
I1208 11:51:29.784512  7581 net.cpp:100] Creating Layer ssd4_2_relu
I1208 11:51:29.784514  7581 net.cpp:434] ssd4_2_relu <- ssd4_2
I1208 11:51:29.784518  7581 net.cpp:395] ssd4_2_relu -> ssd4_2 (in-place)
I1208 11:51:29.784931  7581 net.cpp:150] Setting up ssd4_2_relu
I1208 11:51:29.784938  7581 net.cpp:157] Top shape: 4 256 1 1 (1024)
I1208 11:51:29.784941  7581 net.cpp:165] Memory required for data: 1086938144
I1208 11:51:29.784945  7581 layer_factory.hpp:77] Creating layer ssd4_2_ssd4_2_relu_0_split
I1208 11:51:29.784951  7581 net.cpp:100] Creating Layer ssd4_2_ssd4_2_relu_0_split
I1208 11:51:29.784955  7581 net.cpp:434] ssd4_2_ssd4_2_relu_0_split <- ssd4_2
I1208 11:51:29.784960  7581 net.cpp:408] ssd4_2_ssd4_2_relu_0_split -> ssd4_2_ssd4_2_relu_0_split_0
I1208 11:51:29.784973  7581 net.cpp:408] ssd4_2_ssd4_2_relu_0_split -> ssd4_2_ssd4_2_relu_0_split_1
I1208 11:51:29.784979  7581 net.cpp:408] ssd4_2_ssd4_2_relu_0_split -> ssd4_2_ssd4_2_relu_0_split_2
I1208 11:51:29.785035  7581 net.cpp:150] Setting up ssd4_2_ssd4_2_relu_0_split
I1208 11:51:29.785042  7581 net.cpp:157] Top shape: 4 256 1 1 (1024)
I1208 11:51:29.785045  7581 net.cpp:157] Top shape: 4 256 1 1 (1024)
I1208 11:51:29.785049  7581 net.cpp:157] Top shape: 4 256 1 1 (1024)
I1208 11:51:29.785053  7581 net.cpp:165] Memory required for data: 1086950432
I1208 11:51:29.785055  7581 layer_factory.hpp:77] Creating layer conv5_5/sep_mbox_loc
I1208 11:51:29.785064  7581 net.cpp:100] Creating Layer conv5_5/sep_mbox_loc
I1208 11:51:29.785068  7581 net.cpp:434] conv5_5/sep_mbox_loc <- conv5_5/sep_relu5_5/sep_0_split_1
I1208 11:51:29.785074  7581 net.cpp:408] conv5_5/sep_mbox_loc -> conv5_5/sep_mbox_loc
I1208 11:51:29.788273  7581 net.cpp:150] Setting up conv5_5/sep_mbox_loc
I1208 11:51:29.788286  7581 net.cpp:157] Top shape: 4 8 19 32 (19456)
I1208 11:51:29.788290  7581 net.cpp:165] Memory required for data: 1087028256
I1208 11:51:29.788298  7581 layer_factory.hpp:77] Creating layer conv5_5/sep_mbox_loc_perm
I1208 11:51:29.788305  7581 net.cpp:100] Creating Layer conv5_5/sep_mbox_loc_perm
I1208 11:51:29.788309  7581 net.cpp:434] conv5_5/sep_mbox_loc_perm <- conv5_5/sep_mbox_loc
I1208 11:51:29.788316  7581 net.cpp:408] conv5_5/sep_mbox_loc_perm -> conv5_5/sep_mbox_loc_perm
I1208 11:51:29.788424  7581 net.cpp:150] Setting up conv5_5/sep_mbox_loc_perm
I1208 11:51:29.788429  7581 net.cpp:157] Top shape: 4 19 32 8 (19456)
I1208 11:51:29.788430  7581 net.cpp:165] Memory required for data: 1087106080
I1208 11:51:29.788434  7581 layer_factory.hpp:77] Creating layer conv5_5/sep_mbox_loc_flat
I1208 11:51:29.788441  7581 net.cpp:100] Creating Layer conv5_5/sep_mbox_loc_flat
I1208 11:51:29.788444  7581 net.cpp:434] conv5_5/sep_mbox_loc_flat <- conv5_5/sep_mbox_loc_perm
I1208 11:51:29.788450  7581 net.cpp:408] conv5_5/sep_mbox_loc_flat -> conv5_5/sep_mbox_loc_flat
I1208 11:51:29.788475  7581 net.cpp:150] Setting up conv5_5/sep_mbox_loc_flat
I1208 11:51:29.788480  7581 net.cpp:157] Top shape: 4 4864 (19456)
I1208 11:51:29.788481  7581 net.cpp:165] Memory required for data: 1087183904
I1208 11:51:29.788484  7581 layer_factory.hpp:77] Creating layer conv5_5/sep_mbox_conf
I1208 11:51:29.788493  7581 net.cpp:100] Creating Layer conv5_5/sep_mbox_conf
I1208 11:51:29.788496  7581 net.cpp:434] conv5_5/sep_mbox_conf <- conv5_5/sep_relu5_5/sep_0_split_2
I1208 11:51:29.788501  7581 net.cpp:408] conv5_5/sep_mbox_conf -> conv5_5/sep_mbox_conf
I1208 11:51:29.790036  7581 net.cpp:150] Setting up conv5_5/sep_mbox_conf
I1208 11:51:29.790045  7581 net.cpp:157] Top shape: 4 10 19 32 (24320)
I1208 11:51:29.790048  7581 net.cpp:165] Memory required for data: 1087281184
I1208 11:51:29.790055  7581 layer_factory.hpp:77] Creating layer conv5_5/sep_mbox_conf_perm
I1208 11:51:29.790069  7581 net.cpp:100] Creating Layer conv5_5/sep_mbox_conf_perm
I1208 11:51:29.790073  7581 net.cpp:434] conv5_5/sep_mbox_conf_perm <- conv5_5/sep_mbox_conf
I1208 11:51:29.790081  7581 net.cpp:408] conv5_5/sep_mbox_conf_perm -> conv5_5/sep_mbox_conf_perm
I1208 11:51:29.790184  7581 net.cpp:150] Setting up conv5_5/sep_mbox_conf_perm
I1208 11:51:29.790189  7581 net.cpp:157] Top shape: 4 19 32 10 (24320)
I1208 11:51:29.790191  7581 net.cpp:165] Memory required for data: 1087378464
I1208 11:51:29.790195  7581 layer_factory.hpp:77] Creating layer conv5_5/sep_mbox_conf_flat
I1208 11:51:29.790200  7581 net.cpp:100] Creating Layer conv5_5/sep_mbox_conf_flat
I1208 11:51:29.790205  7581 net.cpp:434] conv5_5/sep_mbox_conf_flat <- conv5_5/sep_mbox_conf_perm
I1208 11:51:29.790208  7581 net.cpp:408] conv5_5/sep_mbox_conf_flat -> conv5_5/sep_mbox_conf_flat
I1208 11:51:29.790232  7581 net.cpp:150] Setting up conv5_5/sep_mbox_conf_flat
I1208 11:51:29.790237  7581 net.cpp:157] Top shape: 4 6080 (24320)
I1208 11:51:29.790239  7581 net.cpp:165] Memory required for data: 1087475744
I1208 11:51:29.790242  7581 layer_factory.hpp:77] Creating layer conv5_5/sep_mbox_priorbox
I1208 11:51:29.790249  7581 net.cpp:100] Creating Layer conv5_5/sep_mbox_priorbox
I1208 11:51:29.790252  7581 net.cpp:434] conv5_5/sep_mbox_priorbox <- conv5_5/sep_relu5_5/sep_0_split_3
I1208 11:51:29.790256  7581 net.cpp:434] conv5_5/sep_mbox_priorbox <- data_data_0_split_1
I1208 11:51:29.790261  7581 net.cpp:408] conv5_5/sep_mbox_priorbox -> conv5_5/sep_mbox_priorbox
I1208 11:51:29.790287  7581 net.cpp:150] Setting up conv5_5/sep_mbox_priorbox
I1208 11:51:29.790293  7581 net.cpp:157] Top shape: 1 2 4864 (9728)
I1208 11:51:29.790295  7581 net.cpp:165] Memory required for data: 1087514656
I1208 11:51:29.790298  7581 layer_factory.hpp:77] Creating layer conv6/sep_mbox_loc
I1208 11:51:29.790307  7581 net.cpp:100] Creating Layer conv6/sep_mbox_loc
I1208 11:51:29.790310  7581 net.cpp:434] conv6/sep_mbox_loc <- conv6/sep_relu6/sep_0_split_1
I1208 11:51:29.790315  7581 net.cpp:408] conv6/sep_mbox_loc -> conv6/sep_mbox_loc
I1208 11:51:29.791932  7581 net.cpp:150] Setting up conv6/sep_mbox_loc
I1208 11:51:29.791941  7581 net.cpp:157] Top shape: 4 8 10 16 (5120)
I1208 11:51:29.791944  7581 net.cpp:165] Memory required for data: 1087535136
I1208 11:51:29.791950  7581 layer_factory.hpp:77] Creating layer conv6/sep_mbox_loc_perm
I1208 11:51:29.791957  7581 net.cpp:100] Creating Layer conv6/sep_mbox_loc_perm
I1208 11:51:29.791961  7581 net.cpp:434] conv6/sep_mbox_loc_perm <- conv6/sep_mbox_loc
I1208 11:51:29.791966  7581 net.cpp:408] conv6/sep_mbox_loc_perm -> conv6/sep_mbox_loc_perm
I1208 11:51:29.792074  7581 net.cpp:150] Setting up conv6/sep_mbox_loc_perm
I1208 11:51:29.792079  7581 net.cpp:157] Top shape: 4 10 16 8 (5120)
I1208 11:51:29.792083  7581 net.cpp:165] Memory required for data: 1087555616
I1208 11:51:29.792085  7581 layer_factory.hpp:77] Creating layer conv6/sep_mbox_loc_flat
I1208 11:51:29.792091  7581 net.cpp:100] Creating Layer conv6/sep_mbox_loc_flat
I1208 11:51:29.792094  7581 net.cpp:434] conv6/sep_mbox_loc_flat <- conv6/sep_mbox_loc_perm
I1208 11:51:29.792099  7581 net.cpp:408] conv6/sep_mbox_loc_flat -> conv6/sep_mbox_loc_flat
I1208 11:51:29.792124  7581 net.cpp:150] Setting up conv6/sep_mbox_loc_flat
I1208 11:51:29.792129  7581 net.cpp:157] Top shape: 4 1280 (5120)
I1208 11:51:29.792130  7581 net.cpp:165] Memory required for data: 1087576096
I1208 11:51:29.792135  7581 layer_factory.hpp:77] Creating layer conv6/sep_mbox_conf
I1208 11:51:29.792142  7581 net.cpp:100] Creating Layer conv6/sep_mbox_conf
I1208 11:51:29.792145  7581 net.cpp:434] conv6/sep_mbox_conf <- conv6/sep_relu6/sep_0_split_2
I1208 11:51:29.792150  7581 net.cpp:408] conv6/sep_mbox_conf -> conv6/sep_mbox_conf
I1208 11:51:29.795876  7581 net.cpp:150] Setting up conv6/sep_mbox_conf
I1208 11:51:29.795886  7581 net.cpp:157] Top shape: 4 10 10 16 (6400)
I1208 11:51:29.795889  7581 net.cpp:165] Memory required for data: 1087601696
I1208 11:51:29.795907  7581 layer_factory.hpp:77] Creating layer conv6/sep_mbox_conf_perm
I1208 11:51:29.795915  7581 net.cpp:100] Creating Layer conv6/sep_mbox_conf_perm
I1208 11:51:29.795919  7581 net.cpp:434] conv6/sep_mbox_conf_perm <- conv6/sep_mbox_conf
I1208 11:51:29.795927  7581 net.cpp:408] conv6/sep_mbox_conf_perm -> conv6/sep_mbox_conf_perm
I1208 11:51:29.796036  7581 net.cpp:150] Setting up conv6/sep_mbox_conf_perm
I1208 11:51:29.796041  7581 net.cpp:157] Top shape: 4 10 16 10 (6400)
I1208 11:51:29.796044  7581 net.cpp:165] Memory required for data: 1087627296
I1208 11:51:29.796047  7581 layer_factory.hpp:77] Creating layer conv6/sep_mbox_conf_flat
I1208 11:51:29.796052  7581 net.cpp:100] Creating Layer conv6/sep_mbox_conf_flat
I1208 11:51:29.796056  7581 net.cpp:434] conv6/sep_mbox_conf_flat <- conv6/sep_mbox_conf_perm
I1208 11:51:29.796062  7581 net.cpp:408] conv6/sep_mbox_conf_flat -> conv6/sep_mbox_conf_flat
I1208 11:51:29.796085  7581 net.cpp:150] Setting up conv6/sep_mbox_conf_flat
I1208 11:51:29.796090  7581 net.cpp:157] Top shape: 4 1600 (6400)
I1208 11:51:29.796094  7581 net.cpp:165] Memory required for data: 1087652896
I1208 11:51:29.796097  7581 layer_factory.hpp:77] Creating layer conv6/sep_mbox_priorbox
I1208 11:51:29.796103  7581 net.cpp:100] Creating Layer conv6/sep_mbox_priorbox
I1208 11:51:29.796106  7581 net.cpp:434] conv6/sep_mbox_priorbox <- conv6/sep_relu6/sep_0_split_3
I1208 11:51:29.796111  7581 net.cpp:434] conv6/sep_mbox_priorbox <- data_data_0_split_2
I1208 11:51:29.796118  7581 net.cpp:408] conv6/sep_mbox_priorbox -> conv6/sep_mbox_priorbox
I1208 11:51:29.796144  7581 net.cpp:150] Setting up conv6/sep_mbox_priorbox
I1208 11:51:29.796149  7581 net.cpp:157] Top shape: 1 2 1280 (2560)
I1208 11:51:29.796152  7581 net.cpp:165] Memory required for data: 1087663136
I1208 11:51:29.796155  7581 layer_factory.hpp:77] Creating layer ssd1_2_mbox_loc
I1208 11:51:29.796162  7581 net.cpp:100] Creating Layer ssd1_2_mbox_loc
I1208 11:51:29.796166  7581 net.cpp:434] ssd1_2_mbox_loc <- ssd1_2_ssd1_2_relu_0_split_1
I1208 11:51:29.796172  7581 net.cpp:408] ssd1_2_mbox_loc -> ssd1_2_mbox_loc
I1208 11:51:29.798144  7581 net.cpp:150] Setting up ssd1_2_mbox_loc
I1208 11:51:29.798152  7581 net.cpp:157] Top shape: 4 8 5 8 (1280)
I1208 11:51:29.798156  7581 net.cpp:165] Memory required for data: 1087668256
I1208 11:51:29.798162  7581 layer_factory.hpp:77] Creating layer ssd1_2_mbox_loc_perm
I1208 11:51:29.798168  7581 net.cpp:100] Creating Layer ssd1_2_mbox_loc_perm
I1208 11:51:29.798173  7581 net.cpp:434] ssd1_2_mbox_loc_perm <- ssd1_2_mbox_loc
I1208 11:51:29.798179  7581 net.cpp:408] ssd1_2_mbox_loc_perm -> ssd1_2_mbox_loc_perm
I1208 11:51:29.798295  7581 net.cpp:150] Setting up ssd1_2_mbox_loc_perm
I1208 11:51:29.798300  7581 net.cpp:157] Top shape: 4 5 8 8 (1280)
I1208 11:51:29.798302  7581 net.cpp:165] Memory required for data: 1087673376
I1208 11:51:29.798305  7581 layer_factory.hpp:77] Creating layer ssd1_2_mbox_loc_flat
I1208 11:51:29.798310  7581 net.cpp:100] Creating Layer ssd1_2_mbox_loc_flat
I1208 11:51:29.798313  7581 net.cpp:434] ssd1_2_mbox_loc_flat <- ssd1_2_mbox_loc_perm
I1208 11:51:29.798319  7581 net.cpp:408] ssd1_2_mbox_loc_flat -> ssd1_2_mbox_loc_flat
I1208 11:51:29.798343  7581 net.cpp:150] Setting up ssd1_2_mbox_loc_flat
I1208 11:51:29.798348  7581 net.cpp:157] Top shape: 4 320 (1280)
I1208 11:51:29.798352  7581 net.cpp:165] Memory required for data: 1087678496
I1208 11:51:29.798354  7581 layer_factory.hpp:77] Creating layer ssd1_2_mbox_conf
I1208 11:51:29.798362  7581 net.cpp:100] Creating Layer ssd1_2_mbox_conf
I1208 11:51:29.798365  7581 net.cpp:434] ssd1_2_mbox_conf <- ssd1_2_ssd1_2_relu_0_split_2
I1208 11:51:29.798372  7581 net.cpp:408] ssd1_2_mbox_conf -> ssd1_2_mbox_conf
I1208 11:51:29.799918  7581 net.cpp:150] Setting up ssd1_2_mbox_conf
I1208 11:51:29.799926  7581 net.cpp:157] Top shape: 4 10 5 8 (1600)
I1208 11:51:29.799928  7581 net.cpp:165] Memory required for data: 1087684896
I1208 11:51:29.799937  7581 layer_factory.hpp:77] Creating layer ssd1_2_mbox_conf_perm
I1208 11:51:29.799952  7581 net.cpp:100] Creating Layer ssd1_2_mbox_conf_perm
I1208 11:51:29.799954  7581 net.cpp:434] ssd1_2_mbox_conf_perm <- ssd1_2_mbox_conf
I1208 11:51:29.799960  7581 net.cpp:408] ssd1_2_mbox_conf_perm -> ssd1_2_mbox_conf_perm
I1208 11:51:29.800070  7581 net.cpp:150] Setting up ssd1_2_mbox_conf_perm
I1208 11:51:29.800074  7581 net.cpp:157] Top shape: 4 5 8 10 (1600)
I1208 11:51:29.800077  7581 net.cpp:165] Memory required for data: 1087691296
I1208 11:51:29.800081  7581 layer_factory.hpp:77] Creating layer ssd1_2_mbox_conf_flat
I1208 11:51:29.800086  7581 net.cpp:100] Creating Layer ssd1_2_mbox_conf_flat
I1208 11:51:29.800088  7581 net.cpp:434] ssd1_2_mbox_conf_flat <- ssd1_2_mbox_conf_perm
I1208 11:51:29.800096  7581 net.cpp:408] ssd1_2_mbox_conf_flat -> ssd1_2_mbox_conf_flat
I1208 11:51:29.800119  7581 net.cpp:150] Setting up ssd1_2_mbox_conf_flat
I1208 11:51:29.800124  7581 net.cpp:157] Top shape: 4 400 (1600)
I1208 11:51:29.800127  7581 net.cpp:165] Memory required for data: 1087697696
I1208 11:51:29.800129  7581 layer_factory.hpp:77] Creating layer ssd1_2_mbox_priorbox
I1208 11:51:29.800134  7581 net.cpp:100] Creating Layer ssd1_2_mbox_priorbox
I1208 11:51:29.800138  7581 net.cpp:434] ssd1_2_mbox_priorbox <- ssd1_2_ssd1_2_relu_0_split_3
I1208 11:51:29.800141  7581 net.cpp:434] ssd1_2_mbox_priorbox <- data_data_0_split_3
I1208 11:51:29.800149  7581 net.cpp:408] ssd1_2_mbox_priorbox -> ssd1_2_mbox_priorbox
I1208 11:51:29.800175  7581 net.cpp:150] Setting up ssd1_2_mbox_priorbox
I1208 11:51:29.800179  7581 net.cpp:157] Top shape: 1 2 320 (640)
I1208 11:51:29.800182  7581 net.cpp:165] Memory required for data: 1087700256
I1208 11:51:29.800185  7581 layer_factory.hpp:77] Creating layer ssd2_2_mbox_loc
I1208 11:51:29.800192  7581 net.cpp:100] Creating Layer ssd2_2_mbox_loc
I1208 11:51:29.800196  7581 net.cpp:434] ssd2_2_mbox_loc <- ssd2_2_ssd2_2_relu_0_split_1
I1208 11:51:29.800201  7581 net.cpp:408] ssd2_2_mbox_loc -> ssd2_2_mbox_loc
I1208 11:51:29.801543  7581 net.cpp:150] Setting up ssd2_2_mbox_loc
I1208 11:51:29.801551  7581 net.cpp:157] Top shape: 4 8 3 4 (384)
I1208 11:51:29.801554  7581 net.cpp:165] Memory required for data: 1087701792
I1208 11:51:29.801560  7581 layer_factory.hpp:77] Creating layer ssd2_2_mbox_loc_perm
I1208 11:51:29.801568  7581 net.cpp:100] Creating Layer ssd2_2_mbox_loc_perm
I1208 11:51:29.801570  7581 net.cpp:434] ssd2_2_mbox_loc_perm <- ssd2_2_mbox_loc
I1208 11:51:29.801576  7581 net.cpp:408] ssd2_2_mbox_loc_perm -> ssd2_2_mbox_loc_perm
I1208 11:51:29.801681  7581 net.cpp:150] Setting up ssd2_2_mbox_loc_perm
I1208 11:51:29.801687  7581 net.cpp:157] Top shape: 4 3 4 8 (384)
I1208 11:51:29.801688  7581 net.cpp:165] Memory required for data: 1087703328
I1208 11:51:29.801692  7581 layer_factory.hpp:77] Creating layer ssd2_2_mbox_loc_flat
I1208 11:51:29.801698  7581 net.cpp:100] Creating Layer ssd2_2_mbox_loc_flat
I1208 11:51:29.801702  7581 net.cpp:434] ssd2_2_mbox_loc_flat <- ssd2_2_mbox_loc_perm
I1208 11:51:29.801707  7581 net.cpp:408] ssd2_2_mbox_loc_flat -> ssd2_2_mbox_loc_flat
I1208 11:51:29.801730  7581 net.cpp:150] Setting up ssd2_2_mbox_loc_flat
I1208 11:51:29.801735  7581 net.cpp:157] Top shape: 4 96 (384)
I1208 11:51:29.801738  7581 net.cpp:165] Memory required for data: 1087704864
I1208 11:51:29.801740  7581 layer_factory.hpp:77] Creating layer ssd2_2_mbox_conf
I1208 11:51:29.801748  7581 net.cpp:100] Creating Layer ssd2_2_mbox_conf
I1208 11:51:29.801751  7581 net.cpp:434] ssd2_2_mbox_conf <- ssd2_2_ssd2_2_relu_0_split_2
I1208 11:51:29.801757  7581 net.cpp:408] ssd2_2_mbox_conf -> ssd2_2_mbox_conf
I1208 11:51:29.803922  7581 net.cpp:150] Setting up ssd2_2_mbox_conf
I1208 11:51:29.803932  7581 net.cpp:157] Top shape: 4 10 3 4 (480)
I1208 11:51:29.803936  7581 net.cpp:165] Memory required for data: 1087706784
I1208 11:51:29.803941  7581 layer_factory.hpp:77] Creating layer ssd2_2_mbox_conf_perm
I1208 11:51:29.803949  7581 net.cpp:100] Creating Layer ssd2_2_mbox_conf_perm
I1208 11:51:29.803953  7581 net.cpp:434] ssd2_2_mbox_conf_perm <- ssd2_2_mbox_conf
I1208 11:51:29.803958  7581 net.cpp:408] ssd2_2_mbox_conf_perm -> ssd2_2_mbox_conf_perm
I1208 11:51:29.804072  7581 net.cpp:150] Setting up ssd2_2_mbox_conf_perm
I1208 11:51:29.804078  7581 net.cpp:157] Top shape: 4 3 4 10 (480)
I1208 11:51:29.804081  7581 net.cpp:165] Memory required for data: 1087708704
I1208 11:51:29.804085  7581 layer_factory.hpp:77] Creating layer ssd2_2_mbox_conf_flat
I1208 11:51:29.804090  7581 net.cpp:100] Creating Layer ssd2_2_mbox_conf_flat
I1208 11:51:29.804093  7581 net.cpp:434] ssd2_2_mbox_conf_flat <- ssd2_2_mbox_conf_perm
I1208 11:51:29.804100  7581 net.cpp:408] ssd2_2_mbox_conf_flat -> ssd2_2_mbox_conf_flat
I1208 11:51:29.804124  7581 net.cpp:150] Setting up ssd2_2_mbox_conf_flat
I1208 11:51:29.804128  7581 net.cpp:157] Top shape: 4 120 (480)
I1208 11:51:29.804131  7581 net.cpp:165] Memory required for data: 1087710624
I1208 11:51:29.804134  7581 layer_factory.hpp:77] Creating layer ssd2_2_mbox_priorbox
I1208 11:51:29.804141  7581 net.cpp:100] Creating Layer ssd2_2_mbox_priorbox
I1208 11:51:29.804144  7581 net.cpp:434] ssd2_2_mbox_priorbox <- ssd2_2_ssd2_2_relu_0_split_3
I1208 11:51:29.804148  7581 net.cpp:434] ssd2_2_mbox_priorbox <- data_data_0_split_4
I1208 11:51:29.804154  7581 net.cpp:408] ssd2_2_mbox_priorbox -> ssd2_2_mbox_priorbox
I1208 11:51:29.804183  7581 net.cpp:150] Setting up ssd2_2_mbox_priorbox
I1208 11:51:29.804186  7581 net.cpp:157] Top shape: 1 2 96 (192)
I1208 11:51:29.804188  7581 net.cpp:165] Memory required for data: 1087711392
I1208 11:51:29.804193  7581 layer_factory.hpp:77] Creating layer ssd3_2_mbox_loc
I1208 11:51:29.804200  7581 net.cpp:100] Creating Layer ssd3_2_mbox_loc
I1208 11:51:29.804203  7581 net.cpp:434] ssd3_2_mbox_loc <- ssd3_2_ssd3_2_relu_0_split_1
I1208 11:51:29.804210  7581 net.cpp:408] ssd3_2_mbox_loc -> ssd3_2_mbox_loc
I1208 11:51:29.805673  7581 net.cpp:150] Setting up ssd3_2_mbox_loc
I1208 11:51:29.805682  7581 net.cpp:157] Top shape: 4 8 2 2 (128)
I1208 11:51:29.805685  7581 net.cpp:165] Memory required for data: 1087711904
I1208 11:51:29.805691  7581 layer_factory.hpp:77] Creating layer ssd3_2_mbox_loc_perm
I1208 11:51:29.805697  7581 net.cpp:100] Creating Layer ssd3_2_mbox_loc_perm
I1208 11:51:29.805701  7581 net.cpp:434] ssd3_2_mbox_loc_perm <- ssd3_2_mbox_loc
I1208 11:51:29.805707  7581 net.cpp:408] ssd3_2_mbox_loc_perm -> ssd3_2_mbox_loc_perm
I1208 11:51:29.805811  7581 net.cpp:150] Setting up ssd3_2_mbox_loc_perm
I1208 11:51:29.805816  7581 net.cpp:157] Top shape: 4 2 2 8 (128)
I1208 11:51:29.805819  7581 net.cpp:165] Memory required for data: 1087712416
I1208 11:51:29.805822  7581 layer_factory.hpp:77] Creating layer ssd3_2_mbox_loc_flat
I1208 11:51:29.805827  7581 net.cpp:100] Creating Layer ssd3_2_mbox_loc_flat
I1208 11:51:29.805831  7581 net.cpp:434] ssd3_2_mbox_loc_flat <- ssd3_2_mbox_loc_perm
I1208 11:51:29.805837  7581 net.cpp:408] ssd3_2_mbox_loc_flat -> ssd3_2_mbox_loc_flat
I1208 11:51:29.805860  7581 net.cpp:150] Setting up ssd3_2_mbox_loc_flat
I1208 11:51:29.805864  7581 net.cpp:157] Top shape: 4 32 (128)
I1208 11:51:29.805868  7581 net.cpp:165] Memory required for data: 1087712928
I1208 11:51:29.805871  7581 layer_factory.hpp:77] Creating layer ssd3_2_mbox_conf
I1208 11:51:29.805879  7581 net.cpp:100] Creating Layer ssd3_2_mbox_conf
I1208 11:51:29.805882  7581 net.cpp:434] ssd3_2_mbox_conf <- ssd3_2_ssd3_2_relu_0_split_2
I1208 11:51:29.805891  7581 net.cpp:408] ssd3_2_mbox_conf -> ssd3_2_mbox_conf
I1208 11:51:29.807245  7581 net.cpp:150] Setting up ssd3_2_mbox_conf
I1208 11:51:29.807252  7581 net.cpp:157] Top shape: 4 10 2 2 (160)
I1208 11:51:29.807255  7581 net.cpp:165] Memory required for data: 1087713568
I1208 11:51:29.807261  7581 layer_factory.hpp:77] Creating layer ssd3_2_mbox_conf_perm
I1208 11:51:29.807268  7581 net.cpp:100] Creating Layer ssd3_2_mbox_conf_perm
I1208 11:51:29.807272  7581 net.cpp:434] ssd3_2_mbox_conf_perm <- ssd3_2_mbox_conf
I1208 11:51:29.807277  7581 net.cpp:408] ssd3_2_mbox_conf_perm -> ssd3_2_mbox_conf_perm
I1208 11:51:29.807382  7581 net.cpp:150] Setting up ssd3_2_mbox_conf_perm
I1208 11:51:29.807387  7581 net.cpp:157] Top shape: 4 2 2 10 (160)
I1208 11:51:29.807397  7581 net.cpp:165] Memory required for data: 1087714208
I1208 11:51:29.807401  7581 layer_factory.hpp:77] Creating layer ssd3_2_mbox_conf_flat
I1208 11:51:29.807407  7581 net.cpp:100] Creating Layer ssd3_2_mbox_conf_flat
I1208 11:51:29.807410  7581 net.cpp:434] ssd3_2_mbox_conf_flat <- ssd3_2_mbox_conf_perm
I1208 11:51:29.807415  7581 net.cpp:408] ssd3_2_mbox_conf_flat -> ssd3_2_mbox_conf_flat
I1208 11:51:29.807440  7581 net.cpp:150] Setting up ssd3_2_mbox_conf_flat
I1208 11:51:29.807445  7581 net.cpp:157] Top shape: 4 40 (160)
I1208 11:51:29.807447  7581 net.cpp:165] Memory required for data: 1087714848
I1208 11:51:29.807451  7581 layer_factory.hpp:77] Creating layer ssd3_2_mbox_priorbox
I1208 11:51:29.807456  7581 net.cpp:100] Creating Layer ssd3_2_mbox_priorbox
I1208 11:51:29.807466  7581 net.cpp:434] ssd3_2_mbox_priorbox <- ssd3_2_ssd3_2_relu_0_split_3
I1208 11:51:29.807471  7581 net.cpp:434] ssd3_2_mbox_priorbox <- data_data_0_split_5
I1208 11:51:29.807476  7581 net.cpp:408] ssd3_2_mbox_priorbox -> ssd3_2_mbox_priorbox
I1208 11:51:29.807502  7581 net.cpp:150] Setting up ssd3_2_mbox_priorbox
I1208 11:51:29.807507  7581 net.cpp:157] Top shape: 1 2 32 (64)
I1208 11:51:29.807509  7581 net.cpp:165] Memory required for data: 1087715104
I1208 11:51:29.807512  7581 layer_factory.hpp:77] Creating layer ssd4_2_mbox_loc
I1208 11:51:29.807519  7581 net.cpp:100] Creating Layer ssd4_2_mbox_loc
I1208 11:51:29.807523  7581 net.cpp:434] ssd4_2_mbox_loc <- ssd4_2_ssd4_2_relu_0_split_0
I1208 11:51:29.807529  7581 net.cpp:408] ssd4_2_mbox_loc -> ssd4_2_mbox_loc
I1208 11:51:29.809725  7581 net.cpp:150] Setting up ssd4_2_mbox_loc
I1208 11:51:29.809736  7581 net.cpp:157] Top shape: 4 8 1 1 (32)
I1208 11:51:29.809739  7581 net.cpp:165] Memory required for data: 1087715232
I1208 11:51:29.809746  7581 layer_factory.hpp:77] Creating layer ssd4_2_mbox_loc_perm
I1208 11:51:29.809753  7581 net.cpp:100] Creating Layer ssd4_2_mbox_loc_perm
I1208 11:51:29.809757  7581 net.cpp:434] ssd4_2_mbox_loc_perm <- ssd4_2_mbox_loc
I1208 11:51:29.809764  7581 net.cpp:408] ssd4_2_mbox_loc_perm -> ssd4_2_mbox_loc_perm
I1208 11:51:29.809872  7581 net.cpp:150] Setting up ssd4_2_mbox_loc_perm
I1208 11:51:29.809877  7581 net.cpp:157] Top shape: 4 1 1 8 (32)
I1208 11:51:29.809880  7581 net.cpp:165] Memory required for data: 1087715360
I1208 11:51:29.809885  7581 layer_factory.hpp:77] Creating layer ssd4_2_mbox_loc_flat
I1208 11:51:29.809888  7581 net.cpp:100] Creating Layer ssd4_2_mbox_loc_flat
I1208 11:51:29.809892  7581 net.cpp:434] ssd4_2_mbox_loc_flat <- ssd4_2_mbox_loc_perm
I1208 11:51:29.809897  7581 net.cpp:408] ssd4_2_mbox_loc_flat -> ssd4_2_mbox_loc_flat
I1208 11:51:29.809922  7581 net.cpp:150] Setting up ssd4_2_mbox_loc_flat
I1208 11:51:29.809927  7581 net.cpp:157] Top shape: 4 8 (32)
I1208 11:51:29.809929  7581 net.cpp:165] Memory required for data: 1087715488
I1208 11:51:29.809932  7581 layer_factory.hpp:77] Creating layer ssd4_2_mbox_conf
I1208 11:51:29.809940  7581 net.cpp:100] Creating Layer ssd4_2_mbox_conf
I1208 11:51:29.809944  7581 net.cpp:434] ssd4_2_mbox_conf <- ssd4_2_ssd4_2_relu_0_split_1
I1208 11:51:29.809950  7581 net.cpp:408] ssd4_2_mbox_conf -> ssd4_2_mbox_conf
I1208 11:51:29.811419  7581 net.cpp:150] Setting up ssd4_2_mbox_conf
I1208 11:51:29.811427  7581 net.cpp:157] Top shape: 4 10 1 1 (40)
I1208 11:51:29.811430  7581 net.cpp:165] Memory required for data: 1087715648
I1208 11:51:29.811436  7581 layer_factory.hpp:77] Creating layer ssd4_2_mbox_conf_perm
I1208 11:51:29.811442  7581 net.cpp:100] Creating Layer ssd4_2_mbox_conf_perm
I1208 11:51:29.811446  7581 net.cpp:434] ssd4_2_mbox_conf_perm <- ssd4_2_mbox_conf
I1208 11:51:29.811452  7581 net.cpp:408] ssd4_2_mbox_conf_perm -> ssd4_2_mbox_conf_perm
I1208 11:51:29.811568  7581 net.cpp:150] Setting up ssd4_2_mbox_conf_perm
I1208 11:51:29.811573  7581 net.cpp:157] Top shape: 4 1 1 10 (40)
I1208 11:51:29.811578  7581 net.cpp:165] Memory required for data: 1087715808
I1208 11:51:29.811580  7581 layer_factory.hpp:77] Creating layer ssd4_2_mbox_conf_flat
I1208 11:51:29.811594  7581 net.cpp:100] Creating Layer ssd4_2_mbox_conf_flat
I1208 11:51:29.811597  7581 net.cpp:434] ssd4_2_mbox_conf_flat <- ssd4_2_mbox_conf_perm
I1208 11:51:29.811604  7581 net.cpp:408] ssd4_2_mbox_conf_flat -> ssd4_2_mbox_conf_flat
I1208 11:51:29.811628  7581 net.cpp:150] Setting up ssd4_2_mbox_conf_flat
I1208 11:51:29.811635  7581 net.cpp:157] Top shape: 4 10 (40)
I1208 11:51:29.811637  7581 net.cpp:165] Memory required for data: 1087715968
I1208 11:51:29.811640  7581 layer_factory.hpp:77] Creating layer ssd4_2_mbox_priorbox
I1208 11:51:29.811645  7581 net.cpp:100] Creating Layer ssd4_2_mbox_priorbox
I1208 11:51:29.811648  7581 net.cpp:434] ssd4_2_mbox_priorbox <- ssd4_2_ssd4_2_relu_0_split_2
I1208 11:51:29.811652  7581 net.cpp:434] ssd4_2_mbox_priorbox <- data_data_0_split_6
I1208 11:51:29.811659  7581 net.cpp:408] ssd4_2_mbox_priorbox -> ssd4_2_mbox_priorbox
I1208 11:51:29.811686  7581 net.cpp:150] Setting up ssd4_2_mbox_priorbox
I1208 11:51:29.811691  7581 net.cpp:157] Top shape: 1 2 8 (16)
I1208 11:51:29.811693  7581 net.cpp:165] Memory required for data: 1087716032
I1208 11:51:29.811697  7581 layer_factory.hpp:77] Creating layer mbox_loc
I1208 11:51:29.811702  7581 net.cpp:100] Creating Layer mbox_loc
I1208 11:51:29.811707  7581 net.cpp:434] mbox_loc <- conv5_5/sep_mbox_loc_flat
I1208 11:51:29.811710  7581 net.cpp:434] mbox_loc <- conv6/sep_mbox_loc_flat
I1208 11:51:29.811714  7581 net.cpp:434] mbox_loc <- ssd1_2_mbox_loc_flat
I1208 11:51:29.811719  7581 net.cpp:434] mbox_loc <- ssd2_2_mbox_loc_flat
I1208 11:51:29.811723  7581 net.cpp:434] mbox_loc <- ssd3_2_mbox_loc_flat
I1208 11:51:29.811727  7581 net.cpp:434] mbox_loc <- ssd4_2_mbox_loc_flat
I1208 11:51:29.811733  7581 net.cpp:408] mbox_loc -> mbox_loc
I1208 11:51:29.811758  7581 net.cpp:150] Setting up mbox_loc
I1208 11:51:29.811763  7581 net.cpp:157] Top shape: 4 6600 (26400)
I1208 11:51:29.811765  7581 net.cpp:165] Memory required for data: 1087821632
I1208 11:51:29.811769  7581 layer_factory.hpp:77] Creating layer mbox_conf
I1208 11:51:29.811772  7581 net.cpp:100] Creating Layer mbox_conf
I1208 11:51:29.811776  7581 net.cpp:434] mbox_conf <- conv5_5/sep_mbox_conf_flat
I1208 11:51:29.811780  7581 net.cpp:434] mbox_conf <- conv6/sep_mbox_conf_flat
I1208 11:51:29.811784  7581 net.cpp:434] mbox_conf <- ssd1_2_mbox_conf_flat
I1208 11:51:29.811789  7581 net.cpp:434] mbox_conf <- ssd2_2_mbox_conf_flat
I1208 11:51:29.811792  7581 net.cpp:434] mbox_conf <- ssd3_2_mbox_conf_flat
I1208 11:51:29.811796  7581 net.cpp:434] mbox_conf <- ssd4_2_mbox_conf_flat
I1208 11:51:29.811801  7581 net.cpp:408] mbox_conf -> mbox_conf
I1208 11:51:29.811827  7581 net.cpp:150] Setting up mbox_conf
I1208 11:51:29.811831  7581 net.cpp:157] Top shape: 4 8250 (33000)
I1208 11:51:29.811834  7581 net.cpp:165] Memory required for data: 1087953632
I1208 11:51:29.811838  7581 layer_factory.hpp:77] Creating layer mbox_priorbox
I1208 11:51:29.811842  7581 net.cpp:100] Creating Layer mbox_priorbox
I1208 11:51:29.811846  7581 net.cpp:434] mbox_priorbox <- conv5_5/sep_mbox_priorbox
I1208 11:51:29.811849  7581 net.cpp:434] mbox_priorbox <- conv6/sep_mbox_priorbox
I1208 11:51:29.811853  7581 net.cpp:434] mbox_priorbox <- ssd1_2_mbox_priorbox
I1208 11:51:29.811857  7581 net.cpp:434] mbox_priorbox <- ssd2_2_mbox_priorbox
I1208 11:51:29.811861  7581 net.cpp:434] mbox_priorbox <- ssd3_2_mbox_priorbox
I1208 11:51:29.811863  7581 net.cpp:434] mbox_priorbox <- ssd4_2_mbox_priorbox
I1208 11:51:29.811868  7581 net.cpp:408] mbox_priorbox -> mbox_priorbox
I1208 11:51:29.811893  7581 net.cpp:150] Setting up mbox_priorbox
I1208 11:51:29.811898  7581 net.cpp:157] Top shape: 1 2 6600 (13200)
I1208 11:51:29.811900  7581 net.cpp:165] Memory required for data: 1088006432
I1208 11:51:29.811904  7581 layer_factory.hpp:77] Creating layer mbox_conf_reshape
I1208 11:51:29.811909  7581 net.cpp:100] Creating Layer mbox_conf_reshape
I1208 11:51:29.811913  7581 net.cpp:434] mbox_conf_reshape <- mbox_conf
I1208 11:51:29.811918  7581 net.cpp:408] mbox_conf_reshape -> mbox_conf_reshape
I1208 11:51:29.811952  7581 net.cpp:150] Setting up mbox_conf_reshape
I1208 11:51:29.811957  7581 net.cpp:157] Top shape: 4 1650 5 (33000)
I1208 11:51:29.811959  7581 net.cpp:165] Memory required for data: 1088138432
I1208 11:51:29.811962  7581 layer_factory.hpp:77] Creating layer mbox_conf_softmax
I1208 11:51:29.811969  7581 net.cpp:100] Creating Layer mbox_conf_softmax
I1208 11:51:29.811972  7581 net.cpp:434] mbox_conf_softmax <- mbox_conf_reshape
I1208 11:51:29.811977  7581 net.cpp:408] mbox_conf_softmax -> mbox_conf_softmax
I1208 11:51:29.812465  7581 net.cpp:150] Setting up mbox_conf_softmax
I1208 11:51:29.812474  7581 net.cpp:157] Top shape: 4 1650 5 (33000)
I1208 11:51:29.812476  7581 net.cpp:165] Memory required for data: 1088270432
I1208 11:51:29.812479  7581 layer_factory.hpp:77] Creating layer mbox_conf_flatten
I1208 11:51:29.812484  7581 net.cpp:100] Creating Layer mbox_conf_flatten
I1208 11:51:29.812487  7581 net.cpp:434] mbox_conf_flatten <- mbox_conf_softmax
I1208 11:51:29.812494  7581 net.cpp:408] mbox_conf_flatten -> mbox_conf_flatten
I1208 11:51:29.812520  7581 net.cpp:150] Setting up mbox_conf_flatten
I1208 11:51:29.812525  7581 net.cpp:157] Top shape: 4 8250 (33000)
I1208 11:51:29.812527  7581 net.cpp:165] Memory required for data: 1088402432
I1208 11:51:29.812530  7581 layer_factory.hpp:77] Creating layer detection_out
I1208 11:51:29.812539  7581 net.cpp:100] Creating Layer detection_out
I1208 11:51:29.812542  7581 net.cpp:434] detection_out <- mbox_loc
I1208 11:51:29.812546  7581 net.cpp:434] detection_out <- mbox_conf_flatten
I1208 11:51:29.812551  7581 net.cpp:434] detection_out <- mbox_priorbox
I1208 11:51:29.812556  7581 net.cpp:408] detection_out -> detection_out
W1208 11:51:29.812579  7581 detection_output_layer.cpp:49] Failed to create directory: /home/zhongyilin/Documents/data/GTSDBdevkit/results/GTSDB/SSD_510x300_100_40_Square_1/Main
I1208 11:51:29.812893  7581 net.cpp:150] Setting up detection_out
I1208 11:51:29.812901  7581 net.cpp:157] Top shape: 1 1 1 7 (7)
I1208 11:51:29.812903  7581 net.cpp:165] Memory required for data: 1088402460
I1208 11:51:29.812906  7581 layer_factory.hpp:77] Creating layer detection_eval
I1208 11:51:29.812912  7581 net.cpp:100] Creating Layer detection_eval
I1208 11:51:29.812916  7581 net.cpp:434] detection_eval <- detection_out
I1208 11:51:29.812921  7581 net.cpp:434] detection_eval <- label
I1208 11:51:29.812925  7581 net.cpp:408] detection_eval -> detection_eval
I1208 11:51:29.813015  7581 net.cpp:150] Setting up detection_eval
I1208 11:51:29.813021  7581 net.cpp:157] Top shape: 1 1 5 5 (25)
I1208 11:51:29.813024  7581 net.cpp:165] Memory required for data: 1088402560
I1208 11:51:29.813026  7581 net.cpp:228] detection_eval does not need backward computation.
I1208 11:51:29.813030  7581 net.cpp:228] detection_out does not need backward computation.
I1208 11:51:29.813035  7581 net.cpp:228] mbox_conf_flatten does not need backward computation.
I1208 11:51:29.813038  7581 net.cpp:228] mbox_conf_softmax does not need backward computation.
…
