…
      sampler {
        min_scale: 0.3
        max_scale: 1
        min_aspect_ratio: 0.5
        max_aspect_ratio: 2
      }
      sample_constraint {
        min_jaccard_overlap: 0.9
      }
      max_sample: 1
      max_trials: 50
    }
    batch_sampler {
      sampler {
        min_scale: 0.3
        max_scale: 1
        min_aspect_ratio: 0.5
        max_aspect_ratio: 2
      }
      sample_constraint {
        max_jaccard_overlap: 1
      }
      max_sample: 1
      max_trials: 50
    }
    label_map_file: "data/GTSDB/labelmap_GTSDB.prototxt"
  }
}
layer {
  name: "conv1"
  type: "Convolution"
  bottom: "data"
  top: "conv1"
  param {
    lr_mult: 1
    decay_mult: 1
  }
  convolution_param {
    num_output: 32
    bias_term: false
    pad: 1
    kernel_size: 3
    stride: 2
    weight_filler {
      type: "msra"
    }
  }
}
layer {
  name: "conv1/bn"
  type: "BatchNorm"
  bottom: "conv1"
  top: "conv1"
  batch_norm_param {
    use_global_stats: true
    eps: 1e-05
  }
}
layer {
  name: "conv1/scale"
  type: "Scale"
  bottom: "conv1"
  top: "conv1"
  param {
    lr_mult: 1
    decay_mult: 0
  }
  param {
    lr_mult: 1
    decay_mult: 0
  }
  scale_param {
    filler {
      type: "constant"
      value: 1
    }
    bias_term: true
    bias_filler {
      type: "constant"
      value: 0
    }
  }
}
layer {
  name: "relu1"
  type: "ReLU"
  bottom: "conv1"
  top: "conv1"
}
layer {
  name: "conv2_1/dw"
  type: "DepthwiseConvolution"
  bottom: "conv1"
  top: "conv2_1/dw"
  param {
    lr_mult: 1
    decay_mult: 1
  }
  convolution_param {
    num_output: 32
    bias_term: false
    pad: 1
    kernel_size: 3
    group: 32
    stride: 1
    weight_filler {
      type: "msra"
    }
  }
}
layer {
  name: "conv2_1/dw/bn"
  type: "BatchNorm"
  bottom: "conv2_1/dw"
  top: "conv2_1/dw"
  batch_norm_param {
    use_global_stats: true
    eps: 1e-05
  }
}
layer {
  name: "conv2_1/dw/scale"
  type: "Scale"
  bottom: "conv2_1/dw"
  top: "conv2_1/dw"
  param {
    lr_mult: 1
    decay_mult: 0
  }
  param {
    lr_mult: 1
    decay_mult: 0
  }
  scale_param {
    filler {
      type: "constant"
      value: 1
    }
    bias_term: true
    bias_filler {
      type: "constant"
      value: 0
    }
  }
}
layer {
  name: "relu2_1/dw"
  type: "ReLU"
  bottom: "conv2_1/dw"
  top: "conv2_1/dw"
}
layer {
  name: "conv2_1/sep"
  type: "Convolution"
  bottom: "conv2_1/dw"
  top: "conv2_1/sep"
  param {
    lr_mult: 1
    decay_mult: 1
  }
  convolution_param {
    num_output: 64
    bias_term: false
    pad: 0
    kernel_size: 1
    stride: 1
    weight_filler {
      type: "msra"
    }
  }
}
layer {
  name: "conv2_1/sep/bn"
  type: "BatchNorm"
  bottom: "conv2_1/sep"
  top: "conv2_1/sep"
  batch_norm_param {
    use_global_stats: true
    eps: 1e-05
  }
}
layer {
  name: "conv2_1/sep/scale"
  type: "Scale"
  bottom: "conv2_1/sep"
  top: "conv2_1/sep"
  param {
    lr_mult: 1
    decay_mult: 0
  }
  param {
    lr_mult: 1
    decay_mult: 0
  }
  scale_param {
    filler {
      type: "constant"
      value: 1
    }
    bias_term: true
    bias_filler {
      type: "constant"
      value: 0
    }
  }
}
layer {
  name: "relu2_1/sep"
  type: "ReLU"
  bottom: "conv2_1/sep"
  top: "conv2_1/sep"
}
layer {
  name: "conv2_2/dw"
  type: "DepthwiseConvolution"
  bottom: "conv2_1/sep"
  top: "conv2_2/dw"
  param {
    lr_mult: 1
    decay_mult: 1
  }
  convolution_param {
    num_output: 64
    bias_term: false
    pad: 1
    kernel_size: 3
    group: 64
    stride: 2
    weight_filler {
      type: "msra"
    }
  }
}
layer {
  name: "conv2_2/dw/bn"
  type: "BatchNorm"
  bottom: "conv2_2/dw"
  top: "conv2_2/dw"
  batch_norm_param {
    use_global_stats: true
    eps: 1e-05
  }
}
layer {
  name: "conv2_2/dw/scale"
  type: "Scale"
  bottom: "conv2_2/dw"
  top: "conv2_2/dw"
  param {
    lr_mult: 1
    decay_mult: 0
  }
  param {
    lr_mult: 1
    decay_mult: 0
  }
  scale_param {
    filler {
      type: "constant"
      value: 1
    }
    bias_term: true
    bias_filler {
      type: "constant"
      value: 0
    }
  }
}
layer {
  name: "relu2_2/dw"
  type: "ReLU"
  bottom: "conv2_2/dw"
  top: "conv2_2/dw"
}
layer {
  name: "conv2_2/sep"
  type: "Convolution"
  bottom: "conv2_2/dw"
  top: "conv2_2/sep"
  param {
    lr_mult: 1
    decay_mult: 1
  }
  convolution_param {
    num_output: 128
    bias_term: false
    pad: 0
    kernel_size: 1
    stride: 1
    weight_filler {
      type: "msra"
    }
  }
}
layer {
  name: "conv2_2/sep/bn"
  type: "BatchNorm"
  bottom: "conv2_2/sep"
  top: "conv2_2/sep"
  batch_norm_param {
    use_global_stats: true
    eps: 1e-05
  }
}
layer {
  name: "conv2_2/sep/scale"
  type: "Scale"
  bottom: "conv2_2/sep"
  top: "conv2_2/sep"
  param {
    lr_mult: 1
    decay_mult: 0
  }
  param {
    lr_mult: 1
    decay_mult: 0
  }
  scale_param {
    filler {
      type: "constant"
      value: 1
    }
    bias_term: true
    bias_filler {
      type: "constant"
      value: 0
    }
  }
}
layer {
  name: "relu2_2/sep"
  type: "ReLU"
  bottom: "conv2_2/sep"
  top: "conv2_2/sep"
}
layer {
  name: "conv3_1/dw"
  type: "DepthwiseConvolution"
  bottom: "conv2_2/sep"
  top: "conv3_1/dw"
  param {
    lr_mult: 1
    decay_mult: 1
  }
  convolution_param {
    num_output: 128
    bias_term: false
    pad: 1
    kernel_size: 3
    group: 128
    stride: 1
    weight_filler {
      type: "msra"
    }
  }
}
layer {
  name: "conv3_1/dw/bn"
  type: "BatchNorm"
  bottom: "conv3_1/dw"
  top: "conv3_1/dw"
  batch_norm_param {
    use_global_stats: true
    eps: 1e-05
  }
}
layer {
  name: "conv3_1/dw/scale"
  type: "Scale"
  bottom: "conv3_1/dw"
  top: "conv3_1/dw"
  param {
    lr_mult: 1
    decay_mult: 0
  }
  param {
    lr_mult: 1
    decay_mult: 0
  }
  scale_param {
    filler {
      type: "constant"
      value: 1
    }
    bias_term: true
    bias_filler {
      type: "constant"
      value: 0
    }
  }
}
layer {
  name: "relu3_1/dw"
  type: "ReLU"
  bottom: "conv3_1/dw"
  top: "conv3_1/dw"
}
layer {
  name: "conv3_1/sep"
  type: "Convolution"
  bottom: "conv3_1/dw"
  top: "conv3_1/sep"
  param {
    lr_mult: 1
    decay_mult: 1
  }
  convolution_param {
    num_output: 128
    bias_term: false
    pad: 0
    kernel_size: 1
    stride: 1
    weight_filler {
      type: "msra"
    }
  }
}
layer {
  name: "conv3_1/sep/bn"
  type: "BatchNorm"
  bottom: "conv3_1/sep"
  top: "conv3_1/sep"
  batch_norm_param {
    use_global_stats: true
    eps: 1e-05
  }
}
layer {
  name: "conv3_1/sep/scale"
  type: "Scale"
  bottom: "conv3_1/sep"
  top: "conv3_1/sep"
  param {
    lr_mult: 1
    decay_mult: 0
  }
  param {
    lr_mult: 1
    decay_mult: 0
  }
  scale_param {
    filler {
      type: "constant"
      value: 1
    }
    bias_term: true
    bias_filler {
      type: "constant"
      value: 0
    }
  }
}
layer {
  name: "relu3_1/sep"
  type: "ReLU"
  bottom: "conv3_1/sep"
  top: "conv3_1/sep"
}
layer {
  name: "conv3_2/dw"
  type: "DepthwiseConvolution"
  bottom: "conv3_1/sep"
  top: "conv3_2/dw"
  param {
    lr_mult: 1
    decay_mult: 1
  }
  convolution_param {
    num_output: 128
    bias_term: false
    pad: 1
    kernel_size: 3
    group: 128
    stride: 2
    weight_filler {
      type: "msra"
    }
  }
}
layer {
  name: "conv3_2/dw/bn"
  type: "BatchNorm"
  bottom: "conv3_2/dw"
  top: "conv3_2/dw"
  batch_norm_param {
    use_global_stats: true
    eps: 1e-05
  }
}
layer {
  name: "conv3_2/dw/scale"
  type: "Scale"
  bottom: "conv3_2/dw"
  top: "conv3_2/dw"
  param {
    lr_mult: 1
    decay_mult: 0
  }
  param {
    lr_mult: 1
    decay_mult: 0
  }
  scale_param {
    filler {
      type: "constant"
      value: 1
    }
    bias_term: true
    bias_filler {
      type: "constant"
      value: 0
    }
  }
}
layer {
  name: "relu3_2/dw"
  type: "ReLU"
  bottom: "conv3_2/dw"
  top: "conv3_2/dw"
}
layer {
  name: "conv3_2/sep"
  type: "Convolution"
  bottom: "conv3_2/dw"
  top: "conv3_2/sep"
  param {
    lr_mult: 1
    decay_mult: 1
  }
  convolution_param {
    num_output: 256
    bias_term: false
    pad: 0
    kernel_size: 1
    stride: 1
    weight_filler {
      type: "msra"
    }
  }
}
layer {
  name: "conv3_2/sep/bn"
  type: "BatchNorm"
  bottom: "conv3_2/sep"
  top: "conv3_2/sep"
  batch_norm_param {
    use_global_stats: true
    eps: 1e-05
  }
}
layer {
  name: "conv3_2/sep/scale"
  type: "Scale"
  bottom: "conv3_2/sep"
  top: "conv3_2/sep"
  param {
    lr_mult: 1
    decay_mult: 0
  }
  param {
    lr_mult: 1
    decay_mult: 0
  }
  scale_param {
    filler {
      type: "constant"
      value: 1
    }
    bias_term: true
    bias_filler {
      type: "constant"
      value: 0
    }
  }
}
layer {
  name: "relu3_2/sep"
  type: "ReLU"
  bottom: "conv3_2/sep"
  top: "conv3_2/sep"
}
layer {
  name: "conv4_1/dw"
  type: "DepthwiseConvolution"
  bottom: "conv3_2/sep"
  top: "conv4_1/dw"
  param {
    lr_mult: 1
    decay_mult: 1
  }
  convolution_param {
    num_output: 256
    bias_term: false
    pad: 1
    kernel_size: 3
    group: 256
    stride: 1
    weight_filler {
      type: "msra"
    }
  }
}
layer {
  name: "conv4_1/dw/bn"
  type: "BatchNorm"
  bottom: "conv4_1/dw"
  top: "conv4_1/dw"
  batch_norm_param {
    use_global_stats: true
    eps: 1e-05
  }
}
layer {
  name: "conv4_1/dw/scale"
  type: "Scale"
  bottom: "conv4_1/dw"
  top: "conv4_1/dw"
  param {
    lr_mult: 1
    decay_mult: 0
  }
  param {
    lr_mult: 1
    decay_mult: 0
  }
  scale_param {
    filler {
      type: "constant"
      value: 1
    }
    bias_term: true
    bias_filler {
      type: "constant"
      value: 0
    }
  }
}
layer {
  name: "relu4_1/dw"
  type: "ReLU"
  bottom: "conv4_1/dw"
  top: "conv4_1/dw"
}
layer {
  name: "conv4_1/sep"
  type: "Convolution"
  bottom: "conv4_1/dw"
  top: "conv4_1/sep"
  param {
    lr_mult: 1
    decay_mult: 1
  }
  convolution_param {
    num_output: 256
    bias_term: false
    pad: 0
    kernel_size: 1
    stride: 1
    weight_filler {
      type: "msra"
    }
  }
}
layer {
  name: "conv4_1/sep/bn"
  type: "BatchNorm"
  bottom: "conv4_1/sep"
  top: "conv4_1/sep"
  batch_norm_param {
    use_global_stats: true
    eps: 1e-05
  }
}
layer {
  name: "conv4_1/sep/scale"
  type: "Scale"
  bottom: "conv4_1/sep"
  top: "conv4_1/sep"
  param {
    lr_mult: 1
    decay_mult: 0
  }
  param {
    lr_mult: 1
    decay_mult: 0
  }
  scale_param {
    filler {
      type: "constant"
      value: 1
    }
    bias_term: true
    bias_filler {
      type: "constant"
      value: 0
    }
  }
}
layer {
  name: "relu4_1/sep"
  type: "ReLU"
  bottom: "conv4_1/sep"
  top: "conv4_1/sep"
}
layer {
  name: "conv4_2/dw"
  type: "DepthwiseConvolution"
  bottom: "conv4_1/sep"
  top: "conv4_2/dw"
  param {
    lr_mult: 1
    decay_mult: 1
  }
  convolution_param {
    num_output: 256
    bias_term: false
    pad: 1
    kernel_size: 3
    group: 256
    stride: 2
    weight_filler {
      type: "msra"
    }
  }
}
layer {
  name: "conv4_2/dw/bn"
  type: "BatchNorm"
  bottom: "conv4_2/dw"
  top: "conv4_2/dw"
  batch_norm_param {
    use_global_stats: true
    eps: 1e-05
  }
}
layer {
  name: "conv4_2/dw/scale"
  type: "Scale"
  bottom: "conv4_2/dw"
  top: "conv4_2/dw"
  param {
    lr_mult: 1
    decay_mult: 0
  }
  param {
    lr_mult: 1
    decay_mult: 0
  }
  scale_param {
    filler {
      type: "constant"
      value: 1
    }
    bias_term: true
    bias_filler {
      type: "constant"
      value: 0
    }
  }
}
layer {
  name: "relu4_2/dw"
  type: "ReLU"
  bottom: "conv4_2/dw"
  top: "conv4_2/dw"
}
layer {
  name: "conv4_2/sep"
  type: "Convolution"
  bottom: "conv4_2/dw"
  top: "conv4_2/sep"
  param {
    lr_mult: 1
    decay_mult: 1
  }
  convolution_param {
    num_output: 512
    bias_term: false
    pad: 0
    kernel_size: 1
    stride: 1
    weight_filler {
      type: "msra"
    }
  }
}
layer {
  name: "conv4_2/sep/bn"
  type: "BatchNorm"
  bottom: "conv4_2/sep"
  top: "conv4_2/sep"
  batch_norm_param {
    use_global_stats: true
    eps: 1e-05
  }
}
layer {
  name: "conv4_2/sep/scale"
  type: "Scale"
  bottom: "conv4_2/sep"
  top: "conv4_2/sep"
  param {
    lr_mult: 1
    decay_mult: 0
  }
  param {
    lr_mult: 1
    decay_mult: 0
  }
  scale_param {
    filler {
      type: "constant"
      value: 1
    }
    bias_term: true
    bias_filler {
      type: "constant"
      value: 0
    }
  }
}
layer {
  name: "relu4_2/sep"
  type: "ReLU"
  bottom: "conv4_2/sep"
  top: "conv4_2/sep"
}
layer {
  name: "conv5_1/dw"
  type: "DepthwiseConvolution"
  bottom: "conv4_2/sep"
  top: "conv5_1/dw"
  param {
    lr_mult: 1
    decay_mult: 1
  }
  convolution_param {
    num_output: 512
    bias_term: false
    pad: 1
    kernel_size: 3
    group: 512
    stride: 1
    weight_filler {
      type: "msra"
    }
  }
}
layer {
  name: "conv5_1/dw/bn"
  type: "BatchNorm"
  bottom: "conv5_1/dw"
  top: "conv5_1/dw"
  batch_norm_param {
    use_global_stats: true
    eps: 1e-05
  }
}
layer {
  name: "conv5_1/dw/scale"
  type: "Scale"
  bottom: "conv5_1/dw"
  top: "conv5_1/dw"
  param {
    lr_mult: 1
    decay_mult: 0
  }
  param {
    lr_mult: 1
    decay_mult: 0
  }
  scale_param {
    filler {
      type: "constant"
      value: 1
    }
    bias_term: true
    bias_filler {
      type: "constant"
      value: 0
    }
  }
}
layer {
  name: "relu5_1/dw"
  type: "ReLU"
  bottom: "conv5_1/dw"
  top: "conv5_1/dw"
}
layer {
  name: "conv5_1/sep"
  type: "Convolution"
  bottom: "conv5_1/dw"
  top: "conv5_1/sep"
  param {
    lr_mult: 1
    decay_mult: 1
  }
  convolution_param {
    num_output: 512
    bias_term: false
    pad: 0
    kernel_size: 1
    stride: 1
    weight_filler {
      type: "msra"
    }
  }
}
layer {
  name: "conv5_1/sep/bn"
  type: "BatchNorm"
  bottom: "conv5_1/sep"
  top: "conv5_1/sep"
  batch_norm_param {
    use_global_stats: true
    eps: 1e-05
  }
}
layer {
  name: "conv5_1/sep/scale"
  type: "Scale"
  bottom: "conv5_1/sep"
  top: "conv5_1/sep"
  param {
    lr_mult: 1
    decay_mult: 0
  }
  param {
    lr_mult: 1
    decay_mult: 0
  }
  scale_param {
    filler {
      type: "constant"
      value: 1
    }
    bias_term: true
    bias_filler {
      type: "constant"
      value: 0
    }
  }
}
layer {
  name: "relu5_1/sep"
  type: "ReLU"
  bottom: "conv5_1/sep"
  top: "conv5_1/sep"
}
layer {
  name: "conv5_2/dw"
  type: "DepthwiseConvolution"
  bottom: "conv5_1/sep"
  top: "conv5_2/dw"
  param {
    lr_mult: 1
    decay_mult: 1
  }
  convolution_param {
    num_output: 512
    bias_term: false
    pad: 1
    kernel_size: 3
    group: 512
    stride: 1
    weight_filler {
      type: "msra"
    }
  }
}
layer {
  name: "conv5_2/dw/bn"
  type: "BatchNorm"
  bottom: "conv5_2/dw"
  top: "conv5_2/dw"
  batch_norm_param {
    use_global_stats: true
    eps: 1e-05
  }
}
layer {
  name: "conv5_2/dw/scale"
  type: "Scale"
  bottom: "conv5_2/dw"
  top: "conv5_2/dw"
  param {
    lr_mult: 1
    decay_mult: 0
  }
  param {
    lr_mult: 1
    decay_mult: 0
  }
  scale_param {
    filler {
      type: "constant"
      value: 1
    }
    bias_term: true
    bias_filler {
      type: "constant"
      value: 0
    }
  }
}
layer {
  name: "relu5_2/dw"
  type: "ReLU"
  bottom: "conv5_2/dw"
  top: "conv5_2/dw"
}
layer {
  name: "conv5_2/sep"
  type: "Convolution"
  bottom: "conv5_2/dw"
  top: "conv5_2/sep"
  param {
    lr_mult: 1
    decay_mult: 1
  }
  convolution_param {
    num_output: 512
    bias_term: false
    pad: 0
    kernel_size: 1
    stride: 1
    weight_filler {
      type: "msra"
    }
  }
}
layer {
  name: "conv5_2/sep/bn"
  type: "BatchNorm"
  bottom: "conv5_2/sep"
  top: "conv5_2/sep"
  batch_norm_param {
    use_global_stats: true
    eps: 1e-05
  }
}
layer {
  name: "conv5_2/sep/scale"
  type: "Scale"
  bottom: "conv5_2/sep"
  top: "conv5_2/sep"
  param {
    lr_mult: 1
    decay_mult: 0
  }
  param {
    lr_mult: 1
    decay_mult: 0
  }
  scale_param {
    filler {
      type: "constant"
      value: 1
    }
    bias_term: true
    bias_filler {
      type: "constant"
      value: 0
    }
  }
}
layer {
  name: "relu5_2/sep"
  type: "ReLU"
  bottom: "conv5_2/sep"
  top: "conv5_2/sep"
}
layer {
  name: "conv5_3/dw"
  type: "DepthwiseConvolution"
  bottom: "conv5_2/sep"
  top: "conv5_3/dw"
  param {
    lr_mult: 1
    decay_mult: 1
  }
  convolution_param {
    num_output: 512
    bias_term: false
    pad: 1
    kernel_size: 3
    group: 512
    stride: 1
    weight_filler {
      type: "msra"
    }
  }
}
layer {
  name: "conv5_3/dw/bn"
  type: "BatchNorm"
  bottom: "conv5_3/dw"
  top: "conv5_3/dw"
  batch_norm_param {
    use_global_stats: true
    eps: 1e-05
  }
}
layer {
  name: "conv5_3/dw/scale"
  type: "Scale"
  bottom: "conv5_3/dw"
  top: "conv5_3/dw"
  param {
    lr_mult: 1
    decay_mult: 0
  }
  param {
    lr_mult: 1
    decay_mult: 0
  }
  scale_param {
    filler {
      type: "constant"
      value: 1
    }
    bias_term: true
    bias_filler {
      type: "constant"
      value: 0
    }
  }
}
layer {
  name: "relu5_3/dw"
  type: "ReLU"
  bottom: "conv5_3/dw"
  top: "conv5_3/dw"
}
layer {
  name: "conv5_3/sep"
  type: "Convolution"
  bottom: "conv5_3/dw"
  top: "conv5_3/sep"
  param {
    lr_mult: 1
    decay_mult: 1
  }
  convolution_param {
    num_output: 512
    bias_term: false
    pad: 0
    kernel_size: 1
    stride: 1
    weight_filler {
      type: "msra"
    }
  }
}
layer {
  name: "conv5_3/sep/bn"
  type: "BatchNorm"
  bottom: "conv5_3/sep"
  top: "conv5_3/sep"
  batch_norm_param {
    use_global_stats: true
    eps: 1e-05
  }
}
layer {
  name: "conv5_3/sep/scale"
  type: "Scale"
  bottom: "conv5_3/sep"
  top: "conv5_3/sep"
  param {
    lr_mult: 1
    decay_mult: 0
  }
  param {
    lr_mult: 1
    decay_mult: 0
  }
  scale_param {
    filler {
      type: "constant"
      value: 1
    }
    bias_term: true
    bias_filler {
      type: "constant"
      value: 0
    }
  }
}
layer {
  name: "relu5_3/sep"
  type: "ReLU"
  bottom: "conv5_3/sep"
  top: "conv5_3/sep"
}
layer {
  name: "conv5_4/dw"
  type: "DepthwiseConvolution"
  bottom: "conv5_3/sep"
  top: "conv5_4/dw"
  param {
    lr_mult: 1
    decay_mult: 1
  }
  convolution_param {
    num_output: 512
    bias_term: false
    pad: 1
    kernel_size: 3
    group: 512
    stride: 1
    weight_filler {
      type: "msra"
    }
  }
}
layer {
  name: "conv5_4/dw/bn"
  type: "BatchNorm"
  bottom: "conv5_4/dw"
  top: "conv5_4/dw"
  batch_norm_param {
    use_global_stats: true
    eps: 1e-05
  }
}
layer {
  name: "conv5_4/dw/scale"
  type: "Scale"
  bottom: "conv5_4/dw"
  top: "conv5_4/dw"
  param {
    lr_mult: 1
    decay_mult: 0
  }
  param {
    lr_mult: 1
    decay_mult: 0
  }
  scale_param {
    filler {
      type: "constant"
      value: 1
    }
    bias_term: true
    bias_filler {
      type: "constant"
      value: 0
    }
  }
}
layer {
  name: "relu5_4/dw"
  type: "ReLU"
  bottom: "conv5_4/dw"
  top: "conv5_4/dw"
}
layer {
  name: "conv5_4/sep"
  type: "Convolution"
  bottom: "conv5_4/dw"
  top: "conv5_4/sep"
  param {
    lr_mult: 1
    decay_mult: 1
  }
  convolution_param {
    num_output: 512
    bias_term: false
    pad: 0
    kernel_size: 1
    stride: 1
    weight_filler {
      type: "msra"
    }
  }
}
layer {
  name: "conv5_4/sep/bn"
  type: "BatchNorm"
  bottom: "conv5_4/sep"
  top: "conv5_4/sep"
  batch_norm_param {
    use_global_stats: true
    eps: 1e-05
  }
}
layer {
  name: "conv5_4/sep/scale"
  type: "Scale"
  bottom: "conv5_4/sep"
  top: "conv5_4/sep"
  param {
    lr_mult: 1
    decay_mult: 0
  }
  param {
    lr_mult: 1
    decay_mult: 0
  }
  scale_param {
    filler {
      type: "constant"
      value: 1
    }
    bias_term: true
    bias_filler {
      type: "constant"
      value: 0
    }
  }
}
layer {
  name: "relu5_4/sep"
  type: "ReLU"
  bottom: "conv5_4/sep"
  top: "conv5_4/sep"
}
layer {
  name: "conv5_5/dw"
  type: "DepthwiseConvolution"
  bottom: "conv5_4/sep"
  top: "conv5_5/dw"
  param {
    lr_mult: 1
    decay_mult: 1
  }
  convolution_param {
    num_output: 512
    bias_term: false
    pad: 1
    kernel_size: 3
    group: 512
    stride: 1
    weight_filler {
      type: "msra"
    }
  }
}
layer {
  name: "conv5_5/dw/bn"
  type: "BatchNorm"
  bottom: "conv5_5/dw"
  top: "conv5_5/dw"
  batch_norm_param {
    use_global_stats: true
    eps: 1e-05
  }
}
layer {
  name: "conv5_5/dw/scale"
  type: "Scale"
  bottom: "conv5_5/dw"
  top: "conv5_5/dw"
  param {
    lr_mult: 1
    decay_mult: 0
  }
  param {
    lr_mult: 1
    decay_mult: 0
  }
  scale_param {
    filler {
      type: "constant"
      value: 1
    }
    bias_term: true
    bias_filler {
      type: "constant"
      value: 0
    }
  }
}
layer {
  name: "relu5_5/dw"
  type: "ReLU"
  bottom: "conv5_5/dw"
  top: "conv5_5/dw"
}
layer {
  name: "conv5_5/sep"
  type: "Convolution"
  bottom: "conv5_5/dw"
  top: "conv5_5/sep"
  param {
    lr_mult: 1
    decay_mult: 1
  }
  convolution_param {
    num_output: 512
    bias_term: false
    pad: 0
    kernel_size: 1
    stride: 1
    weight_filler {
      type: "msra"
    }
  }
}
layer {
  name: "conv5_5/sep/bn"
  type: "BatchNorm"
  bottom: "conv5_5/sep"
  top: "conv5_5/sep"
  batch_norm_param {
    use_global_stats: true
    eps: 1e-05
  }
}
layer {
  name: "conv5_5/sep/scale"
  type: "Scale"
  bottom: "conv5_5/sep"
  top: "conv5_5/sep"
  param {
    lr_mult: 1
    decay_mult: 0
  }
  param {
    lr_mult: 1
    decay_mult: 0
  }
  scale_param {
    filler {
      type: "constant"
      value: 1
    }
    bias_term: true
    bias_filler {
      type: "constant"
      value: 0
    }
  }
}
layer {
  name: "relu5_5/sep"
  type: "ReLU"
  bottom: "conv5_5/sep"
  top: "conv5_5/sep"
}
layer {
  name: "conv5_6/dw"
  type: "DepthwiseConvolution"
  bottom: "conv5_5/sep"
  top: "conv5_6/dw"
  param {
    lr_mult: 1
    decay_mult: 1
  }
  convolution_param {
    num_output: 512
    bias_term: false
    pad: 1
    kernel_size: 3
    group: 512
    stride: 2
    weight_filler {
      type: "msra"
    }
  }
}
layer {
  name: "conv5_6/dw/bn"
  type: "BatchNorm"
  bottom: "conv5_6/dw"
  top: "conv5_6/dw"
  batch_norm_param {
    use_global_stats: true
    eps: 1e-05
  }
}
layer {
  name: "conv5_6/dw/scale"
  type: "Scale"
  bottom: "conv5_6/dw"
  top: "conv5_6/dw"
  param {
    lr_mult: 1
    decay_mult: 0
  }
  param {
    lr_mult: 1
    decay_mult: 0
  }
  scale_param {
    filler {
      type: "constant"
      value: 1
    }
    bias_term: true
    bias_filler {
      type: "constant"
      value: 0
    }
  }
}
layer {
  name: "relu5_6/dw"
  type: "ReLU"
  bottom: "conv5_6/dw"
  top: "conv5_6/dw"
}
layer {
  name: "conv5_6/sep"
  type: "Convolution"
  bottom: "conv5_6/dw"
  top: "conv5_6/sep"
  param {
    lr_mult: 1
    decay_mult: 1
  }
  convolution_param {
    num_output: 1024
    bias_term: false
    pad: 0
    kernel_size: 1
    stride: 1
    weight_filler {
      type: "msra"
    }
  }
}
layer {
  name: "conv5_6/sep/bn"
  type: "BatchNorm"
  bottom: "conv5_6/sep"
  top: "conv5_6/sep"
  batch_norm_param {
    use_global_stats: true
    eps: 1e-05
  }
}
layer {
  name: "conv5_6/sep/scale"
  type: "Scale"
  bottom: "conv5_6/sep"
  top: "conv5_6/sep"
  param {
    lr_mult: 1
    decay_mult: 0
  }
  param {
    lr_mult: 1
    decay_mult: 0
  }
  scale_param {
    filler {
      type: "constant"
      value: 1
    }
    bias_term: true
    bias_filler {
      type: "constant"
      value: 0
    }
  }
}
layer {
  name: "relu5_6/sep"
  type: "ReLU"
  bottom: "conv5_6/sep"
  top: "conv5_6/sep"
}
layer {
  name: "conv6/dw"
  type: "DepthwiseConvolution"
  bottom: "conv5_6/sep"
  top: "conv6/dw"
  param {
    lr_mult: 1
    decay_mult: 1
  }
  convolution_param {
    num_output: 1024
    bias_term: false
    pad: 1
    kernel_size: 3
    group: 1024
    stride: 1
    weight_filler {
      type: "msra"
    }
  }
}
layer {
  name: "conv6/dw/bn"
  type: "BatchNorm"
  bottom: "conv6/dw"
  top: "conv6/dw"
  batch_norm_param {
    use_global_stats: true
    eps: 1e-05
  }
}
layer {
  name: "conv6/dw/scale"
  type: "Scale"
  bottom: "conv6/dw"
  top: "conv6/dw"
  param {
    lr_mult: 1
    decay_mult: 0
  }
  param {
    lr_mult: 1
    decay_mult: 0
  }
  scale_param {
    filler {
      type: "constant"
      value: 1
    }
    bias_term: true
    bias_filler {
      type: "constant"
      value: 0
    }
  }
}
layer {
  name: "relu6/dw"
  type: "ReLU"
  bottom: "conv6/dw"
  top: "conv6/dw"
}
layer {
  name: "conv6/sep"
  type: "Convolution"
  bottom: "conv6/dw"
  top: "conv6/sep"
  param {
    lr_mult: 1
    decay_mult: 1
  }
  convolution_param {
    num_output: 1024
    bias_term: false
    pad: 0
    kernel_size: 1
    stride: 1
    weight_filler {
      type: "msra"
    }
  }
}
layer {
  name: "conv6/sep/bn"
  type: "BatchNorm"
  bottom: "conv6/sep"
  top: "conv6/sep"
  batch_norm_param {
    use_global_stats: true
    eps: 1e-05
  }
}
layer {
  name: "conv6/sep/scale"
  type: "Scale"
  bottom: "conv6/sep"
  top: "conv6/sep"
  param {
    lr_mult: 1
    decay_mult: 0
  }
  param {
    lr_mult: 1
    decay_mult: 0
  }
  scale_param {
    filler {
      type: "constant"
      value: 1
    }
    bias_term: true
    bias_filler {
      type: "constant"
      value: 0
    }
  }
}
layer {
  name: "relu6/sep"
  type: "ReLU"
  bottom: "conv6/sep"
  top: "conv6/sep"
}
layer {
  name: "ssd1_1"
  type: "Convolution"
  bottom: "conv6/sep"
  top: "ssd1_1"
  param {
    lr_mult: 1
    decay_mult: 1
  }
  param {
    lr_mult: 2
    decay_mult: 0
  }
  convolution_param {
    num_output: 256
    pad: 0
    kernel_size: 1
    stride: 1
    weight_filler {
      type: "xavier"
    }
    bias_filler {
      type: "constant"
      value: 0
    }
  }
}
layer {
  name: "ssd1_1_relu"
  type: "ReLU"
  bottom: "ssd1_1"
  top: "ssd1_1"
}
layer {
  name: "ssd1_2"
  type: "Convolution"
  bottom: "ssd1_1"
  top: "ssd1_2"
  param {
    lr_mult: 1
    decay_mult: 1
  }
  param {
    lr_mult: 2
    decay_mult: 0
  }
  convolution_param {
    num_output: 512
    pad: 1
    kernel_size: 3
    stride: 2
    weight_filler {
      type: "xavier"
    }
    bias_filler {
      type: "constant"
      value: 0
    }
  }
}
layer {
  name: "ssd1_2_relu"
  type: "ReLU"
  bottom: "ssd1_2"
  top: "ssd1_2"
}
layer {
  name: "ssd2_1"
  type: "Convolution"
  bottom: "ssd1_2"
  top: "ssd2_1"
  param {
    lr_mult: 1
    decay_mult: 1
  }
  param {
    lr_mult: 2
    decay_mult: 0
  }
  convolution_param {
    num_output: 128
    pad: 0
    kernel_size: 1
    stride: 1
    weight_filler {
      type: "xavier"
    }
    bias_filler {
      type: "constant"
      value: 0
    }
  }
}
layer {
  name: "ssd2_1_relu"
  type: "ReLU"
  bottom: "ssd2_1"
  top: "ssd2_1"
}
layer {
  name: "ssd2_2"
  type: "Convolution"
  bottom: "ssd2_1"
  top: "ssd2_2"
  param {
    lr_mult: 1
    decay_mult: 1
  }
  param {
    lr_mult: 2
    decay_mult: 0
  }
  convolution_param {
    num_output: 256
    pad: 1
    kernel_size: 3
    stride: 2
    weight_filler {
      type: "xavier"
    }
    bias_filler {
      type: "constant"
      value: 0
    }
  }
}
layer {
  name: "ssd2_2_relu"
  type: "ReLU"
  bottom: "ssd2_2"
  top: "ssd2_2"
}
layer {
  name: "ssd3_1"
  type: "Convolution"
  bottom: "ssd2_2"
  top: "ssd3_1"
  param {
    lr_mult: 1
    decay_mult: 1
  }
  param {
    lr_mult: 2
    decay_mult: 0
  }
  convolution_param {
    num_output: 128
    pad: 0
    kernel_size: 1
    stride: 1
    weight_filler {
      type: "xavier"
    }
    bias_filler {
      type: "constant"
      value: 0
    }
  }
}
layer {
  name: "ssd3_1_relu"
  type: "ReLU"
  bottom: "ssd3_1"
  top: "ssd3_1"
}
layer {
  name: "ssd3_2"
  type: "Convolution"
  bottom: "ssd3_1"
  top: "ssd3_2"
  param {
    lr_mult: 1
    decay_mult: 1
  }
  param {
    lr_mult: 2
    d
I1208 11:46:34.072211 17754 layer_factory.hpp:77] Creating layer data
I1208 11:46:34.073246 17754 net.cpp:100] Creating Layer data
I1208 11:46:34.073268 17754 net.cpp:408] data -> data
I1208 11:46:34.073312 17754 net.cpp:408] data -> label
I1208 11:46:34.074653 17765 db_lmdb.cpp:35] Opened lmdb examples/GTSDB/GTSDB_trainval_lmdb
I1208 11:46:34.110563 17754 annotated_data_layer.cpp:62] output data size: 1,3,300,510
I1208 11:46:34.114429 17754 net.cpp:150] Setting up data
I1208 11:46:34.114454 17754 net.cpp:157] Top shape: 1 3 300 510 (459000)
I1208 11:46:34.114461 17754 net.cpp:157] Top shape: 1 1 3 8 (24)
I1208 11:46:34.114464 17754 net.cpp:165] Memory required for data: 1836096
I1208 11:46:34.114475 17754 layer_factory.hpp:77] Creating layer data_data_0_split
I1208 11:46:34.114487 17754 net.cpp:100] Creating Layer data_data_0_split
I1208 11:46:34.114495 17754 net.cpp:434] data_data_0_split <- data
I1208 11:46:34.114517 17754 net.cpp:408] data_data_0_split -> data_data_0_split_0
I1208 11:46:34.114531 17754 net.cpp:408] data_data_0_split -> data_data_0_split_1
I1208 11:46:34.114542 17754 net.cpp:408] data_data_0_split -> data_data_0_split_2
I1208 11:46:34.114557 17754 net.cpp:408] data_data_0_split -> data_data_0_split_3
I1208 11:46:34.114564 17754 net.cpp:408] data_data_0_split -> data_data_0_split_4
I1208 11:46:34.114574 17754 net.cpp:408] data_data_0_split -> data_data_0_split_5
I1208 11:46:34.114584 17754 net.cpp:408] data_data_0_split -> data_data_0_split_6
I1208 11:46:34.114719 17754 net.cpp:150] Setting up data_data_0_split
I1208 11:46:34.114730 17754 net.cpp:157] Top shape: 1 3 300 510 (459000)
I1208 11:46:34.114735 17754 net.cpp:157] Top shape: 1 3 300 510 (459000)
I1208 11:46:34.114740 17754 net.cpp:157] Top shape: 1 3 300 510 (459000)
I1208 11:46:34.114745 17754 net.cpp:157] Top shape: 1 3 300 510 (459000)
I1208 11:46:34.114749 17754 net.cpp:157] Top shape: 1 3 300 510 (459000)
I1208 11:46:34.114753 17754 net.cpp:157] Top shape: 1 3 300 510 (459000)
I1208 11:46:34.114759 17754 net.cpp:157] Top shape: 1 3 300 510 (459000)
I1208 11:46:34.114768 17754 net.cpp:165] Memory required for data: 14688096
I1208 11:46:34.114773 17754 layer_factory.hpp:77] Creating layer conv1
I1208 11:46:34.114799 17754 net.cpp:100] Creating Layer conv1
I1208 11:46:34.114804 17754 net.cpp:434] conv1 <- data_data_0_split_0
I1208 11:46:34.114812 17754 net.cpp:408] conv1 -> conv1
I1208 11:46:34.798014 17754 net.cpp:150] Setting up conv1
I1208 11:46:34.798049 17754 net.cpp:157] Top shape: 1 32 150 255 (1224000)
I1208 11:46:34.798055 17754 net.cpp:165] Memory required for data: 19584096
I1208 11:46:34.798092 17754 layer_factory.hpp:77] Creating layer conv1/bn
I1208 11:46:34.798110 17754 net.cpp:100] Creating Layer conv1/bn
I1208 11:46:34.798117 17754 net.cpp:434] conv1/bn <- conv1
I1208 11:46:34.798126 17754 net.cpp:395] conv1/bn -> conv1 (in-place)
I1208 11:46:34.799623 17754 net.cpp:150] Setting up conv1/bn
I1208 11:46:34.799641 17754 net.cpp:157] Top shape: 1 32 150 255 (1224000)
I1208 11:46:34.799646 17754 net.cpp:165] Memory required for data: 24480096
I1208 11:46:34.799665 17754 layer_factory.hpp:77] Creating layer conv1/scale
I1208 11:46:34.799684 17754 net.cpp:100] Creating Layer conv1/scale
I1208 11:46:34.799690 17754 net.cpp:434] conv1/scale <- conv1
I1208 11:46:34.799697 17754 net.cpp:395] conv1/scale -> conv1 (in-place)
I1208 11:46:34.799777 17754 layer_factory.hpp:77] Creating layer conv1/scale
I1208 11:46:34.800027 17754 net.cpp:150] Setting up conv1/scale
I1208 11:46:34.800040 17754 net.cpp:157] Top shape: 1 32 150 255 (1224000)
I1208 11:46:34.800045 17754 net.cpp:165] Memory required for data: 29376096
I1208 11:46:34.800056 17754 layer_factory.hpp:77] Creating layer relu1
I1208 11:46:34.800070 17754 net.cpp:100] Creating Layer relu1
I1208 11:46:34.800074 17754 net.cpp:434] relu1 <- conv1
I1208 11:46:34.800081 17754 net.cpp:395] relu1 -> conv1 (in-place)
I1208 11:46:34.800909 17754 net.cpp:150] Setting up relu1
I1208 11:46:34.800925 17754 net.cpp:157] Top shape: 1 32 150 255 (1224000)
I1208 11:46:34.800930 17754 net.cpp:165] Memory required for data: 34272096
I1208 11:46:34.800935 17754 layer_factory.hpp:77] Creating layer conv2_1/dw
I1208 11:46:34.800945 17754 net.cpp:100] Creating Layer conv2_1/dw
I1208 11:46:34.800951 17754 net.cpp:434] conv2_1/dw <- conv1
I1208 11:46:34.800957 17754 net.cpp:408] conv2_1/dw -> conv2_1/dw
I1208 11:46:34.801235 17754 net.cpp:150] Setting up conv2_1/dw
I1208 11:46:34.801244 17754 net.cpp:157] Top shape: 1 32 150 255 (1224000)
I1208 11:46:34.801249 17754 net.cpp:165] Memory required for data: 39168096
I1208 11:46:34.801255 17754 layer_factory.hpp:77] Creating layer conv2_1/dw/bn
I1208 11:46:34.801265 17754 net.cpp:100] Creating Layer conv2_1/dw/bn
I1208 11:46:34.801271 17754 net.cpp:434] conv2_1/dw/bn <- conv2_1/dw
I1208 11:46:34.801277 17754 net.cpp:395] conv2_1/dw/bn -> conv2_1/dw (in-place)
I1208 11:46:34.801545 17754 net.cpp:150] Setting up conv2_1/dw/bn
I1208 11:46:34.801554 17754 net.cpp:157] Top shape: 1 32 150 255 (1224000)
I1208 11:46:34.801558 17754 net.cpp:165] Memory required for data: 44064096
I1208 11:46:34.801573 17754 layer_factory.hpp:77] Creating layer conv2_1/dw/scale
I1208 11:46:34.801584 17754 net.cpp:100] Creating Layer conv2_1/dw/scale
I1208 11:46:34.801589 17754 net.cpp:434] conv2_1/dw/scale <- conv2_1/dw
I1208 11:46:34.801595 17754 net.cpp:395] conv2_1/dw/scale -> conv2_1/dw (in-place)
I1208 11:46:34.801650 17754 layer_factory.hpp:77] Creating layer conv2_1/dw/scale
I1208 11:46:34.801833 17754 net.cpp:150] Setting up conv2_1/dw/scale
I1208 11:46:34.801863 17754 net.cpp:157] Top shape: 1 32 150 255 (1224000)
I1208 11:46:34.801867 17754 net.cpp:165] Memory required for data: 48960096
I1208 11:46:34.801875 17754 layer_factory.hpp:77] Creating layer relu2_1/dw
I1208 11:46:34.801882 17754 net.cpp:100] Creating Layer relu2_1/dw
I1208 11:46:34.801885 17754 net.cpp:434] relu2_1/dw <- conv2_1/dw
I1208 11:46:34.801892 17754 net.cpp:395] relu2_1/dw -> conv2_1/dw (in-place)
I1208 11:46:34.802666 17754 net.cpp:150] Setting up relu2_1/dw
I1208 11:46:34.802681 17754 net.cpp:157] Top shape: 1 32 150 255 (1224000)
I1208 11:46:34.802685 17754 net.cpp:165] Memory required for data: 53856096
I1208 11:46:34.802690 17754 layer_factory.hpp:77] Creating layer conv2_1/sep
I1208 11:46:34.802701 17754 net.cpp:100] Creating Layer conv2_1/sep
I1208 11:46:34.802706 17754 net.cpp:434] conv2_1/sep <- conv2_1/dw
I1208 11:46:34.802713 17754 net.cpp:408] conv2_1/sep -> conv2_1/sep
I1208 11:46:34.806380 17754 net.cpp:150] Setting up conv2_1/sep
I1208 11:46:34.806394 17754 net.cpp:157] Top shape: 1 64 150 255 (2448000)
I1208 11:46:34.806398 17754 net.cpp:165] Memory required for data: 63648096
I1208 11:46:34.806404 17754 layer_factory.hpp:77] Creating layer conv2_1/sep/bn
I1208 11:46:34.806412 17754 net.cpp:100] Creating Layer conv2_1/sep/bn
I1208 11:46:34.806417 17754 net.cpp:434] conv2_1/sep/bn <- conv2_1/sep
I1208 11:46:34.806422 17754 net.cpp:395] conv2_1/sep/bn -> conv2_1/sep (in-place)
I1208 11:46:34.806666 17754 net.cpp:150] Setting up conv2_1/sep/bn
I1208 11:46:34.806674 17754 net.cpp:157] Top shape: 1 64 150 255 (2448000)
I1208 11:46:34.806677 17754 net.cpp:165] Memory required for data: 73440096
I1208 11:46:34.806684 17754 layer_factory.hpp:77] Creating layer conv2_1/sep/scale
I1208 11:46:34.806690 17754 net.cpp:100] Creating Layer conv2_1/sep/scale
I1208 11:46:34.806694 17754 net.cpp:434] conv2_1/sep/scale <- conv2_1/sep
I1208 11:46:34.806700 17754 net.cpp:395] conv2_1/sep/scale -> conv2_1/sep (in-place)
I1208 11:46:34.806744 17754 layer_factory.hpp:77] Creating layer conv2_1/sep/scale
I1208 11:46:34.806910 17754 net.cpp:150] Setting up conv2_1/sep/scale
I1208 11:46:34.806917 17754 net.cpp:157] Top shape: 1 64 150 255 (2448000)
I1208 11:46:34.806921 17754 net.cpp:165] Memory required for data: 83232096
I1208 11:46:34.806932 17754 layer_factory.hpp:77] Creating layer relu2_1/sep
I1208 11:46:34.806937 17754 net.cpp:100] Creating Layer relu2_1/sep
I1208 11:46:34.806941 17754 net.cpp:434] relu2_1/sep <- conv2_1/sep
I1208 11:46:34.806946 17754 net.cpp:395] relu2_1/sep -> conv2_1/sep (in-place)
I1208 11:46:34.807427 17754 net.cpp:150] Setting up relu2_1/sep
I1208 11:46:34.807436 17754 net.cpp:157] Top shape: 1 64 150 255 (2448000)
I1208 11:46:34.807440 17754 net.cpp:165] Memory required for data: 93024096
I1208 11:46:34.807443 17754 layer_factory.hpp:77] Creating layer conv2_2/dw
I1208 11:46:34.807451 17754 net.cpp:100] Creating Layer conv2_2/dw
I1208 11:46:34.807454 17754 net.cpp:434] conv2_2/dw <- conv2_1/sep
I1208 11:46:34.807472 17754 net.cpp:408] conv2_2/dw -> conv2_2/dw
I1208 11:46:34.807708 17754 net.cpp:150] Setting up conv2_2/dw
I1208 11:46:34.807715 17754 net.cpp:157] Top shape: 1 64 75 128 (614400)
I1208 11:46:34.807718 17754 net.cpp:165] Memory required for data: 95481696
I1208 11:46:34.807723 17754 layer_factory.hpp:77] Creating layer conv2_2/dw/bn
I1208 11:46:34.807731 17754 net.cpp:100] Creating Layer conv2_2/dw/bn
I1208 11:46:34.807735 17754 net.cpp:434] conv2_2/dw/bn <- conv2_2/dw
I1208 11:46:34.807739 17754 net.cpp:395] conv2_2/dw/bn -> conv2_2/dw (in-place)
I1208 11:46:34.808683 17754 net.cpp:150] Setting up conv2_2/dw/bn
I1208 11:46:34.808696 17754 net.cpp:157] Top shape: 1 64 75 128 (614400)
I1208 11:46:34.808699 17754 net.cpp:165] Memory required for data: 97939296
I1208 11:46:34.808707 17754 layer_factory.hpp:77] Creating layer conv2_2/dw/scale
I1208 11:46:34.808718 17754 net.cpp:100] Creating Layer conv2_2/dw/scale
I1208 11:46:34.808722 17754 net.cpp:434] conv2_2/dw/scale <- conv2_2/dw
I1208 11:46:34.808730 17754 net.cpp:395] conv2_2/dw/scale -> conv2_2/dw (in-place)
I1208 11:46:34.808794 17754 layer_factory.hpp:77] Creating layer conv2_2/dw/scale
I1208 11:46:34.808924 17754 net.cpp:150] Setting up conv2_2/dw/scale
I1208 11:46:34.808933 17754 net.cpp:157] Top shape: 1 64 75 128 (614400)
I1208 11:46:34.808936 17754 net.cpp:165] Memory required for data: 100396896
I1208 11:46:34.808941 17754 layer_factory.hpp:77] Creating layer relu2_2/dw
I1208 11:46:34.808946 17754 net.cpp:100] Creating Layer relu2_2/dw
I1208 11:46:34.808949 17754 net.cpp:434] relu2_2/dw <- conv2_2/dw
I1208 11:46:34.808954 17754 net.cpp:395] relu2_2/dw -> conv2_2/dw (in-place)
I1208 11:46:34.810541 17754 net.cpp:150] Setting up relu2_2/dw
I1208 11:46:34.810554 17754 net.cpp:157] Top shape: 1 64 75 128 (614400)
I1208 11:46:34.810556 17754 net.cpp:165] Memory required for data: 102854496
I1208 11:46:34.810559 17754 layer_factory.hpp:77] Creating layer conv2_2/sep
I1208 11:46:34.810569 17754 net.cpp:100] Creating Layer conv2_2/sep
I1208 11:46:34.810571 17754 net.cpp:434] conv2_2/sep <- conv2_2/dw
I1208 11:46:34.810578 17754 net.cpp:408] conv2_2/sep -> conv2_2/sep
I1208 11:46:34.812379 17754 net.cpp:150] Setting up conv2_2/sep
I1208 11:46:34.812391 17754 net.cpp:157] Top shape: 1 128 75 128 (1228800)
I1208 11:46:34.812394 17754 net.cpp:165] Memory required for data: 107769696
I1208 11:46:34.812399 17754 layer_factory.hpp:77] Creating layer conv2_2/sep/bn
I1208 11:46:34.812407 17754 net.cpp:100] Creating Layer conv2_2/sep/bn
I1208 11:46:34.812409 17754 net.cpp:434] conv2_2/sep/bn <- conv2_2/sep
I1208 11:46:34.812413 17754 net.cpp:395] conv2_2/sep/bn -> conv2_2/sep (in-place)
I1208 11:46:34.812604 17754 net.cpp:150] Setting up conv2_2/sep/bn
I1208 11:46:34.812610 17754 net.cpp:157] Top shape: 1 128 75 128 (1228800)
I1208 11:46:34.812613 17754 net.cpp:165] Memory required for data: 112684896
I1208 11:46:34.812619 17754 layer_factory.hpp:77] Creating layer conv2_2/sep/scale
I1208 11:46:34.812624 17754 net.cpp:100] Creating Layer conv2_2/sep/scale
I1208 11:46:34.812628 17754 net.cpp:434] conv2_2/sep/scale <- conv2_2/sep
I1208 11:46:34.812633 17754 net.cpp:395] conv2_2/sep/scale -> conv2_2/sep (in-place)
I1208 11:46:34.812670 17754 layer_factory.hpp:77] Creating layer conv2_2/sep/scale
I1208 11:46:34.812774 17754 net.cpp:150] Setting up conv2_2/sep/scale
I1208 11:46:34.812783 17754 net.cpp:157] Top shape: 1 128 75 128 (1228800)
I1208 11:46:34.812784 17754 net.cpp:165] Memory required for data: 117600096
I1208 11:46:34.812789 17754 layer_factory.hpp:77] Creating layer relu2_2/sep
I1208 11:46:34.812793 17754 net.cpp:100] Creating Layer relu2_2/sep
I1208 11:46:34.812798 17754 net.cpp:434] relu2_2/sep <- conv2_2/sep
I1208 11:46:34.812800 17754 net.cpp:395] relu2_2/sep -> conv2_2/sep (in-place)
I1208 11:46:34.813220 17754 net.cpp:150] Setting up relu2_2/sep
I1208 11:46:34.813227 17754 net.cpp:157] Top shape: 1 128 75 128 (1228800)
I1208 11:46:34.813230 17754 net.cpp:165] Memory required for data: 122515296
I1208 11:46:34.813233 17754 layer_factory.hpp:77] Creating layer conv3_1/dw
I1208 11:46:34.813241 17754 net.cpp:100] Creating Layer conv3_1/dw
I1208 11:46:34.813242 17754 net.cpp:434] conv3_1/dw <- conv2_2/sep
I1208 11:46:34.813248 17754 net.cpp:408] conv3_1/dw -> conv3_1/dw
I1208 11:46:34.813498 17754 net.cpp:150] Setting up conv3_1/dw
I1208 11:46:34.813506 17754 net.cpp:157] Top shape: 1 128 75 128 (1228800)
I1208 11:46:34.813509 17754 net.cpp:165] Memory required for data: 127430496
I1208 11:46:34.813514 17754 layer_factory.hpp:77] Creating layer conv3_1/dw/bn
I1208 11:46:34.813520 17754 net.cpp:100] Creating Layer conv3_1/dw/bn
I1208 11:46:34.813524 17754 net.cpp:434] conv3_1/dw/bn <- conv3_1/dw
I1208 11:46:34.813527 17754 net.cpp:395] conv3_1/dw/bn -> conv3_1/dw (in-place)
I1208 11:46:34.813707 17754 net.cpp:150] Setting up conv3_1/dw/bn
I1208 11:46:34.813714 17754 net.cpp:157] Top shape: 1 128 75 128 (1228800)
I1208 11:46:34.813716 17754 net.cpp:165] Memory required for data: 132345696
I1208 11:46:34.813726 17754 layer_factory.hpp:77] Creating layer conv3_1/dw/scale
I1208 11:46:34.813732 17754 net.cpp:100] Creating Layer conv3_1/dw/scale
I1208 11:46:34.813747 17754 net.cpp:434] conv3_1/dw/scale <- conv3_1/dw
I1208 11:46:34.813753 17754 net.cpp:395] conv3_1/dw/scale -> conv3_1/dw (in-place)
I1208 11:46:34.813791 17754 layer_factory.hpp:77] Creating layer conv3_1/dw/scale
I1208 11:46:34.813895 17754 net.cpp:150] Setting up conv3_1/dw/scale
I1208 11:46:34.813902 17754 net.cpp:157] Top shape: 1 128 75 128 (1228800)
I1208 11:46:34.813905 17754 net.cpp:165] Memory required for data: 137260896
I1208 11:46:34.813910 17754 layer_factory.hpp:77] Creating layer relu3_1/dw
I1208 11:46:34.813915 17754 net.cpp:100] Creating Layer relu3_1/dw
I1208 11:46:34.813920 17754 net.cpp:434] relu3_1/dw <- conv3_1/dw
I1208 11:46:34.813923 17754 net.cpp:395] relu3_1/dw -> conv3_1/dw (in-place)
I1208 11:46:34.814476 17754 net.cpp:150] Setting up relu3_1/dw
I1208 11:46:34.814487 17754 net.cpp:157] Top shape: 1 128 75 128 (1228800)
I1208 11:46:34.814491 17754 net.cpp:165] Memory required for data: 142176096
I1208 11:46:34.814493 17754 layer_factory.hpp:77] Creating layer conv3_1/sep
I1208 11:46:34.814502 17754 net.cpp:100] Creating Layer conv3_1/sep
I1208 11:46:34.814504 17754 net.cpp:434] conv3_1/sep <- conv3_1/dw
I1208 11:46:34.814510 17754 net.cpp:408] conv3_1/sep -> conv3_1/sep
I1208 11:46:34.816160 17754 net.cpp:150] Setting up conv3_1/sep
I1208 11:46:34.816169 17754 net.cpp:157] Top shape: 1 128 75 128 (1228800)
I1208 11:46:34.816174 17754 net.cpp:165] Memory required for data: 147091296
I1208 11:46:34.816177 17754 layer_factory.hpp:77] Creating layer conv3_1/sep/bn
I1208 11:46:34.816182 17754 net.cpp:100] Creating Layer conv3_1/sep/bn
I1208 11:46:34.816185 17754 net.cpp:434] conv3_1/sep/bn <- conv3_1/sep
I1208 11:46:34.816190 17754 net.cpp:395] conv3_1/sep/bn -> conv3_1/sep (in-place)
I1208 11:46:34.816357 17754 net.cpp:150] Setting up conv3_1/sep/bn
I1208 11:46:34.816362 17754 net.cpp:157] Top shape: 1 128 75 128 (1228800)
I1208 11:46:34.816365 17754 net.cpp:165] Memory required for data: 152006496
I1208 11:46:34.816370 17754 layer_factory.hpp:77] Creating layer conv3_1/sep/scale
I1208 11:46:34.816375 17754 net.cpp:100] Creating Layer conv3_1/sep/scale
I1208 11:46:34.816377 17754 net.cpp:434] conv3_1/sep/scale <- conv3_1/sep
I1208 11:46:34.816381 17754 net.cpp:395] conv3_1/sep/scale -> conv3_1/sep (in-place)
I1208 11:46:34.816414 17754 layer_factory.hpp:77] Creating layer conv3_1/sep/scale
I1208 11:46:34.816505 17754 net.cpp:150] Setting up conv3_1/sep/scale
I1208 11:46:34.816511 17754 net.cpp:157] Top shape: 1 128 75 128 (1228800)
I1208 11:46:34.816514 17754 net.cpp:165] Memory required for data: 156921696
I1208 11:46:34.816519 17754 layer_factory.hpp:77] Creating layer relu3_1/sep
I1208 11:46:34.816522 17754 net.cpp:100] Creating Layer relu3_1/sep
I1208 11:46:34.816524 17754 net.cpp:434] relu3_1/sep <- conv3_1/sep
I1208 11:46:34.816527 17754 net.cpp:395] relu3_1/sep -> conv3_1/sep (in-place)
I1208 11:46:34.816885 17754 net.cpp:150] Setting up relu3_1/sep
I1208 11:46:34.816892 17754 net.cpp:157] Top shape: 1 128 75 128 (1228800)
I1208 11:46:34.816895 17754 net.cpp:165] Memory required for data: 161836896
I1208 11:46:34.816897 17754 layer_factory.hpp:77] Creating layer conv3_2/dw
I1208 11:46:34.816905 17754 net.cpp:100] Creating Layer conv3_2/dw
I1208 11:46:34.816906 17754 net.cpp:434] conv3_2/dw <- conv3_1/sep
I1208 11:46:34.816911 17754 net.cpp:408] conv3_2/dw -> conv3_2/dw
I1208 11:46:34.817088 17754 net.cpp:150] Setting up conv3_2/dw
I1208 11:46:34.817095 17754 net.cpp:157] Top shape: 1 128 38 64 (311296)
I1208 11:46:34.817096 17754 net.cpp:165] Memory required for data: 163082080
I1208 11:46:34.817101 17754 layer_factory.hpp:77] Creating layer conv3_2/dw/bn
I1208 11:46:34.817106 17754 net.cpp:100] Creating Layer conv3_2/dw/bn
I1208 11:46:34.817108 17754 net.cpp:434] conv3_2/dw/bn <- conv3_2/dw
I1208 11:46:34.817111 17754 net.cpp:395] conv3_2/dw/bn -> conv3_2/dw (in-place)
I1208 11:46:34.817270 17754 net.cpp:150] Setting up conv3_2/dw/bn
I1208 11:46:34.817275 17754 net.cpp:157] Top shape: 1 128 38 64 (311296)
I1208 11:46:34.817276 17754 net.cpp:165] Memory required for data: 164327264
I1208 11:46:34.817291 17754 layer_factory.hpp:77] Creating layer conv3_2/dw/scale
I1208 11:46:34.817299 17754 net.cpp:100] Creating Layer conv3_2/dw/scale
I1208 11:46:34.817302 17754 net.cpp:434] conv3_2/dw/scale <- conv3_2/dw
I1208 11:46:34.817306 17754 net.cpp:395] conv3_2/dw/scale -> conv3_2/dw (in-place)
I1208 11:46:34.817340 17754 layer_factory.hpp:77] Creating layer conv3_2/dw/scale
I1208 11:46:34.817425 17754 net.cpp:150] Setting up conv3_2/dw/scale
I1208 11:46:34.817431 17754 net.cpp:157] Top shape: 1 128 38 64 (311296)
I1208 11:46:34.817433 17754 net.cpp:165] Memory required for data: 165572448
I1208 11:46:34.817438 17754 layer_factory.hpp:77] Creating layer relu3_2/dw
I1208 11:46:34.817442 17754 net.cpp:100] Creating Layer relu3_2/dw
I1208 11:46:34.817445 17754 net.cpp:434] relu3_2/dw <- conv3_2/dw
I1208 11:46:34.817448 17754 net.cpp:395] relu3_2/dw -> conv3_2/dw (in-place)
I1208 11:46:34.818724 17754 net.cpp:150] Setting up relu3_2/dw
I1208 11:46:34.818735 17754 net.cpp:157] Top shape: 1 128 38 64 (311296)
I1208 11:46:34.818738 17754 net.cpp:165] Memory required for data: 166817632
I1208 11:46:34.818742 17754 layer_factory.hpp:77] Creating layer conv3_2/sep
I1208 11:46:34.818748 17754 net.cpp:100] Creating Layer conv3_2/sep
I1208 11:46:34.818751 17754 net.cpp:434] conv3_2/sep <- conv3_2/dw
I1208 11:46:34.818756 17754 net.cpp:408] conv3_2/sep -> conv3_2/sep
I1208 11:46:34.820447 17754 net.cpp:150] Setting up conv3_2/sep
I1208 11:46:34.820456 17754 net.cpp:157] Top shape: 1 256 38 64 (622592)
I1208 11:46:34.820458 17754 net.cpp:165] Memory required for data: 169308000
I1208 11:46:34.820462 17754 layer_factory.hpp:77] Creating layer conv3_2/sep/bn
I1208 11:46:34.820467 17754 net.cpp:100] Creating Layer conv3_2/sep/bn
I1208 11:46:34.820469 17754 net.cpp:434] conv3_2/sep/bn <- conv3_2/sep
I1208 11:46:34.820473 17754 net.cpp:395] conv3_2/sep/bn -> conv3_2/sep (in-place)
I1208 11:46:34.820621 17754 net.cpp:150] Setting up conv3_2/sep/bn
I1208 11:46:34.820626 17754 net.cpp:157] Top shape: 1 256 38 64 (622592)
I1208 11:46:34.820627 17754 net.cpp:165] Memory required for data: 171798368
I1208 11:46:34.820632 17754 layer_factory.hpp:77] Creating layer conv3_2/sep/scale
I1208 11:46:34.820636 17754 net.cpp:100] Creating Layer conv3_2/sep/scale
I1208 11:46:34.820639 17754 net.cpp:434] conv3_2/sep/scale <- conv3_2/sep
I1208 11:46:34.820643 17754 net.cpp:395] conv3_2/sep/scale -> conv3_2/sep (in-place)
I1208 11:46:34.820672 17754 layer_factory.hpp:77] Creating layer conv3_2/sep/scale
I1208 11:46:34.820753 17754 net.cpp:150] Setting up conv3_2/sep/scale
I1208 11:46:34.820760 17754 net.cpp:157] Top shape: 1 256 38 64 (622592)
I1208 11:46:34.820761 17754 net.cpp:165] Memory required for data: 174288736
I1208 11:46:34.820765 17754 layer_factory.hpp:77] Creating layer relu3_2/sep
I1208 11:46:34.820768 17754 net.cpp:100] Creating Layer relu3_2/sep
I1208 11:46:34.820770 17754 net.cpp:434] relu3_2/sep <- conv3_2/sep
I1208 11:46:34.820773 17754 net.cpp:395] relu3_2/sep -> conv3_2/sep (in-place)
I1208 11:46:34.821095 17754 net.cpp:150] Setting up relu3_2/sep
I1208 11:46:34.821102 17754 net.cpp:157] Top shape: 1 256 38 64 (622592)
I1208 11:46:34.821105 17754 net.cpp:165] Memory required for data: 176779104
I1208 11:46:34.821107 17754 layer_factory.hpp:77] Creating layer conv4_1/dw
I1208 11:46:34.821112 17754 net.cpp:100] Creating Layer conv4_1/dw
I1208 11:46:34.821115 17754 net.cpp:434] conv4_1/dw <- conv3_2/sep
I1208 11:46:34.821120 17754 net.cpp:408] conv4_1/dw -> conv4_1/dw
I1208 11:46:34.821285 17754 net.cpp:150] Setting up conv4_1/dw
I1208 11:46:34.821290 17754 net.cpp:157] Top shape: 1 256 38 64 (622592)
I1208 11:46:34.821292 17754 net.cpp:165] Memory required for data: 179269472
I1208 11:46:34.821296 17754 layer_factory.hpp:77] Creating layer conv4_1/dw/bn
I1208 11:46:34.821300 17754 net.cpp:100] Creating Layer conv4_1/dw/bn
I1208 11:46:34.821302 17754 net.cpp:434] conv4_1/dw/bn <- conv4_1/dw
I1208 11:46:34.821305 17754 net.cpp:395] conv4_1/dw/bn -> conv4_1/dw (in-place)
I1208 11:46:34.821458 17754 net.cpp:150] Setting up conv4_1/dw/bn
I1208 11:46:34.821463 17754 net.cpp:157] Top shape: 1 256 38 64 (622592)
I1208 11:46:34.821465 17754 net.cpp:165] Memory required for data: 181759840
I1208 11:46:34.821470 17754 layer_factory.hpp:77] Creating layer conv4_1/dw/scale
I1208 11:46:34.821475 17754 net.cpp:100] Creating Layer conv4_1/dw/scale
I1208 11:46:34.821476 17754 net.cpp:434] conv4_1/dw/scale <- conv4_1/dw
I1208 11:46:34.821480 17754 net.cpp:395] conv4_1/dw/scale -> conv4_1/dw (in-place)
I1208 11:46:34.821507 17754 layer_factory.hpp:77] Creating layer conv4_1/dw/scale
I1208 11:46:34.821586 17754 net.cpp:150] Setting up conv4_1/dw/scale
I1208 11:46:34.821591 17754 net.cpp:157] Top shape: 1 256 38 64 (622592)
I1208 11:46:34.821593 17754 net.cpp:165] Memory required for data: 184250208
I1208 11:46:34.821597 17754 layer_factory.hpp:77] Creating layer relu4_1/dw
I1208 11:46:34.821601 17754 net.cpp:100] Creating Layer relu4_1/dw
I1208 11:46:34.821604 17754 net.cpp:434] relu4_1/dw <- conv4_1/dw
I1208 11:46:34.821605 17754 net.cpp:395] relu4_1/dw -> conv4_1/dw (in-place)
I1208 11:46:34.822043 17754 net.cpp:150] Setting up relu4_1/dw
I1208 11:46:34.822052 17754 net.cpp:157] Top shape: 1 256 38 64 (622592)
I1208 11:46:34.822054 17754 net.cpp:165] Memory required for data: 186740576
I1208 11:46:34.822057 17754 layer_factory.hpp:77] Creating layer conv4_1/sep
I1208 11:46:34.822062 17754 net.cpp:100] Creating Layer conv4_1/sep
I1208 11:46:34.822064 17754 net.cpp:434] conv4_1/sep <- conv4_1/dw
I1208 11:46:34.822070 17754 net.cpp:408] conv4_1/sep -> conv4_1/sep
I1208 11:46:34.823779 17754 net.cpp:150] Setting up conv4_1/sep
I1208 11:46:34.823788 17754 net.cpp:157] Top shape: 1 256 38 64 (622592)
I1208 11:46:34.823791 17754 net.cpp:165] Memory required for data: 189230944
I1208 11:46:34.823794 17754 layer_factory.hpp:77] Creating layer conv4_1/sep/bn
I1208 11:46:34.823799 17754 net.cpp:100] Creating Layer conv4_1/sep/bn
I1208 11:46:34.823802 17754 net.cpp:434] conv4_1/sep/bn <- conv4_1/sep
I1208 11:46:34.823806 17754 net.cpp:395] conv4_1/sep/bn -> conv4_1/sep (in-place)
I1208 11:46:34.823953 17754 net.cpp:150] Setting up conv4_1/sep/bn
I1208 11:46:34.823958 17754 net.cpp:157] Top shape: 1 256 38 64 (622592)
I1208 11:46:34.823961 17754 net.cpp:165] Memory required for data: 191721312
I1208 11:46:34.823966 17754 layer_factory.hpp:77] Creating layer conv4_1/sep/scale
I1208 11:46:34.823971 17754 net.cpp:100] Creating Layer conv4_1/sep/scale
I1208 11:46:34.823972 17754 net.cpp:434] conv4_1/sep/scale <- conv4_1/sep
I1208 11:46:34.823976 17754 net.cpp:395] conv4_1/sep/scale -> conv4_1/sep (in-place)
I1208 11:46:34.824004 17754 layer_factory.hpp:77] Creating layer conv4_1/sep/scale
I1208 11:46:34.824082 17754 net.cpp:150] Setting up conv4_1/sep/scale
I1208 11:46:34.824086 17754 net.cpp:157] Top shape: 1 256 38 64 (622592)
I1208 11:46:34.824088 17754 net.cpp:165] Memory required for data: 194211680
I1208 11:46:34.824098 17754 layer_factory.hpp:77] Creating layer relu4_1/sep
I1208 11:46:34.824102 17754 net.cpp:100] Creating Layer relu4_1/sep
I1208 11:46:34.824105 17754 net.cpp:434] relu4_1/sep <- conv4_1/sep
I1208 11:46:34.824107 17754 net.cpp:395] relu4_1/sep -> conv4_1/sep (in-place)
I1208 11:46:34.824431 17754 net.cpp:150] Setting up relu4_1/sep
I1208 11:46:34.824439 17754 net.cpp:157] Top shape: 1 256 38 64 (622592)
I1208 11:46:34.824440 17754 net.cpp:165] Memory required for data: 196702048
I1208 11:46:34.824442 17754 layer_factory.hpp:77] Creating layer conv4_2/dw
I1208 11:46:34.824448 17754 net.cpp:100] Creating Layer conv4_2/dw
I1208 11:46:34.824450 17754 net.cpp:434] conv4_2/dw <- conv4_1/sep
I1208 11:46:34.824455 17754 net.cpp:408] conv4_2/dw -> conv4_2/dw
I1208 11:46:34.824621 17754 net.cpp:150] Setting up conv4_2/dw
I1208 11:46:34.824626 17754 net.cpp:157] Top shape: 1 256 19 32 (155648)
I1208 11:46:34.824630 17754 net.cpp:165] Memory required for data: 197324640
I1208 11:46:34.824632 17754 layer_factory.hpp:77] Creating layer conv4_2/dw/bn
I1208 11:46:34.824635 17754 net.cpp:100] Creating Layer conv4_2/dw/bn
I1208 11:46:34.824645 17754 net.cpp:434] conv4_2/dw/bn <- conv4_2/dw
I1208 11:46:34.824650 17754 net.cpp:395] conv4_2/dw/bn -> conv4_2/dw (in-place)
I1208 11:46:34.824802 17754 net.cpp:150] Setting up conv4_2/dw/bn
I1208 11:46:34.824807 17754 net.cpp:157] Top shape: 1 256 19 32 (155648)
I1208 11:46:34.824810 17754 net.cpp:165] Memory required for data: 197947232
I1208 11:46:34.824815 17754 layer_factory.hpp:77] Creating layer conv4_2/dw/scale
I1208 11:46:34.824818 17754 net.cpp:100] Creating Layer conv4_2/dw/scale
I1208 11:46:34.824820 17754 net.cpp:434] conv4_2/dw/scale <- conv4_2/dw
I1208 11:46:34.824823 17754 net.cpp:395] conv4_2/dw/scale -> conv4_2/dw (in-place)
I1208 11:46:34.824853 17754 layer_factory.hpp:77] Creating layer conv4_2/dw/scale
I1208 11:46:34.824944 17754 net.cpp:150] Setting up conv4_2/dw/scale
I1208 11:46:34.824949 17754 net.cpp:157] Top shape: 1 256 19 32 (155648)
I1208 11:46:34.824950 17754 net.cpp:165] Memory required for data: 198569824
I1208 11:46:34.824954 17754 layer_factory.hpp:77] Creating layer relu4_2/dw
I1208 11:46:34.824957 17754 net.cpp:100] Creating Layer relu4_2/dw
I1208 11:46:34.824959 17754 net.cpp:434] relu4_2/dw <- conv4_2/dw
I1208 11:46:34.824962 17754 net.cpp:395] relu4_2/dw -> conv4_2/dw (in-place)
I1208 11:46:34.826063 17754 net.cpp:150] Setting up relu4_2/dw
I1208 11:46:34.826071 17754 net.cpp:157] Top shape: 1 256 19 32 (155648)
I1208 11:46:34.826073 17754 net.cpp:165] Memory required for data: 199192416
I1208 11:46:34.826076 17754 layer_factory.hpp:77] Creating layer conv4_2/sep
I1208 11:46:34.826082 17754 net.cpp:100] Creating Layer conv4_2/sep
I1208 11:46:34.826084 17754 net.cpp:434] conv4_2/sep <- conv4_2/dw
I1208 11:46:34.826089 17754 net.cpp:408] conv4_2/sep -> conv4_2/sep
I1208 11:46:34.828553 17754 net.cpp:150] Setting up conv4_2/sep
I1208 11:46:34.828563 17754 net.cpp:157] Top shape: 1 512 19 32 (311296)
I1208 11:46:34.828565 17754 net.cpp:165] Memory required for data: 200437600
I1208 11:46:34.828569 17754 layer_factory.hpp:77] Creating layer conv4_2/sep/bn
I1208 11:46:34.828573 17754 net.cpp:100] Creating Layer conv4_2/sep/bn
I1208 11:46:34.828577 17754 net.cpp:434] conv4_2/sep/bn <- conv4_2/sep
I1208 11:46:34.828580 17754 net.cpp:395] conv4_2/sep/bn -> conv4_2/sep (in-place)
I1208 11:46:34.828727 17754 net.cpp:150] Setting up conv4_2/sep/bn
I1208 11:46:34.828732 17754 net.cpp:157] Top shape: 1 512 19 32 (311296)
I1208 11:46:34.828733 17754 net.cpp:165] Memory required for data: 201682784
I1208 11:46:34.828738 17754 layer_factory.hpp:77] Creating layer conv4_2/sep/scale
I1208 11:46:34.828742 17754 net.cpp:100] Creating Layer conv4_2/sep/scale
I1208 11:46:34.828743 17754 net.cpp:434] conv4_2/sep/scale <- conv4_2/sep
I1208 11:46:34.828747 17754 net.cpp:395] conv4_2/sep/scale -> conv4_2/sep (in-place)
I1208 11:46:34.828776 17754 layer_factory.hpp:77] Creating layer conv4_2/sep/scale
I1208 11:46:34.828858 17754 net.cpp:150] Setting up conv4_2/sep/scale
I1208 11:46:34.828862 17754 net.cpp:157] Top shape: 1 512 19 32 (311296)
I1208 11:46:34.828864 17754 net.cpp:165] Memory required for data: 202927968
I1208 11:46:34.828868 17754 layer_factory.hpp:77] Creating layer relu4_2/sep
I1208 11:46:34.828871 17754 net.cpp:100] Creating Layer relu4_2/sep
I1208 11:46:34.828872 17754 net.cpp:434] relu4_2/sep <- conv4_2/sep
I1208 11:46:34.828877 17754 net.cpp:395] relu4_2/sep -> conv4_2/sep (in-place)
I1208 11:46:34.829171 17754 net.cpp:150] Setting up relu4_2/sep
I1208 11:46:34.829177 17754 net.cpp:157] Top shape: 1 512 19 32 (311296)
I1208 11:46:34.829180 17754 net.cpp:165] Memory required for data: 204173152
I1208 11:46:34.829181 17754 layer_factory.hpp:77] Creating layer conv5_1/dw
I1208 11:46:34.829186 17754 net.cpp:100] Creating Layer conv5_1/dw
I1208 11:46:34.829188 17754 net.cpp:434] conv5_1/dw <- conv4_2/sep
I1208 11:46:34.829192 17754 net.cpp:408] conv5_1/dw -> conv5_1/dw
I1208 11:46:34.829365 17754 net.cpp:150] Setting up conv5_1/dw
I1208 11:46:34.829370 17754 net.cpp:157] Top shape: 1 512 19 32 (311296)
I1208 11:46:34.829371 17754 net.cpp:165] Memory required for data: 205418336
I1208 11:46:34.829383 17754 layer_factory.hpp:77] Creating layer conv5_1/dw/bn
I1208 11:46:34.829388 17754 net.cpp:100] Creating Layer conv5_1/dw/bn
I1208 11:46:34.829391 17754 net.cpp:434] conv5_1/dw/bn <- conv5_1/dw
I1208 11:46:34.829392 17754 net.cpp:395] conv5_1/dw/bn -> conv5_1/dw (in-place)
I1208 11:46:34.829533 17754 net.cpp:150] Setting up conv5_1/dw/bn
I1208 11:46:34.829538 17754 net.cpp:157] Top shape: 1 512 19 32 (311296)
I1208 11:46:34.829540 17754 net.cpp:165] Memory required for data: 206663520
I1208 11:46:34.829543 17754 layer_factory.hpp:77] Creating layer conv5_1/dw/scale
I1208 11:46:34.829548 17754 net.cpp:100] Creating Layer conv5_1/dw/scale
I1208 11:46:34.829550 17754 net.cpp:434] conv5_1/dw/scale <- conv5_1/dw
I1208 11:46:34.829553 17754 net.cpp:395] conv5_1/dw/scale -> conv5_1/dw (in-place)
I1208 11:46:34.829581 17754 layer_factory.hpp:77] Creating layer conv5_1/dw/scale
I1208 11:46:34.829663 17754 net.cpp:150] Setting up conv5_1/dw/scale
I1208 11:46:34.829666 17754 net.cpp:157] Top shape: 1 512 19 32 (311296)
I1208 11:46:34.829668 17754 net.cpp:165] Memory required for data: 207908704
I1208 11:46:34.829672 17754 layer_factory.hpp:77] Creating layer relu5_1/dw
I1208 11:46:34.829675 17754 net.cpp:100] Creating Layer relu5_1/dw
I1208 11:46:34.829677 17754 net.cpp:434] relu5_1/dw <- conv5_1/dw
I1208 11:46:34.829680 17754 net.cpp:395] relu5_1/dw -> conv5_1/dw (in-place)
I1208 11:46:34.830080 17754 net.cpp:150] Setting up relu5_1/dw
I1208 11:46:34.830087 17754 net.cpp:157] Top shape: 1 512 19 32 (311296)
I1208 11:46:34.830090 17754 net.cpp:165] Memory required for data: 209153888
I1208 11:46:34.830092 17754 layer_factory.hpp:77] Creating layer conv5_1/sep
I1208 11:46:34.830098 17754 net.cpp:100] Creating Layer conv5_1/sep
I1208 11:46:34.830101 17754 net.cpp:434] conv5_1/sep <- conv5_1/dw
I1208 11:46:34.830106 17754 net.cpp:408] conv5_1/sep -> conv5_1/sep
I1208 11:46:34.832675 17754 net.cpp:150] Setting up conv5_1/sep
I1208 11:46:34.832681 17754 net.cpp:157] Top shape: 1 512 19 32 (311296)
I1208 11:46:34.832684 17754 net.cpp:165] Memory required for data: 210399072
I1208 11:46:34.832687 17754 layer_factory.hpp:77] Creating layer conv5_1/sep/bn
I1208 11:46:34.832691 17754 net.cpp:100] Creating Layer conv5_1/sep/bn
I1208 11:46:34.832693 17754 net.cpp:434] conv5_1/sep/bn <- conv5_1/sep
I1208 11:46:34.832695 17754 net.cpp:395] conv5_1/sep/bn -> conv5_1/sep (in-place)
I1208 11:46:34.832828 17754 net.cpp:150] Setting up conv5_1/sep/bn
I1208 11:46:34.832832 17754 net.cpp:157] Top shape: 1 512 19 32 (311296)
I1208 11:46:34.832834 17754 net.cpp:165] Memory required for data: 211644256
I1208 11:46:34.832837 17754 layer_factory.hpp:77] Creating layer conv5_1/sep/scale
I1208 11:46:34.832841 17754 net.cpp:100] Creating Layer conv5_1/sep/scale
I1208 11:46:34.832842 17754 net.cpp:434] conv5_1/sep/scale <- conv5_1/sep
I1208 11:46:34.832846 17754 net.cpp:395] conv5_1/sep/scale -> conv5_1/sep (in-place)
I1208 11:46:34.832872 17754 layer_factory.hpp:77] Creating layer conv5_1/sep/scale
I1208 11:46:34.832947 17754 net.cpp:150] Setting up conv5_1/sep/scale
I1208 11:46:34.832950 17754 net.cpp:157] Top shape: 1 512 19 32 (311296)
I1208 11:46:34.832952 17754 net.cpp:165] Memory required for data: 212889440
I1208 11:46:34.832955 17754 layer_factory.hpp:77] Creating layer relu5_1/sep
I1208 11:46:34.832958 17754 net.cpp:100] Creating Layer relu5_1/sep
I1208 11:46:34.832960 17754 net.cpp:434] relu5_1/sep <- conv5_1/sep
I1208 11:46:34.832962 17754 net.cpp:395] relu5_1/sep -> conv5_1/sep (in-place)
I1208 11:46:34.833231 17754 net.cpp:150] Setting up relu5_1/sep
I1208 11:46:34.833238 17754 net.cpp:157] Top shape: 1 512 19 32 (311296)
I1208 11:46:34.833240 17754 net.cpp:165] Memory required for data: 214134624
I1208 11:46:34.833241 17754 layer_factory.hpp:77] Creating layer conv5_2/dw
I1208 11:46:34.833245 17754 net.cpp:100] Creating Layer conv5_2/dw
I1208 11:46:34.833247 17754 net.cpp:434] conv5_2/dw <- conv5_1/sep
I1208 11:46:34.833250 17754 net.cpp:408] conv5_2/dw -> conv5_2/dw
I1208 11:46:34.833407 17754 net.cpp:150] Setting up conv5_2/dw
I1208 11:46:34.833418 17754 net.cpp:157] Top shape: 1 512 19 32 (311296)
I1208 11:46:34.833420 17754 net.cpp:165] Memory required for data: 215379808
I1208 11:46:34.833423 17754 layer_factory.hpp:77] Creating layer conv5_2/dw/bn
I1208 11:46:34.833427 17754 net.cpp:100] Creating Layer conv5_2/dw/bn
I1208 11:46:34.833429 17754 net.cpp:434] conv5_2/dw/bn <- conv5_2/dw
I1208 11:46:34.833431 17754 net.cpp:395] conv5_2/dw/bn -> conv5_2/dw (in-place)
I1208 11:46:34.833598 17754 net.cpp:150] Setting up conv5_2/dw/bn
I1208 11:46:34.833602 17754 net.cpp:157] Top shape: 1 512 19 32 (311296)
I1208 11:46:34.833604 17754 net.cpp:165] Memory required for data: 216624992
I1208 11:46:34.833609 17754 layer_factory.hpp:77] Creating layer conv5_2/dw/scale
I1208 11:46:34.833618 17754 net.cpp:100] Creating Layer conv5_2/dw/scale
I1208 11:46:34.833621 17754 net.cpp:434] conv5_2/dw/scale <- conv5_2/dw
I1208 11:46:34.833622 17754 net.cpp:395] conv5_2/dw/scale -> conv5_2/dw (in-place)
I1208 11:46:34.833650 17754 layer_factory.hpp:77] Creating layer conv5_2/dw/scale
I1208 11:46:34.833724 17754 net.cpp:150] Setting up conv5_2/dw/scale
I1208 11:46:34.833729 17754 net.cpp:157] Top shape: 1 512 19 32 (311296)
I1208 11:46:34.833729 17754 net.cpp:165] Memory required for data: 217870176
I1208 11:46:34.833734 17754 layer_factory.hpp:77] Creating layer relu5_2/dw
I1208 11:46:34.833736 17754 net.cpp:100] Creating Layer relu5_2/dw
I1208 11:46:34.833739 17754 net.cpp:434] relu5_2/dw <- conv5_2/dw
I1208 11:46:34.833740 17754 net.cpp:395] relu5_2/dw -> conv5_2/dw (in-place)
I1208 11:46:34.834107 17754 net.cpp:150] Setting up relu5_2/dw
I1208 11:46:34.834113 17754 net.cpp:157] Top shape: 1 512 19 32 (311296)
I1208 11:46:34.834115 17754 net.cpp:165] Memory required for data: 219115360
I1208 11:46:34.834116 17754 layer_factory.hpp:77] Creating layer conv5_2/sep
I1208 11:46:34.834122 17754 net.cpp:100] Creating Layer conv5_2/sep
I1208 11:46:34.834125 17754 net.cpp:434] conv5_2/sep <- conv5_2/dw
I1208 11:46:34.834128 17754 net.cpp:408] conv5_2/sep -> conv5_2/sep
I1208 11:46:34.837749 17754 net.cpp:150] Setting up conv5_2/sep
I1208 11:46:34.837759 17754 net.cpp:157] Top shape: 1 512 19 32 (311296)
I1208 11:46:34.837760 17754 net.cpp:165] Memory required for data: 220360544
I1208 11:46:34.837765 17754 layer_factory.hpp:77] Creating layer conv5_2/sep/bn
I1208 11:46:34.837769 17754 net.cpp:100] Creating Layer conv5_2/sep/bn
I1208 11:46:34.837771 17754 net.cpp:434] conv5_2/sep/bn <- conv5_2/sep
I1208 11:46:34.837775 17754 net.cpp:395] conv5_2/sep/bn -> conv5_2/sep (in-place)
I1208 11:46:34.837911 17754 net.cpp:150] Setting up conv5_2/sep/bn
I1208 11:46:34.837914 17754 net.cpp:157] Top shape: 1 512 19 32 (311296)
I1208 11:46:34.837916 17754 net.cpp:165] Memory required for data: 221605728
I1208 11:46:34.837920 17754 layer_factory.hpp:77] Creating layer conv5_2/sep/scale
I1208 11:46:34.837924 17754 net.cpp:100] Creating Layer conv5_2/sep/scale
I1208 11:46:34.837926 17754 net.cpp:434] conv5_2/sep/scale <- conv5_2/sep
I1208 11:46:34.837929 17754 net.cpp:395] conv5_2/sep/scale -> conv5_2/sep (in-place)
I1208 11:46:34.837956 17754 layer_factory.hpp:77] Creating layer conv5_2/sep/scale
I1208 11:46:34.838032 17754 net.cpp:150] Setting up conv5_2/sep/scale
I1208 11:46:34.838035 17754 net.cpp:157] Top shape: 1 512 19 32 (311296)
I1208 11:46:34.838037 17754 net.cpp:165] Memory required for data: 222850912
I1208 11:46:34.838040 17754 layer_factory.hpp:77] Creating layer relu5_2/sep
I1208 11:46:34.838043 17754 net.cpp:100] Creating Layer relu5_2/sep
I1208 11:46:34.838045 17754 net.cpp:434] relu5_2/sep <- conv5_2/sep
I1208 11:46:34.838047 17754 net.cpp:395] relu5_2/sep -> conv5_2/sep (in-place)
I1208 11:46:34.838312 17754 net.cpp:150] Setting up relu5_2/sep
I1208 11:46:34.838317 17754 net.cpp:157] Top shape: 1 512 19 32 (311296)
I1208 11:46:34.838320 17754 net.cpp:165] Memory required for data: 224096096
I1208 11:46:34.838320 17754 layer_factory.hpp:77] Creating layer conv5_3/dw
I1208 11:46:34.838326 17754 net.cpp:100] Creating Layer conv5_3/dw
I1208 11:46:34.838327 17754 net.cpp:434] conv5_3/dw <- conv5_2/sep
I1208 11:46:34.838340 17754 net.cpp:408] conv5_3/dw -> conv5_3/dw
I1208 11:46:34.838498 17754 net.cpp:150] Setting up conv5_3/dw
I1208 11:46:34.838503 17754 net.cpp:157] Top shape: 1 512 19 32 (311296)
I1208 11:46:34.838505 17754 net.cpp:165] Memory required for data: 225341280
I1208 11:46:34.838507 17754 layer_factory.hpp:77] Creating layer conv5_3/dw/bn
I1208 11:46:34.838510 17754 net.cpp:100] Creating Layer conv5_3/dw/bn
I1208 11:46:34.838512 17754 net.cpp:434] conv5_3/dw/bn <- conv5_3/dw
I1208 11:46:34.838515 17754 net.cpp:395] conv5_3/dw/bn -> conv5_3/dw (in-place)
I1208 11:46:34.838641 17754 net.cpp:150] Setting up conv5_3/dw/bn
I1208 11:46:34.838645 17754 net.cpp:157] Top shape: 1 512 19 32 (311296)
I1208 11:46:34.838647 17754 net.cpp:165] Memory required for data: 226586464
I1208 11:46:34.838651 17754 layer_factory.hpp:77] Creating layer conv5_3/dw/scale
I1208 11:46:34.838654 17754 net.cpp:100] Creating Layer conv5_3/dw/scale
I1208 11:46:34.838655 17754 net.cpp:434] conv5_3/dw/scale <- conv5_3/dw
I1208 11:46:34.838660 17754 net.cpp:395] conv5_3/dw/scale -> conv5_3/dw (in-place)
I1208 11:46:34.838685 17754 layer_factory.hpp:77] Creating layer conv5_3/dw/scale
I1208 11:46:34.838757 17754 net.cpp:150] Setting up conv5_3/dw/scale
I1208 11:46:34.838760 17754 net.cpp:157] Top shape: 1 512 19 32 (311296)
I1208 11:46:34.838762 17754 net.cpp:165] Memory required for data: 227831648
I1208 11:46:34.838765 17754 layer_factory.hpp:77] Creating layer relu5_3/dw
I1208 11:46:34.838768 17754 net.cpp:100] Creating Layer relu5_3/dw
I1208 11:46:34.838769 17754 net.cpp:434] relu5_3/dw <- conv5_3/dw
I1208 11:46:34.838771 17754 net.cpp:395] relu5_3/dw -> conv5_3/dw (in-place)
I1208 11:46:34.839130 17754 net.cpp:150] Setting up relu5_3/dw
I1208 11:46:34.839138 17754 net.cpp:157] Top shape: 1 512 19 32 (311296)
I1208 11:46:34.839139 17754 net.cpp:165] Memory required for data: 229076832
I1208 11:46:34.839141 17754 layer_factory.hpp:77] Creating layer conv5_3/sep
I1208 11:46:34.839146 17754 net.cpp:100] Creating Layer conv5_3/sep
I1208 11:46:34.839148 17754 net.cpp:434] conv5_3/sep <- conv5_3/dw
I1208 11:46:34.839151 17754 net.cpp:408] conv5_3/sep -> conv5_3/sep
I1208 11:46:34.841655 17754 net.cpp:150] Setting up conv5_3/sep
I1208 11:46:34.841661 17754 net.cpp:157] Top shape: 1 512 19 32 (311296)
I1208 11:46:34.841662 17754 net.cpp:165] Memory required for data: 230322016
I1208 11:46:34.841665 17754 layer_factory.hpp:77] Creating layer conv5_3/sep/bn
I1208 11:46:34.841670 17754 net.cpp:100] Creating Layer conv5_3/sep/bn
I1208 11:46:34.841672 17754 net.cpp:434] conv5_3/sep/bn <- conv5_3/sep
I1208 11:46:34.841675 17754 net.cpp:395] conv5_3/sep/bn -> conv5_3/sep (in-place)
I1208 11:46:34.841809 17754 net.cpp:150] Setting up conv5_3/sep/bn
I1208 11:46:34.841814 17754 net.cpp:157] Top shape: 1 512 19 32 (311296)
I1208 11:46:34.841815 17754 net.cpp:165] Memory required for data: 231567200
I1208 11:46:34.841820 17754 layer_factory.hpp:77] Creating layer conv5_3/sep/scale
I1208 11:46:34.841823 17754 net.cpp:100] Creating Layer conv5_3/sep/scale
I1208 11:46:34.841825 17754 net.cpp:434] conv5_3/sep/scale <- conv5_3/sep
I1208 11:46:34.841827 17754 net.cpp:395] conv5_3/sep/scale -> conv5_3/sep (in-place)
I1208 11:46:34.841855 17754 layer_factory.hpp:77] Creating layer conv5_3/sep/scale
I1208 11:46:34.841928 17754 net.cpp:150] Setting up conv5_3/sep/scale
I1208 11:46:34.841931 17754 net.cpp:157] Top shape: 1 512 19 32 (311296)
I1208 11:46:34.841933 17754 net.cpp:165] Memory required for data: 232812384
I1208 11:46:34.841936 17754 layer_factory.hpp:77] Creating layer relu5_3/sep
I1208 11:46:34.841939 17754 net.cpp:100] Creating Layer relu5_3/sep
I1208 11:46:34.841941 17754 net.cpp:434] relu5_3/sep <- conv5_3/sep
I1208 11:46:34.841944 17754 net.cpp:395] relu5_3/sep -> conv5_3/sep (in-place)
I1208 11:46:34.842207 17754 net.cpp:150] Setting up relu5_3/sep
I1208 11:46:34.842212 17754 net.cpp:157] Top shape: 1 512 19 32 (311296)
I1208 11:46:34.842213 17754 net.cpp:165] Memory required for data: 234057568
I1208 11:46:34.842222 17754 layer_factory.hpp:77] Creating layer conv5_4/dw
I1208 11:46:34.842226 17754 net.cpp:100] Creating Layer conv5_4/dw
I1208 11:46:34.842228 17754 net.cpp:434] conv5_4/dw <- conv5_3/sep
I1208 11:46:34.842231 17754 net.cpp:408] conv5_4/dw -> conv5_4/dw
I1208 11:46:34.842388 17754 net.cpp:150] Setting up conv5_4/dw
I1208 11:46:34.842392 17754 net.cpp:157] Top shape: 1 512 19 32 (311296)
I1208 11:46:34.842394 17754 net.cpp:165] Memory required for data: 235302752
I1208 11:46:34.842397 17754 layer_factory.hpp:77] Creating layer conv5_4/dw/bn
I1208 11:46:34.842401 17754 net.cpp:100] Creating Layer conv5_4/dw/bn
I1208 11:46:34.842402 17754 net.cpp:434] conv5_4/dw/bn <- conv5_4/dw
I1208 11:46:34.842406 17754 net.cpp:395] conv5_4/dw/bn -> conv5_4/dw (in-place)
I1208 11:46:34.842532 17754 net.cpp:150] Setting up conv5_4/dw/bn
I1208 11:46:34.842536 17754 net.cpp:157] Top shape: 1 512 19 32 (311296)
I1208 11:46:34.842538 17754 net.cpp:165] Memory required for data: 236547936
I1208 11:46:34.842541 17754 layer_factory.hpp:77] Creating layer conv5_4/dw/scale
I1208 11:46:34.842545 17754 net.cpp:100] Creating Layer conv5_4/dw/scale
I1208 11:46:34.842546 17754 net.cpp:434] conv5_4/dw/scale <- conv5_4/dw
I1208 11:46:34.842550 17754 net.cpp:395] conv5_4/dw/scale -> conv5_4/dw (in-place)
I1208 11:46:34.842574 17754 layer_factory.hpp:77] Creating layer conv5_4/dw/scale
I1208 11:46:34.842648 17754 net.cpp:150] Setting up conv5_4/dw/scale
I1208 11:46:34.842651 17754 net.cpp:157] Top shape: 1 512 19 32 (311296)
I1208 11:46:34.842653 17754 net.cpp:165] Memory required for data: 237793120
I1208 11:46:34.842655 17754 layer_factory.hpp:77] Creating layer relu5_4/dw
I1208 11:46:34.842658 17754 net.cpp:100] Creating Layer relu5_4/dw
I1208 11:46:34.842660 17754 net.cpp:434] relu5_4/dw <- conv5_4/dw
I1208 11:46:34.842664 17754 net.cpp:395] relu5_4/dw -> conv5_4/dw (in-place)
I1208 11:46:34.842926 17754 net.cpp:150] Setting up relu5_4/dw
I1208 11:46:34.842931 17754 net.cpp:157] Top shape: 1 512 19 32 (311296)
I1208 11:46:34.842933 17754 net.cpp:165] Memory required for data: 239038304
I1208 11:46:34.842936 17754 layer_factory.hpp:77] Creating layer conv5_4/sep
I1208 11:46:34.842941 17754 net.cpp:100] Creating Layer conv5_4/sep
I1208 11:46:34.842941 17754 net.cpp:434] conv5_4/sep <- conv5_4/dw
I1208 11:46:34.842945 17754 net.cpp:408] conv5_4/sep -> conv5_4/sep
I1208 11:46:34.846639 17754 net.cpp:150] Setting up conv5_4/sep
I1208 11:46:34.846649 17754 net.cpp:157] Top shape: 1 512 19 32 (311296)
I1208 11:46:34.846652 17754 net.cpp:165] Memory required for data: 240283488
I1208 11:46:34.846657 17754 layer_factory.hpp:77] Creating layer conv5_4/sep/bn
I1208 11:46:34.846662 17754 net.cpp:100] Creating Layer conv5_4/sep/bn
I1208 11:46:34.846662 17754 net.cpp:434] conv5_4/sep/bn <- conv5_4/sep
I1208 11:46:34.846666 17754 net.cpp:395] conv5_4/sep/bn -> conv5_4/sep (in-place)
I1208 11:46:34.846805 17754 net.cpp:150] Setting up conv5_4/sep/bn
I1208 11:46:34.846809 17754 net.cpp:157] Top shape: 1 512 19 32 (311296)
I1208 11:46:34.846812 17754 net.cpp:165] Memory required for data: 241528672
I1208 11:46:34.846814 17754 layer_factory.hpp:77] Creating layer conv5_4/sep/scale
I1208 11:46:34.846819 17754 net.cpp:100] Creating Layer conv5_4/sep/scale
I1208 11:46:34.846822 17754 net.cpp:434] conv5_4/sep/scale <- conv5_4/sep
I1208 11:46:34.846824 17754 net.cpp:395] conv5_4/sep/scale -> conv5_4/sep (in-place)
I1208 11:46:34.846851 17754 layer_factory.hpp:77] Creating layer conv5_4/sep/scale
I1208 11:46:34.846928 17754 net.cpp:150] Setting up conv5_4/sep/scale
I1208 11:46:34.846932 17754 net.cpp:157] Top shape: 1 512 19 32 (311296)
I1208 11:46:34.846933 17754 net.cpp:165] Memory required for data: 242773856
I1208 11:46:34.846936 17754 layer_factory.hpp:77] Creating layer relu5_4/sep
I1208 11:46:34.846940 17754 net.cpp:100] Creating Layer relu5_4/sep
I1208 11:46:34.846941 17754 net.cpp:434] relu5_4/sep <- conv5_4/sep
I1208 11:46:34.846945 17754 net.cpp:395] relu5_4/sep -> conv5_4/sep (in-place)
I1208 11:46:34.847214 17754 net.cpp:150] Setting up relu5_4/sep
I1208 11:46:34.847227 17754 net.cpp:157] Top shape: 1 512 19 32 (311296)
I1208 11:46:34.847229 17754 net.cpp:165] Memory required for data: 244019040
I1208 11:46:34.847230 17754 layer_factory.hpp:77] Creating layer conv5_5/dw
I1208 11:46:34.847235 17754 net.cpp:100] Creating Layer conv5_5/dw
I1208 11:46:34.847237 17754 net.cpp:434] conv5_5/dw <- conv5_4/sep
I1208 11:46:34.847241 17754 net.cpp:408] conv5_5/dw -> conv5_5/dw
I1208 11:46:34.847404 17754 net.cpp:150] Setting up conv5_5/dw
I1208 11:46:34.847407 17754 net.cpp:157] Top shape: 1 512 19 32 (311296)
I1208 11:46:34.847409 17754 net.cpp:165] Memory required for data: 245264224
I1208 11:46:34.847412 17754 layer_factory.hpp:77] Creating layer conv5_5/dw/bn
I1208 11:46:34.847415 17754 net.cpp:100] Creating Layer conv5_5/dw/bn
I1208 11:46:34.847417 17754 net.cpp:434] conv5_5/dw/bn <- conv5_5/dw
I1208 11:46:34.847419 17754 net.cpp:395] conv5_5/dw/bn -> conv5_5/dw (in-place)
I1208 11:46:34.847556 17754 net.cpp:150] Setting up conv5_5/dw/bn
I1208 11:46:34.847561 17754 net.cpp:157] Top shape: 1 512 19 32 (311296)
I1208 11:46:34.847563 17754 net.cpp:165] Memory required for data: 246509408
I1208 11:46:34.847575 17754 layer_factory.hpp:77] Creating layer conv5_5/dw/scale
I1208 11:46:34.847579 17754 net.cpp:100] Creating Layer conv5_5/dw/scale
I1208 11:46:34.847581 17754 net.cpp:434] conv5_5/dw/scale <- conv5_5/dw
I1208 11:46:34.847584 17754 net.cpp:395] conv5_5/dw/scale -> conv5_5/dw (in-place)
I1208 11:46:34.847611 17754 layer_factory.hpp:77] Creating layer conv5_5/dw/scale
I1208 11:46:34.847685 17754 net.cpp:150] Setting up conv5_5/dw/scale
I1208 11:46:34.847689 17754 net.cpp:157] Top shape: 1 512 19 32 (311296)
I1208 11:46:34.847690 17754 net.cpp:165] Memory required for data: 247754592
I1208 11:46:34.847694 17754 layer_factory.hpp:77] Creating layer relu5_5/dw
I1208 11:46:34.847698 17754 net.cpp:100] Creating Layer relu5_5/dw
I1208 11:46:34.847699 17754 net.cpp:434] relu5_5/dw <- conv5_5/dw
I1208 11:46:34.847702 17754 net.cpp:395] relu5_5/dw -> conv5_5/dw (in-place)
I1208 11:46:34.847967 17754 net.cpp:150] Setting up relu5_5/dw
I1208 11:46:34.847972 17754 net.cpp:157] Top shape: 1 512 19 32 (311296)
I1208 11:46:34.847975 17754 net.cpp:165] Memory required for data: 248999776
I1208 11:46:34.847977 17754 layer_factory.hpp:77] Creating layer conv5_5/sep
I1208 11:46:34.847981 17754 net.cpp:100] Creating Layer conv5_5/sep
I1208 11:46:34.847983 17754 net.cpp:434] conv5_5/sep <- conv5_5/dw
I1208 11:46:34.847987 17754 net.cpp:408] conv5_5/sep -> conv5_5/sep
I1208 11:46:34.850693 17754 net.cpp:150] Setting up conv5_5/sep
I1208 11:46:34.850702 17754 net.cpp:157] Top shape: 1 512 19 32 (311296)
I1208 11:46:34.850703 17754 net.cpp:165] Memory required for data: 250244960
I1208 11:46:34.850705 17754 layer_factory.hpp:77] Creating layer conv5_5/sep/bn
I1208 11:46:34.850709 17754 net.cpp:100] Creating Layer conv5_5/sep/bn
I1208 11:46:34.850713 17754 net.cpp:434] conv5_5/sep/bn <- conv5_5/sep
I1208 11:46:34.850714 17754 net.cpp:395] conv5_5/sep/bn -> conv5_5/sep (in-place)
I1208 11:46:34.850852 17754 net.cpp:150] Setting up conv5_5/sep/bn
I1208 11:46:34.850855 17754 net.cpp:157] Top shape: 1 512 19 32 (311296)
I1208 11:46:34.850857 17754 net.cpp:165] Memory required for data: 251490144
I1208 11:46:34.850862 17754 layer_factory.hpp:77] Creating layer conv5_5/sep/scale
I1208 11:46:34.850865 17754 net.cpp:100] Creating Layer conv5_5/sep/scale
I1208 11:46:34.850867 17754 net.cpp:434] conv5_5/sep/scale <- conv5_5/sep
I1208 11:46:34.850870 17754 net.cpp:395] conv5_5/sep/scale -> conv5_5/sep (in-place)
I1208 11:46:34.850898 17754 layer_factory.hpp:77] Creating layer conv5_5/sep/scale
I1208 11:46:34.850972 17754 net.cpp:150] Setting up conv5_5/sep/scale
I1208 11:46:34.850976 17754 net.cpp:157] Top shape: 1 512 19 32 (311296)
I1208 11:46:34.850978 17754 net.cpp:165] Memory required for data: 252735328
I1208 11:46:34.850981 17754 layer_factory.hpp:77] Creating layer relu5_5/sep
I1208 11:46:34.850986 17754 net.cpp:100] Creating Layer relu5_5/sep
I1208 11:46:34.850987 17754 net.cpp:434] relu5_5/sep <- conv5_5/sep
I1208 11:46:34.850996 17754 net.cpp:395] relu5_5/sep -> conv5_5/sep (in-place)
I1208 11:46:34.851263 17754 net.cpp:150] Setting up relu5_5/sep
I1208 11:46:34.851269 17754 net.cpp:157] Top shape: 1 512 19 32 (311296)
I1208 11:46:34.851270 17754 net.cpp:165] Memory required for data: 253980512
I1208 11:46:34.851272 17754 layer_factory.hpp:77] Creating layer conv5_5/sep_relu5_5/sep_0_split
I1208 11:46:34.851275 17754 net.cpp:100] Creating Layer conv5_5/sep_relu5_5/sep_0_split
I1208 11:46:34.851277 17754 net.cpp:434] conv5_5/sep_relu5_5/sep_0_split <- conv5_5/sep
I1208 11:46:34.851281 17754 net.cpp:408] conv5_5/sep_relu5_5/sep_0_split -> conv5_5/sep_relu5_5/sep_0_split_0
I1208 11:46:34.851287 17754 net.cpp:408] conv5_5/sep_relu5_5/sep_0_split -> conv5_5/sep_relu5_5/sep_0_split_1
I1208 11:46:34.851291 17754 net.cpp:408] conv5_5/sep_relu5_5/sep_0_split -> conv5_5/sep_relu5_5/sep_0_split_2
I1208 11:46:34.851294 17754 net.cpp:408] conv5_5/sep_relu5_5/sep_0_split -> conv5_5/sep_relu5_5/sep_0_split_3
I1208 11:46:34.851341 17754 net.cpp:150] Setting up conv5_5/sep_relu5_5/sep_0_split
I1208 11:46:34.851346 17754 net.cpp:157] Top shape: 1 512 19 32 (311296)
I1208 11:46:34.851348 17754 net.cpp:157] Top shape: 1 512 19 32 (311296)
I1208 11:46:34.851351 17754 net.cpp:157] Top shape: 1 512 19 32 (311296)
I1208 11:46:34.851353 17754 net.cpp:157] Top shape: 1 512 19 32 (311296)
I1208 11:46:34.851356 17754 net.cpp:165] Memory required for data: 258961248
I1208 11:46:34.851357 17754 layer_factory.hpp:77] Creating layer conv5_6/dw
I1208 11:46:34.851361 17754 net.cpp:100] Creating Layer conv5_6/dw
I1208 11:46:34.851364 17754 net.cpp:434] conv5_6/dw <- conv5_5/sep_relu5_5/sep_0_split_0
I1208 11:46:34.851367 17754 net.cpp:408] conv5_6/dw -> conv5_6/dw
I1208 11:46:34.851527 17754 net.cpp:150] Setting up conv5_6/dw
I1208 11:46:34.851532 17754 net.cpp:157] Top shape: 1 512 10 16 (81920)
I1208 11:46:34.851533 17754 net.cpp:165] Memory required for data: 259288928
I1208 11:46:34.851536 17754 layer_factory.hpp:77] Creating layer conv5_6/dw/bn
I1208 11:46:34.851541 17754 net.cpp:100] Creating Layer conv5_6/dw/bn
I1208 11:46:34.851542 17754 net.cpp:434] conv5_6/dw/bn <- conv5_6/dw
I1208 11:46:34.851546 17754 net.cpp:395] conv5_6/dw/bn -> conv5_6/dw (in-place)
I1208 11:46:34.851680 17754 net.cpp:150] Setting up conv5_6/dw/bn
I1208 11:46:34.851683 17754 net.cpp:157] Top shape: 1 512 10 16 (81920)
I1208 11:46:34.851686 17754 net.cpp:165] Memory required for data: 259616608
I1208 11:46:34.851689 17754 layer_factory.hpp:77] Creating layer conv5_6/dw/scale
I1208 11:46:34.851692 17754 net.cpp:100] Creating Layer conv5_6/dw/scale
I1208 11:46:34.851696 17754 net.cpp:434] conv5_6/dw/scale <- conv5_6/dw
I1208 11:46:34.851697 17754 net.cpp:395] conv5_6/dw/scale -> conv5_6/dw (in-place)
I1208 11:46:34.851722 17754 layer_factory.hpp:77] Creating layer conv5_6/dw/scale
I1208 11:46:34.851799 17754 net.cpp:150] Setting up conv5_6/dw/scale
I1208 11:46:34.851804 17754 net.cpp:157] Top shape: 1 512 10 16 (81920)
I1208 11:46:34.851805 17754 net.cpp:165] Memory required for data: 259944288
I1208 11:46:34.851809 17754 layer_factory.hpp:77] Creating layer relu5_6/dw
I1208 11:46:34.851811 17754 net.cpp:100] Creating Layer relu5_6/dw
I1208 11:46:34.851814 17754 net.cpp:434] relu5_6/dw <- conv5_6/dw
I1208 11:46:34.851816 17754 net.cpp:395] relu5_6/dw -> conv5_6/dw (in-place)
I1208 11:46:34.852078 17754 net.cpp:150] Setting up relu5_6/dw
I1208 11:46:34.852084 17754 net.cpp:157] Top shape: 1 512 10 16 (81920)
I1208 11:46:34.852087 17754 net.cpp:165] Memory required for data: 260271968
I1208 11:46:34.852088 17754 layer_factory.hpp:77] Creating layer conv5_6/sep
I1208 11:46:34.852093 17754 net.cpp:100] Creating Layer conv5_6/sep
I1208 11:46:34.852097 17754 net.cpp:434] conv5_6/sep <- conv5_6/dw
I1208 11:46:34.852099 17754 net.cpp:408] conv5_6/sep -> conv5_6/sep
I1208 11:46:34.857393 17754 net.cpp:150] Setting up conv5_6/sep
I1208 11:46:34.857406 17754 net.cpp:157] Top shape: 1 1024 10 16 (163840)
I1208 11:46:34.857409 17754 net.cpp:165] Memory required for data: 260927328
I1208 11:46:34.857424 17754 layer_factory.hpp:77] Creating layer conv5_6/sep/bn
I1208 11:46:34.857430 17754 net.cpp:100] Creating Layer conv5_6/sep/bn
I1208 11:46:34.857434 17754 net.cpp:434] conv5_6/sep/bn <- conv5_6/sep
I1208 11:46:34.857437 17754 net.cpp:395] conv5_6/sep/bn -> conv5_6/sep (in-place)
I1208 11:46:34.857583 17754 net.cpp:150] Setting up conv5_6/sep/bn
I1208 11:46:34.857586 17754 net.cpp:157] Top shape: 1 1024 10 16 (163840)
I1208 11:46:34.857587 17754 net.cpp:165] Memory required for data: 261582688
I1208 11:46:34.857592 17754 layer_factory.hpp:77] Creating layer conv5_6/sep/scale
I1208 11:46:34.857599 17754 net.cpp:100] Creating Layer conv5_6/sep/scale
I1208 11:46:34.857600 17754 net.cpp:434] conv5_6/sep/scale <- conv5_6/sep
I1208 11:46:34.857602 17754 net.cpp:395] conv5_6/sep/scale -> conv5_6/sep (in-place)
I1208 11:46:34.857630 17754 layer_factory.hpp:77] Creating layer conv5_6/sep/scale
I1208 11:46:34.857709 17754 net.cpp:150] Setting up conv5_6/sep/scale
I1208 11:46:34.857712 17754 net.cpp:157] Top shape: 1 1024 10 16 (163840)
I1208 11:46:34.857714 17754 net.cpp:165] Memory required for data: 262238048
I1208 11:46:34.857718 17754 layer_factory.hpp:77] Creating layer relu5_6/sep
I1208 11:46:34.857722 17754 net.cpp:100] Creating Layer relu5_6/sep
I1208 11:46:34.857724 17754 net.cpp:434] relu5_6/sep <- conv5_6/sep
I1208 11:46:34.857728 17754 net.cpp:395] relu5_6/sep -> conv5_6/sep (in-place)
I1208 11:46:34.858000 17754 net.cpp:150] Setting up relu5_6/sep
I1208 11:46:34.858006 17754 net.cpp:157] Top shape: 1 1024 10 16 (163840)
I1208 11:46:34.858007 17754 net.cpp:165] Memory required for data: 262893408
I1208 11:46:34.858009 17754 layer_factory.hpp:77] Creating layer conv6/dw
I1208 11:46:34.858014 17754 net.cpp:100] Creating Layer conv6/dw
I1208 11:46:34.858016 17754 net.cpp:434] conv6/dw <- conv5_6/sep
I1208 11:46:34.858019 17754 net.cpp:408] conv6/dw -> conv6/dw
I1208 11:46:34.858211 17754 net.cpp:150] Setting up conv6/dw
I1208 11:46:34.858216 17754 net.cpp:157] Top shape: 1 1024 10 16 (163840)
I1208 11:46:34.858217 17754 net.cpp:165] Memory required for data: 263548768
I1208 11:46:34.858219 17754 layer_factory.hpp:77] Creating layer conv6/dw/bn
I1208 11:46:34.858222 17754 net.cpp:100] Creating Layer conv6/dw/bn
I1208 11:46:34.858224 17754 net.cpp:434] conv6/dw/bn <- conv6/dw
I1208 11:46:34.858227 17754 net.cpp:395] conv6/dw/bn -> conv6/dw (in-place)
I1208 11:46:34.858358 17754 net.cpp:150] Setting up conv6/dw/bn
I1208 11:46:34.858362 17754 net.cpp:157] Top shape: 1 1024 10 16 (163840)
I1208 11:46:34.858364 17754 net.cpp:165] Memory required for data: 264204128
I1208 11:46:34.858368 17754 layer_factory.hpp:77] Creating layer conv6/dw/scale
I1208 11:46:34.858371 17754 net.cpp:100] Creating Layer conv6/dw/scale
I1208 11:46:34.858373 17754 net.cpp:434] conv6/dw/scale <- conv6/dw
I1208 11:46:34.858376 17754 net.cpp:395] conv6/dw/scale -> conv6/dw (in-place)
I1208 11:46:34.858400 17754 layer_factory.hpp:77] Creating layer conv6/dw/scale
I1208 11:46:34.858477 17754 net.cpp:150] Setting up conv6/dw/scale
I1208 11:46:34.858480 17754 net.cpp:157] Top shape: 1 1024 10 16 (163840)
I1208 11:46:34.858482 17754 net.cpp:165] Memory required for data: 264859488
I1208 11:46:34.858485 17754 layer_factory.hpp:77] Creating layer relu6/dw
I1208 11:46:34.858489 17754 net.cpp:100] Creating Layer relu6/dw
I1208 11:46:34.858490 17754 net.cpp:434] relu6/dw <- conv6/dw
I1208 11:46:34.858492 17754 net.cpp:395] relu6/dw -> conv6/dw (in-place)
I1208 11:46:34.858764 17754 net.cpp:150] Setting up relu6/dw
I1208 11:46:34.858769 17754 net.cpp:157] Top shape: 1 1024 10 16 (163840)
I1208 11:46:34.858772 17754 net.cpp:165] Memory required for data: 265514848
I1208 11:46:34.858773 17754 layer_factory.hpp:77] Creating layer conv6/sep
I1208 11:46:34.858778 17754 net.cpp:100] Creating Layer conv6/sep
I1208 11:46:34.858780 17754 net.cpp:434] conv6/sep <- conv6/dw
I1208 11:46:34.858784 17754 net.cpp:408] conv6/sep -> conv6/sep
I1208 11:46:34.866641 17754 net.cpp:150] Setting up conv6/sep
I1208 11:46:34.866654 17754 net.cpp:157] Top shape: 1 1024 10 16 (163840)
I1208 11:46:34.866665 17754 net.cpp:165] Memory required for data: 266170208
I1208 11:46:34.866670 17754 layer_factory.hpp:77] Creating layer conv6/sep/bn
I1208 11:46:34.866675 17754 net.cpp:100] Creating Layer conv6/sep/bn
I1208 11:46:34.866678 17754 net.cpp:434] conv6/sep/bn <- conv6/sep
I1208 11:46:34.866683 17754 net.cpp:395] conv6/sep/bn -> conv6/sep (in-place)
I1208 11:46:34.866827 17754 net.cpp:150] Setting up conv6/sep/bn
I1208 11:46:34.866832 17754 net.cpp:157] Top shape: 1 1024 10 16 (163840)
I1208 11:46:34.866834 17754 net.cpp:165] Memory required for data: 266825568
I1208 11:46:34.866837 17754 layer_factory.hpp:77] Creating layer conv6/sep/scale
I1208 11:46:34.866842 17754 net.cpp:100] Creating Layer conv6/sep/scale
I1208 11:46:34.866844 17754 net.cpp:434] conv6/sep/scale <- conv6/sep
I1208 11:46:34.866847 17754 net.cpp:395] conv6/sep/scale -> conv6/sep (in-place)
I1208 11:46:34.866873 17754 layer_factory.hpp:77] Creating layer conv6/sep/scale
I1208 11:46:34.866952 17754 net.cpp:150] Setting up conv6/sep/scale
I1208 11:46:34.866956 17754 net.cpp:157] Top shape: 1 1024 10 16 (163840)
I1208 11:46:34.866958 17754 net.cpp:165] Memory required for data: 267480928
I1208 11:46:34.866961 17754 layer_factory.hpp:77] Creating layer relu6/sep
I1208 11:46:34.866964 17754 net.cpp:100] Creating Layer relu6/sep
I1208 11:46:34.866966 17754 net.cpp:434] relu6/sep <- conv6/sep
I1208 11:46:34.866969 17754 net.cpp:395] relu6/sep -> conv6/sep (in-place)
I1208 11:46:34.867244 17754 net.cpp:150] Setting up relu6/sep
I1208 11:46:34.867249 17754 net.cpp:157] Top shape: 1 1024 10 16 (163840)
I1208 11:46:34.867250 17754 net.cpp:165] Memory required for data: 268136288
I1208 11:46:34.867252 17754 layer_factory.hpp:77] Creating layer conv6/sep_relu6/sep_0_split
I1208 11:46:34.867256 17754 net.cpp:100] Creating Layer conv6/sep_relu6/sep_0_split
I1208 11:46:34.867257 17754 net.cpp:434] conv6/sep_relu6/sep_0_split <- conv6/sep
I1208 11:46:34.867261 17754 net.cpp:408] conv6/sep_relu6/sep_0_split -> conv6/sep_relu6/sep_0_split_0
I1208 11:46:34.867266 17754 net.cpp:408] conv6/sep_relu6/sep_0_split -> conv6/sep_relu6/sep_0_split_1
I1208 11:46:34.867270 17754 net.cpp:408] conv6/sep_relu6/sep_0_split -> conv6/sep_relu6/sep_0_split_2
I1208 11:46:34.867274 17754 net.cpp:408] conv6/sep_relu6/sep_0_split -> conv6/sep_relu6/sep_0_split_3
I1208 11:46:34.867319 17754 net.cpp:150] Setting up conv6/sep_relu6/sep_0_split
I1208 11:46:34.867323 17754 net.cpp:157] Top shape: 1 1024 10 16 (163840)
I1208 11:46:34.867326 17754 net.cpp:157] Top shape: 1 1024 10 16 (163840)
I1208 11:46:34.867328 17754 net.cpp:157] Top shape: 1 1024 10 16 (163840)
I1208 11:46:34.867331 17754 net.cpp:157] Top shape: 1 1024 10 16 (163840)
I1208 11:46:34.867332 17754 net.cpp:165] Memory required for data: 270757728
I1208 11:46:34.867333 17754 layer_factory.hpp:77] Creating layer ssd1_1
I1208 11:46:34.867339 17754 net.cpp:100] Creating Layer ssd1_1
I1208 11:46:34.867341 17754 net.cpp:434] ssd1_1 <- conv6/sep_relu6/sep_0_split_0
I1208 11:46:34.867346 17754 net.cpp:408] ssd1_1 -> ssd1_1
I1208 11:46:34.870476 17754 net.cpp:150] Setting up ssd1_1
I1208 11:46:34.870486 17754 net.cpp:157] Top shape: 1 256 10 16 (40960)
I1208 11:46:34.870488 17754 net.cpp:165] Memory required for data: 270921568
I1208 11:46:34.870493 17754 layer_factory.hpp:77] Creating layer ssd1_1_relu
I1208 11:46:34.870499 17754 net.cpp:100] Creating Layer ssd1_1_relu
I1208 11:46:34.870501 17754 net.cpp:434] ssd1_1_relu <- ssd1_1
I1208 11:46:34.870504 17754 net.cpp:395] ssd1_1_relu -> ssd1_1 (in-place)
I1208 11:46:34.870888 17754 net.cpp:150] Setting up ssd1_1_relu
I1208 11:46:34.870895 17754 net.cpp:157] Top shape: 1 256 10 16 (40960)
I1208 11:46:34.870898 17754 net.cpp:165] Memory required for data: 271085408
I1208 11:46:34.870899 17754 layer_factory.hpp:77] Creating layer ssd1_2
I1208 11:46:34.870906 17754 net.cpp:100] Creating Layer ssd1_2
I1208 11:46:34.870908 17754 net.cpp:434] ssd1_2 <- ssd1_1
I1208 11:46:34.870911 17754 net.cpp:408] ssd1_2 -> ssd1_2
I1208 11:46:34.876543 17754 net.cpp:150] Setting up ssd1_2
I1208 11:46:34.876566 17754 net.cpp:157] Top shape: 1 512 5 8 (20480)
I1208 11:46:34.876569 17754 net.cpp:165] Memory required for data: 271167328
I1208 11:46:34.876574 17754 layer_factory.hpp:77] Creating layer ssd1_2_relu
I1208 11:46:34.876579 17754 net.cpp:100] Creating Layer ssd1_2_relu
I1208 11:46:34.876581 17754 net.cpp:434] ssd1_2_relu <- ssd1_2
I1208 11:46:34.876585 17754 net.cpp:395] ssd1_2_relu -> ssd1_2 (in-place)
I1208 11:46:34.876864 17754 net.cpp:150] Setting up ssd1_2_relu
I1208 11:46:34.876871 17754 net.cpp:157] Top shape: 1 512 5 8 (20480)
I1208 11:46:34.876873 17754 net.cpp:165] Memory required for data: 271249248
I1208 11:46:34.876875 17754 layer_factory.hpp:77] Creating layer ssd1_2_ssd1_2_relu_0_split
I1208 11:46:34.876878 17754 net.cpp:100] Creating Layer ssd1_2_ssd1_2_relu_0_split
I1208 11:46:34.876880 17754 net.cpp:434] ssd1_2_ssd1_2_relu_0_split <- ssd1_2
I1208 11:46:34.876884 17754 net.cpp:408] ssd1_2_ssd1_2_relu_0_split -> ssd1_2_ssd1_2_relu_0_split_0
I1208 11:46:34.876888 17754 net.cpp:408] ssd1_2_ssd1_2_relu_0_split -> ssd1_2_ssd1_2_relu_0_split_1
I1208 11:46:34.876891 17754 net.cpp:408] ssd1_2_ssd1_2_relu_0_split -> ssd1_2_ssd1_2_relu_0_split_2
I1208 11:46:34.876895 17754 net.cpp:408] ssd1_2_ssd1_2_relu_0_split -> ssd1_2_ssd1_2_relu_0_split_3
I1208 11:46:34.876943 17754 net.cpp:150] Setting up ssd1_2_ssd1_2_relu_0_split
I1208 11:46:34.876947 17754 net.cpp:157] Top shape: 1 512 5 8 (20480)
I1208 11:46:34.876950 17754 net.cpp:157] Top shape: 1 512 5 8 (20480)
I1208 11:46:34.876952 17754 net.cpp:157] Top shape: 1 512 5 8 (20480)
I1208 11:46:34.876955 17754 net.cpp:157] Top shape: 1 512 5 8 (20480)
I1208 11:46:34.876955 17754 net.cpp:165] Memory required for data: 271576928
I1208 11:46:34.876957 17754 layer_factory.hpp:77] Creating layer ssd2_1
I1208 11:46:34.876963 17754 net.cpp:100] Creating Layer ssd2_1
I1208 11:46:34.876966 17754 net.cpp:434] ssd2_1 <- ssd1_2_ssd1_2_relu_0_split_0
I1208 11:46:34.876971 17754 net.cpp:408] ssd2_1 -> ssd2_1
I1208 11:46:34.878374 17754 net.cpp:150] Setting up ssd2_1
I1208 11:46:34.878381 17754 net.cpp:157] Top shape: 1 128 5 8 (5120)
I1208 11:46:34.878383 17754 net.cpp:165] Memory required for data: 271597408
I1208 11:46:34.878388 17754 layer_factory.hpp:77] Creating layer ssd2_1_relu
I1208 11:46:34.878391 17754 net.cpp:100] Creating Layer ssd2_1_relu
I1208 11:46:34.878393 17754 net.cpp:434] ssd2_1_relu <- ssd2_1
I1208 11:46:34.878396 17754 net.cpp:395] ssd2_1_relu -> ssd2_1 (in-place)
I1208 11:46:34.879446 17754 net.cpp:150] Setting up ssd2_1_relu
I1208 11:46:34.879452 17754 net.cpp:157] Top shape: 1 128 5 8 (5120)
I1208 11:46:34.879454 17754 net.cpp:165] Memory required for data: 271617888
I1208 11:46:34.879456 17754 layer_factory.hpp:77] Creating layer ssd2_2
I1208 11:46:34.879470 17754 net.cpp:100] Creating Layer ssd2_2
I1208 11:46:34.879473 17754 net.cpp:434] ssd2_2 <- ssd2_1
I1208 11:46:34.879477 17754 net.cpp:408] ssd2_2 -> ssd2_2
I1208 11:46:34.881950 17754 net.cpp:150] Setting up ssd2_2
I1208 11:46:34.881958 17754 net.cpp:157] Top shape: 1 256 3 4 (3072)
I1208 11:46:34.881960 17754 net.cpp:165] Memory required for data: 271630176
I1208 11:46:34.881964 17754 layer_factory.hpp:77] Creating layer ssd2_2_relu
I1208 11:46:34.881969 17754 net.cpp:100] Creating Layer ssd2_2_relu
I1208 11:46:34.881971 17754 net.cpp:434] ssd2_2_relu <- ssd2_2
I1208 11:46:34.881974 17754 net.cpp:395] ssd2_2_relu -> ssd2_2 (in-place)
I1208 11:46:34.882246 17754 net.cpp:150] Setting up ssd2_2_relu
I1208 11:46:34.882251 17754 net.cpp:157] Top shape: 1 256 3 4 (3072)
I1208 11:46:34.882252 17754 net.cpp:165] Memory required for data: 271642464
I1208 11:46:34.882254 17754 layer_factory.hpp:77] Creating layer ssd2_2_ssd2_2_relu_0_split
I1208 11:46:34.882258 17754 net.cpp:100] Creating Layer ssd2_2_ssd2_2_relu_0_split
I1208 11:46:34.882261 17754 net.cpp:434] ssd2_2_ssd2_2_relu_0_split <- ssd2_2
I1208 11:46:34.882264 17754 net.cpp:408] ssd2_2_ssd2_2_relu_0_split -> ssd2_2_ssd2_2_relu_0_split_0
I1208 11:46:34.882268 17754 net.cpp:408] ssd2_2_ssd2_2_relu_0_split -> ssd2_2_ssd2_2_relu_0_split_1
I1208 11:46:34.882282 17754 net.cpp:408] ssd2_2_ssd2_2_relu_0_split -> ssd2_2_ssd2_2_relu_0_split_2
I1208 11:46:34.882285 17754 net.cpp:408] ssd2_2_ssd2_2_relu_0_split -> ssd2_2_ssd2_2_relu_0_split_3
I1208 11:46:34.882334 17754 net.cpp:150] Setting up ssd2_2_ssd2_2_relu_0_split
I1208 11:46:34.882338 17754 net.cpp:157] Top shape: 1 256 3 4 (3072)
I1208 11:46:34.882340 17754 net.cpp:157] Top shape: 1 256 3 4 (3072)
I1208 11:46:34.882342 17754 net.cpp:157] Top shape: 1 256 3 4 (3072)
I1208 11:46:34.882344 17754 net.cpp:157] Top shape: 1 256 3 4 (3072)
I1208 11:46:34.882346 17754 net.cpp:165] Memory required for data: 271691616
I1208 11:46:34.882347 17754 layer_factory.hpp:77] Creating layer ssd3_1
I1208 11:46:34.882354 17754 net.cpp:100] Creating Layer ssd3_1
I1208 11:46:34.882356 17754 net.cpp:434] ssd3_1 <- ssd2_2_ssd2_2_relu_0_split_0
I1208 11:46:34.882360 17754 net.cpp:408] ssd3_1 -> ssd3_1
I1208 11:46:34.884110 17754 net.cpp:150] Setting up ssd3_1
I1208 11:46:34.884119 17754 net.cpp:157] Top shape: 1 128 3 4 (1536)
I1208 11:46:34.884120 17754 net.cpp:165] Memory required for data: 271697760
I1208 11:46:34.884124 17754 layer_factory.hpp:77] Creating layer ssd3_1_relu
I1208 11:46:34.884129 17754 net.cpp:100] Creating Layer ssd3_1_relu
I1208 11:46:34.884130 17754 net.cpp:434] ssd3_1_relu <- ssd3_1
I1208 11:46:34.884133 17754 net.cpp:395] ssd3_1_relu -> ssd3_1 (in-place)
I1208 11:46:34.884405 17754 net.cpp:150] Setting up ssd3_1_relu
I1208 11:46:34.884410 17754 net.cpp:157] Top shape: 1 128 3 4 (1536)
I1208 11:46:34.884411 17754 net.cpp:165] Memory required for data: 271703904
I1208 11:46:34.884413 17754 layer_factory.hpp:77] Creating layer ssd3_2
I1208 11:46:34.884420 17754 net.cpp:100] Creating Layer ssd3_2
I1208 11:46:34.884421 17754 net.cpp:434] ssd3_2 <- ssd3_1
I1208 11:46:34.884425 17754 net.cpp:408] ssd3_2 -> ssd3_2
I1208 11:46:34.887562 17754 net.cpp:150] Setting up ssd3_2
I1208 11:46:34.887573 17754 net.cpp:157] Top shape: 1 256 2 2 (1024)
I1208 11:46:34.887575 17754 net.cpp:165] Memory required for data: 271708000
I1208 11:46:34.887579 17754 layer_factory.hpp:77] Creating layer ssd3_2_relu
I1208 11:46:34.887585 17754 net.cpp:100] Creating Layer ssd3_2_relu
I1208 11:46:34.887588 17754 net.cpp:434] ssd3_2_relu <- ssd3_2
I1208 11:46:34.887590 17754 net.cpp:395] ssd3_2_relu -> ssd3_2 (in-place)
I1208 11:46:34.887970 17754 net.cpp:150] Setting up ssd3_2_relu
I1208 11:46:34.887977 17754 net.cpp:157] Top shape: 1 256 2 2 (1024)
I1208 11:46:34.887979 17754 net.cpp:165] Memory required for data: 271712096
I1208 11:46:34.887981 17754 layer_factory.hpp:77] Creating layer ssd3_2_ssd3_2_relu_0_split
I1208 11:46:34.887985 17754 net.cpp:100] Creating Layer ssd3_2_ssd3_2_relu_0_split
I1208 11:46:34.887987 17754 net.cpp:434] ssd3_2_ssd3_2_relu_0_split <- ssd3_2
I1208 11:46:34.887991 17754 net.cpp:408] ssd3_2_ssd3_2_relu_0_split -> ssd3_2_ssd3_2_relu_0_split_0
I1208 11:46:34.887996 17754 net.cpp:408] ssd3_2_ssd3_2_relu_0_split -> ssd3_2_ssd3_2_relu_0_split_1
I1208 11:46:34.888000 17754 net.cpp:408] ssd3_2_ssd3_2_relu_0_split -> ssd3_2_ssd3_2_relu_0_split_2
I1208 11:46:34.888003 17754 net.cpp:408] ssd3_2_ssd3_2_relu_0_split -> ssd3_2_ssd3_2_relu_0_split_3
I1208 11:46:34.888052 17754 net.cpp:150] Setting up ssd3_2_ssd3_2_relu_0_split
I1208 11:46:34.888056 17754 net.cpp:157] Top shape: 1 256 2 2 (1024)
I1208 11:46:34.888058 17754 net.cpp:157] Top shape: 1 256 2 2 (1024)
I1208 11:46:34.888061 17754 net.cpp:157] Top shape: 1 256 2 2 (1024)
I1208 11:46:34.888062 17754 net.cpp:157] Top shape: 1 256 2 2 (1024)
I1208 11:46:34.888064 17754 net.cpp:165] Memory required for data: 271728480
I1208 11:46:34.888065 17754 layer_factory.hpp:77] Creating layer ssd4_1
I1208 11:46:34.888072 17754 net.cpp:100] Creating Layer ssd4_1
I1208 11:46:34.888074 17754 net.cpp:434] ssd4_1 <- ssd3_2_ssd3_2_relu_0_split_0
I1208 11:46:34.888077 17754 net.cpp:408] ssd4_1 -> ssd4_1
I1208 11:46:34.889312 17754 net.cpp:150] Setting up ssd4_1
I1208 11:46:34.889318 17754 net.cpp:157] Top shape: 1 128 2 2 (512)
I1208 11:46:34.889320 17754 net.cpp:165] Memory required for data: 271730528
I1208 11:46:34.889333 17754 layer_factory.hpp:77] Creating layer ssd4_1_relu
I1208 11:46:34.889346 17754 net.cpp:100] Creating Layer ssd4_1_relu
I1208 11:46:34.889348 17754 net.cpp:434] ssd4_1_relu <- ssd4_1
I1208 11:46:34.889353 17754 net.cpp:395] ssd4_1_relu -> ssd4_1 (in-place)
I1208 11:46:34.889629 17754 net.cpp:150] Setting up ssd4_1_relu
I1208 11:46:34.889634 17754 net.cpp:157] Top shape: 1 128 2 2 (512)
I1208 11:46:34.889636 17754 net.cpp:165] Memory required for data: 271732576
I1208 11:46:34.889638 17754 layer_factory.hpp:77] Creating layer ssd4_2
I1208 11:46:34.889643 17754 net.cpp:100] Creating Layer ssd4_2
I1208 11:46:34.889645 17754 net.cpp:434] ssd4_2 <- ssd4_1
I1208 11:46:34.889648 17754 net.cpp:408] ssd4_2 -> ssd4_2
I1208 11:46:34.892145 17754 net.cpp:150] Setting up ssd4_2
I1208 11:46:34.892153 17754 net.cpp:157] Top shape: 1 256 1 1 (256)
I1208 11:46:34.892155 17754 net.cpp:165] Memory required for data: 271733600
I1208 11:46:34.892159 17754 layer_factory.hpp:77] Creating layer ssd4_2_relu
I1208 11:46:34.892163 17754 net.cpp:100] Creating Layer ssd4_2_relu
I1208 11:46:34.892166 17754 net.cpp:434] ssd4_2_relu <- ssd4_2
I1208 11:46:34.892168 17754 net.cpp:395] ssd4_2_relu -> ssd4_2 (in-place)
I1208 11:46:34.893214 17754 net.cpp:150] Setting up ssd4_2_relu
I1208 11:46:34.893223 17754 net.cpp:157] Top shape: 1 256 1 1 (256)
I1208 11:46:34.893224 17754 net.cpp:165] Memory required for data: 271734624
I1208 11:46:34.893226 17754 layer_factory.hpp:77] Creating layer ssd4_2_ssd4_2_relu_0_split
I1208 11:46:34.893229 17754 net.cpp:100] Creating Layer ssd4_2_ssd4_2_relu_0_split
I1208 11:46:34.893232 17754 net.cpp:434] ssd4_2_ssd4_2_relu_0_split <- ssd4_2
I1208 11:46:34.893236 17754 net.cpp:408] ssd4_2_ssd4_2_relu_0_split -> ssd4_2_ssd4_2_relu_0_split_0
I1208 11:46:34.893246 17754 net.cpp:408] ssd4_2_ssd4_2_relu_0_split -> ssd4_2_ssd4_2_relu_0_split_1
I1208 11:46:34.893250 17754 net.cpp:408] ssd4_2_ssd4_2_relu_0_split -> ssd4_2_ssd4_2_relu_0_split_2
I1208 11:46:34.893294 17754 net.cpp:150] Setting up ssd4_2_ssd4_2_relu_0_split
I1208 11:46:34.893299 17754 net.cpp:157] Top shape: 1 256 1 1 (256)
I1208 11:46:34.893301 17754 net.cpp:157] Top shape: 1 256 1 1 (256)
I1208 11:46:34.893303 17754 net.cpp:157] Top shape: 1 256 1 1 (256)
I1208 11:46:34.893306 17754 net.cpp:165] Memory required for data: 271737696
I1208 11:46:34.893306 17754 layer_factory.hpp:77] Creating layer conv5_5/sep_mbox_loc
I1208 11:46:34.893312 17754 net.cpp:100] Creating Layer conv5_5/sep_mbox_loc
I1208 11:46:34.893316 17754 net.cpp:434] conv5_5/sep_mbox_loc <- conv5_5/sep_relu5_5/sep_0_split_1
I1208 11:46:34.893319 17754 net.cpp:408] conv5_5/sep_mbox_loc -> conv5_5/sep_mbox_loc
I1208 11:46:34.894693 17754 net.cpp:150] Setting up conv5_5/sep_mbox_loc
I1208 11:46:34.894701 17754 net.cpp:157] Top shape: 1 8 19 32 (4864)
I1208 11:46:34.894703 17754 net.cpp:165] Memory required for data: 271757152
I1208 11:46:34.894708 17754 layer_factory.hpp:77] Creating layer conv5_5/sep_mbox_loc_perm
I1208 11:46:34.894712 17754 net.cpp:100] Creating Layer conv5_5/sep_mbox_loc_perm
I1208 11:46:34.894716 17754 net.cpp:434] conv5_5/sep_mbox_loc_perm <- conv5_5/sep_mbox_loc
I1208 11:46:34.894718 17754 net.cpp:408] conv5_5/sep_mbox_loc_perm -> conv5_5/sep_mbox_loc_perm
I1208 11:46:34.894801 17754 net.cpp:150] Setting up conv5_5/sep_mbox_loc_perm
I1208 11:46:34.894805 17754 net.cpp:157] Top shape: 1 19 32 8 (4864)
I1208 11:46:34.894806 17754 net.cpp:165] Memory required for data: 271776608
I1208 11:46:34.894809 17754 layer_factory.hpp:77] Creating layer conv5_5/sep_mbox_loc_flat
I1208 11:46:34.894814 17754 net.cpp:100] Creating Layer conv5_5/sep_mbox_loc_flat
I1208 11:46:34.894815 17754 net.cpp:434] conv5_5/sep_mbox_loc_flat <- conv5_5/sep_mbox_loc_perm
I1208 11:46:34.894819 17754 net.cpp:408] conv5_5/sep_mbox_loc_flat -> conv5_5/sep_mbox_loc_flat
I1208 11:46:34.894862 17754 net.cpp:150] Setting up conv5_5/sep_mbox_loc_flat
I1208 11:46:34.894867 17754 net.cpp:157] Top shape: 1 4864 (4864)
I1208 11:46:34.894868 17754 net.cpp:165] Memory required for data: 271796064
I1208 11:46:34.894878 17754 layer_factory.hpp:77] Creating layer conv5_5/sep_mbox_conf
I1208 11:46:34.894888 17754 net.cpp:100] Creating Layer conv5_5/sep_mbox_conf
I1208 11:46:34.894891 17754 net.cpp:434] conv5_5/sep_mbox_conf <- conv5_5/sep_relu5_5/sep_0_split_2
I1208 11:46:34.894894 17754 net.cpp:408] conv5_5/sep_mbox_conf -> conv5_5/sep_mbox_conf
I1208 11:46:34.896301 17754 net.cpp:150] Setting up conv5_5/sep_mbox_conf
I1208 11:46:34.896308 17754 net.cpp:157] Top shape: 1 10 19 32 (6080)
I1208 11:46:34.896311 17754 net.cpp:165] Memory required for data: 271820384
I1208 11:46:34.896314 17754 layer_factory.hpp:77] Creating layer conv5_5/sep_mbox_conf_perm
I1208 11:46:34.896318 17754 net.cpp:100] Creating Layer conv5_5/sep_mbox_conf_perm
I1208 11:46:34.896320 17754 net.cpp:434] conv5_5/sep_mbox_conf_perm <- conv5_5/sep_mbox_conf
I1208 11:46:34.896324 17754 net.cpp:408] conv5_5/sep_mbox_conf_perm -> conv5_5/sep_mbox_conf_perm
I1208 11:46:34.896419 17754 net.cpp:150] Setting up conv5_5/sep_mbox_conf_perm
I1208 11:46:34.896422 17754 net.cpp:157] Top shape: 1 19 32 10 (6080)
I1208 11:46:34.896425 17754 net.cpp:165] Memory required for data: 271844704
I1208 11:46:34.896426 17754 layer_factory.hpp:77] Creating layer conv5_5/sep_mbox_conf_flat
I1208 11:46:34.896430 17754 net.cpp:100] Creating Layer conv5_5/sep_mbox_conf_flat
I1208 11:46:34.896431 17754 net.cpp:434] conv5_5/sep_mbox_conf_flat <- conv5_5/sep_mbox_conf_perm
I1208 11:46:34.896435 17754 net.cpp:408] conv5_5/sep_mbox_conf_flat -> conv5_5/sep_mbox_conf_flat
I1208 11:46:34.896451 17754 net.cpp:150] Setting up conv5_5/sep_mbox_conf_flat
I1208 11:46:34.896456 17754 net.cpp:157] Top shape: 1 6080 (6080)
I1208 11:46:34.896456 17754 net.cpp:165] Memory required for data: 271869024
I1208 11:46:34.896459 17754 layer_factory.hpp:77] Creating layer conv5_5/sep_mbox_priorbox
I1208 11:46:34.896464 17754 net.cpp:100] Creating Layer conv5_5/sep_mbox_priorbox
I1208 11:46:34.896466 17754 net.cpp:434] conv5_5/sep_mbox_priorbox <- conv5_5/sep_relu5_5/sep_0_split_3
I1208 11:46:34.896469 17754 net.cpp:434] conv5_5/sep_mbox_priorbox <- data_data_0_split_1
I1208 11:46:34.896472 17754 net.cpp:408] conv5_5/sep_mbox_priorbox -> conv5_5/sep_mbox_priorbox
I1208 11:46:34.896497 17754 net.cpp:150] Setting up conv5_5/sep_mbox_priorbox
I1208 11:46:34.896502 17754 net.cpp:157] Top shape: 1 2 4864 (9728)
I1208 11:46:34.896502 17754 net.cpp:165] Memory required for data: 271907936
I1208 11:46:34.896504 17754 layer_factory.hpp:77] Creating layer conv6/sep_mbox_loc
I1208 11:46:34.896509 17754 net.cpp:100] Creating Layer conv6/sep_mbox_loc
I1208 11:46:34.896512 17754 net.cpp:434] conv6/sep_mbox_loc <- conv6/sep_relu6/sep_0_split_1
I1208 11:46:34.896515 17754 net.cpp:408] conv6/sep_mbox_loc -> conv6/sep_mbox_loc
I1208 11:46:34.897989 17754 net.cpp:150] Setting up conv6/sep_mbox_loc
I1208 11:46:34.897997 17754 net.cpp:157] Top shape: 1 8 10 16 (1280)
I1208 11:46:34.898000 17754 net.cpp:165] Memory required for data: 271913056
I1208 11:46:34.898003 17754 layer_factory.hpp:77] Creating layer conv6/sep_mbox_loc_perm
I1208 11:46:34.898007 17754 net.cpp:100] Creating Layer conv6/sep_mbox_loc_perm
I1208 11:46:34.898010 17754 net.cpp:434] conv6/sep_mbox_loc_perm <- conv6/sep_mbox_loc
I1208 11:46:34.898015 17754 net.cpp:408] conv6/sep_mbox_loc_perm -> conv6/sep_mbox_loc_perm
I1208 11:46:34.898097 17754 net.cpp:150] Setting up conv6/sep_mbox_loc_perm
I1208 11:46:34.898100 17754 net.cpp:157] Top shape: 1 10 16 8 (1280)
I1208 11:46:34.898103 17754 net.cpp:165] Memory required for data: 271918176
I1208 11:46:34.898105 17754 layer_factory.hpp:77] Creating layer conv6/sep_mbox_loc_flat
I1208 11:46:34.898108 17754 net.cpp:100] Creating Layer conv6/sep_mbox_loc_flat
I1208 11:46:34.898111 17754 net.cpp:434] conv6/sep_mbox_loc_flat <- conv6/sep_mbox_loc_perm
I1208 11:46:34.898114 17754 net.cpp:408] conv6/sep_mbox_loc_flat -> conv6/sep_mbox_loc_flat
I1208 11:46:34.898133 17754 net.cpp:150] Setting up conv6/sep_mbox_loc_flat
I1208 11:46:34.898135 17754 net.cpp:157] Top shape: 1 1280 (1280)
I1208 11:46:34.898144 17754 net.cpp:165] Memory required for data: 271923296
I1208 11:46:34.898146 17754 layer_factory.hpp:77] Creating layer conv6/sep_mbox_conf
I1208 11:46:34.898152 17754 net.cpp:100] Creating Layer conv6/sep_mbox_conf
I1208 11:46:34.898154 17754 net.cpp:434] conv6/sep_mbox_conf <- conv6/sep_relu6/sep_0_split_2
I1208 11:46:34.898159 17754 net.cpp:408] conv6/sep_mbox_conf -> conv6/sep_mbox_conf
I1208 11:46:34.900492 17754 net.cpp:150] Setting up conv6/sep_mbox_conf
I1208 11:46:34.900501 17754 net.cpp:157] Top shape: 1 10 10 16 (1600)
I1208 11:46:34.900502 17754 net.cpp:165] Memory required for data: 271929696
I1208 11:46:34.900507 17754 layer_factory.hpp:77] Creating layer conv6/sep_mbox_conf_perm
I1208 11:46:34.900511 17754 net.cpp:100] Creating Layer conv6/sep_mbox_conf_perm
I1208 11:46:34.900516 17754 net.cpp:434] conv6/sep_mbox_conf_perm <- conv6/sep_mbox_conf
I1208 11:46:34.900519 17754 net.cpp:408] conv6/sep_mbox_conf_perm -> conv6/sep_mbox_conf_perm
I1208 11:46:34.900604 17754 net.cpp:150] Setting up conv6/sep_mbox_conf_perm
I1208 11:46:34.900606 17754 net.cpp:157] Top shape: 1 10 16 10 (1600)
I1208 11:46:34.900609 17754 net.cpp:165] Memory required for data: 271936096
I1208 11:46:34.900611 17754 layer_factory.hpp:77] Creating layer conv6/sep_mbox_conf_flat
I1208 11:46:34.900614 17754 net.cpp:100] Creating Layer conv6/sep_mbox_conf_flat
I1208 11:46:34.900617 17754 net.cpp:434] conv6/sep_mbox_conf_flat <- conv6/sep_mbox_conf_perm
I1208 11:46:34.900621 17754 net.cpp:408] conv6/sep_mbox_conf_flat -> conv6/sep_mbox_conf_flat
I1208 11:46:34.900640 17754 net.cpp:150] Setting up conv6/sep_mbox_conf_flat
I1208 11:46:34.900642 17754 net.cpp:157] Top shape: 1 1600 (1600)
I1208 11:46:34.900645 17754 net.cpp:165] Memory required for data: 271942496
I1208 11:46:34.900647 17754 layer_factory.hpp:77] Creating layer conv6/sep_mbox_priorbox
I1208 11:46:34.900650 17754 net.cpp:100] Creating Layer conv6/sep_mbox_priorbox
I1208 11:46:34.900655 17754 net.cpp:434] conv6/sep_mbox_priorbox <- conv6/sep_relu6/sep_0_split_3
I1208 11:46:34.900657 17754 net.cpp:434] conv6/sep_mbox_priorbox <- data_data_0_split_2
I1208 11:46:34.900661 17754 net.cpp:408] conv6/sep_mbox_priorbox -> conv6/sep_mbox_priorbox
I1208 11:46:34.900681 17754 net.cpp:150] Setting up conv6/sep_mbox_priorbox
I1208 11:46:34.900684 17754 net.cpp:157] Top shape: 1 2 1280 (2560)
I1208 11:46:34.900686 17754 net.cpp:165] Memory required for data: 271952736
I1208 11:46:34.900688 17754 layer_factory.hpp:77] Creating layer ssd1_2_mbox_loc
I1208 11:46:34.900693 17754 net.cpp:100] Creating Layer ssd1_2_mbox_loc
I1208 11:46:34.900696 17754 net.cpp:434] ssd1_2_mbox_loc <- ssd1_2_ssd1_2_relu_0_split_1
I1208 11:46:34.900701 17754 net.cpp:408] ssd1_2_mbox_loc -> ssd1_2_mbox_loc
I1208 11:46:34.902065 17754 net.cpp:150] Setting up ssd1_2_mbox_loc
I1208 11:46:34.902072 17754 net.cpp:157] Top shape: 1 8 5 8 (320)
I1208 11:46:34.902074 17754 net.cpp:165] Memory required for data: 271954016
I1208 11:46:34.902078 17754 layer_factory.hpp:77] Creating layer ssd1_2_mbox_loc_perm
I1208 11:46:34.902083 17754 net.cpp:100] Creating Layer ssd1_2_mbox_loc_perm
I1208 11:46:34.902086 17754 net.cpp:434] ssd1_2_mbox_loc_perm <- ssd1_2_mbox_loc
I1208 11:46:34.902091 17754 net.cpp:408] ssd1_2_mbox_loc_perm -> ssd1_2_mbox_loc_perm
I1208 11:46:34.902173 17754 net.cpp:150] Setting up ssd1_2_mbox_loc_perm
I1208 11:46:34.902178 17754 net.cpp:157] Top shape: 1 5 8 8 (320)
I1208 11:46:34.902179 17754 net.cpp:165] Memory required for data: 271955296
I1208 11:46:34.902181 17754 layer_factory.hpp:77] Creating layer ssd1_2_mbox_loc_flat
I1208 11:46:34.902184 17754 net.cpp:100] Creating Layer ssd1_2_mbox_loc_flat
I1208 11:46:34.902186 17754 net.cpp:434] ssd1_2_mbox_loc_flat <- ssd1_2_mbox_loc_perm
I1208 11:46:34.902190 17754 net.cpp:408] ssd1_2_mbox_loc_flat -> ssd1_2_mbox_loc_flat
I1208 11:46:34.902206 17754 net.cpp:150] Setting up ssd1_2_mbox_loc_flat
I1208 11:46:34.902210 17754 net.cpp:157] Top shape: 1 320 (320)
I1208 11:46:34.902212 17754 net.cpp:165] Memory required for data: 271956576
I1208 11:46:34.902215 17754 layer_factory.hpp:77] Creating layer ssd1_2_mbox_conf
I1208 11:46:34.902230 17754 net.cpp:100] Creating Layer ssd1_2_mbox_conf
I1208 11:46:34.902232 17754 net.cpp:434] ssd1_2_mbox_conf <- ssd1_2_ssd1_2_relu_0_split_2
I1208 11:46:34.902237 17754 net.cpp:408] ssd1_2_mbox_conf -> ssd1_2_mbox_conf
I1208 11:46:34.903720 17754 net.cpp:150] Setting up ssd1_2_mbox_conf
I1208 11:46:34.903728 17754 net.cpp:157] Top shape: 1 10 5 8 (400)
I1208 11:46:34.903731 17754 net.cpp:165] Memory required for data: 271958176
I1208 11:46:34.903735 17754 layer_factory.hpp:77] Creating layer ssd1_2_mbox_conf_perm
I1208 11:46:34.903739 17754 net.cpp:100] Creating Layer ssd1_2_mbox_conf_perm
I1208 11:46:34.903743 17754 net.cpp:434] ssd1_2_mbox_conf_perm <- ssd1_2_mbox_conf
I1208 11:46:34.903746 17754 net.cpp:408] ssd1_2_mbox_conf_perm -> ssd1_2_mbox_conf_perm
I1208 11:46:34.903831 17754 net.cpp:150] Setting up ssd1_2_mbox_conf_perm
I1208 11:46:34.903833 17754 net.cpp:157] Top shape: 1 5 8 10 (400)
I1208 11:46:34.903836 17754 net.cpp:165] Memory required for data: 271959776
I1208 11:46:34.903837 17754 layer_factory.hpp:77] Creating layer ssd1_2_mbox_conf_flat
I1208 11:46:34.903841 17754 net.cpp:100] Creating Layer ssd1_2_mbox_conf_flat
I1208 11:46:34.903844 17754 net.cpp:434] ssd1_2_mbox_conf_flat <- ssd1_2_mbox_conf_perm
I1208 11:46:34.903847 17754 net.cpp:408] ssd1_2_mbox_conf_flat -> ssd1_2_mbox_conf_flat
I1208 11:46:34.903864 17754 net.cpp:150] Setting up ssd1_2_mbox_conf_flat
I1208 11:46:34.903868 17754 net.cpp:157] Top shape: 1 400 (400)
I1208 11:46:34.903869 17754 net.cpp:165] Memory required for data: 271961376
I1208 11:46:34.903872 17754 layer_factory.hpp:77] Creating layer ssd1_2_mbox_priorbox
I1208 11:46:34.903875 17754 net.cpp:100] Creating Layer ssd1_2_mbox_priorbox
I1208 11:46:34.903878 17754 net.cpp:434] ssd1_2_mbox_priorbox <- ssd1_2_ssd1_2_relu_0_split_3
I1208 11:46:34.903880 17754 net.cpp:434] ssd1_2_mbox_priorbox <- data_data_0_split_3
I1208 11:46:34.903884 17754 net.cpp:408] ssd1_2_mbox_priorbox -> ssd1_2_mbox_priorbox
I1208 11:46:34.903901 17754 net.cpp:150] Setting up ssd1_2_mbox_priorbox
I1208 11:46:34.903905 17754 net.cpp:157] Top shape: 1 2 320 (640)
I1208 11:46:34.903908 17754 net.cpp:165] Memory required for data: 271963936
I1208 11:46:34.903908 17754 layer_factory.hpp:77] Creating layer ssd2_2_mbox_loc
I1208 11:46:34.903914 17754 net.cpp:100] Creating Layer ssd2_2_mbox_loc
I1208 11:46:34.903918 17754 net.cpp:434] ssd2_2_mbox_loc <- ssd2_2_ssd2_2_relu_0_split_1
I1208 11:46:34.903920 17754 net.cpp:408] ssd2_2_mbox_loc -> ssd2_2_mbox_loc
I1208 11:46:34.905814 17754 net.cpp:150] Setting up ssd2_2_mbox_loc
I1208 11:46:34.905822 17754 net.cpp:157] Top shape: 1 8 3 4 (96)
I1208 11:46:34.905824 17754 net.cpp:165] Memory required for data: 271964320
I1208 11:46:34.905828 17754 layer_factory.hpp:77] Creating layer ssd2_2_mbox_loc_perm
I1208 11:46:34.905833 17754 net.cpp:100] Creating Layer ssd2_2_mbox_loc_perm
I1208 11:46:34.905836 17754 net.cpp:434] ssd2_2_mbox_loc_perm <- ssd2_2_mbox_loc
I1208 11:46:34.905841 17754 net.cpp:408] ssd2_2_mbox_loc_perm -> ssd2_2_mbox_loc_perm
I1208 11:46:34.905922 17754 net.cpp:150] Setting up ssd2_2_mbox_loc_perm
I1208 11:46:34.905926 17754 net.cpp:157] Top shape: 1 3 4 8 (96)
I1208 11:46:34.905928 17754 net.cpp:165] Memory required for data: 271964704
I1208 11:46:34.905931 17754 layer_factory.hpp:77] Creating layer ssd2_2_mbox_loc_flat
I1208 11:46:34.905933 17754 net.cpp:100] Creating Layer ssd2_2_mbox_loc_flat
I1208 11:46:34.905936 17754 net.cpp:434] ssd2_2_mbox_loc_flat <- ssd2_2_mbox_loc_perm
I1208 11:46:34.905939 17754 net.cpp:408] ssd2_2_mbox_loc_flat -> ssd2_2_mbox_loc_flat
I1208 11:46:34.905956 17754 net.cpp:150] Setting up ssd2_2_mbox_loc_flat
I1208 11:46:34.905961 17754 net.cpp:157] Top shape: 1 96 (96)
I1208 11:46:34.905963 17754 net.cpp:165] Memory required for data: 271965088
I1208 11:46:34.905964 17754 layer_factory.hpp:77] Creating layer ssd2_2_mbox_conf
I1208 11:46:34.905970 17754 net.cpp:100] Creating Layer ssd2_2_mbox_conf
I1208 11:46:34.905973 17754 net.cpp:434] ssd2_2_mbox_conf <- ssd2_2_ssd2_2_relu_0_split_2
I1208 11:46:34.905984 17754 net.cpp:408] ssd2_2_mbox_conf -> ssd2_2_mbox_conf
I1208 11:46:34.907203 17754 net.cpp:150] Setting up ssd2_2_mbox_conf
I1208 11:46:34.907210 17754 net.cpp:157] Top shape: 1 10 3 4 (120)
I1208 11:46:34.907212 17754 net.cpp:165] Memory required for data: 271965568
I1208 11:46:34.907217 17754 layer_factory.hpp:77] Creating layer ssd2_2_mbox_conf_perm
I1208 11:46:34.907220 17754 net.cpp:100] Creating Layer ssd2_2_mbox_conf_perm
I1208 11:46:34.907223 17754 net.cpp:434] ssd2_2_mbox_conf_perm <- ssd2_2_mbox_conf
I1208 11:46:34.907227 17754 net.cpp:408] ssd2_2_mbox_conf_perm -> ssd2_2_mbox_conf_perm
I1208 11:46:34.907310 17754 net.cpp:150] Setting up ssd2_2_mbox_conf_perm
I1208 11:46:34.907313 17754 net.cpp:157] Top shape: 1 3 4 10 (120)
I1208 11:46:34.907316 17754 net.cpp:165] Memory required for data: 271966048
I1208 11:46:34.907318 17754 layer_factory.hpp:77] Creating layer ssd2_2_mbox_conf_flat
I1208 11:46:34.907320 17754 net.cpp:100] Creating Layer ssd2_2_mbox_conf_flat
I1208 11:46:34.907325 17754 net.cpp:434] ssd2_2_mbox_conf_flat <- ssd2_2_mbox_conf_perm
I1208 11:46:34.907327 17754 net.cpp:408] ssd2_2_mbox_conf_flat -> ssd2_2_mbox_conf_flat
I1208 11:46:34.907346 17754 net.cpp:150] Setting up ssd2_2_mbox_conf_flat
I1208 11:46:34.907348 17754 net.cpp:157] Top shape: 1 120 (120)
I1208 11:46:34.907351 17754 net.cpp:165] Memory required for data: 271966528
I1208 11:46:34.907352 17754 layer_factory.hpp:77] Creating layer ssd2_2_mbox_priorbox
I1208 11:46:34.907356 17754 net.cpp:100] Creating Layer ssd2_2_mbox_priorbox
I1208 11:46:34.907359 17754 net.cpp:434] ssd2_2_mbox_priorbox <- ssd2_2_ssd2_2_relu_0_split_3
I1208 11:46:34.907361 17754 net.cpp:434] ssd2_2_mbox_priorbox <- data_data_0_split_4
I1208 11:46:34.907366 17754 net.cpp:408] ssd2_2_mbox_priorbox -> ssd2_2_mbox_priorbox
I1208 11:46:34.907385 17754 net.cpp:150] Setting up ssd2_2_mbox_priorbox
I1208 11:46:34.907388 17754 net.cpp:157] Top shape: 1 2 96 (192)
I1208 11:46:34.907390 17754 net.cpp:165] Memory required for data: 271967296
I1208 11:46:34.907392 17754 layer_factory.hpp:77] Creating layer ssd3_2_mbox_loc
I1208 11:46:34.907397 17754 net.cpp:100] Creating Layer ssd3_2_mbox_loc
I1208 11:46:34.907400 17754 net.cpp:434] ssd3_2_mbox_loc <- ssd3_2_ssd3_2_relu_0_split_1
I1208 11:46:34.907404 17754 net.cpp:408] ssd3_2_mbox_loc -> ssd3_2_mbox_loc
I1208 11:46:34.908707 17754 net.cpp:150] Setting up ssd3_2_mbox_loc
I1208 11:46:34.908715 17754 net.cpp:157] Top shape: 1 8 2 2 (32)
I1208 11:46:34.908716 17754 net.cpp:165] Memory required for data: 271967424
I1208 11:46:34.908720 17754 layer_factory.hpp:77] Creating layer ssd3_2_mbox_loc_perm
I1208 11:46:34.908725 17754 net.cpp:100] Creating Layer ssd3_2_mbox_loc_perm
I1208 11:46:34.908727 17754 net.cpp:434] ssd3_2_mbox_loc_perm <- ssd3_2_mbox_loc
I1208 11:46:34.908730 17754 net.cpp:408] ssd3_2_mbox_loc_perm -> ssd3_2_mbox_loc_perm
I1208 11:46:34.908812 17754 net.cpp:150] Setting up ssd3_2_mbox_loc_perm
I1208 11:46:34.908816 17754 net.cpp:157] Top shape: 1 2 2 8 (32)
I1208 11:46:34.908818 17754 net.cpp:165] Memory required for data: 271967552
I1208 11:46:34.908819 17754 layer_factory.hpp:77] Creating layer ssd3_2_mbox_loc_flat
I1208 11:46:34.908823 17754 net.cpp:100] Creating Layer ssd3_2_mbox_loc_flat
I1208 11:46:34.908825 17754 net.cpp:434] ssd3_2_mbox_loc_flat <- ssd3_2_mbox_loc_perm
I1208 11:46:34.908828 17754 net.cpp:408] ssd3_2_mbox_loc_flat -> ssd3_2_mbox_loc_flat
I1208 11:46:34.908845 17754 net.cpp:150] Setting up ssd3_2_mbox_loc_flat
I1208 11:46:34.908849 17754 net.cpp:157] Top shape: 1 32 (32)
I1208 11:46:34.908851 17754 net.cpp:165] Memory required for data: 271967680
I1208 11:46:34.908854 17754 layer_factory.hpp:77] Creating layer ssd3_2_mbox_conf
I1208 11:46:34.908859 17754 net.cpp:100] Creating Layer ssd3_2_mbox_conf
I1208 11:46:34.908861 17754 net.cpp:434] ssd3_2_mbox_conf <- ssd3_2_ssd3_2_relu_0_split_2
I1208 11:46:34.908865 17754 net.cpp:408] ssd3_2_mbox_conf -> ssd3_2_mbox_conf
I1208 11:46:34.910810 17754 net.cpp:150] Setting up ssd3_2_mbox_conf
I1208 11:46:34.910826 17754 net.cpp:157] Top shape: 1 10 2 2 (40)
I1208 11:46:34.910828 17754 net.cpp:165] Memory required for data: 271967840
I1208 11:46:34.910832 17754 layer_factory.hpp:77] Creating layer ssd3_2_mbox_conf_perm
I1208 11:46:34.910837 17754 net.cpp:100] Creating Layer ssd3_2_mbox_conf_perm
I1208 11:46:34.910840 17754 net.cpp:434] ssd3_2_mbox_conf_perm <- ssd3_2_mbox_conf
I1208 11:46:34.910845 17754 net.cpp:408] ssd3_2_mbox_conf_perm -> ssd3_2_mbox_conf_perm
I1208 11:46:34.910928 17754 net.cpp:150] Setting up ssd3_2_mbox_conf_perm
I1208 11:46:34.910933 17754 net.cpp:157] Top shape: 1 2 2 10 (40)
I1208 11:46:34.910934 17754 net.cpp:165] Memory required for data: 271968000
I1208 11:46:34.910936 17754 layer_factory.hpp:77] Creating layer ssd3_2_mbox_conf_flat
I1208 11:46:34.910940 17754 net.cpp:100] Creating Layer ssd3_2_mbox_conf_flat
I1208 11:46:34.910943 17754 net.cpp:434] ssd3_2_mbox_conf_flat <- ssd3_2_mbox_conf_perm
I1208 11:46:34.910946 17754 net.cpp:408] ssd3_2_mbox_conf_flat -> ssd3_2_mbox_conf_flat
I1208 11:46:34.910964 17754 net.cpp:150] Setting up ssd3_2_mbox_conf_flat
I1208 11:46:34.910969 17754 net.cpp:157] Top shape: 1 40 (40)
I1208 11:46:34.910969 17754 net.cpp:165] Memory required for data: 271968160
I1208 11:46:34.910971 17754 layer_factory.hpp:77] Creating layer ssd3_2_mbox_priorbox
I1208 11:46:34.910975 17754 net.cpp:100] Creating Layer ssd3_2_mbox_priorbox
I1208 11:46:34.910979 17754 net.cpp:434] ssd3_2_mbox_priorbox <- ssd3_2_ssd3_2_relu_0_split_3
I1208 11:46:34.910981 17754 net.cpp:434] ssd3_2_mbox_priorbox <- data_data_0_split_5
I1208 11:46:34.910985 17754 net.cpp:408] ssd3_2_mbox_priorbox -> ssd3_2_mbox_priorbox
I1208 11:46:34.911005 17754 net.cpp:150] Setting up ssd3_2_mbox_priorbox
I1208 11:46:34.911008 17754 net.cpp:157] Top shape: 1 2 32 (64)
I1208 11:46:34.911010 17754 net.cpp:165] Memory required for data: 271968416
I1208 11:46:34.911012 17754 layer_factory.hpp:77] Creating layer ssd4_2_mbox_loc
I1208 11:46:34.911017 17754 net.cpp:100] Creating Layer ssd4_2_mbox_loc
I1208 11:46:34.911021 17754 net.cpp:434] ssd4_2_mbox_loc <- ssd4_2_ssd4_2_relu_0_split_0
I1208 11:46:34.911025 17754 net.cpp:408] ssd4_2_mbox_loc -> ssd4_2_mbox_loc
I1208 11:46:34.912248 17754 net.cpp:150] Setting up ssd4_2_mbox_loc
I1208 11:46:34.912256 17754 net.cpp:157] Top shape: 1 8 1 1 (8)
I1208 11:46:34.912258 17754 net.cpp:165] Memory required for data: 271968448
I1208 11:46:34.912262 17754 layer_factory.hpp:77] Creating layer ssd4_2_mbox_loc_perm
I1208 11:46:34.912266 17754 net.cpp:100] Creating Layer ssd4_2_mbox_loc_perm
I1208 11:46:34.912269 17754 net.cpp:434] ssd4_2_mbox_loc_perm <- ssd4_2_mbox_loc
I1208 11:46:34.912273 17754 net.cpp:408] ssd4_2_mbox_loc_perm -> ssd4_2_mbox_loc_perm
I1208 11:46:34.912355 17754 net.cpp:150] Setting up ssd4_2_mbox_loc_perm
I1208 11:46:34.912359 17754 net.cpp:157] Top shape: 1 1 1 8 (8)
I1208 11:46:34.912360 17754 net.cpp:165] Memory required for data: 271968480
I1208 11:46:34.912364 17754 layer_factory.hpp:77] Creating layer ssd4_2_mbox_loc_flat
I1208 11:46:34.912366 17754 net.cpp:100] Creating Layer ssd4_2_mbox_loc_flat
I1208 11:46:34.912369 17754 net.cpp:434] ssd4_2_mbox_loc_flat <- ssd4_2_mbox_loc_perm
I1208 11:46:34.912372 17754 net.cpp:408] ssd4_2_mbox_loc_flat -> ssd4_2_mbox_loc_flat
I1208 11:46:34.912391 17754 net.cpp:150] Setting up ssd4_2_mbox_loc_flat
I1208 11:46:34.912395 17754 net.cpp:157] Top shape: 1 8 (8)
I1208 11:46:34.912395 17754 net.cpp:165] Memory required for data: 271968512
I1208 11:46:34.912397 17754 layer_factory.hpp:77] Creating layer ssd4_2_mbox_conf
I1208 11:46:34.912402 17754 net.cpp:100] Creating Layer ssd4_2_mbox_conf
I1208 11:46:34.912405 17754 net.cpp:434] ssd4_2_mbox_conf <- ssd4_2_ssd4_2_relu_0_split_1
I1208 11:46:34.912410 17754 net.cpp:408] ssd4_2_mbox_conf -> ssd4_2_mbox_conf
I1208 11:46:34.913638 17754 net.cpp:150] Setting up ssd4_2_mbox_conf
I1208 11:46:34.913645 17754 net.cpp:157] Top shape: 1 10 1 1 (10)
I1208 11:46:34.913647 17754 net.cpp:165] Memory required for data: 271968552
I1208 11:46:34.913651 17754 layer_factory.hpp:77] Creating layer ssd4_2_mbox_conf_perm
I1208 11:46:34.913664 17754 net.cpp:100] Creating Layer ssd4_2_mbox_conf_perm
I1208 11:46:34.913667 17754 net.cpp:434] ssd4_2_mbox_conf_perm <- ssd4_2_mbox_conf
I1208 11:46:34.913672 17754 net.cpp:408] ssd4_2_mbox_conf_perm -> ssd4_2_mbox_conf_perm
I1208 11:46:34.913756 17754 net.cpp:150] Setting up ssd4_2_mbox_conf_perm
I1208 11:46:34.913760 17754 net.cpp:157] Top shape: 1 1 1 10 (10)
I1208 11:46:34.913763 17754 net.cpp:165] Memory required for data: 271968592
I1208 11:46:34.913765 17754 layer_factory.hpp:77] Creating layer ssd4_2_mbox_conf_flat
I1208 11:46:34.913767 17754 net.cpp:100] Creating Layer ssd4_2_mbox_conf_flat
I1208 11:46:34.913770 17754 net.cpp:434] ssd4_2_mbox_conf_flat <- ssd4_2_mbox_conf_perm
I1208 11:46:34.913774 17754 net.cpp:408] ssd4_2_mbox_conf_flat -> ssd4_2_mbox_conf_flat
I1208 11:46:34.913792 17754 net.cpp:150] Setting up ssd4_2_mbox_conf_flat
I1208 11:46:34.913796 17754 net.cpp:157] Top shape: 1 10 (10)
I1208 11:46:34.913797 17754 net.cpp:165] Memory required for data: 271968632
I1208 11:46:34.913800 17754 layer_factory.hpp:77] Creating layer ssd4_2_mbox_priorbox
I1208 11:46:34.913802 17754 net.cpp:100] Creating Layer ssd4_2_mbox_priorbox
I1208 11:46:34.913805 17754 net.cpp:434] ssd4_2_mbox_priorbox <- ssd4_2_ssd4_2_relu_0_split_2
I1208 11:46:34.913807 17754 net.cpp:434] ssd4_2_mbox_priorbox <- data_data_0_split_6
I1208 11:46:34.913811 17754 net.cpp:408] ssd4_2_mbox_priorbox -> ssd4_2_mbox_priorbox
I1208 11:46:34.913831 17754 net.cpp:150] Setting up ssd4_2_mbox_priorbox
I1208 11:46:34.913835 17754 net.cpp:157] Top shape: 1 2 8 (16)
I1208 11:46:34.913836 17754 net.cpp:165] Memory required for data: 271968696
I1208 11:46:34.913838 17754 layer_factory.hpp:77] Creating layer mbox_loc
I1208 11:46:34.913842 17754 net.cpp:100] Creating Layer mbox_loc
I1208 11:46:34.913846 17754 net.cpp:434] mbox_loc <- conv5_5/sep_mbox_loc_flat
I1208 11:46:34.913848 17754 net.cpp:434] mbox_loc <- conv6/sep_mbox_loc_flat
I1208 11:46:34.913851 17754 net.cpp:434] mbox_loc <- ssd1_2_mbox_loc_flat
I1208 11:46:34.913856 17754 net.cpp:434] mbox_loc <- ssd2_2_mbox_loc_flat
I1208 11:46:34.913858 17754 net.cpp:434] mbox_loc <- ssd3_2_mbox_loc_flat
I1208 11:46:34.913861 17754 net.cpp:434] mbox_loc <- ssd4_2_mbox_loc_flat
I1208 11:46:34.913864 17754 net.cpp:408] mbox_loc -> mbox_loc
I1208 11:46:34.913885 17754 net.cpp:150] Setting up mbox_loc
I1208 11:46:34.913888 17754 net.cpp:157] Top shape: 1 6600 (6600)
I1208 11:46:34.913890 17754 net.cpp:165] Memory required for data: 271995096
I1208 11:46:34.913892 17754 layer_factory.hpp:77] Creating layer mbox_conf
I1208 11:46:34.913895 17754 net.cpp:100] Creating Layer mbox_conf
I1208 11:46:34.913898 17754 net.cpp:434] mbox_conf <- conv5_5/sep_mbox_conf_flat
I1208 11:46:34.913900 17754 net.cpp:434] mbox_conf <- conv6/sep_mbox_conf_flat
I1208 11:46:34.913903 17754 net.cpp:434] mbox_conf <- ssd1_2_mbox_conf_flat
I1208 11:46:34.913906 17754 net.cpp:434] mbox_conf <- ssd2_2_mbox_conf_flat
I1208 11:46:34.913908 17754 net.cpp:434] mbox_conf <- ssd3_2_mbox_conf_flat
I1208 11:46:34.913910 17754 net.cpp:434] mbox_conf <- ssd4_2_mbox_conf_flat
I1208 11:46:34.913915 17754 net.cpp:408] mbox_conf -> mbox_conf
I1208 11:46:34.913933 17754 net.cpp:150] Setting up mbox_conf
I1208 11:46:34.913936 17754 net.cpp:157] Top shape: 1 8250 (8250)
I1208 11:46:34.913938 17754 net.cpp:165] Memory required for data: 272028096
I1208 11:46:34.913939 17754 layer_factory.hpp:77] Creating layer mbox_priorbox
I1208 11:46:34.913942 17754 net.cpp:100] Creating Layer mbox_priorbox
I1208 11:46:34.913945 17754 net.cpp:434] mbox_priorbox <- conv5_5/sep_mbox_priorbox
I1208 11:46:34.913947 17754 net.cpp:434] mbox_priorbox <- conv6/sep_mbox_priorbox
I1208 11:46:34.913949 17754 net.cpp:434] mbox_priorbox <- ssd1_2_mbox_priorbox
I1208 11:46:34.913952 17754 net.cpp:434] mbox_priorbox <- ssd2_2_mbox_priorbox
I1208 11:46:34.913954 17754 net.cpp:434] mbox_priorbox <- ssd3_2_mbox_priorbox
I1208 11:46:34.913957 17754 net.cpp:434] mbox_priorbox <- ssd4_2_mbox_priorbox
I1208 11:46:34.913960 17754 net.cpp:408] mbox_priorbox -> mbox_priorbox
I1208 11:46:34.913985 17754 net.cpp:150] Setting up mbox_priorbox
I1208 11:46:34.913987 17754 net.cpp:157] Top shape: 1 2 6600 (13200)
I1208 11:46:34.913990 17754 net.cpp:165] Memory required for data: 272080896
I1208 11:46:34.913991 17754 layer_factory.hpp:77] Creating layer mbox_loss
I1208 11:46:34.913997 17754 net.cpp:100] Creating Layer mbox_loss
I1208 11:46:34.914000 17754 net.cpp:434] mbox_loss <- mbox_loc
I1208 11:46:34.914002 17754 net.cpp:434] mbox_loss <- mbox_conf
I1208 11:46:34.914005 17754 net.cpp:434] mbox_loss <- mbox_priorbox
…
name: "MobileNet_GTSDB_SSD_510x300_100_40_Square_1_test"
state {
  phase: TEST
}
layer {
  name: "data"
  type: "AnnotatedData"
  top: "data"
  top: "label"
  include {
    phase: TEST
  }
  transform_param {
    mean_value: 125
    mean_value: 127
    mean_value: 130
    resize_param {
      prob: 1
      resize_mode: WARP
      height: 300
      width: 510
      interp_mode: LINEAR
    }
  }
  data_param {
    source: "examples/GTSDB/GTSDB_test_lmdb"
    batch_size: 4
    backend: LMDB
  }
  annotated_data_param {
    batch_sampler {
    }
    label_map_file: "data/GTSDB/labelmap_GTSDB.prototxt"
  }
}
layer {
  name: "conv1"
  type: "Convolution"
  bottom: "data"
  top: "conv1"
  param {
    lr_mult: 1
    decay_mult: 1
  }
  convolution_param {
    num_output: 32
    bias_term: false
    pad: 1
    kernel_size: 3
    stride: 2
    weight_filler {
      type: "msra"
    }
  }
}
layer {
  name: "conv1/bn"
  type: "BatchNorm"
  bottom: "conv1"
  top: "conv1"
  batch_norm_param {
    use_global_stats: true
    eps: 1e-05
  }
}
layer {
  name: "conv1/scale"
  type: "Scale"
  bottom: "conv1"
  top: "conv1"
  param {
    lr_mult: 1
    decay_mult: 0
  }
  param {
    lr_mult: 1
    decay_mult: 0
  }
  scale_param {
    filler {
      type: "constant"
      value: 1
    }
    bias_term: true
    bias_filler {
      type: "constant"
      value: 0
    }
  }
}
layer {
  name: "relu1"
  type: "ReLU"
  bottom: "conv1"
  top: "conv1"
}
layer {
  name: "conv2_1/dw"
  type: "DepthwiseConvolution"
  bottom: "conv1"
  top: "conv2_1/dw"
  param {
    lr_mult: 1
    decay_mult: 1
  }
  convolution_param {
    num_output: 32
    bias_term: false
    pad: 1
    kernel_size: 3
    group: 32
    stride: 1
    weight_filler {
      type: "msra"
    }
  }
}
layer {
  name: "conv2_1/dw/bn"
  type: "BatchNorm"
  bottom: "conv2_1/dw"
  top: "conv2_1/dw"
  batch_norm_param {
    use_global_stats: true
    eps: 1e-05
  }
}
layer {
  name: "conv2_1/dw/scale"
  type: "Scale"
  bottom: "conv2_1/dw"
  top: "conv2_1/dw"
  param {
    lr_mult: 1
    decay_mult: 0
  }
  param {
    lr_mult: 1
    decay_mult: 0
  }
  scale_param {
    filler {
      type: "constant"
      value: 1
    }
    bias_term: true
    bias_filler {
      type: "constant"
      value: 0
    }
  }
}
layer {
  name: "relu2_1/dw"
  type: "ReLU"
  bottom: "conv2_1/dw"
  top: "conv2_1/dw"
}
layer {
  name: "conv2_1/sep"
  type: "Convolution"
  bottom: "conv2_1/dw"
  top: "conv2_1/sep"
  param {
    lr_mult: 1
    decay_mult: 1
  }
  convolution_param {
    num_output: 64
    bias_term: false
    pad: 0
    kernel_size: 1
    stride: 1
    weight_filler {
      type: "msra"
    }
  }
}
layer {
  name: "conv2_1/sep/bn"
  type: "BatchNorm"
  bottom: "conv2_1/sep"
  top: "conv2_1/sep"
  batch_norm_param {
    use_global_stats: true
    eps: 1e-05
  }
}
layer {
  name: "conv2_1/sep/scale"
  type: "Scale"
  bottom: "conv2_1/sep"
  top: "conv2_1/sep"
  param {
    lr_mult: 1
    decay_mult: 0
  }
  param {
    lr_mult: 1
    decay_mult: 0
  }
  scale_param {
    filler {
      type: "constant"
      value: 1
    }
    bias_term: true
    bias_filler {
      type: "constant"
      value: 0
    }
  }
}
layer {
  name: "relu2_1/sep"
  type: "ReLU"
  bottom: "conv2_1/sep"
  top: "conv2_1/sep"
}
layer {
  name: "conv2_2/dw"
  type: "DepthwiseConvolution"
  bottom: "conv2_1/sep"
  top: "conv2_2/dw"
  param {
    lr_mult: 1
    decay_mult: 1
  }
  convolution_param {
    num_output: 64
    bias_term: false
    pad: 1
    kernel_size: 3
    group: 64
    stride: 2
    weight_filler {
      type: "msra"
    }
  }
}
layer {
  name: "conv2_2/dw/bn"
  type: "BatchNorm"
  bottom: "conv2_2/dw"
  top: "conv2_2/dw"
  batch_norm_param {
    use_global_stats: true
    eps: 1e-05
  }
}
layer {
  name: "conv2_2/dw/scale"
  type: "Scale"
  bottom: "conv2_2/dw"
  top: "conv2_2/dw"
  param {
    lr_mult: 1
    decay_mult: 0
  }
  param {
    lr_mult: 1
    decay_mult: 0
  }
  scale_param {
    filler {
      type: "constant"
      value: 1
    }
    bias_term: true
    bias_filler {
      type: "constant"
      value: 0
    }
  }
}
layer {
  name: "relu2_2/dw"
  type: "ReLU"
  bottom: "conv2_2/dw"
  top: "conv2_2/dw"
}
layer {
  name: "conv2_2/sep"
  type: "Convolution"
  bottom: "conv2_2/dw"
  top: "conv2_2/sep"
  param {
    lr_mult: 1
    decay_mult: 1
  }
  convolution_param {
    num_output: 128
    bias_term: false
    pad: 0
    kernel_size: 1
    stride: 1
    weight_filler {
      type: "msra"
    }
  }
}
layer {
  name: "conv2_2/sep/bn"
  type: "BatchNorm"
  bottom: "conv2_2/sep"
  top: "conv2_2/sep"
  batch_norm_param {
    use_global_stats: true
    eps: 1e-05
  }
}
layer {
  name: "conv2_2/sep/scale"
  type: "Scale"
  bottom: "conv2_2/sep"
  top: "conv2_2/sep"
  param {
    lr_mult: 1
    decay_mult: 0
  }
  param {
    lr_mult: 1
    decay_mult: 0
  }
  scale_param {
    filler {
      type: "constant"
      value: 1
    }
    bias_term: true
    bias_filler {
      type: "constant"
      value: 0
    }
  }
}
layer {
  name: "relu2_2/sep"
  type: "ReLU"
  bottom: "conv2_2/sep"
  top: "conv2_2/sep"
}
layer {
  name: "conv3_1/dw"
  type: "DepthwiseConvolution"
  bottom: "conv2_2/sep"
  top: "conv3_1/dw"
  param {
    lr_mult: 1
    decay_mult: 1
  }
  convolution_param {
    num_output: 128
    bias_term: false
    pad: 1
    kernel_size: 3
    group: 128
    stride: 1
    weight_filler {
      type: "msra"
    }
  }
}
layer {
  name: "conv3_1/dw/bn"
  type: "BatchNorm"
  bottom: "conv3_1/dw"
  top: "conv3_1/dw"
  batch_norm_param {
    use_global_stats: true
    eps: 1e-05
  }
}
layer {
  name: "conv3_1/dw/scale"
  type: "Scale"
  bottom: "conv3_1/dw"
  top: "conv3_1/dw"
  param {
    lr_mult: 1
    decay_mult: 0
  }
  param {
    lr_mult: 1
    decay_mult: 0
  }
  scale_param {
    filler {
      type: "constant"
      value: 1
    }
    bias_term: true
    bias_filler {
      type: "constant"
      value: 0
    }
  }
}
layer {
  name: "relu3_1/dw"
  type: "ReLU"
  bottom: "conv3_1/dw"
  top: "conv3_1/dw"
}
layer {
  name: "conv3_1/sep"
  type: "Convolution"
  bottom: "conv3_1/dw"
  top: "conv3_1/sep"
  param {
    lr_mult: 1
    decay_mult: 1
  }
  convolution_param {
    num_output: 128
    bias_term: false
    pad: 0
    kernel_size: 1
    stride: 1
    weight_filler {
      type: "msra"
    }
  }
}
layer {
  name: "conv3_1/sep/bn"
  type: "BatchNorm"
  bottom: "conv3_1/sep"
  top: "conv3_1/sep"
  batch_norm_param {
    use_global_stats: true
    eps: 1e-05
  }
}
layer {
  name: "conv3_1/sep/scale"
  type: "Scale"
  bottom: "conv3_1/sep"
  top: "conv3_1/sep"
  param {
    lr_mult: 1
    decay_mult: 0
  }
  param {
    lr_mult: 1
    decay_mult: 0
  }
  scale_param {
    filler {
      type: "constant"
      value: 1
    }
    bias_term: true
    bias_filler {
      type: "constant"
      value: 0
    }
  }
}
layer {
  name: "relu3_1/sep"
  type: "ReLU"
  bottom: "conv3_1/sep"
  top: "conv3_1/sep"
}
layer {
  name: "conv3_2/dw"
  type: "DepthwiseConvolution"
  bottom: "conv3_1/sep"
  top: "conv3_2/dw"
  param {
    lr_mult: 1
    decay_mult: 1
  }
  convolution_param {
    num_output: 128
    bias_term: false
    pad: 1
    kernel_size: 3
    group: 128
    stride: 2
    weight_filler {
      type: "msra"
    }
  }
}
layer {
  name: "conv3_2/dw/bn"
  type: "BatchNorm"
  bottom: "conv3_2/dw"
  top: "conv3_2/dw"
  batch_norm_param {
    use_global_stats: true
    eps: 1e-05
  }
}
layer {
  name: "conv3_2/dw/scale"
  type: "Scale"
  bottom: "conv3_2/dw"
  top: "conv3_2/dw"
  param {
    lr_mult: 1
    decay_mult: 0
  }
  param {
    lr_mult: 1
    decay_mult: 0
  }
  scale_param {
    filler {
      type: "constant"
      value: 1
    }
    bias_term: true
    bias_filler {
      type: "constant"
      value: 0
    }
  }
}
layer {
  name: "relu3_2/dw"
  type: "ReLU"
  bottom: "conv3_2/dw"
  top: "conv3_2/dw"
}
layer {
  name: "conv3_2/sep"
  type: "Convolution"
  bottom: "conv3_2/dw"
  top: "conv3_2/sep"
  param {
    lr_mult: 1
    decay_mult: 1
  }
  convolution_param {
    num_output: 256
    bias_term: false
    pad: 0
    kernel_size: 1
    stride: 1
    weight_filler {
      type: "msra"
    }
  }
}
layer {
  name: "conv3_2/sep/bn"
  type: "BatchNorm"
  bottom: "conv3_2/sep"
  top: "conv3_2/sep"
  batch_norm_param {
    use_global_stats: true
    eps: 1e-05
  }
}
layer {
  name: "conv3_2/sep/scale"
  type: "Scale"
  bottom: "conv3_2/sep"
  top: "conv3_2/sep"
  param {
    lr_mult: 1
    decay_mult: 0
  }
  param {
    lr_mult: 1
    decay_mult: 0
  }
  scale_param {
    filler {
      type: "constant"
      value: 1
    }
    bias_term: true
    bias_filler {
      type: "constant"
      value: 0
    }
  }
}
layer {
  name: "relu3_2/sep"
  type: "ReLU"
  bottom: "conv3_2/sep"
  top: "conv3_2/sep"
}
layer {
  name: "conv4_1/dw"
  type: "DepthwiseConvolution"
  bottom: "conv3_2/sep"
  top: "conv4_1/dw"
  param {
    lr_mult: 1
    decay_mult: 1
  }
  convolution_param {
    num_output: 256
    bias_term: false
    pad: 1
    kernel_size: 3
    group: 256
    stride: 1
    weight_filler {
      type: "msra"
    }
  }
}
layer {
  name: "conv4_1/dw/bn"
  type: "BatchNorm"
  bottom: "conv4_1/dw"
  top: "conv4_1/dw"
  batch_norm_param {
    use_global_stats: true
    eps: 1e-05
  }
}
layer {
  name: "conv4_1/dw/scale"
  type: "Scale"
  bottom: "conv4_1/dw"
  top: "conv4_1/dw"
  param {
    lr_mult: 1
    decay_mult: 0
  }
  param {
    lr_mult: 1
    decay_mult: 0
  }
  scale_param {
    filler {
      type: "constant"
      value: 1
    }
    bias_term: true
    bias_filler {
      type: "constant"
      value: 0
    }
  }
}
layer {
  name: "relu4_1/dw"
  type: "ReLU"
  bottom: "conv4_1/dw"
  top: "conv4_1/dw"
}
layer {
  name: "conv4_1/sep"
  type: "Convolution"
  bottom: "conv4_1/dw"
  top: "conv4_1/sep"
  param {
    lr_mult: 1
    decay_mult: 1
  }
  convolution_param {
    num_output: 256
    bias_term: false
    pad: 0
    kernel_size: 1
    stride: 1
    weight_filler {
      type: "msra"
    }
  }
}
layer {
  name: "conv4_1/sep/bn"
  type: "BatchNorm"
  bottom: "conv4_1/sep"
  top: "conv4_1/sep"
  batch_norm_param {
    use_global_stats: true
    eps: 1e-05
  }
}
layer {
  name: "conv4_1/sep/scale"
  type: "Scale"
  bottom: "conv4_1/sep"
  top: "conv4_1/sep"
  param {
    lr_mult: 1
    decay_mult: 0
  }
  param {
    lr_mult: 1
    decay_mult: 0
  }
  scale_param {
    filler {
      type: "constant"
      value: 1
    }
    bias_term: true
    bias_filler {
      type: "constant"
      value: 0
    }
  }
}
layer {
  name: "relu4_1/sep"
  type: "ReLU"
  bottom: "conv4_1/sep"
  top: "conv4_1/sep"
}
layer {
  name: "conv4_2/dw"
  type: "DepthwiseConvolution"
  bottom: "conv4_1/sep"
  top: "conv4_2/dw"
  param {
    lr_mult: 1
    decay_mult: 1
  }
  convolution_param {
    num_output: 256
    bias_term: false
    pad: 1
    kernel_size: 3
    group: 256
    stride: 2
    weight_filler {
      type: "msra"
    }
  }
}
layer {
  name: "conv4_2/dw/bn"
  type: "BatchNorm"
  bottom: "conv4_2/dw"
  top: "conv4_2/dw"
  batch_norm_param {
    use_global_stats: true
    eps: 1e-05
  }
}
layer {
  name: "conv4_2/dw/scale"
  type: "Scale"
  bottom: "conv4_2/dw"
  top: "conv4_2/dw"
  param {
    lr_mult: 1
    decay_mult: 0
  }
  param {
    lr_mult: 1
    decay_mult: 0
  }
  scale_param {
    filler {
      type: "constant"
      value: 1
    }
    bias_term: true
    bias_filler {
      type: "constant"
      value: 0
    }
  }
}
layer {
  name: "relu4_2/dw"
  type: "ReLU"
  bottom: "conv4_2/dw"
  top: "conv4_2/dw"
}
layer {
  name: "conv4_2/sep"
  type: "Convolution"
  bottom: "conv4_2/dw"
  top: "conv4_2/sep"
  param {
    lr_mult: 1
    decay_mult: 1
  }
  convolution_param {
    num_output: 512
    bias_term: false
    pad: 0
    kernel_size: 1
    stride: 1
    weight_filler {
      type: "msra"
    }
  }
}
layer {
  name: "conv4_2/sep/bn"
  type: "BatchNorm"
  bottom: "conv4_2/sep"
  top: "conv4_2/sep"
  batch_norm_param {
    use_global_stats: true
    eps: 1e-05
  }
}
layer {
  name: "conv4_2/sep/scale"
  type: "Scale"
  bottom: "conv4_2/sep"
  top: "conv4_2/sep"
  param {
    lr_mult: 1
    decay_mult: 0
  }
  param {
    lr_mult: 1
    decay_mult: 0
  }
  scale_param {
    filler {
      type: "constant"
      value: 1
    }
    bias_term: true
    bias_filler {
      type: "constant"
      value: 0
    }
  }
}
layer {
  name: "relu4_2/sep"
  type: "ReLU"
  bottom: "conv4_2/sep"
  top: "conv4_2/sep"
}
layer {
  name: "conv5_1/dw"
  type: "DepthwiseConvolution"
  bottom: "conv4_2/sep"
  top: "conv5_1/dw"
  param {
    lr_mult: 1
    decay_mult: 1
  }
  convolution_param {
    num_output: 512
    bias_term: false
    pad: 1
    kernel_size: 3
    group: 512
    stride: 1
    weight_filler {
      type: "msra"
    }
  }
}
layer {
  name: "conv5_1/dw/bn"
  type: "BatchNorm"
  bottom: "conv5_1/dw"
  top: "conv5_1/dw"
  batch_norm_param {
    use_global_stats: true
    eps: 1e-05
  }
}
layer {
  name: "conv5_1/dw/scale"
  type: "Scale"
  bottom: "conv5_1/dw"
  top: "conv5_1/dw"
  param {
    lr_mult: 1
    decay_mult: 0
  }
  param {
    lr_mult: 1
    decay_mult: 0
  }
  scale_param {
    filler {
      type: "constant"
      value: 1
    }
    bias_term: true
    bias_filler {
      type: "constant"
      value: 0
    }
  }
}
layer {
  name: "relu5_1/dw"
  type: "ReLU"
  bottom: "conv5_1/dw"
  top: "conv5_1/dw"
}
layer {
  name: "conv5_1/sep"
  type: "Convolution"
  bottom: "conv5_1/dw"
  top: "conv5_1/sep"
  param {
    lr_mult: 1
    decay_mult: 1
  }
  convolution_param {
    num_output: 512
    bias_term: false
    pad: 0
    kernel_size: 1
    stride: 1
    weight_filler {
      type: "msra"
    }
  }
}
layer {
  name: "conv5_1/sep/bn"
  type: "BatchNorm"
  bottom: "conv5_1/sep"
  top: "conv5_1/sep"
  batch_norm_param {
    use_global_stats: true
    eps: 1e-05
  }
}
layer {
  name: "conv5_1/sep/scale"
  type: "Scale"
  bottom: "conv5_1/sep"
  top: "conv5_1/sep"
  param {
    lr_mult: 1
    decay_mult: 0
  }
  param {
    lr_mult: 1
    decay_mult: 0
  }
  scale_param {
    filler {
      type: "constant"
      value: 1
    }
    bias_term: true
    bias_filler {
      type: "constant"
      value: 0
    }
  }
}
layer {
  name: "relu5_1/sep"
  type: "ReLU"
  bottom: "conv5_1/sep"
  top: "conv5_1/sep"
}
layer {
  name: "conv5_2/dw"
  type: "DepthwiseConvolution"
  bottom: "conv5_1/sep"
  top: "conv5_2/dw"
  param {
    lr_mult: 1
    decay_mult: 1
  }
  convolution_param {
    num_output: 512
    bias_term: false
    pad: 1
    kernel_size: 3
    group: 512
    stride: 1
    weight_filler {
      type: "msra"
    }
  }
}
layer {
  name: "conv5_2/dw/bn"
  type: "BatchNorm"
  bottom: "conv5_2/dw"
  top: "conv5_2/dw"
  batch_norm_param {
    use_global_stats: true
    eps: 1e-05
  }
}
layer {
  name: "conv5_2/dw/scale"
  type: "Scale"
  bottom: "conv5_2/dw"
  top: "conv5_2/dw"
  param {
    lr_mult: 1
    decay_mult: 0
  }
  param {
    lr_mult: 1
    decay_mult: 0
  }
  scale_param {
    filler {
      type: "constant"
      value: 1
    }
    bias_term: true
    bias_filler {
      type: "constant"
      value: 0
    }
  }
}
layer {
  name: "relu5_2/dw"
  type: "ReLU"
  bottom: "conv5_2/dw"
  top: "conv5_2/dw"
}
layer {
  name: "conv5_2/sep"
  type: "Convolution"
  bottom: "conv5_2/dw"
  top: "conv5_2/sep"
  param {
    lr_mult: 1
    decay_mult: 1
  }
  convolution_param {
    num_output: 512
    bias_term: false
    pad: 0
    kernel_size: 1
    stride: 1
    weight_filler {
      type: "msra"
    }
  }
}
layer {
  name: "conv5_2/sep/bn"
  type: "BatchNorm"
  bottom: "conv5_2/sep"
  top: "conv5_2/sep"
  batch_norm_param {
    use_global_stats: true
    eps: 1e-05
  }
}
layer {
  name: "conv5_2/sep/scale"
  type: "Scale"
  bottom: "conv5_2/sep"
  top: "conv5_2/sep"
  param {
    lr_mult: 1
    decay_mult: 0
  }
  param {
    lr_mult: 1
    decay_mult: 0
  }
  scale_param {
    filler {
      type: "constant"
      value: 1
    }
    bias_term: true
    bias_filler {
      type: "constant"
      value: 0
    }
  }
}
layer {
  name: "relu5_2/sep"
  type: "ReLU"
  bottom: "conv5_2/sep"
  top: "conv5_2/sep"
}
layer {
  name: "conv5_3/dw"
  type: "DepthwiseConvolution"
  bottom: "conv5_2/sep"
  top: "conv5_3/dw"
  param {
    lr_mult: 1
    decay_mult: 1
  }
  convolution_param {
    num_output: 512
    bias_term: false
    pad: 1
    kernel_size: 3
    group: 512
    stride: 1
    weight_filler {
      type: "msra"
    }
  }
}
layer {
  name: "conv5_3/dw/bn"
  type: "BatchNorm"
  bottom: "conv5_3/dw"
  top: "conv5_3/dw"
  batch_norm_param {
    use_global_stats: true
    eps: 1e-05
  }
}
layer {
  name: "conv5_3/dw/scale"
  type: "Scale"
  bottom: "conv5_3/dw"
  top: "conv5_3/dw"
  param {
    lr_mult: 1
    decay_mult: 0
  }
  param {
    lr_mult: 1
    decay_mult: 0
  }
  scale_param {
    filler {
      type: "constant"
      value: 1
    }
    bias_term: true
    bias_filler {
      type: "constant"
      value: 0
    }
  }
}
layer {
  name: "relu5_3/dw"
  type: "ReLU"
  bottom: "conv5_3/dw"
  top: "conv5_3/dw"
}
layer {
  name: "conv5_3/sep"
  type: "Convolution"
  bottom: "conv5_3/dw"
  top: "conv5_3/sep"
  param {
    lr_mult: 1
    decay_mult: 1
  }
  convolution_param {
    num_output: 512
    bias_term: false
    pad: 0
    kernel_size: 1
    stride: 1
    weight_filler {
      type: "msra"
    }
  }
}
layer {
  name: "conv5_3/sep/bn"
  type: "BatchNorm"
  bottom: "conv5_3/sep"
  top: "conv5_3/sep"
  batch_norm_param {
    use_global_stats: true
    eps: 1e-05
  }
}
layer {
  name: "conv5_3/sep/scale"
  type: "Scale"
  bottom: "conv5_3/sep"
  top: "conv5_3/sep"
  param {
    lr_mult: 1
    decay_mult: 0
  }
  param {
    lr_mult: 1
    decay_mult: 0
  }
  scale_param {
    filler {
      type: "constant"
      value: 1
    }
    bias_term: true
    bias_filler {
      type: "constant"
      value: 0
    }
  }
}
layer {
  name: "relu5_3/sep"
  type: "ReLU"
  bottom: "conv5_3/sep"
  top: "conv5_3/sep"
}
layer {
  name: "conv5_4/dw"
  type: "DepthwiseConvolution"
  bottom: "conv5_3/sep"
  top: "conv5_4/dw"
  param {
    lr_mult: 1
    decay_mult: 1
  }
  convolution_param {
    num_output: 512
    bias_term: false
    pad: 1
    kernel_size: 3
    group: 512
    stride: 1
    weight_filler {
      type: "msra"
    }
  }
}
layer {
  name: "conv5_4/dw/bn"
  type: "BatchNorm"
  bottom: "conv5_4/dw"
  top: "conv5_4/dw"
  batch_norm_param {
    use_global_stats: true
    eps: 1e-05
  }
}
layer {
  name: "conv5_4/dw/scale"
  type: "Scale"
  bottom: "conv5_4/dw"
  top: "conv5_4/dw"
  param {
    lr_mult: 1
    decay_mult: 0
  }
  param {
    lr_mult: 1
    decay_mult: 0
  }
  scale_param {
    filler {
      type: "constant"
      value: 1
    }
    bias_term: true
    bias_filler {
      type: "constant"
      value: 0
    }
  }
}
layer {
  name: "relu5_4/dw"
  type: "ReLU"
  bottom: "conv5_4/dw"
  top: "conv5_4/dw"
}
layer {
  name: "conv5_4/sep"
  type: "Convolution"
  bottom: "conv5_4/dw"
  top: "conv5_4/sep"
  param {
    lr_mult: 1
    decay_mult: 1
  }
  convolution_param {
    num_output: 512
    bias_term: false
    pad: 0
    kernel_size: 1
    stride: 1
    weight_filler {
      type: "msra"
    }
  }
}
layer {
  name: "conv5_4/sep/bn"
  type: "BatchNorm"
  bottom: "conv5_4/sep"
  top: "conv5_4/sep"
  batch_norm_param {
    use_global_stats: true
    eps: 1e-05
  }
}
layer {
  name: "conv5_4/sep/scale"
  type: "Scale"
  bottom: "conv5_4/sep"
  top: "conv5_4/sep"
  param {
    lr_mult: 1
    decay_mult: 0
  }
  param {
    lr_mult: 1
    decay_mult: 0
  }
  scale_param {
    filler {
      type: "constant"
      value: 1
    }
    bias_term: true
    bias_filler {
      type: "constant"
      value: 0
    }
  }
}
layer {
  name: "relu5_4/sep"
  type: "ReLU"
  bottom: "conv5_4/sep"
  top: "conv5_4/sep"
}
layer {
  name: "conv5_5/dw"
  type: "DepthwiseConvolution"
  bottom: "conv5_4/sep"
  top: "conv5_5/dw"
  param {
    lr_mult: 1
    decay_mult: 1
  }
  convolution_param {
    num_output: 512
    bias_term: false
    pad: 1
    kernel_size: 3
    group: 512
    stride: 1
    weight_filler {
      type: "msra"
    }
  }
}
layer {
  name: "conv5_5/dw/bn"
  type: "BatchNorm"
  bottom: "conv5_5/dw"
  top: "conv5_5/dw"
  batch_norm_param {
    use_global_stats: true
    eps: 1e-05
  }
}
layer {
  name: "conv5_5/dw/scale"
  type: "Scale"
  bottom: "conv5_5/dw"
  top: "conv5_5/dw"
  param {
    lr_mult: 1
    decay_mult: 0
  }
  param {
    lr_mult: 1
    decay_mult: 0
  }
  scale_param {
    filler {
      type: "constant"
      value: 1
    }
    bias_term: true
    bias_filler {
      type: "constant"
      value: 0
    }
  }
}
layer {
  name: "relu5_5/dw"
  type: "ReLU"
  bottom: "conv5_5/dw"
  top: "conv5_5/dw"
}
layer {
  name: "conv5_5/sep"
  type: "Convolution"
  bottom: "conv5_5/dw"
  top: "conv5_5/sep"
  param {
    lr_mult: 1
    decay_mult: 1
  }
  convolution_param {
    num_output: 512
    bias_term: false
    pad: 0
    kernel_size: 1
    stride: 1
    weight_filler {
      type: "msra"
    }
  }
}
layer {
  name: "conv5_5/sep/bn"
  type: "BatchNorm"
  bottom: "conv5_5/sep"
  top: "conv5_5/sep"
  batch_norm_param {
    use_global_stats: true
    eps: 1e-05
  }
}
layer {
  name: "conv5_5/sep/scale"
  type: "Scale"
  bottom: "conv5_5/sep"
  top: "conv5_5/sep"
  param {
    lr_mult: 1
    decay_mult: 0
  }
  param {
    lr_mult: 1
    decay_mult: 0
  }
  scale_param {
    filler {
      type: "constant"
      value: 1
    }
    bias_term: true
    bias_filler {
      type: "constant"
      value: 0
    }
  }
}
layer {
  name: "relu5_5/sep"
  type: "ReLU"
  bottom: "conv5_5/sep"
  top: "conv5_5/sep"
}
layer {
  name: "conv5_6/dw"
  type: "DepthwiseConvolution"
  bottom: "conv5_5/sep"
  top: "conv5_6/dw"
  param {
    lr_mult: 1
    decay_mult: 1
  }
  convolution_param {
    num_output: 512
    bias_term: false
    pad: 1
    kernel_size: 3
    group: 512
    stride: 2
…
I1208 11:46:34.981473 17754 layer_factory.hpp:77] Creating layer conv5_6/dw/scale
I1208 11:46:34.981595 17754 net.cpp:150] Setting up conv5_6/dw/scale
I1208 11:46:34.981601 17754 net.cpp:157] Top shape: 4 512 10 16 (327680)
I1208 11:46:34.981604 17754 net.cpp:165] Memory required for data: 1039776800
I1208 11:46:34.981609 17754 layer_factory.hpp:77] Creating layer relu5_6/dw
I1208 11:46:34.981613 17754 net.cpp:100] Creating Layer relu5_6/dw
I1208 11:46:34.981616 17754 net.cpp:434] relu5_6/dw <- conv5_6/dw
I1208 11:46:34.981619 17754 net.cpp:395] relu5_6/dw -> conv5_6/dw (in-place)
I1208 11:46:34.982017 17754 net.cpp:150] Setting up relu5_6/dw
I1208 11:46:34.982023 17754 net.cpp:157] Top shape: 4 512 10 16 (327680)
I1208 11:46:34.982026 17754 net.cpp:165] Memory required for data: 1041087520
I1208 11:46:34.982029 17754 layer_factory.hpp:77] Creating layer conv5_6/sep
I1208 11:46:34.982036 17754 net.cpp:100] Creating Layer conv5_6/sep
I1208 11:46:34.982039 17754 net.cpp:434] conv5_6/sep <- conv5_6/dw
I1208 11:46:34.982044 17754 net.cpp:408] conv5_6/sep -> conv5_6/sep
I1208 11:46:34.987565 17754 net.cpp:150] Setting up conv5_6/sep
I1208 11:46:34.987586 17754 net.cpp:157] Top shape: 4 1024 10 16 (655360)
I1208 11:46:34.987587 17754 net.cpp:165] Memory required for data: 1043708960
I1208 11:46:34.987594 17754 layer_factory.hpp:77] Creating layer conv5_6/sep/bn
I1208 11:46:34.987602 17754 net.cpp:100] Creating Layer conv5_6/sep/bn
I1208 11:46:34.987607 17754 net.cpp:434] conv5_6/sep/bn <- conv5_6/sep
I1208 11:46:34.987612 17754 net.cpp:395] conv5_6/sep/bn -> conv5_6/sep (in-place)
I1208 11:46:34.987812 17754 net.cpp:150] Setting up conv5_6/sep/bn
I1208 11:46:34.987818 17754 net.cpp:157] Top shape: 4 1024 10 16 (655360)
I1208 11:46:34.987818 17754 net.cpp:165] Memory required for data: 1046330400
I1208 11:46:34.987823 17754 layer_factory.hpp:77] Creating layer conv5_6/sep/scale
I1208 11:46:34.987831 17754 net.cpp:100] Creating Layer conv5_6/sep/scale
I1208 11:46:34.987845 17754 net.cpp:434] conv5_6/sep/scale <- conv5_6/sep
I1208 11:46:34.987848 17754 net.cpp:395] conv5_6/sep/scale -> conv5_6/sep (in-place)
I1208 11:46:34.987884 17754 layer_factory.hpp:77] Creating layer conv5_6/sep/scale
I1208 11:46:34.987992 17754 net.cpp:150] Setting up conv5_6/sep/scale
I1208 11:46:34.987995 17754 net.cpp:157] Top shape: 4 1024 10 16 (655360)
I1208 11:46:34.987998 17754 net.cpp:165] Memory required for data: 1048951840
I1208 11:46:34.988000 17754 layer_factory.hpp:77] Creating layer relu5_6/sep
I1208 11:46:34.988003 17754 net.cpp:100] Creating Layer relu5_6/sep
I1208 11:46:34.988005 17754 net.cpp:434] relu5_6/sep <- conv5_6/sep
I1208 11:46:34.988008 17754 net.cpp:395] relu5_6/sep -> conv5_6/sep (in-place)
I1208 11:46:34.988303 17754 net.cpp:150] Setting up relu5_6/sep
I1208 11:46:34.988308 17754 net.cpp:157] Top shape: 4 1024 10 16 (655360)
I1208 11:46:34.988312 17754 net.cpp:165] Memory required for data: 1051573280
I1208 11:46:34.988312 17754 layer_factory.hpp:77] Creating layer conv6/dw
I1208 11:46:34.988317 17754 net.cpp:100] Creating Layer conv6/dw
I1208 11:46:34.988319 17754 net.cpp:434] conv6/dw <- conv5_6/sep
I1208 11:46:34.988322 17754 net.cpp:408] conv6/dw -> conv6/dw
I1208 11:46:34.988564 17754 net.cpp:150] Setting up conv6/dw
I1208 11:46:34.988567 17754 net.cpp:157] Top shape: 4 1024 10 16 (655360)
I1208 11:46:34.988569 17754 net.cpp:165] Memory required for data: 1054194720
I1208 11:46:34.988572 17754 layer_factory.hpp:77] Creating layer conv6/dw/bn
I1208 11:46:34.988575 17754 net.cpp:100] Creating Layer conv6/dw/bn
I1208 11:46:34.988576 17754 net.cpp:434] conv6/dw/bn <- conv6/dw
I1208 11:46:34.988579 17754 net.cpp:395] conv6/dw/bn -> conv6/dw (in-place)
I1208 11:46:34.988757 17754 net.cpp:150] Setting up conv6/dw/bn
I1208 11:46:34.988760 17754 net.cpp:157] Top shape: 4 1024 10 16 (655360)
I1208 11:46:34.988762 17754 net.cpp:165] Memory required for data: 1056816160
I1208 11:46:34.988766 17754 layer_factory.hpp:77] Creating layer conv6/dw/scale
I1208 11:46:34.988770 17754 net.cpp:100] Creating Layer conv6/dw/scale
I1208 11:46:34.988771 17754 net.cpp:434] conv6/dw/scale <- conv6/dw
I1208 11:46:34.988775 17754 net.cpp:395] conv6/dw/scale -> conv6/dw (in-place)
I1208 11:46:34.988806 17754 layer_factory.hpp:77] Creating layer conv6/dw/scale
I1208 11:46:34.988907 17754 net.cpp:150] Setting up conv6/dw/scale
I1208 11:46:34.988911 17754 net.cpp:157] Top shape: 4 1024 10 16 (655360)
I1208 11:46:34.988914 17754 net.cpp:165] Memory required for data: 1059437600
I1208 11:46:34.988916 17754 layer_factory.hpp:77] Creating layer relu6/dw
I1208 11:46:34.988919 17754 net.cpp:100] Creating Layer relu6/dw
I1208 11:46:34.988921 17754 net.cpp:434] relu6/dw <- conv6/dw
I1208 11:46:34.988924 17754 net.cpp:395] relu6/dw -> conv6/dw (in-place)
I1208 11:46:34.989217 17754 net.cpp:150] Setting up relu6/dw
I1208 11:46:34.989223 17754 net.cpp:157] Top shape: 4 1024 10 16 (655360)
I1208 11:46:34.989224 17754 net.cpp:165] Memory required for data: 1062059040
I1208 11:46:34.989226 17754 layer_factory.hpp:77] Creating layer conv6/sep
I1208 11:46:34.989230 17754 net.cpp:100] Creating Layer conv6/sep
I1208 11:46:34.989233 17754 net.cpp:434] conv6/sep <- conv6/dw
I1208 11:46:34.989238 17754 net.cpp:408] conv6/sep -> conv6/sep
I1208 11:46:34.997165 17754 net.cpp:150] Setting up conv6/sep
I1208 11:46:34.997184 17754 net.cpp:157] Top shape: 4 1024 10 16 (655360)
I1208 11:46:34.997186 17754 net.cpp:165] Memory required for data: 1064680480
I1208 11:46:34.997191 17754 layer_factory.hpp:77] Creating layer conv6/sep/bn
I1208 11:46:34.997196 17754 net.cpp:100] Creating Layer conv6/sep/bn
I1208 11:46:34.997198 17754 net.cpp:434] conv6/sep/bn <- conv6/sep
I1208 11:46:34.997203 17754 net.cpp:395] conv6/sep/bn -> conv6/sep (in-place)
I1208 11:46:34.997397 17754 net.cpp:150] Setting up conv6/sep/bn
I1208 11:46:34.997402 17754 net.cpp:157] Top shape: 4 1024 10 16 (655360)
I1208 11:46:34.997404 17754 net.cpp:165] Memory required for data: 1067301920
I1208 11:46:34.997408 17754 layer_factory.hpp:77] Creating layer conv6/sep/scale
I1208 11:46:34.997423 17754 net.cpp:100] Creating Layer conv6/sep/scale
I1208 11:46:34.997426 17754 net.cpp:434] conv6/sep/scale <- conv6/sep
I1208 11:46:34.997429 17754 net.cpp:395] conv6/sep/scale -> conv6/sep (in-place)
I1208 11:46:34.997463 17754 layer_factory.hpp:77] Creating layer conv6/sep/scale
I1208 11:46:34.997567 17754 net.cpp:150] Setting up conv6/sep/scale
I1208 11:46:34.997571 17754 net.cpp:157] Top shape: 4 1024 10 16 (655360)
I1208 11:46:34.997572 17754 net.cpp:165] Memory required for data: 1069923360
I1208 11:46:34.997576 17754 layer_factory.hpp:77] Creating layer relu6/sep
I1208 11:46:34.997579 17754 net.cpp:100] Creating Layer relu6/sep
I1208 11:46:34.997581 17754 net.cpp:434] relu6/sep <- conv6/sep
I1208 11:46:34.997583 17754 net.cpp:395] relu6/sep -> conv6/sep (in-place)
I1208 11:46:34.997877 17754 net.cpp:150] Setting up relu6/sep
I1208 11:46:34.997882 17754 net.cpp:157] Top shape: 4 1024 10 16 (655360)
I1208 11:46:34.997884 17754 net.cpp:165] Memory required for data: 1072544800
I1208 11:46:34.997886 17754 layer_factory.hpp:77] Creating layer conv6/sep_relu6/sep_0_split
I1208 11:46:34.997890 17754 net.cpp:100] Creating Layer conv6/sep_relu6/sep_0_split
I1208 11:46:34.997892 17754 net.cpp:434] conv6/sep_relu6/sep_0_split <- conv6/sep
I1208 11:46:34.997895 17754 net.cpp:408] conv6/sep_relu6/sep_0_split -> conv6/sep_relu6/sep_0_split_0
I1208 11:46:34.997900 17754 net.cpp:408] conv6/sep_relu6/sep_0_split -> conv6/sep_relu6/sep_0_split_1
I1208 11:46:34.997905 17754 net.cpp:408] conv6/sep_relu6/sep_0_split -> conv6/sep_relu6/sep_0_split_2
I1208 11:46:34.997907 17754 net.cpp:408] conv6/sep_relu6/sep_0_split -> conv6/sep_relu6/sep_0_split_3
I1208 11:46:34.997967 17754 net.cpp:150] Setting up conv6/sep_relu6/sep_0_split
I1208 11:46:34.997972 17754 net.cpp:157] Top shape: 4 1024 10 16 (655360)
I1208 11:46:34.997974 17754 net.cpp:157] Top shape: 4 1024 10 16 (655360)
I1208 11:46:34.997977 17754 net.cpp:157] Top shape: 4 1024 10 16 (655360)
I1208 11:46:34.997978 17754 net.cpp:157] Top shape: 4 1024 10 16 (655360)
I1208 11:46:34.997979 17754 net.cpp:165] Memory required for data: 1083030560
I1208 11:46:34.997982 17754 layer_factory.hpp:77] Creating layer ssd1_1
I1208 11:46:34.997988 17754 net.cpp:100] Creating Layer ssd1_1
I1208 11:46:34.997990 17754 net.cpp:434] ssd1_1 <- conv6/sep_relu6/sep_0_split_0
I1208 11:46:34.997993 17754 net.cpp:408] ssd1_1 -> ssd1_1
I1208 11:46:35.000564 17754 net.cpp:150] Setting up ssd1_1
I1208 11:46:35.000573 17754 net.cpp:157] Top shape: 4 256 10 16 (163840)
I1208 11:46:35.000576 17754 net.cpp:165] Memory required for data: 1083685920
I1208 11:46:35.000579 17754 layer_factory.hpp:77] Creating layer ssd1_1_relu
I1208 11:46:35.000583 17754 net.cpp:100] Creating Layer ssd1_1_relu
I1208 11:46:35.000586 17754 net.cpp:434] ssd1_1_relu <- ssd1_1
I1208 11:46:35.000591 17754 net.cpp:395] ssd1_1_relu -> ssd1_1 (in-place)
I1208 11:46:35.001013 17754 net.cpp:150] Setting up ssd1_1_relu
I1208 11:46:35.001019 17754 net.cpp:157] Top shape: 4 256 10 16 (163840)
I1208 11:46:35.001021 17754 net.cpp:165] Memory required for data: 1084341280
I1208 11:46:35.001024 17754 layer_factory.hpp:77] Creating layer ssd1_2
I1208 11:46:35.001029 17754 net.cpp:100] Creating Layer ssd1_2
I1208 11:46:35.001031 17754 net.cpp:434] ssd1_2 <- ssd1_1
I1208 11:46:35.001036 17754 net.cpp:408] ssd1_2 -> ssd1_2
I1208 11:46:35.008190 17754 net.cpp:150] Setting up ssd1_2
I1208 11:46:35.008206 17754 net.cpp:157] Top shape: 4 512 5 8 (81920)
I1208 11:46:35.008208 17754 net.cpp:165] Memory required for data: 1084668960
I1208 11:46:35.008214 17754 layer_factory.hpp:77] Creating layer ssd1_2_relu
I1208 11:46:35.008219 17754 net.cpp:100] Creating Layer ssd1_2_relu
I1208 11:46:35.008222 17754 net.cpp:434] ssd1_2_relu <- ssd1_2
I1208 11:46:35.008227 17754 net.cpp:395] ssd1_2_relu -> ssd1_2 (in-place)
I1208 11:46:35.008538 17754 net.cpp:150] Setting up ssd1_2_relu
I1208 11:46:35.008543 17754 net.cpp:157] Top shape: 4 512 5 8 (81920)
I1208 11:46:35.008544 17754 net.cpp:165] Memory required for data: 1084996640
I1208 11:46:35.008556 17754 layer_factory.hpp:77] Creating layer ssd1_2_ssd1_2_relu_0_split
I1208 11:46:35.008560 17754 net.cpp:100] Creating Layer ssd1_2_ssd1_2_relu_0_split
I1208 11:46:35.008563 17754 net.cpp:434] ssd1_2_ssd1_2_relu_0_split <- ssd1_2
I1208 11:46:35.008566 17754 net.cpp:408] ssd1_2_ssd1_2_relu_0_split -> ssd1_2_ssd1_2_relu_0_split_0
I1208 11:46:35.008570 17754 net.cpp:408] ssd1_2_ssd1_2_relu_0_split -> ssd1_2_ssd1_2_relu_0_split_1
I1208 11:46:35.008574 17754 net.cpp:408] ssd1_2_ssd1_2_relu_0_split -> ssd1_2_ssd1_2_relu_0_split_2
I1208 11:46:35.008579 17754 net.cpp:408] ssd1_2_ssd1_2_relu_0_split -> ssd1_2_ssd1_2_relu_0_split_3
I1208 11:46:35.008642 17754 net.cpp:150] Setting up ssd1_2_ssd1_2_relu_0_split
I1208 11:46:35.008646 17754 net.cpp:157] Top shape: 4 512 5 8 (81920)
I1208 11:46:35.008649 17754 net.cpp:157] Top shape: 4 512 5 8 (81920)
I1208 11:46:35.008651 17754 net.cpp:157] Top shape: 4 512 5 8 (81920)
I1208 11:46:35.008653 17754 net.cpp:157] Top shape: 4 512 5 8 (81920)
I1208 11:46:35.008656 17754 net.cpp:165] Memory required for data: 1086307360
I1208 11:46:35.008656 17754 layer_factory.hpp:77] Creating layer ssd2_1
I1208 11:46:35.008663 17754 net.cpp:100] Creating Layer ssd2_1
I1208 11:46:35.008666 17754 net.cpp:434] ssd2_1 <- ssd1_2_ssd1_2_relu_0_split_0
I1208 11:46:35.008669 17754 net.cpp:408] ssd2_1 -> ssd2_1
I1208 11:46:35.010133 17754 net.cpp:150] Setting up ssd2_1
I1208 11:46:35.010140 17754 net.cpp:157] Top shape: 4 128 5 8 (20480)
I1208 11:46:35.010143 17754 net.cpp:165] Memory required for data: 1086389280
I1208 11:46:35.010146 17754 layer_factory.hpp:77] Creating layer ssd2_1_relu
I1208 11:46:35.010149 17754 net.cpp:100] Creating Layer ssd2_1_relu
I1208 11:46:35.010151 17754 net.cpp:434] ssd2_1_relu <- ssd2_1
I1208 11:46:35.010154 17754 net.cpp:395] ssd2_1_relu -> ssd2_1 (in-place)
I1208 11:46:35.010558 17754 net.cpp:150] Setting up ssd2_1_relu
I1208 11:46:35.010565 17754 net.cpp:157] Top shape: 4 128 5 8 (20480)
I1208 11:46:35.010567 17754 net.cpp:165] Memory required for data: 1086471200
I1208 11:46:35.010570 17754 layer_factory.hpp:77] Creating layer ssd2_2
I1208 11:46:35.010574 17754 net.cpp:100] Creating Layer ssd2_2
I1208 11:46:35.010576 17754 net.cpp:434] ssd2_2 <- ssd2_1
I1208 11:46:35.010581 17754 net.cpp:408] ssd2_2 -> ssd2_2
I1208 11:46:35.014005 17754 net.cpp:150] Setting up ssd2_2
I1208 11:46:35.014019 17754 net.cpp:157] Top shape: 4 256 3 4 (12288)
I1208 11:46:35.014021 17754 net.cpp:165] Memory required for data: 1086520352
I1208 11:46:35.014026 17754 layer_factory.hpp:77] Creating layer ssd2_2_relu
I1208 11:46:35.014032 17754 net.cpp:100] Creating Layer ssd2_2_relu
I1208 11:46:35.014035 17754 net.cpp:434] ssd2_2_relu <- ssd2_2
I1208 11:46:35.014039 17754 net.cpp:395] ssd2_2_relu -> ssd2_2 (in-place)
I1208 11:46:35.014345 17754 net.cpp:150] Setting up ssd2_2_relu
I1208 11:46:35.014351 17754 net.cpp:157] Top shape: 4 256 3 4 (12288)
I1208 11:46:35.014353 17754 net.cpp:165] Memory required for data: 1086569504
I1208 11:46:35.014354 17754 layer_factory.hpp:77] Creating layer ssd2_2_ssd2_2_relu_0_split
I1208 11:46:35.014359 17754 net.cpp:100] Creating Layer ssd2_2_ssd2_2_relu_0_split
I1208 11:46:35.014361 17754 net.cpp:434] ssd2_2_ssd2_2_relu_0_split <- ssd2_2
I1208 11:46:35.014365 17754 net.cpp:408] ssd2_2_ssd2_2_relu_0_split -> ssd2_2_ssd2_2_relu_0_split_0
I1208 11:46:35.014369 17754 net.cpp:408] ssd2_2_ssd2_2_relu_0_split -> ssd2_2_ssd2_2_relu_0_split_1
I1208 11:46:35.014372 17754 net.cpp:408] ssd2_2_ssd2_2_relu_0_split -> ssd2_2_ssd2_2_relu_0_split_2
I1208 11:46:35.014375 17754 net.cpp:408] ssd2_2_ssd2_2_relu_0_split -> ssd2_2_ssd2_2_relu_0_split_3
I1208 11:46:35.014438 17754 net.cpp:150] Setting up ssd2_2_ssd2_2_relu_0_split
I1208 11:46:35.014442 17754 net.cpp:157] Top shape: 4 256 3 4 (12288)
I1208 11:46:35.014444 17754 net.cpp:157] Top shape: 4 256 3 4 (12288)
I1208 11:46:35.014446 17754 net.cpp:157] Top shape: 4 256 3 4 (12288)
I1208 11:46:35.014449 17754 net.cpp:157] Top shape: 4 256 3 4 (12288)
I1208 11:46:35.014451 17754 net.cpp:165] Memory required for data: 1086766112
I1208 11:46:35.014461 17754 layer_factory.hpp:77] Creating layer ssd3_1
I1208 11:46:35.014467 17754 net.cpp:100] Creating Layer ssd3_1
I1208 11:46:35.014470 17754 net.cpp:434] ssd3_1 <- ssd2_2_ssd2_2_relu_0_split_0
I1208 11:46:35.014473 17754 net.cpp:408] ssd3_1 -> ssd3_1
I1208 11:46:35.015949 17754 net.cpp:150] Setting up ssd3_1
I1208 11:46:35.015956 17754 net.cpp:157] Top shape: 4 128 3 4 (6144)
I1208 11:46:35.015959 17754 net.cpp:165] Memory required for data: 1086790688
I1208 11:46:35.015962 17754 layer_factory.hpp:77] Creating layer ssd3_1_relu
I1208 11:46:35.015966 17754 net.cpp:100] Creating Layer ssd3_1_relu
I1208 11:46:35.015969 17754 net.cpp:434] ssd3_1_relu <- ssd3_1
I1208 11:46:35.015971 17754 net.cpp:395] ssd3_1_relu -> ssd3_1 (in-place)
I1208 11:46:35.016273 17754 net.cpp:150] Setting up ssd3_1_relu
I1208 11:46:35.016278 17754 net.cpp:157] Top shape: 4 128 3 4 (6144)
I1208 11:46:35.016280 17754 net.cpp:165] Memory required for data: 1086815264
I1208 11:46:35.016283 17754 layer_factory.hpp:77] Creating layer ssd3_2
I1208 11:46:35.016288 17754 net.cpp:100] Creating Layer ssd3_2
I1208 11:46:35.016289 17754 net.cpp:434] ssd3_2 <- ssd3_1
I1208 11:46:35.016294 17754 net.cpp:408] ssd3_2 -> ssd3_2
I1208 11:46:35.018936 17754 net.cpp:150] Setting up ssd3_2
I1208 11:46:35.018946 17754 net.cpp:157] Top shape: 4 256 2 2 (4096)
I1208 11:46:35.018949 17754 net.cpp:165] Memory required for data: 1086831648
I1208 11:46:35.018954 17754 layer_factory.hpp:77] Creating layer ssd3_2_relu
I1208 11:46:35.018957 17754 net.cpp:100] Creating Layer ssd3_2_relu
I1208 11:46:35.018959 17754 net.cpp:434] ssd3_2_relu <- ssd3_2
I1208 11:46:35.018962 17754 net.cpp:395] ssd3_2_relu -> ssd3_2 (in-place)
I1208 11:46:35.019387 17754 net.cpp:150] Setting up ssd3_2_relu
I1208 11:46:35.019395 17754 net.cpp:157] Top shape: 4 256 2 2 (4096)
I1208 11:46:35.019397 17754 net.cpp:165] Memory required for data: 1086848032
I1208 11:46:35.019398 17754 layer_factory.hpp:77] Creating layer ssd3_2_ssd3_2_relu_0_split
I1208 11:46:35.019402 17754 net.cpp:100] Creating Layer ssd3_2_ssd3_2_relu_0_split
I1208 11:46:35.019405 17754 net.cpp:434] ssd3_2_ssd3_2_relu_0_split <- ssd3_2
I1208 11:46:35.019408 17754 net.cpp:408] ssd3_2_ssd3_2_relu_0_split -> ssd3_2_ssd3_2_relu_0_split_0
I1208 11:46:35.019413 17754 net.cpp:408] ssd3_2_ssd3_2_relu_0_split -> ssd3_2_ssd3_2_relu_0_split_1
I1208 11:46:35.019418 17754 net.cpp:408] ssd3_2_ssd3_2_relu_0_split -> ssd3_2_ssd3_2_relu_0_split_2
I1208 11:46:35.019421 17754 net.cpp:408] ssd3_2_ssd3_2_relu_0_split -> ssd3_2_ssd3_2_relu_0_split_3
I1208 11:46:35.019488 17754 net.cpp:150] Setting up ssd3_2_ssd3_2_relu_0_split
I1208 11:46:35.019493 17754 net.cpp:157] Top shape: 4 256 2 2 (4096)
I1208 11:46:35.019495 17754 net.cpp:157] Top shape: 4 256 2 2 (4096)
I1208 11:46:35.019498 17754 net.cpp:157] Top shape: 4 256 2 2 (4096)
I1208 11:46:35.019500 17754 net.cpp:157] Top shape: 4 256 2 2 (4096)
I1208 11:46:35.019501 17754 net.cpp:165] Memory required for data: 1086913568
I1208 11:46:35.019503 17754 layer_factory.hpp:77] Creating layer ssd4_1
I1208 11:46:35.019510 17754 net.cpp:100] Creating Layer ssd4_1
I1208 11:46:35.019511 17754 net.cpp:434] ssd4_1 <- ssd3_2_ssd3_2_relu_0_split_0
I1208 11:46:35.019515 17754 net.cpp:408] ssd4_1 -> ssd4_1
I1208 11:46:35.021690 17754 net.cpp:150] Setting up ssd4_1
I1208 11:46:35.021698 17754 net.cpp:157] Top shape: 4 128 2 2 (2048)
I1208 11:46:35.021700 17754 net.cpp:165] Memory required for data: 1086921760
I1208 11:46:35.021705 17754 layer_factory.hpp:77] Creating layer ssd4_1_relu
I1208 11:46:35.021718 17754 net.cpp:100] Creating Layer ssd4_1_relu
I1208 11:46:35.021720 17754 net.cpp:434] ssd4_1_relu <- ssd4_1
I1208 11:46:35.021723 17754 net.cpp:395] ssd4_1_relu -> ssd4_1 (in-place)
I1208 11:46:35.022025 17754 net.cpp:150] Setting up ssd4_1_relu
I1208 11:46:35.022032 17754 net.cpp:157] Top shape: 4 128 2 2 (2048)
I1208 11:46:35.022033 17754 net.cpp:165] Memory required for data: 1086929952
I1208 11:46:35.022035 17754 layer_factory.hpp:77] Creating layer ssd4_2
I1208 11:46:35.022040 17754 net.cpp:100] Creating Layer ssd4_2
I1208 11:46:35.022051 17754 net.cpp:434] ssd4_2 <- ssd4_1
I1208 11:46:35.022056 17754 net.cpp:408] ssd4_2 -> ssd4_2
I1208 11:46:35.024801 17754 net.cpp:150] Setting up ssd4_2
I1208 11:46:35.024809 17754 net.cpp:157] Top shape: 4 256 1 1 (1024)
I1208 11:46:35.024811 17754 net.cpp:165] Memory required for data: 1086934048
I1208 11:46:35.024816 17754 layer_factory.hpp:77] Creating layer ssd4_2_relu
I1208 11:46:35.024819 17754 net.cpp:100] Creating Layer ssd4_2_relu
I1208 11:46:35.024822 17754 net.cpp:434] ssd4_2_relu <- ssd4_2
I1208 11:46:35.024825 17754 net.cpp:395] ssd4_2_relu -> ssd4_2 (in-place)
I1208 11:46:35.025233 17754 net.cpp:150] Setting up ssd4_2_relu
I1208 11:46:35.025239 17754 net.cpp:157] Top shape: 4 256 1 1 (1024)
I1208 11:46:35.025241 17754 net.cpp:165] Memory required for data: 1086938144
I1208 11:46:35.025243 17754 layer_factory.hpp:77] Creating layer ssd4_2_ssd4_2_relu_0_split
I1208 11:46:35.025249 17754 net.cpp:100] Creating Layer ssd4_2_ssd4_2_relu_0_split
I1208 11:46:35.025250 17754 net.cpp:434] ssd4_2_ssd4_2_relu_0_split <- ssd4_2
I1208 11:46:35.025254 17754 net.cpp:408] ssd4_2_ssd4_2_relu_0_split -> ssd4_2_ssd4_2_relu_0_split_0
I1208 11:46:35.025265 17754 net.cpp:408] ssd4_2_ssd4_2_relu_0_split -> ssd4_2_ssd4_2_relu_0_split_1
I1208 11:46:35.025269 17754 net.cpp:408] ssd4_2_ssd4_2_relu_0_split -> ssd4_2_ssd4_2_relu_0_split_2
I1208 11:46:35.025321 17754 net.cpp:150] Setting up ssd4_2_ssd4_2_relu_0_split
I1208 11:46:35.025326 17754 net.cpp:157] Top shape: 4 256 1 1 (1024)
I1208 11:46:35.025328 17754 net.cpp:157] Top shape: 4 256 1 1 (1024)
I1208 11:46:35.025331 17754 net.cpp:157] Top shape: 4 256 1 1 (1024)
I1208 11:46:35.025332 17754 net.cpp:165] Memory required for data: 1086950432
I1208 11:46:35.025333 17754 layer_factory.hpp:77] Creating layer conv5_5/sep_mbox_loc
I1208 11:46:35.025339 17754 net.cpp:100] Creating Layer conv5_5/sep_mbox_loc
I1208 11:46:35.025342 17754 net.cpp:434] conv5_5/sep_mbox_loc <- conv5_5/sep_relu5_5/sep_0_split_1
I1208 11:46:35.025346 17754 net.cpp:408] conv5_5/sep_mbox_loc -> conv5_5/sep_mbox_loc
I1208 11:46:35.027649 17754 net.cpp:150] Setting up conv5_5/sep_mbox_loc
I1208 11:46:35.027658 17754 net.cpp:157] Top shape: 4 8 19 32 (19456)
I1208 11:46:35.027660 17754 net.cpp:165] Memory required for data: 1087028256
I1208 11:46:35.027665 17754 layer_factory.hpp:77] Creating layer conv5_5/sep_mbox_loc_perm
I1208 11:46:35.027670 17754 net.cpp:100] Creating Layer conv5_5/sep_mbox_loc_perm
I1208 11:46:35.027673 17754 net.cpp:434] conv5_5/sep_mbox_loc_perm <- conv5_5/sep_mbox_loc
I1208 11:46:35.027676 17754 net.cpp:408] conv5_5/sep_mbox_loc_perm -> conv5_5/sep_mbox_loc_perm
I1208 11:46:35.027781 17754 net.cpp:150] Setting up conv5_5/sep_mbox_loc_perm
I1208 11:46:35.027784 17754 net.cpp:157] Top shape: 4 19 32 8 (19456)
I1208 11:46:35.027786 17754 net.cpp:165] Memory required for data: 1087106080
I1208 11:46:35.027787 17754 layer_factory.hpp:77] Creating layer conv5_5/sep_mbox_loc_flat
I1208 11:46:35.027791 17754 net.cpp:100] Creating Layer conv5_5/sep_mbox_loc_flat
I1208 11:46:35.027793 17754 net.cpp:434] conv5_5/sep_mbox_loc_flat <- conv5_5/sep_mbox_loc_perm
I1208 11:46:35.027796 17754 net.cpp:408] conv5_5/sep_mbox_loc_flat -> conv5_5/sep_mbox_loc_flat
I1208 11:46:35.027817 17754 net.cpp:150] Setting up conv5_5/sep_mbox_loc_flat
I1208 11:46:35.027820 17754 net.cpp:157] Top shape: 4 4864 (19456)
I1208 11:46:35.027822 17754 net.cpp:165] Memory required for data: 1087183904
I1208 11:46:35.027823 17754 layer_factory.hpp:77] Creating layer conv5_5/sep_mbox_conf
I1208 11:46:35.027829 17754 net.cpp:100] Creating Layer conv5_5/sep_mbox_conf
I1208 11:46:35.027832 17754 net.cpp:434] conv5_5/sep_mbox_conf <- conv5_5/sep_relu5_5/sep_0_split_2
I1208 11:46:35.027835 17754 net.cpp:408] conv5_5/sep_mbox_conf -> conv5_5/sep_mbox_conf
I1208 11:46:35.029500 17754 net.cpp:150] Setting up conv5_5/sep_mbox_conf
I1208 11:46:35.029510 17754 net.cpp:157] Top shape: 4 10 19 32 (24320)
I1208 11:46:35.029512 17754 net.cpp:165] Memory required for data: 1087281184
I1208 11:46:35.029530 17754 layer_factory.hpp:77] Creating layer conv5_5/sep_mbox_conf_perm
I1208 11:46:35.029534 17754 net.cpp:100] Creating Layer conv5_5/sep_mbox_conf_perm
I1208 11:46:35.029538 17754 net.cpp:434] conv5_5/sep_mbox_conf_perm <- conv5_5/sep_mbox_conf
I1208 11:46:35.029543 17754 net.cpp:408] conv5_5/sep_mbox_conf_perm -> conv5_5/sep_mbox_conf_perm
I1208 11:46:35.029691 17754 net.cpp:150] Setting up conv5_5/sep_mbox_conf_perm
I1208 11:46:35.029696 17754 net.cpp:157] Top shape: 4 19 32 10 (24320)
I1208 11:46:35.029700 17754 net.cpp:165] Memory required for data: 1087378464
I1208 11:46:35.029702 17754 layer_factory.hpp:77] Creating layer conv5_5/sep_mbox_conf_flat
I1208 11:46:35.029706 17754 net.cpp:100] Creating Layer conv5_5/sep_mbox_conf_flat
I1208 11:46:35.029711 17754 net.cpp:434] conv5_5/sep_mbox_conf_flat <- conv5_5/sep_mbox_conf_perm
I1208 11:46:35.029716 17754 net.cpp:408] conv5_5/sep_mbox_conf_flat -> conv5_5/sep_mbox_conf_flat
I1208 11:46:35.029742 17754 net.cpp:150] Setting up conv5_5/sep_mbox_conf_flat
I1208 11:46:35.029747 17754 net.cpp:157] Top shape: 4 6080 (24320)
I1208 11:46:35.029749 17754 net.cpp:165] Memory required for data: 1087475744
I1208 11:46:35.029752 17754 layer_factory.hpp:77] Creating layer conv5_5/sep_mbox_priorbox
I1208 11:46:35.029758 17754 net.cpp:100] Creating Layer conv5_5/sep_mbox_priorbox
I1208 11:46:35.029762 17754 net.cpp:434] conv5_5/sep_mbox_priorbox <- conv5_5/sep_relu5_5/sep_0_split_3
I1208 11:46:35.029764 17754 net.cpp:434] conv5_5/sep_mbox_priorbox <- data_data_0_split_1
I1208 11:46:35.029769 17754 net.cpp:408] conv5_5/sep_mbox_priorbox -> conv5_5/sep_mbox_priorbox
I1208 11:46:35.029799 17754 net.cpp:150] Setting up conv5_5/sep_mbox_priorbox
I1208 11:46:35.029804 17754 net.cpp:157] Top shape: 1 2 4864 (9728)
I1208 11:46:35.029806 17754 net.cpp:165] Memory required for data: 1087514656
I1208 11:46:35.029809 17754 layer_factory.hpp:77] Creating layer conv6/sep_mbox_loc
I1208 11:46:35.029816 17754 net.cpp:100] Creating Layer conv6/sep_mbox_loc
I1208 11:46:35.029819 17754 net.cpp:434] conv6/sep_mbox_loc <- conv6/sep_relu6/sep_0_split_1
I1208 11:46:35.029826 17754 net.cpp:408] conv6/sep_mbox_loc -> conv6/sep_mbox_loc
I1208 11:46:35.031785 17754 net.cpp:150] Setting up conv6/sep_mbox_loc
I1208 11:46:35.031792 17754 net.cpp:157] Top shape: 4 8 10 16 (5120)
I1208 11:46:35.031795 17754 net.cpp:165] Memory required for data: 1087535136
I1208 11:46:35.031798 17754 layer_factory.hpp:77] Creating layer conv6/sep_mbox_loc_perm
I1208 11:46:35.031802 17754 net.cpp:100] Creating Layer conv6/sep_mbox_loc_perm
I1208 11:46:35.031805 17754 net.cpp:434] conv6/sep_mbox_loc_perm <- conv6/sep_mbox_loc
I1208 11:46:35.031808 17754 net.cpp:408] conv6/sep_mbox_loc_perm -> conv6/sep_mbox_loc_perm
I1208 11:46:35.031918 17754 net.cpp:150] Setting up conv6/sep_mbox_loc_perm
I1208 11:46:35.031921 17754 net.cpp:157] Top shape: 4 10 16 8 (5120)
I1208 11:46:35.031924 17754 net.cpp:165] Memory required for data: 1087555616
I1208 11:46:35.031924 17754 layer_factory.hpp:77] Creating layer conv6/sep_mbox_loc_flat
I1208 11:46:35.031929 17754 net.cpp:100] Creating Layer conv6/sep_mbox_loc_flat
I1208 11:46:35.031930 17754 net.cpp:434] conv6/sep_mbox_loc_flat <- conv6/sep_mbox_loc_perm
I1208 11:46:35.031934 17754 net.cpp:408] conv6/sep_mbox_loc_flat -> conv6/sep_mbox_loc_flat
I1208 11:46:35.031953 17754 net.cpp:150] Setting up conv6/sep_mbox_loc_flat
I1208 11:46:35.031957 17754 net.cpp:157] Top shape: 4 1280 (5120)
I1208 11:46:35.031960 17754 net.cpp:165] Memory required for data: 1087576096
I1208 11:46:35.031960 17754 layer_factory.hpp:77] Creating layer conv6/sep_mbox_conf
I1208 11:46:35.031966 17754 net.cpp:100] Creating Layer conv6/sep_mbox_conf
I1208 11:46:35.031970 17754 net.cpp:434] conv6/sep_mbox_conf <- conv6/sep_relu6/sep_0_split_2
I1208 11:46:35.031973 17754 net.cpp:408] conv6/sep_mbox_conf -> conv6/sep_mbox_conf
I1208 11:46:35.034540 17754 net.cpp:150] Setting up conv6/sep_mbox_conf
I1208 11:46:35.034550 17754 net.cpp:157] Top shape: 4 10 10 16 (6400)
I1208 11:46:35.034551 17754 net.cpp:165] Memory required for data: 1087601696
I1208 11:46:35.034567 17754 layer_factory.hpp:77] Creating layer conv6/sep_mbox_conf_perm
I1208 11:46:35.034572 17754 net.cpp:100] Creating Layer conv6/sep_mbox_conf_perm
I1208 11:46:35.034576 17754 net.cpp:434] conv6/sep_mbox_conf_perm <- conv6/sep_mbox_conf
I1208 11:46:35.034579 17754 net.cpp:408] conv6/sep_mbox_conf_perm -> conv6/sep_mbox_conf_perm
I1208 11:46:35.034687 17754 net.cpp:150] Setting up conv6/sep_mbox_conf_perm
I1208 11:46:35.034693 17754 net.cpp:157] Top shape: 4 10 16 10 (6400)
I1208 11:46:35.034693 17754 net.cpp:165] Memory required for data: 1087627296
I1208 11:46:35.034695 17754 layer_factory.hpp:77] Creating layer conv6/sep_mbox_conf_flat
I1208 11:46:35.034698 17754 net.cpp:100] Creating Layer conv6/sep_mbox_conf_flat
I1208 11:46:35.034700 17754 net.cpp:434] conv6/sep_mbox_conf_flat <- conv6/sep_mbox_conf_perm
I1208 11:46:35.034704 17754 net.cpp:408] conv6/sep_mbox_conf_flat -> conv6/sep_mbox_conf_flat
I1208 11:46:35.034725 17754 net.cpp:150] Setting up conv6/sep_mbox_conf_flat
I1208 11:46:35.034729 17754 net.cpp:157] Top shape: 4 1600 (6400)
I1208 11:46:35.034730 17754 net.cpp:165] Memory required for data: 1087652896
I1208 11:46:35.034732 17754 layer_factory.hpp:77] Creating layer conv6/sep_mbox_priorbox
I1208 11:46:35.034735 17754 net.cpp:100] Creating Layer conv6/sep_mbox_priorbox
I1208 11:46:35.034739 17754 net.cpp:434] conv6/sep_mbox_priorbox <- conv6/sep_relu6/sep_0_split_3
I1208 11:46:35.034741 17754 net.cpp:434] conv6/sep_mbox_priorbox <- data_data_0_split_2
I1208 11:46:35.034744 17754 net.cpp:408] conv6/sep_mbox_priorbox -> conv6/sep_mbox_priorbox
I1208 11:46:35.034767 17754 net.cpp:150] Setting up conv6/sep_mbox_priorbox
I1208 11:46:35.034771 17754 net.cpp:157] Top shape: 1 2 1280 (2560)
I1208 11:46:35.034773 17754 net.cpp:165] Memory required for data: 1087663136
I1208 11:46:35.034775 17754 layer_factory.hpp:77] Creating layer ssd1_2_mbox_loc
I1208 11:46:35.034781 17754 net.cpp:100] Creating Layer ssd1_2_mbox_loc
I1208 11:46:35.034785 17754 net.cpp:434] ssd1_2_mbox_loc <- ssd1_2_ssd1_2_relu_0_split_1
I1208 11:46:35.034787 17754 net.cpp:408] ssd1_2_mbox_loc -> ssd1_2_mbox_loc
I1208 11:46:35.037906 17754 net.cpp:150] Setting up ssd1_2_mbox_loc
I1208 11:46:35.037914 17754 net.cpp:157] Top shape: 4 8 5 8 (1280)
I1208 11:46:35.037917 17754 net.cpp:165] Memory required for data: 1087668256
I1208 11:46:35.037921 17754 layer_factory.hpp:77] Creating layer ssd1_2_mbox_loc_perm
I1208 11:46:35.037925 17754 net.cpp:100] Creating Layer ssd1_2_mbox_loc_perm
I1208 11:46:35.037928 17754 net.cpp:434] ssd1_2_mbox_loc_perm <- ssd1_2_mbox_loc
I1208 11:46:35.037932 17754 net.cpp:408] ssd1_2_mbox_loc_perm -> ssd1_2_mbox_loc_perm
I1208 11:46:35.038038 17754 net.cpp:150] Setting up ssd1_2_mbox_loc_perm
I1208 11:46:35.038043 17754 net.cpp:157] Top shape: 4 5 8 8 (1280)
I1208 11:46:35.038044 17754 net.cpp:165] Memory required for data: 1087673376
I1208 11:46:35.038046 17754 layer_factory.hpp:77] Creating layer ssd1_2_mbox_loc_flat
I1208 11:46:35.038050 17754 net.cpp:100] Creating Layer ssd1_2_mbox_loc_flat
I1208 11:46:35.038053 17754 net.cpp:434] ssd1_2_mbox_loc_flat <- ssd1_2_mbox_loc_perm
I1208 11:46:35.038054 17754 net.cpp:408] ssd1_2_mbox_loc_flat -> ssd1_2_mbox_loc_flat
I1208 11:46:35.038075 17754 net.cpp:150] Setting up ssd1_2_mbox_loc_flat
I1208 11:46:35.038079 17754 net.cpp:157] Top shape: 4 320 (1280)
I1208 11:46:35.038080 17754 net.cpp:165] Memory required for data: 1087678496
I1208 11:46:35.038082 17754 layer_factory.hpp:77] Creating layer ssd1_2_mbox_conf
I1208 11:46:35.038087 17754 net.cpp:100] Creating Layer ssd1_2_mbox_conf
I1208 11:46:35.038090 17754 net.cpp:434] ssd1_2_mbox_conf <- ssd1_2_ssd1_2_relu_0_split_2
I1208 11:46:35.038094 17754 net.cpp:408] ssd1_2_mbox_conf -> ssd1_2_mbox_conf
I1208 11:46:35.039640 17754 net.cpp:150] Setting up ssd1_2_mbox_conf
I1208 11:46:35.039649 17754 net.cpp:157] Top shape: 4 10 5 8 (1600)
I1208 11:46:35.039650 17754 net.cpp:165] Memory required for data: 1087684896
I1208 11:46:35.039654 17754 layer_factory.hpp:77] Creating layer ssd1_2_mbox_conf_perm
I1208 11:46:35.039666 17754 net.cpp:100] Creating Layer ssd1_2_mbox_conf_perm
I1208 11:46:35.039669 17754 net.cpp:434] ssd1_2_mbox_conf_perm <- ssd1_2_mbox_conf
I1208 11:46:35.039672 17754 net.cpp:408] ssd1_2_mbox_conf_perm -> ssd1_2_mbox_conf_perm
I1208 11:46:35.039780 17754 net.cpp:150] Setting up ssd1_2_mbox_conf_perm
I1208 11:46:35.039784 17754 net.cpp:157] Top shape: 4 5 8 10 (1600)
I1208 11:46:35.039786 17754 net.cpp:165] Memory required for data: 1087691296
I1208 11:46:35.039788 17754 layer_factory.hpp:77] Creating layer ssd1_2_mbox_conf_flat
I1208 11:46:35.039791 17754 net.cpp:100] Creating Layer ssd1_2_mbox_conf_flat
I1208 11:46:35.039793 17754 net.cpp:434] ssd1_2_mbox_conf_flat <- ssd1_2_mbox_conf_perm
I1208 11:46:35.039796 17754 net.cpp:408] ssd1_2_mbox_conf_flat -> ssd1_2_mbox_conf_flat
I1208 11:46:35.039818 17754 net.cpp:150] Setting up ssd1_2_mbox_conf_flat
I1208 11:46:35.039820 17754 net.cpp:157] Top shape: 4 400 (1600)
I1208 11:46:35.039822 17754 net.cpp:165] Memory required for data: 1087697696
I1208 11:46:35.039825 17754 layer_factory.hpp:77] Creating layer ssd1_2_mbox_priorbox
I1208 11:46:35.039829 17754 net.cpp:100] Creating Layer ssd1_2_mbox_priorbox
I1208 11:46:35.039831 17754 net.cpp:434] ssd1_2_mbox_priorbox <- ssd1_2_ssd1_2_relu_0_split_3
I1208 11:46:35.039834 17754 net.cpp:434] ssd1_2_mbox_priorbox <- data_data_0_split_3
I1208 11:46:35.039837 17754 net.cpp:408] ssd1_2_mbox_priorbox -> ssd1_2_mbox_priorbox
I1208 11:46:35.039861 17754 net.cpp:150] Setting up ssd1_2_mbox_priorbox
I1208 11:46:35.039865 17754 net.cpp:157] Top shape: 1 2 320 (640)
I1208 11:46:35.039866 17754 net.cpp:165] Memory required for data: 1087700256
I1208 11:46:35.039868 17754 layer_factory.hpp:77] Creating layer ssd2_2_mbox_loc
I1208 11:46:35.039873 17754 net.cpp:100] Creating Layer ssd2_2_mbox_loc
I1208 11:46:35.039876 17754 net.cpp:434] ssd2_2_mbox_loc <- ssd2_2_ssd2_2_relu_0_split_1
I1208 11:46:35.039880 17754 net.cpp:408] ssd2_2_mbox_loc -> ssd2_2_mbox_loc
I1208 11:46:35.041218 17754 net.cpp:150] Setting up ssd2_2_mbox_loc
I1208 11:46:35.041224 17754 net.cpp:157] Top shape: 4 8 3 4 (384)
I1208 11:46:35.041226 17754 net.cpp:165] Memory required for data: 1087701792
I1208 11:46:35.041230 17754 layer_factory.hpp:77] Creating layer ssd2_2_mbox_loc_perm
I1208 11:46:35.041235 17754 net.cpp:100] Creating Layer ssd2_2_mbox_loc_perm
I1208 11:46:35.041239 17754 net.cpp:434] ssd2_2_mbox_loc_perm <- ssd2_2_mbox_loc
I1208 11:46:35.041242 17754 net.cpp:408] ssd2_2_mbox_loc_perm -> ssd2_2_mbox_loc_perm
I1208 11:46:35.041345 17754 net.cpp:150] Setting up ssd2_2_mbox_loc_perm
I1208 11:46:35.041350 17754 net.cpp:157] Top shape: 4 3 4 8 (384)
I1208 11:46:35.041352 17754 net.cpp:165] Memory required for data: 1087703328
I1208 11:46:35.041354 17754 layer_factory.hpp:77] Creating layer ssd2_2_mbox_loc_flat
I1208 11:46:35.041357 17754 net.cpp:100] Creating Layer ssd2_2_mbox_loc_flat
I1208 11:46:35.041359 17754 net.cpp:434] ssd2_2_mbox_loc_flat <- ssd2_2_mbox_loc_perm
I1208 11:46:35.041363 17754 net.cpp:408] ssd2_2_mbox_loc_flat -> ssd2_2_mbox_loc_flat
I1208 11:46:35.041383 17754 net.cpp:150] Setting up ssd2_2_mbox_loc_flat
I1208 11:46:35.041388 17754 net.cpp:157] Top shape: 4 96 (384)
I1208 11:46:35.041389 17754 net.cpp:165] Memory required for data: 1087704864
I1208 11:46:35.041391 17754 layer_factory.hpp:77] Creating layer ssd2_2_mbox_conf
I1208 11:46:35.041396 17754 net.cpp:100] Creating Layer ssd2_2_mbox_conf
I1208 11:46:35.041399 17754 net.cpp:434] ssd2_2_mbox_conf <- ssd2_2_ssd2_2_relu_0_split_2
I1208 11:46:35.041404 17754 net.cpp:408] ssd2_2_mbox_conf -> ssd2_2_mbox_conf
I1208 11:46:35.043670 17754 net.cpp:150] Setting up ssd2_2_mbox_conf
I1208 11:46:35.043679 17754 net.cpp:157] Top shape: 4 10 3 4 (480)
I1208 11:46:35.043681 17754 net.cpp:165] Memory required for data: 1087706784
I1208 11:46:35.043685 17754 layer_factory.hpp:77] Creating layer ssd2_2_mbox_conf_perm
I1208 11:46:35.043690 17754 net.cpp:100] Creating Layer ssd2_2_mbox_conf_perm
I1208 11:46:35.043694 17754 net.cpp:434] ssd2_2_mbox_conf_perm <- ssd2_2_mbox_conf
I1208 11:46:35.043706 17754 net.cpp:408] ssd2_2_mbox_conf_perm -> ssd2_2_mbox_conf_perm
I1208 11:46:35.043813 17754 net.cpp:150] Setting up ssd2_2_mbox_conf_perm
I1208 11:46:35.043817 17754 net.cpp:157] Top shape: 4 3 4 10 (480)
I1208 11:46:35.043819 17754 net.cpp:165] Memory required for data: 1087708704
I1208 11:46:35.043821 17754 layer_factory.hpp:77] Creating layer ssd2_2_mbox_conf_flat
I1208 11:46:35.043825 17754 net.cpp:100] Creating Layer ssd2_2_mbox_conf_flat
I1208 11:46:35.043828 17754 net.cpp:434] ssd2_2_mbox_conf_flat <- ssd2_2_mbox_conf_perm
I1208 11:46:35.043831 17754 net.cpp:408] ssd2_2_mbox_conf_flat -> ssd2_2_mbox_conf_flat
I1208 11:46:35.043853 17754 net.cpp:150] Setting up ssd2_2_mbox_conf_flat
I1208 11:46:35.043856 17754 net.cpp:157] Top shape: 4 120 (480)
I1208 11:46:35.043859 17754 net.cpp:165] Memory required for data: 1087710624
I1208 11:46:35.043859 17754 layer_factory.hpp:77] Creating layer ssd2_2_mbox_priorbox
I1208 11:46:35.043864 17754 net.cpp:100] Creating Layer ssd2_2_mbox_priorbox
I1208 11:46:35.043867 17754 net.cpp:434] ssd2_2_mbox_priorbox <- ssd2_2_ssd2_2_relu_0_split_3
I1208 11:46:35.043869 17754 net.cpp:434] ssd2_2_mbox_priorbox <- data_data_0_split_4
I1208 11:46:35.043874 17754 net.cpp:408] ssd2_2_mbox_priorbox -> ssd2_2_mbox_priorbox
I1208 11:46:35.043896 17754 net.cpp:150] Setting up ssd2_2_mbox_priorbox
I1208 11:46:35.043900 17754 net.cpp:157] Top shape: 1 2 96 (192)
I1208 11:46:35.043902 17754 net.cpp:165] Memory required for data: 1087711392
I1208 11:46:35.043905 17754 layer_factory.hpp:77] Creating layer ssd3_2_mbox_loc
I1208 11:46:35.043910 17754 net.cpp:100] Creating Layer ssd3_2_mbox_loc
I1208 11:46:35.043913 17754 net.cpp:434] ssd3_2_mbox_loc <- ssd3_2_ssd3_2_relu_0_split_1
I1208 11:46:35.043917 17754 net.cpp:408] ssd3_2_mbox_loc -> ssd3_2_mbox_loc
I1208 11:46:35.045409 17754 net.cpp:150] Setting up ssd3_2_mbox_loc
I1208 11:46:35.045416 17754 net.cpp:157] Top shape: 4 8 2 2 (128)
I1208 11:46:35.045419 17754 net.cpp:165] Memory required for data: 1087711904
I1208 11:46:35.045423 17754 layer_factory.hpp:77] Creating layer ssd3_2_mbox_loc_perm
I1208 11:46:35.045429 17754 net.cpp:100] Creating Layer ssd3_2_mbox_loc_perm
I1208 11:46:35.045431 17754 net.cpp:434] ssd3_2_mbox_loc_perm <- ssd3_2_mbox_loc
I1208 11:46:35.045435 17754 net.cpp:408] ssd3_2_mbox_loc_perm -> ssd3_2_mbox_loc_perm
I1208 11:46:35.045539 17754 net.cpp:150] Setting up ssd3_2_mbox_loc_perm
I1208 11:46:35.045543 17754 net.cpp:157] Top shape: 4 2 2 8 (128)
I1208 11:46:35.045544 17754 net.cpp:165] Memory required for data: 1087712416
I1208 11:46:35.045547 17754 layer_factory.hpp:77] Creating layer ssd3_2_mbox_loc_flat
I1208 11:46:35.045550 17754 net.cpp:100] Creating Layer ssd3_2_mbox_loc_flat
I1208 11:46:35.045552 17754 net.cpp:434] ssd3_2_mbox_loc_flat <- ssd3_2_mbox_loc_perm
I1208 11:46:35.045555 17754 net.cpp:408] ssd3_2_mbox_loc_flat -> ssd3_2_mbox_loc_flat
I1208 11:46:35.045578 17754 net.cpp:150] Setting up ssd3_2_mbox_loc_flat
I1208 11:46:35.045580 17754 net.cpp:157] Top shape: 4 32 (128)
I1208 11:46:35.045583 17754 net.cpp:165] Memory required for data: 1087712928
I1208 11:46:35.045583 17754 layer_factory.hpp:77] Creating layer ssd3_2_mbox_conf
I1208 11:46:35.045589 17754 net.cpp:100] Creating Layer ssd3_2_mbox_conf
I1208 11:46:35.045591 17754 net.cpp:434] ssd3_2_mbox_conf <- ssd3_2_ssd3_2_relu_0_split_2
I1208 11:46:35.045595 17754 net.cpp:408] ssd3_2_mbox_conf -> ssd3_2_mbox_conf
I1208 11:46:35.046957 17754 net.cpp:150] Setting up ssd3_2_mbox_conf
I1208 11:46:35.046965 17754 net.cpp:157] Top shape: 4 10 2 2 (160)
I1208 11:46:35.046967 17754 net.cpp:165] Memory required for data: 1087713568
I1208 11:46:35.046972 17754 layer_factory.hpp:77] Creating layer ssd3_2_mbox_conf_perm
I1208 11:46:35.046975 17754 net.cpp:100] Creating Layer ssd3_2_mbox_conf_perm
I1208 11:46:35.046978 17754 net.cpp:434] ssd3_2_mbox_conf_perm <- ssd3_2_mbox_conf
I1208 11:46:35.046983 17754 net.cpp:408] ssd3_2_mbox_conf_perm -> ssd3_2_mbox_conf_perm
I1208 11:46:35.047086 17754 net.cpp:150] Setting up ssd3_2_mbox_conf_perm
I1208 11:46:35.047091 17754 net.cpp:157] Top shape: 4 2 2 10 (160)
I1208 11:46:35.047099 17754 net.cpp:165] Memory required for data: 1087714208
I1208 11:46:35.047101 17754 layer_factory.hpp:77] Creating layer ssd3_2_mbox_conf_flat
I1208 11:46:35.047106 17754 net.cpp:100] Creating Layer ssd3_2_mbox_conf_flat
I1208 11:46:35.047108 17754 net.cpp:434] ssd3_2_mbox_conf_flat <- ssd3_2_mbox_conf_perm
I1208 11:46:35.047112 17754 net.cpp:408] ssd3_2_mbox_conf_flat -> ssd3_2_mbox_conf_flat
I1208 11:46:35.047133 17754 net.cpp:150] Setting up ssd3_2_mbox_conf_flat
I1208 11:46:35.047137 17754 net.cpp:157] Top shape: 4 40 (160)
I1208 11:46:35.047139 17754 net.cpp:165] Memory required for data: 1087714848
I1208 11:46:35.047142 17754 layer_factory.hpp:77] Creating layer ssd3_2_mbox_priorbox
I1208 11:46:35.047144 17754 net.cpp:100] Creating Layer ssd3_2_mbox_priorbox
I1208 11:46:35.047147 17754 net.cpp:434] ssd3_2_mbox_priorbox <- ssd3_2_ssd3_2_relu_0_split_3
I1208 11:46:35.047150 17754 net.cpp:434] ssd3_2_mbox_priorbox <- data_data_0_split_5
I1208 11:46:35.047154 17754 net.cpp:408] ssd3_2_mbox_priorbox -> ssd3_2_mbox_priorbox
I1208 11:46:35.047178 17754 net.cpp:150] Setting up ssd3_2_mbox_priorbox
I1208 11:46:35.047181 17754 net.cpp:157] Top shape: 1 2 32 (64)
I1208 11:46:35.047183 17754 net.cpp:165] Memory required for data: 1087715104
I1208 11:46:35.047184 17754 layer_factory.hpp:77] Creating layer ssd4_2_mbox_loc
I1208 11:46:35.047190 17754 net.cpp:100] Creating Layer ssd4_2_mbox_loc
I1208 11:46:35.047194 17754 net.cpp:434] ssd4_2_mbox_loc <- ssd4_2_ssd4_2_relu_0_split_0
I1208 11:46:35.047196 17754 net.cpp:408] ssd4_2_mbox_loc -> ssd4_2_mbox_loc
I1208 11:46:35.049391 17754 net.cpp:150] Setting up ssd4_2_mbox_loc
I1208 11:46:35.049402 17754 net.cpp:157] Top shape: 4 8 1 1 (32)
I1208 11:46:35.049404 17754 net.cpp:165] Memory required for data: 1087715232
I1208 11:46:35.049409 17754 layer_factory.hpp:77] Creating layer ssd4_2_mbox_loc_perm
I1208 11:46:35.049415 17754 net.cpp:100] Creating Layer ssd4_2_mbox_loc_perm
I1208 11:46:35.049418 17754 net.cpp:434] ssd4_2_mbox_loc_perm <- ssd4_2_mbox_loc
I1208 11:46:35.049422 17754 net.cpp:408] ssd4_2_mbox_loc_perm -> ssd4_2_mbox_loc_perm
I1208 11:46:35.049528 17754 net.cpp:150] Setting up ssd4_2_mbox_loc_perm
I1208 11:46:35.049532 17754 net.cpp:157] Top shape: 4 1 1 8 (32)
I1208 11:46:35.049535 17754 net.cpp:165] Memory required for data: 1087715360
I1208 11:46:35.049536 17754 layer_factory.hpp:77] Creating layer ssd4_2_mbox_loc_flat
I1208 11:46:35.049540 17754 net.cpp:100] Creating Layer ssd4_2_mbox_loc_flat
I1208 11:46:35.049542 17754 net.cpp:434] ssd4_2_mbox_loc_flat <- ssd4_2_mbox_loc_perm
I1208 11:46:35.049546 17754 net.cpp:408] ssd4_2_mbox_loc_flat -> ssd4_2_mbox_loc_flat
I1208 11:46:35.049566 17754 net.cpp:150] Setting up ssd4_2_mbox_loc_flat
I1208 11:46:35.049569 17754 net.cpp:157] Top shape: 4 8 (32)
I1208 11:46:35.049572 17754 net.cpp:165] Memory required for data: 1087715488
I1208 11:46:35.049573 17754 layer_factory.hpp:77] Creating layer ssd4_2_mbox_conf
I1208 11:46:35.049579 17754 net.cpp:100] Creating Layer ssd4_2_mbox_conf
I1208 11:46:35.049582 17754 net.cpp:434] ssd4_2_mbox_conf <- ssd4_2_ssd4_2_relu_0_split_1
I1208 11:46:35.049587 17754 net.cpp:408] ssd4_2_mbox_conf -> ssd4_2_mbox_conf
I1208 11:46:35.051056 17754 net.cpp:150] Setting up ssd4_2_mbox_conf
I1208 11:46:35.051064 17754 net.cpp:157] Top shape: 4 10 1 1 (40)
I1208 11:46:35.051065 17754 net.cpp:165] Memory required for data: 1087715648
I1208 11:46:35.051070 17754 layer_factory.hpp:77] Creating layer ssd4_2_mbox_conf_perm
I1208 11:46:35.051075 17754 net.cpp:100] Creating Layer ssd4_2_mbox_conf_perm
I1208 11:46:35.051079 17754 net.cpp:434] ssd4_2_mbox_conf_perm <- ssd4_2_mbox_conf
I1208 11:46:35.051081 17754 net.cpp:408] ssd4_2_mbox_conf_perm -> ssd4_2_mbox_conf_perm
I1208 11:46:35.051189 17754 net.cpp:150] Setting up ssd4_2_mbox_conf_perm
I1208 11:46:35.051193 17754 net.cpp:157] Top shape: 4 1 1 10 (40)
I1208 11:46:35.051195 17754 net.cpp:165] Memory required for data: 1087715808
I1208 11:46:35.051198 17754 layer_factory.hpp:77] Creating layer ssd4_2_mbox_conf_flat
I1208 11:46:35.051210 17754 net.cpp:100] Creating Layer ssd4_2_mbox_conf_flat
I1208 11:46:35.051213 17754 net.cpp:434] ssd4_2_mbox_conf_flat <- ssd4_2_mbox_conf_perm
I1208 11:46:35.051216 17754 net.cpp:408] ssd4_2_mbox_conf_flat -> ssd4_2_mbox_conf_flat
I1208 11:46:35.051239 17754 net.cpp:150] Setting up ssd4_2_mbox_conf_flat
I1208 11:46:35.051244 17754 net.cpp:157] Top shape: 4 10 (40)
I1208 11:46:35.051244 17754 net.cpp:165] Memory required for data: 1087715968
I1208 11:46:35.051246 17754 layer_factory.hpp:77] Creating layer ssd4_2_mbox_priorbox
I1208 11:46:35.051249 17754 net.cpp:100] Creating Layer ssd4_2_mbox_priorbox
I1208 11:46:35.051252 17754 net.cpp:434] ssd4_2_mbox_priorbox <- ssd4_2_ssd4_2_relu_0_split_2
I1208 11:46:35.051255 17754 net.cpp:434] ssd4_2_mbox_priorbox <- data_data_0_split_6
I1208 11:46:35.051260 17754 net.cpp:408] ssd4_2_mbox_priorbox -> ssd4_2_mbox_priorbox
I1208 11:46:35.051285 17754 net.cpp:150] Setting up ssd4_2_mbox_priorbox
I1208 11:46:35.051288 17754 net.cpp:157] Top shape: 1 2 8 (16)
I1208 11:46:35.051290 17754 net.cpp:165] Memory required for data: 1087716032
I1208 11:46:35.051291 17754 layer_factory.hpp:77] Creating layer mbox_loc
I1208 11:46:35.051295 17754 net.cpp:100] Creating Layer mbox_loc
I1208 11:46:35.051298 17754 net.cpp:434] mbox_loc <- conv5_5/sep_mbox_loc_flat
I1208 11:46:35.051301 17754 net.cpp:434] mbox_loc <- conv6/sep_mbox_loc_flat
I1208 11:46:35.051304 17754 net.cpp:434] mbox_loc <- ssd1_2_mbox_loc_flat
I1208 11:46:35.051307 17754 net.cpp:434] mbox_loc <- ssd2_2_mbox_loc_flat
I1208 11:46:35.051311 17754 net.cpp:434] mbox_loc <- ssd3_2_mbox_loc_flat
I1208 11:46:35.051313 17754 net.cpp:434] mbox_loc <- ssd4_2_mbox_loc_flat
I1208 11:46:35.051316 17754 net.cpp:408] mbox_loc -> mbox_loc
I1208 11:46:35.051338 17754 net.cpp:150] Setting up mbox_loc
I1208 11:46:35.051342 17754 net.cpp:157] Top shape: 4 6600 (26400)
I1208 11:46:35.051344 17754 net.cpp:165] Memory required for data: 1087821632
I1208 11:46:35.051347 17754 layer_factory.hpp:77] Creating layer mbox_conf
I1208 11:46:35.051349 17754 net.cpp:100] Creating Layer mbox_conf
I1208 11:46:35.051352 17754 net.cpp:434] mbox_conf <- conv5_5/sep_mbox_conf_flat
I1208 11:46:35.051354 17754 net.cpp:434] mbox_conf <- conv6/sep_mbox_conf_flat
I1208 11:46:35.051357 17754 net.cpp:434] mbox_conf <- ssd1_2_mbox_conf_flat
I1208 11:46:35.051360 17754 net.cpp:434] mbox_conf <- ssd2_2_mbox_conf_flat
I1208 11:46:35.051362 17754 net.cpp:434] mbox_conf <- ssd3_2_mbox_conf_flat
I1208 11:46:35.051364 17754 net.cpp:434] mbox_conf <- ssd4_2_mbox_conf_flat
I1208 11:46:35.051368 17754 net.cpp:408] mbox_conf -> mbox_conf
I1208 11:46:35.051389 17754 net.cpp:150] Setting up mbox_conf
I1208 11:46:35.051393 17754 net.cpp:157] Top shape: 4 8250 (33000)
I1208 11:46:35.051395 17754 net.cpp:165] Memory required for data: 1087953632
I1208 11:46:35.051396 17754 layer_factory.hpp:77] Creating layer mbox_priorbox
I1208 11:46:35.051399 17754 net.cpp:100] Creating Layer mbox_priorbox
I1208 11:46:35.051401 17754 net.cpp:434] mbox_priorbox <- conv5_5/sep_mbox_priorbox
I1208 11:46:35.051403 17754 net.cpp:434] mbox_priorbox <- conv6/sep_mbox_priorbox
I1208 11:46:35.051406 17754 net.cpp:434] mbox_priorbox <- ssd1_2_mbox_priorbox
I1208 11:46:35.051409 17754 net.cpp:434] mbox_priorbox <- ssd2_2_mbox_priorbox
I1208 11:46:35.051411 17754 net.cpp:434] mbox_priorbox <- ssd3_2_mbox_priorbox
I1208 11:46:35.051414 17754 net.cpp:434] mbox_priorbox <- ssd4_2_mbox_priorbox
I1208 11:46:35.051416 17754 net.cpp:408] mbox_priorbox -> mbox_priorbox
I1208 11:46:35.051439 17754 net.cpp:150] Setting up mbox_priorbox
I1208 11:46:35.051442 17754 net.cpp:157] Top shape: 1 2 6600 (13200)
I1208 11:46:35.051443 17754 net.cpp:165] Memory required for data: 1088006432
I1208 11:46:35.051445 17754 layer_factory.hpp:77] Creating layer mbox_conf_reshape
I1208 11:46:35.051450 17754 net.cpp:100] Creating Layer mbox_conf_reshape
I1208 11:46:35.051452 17754 net.cpp:434] mbox_conf_reshape <- mbox_conf
I1208 11:46:35.051455 17754 net.cpp:408] mbox_conf_reshape -> mbox_conf_reshape
I1208 11:46:35.051493 17754 net.cpp:150] Setting up mbox_conf_reshape
I1208 11:46:35.051497 17754 net.cpp:157] Top shape: 4 1650 5 (33000)
I1208 11:46:35.051499 17754 net.cpp:165] Memory required for data: 1088138432
I1208 11:46:35.051501 17754 layer_factory.hpp:77] Creating layer mbox_conf_softmax
I1208 11:46:35.051504 17754 net.cpp:100] Creating Layer mbox_conf_softmax
I1208 11:46:35.051506 17754 net.cpp:434] mbox_conf_softmax <- mbox_conf_reshape
I1208 11:46:35.051511 17754 net.cpp:408] mbox_conf_softmax -> mbox_conf_softmax
I1208 11:46:35.052000 17754 net.cpp:150] Setting up mbox_conf_softmax
I1208 11:46:35.052006 17754 net.cpp:157] Top shape: 4 1650 5 (33000)
I1208 11:46:35.052008 17754 net.cpp:165] Memory required for data: 1088270432
I1208 11:46:35.052011 17754 layer_factory.hpp:77] Creating layer mbox_conf_flatten
I1208 11:46:35.052016 17754 net.cpp:100] Creating Layer mbox_conf_flatten
I1208 11:46:35.052017 17754 net.cpp:434] mbox_conf_flatten <- mbox_conf_softmax
I1208 11:46:35.052021 17754 net.cpp:408] mbox_conf_flatten -> mbox_conf_flatten
I1208 11:46:35.052044 17754 net.cpp:150] Setting up mbox_conf_flatten
I1208 11:46:35.052048 17754 net.cpp:157] Top shape: 4 8250 (33000)
I1208 11:46:35.052049 17754 net.cpp:165] Memory required for data: 1088402432
I1208 11:46:35.052052 17754 layer_factory.hpp:77] Creating layer detection_out
I1208 11:46:35.052059 17754 net.cpp:100] Creating Layer detection_out
I1208 11:46:35.052062 17754 net.cpp:434] detection_out <- mbox_loc
I1208 11:46:35.052064 17754 net.cpp:434] detection_out <- mbox_conf_flatten
I1208 11:46:35.052067 17754 net.cpp:434] detection_out <- mbox_priorbox
I1208 11:46:35.052070 17754 net.cpp:408] detection_out -> detection_out
W1208 11:46:35.052409 17754 detection_output_layer.cpp:49] Failed to create directory: /home/zhongyilin/Documents/data/GTSDBdevkit/results/GTSDB/SSD_510x300_100_40_Square_1/Main
I1208 11:46:35.053653 17754 net.cpp:150] Setting up detection_out
I1208 11:46:35.053658 17754 net.cpp:157] Top shape: 1 1 1 7 (7)
I1208 11:46:35.053661 17754 net.cpp:165] Memory required for data: 1088402460
I1208 11:46:35.053663 17754 layer_factory.hpp:77] Creating layer detection_eval
I1208 11:46:35.053668 17754 net.cpp:100] Creating Layer detection_eval
I1208 11:46:35.053670 17754 net.cpp:434] detection_eval <- detection_out
I1208 11:46:35.053673 17754 net.cpp:434] detection_eval <- label
I1208 11:46:35.053676 17754 net.cpp:408] detection_eval -> detection_eval
I1208 11:46:35.053766 17754 net.cpp:150] Setting up detection_eval
I1208 11:46:35.053771 17754 net.cpp:157] Top shape: 1 1 5 5 (25)
I1208 11:46:35.053772 17754 net.cpp:165] Memory required for data: 1088402560
I1208 11:46:35.053774 17754 net.cpp:228] detection_eval does not need backward computation.
I1208 11:46:35.053777 17754 net.cpp:228] detection_out does not need backward computation.
I1208 11:46:35.053779 17754 net.cpp:228] mbox_conf_flatten does not need backward computation.
I1208 11:46:35.053781 17754 net.cpp:228] mbox_conf_softmax does not need backward computation.
…
