…
      sampler {
        min_scale: 0.3
        max_scale: 1
        min_aspect_ratio: 0.5
        max_aspect_ratio: 2
      }
      sample_constraint {
        min_jaccard_overlap: 0.9
      }
      max_sample: 1
      max_trials: 50
    }
    batch_sampler {
      sampler {
        min_scale: 0.3
        max_scale: 1
        min_aspect_ratio: 0.5
        max_aspect_ratio: 2
      }
      sample_constraint {
        max_jaccard_overlap: 1
      }
      max_sample: 1
      max_trials: 50
    }
    label_map_file: "data/GTSDB/labelmap_GTSDB.prototxt"
  }
}
layer {
  name: "conv1"
  type: "Convolution"
  bottom: "data"
  top: "conv1"
  param {
    lr_mult: 1
    decay_mult: 1
  }
  convolution_param {
    num_output: 32
    bias_term: false
    pad: 1
    kernel_size: 3
    stride: 2
    weight_filler {
      type: "msra"
    }
  }
}
layer {
  name: "conv1/bn"
  type: "BatchNorm"
  bottom: "conv1"
  top: "conv1"
  batch_norm_param {
    use_global_stats: true
    eps: 1e-05
  }
}
layer {
  name: "conv1/scale"
  type: "Scale"
  bottom: "conv1"
  top: "conv1"
  param {
    lr_mult: 1
    decay_mult: 0
  }
  param {
    lr_mult: 1
    decay_mult: 0
  }
  scale_param {
    filler {
      type: "constant"
      value: 1
    }
    bias_term: true
    bias_filler {
      type: "constant"
      value: 0
    }
  }
}
layer {
  name: "relu1"
  type: "ReLU"
  bottom: "conv1"
  top: "conv1"
}
layer {
  name: "conv2_1/dw"
  type: "DepthwiseConvolution"
  bottom: "conv1"
  top: "conv2_1/dw"
  param {
    lr_mult: 1
    decay_mult: 1
  }
  convolution_param {
    num_output: 32
    bias_term: false
    pad: 1
    kernel_size: 3
    group: 32
    stride: 1
    weight_filler {
      type: "msra"
    }
  }
}
layer {
  name: "conv2_1/dw/bn"
  type: "BatchNorm"
  bottom: "conv2_1/dw"
  top: "conv2_1/dw"
  batch_norm_param {
    use_global_stats: true
    eps: 1e-05
  }
}
layer {
  name: "conv2_1/dw/scale"
  type: "Scale"
  bottom: "conv2_1/dw"
  top: "conv2_1/dw"
  param {
    lr_mult: 1
    decay_mult: 0
  }
  param {
    lr_mult: 1
    decay_mult: 0
  }
  scale_param {
    filler {
      type: "constant"
      value: 1
    }
    bias_term: true
    bias_filler {
      type: "constant"
      value: 0
    }
  }
}
layer {
  name: "relu2_1/dw"
  type: "ReLU"
  bottom: "conv2_1/dw"
  top: "conv2_1/dw"
}
layer {
  name: "conv2_1/sep"
  type: "Convolution"
  bottom: "conv2_1/dw"
  top: "conv2_1/sep"
  param {
    lr_mult: 1
    decay_mult: 1
  }
  convolution_param {
    num_output: 64
    bias_term: false
    pad: 0
    kernel_size: 1
    stride: 1
    weight_filler {
      type: "msra"
    }
  }
}
layer {
  name: "conv2_1/sep/bn"
  type: "BatchNorm"
  bottom: "conv2_1/sep"
  top: "conv2_1/sep"
  batch_norm_param {
    use_global_stats: true
    eps: 1e-05
  }
}
layer {
  name: "conv2_1/sep/scale"
  type: "Scale"
  bottom: "conv2_1/sep"
  top: "conv2_1/sep"
  param {
    lr_mult: 1
    decay_mult: 0
  }
  param {
    lr_mult: 1
    decay_mult: 0
  }
  scale_param {
    filler {
      type: "constant"
      value: 1
    }
    bias_term: true
    bias_filler {
      type: "constant"
      value: 0
    }
  }
}
layer {
  name: "relu2_1/sep"
  type: "ReLU"
  bottom: "conv2_1/sep"
  top: "conv2_1/sep"
}
layer {
  name: "conv2_2/dw"
  type: "DepthwiseConvolution"
  bottom: "conv2_1/sep"
  top: "conv2_2/dw"
  param {
    lr_mult: 1
    decay_mult: 1
  }
  convolution_param {
    num_output: 64
    bias_term: false
    pad: 1
    kernel_size: 3
    group: 64
    stride: 2
    weight_filler {
      type: "msra"
    }
  }
}
layer {
  name: "conv2_2/dw/bn"
  type: "BatchNorm"
  bottom: "conv2_2/dw"
  top: "conv2_2/dw"
  batch_norm_param {
    use_global_stats: true
    eps: 1e-05
  }
}
layer {
  name: "conv2_2/dw/scale"
  type: "Scale"
  bottom: "conv2_2/dw"
  top: "conv2_2/dw"
  param {
    lr_mult: 1
    decay_mult: 0
  }
  param {
    lr_mult: 1
    decay_mult: 0
  }
  scale_param {
    filler {
      type: "constant"
      value: 1
    }
    bias_term: true
    bias_filler {
      type: "constant"
      value: 0
    }
  }
}
layer {
  name: "relu2_2/dw"
  type: "ReLU"
  bottom: "conv2_2/dw"
  top: "conv2_2/dw"
}
layer {
  name: "conv2_2/sep"
  type: "Convolution"
  bottom: "conv2_2/dw"
  top: "conv2_2/sep"
  param {
    lr_mult: 1
    decay_mult: 1
  }
  convolution_param {
    num_output: 128
    bias_term: false
    pad: 0
    kernel_size: 1
    stride: 1
    weight_filler {
      type: "msra"
    }
  }
}
layer {
  name: "conv2_2/sep/bn"
  type: "BatchNorm"
  bottom: "conv2_2/sep"
  top: "conv2_2/sep"
  batch_norm_param {
    use_global_stats: true
    eps: 1e-05
  }
}
layer {
  name: "conv2_2/sep/scale"
  type: "Scale"
  bottom: "conv2_2/sep"
  top: "conv2_2/sep"
  param {
    lr_mult: 1
    decay_mult: 0
  }
  param {
    lr_mult: 1
    decay_mult: 0
  }
  scale_param {
    filler {
      type: "constant"
      value: 1
    }
    bias_term: true
    bias_filler {
      type: "constant"
      value: 0
    }
  }
}
layer {
  name: "relu2_2/sep"
  type: "ReLU"
  bottom: "conv2_2/sep"
  top: "conv2_2/sep"
}
layer {
  name: "conv3_1/dw"
  type: "DepthwiseConvolution"
  bottom: "conv2_2/sep"
  top: "conv3_1/dw"
  param {
    lr_mult: 1
    decay_mult: 1
  }
  convolution_param {
    num_output: 128
    bias_term: false
    pad: 1
    kernel_size: 3
    group: 128
    stride: 1
    weight_filler {
      type: "msra"
    }
  }
}
layer {
  name: "conv3_1/dw/bn"
  type: "BatchNorm"
  bottom: "conv3_1/dw"
  top: "conv3_1/dw"
  batch_norm_param {
    use_global_stats: true
    eps: 1e-05
  }
}
layer {
  name: "conv3_1/dw/scale"
  type: "Scale"
  bottom: "conv3_1/dw"
  top: "conv3_1/dw"
  param {
    lr_mult: 1
    decay_mult: 0
  }
  param {
    lr_mult: 1
    decay_mult: 0
  }
  scale_param {
    filler {
      type: "constant"
      value: 1
    }
    bias_term: true
    bias_filler {
      type: "constant"
      value: 0
    }
  }
}
layer {
  name: "relu3_1/dw"
  type: "ReLU"
  bottom: "conv3_1/dw"
  top: "conv3_1/dw"
}
layer {
  name: "conv3_1/sep"
  type: "Convolution"
  bottom: "conv3_1/dw"
  top: "conv3_1/sep"
  param {
    lr_mult: 1
    decay_mult: 1
  }
  convolution_param {
    num_output: 128
    bias_term: false
    pad: 0
    kernel_size: 1
    stride: 1
    weight_filler {
      type: "msra"
    }
  }
}
layer {
  name: "conv3_1/sep/bn"
  type: "BatchNorm"
  bottom: "conv3_1/sep"
  top: "conv3_1/sep"
  batch_norm_param {
    use_global_stats: true
    eps: 1e-05
  }
}
layer {
  name: "conv3_1/sep/scale"
  type: "Scale"
  bottom: "conv3_1/sep"
  top: "conv3_1/sep"
  param {
    lr_mult: 1
    decay_mult: 0
  }
  param {
    lr_mult: 1
    decay_mult: 0
  }
  scale_param {
    filler {
      type: "constant"
      value: 1
    }
    bias_term: true
    bias_filler {
      type: "constant"
      value: 0
    }
  }
}
layer {
  name: "relu3_1/sep"
  type: "ReLU"
  bottom: "conv3_1/sep"
  top: "conv3_1/sep"
}
layer {
  name: "conv3_2/dw"
  type: "DepthwiseConvolution"
  bottom: "conv3_1/sep"
  top: "conv3_2/dw"
  param {
    lr_mult: 1
    decay_mult: 1
  }
  convolution_param {
    num_output: 128
    bias_term: false
    pad: 1
    kernel_size: 3
    group: 128
    stride: 2
    weight_filler {
      type: "msra"
    }
  }
}
layer {
  name: "conv3_2/dw/bn"
  type: "BatchNorm"
  bottom: "conv3_2/dw"
  top: "conv3_2/dw"
  batch_norm_param {
    use_global_stats: true
    eps: 1e-05
  }
}
layer {
  name: "conv3_2/dw/scale"
  type: "Scale"
  bottom: "conv3_2/dw"
  top: "conv3_2/dw"
  param {
    lr_mult: 1
    decay_mult: 0
  }
  param {
    lr_mult: 1
    decay_mult: 0
  }
  scale_param {
    filler {
      type: "constant"
      value: 1
    }
    bias_term: true
    bias_filler {
      type: "constant"
      value: 0
    }
  }
}
layer {
  name: "relu3_2/dw"
  type: "ReLU"
  bottom: "conv3_2/dw"
  top: "conv3_2/dw"
}
layer {
  name: "conv3_2/sep"
  type: "Convolution"
  bottom: "conv3_2/dw"
  top: "conv3_2/sep"
  param {
    lr_mult: 1
    decay_mult: 1
  }
  convolution_param {
    num_output: 256
    bias_term: false
    pad: 0
    kernel_size: 1
    stride: 1
    weight_filler {
      type: "msra"
    }
  }
}
layer {
  name: "conv3_2/sep/bn"
  type: "BatchNorm"
  bottom: "conv3_2/sep"
  top: "conv3_2/sep"
  batch_norm_param {
    use_global_stats: true
    eps: 1e-05
  }
}
layer {
  name: "conv3_2/sep/scale"
  type: "Scale"
  bottom: "conv3_2/sep"
  top: "conv3_2/sep"
  param {
    lr_mult: 1
    decay_mult: 0
  }
  param {
    lr_mult: 1
    decay_mult: 0
  }
  scale_param {
    filler {
      type: "constant"
      value: 1
    }
    bias_term: true
    bias_filler {
      type: "constant"
      value: 0
    }
  }
}
layer {
  name: "relu3_2/sep"
  type: "ReLU"
  bottom: "conv3_2/sep"
  top: "conv3_2/sep"
}
layer {
  name: "conv4_1/dw"
  type: "DepthwiseConvolution"
  bottom: "conv3_2/sep"
  top: "conv4_1/dw"
  param {
    lr_mult: 1
    decay_mult: 1
  }
  convolution_param {
    num_output: 256
    bias_term: false
    pad: 1
    kernel_size: 3
    group: 256
    stride: 1
    weight_filler {
      type: "msra"
    }
  }
}
layer {
  name: "conv4_1/dw/bn"
  type: "BatchNorm"
  bottom: "conv4_1/dw"
  top: "conv4_1/dw"
  batch_norm_param {
    use_global_stats: true
    eps: 1e-05
  }
}
layer {
  name: "conv4_1/dw/scale"
  type: "Scale"
  bottom: "conv4_1/dw"
  top: "conv4_1/dw"
  param {
    lr_mult: 1
    decay_mult: 0
  }
  param {
    lr_mult: 1
    decay_mult: 0
  }
  scale_param {
    filler {
      type: "constant"
      value: 1
    }
    bias_term: true
    bias_filler {
      type: "constant"
      value: 0
    }
  }
}
layer {
  name: "relu4_1/dw"
  type: "ReLU"
  bottom: "conv4_1/dw"
  top: "conv4_1/dw"
}
layer {
  name: "conv4_1/sep"
  type: "Convolution"
  bottom: "conv4_1/dw"
  top: "conv4_1/sep"
  param {
    lr_mult: 1
    decay_mult: 1
  }
  convolution_param {
    num_output: 256
    bias_term: false
    pad: 0
    kernel_size: 1
    stride: 1
    weight_filler {
      type: "msra"
    }
  }
}
layer {
  name: "conv4_1/sep/bn"
  type: "BatchNorm"
  bottom: "conv4_1/sep"
  top: "conv4_1/sep"
  batch_norm_param {
    use_global_stats: true
    eps: 1e-05
  }
}
layer {
  name: "conv4_1/sep/scale"
  type: "Scale"
  bottom: "conv4_1/sep"
  top: "conv4_1/sep"
  param {
    lr_mult: 1
    decay_mult: 0
  }
  param {
    lr_mult: 1
    decay_mult: 0
  }
  scale_param {
    filler {
      type: "constant"
      value: 1
    }
    bias_term: true
    bias_filler {
      type: "constant"
      value: 0
    }
  }
}
layer {
  name: "relu4_1/sep"
  type: "ReLU"
  bottom: "conv4_1/sep"
  top: "conv4_1/sep"
}
layer {
  name: "conv4_2/dw"
  type: "DepthwiseConvolution"
  bottom: "conv4_1/sep"
  top: "conv4_2/dw"
  param {
    lr_mult: 1
    decay_mult: 1
  }
  convolution_param {
    num_output: 256
    bias_term: false
    pad: 1
    kernel_size: 3
    group: 256
    stride: 2
    weight_filler {
      type: "msra"
    }
  }
}
layer {
  name: "conv4_2/dw/bn"
  type: "BatchNorm"
  bottom: "conv4_2/dw"
  top: "conv4_2/dw"
  batch_norm_param {
    use_global_stats: true
    eps: 1e-05
  }
}
layer {
  name: "conv4_2/dw/scale"
  type: "Scale"
  bottom: "conv4_2/dw"
  top: "conv4_2/dw"
  param {
    lr_mult: 1
    decay_mult: 0
  }
  param {
    lr_mult: 1
    decay_mult: 0
  }
  scale_param {
    filler {
      type: "constant"
      value: 1
    }
    bias_term: true
    bias_filler {
      type: "constant"
      value: 0
    }
  }
}
layer {
  name: "relu4_2/dw"
  type: "ReLU"
  bottom: "conv4_2/dw"
  top: "conv4_2/dw"
}
layer {
  name: "conv4_2/sep"
  type: "Convolution"
  bottom: "conv4_2/dw"
  top: "conv4_2/sep"
  param {
    lr_mult: 1
    decay_mult: 1
  }
  convolution_param {
    num_output: 512
    bias_term: false
    pad: 0
    kernel_size: 1
    stride: 1
    weight_filler {
      type: "msra"
    }
  }
}
layer {
  name: "conv4_2/sep/bn"
  type: "BatchNorm"
  bottom: "conv4_2/sep"
  top: "conv4_2/sep"
  batch_norm_param {
    use_global_stats: true
    eps: 1e-05
  }
}
layer {
  name: "conv4_2/sep/scale"
  type: "Scale"
  bottom: "conv4_2/sep"
  top: "conv4_2/sep"
  param {
    lr_mult: 1
    decay_mult: 0
  }
  param {
    lr_mult: 1
    decay_mult: 0
  }
  scale_param {
    filler {
      type: "constant"
      value: 1
    }
    bias_term: true
    bias_filler {
      type: "constant"
      value: 0
    }
  }
}
layer {
  name: "relu4_2/sep"
  type: "ReLU"
  bottom: "conv4_2/sep"
  top: "conv4_2/sep"
}
layer {
  name: "conv5_1/dw"
  type: "DepthwiseConvolution"
  bottom: "conv4_2/sep"
  top: "conv5_1/dw"
  param {
    lr_mult: 1
    decay_mult: 1
  }
  convolution_param {
    num_output: 512
    bias_term: false
    pad: 1
    kernel_size: 3
    group: 512
    stride: 1
    weight_filler {
      type: "msra"
    }
  }
}
layer {
  name: "conv5_1/dw/bn"
  type: "BatchNorm"
  bottom: "conv5_1/dw"
  top: "conv5_1/dw"
  batch_norm_param {
    use_global_stats: true
    eps: 1e-05
  }
}
layer {
  name: "conv5_1/dw/scale"
  type: "Scale"
  bottom: "conv5_1/dw"
  top: "conv5_1/dw"
  param {
    lr_mult: 1
    decay_mult: 0
  }
  param {
    lr_mult: 1
    decay_mult: 0
  }
  scale_param {
    filler {
      type: "constant"
      value: 1
    }
    bias_term: true
    bias_filler {
      type: "constant"
      value: 0
    }
  }
}
layer {
  name: "relu5_1/dw"
  type: "ReLU"
  bottom: "conv5_1/dw"
  top: "conv5_1/dw"
}
layer {
  name: "conv5_1/sep"
  type: "Convolution"
  bottom: "conv5_1/dw"
  top: "conv5_1/sep"
  param {
    lr_mult: 1
    decay_mult: 1
  }
  convolution_param {
    num_output: 512
    bias_term: false
    pad: 0
    kernel_size: 1
    stride: 1
    weight_filler {
      type: "msra"
    }
  }
}
layer {
  name: "conv5_1/sep/bn"
  type: "BatchNorm"
  bottom: "conv5_1/sep"
  top: "conv5_1/sep"
  batch_norm_param {
    use_global_stats: true
    eps: 1e-05
  }
}
layer {
  name: "conv5_1/sep/scale"
  type: "Scale"
  bottom: "conv5_1/sep"
  top: "conv5_1/sep"
  param {
    lr_mult: 1
    decay_mult: 0
  }
  param {
    lr_mult: 1
    decay_mult: 0
  }
  scale_param {
    filler {
      type: "constant"
      value: 1
    }
    bias_term: true
    bias_filler {
      type: "constant"
      value: 0
    }
  }
}
layer {
  name: "relu5_1/sep"
  type: "ReLU"
  bottom: "conv5_1/sep"
  top: "conv5_1/sep"
}
layer {
  name: "conv5_2/dw"
  type: "DepthwiseConvolution"
  bottom: "conv5_1/sep"
  top: "conv5_2/dw"
  param {
    lr_mult: 1
    decay_mult: 1
  }
  convolution_param {
    num_output: 512
    bias_term: false
    pad: 1
    kernel_size: 3
    group: 512
    stride: 1
    weight_filler {
      type: "msra"
    }
  }
}
layer {
  name: "conv5_2/dw/bn"
  type: "BatchNorm"
  bottom: "conv5_2/dw"
  top: "conv5_2/dw"
  batch_norm_param {
    use_global_stats: true
    eps: 1e-05
  }
}
layer {
  name: "conv5_2/dw/scale"
  type: "Scale"
  bottom: "conv5_2/dw"
  top: "conv5_2/dw"
  param {
    lr_mult: 1
    decay_mult: 0
  }
  param {
    lr_mult: 1
    decay_mult: 0
  }
  scale_param {
    filler {
      type: "constant"
      value: 1
    }
    bias_term: true
    bias_filler {
      type: "constant"
      value: 0
    }
  }
}
layer {
  name: "relu5_2/dw"
  type: "ReLU"
  bottom: "conv5_2/dw"
  top: "conv5_2/dw"
}
layer {
  name: "conv5_2/sep"
  type: "Convolution"
  bottom: "conv5_2/dw"
  top: "conv5_2/sep"
  param {
    lr_mult: 1
    decay_mult: 1
  }
  convolution_param {
    num_output: 512
    bias_term: false
    pad: 0
    kernel_size: 1
    stride: 1
    weight_filler {
      type: "msra"
    }
  }
}
layer {
  name: "conv5_2/sep/bn"
  type: "BatchNorm"
  bottom: "conv5_2/sep"
  top: "conv5_2/sep"
  batch_norm_param {
    use_global_stats: true
    eps: 1e-05
  }
}
layer {
  name: "conv5_2/sep/scale"
  type: "Scale"
  bottom: "conv5_2/sep"
  top: "conv5_2/sep"
  param {
    lr_mult: 1
    decay_mult: 0
  }
  param {
    lr_mult: 1
    decay_mult: 0
  }
  scale_param {
    filler {
      type: "constant"
      value: 1
    }
    bias_term: true
    bias_filler {
      type: "constant"
      value: 0
    }
  }
}
layer {
  name: "relu5_2/sep"
  type: "ReLU"
  bottom: "conv5_2/sep"
  top: "conv5_2/sep"
}
layer {
  name: "conv5_3/dw"
  type: "DepthwiseConvolution"
  bottom: "conv5_2/sep"
  top: "conv5_3/dw"
  param {
    lr_mult: 1
    decay_mult: 1
  }
  convolution_param {
    num_output: 512
    bias_term: false
    pad: 1
    kernel_size: 3
    group: 512
    stride: 1
    weight_filler {
      type: "msra"
    }
  }
}
layer {
  name: "conv5_3/dw/bn"
  type: "BatchNorm"
  bottom: "conv5_3/dw"
  top: "conv5_3/dw"
  batch_norm_param {
    use_global_stats: true
    eps: 1e-05
  }
}
layer {
  name: "conv5_3/dw/scale"
  type: "Scale"
  bottom: "conv5_3/dw"
  top: "conv5_3/dw"
  param {
    lr_mult: 1
    decay_mult: 0
  }
  param {
    lr_mult: 1
    decay_mult: 0
  }
  scale_param {
    filler {
      type: "constant"
      value: 1
    }
    bias_term: true
    bias_filler {
      type: "constant"
      value: 0
    }
  }
}
layer {
  name: "relu5_3/dw"
  type: "ReLU"
  bottom: "conv5_3/dw"
  top: "conv5_3/dw"
}
layer {
  name: "conv5_3/sep"
  type: "Convolution"
  bottom: "conv5_3/dw"
  top: "conv5_3/sep"
  param {
    lr_mult: 1
    decay_mult: 1
  }
  convolution_param {
    num_output: 512
    bias_term: false
    pad: 0
    kernel_size: 1
    stride: 1
    weight_filler {
      type: "msra"
    }
  }
}
layer {
  name: "conv5_3/sep/bn"
  type: "BatchNorm"
  bottom: "conv5_3/sep"
  top: "conv5_3/sep"
  batch_norm_param {
    use_global_stats: true
    eps: 1e-05
  }
}
layer {
  name: "conv5_3/sep/scale"
  type: "Scale"
  bottom: "conv5_3/sep"
  top: "conv5_3/sep"
  param {
    lr_mult: 1
    decay_mult: 0
  }
  param {
    lr_mult: 1
    decay_mult: 0
  }
  scale_param {
    filler {
      type: "constant"
      value: 1
    }
    bias_term: true
    bias_filler {
      type: "constant"
      value: 0
    }
  }
}
layer {
  name: "relu5_3/sep"
  type: "ReLU"
  bottom: "conv5_3/sep"
  top: "conv5_3/sep"
}
layer {
  name: "conv5_4/dw"
  type: "DepthwiseConvolution"
  bottom: "conv5_3/sep"
  top: "conv5_4/dw"
  param {
    lr_mult: 1
    decay_mult: 1
  }
  convolution_param {
    num_output: 512
    bias_term: false
    pad: 1
    kernel_size: 3
    group: 512
    stride: 1
    weight_filler {
      type: "msra"
    }
  }
}
layer {
  name: "conv5_4/dw/bn"
  type: "BatchNorm"
  bottom: "conv5_4/dw"
  top: "conv5_4/dw"
  batch_norm_param {
    use_global_stats: true
    eps: 1e-05
  }
}
layer {
  name: "conv5_4/dw/scale"
  type: "Scale"
  bottom: "conv5_4/dw"
  top: "conv5_4/dw"
  param {
    lr_mult: 1
    decay_mult: 0
  }
  param {
    lr_mult: 1
    decay_mult: 0
  }
  scale_param {
    filler {
      type: "constant"
      value: 1
    }
    bias_term: true
    bias_filler {
      type: "constant"
      value: 0
    }
  }
}
layer {
  name: "relu5_4/dw"
  type: "ReLU"
  bottom: "conv5_4/dw"
  top: "conv5_4/dw"
}
layer {
  name: "conv5_4/sep"
  type: "Convolution"
  bottom: "conv5_4/dw"
  top: "conv5_4/sep"
  param {
    lr_mult: 1
    decay_mult: 1
  }
  convolution_param {
    num_output: 512
    bias_term: false
    pad: 0
    kernel_size: 1
    stride: 1
    weight_filler {
      type: "msra"
    }
  }
}
layer {
  name: "conv5_4/sep/bn"
  type: "BatchNorm"
  bottom: "conv5_4/sep"
  top: "conv5_4/sep"
  batch_norm_param {
    use_global_stats: true
    eps: 1e-05
  }
}
layer {
  name: "conv5_4/sep/scale"
  type: "Scale"
  bottom: "conv5_4/sep"
  top: "conv5_4/sep"
  param {
    lr_mult: 1
    decay_mult: 0
  }
  param {
    lr_mult: 1
    decay_mult: 0
  }
  scale_param {
    filler {
      type: "constant"
      value: 1
    }
    bias_term: true
    bias_filler {
      type: "constant"
      value: 0
    }
  }
}
layer {
  name: "relu5_4/sep"
  type: "ReLU"
  bottom: "conv5_4/sep"
  top: "conv5_4/sep"
}
layer {
  name: "conv5_5/dw"
  type: "DepthwiseConvolution"
  bottom: "conv5_4/sep"
  top: "conv5_5/dw"
  param {
    lr_mult: 1
    decay_mult: 1
  }
  convolution_param {
    num_output: 512
    bias_term: false
    pad: 1
    kernel_size: 3
    group: 512
    stride: 1
    weight_filler {
      type: "msra"
    }
  }
}
layer {
  name: "conv5_5/dw/bn"
  type: "BatchNorm"
  bottom: "conv5_5/dw"
  top: "conv5_5/dw"
  batch_norm_param {
    use_global_stats: true
    eps: 1e-05
  }
}
layer {
  name: "conv5_5/dw/scale"
  type: "Scale"
  bottom: "conv5_5/dw"
  top: "conv5_5/dw"
  param {
    lr_mult: 1
    decay_mult: 0
  }
  param {
    lr_mult: 1
    decay_mult: 0
  }
  scale_param {
    filler {
      type: "constant"
      value: 1
    }
    bias_term: true
    bias_filler {
      type: "constant"
      value: 0
    }
  }
}
layer {
  name: "relu5_5/dw"
  type: "ReLU"
  bottom: "conv5_5/dw"
  top: "conv5_5/dw"
}
layer {
  name: "conv5_5/sep"
  type: "Convolution"
  bottom: "conv5_5/dw"
  top: "conv5_5/sep"
  param {
    lr_mult: 1
    decay_mult: 1
  }
  convolution_param {
    num_output: 512
    bias_term: false
    pad: 0
    kernel_size: 1
    stride: 1
    weight_filler {
      type: "msra"
    }
  }
}
layer {
  name: "conv5_5/sep/bn"
  type: "BatchNorm"
  bottom: "conv5_5/sep"
  top: "conv5_5/sep"
  batch_norm_param {
    use_global_stats: true
    eps: 1e-05
  }
}
layer {
  name: "conv5_5/sep/scale"
  type: "Scale"
  bottom: "conv5_5/sep"
  top: "conv5_5/sep"
  param {
    lr_mult: 1
    decay_mult: 0
  }
  param {
    lr_mult: 1
    decay_mult: 0
  }
  scale_param {
    filler {
      type: "constant"
      value: 1
    }
    bias_term: true
    bias_filler {
      type: "constant"
      value: 0
    }
  }
}
layer {
  name: "relu5_5/sep"
  type: "ReLU"
  bottom: "conv5_5/sep"
  top: "conv5_5/sep"
}
layer {
  name: "conv5_6/dw"
  type: "DepthwiseConvolution"
  bottom: "conv5_5/sep"
  top: "conv5_6/dw"
  param {
    lr_mult: 1
    decay_mult: 1
  }
  convolution_param {
    num_output: 512
    bias_term: false
    pad: 1
    kernel_size: 3
    group: 512
    stride: 2
    weight_filler {
      type: "msra"
    }
  }
}
layer {
  name: "conv5_6/dw/bn"
  type: "BatchNorm"
  bottom: "conv5_6/dw"
  top: "conv5_6/dw"
  batch_norm_param {
    use_global_stats: true
    eps: 1e-05
  }
}
layer {
  name: "conv5_6/dw/scale"
  type: "Scale"
  bottom: "conv5_6/dw"
  top: "conv5_6/dw"
  param {
    lr_mult: 1
    decay_mult: 0
  }
  param {
    lr_mult: 1
    decay_mult: 0
  }
  scale_param {
    filler {
      type: "constant"
      value: 1
    }
    bias_term: true
    bias_filler {
      type: "constant"
      value: 0
    }
  }
}
layer {
  name: "relu5_6/dw"
  type: "ReLU"
  bottom: "conv5_6/dw"
  top: "conv5_6/dw"
}
layer {
  name: "conv5_6/sep"
  type: "Convolution"
  bottom: "conv5_6/dw"
  top: "conv5_6/sep"
  param {
    lr_mult: 1
    decay_mult: 1
  }
  convolution_param {
    num_output: 1024
    bias_term: false
    pad: 0
    kernel_size: 1
    stride: 1
    weight_filler {
      type: "msra"
    }
  }
}
layer {
  name: "conv5_6/sep/bn"
  type: "BatchNorm"
  bottom: "conv5_6/sep"
  top: "conv5_6/sep"
  batch_norm_param {
    use_global_stats: true
    eps: 1e-05
  }
}
layer {
  name: "conv5_6/sep/scale"
  type: "Scale"
  bottom: "conv5_6/sep"
  top: "conv5_6/sep"
  param {
    lr_mult: 1
    decay_mult: 0
  }
  param {
    lr_mult: 1
    decay_mult: 0
  }
  scale_param {
    filler {
      type: "constant"
      value: 1
    }
    bias_term: true
    bias_filler {
      type: "constant"
      value: 0
    }
  }
}
layer {
  name: "relu5_6/sep"
  type: "ReLU"
  bottom: "conv5_6/sep"
  top: "conv5_6/sep"
}
layer {
  name: "conv6/dw"
  type: "DepthwiseConvolution"
  bottom: "conv5_6/sep"
  top: "conv6/dw"
  param {
    lr_mult: 1
    decay_mult: 1
  }
  convolution_param {
    num_output: 1024
    bias_term: false
    pad: 1
    kernel_size: 3
    group: 1024
    stride: 1
    weight_filler {
      type: "msra"
    }
  }
}
layer {
  name: "conv6/dw/bn"
  type: "BatchNorm"
  bottom: "conv6/dw"
  top: "conv6/dw"
  batch_norm_param {
    use_global_stats: true
    eps: 1e-05
  }
}
layer {
  name: "conv6/dw/scale"
  type: "Scale"
  bottom: "conv6/dw"
  top: "conv6/dw"
  param {
    lr_mult: 1
    decay_mult: 0
  }
  param {
    lr_mult: 1
    decay_mult: 0
  }
  scale_param {
    filler {
      type: "constant"
      value: 1
    }
    bias_term: true
    bias_filler {
      type: "constant"
      value: 0
    }
  }
}
layer {
  name: "relu6/dw"
  type: "ReLU"
  bottom: "conv6/dw"
  top: "conv6/dw"
}
layer {
  name: "conv6/sep"
  type: "Convolution"
  bottom: "conv6/dw"
  top: "conv6/sep"
  param {
    lr_mult: 1
    decay_mult: 1
  }
  convolution_param {
    num_output: 1024
    bias_term: false
    pad: 0
    kernel_size: 1
    stride: 1
    weight_filler {
      type: "msra"
    }
  }
}
layer {
  name: "conv6/sep/bn"
  type: "BatchNorm"
  bottom: "conv6/sep"
  top: "conv6/sep"
  batch_norm_param {
    use_global_stats: true
    eps: 1e-05
  }
}
layer {
  name: "conv6/sep/scale"
  type: "Scale"
  bottom: "conv6/sep"
  top: "conv6/sep"
  param {
    lr_mult: 1
    decay_mult: 0
  }
  param {
    lr_mult: 1
    decay_mult: 0
  }
  scale_param {
    filler {
      type: "constant"
      value: 1
    }
    bias_term: true
    bias_filler {
      type: "constant"
      value: 0
    }
  }
}
layer {
  name: "relu6/sep"
  type: "ReLU"
  bottom: "conv6/sep"
  top: "conv6/sep"
}
layer {
  name: "ssd1_1"
  type: "Convolution"
  bottom: "conv6/sep"
  top: "ssd1_1"
  param {
    lr_mult: 1
    decay_mult: 1
  }
  param {
    lr_mult: 2
    decay_mult: 0
  }
  convolution_param {
    num_output: 256
    pad: 0
    kernel_size: 1
    stride: 1
    weight_filler {
      type: "xavier"
    }
    bias_filler {
      type: "constant"
      value: 0
    }
  }
}
layer {
  name: "ssd1_1_relu"
  type: "ReLU"
  bottom: "ssd1_1"
  top: "ssd1_1"
}
layer {
  name: "ssd1_2"
  type: "Convolution"
  bottom: "ssd1_1"
  top: "ssd1_2"
  param {
    lr_mult: 1
    decay_mult: 1
  }
  param {
    lr_mult: 2
    decay_mult: 0
  }
  convolution_param {
    num_output: 512
    pad: 1
    kernel_size: 3
    stride: 2
    weight_filler {
      type: "xavier"
    }
    bias_filler {
      type: "constant"
      value: 0
    }
  }
}
layer {
  name: "ssd1_2_relu"
  type: "ReLU"
  bottom: "ssd1_2"
  top: "ssd1_2"
}
layer {
  name: "ssd2_1"
  type: "Convolution"
  bottom: "ssd1_2"
  top: "ssd2_1"
  param {
    lr_mult: 1
    decay_mult: 1
  }
  param {
    lr_mult: 2
    decay_mult: 0
  }
  convolution_param {
    num_output: 128
    pad: 0
    kernel_size: 1
    stride: 1
    weight_filler {
      type: "xavier"
    }
    bias_filler {
      type: "constant"
      value: 0
    }
  }
}
layer {
  name: "ssd2_1_relu"
  type: "ReLU"
  bottom: "ssd2_1"
  top: "ssd2_1"
}
layer {
  name: "ssd2_2"
  type: "Convolution"
  bottom: "ssd2_1"
  top: "ssd2_2"
  param {
    lr_mult: 1
    decay_mult: 1
  }
  param {
    lr_mult: 2
    decay_mult: 0
  }
  convolution_param {
    num_output: 256
    pad: 1
    kernel_size: 3
    stride: 2
    weight_filler {
      type: "xavier"
    }
    bias_filler {
      type: "constant"
      value: 0
    }
  }
}
layer {
  name: "ssd2_2_relu"
  type: "ReLU"
  bottom: "ssd2_2"
  top: "ssd2_2"
}
layer {
  name: "ssd3_1"
  type: "Convolution"
  bottom: "ssd2_2"
  top: "ssd3_1"
  param {
    lr_mult: 1
    decay_mult: 1
  }
  param {
    lr_mult: 2
    decay_mult: 0
  }
  convolution_param {
    num_output: 128
    pad: 0
    kernel_size: 1
    stride: 1
    weight_filler {
      type: "xavier"
    }
    bias_filler {
      type: "constant"
      value: 0
    }
  }
}
layer {
  name: "ssd3_1_relu"
  type: "ReLU"
  bottom: "ssd3_1"
  top: "ssd3_1"
}
layer {
  name: "ssd3_2"
  type: "Convolution"
  bottom: "ssd3_1"
  top: "ssd3_2"
  param {
    lr_mult: 1
    decay_mult: 1
  }
  param {
    lr_mult: 2
    d
I1208 16:04:44.079411  1790 layer_factory.hpp:77] Creating layer data
I1208 16:04:44.079506  1790 net.cpp:100] Creating Layer data
I1208 16:04:44.079515  1790 net.cpp:408] data -> data
I1208 16:04:44.079538  1790 net.cpp:408] data -> label
I1208 16:04:44.080065  1798 db_lmdb.cpp:35] Opened lmdb examples/GTSDB/GTSDB_trainval_lmdb
I1208 16:04:44.092834  1790 annotated_data_layer.cpp:62] output data size: 2,3,300,510
I1208 16:04:44.097101  1790 net.cpp:150] Setting up data
I1208 16:04:44.097118  1790 net.cpp:157] Top shape: 2 3 300 510 (918000)
I1208 16:04:44.097122  1790 net.cpp:157] Top shape: 1 1 3 8 (24)
I1208 16:04:44.097124  1790 net.cpp:165] Memory required for data: 3672096
I1208 16:04:44.097131  1790 layer_factory.hpp:77] Creating layer data_data_0_split
I1208 16:04:44.097141  1790 net.cpp:100] Creating Layer data_data_0_split
I1208 16:04:44.097143  1790 net.cpp:434] data_data_0_split <- data
I1208 16:04:44.097154  1790 net.cpp:408] data_data_0_split -> data_data_0_split_0
I1208 16:04:44.097160  1790 net.cpp:408] data_data_0_split -> data_data_0_split_1
I1208 16:04:44.097165  1790 net.cpp:408] data_data_0_split -> data_data_0_split_2
I1208 16:04:44.097169  1790 net.cpp:408] data_data_0_split -> data_data_0_split_3
I1208 16:04:44.097173  1790 net.cpp:408] data_data_0_split -> data_data_0_split_4
I1208 16:04:44.097177  1790 net.cpp:408] data_data_0_split -> data_data_0_split_5
I1208 16:04:44.097182  1790 net.cpp:408] data_data_0_split -> data_data_0_split_6
I1208 16:04:44.097252  1790 net.cpp:150] Setting up data_data_0_split
I1208 16:04:44.097256  1790 net.cpp:157] Top shape: 2 3 300 510 (918000)
I1208 16:04:44.097259  1790 net.cpp:157] Top shape: 2 3 300 510 (918000)
I1208 16:04:44.097262  1790 net.cpp:157] Top shape: 2 3 300 510 (918000)
I1208 16:04:44.097265  1790 net.cpp:157] Top shape: 2 3 300 510 (918000)
I1208 16:04:44.097268  1790 net.cpp:157] Top shape: 2 3 300 510 (918000)
I1208 16:04:44.097270  1790 net.cpp:157] Top shape: 2 3 300 510 (918000)
I1208 16:04:44.097273  1790 net.cpp:157] Top shape: 2 3 300 510 (918000)
I1208 16:04:44.097275  1790 net.cpp:165] Memory required for data: 29376096
I1208 16:04:44.097277  1790 layer_factory.hpp:77] Creating layer conv1
I1208 16:04:44.097287  1790 net.cpp:100] Creating Layer conv1
I1208 16:04:44.097290  1790 net.cpp:434] conv1 <- data_data_0_split_0
I1208 16:04:44.097295  1790 net.cpp:408] conv1 -> conv1
I1208 16:04:44.441681  1790 net.cpp:150] Setting up conv1
I1208 16:04:44.441702  1790 net.cpp:157] Top shape: 2 32 150 255 (2448000)
I1208 16:04:44.441705  1790 net.cpp:165] Memory required for data: 39168096
I1208 16:04:44.441717  1790 layer_factory.hpp:77] Creating layer conv1/bn
I1208 16:04:44.441725  1790 net.cpp:100] Creating Layer conv1/bn
I1208 16:04:44.441726  1790 net.cpp:434] conv1/bn <- conv1
I1208 16:04:44.441730  1790 net.cpp:395] conv1/bn -> conv1 (in-place)
I1208 16:04:44.442307  1790 net.cpp:150] Setting up conv1/bn
I1208 16:04:44.442315  1790 net.cpp:157] Top shape: 2 32 150 255 (2448000)
I1208 16:04:44.442317  1790 net.cpp:165] Memory required for data: 48960096
I1208 16:04:44.442324  1790 layer_factory.hpp:77] Creating layer conv1/scale
I1208 16:04:44.442330  1790 net.cpp:100] Creating Layer conv1/scale
I1208 16:04:44.442332  1790 net.cpp:434] conv1/scale <- conv1
I1208 16:04:44.442335  1790 net.cpp:395] conv1/scale -> conv1 (in-place)
I1208 16:04:44.442364  1790 layer_factory.hpp:77] Creating layer conv1/scale
I1208 16:04:44.442453  1790 net.cpp:150] Setting up conv1/scale
I1208 16:04:44.442457  1790 net.cpp:157] Top shape: 2 32 150 255 (2448000)
I1208 16:04:44.442459  1790 net.cpp:165] Memory required for data: 58752096
I1208 16:04:44.442463  1790 layer_factory.hpp:77] Creating layer relu1
I1208 16:04:44.442467  1790 net.cpp:100] Creating Layer relu1
I1208 16:04:44.442468  1790 net.cpp:434] relu1 <- conv1
I1208 16:04:44.442471  1790 net.cpp:395] relu1 -> conv1 (in-place)
I1208 16:04:44.442708  1790 net.cpp:150] Setting up relu1
I1208 16:04:44.442713  1790 net.cpp:157] Top shape: 2 32 150 255 (2448000)
I1208 16:04:44.442715  1790 net.cpp:165] Memory required for data: 68544096
I1208 16:04:44.442718  1790 layer_factory.hpp:77] Creating layer conv2_1/dw
I1208 16:04:44.442723  1790 net.cpp:100] Creating Layer conv2_1/dw
I1208 16:04:44.442724  1790 net.cpp:434] conv2_1/dw <- conv1
I1208 16:04:44.442728  1790 net.cpp:408] conv2_1/dw -> conv2_1/dw
I1208 16:04:44.442845  1790 net.cpp:150] Setting up conv2_1/dw
I1208 16:04:44.442850  1790 net.cpp:157] Top shape: 2 32 150 255 (2448000)
I1208 16:04:44.442852  1790 net.cpp:165] Memory required for data: 78336096
I1208 16:04:44.442854  1790 layer_factory.hpp:77] Creating layer conv2_1/dw/bn
I1208 16:04:44.442857  1790 net.cpp:100] Creating Layer conv2_1/dw/bn
I1208 16:04:44.442859  1790 net.cpp:434] conv2_1/dw/bn <- conv2_1/dw
I1208 16:04:44.442862  1790 net.cpp:395] conv2_1/dw/bn -> conv2_1/dw (in-place)
I1208 16:04:44.442981  1790 net.cpp:150] Setting up conv2_1/dw/bn
I1208 16:04:44.442984  1790 net.cpp:157] Top shape: 2 32 150 255 (2448000)
I1208 16:04:44.442986  1790 net.cpp:165] Memory required for data: 88128096
I1208 16:04:44.442991  1790 layer_factory.hpp:77] Creating layer conv2_1/dw/scale
I1208 16:04:44.442996  1790 net.cpp:100] Creating Layer conv2_1/dw/scale
I1208 16:04:44.442998  1790 net.cpp:434] conv2_1/dw/scale <- conv2_1/dw
I1208 16:04:44.443001  1790 net.cpp:395] conv2_1/dw/scale -> conv2_1/dw (in-place)
I1208 16:04:44.443024  1790 layer_factory.hpp:77] Creating layer conv2_1/dw/scale
I1208 16:04:44.443104  1790 net.cpp:150] Setting up conv2_1/dw/scale
I1208 16:04:44.443119  1790 net.cpp:157] Top shape: 2 32 150 255 (2448000)
I1208 16:04:44.443121  1790 net.cpp:165] Memory required for data: 97920096
I1208 16:04:44.443125  1790 layer_factory.hpp:77] Creating layer relu2_1/dw
I1208 16:04:44.443127  1790 net.cpp:100] Creating Layer relu2_1/dw
I1208 16:04:44.443130  1790 net.cpp:434] relu2_1/dw <- conv2_1/dw
I1208 16:04:44.443132  1790 net.cpp:395] relu2_1/dw -> conv2_1/dw (in-place)
I1208 16:04:44.443455  1790 net.cpp:150] Setting up relu2_1/dw
I1208 16:04:44.443467  1790 net.cpp:157] Top shape: 2 32 150 255 (2448000)
I1208 16:04:44.443470  1790 net.cpp:165] Memory required for data: 107712096
I1208 16:04:44.443473  1790 layer_factory.hpp:77] Creating layer conv2_1/sep
I1208 16:04:44.443478  1790 net.cpp:100] Creating Layer conv2_1/sep
I1208 16:04:44.443480  1790 net.cpp:434] conv2_1/sep <- conv2_1/dw
I1208 16:04:44.443483  1790 net.cpp:408] conv2_1/sep -> conv2_1/sep
I1208 16:04:44.444813  1790 net.cpp:150] Setting up conv2_1/sep
I1208 16:04:44.444823  1790 net.cpp:157] Top shape: 2 64 150 255 (4896000)
I1208 16:04:44.444823  1790 net.cpp:165] Memory required for data: 127296096
I1208 16:04:44.444828  1790 layer_factory.hpp:77] Creating layer conv2_1/sep/bn
I1208 16:04:44.444831  1790 net.cpp:100] Creating Layer conv2_1/sep/bn
I1208 16:04:44.444833  1790 net.cpp:434] conv2_1/sep/bn <- conv2_1/sep
I1208 16:04:44.444835  1790 net.cpp:395] conv2_1/sep/bn -> conv2_1/sep (in-place)
I1208 16:04:44.444960  1790 net.cpp:150] Setting up conv2_1/sep/bn
I1208 16:04:44.444964  1790 net.cpp:157] Top shape: 2 64 150 255 (4896000)
I1208 16:04:44.444967  1790 net.cpp:165] Memory required for data: 146880096
I1208 16:04:44.444970  1790 layer_factory.hpp:77] Creating layer conv2_1/sep/scale
I1208 16:04:44.444974  1790 net.cpp:100] Creating Layer conv2_1/sep/scale
I1208 16:04:44.444977  1790 net.cpp:434] conv2_1/sep/scale <- conv2_1/sep
I1208 16:04:44.444978  1790 net.cpp:395] conv2_1/sep/scale -> conv2_1/sep (in-place)
I1208 16:04:44.445000  1790 layer_factory.hpp:77] Creating layer conv2_1/sep/scale
I1208 16:04:44.445085  1790 net.cpp:150] Setting up conv2_1/sep/scale
I1208 16:04:44.445088  1790 net.cpp:157] Top shape: 2 64 150 255 (4896000)
I1208 16:04:44.445091  1790 net.cpp:165] Memory required for data: 166464096
I1208 16:04:44.445096  1790 layer_factory.hpp:77] Creating layer relu2_1/sep
I1208 16:04:44.445098  1790 net.cpp:100] Creating Layer relu2_1/sep
I1208 16:04:44.445101  1790 net.cpp:434] relu2_1/sep <- conv2_1/sep
I1208 16:04:44.445103  1790 net.cpp:395] relu2_1/sep -> conv2_1/sep (in-place)
I1208 16:04:44.445324  1790 net.cpp:150] Setting up relu2_1/sep
I1208 16:04:44.445329  1790 net.cpp:157] Top shape: 2 64 150 255 (4896000)
I1208 16:04:44.445331  1790 net.cpp:165] Memory required for data: 186048096
I1208 16:04:44.445333  1790 layer_factory.hpp:77] Creating layer conv2_2/dw
I1208 16:04:44.445338  1790 net.cpp:100] Creating Layer conv2_2/dw
I1208 16:04:44.445339  1790 net.cpp:434] conv2_2/dw <- conv2_1/sep
I1208 16:04:44.445343  1790 net.cpp:408] conv2_2/dw -> conv2_2/dw
I1208 16:04:44.445461  1790 net.cpp:150] Setting up conv2_2/dw
I1208 16:04:44.445464  1790 net.cpp:157] Top shape: 2 64 75 128 (1228800)
I1208 16:04:44.445466  1790 net.cpp:165] Memory required for data: 190963296
I1208 16:04:44.445469  1790 layer_factory.hpp:77] Creating layer conv2_2/dw/bn
I1208 16:04:44.445472  1790 net.cpp:100] Creating Layer conv2_2/dw/bn
I1208 16:04:44.445473  1790 net.cpp:434] conv2_2/dw/bn <- conv2_2/dw
I1208 16:04:44.445477  1790 net.cpp:395] conv2_2/dw/bn -> conv2_2/dw (in-place)
I1208 16:04:44.446022  1790 net.cpp:150] Setting up conv2_2/dw/bn
I1208 16:04:44.446028  1790 net.cpp:157] Top shape: 2 64 75 128 (1228800)
I1208 16:04:44.446029  1790 net.cpp:165] Memory required for data: 195878496
I1208 16:04:44.446034  1790 layer_factory.hpp:77] Creating layer conv2_2/dw/scale
I1208 16:04:44.446040  1790 net.cpp:100] Creating Layer conv2_2/dw/scale
I1208 16:04:44.446041  1790 net.cpp:434] conv2_2/dw/scale <- conv2_2/dw
I1208 16:04:44.446045  1790 net.cpp:395] conv2_2/dw/scale -> conv2_2/dw (in-place)
I1208 16:04:44.446080  1790 layer_factory.hpp:77] Creating layer conv2_2/dw/scale
I1208 16:04:44.446146  1790 net.cpp:150] Setting up conv2_2/dw/scale
I1208 16:04:44.446151  1790 net.cpp:157] Top shape: 2 64 75 128 (1228800)
I1208 16:04:44.446151  1790 net.cpp:165] Memory required for data: 200793696
I1208 16:04:44.446154  1790 layer_factory.hpp:77] Creating layer relu2_2/dw
I1208 16:04:44.446158  1790 net.cpp:100] Creating Layer relu2_2/dw
I1208 16:04:44.446159  1790 net.cpp:434] relu2_2/dw <- conv2_2/dw
I1208 16:04:44.446162  1790 net.cpp:395] relu2_2/dw -> conv2_2/dw (in-place)
I1208 16:04:44.447110  1790 net.cpp:150] Setting up relu2_2/dw
I1208 16:04:44.447118  1790 net.cpp:157] Top shape: 2 64 75 128 (1228800)
I1208 16:04:44.447120  1790 net.cpp:165] Memory required for data: 205708896
I1208 16:04:44.447122  1790 layer_factory.hpp:77] Creating layer conv2_2/sep
I1208 16:04:44.447129  1790 net.cpp:100] Creating Layer conv2_2/sep
I1208 16:04:44.447130  1790 net.cpp:434] conv2_2/sep <- conv2_2/dw
I1208 16:04:44.447135  1790 net.cpp:408] conv2_2/sep -> conv2_2/sep
I1208 16:04:44.448307  1790 net.cpp:150] Setting up conv2_2/sep
I1208 16:04:44.448314  1790 net.cpp:157] Top shape: 2 128 75 128 (2457600)
I1208 16:04:44.448316  1790 net.cpp:165] Memory required for data: 215539296
I1208 16:04:44.448320  1790 layer_factory.hpp:77] Creating layer conv2_2/sep/bn
I1208 16:04:44.448324  1790 net.cpp:100] Creating Layer conv2_2/sep/bn
I1208 16:04:44.448326  1790 net.cpp:434] conv2_2/sep/bn <- conv2_2/sep
I1208 16:04:44.448329  1790 net.cpp:395] conv2_2/sep/bn -> conv2_2/sep (in-place)
I1208 16:04:44.448451  1790 net.cpp:150] Setting up conv2_2/sep/bn
I1208 16:04:44.448454  1790 net.cpp:157] Top shape: 2 128 75 128 (2457600)
I1208 16:04:44.448456  1790 net.cpp:165] Memory required for data: 225369696
I1208 16:04:44.448459  1790 layer_factory.hpp:77] Creating layer conv2_2/sep/scale
I1208 16:04:44.448464  1790 net.cpp:100] Creating Layer conv2_2/sep/scale
I1208 16:04:44.448467  1790 net.cpp:434] conv2_2/sep/scale <- conv2_2/sep
I1208 16:04:44.448468  1790 net.cpp:395] conv2_2/sep/scale -> conv2_2/sep (in-place)
I1208 16:04:44.448493  1790 layer_factory.hpp:77] Creating layer conv2_2/sep/scale
I1208 16:04:44.448559  1790 net.cpp:150] Setting up conv2_2/sep/scale
I1208 16:04:44.448562  1790 net.cpp:157] Top shape: 2 128 75 128 (2457600)
I1208 16:04:44.448565  1790 net.cpp:165] Memory required for data: 235200096
I1208 16:04:44.448567  1790 layer_factory.hpp:77] Creating layer relu2_2/sep
I1208 16:04:44.448570  1790 net.cpp:100] Creating Layer relu2_2/sep
I1208 16:04:44.448572  1790 net.cpp:434] relu2_2/sep <- conv2_2/sep
I1208 16:04:44.448575  1790 net.cpp:395] relu2_2/sep -> conv2_2/sep (in-place)
I1208 16:04:44.448837  1790 net.cpp:150] Setting up relu2_2/sep
I1208 16:04:44.448843  1790 net.cpp:157] Top shape: 2 128 75 128 (2457600)
I1208 16:04:44.448845  1790 net.cpp:165] Memory required for data: 245030496
I1208 16:04:44.448848  1790 layer_factory.hpp:77] Creating layer conv3_1/dw
I1208 16:04:44.448851  1790 net.cpp:100] Creating Layer conv3_1/dw
I1208 16:04:44.448853  1790 net.cpp:434] conv3_1/dw <- conv2_2/sep
I1208 16:04:44.448856  1790 net.cpp:408] conv3_1/dw -> conv3_1/dw
I1208 16:04:44.448983  1790 net.cpp:150] Setting up conv3_1/dw
I1208 16:04:44.448987  1790 net.cpp:157] Top shape: 2 128 75 128 (2457600)
I1208 16:04:44.448988  1790 net.cpp:165] Memory required for data: 254860896
I1208 16:04:44.448992  1790 layer_factory.hpp:77] Creating layer conv3_1/dw/bn
I1208 16:04:44.448994  1790 net.cpp:100] Creating Layer conv3_1/dw/bn
I1208 16:04:44.448997  1790 net.cpp:434] conv3_1/dw/bn <- conv3_1/dw
I1208 16:04:44.448999  1790 net.cpp:395] conv3_1/dw/bn -> conv3_1/dw (in-place)
I1208 16:04:44.449110  1790 net.cpp:150] Setting up conv3_1/dw/bn
I1208 16:04:44.449113  1790 net.cpp:157] Top shape: 2 128 75 128 (2457600)
I1208 16:04:44.449115  1790 net.cpp:165] Memory required for data: 264691296
I1208 16:04:44.449122  1790 layer_factory.hpp:77] Creating layer conv3_1/dw/scale
I1208 16:04:44.449126  1790 net.cpp:100] Creating Layer conv3_1/dw/scale
I1208 16:04:44.449136  1790 net.cpp:434] conv3_1/dw/scale <- conv3_1/dw
I1208 16:04:44.449141  1790 net.cpp:395] conv3_1/dw/scale -> conv3_1/dw (in-place)
I1208 16:04:44.449164  1790 layer_factory.hpp:77] Creating layer conv3_1/dw/scale
I1208 16:04:44.449229  1790 net.cpp:150] Setting up conv3_1/dw/scale
I1208 16:04:44.449234  1790 net.cpp:157] Top shape: 2 128 75 128 (2457600)
I1208 16:04:44.449235  1790 net.cpp:165] Memory required for data: 274521696
I1208 16:04:44.449239  1790 layer_factory.hpp:77] Creating layer relu3_1/dw
I1208 16:04:44.449242  1790 net.cpp:100] Creating Layer relu3_1/dw
I1208 16:04:44.449244  1790 net.cpp:434] relu3_1/dw <- conv3_1/dw
I1208 16:04:44.449246  1790 net.cpp:395] relu3_1/dw -> conv3_1/dw (in-place)
I1208 16:04:44.449604  1790 net.cpp:150] Setting up relu3_1/dw
I1208 16:04:44.449610  1790 net.cpp:157] Top shape: 2 128 75 128 (2457600)
I1208 16:04:44.449612  1790 net.cpp:165] Memory required for data: 284352096
I1208 16:04:44.449615  1790 layer_factory.hpp:77] Creating layer conv3_1/sep
I1208 16:04:44.449620  1790 net.cpp:100] Creating Layer conv3_1/sep
I1208 16:04:44.449622  1790 net.cpp:434] conv3_1/sep <- conv3_1/dw
I1208 16:04:44.449626  1790 net.cpp:408] conv3_1/sep -> conv3_1/sep
I1208 16:04:44.450729  1790 net.cpp:150] Setting up conv3_1/sep
I1208 16:04:44.450736  1790 net.cpp:157] Top shape: 2 128 75 128 (2457600)
I1208 16:04:44.450738  1790 net.cpp:165] Memory required for data: 294182496
I1208 16:04:44.450742  1790 layer_factory.hpp:77] Creating layer conv3_1/sep/bn
I1208 16:04:44.450745  1790 net.cpp:100] Creating Layer conv3_1/sep/bn
I1208 16:04:44.450748  1790 net.cpp:434] conv3_1/sep/bn <- conv3_1/sep
I1208 16:04:44.450752  1790 net.cpp:395] conv3_1/sep/bn -> conv3_1/sep (in-place)
I1208 16:04:44.450870  1790 net.cpp:150] Setting up conv3_1/sep/bn
I1208 16:04:44.450873  1790 net.cpp:157] Top shape: 2 128 75 128 (2457600)
I1208 16:04:44.450875  1790 net.cpp:165] Memory required for data: 304012896
I1208 16:04:44.450879  1790 layer_factory.hpp:77] Creating layer conv3_1/sep/scale
I1208 16:04:44.450884  1790 net.cpp:100] Creating Layer conv3_1/sep/scale
I1208 16:04:44.450886  1790 net.cpp:434] conv3_1/sep/scale <- conv3_1/sep
I1208 16:04:44.450889  1790 net.cpp:395] conv3_1/sep/scale -> conv3_1/sep (in-place)
I1208 16:04:44.450912  1790 layer_factory.hpp:77] Creating layer conv3_1/sep/scale
I1208 16:04:44.450978  1790 net.cpp:150] Setting up conv3_1/sep/scale
I1208 16:04:44.450981  1790 net.cpp:157] Top shape: 2 128 75 128 (2457600)
I1208 16:04:44.450984  1790 net.cpp:165] Memory required for data: 313843296
I1208 16:04:44.450986  1790 layer_factory.hpp:77] Creating layer relu3_1/sep
I1208 16:04:44.450990  1790 net.cpp:100] Creating Layer relu3_1/sep
I1208 16:04:44.450992  1790 net.cpp:434] relu3_1/sep <- conv3_1/sep
I1208 16:04:44.450995  1790 net.cpp:395] relu3_1/sep -> conv3_1/sep (in-place)
I1208 16:04:44.451254  1790 net.cpp:150] Setting up relu3_1/sep
I1208 16:04:44.451261  1790 net.cpp:157] Top shape: 2 128 75 128 (2457600)
I1208 16:04:44.451262  1790 net.cpp:165] Memory required for data: 323673696
I1208 16:04:44.451265  1790 layer_factory.hpp:77] Creating layer conv3_2/dw
I1208 16:04:44.451269  1790 net.cpp:100] Creating Layer conv3_2/dw
I1208 16:04:44.451272  1790 net.cpp:434] conv3_2/dw <- conv3_1/sep
I1208 16:04:44.451274  1790 net.cpp:408] conv3_2/dw -> conv3_2/dw
I1208 16:04:44.451403  1790 net.cpp:150] Setting up conv3_2/dw
I1208 16:04:44.451408  1790 net.cpp:157] Top shape: 2 128 38 64 (622592)
I1208 16:04:44.451411  1790 net.cpp:165] Memory required for data: 326164064
I1208 16:04:44.451413  1790 layer_factory.hpp:77] Creating layer conv3_2/dw/bn
I1208 16:04:44.451418  1790 net.cpp:100] Creating Layer conv3_2/dw/bn
I1208 16:04:44.451421  1790 net.cpp:434] conv3_2/dw/bn <- conv3_2/dw
I1208 16:04:44.451423  1790 net.cpp:395] conv3_2/dw/bn -> conv3_2/dw (in-place)
I1208 16:04:44.451539  1790 net.cpp:150] Setting up conv3_2/dw/bn
I1208 16:04:44.451544  1790 net.cpp:157] Top shape: 2 128 38 64 (622592)
I1208 16:04:44.451552  1790 net.cpp:165] Memory required for data: 328654432
I1208 16:04:44.451557  1790 layer_factory.hpp:77] Creating layer conv3_2/dw/scale
I1208 16:04:44.451562  1790 net.cpp:100] Creating Layer conv3_2/dw/scale
I1208 16:04:44.451565  1790 net.cpp:434] conv3_2/dw/scale <- conv3_2/dw
I1208 16:04:44.451568  1790 net.cpp:395] conv3_2/dw/scale -> conv3_2/dw (in-place)
I1208 16:04:44.451593  1790 layer_factory.hpp:77] Creating layer conv3_2/dw/scale
I1208 16:04:44.451655  1790 net.cpp:150] Setting up conv3_2/dw/scale
I1208 16:04:44.451659  1790 net.cpp:157] Top shape: 2 128 38 64 (622592)
I1208 16:04:44.451661  1790 net.cpp:165] Memory required for data: 331144800
I1208 16:04:44.451664  1790 layer_factory.hpp:77] Creating layer relu3_2/dw
I1208 16:04:44.451668  1790 net.cpp:100] Creating Layer relu3_2/dw
I1208 16:04:44.451670  1790 net.cpp:434] relu3_2/dw <- conv3_2/dw
I1208 16:04:44.451673  1790 net.cpp:395] relu3_2/dw -> conv3_2/dw (in-place)
I1208 16:04:44.452667  1790 net.cpp:150] Setting up relu3_2/dw
I1208 16:04:44.452675  1790 net.cpp:157] Top shape: 2 128 38 64 (622592)
I1208 16:04:44.452678  1790 net.cpp:165] Memory required for data: 333635168
I1208 16:04:44.452680  1790 layer_factory.hpp:77] Creating layer conv3_2/sep
I1208 16:04:44.452687  1790 net.cpp:100] Creating Layer conv3_2/sep
I1208 16:04:44.452689  1790 net.cpp:434] conv3_2/sep <- conv3_2/dw
I1208 16:04:44.452693  1790 net.cpp:408] conv3_2/sep -> conv3_2/sep
I1208 16:04:44.453958  1790 net.cpp:150] Setting up conv3_2/sep
I1208 16:04:44.453966  1790 net.cpp:157] Top shape: 2 256 38 64 (1245184)
I1208 16:04:44.453969  1790 net.cpp:165] Memory required for data: 338615904
I1208 16:04:44.453972  1790 layer_factory.hpp:77] Creating layer conv3_2/sep/bn
I1208 16:04:44.453977  1790 net.cpp:100] Creating Layer conv3_2/sep/bn
I1208 16:04:44.453980  1790 net.cpp:434] conv3_2/sep/bn <- conv3_2/sep
I1208 16:04:44.453984  1790 net.cpp:395] conv3_2/sep/bn -> conv3_2/sep (in-place)
I1208 16:04:44.454104  1790 net.cpp:150] Setting up conv3_2/sep/bn
I1208 16:04:44.454108  1790 net.cpp:157] Top shape: 2 256 38 64 (1245184)
I1208 16:04:44.454110  1790 net.cpp:165] Memory required for data: 343596640
I1208 16:04:44.454114  1790 layer_factory.hpp:77] Creating layer conv3_2/sep/scale
I1208 16:04:44.454118  1790 net.cpp:100] Creating Layer conv3_2/sep/scale
I1208 16:04:44.454120  1790 net.cpp:434] conv3_2/sep/scale <- conv3_2/sep
I1208 16:04:44.454123  1790 net.cpp:395] conv3_2/sep/scale -> conv3_2/sep (in-place)
I1208 16:04:44.454147  1790 layer_factory.hpp:77] Creating layer conv3_2/sep/scale
I1208 16:04:44.454212  1790 net.cpp:150] Setting up conv3_2/sep/scale
I1208 16:04:44.454217  1790 net.cpp:157] Top shape: 2 256 38 64 (1245184)
I1208 16:04:44.454219  1790 net.cpp:165] Memory required for data: 348577376
I1208 16:04:44.454222  1790 layer_factory.hpp:77] Creating layer relu3_2/sep
I1208 16:04:44.454226  1790 net.cpp:100] Creating Layer relu3_2/sep
I1208 16:04:44.454228  1790 net.cpp:434] relu3_2/sep <- conv3_2/sep
I1208 16:04:44.454231  1790 net.cpp:395] relu3_2/sep -> conv3_2/sep (in-place)
I1208 16:04:44.454497  1790 net.cpp:150] Setting up relu3_2/sep
I1208 16:04:44.454504  1790 net.cpp:157] Top shape: 2 256 38 64 (1245184)
I1208 16:04:44.454505  1790 net.cpp:165] Memory required for data: 353558112
I1208 16:04:44.454507  1790 layer_factory.hpp:77] Creating layer conv4_1/dw
I1208 16:04:44.454512  1790 net.cpp:100] Creating Layer conv4_1/dw
I1208 16:04:44.454515  1790 net.cpp:434] conv4_1/dw <- conv3_2/sep
I1208 16:04:44.454519  1790 net.cpp:408] conv4_1/dw -> conv4_1/dw
I1208 16:04:44.454654  1790 net.cpp:150] Setting up conv4_1/dw
I1208 16:04:44.454658  1790 net.cpp:157] Top shape: 2 256 38 64 (1245184)
I1208 16:04:44.454660  1790 net.cpp:165] Memory required for data: 358538848
I1208 16:04:44.454663  1790 layer_factory.hpp:77] Creating layer conv4_1/dw/bn
I1208 16:04:44.454668  1790 net.cpp:100] Creating Layer conv4_1/dw/bn
I1208 16:04:44.454670  1790 net.cpp:434] conv4_1/dw/bn <- conv4_1/dw
I1208 16:04:44.454674  1790 net.cpp:395] conv4_1/dw/bn -> conv4_1/dw (in-place)
I1208 16:04:44.454802  1790 net.cpp:150] Setting up conv4_1/dw/bn
I1208 16:04:44.454805  1790 net.cpp:157] Top shape: 2 256 38 64 (1245184)
I1208 16:04:44.454807  1790 net.cpp:165] Memory required for data: 363519584
I1208 16:04:44.454811  1790 layer_factory.hpp:77] Creating layer conv4_1/dw/scale
I1208 16:04:44.454815  1790 net.cpp:100] Creating Layer conv4_1/dw/scale
I1208 16:04:44.454818  1790 net.cpp:434] conv4_1/dw/scale <- conv4_1/dw
I1208 16:04:44.454821  1790 net.cpp:395] conv4_1/dw/scale -> conv4_1/dw (in-place)
I1208 16:04:44.454844  1790 layer_factory.hpp:77] Creating layer conv4_1/dw/scale
I1208 16:04:44.454908  1790 net.cpp:150] Setting up conv4_1/dw/scale
I1208 16:04:44.454912  1790 net.cpp:157] Top shape: 2 256 38 64 (1245184)
I1208 16:04:44.454915  1790 net.cpp:165] Memory required for data: 368500320
I1208 16:04:44.454917  1790 layer_factory.hpp:77] Creating layer relu4_1/dw
I1208 16:04:44.454921  1790 net.cpp:100] Creating Layer relu4_1/dw
I1208 16:04:44.454922  1790 net.cpp:434] relu4_1/dw <- conv4_1/dw
I1208 16:04:44.454926  1790 net.cpp:395] relu4_1/dw -> conv4_1/dw (in-place)
I1208 16:04:44.455304  1790 net.cpp:150] Setting up relu4_1/dw
I1208 16:04:44.455312  1790 net.cpp:157] Top shape: 2 256 38 64 (1245184)
I1208 16:04:44.455312  1790 net.cpp:165] Memory required for data: 373481056
I1208 16:04:44.455315  1790 layer_factory.hpp:77] Creating layer conv4_1/sep
I1208 16:04:44.455320  1790 net.cpp:100] Creating Layer conv4_1/sep
I1208 16:04:44.455322  1790 net.cpp:434] conv4_1/sep <- conv4_1/dw
I1208 16:04:44.455327  1790 net.cpp:408] conv4_1/sep -> conv4_1/sep
I1208 16:04:44.456743  1790 net.cpp:150] Setting up conv4_1/sep
I1208 16:04:44.456751  1790 net.cpp:157] Top shape: 2 256 38 64 (1245184)
I1208 16:04:44.456753  1790 net.cpp:165] Memory required for data: 378461792
I1208 16:04:44.456756  1790 layer_factory.hpp:77] Creating layer conv4_1/sep/bn
I1208 16:04:44.456761  1790 net.cpp:100] Creating Layer conv4_1/sep/bn
I1208 16:04:44.456764  1790 net.cpp:434] conv4_1/sep/bn <- conv4_1/sep
I1208 16:04:44.456768  1790 net.cpp:395] conv4_1/sep/bn -> conv4_1/sep (in-place)
I1208 16:04:44.456887  1790 net.cpp:150] Setting up conv4_1/sep/bn
I1208 16:04:44.456890  1790 net.cpp:157] Top shape: 2 256 38 64 (1245184)
I1208 16:04:44.456892  1790 net.cpp:165] Memory required for data: 383442528
I1208 16:04:44.456897  1790 layer_factory.hpp:77] Creating layer conv4_1/sep/scale
I1208 16:04:44.456902  1790 net.cpp:100] Creating Layer conv4_1/sep/scale
I1208 16:04:44.456903  1790 net.cpp:434] conv4_1/sep/scale <- conv4_1/sep
I1208 16:04:44.456905  1790 net.cpp:395] conv4_1/sep/scale -> conv4_1/sep (in-place)
I1208 16:04:44.456930  1790 layer_factory.hpp:77] Creating layer conv4_1/sep/scale
I1208 16:04:44.456995  1790 net.cpp:150] Setting up conv4_1/sep/scale
I1208 16:04:44.456998  1790 net.cpp:157] Top shape: 2 256 38 64 (1245184)
I1208 16:04:44.457000  1790 net.cpp:165] Memory required for data: 388423264
I1208 16:04:44.457010  1790 layer_factory.hpp:77] Creating layer relu4_1/sep
I1208 16:04:44.457013  1790 net.cpp:100] Creating Layer relu4_1/sep
I1208 16:04:44.457015  1790 net.cpp:434] relu4_1/sep <- conv4_1/sep
I1208 16:04:44.457018  1790 net.cpp:395] relu4_1/sep -> conv4_1/sep (in-place)
I1208 16:04:44.457283  1790 net.cpp:150] Setting up relu4_1/sep
I1208 16:04:44.457290  1790 net.cpp:157] Top shape: 2 256 38 64 (1245184)
I1208 16:04:44.457293  1790 net.cpp:165] Memory required for data: 393404000
I1208 16:04:44.457294  1790 layer_factory.hpp:77] Creating layer conv4_2/dw
I1208 16:04:44.457299  1790 net.cpp:100] Creating Layer conv4_2/dw
I1208 16:04:44.457303  1790 net.cpp:434] conv4_2/dw <- conv4_1/sep
I1208 16:04:44.457304  1790 net.cpp:408] conv4_2/dw -> conv4_2/dw
I1208 16:04:44.457443  1790 net.cpp:150] Setting up conv4_2/dw
I1208 16:04:44.457448  1790 net.cpp:157] Top shape: 2 256 19 32 (311296)
I1208 16:04:44.457449  1790 net.cpp:165] Memory required for data: 394649184
I1208 16:04:44.457453  1790 layer_factory.hpp:77] Creating layer conv4_2/dw/bn
I1208 16:04:44.457456  1790 net.cpp:100] Creating Layer conv4_2/dw/bn
I1208 16:04:44.457468  1790 net.cpp:434] conv4_2/dw/bn <- conv4_2/dw
I1208 16:04:44.457469  1790 net.cpp:395] conv4_2/dw/bn -> conv4_2/dw (in-place)
I1208 16:04:44.457593  1790 net.cpp:150] Setting up conv4_2/dw/bn
I1208 16:04:44.457597  1790 net.cpp:157] Top shape: 2 256 19 32 (311296)
I1208 16:04:44.457599  1790 net.cpp:165] Memory required for data: 395894368
I1208 16:04:44.457603  1790 layer_factory.hpp:77] Creating layer conv4_2/dw/scale
I1208 16:04:44.457607  1790 net.cpp:100] Creating Layer conv4_2/dw/scale
I1208 16:04:44.457609  1790 net.cpp:434] conv4_2/dw/scale <- conv4_2/dw
I1208 16:04:44.457612  1790 net.cpp:395] conv4_2/dw/scale -> conv4_2/dw (in-place)
I1208 16:04:44.457636  1790 layer_factory.hpp:77] Creating layer conv4_2/dw/scale
I1208 16:04:44.457708  1790 net.cpp:150] Setting up conv4_2/dw/scale
I1208 16:04:44.457712  1790 net.cpp:157] Top shape: 2 256 19 32 (311296)
I1208 16:04:44.457715  1790 net.cpp:165] Memory required for data: 397139552
I1208 16:04:44.457717  1790 layer_factory.hpp:77] Creating layer relu4_2/dw
I1208 16:04:44.457720  1790 net.cpp:100] Creating Layer relu4_2/dw
I1208 16:04:44.457723  1790 net.cpp:434] relu4_2/dw <- conv4_2/dw
I1208 16:04:44.457726  1790 net.cpp:395] relu4_2/dw -> conv4_2/dw (in-place)
I1208 16:04:44.458741  1790 net.cpp:150] Setting up relu4_2/dw
I1208 16:04:44.458748  1790 net.cpp:157] Top shape: 2 256 19 32 (311296)
I1208 16:04:44.458751  1790 net.cpp:165] Memory required for data: 398384736
I1208 16:04:44.458753  1790 layer_factory.hpp:77] Creating layer conv4_2/sep
I1208 16:04:44.458760  1790 net.cpp:100] Creating Layer conv4_2/sep
I1208 16:04:44.458762  1790 net.cpp:434] conv4_2/sep <- conv4_2/dw
I1208 16:04:44.458766  1790 net.cpp:408] conv4_2/sep -> conv4_2/sep
I1208 16:04:44.460985  1790 net.cpp:150] Setting up conv4_2/sep
I1208 16:04:44.460994  1790 net.cpp:157] Top shape: 2 512 19 32 (622592)
I1208 16:04:44.460995  1790 net.cpp:165] Memory required for data: 400875104
I1208 16:04:44.460999  1790 layer_factory.hpp:77] Creating layer conv4_2/sep/bn
I1208 16:04:44.461004  1790 net.cpp:100] Creating Layer conv4_2/sep/bn
I1208 16:04:44.461005  1790 net.cpp:434] conv4_2/sep/bn <- conv4_2/sep
I1208 16:04:44.461009  1790 net.cpp:395] conv4_2/sep/bn -> conv4_2/sep (in-place)
I1208 16:04:44.461140  1790 net.cpp:150] Setting up conv4_2/sep/bn
I1208 16:04:44.461144  1790 net.cpp:157] Top shape: 2 512 19 32 (622592)
I1208 16:04:44.461145  1790 net.cpp:165] Memory required for data: 403365472
I1208 16:04:44.461149  1790 layer_factory.hpp:77] Creating layer conv4_2/sep/scale
I1208 16:04:44.461153  1790 net.cpp:100] Creating Layer conv4_2/sep/scale
I1208 16:04:44.461155  1790 net.cpp:434] conv4_2/sep/scale <- conv4_2/sep
I1208 16:04:44.461158  1790 net.cpp:395] conv4_2/sep/scale -> conv4_2/sep (in-place)
I1208 16:04:44.461185  1790 layer_factory.hpp:77] Creating layer conv4_2/sep/scale
I1208 16:04:44.461257  1790 net.cpp:150] Setting up conv4_2/sep/scale
I1208 16:04:44.461261  1790 net.cpp:157] Top shape: 2 512 19 32 (622592)
I1208 16:04:44.461262  1790 net.cpp:165] Memory required for data: 405855840
I1208 16:04:44.461266  1790 layer_factory.hpp:77] Creating layer relu4_2/sep
I1208 16:04:44.461269  1790 net.cpp:100] Creating Layer relu4_2/sep
I1208 16:04:44.461271  1790 net.cpp:434] relu4_2/sep <- conv4_2/sep
I1208 16:04:44.461273  1790 net.cpp:395] relu4_2/sep -> conv4_2/sep (in-place)
I1208 16:04:44.461541  1790 net.cpp:150] Setting up relu4_2/sep
I1208 16:04:44.461546  1790 net.cpp:157] Top shape: 2 512 19 32 (622592)
I1208 16:04:44.461549  1790 net.cpp:165] Memory required for data: 408346208
I1208 16:04:44.461550  1790 layer_factory.hpp:77] Creating layer conv5_1/dw
I1208 16:04:44.461555  1790 net.cpp:100] Creating Layer conv5_1/dw
I1208 16:04:44.461556  1790 net.cpp:434] conv5_1/dw <- conv4_2/sep
I1208 16:04:44.461560  1790 net.cpp:408] conv5_1/dw -> conv5_1/dw
I1208 16:04:44.461711  1790 net.cpp:150] Setting up conv5_1/dw
I1208 16:04:44.461715  1790 net.cpp:157] Top shape: 2 512 19 32 (622592)
I1208 16:04:44.461717  1790 net.cpp:165] Memory required for data: 410836576
I1208 16:04:44.461730  1790 layer_factory.hpp:77] Creating layer conv5_1/dw/bn
I1208 16:04:44.461733  1790 net.cpp:100] Creating Layer conv5_1/dw/bn
I1208 16:04:44.461735  1790 net.cpp:434] conv5_1/dw/bn <- conv5_1/dw
I1208 16:04:44.461738  1790 net.cpp:395] conv5_1/dw/bn -> conv5_1/dw (in-place)
I1208 16:04:44.461864  1790 net.cpp:150] Setting up conv5_1/dw/bn
I1208 16:04:44.461869  1790 net.cpp:157] Top shape: 2 512 19 32 (622592)
I1208 16:04:44.461869  1790 net.cpp:165] Memory required for data: 413326944
I1208 16:04:44.461874  1790 layer_factory.hpp:77] Creating layer conv5_1/dw/scale
I1208 16:04:44.461877  1790 net.cpp:100] Creating Layer conv5_1/dw/scale
I1208 16:04:44.461879  1790 net.cpp:434] conv5_1/dw/scale <- conv5_1/dw
I1208 16:04:44.461881  1790 net.cpp:395] conv5_1/dw/scale -> conv5_1/dw (in-place)
I1208 16:04:44.461906  1790 layer_factory.hpp:77] Creating layer conv5_1/dw/scale
I1208 16:04:44.461978  1790 net.cpp:150] Setting up conv5_1/dw/scale
I1208 16:04:44.461982  1790 net.cpp:157] Top shape: 2 512 19 32 (622592)
I1208 16:04:44.461983  1790 net.cpp:165] Memory required for data: 415817312
I1208 16:04:44.461987  1790 layer_factory.hpp:77] Creating layer relu5_1/dw
I1208 16:04:44.461990  1790 net.cpp:100] Creating Layer relu5_1/dw
I1208 16:04:44.461992  1790 net.cpp:434] relu5_1/dw <- conv5_1/dw
I1208 16:04:44.461994  1790 net.cpp:395] relu5_1/dw -> conv5_1/dw (in-place)
I1208 16:04:44.462359  1790 net.cpp:150] Setting up relu5_1/dw
I1208 16:04:44.462366  1790 net.cpp:157] Top shape: 2 512 19 32 (622592)
I1208 16:04:44.462368  1790 net.cpp:165] Memory required for data: 418307680
I1208 16:04:44.462369  1790 layer_factory.hpp:77] Creating layer conv5_1/sep
I1208 16:04:44.462375  1790 net.cpp:100] Creating Layer conv5_1/sep
I1208 16:04:44.462378  1790 net.cpp:434] conv5_1/sep <- conv5_1/dw
I1208 16:04:44.462381  1790 net.cpp:408] conv5_1/sep -> conv5_1/sep
I1208 16:04:44.464865  1790 net.cpp:150] Setting up conv5_1/sep
I1208 16:04:44.464874  1790 net.cpp:157] Top shape: 2 512 19 32 (622592)
I1208 16:04:44.464875  1790 net.cpp:165] Memory required for data: 420798048
I1208 16:04:44.464879  1790 layer_factory.hpp:77] Creating layer conv5_1/sep/bn
I1208 16:04:44.464882  1790 net.cpp:100] Creating Layer conv5_1/sep/bn
I1208 16:04:44.464884  1790 net.cpp:434] conv5_1/sep/bn <- conv5_1/sep
I1208 16:04:44.464887  1790 net.cpp:395] conv5_1/sep/bn -> conv5_1/sep (in-place)
I1208 16:04:44.465016  1790 net.cpp:150] Setting up conv5_1/sep/bn
I1208 16:04:44.465020  1790 net.cpp:157] Top shape: 2 512 19 32 (622592)
I1208 16:04:44.465023  1790 net.cpp:165] Memory required for data: 423288416
I1208 16:04:44.465026  1790 layer_factory.hpp:77] Creating layer conv5_1/sep/scale
I1208 16:04:44.465029  1790 net.cpp:100] Creating Layer conv5_1/sep/scale
I1208 16:04:44.465031  1790 net.cpp:434] conv5_1/sep/scale <- conv5_1/sep
I1208 16:04:44.465034  1790 net.cpp:395] conv5_1/sep/scale -> conv5_1/sep (in-place)
I1208 16:04:44.465060  1790 layer_factory.hpp:77] Creating layer conv5_1/sep/scale
I1208 16:04:44.465132  1790 net.cpp:150] Setting up conv5_1/sep/scale
I1208 16:04:44.465137  1790 net.cpp:157] Top shape: 2 512 19 32 (622592)
I1208 16:04:44.465138  1790 net.cpp:165] Memory required for data: 425778784
I1208 16:04:44.465142  1790 layer_factory.hpp:77] Creating layer relu5_1/sep
I1208 16:04:44.465144  1790 net.cpp:100] Creating Layer relu5_1/sep
I1208 16:04:44.465145  1790 net.cpp:434] relu5_1/sep <- conv5_1/sep
I1208 16:04:44.465148  1790 net.cpp:395] relu5_1/sep -> conv5_1/sep (in-place)
I1208 16:04:44.465414  1790 net.cpp:150] Setting up relu5_1/sep
I1208 16:04:44.465418  1790 net.cpp:157] Top shape: 2 512 19 32 (622592)
I1208 16:04:44.465420  1790 net.cpp:165] Memory required for data: 428269152
I1208 16:04:44.465422  1790 layer_factory.hpp:77] Creating layer conv5_2/dw
I1208 16:04:44.465426  1790 net.cpp:100] Creating Layer conv5_2/dw
I1208 16:04:44.465428  1790 net.cpp:434] conv5_2/dw <- conv5_1/sep
I1208 16:04:44.465431  1790 net.cpp:408] conv5_2/dw -> conv5_2/dw
I1208 16:04:44.465584  1790 net.cpp:150] Setting up conv5_2/dw
I1208 16:04:44.465596  1790 net.cpp:157] Top shape: 2 512 19 32 (622592)
I1208 16:04:44.465597  1790 net.cpp:165] Memory required for data: 430759520
I1208 16:04:44.465600  1790 layer_factory.hpp:77] Creating layer conv5_2/dw/bn
I1208 16:04:44.465605  1790 net.cpp:100] Creating Layer conv5_2/dw/bn
I1208 16:04:44.465606  1790 net.cpp:434] conv5_2/dw/bn <- conv5_2/dw
I1208 16:04:44.465608  1790 net.cpp:395] conv5_2/dw/bn -> conv5_2/dw (in-place)
I1208 16:04:44.465735  1790 net.cpp:150] Setting up conv5_2/dw/bn
I1208 16:04:44.465739  1790 net.cpp:157] Top shape: 2 512 19 32 (622592)
I1208 16:04:44.465741  1790 net.cpp:165] Memory required for data: 433249888
I1208 16:04:44.465744  1790 layer_factory.hpp:77] Creating layer conv5_2/dw/scale
I1208 16:04:44.465754  1790 net.cpp:100] Creating Layer conv5_2/dw/scale
I1208 16:04:44.465756  1790 net.cpp:434] conv5_2/dw/scale <- conv5_2/dw
I1208 16:04:44.465759  1790 net.cpp:395] conv5_2/dw/scale -> conv5_2/dw (in-place)
I1208 16:04:44.465785  1790 layer_factory.hpp:77] Creating layer conv5_2/dw/scale
I1208 16:04:44.465855  1790 net.cpp:150] Setting up conv5_2/dw/scale
I1208 16:04:44.465859  1790 net.cpp:157] Top shape: 2 512 19 32 (622592)
I1208 16:04:44.465862  1790 net.cpp:165] Memory required for data: 435740256
I1208 16:04:44.465864  1790 layer_factory.hpp:77] Creating layer relu5_2/dw
I1208 16:04:44.465867  1790 net.cpp:100] Creating Layer relu5_2/dw
I1208 16:04:44.465869  1790 net.cpp:434] relu5_2/dw <- conv5_2/dw
I1208 16:04:44.465871  1790 net.cpp:395] relu5_2/dw -> conv5_2/dw (in-place)
I1208 16:04:44.466238  1790 net.cpp:150] Setting up relu5_2/dw
I1208 16:04:44.466245  1790 net.cpp:157] Top shape: 2 512 19 32 (622592)
I1208 16:04:44.466248  1790 net.cpp:165] Memory required for data: 438230624
I1208 16:04:44.466250  1790 layer_factory.hpp:77] Creating layer conv5_2/sep
I1208 16:04:44.466256  1790 net.cpp:100] Creating Layer conv5_2/sep
I1208 16:04:44.466259  1790 net.cpp:434] conv5_2/sep <- conv5_2/dw
I1208 16:04:44.466262  1790 net.cpp:408] conv5_2/sep -> conv5_2/sep
I1208 16:04:44.469960  1790 net.cpp:150] Setting up conv5_2/sep
I1208 16:04:44.469975  1790 net.cpp:157] Top shape: 2 512 19 32 (622592)
I1208 16:04:44.469977  1790 net.cpp:165] Memory required for data: 440720992
I1208 16:04:44.469985  1790 layer_factory.hpp:77] Creating layer conv5_2/sep/bn
I1208 16:04:44.469992  1790 net.cpp:100] Creating Layer conv5_2/sep/bn
I1208 16:04:44.469996  1790 net.cpp:434] conv5_2/sep/bn <- conv5_2/sep
I1208 16:04:44.470000  1790 net.cpp:395] conv5_2/sep/bn -> conv5_2/sep (in-place)
I1208 16:04:44.470139  1790 net.cpp:150] Setting up conv5_2/sep/bn
I1208 16:04:44.470142  1790 net.cpp:157] Top shape: 2 512 19 32 (622592)
I1208 16:04:44.470144  1790 net.cpp:165] Memory required for data: 443211360
I1208 16:04:44.470149  1790 layer_factory.hpp:77] Creating layer conv5_2/sep/scale
I1208 16:04:44.470156  1790 net.cpp:100] Creating Layer conv5_2/sep/scale
I1208 16:04:44.470160  1790 net.cpp:434] conv5_2/sep/scale <- conv5_2/sep
I1208 16:04:44.470163  1790 net.cpp:395] conv5_2/sep/scale -> conv5_2/sep (in-place)
I1208 16:04:44.470206  1790 layer_factory.hpp:77] Creating layer conv5_2/sep/scale
I1208 16:04:44.470288  1790 net.cpp:150] Setting up conv5_2/sep/scale
I1208 16:04:44.470293  1790 net.cpp:157] Top shape: 2 512 19 32 (622592)
I1208 16:04:44.470295  1790 net.cpp:165] Memory required for data: 445701728
I1208 16:04:44.470300  1790 layer_factory.hpp:77] Creating layer relu5_2/sep
I1208 16:04:44.470307  1790 net.cpp:100] Creating Layer relu5_2/sep
I1208 16:04:44.470310  1790 net.cpp:434] relu5_2/sep <- conv5_2/sep
I1208 16:04:44.470314  1790 net.cpp:395] relu5_2/sep -> conv5_2/sep (in-place)
I1208 16:04:44.470588  1790 net.cpp:150] Setting up relu5_2/sep
I1208 16:04:44.470594  1790 net.cpp:157] Top shape: 2 512 19 32 (622592)
I1208 16:04:44.470597  1790 net.cpp:165] Memory required for data: 448192096
I1208 16:04:44.470600  1790 layer_factory.hpp:77] Creating layer conv5_3/dw
I1208 16:04:44.470607  1790 net.cpp:100] Creating Layer conv5_3/dw
I1208 16:04:44.470619  1790 net.cpp:434] conv5_3/dw <- conv5_2/sep
I1208 16:04:44.470625  1790 net.cpp:408] conv5_3/dw -> conv5_3/dw
I1208 16:04:44.470789  1790 net.cpp:150] Setting up conv5_3/dw
I1208 16:04:44.470795  1790 net.cpp:157] Top shape: 2 512 19 32 (622592)
I1208 16:04:44.470798  1790 net.cpp:165] Memory required for data: 450682464
I1208 16:04:44.470803  1790 layer_factory.hpp:77] Creating layer conv5_3/dw/bn
I1208 16:04:44.470808  1790 net.cpp:100] Creating Layer conv5_3/dw/bn
I1208 16:04:44.470813  1790 net.cpp:434] conv5_3/dw/bn <- conv5_3/dw
I1208 16:04:44.470818  1790 net.cpp:395] conv5_3/dw/bn -> conv5_3/dw (in-place)
I1208 16:04:44.470950  1790 net.cpp:150] Setting up conv5_3/dw/bn
I1208 16:04:44.470955  1790 net.cpp:157] Top shape: 2 512 19 32 (622592)
I1208 16:04:44.470957  1790 net.cpp:165] Memory required for data: 453172832
I1208 16:04:44.470964  1790 layer_factory.hpp:77] Creating layer conv5_3/dw/scale
I1208 16:04:44.470969  1790 net.cpp:100] Creating Layer conv5_3/dw/scale
I1208 16:04:44.470971  1790 net.cpp:434] conv5_3/dw/scale <- conv5_3/dw
I1208 16:04:44.470978  1790 net.cpp:395] conv5_3/dw/scale -> conv5_3/dw (in-place)
I1208 16:04:44.471009  1790 layer_factory.hpp:77] Creating layer conv5_3/dw/scale
I1208 16:04:44.471086  1790 net.cpp:150] Setting up conv5_3/dw/scale
I1208 16:04:44.471091  1790 net.cpp:157] Top shape: 2 512 19 32 (622592)
I1208 16:04:44.471093  1790 net.cpp:165] Memory required for data: 455663200
I1208 16:04:44.471099  1790 layer_factory.hpp:77] Creating layer relu5_3/dw
I1208 16:04:44.471103  1790 net.cpp:100] Creating Layer relu5_3/dw
I1208 16:04:44.471107  1790 net.cpp:434] relu5_3/dw <- conv5_3/dw
I1208 16:04:44.471112  1790 net.cpp:395] relu5_3/dw -> conv5_3/dw (in-place)
I1208 16:04:44.471525  1790 net.cpp:150] Setting up relu5_3/dw
I1208 16:04:44.471534  1790 net.cpp:157] Top shape: 2 512 19 32 (622592)
I1208 16:04:44.471535  1790 net.cpp:165] Memory required for data: 458153568
I1208 16:04:44.471539  1790 layer_factory.hpp:77] Creating layer conv5_3/sep
I1208 16:04:44.471547  1790 net.cpp:100] Creating Layer conv5_3/sep
I1208 16:04:44.471551  1790 net.cpp:434] conv5_3/sep <- conv5_3/dw
I1208 16:04:44.471557  1790 net.cpp:408] conv5_3/sep -> conv5_3/sep
I1208 16:04:44.474340  1790 net.cpp:150] Setting up conv5_3/sep
I1208 16:04:44.474361  1790 net.cpp:157] Top shape: 2 512 19 32 (622592)
I1208 16:04:44.474364  1790 net.cpp:165] Memory required for data: 460643936
I1208 16:04:44.474375  1790 layer_factory.hpp:77] Creating layer conv5_3/sep/bn
I1208 16:04:44.474385  1790 net.cpp:100] Creating Layer conv5_3/sep/bn
I1208 16:04:44.474391  1790 net.cpp:434] conv5_3/sep/bn <- conv5_3/sep
I1208 16:04:44.474400  1790 net.cpp:395] conv5_3/sep/bn -> conv5_3/sep (in-place)
I1208 16:04:44.474555  1790 net.cpp:150] Setting up conv5_3/sep/bn
I1208 16:04:44.474560  1790 net.cpp:157] Top shape: 2 512 19 32 (622592)
I1208 16:04:44.474563  1790 net.cpp:165] Memory required for data: 463134304
I1208 16:04:44.474570  1790 layer_factory.hpp:77] Creating layer conv5_3/sep/scale
I1208 16:04:44.474576  1790 net.cpp:100] Creating Layer conv5_3/sep/scale
I1208 16:04:44.474581  1790 net.cpp:434] conv5_3/sep/scale <- conv5_3/sep
I1208 16:04:44.474586  1790 net.cpp:395] conv5_3/sep/scale -> conv5_3/sep (in-place)
I1208 16:04:44.474624  1790 layer_factory.hpp:77] Creating layer conv5_3/sep/scale
I1208 16:04:44.474706  1790 net.cpp:150] Setting up conv5_3/sep/scale
I1208 16:04:44.474711  1790 net.cpp:157] Top shape: 2 512 19 32 (622592)
I1208 16:04:44.474715  1790 net.cpp:165] Memory required for data: 465624672
I1208 16:04:44.474721  1790 layer_factory.hpp:77] Creating layer relu5_3/sep
I1208 16:04:44.474726  1790 net.cpp:100] Creating Layer relu5_3/sep
I1208 16:04:44.474730  1790 net.cpp:434] relu5_3/sep <- conv5_3/sep
I1208 16:04:44.474735  1790 net.cpp:395] relu5_3/sep -> conv5_3/sep (in-place)
I1208 16:04:44.475019  1790 net.cpp:150] Setting up relu5_3/sep
I1208 16:04:44.475026  1790 net.cpp:157] Top shape: 2 512 19 32 (622592)
I1208 16:04:44.475029  1790 net.cpp:165] Memory required for data: 468115040
I1208 16:04:44.475041  1790 layer_factory.hpp:77] Creating layer conv5_4/dw
I1208 16:04:44.475049  1790 net.cpp:100] Creating Layer conv5_4/dw
I1208 16:04:44.475052  1790 net.cpp:434] conv5_4/dw <- conv5_3/sep
I1208 16:04:44.475057  1790 net.cpp:408] conv5_4/dw -> conv5_4/dw
I1208 16:04:44.475224  1790 net.cpp:150] Setting up conv5_4/dw
I1208 16:04:44.475229  1790 net.cpp:157] Top shape: 2 512 19 32 (622592)
I1208 16:04:44.475232  1790 net.cpp:165] Memory required for data: 470605408
I1208 16:04:44.475237  1790 layer_factory.hpp:77] Creating layer conv5_4/dw/bn
I1208 16:04:44.475242  1790 net.cpp:100] Creating Layer conv5_4/dw/bn
I1208 16:04:44.475245  1790 net.cpp:434] conv5_4/dw/bn <- conv5_4/dw
I1208 16:04:44.475250  1790 net.cpp:395] conv5_4/dw/bn -> conv5_4/dw (in-place)
I1208 16:04:44.475383  1790 net.cpp:150] Setting up conv5_4/dw/bn
I1208 16:04:44.475387  1790 net.cpp:157] Top shape: 2 512 19 32 (622592)
I1208 16:04:44.475390  1790 net.cpp:165] Memory required for data: 473095776
I1208 16:04:44.475396  1790 layer_factory.hpp:77] Creating layer conv5_4/dw/scale
I1208 16:04:44.475402  1790 net.cpp:100] Creating Layer conv5_4/dw/scale
I1208 16:04:44.475406  1790 net.cpp:434] conv5_4/dw/scale <- conv5_4/dw
I1208 16:04:44.475411  1790 net.cpp:395] conv5_4/dw/scale -> conv5_4/dw (in-place)
I1208 16:04:44.475445  1790 layer_factory.hpp:77] Creating layer conv5_4/dw/scale
I1208 16:04:44.475528  1790 net.cpp:150] Setting up conv5_4/dw/scale
I1208 16:04:44.475534  1790 net.cpp:157] Top shape: 2 512 19 32 (622592)
I1208 16:04:44.475536  1790 net.cpp:165] Memory required for data: 475586144
I1208 16:04:44.475543  1790 layer_factory.hpp:77] Creating layer relu5_4/dw
I1208 16:04:44.475546  1790 net.cpp:100] Creating Layer relu5_4/dw
I1208 16:04:44.475550  1790 net.cpp:434] relu5_4/dw <- conv5_4/dw
I1208 16:04:44.475554  1790 net.cpp:395] relu5_4/dw -> conv5_4/dw (in-place)
I1208 16:04:44.475828  1790 net.cpp:150] Setting up relu5_4/dw
I1208 16:04:44.475834  1790 net.cpp:157] Top shape: 2 512 19 32 (622592)
I1208 16:04:44.475837  1790 net.cpp:165] Memory required for data: 478076512
I1208 16:04:44.475841  1790 layer_factory.hpp:77] Creating layer conv5_4/sep
I1208 16:04:44.475847  1790 net.cpp:100] Creating Layer conv5_4/sep
I1208 16:04:44.475850  1790 net.cpp:434] conv5_4/sep <- conv5_4/dw
I1208 16:04:44.475857  1790 net.cpp:408] conv5_4/sep -> conv5_4/sep
I1208 16:04:44.479642  1790 net.cpp:150] Setting up conv5_4/sep
I1208 16:04:44.479660  1790 net.cpp:157] Top shape: 2 512 19 32 (622592)
I1208 16:04:44.479661  1790 net.cpp:165] Memory required for data: 480566880
I1208 16:04:44.479670  1790 layer_factory.hpp:77] Creating layer conv5_4/sep/bn
I1208 16:04:44.479677  1790 net.cpp:100] Creating Layer conv5_4/sep/bn
I1208 16:04:44.479681  1790 net.cpp:434] conv5_4/sep/bn <- conv5_4/sep
I1208 16:04:44.479687  1790 net.cpp:395] conv5_4/sep/bn -> conv5_4/sep (in-place)
I1208 16:04:44.479830  1790 net.cpp:150] Setting up conv5_4/sep/bn
I1208 16:04:44.479835  1790 net.cpp:157] Top shape: 2 512 19 32 (622592)
I1208 16:04:44.479837  1790 net.cpp:165] Memory required for data: 483057248
I1208 16:04:44.479843  1790 layer_factory.hpp:77] Creating layer conv5_4/sep/scale
I1208 16:04:44.479851  1790 net.cpp:100] Creating Layer conv5_4/sep/scale
I1208 16:04:44.479854  1790 net.cpp:434] conv5_4/sep/scale <- conv5_4/sep
I1208 16:04:44.479859  1790 net.cpp:395] conv5_4/sep/scale -> conv5_4/sep (in-place)
I1208 16:04:44.479892  1790 layer_factory.hpp:77] Creating layer conv5_4/sep/scale
I1208 16:04:44.479972  1790 net.cpp:150] Setting up conv5_4/sep/scale
I1208 16:04:44.479977  1790 net.cpp:157] Top shape: 2 512 19 32 (622592)
I1208 16:04:44.479980  1790 net.cpp:165] Memory required for data: 485547616
I1208 16:04:44.479985  1790 layer_factory.hpp:77] Creating layer relu5_4/sep
I1208 16:04:44.479990  1790 net.cpp:100] Creating Layer relu5_4/sep
I1208 16:04:44.479995  1790 net.cpp:434] relu5_4/sep <- conv5_4/sep
I1208 16:04:44.479998  1790 net.cpp:395] relu5_4/sep -> conv5_4/sep (in-place)
I1208 16:04:44.480278  1790 net.cpp:150] Setting up relu5_4/sep
I1208 16:04:44.480293  1790 net.cpp:157] Top shape: 2 512 19 32 (622592)
I1208 16:04:44.480296  1790 net.cpp:165] Memory required for data: 488037984
I1208 16:04:44.480299  1790 layer_factory.hpp:77] Creating layer conv5_5/dw
I1208 16:04:44.480307  1790 net.cpp:100] Creating Layer conv5_5/dw
I1208 16:04:44.480310  1790 net.cpp:434] conv5_5/dw <- conv5_4/sep
I1208 16:04:44.480314  1790 net.cpp:408] conv5_5/dw -> conv5_5/dw
I1208 16:04:44.480484  1790 net.cpp:150] Setting up conv5_5/dw
I1208 16:04:44.480490  1790 net.cpp:157] Top shape: 2 512 19 32 (622592)
I1208 16:04:44.480494  1790 net.cpp:165] Memory required for data: 490528352
I1208 16:04:44.480497  1790 layer_factory.hpp:77] Creating layer conv5_5/dw/bn
I1208 16:04:44.480502  1790 net.cpp:100] Creating Layer conv5_5/dw/bn
I1208 16:04:44.480505  1790 net.cpp:434] conv5_5/dw/bn <- conv5_5/dw
I1208 16:04:44.480510  1790 net.cpp:395] conv5_5/dw/bn -> conv5_5/dw (in-place)
I1208 16:04:44.480643  1790 net.cpp:150] Setting up conv5_5/dw/bn
I1208 16:04:44.480648  1790 net.cpp:157] Top shape: 2 512 19 32 (622592)
I1208 16:04:44.480651  1790 net.cpp:165] Memory required for data: 493018720
I1208 16:04:44.480670  1790 layer_factory.hpp:77] Creating layer conv5_5/dw/scale
I1208 16:04:44.480675  1790 net.cpp:100] Creating Layer conv5_5/dw/scale
I1208 16:04:44.480679  1790 net.cpp:434] conv5_5/dw/scale <- conv5_5/dw
I1208 16:04:44.480684  1790 net.cpp:395] conv5_5/dw/scale -> conv5_5/dw (in-place)
I1208 16:04:44.480716  1790 layer_factory.hpp:77] Creating layer conv5_5/dw/scale
I1208 16:04:44.480795  1790 net.cpp:150] Setting up conv5_5/dw/scale
I1208 16:04:44.480800  1790 net.cpp:157] Top shape: 2 512 19 32 (622592)
I1208 16:04:44.480803  1790 net.cpp:165] Memory required for data: 495509088
I1208 16:04:44.480809  1790 layer_factory.hpp:77] Creating layer relu5_5/dw
I1208 16:04:44.480816  1790 net.cpp:100] Creating Layer relu5_5/dw
I1208 16:04:44.480819  1790 net.cpp:434] relu5_5/dw <- conv5_5/dw
I1208 16:04:44.480823  1790 net.cpp:395] relu5_5/dw -> conv5_5/dw (in-place)
I1208 16:04:44.481101  1790 net.cpp:150] Setting up relu5_5/dw
I1208 16:04:44.481106  1790 net.cpp:157] Top shape: 2 512 19 32 (622592)
I1208 16:04:44.481109  1790 net.cpp:165] Memory required for data: 497999456
I1208 16:04:44.481112  1790 layer_factory.hpp:77] Creating layer conv5_5/sep
I1208 16:04:44.481120  1790 net.cpp:100] Creating Layer conv5_5/sep
I1208 16:04:44.481123  1790 net.cpp:434] conv5_5/sep <- conv5_5/dw
I1208 16:04:44.481129  1790 net.cpp:408] conv5_5/sep -> conv5_5/sep
I1208 16:04:44.483911  1790 net.cpp:150] Setting up conv5_5/sep
I1208 16:04:44.483922  1790 net.cpp:157] Top shape: 2 512 19 32 (622592)
I1208 16:04:44.483925  1790 net.cpp:165] Memory required for data: 500489824
I1208 16:04:44.483930  1790 layer_factory.hpp:77] Creating layer conv5_5/sep/bn
I1208 16:04:44.483937  1790 net.cpp:100] Creating Layer conv5_5/sep/bn
I1208 16:04:44.483942  1790 net.cpp:434] conv5_5/sep/bn <- conv5_5/sep
I1208 16:04:44.483947  1790 net.cpp:395] conv5_5/sep/bn -> conv5_5/sep (in-place)
I1208 16:04:44.484092  1790 net.cpp:150] Setting up conv5_5/sep/bn
I1208 16:04:44.484097  1790 net.cpp:157] Top shape: 2 512 19 32 (622592)
I1208 16:04:44.484100  1790 net.cpp:165] Memory required for data: 502980192
I1208 16:04:44.484107  1790 layer_factory.hpp:77] Creating layer conv5_5/sep/scale
I1208 16:04:44.484113  1790 net.cpp:100] Creating Layer conv5_5/sep/scale
I1208 16:04:44.484117  1790 net.cpp:434] conv5_5/sep/scale <- conv5_5/sep
I1208 16:04:44.484123  1790 net.cpp:395] conv5_5/sep/scale -> conv5_5/sep (in-place)
I1208 16:04:44.484159  1790 layer_factory.hpp:77] Creating layer conv5_5/sep/scale
I1208 16:04:44.484241  1790 net.cpp:150] Setting up conv5_5/sep/scale
I1208 16:04:44.484246  1790 net.cpp:157] Top shape: 2 512 19 32 (622592)
I1208 16:04:44.484248  1790 net.cpp:165] Memory required for data: 505470560
I1208 16:04:44.484254  1790 layer_factory.hpp:77] Creating layer relu5_5/sep
I1208 16:04:44.484261  1790 net.cpp:100] Creating Layer relu5_5/sep
I1208 16:04:44.484264  1790 net.cpp:434] relu5_5/sep <- conv5_5/sep
I1208 16:04:44.484277  1790 net.cpp:395] relu5_5/sep -> conv5_5/sep (in-place)
I1208 16:04:44.484556  1790 net.cpp:150] Setting up relu5_5/sep
I1208 16:04:44.484563  1790 net.cpp:157] Top shape: 2 512 19 32 (622592)
I1208 16:04:44.484565  1790 net.cpp:165] Memory required for data: 507960928
I1208 16:04:44.484570  1790 layer_factory.hpp:77] Creating layer conv5_5/sep_relu5_5/sep_0_split
I1208 16:04:44.484577  1790 net.cpp:100] Creating Layer conv5_5/sep_relu5_5/sep_0_split
I1208 16:04:44.484580  1790 net.cpp:434] conv5_5/sep_relu5_5/sep_0_split <- conv5_5/sep
I1208 16:04:44.484586  1790 net.cpp:408] conv5_5/sep_relu5_5/sep_0_split -> conv5_5/sep_relu5_5/sep_0_split_0
I1208 16:04:44.484597  1790 net.cpp:408] conv5_5/sep_relu5_5/sep_0_split -> conv5_5/sep_relu5_5/sep_0_split_1
I1208 16:04:44.484602  1790 net.cpp:408] conv5_5/sep_relu5_5/sep_0_split -> conv5_5/sep_relu5_5/sep_0_split_2
I1208 16:04:44.484608  1790 net.cpp:408] conv5_5/sep_relu5_5/sep_0_split -> conv5_5/sep_relu5_5/sep_0_split_3
I1208 16:04:44.484659  1790 net.cpp:150] Setting up conv5_5/sep_relu5_5/sep_0_split
I1208 16:04:44.484668  1790 net.cpp:157] Top shape: 2 512 19 32 (622592)
I1208 16:04:44.484671  1790 net.cpp:157] Top shape: 2 512 19 32 (622592)
I1208 16:04:44.484675  1790 net.cpp:157] Top shape: 2 512 19 32 (622592)
I1208 16:04:44.484680  1790 net.cpp:157] Top shape: 2 512 19 32 (622592)
I1208 16:04:44.484683  1790 net.cpp:165] Memory required for data: 517922400
I1208 16:04:44.484686  1790 layer_factory.hpp:77] Creating layer conv5_6/dw
I1208 16:04:44.484694  1790 net.cpp:100] Creating Layer conv5_6/dw
I1208 16:04:44.484696  1790 net.cpp:434] conv5_6/dw <- conv5_5/sep_relu5_5/sep_0_split_0
I1208 16:04:44.484702  1790 net.cpp:408] conv5_6/dw -> conv5_6/dw
I1208 16:04:44.484869  1790 net.cpp:150] Setting up conv5_6/dw
I1208 16:04:44.484874  1790 net.cpp:157] Top shape: 2 512 10 16 (163840)
I1208 16:04:44.484876  1790 net.cpp:165] Memory required for data: 518577760
I1208 16:04:44.484882  1790 layer_factory.hpp:77] Creating layer conv5_6/dw/bn
I1208 16:04:44.484887  1790 net.cpp:100] Creating Layer conv5_6/dw/bn
I1208 16:04:44.484891  1790 net.cpp:434] conv5_6/dw/bn <- conv5_6/dw
I1208 16:04:44.484895  1790 net.cpp:395] conv5_6/dw/bn -> conv5_6/dw (in-place)
I1208 16:04:44.485044  1790 net.cpp:150] Setting up conv5_6/dw/bn
I1208 16:04:44.485049  1790 net.cpp:157] Top shape: 2 512 10 16 (163840)
I1208 16:04:44.485050  1790 net.cpp:165] Memory required for data: 519233120
I1208 16:04:44.485056  1790 layer_factory.hpp:77] Creating layer conv5_6/dw/scale
I1208 16:04:44.485062  1790 net.cpp:100] Creating Layer conv5_6/dw/scale
I1208 16:04:44.485066  1790 net.cpp:434] conv5_6/dw/scale <- conv5_6/dw
I1208 16:04:44.485070  1790 net.cpp:395] conv5_6/dw/scale -> conv5_6/dw (in-place)
I1208 16:04:44.485101  1790 layer_factory.hpp:77] Creating layer conv5_6/dw/scale
I1208 16:04:44.485188  1790 net.cpp:150] Setting up conv5_6/dw/scale
I1208 16:04:44.485194  1790 net.cpp:157] Top shape: 2 512 10 16 (163840)
I1208 16:04:44.485198  1790 net.cpp:165] Memory required for data: 519888480
I1208 16:04:44.485203  1790 layer_factory.hpp:77] Creating layer relu5_6/dw
I1208 16:04:44.485208  1790 net.cpp:100] Creating Layer relu5_6/dw
I1208 16:04:44.485213  1790 net.cpp:434] relu5_6/dw <- conv5_6/dw
I1208 16:04:44.485216  1790 net.cpp:395] relu5_6/dw -> conv5_6/dw (in-place)
I1208 16:04:44.485517  1790 net.cpp:150] Setting up relu5_6/dw
I1208 16:04:44.485524  1790 net.cpp:157] Top shape: 2 512 10 16 (163840)
I1208 16:04:44.485527  1790 net.cpp:165] Memory required for data: 520543840
I1208 16:04:44.485530  1790 layer_factory.hpp:77] Creating layer conv5_6/sep
I1208 16:04:44.485538  1790 net.cpp:100] Creating Layer conv5_6/sep
I1208 16:04:44.485543  1790 net.cpp:434] conv5_6/sep <- conv5_6/dw
I1208 16:04:44.485548  1790 net.cpp:408] conv5_6/sep -> conv5_6/sep
I1208 16:04:44.490986  1790 net.cpp:150] Setting up conv5_6/sep
I1208 16:04:44.491003  1790 net.cpp:157] Top shape: 2 1024 10 16 (327680)
I1208 16:04:44.491006  1790 net.cpp:165] Memory required for data: 521854560
I1208 16:04:44.491029  1790 layer_factory.hpp:77] Creating layer conv5_6/sep/bn
I1208 16:04:44.491039  1790 net.cpp:100] Creating Layer conv5_6/sep/bn
I1208 16:04:44.491044  1790 net.cpp:434] conv5_6/sep/bn <- conv5_6/sep
I1208 16:04:44.491050  1790 net.cpp:395] conv5_6/sep/bn -> conv5_6/sep (in-place)
I1208 16:04:44.491200  1790 net.cpp:150] Setting up conv5_6/sep/bn
I1208 16:04:44.491205  1790 net.cpp:157] Top shape: 2 1024 10 16 (327680)
I1208 16:04:44.491207  1790 net.cpp:165] Memory required for data: 523165280
I1208 16:04:44.491215  1790 layer_factory.hpp:77] Creating layer conv5_6/sep/scale
I1208 16:04:44.491223  1790 net.cpp:100] Creating Layer conv5_6/sep/scale
I1208 16:04:44.491227  1790 net.cpp:434] conv5_6/sep/scale <- conv5_6/sep
I1208 16:04:44.491231  1790 net.cpp:395] conv5_6/sep/scale -> conv5_6/sep (in-place)
I1208 16:04:44.491266  1790 layer_factory.hpp:77] Creating layer conv5_6/sep/scale
I1208 16:04:44.491350  1790 net.cpp:150] Setting up conv5_6/sep/scale
I1208 16:04:44.491355  1790 net.cpp:157] Top shape: 2 1024 10 16 (327680)
I1208 16:04:44.491358  1790 net.cpp:165] Memory required for data: 524476000
I1208 16:04:44.491364  1790 layer_factory.hpp:77] Creating layer relu5_6/sep
I1208 16:04:44.491369  1790 net.cpp:100] Creating Layer relu5_6/sep
I1208 16:04:44.491371  1790 net.cpp:434] relu5_6/sep <- conv5_6/sep
I1208 16:04:44.491375  1790 net.cpp:395] relu5_6/sep -> conv5_6/sep (in-place)
I1208 16:04:44.491658  1790 net.cpp:150] Setting up relu5_6/sep
I1208 16:04:44.491665  1790 net.cpp:157] Top shape: 2 1024 10 16 (327680)
I1208 16:04:44.491668  1790 net.cpp:165] Memory required for data: 525786720
I1208 16:04:44.491672  1790 layer_factory.hpp:77] Creating layer conv6/dw
I1208 16:04:44.491679  1790 net.cpp:100] Creating Layer conv6/dw
I1208 16:04:44.491683  1790 net.cpp:434] conv6/dw <- conv5_6/sep
I1208 16:04:44.491688  1790 net.cpp:408] conv6/dw -> conv6/dw
I1208 16:04:44.491888  1790 net.cpp:150] Setting up conv6/dw
I1208 16:04:44.491894  1790 net.cpp:157] Top shape: 2 1024 10 16 (327680)
I1208 16:04:44.491895  1790 net.cpp:165] Memory required for data: 527097440
I1208 16:04:44.491901  1790 layer_factory.hpp:77] Creating layer conv6/dw/bn
I1208 16:04:44.491906  1790 net.cpp:100] Creating Layer conv6/dw/bn
I1208 16:04:44.491910  1790 net.cpp:434] conv6/dw/bn <- conv6/dw
I1208 16:04:44.491914  1790 net.cpp:395] conv6/dw/bn -> conv6/dw (in-place)
I1208 16:04:44.492051  1790 net.cpp:150] Setting up conv6/dw/bn
I1208 16:04:44.492056  1790 net.cpp:157] Top shape: 2 1024 10 16 (327680)
I1208 16:04:44.492059  1790 net.cpp:165] Memory required for data: 528408160
I1208 16:04:44.492066  1790 layer_factory.hpp:77] Creating layer conv6/dw/scale
I1208 16:04:44.492072  1790 net.cpp:100] Creating Layer conv6/dw/scale
I1208 16:04:44.492075  1790 net.cpp:434] conv6/dw/scale <- conv6/dw
I1208 16:04:44.492080  1790 net.cpp:395] conv6/dw/scale -> conv6/dw (in-place)
I1208 16:04:44.492110  1790 layer_factory.hpp:77] Creating layer conv6/dw/scale
I1208 16:04:44.492193  1790 net.cpp:150] Setting up conv6/dw/scale
I1208 16:04:44.492198  1790 net.cpp:157] Top shape: 2 1024 10 16 (327680)
I1208 16:04:44.492202  1790 net.cpp:165] Memory required for data: 529718880
I1208 16:04:44.492208  1790 layer_factory.hpp:77] Creating layer relu6/dw
I1208 16:04:44.492213  1790 net.cpp:100] Creating Layer relu6/dw
I1208 16:04:44.492215  1790 net.cpp:434] relu6/dw <- conv6/dw
I1208 16:04:44.492220  1790 net.cpp:395] relu6/dw -> conv6/dw (in-place)
I1208 16:04:44.492496  1790 net.cpp:150] Setting up relu6/dw
I1208 16:04:44.492502  1790 net.cpp:157] Top shape: 2 1024 10 16 (327680)
I1208 16:04:44.492504  1790 net.cpp:165] Memory required for data: 531029600
I1208 16:04:44.492509  1790 layer_factory.hpp:77] Creating layer conv6/sep
I1208 16:04:44.492516  1790 net.cpp:100] Creating Layer conv6/sep
I1208 16:04:44.492519  1790 net.cpp:434] conv6/sep <- conv6/dw
I1208 16:04:44.492524  1790 net.cpp:408] conv6/sep -> conv6/sep
I1208 16:04:44.500344  1790 net.cpp:150] Setting up conv6/sep
I1208 16:04:44.500360  1790 net.cpp:157] Top shape: 2 1024 10 16 (327680)
I1208 16:04:44.500380  1790 net.cpp:165] Memory required for data: 532340320
I1208 16:04:44.500388  1790 layer_factory.hpp:77] Creating layer conv6/sep/bn
I1208 16:04:44.500397  1790 net.cpp:100] Creating Layer conv6/sep/bn
I1208 16:04:44.500401  1790 net.cpp:434] conv6/sep/bn <- conv6/sep
I1208 16:04:44.500407  1790 net.cpp:395] conv6/sep/bn -> conv6/sep (in-place)
I1208 16:04:44.500557  1790 net.cpp:150] Setting up conv6/sep/bn
I1208 16:04:44.500563  1790 net.cpp:157] Top shape: 2 1024 10 16 (327680)
I1208 16:04:44.500566  1790 net.cpp:165] Memory required for data: 533651040
I1208 16:04:44.500573  1790 layer_factory.hpp:77] Creating layer conv6/sep/scale
I1208 16:04:44.500581  1790 net.cpp:100] Creating Layer conv6/sep/scale
I1208 16:04:44.500584  1790 net.cpp:434] conv6/sep/scale <- conv6/sep
I1208 16:04:44.500589  1790 net.cpp:395] conv6/sep/scale -> conv6/sep (in-place)
I1208 16:04:44.500622  1790 layer_factory.hpp:77] Creating layer conv6/sep/scale
I1208 16:04:44.500708  1790 net.cpp:150] Setting up conv6/sep/scale
I1208 16:04:44.500713  1790 net.cpp:157] Top shape: 2 1024 10 16 (327680)
I1208 16:04:44.500716  1790 net.cpp:165] Memory required for data: 534961760
I1208 16:04:44.500722  1790 layer_factory.hpp:77] Creating layer relu6/sep
I1208 16:04:44.500728  1790 net.cpp:100] Creating Layer relu6/sep
I1208 16:04:44.500731  1790 net.cpp:434] relu6/sep <- conv6/sep
I1208 16:04:44.500735  1790 net.cpp:395] relu6/sep -> conv6/sep (in-place)
I1208 16:04:44.501009  1790 net.cpp:150] Setting up relu6/sep
I1208 16:04:44.501015  1790 net.cpp:157] Top shape: 2 1024 10 16 (327680)
I1208 16:04:44.501019  1790 net.cpp:165] Memory required for data: 536272480
I1208 16:04:44.501022  1790 layer_factory.hpp:77] Creating layer conv6/sep_relu6/sep_0_split
I1208 16:04:44.501029  1790 net.cpp:100] Creating Layer conv6/sep_relu6/sep_0_split
I1208 16:04:44.501032  1790 net.cpp:434] conv6/sep_relu6/sep_0_split <- conv6/sep
I1208 16:04:44.501039  1790 net.cpp:408] conv6/sep_relu6/sep_0_split -> conv6/sep_relu6/sep_0_split_0
I1208 16:04:44.501045  1790 net.cpp:408] conv6/sep_relu6/sep_0_split -> conv6/sep_relu6/sep_0_split_1
I1208 16:04:44.501051  1790 net.cpp:408] conv6/sep_relu6/sep_0_split -> conv6/sep_relu6/sep_0_split_2
I1208 16:04:44.501057  1790 net.cpp:408] conv6/sep_relu6/sep_0_split -> conv6/sep_relu6/sep_0_split_3
I1208 16:04:44.501108  1790 net.cpp:150] Setting up conv6/sep_relu6/sep_0_split
I1208 16:04:44.501113  1790 net.cpp:157] Top shape: 2 1024 10 16 (327680)
I1208 16:04:44.501117  1790 net.cpp:157] Top shape: 2 1024 10 16 (327680)
I1208 16:04:44.501121  1790 net.cpp:157] Top shape: 2 1024 10 16 (327680)
I1208 16:04:44.501125  1790 net.cpp:157] Top shape: 2 1024 10 16 (327680)
I1208 16:04:44.501128  1790 net.cpp:165] Memory required for data: 541515360
I1208 16:04:44.501132  1790 layer_factory.hpp:77] Creating layer ssd1_1
I1208 16:04:44.501140  1790 net.cpp:100] Creating Layer ssd1_1
I1208 16:04:44.501144  1790 net.cpp:434] ssd1_1 <- conv6/sep_relu6/sep_0_split_0
I1208 16:04:44.501150  1790 net.cpp:408] ssd1_1 -> ssd1_1
I1208 16:04:44.504412  1790 net.cpp:150] Setting up ssd1_1
I1208 16:04:44.504428  1790 net.cpp:157] Top shape: 2 256 10 16 (81920)
I1208 16:04:44.504431  1790 net.cpp:165] Memory required for data: 541843040
I1208 16:04:44.504441  1790 layer_factory.hpp:77] Creating layer ssd1_1_relu
I1208 16:04:44.504449  1790 net.cpp:100] Creating Layer ssd1_1_relu
I1208 16:04:44.504453  1790 net.cpp:434] ssd1_1_relu <- ssd1_1
I1208 16:04:44.504460  1790 net.cpp:395] ssd1_1_relu -> ssd1_1 (in-place)
I1208 16:04:44.504853  1790 net.cpp:150] Setting up ssd1_1_relu
I1208 16:04:44.504860  1790 net.cpp:157] Top shape: 2 256 10 16 (81920)
I1208 16:04:44.504863  1790 net.cpp:165] Memory required for data: 542170720
I1208 16:04:44.504866  1790 layer_factory.hpp:77] Creating layer ssd1_2
I1208 16:04:44.504878  1790 net.cpp:100] Creating Layer ssd1_2
I1208 16:04:44.504880  1790 net.cpp:434] ssd1_2 <- ssd1_1
I1208 16:04:44.504885  1790 net.cpp:408] ssd1_2 -> ssd1_2
I1208 16:04:44.510646  1790 net.cpp:150] Setting up ssd1_2
I1208 16:04:44.510677  1790 net.cpp:157] Top shape: 2 512 5 8 (40960)
I1208 16:04:44.510679  1790 net.cpp:165] Memory required for data: 542334560
I1208 16:04:44.510687  1790 layer_factory.hpp:77] Creating layer ssd1_2_relu
I1208 16:04:44.510695  1790 net.cpp:100] Creating Layer ssd1_2_relu
I1208 16:04:44.510700  1790 net.cpp:434] ssd1_2_relu <- ssd1_2
I1208 16:04:44.510705  1790 net.cpp:395] ssd1_2_relu -> ssd1_2 (in-place)
I1208 16:04:44.510993  1790 net.cpp:150] Setting up ssd1_2_relu
I1208 16:04:44.510999  1790 net.cpp:157] Top shape: 2 512 5 8 (40960)
I1208 16:04:44.511003  1790 net.cpp:165] Memory required for data: 542498400
I1208 16:04:44.511005  1790 layer_factory.hpp:77] Creating layer ssd1_2_ssd1_2_relu_0_split
I1208 16:04:44.511013  1790 net.cpp:100] Creating Layer ssd1_2_ssd1_2_relu_0_split
I1208 16:04:44.511016  1790 net.cpp:434] ssd1_2_ssd1_2_relu_0_split <- ssd1_2
I1208 16:04:44.511021  1790 net.cpp:408] ssd1_2_ssd1_2_relu_0_split -> ssd1_2_ssd1_2_relu_0_split_0
I1208 16:04:44.511029  1790 net.cpp:408] ssd1_2_ssd1_2_relu_0_split -> ssd1_2_ssd1_2_relu_0_split_1
I1208 16:04:44.511035  1790 net.cpp:408] ssd1_2_ssd1_2_relu_0_split -> ssd1_2_ssd1_2_relu_0_split_2
I1208 16:04:44.511041  1790 net.cpp:408] ssd1_2_ssd1_2_relu_0_split -> ssd1_2_ssd1_2_relu_0_split_3
I1208 16:04:44.511096  1790 net.cpp:150] Setting up ssd1_2_ssd1_2_relu_0_split
I1208 16:04:44.511101  1790 net.cpp:157] Top shape: 2 512 5 8 (40960)
I1208 16:04:44.511106  1790 net.cpp:157] Top shape: 2 512 5 8 (40960)
I1208 16:04:44.511109  1790 net.cpp:157] Top shape: 2 512 5 8 (40960)
I1208 16:04:44.511114  1790 net.cpp:157] Top shape: 2 512 5 8 (40960)
I1208 16:04:44.511117  1790 net.cpp:165] Memory required for data: 543153760
I1208 16:04:44.511121  1790 layer_factory.hpp:77] Creating layer ssd2_1
I1208 16:04:44.511128  1790 net.cpp:100] Creating Layer ssd2_1
I1208 16:04:44.511132  1790 net.cpp:434] ssd2_1 <- ssd1_2_ssd1_2_relu_0_split_0
I1208 16:04:44.511137  1790 net.cpp:408] ssd2_1 -> ssd2_1
I1208 16:04:44.512466  1790 net.cpp:150] Setting up ssd2_1
I1208 16:04:44.512475  1790 net.cpp:157] Top shape: 2 128 5 8 (10240)
I1208 16:04:44.512477  1790 net.cpp:165] Memory required for data: 543194720
I1208 16:04:44.512483  1790 layer_factory.hpp:77] Creating layer ssd2_1_relu
I1208 16:04:44.512490  1790 net.cpp:100] Creating Layer ssd2_1_relu
I1208 16:04:44.512492  1790 net.cpp:434] ssd2_1_relu <- ssd2_1
I1208 16:04:44.512500  1790 net.cpp:395] ssd2_1_relu -> ssd2_1 (in-place)
I1208 16:04:44.513820  1790 net.cpp:150] Setting up ssd2_1_relu
I1208 16:04:44.513831  1790 net.cpp:157] Top shape: 2 128 5 8 (10240)
I1208 16:04:44.513834  1790 net.cpp:165] Memory required for data: 543235680
I1208 16:04:44.513839  1790 layer_factory.hpp:77] Creating layer ssd2_2
I1208 16:04:44.513849  1790 net.cpp:100] Creating Layer ssd2_2
I1208 16:04:44.513854  1790 net.cpp:434] ssd2_2 <- ssd2_1
I1208 16:04:44.513860  1790 net.cpp:408] ssd2_2 -> ssd2_2
I1208 16:04:44.516367  1790 net.cpp:150] Setting up ssd2_2
I1208 16:04:44.516377  1790 net.cpp:157] Top shape: 2 256 3 4 (6144)
I1208 16:04:44.516381  1790 net.cpp:165] Memory required for data: 543260256
I1208 16:04:44.516387  1790 layer_factory.hpp:77] Creating layer ssd2_2_relu
I1208 16:04:44.516393  1790 net.cpp:100] Creating Layer ssd2_2_relu
I1208 16:04:44.516397  1790 net.cpp:434] ssd2_2_relu <- ssd2_2
I1208 16:04:44.516402  1790 net.cpp:395] ssd2_2_relu -> ssd2_2 (in-place)
I1208 16:04:44.516680  1790 net.cpp:150] Setting up ssd2_2_relu
I1208 16:04:44.516687  1790 net.cpp:157] Top shape: 2 256 3 4 (6144)
I1208 16:04:44.516690  1790 net.cpp:165] Memory required for data: 543284832
I1208 16:04:44.516693  1790 layer_factory.hpp:77] Creating layer ssd2_2_ssd2_2_relu_0_split
I1208 16:04:44.516700  1790 net.cpp:100] Creating Layer ssd2_2_ssd2_2_relu_0_split
I1208 16:04:44.516702  1790 net.cpp:434] ssd2_2_ssd2_2_relu_0_split <- ssd2_2
I1208 16:04:44.516708  1790 net.cpp:408] ssd2_2_ssd2_2_relu_0_split -> ssd2_2_ssd2_2_relu_0_split_0
I1208 16:04:44.516716  1790 net.cpp:408] ssd2_2_ssd2_2_relu_0_split -> ssd2_2_ssd2_2_relu_0_split_1
I1208 16:04:44.516729  1790 net.cpp:408] ssd2_2_ssd2_2_relu_0_split -> ssd2_2_ssd2_2_relu_0_split_2
I1208 16:04:44.516737  1790 net.cpp:408] ssd2_2_ssd2_2_relu_0_split -> ssd2_2_ssd2_2_relu_0_split_3
I1208 16:04:44.516790  1790 net.cpp:150] Setting up ssd2_2_ssd2_2_relu_0_split
I1208 16:04:44.516794  1790 net.cpp:157] Top shape: 2 256 3 4 (6144)
I1208 16:04:44.516798  1790 net.cpp:157] Top shape: 2 256 3 4 (6144)
I1208 16:04:44.516803  1790 net.cpp:157] Top shape: 2 256 3 4 (6144)
I1208 16:04:44.516808  1790 net.cpp:157] Top shape: 2 256 3 4 (6144)
I1208 16:04:44.516810  1790 net.cpp:165] Memory required for data: 543383136
I1208 16:04:44.516813  1790 layer_factory.hpp:77] Creating layer ssd3_1
I1208 16:04:44.516822  1790 net.cpp:100] Creating Layer ssd3_1
I1208 16:04:44.516825  1790 net.cpp:434] ssd3_1 <- ssd2_2_ssd2_2_relu_0_split_0
I1208 16:04:44.516831  1790 net.cpp:408] ssd3_1 -> ssd3_1
I1208 16:04:44.518607  1790 net.cpp:150] Setting up ssd3_1
I1208 16:04:44.518616  1790 net.cpp:157] Top shape: 2 128 3 4 (3072)
I1208 16:04:44.518620  1790 net.cpp:165] Memory required for data: 543395424
I1208 16:04:44.518625  1790 layer_factory.hpp:77] Creating layer ssd3_1_relu
I1208 16:04:44.518631  1790 net.cpp:100] Creating Layer ssd3_1_relu
I1208 16:04:44.518635  1790 net.cpp:434] ssd3_1_relu <- ssd3_1
I1208 16:04:44.518641  1790 net.cpp:395] ssd3_1_relu -> ssd3_1 (in-place)
I1208 16:04:44.518918  1790 net.cpp:150] Setting up ssd3_1_relu
I1208 16:04:44.518925  1790 net.cpp:157] Top shape: 2 128 3 4 (3072)
I1208 16:04:44.518929  1790 net.cpp:165] Memory required for data: 543407712
I1208 16:04:44.518931  1790 layer_factory.hpp:77] Creating layer ssd3_2
I1208 16:04:44.518939  1790 net.cpp:100] Creating Layer ssd3_2
I1208 16:04:44.518941  1790 net.cpp:434] ssd3_2 <- ssd3_1
I1208 16:04:44.518949  1790 net.cpp:408] ssd3_2 -> ssd3_2
I1208 16:04:44.522119  1790 net.cpp:150] Setting up ssd3_2
I1208 16:04:44.522133  1790 net.cpp:157] Top shape: 2 256 2 2 (2048)
I1208 16:04:44.522135  1790 net.cpp:165] Memory required for data: 543415904
I1208 16:04:44.522145  1790 layer_factory.hpp:77] Creating layer ssd3_2_relu
I1208 16:04:44.522153  1790 net.cpp:100] Creating Layer ssd3_2_relu
I1208 16:04:44.522156  1790 net.cpp:434] ssd3_2_relu <- ssd3_2
I1208 16:04:44.522162  1790 net.cpp:395] ssd3_2_relu -> ssd3_2 (in-place)
I1208 16:04:44.522545  1790 net.cpp:150] Setting up ssd3_2_relu
I1208 16:04:44.522552  1790 net.cpp:157] Top shape: 2 256 2 2 (2048)
I1208 16:04:44.522555  1790 net.cpp:165] Memory required for data: 543424096
I1208 16:04:44.522558  1790 layer_factory.hpp:77] Creating layer ssd3_2_ssd3_2_relu_0_split
I1208 16:04:44.522565  1790 net.cpp:100] Creating Layer ssd3_2_ssd3_2_relu_0_split
I1208 16:04:44.522568  1790 net.cpp:434] ssd3_2_ssd3_2_relu_0_split <- ssd3_2
I1208 16:04:44.522573  1790 net.cpp:408] ssd3_2_ssd3_2_relu_0_split -> ssd3_2_ssd3_2_relu_0_split_0
I1208 16:04:44.522580  1790 net.cpp:408] ssd3_2_ssd3_2_relu_0_split -> ssd3_2_ssd3_2_relu_0_split_1
I1208 16:04:44.522588  1790 net.cpp:408] ssd3_2_ssd3_2_relu_0_split -> ssd3_2_ssd3_2_relu_0_split_2
I1208 16:04:44.522593  1790 net.cpp:408] ssd3_2_ssd3_2_relu_0_split -> ssd3_2_ssd3_2_relu_0_split_3
I1208 16:04:44.522648  1790 net.cpp:150] Setting up ssd3_2_ssd3_2_relu_0_split
I1208 16:04:44.522653  1790 net.cpp:157] Top shape: 2 256 2 2 (2048)
I1208 16:04:44.522658  1790 net.cpp:157] Top shape: 2 256 2 2 (2048)
I1208 16:04:44.522663  1790 net.cpp:157] Top shape: 2 256 2 2 (2048)
I1208 16:04:44.522667  1790 net.cpp:157] Top shape: 2 256 2 2 (2048)
I1208 16:04:44.522670  1790 net.cpp:165] Memory required for data: 543456864
I1208 16:04:44.522673  1790 layer_factory.hpp:77] Creating layer ssd4_1
I1208 16:04:44.522681  1790 net.cpp:100] Creating Layer ssd4_1
I1208 16:04:44.522684  1790 net.cpp:434] ssd4_1 <- ssd3_2_ssd3_2_relu_0_split_0
I1208 16:04:44.522689  1790 net.cpp:408] ssd4_1 -> ssd4_1
I1208 16:04:44.523934  1790 net.cpp:150] Setting up ssd4_1
I1208 16:04:44.523942  1790 net.cpp:157] Top shape: 2 128 2 2 (1024)
I1208 16:04:44.523946  1790 net.cpp:165] Memory required for data: 543460960
I1208 16:04:44.523962  1790 layer_factory.hpp:77] Creating layer ssd4_1_relu
I1208 16:04:44.523977  1790 net.cpp:100] Creating Layer ssd4_1_relu
I1208 16:04:44.523980  1790 net.cpp:434] ssd4_1_relu <- ssd4_1
I1208 16:04:44.523985  1790 net.cpp:395] ssd4_1_relu -> ssd4_1 (in-place)
I1208 16:04:44.524264  1790 net.cpp:150] Setting up ssd4_1_relu
I1208 16:04:44.524272  1790 net.cpp:157] Top shape: 2 128 2 2 (1024)
I1208 16:04:44.524274  1790 net.cpp:165] Memory required for data: 543465056
I1208 16:04:44.524278  1790 layer_factory.hpp:77] Creating layer ssd4_2
I1208 16:04:44.524286  1790 net.cpp:100] Creating Layer ssd4_2
I1208 16:04:44.524289  1790 net.cpp:434] ssd4_2 <- ssd4_1
I1208 16:04:44.524296  1790 net.cpp:408] ssd4_2 -> ssd4_2
I1208 16:04:44.526770  1790 net.cpp:150] Setting up ssd4_2
I1208 16:04:44.526779  1790 net.cpp:157] Top shape: 2 256 1 1 (512)
I1208 16:04:44.526782  1790 net.cpp:165] Memory required for data: 543467104
I1208 16:04:44.526789  1790 layer_factory.hpp:77] Creating layer ssd4_2_relu
I1208 16:04:44.526796  1790 net.cpp:100] Creating Layer ssd4_2_relu
I1208 16:04:44.526800  1790 net.cpp:434] ssd4_2_relu <- ssd4_2
I1208 16:04:44.526805  1790 net.cpp:395] ssd4_2_relu -> ssd4_2 (in-place)
I1208 16:04:44.527886  1790 net.cpp:150] Setting up ssd4_2_relu
I1208 16:04:44.527895  1790 net.cpp:157] Top shape: 2 256 1 1 (512)
I1208 16:04:44.527899  1790 net.cpp:165] Memory required for data: 543469152
I1208 16:04:44.527902  1790 layer_factory.hpp:77] Creating layer ssd4_2_ssd4_2_relu_0_split
I1208 16:04:44.527909  1790 net.cpp:100] Creating Layer ssd4_2_ssd4_2_relu_0_split
I1208 16:04:44.527914  1790 net.cpp:434] ssd4_2_ssd4_2_relu_0_split <- ssd4_2
I1208 16:04:44.527918  1790 net.cpp:408] ssd4_2_ssd4_2_relu_0_split -> ssd4_2_ssd4_2_relu_0_split_0
I1208 16:04:44.527933  1790 net.cpp:408] ssd4_2_ssd4_2_relu_0_split -> ssd4_2_ssd4_2_relu_0_split_1
I1208 16:04:44.527940  1790 net.cpp:408] ssd4_2_ssd4_2_relu_0_split -> ssd4_2_ssd4_2_relu_0_split_2
I1208 16:04:44.527985  1790 net.cpp:150] Setting up ssd4_2_ssd4_2_relu_0_split
I1208 16:04:44.527992  1790 net.cpp:157] Top shape: 2 256 1 1 (512)
I1208 16:04:44.527997  1790 net.cpp:157] Top shape: 2 256 1 1 (512)
I1208 16:04:44.528000  1790 net.cpp:157] Top shape: 2 256 1 1 (512)
I1208 16:04:44.528003  1790 net.cpp:165] Memory required for data: 543475296
I1208 16:04:44.528007  1790 layer_factory.hpp:77] Creating layer conv5_5/sep_mbox_loc
I1208 16:04:44.528015  1790 net.cpp:100] Creating Layer conv5_5/sep_mbox_loc
I1208 16:04:44.528018  1790 net.cpp:434] conv5_5/sep_mbox_loc <- conv5_5/sep_relu5_5/sep_0_split_1
I1208 16:04:44.528024  1790 net.cpp:408] conv5_5/sep_mbox_loc -> conv5_5/sep_mbox_loc
I1208 16:04:44.529386  1790 net.cpp:150] Setting up conv5_5/sep_mbox_loc
I1208 16:04:44.529394  1790 net.cpp:157] Top shape: 2 8 19 32 (9728)
I1208 16:04:44.529397  1790 net.cpp:165] Memory required for data: 543514208
I1208 16:04:44.529403  1790 layer_factory.hpp:77] Creating layer conv5_5/sep_mbox_loc_perm
I1208 16:04:44.529410  1790 net.cpp:100] Creating Layer conv5_5/sep_mbox_loc_perm
I1208 16:04:44.529414  1790 net.cpp:434] conv5_5/sep_mbox_loc_perm <- conv5_5/sep_mbox_loc
I1208 16:04:44.529419  1790 net.cpp:408] conv5_5/sep_mbox_loc_perm -> conv5_5/sep_mbox_loc_perm
I1208 16:04:44.529506  1790 net.cpp:150] Setting up conv5_5/sep_mbox_loc_perm
I1208 16:04:44.529510  1790 net.cpp:157] Top shape: 2 19 32 8 (9728)
I1208 16:04:44.529515  1790 net.cpp:165] Memory required for data: 543553120
I1208 16:04:44.529516  1790 layer_factory.hpp:77] Creating layer conv5_5/sep_mbox_loc_flat
I1208 16:04:44.529523  1790 net.cpp:100] Creating Layer conv5_5/sep_mbox_loc_flat
I1208 16:04:44.529526  1790 net.cpp:434] conv5_5/sep_mbox_loc_flat <- conv5_5/sep_mbox_loc_perm
I1208 16:04:44.529531  1790 net.cpp:408] conv5_5/sep_mbox_loc_flat -> conv5_5/sep_mbox_loc_flat
I1208 16:04:44.529553  1790 net.cpp:150] Setting up conv5_5/sep_mbox_loc_flat
I1208 16:04:44.529558  1790 net.cpp:157] Top shape: 2 4864 (9728)
I1208 16:04:44.529561  1790 net.cpp:165] Memory required for data: 543592032
I1208 16:04:44.529573  1790 layer_factory.hpp:77] Creating layer conv5_5/sep_mbox_conf
I1208 16:04:44.529582  1790 net.cpp:100] Creating Layer conv5_5/sep_mbox_conf
I1208 16:04:44.529584  1790 net.cpp:434] conv5_5/sep_mbox_conf <- conv5_5/sep_relu5_5/sep_0_split_2
I1208 16:04:44.529590  1790 net.cpp:408] conv5_5/sep_mbox_conf -> conv5_5/sep_mbox_conf
I1208 16:04:44.530970  1790 net.cpp:150] Setting up conv5_5/sep_mbox_conf
I1208 16:04:44.530979  1790 net.cpp:157] Top shape: 2 10 19 32 (12160)
I1208 16:04:44.530982  1790 net.cpp:165] Memory required for data: 543640672
I1208 16:04:44.530989  1790 layer_factory.hpp:77] Creating layer conv5_5/sep_mbox_conf_perm
I1208 16:04:44.530995  1790 net.cpp:100] Creating Layer conv5_5/sep_mbox_conf_perm
I1208 16:04:44.530999  1790 net.cpp:434] conv5_5/sep_mbox_conf_perm <- conv5_5/sep_mbox_conf
I1208 16:04:44.531005  1790 net.cpp:408] conv5_5/sep_mbox_conf_perm -> conv5_5/sep_mbox_conf_perm
I1208 16:04:44.531090  1790 net.cpp:150] Setting up conv5_5/sep_mbox_conf_perm
I1208 16:04:44.531095  1790 net.cpp:157] Top shape: 2 19 32 10 (12160)
I1208 16:04:44.531097  1790 net.cpp:165] Memory required for data: 543689312
I1208 16:04:44.531100  1790 layer_factory.hpp:77] Creating layer conv5_5/sep_mbox_conf_flat
I1208 16:04:44.531105  1790 net.cpp:100] Creating Layer conv5_5/sep_mbox_conf_flat
I1208 16:04:44.531108  1790 net.cpp:434] conv5_5/sep_mbox_conf_flat <- conv5_5/sep_mbox_conf_perm
I1208 16:04:44.531113  1790 net.cpp:408] conv5_5/sep_mbox_conf_flat -> conv5_5/sep_mbox_conf_flat
I1208 16:04:44.531134  1790 net.cpp:150] Setting up conv5_5/sep_mbox_conf_flat
I1208 16:04:44.531139  1790 net.cpp:157] Top shape: 2 6080 (12160)
I1208 16:04:44.531141  1790 net.cpp:165] Memory required for data: 543737952
I1208 16:04:44.531144  1790 layer_factory.hpp:77] Creating layer conv5_5/sep_mbox_priorbox
I1208 16:04:44.531150  1790 net.cpp:100] Creating Layer conv5_5/sep_mbox_priorbox
I1208 16:04:44.531154  1790 net.cpp:434] conv5_5/sep_mbox_priorbox <- conv5_5/sep_relu5_5/sep_0_split_3
I1208 16:04:44.531158  1790 net.cpp:434] conv5_5/sep_mbox_priorbox <- data_data_0_split_1
I1208 16:04:44.531165  1790 net.cpp:408] conv5_5/sep_mbox_priorbox -> conv5_5/sep_mbox_priorbox
I1208 16:04:44.531189  1790 net.cpp:150] Setting up conv5_5/sep_mbox_priorbox
I1208 16:04:44.531193  1790 net.cpp:157] Top shape: 1 2 4864 (9728)
I1208 16:04:44.531196  1790 net.cpp:165] Memory required for data: 543776864
I1208 16:04:44.531199  1790 layer_factory.hpp:77] Creating layer conv6/sep_mbox_loc
I1208 16:04:44.531206  1790 net.cpp:100] Creating Layer conv6/sep_mbox_loc
I1208 16:04:44.531209  1790 net.cpp:434] conv6/sep_mbox_loc <- conv6/sep_relu6/sep_0_split_1
I1208 16:04:44.531215  1790 net.cpp:408] conv6/sep_mbox_loc -> conv6/sep_mbox_loc
I1208 16:04:44.532690  1790 net.cpp:150] Setting up conv6/sep_mbox_loc
I1208 16:04:44.532698  1790 net.cpp:157] Top shape: 2 8 10 16 (2560)
I1208 16:04:44.532701  1790 net.cpp:165] Memory required for data: 543787104
I1208 16:04:44.532707  1790 layer_factory.hpp:77] Creating layer conv6/sep_mbox_loc_perm
I1208 16:04:44.532713  1790 net.cpp:100] Creating Layer conv6/sep_mbox_loc_perm
I1208 16:04:44.532717  1790 net.cpp:434] conv6/sep_mbox_loc_perm <- conv6/sep_mbox_loc
I1208 16:04:44.532723  1790 net.cpp:408] conv6/sep_mbox_loc_perm -> conv6/sep_mbox_loc_perm
I1208 16:04:44.532810  1790 net.cpp:150] Setting up conv6/sep_mbox_loc_perm
I1208 16:04:44.532816  1790 net.cpp:157] Top shape: 2 10 16 8 (2560)
I1208 16:04:44.532819  1790 net.cpp:165] Memory required for data: 543797344
I1208 16:04:44.532821  1790 layer_factory.hpp:77] Creating layer conv6/sep_mbox_loc_flat
I1208 16:04:44.532826  1790 net.cpp:100] Creating Layer conv6/sep_mbox_loc_flat
I1208 16:04:44.532830  1790 net.cpp:434] conv6/sep_mbox_loc_flat <- conv6/sep_mbox_loc_perm
I1208 16:04:44.532835  1790 net.cpp:408] conv6/sep_mbox_loc_flat -> conv6/sep_mbox_loc_flat
I1208 16:04:44.532856  1790 net.cpp:150] Setting up conv6/sep_mbox_loc_flat
I1208 16:04:44.532861  1790 net.cpp:157] Top shape: 2 1280 (2560)
I1208 16:04:44.532871  1790 net.cpp:165] Memory required for data: 543807584
I1208 16:04:44.532874  1790 layer_factory.hpp:77] Creating layer conv6/sep_mbox_conf
I1208 16:04:44.532882  1790 net.cpp:100] Creating Layer conv6/sep_mbox_conf
I1208 16:04:44.532886  1790 net.cpp:434] conv6/sep_mbox_conf <- conv6/sep_relu6/sep_0_split_2
I1208 16:04:44.532891  1790 net.cpp:408] conv6/sep_mbox_conf -> conv6/sep_mbox_conf
I1208 16:04:44.535858  1790 net.cpp:150] Setting up conv6/sep_mbox_conf
I1208 16:04:44.535873  1790 net.cpp:157] Top shape: 2 10 10 16 (3200)
I1208 16:04:44.535876  1790 net.cpp:165] Memory required for data: 543820384
I1208 16:04:44.535884  1790 layer_factory.hpp:77] Creating layer conv6/sep_mbox_conf_perm
I1208 16:04:44.535894  1790 net.cpp:100] Creating Layer conv6/sep_mbox_conf_perm
I1208 16:04:44.535898  1790 net.cpp:434] conv6/sep_mbox_conf_perm <- conv6/sep_mbox_conf
I1208 16:04:44.535904  1790 net.cpp:408] conv6/sep_mbox_conf_perm -> conv6/sep_mbox_conf_perm
I1208 16:04:44.535998  1790 net.cpp:150] Setting up conv6/sep_mbox_conf_perm
I1208 16:04:44.536003  1790 net.cpp:157] Top shape: 2 10 16 10 (3200)
I1208 16:04:44.536006  1790 net.cpp:165] Memory required for data: 543833184
I1208 16:04:44.536010  1790 layer_factory.hpp:77] Creating layer conv6/sep_mbox_conf_flat
I1208 16:04:44.536015  1790 net.cpp:100] Creating Layer conv6/sep_mbox_conf_flat
I1208 16:04:44.536018  1790 net.cpp:434] conv6/sep_mbox_conf_flat <- conv6/sep_mbox_conf_perm
I1208 16:04:44.536025  1790 net.cpp:408] conv6/sep_mbox_conf_flat -> conv6/sep_mbox_conf_flat
I1208 16:04:44.536046  1790 net.cpp:150] Setting up conv6/sep_mbox_conf_flat
I1208 16:04:44.536051  1790 net.cpp:157] Top shape: 2 1600 (3200)
I1208 16:04:44.536053  1790 net.cpp:165] Memory required for data: 543845984
I1208 16:04:44.536056  1790 layer_factory.hpp:77] Creating layer conv6/sep_mbox_priorbox
I1208 16:04:44.536062  1790 net.cpp:100] Creating Layer conv6/sep_mbox_priorbox
I1208 16:04:44.536065  1790 net.cpp:434] conv6/sep_mbox_priorbox <- conv6/sep_relu6/sep_0_split_3
I1208 16:04:44.536070  1790 net.cpp:434] conv6/sep_mbox_priorbox <- data_data_0_split_2
I1208 16:04:44.536077  1790 net.cpp:408] conv6/sep_mbox_priorbox -> conv6/sep_mbox_priorbox
I1208 16:04:44.536103  1790 net.cpp:150] Setting up conv6/sep_mbox_priorbox
I1208 16:04:44.536108  1790 net.cpp:157] Top shape: 1 2 1280 (2560)
I1208 16:04:44.536110  1790 net.cpp:165] Memory required for data: 543856224
I1208 16:04:44.536113  1790 layer_factory.hpp:77] Creating layer ssd1_2_mbox_loc
I1208 16:04:44.536121  1790 net.cpp:100] Creating Layer ssd1_2_mbox_loc
I1208 16:04:44.536124  1790 net.cpp:434] ssd1_2_mbox_loc <- ssd1_2_ssd1_2_relu_0_split_1
I1208 16:04:44.536130  1790 net.cpp:408] ssd1_2_mbox_loc -> ssd1_2_mbox_loc
I1208 16:04:44.537518  1790 net.cpp:150] Setting up ssd1_2_mbox_loc
I1208 16:04:44.537528  1790 net.cpp:157] Top shape: 2 8 5 8 (640)
I1208 16:04:44.537530  1790 net.cpp:165] Memory required for data: 543858784
I1208 16:04:44.537536  1790 layer_factory.hpp:77] Creating layer ssd1_2_mbox_loc_perm
I1208 16:04:44.537544  1790 net.cpp:100] Creating Layer ssd1_2_mbox_loc_perm
I1208 16:04:44.537546  1790 net.cpp:434] ssd1_2_mbox_loc_perm <- ssd1_2_mbox_loc
I1208 16:04:44.537552  1790 net.cpp:408] ssd1_2_mbox_loc_perm -> ssd1_2_mbox_loc_perm
I1208 16:04:44.537643  1790 net.cpp:150] Setting up ssd1_2_mbox_loc_perm
I1208 16:04:44.537648  1790 net.cpp:157] Top shape: 2 5 8 8 (640)
I1208 16:04:44.537652  1790 net.cpp:165] Memory required for data: 543861344
I1208 16:04:44.537653  1790 layer_factory.hpp:77] Creating layer ssd1_2_mbox_loc_flat
I1208 16:04:44.537659  1790 net.cpp:100] Creating Layer ssd1_2_mbox_loc_flat
I1208 16:04:44.537663  1790 net.cpp:434] ssd1_2_mbox_loc_flat <- ssd1_2_mbox_loc_perm
I1208 16:04:44.537668  1790 net.cpp:408] ssd1_2_mbox_loc_flat -> ssd1_2_mbox_loc_flat
I1208 16:04:44.537688  1790 net.cpp:150] Setting up ssd1_2_mbox_loc_flat
I1208 16:04:44.537693  1790 net.cpp:157] Top shape: 2 320 (640)
I1208 16:04:44.537696  1790 net.cpp:165] Memory required for data: 543863904
I1208 16:04:44.537708  1790 layer_factory.hpp:77] Creating layer ssd1_2_mbox_conf
I1208 16:04:44.537716  1790 net.cpp:100] Creating Layer ssd1_2_mbox_conf
I1208 16:04:44.537719  1790 net.cpp:434] ssd1_2_mbox_conf <- ssd1_2_ssd1_2_relu_0_split_2
I1208 16:04:44.537725  1790 net.cpp:408] ssd1_2_mbox_conf -> ssd1_2_mbox_conf
I1208 16:04:44.539225  1790 net.cpp:150] Setting up ssd1_2_mbox_conf
I1208 16:04:44.539233  1790 net.cpp:157] Top shape: 2 10 5 8 (800)
I1208 16:04:44.539237  1790 net.cpp:165] Memory required for data: 543867104
I1208 16:04:44.539242  1790 layer_factory.hpp:77] Creating layer ssd1_2_mbox_conf_perm
I1208 16:04:44.539248  1790 net.cpp:100] Creating Layer ssd1_2_mbox_conf_perm
I1208 16:04:44.539252  1790 net.cpp:434] ssd1_2_mbox_conf_perm <- ssd1_2_mbox_conf
I1208 16:04:44.539258  1790 net.cpp:408] ssd1_2_mbox_conf_perm -> ssd1_2_mbox_conf_perm
I1208 16:04:44.539345  1790 net.cpp:150] Setting up ssd1_2_mbox_conf_perm
I1208 16:04:44.539350  1790 net.cpp:157] Top shape: 2 5 8 10 (800)
I1208 16:04:44.539352  1790 net.cpp:165] Memory required for data: 543870304
I1208 16:04:44.539355  1790 layer_factory.hpp:77] Creating layer ssd1_2_mbox_conf_flat
I1208 16:04:44.539361  1790 net.cpp:100] Creating Layer ssd1_2_mbox_conf_flat
I1208 16:04:44.539364  1790 net.cpp:434] ssd1_2_mbox_conf_flat <- ssd1_2_mbox_conf_perm
I1208 16:04:44.539369  1790 net.cpp:408] ssd1_2_mbox_conf_flat -> ssd1_2_mbox_conf_flat
I1208 16:04:44.539391  1790 net.cpp:150] Setting up ssd1_2_mbox_conf_flat
I1208 16:04:44.539396  1790 net.cpp:157] Top shape: 2 400 (800)
I1208 16:04:44.539397  1790 net.cpp:165] Memory required for data: 543873504
I1208 16:04:44.539400  1790 layer_factory.hpp:77] Creating layer ssd1_2_mbox_priorbox
I1208 16:04:44.539404  1790 net.cpp:100] Creating Layer ssd1_2_mbox_priorbox
I1208 16:04:44.539408  1790 net.cpp:434] ssd1_2_mbox_priorbox <- ssd1_2_ssd1_2_relu_0_split_3
I1208 16:04:44.539412  1790 net.cpp:434] ssd1_2_mbox_priorbox <- data_data_0_split_3
I1208 16:04:44.539418  1790 net.cpp:408] ssd1_2_mbox_priorbox -> ssd1_2_mbox_priorbox
I1208 16:04:44.539443  1790 net.cpp:150] Setting up ssd1_2_mbox_priorbox
I1208 16:04:44.539446  1790 net.cpp:157] Top shape: 1 2 320 (640)
I1208 16:04:44.539449  1790 net.cpp:165] Memory required for data: 543876064
I1208 16:04:44.539451  1790 layer_factory.hpp:77] Creating layer ssd2_2_mbox_loc
I1208 16:04:44.539459  1790 net.cpp:100] Creating Layer ssd2_2_mbox_loc
I1208 16:04:44.539466  1790 net.cpp:434] ssd2_2_mbox_loc <- ssd2_2_ssd2_2_relu_0_split_1
I1208 16:04:44.539472  1790 net.cpp:408] ssd2_2_mbox_loc -> ssd2_2_mbox_loc
I1208 16:04:44.541409  1790 net.cpp:150] Setting up ssd2_2_mbox_loc
I1208 16:04:44.541419  1790 net.cpp:157] Top shape: 2 8 3 4 (192)
I1208 16:04:44.541421  1790 net.cpp:165] Memory required for data: 543876832
I1208 16:04:44.541429  1790 layer_factory.hpp:77] Creating layer ssd2_2_mbox_loc_perm
I1208 16:04:44.541435  1790 net.cpp:100] Creating Layer ssd2_2_mbox_loc_perm
I1208 16:04:44.541438  1790 net.cpp:434] ssd2_2_mbox_loc_perm <- ssd2_2_mbox_loc
I1208 16:04:44.541445  1790 net.cpp:408] ssd2_2_mbox_loc_perm -> ssd2_2_mbox_loc_perm
I1208 16:04:44.541532  1790 net.cpp:150] Setting up ssd2_2_mbox_loc_perm
I1208 16:04:44.541537  1790 net.cpp:157] Top shape: 2 3 4 8 (192)
I1208 16:04:44.541539  1790 net.cpp:165] Memory required for data: 543877600
I1208 16:04:44.541541  1790 layer_factory.hpp:77] Creating layer ssd2_2_mbox_loc_flat
I1208 16:04:44.541548  1790 net.cpp:100] Creating Layer ssd2_2_mbox_loc_flat
I1208 16:04:44.541551  1790 net.cpp:434] ssd2_2_mbox_loc_flat <- ssd2_2_mbox_loc_perm
I1208 16:04:44.541556  1790 net.cpp:408] ssd2_2_mbox_loc_flat -> ssd2_2_mbox_loc_flat
I1208 16:04:44.541577  1790 net.cpp:150] Setting up ssd2_2_mbox_loc_flat
I1208 16:04:44.541581  1790 net.cpp:157] Top shape: 2 96 (192)
I1208 16:04:44.541584  1790 net.cpp:165] Memory required for data: 543878368
I1208 16:04:44.541587  1790 layer_factory.hpp:77] Creating layer ssd2_2_mbox_conf
I1208 16:04:44.541596  1790 net.cpp:100] Creating Layer ssd2_2_mbox_conf
I1208 16:04:44.541599  1790 net.cpp:434] ssd2_2_mbox_conf <- ssd2_2_ssd2_2_relu_0_split_2
I1208 16:04:44.541615  1790 net.cpp:408] ssd2_2_mbox_conf -> ssd2_2_mbox_conf
I1208 16:04:44.542840  1790 net.cpp:150] Setting up ssd2_2_mbox_conf
I1208 16:04:44.542847  1790 net.cpp:157] Top shape: 2 10 3 4 (240)
I1208 16:04:44.542850  1790 net.cpp:165] Memory required for data: 543879328
I1208 16:04:44.542856  1790 layer_factory.hpp:77] Creating layer ssd2_2_mbox_conf_perm
I1208 16:04:44.542862  1790 net.cpp:100] Creating Layer ssd2_2_mbox_conf_perm
I1208 16:04:44.542866  1790 net.cpp:434] ssd2_2_mbox_conf_perm <- ssd2_2_mbox_conf
I1208 16:04:44.542871  1790 net.cpp:408] ssd2_2_mbox_conf_perm -> ssd2_2_mbox_conf_perm
I1208 16:04:44.542958  1790 net.cpp:150] Setting up ssd2_2_mbox_conf_perm
I1208 16:04:44.542963  1790 net.cpp:157] Top shape: 2 3 4 10 (240)
I1208 16:04:44.542964  1790 net.cpp:165] Memory required for data: 543880288
I1208 16:04:44.542968  1790 layer_factory.hpp:77] Creating layer ssd2_2_mbox_conf_flat
I1208 16:04:44.542973  1790 net.cpp:100] Creating Layer ssd2_2_mbox_conf_flat
I1208 16:04:44.542976  1790 net.cpp:434] ssd2_2_mbox_conf_flat <- ssd2_2_mbox_conf_perm
I1208 16:04:44.542980  1790 net.cpp:408] ssd2_2_mbox_conf_flat -> ssd2_2_mbox_conf_flat
I1208 16:04:44.543002  1790 net.cpp:150] Setting up ssd2_2_mbox_conf_flat
I1208 16:04:44.543006  1790 net.cpp:157] Top shape: 2 120 (240)
I1208 16:04:44.543009  1790 net.cpp:165] Memory required for data: 543881248
I1208 16:04:44.543011  1790 layer_factory.hpp:77] Creating layer ssd2_2_mbox_priorbox
I1208 16:04:44.543017  1790 net.cpp:100] Creating Layer ssd2_2_mbox_priorbox
I1208 16:04:44.543021  1790 net.cpp:434] ssd2_2_mbox_priorbox <- ssd2_2_ssd2_2_relu_0_split_3
I1208 16:04:44.543025  1790 net.cpp:434] ssd2_2_mbox_priorbox <- data_data_0_split_4
I1208 16:04:44.543030  1790 net.cpp:408] ssd2_2_mbox_priorbox -> ssd2_2_mbox_priorbox
I1208 16:04:44.543052  1790 net.cpp:150] Setting up ssd2_2_mbox_priorbox
I1208 16:04:44.543057  1790 net.cpp:157] Top shape: 1 2 96 (192)
I1208 16:04:44.543059  1790 net.cpp:165] Memory required for data: 543882016
I1208 16:04:44.543062  1790 layer_factory.hpp:77] Creating layer ssd3_2_mbox_loc
I1208 16:04:44.543069  1790 net.cpp:100] Creating Layer ssd3_2_mbox_loc
I1208 16:04:44.543073  1790 net.cpp:434] ssd3_2_mbox_loc <- ssd3_2_ssd3_2_relu_0_split_1
I1208 16:04:44.543079  1790 net.cpp:408] ssd3_2_mbox_loc -> ssd3_2_mbox_loc
I1208 16:04:44.544394  1790 net.cpp:150] Setting up ssd3_2_mbox_loc
I1208 16:04:44.544402  1790 net.cpp:157] Top shape: 2 8 2 2 (64)
I1208 16:04:44.544406  1790 net.cpp:165] Memory required for data: 543882272
I1208 16:04:44.544412  1790 layer_factory.hpp:77] Creating layer ssd3_2_mbox_loc_perm
I1208 16:04:44.544417  1790 net.cpp:100] Creating Layer ssd3_2_mbox_loc_perm
I1208 16:04:44.544421  1790 net.cpp:434] ssd3_2_mbox_loc_perm <- ssd3_2_mbox_loc
I1208 16:04:44.544428  1790 net.cpp:408] ssd3_2_mbox_loc_perm -> ssd3_2_mbox_loc_perm
I1208 16:04:44.544514  1790 net.cpp:150] Setting up ssd3_2_mbox_loc_perm
I1208 16:04:44.544519  1790 net.cpp:157] Top shape: 2 2 2 8 (64)
I1208 16:04:44.544523  1790 net.cpp:165] Memory required for data: 543882528
I1208 16:04:44.544526  1790 layer_factory.hpp:77] Creating layer ssd3_2_mbox_loc_flat
I1208 16:04:44.544531  1790 net.cpp:100] Creating Layer ssd3_2_mbox_loc_flat
I1208 16:04:44.544535  1790 net.cpp:434] ssd3_2_mbox_loc_flat <- ssd3_2_mbox_loc_perm
I1208 16:04:44.544540  1790 net.cpp:408] ssd3_2_mbox_loc_flat -> ssd3_2_mbox_loc_flat
I1208 16:04:44.544560  1790 net.cpp:150] Setting up ssd3_2_mbox_loc_flat
I1208 16:04:44.544565  1790 net.cpp:157] Top shape: 2 32 (64)
I1208 16:04:44.544567  1790 net.cpp:165] Memory required for data: 543882784
I1208 16:04:44.544570  1790 layer_factory.hpp:77] Creating layer ssd3_2_mbox_conf
I1208 16:04:44.544580  1790 net.cpp:100] Creating Layer ssd3_2_mbox_conf
I1208 16:04:44.544584  1790 net.cpp:434] ssd3_2_mbox_conf <- ssd3_2_ssd3_2_relu_0_split_2
I1208 16:04:44.544589  1790 net.cpp:408] ssd3_2_mbox_conf -> ssd3_2_mbox_conf
I1208 16:04:44.546558  1790 net.cpp:150] Setting up ssd3_2_mbox_conf
I1208 16:04:44.546576  1790 net.cpp:157] Top shape: 2 10 2 2 (80)
I1208 16:04:44.546579  1790 net.cpp:165] Memory required for data: 543883104
I1208 16:04:44.546586  1790 layer_factory.hpp:77] Creating layer ssd3_2_mbox_conf_perm
I1208 16:04:44.546592  1790 net.cpp:100] Creating Layer ssd3_2_mbox_conf_perm
I1208 16:04:44.546597  1790 net.cpp:434] ssd3_2_mbox_conf_perm <- ssd3_2_mbox_conf
I1208 16:04:44.546604  1790 net.cpp:408] ssd3_2_mbox_conf_perm -> ssd3_2_mbox_conf_perm
I1208 16:04:44.546691  1790 net.cpp:150] Setting up ssd3_2_mbox_conf_perm
I1208 16:04:44.546697  1790 net.cpp:157] Top shape: 2 2 2 10 (80)
I1208 16:04:44.546701  1790 net.cpp:165] Memory required for data: 543883424
I1208 16:04:44.546705  1790 layer_factory.hpp:77] Creating layer ssd3_2_mbox_conf_flat
I1208 16:04:44.546708  1790 net.cpp:100] Creating Layer ssd3_2_mbox_conf_flat
I1208 16:04:44.546711  1790 net.cpp:434] ssd3_2_mbox_conf_flat <- ssd3_2_mbox_conf_perm
I1208 16:04:44.546717  1790 net.cpp:408] ssd3_2_mbox_conf_flat -> ssd3_2_mbox_conf_flat
I1208 16:04:44.546738  1790 net.cpp:150] Setting up ssd3_2_mbox_conf_flat
I1208 16:04:44.546743  1790 net.cpp:157] Top shape: 2 40 (80)
I1208 16:04:44.546746  1790 net.cpp:165] Memory required for data: 543883744
I1208 16:04:44.546751  1790 layer_factory.hpp:77] Creating layer ssd3_2_mbox_priorbox
I1208 16:04:44.546756  1790 net.cpp:100] Creating Layer ssd3_2_mbox_priorbox
I1208 16:04:44.546758  1790 net.cpp:434] ssd3_2_mbox_priorbox <- ssd3_2_ssd3_2_relu_0_split_3
I1208 16:04:44.546762  1790 net.cpp:434] ssd3_2_mbox_priorbox <- data_data_0_split_5
I1208 16:04:44.546769  1790 net.cpp:408] ssd3_2_mbox_priorbox -> ssd3_2_mbox_priorbox
I1208 16:04:44.546792  1790 net.cpp:150] Setting up ssd3_2_mbox_priorbox
I1208 16:04:44.546797  1790 net.cpp:157] Top shape: 1 2 32 (64)
I1208 16:04:44.546800  1790 net.cpp:165] Memory required for data: 543884000
I1208 16:04:44.546803  1790 layer_factory.hpp:77] Creating layer ssd4_2_mbox_loc
I1208 16:04:44.546811  1790 net.cpp:100] Creating Layer ssd4_2_mbox_loc
I1208 16:04:44.546814  1790 net.cpp:434] ssd4_2_mbox_loc <- ssd4_2_ssd4_2_relu_0_split_0
I1208 16:04:44.546819  1790 net.cpp:408] ssd4_2_mbox_loc -> ssd4_2_mbox_loc
I1208 16:04:44.548074  1790 net.cpp:150] Setting up ssd4_2_mbox_loc
I1208 16:04:44.548084  1790 net.cpp:157] Top shape: 2 8 1 1 (16)
I1208 16:04:44.548086  1790 net.cpp:165] Memory required for data: 543884064
I1208 16:04:44.548092  1790 layer_factory.hpp:77] Creating layer ssd4_2_mbox_loc_perm
I1208 16:04:44.548099  1790 net.cpp:100] Creating Layer ssd4_2_mbox_loc_perm
I1208 16:04:44.548105  1790 net.cpp:434] ssd4_2_mbox_loc_perm <- ssd4_2_mbox_loc
I1208 16:04:44.548110  1790 net.cpp:408] ssd4_2_mbox_loc_perm -> ssd4_2_mbox_loc_perm
I1208 16:04:44.548194  1790 net.cpp:150] Setting up ssd4_2_mbox_loc_perm
I1208 16:04:44.548199  1790 net.cpp:157] Top shape: 2 1 1 8 (16)
I1208 16:04:44.548202  1790 net.cpp:165] Memory required for data: 543884128
I1208 16:04:44.548204  1790 layer_factory.hpp:77] Creating layer ssd4_2_mbox_loc_flat
I1208 16:04:44.548210  1790 net.cpp:100] Creating Layer ssd4_2_mbox_loc_flat
I1208 16:04:44.548214  1790 net.cpp:434] ssd4_2_mbox_loc_flat <- ssd4_2_mbox_loc_perm
I1208 16:04:44.548219  1790 net.cpp:408] ssd4_2_mbox_loc_flat -> ssd4_2_mbox_loc_flat
I1208 16:04:44.548240  1790 net.cpp:150] Setting up ssd4_2_mbox_loc_flat
I1208 16:04:44.548245  1790 net.cpp:157] Top shape: 2 8 (16)
I1208 16:04:44.548247  1790 net.cpp:165] Memory required for data: 543884192
I1208 16:04:44.548250  1790 layer_factory.hpp:77] Creating layer ssd4_2_mbox_conf
I1208 16:04:44.548259  1790 net.cpp:100] Creating Layer ssd4_2_mbox_conf
I1208 16:04:44.548261  1790 net.cpp:434] ssd4_2_mbox_conf <- ssd4_2_ssd4_2_relu_0_split_1
I1208 16:04:44.548269  1790 net.cpp:408] ssd4_2_mbox_conf -> ssd4_2_mbox_conf
I1208 16:04:44.549496  1790 net.cpp:150] Setting up ssd4_2_mbox_conf
I1208 16:04:44.549504  1790 net.cpp:157] Top shape: 2 10 1 1 (20)
I1208 16:04:44.549506  1790 net.cpp:165] Memory required for data: 543884272
I1208 16:04:44.549512  1790 layer_factory.hpp:77] Creating layer ssd4_2_mbox_conf_perm
I1208 16:04:44.549525  1790 net.cpp:100] Creating Layer ssd4_2_mbox_conf_perm
I1208 16:04:44.549530  1790 net.cpp:434] ssd4_2_mbox_conf_perm <- ssd4_2_mbox_conf
I1208 16:04:44.549536  1790 net.cpp:408] ssd4_2_mbox_conf_perm -> ssd4_2_mbox_conf_perm
I1208 16:04:44.549623  1790 net.cpp:150] Setting up ssd4_2_mbox_conf_perm
I1208 16:04:44.549629  1790 net.cpp:157] Top shape: 2 1 1 10 (20)
I1208 16:04:44.549631  1790 net.cpp:165] Memory required for data: 543884352
I1208 16:04:44.549634  1790 layer_factory.hpp:77] Creating layer ssd4_2_mbox_conf_flat
I1208 16:04:44.549638  1790 net.cpp:100] Creating Layer ssd4_2_mbox_conf_flat
I1208 16:04:44.549643  1790 net.cpp:434] ssd4_2_mbox_conf_flat <- ssd4_2_mbox_conf_perm
I1208 16:04:44.549649  1790 net.cpp:408] ssd4_2_mbox_conf_flat -> ssd4_2_mbox_conf_flat
I1208 16:04:44.549669  1790 net.cpp:150] Setting up ssd4_2_mbox_conf_flat
I1208 16:04:44.549674  1790 net.cpp:157] Top shape: 2 10 (20)
I1208 16:04:44.549676  1790 net.cpp:165] Memory required for data: 543884432
I1208 16:04:44.549679  1790 layer_factory.hpp:77] Creating layer ssd4_2_mbox_priorbox
I1208 16:04:44.549685  1790 net.cpp:100] Creating Layer ssd4_2_mbox_priorbox
I1208 16:04:44.549687  1790 net.cpp:434] ssd4_2_mbox_priorbox <- ssd4_2_ssd4_2_relu_0_split_2
I1208 16:04:44.549692  1790 net.cpp:434] ssd4_2_mbox_priorbox <- data_data_0_split_6
I1208 16:04:44.549698  1790 net.cpp:408] ssd4_2_mbox_priorbox -> ssd4_2_mbox_priorbox
I1208 16:04:44.549721  1790 net.cpp:150] Setting up ssd4_2_mbox_priorbox
I1208 16:04:44.549726  1790 net.cpp:157] Top shape: 1 2 8 (16)
I1208 16:04:44.549728  1790 net.cpp:165] Memory required for data: 543884496
I1208 16:04:44.549731  1790 layer_factory.hpp:77] Creating layer mbox_loc
I1208 16:04:44.549736  1790 net.cpp:100] Creating Layer mbox_loc
I1208 16:04:44.549739  1790 net.cpp:434] mbox_loc <- conv5_5/sep_mbox_loc_flat
I1208 16:04:44.549746  1790 net.cpp:434] mbox_loc <- conv6/sep_mbox_loc_flat
I1208 16:04:44.549749  1790 net.cpp:434] mbox_loc <- ssd1_2_mbox_loc_flat
I1208 16:04:44.549754  1790 net.cpp:434] mbox_loc <- ssd2_2_mbox_loc_flat
I1208 16:04:44.549757  1790 net.cpp:434] mbox_loc <- ssd3_2_mbox_loc_flat
I1208 16:04:44.549762  1790 net.cpp:434] mbox_loc <- ssd4_2_mbox_loc_flat
I1208 16:04:44.549768  1790 net.cpp:408] mbox_loc -> mbox_loc
I1208 16:04:44.549793  1790 net.cpp:150] Setting up mbox_loc
I1208 16:04:44.549796  1790 net.cpp:157] Top shape: 2 6600 (13200)
I1208 16:04:44.549799  1790 net.cpp:165] Memory required for data: 543937296
I1208 16:04:44.549803  1790 layer_factory.hpp:77] Creating layer mbox_conf
I1208 16:04:44.549808  1790 net.cpp:100] Creating Layer mbox_conf
I1208 16:04:44.549810  1790 net.cpp:434] mbox_conf <- conv5_5/sep_mbox_conf_flat
I1208 16:04:44.549814  1790 net.cpp:434] mbox_conf <- conv6/sep_mbox_conf_flat
I1208 16:04:44.549819  1790 net.cpp:434] mbox_conf <- ssd1_2_mbox_conf_flat
I1208 16:04:44.549823  1790 net.cpp:434] mbox_conf <- ssd2_2_mbox_conf_flat
I1208 16:04:44.549826  1790 net.cpp:434] mbox_conf <- ssd3_2_mbox_conf_flat
I1208 16:04:44.549831  1790 net.cpp:434] mbox_conf <- ssd4_2_mbox_conf_flat
I1208 16:04:44.549835  1790 net.cpp:408] mbox_conf -> mbox_conf
I1208 16:04:44.549856  1790 net.cpp:150] Setting up mbox_conf
I1208 16:04:44.549860  1790 net.cpp:157] Top shape: 2 8250 (16500)
I1208 16:04:44.549863  1790 net.cpp:165] Memory required for data: 544003296
I1208 16:04:44.549866  1790 layer_factory.hpp:77] Creating layer mbox_priorbox
I1208 16:04:44.549872  1790 net.cpp:100] Creating Layer mbox_priorbox
I1208 16:04:44.549875  1790 net.cpp:434] mbox_priorbox <- conv5_5/sep_mbox_priorbox
I1208 16:04:44.549880  1790 net.cpp:434] mbox_priorbox <- conv6/sep_mbox_priorbox
I1208 16:04:44.549883  1790 net.cpp:434] mbox_priorbox <- ssd1_2_mbox_priorbox
I1208 16:04:44.549887  1790 net.cpp:434] mbox_priorbox <- ssd2_2_mbox_priorbox
I1208 16:04:44.549891  1790 net.cpp:434] mbox_priorbox <- ssd3_2_mbox_priorbox
I1208 16:04:44.549896  1790 net.cpp:434] mbox_priorbox <- ssd4_2_mbox_priorbox
I1208 16:04:44.549906  1790 net.cpp:408] mbox_priorbox -> mbox_priorbox
I1208 16:04:44.549926  1790 net.cpp:150] Setting up mbox_priorbox
I1208 16:04:44.549930  1790 net.cpp:157] Top shape: 1 2 6600 (13200)
I1208 16:04:44.549934  1790 net.cpp:165] Memory required for data: 544056096
I1208 16:04:44.549937  1790 layer_factory.hpp:77] Creating layer mbox_loss
I1208 16:04:44.549945  1790 net.cpp:100] Creating Layer mbox_loss
I1208 16:04:44.549948  1790 net.cpp:434] mbox_loss <- mbox_loc
I1208 16:04:44.549952  1790 net.cpp:434] mbox_loss <- mbox_conf
I1208 16:04:44.549957  1790 net.cpp:434] mbox_loss <- mbox_priorbox
…
name: "MobileNet_GTSDB_SSD_510x300_100_40_Square_1_test"
state {
  phase: TEST
}
layer {
  name: "data"
  type: "AnnotatedData"
  top: "data"
  top: "label"
  include {
    phase: TEST
  }
  transform_param {
    mean_value: 130
    mean_value: 127
    mean_value: 125
    resize_param {
      prob: 1
      resize_mode: WARP
      height: 300
      width: 510
      interp_mode: LINEAR
    }
  }
  data_param {
    source: "examples/GTSDB/GTSDB_test_lmdb"
    batch_size: 1
    backend: LMDB
  }
  annotated_data_param {
    batch_sampler {
    }
    label_map_file: "data/GTSDB/labelmap_GTSDB.prototxt"
  }
}
layer {
  name: "conv1"
  type: "Convolution"
  bottom: "data"
  top: "conv1"
  param {
    lr_mult: 1
    decay_mult: 1
  }
  convolution_param {
    num_output: 32
    bias_term: false
    pad: 1
    kernel_size: 3
    stride: 2
    weight_filler {
      type: "msra"
    }
  }
}
layer {
  name: "conv1/bn"
  type: "BatchNorm"
  bottom: "conv1"
  top: "conv1"
  batch_norm_param {
    use_global_stats: true
    eps: 1e-05
  }
}
layer {
  name: "conv1/scale"
  type: "Scale"
  bottom: "conv1"
  top: "conv1"
  param {
    lr_mult: 1
    decay_mult: 0
  }
  param {
    lr_mult: 1
    decay_mult: 0
  }
  scale_param {
    filler {
      type: "constant"
      value: 1
    }
    bias_term: true
    bias_filler {
      type: "constant"
      value: 0
    }
  }
}
layer {
  name: "relu1"
  type: "ReLU"
  bottom: "conv1"
  top: "conv1"
}
layer {
  name: "conv2_1/dw"
  type: "DepthwiseConvolution"
  bottom: "conv1"
  top: "conv2_1/dw"
  param {
    lr_mult: 1
    decay_mult: 1
  }
  convolution_param {
    num_output: 32
    bias_term: false
    pad: 1
    kernel_size: 3
    group: 32
    stride: 1
    weight_filler {
      type: "msra"
    }
  }
}
layer {
  name: "conv2_1/dw/bn"
  type: "BatchNorm"
  bottom: "conv2_1/dw"
  top: "conv2_1/dw"
  batch_norm_param {
    use_global_stats: true
    eps: 1e-05
  }
}
layer {
  name: "conv2_1/dw/scale"
  type: "Scale"
  bottom: "conv2_1/dw"
  top: "conv2_1/dw"
  param {
    lr_mult: 1
    decay_mult: 0
  }
  param {
    lr_mult: 1
    decay_mult: 0
  }
  scale_param {
    filler {
      type: "constant"
      value: 1
    }
    bias_term: true
    bias_filler {
      type: "constant"
      value: 0
    }
  }
}
layer {
  name: "relu2_1/dw"
  type: "ReLU"
  bottom: "conv2_1/dw"
  top: "conv2_1/dw"
}
layer {
  name: "conv2_1/sep"
  type: "Convolution"
  bottom: "conv2_1/dw"
  top: "conv2_1/sep"
  param {
    lr_mult: 1
    decay_mult: 1
  }
  convolution_param {
    num_output: 64
    bias_term: false
    pad: 0
    kernel_size: 1
    stride: 1
    weight_filler {
      type: "msra"
    }
  }
}
layer {
  name: "conv2_1/sep/bn"
  type: "BatchNorm"
  bottom: "conv2_1/sep"
  top: "conv2_1/sep"
  batch_norm_param {
    use_global_stats: true
    eps: 1e-05
  }
}
layer {
  name: "conv2_1/sep/scale"
  type: "Scale"
  bottom: "conv2_1/sep"
  top: "conv2_1/sep"
  param {
    lr_mult: 1
    decay_mult: 0
  }
  param {
    lr_mult: 1
    decay_mult: 0
  }
  scale_param {
    filler {
      type: "constant"
      value: 1
    }
    bias_term: true
    bias_filler {
      type: "constant"
      value: 0
    }
  }
}
layer {
  name: "relu2_1/sep"
  type: "ReLU"
  bottom: "conv2_1/sep"
  top: "conv2_1/sep"
}
layer {
  name: "conv2_2/dw"
  type: "DepthwiseConvolution"
  bottom: "conv2_1/sep"
  top: "conv2_2/dw"
  param {
    lr_mult: 1
    decay_mult: 1
  }
  convolution_param {
    num_output: 64
    bias_term: false
    pad: 1
    kernel_size: 3
    group: 64
    stride: 2
    weight_filler {
      type: "msra"
    }
  }
}
layer {
  name: "conv2_2/dw/bn"
  type: "BatchNorm"
  bottom: "conv2_2/dw"
  top: "conv2_2/dw"
  batch_norm_param {
    use_global_stats: true
    eps: 1e-05
  }
}
layer {
  name: "conv2_2/dw/scale"
  type: "Scale"
  bottom: "conv2_2/dw"
  top: "conv2_2/dw"
  param {
    lr_mult: 1
    decay_mult: 0
  }
  param {
    lr_mult: 1
    decay_mult: 0
  }
  scale_param {
    filler {
      type: "constant"
      value: 1
    }
    bias_term: true
    bias_filler {
      type: "constant"
      value: 0
    }
  }
}
layer {
  name: "relu2_2/dw"
  type: "ReLU"
  bottom: "conv2_2/dw"
  top: "conv2_2/dw"
}
layer {
  name: "conv2_2/sep"
  type: "Convolution"
  bottom: "conv2_2/dw"
  top: "conv2_2/sep"
  param {
    lr_mult: 1
    decay_mult: 1
  }
  convolution_param {
    num_output: 128
    bias_term: false
    pad: 0
    kernel_size: 1
    stride: 1
    weight_filler {
      type: "msra"
    }
  }
}
layer {
  name: "conv2_2/sep/bn"
  type: "BatchNorm"
  bottom: "conv2_2/sep"
  top: "conv2_2/sep"
  batch_norm_param {
    use_global_stats: true
    eps: 1e-05
  }
}
layer {
  name: "conv2_2/sep/scale"
  type: "Scale"
  bottom: "conv2_2/sep"
  top: "conv2_2/sep"
  param {
    lr_mult: 1
    decay_mult: 0
  }
  param {
    lr_mult: 1
    decay_mult: 0
  }
  scale_param {
    filler {
      type: "constant"
      value: 1
    }
    bias_term: true
    bias_filler {
      type: "constant"
      value: 0
    }
  }
}
layer {
  name: "relu2_2/sep"
  type: "ReLU"
  bottom: "conv2_2/sep"
  top: "conv2_2/sep"
}
layer {
  name: "conv3_1/dw"
  type: "DepthwiseConvolution"
  bottom: "conv2_2/sep"
  top: "conv3_1/dw"
  param {
    lr_mult: 1
    decay_mult: 1
  }
  convolution_param {
    num_output: 128
    bias_term: false
    pad: 1
    kernel_size: 3
    group: 128
    stride: 1
    weight_filler {
      type: "msra"
    }
  }
}
layer {
  name: "conv3_1/dw/bn"
  type: "BatchNorm"
  bottom: "conv3_1/dw"
  top: "conv3_1/dw"
  batch_norm_param {
    use_global_stats: true
    eps: 1e-05
  }
}
layer {
  name: "conv3_1/dw/scale"
  type: "Scale"
  bottom: "conv3_1/dw"
  top: "conv3_1/dw"
  param {
    lr_mult: 1
    decay_mult: 0
  }
  param {
    lr_mult: 1
    decay_mult: 0
  }
  scale_param {
    filler {
      type: "constant"
      value: 1
    }
    bias_term: true
    bias_filler {
      type: "constant"
      value: 0
    }
  }
}
layer {
  name: "relu3_1/dw"
  type: "ReLU"
  bottom: "conv3_1/dw"
  top: "conv3_1/dw"
}
layer {
  name: "conv3_1/sep"
  type: "Convolution"
  bottom: "conv3_1/dw"
  top: "conv3_1/sep"
  param {
    lr_mult: 1
    decay_mult: 1
  }
  convolution_param {
    num_output: 128
    bias_term: false
    pad: 0
    kernel_size: 1
    stride: 1
    weight_filler {
      type: "msra"
    }
  }
}
layer {
  name: "conv3_1/sep/bn"
  type: "BatchNorm"
  bottom: "conv3_1/sep"
  top: "conv3_1/sep"
  batch_norm_param {
    use_global_stats: true
    eps: 1e-05
  }
}
layer {
  name: "conv3_1/sep/scale"
  type: "Scale"
  bottom: "conv3_1/sep"
  top: "conv3_1/sep"
  param {
    lr_mult: 1
    decay_mult: 0
  }
  param {
    lr_mult: 1
    decay_mult: 0
  }
  scale_param {
    filler {
      type: "constant"
      value: 1
    }
    bias_term: true
    bias_filler {
      type: "constant"
      value: 0
    }
  }
}
layer {
  name: "relu3_1/sep"
  type: "ReLU"
  bottom: "conv3_1/sep"
  top: "conv3_1/sep"
}
layer {
  name: "conv3_2/dw"
  type: "DepthwiseConvolution"
  bottom: "conv3_1/sep"
  top: "conv3_2/dw"
  param {
    lr_mult: 1
    decay_mult: 1
  }
  convolution_param {
    num_output: 128
    bias_term: false
    pad: 1
    kernel_size: 3
    group: 128
    stride: 2
    weight_filler {
      type: "msra"
    }
  }
}
layer {
  name: "conv3_2/dw/bn"
  type: "BatchNorm"
  bottom: "conv3_2/dw"
  top: "conv3_2/dw"
  batch_norm_param {
    use_global_stats: true
    eps: 1e-05
  }
}
layer {
  name: "conv3_2/dw/scale"
  type: "Scale"
  bottom: "conv3_2/dw"
  top: "conv3_2/dw"
  param {
    lr_mult: 1
    decay_mult: 0
  }
  param {
    lr_mult: 1
    decay_mult: 0
  }
  scale_param {
    filler {
      type: "constant"
      value: 1
    }
    bias_term: true
    bias_filler {
      type: "constant"
      value: 0
    }
  }
}
layer {
  name: "relu3_2/dw"
  type: "ReLU"
  bottom: "conv3_2/dw"
  top: "conv3_2/dw"
}
layer {
  name: "conv3_2/sep"
  type: "Convolution"
  bottom: "conv3_2/dw"
  top: "conv3_2/sep"
  param {
    lr_mult: 1
    decay_mult: 1
  }
  convolution_param {
    num_output: 256
    bias_term: false
    pad: 0
    kernel_size: 1
    stride: 1
    weight_filler {
      type: "msra"
    }
  }
}
layer {
  name: "conv3_2/sep/bn"
  type: "BatchNorm"
  bottom: "conv3_2/sep"
  top: "conv3_2/sep"
  batch_norm_param {
    use_global_stats: true
    eps: 1e-05
  }
}
layer {
  name: "conv3_2/sep/scale"
  type: "Scale"
  bottom: "conv3_2/sep"
  top: "conv3_2/sep"
  param {
    lr_mult: 1
    decay_mult: 0
  }
  param {
    lr_mult: 1
    decay_mult: 0
  }
  scale_param {
    filler {
      type: "constant"
      value: 1
    }
    bias_term: true
    bias_filler {
      type: "constant"
      value: 0
    }
  }
}
layer {
  name: "relu3_2/sep"
  type: "ReLU"
  bottom: "conv3_2/sep"
  top: "conv3_2/sep"
}
layer {
  name: "conv4_1/dw"
  type: "DepthwiseConvolution"
  bottom: "conv3_2/sep"
  top: "conv4_1/dw"
  param {
    lr_mult: 1
    decay_mult: 1
  }
  convolution_param {
    num_output: 256
    bias_term: false
    pad: 1
    kernel_size: 3
    group: 256
    stride: 1
    weight_filler {
      type: "msra"
    }
  }
}
layer {
  name: "conv4_1/dw/bn"
  type: "BatchNorm"
  bottom: "conv4_1/dw"
  top: "conv4_1/dw"
  batch_norm_param {
    use_global_stats: true
    eps: 1e-05
  }
}
layer {
  name: "conv4_1/dw/scale"
  type: "Scale"
  bottom: "conv4_1/dw"
  top: "conv4_1/dw"
  param {
    lr_mult: 1
    decay_mult: 0
  }
  param {
    lr_mult: 1
    decay_mult: 0
  }
  scale_param {
    filler {
      type: "constant"
      value: 1
    }
    bias_term: true
    bias_filler {
      type: "constant"
      value: 0
    }
  }
}
layer {
  name: "relu4_1/dw"
  type: "ReLU"
  bottom: "conv4_1/dw"
  top: "conv4_1/dw"
}
layer {
  name: "conv4_1/sep"
  type: "Convolution"
  bottom: "conv4_1/dw"
  top: "conv4_1/sep"
  param {
    lr_mult: 1
    decay_mult: 1
  }
  convolution_param {
    num_output: 256
    bias_term: false
    pad: 0
    kernel_size: 1
    stride: 1
    weight_filler {
      type: "msra"
    }
  }
}
layer {
  name: "conv4_1/sep/bn"
  type: "BatchNorm"
  bottom: "conv4_1/sep"
  top: "conv4_1/sep"
  batch_norm_param {
    use_global_stats: true
    eps: 1e-05
  }
}
layer {
  name: "conv4_1/sep/scale"
  type: "Scale"
  bottom: "conv4_1/sep"
  top: "conv4_1/sep"
  param {
    lr_mult: 1
    decay_mult: 0
  }
  param {
    lr_mult: 1
    decay_mult: 0
  }
  scale_param {
    filler {
      type: "constant"
      value: 1
    }
    bias_term: true
    bias_filler {
      type: "constant"
      value: 0
    }
  }
}
layer {
  name: "relu4_1/sep"
  type: "ReLU"
  bottom: "conv4_1/sep"
  top: "conv4_1/sep"
}
layer {
  name: "conv4_2/dw"
  type: "DepthwiseConvolution"
  bottom: "conv4_1/sep"
  top: "conv4_2/dw"
  param {
    lr_mult: 1
    decay_mult: 1
  }
  convolution_param {
    num_output: 256
    bias_term: false
    pad: 1
    kernel_size: 3
    group: 256
    stride: 2
    weight_filler {
      type: "msra"
    }
  }
}
layer {
  name: "conv4_2/dw/bn"
  type: "BatchNorm"
  bottom: "conv4_2/dw"
  top: "conv4_2/dw"
  batch_norm_param {
    use_global_stats: true
    eps: 1e-05
  }
}
layer {
  name: "conv4_2/dw/scale"
  type: "Scale"
  bottom: "conv4_2/dw"
  top: "conv4_2/dw"
  param {
    lr_mult: 1
    decay_mult: 0
  }
  param {
    lr_mult: 1
    decay_mult: 0
  }
  scale_param {
    filler {
      type: "constant"
      value: 1
    }
    bias_term: true
    bias_filler {
      type: "constant"
      value: 0
    }
  }
}
layer {
  name: "relu4_2/dw"
  type: "ReLU"
  bottom: "conv4_2/dw"
  top: "conv4_2/dw"
}
layer {
  name: "conv4_2/sep"
  type: "Convolution"
  bottom: "conv4_2/dw"
  top: "conv4_2/sep"
  param {
    lr_mult: 1
    decay_mult: 1
  }
  convolution_param {
    num_output: 512
    bias_term: false
    pad: 0
    kernel_size: 1
    stride: 1
    weight_filler {
      type: "msra"
    }
  }
}
layer {
  name: "conv4_2/sep/bn"
  type: "BatchNorm"
  bottom: "conv4_2/sep"
  top: "conv4_2/sep"
  batch_norm_param {
    use_global_stats: true
    eps: 1e-05
  }
}
layer {
  name: "conv4_2/sep/scale"
  type: "Scale"
  bottom: "conv4_2/sep"
  top: "conv4_2/sep"
  param {
    lr_mult: 1
    decay_mult: 0
  }
  param {
    lr_mult: 1
    decay_mult: 0
  }
  scale_param {
    filler {
      type: "constant"
      value: 1
    }
    bias_term: true
    bias_filler {
      type: "constant"
      value: 0
    }
  }
}
layer {
  name: "relu4_2/sep"
  type: "ReLU"
  bottom: "conv4_2/sep"
  top: "conv4_2/sep"
}
layer {
  name: "conv5_1/dw"
  type: "DepthwiseConvolution"
  bottom: "conv4_2/sep"
  top: "conv5_1/dw"
  param {
    lr_mult: 1
    decay_mult: 1
  }
  convolution_param {
    num_output: 512
    bias_term: false
    pad: 1
    kernel_size: 3
    group: 512
    stride: 1
    weight_filler {
      type: "msra"
    }
  }
}
layer {
  name: "conv5_1/dw/bn"
  type: "BatchNorm"
  bottom: "conv5_1/dw"
  top: "conv5_1/dw"
  batch_norm_param {
    use_global_stats: true
    eps: 1e-05
  }
}
layer {
  name: "conv5_1/dw/scale"
  type: "Scale"
  bottom: "conv5_1/dw"
  top: "conv5_1/dw"
  param {
    lr_mult: 1
    decay_mult: 0
  }
  param {
    lr_mult: 1
    decay_mult: 0
  }
  scale_param {
    filler {
      type: "constant"
      value: 1
    }
    bias_term: true
    bias_filler {
      type: "constant"
      value: 0
    }
  }
}
layer {
  name: "relu5_1/dw"
  type: "ReLU"
  bottom: "conv5_1/dw"
  top: "conv5_1/dw"
}
layer {
  name: "conv5_1/sep"
  type: "Convolution"
  bottom: "conv5_1/dw"
  top: "conv5_1/sep"
  param {
    lr_mult: 1
    decay_mult: 1
  }
  convolution_param {
    num_output: 512
    bias_term: false
    pad: 0
    kernel_size: 1
    stride: 1
    weight_filler {
      type: "msra"
    }
  }
}
layer {
  name: "conv5_1/sep/bn"
  type: "BatchNorm"
  bottom: "conv5_1/sep"
  top: "conv5_1/sep"
  batch_norm_param {
    use_global_stats: true
    eps: 1e-05
  }
}
layer {
  name: "conv5_1/sep/scale"
  type: "Scale"
  bottom: "conv5_1/sep"
  top: "conv5_1/sep"
  param {
    lr_mult: 1
    decay_mult: 0
  }
  param {
    lr_mult: 1
    decay_mult: 0
  }
  scale_param {
    filler {
      type: "constant"
      value: 1
    }
    bias_term: true
    bias_filler {
      type: "constant"
      value: 0
    }
  }
}
layer {
  name: "relu5_1/sep"
  type: "ReLU"
  bottom: "conv5_1/sep"
  top: "conv5_1/sep"
}
layer {
  name: "conv5_2/dw"
  type: "DepthwiseConvolution"
  bottom: "conv5_1/sep"
  top: "conv5_2/dw"
  param {
    lr_mult: 1
    decay_mult: 1
  }
  convolution_param {
    num_output: 512
    bias_term: false
    pad: 1
    kernel_size: 3
    group: 512
    stride: 1
    weight_filler {
      type: "msra"
    }
  }
}
layer {
  name: "conv5_2/dw/bn"
  type: "BatchNorm"
  bottom: "conv5_2/dw"
  top: "conv5_2/dw"
  batch_norm_param {
    use_global_stats: true
    eps: 1e-05
  }
}
layer {
  name: "conv5_2/dw/scale"
  type: "Scale"
  bottom: "conv5_2/dw"
  top: "conv5_2/dw"
  param {
    lr_mult: 1
    decay_mult: 0
  }
  param {
    lr_mult: 1
    decay_mult: 0
  }
  scale_param {
    filler {
      type: "constant"
      value: 1
    }
    bias_term: true
    bias_filler {
      type: "constant"
      value: 0
    }
  }
}
layer {
  name: "relu5_2/dw"
  type: "ReLU"
  bottom: "conv5_2/dw"
  top: "conv5_2/dw"
}
layer {
  name: "conv5_2/sep"
  type: "Convolution"
  bottom: "conv5_2/dw"
  top: "conv5_2/sep"
  param {
    lr_mult: 1
    decay_mult: 1
  }
  convolution_param {
    num_output: 512
    bias_term: false
    pad: 0
    kernel_size: 1
    stride: 1
    weight_filler {
      type: "msra"
    }
  }
}
layer {
  name: "conv5_2/sep/bn"
  type: "BatchNorm"
  bottom: "conv5_2/sep"
  top: "conv5_2/sep"
  batch_norm_param {
    use_global_stats: true
    eps: 1e-05
  }
}
layer {
  name: "conv5_2/sep/scale"
  type: "Scale"
  bottom: "conv5_2/sep"
  top: "conv5_2/sep"
  param {
    lr_mult: 1
    decay_mult: 0
  }
  param {
    lr_mult: 1
    decay_mult: 0
  }
  scale_param {
    filler {
      type: "constant"
      value: 1
    }
    bias_term: true
    bias_filler {
      type: "constant"
      value: 0
    }
  }
}
layer {
  name: "relu5_2/sep"
  type: "ReLU"
  bottom: "conv5_2/sep"
  top: "conv5_2/sep"
}
layer {
  name: "conv5_3/dw"
  type: "DepthwiseConvolution"
  bottom: "conv5_2/sep"
  top: "conv5_3/dw"
  param {
    lr_mult: 1
    decay_mult: 1
  }
  convolution_param {
    num_output: 512
    bias_term: false
    pad: 1
    kernel_size: 3
    group: 512
    stride: 1
    weight_filler {
      type: "msra"
    }
  }
}
layer {
  name: "conv5_3/dw/bn"
  type: "BatchNorm"
  bottom: "conv5_3/dw"
  top: "conv5_3/dw"
  batch_norm_param {
    use_global_stats: true
    eps: 1e-05
  }
}
layer {
  name: "conv5_3/dw/scale"
  type: "Scale"
  bottom: "conv5_3/dw"
  top: "conv5_3/dw"
  param {
    lr_mult: 1
    decay_mult: 0
  }
  param {
    lr_mult: 1
    decay_mult: 0
  }
  scale_param {
    filler {
      type: "constant"
      value: 1
    }
    bias_term: true
    bias_filler {
      type: "constant"
      value: 0
    }
  }
}
layer {
  name: "relu5_3/dw"
  type: "ReLU"
  bottom: "conv5_3/dw"
  top: "conv5_3/dw"
}
layer {
  name: "conv5_3/sep"
  type: "Convolution"
  bottom: "conv5_3/dw"
  top: "conv5_3/sep"
  param {
    lr_mult: 1
    decay_mult: 1
  }
  convolution_param {
    num_output: 512
    bias_term: false
    pad: 0
    kernel_size: 1
    stride: 1
    weight_filler {
      type: "msra"
    }
  }
}
layer {
  name: "conv5_3/sep/bn"
  type: "BatchNorm"
  bottom: "conv5_3/sep"
  top: "conv5_3/sep"
  batch_norm_param {
    use_global_stats: true
    eps: 1e-05
  }
}
layer {
  name: "conv5_3/sep/scale"
  type: "Scale"
  bottom: "conv5_3/sep"
  top: "conv5_3/sep"
  param {
    lr_mult: 1
    decay_mult: 0
  }
  param {
    lr_mult: 1
    decay_mult: 0
  }
  scale_param {
    filler {
      type: "constant"
      value: 1
    }
    bias_term: true
    bias_filler {
      type: "constant"
      value: 0
    }
  }
}
layer {
  name: "relu5_3/sep"
  type: "ReLU"
  bottom: "conv5_3/sep"
  top: "conv5_3/sep"
}
layer {
  name: "conv5_4/dw"
  type: "DepthwiseConvolution"
  bottom: "conv5_3/sep"
  top: "conv5_4/dw"
  param {
    lr_mult: 1
    decay_mult: 1
  }
  convolution_param {
    num_output: 512
    bias_term: false
    pad: 1
    kernel_size: 3
    group: 512
    stride: 1
    weight_filler {
      type: "msra"
    }
  }
}
layer {
  name: "conv5_4/dw/bn"
  type: "BatchNorm"
  bottom: "conv5_4/dw"
  top: "conv5_4/dw"
  batch_norm_param {
    use_global_stats: true
    eps: 1e-05
  }
}
layer {
  name: "conv5_4/dw/scale"
  type: "Scale"
  bottom: "conv5_4/dw"
  top: "conv5_4/dw"
  param {
    lr_mult: 1
    decay_mult: 0
  }
  param {
    lr_mult: 1
    decay_mult: 0
  }
  scale_param {
    filler {
      type: "constant"
      value: 1
    }
    bias_term: true
    bias_filler {
      type: "constant"
      value: 0
    }
  }
}
layer {
  name: "relu5_4/dw"
  type: "ReLU"
  bottom: "conv5_4/dw"
  top: "conv5_4/dw"
}
layer {
  name: "conv5_4/sep"
  type: "Convolution"
  bottom: "conv5_4/dw"
  top: "conv5_4/sep"
  param {
    lr_mult: 1
    decay_mult: 1
  }
  convolution_param {
    num_output: 512
    bias_term: false
    pad: 0
    kernel_size: 1
    stride: 1
    weight_filler {
      type: "msra"
    }
  }
}
layer {
  name: "conv5_4/sep/bn"
  type: "BatchNorm"
  bottom: "conv5_4/sep"
  top: "conv5_4/sep"
  batch_norm_param {
    use_global_stats: true
    eps: 1e-05
  }
}
layer {
  name: "conv5_4/sep/scale"
  type: "Scale"
  bottom: "conv5_4/sep"
  top: "conv5_4/sep"
  param {
    lr_mult: 1
    decay_mult: 0
  }
  param {
    lr_mult: 1
    decay_mult: 0
  }
  scale_param {
    filler {
      type: "constant"
      value: 1
    }
    bias_term: true
    bias_filler {
      type: "constant"
      value: 0
    }
  }
}
layer {
  name: "relu5_4/sep"
  type: "ReLU"
  bottom: "conv5_4/sep"
  top: "conv5_4/sep"
}
layer {
  name: "conv5_5/dw"
  type: "DepthwiseConvolution"
  bottom: "conv5_4/sep"
  top: "conv5_5/dw"
  param {
    lr_mult: 1
    decay_mult: 1
  }
  convolution_param {
    num_output: 512
    bias_term: false
    pad: 1
    kernel_size: 3
    group: 512
    stride: 1
    weight_filler {
      type: "msra"
    }
  }
}
layer {
  name: "conv5_5/dw/bn"
  type: "BatchNorm"
  bottom: "conv5_5/dw"
  top: "conv5_5/dw"
  batch_norm_param {
    use_global_stats: true
    eps: 1e-05
  }
}
layer {
  name: "conv5_5/dw/scale"
  type: "Scale"
  bottom: "conv5_5/dw"
  top: "conv5_5/dw"
  param {
    lr_mult: 1
    decay_mult: 0
  }
  param {
    lr_mult: 1
    decay_mult: 0
  }
  scale_param {
    filler {
      type: "constant"
      value: 1
    }
    bias_term: true
    bias_filler {
      type: "constant"
      value: 0
    }
  }
}
layer {
  name: "relu5_5/dw"
  type: "ReLU"
  bottom: "conv5_5/dw"
  top: "conv5_5/dw"
}
layer {
  name: "conv5_5/sep"
  type: "Convolution"
  bottom: "conv5_5/dw"
  top: "conv5_5/sep"
  param {
    lr_mult: 1
    decay_mult: 1
  }
  convolution_param {
    num_output: 512
    bias_term: false
    pad: 0
    kernel_size: 1
    stride: 1
    weight_filler {
      type: "msra"
    }
  }
}
layer {
  name: "conv5_5/sep/bn"
  type: "BatchNorm"
  bottom: "conv5_5/sep"
  top: "conv5_5/sep"
  batch_norm_param {
    use_global_stats: true
    eps: 1e-05
  }
}
layer {
  name: "conv5_5/sep/scale"
  type: "Scale"
  bottom: "conv5_5/sep"
  top: "conv5_5/sep"
  param {
    lr_mult: 1
    decay_mult: 0
  }
  param {
    lr_mult: 1
    decay_mult: 0
  }
  scale_param {
    filler {
      type: "constant"
      value: 1
    }
    bias_term: true
    bias_filler {
      type: "constant"
      value: 0
    }
  }
}
layer {
  name: "relu5_5/sep"
  type: "ReLU"
  bottom: "conv5_5/sep"
  top: "conv5_5/sep"
}
layer {
  name: "conv5_6/dw"
  type: "DepthwiseConvolution"
  bottom: "conv5_5/sep"
  top: "conv5_6/dw"
  param {
    lr_mult: 1
    decay_mult: 1
  }
  convolution_param {
    num_output: 512
    bias_term: false
    pad: 1
…
I1208 16:04:44.614161  1790 net.cpp:395] conv5_6/dw/scale -> conv5_6/dw (in-place)
I1208 16:04:44.614197  1790 layer_factory.hpp:77] Creating layer conv5_6/dw/scale
I1208 16:04:44.614305  1790 net.cpp:150] Setting up conv5_6/dw/scale
I1208 16:04:44.614310  1790 net.cpp:157] Top shape: 1 512 10 16 (81920)
I1208 16:04:44.614312  1790 net.cpp:165] Memory required for data: 259944224
I1208 16:04:44.614317  1790 layer_factory.hpp:77] Creating layer relu5_6/dw
I1208 16:04:44.614322  1790 net.cpp:100] Creating Layer relu5_6/dw
I1208 16:04:44.614326  1790 net.cpp:434] relu5_6/dw <- conv5_6/dw
I1208 16:04:44.614331  1790 net.cpp:395] relu5_6/dw -> conv5_6/dw (in-place)
I1208 16:04:44.614625  1790 net.cpp:150] Setting up relu5_6/dw
I1208 16:04:44.614632  1790 net.cpp:157] Top shape: 1 512 10 16 (81920)
I1208 16:04:44.614635  1790 net.cpp:165] Memory required for data: 260271904
I1208 16:04:44.614639  1790 layer_factory.hpp:77] Creating layer conv5_6/sep
I1208 16:04:44.614646  1790 net.cpp:100] Creating Layer conv5_6/sep
I1208 16:04:44.614650  1790 net.cpp:434] conv5_6/sep <- conv5_6/dw
I1208 16:04:44.614655  1790 net.cpp:408] conv5_6/sep -> conv5_6/sep
I1208 16:04:44.620240  1790 net.cpp:150] Setting up conv5_6/sep
I1208 16:04:44.620257  1790 net.cpp:157] Top shape: 1 1024 10 16 (163840)
I1208 16:04:44.620261  1790 net.cpp:165] Memory required for data: 260927264
I1208 16:04:44.620268  1790 layer_factory.hpp:77] Creating layer conv5_6/sep/bn
I1208 16:04:44.620277  1790 net.cpp:100] Creating Layer conv5_6/sep/bn
I1208 16:04:44.620281  1790 net.cpp:434] conv5_6/sep/bn <- conv5_6/sep
I1208 16:04:44.620288  1790 net.cpp:395] conv5_6/sep/bn -> conv5_6/sep (in-place)
I1208 16:04:44.620491  1790 net.cpp:150] Setting up conv5_6/sep/bn
I1208 16:04:44.620496  1790 net.cpp:157] Top shape: 1 1024 10 16 (163840)
I1208 16:04:44.620498  1790 net.cpp:165] Memory required for data: 261582624
I1208 16:04:44.620507  1790 layer_factory.hpp:77] Creating layer conv5_6/sep/scale
I1208 16:04:44.620514  1790 net.cpp:100] Creating Layer conv5_6/sep/scale
I1208 16:04:44.620517  1790 net.cpp:434] conv5_6/sep/scale <- conv5_6/sep
I1208 16:04:44.620532  1790 net.cpp:395] conv5_6/sep/scale -> conv5_6/sep (in-place)
I1208 16:04:44.620573  1790 layer_factory.hpp:77] Creating layer conv5_6/sep/scale
I1208 16:04:44.620682  1790 net.cpp:150] Setting up conv5_6/sep/scale
I1208 16:04:44.620687  1790 net.cpp:157] Top shape: 1 1024 10 16 (163840)
I1208 16:04:44.620690  1790 net.cpp:165] Memory required for data: 262237984
I1208 16:04:44.620695  1790 layer_factory.hpp:77] Creating layer relu5_6/sep
I1208 16:04:44.620702  1790 net.cpp:100] Creating Layer relu5_6/sep
I1208 16:04:44.620705  1790 net.cpp:434] relu5_6/sep <- conv5_6/sep
I1208 16:04:44.620708  1790 net.cpp:395] relu5_6/sep -> conv5_6/sep (in-place)
I1208 16:04:44.621009  1790 net.cpp:150] Setting up relu5_6/sep
I1208 16:04:44.621016  1790 net.cpp:157] Top shape: 1 1024 10 16 (163840)
I1208 16:04:44.621019  1790 net.cpp:165] Memory required for data: 262893344
I1208 16:04:44.621021  1790 layer_factory.hpp:77] Creating layer conv6/dw
I1208 16:04:44.621029  1790 net.cpp:100] Creating Layer conv6/dw
I1208 16:04:44.621032  1790 net.cpp:434] conv6/dw <- conv5_6/sep
I1208 16:04:44.621038  1790 net.cpp:408] conv6/dw -> conv6/dw
I1208 16:04:44.621280  1790 net.cpp:150] Setting up conv6/dw
I1208 16:04:44.621286  1790 net.cpp:157] Top shape: 1 1024 10 16 (163840)
I1208 16:04:44.621289  1790 net.cpp:165] Memory required for data: 263548704
I1208 16:04:44.621294  1790 layer_factory.hpp:77] Creating layer conv6/dw/bn
I1208 16:04:44.621299  1790 net.cpp:100] Creating Layer conv6/dw/bn
I1208 16:04:44.621301  1790 net.cpp:434] conv6/dw/bn <- conv6/dw
I1208 16:04:44.621306  1790 net.cpp:395] conv6/dw/bn -> conv6/dw (in-place)
I1208 16:04:44.621484  1790 net.cpp:150] Setting up conv6/dw/bn
I1208 16:04:44.621489  1790 net.cpp:157] Top shape: 1 1024 10 16 (163840)
I1208 16:04:44.621491  1790 net.cpp:165] Memory required for data: 264204064
I1208 16:04:44.621498  1790 layer_factory.hpp:77] Creating layer conv6/dw/scale
I1208 16:04:44.621503  1790 net.cpp:100] Creating Layer conv6/dw/scale
I1208 16:04:44.621506  1790 net.cpp:434] conv6/dw/scale <- conv6/dw
I1208 16:04:44.621510  1790 net.cpp:395] conv6/dw/scale -> conv6/dw (in-place)
I1208 16:04:44.621547  1790 layer_factory.hpp:77] Creating layer conv6/dw/scale
I1208 16:04:44.621654  1790 net.cpp:150] Setting up conv6/dw/scale
I1208 16:04:44.621659  1790 net.cpp:157] Top shape: 1 1024 10 16 (163840)
I1208 16:04:44.621661  1790 net.cpp:165] Memory required for data: 264859424
I1208 16:04:44.621667  1790 layer_factory.hpp:77] Creating layer relu6/dw
I1208 16:04:44.621671  1790 net.cpp:100] Creating Layer relu6/dw
I1208 16:04:44.621675  1790 net.cpp:434] relu6/dw <- conv6/dw
I1208 16:04:44.621678  1790 net.cpp:395] relu6/dw -> conv6/dw (in-place)
I1208 16:04:44.621978  1790 net.cpp:150] Setting up relu6/dw
I1208 16:04:44.621984  1790 net.cpp:157] Top shape: 1 1024 10 16 (163840)
I1208 16:04:44.621987  1790 net.cpp:165] Memory required for data: 265514784
I1208 16:04:44.621990  1790 layer_factory.hpp:77] Creating layer conv6/sep
I1208 16:04:44.621999  1790 net.cpp:100] Creating Layer conv6/sep
I1208 16:04:44.622002  1790 net.cpp:434] conv6/sep <- conv6/dw
I1208 16:04:44.622009  1790 net.cpp:408] conv6/sep -> conv6/sep
I1208 16:04:44.630401  1790 net.cpp:150] Setting up conv6/sep
I1208 16:04:44.630422  1790 net.cpp:157] Top shape: 1 1024 10 16 (163840)
I1208 16:04:44.630425  1790 net.cpp:165] Memory required for data: 266170144
I1208 16:04:44.630434  1790 layer_factory.hpp:77] Creating layer conv6/sep/bn
I1208 16:04:44.630441  1790 net.cpp:100] Creating Layer conv6/sep/bn
I1208 16:04:44.630447  1790 net.cpp:434] conv6/sep/bn <- conv6/sep
I1208 16:04:44.630453  1790 net.cpp:395] conv6/sep/bn -> conv6/sep (in-place)
I1208 16:04:44.630666  1790 net.cpp:150] Setting up conv6/sep/bn
I1208 16:04:44.630673  1790 net.cpp:157] Top shape: 1 1024 10 16 (163840)
I1208 16:04:44.630676  1790 net.cpp:165] Memory required for data: 266825504
I1208 16:04:44.630683  1790 layer_factory.hpp:77] Creating layer conv6/sep/scale
I1208 16:04:44.630692  1790 net.cpp:100] Creating Layer conv6/sep/scale
I1208 16:04:44.630707  1790 net.cpp:434] conv6/sep/scale <- conv6/sep
I1208 16:04:44.630712  1790 net.cpp:395] conv6/sep/scale -> conv6/sep (in-place)
I1208 16:04:44.630754  1790 layer_factory.hpp:77] Creating layer conv6/sep/scale
I1208 16:04:44.630867  1790 net.cpp:150] Setting up conv6/sep/scale
I1208 16:04:44.630872  1790 net.cpp:157] Top shape: 1 1024 10 16 (163840)
I1208 16:04:44.630874  1790 net.cpp:165] Memory required for data: 267480864
I1208 16:04:44.630882  1790 layer_factory.hpp:77] Creating layer relu6/sep
I1208 16:04:44.630887  1790 net.cpp:100] Creating Layer relu6/sep
I1208 16:04:44.630889  1790 net.cpp:434] relu6/sep <- conv6/sep
I1208 16:04:44.630895  1790 net.cpp:395] relu6/sep -> conv6/sep (in-place)
I1208 16:04:44.631213  1790 net.cpp:150] Setting up relu6/sep
I1208 16:04:44.631222  1790 net.cpp:157] Top shape: 1 1024 10 16 (163840)
I1208 16:04:44.631224  1790 net.cpp:165] Memory required for data: 268136224
I1208 16:04:44.631228  1790 layer_factory.hpp:77] Creating layer conv6/sep_relu6/sep_0_split
I1208 16:04:44.631234  1790 net.cpp:100] Creating Layer conv6/sep_relu6/sep_0_split
I1208 16:04:44.631237  1790 net.cpp:434] conv6/sep_relu6/sep_0_split <- conv6/sep
I1208 16:04:44.631243  1790 net.cpp:408] conv6/sep_relu6/sep_0_split -> conv6/sep_relu6/sep_0_split_0
I1208 16:04:44.631250  1790 net.cpp:408] conv6/sep_relu6/sep_0_split -> conv6/sep_relu6/sep_0_split_1
I1208 16:04:44.631256  1790 net.cpp:408] conv6/sep_relu6/sep_0_split -> conv6/sep_relu6/sep_0_split_2
I1208 16:04:44.631264  1790 net.cpp:408] conv6/sep_relu6/sep_0_split -> conv6/sep_relu6/sep_0_split_3
I1208 16:04:44.631328  1790 net.cpp:150] Setting up conv6/sep_relu6/sep_0_split
I1208 16:04:44.631333  1790 net.cpp:157] Top shape: 1 1024 10 16 (163840)
I1208 16:04:44.631338  1790 net.cpp:157] Top shape: 1 1024 10 16 (163840)
I1208 16:04:44.631342  1790 net.cpp:157] Top shape: 1 1024 10 16 (163840)
I1208 16:04:44.631346  1790 net.cpp:157] Top shape: 1 1024 10 16 (163840)
I1208 16:04:44.631350  1790 net.cpp:165] Memory required for data: 270757664
I1208 16:04:44.631353  1790 layer_factory.hpp:77] Creating layer ssd1_1
I1208 16:04:44.631361  1790 net.cpp:100] Creating Layer ssd1_1
I1208 16:04:44.631364  1790 net.cpp:434] ssd1_1 <- conv6/sep_relu6/sep_0_split_0
I1208 16:04:44.631371  1790 net.cpp:408] ssd1_1 -> ssd1_1
I1208 16:04:44.634191  1790 net.cpp:150] Setting up ssd1_1
I1208 16:04:44.634217  1790 net.cpp:157] Top shape: 1 256 10 16 (40960)
I1208 16:04:44.634219  1790 net.cpp:165] Memory required for data: 270921504
I1208 16:04:44.634230  1790 layer_factory.hpp:77] Creating layer ssd1_1_relu
I1208 16:04:44.634241  1790 net.cpp:100] Creating Layer ssd1_1_relu
I1208 16:04:44.634245  1790 net.cpp:434] ssd1_1_relu <- ssd1_1
I1208 16:04:44.634253  1790 net.cpp:395] ssd1_1_relu -> ssd1_1 (in-place)
I1208 16:04:44.634750  1790 net.cpp:150] Setting up ssd1_1_relu
I1208 16:04:44.634762  1790 net.cpp:157] Top shape: 1 256 10 16 (40960)
I1208 16:04:44.634764  1790 net.cpp:165] Memory required for data: 271085344
I1208 16:04:44.634768  1790 layer_factory.hpp:77] Creating layer ssd1_2
I1208 16:04:44.634778  1790 net.cpp:100] Creating Layer ssd1_2
I1208 16:04:44.634783  1790 net.cpp:434] ssd1_2 <- ssd1_1
I1208 16:04:44.634789  1790 net.cpp:408] ssd1_2 -> ssd1_2
I1208 16:04:44.641940  1790 net.cpp:150] Setting up ssd1_2
I1208 16:04:44.641959  1790 net.cpp:157] Top shape: 1 512 5 8 (20480)
I1208 16:04:44.641963  1790 net.cpp:165] Memory required for data: 271167264
I1208 16:04:44.641971  1790 layer_factory.hpp:77] Creating layer ssd1_2_relu
I1208 16:04:44.641978  1790 net.cpp:100] Creating Layer ssd1_2_relu
I1208 16:04:44.641983  1790 net.cpp:434] ssd1_2_relu <- ssd1_2
I1208 16:04:44.641990  1790 net.cpp:395] ssd1_2_relu -> ssd1_2 (in-place)
I1208 16:04:44.642305  1790 net.cpp:150] Setting up ssd1_2_relu
I1208 16:04:44.642311  1790 net.cpp:157] Top shape: 1 512 5 8 (20480)
I1208 16:04:44.642314  1790 net.cpp:165] Memory required for data: 271249184
I1208 16:04:44.642318  1790 layer_factory.hpp:77] Creating layer ssd1_2_ssd1_2_relu_0_split
I1208 16:04:44.642335  1790 net.cpp:100] Creating Layer ssd1_2_ssd1_2_relu_0_split
I1208 16:04:44.642339  1790 net.cpp:434] ssd1_2_ssd1_2_relu_0_split <- ssd1_2
I1208 16:04:44.642345  1790 net.cpp:408] ssd1_2_ssd1_2_relu_0_split -> ssd1_2_ssd1_2_relu_0_split_0
I1208 16:04:44.642352  1790 net.cpp:408] ssd1_2_ssd1_2_relu_0_split -> ssd1_2_ssd1_2_relu_0_split_1
I1208 16:04:44.642359  1790 net.cpp:408] ssd1_2_ssd1_2_relu_0_split -> ssd1_2_ssd1_2_relu_0_split_2
I1208 16:04:44.642364  1790 net.cpp:408] ssd1_2_ssd1_2_relu_0_split -> ssd1_2_ssd1_2_relu_0_split_3
I1208 16:04:44.642431  1790 net.cpp:150] Setting up ssd1_2_ssd1_2_relu_0_split
I1208 16:04:44.642436  1790 net.cpp:157] Top shape: 1 512 5 8 (20480)
I1208 16:04:44.642441  1790 net.cpp:157] Top shape: 1 512 5 8 (20480)
I1208 16:04:44.642444  1790 net.cpp:157] Top shape: 1 512 5 8 (20480)
I1208 16:04:44.642448  1790 net.cpp:157] Top shape: 1 512 5 8 (20480)
I1208 16:04:44.642452  1790 net.cpp:165] Memory required for data: 271576864
I1208 16:04:44.642455  1790 layer_factory.hpp:77] Creating layer ssd2_1
I1208 16:04:44.642464  1790 net.cpp:100] Creating Layer ssd2_1
I1208 16:04:44.642467  1790 net.cpp:434] ssd2_1 <- ssd1_2_ssd1_2_relu_0_split_0
I1208 16:04:44.642473  1790 net.cpp:408] ssd2_1 -> ssd2_1
I1208 16:04:44.643934  1790 net.cpp:150] Setting up ssd2_1
I1208 16:04:44.643944  1790 net.cpp:157] Top shape: 1 128 5 8 (5120)
I1208 16:04:44.643946  1790 net.cpp:165] Memory required for data: 271597344
I1208 16:04:44.643952  1790 layer_factory.hpp:77] Creating layer ssd2_1_relu
I1208 16:04:44.643957  1790 net.cpp:100] Creating Layer ssd2_1_relu
I1208 16:04:44.643961  1790 net.cpp:434] ssd2_1_relu <- ssd2_1
I1208 16:04:44.643966  1790 net.cpp:395] ssd2_1_relu -> ssd2_1 (in-place)
I1208 16:04:44.644376  1790 net.cpp:150] Setting up ssd2_1_relu
I1208 16:04:44.644383  1790 net.cpp:157] Top shape: 1 128 5 8 (5120)
I1208 16:04:44.644387  1790 net.cpp:165] Memory required for data: 271617824
I1208 16:04:44.644389  1790 layer_factory.hpp:77] Creating layer ssd2_2
I1208 16:04:44.644398  1790 net.cpp:100] Creating Layer ssd2_2
I1208 16:04:44.644402  1790 net.cpp:434] ssd2_2 <- ssd2_1
I1208 16:04:44.644407  1790 net.cpp:408] ssd2_2 -> ssd2_2
I1208 16:04:44.647912  1790 net.cpp:150] Setting up ssd2_2
I1208 16:04:44.647928  1790 net.cpp:157] Top shape: 1 256 3 4 (3072)
I1208 16:04:44.647931  1790 net.cpp:165] Memory required for data: 271630112
I1208 16:04:44.647939  1790 layer_factory.hpp:77] Creating layer ssd2_2_relu
I1208 16:04:44.647946  1790 net.cpp:100] Creating Layer ssd2_2_relu
I1208 16:04:44.647951  1790 net.cpp:434] ssd2_2_relu <- ssd2_2
I1208 16:04:44.647958  1790 net.cpp:395] ssd2_2_relu -> ssd2_2 (in-place)
I1208 16:04:44.648269  1790 net.cpp:150] Setting up ssd2_2_relu
I1208 16:04:44.648277  1790 net.cpp:157] Top shape: 1 256 3 4 (3072)
I1208 16:04:44.648279  1790 net.cpp:165] Memory required for data: 271642400
I1208 16:04:44.648283  1790 layer_factory.hpp:77] Creating layer ssd2_2_ssd2_2_relu_0_split
I1208 16:04:44.648288  1790 net.cpp:100] Creating Layer ssd2_2_ssd2_2_relu_0_split
I1208 16:04:44.648293  1790 net.cpp:434] ssd2_2_ssd2_2_relu_0_split <- ssd2_2
I1208 16:04:44.648298  1790 net.cpp:408] ssd2_2_ssd2_2_relu_0_split -> ssd2_2_ssd2_2_relu_0_split_0
I1208 16:04:44.648305  1790 net.cpp:408] ssd2_2_ssd2_2_relu_0_split -> ssd2_2_ssd2_2_relu_0_split_1
I1208 16:04:44.648311  1790 net.cpp:408] ssd2_2_ssd2_2_relu_0_split -> ssd2_2_ssd2_2_relu_0_split_2
I1208 16:04:44.648319  1790 net.cpp:408] ssd2_2_ssd2_2_relu_0_split -> ssd2_2_ssd2_2_relu_0_split_3
I1208 16:04:44.648386  1790 net.cpp:150] Setting up ssd2_2_ssd2_2_relu_0_split
I1208 16:04:44.648391  1790 net.cpp:157] Top shape: 1 256 3 4 (3072)
I1208 16:04:44.648394  1790 net.cpp:157] Top shape: 1 256 3 4 (3072)
I1208 16:04:44.648398  1790 net.cpp:157] Top shape: 1 256 3 4 (3072)
I1208 16:04:44.648403  1790 net.cpp:157] Top shape: 1 256 3 4 (3072)
I1208 16:04:44.648406  1790 net.cpp:165] Memory required for data: 271691552
I1208 16:04:44.648409  1790 layer_factory.hpp:77] Creating layer ssd3_1
I1208 16:04:44.648430  1790 net.cpp:100] Creating Layer ssd3_1
I1208 16:04:44.648434  1790 net.cpp:434] ssd3_1 <- ssd2_2_ssd2_2_relu_0_split_0
I1208 16:04:44.648439  1790 net.cpp:408] ssd3_1 -> ssd3_1
I1208 16:04:44.649914  1790 net.cpp:150] Setting up ssd3_1
I1208 16:04:44.649921  1790 net.cpp:157] Top shape: 1 128 3 4 (1536)
I1208 16:04:44.649925  1790 net.cpp:165] Memory required for data: 271697696
I1208 16:04:44.649931  1790 layer_factory.hpp:77] Creating layer ssd3_1_relu
I1208 16:04:44.649936  1790 net.cpp:100] Creating Layer ssd3_1_relu
I1208 16:04:44.649940  1790 net.cpp:434] ssd3_1_relu <- ssd3_1
I1208 16:04:44.649946  1790 net.cpp:395] ssd3_1_relu -> ssd3_1 (in-place)
I1208 16:04:44.650247  1790 net.cpp:150] Setting up ssd3_1_relu
I1208 16:04:44.650254  1790 net.cpp:157] Top shape: 1 128 3 4 (1536)
I1208 16:04:44.650256  1790 net.cpp:165] Memory required for data: 271703840
I1208 16:04:44.650261  1790 layer_factory.hpp:77] Creating layer ssd3_2
I1208 16:04:44.650269  1790 net.cpp:100] Creating Layer ssd3_2
I1208 16:04:44.650271  1790 net.cpp:434] ssd3_2 <- ssd3_1
I1208 16:04:44.650277  1790 net.cpp:408] ssd3_2 -> ssd3_2
I1208 16:04:44.653013  1790 net.cpp:150] Setting up ssd3_2
I1208 16:04:44.653025  1790 net.cpp:157] Top shape: 1 256 2 2 (1024)
I1208 16:04:44.653028  1790 net.cpp:165] Memory required for data: 271707936
I1208 16:04:44.653034  1790 layer_factory.hpp:77] Creating layer ssd3_2_relu
I1208 16:04:44.653041  1790 net.cpp:100] Creating Layer ssd3_2_relu
I1208 16:04:44.653045  1790 net.cpp:434] ssd3_2_relu <- ssd3_2
I1208 16:04:44.653051  1790 net.cpp:395] ssd3_2_relu -> ssd3_2 (in-place)
I1208 16:04:44.653466  1790 net.cpp:150] Setting up ssd3_2_relu
I1208 16:04:44.653475  1790 net.cpp:157] Top shape: 1 256 2 2 (1024)
I1208 16:04:44.653477  1790 net.cpp:165] Memory required for data: 271712032
I1208 16:04:44.653481  1790 layer_factory.hpp:77] Creating layer ssd3_2_ssd3_2_relu_0_split
I1208 16:04:44.653486  1790 net.cpp:100] Creating Layer ssd3_2_ssd3_2_relu_0_split
I1208 16:04:44.653491  1790 net.cpp:434] ssd3_2_ssd3_2_relu_0_split <- ssd3_2
I1208 16:04:44.653496  1790 net.cpp:408] ssd3_2_ssd3_2_relu_0_split -> ssd3_2_ssd3_2_relu_0_split_0
I1208 16:04:44.653503  1790 net.cpp:408] ssd3_2_ssd3_2_relu_0_split -> ssd3_2_ssd3_2_relu_0_split_1
I1208 16:04:44.653512  1790 net.cpp:408] ssd3_2_ssd3_2_relu_0_split -> ssd3_2_ssd3_2_relu_0_split_2
I1208 16:04:44.653517  1790 net.cpp:408] ssd3_2_ssd3_2_relu_0_split -> ssd3_2_ssd3_2_relu_0_split_3
I1208 16:04:44.653584  1790 net.cpp:150] Setting up ssd3_2_ssd3_2_relu_0_split
I1208 16:04:44.653589  1790 net.cpp:157] Top shape: 1 256 2 2 (1024)
I1208 16:04:44.653594  1790 net.cpp:157] Top shape: 1 256 2 2 (1024)
I1208 16:04:44.653597  1790 net.cpp:157] Top shape: 1 256 2 2 (1024)
I1208 16:04:44.653602  1790 net.cpp:157] Top shape: 1 256 2 2 (1024)
I1208 16:04:44.653605  1790 net.cpp:165] Memory required for data: 271728416
I1208 16:04:44.653607  1790 layer_factory.hpp:77] Creating layer ssd4_1
I1208 16:04:44.653616  1790 net.cpp:100] Creating Layer ssd4_1
I1208 16:04:44.653620  1790 net.cpp:434] ssd4_1 <- ssd3_2_ssd3_2_relu_0_split_0
I1208 16:04:44.653625  1790 net.cpp:408] ssd4_1 -> ssd4_1
I1208 16:04:44.655825  1790 net.cpp:150] Setting up ssd4_1
I1208 16:04:44.655836  1790 net.cpp:157] Top shape: 1 128 2 2 (512)
I1208 16:04:44.655838  1790 net.cpp:165] Memory required for data: 271730464
I1208 16:04:44.655845  1790 layer_factory.hpp:77] Creating layer ssd4_1_relu
I1208 16:04:44.655863  1790 net.cpp:100] Creating Layer ssd4_1_relu
I1208 16:04:44.655866  1790 net.cpp:434] ssd4_1_relu <- ssd4_1
I1208 16:04:44.655871  1790 net.cpp:395] ssd4_1_relu -> ssd4_1 (in-place)
I1208 16:04:44.656175  1790 net.cpp:150] Setting up ssd4_1_relu
I1208 16:04:44.656183  1790 net.cpp:157] Top shape: 1 128 2 2 (512)
I1208 16:04:44.656185  1790 net.cpp:165] Memory required for data: 271732512
I1208 16:04:44.656189  1790 layer_factory.hpp:77] Creating layer ssd4_2
I1208 16:04:44.656198  1790 net.cpp:100] Creating Layer ssd4_2
I1208 16:04:44.656200  1790 net.cpp:434] ssd4_2 <- ssd4_1
I1208 16:04:44.656216  1790 net.cpp:408] ssd4_2 -> ssd4_2
I1208 16:04:44.658954  1790 net.cpp:150] Setting up ssd4_2
I1208 16:04:44.658963  1790 net.cpp:157] Top shape: 1 256 1 1 (256)
I1208 16:04:44.658967  1790 net.cpp:165] Memory required for data: 271733536
I1208 16:04:44.658973  1790 layer_factory.hpp:77] Creating layer ssd4_2_relu
I1208 16:04:44.658978  1790 net.cpp:100] Creating Layer ssd4_2_relu
I1208 16:04:44.658982  1790 net.cpp:434] ssd4_2_relu <- ssd4_2
I1208 16:04:44.658988  1790 net.cpp:395] ssd4_2_relu -> ssd4_2 (in-place)
I1208 16:04:44.659402  1790 net.cpp:150] Setting up ssd4_2_relu
I1208 16:04:44.659409  1790 net.cpp:157] Top shape: 1 256 1 1 (256)
I1208 16:04:44.659412  1790 net.cpp:165] Memory required for data: 271734560
I1208 16:04:44.659415  1790 layer_factory.hpp:77] Creating layer ssd4_2_ssd4_2_relu_0_split
I1208 16:04:44.659422  1790 net.cpp:100] Creating Layer ssd4_2_ssd4_2_relu_0_split
I1208 16:04:44.659425  1790 net.cpp:434] ssd4_2_ssd4_2_relu_0_split <- ssd4_2
I1208 16:04:44.659432  1790 net.cpp:408] ssd4_2_ssd4_2_relu_0_split -> ssd4_2_ssd4_2_relu_0_split_0
I1208 16:04:44.659446  1790 net.cpp:408] ssd4_2_ssd4_2_relu_0_split -> ssd4_2_ssd4_2_relu_0_split_1
I1208 16:04:44.659451  1790 net.cpp:408] ssd4_2_ssd4_2_relu_0_split -> ssd4_2_ssd4_2_relu_0_split_2
I1208 16:04:44.659512  1790 net.cpp:150] Setting up ssd4_2_ssd4_2_relu_0_split
I1208 16:04:44.659518  1790 net.cpp:157] Top shape: 1 256 1 1 (256)
I1208 16:04:44.659523  1790 net.cpp:157] Top shape: 1 256 1 1 (256)
I1208 16:04:44.659528  1790 net.cpp:157] Top shape: 1 256 1 1 (256)
I1208 16:04:44.659530  1790 net.cpp:165] Memory required for data: 271737632
I1208 16:04:44.659533  1790 layer_factory.hpp:77] Creating layer conv5_5/sep_mbox_loc
I1208 16:04:44.659541  1790 net.cpp:100] Creating Layer conv5_5/sep_mbox_loc
I1208 16:04:44.659544  1790 net.cpp:434] conv5_5/sep_mbox_loc <- conv5_5/sep_relu5_5/sep_0_split_1
I1208 16:04:44.659551  1790 net.cpp:408] conv5_5/sep_mbox_loc -> conv5_5/sep_mbox_loc
I1208 16:04:44.662360  1790 net.cpp:150] Setting up conv5_5/sep_mbox_loc
I1208 16:04:44.662379  1790 net.cpp:157] Top shape: 1 8 19 32 (4864)
I1208 16:04:44.662381  1790 net.cpp:165] Memory required for data: 271757088
I1208 16:04:44.662391  1790 layer_factory.hpp:77] Creating layer conv5_5/sep_mbox_loc_perm
I1208 16:04:44.662400  1790 net.cpp:100] Creating Layer conv5_5/sep_mbox_loc_perm
I1208 16:04:44.662405  1790 net.cpp:434] conv5_5/sep_mbox_loc_perm <- conv5_5/sep_mbox_loc
I1208 16:04:44.662411  1790 net.cpp:408] conv5_5/sep_mbox_loc_perm -> conv5_5/sep_mbox_loc_perm
I1208 16:04:44.662521  1790 net.cpp:150] Setting up conv5_5/sep_mbox_loc_perm
I1208 16:04:44.662528  1790 net.cpp:157] Top shape: 1 19 32 8 (4864)
I1208 16:04:44.662530  1790 net.cpp:165] Memory required for data: 271776544
I1208 16:04:44.662533  1790 layer_factory.hpp:77] Creating layer conv5_5/sep_mbox_loc_flat
I1208 16:04:44.662541  1790 net.cpp:100] Creating Layer conv5_5/sep_mbox_loc_flat
I1208 16:04:44.662544  1790 net.cpp:434] conv5_5/sep_mbox_loc_flat <- conv5_5/sep_mbox_loc_perm
I1208 16:04:44.662549  1790 net.cpp:408] conv5_5/sep_mbox_loc_flat -> conv5_5/sep_mbox_loc_flat
I1208 16:04:44.662573  1790 net.cpp:150] Setting up conv5_5/sep_mbox_loc_flat
I1208 16:04:44.662578  1790 net.cpp:157] Top shape: 1 4864 (4864)
I1208 16:04:44.662580  1790 net.cpp:165] Memory required for data: 271796000
I1208 16:04:44.662583  1790 layer_factory.hpp:77] Creating layer conv5_5/sep_mbox_conf
I1208 16:04:44.662593  1790 net.cpp:100] Creating Layer conv5_5/sep_mbox_conf
I1208 16:04:44.662596  1790 net.cpp:434] conv5_5/sep_mbox_conf <- conv5_5/sep_relu5_5/sep_0_split_2
I1208 16:04:44.662601  1790 net.cpp:408] conv5_5/sep_mbox_conf -> conv5_5/sep_mbox_conf
I1208 16:04:44.664168  1790 net.cpp:150] Setting up conv5_5/sep_mbox_conf
I1208 16:04:44.664176  1790 net.cpp:157] Top shape: 1 10 19 32 (6080)
I1208 16:04:44.664180  1790 net.cpp:165] Memory required for data: 271820320
I1208 16:04:44.664186  1790 layer_factory.hpp:77] Creating layer conv5_5/sep_mbox_conf_perm
I1208 16:04:44.664193  1790 net.cpp:100] Creating Layer conv5_5/sep_mbox_conf_perm
I1208 16:04:44.664206  1790 net.cpp:434] conv5_5/sep_mbox_conf_perm <- conv5_5/sep_mbox_conf
I1208 16:04:44.664212  1790 net.cpp:408] conv5_5/sep_mbox_conf_perm -> conv5_5/sep_mbox_conf_perm
I1208 16:04:44.664319  1790 net.cpp:150] Setting up conv5_5/sep_mbox_conf_perm
I1208 16:04:44.664324  1790 net.cpp:157] Top shape: 1 19 32 10 (6080)
I1208 16:04:44.664327  1790 net.cpp:165] Memory required for data: 271844640
I1208 16:04:44.664331  1790 layer_factory.hpp:77] Creating layer conv5_5/sep_mbox_conf_flat
I1208 16:04:44.664335  1790 net.cpp:100] Creating Layer conv5_5/sep_mbox_conf_flat
I1208 16:04:44.664340  1790 net.cpp:434] conv5_5/sep_mbox_conf_flat <- conv5_5/sep_mbox_conf_perm
I1208 16:04:44.664345  1790 net.cpp:408] conv5_5/sep_mbox_conf_flat -> conv5_5/sep_mbox_conf_flat
I1208 16:04:44.664368  1790 net.cpp:150] Setting up conv5_5/sep_mbox_conf_flat
I1208 16:04:44.664374  1790 net.cpp:157] Top shape: 1 6080 (6080)
I1208 16:04:44.664377  1790 net.cpp:165] Memory required for data: 271868960
I1208 16:04:44.664381  1790 layer_factory.hpp:77] Creating layer conv5_5/sep_mbox_priorbox
I1208 16:04:44.664386  1790 net.cpp:100] Creating Layer conv5_5/sep_mbox_priorbox
I1208 16:04:44.664389  1790 net.cpp:434] conv5_5/sep_mbox_priorbox <- conv5_5/sep_relu5_5/sep_0_split_3
I1208 16:04:44.664393  1790 net.cpp:434] conv5_5/sep_mbox_priorbox <- data_data_0_split_1
I1208 16:04:44.664399  1790 net.cpp:408] conv5_5/sep_mbox_priorbox -> conv5_5/sep_mbox_priorbox
I1208 16:04:44.664427  1790 net.cpp:150] Setting up conv5_5/sep_mbox_priorbox
I1208 16:04:44.664430  1790 net.cpp:157] Top shape: 1 2 4864 (9728)
I1208 16:04:44.664433  1790 net.cpp:165] Memory required for data: 271907872
I1208 16:04:44.664435  1790 layer_factory.hpp:77] Creating layer conv6/sep_mbox_loc
I1208 16:04:44.664444  1790 net.cpp:100] Creating Layer conv6/sep_mbox_loc
I1208 16:04:44.664448  1790 net.cpp:434] conv6/sep_mbox_loc <- conv6/sep_relu6/sep_0_split_1
I1208 16:04:44.664453  1790 net.cpp:408] conv6/sep_mbox_loc -> conv6/sep_mbox_loc
I1208 16:04:44.666049  1790 net.cpp:150] Setting up conv6/sep_mbox_loc
I1208 16:04:44.666059  1790 net.cpp:157] Top shape: 1 8 10 16 (1280)
I1208 16:04:44.666061  1790 net.cpp:165] Memory required for data: 271912992
I1208 16:04:44.666067  1790 layer_factory.hpp:77] Creating layer conv6/sep_mbox_loc_perm
I1208 16:04:44.666074  1790 net.cpp:100] Creating Layer conv6/sep_mbox_loc_perm
I1208 16:04:44.666079  1790 net.cpp:434] conv6/sep_mbox_loc_perm <- conv6/sep_mbox_loc
I1208 16:04:44.666085  1790 net.cpp:408] conv6/sep_mbox_loc_perm -> conv6/sep_mbox_loc_perm
I1208 16:04:44.666194  1790 net.cpp:150] Setting up conv6/sep_mbox_loc_perm
I1208 16:04:44.666199  1790 net.cpp:157] Top shape: 1 10 16 8 (1280)
I1208 16:04:44.666203  1790 net.cpp:165] Memory required for data: 271918112
I1208 16:04:44.666206  1790 layer_factory.hpp:77] Creating layer conv6/sep_mbox_loc_flat
I1208 16:04:44.666211  1790 net.cpp:100] Creating Layer conv6/sep_mbox_loc_flat
I1208 16:04:44.666214  1790 net.cpp:434] conv6/sep_mbox_loc_flat <- conv6/sep_mbox_loc_perm
I1208 16:04:44.666221  1790 net.cpp:408] conv6/sep_mbox_loc_flat -> conv6/sep_mbox_loc_flat
I1208 16:04:44.666244  1790 net.cpp:150] Setting up conv6/sep_mbox_loc_flat
I1208 16:04:44.666249  1790 net.cpp:157] Top shape: 1 1280 (1280)
I1208 16:04:44.666251  1790 net.cpp:165] Memory required for data: 271923232
I1208 16:04:44.666255  1790 layer_factory.hpp:77] Creating layer conv6/sep_mbox_conf
I1208 16:04:44.666263  1790 net.cpp:100] Creating Layer conv6/sep_mbox_conf
I1208 16:04:44.666266  1790 net.cpp:434] conv6/sep_mbox_conf <- conv6/sep_relu6/sep_0_split_2
I1208 16:04:44.666271  1790 net.cpp:408] conv6/sep_mbox_conf -> conv6/sep_mbox_conf
I1208 16:04:44.668985  1790 net.cpp:150] Setting up conv6/sep_mbox_conf
I1208 16:04:44.669000  1790 net.cpp:157] Top shape: 1 10 10 16 (1600)
I1208 16:04:44.669003  1790 net.cpp:165] Memory required for data: 271929632
I1208 16:04:44.669011  1790 layer_factory.hpp:77] Creating layer conv6/sep_mbox_conf_perm
I1208 16:04:44.669032  1790 net.cpp:100] Creating Layer conv6/sep_mbox_conf_perm
I1208 16:04:44.669037  1790 net.cpp:434] conv6/sep_mbox_conf_perm <- conv6/sep_mbox_conf
I1208 16:04:44.669044  1790 net.cpp:408] conv6/sep_mbox_conf_perm -> conv6/sep_mbox_conf_perm
I1208 16:04:44.669158  1790 net.cpp:150] Setting up conv6/sep_mbox_conf_perm
I1208 16:04:44.669164  1790 net.cpp:157] Top shape: 1 10 16 10 (1600)
I1208 16:04:44.669167  1790 net.cpp:165] Memory required for data: 271936032
I1208 16:04:44.669170  1790 layer_factory.hpp:77] Creating layer conv6/sep_mbox_conf_flat
I1208 16:04:44.669175  1790 net.cpp:100] Creating Layer conv6/sep_mbox_conf_flat
I1208 16:04:44.669179  1790 net.cpp:434] conv6/sep_mbox_conf_flat <- conv6/sep_mbox_conf_perm
I1208 16:04:44.669185  1790 net.cpp:408] conv6/sep_mbox_conf_flat -> conv6/sep_mbox_conf_flat
I1208 16:04:44.669210  1790 net.cpp:150] Setting up conv6/sep_mbox_conf_flat
I1208 16:04:44.669216  1790 net.cpp:157] Top shape: 1 1600 (1600)
I1208 16:04:44.669220  1790 net.cpp:165] Memory required for data: 271942432
I1208 16:04:44.669222  1790 layer_factory.hpp:77] Creating layer conv6/sep_mbox_priorbox
I1208 16:04:44.669229  1790 net.cpp:100] Creating Layer conv6/sep_mbox_priorbox
I1208 16:04:44.669232  1790 net.cpp:434] conv6/sep_mbox_priorbox <- conv6/sep_relu6/sep_0_split_3
I1208 16:04:44.669237  1790 net.cpp:434] conv6/sep_mbox_priorbox <- data_data_0_split_2
I1208 16:04:44.669243  1790 net.cpp:408] conv6/sep_mbox_priorbox -> conv6/sep_mbox_priorbox
I1208 16:04:44.669271  1790 net.cpp:150] Setting up conv6/sep_mbox_priorbox
I1208 16:04:44.669277  1790 net.cpp:157] Top shape: 1 2 1280 (2560)
I1208 16:04:44.669281  1790 net.cpp:165] Memory required for data: 271952672
I1208 16:04:44.669283  1790 layer_factory.hpp:77] Creating layer ssd1_2_mbox_loc
I1208 16:04:44.669292  1790 net.cpp:100] Creating Layer ssd1_2_mbox_loc
I1208 16:04:44.669296  1790 net.cpp:434] ssd1_2_mbox_loc <- ssd1_2_ssd1_2_relu_0_split_1
I1208 16:04:44.669302  1790 net.cpp:408] ssd1_2_mbox_loc -> ssd1_2_mbox_loc
I1208 16:04:44.671368  1790 net.cpp:150] Setting up ssd1_2_mbox_loc
I1208 16:04:44.671380  1790 net.cpp:157] Top shape: 1 8 5 8 (320)
I1208 16:04:44.671383  1790 net.cpp:165] Memory required for data: 271953952
I1208 16:04:44.671391  1790 layer_factory.hpp:77] Creating layer ssd1_2_mbox_loc_perm
I1208 16:04:44.671398  1790 net.cpp:100] Creating Layer ssd1_2_mbox_loc_perm
I1208 16:04:44.671402  1790 net.cpp:434] ssd1_2_mbox_loc_perm <- ssd1_2_mbox_loc
I1208 16:04:44.671409  1790 net.cpp:408] ssd1_2_mbox_loc_perm -> ssd1_2_mbox_loc_perm
I1208 16:04:44.671538  1790 net.cpp:150] Setting up ssd1_2_mbox_loc_perm
I1208 16:04:44.671545  1790 net.cpp:157] Top shape: 1 5 8 8 (320)
I1208 16:04:44.671547  1790 net.cpp:165] Memory required for data: 271955232
I1208 16:04:44.671550  1790 layer_factory.hpp:77] Creating layer ssd1_2_mbox_loc_flat
I1208 16:04:44.671556  1790 net.cpp:100] Creating Layer ssd1_2_mbox_loc_flat
I1208 16:04:44.671560  1790 net.cpp:434] ssd1_2_mbox_loc_flat <- ssd1_2_mbox_loc_perm
I1208 16:04:44.671566  1790 net.cpp:408] ssd1_2_mbox_loc_flat -> ssd1_2_mbox_loc_flat
I1208 16:04:44.671591  1790 net.cpp:150] Setting up ssd1_2_mbox_loc_flat
I1208 16:04:44.671595  1790 net.cpp:157] Top shape: 1 320 (320)
I1208 16:04:44.671598  1790 net.cpp:165] Memory required for data: 271956512
I1208 16:04:44.671600  1790 layer_factory.hpp:77] Creating layer ssd1_2_mbox_conf
I1208 16:04:44.671608  1790 net.cpp:100] Creating Layer ssd1_2_mbox_conf
I1208 16:04:44.671612  1790 net.cpp:434] ssd1_2_mbox_conf <- ssd1_2_ssd1_2_relu_0_split_2
I1208 16:04:44.671618  1790 net.cpp:408] ssd1_2_mbox_conf -> ssd1_2_mbox_conf
I1208 16:04:44.673156  1790 net.cpp:150] Setting up ssd1_2_mbox_conf
I1208 16:04:44.673162  1790 net.cpp:157] Top shape: 1 10 5 8 (400)
I1208 16:04:44.673166  1790 net.cpp:165] Memory required for data: 271958112
I1208 16:04:44.673173  1790 layer_factory.hpp:77] Creating layer ssd1_2_mbox_conf_perm
I1208 16:04:44.673179  1790 net.cpp:100] Creating Layer ssd1_2_mbox_conf_perm
I1208 16:04:44.673182  1790 net.cpp:434] ssd1_2_mbox_conf_perm <- ssd1_2_mbox_conf
I1208 16:04:44.673198  1790 net.cpp:408] ssd1_2_mbox_conf_perm -> ssd1_2_mbox_conf_perm
I1208 16:04:44.673308  1790 net.cpp:150] Setting up ssd1_2_mbox_conf_perm
I1208 16:04:44.673313  1790 net.cpp:157] Top shape: 1 5 8 10 (400)
I1208 16:04:44.673316  1790 net.cpp:165] Memory required for data: 271959712
I1208 16:04:44.673319  1790 layer_factory.hpp:77] Creating layer ssd1_2_mbox_conf_flat
I1208 16:04:44.673324  1790 net.cpp:100] Creating Layer ssd1_2_mbox_conf_flat
I1208 16:04:44.673328  1790 net.cpp:434] ssd1_2_mbox_conf_flat <- ssd1_2_mbox_conf_perm
I1208 16:04:44.673336  1790 net.cpp:408] ssd1_2_mbox_conf_flat -> ssd1_2_mbox_conf_flat
I1208 16:04:44.673359  1790 net.cpp:150] Setting up ssd1_2_mbox_conf_flat
I1208 16:04:44.673364  1790 net.cpp:157] Top shape: 1 400 (400)
I1208 16:04:44.673367  1790 net.cpp:165] Memory required for data: 271961312
I1208 16:04:44.673369  1790 layer_factory.hpp:77] Creating layer ssd1_2_mbox_priorbox
I1208 16:04:44.673375  1790 net.cpp:100] Creating Layer ssd1_2_mbox_priorbox
I1208 16:04:44.673379  1790 net.cpp:434] ssd1_2_mbox_priorbox <- ssd1_2_ssd1_2_relu_0_split_3
I1208 16:04:44.673383  1790 net.cpp:434] ssd1_2_mbox_priorbox <- data_data_0_split_3
I1208 16:04:44.673390  1790 net.cpp:408] ssd1_2_mbox_priorbox -> ssd1_2_mbox_priorbox
I1208 16:04:44.673418  1790 net.cpp:150] Setting up ssd1_2_mbox_priorbox
I1208 16:04:44.673421  1790 net.cpp:157] Top shape: 1 2 320 (640)
I1208 16:04:44.673424  1790 net.cpp:165] Memory required for data: 271963872
I1208 16:04:44.673426  1790 layer_factory.hpp:77] Creating layer ssd2_2_mbox_loc
I1208 16:04:44.673434  1790 net.cpp:100] Creating Layer ssd2_2_mbox_loc
I1208 16:04:44.673437  1790 net.cpp:434] ssd2_2_mbox_loc <- ssd2_2_ssd2_2_relu_0_split_1
I1208 16:04:44.673444  1790 net.cpp:408] ssd2_2_mbox_loc -> ssd2_2_mbox_loc
I1208 16:04:44.674785  1790 net.cpp:150] Setting up ssd2_2_mbox_loc
I1208 16:04:44.674793  1790 net.cpp:157] Top shape: 1 8 3 4 (96)
I1208 16:04:44.674796  1790 net.cpp:165] Memory required for data: 271964256
I1208 16:04:44.674803  1790 layer_factory.hpp:77] Creating layer ssd2_2_mbox_loc_perm
I1208 16:04:44.674809  1790 net.cpp:100] Creating Layer ssd2_2_mbox_loc_perm
I1208 16:04:44.674813  1790 net.cpp:434] ssd2_2_mbox_loc_perm <- ssd2_2_mbox_loc
I1208 16:04:44.674818  1790 net.cpp:408] ssd2_2_mbox_loc_perm -> ssd2_2_mbox_loc_perm
I1208 16:04:44.674924  1790 net.cpp:150] Setting up ssd2_2_mbox_loc_perm
I1208 16:04:44.674929  1790 net.cpp:157] Top shape: 1 3 4 8 (96)
I1208 16:04:44.674932  1790 net.cpp:165] Memory required for data: 271964640
I1208 16:04:44.674935  1790 layer_factory.hpp:77] Creating layer ssd2_2_mbox_loc_flat
I1208 16:04:44.674942  1790 net.cpp:100] Creating Layer ssd2_2_mbox_loc_flat
I1208 16:04:44.674945  1790 net.cpp:434] ssd2_2_mbox_loc_flat <- ssd2_2_mbox_loc_perm
I1208 16:04:44.674950  1790 net.cpp:408] ssd2_2_mbox_loc_flat -> ssd2_2_mbox_loc_flat
I1208 16:04:44.674974  1790 net.cpp:150] Setting up ssd2_2_mbox_loc_flat
I1208 16:04:44.674979  1790 net.cpp:157] Top shape: 1 96 (96)
I1208 16:04:44.674981  1790 net.cpp:165] Memory required for data: 271965024
I1208 16:04:44.674984  1790 layer_factory.hpp:77] Creating layer ssd2_2_mbox_conf
I1208 16:04:44.674993  1790 net.cpp:100] Creating Layer ssd2_2_mbox_conf
I1208 16:04:44.674995  1790 net.cpp:434] ssd2_2_mbox_conf <- ssd2_2_ssd2_2_relu_0_split_2
I1208 16:04:44.675001  1790 net.cpp:408] ssd2_2_mbox_conf -> ssd2_2_mbox_conf
I1208 16:04:44.677536  1790 net.cpp:150] Setting up ssd2_2_mbox_conf
I1208 16:04:44.677551  1790 net.cpp:157] Top shape: 1 10 3 4 (120)
I1208 16:04:44.677552  1790 net.cpp:165] Memory required for data: 271965504
I1208 16:04:44.677559  1790 layer_factory.hpp:77] Creating layer ssd2_2_mbox_conf_perm
I1208 16:04:44.677568  1790 net.cpp:100] Creating Layer ssd2_2_mbox_conf_perm
I1208 16:04:44.677573  1790 net.cpp:434] ssd2_2_mbox_conf_perm <- ssd2_2_mbox_conf
I1208 16:04:44.677580  1790 net.cpp:408] ssd2_2_mbox_conf_perm -> ssd2_2_mbox_conf_perm
I1208 16:04:44.677695  1790 net.cpp:150] Setting up ssd2_2_mbox_conf_perm
I1208 16:04:44.677711  1790 net.cpp:157] Top shape: 1 3 4 10 (120)
I1208 16:04:44.677713  1790 net.cpp:165] Memory required for data: 271965984
I1208 16:04:44.677717  1790 layer_factory.hpp:77] Creating layer ssd2_2_mbox_conf_flat
I1208 16:04:44.677723  1790 net.cpp:100] Creating Layer ssd2_2_mbox_conf_flat
I1208 16:04:44.677727  1790 net.cpp:434] ssd2_2_mbox_conf_flat <- ssd2_2_mbox_conf_perm
I1208 16:04:44.677732  1790 net.cpp:408] ssd2_2_mbox_conf_flat -> ssd2_2_mbox_conf_flat
I1208 16:04:44.677758  1790 net.cpp:150] Setting up ssd2_2_mbox_conf_flat
I1208 16:04:44.677763  1790 net.cpp:157] Top shape: 1 120 (120)
I1208 16:04:44.677767  1790 net.cpp:165] Memory required for data: 271966464
I1208 16:04:44.677770  1790 layer_factory.hpp:77] Creating layer ssd2_2_mbox_priorbox
I1208 16:04:44.677778  1790 net.cpp:100] Creating Layer ssd2_2_mbox_priorbox
I1208 16:04:44.677781  1790 net.cpp:434] ssd2_2_mbox_priorbox <- ssd2_2_ssd2_2_relu_0_split_3
I1208 16:04:44.677786  1790 net.cpp:434] ssd2_2_mbox_priorbox <- data_data_0_split_4
I1208 16:04:44.677791  1790 net.cpp:408] ssd2_2_mbox_priorbox -> ssd2_2_mbox_priorbox
I1208 16:04:44.677821  1790 net.cpp:150] Setting up ssd2_2_mbox_priorbox
I1208 16:04:44.677826  1790 net.cpp:157] Top shape: 1 2 96 (192)
I1208 16:04:44.677829  1790 net.cpp:165] Memory required for data: 271967232
I1208 16:04:44.677831  1790 layer_factory.hpp:77] Creating layer ssd3_2_mbox_loc
I1208 16:04:44.677840  1790 net.cpp:100] Creating Layer ssd3_2_mbox_loc
I1208 16:04:44.677844  1790 net.cpp:434] ssd3_2_mbox_loc <- ssd3_2_ssd3_2_relu_0_split_1
I1208 16:04:44.677850  1790 net.cpp:408] ssd3_2_mbox_loc -> ssd3_2_mbox_loc
I1208 16:04:44.679430  1790 net.cpp:150] Setting up ssd3_2_mbox_loc
I1208 16:04:44.679440  1790 net.cpp:157] Top shape: 1 8 2 2 (32)
I1208 16:04:44.679441  1790 net.cpp:165] Memory required for data: 271967360
I1208 16:04:44.679448  1790 layer_factory.hpp:77] Creating layer ssd3_2_mbox_loc_perm
I1208 16:04:44.679455  1790 net.cpp:100] Creating Layer ssd3_2_mbox_loc_perm
I1208 16:04:44.679458  1790 net.cpp:434] ssd3_2_mbox_loc_perm <- ssd3_2_mbox_loc
I1208 16:04:44.679476  1790 net.cpp:408] ssd3_2_mbox_loc_perm -> ssd3_2_mbox_loc_perm
I1208 16:04:44.679585  1790 net.cpp:150] Setting up ssd3_2_mbox_loc_perm
I1208 16:04:44.679590  1790 net.cpp:157] Top shape: 1 2 2 8 (32)
I1208 16:04:44.679594  1790 net.cpp:165] Memory required for data: 271967488
I1208 16:04:44.679595  1790 layer_factory.hpp:77] Creating layer ssd3_2_mbox_loc_flat
I1208 16:04:44.679601  1790 net.cpp:100] Creating Layer ssd3_2_mbox_loc_flat
I1208 16:04:44.679605  1790 net.cpp:434] ssd3_2_mbox_loc_flat <- ssd3_2_mbox_loc_perm
I1208 16:04:44.679611  1790 net.cpp:408] ssd3_2_mbox_loc_flat -> ssd3_2_mbox_loc_flat
I1208 16:04:44.679636  1790 net.cpp:150] Setting up ssd3_2_mbox_loc_flat
I1208 16:04:44.679641  1790 net.cpp:157] Top shape: 1 32 (32)
I1208 16:04:44.679642  1790 net.cpp:165] Memory required for data: 271967616
I1208 16:04:44.679646  1790 layer_factory.hpp:77] Creating layer ssd3_2_mbox_conf
I1208 16:04:44.679653  1790 net.cpp:100] Creating Layer ssd3_2_mbox_conf
I1208 16:04:44.679656  1790 net.cpp:434] ssd3_2_mbox_conf <- ssd3_2_ssd3_2_relu_0_split_2
I1208 16:04:44.679661  1790 net.cpp:408] ssd3_2_mbox_conf -> ssd3_2_mbox_conf
I1208 16:04:44.681025  1790 net.cpp:150] Setting up ssd3_2_mbox_conf
I1208 16:04:44.681032  1790 net.cpp:157] Top shape: 1 10 2 2 (40)
I1208 16:04:44.681035  1790 net.cpp:165] Memory required for data: 271967776
I1208 16:04:44.681041  1790 layer_factory.hpp:77] Creating layer ssd3_2_mbox_conf_perm
I1208 16:04:44.681047  1790 net.cpp:100] Creating Layer ssd3_2_mbox_conf_perm
I1208 16:04:44.681051  1790 net.cpp:434] ssd3_2_mbox_conf_perm <- ssd3_2_mbox_conf
I1208 16:04:44.681057  1790 net.cpp:408] ssd3_2_mbox_conf_perm -> ssd3_2_mbox_conf_perm
I1208 16:04:44.681164  1790 net.cpp:150] Setting up ssd3_2_mbox_conf_perm
I1208 16:04:44.681169  1790 net.cpp:157] Top shape: 1 2 2 10 (40)
I1208 16:04:44.681171  1790 net.cpp:165] Memory required for data: 271967936
I1208 16:04:44.681174  1790 layer_factory.hpp:77] Creating layer ssd3_2_mbox_conf_flat
I1208 16:04:44.681187  1790 net.cpp:100] Creating Layer ssd3_2_mbox_conf_flat
I1208 16:04:44.681191  1790 net.cpp:434] ssd3_2_mbox_conf_flat <- ssd3_2_mbox_conf_perm
I1208 16:04:44.681197  1790 net.cpp:408] ssd3_2_mbox_conf_flat -> ssd3_2_mbox_conf_flat
I1208 16:04:44.681223  1790 net.cpp:150] Setting up ssd3_2_mbox_conf_flat
I1208 16:04:44.681227  1790 net.cpp:157] Top shape: 1 40 (40)
I1208 16:04:44.681229  1790 net.cpp:165] Memory required for data: 271968096
I1208 16:04:44.681232  1790 layer_factory.hpp:77] Creating layer ssd3_2_mbox_priorbox
I1208 16:04:44.681237  1790 net.cpp:100] Creating Layer ssd3_2_mbox_priorbox
I1208 16:04:44.681241  1790 net.cpp:434] ssd3_2_mbox_priorbox <- ssd3_2_ssd3_2_relu_0_split_3
I1208 16:04:44.681246  1790 net.cpp:434] ssd3_2_mbox_priorbox <- data_data_0_split_5
I1208 16:04:44.681252  1790 net.cpp:408] ssd3_2_mbox_priorbox -> ssd3_2_mbox_priorbox
I1208 16:04:44.681278  1790 net.cpp:150] Setting up ssd3_2_mbox_priorbox
I1208 16:04:44.681283  1790 net.cpp:157] Top shape: 1 2 32 (64)
I1208 16:04:44.681285  1790 net.cpp:165] Memory required for data: 271968352
I1208 16:04:44.681288  1790 layer_factory.hpp:77] Creating layer ssd4_2_mbox_loc
I1208 16:04:44.681296  1790 net.cpp:100] Creating Layer ssd4_2_mbox_loc
I1208 16:04:44.681299  1790 net.cpp:434] ssd4_2_mbox_loc <- ssd4_2_ssd4_2_relu_0_split_0
I1208 16:04:44.681304  1790 net.cpp:408] ssd4_2_mbox_loc -> ssd4_2_mbox_loc
I1208 16:04:44.683480  1790 net.cpp:150] Setting up ssd4_2_mbox_loc
I1208 16:04:44.683490  1790 net.cpp:157] Top shape: 1 8 1 1 (8)
I1208 16:04:44.683491  1790 net.cpp:165] Memory required for data: 271968384
I1208 16:04:44.683498  1790 layer_factory.hpp:77] Creating layer ssd4_2_mbox_loc_perm
I1208 16:04:44.683506  1790 net.cpp:100] Creating Layer ssd4_2_mbox_loc_perm
I1208 16:04:44.683511  1790 net.cpp:434] ssd4_2_mbox_loc_perm <- ssd4_2_mbox_loc
I1208 16:04:44.683516  1790 net.cpp:408] ssd4_2_mbox_loc_perm -> ssd4_2_mbox_loc_perm
I1208 16:04:44.683626  1790 net.cpp:150] Setting up ssd4_2_mbox_loc_perm
I1208 16:04:44.683631  1790 net.cpp:157] Top shape: 1 1 1 8 (8)
I1208 16:04:44.683634  1790 net.cpp:165] Memory required for data: 271968416
I1208 16:04:44.683637  1790 layer_factory.hpp:77] Creating layer ssd4_2_mbox_loc_flat
I1208 16:04:44.683643  1790 net.cpp:100] Creating Layer ssd4_2_mbox_loc_flat
I1208 16:04:44.683646  1790 net.cpp:434] ssd4_2_mbox_loc_flat <- ssd4_2_mbox_loc_perm
I1208 16:04:44.683651  1790 net.cpp:408] ssd4_2_mbox_loc_flat -> ssd4_2_mbox_loc_flat
I1208 16:04:44.683676  1790 net.cpp:150] Setting up ssd4_2_mbox_loc_flat
I1208 16:04:44.683681  1790 net.cpp:157] Top shape: 1 8 (8)
I1208 16:04:44.683683  1790 net.cpp:165] Memory required for data: 271968448
I1208 16:04:44.683686  1790 layer_factory.hpp:77] Creating layer ssd4_2_mbox_conf
I1208 16:04:44.683696  1790 net.cpp:100] Creating Layer ssd4_2_mbox_conf
I1208 16:04:44.683698  1790 net.cpp:434] ssd4_2_mbox_conf <- ssd4_2_ssd4_2_relu_0_split_1
I1208 16:04:44.683704  1790 net.cpp:408] ssd4_2_mbox_conf -> ssd4_2_mbox_conf
I1208 16:04:44.685077  1790 net.cpp:150] Setting up ssd4_2_mbox_conf
I1208 16:04:44.685084  1790 net.cpp:157] Top shape: 1 10 1 1 (10)
I1208 16:04:44.685087  1790 net.cpp:165] Memory required for data: 271968488
I1208 16:04:44.685093  1790 layer_factory.hpp:77] Creating layer ssd4_2_mbox_conf_perm
I1208 16:04:44.685099  1790 net.cpp:100] Creating Layer ssd4_2_mbox_conf_perm
I1208 16:04:44.685103  1790 net.cpp:434] ssd4_2_mbox_conf_perm <- ssd4_2_mbox_conf
I1208 16:04:44.685111  1790 net.cpp:408] ssd4_2_mbox_conf_perm -> ssd4_2_mbox_conf_perm
I1208 16:04:44.685220  1790 net.cpp:150] Setting up ssd4_2_mbox_conf_perm
I1208 16:04:44.685225  1790 net.cpp:157] Top shape: 1 1 1 10 (10)
I1208 16:04:44.685227  1790 net.cpp:165] Memory required for data: 271968528
I1208 16:04:44.685231  1790 layer_factory.hpp:77] Creating layer ssd4_2_mbox_conf_flat
I1208 16:04:44.685236  1790 net.cpp:100] Creating Layer ssd4_2_mbox_conf_flat
I1208 16:04:44.685240  1790 net.cpp:434] ssd4_2_mbox_conf_flat <- ssd4_2_mbox_conf_perm
I1208 16:04:44.685253  1790 net.cpp:408] ssd4_2_mbox_conf_flat -> ssd4_2_mbox_conf_flat
I1208 16:04:44.685277  1790 net.cpp:150] Setting up ssd4_2_mbox_conf_flat
I1208 16:04:44.685282  1790 net.cpp:157] Top shape: 1 10 (10)
I1208 16:04:44.685286  1790 net.cpp:165] Memory required for data: 271968568
I1208 16:04:44.685288  1790 layer_factory.hpp:77] Creating layer ssd4_2_mbox_priorbox
I1208 16:04:44.685295  1790 net.cpp:100] Creating Layer ssd4_2_mbox_priorbox
I1208 16:04:44.685298  1790 net.cpp:434] ssd4_2_mbox_priorbox <- ssd4_2_ssd4_2_relu_0_split_2
I1208 16:04:44.685303  1790 net.cpp:434] ssd4_2_mbox_priorbox <- data_data_0_split_6
I1208 16:04:44.685309  1790 net.cpp:408] ssd4_2_mbox_priorbox -> ssd4_2_mbox_priorbox
I1208 16:04:44.685335  1790 net.cpp:150] Setting up ssd4_2_mbox_priorbox
I1208 16:04:44.685340  1790 net.cpp:157] Top shape: 1 2 8 (16)
I1208 16:04:44.685343  1790 net.cpp:165] Memory required for data: 271968632
I1208 16:04:44.685345  1790 layer_factory.hpp:77] Creating layer mbox_loc
I1208 16:04:44.685351  1790 net.cpp:100] Creating Layer mbox_loc
I1208 16:04:44.685355  1790 net.cpp:434] mbox_loc <- conv5_5/sep_mbox_loc_flat
I1208 16:04:44.685360  1790 net.cpp:434] mbox_loc <- conv6/sep_mbox_loc_flat
I1208 16:04:44.685365  1790 net.cpp:434] mbox_loc <- ssd1_2_mbox_loc_flat
I1208 16:04:44.685369  1790 net.cpp:434] mbox_loc <- ssd2_2_mbox_loc_flat
I1208 16:04:44.685374  1790 net.cpp:434] mbox_loc <- ssd3_2_mbox_loc_flat
I1208 16:04:44.685377  1790 net.cpp:434] mbox_loc <- ssd4_2_mbox_loc_flat
I1208 16:04:44.685384  1790 net.cpp:408] mbox_loc -> mbox_loc
I1208 16:04:44.685408  1790 net.cpp:150] Setting up mbox_loc
I1208 16:04:44.685412  1790 net.cpp:157] Top shape: 1 6600 (6600)
I1208 16:04:44.685415  1790 net.cpp:165] Memory required for data: 271995032
I1208 16:04:44.685418  1790 layer_factory.hpp:77] Creating layer mbox_conf
I1208 16:04:44.685425  1790 net.cpp:100] Creating Layer mbox_conf
I1208 16:04:44.685427  1790 net.cpp:434] mbox_conf <- conv5_5/sep_mbox_conf_flat
I1208 16:04:44.685431  1790 net.cpp:434] mbox_conf <- conv6/sep_mbox_conf_flat
I1208 16:04:44.685436  1790 net.cpp:434] mbox_conf <- ssd1_2_mbox_conf_flat
I1208 16:04:44.685439  1790 net.cpp:434] mbox_conf <- ssd2_2_mbox_conf_flat
I1208 16:04:44.685443  1790 net.cpp:434] mbox_conf <- ssd3_2_mbox_conf_flat
I1208 16:04:44.685447  1790 net.cpp:434] mbox_conf <- ssd4_2_mbox_conf_flat
I1208 16:04:44.685451  1790 net.cpp:408] mbox_conf -> mbox_conf
I1208 16:04:44.685475  1790 net.cpp:150] Setting up mbox_conf
I1208 16:04:44.685479  1790 net.cpp:157] Top shape: 1 8250 (8250)
I1208 16:04:44.685482  1790 net.cpp:165] Memory required for data: 272028032
I1208 16:04:44.685485  1790 layer_factory.hpp:77] Creating layer mbox_priorbox
I1208 16:04:44.685492  1790 net.cpp:100] Creating Layer mbox_priorbox
I1208 16:04:44.685494  1790 net.cpp:434] mbox_priorbox <- conv5_5/sep_mbox_priorbox
I1208 16:04:44.685499  1790 net.cpp:434] mbox_priorbox <- conv6/sep_mbox_priorbox
I1208 16:04:44.685503  1790 net.cpp:434] mbox_priorbox <- ssd1_2_mbox_priorbox
I1208 16:04:44.685508  1790 net.cpp:434] mbox_priorbox <- ssd2_2_mbox_priorbox
I1208 16:04:44.685510  1790 net.cpp:434] mbox_priorbox <- ssd3_2_mbox_priorbox
I1208 16:04:44.685515  1790 net.cpp:434] mbox_priorbox <- ssd4_2_mbox_priorbox
I1208 16:04:44.685519  1790 net.cpp:408] mbox_priorbox -> mbox_priorbox
I1208 16:04:44.685544  1790 net.cpp:150] Setting up mbox_priorbox
I1208 16:04:44.685547  1790 net.cpp:157] Top shape: 1 2 6600 (13200)
I1208 16:04:44.685551  1790 net.cpp:165] Memory required for data: 272080832
I1208 16:04:44.685554  1790 layer_factory.hpp:77] Creating layer mbox_conf_reshape
I1208 16:04:44.685559  1790 net.cpp:100] Creating Layer mbox_conf_reshape
I1208 16:04:44.685562  1790 net.cpp:434] mbox_conf_reshape <- mbox_conf
I1208 16:04:44.685569  1790 net.cpp:408] mbox_conf_reshape -> mbox_conf_reshape
I1208 16:04:44.685597  1790 net.cpp:150] Setting up mbox_conf_reshape
I1208 16:04:44.685601  1790 net.cpp:157] Top shape: 1 1650 5 (8250)
I1208 16:04:44.685605  1790 net.cpp:165] Memory required for data: 272113832
I1208 16:04:44.685613  1790 layer_factory.hpp:77] Creating layer mbox_conf_softmax
I1208 16:04:44.685618  1790 net.cpp:100] Creating Layer mbox_conf_softmax
I1208 16:04:44.685621  1790 net.cpp:434] mbox_conf_softmax <- mbox_conf_reshape
I1208 16:04:44.685627  1790 net.cpp:408] mbox_conf_softmax -> mbox_conf_softmax
I1208 16:04:44.686111  1790 net.cpp:150] Setting up mbox_conf_softmax
I1208 16:04:44.686120  1790 net.cpp:157] Top shape: 1 1650 5 (8250)
I1208 16:04:44.686121  1790 net.cpp:165] Memory required for data: 272146832
I1208 16:04:44.686125  1790 layer_factory.hpp:77] Creating layer mbox_conf_flatten
I1208 16:04:44.686131  1790 net.cpp:100] Creating Layer mbox_conf_flatten
I1208 16:04:44.686136  1790 net.cpp:434] mbox_conf_flatten <- mbox_conf_softmax
I1208 16:04:44.686139  1790 net.cpp:408] mbox_conf_flatten -> mbox_conf_flatten
I1208 16:04:44.686167  1790 net.cpp:150] Setting up mbox_conf_flatten
I1208 16:04:44.686172  1790 net.cpp:157] Top shape: 1 8250 (8250)
I1208 16:04:44.686173  1790 net.cpp:165] Memory required for data: 272179832
I1208 16:04:44.686177  1790 layer_factory.hpp:77] Creating layer detection_out
I1208 16:04:44.686189  1790 net.cpp:100] Creating Layer detection_out
I1208 16:04:44.686193  1790 net.cpp:434] detection_out <- mbox_loc
I1208 16:04:44.686197  1790 net.cpp:434] detection_out <- mbox_conf_flatten
I1208 16:04:44.686200  1790 net.cpp:434] detection_out <- mbox_priorbox
I1208 16:04:44.686206  1790 net.cpp:408] detection_out -> detection_out
W1208 16:04:44.686231  1790 detection_output_layer.cpp:49] Failed to create directory: /home/zhongyilin/Documents/data/GTSDBdevkit/results/GTSDB/SSD_510x300_100_40_Square_1/Main
I1208 16:04:44.686537  1790 net.cpp:150] Setting up detection_out
I1208 16:04:44.686542  1790 net.cpp:157] Top shape: 1 1 1 7 (7)
I1208 16:04:44.686545  1790 net.cpp:165] Memory required for data: 272179860
I1208 16:04:44.686548  1790 layer_factory.hpp:77] Creating layer detection_eval
I1208 16:04:44.686555  1790 net.cpp:100] Creating Layer detection_eval
I1208 16:04:44.686558  1790 net.cpp:434] detection_eval <- detection_out
I1208 16:04:44.686563  1790 net.cpp:434] detection_eval <- label
I1208 16:04:44.686568  1790 net.cpp:408] detection_eval -> detection_eval
I1208 16:04:44.686664  1790 net.cpp:150] Setting up detection_eval
I1208 16:04:44.686671  1790 net.cpp:157] Top shape: 1 1 5 5 (25)
I1208 16:04:44.686672  1790 net.cpp:165] Memory required for data: 272179960
I1208 16:04:44.686676  1790 net.cpp:228] detection_eval does not need backward computation.
I1208 16:04:44.686681  1790 net.cpp:228] detection_out does not need backward computation.
I1208 16:04:44.686684  1790 net.cpp:228] mbox_conf_flatten does not need backward computation.
I1208 16:04:44.686688  1790 net.cpp:228] mbox_conf_softmax does not need backward computation.
…
