…
      sampler {
        min_scale: 0.3
        max_scale: 1
        min_aspect_ratio: 0.5
        max_aspect_ratio: 2
      }
      sample_constraint {
        min_jaccard_overlap: 0.9
      }
      max_sample: 1
      max_trials: 50
    }
    batch_sampler {
      sampler {
        min_scale: 0.3
        max_scale: 1
        min_aspect_ratio: 0.5
        max_aspect_ratio: 2
      }
      sample_constraint {
        max_jaccard_overlap: 1
      }
      max_sample: 1
      max_trials: 50
    }
    label_map_file: "data/GTSDB/labelmap_GTSDB.prototxt"
  }
}
layer {
  name: "conv1"
  type: "Convolution"
  bottom: "data"
  top: "conv1"
  param {
    lr_mult: 1
    decay_mult: 1
  }
  convolution_param {
    num_output: 32
    bias_term: false
    pad: 1
    kernel_size: 3
    stride: 2
    weight_filler {
      type: "msra"
    }
  }
}
layer {
  name: "conv1/bn"
  type: "BatchNorm"
  bottom: "conv1"
  top: "conv1"
  batch_norm_param {
    use_global_stats: true
    eps: 1e-05
  }
}
layer {
  name: "conv1/scale"
  type: "Scale"
  bottom: "conv1"
  top: "conv1"
  param {
    lr_mult: 1
    decay_mult: 0
  }
  param {
    lr_mult: 1
    decay_mult: 0
  }
  scale_param {
    filler {
      type: "constant"
      value: 1
    }
    bias_term: true
    bias_filler {
      type: "constant"
      value: 0
    }
  }
}
layer {
  name: "relu1"
  type: "ReLU"
  bottom: "conv1"
  top: "conv1"
}
layer {
  name: "conv2_1/dw"
  type: "DepthwiseConvolution"
  bottom: "conv1"
  top: "conv2_1/dw"
  param {
    lr_mult: 1
    decay_mult: 1
  }
  convolution_param {
    num_output: 32
    bias_term: false
    pad: 1
    kernel_size: 3
    group: 32
    stride: 1
    weight_filler {
      type: "msra"
    }
  }
}
layer {
  name: "conv2_1/dw/bn"
  type: "BatchNorm"
  bottom: "conv2_1/dw"
  top: "conv2_1/dw"
  batch_norm_param {
    use_global_stats: true
    eps: 1e-05
  }
}
layer {
  name: "conv2_1/dw/scale"
  type: "Scale"
  bottom: "conv2_1/dw"
  top: "conv2_1/dw"
  param {
    lr_mult: 1
    decay_mult: 0
  }
  param {
    lr_mult: 1
    decay_mult: 0
  }
  scale_param {
    filler {
      type: "constant"
      value: 1
    }
    bias_term: true
    bias_filler {
      type: "constant"
      value: 0
    }
  }
}
layer {
  name: "relu2_1/dw"
  type: "ReLU"
  bottom: "conv2_1/dw"
  top: "conv2_1/dw"
}
layer {
  name: "conv2_1/sep"
  type: "Convolution"
  bottom: "conv2_1/dw"
  top: "conv2_1/sep"
  param {
    lr_mult: 1
    decay_mult: 1
  }
  convolution_param {
    num_output: 64
    bias_term: false
    pad: 0
    kernel_size: 1
    stride: 1
    weight_filler {
      type: "msra"
    }
  }
}
layer {
  name: "conv2_1/sep/bn"
  type: "BatchNorm"
  bottom: "conv2_1/sep"
  top: "conv2_1/sep"
  batch_norm_param {
    use_global_stats: true
    eps: 1e-05
  }
}
layer {
  name: "conv2_1/sep/scale"
  type: "Scale"
  bottom: "conv2_1/sep"
  top: "conv2_1/sep"
  param {
    lr_mult: 1
    decay_mult: 0
  }
  param {
    lr_mult: 1
    decay_mult: 0
  }
  scale_param {
    filler {
      type: "constant"
      value: 1
    }
    bias_term: true
    bias_filler {
      type: "constant"
      value: 0
    }
  }
}
layer {
  name: "relu2_1/sep"
  type: "ReLU"
  bottom: "conv2_1/sep"
  top: "conv2_1/sep"
}
layer {
  name: "conv2_2/dw"
  type: "DepthwiseConvolution"
  bottom: "conv2_1/sep"
  top: "conv2_2/dw"
  param {
    lr_mult: 1
    decay_mult: 1
  }
  convolution_param {
    num_output: 64
    bias_term: false
    pad: 1
    kernel_size: 3
    group: 64
    stride: 2
    weight_filler {
      type: "msra"
    }
  }
}
layer {
  name: "conv2_2/dw/bn"
  type: "BatchNorm"
  bottom: "conv2_2/dw"
  top: "conv2_2/dw"
  batch_norm_param {
    use_global_stats: true
    eps: 1e-05
  }
}
layer {
  name: "conv2_2/dw/scale"
  type: "Scale"
  bottom: "conv2_2/dw"
  top: "conv2_2/dw"
  param {
    lr_mult: 1
    decay_mult: 0
  }
  param {
    lr_mult: 1
    decay_mult: 0
  }
  scale_param {
    filler {
      type: "constant"
      value: 1
    }
    bias_term: true
    bias_filler {
      type: "constant"
      value: 0
    }
  }
}
layer {
  name: "relu2_2/dw"
  type: "ReLU"
  bottom: "conv2_2/dw"
  top: "conv2_2/dw"
}
layer {
  name: "conv2_2/sep"
  type: "Convolution"
  bottom: "conv2_2/dw"
  top: "conv2_2/sep"
  param {
    lr_mult: 1
    decay_mult: 1
  }
  convolution_param {
    num_output: 128
    bias_term: false
    pad: 0
    kernel_size: 1
    stride: 1
    weight_filler {
      type: "msra"
    }
  }
}
layer {
  name: "conv2_2/sep/bn"
  type: "BatchNorm"
  bottom: "conv2_2/sep"
  top: "conv2_2/sep"
  batch_norm_param {
    use_global_stats: true
    eps: 1e-05
  }
}
layer {
  name: "conv2_2/sep/scale"
  type: "Scale"
  bottom: "conv2_2/sep"
  top: "conv2_2/sep"
  param {
    lr_mult: 1
    decay_mult: 0
  }
  param {
    lr_mult: 1
    decay_mult: 0
  }
  scale_param {
    filler {
      type: "constant"
      value: 1
    }
    bias_term: true
    bias_filler {
      type: "constant"
      value: 0
    }
  }
}
layer {
  name: "relu2_2/sep"
  type: "ReLU"
  bottom: "conv2_2/sep"
  top: "conv2_2/sep"
}
layer {
  name: "conv3_1/dw"
  type: "DepthwiseConvolution"
  bottom: "conv2_2/sep"
  top: "conv3_1/dw"
  param {
    lr_mult: 1
    decay_mult: 1
  }
  convolution_param {
    num_output: 128
    bias_term: false
    pad: 1
    kernel_size: 3
    group: 128
    stride: 1
    weight_filler {
      type: "msra"
    }
  }
}
layer {
  name: "conv3_1/dw/bn"
  type: "BatchNorm"
  bottom: "conv3_1/dw"
  top: "conv3_1/dw"
  batch_norm_param {
    use_global_stats: true
    eps: 1e-05
  }
}
layer {
  name: "conv3_1/dw/scale"
  type: "Scale"
  bottom: "conv3_1/dw"
  top: "conv3_1/dw"
  param {
    lr_mult: 1
    decay_mult: 0
  }
  param {
    lr_mult: 1
    decay_mult: 0
  }
  scale_param {
    filler {
      type: "constant"
      value: 1
    }
    bias_term: true
    bias_filler {
      type: "constant"
      value: 0
    }
  }
}
layer {
  name: "relu3_1/dw"
  type: "ReLU"
  bottom: "conv3_1/dw"
  top: "conv3_1/dw"
}
layer {
  name: "conv3_1/sep"
  type: "Convolution"
  bottom: "conv3_1/dw"
  top: "conv3_1/sep"
  param {
    lr_mult: 1
    decay_mult: 1
  }
  convolution_param {
    num_output: 128
    bias_term: false
    pad: 0
    kernel_size: 1
    stride: 1
    weight_filler {
      type: "msra"
    }
  }
}
layer {
  name: "conv3_1/sep/bn"
  type: "BatchNorm"
  bottom: "conv3_1/sep"
  top: "conv3_1/sep"
  batch_norm_param {
    use_global_stats: true
    eps: 1e-05
  }
}
layer {
  name: "conv3_1/sep/scale"
  type: "Scale"
  bottom: "conv3_1/sep"
  top: "conv3_1/sep"
  param {
    lr_mult: 1
    decay_mult: 0
  }
  param {
    lr_mult: 1
    decay_mult: 0
  }
  scale_param {
    filler {
      type: "constant"
      value: 1
    }
    bias_term: true
    bias_filler {
      type: "constant"
      value: 0
    }
  }
}
layer {
  name: "relu3_1/sep"
  type: "ReLU"
  bottom: "conv3_1/sep"
  top: "conv3_1/sep"
}
layer {
  name: "conv3_2/dw"
  type: "DepthwiseConvolution"
  bottom: "conv3_1/sep"
  top: "conv3_2/dw"
  param {
    lr_mult: 1
    decay_mult: 1
  }
  convolution_param {
    num_output: 128
    bias_term: false
    pad: 1
    kernel_size: 3
    group: 128
    stride: 2
    weight_filler {
      type: "msra"
    }
  }
}
layer {
  name: "conv3_2/dw/bn"
  type: "BatchNorm"
  bottom: "conv3_2/dw"
  top: "conv3_2/dw"
  batch_norm_param {
    use_global_stats: true
    eps: 1e-05
  }
}
layer {
  name: "conv3_2/dw/scale"
  type: "Scale"
  bottom: "conv3_2/dw"
  top: "conv3_2/dw"
  param {
    lr_mult: 1
    decay_mult: 0
  }
  param {
    lr_mult: 1
    decay_mult: 0
  }
  scale_param {
    filler {
      type: "constant"
      value: 1
    }
    bias_term: true
    bias_filler {
      type: "constant"
      value: 0
    }
  }
}
layer {
  name: "relu3_2/dw"
  type: "ReLU"
  bottom: "conv3_2/dw"
  top: "conv3_2/dw"
}
layer {
  name: "conv3_2/sep"
  type: "Convolution"
  bottom: "conv3_2/dw"
  top: "conv3_2/sep"
  param {
    lr_mult: 1
    decay_mult: 1
  }
  convolution_param {
    num_output: 256
    bias_term: false
    pad: 0
    kernel_size: 1
    stride: 1
    weight_filler {
      type: "msra"
    }
  }
}
layer {
  name: "conv3_2/sep/bn"
  type: "BatchNorm"
  bottom: "conv3_2/sep"
  top: "conv3_2/sep"
  batch_norm_param {
    use_global_stats: true
    eps: 1e-05
  }
}
layer {
  name: "conv3_2/sep/scale"
  type: "Scale"
  bottom: "conv3_2/sep"
  top: "conv3_2/sep"
  param {
    lr_mult: 1
    decay_mult: 0
  }
  param {
    lr_mult: 1
    decay_mult: 0
  }
  scale_param {
    filler {
      type: "constant"
      value: 1
    }
    bias_term: true
    bias_filler {
      type: "constant"
      value: 0
    }
  }
}
layer {
  name: "relu3_2/sep"
  type: "ReLU"
  bottom: "conv3_2/sep"
  top: "conv3_2/sep"
}
layer {
  name: "conv4_1/dw"
  type: "DepthwiseConvolution"
  bottom: "conv3_2/sep"
  top: "conv4_1/dw"
  param {
    lr_mult: 1
    decay_mult: 1
  }
  convolution_param {
    num_output: 256
    bias_term: false
    pad: 1
    kernel_size: 3
    group: 256
    stride: 1
    weight_filler {
      type: "msra"
    }
  }
}
layer {
  name: "conv4_1/dw/bn"
  type: "BatchNorm"
  bottom: "conv4_1/dw"
  top: "conv4_1/dw"
  batch_norm_param {
    use_global_stats: true
    eps: 1e-05
  }
}
layer {
  name: "conv4_1/dw/scale"
  type: "Scale"
  bottom: "conv4_1/dw"
  top: "conv4_1/dw"
  param {
    lr_mult: 1
    decay_mult: 0
  }
  param {
    lr_mult: 1
    decay_mult: 0
  }
  scale_param {
    filler {
      type: "constant"
      value: 1
    }
    bias_term: true
    bias_filler {
      type: "constant"
      value: 0
    }
  }
}
layer {
  name: "relu4_1/dw"
  type: "ReLU"
  bottom: "conv4_1/dw"
  top: "conv4_1/dw"
}
layer {
  name: "conv4_1/sep"
  type: "Convolution"
  bottom: "conv4_1/dw"
  top: "conv4_1/sep"
  param {
    lr_mult: 1
    decay_mult: 1
  }
  convolution_param {
    num_output: 256
    bias_term: false
    pad: 0
    kernel_size: 1
    stride: 1
    weight_filler {
      type: "msra"
    }
  }
}
layer {
  name: "conv4_1/sep/bn"
  type: "BatchNorm"
  bottom: "conv4_1/sep"
  top: "conv4_1/sep"
  batch_norm_param {
    use_global_stats: true
    eps: 1e-05
  }
}
layer {
  name: "conv4_1/sep/scale"
  type: "Scale"
  bottom: "conv4_1/sep"
  top: "conv4_1/sep"
  param {
    lr_mult: 1
    decay_mult: 0
  }
  param {
    lr_mult: 1
    decay_mult: 0
  }
  scale_param {
    filler {
      type: "constant"
      value: 1
    }
    bias_term: true
    bias_filler {
      type: "constant"
      value: 0
    }
  }
}
layer {
  name: "relu4_1/sep"
  type: "ReLU"
  bottom: "conv4_1/sep"
  top: "conv4_1/sep"
}
layer {
  name: "conv4_2/dw"
  type: "DepthwiseConvolution"
  bottom: "conv4_1/sep"
  top: "conv4_2/dw"
  param {
    lr_mult: 1
    decay_mult: 1
  }
  convolution_param {
    num_output: 256
    bias_term: false
    pad: 1
    kernel_size: 3
    group: 256
    stride: 2
    weight_filler {
      type: "msra"
    }
  }
}
layer {
  name: "conv4_2/dw/bn"
  type: "BatchNorm"
  bottom: "conv4_2/dw"
  top: "conv4_2/dw"
  batch_norm_param {
    use_global_stats: true
    eps: 1e-05
  }
}
layer {
  name: "conv4_2/dw/scale"
  type: "Scale"
  bottom: "conv4_2/dw"
  top: "conv4_2/dw"
  param {
    lr_mult: 1
    decay_mult: 0
  }
  param {
    lr_mult: 1
    decay_mult: 0
  }
  scale_param {
    filler {
      type: "constant"
      value: 1
    }
    bias_term: true
    bias_filler {
      type: "constant"
      value: 0
    }
  }
}
layer {
  name: "relu4_2/dw"
  type: "ReLU"
  bottom: "conv4_2/dw"
  top: "conv4_2/dw"
}
layer {
  name: "conv4_2/sep"
  type: "Convolution"
  bottom: "conv4_2/dw"
  top: "conv4_2/sep"
  param {
    lr_mult: 1
    decay_mult: 1
  }
  convolution_param {
    num_output: 512
    bias_term: false
    pad: 0
    kernel_size: 1
    stride: 1
    weight_filler {
      type: "msra"
    }
  }
}
layer {
  name: "conv4_2/sep/bn"
  type: "BatchNorm"
  bottom: "conv4_2/sep"
  top: "conv4_2/sep"
  batch_norm_param {
    use_global_stats: true
    eps: 1e-05
  }
}
layer {
  name: "conv4_2/sep/scale"
  type: "Scale"
  bottom: "conv4_2/sep"
  top: "conv4_2/sep"
  param {
    lr_mult: 1
    decay_mult: 0
  }
  param {
    lr_mult: 1
    decay_mult: 0
  }
  scale_param {
    filler {
      type: "constant"
      value: 1
    }
    bias_term: true
    bias_filler {
      type: "constant"
      value: 0
    }
  }
}
layer {
  name: "relu4_2/sep"
  type: "ReLU"
  bottom: "conv4_2/sep"
  top: "conv4_2/sep"
}
layer {
  name: "conv5_1/dw"
  type: "DepthwiseConvolution"
  bottom: "conv4_2/sep"
  top: "conv5_1/dw"
  param {
    lr_mult: 1
    decay_mult: 1
  }
  convolution_param {
    num_output: 512
    bias_term: false
    pad: 1
    kernel_size: 3
    group: 512
    stride: 1
    weight_filler {
      type: "msra"
    }
  }
}
layer {
  name: "conv5_1/dw/bn"
  type: "BatchNorm"
  bottom: "conv5_1/dw"
  top: "conv5_1/dw"
  batch_norm_param {
    use_global_stats: true
    eps: 1e-05
  }
}
layer {
  name: "conv5_1/dw/scale"
  type: "Scale"
  bottom: "conv5_1/dw"
  top: "conv5_1/dw"
  param {
    lr_mult: 1
    decay_mult: 0
  }
  param {
    lr_mult: 1
    decay_mult: 0
  }
  scale_param {
    filler {
      type: "constant"
      value: 1
    }
    bias_term: true
    bias_filler {
      type: "constant"
      value: 0
    }
  }
}
layer {
  name: "relu5_1/dw"
  type: "ReLU"
  bottom: "conv5_1/dw"
  top: "conv5_1/dw"
}
layer {
  name: "conv5_1/sep"
  type: "Convolution"
  bottom: "conv5_1/dw"
  top: "conv5_1/sep"
  param {
    lr_mult: 1
    decay_mult: 1
  }
  convolution_param {
    num_output: 512
    bias_term: false
    pad: 0
    kernel_size: 1
    stride: 1
    weight_filler {
      type: "msra"
    }
  }
}
layer {
  name: "conv5_1/sep/bn"
  type: "BatchNorm"
  bottom: "conv5_1/sep"
  top: "conv5_1/sep"
  batch_norm_param {
    use_global_stats: true
    eps: 1e-05
  }
}
layer {
  name: "conv5_1/sep/scale"
  type: "Scale"
  bottom: "conv5_1/sep"
  top: "conv5_1/sep"
  param {
    lr_mult: 1
    decay_mult: 0
  }
  param {
    lr_mult: 1
    decay_mult: 0
  }
  scale_param {
    filler {
      type: "constant"
      value: 1
    }
    bias_term: true
    bias_filler {
      type: "constant"
      value: 0
    }
  }
}
layer {
  name: "relu5_1/sep"
  type: "ReLU"
  bottom: "conv5_1/sep"
  top: "conv5_1/sep"
}
layer {
  name: "conv5_2/dw"
  type: "DepthwiseConvolution"
  bottom: "conv5_1/sep"
  top: "conv5_2/dw"
  param {
    lr_mult: 1
    decay_mult: 1
  }
  convolution_param {
    num_output: 512
    bias_term: false
    pad: 1
    kernel_size: 3
    group: 512
    stride: 1
    weight_filler {
      type: "msra"
    }
  }
}
layer {
  name: "conv5_2/dw/bn"
  type: "BatchNorm"
  bottom: "conv5_2/dw"
  top: "conv5_2/dw"
  batch_norm_param {
    use_global_stats: true
    eps: 1e-05
  }
}
layer {
  name: "conv5_2/dw/scale"
  type: "Scale"
  bottom: "conv5_2/dw"
  top: "conv5_2/dw"
  param {
    lr_mult: 1
    decay_mult: 0
  }
  param {
    lr_mult: 1
    decay_mult: 0
  }
  scale_param {
    filler {
      type: "constant"
      value: 1
    }
    bias_term: true
    bias_filler {
      type: "constant"
      value: 0
    }
  }
}
layer {
  name: "relu5_2/dw"
  type: "ReLU"
  bottom: "conv5_2/dw"
  top: "conv5_2/dw"
}
layer {
  name: "conv5_2/sep"
  type: "Convolution"
  bottom: "conv5_2/dw"
  top: "conv5_2/sep"
  param {
    lr_mult: 1
    decay_mult: 1
  }
  convolution_param {
    num_output: 512
    bias_term: false
    pad: 0
    kernel_size: 1
    stride: 1
    weight_filler {
      type: "msra"
    }
  }
}
layer {
  name: "conv5_2/sep/bn"
  type: "BatchNorm"
  bottom: "conv5_2/sep"
  top: "conv5_2/sep"
  batch_norm_param {
    use_global_stats: true
    eps: 1e-05
  }
}
layer {
  name: "conv5_2/sep/scale"
  type: "Scale"
  bottom: "conv5_2/sep"
  top: "conv5_2/sep"
  param {
    lr_mult: 1
    decay_mult: 0
  }
  param {
    lr_mult: 1
    decay_mult: 0
  }
  scale_param {
    filler {
      type: "constant"
      value: 1
    }
    bias_term: true
    bias_filler {
      type: "constant"
      value: 0
    }
  }
}
layer {
  name: "relu5_2/sep"
  type: "ReLU"
  bottom: "conv5_2/sep"
  top: "conv5_2/sep"
}
layer {
  name: "conv5_3/dw"
  type: "DepthwiseConvolution"
  bottom: "conv5_2/sep"
  top: "conv5_3/dw"
  param {
    lr_mult: 1
    decay_mult: 1
  }
  convolution_param {
    num_output: 512
    bias_term: false
    pad: 1
    kernel_size: 3
    group: 512
    stride: 1
    weight_filler {
      type: "msra"
    }
  }
}
layer {
  name: "conv5_3/dw/bn"
  type: "BatchNorm"
  bottom: "conv5_3/dw"
  top: "conv5_3/dw"
  batch_norm_param {
    use_global_stats: true
    eps: 1e-05
  }
}
layer {
  name: "conv5_3/dw/scale"
  type: "Scale"
  bottom: "conv5_3/dw"
  top: "conv5_3/dw"
  param {
    lr_mult: 1
    decay_mult: 0
  }
  param {
    lr_mult: 1
    decay_mult: 0
  }
  scale_param {
    filler {
      type: "constant"
      value: 1
    }
    bias_term: true
    bias_filler {
      type: "constant"
      value: 0
    }
  }
}
layer {
  name: "relu5_3/dw"
  type: "ReLU"
  bottom: "conv5_3/dw"
  top: "conv5_3/dw"
}
layer {
  name: "conv5_3/sep"
  type: "Convolution"
  bottom: "conv5_3/dw"
  top: "conv5_3/sep"
  param {
    lr_mult: 1
    decay_mult: 1
  }
  convolution_param {
    num_output: 512
    bias_term: false
    pad: 0
    kernel_size: 1
    stride: 1
    weight_filler {
      type: "msra"
    }
  }
}
layer {
  name: "conv5_3/sep/bn"
  type: "BatchNorm"
  bottom: "conv5_3/sep"
  top: "conv5_3/sep"
  batch_norm_param {
    use_global_stats: true
    eps: 1e-05
  }
}
layer {
  name: "conv5_3/sep/scale"
  type: "Scale"
  bottom: "conv5_3/sep"
  top: "conv5_3/sep"
  param {
    lr_mult: 1
    decay_mult: 0
  }
  param {
    lr_mult: 1
    decay_mult: 0
  }
  scale_param {
    filler {
      type: "constant"
      value: 1
    }
    bias_term: true
    bias_filler {
      type: "constant"
      value: 0
    }
  }
}
layer {
  name: "relu5_3/sep"
  type: "ReLU"
  bottom: "conv5_3/sep"
  top: "conv5_3/sep"
}
layer {
  name: "conv5_4/dw"
  type: "DepthwiseConvolution"
  bottom: "conv5_3/sep"
  top: "conv5_4/dw"
  param {
    lr_mult: 1
    decay_mult: 1
  }
  convolution_param {
    num_output: 512
    bias_term: false
    pad: 1
    kernel_size: 3
    group: 512
    stride: 1
    weight_filler {
      type: "msra"
    }
  }
}
layer {
  name: "conv5_4/dw/bn"
  type: "BatchNorm"
  bottom: "conv5_4/dw"
  top: "conv5_4/dw"
  batch_norm_param {
    use_global_stats: true
    eps: 1e-05
  }
}
layer {
  name: "conv5_4/dw/scale"
  type: "Scale"
  bottom: "conv5_4/dw"
  top: "conv5_4/dw"
  param {
    lr_mult: 1
    decay_mult: 0
  }
  param {
    lr_mult: 1
    decay_mult: 0
  }
  scale_param {
    filler {
      type: "constant"
      value: 1
    }
    bias_term: true
    bias_filler {
      type: "constant"
      value: 0
    }
  }
}
layer {
  name: "relu5_4/dw"
  type: "ReLU"
  bottom: "conv5_4/dw"
  top: "conv5_4/dw"
}
layer {
  name: "conv5_4/sep"
  type: "Convolution"
  bottom: "conv5_4/dw"
  top: "conv5_4/sep"
  param {
    lr_mult: 1
    decay_mult: 1
  }
  convolution_param {
    num_output: 512
    bias_term: false
    pad: 0
    kernel_size: 1
    stride: 1
    weight_filler {
      type: "msra"
    }
  }
}
layer {
  name: "conv5_4/sep/bn"
  type: "BatchNorm"
  bottom: "conv5_4/sep"
  top: "conv5_4/sep"
  batch_norm_param {
    use_global_stats: true
    eps: 1e-05
  }
}
layer {
  name: "conv5_4/sep/scale"
  type: "Scale"
  bottom: "conv5_4/sep"
  top: "conv5_4/sep"
  param {
    lr_mult: 1
    decay_mult: 0
  }
  param {
    lr_mult: 1
    decay_mult: 0
  }
  scale_param {
    filler {
      type: "constant"
      value: 1
    }
    bias_term: true
    bias_filler {
      type: "constant"
      value: 0
    }
  }
}
layer {
  name: "relu5_4/sep"
  type: "ReLU"
  bottom: "conv5_4/sep"
  top: "conv5_4/sep"
}
layer {
  name: "conv5_5/dw"
  type: "DepthwiseConvolution"
  bottom: "conv5_4/sep"
  top: "conv5_5/dw"
  param {
    lr_mult: 1
    decay_mult: 1
  }
  convolution_param {
    num_output: 512
    bias_term: false
    pad: 1
    kernel_size: 3
    group: 512
    stride: 1
    weight_filler {
      type: "msra"
    }
  }
}
layer {
  name: "conv5_5/dw/bn"
  type: "BatchNorm"
  bottom: "conv5_5/dw"
  top: "conv5_5/dw"
  batch_norm_param {
    use_global_stats: true
    eps: 1e-05
  }
}
layer {
  name: "conv5_5/dw/scale"
  type: "Scale"
  bottom: "conv5_5/dw"
  top: "conv5_5/dw"
  param {
    lr_mult: 1
    decay_mult: 0
  }
  param {
    lr_mult: 1
    decay_mult: 0
  }
  scale_param {
    filler {
      type: "constant"
      value: 1
    }
    bias_term: true
    bias_filler {
      type: "constant"
      value: 0
    }
  }
}
layer {
  name: "relu5_5/dw"
  type: "ReLU"
  bottom: "conv5_5/dw"
  top: "conv5_5/dw"
}
layer {
  name: "conv5_5/sep"
  type: "Convolution"
  bottom: "conv5_5/dw"
  top: "conv5_5/sep"
  param {
    lr_mult: 1
    decay_mult: 1
  }
  convolution_param {
    num_output: 512
    bias_term: false
    pad: 0
    kernel_size: 1
    stride: 1
    weight_filler {
      type: "msra"
    }
  }
}
layer {
  name: "conv5_5/sep/bn"
  type: "BatchNorm"
  bottom: "conv5_5/sep"
  top: "conv5_5/sep"
  batch_norm_param {
    use_global_stats: true
    eps: 1e-05
  }
}
layer {
  name: "conv5_5/sep/scale"
  type: "Scale"
  bottom: "conv5_5/sep"
  top: "conv5_5/sep"
  param {
    lr_mult: 1
    decay_mult: 0
  }
  param {
    lr_mult: 1
    decay_mult: 0
  }
  scale_param {
    filler {
      type: "constant"
      value: 1
    }
    bias_term: true
    bias_filler {
      type: "constant"
      value: 0
    }
  }
}
layer {
  name: "relu5_5/sep"
  type: "ReLU"
  bottom: "conv5_5/sep"
  top: "conv5_5/sep"
}
layer {
  name: "conv5_6/dw"
  type: "DepthwiseConvolution"
  bottom: "conv5_5/sep"
  top: "conv5_6/dw"
  param {
    lr_mult: 1
    decay_mult: 1
  }
  convolution_param {
    num_output: 512
    bias_term: false
    pad: 1
    kernel_size: 3
    group: 512
    stride: 2
    weight_filler {
      type: "msra"
    }
  }
}
layer {
  name: "conv5_6/dw/bn"
  type: "BatchNorm"
  bottom: "conv5_6/dw"
  top: "conv5_6/dw"
  batch_norm_param {
    use_global_stats: true
    eps: 1e-05
  }
}
layer {
  name: "conv5_6/dw/scale"
  type: "Scale"
  bottom: "conv5_6/dw"
  top: "conv5_6/dw"
  param {
    lr_mult: 1
    decay_mult: 0
  }
  param {
    lr_mult: 1
    decay_mult: 0
  }
  scale_param {
    filler {
      type: "constant"
      value: 1
    }
    bias_term: true
    bias_filler {
      type: "constant"
      value: 0
    }
  }
}
layer {
  name: "relu5_6/dw"
  type: "ReLU"
  bottom: "conv5_6/dw"
  top: "conv5_6/dw"
}
layer {
  name: "conv5_6/sep"
  type: "Convolution"
  bottom: "conv5_6/dw"
  top: "conv5_6/sep"
  param {
    lr_mult: 1
    decay_mult: 1
  }
  convolution_param {
    num_output: 1024
    bias_term: false
    pad: 0
    kernel_size: 1
    stride: 1
    weight_filler {
      type: "msra"
    }
  }
}
layer {
  name: "conv5_6/sep/bn"
  type: "BatchNorm"
  bottom: "conv5_6/sep"
  top: "conv5_6/sep"
  batch_norm_param {
    use_global_stats: true
    eps: 1e-05
  }
}
layer {
  name: "conv5_6/sep/scale"
  type: "Scale"
  bottom: "conv5_6/sep"
  top: "conv5_6/sep"
  param {
    lr_mult: 1
    decay_mult: 0
  }
  param {
    lr_mult: 1
    decay_mult: 0
  }
  scale_param {
    filler {
      type: "constant"
      value: 1
    }
    bias_term: true
    bias_filler {
      type: "constant"
      value: 0
    }
  }
}
layer {
  name: "relu5_6/sep"
  type: "ReLU"
  bottom: "conv5_6/sep"
  top: "conv5_6/sep"
}
layer {
  name: "conv6/dw"
  type: "DepthwiseConvolution"
  bottom: "conv5_6/sep"
  top: "conv6/dw"
  param {
    lr_mult: 1
    decay_mult: 1
  }
  convolution_param {
    num_output: 1024
    bias_term: false
    pad: 1
    kernel_size: 3
    group: 1024
    stride: 1
    weight_filler {
      type: "msra"
    }
  }
}
layer {
  name: "conv6/dw/bn"
  type: "BatchNorm"
  bottom: "conv6/dw"
  top: "conv6/dw"
  batch_norm_param {
    use_global_stats: true
    eps: 1e-05
  }
}
layer {
  name: "conv6/dw/scale"
  type: "Scale"
  bottom: "conv6/dw"
  top: "conv6/dw"
  param {
    lr_mult: 1
    decay_mult: 0
  }
  param {
    lr_mult: 1
    decay_mult: 0
  }
  scale_param {
    filler {
      type: "constant"
      value: 1
    }
    bias_term: true
    bias_filler {
      type: "constant"
      value: 0
    }
  }
}
layer {
  name: "relu6/dw"
  type: "ReLU"
  bottom: "conv6/dw"
  top: "conv6/dw"
}
layer {
  name: "conv6/sep"
  type: "Convolution"
  bottom: "conv6/dw"
  top: "conv6/sep"
  param {
    lr_mult: 1
    decay_mult: 1
  }
  convolution_param {
    num_output: 1024
    bias_term: false
    pad: 0
    kernel_size: 1
    stride: 1
    weight_filler {
      type: "msra"
    }
  }
}
layer {
  name: "conv6/sep/bn"
  type: "BatchNorm"
  bottom: "conv6/sep"
  top: "conv6/sep"
  batch_norm_param {
    use_global_stats: true
    eps: 1e-05
  }
}
layer {
  name: "conv6/sep/scale"
  type: "Scale"
  bottom: "conv6/sep"
  top: "conv6/sep"
  param {
    lr_mult: 1
    decay_mult: 0
  }
  param {
    lr_mult: 1
    decay_mult: 0
  }
  scale_param {
    filler {
      type: "constant"
      value: 1
    }
    bias_term: true
    bias_filler {
      type: "constant"
      value: 0
    }
  }
}
layer {
  name: "relu6/sep"
  type: "ReLU"
  bottom: "conv6/sep"
  top: "conv6/sep"
}
layer {
  name: "ssd1_1"
  type: "Convolution"
  bottom: "conv6/sep"
  top: "ssd1_1"
  param {
    lr_mult: 1
    decay_mult: 1
  }
  param {
    lr_mult: 2
    decay_mult: 0
  }
  convolution_param {
    num_output: 256
    pad: 0
    kernel_size: 1
    stride: 1
    weight_filler {
      type: "xavier"
    }
    bias_filler {
      type: "constant"
      value: 0
    }
  }
}
layer {
  name: "ssd1_1_relu"
  type: "ReLU"
  bottom: "ssd1_1"
  top: "ssd1_1"
}
layer {
  name: "ssd1_2"
  type: "Convolution"
  bottom: "ssd1_1"
  top: "ssd1_2"
  param {
    lr_mult: 1
    decay_mult: 1
  }
  param {
    lr_mult: 2
    decay_mult: 0
  }
  convolution_param {
    num_output: 512
    pad: 1
    kernel_size: 3
    stride: 2
    weight_filler {
      type: "xavier"
    }
    bias_filler {
      type: "constant"
      value: 0
    }
  }
}
layer {
  name: "ssd1_2_relu"
  type: "ReLU"
  bottom: "ssd1_2"
  top: "ssd1_2"
}
layer {
  name: "ssd2_1"
  type: "Convolution"
  bottom: "ssd1_2"
  top: "ssd2_1"
  param {
    lr_mult: 1
    decay_mult: 1
  }
  param {
    lr_mult: 2
    decay_mult: 0
  }
  convolution_param {
    num_output: 128
    pad: 0
    kernel_size: 1
    stride: 1
    weight_filler {
      type: "xavier"
    }
    bias_filler {
      type: "constant"
      value: 0
    }
  }
}
layer {
  name: "ssd2_1_relu"
  type: "ReLU"
  bottom: "ssd2_1"
  top: "ssd2_1"
}
layer {
  name: "ssd2_2"
  type: "Convolution"
  bottom: "ssd2_1"
  top: "ssd2_2"
  param {
    lr_mult: 1
    decay_mult: 1
  }
  param {
    lr_mult: 2
    decay_mult: 0
  }
  convolution_param {
    num_output: 256
    pad: 1
    kernel_size: 3
    stride: 2
    weight_filler {
      type: "xavier"
    }
    bias_filler {
      type: "constant"
      value: 0
    }
  }
}
layer {
  name: "ssd2_2_relu"
  type: "ReLU"
  bottom: "ssd2_2"
  top: "ssd2_2"
}
layer {
  name: "ssd3_1"
  type: "Convolution"
  bottom: "ssd2_2"
  top: "ssd3_1"
  param {
    lr_mult: 1
    decay_mult: 1
  }
  param {
    lr_mult: 2
    decay_mult: 0
  }
  convolution_param {
    num_output: 128
    pad: 0
    kernel_size: 1
    stride: 1
    weight_filler {
      type: "xavier"
    }
    bias_filler {
      type: "constant"
      value: 0
    }
  }
}
layer {
  name: "ssd3_1_relu"
  type: "ReLU"
  bottom: "ssd3_1"
  top: "ssd3_1"
}
layer {
  name: "ssd3_2"
  type: "Convolution"
  bottom: "ssd3_1"
  top: "ssd3_2"
  param {
    lr_mult: 1
    decay_mult: 1
  }
  param {
    lr_mult: 2
    d
I1209 18:35:27.323781  3659 layer_factory.hpp:77] Creating layer data
I1209 18:35:27.323896  3659 net.cpp:100] Creating Layer data
I1209 18:35:27.323907  3659 net.cpp:408] data -> data
I1209 18:35:27.323930  3659 net.cpp:408] data -> label
I1209 18:35:27.324442  3667 db_lmdb.cpp:35] Opened lmdb examples/GTSDB/GTSDB_trainval_lmdb
I1209 18:35:27.342175  3659 annotated_data_layer.cpp:62] output data size: 2,3,300,510
I1209 18:35:27.346945  3659 net.cpp:150] Setting up data
I1209 18:35:27.346962  3659 net.cpp:157] Top shape: 2 3 300 510 (918000)
I1209 18:35:27.346966  3659 net.cpp:157] Top shape: 1 1 3 8 (24)
I1209 18:35:27.346968  3659 net.cpp:165] Memory required for data: 3672096
I1209 18:35:27.346976  3659 layer_factory.hpp:77] Creating layer data_data_0_split
I1209 18:35:27.346985  3659 net.cpp:100] Creating Layer data_data_0_split
I1209 18:35:27.346988  3659 net.cpp:434] data_data_0_split <- data
I1209 18:35:27.347003  3659 net.cpp:408] data_data_0_split -> data_data_0_split_0
I1209 18:35:27.347012  3659 net.cpp:408] data_data_0_split -> data_data_0_split_1
I1209 18:35:27.347018  3659 net.cpp:408] data_data_0_split -> data_data_0_split_2
I1209 18:35:27.347023  3659 net.cpp:408] data_data_0_split -> data_data_0_split_3
I1209 18:35:27.347026  3659 net.cpp:408] data_data_0_split -> data_data_0_split_4
I1209 18:35:27.347030  3659 net.cpp:408] data_data_0_split -> data_data_0_split_5
I1209 18:35:27.347034  3659 net.cpp:408] data_data_0_split -> data_data_0_split_6
I1209 18:35:27.347105  3659 net.cpp:150] Setting up data_data_0_split
I1209 18:35:27.347110  3659 net.cpp:157] Top shape: 2 3 300 510 (918000)
I1209 18:35:27.347112  3659 net.cpp:157] Top shape: 2 3 300 510 (918000)
I1209 18:35:27.347115  3659 net.cpp:157] Top shape: 2 3 300 510 (918000)
I1209 18:35:27.347117  3659 net.cpp:157] Top shape: 2 3 300 510 (918000)
I1209 18:35:27.347121  3659 net.cpp:157] Top shape: 2 3 300 510 (918000)
I1209 18:35:27.347122  3659 net.cpp:157] Top shape: 2 3 300 510 (918000)
I1209 18:35:27.347126  3659 net.cpp:157] Top shape: 2 3 300 510 (918000)
I1209 18:35:27.347126  3659 net.cpp:165] Memory required for data: 29376096
I1209 18:35:27.347128  3659 layer_factory.hpp:77] Creating layer conv1
I1209 18:35:27.347141  3659 net.cpp:100] Creating Layer conv1
I1209 18:35:27.347143  3659 net.cpp:434] conv1 <- data_data_0_split_0
I1209 18:35:27.347148  3659 net.cpp:408] conv1 -> conv1
I1209 18:35:27.710068  3659 net.cpp:150] Setting up conv1
I1209 18:35:27.710085  3659 net.cpp:157] Top shape: 2 32 150 255 (2448000)
I1209 18:35:27.710088  3659 net.cpp:165] Memory required for data: 39168096
I1209 18:35:27.710103  3659 layer_factory.hpp:77] Creating layer conv1/bn
I1209 18:35:27.710111  3659 net.cpp:100] Creating Layer conv1/bn
I1209 18:35:27.710115  3659 net.cpp:434] conv1/bn <- conv1
I1209 18:35:27.710121  3659 net.cpp:395] conv1/bn -> conv1 (in-place)
I1209 18:35:27.710747  3659 net.cpp:150] Setting up conv1/bn
I1209 18:35:27.710753  3659 net.cpp:157] Top shape: 2 32 150 255 (2448000)
I1209 18:35:27.710755  3659 net.cpp:165] Memory required for data: 48960096
I1209 18:35:27.710763  3659 layer_factory.hpp:77] Creating layer conv1/scale
I1209 18:35:27.710769  3659 net.cpp:100] Creating Layer conv1/scale
I1209 18:35:27.710772  3659 net.cpp:434] conv1/scale <- conv1
I1209 18:35:27.710774  3659 net.cpp:395] conv1/scale -> conv1 (in-place)
I1209 18:35:27.710805  3659 layer_factory.hpp:77] Creating layer conv1/scale
I1209 18:35:27.710896  3659 net.cpp:150] Setting up conv1/scale
I1209 18:35:27.710899  3659 net.cpp:157] Top shape: 2 32 150 255 (2448000)
I1209 18:35:27.710903  3659 net.cpp:165] Memory required for data: 58752096
I1209 18:35:27.710911  3659 layer_factory.hpp:77] Creating layer relu1
I1209 18:35:27.710916  3659 net.cpp:100] Creating Layer relu1
I1209 18:35:27.710921  3659 net.cpp:434] relu1 <- conv1
I1209 18:35:27.710924  3659 net.cpp:395] relu1 -> conv1 (in-place)
I1209 18:35:27.711274  3659 net.cpp:150] Setting up relu1
I1209 18:35:27.711280  3659 net.cpp:157] Top shape: 2 32 150 255 (2448000)
I1209 18:35:27.711283  3659 net.cpp:165] Memory required for data: 68544096
I1209 18:35:27.711285  3659 layer_factory.hpp:77] Creating layer conv2_1/dw
I1209 18:35:27.711292  3659 net.cpp:100] Creating Layer conv2_1/dw
I1209 18:35:27.711294  3659 net.cpp:434] conv2_1/dw <- conv1
I1209 18:35:27.711298  3659 net.cpp:408] conv2_1/dw -> conv2_1/dw
I1209 18:35:27.711416  3659 net.cpp:150] Setting up conv2_1/dw
I1209 18:35:27.711421  3659 net.cpp:157] Top shape: 2 32 150 255 (2448000)
I1209 18:35:27.711423  3659 net.cpp:165] Memory required for data: 78336096
I1209 18:35:27.711426  3659 layer_factory.hpp:77] Creating layer conv2_1/dw/bn
I1209 18:35:27.711431  3659 net.cpp:100] Creating Layer conv2_1/dw/bn
I1209 18:35:27.711433  3659 net.cpp:434] conv2_1/dw/bn <- conv2_1/dw
I1209 18:35:27.711436  3659 net.cpp:395] conv2_1/dw/bn -> conv2_1/dw (in-place)
I1209 18:35:27.711552  3659 net.cpp:150] Setting up conv2_1/dw/bn
I1209 18:35:27.711556  3659 net.cpp:157] Top shape: 2 32 150 255 (2448000)
I1209 18:35:27.711560  3659 net.cpp:165] Memory required for data: 88128096
I1209 18:35:27.711565  3659 layer_factory.hpp:77] Creating layer conv2_1/dw/scale
I1209 18:35:27.711570  3659 net.cpp:100] Creating Layer conv2_1/dw/scale
I1209 18:35:27.711572  3659 net.cpp:434] conv2_1/dw/scale <- conv2_1/dw
I1209 18:35:27.711575  3659 net.cpp:395] conv2_1/dw/scale -> conv2_1/dw (in-place)
I1209 18:35:27.711598  3659 layer_factory.hpp:77] Creating layer conv2_1/dw/scale
I1209 18:35:27.711679  3659 net.cpp:150] Setting up conv2_1/dw/scale
I1209 18:35:27.711694  3659 net.cpp:157] Top shape: 2 32 150 255 (2448000)
I1209 18:35:27.711697  3659 net.cpp:165] Memory required for data: 97920096
I1209 18:35:27.711700  3659 layer_factory.hpp:77] Creating layer relu2_1/dw
I1209 18:35:27.711704  3659 net.cpp:100] Creating Layer relu2_1/dw
I1209 18:35:27.711706  3659 net.cpp:434] relu2_1/dw <- conv2_1/dw
I1209 18:35:27.711711  3659 net.cpp:395] relu2_1/dw -> conv2_1/dw (in-place)
I1209 18:35:27.712199  3659 net.cpp:150] Setting up relu2_1/dw
I1209 18:35:27.712206  3659 net.cpp:157] Top shape: 2 32 150 255 (2448000)
I1209 18:35:27.712209  3659 net.cpp:165] Memory required for data: 107712096
I1209 18:35:27.712213  3659 layer_factory.hpp:77] Creating layer conv2_1/sep
I1209 18:35:27.712221  3659 net.cpp:100] Creating Layer conv2_1/sep
I1209 18:35:27.712224  3659 net.cpp:434] conv2_1/sep <- conv2_1/dw
I1209 18:35:27.712229  3659 net.cpp:408] conv2_1/sep -> conv2_1/sep
I1209 18:35:27.713981  3659 net.cpp:150] Setting up conv2_1/sep
I1209 18:35:27.713990  3659 net.cpp:157] Top shape: 2 64 150 255 (4896000)
I1209 18:35:27.713994  3659 net.cpp:165] Memory required for data: 127296096
I1209 18:35:27.713997  3659 layer_factory.hpp:77] Creating layer conv2_1/sep/bn
I1209 18:35:27.714001  3659 net.cpp:100] Creating Layer conv2_1/sep/bn
I1209 18:35:27.714004  3659 net.cpp:434] conv2_1/sep/bn <- conv2_1/sep
I1209 18:35:27.714010  3659 net.cpp:395] conv2_1/sep/bn -> conv2_1/sep (in-place)
I1209 18:35:27.714138  3659 net.cpp:150] Setting up conv2_1/sep/bn
I1209 18:35:27.714141  3659 net.cpp:157] Top shape: 2 64 150 255 (4896000)
I1209 18:35:27.714145  3659 net.cpp:165] Memory required for data: 146880096
I1209 18:35:27.714154  3659 layer_factory.hpp:77] Creating layer conv2_1/sep/scale
I1209 18:35:27.714159  3659 net.cpp:100] Creating Layer conv2_1/sep/scale
I1209 18:35:27.714164  3659 net.cpp:434] conv2_1/sep/scale <- conv2_1/sep
I1209 18:35:27.714167  3659 net.cpp:395] conv2_1/sep/scale -> conv2_1/sep (in-place)
I1209 18:35:27.714193  3659 layer_factory.hpp:77] Creating layer conv2_1/sep/scale
I1209 18:35:27.714280  3659 net.cpp:150] Setting up conv2_1/sep/scale
I1209 18:35:27.714284  3659 net.cpp:157] Top shape: 2 64 150 255 (4896000)
I1209 18:35:27.714287  3659 net.cpp:165] Memory required for data: 166464096
I1209 18:35:27.714294  3659 layer_factory.hpp:77] Creating layer relu2_1/sep
I1209 18:35:27.714298  3659 net.cpp:100] Creating Layer relu2_1/sep
I1209 18:35:27.714303  3659 net.cpp:434] relu2_1/sep <- conv2_1/sep
I1209 18:35:27.714308  3659 net.cpp:395] relu2_1/sep -> conv2_1/sep (in-place)
I1209 18:35:27.714794  3659 net.cpp:150] Setting up relu2_1/sep
I1209 18:35:27.714802  3659 net.cpp:157] Top shape: 2 64 150 255 (4896000)
I1209 18:35:27.714804  3659 net.cpp:165] Memory required for data: 186048096
I1209 18:35:27.714809  3659 layer_factory.hpp:77] Creating layer conv2_2/dw
I1209 18:35:27.714817  3659 net.cpp:100] Creating Layer conv2_2/dw
I1209 18:35:27.714819  3659 net.cpp:434] conv2_2/dw <- conv2_1/sep
I1209 18:35:27.714824  3659 net.cpp:408] conv2_2/dw -> conv2_2/dw
I1209 18:35:27.714949  3659 net.cpp:150] Setting up conv2_2/dw
I1209 18:35:27.714954  3659 net.cpp:157] Top shape: 2 64 75 128 (1228800)
I1209 18:35:27.714957  3659 net.cpp:165] Memory required for data: 190963296
I1209 18:35:27.714960  3659 layer_factory.hpp:77] Creating layer conv2_2/dw/bn
I1209 18:35:27.714963  3659 net.cpp:100] Creating Layer conv2_2/dw/bn
I1209 18:35:27.714967  3659 net.cpp:434] conv2_2/dw/bn <- conv2_2/dw
I1209 18:35:27.714969  3659 net.cpp:395] conv2_2/dw/bn -> conv2_2/dw (in-place)
I1209 18:35:27.715570  3659 net.cpp:150] Setting up conv2_2/dw/bn
I1209 18:35:27.715577  3659 net.cpp:157] Top shape: 2 64 75 128 (1228800)
I1209 18:35:27.715581  3659 net.cpp:165] Memory required for data: 195878496
I1209 18:35:27.715590  3659 layer_factory.hpp:77] Creating layer conv2_2/dw/scale
I1209 18:35:27.715598  3659 net.cpp:100] Creating Layer conv2_2/dw/scale
I1209 18:35:27.715601  3659 net.cpp:434] conv2_2/dw/scale <- conv2_2/dw
I1209 18:35:27.715607  3659 net.cpp:395] conv2_2/dw/scale -> conv2_2/dw (in-place)
I1209 18:35:27.715646  3659 layer_factory.hpp:77] Creating layer conv2_2/dw/scale
I1209 18:35:27.715715  3659 net.cpp:150] Setting up conv2_2/dw/scale
I1209 18:35:27.715721  3659 net.cpp:157] Top shape: 2 64 75 128 (1228800)
I1209 18:35:27.715724  3659 net.cpp:165] Memory required for data: 200793696
I1209 18:35:27.715729  3659 layer_factory.hpp:77] Creating layer relu2_2/dw
I1209 18:35:27.715734  3659 net.cpp:100] Creating Layer relu2_2/dw
I1209 18:35:27.715737  3659 net.cpp:434] relu2_2/dw <- conv2_2/dw
I1209 18:35:27.715742  3659 net.cpp:395] relu2_2/dw -> conv2_2/dw (in-place)
I1209 18:35:27.716065  3659 net.cpp:150] Setting up relu2_2/dw
I1209 18:35:27.716073  3659 net.cpp:157] Top shape: 2 64 75 128 (1228800)
I1209 18:35:27.716075  3659 net.cpp:165] Memory required for data: 205708896
I1209 18:35:27.716079  3659 layer_factory.hpp:77] Creating layer conv2_2/sep
I1209 18:35:27.716086  3659 net.cpp:100] Creating Layer conv2_2/sep
I1209 18:35:27.716089  3659 net.cpp:434] conv2_2/sep <- conv2_2/dw
I1209 18:35:27.716094  3659 net.cpp:408] conv2_2/sep -> conv2_2/sep
I1209 18:35:27.717553  3659 net.cpp:150] Setting up conv2_2/sep
I1209 18:35:27.717561  3659 net.cpp:157] Top shape: 2 128 75 128 (2457600)
I1209 18:35:27.717563  3659 net.cpp:165] Memory required for data: 215539296
I1209 18:35:27.717566  3659 layer_factory.hpp:77] Creating layer conv2_2/sep/bn
I1209 18:35:27.717571  3659 net.cpp:100] Creating Layer conv2_2/sep/bn
I1209 18:35:27.717574  3659 net.cpp:434] conv2_2/sep/bn <- conv2_2/sep
I1209 18:35:27.717577  3659 net.cpp:395] conv2_2/sep/bn -> conv2_2/sep (in-place)
I1209 18:35:27.717692  3659 net.cpp:150] Setting up conv2_2/sep/bn
I1209 18:35:27.717696  3659 net.cpp:157] Top shape: 2 128 75 128 (2457600)
I1209 18:35:27.717698  3659 net.cpp:165] Memory required for data: 225369696
I1209 18:35:27.717703  3659 layer_factory.hpp:77] Creating layer conv2_2/sep/scale
I1209 18:35:27.717707  3659 net.cpp:100] Creating Layer conv2_2/sep/scale
I1209 18:35:27.717710  3659 net.cpp:434] conv2_2/sep/scale <- conv2_2/sep
I1209 18:35:27.717713  3659 net.cpp:395] conv2_2/sep/scale -> conv2_2/sep (in-place)
I1209 18:35:27.717741  3659 layer_factory.hpp:77] Creating layer conv2_2/sep/scale
I1209 18:35:27.717805  3659 net.cpp:150] Setting up conv2_2/sep/scale
I1209 18:35:27.717810  3659 net.cpp:157] Top shape: 2 128 75 128 (2457600)
I1209 18:35:27.717813  3659 net.cpp:165] Memory required for data: 235200096
I1209 18:35:27.717818  3659 layer_factory.hpp:77] Creating layer relu2_2/sep
I1209 18:35:27.717823  3659 net.cpp:100] Creating Layer relu2_2/sep
I1209 18:35:27.717824  3659 net.cpp:434] relu2_2/sep <- conv2_2/sep
I1209 18:35:27.717828  3659 net.cpp:395] relu2_2/sep -> conv2_2/sep (in-place)
I1209 18:35:27.718312  3659 net.cpp:150] Setting up relu2_2/sep
I1209 18:35:27.718318  3659 net.cpp:157] Top shape: 2 128 75 128 (2457600)
I1209 18:35:27.718320  3659 net.cpp:165] Memory required for data: 245030496
I1209 18:35:27.718323  3659 layer_factory.hpp:77] Creating layer conv3_1/dw
I1209 18:35:27.718329  3659 net.cpp:100] Creating Layer conv3_1/dw
I1209 18:35:27.718333  3659 net.cpp:434] conv3_1/dw <- conv2_2/sep
I1209 18:35:27.718338  3659 net.cpp:408] conv3_1/dw -> conv3_1/dw
I1209 18:35:27.718466  3659 net.cpp:150] Setting up conv3_1/dw
I1209 18:35:27.718470  3659 net.cpp:157] Top shape: 2 128 75 128 (2457600)
I1209 18:35:27.718473  3659 net.cpp:165] Memory required for data: 254860896
I1209 18:35:27.718478  3659 layer_factory.hpp:77] Creating layer conv3_1/dw/bn
I1209 18:35:27.718483  3659 net.cpp:100] Creating Layer conv3_1/dw/bn
I1209 18:35:27.718485  3659 net.cpp:434] conv3_1/dw/bn <- conv3_1/dw
I1209 18:35:27.718488  3659 net.cpp:395] conv3_1/dw/bn -> conv3_1/dw (in-place)
I1209 18:35:27.718597  3659 net.cpp:150] Setting up conv3_1/dw/bn
I1209 18:35:27.718601  3659 net.cpp:157] Top shape: 2 128 75 128 (2457600)
I1209 18:35:27.718603  3659 net.cpp:165] Memory required for data: 264691296
I1209 18:35:27.718611  3659 layer_factory.hpp:77] Creating layer conv3_1/dw/scale
I1209 18:35:27.718614  3659 net.cpp:100] Creating Layer conv3_1/dw/scale
I1209 18:35:27.718624  3659 net.cpp:434] conv3_1/dw/scale <- conv3_1/dw
I1209 18:35:27.718629  3659 net.cpp:395] conv3_1/dw/scale -> conv3_1/dw (in-place)
I1209 18:35:27.718657  3659 layer_factory.hpp:77] Creating layer conv3_1/dw/scale
I1209 18:35:27.718722  3659 net.cpp:150] Setting up conv3_1/dw/scale
I1209 18:35:27.718726  3659 net.cpp:157] Top shape: 2 128 75 128 (2457600)
I1209 18:35:27.718730  3659 net.cpp:165] Memory required for data: 274521696
I1209 18:35:27.718735  3659 layer_factory.hpp:77] Creating layer relu3_1/dw
I1209 18:35:27.718739  3659 net.cpp:100] Creating Layer relu3_1/dw
I1209 18:35:27.718742  3659 net.cpp:434] relu3_1/dw <- conv3_1/dw
I1209 18:35:27.718745  3659 net.cpp:395] relu3_1/dw -> conv3_1/dw (in-place)
I1209 18:35:27.719059  3659 net.cpp:150] Setting up relu3_1/dw
I1209 18:35:27.719064  3659 net.cpp:157] Top shape: 2 128 75 128 (2457600)
I1209 18:35:27.719067  3659 net.cpp:165] Memory required for data: 284352096
I1209 18:35:27.719069  3659 layer_factory.hpp:77] Creating layer conv3_1/sep
I1209 18:35:27.719074  3659 net.cpp:100] Creating Layer conv3_1/sep
I1209 18:35:27.719077  3659 net.cpp:434] conv3_1/sep <- conv3_1/dw
I1209 18:35:27.719081  3659 net.cpp:408] conv3_1/sep -> conv3_1/sep
I1209 18:35:27.720408  3659 net.cpp:150] Setting up conv3_1/sep
I1209 18:35:27.720417  3659 net.cpp:157] Top shape: 2 128 75 128 (2457600)
I1209 18:35:27.720418  3659 net.cpp:165] Memory required for data: 294182496
I1209 18:35:27.720422  3659 layer_factory.hpp:77] Creating layer conv3_1/sep/bn
I1209 18:35:27.720427  3659 net.cpp:100] Creating Layer conv3_1/sep/bn
I1209 18:35:27.720428  3659 net.cpp:434] conv3_1/sep/bn <- conv3_1/sep
I1209 18:35:27.720432  3659 net.cpp:395] conv3_1/sep/bn -> conv3_1/sep (in-place)
I1209 18:35:27.720546  3659 net.cpp:150] Setting up conv3_1/sep/bn
I1209 18:35:27.720551  3659 net.cpp:157] Top shape: 2 128 75 128 (2457600)
I1209 18:35:27.720552  3659 net.cpp:165] Memory required for data: 304012896
I1209 18:35:27.720557  3659 layer_factory.hpp:77] Creating layer conv3_1/sep/scale
I1209 18:35:27.720562  3659 net.cpp:100] Creating Layer conv3_1/sep/scale
I1209 18:35:27.720566  3659 net.cpp:434] conv3_1/sep/scale <- conv3_1/sep
I1209 18:35:27.720572  3659 net.cpp:395] conv3_1/sep/scale -> conv3_1/sep (in-place)
I1209 18:35:27.720597  3659 layer_factory.hpp:77] Creating layer conv3_1/sep/scale
I1209 18:35:27.720662  3659 net.cpp:150] Setting up conv3_1/sep/scale
I1209 18:35:27.720667  3659 net.cpp:157] Top shape: 2 128 75 128 (2457600)
I1209 18:35:27.720670  3659 net.cpp:165] Memory required for data: 313843296
I1209 18:35:27.720675  3659 layer_factory.hpp:77] Creating layer relu3_1/sep
I1209 18:35:27.720679  3659 net.cpp:100] Creating Layer relu3_1/sep
I1209 18:35:27.720685  3659 net.cpp:434] relu3_1/sep <- conv3_1/sep
I1209 18:35:27.720687  3659 net.cpp:395] relu3_1/sep -> conv3_1/sep (in-place)
I1209 18:35:27.721170  3659 net.cpp:150] Setting up relu3_1/sep
I1209 18:35:27.721177  3659 net.cpp:157] Top shape: 2 128 75 128 (2457600)
I1209 18:35:27.721180  3659 net.cpp:165] Memory required for data: 323673696
I1209 18:35:27.721185  3659 layer_factory.hpp:77] Creating layer conv3_2/dw
I1209 18:35:27.721192  3659 net.cpp:100] Creating Layer conv3_2/dw
I1209 18:35:27.721195  3659 net.cpp:434] conv3_2/dw <- conv3_1/sep
I1209 18:35:27.721200  3659 net.cpp:408] conv3_2/dw -> conv3_2/dw
I1209 18:35:27.721325  3659 net.cpp:150] Setting up conv3_2/dw
I1209 18:35:27.721330  3659 net.cpp:157] Top shape: 2 128 38 64 (622592)
I1209 18:35:27.721333  3659 net.cpp:165] Memory required for data: 326164064
I1209 18:35:27.721336  3659 layer_factory.hpp:77] Creating layer conv3_2/dw/bn
I1209 18:35:27.721343  3659 net.cpp:100] Creating Layer conv3_2/dw/bn
I1209 18:35:27.721346  3659 net.cpp:434] conv3_2/dw/bn <- conv3_2/dw
I1209 18:35:27.721349  3659 net.cpp:395] conv3_2/dw/bn -> conv3_2/dw (in-place)
I1209 18:35:27.721457  3659 net.cpp:150] Setting up conv3_2/dw/bn
I1209 18:35:27.721462  3659 net.cpp:157] Top shape: 2 128 38 64 (622592)
I1209 18:35:27.721464  3659 net.cpp:165] Memory required for data: 328654432
I1209 18:35:27.721475  3659 layer_factory.hpp:77] Creating layer conv3_2/dw/scale
I1209 18:35:27.721483  3659 net.cpp:100] Creating Layer conv3_2/dw/scale
I1209 18:35:27.721487  3659 net.cpp:434] conv3_2/dw/scale <- conv3_2/dw
I1209 18:35:27.721489  3659 net.cpp:395] conv3_2/dw/scale -> conv3_2/dw (in-place)
I1209 18:35:27.721513  3659 layer_factory.hpp:77] Creating layer conv3_2/dw/scale
I1209 18:35:27.721575  3659 net.cpp:150] Setting up conv3_2/dw/scale
I1209 18:35:27.721578  3659 net.cpp:157] Top shape: 2 128 38 64 (622592)
I1209 18:35:27.721580  3659 net.cpp:165] Memory required for data: 331144800
I1209 18:35:27.721585  3659 layer_factory.hpp:77] Creating layer relu3_2/dw
I1209 18:35:27.721588  3659 net.cpp:100] Creating Layer relu3_2/dw
I1209 18:35:27.721591  3659 net.cpp:434] relu3_2/dw <- conv3_2/dw
I1209 18:35:27.721593  3659 net.cpp:395] relu3_2/dw -> conv3_2/dw (in-place)
I1209 18:35:27.721918  3659 net.cpp:150] Setting up relu3_2/dw
I1209 18:35:27.721925  3659 net.cpp:157] Top shape: 2 128 38 64 (622592)
I1209 18:35:27.721927  3659 net.cpp:165] Memory required for data: 333635168
I1209 18:35:27.721930  3659 layer_factory.hpp:77] Creating layer conv3_2/sep
I1209 18:35:27.721935  3659 net.cpp:100] Creating Layer conv3_2/sep
I1209 18:35:27.721940  3659 net.cpp:434] conv3_2/sep <- conv3_2/dw
I1209 18:35:27.721946  3659 net.cpp:408] conv3_2/sep -> conv3_2/sep
I1209 18:35:27.723392  3659 net.cpp:150] Setting up conv3_2/sep
I1209 18:35:27.723399  3659 net.cpp:157] Top shape: 2 256 38 64 (1245184)
I1209 18:35:27.723402  3659 net.cpp:165] Memory required for data: 338615904
I1209 18:35:27.723408  3659 layer_factory.hpp:77] Creating layer conv3_2/sep/bn
I1209 18:35:27.723413  3659 net.cpp:100] Creating Layer conv3_2/sep/bn
I1209 18:35:27.723417  3659 net.cpp:434] conv3_2/sep/bn <- conv3_2/sep
I1209 18:35:27.723419  3659 net.cpp:395] conv3_2/sep/bn -> conv3_2/sep (in-place)
I1209 18:35:27.723534  3659 net.cpp:150] Setting up conv3_2/sep/bn
I1209 18:35:27.723539  3659 net.cpp:157] Top shape: 2 256 38 64 (1245184)
I1209 18:35:27.723542  3659 net.cpp:165] Memory required for data: 343596640
I1209 18:35:27.723548  3659 layer_factory.hpp:77] Creating layer conv3_2/sep/scale
I1209 18:35:27.723553  3659 net.cpp:100] Creating Layer conv3_2/sep/scale
I1209 18:35:27.723556  3659 net.cpp:434] conv3_2/sep/scale <- conv3_2/sep
I1209 18:35:27.723559  3659 net.cpp:395] conv3_2/sep/scale -> conv3_2/sep (in-place)
I1209 18:35:27.723585  3659 layer_factory.hpp:77] Creating layer conv3_2/sep/scale
I1209 18:35:27.723650  3659 net.cpp:150] Setting up conv3_2/sep/scale
I1209 18:35:27.723654  3659 net.cpp:157] Top shape: 2 256 38 64 (1245184)
I1209 18:35:27.723659  3659 net.cpp:165] Memory required for data: 348577376
I1209 18:35:27.723664  3659 layer_factory.hpp:77] Creating layer relu3_2/sep
I1209 18:35:27.723667  3659 net.cpp:100] Creating Layer relu3_2/sep
I1209 18:35:27.723670  3659 net.cpp:434] relu3_2/sep <- conv3_2/sep
I1209 18:35:27.723673  3659 net.cpp:395] relu3_2/sep -> conv3_2/sep (in-place)
I1209 18:35:27.724158  3659 net.cpp:150] Setting up relu3_2/sep
I1209 18:35:27.724164  3659 net.cpp:157] Top shape: 2 256 38 64 (1245184)
I1209 18:35:27.724166  3659 net.cpp:165] Memory required for data: 353558112
I1209 18:35:27.724169  3659 layer_factory.hpp:77] Creating layer conv4_1/dw
I1209 18:35:27.724174  3659 net.cpp:100] Creating Layer conv4_1/dw
I1209 18:35:27.724179  3659 net.cpp:434] conv4_1/dw <- conv3_2/sep
I1209 18:35:27.724184  3659 net.cpp:408] conv4_1/dw -> conv4_1/dw
I1209 18:35:27.724316  3659 net.cpp:150] Setting up conv4_1/dw
I1209 18:35:27.724321  3659 net.cpp:157] Top shape: 2 256 38 64 (1245184)
I1209 18:35:27.724325  3659 net.cpp:165] Memory required for data: 358538848
I1209 18:35:27.724330  3659 layer_factory.hpp:77] Creating layer conv4_1/dw/bn
I1209 18:35:27.724335  3659 net.cpp:100] Creating Layer conv4_1/dw/bn
I1209 18:35:27.724339  3659 net.cpp:434] conv4_1/dw/bn <- conv4_1/dw
I1209 18:35:27.724345  3659 net.cpp:395] conv4_1/dw/bn -> conv4_1/dw (in-place)
I1209 18:35:27.724465  3659 net.cpp:150] Setting up conv4_1/dw/bn
I1209 18:35:27.724469  3659 net.cpp:157] Top shape: 2 256 38 64 (1245184)
I1209 18:35:27.724472  3659 net.cpp:165] Memory required for data: 363519584
I1209 18:35:27.724480  3659 layer_factory.hpp:77] Creating layer conv4_1/dw/scale
I1209 18:35:27.724485  3659 net.cpp:100] Creating Layer conv4_1/dw/scale
I1209 18:35:27.724488  3659 net.cpp:434] conv4_1/dw/scale <- conv4_1/dw
I1209 18:35:27.724493  3659 net.cpp:395] conv4_1/dw/scale -> conv4_1/dw (in-place)
I1209 18:35:27.724517  3659 layer_factory.hpp:77] Creating layer conv4_1/dw/scale
I1209 18:35:27.724576  3659 net.cpp:150] Setting up conv4_1/dw/scale
I1209 18:35:27.724581  3659 net.cpp:157] Top shape: 2 256 38 64 (1245184)
I1209 18:35:27.724582  3659 net.cpp:165] Memory required for data: 368500320
I1209 18:35:27.724586  3659 layer_factory.hpp:77] Creating layer relu4_1/dw
I1209 18:35:27.724591  3659 net.cpp:100] Creating Layer relu4_1/dw
I1209 18:35:27.724593  3659 net.cpp:434] relu4_1/dw <- conv4_1/dw
I1209 18:35:27.724597  3659 net.cpp:395] relu4_1/dw -> conv4_1/dw (in-place)
I1209 18:35:27.724920  3659 net.cpp:150] Setting up relu4_1/dw
I1209 18:35:27.724925  3659 net.cpp:157] Top shape: 2 256 38 64 (1245184)
I1209 18:35:27.724930  3659 net.cpp:165] Memory required for data: 373481056
I1209 18:35:27.724932  3659 layer_factory.hpp:77] Creating layer conv4_1/sep
I1209 18:35:27.724941  3659 net.cpp:100] Creating Layer conv4_1/sep
I1209 18:35:27.724943  3659 net.cpp:434] conv4_1/sep <- conv4_1/dw
I1209 18:35:27.724949  3659 net.cpp:408] conv4_1/sep -> conv4_1/sep
I1209 18:35:27.726712  3659 net.cpp:150] Setting up conv4_1/sep
I1209 18:35:27.726719  3659 net.cpp:157] Top shape: 2 256 38 64 (1245184)
I1209 18:35:27.726722  3659 net.cpp:165] Memory required for data: 378461792
I1209 18:35:27.726725  3659 layer_factory.hpp:77] Creating layer conv4_1/sep/bn
I1209 18:35:27.726729  3659 net.cpp:100] Creating Layer conv4_1/sep/bn
I1209 18:35:27.726733  3659 net.cpp:434] conv4_1/sep/bn <- conv4_1/sep
I1209 18:35:27.726735  3659 net.cpp:395] conv4_1/sep/bn -> conv4_1/sep (in-place)
I1209 18:35:27.726847  3659 net.cpp:150] Setting up conv4_1/sep/bn
I1209 18:35:27.726852  3659 net.cpp:157] Top shape: 2 256 38 64 (1245184)
I1209 18:35:27.726855  3659 net.cpp:165] Memory required for data: 383442528
I1209 18:35:27.726860  3659 layer_factory.hpp:77] Creating layer conv4_1/sep/scale
I1209 18:35:27.726863  3659 net.cpp:100] Creating Layer conv4_1/sep/scale
I1209 18:35:27.726866  3659 net.cpp:434] conv4_1/sep/scale <- conv4_1/sep
I1209 18:35:27.726869  3659 net.cpp:395] conv4_1/sep/scale -> conv4_1/sep (in-place)
I1209 18:35:27.726897  3659 layer_factory.hpp:77] Creating layer conv4_1/sep/scale
I1209 18:35:27.726959  3659 net.cpp:150] Setting up conv4_1/sep/scale
I1209 18:35:27.726964  3659 net.cpp:157] Top shape: 2 256 38 64 (1245184)
I1209 18:35:27.726969  3659 net.cpp:165] Memory required for data: 388423264
I1209 18:35:27.726979  3659 layer_factory.hpp:77] Creating layer relu4_1/sep
I1209 18:35:27.726984  3659 net.cpp:100] Creating Layer relu4_1/sep
I1209 18:35:27.726986  3659 net.cpp:434] relu4_1/sep <- conv4_1/sep
I1209 18:35:27.726997  3659 net.cpp:395] relu4_1/sep -> conv4_1/sep (in-place)
I1209 18:35:27.727310  3659 net.cpp:150] Setting up relu4_1/sep
I1209 18:35:27.727316  3659 net.cpp:157] Top shape: 2 256 38 64 (1245184)
I1209 18:35:27.727319  3659 net.cpp:165] Memory required for data: 393404000
I1209 18:35:27.727321  3659 layer_factory.hpp:77] Creating layer conv4_2/dw
I1209 18:35:27.727325  3659 net.cpp:100] Creating Layer conv4_2/dw
I1209 18:35:27.727329  3659 net.cpp:434] conv4_2/dw <- conv4_1/sep
I1209 18:35:27.727331  3659 net.cpp:408] conv4_2/dw -> conv4_2/dw
I1209 18:35:27.727461  3659 net.cpp:150] Setting up conv4_2/dw
I1209 18:35:27.727465  3659 net.cpp:157] Top shape: 2 256 19 32 (311296)
I1209 18:35:27.727468  3659 net.cpp:165] Memory required for data: 394649184
I1209 18:35:27.727470  3659 layer_factory.hpp:77] Creating layer conv4_2/dw/bn
I1209 18:35:27.727475  3659 net.cpp:100] Creating Layer conv4_2/dw/bn
I1209 18:35:27.727486  3659 net.cpp:434] conv4_2/dw/bn <- conv4_2/dw
I1209 18:35:27.727493  3659 net.cpp:395] conv4_2/dw/bn -> conv4_2/dw (in-place)
I1209 18:35:27.727612  3659 net.cpp:150] Setting up conv4_2/dw/bn
I1209 18:35:27.727617  3659 net.cpp:157] Top shape: 2 256 19 32 (311296)
I1209 18:35:27.727618  3659 net.cpp:165] Memory required for data: 395894368
I1209 18:35:27.727625  3659 layer_factory.hpp:77] Creating layer conv4_2/dw/scale
I1209 18:35:27.727629  3659 net.cpp:100] Creating Layer conv4_2/dw/scale
I1209 18:35:27.727633  3659 net.cpp:434] conv4_2/dw/scale <- conv4_2/dw
I1209 18:35:27.727638  3659 net.cpp:395] conv4_2/dw/scale -> conv4_2/dw (in-place)
I1209 18:35:27.727663  3659 layer_factory.hpp:77] Creating layer conv4_2/dw/scale
I1209 18:35:27.727735  3659 net.cpp:150] Setting up conv4_2/dw/scale
I1209 18:35:27.727739  3659 net.cpp:157] Top shape: 2 256 19 32 (311296)
I1209 18:35:27.727741  3659 net.cpp:165] Memory required for data: 397139552
I1209 18:35:27.727744  3659 layer_factory.hpp:77] Creating layer relu4_2/dw
I1209 18:35:27.727748  3659 net.cpp:100] Creating Layer relu4_2/dw
I1209 18:35:27.727751  3659 net.cpp:434] relu4_2/dw <- conv4_2/dw
I1209 18:35:27.727754  3659 net.cpp:395] relu4_2/dw -> conv4_2/dw (in-place)
I1209 18:35:27.728083  3659 net.cpp:150] Setting up relu4_2/dw
I1209 18:35:27.728090  3659 net.cpp:157] Top shape: 2 256 19 32 (311296)
I1209 18:35:27.728091  3659 net.cpp:165] Memory required for data: 398384736
I1209 18:35:27.728094  3659 layer_factory.hpp:77] Creating layer conv4_2/sep
I1209 18:35:27.728099  3659 net.cpp:100] Creating Layer conv4_2/sep
I1209 18:35:27.728102  3659 net.cpp:434] conv4_2/sep <- conv4_2/dw
I1209 18:35:27.728106  3659 net.cpp:408] conv4_2/sep -> conv4_2/sep
I1209 18:35:27.730756  3659 net.cpp:150] Setting up conv4_2/sep
I1209 18:35:27.730765  3659 net.cpp:157] Top shape: 2 512 19 32 (622592)
I1209 18:35:27.730768  3659 net.cpp:165] Memory required for data: 400875104
I1209 18:35:27.730772  3659 layer_factory.hpp:77] Creating layer conv4_2/sep/bn
I1209 18:35:27.730777  3659 net.cpp:100] Creating Layer conv4_2/sep/bn
I1209 18:35:27.730780  3659 net.cpp:434] conv4_2/sep/bn <- conv4_2/sep
I1209 18:35:27.730783  3659 net.cpp:395] conv4_2/sep/bn -> conv4_2/sep (in-place)
I1209 18:35:27.730907  3659 net.cpp:150] Setting up conv4_2/sep/bn
I1209 18:35:27.730911  3659 net.cpp:157] Top shape: 2 512 19 32 (622592)
I1209 18:35:27.730913  3659 net.cpp:165] Memory required for data: 403365472
I1209 18:35:27.730917  3659 layer_factory.hpp:77] Creating layer conv4_2/sep/scale
I1209 18:35:27.730922  3659 net.cpp:100] Creating Layer conv4_2/sep/scale
I1209 18:35:27.730924  3659 net.cpp:434] conv4_2/sep/scale <- conv4_2/sep
I1209 18:35:27.730928  3659 net.cpp:395] conv4_2/sep/scale -> conv4_2/sep (in-place)
I1209 18:35:27.730953  3659 layer_factory.hpp:77] Creating layer conv4_2/sep/scale
I1209 18:35:27.731025  3659 net.cpp:150] Setting up conv4_2/sep/scale
I1209 18:35:27.731030  3659 net.cpp:157] Top shape: 2 512 19 32 (622592)
I1209 18:35:27.731032  3659 net.cpp:165] Memory required for data: 405855840
I1209 18:35:27.731039  3659 layer_factory.hpp:77] Creating layer relu4_2/sep
I1209 18:35:27.731042  3659 net.cpp:100] Creating Layer relu4_2/sep
I1209 18:35:27.731046  3659 net.cpp:434] relu4_2/sep <- conv4_2/sep
I1209 18:35:27.731052  3659 net.cpp:395] relu4_2/sep -> conv4_2/sep (in-place)
I1209 18:35:27.731369  3659 net.cpp:150] Setting up relu4_2/sep
I1209 18:35:27.731375  3659 net.cpp:157] Top shape: 2 512 19 32 (622592)
I1209 18:35:27.731379  3659 net.cpp:165] Memory required for data: 408346208
I1209 18:35:27.731384  3659 layer_factory.hpp:77] Creating layer conv5_1/dw
I1209 18:35:27.731389  3659 net.cpp:100] Creating Layer conv5_1/dw
I1209 18:35:27.731392  3659 net.cpp:434] conv5_1/dw <- conv4_2/sep
I1209 18:35:27.731397  3659 net.cpp:408] conv5_1/dw -> conv5_1/dw
I1209 18:35:27.731545  3659 net.cpp:150] Setting up conv5_1/dw
I1209 18:35:27.731550  3659 net.cpp:157] Top shape: 2 512 19 32 (622592)
I1209 18:35:27.731554  3659 net.cpp:165] Memory required for data: 410836576
I1209 18:35:27.731567  3659 layer_factory.hpp:77] Creating layer conv5_1/dw/bn
I1209 18:35:27.731572  3659 net.cpp:100] Creating Layer conv5_1/dw/bn
I1209 18:35:27.731576  3659 net.cpp:434] conv5_1/dw/bn <- conv5_1/dw
I1209 18:35:27.731580  3659 net.cpp:395] conv5_1/dw/bn -> conv5_1/dw (in-place)
I1209 18:35:27.731699  3659 net.cpp:150] Setting up conv5_1/dw/bn
I1209 18:35:27.731703  3659 net.cpp:157] Top shape: 2 512 19 32 (622592)
I1209 18:35:27.731705  3659 net.cpp:165] Memory required for data: 413326944
I1209 18:35:27.731709  3659 layer_factory.hpp:77] Creating layer conv5_1/dw/scale
I1209 18:35:27.731714  3659 net.cpp:100] Creating Layer conv5_1/dw/scale
I1209 18:35:27.731716  3659 net.cpp:434] conv5_1/dw/scale <- conv5_1/dw
I1209 18:35:27.731720  3659 net.cpp:395] conv5_1/dw/scale -> conv5_1/dw (in-place)
I1209 18:35:27.731747  3659 layer_factory.hpp:77] Creating layer conv5_1/dw/scale
I1209 18:35:27.731817  3659 net.cpp:150] Setting up conv5_1/dw/scale
I1209 18:35:27.731822  3659 net.cpp:157] Top shape: 2 512 19 32 (622592)
I1209 18:35:27.731824  3659 net.cpp:165] Memory required for data: 415817312
I1209 18:35:27.731829  3659 layer_factory.hpp:77] Creating layer relu5_1/dw
I1209 18:35:27.731834  3659 net.cpp:100] Creating Layer relu5_1/dw
I1209 18:35:27.731837  3659 net.cpp:434] relu5_1/dw <- conv5_1/dw
I1209 18:35:27.731840  3659 net.cpp:395] relu5_1/dw -> conv5_1/dw (in-place)
I1209 18:35:27.732156  3659 net.cpp:150] Setting up relu5_1/dw
I1209 18:35:27.732161  3659 net.cpp:157] Top shape: 2 512 19 32 (622592)
I1209 18:35:27.732164  3659 net.cpp:165] Memory required for data: 418307680
I1209 18:35:27.732167  3659 layer_factory.hpp:77] Creating layer conv5_1/sep
I1209 18:35:27.732172  3659 net.cpp:100] Creating Layer conv5_1/sep
I1209 18:35:27.732174  3659 net.cpp:434] conv5_1/sep <- conv5_1/dw
I1209 18:35:27.732178  3659 net.cpp:408] conv5_1/sep -> conv5_1/sep
I1209 18:35:27.735062  3659 net.cpp:150] Setting up conv5_1/sep
I1209 18:35:27.735070  3659 net.cpp:157] Top shape: 2 512 19 32 (622592)
I1209 18:35:27.735072  3659 net.cpp:165] Memory required for data: 420798048
I1209 18:35:27.735076  3659 layer_factory.hpp:77] Creating layer conv5_1/sep/bn
I1209 18:35:27.735081  3659 net.cpp:100] Creating Layer conv5_1/sep/bn
I1209 18:35:27.735085  3659 net.cpp:434] conv5_1/sep/bn <- conv5_1/sep
I1209 18:35:27.735088  3659 net.cpp:395] conv5_1/sep/bn -> conv5_1/sep (in-place)
I1209 18:35:27.735209  3659 net.cpp:150] Setting up conv5_1/sep/bn
I1209 18:35:27.735213  3659 net.cpp:157] Top shape: 2 512 19 32 (622592)
I1209 18:35:27.735216  3659 net.cpp:165] Memory required for data: 423288416
I1209 18:35:27.735220  3659 layer_factory.hpp:77] Creating layer conv5_1/sep/scale
I1209 18:35:27.735225  3659 net.cpp:100] Creating Layer conv5_1/sep/scale
I1209 18:35:27.735227  3659 net.cpp:434] conv5_1/sep/scale <- conv5_1/sep
I1209 18:35:27.735230  3659 net.cpp:395] conv5_1/sep/scale -> conv5_1/sep (in-place)
I1209 18:35:27.735257  3659 layer_factory.hpp:77] Creating layer conv5_1/sep/scale
I1209 18:35:27.735325  3659 net.cpp:150] Setting up conv5_1/sep/scale
I1209 18:35:27.735329  3659 net.cpp:157] Top shape: 2 512 19 32 (622592)
I1209 18:35:27.735332  3659 net.cpp:165] Memory required for data: 425778784
I1209 18:35:27.735335  3659 layer_factory.hpp:77] Creating layer relu5_1/sep
I1209 18:35:27.735340  3659 net.cpp:100] Creating Layer relu5_1/sep
I1209 18:35:27.735343  3659 net.cpp:434] relu5_1/sep <- conv5_1/sep
I1209 18:35:27.735345  3659 net.cpp:395] relu5_1/sep -> conv5_1/sep (in-place)
I1209 18:35:27.735669  3659 net.cpp:150] Setting up relu5_1/sep
I1209 18:35:27.735677  3659 net.cpp:157] Top shape: 2 512 19 32 (622592)
I1209 18:35:27.735680  3659 net.cpp:165] Memory required for data: 428269152
I1209 18:35:27.735684  3659 layer_factory.hpp:77] Creating layer conv5_2/dw
I1209 18:35:27.735692  3659 net.cpp:100] Creating Layer conv5_2/dw
I1209 18:35:27.735694  3659 net.cpp:434] conv5_2/dw <- conv5_1/sep
I1209 18:35:27.735700  3659 net.cpp:408] conv5_2/dw -> conv5_2/dw
I1209 18:35:27.735849  3659 net.cpp:150] Setting up conv5_2/dw
I1209 18:35:27.735862  3659 net.cpp:157] Top shape: 2 512 19 32 (622592)
I1209 18:35:27.735863  3659 net.cpp:165] Memory required for data: 430759520
I1209 18:35:27.735867  3659 layer_factory.hpp:77] Creating layer conv5_2/dw/bn
I1209 18:35:27.735872  3659 net.cpp:100] Creating Layer conv5_2/dw/bn
I1209 18:35:27.735875  3659 net.cpp:434] conv5_2/dw/bn <- conv5_2/dw
I1209 18:35:27.735879  3659 net.cpp:395] conv5_2/dw/bn -> conv5_2/dw (in-place)
I1209 18:35:27.735999  3659 net.cpp:150] Setting up conv5_2/dw/bn
I1209 18:35:27.736003  3659 net.cpp:157] Top shape: 2 512 19 32 (622592)
I1209 18:35:27.736006  3659 net.cpp:165] Memory required for data: 433249888
I1209 18:35:27.736011  3659 layer_factory.hpp:77] Creating layer conv5_2/dw/scale
I1209 18:35:27.736021  3659 net.cpp:100] Creating Layer conv5_2/dw/scale
I1209 18:35:27.736023  3659 net.cpp:434] conv5_2/dw/scale <- conv5_2/dw
I1209 18:35:27.736028  3659 net.cpp:395] conv5_2/dw/scale -> conv5_2/dw (in-place)
I1209 18:35:27.736055  3659 layer_factory.hpp:77] Creating layer conv5_2/dw/scale
I1209 18:35:27.736121  3659 net.cpp:150] Setting up conv5_2/dw/scale
I1209 18:35:27.736125  3659 net.cpp:157] Top shape: 2 512 19 32 (622592)
I1209 18:35:27.736129  3659 net.cpp:165] Memory required for data: 435740256
I1209 18:35:27.736131  3659 layer_factory.hpp:77] Creating layer relu5_2/dw
I1209 18:35:27.736136  3659 net.cpp:100] Creating Layer relu5_2/dw
I1209 18:35:27.736140  3659 net.cpp:434] relu5_2/dw <- conv5_2/dw
I1209 18:35:27.736145  3659 net.cpp:395] relu5_2/dw -> conv5_2/dw (in-place)
I1209 18:35:27.736630  3659 net.cpp:150] Setting up relu5_2/dw
I1209 18:35:27.736637  3659 net.cpp:157] Top shape: 2 512 19 32 (622592)
I1209 18:35:27.736640  3659 net.cpp:165] Memory required for data: 438230624
I1209 18:35:27.736644  3659 layer_factory.hpp:77] Creating layer conv5_2/sep
I1209 18:35:27.736654  3659 net.cpp:100] Creating Layer conv5_2/sep
I1209 18:35:27.736656  3659 net.cpp:434] conv5_2/sep <- conv5_2/dw
I1209 18:35:27.736661  3659 net.cpp:408] conv5_2/sep -> conv5_2/sep
I1209 18:35:27.739902  3659 net.cpp:150] Setting up conv5_2/sep
I1209 18:35:27.739912  3659 net.cpp:157] Top shape: 2 512 19 32 (622592)
I1209 18:35:27.739913  3659 net.cpp:165] Memory required for data: 440720992
I1209 18:35:27.739917  3659 layer_factory.hpp:77] Creating layer conv5_2/sep/bn
I1209 18:35:27.739924  3659 net.cpp:100] Creating Layer conv5_2/sep/bn
I1209 18:35:27.739928  3659 net.cpp:434] conv5_2/sep/bn <- conv5_2/sep
I1209 18:35:27.739933  3659 net.cpp:395] conv5_2/sep/bn -> conv5_2/sep (in-place)
I1209 18:35:27.740058  3659 net.cpp:150] Setting up conv5_2/sep/bn
I1209 18:35:27.740063  3659 net.cpp:157] Top shape: 2 512 19 32 (622592)
I1209 18:35:27.740067  3659 net.cpp:165] Memory required for data: 443211360
I1209 18:35:27.740073  3659 layer_factory.hpp:77] Creating layer conv5_2/sep/scale
I1209 18:35:27.740079  3659 net.cpp:100] Creating Layer conv5_2/sep/scale
I1209 18:35:27.740082  3659 net.cpp:434] conv5_2/sep/scale <- conv5_2/sep
I1209 18:35:27.740084  3659 net.cpp:395] conv5_2/sep/scale -> conv5_2/sep (in-place)
I1209 18:35:27.740115  3659 layer_factory.hpp:77] Creating layer conv5_2/sep/scale
I1209 18:35:27.740187  3659 net.cpp:150] Setting up conv5_2/sep/scale
I1209 18:35:27.740191  3659 net.cpp:157] Top shape: 2 512 19 32 (622592)
I1209 18:35:27.740195  3659 net.cpp:165] Memory required for data: 445701728
I1209 18:35:27.740201  3659 layer_factory.hpp:77] Creating layer relu5_2/sep
I1209 18:35:27.740206  3659 net.cpp:100] Creating Layer relu5_2/sep
I1209 18:35:27.740209  3659 net.cpp:434] relu5_2/sep <- conv5_2/sep
I1209 18:35:27.740212  3659 net.cpp:395] relu5_2/sep -> conv5_2/sep (in-place)
I1209 18:35:27.740569  3659 net.cpp:150] Setting up relu5_2/sep
I1209 18:35:27.740576  3659 net.cpp:157] Top shape: 2 512 19 32 (622592)
I1209 18:35:27.740579  3659 net.cpp:165] Memory required for data: 448192096
I1209 18:35:27.740583  3659 layer_factory.hpp:77] Creating layer conv5_3/dw
I1209 18:35:27.740591  3659 net.cpp:100] Creating Layer conv5_3/dw
I1209 18:35:27.740602  3659 net.cpp:434] conv5_3/dw <- conv5_2/sep
I1209 18:35:27.740607  3659 net.cpp:408] conv5_3/dw -> conv5_3/dw
I1209 18:35:27.740759  3659 net.cpp:150] Setting up conv5_3/dw
I1209 18:35:27.740766  3659 net.cpp:157] Top shape: 2 512 19 32 (622592)
I1209 18:35:27.740768  3659 net.cpp:165] Memory required for data: 450682464
I1209 18:35:27.740772  3659 layer_factory.hpp:77] Creating layer conv5_3/dw/bn
I1209 18:35:27.740777  3659 net.cpp:100] Creating Layer conv5_3/dw/bn
I1209 18:35:27.740779  3659 net.cpp:434] conv5_3/dw/bn <- conv5_3/dw
I1209 18:35:27.740782  3659 net.cpp:395] conv5_3/dw/bn -> conv5_3/dw (in-place)
I1209 18:35:27.740901  3659 net.cpp:150] Setting up conv5_3/dw/bn
I1209 18:35:27.740906  3659 net.cpp:157] Top shape: 2 512 19 32 (622592)
I1209 18:35:27.740908  3659 net.cpp:165] Memory required for data: 453172832
I1209 18:35:27.740912  3659 layer_factory.hpp:77] Creating layer conv5_3/dw/scale
I1209 18:35:27.740916  3659 net.cpp:100] Creating Layer conv5_3/dw/scale
I1209 18:35:27.740918  3659 net.cpp:434] conv5_3/dw/scale <- conv5_3/dw
I1209 18:35:27.740921  3659 net.cpp:395] conv5_3/dw/scale -> conv5_3/dw (in-place)
I1209 18:35:27.740948  3659 layer_factory.hpp:77] Creating layer conv5_3/dw/scale
I1209 18:35:27.741019  3659 net.cpp:150] Setting up conv5_3/dw/scale
I1209 18:35:27.741024  3659 net.cpp:157] Top shape: 2 512 19 32 (622592)
I1209 18:35:27.741029  3659 net.cpp:165] Memory required for data: 455663200
I1209 18:35:27.741034  3659 layer_factory.hpp:77] Creating layer relu5_3/dw
I1209 18:35:27.741037  3659 net.cpp:100] Creating Layer relu5_3/dw
I1209 18:35:27.741040  3659 net.cpp:434] relu5_3/dw <- conv5_3/dw
I1209 18:35:27.741045  3659 net.cpp:395] relu5_3/dw -> conv5_3/dw (in-place)
I1209 18:35:27.741542  3659 net.cpp:150] Setting up relu5_3/dw
I1209 18:35:27.741550  3659 net.cpp:157] Top shape: 2 512 19 32 (622592)
I1209 18:35:27.741554  3659 net.cpp:165] Memory required for data: 458153568
I1209 18:35:27.741559  3659 layer_factory.hpp:77] Creating layer conv5_3/sep
I1209 18:35:27.741566  3659 net.cpp:100] Creating Layer conv5_3/sep
I1209 18:35:27.741569  3659 net.cpp:434] conv5_3/sep <- conv5_3/dw
I1209 18:35:27.741575  3659 net.cpp:408] conv5_3/sep -> conv5_3/sep
I1209 18:35:27.744307  3659 net.cpp:150] Setting up conv5_3/sep
I1209 18:35:27.744313  3659 net.cpp:157] Top shape: 2 512 19 32 (622592)
I1209 18:35:27.744315  3659 net.cpp:165] Memory required for data: 460643936
I1209 18:35:27.744319  3659 layer_factory.hpp:77] Creating layer conv5_3/sep/bn
I1209 18:35:27.744323  3659 net.cpp:100] Creating Layer conv5_3/sep/bn
I1209 18:35:27.744326  3659 net.cpp:434] conv5_3/sep/bn <- conv5_3/sep
I1209 18:35:27.744330  3659 net.cpp:395] conv5_3/sep/bn -> conv5_3/sep (in-place)
I1209 18:35:27.744459  3659 net.cpp:150] Setting up conv5_3/sep/bn
I1209 18:35:27.744464  3659 net.cpp:157] Top shape: 2 512 19 32 (622592)
I1209 18:35:27.744467  3659 net.cpp:165] Memory required for data: 463134304
I1209 18:35:27.744474  3659 layer_factory.hpp:77] Creating layer conv5_3/sep/scale
I1209 18:35:27.744479  3659 net.cpp:100] Creating Layer conv5_3/sep/scale
I1209 18:35:27.744483  3659 net.cpp:434] conv5_3/sep/scale <- conv5_3/sep
I1209 18:35:27.744488  3659 net.cpp:395] conv5_3/sep/scale -> conv5_3/sep (in-place)
I1209 18:35:27.744515  3659 layer_factory.hpp:77] Creating layer conv5_3/sep/scale
I1209 18:35:27.744585  3659 net.cpp:150] Setting up conv5_3/sep/scale
I1209 18:35:27.744590  3659 net.cpp:157] Top shape: 2 512 19 32 (622592)
I1209 18:35:27.744592  3659 net.cpp:165] Memory required for data: 465624672
I1209 18:35:27.744596  3659 layer_factory.hpp:77] Creating layer relu5_3/sep
I1209 18:35:27.744599  3659 net.cpp:100] Creating Layer relu5_3/sep
I1209 18:35:27.744602  3659 net.cpp:434] relu5_3/sep <- conv5_3/sep
I1209 18:35:27.744604  3659 net.cpp:395] relu5_3/sep -> conv5_3/sep (in-place)
I1209 18:35:27.744931  3659 net.cpp:150] Setting up relu5_3/sep
I1209 18:35:27.744938  3659 net.cpp:157] Top shape: 2 512 19 32 (622592)
I1209 18:35:27.744942  3659 net.cpp:165] Memory required for data: 468115040
I1209 18:35:27.744953  3659 layer_factory.hpp:77] Creating layer conv5_4/dw
I1209 18:35:27.744959  3659 net.cpp:100] Creating Layer conv5_4/dw
I1209 18:35:27.744962  3659 net.cpp:434] conv5_4/dw <- conv5_3/sep
I1209 18:35:27.744967  3659 net.cpp:408] conv5_4/dw -> conv5_4/dw
I1209 18:35:27.745116  3659 net.cpp:150] Setting up conv5_4/dw
I1209 18:35:27.745121  3659 net.cpp:157] Top shape: 2 512 19 32 (622592)
I1209 18:35:27.745123  3659 net.cpp:165] Memory required for data: 470605408
I1209 18:35:27.745126  3659 layer_factory.hpp:77] Creating layer conv5_4/dw/bn
I1209 18:35:27.745131  3659 net.cpp:100] Creating Layer conv5_4/dw/bn
I1209 18:35:27.745136  3659 net.cpp:434] conv5_4/dw/bn <- conv5_4/dw
I1209 18:35:27.745141  3659 net.cpp:395] conv5_4/dw/bn -> conv5_4/dw (in-place)
I1209 18:35:27.745263  3659 net.cpp:150] Setting up conv5_4/dw/bn
I1209 18:35:27.745267  3659 net.cpp:157] Top shape: 2 512 19 32 (622592)
I1209 18:35:27.745270  3659 net.cpp:165] Memory required for data: 473095776
I1209 18:35:27.745276  3659 layer_factory.hpp:77] Creating layer conv5_4/dw/scale
I1209 18:35:27.745281  3659 net.cpp:100] Creating Layer conv5_4/dw/scale
I1209 18:35:27.745285  3659 net.cpp:434] conv5_4/dw/scale <- conv5_4/dw
I1209 18:35:27.745287  3659 net.cpp:395] conv5_4/dw/scale -> conv5_4/dw (in-place)
I1209 18:35:27.745316  3659 layer_factory.hpp:77] Creating layer conv5_4/dw/scale
I1209 18:35:27.745388  3659 net.cpp:150] Setting up conv5_4/dw/scale
I1209 18:35:27.745391  3659 net.cpp:157] Top shape: 2 512 19 32 (622592)
I1209 18:35:27.745395  3659 net.cpp:165] Memory required for data: 475586144
I1209 18:35:27.745400  3659 layer_factory.hpp:77] Creating layer relu5_4/dw
I1209 18:35:27.745405  3659 net.cpp:100] Creating Layer relu5_4/dw
I1209 18:35:27.745409  3659 net.cpp:434] relu5_4/dw <- conv5_4/dw
I1209 18:35:27.745410  3659 net.cpp:395] relu5_4/dw -> conv5_4/dw (in-place)
I1209 18:35:27.745906  3659 net.cpp:150] Setting up relu5_4/dw
I1209 18:35:27.745914  3659 net.cpp:157] Top shape: 2 512 19 32 (622592)
I1209 18:35:27.745918  3659 net.cpp:165] Memory required for data: 478076512
I1209 18:35:27.745921  3659 layer_factory.hpp:77] Creating layer conv5_4/sep
I1209 18:35:27.745929  3659 net.cpp:100] Creating Layer conv5_4/sep
I1209 18:35:27.745932  3659 net.cpp:434] conv5_4/sep <- conv5_4/dw
I1209 18:35:27.745936  3659 net.cpp:408] conv5_4/sep -> conv5_4/sep
I1209 18:35:27.749193  3659 net.cpp:150] Setting up conv5_4/sep
I1209 18:35:27.749202  3659 net.cpp:157] Top shape: 2 512 19 32 (622592)
I1209 18:35:27.749205  3659 net.cpp:165] Memory required for data: 480566880
I1209 18:35:27.749209  3659 layer_factory.hpp:77] Creating layer conv5_4/sep/bn
I1209 18:35:27.749214  3659 net.cpp:100] Creating Layer conv5_4/sep/bn
I1209 18:35:27.749218  3659 net.cpp:434] conv5_4/sep/bn <- conv5_4/sep
I1209 18:35:27.749224  3659 net.cpp:395] conv5_4/sep/bn -> conv5_4/sep (in-place)
I1209 18:35:27.749351  3659 net.cpp:150] Setting up conv5_4/sep/bn
I1209 18:35:27.749354  3659 net.cpp:157] Top shape: 2 512 19 32 (622592)
I1209 18:35:27.749357  3659 net.cpp:165] Memory required for data: 483057248
I1209 18:35:27.749361  3659 layer_factory.hpp:77] Creating layer conv5_4/sep/scale
I1209 18:35:27.749366  3659 net.cpp:100] Creating Layer conv5_4/sep/scale
I1209 18:35:27.749369  3659 net.cpp:434] conv5_4/sep/scale <- conv5_4/sep
I1209 18:35:27.749372  3659 net.cpp:395] conv5_4/sep/scale -> conv5_4/sep (in-place)
I1209 18:35:27.749398  3659 layer_factory.hpp:77] Creating layer conv5_4/sep/scale
I1209 18:35:27.749467  3659 net.cpp:150] Setting up conv5_4/sep/scale
I1209 18:35:27.749471  3659 net.cpp:157] Top shape: 2 512 19 32 (622592)
I1209 18:35:27.749474  3659 net.cpp:165] Memory required for data: 485547616
I1209 18:35:27.749477  3659 layer_factory.hpp:77] Creating layer relu5_4/sep
I1209 18:35:27.749480  3659 net.cpp:100] Creating Layer relu5_4/sep
I1209 18:35:27.749483  3659 net.cpp:434] relu5_4/sep <- conv5_4/sep
I1209 18:35:27.749486  3659 net.cpp:395] relu5_4/sep -> conv5_4/sep (in-place)
I1209 18:35:27.749809  3659 net.cpp:150] Setting up relu5_4/sep
I1209 18:35:27.749821  3659 net.cpp:157] Top shape: 2 512 19 32 (622592)
I1209 18:35:27.749825  3659 net.cpp:165] Memory required for data: 488037984
I1209 18:35:27.749826  3659 layer_factory.hpp:77] Creating layer conv5_5/dw
I1209 18:35:27.749832  3659 net.cpp:100] Creating Layer conv5_5/dw
I1209 18:35:27.749835  3659 net.cpp:434] conv5_5/dw <- conv5_4/sep
I1209 18:35:27.749838  3659 net.cpp:408] conv5_5/dw -> conv5_5/dw
I1209 18:35:27.749992  3659 net.cpp:150] Setting up conv5_5/dw
I1209 18:35:27.749999  3659 net.cpp:157] Top shape: 2 512 19 32 (622592)
I1209 18:35:27.750001  3659 net.cpp:165] Memory required for data: 490528352
I1209 18:35:27.750006  3659 layer_factory.hpp:77] Creating layer conv5_5/dw/bn
I1209 18:35:27.750012  3659 net.cpp:100] Creating Layer conv5_5/dw/bn
I1209 18:35:27.750016  3659 net.cpp:434] conv5_5/dw/bn <- conv5_5/dw
I1209 18:35:27.750021  3659 net.cpp:395] conv5_5/dw/bn -> conv5_5/dw (in-place)
I1209 18:35:27.750146  3659 net.cpp:150] Setting up conv5_5/dw/bn
I1209 18:35:27.750150  3659 net.cpp:157] Top shape: 2 512 19 32 (622592)
I1209 18:35:27.750154  3659 net.cpp:165] Memory required for data: 493018720
I1209 18:35:27.750169  3659 layer_factory.hpp:77] Creating layer conv5_5/dw/scale
I1209 18:35:27.750174  3659 net.cpp:100] Creating Layer conv5_5/dw/scale
I1209 18:35:27.750178  3659 net.cpp:434] conv5_5/dw/scale <- conv5_5/dw
I1209 18:35:27.750182  3659 net.cpp:395] conv5_5/dw/scale -> conv5_5/dw (in-place)
I1209 18:35:27.750211  3659 layer_factory.hpp:77] Creating layer conv5_5/dw/scale
I1209 18:35:27.750280  3659 net.cpp:150] Setting up conv5_5/dw/scale
I1209 18:35:27.750284  3659 net.cpp:157] Top shape: 2 512 19 32 (622592)
I1209 18:35:27.750286  3659 net.cpp:165] Memory required for data: 495509088
I1209 18:35:27.750290  3659 layer_factory.hpp:77] Creating layer relu5_5/dw
I1209 18:35:27.750293  3659 net.cpp:100] Creating Layer relu5_5/dw
I1209 18:35:27.750296  3659 net.cpp:434] relu5_5/dw <- conv5_5/dw
I1209 18:35:27.750299  3659 net.cpp:395] relu5_5/dw -> conv5_5/dw (in-place)
I1209 18:35:27.750800  3659 net.cpp:150] Setting up relu5_5/dw
I1209 18:35:27.750808  3659 net.cpp:157] Top shape: 2 512 19 32 (622592)
I1209 18:35:27.750809  3659 net.cpp:165] Memory required for data: 497999456
I1209 18:35:27.750813  3659 layer_factory.hpp:77] Creating layer conv5_5/sep
I1209 18:35:27.750818  3659 net.cpp:100] Creating Layer conv5_5/sep
I1209 18:35:27.750820  3659 net.cpp:434] conv5_5/sep <- conv5_5/dw
I1209 18:35:27.750824  3659 net.cpp:408] conv5_5/sep -> conv5_5/sep
I1209 18:35:27.753732  3659 net.cpp:150] Setting up conv5_5/sep
I1209 18:35:27.753741  3659 net.cpp:157] Top shape: 2 512 19 32 (622592)
I1209 18:35:27.753744  3659 net.cpp:165] Memory required for data: 500489824
I1209 18:35:27.753751  3659 layer_factory.hpp:77] Creating layer conv5_5/sep/bn
I1209 18:35:27.753756  3659 net.cpp:100] Creating Layer conv5_5/sep/bn
I1209 18:35:27.753760  3659 net.cpp:434] conv5_5/sep/bn <- conv5_5/sep
I1209 18:35:27.753767  3659 net.cpp:395] conv5_5/sep/bn -> conv5_5/sep (in-place)
I1209 18:35:27.753895  3659 net.cpp:150] Setting up conv5_5/sep/bn
I1209 18:35:27.753899  3659 net.cpp:157] Top shape: 2 512 19 32 (622592)
I1209 18:35:27.753903  3659 net.cpp:165] Memory required for data: 502980192
I1209 18:35:27.753909  3659 layer_factory.hpp:77] Creating layer conv5_5/sep/scale
I1209 18:35:27.753914  3659 net.cpp:100] Creating Layer conv5_5/sep/scale
I1209 18:35:27.753916  3659 net.cpp:434] conv5_5/sep/scale <- conv5_5/sep
I1209 18:35:27.753921  3659 net.cpp:395] conv5_5/sep/scale -> conv5_5/sep (in-place)
I1209 18:35:27.753949  3659 layer_factory.hpp:77] Creating layer conv5_5/sep/scale
I1209 18:35:27.754024  3659 net.cpp:150] Setting up conv5_5/sep/scale
I1209 18:35:27.754027  3659 net.cpp:157] Top shape: 2 512 19 32 (622592)
I1209 18:35:27.754030  3659 net.cpp:165] Memory required for data: 505470560
I1209 18:35:27.754037  3659 layer_factory.hpp:77] Creating layer relu5_5/sep
I1209 18:35:27.754041  3659 net.cpp:100] Creating Layer relu5_5/sep
I1209 18:35:27.754045  3659 net.cpp:434] relu5_5/sep <- conv5_5/sep
I1209 18:35:27.754057  3659 net.cpp:395] relu5_5/sep -> conv5_5/sep (in-place)
I1209 18:35:27.754557  3659 net.cpp:150] Setting up relu5_5/sep
I1209 18:35:27.754565  3659 net.cpp:157] Top shape: 2 512 19 32 (622592)
I1209 18:35:27.754567  3659 net.cpp:165] Memory required for data: 507960928
I1209 18:35:27.754570  3659 layer_factory.hpp:77] Creating layer conv5_5/sep_relu5_5/sep_0_split
I1209 18:35:27.754575  3659 net.cpp:100] Creating Layer conv5_5/sep_relu5_5/sep_0_split
I1209 18:35:27.754577  3659 net.cpp:434] conv5_5/sep_relu5_5/sep_0_split <- conv5_5/sep
I1209 18:35:27.754580  3659 net.cpp:408] conv5_5/sep_relu5_5/sep_0_split -> conv5_5/sep_relu5_5/sep_0_split_0
I1209 18:35:27.754588  3659 net.cpp:408] conv5_5/sep_relu5_5/sep_0_split -> conv5_5/sep_relu5_5/sep_0_split_1
I1209 18:35:27.754593  3659 net.cpp:408] conv5_5/sep_relu5_5/sep_0_split -> conv5_5/sep_relu5_5/sep_0_split_2
I1209 18:35:27.754597  3659 net.cpp:408] conv5_5/sep_relu5_5/sep_0_split -> conv5_5/sep_relu5_5/sep_0_split_3
I1209 18:35:27.754639  3659 net.cpp:150] Setting up conv5_5/sep_relu5_5/sep_0_split
I1209 18:35:27.754644  3659 net.cpp:157] Top shape: 2 512 19 32 (622592)
I1209 18:35:27.754648  3659 net.cpp:157] Top shape: 2 512 19 32 (622592)
I1209 18:35:27.754650  3659 net.cpp:157] Top shape: 2 512 19 32 (622592)
I1209 18:35:27.754655  3659 net.cpp:157] Top shape: 2 512 19 32 (622592)
I1209 18:35:27.754658  3659 net.cpp:165] Memory required for data: 517922400
I1209 18:35:27.754662  3659 layer_factory.hpp:77] Creating layer conv5_6/dw
I1209 18:35:27.754668  3659 net.cpp:100] Creating Layer conv5_6/dw
I1209 18:35:27.754671  3659 net.cpp:434] conv5_6/dw <- conv5_5/sep_relu5_5/sep_0_split_0
I1209 18:35:27.754676  3659 net.cpp:408] conv5_6/dw -> conv5_6/dw
I1209 18:35:27.754827  3659 net.cpp:150] Setting up conv5_6/dw
I1209 18:35:27.754832  3659 net.cpp:157] Top shape: 2 512 10 16 (163840)
I1209 18:35:27.754834  3659 net.cpp:165] Memory required for data: 518577760
I1209 18:35:27.754837  3659 layer_factory.hpp:77] Creating layer conv5_6/dw/bn
I1209 18:35:27.754842  3659 net.cpp:100] Creating Layer conv5_6/dw/bn
I1209 18:35:27.754846  3659 net.cpp:434] conv5_6/dw/bn <- conv5_6/dw
I1209 18:35:27.754850  3659 net.cpp:395] conv5_6/dw/bn -> conv5_6/dw (in-place)
I1209 18:35:27.754977  3659 net.cpp:150] Setting up conv5_6/dw/bn
I1209 18:35:27.754981  3659 net.cpp:157] Top shape: 2 512 10 16 (163840)
I1209 18:35:27.754984  3659 net.cpp:165] Memory required for data: 519233120
I1209 18:35:27.754988  3659 layer_factory.hpp:77] Creating layer conv5_6/dw/scale
I1209 18:35:27.755000  3659 net.cpp:100] Creating Layer conv5_6/dw/scale
I1209 18:35:27.755003  3659 net.cpp:434] conv5_6/dw/scale <- conv5_6/dw
I1209 18:35:27.755010  3659 net.cpp:395] conv5_6/dw/scale -> conv5_6/dw (in-place)
I1209 18:35:27.755038  3659 layer_factory.hpp:77] Creating layer conv5_6/dw/scale
I1209 18:35:27.755112  3659 net.cpp:150] Setting up conv5_6/dw/scale
I1209 18:35:27.755117  3659 net.cpp:157] Top shape: 2 512 10 16 (163840)
I1209 18:35:27.755120  3659 net.cpp:165] Memory required for data: 519888480
I1209 18:35:27.755127  3659 layer_factory.hpp:77] Creating layer relu5_6/dw
I1209 18:35:27.755131  3659 net.cpp:100] Creating Layer relu5_6/dw
I1209 18:35:27.755134  3659 net.cpp:434] relu5_6/dw <- conv5_6/dw
I1209 18:35:27.755138  3659 net.cpp:395] relu5_6/dw -> conv5_6/dw (in-place)
I1209 18:35:27.755467  3659 net.cpp:150] Setting up relu5_6/dw
I1209 18:35:27.755473  3659 net.cpp:157] Top shape: 2 512 10 16 (163840)
I1209 18:35:27.755475  3659 net.cpp:165] Memory required for data: 520543840
I1209 18:35:27.755477  3659 layer_factory.hpp:77] Creating layer conv5_6/sep
I1209 18:35:27.755483  3659 net.cpp:100] Creating Layer conv5_6/sep
I1209 18:35:27.755486  3659 net.cpp:434] conv5_6/sep <- conv5_6/dw
I1209 18:35:27.755489  3659 net.cpp:408] conv5_6/sep -> conv5_6/sep
I1209 18:35:27.760352  3659 net.cpp:150] Setting up conv5_6/sep
I1209 18:35:27.760361  3659 net.cpp:157] Top shape: 2 1024 10 16 (327680)
I1209 18:35:27.760363  3659 net.cpp:165] Memory required for data: 521854560
I1209 18:35:27.760376  3659 layer_factory.hpp:77] Creating layer conv5_6/sep/bn
I1209 18:35:27.760383  3659 net.cpp:100] Creating Layer conv5_6/sep/bn
I1209 18:35:27.760386  3659 net.cpp:434] conv5_6/sep/bn <- conv5_6/sep
I1209 18:35:27.760390  3659 net.cpp:395] conv5_6/sep/bn -> conv5_6/sep (in-place)
I1209 18:35:27.760526  3659 net.cpp:150] Setting up conv5_6/sep/bn
I1209 18:35:27.760531  3659 net.cpp:157] Top shape: 2 1024 10 16 (327680)
I1209 18:35:27.760535  3659 net.cpp:165] Memory required for data: 523165280
I1209 18:35:27.760541  3659 layer_factory.hpp:77] Creating layer conv5_6/sep/scale
I1209 18:35:27.760547  3659 net.cpp:100] Creating Layer conv5_6/sep/scale
I1209 18:35:27.760550  3659 net.cpp:434] conv5_6/sep/scale <- conv5_6/sep
I1209 18:35:27.760553  3659 net.cpp:395] conv5_6/sep/scale -> conv5_6/sep (in-place)
I1209 18:35:27.760582  3659 layer_factory.hpp:77] Creating layer conv5_6/sep/scale
I1209 18:35:27.760658  3659 net.cpp:150] Setting up conv5_6/sep/scale
I1209 18:35:27.760663  3659 net.cpp:157] Top shape: 2 1024 10 16 (327680)
I1209 18:35:27.760666  3659 net.cpp:165] Memory required for data: 524476000
I1209 18:35:27.760670  3659 layer_factory.hpp:77] Creating layer relu5_6/sep
I1209 18:35:27.760674  3659 net.cpp:100] Creating Layer relu5_6/sep
I1209 18:35:27.760679  3659 net.cpp:434] relu5_6/sep <- conv5_6/sep
I1209 18:35:27.760684  3659 net.cpp:395] relu5_6/sep -> conv5_6/sep (in-place)
I1209 18:35:27.761188  3659 net.cpp:150] Setting up relu5_6/sep
I1209 18:35:27.761194  3659 net.cpp:157] Top shape: 2 1024 10 16 (327680)
I1209 18:35:27.761198  3659 net.cpp:165] Memory required for data: 525786720
I1209 18:35:27.761202  3659 layer_factory.hpp:77] Creating layer conv6/dw
I1209 18:35:27.761210  3659 net.cpp:100] Creating Layer conv6/dw
I1209 18:35:27.761214  3659 net.cpp:434] conv6/dw <- conv5_6/sep
I1209 18:35:27.761219  3659 net.cpp:408] conv6/dw -> conv6/dw
I1209 18:35:27.761405  3659 net.cpp:150] Setting up conv6/dw
I1209 18:35:27.761410  3659 net.cpp:157] Top shape: 2 1024 10 16 (327680)
I1209 18:35:27.761412  3659 net.cpp:165] Memory required for data: 527097440
I1209 18:35:27.761415  3659 layer_factory.hpp:77] Creating layer conv6/dw/bn
I1209 18:35:27.761421  3659 net.cpp:100] Creating Layer conv6/dw/bn
I1209 18:35:27.761425  3659 net.cpp:434] conv6/dw/bn <- conv6/dw
I1209 18:35:27.761430  3659 net.cpp:395] conv6/dw/bn -> conv6/dw (in-place)
I1209 18:35:27.761554  3659 net.cpp:150] Setting up conv6/dw/bn
I1209 18:35:27.761559  3659 net.cpp:157] Top shape: 2 1024 10 16 (327680)
I1209 18:35:27.761561  3659 net.cpp:165] Memory required for data: 528408160
I1209 18:35:27.761565  3659 layer_factory.hpp:77] Creating layer conv6/dw/scale
I1209 18:35:27.761571  3659 net.cpp:100] Creating Layer conv6/dw/scale
I1209 18:35:27.761575  3659 net.cpp:434] conv6/dw/scale <- conv6/dw
I1209 18:35:27.761579  3659 net.cpp:395] conv6/dw/scale -> conv6/dw (in-place)
I1209 18:35:27.761606  3659 layer_factory.hpp:77] Creating layer conv6/dw/scale
I1209 18:35:27.761682  3659 net.cpp:150] Setting up conv6/dw/scale
I1209 18:35:27.761687  3659 net.cpp:157] Top shape: 2 1024 10 16 (327680)
I1209 18:35:27.761690  3659 net.cpp:165] Memory required for data: 529718880
I1209 18:35:27.761695  3659 layer_factory.hpp:77] Creating layer relu6/dw
I1209 18:35:27.761698  3659 net.cpp:100] Creating Layer relu6/dw
I1209 18:35:27.761701  3659 net.cpp:434] relu6/dw <- conv6/dw
I1209 18:35:27.761705  3659 net.cpp:395] relu6/dw -> conv6/dw (in-place)
I1209 18:35:27.762027  3659 net.cpp:150] Setting up relu6/dw
I1209 18:35:27.762033  3659 net.cpp:157] Top shape: 2 1024 10 16 (327680)
I1209 18:35:27.762037  3659 net.cpp:165] Memory required for data: 531029600
I1209 18:35:27.762040  3659 layer_factory.hpp:77] Creating layer conv6/sep
I1209 18:35:27.762046  3659 net.cpp:100] Creating Layer conv6/sep
I1209 18:35:27.762049  3659 net.cpp:434] conv6/sep <- conv6/dw
I1209 18:35:27.762054  3659 net.cpp:408] conv6/sep -> conv6/sep
I1209 18:35:27.770102  3659 net.cpp:150] Setting up conv6/sep
I1209 18:35:27.770115  3659 net.cpp:157] Top shape: 2 1024 10 16 (327680)
I1209 18:35:27.770131  3659 net.cpp:165] Memory required for data: 532340320
I1209 18:35:27.770139  3659 layer_factory.hpp:77] Creating layer conv6/sep/bn
I1209 18:35:27.770148  3659 net.cpp:100] Creating Layer conv6/sep/bn
I1209 18:35:27.770153  3659 net.cpp:434] conv6/sep/bn <- conv6/sep
I1209 18:35:27.770159  3659 net.cpp:395] conv6/sep/bn -> conv6/sep (in-place)
I1209 18:35:27.770295  3659 net.cpp:150] Setting up conv6/sep/bn
I1209 18:35:27.770299  3659 net.cpp:157] Top shape: 2 1024 10 16 (327680)
I1209 18:35:27.770303  3659 net.cpp:165] Memory required for data: 533651040
I1209 18:35:27.770309  3659 layer_factory.hpp:77] Creating layer conv6/sep/scale
I1209 18:35:27.770316  3659 net.cpp:100] Creating Layer conv6/sep/scale
I1209 18:35:27.770318  3659 net.cpp:434] conv6/sep/scale <- conv6/sep
I1209 18:35:27.770321  3659 net.cpp:395] conv6/sep/scale -> conv6/sep (in-place)
I1209 18:35:27.770352  3659 layer_factory.hpp:77] Creating layer conv6/sep/scale
I1209 18:35:27.770428  3659 net.cpp:150] Setting up conv6/sep/scale
I1209 18:35:27.770433  3659 net.cpp:157] Top shape: 2 1024 10 16 (327680)
I1209 18:35:27.770437  3659 net.cpp:165] Memory required for data: 534961760
I1209 18:35:27.770442  3659 layer_factory.hpp:77] Creating layer relu6/sep
I1209 18:35:27.770445  3659 net.cpp:100] Creating Layer relu6/sep
I1209 18:35:27.770448  3659 net.cpp:434] relu6/sep <- conv6/sep
I1209 18:35:27.770452  3659 net.cpp:395] relu6/sep -> conv6/sep (in-place)
I1209 18:35:27.770968  3659 net.cpp:150] Setting up relu6/sep
I1209 18:35:27.770977  3659 net.cpp:157] Top shape: 2 1024 10 16 (327680)
I1209 18:35:27.770979  3659 net.cpp:165] Memory required for data: 536272480
I1209 18:35:27.770983  3659 layer_factory.hpp:77] Creating layer conv6/sep_relu6/sep_0_split
I1209 18:35:27.770997  3659 net.cpp:100] Creating Layer conv6/sep_relu6/sep_0_split
I1209 18:35:27.771003  3659 net.cpp:434] conv6/sep_relu6/sep_0_split <- conv6/sep
I1209 18:35:27.771009  3659 net.cpp:408] conv6/sep_relu6/sep_0_split -> conv6/sep_relu6/sep_0_split_0
I1209 18:35:27.771015  3659 net.cpp:408] conv6/sep_relu6/sep_0_split -> conv6/sep_relu6/sep_0_split_1
I1209 18:35:27.771021  3659 net.cpp:408] conv6/sep_relu6/sep_0_split -> conv6/sep_relu6/sep_0_split_2
I1209 18:35:27.771026  3659 net.cpp:408] conv6/sep_relu6/sep_0_split -> conv6/sep_relu6/sep_0_split_3
I1209 18:35:27.771075  3659 net.cpp:150] Setting up conv6/sep_relu6/sep_0_split
I1209 18:35:27.771080  3659 net.cpp:157] Top shape: 2 1024 10 16 (327680)
I1209 18:35:27.771083  3659 net.cpp:157] Top shape: 2 1024 10 16 (327680)
I1209 18:35:27.771088  3659 net.cpp:157] Top shape: 2 1024 10 16 (327680)
I1209 18:35:27.771092  3659 net.cpp:157] Top shape: 2 1024 10 16 (327680)
I1209 18:35:27.771095  3659 net.cpp:165] Memory required for data: 541515360
I1209 18:35:27.771098  3659 layer_factory.hpp:77] Creating layer ssd1_1
I1209 18:35:27.771107  3659 net.cpp:100] Creating Layer ssd1_1
I1209 18:35:27.771111  3659 net.cpp:434] ssd1_1 <- conv6/sep_relu6/sep_0_split_0
I1209 18:35:27.771116  3659 net.cpp:408] ssd1_1 -> ssd1_1
I1209 18:35:27.773787  3659 net.cpp:150] Setting up ssd1_1
I1209 18:35:27.773794  3659 net.cpp:157] Top shape: 2 256 10 16 (81920)
I1209 18:35:27.773797  3659 net.cpp:165] Memory required for data: 541843040
I1209 18:35:27.773802  3659 layer_factory.hpp:77] Creating layer ssd1_1_relu
I1209 18:35:27.773805  3659 net.cpp:100] Creating Layer ssd1_1_relu
I1209 18:35:27.773808  3659 net.cpp:434] ssd1_1_relu <- ssd1_1
I1209 18:35:27.773813  3659 net.cpp:395] ssd1_1_relu -> ssd1_1 (in-place)
I1209 18:35:27.774142  3659 net.cpp:150] Setting up ssd1_1_relu
I1209 18:35:27.774148  3659 net.cpp:157] Top shape: 2 256 10 16 (81920)
I1209 18:35:27.774152  3659 net.cpp:165] Memory required for data: 542170720
I1209 18:35:27.774157  3659 layer_factory.hpp:77] Creating layer ssd1_2
I1209 18:35:27.774164  3659 net.cpp:100] Creating Layer ssd1_2
I1209 18:35:27.774168  3659 net.cpp:434] ssd1_2 <- ssd1_1
I1209 18:35:27.774173  3659 net.cpp:408] ssd1_2 -> ssd1_2
I1209 18:35:27.780501  3659 net.cpp:150] Setting up ssd1_2
I1209 18:35:27.780529  3659 net.cpp:157] Top shape: 2 512 5 8 (40960)
I1209 18:35:27.780530  3659 net.cpp:165] Memory required for data: 542334560
I1209 18:35:27.780537  3659 layer_factory.hpp:77] Creating layer ssd1_2_relu
I1209 18:35:27.780546  3659 net.cpp:100] Creating Layer ssd1_2_relu
I1209 18:35:27.780551  3659 net.cpp:434] ssd1_2_relu <- ssd1_2
I1209 18:35:27.780556  3659 net.cpp:395] ssd1_2_relu -> ssd1_2 (in-place)
I1209 18:35:27.780900  3659 net.cpp:150] Setting up ssd1_2_relu
I1209 18:35:27.780907  3659 net.cpp:157] Top shape: 2 512 5 8 (40960)
I1209 18:35:27.780911  3659 net.cpp:165] Memory required for data: 542498400
I1209 18:35:27.780913  3659 layer_factory.hpp:77] Creating layer ssd1_2_ssd1_2_relu_0_split
I1209 18:35:27.780920  3659 net.cpp:100] Creating Layer ssd1_2_ssd1_2_relu_0_split
I1209 18:35:27.780923  3659 net.cpp:434] ssd1_2_ssd1_2_relu_0_split <- ssd1_2
I1209 18:35:27.780928  3659 net.cpp:408] ssd1_2_ssd1_2_relu_0_split -> ssd1_2_ssd1_2_relu_0_split_0
I1209 18:35:27.780933  3659 net.cpp:408] ssd1_2_ssd1_2_relu_0_split -> ssd1_2_ssd1_2_relu_0_split_1
I1209 18:35:27.780937  3659 net.cpp:408] ssd1_2_ssd1_2_relu_0_split -> ssd1_2_ssd1_2_relu_0_split_2
I1209 18:35:27.780943  3659 net.cpp:408] ssd1_2_ssd1_2_relu_0_split -> ssd1_2_ssd1_2_relu_0_split_3
I1209 18:35:27.780990  3659 net.cpp:150] Setting up ssd1_2_ssd1_2_relu_0_split
I1209 18:35:27.780994  3659 net.cpp:157] Top shape: 2 512 5 8 (40960)
I1209 18:35:27.780997  3659 net.cpp:157] Top shape: 2 512 5 8 (40960)
I1209 18:35:27.781000  3659 net.cpp:157] Top shape: 2 512 5 8 (40960)
I1209 18:35:27.781003  3659 net.cpp:157] Top shape: 2 512 5 8 (40960)
I1209 18:35:27.781006  3659 net.cpp:165] Memory required for data: 543153760
I1209 18:35:27.781008  3659 layer_factory.hpp:77] Creating layer ssd2_1
I1209 18:35:27.781016  3659 net.cpp:100] Creating Layer ssd2_1
I1209 18:35:27.781019  3659 net.cpp:434] ssd2_1 <- ssd1_2_ssd1_2_relu_0_split_0
I1209 18:35:27.781023  3659 net.cpp:408] ssd2_1 -> ssd2_1
I1209 18:35:27.782575  3659 net.cpp:150] Setting up ssd2_1
I1209 18:35:27.782583  3659 net.cpp:157] Top shape: 2 128 5 8 (10240)
I1209 18:35:27.782585  3659 net.cpp:165] Memory required for data: 543194720
I1209 18:35:27.782590  3659 layer_factory.hpp:77] Creating layer ssd2_1_relu
I1209 18:35:27.782593  3659 net.cpp:100] Creating Layer ssd2_1_relu
I1209 18:35:27.782596  3659 net.cpp:434] ssd2_1_relu <- ssd2_1
I1209 18:35:27.782600  3659 net.cpp:395] ssd2_1_relu -> ssd2_1 (in-place)
I1209 18:35:27.783124  3659 net.cpp:150] Setting up ssd2_1_relu
I1209 18:35:27.783131  3659 net.cpp:157] Top shape: 2 128 5 8 (10240)
I1209 18:35:27.783134  3659 net.cpp:165] Memory required for data: 543235680
I1209 18:35:27.783136  3659 layer_factory.hpp:77] Creating layer ssd2_2
I1209 18:35:27.783143  3659 net.cpp:100] Creating Layer ssd2_2
I1209 18:35:27.783146  3659 net.cpp:434] ssd2_2 <- ssd2_1
I1209 18:35:27.783150  3659 net.cpp:408] ssd2_2 -> ssd2_2
I1209 18:35:27.785931  3659 net.cpp:150] Setting up ssd2_2
I1209 18:35:27.785940  3659 net.cpp:157] Top shape: 2 256 3 4 (6144)
I1209 18:35:27.785943  3659 net.cpp:165] Memory required for data: 543260256
I1209 18:35:27.785951  3659 layer_factory.hpp:77] Creating layer ssd2_2_relu
I1209 18:35:27.785957  3659 net.cpp:100] Creating Layer ssd2_2_relu
I1209 18:35:27.785961  3659 net.cpp:434] ssd2_2_relu <- ssd2_2
I1209 18:35:27.785966  3659 net.cpp:395] ssd2_2_relu -> ssd2_2 (in-place)
I1209 18:35:27.786481  3659 net.cpp:150] Setting up ssd2_2_relu
I1209 18:35:27.786489  3659 net.cpp:157] Top shape: 2 256 3 4 (6144)
I1209 18:35:27.786492  3659 net.cpp:165] Memory required for data: 543284832
I1209 18:35:27.786496  3659 layer_factory.hpp:77] Creating layer ssd2_2_ssd2_2_relu_0_split
I1209 18:35:27.786504  3659 net.cpp:100] Creating Layer ssd2_2_ssd2_2_relu_0_split
I1209 18:35:27.786507  3659 net.cpp:434] ssd2_2_ssd2_2_relu_0_split <- ssd2_2
I1209 18:35:27.786511  3659 net.cpp:408] ssd2_2_ssd2_2_relu_0_split -> ssd2_2_ssd2_2_relu_0_split_0
I1209 18:35:27.786517  3659 net.cpp:408] ssd2_2_ssd2_2_relu_0_split -> ssd2_2_ssd2_2_relu_0_split_1
I1209 18:35:27.786530  3659 net.cpp:408] ssd2_2_ssd2_2_relu_0_split -> ssd2_2_ssd2_2_relu_0_split_2
I1209 18:35:27.786535  3659 net.cpp:408] ssd2_2_ssd2_2_relu_0_split -> ssd2_2_ssd2_2_relu_0_split_3
I1209 18:35:27.786581  3659 net.cpp:150] Setting up ssd2_2_ssd2_2_relu_0_split
I1209 18:35:27.786584  3659 net.cpp:157] Top shape: 2 256 3 4 (6144)
I1209 18:35:27.786587  3659 net.cpp:157] Top shape: 2 256 3 4 (6144)
I1209 18:35:27.786589  3659 net.cpp:157] Top shape: 2 256 3 4 (6144)
I1209 18:35:27.786592  3659 net.cpp:157] Top shape: 2 256 3 4 (6144)
I1209 18:35:27.786594  3659 net.cpp:165] Memory required for data: 543383136
I1209 18:35:27.786597  3659 layer_factory.hpp:77] Creating layer ssd3_1
I1209 18:35:27.786603  3659 net.cpp:100] Creating Layer ssd3_1
I1209 18:35:27.786605  3659 net.cpp:434] ssd3_1 <- ssd2_2_ssd2_2_relu_0_split_0
I1209 18:35:27.786610  3659 net.cpp:408] ssd3_1 -> ssd3_1
I1209 18:35:27.788589  3659 net.cpp:150] Setting up ssd3_1
I1209 18:35:27.788597  3659 net.cpp:157] Top shape: 2 128 3 4 (3072)
I1209 18:35:27.788599  3659 net.cpp:165] Memory required for data: 543395424
I1209 18:35:27.788604  3659 layer_factory.hpp:77] Creating layer ssd3_1_relu
I1209 18:35:27.788609  3659 net.cpp:100] Creating Layer ssd3_1_relu
I1209 18:35:27.788612  3659 net.cpp:434] ssd3_1_relu <- ssd3_1
I1209 18:35:27.788616  3659 net.cpp:395] ssd3_1_relu -> ssd3_1 (in-place)
I1209 18:35:27.788949  3659 net.cpp:150] Setting up ssd3_1_relu
I1209 18:35:27.788956  3659 net.cpp:157] Top shape: 2 128 3 4 (3072)
I1209 18:35:27.788960  3659 net.cpp:165] Memory required for data: 543407712
I1209 18:35:27.788962  3659 layer_factory.hpp:77] Creating layer ssd3_2
I1209 18:35:27.788969  3659 net.cpp:100] Creating Layer ssd3_2
I1209 18:35:27.788974  3659 net.cpp:434] ssd3_2 <- ssd3_1
I1209 18:35:27.788977  3659 net.cpp:408] ssd3_2 -> ssd3_2
I1209 18:35:27.791941  3659 net.cpp:150] Setting up ssd3_2
I1209 18:35:27.791951  3659 net.cpp:157] Top shape: 2 256 2 2 (2048)
I1209 18:35:27.791954  3659 net.cpp:165] Memory required for data: 543415904
I1209 18:35:27.791959  3659 layer_factory.hpp:77] Creating layer ssd3_2_relu
I1209 18:35:27.791962  3659 net.cpp:100] Creating Layer ssd3_2_relu
I1209 18:35:27.791965  3659 net.cpp:434] ssd3_2_relu <- ssd3_2
I1209 18:35:27.791970  3659 net.cpp:395] ssd3_2_relu -> ssd3_2 (in-place)
I1209 18:35:27.792299  3659 net.cpp:150] Setting up ssd3_2_relu
I1209 18:35:27.792305  3659 net.cpp:157] Top shape: 2 256 2 2 (2048)
I1209 18:35:27.792307  3659 net.cpp:165] Memory required for data: 543424096
I1209 18:35:27.792310  3659 layer_factory.hpp:77] Creating layer ssd3_2_ssd3_2_relu_0_split
I1209 18:35:27.792315  3659 net.cpp:100] Creating Layer ssd3_2_ssd3_2_relu_0_split
I1209 18:35:27.792317  3659 net.cpp:434] ssd3_2_ssd3_2_relu_0_split <- ssd3_2
I1209 18:35:27.792321  3659 net.cpp:408] ssd3_2_ssd3_2_relu_0_split -> ssd3_2_ssd3_2_relu_0_split_0
I1209 18:35:27.792326  3659 net.cpp:408] ssd3_2_ssd3_2_relu_0_split -> ssd3_2_ssd3_2_relu_0_split_1
I1209 18:35:27.792331  3659 net.cpp:408] ssd3_2_ssd3_2_relu_0_split -> ssd3_2_ssd3_2_relu_0_split_2
I1209 18:35:27.792337  3659 net.cpp:408] ssd3_2_ssd3_2_relu_0_split -> ssd3_2_ssd3_2_relu_0_split_3
I1209 18:35:27.792385  3659 net.cpp:150] Setting up ssd3_2_ssd3_2_relu_0_split
I1209 18:35:27.792390  3659 net.cpp:157] Top shape: 2 256 2 2 (2048)
I1209 18:35:27.792395  3659 net.cpp:157] Top shape: 2 256 2 2 (2048)
I1209 18:35:27.792399  3659 net.cpp:157] Top shape: 2 256 2 2 (2048)
I1209 18:35:27.792403  3659 net.cpp:157] Top shape: 2 256 2 2 (2048)
I1209 18:35:27.792407  3659 net.cpp:165] Memory required for data: 543456864
I1209 18:35:27.792409  3659 layer_factory.hpp:77] Creating layer ssd4_1
I1209 18:35:27.792418  3659 net.cpp:100] Creating Layer ssd4_1
I1209 18:35:27.792421  3659 net.cpp:434] ssd4_1 <- ssd3_2_ssd3_2_relu_0_split_0
I1209 18:35:27.792428  3659 net.cpp:408] ssd4_1 -> ssd4_1
I1209 18:35:27.793897  3659 net.cpp:150] Setting up ssd4_1
I1209 18:35:27.793905  3659 net.cpp:157] Top shape: 2 128 2 2 (1024)
I1209 18:35:27.793910  3659 net.cpp:165] Memory required for data: 543460960
I1209 18:35:27.793926  3659 layer_factory.hpp:77] Creating layer ssd4_1_relu
I1209 18:35:27.793941  3659 net.cpp:100] Creating Layer ssd4_1_relu
I1209 18:35:27.793943  3659 net.cpp:434] ssd4_1_relu <- ssd4_1
I1209 18:35:27.793948  3659 net.cpp:395] ssd4_1_relu -> ssd4_1 (in-place)
I1209 18:35:27.794467  3659 net.cpp:150] Setting up ssd4_1_relu
I1209 18:35:27.794474  3659 net.cpp:157] Top shape: 2 128 2 2 (1024)
I1209 18:35:27.794476  3659 net.cpp:165] Memory required for data: 543465056
I1209 18:35:27.794479  3659 layer_factory.hpp:77] Creating layer ssd4_2
I1209 18:35:27.794486  3659 net.cpp:100] Creating Layer ssd4_2
I1209 18:35:27.794488  3659 net.cpp:434] ssd4_2 <- ssd4_1
I1209 18:35:27.794493  3659 net.cpp:408] ssd4_2 -> ssd4_2
I1209 18:35:27.797392  3659 net.cpp:150] Setting up ssd4_2
I1209 18:35:27.797403  3659 net.cpp:157] Top shape: 2 256 1 1 (512)
I1209 18:35:27.797405  3659 net.cpp:165] Memory required for data: 543467104
I1209 18:35:27.797410  3659 layer_factory.hpp:77] Creating layer ssd4_2_relu
I1209 18:35:27.797415  3659 net.cpp:100] Creating Layer ssd4_2_relu
I1209 18:35:27.797417  3659 net.cpp:434] ssd4_2_relu <- ssd4_2
I1209 18:35:27.797421  3659 net.cpp:395] ssd4_2_relu -> ssd4_2 (in-place)
I1209 18:35:27.797749  3659 net.cpp:150] Setting up ssd4_2_relu
I1209 18:35:27.797755  3659 net.cpp:157] Top shape: 2 256 1 1 (512)
I1209 18:35:27.797756  3659 net.cpp:165] Memory required for data: 543469152
I1209 18:35:27.797758  3659 layer_factory.hpp:77] Creating layer ssd4_2_ssd4_2_relu_0_split
I1209 18:35:27.797762  3659 net.cpp:100] Creating Layer ssd4_2_ssd4_2_relu_0_split
I1209 18:35:27.797765  3659 net.cpp:434] ssd4_2_ssd4_2_relu_0_split <- ssd4_2
I1209 18:35:27.797770  3659 net.cpp:408] ssd4_2_ssd4_2_relu_0_split -> ssd4_2_ssd4_2_relu_0_split_0
I1209 18:35:27.797781  3659 net.cpp:408] ssd4_2_ssd4_2_relu_0_split -> ssd4_2_ssd4_2_relu_0_split_1
I1209 18:35:27.797785  3659 net.cpp:408] ssd4_2_ssd4_2_relu_0_split -> ssd4_2_ssd4_2_relu_0_split_2
I1209 18:35:27.797824  3659 net.cpp:150] Setting up ssd4_2_ssd4_2_relu_0_split
I1209 18:35:27.797829  3659 net.cpp:157] Top shape: 2 256 1 1 (512)
I1209 18:35:27.797832  3659 net.cpp:157] Top shape: 2 256 1 1 (512)
I1209 18:35:27.797835  3659 net.cpp:157] Top shape: 2 256 1 1 (512)
I1209 18:35:27.797837  3659 net.cpp:165] Memory required for data: 543475296
I1209 18:35:27.797839  3659 layer_factory.hpp:77] Creating layer conv5_5/sep_mbox_loc
I1209 18:35:27.797847  3659 net.cpp:100] Creating Layer conv5_5/sep_mbox_loc
I1209 18:35:27.797849  3659 net.cpp:434] conv5_5/sep_mbox_loc <- conv5_5/sep_relu5_5/sep_0_split_1
I1209 18:35:27.797853  3659 net.cpp:408] conv5_5/sep_mbox_loc -> conv5_5/sep_mbox_loc
I1209 18:35:27.799723  3659 net.cpp:150] Setting up conv5_5/sep_mbox_loc
I1209 18:35:27.799731  3659 net.cpp:157] Top shape: 2 8 19 32 (9728)
I1209 18:35:27.799733  3659 net.cpp:165] Memory required for data: 543514208
I1209 18:35:27.799737  3659 layer_factory.hpp:77] Creating layer conv5_5/sep_mbox_loc_perm
I1209 18:35:27.799743  3659 net.cpp:100] Creating Layer conv5_5/sep_mbox_loc_perm
I1209 18:35:27.799746  3659 net.cpp:434] conv5_5/sep_mbox_loc_perm <- conv5_5/sep_mbox_loc
I1209 18:35:27.799751  3659 net.cpp:408] conv5_5/sep_mbox_loc_perm -> conv5_5/sep_mbox_loc_perm
I1209 18:35:27.799829  3659 net.cpp:150] Setting up conv5_5/sep_mbox_loc_perm
I1209 18:35:27.799834  3659 net.cpp:157] Top shape: 2 19 32 8 (9728)
I1209 18:35:27.799836  3659 net.cpp:165] Memory required for data: 543553120
I1209 18:35:27.799839  3659 layer_factory.hpp:77] Creating layer conv5_5/sep_mbox_loc_flat
I1209 18:35:27.799841  3659 net.cpp:100] Creating Layer conv5_5/sep_mbox_loc_flat
I1209 18:35:27.799844  3659 net.cpp:434] conv5_5/sep_mbox_loc_flat <- conv5_5/sep_mbox_loc_perm
I1209 18:35:27.799849  3659 net.cpp:408] conv5_5/sep_mbox_loc_flat -> conv5_5/sep_mbox_loc_flat
I1209 18:35:27.799866  3659 net.cpp:150] Setting up conv5_5/sep_mbox_loc_flat
I1209 18:35:27.799870  3659 net.cpp:157] Top shape: 2 4864 (9728)
I1209 18:35:27.799872  3659 net.cpp:165] Memory required for data: 543592032
I1209 18:35:27.799885  3659 layer_factory.hpp:77] Creating layer conv5_5/sep_mbox_conf
I1209 18:35:27.799893  3659 net.cpp:100] Creating Layer conv5_5/sep_mbox_conf
I1209 18:35:27.799896  3659 net.cpp:434] conv5_5/sep_mbox_conf <- conv5_5/sep_relu5_5/sep_0_split_2
I1209 18:35:27.799903  3659 net.cpp:408] conv5_5/sep_mbox_conf -> conv5_5/sep_mbox_conf
I1209 18:35:27.801622  3659 net.cpp:150] Setting up conv5_5/sep_mbox_conf
I1209 18:35:27.801630  3659 net.cpp:157] Top shape: 2 10 19 32 (12160)
I1209 18:35:27.801633  3659 net.cpp:165] Memory required for data: 543640672
I1209 18:35:27.801641  3659 layer_factory.hpp:77] Creating layer conv5_5/sep_mbox_conf_perm
I1209 18:35:27.801648  3659 net.cpp:100] Creating Layer conv5_5/sep_mbox_conf_perm
I1209 18:35:27.801652  3659 net.cpp:434] conv5_5/sep_mbox_conf_perm <- conv5_5/sep_mbox_conf
I1209 18:35:27.801658  3659 net.cpp:408] conv5_5/sep_mbox_conf_perm -> conv5_5/sep_mbox_conf_perm
I1209 18:35:27.801736  3659 net.cpp:150] Setting up conv5_5/sep_mbox_conf_perm
I1209 18:35:27.801740  3659 net.cpp:157] Top shape: 2 19 32 10 (12160)
I1209 18:35:27.801744  3659 net.cpp:165] Memory required for data: 543689312
I1209 18:35:27.801746  3659 layer_factory.hpp:77] Creating layer conv5_5/sep_mbox_conf_flat
I1209 18:35:27.801753  3659 net.cpp:100] Creating Layer conv5_5/sep_mbox_conf_flat
I1209 18:35:27.801755  3659 net.cpp:434] conv5_5/sep_mbox_conf_flat <- conv5_5/sep_mbox_conf_perm
I1209 18:35:27.801760  3659 net.cpp:408] conv5_5/sep_mbox_conf_flat -> conv5_5/sep_mbox_conf_flat
I1209 18:35:27.801779  3659 net.cpp:150] Setting up conv5_5/sep_mbox_conf_flat
I1209 18:35:27.801782  3659 net.cpp:157] Top shape: 2 6080 (12160)
I1209 18:35:27.801785  3659 net.cpp:165] Memory required for data: 543737952
I1209 18:35:27.801789  3659 layer_factory.hpp:77] Creating layer conv5_5/sep_mbox_priorbox
I1209 18:35:27.801795  3659 net.cpp:100] Creating Layer conv5_5/sep_mbox_priorbox
I1209 18:35:27.801798  3659 net.cpp:434] conv5_5/sep_mbox_priorbox <- conv5_5/sep_relu5_5/sep_0_split_3
I1209 18:35:27.801802  3659 net.cpp:434] conv5_5/sep_mbox_priorbox <- data_data_0_split_1
I1209 18:35:27.801807  3659 net.cpp:408] conv5_5/sep_mbox_priorbox -> conv5_5/sep_mbox_priorbox
I1209 18:35:27.801826  3659 net.cpp:150] Setting up conv5_5/sep_mbox_priorbox
I1209 18:35:27.801831  3659 net.cpp:157] Top shape: 1 2 4864 (9728)
I1209 18:35:27.801832  3659 net.cpp:165] Memory required for data: 543776864
I1209 18:35:27.801834  3659 layer_factory.hpp:77] Creating layer conv6/sep_mbox_loc
I1209 18:35:27.801841  3659 net.cpp:100] Creating Layer conv6/sep_mbox_loc
I1209 18:35:27.801844  3659 net.cpp:434] conv6/sep_mbox_loc <- conv6/sep_relu6/sep_0_split_1
I1209 18:35:27.801851  3659 net.cpp:408] conv6/sep_mbox_loc -> conv6/sep_mbox_loc
I1209 18:35:27.803649  3659 net.cpp:150] Setting up conv6/sep_mbox_loc
I1209 18:35:27.803658  3659 net.cpp:157] Top shape: 2 8 10 16 (2560)
I1209 18:35:27.803661  3659 net.cpp:165] Memory required for data: 543787104
I1209 18:35:27.803668  3659 layer_factory.hpp:77] Creating layer conv6/sep_mbox_loc_perm
I1209 18:35:27.803674  3659 net.cpp:100] Creating Layer conv6/sep_mbox_loc_perm
I1209 18:35:27.803678  3659 net.cpp:434] conv6/sep_mbox_loc_perm <- conv6/sep_mbox_loc
I1209 18:35:27.803684  3659 net.cpp:408] conv6/sep_mbox_loc_perm -> conv6/sep_mbox_loc_perm
I1209 18:35:27.803764  3659 net.cpp:150] Setting up conv6/sep_mbox_loc_perm
I1209 18:35:27.803769  3659 net.cpp:157] Top shape: 2 10 16 8 (2560)
I1209 18:35:27.803772  3659 net.cpp:165] Memory required for data: 543797344
I1209 18:35:27.803776  3659 layer_factory.hpp:77] Creating layer conv6/sep_mbox_loc_flat
I1209 18:35:27.803781  3659 net.cpp:100] Creating Layer conv6/sep_mbox_loc_flat
I1209 18:35:27.803786  3659 net.cpp:434] conv6/sep_mbox_loc_flat <- conv6/sep_mbox_loc_perm
I1209 18:35:27.803791  3659 net.cpp:408] conv6/sep_mbox_loc_flat -> conv6/sep_mbox_loc_flat
I1209 18:35:27.803810  3659 net.cpp:150] Setting up conv6/sep_mbox_loc_flat
I1209 18:35:27.803815  3659 net.cpp:157] Top shape: 2 1280 (2560)
I1209 18:35:27.803825  3659 net.cpp:165] Memory required for data: 543807584
I1209 18:35:27.803828  3659 layer_factory.hpp:77] Creating layer conv6/sep_mbox_conf
I1209 18:35:27.803835  3659 net.cpp:100] Creating Layer conv6/sep_mbox_conf
I1209 18:35:27.803839  3659 net.cpp:434] conv6/sep_mbox_conf <- conv6/sep_relu6/sep_0_split_2
I1209 18:35:27.803843  3659 net.cpp:408] conv6/sep_mbox_conf -> conv6/sep_mbox_conf
I1209 18:35:27.805869  3659 net.cpp:150] Setting up conv6/sep_mbox_conf
I1209 18:35:27.805876  3659 net.cpp:157] Top shape: 2 10 10 16 (3200)
I1209 18:35:27.805879  3659 net.cpp:165] Memory required for data: 543820384
I1209 18:35:27.805883  3659 layer_factory.hpp:77] Creating layer conv6/sep_mbox_conf_perm
I1209 18:35:27.805888  3659 net.cpp:100] Creating Layer conv6/sep_mbox_conf_perm
I1209 18:35:27.805891  3659 net.cpp:434] conv6/sep_mbox_conf_perm <- conv6/sep_mbox_conf
I1209 18:35:27.805896  3659 net.cpp:408] conv6/sep_mbox_conf_perm -> conv6/sep_mbox_conf_perm
I1209 18:35:27.805976  3659 net.cpp:150] Setting up conv6/sep_mbox_conf_perm
I1209 18:35:27.805980  3659 net.cpp:157] Top shape: 2 10 16 10 (3200)
I1209 18:35:27.805984  3659 net.cpp:165] Memory required for data: 543833184
I1209 18:35:27.805989  3659 layer_factory.hpp:77] Creating layer conv6/sep_mbox_conf_flat
I1209 18:35:27.805994  3659 net.cpp:100] Creating Layer conv6/sep_mbox_conf_flat
I1209 18:35:27.805996  3659 net.cpp:434] conv6/sep_mbox_conf_flat <- conv6/sep_mbox_conf_perm
I1209 18:35:27.806000  3659 net.cpp:408] conv6/sep_mbox_conf_flat -> conv6/sep_mbox_conf_flat
I1209 18:35:27.806020  3659 net.cpp:150] Setting up conv6/sep_mbox_conf_flat
I1209 18:35:27.806023  3659 net.cpp:157] Top shape: 2 1600 (3200)
I1209 18:35:27.806026  3659 net.cpp:165] Memory required for data: 543845984
I1209 18:35:27.806030  3659 layer_factory.hpp:77] Creating layer conv6/sep_mbox_priorbox
I1209 18:35:27.806036  3659 net.cpp:100] Creating Layer conv6/sep_mbox_priorbox
I1209 18:35:27.806041  3659 net.cpp:434] conv6/sep_mbox_priorbox <- conv6/sep_relu6/sep_0_split_3
I1209 18:35:27.806046  3659 net.cpp:434] conv6/sep_mbox_priorbox <- data_data_0_split_2
I1209 18:35:27.806051  3659 net.cpp:408] conv6/sep_mbox_priorbox -> conv6/sep_mbox_priorbox
I1209 18:35:27.806071  3659 net.cpp:150] Setting up conv6/sep_mbox_priorbox
I1209 18:35:27.806074  3659 net.cpp:157] Top shape: 1 2 1280 (2560)
I1209 18:35:27.806077  3659 net.cpp:165] Memory required for data: 543856224
I1209 18:35:27.806080  3659 layer_factory.hpp:77] Creating layer ssd1_2_mbox_loc
I1209 18:35:27.806088  3659 net.cpp:100] Creating Layer ssd1_2_mbox_loc
I1209 18:35:27.806092  3659 net.cpp:434] ssd1_2_mbox_loc <- ssd1_2_ssd1_2_relu_0_split_1
I1209 18:35:27.806098  3659 net.cpp:408] ssd1_2_mbox_loc -> ssd1_2_mbox_loc
I1209 18:35:27.807804  3659 net.cpp:150] Setting up ssd1_2_mbox_loc
I1209 18:35:27.807812  3659 net.cpp:157] Top shape: 2 8 5 8 (640)
I1209 18:35:27.807816  3659 net.cpp:165] Memory required for data: 543858784
I1209 18:35:27.807823  3659 layer_factory.hpp:77] Creating layer ssd1_2_mbox_loc_perm
I1209 18:35:27.807829  3659 net.cpp:100] Creating Layer ssd1_2_mbox_loc_perm
I1209 18:35:27.807833  3659 net.cpp:434] ssd1_2_mbox_loc_perm <- ssd1_2_mbox_loc
I1209 18:35:27.807839  3659 net.cpp:408] ssd1_2_mbox_loc_perm -> ssd1_2_mbox_loc_perm
I1209 18:35:27.807920  3659 net.cpp:150] Setting up ssd1_2_mbox_loc_perm
I1209 18:35:27.807925  3659 net.cpp:157] Top shape: 2 5 8 8 (640)
I1209 18:35:27.807929  3659 net.cpp:165] Memory required for data: 543861344
I1209 18:35:27.807932  3659 layer_factory.hpp:77] Creating layer ssd1_2_mbox_loc_flat
I1209 18:35:27.807940  3659 net.cpp:100] Creating Layer ssd1_2_mbox_loc_flat
I1209 18:35:27.807942  3659 net.cpp:434] ssd1_2_mbox_loc_flat <- ssd1_2_mbox_loc_perm
I1209 18:35:27.807946  3659 net.cpp:408] ssd1_2_mbox_loc_flat -> ssd1_2_mbox_loc_flat
I1209 18:35:27.807965  3659 net.cpp:150] Setting up ssd1_2_mbox_loc_flat
I1209 18:35:27.807968  3659 net.cpp:157] Top shape: 2 320 (640)
I1209 18:35:27.807971  3659 net.cpp:165] Memory required for data: 543863904
I1209 18:35:27.807979  3659 layer_factory.hpp:77] Creating layer ssd1_2_mbox_conf
I1209 18:35:27.807986  3659 net.cpp:100] Creating Layer ssd1_2_mbox_conf
I1209 18:35:27.807988  3659 net.cpp:434] ssd1_2_mbox_conf <- ssd1_2_ssd1_2_relu_0_split_2
I1209 18:35:27.807992  3659 net.cpp:408] ssd1_2_mbox_conf -> ssd1_2_mbox_conf
I1209 18:35:27.809926  3659 net.cpp:150] Setting up ssd1_2_mbox_conf
I1209 18:35:27.809934  3659 net.cpp:157] Top shape: 2 10 5 8 (800)
I1209 18:35:27.809937  3659 net.cpp:165] Memory required for data: 543867104
I1209 18:35:27.809942  3659 layer_factory.hpp:77] Creating layer ssd1_2_mbox_conf_perm
I1209 18:35:27.809947  3659 net.cpp:100] Creating Layer ssd1_2_mbox_conf_perm
I1209 18:35:27.809950  3659 net.cpp:434] ssd1_2_mbox_conf_perm <- ssd1_2_mbox_conf
I1209 18:35:27.809955  3659 net.cpp:408] ssd1_2_mbox_conf_perm -> ssd1_2_mbox_conf_perm
I1209 18:35:27.810035  3659 net.cpp:150] Setting up ssd1_2_mbox_conf_perm
I1209 18:35:27.810039  3659 net.cpp:157] Top shape: 2 5 8 10 (800)
I1209 18:35:27.810041  3659 net.cpp:165] Memory required for data: 543870304
I1209 18:35:27.810043  3659 layer_factory.hpp:77] Creating layer ssd1_2_mbox_conf_flat
I1209 18:35:27.810046  3659 net.cpp:100] Creating Layer ssd1_2_mbox_conf_flat
I1209 18:35:27.810048  3659 net.cpp:434] ssd1_2_mbox_conf_flat <- ssd1_2_mbox_conf_perm
I1209 18:35:27.810052  3659 net.cpp:408] ssd1_2_mbox_conf_flat -> ssd1_2_mbox_conf_flat
I1209 18:35:27.810070  3659 net.cpp:150] Setting up ssd1_2_mbox_conf_flat
I1209 18:35:27.810075  3659 net.cpp:157] Top shape: 2 400 (800)
I1209 18:35:27.810077  3659 net.cpp:165] Memory required for data: 543873504
I1209 18:35:27.810082  3659 layer_factory.hpp:77] Creating layer ssd1_2_mbox_priorbox
I1209 18:35:27.810087  3659 net.cpp:100] Creating Layer ssd1_2_mbox_priorbox
I1209 18:35:27.810091  3659 net.cpp:434] ssd1_2_mbox_priorbox <- ssd1_2_ssd1_2_relu_0_split_3
I1209 18:35:27.810094  3659 net.cpp:434] ssd1_2_mbox_priorbox <- data_data_0_split_3
I1209 18:35:27.810101  3659 net.cpp:408] ssd1_2_mbox_priorbox -> ssd1_2_mbox_priorbox
I1209 18:35:27.810123  3659 net.cpp:150] Setting up ssd1_2_mbox_priorbox
I1209 18:35:27.810127  3659 net.cpp:157] Top shape: 1 2 320 (640)
I1209 18:35:27.810130  3659 net.cpp:165] Memory required for data: 543876064
I1209 18:35:27.810134  3659 layer_factory.hpp:77] Creating layer ssd2_2_mbox_loc
I1209 18:35:27.810143  3659 net.cpp:100] Creating Layer ssd2_2_mbox_loc
I1209 18:35:27.810147  3659 net.cpp:434] ssd2_2_mbox_loc <- ssd2_2_ssd2_2_relu_0_split_1
I1209 18:35:27.810153  3659 net.cpp:408] ssd2_2_mbox_loc -> ssd2_2_mbox_loc
I1209 18:35:27.811619  3659 net.cpp:150] Setting up ssd2_2_mbox_loc
I1209 18:35:27.811627  3659 net.cpp:157] Top shape: 2 8 3 4 (192)
I1209 18:35:27.811630  3659 net.cpp:165] Memory required for data: 543876832
I1209 18:35:27.811638  3659 layer_factory.hpp:77] Creating layer ssd2_2_mbox_loc_perm
I1209 18:35:27.811643  3659 net.cpp:100] Creating Layer ssd2_2_mbox_loc_perm
I1209 18:35:27.811647  3659 net.cpp:434] ssd2_2_mbox_loc_perm <- ssd2_2_mbox_loc
I1209 18:35:27.811655  3659 net.cpp:408] ssd2_2_mbox_loc_perm -> ssd2_2_mbox_loc_perm
I1209 18:35:27.811730  3659 net.cpp:150] Setting up ssd2_2_mbox_loc_perm
I1209 18:35:27.811735  3659 net.cpp:157] Top shape: 2 3 4 8 (192)
I1209 18:35:27.811739  3659 net.cpp:165] Memory required for data: 543877600
I1209 18:35:27.811741  3659 layer_factory.hpp:77] Creating layer ssd2_2_mbox_loc_flat
I1209 18:35:27.811746  3659 net.cpp:100] Creating Layer ssd2_2_mbox_loc_flat
I1209 18:35:27.811750  3659 net.cpp:434] ssd2_2_mbox_loc_flat <- ssd2_2_mbox_loc_perm
I1209 18:35:27.811755  3659 net.cpp:408] ssd2_2_mbox_loc_flat -> ssd2_2_mbox_loc_flat
I1209 18:35:27.811774  3659 net.cpp:150] Setting up ssd2_2_mbox_loc_flat
I1209 18:35:27.811777  3659 net.cpp:157] Top shape: 2 96 (192)
I1209 18:35:27.811781  3659 net.cpp:165] Memory required for data: 543878368
I1209 18:35:27.811784  3659 layer_factory.hpp:77] Creating layer ssd2_2_mbox_conf
I1209 18:35:27.811792  3659 net.cpp:100] Creating Layer ssd2_2_mbox_conf
I1209 18:35:27.811795  3659 net.cpp:434] ssd2_2_mbox_conf <- ssd2_2_ssd2_2_relu_0_split_2
I1209 18:35:27.811810  3659 net.cpp:408] ssd2_2_mbox_conf -> ssd2_2_mbox_conf
I1209 18:35:27.813462  3659 net.cpp:150] Setting up ssd2_2_mbox_conf
I1209 18:35:27.813469  3659 net.cpp:157] Top shape: 2 10 3 4 (240)
I1209 18:35:27.813472  3659 net.cpp:165] Memory required for data: 543879328
I1209 18:35:27.813479  3659 layer_factory.hpp:77] Creating layer ssd2_2_mbox_conf_perm
I1209 18:35:27.813484  3659 net.cpp:100] Creating Layer ssd2_2_mbox_conf_perm
I1209 18:35:27.813488  3659 net.cpp:434] ssd2_2_mbox_conf_perm <- ssd2_2_mbox_conf
I1209 18:35:27.813495  3659 net.cpp:408] ssd2_2_mbox_conf_perm -> ssd2_2_mbox_conf_perm
I1209 18:35:27.813572  3659 net.cpp:150] Setting up ssd2_2_mbox_conf_perm
I1209 18:35:27.813577  3659 net.cpp:157] Top shape: 2 3 4 10 (240)
I1209 18:35:27.813580  3659 net.cpp:165] Memory required for data: 543880288
I1209 18:35:27.813582  3659 layer_factory.hpp:77] Creating layer ssd2_2_mbox_conf_flat
I1209 18:35:27.813587  3659 net.cpp:100] Creating Layer ssd2_2_mbox_conf_flat
I1209 18:35:27.813591  3659 net.cpp:434] ssd2_2_mbox_conf_flat <- ssd2_2_mbox_conf_perm
I1209 18:35:27.813596  3659 net.cpp:408] ssd2_2_mbox_conf_flat -> ssd2_2_mbox_conf_flat
I1209 18:35:27.813614  3659 net.cpp:150] Setting up ssd2_2_mbox_conf_flat
I1209 18:35:27.813617  3659 net.cpp:157] Top shape: 2 120 (240)
I1209 18:35:27.813621  3659 net.cpp:165] Memory required for data: 543881248
I1209 18:35:27.813624  3659 layer_factory.hpp:77] Creating layer ssd2_2_mbox_priorbox
I1209 18:35:27.813628  3659 net.cpp:100] Creating Layer ssd2_2_mbox_priorbox
I1209 18:35:27.813632  3659 net.cpp:434] ssd2_2_mbox_priorbox <- ssd2_2_ssd2_2_relu_0_split_3
I1209 18:35:27.813637  3659 net.cpp:434] ssd2_2_mbox_priorbox <- data_data_0_split_4
I1209 18:35:27.813644  3659 net.cpp:408] ssd2_2_mbox_priorbox -> ssd2_2_mbox_priorbox
I1209 18:35:27.813664  3659 net.cpp:150] Setting up ssd2_2_mbox_priorbox
I1209 18:35:27.813668  3659 net.cpp:157] Top shape: 1 2 96 (192)
I1209 18:35:27.813673  3659 net.cpp:165] Memory required for data: 543882016
I1209 18:35:27.813674  3659 layer_factory.hpp:77] Creating layer ssd3_2_mbox_loc
I1209 18:35:27.813681  3659 net.cpp:100] Creating Layer ssd3_2_mbox_loc
I1209 18:35:27.813684  3659 net.cpp:434] ssd3_2_mbox_loc <- ssd3_2_ssd3_2_relu_0_split_1
I1209 18:35:27.813689  3659 net.cpp:408] ssd3_2_mbox_loc -> ssd3_2_mbox_loc
I1209 18:35:27.815142  3659 net.cpp:150] Setting up ssd3_2_mbox_loc
I1209 18:35:27.815150  3659 net.cpp:157] Top shape: 2 8 2 2 (64)
I1209 18:35:27.815153  3659 net.cpp:165] Memory required for data: 543882272
I1209 18:35:27.815160  3659 layer_factory.hpp:77] Creating layer ssd3_2_mbox_loc_perm
I1209 18:35:27.815165  3659 net.cpp:100] Creating Layer ssd3_2_mbox_loc_perm
I1209 18:35:27.815171  3659 net.cpp:434] ssd3_2_mbox_loc_perm <- ssd3_2_mbox_loc
I1209 18:35:27.815176  3659 net.cpp:408] ssd3_2_mbox_loc_perm -> ssd3_2_mbox_loc_perm
I1209 18:35:27.815253  3659 net.cpp:150] Setting up ssd3_2_mbox_loc_perm
I1209 18:35:27.815258  3659 net.cpp:157] Top shape: 2 2 2 8 (64)
I1209 18:35:27.815261  3659 net.cpp:165] Memory required for data: 543882528
I1209 18:35:27.815264  3659 layer_factory.hpp:77] Creating layer ssd3_2_mbox_loc_flat
I1209 18:35:27.815269  3659 net.cpp:100] Creating Layer ssd3_2_mbox_loc_flat
I1209 18:35:27.815271  3659 net.cpp:434] ssd3_2_mbox_loc_flat <- ssd3_2_mbox_loc_perm
I1209 18:35:27.815275  3659 net.cpp:408] ssd3_2_mbox_loc_flat -> ssd3_2_mbox_loc_flat
I1209 18:35:27.815292  3659 net.cpp:150] Setting up ssd3_2_mbox_loc_flat
I1209 18:35:27.815296  3659 net.cpp:157] Top shape: 2 32 (64)
I1209 18:35:27.815299  3659 net.cpp:165] Memory required for data: 543882784
I1209 18:35:27.815300  3659 layer_factory.hpp:77] Creating layer ssd3_2_mbox_conf
I1209 18:35:27.815305  3659 net.cpp:100] Creating Layer ssd3_2_mbox_conf
I1209 18:35:27.815309  3659 net.cpp:434] ssd3_2_mbox_conf <- ssd3_2_ssd3_2_relu_0_split_2
I1209 18:35:27.815313  3659 net.cpp:408] ssd3_2_mbox_conf -> ssd3_2_mbox_conf
I1209 18:35:27.816776  3659 net.cpp:150] Setting up ssd3_2_mbox_conf
I1209 18:35:27.816792  3659 net.cpp:157] Top shape: 2 10 2 2 (80)
I1209 18:35:27.816794  3659 net.cpp:165] Memory required for data: 543883104
I1209 18:35:27.816798  3659 layer_factory.hpp:77] Creating layer ssd3_2_mbox_conf_perm
I1209 18:35:27.816802  3659 net.cpp:100] Creating Layer ssd3_2_mbox_conf_perm
I1209 18:35:27.816805  3659 net.cpp:434] ssd3_2_mbox_conf_perm <- ssd3_2_mbox_conf
I1209 18:35:27.816810  3659 net.cpp:408] ssd3_2_mbox_conf_perm -> ssd3_2_mbox_conf_perm
I1209 18:35:27.816886  3659 net.cpp:150] Setting up ssd3_2_mbox_conf_perm
I1209 18:35:27.816890  3659 net.cpp:157] Top shape: 2 2 2 10 (80)
I1209 18:35:27.816892  3659 net.cpp:165] Memory required for data: 543883424
I1209 18:35:27.816895  3659 layer_factory.hpp:77] Creating layer ssd3_2_mbox_conf_flat
I1209 18:35:27.816897  3659 net.cpp:100] Creating Layer ssd3_2_mbox_conf_flat
I1209 18:35:27.816900  3659 net.cpp:434] ssd3_2_mbox_conf_flat <- ssd3_2_mbox_conf_perm
I1209 18:35:27.816903  3659 net.cpp:408] ssd3_2_mbox_conf_flat -> ssd3_2_mbox_conf_flat
I1209 18:35:27.816920  3659 net.cpp:150] Setting up ssd3_2_mbox_conf_flat
I1209 18:35:27.816925  3659 net.cpp:157] Top shape: 2 40 (80)
I1209 18:35:27.816926  3659 net.cpp:165] Memory required for data: 543883744
I1209 18:35:27.816928  3659 layer_factory.hpp:77] Creating layer ssd3_2_mbox_priorbox
I1209 18:35:27.816932  3659 net.cpp:100] Creating Layer ssd3_2_mbox_priorbox
I1209 18:35:27.816936  3659 net.cpp:434] ssd3_2_mbox_priorbox <- ssd3_2_ssd3_2_relu_0_split_3
I1209 18:35:27.816941  3659 net.cpp:434] ssd3_2_mbox_priorbox <- data_data_0_split_5
I1209 18:35:27.816944  3659 net.cpp:408] ssd3_2_mbox_priorbox -> ssd3_2_mbox_priorbox
I1209 18:35:27.816962  3659 net.cpp:150] Setting up ssd3_2_mbox_priorbox
I1209 18:35:27.816965  3659 net.cpp:157] Top shape: 1 2 32 (64)
I1209 18:35:27.816967  3659 net.cpp:165] Memory required for data: 543884000
I1209 18:35:27.816969  3659 layer_factory.hpp:77] Creating layer ssd4_2_mbox_loc
I1209 18:35:27.816975  3659 net.cpp:100] Creating Layer ssd4_2_mbox_loc
I1209 18:35:27.816978  3659 net.cpp:434] ssd4_2_mbox_loc <- ssd4_2_ssd4_2_relu_0_split_0
I1209 18:35:27.816982  3659 net.cpp:408] ssd4_2_mbox_loc -> ssd4_2_mbox_loc
I1209 18:35:27.818614  3659 net.cpp:150] Setting up ssd4_2_mbox_loc
I1209 18:35:27.818621  3659 net.cpp:157] Top shape: 2 8 1 1 (16)
I1209 18:35:27.818624  3659 net.cpp:165] Memory required for data: 543884064
I1209 18:35:27.818627  3659 layer_factory.hpp:77] Creating layer ssd4_2_mbox_loc_perm
I1209 18:35:27.818632  3659 net.cpp:100] Creating Layer ssd4_2_mbox_loc_perm
I1209 18:35:27.818635  3659 net.cpp:434] ssd4_2_mbox_loc_perm <- ssd4_2_mbox_loc
I1209 18:35:27.818639  3659 net.cpp:408] ssd4_2_mbox_loc_perm -> ssd4_2_mbox_loc_perm
I1209 18:35:27.818717  3659 net.cpp:150] Setting up ssd4_2_mbox_loc_perm
I1209 18:35:27.818722  3659 net.cpp:157] Top shape: 2 1 1 8 (16)
I1209 18:35:27.818725  3659 net.cpp:165] Memory required for data: 543884128
I1209 18:35:27.818728  3659 layer_factory.hpp:77] Creating layer ssd4_2_mbox_loc_flat
I1209 18:35:27.818733  3659 net.cpp:100] Creating Layer ssd4_2_mbox_loc_flat
I1209 18:35:27.818737  3659 net.cpp:434] ssd4_2_mbox_loc_flat <- ssd4_2_mbox_loc_perm
I1209 18:35:27.818742  3659 net.cpp:408] ssd4_2_mbox_loc_flat -> ssd4_2_mbox_loc_flat
I1209 18:35:27.818763  3659 net.cpp:150] Setting up ssd4_2_mbox_loc_flat
I1209 18:35:27.818766  3659 net.cpp:157] Top shape: 2 8 (16)
I1209 18:35:27.818769  3659 net.cpp:165] Memory required for data: 543884192
I1209 18:35:27.818773  3659 layer_factory.hpp:77] Creating layer ssd4_2_mbox_conf
I1209 18:35:27.818780  3659 net.cpp:100] Creating Layer ssd4_2_mbox_conf
I1209 18:35:27.818783  3659 net.cpp:434] ssd4_2_mbox_conf <- ssd4_2_ssd4_2_relu_0_split_1
I1209 18:35:27.818789  3659 net.cpp:408] ssd4_2_mbox_conf -> ssd4_2_mbox_conf
I1209 18:35:27.820263  3659 net.cpp:150] Setting up ssd4_2_mbox_conf
I1209 18:35:27.820271  3659 net.cpp:157] Top shape: 2 10 1 1 (20)
I1209 18:35:27.820273  3659 net.cpp:165] Memory required for data: 543884272
I1209 18:35:27.820277  3659 layer_factory.hpp:77] Creating layer ssd4_2_mbox_conf_perm
I1209 18:35:27.820289  3659 net.cpp:100] Creating Layer ssd4_2_mbox_conf_perm
I1209 18:35:27.820293  3659 net.cpp:434] ssd4_2_mbox_conf_perm <- ssd4_2_mbox_conf
I1209 18:35:27.820297  3659 net.cpp:408] ssd4_2_mbox_conf_perm -> ssd4_2_mbox_conf_perm
I1209 18:35:27.820375  3659 net.cpp:150] Setting up ssd4_2_mbox_conf_perm
I1209 18:35:27.820380  3659 net.cpp:157] Top shape: 2 1 1 10 (20)
I1209 18:35:27.820384  3659 net.cpp:165] Memory required for data: 543884352
I1209 18:35:27.820386  3659 layer_factory.hpp:77] Creating layer ssd4_2_mbox_conf_flat
I1209 18:35:27.820391  3659 net.cpp:100] Creating Layer ssd4_2_mbox_conf_flat
I1209 18:35:27.820394  3659 net.cpp:434] ssd4_2_mbox_conf_flat <- ssd4_2_mbox_conf_perm
I1209 18:35:27.820399  3659 net.cpp:408] ssd4_2_mbox_conf_flat -> ssd4_2_mbox_conf_flat
I1209 18:35:27.820417  3659 net.cpp:150] Setting up ssd4_2_mbox_conf_flat
I1209 18:35:27.820421  3659 net.cpp:157] Top shape: 2 10 (20)
I1209 18:35:27.820425  3659 net.cpp:165] Memory required for data: 543884432
I1209 18:35:27.820427  3659 layer_factory.hpp:77] Creating layer ssd4_2_mbox_priorbox
I1209 18:35:27.820433  3659 net.cpp:100] Creating Layer ssd4_2_mbox_priorbox
I1209 18:35:27.820436  3659 net.cpp:434] ssd4_2_mbox_priorbox <- ssd4_2_ssd4_2_relu_0_split_2
I1209 18:35:27.820441  3659 net.cpp:434] ssd4_2_mbox_priorbox <- data_data_0_split_6
I1209 18:35:27.820444  3659 net.cpp:408] ssd4_2_mbox_priorbox -> ssd4_2_mbox_priorbox
I1209 18:35:27.820461  3659 net.cpp:150] Setting up ssd4_2_mbox_priorbox
I1209 18:35:27.820466  3659 net.cpp:157] Top shape: 1 2 8 (16)
I1209 18:35:27.820467  3659 net.cpp:165] Memory required for data: 543884496
I1209 18:35:27.820469  3659 layer_factory.hpp:77] Creating layer mbox_loc
I1209 18:35:27.820474  3659 net.cpp:100] Creating Layer mbox_loc
I1209 18:35:27.820477  3659 net.cpp:434] mbox_loc <- conv5_5/sep_mbox_loc_flat
I1209 18:35:27.820480  3659 net.cpp:434] mbox_loc <- conv6/sep_mbox_loc_flat
I1209 18:35:27.820483  3659 net.cpp:434] mbox_loc <- ssd1_2_mbox_loc_flat
I1209 18:35:27.820487  3659 net.cpp:434] mbox_loc <- ssd2_2_mbox_loc_flat
I1209 18:35:27.820490  3659 net.cpp:434] mbox_loc <- ssd3_2_mbox_loc_flat
I1209 18:35:27.820495  3659 net.cpp:434] mbox_loc <- ssd4_2_mbox_loc_flat
I1209 18:35:27.820502  3659 net.cpp:408] mbox_loc -> mbox_loc
I1209 18:35:27.820523  3659 net.cpp:150] Setting up mbox_loc
I1209 18:35:27.820526  3659 net.cpp:157] Top shape: 2 6600 (13200)
I1209 18:35:27.820529  3659 net.cpp:165] Memory required for data: 543937296
I1209 18:35:27.820533  3659 layer_factory.hpp:77] Creating layer mbox_conf
I1209 18:35:27.820538  3659 net.cpp:100] Creating Layer mbox_conf
I1209 18:35:27.820541  3659 net.cpp:434] mbox_conf <- conv5_5/sep_mbox_conf_flat
I1209 18:35:27.820546  3659 net.cpp:434] mbox_conf <- conv6/sep_mbox_conf_flat
I1209 18:35:27.820550  3659 net.cpp:434] mbox_conf <- ssd1_2_mbox_conf_flat
I1209 18:35:27.820554  3659 net.cpp:434] mbox_conf <- ssd2_2_mbox_conf_flat
I1209 18:35:27.820559  3659 net.cpp:434] mbox_conf <- ssd3_2_mbox_conf_flat
I1209 18:35:27.820562  3659 net.cpp:434] mbox_conf <- ssd4_2_mbox_conf_flat
I1209 18:35:27.820567  3659 net.cpp:408] mbox_conf -> mbox_conf
I1209 18:35:27.820585  3659 net.cpp:150] Setting up mbox_conf
I1209 18:35:27.820590  3659 net.cpp:157] Top shape: 2 8250 (16500)
I1209 18:35:27.820593  3659 net.cpp:165] Memory required for data: 544003296
I1209 18:35:27.820595  3659 layer_factory.hpp:77] Creating layer mbox_priorbox
I1209 18:35:27.820600  3659 net.cpp:100] Creating Layer mbox_priorbox
I1209 18:35:27.820603  3659 net.cpp:434] mbox_priorbox <- conv5_5/sep_mbox_priorbox
I1209 18:35:27.820605  3659 net.cpp:434] mbox_priorbox <- conv6/sep_mbox_priorbox
I1209 18:35:27.820608  3659 net.cpp:434] mbox_priorbox <- ssd1_2_mbox_priorbox
I1209 18:35:27.820611  3659 net.cpp:434] mbox_priorbox <- ssd2_2_mbox_priorbox
I1209 18:35:27.820613  3659 net.cpp:434] mbox_priorbox <- ssd3_2_mbox_priorbox
I1209 18:35:27.820616  3659 net.cpp:434] mbox_priorbox <- ssd4_2_mbox_priorbox
I1209 18:35:27.820626  3659 net.cpp:408] mbox_priorbox -> mbox_priorbox
I1209 18:35:27.820644  3659 net.cpp:150] Setting up mbox_priorbox
I1209 18:35:27.820648  3659 net.cpp:157] Top shape: 1 2 6600 (13200)
I1209 18:35:27.820650  3659 net.cpp:165] Memory required for data: 544056096
I1209 18:35:27.820652  3659 layer_factory.hpp:77] Creating layer mbox_loss
I1209 18:35:27.820659  3659 net.cpp:100] Creating Layer mbox_loss
I1209 18:35:27.820662  3659 net.cpp:434] mbox_loss <- mbox_loc
I1209 18:35:27.820667  3659 net.cpp:434] mbox_loss <- mbox_conf
I1209 18:35:27.820669  3659 net.cpp:434] mbox_loss <- mbox_priorbox
…
name: "MobileNet_GTSDB_SSD_510x300_100_40_Square_1_test"
state {
  phase: TEST
}
layer {
  name: "data"
  type: "AnnotatedData"
  top: "data"
  top: "label"
  include {
    phase: TEST
  }
  transform_param {
    mean_value: 125
    mean_value: 127
    mean_value: 130
    resize_param {
      prob: 1
      resize_mode: WARP
      height: 300
      width: 510
      interp_mode: LINEAR
    }
  }
  data_param {
    source: "examples/GTSDB/GTSDB_test_lmdb"
    batch_size: 1
    backend: LMDB
  }
  annotated_data_param {
    batch_sampler {
    }
    label_map_file: "data/GTSDB/labelmap_GTSDB.prototxt"
  }
}
layer {
  name: "conv1"
  type: "Convolution"
  bottom: "data"
  top: "conv1"
  param {
    lr_mult: 1
    decay_mult: 1
  }
  convolution_param {
    num_output: 32
    bias_term: false
    pad: 1
    kernel_size: 3
    stride: 2
    weight_filler {
      type: "msra"
    }
  }
}
layer {
  name: "conv1/bn"
  type: "BatchNorm"
  bottom: "conv1"
  top: "conv1"
  batch_norm_param {
    use_global_stats: true
    eps: 1e-05
  }
}
layer {
  name: "conv1/scale"
  type: "Scale"
  bottom: "conv1"
  top: "conv1"
  param {
    lr_mult: 1
    decay_mult: 0
  }
  param {
    lr_mult: 1
    decay_mult: 0
  }
  scale_param {
    filler {
      type: "constant"
      value: 1
    }
    bias_term: true
    bias_filler {
      type: "constant"
      value: 0
    }
  }
}
layer {
  name: "relu1"
  type: "ReLU"
  bottom: "conv1"
  top: "conv1"
}
layer {
  name: "conv2_1/dw"
  type: "DepthwiseConvolution"
  bottom: "conv1"
  top: "conv2_1/dw"
  param {
    lr_mult: 1
    decay_mult: 1
  }
  convolution_param {
    num_output: 32
    bias_term: false
    pad: 1
    kernel_size: 3
    group: 32
    stride: 1
    weight_filler {
      type: "msra"
    }
  }
}
layer {
  name: "conv2_1/dw/bn"
  type: "BatchNorm"
  bottom: "conv2_1/dw"
  top: "conv2_1/dw"
  batch_norm_param {
    use_global_stats: true
    eps: 1e-05
  }
}
layer {
  name: "conv2_1/dw/scale"
  type: "Scale"
  bottom: "conv2_1/dw"
  top: "conv2_1/dw"
  param {
    lr_mult: 1
    decay_mult: 0
  }
  param {
    lr_mult: 1
    decay_mult: 0
  }
  scale_param {
    filler {
      type: "constant"
      value: 1
    }
    bias_term: true
    bias_filler {
      type: "constant"
      value: 0
    }
  }
}
layer {
  name: "relu2_1/dw"
  type: "ReLU"
  bottom: "conv2_1/dw"
  top: "conv2_1/dw"
}
layer {
  name: "conv2_1/sep"
  type: "Convolution"
  bottom: "conv2_1/dw"
  top: "conv2_1/sep"
  param {
    lr_mult: 1
    decay_mult: 1
  }
  convolution_param {
    num_output: 64
    bias_term: false
    pad: 0
    kernel_size: 1
    stride: 1
    weight_filler {
      type: "msra"
    }
  }
}
layer {
  name: "conv2_1/sep/bn"
  type: "BatchNorm"
  bottom: "conv2_1/sep"
  top: "conv2_1/sep"
  batch_norm_param {
    use_global_stats: true
    eps: 1e-05
  }
}
layer {
  name: "conv2_1/sep/scale"
  type: "Scale"
  bottom: "conv2_1/sep"
  top: "conv2_1/sep"
  param {
    lr_mult: 1
    decay_mult: 0
  }
  param {
    lr_mult: 1
    decay_mult: 0
  }
  scale_param {
    filler {
      type: "constant"
      value: 1
    }
    bias_term: true
    bias_filler {
      type: "constant"
      value: 0
    }
  }
}
layer {
  name: "relu2_1/sep"
  type: "ReLU"
  bottom: "conv2_1/sep"
  top: "conv2_1/sep"
}
layer {
  name: "conv2_2/dw"
  type: "DepthwiseConvolution"
  bottom: "conv2_1/sep"
  top: "conv2_2/dw"
  param {
    lr_mult: 1
    decay_mult: 1
  }
  convolution_param {
    num_output: 64
    bias_term: false
    pad: 1
    kernel_size: 3
    group: 64
    stride: 2
    weight_filler {
      type: "msra"
    }
  }
}
layer {
  name: "conv2_2/dw/bn"
  type: "BatchNorm"
  bottom: "conv2_2/dw"
  top: "conv2_2/dw"
  batch_norm_param {
    use_global_stats: true
    eps: 1e-05
  }
}
layer {
  name: "conv2_2/dw/scale"
  type: "Scale"
  bottom: "conv2_2/dw"
  top: "conv2_2/dw"
  param {
    lr_mult: 1
    decay_mult: 0
  }
  param {
    lr_mult: 1
    decay_mult: 0
  }
  scale_param {
    filler {
      type: "constant"
      value: 1
    }
    bias_term: true
    bias_filler {
      type: "constant"
      value: 0
    }
  }
}
layer {
  name: "relu2_2/dw"
  type: "ReLU"
  bottom: "conv2_2/dw"
  top: "conv2_2/dw"
}
layer {
  name: "conv2_2/sep"
  type: "Convolution"
  bottom: "conv2_2/dw"
  top: "conv2_2/sep"
  param {
    lr_mult: 1
    decay_mult: 1
  }
  convolution_param {
    num_output: 128
    bias_term: false
    pad: 0
    kernel_size: 1
    stride: 1
    weight_filler {
      type: "msra"
    }
  }
}
layer {
  name: "conv2_2/sep/bn"
  type: "BatchNorm"
  bottom: "conv2_2/sep"
  top: "conv2_2/sep"
  batch_norm_param {
    use_global_stats: true
    eps: 1e-05
  }
}
layer {
  name: "conv2_2/sep/scale"
  type: "Scale"
  bottom: "conv2_2/sep"
  top: "conv2_2/sep"
  param {
    lr_mult: 1
    decay_mult: 0
  }
  param {
    lr_mult: 1
    decay_mult: 0
  }
  scale_param {
    filler {
      type: "constant"
      value: 1
    }
    bias_term: true
    bias_filler {
      type: "constant"
      value: 0
    }
  }
}
layer {
  name: "relu2_2/sep"
  type: "ReLU"
  bottom: "conv2_2/sep"
  top: "conv2_2/sep"
}
layer {
  name: "conv3_1/dw"
  type: "DepthwiseConvolution"
  bottom: "conv2_2/sep"
  top: "conv3_1/dw"
  param {
    lr_mult: 1
    decay_mult: 1
  }
  convolution_param {
    num_output: 128
    bias_term: false
    pad: 1
    kernel_size: 3
    group: 128
    stride: 1
    weight_filler {
      type: "msra"
    }
  }
}
layer {
  name: "conv3_1/dw/bn"
  type: "BatchNorm"
  bottom: "conv3_1/dw"
  top: "conv3_1/dw"
  batch_norm_param {
    use_global_stats: true
    eps: 1e-05
  }
}
layer {
  name: "conv3_1/dw/scale"
  type: "Scale"
  bottom: "conv3_1/dw"
  top: "conv3_1/dw"
  param {
    lr_mult: 1
    decay_mult: 0
  }
  param {
    lr_mult: 1
    decay_mult: 0
  }
  scale_param {
    filler {
      type: "constant"
      value: 1
    }
    bias_term: true
    bias_filler {
      type: "constant"
      value: 0
    }
  }
}
layer {
  name: "relu3_1/dw"
  type: "ReLU"
  bottom: "conv3_1/dw"
  top: "conv3_1/dw"
}
layer {
  name: "conv3_1/sep"
  type: "Convolution"
  bottom: "conv3_1/dw"
  top: "conv3_1/sep"
  param {
    lr_mult: 1
    decay_mult: 1
  }
  convolution_param {
    num_output: 128
    bias_term: false
    pad: 0
    kernel_size: 1
    stride: 1
    weight_filler {
      type: "msra"
    }
  }
}
layer {
  name: "conv3_1/sep/bn"
  type: "BatchNorm"
  bottom: "conv3_1/sep"
  top: "conv3_1/sep"
  batch_norm_param {
    use_global_stats: true
    eps: 1e-05
  }
}
layer {
  name: "conv3_1/sep/scale"
  type: "Scale"
  bottom: "conv3_1/sep"
  top: "conv3_1/sep"
  param {
    lr_mult: 1
    decay_mult: 0
  }
  param {
    lr_mult: 1
    decay_mult: 0
  }
  scale_param {
    filler {
      type: "constant"
      value: 1
    }
    bias_term: true
    bias_filler {
      type: "constant"
      value: 0
    }
  }
}
layer {
  name: "relu3_1/sep"
  type: "ReLU"
  bottom: "conv3_1/sep"
  top: "conv3_1/sep"
}
layer {
  name: "conv3_2/dw"
  type: "DepthwiseConvolution"
  bottom: "conv3_1/sep"
  top: "conv3_2/dw"
  param {
    lr_mult: 1
    decay_mult: 1
  }
  convolution_param {
    num_output: 128
    bias_term: false
    pad: 1
    kernel_size: 3
    group: 128
    stride: 2
    weight_filler {
      type: "msra"
    }
  }
}
layer {
  name: "conv3_2/dw/bn"
  type: "BatchNorm"
  bottom: "conv3_2/dw"
  top: "conv3_2/dw"
  batch_norm_param {
    use_global_stats: true
    eps: 1e-05
  }
}
layer {
  name: "conv3_2/dw/scale"
  type: "Scale"
  bottom: "conv3_2/dw"
  top: "conv3_2/dw"
  param {
    lr_mult: 1
    decay_mult: 0
  }
  param {
    lr_mult: 1
    decay_mult: 0
  }
  scale_param {
    filler {
      type: "constant"
      value: 1
    }
    bias_term: true
    bias_filler {
      type: "constant"
      value: 0
    }
  }
}
layer {
  name: "relu3_2/dw"
  type: "ReLU"
  bottom: "conv3_2/dw"
  top: "conv3_2/dw"
}
layer {
  name: "conv3_2/sep"
  type: "Convolution"
  bottom: "conv3_2/dw"
  top: "conv3_2/sep"
  param {
    lr_mult: 1
    decay_mult: 1
  }
  convolution_param {
    num_output: 256
    bias_term: false
    pad: 0
    kernel_size: 1
    stride: 1
    weight_filler {
      type: "msra"
    }
  }
}
layer {
  name: "conv3_2/sep/bn"
  type: "BatchNorm"
  bottom: "conv3_2/sep"
  top: "conv3_2/sep"
  batch_norm_param {
    use_global_stats: true
    eps: 1e-05
  }
}
layer {
  name: "conv3_2/sep/scale"
  type: "Scale"
  bottom: "conv3_2/sep"
  top: "conv3_2/sep"
  param {
    lr_mult: 1
    decay_mult: 0
  }
  param {
    lr_mult: 1
    decay_mult: 0
  }
  scale_param {
    filler {
      type: "constant"
      value: 1
    }
    bias_term: true
    bias_filler {
      type: "constant"
      value: 0
    }
  }
}
layer {
  name: "relu3_2/sep"
  type: "ReLU"
  bottom: "conv3_2/sep"
  top: "conv3_2/sep"
}
layer {
  name: "conv4_1/dw"
  type: "DepthwiseConvolution"
  bottom: "conv3_2/sep"
  top: "conv4_1/dw"
  param {
    lr_mult: 1
    decay_mult: 1
  }
  convolution_param {
    num_output: 256
    bias_term: false
    pad: 1
    kernel_size: 3
    group: 256
    stride: 1
    weight_filler {
      type: "msra"
    }
  }
}
layer {
  name: "conv4_1/dw/bn"
  type: "BatchNorm"
  bottom: "conv4_1/dw"
  top: "conv4_1/dw"
  batch_norm_param {
    use_global_stats: true
    eps: 1e-05
  }
}
layer {
  name: "conv4_1/dw/scale"
  type: "Scale"
  bottom: "conv4_1/dw"
  top: "conv4_1/dw"
  param {
    lr_mult: 1
    decay_mult: 0
  }
  param {
    lr_mult: 1
    decay_mult: 0
  }
  scale_param {
    filler {
      type: "constant"
      value: 1
    }
    bias_term: true
    bias_filler {
      type: "constant"
      value: 0
    }
  }
}
layer {
  name: "relu4_1/dw"
  type: "ReLU"
  bottom: "conv4_1/dw"
  top: "conv4_1/dw"
}
layer {
  name: "conv4_1/sep"
  type: "Convolution"
  bottom: "conv4_1/dw"
  top: "conv4_1/sep"
  param {
    lr_mult: 1
    decay_mult: 1
  }
  convolution_param {
    num_output: 256
    bias_term: false
    pad: 0
    kernel_size: 1
    stride: 1
    weight_filler {
      type: "msra"
    }
  }
}
layer {
  name: "conv4_1/sep/bn"
  type: "BatchNorm"
  bottom: "conv4_1/sep"
  top: "conv4_1/sep"
  batch_norm_param {
    use_global_stats: true
    eps: 1e-05
  }
}
layer {
  name: "conv4_1/sep/scale"
  type: "Scale"
  bottom: "conv4_1/sep"
  top: "conv4_1/sep"
  param {
    lr_mult: 1
    decay_mult: 0
  }
  param {
    lr_mult: 1
    decay_mult: 0
  }
  scale_param {
    filler {
      type: "constant"
      value: 1
    }
    bias_term: true
    bias_filler {
      type: "constant"
      value: 0
    }
  }
}
layer {
  name: "relu4_1/sep"
  type: "ReLU"
  bottom: "conv4_1/sep"
  top: "conv4_1/sep"
}
layer {
  name: "conv4_2/dw"
  type: "DepthwiseConvolution"
  bottom: "conv4_1/sep"
  top: "conv4_2/dw"
  param {
    lr_mult: 1
    decay_mult: 1
  }
  convolution_param {
    num_output: 256
    bias_term: false
    pad: 1
    kernel_size: 3
    group: 256
    stride: 2
    weight_filler {
      type: "msra"
    }
  }
}
layer {
  name: "conv4_2/dw/bn"
  type: "BatchNorm"
  bottom: "conv4_2/dw"
  top: "conv4_2/dw"
  batch_norm_param {
    use_global_stats: true
    eps: 1e-05
  }
}
layer {
  name: "conv4_2/dw/scale"
  type: "Scale"
  bottom: "conv4_2/dw"
  top: "conv4_2/dw"
  param {
    lr_mult: 1
    decay_mult: 0
  }
  param {
    lr_mult: 1
    decay_mult: 0
  }
  scale_param {
    filler {
      type: "constant"
      value: 1
    }
    bias_term: true
    bias_filler {
      type: "constant"
      value: 0
    }
  }
}
layer {
  name: "relu4_2/dw"
  type: "ReLU"
  bottom: "conv4_2/dw"
  top: "conv4_2/dw"
}
layer {
  name: "conv4_2/sep"
  type: "Convolution"
  bottom: "conv4_2/dw"
  top: "conv4_2/sep"
  param {
    lr_mult: 1
    decay_mult: 1
  }
  convolution_param {
    num_output: 512
    bias_term: false
    pad: 0
    kernel_size: 1
    stride: 1
    weight_filler {
      type: "msra"
    }
  }
}
layer {
  name: "conv4_2/sep/bn"
  type: "BatchNorm"
  bottom: "conv4_2/sep"
  top: "conv4_2/sep"
  batch_norm_param {
    use_global_stats: true
    eps: 1e-05
  }
}
layer {
  name: "conv4_2/sep/scale"
  type: "Scale"
  bottom: "conv4_2/sep"
  top: "conv4_2/sep"
  param {
    lr_mult: 1
    decay_mult: 0
  }
  param {
    lr_mult: 1
    decay_mult: 0
  }
  scale_param {
    filler {
      type: "constant"
      value: 1
    }
    bias_term: true
    bias_filler {
      type: "constant"
      value: 0
    }
  }
}
layer {
  name: "relu4_2/sep"
  type: "ReLU"
  bottom: "conv4_2/sep"
  top: "conv4_2/sep"
}
layer {
  name: "conv5_1/dw"
  type: "DepthwiseConvolution"
  bottom: "conv4_2/sep"
  top: "conv5_1/dw"
  param {
    lr_mult: 1
    decay_mult: 1
  }
  convolution_param {
    num_output: 512
    bias_term: false
    pad: 1
    kernel_size: 3
    group: 512
    stride: 1
    weight_filler {
      type: "msra"
    }
  }
}
layer {
  name: "conv5_1/dw/bn"
  type: "BatchNorm"
  bottom: "conv5_1/dw"
  top: "conv5_1/dw"
  batch_norm_param {
    use_global_stats: true
    eps: 1e-05
  }
}
layer {
  name: "conv5_1/dw/scale"
  type: "Scale"
  bottom: "conv5_1/dw"
  top: "conv5_1/dw"
  param {
    lr_mult: 1
    decay_mult: 0
  }
  param {
    lr_mult: 1
    decay_mult: 0
  }
  scale_param {
    filler {
      type: "constant"
      value: 1
    }
    bias_term: true
    bias_filler {
      type: "constant"
      value: 0
    }
  }
}
layer {
  name: "relu5_1/dw"
  type: "ReLU"
  bottom: "conv5_1/dw"
  top: "conv5_1/dw"
}
layer {
  name: "conv5_1/sep"
  type: "Convolution"
  bottom: "conv5_1/dw"
  top: "conv5_1/sep"
  param {
    lr_mult: 1
    decay_mult: 1
  }
  convolution_param {
    num_output: 512
    bias_term: false
    pad: 0
    kernel_size: 1
    stride: 1
    weight_filler {
      type: "msra"
    }
  }
}
layer {
  name: "conv5_1/sep/bn"
  type: "BatchNorm"
  bottom: "conv5_1/sep"
  top: "conv5_1/sep"
  batch_norm_param {
    use_global_stats: true
    eps: 1e-05
  }
}
layer {
  name: "conv5_1/sep/scale"
  type: "Scale"
  bottom: "conv5_1/sep"
  top: "conv5_1/sep"
  param {
    lr_mult: 1
    decay_mult: 0
  }
  param {
    lr_mult: 1
    decay_mult: 0
  }
  scale_param {
    filler {
      type: "constant"
      value: 1
    }
    bias_term: true
    bias_filler {
      type: "constant"
      value: 0
    }
  }
}
layer {
  name: "relu5_1/sep"
  type: "ReLU"
  bottom: "conv5_1/sep"
  top: "conv5_1/sep"
}
layer {
  name: "conv5_2/dw"
  type: "DepthwiseConvolution"
  bottom: "conv5_1/sep"
  top: "conv5_2/dw"
  param {
    lr_mult: 1
    decay_mult: 1
  }
  convolution_param {
    num_output: 512
    bias_term: false
    pad: 1
    kernel_size: 3
    group: 512
    stride: 1
    weight_filler {
      type: "msra"
    }
  }
}
layer {
  name: "conv5_2/dw/bn"
  type: "BatchNorm"
  bottom: "conv5_2/dw"
  top: "conv5_2/dw"
  batch_norm_param {
    use_global_stats: true
    eps: 1e-05
  }
}
layer {
  name: "conv5_2/dw/scale"
  type: "Scale"
  bottom: "conv5_2/dw"
  top: "conv5_2/dw"
  param {
    lr_mult: 1
    decay_mult: 0
  }
  param {
    lr_mult: 1
    decay_mult: 0
  }
  scale_param {
    filler {
      type: "constant"
      value: 1
    }
    bias_term: true
    bias_filler {
      type: "constant"
      value: 0
    }
  }
}
layer {
  name: "relu5_2/dw"
  type: "ReLU"
  bottom: "conv5_2/dw"
  top: "conv5_2/dw"
}
layer {
  name: "conv5_2/sep"
  type: "Convolution"
  bottom: "conv5_2/dw"
  top: "conv5_2/sep"
  param {
    lr_mult: 1
    decay_mult: 1
  }
  convolution_param {
    num_output: 512
    bias_term: false
    pad: 0
    kernel_size: 1
    stride: 1
    weight_filler {
      type: "msra"
    }
  }
}
layer {
  name: "conv5_2/sep/bn"
  type: "BatchNorm"
  bottom: "conv5_2/sep"
  top: "conv5_2/sep"
  batch_norm_param {
    use_global_stats: true
    eps: 1e-05
  }
}
layer {
  name: "conv5_2/sep/scale"
  type: "Scale"
  bottom: "conv5_2/sep"
  top: "conv5_2/sep"
  param {
    lr_mult: 1
    decay_mult: 0
  }
  param {
    lr_mult: 1
    decay_mult: 0
  }
  scale_param {
    filler {
      type: "constant"
      value: 1
    }
    bias_term: true
    bias_filler {
      type: "constant"
      value: 0
    }
  }
}
layer {
  name: "relu5_2/sep"
  type: "ReLU"
  bottom: "conv5_2/sep"
  top: "conv5_2/sep"
}
layer {
  name: "conv5_3/dw"
  type: "DepthwiseConvolution"
  bottom: "conv5_2/sep"
  top: "conv5_3/dw"
  param {
    lr_mult: 1
    decay_mult: 1
  }
  convolution_param {
    num_output: 512
    bias_term: false
    pad: 1
    kernel_size: 3
    group: 512
    stride: 1
    weight_filler {
      type: "msra"
    }
  }
}
layer {
  name: "conv5_3/dw/bn"
  type: "BatchNorm"
  bottom: "conv5_3/dw"
  top: "conv5_3/dw"
  batch_norm_param {
    use_global_stats: true
    eps: 1e-05
  }
}
layer {
  name: "conv5_3/dw/scale"
  type: "Scale"
  bottom: "conv5_3/dw"
  top: "conv5_3/dw"
  param {
    lr_mult: 1
    decay_mult: 0
  }
  param {
    lr_mult: 1
    decay_mult: 0
  }
  scale_param {
    filler {
      type: "constant"
      value: 1
    }
    bias_term: true
    bias_filler {
      type: "constant"
      value: 0
    }
  }
}
layer {
  name: "relu5_3/dw"
  type: "ReLU"
  bottom: "conv5_3/dw"
  top: "conv5_3/dw"
}
layer {
  name: "conv5_3/sep"
  type: "Convolution"
  bottom: "conv5_3/dw"
  top: "conv5_3/sep"
  param {
    lr_mult: 1
    decay_mult: 1
  }
  convolution_param {
    num_output: 512
    bias_term: false
    pad: 0
    kernel_size: 1
    stride: 1
    weight_filler {
      type: "msra"
    }
  }
}
layer {
  name: "conv5_3/sep/bn"
  type: "BatchNorm"
  bottom: "conv5_3/sep"
  top: "conv5_3/sep"
  batch_norm_param {
    use_global_stats: true
    eps: 1e-05
  }
}
layer {
  name: "conv5_3/sep/scale"
  type: "Scale"
  bottom: "conv5_3/sep"
  top: "conv5_3/sep"
  param {
    lr_mult: 1
    decay_mult: 0
  }
  param {
    lr_mult: 1
    decay_mult: 0
  }
  scale_param {
    filler {
      type: "constant"
      value: 1
    }
    bias_term: true
    bias_filler {
      type: "constant"
      value: 0
    }
  }
}
layer {
  name: "relu5_3/sep"
  type: "ReLU"
  bottom: "conv5_3/sep"
  top: "conv5_3/sep"
}
layer {
  name: "conv5_4/dw"
  type: "DepthwiseConvolution"
  bottom: "conv5_3/sep"
  top: "conv5_4/dw"
  param {
    lr_mult: 1
    decay_mult: 1
  }
  convolution_param {
    num_output: 512
    bias_term: false
    pad: 1
    kernel_size: 3
    group: 512
    stride: 1
    weight_filler {
      type: "msra"
    }
  }
}
layer {
  name: "conv5_4/dw/bn"
  type: "BatchNorm"
  bottom: "conv5_4/dw"
  top: "conv5_4/dw"
  batch_norm_param {
    use_global_stats: true
    eps: 1e-05
  }
}
layer {
  name: "conv5_4/dw/scale"
  type: "Scale"
  bottom: "conv5_4/dw"
  top: "conv5_4/dw"
  param {
    lr_mult: 1
    decay_mult: 0
  }
  param {
    lr_mult: 1
    decay_mult: 0
  }
  scale_param {
    filler {
      type: "constant"
      value: 1
    }
    bias_term: true
    bias_filler {
      type: "constant"
      value: 0
    }
  }
}
layer {
  name: "relu5_4/dw"
  type: "ReLU"
  bottom: "conv5_4/dw"
  top: "conv5_4/dw"
}
layer {
  name: "conv5_4/sep"
  type: "Convolution"
  bottom: "conv5_4/dw"
  top: "conv5_4/sep"
  param {
    lr_mult: 1
    decay_mult: 1
  }
  convolution_param {
    num_output: 512
    bias_term: false
    pad: 0
    kernel_size: 1
    stride: 1
    weight_filler {
      type: "msra"
    }
  }
}
layer {
  name: "conv5_4/sep/bn"
  type: "BatchNorm"
  bottom: "conv5_4/sep"
  top: "conv5_4/sep"
  batch_norm_param {
    use_global_stats: true
    eps: 1e-05
  }
}
layer {
  name: "conv5_4/sep/scale"
  type: "Scale"
  bottom: "conv5_4/sep"
  top: "conv5_4/sep"
  param {
    lr_mult: 1
    decay_mult: 0
  }
  param {
    lr_mult: 1
    decay_mult: 0
  }
  scale_param {
    filler {
      type: "constant"
      value: 1
    }
    bias_term: true
    bias_filler {
      type: "constant"
      value: 0
    }
  }
}
layer {
  name: "relu5_4/sep"
  type: "ReLU"
  bottom: "conv5_4/sep"
  top: "conv5_4/sep"
}
layer {
  name: "conv5_5/dw"
  type: "DepthwiseConvolution"
  bottom: "conv5_4/sep"
  top: "conv5_5/dw"
  param {
    lr_mult: 1
    decay_mult: 1
  }
  convolution_param {
    num_output: 512
    bias_term: false
    pad: 1
    kernel_size: 3
    group: 512
    stride: 1
    weight_filler {
      type: "msra"
    }
  }
}
layer {
  name: "conv5_5/dw/bn"
  type: "BatchNorm"
  bottom: "conv5_5/dw"
  top: "conv5_5/dw"
  batch_norm_param {
    use_global_stats: true
    eps: 1e-05
  }
}
layer {
  name: "conv5_5/dw/scale"
  type: "Scale"
  bottom: "conv5_5/dw"
  top: "conv5_5/dw"
  param {
    lr_mult: 1
    decay_mult: 0
  }
  param {
    lr_mult: 1
    decay_mult: 0
  }
  scale_param {
    filler {
      type: "constant"
      value: 1
    }
    bias_term: true
    bias_filler {
      type: "constant"
      value: 0
    }
  }
}
layer {
  name: "relu5_5/dw"
  type: "ReLU"
  bottom: "conv5_5/dw"
  top: "conv5_5/dw"
}
layer {
  name: "conv5_5/sep"
  type: "Convolution"
  bottom: "conv5_5/dw"
  top: "conv5_5/sep"
  param {
    lr_mult: 1
    decay_mult: 1
  }
  convolution_param {
    num_output: 512
    bias_term: false
    pad: 0
    kernel_size: 1
    stride: 1
    weight_filler {
      type: "msra"
    }
  }
}
layer {
  name: "conv5_5/sep/bn"
  type: "BatchNorm"
  bottom: "conv5_5/sep"
  top: "conv5_5/sep"
  batch_norm_param {
    use_global_stats: true
    eps: 1e-05
  }
}
layer {
  name: "conv5_5/sep/scale"
  type: "Scale"
  bottom: "conv5_5/sep"
  top: "conv5_5/sep"
  param {
    lr_mult: 1
    decay_mult: 0
  }
  param {
    lr_mult: 1
    decay_mult: 0
  }
  scale_param {
    filler {
      type: "constant"
      value: 1
    }
    bias_term: true
    bias_filler {
      type: "constant"
      value: 0
    }
  }
}
layer {
  name: "relu5_5/sep"
  type: "ReLU"
  bottom: "conv5_5/sep"
  top: "conv5_5/sep"
}
layer {
  name: "conv5_6/dw"
  type: "DepthwiseConvolution"
  bottom: "conv5_5/sep"
  top: "conv5_6/dw"
  param {
    lr_mult: 1
    decay_mult: 1
  }
  convolution_param {
    num_output: 512
    bias_term: false
    pad: 1
…
I1209 18:35:27.889735  3659 net.cpp:395] conv5_6/dw/scale -> conv5_6/dw (in-place)
I1209 18:35:27.889762  3659 layer_factory.hpp:77] Creating layer conv5_6/dw/scale
I1209 18:35:27.889854  3659 net.cpp:150] Setting up conv5_6/dw/scale
I1209 18:35:27.889858  3659 net.cpp:157] Top shape: 1 512 10 16 (81920)
I1209 18:35:27.889860  3659 net.cpp:165] Memory required for data: 259944224
I1209 18:35:27.889863  3659 layer_factory.hpp:77] Creating layer relu5_6/dw
I1209 18:35:27.889865  3659 net.cpp:100] Creating Layer relu5_6/dw
I1209 18:35:27.889868  3659 net.cpp:434] relu5_6/dw <- conv5_6/dw
I1209 18:35:27.889871  3659 net.cpp:395] relu5_6/dw -> conv5_6/dw (in-place)
I1209 18:35:27.890417  3659 net.cpp:150] Setting up relu5_6/dw
I1209 18:35:27.890424  3659 net.cpp:157] Top shape: 1 512 10 16 (81920)
I1209 18:35:27.890426  3659 net.cpp:165] Memory required for data: 260271904
I1209 18:35:27.890429  3659 layer_factory.hpp:77] Creating layer conv5_6/sep
I1209 18:35:27.890434  3659 net.cpp:100] Creating Layer conv5_6/sep
I1209 18:35:27.890435  3659 net.cpp:434] conv5_6/sep <- conv5_6/dw
I1209 18:35:27.890440  3659 net.cpp:408] conv5_6/sep -> conv5_6/sep
I1209 18:35:27.895321  3659 net.cpp:150] Setting up conv5_6/sep
I1209 18:35:27.895332  3659 net.cpp:157] Top shape: 1 1024 10 16 (163840)
I1209 18:35:27.895334  3659 net.cpp:165] Memory required for data: 260927264
I1209 18:35:27.895339  3659 layer_factory.hpp:77] Creating layer conv5_6/sep/bn
I1209 18:35:27.895344  3659 net.cpp:100] Creating Layer conv5_6/sep/bn
I1209 18:35:27.895347  3659 net.cpp:434] conv5_6/sep/bn <- conv5_6/sep
I1209 18:35:27.895351  3659 net.cpp:395] conv5_6/sep/bn -> conv5_6/sep (in-place)
I1209 18:35:27.895515  3659 net.cpp:150] Setting up conv5_6/sep/bn
I1209 18:35:27.895519  3659 net.cpp:157] Top shape: 1 1024 10 16 (163840)
I1209 18:35:27.895521  3659 net.cpp:165] Memory required for data: 261582624
I1209 18:35:27.895525  3659 layer_factory.hpp:77] Creating layer conv5_6/sep/scale
I1209 18:35:27.895530  3659 net.cpp:100] Creating Layer conv5_6/sep/scale
I1209 18:35:27.895532  3659 net.cpp:434] conv5_6/sep/scale <- conv5_6/sep
I1209 18:35:27.895545  3659 net.cpp:395] conv5_6/sep/scale -> conv5_6/sep (in-place)
I1209 18:35:27.895573  3659 layer_factory.hpp:77] Creating layer conv5_6/sep/scale
I1209 18:35:27.895665  3659 net.cpp:150] Setting up conv5_6/sep/scale
I1209 18:35:27.895669  3659 net.cpp:157] Top shape: 1 1024 10 16 (163840)
I1209 18:35:27.895671  3659 net.cpp:165] Memory required for data: 262237984
I1209 18:35:27.895674  3659 layer_factory.hpp:77] Creating layer relu5_6/sep
I1209 18:35:27.895678  3659 net.cpp:100] Creating Layer relu5_6/sep
I1209 18:35:27.895679  3659 net.cpp:434] relu5_6/sep <- conv5_6/sep
I1209 18:35:27.895684  3659 net.cpp:395] relu5_6/sep -> conv5_6/sep (in-place)
I1209 18:35:27.896028  3659 net.cpp:150] Setting up relu5_6/sep
I1209 18:35:27.896034  3659 net.cpp:157] Top shape: 1 1024 10 16 (163840)
I1209 18:35:27.896035  3659 net.cpp:165] Memory required for data: 262893344
I1209 18:35:27.896037  3659 layer_factory.hpp:77] Creating layer conv6/dw
I1209 18:35:27.896041  3659 net.cpp:100] Creating Layer conv6/dw
I1209 18:35:27.896044  3659 net.cpp:434] conv6/dw <- conv5_6/sep
I1209 18:35:27.896047  3659 net.cpp:408] conv6/dw -> conv6/dw
I1209 18:35:27.896262  3659 net.cpp:150] Setting up conv6/dw
I1209 18:35:27.896267  3659 net.cpp:157] Top shape: 1 1024 10 16 (163840)
I1209 18:35:27.896270  3659 net.cpp:165] Memory required for data: 263548704
I1209 18:35:27.896272  3659 layer_factory.hpp:77] Creating layer conv6/dw/bn
I1209 18:35:27.896275  3659 net.cpp:100] Creating Layer conv6/dw/bn
I1209 18:35:27.896277  3659 net.cpp:434] conv6/dw/bn <- conv6/dw
I1209 18:35:27.896281  3659 net.cpp:395] conv6/dw/bn -> conv6/dw (in-place)
I1209 18:35:27.896435  3659 net.cpp:150] Setting up conv6/dw/bn
I1209 18:35:27.896440  3659 net.cpp:157] Top shape: 1 1024 10 16 (163840)
I1209 18:35:27.896441  3659 net.cpp:165] Memory required for data: 264204064
I1209 18:35:27.896445  3659 layer_factory.hpp:77] Creating layer conv6/dw/scale
I1209 18:35:27.896450  3659 net.cpp:100] Creating Layer conv6/dw/scale
I1209 18:35:27.896451  3659 net.cpp:434] conv6/dw/scale <- conv6/dw
I1209 18:35:27.896453  3659 net.cpp:395] conv6/dw/scale -> conv6/dw (in-place)
I1209 18:35:27.896481  3659 layer_factory.hpp:77] Creating layer conv6/dw/scale
I1209 18:35:27.896572  3659 net.cpp:150] Setting up conv6/dw/scale
I1209 18:35:27.896576  3659 net.cpp:157] Top shape: 1 1024 10 16 (163840)
I1209 18:35:27.896577  3659 net.cpp:165] Memory required for data: 264859424
I1209 18:35:27.896581  3659 layer_factory.hpp:77] Creating layer relu6/dw
I1209 18:35:27.896584  3659 net.cpp:100] Creating Layer relu6/dw
I1209 18:35:27.896585  3659 net.cpp:434] relu6/dw <- conv6/dw
I1209 18:35:27.896589  3659 net.cpp:395] relu6/dw -> conv6/dw (in-place)
I1209 18:35:27.897147  3659 net.cpp:150] Setting up relu6/dw
I1209 18:35:27.897153  3659 net.cpp:157] Top shape: 1 1024 10 16 (163840)
I1209 18:35:27.897156  3659 net.cpp:165] Memory required for data: 265514784
I1209 18:35:27.897157  3659 layer_factory.hpp:77] Creating layer conv6/sep
I1209 18:35:27.897163  3659 net.cpp:100] Creating Layer conv6/sep
I1209 18:35:27.897166  3659 net.cpp:434] conv6/sep <- conv6/dw
I1209 18:35:27.897169  3659 net.cpp:408] conv6/sep -> conv6/sep
I1209 18:35:27.905529  3659 net.cpp:150] Setting up conv6/sep
I1209 18:35:27.905544  3659 net.cpp:157] Top shape: 1 1024 10 16 (163840)
I1209 18:35:27.905546  3659 net.cpp:165] Memory required for data: 266170144
I1209 18:35:27.905552  3659 layer_factory.hpp:77] Creating layer conv6/sep/bn
I1209 18:35:27.905558  3659 net.cpp:100] Creating Layer conv6/sep/bn
I1209 18:35:27.905561  3659 net.cpp:434] conv6/sep/bn <- conv6/sep
I1209 18:35:27.905568  3659 net.cpp:395] conv6/sep/bn -> conv6/sep (in-place)
I1209 18:35:27.905745  3659 net.cpp:150] Setting up conv6/sep/bn
I1209 18:35:27.905750  3659 net.cpp:157] Top shape: 1 1024 10 16 (163840)
I1209 18:35:27.905752  3659 net.cpp:165] Memory required for data: 266825504
I1209 18:35:27.905756  3659 layer_factory.hpp:77] Creating layer conv6/sep/scale
I1209 18:35:27.905761  3659 net.cpp:100] Creating Layer conv6/sep/scale
I1209 18:35:27.905774  3659 net.cpp:434] conv6/sep/scale <- conv6/sep
I1209 18:35:27.905781  3659 net.cpp:395] conv6/sep/scale -> conv6/sep (in-place)
I1209 18:35:27.905812  3659 layer_factory.hpp:77] Creating layer conv6/sep/scale
I1209 18:35:27.905906  3659 net.cpp:150] Setting up conv6/sep/scale
I1209 18:35:27.905910  3659 net.cpp:157] Top shape: 1 1024 10 16 (163840)
I1209 18:35:27.905913  3659 net.cpp:165] Memory required for data: 267480864
I1209 18:35:27.905916  3659 layer_factory.hpp:77] Creating layer relu6/sep
I1209 18:35:27.905920  3659 net.cpp:100] Creating Layer relu6/sep
I1209 18:35:27.905922  3659 net.cpp:434] relu6/sep <- conv6/sep
I1209 18:35:27.905926  3659 net.cpp:395] relu6/sep -> conv6/sep (in-place)
I1209 18:35:27.906286  3659 net.cpp:150] Setting up relu6/sep
I1209 18:35:27.906291  3659 net.cpp:157] Top shape: 1 1024 10 16 (163840)
I1209 18:35:27.906293  3659 net.cpp:165] Memory required for data: 268136224
I1209 18:35:27.906296  3659 layer_factory.hpp:77] Creating layer conv6/sep_relu6/sep_0_split
I1209 18:35:27.906304  3659 net.cpp:100] Creating Layer conv6/sep_relu6/sep_0_split
I1209 18:35:27.906308  3659 net.cpp:434] conv6/sep_relu6/sep_0_split <- conv6/sep
I1209 18:35:27.906311  3659 net.cpp:408] conv6/sep_relu6/sep_0_split -> conv6/sep_relu6/sep_0_split_0
I1209 18:35:27.906317  3659 net.cpp:408] conv6/sep_relu6/sep_0_split -> conv6/sep_relu6/sep_0_split_1
I1209 18:35:27.906322  3659 net.cpp:408] conv6/sep_relu6/sep_0_split -> conv6/sep_relu6/sep_0_split_2
I1209 18:35:27.906325  3659 net.cpp:408] conv6/sep_relu6/sep_0_split -> conv6/sep_relu6/sep_0_split_3
I1209 18:35:27.906378  3659 net.cpp:150] Setting up conv6/sep_relu6/sep_0_split
I1209 18:35:27.906383  3659 net.cpp:157] Top shape: 1 1024 10 16 (163840)
I1209 18:35:27.906386  3659 net.cpp:157] Top shape: 1 1024 10 16 (163840)
I1209 18:35:27.906389  3659 net.cpp:157] Top shape: 1 1024 10 16 (163840)
I1209 18:35:27.906391  3659 net.cpp:157] Top shape: 1 1024 10 16 (163840)
I1209 18:35:27.906394  3659 net.cpp:165] Memory required for data: 270757664
I1209 18:35:27.906395  3659 layer_factory.hpp:77] Creating layer ssd1_1
I1209 18:35:27.906400  3659 net.cpp:100] Creating Layer ssd1_1
I1209 18:35:27.906404  3659 net.cpp:434] ssd1_1 <- conv6/sep_relu6/sep_0_split_0
I1209 18:35:27.906407  3659 net.cpp:408] ssd1_1 -> ssd1_1
I1209 18:35:27.909682  3659 net.cpp:150] Setting up ssd1_1
I1209 18:35:27.909692  3659 net.cpp:157] Top shape: 1 256 10 16 (40960)
I1209 18:35:27.909694  3659 net.cpp:165] Memory required for data: 270921504
I1209 18:35:27.909698  3659 layer_factory.hpp:77] Creating layer ssd1_1_relu
I1209 18:35:27.909703  3659 net.cpp:100] Creating Layer ssd1_1_relu
I1209 18:35:27.909705  3659 net.cpp:434] ssd1_1_relu <- ssd1_1
I1209 18:35:27.909710  3659 net.cpp:395] ssd1_1_relu -> ssd1_1 (in-place)
I1209 18:35:27.910074  3659 net.cpp:150] Setting up ssd1_1_relu
I1209 18:35:27.910081  3659 net.cpp:157] Top shape: 1 256 10 16 (40960)
I1209 18:35:27.910082  3659 net.cpp:165] Memory required for data: 271085344
I1209 18:35:27.910084  3659 layer_factory.hpp:77] Creating layer ssd1_2
I1209 18:35:27.910091  3659 net.cpp:100] Creating Layer ssd1_2
I1209 18:35:27.910094  3659 net.cpp:434] ssd1_2 <- ssd1_1
I1209 18:35:27.910097  3659 net.cpp:408] ssd1_2 -> ssd1_2
I1209 18:35:27.916491  3659 net.cpp:150] Setting up ssd1_2
I1209 18:35:27.916505  3659 net.cpp:157] Top shape: 1 512 5 8 (20480)
I1209 18:35:27.916507  3659 net.cpp:165] Memory required for data: 271167264
I1209 18:35:27.916513  3659 layer_factory.hpp:77] Creating layer ssd1_2_relu
I1209 18:35:27.916519  3659 net.cpp:100] Creating Layer ssd1_2_relu
I1209 18:35:27.916522  3659 net.cpp:434] ssd1_2_relu <- ssd1_2
I1209 18:35:27.916525  3659 net.cpp:395] ssd1_2_relu -> ssd1_2 (in-place)
I1209 18:35:27.917430  3659 net.cpp:150] Setting up ssd1_2_relu
I1209 18:35:27.917438  3659 net.cpp:157] Top shape: 1 512 5 8 (20480)
I1209 18:35:27.917440  3659 net.cpp:165] Memory required for data: 271249184
I1209 18:35:27.917443  3659 layer_factory.hpp:77] Creating layer ssd1_2_ssd1_2_relu_0_split
I1209 18:35:27.917459  3659 net.cpp:100] Creating Layer ssd1_2_ssd1_2_relu_0_split
I1209 18:35:27.917462  3659 net.cpp:434] ssd1_2_ssd1_2_relu_0_split <- ssd1_2
I1209 18:35:27.917466  3659 net.cpp:408] ssd1_2_ssd1_2_relu_0_split -> ssd1_2_ssd1_2_relu_0_split_0
I1209 18:35:27.917471  3659 net.cpp:408] ssd1_2_ssd1_2_relu_0_split -> ssd1_2_ssd1_2_relu_0_split_1
I1209 18:35:27.917475  3659 net.cpp:408] ssd1_2_ssd1_2_relu_0_split -> ssd1_2_ssd1_2_relu_0_split_2
I1209 18:35:27.917479  3659 net.cpp:408] ssd1_2_ssd1_2_relu_0_split -> ssd1_2_ssd1_2_relu_0_split_3
I1209 18:35:27.917541  3659 net.cpp:150] Setting up ssd1_2_ssd1_2_relu_0_split
I1209 18:35:27.917544  3659 net.cpp:157] Top shape: 1 512 5 8 (20480)
I1209 18:35:27.917547  3659 net.cpp:157] Top shape: 1 512 5 8 (20480)
I1209 18:35:27.917549  3659 net.cpp:157] Top shape: 1 512 5 8 (20480)
I1209 18:35:27.917551  3659 net.cpp:157] Top shape: 1 512 5 8 (20480)
I1209 18:35:27.917553  3659 net.cpp:165] Memory required for data: 271576864
I1209 18:35:27.917556  3659 layer_factory.hpp:77] Creating layer ssd2_1
I1209 18:35:27.917562  3659 net.cpp:100] Creating Layer ssd2_1
I1209 18:35:27.917563  3659 net.cpp:434] ssd2_1 <- ssd1_2_ssd1_2_relu_0_split_0
I1209 18:35:27.917567  3659 net.cpp:408] ssd2_1 -> ssd2_1
I1209 18:35:27.919287  3659 net.cpp:150] Setting up ssd2_1
I1209 18:35:27.919294  3659 net.cpp:157] Top shape: 1 128 5 8 (5120)
I1209 18:35:27.919296  3659 net.cpp:165] Memory required for data: 271597344
I1209 18:35:27.919301  3659 layer_factory.hpp:77] Creating layer ssd2_1_relu
I1209 18:35:27.919306  3659 net.cpp:100] Creating Layer ssd2_1_relu
I1209 18:35:27.919307  3659 net.cpp:434] ssd2_1_relu <- ssd2_1
I1209 18:35:27.919309  3659 net.cpp:395] ssd2_1_relu -> ssd2_1 (in-place)
I1209 18:35:27.919663  3659 net.cpp:150] Setting up ssd2_1_relu
I1209 18:35:27.919669  3659 net.cpp:157] Top shape: 1 128 5 8 (5120)
I1209 18:35:27.919672  3659 net.cpp:165] Memory required for data: 271617824
I1209 18:35:27.919673  3659 layer_factory.hpp:77] Creating layer ssd2_2
I1209 18:35:27.919679  3659 net.cpp:100] Creating Layer ssd2_2
I1209 18:35:27.919682  3659 net.cpp:434] ssd2_2 <- ssd2_1
I1209 18:35:27.919685  3659 net.cpp:408] ssd2_2 -> ssd2_2
I1209 18:35:27.923146  3659 net.cpp:150] Setting up ssd2_2
I1209 18:35:27.923157  3659 net.cpp:157] Top shape: 1 256 3 4 (3072)
I1209 18:35:27.923159  3659 net.cpp:165] Memory required for data: 271630112
I1209 18:35:27.923166  3659 layer_factory.hpp:77] Creating layer ssd2_2_relu
I1209 18:35:27.923171  3659 net.cpp:100] Creating Layer ssd2_2_relu
I1209 18:35:27.923172  3659 net.cpp:434] ssd2_2_relu <- ssd2_2
I1209 18:35:27.923177  3659 net.cpp:395] ssd2_2_relu -> ssd2_2 (in-place)
I1209 18:35:27.923532  3659 net.cpp:150] Setting up ssd2_2_relu
I1209 18:35:27.923537  3659 net.cpp:157] Top shape: 1 256 3 4 (3072)
I1209 18:35:27.923538  3659 net.cpp:165] Memory required for data: 271642400
I1209 18:35:27.923542  3659 layer_factory.hpp:77] Creating layer ssd2_2_ssd2_2_relu_0_split
I1209 18:35:27.923545  3659 net.cpp:100] Creating Layer ssd2_2_ssd2_2_relu_0_split
I1209 18:35:27.923548  3659 net.cpp:434] ssd2_2_ssd2_2_relu_0_split <- ssd2_2
I1209 18:35:27.923552  3659 net.cpp:408] ssd2_2_ssd2_2_relu_0_split -> ssd2_2_ssd2_2_relu_0_split_0
I1209 18:35:27.923557  3659 net.cpp:408] ssd2_2_ssd2_2_relu_0_split -> ssd2_2_ssd2_2_relu_0_split_1
I1209 18:35:27.923559  3659 net.cpp:408] ssd2_2_ssd2_2_relu_0_split -> ssd2_2_ssd2_2_relu_0_split_2
I1209 18:35:27.923563  3659 net.cpp:408] ssd2_2_ssd2_2_relu_0_split -> ssd2_2_ssd2_2_relu_0_split_3
I1209 18:35:27.923619  3659 net.cpp:150] Setting up ssd2_2_ssd2_2_relu_0_split
I1209 18:35:27.923624  3659 net.cpp:157] Top shape: 1 256 3 4 (3072)
I1209 18:35:27.923625  3659 net.cpp:157] Top shape: 1 256 3 4 (3072)
I1209 18:35:27.923627  3659 net.cpp:157] Top shape: 1 256 3 4 (3072)
I1209 18:35:27.923629  3659 net.cpp:157] Top shape: 1 256 3 4 (3072)
I1209 18:35:27.923631  3659 net.cpp:165] Memory required for data: 271691552
I1209 18:35:27.923633  3659 layer_factory.hpp:77] Creating layer ssd3_1
I1209 18:35:27.923640  3659 net.cpp:100] Creating Layer ssd3_1
I1209 18:35:27.923652  3659 net.cpp:434] ssd3_1 <- ssd2_2_ssd2_2_relu_0_split_0
I1209 18:35:27.923657  3659 net.cpp:408] ssd3_1 -> ssd3_1
I1209 18:35:27.925263  3659 net.cpp:150] Setting up ssd3_1
I1209 18:35:27.925271  3659 net.cpp:157] Top shape: 1 128 3 4 (1536)
I1209 18:35:27.925272  3659 net.cpp:165] Memory required for data: 271697696
I1209 18:35:27.925276  3659 layer_factory.hpp:77] Creating layer ssd3_1_relu
I1209 18:35:27.925281  3659 net.cpp:100] Creating Layer ssd3_1_relu
I1209 18:35:27.925282  3659 net.cpp:434] ssd3_1_relu <- ssd3_1
I1209 18:35:27.925284  3659 net.cpp:395] ssd3_1_relu -> ssd3_1 (in-place)
I1209 18:35:27.925858  3659 net.cpp:150] Setting up ssd3_1_relu
I1209 18:35:27.925865  3659 net.cpp:157] Top shape: 1 128 3 4 (1536)
I1209 18:35:27.925868  3659 net.cpp:165] Memory required for data: 271703840
I1209 18:35:27.925869  3659 layer_factory.hpp:77] Creating layer ssd3_2
I1209 18:35:27.925876  3659 net.cpp:100] Creating Layer ssd3_2
I1209 18:35:27.925879  3659 net.cpp:434] ssd3_2 <- ssd3_1
I1209 18:35:27.925882  3659 net.cpp:408] ssd3_2 -> ssd3_2
I1209 18:35:27.928884  3659 net.cpp:150] Setting up ssd3_2
I1209 18:35:27.928894  3659 net.cpp:157] Top shape: 1 256 2 2 (1024)
I1209 18:35:27.928896  3659 net.cpp:165] Memory required for data: 271707936
I1209 18:35:27.928901  3659 layer_factory.hpp:77] Creating layer ssd3_2_relu
I1209 18:35:27.928905  3659 net.cpp:100] Creating Layer ssd3_2_relu
I1209 18:35:27.928907  3659 net.cpp:434] ssd3_2_relu <- ssd3_2
I1209 18:35:27.928911  3659 net.cpp:395] ssd3_2_relu -> ssd3_2 (in-place)
I1209 18:35:27.929461  3659 net.cpp:150] Setting up ssd3_2_relu
I1209 18:35:27.929468  3659 net.cpp:157] Top shape: 1 256 2 2 (1024)
I1209 18:35:27.929471  3659 net.cpp:165] Memory required for data: 271712032
I1209 18:35:27.929472  3659 layer_factory.hpp:77] Creating layer ssd3_2_ssd3_2_relu_0_split
I1209 18:35:27.929477  3659 net.cpp:100] Creating Layer ssd3_2_ssd3_2_relu_0_split
I1209 18:35:27.929479  3659 net.cpp:434] ssd3_2_ssd3_2_relu_0_split <- ssd3_2
I1209 18:35:27.929483  3659 net.cpp:408] ssd3_2_ssd3_2_relu_0_split -> ssd3_2_ssd3_2_relu_0_split_0
I1209 18:35:27.929488  3659 net.cpp:408] ssd3_2_ssd3_2_relu_0_split -> ssd3_2_ssd3_2_relu_0_split_1
I1209 18:35:27.929492  3659 net.cpp:408] ssd3_2_ssd3_2_relu_0_split -> ssd3_2_ssd3_2_relu_0_split_2
I1209 18:35:27.929495  3659 net.cpp:408] ssd3_2_ssd3_2_relu_0_split -> ssd3_2_ssd3_2_relu_0_split_3
I1209 18:35:27.929549  3659 net.cpp:150] Setting up ssd3_2_ssd3_2_relu_0_split
I1209 18:35:27.929553  3659 net.cpp:157] Top shape: 1 256 2 2 (1024)
I1209 18:35:27.929556  3659 net.cpp:157] Top shape: 1 256 2 2 (1024)
I1209 18:35:27.929558  3659 net.cpp:157] Top shape: 1 256 2 2 (1024)
I1209 18:35:27.929561  3659 net.cpp:157] Top shape: 1 256 2 2 (1024)
I1209 18:35:27.929563  3659 net.cpp:165] Memory required for data: 271728416
I1209 18:35:27.929564  3659 layer_factory.hpp:77] Creating layer ssd4_1
I1209 18:35:27.929569  3659 net.cpp:100] Creating Layer ssd4_1
I1209 18:35:27.929571  3659 net.cpp:434] ssd4_1 <- ssd3_2_ssd3_2_relu_0_split_0
I1209 18:35:27.929576  3659 net.cpp:408] ssd4_1 -> ssd4_1
I1209 18:35:27.931177  3659 net.cpp:150] Setting up ssd4_1
I1209 18:35:27.931185  3659 net.cpp:157] Top shape: 1 128 2 2 (512)
I1209 18:35:27.931186  3659 net.cpp:165] Memory required for data: 271730464
I1209 18:35:27.931190  3659 layer_factory.hpp:77] Creating layer ssd4_1_relu
I1209 18:35:27.931205  3659 net.cpp:100] Creating Layer ssd4_1_relu
I1209 18:35:27.931206  3659 net.cpp:434] ssd4_1_relu <- ssd4_1
I1209 18:35:27.931210  3659 net.cpp:395] ssd4_1_relu -> ssd4_1 (in-place)
I1209 18:35:27.931560  3659 net.cpp:150] Setting up ssd4_1_relu
I1209 18:35:27.931566  3659 net.cpp:157] Top shape: 1 128 2 2 (512)
I1209 18:35:27.931567  3659 net.cpp:165] Memory required for data: 271732512
I1209 18:35:27.931569  3659 layer_factory.hpp:77] Creating layer ssd4_2
I1209 18:35:27.931576  3659 net.cpp:100] Creating Layer ssd4_2
I1209 18:35:27.931578  3659 net.cpp:434] ssd4_2 <- ssd4_1
I1209 18:35:27.931582  3659 net.cpp:408] ssd4_2 -> ssd4_2
I1209 18:35:27.934952  3659 net.cpp:150] Setting up ssd4_2
I1209 18:35:27.934959  3659 net.cpp:157] Top shape: 1 256 1 1 (256)
I1209 18:35:27.934962  3659 net.cpp:165] Memory required for data: 271733536
I1209 18:35:27.934967  3659 layer_factory.hpp:77] Creating layer ssd4_2_relu
I1209 18:35:27.934970  3659 net.cpp:100] Creating Layer ssd4_2_relu
I1209 18:35:27.934973  3659 net.cpp:434] ssd4_2_relu <- ssd4_2
I1209 18:35:27.934976  3659 net.cpp:395] ssd4_2_relu -> ssd4_2 (in-place)
I1209 18:35:27.935334  3659 net.cpp:150] Setting up ssd4_2_relu
I1209 18:35:27.935340  3659 net.cpp:157] Top shape: 1 256 1 1 (256)
I1209 18:35:27.935343  3659 net.cpp:165] Memory required for data: 271734560
I1209 18:35:27.935344  3659 layer_factory.hpp:77] Creating layer ssd4_2_ssd4_2_relu_0_split
I1209 18:35:27.935349  3659 net.cpp:100] Creating Layer ssd4_2_ssd4_2_relu_0_split
I1209 18:35:27.935351  3659 net.cpp:434] ssd4_2_ssd4_2_relu_0_split <- ssd4_2
I1209 18:35:27.935355  3659 net.cpp:408] ssd4_2_ssd4_2_relu_0_split -> ssd4_2_ssd4_2_relu_0_split_0
I1209 18:35:27.935367  3659 net.cpp:408] ssd4_2_ssd4_2_relu_0_split -> ssd4_2_ssd4_2_relu_0_split_1
I1209 18:35:27.935371  3659 net.cpp:408] ssd4_2_ssd4_2_relu_0_split -> ssd4_2_ssd4_2_relu_0_split_2
I1209 18:35:27.935416  3659 net.cpp:150] Setting up ssd4_2_ssd4_2_relu_0_split
I1209 18:35:27.935420  3659 net.cpp:157] Top shape: 1 256 1 1 (256)
I1209 18:35:27.935423  3659 net.cpp:157] Top shape: 1 256 1 1 (256)
I1209 18:35:27.935425  3659 net.cpp:157] Top shape: 1 256 1 1 (256)
I1209 18:35:27.935427  3659 net.cpp:165] Memory required for data: 271737632
I1209 18:35:27.935428  3659 layer_factory.hpp:77] Creating layer conv5_5/sep_mbox_loc
I1209 18:35:27.935437  3659 net.cpp:100] Creating Layer conv5_5/sep_mbox_loc
I1209 18:35:27.935439  3659 net.cpp:434] conv5_5/sep_mbox_loc <- conv5_5/sep_relu5_5/sep_0_split_1
I1209 18:35:27.935443  3659 net.cpp:408] conv5_5/sep_mbox_loc -> conv5_5/sep_mbox_loc
I1209 18:35:27.937250  3659 net.cpp:150] Setting up conv5_5/sep_mbox_loc
I1209 18:35:27.937258  3659 net.cpp:157] Top shape: 1 8 19 32 (4864)
I1209 18:35:27.937259  3659 net.cpp:165] Memory required for data: 271757088
I1209 18:35:27.937264  3659 layer_factory.hpp:77] Creating layer conv5_5/sep_mbox_loc_perm
I1209 18:35:27.937269  3659 net.cpp:100] Creating Layer conv5_5/sep_mbox_loc_perm
I1209 18:35:27.937271  3659 net.cpp:434] conv5_5/sep_mbox_loc_perm <- conv5_5/sep_mbox_loc
I1209 18:35:27.937275  3659 net.cpp:408] conv5_5/sep_mbox_loc_perm -> conv5_5/sep_mbox_loc_perm
I1209 18:35:27.937366  3659 net.cpp:150] Setting up conv5_5/sep_mbox_loc_perm
I1209 18:35:27.937371  3659 net.cpp:157] Top shape: 1 19 32 8 (4864)
I1209 18:35:27.937372  3659 net.cpp:165] Memory required for data: 271776544
I1209 18:35:27.937374  3659 layer_factory.hpp:77] Creating layer conv5_5/sep_mbox_loc_flat
I1209 18:35:27.937377  3659 net.cpp:100] Creating Layer conv5_5/sep_mbox_loc_flat
I1209 18:35:27.937379  3659 net.cpp:434] conv5_5/sep_mbox_loc_flat <- conv5_5/sep_mbox_loc_perm
I1209 18:35:27.937382  3659 net.cpp:408] conv5_5/sep_mbox_loc_flat -> conv5_5/sep_mbox_loc_flat
I1209 18:35:27.937402  3659 net.cpp:150] Setting up conv5_5/sep_mbox_loc_flat
I1209 18:35:27.937405  3659 net.cpp:157] Top shape: 1 4864 (4864)
I1209 18:35:27.937407  3659 net.cpp:165] Memory required for data: 271796000
I1209 18:35:27.937409  3659 layer_factory.hpp:77] Creating layer conv5_5/sep_mbox_conf
I1209 18:35:27.937414  3659 net.cpp:100] Creating Layer conv5_5/sep_mbox_conf
I1209 18:35:27.937417  3659 net.cpp:434] conv5_5/sep_mbox_conf <- conv5_5/sep_relu5_5/sep_0_split_2
I1209 18:35:27.937422  3659 net.cpp:408] conv5_5/sep_mbox_conf -> conv5_5/sep_mbox_conf
I1209 18:35:27.939466  3659 net.cpp:150] Setting up conv5_5/sep_mbox_conf
I1209 18:35:27.939474  3659 net.cpp:157] Top shape: 1 10 19 32 (6080)
I1209 18:35:27.939476  3659 net.cpp:165] Memory required for data: 271820320
I1209 18:35:27.939481  3659 layer_factory.hpp:77] Creating layer conv5_5/sep_mbox_conf_perm
I1209 18:35:27.939486  3659 net.cpp:100] Creating Layer conv5_5/sep_mbox_conf_perm
I1209 18:35:27.939496  3659 net.cpp:434] conv5_5/sep_mbox_conf_perm <- conv5_5/sep_mbox_conf
I1209 18:35:27.939502  3659 net.cpp:408] conv5_5/sep_mbox_conf_perm -> conv5_5/sep_mbox_conf_perm
I1209 18:35:27.939591  3659 net.cpp:150] Setting up conv5_5/sep_mbox_conf_perm
I1209 18:35:27.939596  3659 net.cpp:157] Top shape: 1 19 32 10 (6080)
I1209 18:35:27.939597  3659 net.cpp:165] Memory required for data: 271844640
I1209 18:35:27.939599  3659 layer_factory.hpp:77] Creating layer conv5_5/sep_mbox_conf_flat
I1209 18:35:27.939602  3659 net.cpp:100] Creating Layer conv5_5/sep_mbox_conf_flat
I1209 18:35:27.939605  3659 net.cpp:434] conv5_5/sep_mbox_conf_flat <- conv5_5/sep_mbox_conf_perm
I1209 18:35:27.939608  3659 net.cpp:408] conv5_5/sep_mbox_conf_flat -> conv5_5/sep_mbox_conf_flat
I1209 18:35:27.939630  3659 net.cpp:150] Setting up conv5_5/sep_mbox_conf_flat
I1209 18:35:27.939635  3659 net.cpp:157] Top shape: 1 6080 (6080)
I1209 18:35:27.939636  3659 net.cpp:165] Memory required for data: 271868960
I1209 18:35:27.939638  3659 layer_factory.hpp:77] Creating layer conv5_5/sep_mbox_priorbox
I1209 18:35:27.939642  3659 net.cpp:100] Creating Layer conv5_5/sep_mbox_priorbox
I1209 18:35:27.939644  3659 net.cpp:434] conv5_5/sep_mbox_priorbox <- conv5_5/sep_relu5_5/sep_0_split_3
I1209 18:35:27.939647  3659 net.cpp:434] conv5_5/sep_mbox_priorbox <- data_data_0_split_1
I1209 18:35:27.939652  3659 net.cpp:408] conv5_5/sep_mbox_priorbox -> conv5_5/sep_mbox_priorbox
I1209 18:35:27.939673  3659 net.cpp:150] Setting up conv5_5/sep_mbox_priorbox
I1209 18:35:27.939677  3659 net.cpp:157] Top shape: 1 2 4864 (9728)
I1209 18:35:27.939679  3659 net.cpp:165] Memory required for data: 271907872
I1209 18:35:27.939682  3659 layer_factory.hpp:77] Creating layer conv6/sep_mbox_loc
I1209 18:35:27.939687  3659 net.cpp:100] Creating Layer conv6/sep_mbox_loc
I1209 18:35:27.939689  3659 net.cpp:434] conv6/sep_mbox_loc <- conv6/sep_relu6/sep_0_split_1
I1209 18:35:27.939693  3659 net.cpp:408] conv6/sep_mbox_loc -> conv6/sep_mbox_loc
I1209 18:35:27.941623  3659 net.cpp:150] Setting up conv6/sep_mbox_loc
I1209 18:35:27.941630  3659 net.cpp:157] Top shape: 1 8 10 16 (1280)
I1209 18:35:27.941633  3659 net.cpp:165] Memory required for data: 271912992
I1209 18:35:27.941637  3659 layer_factory.hpp:77] Creating layer conv6/sep_mbox_loc_perm
I1209 18:35:27.941643  3659 net.cpp:100] Creating Layer conv6/sep_mbox_loc_perm
I1209 18:35:27.941645  3659 net.cpp:434] conv6/sep_mbox_loc_perm <- conv6/sep_mbox_loc
I1209 18:35:27.941649  3659 net.cpp:408] conv6/sep_mbox_loc_perm -> conv6/sep_mbox_loc_perm
I1209 18:35:27.941745  3659 net.cpp:150] Setting up conv6/sep_mbox_loc_perm
I1209 18:35:27.941747  3659 net.cpp:157] Top shape: 1 10 16 8 (1280)
I1209 18:35:27.941749  3659 net.cpp:165] Memory required for data: 271918112
I1209 18:35:27.941751  3659 layer_factory.hpp:77] Creating layer conv6/sep_mbox_loc_flat
I1209 18:35:27.941756  3659 net.cpp:100] Creating Layer conv6/sep_mbox_loc_flat
I1209 18:35:27.941758  3659 net.cpp:434] conv6/sep_mbox_loc_flat <- conv6/sep_mbox_loc_perm
I1209 18:35:27.941761  3659 net.cpp:408] conv6/sep_mbox_loc_flat -> conv6/sep_mbox_loc_flat
I1209 18:35:27.941779  3659 net.cpp:150] Setting up conv6/sep_mbox_loc_flat
I1209 18:35:27.941783  3659 net.cpp:157] Top shape: 1 1280 (1280)
I1209 18:35:27.941784  3659 net.cpp:165] Memory required for data: 271923232
I1209 18:35:27.941787  3659 layer_factory.hpp:77] Creating layer conv6/sep_mbox_conf
I1209 18:35:27.941792  3659 net.cpp:100] Creating Layer conv6/sep_mbox_conf
I1209 18:35:27.941795  3659 net.cpp:434] conv6/sep_mbox_conf <- conv6/sep_relu6/sep_0_split_2
I1209 18:35:27.941799  3659 net.cpp:408] conv6/sep_mbox_conf -> conv6/sep_mbox_conf
I1209 18:35:27.943799  3659 net.cpp:150] Setting up conv6/sep_mbox_conf
I1209 18:35:27.943805  3659 net.cpp:157] Top shape: 1 10 10 16 (1600)
I1209 18:35:27.943809  3659 net.cpp:165] Memory required for data: 271929632
I1209 18:35:27.943812  3659 layer_factory.hpp:77] Creating layer conv6/sep_mbox_conf_perm
I1209 18:35:27.943817  3659 net.cpp:100] Creating Layer conv6/sep_mbox_conf_perm
I1209 18:35:27.943827  3659 net.cpp:434] conv6/sep_mbox_conf_perm <- conv6/sep_mbox_conf
I1209 18:35:27.943832  3659 net.cpp:408] conv6/sep_mbox_conf_perm -> conv6/sep_mbox_conf_perm
I1209 18:35:27.943928  3659 net.cpp:150] Setting up conv6/sep_mbox_conf_perm
I1209 18:35:27.943933  3659 net.cpp:157] Top shape: 1 10 16 10 (1600)
I1209 18:35:27.943934  3659 net.cpp:165] Memory required for data: 271936032
I1209 18:35:27.943936  3659 layer_factory.hpp:77] Creating layer conv6/sep_mbox_conf_flat
I1209 18:35:27.943939  3659 net.cpp:100] Creating Layer conv6/sep_mbox_conf_flat
I1209 18:35:27.943943  3659 net.cpp:434] conv6/sep_mbox_conf_flat <- conv6/sep_mbox_conf_perm
I1209 18:35:27.943946  3659 net.cpp:408] conv6/sep_mbox_conf_flat -> conv6/sep_mbox_conf_flat
I1209 18:35:27.943965  3659 net.cpp:150] Setting up conv6/sep_mbox_conf_flat
I1209 18:35:27.943969  3659 net.cpp:157] Top shape: 1 1600 (1600)
I1209 18:35:27.943970  3659 net.cpp:165] Memory required for data: 271942432
I1209 18:35:27.943972  3659 layer_factory.hpp:77] Creating layer conv6/sep_mbox_priorbox
I1209 18:35:27.943979  3659 net.cpp:100] Creating Layer conv6/sep_mbox_priorbox
I1209 18:35:27.943981  3659 net.cpp:434] conv6/sep_mbox_priorbox <- conv6/sep_relu6/sep_0_split_3
I1209 18:35:27.943984  3659 net.cpp:434] conv6/sep_mbox_priorbox <- data_data_0_split_2
I1209 18:35:27.943987  3659 net.cpp:408] conv6/sep_mbox_priorbox -> conv6/sep_mbox_priorbox
I1209 18:35:27.944010  3659 net.cpp:150] Setting up conv6/sep_mbox_priorbox
I1209 18:35:27.944013  3659 net.cpp:157] Top shape: 1 2 1280 (2560)
I1209 18:35:27.944015  3659 net.cpp:165] Memory required for data: 271952672
I1209 18:35:27.944016  3659 layer_factory.hpp:77] Creating layer ssd1_2_mbox_loc
I1209 18:35:27.944023  3659 net.cpp:100] Creating Layer ssd1_2_mbox_loc
I1209 18:35:27.944026  3659 net.cpp:434] ssd1_2_mbox_loc <- ssd1_2_ssd1_2_relu_0_split_1
I1209 18:35:27.944030  3659 net.cpp:408] ssd1_2_mbox_loc -> ssd1_2_mbox_loc
I1209 18:35:27.946414  3659 net.cpp:150] Setting up ssd1_2_mbox_loc
I1209 18:35:27.946424  3659 net.cpp:157] Top shape: 1 8 5 8 (320)
I1209 18:35:27.946425  3659 net.cpp:165] Memory required for data: 271953952
I1209 18:35:27.946429  3659 layer_factory.hpp:77] Creating layer ssd1_2_mbox_loc_perm
I1209 18:35:27.946434  3659 net.cpp:100] Creating Layer ssd1_2_mbox_loc_perm
I1209 18:35:27.946436  3659 net.cpp:434] ssd1_2_mbox_loc_perm <- ssd1_2_mbox_loc
I1209 18:35:27.946440  3659 net.cpp:408] ssd1_2_mbox_loc_perm -> ssd1_2_mbox_loc_perm
I1209 18:35:27.946542  3659 net.cpp:150] Setting up ssd1_2_mbox_loc_perm
I1209 18:35:27.946545  3659 net.cpp:157] Top shape: 1 5 8 8 (320)
I1209 18:35:27.946547  3659 net.cpp:165] Memory required for data: 271955232
I1209 18:35:27.946548  3659 layer_factory.hpp:77] Creating layer ssd1_2_mbox_loc_flat
I1209 18:35:27.946552  3659 net.cpp:100] Creating Layer ssd1_2_mbox_loc_flat
I1209 18:35:27.946553  3659 net.cpp:434] ssd1_2_mbox_loc_flat <- ssd1_2_mbox_loc_perm
I1209 18:35:27.946557  3659 net.cpp:408] ssd1_2_mbox_loc_flat -> ssd1_2_mbox_loc_flat
I1209 18:35:27.946576  3659 net.cpp:150] Setting up ssd1_2_mbox_loc_flat
I1209 18:35:27.946579  3659 net.cpp:157] Top shape: 1 320 (320)
I1209 18:35:27.946581  3659 net.cpp:165] Memory required for data: 271956512
I1209 18:35:27.946583  3659 layer_factory.hpp:77] Creating layer ssd1_2_mbox_conf
I1209 18:35:27.946588  3659 net.cpp:100] Creating Layer ssd1_2_mbox_conf
I1209 18:35:27.946590  3659 net.cpp:434] ssd1_2_mbox_conf <- ssd1_2_ssd1_2_relu_0_split_2
I1209 18:35:27.946595  3659 net.cpp:408] ssd1_2_mbox_conf -> ssd1_2_mbox_conf
I1209 18:35:27.948968  3659 net.cpp:150] Setting up ssd1_2_mbox_conf
I1209 18:35:27.948977  3659 net.cpp:157] Top shape: 1 10 5 8 (400)
I1209 18:35:27.948979  3659 net.cpp:165] Memory required for data: 271958112
I1209 18:35:27.948983  3659 layer_factory.hpp:77] Creating layer ssd1_2_mbox_conf_perm
I1209 18:35:27.948989  3659 net.cpp:100] Creating Layer ssd1_2_mbox_conf_perm
I1209 18:35:27.948992  3659 net.cpp:434] ssd1_2_mbox_conf_perm <- ssd1_2_mbox_conf
I1209 18:35:27.949008  3659 net.cpp:408] ssd1_2_mbox_conf_perm -> ssd1_2_mbox_conf_perm
I1209 18:35:27.949107  3659 net.cpp:150] Setting up ssd1_2_mbox_conf_perm
I1209 18:35:27.949111  3659 net.cpp:157] Top shape: 1 5 8 10 (400)
I1209 18:35:27.949115  3659 net.cpp:165] Memory required for data: 271959712
I1209 18:35:27.949115  3659 layer_factory.hpp:77] Creating layer ssd1_2_mbox_conf_flat
I1209 18:35:27.949120  3659 net.cpp:100] Creating Layer ssd1_2_mbox_conf_flat
I1209 18:35:27.949121  3659 net.cpp:434] ssd1_2_mbox_conf_flat <- ssd1_2_mbox_conf_perm
I1209 18:35:27.949126  3659 net.cpp:408] ssd1_2_mbox_conf_flat -> ssd1_2_mbox_conf_flat
I1209 18:35:27.949144  3659 net.cpp:150] Setting up ssd1_2_mbox_conf_flat
I1209 18:35:27.949148  3659 net.cpp:157] Top shape: 1 400 (400)
I1209 18:35:27.949151  3659 net.cpp:165] Memory required for data: 271961312
I1209 18:35:27.949152  3659 layer_factory.hpp:77] Creating layer ssd1_2_mbox_priorbox
I1209 18:35:27.949156  3659 net.cpp:100] Creating Layer ssd1_2_mbox_priorbox
I1209 18:35:27.949158  3659 net.cpp:434] ssd1_2_mbox_priorbox <- ssd1_2_ssd1_2_relu_0_split_3
I1209 18:35:27.949162  3659 net.cpp:434] ssd1_2_mbox_priorbox <- data_data_0_split_3
I1209 18:35:27.949167  3659 net.cpp:408] ssd1_2_mbox_priorbox -> ssd1_2_mbox_priorbox
I1209 18:35:27.949189  3659 net.cpp:150] Setting up ssd1_2_mbox_priorbox
I1209 18:35:27.949193  3659 net.cpp:157] Top shape: 1 2 320 (640)
I1209 18:35:27.949195  3659 net.cpp:165] Memory required for data: 271963872
I1209 18:35:27.949196  3659 layer_factory.hpp:77] Creating layer ssd2_2_mbox_loc
I1209 18:35:27.949203  3659 net.cpp:100] Creating Layer ssd2_2_mbox_loc
I1209 18:35:27.949205  3659 net.cpp:434] ssd2_2_mbox_loc <- ssd2_2_ssd2_2_relu_0_split_1
I1209 18:35:27.949209  3659 net.cpp:408] ssd2_2_mbox_loc -> ssd2_2_mbox_loc
I1209 18:35:27.950809  3659 net.cpp:150] Setting up ssd2_2_mbox_loc
I1209 18:35:27.950816  3659 net.cpp:157] Top shape: 1 8 3 4 (96)
I1209 18:35:27.950819  3659 net.cpp:165] Memory required for data: 271964256
I1209 18:35:27.950824  3659 layer_factory.hpp:77] Creating layer ssd2_2_mbox_loc_perm
I1209 18:35:27.950829  3659 net.cpp:100] Creating Layer ssd2_2_mbox_loc_perm
I1209 18:35:27.950830  3659 net.cpp:434] ssd2_2_mbox_loc_perm <- ssd2_2_mbox_loc
I1209 18:35:27.950834  3659 net.cpp:408] ssd2_2_mbox_loc_perm -> ssd2_2_mbox_loc_perm
I1209 18:35:27.950928  3659 net.cpp:150] Setting up ssd2_2_mbox_loc_perm
I1209 18:35:27.950932  3659 net.cpp:157] Top shape: 1 3 4 8 (96)
I1209 18:35:27.950934  3659 net.cpp:165] Memory required for data: 271964640
I1209 18:35:27.950937  3659 layer_factory.hpp:77] Creating layer ssd2_2_mbox_loc_flat
I1209 18:35:27.950939  3659 net.cpp:100] Creating Layer ssd2_2_mbox_loc_flat
I1209 18:35:27.950942  3659 net.cpp:434] ssd2_2_mbox_loc_flat <- ssd2_2_mbox_loc_perm
I1209 18:35:27.950945  3659 net.cpp:408] ssd2_2_mbox_loc_flat -> ssd2_2_mbox_loc_flat
I1209 18:35:27.950964  3659 net.cpp:150] Setting up ssd2_2_mbox_loc_flat
I1209 18:35:27.950968  3659 net.cpp:157] Top shape: 1 96 (96)
I1209 18:35:27.950970  3659 net.cpp:165] Memory required for data: 271965024
I1209 18:35:27.950971  3659 layer_factory.hpp:77] Creating layer ssd2_2_mbox_conf
I1209 18:35:27.950978  3659 net.cpp:100] Creating Layer ssd2_2_mbox_conf
I1209 18:35:27.950980  3659 net.cpp:434] ssd2_2_mbox_conf <- ssd2_2_ssd2_2_relu_0_split_2
I1209 18:35:27.950984  3659 net.cpp:408] ssd2_2_mbox_conf -> ssd2_2_mbox_conf
I1209 18:35:27.952584  3659 net.cpp:150] Setting up ssd2_2_mbox_conf
I1209 18:35:27.952591  3659 net.cpp:157] Top shape: 1 10 3 4 (120)
I1209 18:35:27.952594  3659 net.cpp:165] Memory required for data: 271965504
I1209 18:35:27.952597  3659 layer_factory.hpp:77] Creating layer ssd2_2_mbox_conf_perm
I1209 18:35:27.952602  3659 net.cpp:100] Creating Layer ssd2_2_mbox_conf_perm
I1209 18:35:27.952605  3659 net.cpp:434] ssd2_2_mbox_conf_perm <- ssd2_2_mbox_conf
I1209 18:35:27.952610  3659 net.cpp:408] ssd2_2_mbox_conf_perm -> ssd2_2_mbox_conf_perm
I1209 18:35:27.952702  3659 net.cpp:150] Setting up ssd2_2_mbox_conf_perm
I1209 18:35:27.952714  3659 net.cpp:157] Top shape: 1 3 4 10 (120)
I1209 18:35:27.952715  3659 net.cpp:165] Memory required for data: 271965984
I1209 18:35:27.952718  3659 layer_factory.hpp:77] Creating layer ssd2_2_mbox_conf_flat
I1209 18:35:27.952721  3659 net.cpp:100] Creating Layer ssd2_2_mbox_conf_flat
I1209 18:35:27.952724  3659 net.cpp:434] ssd2_2_mbox_conf_flat <- ssd2_2_mbox_conf_perm
I1209 18:35:27.952728  3659 net.cpp:408] ssd2_2_mbox_conf_flat -> ssd2_2_mbox_conf_flat
I1209 18:35:27.952749  3659 net.cpp:150] Setting up ssd2_2_mbox_conf_flat
I1209 18:35:27.952752  3659 net.cpp:157] Top shape: 1 120 (120)
I1209 18:35:27.952754  3659 net.cpp:165] Memory required for data: 271966464
I1209 18:35:27.952756  3659 layer_factory.hpp:77] Creating layer ssd2_2_mbox_priorbox
I1209 18:35:27.952759  3659 net.cpp:100] Creating Layer ssd2_2_mbox_priorbox
I1209 18:35:27.952762  3659 net.cpp:434] ssd2_2_mbox_priorbox <- ssd2_2_ssd2_2_relu_0_split_3
I1209 18:35:27.952765  3659 net.cpp:434] ssd2_2_mbox_priorbox <- data_data_0_split_4
I1209 18:35:27.952769  3659 net.cpp:408] ssd2_2_mbox_priorbox -> ssd2_2_mbox_priorbox
I1209 18:35:27.952790  3659 net.cpp:150] Setting up ssd2_2_mbox_priorbox
I1209 18:35:27.952795  3659 net.cpp:157] Top shape: 1 2 96 (192)
I1209 18:35:27.952795  3659 net.cpp:165] Memory required for data: 271967232
I1209 18:35:27.952797  3659 layer_factory.hpp:77] Creating layer ssd3_2_mbox_loc
I1209 18:35:27.952802  3659 net.cpp:100] Creating Layer ssd3_2_mbox_loc
I1209 18:35:27.952805  3659 net.cpp:434] ssd3_2_mbox_loc <- ssd3_2_ssd3_2_relu_0_split_1
I1209 18:35:27.952810  3659 net.cpp:408] ssd3_2_mbox_loc -> ssd3_2_mbox_loc
I1209 18:35:27.954596  3659 net.cpp:150] Setting up ssd3_2_mbox_loc
I1209 18:35:27.954603  3659 net.cpp:157] Top shape: 1 8 2 2 (32)
I1209 18:35:27.954605  3659 net.cpp:165] Memory required for data: 271967360
I1209 18:35:27.954609  3659 layer_factory.hpp:77] Creating layer ssd3_2_mbox_loc_perm
I1209 18:35:27.954614  3659 net.cpp:100] Creating Layer ssd3_2_mbox_loc_perm
I1209 18:35:27.954617  3659 net.cpp:434] ssd3_2_mbox_loc_perm <- ssd3_2_mbox_loc
I1209 18:35:27.954620  3659 net.cpp:408] ssd3_2_mbox_loc_perm -> ssd3_2_mbox_loc_perm
I1209 18:35:27.954713  3659 net.cpp:150] Setting up ssd3_2_mbox_loc_perm
I1209 18:35:27.954717  3659 net.cpp:157] Top shape: 1 2 2 8 (32)
I1209 18:35:27.954718  3659 net.cpp:165] Memory required for data: 271967488
I1209 18:35:27.954721  3659 layer_factory.hpp:77] Creating layer ssd3_2_mbox_loc_flat
I1209 18:35:27.954723  3659 net.cpp:100] Creating Layer ssd3_2_mbox_loc_flat
I1209 18:35:27.954726  3659 net.cpp:434] ssd3_2_mbox_loc_flat <- ssd3_2_mbox_loc_perm
I1209 18:35:27.954731  3659 net.cpp:408] ssd3_2_mbox_loc_flat -> ssd3_2_mbox_loc_flat
I1209 18:35:27.954751  3659 net.cpp:150] Setting up ssd3_2_mbox_loc_flat
I1209 18:35:27.954756  3659 net.cpp:157] Top shape: 1 32 (32)
I1209 18:35:27.954757  3659 net.cpp:165] Memory required for data: 271967616
I1209 18:35:27.954758  3659 layer_factory.hpp:77] Creating layer ssd3_2_mbox_conf
I1209 18:35:27.954764  3659 net.cpp:100] Creating Layer ssd3_2_mbox_conf
I1209 18:35:27.954767  3659 net.cpp:434] ssd3_2_mbox_conf <- ssd3_2_ssd3_2_relu_0_split_2
I1209 18:35:27.954771  3659 net.cpp:408] ssd3_2_mbox_conf -> ssd3_2_mbox_conf
I1209 18:35:27.956373  3659 net.cpp:150] Setting up ssd3_2_mbox_conf
I1209 18:35:27.956382  3659 net.cpp:157] Top shape: 1 10 2 2 (40)
I1209 18:35:27.956383  3659 net.cpp:165] Memory required for data: 271967776
I1209 18:35:27.956387  3659 layer_factory.hpp:77] Creating layer ssd3_2_mbox_conf_perm
I1209 18:35:27.956391  3659 net.cpp:100] Creating Layer ssd3_2_mbox_conf_perm
I1209 18:35:27.956395  3659 net.cpp:434] ssd3_2_mbox_conf_perm <- ssd3_2_mbox_conf
I1209 18:35:27.956399  3659 net.cpp:408] ssd3_2_mbox_conf_perm -> ssd3_2_mbox_conf_perm
I1209 18:35:27.956496  3659 net.cpp:150] Setting up ssd3_2_mbox_conf_perm
I1209 18:35:27.956499  3659 net.cpp:157] Top shape: 1 2 2 10 (40)
I1209 18:35:27.956502  3659 net.cpp:165] Memory required for data: 271967936
I1209 18:35:27.956503  3659 layer_factory.hpp:77] Creating layer ssd3_2_mbox_conf_flat
I1209 18:35:27.956516  3659 net.cpp:100] Creating Layer ssd3_2_mbox_conf_flat
I1209 18:35:27.956518  3659 net.cpp:434] ssd3_2_mbox_conf_flat <- ssd3_2_mbox_conf_perm
I1209 18:35:27.956522  3659 net.cpp:408] ssd3_2_mbox_conf_flat -> ssd3_2_mbox_conf_flat
I1209 18:35:27.956543  3659 net.cpp:150] Setting up ssd3_2_mbox_conf_flat
I1209 18:35:27.956547  3659 net.cpp:157] Top shape: 1 40 (40)
I1209 18:35:27.956548  3659 net.cpp:165] Memory required for data: 271968096
I1209 18:35:27.956550  3659 layer_factory.hpp:77] Creating layer ssd3_2_mbox_priorbox
I1209 18:35:27.956554  3659 net.cpp:100] Creating Layer ssd3_2_mbox_priorbox
I1209 18:35:27.956557  3659 net.cpp:434] ssd3_2_mbox_priorbox <- ssd3_2_ssd3_2_relu_0_split_3
I1209 18:35:27.956559  3659 net.cpp:434] ssd3_2_mbox_priorbox <- data_data_0_split_5
I1209 18:35:27.956564  3659 net.cpp:408] ssd3_2_mbox_priorbox -> ssd3_2_mbox_priorbox
I1209 18:35:27.956585  3659 net.cpp:150] Setting up ssd3_2_mbox_priorbox
I1209 18:35:27.956588  3659 net.cpp:157] Top shape: 1 2 32 (64)
I1209 18:35:27.956590  3659 net.cpp:165] Memory required for data: 271968352
I1209 18:35:27.956593  3659 layer_factory.hpp:77] Creating layer ssd4_2_mbox_loc
I1209 18:35:27.956598  3659 net.cpp:100] Creating Layer ssd4_2_mbox_loc
I1209 18:35:27.956600  3659 net.cpp:434] ssd4_2_mbox_loc <- ssd4_2_ssd4_2_relu_0_split_0
I1209 18:35:27.956604  3659 net.cpp:408] ssd4_2_mbox_loc -> ssd4_2_mbox_loc
I1209 18:35:27.958807  3659 net.cpp:150] Setting up ssd4_2_mbox_loc
I1209 18:35:27.958815  3659 net.cpp:157] Top shape: 1 8 1 1 (8)
I1209 18:35:27.958818  3659 net.cpp:165] Memory required for data: 271968384
I1209 18:35:27.958822  3659 layer_factory.hpp:77] Creating layer ssd4_2_mbox_loc_perm
I1209 18:35:27.958828  3659 net.cpp:100] Creating Layer ssd4_2_mbox_loc_perm
I1209 18:35:27.958832  3659 net.cpp:434] ssd4_2_mbox_loc_perm <- ssd4_2_mbox_loc
I1209 18:35:27.958835  3659 net.cpp:408] ssd4_2_mbox_loc_perm -> ssd4_2_mbox_loc_perm
I1209 18:35:27.958928  3659 net.cpp:150] Setting up ssd4_2_mbox_loc_perm
I1209 18:35:27.958932  3659 net.cpp:157] Top shape: 1 1 1 8 (8)
I1209 18:35:27.958935  3659 net.cpp:165] Memory required for data: 271968416
I1209 18:35:27.958937  3659 layer_factory.hpp:77] Creating layer ssd4_2_mbox_loc_flat
I1209 18:35:27.958940  3659 net.cpp:100] Creating Layer ssd4_2_mbox_loc_flat
I1209 18:35:27.958945  3659 net.cpp:434] ssd4_2_mbox_loc_flat <- ssd4_2_mbox_loc_perm
I1209 18:35:27.958947  3659 net.cpp:408] ssd4_2_mbox_loc_flat -> ssd4_2_mbox_loc_flat
I1209 18:35:27.958967  3659 net.cpp:150] Setting up ssd4_2_mbox_loc_flat
I1209 18:35:27.958971  3659 net.cpp:157] Top shape: 1 8 (8)
I1209 18:35:27.958973  3659 net.cpp:165] Memory required for data: 271968448
I1209 18:35:27.958976  3659 layer_factory.hpp:77] Creating layer ssd4_2_mbox_conf
I1209 18:35:27.958981  3659 net.cpp:100] Creating Layer ssd4_2_mbox_conf
I1209 18:35:27.958983  3659 net.cpp:434] ssd4_2_mbox_conf <- ssd4_2_ssd4_2_relu_0_split_1
I1209 18:35:27.958987  3659 net.cpp:408] ssd4_2_mbox_conf -> ssd4_2_mbox_conf
I1209 18:35:27.960796  3659 net.cpp:150] Setting up ssd4_2_mbox_conf
I1209 18:35:27.960803  3659 net.cpp:157] Top shape: 1 10 1 1 (10)
I1209 18:35:27.960805  3659 net.cpp:165] Memory required for data: 271968488
I1209 18:35:27.960810  3659 layer_factory.hpp:77] Creating layer ssd4_2_mbox_conf_perm
I1209 18:35:27.960815  3659 net.cpp:100] Creating Layer ssd4_2_mbox_conf_perm
I1209 18:35:27.960819  3659 net.cpp:434] ssd4_2_mbox_conf_perm <- ssd4_2_mbox_conf
I1209 18:35:27.960822  3659 net.cpp:408] ssd4_2_mbox_conf_perm -> ssd4_2_mbox_conf_perm
I1209 18:35:27.960913  3659 net.cpp:150] Setting up ssd4_2_mbox_conf_perm
I1209 18:35:27.960917  3659 net.cpp:157] Top shape: 1 1 1 10 (10)
I1209 18:35:27.960919  3659 net.cpp:165] Memory required for data: 271968528
I1209 18:35:27.960922  3659 layer_factory.hpp:77] Creating layer ssd4_2_mbox_conf_flat
I1209 18:35:27.960925  3659 net.cpp:100] Creating Layer ssd4_2_mbox_conf_flat
I1209 18:35:27.960927  3659 net.cpp:434] ssd4_2_mbox_conf_flat <- ssd4_2_mbox_conf_perm
I1209 18:35:27.960939  3659 net.cpp:408] ssd4_2_mbox_conf_flat -> ssd4_2_mbox_conf_flat
I1209 18:35:27.960960  3659 net.cpp:150] Setting up ssd4_2_mbox_conf_flat
I1209 18:35:27.960964  3659 net.cpp:157] Top shape: 1 10 (10)
I1209 18:35:27.960966  3659 net.cpp:165] Memory required for data: 271968568
I1209 18:35:27.960968  3659 layer_factory.hpp:77] Creating layer ssd4_2_mbox_priorbox
I1209 18:35:27.960973  3659 net.cpp:100] Creating Layer ssd4_2_mbox_priorbox
I1209 18:35:27.960975  3659 net.cpp:434] ssd4_2_mbox_priorbox <- ssd4_2_ssd4_2_relu_0_split_2
I1209 18:35:27.960978  3659 net.cpp:434] ssd4_2_mbox_priorbox <- data_data_0_split_6
I1209 18:35:27.960983  3659 net.cpp:408] ssd4_2_mbox_priorbox -> ssd4_2_mbox_priorbox
I1209 18:35:27.961002  3659 net.cpp:150] Setting up ssd4_2_mbox_priorbox
I1209 18:35:27.961005  3659 net.cpp:157] Top shape: 1 2 8 (16)
I1209 18:35:27.961007  3659 net.cpp:165] Memory required for data: 271968632
I1209 18:35:27.961009  3659 layer_factory.hpp:77] Creating layer mbox_loc
I1209 18:35:27.961014  3659 net.cpp:100] Creating Layer mbox_loc
I1209 18:35:27.961016  3659 net.cpp:434] mbox_loc <- conv5_5/sep_mbox_loc_flat
I1209 18:35:27.961020  3659 net.cpp:434] mbox_loc <- conv6/sep_mbox_loc_flat
I1209 18:35:27.961022  3659 net.cpp:434] mbox_loc <- ssd1_2_mbox_loc_flat
I1209 18:35:27.961026  3659 net.cpp:434] mbox_loc <- ssd2_2_mbox_loc_flat
I1209 18:35:27.961030  3659 net.cpp:434] mbox_loc <- ssd3_2_mbox_loc_flat
I1209 18:35:27.961032  3659 net.cpp:434] mbox_loc <- ssd4_2_mbox_loc_flat
I1209 18:35:27.961035  3659 net.cpp:408] mbox_loc -> mbox_loc
I1209 18:35:27.961055  3659 net.cpp:150] Setting up mbox_loc
I1209 18:35:27.961060  3659 net.cpp:157] Top shape: 1 6600 (6600)
I1209 18:35:27.961061  3659 net.cpp:165] Memory required for data: 271995032
I1209 18:35:27.961062  3659 layer_factory.hpp:77] Creating layer mbox_conf
I1209 18:35:27.961067  3659 net.cpp:100] Creating Layer mbox_conf
I1209 18:35:27.961071  3659 net.cpp:434] mbox_conf <- conv5_5/sep_mbox_conf_flat
I1209 18:35:27.961073  3659 net.cpp:434] mbox_conf <- conv6/sep_mbox_conf_flat
I1209 18:35:27.961076  3659 net.cpp:434] mbox_conf <- ssd1_2_mbox_conf_flat
I1209 18:35:27.961078  3659 net.cpp:434] mbox_conf <- ssd2_2_mbox_conf_flat
I1209 18:35:27.961081  3659 net.cpp:434] mbox_conf <- ssd3_2_mbox_conf_flat
I1209 18:35:27.961083  3659 net.cpp:434] mbox_conf <- ssd4_2_mbox_conf_flat
I1209 18:35:27.961086  3659 net.cpp:408] mbox_conf -> mbox_conf
I1209 18:35:27.961104  3659 net.cpp:150] Setting up mbox_conf
I1209 18:35:27.961107  3659 net.cpp:157] Top shape: 1 8250 (8250)
I1209 18:35:27.961110  3659 net.cpp:165] Memory required for data: 272028032
I1209 18:35:27.961112  3659 layer_factory.hpp:77] Creating layer mbox_priorbox
I1209 18:35:27.961115  3659 net.cpp:100] Creating Layer mbox_priorbox
I1209 18:35:27.961117  3659 net.cpp:434] mbox_priorbox <- conv5_5/sep_mbox_priorbox
I1209 18:35:27.961120  3659 net.cpp:434] mbox_priorbox <- conv6/sep_mbox_priorbox
I1209 18:35:27.961122  3659 net.cpp:434] mbox_priorbox <- ssd1_2_mbox_priorbox
I1209 18:35:27.961124  3659 net.cpp:434] mbox_priorbox <- ssd2_2_mbox_priorbox
I1209 18:35:27.961127  3659 net.cpp:434] mbox_priorbox <- ssd3_2_mbox_priorbox
I1209 18:35:27.961129  3659 net.cpp:434] mbox_priorbox <- ssd4_2_mbox_priorbox
I1209 18:35:27.961133  3659 net.cpp:408] mbox_priorbox -> mbox_priorbox
I1209 18:35:27.961153  3659 net.cpp:150] Setting up mbox_priorbox
I1209 18:35:27.961155  3659 net.cpp:157] Top shape: 1 2 6600 (13200)
I1209 18:35:27.961158  3659 net.cpp:165] Memory required for data: 272080832
I1209 18:35:27.961159  3659 layer_factory.hpp:77] Creating layer mbox_conf_reshape
I1209 18:35:27.961163  3659 net.cpp:100] Creating Layer mbox_conf_reshape
I1209 18:35:27.961166  3659 net.cpp:434] mbox_conf_reshape <- mbox_conf
I1209 18:35:27.961169  3659 net.cpp:408] mbox_conf_reshape -> mbox_conf_reshape
I1209 18:35:27.961194  3659 net.cpp:150] Setting up mbox_conf_reshape
I1209 18:35:27.961199  3659 net.cpp:157] Top shape: 1 1650 5 (8250)
I1209 18:35:27.961200  3659 net.cpp:165] Memory required for data: 272113832
I1209 18:35:27.961208  3659 layer_factory.hpp:77] Creating layer mbox_conf_softmax
I1209 18:35:27.961212  3659 net.cpp:100] Creating Layer mbox_conf_softmax
I1209 18:35:27.961215  3659 net.cpp:434] mbox_conf_softmax <- mbox_conf_reshape
I1209 18:35:27.961217  3659 net.cpp:408] mbox_conf_softmax -> mbox_conf_softmax
I1209 18:35:27.961623  3659 net.cpp:150] Setting up mbox_conf_softmax
I1209 18:35:27.961630  3659 net.cpp:157] Top shape: 1 1650 5 (8250)
I1209 18:35:27.961632  3659 net.cpp:165] Memory required for data: 272146832
I1209 18:35:27.961634  3659 layer_factory.hpp:77] Creating layer mbox_conf_flatten
I1209 18:35:27.961637  3659 net.cpp:100] Creating Layer mbox_conf_flatten
I1209 18:35:27.961640  3659 net.cpp:434] mbox_conf_flatten <- mbox_conf_softmax
I1209 18:35:27.961643  3659 net.cpp:408] mbox_conf_flatten -> mbox_conf_flatten
I1209 18:35:27.961663  3659 net.cpp:150] Setting up mbox_conf_flatten
I1209 18:35:27.961668  3659 net.cpp:157] Top shape: 1 8250 (8250)
I1209 18:35:27.961669  3659 net.cpp:165] Memory required for data: 272179832
I1209 18:35:27.961671  3659 layer_factory.hpp:77] Creating layer detection_out
I1209 18:35:27.961678  3659 net.cpp:100] Creating Layer detection_out
I1209 18:35:27.961681  3659 net.cpp:434] detection_out <- mbox_loc
I1209 18:35:27.961684  3659 net.cpp:434] detection_out <- mbox_conf_flatten
I1209 18:35:27.961688  3659 net.cpp:434] detection_out <- mbox_priorbox
I1209 18:35:27.961693  3659 net.cpp:408] detection_out -> detection_out
W1209 18:35:27.961712  3659 detection_output_layer.cpp:49] Failed to create directory: /home/zhongyilin/Documents/data/GTSDBdevkit/results/GTSDB/SSD_510x300_100_40_Square_1/Main
I1209 18:35:27.962014  3659 net.cpp:150] Setting up detection_out
I1209 18:35:27.962021  3659 net.cpp:157] Top shape: 1 1 1 7 (7)
I1209 18:35:27.962023  3659 net.cpp:165] Memory required for data: 272179860
I1209 18:35:27.962025  3659 layer_factory.hpp:77] Creating layer detection_eval
I1209 18:35:27.962029  3659 net.cpp:100] Creating Layer detection_eval
I1209 18:35:27.962033  3659 net.cpp:434] detection_eval <- detection_out
I1209 18:35:27.962034  3659 net.cpp:434] detection_eval <- label
I1209 18:35:27.962038  3659 net.cpp:408] detection_eval -> detection_eval
I1209 18:35:27.962118  3659 net.cpp:150] Setting up detection_eval
I1209 18:35:27.962122  3659 net.cpp:157] Top shape: 1 1 5 5 (25)
I1209 18:35:27.962124  3659 net.cpp:165] Memory required for data: 272179960
I1209 18:35:27.962126  3659 net.cpp:228] detection_eval does not need backward computation.
I1209 18:35:27.962129  3659 net.cpp:228] detection_out does not need backward computation.
I1209 18:35:27.962131  3659 net.cpp:228] mbox_conf_flatten does not need backward computation.
I1209 18:35:27.962133  3659 net.cpp:228] mbox_conf_softmax does not need backward computation.
…
