…
      sampler {
        min_scale: 0.3
        max_scale: 1
        min_aspect_ratio: 0.5
        max_aspect_ratio: 2
      }
      sample_constraint {
        min_jaccard_overlap: 0.9
      }
      max_sample: 1
      max_trials: 50
    }
    batch_sampler {
      sampler {
        min_scale: 0.3
        max_scale: 1
        min_aspect_ratio: 0.5
        max_aspect_ratio: 2
      }
      sample_constraint {
        max_jaccard_overlap: 1
      }
      max_sample: 1
      max_trials: 50
    }
    label_map_file: "data/GTSDB/labelmap_GTSDB.prototxt"
  }
}
layer {
  name: "conv1"
  type: "Convolution"
  bottom: "data"
  top: "conv1"
  param {
    lr_mult: 1
    decay_mult: 1
  }
  convolution_param {
    num_output: 32
    bias_term: false
    pad: 1
    kernel_size: 3
    stride: 2
    weight_filler {
      type: "msra"
    }
  }
}
layer {
  name: "conv1/bn"
  type: "BatchNorm"
  bottom: "conv1"
  top: "conv1"
  batch_norm_param {
    use_global_stats: true
    eps: 1e-05
  }
}
layer {
  name: "conv1/scale"
  type: "Scale"
  bottom: "conv1"
  top: "conv1"
  param {
    lr_mult: 1
    decay_mult: 0
  }
  param {
    lr_mult: 1
    decay_mult: 0
  }
  scale_param {
    bias_term: true
  }
}
layer {
  name: "relu1"
  type: "ReLU"
  bottom: "conv1"
  top: "conv1"
}
layer {
  name: "conv2_1/expand"
  type: "Convolution"
  bottom: "conv1"
  top: "conv2_1/expand"
  param {
    lr_mult: 1
    decay_mult: 1
  }
  convolution_param {
    num_output: 32
    bias_term: false
    kernel_size: 1
    weight_filler {
      type: "msra"
    }
  }
}
layer {
  name: "conv2_1/expand/bn"
  type: "BatchNorm"
  bottom: "conv2_1/expand"
  top: "conv2_1/expand"
  batch_norm_param {
    use_global_stats: true
    eps: 1e-05
  }
}
layer {
  name: "conv2_1/expand/scale"
  type: "Scale"
  bottom: "conv2_1/expand"
  top: "conv2_1/expand"
  param {
    lr_mult: 1
    decay_mult: 0
  }
  param {
    lr_mult: 1
    decay_mult: 0
  }
  scale_param {
    bias_term: true
  }
}
layer {
  name: "relu2_1/expand"
  type: "ReLU"
  bottom: "conv2_1/expand"
  top: "conv2_1/expand"
}
layer {
  name: "conv2_1/dwise"
  type: "DepthwiseConvolution"
  bottom: "conv2_1/expand"
  top: "conv2_1/dwise"
  param {
    lr_mult: 1
    decay_mult: 1
  }
  convolution_param {
    num_output: 32
    bias_term: false
    pad: 1
    kernel_size: 3
    group: 32
    stride: 1
    weight_filler {
      type: "msra"
    }
  }
}
layer {
  name: "conv2_1/dwise/bn"
  type: "BatchNorm"
  bottom: "conv2_1/dwise"
  top: "conv2_1/dwise"
  batch_norm_param {
    use_global_stats: true
    eps: 1e-05
  }
}
layer {
  name: "conv2_1/dwise/scale"
  type: "Scale"
  bottom: "conv2_1/dwise"
  top: "conv2_1/dwise"
  param {
    lr_mult: 1
    decay_mult: 0
  }
  param {
    lr_mult: 1
    decay_mult: 0
  }
  scale_param {
    bias_term: true
  }
}
layer {
  name: "relu2_1/dwise"
  type: "ReLU"
  bottom: "conv2_1/dwise"
  top: "conv2_1/dwise"
}
layer {
  name: "conv2_1/linear"
  type: "Convolution"
  bottom: "conv2_1/dwise"
  top: "conv2_1/linear"
  param {
    lr_mult: 1
    decay_mult: 1
  }
  convolution_param {
    num_output: 16
    bias_term: false
    kernel_size: 1
    weight_filler {
      type: "msra"
    }
  }
}
layer {
  name: "conv2_1/linear/bn"
  type: "BatchNorm"
  bottom: "conv2_1/linear"
  top: "conv2_1/linear"
  batch_norm_param {
    use_global_stats: true
    eps: 1e-05
  }
}
layer {
  name: "conv2_1/linear/scale"
  type: "Scale"
  bottom: "conv2_1/linear"
  top: "conv2_1/linear"
  param {
    lr_mult: 1
    decay_mult: 0
  }
  param {
    lr_mult: 1
    decay_mult: 0
  }
  scale_param {
    bias_term: true
  }
}
layer {
  name: "conv2_2/expand"
  type: "Convolution"
  bottom: "conv2_1/linear"
  top: "conv2_2/expand"
  param {
    lr_mult: 1
    decay_mult: 1
  }
  convolution_param {
    num_output: 96
    bias_term: false
    kernel_size: 1
    weight_filler {
      type: "msra"
    }
  }
}
layer {
  name: "conv2_2/expand/bn"
  type: "BatchNorm"
  bottom: "conv2_2/expand"
  top: "conv2_2/expand"
  batch_norm_param {
    use_global_stats: true
    eps: 1e-05
  }
}
layer {
  name: "conv2_2/expand/scale"
  type: "Scale"
  bottom: "conv2_2/expand"
  top: "conv2_2/expand"
  param {
    lr_mult: 1
    decay_mult: 0
  }
  param {
    lr_mult: 1
    decay_mult: 0
  }
  scale_param {
    bias_term: true
  }
}
layer {
  name: "relu2_2/expand"
  type: "ReLU"
  bottom: "conv2_2/expand"
  top: "conv2_2/expand"
}
layer {
  name: "conv2_2/dwise"
  type: "DepthwiseConvolution"
  bottom: "conv2_2/expand"
  top: "conv2_2/dwise"
  param {
    lr_mult: 1
    decay_mult: 1
  }
  convolution_param {
    num_output: 96
    bias_term: false
    pad: 1
    kernel_size: 3
    group: 96
    stride: 2
    weight_filler {
      type: "msra"
    }
  }
}
layer {
  name: "conv2_2/dwise/bn"
  type: "BatchNorm"
  bottom: "conv2_2/dwise"
  top: "conv2_2/dwise"
  batch_norm_param {
    use_global_stats: true
    eps: 1e-05
  }
}
layer {
  name: "conv2_2/dwise/scale"
  type: "Scale"
  bottom: "conv2_2/dwise"
  top: "conv2_2/dwise"
  param {
    lr_mult: 1
    decay_mult: 0
  }
  param {
    lr_mult: 1
    decay_mult: 0
  }
  scale_param {
    bias_term: true
  }
}
layer {
  name: "relu2_2/dwise"
  type: "ReLU"
  bottom: "conv2_2/dwise"
  top: "conv2_2/dwise"
}
layer {
  name: "conv2_2/linear"
  type: "Convolution"
  bottom: "conv2_2/dwise"
  top: "conv2_2/linear"
  param {
    lr_mult: 1
    decay_mult: 1
  }
  convolution_param {
    num_output: 24
    bias_term: false
    kernel_size: 1
    weight_filler {
      type: "msra"
    }
  }
}
layer {
  name: "conv2_2/linear/bn"
  type: "BatchNorm"
  bottom: "conv2_2/linear"
  top: "conv2_2/linear"
  batch_norm_param {
    use_global_stats: true
    eps: 1e-05
  }
}
layer {
  name: "conv2_2/linear/scale"
  type: "Scale"
  bottom: "conv2_2/linear"
  top: "conv2_2/linear"
  param {
    lr_mult: 1
    decay_mult: 0
  }
  param {
    lr_mult: 1
    decay_mult: 0
  }
  scale_param {
    bias_term: true
  }
}
layer {
  name: "conv3_1/expand"
  type: "Convolution"
  bottom: "conv2_2/linear"
  top: "conv3_1/expand"
  param {
    lr_mult: 1
    decay_mult: 1
  }
  convolution_param {
    num_output: 144
    bias_term: false
    kernel_size: 1
    weight_filler {
      type: "msra"
    }
  }
}
layer {
  name: "conv3_1/expand/bn"
  type: "BatchNorm"
  bottom: "conv3_1/expand"
  top: "conv3_1/expand"
  batch_norm_param {
    use_global_stats: true
    eps: 1e-05
  }
}
layer {
  name: "conv3_1/expand/scale"
  type: "Scale"
  bottom: "conv3_1/expand"
  top: "conv3_1/expand"
  param {
    lr_mult: 1
    decay_mult: 0
  }
  param {
    lr_mult: 1
    decay_mult: 0
  }
  scale_param {
    bias_term: true
  }
}
layer {
  name: "relu3_1/expand"
  type: "ReLU"
  bottom: "conv3_1/expand"
  top: "conv3_1/expand"
}
layer {
  name: "conv3_1/dwise"
  type: "DepthwiseConvolution"
  bottom: "conv3_1/expand"
  top: "conv3_1/dwise"
  param {
    lr_mult: 1
    decay_mult: 1
  }
  convolution_param {
    num_output: 144
    bias_term: false
    pad: 1
    kernel_size: 3
    group: 144
    stride: 1
    weight_filler {
      type: "msra"
    }
  }
}
layer {
  name: "conv3_1/dwise/bn"
  type: "BatchNorm"
  bottom: "conv3_1/dwise"
  top: "conv3_1/dwise"
  batch_norm_param {
    use_global_stats: true
    eps: 1e-05
  }
}
layer {
  name: "conv3_1/dwise/scale"
  type: "Scale"
  bottom: "conv3_1/dwise"
  top: "conv3_1/dwise"
  param {
    lr_mult: 1
    decay_mult: 0
  }
  param {
    lr_mult: 1
    decay_mult: 0
  }
  scale_param {
    bias_term: true
  }
}
layer {
  name: "relu3_1/dwise"
  type: "ReLU"
  bottom: "conv3_1/dwise"
  top: "conv3_1/dwise"
}
layer {
  name: "conv3_1/linear"
  type: "Convolution"
  bottom: "conv3_1/dwise"
  top: "conv3_1/linear"
  param {
    lr_mult: 1
    decay_mult: 1
  }
  convolution_param {
    num_output: 24
    bias_term: false
    kernel_size: 1
    weight_filler {
      type: "msra"
    }
  }
}
layer {
  name: "conv3_1/linear/bn"
  type: "BatchNorm"
  bottom: "conv3_1/linear"
  top: "conv3_1/linear"
  batch_norm_param {
    use_global_stats: true
    eps: 1e-05
  }
}
layer {
  name: "conv3_1/linear/scale"
  type: "Scale"
  bottom: "conv3_1/linear"
  top: "conv3_1/linear"
  param {
    lr_mult: 1
    decay_mult: 0
  }
  param {
    lr_mult: 1
    decay_mult: 0
  }
  scale_param {
    bias_term: true
  }
}
layer {
  name: "block_3_1"
  type: "Eltwise"
  bottom: "conv2_2/linear"
  bottom: "conv3_1/linear"
  top: "block_3_1"
}
layer {
  name: "conv3_2/expand"
  type: "Convolution"
  bottom: "block_3_1"
  top: "conv3_2/expand"
  param {
    lr_mult: 1
    decay_mult: 1
  }
  convolution_param {
    num_output: 144
    bias_term: false
    kernel_size: 1
    weight_filler {
      type: "msra"
    }
  }
}
layer {
  name: "conv3_2/expand/bn"
  type: "BatchNorm"
  bottom: "conv3_2/expand"
  top: "conv3_2/expand"
  batch_norm_param {
    use_global_stats: true
    eps: 1e-05
  }
}
layer {
  name: "conv3_2/expand/scale"
  type: "Scale"
  bottom: "conv3_2/expand"
  top: "conv3_2/expand"
  param {
    lr_mult: 1
    decay_mult: 0
  }
  param {
    lr_mult: 1
    decay_mult: 0
  }
  scale_param {
    bias_term: true
  }
}
layer {
  name: "relu3_2/expand"
  type: "ReLU"
  bottom: "conv3_2/expand"
  top: "conv3_2/expand"
}
layer {
  name: "conv3_2/dwise"
  type: "DepthwiseConvolution"
  bottom: "conv3_2/expand"
  top: "conv3_2/dwise"
  param {
    lr_mult: 1
    decay_mult: 1
  }
  convolution_param {
    num_output: 144
    bias_term: false
    pad: 1
    kernel_size: 3
    group: 144
    stride: 2
    weight_filler {
      type: "msra"
    }
  }
}
layer {
  name: "conv3_2/dwise/bn"
  type: "BatchNorm"
  bottom: "conv3_2/dwise"
  top: "conv3_2/dwise"
  batch_norm_param {
    use_global_stats: true
    eps: 1e-05
  }
}
layer {
  name: "conv3_2/dwise/scale"
  type: "Scale"
  bottom: "conv3_2/dwise"
  top: "conv3_2/dwise"
  param {
    lr_mult: 1
    decay_mult: 0
  }
  param {
    lr_mult: 1
    decay_mult: 0
  }
  scale_param {
    bias_term: true
  }
}
layer {
  name: "relu3_2/dwise"
  type: "ReLU"
  bottom: "conv3_2/dwise"
  top: "conv3_2/dwise"
}
layer {
  name: "conv3_2/linear"
  type: "Convolution"
  bottom: "conv3_2/dwise"
  top: "conv3_2/linear"
  param {
    lr_mult: 1
    decay_mult: 1
  }
  convolution_param {
    num_output: 32
    bias_term: false
    kernel_size: 1
    weight_filler {
      type: "msra"
    }
  }
}
layer {
  name: "conv3_2/linear/bn"
  type: "BatchNorm"
  bottom: "conv3_2/linear"
  top: "conv3_2/linear"
  batch_norm_param {
    use_global_stats: true
    eps: 1e-05
  }
}
layer {
  name: "conv3_2/linear/scale"
  type: "Scale"
  bottom: "conv3_2/linear"
  top: "conv3_2/linear"
  param {
    lr_mult: 1
    decay_mult: 0
  }
  param {
    lr_mult: 1
    decay_mult: 0
  }
  scale_param {
    bias_term: true
  }
}
layer {
  name: "conv4_1/expand"
  type: "Convolution"
  bottom: "conv3_2/linear"
  top: "conv4_1/expand"
  param {
    lr_mult: 1
    decay_mult: 1
  }
  convolution_param {
    num_output: 192
    bias_term: false
    kernel_size: 1
    weight_filler {
      type: "msra"
    }
  }
}
layer {
  name: "conv4_1/expand/bn"
  type: "BatchNorm"
  bottom: "conv4_1/expand"
  top: "conv4_1/expand"
  batch_norm_param {
    use_global_stats: true
    eps: 1e-05
  }
}
layer {
  name: "conv4_1/expand/scale"
  type: "Scale"
  bottom: "conv4_1/expand"
  top: "conv4_1/expand"
  param {
    lr_mult: 1
    decay_mult: 0
  }
  param {
    lr_mult: 1
    decay_mult: 0
  }
  scale_param {
    bias_term: true
  }
}
layer {
  name: "relu4_1/expand"
  type: "ReLU"
  bottom: "conv4_1/expand"
  top: "conv4_1/expand"
}
layer {
  name: "conv4_1/dwise"
  type: "DepthwiseConvolution"
  bottom: "conv4_1/expand"
  top: "conv4_1/dwise"
  param {
    lr_mult: 1
    decay_mult: 1
  }
  convolution_param {
    num_output: 192
    bias_term: false
    pad: 1
    kernel_size: 3
    group: 192
    stride: 1
    weight_filler {
      type: "msra"
    }
  }
}
layer {
  name: "conv4_1/dwise/bn"
  type: "BatchNorm"
  bottom: "conv4_1/dwise"
  top: "conv4_1/dwise"
  batch_norm_param {
    use_global_stats: true
    eps: 1e-05
  }
}
layer {
  name: "conv4_1/dwise/scale"
  type: "Scale"
  bottom: "conv4_1/dwise"
  top: "conv4_1/dwise"
  param {
    lr_mult: 1
    decay_mult: 0
  }
  param {
    lr_mult: 1
    decay_mult: 0
  }
  scale_param {
    bias_term: true
  }
}
layer {
  name: "relu4_1/dwise"
  type: "ReLU"
  bottom: "conv4_1/dwise"
  top: "conv4_1/dwise"
}
layer {
  name: "conv4_1/linear"
  type: "Convolution"
  bottom: "conv4_1/dwise"
  top: "conv4_1/linear"
  param {
    lr_mult: 1
    decay_mult: 1
  }
  convolution_param {
    num_output: 32
    bias_term: false
    kernel_size: 1
    weight_filler {
      type: "msra"
    }
  }
}
layer {
  name: "conv4_1/linear/bn"
  type: "BatchNorm"
  bottom: "conv4_1/linear"
  top: "conv4_1/linear"
  batch_norm_param {
    use_global_stats: true
    eps: 1e-05
  }
}
layer {
  name: "conv4_1/linear/scale"
  type: "Scale"
  bottom: "conv4_1/linear"
  top: "conv4_1/linear"
  param {
    lr_mult: 1
    decay_mult: 0
  }
  param {
    lr_mult: 1
    decay_mult: 0
  }
  scale_param {
    bias_term: true
  }
}
layer {
  name: "block_4_1"
  type: "Eltwise"
  bottom: "conv3_2/linear"
  bottom: "conv4_1/linear"
  top: "block_4_1"
}
layer {
  name: "conv4_2/expand"
  type: "Convolution"
  bottom: "block_4_1"
  top: "conv4_2/expand"
  param {
    lr_mult: 1
    decay_mult: 1
  }
  convolution_param {
    num_output: 192
    bias_term: false
    kernel_size: 1
    weight_filler {
      type: "msra"
    }
  }
}
layer {
  name: "conv4_2/expand/bn"
  type: "BatchNorm"
  bottom: "conv4_2/expand"
  top: "conv4_2/expand"
  batch_norm_param {
    use_global_stats: true
    eps: 1e-05
  }
}
layer {
  name: "conv4_2/expand/scale"
  type: "Scale"
  bottom: "conv4_2/expand"
  top: "conv4_2/expand"
  param {
    lr_mult: 1
    decay_mult: 0
  }
  param {
    lr_mult: 1
    decay_mult: 0
  }
  scale_param {
    bias_term: true
  }
}
layer {
  name: "relu4_2/expand"
  type: "ReLU"
  bottom: "conv4_2/expand"
  top: "conv4_2/expand"
}
layer {
  name: "conv4_2/dwise"
  type: "DepthwiseConvolution"
  bottom: "conv4_2/expand"
  top: "conv4_2/dwise"
  param {
    lr_mult: 1
    decay_mult: 1
  }
  convolution_param {
    num_output: 192
    bias_term: false
    pad: 1
    kernel_size: 3
    group: 192
    stride: 1
    weight_filler {
      type: "msra"
    }
  }
}
layer {
  name: "conv4_2/dwise/bn"
  type: "BatchNorm"
  bottom: "conv4_2/dwise"
  top: "conv4_2/dwise"
  batch_norm_param {
    use_global_stats: true
    eps: 1e-05
  }
}
layer {
  name: "conv4_2/dwise/scale"
  type: "Scale"
  bottom: "conv4_2/dwise"
  top: "conv4_2/dwise"
  param {
    lr_mult: 1
    decay_mult: 0
  }
  param {
    lr_mult: 1
    decay_mult: 0
  }
  scale_param {
    bias_term: true
  }
}
layer {
  name: "relu4_2/dwise"
  type: "ReLU"
  bottom: "conv4_2/dwise"
  top: "conv4_2/dwise"
}
layer {
  name: "conv4_2/linear"
  type: "Convolution"
  bottom: "conv4_2/dwise"
  top: "conv4_2/linear"
  param {
    lr_mult: 1
    decay_mult: 1
  }
  convolution_param {
    num_output: 32
    bias_term: false
    kernel_size: 1
    weight_filler {
      type: "msra"
    }
  }
}
layer {
  name: "conv4_2/linear/bn"
  type: "BatchNorm"
  bottom: "conv4_2/linear"
  top: "conv4_2/linear"
  batch_norm_param {
    use_global_stats: true
    eps: 1e-05
  }
}
layer {
  name: "conv4_2/linear/scale"
  type: "Scale"
  bottom: "conv4_2/linear"
  top: "conv4_2/linear"
  param {
    lr_mult: 1
    decay_mult: 0
  }
  param {
    lr_mult: 1
    decay_mult: 0
  }
  scale_param {
    bias_term: true
  }
}
layer {
  name: "block_4_2"
  type: "Eltwise"
  bottom: "block_4_1"
  bottom: "conv4_2/linear"
  top: "block_4_2"
}
layer {
  name: "conv4_3/expand"
  type: "Convolution"
  bottom: "block_4_2"
  top: "conv4_3/expand"
  param {
    lr_mult: 1
    decay_mult: 1
  }
  convolution_param {
    num_output: 192
    bias_term: false
    kernel_size: 1
    weight_filler {
      type: "msra"
    }
  }
}
layer {
  name: "conv4_3/expand/bn"
  type: "BatchNorm"
  bottom: "conv4_3/expand"
  top: "conv4_3/expand"
  batch_norm_param {
    use_global_stats: true
    eps: 1e-05
  }
}
layer {
  name: "conv4_3/expand/scale"
  type: "Scale"
  bottom: "conv4_3/expand"
  top: "conv4_3/expand"
  param {
    lr_mult: 1
    decay_mult: 0
  }
  param {
    lr_mult: 1
    decay_mult: 0
  }
  scale_param {
    bias_term: true
  }
}
layer {
  name: "relu4_3/expand"
  type: "ReLU"
  bottom: "conv4_3/expand"
  top: "conv4_3/expand"
}
layer {
  name: "conv4_3/dwise"
  type: "DepthwiseConvolution"
  bottom: "conv4_3/expand"
  top: "conv4_3/dwise"
  param {
    lr_mult: 1
    decay_mult: 1
  }
  convolution_param {
    num_output: 192
    bias_term: false
    pad: 1
    kernel_size: 3
    group: 192
    stride: 1
    weight_filler {
      type: "msra"
    }
  }
}
layer {
  name: "conv4_3/dwise/bn"
  type: "BatchNorm"
  bottom: "conv4_3/dwise"
  top: "conv4_3/dwise"
  batch_norm_param {
    use_global_stats: true
    eps: 1e-05
  }
}
layer {
  name: "conv4_3/dwise/scale"
  type: "Scale"
  bottom: "conv4_3/dwise"
  top: "conv4_3/dwise"
  param {
    lr_mult: 1
    decay_mult: 0
  }
  param {
    lr_mult: 1
    decay_mult: 0
  }
  scale_param {
    bias_term: true
  }
}
layer {
  name: "relu4_3/dwise"
  type: "ReLU"
  bottom: "conv4_3/dwise"
  top: "conv4_3/dwise"
}
layer {
  name: "conv4_3/linear"
  type: "Convolution"
  bottom: "conv4_3/dwise"
  top: "conv4_3/linear"
  param {
    lr_mult: 1
    decay_mult: 1
  }
  convolution_param {
    num_output: 64
    bias_term: false
    kernel_size: 1
    weight_filler {
      type: "msra"
    }
  }
}
layer {
  name: "conv4_3/linear/bn"
  type: "BatchNorm"
  bottom: "conv4_3/linear"
  top: "conv4_3/linear"
  batch_norm_param {
    use_global_stats: true
    eps: 1e-05
  }
}
layer {
  name: "conv4_3/linear/scale"
  type: "Scale"
  bottom: "conv4_3/linear"
  top: "conv4_3/linear"
  param {
    lr_mult: 1
    decay_mult: 0
  }
  param {
    lr_mult: 1
    decay_mult: 0
  }
  scale_param {
    bias_term: true
  }
}
layer {
  name: "conv4_4/expand"
  type: "Convolution"
  bottom: "conv4_3/linear"
  top: "conv4_4/expand"
  param {
    lr_mult: 1
    decay_mult: 1
  }
  convolution_param {
    num_output: 384
    bias_term: false
    kernel_size: 1
    weight_filler {
      type: "msra"
    }
  }
}
layer {
  name: "conv4_4/expand/bn"
  type: "BatchNorm"
  bottom: "conv4_4/expand"
  top: "conv4_4/expand"
  batch_norm_param {
    use_global_stats: true
    eps: 1e-05
  }
}
layer {
  name: "conv4_4/expand/scale"
  type: "Scale"
  bottom: "conv4_4/expand"
  top: "conv4_4/expand"
  param {
    lr_mult: 1
    decay_mult: 0
  }
  param {
    lr_mult: 1
    decay_mult: 0
  }
  scale_param {
    bias_term: true
  }
}
layer {
  name: "relu4_4/expand"
  type: "ReLU"
  bottom: "conv4_4/expand"
  top: "conv4_4/expand"
}
layer {
  name: "conv4_4/dwise"
  type: "DepthwiseConvolution"
  bottom: "conv4_4/expand"
  top: "conv4_4/dwise"
  param {
    lr_mult: 1
    decay_mult: 1
  }
  convolution_param {
    num_output: 384
    bias_term: false
    pad: 1
    kernel_size: 3
    group: 384
    stride: 1
    weight_filler {
      type: "msra"
    }
  }
}
layer {
  name: "conv4_4/dwise/bn"
  type: "BatchNorm"
  bottom: "conv4_4/dwise"
  top: "conv4_4/dwise"
  batch_norm_param {
    use_global_stats: true
    eps: 1e-05
  }
}
layer {
  name: "conv4_4/dwise/scale"
  type: "Scale"
  bottom: "conv4_4/dwise"
  top: "conv4_4/dwise"
  param {
    lr_mult: 1
    decay_mult: 0
  }
  param {
    lr_mult: 1
    decay_mult: 0
  }
  scale_param {
    bias_term: true
  }
}
layer {
  name: "relu4_4/dwise"
  type: "ReLU"
  bottom: "conv4_4/dwise"
  top: "conv4_4/dwise"
}
layer {
  name: "conv4_4/linear"
  type: "Convolution"
  bottom: "conv4_4/dwise"
  top: "conv4_4/linear"
  param {
    lr_mult: 1
    decay_mult: 1
  }
  convolution_param {
    num_output: 64
    bias_term: false
    kernel_size: 1
    weight_filler {
      type: "msra"
    }
  }
}
layer {
  name: "conv4_4/linear/bn"
  type: "BatchNorm"
  bottom: "conv4_4/linear"
  top: "conv4_4/linear"
  batch_norm_param {
    use_global_stats: true
    eps: 1e-05
  }
}
layer {
  name: "conv4_4/linear/scale"
  type: "Scale"
  bottom: "conv4_4/linear"
  top: "conv4_4/linear"
  param {
    lr_mult: 1
    decay_mult: 0
  }
  param {
    lr_mult: 1
    decay_mult: 0
  }
  scale_param {
    bias_term: true
  }
}
layer {
  name: "block_4_4"
  type: "Eltwise"
  bottom: "conv4_3/linear"
  bottom: "conv4_4/linear"
  top: "block_4_4"
}
layer {
  name: "conv4_5/expand"
  type: "Convolution"
  bottom: "block_4_4"
  top: "conv4_5/expand"
  param {
    lr_mult: 1
    decay_mult: 1
  }
  convolution_param {
    num_output: 384
    bias_term: false
    kernel_size: 1
    weight_filler {
      type: "msra"
    }
  }
}
layer {
  name: "conv4_5/expand/bn"
  type: "BatchNorm"
  bottom: "conv4_5/expand"
  top: "conv4_5/expand"
  batch_norm_param {
    use_global_stats: true
    eps: 1e-05
  }
}
layer {
  name: "conv4_5/expand/scale"
  type: "Scale"
  bottom: "conv4_5/expand"
  top: "conv4_5/expand"
  param {
    lr_mult: 1
    decay_mult: 0
  }
  param {
    lr_mult: 1
    decay_mult: 0
  }
  scale_param {
    bias_term: true
  }
}
layer {
  name: "relu4_5/expand"
  type: "ReLU"
  bottom: "conv4_5/expand"
  top: "conv4_5/expand"
}
layer {
  name: "conv4_5/dwise"
  type: "DepthwiseConvolution"
  bottom: "conv4_5/expand"
  top: "conv4_5/dwise"
  param {
    lr_mult: 1
    decay_mult: 1
  }
  convolution_param {
    num_output: 384
    bias_term: false
    pad: 1
    kernel_size: 3
    group: 384
    stride: 1
    weight_filler {
      type: "msra"
    }
  }
}
layer {
  name: "conv4_5/dwise/bn"
  type: "BatchNorm"
  bottom: "conv4_5/dwise"
  top: "conv4_5/dwise"
  batch_norm_param {
    use_global_stats: true
    eps: 1e-05
  }
}
layer {
  name: "conv4_5/dwise/scale"
  type: "Scale"
  bottom: "conv4_5/dwise"
  top: "conv4_5/dwise"
  param {
    lr_mult: 1
    decay_mult: 0
  }
  param {
    lr_mult: 1
    decay_mult: 0
  }
  scale_param {
    bias_term: true
  }
}
layer {
  name: "relu4_5/dwise"
  type: "ReLU"
  bottom: "conv4_5/dwise"
  top: "conv4_5/dwise"
}
layer {
  name: "conv4_5/linear"
  type: "Convolution"
  bottom: "conv4_5/dwise"
  top: "conv4_5/linear"
  param {
    lr_mult: 1
    decay_mult: 1
  }
  convolution_param {
    num_output: 64
    bias_term: false
    kernel_size: 1
    weight_filler {
      type: "msra"
    }
  }
}
layer {
  name: "conv4_5/linear/bn"
  type: "BatchNorm"
  bottom: "conv4_5/linear"
  top: "conv4_5/linear"
  batch_norm_param {
    use_global_stats: true
    eps: 1e-05
  }
}
layer {
  name: "conv4_5/linear/scale"
  type: "Scale"
  bottom: "conv4_5/linear"
  top: "conv4_5/linear"
  param {
    lr_mult: 1
    decay_mult: 0
  }
  param {
    lr_mult: 1
    decay_mult: 0
  }
  scale_param {
    bias_term: true
  }
}
layer {
  name: "block_4_5"
  type: "Eltwise"
  bottom: "block_4_4"
  bottom: "conv4_5/linear"
  top: "block_4_5"
}
layer {
  name: "conv4_6/expand"
  type: "Convolution"
  bottom: "block_4_5"
  top: "conv4_6/expand"
  param {
    lr_mult: 1
    decay_mult: 1
  }
  convolution_param {
    num_output: 384
    bias_term: false
    kernel_size: 1
    weight_filler {
      type: "msra"
    }
  }
}
layer {
  name: "conv4_6/expand/bn"
  type: "BatchNorm"
  bottom: "conv4_6/expand"
  top: "conv4_6/expand"
  batch_norm_param {
    use_global_stats: true
    eps: 1e-05
  }
}
layer {
  name: "conv4_6/expand/scale"
  type: "Scale"
  bottom: "conv4_6/expand"
  top: "conv4_6/expand"
  param {
    lr_mult: 1
    decay_mult: 0
  }
  param {
    lr_mult: 1
    decay_mult: 0
  }
  scale_param {
    bias_term: true
  }
}
layer {
  name: "relu4_6/expand"
  type: "ReLU"
  bottom: "conv4_6/expand"
  top: "conv4_6/expand"
}
layer {
  name: "conv4_6/dwise"
  type: "DepthwiseConvolution"
  bottom: "conv4_6/expand"
  top: "conv4_6/dwise"
  param {
    lr_mult: 1
    decay_mult: 1
  }
  convolution_param {
    num_output: 384
    bias_term: false
    pad: 1
    kernel_size: 3
    group: 384
    stride: 1
    weight_filler {
      type: "msra"
    }
  }
}
layer {
  name: "conv4_6/dwise/bn"
  type: "BatchNorm"
  bottom: "conv4_6/dwise"
  top: "conv4_6/dwise"
  batch_norm_param {
    use_global_stats: true
    eps: 1e-05
  }
}
layer {
  name: "conv4_6/dwise/scale"
  type: "Scale"
  bottom: "conv4_6/dwise"
  top: "conv4_6/dwise"
  param {
    lr_mult: 1
    decay_mult: 0
  }
  param {
    lr_mult: 1
    decay_mult: 0
  }
  scale_param {
    bias_term: true
  }
}
layer {
  name: "relu4_6/dwise"
  type: "ReLU"
  bottom: "conv4_6/dwise"
  top: "conv4_6/dwise"
}
layer {
  name: "conv4_6/linear"
  type: "Convolution"
  bottom: "conv4_6/dwise"
  top: "conv4_6/linear"
  param {
    lr_mult: 1
    decay_mult: 1
  }
  convolution_param {
    num_output: 64
    bias_term: false
    kernel_size: 1
    weight_filler {
      type: "msra"
    }
  }
}
layer {
  name: "conv4_6/linear/bn"
  type: "BatchNorm"
  bottom: "conv4_6/linear"
  top: "conv4_6/linear"
  batch_norm_param {
    use_global_stats: true
    eps: 1e-05
  }
}
layer {
  name: "conv4_6/linear/scale"
  type: "Scale"
  bottom: "conv4_6/linear"
  top: "conv4_6/linear"
  param {
    lr_mult: 1
    decay_mult: 0
  }
  param {
    lr_mult: 1
    decay_mult: 0
  }
  scale_param {
    bias_term: true
  }
}
layer {
  name: "block_4_6"
  type: "Eltwise"
  bottom: "block_4_5"
  bottom: "conv4_6/linear"
  top: "block_4_6"
}
layer {
  name: "conv4_7/expand"
  type: "Convolution"
  bottom: "block_4_6"
  top: "conv4_7/expand"
  param {
    lr_mult: 1
    decay_mult: 1
  }
  convolution_param {
    num_output: 384
    bias_term: false
    kernel_size: 1
    weight_filler {
      type: "msra"
    }
  }
}
layer {
  name: "conv4_7/expand/bn"
  type: "BatchNorm"
  bottom: "conv4_7/expand"
  top: "conv4_7/expand"
  batch_norm_param {
    use_global_stats: true
    eps: 1e-05
  }
}
layer {
  name: "conv4_7/expand/scale"
  type: "Scale"
  bottom: "conv4_7/expand"
  top: "conv4_7/expand"
  param {
    lr_mult: 1
    decay_mult: 0
  }
  param {
    lr_mult: 1
    decay_mult: 0
  }
  scale_param {
    bias_term: true
  }
}
layer {
  name: "relu4_7/expand"
  type: "ReLU"
  bottom: "conv4_7/expand"
  top: "conv4_7/expand"
}
layer {
  name: "conv4_7/dwise"
  type: "DepthwiseConvolution"
  bottom: "conv4_7/expand"
  top: "conv4_7/dwise"
  param {
    lr_mult: 1
    decay_mult: 1
  }
  convolution_param {
    num_output: 384
    bias_term: false
    pad: 1
    kernel_size: 3
    group: 384
    stride: 2
    weight_filler {
      type: "msra"
    }
  }
}
layer {
  name: "conv4_7/dwise/bn"
  type: "BatchNorm"
  bottom: "conv4_7/dwise"
  top: "conv4_7/dwise"
  batch_norm_param {
    use_global_stats: true
    eps: 1e-05
  }
}
layer {
  name: "conv4_7/dwise/scale"
  type: "Scale"
  bottom: "conv4_7/dwise"
  top: "conv4_7/dwise"
  param {
    lr_mult: 1
    decay_mult: 0
  }
  param {
    lr_mult: 1
    decay_mult: 0
  }
  scale_param {
    bias_term: true
  }
}
layer {
  name: "relu4_7/dwise"
  type: "ReLU"
  bottom: "conv4_7/dwise"
  top: "conv4_7/dwise"
}
layer {
  name: "conv4_7/linear"
  type: "Convolution"
  bottom: "conv4_7/dwise"
  top: "conv4_7/linear"
  param {
    lr_mult: 1
    decay_mult: 1
  }
  convolution_param {
    num_output: 96
    bias_term: false
    kernel_size: 1
    weight_filler {
      type: "msra"
    }
  }
}
layer {
  name: "conv4_7/linear/bn"
  type: "BatchNorm"
  bottom: "conv4_7/linear"
  top: "conv4_7/linear"
  batch_norm_param {
    use_global_stats: true
    eps: 1e-05
  }
}
layer {
  name: "conv4_7/linear/scale"
  type: "Scale"
  bottom: "conv4_7/linear"
  top: "conv4_7/linear"
  param {
    lr_mult: 1
    decay_
I1002 14:45:59.442345  8584 layer_factory.hpp:77] Creating layer data
I1002 14:45:59.442515  8584 net.cpp:100] Creating Layer data
I1002 14:45:59.442523  8584 net.cpp:408] data -> data
I1002 14:45:59.442546  8584 net.cpp:408] data -> label
I1002 14:45:59.443078  8592 db_lmdb.cpp:35] Opened lmdb examples/GTSDB/GTSDB_trainval_lmdb
I1002 14:45:59.455662  8584 annotated_data_layer.cpp:62] output data size: 1,3,300,510
I1002 14:45:59.458287  8584 net.cpp:150] Setting up data
I1002 14:45:59.458303  8584 net.cpp:157] Top shape: 1 3 300 510 (459000)
I1002 14:45:59.458307  8584 net.cpp:157] Top shape: 1 1 3 8 (24)
I1002 14:45:59.458308  8584 net.cpp:165] Memory required for data: 1836096
I1002 14:45:59.458317  8584 layer_factory.hpp:77] Creating layer data_data_0_split
I1002 14:45:59.458325  8584 net.cpp:100] Creating Layer data_data_0_split
I1002 14:45:59.458329  8584 net.cpp:434] data_data_0_split <- data
I1002 14:45:59.458338  8584 net.cpp:408] data_data_0_split -> data_data_0_split_0
I1002 14:45:59.458346  8584 net.cpp:408] data_data_0_split -> data_data_0_split_1
I1002 14:45:59.458351  8584 net.cpp:408] data_data_0_split -> data_data_0_split_2
I1002 14:45:59.458355  8584 net.cpp:408] data_data_0_split -> data_data_0_split_3
I1002 14:45:59.458359  8584 net.cpp:408] data_data_0_split -> data_data_0_split_4
I1002 14:45:59.458364  8584 net.cpp:408] data_data_0_split -> data_data_0_split_5
I1002 14:45:59.458369  8584 net.cpp:408] data_data_0_split -> data_data_0_split_6
I1002 14:45:59.458434  8584 net.cpp:150] Setting up data_data_0_split
I1002 14:45:59.458439  8584 net.cpp:157] Top shape: 1 3 300 510 (459000)
I1002 14:45:59.458442  8584 net.cpp:157] Top shape: 1 3 300 510 (459000)
I1002 14:45:59.458444  8584 net.cpp:157] Top shape: 1 3 300 510 (459000)
I1002 14:45:59.458446  8584 net.cpp:157] Top shape: 1 3 300 510 (459000)
I1002 14:45:59.458449  8584 net.cpp:157] Top shape: 1 3 300 510 (459000)
I1002 14:45:59.458451  8584 net.cpp:157] Top shape: 1 3 300 510 (459000)
I1002 14:45:59.458454  8584 net.cpp:157] Top shape: 1 3 300 510 (459000)
I1002 14:45:59.458456  8584 net.cpp:165] Memory required for data: 14688096
I1002 14:45:59.458457  8584 layer_factory.hpp:77] Creating layer conv1
I1002 14:45:59.458468  8584 net.cpp:100] Creating Layer conv1
I1002 14:45:59.458472  8584 net.cpp:434] conv1 <- data_data_0_split_0
I1002 14:45:59.458475  8584 net.cpp:408] conv1 -> conv1
I1002 14:45:59.779564  8584 net.cpp:150] Setting up conv1
I1002 14:45:59.779580  8584 net.cpp:157] Top shape: 1 32 150 255 (1224000)
I1002 14:45:59.779583  8584 net.cpp:165] Memory required for data: 19584096
I1002 14:45:59.779603  8584 layer_factory.hpp:77] Creating layer conv1/bn
I1002 14:45:59.779613  8584 net.cpp:100] Creating Layer conv1/bn
I1002 14:45:59.779615  8584 net.cpp:434] conv1/bn <- conv1
I1002 14:45:59.779619  8584 net.cpp:395] conv1/bn -> conv1 (in-place)
I1002 14:45:59.780189  8584 net.cpp:150] Setting up conv1/bn
I1002 14:45:59.780195  8584 net.cpp:157] Top shape: 1 32 150 255 (1224000)
I1002 14:45:59.780197  8584 net.cpp:165] Memory required for data: 24480096
I1002 14:45:59.780205  8584 layer_factory.hpp:77] Creating layer conv1/scale
I1002 14:45:59.780212  8584 net.cpp:100] Creating Layer conv1/scale
I1002 14:45:59.780215  8584 net.cpp:434] conv1/scale <- conv1
I1002 14:45:59.780217  8584 net.cpp:395] conv1/scale -> conv1 (in-place)
I1002 14:45:59.780246  8584 layer_factory.hpp:77] Creating layer conv1/scale
I1002 14:45:59.780334  8584 net.cpp:150] Setting up conv1/scale
I1002 14:45:59.780339  8584 net.cpp:157] Top shape: 1 32 150 255 (1224000)
I1002 14:45:59.780339  8584 net.cpp:165] Memory required for data: 29376096
I1002 14:45:59.780345  8584 layer_factory.hpp:77] Creating layer relu1
I1002 14:45:59.780349  8584 net.cpp:100] Creating Layer relu1
I1002 14:45:59.780350  8584 net.cpp:434] relu1 <- conv1
I1002 14:45:59.780352  8584 net.cpp:395] relu1 -> conv1 (in-place)
I1002 14:45:59.780627  8584 net.cpp:150] Setting up relu1
I1002 14:45:59.780632  8584 net.cpp:157] Top shape: 1 32 150 255 (1224000)
I1002 14:45:59.780634  8584 net.cpp:165] Memory required for data: 34272096
I1002 14:45:59.780637  8584 layer_factory.hpp:77] Creating layer conv2_1/expand
I1002 14:45:59.780643  8584 net.cpp:100] Creating Layer conv2_1/expand
I1002 14:45:59.780645  8584 net.cpp:434] conv2_1/expand <- conv1
I1002 14:45:59.780649  8584 net.cpp:408] conv2_1/expand -> conv2_1/expand
I1002 14:45:59.781818  8584 net.cpp:150] Setting up conv2_1/expand
I1002 14:45:59.781827  8584 net.cpp:157] Top shape: 1 32 150 255 (1224000)
I1002 14:45:59.781829  8584 net.cpp:165] Memory required for data: 39168096
I1002 14:45:59.781833  8584 layer_factory.hpp:77] Creating layer conv2_1/expand/bn
I1002 14:45:59.781838  8584 net.cpp:100] Creating Layer conv2_1/expand/bn
I1002 14:45:59.781841  8584 net.cpp:434] conv2_1/expand/bn <- conv2_1/expand
I1002 14:45:59.781843  8584 net.cpp:395] conv2_1/expand/bn -> conv2_1/expand (in-place)
I1002 14:45:59.781971  8584 net.cpp:150] Setting up conv2_1/expand/bn
I1002 14:45:59.781975  8584 net.cpp:157] Top shape: 1 32 150 255 (1224000)
I1002 14:45:59.781977  8584 net.cpp:165] Memory required for data: 44064096
I1002 14:45:59.781983  8584 layer_factory.hpp:77] Creating layer conv2_1/expand/scale
I1002 14:45:59.781988  8584 net.cpp:100] Creating Layer conv2_1/expand/scale
I1002 14:45:59.781989  8584 net.cpp:434] conv2_1/expand/scale <- conv2_1/expand
I1002 14:45:59.781993  8584 net.cpp:395] conv2_1/expand/scale -> conv2_1/expand (in-place)
I1002 14:45:59.782017  8584 layer_factory.hpp:77] Creating layer conv2_1/expand/scale
I1002 14:45:59.782119  8584 net.cpp:150] Setting up conv2_1/expand/scale
I1002 14:45:59.782124  8584 net.cpp:157] Top shape: 1 32 150 255 (1224000)
I1002 14:45:59.782125  8584 net.cpp:165] Memory required for data: 48960096
I1002 14:45:59.782129  8584 layer_factory.hpp:77] Creating layer relu2_1/expand
I1002 14:45:59.782132  8584 net.cpp:100] Creating Layer relu2_1/expand
I1002 14:45:59.782133  8584 net.cpp:434] relu2_1/expand <- conv2_1/expand
I1002 14:45:59.782136  8584 net.cpp:395] relu2_1/expand -> conv2_1/expand (in-place)
I1002 14:45:59.782400  8584 net.cpp:150] Setting up relu2_1/expand
I1002 14:45:59.782405  8584 net.cpp:157] Top shape: 1 32 150 255 (1224000)
I1002 14:45:59.782407  8584 net.cpp:165] Memory required for data: 53856096
I1002 14:45:59.782409  8584 layer_factory.hpp:77] Creating layer conv2_1/dwise
I1002 14:45:59.782415  8584 net.cpp:100] Creating Layer conv2_1/dwise
I1002 14:45:59.782416  8584 net.cpp:434] conv2_1/dwise <- conv2_1/expand
I1002 14:45:59.782420  8584 net.cpp:408] conv2_1/dwise -> conv2_1/dwise
I1002 14:45:59.782542  8584 net.cpp:150] Setting up conv2_1/dwise
I1002 14:45:59.782546  8584 net.cpp:157] Top shape: 1 32 150 255 (1224000)
I1002 14:45:59.782547  8584 net.cpp:165] Memory required for data: 58752096
I1002 14:45:59.782550  8584 layer_factory.hpp:77] Creating layer conv2_1/dwise/bn
I1002 14:45:59.782554  8584 net.cpp:100] Creating Layer conv2_1/dwise/bn
I1002 14:45:59.782555  8584 net.cpp:434] conv2_1/dwise/bn <- conv2_1/dwise
I1002 14:45:59.782558  8584 net.cpp:395] conv2_1/dwise/bn -> conv2_1/dwise (in-place)
I1002 14:45:59.782691  8584 net.cpp:150] Setting up conv2_1/dwise/bn
I1002 14:45:59.782696  8584 net.cpp:157] Top shape: 1 32 150 255 (1224000)
I1002 14:45:59.782698  8584 net.cpp:165] Memory required for data: 63648096
I1002 14:45:59.782702  8584 layer_factory.hpp:77] Creating layer conv2_1/dwise/scale
I1002 14:45:59.782706  8584 net.cpp:100] Creating Layer conv2_1/dwise/scale
I1002 14:45:59.782707  8584 net.cpp:434] conv2_1/dwise/scale <- conv2_1/dwise
I1002 14:45:59.782711  8584 net.cpp:395] conv2_1/dwise/scale -> conv2_1/dwise (in-place)
I1002 14:45:59.782733  8584 layer_factory.hpp:77] Creating layer conv2_1/dwise/scale
I1002 14:45:59.782820  8584 net.cpp:150] Setting up conv2_1/dwise/scale
I1002 14:45:59.782825  8584 net.cpp:157] Top shape: 1 32 150 255 (1224000)
I1002 14:45:59.782826  8584 net.cpp:165] Memory required for data: 68544096
I1002 14:45:59.782832  8584 layer_factory.hpp:77] Creating layer relu2_1/dwise
I1002 14:45:59.782836  8584 net.cpp:100] Creating Layer relu2_1/dwise
I1002 14:45:59.782838  8584 net.cpp:434] relu2_1/dwise <- conv2_1/dwise
I1002 14:45:59.782840  8584 net.cpp:395] relu2_1/dwise -> conv2_1/dwise (in-place)
I1002 14:45:59.783109  8584 net.cpp:150] Setting up relu2_1/dwise
I1002 14:45:59.783114  8584 net.cpp:157] Top shape: 1 32 150 255 (1224000)
I1002 14:45:59.783116  8584 net.cpp:165] Memory required for data: 73440096
I1002 14:45:59.783118  8584 layer_factory.hpp:77] Creating layer conv2_1/linear
I1002 14:45:59.783124  8584 net.cpp:100] Creating Layer conv2_1/linear
I1002 14:45:59.783125  8584 net.cpp:434] conv2_1/linear <- conv2_1/dwise
I1002 14:45:59.783129  8584 net.cpp:408] conv2_1/linear -> conv2_1/linear
I1002 14:45:59.784287  8584 net.cpp:150] Setting up conv2_1/linear
I1002 14:45:59.784294  8584 net.cpp:157] Top shape: 1 16 150 255 (612000)
I1002 14:45:59.784296  8584 net.cpp:165] Memory required for data: 75888096
I1002 14:45:59.784301  8584 layer_factory.hpp:77] Creating layer conv2_1/linear/bn
I1002 14:45:59.784304  8584 net.cpp:100] Creating Layer conv2_1/linear/bn
I1002 14:45:59.784307  8584 net.cpp:434] conv2_1/linear/bn <- conv2_1/linear
I1002 14:45:59.784309  8584 net.cpp:395] conv2_1/linear/bn -> conv2_1/linear (in-place)
I1002 14:45:59.784440  8584 net.cpp:150] Setting up conv2_1/linear/bn
I1002 14:45:59.784443  8584 net.cpp:157] Top shape: 1 16 150 255 (612000)
I1002 14:45:59.784446  8584 net.cpp:165] Memory required for data: 78336096
I1002 14:45:59.784448  8584 layer_factory.hpp:77] Creating layer conv2_1/linear/scale
I1002 14:45:59.784462  8584 net.cpp:100] Creating Layer conv2_1/linear/scale
I1002 14:45:59.784464  8584 net.cpp:434] conv2_1/linear/scale <- conv2_1/linear
I1002 14:45:59.784468  8584 net.cpp:395] conv2_1/linear/scale -> conv2_1/linear (in-place)
I1002 14:45:59.784492  8584 layer_factory.hpp:77] Creating layer conv2_1/linear/scale
I1002 14:45:59.784579  8584 net.cpp:150] Setting up conv2_1/linear/scale
I1002 14:45:59.784582  8584 net.cpp:157] Top shape: 1 16 150 255 (612000)
I1002 14:45:59.784584  8584 net.cpp:165] Memory required for data: 80784096
I1002 14:45:59.784587  8584 layer_factory.hpp:77] Creating layer conv2_2/expand
I1002 14:45:59.784592  8584 net.cpp:100] Creating Layer conv2_2/expand
I1002 14:45:59.784595  8584 net.cpp:434] conv2_2/expand <- conv2_1/linear
I1002 14:45:59.784598  8584 net.cpp:408] conv2_2/expand -> conv2_2/expand
I1002 14:45:59.786183  8584 net.cpp:150] Setting up conv2_2/expand
I1002 14:45:59.786191  8584 net.cpp:157] Top shape: 1 96 150 255 (3672000)
I1002 14:45:59.786195  8584 net.cpp:165] Memory required for data: 95472096
I1002 14:45:59.786197  8584 layer_factory.hpp:77] Creating layer conv2_2/expand/bn
I1002 14:45:59.786202  8584 net.cpp:100] Creating Layer conv2_2/expand/bn
I1002 14:45:59.786204  8584 net.cpp:434] conv2_2/expand/bn <- conv2_2/expand
I1002 14:45:59.786209  8584 net.cpp:395] conv2_2/expand/bn -> conv2_2/expand (in-place)
I1002 14:45:59.786345  8584 net.cpp:150] Setting up conv2_2/expand/bn
I1002 14:45:59.786350  8584 net.cpp:157] Top shape: 1 96 150 255 (3672000)
I1002 14:45:59.786350  8584 net.cpp:165] Memory required for data: 110160096
I1002 14:45:59.786355  8584 layer_factory.hpp:77] Creating layer conv2_2/expand/scale
I1002 14:45:59.786358  8584 net.cpp:100] Creating Layer conv2_2/expand/scale
I1002 14:45:59.786360  8584 net.cpp:434] conv2_2/expand/scale <- conv2_2/expand
I1002 14:45:59.786362  8584 net.cpp:395] conv2_2/expand/scale -> conv2_2/expand (in-place)
I1002 14:45:59.786386  8584 layer_factory.hpp:77] Creating layer conv2_2/expand/scale
I1002 14:45:59.786892  8584 net.cpp:150] Setting up conv2_2/expand/scale
I1002 14:45:59.786898  8584 net.cpp:157] Top shape: 1 96 150 255 (3672000)
I1002 14:45:59.786901  8584 net.cpp:165] Memory required for data: 124848096
I1002 14:45:59.786906  8584 layer_factory.hpp:77] Creating layer relu2_2/expand
I1002 14:45:59.786911  8584 net.cpp:100] Creating Layer relu2_2/expand
I1002 14:45:59.786912  8584 net.cpp:434] relu2_2/expand <- conv2_2/expand
I1002 14:45:59.786916  8584 net.cpp:395] relu2_2/expand -> conv2_2/expand (in-place)
I1002 14:45:59.787183  8584 net.cpp:150] Setting up relu2_2/expand
I1002 14:45:59.787189  8584 net.cpp:157] Top shape: 1 96 150 255 (3672000)
I1002 14:45:59.787190  8584 net.cpp:165] Memory required for data: 139536096
I1002 14:45:59.787192  8584 layer_factory.hpp:77] Creating layer conv2_2/dwise
I1002 14:45:59.787199  8584 net.cpp:100] Creating Layer conv2_2/dwise
I1002 14:45:59.787200  8584 net.cpp:434] conv2_2/dwise <- conv2_2/expand
I1002 14:45:59.787204  8584 net.cpp:408] conv2_2/dwise -> conv2_2/dwise
I1002 14:45:59.787331  8584 net.cpp:150] Setting up conv2_2/dwise
I1002 14:45:59.787338  8584 net.cpp:157] Top shape: 1 96 75 128 (921600)
I1002 14:45:59.787340  8584 net.cpp:165] Memory required for data: 143222496
I1002 14:45:59.787345  8584 layer_factory.hpp:77] Creating layer conv2_2/dwise/bn
I1002 14:45:59.787351  8584 net.cpp:100] Creating Layer conv2_2/dwise/bn
I1002 14:45:59.787354  8584 net.cpp:434] conv2_2/dwise/bn <- conv2_2/dwise
I1002 14:45:59.787358  8584 net.cpp:395] conv2_2/dwise/bn -> conv2_2/dwise (in-place)
I1002 14:45:59.787992  8584 net.cpp:150] Setting up conv2_2/dwise/bn
I1002 14:45:59.787998  8584 net.cpp:157] Top shape: 1 96 75 128 (921600)
I1002 14:45:59.788002  8584 net.cpp:165] Memory required for data: 146908896
I1002 14:45:59.788010  8584 layer_factory.hpp:77] Creating layer conv2_2/dwise/scale
I1002 14:45:59.788017  8584 net.cpp:100] Creating Layer conv2_2/dwise/scale
I1002 14:45:59.788019  8584 net.cpp:434] conv2_2/dwise/scale <- conv2_2/dwise
I1002 14:45:59.788033  8584 net.cpp:395] conv2_2/dwise/scale -> conv2_2/dwise (in-place)
I1002 14:45:59.788061  8584 layer_factory.hpp:77] Creating layer conv2_2/dwise/scale
I1002 14:45:59.788133  8584 net.cpp:150] Setting up conv2_2/dwise/scale
I1002 14:45:59.788137  8584 net.cpp:157] Top shape: 1 96 75 128 (921600)
I1002 14:45:59.788141  8584 net.cpp:165] Memory required for data: 150595296
I1002 14:45:59.788144  8584 layer_factory.hpp:77] Creating layer relu2_2/dwise
I1002 14:45:59.788147  8584 net.cpp:100] Creating Layer relu2_2/dwise
I1002 14:45:59.788149  8584 net.cpp:434] relu2_2/dwise <- conv2_2/dwise
I1002 14:45:59.788152  8584 net.cpp:395] relu2_2/dwise -> conv2_2/dwise (in-place)
I1002 14:45:59.788544  8584 net.cpp:150] Setting up relu2_2/dwise
I1002 14:45:59.788552  8584 net.cpp:157] Top shape: 1 96 75 128 (921600)
I1002 14:45:59.788553  8584 net.cpp:165] Memory required for data: 154281696
I1002 14:45:59.788555  8584 layer_factory.hpp:77] Creating layer conv2_2/linear
I1002 14:45:59.788563  8584 net.cpp:100] Creating Layer conv2_2/linear
I1002 14:45:59.788564  8584 net.cpp:434] conv2_2/linear <- conv2_2/dwise
I1002 14:45:59.788568  8584 net.cpp:408] conv2_2/linear -> conv2_2/linear
I1002 14:45:59.789717  8584 net.cpp:150] Setting up conv2_2/linear
I1002 14:45:59.789726  8584 net.cpp:157] Top shape: 1 24 75 128 (230400)
I1002 14:45:59.789727  8584 net.cpp:165] Memory required for data: 155203296
I1002 14:45:59.789731  8584 layer_factory.hpp:77] Creating layer conv2_2/linear/bn
I1002 14:45:59.789736  8584 net.cpp:100] Creating Layer conv2_2/linear/bn
I1002 14:45:59.789739  8584 net.cpp:434] conv2_2/linear/bn <- conv2_2/linear
I1002 14:45:59.789741  8584 net.cpp:395] conv2_2/linear/bn -> conv2_2/linear (in-place)
I1002 14:45:59.789867  8584 net.cpp:150] Setting up conv2_2/linear/bn
I1002 14:45:59.789871  8584 net.cpp:157] Top shape: 1 24 75 128 (230400)
I1002 14:45:59.789873  8584 net.cpp:165] Memory required for data: 156124896
I1002 14:45:59.789877  8584 layer_factory.hpp:77] Creating layer conv2_2/linear/scale
I1002 14:45:59.789881  8584 net.cpp:100] Creating Layer conv2_2/linear/scale
I1002 14:45:59.789883  8584 net.cpp:434] conv2_2/linear/scale <- conv2_2/linear
I1002 14:45:59.789886  8584 net.cpp:395] conv2_2/linear/scale -> conv2_2/linear (in-place)
I1002 14:45:59.789909  8584 layer_factory.hpp:77] Creating layer conv2_2/linear/scale
I1002 14:45:59.789978  8584 net.cpp:150] Setting up conv2_2/linear/scale
I1002 14:45:59.789983  8584 net.cpp:157] Top shape: 1 24 75 128 (230400)
I1002 14:45:59.789984  8584 net.cpp:165] Memory required for data: 157046496
I1002 14:45:59.789988  8584 layer_factory.hpp:77] Creating layer conv2_2/linear_conv2_2/linear/scale_0_split
I1002 14:45:59.789991  8584 net.cpp:100] Creating Layer conv2_2/linear_conv2_2/linear/scale_0_split
I1002 14:45:59.789993  8584 net.cpp:434] conv2_2/linear_conv2_2/linear/scale_0_split <- conv2_2/linear
I1002 14:45:59.789996  8584 net.cpp:408] conv2_2/linear_conv2_2/linear/scale_0_split -> conv2_2/linear_conv2_2/linear/scale_0_split_0
I1002 14:45:59.790002  8584 net.cpp:408] conv2_2/linear_conv2_2/linear/scale_0_split -> conv2_2/linear_conv2_2/linear/scale_0_split_1
I1002 14:45:59.790025  8584 net.cpp:150] Setting up conv2_2/linear_conv2_2/linear/scale_0_split
I1002 14:45:59.790030  8584 net.cpp:157] Top shape: 1 24 75 128 (230400)
I1002 14:45:59.790031  8584 net.cpp:157] Top shape: 1 24 75 128 (230400)
I1002 14:45:59.790033  8584 net.cpp:165] Memory required for data: 158889696
I1002 14:45:59.790035  8584 layer_factory.hpp:77] Creating layer conv3_1/expand
I1002 14:45:59.790040  8584 net.cpp:100] Creating Layer conv3_1/expand
I1002 14:45:59.790042  8584 net.cpp:434] conv3_1/expand <- conv2_2/linear_conv2_2/linear/scale_0_split_0
I1002 14:45:59.790045  8584 net.cpp:408] conv3_1/expand -> conv3_1/expand
I1002 14:45:59.791165  8584 net.cpp:150] Setting up conv3_1/expand
I1002 14:45:59.791175  8584 net.cpp:157] Top shape: 1 144 75 128 (1382400)
I1002 14:45:59.791177  8584 net.cpp:165] Memory required for data: 164419296
I1002 14:45:59.791182  8584 layer_factory.hpp:77] Creating layer conv3_1/expand/bn
I1002 14:45:59.791194  8584 net.cpp:100] Creating Layer conv3_1/expand/bn
I1002 14:45:59.791198  8584 net.cpp:434] conv3_1/expand/bn <- conv3_1/expand
I1002 14:45:59.791201  8584 net.cpp:395] conv3_1/expand/bn -> conv3_1/expand (in-place)
I1002 14:45:59.791326  8584 net.cpp:150] Setting up conv3_1/expand/bn
I1002 14:45:59.791330  8584 net.cpp:157] Top shape: 1 144 75 128 (1382400)
I1002 14:45:59.791332  8584 net.cpp:165] Memory required for data: 169948896
I1002 14:45:59.791337  8584 layer_factory.hpp:77] Creating layer conv3_1/expand/scale
I1002 14:45:59.791342  8584 net.cpp:100] Creating Layer conv3_1/expand/scale
I1002 14:45:59.791343  8584 net.cpp:434] conv3_1/expand/scale <- conv3_1/expand
I1002 14:45:59.791347  8584 net.cpp:395] conv3_1/expand/scale -> conv3_1/expand (in-place)
I1002 14:45:59.791371  8584 layer_factory.hpp:77] Creating layer conv3_1/expand/scale
I1002 14:45:59.791440  8584 net.cpp:150] Setting up conv3_1/expand/scale
I1002 14:45:59.791445  8584 net.cpp:157] Top shape: 1 144 75 128 (1382400)
I1002 14:45:59.791445  8584 net.cpp:165] Memory required for data: 175478496
I1002 14:45:59.791450  8584 layer_factory.hpp:77] Creating layer relu3_1/expand
I1002 14:45:59.791457  8584 net.cpp:100] Creating Layer relu3_1/expand
I1002 14:45:59.791460  8584 net.cpp:434] relu3_1/expand <- conv3_1/expand
I1002 14:45:59.791461  8584 net.cpp:395] relu3_1/expand -> conv3_1/expand (in-place)
I1002 14:45:59.791728  8584 net.cpp:150] Setting up relu3_1/expand
I1002 14:45:59.791733  8584 net.cpp:157] Top shape: 1 144 75 128 (1382400)
I1002 14:45:59.791735  8584 net.cpp:165] Memory required for data: 181008096
I1002 14:45:59.791738  8584 layer_factory.hpp:77] Creating layer conv3_1/dwise
I1002 14:45:59.791743  8584 net.cpp:100] Creating Layer conv3_1/dwise
I1002 14:45:59.791744  8584 net.cpp:434] conv3_1/dwise <- conv3_1/expand
I1002 14:45:59.791749  8584 net.cpp:408] conv3_1/dwise -> conv3_1/dwise
I1002 14:45:59.791877  8584 net.cpp:150] Setting up conv3_1/dwise
I1002 14:45:59.791882  8584 net.cpp:157] Top shape: 1 144 75 128 (1382400)
I1002 14:45:59.791883  8584 net.cpp:165] Memory required for data: 186537696
I1002 14:45:59.791887  8584 layer_factory.hpp:77] Creating layer conv3_1/dwise/bn
I1002 14:45:59.791891  8584 net.cpp:100] Creating Layer conv3_1/dwise/bn
I1002 14:45:59.791894  8584 net.cpp:434] conv3_1/dwise/bn <- conv3_1/dwise
I1002 14:45:59.791896  8584 net.cpp:395] conv3_1/dwise/bn -> conv3_1/dwise (in-place)
I1002 14:45:59.792012  8584 net.cpp:150] Setting up conv3_1/dwise/bn
I1002 14:45:59.792016  8584 net.cpp:157] Top shape: 1 144 75 128 (1382400)
I1002 14:45:59.792017  8584 net.cpp:165] Memory required for data: 192067296
I1002 14:45:59.792022  8584 layer_factory.hpp:77] Creating layer conv3_1/dwise/scale
I1002 14:45:59.792026  8584 net.cpp:100] Creating Layer conv3_1/dwise/scale
I1002 14:45:59.792028  8584 net.cpp:434] conv3_1/dwise/scale <- conv3_1/dwise
I1002 14:45:59.792032  8584 net.cpp:395] conv3_1/dwise/scale -> conv3_1/dwise (in-place)
I1002 14:45:59.792052  8584 layer_factory.hpp:77] Creating layer conv3_1/dwise/scale
I1002 14:45:59.792121  8584 net.cpp:150] Setting up conv3_1/dwise/scale
I1002 14:45:59.792124  8584 net.cpp:157] Top shape: 1 144 75 128 (1382400)
I1002 14:45:59.792126  8584 net.cpp:165] Memory required for data: 197596896
I1002 14:45:59.792130  8584 layer_factory.hpp:77] Creating layer relu3_1/dwise
I1002 14:45:59.792134  8584 net.cpp:100] Creating Layer relu3_1/dwise
I1002 14:45:59.792135  8584 net.cpp:434] relu3_1/dwise <- conv3_1/dwise
I1002 14:45:59.792137  8584 net.cpp:395] relu3_1/dwise -> conv3_1/dwise (in-place)
I1002 14:45:59.792524  8584 net.cpp:150] Setting up relu3_1/dwise
I1002 14:45:59.792531  8584 net.cpp:157] Top shape: 1 144 75 128 (1382400)
I1002 14:45:59.792532  8584 net.cpp:165] Memory required for data: 203126496
I1002 14:45:59.792536  8584 layer_factory.hpp:77] Creating layer conv3_1/linear
I1002 14:45:59.792541  8584 net.cpp:100] Creating Layer conv3_1/linear
I1002 14:45:59.792542  8584 net.cpp:434] conv3_1/linear <- conv3_1/dwise
I1002 14:45:59.792556  8584 net.cpp:408] conv3_1/linear -> conv3_1/linear
I1002 14:45:59.793632  8584 net.cpp:150] Setting up conv3_1/linear
I1002 14:45:59.793640  8584 net.cpp:157] Top shape: 1 24 75 128 (230400)
I1002 14:45:59.793642  8584 net.cpp:165] Memory required for data: 204048096
I1002 14:45:59.793645  8584 layer_factory.hpp:77] Creating layer conv3_1/linear/bn
I1002 14:45:59.793649  8584 net.cpp:100] Creating Layer conv3_1/linear/bn
I1002 14:45:59.793651  8584 net.cpp:434] conv3_1/linear/bn <- conv3_1/linear
I1002 14:45:59.793654  8584 net.cpp:395] conv3_1/linear/bn -> conv3_1/linear (in-place)
I1002 14:45:59.793779  8584 net.cpp:150] Setting up conv3_1/linear/bn
I1002 14:45:59.793783  8584 net.cpp:157] Top shape: 1 24 75 128 (230400)
I1002 14:45:59.793786  8584 net.cpp:165] Memory required for data: 204969696
I1002 14:45:59.793789  8584 layer_factory.hpp:77] Creating layer conv3_1/linear/scale
I1002 14:45:59.793793  8584 net.cpp:100] Creating Layer conv3_1/linear/scale
I1002 14:45:59.793795  8584 net.cpp:434] conv3_1/linear/scale <- conv3_1/linear
I1002 14:45:59.793798  8584 net.cpp:395] conv3_1/linear/scale -> conv3_1/linear (in-place)
I1002 14:45:59.793821  8584 layer_factory.hpp:77] Creating layer conv3_1/linear/scale
I1002 14:45:59.793905  8584 net.cpp:150] Setting up conv3_1/linear/scale
I1002 14:45:59.793908  8584 net.cpp:157] Top shape: 1 24 75 128 (230400)
I1002 14:45:59.793910  8584 net.cpp:165] Memory required for data: 205891296
I1002 14:45:59.793915  8584 layer_factory.hpp:77] Creating layer block_3_1
I1002 14:45:59.793917  8584 net.cpp:100] Creating Layer block_3_1
I1002 14:45:59.793920  8584 net.cpp:434] block_3_1 <- conv2_2/linear_conv2_2/linear/scale_0_split_1
I1002 14:45:59.793921  8584 net.cpp:434] block_3_1 <- conv3_1/linear
I1002 14:45:59.793926  8584 net.cpp:408] block_3_1 -> block_3_1
I1002 14:45:59.793941  8584 net.cpp:150] Setting up block_3_1
I1002 14:45:59.793944  8584 net.cpp:157] Top shape: 1 24 75 128 (230400)
I1002 14:45:59.793946  8584 net.cpp:165] Memory required for data: 206812896
I1002 14:45:59.793948  8584 layer_factory.hpp:77] Creating layer conv3_2/expand
I1002 14:45:59.793953  8584 net.cpp:100] Creating Layer conv3_2/expand
I1002 14:45:59.793954  8584 net.cpp:434] conv3_2/expand <- block_3_1
I1002 14:45:59.793958  8584 net.cpp:408] conv3_2/expand -> conv3_2/expand
I1002 14:45:59.795047  8584 net.cpp:150] Setting up conv3_2/expand
I1002 14:45:59.795054  8584 net.cpp:157] Top shape: 1 144 75 128 (1382400)
I1002 14:45:59.795056  8584 net.cpp:165] Memory required for data: 212342496
I1002 14:45:59.795059  8584 layer_factory.hpp:77] Creating layer conv3_2/expand/bn
I1002 14:45:59.795064  8584 net.cpp:100] Creating Layer conv3_2/expand/bn
I1002 14:45:59.795068  8584 net.cpp:434] conv3_2/expand/bn <- conv3_2/expand
I1002 14:45:59.795070  8584 net.cpp:395] conv3_2/expand/bn -> conv3_2/expand (in-place)
I1002 14:45:59.795194  8584 net.cpp:150] Setting up conv3_2/expand/bn
I1002 14:45:59.795197  8584 net.cpp:157] Top shape: 1 144 75 128 (1382400)
I1002 14:45:59.795199  8584 net.cpp:165] Memory required for data: 217872096
I1002 14:45:59.795203  8584 layer_factory.hpp:77] Creating layer conv3_2/expand/scale
I1002 14:45:59.795207  8584 net.cpp:100] Creating Layer conv3_2/expand/scale
I1002 14:45:59.795209  8584 net.cpp:434] conv3_2/expand/scale <- conv3_2/expand
I1002 14:45:59.795212  8584 net.cpp:395] conv3_2/expand/scale -> conv3_2/expand (in-place)
I1002 14:45:59.795234  8584 layer_factory.hpp:77] Creating layer conv3_2/expand/scale
I1002 14:45:59.795303  8584 net.cpp:150] Setting up conv3_2/expand/scale
I1002 14:45:59.795307  8584 net.cpp:157] Top shape: 1 144 75 128 (1382400)
I1002 14:45:59.795308  8584 net.cpp:165] Memory required for data: 223401696
I1002 14:45:59.795317  8584 layer_factory.hpp:77] Creating layer relu3_2/expand
I1002 14:45:59.795321  8584 net.cpp:100] Creating Layer relu3_2/expand
I1002 14:45:59.795323  8584 net.cpp:434] relu3_2/expand <- conv3_2/expand
I1002 14:45:59.795326  8584 net.cpp:395] relu3_2/expand -> conv3_2/expand (in-place)
I1002 14:45:59.796000  8584 net.cpp:150] Setting up relu3_2/expand
I1002 14:45:59.796010  8584 net.cpp:157] Top shape: 1 144 75 128 (1382400)
I1002 14:45:59.796013  8584 net.cpp:165] Memory required for data: 228931296
I1002 14:45:59.796016  8584 layer_factory.hpp:77] Creating layer conv3_2/dwise
I1002 14:45:59.796025  8584 net.cpp:100] Creating Layer conv3_2/dwise
I1002 14:45:59.796027  8584 net.cpp:434] conv3_2/dwise <- conv3_2/expand
I1002 14:45:59.796033  8584 net.cpp:408] conv3_2/dwise -> conv3_2/dwise
I1002 14:45:59.796219  8584 net.cpp:150] Setting up conv3_2/dwise
I1002 14:45:59.796226  8584 net.cpp:157] Top shape: 1 144 38 64 (350208)
I1002 14:45:59.796229  8584 net.cpp:165] Memory required for data: 230332128
I1002 14:45:59.796234  8584 layer_factory.hpp:77] Creating layer conv3_2/dwise/bn
I1002 14:45:59.796241  8584 net.cpp:100] Creating Layer conv3_2/dwise/bn
I1002 14:45:59.796244  8584 net.cpp:434] conv3_2/dwise/bn <- conv3_2/dwise
I1002 14:45:59.796248  8584 net.cpp:395] conv3_2/dwise/bn -> conv3_2/dwise (in-place)
I1002 14:45:59.796432  8584 net.cpp:150] Setting up conv3_2/dwise/bn
I1002 14:45:59.796437  8584 net.cpp:157] Top shape: 1 144 38 64 (350208)
I1002 14:45:59.796442  8584 net.cpp:165] Memory required for data: 231732960
I1002 14:45:59.796453  8584 layer_factory.hpp:77] Creating layer conv3_2/dwise/scale
I1002 14:45:59.796460  8584 net.cpp:100] Creating Layer conv3_2/dwise/scale
I1002 14:45:59.796464  8584 net.cpp:434] conv3_2/dwise/scale <- conv3_2/dwise
I1002 14:45:59.796469  8584 net.cpp:395] conv3_2/dwise/scale -> conv3_2/dwise (in-place)
I1002 14:45:59.796501  8584 layer_factory.hpp:77] Creating layer conv3_2/dwise/scale
I1002 14:45:59.796594  8584 net.cpp:150] Setting up conv3_2/dwise/scale
I1002 14:45:59.796600  8584 net.cpp:157] Top shape: 1 144 38 64 (350208)
I1002 14:45:59.796604  8584 net.cpp:165] Memory required for data: 233133792
I1002 14:45:59.796609  8584 layer_factory.hpp:77] Creating layer relu3_2/dwise
I1002 14:45:59.796614  8584 net.cpp:100] Creating Layer relu3_2/dwise
I1002 14:45:59.796618  8584 net.cpp:434] relu3_2/dwise <- conv3_2/dwise
I1002 14:45:59.796622  8584 net.cpp:395] relu3_2/dwise -> conv3_2/dwise (in-place)
I1002 14:45:59.797000  8584 net.cpp:150] Setting up relu3_2/dwise
I1002 14:45:59.797008  8584 net.cpp:157] Top shape: 1 144 38 64 (350208)
I1002 14:45:59.797011  8584 net.cpp:165] Memory required for data: 234534624
I1002 14:45:59.797014  8584 layer_factory.hpp:77] Creating layer conv3_2/linear
I1002 14:45:59.797021  8584 net.cpp:100] Creating Layer conv3_2/linear
I1002 14:45:59.797025  8584 net.cpp:434] conv3_2/linear <- conv3_2/dwise
I1002 14:45:59.797031  8584 net.cpp:408] conv3_2/linear -> conv3_2/linear
I1002 14:45:59.798527  8584 net.cpp:150] Setting up conv3_2/linear
I1002 14:45:59.798534  8584 net.cpp:157] Top shape: 1 32 38 64 (77824)
I1002 14:45:59.798538  8584 net.cpp:165] Memory required for data: 234845920
I1002 14:45:59.798543  8584 layer_factory.hpp:77] Creating layer conv3_2/linear/bn
I1002 14:45:59.798550  8584 net.cpp:100] Creating Layer conv3_2/linear/bn
I1002 14:45:59.798553  8584 net.cpp:434] conv3_2/linear/bn <- conv3_2/linear
I1002 14:45:59.798559  8584 net.cpp:395] conv3_2/linear/bn -> conv3_2/linear (in-place)
I1002 14:45:59.798738  8584 net.cpp:150] Setting up conv3_2/linear/bn
I1002 14:45:59.798743  8584 net.cpp:157] Top shape: 1 32 38 64 (77824)
I1002 14:45:59.798748  8584 net.cpp:165] Memory required for data: 235157216
I1002 14:45:59.798753  8584 layer_factory.hpp:77] Creating layer conv3_2/linear/scale
I1002 14:45:59.798759  8584 net.cpp:100] Creating Layer conv3_2/linear/scale
I1002 14:45:59.798763  8584 net.cpp:434] conv3_2/linear/scale <- conv3_2/linear
I1002 14:45:59.798768  8584 net.cpp:395] conv3_2/linear/scale -> conv3_2/linear (in-place)
I1002 14:45:59.798802  8584 layer_factory.hpp:77] Creating layer conv3_2/linear/scale
I1002 14:45:59.798899  8584 net.cpp:150] Setting up conv3_2/linear/scale
I1002 14:45:59.798904  8584 net.cpp:157] Top shape: 1 32 38 64 (77824)
I1002 14:45:59.798908  8584 net.cpp:165] Memory required for data: 235468512
I1002 14:45:59.798923  8584 layer_factory.hpp:77] Creating layer conv3_2/linear_conv3_2/linear/scale_0_split
I1002 14:45:59.798928  8584 net.cpp:100] Creating Layer conv3_2/linear_conv3_2/linear/scale_0_split
I1002 14:45:59.798933  8584 net.cpp:434] conv3_2/linear_conv3_2/linear/scale_0_split <- conv3_2/linear
I1002 14:45:59.798938  8584 net.cpp:408] conv3_2/linear_conv3_2/linear/scale_0_split -> conv3_2/linear_conv3_2/linear/scale_0_split_0
I1002 14:45:59.798944  8584 net.cpp:408] conv3_2/linear_conv3_2/linear/scale_0_split -> conv3_2/linear_conv3_2/linear/scale_0_split_1
I1002 14:45:59.798976  8584 net.cpp:150] Setting up conv3_2/linear_conv3_2/linear/scale_0_split
I1002 14:45:59.798982  8584 net.cpp:157] Top shape: 1 32 38 64 (77824)
I1002 14:45:59.798986  8584 net.cpp:157] Top shape: 1 32 38 64 (77824)
I1002 14:45:59.798990  8584 net.cpp:165] Memory required for data: 236091104
I1002 14:45:59.798993  8584 layer_factory.hpp:77] Creating layer conv4_1/expand
I1002 14:45:59.799000  8584 net.cpp:100] Creating Layer conv4_1/expand
I1002 14:45:59.799003  8584 net.cpp:434] conv4_1/expand <- conv3_2/linear_conv3_2/linear/scale_0_split_0
I1002 14:45:59.799008  8584 net.cpp:408] conv4_1/expand -> conv4_1/expand
I1002 14:45:59.800492  8584 net.cpp:150] Setting up conv4_1/expand
I1002 14:45:59.800500  8584 net.cpp:157] Top shape: 1 192 38 64 (466944)
I1002 14:45:59.800503  8584 net.cpp:165] Memory required for data: 237958880
I1002 14:45:59.800508  8584 layer_factory.hpp:77] Creating layer conv4_1/expand/bn
I1002 14:45:59.800514  8584 net.cpp:100] Creating Layer conv4_1/expand/bn
I1002 14:45:59.800518  8584 net.cpp:434] conv4_1/expand/bn <- conv4_1/expand
I1002 14:45:59.800523  8584 net.cpp:395] conv4_1/expand/bn -> conv4_1/expand (in-place)
I1002 14:45:59.800698  8584 net.cpp:150] Setting up conv4_1/expand/bn
I1002 14:45:59.800704  8584 net.cpp:157] Top shape: 1 192 38 64 (466944)
I1002 14:45:59.800709  8584 net.cpp:165] Memory required for data: 239826656
I1002 14:45:59.800714  8584 layer_factory.hpp:77] Creating layer conv4_1/expand/scale
I1002 14:45:59.800719  8584 net.cpp:100] Creating Layer conv4_1/expand/scale
I1002 14:45:59.800724  8584 net.cpp:434] conv4_1/expand/scale <- conv4_1/expand
I1002 14:45:59.800729  8584 net.cpp:395] conv4_1/expand/scale -> conv4_1/expand (in-place)
I1002 14:45:59.800760  8584 layer_factory.hpp:77] Creating layer conv4_1/expand/scale
I1002 14:45:59.800858  8584 net.cpp:150] Setting up conv4_1/expand/scale
I1002 14:45:59.800863  8584 net.cpp:157] Top shape: 1 192 38 64 (466944)
I1002 14:45:59.800868  8584 net.cpp:165] Memory required for data: 241694432
I1002 14:45:59.800871  8584 layer_factory.hpp:77] Creating layer relu4_1/expand
I1002 14:45:59.800876  8584 net.cpp:100] Creating Layer relu4_1/expand
I1002 14:45:59.800879  8584 net.cpp:434] relu4_1/expand <- conv4_1/expand
I1002 14:45:59.800884  8584 net.cpp:395] relu4_1/expand -> conv4_1/expand (in-place)
I1002 14:45:59.801395  8584 net.cpp:150] Setting up relu4_1/expand
I1002 14:45:59.801404  8584 net.cpp:157] Top shape: 1 192 38 64 (466944)
I1002 14:45:59.801409  8584 net.cpp:165] Memory required for data: 243562208
I1002 14:45:59.801411  8584 layer_factory.hpp:77] Creating layer conv4_1/dwise
I1002 14:45:59.801419  8584 net.cpp:100] Creating Layer conv4_1/dwise
I1002 14:45:59.801421  8584 net.cpp:434] conv4_1/dwise <- conv4_1/expand
I1002 14:45:59.801427  8584 net.cpp:408] conv4_1/dwise -> conv4_1/dwise
I1002 14:45:59.801626  8584 net.cpp:150] Setting up conv4_1/dwise
I1002 14:45:59.801633  8584 net.cpp:157] Top shape: 1 192 38 64 (466944)
I1002 14:45:59.801636  8584 net.cpp:165] Memory required for data: 245429984
I1002 14:45:59.801641  8584 layer_factory.hpp:77] Creating layer conv4_1/dwise/bn
I1002 14:45:59.801647  8584 net.cpp:100] Creating Layer conv4_1/dwise/bn
I1002 14:45:59.801651  8584 net.cpp:434] conv4_1/dwise/bn <- conv4_1/dwise
I1002 14:45:59.801654  8584 net.cpp:395] conv4_1/dwise/bn -> conv4_1/dwise (in-place)
I1002 14:45:59.801828  8584 net.cpp:150] Setting up conv4_1/dwise/bn
I1002 14:45:59.801834  8584 net.cpp:157] Top shape: 1 192 38 64 (466944)
I1002 14:45:59.801846  8584 net.cpp:165] Memory required for data: 247297760
I1002 14:45:59.801852  8584 layer_factory.hpp:77] Creating layer conv4_1/dwise/scale
I1002 14:45:59.801858  8584 net.cpp:100] Creating Layer conv4_1/dwise/scale
I1002 14:45:59.801862  8584 net.cpp:434] conv4_1/dwise/scale <- conv4_1/dwise
I1002 14:45:59.801867  8584 net.cpp:395] conv4_1/dwise/scale -> conv4_1/dwise (in-place)
I1002 14:45:59.801901  8584 layer_factory.hpp:77] Creating layer conv4_1/dwise/scale
I1002 14:45:59.801996  8584 net.cpp:150] Setting up conv4_1/dwise/scale
I1002 14:45:59.802001  8584 net.cpp:157] Top shape: 1 192 38 64 (466944)
I1002 14:45:59.802006  8584 net.cpp:165] Memory required for data: 249165536
I1002 14:45:59.802011  8584 layer_factory.hpp:77] Creating layer relu4_1/dwise
I1002 14:45:59.802016  8584 net.cpp:100] Creating Layer relu4_1/dwise
I1002 14:45:59.802018  8584 net.cpp:434] relu4_1/dwise <- conv4_1/dwise
I1002 14:45:59.802023  8584 net.cpp:395] relu4_1/dwise -> conv4_1/dwise (in-place)
I1002 14:45:59.802395  8584 net.cpp:150] Setting up relu4_1/dwise
I1002 14:45:59.802404  8584 net.cpp:157] Top shape: 1 192 38 64 (466944)
I1002 14:45:59.802408  8584 net.cpp:165] Memory required for data: 251033312
I1002 14:45:59.802412  8584 layer_factory.hpp:77] Creating layer conv4_1/linear
I1002 14:45:59.802417  8584 net.cpp:100] Creating Layer conv4_1/linear
I1002 14:45:59.802423  8584 net.cpp:434] conv4_1/linear <- conv4_1/dwise
I1002 14:45:59.802429  8584 net.cpp:408] conv4_1/linear -> conv4_1/linear
I1002 14:45:59.803951  8584 net.cpp:150] Setting up conv4_1/linear
I1002 14:45:59.803959  8584 net.cpp:157] Top shape: 1 32 38 64 (77824)
I1002 14:45:59.803962  8584 net.cpp:165] Memory required for data: 251344608
I1002 14:45:59.803967  8584 layer_factory.hpp:77] Creating layer conv4_1/linear/bn
I1002 14:45:59.803973  8584 net.cpp:100] Creating Layer conv4_1/linear/bn
I1002 14:45:59.803975  8584 net.cpp:434] conv4_1/linear/bn <- conv4_1/linear
I1002 14:45:59.803980  8584 net.cpp:395] conv4_1/linear/bn -> conv4_1/linear (in-place)
I1002 14:45:59.804157  8584 net.cpp:150] Setting up conv4_1/linear/bn
I1002 14:45:59.804162  8584 net.cpp:157] Top shape: 1 32 38 64 (77824)
I1002 14:45:59.804165  8584 net.cpp:165] Memory required for data: 251655904
I1002 14:45:59.804172  8584 layer_factory.hpp:77] Creating layer conv4_1/linear/scale
I1002 14:45:59.804177  8584 net.cpp:100] Creating Layer conv4_1/linear/scale
I1002 14:45:59.804179  8584 net.cpp:434] conv4_1/linear/scale <- conv4_1/linear
I1002 14:45:59.804183  8584 net.cpp:395] conv4_1/linear/scale -> conv4_1/linear (in-place)
I1002 14:45:59.804217  8584 layer_factory.hpp:77] Creating layer conv4_1/linear/scale
I1002 14:45:59.804314  8584 net.cpp:150] Setting up conv4_1/linear/scale
I1002 14:45:59.804319  8584 net.cpp:157] Top shape: 1 32 38 64 (77824)
I1002 14:45:59.804322  8584 net.cpp:165] Memory required for data: 251967200
I1002 14:45:59.804327  8584 layer_factory.hpp:77] Creating layer block_4_1
I1002 14:45:59.804340  8584 net.cpp:100] Creating Layer block_4_1
I1002 14:45:59.804343  8584 net.cpp:434] block_4_1 <- conv3_2/linear_conv3_2/linear/scale_0_split_1
I1002 14:45:59.804347  8584 net.cpp:434] block_4_1 <- conv4_1/linear
I1002 14:45:59.804352  8584 net.cpp:408] block_4_1 -> block_4_1
I1002 14:45:59.804371  8584 net.cpp:150] Setting up block_4_1
I1002 14:45:59.804376  8584 net.cpp:157] Top shape: 1 32 38 64 (77824)
I1002 14:45:59.804379  8584 net.cpp:165] Memory required for data: 252278496
I1002 14:45:59.804384  8584 layer_factory.hpp:77] Creating layer block_4_1_block_4_1_0_split
I1002 14:45:59.804389  8584 net.cpp:100] Creating Layer block_4_1_block_4_1_0_split
I1002 14:45:59.804392  8584 net.cpp:434] block_4_1_block_4_1_0_split <- block_4_1
I1002 14:45:59.804396  8584 net.cpp:408] block_4_1_block_4_1_0_split -> block_4_1_block_4_1_0_split_0
I1002 14:45:59.804402  8584 net.cpp:408] block_4_1_block_4_1_0_split -> block_4_1_block_4_1_0_split_1
I1002 14:45:59.804436  8584 net.cpp:150] Setting up block_4_1_block_4_1_0_split
I1002 14:45:59.804448  8584 net.cpp:157] Top shape: 1 32 38 64 (77824)
I1002 14:45:59.804453  8584 net.cpp:157] Top shape: 1 32 38 64 (77824)
I1002 14:45:59.804457  8584 net.cpp:165] Memory required for data: 252901088
I1002 14:45:59.804461  8584 layer_factory.hpp:77] Creating layer conv4_2/expand
I1002 14:45:59.804467  8584 net.cpp:100] Creating Layer conv4_2/expand
I1002 14:45:59.804471  8584 net.cpp:434] conv4_2/expand <- block_4_1_block_4_1_0_split_0
I1002 14:45:59.804478  8584 net.cpp:408] conv4_2/expand -> conv4_2/expand
I1002 14:45:59.806114  8584 net.cpp:150] Setting up conv4_2/expand
I1002 14:45:59.806123  8584 net.cpp:157] Top shape: 1 192 38 64 (466944)
I1002 14:45:59.806125  8584 net.cpp:165] Memory required for data: 254768864
I1002 14:45:59.806131  8584 layer_factory.hpp:77] Creating layer conv4_2/expand/bn
I1002 14:45:59.806138  8584 net.cpp:100] Creating Layer conv4_2/expand/bn
I1002 14:45:59.806143  8584 net.cpp:434] conv4_2/expand/bn <- conv4_2/expand
I1002 14:45:59.806146  8584 net.cpp:395] conv4_2/expand/bn -> conv4_2/expand (in-place)
I1002 14:45:59.806324  8584 net.cpp:150] Setting up conv4_2/expand/bn
I1002 14:45:59.806330  8584 net.cpp:157] Top shape: 1 192 38 64 (466944)
I1002 14:45:59.806334  8584 net.cpp:165] Memory required for data: 256636640
I1002 14:45:59.806339  8584 layer_factory.hpp:77] Creating layer conv4_2/expand/scale
I1002 14:45:59.806345  8584 net.cpp:100] Creating Layer conv4_2/expand/scale
I1002 14:45:59.806349  8584 net.cpp:434] conv4_2/expand/scale <- conv4_2/expand
I1002 14:45:59.806354  8584 net.cpp:395] conv4_2/expand/scale -> conv4_2/expand (in-place)
I1002 14:45:59.806388  8584 layer_factory.hpp:77] Creating layer conv4_2/expand/scale
I1002 14:45:59.806485  8584 net.cpp:150] Setting up conv4_2/expand/scale
I1002 14:45:59.806491  8584 net.cpp:157] Top shape: 1 192 38 64 (466944)
I1002 14:45:59.806494  8584 net.cpp:165] Memory required for data: 258504416
I1002 14:45:59.806499  8584 layer_factory.hpp:77] Creating layer relu4_2/expand
I1002 14:45:59.806506  8584 net.cpp:100] Creating Layer relu4_2/expand
I1002 14:45:59.806509  8584 net.cpp:434] relu4_2/expand <- conv4_2/expand
I1002 14:45:59.806514  8584 net.cpp:395] relu4_2/expand -> conv4_2/expand (in-place)
I1002 14:45:59.806895  8584 net.cpp:150] Setting up relu4_2/expand
I1002 14:45:59.806902  8584 net.cpp:157] Top shape: 1 192 38 64 (466944)
I1002 14:45:59.806905  8584 net.cpp:165] Memory required for data: 260372192
I1002 14:45:59.806908  8584 layer_factory.hpp:77] Creating layer conv4_2/dwise
I1002 14:45:59.806915  8584 net.cpp:100] Creating Layer conv4_2/dwise
I1002 14:45:59.806922  8584 net.cpp:434] conv4_2/dwise <- conv4_2/expand
I1002 14:45:59.806927  8584 net.cpp:408] conv4_2/dwise -> conv4_2/dwise
I1002 14:45:59.807126  8584 net.cpp:150] Setting up conv4_2/dwise
I1002 14:45:59.807132  8584 net.cpp:157] Top shape: 1 192 38 64 (466944)
I1002 14:45:59.807137  8584 net.cpp:165] Memory required for data: 262239968
I1002 14:45:59.807142  8584 layer_factory.hpp:77] Creating layer conv4_2/dwise/bn
I1002 14:45:59.807147  8584 net.cpp:100] Creating Layer conv4_2/dwise/bn
I1002 14:45:59.807150  8584 net.cpp:434] conv4_2/dwise/bn <- conv4_2/dwise
I1002 14:45:59.807155  8584 net.cpp:395] conv4_2/dwise/bn -> conv4_2/dwise (in-place)
I1002 14:45:59.807334  8584 net.cpp:150] Setting up conv4_2/dwise/bn
I1002 14:45:59.807340  8584 net.cpp:157] Top shape: 1 192 38 64 (466944)
I1002 14:45:59.807343  8584 net.cpp:165] Memory required for data: 264107744
I1002 14:45:59.807351  8584 layer_factory.hpp:77] Creating layer conv4_2/dwise/scale
I1002 14:45:59.807356  8584 net.cpp:100] Creating Layer conv4_2/dwise/scale
I1002 14:45:59.807359  8584 net.cpp:434] conv4_2/dwise/scale <- conv4_2/dwise
I1002 14:45:59.807364  8584 net.cpp:395] conv4_2/dwise/scale -> conv4_2/dwise (in-place)
I1002 14:45:59.807399  8584 layer_factory.hpp:77] Creating layer conv4_2/dwise/scale
I1002 14:45:59.807494  8584 net.cpp:150] Setting up conv4_2/dwise/scale
I1002 14:45:59.807499  8584 net.cpp:157] Top shape: 1 192 38 64 (466944)
I1002 14:45:59.807503  8584 net.cpp:165] Memory required for data: 265975520
I1002 14:45:59.807518  8584 layer_factory.hpp:77] Creating layer relu4_2/dwise
I1002 14:45:59.807523  8584 net.cpp:100] Creating Layer relu4_2/dwise
I1002 14:45:59.807528  8584 net.cpp:434] relu4_2/dwise <- conv4_2/dwise
I1002 14:45:59.807531  8584 net.cpp:395] relu4_2/dwise -> conv4_2/dwise (in-place)
I1002 14:45:59.807914  8584 net.cpp:150] Setting up relu4_2/dwise
I1002 14:45:59.807920  8584 net.cpp:157] Top shape: 1 192 38 64 (466944)
I1002 14:45:59.807924  8584 net.cpp:165] Memory required for data: 267843296
I1002 14:45:59.807926  8584 layer_factory.hpp:77] Creating layer conv4_2/linear
I1002 14:45:59.807934  8584 net.cpp:100] Creating Layer conv4_2/linear
I1002 14:45:59.807937  8584 net.cpp:434] conv4_2/linear <- conv4_2/dwise
I1002 14:45:59.807945  8584 net.cpp:408] conv4_2/linear -> conv4_2/linear
I1002 14:45:59.809638  8584 net.cpp:150] Setting up conv4_2/linear
I1002 14:45:59.809648  8584 net.cpp:157] Top shape: 1 32 38 64 (77824)
I1002 14:45:59.809653  8584 net.cpp:165] Memory required for data: 268154592
I1002 14:45:59.809657  8584 layer_factory.hpp:77] Creating layer conv4_2/linear/bn
I1002 14:45:59.809664  8584 net.cpp:100] Creating Layer conv4_2/linear/bn
I1002 14:45:59.809669  8584 net.cpp:434] conv4_2/linear/bn <- conv4_2/linear
I1002 14:45:59.809674  8584 net.cpp:395] conv4_2/linear/bn -> conv4_2/linear (in-place)
I1002 14:45:59.809855  8584 net.cpp:150] Setting up conv4_2/linear/bn
I1002 14:45:59.809861  8584 net.cpp:157] Top shape: 1 32 38 64 (77824)
I1002 14:45:59.809864  8584 net.cpp:165] Memory required for data: 268465888
I1002 14:45:59.809872  8584 layer_factory.hpp:77] Creating layer conv4_2/linear/scale
I1002 14:45:59.809880  8584 net.cpp:100] Creating Layer conv4_2/linear/scale
I1002 14:45:59.809882  8584 net.cpp:434] conv4_2/linear/scale <- conv4_2/linear
I1002 14:45:59.809887  8584 net.cpp:395] conv4_2/linear/scale -> conv4_2/linear (in-place)
I1002 14:45:59.809922  8584 layer_factory.hpp:77] Creating layer conv4_2/linear/scale
I1002 14:45:59.810020  8584 net.cpp:150] Setting up conv4_2/linear/scale
I1002 14:45:59.810026  8584 net.cpp:157] Top shape: 1 32 38 64 (77824)
I1002 14:45:59.810029  8584 net.cpp:165] Memory required for data: 268777184
I1002 14:45:59.810035  8584 layer_factory.hpp:77] Creating layer block_4_2
I1002 14:45:59.810041  8584 net.cpp:100] Creating Layer block_4_2
I1002 14:45:59.810045  8584 net.cpp:434] block_4_2 <- block_4_1_block_4_1_0_split_1
I1002 14:45:59.810050  8584 net.cpp:434] block_4_2 <- conv4_2/linear
I1002 14:45:59.810055  8584 net.cpp:408] block_4_2 -> block_4_2
I1002 14:45:59.810075  8584 net.cpp:150] Setting up block_4_2
I1002 14:45:59.810081  8584 net.cpp:157] Top shape: 1 32 38 64 (77824)
I1002 14:45:59.810084  8584 net.cpp:165] Memory required for data: 269088480
I1002 14:45:59.810087  8584 layer_factory.hpp:77] Creating layer conv4_3/expand
I1002 14:45:59.810094  8584 net.cpp:100] Creating Layer conv4_3/expand
I1002 14:45:59.810097  8584 net.cpp:434] conv4_3/expand <- block_4_2
I1002 14:45:59.810102  8584 net.cpp:408] conv4_3/expand -> conv4_3/expand
I1002 14:45:59.811766  8584 net.cpp:150] Setting up conv4_3/expand
I1002 14:45:59.811779  8584 net.cpp:157] Top shape: 1 192 38 64 (466944)
I1002 14:45:59.811781  8584 net.cpp:165] Memory required for data: 270956256
I1002 14:45:59.811786  8584 layer_factory.hpp:77] Creating layer conv4_3/expand/bn
I1002 14:45:59.811794  8584 net.cpp:100] Creating Layer conv4_3/expand/bn
I1002 14:45:59.811797  8584 net.cpp:434] conv4_3/expand/bn <- conv4_3/expand
I1002 14:45:59.811803  8584 net.cpp:395] conv4_3/expand/bn -> conv4_3/expand (in-place)
I1002 14:45:59.811987  8584 net.cpp:150] Setting up conv4_3/expand/bn
I1002 14:45:59.811995  8584 net.cpp:157] Top shape: 1 192 38 64 (466944)
I1002 14:45:59.811997  8584 net.cpp:165] Memory required for data: 272824032
I1002 14:45:59.812003  8584 layer_factory.hpp:77] Creating layer conv4_3/expand/scale
I1002 14:45:59.812009  8584 net.cpp:100] Creating Layer conv4_3/expand/scale
I1002 14:45:59.812013  8584 net.cpp:434] conv4_3/expand/scale <- conv4_3/expand
I1002 14:45:59.812031  8584 net.cpp:395] conv4_3/expand/scale -> conv4_3/expand (in-place)
I1002 14:45:59.812067  8584 layer_factory.hpp:77] Creating layer conv4_3/expand/scale
I1002 14:45:59.812167  8584 net.cpp:150] Setting up conv4_3/expand/scale
I1002 14:45:59.812173  8584 net.cpp:157] Top shape: 1 192 38 64 (466944)
I1002 14:45:59.812176  8584 net.cpp:165] Memory required for data: 274691808
I1002 14:45:59.812181  8584 layer_factory.hpp:77] Creating layer relu4_3/expand
I1002 14:45:59.812186  8584 net.cpp:100] Creating Layer relu4_3/expand
I1002 14:45:59.812191  8584 net.cpp:434] relu4_3/expand <- conv4_3/expand
I1002 14:45:59.812194  8584 net.cpp:395] relu4_3/expand -> conv4_3/expand (in-place)
I1002 14:45:59.812582  8584 net.cpp:150] Setting up relu4_3/expand
I1002 14:45:59.812589  8584 net.cpp:157] Top shape: 1 192 38 64 (466944)
I1002 14:45:59.812592  8584 net.cpp:165] Memory required for data: 276559584
I1002 14:45:59.812595  8584 layer_factory.hpp:77] Creating layer conv4_3/dwise
I1002 14:45:59.812603  8584 net.cpp:100] Creating Layer conv4_3/dwise
I1002 14:45:59.812606  8584 net.cpp:434] conv4_3/dwise <- conv4_3/expand
I1002 14:45:59.812613  8584 net.cpp:408] conv4_3/dwise -> conv4_3/dwise
I1002 14:45:59.812819  8584 net.cpp:150] Setting up conv4_3/dwise
I1002 14:45:59.812824  8584 net.cpp:157] Top shape: 1 192 38 64 (466944)
I1002 14:45:59.812827  8584 net.cpp:165] Memory required for data: 278427360
I1002 14:45:59.812832  8584 layer_factory.hpp:77] Creating layer conv4_3/dwise/bn
I1002 14:45:59.812837  8584 net.cpp:100] Creating Layer conv4_3/dwise/bn
I1002 14:45:59.812841  8584 net.cpp:434] conv4_3/dwise/bn <- conv4_3/dwise
I1002 14:45:59.812845  8584 net.cpp:395] conv4_3/dwise/bn -> conv4_3/dwise (in-place)
I1002 14:45:59.813028  8584 net.cpp:150] Setting up conv4_3/dwise/bn
I1002 14:45:59.813035  8584 net.cpp:157] Top shape: 1 192 38 64 (466944)
I1002 14:45:59.813037  8584 net.cpp:165] Memory required for data: 280295136
I1002 14:45:59.813045  8584 layer_factory.hpp:77] Creating layer conv4_3/dwise/scale
I1002 14:45:59.813050  8584 net.cpp:100] Creating Layer conv4_3/dwise/scale
I1002 14:45:59.813055  8584 net.cpp:434] conv4_3/dwise/scale <- conv4_3/dwise
I1002 14:45:59.813058  8584 net.cpp:395] conv4_3/dwise/scale -> conv4_3/dwise (in-place)
I1002 14:45:59.813091  8584 layer_factory.hpp:77] Creating layer conv4_3/dwise/scale
I1002 14:45:59.813191  8584 net.cpp:150] Setting up conv4_3/dwise/scale
I1002 14:45:59.813196  8584 net.cpp:157] Top shape: 1 192 38 64 (466944)
I1002 14:45:59.813199  8584 net.cpp:165] Memory required for data: 282162912
I1002 14:45:59.813205  8584 layer_factory.hpp:77] Creating layer relu4_3/dwise
I1002 14:45:59.813210  8584 net.cpp:100] Creating Layer relu4_3/dwise
I1002 14:45:59.813213  8584 net.cpp:434] relu4_3/dwise <- conv4_3/dwise
I1002 14:45:59.813217  8584 net.cpp:395] relu4_3/dwise -> conv4_3/dwise (in-place)
I1002 14:45:59.813596  8584 net.cpp:150] Setting up relu4_3/dwise
I1002 14:45:59.813604  8584 net.cpp:157] Top shape: 1 192 38 64 (466944)
I1002 14:45:59.813608  8584 net.cpp:165] Memory required for data: 284030688
I1002 14:45:59.813611  8584 layer_factory.hpp:77] Creating layer conv4_3/linear
I1002 14:45:59.813617  8584 net.cpp:100] Creating Layer conv4_3/linear
I1002 14:45:59.813621  8584 net.cpp:434] conv4_3/linear <- conv4_3/dwise
I1002 14:45:59.813627  8584 net.cpp:408] conv4_3/linear -> conv4_3/linear
I1002 14:45:59.815333  8584 net.cpp:150] Setting up conv4_3/linear
I1002 14:45:59.815342  8584 net.cpp:157] Top shape: 1 64 38 64 (155648)
I1002 14:45:59.815346  8584 net.cpp:165] Memory required for data: 284653280
I1002 14:45:59.815351  8584 layer_factory.hpp:77] Creating layer conv4_3/linear/bn
I1002 14:45:59.815357  8584 net.cpp:100] Creating Layer conv4_3/linear/bn
I1002 14:45:59.815361  8584 net.cpp:434] conv4_3/linear/bn <- conv4_3/linear
I1002 14:45:59.815366  8584 net.cpp:395] conv4_3/linear/bn -> conv4_3/linear (in-place)
I1002 14:45:59.815547  8584 net.cpp:150] Setting up conv4_3/linear/bn
I1002 14:45:59.815552  8584 net.cpp:157] Top shape: 1 64 38 64 (155648)
I1002 14:45:59.815565  8584 net.cpp:165] Memory required for data: 285275872
I1002 14:45:59.815582  8584 layer_factory.hpp:77] Creating layer conv4_3/linear/scale
I1002 14:45:59.815588  8584 net.cpp:100] Creating Layer conv4_3/linear/scale
I1002 14:45:59.815593  8584 net.cpp:434] conv4_3/linear/scale <- conv4_3/linear
I1002 14:45:59.815596  8584 net.cpp:395] conv4_3/linear/scale -> conv4_3/linear (in-place)
I1002 14:45:59.815632  8584 layer_factory.hpp:77] Creating layer conv4_3/linear/scale
I1002 14:45:59.815729  8584 net.cpp:150] Setting up conv4_3/linear/scale
I1002 14:45:59.815734  8584 net.cpp:157] Top shape: 1 64 38 64 (155648)
I1002 14:45:59.815737  8584 net.cpp:165] Memory required for data: 285898464
I1002 14:45:59.815743  8584 layer_factory.hpp:77] Creating layer conv4_3/linear_conv4_3/linear/scale_0_split
I1002 14:45:59.815749  8584 net.cpp:100] Creating Layer conv4_3/linear_conv4_3/linear/scale_0_split
I1002 14:45:59.815753  8584 net.cpp:434] conv4_3/linear_conv4_3/linear/scale_0_split <- conv4_3/linear
I1002 14:45:59.815757  8584 net.cpp:408] conv4_3/linear_conv4_3/linear/scale_0_split -> conv4_3/linear_conv4_3/linear/scale_0_split_0
I1002 14:45:59.815764  8584 net.cpp:408] conv4_3/linear_conv4_3/linear/scale_0_split -> conv4_3/linear_conv4_3/linear/scale_0_split_1
I1002 14:45:59.815795  8584 net.cpp:150] Setting up conv4_3/linear_conv4_3/linear/scale_0_split
I1002 14:45:59.815801  8584 net.cpp:157] Top shape: 1 64 38 64 (155648)
I1002 14:45:59.815805  8584 net.cpp:157] Top shape: 1 64 38 64 (155648)
I1002 14:45:59.815809  8584 net.cpp:165] Memory required for data: 287143648
I1002 14:45:59.815812  8584 layer_factory.hpp:77] Creating layer conv4_4/expand
I1002 14:45:59.815817  8584 net.cpp:100] Creating Layer conv4_4/expand
I1002 14:45:59.815821  8584 net.cpp:434] conv4_4/expand <- conv4_3/linear_conv4_3/linear/scale_0_split_0
I1002 14:45:59.815829  8584 net.cpp:408] conv4_4/expand -> conv4_4/expand
I1002 14:45:59.817503  8584 net.cpp:150] Setting up conv4_4/expand
I1002 14:45:59.817512  8584 net.cpp:157] Top shape: 1 384 38 64 (933888)
I1002 14:45:59.817515  8584 net.cpp:165] Memory required for data: 290879200
I1002 14:45:59.817522  8584 layer_factory.hpp:77] Creating layer conv4_4/expand/bn
I1002 14:45:59.817528  8584 net.cpp:100] Creating Layer conv4_4/expand/bn
I1002 14:45:59.817531  8584 net.cpp:434] conv4_4/expand/bn <- conv4_4/expand
I1002 14:45:59.817536  8584 net.cpp:395] conv4_4/expand/bn -> conv4_4/expand (in-place)
I1002 14:45:59.817720  8584 net.cpp:150] Setting up conv4_4/expand/bn
I1002 14:45:59.817726  8584 net.cpp:157] Top shape: 1 384 38 64 (933888)
I1002 14:45:59.817729  8584 net.cpp:165] Memory required for data: 294614752
I1002 14:45:59.817735  8584 layer_factory.hpp:77] Creating layer conv4_4/expand/scale
I1002 14:45:59.817740  8584 net.cpp:100] Creating Layer conv4_4/expand/scale
I1002 14:45:59.817744  8584 net.cpp:434] conv4_4/expand/scale <- conv4_4/expand
I1002 14:45:59.817749  8584 net.cpp:395] conv4_4/expand/scale -> conv4_4/expand (in-place)
I1002 14:45:59.817780  8584 layer_factory.hpp:77] Creating layer conv4_4/expand/scale
I1002 14:45:59.817878  8584 net.cpp:150] Setting up conv4_4/expand/scale
I1002 14:45:59.817883  8584 net.cpp:157] Top shape: 1 384 38 64 (933888)
I1002 14:45:59.817888  8584 net.cpp:165] Memory required for data: 298350304
I1002 14:45:59.817893  8584 layer_factory.hpp:77] Creating layer relu4_4/expand
I1002 14:45:59.817898  8584 net.cpp:100] Creating Layer relu4_4/expand
I1002 14:45:59.817900  8584 net.cpp:434] relu4_4/expand <- conv4_4/expand
I1002 14:45:59.817905  8584 net.cpp:395] relu4_4/expand -> conv4_4/expand (in-place)
I1002 14:45:59.818274  8584 net.cpp:150] Setting up relu4_4/expand
I1002 14:45:59.818281  8584 net.cpp:157] Top shape: 1 384 38 64 (933888)
I1002 14:45:59.818285  8584 net.cpp:165] Memory required for data: 302085856
I1002 14:45:59.818289  8584 layer_factory.hpp:77] Creating layer conv4_4/dwise
I1002 14:45:59.818294  8584 net.cpp:100] Creating Layer conv4_4/dwise
I1002 14:45:59.818297  8584 net.cpp:434] conv4_4/dwise <- conv4_4/expand
I1002 14:45:59.818312  8584 net.cpp:408] conv4_4/dwise -> conv4_4/dwise
I1002 14:45:59.818528  8584 net.cpp:150] Setting up conv4_4/dwise
I1002 14:45:59.818534  8584 net.cpp:157] Top shape: 1 384 38 64 (933888)
I1002 14:45:59.818537  8584 net.cpp:165] Memory required for data: 305821408
I1002 14:45:59.818542  8584 layer_factory.hpp:77] Creating layer conv4_4/dwise/bn
I1002 14:45:59.818547  8584 net.cpp:100] Creating Layer conv4_4/dwise/bn
I1002 14:45:59.818552  8584 net.cpp:434] conv4_4/dwise/bn <- conv4_4/dwise
I1002 14:45:59.818555  8584 net.cpp:395] conv4_4/dwise/bn -> conv4_4/dwise (in-place)
I1002 14:45:59.818727  8584 net.cpp:150] Setting up conv4_4/dwise/bn
I1002 14:45:59.818732  8584 net.cpp:157] Top shape: 1 384 38 64 (933888)
I1002 14:45:59.818737  8584 net.cpp:165] Memory required for data: 309556960
I1002 14:45:59.818742  8584 layer_factory.hpp:77] Creating layer conv4_4/dwise/scale
I1002 14:45:59.818748  8584 net.cpp:100] Creating Layer conv4_4/dwise/scale
I1002 14:45:59.818751  8584 net.cpp:434] conv4_4/dwise/scale <- conv4_4/dwise
I1002 14:45:59.818755  8584 net.cpp:395] conv4_4/dwise/scale -> conv4_4/dwise (in-place)
I1002 14:45:59.818787  8584 layer_factory.hpp:77] Creating layer conv4_4/dwise/scale
I1002 14:45:59.818883  8584 net.cpp:150] Setting up conv4_4/dwise/scale
I1002 14:45:59.818888  8584 net.cpp:157] Top shape: 1 384 38 64 (933888)
I1002 14:45:59.818892  8584 net.cpp:165] Memory required for data: 313292512
I1002 14:45:59.818897  8584 layer_factory.hpp:77] Creating layer relu4_4/dwise
I1002 14:45:59.818902  8584 net.cpp:100] Creating Layer relu4_4/dwise
I1002 14:45:59.818905  8584 net.cpp:434] relu4_4/dwise <- conv4_4/dwise
I1002 14:45:59.818909  8584 net.cpp:395] relu4_4/dwise -> conv4_4/dwise (in-place)
I1002 14:45:59.819399  8584 net.cpp:150] Setting up relu4_4/dwise
I1002 14:45:59.819407  8584 net.cpp:157] Top shape: 1 384 38 64 (933888)
I1002 14:45:59.819411  8584 net.cpp:165] Memory required for data: 317028064
I1002 14:45:59.819414  8584 layer_factory.hpp:77] Creating layer conv4_4/linear
I1002 14:45:59.819422  8584 net.cpp:100] Creating Layer conv4_4/linear
I1002 14:45:59.819427  8584 net.cpp:434] conv4_4/linear <- conv4_4/dwise
I1002 14:45:59.819432  8584 net.cpp:408] conv4_4/linear -> conv4_4/linear
I1002 14:45:59.821141  8584 net.cpp:150] Setting up conv4_4/linear
I1002 14:45:59.821151  8584 net.cpp:157] Top shape: 1 64 38 64 (155648)
I1002 14:45:59.821154  8584 net.cpp:165] Memory required for data: 317650656
I1002 14:45:59.821159  8584 layer_factory.hpp:77] Creating layer conv4_4/linear/bn
I1002 14:45:59.821164  8584 net.cpp:100] Creating Layer conv4_4/linear/bn
I1002 14:45:59.821168  8584 net.cpp:434] conv4_4/linear/bn <- conv4_4/linear
I1002 14:45:59.821172  8584 net.cpp:395] conv4_4/linear/bn -> conv4_4/linear (in-place)
I1002 14:45:59.821359  8584 net.cpp:150] Setting up conv4_4/linear/bn
I1002 14:45:59.821365  8584 net.cpp:157] Top shape: 1 64 38 64 (155648)
I1002 14:45:59.821368  8584 net.cpp:165] Memory required for data: 318273248
I1002 14:45:59.821375  8584 layer_factory.hpp:77] Creating layer conv4_4/linear/scale
I1002 14:45:59.821380  8584 net.cpp:100] Creating Layer conv4_4/linear/scale
I1002 14:45:59.821383  8584 net.cpp:434] conv4_4/linear/scale <- conv4_4/linear
I1002 14:45:59.821388  8584 net.cpp:395] conv4_4/linear/scale -> conv4_4/linear (in-place)
I1002 14:45:59.821422  8584 layer_factory.hpp:77] Creating layer conv4_4/linear/scale
I1002 14:45:59.821527  8584 net.cpp:150] Setting up conv4_4/linear/scale
I1002 14:45:59.821533  8584 net.cpp:157] Top shape: 1 64 38 64 (155648)
I1002 14:45:59.821537  8584 net.cpp:165] Memory required for data: 318895840
I1002 14:45:59.821542  8584 layer_factory.hpp:77] Creating layer block_4_4
I1002 14:45:59.821547  8584 net.cpp:100] Creating Layer block_4_4
I1002 14:45:59.821550  8584 net.cpp:434] block_4_4 <- conv4_3/linear_conv4_3/linear/scale_0_split_1
I1002 14:45:59.821554  8584 net.cpp:434] block_4_4 <- conv4_4/linear
I1002 14:45:59.821560  8584 net.cpp:408] block_4_4 -> block_4_4
I1002 14:45:59.821590  8584 net.cpp:150] Setting up block_4_4
I1002 14:45:59.821595  8584 net.cpp:157] Top shape: 1 64 38 64 (155648)
I1002 14:45:59.821599  8584 net.cpp:165] Memory required for data: 319518432
I1002 14:45:59.821602  8584 layer_factory.hpp:77] Creating layer block_4_4_block_4_4_0_split
I1002 14:45:59.821606  8584 net.cpp:100] Creating Layer block_4_4_block_4_4_0_split
I1002 14:45:59.821609  8584 net.cpp:434] block_4_4_block_4_4_0_split <- block_4_4
I1002 14:45:59.821615  8584 net.cpp:408] block_4_4_block_4_4_0_split -> block_4_4_block_4_4_0_split_0
I1002 14:45:59.821621  8584 net.cpp:408] block_4_4_block_4_4_0_split -> block_4_4_block_4_4_0_split_1
I1002 14:45:59.821652  8584 net.cpp:150] Setting up block_4_4_block_4_4_0_split
I1002 14:45:59.821657  8584 net.cpp:157] Top shape: 1 64 38 64 (155648)
I1002 14:45:59.821661  8584 net.cpp:157] Top shape: 1 64 38 64 (155648)
I1002 14:45:59.821665  8584 net.cpp:165] Memory required for data: 320763616
I1002 14:45:59.821666  8584 layer_factory.hpp:77] Creating layer conv4_5/expand
I1002 14:45:59.821673  8584 net.cpp:100] Creating Layer conv4_5/expand
I1002 14:45:59.821677  8584 net.cpp:434] conv4_5/expand <- block_4_4_block_4_4_0_split_0
I1002 14:45:59.821681  8584 net.cpp:408] conv4_5/expand -> conv4_5/expand
I1002 14:45:59.823343  8584 net.cpp:150] Setting up conv4_5/expand
I1002 14:45:59.823351  8584 net.cpp:157] Top shape: 1 384 38 64 (933888)
I1002 14:45:59.823355  8584 net.cpp:165] Memory required for data: 324499168
I1002 14:45:59.823359  8584 layer_factory.hpp:77] Creating layer conv4_5/expand/bn
I1002 14:45:59.823366  8584 net.cpp:100] Creating Layer conv4_5/expand/bn
I1002 14:45:59.823369  8584 net.cpp:434] conv4_5/expand/bn <- conv4_5/expand
I1002 14:45:59.823375  8584 net.cpp:395] conv4_5/expand/bn -> conv4_5/expand (in-place)
I1002 14:45:59.823554  8584 net.cpp:150] Setting up conv4_5/expand/bn
I1002 14:45:59.823560  8584 net.cpp:157] Top shape: 1 384 38 64 (933888)
I1002 14:45:59.823563  8584 net.cpp:165] Memory required for data: 328234720
I1002 14:45:59.823570  8584 layer_factory.hpp:77] Creating layer conv4_5/expand/scale
I1002 14:45:59.823575  8584 net.cpp:100] Creating Layer conv4_5/expand/scale
I1002 14:45:59.823577  8584 net.cpp:434] conv4_5/expand/scale <- conv4_5/expand
I1002 14:45:59.823582  8584 net.cpp:395] conv4_5/expand/scale -> conv4_5/expand (in-place)
I1002 14:45:59.823613  8584 layer_factory.hpp:77] Creating layer conv4_5/expand/scale
I1002 14:45:59.823710  8584 net.cpp:150] Setting up conv4_5/expand/scale
I1002 14:45:59.823716  8584 net.cpp:157] Top shape: 1 384 38 64 (933888)
I1002 14:45:59.823719  8584 net.cpp:165] Memory required for data: 331970272
I1002 14:45:59.823725  8584 layer_factory.hpp:77] Creating layer relu4_5/expand
I1002 14:45:59.823730  8584 net.cpp:100] Creating Layer relu4_5/expand
I1002 14:45:59.823734  8584 net.cpp:434] relu4_5/expand <- conv4_5/expand
I1002 14:45:59.823737  8584 net.cpp:395] relu4_5/expand -> conv4_5/expand (in-place)
I1002 14:45:59.824108  8584 net.cpp:150] Setting up relu4_5/expand
I1002 14:45:59.824115  8584 net.cpp:157] Top shape: 1 384 38 64 (933888)
I1002 14:45:59.824118  8584 net.cpp:165] Memory required for data: 335705824
I1002 14:45:59.824121  8584 layer_factory.hpp:77] Creating layer conv4_5/dwise
I1002 14:45:59.824128  8584 net.cpp:100] Creating Layer conv4_5/dwise
I1002 14:45:59.824131  8584 net.cpp:434] conv4_5/dwise <- conv4_5/expand
I1002 14:45:59.824137  8584 net.cpp:408] conv4_5/dwise -> conv4_5/dwise
I1002 14:45:59.824352  8584 net.cpp:150] Setting up conv4_5/dwise
I1002 14:45:59.824358  8584 net.cpp:157] Top shape: 1 384 38 64 (933888)
I1002 14:45:59.824362  8584 net.cpp:165] Memory required for data: 339441376
I1002 14:45:59.824365  8584 layer_factory.hpp:77] Creating layer conv4_5/dwise/bn
I1002 14:45:59.824370  8584 net.cpp:100] Creating Layer conv4_5/dwise/bn
I1002 14:45:59.824374  8584 net.cpp:434] conv4_5/dwise/bn <- conv4_5/dwise
I1002 14:45:59.824378  8584 net.cpp:395] conv4_5/dwise/bn -> conv4_5/dwise (in-place)
I1002 14:45:59.824553  8584 net.cpp:150] Setting up conv4_5/dwise/bn
I1002 14:45:59.824568  8584 net.cpp:157] Top shape: 1 384 38 64 (933888)
I1002 14:45:59.824571  8584 net.cpp:165] Memory required for data: 343176928
I1002 14:45:59.824578  8584 layer_factory.hpp:77] Creating layer conv4_5/dwise/scale
I1002 14:45:59.824582  8584 net.cpp:100] Creating Layer conv4_5/dwise/scale
I1002 14:45:59.824586  8584 net.cpp:434] conv4_5/dwise/scale <- conv4_5/dwise
I1002 14:45:59.824590  8584 net.cpp:395] conv4_5/dwise/scale -> conv4_5/dwise (in-place)
I1002 14:45:59.824622  8584 layer_factory.hpp:77] Creating layer conv4_5/dwise/scale
I1002 14:45:59.824719  8584 net.cpp:150] Setting up conv4_5/dwise/scale
I1002 14:45:59.824725  8584 net.cpp:157] Top shape: 1 384 38 64 (933888)
I1002 14:45:59.824728  8584 net.cpp:165] Memory required for data: 346912480
I1002 14:45:59.824733  8584 layer_factory.hpp:77] Creating layer relu4_5/dwise
I1002 14:45:59.824738  8584 net.cpp:100] Creating Layer relu4_5/dwise
I1002 14:45:59.824743  8584 net.cpp:434] relu4_5/dwise <- conv4_5/dwise
I1002 14:45:59.824746  8584 net.cpp:395] relu4_5/dwise -> conv4_5/dwise (in-place)
I1002 14:45:59.825240  8584 net.cpp:150] Setting up relu4_5/dwise
I1002 14:45:59.825248  8584 net.cpp:157] Top shape: 1 384 38 64 (933888)
I1002 14:45:59.825251  8584 net.cpp:165] Memory required for data: 350648032
I1002 14:45:59.825255  8584 layer_factory.hpp:77] Creating layer conv4_5/linear
I1002 14:45:59.825263  8584 net.cpp:100] Creating Layer conv4_5/linear
I1002 14:45:59.825266  8584 net.cpp:434] conv4_5/linear <- conv4_5/dwise
I1002 14:45:59.825271  8584 net.cpp:408] conv4_5/linear -> conv4_5/linear
I1002 14:45:59.826938  8584 net.cpp:150] Setting up conv4_5/linear
I1002 14:45:59.826947  8584 net.cpp:157] Top shape: 1 64 38 64 (155648)
I1002 14:45:59.826951  8584 net.cpp:165] Memory required for data: 351270624
I1002 14:45:59.826956  8584 layer_factory.hpp:77] Creating layer conv4_5/linear/bn
I1002 14:45:59.826962  8584 net.cpp:100] Creating Layer conv4_5/linear/bn
I1002 14:45:59.826966  8584 net.cpp:434] conv4_5/linear/bn <- conv4_5/linear
I1002 14:45:59.826969  8584 net.cpp:395] conv4_5/linear/bn -> conv4_5/linear (in-place)
I1002 14:45:59.827157  8584 net.cpp:150] Setting up conv4_5/linear/bn
I1002 14:45:59.827163  8584 net.cpp:157] Top shape: 1 64 38 64 (155648)
I1002 14:45:59.827167  8584 net.cpp:165] Memory required for data: 351893216
I1002 14:45:59.827172  8584 layer_factory.hpp:77] Creating layer conv4_5/linear/scale
I1002 14:45:59.827178  8584 net.cpp:100] Creating Layer conv4_5/linear/scale
I1002 14:45:59.827181  8584 net.cpp:434] conv4_5/linear/scale <- conv4_5/linear
I1002 14:45:59.827186  8584 net.cpp:395] conv4_5/linear/scale -> conv4_5/linear (in-place)
I1002 14:45:59.827220  8584 layer_factory.hpp:77] Creating layer conv4_5/linear/scale
I1002 14:45:59.827322  8584 net.cpp:150] Setting up conv4_5/linear/scale
I1002 14:45:59.827328  8584 net.cpp:157] Top shape: 1 64 38 64 (155648)
I1002 14:45:59.827332  8584 net.cpp:165] Memory required for data: 352515808
I1002 14:45:59.827337  8584 layer_factory.hpp:77] Creating layer block_4_5
I1002 14:45:59.827342  8584 net.cpp:100] Creating Layer block_4_5
I1002 14:45:59.827347  8584 net.cpp:434] block_4_5 <- block_4_4_block_4_4_0_split_1
I1002 14:45:59.827349  8584 net.cpp:434] block_4_5 <- conv4_5/linear
I1002 14:45:59.827354  8584 net.cpp:408] block_4_5 -> block_4_5
I1002 14:45:59.827374  8584 net.cpp:150] Setting up block_4_5
I1002 14:45:59.827380  8584 net.cpp:157] Top shape: 1 64 38 64 (155648)
I1002 14:45:59.827383  8584 net.cpp:165] Memory required for data: 353138400
I1002 14:45:59.827386  8584 layer_factory.hpp:77] Creating layer block_4_5_block_4_5_0_split
I1002 14:45:59.827392  8584 net.cpp:100] Creating Layer block_4_5_block_4_5_0_split
I1002 14:45:59.827395  8584 net.cpp:434] block_4_5_block_4_5_0_split <- block_4_5
I1002 14:45:59.827399  8584 net.cpp:408] block_4_5_block_4_5_0_split -> block_4_5_block_4_5_0_split_0
I1002 14:45:59.827405  8584 net.cpp:408] block_4_5_block_4_5_0_split -> block_4_5_block_4_5_0_split_1
I1002 14:45:59.827437  8584 net.cpp:150] Setting up block_4_5_block_4_5_0_split
I1002 14:45:59.827450  8584 net.cpp:157] Top shape: 1 64 38 64 (155648)
I1002 14:45:59.827455  8584 net.cpp:157] Top shape: 1 64 38 64 (155648)
I1002 14:45:59.827458  8584 net.cpp:165] Memory required for data: 354383584
I1002 14:45:59.827461  8584 layer_factory.hpp:77] Creating layer conv4_6/expand
I1002 14:45:59.827467  8584 net.cpp:100] Creating Layer conv4_6/expand
I1002 14:45:59.827471  8584 net.cpp:434] conv4_6/expand <- block_4_5_block_4_5_0_split_0
I1002 14:45:59.827476  8584 net.cpp:408] conv4_6/expand -> conv4_6/expand
I1002 14:45:59.829144  8584 net.cpp:150] Setting up conv4_6/expand
I1002 14:45:59.829151  8584 net.cpp:157] Top shape: 1 384 38 64 (933888)
I1002 14:45:59.829155  8584 net.cpp:165] Memory required for data: 358119136
I1002 14:45:59.829160  8584 layer_factory.hpp:77] Creating layer conv4_6/expand/bn
I1002 14:45:59.829166  8584 net.cpp:100] Creating Layer conv4_6/expand/bn
I1002 14:45:59.829170  8584 net.cpp:434] conv4_6/expand/bn <- conv4_6/expand
I1002 14:45:59.829176  8584 net.cpp:395] conv4_6/expand/bn -> conv4_6/expand (in-place)
I1002 14:45:59.829360  8584 net.cpp:150] Setting up conv4_6/expand/bn
I1002 14:45:59.829365  8584 net.cpp:157] Top shape: 1 384 38 64 (933888)
I1002 14:45:59.829367  8584 net.cpp:165] Memory required for data: 361854688
I1002 14:45:59.829375  8584 layer_factory.hpp:77] Creating layer conv4_6/expand/scale
I1002 14:45:59.829380  8584 net.cpp:100] Creating Layer conv4_6/expand/scale
I1002 14:45:59.829383  8584 net.cpp:434] conv4_6/expand/scale <- conv4_6/expand
I1002 14:45:59.829388  8584 net.cpp:395] conv4_6/expand/scale -> conv4_6/expand (in-place)
I1002 14:45:59.829421  8584 layer_factory.hpp:77] Creating layer conv4_6/expand/scale
I1002 14:45:59.829524  8584 net.cpp:150] Setting up conv4_6/expand/scale
I1002 14:45:59.829530  8584 net.cpp:157] Top shape: 1 384 38 64 (933888)
I1002 14:45:59.829532  8584 net.cpp:165] Memory required for data: 365590240
I1002 14:45:59.829540  8584 layer_factory.hpp:77] Creating layer relu4_6/expand
I1002 14:45:59.829545  8584 net.cpp:100] Creating Layer relu4_6/expand
I1002 14:45:59.829547  8584 net.cpp:434] relu4_6/expand <- conv4_6/expand
I1002 14:45:59.829552  8584 net.cpp:395] relu4_6/expand -> conv4_6/expand (in-place)
I1002 14:45:59.830078  8584 net.cpp:150] Setting up relu4_6/expand
I1002 14:45:59.830086  8584 net.cpp:157] Top shape: 1 384 38 64 (933888)
I1002 14:45:59.830090  8584 net.cpp:165] Memory required for data: 369325792
I1002 14:45:59.830092  8584 layer_factory.hpp:77] Creating layer conv4_6/dwise
I1002 14:45:59.830101  8584 net.cpp:100] Creating Layer conv4_6/dwise
I1002 14:45:59.830103  8584 net.cpp:434] conv4_6/dwise <- conv4_6/expand
I1002 14:45:59.830109  8584 net.cpp:408] conv4_6/dwise -> conv4_6/dwise
I1002 14:45:59.830330  8584 net.cpp:150] Setting up conv4_6/dwise
I1002 14:45:59.830338  8584 net.cpp:157] Top shape: 1 384 38 64 (933888)
I1002 14:45:59.830340  8584 net.cpp:165] Memory required for data: 373061344
I1002 14:45:59.830344  8584 layer_factory.hpp:77] Creating layer conv4_6/dwise/bn
I1002 14:45:59.830349  8584 net.cpp:100] Creating Layer conv4_6/dwise/bn
I1002 14:45:59.830353  8584 net.cpp:434] conv4_6/dwise/bn <- conv4_6/dwise
I1002 14:45:59.830358  8584 net.cpp:395] conv4_6/dwise/bn -> conv4_6/dwise (in-place)
I1002 14:45:59.830538  8584 net.cpp:150] Setting up conv4_6/dwise/bn
I1002 14:45:59.830543  8584 net.cpp:157] Top shape: 1 384 38 64 (933888)
I1002 14:45:59.830546  8584 net.cpp:165] Memory required for data: 376796896
I1002 14:45:59.830552  8584 layer_factory.hpp:77] Creating layer conv4_6/dwise/scale
I1002 14:45:59.830557  8584 net.cpp:100] Creating Layer conv4_6/dwise/scale
I1002 14:45:59.830560  8584 net.cpp:434] conv4_6/dwise/scale <- conv4_6/dwise
I1002 14:45:59.830566  8584 net.cpp:395] conv4_6/dwise/scale -> conv4_6/dwise (in-place)
I1002 14:45:59.830596  8584 layer_factory.hpp:77] Creating layer conv4_6/dwise/scale
I1002 14:45:59.830698  8584 net.cpp:150] Setting up conv4_6/dwise/scale
I1002 14:45:59.830703  8584 net.cpp:157] Top shape: 1 384 38 64 (933888)
I1002 14:45:59.830714  8584 net.cpp:165] Memory required for data: 380532448
I1002 14:45:59.830720  8584 layer_factory.hpp:77] Creating layer relu4_6/dwise
I1002 14:45:59.830724  8584 net.cpp:100] Creating Layer relu4_6/dwise
I1002 14:45:59.830729  8584 net.cpp:434] relu4_6/dwise <- conv4_6/dwise
I1002 14:45:59.830734  8584 net.cpp:395] relu4_6/dwise -> conv4_6/dwise (in-place)
I1002 14:45:59.831101  8584 net.cpp:150] Setting up relu4_6/dwise
I1002 14:45:59.831109  8584 net.cpp:157] Top shape: 1 384 38 64 (933888)
I1002 14:45:59.831112  8584 net.cpp:165] Memory required for data: 384268000
I1002 14:45:59.831115  8584 layer_factory.hpp:77] Creating layer conv4_6/linear
I1002 14:45:59.831123  8584 net.cpp:100] Creating Layer conv4_6/linear
I1002 14:45:59.831126  8584 net.cpp:434] conv4_6/linear <- conv4_6/dwise
I1002 14:45:59.831131  8584 net.cpp:408] conv4_6/linear -> conv4_6/linear
I1002 14:45:59.832804  8584 net.cpp:150] Setting up conv4_6/linear
I1002 14:45:59.832813  8584 net.cpp:157] Top shape: 1 64 38 64 (155648)
I1002 14:45:59.832816  8584 net.cpp:165] Memory required for data: 384890592
I1002 14:45:59.832820  8584 layer_factory.hpp:77] Creating layer conv4_6/linear/bn
I1002 14:45:59.832828  8584 net.cpp:100] Creating Layer conv4_6/linear/bn
I1002 14:45:59.832831  8584 net.cpp:434] conv4_6/linear/bn <- conv4_6/linear
I1002 14:45:59.832836  8584 net.cpp:395] conv4_6/linear/bn -> conv4_6/linear (in-place)
I1002 14:45:59.833026  8584 net.cpp:150] Setting up conv4_6/linear/bn
I1002 14:45:59.833032  8584 net.cpp:157] Top shape: 1 64 38 64 (155648)
I1002 14:45:59.833036  8584 net.cpp:165] Memory required for data: 385513184
I1002 14:45:59.833042  8584 layer_factory.hpp:77] Creating layer conv4_6/linear/scale
I1002 14:45:59.833047  8584 net.cpp:100] Creating Layer conv4_6/linear/scale
I1002 14:45:59.833051  8584 net.cpp:434] conv4_6/linear/scale <- conv4_6/linear
I1002 14:45:59.833055  8584 net.cpp:395] conv4_6/linear/scale -> conv4_6/linear (in-place)
I1002 14:45:59.833091  8584 layer_factory.hpp:77] Creating layer conv4_6/linear/scale
I1002 14:45:59.833191  8584 net.cpp:150] Setting up conv4_6/linear/scale
I1002 14:45:59.833197  8584 net.cpp:157] Top shape: 1 64 38 64 (155648)
I1002 14:45:59.833200  8584 net.cpp:165] Memory required for data: 386135776
I1002 14:45:59.833205  8584 layer_factory.hpp:77] Creating layer block_4_6
I1002 14:45:59.833211  8584 net.cpp:100] Creating Layer block_4_6
I1002 14:45:59.833215  8584 net.cpp:434] block_4_6 <- block_4_5_block_4_5_0_split_1
I1002 14:45:59.833218  8584 net.cpp:434] block_4_6 <- conv4_6/linear
I1002 14:45:59.833223  8584 net.cpp:408] block_4_6 -> block_4_6
I1002 14:45:59.833245  8584 net.cpp:150] Setting up block_4_6
I1002 14:45:59.833250  8584 net.cpp:157] Top shape: 1 64 38 64 (155648)
I1002 14:45:59.833253  8584 net.cpp:165] Memory required for data: 386758368
I1002 14:45:59.833256  8584 layer_factory.hpp:77] Creating layer conv4_7/expand
I1002 14:45:59.833274  8584 net.cpp:100] Creating Layer conv4_7/expand
I1002 14:45:59.833279  8584 net.cpp:434] conv4_7/expand <- block_4_6
I1002 14:45:59.833283  8584 net.cpp:408] conv4_7/expand -> conv4_7/expand
I1002 14:45:59.834947  8584 net.cpp:150] Setting up conv4_7/expand
I1002 14:45:59.834956  8584 net.cpp:157] Top shape: 1 384 38 64 (933888)
I1002 14:45:59.834959  8584 net.cpp:165] Memory required for data: 390493920
I1002 14:45:59.834964  8584 layer_factory.hpp:77] Creating layer conv4_7/expand/bn
I1002 14:45:59.834971  8584 net.cpp:100] Creating Layer conv4_7/expand/bn
I1002 14:45:59.834975  8584 net.cpp:434] conv4_7/expand/bn <- conv4_7/expand
I1002 14:45:59.834981  8584 net.cpp:395] conv4_7/expand/bn -> conv4_7/expand (in-place)
I1002 14:45:59.835166  8584 net.cpp:150] Setting up conv4_7/expand/bn
I1002 14:45:59.835172  8584 net.cpp:157] Top shape: 1 384 38 64 (933888)
I1002 14:45:59.835175  8584 net.cpp:165] Memory required for data: 394229472
I1002 14:45:59.835182  8584 layer_factory.hpp:77] Creating layer conv4_7/expand/scale
I1002 14:45:59.835187  8584 net.cpp:100] Creating Layer conv4_7/expand/scale
I1002 14:45:59.835199  8584 net.cpp:434] conv4_7/expand/scale <- conv4_7/expand
I1002 14:45:59.835203  8584 net.cpp:395] conv4_7/expand/scale -> conv4_7/expand (in-place)
I1002 14:45:59.835237  8584 layer_factory.hpp:77] Creating layer conv4_7/expand/scale
I1002 14:45:59.835337  8584 net.cpp:150] Setting up conv4_7/expand/scale
I1002 14:45:59.835343  8584 net.cpp:157] Top shape: 1 384 38 64 (933888)
I1002 14:45:59.835346  8584 net.cpp:165] Memory required for data: 397965024
I1002 14:45:59.835352  8584 layer_factory.hpp:77] Creating layer relu4_7/expand
I1002 14:45:59.835358  8584 net.cpp:100] Creating Layer relu4_7/expand
I1002 14:45:59.835361  8584 net.cpp:434] relu4_7/expand <- conv4_7/expand
I1002 14:45:59.835366  8584 net.cpp:395] relu4_7/expand -> conv4_7/expand (in-place)
I1002 14:45:59.835871  8584 net.cpp:150] Setting up relu4_7/expand
I1002 14:45:59.835880  8584 net.cpp:157] Top shape: 1 384 38 64 (933888)
I1002 14:45:59.835883  8584 net.cpp:165] Memory required for data: 401700576
I1002 14:45:59.835886  8584 layer_factory.hpp:77] Creating layer conv4_7/dwise
I1002 14:45:59.835893  8584 net.cpp:100] Creating Layer conv4_7/dwise
I1002 14:45:59.835897  8584 net.cpp:434] conv4_7/dwise <- conv4_7/expand
I1002 14:45:59.835903  8584 net.cpp:408] conv4_7/dwise -> conv4_7/dwise
I1002 14:45:59.836125  8584 net.cpp:150] Setting up conv4_7/dwise
I1002 14:45:59.836133  8584 net.cpp:157] Top shape: 1 384 19 32 (233472)
I1002 14:45:59.836135  8584 net.cpp:165] Memory required for data: 402634464
I1002 14:45:59.836139  8584 layer_factory.hpp:77] Creating layer conv4_7/dwise/bn
I1002 14:45:59.836144  8584 net.cpp:100] Creating Layer conv4_7/dwise/bn
I1002 14:45:59.836148  8584 net.cpp:434] conv4_7/dwise/bn <- conv4_7/dwise
I1002 14:45:59.836153  8584 net.cpp:395] conv4_7/dwise/bn -> conv4_7/dwise (in-place)
I1002 14:45:59.836331  8584 net.cpp:150] Setting up conv4_7/dwise/bn
I1002 14:45:59.836338  8584 net.cpp:157] Top shape: 1 384 19 32 (233472)
I1002 14:45:59.836341  8584 net.cpp:165] Memory required for data: 403568352
I1002 14:45:59.836347  8584 layer_factory.hpp:77] Creating layer conv4_7/dwise/scale
I1002 14:45:59.836351  8584 net.cpp:100] Creating Layer conv4_7/dwise/scale
I1002 14:45:59.836355  8584 net.cpp:434] conv4_7/dwise/scale <- conv4_7/dwise
I1002 14:45:59.836360  8584 net.cpp:395] conv4_7/dwise/scale -> conv4_7/dwise (in-place)
I1002 14:45:59.836397  8584 layer_factory.hpp:77] Creating layer conv4_7/dwise/scale
I1002 14:45:59.836505  8584 net.cpp:150] Setting up conv4_7/dwise/scale
I1002 14:45:59.836511  8584 net.cpp:157] Top shape: 1 384 19 32 (233472)
I1002 14:45:59.836514  8584 net.cpp:165] Memory required for data: 404502240
I1002 14:45:59.836520  8584 layer_factory.hpp:77] Creating layer relu4_7/dwise
I1002 14:45:59.836525  8584 net.cpp:100] Creating Layer relu4_7/dwise
I1002 14:45:59.836529  8584 net.cpp:434] relu4_7/dwise <- conv4_7/dwise
I1002 14:45:59.836534  8584 net.cpp:395] relu4_7/dwise -> conv4_7/dwise (in-place)
I1002 14:45:59.836904  8584 net.cpp:150] Setting up relu4_7/dwise
I1002 14:45:59.836910  8584 net.cpp:157] Top shape: 1 384 19 32 (233472)
I1002 14:45:59.836913  8584 net.cpp:165] Memory required for data: 405436128
I1002 14:45:59.836918  8584 layer_factory.hpp:77] Creating layer conv4_7/linear
I1002 14:45:59.836925  8584 net.cpp:100] Creating Layer conv4_7/linear
I1002 14:45:59.836928  8584 net.cpp:434] conv4_7/linear <- conv4_7/dwise
I1002 14:45:59.836935  8584 net.cpp:408] conv4_7/linear -> conv4_7/linear
I1002 14:45:59.838740  8584 net.cpp:150] Setting up conv4_7/linear
I1002 14:45:59.838748  8584 net.cpp:157] Top shape: 1 96 19 32 (58368)
I1002 14:45:59.838752  8584 net.cpp:165] Memory required for data: 405669600
I1002 14:45:59.838757  8584 layer_factory.hpp:77] Creating layer conv4_7/linear/bn
I1002 14:45:59.838765  8584 net.cpp:100] Creating Layer conv4_7/linear/bn
I1002 14:45:59.838769  8584 net.cpp:434] conv4_7/linear/bn <- conv4_7/linear
I1002 14:45:59.838774  8584 net.cpp:395] conv4_7/linear/bn -> conv4_7/linear (in-place)
I1002 14:45:59.838968  8584 net.cpp:150] Setting up conv4_7/linear/bn
I1002 14:45:59.838981  8584 net.cpp:157] Top shape: 1 96 19 32 (58368)
I1002 14:45:59.838985  8584 net.cpp:165] Memory required for data: 405903072
I1002 14:45:59.838992  8584 layer_factory.hpp:77] Creating layer conv4_7/linear/scale
I1002 14:45:59.838997  8584 net.cpp:100] Creating Layer conv4_7/linear/scale
I1002 14:45:59.839001  8584 net.cpp:434] conv4_7/linear/scale <- conv4_7/linear
I1002 14:45:59.839006  8584 net.cpp:395] conv4_7/linear/scale -> conv4_7/linear (in-place)
I1002 14:45:59.839043  8584 layer_factory.hpp:77] Creating layer conv4_7/linear/scale
I1002 14:45:59.839157  8584 net.cpp:150] Setting up conv4_7/linear/scale
I1002 14:45:59.839164  8584 net.cpp:157] Top shape: 1 96 19 32 (58368)
I1002 14:45:59.839166  8584 net.cpp:165] Memory required for data: 406136544
I1002 14:45:59.839172  8584 layer_factory.hpp:77] Creating layer conv4_7/linear_conv4_7/linear/scale_0_split
I1002 14:45:59.839177  8584 net.cpp:100] Creating Layer conv4_7/linear_conv4_7/linear/scale_0_split
I1002 14:45:59.839181  8584 net.cpp:434] conv4_7/linear_conv4_7/linear/scale_0_split <- conv4_7/linear
I1002 14:45:59.839187  8584 net.cpp:408] conv4_7/linear_conv4_7/linear/scale_0_split -> conv4_7/linear_conv4_7/linear/scale_0_split_0
I1002 14:45:59.839193  8584 net.cpp:408] conv4_7/linear_conv4_7/linear/scale_0_split -> conv4_7/linear_conv4_7/linear/scale_0_split_1
I1002 14:45:59.839227  8584 net.cpp:150] Setting up conv4_7/linear_conv4_7/linear/scale_0_split
I1002 14:45:59.839233  8584 net.cpp:157] Top shape: 1 96 19 32 (58368)
I1002 14:45:59.839238  8584 net.cpp:157] Top shape: 1 96 19 32 (58368)
I1002 14:45:59.839241  8584 net.cpp:165] Memory required for data: 406603488
I1002 14:45:59.839244  8584 layer_factory.hpp:77] Creating layer conv5_1/expand
I1002 14:45:59.839251  8584 net.cpp:100] Creating Layer conv5_1/expand
I1002 14:45:59.839254  8584 net.cpp:434] conv5_1/expand <- conv4_7/linear_conv4_7/linear/scale_0_split_0
I1002 14:45:59.839259  8584 net.cpp:408] conv5_1/expand -> conv5_1/expand
I1002 14:45:59.841408  8584 net.cpp:150] Setting up conv5_1/expand
I1002 14:45:59.841418  8584 net.cpp:157] Top shape: 1 576 19 32 (350208)
I1002 14:45:59.841421  8584 net.cpp:165] Memory required for data: 408004320
I1002 14:45:59.841426  8584 layer_factory.hpp:77] Creating layer conv5_1/expand/bn
I1002 14:45:59.841434  8584 net.cpp:100] Creating Layer conv5_1/expand/bn
I1002 14:45:59.841437  8584 net.cpp:434] conv5_1/expand/bn <- conv5_1/expand
I1002 14:45:59.841444  8584 net.cpp:395] conv5_1/expand/bn -> conv5_1/expand (in-place)
I1002 14:45:59.841650  8584 net.cpp:150] Setting up conv5_1/expand/bn
I1002 14:45:59.841655  8584 net.cpp:157] Top shape: 1 576 19 32 (350208)
I1002 14:45:59.841658  8584 net.cpp:165] Memory required for data: 409405152
I1002 14:45:59.841665  8584 layer_factory.hpp:77] Creating layer conv5_1/expand/scale
I1002 14:45:59.841671  8584 net.cpp:100] Creating Layer conv5_1/expand/scale
I1002 14:45:59.841675  8584 net.cpp:434] conv5_1/expand/scale <- conv5_1/expand
I1002 14:45:59.841679  8584 net.cpp:395] conv5_1/expand/scale -> conv5_1/expand (in-place)
I1002 14:45:59.841717  8584 layer_factory.hpp:77] Creating layer conv5_1/expand/scale
I1002 14:45:59.841835  8584 net.cpp:150] Setting up conv5_1/expand/scale
I1002 14:45:59.841840  8584 net.cpp:157] Top shape: 1 576 19 32 (350208)
I1002 14:45:59.841842  8584 net.cpp:165] Memory required for data: 410805984
I1002 14:45:59.841848  8584 layer_factory.hpp:77] Creating layer relu5_1/expand
I1002 14:45:59.841855  8584 net.cpp:100] Creating Layer relu5_1/expand
I1002 14:45:59.841857  8584 net.cpp:434] relu5_1/expand <- conv5_1/expand
I1002 14:45:59.841861  8584 net.cpp:395] relu5_1/expand -> conv5_1/expand (in-place)
I1002 14:45:59.842245  8584 net.cpp:150] Setting up relu5_1/expand
I1002 14:45:59.842252  8584 net.cpp:157] Top shape: 1 576 19 32 (350208)
I1002 14:45:59.842254  8584 net.cpp:165] Memory required for data: 412206816
I1002 14:45:59.842257  8584 layer_factory.hpp:77] Creating layer conv5_1/dwise
I1002 14:45:59.842267  8584 net.cpp:100] Creating Layer conv5_1/dwise
I1002 14:45:59.842280  8584 net.cpp:434] conv5_1/dwise <- conv5_1/expand
I1002 14:45:59.842286  8584 net.cpp:408] conv5_1/dwise -> conv5_1/dwise
I1002 14:45:59.842574  8584 net.cpp:150] Setting up conv5_1/dwise
I1002 14:45:59.842582  8584 net.cpp:157] Top shape: 1 576 19 32 (350208)
I1002 14:45:59.842586  8584 net.cpp:165] Memory required for data: 413607648
I1002 14:45:59.842589  8584 layer_factory.hpp:77] Creating layer conv5_1/dwise/bn
I1002 14:45:59.842594  8584 net.cpp:100] Creating Layer conv5_1/dwise/bn
I1002 14:45:59.842598  8584 net.cpp:434] conv5_1/dwise/bn <- conv5_1/dwise
I1002 14:45:59.842603  8584 net.cpp:395] conv5_1/dwise/bn -> conv5_1/dwise (in-place)
I1002 14:45:59.842799  8584 net.cpp:150] Setting up conv5_1/dwise/bn
I1002 14:45:59.842805  8584 net.cpp:157] Top shape: 1 576 19 32 (350208)
I1002 14:45:59.842808  8584 net.cpp:165] Memory required for data: 415008480
I1002 14:45:59.842814  8584 layer_factory.hpp:77] Creating layer conv5_1/dwise/scale
I1002 14:45:59.842820  8584 net.cpp:100] Creating Layer conv5_1/dwise/scale
I1002 14:45:59.842823  8584 net.cpp:434] conv5_1/dwise/scale <- conv5_1/dwise
I1002 14:45:59.842828  8584 net.cpp:395] conv5_1/dwise/scale -> conv5_1/dwise (in-place)
I1002 14:45:59.842866  8584 layer_factory.hpp:77] Creating layer conv5_1/dwise/scale
I1002 14:45:59.842978  8584 net.cpp:150] Setting up conv5_1/dwise/scale
I1002 14:45:59.842984  8584 net.cpp:157] Top shape: 1 576 19 32 (350208)
I1002 14:45:59.842988  8584 net.cpp:165] Memory required for data: 416409312
I1002 14:45:59.842993  8584 layer_factory.hpp:77] Creating layer relu5_1/dwise
I1002 14:45:59.842996  8584 net.cpp:100] Creating Layer relu5_1/dwise
I1002 14:45:59.843000  8584 net.cpp:434] relu5_1/dwise <- conv5_1/dwise
I1002 14:45:59.843006  8584 net.cpp:395] relu5_1/dwise -> conv5_1/dwise (in-place)
I1002 14:45:59.843392  8584 net.cpp:150] Setting up relu5_1/dwise
I1002 14:45:59.843400  8584 net.cpp:157] Top shape: 1 576 19 32 (350208)
I1002 14:45:59.843403  8584 net.cpp:165] Memory required for data: 417810144
I1002 14:45:59.843407  8584 layer_factory.hpp:77] Creating layer conv5_1/linear
I1002 14:45:59.843415  8584 net.cpp:100] Creating Layer conv5_1/linear
I1002 14:45:59.843418  8584 net.cpp:434] conv5_1/linear <- conv5_1/dwise
I1002 14:45:59.843425  8584 net.cpp:408] conv5_1/linear -> conv5_1/linear
I1002 14:45:59.845685  8584 net.cpp:150] Setting up conv5_1/linear
I1002 14:45:59.845695  8584 net.cpp:157] Top shape: 1 96 19 32 (58368)
I1002 14:45:59.845698  8584 net.cpp:165] Memory required for data: 418043616
I1002 14:45:59.845702  8584 layer_factory.hpp:77] Creating layer conv5_1/linear/bn
I1002 14:45:59.845710  8584 net.cpp:100] Creating Layer conv5_1/linear/bn
I1002 14:45:59.845715  8584 net.cpp:434] conv5_1/linear/bn <- conv5_1/linear
I1002 14:45:59.845719  8584 net.cpp:395] conv5_1/linear/bn -> conv5_1/linear (in-place)
I1002 14:45:59.845924  8584 net.cpp:150] Setting up conv5_1/linear/bn
I1002 14:45:59.845930  8584 net.cpp:157] Top shape: 1 96 19 32 (58368)
I1002 14:45:59.845933  8584 net.cpp:165] Memory required for data: 418277088
I1002 14:45:59.845939  8584 layer_factory.hpp:77] Creating layer conv5_1/linear/scale
I1002 14:45:59.845944  8584 net.cpp:100] Creating Layer conv5_1/linear/scale
I1002 14:45:59.845949  8584 net.cpp:434] conv5_1/linear/scale <- conv5_1/linear
I1002 14:45:59.845954  8584 net.cpp:395] conv5_1/linear/scale -> conv5_1/linear (in-place)
I1002 14:45:59.845989  8584 layer_factory.hpp:77] Creating layer conv5_1/linear/scale
I1002 14:45:59.846103  8584 net.cpp:150] Setting up conv5_1/linear/scale
I1002 14:45:59.846109  8584 net.cpp:157] Top shape: 1 96 19 32 (58368)
I1002 14:45:59.846112  8584 net.cpp:165] Memory required for data: 418510560
I1002 14:45:59.846117  8584 layer_factory.hpp:77] Creating layer block_5_1
I1002 14:45:59.846123  8584 net.cpp:100] Creating Layer block_5_1
I1002 14:45:59.846127  8584 net.cpp:434] block_5_1 <- conv4_7/linear_conv4_7/linear/scale_0_split_1
I1002 14:45:59.846132  8584 net.cpp:434] block_5_1 <- conv5_1/linear
I1002 14:45:59.846138  8584 net.cpp:408] block_5_1 -> block_5_1
I1002 14:45:59.846170  8584 net.cpp:150] Setting up block_5_1
I1002 14:45:59.846175  8584 net.cpp:157] Top shape: 1 96 19 32 (58368)
I1002 14:45:59.846179  8584 net.cpp:165] Memory required for data: 418744032
I1002 14:45:59.846181  8584 layer_factory.hpp:77] Creating layer block_5_1_block_5_1_0_split
I1002 14:45:59.846186  8584 net.cpp:100] Creating Layer block_5_1_block_5_1_0_split
I1002 14:45:59.846190  8584 net.cpp:434] block_5_1_block_5_1_0_split <- block_5_1
I1002 14:45:59.846197  8584 net.cpp:408] block_5_1_block_5_1_0_split -> block_5_1_block_5_1_0_split_0
I1002 14:45:59.846204  8584 net.cpp:408] block_5_1_block_5_1_0_split -> block_5_1_block_5_1_0_split_1
I1002 14:45:59.846236  8584 net.cpp:150] Setting up block_5_1_block_5_1_0_split
I1002 14:45:59.846242  8584 net.cpp:157] Top shape: 1 96 19 32 (58368)
I1002 14:45:59.846246  8584 net.cpp:157] Top shape: 1 96 19 32 (58368)
I1002 14:45:59.846251  8584 net.cpp:165] Memory required for data: 419210976
I1002 14:45:59.846252  8584 layer_factory.hpp:77] Creating layer conv5_2/expand
I1002 14:45:59.846259  8584 net.cpp:100] Creating Layer conv5_2/expand
I1002 14:45:59.846263  8584 net.cpp:434] conv5_2/expand <- block_5_1_block_5_1_0_split_0
I1002 14:45:59.846269  8584 net.cpp:408] conv5_2/expand -> conv5_2/expand
I1002 14:45:59.848377  8584 net.cpp:150] Setting up conv5_2/expand
I1002 14:45:59.848387  8584 net.cpp:157] Top shape: 1 576 19 32 (350208)
I1002 14:45:59.848389  8584 net.cpp:165] Memory required for data: 420611808
I1002 14:45:59.848395  8584 layer_factory.hpp:77] Creating layer conv5_2/expand/bn
I1002 14:45:59.848402  8584 net.cpp:100] Creating Layer conv5_2/expand/bn
I1002 14:45:59.848405  8584 net.cpp:434] conv5_2/expand/bn <- conv5_2/expand
I1002 14:45:59.848410  8584 net.cpp:395] conv5_2/expand/bn -> conv5_2/expand (in-place)
I1002 14:45:59.848614  8584 net.cpp:150] Setting up conv5_2/expand/bn
I1002 14:45:59.848620  8584 net.cpp:157] Top shape: 1 576 19 32 (350208)
I1002 14:45:59.848623  8584 net.cpp:165] Memory required for data: 422012640
I1002 14:45:59.848629  8584 layer_factory.hpp:77] Creating layer conv5_2/expand/scale
I1002 14:45:59.848636  8584 net.cpp:100] Creating Layer conv5_2/expand/scale
I1002 14:45:59.848639  8584 net.cpp:434] conv5_2/expand/scale <- conv5_2/expand
I1002 14:45:59.848644  8584 net.cpp:395] conv5_2/expand/scale -> conv5_2/expand (in-place)
I1002 14:45:59.848680  8584 layer_factory.hpp:77] Creating layer conv5_2/expand/scale
I1002 14:45:59.848795  8584 net.cpp:150] Setting up conv5_2/expand/scale
I1002 14:45:59.848801  8584 net.cpp:157] Top shape: 1 576 19 32 (350208)
I1002 14:45:59.848804  8584 net.cpp:165] Memory required for data: 423413472
I1002 14:45:59.848809  8584 layer_factory.hpp:77] Creating layer relu5_2/expand
I1002 14:45:59.848815  8584 net.cpp:100] Creating Layer relu5_2/expand
I1002 14:45:59.848819  8584 net.cpp:434] relu5_2/expand <- conv5_2/expand
I1002 14:45:59.848824  8584 net.cpp:395] relu5_2/expand -> conv5_2/expand (in-place)
I1002 14:45:59.849197  8584 net.cpp:150] Setting up relu5_2/expand
I1002 14:45:59.849206  8584 net.cpp:157] Top shape: 1 576 19 32 (350208)
I1002 14:45:59.849210  8584 net.cpp:165] Memory required for data: 424814304
I1002 14:45:59.849212  8584 layer_factory.hpp:77] Creating layer conv5_2/dwise
I1002 14:45:59.849218  8584 net.cpp:100] Creating Layer conv5_2/dwise
I1002 14:45:59.849222  8584 net.cpp:434] conv5_2/dwise <- conv5_2/expand
I1002 14:45:59.849227  8584 net.cpp:408] conv5_2/dwise -> conv5_2/dwise
I1002 14:45:59.849484  8584 net.cpp:150] Setting up conv5_2/dwise
I1002 14:45:59.849490  8584 net.cpp:157] Top shape: 1 576 19 32 (350208)
I1002 14:45:59.849493  8584 net.cpp:165] Memory required for data: 426215136
I1002 14:45:59.849498  8584 layer_factory.hpp:77] Creating layer conv5_2/dwise/bn
I1002 14:45:59.849503  8584 net.cpp:100] Creating Layer conv5_2/dwise/bn
I1002 14:45:59.849506  8584 net.cpp:434] conv5_2/dwise/bn <- conv5_2/dwise
I1002 14:45:59.849511  8584 net.cpp:395] conv5_2/dwise/bn -> conv5_2/dwise (in-place)
I1002 14:45:59.849709  8584 net.cpp:150] Setting up conv5_2/dwise/bn
I1002 14:45:59.849722  8584 net.cpp:157] Top shape: 1 576 19 32 (350208)
I1002 14:45:59.849725  8584 net.cpp:165] Memory required for data: 427615968
I1002 14:45:59.849733  8584 layer_factory.hpp:77] Creating layer conv5_2/dwise/scale
I1002 14:45:59.849738  8584 net.cpp:100] Creating Layer conv5_2/dwise/scale
I1002 14:45:59.849741  8584 net.cpp:434] conv5_2/dwise/scale <- conv5_2/dwise
I1002 14:45:59.849747  8584 net.cpp:395] conv5_2/dwise/scale -> conv5_2/dwise (in-place)
I1002 14:45:59.849783  8584 layer_factory.hpp:77] Creating layer conv5_2/dwise/scale
I1002 14:45:59.849898  8584 net.cpp:150] Setting up conv5_2/dwise/scale
I1002 14:45:59.849903  8584 net.cpp:157] Top shape: 1 576 19 32 (350208)
I1002 14:45:59.849906  8584 net.cpp:165] Memory required for data: 429016800
I1002 14:45:59.849912  8584 layer_factory.hpp:77] Creating layer relu5_2/dwise
I1002 14:45:59.849918  8584 net.cpp:100] Creating Layer relu5_2/dwise
I1002 14:45:59.849921  8584 net.cpp:434] relu5_2/dwise <- conv5_2/dwise
I1002 14:45:59.849925  8584 net.cpp:395] relu5_2/dwise -> conv5_2/dwise (in-place)
I1002 14:45:59.850428  8584 net.cpp:150] Setting up relu5_2/dwise
I1002 14:45:59.850437  8584 net.cpp:157] Top shape: 1 576 19 32 (350208)
I1002 14:45:59.850440  8584 net.cpp:165] Memory required for data: 430417632
I1002 14:45:59.850443  8584 layer_factory.hpp:77] Creating layer conv5_2/linear
I1002 14:45:59.850450  8584 net.cpp:100] Creating Layer conv5_2/linear
I1002 14:45:59.850455  8584 net.cpp:434] conv5_2/linear <- conv5_2/dwise
I1002 14:45:59.850461  8584 net.cpp:408] conv5_2/linear -> conv5_2/linear
I1002 14:45:59.852453  8584 net.cpp:150] Setting up conv5_2/linear
I1002 14:45:59.852461  8584 net.cpp:157] Top shape: 1 96 19 32 (58368)
I1002 14:45:59.852465  8584 net.cpp:165] Memory required for data: 430651104
I1002 14:45:59.852469  8584 layer_factory.hpp:77] Creating layer conv5_2/linear/bn
I1002 14:45:59.852476  8584 net.cpp:100] Creating Layer conv5_2/linear/bn
I1002 14:45:59.852479  8584 net.cpp:434] conv5_2/linear/bn <- conv5_2/linear
I1002 14:45:59.852484  8584 net.cpp:395] conv5_2/linear/bn -> conv5_2/linear (in-place)
I1002 14:45:59.852682  8584 net.cpp:150] Setting up conv5_2/linear/bn
I1002 14:45:59.852689  8584 net.cpp:157] Top shape: 1 96 19 32 (58368)
I1002 14:45:59.852690  8584 net.cpp:165] Memory required for data: 430884576
I1002 14:45:59.852699  8584 layer_factory.hpp:77] Creating layer conv5_2/linear/scale
I1002 14:45:59.852704  8584 net.cpp:100] Creating Layer conv5_2/linear/scale
I1002 14:45:59.852706  8584 net.cpp:434] conv5_2/linear/scale <- conv5_2/linear
I1002 14:45:59.852711  8584 net.cpp:395] conv5_2/linear/scale -> conv5_2/linear (in-place)
I1002 14:45:59.852746  8584 layer_factory.hpp:77] Creating layer conv5_2/linear/scale
I1002 14:45:59.852865  8584 net.cpp:150] Setting up conv5_2/linear/scale
I1002 14:45:59.852870  8584 net.cpp:157] Top shape: 1 96 19 32 (58368)
I1002 14:45:59.852874  8584 net.cpp:165] Memory required for data: 431118048
I1002 14:45:59.852880  8584 layer_factory.hpp:77] Creating layer block_5_2
I1002 14:45:59.852885  8584 net.cpp:100] Creating Layer block_5_2
I1002 14:45:59.852888  8584 net.cpp:434] block_5_2 <- block_5_1_block_5_1_0_split_1
I1002 14:45:59.852892  8584 net.cpp:434] block_5_2 <- conv5_2/linear
I1002 14:45:59.852898  8584 net.cpp:408] block_5_2 -> block_5_2
I1002 14:45:59.852921  8584 net.cpp:150] Setting up block_5_2
I1002 14:45:59.852926  8584 net.cpp:157] Top shape: 1 96 19 32 (58368)
I1002 14:45:59.852928  8584 net.cpp:165] Memory required for data: 431351520
I1002 14:45:59.852932  8584 layer_factory.hpp:77] Creating layer conv5_3/expand
I1002 14:45:59.852938  8584 net.cpp:100] Creating Layer conv5_3/expand
I1002 14:45:59.852942  8584 net.cpp:434] conv5_3/expand <- block_5_2
I1002 14:45:59.852947  8584 net.cpp:408] conv5_3/expand -> conv5_3/expand
I1002 14:45:59.855553  8584 net.cpp:150] Setting up conv5_3/expand
I1002 14:45:59.855562  8584 net.cpp:157] Top shape: 1 576 19 32 (350208)
I1002 14:45:59.855566  8584 net.cpp:165] Memory required for data: 432752352
I1002 14:45:59.855581  8584 layer_factory.hpp:77] Creating layer conv5_3/expand/bn
I1002 14:45:59.855589  8584 net.cpp:100] Creating Layer conv5_3/expand/bn
I1002 14:45:59.855593  8584 net.cpp:434] conv5_3/expand/bn <- conv5_3/expand
I1002 14:45:59.855599  8584 net.cpp:395] conv5_3/expand/bn -> conv5_3/expand (in-place)
I1002 14:45:59.855804  8584 net.cpp:150] Setting up conv5_3/expand/bn
I1002 14:45:59.855811  8584 net.cpp:157] Top shape: 1 576 19 32 (350208)
I1002 14:45:59.855814  8584 net.cpp:165] Memory required for data: 434153184
I1002 14:45:59.855820  8584 layer_factory.hpp:77] Creating layer conv5_3/expand/scale
I1002 14:45:59.855825  8584 net.cpp:100] Creating Layer conv5_3/expand/scale
I1002 14:45:59.855829  8584 net.cpp:434] conv5_3/expand/scale <- conv5_3/expand
I1002 14:45:59.855834  8584 net.cpp:395] conv5_3/expand/scale -> conv5_3/expand (in-place)
I1002 14:45:59.855872  8584 layer_factory.hpp:77] Creating layer conv5_3/expand/scale
I1002 14:45:59.855989  8584 net.cpp:150] Setting up conv5_3/expand/scale
I1002 14:45:59.855995  8584 net.cpp:157] Top shape: 1 576 19 32 (350208)
I1002 14:45:59.855999  8584 net.cpp:165] Memory required for data: 435554016
I1002 14:45:59.856004  8584 layer_factory.hpp:77] Creating layer relu5_3/expand
I1002 14:45:59.856009  8584 net.cpp:100] Creating Layer relu5_3/expand
I1002 14:45:59.856012  8584 net.cpp:434] relu5_3/expand <- conv5_3/expand
I1002 14:45:59.856017  8584 net.cpp:395] relu5_3/expand -> conv5_3/expand (in-place)
I1002 14:45:59.856395  8584 net.cpp:150] Setting up relu5_3/expand
I1002 14:45:59.856401  8584 net.cpp:157] Top shape: 1 576 19 32 (350208)
I1002 14:45:59.856405  8584 net.cpp:165] Memory required for data: 436954848
I1002 14:45:59.856410  8584 layer_factory.hpp:77] Creating layer conv5_3/expand_relu5_3/expand_0_split
I1002 14:45:59.856415  8584 net.cpp:100] Creating Layer conv5_3/expand_relu5_3/expand_0_split
I1002 14:45:59.856418  8584 net.cpp:434] conv5_3/expand_relu5_3/expand_0_split <- conv5_3/expand
I1002 14:45:59.856426  8584 net.cpp:408] conv5_3/expand_relu5_3/expand_0_split -> conv5_3/expand_relu5_3/expand_0_split_0
I1002 14:45:59.856432  8584 net.cpp:408] conv5_3/expand_relu5_3/expand_0_split -> conv5_3/expand_relu5_3/expand_0_split_1
I1002 14:45:59.856437  8584 net.cpp:408] conv5_3/expand_relu5_3/expand_0_split -> conv5_3/expand_relu5_3/expand_0_split_2
I1002 14:45:59.856443  8584 net.cpp:408] conv5_3/expand_relu5_3/expand_0_split -> conv5_3/expand_relu5_3/expand_0_split_3
I1002 14:45:59.856508  8584 net.cpp:150] Setting up conv5_3/expand_relu5_3/expand_0_split
I1002 14:45:59.856513  8584 net.cpp:157] Top shape: 1 576 19 32 (350208)
I1002 14:45:59.856518  8584 net.cpp:157] Top shape: 1 576 19 32 (350208)
I1002 14:45:59.856523  8584 net.cpp:157] Top shape: 1 576 19 32 (350208)
I1002 14:45:59.856528  8584 net.cpp:157] Top shape: 1 576 19 32 (350208)
I1002 14:45:59.856530  8584 net.cpp:165] Memory required for data: 442558176
I1002 14:45:59.856532  8584 layer_factory.hpp:77] Creating layer conv5_3/dwise
I1002 14:45:59.856539  8584 net.cpp:100] Creating Layer conv5_3/dwise
I1002 14:45:59.856544  8584 net.cpp:434] conv5_3/dwise <- conv5_3/expand_relu5_3/expand_0_split_0
I1002 14:45:59.856549  8584 net.cpp:408] conv5_3/dwise -> conv5_3/dwise
I1002 14:45:59.856792  8584 net.cpp:150] Setting up conv5_3/dwise
I1002 14:45:59.856798  8584 net.cpp:157] Top shape: 1 576 10 16 (92160)
I1002 14:45:59.856802  8584 net.cpp:165] Memory required for data: 442926816
I1002 14:45:59.856806  8584 layer_factory.hpp:77] Creating layer conv5_3/dwise/bn
I1002 14:45:59.856812  8584 net.cpp:100] Creating Layer conv5_3/dwise/bn
I1002 14:45:59.856815  8584 net.cpp:434] conv5_3/dwise/bn <- conv5_3/dwise
I1002 14:45:59.856820  8584 net.cpp:395] conv5_3/dwise/bn -> conv5_3/dwise (in-place)
I1002 14:45:59.857017  8584 net.cpp:150] Setting up conv5_3/dwise/bn
I1002 14:45:59.857023  8584 net.cpp:157] Top shape: 1 576 10 16 (92160)
I1002 14:45:59.857025  8584 net.cpp:165] Memory required for data: 443295456
I1002 14:45:59.857033  8584 layer_factory.hpp:77] Creating layer conv5_3/dwise/scale
I1002 14:45:59.857045  8584 net.cpp:100] Creating Layer conv5_3/dwise/scale
I1002 14:45:59.857049  8584 net.cpp:434] conv5_3/dwise/scale <- conv5_3/dwise
I1002 14:45:59.857054  8584 net.cpp:395] conv5_3/dwise/scale -> conv5_3/dwise (in-place)
I1002 14:45:59.857092  8584 layer_factory.hpp:77] Creating layer conv5_3/dwise/scale
I1002 14:45:59.857208  8584 net.cpp:150] Setting up conv5_3/dwise/scale
I1002 14:45:59.857213  8584 net.cpp:157] Top shape: 1 576 10 16 (92160)
I1002 14:45:59.857216  8584 net.cpp:165] Memory required for data: 443664096
I1002 14:45:59.857223  8584 layer_factory.hpp:77] Creating layer relu5_3/dwise
I1002 14:45:59.857228  8584 net.cpp:100] Creating Layer relu5_3/dwise
I1002 14:45:59.857231  8584 net.cpp:434] relu5_3/dwise <- conv5_3/dwise
I1002 14:45:59.857234  8584 net.cpp:395] relu5_3/dwise -> conv5_3/dwise (in-place)
I1002 14:45:59.857748  8584 net.cpp:150] Setting up relu5_3/dwise
I1002 14:45:59.857758  8584 net.cpp:157] Top shape: 1 576 10 16 (92160)
I1002 14:45:59.857761  8584 net.cpp:165] Memory required for data: 444032736
I1002 14:45:59.857764  8584 layer_factory.hpp:77] Creating layer conv5_3/linear
I1002 14:45:59.857772  8584 net.cpp:100] Creating Layer conv5_3/linear
I1002 14:45:59.857776  8584 net.cpp:434] conv5_3/linear <- conv5_3/dwise
I1002 14:45:59.857781  8584 net.cpp:408] conv5_3/linear -> conv5_3/linear
I1002 14:45:59.860839  8584 net.cpp:150] Setting up conv5_3/linear
I1002 14:45:59.860849  8584 net.cpp:157] Top shape: 1 160 10 16 (25600)
I1002 14:45:59.860853  8584 net.cpp:165] Memory required for data: 444135136
I1002 14:45:59.860859  8584 layer_factory.hpp:77] Creating layer conv5_3/linear/bn
I1002 14:45:59.860865  8584 net.cpp:100] Creating Layer conv5_3/linear/bn
I1002 14:45:59.860869  8584 net.cpp:434] conv5_3/linear/bn <- conv5_3/linear
I1002 14:45:59.860875  8584 net.cpp:395] conv5_3/linear/bn -> conv5_3/linear (in-place)
I1002 14:45:59.861080  8584 net.cpp:150] Setting up conv5_3/linear/bn
I1002 14:45:59.861085  8584 net.cpp:157] Top shape: 1 160 10 16 (25600)
I1002 14:45:59.861089  8584 net.cpp:165] Memory required for data: 444237536
I1002 14:45:59.861095  8584 layer_factory.hpp:77] Creating layer conv5_3/linear/scale
I1002 14:45:59.861101  8584 net.cpp:100] Creating Layer conv5_3/linear/scale
I1002 14:45:59.861104  8584 net.cpp:434] conv5_3/linear/scale <- conv5_3/linear
I1002 14:45:59.861110  8584 net.cpp:395] conv5_3/linear/scale -> conv5_3/linear (in-place)
I1002 14:45:59.861146  8584 layer_factory.hpp:77] Creating layer conv5_3/linear/scale
I1002 14:45:59.861260  8584 net.cpp:150] Setting up conv5_3/linear/scale
I1002 14:45:59.861266  8584 net.cpp:157] Top shape: 1 160 10 16 (25600)
I1002 14:45:59.861269  8584 net.cpp:165] Memory required for data: 444339936
I1002 14:45:59.861292  8584 layer_factory.hpp:77] Creating layer conv5_3/linear_conv5_3/linear/scale_0_split
I1002 14:45:59.861297  8584 net.cpp:100] Creating Layer conv5_3/linear_conv5_3/linear/scale_0_split
I1002 14:45:59.861300  8584 net.cpp:434] conv5_3/linear_conv5_3/linear/scale_0_split <- conv5_3/linear
I1002 14:45:59.861306  8584 net.cpp:408] conv5_3/linear_conv5_3/linear/scale_0_split -> conv5_3/linear_conv5_3/linear/scale_0_split_0
I1002 14:45:59.861312  8584 net.cpp:408] conv5_3/linear_conv5_3/linear/scale_0_split -> conv5_3/linear_conv5_3/linear/scale_0_split_1
I1002 14:45:59.861347  8584 net.cpp:150] Setting up conv5_3/linear_conv5_3/linear/scale_0_split
I1002 14:45:59.861353  8584 net.cpp:157] Top shape: 1 160 10 16 (25600)
I1002 14:45:59.861358  8584 net.cpp:157] Top shape: 1 160 10 16 (25600)
I1002 14:45:59.861361  8584 net.cpp:165] Memory required for data: 444544736
I1002 14:45:59.861364  8584 layer_factory.hpp:77] Creating layer conv6_1/expand
I1002 14:45:59.861371  8584 net.cpp:100] Creating Layer conv6_1/expand
I1002 14:45:59.861376  8584 net.cpp:434] conv6_1/expand <- conv5_3/linear_conv5_3/linear/scale_0_split_0
I1002 14:45:59.861380  8584 net.cpp:408] conv6_1/expand -> conv6_1/expand
I1002 14:45:59.864374  8584 net.cpp:150] Setting up conv6_1/expand
I1002 14:45:59.864394  8584 net.cpp:157] Top shape: 1 960 10 16 (153600)
I1002 14:45:59.864398  8584 net.cpp:165] Memory required for data: 445159136
I1002 14:45:59.864403  8584 layer_factory.hpp:77] Creating layer conv6_1/expand/bn
I1002 14:45:59.864409  8584 net.cpp:100] Creating Layer conv6_1/expand/bn
I1002 14:45:59.864413  8584 net.cpp:434] conv6_1/expand/bn <- conv6_1/expand
I1002 14:45:59.864419  8584 net.cpp:395] conv6_1/expand/bn -> conv6_1/expand (in-place)
I1002 14:45:59.864630  8584 net.cpp:150] Setting up conv6_1/expand/bn
I1002 14:45:59.864636  8584 net.cpp:157] Top shape: 1 960 10 16 (153600)
I1002 14:45:59.864639  8584 net.cpp:165] Memory required for data: 445773536
I1002 14:45:59.864647  8584 layer_factory.hpp:77] Creating layer conv6_1/expand/scale
I1002 14:45:59.864652  8584 net.cpp:100] Creating Layer conv6_1/expand/scale
I1002 14:45:59.864656  8584 net.cpp:434] conv6_1/expand/scale <- conv6_1/expand
I1002 14:45:59.864661  8584 net.cpp:395] conv6_1/expand/scale -> conv6_1/expand (in-place)
I1002 14:45:59.864699  8584 layer_factory.hpp:77] Creating layer conv6_1/expand/scale
I1002 14:45:59.864814  8584 net.cpp:150] Setting up conv6_1/expand/scale
I1002 14:45:59.864820  8584 net.cpp:157] Top shape: 1 960 10 16 (153600)
I1002 14:45:59.864823  8584 net.cpp:165] Memory required for data: 446387936
I1002 14:45:59.864830  8584 layer_factory.hpp:77] Creating layer relu6_1/expand
I1002 14:45:59.864835  8584 net.cpp:100] Creating Layer relu6_1/expand
I1002 14:45:59.864840  8584 net.cpp:434] relu6_1/expand <- conv6_1/expand
I1002 14:45:59.864843  8584 net.cpp:395] relu6_1/expand -> conv6_1/expand (in-place)
I1002 14:45:59.865350  8584 net.cpp:150] Setting up relu6_1/expand
I1002 14:45:59.865358  8584 net.cpp:157] Top shape: 1 960 10 16 (153600)
I1002 14:45:59.865361  8584 net.cpp:165] Memory required for data: 447002336
I1002 14:45:59.865365  8584 layer_factory.hpp:77] Creating layer conv6_1/dwise
I1002 14:45:59.865371  8584 net.cpp:100] Creating Layer conv6_1/dwise
I1002 14:45:59.865375  8584 net.cpp:434] conv6_1/dwise <- conv6_1/expand
I1002 14:45:59.865381  8584 net.cpp:408] conv6_1/dwise -> conv6_1/dwise
I1002 14:45:59.865677  8584 net.cpp:150] Setting up conv6_1/dwise
I1002 14:45:59.865685  8584 net.cpp:157] Top shape: 1 960 10 16 (153600)
I1002 14:45:59.865689  8584 net.cpp:165] Memory required for data: 447616736
I1002 14:45:59.865692  8584 layer_factory.hpp:77] Creating layer conv6_1/dwise/bn
I1002 14:45:59.865697  8584 net.cpp:100] Creating Layer conv6_1/dwise/bn
I1002 14:45:59.865702  8584 net.cpp:434] conv6_1/dwise/bn <- conv6_1/dwise
I1002 14:45:59.865706  8584 net.cpp:395] conv6_1/dwise/bn -> conv6_1/dwise (in-place)
I1002 14:45:59.865909  8584 net.cpp:150] Setting up conv6_1/dwise/bn
I1002 14:45:59.865916  8584 net.cpp:157] Top shape: 1 960 10 16 (153600)
I1002 14:45:59.865919  8584 net.cpp:165] Memory required for data: 448231136
I1002 14:45:59.865926  8584 layer_factory.hpp:77] Creating layer conv6_1/dwise/scale
I1002 14:45:59.865931  8584 net.cpp:100] Creating Layer conv6_1/dwise/scale
I1002 14:45:59.865933  8584 net.cpp:434] conv6_1/dwise/scale <- conv6_1/dwise
I1002 14:45:59.865939  8584 net.cpp:395] conv6_1/dwise/scale -> conv6_1/dwise (in-place)
I1002 14:45:59.865978  8584 layer_factory.hpp:77] Creating layer conv6_1/dwise/scale
I1002 14:45:59.866092  8584 net.cpp:150] Setting up conv6_1/dwise/scale
I1002 14:45:59.866098  8584 net.cpp:157] Top shape: 1 960 10 16 (153600)
I1002 14:45:59.866102  8584 net.cpp:165] Memory required for data: 448845536
I1002 14:45:59.866106  8584 layer_factory.hpp:77] Creating layer relu6_1/dwise
I1002 14:45:59.866112  8584 net.cpp:100] Creating Layer relu6_1/dwise
I1002 14:45:59.866116  8584 net.cpp:434] relu6_1/dwise <- conv6_1/dwise
I1002 14:45:59.866120  8584 net.cpp:395] relu6_1/dwise -> conv6_1/dwise (in-place)
I1002 14:45:59.866497  8584 net.cpp:150] Setting up relu6_1/dwise
I1002 14:45:59.866505  8584 net.cpp:157] Top shape: 1 960 10 16 (153600)
I1002 14:45:59.866508  8584 net.cpp:165] Memory required for data: 449459936
I1002 14:45:59.866513  8584 layer_factory.hpp:77] Creating layer conv6_1/linear
I1002 14:45:59.866528  8584 net.cpp:100] Creating Layer conv6_1/linear
I1002 14:45:59.866533  8584 net.cpp:434] conv6_1/linear <- conv6_1/dwise
I1002 14:45:59.866539  8584 net.cpp:408] conv6_1/linear -> conv6_1/linear
I1002 14:45:59.869544  8584 net.cpp:150] Setting up conv6_1/linear
I1002 14:45:59.869554  8584 net.cpp:157] Top shape: 1 160 10 16 (25600)
I1002 14:45:59.869556  8584 net.cpp:165] Memory required for data: 449562336
I1002 14:45:59.869561  8584 layer_factory.hpp:77] Creating layer conv6_1/linear/bn
I1002 14:45:59.869568  8584 net.cpp:100] Creating Layer conv6_1/linear/bn
I1002 14:45:59.869572  8584 net.cpp:434] conv6_1/linear/bn <- conv6_1/linear
I1002 14:45:59.869578  8584 net.cpp:395] conv6_1/linear/bn -> conv6_1/linear (in-place)
I1002 14:45:59.869781  8584 net.cpp:150] Setting up conv6_1/linear/bn
I1002 14:45:59.869786  8584 net.cpp:157] Top shape: 1 160 10 16 (25600)
I1002 14:45:59.869789  8584 net.cpp:165] Memory required for data: 449664736
I1002 14:45:59.869796  8584 layer_factory.hpp:77] Creating layer conv6_1/linear/scale
I1002 14:45:59.869801  8584 net.cpp:100] Creating Layer conv6_1/linear/scale
I1002 14:45:59.869804  8584 net.cpp:434] conv6_1/linear/scale <- conv6_1/linear
I1002 14:45:59.869808  8584 net.cpp:395] conv6_1/linear/scale -> conv6_1/linear (in-place)
I1002 14:45:59.869844  8584 layer_factory.hpp:77] Creating layer conv6_1/linear/scale
I1002 14:45:59.869958  8584 net.cpp:150] Setting up conv6_1/linear/scale
I1002 14:45:59.869964  8584 net.cpp:157] Top shape: 1 160 10 16 (25600)
I1002 14:45:59.869967  8584 net.cpp:165] Memory required for data: 449767136
I1002 14:45:59.869972  8584 layer_factory.hpp:77] Creating layer block_6_1
I1002 14:45:59.869977  8584 net.cpp:100] Creating Layer block_6_1
I1002 14:45:59.869982  8584 net.cpp:434] block_6_1 <- conv5_3/linear_conv5_3/linear/scale_0_split_1
I1002 14:45:59.869985  8584 net.cpp:434] block_6_1 <- conv6_1/linear
I1002 14:45:59.869992  8584 net.cpp:408] block_6_1 -> block_6_1
I1002 14:45:59.870013  8584 net.cpp:150] Setting up block_6_1
I1002 14:45:59.870019  8584 net.cpp:157] Top shape: 1 160 10 16 (25600)
I1002 14:45:59.870023  8584 net.cpp:165] Memory required for data: 449869536
I1002 14:45:59.870025  8584 layer_factory.hpp:77] Creating layer block_6_1_block_6_1_0_split
I1002 14:45:59.870030  8584 net.cpp:100] Creating Layer block_6_1_block_6_1_0_split
I1002 14:45:59.870034  8584 net.cpp:434] block_6_1_block_6_1_0_split <- block_6_1
I1002 14:45:59.870038  8584 net.cpp:408] block_6_1_block_6_1_0_split -> block_6_1_block_6_1_0_split_0
I1002 14:45:59.870045  8584 net.cpp:408] block_6_1_block_6_1_0_split -> block_6_1_block_6_1_0_split_1
I1002 14:45:59.870079  8584 net.cpp:150] Setting up block_6_1_block_6_1_0_split
I1002 14:45:59.870085  8584 net.cpp:157] Top shape: 1 160 10 16 (25600)
I1002 14:45:59.870088  8584 net.cpp:157] Top shape: 1 160 10 16 (25600)
I1002 14:45:59.870091  8584 net.cpp:165] Memory required for data: 450074336
I1002 14:45:59.870095  8584 layer_factory.hpp:77] Creating layer conv6_2/expand
I1002 14:45:59.870101  8584 net.cpp:100] Creating Layer conv6_2/expand
I1002 14:45:59.870105  8584 net.cpp:434] conv6_2/expand <- block_6_1_block_6_1_0_split_0
I1002 14:45:59.870111  8584 net.cpp:408] conv6_2/expand -> conv6_2/expand
I1002 14:45:59.873719  8584 net.cpp:150] Setting up conv6_2/expand
I1002 14:45:59.873733  8584 net.cpp:157] Top shape: 1 960 10 16 (153600)
I1002 14:45:59.873736  8584 net.cpp:165] Memory required for data: 450688736
I1002 14:45:59.873742  8584 layer_factory.hpp:77] Creating layer conv6_2/expand/bn
I1002 14:45:59.873751  8584 net.cpp:100] Creating Layer conv6_2/expand/bn
I1002 14:45:59.873756  8584 net.cpp:434] conv6_2/expand/bn <- conv6_2/expand
I1002 14:45:59.873762  8584 net.cpp:395] conv6_2/expand/bn -> conv6_2/expand (in-place)
I1002 14:45:59.873980  8584 net.cpp:150] Setting up conv6_2/expand/bn
I1002 14:45:59.873986  8584 net.cpp:157] Top shape: 1 960 10 16 (153600)
I1002 14:45:59.873989  8584 net.cpp:165] Memory required for data: 451303136
I1002 14:45:59.873996  8584 layer_factory.hpp:77] Creating layer conv6_2/expand/scale
I1002 14:45:59.874011  8584 net.cpp:100] Creating Layer conv6_2/expand/scale
I1002 14:45:59.874016  8584 net.cpp:434] conv6_2/expand/scale <- conv6_2/expand
I1002 14:45:59.874022  8584 net.cpp:395] conv6_2/expand/scale -> conv6_2/expand (in-place)
I1002 14:45:59.874063  8584 layer_factory.hpp:77] Creating layer conv6_2/expand/scale
I1002 14:45:59.874183  8584 net.cpp:150] Setting up conv6_2/expand/scale
I1002 14:45:59.874189  8584 net.cpp:157] Top shape: 1 960 10 16 (153600)
I1002 14:45:59.874192  8584 net.cpp:165] Memory required for data: 451917536
I1002 14:45:59.874197  8584 layer_factory.hpp:77] Creating layer relu6_2/expand
I1002 14:45:59.874203  8584 net.cpp:100] Creating Layer relu6_2/expand
I1002 14:45:59.874207  8584 net.cpp:434] relu6_2/expand <- conv6_2/expand
I1002 14:45:59.874212  8584 net.cpp:395] relu6_2/expand -> conv6_2/expand (in-place)
I1002 14:45:59.874733  8584 net.cpp:150] Setting up relu6_2/expand
I1002 14:45:59.874743  8584 net.cpp:157] Top shape: 1 960 10 16 (153600)
I1002 14:45:59.874747  8584 net.cpp:165] Memory required for data: 452531936
I1002 14:45:59.874749  8584 layer_factory.hpp:77] Creating layer conv6_2/dwise
I1002 14:45:59.874756  8584 net.cpp:100] Creating Layer conv6_2/dwise
I1002 14:45:59.874759  8584 net.cpp:434] conv6_2/dwise <- conv6_2/expand
I1002 14:45:59.874765  8584 net.cpp:408] conv6_2/dwise -> conv6_2/dwise
I1002 14:45:59.875068  8584 net.cpp:150] Setting up conv6_2/dwise
I1002 14:45:59.875074  8584 net.cpp:157] Top shape: 1 960 10 16 (153600)
I1002 14:45:59.875077  8584 net.cpp:165] Memory required for data: 453146336
I1002 14:45:59.875082  8584 layer_factory.hpp:77] Creating layer conv6_2/dwise/bn
I1002 14:45:59.875087  8584 net.cpp:100] Creating Layer conv6_2/dwise/bn
I1002 14:45:59.875090  8584 net.cpp:434] conv6_2/dwise/bn <- conv6_2/dwise
I1002 14:45:59.875094  8584 net.cpp:395] conv6_2/dwise/bn -> conv6_2/dwise (in-place)
I1002 14:45:59.875298  8584 net.cpp:150] Setting up conv6_2/dwise/bn
I1002 14:45:59.875304  8584 net.cpp:157] Top shape: 1 960 10 16 (153600)
I1002 14:45:59.875308  8584 net.cpp:165] Memory required for data: 453760736
I1002 14:45:59.875314  8584 layer_factory.hpp:77] Creating layer conv6_2/dwise/scale
I1002 14:45:59.875319  8584 net.cpp:100] Creating Layer conv6_2/dwise/scale
I1002 14:45:59.875324  8584 net.cpp:434] conv6_2/dwise/scale <- conv6_2/dwise
I1002 14:45:59.875327  8584 net.cpp:395] conv6_2/dwise/scale -> conv6_2/dwise (in-place)
I1002 14:45:59.875365  8584 layer_factory.hpp:77] Creating layer conv6_2/dwise/scale
I1002 14:45:59.875483  8584 net.cpp:150] Setting up conv6_2/dwise/scale
I1002 14:45:59.875488  8584 net.cpp:157] Top shape: 1 960 10 16 (153600)
I1002 14:45:59.875491  8584 net.cpp:165] Memory required for data: 454375136
I1002 14:45:59.875496  8584 layer_factory.hpp:77] Creating layer relu6_2/dwise
I1002 14:45:59.875501  8584 net.cpp:100] Creating Layer relu6_2/dwise
I1002 14:45:59.875505  8584 net.cpp:434] relu6_2/dwise <- conv6_2/dwise
I1002 14:45:59.875510  8584 net.cpp:395] relu6_2/dwise -> conv6_2/dwise (in-place)
I1002 14:45:59.875898  8584 net.cpp:150] Setting up relu6_2/dwise
I1002 14:45:59.875905  8584 net.cpp:157] Top shape: 1 960 10 16 (153600)
I1002 14:45:59.875908  8584 net.cpp:165] Memory required for data: 454989536
I1002 14:45:59.875911  8584 layer_factory.hpp:77] Creating layer conv6_2/linear
I1002 14:45:59.875919  8584 net.cpp:100] Creating Layer conv6_2/linear
I1002 14:45:59.875923  8584 net.cpp:434] conv6_2/linear <- conv6_2/dwise
I1002 14:45:59.875928  8584 net.cpp:408] conv6_2/linear -> conv6_2/linear
I1002 14:45:59.878943  8584 net.cpp:150] Setting up conv6_2/linear
I1002 14:45:59.878952  8584 net.cpp:157] Top shape: 1 160 10 16 (25600)
I1002 14:45:59.878955  8584 net.cpp:165] Memory required for data: 455091936
I1002 14:45:59.878960  8584 layer_factory.hpp:77] Creating layer conv6_2/linear/bn
I1002 14:45:59.878968  8584 net.cpp:100] Creating Layer conv6_2/linear/bn
I1002 14:45:59.878971  8584 net.cpp:434] conv6_2/linear/bn <- conv6_2/linear
I1002 14:45:59.878988  8584 net.cpp:395] conv6_2/linear/bn -> conv6_2/linear (in-place)
I1002 14:45:59.879191  8584 net.cpp:150] Setting up conv6_2/linear/bn
I1002 14:45:59.879197  8584 net.cpp:157] Top shape: 1 160 10 16 (25600)
I1002 14:45:59.879199  8584 net.cpp:165] Memory required for data: 455194336
I1002 14:45:59.879205  8584 layer_factory.hpp:77] Creating layer conv6_2/linear/scale
I1002 14:45:59.879212  8584 net.cpp:100] Creating Layer conv6_2/linear/scale
I1002 14:45:59.879216  8584 net.cpp:434] conv6_2/linear/scale <- conv6_2/linear
I1002 14:45:59.879221  8584 net.cpp:395] conv6_2/linear/scale -> conv6_2/linear (in-place)
I1002 14:45:59.879258  8584 layer_factory.hpp:77] Creating layer conv6_2/linear/scale
I1002 14:45:59.879374  8584 net.cpp:150] Setting up conv6_2/linear/scale
I1002 14:45:59.879380  8584 net.cpp:157] Top shape: 1 160 10 16 (25600)
I1002 14:45:59.879384  8584 net.cpp:165] Memory required for data: 455296736
I1002 14:45:59.879390  8584 layer_factory.hpp:77] Creating layer block_6_2
I1002 14:45:59.879395  8584 net.cpp:100] Creating Layer block_6_2
I1002 14:45:59.879400  8584 net.cpp:434] block_6_2 <- block_6_1_block_6_1_0_split_1
I1002 14:45:59.879403  8584 net.cpp:434] block_6_2 <- conv6_2/linear
I1002 14:45:59.879408  8584 net.cpp:408] block_6_2 -> block_6_2
I1002 14:45:59.879431  8584 net.cpp:150] Setting up block_6_2
I1002 14:45:59.879436  8584 net.cpp:157] Top shape: 1 160 10 16 (25600)
I1002 14:45:59.879439  8584 net.cpp:165] Memory required for data: 455399136
I1002 14:45:59.879441  8584 layer_factory.hpp:77] Creating layer conv6_3/expand
I1002 14:45:59.879448  8584 net.cpp:100] Creating Layer conv6_3/expand
I1002 14:45:59.879451  8584 net.cpp:434] conv6_3/expand <- block_6_2
I1002 14:45:59.879457  8584 net.cpp:408] conv6_3/expand -> conv6_3/expand
I1002 14:45:59.882572  8584 net.cpp:150] Setting up conv6_3/expand
I1002 14:45:59.882581  8584 net.cpp:157] Top shape: 1 960 10 16 (153600)
I1002 14:45:59.882585  8584 net.cpp:165] Memory required for data: 456013536
I1002 14:45:59.882589  8584 layer_factory.hpp:77] Creating layer conv6_3/expand/bn
I1002 14:45:59.882596  8584 net.cpp:100] Creating Layer conv6_3/expand/bn
I1002 14:45:59.882601  8584 net.cpp:434] conv6_3/expand/bn <- conv6_3/expand
I1002 14:45:59.882606  8584 net.cpp:395] conv6_3/expand/bn -> conv6_3/expand (in-place)
I1002 14:45:59.882817  8584 net.cpp:150] Setting up conv6_3/expand/bn
I1002 14:45:59.882823  8584 net.cpp:157] Top shape: 1 960 10 16 (153600)
I1002 14:45:59.882827  8584 net.cpp:165] Memory required for data: 456627936
I1002 14:45:59.882833  8584 layer_factory.hpp:77] Creating layer conv6_3/expand/scale
I1002 14:45:59.882838  8584 net.cpp:100] Creating Layer conv6_3/expand/scale
I1002 14:45:59.882840  8584 net.cpp:434] conv6_3/expand/scale <- conv6_3/expand
I1002 14:45:59.882846  8584 net.cpp:395] conv6_3/expand/scale -> conv6_3/expand (in-place)
I1002 14:45:59.882885  8584 layer_factory.hpp:77] Creating layer conv6_3/expand/scale
I1002 14:45:59.883007  8584 net.cpp:150] Setting up conv6_3/expand/scale
I1002 14:45:59.883011  8584 net.cpp:157] Top shape: 1 960 10 16 (153600)
I1002 14:45:59.883015  8584 net.cpp:165] Memory required for data: 457242336
I1002 14:45:59.883020  8584 layer_factory.hpp:77] Creating layer relu6_3/expand
I1002 14:45:59.883026  8584 net.cpp:100] Creating Layer relu6_3/expand
I1002 14:45:59.883029  8584 net.cpp:434] relu6_3/expand <- conv6_3/expand
I1002 14:45:59.883034  8584 net.cpp:395] relu6_3/expand -> conv6_3/expand (in-place)
I1002 14:45:59.883414  8584 net.cpp:150] Setting up relu6_3/expand
I1002 14:45:59.883420  8584 net.cpp:157] Top shape: 1 960 10 16 (153600)
I1002 14:45:59.883424  8584 net.cpp:165] Memory required for data: 457856736
I1002 14:45:59.883427  8584 layer_factory.hpp:77] Creating layer conv6_3/dwise
I1002 14:45:59.883435  8584 net.cpp:100] Creating Layer conv6_3/dwise
I1002 14:45:59.883438  8584 net.cpp:434] conv6_3/dwise <- conv6_3/expand
I1002 14:45:59.883445  8584 net.cpp:408] conv6_3/dwise -> conv6_3/dwise
I1002 14:45:59.883738  8584 net.cpp:150] Setting up conv6_3/dwise
I1002 14:45:59.883754  8584 net.cpp:157] Top shape: 1 960 10 16 (153600)
I1002 14:45:59.883756  8584 net.cpp:165] Memory required for data: 458471136
I1002 14:45:59.883759  8584 layer_factory.hpp:77] Creating layer conv6_3/dwise/bn
I1002 14:45:59.883766  8584 net.cpp:100] Creating Layer conv6_3/dwise/bn
I1002 14:45:59.883770  8584 net.cpp:434] conv6_3/dwise/bn <- conv6_3/dwise
I1002 14:45:59.883774  8584 net.cpp:395] conv6_3/dwise/bn -> conv6_3/dwise (in-place)
I1002 14:45:59.883980  8584 net.cpp:150] Setting up conv6_3/dwise/bn
I1002 14:45:59.883986  8584 net.cpp:157] Top shape: 1 960 10 16 (153600)
I1002 14:45:59.883990  8584 net.cpp:165] Memory required for data: 459085536
I1002 14:45:59.883996  8584 layer_factory.hpp:77] Creating layer conv6_3/dwise/scale
I1002 14:45:59.883999  8584 net.cpp:100] Creating Layer conv6_3/dwise/scale
I1002 14:45:59.884003  8584 net.cpp:434] conv6_3/dwise/scale <- conv6_3/dwise
I1002 14:45:59.884007  8584 net.cpp:395] conv6_3/dwise/scale -> conv6_3/dwise (in-place)
I1002 14:45:59.884047  8584 layer_factory.hpp:77] Creating layer conv6_3/dwise/scale
I1002 14:45:59.884163  8584 net.cpp:150] Setting up conv6_3/dwise/scale
I1002 14:45:59.884171  8584 net.cpp:157] Top shape: 1 960 10 16 (153600)
I1002 14:45:59.884173  8584 net.cpp:165] Memory required for data: 459699936
I1002 14:45:59.884178  8584 layer_factory.hpp:77] Creating layer relu6_3/dwise
I1002 14:45:59.884182  8584 net.cpp:100] Creating Layer relu6_3/dwise
I1002 14:45:59.884186  8584 net.cpp:434] relu6_3/dwise <- conv6_3/dwise
I1002 14:45:59.884191  8584 net.cpp:395] relu6_3/dwise -> conv6_3/dwise (in-place)
I1002 14:45:59.884568  8584 net.cpp:150] Setting up relu6_3/dwise
I1002 14:45:59.884574  8584 net.cpp:157] Top shape: 1 960 10 16 (153600)
I1002 14:45:59.884578  8584 net.cpp:165] Memory required for data: 460314336
I1002 14:45:59.884582  8584 layer_factory.hpp:77] Creating layer conv6_3/linear
I1002 14:45:59.884590  8584 net.cpp:100] Creating Layer conv6_3/linear
…
I1002 14:46:00.055462  8584 net.cpp:165] Memory required for data: 456627872
I1002 14:46:00.055466  8584 layer_factory.hpp:77] Creating layer conv6_3/expand/scale
I1002 14:46:00.055470  8584 net.cpp:100] Creating Layer conv6_3/expand/scale
I1002 14:46:00.055472  8584 net.cpp:434] conv6_3/expand/scale <- conv6_3/expand
I1002 14:46:00.055475  8584 net.cpp:395] conv6_3/expand/scale -> conv6_3/expand (in-place)
I1002 14:46:00.055507  8584 layer_factory.hpp:77] Creating layer conv6_3/expand/scale
I1002 14:46:00.055582  8584 net.cpp:150] Setting up conv6_3/expand/scale
I1002 14:46:00.055585  8584 net.cpp:157] Top shape: 1 960 10 16 (153600)
I1002 14:46:00.055588  8584 net.cpp:165] Memory required for data: 457242272
I1002 14:46:00.055591  8584 layer_factory.hpp:77] Creating layer relu6_3/expand
I1002 14:46:00.055594  8584 net.cpp:100] Creating Layer relu6_3/expand
I1002 14:46:00.055596  8584 net.cpp:434] relu6_3/expand <- conv6_3/expand
I1002 14:46:00.055599  8584 net.cpp:395] relu6_3/expand -> conv6_3/expand (in-place)
I1002 14:46:00.055876  8584 net.cpp:150] Setting up relu6_3/expand
I1002 14:46:00.055891  8584 net.cpp:157] Top shape: 1 960 10 16 (153600)
I1002 14:46:00.055892  8584 net.cpp:165] Memory required for data: 457856672
I1002 14:46:00.055896  8584 layer_factory.hpp:77] Creating layer conv6_3/dwise
I1002 14:46:00.055902  8584 net.cpp:100] Creating Layer conv6_3/dwise
I1002 14:46:00.055903  8584 net.cpp:434] conv6_3/dwise <- conv6_3/expand
I1002 14:46:00.055907  8584 net.cpp:408] conv6_3/dwise -> conv6_3/dwise
I1002 14:46:00.056520  8584 net.cpp:150] Setting up conv6_3/dwise
I1002 14:46:00.056527  8584 net.cpp:157] Top shape: 1 960 10 16 (153600)
I1002 14:46:00.056529  8584 net.cpp:165] Memory required for data: 458471072
I1002 14:46:00.056532  8584 layer_factory.hpp:77] Creating layer conv6_3/dwise/bn
I1002 14:46:00.056538  8584 net.cpp:100] Creating Layer conv6_3/dwise/bn
I1002 14:46:00.056540  8584 net.cpp:434] conv6_3/dwise/bn <- conv6_3/dwise
I1002 14:46:00.056545  8584 net.cpp:395] conv6_3/dwise/bn -> conv6_3/dwise (in-place)
I1002 14:46:00.056679  8584 net.cpp:150] Setting up conv6_3/dwise/bn
I1002 14:46:00.056684  8584 net.cpp:157] Top shape: 1 960 10 16 (153600)
I1002 14:46:00.056686  8584 net.cpp:165] Memory required for data: 459085472
I1002 14:46:00.056690  8584 layer_factory.hpp:77] Creating layer conv6_3/dwise/scale
I1002 14:46:00.056694  8584 net.cpp:100] Creating Layer conv6_3/dwise/scale
I1002 14:46:00.056697  8584 net.cpp:434] conv6_3/dwise/scale <- conv6_3/dwise
I1002 14:46:00.056699  8584 net.cpp:395] conv6_3/dwise/scale -> conv6_3/dwise (in-place)
I1002 14:46:00.056730  8584 layer_factory.hpp:77] Creating layer conv6_3/dwise/scale
I1002 14:46:00.056804  8584 net.cpp:150] Setting up conv6_3/dwise/scale
I1002 14:46:00.056808  8584 net.cpp:157] Top shape: 1 960 10 16 (153600)
I1002 14:46:00.056810  8584 net.cpp:165] Memory required for data: 459699872
I1002 14:46:00.056813  8584 layer_factory.hpp:77] Creating layer relu6_3/dwise
I1002 14:46:00.056818  8584 net.cpp:100] Creating Layer relu6_3/dwise
I1002 14:46:00.056820  8584 net.cpp:434] relu6_3/dwise <- conv6_3/dwise
I1002 14:46:00.056823  8584 net.cpp:395] relu6_3/dwise -> conv6_3/dwise (in-place)
I1002 14:46:00.057225  8584 net.cpp:150] Setting up relu6_3/dwise
I1002 14:46:00.057231  8584 net.cpp:157] Top shape: 1 960 10 16 (153600)
I1002 14:46:00.057235  8584 net.cpp:165] Memory required for data: 460314272
I1002 14:46:00.057236  8584 layer_factory.hpp:77] Creating layer conv6_3/linear
I1002 14:46:00.057243  8584 net.cpp:100] Creating Layer conv6_3/linear
I1002 14:46:00.057246  8584 net.cpp:434] conv6_3/linear <- conv6_3/dwise
I1002 14:46:00.057250  8584 net.cpp:408] conv6_3/linear -> conv6_3/linear
I1002 14:46:00.060499  8584 net.cpp:150] Setting up conv6_3/linear
I1002 14:46:00.060508  8584 net.cpp:157] Top shape: 1 320 10 16 (51200)
I1002 14:46:00.060509  8584 net.cpp:165] Memory required for data: 460519072
I1002 14:46:00.060513  8584 layer_factory.hpp:77] Creating layer conv6_3/linear/bn
I1002 14:46:00.060518  8584 net.cpp:100] Creating Layer conv6_3/linear/bn
I1002 14:46:00.060520  8584 net.cpp:434] conv6_3/linear/bn <- conv6_3/linear
I1002 14:46:00.060524  8584 net.cpp:395] conv6_3/linear/bn -> conv6_3/linear (in-place)
I1002 14:46:00.060663  8584 net.cpp:150] Setting up conv6_3/linear/bn
I1002 14:46:00.060667  8584 net.cpp:157] Top shape: 1 320 10 16 (51200)
I1002 14:46:00.060670  8584 net.cpp:165] Memory required for data: 460723872
I1002 14:46:00.060674  8584 layer_factory.hpp:77] Creating layer conv6_3/linear/scale
I1002 14:46:00.060678  8584 net.cpp:100] Creating Layer conv6_3/linear/scale
I1002 14:46:00.060680  8584 net.cpp:434] conv6_3/linear/scale <- conv6_3/linear
I1002 14:46:00.060684  8584 net.cpp:395] conv6_3/linear/scale -> conv6_3/linear (in-place)
I1002 14:46:00.060715  8584 layer_factory.hpp:77] Creating layer conv6_3/linear/scale
I1002 14:46:00.060791  8584 net.cpp:150] Setting up conv6_3/linear/scale
I1002 14:46:00.060794  8584 net.cpp:157] Top shape: 1 320 10 16 (51200)
I1002 14:46:00.060797  8584 net.cpp:165] Memory required for data: 460928672
I1002 14:46:00.060801  8584 layer_factory.hpp:77] Creating layer conv6_4
I1002 14:46:00.060817  8584 net.cpp:100] Creating Layer conv6_4
I1002 14:46:00.060819  8584 net.cpp:434] conv6_4 <- conv6_3/linear
I1002 14:46:00.060822  8584 net.cpp:408] conv6_4 -> conv6_4
I1002 14:46:00.064630  8584 net.cpp:150] Setting up conv6_4
I1002 14:46:00.064637  8584 net.cpp:157] Top shape: 1 1280 10 16 (204800)
I1002 14:46:00.064640  8584 net.cpp:165] Memory required for data: 461747872
I1002 14:46:00.064643  8584 layer_factory.hpp:77] Creating layer conv6_4/bn
I1002 14:46:00.064647  8584 net.cpp:100] Creating Layer conv6_4/bn
I1002 14:46:00.064651  8584 net.cpp:434] conv6_4/bn <- conv6_4
I1002 14:46:00.064654  8584 net.cpp:395] conv6_4/bn -> conv6_4 (in-place)
I1002 14:46:00.064787  8584 net.cpp:150] Setting up conv6_4/bn
I1002 14:46:00.064791  8584 net.cpp:157] Top shape: 1 1280 10 16 (204800)
I1002 14:46:00.064792  8584 net.cpp:165] Memory required for data: 462567072
I1002 14:46:00.064796  8584 layer_factory.hpp:77] Creating layer conv6_4/scale
I1002 14:46:00.064801  8584 net.cpp:100] Creating Layer conv6_4/scale
I1002 14:46:00.064803  8584 net.cpp:434] conv6_4/scale <- conv6_4
I1002 14:46:00.064806  8584 net.cpp:395] conv6_4/scale -> conv6_4 (in-place)
I1002 14:46:00.064832  8584 layer_factory.hpp:77] Creating layer conv6_4/scale
I1002 14:46:00.064904  8584 net.cpp:150] Setting up conv6_4/scale
I1002 14:46:00.064909  8584 net.cpp:157] Top shape: 1 1280 10 16 (204800)
I1002 14:46:00.064911  8584 net.cpp:165] Memory required for data: 463386272
I1002 14:46:00.064915  8584 layer_factory.hpp:77] Creating layer relu6_4
I1002 14:46:00.064918  8584 net.cpp:100] Creating Layer relu6_4
I1002 14:46:00.064921  8584 net.cpp:434] relu6_4 <- conv6_4
I1002 14:46:00.064924  8584 net.cpp:395] relu6_4 -> conv6_4 (in-place)
I1002 14:46:00.065208  8584 net.cpp:150] Setting up relu6_4
I1002 14:46:00.065214  8584 net.cpp:157] Top shape: 1 1280 10 16 (204800)
I1002 14:46:00.065217  8584 net.cpp:165] Memory required for data: 464205472
I1002 14:46:00.065218  8584 layer_factory.hpp:77] Creating layer conv6_4_relu6_4_0_split
I1002 14:46:00.065222  8584 net.cpp:100] Creating Layer conv6_4_relu6_4_0_split
I1002 14:46:00.065223  8584 net.cpp:434] conv6_4_relu6_4_0_split <- conv6_4
I1002 14:46:00.065227  8584 net.cpp:408] conv6_4_relu6_4_0_split -> conv6_4_relu6_4_0_split_0
I1002 14:46:00.065232  8584 net.cpp:408] conv6_4_relu6_4_0_split -> conv6_4_relu6_4_0_split_1
I1002 14:46:00.065237  8584 net.cpp:408] conv6_4_relu6_4_0_split -> conv6_4_relu6_4_0_split_2
I1002 14:46:00.065241  8584 net.cpp:408] conv6_4_relu6_4_0_split -> conv6_4_relu6_4_0_split_3
I1002 14:46:00.065280  8584 net.cpp:150] Setting up conv6_4_relu6_4_0_split
I1002 14:46:00.065284  8584 net.cpp:157] Top shape: 1 1280 10 16 (204800)
I1002 14:46:00.065286  8584 net.cpp:157] Top shape: 1 1280 10 16 (204800)
I1002 14:46:00.065289  8584 net.cpp:157] Top shape: 1 1280 10 16 (204800)
I1002 14:46:00.065291  8584 net.cpp:157] Top shape: 1 1280 10 16 (204800)
I1002 14:46:00.065294  8584 net.cpp:165] Memory required for data: 467482272
I1002 14:46:00.065294  8584 layer_factory.hpp:77] Creating layer ssd1_1
I1002 14:46:00.065301  8584 net.cpp:100] Creating Layer ssd1_1
I1002 14:46:00.065304  8584 net.cpp:434] ssd1_1 <- conv6_4_relu6_4_0_split_0
I1002 14:46:00.065307  8584 net.cpp:408] ssd1_1 -> ssd1_1
I1002 14:46:00.068032  8584 net.cpp:150] Setting up ssd1_1
I1002 14:46:00.068039  8584 net.cpp:157] Top shape: 1 256 10 16 (40960)
I1002 14:46:00.068042  8584 net.cpp:165] Memory required for data: 467646112
I1002 14:46:00.068047  8584 layer_factory.hpp:77] Creating layer ssd1_1_relu
I1002 14:46:00.068050  8584 net.cpp:100] Creating Layer ssd1_1_relu
I1002 14:46:00.068053  8584 net.cpp:434] ssd1_1_relu <- ssd1_1
I1002 14:46:00.068058  8584 net.cpp:395] ssd1_1_relu -> ssd1_1 (in-place)
I1002 14:46:00.068346  8584 net.cpp:150] Setting up ssd1_1_relu
I1002 14:46:00.068351  8584 net.cpp:157] Top shape: 1 256 10 16 (40960)
I1002 14:46:00.068353  8584 net.cpp:165] Memory required for data: 467809952
I1002 14:46:00.068356  8584 layer_factory.hpp:77] Creating layer ssd1_2
I1002 14:46:00.068372  8584 net.cpp:100] Creating Layer ssd1_2
I1002 14:46:00.068375  8584 net.cpp:434] ssd1_2 <- ssd1_1
I1002 14:46:00.068379  8584 net.cpp:408] ssd1_2 -> ssd1_2
I1002 14:46:00.074343  8584 net.cpp:150] Setting up ssd1_2
I1002 14:46:00.074358  8584 net.cpp:157] Top shape: 1 512 5 8 (20480)
I1002 14:46:00.074360  8584 net.cpp:165] Memory required for data: 467891872
I1002 14:46:00.074368  8584 layer_factory.hpp:77] Creating layer ssd1_2_relu
I1002 14:46:00.074373  8584 net.cpp:100] Creating Layer ssd1_2_relu
I1002 14:46:00.074378  8584 net.cpp:434] ssd1_2_relu <- ssd1_2
I1002 14:46:00.074381  8584 net.cpp:395] ssd1_2_relu -> ssd1_2 (in-place)
I1002 14:46:00.074779  8584 net.cpp:150] Setting up ssd1_2_relu
I1002 14:46:00.074787  8584 net.cpp:157] Top shape: 1 512 5 8 (20480)
I1002 14:46:00.074790  8584 net.cpp:165] Memory required for data: 467973792
I1002 14:46:00.074791  8584 layer_factory.hpp:77] Creating layer ssd1_2_ssd1_2_relu_0_split
I1002 14:46:00.074795  8584 net.cpp:100] Creating Layer ssd1_2_ssd1_2_relu_0_split
I1002 14:46:00.074797  8584 net.cpp:434] ssd1_2_ssd1_2_relu_0_split <- ssd1_2
I1002 14:46:00.074801  8584 net.cpp:408] ssd1_2_ssd1_2_relu_0_split -> ssd1_2_ssd1_2_relu_0_split_0
I1002 14:46:00.074805  8584 net.cpp:408] ssd1_2_ssd1_2_relu_0_split -> ssd1_2_ssd1_2_relu_0_split_1
I1002 14:46:00.074808  8584 net.cpp:408] ssd1_2_ssd1_2_relu_0_split -> ssd1_2_ssd1_2_relu_0_split_2
I1002 14:46:00.074812  8584 net.cpp:408] ssd1_2_ssd1_2_relu_0_split -> ssd1_2_ssd1_2_relu_0_split_3
I1002 14:46:00.074856  8584 net.cpp:150] Setting up ssd1_2_ssd1_2_relu_0_split
I1002 14:46:00.074858  8584 net.cpp:157] Top shape: 1 512 5 8 (20480)
I1002 14:46:00.074862  8584 net.cpp:157] Top shape: 1 512 5 8 (20480)
I1002 14:46:00.074863  8584 net.cpp:157] Top shape: 1 512 5 8 (20480)
I1002 14:46:00.074865  8584 net.cpp:157] Top shape: 1 512 5 8 (20480)
I1002 14:46:00.074867  8584 net.cpp:165] Memory required for data: 468301472
I1002 14:46:00.074869  8584 layer_factory.hpp:77] Creating layer ssd2_1
I1002 14:46:00.074875  8584 net.cpp:100] Creating Layer ssd2_1
I1002 14:46:00.074877  8584 net.cpp:434] ssd2_1 <- ssd1_2_ssd1_2_relu_0_split_0
I1002 14:46:00.074882  8584 net.cpp:408] ssd2_1 -> ssd2_1
I1002 14:46:00.076228  8584 net.cpp:150] Setting up ssd2_1
I1002 14:46:00.076234  8584 net.cpp:157] Top shape: 1 128 5 8 (5120)
I1002 14:46:00.076237  8584 net.cpp:165] Memory required for data: 468321952
I1002 14:46:00.076241  8584 layer_factory.hpp:77] Creating layer ssd2_1_relu
I1002 14:46:00.076246  8584 net.cpp:100] Creating Layer ssd2_1_relu
I1002 14:46:00.076247  8584 net.cpp:434] ssd2_1_relu <- ssd2_1
I1002 14:46:00.076251  8584 net.cpp:395] ssd2_1_relu -> ssd2_1 (in-place)
I1002 14:46:00.076539  8584 net.cpp:150] Setting up ssd2_1_relu
I1002 14:46:00.076545  8584 net.cpp:157] Top shape: 1 128 5 8 (5120)
I1002 14:46:00.076546  8584 net.cpp:165] Memory required for data: 468342432
I1002 14:46:00.076548  8584 layer_factory.hpp:77] Creating layer ssd2_2
I1002 14:46:00.076555  8584 net.cpp:100] Creating Layer ssd2_2
I1002 14:46:00.076557  8584 net.cpp:434] ssd2_2 <- ssd2_1
I1002 14:46:00.076560  8584 net.cpp:408] ssd2_2 -> ssd2_2
I1002 14:46:00.079079  8584 net.cpp:150] Setting up ssd2_2
I1002 14:46:00.079087  8584 net.cpp:157] Top shape: 1 256 3 4 (3072)
I1002 14:46:00.079089  8584 net.cpp:165] Memory required for data: 468354720
I1002 14:46:00.079093  8584 layer_factory.hpp:77] Creating layer ssd2_2_relu
I1002 14:46:00.079097  8584 net.cpp:100] Creating Layer ssd2_2_relu
I1002 14:46:00.079100  8584 net.cpp:434] ssd2_2_relu <- ssd2_2
I1002 14:46:00.079103  8584 net.cpp:395] ssd2_2_relu -> ssd2_2 (in-place)
I1002 14:46:00.079504  8584 net.cpp:150] Setting up ssd2_2_relu
I1002 14:46:00.079511  8584 net.cpp:157] Top shape: 1 256 3 4 (3072)
I1002 14:46:00.079512  8584 net.cpp:165] Memory required for data: 468367008
I1002 14:46:00.079515  8584 layer_factory.hpp:77] Creating layer ssd2_2_ssd2_2_relu_0_split
I1002 14:46:00.079519  8584 net.cpp:100] Creating Layer ssd2_2_ssd2_2_relu_0_split
I1002 14:46:00.079521  8584 net.cpp:434] ssd2_2_ssd2_2_relu_0_split <- ssd2_2
I1002 14:46:00.079537  8584 net.cpp:408] ssd2_2_ssd2_2_relu_0_split -> ssd2_2_ssd2_2_relu_0_split_0
I1002 14:46:00.079542  8584 net.cpp:408] ssd2_2_ssd2_2_relu_0_split -> ssd2_2_ssd2_2_relu_0_split_1
I1002 14:46:00.079545  8584 net.cpp:408] ssd2_2_ssd2_2_relu_0_split -> ssd2_2_ssd2_2_relu_0_split_2
I1002 14:46:00.079550  8584 net.cpp:408] ssd2_2_ssd2_2_relu_0_split -> ssd2_2_ssd2_2_relu_0_split_3
I1002 14:46:00.079591  8584 net.cpp:150] Setting up ssd2_2_ssd2_2_relu_0_split
I1002 14:46:00.079596  8584 net.cpp:157] Top shape: 1 256 3 4 (3072)
I1002 14:46:00.079598  8584 net.cpp:157] Top shape: 1 256 3 4 (3072)
I1002 14:46:00.079601  8584 net.cpp:157] Top shape: 1 256 3 4 (3072)
I1002 14:46:00.079602  8584 net.cpp:157] Top shape: 1 256 3 4 (3072)
I1002 14:46:00.079604  8584 net.cpp:165] Memory required for data: 468416160
I1002 14:46:00.079607  8584 layer_factory.hpp:77] Creating layer ssd3_1
I1002 14:46:00.079612  8584 net.cpp:100] Creating Layer ssd3_1
I1002 14:46:00.079613  8584 net.cpp:434] ssd3_1 <- ssd2_2_ssd2_2_relu_0_split_0
I1002 14:46:00.079617  8584 net.cpp:408] ssd3_1 -> ssd3_1
I1002 14:46:00.080862  8584 net.cpp:150] Setting up ssd3_1
I1002 14:46:00.080869  8584 net.cpp:157] Top shape: 1 128 3 4 (1536)
I1002 14:46:00.080871  8584 net.cpp:165] Memory required for data: 468422304
I1002 14:46:00.080875  8584 layer_factory.hpp:77] Creating layer ssd3_1_relu
I1002 14:46:00.080878  8584 net.cpp:100] Creating Layer ssd3_1_relu
I1002 14:46:00.080880  8584 net.cpp:434] ssd3_1_relu <- ssd3_1
I1002 14:46:00.080884  8584 net.cpp:395] ssd3_1_relu -> ssd3_1 (in-place)
I1002 14:46:00.081171  8584 net.cpp:150] Setting up ssd3_1_relu
I1002 14:46:00.081177  8584 net.cpp:157] Top shape: 1 128 3 4 (1536)
I1002 14:46:00.081178  8584 net.cpp:165] Memory required for data: 468428448
I1002 14:46:00.081181  8584 layer_factory.hpp:77] Creating layer ssd3_2
I1002 14:46:00.081187  8584 net.cpp:100] Creating Layer ssd3_2
I1002 14:46:00.081188  8584 net.cpp:434] ssd3_2 <- ssd3_1
I1002 14:46:00.081192  8584 net.cpp:408] ssd3_2 -> ssd3_2
I1002 14:46:00.083873  8584 net.cpp:150] Setting up ssd3_2
I1002 14:46:00.083884  8584 net.cpp:157] Top shape: 1 256 2 2 (1024)
I1002 14:46:00.083886  8584 net.cpp:165] Memory required for data: 468432544
I1002 14:46:00.083894  8584 layer_factory.hpp:77] Creating layer ssd3_2_relu
I1002 14:46:00.083899  8584 net.cpp:100] Creating Layer ssd3_2_relu
I1002 14:46:00.083901  8584 net.cpp:434] ssd3_2_relu <- ssd3_2
I1002 14:46:00.083904  8584 net.cpp:395] ssd3_2_relu -> ssd3_2 (in-place)
I1002 14:46:00.084193  8584 net.cpp:150] Setting up ssd3_2_relu
I1002 14:46:00.084199  8584 net.cpp:157] Top shape: 1 256 2 2 (1024)
I1002 14:46:00.084201  8584 net.cpp:165] Memory required for data: 468436640
I1002 14:46:00.084203  8584 layer_factory.hpp:77] Creating layer ssd3_2_ssd3_2_relu_0_split
I1002 14:46:00.084208  8584 net.cpp:100] Creating Layer ssd3_2_ssd3_2_relu_0_split
I1002 14:46:00.084209  8584 net.cpp:434] ssd3_2_ssd3_2_relu_0_split <- ssd3_2
I1002 14:46:00.084213  8584 net.cpp:408] ssd3_2_ssd3_2_relu_0_split -> ssd3_2_ssd3_2_relu_0_split_0
I1002 14:46:00.084218  8584 net.cpp:408] ssd3_2_ssd3_2_relu_0_split -> ssd3_2_ssd3_2_relu_0_split_1
I1002 14:46:00.084223  8584 net.cpp:408] ssd3_2_ssd3_2_relu_0_split -> ssd3_2_ssd3_2_relu_0_split_2
I1002 14:46:00.084226  8584 net.cpp:408] ssd3_2_ssd3_2_relu_0_split -> ssd3_2_ssd3_2_relu_0_split_3
I1002 14:46:00.084269  8584 net.cpp:150] Setting up ssd3_2_ssd3_2_relu_0_split
I1002 14:46:00.084271  8584 net.cpp:157] Top shape: 1 256 2 2 (1024)
I1002 14:46:00.084275  8584 net.cpp:157] Top shape: 1 256 2 2 (1024)
I1002 14:46:00.084277  8584 net.cpp:157] Top shape: 1 256 2 2 (1024)
I1002 14:46:00.084280  8584 net.cpp:157] Top shape: 1 256 2 2 (1024)
I1002 14:46:00.084281  8584 net.cpp:165] Memory required for data: 468453024
I1002 14:46:00.084283  8584 layer_factory.hpp:77] Creating layer ssd4_1
I1002 14:46:00.084290  8584 net.cpp:100] Creating Layer ssd4_1
I1002 14:46:00.084292  8584 net.cpp:434] ssd4_1 <- ssd3_2_ssd3_2_relu_0_split_0
I1002 14:46:00.084306  8584 net.cpp:408] ssd4_1 -> ssd4_1
I1002 14:46:00.085564  8584 net.cpp:150] Setting up ssd4_1
I1002 14:46:00.085572  8584 net.cpp:157] Top shape: 1 128 2 2 (512)
I1002 14:46:00.085573  8584 net.cpp:165] Memory required for data: 468455072
I1002 14:46:00.085577  8584 layer_factory.hpp:77] Creating layer ssd4_1_relu
I1002 14:46:00.085583  8584 net.cpp:100] Creating Layer ssd4_1_relu
I1002 14:46:00.085585  8584 net.cpp:434] ssd4_1_relu <- ssd4_1
I1002 14:46:00.085588  8584 net.cpp:395] ssd4_1_relu -> ssd4_1 (in-place)
I1002 14:46:00.085875  8584 net.cpp:150] Setting up ssd4_1_relu
I1002 14:46:00.085880  8584 net.cpp:157] Top shape: 1 128 2 2 (512)
I1002 14:46:00.085882  8584 net.cpp:165] Memory required for data: 468457120
I1002 14:46:00.085885  8584 layer_factory.hpp:77] Creating layer ssd4_2
I1002 14:46:00.085889  8584 net.cpp:100] Creating Layer ssd4_2
I1002 14:46:00.085892  8584 net.cpp:434] ssd4_2 <- ssd4_1
I1002 14:46:00.085896  8584 net.cpp:408] ssd4_2 -> ssd4_2
I1002 14:46:00.088627  8584 net.cpp:150] Setting up ssd4_2
I1002 14:46:00.088635  8584 net.cpp:157] Top shape: 1 256 1 1 (256)
I1002 14:46:00.088637  8584 net.cpp:165] Memory required for data: 468458144
I1002 14:46:00.088641  8584 layer_factory.hpp:77] Creating layer ssd4_2_relu
I1002 14:46:00.088645  8584 net.cpp:100] Creating Layer ssd4_2_relu
I1002 14:46:00.088649  8584 net.cpp:434] ssd4_2_relu <- ssd4_2
I1002 14:46:00.088654  8584 net.cpp:395] ssd4_2_relu -> ssd4_2 (in-place)
I1002 14:46:00.088948  8584 net.cpp:150] Setting up ssd4_2_relu
I1002 14:46:00.088953  8584 net.cpp:157] Top shape: 1 256 1 1 (256)
I1002 14:46:00.088955  8584 net.cpp:165] Memory required for data: 468459168
I1002 14:46:00.088958  8584 layer_factory.hpp:77] Creating layer ssd4_2_ssd4_2_relu_0_split
I1002 14:46:00.088961  8584 net.cpp:100] Creating Layer ssd4_2_ssd4_2_relu_0_split
I1002 14:46:00.088963  8584 net.cpp:434] ssd4_2_ssd4_2_relu_0_split <- ssd4_2
I1002 14:46:00.088968  8584 net.cpp:408] ssd4_2_ssd4_2_relu_0_split -> ssd4_2_ssd4_2_relu_0_split_0
I1002 14:46:00.088973  8584 net.cpp:408] ssd4_2_ssd4_2_relu_0_split -> ssd4_2_ssd4_2_relu_0_split_1
I1002 14:46:00.088975  8584 net.cpp:408] ssd4_2_ssd4_2_relu_0_split -> ssd4_2_ssd4_2_relu_0_split_2
I1002 14:46:00.089010  8584 net.cpp:150] Setting up ssd4_2_ssd4_2_relu_0_split
I1002 14:46:00.089015  8584 net.cpp:157] Top shape: 1 256 1 1 (256)
I1002 14:46:00.089018  8584 net.cpp:157] Top shape: 1 256 1 1 (256)
I1002 14:46:00.089020  8584 net.cpp:157] Top shape: 1 256 1 1 (256)
I1002 14:46:00.089022  8584 net.cpp:165] Memory required for data: 468462240
I1002 14:46:00.089023  8584 layer_factory.hpp:77] Creating layer conv5_3/expand_mbox_loc
I1002 14:46:00.089030  8584 net.cpp:100] Creating Layer conv5_3/expand_mbox_loc
I1002 14:46:00.089032  8584 net.cpp:434] conv5_3/expand_mbox_loc <- conv5_3/expand_relu5_3/expand_0_split_1
I1002 14:46:00.089036  8584 net.cpp:408] conv5_3/expand_mbox_loc -> conv5_3/expand_mbox_loc
I1002 14:46:00.090451  8584 net.cpp:150] Setting up conv5_3/expand_mbox_loc
I1002 14:46:00.090459  8584 net.cpp:157] Top shape: 1 8 19 32 (4864)
I1002 14:46:00.090461  8584 net.cpp:165] Memory required for data: 468481696
I1002 14:46:00.090466  8584 layer_factory.hpp:77] Creating layer conv5_3/expand_mbox_loc_perm
I1002 14:46:00.090471  8584 net.cpp:100] Creating Layer conv5_3/expand_mbox_loc_perm
I1002 14:46:00.090476  8584 net.cpp:434] conv5_3/expand_mbox_loc_perm <- conv5_3/expand_mbox_loc
I1002 14:46:00.090479  8584 net.cpp:408] conv5_3/expand_mbox_loc_perm -> conv5_3/expand_mbox_loc_perm
I1002 14:46:00.090548  8584 net.cpp:150] Setting up conv5_3/expand_mbox_loc_perm
I1002 14:46:00.090553  8584 net.cpp:157] Top shape: 1 19 32 8 (4864)
I1002 14:46:00.090554  8584 net.cpp:165] Memory required for data: 468501152
I1002 14:46:00.090555  8584 layer_factory.hpp:77] Creating layer conv5_3/expand_mbox_loc_flat
I1002 14:46:00.090560  8584 net.cpp:100] Creating Layer conv5_3/expand_mbox_loc_flat
I1002 14:46:00.090564  8584 net.cpp:434] conv5_3/expand_mbox_loc_flat <- conv5_3/expand_mbox_loc_perm
I1002 14:46:00.090579  8584 net.cpp:408] conv5_3/expand_mbox_loc_flat -> conv5_3/expand_mbox_loc_flat
I1002 14:46:00.090593  8584 net.cpp:150] Setting up conv5_3/expand_mbox_loc_flat
I1002 14:46:00.090596  8584 net.cpp:157] Top shape: 1 4864 (4864)
I1002 14:46:00.090598  8584 net.cpp:165] Memory required for data: 468520608
I1002 14:46:00.090600  8584 layer_factory.hpp:77] Creating layer conv5_3/expand_mbox_conf
I1002 14:46:00.090606  8584 net.cpp:100] Creating Layer conv5_3/expand_mbox_conf
I1002 14:46:00.090610  8584 net.cpp:434] conv5_3/expand_mbox_conf <- conv5_3/expand_relu5_3/expand_0_split_2
I1002 14:46:00.090613  8584 net.cpp:408] conv5_3/expand_mbox_conf -> conv5_3/expand_mbox_conf
I1002 14:46:00.092157  8584 net.cpp:150] Setting up conv5_3/expand_mbox_conf
I1002 14:46:00.092164  8584 net.cpp:157] Top shape: 1 10 19 32 (6080)
I1002 14:46:00.092167  8584 net.cpp:165] Memory required for data: 468544928
I1002 14:46:00.092171  8584 layer_factory.hpp:77] Creating layer conv5_3/expand_mbox_conf_perm
I1002 14:46:00.092176  8584 net.cpp:100] Creating Layer conv5_3/expand_mbox_conf_perm
I1002 14:46:00.092180  8584 net.cpp:434] conv5_3/expand_mbox_conf_perm <- conv5_3/expand_mbox_conf
I1002 14:46:00.092182  8584 net.cpp:408] conv5_3/expand_mbox_conf_perm -> conv5_3/expand_mbox_conf_perm
I1002 14:46:00.092252  8584 net.cpp:150] Setting up conv5_3/expand_mbox_conf_perm
I1002 14:46:00.092255  8584 net.cpp:157] Top shape: 1 19 32 10 (6080)
I1002 14:46:00.092257  8584 net.cpp:165] Memory required for data: 468569248
I1002 14:46:00.092259  8584 layer_factory.hpp:77] Creating layer conv5_3/expand_mbox_conf_flat
I1002 14:46:00.092263  8584 net.cpp:100] Creating Layer conv5_3/expand_mbox_conf_flat
I1002 14:46:00.092265  8584 net.cpp:434] conv5_3/expand_mbox_conf_flat <- conv5_3/expand_mbox_conf_perm
I1002 14:46:00.092269  8584 net.cpp:408] conv5_3/expand_mbox_conf_flat -> conv5_3/expand_mbox_conf_flat
I1002 14:46:00.092294  8584 net.cpp:150] Setting up conv5_3/expand_mbox_conf_flat
I1002 14:46:00.092298  8584 net.cpp:157] Top shape: 1 6080 (6080)
I1002 14:46:00.092301  8584 net.cpp:165] Memory required for data: 468593568
I1002 14:46:00.092303  8584 layer_factory.hpp:77] Creating layer conv5_3/expand_mbox_priorbox
I1002 14:46:00.092306  8584 net.cpp:100] Creating Layer conv5_3/expand_mbox_priorbox
I1002 14:46:00.092308  8584 net.cpp:434] conv5_3/expand_mbox_priorbox <- conv5_3/expand_relu5_3/expand_0_split_3
I1002 14:46:00.092312  8584 net.cpp:434] conv5_3/expand_mbox_priorbox <- data_data_0_split_1
I1002 14:46:00.092316  8584 net.cpp:408] conv5_3/expand_mbox_priorbox -> conv5_3/expand_mbox_priorbox
I1002 14:46:00.092332  8584 net.cpp:150] Setting up conv5_3/expand_mbox_priorbox
I1002 14:46:00.092336  8584 net.cpp:157] Top shape: 1 2 4864 (9728)
I1002 14:46:00.092339  8584 net.cpp:165] Memory required for data: 468632480
I1002 14:46:00.092340  8584 layer_factory.hpp:77] Creating layer conv6_4_mbox_loc
I1002 14:46:00.092345  8584 net.cpp:100] Creating Layer conv6_4_mbox_loc
I1002 14:46:00.092348  8584 net.cpp:434] conv6_4_mbox_loc <- conv6_4_relu6_4_0_split_1
I1002 14:46:00.092351  8584 net.cpp:408] conv6_4_mbox_loc -> conv6_4_mbox_loc
I1002 14:46:00.093915  8584 net.cpp:150] Setting up conv6_4_mbox_loc
I1002 14:46:00.093924  8584 net.cpp:157] Top shape: 1 8 10 16 (1280)
I1002 14:46:00.093924  8584 net.cpp:165] Memory required for data: 468637600
I1002 14:46:00.093930  8584 layer_factory.hpp:77] Creating layer conv6_4_mbox_loc_perm
I1002 14:46:00.093935  8584 net.cpp:100] Creating Layer conv6_4_mbox_loc_perm
I1002 14:46:00.093937  8584 net.cpp:434] conv6_4_mbox_loc_perm <- conv6_4_mbox_loc
I1002 14:46:00.093942  8584 net.cpp:408] conv6_4_mbox_loc_perm -> conv6_4_mbox_loc_perm
I1002 14:46:00.094010  8584 net.cpp:150] Setting up conv6_4_mbox_loc_perm
I1002 14:46:00.094014  8584 net.cpp:157] Top shape: 1 10 16 8 (1280)
I1002 14:46:00.094017  8584 net.cpp:165] Memory required for data: 468642720
I1002 14:46:00.094018  8584 layer_factory.hpp:77] Creating layer conv6_4_mbox_loc_flat
I1002 14:46:00.094022  8584 net.cpp:100] Creating Layer conv6_4_mbox_loc_flat
I1002 14:46:00.094032  8584 net.cpp:434] conv6_4_mbox_loc_flat <- conv6_4_mbox_loc_perm
I1002 14:46:00.094035  8584 net.cpp:408] conv6_4_mbox_loc_flat -> conv6_4_mbox_loc_flat
I1002 14:46:00.094050  8584 net.cpp:150] Setting up conv6_4_mbox_loc_flat
I1002 14:46:00.094055  8584 net.cpp:157] Top shape: 1 1280 (1280)
I1002 14:46:00.094058  8584 net.cpp:165] Memory required for data: 468647840
I1002 14:46:00.094059  8584 layer_factory.hpp:77] Creating layer conv6_4_mbox_conf
I1002 14:46:00.094064  8584 net.cpp:100] Creating Layer conv6_4_mbox_conf
I1002 14:46:00.094067  8584 net.cpp:434] conv6_4_mbox_conf <- conv6_4_relu6_4_0_split_2
I1002 14:46:00.094071  8584 net.cpp:408] conv6_4_mbox_conf -> conv6_4_mbox_conf
I1002 14:46:00.095713  8584 net.cpp:150] Setting up conv6_4_mbox_conf
I1002 14:46:00.095721  8584 net.cpp:157] Top shape: 1 10 10 16 (1600)
I1002 14:46:00.095723  8584 net.cpp:165] Memory required for data: 468654240
I1002 14:46:00.095727  8584 layer_factory.hpp:77] Creating layer conv6_4_mbox_conf_perm
I1002 14:46:00.095731  8584 net.cpp:100] Creating Layer conv6_4_mbox_conf_perm
I1002 14:46:00.095734  8584 net.cpp:434] conv6_4_mbox_conf_perm <- conv6_4_mbox_conf
I1002 14:46:00.095739  8584 net.cpp:408] conv6_4_mbox_conf_perm -> conv6_4_mbox_conf_perm
I1002 14:46:00.095809  8584 net.cpp:150] Setting up conv6_4_mbox_conf_perm
I1002 14:46:00.095813  8584 net.cpp:157] Top shape: 1 10 16 10 (1600)
I1002 14:46:00.095815  8584 net.cpp:165] Memory required for data: 468660640
I1002 14:46:00.095818  8584 layer_factory.hpp:77] Creating layer conv6_4_mbox_conf_flat
I1002 14:46:00.095821  8584 net.cpp:100] Creating Layer conv6_4_mbox_conf_flat
I1002 14:46:00.095824  8584 net.cpp:434] conv6_4_mbox_conf_flat <- conv6_4_mbox_conf_perm
I1002 14:46:00.095826  8584 net.cpp:408] conv6_4_mbox_conf_flat -> conv6_4_mbox_conf_flat
I1002 14:46:00.095842  8584 net.cpp:150] Setting up conv6_4_mbox_conf_flat
I1002 14:46:00.095845  8584 net.cpp:157] Top shape: 1 1600 (1600)
I1002 14:46:00.095847  8584 net.cpp:165] Memory required for data: 468667040
I1002 14:46:00.095849  8584 layer_factory.hpp:77] Creating layer conv6_4_mbox_priorbox
I1002 14:46:00.095852  8584 net.cpp:100] Creating Layer conv6_4_mbox_priorbox
I1002 14:46:00.095854  8584 net.cpp:434] conv6_4_mbox_priorbox <- conv6_4_relu6_4_0_split_3
I1002 14:46:00.095857  8584 net.cpp:434] conv6_4_mbox_priorbox <- data_data_0_split_2
I1002 14:46:00.095861  8584 net.cpp:408] conv6_4_mbox_priorbox -> conv6_4_mbox_priorbox
I1002 14:46:00.095877  8584 net.cpp:150] Setting up conv6_4_mbox_priorbox
I1002 14:46:00.095881  8584 net.cpp:157] Top shape: 1 2 1280 (2560)
I1002 14:46:00.095882  8584 net.cpp:165] Memory required for data: 468677280
I1002 14:46:00.095885  8584 layer_factory.hpp:77] Creating layer ssd1_2_mbox_loc
I1002 14:46:00.095890  8584 net.cpp:100] Creating Layer ssd1_2_mbox_loc
I1002 14:46:00.095892  8584 net.cpp:434] ssd1_2_mbox_loc <- ssd1_2_ssd1_2_relu_0_split_1
I1002 14:46:00.095897  8584 net.cpp:408] ssd1_2_mbox_loc -> ssd1_2_mbox_loc
I1002 14:46:00.097273  8584 net.cpp:150] Setting up ssd1_2_mbox_loc
I1002 14:46:00.097281  8584 net.cpp:157] Top shape: 1 8 5 8 (320)
I1002 14:46:00.097283  8584 net.cpp:165] Memory required for data: 468678560
I1002 14:46:00.097287  8584 layer_factory.hpp:77] Creating layer ssd1_2_mbox_loc_perm
I1002 14:46:00.097293  8584 net.cpp:100] Creating Layer ssd1_2_mbox_loc_perm
I1002 14:46:00.097296  8584 net.cpp:434] ssd1_2_mbox_loc_perm <- ssd1_2_mbox_loc
I1002 14:46:00.097301  8584 net.cpp:408] ssd1_2_mbox_loc_perm -> ssd1_2_mbox_loc_perm
I1002 14:46:00.097369  8584 net.cpp:150] Setting up ssd1_2_mbox_loc_perm
I1002 14:46:00.097373  8584 net.cpp:157] Top shape: 1 5 8 8 (320)
I1002 14:46:00.097376  8584 net.cpp:165] Memory required for data: 468679840
I1002 14:46:00.097378  8584 layer_factory.hpp:77] Creating layer ssd1_2_mbox_loc_flat
I1002 14:46:00.097380  8584 net.cpp:100] Creating Layer ssd1_2_mbox_loc_flat
I1002 14:46:00.097383  8584 net.cpp:434] ssd1_2_mbox_loc_flat <- ssd1_2_mbox_loc_perm
I1002 14:46:00.097386  8584 net.cpp:408] ssd1_2_mbox_loc_flat -> ssd1_2_mbox_loc_flat
I1002 14:46:00.097410  8584 net.cpp:150] Setting up ssd1_2_mbox_loc_flat
I1002 14:46:00.097414  8584 net.cpp:157] Top shape: 1 320 (320)
I1002 14:46:00.097416  8584 net.cpp:165] Memory required for data: 468681120
I1002 14:46:00.097419  8584 layer_factory.hpp:77] Creating layer ssd1_2_mbox_conf
I1002 14:46:00.097442  8584 net.cpp:100] Creating Layer ssd1_2_mbox_conf
I1002 14:46:00.097445  8584 net.cpp:434] ssd1_2_mbox_conf <- ssd1_2_ssd1_2_relu_0_split_2
I1002 14:46:00.097448  8584 net.cpp:408] ssd1_2_mbox_conf -> ssd1_2_mbox_conf
I1002 14:46:00.098843  8584 net.cpp:150] Setting up ssd1_2_mbox_conf
I1002 14:46:00.098851  8584 net.cpp:157] Top shape: 1 10 5 8 (400)
I1002 14:46:00.098853  8584 net.cpp:165] Memory required for data: 468682720
I1002 14:46:00.098857  8584 layer_factory.hpp:77] Creating layer ssd1_2_mbox_conf_perm
I1002 14:46:00.098862  8584 net.cpp:100] Creating Layer ssd1_2_mbox_conf_perm
I1002 14:46:00.098865  8584 net.cpp:434] ssd1_2_mbox_conf_perm <- ssd1_2_mbox_conf
I1002 14:46:00.098870  8584 net.cpp:408] ssd1_2_mbox_conf_perm -> ssd1_2_mbox_conf_perm
I1002 14:46:00.098939  8584 net.cpp:150] Setting up ssd1_2_mbox_conf_perm
I1002 14:46:00.098943  8584 net.cpp:157] Top shape: 1 5 8 10 (400)
I1002 14:46:00.098945  8584 net.cpp:165] Memory required for data: 468684320
I1002 14:46:00.098948  8584 layer_factory.hpp:77] Creating layer ssd1_2_mbox_conf_flat
I1002 14:46:00.098951  8584 net.cpp:100] Creating Layer ssd1_2_mbox_conf_flat
I1002 14:46:00.098954  8584 net.cpp:434] ssd1_2_mbox_conf_flat <- ssd1_2_mbox_conf_perm
I1002 14:46:00.098958  8584 net.cpp:408] ssd1_2_mbox_conf_flat -> ssd1_2_mbox_conf_flat
I1002 14:46:00.098973  8584 net.cpp:150] Setting up ssd1_2_mbox_conf_flat
I1002 14:46:00.098976  8584 net.cpp:157] Top shape: 1 400 (400)
I1002 14:46:00.098979  8584 net.cpp:165] Memory required for data: 468685920
I1002 14:46:00.098980  8584 layer_factory.hpp:77] Creating layer ssd1_2_mbox_priorbox
I1002 14:46:00.098984  8584 net.cpp:100] Creating Layer ssd1_2_mbox_priorbox
I1002 14:46:00.098987  8584 net.cpp:434] ssd1_2_mbox_priorbox <- ssd1_2_ssd1_2_relu_0_split_3
I1002 14:46:00.098990  8584 net.cpp:434] ssd1_2_mbox_priorbox <- data_data_0_split_3
I1002 14:46:00.098994  8584 net.cpp:408] ssd1_2_mbox_priorbox -> ssd1_2_mbox_priorbox
I1002 14:46:00.099009  8584 net.cpp:150] Setting up ssd1_2_mbox_priorbox
I1002 14:46:00.099014  8584 net.cpp:157] Top shape: 1 2 320 (640)
I1002 14:46:00.099015  8584 net.cpp:165] Memory required for data: 468688480
I1002 14:46:00.099017  8584 layer_factory.hpp:77] Creating layer ssd2_2_mbox_loc
I1002 14:46:00.099022  8584 net.cpp:100] Creating Layer ssd2_2_mbox_loc
I1002 14:46:00.099025  8584 net.cpp:434] ssd2_2_mbox_loc <- ssd2_2_ssd2_2_relu_0_split_1
I1002 14:46:00.099030  8584 net.cpp:408] ssd2_2_mbox_loc -> ssd2_2_mbox_loc
I1002 14:46:00.100333  8584 net.cpp:150] Setting up ssd2_2_mbox_loc
I1002 14:46:00.100340  8584 net.cpp:157] Top shape: 1 8 3 4 (96)
I1002 14:46:00.100342  8584 net.cpp:165] Memory required for data: 468688864
I1002 14:46:00.100347  8584 layer_factory.hpp:77] Creating layer ssd2_2_mbox_loc_perm
I1002 14:46:00.100352  8584 net.cpp:100] Creating Layer ssd2_2_mbox_loc_perm
I1002 14:46:00.100354  8584 net.cpp:434] ssd2_2_mbox_loc_perm <- ssd2_2_mbox_loc
I1002 14:46:00.100358  8584 net.cpp:408] ssd2_2_mbox_loc_perm -> ssd2_2_mbox_loc_perm
I1002 14:46:00.100425  8584 net.cpp:150] Setting up ssd2_2_mbox_loc_perm
I1002 14:46:00.100428  8584 net.cpp:157] Top shape: 1 3 4 8 (96)
I1002 14:46:00.100430  8584 net.cpp:165] Memory required for data: 468689248
I1002 14:46:00.100432  8584 layer_factory.hpp:77] Creating layer ssd2_2_mbox_loc_flat
I1002 14:46:00.100436  8584 net.cpp:100] Creating Layer ssd2_2_mbox_loc_flat
I1002 14:46:00.100438  8584 net.cpp:434] ssd2_2_mbox_loc_flat <- ssd2_2_mbox_loc_perm
I1002 14:46:00.100441  8584 net.cpp:408] ssd2_2_mbox_loc_flat -> ssd2_2_mbox_loc_flat
I1002 14:46:00.100456  8584 net.cpp:150] Setting up ssd2_2_mbox_loc_flat
I1002 14:46:00.100461  8584 net.cpp:157] Top shape: 1 96 (96)
I1002 14:46:00.100469  8584 net.cpp:165] Memory required for data: 468689632
I1002 14:46:00.100471  8584 layer_factory.hpp:77] Creating layer ssd2_2_mbox_conf
I1002 14:46:00.100476  8584 net.cpp:100] Creating Layer ssd2_2_mbox_conf
I1002 14:46:00.100479  8584 net.cpp:434] ssd2_2_mbox_conf <- ssd2_2_ssd2_2_relu_0_split_2
I1002 14:46:00.100483  8584 net.cpp:408] ssd2_2_mbox_conf -> ssd2_2_mbox_conf
I1002 14:46:00.101706  8584 net.cpp:150] Setting up ssd2_2_mbox_conf
I1002 14:46:00.101713  8584 net.cpp:157] Top shape: 1 10 3 4 (120)
I1002 14:46:00.101716  8584 net.cpp:165] Memory required for data: 468690112
I1002 14:46:00.101719  8584 layer_factory.hpp:77] Creating layer ssd2_2_mbox_conf_perm
I1002 14:46:00.101724  8584 net.cpp:100] Creating Layer ssd2_2_mbox_conf_perm
I1002 14:46:00.101727  8584 net.cpp:434] ssd2_2_mbox_conf_perm <- ssd2_2_mbox_conf
I1002 14:46:00.101732  8584 net.cpp:408] ssd2_2_mbox_conf_perm -> ssd2_2_mbox_conf_perm
I1002 14:46:00.101796  8584 net.cpp:150] Setting up ssd2_2_mbox_conf_perm
I1002 14:46:00.101800  8584 net.cpp:157] Top shape: 1 3 4 10 (120)
I1002 14:46:00.101802  8584 net.cpp:165] Memory required for data: 468690592
I1002 14:46:00.101804  8584 layer_factory.hpp:77] Creating layer ssd2_2_mbox_conf_flat
I1002 14:46:00.101809  8584 net.cpp:100] Creating Layer ssd2_2_mbox_conf_flat
I1002 14:46:00.101810  8584 net.cpp:434] ssd2_2_mbox_conf_flat <- ssd2_2_mbox_conf_perm
I1002 14:46:00.101814  8584 net.cpp:408] ssd2_2_mbox_conf_flat -> ssd2_2_mbox_conf_flat
I1002 14:46:00.101828  8584 net.cpp:150] Setting up ssd2_2_mbox_conf_flat
I1002 14:46:00.101832  8584 net.cpp:157] Top shape: 1 120 (120)
I1002 14:46:00.101833  8584 net.cpp:165] Memory required for data: 468691072
I1002 14:46:00.101835  8584 layer_factory.hpp:77] Creating layer ssd2_2_mbox_priorbox
I1002 14:46:00.101840  8584 net.cpp:100] Creating Layer ssd2_2_mbox_priorbox
I1002 14:46:00.101842  8584 net.cpp:434] ssd2_2_mbox_priorbox <- ssd2_2_ssd2_2_relu_0_split_3
I1002 14:46:00.101845  8584 net.cpp:434] ssd2_2_mbox_priorbox <- data_data_0_split_4
I1002 14:46:00.101848  8584 net.cpp:408] ssd2_2_mbox_priorbox -> ssd2_2_mbox_priorbox
I1002 14:46:00.101864  8584 net.cpp:150] Setting up ssd2_2_mbox_priorbox
I1002 14:46:00.101867  8584 net.cpp:157] Top shape: 1 2 96 (192)
I1002 14:46:00.101868  8584 net.cpp:165] Memory required for data: 468691840
I1002 14:46:00.101871  8584 layer_factory.hpp:77] Creating layer ssd3_2_mbox_loc
I1002 14:46:00.101876  8584 net.cpp:100] Creating Layer ssd3_2_mbox_loc
I1002 14:46:00.101879  8584 net.cpp:434] ssd3_2_mbox_loc <- ssd3_2_ssd3_2_relu_0_split_1
I1002 14:46:00.101882  8584 net.cpp:408] ssd3_2_mbox_loc -> ssd3_2_mbox_loc
I1002 14:46:00.103088  8584 net.cpp:150] Setting up ssd3_2_mbox_loc
I1002 14:46:00.103096  8584 net.cpp:157] Top shape: 1 8 2 2 (32)
I1002 14:46:00.103097  8584 net.cpp:165] Memory required for data: 468691968
I1002 14:46:00.103101  8584 layer_factory.hpp:77] Creating layer ssd3_2_mbox_loc_perm
I1002 14:46:00.103106  8584 net.cpp:100] Creating Layer ssd3_2_mbox_loc_perm
I1002 14:46:00.103108  8584 net.cpp:434] ssd3_2_mbox_loc_perm <- ssd3_2_mbox_loc
I1002 14:46:00.103112  8584 net.cpp:408] ssd3_2_mbox_loc_perm -> ssd3_2_mbox_loc_perm
I1002 14:46:00.103179  8584 net.cpp:150] Setting up ssd3_2_mbox_loc_perm
I1002 14:46:00.103183  8584 net.cpp:157] Top shape: 1 2 2 8 (32)
I1002 14:46:00.103185  8584 net.cpp:165] Memory required for data: 468692096
I1002 14:46:00.103188  8584 layer_factory.hpp:77] Creating layer ssd3_2_mbox_loc_flat
I1002 14:46:00.103191  8584 net.cpp:100] Creating Layer ssd3_2_mbox_loc_flat
I1002 14:46:00.103193  8584 net.cpp:434] ssd3_2_mbox_loc_flat <- ssd3_2_mbox_loc_perm
I1002 14:46:00.103196  8584 net.cpp:408] ssd3_2_mbox_loc_flat -> ssd3_2_mbox_loc_flat
I1002 14:46:00.103211  8584 net.cpp:150] Setting up ssd3_2_mbox_loc_flat
I1002 14:46:00.103214  8584 net.cpp:157] Top shape: 1 32 (32)
I1002 14:46:00.103216  8584 net.cpp:165] Memory required for data: 468692224
I1002 14:46:00.103219  8584 layer_factory.hpp:77] Creating layer ssd3_2_mbox_conf
I1002 14:46:00.103224  8584 net.cpp:100] Creating Layer ssd3_2_mbox_conf
I1002 14:46:00.103236  8584 net.cpp:434] ssd3_2_mbox_conf <- ssd3_2_ssd3_2_relu_0_split_2
I1002 14:46:00.103240  8584 net.cpp:408] ssd3_2_mbox_conf -> ssd3_2_mbox_conf
I1002 14:46:00.104502  8584 net.cpp:150] Setting up ssd3_2_mbox_conf
I1002 14:46:00.104509  8584 net.cpp:157] Top shape: 1 10 2 2 (40)
I1002 14:46:00.104511  8584 net.cpp:165] Memory required for data: 468692384
I1002 14:46:00.104516  8584 layer_factory.hpp:77] Creating layer ssd3_2_mbox_conf_perm
I1002 14:46:00.104521  8584 net.cpp:100] Creating Layer ssd3_2_mbox_conf_perm
I1002 14:46:00.104524  8584 net.cpp:434] ssd3_2_mbox_conf_perm <- ssd3_2_mbox_conf
I1002 14:46:00.104529  8584 net.cpp:408] ssd3_2_mbox_conf_perm -> ssd3_2_mbox_conf_perm
I1002 14:46:00.104595  8584 net.cpp:150] Setting up ssd3_2_mbox_conf_perm
I1002 14:46:00.104600  8584 net.cpp:157] Top shape: 1 2 2 10 (40)
I1002 14:46:00.104602  8584 net.cpp:165] Memory required for data: 468692544
I1002 14:46:00.104604  8584 layer_factory.hpp:77] Creating layer ssd3_2_mbox_conf_flat
I1002 14:46:00.104607  8584 net.cpp:100] Creating Layer ssd3_2_mbox_conf_flat
I1002 14:46:00.104610  8584 net.cpp:434] ssd3_2_mbox_conf_flat <- ssd3_2_mbox_conf_perm
I1002 14:46:00.104614  8584 net.cpp:408] ssd3_2_mbox_conf_flat -> ssd3_2_mbox_conf_flat
I1002 14:46:00.104629  8584 net.cpp:150] Setting up ssd3_2_mbox_conf_flat
I1002 14:46:00.104631  8584 net.cpp:157] Top shape: 1 40 (40)
I1002 14:46:00.104635  8584 net.cpp:165] Memory required for data: 468692704
I1002 14:46:00.104635  8584 layer_factory.hpp:77] Creating layer ssd3_2_mbox_priorbox
I1002 14:46:00.104640  8584 net.cpp:100] Creating Layer ssd3_2_mbox_priorbox
I1002 14:46:00.104642  8584 net.cpp:434] ssd3_2_mbox_priorbox <- ssd3_2_ssd3_2_relu_0_split_3
I1002 14:46:00.104645  8584 net.cpp:434] ssd3_2_mbox_priorbox <- data_data_0_split_5
I1002 14:46:00.104650  8584 net.cpp:408] ssd3_2_mbox_priorbox -> ssd3_2_mbox_priorbox
I1002 14:46:00.104666  8584 net.cpp:150] Setting up ssd3_2_mbox_priorbox
I1002 14:46:00.104671  8584 net.cpp:157] Top shape: 1 2 32 (64)
I1002 14:46:00.104672  8584 net.cpp:165] Memory required for data: 468692960
I1002 14:46:00.104674  8584 layer_factory.hpp:77] Creating layer ssd4_2_mbox_loc
I1002 14:46:00.104681  8584 net.cpp:100] Creating Layer ssd4_2_mbox_loc
I1002 14:46:00.104683  8584 net.cpp:434] ssd4_2_mbox_loc <- ssd4_2_ssd4_2_relu_0_split_0
I1002 14:46:00.104686  8584 net.cpp:408] ssd4_2_mbox_loc -> ssd4_2_mbox_loc
I1002 14:46:00.105919  8584 net.cpp:150] Setting up ssd4_2_mbox_loc
I1002 14:46:00.105926  8584 net.cpp:157] Top shape: 1 8 1 1 (8)
I1002 14:46:00.105927  8584 net.cpp:165] Memory required for data: 468692992
I1002 14:46:00.105932  8584 layer_factory.hpp:77] Creating layer ssd4_2_mbox_loc_perm
I1002 14:46:00.105937  8584 net.cpp:100] Creating Layer ssd4_2_mbox_loc_perm
I1002 14:46:00.105940  8584 net.cpp:434] ssd4_2_mbox_loc_perm <- ssd4_2_mbox_loc
I1002 14:46:00.105943  8584 net.cpp:408] ssd4_2_mbox_loc_perm -> ssd4_2_mbox_loc_perm
I1002 14:46:00.106010  8584 net.cpp:150] Setting up ssd4_2_mbox_loc_perm
I1002 14:46:00.106014  8584 net.cpp:157] Top shape: 1 1 1 8 (8)
I1002 14:46:00.106016  8584 net.cpp:165] Memory required for data: 468693024
I1002 14:46:00.106017  8584 layer_factory.hpp:77] Creating layer ssd4_2_mbox_loc_flat
I1002 14:46:00.106021  8584 net.cpp:100] Creating Layer ssd4_2_mbox_loc_flat
I1002 14:46:00.106024  8584 net.cpp:434] ssd4_2_mbox_loc_flat <- ssd4_2_mbox_loc_perm
I1002 14:46:00.106027  8584 net.cpp:408] ssd4_2_mbox_loc_flat -> ssd4_2_mbox_loc_flat
I1002 14:46:00.106042  8584 net.cpp:150] Setting up ssd4_2_mbox_loc_flat
I1002 14:46:00.106045  8584 net.cpp:157] Top shape: 1 8 (8)
I1002 14:46:00.106047  8584 net.cpp:165] Memory required for data: 468693056
I1002 14:46:00.106048  8584 layer_factory.hpp:77] Creating layer ssd4_2_mbox_conf
I1002 14:46:00.106053  8584 net.cpp:100] Creating Layer ssd4_2_mbox_conf
I1002 14:46:00.106056  8584 net.cpp:434] ssd4_2_mbox_conf <- ssd4_2_ssd4_2_relu_0_split_1
I1002 14:46:00.106060  8584 net.cpp:408] ssd4_2_mbox_conf -> ssd4_2_mbox_conf
I1002 14:46:00.107446  8584 net.cpp:150] Setting up ssd4_2_mbox_conf
I1002 14:46:00.107455  8584 net.cpp:157] Top shape: 1 10 1 1 (10)
I1002 14:46:00.107457  8584 net.cpp:165] Memory required for data: 468693096
I1002 14:46:00.107461  8584 layer_factory.hpp:77] Creating layer ssd4_2_mbox_conf_perm
I1002 14:46:00.107467  8584 net.cpp:100] Creating Layer ssd4_2_mbox_conf_perm
I1002 14:46:00.107471  8584 net.cpp:434] ssd4_2_mbox_conf_perm <- ssd4_2_mbox_conf
I1002 14:46:00.107475  8584 net.cpp:408] ssd4_2_mbox_conf_perm -> ssd4_2_mbox_conf_perm
I1002 14:46:00.107542  8584 net.cpp:150] Setting up ssd4_2_mbox_conf_perm
I1002 14:46:00.107547  8584 net.cpp:157] Top shape: 1 1 1 10 (10)
I1002 14:46:00.107548  8584 net.cpp:165] Memory required for data: 468693136
I1002 14:46:00.107551  8584 layer_factory.hpp:77] Creating layer ssd4_2_mbox_conf_flat
I1002 14:46:00.107554  8584 net.cpp:100] Creating Layer ssd4_2_mbox_conf_flat
I1002 14:46:00.107556  8584 net.cpp:434] ssd4_2_mbox_conf_flat <- ssd4_2_mbox_conf_perm
I1002 14:46:00.107561  8584 net.cpp:408] ssd4_2_mbox_conf_flat -> ssd4_2_mbox_conf_flat
I1002 14:46:00.107576  8584 net.cpp:150] Setting up ssd4_2_mbox_conf_flat
I1002 14:46:00.107580  8584 net.cpp:157] Top shape: 1 10 (10)
I1002 14:46:00.107583  8584 net.cpp:165] Memory required for data: 468693176
I1002 14:46:00.107584  8584 layer_factory.hpp:77] Creating layer ssd4_2_mbox_priorbox
I1002 14:46:00.107587  8584 net.cpp:100] Creating Layer ssd4_2_mbox_priorbox
I1002 14:46:00.107590  8584 net.cpp:434] ssd4_2_mbox_priorbox <- ssd4_2_ssd4_2_relu_0_split_2
I1002 14:46:00.107594  8584 net.cpp:434] ssd4_2_mbox_priorbox <- data_data_0_split_6
I1002 14:46:00.107596  8584 net.cpp:408] ssd4_2_mbox_priorbox -> ssd4_2_mbox_priorbox
I1002 14:46:00.107614  8584 net.cpp:150] Setting up ssd4_2_mbox_priorbox
I1002 14:46:00.107617  8584 net.cpp:157] Top shape: 1 2 8 (16)
I1002 14:46:00.107620  8584 net.cpp:165] Memory required for data: 468693240
I1002 14:46:00.107620  8584 layer_factory.hpp:77] Creating layer mbox_loc
I1002 14:46:00.107625  8584 net.cpp:100] Creating Layer mbox_loc
I1002 14:46:00.107627  8584 net.cpp:434] mbox_loc <- conv5_3/expand_mbox_loc_flat
I1002 14:46:00.107631  8584 net.cpp:434] mbox_loc <- conv6_4_mbox_loc_flat
I1002 14:46:00.107635  8584 net.cpp:434] mbox_loc <- ssd1_2_mbox_loc_flat
I1002 14:46:00.107638  8584 net.cpp:434] mbox_loc <- ssd2_2_mbox_loc_flat
I1002 14:46:00.107640  8584 net.cpp:434] mbox_loc <- ssd3_2_mbox_loc_flat
I1002 14:46:00.107643  8584 net.cpp:434] mbox_loc <- ssd4_2_mbox_loc_flat
I1002 14:46:00.107647  8584 net.cpp:408] mbox_loc -> mbox_loc
I1002 14:46:00.107663  8584 net.cpp:150] Setting up mbox_loc
I1002 14:46:00.107666  8584 net.cpp:157] Top shape: 1 6600 (6600)
I1002 14:46:00.107668  8584 net.cpp:165] Memory required for data: 468719640
I1002 14:46:00.107671  8584 layer_factory.hpp:77] Creating layer mbox_conf
I1002 14:46:00.107673  8584 net.cpp:100] Creating Layer mbox_conf
I1002 14:46:00.107676  8584 net.cpp:434] mbox_conf <- conv5_3/expand_mbox_conf_flat
I1002 14:46:00.107678  8584 net.cpp:434] mbox_conf <- conv6_4_mbox_conf_flat
I1002 14:46:00.107681  8584 net.cpp:434] mbox_conf <- ssd1_2_mbox_conf_flat
I1002 14:46:00.107684  8584 net.cpp:434] mbox_conf <- ssd2_2_mbox_conf_flat
I1002 14:46:00.107686  8584 net.cpp:434] mbox_conf <- ssd3_2_mbox_conf_flat
I1002 14:46:00.107688  8584 net.cpp:434] mbox_conf <- ssd4_2_mbox_conf_flat
I1002 14:46:00.107692  8584 net.cpp:408] mbox_conf -> mbox_conf
I1002 14:46:00.107707  8584 net.cpp:150] Setting up mbox_conf
I1002 14:46:00.107710  8584 net.cpp:157] Top shape: 1 8250 (8250)
I1002 14:46:00.107712  8584 net.cpp:165] Memory required for data: 468752640
I1002 14:46:00.107713  8584 layer_factory.hpp:77] Creating layer mbox_priorbox
I1002 14:46:00.107717  8584 net.cpp:100] Creating Layer mbox_priorbox
I1002 14:46:00.107718  8584 net.cpp:434] mbox_priorbox <- conv5_3/expand_mbox_priorbox
I1002 14:46:00.107722  8584 net.cpp:434] mbox_priorbox <- conv6_4_mbox_priorbox
I1002 14:46:00.107723  8584 net.cpp:434] mbox_priorbox <- ssd1_2_mbox_priorbox
I1002 14:46:00.107734  8584 net.cpp:434] mbox_priorbox <- ssd2_2_mbox_priorbox
I1002 14:46:00.107738  8584 net.cpp:434] mbox_priorbox <- ssd3_2_mbox_priorbox
I1002 14:46:00.107739  8584 net.cpp:434] mbox_priorbox <- ssd4_2_mbox_priorbox
I1002 14:46:00.107743  8584 net.cpp:408] mbox_priorbox -> mbox_priorbox
I1002 14:46:00.107759  8584 net.cpp:150] Setting up mbox_priorbox
I1002 14:46:00.107762  8584 net.cpp:157] Top shape: 1 2 6600 (13200)
I1002 14:46:00.107765  8584 net.cpp:165] Memory required for data: 468805440
I1002 14:46:00.107766  8584 layer_factory.hpp:77] Creating layer mbox_conf_reshape
I1002 14:46:00.107770  8584 net.cpp:100] Creating Layer mbox_conf_reshape
I1002 14:46:00.107774  8584 net.cpp:434] mbox_conf_reshape <- mbox_conf
I1002 14:46:00.107776  8584 net.cpp:408] mbox_conf_reshape -> mbox_conf_reshape
I1002 14:46:00.107796  8584 net.cpp:150] Setting up mbox_conf_reshape
I1002 14:46:00.107800  8584 net.cpp:157] Top shape: 1 1650 5 (8250)
I1002 14:46:00.107802  8584 net.cpp:165] Memory required for data: 468838440
I1002 14:46:00.107803  8584 layer_factory.hpp:77] Creating layer mbox_conf_softmax
I1002 14:46:00.107807  8584 net.cpp:100] Creating Layer mbox_conf_softmax
I1002 14:46:00.107810  8584 net.cpp:434] mbox_conf_softmax <- mbox_conf_reshape
I1002 14:46:00.107813  8584 net.cpp:408] mbox_conf_softmax -> mbox_conf_softmax
I1002 14:46:00.108151  8584 net.cpp:150] Setting up mbox_conf_softmax
I1002 14:46:00.108157  8584 net.cpp:157] Top shape: 1 1650 5 (8250)
I1002 14:46:00.108160  8584 net.cpp:165] Memory required for data: 468871440
I1002 14:46:00.108161  8584 layer_factory.hpp:77] Creating layer mbox_conf_flatten
I1002 14:46:00.108165  8584 net.cpp:100] Creating Layer mbox_conf_flatten
I1002 14:46:00.108167  8584 net.cpp:434] mbox_conf_flatten <- mbox_conf_softmax
I1002 14:46:00.108171  8584 net.cpp:408] mbox_conf_flatten -> mbox_conf_flatten
I1002 14:46:00.108186  8584 net.cpp:150] Setting up mbox_conf_flatten
I1002 14:46:00.108189  8584 net.cpp:157] Top shape: 1 8250 (8250)
I1002 14:46:00.108191  8584 net.cpp:165] Memory required for data: 468904440
I1002 14:46:00.108193  8584 layer_factory.hpp:77] Creating layer detection_out
I1002 14:46:00.108201  8584 net.cpp:100] Creating Layer detection_out
I1002 14:46:00.108203  8584 net.cpp:434] detection_out <- mbox_loc
I1002 14:46:00.108206  8584 net.cpp:434] detection_out <- mbox_conf_flatten
I1002 14:46:00.108209  8584 net.cpp:434] detection_out <- mbox_priorbox
I1002 14:46:00.108212  8584 net.cpp:408] detection_out -> detection_out
W1002 14:46:00.109796  8584 detection_output_layer.cpp:49] Failed to create directory: /home/zhongyilin/Documents/data/GTSDBdevkit/results/GTSDB/SSD_510x300_100_40_6_True_1/Main
I1002 14:46:00.110189  8584 net.cpp:150] Setting up detection_out
I1002 14:46:00.110196  8584 net.cpp:157] Top shape: 1 1 1 7 (7)
I1002 14:46:00.110198  8584 net.cpp:165] Memory required for data: 468904468
I1002 14:46:00.110200  8584 layer_factory.hpp:77] Creating layer detection_eval
I1002 14:46:00.110205  8584 net.cpp:100] Creating Layer detection_eval
I1002 14:46:00.110208  8584 net.cpp:434] detection_eval <- detection_out
I1002 14:46:00.110210  8584 net.cpp:434] detection_eval <- label
I1002 14:46:00.110213  8584 net.cpp:408] detection_eval -> detection_eval
I1002 14:46:00.110289  8584 net.cpp:150] Setting up detection_eval
I1002 14:46:00.110294  8584 net.cpp:157] Top shape: 1 1 5 5 (25)
I1002 14:46:00.110296  8584 net.cpp:165] Memory required for data: 468904568
I1002 14:46:00.110297  8584 net.cpp:228] detection_eval does not need backward computation.
I1002 14:46:00.110299  8584 net.cpp:228] detection_out does not need backward computation.
I1002 14:46:00.110302  8584 net.cpp:228] mbox_conf_flatten does not need backward computation.
I1002 14:46:00.110303  8584 net.cpp:228] mbox_conf_softmax does not need backward computation.
…
