…
      sampler {
        min_scale: 0.3
        max_scale: 1
        min_aspect_ratio: 0.5
        max_aspect_ratio: 2
      }
      sample_constraint {
        min_jaccard_overlap: 0.9
      }
      max_sample: 1
      max_trials: 50
    }
    batch_sampler {
      sampler {
        min_scale: 0.3
        max_scale: 1
        min_aspect_ratio: 0.5
        max_aspect_ratio: 2
      }
      sample_constraint {
        max_jaccard_overlap: 1
      }
      max_sample: 1
      max_trials: 50
    }
    label_map_file: "data/GTSDB/labelmap_GTSDB.prototxt"
  }
}
layer {
  name: "conv1"
  type: "Convolution"
  bottom: "data"
  top: "conv1"
  param {
    lr_mult: 1
    decay_mult: 1
  }
  convolution_param {
    num_output: 32
    bias_term: false
    pad: 1
    kernel_size: 3
    stride: 2
    weight_filler {
      type: "msra"
    }
  }
}
layer {
  name: "conv1/bn"
  type: "BatchNorm"
  bottom: "conv1"
  top: "conv1"
  batch_norm_param {
    use_global_stats: true
    eps: 1e-05
  }
}
layer {
  name: "conv1/scale"
  type: "Scale"
  bottom: "conv1"
  top: "conv1"
  param {
    lr_mult: 1
    decay_mult: 0
  }
  param {
    lr_mult: 1
    decay_mult: 0
  }
  scale_param {
    bias_term: true
  }
}
layer {
  name: "relu1"
  type: "ReLU"
  bottom: "conv1"
  top: "conv1"
}
layer {
  name: "conv2_1/expand"
  type: "Convolution"
  bottom: "conv1"
  top: "conv2_1/expand"
  param {
    lr_mult: 1
    decay_mult: 1
  }
  convolution_param {
    num_output: 32
    bias_term: false
    kernel_size: 1
    weight_filler {
      type: "msra"
    }
  }
}
layer {
  name: "conv2_1/expand/bn"
  type: "BatchNorm"
  bottom: "conv2_1/expand"
  top: "conv2_1/expand"
  batch_norm_param {
    use_global_stats: true
    eps: 1e-05
  }
}
layer {
  name: "conv2_1/expand/scale"
  type: "Scale"
  bottom: "conv2_1/expand"
  top: "conv2_1/expand"
  param {
    lr_mult: 1
    decay_mult: 0
  }
  param {
    lr_mult: 1
    decay_mult: 0
  }
  scale_param {
    bias_term: true
  }
}
layer {
  name: "relu2_1/expand"
  type: "ReLU"
  bottom: "conv2_1/expand"
  top: "conv2_1/expand"
}
layer {
  name: "conv2_1/dwise"
  type: "DepthwiseConvolution"
  bottom: "conv2_1/expand"
  top: "conv2_1/dwise"
  param {
    lr_mult: 1
    decay_mult: 1
  }
  convolution_param {
    num_output: 32
    bias_term: false
    pad: 1
    kernel_size: 3
    group: 32
    stride: 1
    weight_filler {
      type: "msra"
    }
  }
}
layer {
  name: "conv2_1/dwise/bn"
  type: "BatchNorm"
  bottom: "conv2_1/dwise"
  top: "conv2_1/dwise"
  batch_norm_param {
    use_global_stats: true
    eps: 1e-05
  }
}
layer {
  name: "conv2_1/dwise/scale"
  type: "Scale"
  bottom: "conv2_1/dwise"
  top: "conv2_1/dwise"
  param {
    lr_mult: 1
    decay_mult: 0
  }
  param {
    lr_mult: 1
    decay_mult: 0
  }
  scale_param {
    bias_term: true
  }
}
layer {
  name: "relu2_1/dwise"
  type: "ReLU"
  bottom: "conv2_1/dwise"
  top: "conv2_1/dwise"
}
layer {
  name: "conv2_1/linear"
  type: "Convolution"
  bottom: "conv2_1/dwise"
  top: "conv2_1/linear"
  param {
    lr_mult: 1
    decay_mult: 1
  }
  convolution_param {
    num_output: 16
    bias_term: false
    kernel_size: 1
    weight_filler {
      type: "msra"
    }
  }
}
layer {
  name: "conv2_1/linear/bn"
  type: "BatchNorm"
  bottom: "conv2_1/linear"
  top: "conv2_1/linear"
  batch_norm_param {
    use_global_stats: true
    eps: 1e-05
  }
}
layer {
  name: "conv2_1/linear/scale"
  type: "Scale"
  bottom: "conv2_1/linear"
  top: "conv2_1/linear"
  param {
    lr_mult: 1
    decay_mult: 0
  }
  param {
    lr_mult: 1
    decay_mult: 0
  }
  scale_param {
    bias_term: true
  }
}
layer {
  name: "conv2_2/expand"
  type: "Convolution"
  bottom: "conv2_1/linear"
  top: "conv2_2/expand"
  param {
    lr_mult: 1
    decay_mult: 1
  }
  convolution_param {
    num_output: 96
    bias_term: false
    kernel_size: 1
    weight_filler {
      type: "msra"
    }
  }
}
layer {
  name: "conv2_2/expand/bn"
  type: "BatchNorm"
  bottom: "conv2_2/expand"
  top: "conv2_2/expand"
  batch_norm_param {
    use_global_stats: true
    eps: 1e-05
  }
}
layer {
  name: "conv2_2/expand/scale"
  type: "Scale"
  bottom: "conv2_2/expand"
  top: "conv2_2/expand"
  param {
    lr_mult: 1
    decay_mult: 0
  }
  param {
    lr_mult: 1
    decay_mult: 0
  }
  scale_param {
    bias_term: true
  }
}
layer {
  name: "relu2_2/expand"
  type: "ReLU"
  bottom: "conv2_2/expand"
  top: "conv2_2/expand"
}
layer {
  name: "conv2_2/dwise"
  type: "DepthwiseConvolution"
  bottom: "conv2_2/expand"
  top: "conv2_2/dwise"
  param {
    lr_mult: 1
    decay_mult: 1
  }
  convolution_param {
    num_output: 96
    bias_term: false
    pad: 1
    kernel_size: 3
    group: 96
    stride: 2
    weight_filler {
      type: "msra"
    }
  }
}
layer {
  name: "conv2_2/dwise/bn"
  type: "BatchNorm"
  bottom: "conv2_2/dwise"
  top: "conv2_2/dwise"
  batch_norm_param {
    use_global_stats: true
    eps: 1e-05
  }
}
layer {
  name: "conv2_2/dwise/scale"
  type: "Scale"
  bottom: "conv2_2/dwise"
  top: "conv2_2/dwise"
  param {
    lr_mult: 1
    decay_mult: 0
  }
  param {
    lr_mult: 1
    decay_mult: 0
  }
  scale_param {
    bias_term: true
  }
}
layer {
  name: "relu2_2/dwise"
  type: "ReLU"
  bottom: "conv2_2/dwise"
  top: "conv2_2/dwise"
}
layer {
  name: "conv2_2/linear"
  type: "Convolution"
  bottom: "conv2_2/dwise"
  top: "conv2_2/linear"
  param {
    lr_mult: 1
    decay_mult: 1
  }
  convolution_param {
    num_output: 24
    bias_term: false
    kernel_size: 1
    weight_filler {
      type: "msra"
    }
  }
}
layer {
  name: "conv2_2/linear/bn"
  type: "BatchNorm"
  bottom: "conv2_2/linear"
  top: "conv2_2/linear"
  batch_norm_param {
    use_global_stats: true
    eps: 1e-05
  }
}
layer {
  name: "conv2_2/linear/scale"
  type: "Scale"
  bottom: "conv2_2/linear"
  top: "conv2_2/linear"
  param {
    lr_mult: 1
    decay_mult: 0
  }
  param {
    lr_mult: 1
    decay_mult: 0
  }
  scale_param {
    bias_term: true
  }
}
layer {
  name: "conv3_1/expand"
  type: "Convolution"
  bottom: "conv2_2/linear"
  top: "conv3_1/expand"
  param {
    lr_mult: 1
    decay_mult: 1
  }
  convolution_param {
    num_output: 144
    bias_term: false
    kernel_size: 1
    weight_filler {
      type: "msra"
    }
  }
}
layer {
  name: "conv3_1/expand/bn"
  type: "BatchNorm"
  bottom: "conv3_1/expand"
  top: "conv3_1/expand"
  batch_norm_param {
    use_global_stats: true
    eps: 1e-05
  }
}
layer {
  name: "conv3_1/expand/scale"
  type: "Scale"
  bottom: "conv3_1/expand"
  top: "conv3_1/expand"
  param {
    lr_mult: 1
    decay_mult: 0
  }
  param {
    lr_mult: 1
    decay_mult: 0
  }
  scale_param {
    bias_term: true
  }
}
layer {
  name: "relu3_1/expand"
  type: "ReLU"
  bottom: "conv3_1/expand"
  top: "conv3_1/expand"
}
layer {
  name: "conv3_1/dwise"
  type: "DepthwiseConvolution"
  bottom: "conv3_1/expand"
  top: "conv3_1/dwise"
  param {
    lr_mult: 1
    decay_mult: 1
  }
  convolution_param {
    num_output: 144
    bias_term: false
    pad: 1
    kernel_size: 3
    group: 144
    stride: 1
    weight_filler {
      type: "msra"
    }
  }
}
layer {
  name: "conv3_1/dwise/bn"
  type: "BatchNorm"
  bottom: "conv3_1/dwise"
  top: "conv3_1/dwise"
  batch_norm_param {
    use_global_stats: true
    eps: 1e-05
  }
}
layer {
  name: "conv3_1/dwise/scale"
  type: "Scale"
  bottom: "conv3_1/dwise"
  top: "conv3_1/dwise"
  param {
    lr_mult: 1
    decay_mult: 0
  }
  param {
    lr_mult: 1
    decay_mult: 0
  }
  scale_param {
    bias_term: true
  }
}
layer {
  name: "relu3_1/dwise"
  type: "ReLU"
  bottom: "conv3_1/dwise"
  top: "conv3_1/dwise"
}
layer {
  name: "conv3_1/linear"
  type: "Convolution"
  bottom: "conv3_1/dwise"
  top: "conv3_1/linear"
  param {
    lr_mult: 1
    decay_mult: 1
  }
  convolution_param {
    num_output: 24
    bias_term: false
    kernel_size: 1
    weight_filler {
      type: "msra"
    }
  }
}
layer {
  name: "conv3_1/linear/bn"
  type: "BatchNorm"
  bottom: "conv3_1/linear"
  top: "conv3_1/linear"
  batch_norm_param {
    use_global_stats: true
    eps: 1e-05
  }
}
layer {
  name: "conv3_1/linear/scale"
  type: "Scale"
  bottom: "conv3_1/linear"
  top: "conv3_1/linear"
  param {
    lr_mult: 1
    decay_mult: 0
  }
  param {
    lr_mult: 1
    decay_mult: 0
  }
  scale_param {
    bias_term: true
  }
}
layer {
  name: "block_3_1"
  type: "Eltwise"
  bottom: "conv2_2/linear"
  bottom: "conv3_1/linear"
  top: "block_3_1"
}
layer {
  name: "conv3_2/expand"
  type: "Convolution"
  bottom: "block_3_1"
  top: "conv3_2/expand"
  param {
    lr_mult: 1
    decay_mult: 1
  }
  convolution_param {
    num_output: 144
    bias_term: false
    kernel_size: 1
    weight_filler {
      type: "msra"
    }
  }
}
layer {
  name: "conv3_2/expand/bn"
  type: "BatchNorm"
  bottom: "conv3_2/expand"
  top: "conv3_2/expand"
  batch_norm_param {
    use_global_stats: true
    eps: 1e-05
  }
}
layer {
  name: "conv3_2/expand/scale"
  type: "Scale"
  bottom: "conv3_2/expand"
  top: "conv3_2/expand"
  param {
    lr_mult: 1
    decay_mult: 0
  }
  param {
    lr_mult: 1
    decay_mult: 0
  }
  scale_param {
    bias_term: true
  }
}
layer {
  name: "relu3_2/expand"
  type: "ReLU"
  bottom: "conv3_2/expand"
  top: "conv3_2/expand"
}
layer {
  name: "conv3_2/dwise"
  type: "DepthwiseConvolution"
  bottom: "conv3_2/expand"
  top: "conv3_2/dwise"
  param {
    lr_mult: 1
    decay_mult: 1
  }
  convolution_param {
    num_output: 144
    bias_term: false
    pad: 1
    kernel_size: 3
    group: 144
    stride: 2
    weight_filler {
      type: "msra"
    }
  }
}
layer {
  name: "conv3_2/dwise/bn"
  type: "BatchNorm"
  bottom: "conv3_2/dwise"
  top: "conv3_2/dwise"
  batch_norm_param {
    use_global_stats: true
    eps: 1e-05
  }
}
layer {
  name: "conv3_2/dwise/scale"
  type: "Scale"
  bottom: "conv3_2/dwise"
  top: "conv3_2/dwise"
  param {
    lr_mult: 1
    decay_mult: 0
  }
  param {
    lr_mult: 1
    decay_mult: 0
  }
  scale_param {
    bias_term: true
  }
}
layer {
  name: "relu3_2/dwise"
  type: "ReLU"
  bottom: "conv3_2/dwise"
  top: "conv3_2/dwise"
}
layer {
  name: "conv3_2/linear"
  type: "Convolution"
  bottom: "conv3_2/dwise"
  top: "conv3_2/linear"
  param {
    lr_mult: 1
    decay_mult: 1
  }
  convolution_param {
    num_output: 32
    bias_term: false
    kernel_size: 1
    weight_filler {
      type: "msra"
    }
  }
}
layer {
  name: "conv3_2/linear/bn"
  type: "BatchNorm"
  bottom: "conv3_2/linear"
  top: "conv3_2/linear"
  batch_norm_param {
    use_global_stats: true
    eps: 1e-05
  }
}
layer {
  name: "conv3_2/linear/scale"
  type: "Scale"
  bottom: "conv3_2/linear"
  top: "conv3_2/linear"
  param {
    lr_mult: 1
    decay_mult: 0
  }
  param {
    lr_mult: 1
    decay_mult: 0
  }
  scale_param {
    bias_term: true
  }
}
layer {
  name: "conv4_1/expand"
  type: "Convolution"
  bottom: "conv3_2/linear"
  top: "conv4_1/expand"
  param {
    lr_mult: 1
    decay_mult: 1
  }
  convolution_param {
    num_output: 192
    bias_term: false
    kernel_size: 1
    weight_filler {
      type: "msra"
    }
  }
}
layer {
  name: "conv4_1/expand/bn"
  type: "BatchNorm"
  bottom: "conv4_1/expand"
  top: "conv4_1/expand"
  batch_norm_param {
    use_global_stats: true
    eps: 1e-05
  }
}
layer {
  name: "conv4_1/expand/scale"
  type: "Scale"
  bottom: "conv4_1/expand"
  top: "conv4_1/expand"
  param {
    lr_mult: 1
    decay_mult: 0
  }
  param {
    lr_mult: 1
    decay_mult: 0
  }
  scale_param {
    bias_term: true
  }
}
layer {
  name: "relu4_1/expand"
  type: "ReLU"
  bottom: "conv4_1/expand"
  top: "conv4_1/expand"
}
layer {
  name: "conv4_1/dwise"
  type: "DepthwiseConvolution"
  bottom: "conv4_1/expand"
  top: "conv4_1/dwise"
  param {
    lr_mult: 1
    decay_mult: 1
  }
  convolution_param {
    num_output: 192
    bias_term: false
    pad: 1
    kernel_size: 3
    group: 192
    stride: 1
    weight_filler {
      type: "msra"
    }
  }
}
layer {
  name: "conv4_1/dwise/bn"
  type: "BatchNorm"
  bottom: "conv4_1/dwise"
  top: "conv4_1/dwise"
  batch_norm_param {
    use_global_stats: true
    eps: 1e-05
  }
}
layer {
  name: "conv4_1/dwise/scale"
  type: "Scale"
  bottom: "conv4_1/dwise"
  top: "conv4_1/dwise"
  param {
    lr_mult: 1
    decay_mult: 0
  }
  param {
    lr_mult: 1
    decay_mult: 0
  }
  scale_param {
    bias_term: true
  }
}
layer {
  name: "relu4_1/dwise"
  type: "ReLU"
  bottom: "conv4_1/dwise"
  top: "conv4_1/dwise"
}
layer {
  name: "conv4_1/linear"
  type: "Convolution"
  bottom: "conv4_1/dwise"
  top: "conv4_1/linear"
  param {
    lr_mult: 1
    decay_mult: 1
  }
  convolution_param {
    num_output: 32
    bias_term: false
    kernel_size: 1
    weight_filler {
      type: "msra"
    }
  }
}
layer {
  name: "conv4_1/linear/bn"
  type: "BatchNorm"
  bottom: "conv4_1/linear"
  top: "conv4_1/linear"
  batch_norm_param {
    use_global_stats: true
    eps: 1e-05
  }
}
layer {
  name: "conv4_1/linear/scale"
  type: "Scale"
  bottom: "conv4_1/linear"
  top: "conv4_1/linear"
  param {
    lr_mult: 1
    decay_mult: 0
  }
  param {
    lr_mult: 1
    decay_mult: 0
  }
  scale_param {
    bias_term: true
  }
}
layer {
  name: "block_4_1"
  type: "Eltwise"
  bottom: "conv3_2/linear"
  bottom: "conv4_1/linear"
  top: "block_4_1"
}
layer {
  name: "conv4_2/expand"
  type: "Convolution"
  bottom: "block_4_1"
  top: "conv4_2/expand"
  param {
    lr_mult: 1
    decay_mult: 1
  }
  convolution_param {
    num_output: 192
    bias_term: false
    kernel_size: 1
    weight_filler {
      type: "msra"
    }
  }
}
layer {
  name: "conv4_2/expand/bn"
  type: "BatchNorm"
  bottom: "conv4_2/expand"
  top: "conv4_2/expand"
  batch_norm_param {
    use_global_stats: true
    eps: 1e-05
  }
}
layer {
  name: "conv4_2/expand/scale"
  type: "Scale"
  bottom: "conv4_2/expand"
  top: "conv4_2/expand"
  param {
    lr_mult: 1
    decay_mult: 0
  }
  param {
    lr_mult: 1
    decay_mult: 0
  }
  scale_param {
    bias_term: true
  }
}
layer {
  name: "relu4_2/expand"
  type: "ReLU"
  bottom: "conv4_2/expand"
  top: "conv4_2/expand"
}
layer {
  name: "conv4_2/dwise"
  type: "DepthwiseConvolution"
  bottom: "conv4_2/expand"
  top: "conv4_2/dwise"
  param {
    lr_mult: 1
    decay_mult: 1
  }
  convolution_param {
    num_output: 192
    bias_term: false
    pad: 1
    kernel_size: 3
    group: 192
    stride: 1
    weight_filler {
      type: "msra"
    }
  }
}
layer {
  name: "conv4_2/dwise/bn"
  type: "BatchNorm"
  bottom: "conv4_2/dwise"
  top: "conv4_2/dwise"
  batch_norm_param {
    use_global_stats: true
    eps: 1e-05
  }
}
layer {
  name: "conv4_2/dwise/scale"
  type: "Scale"
  bottom: "conv4_2/dwise"
  top: "conv4_2/dwise"
  param {
    lr_mult: 1
    decay_mult: 0
  }
  param {
    lr_mult: 1
    decay_mult: 0
  }
  scale_param {
    bias_term: true
  }
}
layer {
  name: "relu4_2/dwise"
  type: "ReLU"
  bottom: "conv4_2/dwise"
  top: "conv4_2/dwise"
}
layer {
  name: "conv4_2/linear"
  type: "Convolution"
  bottom: "conv4_2/dwise"
  top: "conv4_2/linear"
  param {
    lr_mult: 1
    decay_mult: 1
  }
  convolution_param {
    num_output: 32
    bias_term: false
    kernel_size: 1
    weight_filler {
      type: "msra"
    }
  }
}
layer {
  name: "conv4_2/linear/bn"
  type: "BatchNorm"
  bottom: "conv4_2/linear"
  top: "conv4_2/linear"
  batch_norm_param {
    use_global_stats: true
    eps: 1e-05
  }
}
layer {
  name: "conv4_2/linear/scale"
  type: "Scale"
  bottom: "conv4_2/linear"
  top: "conv4_2/linear"
  param {
    lr_mult: 1
    decay_mult: 0
  }
  param {
    lr_mult: 1
    decay_mult: 0
  }
  scale_param {
    bias_term: true
  }
}
layer {
  name: "block_4_2"
  type: "Eltwise"
  bottom: "block_4_1"
  bottom: "conv4_2/linear"
  top: "block_4_2"
}
layer {
  name: "conv4_3/expand"
  type: "Convolution"
  bottom: "block_4_2"
  top: "conv4_3/expand"
  param {
    lr_mult: 1
    decay_mult: 1
  }
  convolution_param {
    num_output: 192
    bias_term: false
    kernel_size: 1
    weight_filler {
      type: "msra"
    }
  }
}
layer {
  name: "conv4_3/expand/bn"
  type: "BatchNorm"
  bottom: "conv4_3/expand"
  top: "conv4_3/expand"
  batch_norm_param {
    use_global_stats: true
    eps: 1e-05
  }
}
layer {
  name: "conv4_3/expand/scale"
  type: "Scale"
  bottom: "conv4_3/expand"
  top: "conv4_3/expand"
  param {
    lr_mult: 1
    decay_mult: 0
  }
  param {
    lr_mult: 1
    decay_mult: 0
  }
  scale_param {
    bias_term: true
  }
}
layer {
  name: "relu4_3/expand"
  type: "ReLU"
  bottom: "conv4_3/expand"
  top: "conv4_3/expand"
}
layer {
  name: "conv4_3/dwise"
  type: "DepthwiseConvolution"
  bottom: "conv4_3/expand"
  top: "conv4_3/dwise"
  param {
    lr_mult: 1
    decay_mult: 1
  }
  convolution_param {
    num_output: 192
    bias_term: false
    pad: 1
    kernel_size: 3
    group: 192
    stride: 1
    weight_filler {
      type: "msra"
    }
  }
}
layer {
  name: "conv4_3/dwise/bn"
  type: "BatchNorm"
  bottom: "conv4_3/dwise"
  top: "conv4_3/dwise"
  batch_norm_param {
    use_global_stats: true
    eps: 1e-05
  }
}
layer {
  name: "conv4_3/dwise/scale"
  type: "Scale"
  bottom: "conv4_3/dwise"
  top: "conv4_3/dwise"
  param {
    lr_mult: 1
    decay_mult: 0
  }
  param {
    lr_mult: 1
    decay_mult: 0
  }
  scale_param {
    bias_term: true
  }
}
layer {
  name: "relu4_3/dwise"
  type: "ReLU"
  bottom: "conv4_3/dwise"
  top: "conv4_3/dwise"
}
layer {
  name: "conv4_3/linear"
  type: "Convolution"
  bottom: "conv4_3/dwise"
  top: "conv4_3/linear"
  param {
    lr_mult: 1
    decay_mult: 1
  }
  convolution_param {
    num_output: 64
    bias_term: false
    kernel_size: 1
    weight_filler {
      type: "msra"
    }
  }
}
layer {
  name: "conv4_3/linear/bn"
  type: "BatchNorm"
  bottom: "conv4_3/linear"
  top: "conv4_3/linear"
  batch_norm_param {
    use_global_stats: true
    eps: 1e-05
  }
}
layer {
  name: "conv4_3/linear/scale"
  type: "Scale"
  bottom: "conv4_3/linear"
  top: "conv4_3/linear"
  param {
    lr_mult: 1
    decay_mult: 0
  }
  param {
    lr_mult: 1
    decay_mult: 0
  }
  scale_param {
    bias_term: true
  }
}
layer {
  name: "conv4_4/expand"
  type: "Convolution"
  bottom: "conv4_3/linear"
  top: "conv4_4/expand"
  param {
    lr_mult: 1
    decay_mult: 1
  }
  convolution_param {
    num_output: 384
    bias_term: false
    kernel_size: 1
    weight_filler {
      type: "msra"
    }
  }
}
layer {
  name: "conv4_4/expand/bn"
  type: "BatchNorm"
  bottom: "conv4_4/expand"
  top: "conv4_4/expand"
  batch_norm_param {
    use_global_stats: true
    eps: 1e-05
  }
}
layer {
  name: "conv4_4/expand/scale"
  type: "Scale"
  bottom: "conv4_4/expand"
  top: "conv4_4/expand"
  param {
    lr_mult: 1
    decay_mult: 0
  }
  param {
    lr_mult: 1
    decay_mult: 0
  }
  scale_param {
    bias_term: true
  }
}
layer {
  name: "relu4_4/expand"
  type: "ReLU"
  bottom: "conv4_4/expand"
  top: "conv4_4/expand"
}
layer {
  name: "conv4_4/dwise"
  type: "DepthwiseConvolution"
  bottom: "conv4_4/expand"
  top: "conv4_4/dwise"
  param {
    lr_mult: 1
    decay_mult: 1
  }
  convolution_param {
    num_output: 384
    bias_term: false
    pad: 1
    kernel_size: 3
    group: 384
    stride: 1
    weight_filler {
      type: "msra"
    }
  }
}
layer {
  name: "conv4_4/dwise/bn"
  type: "BatchNorm"
  bottom: "conv4_4/dwise"
  top: "conv4_4/dwise"
  batch_norm_param {
    use_global_stats: true
    eps: 1e-05
  }
}
layer {
  name: "conv4_4/dwise/scale"
  type: "Scale"
  bottom: "conv4_4/dwise"
  top: "conv4_4/dwise"
  param {
    lr_mult: 1
    decay_mult: 0
  }
  param {
    lr_mult: 1
    decay_mult: 0
  }
  scale_param {
    bias_term: true
  }
}
layer {
  name: "relu4_4/dwise"
  type: "ReLU"
  bottom: "conv4_4/dwise"
  top: "conv4_4/dwise"
}
layer {
  name: "conv4_4/linear"
  type: "Convolution"
  bottom: "conv4_4/dwise"
  top: "conv4_4/linear"
  param {
    lr_mult: 1
    decay_mult: 1
  }
  convolution_param {
    num_output: 64
    bias_term: false
    kernel_size: 1
    weight_filler {
      type: "msra"
    }
  }
}
layer {
  name: "conv4_4/linear/bn"
  type: "BatchNorm"
  bottom: "conv4_4/linear"
  top: "conv4_4/linear"
  batch_norm_param {
    use_global_stats: true
    eps: 1e-05
  }
}
layer {
  name: "conv4_4/linear/scale"
  type: "Scale"
  bottom: "conv4_4/linear"
  top: "conv4_4/linear"
  param {
    lr_mult: 1
    decay_mult: 0
  }
  param {
    lr_mult: 1
    decay_mult: 0
  }
  scale_param {
    bias_term: true
  }
}
layer {
  name: "block_4_4"
  type: "Eltwise"
  bottom: "conv4_3/linear"
  bottom: "conv4_4/linear"
  top: "block_4_4"
}
layer {
  name: "conv4_5/expand"
  type: "Convolution"
  bottom: "block_4_4"
  top: "conv4_5/expand"
  param {
    lr_mult: 1
    decay_mult: 1
  }
  convolution_param {
    num_output: 384
    bias_term: false
    kernel_size: 1
    weight_filler {
      type: "msra"
    }
  }
}
layer {
  name: "conv4_5/expand/bn"
  type: "BatchNorm"
  bottom: "conv4_5/expand"
  top: "conv4_5/expand"
  batch_norm_param {
    use_global_stats: true
    eps: 1e-05
  }
}
layer {
  name: "conv4_5/expand/scale"
  type: "Scale"
  bottom: "conv4_5/expand"
  top: "conv4_5/expand"
  param {
    lr_mult: 1
    decay_mult: 0
  }
  param {
    lr_mult: 1
    decay_mult: 0
  }
  scale_param {
    bias_term: true
  }
}
layer {
  name: "relu4_5/expand"
  type: "ReLU"
  bottom: "conv4_5/expand"
  top: "conv4_5/expand"
}
layer {
  name: "conv4_5/dwise"
  type: "DepthwiseConvolution"
  bottom: "conv4_5/expand"
  top: "conv4_5/dwise"
  param {
    lr_mult: 1
    decay_mult: 1
  }
  convolution_param {
    num_output: 384
    bias_term: false
    pad: 1
    kernel_size: 3
    group: 384
    stride: 1
    weight_filler {
      type: "msra"
    }
  }
}
layer {
  name: "conv4_5/dwise/bn"
  type: "BatchNorm"
  bottom: "conv4_5/dwise"
  top: "conv4_5/dwise"
  batch_norm_param {
    use_global_stats: true
    eps: 1e-05
  }
}
layer {
  name: "conv4_5/dwise/scale"
  type: "Scale"
  bottom: "conv4_5/dwise"
  top: "conv4_5/dwise"
  param {
    lr_mult: 1
    decay_mult: 0
  }
  param {
    lr_mult: 1
    decay_mult: 0
  }
  scale_param {
    bias_term: true
  }
}
layer {
  name: "relu4_5/dwise"
  type: "ReLU"
  bottom: "conv4_5/dwise"
  top: "conv4_5/dwise"
}
layer {
  name: "conv4_5/linear"
  type: "Convolution"
  bottom: "conv4_5/dwise"
  top: "conv4_5/linear"
  param {
    lr_mult: 1
    decay_mult: 1
  }
  convolution_param {
    num_output: 64
    bias_term: false
    kernel_size: 1
    weight_filler {
      type: "msra"
    }
  }
}
layer {
  name: "conv4_5/linear/bn"
  type: "BatchNorm"
  bottom: "conv4_5/linear"
  top: "conv4_5/linear"
  batch_norm_param {
    use_global_stats: true
    eps: 1e-05
  }
}
layer {
  name: "conv4_5/linear/scale"
  type: "Scale"
  bottom: "conv4_5/linear"
  top: "conv4_5/linear"
  param {
    lr_mult: 1
    decay_mult: 0
  }
  param {
    lr_mult: 1
    decay_mult: 0
  }
  scale_param {
    bias_term: true
  }
}
layer {
  name: "block_4_5"
  type: "Eltwise"
  bottom: "block_4_4"
  bottom: "conv4_5/linear"
  top: "block_4_5"
}
layer {
  name: "conv4_6/expand"
  type: "Convolution"
  bottom: "block_4_5"
  top: "conv4_6/expand"
  param {
    lr_mult: 1
    decay_mult: 1
  }
  convolution_param {
    num_output: 384
    bias_term: false
    kernel_size: 1
    weight_filler {
      type: "msra"
    }
  }
}
layer {
  name: "conv4_6/expand/bn"
  type: "BatchNorm"
  bottom: "conv4_6/expand"
  top: "conv4_6/expand"
  batch_norm_param {
    use_global_stats: true
    eps: 1e-05
  }
}
layer {
  name: "conv4_6/expand/scale"
  type: "Scale"
  bottom: "conv4_6/expand"
  top: "conv4_6/expand"
  param {
    lr_mult: 1
    decay_mult: 0
  }
  param {
    lr_mult: 1
    decay_mult: 0
  }
  scale_param {
    bias_term: true
  }
}
layer {
  name: "relu4_6/expand"
  type: "ReLU"
  bottom: "conv4_6/expand"
  top: "conv4_6/expand"
}
layer {
  name: "conv4_6/dwise"
  type: "DepthwiseConvolution"
  bottom: "conv4_6/expand"
  top: "conv4_6/dwise"
  param {
    lr_mult: 1
    decay_mult: 1
  }
  convolution_param {
    num_output: 384
    bias_term: false
    pad: 1
    kernel_size: 3
    group: 384
    stride: 1
    weight_filler {
      type: "msra"
    }
  }
}
layer {
  name: "conv4_6/dwise/bn"
  type: "BatchNorm"
  bottom: "conv4_6/dwise"
  top: "conv4_6/dwise"
  batch_norm_param {
    use_global_stats: true
    eps: 1e-05
  }
}
layer {
  name: "conv4_6/dwise/scale"
  type: "Scale"
  bottom: "conv4_6/dwise"
  top: "conv4_6/dwise"
  param {
    lr_mult: 1
    decay_mult: 0
  }
  param {
    lr_mult: 1
    decay_mult: 0
  }
  scale_param {
    bias_term: true
  }
}
layer {
  name: "relu4_6/dwise"
  type: "ReLU"
  bottom: "conv4_6/dwise"
  top: "conv4_6/dwise"
}
layer {
  name: "conv4_6/linear"
  type: "Convolution"
  bottom: "conv4_6/dwise"
  top: "conv4_6/linear"
  param {
    lr_mult: 1
    decay_mult: 1
  }
  convolution_param {
    num_output: 64
    bias_term: false
    kernel_size: 1
    weight_filler {
      type: "msra"
    }
  }
}
layer {
  name: "conv4_6/linear/bn"
  type: "BatchNorm"
  bottom: "conv4_6/linear"
  top: "conv4_6/linear"
  batch_norm_param {
    use_global_stats: true
    eps: 1e-05
  }
}
layer {
  name: "conv4_6/linear/scale"
  type: "Scale"
  bottom: "conv4_6/linear"
  top: "conv4_6/linear"
  param {
    lr_mult: 1
    decay_mult: 0
  }
  param {
    lr_mult: 1
    decay_mult: 0
  }
  scale_param {
    bias_term: true
  }
}
layer {
  name: "block_4_6"
  type: "Eltwise"
  bottom: "block_4_5"
  bottom: "conv4_6/linear"
  top: "block_4_6"
}
layer {
  name: "conv4_7/expand"
  type: "Convolution"
  bottom: "block_4_6"
  top: "conv4_7/expand"
  param {
    lr_mult: 1
    decay_mult: 1
  }
  convolution_param {
    num_output: 384
    bias_term: false
    kernel_size: 1
    weight_filler {
      type: "msra"
    }
  }
}
layer {
  name: "conv4_7/expand/bn"
  type: "BatchNorm"
  bottom: "conv4_7/expand"
  top: "conv4_7/expand"
  batch_norm_param {
    use_global_stats: true
    eps: 1e-05
  }
}
layer {
  name: "conv4_7/expand/scale"
  type: "Scale"
  bottom: "conv4_7/expand"
  top: "conv4_7/expand"
  param {
    lr_mult: 1
    decay_mult: 0
  }
  param {
    lr_mult: 1
    decay_mult: 0
  }
  scale_param {
    bias_term: true
  }
}
layer {
  name: "relu4_7/expand"
  type: "ReLU"
  bottom: "conv4_7/expand"
  top: "conv4_7/expand"
}
layer {
  name: "conv4_7/dwise"
  type: "DepthwiseConvolution"
  bottom: "conv4_7/expand"
  top: "conv4_7/dwise"
  param {
    lr_mult: 1
    decay_mult: 1
  }
  convolution_param {
    num_output: 384
    bias_term: false
    pad: 1
    kernel_size: 3
    group: 384
    stride: 2
    weight_filler {
      type: "msra"
    }
  }
}
layer {
  name: "conv4_7/dwise/bn"
  type: "BatchNorm"
  bottom: "conv4_7/dwise"
  top: "conv4_7/dwise"
  batch_norm_param {
    use_global_stats: true
    eps: 1e-05
  }
}
layer {
  name: "conv4_7/dwise/scale"
  type: "Scale"
  bottom: "conv4_7/dwise"
  top: "conv4_7/dwise"
  param {
    lr_mult: 1
    decay_mult: 0
  }
  param {
    lr_mult: 1
    decay_mult: 0
  }
  scale_param {
    bias_term: true
  }
}
layer {
  name: "relu4_7/dwise"
  type: "ReLU"
  bottom: "conv4_7/dwise"
  top: "conv4_7/dwise"
}
layer {
  name: "conv4_7/linear"
  type: "Convolution"
  bottom: "conv4_7/dwise"
  top: "conv4_7/linear"
  param {
    lr_mult: 1
    decay_mult: 1
  }
  convolution_param {
    num_output: 96
    bias_term: false
    kernel_size: 1
    weight_filler {
      type: "msra"
    }
  }
}
layer {
  name: "conv4_7/linear/bn"
  type: "BatchNorm"
  bottom: "conv4_7/linear"
  top: "conv4_7/linear"
  batch_norm_param {
    use_global_stats: true
    eps: 1e-05
  }
}
layer {
  name: "conv4_7/linear/scale"
  type: "Scale"
  bottom: "conv4_7/linear"
  top: "conv4_7/linear"
  param {
    lr_mult: 1
    decay_
I1002 09:43:28.559590 24584 layer_factory.hpp:77] Creating layer data
I1002 09:43:28.559686 24584 net.cpp:100] Creating Layer data
I1002 09:43:28.559695 24584 net.cpp:408] data -> data
I1002 09:43:28.559721 24584 net.cpp:408] data -> label
I1002 09:43:28.560226 24592 db_lmdb.cpp:35] Opened lmdb examples/GTSDB/GTSDB_trainval_lmdb
I1002 09:43:28.573734 24584 annotated_data_layer.cpp:62] output data size: 2,3,300,510
I1002 09:43:28.578061 24584 net.cpp:150] Setting up data
I1002 09:43:28.578078 24584 net.cpp:157] Top shape: 2 3 300 510 (918000)
I1002 09:43:28.578081 24584 net.cpp:157] Top shape: 1 1 3 8 (24)
I1002 09:43:28.578083 24584 net.cpp:165] Memory required for data: 3672096
I1002 09:43:28.578089 24584 layer_factory.hpp:77] Creating layer data_data_0_split
I1002 09:43:28.578099 24584 net.cpp:100] Creating Layer data_data_0_split
I1002 09:43:28.578102 24584 net.cpp:434] data_data_0_split <- data
I1002 09:43:28.578114 24584 net.cpp:408] data_data_0_split -> data_data_0_split_0
I1002 09:43:28.578124 24584 net.cpp:408] data_data_0_split -> data_data_0_split_1
I1002 09:43:28.578130 24584 net.cpp:408] data_data_0_split -> data_data_0_split_2
I1002 09:43:28.578135 24584 net.cpp:408] data_data_0_split -> data_data_0_split_3
I1002 09:43:28.578140 24584 net.cpp:408] data_data_0_split -> data_data_0_split_4
I1002 09:43:28.578143 24584 net.cpp:408] data_data_0_split -> data_data_0_split_5
I1002 09:43:28.578148 24584 net.cpp:408] data_data_0_split -> data_data_0_split_6
I1002 09:43:28.578225 24584 net.cpp:150] Setting up data_data_0_split
I1002 09:43:28.578230 24584 net.cpp:157] Top shape: 2 3 300 510 (918000)
I1002 09:43:28.578233 24584 net.cpp:157] Top shape: 2 3 300 510 (918000)
I1002 09:43:28.578236 24584 net.cpp:157] Top shape: 2 3 300 510 (918000)
I1002 09:43:28.578239 24584 net.cpp:157] Top shape: 2 3 300 510 (918000)
I1002 09:43:28.578241 24584 net.cpp:157] Top shape: 2 3 300 510 (918000)
I1002 09:43:28.578244 24584 net.cpp:157] Top shape: 2 3 300 510 (918000)
I1002 09:43:28.578248 24584 net.cpp:157] Top shape: 2 3 300 510 (918000)
I1002 09:43:28.578249 24584 net.cpp:165] Memory required for data: 29376096
I1002 09:43:28.578251 24584 layer_factory.hpp:77] Creating layer conv1
I1002 09:43:28.578263 24584 net.cpp:100] Creating Layer conv1
I1002 09:43:28.578269 24584 net.cpp:434] conv1 <- data_data_0_split_0
I1002 09:43:28.578274 24584 net.cpp:408] conv1 -> conv1
I1002 09:43:28.918159 24584 net.cpp:150] Setting up conv1
I1002 09:43:28.918175 24584 net.cpp:157] Top shape: 2 32 150 255 (2448000)
I1002 09:43:28.918177 24584 net.cpp:165] Memory required for data: 39168096
I1002 09:43:28.918190 24584 layer_factory.hpp:77] Creating layer conv1/bn
I1002 09:43:28.918200 24584 net.cpp:100] Creating Layer conv1/bn
I1002 09:43:28.918202 24584 net.cpp:434] conv1/bn <- conv1
I1002 09:43:28.918207 24584 net.cpp:395] conv1/bn -> conv1 (in-place)
I1002 09:43:28.918793 24584 net.cpp:150] Setting up conv1/bn
I1002 09:43:28.918802 24584 net.cpp:157] Top shape: 2 32 150 255 (2448000)
I1002 09:43:28.918802 24584 net.cpp:165] Memory required for data: 48960096
I1002 09:43:28.918812 24584 layer_factory.hpp:77] Creating layer conv1/scale
I1002 09:43:28.918817 24584 net.cpp:100] Creating Layer conv1/scale
I1002 09:43:28.918819 24584 net.cpp:434] conv1/scale <- conv1
I1002 09:43:28.918823 24584 net.cpp:395] conv1/scale -> conv1 (in-place)
I1002 09:43:28.918860 24584 layer_factory.hpp:77] Creating layer conv1/scale
I1002 09:43:28.918956 24584 net.cpp:150] Setting up conv1/scale
I1002 09:43:28.918962 24584 net.cpp:157] Top shape: 2 32 150 255 (2448000)
I1002 09:43:28.918963 24584 net.cpp:165] Memory required for data: 58752096
I1002 09:43:28.918968 24584 layer_factory.hpp:77] Creating layer relu1
I1002 09:43:28.918972 24584 net.cpp:100] Creating Layer relu1
I1002 09:43:28.918972 24584 net.cpp:434] relu1 <- conv1
I1002 09:43:28.918977 24584 net.cpp:395] relu1 -> conv1 (in-place)
I1002 09:43:28.919270 24584 net.cpp:150] Setting up relu1
I1002 09:43:28.919275 24584 net.cpp:157] Top shape: 2 32 150 255 (2448000)
I1002 09:43:28.919277 24584 net.cpp:165] Memory required for data: 68544096
I1002 09:43:28.919279 24584 layer_factory.hpp:77] Creating layer conv2_1/expand
I1002 09:43:28.919286 24584 net.cpp:100] Creating Layer conv2_1/expand
I1002 09:43:28.919287 24584 net.cpp:434] conv2_1/expand <- conv1
I1002 09:43:28.919291 24584 net.cpp:408] conv2_1/expand -> conv2_1/expand
I1002 09:43:28.920418 24584 net.cpp:150] Setting up conv2_1/expand
I1002 09:43:28.920424 24584 net.cpp:157] Top shape: 2 32 150 255 (2448000)
I1002 09:43:28.920426 24584 net.cpp:165] Memory required for data: 78336096
I1002 09:43:28.920429 24584 layer_factory.hpp:77] Creating layer conv2_1/expand/bn
I1002 09:43:28.920434 24584 net.cpp:100] Creating Layer conv2_1/expand/bn
I1002 09:43:28.920437 24584 net.cpp:434] conv2_1/expand/bn <- conv2_1/expand
I1002 09:43:28.920440 24584 net.cpp:395] conv2_1/expand/bn -> conv2_1/expand (in-place)
I1002 09:43:28.920575 24584 net.cpp:150] Setting up conv2_1/expand/bn
I1002 09:43:28.920579 24584 net.cpp:157] Top shape: 2 32 150 255 (2448000)
I1002 09:43:28.920581 24584 net.cpp:165] Memory required for data: 88128096
I1002 09:43:28.920588 24584 layer_factory.hpp:77] Creating layer conv2_1/expand/scale
I1002 09:43:28.920593 24584 net.cpp:100] Creating Layer conv2_1/expand/scale
I1002 09:43:28.920593 24584 net.cpp:434] conv2_1/expand/scale <- conv2_1/expand
I1002 09:43:28.920598 24584 net.cpp:395] conv2_1/expand/scale -> conv2_1/expand (in-place)
I1002 09:43:28.920620 24584 layer_factory.hpp:77] Creating layer conv2_1/expand/scale
I1002 09:43:28.920730 24584 net.cpp:150] Setting up conv2_1/expand/scale
I1002 09:43:28.920735 24584 net.cpp:157] Top shape: 2 32 150 255 (2448000)
I1002 09:43:28.920737 24584 net.cpp:165] Memory required for data: 97920096
I1002 09:43:28.920740 24584 layer_factory.hpp:77] Creating layer relu2_1/expand
I1002 09:43:28.920743 24584 net.cpp:100] Creating Layer relu2_1/expand
I1002 09:43:28.920745 24584 net.cpp:434] relu2_1/expand <- conv2_1/expand
I1002 09:43:28.920748 24584 net.cpp:395] relu2_1/expand -> conv2_1/expand (in-place)
I1002 09:43:28.921010 24584 net.cpp:150] Setting up relu2_1/expand
I1002 09:43:28.921015 24584 net.cpp:157] Top shape: 2 32 150 255 (2448000)
I1002 09:43:28.921017 24584 net.cpp:165] Memory required for data: 107712096
I1002 09:43:28.921020 24584 layer_factory.hpp:77] Creating layer conv2_1/dwise
I1002 09:43:28.921025 24584 net.cpp:100] Creating Layer conv2_1/dwise
I1002 09:43:28.921026 24584 net.cpp:434] conv2_1/dwise <- conv2_1/expand
I1002 09:43:28.921030 24584 net.cpp:408] conv2_1/dwise -> conv2_1/dwise
I1002 09:43:28.921155 24584 net.cpp:150] Setting up conv2_1/dwise
I1002 09:43:28.921160 24584 net.cpp:157] Top shape: 2 32 150 255 (2448000)
I1002 09:43:28.921161 24584 net.cpp:165] Memory required for data: 117504096
I1002 09:43:28.921164 24584 layer_factory.hpp:77] Creating layer conv2_1/dwise/bn
I1002 09:43:28.921167 24584 net.cpp:100] Creating Layer conv2_1/dwise/bn
I1002 09:43:28.921169 24584 net.cpp:434] conv2_1/dwise/bn <- conv2_1/dwise
I1002 09:43:28.921172 24584 net.cpp:395] conv2_1/dwise/bn -> conv2_1/dwise (in-place)
I1002 09:43:28.921303 24584 net.cpp:150] Setting up conv2_1/dwise/bn
I1002 09:43:28.921308 24584 net.cpp:157] Top shape: 2 32 150 255 (2448000)
I1002 09:43:28.921309 24584 net.cpp:165] Memory required for data: 127296096
I1002 09:43:28.921314 24584 layer_factory.hpp:77] Creating layer conv2_1/dwise/scale
I1002 09:43:28.921317 24584 net.cpp:100] Creating Layer conv2_1/dwise/scale
I1002 09:43:28.921319 24584 net.cpp:434] conv2_1/dwise/scale <- conv2_1/dwise
I1002 09:43:28.921322 24584 net.cpp:395] conv2_1/dwise/scale -> conv2_1/dwise (in-place)
I1002 09:43:28.921344 24584 layer_factory.hpp:77] Creating layer conv2_1/dwise/scale
I1002 09:43:28.921442 24584 net.cpp:150] Setting up conv2_1/dwise/scale
I1002 09:43:28.921447 24584 net.cpp:157] Top shape: 2 32 150 255 (2448000)
I1002 09:43:28.921448 24584 net.cpp:165] Memory required for data: 137088096
I1002 09:43:28.921455 24584 layer_factory.hpp:77] Creating layer relu2_1/dwise
I1002 09:43:28.921458 24584 net.cpp:100] Creating Layer relu2_1/dwise
I1002 09:43:28.921461 24584 net.cpp:434] relu2_1/dwise <- conv2_1/dwise
I1002 09:43:28.921464 24584 net.cpp:395] relu2_1/dwise -> conv2_1/dwise (in-place)
I1002 09:43:28.921730 24584 net.cpp:150] Setting up relu2_1/dwise
I1002 09:43:28.921735 24584 net.cpp:157] Top shape: 2 32 150 255 (2448000)
I1002 09:43:28.921736 24584 net.cpp:165] Memory required for data: 146880096
I1002 09:43:28.921738 24584 layer_factory.hpp:77] Creating layer conv2_1/linear
I1002 09:43:28.921743 24584 net.cpp:100] Creating Layer conv2_1/linear
I1002 09:43:28.921746 24584 net.cpp:434] conv2_1/linear <- conv2_1/dwise
I1002 09:43:28.921749 24584 net.cpp:408] conv2_1/linear -> conv2_1/linear
I1002 09:43:28.922899 24584 net.cpp:150] Setting up conv2_1/linear
I1002 09:43:28.922905 24584 net.cpp:157] Top shape: 2 16 150 255 (1224000)
I1002 09:43:28.922907 24584 net.cpp:165] Memory required for data: 151776096
I1002 09:43:28.922911 24584 layer_factory.hpp:77] Creating layer conv2_1/linear/bn
I1002 09:43:28.922914 24584 net.cpp:100] Creating Layer conv2_1/linear/bn
I1002 09:43:28.922916 24584 net.cpp:434] conv2_1/linear/bn <- conv2_1/linear
I1002 09:43:28.922919 24584 net.cpp:395] conv2_1/linear/bn -> conv2_1/linear (in-place)
I1002 09:43:28.923059 24584 net.cpp:150] Setting up conv2_1/linear/bn
I1002 09:43:28.923064 24584 net.cpp:157] Top shape: 2 16 150 255 (1224000)
I1002 09:43:28.923066 24584 net.cpp:165] Memory required for data: 156672096
I1002 09:43:28.923070 24584 layer_factory.hpp:77] Creating layer conv2_1/linear/scale
I1002 09:43:28.923084 24584 net.cpp:100] Creating Layer conv2_1/linear/scale
I1002 09:43:28.923086 24584 net.cpp:434] conv2_1/linear/scale <- conv2_1/linear
I1002 09:43:28.923090 24584 net.cpp:395] conv2_1/linear/scale -> conv2_1/linear (in-place)
I1002 09:43:28.923122 24584 layer_factory.hpp:77] Creating layer conv2_1/linear/scale
I1002 09:43:28.923223 24584 net.cpp:150] Setting up conv2_1/linear/scale
I1002 09:43:28.923229 24584 net.cpp:157] Top shape: 2 16 150 255 (1224000)
I1002 09:43:28.923231 24584 net.cpp:165] Memory required for data: 161568096
I1002 09:43:28.923235 24584 layer_factory.hpp:77] Creating layer conv2_2/expand
I1002 09:43:28.923239 24584 net.cpp:100] Creating Layer conv2_2/expand
I1002 09:43:28.923241 24584 net.cpp:434] conv2_2/expand <- conv2_1/linear
I1002 09:43:28.923244 24584 net.cpp:408] conv2_2/expand -> conv2_2/expand
I1002 09:43:28.925122 24584 net.cpp:150] Setting up conv2_2/expand
I1002 09:43:28.925150 24584 net.cpp:157] Top shape: 2 96 150 255 (7344000)
I1002 09:43:28.925153 24584 net.cpp:165] Memory required for data: 190944096
I1002 09:43:28.925161 24584 layer_factory.hpp:77] Creating layer conv2_2/expand/bn
I1002 09:43:28.925174 24584 net.cpp:100] Creating Layer conv2_2/expand/bn
I1002 09:43:28.925180 24584 net.cpp:434] conv2_2/expand/bn <- conv2_2/expand
I1002 09:43:28.925187 24584 net.cpp:395] conv2_2/expand/bn -> conv2_2/expand (in-place)
I1002 09:43:28.925376 24584 net.cpp:150] Setting up conv2_2/expand/bn
I1002 09:43:28.925384 24584 net.cpp:157] Top shape: 2 96 150 255 (7344000)
I1002 09:43:28.925385 24584 net.cpp:165] Memory required for data: 220320096
I1002 09:43:28.925390 24584 layer_factory.hpp:77] Creating layer conv2_2/expand/scale
I1002 09:43:28.925397 24584 net.cpp:100] Creating Layer conv2_2/expand/scale
I1002 09:43:28.925400 24584 net.cpp:434] conv2_2/expand/scale <- conv2_2/expand
I1002 09:43:28.925405 24584 net.cpp:395] conv2_2/expand/scale -> conv2_2/expand (in-place)
I1002 09:43:28.925448 24584 layer_factory.hpp:77] Creating layer conv2_2/expand/scale
I1002 09:43:28.926136 24584 net.cpp:150] Setting up conv2_2/expand/scale
I1002 09:43:28.926144 24584 net.cpp:157] Top shape: 2 96 150 255 (7344000)
I1002 09:43:28.926146 24584 net.cpp:165] Memory required for data: 249696096
I1002 09:43:28.926151 24584 layer_factory.hpp:77] Creating layer relu2_2/expand
I1002 09:43:28.926156 24584 net.cpp:100] Creating Layer relu2_2/expand
I1002 09:43:28.926157 24584 net.cpp:434] relu2_2/expand <- conv2_2/expand
I1002 09:43:28.926162 24584 net.cpp:395] relu2_2/expand -> conv2_2/expand (in-place)
I1002 09:43:28.926472 24584 net.cpp:150] Setting up relu2_2/expand
I1002 09:43:28.926478 24584 net.cpp:157] Top shape: 2 96 150 255 (7344000)
I1002 09:43:28.926481 24584 net.cpp:165] Memory required for data: 279072096
I1002 09:43:28.926482 24584 layer_factory.hpp:77] Creating layer conv2_2/dwise
I1002 09:43:28.926491 24584 net.cpp:100] Creating Layer conv2_2/dwise
I1002 09:43:28.926493 24584 net.cpp:434] conv2_2/dwise <- conv2_2/expand
I1002 09:43:28.926499 24584 net.cpp:408] conv2_2/dwise -> conv2_2/dwise
I1002 09:43:28.926645 24584 net.cpp:150] Setting up conv2_2/dwise
I1002 09:43:28.926650 24584 net.cpp:157] Top shape: 2 96 75 128 (1843200)
I1002 09:43:28.926651 24584 net.cpp:165] Memory required for data: 286444896
I1002 09:43:28.926654 24584 layer_factory.hpp:77] Creating layer conv2_2/dwise/bn
I1002 09:43:28.926657 24584 net.cpp:100] Creating Layer conv2_2/dwise/bn
I1002 09:43:28.926661 24584 net.cpp:434] conv2_2/dwise/bn <- conv2_2/dwise
I1002 09:43:28.926663 24584 net.cpp:395] conv2_2/dwise/bn -> conv2_2/dwise (in-place)
I1002 09:43:28.927255 24584 net.cpp:150] Setting up conv2_2/dwise/bn
I1002 09:43:28.927263 24584 net.cpp:157] Top shape: 2 96 75 128 (1843200)
I1002 09:43:28.927264 24584 net.cpp:165] Memory required for data: 293817696
I1002 09:43:28.927273 24584 layer_factory.hpp:77] Creating layer conv2_2/dwise/scale
I1002 09:43:28.927278 24584 net.cpp:100] Creating Layer conv2_2/dwise/scale
I1002 09:43:28.927279 24584 net.cpp:434] conv2_2/dwise/scale <- conv2_2/dwise
I1002 09:43:28.927295 24584 net.cpp:395] conv2_2/dwise/scale -> conv2_2/dwise (in-place)
I1002 09:43:28.927332 24584 layer_factory.hpp:77] Creating layer conv2_2/dwise/scale
I1002 09:43:28.927412 24584 net.cpp:150] Setting up conv2_2/dwise/scale
I1002 09:43:28.927417 24584 net.cpp:157] Top shape: 2 96 75 128 (1843200)
I1002 09:43:28.927418 24584 net.cpp:165] Memory required for data: 301190496
I1002 09:43:28.927422 24584 layer_factory.hpp:77] Creating layer relu2_2/dwise
I1002 09:43:28.927424 24584 net.cpp:100] Creating Layer relu2_2/dwise
I1002 09:43:28.927426 24584 net.cpp:434] relu2_2/dwise <- conv2_2/dwise
I1002 09:43:28.927429 24584 net.cpp:395] relu2_2/dwise -> conv2_2/dwise (in-place)
I1002 09:43:28.927829 24584 net.cpp:150] Setting up relu2_2/dwise
I1002 09:43:28.927835 24584 net.cpp:157] Top shape: 2 96 75 128 (1843200)
I1002 09:43:28.927837 24584 net.cpp:165] Memory required for data: 308563296
I1002 09:43:28.927839 24584 layer_factory.hpp:77] Creating layer conv2_2/linear
I1002 09:43:28.927845 24584 net.cpp:100] Creating Layer conv2_2/linear
I1002 09:43:28.927847 24584 net.cpp:434] conv2_2/linear <- conv2_2/dwise
I1002 09:43:28.927850 24584 net.cpp:408] conv2_2/linear -> conv2_2/linear
I1002 09:43:28.929029 24584 net.cpp:150] Setting up conv2_2/linear
I1002 09:43:28.929039 24584 net.cpp:157] Top shape: 2 24 75 128 (460800)
I1002 09:43:28.929041 24584 net.cpp:165] Memory required for data: 310406496
I1002 09:43:28.929046 24584 layer_factory.hpp:77] Creating layer conv2_2/linear/bn
I1002 09:43:28.929054 24584 net.cpp:100] Creating Layer conv2_2/linear/bn
I1002 09:43:28.929056 24584 net.cpp:434] conv2_2/linear/bn <- conv2_2/linear
I1002 09:43:28.929061 24584 net.cpp:395] conv2_2/linear/bn -> conv2_2/linear (in-place)
I1002 09:43:28.929239 24584 net.cpp:150] Setting up conv2_2/linear/bn
I1002 09:43:28.929245 24584 net.cpp:157] Top shape: 2 24 75 128 (460800)
I1002 09:43:28.929247 24584 net.cpp:165] Memory required for data: 312249696
I1002 09:43:28.929253 24584 layer_factory.hpp:77] Creating layer conv2_2/linear/scale
I1002 09:43:28.929258 24584 net.cpp:100] Creating Layer conv2_2/linear/scale
I1002 09:43:28.929262 24584 net.cpp:434] conv2_2/linear/scale <- conv2_2/linear
I1002 09:43:28.929266 24584 net.cpp:395] conv2_2/linear/scale -> conv2_2/linear (in-place)
I1002 09:43:28.929301 24584 layer_factory.hpp:77] Creating layer conv2_2/linear/scale
I1002 09:43:28.929399 24584 net.cpp:150] Setting up conv2_2/linear/scale
I1002 09:43:28.929406 24584 net.cpp:157] Top shape: 2 24 75 128 (460800)
I1002 09:43:28.929409 24584 net.cpp:165] Memory required for data: 314092896
I1002 09:43:28.929414 24584 layer_factory.hpp:77] Creating layer conv2_2/linear_conv2_2/linear/scale_0_split
I1002 09:43:28.929419 24584 net.cpp:100] Creating Layer conv2_2/linear_conv2_2/linear/scale_0_split
I1002 09:43:28.929422 24584 net.cpp:434] conv2_2/linear_conv2_2/linear/scale_0_split <- conv2_2/linear
I1002 09:43:28.929427 24584 net.cpp:408] conv2_2/linear_conv2_2/linear/scale_0_split -> conv2_2/linear_conv2_2/linear/scale_0_split_0
I1002 09:43:28.929435 24584 net.cpp:408] conv2_2/linear_conv2_2/linear/scale_0_split -> conv2_2/linear_conv2_2/linear/scale_0_split_1
I1002 09:43:28.929466 24584 net.cpp:150] Setting up conv2_2/linear_conv2_2/linear/scale_0_split
I1002 09:43:28.929472 24584 net.cpp:157] Top shape: 2 24 75 128 (460800)
I1002 09:43:28.929476 24584 net.cpp:157] Top shape: 2 24 75 128 (460800)
I1002 09:43:28.929479 24584 net.cpp:165] Memory required for data: 317779296
I1002 09:43:28.929481 24584 layer_factory.hpp:77] Creating layer conv3_1/expand
I1002 09:43:28.929487 24584 net.cpp:100] Creating Layer conv3_1/expand
I1002 09:43:28.929491 24584 net.cpp:434] conv3_1/expand <- conv2_2/linear_conv2_2/linear/scale_0_split_0
I1002 09:43:28.929495 24584 net.cpp:408] conv3_1/expand -> conv3_1/expand
I1002 09:43:28.930802 24584 net.cpp:150] Setting up conv3_1/expand
I1002 09:43:28.930812 24584 net.cpp:157] Top shape: 2 144 75 128 (2764800)
I1002 09:43:28.930814 24584 net.cpp:165] Memory required for data: 328838496
I1002 09:43:28.930830 24584 layer_factory.hpp:77] Creating layer conv3_1/expand/bn
I1002 09:43:28.930836 24584 net.cpp:100] Creating Layer conv3_1/expand/bn
I1002 09:43:28.930840 24584 net.cpp:434] conv3_1/expand/bn <- conv3_1/expand
I1002 09:43:28.930846 24584 net.cpp:395] conv3_1/expand/bn -> conv3_1/expand (in-place)
I1002 09:43:28.930985 24584 net.cpp:150] Setting up conv3_1/expand/bn
I1002 09:43:28.930990 24584 net.cpp:157] Top shape: 2 144 75 128 (2764800)
I1002 09:43:28.930994 24584 net.cpp:165] Memory required for data: 339897696
I1002 09:43:28.930997 24584 layer_factory.hpp:77] Creating layer conv3_1/expand/scale
I1002 09:43:28.931001 24584 net.cpp:100] Creating Layer conv3_1/expand/scale
I1002 09:43:28.931005 24584 net.cpp:434] conv3_1/expand/scale <- conv3_1/expand
I1002 09:43:28.931007 24584 net.cpp:395] conv3_1/expand/scale -> conv3_1/expand (in-place)
I1002 09:43:28.931040 24584 layer_factory.hpp:77] Creating layer conv3_1/expand/scale
I1002 09:43:28.931119 24584 net.cpp:150] Setting up conv3_1/expand/scale
I1002 09:43:28.931124 24584 net.cpp:157] Top shape: 2 144 75 128 (2764800)
I1002 09:43:28.931126 24584 net.cpp:165] Memory required for data: 350956896
I1002 09:43:28.931130 24584 layer_factory.hpp:77] Creating layer relu3_1/expand
I1002 09:43:28.931138 24584 net.cpp:100] Creating Layer relu3_1/expand
I1002 09:43:28.931140 24584 net.cpp:434] relu3_1/expand <- conv3_1/expand
I1002 09:43:28.931144 24584 net.cpp:395] relu3_1/expand -> conv3_1/expand (in-place)
I1002 09:43:28.931421 24584 net.cpp:150] Setting up relu3_1/expand
I1002 09:43:28.931428 24584 net.cpp:157] Top shape: 2 144 75 128 (2764800)
I1002 09:43:28.931429 24584 net.cpp:165] Memory required for data: 362016096
I1002 09:43:28.931432 24584 layer_factory.hpp:77] Creating layer conv3_1/dwise
I1002 09:43:28.931442 24584 net.cpp:100] Creating Layer conv3_1/dwise
I1002 09:43:28.931445 24584 net.cpp:434] conv3_1/dwise <- conv3_1/expand
I1002 09:43:28.931452 24584 net.cpp:408] conv3_1/dwise -> conv3_1/dwise
I1002 09:43:28.931593 24584 net.cpp:150] Setting up conv3_1/dwise
I1002 09:43:28.931598 24584 net.cpp:157] Top shape: 2 144 75 128 (2764800)
I1002 09:43:28.931602 24584 net.cpp:165] Memory required for data: 373075296
I1002 09:43:28.931605 24584 layer_factory.hpp:77] Creating layer conv3_1/dwise/bn
I1002 09:43:28.931612 24584 net.cpp:100] Creating Layer conv3_1/dwise/bn
I1002 09:43:28.931615 24584 net.cpp:434] conv3_1/dwise/bn <- conv3_1/dwise
I1002 09:43:28.931620 24584 net.cpp:395] conv3_1/dwise/bn -> conv3_1/dwise (in-place)
I1002 09:43:28.931747 24584 net.cpp:150] Setting up conv3_1/dwise/bn
I1002 09:43:28.931751 24584 net.cpp:157] Top shape: 2 144 75 128 (2764800)
I1002 09:43:28.931754 24584 net.cpp:165] Memory required for data: 384134496
I1002 09:43:28.931761 24584 layer_factory.hpp:77] Creating layer conv3_1/dwise/scale
I1002 09:43:28.931766 24584 net.cpp:100] Creating Layer conv3_1/dwise/scale
I1002 09:43:28.931769 24584 net.cpp:434] conv3_1/dwise/scale <- conv3_1/dwise
I1002 09:43:28.931774 24584 net.cpp:395] conv3_1/dwise/scale -> conv3_1/dwise (in-place)
I1002 09:43:28.931807 24584 layer_factory.hpp:77] Creating layer conv3_1/dwise/scale
I1002 09:43:28.931882 24584 net.cpp:150] Setting up conv3_1/dwise/scale
I1002 09:43:28.931888 24584 net.cpp:157] Top shape: 2 144 75 128 (2764800)
I1002 09:43:28.931891 24584 net.cpp:165] Memory required for data: 395193696
I1002 09:43:28.931896 24584 layer_factory.hpp:77] Creating layer relu3_1/dwise
I1002 09:43:28.931901 24584 net.cpp:100] Creating Layer relu3_1/dwise
I1002 09:43:28.931905 24584 net.cpp:434] relu3_1/dwise <- conv3_1/dwise
I1002 09:43:28.931910 24584 net.cpp:395] relu3_1/dwise -> conv3_1/dwise (in-place)
I1002 09:43:28.932304 24584 net.cpp:150] Setting up relu3_1/dwise
I1002 09:43:28.932312 24584 net.cpp:157] Top shape: 2 144 75 128 (2764800)
I1002 09:43:28.932315 24584 net.cpp:165] Memory required for data: 406252896
I1002 09:43:28.932319 24584 layer_factory.hpp:77] Creating layer conv3_1/linear
I1002 09:43:28.932327 24584 net.cpp:100] Creating Layer conv3_1/linear
I1002 09:43:28.932339 24584 net.cpp:434] conv3_1/linear <- conv3_1/dwise
I1002 09:43:28.932344 24584 net.cpp:408] conv3_1/linear -> conv3_1/linear
I1002 09:43:28.933405 24584 net.cpp:150] Setting up conv3_1/linear
I1002 09:43:28.933413 24584 net.cpp:157] Top shape: 2 24 75 128 (460800)
I1002 09:43:28.933414 24584 net.cpp:165] Memory required for data: 408096096
I1002 09:43:28.933420 24584 layer_factory.hpp:77] Creating layer conv3_1/linear/bn
I1002 09:43:28.933428 24584 net.cpp:100] Creating Layer conv3_1/linear/bn
I1002 09:43:28.933431 24584 net.cpp:434] conv3_1/linear/bn <- conv3_1/linear
I1002 09:43:28.933439 24584 net.cpp:395] conv3_1/linear/bn -> conv3_1/linear (in-place)
I1002 09:43:28.933571 24584 net.cpp:150] Setting up conv3_1/linear/bn
I1002 09:43:28.933576 24584 net.cpp:157] Top shape: 2 24 75 128 (460800)
I1002 09:43:28.933578 24584 net.cpp:165] Memory required for data: 409939296
I1002 09:43:28.933585 24584 layer_factory.hpp:77] Creating layer conv3_1/linear/scale
I1002 09:43:28.933593 24584 net.cpp:100] Creating Layer conv3_1/linear/scale
I1002 09:43:28.933598 24584 net.cpp:434] conv3_1/linear/scale <- conv3_1/linear
I1002 09:43:28.933603 24584 net.cpp:395] conv3_1/linear/scale -> conv3_1/linear (in-place)
I1002 09:43:28.933634 24584 layer_factory.hpp:77] Creating layer conv3_1/linear/scale
I1002 09:43:28.933712 24584 net.cpp:150] Setting up conv3_1/linear/scale
I1002 09:43:28.933717 24584 net.cpp:157] Top shape: 2 24 75 128 (460800)
I1002 09:43:28.933720 24584 net.cpp:165] Memory required for data: 411782496
I1002 09:43:28.933725 24584 layer_factory.hpp:77] Creating layer block_3_1
I1002 09:43:28.933732 24584 net.cpp:100] Creating Layer block_3_1
I1002 09:43:28.933735 24584 net.cpp:434] block_3_1 <- conv2_2/linear_conv2_2/linear/scale_0_split_1
I1002 09:43:28.933739 24584 net.cpp:434] block_3_1 <- conv3_1/linear
I1002 09:43:28.933745 24584 net.cpp:408] block_3_1 -> block_3_1
I1002 09:43:28.933768 24584 net.cpp:150] Setting up block_3_1
I1002 09:43:28.933771 24584 net.cpp:157] Top shape: 2 24 75 128 (460800)
I1002 09:43:28.933774 24584 net.cpp:165] Memory required for data: 413625696
I1002 09:43:28.933776 24584 layer_factory.hpp:77] Creating layer conv3_2/expand
I1002 09:43:28.933784 24584 net.cpp:100] Creating Layer conv3_2/expand
I1002 09:43:28.933789 24584 net.cpp:434] conv3_2/expand <- block_3_1
I1002 09:43:28.933794 24584 net.cpp:408] conv3_2/expand -> conv3_2/expand
I1002 09:43:28.934855 24584 net.cpp:150] Setting up conv3_2/expand
I1002 09:43:28.934864 24584 net.cpp:157] Top shape: 2 144 75 128 (2764800)
I1002 09:43:28.934867 24584 net.cpp:165] Memory required for data: 424684896
I1002 09:43:28.934872 24584 layer_factory.hpp:77] Creating layer conv3_2/expand/bn
I1002 09:43:28.934877 24584 net.cpp:100] Creating Layer conv3_2/expand/bn
I1002 09:43:28.934882 24584 net.cpp:434] conv3_2/expand/bn <- conv3_2/expand
I1002 09:43:28.934890 24584 net.cpp:395] conv3_2/expand/bn -> conv3_2/expand (in-place)
I1002 09:43:28.935021 24584 net.cpp:150] Setting up conv3_2/expand/bn
I1002 09:43:28.935026 24584 net.cpp:157] Top shape: 2 144 75 128 (2764800)
I1002 09:43:28.935029 24584 net.cpp:165] Memory required for data: 435744096
I1002 09:43:28.935035 24584 layer_factory.hpp:77] Creating layer conv3_2/expand/scale
I1002 09:43:28.935041 24584 net.cpp:100] Creating Layer conv3_2/expand/scale
I1002 09:43:28.935045 24584 net.cpp:434] conv3_2/expand/scale <- conv3_2/expand
I1002 09:43:28.935051 24584 net.cpp:395] conv3_2/expand/scale -> conv3_2/expand (in-place)
I1002 09:43:28.935082 24584 layer_factory.hpp:77] Creating layer conv3_2/expand/scale
I1002 09:43:28.935159 24584 net.cpp:150] Setting up conv3_2/expand/scale
I1002 09:43:28.935164 24584 net.cpp:157] Top shape: 2 144 75 128 (2764800)
I1002 09:43:28.935168 24584 net.cpp:165] Memory required for data: 446803296
I1002 09:43:28.935180 24584 layer_factory.hpp:77] Creating layer relu3_2/expand
I1002 09:43:28.935186 24584 net.cpp:100] Creating Layer relu3_2/expand
I1002 09:43:28.935189 24584 net.cpp:434] relu3_2/expand <- conv3_2/expand
I1002 09:43:28.935194 24584 net.cpp:395] relu3_2/expand -> conv3_2/expand (in-place)
I1002 09:43:28.935581 24584 net.cpp:150] Setting up relu3_2/expand
I1002 09:43:28.935590 24584 net.cpp:157] Top shape: 2 144 75 128 (2764800)
I1002 09:43:28.935592 24584 net.cpp:165] Memory required for data: 457862496
I1002 09:43:28.935596 24584 layer_factory.hpp:77] Creating layer conv3_2/dwise
I1002 09:43:28.935603 24584 net.cpp:100] Creating Layer conv3_2/dwise
I1002 09:43:28.935607 24584 net.cpp:434] conv3_2/dwise <- conv3_2/expand
I1002 09:43:28.935613 24584 net.cpp:408] conv3_2/dwise -> conv3_2/dwise
I1002 09:43:28.935755 24584 net.cpp:150] Setting up conv3_2/dwise
I1002 09:43:28.935760 24584 net.cpp:157] Top shape: 2 144 38 64 (700416)
I1002 09:43:28.935762 24584 net.cpp:165] Memory required for data: 460664160
I1002 09:43:28.935766 24584 layer_factory.hpp:77] Creating layer conv3_2/dwise/bn
I1002 09:43:28.935772 24584 net.cpp:100] Creating Layer conv3_2/dwise/bn
I1002 09:43:28.935775 24584 net.cpp:434] conv3_2/dwise/bn <- conv3_2/dwise
I1002 09:43:28.935781 24584 net.cpp:395] conv3_2/dwise/bn -> conv3_2/dwise (in-place)
I1002 09:43:28.935911 24584 net.cpp:150] Setting up conv3_2/dwise/bn
I1002 09:43:28.935916 24584 net.cpp:157] Top shape: 2 144 38 64 (700416)
I1002 09:43:28.935919 24584 net.cpp:165] Memory required for data: 463465824
I1002 09:43:28.935925 24584 layer_factory.hpp:77] Creating layer conv3_2/dwise/scale
I1002 09:43:28.935930 24584 net.cpp:100] Creating Layer conv3_2/dwise/scale
I1002 09:43:28.935935 24584 net.cpp:434] conv3_2/dwise/scale <- conv3_2/dwise
I1002 09:43:28.935941 24584 net.cpp:395] conv3_2/dwise/scale -> conv3_2/dwise (in-place)
I1002 09:43:28.935972 24584 layer_factory.hpp:77] Creating layer conv3_2/dwise/scale
I1002 09:43:28.936046 24584 net.cpp:150] Setting up conv3_2/dwise/scale
I1002 09:43:28.936053 24584 net.cpp:157] Top shape: 2 144 38 64 (700416)
I1002 09:43:28.936055 24584 net.cpp:165] Memory required for data: 466267488
I1002 09:43:28.936060 24584 layer_factory.hpp:77] Creating layer relu3_2/dwise
I1002 09:43:28.936065 24584 net.cpp:100] Creating Layer relu3_2/dwise
I1002 09:43:28.936069 24584 net.cpp:434] relu3_2/dwise <- conv3_2/dwise
I1002 09:43:28.936074 24584 net.cpp:395] relu3_2/dwise -> conv3_2/dwise (in-place)
I1002 09:43:28.936348 24584 net.cpp:150] Setting up relu3_2/dwise
I1002 09:43:28.936354 24584 net.cpp:157] Top shape: 2 144 38 64 (700416)
I1002 09:43:28.936357 24584 net.cpp:165] Memory required for data: 469069152
I1002 09:43:28.936360 24584 layer_factory.hpp:77] Creating layer conv3_2/linear
I1002 09:43:28.936368 24584 net.cpp:100] Creating Layer conv3_2/linear
I1002 09:43:28.936372 24584 net.cpp:434] conv3_2/linear <- conv3_2/dwise
I1002 09:43:28.936379 24584 net.cpp:408] conv3_2/linear -> conv3_2/linear
I1002 09:43:28.937436 24584 net.cpp:150] Setting up conv3_2/linear
I1002 09:43:28.937443 24584 net.cpp:157] Top shape: 2 32 38 64 (155648)
I1002 09:43:28.937446 24584 net.cpp:165] Memory required for data: 469691744
I1002 09:43:28.937453 24584 layer_factory.hpp:77] Creating layer conv3_2/linear/bn
I1002 09:43:28.937459 24584 net.cpp:100] Creating Layer conv3_2/linear/bn
I1002 09:43:28.937463 24584 net.cpp:434] conv3_2/linear/bn <- conv3_2/linear
I1002 09:43:28.937467 24584 net.cpp:395] conv3_2/linear/bn -> conv3_2/linear (in-place)
I1002 09:43:28.937605 24584 net.cpp:150] Setting up conv3_2/linear/bn
I1002 09:43:28.937609 24584 net.cpp:157] Top shape: 2 32 38 64 (155648)
I1002 09:43:28.937611 24584 net.cpp:165] Memory required for data: 470314336
I1002 09:43:28.937618 24584 layer_factory.hpp:77] Creating layer conv3_2/linear/scale
I1002 09:43:28.937623 24584 net.cpp:100] Creating Layer conv3_2/linear/scale
I1002 09:43:28.937626 24584 net.cpp:434] conv3_2/linear/scale <- conv3_2/linear
I1002 09:43:28.937633 24584 net.cpp:395] conv3_2/linear/scale -> conv3_2/linear (in-place)
I1002 09:43:28.937665 24584 layer_factory.hpp:77] Creating layer conv3_2/linear/scale
I1002 09:43:28.937742 24584 net.cpp:150] Setting up conv3_2/linear/scale
I1002 09:43:28.937747 24584 net.cpp:157] Top shape: 2 32 38 64 (155648)
I1002 09:43:28.937749 24584 net.cpp:165] Memory required for data: 470936928
I1002 09:43:28.937763 24584 layer_factory.hpp:77] Creating layer conv3_2/linear_conv3_2/linear/scale_0_split
I1002 09:43:28.937770 24584 net.cpp:100] Creating Layer conv3_2/linear_conv3_2/linear/scale_0_split
I1002 09:43:28.937774 24584 net.cpp:434] conv3_2/linear_conv3_2/linear/scale_0_split <- conv3_2/linear
I1002 09:43:28.937780 24584 net.cpp:408] conv3_2/linear_conv3_2/linear/scale_0_split -> conv3_2/linear_conv3_2/linear/scale_0_split_0
I1002 09:43:28.937788 24584 net.cpp:408] conv3_2/linear_conv3_2/linear/scale_0_split -> conv3_2/linear_conv3_2/linear/scale_0_split_1
I1002 09:43:28.937819 24584 net.cpp:150] Setting up conv3_2/linear_conv3_2/linear/scale_0_split
I1002 09:43:28.937822 24584 net.cpp:157] Top shape: 2 32 38 64 (155648)
I1002 09:43:28.937826 24584 net.cpp:157] Top shape: 2 32 38 64 (155648)
I1002 09:43:28.937829 24584 net.cpp:165] Memory required for data: 472182112
I1002 09:43:28.937834 24584 layer_factory.hpp:77] Creating layer conv4_1/expand
I1002 09:43:28.937841 24584 net.cpp:100] Creating Layer conv4_1/expand
I1002 09:43:28.937845 24584 net.cpp:434] conv4_1/expand <- conv3_2/linear_conv3_2/linear/scale_0_split_0
I1002 09:43:28.937851 24584 net.cpp:408] conv4_1/expand -> conv4_1/expand
I1002 09:43:28.938920 24584 net.cpp:150] Setting up conv4_1/expand
I1002 09:43:28.938926 24584 net.cpp:157] Top shape: 2 192 38 64 (933888)
I1002 09:43:28.938928 24584 net.cpp:165] Memory required for data: 475917664
I1002 09:43:28.938933 24584 layer_factory.hpp:77] Creating layer conv4_1/expand/bn
I1002 09:43:28.938941 24584 net.cpp:100] Creating Layer conv4_1/expand/bn
I1002 09:43:28.938946 24584 net.cpp:434] conv4_1/expand/bn <- conv4_1/expand
I1002 09:43:28.938951 24584 net.cpp:395] conv4_1/expand/bn -> conv4_1/expand (in-place)
I1002 09:43:28.939086 24584 net.cpp:150] Setting up conv4_1/expand/bn
I1002 09:43:28.939091 24584 net.cpp:157] Top shape: 2 192 38 64 (933888)
I1002 09:43:28.939093 24584 net.cpp:165] Memory required for data: 479653216
I1002 09:43:28.939101 24584 layer_factory.hpp:77] Creating layer conv4_1/expand/scale
I1002 09:43:28.939107 24584 net.cpp:100] Creating Layer conv4_1/expand/scale
I1002 09:43:28.939112 24584 net.cpp:434] conv4_1/expand/scale <- conv4_1/expand
I1002 09:43:28.939117 24584 net.cpp:395] conv4_1/expand/scale -> conv4_1/expand (in-place)
I1002 09:43:28.939148 24584 layer_factory.hpp:77] Creating layer conv4_1/expand/scale
I1002 09:43:28.939235 24584 net.cpp:150] Setting up conv4_1/expand/scale
I1002 09:43:28.939241 24584 net.cpp:157] Top shape: 2 192 38 64 (933888)
I1002 09:43:28.939244 24584 net.cpp:165] Memory required for data: 483388768
I1002 09:43:28.939250 24584 layer_factory.hpp:77] Creating layer relu4_1/expand
I1002 09:43:28.939257 24584 net.cpp:100] Creating Layer relu4_1/expand
I1002 09:43:28.939261 24584 net.cpp:434] relu4_1/expand <- conv4_1/expand
I1002 09:43:28.939266 24584 net.cpp:395] relu4_1/expand -> conv4_1/expand (in-place)
I1002 09:43:28.939666 24584 net.cpp:150] Setting up relu4_1/expand
I1002 09:43:28.939672 24584 net.cpp:157] Top shape: 2 192 38 64 (933888)
I1002 09:43:28.939677 24584 net.cpp:165] Memory required for data: 487124320
I1002 09:43:28.939679 24584 layer_factory.hpp:77] Creating layer conv4_1/dwise
I1002 09:43:28.939687 24584 net.cpp:100] Creating Layer conv4_1/dwise
I1002 09:43:28.939690 24584 net.cpp:434] conv4_1/dwise <- conv4_1/expand
I1002 09:43:28.939698 24584 net.cpp:408] conv4_1/dwise -> conv4_1/dwise
I1002 09:43:28.939841 24584 net.cpp:150] Setting up conv4_1/dwise
I1002 09:43:28.939846 24584 net.cpp:157] Top shape: 2 192 38 64 (933888)
I1002 09:43:28.939848 24584 net.cpp:165] Memory required for data: 490859872
I1002 09:43:28.939853 24584 layer_factory.hpp:77] Creating layer conv4_1/dwise/bn
I1002 09:43:28.939859 24584 net.cpp:100] Creating Layer conv4_1/dwise/bn
I1002 09:43:28.939863 24584 net.cpp:434] conv4_1/dwise/bn <- conv4_1/dwise
I1002 09:43:28.939868 24584 net.cpp:395] conv4_1/dwise/bn -> conv4_1/dwise (in-place)
I1002 09:43:28.940002 24584 net.cpp:150] Setting up conv4_1/dwise/bn
I1002 09:43:28.940014 24584 net.cpp:157] Top shape: 2 192 38 64 (933888)
I1002 09:43:28.940017 24584 net.cpp:165] Memory required for data: 494595424
I1002 09:43:28.940023 24584 layer_factory.hpp:77] Creating layer conv4_1/dwise/scale
I1002 09:43:28.940030 24584 net.cpp:100] Creating Layer conv4_1/dwise/scale
I1002 09:43:28.940034 24584 net.cpp:434] conv4_1/dwise/scale <- conv4_1/dwise
I1002 09:43:28.940040 24584 net.cpp:395] conv4_1/dwise/scale -> conv4_1/dwise (in-place)
I1002 09:43:28.940073 24584 layer_factory.hpp:77] Creating layer conv4_1/dwise/scale
I1002 09:43:28.940150 24584 net.cpp:150] Setting up conv4_1/dwise/scale
I1002 09:43:28.940155 24584 net.cpp:157] Top shape: 2 192 38 64 (933888)
I1002 09:43:28.940157 24584 net.cpp:165] Memory required for data: 498330976
I1002 09:43:28.940163 24584 layer_factory.hpp:77] Creating layer relu4_1/dwise
I1002 09:43:28.940171 24584 net.cpp:100] Creating Layer relu4_1/dwise
I1002 09:43:28.940174 24584 net.cpp:434] relu4_1/dwise <- conv4_1/dwise
I1002 09:43:28.940179 24584 net.cpp:395] relu4_1/dwise -> conv4_1/dwise (in-place)
I1002 09:43:28.940454 24584 net.cpp:150] Setting up relu4_1/dwise
I1002 09:43:28.940459 24584 net.cpp:157] Top shape: 2 192 38 64 (933888)
I1002 09:43:28.940464 24584 net.cpp:165] Memory required for data: 502066528
I1002 09:43:28.940465 24584 layer_factory.hpp:77] Creating layer conv4_1/linear
I1002 09:43:28.940474 24584 net.cpp:100] Creating Layer conv4_1/linear
I1002 09:43:28.940479 24584 net.cpp:434] conv4_1/linear <- conv4_1/dwise
I1002 09:43:28.940485 24584 net.cpp:408] conv4_1/linear -> conv4_1/linear
I1002 09:43:28.941584 24584 net.cpp:150] Setting up conv4_1/linear
I1002 09:43:28.941591 24584 net.cpp:157] Top shape: 2 32 38 64 (155648)
I1002 09:43:28.941594 24584 net.cpp:165] Memory required for data: 502689120
I1002 09:43:28.941599 24584 layer_factory.hpp:77] Creating layer conv4_1/linear/bn
I1002 09:43:28.941606 24584 net.cpp:100] Creating Layer conv4_1/linear/bn
I1002 09:43:28.941609 24584 net.cpp:434] conv4_1/linear/bn <- conv4_1/linear
I1002 09:43:28.941617 24584 net.cpp:395] conv4_1/linear/bn -> conv4_1/linear (in-place)
I1002 09:43:28.941751 24584 net.cpp:150] Setting up conv4_1/linear/bn
I1002 09:43:28.941756 24584 net.cpp:157] Top shape: 2 32 38 64 (155648)
I1002 09:43:28.941756 24584 net.cpp:165] Memory required for data: 503311712
I1002 09:43:28.941764 24584 layer_factory.hpp:77] Creating layer conv4_1/linear/scale
I1002 09:43:28.941771 24584 net.cpp:100] Creating Layer conv4_1/linear/scale
I1002 09:43:28.941774 24584 net.cpp:434] conv4_1/linear/scale <- conv4_1/linear
I1002 09:43:28.941779 24584 net.cpp:395] conv4_1/linear/scale -> conv4_1/linear (in-place)
I1002 09:43:28.941812 24584 layer_factory.hpp:77] Creating layer conv4_1/linear/scale
I1002 09:43:28.941890 24584 net.cpp:150] Setting up conv4_1/linear/scale
I1002 09:43:28.941895 24584 net.cpp:157] Top shape: 2 32 38 64 (155648)
I1002 09:43:28.941897 24584 net.cpp:165] Memory required for data: 503934304
I1002 09:43:28.941903 24584 layer_factory.hpp:77] Creating layer block_4_1
I1002 09:43:28.941916 24584 net.cpp:100] Creating Layer block_4_1
I1002 09:43:28.941920 24584 net.cpp:434] block_4_1 <- conv3_2/linear_conv3_2/linear/scale_0_split_1
I1002 09:43:28.941923 24584 net.cpp:434] block_4_1 <- conv4_1/linear
I1002 09:43:28.941929 24584 net.cpp:408] block_4_1 -> block_4_1
I1002 09:43:28.941949 24584 net.cpp:150] Setting up block_4_1
I1002 09:43:28.941954 24584 net.cpp:157] Top shape: 2 32 38 64 (155648)
I1002 09:43:28.941956 24584 net.cpp:165] Memory required for data: 504556896
I1002 09:43:28.941960 24584 layer_factory.hpp:77] Creating layer block_4_1_block_4_1_0_split
I1002 09:43:28.941965 24584 net.cpp:100] Creating Layer block_4_1_block_4_1_0_split
I1002 09:43:28.941969 24584 net.cpp:434] block_4_1_block_4_1_0_split <- block_4_1
I1002 09:43:28.941977 24584 net.cpp:408] block_4_1_block_4_1_0_split -> block_4_1_block_4_1_0_split_0
I1002 09:43:28.941983 24584 net.cpp:408] block_4_1_block_4_1_0_split -> block_4_1_block_4_1_0_split_1
I1002 09:43:28.942015 24584 net.cpp:150] Setting up block_4_1_block_4_1_0_split
I1002 09:43:28.942026 24584 net.cpp:157] Top shape: 2 32 38 64 (155648)
I1002 09:43:28.942030 24584 net.cpp:157] Top shape: 2 32 38 64 (155648)
I1002 09:43:28.942034 24584 net.cpp:165] Memory required for data: 505802080
I1002 09:43:28.942037 24584 layer_factory.hpp:77] Creating layer conv4_2/expand
I1002 09:43:28.942045 24584 net.cpp:100] Creating Layer conv4_2/expand
I1002 09:43:28.942049 24584 net.cpp:434] conv4_2/expand <- block_4_1_block_4_1_0_split_0
I1002 09:43:28.942055 24584 net.cpp:408] conv4_2/expand -> conv4_2/expand
I1002 09:43:28.943244 24584 net.cpp:150] Setting up conv4_2/expand
I1002 09:43:28.943253 24584 net.cpp:157] Top shape: 2 192 38 64 (933888)
I1002 09:43:28.943254 24584 net.cpp:165] Memory required for data: 509537632
I1002 09:43:28.943259 24584 layer_factory.hpp:77] Creating layer conv4_2/expand/bn
I1002 09:43:28.943264 24584 net.cpp:100] Creating Layer conv4_2/expand/bn
I1002 09:43:28.943269 24584 net.cpp:434] conv4_2/expand/bn <- conv4_2/expand
I1002 09:43:28.943274 24584 net.cpp:395] conv4_2/expand/bn -> conv4_2/expand (in-place)
I1002 09:43:28.943410 24584 net.cpp:150] Setting up conv4_2/expand/bn
I1002 09:43:28.943415 24584 net.cpp:157] Top shape: 2 192 38 64 (933888)
I1002 09:43:28.943418 24584 net.cpp:165] Memory required for data: 513273184
I1002 09:43:28.943423 24584 layer_factory.hpp:77] Creating layer conv4_2/expand/scale
I1002 09:43:28.943431 24584 net.cpp:100] Creating Layer conv4_2/expand/scale
I1002 09:43:28.943435 24584 net.cpp:434] conv4_2/expand/scale <- conv4_2/expand
I1002 09:43:28.943440 24584 net.cpp:395] conv4_2/expand/scale -> conv4_2/expand (in-place)
I1002 09:43:28.943473 24584 layer_factory.hpp:77] Creating layer conv4_2/expand/scale
I1002 09:43:28.943552 24584 net.cpp:150] Setting up conv4_2/expand/scale
I1002 09:43:28.943557 24584 net.cpp:157] Top shape: 2 192 38 64 (933888)
I1002 09:43:28.943558 24584 net.cpp:165] Memory required for data: 517008736
I1002 09:43:28.943563 24584 layer_factory.hpp:77] Creating layer relu4_2/expand
I1002 09:43:28.943570 24584 net.cpp:100] Creating Layer relu4_2/expand
I1002 09:43:28.943574 24584 net.cpp:434] relu4_2/expand <- conv4_2/expand
I1002 09:43:28.943578 24584 net.cpp:395] relu4_2/expand -> conv4_2/expand (in-place)
I1002 09:43:28.943858 24584 net.cpp:150] Setting up relu4_2/expand
I1002 09:43:28.943866 24584 net.cpp:157] Top shape: 2 192 38 64 (933888)
I1002 09:43:28.943867 24584 net.cpp:165] Memory required for data: 520744288
I1002 09:43:28.943871 24584 layer_factory.hpp:77] Creating layer conv4_2/dwise
I1002 09:43:28.943878 24584 net.cpp:100] Creating Layer conv4_2/dwise
I1002 09:43:28.943882 24584 net.cpp:434] conv4_2/dwise <- conv4_2/expand
I1002 09:43:28.943889 24584 net.cpp:408] conv4_2/dwise -> conv4_2/dwise
I1002 09:43:28.944034 24584 net.cpp:150] Setting up conv4_2/dwise
I1002 09:43:28.944039 24584 net.cpp:157] Top shape: 2 192 38 64 (933888)
I1002 09:43:28.944043 24584 net.cpp:165] Memory required for data: 524479840
I1002 09:43:28.944047 24584 layer_factory.hpp:77] Creating layer conv4_2/dwise/bn
I1002 09:43:28.944053 24584 net.cpp:100] Creating Layer conv4_2/dwise/bn
I1002 09:43:28.944056 24584 net.cpp:434] conv4_2/dwise/bn <- conv4_2/dwise
I1002 09:43:28.944061 24584 net.cpp:395] conv4_2/dwise/bn -> conv4_2/dwise (in-place)
I1002 09:43:28.944236 24584 net.cpp:150] Setting up conv4_2/dwise/bn
I1002 09:43:28.944242 24584 net.cpp:157] Top shape: 2 192 38 64 (933888)
I1002 09:43:28.944244 24584 net.cpp:165] Memory required for data: 528215392
I1002 09:43:28.944252 24584 layer_factory.hpp:77] Creating layer conv4_2/dwise/scale
I1002 09:43:28.944257 24584 net.cpp:100] Creating Layer conv4_2/dwise/scale
I1002 09:43:28.944262 24584 net.cpp:434] conv4_2/dwise/scale <- conv4_2/dwise
I1002 09:43:28.944267 24584 net.cpp:395] conv4_2/dwise/scale -> conv4_2/dwise (in-place)
I1002 09:43:28.944300 24584 layer_factory.hpp:77] Creating layer conv4_2/dwise/scale
I1002 09:43:28.944396 24584 net.cpp:150] Setting up conv4_2/dwise/scale
I1002 09:43:28.944402 24584 net.cpp:157] Top shape: 2 192 38 64 (933888)
I1002 09:43:28.944418 24584 net.cpp:165] Memory required for data: 531950944
I1002 09:43:28.944425 24584 layer_factory.hpp:77] Creating layer relu4_2/dwise
I1002 09:43:28.944430 24584 net.cpp:100] Creating Layer relu4_2/dwise
I1002 09:43:28.944434 24584 net.cpp:434] relu4_2/dwise <- conv4_2/dwise
I1002 09:43:28.944439 24584 net.cpp:395] relu4_2/dwise -> conv4_2/dwise (in-place)
I1002 09:43:28.944828 24584 net.cpp:150] Setting up relu4_2/dwise
I1002 09:43:28.944835 24584 net.cpp:157] Top shape: 2 192 38 64 (933888)
I1002 09:43:28.944839 24584 net.cpp:165] Memory required for data: 535686496
I1002 09:43:28.944842 24584 layer_factory.hpp:77] Creating layer conv4_2/linear
I1002 09:43:28.944850 24584 net.cpp:100] Creating Layer conv4_2/linear
I1002 09:43:28.944854 24584 net.cpp:434] conv4_2/linear <- conv4_2/dwise
I1002 09:43:28.944860 24584 net.cpp:408] conv4_2/linear -> conv4_2/linear
I1002 09:43:28.946610 24584 net.cpp:150] Setting up conv4_2/linear
I1002 09:43:28.946632 24584 net.cpp:157] Top shape: 2 32 38 64 (155648)
I1002 09:43:28.946635 24584 net.cpp:165] Memory required for data: 536309088
I1002 09:43:28.946641 24584 layer_factory.hpp:77] Creating layer conv4_2/linear/bn
I1002 09:43:28.946650 24584 net.cpp:100] Creating Layer conv4_2/linear/bn
I1002 09:43:28.946653 24584 net.cpp:434] conv4_2/linear/bn <- conv4_2/linear
I1002 09:43:28.946660 24584 net.cpp:395] conv4_2/linear/bn -> conv4_2/linear (in-place)
I1002 09:43:28.946869 24584 net.cpp:150] Setting up conv4_2/linear/bn
I1002 09:43:28.946878 24584 net.cpp:157] Top shape: 2 32 38 64 (155648)
I1002 09:43:28.946882 24584 net.cpp:165] Memory required for data: 536931680
I1002 09:43:28.946890 24584 layer_factory.hpp:77] Creating layer conv4_2/linear/scale
I1002 09:43:28.946897 24584 net.cpp:100] Creating Layer conv4_2/linear/scale
I1002 09:43:28.946899 24584 net.cpp:434] conv4_2/linear/scale <- conv4_2/linear
I1002 09:43:28.946905 24584 net.cpp:395] conv4_2/linear/scale -> conv4_2/linear (in-place)
I1002 09:43:28.946954 24584 layer_factory.hpp:77] Creating layer conv4_2/linear/scale
I1002 09:43:28.947053 24584 net.cpp:150] Setting up conv4_2/linear/scale
I1002 09:43:28.947058 24584 net.cpp:157] Top shape: 2 32 38 64 (155648)
I1002 09:43:28.947060 24584 net.cpp:165] Memory required for data: 537554272
I1002 09:43:28.947064 24584 layer_factory.hpp:77] Creating layer block_4_2
I1002 09:43:28.947067 24584 net.cpp:100] Creating Layer block_4_2
I1002 09:43:28.947070 24584 net.cpp:434] block_4_2 <- block_4_1_block_4_1_0_split_1
I1002 09:43:28.947073 24584 net.cpp:434] block_4_2 <- conv4_2/linear
I1002 09:43:28.947077 24584 net.cpp:408] block_4_2 -> block_4_2
I1002 09:43:28.947094 24584 net.cpp:150] Setting up block_4_2
I1002 09:43:28.947099 24584 net.cpp:157] Top shape: 2 32 38 64 (155648)
I1002 09:43:28.947101 24584 net.cpp:165] Memory required for data: 538176864
I1002 09:43:28.947103 24584 layer_factory.hpp:77] Creating layer conv4_3/expand
I1002 09:43:28.947108 24584 net.cpp:100] Creating Layer conv4_3/expand
I1002 09:43:28.947110 24584 net.cpp:434] conv4_3/expand <- block_4_2
I1002 09:43:28.947113 24584 net.cpp:408] conv4_3/expand -> conv4_3/expand
I1002 09:43:28.948413 24584 net.cpp:150] Setting up conv4_3/expand
I1002 09:43:28.948422 24584 net.cpp:157] Top shape: 2 192 38 64 (933888)
I1002 09:43:28.948426 24584 net.cpp:165] Memory required for data: 541912416
I1002 09:43:28.948431 24584 layer_factory.hpp:77] Creating layer conv4_3/expand/bn
I1002 09:43:28.948438 24584 net.cpp:100] Creating Layer conv4_3/expand/bn
I1002 09:43:28.948442 24584 net.cpp:434] conv4_3/expand/bn <- conv4_3/expand
I1002 09:43:28.948448 24584 net.cpp:395] conv4_3/expand/bn -> conv4_3/expand (in-place)
I1002 09:43:28.948587 24584 net.cpp:150] Setting up conv4_3/expand/bn
I1002 09:43:28.948592 24584 net.cpp:157] Top shape: 2 192 38 64 (933888)
I1002 09:43:28.948595 24584 net.cpp:165] Memory required for data: 545647968
I1002 09:43:28.948601 24584 layer_factory.hpp:77] Creating layer conv4_3/expand/scale
I1002 09:43:28.948607 24584 net.cpp:100] Creating Layer conv4_3/expand/scale
I1002 09:43:28.948624 24584 net.cpp:434] conv4_3/expand/scale <- conv4_3/expand
I1002 09:43:28.948628 24584 net.cpp:395] conv4_3/expand/scale -> conv4_3/expand (in-place)
I1002 09:43:28.948662 24584 layer_factory.hpp:77] Creating layer conv4_3/expand/scale
I1002 09:43:28.948742 24584 net.cpp:150] Setting up conv4_3/expand/scale
I1002 09:43:28.948747 24584 net.cpp:157] Top shape: 2 192 38 64 (933888)
I1002 09:43:28.948750 24584 net.cpp:165] Memory required for data: 549383520
I1002 09:43:28.948755 24584 layer_factory.hpp:77] Creating layer relu4_3/expand
I1002 09:43:28.948760 24584 net.cpp:100] Creating Layer relu4_3/expand
I1002 09:43:28.948765 24584 net.cpp:434] relu4_3/expand <- conv4_3/expand
I1002 09:43:28.948770 24584 net.cpp:395] relu4_3/expand -> conv4_3/expand (in-place)
I1002 09:43:28.949045 24584 net.cpp:150] Setting up relu4_3/expand
I1002 09:43:28.949053 24584 net.cpp:157] Top shape: 2 192 38 64 (933888)
I1002 09:43:28.949054 24584 net.cpp:165] Memory required for data: 553119072
I1002 09:43:28.949057 24584 layer_factory.hpp:77] Creating layer conv4_3/dwise
I1002 09:43:28.949065 24584 net.cpp:100] Creating Layer conv4_3/dwise
I1002 09:43:28.949069 24584 net.cpp:434] conv4_3/dwise <- conv4_3/expand
I1002 09:43:28.949076 24584 net.cpp:408] conv4_3/dwise -> conv4_3/dwise
I1002 09:43:28.949225 24584 net.cpp:150] Setting up conv4_3/dwise
I1002 09:43:28.949230 24584 net.cpp:157] Top shape: 2 192 38 64 (933888)
I1002 09:43:28.949234 24584 net.cpp:165] Memory required for data: 556854624
I1002 09:43:28.949237 24584 layer_factory.hpp:77] Creating layer conv4_3/dwise/bn
I1002 09:43:28.949244 24584 net.cpp:100] Creating Layer conv4_3/dwise/bn
I1002 09:43:28.949247 24584 net.cpp:434] conv4_3/dwise/bn <- conv4_3/dwise
I1002 09:43:28.949252 24584 net.cpp:395] conv4_3/dwise/bn -> conv4_3/dwise (in-place)
I1002 09:43:28.949390 24584 net.cpp:150] Setting up conv4_3/dwise/bn
I1002 09:43:28.949394 24584 net.cpp:157] Top shape: 2 192 38 64 (933888)
I1002 09:43:28.949398 24584 net.cpp:165] Memory required for data: 560590176
I1002 09:43:28.949404 24584 layer_factory.hpp:77] Creating layer conv4_3/dwise/scale
I1002 09:43:28.949409 24584 net.cpp:100] Creating Layer conv4_3/dwise/scale
I1002 09:43:28.949412 24584 net.cpp:434] conv4_3/dwise/scale <- conv4_3/dwise
I1002 09:43:28.949417 24584 net.cpp:395] conv4_3/dwise/scale -> conv4_3/dwise (in-place)
I1002 09:43:28.949450 24584 layer_factory.hpp:77] Creating layer conv4_3/dwise/scale
I1002 09:43:28.949527 24584 net.cpp:150] Setting up conv4_3/dwise/scale
I1002 09:43:28.949532 24584 net.cpp:157] Top shape: 2 192 38 64 (933888)
I1002 09:43:28.949534 24584 net.cpp:165] Memory required for data: 564325728
I1002 09:43:28.949539 24584 layer_factory.hpp:77] Creating layer relu4_3/dwise
I1002 09:43:28.949544 24584 net.cpp:100] Creating Layer relu4_3/dwise
I1002 09:43:28.949548 24584 net.cpp:434] relu4_3/dwise <- conv4_3/dwise
I1002 09:43:28.949554 24584 net.cpp:395] relu4_3/dwise -> conv4_3/dwise (in-place)
I1002 09:43:28.949829 24584 net.cpp:150] Setting up relu4_3/dwise
I1002 09:43:28.949836 24584 net.cpp:157] Top shape: 2 192 38 64 (933888)
I1002 09:43:28.949838 24584 net.cpp:165] Memory required for data: 568061280
I1002 09:43:28.949841 24584 layer_factory.hpp:77] Creating layer conv4_3/linear
I1002 09:43:28.949848 24584 net.cpp:100] Creating Layer conv4_3/linear
I1002 09:43:28.949853 24584 net.cpp:434] conv4_3/linear <- conv4_3/dwise
I1002 09:43:28.949859 24584 net.cpp:408] conv4_3/linear -> conv4_3/linear
I1002 09:43:28.951077 24584 net.cpp:150] Setting up conv4_3/linear
I1002 09:43:28.951084 24584 net.cpp:157] Top shape: 2 64 38 64 (311296)
I1002 09:43:28.951087 24584 net.cpp:165] Memory required for data: 569306464
I1002 09:43:28.951092 24584 layer_factory.hpp:77] Creating layer conv4_3/linear/bn
I1002 09:43:28.951098 24584 net.cpp:100] Creating Layer conv4_3/linear/bn
I1002 09:43:28.951102 24584 net.cpp:434] conv4_3/linear/bn <- conv4_3/linear
I1002 09:43:28.951108 24584 net.cpp:395] conv4_3/linear/bn -> conv4_3/linear (in-place)
I1002 09:43:28.951253 24584 net.cpp:150] Setting up conv4_3/linear/bn
I1002 09:43:28.951267 24584 net.cpp:157] Top shape: 2 64 38 64 (311296)
I1002 09:43:28.951269 24584 net.cpp:165] Memory required for data: 570551648
I1002 09:43:28.951287 24584 layer_factory.hpp:77] Creating layer conv4_3/linear/scale
I1002 09:43:28.951292 24584 net.cpp:100] Creating Layer conv4_3/linear/scale
I1002 09:43:28.951294 24584 net.cpp:434] conv4_3/linear/scale <- conv4_3/linear
I1002 09:43:28.951301 24584 net.cpp:395] conv4_3/linear/scale -> conv4_3/linear (in-place)
I1002 09:43:28.951337 24584 layer_factory.hpp:77] Creating layer conv4_3/linear/scale
I1002 09:43:28.951416 24584 net.cpp:150] Setting up conv4_3/linear/scale
I1002 09:43:28.951421 24584 net.cpp:157] Top shape: 2 64 38 64 (311296)
I1002 09:43:28.951423 24584 net.cpp:165] Memory required for data: 571796832
I1002 09:43:28.951428 24584 layer_factory.hpp:77] Creating layer conv4_3/linear_conv4_3/linear/scale_0_split
I1002 09:43:28.951436 24584 net.cpp:100] Creating Layer conv4_3/linear_conv4_3/linear/scale_0_split
I1002 09:43:28.951439 24584 net.cpp:434] conv4_3/linear_conv4_3/linear/scale_0_split <- conv4_3/linear
I1002 09:43:28.951445 24584 net.cpp:408] conv4_3/linear_conv4_3/linear/scale_0_split -> conv4_3/linear_conv4_3/linear/scale_0_split_0
I1002 09:43:28.951452 24584 net.cpp:408] conv4_3/linear_conv4_3/linear/scale_0_split -> conv4_3/linear_conv4_3/linear/scale_0_split_1
I1002 09:43:28.951483 24584 net.cpp:150] Setting up conv4_3/linear_conv4_3/linear/scale_0_split
I1002 09:43:28.951488 24584 net.cpp:157] Top shape: 2 64 38 64 (311296)
I1002 09:43:28.951491 24584 net.cpp:157] Top shape: 2 64 38 64 (311296)
I1002 09:43:28.951494 24584 net.cpp:165] Memory required for data: 574287200
I1002 09:43:28.951498 24584 layer_factory.hpp:77] Creating layer conv4_4/expand
I1002 09:43:28.951505 24584 net.cpp:100] Creating Layer conv4_4/expand
I1002 09:43:28.951509 24584 net.cpp:434] conv4_4/expand <- conv4_3/linear_conv4_3/linear/scale_0_split_0
I1002 09:43:28.951514 24584 net.cpp:408] conv4_4/expand -> conv4_4/expand
I1002 09:43:28.952715 24584 net.cpp:150] Setting up conv4_4/expand
I1002 09:43:28.952723 24584 net.cpp:157] Top shape: 2 384 38 64 (1867776)
I1002 09:43:28.952725 24584 net.cpp:165] Memory required for data: 581758304
I1002 09:43:28.952730 24584 layer_factory.hpp:77] Creating layer conv4_4/expand/bn
I1002 09:43:28.952738 24584 net.cpp:100] Creating Layer conv4_4/expand/bn
I1002 09:43:28.952742 24584 net.cpp:434] conv4_4/expand/bn <- conv4_4/expand
I1002 09:43:28.952747 24584 net.cpp:395] conv4_4/expand/bn -> conv4_4/expand (in-place)
I1002 09:43:28.952890 24584 net.cpp:150] Setting up conv4_4/expand/bn
I1002 09:43:28.952895 24584 net.cpp:157] Top shape: 2 384 38 64 (1867776)
I1002 09:43:28.952898 24584 net.cpp:165] Memory required for data: 589229408
I1002 09:43:28.952904 24584 layer_factory.hpp:77] Creating layer conv4_4/expand/scale
I1002 09:43:28.952911 24584 net.cpp:100] Creating Layer conv4_4/expand/scale
I1002 09:43:28.952915 24584 net.cpp:434] conv4_4/expand/scale <- conv4_4/expand
I1002 09:43:28.952921 24584 net.cpp:395] conv4_4/expand/scale -> conv4_4/expand (in-place)
I1002 09:43:28.952952 24584 layer_factory.hpp:77] Creating layer conv4_4/expand/scale
I1002 09:43:28.953029 24584 net.cpp:150] Setting up conv4_4/expand/scale
I1002 09:43:28.953034 24584 net.cpp:157] Top shape: 2 384 38 64 (1867776)
I1002 09:43:28.953037 24584 net.cpp:165] Memory required for data: 596700512
I1002 09:43:28.953042 24584 layer_factory.hpp:77] Creating layer relu4_4/expand
I1002 09:43:28.953047 24584 net.cpp:100] Creating Layer relu4_4/expand
I1002 09:43:28.953050 24584 net.cpp:434] relu4_4/expand <- conv4_4/expand
I1002 09:43:28.953056 24584 net.cpp:395] relu4_4/expand -> conv4_4/expand (in-place)
I1002 09:43:28.953333 24584 net.cpp:150] Setting up relu4_4/expand
I1002 09:43:28.953339 24584 net.cpp:157] Top shape: 2 384 38 64 (1867776)
I1002 09:43:28.953341 24584 net.cpp:165] Memory required for data: 604171616
I1002 09:43:28.953346 24584 layer_factory.hpp:77] Creating layer conv4_4/dwise
I1002 09:43:28.953353 24584 net.cpp:100] Creating Layer conv4_4/dwise
I1002 09:43:28.953364 24584 net.cpp:434] conv4_4/dwise <- conv4_4/expand
I1002 09:43:28.953371 24584 net.cpp:408] conv4_4/dwise -> conv4_4/dwise
I1002 09:43:28.953528 24584 net.cpp:150] Setting up conv4_4/dwise
I1002 09:43:28.953533 24584 net.cpp:157] Top shape: 2 384 38 64 (1867776)
I1002 09:43:28.953536 24584 net.cpp:165] Memory required for data: 611642720
I1002 09:43:28.953541 24584 layer_factory.hpp:77] Creating layer conv4_4/dwise/bn
I1002 09:43:28.953547 24584 net.cpp:100] Creating Layer conv4_4/dwise/bn
I1002 09:43:28.953550 24584 net.cpp:434] conv4_4/dwise/bn <- conv4_4/dwise
I1002 09:43:28.953557 24584 net.cpp:395] conv4_4/dwise/bn -> conv4_4/dwise (in-place)
I1002 09:43:28.953691 24584 net.cpp:150] Setting up conv4_4/dwise/bn
I1002 09:43:28.953696 24584 net.cpp:157] Top shape: 2 384 38 64 (1867776)
I1002 09:43:28.953699 24584 net.cpp:165] Memory required for data: 619113824
I1002 09:43:28.953706 24584 layer_factory.hpp:77] Creating layer conv4_4/dwise/scale
I1002 09:43:28.953711 24584 net.cpp:100] Creating Layer conv4_4/dwise/scale
I1002 09:43:28.953716 24584 net.cpp:434] conv4_4/dwise/scale <- conv4_4/dwise
I1002 09:43:28.953721 24584 net.cpp:395] conv4_4/dwise/scale -> conv4_4/dwise (in-place)
I1002 09:43:28.953750 24584 layer_factory.hpp:77] Creating layer conv4_4/dwise/scale
I1002 09:43:28.953825 24584 net.cpp:150] Setting up conv4_4/dwise/scale
I1002 09:43:28.953830 24584 net.cpp:157] Top shape: 2 384 38 64 (1867776)
I1002 09:43:28.953832 24584 net.cpp:165] Memory required for data: 626584928
I1002 09:43:28.953837 24584 layer_factory.hpp:77] Creating layer relu4_4/dwise
I1002 09:43:28.953843 24584 net.cpp:100] Creating Layer relu4_4/dwise
I1002 09:43:28.953848 24584 net.cpp:434] relu4_4/dwise <- conv4_4/dwise
I1002 09:43:28.953852 24584 net.cpp:395] relu4_4/dwise -> conv4_4/dwise (in-place)
I1002 09:43:28.954231 24584 net.cpp:150] Setting up relu4_4/dwise
I1002 09:43:28.954236 24584 net.cpp:157] Top shape: 2 384 38 64 (1867776)
I1002 09:43:28.954241 24584 net.cpp:165] Memory required for data: 634056032
I1002 09:43:28.954242 24584 layer_factory.hpp:77] Creating layer conv4_4/linear
I1002 09:43:28.954250 24584 net.cpp:100] Creating Layer conv4_4/linear
I1002 09:43:28.954255 24584 net.cpp:434] conv4_4/linear <- conv4_4/dwise
I1002 09:43:28.954262 24584 net.cpp:408] conv4_4/linear -> conv4_4/linear
I1002 09:43:28.955503 24584 net.cpp:150] Setting up conv4_4/linear
I1002 09:43:28.955510 24584 net.cpp:157] Top shape: 2 64 38 64 (311296)
I1002 09:43:28.955513 24584 net.cpp:165] Memory required for data: 635301216
I1002 09:43:28.955519 24584 layer_factory.hpp:77] Creating layer conv4_4/linear/bn
I1002 09:43:28.955526 24584 net.cpp:100] Creating Layer conv4_4/linear/bn
I1002 09:43:28.955530 24584 net.cpp:434] conv4_4/linear/bn <- conv4_4/linear
I1002 09:43:28.955536 24584 net.cpp:395] conv4_4/linear/bn -> conv4_4/linear (in-place)
I1002 09:43:28.955678 24584 net.cpp:150] Setting up conv4_4/linear/bn
I1002 09:43:28.955683 24584 net.cpp:157] Top shape: 2 64 38 64 (311296)
I1002 09:43:28.955685 24584 net.cpp:165] Memory required for data: 636546400
I1002 09:43:28.955691 24584 layer_factory.hpp:77] Creating layer conv4_4/linear/scale
I1002 09:43:28.955698 24584 net.cpp:100] Creating Layer conv4_4/linear/scale
I1002 09:43:28.955703 24584 net.cpp:434] conv4_4/linear/scale <- conv4_4/linear
I1002 09:43:28.955708 24584 net.cpp:395] conv4_4/linear/scale -> conv4_4/linear (in-place)
I1002 09:43:28.955742 24584 layer_factory.hpp:77] Creating layer conv4_4/linear/scale
I1002 09:43:28.955824 24584 net.cpp:150] Setting up conv4_4/linear/scale
I1002 09:43:28.955828 24584 net.cpp:157] Top shape: 2 64 38 64 (311296)
I1002 09:43:28.955832 24584 net.cpp:165] Memory required for data: 637791584
I1002 09:43:28.955837 24584 layer_factory.hpp:77] Creating layer block_4_4
I1002 09:43:28.955842 24584 net.cpp:100] Creating Layer block_4_4
I1002 09:43:28.955847 24584 net.cpp:434] block_4_4 <- conv4_3/linear_conv4_3/linear/scale_0_split_1
I1002 09:43:28.955852 24584 net.cpp:434] block_4_4 <- conv4_4/linear
I1002 09:43:28.955866 24584 net.cpp:408] block_4_4 -> block_4_4
I1002 09:43:28.955888 24584 net.cpp:150] Setting up block_4_4
I1002 09:43:28.955893 24584 net.cpp:157] Top shape: 2 64 38 64 (311296)
I1002 09:43:28.955895 24584 net.cpp:165] Memory required for data: 639036768
I1002 09:43:28.955899 24584 layer_factory.hpp:77] Creating layer block_4_4_block_4_4_0_split
I1002 09:43:28.955905 24584 net.cpp:100] Creating Layer block_4_4_block_4_4_0_split
I1002 09:43:28.955909 24584 net.cpp:434] block_4_4_block_4_4_0_split <- block_4_4
I1002 09:43:28.955914 24584 net.cpp:408] block_4_4_block_4_4_0_split -> block_4_4_block_4_4_0_split_0
I1002 09:43:28.955920 24584 net.cpp:408] block_4_4_block_4_4_0_split -> block_4_4_block_4_4_0_split_1
I1002 09:43:28.955951 24584 net.cpp:150] Setting up block_4_4_block_4_4_0_split
I1002 09:43:28.955956 24584 net.cpp:157] Top shape: 2 64 38 64 (311296)
I1002 09:43:28.955960 24584 net.cpp:157] Top shape: 2 64 38 64 (311296)
I1002 09:43:28.955963 24584 net.cpp:165] Memory required for data: 641527136
I1002 09:43:28.955967 24584 layer_factory.hpp:77] Creating layer conv4_5/expand
I1002 09:43:28.955973 24584 net.cpp:100] Creating Layer conv4_5/expand
I1002 09:43:28.955977 24584 net.cpp:434] conv4_5/expand <- block_4_4_block_4_4_0_split_0
I1002 09:43:28.955984 24584 net.cpp:408] conv4_5/expand -> conv4_5/expand
I1002 09:43:28.957181 24584 net.cpp:150] Setting up conv4_5/expand
I1002 09:43:28.957188 24584 net.cpp:157] Top shape: 2 384 38 64 (1867776)
I1002 09:43:28.957190 24584 net.cpp:165] Memory required for data: 648998240
I1002 09:43:28.957196 24584 layer_factory.hpp:77] Creating layer conv4_5/expand/bn
I1002 09:43:28.957203 24584 net.cpp:100] Creating Layer conv4_5/expand/bn
I1002 09:43:28.957207 24584 net.cpp:434] conv4_5/expand/bn <- conv4_5/expand
I1002 09:43:28.957212 24584 net.cpp:395] conv4_5/expand/bn -> conv4_5/expand (in-place)
I1002 09:43:28.957348 24584 net.cpp:150] Setting up conv4_5/expand/bn
I1002 09:43:28.957353 24584 net.cpp:157] Top shape: 2 384 38 64 (1867776)
I1002 09:43:28.957356 24584 net.cpp:165] Memory required for data: 656469344
I1002 09:43:28.957362 24584 layer_factory.hpp:77] Creating layer conv4_5/expand/scale
I1002 09:43:28.957370 24584 net.cpp:100] Creating Layer conv4_5/expand/scale
I1002 09:43:28.957373 24584 net.cpp:434] conv4_5/expand/scale <- conv4_5/expand
I1002 09:43:28.957378 24584 net.cpp:395] conv4_5/expand/scale -> conv4_5/expand (in-place)
I1002 09:43:28.957409 24584 layer_factory.hpp:77] Creating layer conv4_5/expand/scale
I1002 09:43:28.957489 24584 net.cpp:150] Setting up conv4_5/expand/scale
I1002 09:43:28.957494 24584 net.cpp:157] Top shape: 2 384 38 64 (1867776)
I1002 09:43:28.957497 24584 net.cpp:165] Memory required for data: 663940448
I1002 09:43:28.957502 24584 layer_factory.hpp:77] Creating layer relu4_5/expand
I1002 09:43:28.957509 24584 net.cpp:100] Creating Layer relu4_5/expand
I1002 09:43:28.957514 24584 net.cpp:434] relu4_5/expand <- conv4_5/expand
I1002 09:43:28.957518 24584 net.cpp:395] relu4_5/expand -> conv4_5/expand (in-place)
I1002 09:43:28.957794 24584 net.cpp:150] Setting up relu4_5/expand
I1002 09:43:28.957801 24584 net.cpp:157] Top shape: 2 384 38 64 (1867776)
I1002 09:43:28.957804 24584 net.cpp:165] Memory required for data: 671411552
I1002 09:43:28.957808 24584 layer_factory.hpp:77] Creating layer conv4_5/dwise
I1002 09:43:28.957814 24584 net.cpp:100] Creating Layer conv4_5/dwise
I1002 09:43:28.957818 24584 net.cpp:434] conv4_5/dwise <- conv4_5/expand
I1002 09:43:28.957824 24584 net.cpp:408] conv4_5/dwise -> conv4_5/dwise
I1002 09:43:28.957983 24584 net.cpp:150] Setting up conv4_5/dwise
I1002 09:43:28.957988 24584 net.cpp:157] Top shape: 2 384 38 64 (1867776)
I1002 09:43:28.957989 24584 net.cpp:165] Memory required for data: 678882656
I1002 09:43:28.957994 24584 layer_factory.hpp:77] Creating layer conv4_5/dwise/bn
I1002 09:43:28.958001 24584 net.cpp:100] Creating Layer conv4_5/dwise/bn
I1002 09:43:28.958005 24584 net.cpp:434] conv4_5/dwise/bn <- conv4_5/dwise
I1002 09:43:28.958010 24584 net.cpp:395] conv4_5/dwise/bn -> conv4_5/dwise (in-place)
I1002 09:43:28.958154 24584 net.cpp:150] Setting up conv4_5/dwise/bn
I1002 09:43:28.958158 24584 net.cpp:157] Top shape: 2 384 38 64 (1867776)
I1002 09:43:28.958161 24584 net.cpp:165] Memory required for data: 686353760
I1002 09:43:28.958168 24584 layer_factory.hpp:77] Creating layer conv4_5/dwise/scale
I1002 09:43:28.958173 24584 net.cpp:100] Creating Layer conv4_5/dwise/scale
I1002 09:43:28.958178 24584 net.cpp:434] conv4_5/dwise/scale <- conv4_5/dwise
I1002 09:43:28.958184 24584 net.cpp:395] conv4_5/dwise/scale -> conv4_5/dwise (in-place)
I1002 09:43:28.958212 24584 layer_factory.hpp:77] Creating layer conv4_5/dwise/scale
I1002 09:43:28.958289 24584 net.cpp:150] Setting up conv4_5/dwise/scale
I1002 09:43:28.958294 24584 net.cpp:157] Top shape: 2 384 38 64 (1867776)
I1002 09:43:28.958297 24584 net.cpp:165] Memory required for data: 693824864
I1002 09:43:28.958302 24584 layer_factory.hpp:77] Creating layer relu4_5/dwise
I1002 09:43:28.958308 24584 net.cpp:100] Creating Layer relu4_5/dwise
I1002 09:43:28.958312 24584 net.cpp:434] relu4_5/dwise <- conv4_5/dwise
I1002 09:43:28.958317 24584 net.cpp:395] relu4_5/dwise -> conv4_5/dwise (in-place)
I1002 09:43:28.958696 24584 net.cpp:150] Setting up relu4_5/dwise
I1002 09:43:28.958703 24584 net.cpp:157] Top shape: 2 384 38 64 (1867776)
I1002 09:43:28.958706 24584 net.cpp:165] Memory required for data: 701295968
I1002 09:43:28.958709 24584 layer_factory.hpp:77] Creating layer conv4_5/linear
I1002 09:43:28.958719 24584 net.cpp:100] Creating Layer conv4_5/linear
I1002 09:43:28.958722 24584 net.cpp:434] conv4_5/linear <- conv4_5/dwise
I1002 09:43:28.958729 24584 net.cpp:408] conv4_5/linear -> conv4_5/linear
I1002 09:43:28.959939 24584 net.cpp:150] Setting up conv4_5/linear
I1002 09:43:28.959945 24584 net.cpp:157] Top shape: 2 64 38 64 (311296)
I1002 09:43:28.959949 24584 net.cpp:165] Memory required for data: 702541152
I1002 09:43:28.959951 24584 layer_factory.hpp:77] Creating layer conv4_5/linear/bn
I1002 09:43:28.959955 24584 net.cpp:100] Creating Layer conv4_5/linear/bn
I1002 09:43:28.959959 24584 net.cpp:434] conv4_5/linear/bn <- conv4_5/linear
I1002 09:43:28.959965 24584 net.cpp:395] conv4_5/linear/bn -> conv4_5/linear (in-place)
I1002 09:43:28.960109 24584 net.cpp:150] Setting up conv4_5/linear/bn
I1002 09:43:28.960114 24584 net.cpp:157] Top shape: 2 64 38 64 (311296)
I1002 09:43:28.960116 24584 net.cpp:165] Memory required for data: 703786336
I1002 09:43:28.960121 24584 layer_factory.hpp:77] Creating layer conv4_5/linear/scale
I1002 09:43:28.960127 24584 net.cpp:100] Creating Layer conv4_5/linear/scale
I1002 09:43:28.960131 24584 net.cpp:434] conv4_5/linear/scale <- conv4_5/linear
I1002 09:43:28.960135 24584 net.cpp:395] conv4_5/linear/scale -> conv4_5/linear (in-place)
I1002 09:43:28.960170 24584 layer_factory.hpp:77] Creating layer conv4_5/linear/scale
I1002 09:43:28.960253 24584 net.cpp:150] Setting up conv4_5/linear/scale
I1002 09:43:28.960256 24584 net.cpp:157] Top shape: 2 64 38 64 (311296)
I1002 09:43:28.960258 24584 net.cpp:165] Memory required for data: 705031520
I1002 09:43:28.960263 24584 layer_factory.hpp:77] Creating layer block_4_5
I1002 09:43:28.960265 24584 net.cpp:100] Creating Layer block_4_5
I1002 09:43:28.960268 24584 net.cpp:434] block_4_5 <- block_4_4_block_4_4_0_split_1
I1002 09:43:28.960269 24584 net.cpp:434] block_4_5 <- conv4_5/linear
I1002 09:43:28.960273 24584 net.cpp:408] block_4_5 -> block_4_5
I1002 09:43:28.960292 24584 net.cpp:150] Setting up block_4_5
I1002 09:43:28.960296 24584 net.cpp:157] Top shape: 2 64 38 64 (311296)
I1002 09:43:28.960299 24584 net.cpp:165] Memory required for data: 706276704
I1002 09:43:28.960304 24584 layer_factory.hpp:77] Creating layer block_4_5_block_4_5_0_split
I1002 09:43:28.960309 24584 net.cpp:100] Creating Layer block_4_5_block_4_5_0_split
I1002 09:43:28.960311 24584 net.cpp:434] block_4_5_block_4_5_0_split <- block_4_5
I1002 09:43:28.960319 24584 net.cpp:408] block_4_5_block_4_5_0_split -> block_4_5_block_4_5_0_split_0
I1002 09:43:28.960325 24584 net.cpp:408] block_4_5_block_4_5_0_split -> block_4_5_block_4_5_0_split_1
I1002 09:43:28.960366 24584 net.cpp:150] Setting up block_4_5_block_4_5_0_split
I1002 09:43:28.960371 24584 net.cpp:157] Top shape: 2 64 38 64 (311296)
I1002 09:43:28.960374 24584 net.cpp:157] Top shape: 2 64 38 64 (311296)
I1002 09:43:28.960377 24584 net.cpp:165] Memory required for data: 708767072
I1002 09:43:28.960381 24584 layer_factory.hpp:77] Creating layer conv4_6/expand
I1002 09:43:28.960388 24584 net.cpp:100] Creating Layer conv4_6/expand
I1002 09:43:28.960392 24584 net.cpp:434] conv4_6/expand <- block_4_5_block_4_5_0_split_0
I1002 09:43:28.960399 24584 net.cpp:408] conv4_6/expand -> conv4_6/expand
I1002 09:43:28.961640 24584 net.cpp:150] Setting up conv4_6/expand
I1002 09:43:28.961647 24584 net.cpp:157] Top shape: 2 384 38 64 (1867776)
I1002 09:43:28.961649 24584 net.cpp:165] Memory required for data: 716238176
I1002 09:43:28.961654 24584 layer_factory.hpp:77] Creating layer conv4_6/expand/bn
I1002 09:43:28.961663 24584 net.cpp:100] Creating Layer conv4_6/expand/bn
I1002 09:43:28.961668 24584 net.cpp:434] conv4_6/expand/bn <- conv4_6/expand
I1002 09:43:28.961673 24584 net.cpp:395] conv4_6/expand/bn -> conv4_6/expand (in-place)
I1002 09:43:28.961812 24584 net.cpp:150] Setting up conv4_6/expand/bn
I1002 09:43:28.961817 24584 net.cpp:157] Top shape: 2 384 38 64 (1867776)
I1002 09:43:28.961818 24584 net.cpp:165] Memory required for data: 723709280
I1002 09:43:28.961825 24584 layer_factory.hpp:77] Creating layer conv4_6/expand/scale
I1002 09:43:28.961833 24584 net.cpp:100] Creating Layer conv4_6/expand/scale
I1002 09:43:28.961836 24584 net.cpp:434] conv4_6/expand/scale <- conv4_6/expand
I1002 09:43:28.961841 24584 net.cpp:395] conv4_6/expand/scale -> conv4_6/expand (in-place)
I1002 09:43:28.961872 24584 layer_factory.hpp:77] Creating layer conv4_6/expand/scale
I1002 09:43:28.961952 24584 net.cpp:150] Setting up conv4_6/expand/scale
I1002 09:43:28.961956 24584 net.cpp:157] Top shape: 2 384 38 64 (1867776)
I1002 09:43:28.961959 24584 net.cpp:165] Memory required for data: 731180384
I1002 09:43:28.961964 24584 layer_factory.hpp:77] Creating layer relu4_6/expand
I1002 09:43:28.961971 24584 net.cpp:100] Creating Layer relu4_6/expand
I1002 09:43:28.961973 24584 net.cpp:434] relu4_6/expand <- conv4_6/expand
I1002 09:43:28.961980 24584 net.cpp:395] relu4_6/expand -> conv4_6/expand (in-place)
I1002 09:43:28.962381 24584 net.cpp:150] Setting up relu4_6/expand
I1002 09:43:28.962388 24584 net.cpp:157] Top shape: 2 384 38 64 (1867776)
I1002 09:43:28.962393 24584 net.cpp:165] Memory required for data: 738651488
I1002 09:43:28.962395 24584 layer_factory.hpp:77] Creating layer conv4_6/dwise
I1002 09:43:28.962401 24584 net.cpp:100] Creating Layer conv4_6/dwise
I1002 09:43:28.962406 24584 net.cpp:434] conv4_6/dwise <- conv4_6/expand
I1002 09:43:28.962414 24584 net.cpp:408] conv4_6/dwise -> conv4_6/dwise
I1002 09:43:28.962577 24584 net.cpp:150] Setting up conv4_6/dwise
I1002 09:43:28.962582 24584 net.cpp:157] Top shape: 2 384 38 64 (1867776)
I1002 09:43:28.962585 24584 net.cpp:165] Memory required for data: 746122592
I1002 09:43:28.962590 24584 layer_factory.hpp:77] Creating layer conv4_6/dwise/bn
I1002 09:43:28.962596 24584 net.cpp:100] Creating Layer conv4_6/dwise/bn
I1002 09:43:28.962600 24584 net.cpp:434] conv4_6/dwise/bn <- conv4_6/dwise
I1002 09:43:28.962606 24584 net.cpp:395] conv4_6/dwise/bn -> conv4_6/dwise (in-place)
I1002 09:43:28.962740 24584 net.cpp:150] Setting up conv4_6/dwise/bn
I1002 09:43:28.962745 24584 net.cpp:157] Top shape: 2 384 38 64 (1867776)
I1002 09:43:28.962746 24584 net.cpp:165] Memory required for data: 753593696
I1002 09:43:28.962752 24584 layer_factory.hpp:77] Creating layer conv4_6/dwise/scale
I1002 09:43:28.962757 24584 net.cpp:100] Creating Layer conv4_6/dwise/scale
I1002 09:43:28.962761 24584 net.cpp:434] conv4_6/dwise/scale <- conv4_6/dwise
I1002 09:43:28.962766 24584 net.cpp:395] conv4_6/dwise/scale -> conv4_6/dwise (in-place)
I1002 09:43:28.962797 24584 layer_factory.hpp:77] Creating layer conv4_6/dwise/scale
I1002 09:43:28.962877 24584 net.cpp:150] Setting up conv4_6/dwise/scale
I1002 09:43:28.962888 24584 net.cpp:157] Top shape: 2 384 38 64 (1867776)
I1002 09:43:28.962891 24584 net.cpp:165] Memory required for data: 761064800
I1002 09:43:28.962898 24584 layer_factory.hpp:77] Creating layer relu4_6/dwise
I1002 09:43:28.962903 24584 net.cpp:100] Creating Layer relu4_6/dwise
I1002 09:43:28.962906 24584 net.cpp:434] relu4_6/dwise <- conv4_6/dwise
I1002 09:43:28.962913 24584 net.cpp:395] relu4_6/dwise -> conv4_6/dwise (in-place)
I1002 09:43:28.963192 24584 net.cpp:150] Setting up relu4_6/dwise
I1002 09:43:28.963197 24584 net.cpp:157] Top shape: 2 384 38 64 (1867776)
I1002 09:43:28.963201 24584 net.cpp:165] Memory required for data: 768535904
I1002 09:43:28.963204 24584 layer_factory.hpp:77] Creating layer conv4_6/linear
I1002 09:43:28.963212 24584 net.cpp:100] Creating Layer conv4_6/linear
I1002 09:43:28.963220 24584 net.cpp:434] conv4_6/linear <- conv4_6/dwise
I1002 09:43:28.963227 24584 net.cpp:408] conv4_6/linear -> conv4_6/linear
I1002 09:43:28.964452 24584 net.cpp:150] Setting up conv4_6/linear
I1002 09:43:28.964462 24584 net.cpp:157] Top shape: 2 64 38 64 (311296)
I1002 09:43:28.964465 24584 net.cpp:165] Memory required for data: 769781088
I1002 09:43:28.964470 24584 layer_factory.hpp:77] Creating layer conv4_6/linear/bn
I1002 09:43:28.964476 24584 net.cpp:100] Creating Layer conv4_6/linear/bn
I1002 09:43:28.964480 24584 net.cpp:434] conv4_6/linear/bn <- conv4_6/linear
I1002 09:43:28.964484 24584 net.cpp:395] conv4_6/linear/bn -> conv4_6/linear (in-place)
I1002 09:43:28.964627 24584 net.cpp:150] Setting up conv4_6/linear/bn
I1002 09:43:28.964632 24584 net.cpp:157] Top shape: 2 64 38 64 (311296)
I1002 09:43:28.964633 24584 net.cpp:165] Memory required for data: 771026272
I1002 09:43:28.964639 24584 layer_factory.hpp:77] Creating layer conv4_6/linear/scale
I1002 09:43:28.964643 24584 net.cpp:100] Creating Layer conv4_6/linear/scale
I1002 09:43:28.964645 24584 net.cpp:434] conv4_6/linear/scale <- conv4_6/linear
I1002 09:43:28.964648 24584 net.cpp:395] conv4_6/linear/scale -> conv4_6/linear (in-place)
I1002 09:43:28.964679 24584 layer_factory.hpp:77] Creating layer conv4_6/linear/scale
I1002 09:43:28.964756 24584 net.cpp:150] Setting up conv4_6/linear/scale
I1002 09:43:28.964761 24584 net.cpp:157] Top shape: 2 64 38 64 (311296)
I1002 09:43:28.964763 24584 net.cpp:165] Memory required for data: 772271456
I1002 09:43:28.964768 24584 layer_factory.hpp:77] Creating layer block_4_6
I1002 09:43:28.964771 24584 net.cpp:100] Creating Layer block_4_6
I1002 09:43:28.964773 24584 net.cpp:434] block_4_6 <- block_4_5_block_4_5_0_split_1
I1002 09:43:28.964776 24584 net.cpp:434] block_4_6 <- conv4_6/linear
I1002 09:43:28.964781 24584 net.cpp:408] block_4_6 -> block_4_6
I1002 09:43:28.964798 24584 net.cpp:150] Setting up block_4_6
I1002 09:43:28.964802 24584 net.cpp:157] Top shape: 2 64 38 64 (311296)
I1002 09:43:28.964807 24584 net.cpp:165] Memory required for data: 773516640
I1002 09:43:28.964808 24584 layer_factory.hpp:77] Creating layer conv4_7/expand
I1002 09:43:28.964823 24584 net.cpp:100] Creating Layer conv4_7/expand
I1002 09:43:28.964826 24584 net.cpp:434] conv4_7/expand <- block_4_6
I1002 09:43:28.964830 24584 net.cpp:408] conv4_7/expand -> conv4_7/expand
I1002 09:43:28.966059 24584 net.cpp:150] Setting up conv4_7/expand
I1002 09:43:28.966071 24584 net.cpp:157] Top shape: 2 384 38 64 (1867776)
I1002 09:43:28.966073 24584 net.cpp:165] Memory required for data: 780987744
I1002 09:43:28.966080 24584 layer_factory.hpp:77] Creating layer conv4_7/expand/bn
I1002 09:43:28.966086 24584 net.cpp:100] Creating Layer conv4_7/expand/bn
I1002 09:43:28.966090 24584 net.cpp:434] conv4_7/expand/bn <- conv4_7/expand
I1002 09:43:28.966094 24584 net.cpp:395] conv4_7/expand/bn -> conv4_7/expand (in-place)
I1002 09:43:28.966239 24584 net.cpp:150] Setting up conv4_7/expand/bn
I1002 09:43:28.966243 24584 net.cpp:157] Top shape: 2 384 38 64 (1867776)
I1002 09:43:28.966245 24584 net.cpp:165] Memory required for data: 788458848
I1002 09:43:28.966251 24584 layer_factory.hpp:77] Creating layer conv4_7/expand/scale
I1002 09:43:28.966256 24584 net.cpp:100] Creating Layer conv4_7/expand/scale
I1002 09:43:28.966274 24584 net.cpp:434] conv4_7/expand/scale <- conv4_7/expand
I1002 09:43:28.966280 24584 net.cpp:395] conv4_7/expand/scale -> conv4_7/expand (in-place)
I1002 09:43:28.966315 24584 layer_factory.hpp:77] Creating layer conv4_7/expand/scale
I1002 09:43:28.966390 24584 net.cpp:150] Setting up conv4_7/expand/scale
I1002 09:43:28.966395 24584 net.cpp:157] Top shape: 2 384 38 64 (1867776)
I1002 09:43:28.966399 24584 net.cpp:165] Memory required for data: 795929952
I1002 09:43:28.966403 24584 layer_factory.hpp:77] Creating layer relu4_7/expand
I1002 09:43:28.966408 24584 net.cpp:100] Creating Layer relu4_7/expand
I1002 09:43:28.966410 24584 net.cpp:434] relu4_7/expand <- conv4_7/expand
I1002 09:43:28.966413 24584 net.cpp:395] relu4_7/expand -> conv4_7/expand (in-place)
I1002 09:43:28.966904 24584 net.cpp:150] Setting up relu4_7/expand
I1002 09:43:28.966912 24584 net.cpp:157] Top shape: 2 384 38 64 (1867776)
I1002 09:43:28.966914 24584 net.cpp:165] Memory required for data: 803401056
I1002 09:43:28.966917 24584 layer_factory.hpp:77] Creating layer conv4_7/dwise
I1002 09:43:28.966924 24584 net.cpp:100] Creating Layer conv4_7/dwise
I1002 09:43:28.966928 24584 net.cpp:434] conv4_7/dwise <- conv4_7/expand
I1002 09:43:28.966933 24584 net.cpp:408] conv4_7/dwise -> conv4_7/dwise
I1002 09:43:28.967103 24584 net.cpp:150] Setting up conv4_7/dwise
I1002 09:43:28.967108 24584 net.cpp:157] Top shape: 2 384 19 32 (466944)
I1002 09:43:28.967111 24584 net.cpp:165] Memory required for data: 805268832
I1002 09:43:28.967115 24584 layer_factory.hpp:77] Creating layer conv4_7/dwise/bn
I1002 09:43:28.967120 24584 net.cpp:100] Creating Layer conv4_7/dwise/bn
I1002 09:43:28.967123 24584 net.cpp:434] conv4_7/dwise/bn <- conv4_7/dwise
I1002 09:43:28.967128 24584 net.cpp:395] conv4_7/dwise/bn -> conv4_7/dwise (in-place)
I1002 09:43:28.967268 24584 net.cpp:150] Setting up conv4_7/dwise/bn
I1002 09:43:28.967272 24584 net.cpp:157] Top shape: 2 384 19 32 (466944)
I1002 09:43:28.967274 24584 net.cpp:165] Memory required for data: 807136608
I1002 09:43:28.967280 24584 layer_factory.hpp:77] Creating layer conv4_7/dwise/scale
I1002 09:43:28.967285 24584 net.cpp:100] Creating Layer conv4_7/dwise/scale
I1002 09:43:28.967288 24584 net.cpp:434] conv4_7/dwise/scale <- conv4_7/dwise
I1002 09:43:28.967294 24584 net.cpp:395] conv4_7/dwise/scale -> conv4_7/dwise (in-place)
I1002 09:43:28.967329 24584 layer_factory.hpp:77] Creating layer conv4_7/dwise/scale
I1002 09:43:28.967407 24584 net.cpp:150] Setting up conv4_7/dwise/scale
I1002 09:43:28.967412 24584 net.cpp:157] Top shape: 2 384 19 32 (466944)
I1002 09:43:28.967414 24584 net.cpp:165] Memory required for data: 809004384
I1002 09:43:28.967420 24584 layer_factory.hpp:77] Creating layer relu4_7/dwise
I1002 09:43:28.967424 24584 net.cpp:100] Creating Layer relu4_7/dwise
I1002 09:43:28.967427 24584 net.cpp:434] relu4_7/dwise <- conv4_7/dwise
I1002 09:43:28.967430 24584 net.cpp:395] relu4_7/dwise -> conv4_7/dwise (in-place)
I1002 09:43:28.967732 24584 net.cpp:150] Setting up relu4_7/dwise
I1002 09:43:28.967737 24584 net.cpp:157] Top shape: 2 384 19 32 (466944)
I1002 09:43:28.967739 24584 net.cpp:165] Memory required for data: 810872160
I1002 09:43:28.967741 24584 layer_factory.hpp:77] Creating layer conv4_7/linear
I1002 09:43:28.967747 24584 net.cpp:100] Creating Layer conv4_7/linear
I1002 09:43:28.967751 24584 net.cpp:434] conv4_7/linear <- conv4_7/dwise
I1002 09:43:28.967753 24584 net.cpp:408] conv4_7/linear -> conv4_7/linear
I1002 09:43:28.969085 24584 net.cpp:150] Setting up conv4_7/linear
I1002 09:43:28.969092 24584 net.cpp:157] Top shape: 2 96 19 32 (116736)
I1002 09:43:28.969094 24584 net.cpp:165] Memory required for data: 811339104
I1002 09:43:28.969099 24584 layer_factory.hpp:77] Creating layer conv4_7/linear/bn
I1002 09:43:28.969101 24584 net.cpp:100] Creating Layer conv4_7/linear/bn
I1002 09:43:28.969105 24584 net.cpp:434] conv4_7/linear/bn <- conv4_7/linear
I1002 09:43:28.969110 24584 net.cpp:395] conv4_7/linear/bn -> conv4_7/linear (in-place)
I1002 09:43:28.969269 24584 net.cpp:150] Setting up conv4_7/linear/bn
I1002 09:43:28.969272 24584 net.cpp:157] Top shape: 2 96 19 32 (116736)
I1002 09:43:28.969274 24584 net.cpp:165] Memory required for data: 811806048
I1002 09:43:28.969278 24584 layer_factory.hpp:77] Creating layer conv4_7/linear/scale
I1002 09:43:28.969282 24584 net.cpp:100] Creating Layer conv4_7/linear/scale
I1002 09:43:28.969285 24584 net.cpp:434] conv4_7/linear/scale <- conv4_7/linear
I1002 09:43:28.969287 24584 net.cpp:395] conv4_7/linear/scale -> conv4_7/linear (in-place)
I1002 09:43:28.969316 24584 layer_factory.hpp:77] Creating layer conv4_7/linear/scale
I1002 09:43:28.969401 24584 net.cpp:150] Setting up conv4_7/linear/scale
I1002 09:43:28.969405 24584 net.cpp:157] Top shape: 2 96 19 32 (116736)
I1002 09:43:28.969408 24584 net.cpp:165] Memory required for data: 812272992
I1002 09:43:28.969410 24584 layer_factory.hpp:77] Creating layer conv4_7/linear_conv4_7/linear/scale_0_split
I1002 09:43:28.969413 24584 net.cpp:100] Creating Layer conv4_7/linear_conv4_7/linear/scale_0_split
I1002 09:43:28.969416 24584 net.cpp:434] conv4_7/linear_conv4_7/linear/scale_0_split <- conv4_7/linear
I1002 09:43:28.969419 24584 net.cpp:408] conv4_7/linear_conv4_7/linear/scale_0_split -> conv4_7/linear_conv4_7/linear/scale_0_split_0
I1002 09:43:28.969424 24584 net.cpp:408] conv4_7/linear_conv4_7/linear/scale_0_split -> conv4_7/linear_conv4_7/linear/scale_0_split_1
I1002 09:43:28.969451 24584 net.cpp:150] Setting up conv4_7/linear_conv4_7/linear/scale_0_split
I1002 09:43:28.969455 24584 net.cpp:157] Top shape: 2 96 19 32 (116736)
I1002 09:43:28.969458 24584 net.cpp:157] Top shape: 2 96 19 32 (116736)
I1002 09:43:28.969460 24584 net.cpp:165] Memory required for data: 813206880
I1002 09:43:28.969461 24584 layer_factory.hpp:77] Creating layer conv5_1/expand
I1002 09:43:28.969466 24584 net.cpp:100] Creating Layer conv5_1/expand
I1002 09:43:28.969468 24584 net.cpp:434] conv5_1/expand <- conv4_7/linear_conv4_7/linear/scale_0_split_0
I1002 09:43:28.969471 24584 net.cpp:408] conv5_1/expand -> conv5_1/expand
I1002 09:43:28.970949 24584 net.cpp:150] Setting up conv5_1/expand
I1002 09:43:28.970957 24584 net.cpp:157] Top shape: 2 576 19 32 (700416)
I1002 09:43:28.970960 24584 net.cpp:165] Memory required for data: 816008544
I1002 09:43:28.970965 24584 layer_factory.hpp:77] Creating layer conv5_1/expand/bn
I1002 09:43:28.970971 24584 net.cpp:100] Creating Layer conv5_1/expand/bn
I1002 09:43:28.970974 24584 net.cpp:434] conv5_1/expand/bn <- conv5_1/expand
I1002 09:43:28.970979 24584 net.cpp:395] conv5_1/expand/bn -> conv5_1/expand (in-place)
I1002 09:43:28.971128 24584 net.cpp:150] Setting up conv5_1/expand/bn
I1002 09:43:28.971132 24584 net.cpp:157] Top shape: 2 576 19 32 (700416)
I1002 09:43:28.971135 24584 net.cpp:165] Memory required for data: 818810208
I1002 09:43:28.971143 24584 layer_factory.hpp:77] Creating layer conv5_1/expand/scale
I1002 09:43:28.971146 24584 net.cpp:100] Creating Layer conv5_1/expand/scale
I1002 09:43:28.971148 24584 net.cpp:434] conv5_1/expand/scale <- conv5_1/expand
I1002 09:43:28.971153 24584 net.cpp:395] conv5_1/expand/scale -> conv5_1/expand (in-place)
I1002 09:43:28.971184 24584 layer_factory.hpp:77] Creating layer conv5_1/expand/scale
I1002 09:43:28.971279 24584 net.cpp:150] Setting up conv5_1/expand/scale
I1002 09:43:28.971285 24584 net.cpp:157] Top shape: 2 576 19 32 (700416)
I1002 09:43:28.971288 24584 net.cpp:165] Memory required for data: 821611872
I1002 09:43:28.971293 24584 layer_factory.hpp:77] Creating layer relu5_1/expand
I1002 09:43:28.971298 24584 net.cpp:100] Creating Layer relu5_1/expand
I1002 09:43:28.971302 24584 net.cpp:434] relu5_1/expand <- conv5_1/expand
I1002 09:43:28.971305 24584 net.cpp:395] relu5_1/expand -> conv5_1/expand (in-place)
I1002 09:43:28.971581 24584 net.cpp:150] Setting up relu5_1/expand
I1002 09:43:28.971587 24584 net.cpp:157] Top shape: 2 576 19 32 (700416)
I1002 09:43:28.971590 24584 net.cpp:165] Memory required for data: 824413536
I1002 09:43:28.971595 24584 layer_factory.hpp:77] Creating layer conv5_1/dwise
I1002 09:43:28.971608 24584 net.cpp:100] Creating Layer conv5_1/dwise
I1002 09:43:28.971611 24584 net.cpp:434] conv5_1/dwise <- conv5_1/expand
I1002 09:43:28.971616 24584 net.cpp:408] conv5_1/dwise -> conv5_1/dwise
I1002 09:43:28.971788 24584 net.cpp:150] Setting up conv5_1/dwise
I1002 09:43:28.971793 24584 net.cpp:157] Top shape: 2 576 19 32 (700416)
I1002 09:43:28.971796 24584 net.cpp:165] Memory required for data: 827215200
I1002 09:43:28.971798 24584 layer_factory.hpp:77] Creating layer conv5_1/dwise/bn
I1002 09:43:28.971801 24584 net.cpp:100] Creating Layer conv5_1/dwise/bn
I1002 09:43:28.971804 24584 net.cpp:434] conv5_1/dwise/bn <- conv5_1/dwise
I1002 09:43:28.971807 24584 net.cpp:395] conv5_1/dwise/bn -> conv5_1/dwise (in-place)
I1002 09:43:28.971947 24584 net.cpp:150] Setting up conv5_1/dwise/bn
I1002 09:43:28.971951 24584 net.cpp:157] Top shape: 2 576 19 32 (700416)
I1002 09:43:28.971953 24584 net.cpp:165] Memory required for data: 830016864
I1002 09:43:28.971957 24584 layer_factory.hpp:77] Creating layer conv5_1/dwise/scale
I1002 09:43:28.971961 24584 net.cpp:100] Creating Layer conv5_1/dwise/scale
I1002 09:43:28.971963 24584 net.cpp:434] conv5_1/dwise/scale <- conv5_1/dwise
I1002 09:43:28.971967 24584 net.cpp:395] conv5_1/dwise/scale -> conv5_1/dwise (in-place)
I1002 09:43:28.971994 24584 layer_factory.hpp:77] Creating layer conv5_1/dwise/scale
I1002 09:43:28.972075 24584 net.cpp:150] Setting up conv5_1/dwise/scale
I1002 09:43:28.972079 24584 net.cpp:157] Top shape: 2 576 19 32 (700416)
I1002 09:43:28.972081 24584 net.cpp:165] Memory required for data: 832818528
I1002 09:43:28.972084 24584 layer_factory.hpp:77] Creating layer relu5_1/dwise
I1002 09:43:28.972088 24584 net.cpp:100] Creating Layer relu5_1/dwise
I1002 09:43:28.972090 24584 net.cpp:434] relu5_1/dwise <- conv5_1/dwise
I1002 09:43:28.972095 24584 net.cpp:395] relu5_1/dwise -> conv5_1/dwise (in-place)
I1002 09:43:28.972368 24584 net.cpp:150] Setting up relu5_1/dwise
I1002 09:43:28.972373 24584 net.cpp:157] Top shape: 2 576 19 32 (700416)
I1002 09:43:28.972376 24584 net.cpp:165] Memory required for data: 835620192
I1002 09:43:28.972378 24584 layer_factory.hpp:77] Creating layer conv5_1/linear
I1002 09:43:28.972383 24584 net.cpp:100] Creating Layer conv5_1/linear
I1002 09:43:28.972386 24584 net.cpp:434] conv5_1/linear <- conv5_1/dwise
I1002 09:43:28.972389 24584 net.cpp:408] conv5_1/linear -> conv5_1/linear
I1002 09:43:28.973942 24584 net.cpp:150] Setting up conv5_1/linear
I1002 09:43:28.973950 24584 net.cpp:157] Top shape: 2 96 19 32 (116736)
I1002 09:43:28.973954 24584 net.cpp:165] Memory required for data: 836087136
I1002 09:43:28.973959 24584 layer_factory.hpp:77] Creating layer conv5_1/linear/bn
I1002 09:43:28.973965 24584 net.cpp:100] Creating Layer conv5_1/linear/bn
I1002 09:43:28.973968 24584 net.cpp:434] conv5_1/linear/bn <- conv5_1/linear
I1002 09:43:28.973973 24584 net.cpp:395] conv5_1/linear/bn -> conv5_1/linear (in-place)
I1002 09:43:28.974125 24584 net.cpp:150] Setting up conv5_1/linear/bn
I1002 09:43:28.974129 24584 net.cpp:157] Top shape: 2 96 19 32 (116736)
I1002 09:43:28.974131 24584 net.cpp:165] Memory required for data: 836554080
I1002 09:43:28.974136 24584 layer_factory.hpp:77] Creating layer conv5_1/linear/scale
I1002 09:43:28.974140 24584 net.cpp:100] Creating Layer conv5_1/linear/scale
I1002 09:43:28.974143 24584 net.cpp:434] conv5_1/linear/scale <- conv5_1/linear
I1002 09:43:28.974146 24584 net.cpp:395] conv5_1/linear/scale -> conv5_1/linear (in-place)
I1002 09:43:28.974174 24584 layer_factory.hpp:77] Creating layer conv5_1/linear/scale
I1002 09:43:28.974256 24584 net.cpp:150] Setting up conv5_1/linear/scale
I1002 09:43:28.974261 24584 net.cpp:157] Top shape: 2 96 19 32 (116736)
I1002 09:43:28.974262 24584 net.cpp:165] Memory required for data: 837021024
I1002 09:43:28.974265 24584 layer_factory.hpp:77] Creating layer block_5_1
I1002 09:43:28.974268 24584 net.cpp:100] Creating Layer block_5_1
I1002 09:43:28.974272 24584 net.cpp:434] block_5_1 <- conv4_7/linear_conv4_7/linear/scale_0_split_1
I1002 09:43:28.974274 24584 net.cpp:434] block_5_1 <- conv5_1/linear
I1002 09:43:28.974285 24584 net.cpp:408] block_5_1 -> block_5_1
I1002 09:43:28.974305 24584 net.cpp:150] Setting up block_5_1
I1002 09:43:28.974309 24584 net.cpp:157] Top shape: 2 96 19 32 (116736)
I1002 09:43:28.974313 24584 net.cpp:165] Memory required for data: 837487968
I1002 09:43:28.974315 24584 layer_factory.hpp:77] Creating layer block_5_1_block_5_1_0_split
I1002 09:43:28.974320 24584 net.cpp:100] Creating Layer block_5_1_block_5_1_0_split
I1002 09:43:28.974324 24584 net.cpp:434] block_5_1_block_5_1_0_split <- block_5_1
I1002 09:43:28.974328 24584 net.cpp:408] block_5_1_block_5_1_0_split -> block_5_1_block_5_1_0_split_0
I1002 09:43:28.974334 24584 net.cpp:408] block_5_1_block_5_1_0_split -> block_5_1_block_5_1_0_split_1
I1002 09:43:28.974361 24584 net.cpp:150] Setting up block_5_1_block_5_1_0_split
I1002 09:43:28.974366 24584 net.cpp:157] Top shape: 2 96 19 32 (116736)
I1002 09:43:28.974370 24584 net.cpp:157] Top shape: 2 96 19 32 (116736)
I1002 09:43:28.974371 24584 net.cpp:165] Memory required for data: 838421856
I1002 09:43:28.974373 24584 layer_factory.hpp:77] Creating layer conv5_2/expand
I1002 09:43:28.974378 24584 net.cpp:100] Creating Layer conv5_2/expand
I1002 09:43:28.974381 24584 net.cpp:434] conv5_2/expand <- block_5_1_block_5_1_0_split_0
I1002 09:43:28.974385 24584 net.cpp:408] conv5_2/expand -> conv5_2/expand
I1002 09:43:28.975862 24584 net.cpp:150] Setting up conv5_2/expand
I1002 09:43:28.975869 24584 net.cpp:157] Top shape: 2 576 19 32 (700416)
I1002 09:43:28.975872 24584 net.cpp:165] Memory required for data: 841223520
I1002 09:43:28.975875 24584 layer_factory.hpp:77] Creating layer conv5_2/expand/bn
I1002 09:43:28.975880 24584 net.cpp:100] Creating Layer conv5_2/expand/bn
I1002 09:43:28.975883 24584 net.cpp:434] conv5_2/expand/bn <- conv5_2/expand
I1002 09:43:28.975888 24584 net.cpp:395] conv5_2/expand/bn -> conv5_2/expand (in-place)
I1002 09:43:28.976033 24584 net.cpp:150] Setting up conv5_2/expand/bn
I1002 09:43:28.976037 24584 net.cpp:157] Top shape: 2 576 19 32 (700416)
I1002 09:43:28.976039 24584 net.cpp:165] Memory required for data: 844025184
I1002 09:43:28.976043 24584 layer_factory.hpp:77] Creating layer conv5_2/expand/scale
I1002 09:43:28.976048 24584 net.cpp:100] Creating Layer conv5_2/expand/scale
I1002 09:43:28.976050 24584 net.cpp:434] conv5_2/expand/scale <- conv5_2/expand
I1002 09:43:28.976054 24584 net.cpp:395] conv5_2/expand/scale -> conv5_2/expand (in-place)
I1002 09:43:28.976083 24584 layer_factory.hpp:77] Creating layer conv5_2/expand/scale
I1002 09:43:28.976166 24584 net.cpp:150] Setting up conv5_2/expand/scale
I1002 09:43:28.976171 24584 net.cpp:157] Top shape: 2 576 19 32 (700416)
I1002 09:43:28.976174 24584 net.cpp:165] Memory required for data: 846826848
I1002 09:43:28.976177 24584 layer_factory.hpp:77] Creating layer relu5_2/expand
I1002 09:43:28.976181 24584 net.cpp:100] Creating Layer relu5_2/expand
I1002 09:43:28.976182 24584 net.cpp:434] relu5_2/expand <- conv5_2/expand
I1002 09:43:28.976184 24584 net.cpp:395] relu5_2/expand -> conv5_2/expand (in-place)
I1002 09:43:28.976464 24584 net.cpp:150] Setting up relu5_2/expand
I1002 09:43:28.976469 24584 net.cpp:157] Top shape: 2 576 19 32 (700416)
I1002 09:43:28.976470 24584 net.cpp:165] Memory required for data: 849628512
I1002 09:43:28.976474 24584 layer_factory.hpp:77] Creating layer conv5_2/dwise
I1002 09:43:28.976478 24584 net.cpp:100] Creating Layer conv5_2/dwise
I1002 09:43:28.976481 24584 net.cpp:434] conv5_2/dwise <- conv5_2/expand
I1002 09:43:28.976486 24584 net.cpp:408] conv5_2/dwise -> conv5_2/dwise
I1002 09:43:28.976665 24584 net.cpp:150] Setting up conv5_2/dwise
I1002 09:43:28.976670 24584 net.cpp:157] Top shape: 2 576 19 32 (700416)
I1002 09:43:28.976672 24584 net.cpp:165] Memory required for data: 852430176
I1002 09:43:28.976676 24584 layer_factory.hpp:77] Creating layer conv5_2/dwise/bn
I1002 09:43:28.976681 24584 net.cpp:100] Creating Layer conv5_2/dwise/bn
I1002 09:43:28.976685 24584 net.cpp:434] conv5_2/dwise/bn <- conv5_2/dwise
I1002 09:43:28.976688 24584 net.cpp:395] conv5_2/dwise/bn -> conv5_2/dwise (in-place)
I1002 09:43:28.976842 24584 net.cpp:150] Setting up conv5_2/dwise/bn
I1002 09:43:28.976847 24584 net.cpp:157] Top shape: 2 576 19 32 (700416)
I1002 09:43:28.976850 24584 net.cpp:165] Memory required for data: 855231840
I1002 09:43:28.976855 24584 layer_factory.hpp:77] Creating layer conv5_2/dwise/scale
I1002 09:43:28.976860 24584 net.cpp:100] Creating Layer conv5_2/dwise/scale
I1002 09:43:28.976863 24584 net.cpp:434] conv5_2/dwise/scale <- conv5_2/dwise
I1002 09:43:28.976866 24584 net.cpp:395] conv5_2/dwise/scale -> conv5_2/dwise (in-place)
I1002 09:43:28.976897 24584 layer_factory.hpp:77] Creating layer conv5_2/dwise/scale
I1002 09:43:28.976980 24584 net.cpp:150] Setting up conv5_2/dwise/scale
I1002 09:43:28.976984 24584 net.cpp:157] Top shape: 2 576 19 32 (700416)
I1002 09:43:28.976987 24584 net.cpp:165] Memory required for data: 858033504
I1002 09:43:28.976990 24584 layer_factory.hpp:77] Creating layer relu5_2/dwise
I1002 09:43:28.976994 24584 net.cpp:100] Creating Layer relu5_2/dwise
I1002 09:43:28.976996 24584 net.cpp:434] relu5_2/dwise <- conv5_2/dwise
I1002 09:43:28.977000 24584 net.cpp:395] relu5_2/dwise -> conv5_2/dwise (in-place)
I1002 09:43:28.977381 24584 net.cpp:150] Setting up relu5_2/dwise
I1002 09:43:28.977387 24584 net.cpp:157] Top shape: 2 576 19 32 (700416)
I1002 09:43:28.977389 24584 net.cpp:165] Memory required for data: 860835168
I1002 09:43:28.977391 24584 layer_factory.hpp:77] Creating layer conv5_2/linear
I1002 09:43:28.977397 24584 net.cpp:100] Creating Layer conv5_2/linear
I1002 09:43:28.977399 24584 net.cpp:434] conv5_2/linear <- conv5_2/dwise
I1002 09:43:28.977404 24584 net.cpp:408] conv5_2/linear -> conv5_2/linear
I1002 09:43:28.978819 24584 net.cpp:150] Setting up conv5_2/linear
I1002 09:43:28.978827 24584 net.cpp:157] Top shape: 2 96 19 32 (116736)
I1002 09:43:28.978829 24584 net.cpp:165] Memory required for data: 861302112
I1002 09:43:28.978833 24584 layer_factory.hpp:77] Creating layer conv5_2/linear/bn
I1002 09:43:28.978838 24584 net.cpp:100] Creating Layer conv5_2/linear/bn
I1002 09:43:28.978840 24584 net.cpp:434] conv5_2/linear/bn <- conv5_2/linear
I1002 09:43:28.978844 24584 net.cpp:395] conv5_2/linear/bn -> conv5_2/linear (in-place)
I1002 09:43:28.978996 24584 net.cpp:150] Setting up conv5_2/linear/bn
I1002 09:43:28.979001 24584 net.cpp:157] Top shape: 2 96 19 32 (116736)
I1002 09:43:28.979001 24584 net.cpp:165] Memory required for data: 861769056
I1002 09:43:28.979005 24584 layer_factory.hpp:77] Creating layer conv5_2/linear/scale
I1002 09:43:28.979009 24584 net.cpp:100] Creating Layer conv5_2/linear/scale
I1002 09:43:28.979012 24584 net.cpp:434] conv5_2/linear/scale <- conv5_2/linear
I1002 09:43:28.979015 24584 net.cpp:395] conv5_2/linear/scale -> conv5_2/linear (in-place)
I1002 09:43:28.979045 24584 layer_factory.hpp:77] Creating layer conv5_2/linear/scale
I1002 09:43:28.979131 24584 net.cpp:150] Setting up conv5_2/linear/scale
I1002 09:43:28.979135 24584 net.cpp:157] Top shape: 2 96 19 32 (116736)
I1002 09:43:28.979137 24584 net.cpp:165] Memory required for data: 862236000
I1002 09:43:28.979140 24584 layer_factory.hpp:77] Creating layer block_5_2
I1002 09:43:28.979144 24584 net.cpp:100] Creating Layer block_5_2
I1002 09:43:28.979146 24584 net.cpp:434] block_5_2 <- block_5_1_block_5_1_0_split_1
I1002 09:43:28.979149 24584 net.cpp:434] block_5_2 <- conv5_2/linear
I1002 09:43:28.979152 24584 net.cpp:408] block_5_2 -> block_5_2
I1002 09:43:28.979168 24584 net.cpp:150] Setting up block_5_2
I1002 09:43:28.979171 24584 net.cpp:157] Top shape: 2 96 19 32 (116736)
I1002 09:43:28.979172 24584 net.cpp:165] Memory required for data: 862702944
I1002 09:43:28.979174 24584 layer_factory.hpp:77] Creating layer conv5_3/expand
I1002 09:43:28.979179 24584 net.cpp:100] Creating Layer conv5_3/expand
I1002 09:43:28.979182 24584 net.cpp:434] conv5_3/expand <- block_5_2
I1002 09:43:28.979184 24584 net.cpp:408] conv5_3/expand -> conv5_3/expand
I1002 09:43:28.981344 24584 net.cpp:150] Setting up conv5_3/expand
I1002 09:43:28.981357 24584 net.cpp:157] Top shape: 2 576 19 32 (700416)
I1002 09:43:28.981374 24584 net.cpp:165] Memory required for data: 865504608
I1002 09:43:28.981381 24584 layer_factory.hpp:77] Creating layer conv5_3/expand/bn
I1002 09:43:28.981390 24584 net.cpp:100] Creating Layer conv5_3/expand/bn
I1002 09:43:28.981395 24584 net.cpp:434] conv5_3/expand/bn <- conv5_3/expand
I1002 09:43:28.981400 24584 net.cpp:395] conv5_3/expand/bn -> conv5_3/expand (in-place)
I1002 09:43:28.981560 24584 net.cpp:150] Setting up conv5_3/expand/bn
I1002 09:43:28.981564 24584 net.cpp:157] Top shape: 2 576 19 32 (700416)
I1002 09:43:28.981568 24584 net.cpp:165] Memory required for data: 868306272
I1002 09:43:28.981575 24584 layer_factory.hpp:77] Creating layer conv5_3/expand/scale
I1002 09:43:28.981580 24584 net.cpp:100] Creating Layer conv5_3/expand/scale
I1002 09:43:28.981582 24584 net.cpp:434] conv5_3/expand/scale <- conv5_3/expand
I1002 09:43:28.981586 24584 net.cpp:395] conv5_3/expand/scale -> conv5_3/expand (in-place)
I1002 09:43:28.981621 24584 layer_factory.hpp:77] Creating layer conv5_3/expand/scale
I1002 09:43:28.981707 24584 net.cpp:150] Setting up conv5_3/expand/scale
I1002 09:43:28.981711 24584 net.cpp:157] Top shape: 2 576 19 32 (700416)
I1002 09:43:28.981715 24584 net.cpp:165] Memory required for data: 871107936
I1002 09:43:28.981720 24584 layer_factory.hpp:77] Creating layer relu5_3/expand
I1002 09:43:28.981724 24584 net.cpp:100] Creating Layer relu5_3/expand
I1002 09:43:28.981726 24584 net.cpp:434] relu5_3/expand <- conv5_3/expand
I1002 09:43:28.981730 24584 net.cpp:395] relu5_3/expand -> conv5_3/expand (in-place)
I1002 09:43:28.982013 24584 net.cpp:150] Setting up relu5_3/expand
I1002 09:43:28.982020 24584 net.cpp:157] Top shape: 2 576 19 32 (700416)
I1002 09:43:28.982023 24584 net.cpp:165] Memory required for data: 873909600
I1002 09:43:28.982028 24584 layer_factory.hpp:77] Creating layer conv5_3/expand_relu5_3/expand_0_split
I1002 09:43:28.982033 24584 net.cpp:100] Creating Layer conv5_3/expand_relu5_3/expand_0_split
I1002 09:43:28.982036 24584 net.cpp:434] conv5_3/expand_relu5_3/expand_0_split <- conv5_3/expand
I1002 09:43:28.982041 24584 net.cpp:408] conv5_3/expand_relu5_3/expand_0_split -> conv5_3/expand_relu5_3/expand_0_split_0
I1002 09:43:28.982048 24584 net.cpp:408] conv5_3/expand_relu5_3/expand_0_split -> conv5_3/expand_relu5_3/expand_0_split_1
I1002 09:43:28.982053 24584 net.cpp:408] conv5_3/expand_relu5_3/expand_0_split -> conv5_3/expand_relu5_3/expand_0_split_2
I1002 09:43:28.982059 24584 net.cpp:408] conv5_3/expand_relu5_3/expand_0_split -> conv5_3/expand_relu5_3/expand_0_split_3
I1002 09:43:28.982110 24584 net.cpp:150] Setting up conv5_3/expand_relu5_3/expand_0_split
I1002 09:43:28.982115 24584 net.cpp:157] Top shape: 2 576 19 32 (700416)
I1002 09:43:28.982118 24584 net.cpp:157] Top shape: 2 576 19 32 (700416)
I1002 09:43:28.982122 24584 net.cpp:157] Top shape: 2 576 19 32 (700416)
I1002 09:43:28.982126 24584 net.cpp:157] Top shape: 2 576 19 32 (700416)
I1002 09:43:28.982131 24584 net.cpp:165] Memory required for data: 885116256
I1002 09:43:28.982132 24584 layer_factory.hpp:77] Creating layer conv5_3/dwise
I1002 09:43:28.982138 24584 net.cpp:100] Creating Layer conv5_3/dwise
I1002 09:43:28.982142 24584 net.cpp:434] conv5_3/dwise <- conv5_3/expand_relu5_3/expand_0_split_0
I1002 09:43:28.982146 24584 net.cpp:408] conv5_3/dwise -> conv5_3/dwise
I1002 09:43:28.982319 24584 net.cpp:150] Setting up conv5_3/dwise
I1002 09:43:28.982324 24584 net.cpp:157] Top shape: 2 576 10 16 (184320)
I1002 09:43:28.982326 24584 net.cpp:165] Memory required for data: 885853536
I1002 09:43:28.982329 24584 layer_factory.hpp:77] Creating layer conv5_3/dwise/bn
I1002 09:43:28.982334 24584 net.cpp:100] Creating Layer conv5_3/dwise/bn
I1002 09:43:28.982337 24584 net.cpp:434] conv5_3/dwise/bn <- conv5_3/dwise
I1002 09:43:28.982342 24584 net.cpp:395] conv5_3/dwise/bn -> conv5_3/dwise (in-place)
I1002 09:43:28.982491 24584 net.cpp:150] Setting up conv5_3/dwise/bn
I1002 09:43:28.982494 24584 net.cpp:157] Top shape: 2 576 10 16 (184320)
I1002 09:43:28.982497 24584 net.cpp:165] Memory required for data: 886590816
I1002 09:43:28.982511 24584 layer_factory.hpp:77] Creating layer conv5_3/dwise/scale
I1002 09:43:28.982517 24584 net.cpp:100] Creating Layer conv5_3/dwise/scale
I1002 09:43:28.982520 24584 net.cpp:434] conv5_3/dwise/scale <- conv5_3/dwise
I1002 09:43:28.982524 24584 net.cpp:395] conv5_3/dwise/scale -> conv5_3/dwise (in-place)
I1002 09:43:28.982555 24584 layer_factory.hpp:77] Creating layer conv5_3/dwise/scale
I1002 09:43:28.982640 24584 net.cpp:150] Setting up conv5_3/dwise/scale
I1002 09:43:28.982645 24584 net.cpp:157] Top shape: 2 576 10 16 (184320)
I1002 09:43:28.982646 24584 net.cpp:165] Memory required for data: 887328096
I1002 09:43:28.982650 24584 layer_factory.hpp:77] Creating layer relu5_3/dwise
I1002 09:43:28.982655 24584 net.cpp:100] Creating Layer relu5_3/dwise
I1002 09:43:28.982657 24584 net.cpp:434] relu5_3/dwise <- conv5_3/dwise
I1002 09:43:28.982662 24584 net.cpp:395] relu5_3/dwise -> conv5_3/dwise (in-place)
I1002 09:43:28.983072 24584 net.cpp:150] Setting up relu5_3/dwise
I1002 09:43:28.983078 24584 net.cpp:157] Top shape: 2 576 10 16 (184320)
I1002 09:43:28.983080 24584 net.cpp:165] Memory required for data: 888065376
I1002 09:43:28.983083 24584 layer_factory.hpp:77] Creating layer conv5_3/linear
I1002 09:43:28.983088 24584 net.cpp:100] Creating Layer conv5_3/linear
I1002 09:43:28.983090 24584 net.cpp:434] conv5_3/linear <- conv5_3/dwise
I1002 09:43:28.983095 24584 net.cpp:408] conv5_3/linear -> conv5_3/linear
I1002 09:43:28.985266 24584 net.cpp:150] Setting up conv5_3/linear
I1002 09:43:28.985275 24584 net.cpp:157] Top shape: 2 160 10 16 (51200)
I1002 09:43:28.985278 24584 net.cpp:165] Memory required for data: 888270176
I1002 09:43:28.985283 24584 layer_factory.hpp:77] Creating layer conv5_3/linear/bn
I1002 09:43:28.985289 24584 net.cpp:100] Creating Layer conv5_3/linear/bn
I1002 09:43:28.985292 24584 net.cpp:434] conv5_3/linear/bn <- conv5_3/linear
I1002 09:43:28.985296 24584 net.cpp:395] conv5_3/linear/bn -> conv5_3/linear (in-place)
I1002 09:43:28.985448 24584 net.cpp:150] Setting up conv5_3/linear/bn
I1002 09:43:28.985452 24584 net.cpp:157] Top shape: 2 160 10 16 (51200)
I1002 09:43:28.985455 24584 net.cpp:165] Memory required for data: 888474976
I1002 09:43:28.985462 24584 layer_factory.hpp:77] Creating layer conv5_3/linear/scale
I1002 09:43:28.985467 24584 net.cpp:100] Creating Layer conv5_3/linear/scale
I1002 09:43:28.985469 24584 net.cpp:434] conv5_3/linear/scale <- conv5_3/linear
I1002 09:43:28.985472 24584 net.cpp:395] conv5_3/linear/scale -> conv5_3/linear (in-place)
I1002 09:43:28.985502 24584 layer_factory.hpp:77] Creating layer conv5_3/linear/scale
I1002 09:43:28.985584 24584 net.cpp:150] Setting up conv5_3/linear/scale
I1002 09:43:28.985589 24584 net.cpp:157] Top shape: 2 160 10 16 (51200)
I1002 09:43:28.985589 24584 net.cpp:165] Memory required for data: 888679776
I1002 09:43:28.985606 24584 layer_factory.hpp:77] Creating layer conv5_3/linear_conv5_3/linear/scale_0_split
I1002 09:43:28.985610 24584 net.cpp:100] Creating Layer conv5_3/linear_conv5_3/linear/scale_0_split
I1002 09:43:28.985612 24584 net.cpp:434] conv5_3/linear_conv5_3/linear/scale_0_split <- conv5_3/linear
I1002 09:43:28.985615 24584 net.cpp:408] conv5_3/linear_conv5_3/linear/scale_0_split -> conv5_3/linear_conv5_3/linear/scale_0_split_0
I1002 09:43:28.985621 24584 net.cpp:408] conv5_3/linear_conv5_3/linear/scale_0_split -> conv5_3/linear_conv5_3/linear/scale_0_split_1
I1002 09:43:28.985651 24584 net.cpp:150] Setting up conv5_3/linear_conv5_3/linear/scale_0_split
I1002 09:43:28.985656 24584 net.cpp:157] Top shape: 2 160 10 16 (51200)
I1002 09:43:28.985659 24584 net.cpp:157] Top shape: 2 160 10 16 (51200)
I1002 09:43:28.985663 24584 net.cpp:165] Memory required for data: 889089376
I1002 09:43:28.985666 24584 layer_factory.hpp:77] Creating layer conv6_1/expand
I1002 09:43:28.985672 24584 net.cpp:100] Creating Layer conv6_1/expand
I1002 09:43:28.985674 24584 net.cpp:434] conv6_1/expand <- conv5_3/linear_conv5_3/linear/scale_0_split_0
I1002 09:43:28.985680 24584 net.cpp:408] conv6_1/expand -> conv6_1/expand
I1002 09:43:28.987648 24584 net.cpp:150] Setting up conv6_1/expand
I1002 09:43:28.987655 24584 net.cpp:157] Top shape: 2 960 10 16 (307200)
I1002 09:43:28.987658 24584 net.cpp:165] Memory required for data: 890318176
I1002 09:43:28.987663 24584 layer_factory.hpp:77] Creating layer conv6_1/expand/bn
I1002 09:43:28.987668 24584 net.cpp:100] Creating Layer conv6_1/expand/bn
I1002 09:43:28.987670 24584 net.cpp:434] conv6_1/expand/bn <- conv6_1/expand
I1002 09:43:28.987673 24584 net.cpp:395] conv6_1/expand/bn -> conv6_1/expand (in-place)
I1002 09:43:28.987826 24584 net.cpp:150] Setting up conv6_1/expand/bn
I1002 09:43:28.987831 24584 net.cpp:157] Top shape: 2 960 10 16 (307200)
I1002 09:43:28.987834 24584 net.cpp:165] Memory required for data: 891546976
I1002 09:43:28.987840 24584 layer_factory.hpp:77] Creating layer conv6_1/expand/scale
I1002 09:43:28.987846 24584 net.cpp:100] Creating Layer conv6_1/expand/scale
I1002 09:43:28.987850 24584 net.cpp:434] conv6_1/expand/scale <- conv6_1/expand
I1002 09:43:28.987854 24584 net.cpp:395] conv6_1/expand/scale -> conv6_1/expand (in-place)
I1002 09:43:28.987886 24584 layer_factory.hpp:77] Creating layer conv6_1/expand/scale
I1002 09:43:28.987970 24584 net.cpp:150] Setting up conv6_1/expand/scale
I1002 09:43:28.987974 24584 net.cpp:157] Top shape: 2 960 10 16 (307200)
I1002 09:43:28.987977 24584 net.cpp:165] Memory required for data: 892775776
I1002 09:43:28.987980 24584 layer_factory.hpp:77] Creating layer relu6_1/expand
I1002 09:43:28.987987 24584 net.cpp:100] Creating Layer relu6_1/expand
I1002 09:43:28.987989 24584 net.cpp:434] relu6_1/expand <- conv6_1/expand
I1002 09:43:28.987993 24584 net.cpp:395] relu6_1/expand -> conv6_1/expand (in-place)
I1002 09:43:28.988373 24584 net.cpp:150] Setting up relu6_1/expand
I1002 09:43:28.988379 24584 net.cpp:157] Top shape: 2 960 10 16 (307200)
I1002 09:43:28.988381 24584 net.cpp:165] Memory required for data: 894004576
I1002 09:43:28.988384 24584 layer_factory.hpp:77] Creating layer conv6_1/dwise
I1002 09:43:28.988389 24584 net.cpp:100] Creating Layer conv6_1/dwise
I1002 09:43:28.988392 24584 net.cpp:434] conv6_1/dwise <- conv6_1/expand
I1002 09:43:28.988399 24584 net.cpp:408] conv6_1/dwise -> conv6_1/dwise
I1002 09:43:28.988602 24584 net.cpp:150] Setting up conv6_1/dwise
I1002 09:43:28.988607 24584 net.cpp:157] Top shape: 2 960 10 16 (307200)
I1002 09:43:28.988611 24584 net.cpp:165] Memory required for data: 895233376
I1002 09:43:28.988615 24584 layer_factory.hpp:77] Creating layer conv6_1/dwise/bn
I1002 09:43:28.988620 24584 net.cpp:100] Creating Layer conv6_1/dwise/bn
I1002 09:43:28.988622 24584 net.cpp:434] conv6_1/dwise/bn <- conv6_1/dwise
I1002 09:43:28.988626 24584 net.cpp:395] conv6_1/dwise/bn -> conv6_1/dwise (in-place)
I1002 09:43:28.988772 24584 net.cpp:150] Setting up conv6_1/dwise/bn
I1002 09:43:28.988776 24584 net.cpp:157] Top shape: 2 960 10 16 (307200)
I1002 09:43:28.988780 24584 net.cpp:165] Memory required for data: 896462176
I1002 09:43:28.988787 24584 layer_factory.hpp:77] Creating layer conv6_1/dwise/scale
I1002 09:43:28.988792 24584 net.cpp:100] Creating Layer conv6_1/dwise/scale
I1002 09:43:28.988796 24584 net.cpp:434] conv6_1/dwise/scale <- conv6_1/dwise
I1002 09:43:28.988800 24584 net.cpp:395] conv6_1/dwise/scale -> conv6_1/dwise (in-place)
I1002 09:43:28.988831 24584 layer_factory.hpp:77] Creating layer conv6_1/dwise/scale
I1002 09:43:28.988914 24584 net.cpp:150] Setting up conv6_1/dwise/scale
I1002 09:43:28.988919 24584 net.cpp:157] Top shape: 2 960 10 16 (307200)
I1002 09:43:28.988920 24584 net.cpp:165] Memory required for data: 897690976
I1002 09:43:28.988924 24584 layer_factory.hpp:77] Creating layer relu6_1/dwise
I1002 09:43:28.988929 24584 net.cpp:100] Creating Layer relu6_1/dwise
I1002 09:43:28.988932 24584 net.cpp:434] relu6_1/dwise <- conv6_1/dwise
I1002 09:43:28.988936 24584 net.cpp:395] relu6_1/dwise -> conv6_1/dwise (in-place)
I1002 09:43:28.989214 24584 net.cpp:150] Setting up relu6_1/dwise
I1002 09:43:28.989219 24584 net.cpp:157] Top shape: 2 960 10 16 (307200)
I1002 09:43:28.989221 24584 net.cpp:165] Memory required for data: 898919776
I1002 09:43:28.989231 24584 layer_factory.hpp:77] Creating layer conv6_1/linear
I1002 09:43:28.989238 24584 net.cpp:100] Creating Layer conv6_1/linear
I1002 09:43:28.989240 24584 net.cpp:434] conv6_1/linear <- conv6_1/dwise
I1002 09:43:28.989244 24584 net.cpp:408] conv6_1/linear -> conv6_1/linear
I1002 09:43:28.991191 24584 net.cpp:150] Setting up conv6_1/linear
I1002 09:43:28.991199 24584 net.cpp:157] Top shape: 2 160 10 16 (51200)
I1002 09:43:28.991201 24584 net.cpp:165] Memory required for data: 899124576
I1002 09:43:28.991204 24584 layer_factory.hpp:77] Creating layer conv6_1/linear/bn
I1002 09:43:28.991209 24584 net.cpp:100] Creating Layer conv6_1/linear/bn
I1002 09:43:28.991212 24584 net.cpp:434] conv6_1/linear/bn <- conv6_1/linear
I1002 09:43:28.991221 24584 net.cpp:395] conv6_1/linear/bn -> conv6_1/linear (in-place)
I1002 09:43:28.991370 24584 net.cpp:150] Setting up conv6_1/linear/bn
I1002 09:43:28.991375 24584 net.cpp:157] Top shape: 2 160 10 16 (51200)
I1002 09:43:28.991379 24584 net.cpp:165] Memory required for data: 899329376
I1002 09:43:28.991384 24584 layer_factory.hpp:77] Creating layer conv6_1/linear/scale
I1002 09:43:28.991389 24584 net.cpp:100] Creating Layer conv6_1/linear/scale
I1002 09:43:28.991390 24584 net.cpp:434] conv6_1/linear/scale <- conv6_1/linear
I1002 09:43:28.991396 24584 net.cpp:395] conv6_1/linear/scale -> conv6_1/linear (in-place)
I1002 09:43:28.991425 24584 layer_factory.hpp:77] Creating layer conv6_1/linear/scale
I1002 09:43:28.991508 24584 net.cpp:150] Setting up conv6_1/linear/scale
I1002 09:43:28.991511 24584 net.cpp:157] Top shape: 2 160 10 16 (51200)
I1002 09:43:28.991513 24584 net.cpp:165] Memory required for data: 899534176
I1002 09:43:28.991518 24584 layer_factory.hpp:77] Creating layer block_6_1
I1002 09:43:28.991521 24584 net.cpp:100] Creating Layer block_6_1
I1002 09:43:28.991524 24584 net.cpp:434] block_6_1 <- conv5_3/linear_conv5_3/linear/scale_0_split_1
I1002 09:43:28.991528 24584 net.cpp:434] block_6_1 <- conv6_1/linear
I1002 09:43:28.991530 24584 net.cpp:408] block_6_1 -> block_6_1
I1002 09:43:28.991550 24584 net.cpp:150] Setting up block_6_1
I1002 09:43:28.991554 24584 net.cpp:157] Top shape: 2 160 10 16 (51200)
I1002 09:43:28.991559 24584 net.cpp:165] Memory required for data: 899738976
I1002 09:43:28.991560 24584 layer_factory.hpp:77] Creating layer block_6_1_block_6_1_0_split
I1002 09:43:28.991564 24584 net.cpp:100] Creating Layer block_6_1_block_6_1_0_split
I1002 09:43:28.991567 24584 net.cpp:434] block_6_1_block_6_1_0_split <- block_6_1
I1002 09:43:28.991571 24584 net.cpp:408] block_6_1_block_6_1_0_split -> block_6_1_block_6_1_0_split_0
I1002 09:43:28.991576 24584 net.cpp:408] block_6_1_block_6_1_0_split -> block_6_1_block_6_1_0_split_1
I1002 09:43:28.991605 24584 net.cpp:150] Setting up block_6_1_block_6_1_0_split
I1002 09:43:28.991609 24584 net.cpp:157] Top shape: 2 160 10 16 (51200)
I1002 09:43:28.991614 24584 net.cpp:157] Top shape: 2 160 10 16 (51200)
I1002 09:43:28.991617 24584 net.cpp:165] Memory required for data: 900148576
I1002 09:43:28.991619 24584 layer_factory.hpp:77] Creating layer conv6_2/expand
I1002 09:43:28.991624 24584 net.cpp:100] Creating Layer conv6_2/expand
I1002 09:43:28.991627 24584 net.cpp:434] conv6_2/expand <- block_6_1_block_6_1_0_split_0
I1002 09:43:28.991631 24584 net.cpp:408] conv6_2/expand -> conv6_2/expand
I1002 09:43:28.994033 24584 net.cpp:150] Setting up conv6_2/expand
I1002 09:43:28.994041 24584 net.cpp:157] Top shape: 2 960 10 16 (307200)
I1002 09:43:28.994045 24584 net.cpp:165] Memory required for data: 901377376
I1002 09:43:28.994048 24584 layer_factory.hpp:77] Creating layer conv6_2/expand/bn
I1002 09:43:28.994053 24584 net.cpp:100] Creating Layer conv6_2/expand/bn
I1002 09:43:28.994056 24584 net.cpp:434] conv6_2/expand/bn <- conv6_2/expand
I1002 09:43:28.994063 24584 net.cpp:395] conv6_2/expand/bn -> conv6_2/expand (in-place)
I1002 09:43:28.994221 24584 net.cpp:150] Setting up conv6_2/expand/bn
I1002 09:43:28.994226 24584 net.cpp:157] Top shape: 2 960 10 16 (307200)
I1002 09:43:28.994240 24584 net.cpp:165] Memory required for data: 902606176
I1002 09:43:28.994246 24584 layer_factory.hpp:77] Creating layer conv6_2/expand/scale
I1002 09:43:28.994252 24584 net.cpp:100] Creating Layer conv6_2/expand/scale
I1002 09:43:28.994256 24584 net.cpp:434] conv6_2/expand/scale <- conv6_2/expand
I1002 09:43:28.994258 24584 net.cpp:395] conv6_2/expand/scale -> conv6_2/expand (in-place)
I1002 09:43:28.994292 24584 layer_factory.hpp:77] Creating layer conv6_2/expand/scale
I1002 09:43:28.994379 24584 net.cpp:150] Setting up conv6_2/expand/scale
I1002 09:43:28.994382 24584 net.cpp:157] Top shape: 2 960 10 16 (307200)
I1002 09:43:28.994385 24584 net.cpp:165] Memory required for data: 903834976
I1002 09:43:28.994387 24584 layer_factory.hpp:77] Creating layer relu6_2/expand
I1002 09:43:28.994391 24584 net.cpp:100] Creating Layer relu6_2/expand
I1002 09:43:28.994393 24584 net.cpp:434] relu6_2/expand <- conv6_2/expand
I1002 09:43:28.994397 24584 net.cpp:395] relu6_2/expand -> conv6_2/expand (in-place)
I1002 09:43:28.994844 24584 net.cpp:150] Setting up relu6_2/expand
I1002 09:43:28.994853 24584 net.cpp:157] Top shape: 2 960 10 16 (307200)
I1002 09:43:28.994854 24584 net.cpp:165] Memory required for data: 905063776
I1002 09:43:28.994856 24584 layer_factory.hpp:77] Creating layer conv6_2/dwise
I1002 09:43:28.994863 24584 net.cpp:100] Creating Layer conv6_2/dwise
I1002 09:43:28.994864 24584 net.cpp:434] conv6_2/dwise <- conv6_2/expand
I1002 09:43:28.994868 24584 net.cpp:408] conv6_2/dwise -> conv6_2/dwise
I1002 09:43:28.995087 24584 net.cpp:150] Setting up conv6_2/dwise
I1002 09:43:28.995092 24584 net.cpp:157] Top shape: 2 960 10 16 (307200)
I1002 09:43:28.995095 24584 net.cpp:165] Memory required for data: 906292576
I1002 09:43:28.995097 24584 layer_factory.hpp:77] Creating layer conv6_2/dwise/bn
I1002 09:43:28.995101 24584 net.cpp:100] Creating Layer conv6_2/dwise/bn
I1002 09:43:28.995105 24584 net.cpp:434] conv6_2/dwise/bn <- conv6_2/dwise
I1002 09:43:28.995108 24584 net.cpp:395] conv6_2/dwise/bn -> conv6_2/dwise (in-place)
I1002 09:43:28.995265 24584 net.cpp:150] Setting up conv6_2/dwise/bn
I1002 09:43:28.995270 24584 net.cpp:157] Top shape: 2 960 10 16 (307200)
I1002 09:43:28.995272 24584 net.cpp:165] Memory required for data: 907521376
I1002 09:43:28.995276 24584 layer_factory.hpp:77] Creating layer conv6_2/dwise/scale
I1002 09:43:28.995280 24584 net.cpp:100] Creating Layer conv6_2/dwise/scale
I1002 09:43:28.995282 24584 net.cpp:434] conv6_2/dwise/scale <- conv6_2/dwise
I1002 09:43:28.995285 24584 net.cpp:395] conv6_2/dwise/scale -> conv6_2/dwise (in-place)
I1002 09:43:28.995318 24584 layer_factory.hpp:77] Creating layer conv6_2/dwise/scale
I1002 09:43:28.995409 24584 net.cpp:150] Setting up conv6_2/dwise/scale
I1002 09:43:28.995412 24584 net.cpp:157] Top shape: 2 960 10 16 (307200)
I1002 09:43:28.995414 24584 net.cpp:165] Memory required for data: 908750176
I1002 09:43:28.995417 24584 layer_factory.hpp:77] Creating layer relu6_2/dwise
I1002 09:43:28.995420 24584 net.cpp:100] Creating Layer relu6_2/dwise
I1002 09:43:28.995422 24584 net.cpp:434] relu6_2/dwise <- conv6_2/dwise
I1002 09:43:28.995425 24584 net.cpp:395] relu6_2/dwise -> conv6_2/dwise (in-place)
I1002 09:43:28.995731 24584 net.cpp:150] Setting up relu6_2/dwise
I1002 09:43:28.995738 24584 net.cpp:157] Top shape: 2 960 10 16 (307200)
I1002 09:43:28.995738 24584 net.cpp:165] Memory required for data: 909978976
I1002 09:43:28.995741 24584 layer_factory.hpp:77] Creating layer conv6_2/linear
I1002 09:43:28.995746 24584 net.cpp:100] Creating Layer conv6_2/linear
I1002 09:43:28.995748 24584 net.cpp:434] conv6_2/linear <- conv6_2/dwise
I1002 09:43:28.995752 24584 net.cpp:408] conv6_2/linear -> conv6_2/linear
I1002 09:43:28.997777 24584 net.cpp:150] Setting up conv6_2/linear
I1002 09:43:28.997786 24584 net.cpp:157] Top shape: 2 160 10 16 (51200)
I1002 09:43:28.997787 24584 net.cpp:165] Memory required for data: 910183776
I1002 09:43:28.997792 24584 layer_factory.hpp:77] Creating layer conv6_2/linear/bn
I1002 09:43:28.997797 24584 net.cpp:100] Creating Layer conv6_2/linear/bn
I1002 09:43:28.997813 24584 net.cpp:434] conv6_2/linear/bn <- conv6_2/linear
I1002 09:43:28.997817 24584 net.cpp:395] conv6_2/linear/bn -> conv6_2/linear (in-place)
I1002 09:43:28.997970 24584 net.cpp:150] Setting up conv6_2/linear/bn
I1002 09:43:28.997974 24584 net.cpp:157] Top shape: 2 160 10 16 (51200)
I1002 09:43:28.997977 24584 net.cpp:165] Memory required for data: 910388576
I1002 09:43:28.997980 24584 layer_factory.hpp:77] Creating layer conv6_2/linear/scale
I1002 09:43:28.997984 24584 net.cpp:100] Creating Layer conv6_2/linear/scale
I1002 09:43:28.997987 24584 net.cpp:434] conv6_2/linear/scale <- conv6_2/linear
I1002 09:43:28.997989 24584 net.cpp:395] conv6_2/linear/scale -> conv6_2/linear (in-place)
I1002 09:43:28.998021 24584 layer_factory.hpp:77] Creating layer conv6_2/linear/scale
I1002 09:43:28.998107 24584 net.cpp:150] Setting up conv6_2/linear/scale
I1002 09:43:28.998111 24584 net.cpp:157] Top shape: 2 160 10 16 (51200)
I1002 09:43:28.998113 24584 net.cpp:165] Memory required for data: 910593376
I1002 09:43:28.998116 24584 layer_factory.hpp:77] Creating layer block_6_2
I1002 09:43:28.998119 24584 net.cpp:100] Creating Layer block_6_2
I1002 09:43:28.998122 24584 net.cpp:434] block_6_2 <- block_6_1_block_6_1_0_split_1
I1002 09:43:28.998124 24584 net.cpp:434] block_6_2 <- conv6_2/linear
I1002 09:43:28.998127 24584 net.cpp:408] block_6_2 -> block_6_2
I1002 09:43:28.998145 24584 net.cpp:150] Setting up block_6_2
I1002 09:43:28.998149 24584 net.cpp:157] Top shape: 2 160 10 16 (51200)
I1002 09:43:28.998152 24584 net.cpp:165] Memory required for data: 910798176
I1002 09:43:28.998154 24584 layer_factory.hpp:77] Creating layer conv6_3/expand
I1002 09:43:28.998160 24584 net.cpp:100] Creating Layer conv6_3/expand
I1002 09:43:28.998163 24584 net.cpp:434] conv6_3/expand <- block_6_2
I1002 09:43:28.998167 24584 net.cpp:408] conv6_3/expand -> conv6_3/expand
I1002 09:43:29.000282 24584 net.cpp:150] Setting up conv6_3/expand
I1002 09:43:29.000289 24584 net.cpp:157] Top shape: 2 960 10 16 (307200)
I1002 09:43:29.000291 24584 net.cpp:165] Memory required for data: 912026976
I1002 09:43:29.000295 24584 layer_factory.hpp:77] Creating layer conv6_3/expand/bn
I1002 09:43:29.000299 24584 net.cpp:100] Creating Layer conv6_3/expand/bn
I1002 09:43:29.000301 24584 net.cpp:434] conv6_3/expand/bn <- conv6_3/expand
I1002 09:43:29.000306 24584 net.cpp:395] conv6_3/expand/bn -> conv6_3/expand (in-place)
I1002 09:43:29.000464 24584 net.cpp:150] Setting up conv6_3/expand/bn
I1002 09:43:29.000468 24584 net.cpp:157] Top shape: 2 960 10 16 (307200)
I1002 09:43:29.000470 24584 net.cpp:165] Memory required for data: 913255776
I1002 09:43:29.000474 24584 layer_factory.hpp:77] Creating layer conv6_3/expand/scale
I1002 09:43:29.000478 24584 net.cpp:100] Creating Layer conv6_3/expand/scale
I1002 09:43:29.000480 24584 net.cpp:434] conv6_3/expand/scale <- conv6_3/expand
I1002 09:43:29.000483 24584 net.cpp:395] conv6_3/expand/scale -> conv6_3/expand (in-place)
I1002 09:43:29.000516 24584 layer_factory.hpp:77] Creating layer conv6_3/expand/scale
I1002 09:43:29.000604 24584 net.cpp:150] Setting up conv6_3/expand/scale
I1002 09:43:29.000610 24584 net.cpp:157] Top shape: 2 960 10 16 (307200)
I1002 09:43:29.000612 24584 net.cpp:165] Memory required for data: 914484576
I1002 09:43:29.000615 24584 layer_factory.hpp:77] Creating layer relu6_3/expand
I1002 09:43:29.000618 24584 net.cpp:100] Creating Layer relu6_3/expand
I1002 09:43:29.000620 24584 net.cpp:434] relu6_3/expand <- conv6_3/expand
I1002 09:43:29.000622 24584 net.cpp:395] relu6_3/expand -> conv6_3/expand (in-place)
I1002 09:43:29.000903 24584 net.cpp:150] Setting up relu6_3/expand
I1002 09:43:29.000908 24584 net.cpp:157] Top shape: 2 960 10 16 (307200)
I1002 09:43:29.000911 24584 net.cpp:165] Memory required for data: 915713376
I1002 09:43:29.000916 24584 layer_factory.hpp:77] Creating layer conv6_3/dwise
I1002 09:43:29.000922 24584 net.cpp:100] Creating Layer conv6_3/dwise
I1002 09:43:29.000926 24584 net.cpp:434] conv6_3/dwise <- conv6_3/expand
I1002 09:43:29.000929 24584 net.cpp:408] conv6_3/dwise -> conv6_3/dwise
I1002 09:43:29.001144 24584 net.cpp:150] Setting up conv6_3/dwise
I1002 09:43:29.001149 24584 net.cpp:157] Top shape: 2 960 10 16 (307200)
I1002 09:43:29.001150 24584 net.cpp:165] Memory required for data: 916942176
I1002 09:43:29.001153 24584 layer_factory.hpp:77] Creating layer conv6_3/dwise/bn
I1002 09:43:29.001157 24584 net.cpp:100] Creating Layer conv6_3/dwise/bn
I1002 09:43:29.001159 24584 net.cpp:434] conv6_3/dwise/bn <- conv6_3/dwise
I1002 09:43:29.001161 24584 net.cpp:395] conv6_3/dwise/bn -> conv6_3/dwise (in-place)
I1002 09:43:29.001309 24584 net.cpp:150] Setting up conv6_3/dwise/bn
I1002 09:43:29.001313 24584 net.cpp:157] Top shape: 2 960 10 16 (307200)
I1002 09:43:29.001315 24584 net.cpp:165] Memory required for data: 918170976
I1002 09:43:29.001319 24584 layer_factory.hpp:77] Creating layer conv6_3/dwise/scale
I1002 09:43:29.001322 24584 net.cpp:100] Creating Layer conv6_3/dwise/scale
I1002 09:43:29.001324 24584 net.cpp:434] conv6_3/dwise/scale <- conv6_3/dwise
I1002 09:43:29.001327 24584 net.cpp:395] conv6_3/dwise/scale -> conv6_3/dwise (in-place)
I1002 09:43:29.001359 24584 layer_factory.hpp:77] Creating layer conv6_3/dwise/scale
I1002 09:43:29.001446 24584 net.cpp:150] Setting up conv6_3/dwise/scale
I1002 09:43:29.001451 24584 net.cpp:157] Top shape: 2 960 10 16 (307200)
I1002 09:43:29.001452 24584 net.cpp:165] Memory required for data: 919399776
I1002 09:43:29.001456 24584 layer_factory.hpp:77] Creating layer relu6_3/dwise
I1002 09:43:29.001459 24584 net.cpp:100] Creating Layer relu6_3/dwise
I1002 09:43:29.001461 24584 net.cpp:434] relu6_3/dwise <- conv6_3/dwise
I1002 09:43:29.001464 24584 net.cpp:395] relu6_3/dwise -> conv6_3/dwise (in-place)
I1002 09:43:29.001746 24584 net.cpp:150] Setting up relu6_3/dwise
I1002 09:43:29.001752 24584 net.cpp:157] Top shape: 2 960 10 16 (307200)
I1002 09:43:29.001754 24584 net.cpp:165] Memory required for data: 920628576
I1002 09:43:29.001756 24584 layer_factory.hpp:77] Creating layer conv6_3/linear
…
I1002 09:43:29.162813 24584 net.cpp:165] Memory required for data: 456627872
I1002 09:43:29.162818 24584 layer_factory.hpp:77] Creating layer conv6_3/expand/scale
I1002 09:43:29.162823 24584 net.cpp:100] Creating Layer conv6_3/expand/scale
I1002 09:43:29.162827 24584 net.cpp:434] conv6_3/expand/scale <- conv6_3/expand
I1002 09:43:29.162828 24584 net.cpp:395] conv6_3/expand/scale -> conv6_3/expand (in-place)
I1002 09:43:29.162863 24584 layer_factory.hpp:77] Creating layer conv6_3/expand/scale
I1002 09:43:29.162938 24584 net.cpp:150] Setting up conv6_3/expand/scale
I1002 09:43:29.162943 24584 net.cpp:157] Top shape: 1 960 10 16 (153600)
I1002 09:43:29.162945 24584 net.cpp:165] Memory required for data: 457242272
I1002 09:43:29.162950 24584 layer_factory.hpp:77] Creating layer relu6_3/expand
I1002 09:43:29.162953 24584 net.cpp:100] Creating Layer relu6_3/expand
I1002 09:43:29.162955 24584 net.cpp:434] relu6_3/expand <- conv6_3/expand
I1002 09:43:29.162957 24584 net.cpp:395] relu6_3/expand -> conv6_3/expand (in-place)
I1002 09:43:29.163261 24584 net.cpp:150] Setting up relu6_3/expand
I1002 09:43:29.163269 24584 net.cpp:157] Top shape: 1 960 10 16 (153600)
I1002 09:43:29.163270 24584 net.cpp:165] Memory required for data: 457856672
I1002 09:43:29.163272 24584 layer_factory.hpp:77] Creating layer conv6_3/dwise
I1002 09:43:29.163277 24584 net.cpp:100] Creating Layer conv6_3/dwise
I1002 09:43:29.163281 24584 net.cpp:434] conv6_3/dwise <- conv6_3/expand
I1002 09:43:29.163286 24584 net.cpp:408] conv6_3/dwise -> conv6_3/dwise
I1002 09:43:29.163939 24584 net.cpp:150] Setting up conv6_3/dwise
I1002 09:43:29.163946 24584 net.cpp:157] Top shape: 1 960 10 16 (153600)
I1002 09:43:29.163950 24584 net.cpp:165] Memory required for data: 458471072
I1002 09:43:29.163954 24584 layer_factory.hpp:77] Creating layer conv6_3/dwise/bn
I1002 09:43:29.163962 24584 net.cpp:100] Creating Layer conv6_3/dwise/bn
I1002 09:43:29.163965 24584 net.cpp:434] conv6_3/dwise/bn <- conv6_3/dwise
I1002 09:43:29.163970 24584 net.cpp:395] conv6_3/dwise/bn -> conv6_3/dwise (in-place)
I1002 09:43:29.164115 24584 net.cpp:150] Setting up conv6_3/dwise/bn
I1002 09:43:29.164120 24584 net.cpp:157] Top shape: 1 960 10 16 (153600)
I1002 09:43:29.164122 24584 net.cpp:165] Memory required for data: 459085472
I1002 09:43:29.164130 24584 layer_factory.hpp:77] Creating layer conv6_3/dwise/scale
I1002 09:43:29.164136 24584 net.cpp:100] Creating Layer conv6_3/dwise/scale
I1002 09:43:29.164139 24584 net.cpp:434] conv6_3/dwise/scale <- conv6_3/dwise
I1002 09:43:29.164144 24584 net.cpp:395] conv6_3/dwise/scale -> conv6_3/dwise (in-place)
I1002 09:43:29.164181 24584 layer_factory.hpp:77] Creating layer conv6_3/dwise/scale
I1002 09:43:29.164263 24584 net.cpp:150] Setting up conv6_3/dwise/scale
I1002 09:43:29.164268 24584 net.cpp:157] Top shape: 1 960 10 16 (153600)
I1002 09:43:29.164271 24584 net.cpp:165] Memory required for data: 459699872
I1002 09:43:29.164278 24584 layer_factory.hpp:77] Creating layer relu6_3/dwise
I1002 09:43:29.164283 24584 net.cpp:100] Creating Layer relu6_3/dwise
I1002 09:43:29.164286 24584 net.cpp:434] relu6_3/dwise <- conv6_3/dwise
I1002 09:43:29.164290 24584 net.cpp:395] relu6_3/dwise -> conv6_3/dwise (in-place)
I1002 09:43:29.164721 24584 net.cpp:150] Setting up relu6_3/dwise
I1002 09:43:29.164728 24584 net.cpp:157] Top shape: 1 960 10 16 (153600)
I1002 09:43:29.164731 24584 net.cpp:165] Memory required for data: 460314272
I1002 09:43:29.164733 24584 layer_factory.hpp:77] Creating layer conv6_3/linear
I1002 09:43:29.164744 24584 net.cpp:100] Creating Layer conv6_3/linear
I1002 09:43:29.164747 24584 net.cpp:434] conv6_3/linear <- conv6_3/dwise
I1002 09:43:29.164752 24584 net.cpp:408] conv6_3/linear -> conv6_3/linear
I1002 09:43:29.168107 24584 net.cpp:150] Setting up conv6_3/linear
I1002 09:43:29.168119 24584 net.cpp:157] Top shape: 1 320 10 16 (51200)
I1002 09:43:29.168123 24584 net.cpp:165] Memory required for data: 460519072
I1002 09:43:29.168128 24584 layer_factory.hpp:77] Creating layer conv6_3/linear/bn
I1002 09:43:29.168138 24584 net.cpp:100] Creating Layer conv6_3/linear/bn
I1002 09:43:29.168143 24584 net.cpp:434] conv6_3/linear/bn <- conv6_3/linear
I1002 09:43:29.168148 24584 net.cpp:395] conv6_3/linear/bn -> conv6_3/linear (in-place)
I1002 09:43:29.168299 24584 net.cpp:150] Setting up conv6_3/linear/bn
I1002 09:43:29.168304 24584 net.cpp:157] Top shape: 1 320 10 16 (51200)
I1002 09:43:29.168308 24584 net.cpp:165] Memory required for data: 460723872
I1002 09:43:29.168315 24584 layer_factory.hpp:77] Creating layer conv6_3/linear/scale
I1002 09:43:29.168321 24584 net.cpp:100] Creating Layer conv6_3/linear/scale
I1002 09:43:29.168325 24584 net.cpp:434] conv6_3/linear/scale <- conv6_3/linear
I1002 09:43:29.168331 24584 net.cpp:395] conv6_3/linear/scale -> conv6_3/linear (in-place)
I1002 09:43:29.168367 24584 layer_factory.hpp:77] Creating layer conv6_3/linear/scale
I1002 09:43:29.168449 24584 net.cpp:150] Setting up conv6_3/linear/scale
I1002 09:43:29.168455 24584 net.cpp:157] Top shape: 1 320 10 16 (51200)
I1002 09:43:29.168468 24584 net.cpp:165] Memory required for data: 460928672
I1002 09:43:29.168474 24584 layer_factory.hpp:77] Creating layer conv6_4
I1002 09:43:29.168483 24584 net.cpp:100] Creating Layer conv6_4
I1002 09:43:29.168486 24584 net.cpp:434] conv6_4 <- conv6_3/linear
I1002 09:43:29.168493 24584 net.cpp:408] conv6_4 -> conv6_4
I1002 09:43:29.172390 24584 net.cpp:150] Setting up conv6_4
I1002 09:43:29.172403 24584 net.cpp:157] Top shape: 1 1280 10 16 (204800)
I1002 09:43:29.172406 24584 net.cpp:165] Memory required for data: 461747872
I1002 09:43:29.172413 24584 layer_factory.hpp:77] Creating layer conv6_4/bn
I1002 09:43:29.172421 24584 net.cpp:100] Creating Layer conv6_4/bn
I1002 09:43:29.172425 24584 net.cpp:434] conv6_4/bn <- conv6_4
I1002 09:43:29.172431 24584 net.cpp:395] conv6_4/bn -> conv6_4 (in-place)
I1002 09:43:29.172580 24584 net.cpp:150] Setting up conv6_4/bn
I1002 09:43:29.172585 24584 net.cpp:157] Top shape: 1 1280 10 16 (204800)
I1002 09:43:29.172587 24584 net.cpp:165] Memory required for data: 462567072
I1002 09:43:29.172595 24584 layer_factory.hpp:77] Creating layer conv6_4/scale
I1002 09:43:29.172601 24584 net.cpp:100] Creating Layer conv6_4/scale
I1002 09:43:29.172605 24584 net.cpp:434] conv6_4/scale <- conv6_4
I1002 09:43:29.172610 24584 net.cpp:395] conv6_4/scale -> conv6_4 (in-place)
I1002 09:43:29.172641 24584 layer_factory.hpp:77] Creating layer conv6_4/scale
I1002 09:43:29.172719 24584 net.cpp:150] Setting up conv6_4/scale
I1002 09:43:29.172725 24584 net.cpp:157] Top shape: 1 1280 10 16 (204800)
I1002 09:43:29.172729 24584 net.cpp:165] Memory required for data: 463386272
I1002 09:43:29.172734 24584 layer_factory.hpp:77] Creating layer relu6_4
I1002 09:43:29.172740 24584 net.cpp:100] Creating Layer relu6_4
I1002 09:43:29.172744 24584 net.cpp:434] relu6_4 <- conv6_4
I1002 09:43:29.172747 24584 net.cpp:395] relu6_4 -> conv6_4 (in-place)
I1002 09:43:29.173040 24584 net.cpp:150] Setting up relu6_4
I1002 09:43:29.173048 24584 net.cpp:157] Top shape: 1 1280 10 16 (204800)
I1002 09:43:29.173049 24584 net.cpp:165] Memory required for data: 464205472
I1002 09:43:29.173053 24584 layer_factory.hpp:77] Creating layer conv6_4_relu6_4_0_split
I1002 09:43:29.173058 24584 net.cpp:100] Creating Layer conv6_4_relu6_4_0_split
I1002 09:43:29.173061 24584 net.cpp:434] conv6_4_relu6_4_0_split <- conv6_4
I1002 09:43:29.173068 24584 net.cpp:408] conv6_4_relu6_4_0_split -> conv6_4_relu6_4_0_split_0
I1002 09:43:29.173074 24584 net.cpp:408] conv6_4_relu6_4_0_split -> conv6_4_relu6_4_0_split_1
I1002 09:43:29.173080 24584 net.cpp:408] conv6_4_relu6_4_0_split -> conv6_4_relu6_4_0_split_2
I1002 09:43:29.173087 24584 net.cpp:408] conv6_4_relu6_4_0_split -> conv6_4_relu6_4_0_split_3
I1002 09:43:29.173131 24584 net.cpp:150] Setting up conv6_4_relu6_4_0_split
I1002 09:43:29.173136 24584 net.cpp:157] Top shape: 1 1280 10 16 (204800)
I1002 09:43:29.173140 24584 net.cpp:157] Top shape: 1 1280 10 16 (204800)
I1002 09:43:29.173144 24584 net.cpp:157] Top shape: 1 1280 10 16 (204800)
I1002 09:43:29.173149 24584 net.cpp:157] Top shape: 1 1280 10 16 (204800)
I1002 09:43:29.173152 24584 net.cpp:165] Memory required for data: 467482272
I1002 09:43:29.173156 24584 layer_factory.hpp:77] Creating layer ssd1_1
I1002 09:43:29.173163 24584 net.cpp:100] Creating Layer ssd1_1
I1002 09:43:29.173166 24584 net.cpp:434] ssd1_1 <- conv6_4_relu6_4_0_split_0
I1002 09:43:29.173173 24584 net.cpp:408] ssd1_1 -> ssd1_1
I1002 09:43:29.175912 24584 net.cpp:150] Setting up ssd1_1
I1002 09:43:29.175923 24584 net.cpp:157] Top shape: 1 256 10 16 (40960)
I1002 09:43:29.175925 24584 net.cpp:165] Memory required for data: 467646112
I1002 09:43:29.175932 24584 layer_factory.hpp:77] Creating layer ssd1_1_relu
I1002 09:43:29.175940 24584 net.cpp:100] Creating Layer ssd1_1_relu
I1002 09:43:29.175943 24584 net.cpp:434] ssd1_1_relu <- ssd1_1
I1002 09:43:29.175949 24584 net.cpp:395] ssd1_1_relu -> ssd1_1 (in-place)
I1002 09:43:29.176239 24584 net.cpp:150] Setting up ssd1_1_relu
I1002 09:43:29.176247 24584 net.cpp:157] Top shape: 1 256 10 16 (40960)
I1002 09:43:29.176251 24584 net.cpp:165] Memory required for data: 467809952
I1002 09:43:29.176264 24584 layer_factory.hpp:77] Creating layer ssd1_2
I1002 09:43:29.176272 24584 net.cpp:100] Creating Layer ssd1_2
I1002 09:43:29.176275 24584 net.cpp:434] ssd1_2 <- ssd1_1
I1002 09:43:29.176281 24584 net.cpp:408] ssd1_2 -> ssd1_2
I1002 09:43:29.182387 24584 net.cpp:150] Setting up ssd1_2
I1002 09:43:29.182404 24584 net.cpp:157] Top shape: 1 512 5 8 (20480)
I1002 09:43:29.182406 24584 net.cpp:165] Memory required for data: 467891872
I1002 09:43:29.182415 24584 layer_factory.hpp:77] Creating layer ssd1_2_relu
I1002 09:43:29.182430 24584 net.cpp:100] Creating Layer ssd1_2_relu
I1002 09:43:29.182435 24584 net.cpp:434] ssd1_2_relu <- ssd1_2
I1002 09:43:29.182441 24584 net.cpp:395] ssd1_2_relu -> ssd1_2 (in-place)
I1002 09:43:29.182883 24584 net.cpp:150] Setting up ssd1_2_relu
I1002 09:43:29.182891 24584 net.cpp:157] Top shape: 1 512 5 8 (20480)
I1002 09:43:29.182894 24584 net.cpp:165] Memory required for data: 467973792
I1002 09:43:29.182898 24584 layer_factory.hpp:77] Creating layer ssd1_2_ssd1_2_relu_0_split
I1002 09:43:29.182904 24584 net.cpp:100] Creating Layer ssd1_2_ssd1_2_relu_0_split
I1002 09:43:29.182909 24584 net.cpp:434] ssd1_2_ssd1_2_relu_0_split <- ssd1_2
I1002 09:43:29.182914 24584 net.cpp:408] ssd1_2_ssd1_2_relu_0_split -> ssd1_2_ssd1_2_relu_0_split_0
I1002 09:43:29.182921 24584 net.cpp:408] ssd1_2_ssd1_2_relu_0_split -> ssd1_2_ssd1_2_relu_0_split_1
I1002 09:43:29.182929 24584 net.cpp:408] ssd1_2_ssd1_2_relu_0_split -> ssd1_2_ssd1_2_relu_0_split_2
I1002 09:43:29.182935 24584 net.cpp:408] ssd1_2_ssd1_2_relu_0_split -> ssd1_2_ssd1_2_relu_0_split_3
I1002 09:43:29.182984 24584 net.cpp:150] Setting up ssd1_2_ssd1_2_relu_0_split
I1002 09:43:29.182991 24584 net.cpp:157] Top shape: 1 512 5 8 (20480)
I1002 09:43:29.182994 24584 net.cpp:157] Top shape: 1 512 5 8 (20480)
I1002 09:43:29.182998 24584 net.cpp:157] Top shape: 1 512 5 8 (20480)
I1002 09:43:29.183003 24584 net.cpp:157] Top shape: 1 512 5 8 (20480)
I1002 09:43:29.183007 24584 net.cpp:165] Memory required for data: 468301472
I1002 09:43:29.183009 24584 layer_factory.hpp:77] Creating layer ssd2_1
I1002 09:43:29.183019 24584 net.cpp:100] Creating Layer ssd2_1
I1002 09:43:29.183022 24584 net.cpp:434] ssd2_1 <- ssd1_2_ssd1_2_relu_0_split_0
I1002 09:43:29.183028 24584 net.cpp:408] ssd2_1 -> ssd2_1
I1002 09:43:29.184450 24584 net.cpp:150] Setting up ssd2_1
I1002 09:43:29.184460 24584 net.cpp:157] Top shape: 1 128 5 8 (5120)
I1002 09:43:29.184463 24584 net.cpp:165] Memory required for data: 468321952
I1002 09:43:29.184470 24584 layer_factory.hpp:77] Creating layer ssd2_1_relu
I1002 09:43:29.184478 24584 net.cpp:100] Creating Layer ssd2_1_relu
I1002 09:43:29.184482 24584 net.cpp:434] ssd2_1_relu <- ssd2_1
I1002 09:43:29.184489 24584 net.cpp:395] ssd2_1_relu -> ssd2_1 (in-place)
I1002 09:43:29.184787 24584 net.cpp:150] Setting up ssd2_1_relu
I1002 09:43:29.184793 24584 net.cpp:157] Top shape: 1 128 5 8 (5120)
I1002 09:43:29.184797 24584 net.cpp:165] Memory required for data: 468342432
I1002 09:43:29.184799 24584 layer_factory.hpp:77] Creating layer ssd2_2
I1002 09:43:29.184808 24584 net.cpp:100] Creating Layer ssd2_2
I1002 09:43:29.184813 24584 net.cpp:434] ssd2_2 <- ssd2_1
I1002 09:43:29.184818 24584 net.cpp:408] ssd2_2 -> ssd2_2
I1002 09:43:29.187433 24584 net.cpp:150] Setting up ssd2_2
I1002 09:43:29.187445 24584 net.cpp:157] Top shape: 1 256 3 4 (3072)
I1002 09:43:29.187448 24584 net.cpp:165] Memory required for data: 468354720
I1002 09:43:29.187456 24584 layer_factory.hpp:77] Creating layer ssd2_2_relu
I1002 09:43:29.187465 24584 net.cpp:100] Creating Layer ssd2_2_relu
I1002 09:43:29.187470 24584 net.cpp:434] ssd2_2_relu <- ssd2_2
I1002 09:43:29.187475 24584 net.cpp:395] ssd2_2_relu -> ssd2_2 (in-place)
I1002 09:43:29.187964 24584 net.cpp:150] Setting up ssd2_2_relu
I1002 09:43:29.187984 24584 net.cpp:157] Top shape: 1 256 3 4 (3072)
I1002 09:43:29.187994 24584 net.cpp:165] Memory required for data: 468367008
I1002 09:43:29.188004 24584 layer_factory.hpp:77] Creating layer ssd2_2_ssd2_2_relu_0_split
I1002 09:43:29.188024 24584 net.cpp:100] Creating Layer ssd2_2_ssd2_2_relu_0_split
I1002 09:43:29.188026 24584 net.cpp:434] ssd2_2_ssd2_2_relu_0_split <- ssd2_2
I1002 09:43:29.188033 24584 net.cpp:408] ssd2_2_ssd2_2_relu_0_split -> ssd2_2_ssd2_2_relu_0_split_0
I1002 09:43:29.188040 24584 net.cpp:408] ssd2_2_ssd2_2_relu_0_split -> ssd2_2_ssd2_2_relu_0_split_1
I1002 09:43:29.188047 24584 net.cpp:408] ssd2_2_ssd2_2_relu_0_split -> ssd2_2_ssd2_2_relu_0_split_2
I1002 09:43:29.188055 24584 net.cpp:408] ssd2_2_ssd2_2_relu_0_split -> ssd2_2_ssd2_2_relu_0_split_3
I1002 09:43:29.188104 24584 net.cpp:150] Setting up ssd2_2_ssd2_2_relu_0_split
I1002 09:43:29.188109 24584 net.cpp:157] Top shape: 1 256 3 4 (3072)
I1002 09:43:29.188113 24584 net.cpp:157] Top shape: 1 256 3 4 (3072)
I1002 09:43:29.188117 24584 net.cpp:157] Top shape: 1 256 3 4 (3072)
I1002 09:43:29.188122 24584 net.cpp:157] Top shape: 1 256 3 4 (3072)
I1002 09:43:29.188125 24584 net.cpp:165] Memory required for data: 468416160
I1002 09:43:29.188127 24584 layer_factory.hpp:77] Creating layer ssd3_1
I1002 09:43:29.188136 24584 net.cpp:100] Creating Layer ssd3_1
I1002 09:43:29.188140 24584 net.cpp:434] ssd3_1 <- ssd2_2_ssd2_2_relu_0_split_0
I1002 09:43:29.188146 24584 net.cpp:408] ssd3_1 -> ssd3_1
I1002 09:43:29.189748 24584 net.cpp:150] Setting up ssd3_1
I1002 09:43:29.189755 24584 net.cpp:157] Top shape: 1 128 3 4 (1536)
I1002 09:43:29.189759 24584 net.cpp:165] Memory required for data: 468422304
I1002 09:43:29.189766 24584 layer_factory.hpp:77] Creating layer ssd3_1_relu
I1002 09:43:29.189772 24584 net.cpp:100] Creating Layer ssd3_1_relu
I1002 09:43:29.189776 24584 net.cpp:434] ssd3_1_relu <- ssd3_1
I1002 09:43:29.189781 24584 net.cpp:395] ssd3_1_relu -> ssd3_1 (in-place)
I1002 09:43:29.190073 24584 net.cpp:150] Setting up ssd3_1_relu
I1002 09:43:29.190080 24584 net.cpp:157] Top shape: 1 128 3 4 (1536)
I1002 09:43:29.190083 24584 net.cpp:165] Memory required for data: 468428448
I1002 09:43:29.190085 24584 layer_factory.hpp:77] Creating layer ssd3_2
I1002 09:43:29.190094 24584 net.cpp:100] Creating Layer ssd3_2
I1002 09:43:29.190099 24584 net.cpp:434] ssd3_2 <- ssd3_1
I1002 09:43:29.190104 24584 net.cpp:408] ssd3_2 -> ssd3_2
I1002 09:43:29.192752 24584 net.cpp:150] Setting up ssd3_2
I1002 09:43:29.192764 24584 net.cpp:157] Top shape: 1 256 2 2 (1024)
I1002 09:43:29.192767 24584 net.cpp:165] Memory required for data: 468432544
I1002 09:43:29.192775 24584 layer_factory.hpp:77] Creating layer ssd3_2_relu
I1002 09:43:29.192780 24584 net.cpp:100] Creating Layer ssd3_2_relu
I1002 09:43:29.192785 24584 net.cpp:434] ssd3_2_relu <- ssd3_2
I1002 09:43:29.192790 24584 net.cpp:395] ssd3_2_relu -> ssd3_2 (in-place)
I1002 09:43:29.193083 24584 net.cpp:150] Setting up ssd3_2_relu
I1002 09:43:29.193089 24584 net.cpp:157] Top shape: 1 256 2 2 (1024)
I1002 09:43:29.193092 24584 net.cpp:165] Memory required for data: 468436640
I1002 09:43:29.193095 24584 layer_factory.hpp:77] Creating layer ssd3_2_ssd3_2_relu_0_split
I1002 09:43:29.193100 24584 net.cpp:100] Creating Layer ssd3_2_ssd3_2_relu_0_split
I1002 09:43:29.193104 24584 net.cpp:434] ssd3_2_ssd3_2_relu_0_split <- ssd3_2
I1002 09:43:29.193110 24584 net.cpp:408] ssd3_2_ssd3_2_relu_0_split -> ssd3_2_ssd3_2_relu_0_split_0
I1002 09:43:29.193116 24584 net.cpp:408] ssd3_2_ssd3_2_relu_0_split -> ssd3_2_ssd3_2_relu_0_split_1
I1002 09:43:29.193123 24584 net.cpp:408] ssd3_2_ssd3_2_relu_0_split -> ssd3_2_ssd3_2_relu_0_split_2
I1002 09:43:29.193130 24584 net.cpp:408] ssd3_2_ssd3_2_relu_0_split -> ssd3_2_ssd3_2_relu_0_split_3
I1002 09:43:29.193174 24584 net.cpp:150] Setting up ssd3_2_ssd3_2_relu_0_split
I1002 09:43:29.193179 24584 net.cpp:157] Top shape: 1 256 2 2 (1024)
I1002 09:43:29.193184 24584 net.cpp:157] Top shape: 1 256 2 2 (1024)
I1002 09:43:29.193188 24584 net.cpp:157] Top shape: 1 256 2 2 (1024)
I1002 09:43:29.193193 24584 net.cpp:157] Top shape: 1 256 2 2 (1024)
I1002 09:43:29.193197 24584 net.cpp:165] Memory required for data: 468453024
I1002 09:43:29.193199 24584 layer_factory.hpp:77] Creating layer ssd4_1
I1002 09:43:29.193207 24584 net.cpp:100] Creating Layer ssd4_1
I1002 09:43:29.193219 24584 net.cpp:434] ssd4_1 <- ssd3_2_ssd3_2_relu_0_split_0
I1002 09:43:29.193226 24584 net.cpp:408] ssd4_1 -> ssd4_1
I1002 09:43:29.194494 24584 net.cpp:150] Setting up ssd4_1
I1002 09:43:29.194504 24584 net.cpp:157] Top shape: 1 128 2 2 (512)
I1002 09:43:29.194506 24584 net.cpp:165] Memory required for data: 468455072
I1002 09:43:29.194514 24584 layer_factory.hpp:77] Creating layer ssd4_1_relu
I1002 09:43:29.194520 24584 net.cpp:100] Creating Layer ssd4_1_relu
I1002 09:43:29.194523 24584 net.cpp:434] ssd4_1_relu <- ssd4_1
I1002 09:43:29.194530 24584 net.cpp:395] ssd4_1_relu -> ssd4_1 (in-place)
I1002 09:43:29.194819 24584 net.cpp:150] Setting up ssd4_1_relu
I1002 09:43:29.194826 24584 net.cpp:157] Top shape: 1 128 2 2 (512)
I1002 09:43:29.194828 24584 net.cpp:165] Memory required for data: 468457120
I1002 09:43:29.194833 24584 layer_factory.hpp:77] Creating layer ssd4_2
I1002 09:43:29.194841 24584 net.cpp:100] Creating Layer ssd4_2
I1002 09:43:29.194845 24584 net.cpp:434] ssd4_2 <- ssd4_1
I1002 09:43:29.194851 24584 net.cpp:408] ssd4_2 -> ssd4_2
I1002 09:43:29.197543 24584 net.cpp:150] Setting up ssd4_2
I1002 09:43:29.197556 24584 net.cpp:157] Top shape: 1 256 1 1 (256)
I1002 09:43:29.197557 24584 net.cpp:165] Memory required for data: 468458144
I1002 09:43:29.197564 24584 layer_factory.hpp:77] Creating layer ssd4_2_relu
I1002 09:43:29.197571 24584 net.cpp:100] Creating Layer ssd4_2_relu
I1002 09:43:29.197574 24584 net.cpp:434] ssd4_2_relu <- ssd4_2
I1002 09:43:29.197582 24584 net.cpp:395] ssd4_2_relu -> ssd4_2 (in-place)
I1002 09:43:29.197875 24584 net.cpp:150] Setting up ssd4_2_relu
I1002 09:43:29.197882 24584 net.cpp:157] Top shape: 1 256 1 1 (256)
I1002 09:43:29.197885 24584 net.cpp:165] Memory required for data: 468459168
I1002 09:43:29.197888 24584 layer_factory.hpp:77] Creating layer ssd4_2_ssd4_2_relu_0_split
I1002 09:43:29.197894 24584 net.cpp:100] Creating Layer ssd4_2_ssd4_2_relu_0_split
I1002 09:43:29.197897 24584 net.cpp:434] ssd4_2_ssd4_2_relu_0_split <- ssd4_2
I1002 09:43:29.197902 24584 net.cpp:408] ssd4_2_ssd4_2_relu_0_split -> ssd4_2_ssd4_2_relu_0_split_0
I1002 09:43:29.197911 24584 net.cpp:408] ssd4_2_ssd4_2_relu_0_split -> ssd4_2_ssd4_2_relu_0_split_1
I1002 09:43:29.197916 24584 net.cpp:408] ssd4_2_ssd4_2_relu_0_split -> ssd4_2_ssd4_2_relu_0_split_2
I1002 09:43:29.197957 24584 net.cpp:150] Setting up ssd4_2_ssd4_2_relu_0_split
I1002 09:43:29.197962 24584 net.cpp:157] Top shape: 1 256 1 1 (256)
I1002 09:43:29.197965 24584 net.cpp:157] Top shape: 1 256 1 1 (256)
I1002 09:43:29.197969 24584 net.cpp:157] Top shape: 1 256 1 1 (256)
I1002 09:43:29.197973 24584 net.cpp:165] Memory required for data: 468462240
I1002 09:43:29.197975 24584 layer_factory.hpp:77] Creating layer conv5_3/expand_mbox_loc
I1002 09:43:29.197985 24584 net.cpp:100] Creating Layer conv5_3/expand_mbox_loc
I1002 09:43:29.197988 24584 net.cpp:434] conv5_3/expand_mbox_loc <- conv5_3/expand_relu5_3/expand_0_split_1
I1002 09:43:29.197995 24584 net.cpp:408] conv5_3/expand_mbox_loc -> conv5_3/expand_mbox_loc
I1002 09:43:29.199503 24584 net.cpp:150] Setting up conv5_3/expand_mbox_loc
I1002 09:43:29.199510 24584 net.cpp:157] Top shape: 1 8 19 32 (4864)
I1002 09:43:29.199513 24584 net.cpp:165] Memory required for data: 468481696
I1002 09:43:29.199520 24584 layer_factory.hpp:77] Creating layer conv5_3/expand_mbox_loc_perm
I1002 09:43:29.199527 24584 net.cpp:100] Creating Layer conv5_3/expand_mbox_loc_perm
I1002 09:43:29.199530 24584 net.cpp:434] conv5_3/expand_mbox_loc_perm <- conv5_3/expand_mbox_loc
I1002 09:43:29.199537 24584 net.cpp:408] conv5_3/expand_mbox_loc_perm -> conv5_3/expand_mbox_loc_perm
I1002 09:43:29.199609 24584 net.cpp:150] Setting up conv5_3/expand_mbox_loc_perm
I1002 09:43:29.199615 24584 net.cpp:157] Top shape: 1 19 32 8 (4864)
I1002 09:43:29.199616 24584 net.cpp:165] Memory required for data: 468501152
I1002 09:43:29.199620 24584 layer_factory.hpp:77] Creating layer conv5_3/expand_mbox_loc_flat
I1002 09:43:29.199626 24584 net.cpp:100] Creating Layer conv5_3/expand_mbox_loc_flat
I1002 09:43:29.199640 24584 net.cpp:434] conv5_3/expand_mbox_loc_flat <- conv5_3/expand_mbox_loc_perm
I1002 09:43:29.199645 24584 net.cpp:408] conv5_3/expand_mbox_loc_flat -> conv5_3/expand_mbox_loc_flat
I1002 09:43:29.199664 24584 net.cpp:150] Setting up conv5_3/expand_mbox_loc_flat
I1002 09:43:29.199669 24584 net.cpp:157] Top shape: 1 4864 (4864)
I1002 09:43:29.199671 24584 net.cpp:165] Memory required for data: 468520608
I1002 09:43:29.199674 24584 layer_factory.hpp:77] Creating layer conv5_3/expand_mbox_conf
I1002 09:43:29.199682 24584 net.cpp:100] Creating Layer conv5_3/expand_mbox_conf
I1002 09:43:29.199687 24584 net.cpp:434] conv5_3/expand_mbox_conf <- conv5_3/expand_relu5_3/expand_0_split_2
I1002 09:43:29.199692 24584 net.cpp:408] conv5_3/expand_mbox_conf -> conv5_3/expand_mbox_conf
I1002 09:43:29.201251 24584 net.cpp:150] Setting up conv5_3/expand_mbox_conf
I1002 09:43:29.201261 24584 net.cpp:157] Top shape: 1 10 19 32 (6080)
I1002 09:43:29.201263 24584 net.cpp:165] Memory required for data: 468544928
I1002 09:43:29.201270 24584 layer_factory.hpp:77] Creating layer conv5_3/expand_mbox_conf_perm
I1002 09:43:29.201278 24584 net.cpp:100] Creating Layer conv5_3/expand_mbox_conf_perm
I1002 09:43:29.201282 24584 net.cpp:434] conv5_3/expand_mbox_conf_perm <- conv5_3/expand_mbox_conf
I1002 09:43:29.201288 24584 net.cpp:408] conv5_3/expand_mbox_conf_perm -> conv5_3/expand_mbox_conf_perm
I1002 09:43:29.201360 24584 net.cpp:150] Setting up conv5_3/expand_mbox_conf_perm
I1002 09:43:29.201365 24584 net.cpp:157] Top shape: 1 19 32 10 (6080)
I1002 09:43:29.201367 24584 net.cpp:165] Memory required for data: 468569248
I1002 09:43:29.201371 24584 layer_factory.hpp:77] Creating layer conv5_3/expand_mbox_conf_flat
I1002 09:43:29.201378 24584 net.cpp:100] Creating Layer conv5_3/expand_mbox_conf_flat
I1002 09:43:29.201381 24584 net.cpp:434] conv5_3/expand_mbox_conf_flat <- conv5_3/expand_mbox_conf_perm
I1002 09:43:29.201386 24584 net.cpp:408] conv5_3/expand_mbox_conf_flat -> conv5_3/expand_mbox_conf_flat
I1002 09:43:29.201417 24584 net.cpp:150] Setting up conv5_3/expand_mbox_conf_flat
I1002 09:43:29.201422 24584 net.cpp:157] Top shape: 1 6080 (6080)
I1002 09:43:29.201426 24584 net.cpp:165] Memory required for data: 468593568
I1002 09:43:29.201428 24584 layer_factory.hpp:77] Creating layer conv5_3/expand_mbox_priorbox
I1002 09:43:29.201434 24584 net.cpp:100] Creating Layer conv5_3/expand_mbox_priorbox
I1002 09:43:29.201438 24584 net.cpp:434] conv5_3/expand_mbox_priorbox <- conv5_3/expand_relu5_3/expand_0_split_3
I1002 09:43:29.201442 24584 net.cpp:434] conv5_3/expand_mbox_priorbox <- data_data_0_split_1
I1002 09:43:29.201447 24584 net.cpp:408] conv5_3/expand_mbox_priorbox -> conv5_3/expand_mbox_priorbox
I1002 09:43:29.201468 24584 net.cpp:150] Setting up conv5_3/expand_mbox_priorbox
I1002 09:43:29.201472 24584 net.cpp:157] Top shape: 1 2 4864 (9728)
I1002 09:43:29.201475 24584 net.cpp:165] Memory required for data: 468632480
I1002 09:43:29.201478 24584 layer_factory.hpp:77] Creating layer conv6_4_mbox_loc
I1002 09:43:29.201486 24584 net.cpp:100] Creating Layer conv6_4_mbox_loc
I1002 09:43:29.201489 24584 net.cpp:434] conv6_4_mbox_loc <- conv6_4_relu6_4_0_split_1
I1002 09:43:29.201494 24584 net.cpp:408] conv6_4_mbox_loc -> conv6_4_mbox_loc
I1002 09:43:29.203071 24584 net.cpp:150] Setting up conv6_4_mbox_loc
I1002 09:43:29.203079 24584 net.cpp:157] Top shape: 1 8 10 16 (1280)
I1002 09:43:29.203083 24584 net.cpp:165] Memory required for data: 468637600
I1002 09:43:29.203088 24584 layer_factory.hpp:77] Creating layer conv6_4_mbox_loc_perm
I1002 09:43:29.203094 24584 net.cpp:100] Creating Layer conv6_4_mbox_loc_perm
I1002 09:43:29.203099 24584 net.cpp:434] conv6_4_mbox_loc_perm <- conv6_4_mbox_loc
I1002 09:43:29.203104 24584 net.cpp:408] conv6_4_mbox_loc_perm -> conv6_4_mbox_loc_perm
I1002 09:43:29.203179 24584 net.cpp:150] Setting up conv6_4_mbox_loc_perm
I1002 09:43:29.203183 24584 net.cpp:157] Top shape: 1 10 16 8 (1280)
I1002 09:43:29.203186 24584 net.cpp:165] Memory required for data: 468642720
I1002 09:43:29.203191 24584 layer_factory.hpp:77] Creating layer conv6_4_mbox_loc_flat
I1002 09:43:29.203203 24584 net.cpp:100] Creating Layer conv6_4_mbox_loc_flat
I1002 09:43:29.203207 24584 net.cpp:434] conv6_4_mbox_loc_flat <- conv6_4_mbox_loc_perm
I1002 09:43:29.203222 24584 net.cpp:408] conv6_4_mbox_loc_flat -> conv6_4_mbox_loc_flat
I1002 09:43:29.203243 24584 net.cpp:150] Setting up conv6_4_mbox_loc_flat
I1002 09:43:29.203248 24584 net.cpp:157] Top shape: 1 1280 (1280)
I1002 09:43:29.203250 24584 net.cpp:165] Memory required for data: 468647840
I1002 09:43:29.203254 24584 layer_factory.hpp:77] Creating layer conv6_4_mbox_conf
I1002 09:43:29.203263 24584 net.cpp:100] Creating Layer conv6_4_mbox_conf
I1002 09:43:29.203266 24584 net.cpp:434] conv6_4_mbox_conf <- conv6_4_relu6_4_0_split_2
I1002 09:43:29.203274 24584 net.cpp:408] conv6_4_mbox_conf -> conv6_4_mbox_conf
I1002 09:43:29.204905 24584 net.cpp:150] Setting up conv6_4_mbox_conf
I1002 09:43:29.204912 24584 net.cpp:157] Top shape: 1 10 10 16 (1600)
I1002 09:43:29.204916 24584 net.cpp:165] Memory required for data: 468654240
I1002 09:43:29.204921 24584 layer_factory.hpp:77] Creating layer conv6_4_mbox_conf_perm
I1002 09:43:29.204927 24584 net.cpp:100] Creating Layer conv6_4_mbox_conf_perm
I1002 09:43:29.204931 24584 net.cpp:434] conv6_4_mbox_conf_perm <- conv6_4_mbox_conf
I1002 09:43:29.204937 24584 net.cpp:408] conv6_4_mbox_conf_perm -> conv6_4_mbox_conf_perm
I1002 09:43:29.205013 24584 net.cpp:150] Setting up conv6_4_mbox_conf_perm
I1002 09:43:29.205018 24584 net.cpp:157] Top shape: 1 10 16 10 (1600)
I1002 09:43:29.205021 24584 net.cpp:165] Memory required for data: 468660640
I1002 09:43:29.205024 24584 layer_factory.hpp:77] Creating layer conv6_4_mbox_conf_flat
I1002 09:43:29.205029 24584 net.cpp:100] Creating Layer conv6_4_mbox_conf_flat
I1002 09:43:29.205034 24584 net.cpp:434] conv6_4_mbox_conf_flat <- conv6_4_mbox_conf_perm
I1002 09:43:29.205039 24584 net.cpp:408] conv6_4_mbox_conf_flat -> conv6_4_mbox_conf_flat
I1002 09:43:29.205058 24584 net.cpp:150] Setting up conv6_4_mbox_conf_flat
I1002 09:43:29.205062 24584 net.cpp:157] Top shape: 1 1600 (1600)
I1002 09:43:29.205065 24584 net.cpp:165] Memory required for data: 468667040
I1002 09:43:29.205068 24584 layer_factory.hpp:77] Creating layer conv6_4_mbox_priorbox
I1002 09:43:29.205073 24584 net.cpp:100] Creating Layer conv6_4_mbox_priorbox
I1002 09:43:29.205076 24584 net.cpp:434] conv6_4_mbox_priorbox <- conv6_4_relu6_4_0_split_3
I1002 09:43:29.205082 24584 net.cpp:434] conv6_4_mbox_priorbox <- data_data_0_split_2
I1002 09:43:29.205087 24584 net.cpp:408] conv6_4_mbox_priorbox -> conv6_4_mbox_priorbox
I1002 09:43:29.205106 24584 net.cpp:150] Setting up conv6_4_mbox_priorbox
I1002 09:43:29.205111 24584 net.cpp:157] Top shape: 1 2 1280 (2560)
I1002 09:43:29.205114 24584 net.cpp:165] Memory required for data: 468677280
I1002 09:43:29.205117 24584 layer_factory.hpp:77] Creating layer ssd1_2_mbox_loc
I1002 09:43:29.205124 24584 net.cpp:100] Creating Layer ssd1_2_mbox_loc
I1002 09:43:29.205128 24584 net.cpp:434] ssd1_2_mbox_loc <- ssd1_2_ssd1_2_relu_0_split_1
I1002 09:43:29.205135 24584 net.cpp:408] ssd1_2_mbox_loc -> ssd1_2_mbox_loc
I1002 09:43:29.206537 24584 net.cpp:150] Setting up ssd1_2_mbox_loc
I1002 09:43:29.206543 24584 net.cpp:157] Top shape: 1 8 5 8 (320)
I1002 09:43:29.206547 24584 net.cpp:165] Memory required for data: 468678560
I1002 09:43:29.206553 24584 layer_factory.hpp:77] Creating layer ssd1_2_mbox_loc_perm
I1002 09:43:29.206559 24584 net.cpp:100] Creating Layer ssd1_2_mbox_loc_perm
I1002 09:43:29.206563 24584 net.cpp:434] ssd1_2_mbox_loc_perm <- ssd1_2_mbox_loc
I1002 09:43:29.206568 24584 net.cpp:408] ssd1_2_mbox_loc_perm -> ssd1_2_mbox_loc_perm
I1002 09:43:29.206645 24584 net.cpp:150] Setting up ssd1_2_mbox_loc_perm
I1002 09:43:29.206650 24584 net.cpp:157] Top shape: 1 5 8 8 (320)
I1002 09:43:29.206651 24584 net.cpp:165] Memory required for data: 468679840
I1002 09:43:29.206655 24584 layer_factory.hpp:77] Creating layer ssd1_2_mbox_loc_flat
I1002 09:43:29.206660 24584 net.cpp:100] Creating Layer ssd1_2_mbox_loc_flat
I1002 09:43:29.206670 24584 net.cpp:434] ssd1_2_mbox_loc_flat <- ssd1_2_mbox_loc_perm
I1002 09:43:29.206676 24584 net.cpp:408] ssd1_2_mbox_loc_flat -> ssd1_2_mbox_loc_flat
I1002 09:43:29.206696 24584 net.cpp:150] Setting up ssd1_2_mbox_loc_flat
I1002 09:43:29.206701 24584 net.cpp:157] Top shape: 1 320 (320)
I1002 09:43:29.206702 24584 net.cpp:165] Memory required for data: 468681120
I1002 09:43:29.206706 24584 layer_factory.hpp:77] Creating layer ssd1_2_mbox_conf
I1002 09:43:29.206732 24584 net.cpp:100] Creating Layer ssd1_2_mbox_conf
I1002 09:43:29.206737 24584 net.cpp:434] ssd1_2_mbox_conf <- ssd1_2_ssd1_2_relu_0_split_2
I1002 09:43:29.206742 24584 net.cpp:408] ssd1_2_mbox_conf -> ssd1_2_mbox_conf
I1002 09:43:29.208168 24584 net.cpp:150] Setting up ssd1_2_mbox_conf
I1002 09:43:29.208175 24584 net.cpp:157] Top shape: 1 10 5 8 (400)
I1002 09:43:29.208178 24584 net.cpp:165] Memory required for data: 468682720
I1002 09:43:29.208185 24584 layer_factory.hpp:77] Creating layer ssd1_2_mbox_conf_perm
I1002 09:43:29.208192 24584 net.cpp:100] Creating Layer ssd1_2_mbox_conf_perm
I1002 09:43:29.208196 24584 net.cpp:434] ssd1_2_mbox_conf_perm <- ssd1_2_mbox_conf
I1002 09:43:29.208204 24584 net.cpp:408] ssd1_2_mbox_conf_perm -> ssd1_2_mbox_conf_perm
I1002 09:43:29.208278 24584 net.cpp:150] Setting up ssd1_2_mbox_conf_perm
I1002 09:43:29.208282 24584 net.cpp:157] Top shape: 1 5 8 10 (400)
I1002 09:43:29.208286 24584 net.cpp:165] Memory required for data: 468684320
I1002 09:43:29.208288 24584 layer_factory.hpp:77] Creating layer ssd1_2_mbox_conf_flat
I1002 09:43:29.208293 24584 net.cpp:100] Creating Layer ssd1_2_mbox_conf_flat
I1002 09:43:29.208297 24584 net.cpp:434] ssd1_2_mbox_conf_flat <- ssd1_2_mbox_conf_perm
I1002 09:43:29.208302 24584 net.cpp:408] ssd1_2_mbox_conf_flat -> ssd1_2_mbox_conf_flat
I1002 09:43:29.208322 24584 net.cpp:150] Setting up ssd1_2_mbox_conf_flat
I1002 09:43:29.208325 24584 net.cpp:157] Top shape: 1 400 (400)
I1002 09:43:29.208328 24584 net.cpp:165] Memory required for data: 468685920
I1002 09:43:29.208330 24584 layer_factory.hpp:77] Creating layer ssd1_2_mbox_priorbox
I1002 09:43:29.208338 24584 net.cpp:100] Creating Layer ssd1_2_mbox_priorbox
I1002 09:43:29.208341 24584 net.cpp:434] ssd1_2_mbox_priorbox <- ssd1_2_ssd1_2_relu_0_split_3
I1002 09:43:29.208344 24584 net.cpp:434] ssd1_2_mbox_priorbox <- data_data_0_split_3
I1002 09:43:29.208349 24584 net.cpp:408] ssd1_2_mbox_priorbox -> ssd1_2_mbox_priorbox
I1002 09:43:29.208370 24584 net.cpp:150] Setting up ssd1_2_mbox_priorbox
I1002 09:43:29.208374 24584 net.cpp:157] Top shape: 1 2 320 (640)
I1002 09:43:29.208376 24584 net.cpp:165] Memory required for data: 468688480
I1002 09:43:29.208379 24584 layer_factory.hpp:77] Creating layer ssd2_2_mbox_loc
I1002 09:43:29.208387 24584 net.cpp:100] Creating Layer ssd2_2_mbox_loc
I1002 09:43:29.208390 24584 net.cpp:434] ssd2_2_mbox_loc <- ssd2_2_ssd2_2_relu_0_split_1
I1002 09:43:29.208396 24584 net.cpp:408] ssd2_2_mbox_loc -> ssd2_2_mbox_loc
I1002 09:43:29.209729 24584 net.cpp:150] Setting up ssd2_2_mbox_loc
I1002 09:43:29.209738 24584 net.cpp:157] Top shape: 1 8 3 4 (96)
I1002 09:43:29.209739 24584 net.cpp:165] Memory required for data: 468688864
I1002 09:43:29.209746 24584 layer_factory.hpp:77] Creating layer ssd2_2_mbox_loc_perm
I1002 09:43:29.209753 24584 net.cpp:100] Creating Layer ssd2_2_mbox_loc_perm
I1002 09:43:29.209758 24584 net.cpp:434] ssd2_2_mbox_loc_perm <- ssd2_2_mbox_loc
I1002 09:43:29.209761 24584 net.cpp:408] ssd2_2_mbox_loc_perm -> ssd2_2_mbox_loc_perm
I1002 09:43:29.209833 24584 net.cpp:150] Setting up ssd2_2_mbox_loc_perm
I1002 09:43:29.209838 24584 net.cpp:157] Top shape: 1 3 4 8 (96)
I1002 09:43:29.209841 24584 net.cpp:165] Memory required for data: 468689248
I1002 09:43:29.209844 24584 layer_factory.hpp:77] Creating layer ssd2_2_mbox_loc_flat
I1002 09:43:29.209851 24584 net.cpp:100] Creating Layer ssd2_2_mbox_loc_flat
I1002 09:43:29.209854 24584 net.cpp:434] ssd2_2_mbox_loc_flat <- ssd2_2_mbox_loc_perm
I1002 09:43:29.209859 24584 net.cpp:408] ssd2_2_mbox_loc_flat -> ssd2_2_mbox_loc_flat
I1002 09:43:29.209879 24584 net.cpp:150] Setting up ssd2_2_mbox_loc_flat
I1002 09:43:29.209890 24584 net.cpp:157] Top shape: 1 96 (96)
I1002 09:43:29.209892 24584 net.cpp:165] Memory required for data: 468689632
I1002 09:43:29.209897 24584 layer_factory.hpp:77] Creating layer ssd2_2_mbox_conf
I1002 09:43:29.209904 24584 net.cpp:100] Creating Layer ssd2_2_mbox_conf
I1002 09:43:29.209908 24584 net.cpp:434] ssd2_2_mbox_conf <- ssd2_2_ssd2_2_relu_0_split_2
I1002 09:43:29.209914 24584 net.cpp:408] ssd2_2_mbox_conf -> ssd2_2_mbox_conf
I1002 09:43:29.211174 24584 net.cpp:150] Setting up ssd2_2_mbox_conf
I1002 09:43:29.211181 24584 net.cpp:157] Top shape: 1 10 3 4 (120)
I1002 09:43:29.211184 24584 net.cpp:165] Memory required for data: 468690112
I1002 09:43:29.211190 24584 layer_factory.hpp:77] Creating layer ssd2_2_mbox_conf_perm
I1002 09:43:29.211199 24584 net.cpp:100] Creating Layer ssd2_2_mbox_conf_perm
I1002 09:43:29.211202 24584 net.cpp:434] ssd2_2_mbox_conf_perm <- ssd2_2_mbox_conf
I1002 09:43:29.211208 24584 net.cpp:408] ssd2_2_mbox_conf_perm -> ssd2_2_mbox_conf_perm
I1002 09:43:29.211290 24584 net.cpp:150] Setting up ssd2_2_mbox_conf_perm
I1002 09:43:29.211297 24584 net.cpp:157] Top shape: 1 3 4 10 (120)
I1002 09:43:29.211298 24584 net.cpp:165] Memory required for data: 468690592
I1002 09:43:29.211302 24584 layer_factory.hpp:77] Creating layer ssd2_2_mbox_conf_flat
I1002 09:43:29.211308 24584 net.cpp:100] Creating Layer ssd2_2_mbox_conf_flat
I1002 09:43:29.211311 24584 net.cpp:434] ssd2_2_mbox_conf_flat <- ssd2_2_mbox_conf_perm
I1002 09:43:29.211315 24584 net.cpp:408] ssd2_2_mbox_conf_flat -> ssd2_2_mbox_conf_flat
I1002 09:43:29.211334 24584 net.cpp:150] Setting up ssd2_2_mbox_conf_flat
I1002 09:43:29.211338 24584 net.cpp:157] Top shape: 1 120 (120)
I1002 09:43:29.211342 24584 net.cpp:165] Memory required for data: 468691072
I1002 09:43:29.211345 24584 layer_factory.hpp:77] Creating layer ssd2_2_mbox_priorbox
I1002 09:43:29.211351 24584 net.cpp:100] Creating Layer ssd2_2_mbox_priorbox
I1002 09:43:29.211354 24584 net.cpp:434] ssd2_2_mbox_priorbox <- ssd2_2_ssd2_2_relu_0_split_3
I1002 09:43:29.211359 24584 net.cpp:434] ssd2_2_mbox_priorbox <- data_data_0_split_4
I1002 09:43:29.211365 24584 net.cpp:408] ssd2_2_mbox_priorbox -> ssd2_2_mbox_priorbox
I1002 09:43:29.211385 24584 net.cpp:150] Setting up ssd2_2_mbox_priorbox
I1002 09:43:29.211390 24584 net.cpp:157] Top shape: 1 2 96 (192)
I1002 09:43:29.211393 24584 net.cpp:165] Memory required for data: 468691840
I1002 09:43:29.211395 24584 layer_factory.hpp:77] Creating layer ssd3_2_mbox_loc
I1002 09:43:29.211403 24584 net.cpp:100] Creating Layer ssd3_2_mbox_loc
I1002 09:43:29.211406 24584 net.cpp:434] ssd3_2_mbox_loc <- ssd3_2_ssd3_2_relu_0_split_1
I1002 09:43:29.211414 24584 net.cpp:408] ssd3_2_mbox_loc -> ssd3_2_mbox_loc
I1002 09:43:29.212643 24584 net.cpp:150] Setting up ssd3_2_mbox_loc
I1002 09:43:29.212651 24584 net.cpp:157] Top shape: 1 8 2 2 (32)
I1002 09:43:29.212653 24584 net.cpp:165] Memory required for data: 468691968
I1002 09:43:29.212661 24584 layer_factory.hpp:77] Creating layer ssd3_2_mbox_loc_perm
I1002 09:43:29.212667 24584 net.cpp:100] Creating Layer ssd3_2_mbox_loc_perm
I1002 09:43:29.212671 24584 net.cpp:434] ssd3_2_mbox_loc_perm <- ssd3_2_mbox_loc
I1002 09:43:29.212676 24584 net.cpp:408] ssd3_2_mbox_loc_perm -> ssd3_2_mbox_loc_perm
I1002 09:43:29.212745 24584 net.cpp:150] Setting up ssd3_2_mbox_loc_perm
I1002 09:43:29.212750 24584 net.cpp:157] Top shape: 1 2 2 8 (32)
I1002 09:43:29.212752 24584 net.cpp:165] Memory required for data: 468692096
I1002 09:43:29.212755 24584 layer_factory.hpp:77] Creating layer ssd3_2_mbox_loc_flat
I1002 09:43:29.212762 24584 net.cpp:100] Creating Layer ssd3_2_mbox_loc_flat
I1002 09:43:29.212765 24584 net.cpp:434] ssd3_2_mbox_loc_flat <- ssd3_2_mbox_loc_perm
I1002 09:43:29.212769 24584 net.cpp:408] ssd3_2_mbox_loc_flat -> ssd3_2_mbox_loc_flat
I1002 09:43:29.212788 24584 net.cpp:150] Setting up ssd3_2_mbox_loc_flat
I1002 09:43:29.212793 24584 net.cpp:157] Top shape: 1 32 (32)
I1002 09:43:29.212795 24584 net.cpp:165] Memory required for data: 468692224
I1002 09:43:29.212807 24584 layer_factory.hpp:77] Creating layer ssd3_2_mbox_conf
I1002 09:43:29.212815 24584 net.cpp:100] Creating Layer ssd3_2_mbox_conf
I1002 09:43:29.212821 24584 net.cpp:434] ssd3_2_mbox_conf <- ssd3_2_ssd3_2_relu_0_split_2
I1002 09:43:29.212826 24584 net.cpp:408] ssd3_2_mbox_conf -> ssd3_2_mbox_conf
I1002 09:43:29.214078 24584 net.cpp:150] Setting up ssd3_2_mbox_conf
I1002 09:43:29.214087 24584 net.cpp:157] Top shape: 1 10 2 2 (40)
I1002 09:43:29.214090 24584 net.cpp:165] Memory required for data: 468692384
I1002 09:43:29.214097 24584 layer_factory.hpp:77] Creating layer ssd3_2_mbox_conf_perm
I1002 09:43:29.214103 24584 net.cpp:100] Creating Layer ssd3_2_mbox_conf_perm
I1002 09:43:29.214107 24584 net.cpp:434] ssd3_2_mbox_conf_perm <- ssd3_2_mbox_conf
I1002 09:43:29.214114 24584 net.cpp:408] ssd3_2_mbox_conf_perm -> ssd3_2_mbox_conf_perm
I1002 09:43:29.214185 24584 net.cpp:150] Setting up ssd3_2_mbox_conf_perm
I1002 09:43:29.214190 24584 net.cpp:157] Top shape: 1 2 2 10 (40)
I1002 09:43:29.214193 24584 net.cpp:165] Memory required for data: 468692544
I1002 09:43:29.214197 24584 layer_factory.hpp:77] Creating layer ssd3_2_mbox_conf_flat
I1002 09:43:29.214203 24584 net.cpp:100] Creating Layer ssd3_2_mbox_conf_flat
I1002 09:43:29.214207 24584 net.cpp:434] ssd3_2_mbox_conf_flat <- ssd3_2_mbox_conf_perm
I1002 09:43:29.214211 24584 net.cpp:408] ssd3_2_mbox_conf_flat -> ssd3_2_mbox_conf_flat
I1002 09:43:29.214231 24584 net.cpp:150] Setting up ssd3_2_mbox_conf_flat
I1002 09:43:29.214236 24584 net.cpp:157] Top shape: 1 40 (40)
I1002 09:43:29.214238 24584 net.cpp:165] Memory required for data: 468692704
I1002 09:43:29.214241 24584 layer_factory.hpp:77] Creating layer ssd3_2_mbox_priorbox
I1002 09:43:29.214248 24584 net.cpp:100] Creating Layer ssd3_2_mbox_priorbox
I1002 09:43:29.214251 24584 net.cpp:434] ssd3_2_mbox_priorbox <- ssd3_2_ssd3_2_relu_0_split_3
I1002 09:43:29.214256 24584 net.cpp:434] ssd3_2_mbox_priorbox <- data_data_0_split_5
I1002 09:43:29.214262 24584 net.cpp:408] ssd3_2_mbox_priorbox -> ssd3_2_mbox_priorbox
I1002 09:43:29.214282 24584 net.cpp:150] Setting up ssd3_2_mbox_priorbox
I1002 09:43:29.214285 24584 net.cpp:157] Top shape: 1 2 32 (64)
I1002 09:43:29.214288 24584 net.cpp:165] Memory required for data: 468692960
I1002 09:43:29.214292 24584 layer_factory.hpp:77] Creating layer ssd4_2_mbox_loc
I1002 09:43:29.214301 24584 net.cpp:100] Creating Layer ssd4_2_mbox_loc
I1002 09:43:29.214304 24584 net.cpp:434] ssd4_2_mbox_loc <- ssd4_2_ssd4_2_relu_0_split_0
I1002 09:43:29.214309 24584 net.cpp:408] ssd4_2_mbox_loc -> ssd4_2_mbox_loc
I1002 09:43:29.215574 24584 net.cpp:150] Setting up ssd4_2_mbox_loc
I1002 09:43:29.215582 24584 net.cpp:157] Top shape: 1 8 1 1 (8)
I1002 09:43:29.215585 24584 net.cpp:165] Memory required for data: 468692992
I1002 09:43:29.215591 24584 layer_factory.hpp:77] Creating layer ssd4_2_mbox_loc_perm
I1002 09:43:29.215598 24584 net.cpp:100] Creating Layer ssd4_2_mbox_loc_perm
I1002 09:43:29.215602 24584 net.cpp:434] ssd4_2_mbox_loc_perm <- ssd4_2_mbox_loc
I1002 09:43:29.215607 24584 net.cpp:408] ssd4_2_mbox_loc_perm -> ssd4_2_mbox_loc_perm
I1002 09:43:29.215682 24584 net.cpp:150] Setting up ssd4_2_mbox_loc_perm
I1002 09:43:29.215687 24584 net.cpp:157] Top shape: 1 1 1 8 (8)
I1002 09:43:29.215689 24584 net.cpp:165] Memory required for data: 468693024
I1002 09:43:29.215692 24584 layer_factory.hpp:77] Creating layer ssd4_2_mbox_loc_flat
I1002 09:43:29.215698 24584 net.cpp:100] Creating Layer ssd4_2_mbox_loc_flat
I1002 09:43:29.215701 24584 net.cpp:434] ssd4_2_mbox_loc_flat <- ssd4_2_mbox_loc_perm
I1002 09:43:29.215706 24584 net.cpp:408] ssd4_2_mbox_loc_flat -> ssd4_2_mbox_loc_flat
I1002 09:43:29.215726 24584 net.cpp:150] Setting up ssd4_2_mbox_loc_flat
I1002 09:43:29.215730 24584 net.cpp:157] Top shape: 1 8 (8)
I1002 09:43:29.215734 24584 net.cpp:165] Memory required for data: 468693056
I1002 09:43:29.215736 24584 layer_factory.hpp:77] Creating layer ssd4_2_mbox_conf
I1002 09:43:29.215744 24584 net.cpp:100] Creating Layer ssd4_2_mbox_conf
I1002 09:43:29.215747 24584 net.cpp:434] ssd4_2_mbox_conf <- ssd4_2_ssd4_2_relu_0_split_1
I1002 09:43:29.215762 24584 net.cpp:408] ssd4_2_mbox_conf -> ssd4_2_mbox_conf
I1002 09:43:29.217128 24584 net.cpp:150] Setting up ssd4_2_mbox_conf
I1002 09:43:29.217135 24584 net.cpp:157] Top shape: 1 10 1 1 (10)
I1002 09:43:29.217139 24584 net.cpp:165] Memory required for data: 468693096
I1002 09:43:29.217144 24584 layer_factory.hpp:77] Creating layer ssd4_2_mbox_conf_perm
I1002 09:43:29.217152 24584 net.cpp:100] Creating Layer ssd4_2_mbox_conf_perm
I1002 09:43:29.217156 24584 net.cpp:434] ssd4_2_mbox_conf_perm <- ssd4_2_mbox_conf
I1002 09:43:29.217162 24584 net.cpp:408] ssd4_2_mbox_conf_perm -> ssd4_2_mbox_conf_perm
I1002 09:43:29.217233 24584 net.cpp:150] Setting up ssd4_2_mbox_conf_perm
I1002 09:43:29.217238 24584 net.cpp:157] Top shape: 1 1 1 10 (10)
I1002 09:43:29.217242 24584 net.cpp:165] Memory required for data: 468693136
I1002 09:43:29.217243 24584 layer_factory.hpp:77] Creating layer ssd4_2_mbox_conf_flat
I1002 09:43:29.217249 24584 net.cpp:100] Creating Layer ssd4_2_mbox_conf_flat
I1002 09:43:29.217253 24584 net.cpp:434] ssd4_2_mbox_conf_flat <- ssd4_2_mbox_conf_perm
I1002 09:43:29.217258 24584 net.cpp:408] ssd4_2_mbox_conf_flat -> ssd4_2_mbox_conf_flat
I1002 09:43:29.217278 24584 net.cpp:150] Setting up ssd4_2_mbox_conf_flat
I1002 09:43:29.217281 24584 net.cpp:157] Top shape: 1 10 (10)
I1002 09:43:29.217284 24584 net.cpp:165] Memory required for data: 468693176
I1002 09:43:29.217288 24584 layer_factory.hpp:77] Creating layer ssd4_2_mbox_priorbox
I1002 09:43:29.217293 24584 net.cpp:100] Creating Layer ssd4_2_mbox_priorbox
I1002 09:43:29.217298 24584 net.cpp:434] ssd4_2_mbox_priorbox <- ssd4_2_ssd4_2_relu_0_split_2
I1002 09:43:29.217301 24584 net.cpp:434] ssd4_2_mbox_priorbox <- data_data_0_split_6
I1002 09:43:29.217308 24584 net.cpp:408] ssd4_2_mbox_priorbox -> ssd4_2_mbox_priorbox
I1002 09:43:29.217327 24584 net.cpp:150] Setting up ssd4_2_mbox_priorbox
I1002 09:43:29.217332 24584 net.cpp:157] Top shape: 1 2 8 (16)
I1002 09:43:29.217336 24584 net.cpp:165] Memory required for data: 468693240
I1002 09:43:29.217339 24584 layer_factory.hpp:77] Creating layer mbox_loc
I1002 09:43:29.217344 24584 net.cpp:100] Creating Layer mbox_loc
I1002 09:43:29.217348 24584 net.cpp:434] mbox_loc <- conv5_3/expand_mbox_loc_flat
I1002 09:43:29.217355 24584 net.cpp:434] mbox_loc <- conv6_4_mbox_loc_flat
I1002 09:43:29.217358 24584 net.cpp:434] mbox_loc <- ssd1_2_mbox_loc_flat
I1002 09:43:29.217363 24584 net.cpp:434] mbox_loc <- ssd2_2_mbox_loc_flat
I1002 09:43:29.217367 24584 net.cpp:434] mbox_loc <- ssd3_2_mbox_loc_flat
I1002 09:43:29.217372 24584 net.cpp:434] mbox_loc <- ssd4_2_mbox_loc_flat
I1002 09:43:29.217377 24584 net.cpp:408] mbox_loc -> mbox_loc
I1002 09:43:29.217397 24584 net.cpp:150] Setting up mbox_loc
I1002 09:43:29.217401 24584 net.cpp:157] Top shape: 1 6600 (6600)
I1002 09:43:29.217406 24584 net.cpp:165] Memory required for data: 468719640
I1002 09:43:29.217408 24584 layer_factory.hpp:77] Creating layer mbox_conf
I1002 09:43:29.217412 24584 net.cpp:100] Creating Layer mbox_conf
I1002 09:43:29.217416 24584 net.cpp:434] mbox_conf <- conv5_3/expand_mbox_conf_flat
I1002 09:43:29.217422 24584 net.cpp:434] mbox_conf <- conv6_4_mbox_conf_flat
I1002 09:43:29.217425 24584 net.cpp:434] mbox_conf <- ssd1_2_mbox_conf_flat
I1002 09:43:29.217429 24584 net.cpp:434] mbox_conf <- ssd2_2_mbox_conf_flat
I1002 09:43:29.217433 24584 net.cpp:434] mbox_conf <- ssd3_2_mbox_conf_flat
I1002 09:43:29.217437 24584 net.cpp:434] mbox_conf <- ssd4_2_mbox_conf_flat
I1002 09:43:29.217442 24584 net.cpp:408] mbox_conf -> mbox_conf
I1002 09:43:29.217461 24584 net.cpp:150] Setting up mbox_conf
I1002 09:43:29.217466 24584 net.cpp:157] Top shape: 1 8250 (8250)
I1002 09:43:29.217469 24584 net.cpp:165] Memory required for data: 468752640
I1002 09:43:29.217473 24584 layer_factory.hpp:77] Creating layer mbox_priorbox
I1002 09:43:29.217476 24584 net.cpp:100] Creating Layer mbox_priorbox
I1002 09:43:29.217480 24584 net.cpp:434] mbox_priorbox <- conv5_3/expand_mbox_priorbox
I1002 09:43:29.217485 24584 net.cpp:434] mbox_priorbox <- conv6_4_mbox_priorbox
I1002 09:43:29.217496 24584 net.cpp:434] mbox_priorbox <- ssd1_2_mbox_priorbox
I1002 09:43:29.217500 24584 net.cpp:434] mbox_priorbox <- ssd2_2_mbox_priorbox
I1002 09:43:29.217504 24584 net.cpp:434] mbox_priorbox <- ssd3_2_mbox_priorbox
I1002 09:43:29.217509 24584 net.cpp:434] mbox_priorbox <- ssd4_2_mbox_priorbox
I1002 09:43:29.217514 24584 net.cpp:408] mbox_priorbox -> mbox_priorbox
I1002 09:43:29.217532 24584 net.cpp:150] Setting up mbox_priorbox
I1002 09:43:29.217537 24584 net.cpp:157] Top shape: 1 2 6600 (13200)
I1002 09:43:29.217540 24584 net.cpp:165] Memory required for data: 468805440
I1002 09:43:29.217543 24584 layer_factory.hpp:77] Creating layer mbox_conf_reshape
I1002 09:43:29.217550 24584 net.cpp:100] Creating Layer mbox_conf_reshape
I1002 09:43:29.217552 24584 net.cpp:434] mbox_conf_reshape <- mbox_conf
I1002 09:43:29.217559 24584 net.cpp:408] mbox_conf_reshape -> mbox_conf_reshape
I1002 09:43:29.217582 24584 net.cpp:150] Setting up mbox_conf_reshape
I1002 09:43:29.217587 24584 net.cpp:157] Top shape: 1 1650 5 (8250)
I1002 09:43:29.217589 24584 net.cpp:165] Memory required for data: 468838440
I1002 09:43:29.217593 24584 layer_factory.hpp:77] Creating layer mbox_conf_softmax
I1002 09:43:29.217599 24584 net.cpp:100] Creating Layer mbox_conf_softmax
I1002 09:43:29.217602 24584 net.cpp:434] mbox_conf_softmax <- mbox_conf_reshape
I1002 09:43:29.217607 24584 net.cpp:408] mbox_conf_softmax -> mbox_conf_softmax
I1002 09:43:29.217959 24584 net.cpp:150] Setting up mbox_conf_softmax
I1002 09:43:29.217965 24584 net.cpp:157] Top shape: 1 1650 5 (8250)
I1002 09:43:29.217968 24584 net.cpp:165] Memory required for data: 468871440
I1002 09:43:29.217972 24584 layer_factory.hpp:77] Creating layer mbox_conf_flatten
I1002 09:43:29.217978 24584 net.cpp:100] Creating Layer mbox_conf_flatten
I1002 09:43:29.217981 24584 net.cpp:434] mbox_conf_flatten <- mbox_conf_softmax
I1002 09:43:29.217986 24584 net.cpp:408] mbox_conf_flatten -> mbox_conf_flatten
I1002 09:43:29.218005 24584 net.cpp:150] Setting up mbox_conf_flatten
I1002 09:43:29.218010 24584 net.cpp:157] Top shape: 1 8250 (8250)
I1002 09:43:29.218013 24584 net.cpp:165] Memory required for data: 468904440
I1002 09:43:29.218015 24584 layer_factory.hpp:77] Creating layer detection_out
I1002 09:43:29.218029 24584 net.cpp:100] Creating Layer detection_out
I1002 09:43:29.218034 24584 net.cpp:434] detection_out <- mbox_loc
I1002 09:43:29.218037 24584 net.cpp:434] detection_out <- mbox_conf_flatten
I1002 09:43:29.218041 24584 net.cpp:434] detection_out <- mbox_priorbox
I1002 09:43:29.218046 24584 net.cpp:408] detection_out -> detection_out
W1002 09:43:29.218071 24584 detection_output_layer.cpp:49] Failed to create directory: /home/zhongyilin/Documents/data/GTSDBdevkit/results/GTSDB/SSD_510x300_100_40_6_True_1/Main
I1002 09:43:29.218351 24584 net.cpp:150] Setting up detection_out
I1002 09:43:29.218358 24584 net.cpp:157] Top shape: 1 1 1 7 (7)
I1002 09:43:29.218360 24584 net.cpp:165] Memory required for data: 468904468
I1002 09:43:29.218364 24584 layer_factory.hpp:77] Creating layer detection_eval
I1002 09:43:29.218369 24584 net.cpp:100] Creating Layer detection_eval
I1002 09:43:29.218374 24584 net.cpp:434] detection_eval <- detection_out
I1002 09:43:29.218377 24584 net.cpp:434] detection_eval <- label
I1002 09:43:29.218384 24584 net.cpp:408] detection_eval -> detection_eval
I1002 09:43:29.218463 24584 net.cpp:150] Setting up detection_eval
I1002 09:43:29.218468 24584 net.cpp:157] Top shape: 1 1 5 5 (25)
I1002 09:43:29.218472 24584 net.cpp:165] Memory required for data: 468904568
I1002 09:43:29.218474 24584 net.cpp:228] detection_eval does not need backward computation.
I1002 09:43:29.218478 24584 net.cpp:228] detection_out does not need backward computation.
I1002 09:43:29.218482 24584 net.cpp:228] mbox_conf_flatten does not need backward computation.
I1002 09:43:29.218485 24584 net.cpp:228] mbox_conf_softmax does not need backward computation.
…
