…
      sampler {
        min_scale: 0.3
        max_scale: 1
        min_aspect_ratio: 0.5
        max_aspect_ratio: 2
      }
      sample_constraint {
        min_jaccard_overlap: 0.9
      }
      max_sample: 1
      max_trials: 50
    }
    batch_sampler {
      sampler {
        min_scale: 0.3
        max_scale: 1
        min_aspect_ratio: 0.5
        max_aspect_ratio: 2
      }
      sample_constraint {
        max_jaccard_overlap: 1
      }
      max_sample: 1
      max_trials: 50
    }
    label_map_file: "data/GTSDB/labelmap_GTSDB.prototxt"
  }
}
layer {
  name: "conv1"
  type: "Convolution"
  bottom: "data"
  top: "conv1"
  param {
    lr_mult: 1
    decay_mult: 1
  }
  convolution_param {
    num_output: 32
    bias_term: false
    pad: 1
    kernel_size: 3
    stride: 2
    weight_filler {
      type: "msra"
    }
  }
}
layer {
  name: "conv1/bn"
  type: "BatchNorm"
  bottom: "conv1"
  top: "conv1"
  batch_norm_param {
    use_global_stats: true
    eps: 1e-05
  }
}
layer {
  name: "conv1/scale"
  type: "Scale"
  bottom: "conv1"
  top: "conv1"
  param {
    lr_mult: 1
    decay_mult: 0
  }
  param {
    lr_mult: 1
    decay_mult: 0
  }
  scale_param {
    bias_term: true
  }
}
layer {
  name: "relu1"
  type: "ReLU"
  bottom: "conv1"
  top: "conv1"
}
layer {
  name: "conv2_1/expand"
  type: "Convolution"
  bottom: "conv1"
  top: "conv2_1/expand"
  param {
    lr_mult: 1
    decay_mult: 1
  }
  convolution_param {
    num_output: 32
    bias_term: false
    kernel_size: 1
    weight_filler {
      type: "msra"
    }
  }
}
layer {
  name: "conv2_1/expand/bn"
  type: "BatchNorm"
  bottom: "conv2_1/expand"
  top: "conv2_1/expand"
  batch_norm_param {
    use_global_stats: true
    eps: 1e-05
  }
}
layer {
  name: "conv2_1/expand/scale"
  type: "Scale"
  bottom: "conv2_1/expand"
  top: "conv2_1/expand"
  param {
    lr_mult: 1
    decay_mult: 0
  }
  param {
    lr_mult: 1
    decay_mult: 0
  }
  scale_param {
    bias_term: true
  }
}
layer {
  name: "relu2_1/expand"
  type: "ReLU"
  bottom: "conv2_1/expand"
  top: "conv2_1/expand"
}
layer {
  name: "conv2_1/dwise"
  type: "DepthwiseConvolution"
  bottom: "conv2_1/expand"
  top: "conv2_1/dwise"
  param {
    lr_mult: 1
    decay_mult: 1
  }
  convolution_param {
    num_output: 32
    bias_term: false
    pad: 1
    kernel_size: 3
    group: 32
    stride: 1
    weight_filler {
      type: "msra"
    }
  }
}
layer {
  name: "conv2_1/dwise/bn"
  type: "BatchNorm"
  bottom: "conv2_1/dwise"
  top: "conv2_1/dwise"
  batch_norm_param {
    use_global_stats: true
    eps: 1e-05
  }
}
layer {
  name: "conv2_1/dwise/scale"
  type: "Scale"
  bottom: "conv2_1/dwise"
  top: "conv2_1/dwise"
  param {
    lr_mult: 1
    decay_mult: 0
  }
  param {
    lr_mult: 1
    decay_mult: 0
  }
  scale_param {
    bias_term: true
  }
}
layer {
  name: "relu2_1/dwise"
  type: "ReLU"
  bottom: "conv2_1/dwise"
  top: "conv2_1/dwise"
}
layer {
  name: "conv2_1/linear"
  type: "Convolution"
  bottom: "conv2_1/dwise"
  top: "conv2_1/linear"
  param {
    lr_mult: 1
    decay_mult: 1
  }
  convolution_param {
    num_output: 16
    bias_term: false
    kernel_size: 1
    weight_filler {
      type: "msra"
    }
  }
}
layer {
  name: "conv2_1/linear/bn"
  type: "BatchNorm"
  bottom: "conv2_1/linear"
  top: "conv2_1/linear"
  batch_norm_param {
    use_global_stats: true
    eps: 1e-05
  }
}
layer {
  name: "conv2_1/linear/scale"
  type: "Scale"
  bottom: "conv2_1/linear"
  top: "conv2_1/linear"
  param {
    lr_mult: 1
    decay_mult: 0
  }
  param {
    lr_mult: 1
    decay_mult: 0
  }
  scale_param {
    bias_term: true
  }
}
layer {
  name: "conv2_2/expand"
  type: "Convolution"
  bottom: "conv2_1/linear"
  top: "conv2_2/expand"
  param {
    lr_mult: 1
    decay_mult: 1
  }
  convolution_param {
    num_output: 96
    bias_term: false
    kernel_size: 1
    weight_filler {
      type: "msra"
    }
  }
}
layer {
  name: "conv2_2/expand/bn"
  type: "BatchNorm"
  bottom: "conv2_2/expand"
  top: "conv2_2/expand"
  batch_norm_param {
    use_global_stats: true
    eps: 1e-05
  }
}
layer {
  name: "conv2_2/expand/scale"
  type: "Scale"
  bottom: "conv2_2/expand"
  top: "conv2_2/expand"
  param {
    lr_mult: 1
    decay_mult: 0
  }
  param {
    lr_mult: 1
    decay_mult: 0
  }
  scale_param {
    bias_term: true
  }
}
layer {
  name: "relu2_2/expand"
  type: "ReLU"
  bottom: "conv2_2/expand"
  top: "conv2_2/expand"
}
layer {
  name: "conv2_2/dwise"
  type: "DepthwiseConvolution"
  bottom: "conv2_2/expand"
  top: "conv2_2/dwise"
  param {
    lr_mult: 1
    decay_mult: 1
  }
  convolution_param {
    num_output: 96
    bias_term: false
    pad: 1
    kernel_size: 3
    group: 96
    stride: 2
    weight_filler {
      type: "msra"
    }
  }
}
layer {
  name: "conv2_2/dwise/bn"
  type: "BatchNorm"
  bottom: "conv2_2/dwise"
  top: "conv2_2/dwise"
  batch_norm_param {
    use_global_stats: true
    eps: 1e-05
  }
}
layer {
  name: "conv2_2/dwise/scale"
  type: "Scale"
  bottom: "conv2_2/dwise"
  top: "conv2_2/dwise"
  param {
    lr_mult: 1
    decay_mult: 0
  }
  param {
    lr_mult: 1
    decay_mult: 0
  }
  scale_param {
    bias_term: true
  }
}
layer {
  name: "relu2_2/dwise"
  type: "ReLU"
  bottom: "conv2_2/dwise"
  top: "conv2_2/dwise"
}
layer {
  name: "conv2_2/linear"
  type: "Convolution"
  bottom: "conv2_2/dwise"
  top: "conv2_2/linear"
  param {
    lr_mult: 1
    decay_mult: 1
  }
  convolution_param {
    num_output: 24
    bias_term: false
    kernel_size: 1
    weight_filler {
      type: "msra"
    }
  }
}
layer {
  name: "conv2_2/linear/bn"
  type: "BatchNorm"
  bottom: "conv2_2/linear"
  top: "conv2_2/linear"
  batch_norm_param {
    use_global_stats: true
    eps: 1e-05
  }
}
layer {
  name: "conv2_2/linear/scale"
  type: "Scale"
  bottom: "conv2_2/linear"
  top: "conv2_2/linear"
  param {
    lr_mult: 1
    decay_mult: 0
  }
  param {
    lr_mult: 1
    decay_mult: 0
  }
  scale_param {
    bias_term: true
  }
}
layer {
  name: "conv3_1/expand"
  type: "Convolution"
  bottom: "conv2_2/linear"
  top: "conv3_1/expand"
  param {
    lr_mult: 1
    decay_mult: 1
  }
  convolution_param {
    num_output: 144
    bias_term: false
    kernel_size: 1
    weight_filler {
      type: "msra"
    }
  }
}
layer {
  name: "conv3_1/expand/bn"
  type: "BatchNorm"
  bottom: "conv3_1/expand"
  top: "conv3_1/expand"
  batch_norm_param {
    use_global_stats: true
    eps: 1e-05
  }
}
layer {
  name: "conv3_1/expand/scale"
  type: "Scale"
  bottom: "conv3_1/expand"
  top: "conv3_1/expand"
  param {
    lr_mult: 1
    decay_mult: 0
  }
  param {
    lr_mult: 1
    decay_mult: 0
  }
  scale_param {
    bias_term: true
  }
}
layer {
  name: "relu3_1/expand"
  type: "ReLU"
  bottom: "conv3_1/expand"
  top: "conv3_1/expand"
}
layer {
  name: "conv3_1/dwise"
  type: "DepthwiseConvolution"
  bottom: "conv3_1/expand"
  top: "conv3_1/dwise"
  param {
    lr_mult: 1
    decay_mult: 1
  }
  convolution_param {
    num_output: 144
    bias_term: false
    pad: 1
    kernel_size: 3
    group: 144
    stride: 1
    weight_filler {
      type: "msra"
    }
  }
}
layer {
  name: "conv3_1/dwise/bn"
  type: "BatchNorm"
  bottom: "conv3_1/dwise"
  top: "conv3_1/dwise"
  batch_norm_param {
    use_global_stats: true
    eps: 1e-05
  }
}
layer {
  name: "conv3_1/dwise/scale"
  type: "Scale"
  bottom: "conv3_1/dwise"
  top: "conv3_1/dwise"
  param {
    lr_mult: 1
    decay_mult: 0
  }
  param {
    lr_mult: 1
    decay_mult: 0
  }
  scale_param {
    bias_term: true
  }
}
layer {
  name: "relu3_1/dwise"
  type: "ReLU"
  bottom: "conv3_1/dwise"
  top: "conv3_1/dwise"
}
layer {
  name: "conv3_1/linear"
  type: "Convolution"
  bottom: "conv3_1/dwise"
  top: "conv3_1/linear"
  param {
    lr_mult: 1
    decay_mult: 1
  }
  convolution_param {
    num_output: 24
    bias_term: false
    kernel_size: 1
    weight_filler {
      type: "msra"
    }
  }
}
layer {
  name: "conv3_1/linear/bn"
  type: "BatchNorm"
  bottom: "conv3_1/linear"
  top: "conv3_1/linear"
  batch_norm_param {
    use_global_stats: true
    eps: 1e-05
  }
}
layer {
  name: "conv3_1/linear/scale"
  type: "Scale"
  bottom: "conv3_1/linear"
  top: "conv3_1/linear"
  param {
    lr_mult: 1
    decay_mult: 0
  }
  param {
    lr_mult: 1
    decay_mult: 0
  }
  scale_param {
    bias_term: true
  }
}
layer {
  name: "block_3_1"
  type: "Eltwise"
  bottom: "conv2_2/linear"
  bottom: "conv3_1/linear"
  top: "block_3_1"
}
layer {
  name: "conv3_2/expand"
  type: "Convolution"
  bottom: "block_3_1"
  top: "conv3_2/expand"
  param {
    lr_mult: 1
    decay_mult: 1
  }
  convolution_param {
    num_output: 144
    bias_term: false
    kernel_size: 1
    weight_filler {
      type: "msra"
    }
  }
}
layer {
  name: "conv3_2/expand/bn"
  type: "BatchNorm"
  bottom: "conv3_2/expand"
  top: "conv3_2/expand"
  batch_norm_param {
    use_global_stats: true
    eps: 1e-05
  }
}
layer {
  name: "conv3_2/expand/scale"
  type: "Scale"
  bottom: "conv3_2/expand"
  top: "conv3_2/expand"
  param {
    lr_mult: 1
    decay_mult: 0
  }
  param {
    lr_mult: 1
    decay_mult: 0
  }
  scale_param {
    bias_term: true
  }
}
layer {
  name: "relu3_2/expand"
  type: "ReLU"
  bottom: "conv3_2/expand"
  top: "conv3_2/expand"
}
layer {
  name: "conv3_2/dwise"
  type: "DepthwiseConvolution"
  bottom: "conv3_2/expand"
  top: "conv3_2/dwise"
  param {
    lr_mult: 1
    decay_mult: 1
  }
  convolution_param {
    num_output: 144
    bias_term: false
    pad: 1
    kernel_size: 3
    group: 144
    stride: 2
    weight_filler {
      type: "msra"
    }
  }
}
layer {
  name: "conv3_2/dwise/bn"
  type: "BatchNorm"
  bottom: "conv3_2/dwise"
  top: "conv3_2/dwise"
  batch_norm_param {
    use_global_stats: true
    eps: 1e-05
  }
}
layer {
  name: "conv3_2/dwise/scale"
  type: "Scale"
  bottom: "conv3_2/dwise"
  top: "conv3_2/dwise"
  param {
    lr_mult: 1
    decay_mult: 0
  }
  param {
    lr_mult: 1
    decay_mult: 0
  }
  scale_param {
    bias_term: true
  }
}
layer {
  name: "relu3_2/dwise"
  type: "ReLU"
  bottom: "conv3_2/dwise"
  top: "conv3_2/dwise"
}
layer {
  name: "conv3_2/linear"
  type: "Convolution"
  bottom: "conv3_2/dwise"
  top: "conv3_2/linear"
  param {
    lr_mult: 1
    decay_mult: 1
  }
  convolution_param {
    num_output: 32
    bias_term: false
    kernel_size: 1
    weight_filler {
      type: "msra"
    }
  }
}
layer {
  name: "conv3_2/linear/bn"
  type: "BatchNorm"
  bottom: "conv3_2/linear"
  top: "conv3_2/linear"
  batch_norm_param {
    use_global_stats: true
    eps: 1e-05
  }
}
layer {
  name: "conv3_2/linear/scale"
  type: "Scale"
  bottom: "conv3_2/linear"
  top: "conv3_2/linear"
  param {
    lr_mult: 1
    decay_mult: 0
  }
  param {
    lr_mult: 1
    decay_mult: 0
  }
  scale_param {
    bias_term: true
  }
}
layer {
  name: "conv4_1/expand"
  type: "Convolution"
  bottom: "conv3_2/linear"
  top: "conv4_1/expand"
  param {
    lr_mult: 1
    decay_mult: 1
  }
  convolution_param {
    num_output: 192
    bias_term: false
    kernel_size: 1
    weight_filler {
      type: "msra"
    }
  }
}
layer {
  name: "conv4_1/expand/bn"
  type: "BatchNorm"
  bottom: "conv4_1/expand"
  top: "conv4_1/expand"
  batch_norm_param {
    use_global_stats: true
    eps: 1e-05
  }
}
layer {
  name: "conv4_1/expand/scale"
  type: "Scale"
  bottom: "conv4_1/expand"
  top: "conv4_1/expand"
  param {
    lr_mult: 1
    decay_mult: 0
  }
  param {
    lr_mult: 1
    decay_mult: 0
  }
  scale_param {
    bias_term: true
  }
}
layer {
  name: "relu4_1/expand"
  type: "ReLU"
  bottom: "conv4_1/expand"
  top: "conv4_1/expand"
}
layer {
  name: "conv4_1/dwise"
  type: "DepthwiseConvolution"
  bottom: "conv4_1/expand"
  top: "conv4_1/dwise"
  param {
    lr_mult: 1
    decay_mult: 1
  }
  convolution_param {
    num_output: 192
    bias_term: false
    pad: 1
    kernel_size: 3
    group: 192
    stride: 1
    weight_filler {
      type: "msra"
    }
  }
}
layer {
  name: "conv4_1/dwise/bn"
  type: "BatchNorm"
  bottom: "conv4_1/dwise"
  top: "conv4_1/dwise"
  batch_norm_param {
    use_global_stats: true
    eps: 1e-05
  }
}
layer {
  name: "conv4_1/dwise/scale"
  type: "Scale"
  bottom: "conv4_1/dwise"
  top: "conv4_1/dwise"
  param {
    lr_mult: 1
    decay_mult: 0
  }
  param {
    lr_mult: 1
    decay_mult: 0
  }
  scale_param {
    bias_term: true
  }
}
layer {
  name: "relu4_1/dwise"
  type: "ReLU"
  bottom: "conv4_1/dwise"
  top: "conv4_1/dwise"
}
layer {
  name: "conv4_1/linear"
  type: "Convolution"
  bottom: "conv4_1/dwise"
  top: "conv4_1/linear"
  param {
    lr_mult: 1
    decay_mult: 1
  }
  convolution_param {
    num_output: 32
    bias_term: false
    kernel_size: 1
    weight_filler {
      type: "msra"
    }
  }
}
layer {
  name: "conv4_1/linear/bn"
  type: "BatchNorm"
  bottom: "conv4_1/linear"
  top: "conv4_1/linear"
  batch_norm_param {
    use_global_stats: true
    eps: 1e-05
  }
}
layer {
  name: "conv4_1/linear/scale"
  type: "Scale"
  bottom: "conv4_1/linear"
  top: "conv4_1/linear"
  param {
    lr_mult: 1
    decay_mult: 0
  }
  param {
    lr_mult: 1
    decay_mult: 0
  }
  scale_param {
    bias_term: true
  }
}
layer {
  name: "block_4_1"
  type: "Eltwise"
  bottom: "conv3_2/linear"
  bottom: "conv4_1/linear"
  top: "block_4_1"
}
layer {
  name: "conv4_2/expand"
  type: "Convolution"
  bottom: "block_4_1"
  top: "conv4_2/expand"
  param {
    lr_mult: 1
    decay_mult: 1
  }
  convolution_param {
    num_output: 192
    bias_term: false
    kernel_size: 1
    weight_filler {
      type: "msra"
    }
  }
}
layer {
  name: "conv4_2/expand/bn"
  type: "BatchNorm"
  bottom: "conv4_2/expand"
  top: "conv4_2/expand"
  batch_norm_param {
    use_global_stats: true
    eps: 1e-05
  }
}
layer {
  name: "conv4_2/expand/scale"
  type: "Scale"
  bottom: "conv4_2/expand"
  top: "conv4_2/expand"
  param {
    lr_mult: 1
    decay_mult: 0
  }
  param {
    lr_mult: 1
    decay_mult: 0
  }
  scale_param {
    bias_term: true
  }
}
layer {
  name: "relu4_2/expand"
  type: "ReLU"
  bottom: "conv4_2/expand"
  top: "conv4_2/expand"
}
layer {
  name: "conv4_2/dwise"
  type: "DepthwiseConvolution"
  bottom: "conv4_2/expand"
  top: "conv4_2/dwise"
  param {
    lr_mult: 1
    decay_mult: 1
  }
  convolution_param {
    num_output: 192
    bias_term: false
    pad: 1
    kernel_size: 3
    group: 192
    stride: 1
    weight_filler {
      type: "msra"
    }
  }
}
layer {
  name: "conv4_2/dwise/bn"
  type: "BatchNorm"
  bottom: "conv4_2/dwise"
  top: "conv4_2/dwise"
  batch_norm_param {
    use_global_stats: true
    eps: 1e-05
  }
}
layer {
  name: "conv4_2/dwise/scale"
  type: "Scale"
  bottom: "conv4_2/dwise"
  top: "conv4_2/dwise"
  param {
    lr_mult: 1
    decay_mult: 0
  }
  param {
    lr_mult: 1
    decay_mult: 0
  }
  scale_param {
    bias_term: true
  }
}
layer {
  name: "relu4_2/dwise"
  type: "ReLU"
  bottom: "conv4_2/dwise"
  top: "conv4_2/dwise"
}
layer {
  name: "conv4_2/linear"
  type: "Convolution"
  bottom: "conv4_2/dwise"
  top: "conv4_2/linear"
  param {
    lr_mult: 1
    decay_mult: 1
  }
  convolution_param {
    num_output: 32
    bias_term: false
    kernel_size: 1
    weight_filler {
      type: "msra"
    }
  }
}
layer {
  name: "conv4_2/linear/bn"
  type: "BatchNorm"
  bottom: "conv4_2/linear"
  top: "conv4_2/linear"
  batch_norm_param {
    use_global_stats: true
    eps: 1e-05
  }
}
layer {
  name: "conv4_2/linear/scale"
  type: "Scale"
  bottom: "conv4_2/linear"
  top: "conv4_2/linear"
  param {
    lr_mult: 1
    decay_mult: 0
  }
  param {
    lr_mult: 1
    decay_mult: 0
  }
  scale_param {
    bias_term: true
  }
}
layer {
  name: "block_4_2"
  type: "Eltwise"
  bottom: "block_4_1"
  bottom: "conv4_2/linear"
  top: "block_4_2"
}
layer {
  name: "conv4_3/expand"
  type: "Convolution"
  bottom: "block_4_2"
  top: "conv4_3/expand"
  param {
    lr_mult: 1
    decay_mult: 1
  }
  convolution_param {
    num_output: 192
    bias_term: false
    kernel_size: 1
    weight_filler {
      type: "msra"
    }
  }
}
layer {
  name: "conv4_3/expand/bn"
  type: "BatchNorm"
  bottom: "conv4_3/expand"
  top: "conv4_3/expand"
  batch_norm_param {
    use_global_stats: true
    eps: 1e-05
  }
}
layer {
  name: "conv4_3/expand/scale"
  type: "Scale"
  bottom: "conv4_3/expand"
  top: "conv4_3/expand"
  param {
    lr_mult: 1
    decay_mult: 0
  }
  param {
    lr_mult: 1
    decay_mult: 0
  }
  scale_param {
    bias_term: true
  }
}
layer {
  name: "relu4_3/expand"
  type: "ReLU"
  bottom: "conv4_3/expand"
  top: "conv4_3/expand"
}
layer {
  name: "conv4_3/dwise"
  type: "DepthwiseConvolution"
  bottom: "conv4_3/expand"
  top: "conv4_3/dwise"
  param {
    lr_mult: 1
    decay_mult: 1
  }
  convolution_param {
    num_output: 192
    bias_term: false
    pad: 1
    kernel_size: 3
    group: 192
    stride: 1
    weight_filler {
      type: "msra"
    }
  }
}
layer {
  name: "conv4_3/dwise/bn"
  type: "BatchNorm"
  bottom: "conv4_3/dwise"
  top: "conv4_3/dwise"
  batch_norm_param {
    use_global_stats: true
    eps: 1e-05
  }
}
layer {
  name: "conv4_3/dwise/scale"
  type: "Scale"
  bottom: "conv4_3/dwise"
  top: "conv4_3/dwise"
  param {
    lr_mult: 1
    decay_mult: 0
  }
  param {
    lr_mult: 1
    decay_mult: 0
  }
  scale_param {
    bias_term: true
  }
}
layer {
  name: "relu4_3/dwise"
  type: "ReLU"
  bottom: "conv4_3/dwise"
  top: "conv4_3/dwise"
}
layer {
  name: "conv4_3/linear"
  type: "Convolution"
  bottom: "conv4_3/dwise"
  top: "conv4_3/linear"
  param {
    lr_mult: 1
    decay_mult: 1
  }
  convolution_param {
    num_output: 64
    bias_term: false
    kernel_size: 1
    weight_filler {
      type: "msra"
    }
  }
}
layer {
  name: "conv4_3/linear/bn"
  type: "BatchNorm"
  bottom: "conv4_3/linear"
  top: "conv4_3/linear"
  batch_norm_param {
    use_global_stats: true
    eps: 1e-05
  }
}
layer {
  name: "conv4_3/linear/scale"
  type: "Scale"
  bottom: "conv4_3/linear"
  top: "conv4_3/linear"
  param {
    lr_mult: 1
    decay_mult: 0
  }
  param {
    lr_mult: 1
    decay_mult: 0
  }
  scale_param {
    bias_term: true
  }
}
layer {
  name: "conv4_4/expand"
  type: "Convolution"
  bottom: "conv4_3/linear"
  top: "conv4_4/expand"
  param {
    lr_mult: 1
    decay_mult: 1
  }
  convolution_param {
    num_output: 384
    bias_term: false
    kernel_size: 1
    weight_filler {
      type: "msra"
    }
  }
}
layer {
  name: "conv4_4/expand/bn"
  type: "BatchNorm"
  bottom: "conv4_4/expand"
  top: "conv4_4/expand"
  batch_norm_param {
    use_global_stats: true
    eps: 1e-05
  }
}
layer {
  name: "conv4_4/expand/scale"
  type: "Scale"
  bottom: "conv4_4/expand"
  top: "conv4_4/expand"
  param {
    lr_mult: 1
    decay_mult: 0
  }
  param {
    lr_mult: 1
    decay_mult: 0
  }
  scale_param {
    bias_term: true
  }
}
layer {
  name: "relu4_4/expand"
  type: "ReLU"
  bottom: "conv4_4/expand"
  top: "conv4_4/expand"
}
layer {
  name: "conv4_4/dwise"
  type: "DepthwiseConvolution"
  bottom: "conv4_4/expand"
  top: "conv4_4/dwise"
  param {
    lr_mult: 1
    decay_mult: 1
  }
  convolution_param {
    num_output: 384
    bias_term: false
    pad: 1
    kernel_size: 3
    group: 384
    stride: 1
    weight_filler {
      type: "msra"
    }
  }
}
layer {
  name: "conv4_4/dwise/bn"
  type: "BatchNorm"
  bottom: "conv4_4/dwise"
  top: "conv4_4/dwise"
  batch_norm_param {
    use_global_stats: true
    eps: 1e-05
  }
}
layer {
  name: "conv4_4/dwise/scale"
  type: "Scale"
  bottom: "conv4_4/dwise"
  top: "conv4_4/dwise"
  param {
    lr_mult: 1
    decay_mult: 0
  }
  param {
    lr_mult: 1
    decay_mult: 0
  }
  scale_param {
    bias_term: true
  }
}
layer {
  name: "relu4_4/dwise"
  type: "ReLU"
  bottom: "conv4_4/dwise"
  top: "conv4_4/dwise"
}
layer {
  name: "conv4_4/linear"
  type: "Convolution"
  bottom: "conv4_4/dwise"
  top: "conv4_4/linear"
  param {
    lr_mult: 1
    decay_mult: 1
  }
  convolution_param {
    num_output: 64
    bias_term: false
    kernel_size: 1
    weight_filler {
      type: "msra"
    }
  }
}
layer {
  name: "conv4_4/linear/bn"
  type: "BatchNorm"
  bottom: "conv4_4/linear"
  top: "conv4_4/linear"
  batch_norm_param {
    use_global_stats: true
    eps: 1e-05
  }
}
layer {
  name: "conv4_4/linear/scale"
  type: "Scale"
  bottom: "conv4_4/linear"
  top: "conv4_4/linear"
  param {
    lr_mult: 1
    decay_mult: 0
  }
  param {
    lr_mult: 1
    decay_mult: 0
  }
  scale_param {
    bias_term: true
  }
}
layer {
  name: "block_4_4"
  type: "Eltwise"
  bottom: "conv4_3/linear"
  bottom: "conv4_4/linear"
  top: "block_4_4"
}
layer {
  name: "conv4_5/expand"
  type: "Convolution"
  bottom: "block_4_4"
  top: "conv4_5/expand"
  param {
    lr_mult: 1
    decay_mult: 1
  }
  convolution_param {
    num_output: 384
    bias_term: false
    kernel_size: 1
    weight_filler {
      type: "msra"
    }
  }
}
layer {
  name: "conv4_5/expand/bn"
  type: "BatchNorm"
  bottom: "conv4_5/expand"
  top: "conv4_5/expand"
  batch_norm_param {
    use_global_stats: true
    eps: 1e-05
  }
}
layer {
  name: "conv4_5/expand/scale"
  type: "Scale"
  bottom: "conv4_5/expand"
  top: "conv4_5/expand"
  param {
    lr_mult: 1
    decay_mult: 0
  }
  param {
    lr_mult: 1
    decay_mult: 0
  }
  scale_param {
    bias_term: true
  }
}
layer {
  name: "relu4_5/expand"
  type: "ReLU"
  bottom: "conv4_5/expand"
  top: "conv4_5/expand"
}
layer {
  name: "conv4_5/dwise"
  type: "DepthwiseConvolution"
  bottom: "conv4_5/expand"
  top: "conv4_5/dwise"
  param {
    lr_mult: 1
    decay_mult: 1
  }
  convolution_param {
    num_output: 384
    bias_term: false
    pad: 1
    kernel_size: 3
    group: 384
    stride: 1
    weight_filler {
      type: "msra"
    }
  }
}
layer {
  name: "conv4_5/dwise/bn"
  type: "BatchNorm"
  bottom: "conv4_5/dwise"
  top: "conv4_5/dwise"
  batch_norm_param {
    use_global_stats: true
    eps: 1e-05
  }
}
layer {
  name: "conv4_5/dwise/scale"
  type: "Scale"
  bottom: "conv4_5/dwise"
  top: "conv4_5/dwise"
  param {
    lr_mult: 1
    decay_mult: 0
  }
  param {
    lr_mult: 1
    decay_mult: 0
  }
  scale_param {
    bias_term: true
  }
}
layer {
  name: "relu4_5/dwise"
  type: "ReLU"
  bottom: "conv4_5/dwise"
  top: "conv4_5/dwise"
}
layer {
  name: "conv4_5/linear"
  type: "Convolution"
  bottom: "conv4_5/dwise"
  top: "conv4_5/linear"
  param {
    lr_mult: 1
    decay_mult: 1
  }
  convolution_param {
    num_output: 64
    bias_term: false
    kernel_size: 1
    weight_filler {
      type: "msra"
    }
  }
}
layer {
  name: "conv4_5/linear/bn"
  type: "BatchNorm"
  bottom: "conv4_5/linear"
  top: "conv4_5/linear"
  batch_norm_param {
    use_global_stats: true
    eps: 1e-05
  }
}
layer {
  name: "conv4_5/linear/scale"
  type: "Scale"
  bottom: "conv4_5/linear"
  top: "conv4_5/linear"
  param {
    lr_mult: 1
    decay_mult: 0
  }
  param {
    lr_mult: 1
    decay_mult: 0
  }
  scale_param {
    bias_term: true
  }
}
layer {
  name: "block_4_5"
  type: "Eltwise"
  bottom: "block_4_4"
  bottom: "conv4_5/linear"
  top: "block_4_5"
}
layer {
  name: "conv4_6/expand"
  type: "Convolution"
  bottom: "block_4_5"
  top: "conv4_6/expand"
  param {
    lr_mult: 1
    decay_mult: 1
  }
  convolution_param {
    num_output: 384
    bias_term: false
    kernel_size: 1
    weight_filler {
      type: "msra"
    }
  }
}
layer {
  name: "conv4_6/expand/bn"
  type: "BatchNorm"
  bottom: "conv4_6/expand"
  top: "conv4_6/expand"
  batch_norm_param {
    use_global_stats: true
    eps: 1e-05
  }
}
layer {
  name: "conv4_6/expand/scale"
  type: "Scale"
  bottom: "conv4_6/expand"
  top: "conv4_6/expand"
  param {
    lr_mult: 1
    decay_mult: 0
  }
  param {
    lr_mult: 1
    decay_mult: 0
  }
  scale_param {
    bias_term: true
  }
}
layer {
  name: "relu4_6/expand"
  type: "ReLU"
  bottom: "conv4_6/expand"
  top: "conv4_6/expand"
}
layer {
  name: "conv4_6/dwise"
  type: "DepthwiseConvolution"
  bottom: "conv4_6/expand"
  top: "conv4_6/dwise"
  param {
    lr_mult: 1
    decay_mult: 1
  }
  convolution_param {
    num_output: 384
    bias_term: false
    pad: 1
    kernel_size: 3
    group: 384
    stride: 1
    weight_filler {
      type: "msra"
    }
  }
}
layer {
  name: "conv4_6/dwise/bn"
  type: "BatchNorm"
  bottom: "conv4_6/dwise"
  top: "conv4_6/dwise"
  batch_norm_param {
    use_global_stats: true
    eps: 1e-05
  }
}
layer {
  name: "conv4_6/dwise/scale"
  type: "Scale"
  bottom: "conv4_6/dwise"
  top: "conv4_6/dwise"
  param {
    lr_mult: 1
    decay_mult: 0
  }
  param {
    lr_mult: 1
    decay_mult: 0
  }
  scale_param {
    bias_term: true
  }
}
layer {
  name: "relu4_6/dwise"
  type: "ReLU"
  bottom: "conv4_6/dwise"
  top: "conv4_6/dwise"
}
layer {
  name: "conv4_6/linear"
  type: "Convolution"
  bottom: "conv4_6/dwise"
  top: "conv4_6/linear"
  param {
    lr_mult: 1
    decay_mult: 1
  }
  convolution_param {
    num_output: 64
    bias_term: false
    kernel_size: 1
    weight_filler {
      type: "msra"
    }
  }
}
layer {
  name: "conv4_6/linear/bn"
  type: "BatchNorm"
  bottom: "conv4_6/linear"
  top: "conv4_6/linear"
  batch_norm_param {
    use_global_stats: true
    eps: 1e-05
  }
}
layer {
  name: "conv4_6/linear/scale"
  type: "Scale"
  bottom: "conv4_6/linear"
  top: "conv4_6/linear"
  param {
    lr_mult: 1
    decay_mult: 0
  }
  param {
    lr_mult: 1
    decay_mult: 0
  }
  scale_param {
    bias_term: true
  }
}
layer {
  name: "block_4_6"
  type: "Eltwise"
  bottom: "block_4_5"
  bottom: "conv4_6/linear"
  top: "block_4_6"
}
layer {
  name: "conv4_7/expand"
  type: "Convolution"
  bottom: "block_4_6"
  top: "conv4_7/expand"
  param {
    lr_mult: 1
    decay_mult: 1
  }
  convolution_param {
    num_output: 384
    bias_term: false
    kernel_size: 1
    weight_filler {
      type: "msra"
    }
  }
}
layer {
  name: "conv4_7/expand/bn"
  type: "BatchNorm"
  bottom: "conv4_7/expand"
  top: "conv4_7/expand"
  batch_norm_param {
    use_global_stats: true
    eps: 1e-05
  }
}
layer {
  name: "conv4_7/expand/scale"
  type: "Scale"
  bottom: "conv4_7/expand"
  top: "conv4_7/expand"
  param {
    lr_mult: 1
    decay_mult: 0
  }
  param {
    lr_mult: 1
    decay_mult: 0
  }
  scale_param {
    bias_term: true
  }
}
layer {
  name: "relu4_7/expand"
  type: "ReLU"
  bottom: "conv4_7/expand"
  top: "conv4_7/expand"
}
layer {
  name: "conv4_7/dwise"
  type: "DepthwiseConvolution"
  bottom: "conv4_7/expand"
  top: "conv4_7/dwise"
  param {
    lr_mult: 1
    decay_mult: 1
  }
  convolution_param {
    num_output: 384
    bias_term: false
    pad: 1
    kernel_size: 3
    group: 384
    stride: 2
    weight_filler {
      type: "msra"
    }
  }
}
layer {
  name: "conv4_7/dwise/bn"
  type: "BatchNorm"
  bottom: "conv4_7/dwise"
  top: "conv4_7/dwise"
  batch_norm_param {
    use_global_stats: true
    eps: 1e-05
  }
}
layer {
  name: "conv4_7/dwise/scale"
  type: "Scale"
  bottom: "conv4_7/dwise"
  top: "conv4_7/dwise"
  param {
    lr_mult: 1
    decay_mult: 0
  }
  param {
    lr_mult: 1
    decay_mult: 0
  }
  scale_param {
    bias_term: true
  }
}
layer {
  name: "relu4_7/dwise"
  type: "ReLU"
  bottom: "conv4_7/dwise"
  top: "conv4_7/dwise"
}
layer {
  name: "conv4_7/linear"
  type: "Convolution"
  bottom: "conv4_7/dwise"
  top: "conv4_7/linear"
  param {
    lr_mult: 1
    decay_mult: 1
  }
  convolution_param {
    num_output: 96
    bias_term: false
    kernel_size: 1
    weight_filler {
      type: "msra"
    }
  }
}
layer {
  name: "conv4_7/linear/bn"
  type: "BatchNorm"
  bottom: "conv4_7/linear"
  top: "conv4_7/linear"
  batch_norm_param {
    use_global_stats: true
    eps: 1e-05
  }
}
layer {
  name: "conv4_7/linear/scale"
  type: "Scale"
  bottom: "conv4_7/linear"
  top: "conv4_7/linear"
  param {
    lr_mult: 1
    decay_
I0929 19:42:28.037405 14878 layer_factory.hpp:77] Creating layer data
I0929 19:42:28.037500 14878 net.cpp:100] Creating Layer data
I0929 19:42:28.037509 14878 net.cpp:408] data -> data
I0929 19:42:28.037528 14878 net.cpp:408] data -> label
I0929 19:42:28.038033 14886 db_lmdb.cpp:35] Opened lmdb examples/GTSDB/GTSDB_trainval_lmdb
I0929 19:42:28.051743 14878 annotated_data_layer.cpp:62] output data size: 1,3,300,510
I0929 19:42:28.054365 14878 net.cpp:150] Setting up data
I0929 19:42:28.054383 14878 net.cpp:157] Top shape: 1 3 300 510 (459000)
I0929 19:42:28.054385 14878 net.cpp:157] Top shape: 1 1 3 8 (24)
I0929 19:42:28.054388 14878 net.cpp:165] Memory required for data: 1836096
I0929 19:42:28.054394 14878 layer_factory.hpp:77] Creating layer data_data_0_split
I0929 19:42:28.054402 14878 net.cpp:100] Creating Layer data_data_0_split
I0929 19:42:28.054405 14878 net.cpp:434] data_data_0_split <- data
I0929 19:42:28.054419 14878 net.cpp:408] data_data_0_split -> data_data_0_split_0
I0929 19:42:28.054427 14878 net.cpp:408] data_data_0_split -> data_data_0_split_1
I0929 19:42:28.054433 14878 net.cpp:408] data_data_0_split -> data_data_0_split_2
I0929 19:42:28.054441 14878 net.cpp:408] data_data_0_split -> data_data_0_split_3
I0929 19:42:28.054446 14878 net.cpp:408] data_data_0_split -> data_data_0_split_4
I0929 19:42:28.054451 14878 net.cpp:408] data_data_0_split -> data_data_0_split_5
I0929 19:42:28.054456 14878 net.cpp:408] data_data_0_split -> data_data_0_split_6
I0929 19:42:28.054527 14878 net.cpp:150] Setting up data_data_0_split
I0929 19:42:28.054534 14878 net.cpp:157] Top shape: 1 3 300 510 (459000)
I0929 19:42:28.054538 14878 net.cpp:157] Top shape: 1 3 300 510 (459000)
I0929 19:42:28.054540 14878 net.cpp:157] Top shape: 1 3 300 510 (459000)
I0929 19:42:28.054543 14878 net.cpp:157] Top shape: 1 3 300 510 (459000)
I0929 19:42:28.054544 14878 net.cpp:157] Top shape: 1 3 300 510 (459000)
I0929 19:42:28.054548 14878 net.cpp:157] Top shape: 1 3 300 510 (459000)
I0929 19:42:28.054550 14878 net.cpp:157] Top shape: 1 3 300 510 (459000)
I0929 19:42:28.054551 14878 net.cpp:165] Memory required for data: 14688096
I0929 19:42:28.054553 14878 layer_factory.hpp:77] Creating layer conv1
I0929 19:42:28.054567 14878 net.cpp:100] Creating Layer conv1
I0929 19:42:28.054571 14878 net.cpp:434] conv1 <- data_data_0_split_0
I0929 19:42:28.054576 14878 net.cpp:408] conv1 -> conv1
I0929 19:42:28.375952 14878 net.cpp:150] Setting up conv1
I0929 19:42:28.375970 14878 net.cpp:157] Top shape: 1 32 150 255 (1224000)
I0929 19:42:28.375973 14878 net.cpp:165] Memory required for data: 19584096
I0929 19:42:28.375988 14878 layer_factory.hpp:77] Creating layer conv1/bn
I0929 19:42:28.375996 14878 net.cpp:100] Creating Layer conv1/bn
I0929 19:42:28.375999 14878 net.cpp:434] conv1/bn <- conv1
I0929 19:42:28.376003 14878 net.cpp:395] conv1/bn -> conv1 (in-place)
I0929 19:42:28.376585 14878 net.cpp:150] Setting up conv1/bn
I0929 19:42:28.376591 14878 net.cpp:157] Top shape: 1 32 150 255 (1224000)
I0929 19:42:28.376593 14878 net.cpp:165] Memory required for data: 24480096
I0929 19:42:28.376600 14878 layer_factory.hpp:77] Creating layer conv1/scale
I0929 19:42:28.376606 14878 net.cpp:100] Creating Layer conv1/scale
I0929 19:42:28.376608 14878 net.cpp:434] conv1/scale <- conv1
I0929 19:42:28.376611 14878 net.cpp:395] conv1/scale -> conv1 (in-place)
I0929 19:42:28.376637 14878 layer_factory.hpp:77] Creating layer conv1/scale
I0929 19:42:28.376737 14878 net.cpp:150] Setting up conv1/scale
I0929 19:42:28.376742 14878 net.cpp:157] Top shape: 1 32 150 255 (1224000)
I0929 19:42:28.376744 14878 net.cpp:165] Memory required for data: 29376096
I0929 19:42:28.376749 14878 layer_factory.hpp:77] Creating layer relu1
I0929 19:42:28.376752 14878 net.cpp:100] Creating Layer relu1
I0929 19:42:28.376754 14878 net.cpp:434] relu1 <- conv1
I0929 19:42:28.376757 14878 net.cpp:395] relu1 -> conv1 (in-place)
I0929 19:42:28.376998 14878 net.cpp:150] Setting up relu1
I0929 19:42:28.377004 14878 net.cpp:157] Top shape: 1 32 150 255 (1224000)
I0929 19:42:28.377007 14878 net.cpp:165] Memory required for data: 34272096
I0929 19:42:28.377008 14878 layer_factory.hpp:77] Creating layer conv2_1/expand
I0929 19:42:28.377013 14878 net.cpp:100] Creating Layer conv2_1/expand
I0929 19:42:28.377015 14878 net.cpp:434] conv2_1/expand <- conv1
I0929 19:42:28.377018 14878 net.cpp:408] conv2_1/expand -> conv2_1/expand
I0929 19:42:28.378001 14878 net.cpp:150] Setting up conv2_1/expand
I0929 19:42:28.378008 14878 net.cpp:157] Top shape: 1 32 150 255 (1224000)
I0929 19:42:28.378010 14878 net.cpp:165] Memory required for data: 39168096
I0929 19:42:28.378013 14878 layer_factory.hpp:77] Creating layer conv2_1/expand/bn
I0929 19:42:28.378017 14878 net.cpp:100] Creating Layer conv2_1/expand/bn
I0929 19:42:28.378020 14878 net.cpp:434] conv2_1/expand/bn <- conv2_1/expand
I0929 19:42:28.378021 14878 net.cpp:395] conv2_1/expand/bn -> conv2_1/expand (in-place)
I0929 19:42:28.378149 14878 net.cpp:150] Setting up conv2_1/expand/bn
I0929 19:42:28.378154 14878 net.cpp:157] Top shape: 1 32 150 255 (1224000)
I0929 19:42:28.378155 14878 net.cpp:165] Memory required for data: 44064096
I0929 19:42:28.378160 14878 layer_factory.hpp:77] Creating layer conv2_1/expand/scale
I0929 19:42:28.378165 14878 net.cpp:100] Creating Layer conv2_1/expand/scale
I0929 19:42:28.378167 14878 net.cpp:434] conv2_1/expand/scale <- conv2_1/expand
I0929 19:42:28.378170 14878 net.cpp:395] conv2_1/expand/scale -> conv2_1/expand (in-place)
I0929 19:42:28.378190 14878 layer_factory.hpp:77] Creating layer conv2_1/expand/scale
I0929 19:42:28.378294 14878 net.cpp:150] Setting up conv2_1/expand/scale
I0929 19:42:28.378299 14878 net.cpp:157] Top shape: 1 32 150 255 (1224000)
I0929 19:42:28.378301 14878 net.cpp:165] Memory required for data: 48960096
I0929 19:42:28.378304 14878 layer_factory.hpp:77] Creating layer relu2_1/expand
I0929 19:42:28.378307 14878 net.cpp:100] Creating Layer relu2_1/expand
I0929 19:42:28.378309 14878 net.cpp:434] relu2_1/expand <- conv2_1/expand
I0929 19:42:28.378312 14878 net.cpp:395] relu2_1/expand -> conv2_1/expand (in-place)
I0929 19:42:28.378533 14878 net.cpp:150] Setting up relu2_1/expand
I0929 19:42:28.378540 14878 net.cpp:157] Top shape: 1 32 150 255 (1224000)
I0929 19:42:28.378541 14878 net.cpp:165] Memory required for data: 53856096
I0929 19:42:28.378543 14878 layer_factory.hpp:77] Creating layer conv2_1/dwise
I0929 19:42:28.378547 14878 net.cpp:100] Creating Layer conv2_1/dwise
I0929 19:42:28.378549 14878 net.cpp:434] conv2_1/dwise <- conv2_1/expand
I0929 19:42:28.378552 14878 net.cpp:408] conv2_1/dwise -> conv2_1/dwise
I0929 19:42:28.378669 14878 net.cpp:150] Setting up conv2_1/dwise
I0929 19:42:28.378674 14878 net.cpp:157] Top shape: 1 32 150 255 (1224000)
I0929 19:42:28.378674 14878 net.cpp:165] Memory required for data: 58752096
I0929 19:42:28.378677 14878 layer_factory.hpp:77] Creating layer conv2_1/dwise/bn
I0929 19:42:28.378680 14878 net.cpp:100] Creating Layer conv2_1/dwise/bn
I0929 19:42:28.378682 14878 net.cpp:434] conv2_1/dwise/bn <- conv2_1/dwise
I0929 19:42:28.378685 14878 net.cpp:395] conv2_1/dwise/bn -> conv2_1/dwise (in-place)
I0929 19:42:28.378808 14878 net.cpp:150] Setting up conv2_1/dwise/bn
I0929 19:42:28.378811 14878 net.cpp:157] Top shape: 1 32 150 255 (1224000)
I0929 19:42:28.378813 14878 net.cpp:165] Memory required for data: 63648096
I0929 19:42:28.378818 14878 layer_factory.hpp:77] Creating layer conv2_1/dwise/scale
I0929 19:42:28.378820 14878 net.cpp:100] Creating Layer conv2_1/dwise/scale
I0929 19:42:28.378823 14878 net.cpp:434] conv2_1/dwise/scale <- conv2_1/dwise
I0929 19:42:28.378824 14878 net.cpp:395] conv2_1/dwise/scale -> conv2_1/dwise (in-place)
I0929 19:42:28.378845 14878 layer_factory.hpp:77] Creating layer conv2_1/dwise/scale
I0929 19:42:28.378937 14878 net.cpp:150] Setting up conv2_1/dwise/scale
I0929 19:42:28.378942 14878 net.cpp:157] Top shape: 1 32 150 255 (1224000)
I0929 19:42:28.378943 14878 net.cpp:165] Memory required for data: 68544096
I0929 19:42:28.378948 14878 layer_factory.hpp:77] Creating layer relu2_1/dwise
I0929 19:42:28.378952 14878 net.cpp:100] Creating Layer relu2_1/dwise
I0929 19:42:28.378953 14878 net.cpp:434] relu2_1/dwise <- conv2_1/dwise
I0929 19:42:28.378955 14878 net.cpp:395] relu2_1/dwise -> conv2_1/dwise (in-place)
I0929 19:42:28.379180 14878 net.cpp:150] Setting up relu2_1/dwise
I0929 19:42:28.379185 14878 net.cpp:157] Top shape: 1 32 150 255 (1224000)
I0929 19:42:28.379187 14878 net.cpp:165] Memory required for data: 73440096
I0929 19:42:28.379189 14878 layer_factory.hpp:77] Creating layer conv2_1/linear
I0929 19:42:28.379194 14878 net.cpp:100] Creating Layer conv2_1/linear
I0929 19:42:28.379196 14878 net.cpp:434] conv2_1/linear <- conv2_1/dwise
I0929 19:42:28.379199 14878 net.cpp:408] conv2_1/linear -> conv2_1/linear
I0929 19:42:28.380162 14878 net.cpp:150] Setting up conv2_1/linear
I0929 19:42:28.380169 14878 net.cpp:157] Top shape: 1 16 150 255 (612000)
I0929 19:42:28.380172 14878 net.cpp:165] Memory required for data: 75888096
I0929 19:42:28.380174 14878 layer_factory.hpp:77] Creating layer conv2_1/linear/bn
I0929 19:42:28.380178 14878 net.cpp:100] Creating Layer conv2_1/linear/bn
I0929 19:42:28.380180 14878 net.cpp:434] conv2_1/linear/bn <- conv2_1/linear
I0929 19:42:28.380183 14878 net.cpp:395] conv2_1/linear/bn -> conv2_1/linear (in-place)
I0929 19:42:28.380309 14878 net.cpp:150] Setting up conv2_1/linear/bn
I0929 19:42:28.380313 14878 net.cpp:157] Top shape: 1 16 150 255 (612000)
I0929 19:42:28.380316 14878 net.cpp:165] Memory required for data: 78336096
I0929 19:42:28.380319 14878 layer_factory.hpp:77] Creating layer conv2_1/linear/scale
I0929 19:42:28.380332 14878 net.cpp:100] Creating Layer conv2_1/linear/scale
I0929 19:42:28.380334 14878 net.cpp:434] conv2_1/linear/scale <- conv2_1/linear
I0929 19:42:28.380337 14878 net.cpp:395] conv2_1/linear/scale -> conv2_1/linear (in-place)
I0929 19:42:28.380359 14878 layer_factory.hpp:77] Creating layer conv2_1/linear/scale
I0929 19:42:28.380451 14878 net.cpp:150] Setting up conv2_1/linear/scale
I0929 19:42:28.380456 14878 net.cpp:157] Top shape: 1 16 150 255 (612000)
I0929 19:42:28.380458 14878 net.cpp:165] Memory required for data: 80784096
I0929 19:42:28.380461 14878 layer_factory.hpp:77] Creating layer conv2_2/expand
I0929 19:42:28.380466 14878 net.cpp:100] Creating Layer conv2_2/expand
I0929 19:42:28.380467 14878 net.cpp:434] conv2_2/expand <- conv2_1/linear
I0929 19:42:28.380470 14878 net.cpp:408] conv2_2/expand -> conv2_2/expand
I0929 19:42:28.381873 14878 net.cpp:150] Setting up conv2_2/expand
I0929 19:42:28.381881 14878 net.cpp:157] Top shape: 1 96 150 255 (3672000)
I0929 19:42:28.381883 14878 net.cpp:165] Memory required for data: 95472096
I0929 19:42:28.381886 14878 layer_factory.hpp:77] Creating layer conv2_2/expand/bn
I0929 19:42:28.381891 14878 net.cpp:100] Creating Layer conv2_2/expand/bn
I0929 19:42:28.381892 14878 net.cpp:434] conv2_2/expand/bn <- conv2_2/expand
I0929 19:42:28.381896 14878 net.cpp:395] conv2_2/expand/bn -> conv2_2/expand (in-place)
I0929 19:42:28.382028 14878 net.cpp:150] Setting up conv2_2/expand/bn
I0929 19:42:28.382033 14878 net.cpp:157] Top shape: 1 96 150 255 (3672000)
I0929 19:42:28.382035 14878 net.cpp:165] Memory required for data: 110160096
I0929 19:42:28.382040 14878 layer_factory.hpp:77] Creating layer conv2_2/expand/scale
I0929 19:42:28.382042 14878 net.cpp:100] Creating Layer conv2_2/expand/scale
I0929 19:42:28.382045 14878 net.cpp:434] conv2_2/expand/scale <- conv2_2/expand
I0929 19:42:28.382047 14878 net.cpp:395] conv2_2/expand/scale -> conv2_2/expand (in-place)
I0929 19:42:28.382068 14878 layer_factory.hpp:77] Creating layer conv2_2/expand/scale
I0929 19:42:28.382576 14878 net.cpp:150] Setting up conv2_2/expand/scale
I0929 19:42:28.382583 14878 net.cpp:157] Top shape: 1 96 150 255 (3672000)
I0929 19:42:28.382586 14878 net.cpp:165] Memory required for data: 124848096
I0929 19:42:28.382589 14878 layer_factory.hpp:77] Creating layer relu2_2/expand
I0929 19:42:28.382593 14878 net.cpp:100] Creating Layer relu2_2/expand
I0929 19:42:28.382594 14878 net.cpp:434] relu2_2/expand <- conv2_2/expand
I0929 19:42:28.382597 14878 net.cpp:395] relu2_2/expand -> conv2_2/expand (in-place)
I0929 19:42:28.382828 14878 net.cpp:150] Setting up relu2_2/expand
I0929 19:42:28.382833 14878 net.cpp:157] Top shape: 1 96 150 255 (3672000)
I0929 19:42:28.382835 14878 net.cpp:165] Memory required for data: 139536096
I0929 19:42:28.382838 14878 layer_factory.hpp:77] Creating layer conv2_2/dwise
I0929 19:42:28.382841 14878 net.cpp:100] Creating Layer conv2_2/dwise
I0929 19:42:28.382843 14878 net.cpp:434] conv2_2/dwise <- conv2_2/expand
I0929 19:42:28.382846 14878 net.cpp:408] conv2_2/dwise -> conv2_2/dwise
I0929 19:42:28.382982 14878 net.cpp:150] Setting up conv2_2/dwise
I0929 19:42:28.382987 14878 net.cpp:157] Top shape: 1 96 75 128 (921600)
I0929 19:42:28.382988 14878 net.cpp:165] Memory required for data: 143222496
I0929 19:42:28.382992 14878 layer_factory.hpp:77] Creating layer conv2_2/dwise/bn
I0929 19:42:28.382995 14878 net.cpp:100] Creating Layer conv2_2/dwise/bn
I0929 19:42:28.382997 14878 net.cpp:434] conv2_2/dwise/bn <- conv2_2/dwise
I0929 19:42:28.382999 14878 net.cpp:395] conv2_2/dwise/bn -> conv2_2/dwise (in-place)
I0929 19:42:28.383535 14878 net.cpp:150] Setting up conv2_2/dwise/bn
I0929 19:42:28.383543 14878 net.cpp:157] Top shape: 1 96 75 128 (921600)
I0929 19:42:28.383544 14878 net.cpp:165] Memory required for data: 146908896
I0929 19:42:28.383553 14878 layer_factory.hpp:77] Creating layer conv2_2/dwise/scale
I0929 19:42:28.383556 14878 net.cpp:100] Creating Layer conv2_2/dwise/scale
I0929 19:42:28.383558 14878 net.cpp:434] conv2_2/dwise/scale <- conv2_2/dwise
I0929 19:42:28.383571 14878 net.cpp:395] conv2_2/dwise/scale -> conv2_2/dwise (in-place)
I0929 19:42:28.383597 14878 layer_factory.hpp:77] Creating layer conv2_2/dwise/scale
I0929 19:42:28.383674 14878 net.cpp:150] Setting up conv2_2/dwise/scale
I0929 19:42:28.383678 14878 net.cpp:157] Top shape: 1 96 75 128 (921600)
I0929 19:42:28.383680 14878 net.cpp:165] Memory required for data: 150595296
I0929 19:42:28.383684 14878 layer_factory.hpp:77] Creating layer relu2_2/dwise
I0929 19:42:28.383687 14878 net.cpp:100] Creating Layer relu2_2/dwise
I0929 19:42:28.383689 14878 net.cpp:434] relu2_2/dwise <- conv2_2/dwise
I0929 19:42:28.383692 14878 net.cpp:395] relu2_2/dwise -> conv2_2/dwise (in-place)
I0929 19:42:28.384057 14878 net.cpp:150] Setting up relu2_2/dwise
I0929 19:42:28.384063 14878 net.cpp:157] Top shape: 1 96 75 128 (921600)
I0929 19:42:28.384065 14878 net.cpp:165] Memory required for data: 154281696
I0929 19:42:28.384068 14878 layer_factory.hpp:77] Creating layer conv2_2/linear
I0929 19:42:28.384073 14878 net.cpp:100] Creating Layer conv2_2/linear
I0929 19:42:28.384075 14878 net.cpp:434] conv2_2/linear <- conv2_2/dwise
I0929 19:42:28.384079 14878 net.cpp:408] conv2_2/linear -> conv2_2/linear
I0929 19:42:28.385226 14878 net.cpp:150] Setting up conv2_2/linear
I0929 19:42:28.385233 14878 net.cpp:157] Top shape: 1 24 75 128 (230400)
I0929 19:42:28.385234 14878 net.cpp:165] Memory required for data: 155203296
I0929 19:42:28.385238 14878 layer_factory.hpp:77] Creating layer conv2_2/linear/bn
I0929 19:42:28.385243 14878 net.cpp:100] Creating Layer conv2_2/linear/bn
I0929 19:42:28.385244 14878 net.cpp:434] conv2_2/linear/bn <- conv2_2/linear
I0929 19:42:28.385247 14878 net.cpp:395] conv2_2/linear/bn -> conv2_2/linear (in-place)
I0929 19:42:28.385380 14878 net.cpp:150] Setting up conv2_2/linear/bn
I0929 19:42:28.385385 14878 net.cpp:157] Top shape: 1 24 75 128 (230400)
I0929 19:42:28.385386 14878 net.cpp:165] Memory required for data: 156124896
I0929 19:42:28.385390 14878 layer_factory.hpp:77] Creating layer conv2_2/linear/scale
I0929 19:42:28.385393 14878 net.cpp:100] Creating Layer conv2_2/linear/scale
I0929 19:42:28.385396 14878 net.cpp:434] conv2_2/linear/scale <- conv2_2/linear
I0929 19:42:28.385397 14878 net.cpp:395] conv2_2/linear/scale -> conv2_2/linear (in-place)
I0929 19:42:28.385421 14878 layer_factory.hpp:77] Creating layer conv2_2/linear/scale
I0929 19:42:28.385501 14878 net.cpp:150] Setting up conv2_2/linear/scale
I0929 19:42:28.385506 14878 net.cpp:157] Top shape: 1 24 75 128 (230400)
I0929 19:42:28.385509 14878 net.cpp:165] Memory required for data: 157046496
I0929 19:42:28.385511 14878 layer_factory.hpp:77] Creating layer conv2_2/linear_conv2_2/linear/scale_0_split
I0929 19:42:28.385515 14878 net.cpp:100] Creating Layer conv2_2/linear_conv2_2/linear/scale_0_split
I0929 19:42:28.385516 14878 net.cpp:434] conv2_2/linear_conv2_2/linear/scale_0_split <- conv2_2/linear
I0929 19:42:28.385519 14878 net.cpp:408] conv2_2/linear_conv2_2/linear/scale_0_split -> conv2_2/linear_conv2_2/linear/scale_0_split_0
I0929 19:42:28.385525 14878 net.cpp:408] conv2_2/linear_conv2_2/linear/scale_0_split -> conv2_2/linear_conv2_2/linear/scale_0_split_1
I0929 19:42:28.385546 14878 net.cpp:150] Setting up conv2_2/linear_conv2_2/linear/scale_0_split
I0929 19:42:28.385550 14878 net.cpp:157] Top shape: 1 24 75 128 (230400)
I0929 19:42:28.385552 14878 net.cpp:157] Top shape: 1 24 75 128 (230400)
I0929 19:42:28.385555 14878 net.cpp:165] Memory required for data: 158889696
I0929 19:42:28.385555 14878 layer_factory.hpp:77] Creating layer conv3_1/expand
I0929 19:42:28.385561 14878 net.cpp:100] Creating Layer conv3_1/expand
I0929 19:42:28.385565 14878 net.cpp:434] conv3_1/expand <- conv2_2/linear_conv2_2/linear/scale_0_split_0
I0929 19:42:28.385570 14878 net.cpp:408] conv3_1/expand -> conv3_1/expand
I0929 19:42:28.386610 14878 net.cpp:150] Setting up conv3_1/expand
I0929 19:42:28.386617 14878 net.cpp:157] Top shape: 1 144 75 128 (1382400)
I0929 19:42:28.386620 14878 net.cpp:165] Memory required for data: 164419296
I0929 19:42:28.386633 14878 layer_factory.hpp:77] Creating layer conv3_1/expand/bn
I0929 19:42:28.386639 14878 net.cpp:100] Creating Layer conv3_1/expand/bn
I0929 19:42:28.386642 14878 net.cpp:434] conv3_1/expand/bn <- conv3_1/expand
I0929 19:42:28.386648 14878 net.cpp:395] conv3_1/expand/bn -> conv3_1/expand (in-place)
I0929 19:42:28.386816 14878 net.cpp:150] Setting up conv3_1/expand/bn
I0929 19:42:28.386822 14878 net.cpp:157] Top shape: 1 144 75 128 (1382400)
I0929 19:42:28.386826 14878 net.cpp:165] Memory required for data: 169948896
I0929 19:42:28.386833 14878 layer_factory.hpp:77] Creating layer conv3_1/expand/scale
I0929 19:42:28.386839 14878 net.cpp:100] Creating Layer conv3_1/expand/scale
I0929 19:42:28.386842 14878 net.cpp:434] conv3_1/expand/scale <- conv3_1/expand
I0929 19:42:28.386847 14878 net.cpp:395] conv3_1/expand/scale -> conv3_1/expand (in-place)
I0929 19:42:28.386886 14878 layer_factory.hpp:77] Creating layer conv3_1/expand/scale
I0929 19:42:28.386984 14878 net.cpp:150] Setting up conv3_1/expand/scale
I0929 19:42:28.386991 14878 net.cpp:157] Top shape: 1 144 75 128 (1382400)
I0929 19:42:28.386993 14878 net.cpp:165] Memory required for data: 175478496
I0929 19:42:28.387001 14878 layer_factory.hpp:77] Creating layer relu3_1/expand
I0929 19:42:28.387009 14878 net.cpp:100] Creating Layer relu3_1/expand
I0929 19:42:28.387013 14878 net.cpp:434] relu3_1/expand <- conv3_1/expand
I0929 19:42:28.387017 14878 net.cpp:395] relu3_1/expand -> conv3_1/expand (in-place)
I0929 19:42:28.387382 14878 net.cpp:150] Setting up relu3_1/expand
I0929 19:42:28.387389 14878 net.cpp:157] Top shape: 1 144 75 128 (1382400)
I0929 19:42:28.387392 14878 net.cpp:165] Memory required for data: 181008096
I0929 19:42:28.387396 14878 layer_factory.hpp:77] Creating layer conv3_1/dwise
I0929 19:42:28.387403 14878 net.cpp:100] Creating Layer conv3_1/dwise
I0929 19:42:28.387406 14878 net.cpp:434] conv3_1/dwise <- conv3_1/expand
I0929 19:42:28.387411 14878 net.cpp:408] conv3_1/dwise -> conv3_1/dwise
I0929 19:42:28.387590 14878 net.cpp:150] Setting up conv3_1/dwise
I0929 19:42:28.387598 14878 net.cpp:157] Top shape: 1 144 75 128 (1382400)
I0929 19:42:28.387600 14878 net.cpp:165] Memory required for data: 186537696
I0929 19:42:28.387605 14878 layer_factory.hpp:77] Creating layer conv3_1/dwise/bn
I0929 19:42:28.387610 14878 net.cpp:100] Creating Layer conv3_1/dwise/bn
I0929 19:42:28.387614 14878 net.cpp:434] conv3_1/dwise/bn <- conv3_1/dwise
I0929 19:42:28.387619 14878 net.cpp:395] conv3_1/dwise/bn -> conv3_1/dwise (in-place)
I0929 19:42:28.387784 14878 net.cpp:150] Setting up conv3_1/dwise/bn
I0929 19:42:28.387791 14878 net.cpp:157] Top shape: 1 144 75 128 (1382400)
I0929 19:42:28.387794 14878 net.cpp:165] Memory required for data: 192067296
I0929 19:42:28.387801 14878 layer_factory.hpp:77] Creating layer conv3_1/dwise/scale
I0929 19:42:28.387807 14878 net.cpp:100] Creating Layer conv3_1/dwise/scale
I0929 19:42:28.387811 14878 net.cpp:434] conv3_1/dwise/scale <- conv3_1/dwise
I0929 19:42:28.387816 14878 net.cpp:395] conv3_1/dwise/scale -> conv3_1/dwise (in-place)
I0929 19:42:28.387850 14878 layer_factory.hpp:77] Creating layer conv3_1/dwise/scale
I0929 19:42:28.387939 14878 net.cpp:150] Setting up conv3_1/dwise/scale
I0929 19:42:28.387944 14878 net.cpp:157] Top shape: 1 144 75 128 (1382400)
I0929 19:42:28.387948 14878 net.cpp:165] Memory required for data: 197596896
I0929 19:42:28.387950 14878 layer_factory.hpp:77] Creating layer relu3_1/dwise
I0929 19:42:28.387953 14878 net.cpp:100] Creating Layer relu3_1/dwise
I0929 19:42:28.387956 14878 net.cpp:434] relu3_1/dwise <- conv3_1/dwise
I0929 19:42:28.387959 14878 net.cpp:395] relu3_1/dwise -> conv3_1/dwise (in-place)
I0929 19:42:28.388384 14878 net.cpp:150] Setting up relu3_1/dwise
I0929 19:42:28.388391 14878 net.cpp:157] Top shape: 1 144 75 128 (1382400)
I0929 19:42:28.388393 14878 net.cpp:165] Memory required for data: 203126496
I0929 19:42:28.388396 14878 layer_factory.hpp:77] Creating layer conv3_1/linear
I0929 19:42:28.388404 14878 net.cpp:100] Creating Layer conv3_1/linear
I0929 19:42:28.388407 14878 net.cpp:434] conv3_1/linear <- conv3_1/dwise
I0929 19:42:28.388422 14878 net.cpp:408] conv3_1/linear -> conv3_1/linear
I0929 19:42:28.389483 14878 net.cpp:150] Setting up conv3_1/linear
I0929 19:42:28.389492 14878 net.cpp:157] Top shape: 1 24 75 128 (230400)
I0929 19:42:28.389493 14878 net.cpp:165] Memory required for data: 204048096
I0929 19:42:28.389497 14878 layer_factory.hpp:77] Creating layer conv3_1/linear/bn
I0929 19:42:28.389503 14878 net.cpp:100] Creating Layer conv3_1/linear/bn
I0929 19:42:28.389508 14878 net.cpp:434] conv3_1/linear/bn <- conv3_1/linear
I0929 19:42:28.389513 14878 net.cpp:395] conv3_1/linear/bn -> conv3_1/linear (in-place)
I0929 19:42:28.389647 14878 net.cpp:150] Setting up conv3_1/linear/bn
I0929 19:42:28.389652 14878 net.cpp:157] Top shape: 1 24 75 128 (230400)
I0929 19:42:28.389654 14878 net.cpp:165] Memory required for data: 204969696
I0929 19:42:28.389660 14878 layer_factory.hpp:77] Creating layer conv3_1/linear/scale
I0929 19:42:28.389667 14878 net.cpp:100] Creating Layer conv3_1/linear/scale
I0929 19:42:28.389670 14878 net.cpp:434] conv3_1/linear/scale <- conv3_1/linear
I0929 19:42:28.389675 14878 net.cpp:395] conv3_1/linear/scale -> conv3_1/linear (in-place)
I0929 19:42:28.389706 14878 layer_factory.hpp:77] Creating layer conv3_1/linear/scale
I0929 19:42:28.389786 14878 net.cpp:150] Setting up conv3_1/linear/scale
I0929 19:42:28.389791 14878 net.cpp:157] Top shape: 1 24 75 128 (230400)
I0929 19:42:28.389793 14878 net.cpp:165] Memory required for data: 205891296
I0929 19:42:28.389798 14878 layer_factory.hpp:77] Creating layer block_3_1
I0929 19:42:28.389804 14878 net.cpp:100] Creating Layer block_3_1
I0929 19:42:28.389808 14878 net.cpp:434] block_3_1 <- conv2_2/linear_conv2_2/linear/scale_0_split_1
I0929 19:42:28.389813 14878 net.cpp:434] block_3_1 <- conv3_1/linear
I0929 19:42:28.389819 14878 net.cpp:408] block_3_1 -> block_3_1
I0929 19:42:28.389840 14878 net.cpp:150] Setting up block_3_1
I0929 19:42:28.389844 14878 net.cpp:157] Top shape: 1 24 75 128 (230400)
I0929 19:42:28.389847 14878 net.cpp:165] Memory required for data: 206812896
I0929 19:42:28.389849 14878 layer_factory.hpp:77] Creating layer conv3_2/expand
I0929 19:42:28.389858 14878 net.cpp:100] Creating Layer conv3_2/expand
I0929 19:42:28.389861 14878 net.cpp:434] conv3_2/expand <- block_3_1
I0929 19:42:28.389868 14878 net.cpp:408] conv3_2/expand -> conv3_2/expand
I0929 19:42:28.390954 14878 net.cpp:150] Setting up conv3_2/expand
I0929 19:42:28.390962 14878 net.cpp:157] Top shape: 1 144 75 128 (1382400)
I0929 19:42:28.390964 14878 net.cpp:165] Memory required for data: 212342496
I0929 19:42:28.390970 14878 layer_factory.hpp:77] Creating layer conv3_2/expand/bn
I0929 19:42:28.390976 14878 net.cpp:100] Creating Layer conv3_2/expand/bn
I0929 19:42:28.390980 14878 net.cpp:434] conv3_2/expand/bn <- conv3_2/expand
I0929 19:42:28.390987 14878 net.cpp:395] conv3_2/expand/bn -> conv3_2/expand (in-place)
I0929 19:42:28.391119 14878 net.cpp:150] Setting up conv3_2/expand/bn
I0929 19:42:28.391124 14878 net.cpp:157] Top shape: 1 144 75 128 (1382400)
I0929 19:42:28.391126 14878 net.cpp:165] Memory required for data: 217872096
I0929 19:42:28.391132 14878 layer_factory.hpp:77] Creating layer conv3_2/expand/scale
I0929 19:42:28.391139 14878 net.cpp:100] Creating Layer conv3_2/expand/scale
I0929 19:42:28.391142 14878 net.cpp:434] conv3_2/expand/scale <- conv3_2/expand
I0929 19:42:28.391147 14878 net.cpp:395] conv3_2/expand/scale -> conv3_2/expand (in-place)
I0929 19:42:28.391177 14878 layer_factory.hpp:77] Creating layer conv3_2/expand/scale
I0929 19:42:28.391254 14878 net.cpp:150] Setting up conv3_2/expand/scale
I0929 19:42:28.391259 14878 net.cpp:157] Top shape: 1 144 75 128 (1382400)
I0929 19:42:28.391261 14878 net.cpp:165] Memory required for data: 223401696
I0929 19:42:28.391275 14878 layer_factory.hpp:77] Creating layer relu3_2/expand
I0929 19:42:28.391280 14878 net.cpp:100] Creating Layer relu3_2/expand
I0929 19:42:28.391283 14878 net.cpp:434] relu3_2/expand <- conv3_2/expand
I0929 19:42:28.391286 14878 net.cpp:395] relu3_2/expand -> conv3_2/expand (in-place)
I0929 19:42:28.391671 14878 net.cpp:150] Setting up relu3_2/expand
I0929 19:42:28.391680 14878 net.cpp:157] Top shape: 1 144 75 128 (1382400)
I0929 19:42:28.391682 14878 net.cpp:165] Memory required for data: 228931296
I0929 19:42:28.391685 14878 layer_factory.hpp:77] Creating layer conv3_2/dwise
I0929 19:42:28.391692 14878 net.cpp:100] Creating Layer conv3_2/dwise
I0929 19:42:28.391696 14878 net.cpp:434] conv3_2/dwise <- conv3_2/expand
I0929 19:42:28.391703 14878 net.cpp:408] conv3_2/dwise -> conv3_2/dwise
I0929 19:42:28.391844 14878 net.cpp:150] Setting up conv3_2/dwise
I0929 19:42:28.391849 14878 net.cpp:157] Top shape: 1 144 38 64 (350208)
I0929 19:42:28.391852 14878 net.cpp:165] Memory required for data: 230332128
I0929 19:42:28.391856 14878 layer_factory.hpp:77] Creating layer conv3_2/dwise/bn
I0929 19:42:28.391862 14878 net.cpp:100] Creating Layer conv3_2/dwise/bn
I0929 19:42:28.391865 14878 net.cpp:434] conv3_2/dwise/bn <- conv3_2/dwise
I0929 19:42:28.391871 14878 net.cpp:395] conv3_2/dwise/bn -> conv3_2/dwise (in-place)
I0929 19:42:28.391999 14878 net.cpp:150] Setting up conv3_2/dwise/bn
I0929 19:42:28.392002 14878 net.cpp:157] Top shape: 1 144 38 64 (350208)
I0929 19:42:28.392005 14878 net.cpp:165] Memory required for data: 231732960
I0929 19:42:28.392012 14878 layer_factory.hpp:77] Creating layer conv3_2/dwise/scale
I0929 19:42:28.392019 14878 net.cpp:100] Creating Layer conv3_2/dwise/scale
I0929 19:42:28.392021 14878 net.cpp:434] conv3_2/dwise/scale <- conv3_2/dwise
I0929 19:42:28.392027 14878 net.cpp:395] conv3_2/dwise/scale -> conv3_2/dwise (in-place)
I0929 19:42:28.392058 14878 layer_factory.hpp:77] Creating layer conv3_2/dwise/scale
I0929 19:42:28.392132 14878 net.cpp:150] Setting up conv3_2/dwise/scale
I0929 19:42:28.392138 14878 net.cpp:157] Top shape: 1 144 38 64 (350208)
I0929 19:42:28.392141 14878 net.cpp:165] Memory required for data: 233133792
I0929 19:42:28.392148 14878 layer_factory.hpp:77] Creating layer relu3_2/dwise
I0929 19:42:28.392153 14878 net.cpp:100] Creating Layer relu3_2/dwise
I0929 19:42:28.392156 14878 net.cpp:434] relu3_2/dwise <- conv3_2/dwise
I0929 19:42:28.392160 14878 net.cpp:395] relu3_2/dwise -> conv3_2/dwise (in-place)
I0929 19:42:28.392436 14878 net.cpp:150] Setting up relu3_2/dwise
I0929 19:42:28.392441 14878 net.cpp:157] Top shape: 1 144 38 64 (350208)
I0929 19:42:28.392443 14878 net.cpp:165] Memory required for data: 234534624
I0929 19:42:28.392446 14878 layer_factory.hpp:77] Creating layer conv3_2/linear
I0929 19:42:28.392454 14878 net.cpp:100] Creating Layer conv3_2/linear
I0929 19:42:28.392457 14878 net.cpp:434] conv3_2/linear <- conv3_2/dwise
I0929 19:42:28.392463 14878 net.cpp:408] conv3_2/linear -> conv3_2/linear
I0929 19:42:28.393527 14878 net.cpp:150] Setting up conv3_2/linear
I0929 19:42:28.393534 14878 net.cpp:157] Top shape: 1 32 38 64 (77824)
I0929 19:42:28.393538 14878 net.cpp:165] Memory required for data: 234845920
I0929 19:42:28.393543 14878 layer_factory.hpp:77] Creating layer conv3_2/linear/bn
I0929 19:42:28.393549 14878 net.cpp:100] Creating Layer conv3_2/linear/bn
I0929 19:42:28.393553 14878 net.cpp:434] conv3_2/linear/bn <- conv3_2/linear
I0929 19:42:28.393558 14878 net.cpp:395] conv3_2/linear/bn -> conv3_2/linear (in-place)
I0929 19:42:28.393692 14878 net.cpp:150] Setting up conv3_2/linear/bn
I0929 19:42:28.393697 14878 net.cpp:157] Top shape: 1 32 38 64 (77824)
I0929 19:42:28.393700 14878 net.cpp:165] Memory required for data: 235157216
I0929 19:42:28.393707 14878 layer_factory.hpp:77] Creating layer conv3_2/linear/scale
I0929 19:42:28.393712 14878 net.cpp:100] Creating Layer conv3_2/linear/scale
I0929 19:42:28.393715 14878 net.cpp:434] conv3_2/linear/scale <- conv3_2/linear
I0929 19:42:28.393721 14878 net.cpp:395] conv3_2/linear/scale -> conv3_2/linear (in-place)
I0929 19:42:28.393752 14878 layer_factory.hpp:77] Creating layer conv3_2/linear/scale
I0929 19:42:28.393828 14878 net.cpp:150] Setting up conv3_2/linear/scale
I0929 19:42:28.393834 14878 net.cpp:157] Top shape: 1 32 38 64 (77824)
I0929 19:42:28.393837 14878 net.cpp:165] Memory required for data: 235468512
I0929 19:42:28.393851 14878 layer_factory.hpp:77] Creating layer conv3_2/linear_conv3_2/linear/scale_0_split
I0929 19:42:28.393857 14878 net.cpp:100] Creating Layer conv3_2/linear_conv3_2/linear/scale_0_split
I0929 19:42:28.393862 14878 net.cpp:434] conv3_2/linear_conv3_2/linear/scale_0_split <- conv3_2/linear
I0929 19:42:28.393867 14878 net.cpp:408] conv3_2/linear_conv3_2/linear/scale_0_split -> conv3_2/linear_conv3_2/linear/scale_0_split_0
I0929 19:42:28.393874 14878 net.cpp:408] conv3_2/linear_conv3_2/linear/scale_0_split -> conv3_2/linear_conv3_2/linear/scale_0_split_1
I0929 19:42:28.393903 14878 net.cpp:150] Setting up conv3_2/linear_conv3_2/linear/scale_0_split
I0929 19:42:28.393908 14878 net.cpp:157] Top shape: 1 32 38 64 (77824)
I0929 19:42:28.393913 14878 net.cpp:157] Top shape: 1 32 38 64 (77824)
I0929 19:42:28.393914 14878 net.cpp:165] Memory required for data: 236091104
I0929 19:42:28.393918 14878 layer_factory.hpp:77] Creating layer conv4_1/expand
I0929 19:42:28.393925 14878 net.cpp:100] Creating Layer conv4_1/expand
I0929 19:42:28.393929 14878 net.cpp:434] conv4_1/expand <- conv3_2/linear_conv3_2/linear/scale_0_split_0
I0929 19:42:28.393935 14878 net.cpp:408] conv4_1/expand -> conv4_1/expand
I0929 19:42:28.395007 14878 net.cpp:150] Setting up conv4_1/expand
I0929 19:42:28.395015 14878 net.cpp:157] Top shape: 1 192 38 64 (466944)
I0929 19:42:28.395016 14878 net.cpp:165] Memory required for data: 237958880
I0929 19:42:28.395021 14878 layer_factory.hpp:77] Creating layer conv4_1/expand/bn
I0929 19:42:28.395028 14878 net.cpp:100] Creating Layer conv4_1/expand/bn
I0929 19:42:28.395032 14878 net.cpp:434] conv4_1/expand/bn <- conv4_1/expand
I0929 19:42:28.395038 14878 net.cpp:395] conv4_1/expand/bn -> conv4_1/expand (in-place)
I0929 19:42:28.395169 14878 net.cpp:150] Setting up conv4_1/expand/bn
I0929 19:42:28.395174 14878 net.cpp:157] Top shape: 1 192 38 64 (466944)
I0929 19:42:28.395175 14878 net.cpp:165] Memory required for data: 239826656
I0929 19:42:28.395182 14878 layer_factory.hpp:77] Creating layer conv4_1/expand/scale
I0929 19:42:28.395189 14878 net.cpp:100] Creating Layer conv4_1/expand/scale
I0929 19:42:28.395192 14878 net.cpp:434] conv4_1/expand/scale <- conv4_1/expand
I0929 19:42:28.395197 14878 net.cpp:395] conv4_1/expand/scale -> conv4_1/expand (in-place)
I0929 19:42:28.395227 14878 layer_factory.hpp:77] Creating layer conv4_1/expand/scale
I0929 19:42:28.395303 14878 net.cpp:150] Setting up conv4_1/expand/scale
I0929 19:42:28.395308 14878 net.cpp:157] Top shape: 1 192 38 64 (466944)
I0929 19:42:28.395311 14878 net.cpp:165] Memory required for data: 241694432
I0929 19:42:28.395316 14878 layer_factory.hpp:77] Creating layer relu4_1/expand
I0929 19:42:28.395323 14878 net.cpp:100] Creating Layer relu4_1/expand
I0929 19:42:28.395325 14878 net.cpp:434] relu4_1/expand <- conv4_1/expand
I0929 19:42:28.395331 14878 net.cpp:395] relu4_1/expand -> conv4_1/expand (in-place)
I0929 19:42:28.395715 14878 net.cpp:150] Setting up relu4_1/expand
I0929 19:42:28.395722 14878 net.cpp:157] Top shape: 1 192 38 64 (466944)
I0929 19:42:28.395725 14878 net.cpp:165] Memory required for data: 243562208
I0929 19:42:28.395728 14878 layer_factory.hpp:77] Creating layer conv4_1/dwise
I0929 19:42:28.395736 14878 net.cpp:100] Creating Layer conv4_1/dwise
I0929 19:42:28.395740 14878 net.cpp:434] conv4_1/dwise <- conv4_1/expand
I0929 19:42:28.395746 14878 net.cpp:408] conv4_1/dwise -> conv4_1/dwise
I0929 19:42:28.395889 14878 net.cpp:150] Setting up conv4_1/dwise
I0929 19:42:28.395895 14878 net.cpp:157] Top shape: 1 192 38 64 (466944)
I0929 19:42:28.395896 14878 net.cpp:165] Memory required for data: 245429984
I0929 19:42:28.395901 14878 layer_factory.hpp:77] Creating layer conv4_1/dwise/bn
I0929 19:42:28.395907 14878 net.cpp:100] Creating Layer conv4_1/dwise/bn
I0929 19:42:28.395910 14878 net.cpp:434] conv4_1/dwise/bn <- conv4_1/dwise
I0929 19:42:28.395915 14878 net.cpp:395] conv4_1/dwise/bn -> conv4_1/dwise (in-place)
I0929 19:42:28.396045 14878 net.cpp:150] Setting up conv4_1/dwise/bn
I0929 19:42:28.396056 14878 net.cpp:157] Top shape: 1 192 38 64 (466944)
I0929 19:42:28.396059 14878 net.cpp:165] Memory required for data: 247297760
I0929 19:42:28.396065 14878 layer_factory.hpp:77] Creating layer conv4_1/dwise/scale
I0929 19:42:28.396070 14878 net.cpp:100] Creating Layer conv4_1/dwise/scale
I0929 19:42:28.396075 14878 net.cpp:434] conv4_1/dwise/scale <- conv4_1/dwise
I0929 19:42:28.396081 14878 net.cpp:395] conv4_1/dwise/scale -> conv4_1/dwise (in-place)
I0929 19:42:28.396112 14878 layer_factory.hpp:77] Creating layer conv4_1/dwise/scale
I0929 19:42:28.396186 14878 net.cpp:150] Setting up conv4_1/dwise/scale
I0929 19:42:28.396191 14878 net.cpp:157] Top shape: 1 192 38 64 (466944)
I0929 19:42:28.396194 14878 net.cpp:165] Memory required for data: 249165536
I0929 19:42:28.396199 14878 layer_factory.hpp:77] Creating layer relu4_1/dwise
I0929 19:42:28.396204 14878 net.cpp:100] Creating Layer relu4_1/dwise
I0929 19:42:28.396209 14878 net.cpp:434] relu4_1/dwise <- conv4_1/dwise
I0929 19:42:28.396214 14878 net.cpp:395] relu4_1/dwise -> conv4_1/dwise (in-place)
I0929 19:42:28.396486 14878 net.cpp:150] Setting up relu4_1/dwise
I0929 19:42:28.396492 14878 net.cpp:157] Top shape: 1 192 38 64 (466944)
I0929 19:42:28.396495 14878 net.cpp:165] Memory required for data: 251033312
I0929 19:42:28.396498 14878 layer_factory.hpp:77] Creating layer conv4_1/linear
I0929 19:42:28.396507 14878 net.cpp:100] Creating Layer conv4_1/linear
I0929 19:42:28.396509 14878 net.cpp:434] conv4_1/linear <- conv4_1/dwise
I0929 19:42:28.396517 14878 net.cpp:408] conv4_1/linear -> conv4_1/linear
I0929 19:42:28.397603 14878 net.cpp:150] Setting up conv4_1/linear
I0929 19:42:28.397610 14878 net.cpp:157] Top shape: 1 32 38 64 (77824)
I0929 19:42:28.397614 14878 net.cpp:165] Memory required for data: 251344608
I0929 19:42:28.397619 14878 layer_factory.hpp:77] Creating layer conv4_1/linear/bn
I0929 19:42:28.397625 14878 net.cpp:100] Creating Layer conv4_1/linear/bn
I0929 19:42:28.397629 14878 net.cpp:434] conv4_1/linear/bn <- conv4_1/linear
I0929 19:42:28.397635 14878 net.cpp:395] conv4_1/linear/bn -> conv4_1/linear (in-place)
I0929 19:42:28.397768 14878 net.cpp:150] Setting up conv4_1/linear/bn
I0929 19:42:28.397773 14878 net.cpp:157] Top shape: 1 32 38 64 (77824)
I0929 19:42:28.397774 14878 net.cpp:165] Memory required for data: 251655904
I0929 19:42:28.397780 14878 layer_factory.hpp:77] Creating layer conv4_1/linear/scale
I0929 19:42:28.397786 14878 net.cpp:100] Creating Layer conv4_1/linear/scale
I0929 19:42:28.397790 14878 net.cpp:434] conv4_1/linear/scale <- conv4_1/linear
I0929 19:42:28.397796 14878 net.cpp:395] conv4_1/linear/scale -> conv4_1/linear (in-place)
I0929 19:42:28.397828 14878 layer_factory.hpp:77] Creating layer conv4_1/linear/scale
I0929 19:42:28.397904 14878 net.cpp:150] Setting up conv4_1/linear/scale
I0929 19:42:28.397909 14878 net.cpp:157] Top shape: 1 32 38 64 (77824)
I0929 19:42:28.397912 14878 net.cpp:165] Memory required for data: 251967200
I0929 19:42:28.397917 14878 layer_factory.hpp:77] Creating layer block_4_1
I0929 19:42:28.397929 14878 net.cpp:100] Creating Layer block_4_1
I0929 19:42:28.397934 14878 net.cpp:434] block_4_1 <- conv3_2/linear_conv3_2/linear/scale_0_split_1
I0929 19:42:28.397936 14878 net.cpp:434] block_4_1 <- conv4_1/linear
I0929 19:42:28.397941 14878 net.cpp:408] block_4_1 -> block_4_1
I0929 19:42:28.397961 14878 net.cpp:150] Setting up block_4_1
I0929 19:42:28.397965 14878 net.cpp:157] Top shape: 1 32 38 64 (77824)
I0929 19:42:28.397969 14878 net.cpp:165] Memory required for data: 252278496
I0929 19:42:28.397971 14878 layer_factory.hpp:77] Creating layer block_4_1_block_4_1_0_split
I0929 19:42:28.397976 14878 net.cpp:100] Creating Layer block_4_1_block_4_1_0_split
I0929 19:42:28.397980 14878 net.cpp:434] block_4_1_block_4_1_0_split <- block_4_1
I0929 19:42:28.397985 14878 net.cpp:408] block_4_1_block_4_1_0_split -> block_4_1_block_4_1_0_split_0
I0929 19:42:28.397994 14878 net.cpp:408] block_4_1_block_4_1_0_split -> block_4_1_block_4_1_0_split_1
I0929 19:42:28.398025 14878 net.cpp:150] Setting up block_4_1_block_4_1_0_split
I0929 19:42:28.398036 14878 net.cpp:157] Top shape: 1 32 38 64 (77824)
I0929 19:42:28.398039 14878 net.cpp:157] Top shape: 1 32 38 64 (77824)
I0929 19:42:28.398042 14878 net.cpp:165] Memory required for data: 252901088
I0929 19:42:28.398046 14878 layer_factory.hpp:77] Creating layer conv4_2/expand
I0929 19:42:28.398053 14878 net.cpp:100] Creating Layer conv4_2/expand
I0929 19:42:28.398056 14878 net.cpp:434] conv4_2/expand <- block_4_1_block_4_1_0_split_0
I0929 19:42:28.398064 14878 net.cpp:408] conv4_2/expand -> conv4_2/expand
I0929 19:42:28.399241 14878 net.cpp:150] Setting up conv4_2/expand
I0929 19:42:28.399250 14878 net.cpp:157] Top shape: 1 192 38 64 (466944)
I0929 19:42:28.399251 14878 net.cpp:165] Memory required for data: 254768864
I0929 19:42:28.399256 14878 layer_factory.hpp:77] Creating layer conv4_2/expand/bn
I0929 19:42:28.399262 14878 net.cpp:100] Creating Layer conv4_2/expand/bn
I0929 19:42:28.399266 14878 net.cpp:434] conv4_2/expand/bn <- conv4_2/expand
I0929 19:42:28.399273 14878 net.cpp:395] conv4_2/expand/bn -> conv4_2/expand (in-place)
I0929 19:42:28.399405 14878 net.cpp:150] Setting up conv4_2/expand/bn
I0929 19:42:28.399408 14878 net.cpp:157] Top shape: 1 192 38 64 (466944)
I0929 19:42:28.399411 14878 net.cpp:165] Memory required for data: 256636640
I0929 19:42:28.399418 14878 layer_factory.hpp:77] Creating layer conv4_2/expand/scale
I0929 19:42:28.399423 14878 net.cpp:100] Creating Layer conv4_2/expand/scale
I0929 19:42:28.399427 14878 net.cpp:434] conv4_2/expand/scale <- conv4_2/expand
I0929 19:42:28.399433 14878 net.cpp:395] conv4_2/expand/scale -> conv4_2/expand (in-place)
I0929 19:42:28.399466 14878 layer_factory.hpp:77] Creating layer conv4_2/expand/scale
I0929 19:42:28.399541 14878 net.cpp:150] Setting up conv4_2/expand/scale
I0929 19:42:28.399546 14878 net.cpp:157] Top shape: 1 192 38 64 (466944)
I0929 19:42:28.399549 14878 net.cpp:165] Memory required for data: 258504416
I0929 19:42:28.399554 14878 layer_factory.hpp:77] Creating layer relu4_2/expand
I0929 19:42:28.399559 14878 net.cpp:100] Creating Layer relu4_2/expand
I0929 19:42:28.399562 14878 net.cpp:434] relu4_2/expand <- conv4_2/expand
I0929 19:42:28.399569 14878 net.cpp:395] relu4_2/expand -> conv4_2/expand (in-place)
I0929 19:42:28.399842 14878 net.cpp:150] Setting up relu4_2/expand
I0929 19:42:28.399848 14878 net.cpp:157] Top shape: 1 192 38 64 (466944)
I0929 19:42:28.399852 14878 net.cpp:165] Memory required for data: 260372192
I0929 19:42:28.399855 14878 layer_factory.hpp:77] Creating layer conv4_2/dwise
I0929 19:42:28.399863 14878 net.cpp:100] Creating Layer conv4_2/dwise
I0929 19:42:28.399865 14878 net.cpp:434] conv4_2/dwise <- conv4_2/expand
I0929 19:42:28.399871 14878 net.cpp:408] conv4_2/dwise -> conv4_2/dwise
I0929 19:42:28.400015 14878 net.cpp:150] Setting up conv4_2/dwise
I0929 19:42:28.400020 14878 net.cpp:157] Top shape: 1 192 38 64 (466944)
I0929 19:42:28.400023 14878 net.cpp:165] Memory required for data: 262239968
I0929 19:42:28.400027 14878 layer_factory.hpp:77] Creating layer conv4_2/dwise/bn
I0929 19:42:28.400032 14878 net.cpp:100] Creating Layer conv4_2/dwise/bn
I0929 19:42:28.400036 14878 net.cpp:434] conv4_2/dwise/bn <- conv4_2/dwise
I0929 19:42:28.400043 14878 net.cpp:395] conv4_2/dwise/bn -> conv4_2/dwise (in-place)
I0929 19:42:28.400172 14878 net.cpp:150] Setting up conv4_2/dwise/bn
I0929 19:42:28.400177 14878 net.cpp:157] Top shape: 1 192 38 64 (466944)
I0929 19:42:28.400180 14878 net.cpp:165] Memory required for data: 264107744
I0929 19:42:28.400185 14878 layer_factory.hpp:77] Creating layer conv4_2/dwise/scale
I0929 19:42:28.400192 14878 net.cpp:100] Creating Layer conv4_2/dwise/scale
I0929 19:42:28.400197 14878 net.cpp:434] conv4_2/dwise/scale <- conv4_2/dwise
I0929 19:42:28.400200 14878 net.cpp:395] conv4_2/dwise/scale -> conv4_2/dwise (in-place)
I0929 19:42:28.400231 14878 layer_factory.hpp:77] Creating layer conv4_2/dwise/scale
I0929 19:42:28.400308 14878 net.cpp:150] Setting up conv4_2/dwise/scale
I0929 19:42:28.400313 14878 net.cpp:157] Top shape: 1 192 38 64 (466944)
I0929 19:42:28.400323 14878 net.cpp:165] Memory required for data: 265975520
I0929 19:42:28.400329 14878 layer_factory.hpp:77] Creating layer relu4_2/dwise
I0929 19:42:28.400336 14878 net.cpp:100] Creating Layer relu4_2/dwise
I0929 19:42:28.400339 14878 net.cpp:434] relu4_2/dwise <- conv4_2/dwise
I0929 19:42:28.400344 14878 net.cpp:395] relu4_2/dwise -> conv4_2/dwise (in-place)
I0929 19:42:28.400615 14878 net.cpp:150] Setting up relu4_2/dwise
I0929 19:42:28.400621 14878 net.cpp:157] Top shape: 1 192 38 64 (466944)
I0929 19:42:28.400624 14878 net.cpp:165] Memory required for data: 267843296
I0929 19:42:28.400627 14878 layer_factory.hpp:77] Creating layer conv4_2/linear
I0929 19:42:28.400636 14878 net.cpp:100] Creating Layer conv4_2/linear
I0929 19:42:28.400640 14878 net.cpp:434] conv4_2/linear <- conv4_2/dwise
I0929 19:42:28.400645 14878 net.cpp:408] conv4_2/linear -> conv4_2/linear
I0929 19:42:28.401820 14878 net.cpp:150] Setting up conv4_2/linear
I0929 19:42:28.401827 14878 net.cpp:157] Top shape: 1 32 38 64 (77824)
I0929 19:42:28.401830 14878 net.cpp:165] Memory required for data: 268154592
I0929 19:42:28.401835 14878 layer_factory.hpp:77] Creating layer conv4_2/linear/bn
I0929 19:42:28.401841 14878 net.cpp:100] Creating Layer conv4_2/linear/bn
I0929 19:42:28.401845 14878 net.cpp:434] conv4_2/linear/bn <- conv4_2/linear
I0929 19:42:28.401849 14878 net.cpp:395] conv4_2/linear/bn -> conv4_2/linear (in-place)
I0929 19:42:28.402025 14878 net.cpp:150] Setting up conv4_2/linear/bn
I0929 19:42:28.402031 14878 net.cpp:157] Top shape: 1 32 38 64 (77824)
I0929 19:42:28.402035 14878 net.cpp:165] Memory required for data: 268465888
I0929 19:42:28.402041 14878 layer_factory.hpp:77] Creating layer conv4_2/linear/scale
I0929 19:42:28.402046 14878 net.cpp:100] Creating Layer conv4_2/linear/scale
I0929 19:42:28.402050 14878 net.cpp:434] conv4_2/linear/scale <- conv4_2/linear
I0929 19:42:28.402055 14878 net.cpp:395] conv4_2/linear/scale -> conv4_2/linear (in-place)
I0929 19:42:28.402089 14878 layer_factory.hpp:77] Creating layer conv4_2/linear/scale
I0929 19:42:28.402184 14878 net.cpp:150] Setting up conv4_2/linear/scale
I0929 19:42:28.402191 14878 net.cpp:157] Top shape: 1 32 38 64 (77824)
I0929 19:42:28.402194 14878 net.cpp:165] Memory required for data: 268777184
I0929 19:42:28.402199 14878 layer_factory.hpp:77] Creating layer block_4_2
I0929 19:42:28.402204 14878 net.cpp:100] Creating Layer block_4_2
I0929 19:42:28.402209 14878 net.cpp:434] block_4_2 <- block_4_1_block_4_1_0_split_1
I0929 19:42:28.402212 14878 net.cpp:434] block_4_2 <- conv4_2/linear
I0929 19:42:28.402217 14878 net.cpp:408] block_4_2 -> block_4_2
I0929 19:42:28.402237 14878 net.cpp:150] Setting up block_4_2
I0929 19:42:28.402243 14878 net.cpp:157] Top shape: 1 32 38 64 (77824)
I0929 19:42:28.402246 14878 net.cpp:165] Memory required for data: 269088480
I0929 19:42:28.402249 14878 layer_factory.hpp:77] Creating layer conv4_3/expand
I0929 19:42:28.402256 14878 net.cpp:100] Creating Layer conv4_3/expand
I0929 19:42:28.402261 14878 net.cpp:434] conv4_3/expand <- block_4_2
I0929 19:42:28.402266 14878 net.cpp:408] conv4_3/expand -> conv4_3/expand
I0929 19:42:28.403869 14878 net.cpp:150] Setting up conv4_3/expand
I0929 19:42:28.403878 14878 net.cpp:157] Top shape: 1 192 38 64 (466944)
I0929 19:42:28.403882 14878 net.cpp:165] Memory required for data: 270956256
I0929 19:42:28.403888 14878 layer_factory.hpp:77] Creating layer conv4_3/expand/bn
I0929 19:42:28.403894 14878 net.cpp:100] Creating Layer conv4_3/expand/bn
I0929 19:42:28.403898 14878 net.cpp:434] conv4_3/expand/bn <- conv4_3/expand
I0929 19:42:28.403903 14878 net.cpp:395] conv4_3/expand/bn -> conv4_3/expand (in-place)
I0929 19:42:28.404088 14878 net.cpp:150] Setting up conv4_3/expand/bn
I0929 19:42:28.404096 14878 net.cpp:157] Top shape: 1 192 38 64 (466944)
I0929 19:42:28.404099 14878 net.cpp:165] Memory required for data: 272824032
I0929 19:42:28.404106 14878 layer_factory.hpp:77] Creating layer conv4_3/expand/scale
I0929 19:42:28.404114 14878 net.cpp:100] Creating Layer conv4_3/expand/scale
I0929 19:42:28.404117 14878 net.cpp:434] conv4_3/expand/scale <- conv4_3/expand
I0929 19:42:28.404131 14878 net.cpp:395] conv4_3/expand/scale -> conv4_3/expand (in-place)
I0929 19:42:28.404167 14878 layer_factory.hpp:77] Creating layer conv4_3/expand/scale
I0929 19:42:28.404258 14878 net.cpp:150] Setting up conv4_3/expand/scale
I0929 19:42:28.404263 14878 net.cpp:157] Top shape: 1 192 38 64 (466944)
I0929 19:42:28.404266 14878 net.cpp:165] Memory required for data: 274691808
I0929 19:42:28.404269 14878 layer_factory.hpp:77] Creating layer relu4_3/expand
I0929 19:42:28.404274 14878 net.cpp:100] Creating Layer relu4_3/expand
I0929 19:42:28.404276 14878 net.cpp:434] relu4_3/expand <- conv4_3/expand
I0929 19:42:28.404279 14878 net.cpp:395] relu4_3/expand -> conv4_3/expand (in-place)
I0929 19:42:28.404554 14878 net.cpp:150] Setting up relu4_3/expand
I0929 19:42:28.404561 14878 net.cpp:157] Top shape: 1 192 38 64 (466944)
I0929 19:42:28.404562 14878 net.cpp:165] Memory required for data: 276559584
I0929 19:42:28.404564 14878 layer_factory.hpp:77] Creating layer conv4_3/dwise
I0929 19:42:28.404569 14878 net.cpp:100] Creating Layer conv4_3/dwise
I0929 19:42:28.404572 14878 net.cpp:434] conv4_3/dwise <- conv4_3/expand
I0929 19:42:28.404575 14878 net.cpp:408] conv4_3/dwise -> conv4_3/dwise
I0929 19:42:28.404734 14878 net.cpp:150] Setting up conv4_3/dwise
I0929 19:42:28.404741 14878 net.cpp:157] Top shape: 1 192 38 64 (466944)
I0929 19:42:28.404742 14878 net.cpp:165] Memory required for data: 278427360
I0929 19:42:28.404747 14878 layer_factory.hpp:77] Creating layer conv4_3/dwise/bn
I0929 19:42:28.404753 14878 net.cpp:100] Creating Layer conv4_3/dwise/bn
I0929 19:42:28.404757 14878 net.cpp:434] conv4_3/dwise/bn <- conv4_3/dwise
I0929 19:42:28.404763 14878 net.cpp:395] conv4_3/dwise/bn -> conv4_3/dwise (in-place)
I0929 19:42:28.404898 14878 net.cpp:150] Setting up conv4_3/dwise/bn
I0929 19:42:28.404902 14878 net.cpp:157] Top shape: 1 192 38 64 (466944)
I0929 19:42:28.404903 14878 net.cpp:165] Memory required for data: 280295136
I0929 19:42:28.404911 14878 layer_factory.hpp:77] Creating layer conv4_3/dwise/scale
I0929 19:42:28.404916 14878 net.cpp:100] Creating Layer conv4_3/dwise/scale
I0929 19:42:28.404919 14878 net.cpp:434] conv4_3/dwise/scale <- conv4_3/dwise
I0929 19:42:28.404923 14878 net.cpp:395] conv4_3/dwise/scale -> conv4_3/dwise (in-place)
I0929 19:42:28.404955 14878 layer_factory.hpp:77] Creating layer conv4_3/dwise/scale
I0929 19:42:28.405033 14878 net.cpp:150] Setting up conv4_3/dwise/scale
I0929 19:42:28.405037 14878 net.cpp:157] Top shape: 1 192 38 64 (466944)
I0929 19:42:28.405040 14878 net.cpp:165] Memory required for data: 282162912
I0929 19:42:28.405045 14878 layer_factory.hpp:77] Creating layer relu4_3/dwise
I0929 19:42:28.405050 14878 net.cpp:100] Creating Layer relu4_3/dwise
I0929 19:42:28.405055 14878 net.cpp:434] relu4_3/dwise <- conv4_3/dwise
I0929 19:42:28.405061 14878 net.cpp:395] relu4_3/dwise -> conv4_3/dwise (in-place)
I0929 19:42:28.405338 14878 net.cpp:150] Setting up relu4_3/dwise
I0929 19:42:28.405344 14878 net.cpp:157] Top shape: 1 192 38 64 (466944)
I0929 19:42:28.405345 14878 net.cpp:165] Memory required for data: 284030688
I0929 19:42:28.405349 14878 layer_factory.hpp:77] Creating layer conv4_3/linear
I0929 19:42:28.405357 14878 net.cpp:100] Creating Layer conv4_3/linear
I0929 19:42:28.405361 14878 net.cpp:434] conv4_3/linear <- conv4_3/dwise
I0929 19:42:28.405367 14878 net.cpp:408] conv4_3/linear -> conv4_3/linear
I0929 19:42:28.406638 14878 net.cpp:150] Setting up conv4_3/linear
I0929 19:42:28.406647 14878 net.cpp:157] Top shape: 1 64 38 64 (155648)
I0929 19:42:28.406648 14878 net.cpp:165] Memory required for data: 284653280
I0929 19:42:28.406652 14878 layer_factory.hpp:77] Creating layer conv4_3/linear/bn
I0929 19:42:28.406656 14878 net.cpp:100] Creating Layer conv4_3/linear/bn
I0929 19:42:28.406659 14878 net.cpp:434] conv4_3/linear/bn <- conv4_3/linear
I0929 19:42:28.406663 14878 net.cpp:395] conv4_3/linear/bn -> conv4_3/linear (in-place)
I0929 19:42:28.406803 14878 net.cpp:150] Setting up conv4_3/linear/bn
I0929 19:42:28.406807 14878 net.cpp:157] Top shape: 1 64 38 64 (155648)
I0929 19:42:28.406818 14878 net.cpp:165] Memory required for data: 285275872
I0929 19:42:28.406832 14878 layer_factory.hpp:77] Creating layer conv4_3/linear/scale
I0929 19:42:28.406838 14878 net.cpp:100] Creating Layer conv4_3/linear/scale
I0929 19:42:28.406842 14878 net.cpp:434] conv4_3/linear/scale <- conv4_3/linear
I0929 19:42:28.406847 14878 net.cpp:395] conv4_3/linear/scale -> conv4_3/linear (in-place)
I0929 19:42:28.406890 14878 layer_factory.hpp:77] Creating layer conv4_3/linear/scale
I0929 19:42:28.406970 14878 net.cpp:150] Setting up conv4_3/linear/scale
I0929 19:42:28.406975 14878 net.cpp:157] Top shape: 1 64 38 64 (155648)
I0929 19:42:28.406978 14878 net.cpp:165] Memory required for data: 285898464
I0929 19:42:28.406981 14878 layer_factory.hpp:77] Creating layer conv4_3/linear_conv4_3/linear/scale_0_split
I0929 19:42:28.406985 14878 net.cpp:100] Creating Layer conv4_3/linear_conv4_3/linear/scale_0_split
I0929 19:42:28.406988 14878 net.cpp:434] conv4_3/linear_conv4_3/linear/scale_0_split <- conv4_3/linear
I0929 19:42:28.406991 14878 net.cpp:408] conv4_3/linear_conv4_3/linear/scale_0_split -> conv4_3/linear_conv4_3/linear/scale_0_split_0
I0929 19:42:28.406996 14878 net.cpp:408] conv4_3/linear_conv4_3/linear/scale_0_split -> conv4_3/linear_conv4_3/linear/scale_0_split_1
I0929 19:42:28.407028 14878 net.cpp:150] Setting up conv4_3/linear_conv4_3/linear/scale_0_split
I0929 19:42:28.407032 14878 net.cpp:157] Top shape: 1 64 38 64 (155648)
I0929 19:42:28.407037 14878 net.cpp:157] Top shape: 1 64 38 64 (155648)
I0929 19:42:28.407039 14878 net.cpp:165] Memory required for data: 287143648
I0929 19:42:28.407042 14878 layer_factory.hpp:77] Creating layer conv4_4/expand
I0929 19:42:28.407049 14878 net.cpp:100] Creating Layer conv4_4/expand
I0929 19:42:28.407054 14878 net.cpp:434] conv4_4/expand <- conv4_3/linear_conv4_3/linear/scale_0_split_0
I0929 19:42:28.407059 14878 net.cpp:408] conv4_4/expand -> conv4_4/expand
I0929 19:42:28.408262 14878 net.cpp:150] Setting up conv4_4/expand
I0929 19:42:28.408268 14878 net.cpp:157] Top shape: 1 384 38 64 (933888)
I0929 19:42:28.408272 14878 net.cpp:165] Memory required for data: 290879200
I0929 19:42:28.408277 14878 layer_factory.hpp:77] Creating layer conv4_4/expand/bn
I0929 19:42:28.408282 14878 net.cpp:100] Creating Layer conv4_4/expand/bn
I0929 19:42:28.408287 14878 net.cpp:434] conv4_4/expand/bn <- conv4_4/expand
I0929 19:42:28.408293 14878 net.cpp:395] conv4_4/expand/bn -> conv4_4/expand (in-place)
I0929 19:42:28.408433 14878 net.cpp:150] Setting up conv4_4/expand/bn
I0929 19:42:28.408438 14878 net.cpp:157] Top shape: 1 384 38 64 (933888)
I0929 19:42:28.408440 14878 net.cpp:165] Memory required for data: 294614752
I0929 19:42:28.408447 14878 layer_factory.hpp:77] Creating layer conv4_4/expand/scale
I0929 19:42:28.408453 14878 net.cpp:100] Creating Layer conv4_4/expand/scale
I0929 19:42:28.408457 14878 net.cpp:434] conv4_4/expand/scale <- conv4_4/expand
I0929 19:42:28.408463 14878 net.cpp:395] conv4_4/expand/scale -> conv4_4/expand (in-place)
I0929 19:42:28.408493 14878 layer_factory.hpp:77] Creating layer conv4_4/expand/scale
I0929 19:42:28.408572 14878 net.cpp:150] Setting up conv4_4/expand/scale
I0929 19:42:28.408577 14878 net.cpp:157] Top shape: 1 384 38 64 (933888)
I0929 19:42:28.408579 14878 net.cpp:165] Memory required for data: 298350304
I0929 19:42:28.408582 14878 layer_factory.hpp:77] Creating layer relu4_4/expand
I0929 19:42:28.408586 14878 net.cpp:100] Creating Layer relu4_4/expand
I0929 19:42:28.408588 14878 net.cpp:434] relu4_4/expand <- conv4_4/expand
I0929 19:42:28.408591 14878 net.cpp:395] relu4_4/expand -> conv4_4/expand (in-place)
I0929 19:42:28.408867 14878 net.cpp:150] Setting up relu4_4/expand
I0929 19:42:28.408872 14878 net.cpp:157] Top shape: 1 384 38 64 (933888)
I0929 19:42:28.408875 14878 net.cpp:165] Memory required for data: 302085856
I0929 19:42:28.408879 14878 layer_factory.hpp:77] Creating layer conv4_4/dwise
I0929 19:42:28.408885 14878 net.cpp:100] Creating Layer conv4_4/dwise
I0929 19:42:28.408890 14878 net.cpp:434] conv4_4/dwise <- conv4_4/expand
I0929 19:42:28.408905 14878 net.cpp:408] conv4_4/dwise -> conv4_4/dwise
I0929 19:42:28.409063 14878 net.cpp:150] Setting up conv4_4/dwise
I0929 19:42:28.409068 14878 net.cpp:157] Top shape: 1 384 38 64 (933888)
I0929 19:42:28.409070 14878 net.cpp:165] Memory required for data: 305821408
I0929 19:42:28.409075 14878 layer_factory.hpp:77] Creating layer conv4_4/dwise/bn
I0929 19:42:28.409081 14878 net.cpp:100] Creating Layer conv4_4/dwise/bn
I0929 19:42:28.409085 14878 net.cpp:434] conv4_4/dwise/bn <- conv4_4/dwise
I0929 19:42:28.409090 14878 net.cpp:395] conv4_4/dwise/bn -> conv4_4/dwise (in-place)
I0929 19:42:28.409220 14878 net.cpp:150] Setting up conv4_4/dwise/bn
I0929 19:42:28.409225 14878 net.cpp:157] Top shape: 1 384 38 64 (933888)
I0929 19:42:28.409229 14878 net.cpp:165] Memory required for data: 309556960
I0929 19:42:28.409234 14878 layer_factory.hpp:77] Creating layer conv4_4/dwise/scale
I0929 19:42:28.409240 14878 net.cpp:100] Creating Layer conv4_4/dwise/scale
I0929 19:42:28.409243 14878 net.cpp:434] conv4_4/dwise/scale <- conv4_4/dwise
I0929 19:42:28.409248 14878 net.cpp:395] conv4_4/dwise/scale -> conv4_4/dwise (in-place)
I0929 19:42:28.409278 14878 layer_factory.hpp:77] Creating layer conv4_4/dwise/scale
I0929 19:42:28.409355 14878 net.cpp:150] Setting up conv4_4/dwise/scale
I0929 19:42:28.409359 14878 net.cpp:157] Top shape: 1 384 38 64 (933888)
I0929 19:42:28.409363 14878 net.cpp:165] Memory required for data: 313292512
I0929 19:42:28.409368 14878 layer_factory.hpp:77] Creating layer relu4_4/dwise
I0929 19:42:28.409373 14878 net.cpp:100] Creating Layer relu4_4/dwise
I0929 19:42:28.409377 14878 net.cpp:434] relu4_4/dwise <- conv4_4/dwise
I0929 19:42:28.409381 14878 net.cpp:395] relu4_4/dwise -> conv4_4/dwise (in-place)
I0929 19:42:28.409760 14878 net.cpp:150] Setting up relu4_4/dwise
I0929 19:42:28.409767 14878 net.cpp:157] Top shape: 1 384 38 64 (933888)
I0929 19:42:28.409770 14878 net.cpp:165] Memory required for data: 317028064
I0929 19:42:28.409773 14878 layer_factory.hpp:77] Creating layer conv4_4/linear
I0929 19:42:28.409780 14878 net.cpp:100] Creating Layer conv4_4/linear
I0929 19:42:28.409785 14878 net.cpp:434] conv4_4/linear <- conv4_4/dwise
I0929 19:42:28.409791 14878 net.cpp:408] conv4_4/linear -> conv4_4/linear
I0929 19:42:28.411023 14878 net.cpp:150] Setting up conv4_4/linear
I0929 19:42:28.411031 14878 net.cpp:157] Top shape: 1 64 38 64 (155648)
I0929 19:42:28.411033 14878 net.cpp:165] Memory required for data: 317650656
I0929 19:42:28.411038 14878 layer_factory.hpp:77] Creating layer conv4_4/linear/bn
I0929 19:42:28.411046 14878 net.cpp:100] Creating Layer conv4_4/linear/bn
I0929 19:42:28.411049 14878 net.cpp:434] conv4_4/linear/bn <- conv4_4/linear
I0929 19:42:28.411056 14878 net.cpp:395] conv4_4/linear/bn -> conv4_4/linear (in-place)
I0929 19:42:28.411196 14878 net.cpp:150] Setting up conv4_4/linear/bn
I0929 19:42:28.411201 14878 net.cpp:157] Top shape: 1 64 38 64 (155648)
I0929 19:42:28.411203 14878 net.cpp:165] Memory required for data: 318273248
I0929 19:42:28.411211 14878 layer_factory.hpp:77] Creating layer conv4_4/linear/scale
I0929 19:42:28.411217 14878 net.cpp:100] Creating Layer conv4_4/linear/scale
I0929 19:42:28.411221 14878 net.cpp:434] conv4_4/linear/scale <- conv4_4/linear
I0929 19:42:28.411226 14878 net.cpp:395] conv4_4/linear/scale -> conv4_4/linear (in-place)
I0929 19:42:28.411258 14878 layer_factory.hpp:77] Creating layer conv4_4/linear/scale
I0929 19:42:28.411339 14878 net.cpp:150] Setting up conv4_4/linear/scale
I0929 19:42:28.411342 14878 net.cpp:157] Top shape: 1 64 38 64 (155648)
I0929 19:42:28.411345 14878 net.cpp:165] Memory required for data: 318895840
I0929 19:42:28.411350 14878 layer_factory.hpp:77] Creating layer block_4_4
I0929 19:42:28.411358 14878 net.cpp:100] Creating Layer block_4_4
I0929 19:42:28.411361 14878 net.cpp:434] block_4_4 <- conv4_3/linear_conv4_3/linear/scale_0_split_1
I0929 19:42:28.411366 14878 net.cpp:434] block_4_4 <- conv4_4/linear
I0929 19:42:28.411372 14878 net.cpp:408] block_4_4 -> block_4_4
I0929 19:42:28.411402 14878 net.cpp:150] Setting up block_4_4
I0929 19:42:28.411406 14878 net.cpp:157] Top shape: 1 64 38 64 (155648)
I0929 19:42:28.411409 14878 net.cpp:165] Memory required for data: 319518432
I0929 19:42:28.411412 14878 layer_factory.hpp:77] Creating layer block_4_4_block_4_4_0_split
I0929 19:42:28.411418 14878 net.cpp:100] Creating Layer block_4_4_block_4_4_0_split
I0929 19:42:28.411422 14878 net.cpp:434] block_4_4_block_4_4_0_split <- block_4_4
I0929 19:42:28.411427 14878 net.cpp:408] block_4_4_block_4_4_0_split -> block_4_4_block_4_4_0_split_0
I0929 19:42:28.411433 14878 net.cpp:408] block_4_4_block_4_4_0_split -> block_4_4_block_4_4_0_split_1
I0929 19:42:28.411464 14878 net.cpp:150] Setting up block_4_4_block_4_4_0_split
I0929 19:42:28.411468 14878 net.cpp:157] Top shape: 1 64 38 64 (155648)
I0929 19:42:28.411471 14878 net.cpp:157] Top shape: 1 64 38 64 (155648)
I0929 19:42:28.411473 14878 net.cpp:165] Memory required for data: 320763616
I0929 19:42:28.411475 14878 layer_factory.hpp:77] Creating layer conv4_5/expand
I0929 19:42:28.411479 14878 net.cpp:100] Creating Layer conv4_5/expand
I0929 19:42:28.411481 14878 net.cpp:434] conv4_5/expand <- block_4_4_block_4_4_0_split_0
I0929 19:42:28.411485 14878 net.cpp:408] conv4_5/expand -> conv4_5/expand
I0929 19:42:28.412674 14878 net.cpp:150] Setting up conv4_5/expand
I0929 19:42:28.412681 14878 net.cpp:157] Top shape: 1 384 38 64 (933888)
I0929 19:42:28.412683 14878 net.cpp:165] Memory required for data: 324499168
I0929 19:42:28.412688 14878 layer_factory.hpp:77] Creating layer conv4_5/expand/bn
I0929 19:42:28.412693 14878 net.cpp:100] Creating Layer conv4_5/expand/bn
I0929 19:42:28.412695 14878 net.cpp:434] conv4_5/expand/bn <- conv4_5/expand
I0929 19:42:28.412698 14878 net.cpp:395] conv4_5/expand/bn -> conv4_5/expand (in-place)
I0929 19:42:28.412833 14878 net.cpp:150] Setting up conv4_5/expand/bn
I0929 19:42:28.412838 14878 net.cpp:157] Top shape: 1 384 38 64 (933888)
I0929 19:42:28.412840 14878 net.cpp:165] Memory required for data: 328234720
I0929 19:42:28.412845 14878 layer_factory.hpp:77] Creating layer conv4_5/expand/scale
I0929 19:42:28.412849 14878 net.cpp:100] Creating Layer conv4_5/expand/scale
I0929 19:42:28.412853 14878 net.cpp:434] conv4_5/expand/scale <- conv4_5/expand
I0929 19:42:28.412854 14878 net.cpp:395] conv4_5/expand/scale -> conv4_5/expand (in-place)
I0929 19:42:28.412883 14878 layer_factory.hpp:77] Creating layer conv4_5/expand/scale
I0929 19:42:28.412961 14878 net.cpp:150] Setting up conv4_5/expand/scale
I0929 19:42:28.412966 14878 net.cpp:157] Top shape: 1 384 38 64 (933888)
I0929 19:42:28.412968 14878 net.cpp:165] Memory required for data: 331970272
I0929 19:42:28.412972 14878 layer_factory.hpp:77] Creating layer relu4_5/expand
I0929 19:42:28.412976 14878 net.cpp:100] Creating Layer relu4_5/expand
I0929 19:42:28.412979 14878 net.cpp:434] relu4_5/expand <- conv4_5/expand
I0929 19:42:28.412981 14878 net.cpp:395] relu4_5/expand -> conv4_5/expand (in-place)
I0929 19:42:28.413256 14878 net.cpp:150] Setting up relu4_5/expand
I0929 19:42:28.413262 14878 net.cpp:157] Top shape: 1 384 38 64 (933888)
I0929 19:42:28.413265 14878 net.cpp:165] Memory required for data: 335705824
I0929 19:42:28.413267 14878 layer_factory.hpp:77] Creating layer conv4_5/dwise
I0929 19:42:28.413271 14878 net.cpp:100] Creating Layer conv4_5/dwise
I0929 19:42:28.413273 14878 net.cpp:434] conv4_5/dwise <- conv4_5/expand
I0929 19:42:28.413277 14878 net.cpp:408] conv4_5/dwise -> conv4_5/dwise
I0929 19:42:28.413434 14878 net.cpp:150] Setting up conv4_5/dwise
I0929 19:42:28.413439 14878 net.cpp:157] Top shape: 1 384 38 64 (933888)
I0929 19:42:28.413441 14878 net.cpp:165] Memory required for data: 339441376
I0929 19:42:28.413444 14878 layer_factory.hpp:77] Creating layer conv4_5/dwise/bn
I0929 19:42:28.413450 14878 net.cpp:100] Creating Layer conv4_5/dwise/bn
I0929 19:42:28.413451 14878 net.cpp:434] conv4_5/dwise/bn <- conv4_5/dwise
I0929 19:42:28.413455 14878 net.cpp:395] conv4_5/dwise/bn -> conv4_5/dwise (in-place)
I0929 19:42:28.413584 14878 net.cpp:150] Setting up conv4_5/dwise/bn
I0929 19:42:28.413596 14878 net.cpp:157] Top shape: 1 384 38 64 (933888)
I0929 19:42:28.413599 14878 net.cpp:165] Memory required for data: 343176928
I0929 19:42:28.413602 14878 layer_factory.hpp:77] Creating layer conv4_5/dwise/scale
I0929 19:42:28.413606 14878 net.cpp:100] Creating Layer conv4_5/dwise/scale
I0929 19:42:28.413609 14878 net.cpp:434] conv4_5/dwise/scale <- conv4_5/dwise
I0929 19:42:28.413614 14878 net.cpp:395] conv4_5/dwise/scale -> conv4_5/dwise (in-place)
I0929 19:42:28.413641 14878 layer_factory.hpp:77] Creating layer conv4_5/dwise/scale
I0929 19:42:28.413720 14878 net.cpp:150] Setting up conv4_5/dwise/scale
I0929 19:42:28.413724 14878 net.cpp:157] Top shape: 1 384 38 64 (933888)
I0929 19:42:28.413727 14878 net.cpp:165] Memory required for data: 346912480
I0929 19:42:28.413730 14878 layer_factory.hpp:77] Creating layer relu4_5/dwise
I0929 19:42:28.413734 14878 net.cpp:100] Creating Layer relu4_5/dwise
I0929 19:42:28.413738 14878 net.cpp:434] relu4_5/dwise <- conv4_5/dwise
I0929 19:42:28.413739 14878 net.cpp:395] relu4_5/dwise -> conv4_5/dwise (in-place)
I0929 19:42:28.414111 14878 net.cpp:150] Setting up relu4_5/dwise
I0929 19:42:28.414119 14878 net.cpp:157] Top shape: 1 384 38 64 (933888)
I0929 19:42:28.414120 14878 net.cpp:165] Memory required for data: 350648032
I0929 19:42:28.414122 14878 layer_factory.hpp:77] Creating layer conv4_5/linear
I0929 19:42:28.414129 14878 net.cpp:100] Creating Layer conv4_5/linear
I0929 19:42:28.414131 14878 net.cpp:434] conv4_5/linear <- conv4_5/dwise
I0929 19:42:28.414135 14878 net.cpp:408] conv4_5/linear -> conv4_5/linear
I0929 19:42:28.415329 14878 net.cpp:150] Setting up conv4_5/linear
I0929 19:42:28.415336 14878 net.cpp:157] Top shape: 1 64 38 64 (155648)
I0929 19:42:28.415338 14878 net.cpp:165] Memory required for data: 351270624
I0929 19:42:28.415343 14878 layer_factory.hpp:77] Creating layer conv4_5/linear/bn
I0929 19:42:28.415347 14878 net.cpp:100] Creating Layer conv4_5/linear/bn
I0929 19:42:28.415350 14878 net.cpp:434] conv4_5/linear/bn <- conv4_5/linear
I0929 19:42:28.415354 14878 net.cpp:395] conv4_5/linear/bn -> conv4_5/linear (in-place)
I0929 19:42:28.415493 14878 net.cpp:150] Setting up conv4_5/linear/bn
I0929 19:42:28.415498 14878 net.cpp:157] Top shape: 1 64 38 64 (155648)
I0929 19:42:28.415500 14878 net.cpp:165] Memory required for data: 351893216
I0929 19:42:28.415504 14878 layer_factory.hpp:77] Creating layer conv4_5/linear/scale
I0929 19:42:28.415509 14878 net.cpp:100] Creating Layer conv4_5/linear/scale
I0929 19:42:28.415511 14878 net.cpp:434] conv4_5/linear/scale <- conv4_5/linear
I0929 19:42:28.415514 14878 net.cpp:395] conv4_5/linear/scale -> conv4_5/linear (in-place)
I0929 19:42:28.415545 14878 layer_factory.hpp:77] Creating layer conv4_5/linear/scale
I0929 19:42:28.415629 14878 net.cpp:150] Setting up conv4_5/linear/scale
I0929 19:42:28.415633 14878 net.cpp:157] Top shape: 1 64 38 64 (155648)
I0929 19:42:28.415635 14878 net.cpp:165] Memory required for data: 352515808
I0929 19:42:28.415639 14878 layer_factory.hpp:77] Creating layer block_4_5
I0929 19:42:28.415643 14878 net.cpp:100] Creating Layer block_4_5
I0929 19:42:28.415647 14878 net.cpp:434] block_4_5 <- block_4_4_block_4_4_0_split_1
I0929 19:42:28.415648 14878 net.cpp:434] block_4_5 <- conv4_5/linear
I0929 19:42:28.415652 14878 net.cpp:408] block_4_5 -> block_4_5
I0929 19:42:28.415673 14878 net.cpp:150] Setting up block_4_5
I0929 19:42:28.415678 14878 net.cpp:157] Top shape: 1 64 38 64 (155648)
I0929 19:42:28.415680 14878 net.cpp:165] Memory required for data: 353138400
I0929 19:42:28.415683 14878 layer_factory.hpp:77] Creating layer block_4_5_block_4_5_0_split
I0929 19:42:28.415688 14878 net.cpp:100] Creating Layer block_4_5_block_4_5_0_split
I0929 19:42:28.415691 14878 net.cpp:434] block_4_5_block_4_5_0_split <- block_4_5
I0929 19:42:28.415697 14878 net.cpp:408] block_4_5_block_4_5_0_split -> block_4_5_block_4_5_0_split_0
I0929 19:42:28.415704 14878 net.cpp:408] block_4_5_block_4_5_0_split -> block_4_5_block_4_5_0_split_1
I0929 19:42:28.415735 14878 net.cpp:150] Setting up block_4_5_block_4_5_0_split
I0929 19:42:28.415745 14878 net.cpp:157] Top shape: 1 64 38 64 (155648)
I0929 19:42:28.415748 14878 net.cpp:157] Top shape: 1 64 38 64 (155648)
I0929 19:42:28.415750 14878 net.cpp:165] Memory required for data: 354383584
I0929 19:42:28.415752 14878 layer_factory.hpp:77] Creating layer conv4_6/expand
I0929 19:42:28.415757 14878 net.cpp:100] Creating Layer conv4_6/expand
I0929 19:42:28.415760 14878 net.cpp:434] conv4_6/expand <- block_4_5_block_4_5_0_split_0
I0929 19:42:28.415765 14878 net.cpp:408] conv4_6/expand -> conv4_6/expand
I0929 19:42:28.417023 14878 net.cpp:150] Setting up conv4_6/expand
I0929 19:42:28.417039 14878 net.cpp:157] Top shape: 1 384 38 64 (933888)
I0929 19:42:28.417040 14878 net.cpp:165] Memory required for data: 358119136
I0929 19:42:28.417047 14878 layer_factory.hpp:77] Creating layer conv4_6/expand/bn
I0929 19:42:28.417057 14878 net.cpp:100] Creating Layer conv4_6/expand/bn
I0929 19:42:28.417062 14878 net.cpp:434] conv4_6/expand/bn <- conv4_6/expand
I0929 19:42:28.417069 14878 net.cpp:395] conv4_6/expand/bn -> conv4_6/expand (in-place)
I0929 19:42:28.417214 14878 net.cpp:150] Setting up conv4_6/expand/bn
I0929 19:42:28.417218 14878 net.cpp:157] Top shape: 1 384 38 64 (933888)
I0929 19:42:28.417222 14878 net.cpp:165] Memory required for data: 361854688
I0929 19:42:28.417227 14878 layer_factory.hpp:77] Creating layer conv4_6/expand/scale
I0929 19:42:28.417235 14878 net.cpp:100] Creating Layer conv4_6/expand/scale
I0929 19:42:28.417239 14878 net.cpp:434] conv4_6/expand/scale <- conv4_6/expand
I0929 19:42:28.417244 14878 net.cpp:395] conv4_6/expand/scale -> conv4_6/expand (in-place)
I0929 19:42:28.417277 14878 layer_factory.hpp:77] Creating layer conv4_6/expand/scale
I0929 19:42:28.417358 14878 net.cpp:150] Setting up conv4_6/expand/scale
I0929 19:42:28.417363 14878 net.cpp:157] Top shape: 1 384 38 64 (933888)
I0929 19:42:28.417366 14878 net.cpp:165] Memory required for data: 365590240
I0929 19:42:28.417371 14878 layer_factory.hpp:77] Creating layer relu4_6/expand
I0929 19:42:28.417377 14878 net.cpp:100] Creating Layer relu4_6/expand
I0929 19:42:28.417382 14878 net.cpp:434] relu4_6/expand <- conv4_6/expand
I0929 19:42:28.417387 14878 net.cpp:395] relu4_6/expand -> conv4_6/expand (in-place)
I0929 19:42:28.417865 14878 net.cpp:150] Setting up relu4_6/expand
I0929 19:42:28.417872 14878 net.cpp:157] Top shape: 1 384 38 64 (933888)
I0929 19:42:28.417873 14878 net.cpp:165] Memory required for data: 369325792
I0929 19:42:28.417876 14878 layer_factory.hpp:77] Creating layer conv4_6/dwise
I0929 19:42:28.417886 14878 net.cpp:100] Creating Layer conv4_6/dwise
I0929 19:42:28.417889 14878 net.cpp:434] conv4_6/dwise <- conv4_6/expand
I0929 19:42:28.417896 14878 net.cpp:408] conv4_6/dwise -> conv4_6/dwise
I0929 19:42:28.418072 14878 net.cpp:150] Setting up conv4_6/dwise
I0929 19:42:28.418077 14878 net.cpp:157] Top shape: 1 384 38 64 (933888)
I0929 19:42:28.418079 14878 net.cpp:165] Memory required for data: 373061344
I0929 19:42:28.418083 14878 layer_factory.hpp:77] Creating layer conv4_6/dwise/bn
I0929 19:42:28.418089 14878 net.cpp:100] Creating Layer conv4_6/dwise/bn
I0929 19:42:28.418093 14878 net.cpp:434] conv4_6/dwise/bn <- conv4_6/dwise
I0929 19:42:28.418099 14878 net.cpp:395] conv4_6/dwise/bn -> conv4_6/dwise (in-place)
I0929 19:42:28.418234 14878 net.cpp:150] Setting up conv4_6/dwise/bn
I0929 19:42:28.418239 14878 net.cpp:157] Top shape: 1 384 38 64 (933888)
I0929 19:42:28.418241 14878 net.cpp:165] Memory required for data: 376796896
I0929 19:42:28.418247 14878 layer_factory.hpp:77] Creating layer conv4_6/dwise/scale
I0929 19:42:28.418254 14878 net.cpp:100] Creating Layer conv4_6/dwise/scale
I0929 19:42:28.418258 14878 net.cpp:434] conv4_6/dwise/scale <- conv4_6/dwise
I0929 19:42:28.418262 14878 net.cpp:395] conv4_6/dwise/scale -> conv4_6/dwise (in-place)
I0929 19:42:28.418293 14878 layer_factory.hpp:77] Creating layer conv4_6/dwise/scale
I0929 19:42:28.418375 14878 net.cpp:150] Setting up conv4_6/dwise/scale
I0929 19:42:28.418380 14878 net.cpp:157] Top shape: 1 384 38 64 (933888)
I0929 19:42:28.418396 14878 net.cpp:165] Memory required for data: 380532448
I0929 19:42:28.418403 14878 layer_factory.hpp:77] Creating layer relu4_6/dwise
I0929 19:42:28.418408 14878 net.cpp:100] Creating Layer relu4_6/dwise
I0929 19:42:28.418412 14878 net.cpp:434] relu4_6/dwise <- conv4_6/dwise
I0929 19:42:28.418417 14878 net.cpp:395] relu4_6/dwise -> conv4_6/dwise (in-place)
I0929 19:42:28.418709 14878 net.cpp:150] Setting up relu4_6/dwise
I0929 19:42:28.418715 14878 net.cpp:157] Top shape: 1 384 38 64 (933888)
I0929 19:42:28.418716 14878 net.cpp:165] Memory required for data: 384268000
I0929 19:42:28.418718 14878 layer_factory.hpp:77] Creating layer conv4_6/linear
I0929 19:42:28.418727 14878 net.cpp:100] Creating Layer conv4_6/linear
I0929 19:42:28.418731 14878 net.cpp:434] conv4_6/linear <- conv4_6/dwise
I0929 19:42:28.418738 14878 net.cpp:408] conv4_6/linear -> conv4_6/linear
I0929 19:42:28.419994 14878 net.cpp:150] Setting up conv4_6/linear
I0929 19:42:28.420002 14878 net.cpp:157] Top shape: 1 64 38 64 (155648)
I0929 19:42:28.420006 14878 net.cpp:165] Memory required for data: 384890592
I0929 19:42:28.420011 14878 layer_factory.hpp:77] Creating layer conv4_6/linear/bn
I0929 19:42:28.420017 14878 net.cpp:100] Creating Layer conv4_6/linear/bn
I0929 19:42:28.420022 14878 net.cpp:434] conv4_6/linear/bn <- conv4_6/linear
I0929 19:42:28.420028 14878 net.cpp:395] conv4_6/linear/bn -> conv4_6/linear (in-place)
I0929 19:42:28.420173 14878 net.cpp:150] Setting up conv4_6/linear/bn
I0929 19:42:28.420177 14878 net.cpp:157] Top shape: 1 64 38 64 (155648)
I0929 19:42:28.420179 14878 net.cpp:165] Memory required for data: 385513184
I0929 19:42:28.420186 14878 layer_factory.hpp:77] Creating layer conv4_6/linear/scale
I0929 19:42:28.420192 14878 net.cpp:100] Creating Layer conv4_6/linear/scale
I0929 19:42:28.420195 14878 net.cpp:434] conv4_6/linear/scale <- conv4_6/linear
I0929 19:42:28.420202 14878 net.cpp:395] conv4_6/linear/scale -> conv4_6/linear (in-place)
I0929 19:42:28.420235 14878 layer_factory.hpp:77] Creating layer conv4_6/linear/scale
I0929 19:42:28.420318 14878 net.cpp:150] Setting up conv4_6/linear/scale
I0929 19:42:28.420323 14878 net.cpp:157] Top shape: 1 64 38 64 (155648)
I0929 19:42:28.420325 14878 net.cpp:165] Memory required for data: 386135776
I0929 19:42:28.420328 14878 layer_factory.hpp:77] Creating layer block_4_6
I0929 19:42:28.420332 14878 net.cpp:100] Creating Layer block_4_6
I0929 19:42:28.420336 14878 net.cpp:434] block_4_6 <- block_4_5_block_4_5_0_split_1
I0929 19:42:28.420338 14878 net.cpp:434] block_4_6 <- conv4_6/linear
I0929 19:42:28.420342 14878 net.cpp:408] block_4_6 -> block_4_6
I0929 19:42:28.420361 14878 net.cpp:150] Setting up block_4_6
I0929 19:42:28.420367 14878 net.cpp:157] Top shape: 1 64 38 64 (155648)
I0929 19:42:28.420369 14878 net.cpp:165] Memory required for data: 386758368
I0929 19:42:28.420372 14878 layer_factory.hpp:77] Creating layer conv4_7/expand
I0929 19:42:28.420387 14878 net.cpp:100] Creating Layer conv4_7/expand
I0929 19:42:28.420389 14878 net.cpp:434] conv4_7/expand <- block_4_6
I0929 19:42:28.420393 14878 net.cpp:408] conv4_7/expand -> conv4_7/expand
I0929 19:42:28.421603 14878 net.cpp:150] Setting up conv4_7/expand
I0929 19:42:28.421610 14878 net.cpp:157] Top shape: 1 384 38 64 (933888)
I0929 19:42:28.421612 14878 net.cpp:165] Memory required for data: 390493920
I0929 19:42:28.421617 14878 layer_factory.hpp:77] Creating layer conv4_7/expand/bn
I0929 19:42:28.421624 14878 net.cpp:100] Creating Layer conv4_7/expand/bn
I0929 19:42:28.421628 14878 net.cpp:434] conv4_7/expand/bn <- conv4_7/expand
I0929 19:42:28.421633 14878 net.cpp:395] conv4_7/expand/bn -> conv4_7/expand (in-place)
I0929 19:42:28.421772 14878 net.cpp:150] Setting up conv4_7/expand/bn
I0929 19:42:28.421777 14878 net.cpp:157] Top shape: 1 384 38 64 (933888)
I0929 19:42:28.421779 14878 net.cpp:165] Memory required for data: 394229472
I0929 19:42:28.421785 14878 layer_factory.hpp:77] Creating layer conv4_7/expand/scale
I0929 19:42:28.421792 14878 net.cpp:100] Creating Layer conv4_7/expand/scale
I0929 19:42:28.421808 14878 net.cpp:434] conv4_7/expand/scale <- conv4_7/expand
I0929 19:42:28.421813 14878 net.cpp:395] conv4_7/expand/scale -> conv4_7/expand (in-place)
I0929 19:42:28.421844 14878 layer_factory.hpp:77] Creating layer conv4_7/expand/scale
I0929 19:42:28.421924 14878 net.cpp:150] Setting up conv4_7/expand/scale
I0929 19:42:28.421928 14878 net.cpp:157] Top shape: 1 384 38 64 (933888)
I0929 19:42:28.421932 14878 net.cpp:165] Memory required for data: 397965024
I0929 19:42:28.421936 14878 layer_factory.hpp:77] Creating layer relu4_7/expand
I0929 19:42:28.421943 14878 net.cpp:100] Creating Layer relu4_7/expand
I0929 19:42:28.421947 14878 net.cpp:434] relu4_7/expand <- conv4_7/expand
I0929 19:42:28.421952 14878 net.cpp:395] relu4_7/expand -> conv4_7/expand (in-place)
I0929 19:42:28.422339 14878 net.cpp:150] Setting up relu4_7/expand
I0929 19:42:28.422346 14878 net.cpp:157] Top shape: 1 384 38 64 (933888)
I0929 19:42:28.422348 14878 net.cpp:165] Memory required for data: 401700576
I0929 19:42:28.422350 14878 layer_factory.hpp:77] Creating layer conv4_7/dwise
I0929 19:42:28.422356 14878 net.cpp:100] Creating Layer conv4_7/dwise
I0929 19:42:28.422359 14878 net.cpp:434] conv4_7/dwise <- conv4_7/expand
I0929 19:42:28.422363 14878 net.cpp:408] conv4_7/dwise -> conv4_7/dwise
I0929 19:42:28.422526 14878 net.cpp:150] Setting up conv4_7/dwise
I0929 19:42:28.422531 14878 net.cpp:157] Top shape: 1 384 19 32 (233472)
I0929 19:42:28.422534 14878 net.cpp:165] Memory required for data: 402634464
I0929 19:42:28.422538 14878 layer_factory.hpp:77] Creating layer conv4_7/dwise/bn
I0929 19:42:28.422541 14878 net.cpp:100] Creating Layer conv4_7/dwise/bn
I0929 19:42:28.422544 14878 net.cpp:434] conv4_7/dwise/bn <- conv4_7/dwise
I0929 19:42:28.422546 14878 net.cpp:395] conv4_7/dwise/bn -> conv4_7/dwise (in-place)
I0929 19:42:28.422680 14878 net.cpp:150] Setting up conv4_7/dwise/bn
I0929 19:42:28.422685 14878 net.cpp:157] Top shape: 1 384 19 32 (233472)
I0929 19:42:28.422688 14878 net.cpp:165] Memory required for data: 403568352
I0929 19:42:28.422691 14878 layer_factory.hpp:77] Creating layer conv4_7/dwise/scale
I0929 19:42:28.422695 14878 net.cpp:100] Creating Layer conv4_7/dwise/scale
I0929 19:42:28.422698 14878 net.cpp:434] conv4_7/dwise/scale <- conv4_7/dwise
I0929 19:42:28.422701 14878 net.cpp:395] conv4_7/dwise/scale -> conv4_7/dwise (in-place)
I0929 19:42:28.422734 14878 layer_factory.hpp:77] Creating layer conv4_7/dwise/scale
I0929 19:42:28.422819 14878 net.cpp:150] Setting up conv4_7/dwise/scale
I0929 19:42:28.422824 14878 net.cpp:157] Top shape: 1 384 19 32 (233472)
I0929 19:42:28.422827 14878 net.cpp:165] Memory required for data: 404502240
I0929 19:42:28.422830 14878 layer_factory.hpp:77] Creating layer relu4_7/dwise
I0929 19:42:28.422833 14878 net.cpp:100] Creating Layer relu4_7/dwise
I0929 19:42:28.422835 14878 net.cpp:434] relu4_7/dwise <- conv4_7/dwise
I0929 19:42:28.422839 14878 net.cpp:395] relu4_7/dwise -> conv4_7/dwise (in-place)
I0929 19:42:28.423120 14878 net.cpp:150] Setting up relu4_7/dwise
I0929 19:42:28.423126 14878 net.cpp:157] Top shape: 1 384 19 32 (233472)
I0929 19:42:28.423127 14878 net.cpp:165] Memory required for data: 405436128
I0929 19:42:28.423130 14878 layer_factory.hpp:77] Creating layer conv4_7/linear
I0929 19:42:28.423135 14878 net.cpp:100] Creating Layer conv4_7/linear
I0929 19:42:28.423138 14878 net.cpp:434] conv4_7/linear <- conv4_7/dwise
I0929 19:42:28.423142 14878 net.cpp:408] conv4_7/linear -> conv4_7/linear
I0929 19:42:28.424432 14878 net.cpp:150] Setting up conv4_7/linear
I0929 19:42:28.424439 14878 net.cpp:157] Top shape: 1 96 19 32 (58368)
I0929 19:42:28.424440 14878 net.cpp:165] Memory required for data: 405669600
I0929 19:42:28.424444 14878 layer_factory.hpp:77] Creating layer conv4_7/linear/bn
I0929 19:42:28.424449 14878 net.cpp:100] Creating Layer conv4_7/linear/bn
I0929 19:42:28.424451 14878 net.cpp:434] conv4_7/linear/bn <- conv4_7/linear
I0929 19:42:28.424455 14878 net.cpp:395] conv4_7/linear/bn -> conv4_7/linear (in-place)
I0929 19:42:28.424607 14878 net.cpp:150] Setting up conv4_7/linear/bn
I0929 19:42:28.424621 14878 net.cpp:157] Top shape: 1 96 19 32 (58368)
I0929 19:42:28.424623 14878 net.cpp:165] Memory required for data: 405903072
I0929 19:42:28.424628 14878 layer_factory.hpp:77] Creating layer conv4_7/linear/scale
I0929 19:42:28.424631 14878 net.cpp:100] Creating Layer conv4_7/linear/scale
I0929 19:42:28.424634 14878 net.cpp:434] conv4_7/linear/scale <- conv4_7/linear
I0929 19:42:28.424638 14878 net.cpp:395] conv4_7/linear/scale -> conv4_7/linear (in-place)
I0929 19:42:28.424671 14878 layer_factory.hpp:77] Creating layer conv4_7/linear/scale
I0929 19:42:28.424763 14878 net.cpp:150] Setting up conv4_7/linear/scale
I0929 19:42:28.424768 14878 net.cpp:157] Top shape: 1 96 19 32 (58368)
I0929 19:42:28.424770 14878 net.cpp:165] Memory required for data: 406136544
I0929 19:42:28.424773 14878 layer_factory.hpp:77] Creating layer conv4_7/linear_conv4_7/linear/scale_0_split
I0929 19:42:28.424778 14878 net.cpp:100] Creating Layer conv4_7/linear_conv4_7/linear/scale_0_split
I0929 19:42:28.424782 14878 net.cpp:434] conv4_7/linear_conv4_7/linear/scale_0_split <- conv4_7/linear
I0929 19:42:28.424784 14878 net.cpp:408] conv4_7/linear_conv4_7/linear/scale_0_split -> conv4_7/linear_conv4_7/linear/scale_0_split_0
I0929 19:42:28.424788 14878 net.cpp:408] conv4_7/linear_conv4_7/linear/scale_0_split -> conv4_7/linear_conv4_7/linear/scale_0_split_1
I0929 19:42:28.424819 14878 net.cpp:150] Setting up conv4_7/linear_conv4_7/linear/scale_0_split
I0929 19:42:28.424824 14878 net.cpp:157] Top shape: 1 96 19 32 (58368)
I0929 19:42:28.424826 14878 net.cpp:157] Top shape: 1 96 19 32 (58368)
I0929 19:42:28.424829 14878 net.cpp:165] Memory required for data: 406603488
I0929 19:42:28.424830 14878 layer_factory.hpp:77] Creating layer conv5_1/expand
I0929 19:42:28.424836 14878 net.cpp:100] Creating Layer conv5_1/expand
I0929 19:42:28.424839 14878 net.cpp:434] conv5_1/expand <- conv4_7/linear_conv4_7/linear/scale_0_split_0
I0929 19:42:28.424841 14878 net.cpp:408] conv5_1/expand -> conv5_1/expand
I0929 19:42:28.426331 14878 net.cpp:150] Setting up conv5_1/expand
I0929 19:42:28.426338 14878 net.cpp:157] Top shape: 1 576 19 32 (350208)
I0929 19:42:28.426339 14878 net.cpp:165] Memory required for data: 408004320
I0929 19:42:28.426343 14878 layer_factory.hpp:77] Creating layer conv5_1/expand/bn
I0929 19:42:28.426348 14878 net.cpp:100] Creating Layer conv5_1/expand/bn
I0929 19:42:28.426352 14878 net.cpp:434] conv5_1/expand/bn <- conv5_1/expand
I0929 19:42:28.426355 14878 net.cpp:395] conv5_1/expand/bn -> conv5_1/expand (in-place)
I0929 19:42:28.426506 14878 net.cpp:150] Setting up conv5_1/expand/bn
I0929 19:42:28.426511 14878 net.cpp:157] Top shape: 1 576 19 32 (350208)
I0929 19:42:28.426512 14878 net.cpp:165] Memory required for data: 409405152
I0929 19:42:28.426517 14878 layer_factory.hpp:77] Creating layer conv5_1/expand/scale
I0929 19:42:28.426522 14878 net.cpp:100] Creating Layer conv5_1/expand/scale
I0929 19:42:28.426523 14878 net.cpp:434] conv5_1/expand/scale <- conv5_1/expand
I0929 19:42:28.426527 14878 net.cpp:395] conv5_1/expand/scale -> conv5_1/expand (in-place)
I0929 19:42:28.426560 14878 layer_factory.hpp:77] Creating layer conv5_1/expand/scale
I0929 19:42:28.426654 14878 net.cpp:150] Setting up conv5_1/expand/scale
I0929 19:42:28.426658 14878 net.cpp:157] Top shape: 1 576 19 32 (350208)
I0929 19:42:28.426661 14878 net.cpp:165] Memory required for data: 410805984
I0929 19:42:28.426664 14878 layer_factory.hpp:77] Creating layer relu5_1/expand
I0929 19:42:28.426668 14878 net.cpp:100] Creating Layer relu5_1/expand
I0929 19:42:28.426671 14878 net.cpp:434] relu5_1/expand <- conv5_1/expand
I0929 19:42:28.426673 14878 net.cpp:395] relu5_1/expand -> conv5_1/expand (in-place)
I0929 19:42:28.426962 14878 net.cpp:150] Setting up relu5_1/expand
I0929 19:42:28.426968 14878 net.cpp:157] Top shape: 1 576 19 32 (350208)
I0929 19:42:28.426970 14878 net.cpp:165] Memory required for data: 412206816
I0929 19:42:28.426972 14878 layer_factory.hpp:77] Creating layer conv5_1/dwise
I0929 19:42:28.426977 14878 net.cpp:100] Creating Layer conv5_1/dwise
I0929 19:42:28.426988 14878 net.cpp:434] conv5_1/dwise <- conv5_1/expand
I0929 19:42:28.426992 14878 net.cpp:408] conv5_1/dwise -> conv5_1/dwise
I0929 19:42:28.427171 14878 net.cpp:150] Setting up conv5_1/dwise
I0929 19:42:28.427177 14878 net.cpp:157] Top shape: 1 576 19 32 (350208)
I0929 19:42:28.427179 14878 net.cpp:165] Memory required for data: 413607648
I0929 19:42:28.427182 14878 layer_factory.hpp:77] Creating layer conv5_1/dwise/bn
I0929 19:42:28.427186 14878 net.cpp:100] Creating Layer conv5_1/dwise/bn
I0929 19:42:28.427188 14878 net.cpp:434] conv5_1/dwise/bn <- conv5_1/dwise
I0929 19:42:28.427191 14878 net.cpp:395] conv5_1/dwise/bn -> conv5_1/dwise (in-place)
I0929 19:42:28.427338 14878 net.cpp:150] Setting up conv5_1/dwise/bn
I0929 19:42:28.427342 14878 net.cpp:157] Top shape: 1 576 19 32 (350208)
I0929 19:42:28.427345 14878 net.cpp:165] Memory required for data: 415008480
I0929 19:42:28.427350 14878 layer_factory.hpp:77] Creating layer conv5_1/dwise/scale
I0929 19:42:28.427353 14878 net.cpp:100] Creating Layer conv5_1/dwise/scale
I0929 19:42:28.427356 14878 net.cpp:434] conv5_1/dwise/scale <- conv5_1/dwise
I0929 19:42:28.427359 14878 net.cpp:395] conv5_1/dwise/scale -> conv5_1/dwise (in-place)
I0929 19:42:28.427392 14878 layer_factory.hpp:77] Creating layer conv5_1/dwise/scale
I0929 19:42:28.427479 14878 net.cpp:150] Setting up conv5_1/dwise/scale
I0929 19:42:28.427484 14878 net.cpp:157] Top shape: 1 576 19 32 (350208)
I0929 19:42:28.427487 14878 net.cpp:165] Memory required for data: 416409312
I0929 19:42:28.427491 14878 layer_factory.hpp:77] Creating layer relu5_1/dwise
I0929 19:42:28.427498 14878 net.cpp:100] Creating Layer relu5_1/dwise
I0929 19:42:28.427502 14878 net.cpp:434] relu5_1/dwise <- conv5_1/dwise
I0929 19:42:28.427507 14878 net.cpp:395] relu5_1/dwise -> conv5_1/dwise (in-place)
I0929 19:42:28.427788 14878 net.cpp:150] Setting up relu5_1/dwise
I0929 19:42:28.427793 14878 net.cpp:157] Top shape: 1 576 19 32 (350208)
I0929 19:42:28.427795 14878 net.cpp:165] Memory required for data: 417810144
I0929 19:42:28.427798 14878 layer_factory.hpp:77] Creating layer conv5_1/linear
I0929 19:42:28.427803 14878 net.cpp:100] Creating Layer conv5_1/linear
I0929 19:42:28.427805 14878 net.cpp:434] conv5_1/linear <- conv5_1/dwise
I0929 19:42:28.427809 14878 net.cpp:408] conv5_1/linear -> conv5_1/linear
I0929 19:42:28.429368 14878 net.cpp:150] Setting up conv5_1/linear
I0929 19:42:28.429374 14878 net.cpp:157] Top shape: 1 96 19 32 (58368)
I0929 19:42:28.429378 14878 net.cpp:165] Memory required for data: 418043616
I0929 19:42:28.429380 14878 layer_factory.hpp:77] Creating layer conv5_1/linear/bn
I0929 19:42:28.429385 14878 net.cpp:100] Creating Layer conv5_1/linear/bn
I0929 19:42:28.429388 14878 net.cpp:434] conv5_1/linear/bn <- conv5_1/linear
I0929 19:42:28.429391 14878 net.cpp:395] conv5_1/linear/bn -> conv5_1/linear (in-place)
I0929 19:42:28.429543 14878 net.cpp:150] Setting up conv5_1/linear/bn
I0929 19:42:28.429548 14878 net.cpp:157] Top shape: 1 96 19 32 (58368)
I0929 19:42:28.429550 14878 net.cpp:165] Memory required for data: 418277088
I0929 19:42:28.429554 14878 layer_factory.hpp:77] Creating layer conv5_1/linear/scale
I0929 19:42:28.429558 14878 net.cpp:100] Creating Layer conv5_1/linear/scale
I0929 19:42:28.429561 14878 net.cpp:434] conv5_1/linear/scale <- conv5_1/linear
I0929 19:42:28.429563 14878 net.cpp:395] conv5_1/linear/scale -> conv5_1/linear (in-place)
I0929 19:42:28.429596 14878 layer_factory.hpp:77] Creating layer conv5_1/linear/scale
I0929 19:42:28.429689 14878 net.cpp:150] Setting up conv5_1/linear/scale
I0929 19:42:28.429694 14878 net.cpp:157] Top shape: 1 96 19 32 (58368)
I0929 19:42:28.429697 14878 net.cpp:165] Memory required for data: 418510560
I0929 19:42:28.429699 14878 layer_factory.hpp:77] Creating layer block_5_1
I0929 19:42:28.429703 14878 net.cpp:100] Creating Layer block_5_1
I0929 19:42:28.429706 14878 net.cpp:434] block_5_1 <- conv4_7/linear_conv4_7/linear/scale_0_split_1
I0929 19:42:28.429708 14878 net.cpp:434] block_5_1 <- conv5_1/linear
I0929 19:42:28.429713 14878 net.cpp:408] block_5_1 -> block_5_1
I0929 19:42:28.429740 14878 net.cpp:150] Setting up block_5_1
I0929 19:42:28.429745 14878 net.cpp:157] Top shape: 1 96 19 32 (58368)
I0929 19:42:28.429749 14878 net.cpp:165] Memory required for data: 418744032
I0929 19:42:28.429751 14878 layer_factory.hpp:77] Creating layer block_5_1_block_5_1_0_split
I0929 19:42:28.429757 14878 net.cpp:100] Creating Layer block_5_1_block_5_1_0_split
I0929 19:42:28.429760 14878 net.cpp:434] block_5_1_block_5_1_0_split <- block_5_1
I0929 19:42:28.429764 14878 net.cpp:408] block_5_1_block_5_1_0_split -> block_5_1_block_5_1_0_split_0
I0929 19:42:28.429767 14878 net.cpp:408] block_5_1_block_5_1_0_split -> block_5_1_block_5_1_0_split_1
I0929 19:42:28.429797 14878 net.cpp:150] Setting up block_5_1_block_5_1_0_split
I0929 19:42:28.429802 14878 net.cpp:157] Top shape: 1 96 19 32 (58368)
I0929 19:42:28.429805 14878 net.cpp:157] Top shape: 1 96 19 32 (58368)
I0929 19:42:28.429808 14878 net.cpp:165] Memory required for data: 419210976
I0929 19:42:28.429811 14878 layer_factory.hpp:77] Creating layer conv5_2/expand
I0929 19:42:28.429818 14878 net.cpp:100] Creating Layer conv5_2/expand
I0929 19:42:28.429822 14878 net.cpp:434] conv5_2/expand <- block_5_1_block_5_1_0_split_0
I0929 19:42:28.429828 14878 net.cpp:408] conv5_2/expand -> conv5_2/expand
I0929 19:42:28.431315 14878 net.cpp:150] Setting up conv5_2/expand
I0929 19:42:28.431322 14878 net.cpp:157] Top shape: 1 576 19 32 (350208)
I0929 19:42:28.431325 14878 net.cpp:165] Memory required for data: 420611808
I0929 19:42:28.431329 14878 layer_factory.hpp:77] Creating layer conv5_2/expand/bn
I0929 19:42:28.431336 14878 net.cpp:100] Creating Layer conv5_2/expand/bn
I0929 19:42:28.431340 14878 net.cpp:434] conv5_2/expand/bn <- conv5_2/expand
I0929 19:42:28.431347 14878 net.cpp:395] conv5_2/expand/bn -> conv5_2/expand (in-place)
I0929 19:42:28.431497 14878 net.cpp:150] Setting up conv5_2/expand/bn
I0929 19:42:28.431502 14878 net.cpp:157] Top shape: 1 576 19 32 (350208)
I0929 19:42:28.431504 14878 net.cpp:165] Memory required for data: 422012640
I0929 19:42:28.431510 14878 layer_factory.hpp:77] Creating layer conv5_2/expand/scale
I0929 19:42:28.431517 14878 net.cpp:100] Creating Layer conv5_2/expand/scale
I0929 19:42:28.431520 14878 net.cpp:434] conv5_2/expand/scale <- conv5_2/expand
I0929 19:42:28.431525 14878 net.cpp:395] conv5_2/expand/scale -> conv5_2/expand (in-place)
I0929 19:42:28.431561 14878 layer_factory.hpp:77] Creating layer conv5_2/expand/scale
I0929 19:42:28.431650 14878 net.cpp:150] Setting up conv5_2/expand/scale
I0929 19:42:28.431655 14878 net.cpp:157] Top shape: 1 576 19 32 (350208)
I0929 19:42:28.431658 14878 net.cpp:165] Memory required for data: 423413472
I0929 19:42:28.431665 14878 layer_factory.hpp:77] Creating layer relu5_2/expand
I0929 19:42:28.431670 14878 net.cpp:100] Creating Layer relu5_2/expand
I0929 19:42:28.431674 14878 net.cpp:434] relu5_2/expand <- conv5_2/expand
I0929 19:42:28.431679 14878 net.cpp:395] relu5_2/expand -> conv5_2/expand (in-place)
I0929 19:42:28.431959 14878 net.cpp:150] Setting up relu5_2/expand
I0929 19:42:28.431964 14878 net.cpp:157] Top shape: 1 576 19 32 (350208)
I0929 19:42:28.431967 14878 net.cpp:165] Memory required for data: 424814304
I0929 19:42:28.431970 14878 layer_factory.hpp:77] Creating layer conv5_2/dwise
I0929 19:42:28.431977 14878 net.cpp:100] Creating Layer conv5_2/dwise
I0929 19:42:28.431982 14878 net.cpp:434] conv5_2/dwise <- conv5_2/expand
I0929 19:42:28.431988 14878 net.cpp:408] conv5_2/dwise -> conv5_2/dwise
I0929 19:42:28.432168 14878 net.cpp:150] Setting up conv5_2/dwise
I0929 19:42:28.432173 14878 net.cpp:157] Top shape: 1 576 19 32 (350208)
I0929 19:42:28.432176 14878 net.cpp:165] Memory required for data: 426215136
I0929 19:42:28.432180 14878 layer_factory.hpp:77] Creating layer conv5_2/dwise/bn
I0929 19:42:28.432185 14878 net.cpp:100] Creating Layer conv5_2/dwise/bn
I0929 19:42:28.432190 14878 net.cpp:434] conv5_2/dwise/bn <- conv5_2/dwise
I0929 19:42:28.432196 14878 net.cpp:395] conv5_2/dwise/bn -> conv5_2/dwise (in-place)
I0929 19:42:28.432343 14878 net.cpp:150] Setting up conv5_2/dwise/bn
I0929 19:42:28.432354 14878 net.cpp:157] Top shape: 1 576 19 32 (350208)
I0929 19:42:28.432358 14878 net.cpp:165] Memory required for data: 427615968
I0929 19:42:28.432364 14878 layer_factory.hpp:77] Creating layer conv5_2/dwise/scale
I0929 19:42:28.432370 14878 net.cpp:100] Creating Layer conv5_2/dwise/scale
I0929 19:42:28.432374 14878 net.cpp:434] conv5_2/dwise/scale <- conv5_2/dwise
I0929 19:42:28.432380 14878 net.cpp:395] conv5_2/dwise/scale -> conv5_2/dwise (in-place)
I0929 19:42:28.432415 14878 layer_factory.hpp:77] Creating layer conv5_2/dwise/scale
I0929 19:42:28.432503 14878 net.cpp:150] Setting up conv5_2/dwise/scale
I0929 19:42:28.432508 14878 net.cpp:157] Top shape: 1 576 19 32 (350208)
I0929 19:42:28.432510 14878 net.cpp:165] Memory required for data: 429016800
I0929 19:42:28.432516 14878 layer_factory.hpp:77] Creating layer relu5_2/dwise
I0929 19:42:28.432520 14878 net.cpp:100] Creating Layer relu5_2/dwise
I0929 19:42:28.432524 14878 net.cpp:434] relu5_2/dwise <- conv5_2/dwise
I0929 19:42:28.432530 14878 net.cpp:395] relu5_2/dwise -> conv5_2/dwise (in-place)
I0929 19:42:28.432912 14878 net.cpp:150] Setting up relu5_2/dwise
I0929 19:42:28.432919 14878 net.cpp:157] Top shape: 1 576 19 32 (350208)
I0929 19:42:28.432921 14878 net.cpp:165] Memory required for data: 430417632
I0929 19:42:28.432924 14878 layer_factory.hpp:77] Creating layer conv5_2/linear
I0929 19:42:28.432932 14878 net.cpp:100] Creating Layer conv5_2/linear
I0929 19:42:28.432936 14878 net.cpp:434] conv5_2/linear <- conv5_2/dwise
I0929 19:42:28.432943 14878 net.cpp:408] conv5_2/linear -> conv5_2/linear
I0929 19:42:28.434331 14878 net.cpp:150] Setting up conv5_2/linear
I0929 19:42:28.434339 14878 net.cpp:157] Top shape: 1 96 19 32 (58368)
I0929 19:42:28.434340 14878 net.cpp:165] Memory required for data: 430651104
I0929 19:42:28.434345 14878 layer_factory.hpp:77] Creating layer conv5_2/linear/bn
I0929 19:42:28.434350 14878 net.cpp:100] Creating Layer conv5_2/linear/bn
I0929 19:42:28.434351 14878 net.cpp:434] conv5_2/linear/bn <- conv5_2/linear
I0929 19:42:28.434355 14878 net.cpp:395] conv5_2/linear/bn -> conv5_2/linear (in-place)
I0929 19:42:28.434505 14878 net.cpp:150] Setting up conv5_2/linear/bn
I0929 19:42:28.434510 14878 net.cpp:157] Top shape: 1 96 19 32 (58368)
I0929 19:42:28.434512 14878 net.cpp:165] Memory required for data: 430884576
I0929 19:42:28.434516 14878 layer_factory.hpp:77] Creating layer conv5_2/linear/scale
I0929 19:42:28.434520 14878 net.cpp:100] Creating Layer conv5_2/linear/scale
I0929 19:42:28.434522 14878 net.cpp:434] conv5_2/linear/scale <- conv5_2/linear
I0929 19:42:28.434526 14878 net.cpp:395] conv5_2/linear/scale -> conv5_2/linear (in-place)
I0929 19:42:28.434559 14878 layer_factory.hpp:77] Creating layer conv5_2/linear/scale
I0929 19:42:28.434651 14878 net.cpp:150] Setting up conv5_2/linear/scale
I0929 19:42:28.434656 14878 net.cpp:157] Top shape: 1 96 19 32 (58368)
I0929 19:42:28.434659 14878 net.cpp:165] Memory required for data: 431118048
I0929 19:42:28.434662 14878 layer_factory.hpp:77] Creating layer block_5_2
I0929 19:42:28.434666 14878 net.cpp:100] Creating Layer block_5_2
I0929 19:42:28.434669 14878 net.cpp:434] block_5_2 <- block_5_1_block_5_1_0_split_1
I0929 19:42:28.434672 14878 net.cpp:434] block_5_2 <- conv5_2/linear
I0929 19:42:28.434675 14878 net.cpp:408] block_5_2 -> block_5_2
I0929 19:42:28.434696 14878 net.cpp:150] Setting up block_5_2
I0929 19:42:28.434701 14878 net.cpp:157] Top shape: 1 96 19 32 (58368)
I0929 19:42:28.434705 14878 net.cpp:165] Memory required for data: 431351520
I0929 19:42:28.434707 14878 layer_factory.hpp:77] Creating layer conv5_3/expand
I0929 19:42:28.434715 14878 net.cpp:100] Creating Layer conv5_3/expand
I0929 19:42:28.434717 14878 net.cpp:434] conv5_3/expand <- block_5_2
I0929 19:42:28.434723 14878 net.cpp:408] conv5_3/expand -> conv5_3/expand
I0929 19:42:28.437372 14878 net.cpp:150] Setting up conv5_3/expand
I0929 19:42:28.437382 14878 net.cpp:157] Top shape: 1 576 19 32 (350208)
I0929 19:42:28.437386 14878 net.cpp:165] Memory required for data: 432752352
I0929 19:42:28.437402 14878 layer_factory.hpp:77] Creating layer conv5_3/expand/bn
I0929 19:42:28.437409 14878 net.cpp:100] Creating Layer conv5_3/expand/bn
I0929 19:42:28.437413 14878 net.cpp:434] conv5_3/expand/bn <- conv5_3/expand
I0929 19:42:28.437418 14878 net.cpp:395] conv5_3/expand/bn -> conv5_3/expand (in-place)
I0929 19:42:28.437623 14878 net.cpp:150] Setting up conv5_3/expand/bn
I0929 19:42:28.437628 14878 net.cpp:157] Top shape: 1 576 19 32 (350208)
I0929 19:42:28.437631 14878 net.cpp:165] Memory required for data: 434153184
I0929 19:42:28.437638 14878 layer_factory.hpp:77] Creating layer conv5_3/expand/scale
I0929 19:42:28.437644 14878 net.cpp:100] Creating Layer conv5_3/expand/scale
I0929 19:42:28.437649 14878 net.cpp:434] conv5_3/expand/scale <- conv5_3/expand
I0929 19:42:28.437654 14878 net.cpp:395] conv5_3/expand/scale -> conv5_3/expand (in-place)
I0929 19:42:28.437691 14878 layer_factory.hpp:77] Creating layer conv5_3/expand/scale
I0929 19:42:28.437805 14878 net.cpp:150] Setting up conv5_3/expand/scale
I0929 19:42:28.437811 14878 net.cpp:157] Top shape: 1 576 19 32 (350208)
I0929 19:42:28.437814 14878 net.cpp:165] Memory required for data: 435554016
I0929 19:42:28.437819 14878 layer_factory.hpp:77] Creating layer relu5_3/expand
I0929 19:42:28.437825 14878 net.cpp:100] Creating Layer relu5_3/expand
I0929 19:42:28.437829 14878 net.cpp:434] relu5_3/expand <- conv5_3/expand
I0929 19:42:28.437834 14878 net.cpp:395] relu5_3/expand -> conv5_3/expand (in-place)
I0929 19:42:28.438215 14878 net.cpp:150] Setting up relu5_3/expand
I0929 19:42:28.438223 14878 net.cpp:157] Top shape: 1 576 19 32 (350208)
I0929 19:42:28.438226 14878 net.cpp:165] Memory required for data: 436954848
I0929 19:42:28.438230 14878 layer_factory.hpp:77] Creating layer conv5_3/expand_relu5_3/expand_0_split
I0929 19:42:28.438235 14878 net.cpp:100] Creating Layer conv5_3/expand_relu5_3/expand_0_split
I0929 19:42:28.438239 14878 net.cpp:434] conv5_3/expand_relu5_3/expand_0_split <- conv5_3/expand
I0929 19:42:28.438246 14878 net.cpp:408] conv5_3/expand_relu5_3/expand_0_split -> conv5_3/expand_relu5_3/expand_0_split_0
I0929 19:42:28.438251 14878 net.cpp:408] conv5_3/expand_relu5_3/expand_0_split -> conv5_3/expand_relu5_3/expand_0_split_1
I0929 19:42:28.438289 14878 net.cpp:150] Setting up conv5_3/expand_relu5_3/expand_0_split
I0929 19:42:28.438295 14878 net.cpp:157] Top shape: 1 576 19 32 (350208)
I0929 19:42:28.438300 14878 net.cpp:157] Top shape: 1 576 19 32 (350208)
I0929 19:42:28.438303 14878 net.cpp:165] Memory required for data: 439756512
I0929 19:42:28.438307 14878 layer_factory.hpp:77] Creating layer conv5_3/dwise
I0929 19:42:28.438313 14878 net.cpp:100] Creating Layer conv5_3/dwise
I0929 19:42:28.438318 14878 net.cpp:434] conv5_3/dwise <- conv5_3/expand_relu5_3/expand_0_split_0
I0929 19:42:28.438323 14878 net.cpp:408] conv5_3/dwise -> conv5_3/dwise
I0929 19:42:28.438565 14878 net.cpp:150] Setting up conv5_3/dwise
I0929 19:42:28.438572 14878 net.cpp:157] Top shape: 1 576 10 16 (92160)
I0929 19:42:28.438575 14878 net.cpp:165] Memory required for data: 440125152
I0929 19:42:28.438580 14878 layer_factory.hpp:77] Creating layer conv5_3/dwise/bn
I0929 19:42:28.438585 14878 net.cpp:100] Creating Layer conv5_3/dwise/bn
I0929 19:42:28.438591 14878 net.cpp:434] conv5_3/dwise/bn <- conv5_3/dwise
I0929 19:42:28.438596 14878 net.cpp:395] conv5_3/dwise/bn -> conv5_3/dwise (in-place)
I0929 19:42:28.438791 14878 net.cpp:150] Setting up conv5_3/dwise/bn
I0929 19:42:28.438798 14878 net.cpp:157] Top shape: 1 576 10 16 (92160)
I0929 19:42:28.438802 14878 net.cpp:165] Memory required for data: 440493792
I0929 19:42:28.438808 14878 layer_factory.hpp:77] Creating layer conv5_3/dwise/scale
I0929 19:42:28.438814 14878 net.cpp:100] Creating Layer conv5_3/dwise/scale
I0929 19:42:28.438817 14878 net.cpp:434] conv5_3/dwise/scale <- conv5_3/dwise
I0929 19:42:28.438824 14878 net.cpp:395] conv5_3/dwise/scale -> conv5_3/dwise (in-place)
I0929 19:42:28.438865 14878 layer_factory.hpp:77] Creating layer conv5_3/dwise/scale
I0929 19:42:28.438994 14878 net.cpp:150] Setting up conv5_3/dwise/scale
I0929 19:42:28.439011 14878 net.cpp:157] Top shape: 1 576 10 16 (92160)
I0929 19:42:28.439014 14878 net.cpp:165] Memory required for data: 440862432
I0929 19:42:28.439020 14878 layer_factory.hpp:77] Creating layer relu5_3/dwise
I0929 19:42:28.439025 14878 net.cpp:100] Creating Layer relu5_3/dwise
I0929 19:42:28.439028 14878 net.cpp:434] relu5_3/dwise <- conv5_3/dwise
I0929 19:42:28.439033 14878 net.cpp:395] relu5_3/dwise -> conv5_3/dwise (in-place)
I0929 19:42:28.439440 14878 net.cpp:150] Setting up relu5_3/dwise
I0929 19:42:28.439446 14878 net.cpp:157] Top shape: 1 576 10 16 (92160)
I0929 19:42:28.439448 14878 net.cpp:165] Memory required for data: 441231072
I0929 19:42:28.439450 14878 layer_factory.hpp:77] Creating layer conv5_3/linear
I0929 19:42:28.439455 14878 net.cpp:100] Creating Layer conv5_3/linear
I0929 19:42:28.439457 14878 net.cpp:434] conv5_3/linear <- conv5_3/dwise
I0929 19:42:28.439461 14878 net.cpp:408] conv5_3/linear -> conv5_3/linear
I0929 19:42:28.441668 14878 net.cpp:150] Setting up conv5_3/linear
I0929 19:42:28.441679 14878 net.cpp:157] Top shape: 1 160 10 16 (25600)
I0929 19:42:28.441682 14878 net.cpp:165] Memory required for data: 441333472
I0929 19:42:28.441686 14878 layer_factory.hpp:77] Creating layer conv5_3/linear/bn
I0929 19:42:28.441692 14878 net.cpp:100] Creating Layer conv5_3/linear/bn
I0929 19:42:28.441695 14878 net.cpp:434] conv5_3/linear/bn <- conv5_3/linear
I0929 19:42:28.441699 14878 net.cpp:395] conv5_3/linear/bn -> conv5_3/linear (in-place)
I0929 19:42:28.441857 14878 net.cpp:150] Setting up conv5_3/linear/bn
I0929 19:42:28.441862 14878 net.cpp:157] Top shape: 1 160 10 16 (25600)
I0929 19:42:28.441864 14878 net.cpp:165] Memory required for data: 441435872
I0929 19:42:28.441869 14878 layer_factory.hpp:77] Creating layer conv5_3/linear/scale
I0929 19:42:28.441872 14878 net.cpp:100] Creating Layer conv5_3/linear/scale
I0929 19:42:28.441874 14878 net.cpp:434] conv5_3/linear/scale <- conv5_3/linear
I0929 19:42:28.441877 14878 net.cpp:395] conv5_3/linear/scale -> conv5_3/linear (in-place)
I0929 19:42:28.441903 14878 layer_factory.hpp:77] Creating layer conv5_3/linear/scale
I0929 19:42:28.441999 14878 net.cpp:150] Setting up conv5_3/linear/scale
I0929 19:42:28.442004 14878 net.cpp:157] Top shape: 1 160 10 16 (25600)
I0929 19:42:28.442006 14878 net.cpp:165] Memory required for data: 441538272
I0929 19:42:28.442024 14878 layer_factory.hpp:77] Creating layer conv5_3/linear_conv5_3/linear/scale_0_split
I0929 19:42:28.442029 14878 net.cpp:100] Creating Layer conv5_3/linear_conv5_3/linear/scale_0_split
I0929 19:42:28.442034 14878 net.cpp:434] conv5_3/linear_conv5_3/linear/scale_0_split <- conv5_3/linear
I0929 19:42:28.442039 14878 net.cpp:408] conv5_3/linear_conv5_3/linear/scale_0_split -> conv5_3/linear_conv5_3/linear/scale_0_split_0
I0929 19:42:28.442045 14878 net.cpp:408] conv5_3/linear_conv5_3/linear/scale_0_split -> conv5_3/linear_conv5_3/linear/scale_0_split_1
I0929 19:42:28.442078 14878 net.cpp:150] Setting up conv5_3/linear_conv5_3/linear/scale_0_split
I0929 19:42:28.442083 14878 net.cpp:157] Top shape: 1 160 10 16 (25600)
I0929 19:42:28.442087 14878 net.cpp:157] Top shape: 1 160 10 16 (25600)
I0929 19:42:28.442090 14878 net.cpp:165] Memory required for data: 441743072
I0929 19:42:28.442092 14878 layer_factory.hpp:77] Creating layer conv6_1/expand
I0929 19:42:28.442101 14878 net.cpp:100] Creating Layer conv6_1/expand
I0929 19:42:28.442106 14878 net.cpp:434] conv6_1/expand <- conv5_3/linear_conv5_3/linear/scale_0_split_0
I0929 19:42:28.442111 14878 net.cpp:408] conv6_1/expand -> conv6_1/expand
I0929 19:42:28.444085 14878 net.cpp:150] Setting up conv6_1/expand
I0929 19:42:28.444093 14878 net.cpp:157] Top shape: 1 960 10 16 (153600)
I0929 19:42:28.444097 14878 net.cpp:165] Memory required for data: 442357472
I0929 19:42:28.444103 14878 layer_factory.hpp:77] Creating layer conv6_1/expand/bn
I0929 19:42:28.444108 14878 net.cpp:100] Creating Layer conv6_1/expand/bn
I0929 19:42:28.444113 14878 net.cpp:434] conv6_1/expand/bn <- conv6_1/expand
I0929 19:42:28.444128 14878 net.cpp:395] conv6_1/expand/bn -> conv6_1/expand (in-place)
I0929 19:42:28.444288 14878 net.cpp:150] Setting up conv6_1/expand/bn
I0929 19:42:28.444293 14878 net.cpp:157] Top shape: 1 960 10 16 (153600)
I0929 19:42:28.444294 14878 net.cpp:165] Memory required for data: 442971872
I0929 19:42:28.444301 14878 layer_factory.hpp:77] Creating layer conv6_1/expand/scale
I0929 19:42:28.444306 14878 net.cpp:100] Creating Layer conv6_1/expand/scale
I0929 19:42:28.444309 14878 net.cpp:434] conv6_1/expand/scale <- conv6_1/expand
I0929 19:42:28.444314 14878 net.cpp:395] conv6_1/expand/scale -> conv6_1/expand (in-place)
I0929 19:42:28.444345 14878 layer_factory.hpp:77] Creating layer conv6_1/expand/scale
I0929 19:42:28.444437 14878 net.cpp:150] Setting up conv6_1/expand/scale
I0929 19:42:28.444442 14878 net.cpp:157] Top shape: 1 960 10 16 (153600)
I0929 19:42:28.444443 14878 net.cpp:165] Memory required for data: 443586272
I0929 19:42:28.444447 14878 layer_factory.hpp:77] Creating layer relu6_1/expand
I0929 19:42:28.444453 14878 net.cpp:100] Creating Layer relu6_1/expand
I0929 19:42:28.444455 14878 net.cpp:434] relu6_1/expand <- conv6_1/expand
I0929 19:42:28.444458 14878 net.cpp:395] relu6_1/expand -> conv6_1/expand (in-place)
I0929 19:42:28.444844 14878 net.cpp:150] Setting up relu6_1/expand
I0929 19:42:28.444851 14878 net.cpp:157] Top shape: 1 960 10 16 (153600)
I0929 19:42:28.444854 14878 net.cpp:165] Memory required for data: 444200672
I0929 19:42:28.444855 14878 layer_factory.hpp:77] Creating layer conv6_1/dwise
I0929 19:42:28.444861 14878 net.cpp:100] Creating Layer conv6_1/dwise
I0929 19:42:28.444864 14878 net.cpp:434] conv6_1/dwise <- conv6_1/expand
I0929 19:42:28.444866 14878 net.cpp:408] conv6_1/dwise -> conv6_1/dwise
I0929 19:42:28.445072 14878 net.cpp:150] Setting up conv6_1/dwise
I0929 19:42:28.445078 14878 net.cpp:157] Top shape: 1 960 10 16 (153600)
I0929 19:42:28.445080 14878 net.cpp:165] Memory required for data: 444815072
I0929 19:42:28.445082 14878 layer_factory.hpp:77] Creating layer conv6_1/dwise/bn
I0929 19:42:28.445086 14878 net.cpp:100] Creating Layer conv6_1/dwise/bn
I0929 19:42:28.445089 14878 net.cpp:434] conv6_1/dwise/bn <- conv6_1/dwise
I0929 19:42:28.445091 14878 net.cpp:395] conv6_1/dwise/bn -> conv6_1/dwise (in-place)
I0929 19:42:28.445242 14878 net.cpp:150] Setting up conv6_1/dwise/bn
I0929 19:42:28.445246 14878 net.cpp:157] Top shape: 1 960 10 16 (153600)
I0929 19:42:28.445250 14878 net.cpp:165] Memory required for data: 445429472
I0929 19:42:28.445253 14878 layer_factory.hpp:77] Creating layer conv6_1/dwise/scale
I0929 19:42:28.445257 14878 net.cpp:100] Creating Layer conv6_1/dwise/scale
I0929 19:42:28.445260 14878 net.cpp:434] conv6_1/dwise/scale <- conv6_1/dwise
I0929 19:42:28.445264 14878 net.cpp:395] conv6_1/dwise/scale -> conv6_1/dwise (in-place)
I0929 19:42:28.445299 14878 layer_factory.hpp:77] Creating layer conv6_1/dwise/scale
I0929 19:42:28.445390 14878 net.cpp:150] Setting up conv6_1/dwise/scale
I0929 19:42:28.445394 14878 net.cpp:157] Top shape: 1 960 10 16 (153600)
I0929 19:42:28.445397 14878 net.cpp:165] Memory required for data: 446043872
I0929 19:42:28.445400 14878 layer_factory.hpp:77] Creating layer relu6_1/dwise
I0929 19:42:28.445405 14878 net.cpp:100] Creating Layer relu6_1/dwise
I0929 19:42:28.445407 14878 net.cpp:434] relu6_1/dwise <- conv6_1/dwise
I0929 19:42:28.445411 14878 net.cpp:395] relu6_1/dwise -> conv6_1/dwise (in-place)
I0929 19:42:28.445693 14878 net.cpp:150] Setting up relu6_1/dwise
I0929 19:42:28.445699 14878 net.cpp:157] Top shape: 1 960 10 16 (153600)
I0929 19:42:28.445703 14878 net.cpp:165] Memory required for data: 446658272
I0929 19:42:28.445706 14878 layer_factory.hpp:77] Creating layer conv6_1/linear
I0929 19:42:28.445713 14878 net.cpp:100] Creating Layer conv6_1/linear
I0929 19:42:28.445717 14878 net.cpp:434] conv6_1/linear <- conv6_1/dwise
I0929 19:42:28.445724 14878 net.cpp:408] conv6_1/linear -> conv6_1/linear
I0929 19:42:28.447690 14878 net.cpp:150] Setting up conv6_1/linear
I0929 19:42:28.447696 14878 net.cpp:157] Top shape: 1 160 10 16 (25600)
I0929 19:42:28.447710 14878 net.cpp:165] Memory required for data: 446760672
I0929 19:42:28.447715 14878 layer_factory.hpp:77] Creating layer conv6_1/linear/bn
I0929 19:42:28.447721 14878 net.cpp:100] Creating Layer conv6_1/linear/bn
I0929 19:42:28.447724 14878 net.cpp:434] conv6_1/linear/bn <- conv6_1/linear
I0929 19:42:28.447727 14878 net.cpp:395] conv6_1/linear/bn -> conv6_1/linear (in-place)
I0929 19:42:28.447877 14878 net.cpp:150] Setting up conv6_1/linear/bn
I0929 19:42:28.447882 14878 net.cpp:157] Top shape: 1 160 10 16 (25600)
I0929 19:42:28.447885 14878 net.cpp:165] Memory required for data: 446863072
I0929 19:42:28.447888 14878 layer_factory.hpp:77] Creating layer conv6_1/linear/scale
I0929 19:42:28.447891 14878 net.cpp:100] Creating Layer conv6_1/linear/scale
I0929 19:42:28.447894 14878 net.cpp:434] conv6_1/linear/scale <- conv6_1/linear
I0929 19:42:28.447897 14878 net.cpp:395] conv6_1/linear/scale -> conv6_1/linear (in-place)
I0929 19:42:28.447930 14878 layer_factory.hpp:77] Creating layer conv6_1/linear/scale
I0929 19:42:28.448020 14878 net.cpp:150] Setting up conv6_1/linear/scale
I0929 19:42:28.448025 14878 net.cpp:157] Top shape: 1 160 10 16 (25600)
I0929 19:42:28.448029 14878 net.cpp:165] Memory required for data: 446965472
I0929 19:42:28.448031 14878 layer_factory.hpp:77] Creating layer block_6_1
I0929 19:42:28.448035 14878 net.cpp:100] Creating Layer block_6_1
I0929 19:42:28.448037 14878 net.cpp:434] block_6_1 <- conv5_3/linear_conv5_3/linear/scale_0_split_1
I0929 19:42:28.448040 14878 net.cpp:434] block_6_1 <- conv6_1/linear
I0929 19:42:28.448045 14878 net.cpp:408] block_6_1 -> block_6_1
I0929 19:42:28.448065 14878 net.cpp:150] Setting up block_6_1
I0929 19:42:28.448071 14878 net.cpp:157] Top shape: 1 160 10 16 (25600)
I0929 19:42:28.448072 14878 net.cpp:165] Memory required for data: 447067872
I0929 19:42:28.448073 14878 layer_factory.hpp:77] Creating layer block_6_1_block_6_1_0_split
I0929 19:42:28.448076 14878 net.cpp:100] Creating Layer block_6_1_block_6_1_0_split
I0929 19:42:28.448079 14878 net.cpp:434] block_6_1_block_6_1_0_split <- block_6_1
I0929 19:42:28.448082 14878 net.cpp:408] block_6_1_block_6_1_0_split -> block_6_1_block_6_1_0_split_0
I0929 19:42:28.448087 14878 net.cpp:408] block_6_1_block_6_1_0_split -> block_6_1_block_6_1_0_split_1
I0929 19:42:28.448117 14878 net.cpp:150] Setting up block_6_1_block_6_1_0_split
I0929 19:42:28.448122 14878 net.cpp:157] Top shape: 1 160 10 16 (25600)
I0929 19:42:28.448125 14878 net.cpp:157] Top shape: 1 160 10 16 (25600)
I0929 19:42:28.448127 14878 net.cpp:165] Memory required for data: 447272672
I0929 19:42:28.448129 14878 layer_factory.hpp:77] Creating layer conv6_2/expand
I0929 19:42:28.448134 14878 net.cpp:100] Creating Layer conv6_2/expand
I0929 19:42:28.448137 14878 net.cpp:434] conv6_2/expand <- block_6_1_block_6_1_0_split_0
I0929 19:42:28.448140 14878 net.cpp:408] conv6_2/expand -> conv6_2/expand
I0929 19:42:28.450515 14878 net.cpp:150] Setting up conv6_2/expand
I0929 19:42:28.450522 14878 net.cpp:157] Top shape: 1 960 10 16 (153600)
I0929 19:42:28.450525 14878 net.cpp:165] Memory required for data: 447887072
I0929 19:42:28.450531 14878 layer_factory.hpp:77] Creating layer conv6_2/expand/bn
I0929 19:42:28.450537 14878 net.cpp:100] Creating Layer conv6_2/expand/bn
I0929 19:42:28.450541 14878 net.cpp:434] conv6_2/expand/bn <- conv6_2/expand
I0929 19:42:28.450547 14878 net.cpp:395] conv6_2/expand/bn -> conv6_2/expand (in-place)
I0929 19:42:28.450708 14878 net.cpp:150] Setting up conv6_2/expand/bn
I0929 19:42:28.450713 14878 net.cpp:157] Top shape: 1 960 10 16 (153600)
I0929 19:42:28.450714 14878 net.cpp:165] Memory required for data: 448501472
I0929 19:42:28.450719 14878 layer_factory.hpp:77] Creating layer conv6_2/expand/scale
I0929 19:42:28.450722 14878 net.cpp:100] Creating Layer conv6_2/expand/scale
I0929 19:42:28.450724 14878 net.cpp:434] conv6_2/expand/scale <- conv6_2/expand
I0929 19:42:28.450727 14878 net.cpp:395] conv6_2/expand/scale -> conv6_2/expand (in-place)
I0929 19:42:28.450762 14878 layer_factory.hpp:77] Creating layer conv6_2/expand/scale
I0929 19:42:28.450863 14878 net.cpp:150] Setting up conv6_2/expand/scale
I0929 19:42:28.450868 14878 net.cpp:157] Top shape: 1 960 10 16 (153600)
I0929 19:42:28.450870 14878 net.cpp:165] Memory required for data: 449115872
I0929 19:42:28.450873 14878 layer_factory.hpp:77] Creating layer relu6_2/expand
I0929 19:42:28.450882 14878 net.cpp:100] Creating Layer relu6_2/expand
I0929 19:42:28.450884 14878 net.cpp:434] relu6_2/expand <- conv6_2/expand
I0929 19:42:28.450886 14878 net.cpp:395] relu6_2/expand -> conv6_2/expand (in-place)
I0929 19:42:28.451272 14878 net.cpp:150] Setting up relu6_2/expand
I0929 19:42:28.451279 14878 net.cpp:157] Top shape: 1 960 10 16 (153600)
I0929 19:42:28.451282 14878 net.cpp:165] Memory required for data: 449730272
I0929 19:42:28.451283 14878 layer_factory.hpp:77] Creating layer conv6_2/dwise
I0929 19:42:28.451287 14878 net.cpp:100] Creating Layer conv6_2/dwise
I0929 19:42:28.451289 14878 net.cpp:434] conv6_2/dwise <- conv6_2/expand
I0929 19:42:28.451292 14878 net.cpp:408] conv6_2/dwise -> conv6_2/dwise
I0929 19:42:28.451499 14878 net.cpp:150] Setting up conv6_2/dwise
I0929 19:42:28.451504 14878 net.cpp:157] Top shape: 1 960 10 16 (153600)
I0929 19:42:28.451506 14878 net.cpp:165] Memory required for data: 450344672
I0929 19:42:28.451509 14878 layer_factory.hpp:77] Creating layer conv6_2/dwise/bn
I0929 19:42:28.451512 14878 net.cpp:100] Creating Layer conv6_2/dwise/bn
I0929 19:42:28.451514 14878 net.cpp:434] conv6_2/dwise/bn <- conv6_2/dwise
I0929 19:42:28.451517 14878 net.cpp:395] conv6_2/dwise/bn -> conv6_2/dwise (in-place)
I0929 19:42:28.451669 14878 net.cpp:150] Setting up conv6_2/dwise/bn
I0929 19:42:28.451674 14878 net.cpp:157] Top shape: 1 960 10 16 (153600)
I0929 19:42:28.451676 14878 net.cpp:165] Memory required for data: 450959072
I0929 19:42:28.451680 14878 layer_factory.hpp:77] Creating layer conv6_2/dwise/scale
I0929 19:42:28.451683 14878 net.cpp:100] Creating Layer conv6_2/dwise/scale
I0929 19:42:28.451684 14878 net.cpp:434] conv6_2/dwise/scale <- conv6_2/dwise
I0929 19:42:28.451689 14878 net.cpp:395] conv6_2/dwise/scale -> conv6_2/dwise (in-place)
I0929 19:42:28.451716 14878 layer_factory.hpp:77] Creating layer conv6_2/dwise/scale
I0929 19:42:28.451813 14878 net.cpp:150] Setting up conv6_2/dwise/scale
I0929 19:42:28.451817 14878 net.cpp:157] Top shape: 1 960 10 16 (153600)
I0929 19:42:28.451819 14878 net.cpp:165] Memory required for data: 451573472
I0929 19:42:28.451822 14878 layer_factory.hpp:77] Creating layer relu6_2/dwise
I0929 19:42:28.451827 14878 net.cpp:100] Creating Layer relu6_2/dwise
I0929 19:42:28.451828 14878 net.cpp:434] relu6_2/dwise <- conv6_2/dwise
I0929 19:42:28.451830 14878 net.cpp:395] relu6_2/dwise -> conv6_2/dwise (in-place)
I0929 19:42:28.452114 14878 net.cpp:150] Setting up relu6_2/dwise
I0929 19:42:28.452121 14878 net.cpp:157] Top shape: 1 960 10 16 (153600)
I0929 19:42:28.452122 14878 net.cpp:165] Memory required for data: 452187872
I0929 19:42:28.452124 14878 layer_factory.hpp:77] Creating layer conv6_2/linear
I0929 19:42:28.452129 14878 net.cpp:100] Creating Layer conv6_2/linear
I0929 19:42:28.452131 14878 net.cpp:434] conv6_2/linear <- conv6_2/dwise
I0929 19:42:28.452134 14878 net.cpp:408] conv6_2/linear -> conv6_2/linear
I0929 19:42:28.454084 14878 net.cpp:150] Setting up conv6_2/linear
I0929 19:42:28.454092 14878 net.cpp:157] Top shape: 1 160 10 16 (25600)
I0929 19:42:28.454092 14878 net.cpp:165] Memory required for data: 452290272
I0929 19:42:28.454097 14878 layer_factory.hpp:77] Creating layer conv6_2/linear/bn
I0929 19:42:28.454100 14878 net.cpp:100] Creating Layer conv6_2/linear/bn
I0929 19:42:28.454102 14878 net.cpp:434] conv6_2/linear/bn <- conv6_2/linear
I0929 19:42:28.454105 14878 net.cpp:395] conv6_2/linear/bn -> conv6_2/linear (in-place)
I0929 19:42:28.454257 14878 net.cpp:150] Setting up conv6_2/linear/bn
I0929 19:42:28.454262 14878 net.cpp:157] Top shape: 1 160 10 16 (25600)
I0929 19:42:28.454263 14878 net.cpp:165] Memory required for data: 452392672
I0929 19:42:28.454267 14878 layer_factory.hpp:77] Creating layer conv6_2/linear/scale
I0929 19:42:28.454282 14878 net.cpp:100] Creating Layer conv6_2/linear/scale
I0929 19:42:28.454283 14878 net.cpp:434] conv6_2/linear/scale <- conv6_2/linear
I0929 19:42:28.454286 14878 net.cpp:395] conv6_2/linear/scale -> conv6_2/linear (in-place)
I0929 19:42:28.454318 14878 layer_factory.hpp:77] Creating layer conv6_2/linear/scale
I0929 19:42:28.454409 14878 net.cpp:150] Setting up conv6_2/linear/scale
I0929 19:42:28.454416 14878 net.cpp:157] Top shape: 1 160 10 16 (25600)
I0929 19:42:28.454417 14878 net.cpp:165] Memory required for data: 452495072
I0929 19:42:28.454421 14878 layer_factory.hpp:77] Creating layer block_6_2
I0929 19:42:28.454424 14878 net.cpp:100] Creating Layer block_6_2
I0929 19:42:28.454427 14878 net.cpp:434] block_6_2 <- block_6_1_block_6_1_0_split_1
I0929 19:42:28.454430 14878 net.cpp:434] block_6_2 <- conv6_2/linear
I0929 19:42:28.454433 14878 net.cpp:408] block_6_2 -> block_6_2
I0929 19:42:28.454453 14878 net.cpp:150] Setting up block_6_2
I0929 19:42:28.454459 14878 net.cpp:157] Top shape: 1 160 10 16 (25600)
I0929 19:42:28.454461 14878 net.cpp:165] Memory required for data: 452597472
I0929 19:42:28.454463 14878 layer_factory.hpp:77] Creating layer conv6_3/expand
I0929 19:42:28.454466 14878 net.cpp:100] Creating Layer conv6_3/expand
I0929 19:42:28.454469 14878 net.cpp:434] conv6_3/expand <- block_6_2
I0929 19:42:28.454473 14878 net.cpp:408] conv6_3/expand -> conv6_3/expand
I0929 19:42:28.456528 14878 net.cpp:150] Setting up conv6_3/expand
I0929 19:42:28.456537 14878 net.cpp:157] Top shape: 1 960 10 16 (153600)
I0929 19:42:28.456538 14878 net.cpp:165] Memory required for data: 453211872
I0929 19:42:28.456542 14878 layer_factory.hpp:77] Creating layer conv6_3/expand/bn
I0929 19:42:28.456545 14878 net.cpp:100] Creating Layer conv6_3/expand/bn
I0929 19:42:28.456548 14878 net.cpp:434] conv6_3/expand/bn <- conv6_3/expand
I0929 19:42:28.456553 14878 net.cpp:395] conv6_3/expand/bn -> conv6_3/expand (in-place)
I0929 19:42:28.456713 14878 net.cpp:150] Setting up conv6_3/expand/bn
I0929 19:42:28.456717 14878 net.cpp:157] Top shape: 1 960 10 16 (153600)
I0929 19:42:28.456719 14878 net.cpp:165] Memory required for data: 453826272
I0929 19:42:28.456724 14878 layer_factory.hpp:77] Creating layer conv6_3/expand/scale
I0929 19:42:28.456728 14878 net.cpp:100] Creating Layer conv6_3/expand/scale
I0929 19:42:28.456730 14878 net.cpp:434] conv6_3/expand/scale <- conv6_3/expand
I0929 19:42:28.456733 14878 net.cpp:395] conv6_3/expand/scale -> conv6_3/expand (in-place)
I0929 19:42:28.456769 14878 layer_factory.hpp:77] Creating layer conv6_3/expand/scale
I0929 19:42:28.456864 14878 net.cpp:150] Setting up conv6_3/expand/scale
I0929 19:42:28.456869 14878 net.cpp:157] Top shape: 1 960 10 16 (153600)
I0929 19:42:28.456871 14878 net.cpp:165] Memory required for data: 454440672
I0929 19:42:28.456876 14878 layer_factory.hpp:77] Creating layer relu6_3/expand
I0929 19:42:28.456879 14878 net.cpp:100] Creating Layer relu6_3/expand
I0929 19:42:28.456881 14878 net.cpp:434] relu6_3/expand <- conv6_3/expand
I0929 19:42:28.456884 14878 net.cpp:395] relu6_3/expand -> conv6_3/expand (in-place)
I0929 19:42:28.457167 14878 net.cpp:150] Setting up relu6_3/expand
I0929 19:42:28.457173 14878 net.cpp:157] Top shape: 1 960 10 16 (153600)
I0929 19:42:28.457175 14878 net.cpp:165] Memory required for data: 455055072
I0929 19:42:28.457177 14878 layer_factory.hpp:77] Creating layer conv6_3/dwise
I0929 19:42:28.457182 14878 net.cpp:100] Creating Layer conv6_3/dwise
I0929 19:42:28.457185 14878 net.cpp:434] conv6_3/dwise <- conv6_3/expand
I0929 19:42:28.457188 14878 net.cpp:408] conv6_3/dwise -> conv6_3/dwise
I0929 19:42:28.457392 14878 net.cpp:150] Setting up conv6_3/dwise
I0929 19:42:28.457397 14878 net.cpp:157] Top shape: 1 960 10 16 (153600)
I0929 19:42:28.457399 14878 net.cpp:165] Memory required for data: 455669472
I0929 19:42:28.457402 14878 layer_factory.hpp:77] Creating layer conv6_3/dwise/bn
I0929 19:42:28.457406 14878 net.cpp:100] Creating Layer conv6_3/dwise/bn
I0929 19:42:28.457409 14878 net.cpp:434] conv6_3/dwise/bn <- conv6_3/dwise
I0929 19:42:28.457420 14878 net.cpp:395] conv6_3/dwise/bn -> conv6_3/dwise (in-place)
I0929 19:42:28.457574 14878 net.cpp:150] Setting up conv6_3/dwise/bn
I0929 19:42:28.457578 14878 net.cpp:157] Top shape: 1 960 10 16 (153600)
I0929 19:42:28.457581 14878 net.cpp:165] Memory required for data: 456283872
I0929 19:42:28.457587 14878 layer_factory.hpp:77] Creating layer conv6_3/dwise/scale
I0929 19:42:28.457593 14878 net.cpp:100] Creating Layer conv6_3/dwise/scale
I0929 19:42:28.457597 14878 net.cpp:434] conv6_3/dwise/scale <- conv6_3/dwise
I0929 19:42:28.457602 14878 net.cpp:395] conv6_3/dwise/scale -> conv6_3/dwise (in-place)
I0929 19:42:28.457638 14878 layer_factory.hpp:77] Creating layer conv6_3/dwise/scale
I0929 19:42:28.457729 14878 net.cpp:150] Setting up conv6_3/dwise/scale
I0929 19:42:28.457734 14878 net.cpp:157] Top shape: 1 960 10 16 (153600)
I0929 19:42:28.457737 14878 net.cpp:165] Memory required for data: 456898272
I0929 19:42:28.457741 14878 layer_factory.hpp:77] Creating layer relu6_3/dwise
I0929 19:42:28.457746 14878 net.cpp:100] Creating Layer relu6_3/dwise
I0929 19:42:28.457751 14878 net.cpp:434] relu6_3/dwise <- conv6_3/dwise
I0929 19:42:28.457756 14878 net.cpp:395] relu6_3/dwise -> conv6_3/dwise (in-place)
I0929 19:42:28.458039 14878 net.cpp:150] Setting up relu6_3/dwise
I0929 19:42:28.458045 14878 net.cpp:157] Top shape: 1 960 10 16 (153600)
I0929 19:42:28.458047 14878 net.cpp:165] Memory required for data: 457512672
I0929 19:42:28.458051 14878 layer_factory.hpp:77] Creating layer conv6_3/linear
I0929 19:42:28.458060 14878 net.cpp:100] Creating Layer conv6_3/linear
I0929 19:42:28.458065 14878 net.cpp:434] conv6_3/linear <- conv6_3/dwise
I0929 19:42:28.458070 14878 net.cpp:408] conv6_3/linear -> conv6_3/linear
I0929 19:42:28.461424 14878 net.cpp:150] Setting up conv6_3/linear
I0929 19:42:28.461432 14878 net.cpp:157] Top shape: 1 320 10 16 (51200)
I0929 19:42:28.461434 14878 net.cpp:165] Memory required for data: 457717472
…
I0929 19:42:28.619839 14878 net.cpp:395] conv6_3/dwise/bn -> conv6_3/dwise (in-place)
I0929 19:42:28.619982 14878 net.cpp:150] Setting up conv6_3/dwise/bn
I0929 19:42:28.619987 14878 net.cpp:157] Top shape: 1 960 10 16 (153600)
I0929 19:42:28.619990 14878 net.cpp:165] Memory required for data: 456283808
I0929 19:42:28.619997 14878 layer_factory.hpp:77] Creating layer conv6_3/dwise/scale
I0929 19:42:28.620002 14878 net.cpp:100] Creating Layer conv6_3/dwise/scale
I0929 19:42:28.620005 14878 net.cpp:434] conv6_3/dwise/scale <- conv6_3/dwise
I0929 19:42:28.620010 14878 net.cpp:395] conv6_3/dwise/scale -> conv6_3/dwise (in-place)
I0929 19:42:28.620048 14878 layer_factory.hpp:77] Creating layer conv6_3/dwise/scale
I0929 19:42:28.620129 14878 net.cpp:150] Setting up conv6_3/dwise/scale
I0929 19:42:28.620134 14878 net.cpp:157] Top shape: 1 960 10 16 (153600)
I0929 19:42:28.620137 14878 net.cpp:165] Memory required for data: 456898208
I0929 19:42:28.620143 14878 layer_factory.hpp:77] Creating layer relu6_3/dwise
I0929 19:42:28.620148 14878 net.cpp:100] Creating Layer relu6_3/dwise
I0929 19:42:28.620151 14878 net.cpp:434] relu6_3/dwise <- conv6_3/dwise
I0929 19:42:28.620157 14878 net.cpp:395] relu6_3/dwise -> conv6_3/dwise (in-place)
I0929 19:42:28.620563 14878 net.cpp:150] Setting up relu6_3/dwise
I0929 19:42:28.620570 14878 net.cpp:157] Top shape: 1 960 10 16 (153600)
I0929 19:42:28.620574 14878 net.cpp:165] Memory required for data: 457512608
I0929 19:42:28.620577 14878 layer_factory.hpp:77] Creating layer conv6_3/linear
I0929 19:42:28.620585 14878 net.cpp:100] Creating Layer conv6_3/linear
I0929 19:42:28.620589 14878 net.cpp:434] conv6_3/linear <- conv6_3/dwise
I0929 19:42:28.620595 14878 net.cpp:408] conv6_3/linear -> conv6_3/linear
I0929 19:42:28.623857 14878 net.cpp:150] Setting up conv6_3/linear
I0929 19:42:28.623865 14878 net.cpp:157] Top shape: 1 320 10 16 (51200)
I0929 19:42:28.623868 14878 net.cpp:165] Memory required for data: 457717408
I0929 19:42:28.623873 14878 layer_factory.hpp:77] Creating layer conv6_3/linear/bn
I0929 19:42:28.623880 14878 net.cpp:100] Creating Layer conv6_3/linear/bn
I0929 19:42:28.623885 14878 net.cpp:434] conv6_3/linear/bn <- conv6_3/linear
I0929 19:42:28.623891 14878 net.cpp:395] conv6_3/linear/bn -> conv6_3/linear (in-place)
I0929 19:42:28.624034 14878 net.cpp:150] Setting up conv6_3/linear/bn
I0929 19:42:28.624039 14878 net.cpp:157] Top shape: 1 320 10 16 (51200)
I0929 19:42:28.624042 14878 net.cpp:165] Memory required for data: 457922208
I0929 19:42:28.624049 14878 layer_factory.hpp:77] Creating layer conv6_3/linear/scale
I0929 19:42:28.624055 14878 net.cpp:100] Creating Layer conv6_3/linear/scale
I0929 19:42:28.624058 14878 net.cpp:434] conv6_3/linear/scale <- conv6_3/linear
I0929 19:42:28.624063 14878 net.cpp:395] conv6_3/linear/scale -> conv6_3/linear (in-place)
I0929 19:42:28.624100 14878 layer_factory.hpp:77] Creating layer conv6_3/linear/scale
I0929 19:42:28.624181 14878 net.cpp:150] Setting up conv6_3/linear/scale
I0929 19:42:28.624187 14878 net.cpp:157] Top shape: 1 320 10 16 (51200)
I0929 19:42:28.624191 14878 net.cpp:165] Memory required for data: 458127008
I0929 19:42:28.624197 14878 layer_factory.hpp:77] Creating layer conv6_4
I0929 19:42:28.624202 14878 net.cpp:100] Creating Layer conv6_4
I0929 19:42:28.624207 14878 net.cpp:434] conv6_4 <- conv6_3/linear
I0929 19:42:28.624213 14878 net.cpp:408] conv6_4 -> conv6_4
I0929 19:42:28.628018 14878 net.cpp:150] Setting up conv6_4
I0929 19:42:28.628028 14878 net.cpp:157] Top shape: 1 1280 10 16 (204800)
I0929 19:42:28.628031 14878 net.cpp:165] Memory required for data: 458946208
I0929 19:42:28.628037 14878 layer_factory.hpp:77] Creating layer conv6_4/bn
I0929 19:42:28.628044 14878 net.cpp:100] Creating Layer conv6_4/bn
I0929 19:42:28.628047 14878 net.cpp:434] conv6_4/bn <- conv6_4
I0929 19:42:28.628053 14878 net.cpp:395] conv6_4/bn -> conv6_4 (in-place)
I0929 19:42:28.628190 14878 net.cpp:150] Setting up conv6_4/bn
I0929 19:42:28.628195 14878 net.cpp:157] Top shape: 1 1280 10 16 (204800)
I0929 19:42:28.628196 14878 net.cpp:165] Memory required for data: 459765408
I0929 19:42:28.628203 14878 layer_factory.hpp:77] Creating layer conv6_4/scale
I0929 19:42:28.628209 14878 net.cpp:100] Creating Layer conv6_4/scale
I0929 19:42:28.628212 14878 net.cpp:434] conv6_4/scale <- conv6_4
I0929 19:42:28.628216 14878 net.cpp:395] conv6_4/scale -> conv6_4 (in-place)
I0929 19:42:28.628247 14878 layer_factory.hpp:77] Creating layer conv6_4/scale
I0929 19:42:28.628322 14878 net.cpp:150] Setting up conv6_4/scale
I0929 19:42:28.628327 14878 net.cpp:157] Top shape: 1 1280 10 16 (204800)
I0929 19:42:28.628330 14878 net.cpp:165] Memory required for data: 460584608
I0929 19:42:28.628335 14878 layer_factory.hpp:77] Creating layer relu6_4
I0929 19:42:28.628341 14878 net.cpp:100] Creating Layer relu6_4
I0929 19:42:28.628345 14878 net.cpp:434] relu6_4 <- conv6_4
I0929 19:42:28.628348 14878 net.cpp:395] relu6_4 -> conv6_4 (in-place)
I0929 19:42:28.628633 14878 net.cpp:150] Setting up relu6_4
I0929 19:42:28.628639 14878 net.cpp:157] Top shape: 1 1280 10 16 (204800)
I0929 19:42:28.628643 14878 net.cpp:165] Memory required for data: 461403808
I0929 19:42:28.628646 14878 layer_factory.hpp:77] Creating layer conv6_4_relu6_4_0_split
I0929 19:42:28.628651 14878 net.cpp:100] Creating Layer conv6_4_relu6_4_0_split
I0929 19:42:28.628654 14878 net.cpp:434] conv6_4_relu6_4_0_split <- conv6_4
I0929 19:42:28.628660 14878 net.cpp:408] conv6_4_relu6_4_0_split -> conv6_4_relu6_4_0_split_0
I0929 19:42:28.628667 14878 net.cpp:408] conv6_4_relu6_4_0_split -> conv6_4_relu6_4_0_split_1
I0929 19:42:28.628674 14878 net.cpp:408] conv6_4_relu6_4_0_split -> conv6_4_relu6_4_0_split_2
I0929 19:42:28.628679 14878 net.cpp:408] conv6_4_relu6_4_0_split -> conv6_4_relu6_4_0_split_3
I0929 19:42:28.628734 14878 net.cpp:150] Setting up conv6_4_relu6_4_0_split
I0929 19:42:28.628739 14878 net.cpp:157] Top shape: 1 1280 10 16 (204800)
I0929 19:42:28.628743 14878 net.cpp:157] Top shape: 1 1280 10 16 (204800)
I0929 19:42:28.628748 14878 net.cpp:157] Top shape: 1 1280 10 16 (204800)
I0929 19:42:28.628752 14878 net.cpp:157] Top shape: 1 1280 10 16 (204800)
I0929 19:42:28.628756 14878 net.cpp:165] Memory required for data: 464680608
I0929 19:42:28.628758 14878 layer_factory.hpp:77] Creating layer ssd1_1
I0929 19:42:28.628765 14878 net.cpp:100] Creating Layer ssd1_1
I0929 19:42:28.628769 14878 net.cpp:434] ssd1_1 <- conv6_4_relu6_4_0_split_0
I0929 19:42:28.628775 14878 net.cpp:408] ssd1_1 -> ssd1_1
I0929 19:42:28.631472 14878 net.cpp:150] Setting up ssd1_1
I0929 19:42:28.631481 14878 net.cpp:157] Top shape: 1 256 10 16 (40960)
I0929 19:42:28.631484 14878 net.cpp:165] Memory required for data: 464844448
I0929 19:42:28.631490 14878 layer_factory.hpp:77] Creating layer ssd1_1_relu
I0929 19:42:28.631496 14878 net.cpp:100] Creating Layer ssd1_1_relu
I0929 19:42:28.631500 14878 net.cpp:434] ssd1_1_relu <- ssd1_1
I0929 19:42:28.631506 14878 net.cpp:395] ssd1_1_relu -> ssd1_1 (in-place)
I0929 19:42:28.631794 14878 net.cpp:150] Setting up ssd1_1_relu
I0929 19:42:28.631800 14878 net.cpp:157] Top shape: 1 256 10 16 (40960)
I0929 19:42:28.631803 14878 net.cpp:165] Memory required for data: 465008288
I0929 19:42:28.631806 14878 layer_factory.hpp:77] Creating layer ssd1_2
I0929 19:42:28.631816 14878 net.cpp:100] Creating Layer ssd1_2
I0929 19:42:28.631819 14878 net.cpp:434] ssd1_2 <- ssd1_1
I0929 19:42:28.631824 14878 net.cpp:408] ssd1_2 -> ssd1_2
I0929 19:42:28.637631 14878 net.cpp:150] Setting up ssd1_2
I0929 19:42:28.637646 14878 net.cpp:157] Top shape: 1 512 5 8 (20480)
I0929 19:42:28.637650 14878 net.cpp:165] Memory required for data: 465090208
I0929 19:42:28.637657 14878 layer_factory.hpp:77] Creating layer ssd1_2_relu
I0929 19:42:28.637665 14878 net.cpp:100] Creating Layer ssd1_2_relu
I0929 19:42:28.637670 14878 net.cpp:434] ssd1_2_relu <- ssd1_2
I0929 19:42:28.637675 14878 net.cpp:395] ssd1_2_relu -> ssd1_2 (in-place)
I0929 19:42:28.638083 14878 net.cpp:150] Setting up ssd1_2_relu
I0929 19:42:28.638092 14878 net.cpp:157] Top shape: 1 512 5 8 (20480)
I0929 19:42:28.638094 14878 net.cpp:165] Memory required for data: 465172128
I0929 19:42:28.638098 14878 layer_factory.hpp:77] Creating layer ssd1_2_ssd1_2_relu_0_split
I0929 19:42:28.638104 14878 net.cpp:100] Creating Layer ssd1_2_ssd1_2_relu_0_split
I0929 19:42:28.638108 14878 net.cpp:434] ssd1_2_ssd1_2_relu_0_split <- ssd1_2
I0929 19:42:28.638114 14878 net.cpp:408] ssd1_2_ssd1_2_relu_0_split -> ssd1_2_ssd1_2_relu_0_split_0
I0929 19:42:28.638121 14878 net.cpp:408] ssd1_2_ssd1_2_relu_0_split -> ssd1_2_ssd1_2_relu_0_split_1
I0929 19:42:28.638126 14878 net.cpp:408] ssd1_2_ssd1_2_relu_0_split -> ssd1_2_ssd1_2_relu_0_split_2
I0929 19:42:28.638133 14878 net.cpp:408] ssd1_2_ssd1_2_relu_0_split -> ssd1_2_ssd1_2_relu_0_split_3
I0929 19:42:28.638180 14878 net.cpp:150] Setting up ssd1_2_ssd1_2_relu_0_split
I0929 19:42:28.638185 14878 net.cpp:157] Top shape: 1 512 5 8 (20480)
I0929 19:42:28.638190 14878 net.cpp:157] Top shape: 1 512 5 8 (20480)
I0929 19:42:28.638193 14878 net.cpp:157] Top shape: 1 512 5 8 (20480)
I0929 19:42:28.638197 14878 net.cpp:157] Top shape: 1 512 5 8 (20480)
I0929 19:42:28.638200 14878 net.cpp:165] Memory required for data: 465499808
I0929 19:42:28.638203 14878 layer_factory.hpp:77] Creating layer ssd2_1
I0929 19:42:28.638211 14878 net.cpp:100] Creating Layer ssd2_1
I0929 19:42:28.638214 14878 net.cpp:434] ssd2_1 <- ssd1_2_ssd1_2_relu_0_split_0
I0929 19:42:28.638221 14878 net.cpp:408] ssd2_1 -> ssd2_1
I0929 19:42:28.639575 14878 net.cpp:150] Setting up ssd2_1
I0929 19:42:28.639583 14878 net.cpp:157] Top shape: 1 128 5 8 (5120)
I0929 19:42:28.639587 14878 net.cpp:165] Memory required for data: 465520288
I0929 19:42:28.639592 14878 layer_factory.hpp:77] Creating layer ssd2_1_relu
I0929 19:42:28.639600 14878 net.cpp:100] Creating Layer ssd2_1_relu
I0929 19:42:28.639603 14878 net.cpp:434] ssd2_1_relu <- ssd2_1
I0929 19:42:28.639618 14878 net.cpp:395] ssd2_1_relu -> ssd2_1 (in-place)
I0929 19:42:28.639907 14878 net.cpp:150] Setting up ssd2_1_relu
I0929 19:42:28.639914 14878 net.cpp:157] Top shape: 1 128 5 8 (5120)
I0929 19:42:28.639917 14878 net.cpp:165] Memory required for data: 465540768
I0929 19:42:28.639921 14878 layer_factory.hpp:77] Creating layer ssd2_2
I0929 19:42:28.639930 14878 net.cpp:100] Creating Layer ssd2_2
I0929 19:42:28.639933 14878 net.cpp:434] ssd2_2 <- ssd2_1
I0929 19:42:28.639940 14878 net.cpp:408] ssd2_2 -> ssd2_2
I0929 19:42:28.642500 14878 net.cpp:150] Setting up ssd2_2
I0929 19:42:28.642513 14878 net.cpp:157] Top shape: 1 256 3 4 (3072)
I0929 19:42:28.642515 14878 net.cpp:165] Memory required for data: 465553056
I0929 19:42:28.642522 14878 layer_factory.hpp:77] Creating layer ssd2_2_relu
I0929 19:42:28.642529 14878 net.cpp:100] Creating Layer ssd2_2_relu
I0929 19:42:28.642534 14878 net.cpp:434] ssd2_2_relu <- ssd2_2
I0929 19:42:28.642539 14878 net.cpp:395] ssd2_2_relu -> ssd2_2 (in-place)
I0929 19:42:28.642952 14878 net.cpp:150] Setting up ssd2_2_relu
I0929 19:42:28.642962 14878 net.cpp:157] Top shape: 1 256 3 4 (3072)
I0929 19:42:28.642966 14878 net.cpp:165] Memory required for data: 465565344
I0929 19:42:28.642968 14878 layer_factory.hpp:77] Creating layer ssd2_2_ssd2_2_relu_0_split
I0929 19:42:28.642973 14878 net.cpp:100] Creating Layer ssd2_2_ssd2_2_relu_0_split
I0929 19:42:28.642977 14878 net.cpp:434] ssd2_2_ssd2_2_relu_0_split <- ssd2_2
I0929 19:42:28.642983 14878 net.cpp:408] ssd2_2_ssd2_2_relu_0_split -> ssd2_2_ssd2_2_relu_0_split_0
I0929 19:42:28.642990 14878 net.cpp:408] ssd2_2_ssd2_2_relu_0_split -> ssd2_2_ssd2_2_relu_0_split_1
I0929 19:42:28.642997 14878 net.cpp:408] ssd2_2_ssd2_2_relu_0_split -> ssd2_2_ssd2_2_relu_0_split_2
I0929 19:42:28.643003 14878 net.cpp:408] ssd2_2_ssd2_2_relu_0_split -> ssd2_2_ssd2_2_relu_0_split_3
I0929 19:42:28.643051 14878 net.cpp:150] Setting up ssd2_2_ssd2_2_relu_0_split
I0929 19:42:28.643056 14878 net.cpp:157] Top shape: 1 256 3 4 (3072)
I0929 19:42:28.643060 14878 net.cpp:157] Top shape: 1 256 3 4 (3072)
I0929 19:42:28.643065 14878 net.cpp:157] Top shape: 1 256 3 4 (3072)
I0929 19:42:28.643069 14878 net.cpp:157] Top shape: 1 256 3 4 (3072)
I0929 19:42:28.643072 14878 net.cpp:165] Memory required for data: 465614496
I0929 19:42:28.643074 14878 layer_factory.hpp:77] Creating layer ssd3_1
I0929 19:42:28.643085 14878 net.cpp:100] Creating Layer ssd3_1
I0929 19:42:28.643087 14878 net.cpp:434] ssd3_1 <- ssd2_2_ssd2_2_relu_0_split_0
I0929 19:42:28.643093 14878 net.cpp:408] ssd3_1 -> ssd3_1
I0929 19:42:28.644366 14878 net.cpp:150] Setting up ssd3_1
I0929 19:42:28.644374 14878 net.cpp:157] Top shape: 1 128 3 4 (1536)
I0929 19:42:28.644377 14878 net.cpp:165] Memory required for data: 465620640
I0929 19:42:28.644383 14878 layer_factory.hpp:77] Creating layer ssd3_1_relu
I0929 19:42:28.644389 14878 net.cpp:100] Creating Layer ssd3_1_relu
I0929 19:42:28.644394 14878 net.cpp:434] ssd3_1_relu <- ssd3_1
I0929 19:42:28.644399 14878 net.cpp:395] ssd3_1_relu -> ssd3_1 (in-place)
I0929 19:42:28.644690 14878 net.cpp:150] Setting up ssd3_1_relu
I0929 19:42:28.644696 14878 net.cpp:157] Top shape: 1 128 3 4 (1536)
I0929 19:42:28.644701 14878 net.cpp:165] Memory required for data: 465626784
I0929 19:42:28.644703 14878 layer_factory.hpp:77] Creating layer ssd3_2
I0929 19:42:28.644711 14878 net.cpp:100] Creating Layer ssd3_2
I0929 19:42:28.644714 14878 net.cpp:434] ssd3_2 <- ssd3_1
I0929 19:42:28.644721 14878 net.cpp:408] ssd3_2 -> ssd3_2
I0929 19:42:28.647351 14878 net.cpp:150] Setting up ssd3_2
I0929 19:42:28.647359 14878 net.cpp:157] Top shape: 1 256 2 2 (1024)
I0929 19:42:28.647362 14878 net.cpp:165] Memory required for data: 465630880
I0929 19:42:28.647369 14878 layer_factory.hpp:77] Creating layer ssd3_2_relu
I0929 19:42:28.647377 14878 net.cpp:100] Creating Layer ssd3_2_relu
I0929 19:42:28.647380 14878 net.cpp:434] ssd3_2_relu <- ssd3_2
I0929 19:42:28.647384 14878 net.cpp:395] ssd3_2_relu -> ssd3_2 (in-place)
I0929 19:42:28.647675 14878 net.cpp:150] Setting up ssd3_2_relu
I0929 19:42:28.647689 14878 net.cpp:157] Top shape: 1 256 2 2 (1024)
I0929 19:42:28.647692 14878 net.cpp:165] Memory required for data: 465634976
I0929 19:42:28.647696 14878 layer_factory.hpp:77] Creating layer ssd3_2_ssd3_2_relu_0_split
I0929 19:42:28.647702 14878 net.cpp:100] Creating Layer ssd3_2_ssd3_2_relu_0_split
I0929 19:42:28.647706 14878 net.cpp:434] ssd3_2_ssd3_2_relu_0_split <- ssd3_2
I0929 19:42:28.647711 14878 net.cpp:408] ssd3_2_ssd3_2_relu_0_split -> ssd3_2_ssd3_2_relu_0_split_0
I0929 19:42:28.647717 14878 net.cpp:408] ssd3_2_ssd3_2_relu_0_split -> ssd3_2_ssd3_2_relu_0_split_1
I0929 19:42:28.647723 14878 net.cpp:408] ssd3_2_ssd3_2_relu_0_split -> ssd3_2_ssd3_2_relu_0_split_2
I0929 19:42:28.647730 14878 net.cpp:408] ssd3_2_ssd3_2_relu_0_split -> ssd3_2_ssd3_2_relu_0_split_3
I0929 19:42:28.647778 14878 net.cpp:150] Setting up ssd3_2_ssd3_2_relu_0_split
I0929 19:42:28.647783 14878 net.cpp:157] Top shape: 1 256 2 2 (1024)
I0929 19:42:28.647786 14878 net.cpp:157] Top shape: 1 256 2 2 (1024)
I0929 19:42:28.647791 14878 net.cpp:157] Top shape: 1 256 2 2 (1024)
I0929 19:42:28.647795 14878 net.cpp:157] Top shape: 1 256 2 2 (1024)
I0929 19:42:28.647797 14878 net.cpp:165] Memory required for data: 465651360
I0929 19:42:28.647801 14878 layer_factory.hpp:77] Creating layer ssd4_1
I0929 19:42:28.647809 14878 net.cpp:100] Creating Layer ssd4_1
I0929 19:42:28.647812 14878 net.cpp:434] ssd4_1 <- ssd3_2_ssd3_2_relu_0_split_0
I0929 19:42:28.647819 14878 net.cpp:408] ssd4_1 -> ssd4_1
I0929 19:42:28.649066 14878 net.cpp:150] Setting up ssd4_1
I0929 19:42:28.649075 14878 net.cpp:157] Top shape: 1 128 2 2 (512)
I0929 19:42:28.649077 14878 net.cpp:165] Memory required for data: 465653408
I0929 19:42:28.649083 14878 layer_factory.hpp:77] Creating layer ssd4_1_relu
I0929 19:42:28.649089 14878 net.cpp:100] Creating Layer ssd4_1_relu
I0929 19:42:28.649093 14878 net.cpp:434] ssd4_1_relu <- ssd4_1
I0929 19:42:28.649097 14878 net.cpp:395] ssd4_1_relu -> ssd4_1 (in-place)
I0929 19:42:28.649382 14878 net.cpp:150] Setting up ssd4_1_relu
I0929 19:42:28.649389 14878 net.cpp:157] Top shape: 1 128 2 2 (512)
I0929 19:42:28.649392 14878 net.cpp:165] Memory required for data: 465655456
I0929 19:42:28.649395 14878 layer_factory.hpp:77] Creating layer ssd4_2
I0929 19:42:28.649404 14878 net.cpp:100] Creating Layer ssd4_2
I0929 19:42:28.649406 14878 net.cpp:434] ssd4_2 <- ssd4_1
I0929 19:42:28.649412 14878 net.cpp:408] ssd4_2 -> ssd4_2
I0929 19:42:28.652144 14878 net.cpp:150] Setting up ssd4_2
I0929 19:42:28.652154 14878 net.cpp:157] Top shape: 1 256 1 1 (256)
I0929 19:42:28.652158 14878 net.cpp:165] Memory required for data: 465656480
I0929 19:42:28.652164 14878 layer_factory.hpp:77] Creating layer ssd4_2_relu
I0929 19:42:28.652169 14878 net.cpp:100] Creating Layer ssd4_2_relu
I0929 19:42:28.652173 14878 net.cpp:434] ssd4_2_relu <- ssd4_2
I0929 19:42:28.652179 14878 net.cpp:395] ssd4_2_relu -> ssd4_2 (in-place)
I0929 19:42:28.652477 14878 net.cpp:150] Setting up ssd4_2_relu
I0929 19:42:28.652482 14878 net.cpp:157] Top shape: 1 256 1 1 (256)
I0929 19:42:28.652485 14878 net.cpp:165] Memory required for data: 465657504
I0929 19:42:28.652488 14878 layer_factory.hpp:77] Creating layer ssd4_2_ssd4_2_relu_0_split
I0929 19:42:28.652495 14878 net.cpp:100] Creating Layer ssd4_2_ssd4_2_relu_0_split
I0929 19:42:28.652499 14878 net.cpp:434] ssd4_2_ssd4_2_relu_0_split <- ssd4_2
I0929 19:42:28.652504 14878 net.cpp:408] ssd4_2_ssd4_2_relu_0_split -> ssd4_2_ssd4_2_relu_0_split_0
I0929 19:42:28.652511 14878 net.cpp:408] ssd4_2_ssd4_2_relu_0_split -> ssd4_2_ssd4_2_relu_0_split_1
I0929 19:42:28.652518 14878 net.cpp:408] ssd4_2_ssd4_2_relu_0_split -> ssd4_2_ssd4_2_relu_0_split_2
I0929 19:42:28.652555 14878 net.cpp:150] Setting up ssd4_2_ssd4_2_relu_0_split
I0929 19:42:28.652560 14878 net.cpp:157] Top shape: 1 256 1 1 (256)
I0929 19:42:28.652565 14878 net.cpp:157] Top shape: 1 256 1 1 (256)
I0929 19:42:28.652568 14878 net.cpp:157] Top shape: 1 256 1 1 (256)
I0929 19:42:28.652571 14878 net.cpp:165] Memory required for data: 465660576
I0929 19:42:28.652585 14878 layer_factory.hpp:77] Creating layer conv5_3/expand_norm
I0929 19:42:28.652590 14878 net.cpp:100] Creating Layer conv5_3/expand_norm
I0929 19:42:28.652595 14878 net.cpp:434] conv5_3/expand_norm <- conv5_3/expand_relu5_3/expand_0_split_1
I0929 19:42:28.652601 14878 net.cpp:408] conv5_3/expand_norm -> conv5_3/expand_norm
I0929 19:42:28.652734 14878 net.cpp:150] Setting up conv5_3/expand_norm
I0929 19:42:28.652740 14878 net.cpp:157] Top shape: 1 576 19 32 (350208)
I0929 19:42:28.652743 14878 net.cpp:165] Memory required for data: 467061408
I0929 19:42:28.652747 14878 layer_factory.hpp:77] Creating layer conv5_3/expand_norm_conv5_3/expand_norm_0_split
I0929 19:42:28.652752 14878 net.cpp:100] Creating Layer conv5_3/expand_norm_conv5_3/expand_norm_0_split
I0929 19:42:28.652756 14878 net.cpp:434] conv5_3/expand_norm_conv5_3/expand_norm_0_split <- conv5_3/expand_norm
I0929 19:42:28.652761 14878 net.cpp:408] conv5_3/expand_norm_conv5_3/expand_norm_0_split -> conv5_3/expand_norm_conv5_3/expand_norm_0_split_0
I0929 19:42:28.652768 14878 net.cpp:408] conv5_3/expand_norm_conv5_3/expand_norm_0_split -> conv5_3/expand_norm_conv5_3/expand_norm_0_split_1
I0929 19:42:28.652773 14878 net.cpp:408] conv5_3/expand_norm_conv5_3/expand_norm_0_split -> conv5_3/expand_norm_conv5_3/expand_norm_0_split_2
I0929 19:42:28.652807 14878 net.cpp:150] Setting up conv5_3/expand_norm_conv5_3/expand_norm_0_split
I0929 19:42:28.652812 14878 net.cpp:157] Top shape: 1 576 19 32 (350208)
I0929 19:42:28.652815 14878 net.cpp:157] Top shape: 1 576 19 32 (350208)
I0929 19:42:28.652820 14878 net.cpp:157] Top shape: 1 576 19 32 (350208)
I0929 19:42:28.652822 14878 net.cpp:165] Memory required for data: 471263904
I0929 19:42:28.652827 14878 layer_factory.hpp:77] Creating layer conv5_3/expand_norm_mbox_loc
I0929 19:42:28.652833 14878 net.cpp:100] Creating Layer conv5_3/expand_norm_mbox_loc
I0929 19:42:28.652837 14878 net.cpp:434] conv5_3/expand_norm_mbox_loc <- conv5_3/expand_norm_conv5_3/expand_norm_0_split_0
I0929 19:42:28.652843 14878 net.cpp:408] conv5_3/expand_norm_mbox_loc -> conv5_3/expand_norm_mbox_loc
I0929 19:42:28.654234 14878 net.cpp:150] Setting up conv5_3/expand_norm_mbox_loc
I0929 19:42:28.654242 14878 net.cpp:157] Top shape: 1 8 19 32 (4864)
I0929 19:42:28.654245 14878 net.cpp:165] Memory required for data: 471283360
I0929 19:42:28.654251 14878 layer_factory.hpp:77] Creating layer conv5_3/expand_norm_mbox_loc_perm
I0929 19:42:28.654258 14878 net.cpp:100] Creating Layer conv5_3/expand_norm_mbox_loc_perm
I0929 19:42:28.654261 14878 net.cpp:434] conv5_3/expand_norm_mbox_loc_perm <- conv5_3/expand_norm_mbox_loc
I0929 19:42:28.654268 14878 net.cpp:408] conv5_3/expand_norm_mbox_loc_perm -> conv5_3/expand_norm_mbox_loc_perm
I0929 19:42:28.654340 14878 net.cpp:150] Setting up conv5_3/expand_norm_mbox_loc_perm
I0929 19:42:28.654345 14878 net.cpp:157] Top shape: 1 19 32 8 (4864)
I0929 19:42:28.654347 14878 net.cpp:165] Memory required for data: 471302816
I0929 19:42:28.654350 14878 layer_factory.hpp:77] Creating layer conv5_3/expand_norm_mbox_loc_flat
I0929 19:42:28.654356 14878 net.cpp:100] Creating Layer conv5_3/expand_norm_mbox_loc_flat
I0929 19:42:28.654359 14878 net.cpp:434] conv5_3/expand_norm_mbox_loc_flat <- conv5_3/expand_norm_mbox_loc_perm
I0929 19:42:28.654366 14878 net.cpp:408] conv5_3/expand_norm_mbox_loc_flat -> conv5_3/expand_norm_mbox_loc_flat
I0929 19:42:28.654384 14878 net.cpp:150] Setting up conv5_3/expand_norm_mbox_loc_flat
I0929 19:42:28.654388 14878 net.cpp:157] Top shape: 1 4864 (4864)
I0929 19:42:28.654392 14878 net.cpp:165] Memory required for data: 471322272
I0929 19:42:28.654394 14878 layer_factory.hpp:77] Creating layer conv5_3/expand_norm_mbox_conf
I0929 19:42:28.654402 14878 net.cpp:100] Creating Layer conv5_3/expand_norm_mbox_conf
I0929 19:42:28.654405 14878 net.cpp:434] conv5_3/expand_norm_mbox_conf <- conv5_3/expand_norm_conv5_3/expand_norm_0_split_1
I0929 19:42:28.654412 14878 net.cpp:408] conv5_3/expand_norm_mbox_conf -> conv5_3/expand_norm_mbox_conf
I0929 19:42:28.655958 14878 net.cpp:150] Setting up conv5_3/expand_norm_mbox_conf
I0929 19:42:28.655974 14878 net.cpp:157] Top shape: 1 10 19 32 (6080)
I0929 19:42:28.655977 14878 net.cpp:165] Memory required for data: 471346592
I0929 19:42:28.655985 14878 layer_factory.hpp:77] Creating layer conv5_3/expand_norm_mbox_conf_perm
I0929 19:42:28.655992 14878 net.cpp:100] Creating Layer conv5_3/expand_norm_mbox_conf_perm
I0929 19:42:28.655995 14878 net.cpp:434] conv5_3/expand_norm_mbox_conf_perm <- conv5_3/expand_norm_mbox_conf
I0929 19:42:28.656002 14878 net.cpp:408] conv5_3/expand_norm_mbox_conf_perm -> conv5_3/expand_norm_mbox_conf_perm
I0929 19:42:28.656075 14878 net.cpp:150] Setting up conv5_3/expand_norm_mbox_conf_perm
I0929 19:42:28.656080 14878 net.cpp:157] Top shape: 1 19 32 10 (6080)
I0929 19:42:28.656081 14878 net.cpp:165] Memory required for data: 471370912
I0929 19:42:28.656085 14878 layer_factory.hpp:77] Creating layer conv5_3/expand_norm_mbox_conf_flat
I0929 19:42:28.656090 14878 net.cpp:100] Creating Layer conv5_3/expand_norm_mbox_conf_flat
I0929 19:42:28.656095 14878 net.cpp:434] conv5_3/expand_norm_mbox_conf_flat <- conv5_3/expand_norm_mbox_conf_perm
I0929 19:42:28.656100 14878 net.cpp:408] conv5_3/expand_norm_mbox_conf_flat -> conv5_3/expand_norm_mbox_conf_flat
I0929 19:42:28.656117 14878 net.cpp:150] Setting up conv5_3/expand_norm_mbox_conf_flat
I0929 19:42:28.656122 14878 net.cpp:157] Top shape: 1 6080 (6080)
I0929 19:42:28.656126 14878 net.cpp:165] Memory required for data: 471395232
I0929 19:42:28.656128 14878 layer_factory.hpp:77] Creating layer conv5_3/expand_norm_mbox_priorbox
I0929 19:42:28.656134 14878 net.cpp:100] Creating Layer conv5_3/expand_norm_mbox_priorbox
I0929 19:42:28.656137 14878 net.cpp:434] conv5_3/expand_norm_mbox_priorbox <- conv5_3/expand_norm_conv5_3/expand_norm_0_split_2
I0929 19:42:28.656141 14878 net.cpp:434] conv5_3/expand_norm_mbox_priorbox <- data_data_0_split_1
I0929 19:42:28.656148 14878 net.cpp:408] conv5_3/expand_norm_mbox_priorbox -> conv5_3/expand_norm_mbox_priorbox
I0929 19:42:28.656167 14878 net.cpp:150] Setting up conv5_3/expand_norm_mbox_priorbox
I0929 19:42:28.656172 14878 net.cpp:157] Top shape: 1 2 4864 (9728)
I0929 19:42:28.656175 14878 net.cpp:165] Memory required for data: 471434144
I0929 19:42:28.656178 14878 layer_factory.hpp:77] Creating layer conv6_4_mbox_loc
I0929 19:42:28.656186 14878 net.cpp:100] Creating Layer conv6_4_mbox_loc
I0929 19:42:28.656189 14878 net.cpp:434] conv6_4_mbox_loc <- conv6_4_relu6_4_0_split_1
I0929 19:42:28.656195 14878 net.cpp:408] conv6_4_mbox_loc -> conv6_4_mbox_loc
I0929 19:42:28.657744 14878 net.cpp:150] Setting up conv6_4_mbox_loc
I0929 19:42:28.657754 14878 net.cpp:157] Top shape: 1 8 10 16 (1280)
I0929 19:42:28.657757 14878 net.cpp:165] Memory required for data: 471439264
I0929 19:42:28.657765 14878 layer_factory.hpp:77] Creating layer conv6_4_mbox_loc_perm
I0929 19:42:28.657770 14878 net.cpp:100] Creating Layer conv6_4_mbox_loc_perm
I0929 19:42:28.657774 14878 net.cpp:434] conv6_4_mbox_loc_perm <- conv6_4_mbox_loc
I0929 19:42:28.657780 14878 net.cpp:408] conv6_4_mbox_loc_perm -> conv6_4_mbox_loc_perm
I0929 19:42:28.657855 14878 net.cpp:150] Setting up conv6_4_mbox_loc_perm
I0929 19:42:28.657860 14878 net.cpp:157] Top shape: 1 10 16 8 (1280)
I0929 19:42:28.657862 14878 net.cpp:165] Memory required for data: 471444384
I0929 19:42:28.657865 14878 layer_factory.hpp:77] Creating layer conv6_4_mbox_loc_flat
I0929 19:42:28.657869 14878 net.cpp:100] Creating Layer conv6_4_mbox_loc_flat
I0929 19:42:28.657873 14878 net.cpp:434] conv6_4_mbox_loc_flat <- conv6_4_mbox_loc_perm
I0929 19:42:28.657878 14878 net.cpp:408] conv6_4_mbox_loc_flat -> conv6_4_mbox_loc_flat
I0929 19:42:28.657898 14878 net.cpp:150] Setting up conv6_4_mbox_loc_flat
I0929 19:42:28.657902 14878 net.cpp:157] Top shape: 1 1280 (1280)
I0929 19:42:28.657905 14878 net.cpp:165] Memory required for data: 471449504
I0929 19:42:28.657907 14878 layer_factory.hpp:77] Creating layer conv6_4_mbox_conf
I0929 19:42:28.657915 14878 net.cpp:100] Creating Layer conv6_4_mbox_conf
I0929 19:42:28.657919 14878 net.cpp:434] conv6_4_mbox_conf <- conv6_4_relu6_4_0_split_2
I0929 19:42:28.657932 14878 net.cpp:408] conv6_4_mbox_conf -> conv6_4_mbox_conf
I0929 19:42:28.659574 14878 net.cpp:150] Setting up conv6_4_mbox_conf
I0929 19:42:28.659581 14878 net.cpp:157] Top shape: 1 10 10 16 (1600)
I0929 19:42:28.659584 14878 net.cpp:165] Memory required for data: 471455904
I0929 19:42:28.659590 14878 layer_factory.hpp:77] Creating layer conv6_4_mbox_conf_perm
I0929 19:42:28.659597 14878 net.cpp:100] Creating Layer conv6_4_mbox_conf_perm
I0929 19:42:28.659601 14878 net.cpp:434] conv6_4_mbox_conf_perm <- conv6_4_mbox_conf
I0929 19:42:28.659607 14878 net.cpp:408] conv6_4_mbox_conf_perm -> conv6_4_mbox_conf_perm
I0929 19:42:28.659682 14878 net.cpp:150] Setting up conv6_4_mbox_conf_perm
I0929 19:42:28.659687 14878 net.cpp:157] Top shape: 1 10 16 10 (1600)
I0929 19:42:28.659690 14878 net.cpp:165] Memory required for data: 471462304
I0929 19:42:28.659693 14878 layer_factory.hpp:77] Creating layer conv6_4_mbox_conf_flat
I0929 19:42:28.659699 14878 net.cpp:100] Creating Layer conv6_4_mbox_conf_flat
I0929 19:42:28.659703 14878 net.cpp:434] conv6_4_mbox_conf_flat <- conv6_4_mbox_conf_perm
I0929 19:42:28.659708 14878 net.cpp:408] conv6_4_mbox_conf_flat -> conv6_4_mbox_conf_flat
I0929 19:42:28.659726 14878 net.cpp:150] Setting up conv6_4_mbox_conf_flat
I0929 19:42:28.659730 14878 net.cpp:157] Top shape: 1 1600 (1600)
I0929 19:42:28.659732 14878 net.cpp:165] Memory required for data: 471468704
I0929 19:42:28.659735 14878 layer_factory.hpp:77] Creating layer conv6_4_mbox_priorbox
I0929 19:42:28.659742 14878 net.cpp:100] Creating Layer conv6_4_mbox_priorbox
I0929 19:42:28.659745 14878 net.cpp:434] conv6_4_mbox_priorbox <- conv6_4_relu6_4_0_split_3
I0929 19:42:28.659749 14878 net.cpp:434] conv6_4_mbox_priorbox <- data_data_0_split_2
I0929 19:42:28.659754 14878 net.cpp:408] conv6_4_mbox_priorbox -> conv6_4_mbox_priorbox
I0929 19:42:28.659775 14878 net.cpp:150] Setting up conv6_4_mbox_priorbox
I0929 19:42:28.659778 14878 net.cpp:157] Top shape: 1 2 1280 (2560)
I0929 19:42:28.659781 14878 net.cpp:165] Memory required for data: 471478944
I0929 19:42:28.659783 14878 layer_factory.hpp:77] Creating layer ssd1_2_mbox_loc
I0929 19:42:28.659792 14878 net.cpp:100] Creating Layer ssd1_2_mbox_loc
I0929 19:42:28.659795 14878 net.cpp:434] ssd1_2_mbox_loc <- ssd1_2_ssd1_2_relu_0_split_1
I0929 19:42:28.659801 14878 net.cpp:408] ssd1_2_mbox_loc -> ssd1_2_mbox_loc
I0929 19:42:28.661181 14878 net.cpp:150] Setting up ssd1_2_mbox_loc
I0929 19:42:28.661190 14878 net.cpp:157] Top shape: 1 8 5 8 (320)
I0929 19:42:28.661192 14878 net.cpp:165] Memory required for data: 471480224
I0929 19:42:28.661198 14878 layer_factory.hpp:77] Creating layer ssd1_2_mbox_loc_perm
I0929 19:42:28.661226 14878 net.cpp:100] Creating Layer ssd1_2_mbox_loc_perm
I0929 19:42:28.661229 14878 net.cpp:434] ssd1_2_mbox_loc_perm <- ssd1_2_mbox_loc
I0929 19:42:28.661234 14878 net.cpp:408] ssd1_2_mbox_loc_perm -> ssd1_2_mbox_loc_perm
I0929 19:42:28.661305 14878 net.cpp:150] Setting up ssd1_2_mbox_loc_perm
I0929 19:42:28.661310 14878 net.cpp:157] Top shape: 1 5 8 8 (320)
I0929 19:42:28.661314 14878 net.cpp:165] Memory required for data: 471481504
I0929 19:42:28.661317 14878 layer_factory.hpp:77] Creating layer ssd1_2_mbox_loc_flat
I0929 19:42:28.661324 14878 net.cpp:100] Creating Layer ssd1_2_mbox_loc_flat
I0929 19:42:28.661326 14878 net.cpp:434] ssd1_2_mbox_loc_flat <- ssd1_2_mbox_loc_perm
I0929 19:42:28.661331 14878 net.cpp:408] ssd1_2_mbox_loc_flat -> ssd1_2_mbox_loc_flat
I0929 19:42:28.661348 14878 net.cpp:150] Setting up ssd1_2_mbox_loc_flat
I0929 19:42:28.661352 14878 net.cpp:157] Top shape: 1 320 (320)
I0929 19:42:28.661355 14878 net.cpp:165] Memory required for data: 471482784
I0929 19:42:28.661358 14878 layer_factory.hpp:77] Creating layer ssd1_2_mbox_conf
I0929 19:42:28.661367 14878 net.cpp:100] Creating Layer ssd1_2_mbox_conf
I0929 19:42:28.661370 14878 net.cpp:434] ssd1_2_mbox_conf <- ssd1_2_ssd1_2_relu_0_split_2
I0929 19:42:28.661375 14878 net.cpp:408] ssd1_2_mbox_conf -> ssd1_2_mbox_conf
I0929 19:42:28.662777 14878 net.cpp:150] Setting up ssd1_2_mbox_conf
I0929 19:42:28.662792 14878 net.cpp:157] Top shape: 1 10 5 8 (400)
I0929 19:42:28.662796 14878 net.cpp:165] Memory required for data: 471484384
I0929 19:42:28.662801 14878 layer_factory.hpp:77] Creating layer ssd1_2_mbox_conf_perm
I0929 19:42:28.662808 14878 net.cpp:100] Creating Layer ssd1_2_mbox_conf_perm
I0929 19:42:28.662812 14878 net.cpp:434] ssd1_2_mbox_conf_perm <- ssd1_2_mbox_conf
I0929 19:42:28.662818 14878 net.cpp:408] ssd1_2_mbox_conf_perm -> ssd1_2_mbox_conf_perm
I0929 19:42:28.662895 14878 net.cpp:150] Setting up ssd1_2_mbox_conf_perm
I0929 19:42:28.662902 14878 net.cpp:157] Top shape: 1 5 8 10 (400)
I0929 19:42:28.662905 14878 net.cpp:165] Memory required for data: 471485984
I0929 19:42:28.662907 14878 layer_factory.hpp:77] Creating layer ssd1_2_mbox_conf_flat
I0929 19:42:28.662912 14878 net.cpp:100] Creating Layer ssd1_2_mbox_conf_flat
I0929 19:42:28.662916 14878 net.cpp:434] ssd1_2_mbox_conf_flat <- ssd1_2_mbox_conf_perm
I0929 19:42:28.662922 14878 net.cpp:408] ssd1_2_mbox_conf_flat -> ssd1_2_mbox_conf_flat
I0929 19:42:28.662940 14878 net.cpp:150] Setting up ssd1_2_mbox_conf_flat
I0929 19:42:28.662945 14878 net.cpp:157] Top shape: 1 400 (400)
I0929 19:42:28.662950 14878 net.cpp:165] Memory required for data: 471487584
I0929 19:42:28.662952 14878 layer_factory.hpp:77] Creating layer ssd1_2_mbox_priorbox
I0929 19:42:28.662957 14878 net.cpp:100] Creating Layer ssd1_2_mbox_priorbox
I0929 19:42:28.662961 14878 net.cpp:434] ssd1_2_mbox_priorbox <- ssd1_2_ssd1_2_relu_0_split_3
I0929 19:42:28.662964 14878 net.cpp:434] ssd1_2_mbox_priorbox <- data_data_0_split_3
I0929 19:42:28.662971 14878 net.cpp:408] ssd1_2_mbox_priorbox -> ssd1_2_mbox_priorbox
I0929 19:42:28.662989 14878 net.cpp:150] Setting up ssd1_2_mbox_priorbox
I0929 19:42:28.662997 14878 net.cpp:157] Top shape: 1 2 320 (640)
I0929 19:42:28.662999 14878 net.cpp:165] Memory required for data: 471490144
I0929 19:42:28.663002 14878 layer_factory.hpp:77] Creating layer ssd2_2_mbox_loc
I0929 19:42:28.663009 14878 net.cpp:100] Creating Layer ssd2_2_mbox_loc
I0929 19:42:28.663012 14878 net.cpp:434] ssd2_2_mbox_loc <- ssd2_2_ssd2_2_relu_0_split_1
I0929 19:42:28.663018 14878 net.cpp:408] ssd2_2_mbox_loc -> ssd2_2_mbox_loc
I0929 19:42:28.664333 14878 net.cpp:150] Setting up ssd2_2_mbox_loc
I0929 19:42:28.664341 14878 net.cpp:157] Top shape: 1 8 3 4 (96)
I0929 19:42:28.664345 14878 net.cpp:165] Memory required for data: 471490528
I0929 19:42:28.664350 14878 layer_factory.hpp:77] Creating layer ssd2_2_mbox_loc_perm
I0929 19:42:28.664357 14878 net.cpp:100] Creating Layer ssd2_2_mbox_loc_perm
I0929 19:42:28.664361 14878 net.cpp:434] ssd2_2_mbox_loc_perm <- ssd2_2_mbox_loc
I0929 19:42:28.664366 14878 net.cpp:408] ssd2_2_mbox_loc_perm -> ssd2_2_mbox_loc_perm
I0929 19:42:28.664436 14878 net.cpp:150] Setting up ssd2_2_mbox_loc_perm
I0929 19:42:28.664440 14878 net.cpp:157] Top shape: 1 3 4 8 (96)
I0929 19:42:28.664444 14878 net.cpp:165] Memory required for data: 471490912
I0929 19:42:28.664446 14878 layer_factory.hpp:77] Creating layer ssd2_2_mbox_loc_flat
I0929 19:42:28.664453 14878 net.cpp:100] Creating Layer ssd2_2_mbox_loc_flat
I0929 19:42:28.664456 14878 net.cpp:434] ssd2_2_mbox_loc_flat <- ssd2_2_mbox_loc_perm
I0929 19:42:28.664461 14878 net.cpp:408] ssd2_2_mbox_loc_flat -> ssd2_2_mbox_loc_flat
I0929 19:42:28.664479 14878 net.cpp:150] Setting up ssd2_2_mbox_loc_flat
I0929 19:42:28.664484 14878 net.cpp:157] Top shape: 1 96 (96)
I0929 19:42:28.664486 14878 net.cpp:165] Memory required for data: 471491296
I0929 19:42:28.664489 14878 layer_factory.hpp:77] Creating layer ssd2_2_mbox_conf
I0929 19:42:28.664499 14878 net.cpp:100] Creating Layer ssd2_2_mbox_conf
I0929 19:42:28.664501 14878 net.cpp:434] ssd2_2_mbox_conf <- ssd2_2_ssd2_2_relu_0_split_2
I0929 19:42:28.664506 14878 net.cpp:408] ssd2_2_mbox_conf -> ssd2_2_mbox_conf
I0929 19:42:28.665724 14878 net.cpp:150] Setting up ssd2_2_mbox_conf
I0929 19:42:28.665731 14878 net.cpp:157] Top shape: 1 10 3 4 (120)
I0929 19:42:28.665735 14878 net.cpp:165] Memory required for data: 471491776
I0929 19:42:28.665740 14878 layer_factory.hpp:77] Creating layer ssd2_2_mbox_conf_perm
I0929 19:42:28.665753 14878 net.cpp:100] Creating Layer ssd2_2_mbox_conf_perm
I0929 19:42:28.665757 14878 net.cpp:434] ssd2_2_mbox_conf_perm <- ssd2_2_mbox_conf
I0929 19:42:28.665765 14878 net.cpp:408] ssd2_2_mbox_conf_perm -> ssd2_2_mbox_conf_perm
I0929 19:42:28.665833 14878 net.cpp:150] Setting up ssd2_2_mbox_conf_perm
I0929 19:42:28.665839 14878 net.cpp:157] Top shape: 1 3 4 10 (120)
I0929 19:42:28.665841 14878 net.cpp:165] Memory required for data: 471492256
I0929 19:42:28.665844 14878 layer_factory.hpp:77] Creating layer ssd2_2_mbox_conf_flat
I0929 19:42:28.665850 14878 net.cpp:100] Creating Layer ssd2_2_mbox_conf_flat
I0929 19:42:28.665854 14878 net.cpp:434] ssd2_2_mbox_conf_flat <- ssd2_2_mbox_conf_perm
I0929 19:42:28.665860 14878 net.cpp:408] ssd2_2_mbox_conf_flat -> ssd2_2_mbox_conf_flat
I0929 19:42:28.665879 14878 net.cpp:150] Setting up ssd2_2_mbox_conf_flat
I0929 19:42:28.665882 14878 net.cpp:157] Top shape: 1 120 (120)
I0929 19:42:28.665885 14878 net.cpp:165] Memory required for data: 471492736
I0929 19:42:28.665889 14878 layer_factory.hpp:77] Creating layer ssd2_2_mbox_priorbox
I0929 19:42:28.665894 14878 net.cpp:100] Creating Layer ssd2_2_mbox_priorbox
I0929 19:42:28.665899 14878 net.cpp:434] ssd2_2_mbox_priorbox <- ssd2_2_ssd2_2_relu_0_split_3
I0929 19:42:28.665902 14878 net.cpp:434] ssd2_2_mbox_priorbox <- data_data_0_split_4
I0929 19:42:28.665910 14878 net.cpp:408] ssd2_2_mbox_priorbox -> ssd2_2_mbox_priorbox
I0929 19:42:28.665928 14878 net.cpp:150] Setting up ssd2_2_mbox_priorbox
I0929 19:42:28.665932 14878 net.cpp:157] Top shape: 1 2 96 (192)
I0929 19:42:28.665935 14878 net.cpp:165] Memory required for data: 471493504
I0929 19:42:28.665938 14878 layer_factory.hpp:77] Creating layer ssd3_2_mbox_loc
I0929 19:42:28.665946 14878 net.cpp:100] Creating Layer ssd3_2_mbox_loc
I0929 19:42:28.665949 14878 net.cpp:434] ssd3_2_mbox_loc <- ssd3_2_ssd3_2_relu_0_split_1
I0929 19:42:28.665956 14878 net.cpp:408] ssd3_2_mbox_loc -> ssd3_2_mbox_loc
I0929 19:42:28.667171 14878 net.cpp:150] Setting up ssd3_2_mbox_loc
I0929 19:42:28.667179 14878 net.cpp:157] Top shape: 1 8 2 2 (32)
I0929 19:42:28.667182 14878 net.cpp:165] Memory required for data: 471493632
I0929 19:42:28.667188 14878 layer_factory.hpp:77] Creating layer ssd3_2_mbox_loc_perm
I0929 19:42:28.667194 14878 net.cpp:100] Creating Layer ssd3_2_mbox_loc_perm
I0929 19:42:28.667198 14878 net.cpp:434] ssd3_2_mbox_loc_perm <- ssd3_2_mbox_loc
I0929 19:42:28.667204 14878 net.cpp:408] ssd3_2_mbox_loc_perm -> ssd3_2_mbox_loc_perm
I0929 19:42:28.667273 14878 net.cpp:150] Setting up ssd3_2_mbox_loc_perm
I0929 19:42:28.667277 14878 net.cpp:157] Top shape: 1 2 2 8 (32)
I0929 19:42:28.667279 14878 net.cpp:165] Memory required for data: 471493760
I0929 19:42:28.667282 14878 layer_factory.hpp:77] Creating layer ssd3_2_mbox_loc_flat
I0929 19:42:28.667289 14878 net.cpp:100] Creating Layer ssd3_2_mbox_loc_flat
I0929 19:42:28.667292 14878 net.cpp:434] ssd3_2_mbox_loc_flat <- ssd3_2_mbox_loc_perm
I0929 19:42:28.667297 14878 net.cpp:408] ssd3_2_mbox_loc_flat -> ssd3_2_mbox_loc_flat
I0929 19:42:28.667315 14878 net.cpp:150] Setting up ssd3_2_mbox_loc_flat
I0929 19:42:28.667320 14878 net.cpp:157] Top shape: 1 32 (32)
I0929 19:42:28.667322 14878 net.cpp:165] Memory required for data: 471493888
I0929 19:42:28.667325 14878 layer_factory.hpp:77] Creating layer ssd3_2_mbox_conf
I0929 19:42:28.667333 14878 net.cpp:100] Creating Layer ssd3_2_mbox_conf
I0929 19:42:28.667336 14878 net.cpp:434] ssd3_2_mbox_conf <- ssd3_2_ssd3_2_relu_0_split_2
I0929 19:42:28.667342 14878 net.cpp:408] ssd3_2_mbox_conf -> ssd3_2_mbox_conf
I0929 19:42:28.668560 14878 net.cpp:150] Setting up ssd3_2_mbox_conf
I0929 19:42:28.668567 14878 net.cpp:157] Top shape: 1 10 2 2 (40)
I0929 19:42:28.668570 14878 net.cpp:165] Memory required for data: 471494048
I0929 19:42:28.668576 14878 layer_factory.hpp:77] Creating layer ssd3_2_mbox_conf_perm
I0929 19:42:28.668581 14878 net.cpp:100] Creating Layer ssd3_2_mbox_conf_perm
I0929 19:42:28.668586 14878 net.cpp:434] ssd3_2_mbox_conf_perm <- ssd3_2_mbox_conf
I0929 19:42:28.668599 14878 net.cpp:408] ssd3_2_mbox_conf_perm -> ssd3_2_mbox_conf_perm
I0929 19:42:28.668669 14878 net.cpp:150] Setting up ssd3_2_mbox_conf_perm
I0929 19:42:28.668674 14878 net.cpp:157] Top shape: 1 2 2 10 (40)
I0929 19:42:28.668676 14878 net.cpp:165] Memory required for data: 471494208
I0929 19:42:28.668680 14878 layer_factory.hpp:77] Creating layer ssd3_2_mbox_conf_flat
I0929 19:42:28.668686 14878 net.cpp:100] Creating Layer ssd3_2_mbox_conf_flat
I0929 19:42:28.668689 14878 net.cpp:434] ssd3_2_mbox_conf_flat <- ssd3_2_mbox_conf_perm
I0929 19:42:28.668695 14878 net.cpp:408] ssd3_2_mbox_conf_flat -> ssd3_2_mbox_conf_flat
I0929 19:42:28.668714 14878 net.cpp:150] Setting up ssd3_2_mbox_conf_flat
I0929 19:42:28.668717 14878 net.cpp:157] Top shape: 1 40 (40)
I0929 19:42:28.668720 14878 net.cpp:165] Memory required for data: 471494368
I0929 19:42:28.668722 14878 layer_factory.hpp:77] Creating layer ssd3_2_mbox_priorbox
I0929 19:42:28.668730 14878 net.cpp:100] Creating Layer ssd3_2_mbox_priorbox
I0929 19:42:28.668732 14878 net.cpp:434] ssd3_2_mbox_priorbox <- ssd3_2_ssd3_2_relu_0_split_3
I0929 19:42:28.668736 14878 net.cpp:434] ssd3_2_mbox_priorbox <- data_data_0_split_5
I0929 19:42:28.668742 14878 net.cpp:408] ssd3_2_mbox_priorbox -> ssd3_2_mbox_priorbox
I0929 19:42:28.668761 14878 net.cpp:150] Setting up ssd3_2_mbox_priorbox
I0929 19:42:28.668766 14878 net.cpp:157] Top shape: 1 2 32 (64)
I0929 19:42:28.668768 14878 net.cpp:165] Memory required for data: 471494624
I0929 19:42:28.668771 14878 layer_factory.hpp:77] Creating layer ssd4_2_mbox_loc
I0929 19:42:28.668779 14878 net.cpp:100] Creating Layer ssd4_2_mbox_loc
I0929 19:42:28.668783 14878 net.cpp:434] ssd4_2_mbox_loc <- ssd4_2_ssd4_2_relu_0_split_0
I0929 19:42:28.668788 14878 net.cpp:408] ssd4_2_mbox_loc -> ssd4_2_mbox_loc
I0929 19:42:28.670004 14878 net.cpp:150] Setting up ssd4_2_mbox_loc
I0929 19:42:28.670011 14878 net.cpp:157] Top shape: 1 8 1 1 (8)
I0929 19:42:28.670015 14878 net.cpp:165] Memory required for data: 471494656
I0929 19:42:28.670020 14878 layer_factory.hpp:77] Creating layer ssd4_2_mbox_loc_perm
I0929 19:42:28.670027 14878 net.cpp:100] Creating Layer ssd4_2_mbox_loc_perm
I0929 19:42:28.670032 14878 net.cpp:434] ssd4_2_mbox_loc_perm <- ssd4_2_mbox_loc
I0929 19:42:28.670037 14878 net.cpp:408] ssd4_2_mbox_loc_perm -> ssd4_2_mbox_loc_perm
I0929 19:42:28.670107 14878 net.cpp:150] Setting up ssd4_2_mbox_loc_perm
I0929 19:42:28.670112 14878 net.cpp:157] Top shape: 1 1 1 8 (8)
I0929 19:42:28.670114 14878 net.cpp:165] Memory required for data: 471494688
I0929 19:42:28.670119 14878 layer_factory.hpp:77] Creating layer ssd4_2_mbox_loc_flat
I0929 19:42:28.670123 14878 net.cpp:100] Creating Layer ssd4_2_mbox_loc_flat
I0929 19:42:28.670127 14878 net.cpp:434] ssd4_2_mbox_loc_flat <- ssd4_2_mbox_loc_perm
I0929 19:42:28.670131 14878 net.cpp:408] ssd4_2_mbox_loc_flat -> ssd4_2_mbox_loc_flat
I0929 19:42:28.670151 14878 net.cpp:150] Setting up ssd4_2_mbox_loc_flat
I0929 19:42:28.670156 14878 net.cpp:157] Top shape: 1 8 (8)
I0929 19:42:28.670157 14878 net.cpp:165] Memory required for data: 471494720
I0929 19:42:28.670161 14878 layer_factory.hpp:77] Creating layer ssd4_2_mbox_conf
I0929 19:42:28.670169 14878 net.cpp:100] Creating Layer ssd4_2_mbox_conf
I0929 19:42:28.670172 14878 net.cpp:434] ssd4_2_mbox_conf <- ssd4_2_ssd4_2_relu_0_split_1
I0929 19:42:28.670178 14878 net.cpp:408] ssd4_2_mbox_conf -> ssd4_2_mbox_conf
I0929 19:42:28.671528 14878 net.cpp:150] Setting up ssd4_2_mbox_conf
I0929 19:42:28.671537 14878 net.cpp:157] Top shape: 1 10 1 1 (10)
I0929 19:42:28.671540 14878 net.cpp:165] Memory required for data: 471494760
I0929 19:42:28.671545 14878 layer_factory.hpp:77] Creating layer ssd4_2_mbox_conf_perm
I0929 19:42:28.671551 14878 net.cpp:100] Creating Layer ssd4_2_mbox_conf_perm
I0929 19:42:28.671556 14878 net.cpp:434] ssd4_2_mbox_conf_perm <- ssd4_2_mbox_conf
I0929 19:42:28.671561 14878 net.cpp:408] ssd4_2_mbox_conf_perm -> ssd4_2_mbox_conf_perm
I0929 19:42:28.671631 14878 net.cpp:150] Setting up ssd4_2_mbox_conf_perm
I0929 19:42:28.671644 14878 net.cpp:157] Top shape: 1 1 1 10 (10)
I0929 19:42:28.671648 14878 net.cpp:165] Memory required for data: 471494800
I0929 19:42:28.671650 14878 layer_factory.hpp:77] Creating layer ssd4_2_mbox_conf_flat
I0929 19:42:28.671654 14878 net.cpp:100] Creating Layer ssd4_2_mbox_conf_flat
I0929 19:42:28.671658 14878 net.cpp:434] ssd4_2_mbox_conf_flat <- ssd4_2_mbox_conf_perm
I0929 19:42:28.671664 14878 net.cpp:408] ssd4_2_mbox_conf_flat -> ssd4_2_mbox_conf_flat
I0929 19:42:28.671684 14878 net.cpp:150] Setting up ssd4_2_mbox_conf_flat
I0929 19:42:28.671687 14878 net.cpp:157] Top shape: 1 10 (10)
I0929 19:42:28.671689 14878 net.cpp:165] Memory required for data: 471494840
I0929 19:42:28.671694 14878 layer_factory.hpp:77] Creating layer ssd4_2_mbox_priorbox
I0929 19:42:28.671699 14878 net.cpp:100] Creating Layer ssd4_2_mbox_priorbox
I0929 19:42:28.671702 14878 net.cpp:434] ssd4_2_mbox_priorbox <- ssd4_2_ssd4_2_relu_0_split_2
I0929 19:42:28.671705 14878 net.cpp:434] ssd4_2_mbox_priorbox <- data_data_0_split_6
I0929 19:42:28.671712 14878 net.cpp:408] ssd4_2_mbox_priorbox -> ssd4_2_mbox_priorbox
I0929 19:42:28.671733 14878 net.cpp:150] Setting up ssd4_2_mbox_priorbox
I0929 19:42:28.671737 14878 net.cpp:157] Top shape: 1 2 8 (16)
I0929 19:42:28.671739 14878 net.cpp:165] Memory required for data: 471494904
I0929 19:42:28.671743 14878 layer_factory.hpp:77] Creating layer mbox_loc
I0929 19:42:28.671748 14878 net.cpp:100] Creating Layer mbox_loc
I0929 19:42:28.671752 14878 net.cpp:434] mbox_loc <- conv5_3/expand_norm_mbox_loc_flat
I0929 19:42:28.671756 14878 net.cpp:434] mbox_loc <- conv6_4_mbox_loc_flat
I0929 19:42:28.671761 14878 net.cpp:434] mbox_loc <- ssd1_2_mbox_loc_flat
I0929 19:42:28.671766 14878 net.cpp:434] mbox_loc <- ssd2_2_mbox_loc_flat
I0929 19:42:28.671769 14878 net.cpp:434] mbox_loc <- ssd3_2_mbox_loc_flat
I0929 19:42:28.671773 14878 net.cpp:434] mbox_loc <- ssd4_2_mbox_loc_flat
I0929 19:42:28.671779 14878 net.cpp:408] mbox_loc -> mbox_loc
I0929 19:42:28.671798 14878 net.cpp:150] Setting up mbox_loc
I0929 19:42:28.671802 14878 net.cpp:157] Top shape: 1 6600 (6600)
I0929 19:42:28.671804 14878 net.cpp:165] Memory required for data: 471521304
I0929 19:42:28.671808 14878 layer_factory.hpp:77] Creating layer mbox_conf
I0929 19:42:28.671813 14878 net.cpp:100] Creating Layer mbox_conf
I0929 19:42:28.671816 14878 net.cpp:434] mbox_conf <- conv5_3/expand_norm_mbox_conf_flat
I0929 19:42:28.671820 14878 net.cpp:434] mbox_conf <- conv6_4_mbox_conf_flat
I0929 19:42:28.671824 14878 net.cpp:434] mbox_conf <- ssd1_2_mbox_conf_flat
I0929 19:42:28.671828 14878 net.cpp:434] mbox_conf <- ssd2_2_mbox_conf_flat
I0929 19:42:28.671833 14878 net.cpp:434] mbox_conf <- ssd3_2_mbox_conf_flat
I0929 19:42:28.671835 14878 net.cpp:434] mbox_conf <- ssd4_2_mbox_conf_flat
I0929 19:42:28.671840 14878 net.cpp:408] mbox_conf -> mbox_conf
I0929 19:42:28.671859 14878 net.cpp:150] Setting up mbox_conf
I0929 19:42:28.671864 14878 net.cpp:157] Top shape: 1 8250 (8250)
I0929 19:42:28.671865 14878 net.cpp:165] Memory required for data: 471554304
I0929 19:42:28.671869 14878 layer_factory.hpp:77] Creating layer mbox_priorbox
I0929 19:42:28.671874 14878 net.cpp:100] Creating Layer mbox_priorbox
I0929 19:42:28.671876 14878 net.cpp:434] mbox_priorbox <- conv5_3/expand_norm_mbox_priorbox
I0929 19:42:28.671880 14878 net.cpp:434] mbox_priorbox <- conv6_4_mbox_priorbox
I0929 19:42:28.671885 14878 net.cpp:434] mbox_priorbox <- ssd1_2_mbox_priorbox
I0929 19:42:28.671888 14878 net.cpp:434] mbox_priorbox <- ssd2_2_mbox_priorbox
I0929 19:42:28.671892 14878 net.cpp:434] mbox_priorbox <- ssd3_2_mbox_priorbox
I0929 19:42:28.671895 14878 net.cpp:434] mbox_priorbox <- ssd4_2_mbox_priorbox
I0929 19:42:28.671900 14878 net.cpp:408] mbox_priorbox -> mbox_priorbox
I0929 19:42:28.671919 14878 net.cpp:150] Setting up mbox_priorbox
I0929 19:42:28.671923 14878 net.cpp:157] Top shape: 1 2 6600 (13200)
I0929 19:42:28.671926 14878 net.cpp:165] Memory required for data: 471607104
I0929 19:42:28.671929 14878 layer_factory.hpp:77] Creating layer mbox_conf_reshape
I0929 19:42:28.671939 14878 net.cpp:100] Creating Layer mbox_conf_reshape
I0929 19:42:28.671943 14878 net.cpp:434] mbox_conf_reshape <- mbox_conf
I0929 19:42:28.671949 14878 net.cpp:408] mbox_conf_reshape -> mbox_conf_reshape
I0929 19:42:28.671973 14878 net.cpp:150] Setting up mbox_conf_reshape
I0929 19:42:28.671978 14878 net.cpp:157] Top shape: 1 1650 5 (8250)
I0929 19:42:28.671980 14878 net.cpp:165] Memory required for data: 471640104
I0929 19:42:28.671983 14878 layer_factory.hpp:77] Creating layer mbox_conf_softmax
I0929 19:42:28.671989 14878 net.cpp:100] Creating Layer mbox_conf_softmax
I0929 19:42:28.671993 14878 net.cpp:434] mbox_conf_softmax <- mbox_conf_reshape
I0929 19:42:28.671998 14878 net.cpp:408] mbox_conf_softmax -> mbox_conf_softmax
I0929 19:42:28.672334 14878 net.cpp:150] Setting up mbox_conf_softmax
I0929 19:42:28.672341 14878 net.cpp:157] Top shape: 1 1650 5 (8250)
I0929 19:42:28.672343 14878 net.cpp:165] Memory required for data: 471673104
I0929 19:42:28.672346 14878 layer_factory.hpp:77] Creating layer mbox_conf_flatten
I0929 19:42:28.672350 14878 net.cpp:100] Creating Layer mbox_conf_flatten
I0929 19:42:28.672354 14878 net.cpp:434] mbox_conf_flatten <- mbox_conf_softmax
I0929 19:42:28.672360 14878 net.cpp:408] mbox_conf_flatten -> mbox_conf_flatten
I0929 19:42:28.672379 14878 net.cpp:150] Setting up mbox_conf_flatten
I0929 19:42:28.672384 14878 net.cpp:157] Top shape: 1 8250 (8250)
I0929 19:42:28.672387 14878 net.cpp:165] Memory required for data: 471706104
I0929 19:42:28.672389 14878 layer_factory.hpp:77] Creating layer detection_out
I0929 19:42:28.672399 14878 net.cpp:100] Creating Layer detection_out
I0929 19:42:28.672401 14878 net.cpp:434] detection_out <- mbox_loc
I0929 19:42:28.672405 14878 net.cpp:434] detection_out <- mbox_conf_flatten
I0929 19:42:28.672410 14878 net.cpp:434] detection_out <- mbox_priorbox
I0929 19:42:28.672416 14878 net.cpp:408] detection_out -> detection_out
W0929 19:42:28.672441 14878 detection_output_layer.cpp:49] Failed to create directory: /home/zhongyilin/Documents/data/GTSDBdevkit/results/GTSDB/SSD_510x300_100_40_6_True_1/Main
I0929 19:42:28.672758 14878 net.cpp:150] Setting up detection_out
I0929 19:42:28.672765 14878 net.cpp:157] Top shape: 1 1 1 7 (7)
I0929 19:42:28.672767 14878 net.cpp:165] Memory required for data: 471706132
I0929 19:42:28.672770 14878 layer_factory.hpp:77] Creating layer detection_eval
I0929 19:42:28.672776 14878 net.cpp:100] Creating Layer detection_eval
I0929 19:42:28.672780 14878 net.cpp:434] detection_eval <- detection_out
I0929 19:42:28.672783 14878 net.cpp:434] detection_eval <- label
I0929 19:42:28.672788 14878 net.cpp:408] detection_eval -> detection_eval
I0929 19:42:28.672868 14878 net.cpp:150] Setting up detection_eval
I0929 19:42:28.672873 14878 net.cpp:157] Top shape: 1 1 5 5 (25)
I0929 19:42:28.672875 14878 net.cpp:165] Memory required for data: 471706232
I0929 19:42:28.672878 14878 net.cpp:228] detection_eval does not need backward computation.
I0929 19:42:28.672883 14878 net.cpp:228] detection_out does not need backward computation.
I0929 19:42:28.672885 14878 net.cpp:228] mbox_conf_flatten does not need backward computation.
I0929 19:42:28.672889 14878 net.cpp:228] mbox_conf_softmax does not need backward computation.
…
