…
      sampler {
        min_scale: 0.3
        max_scale: 1
        min_aspect_ratio: 0.5
        max_aspect_ratio: 2
      }
      sample_constraint {
        min_jaccard_overlap: 0.9
      }
      max_sample: 1
      max_trials: 50
    }
    batch_sampler {
      sampler {
        min_scale: 0.3
        max_scale: 1
        min_aspect_ratio: 0.5
        max_aspect_ratio: 2
      }
      sample_constraint {
        max_jaccard_overlap: 1
      }
      max_sample: 1
      max_trials: 50
    }
    label_map_file: "data/GTSDB/labelmap_GTSDB.prototxt"
  }
}
layer {
  name: "conv1"
  type: "Convolution"
  bottom: "data"
  top: "conv1"
  param {
    lr_mult: 1
    decay_mult: 1
  }
  convolution_param {
    num_output: 32
    bias_term: false
    pad: 1
    kernel_size: 3
    stride: 2
    weight_filler {
      type: "msra"
    }
  }
}
layer {
  name: "conv1/bn"
  type: "BatchNorm"
  bottom: "conv1"
  top: "conv1"
  batch_norm_param {
    use_global_stats: true
    eps: 1e-05
  }
}
layer {
  name: "conv1/scale"
  type: "Scale"
  bottom: "conv1"
  top: "conv1"
  param {
    lr_mult: 1
    decay_mult: 0
  }
  param {
    lr_mult: 1
    decay_mult: 0
  }
  scale_param {
    bias_term: true
  }
}
layer {
  name: "relu1"
  type: "ReLU"
  bottom: "conv1"
  top: "conv1"
}
layer {
  name: "conv2_1/expand"
  type: "Convolution"
  bottom: "conv1"
  top: "conv2_1/expand"
  param {
    lr_mult: 1
    decay_mult: 1
  }
  convolution_param {
    num_output: 32
    bias_term: false
    kernel_size: 1
    weight_filler {
      type: "msra"
    }
  }
}
layer {
  name: "conv2_1/expand/bn"
  type: "BatchNorm"
  bottom: "conv2_1/expand"
  top: "conv2_1/expand"
  batch_norm_param {
    use_global_stats: true
    eps: 1e-05
  }
}
layer {
  name: "conv2_1/expand/scale"
  type: "Scale"
  bottom: "conv2_1/expand"
  top: "conv2_1/expand"
  param {
    lr_mult: 1
    decay_mult: 0
  }
  param {
    lr_mult: 1
    decay_mult: 0
  }
  scale_param {
    bias_term: true
  }
}
layer {
  name: "relu2_1/expand"
  type: "ReLU"
  bottom: "conv2_1/expand"
  top: "conv2_1/expand"
}
layer {
  name: "conv2_1/dwise"
  type: "DepthwiseConvolution"
  bottom: "conv2_1/expand"
  top: "conv2_1/dwise"
  param {
    lr_mult: 1
    decay_mult: 1
  }
  convolution_param {
    num_output: 32
    bias_term: false
    pad: 1
    kernel_size: 3
    group: 32
    stride: 1
    weight_filler {
      type: "msra"
    }
  }
}
layer {
  name: "conv2_1/dwise/bn"
  type: "BatchNorm"
  bottom: "conv2_1/dwise"
  top: "conv2_1/dwise"
  batch_norm_param {
    use_global_stats: true
    eps: 1e-05
  }
}
layer {
  name: "conv2_1/dwise/scale"
  type: "Scale"
  bottom: "conv2_1/dwise"
  top: "conv2_1/dwise"
  param {
    lr_mult: 1
    decay_mult: 0
  }
  param {
    lr_mult: 1
    decay_mult: 0
  }
  scale_param {
    bias_term: true
  }
}
layer {
  name: "relu2_1/dwise"
  type: "ReLU"
  bottom: "conv2_1/dwise"
  top: "conv2_1/dwise"
}
layer {
  name: "conv2_1/linear"
  type: "Convolution"
  bottom: "conv2_1/dwise"
  top: "conv2_1/linear"
  param {
    lr_mult: 1
    decay_mult: 1
  }
  convolution_param {
    num_output: 16
    bias_term: false
    kernel_size: 1
    weight_filler {
      type: "msra"
    }
  }
}
layer {
  name: "conv2_1/linear/bn"
  type: "BatchNorm"
  bottom: "conv2_1/linear"
  top: "conv2_1/linear"
  batch_norm_param {
    use_global_stats: true
    eps: 1e-05
  }
}
layer {
  name: "conv2_1/linear/scale"
  type: "Scale"
  bottom: "conv2_1/linear"
  top: "conv2_1/linear"
  param {
    lr_mult: 1
    decay_mult: 0
  }
  param {
    lr_mult: 1
    decay_mult: 0
  }
  scale_param {
    bias_term: true
  }
}
layer {
  name: "conv2_2/expand"
  type: "Convolution"
  bottom: "conv2_1/linear"
  top: "conv2_2/expand"
  param {
    lr_mult: 1
    decay_mult: 1
  }
  convolution_param {
    num_output: 96
    bias_term: false
    kernel_size: 1
    weight_filler {
      type: "msra"
    }
  }
}
layer {
  name: "conv2_2/expand/bn"
  type: "BatchNorm"
  bottom: "conv2_2/expand"
  top: "conv2_2/expand"
  batch_norm_param {
    use_global_stats: true
    eps: 1e-05
  }
}
layer {
  name: "conv2_2/expand/scale"
  type: "Scale"
  bottom: "conv2_2/expand"
  top: "conv2_2/expand"
  param {
    lr_mult: 1
    decay_mult: 0
  }
  param {
    lr_mult: 1
    decay_mult: 0
  }
  scale_param {
    bias_term: true
  }
}
layer {
  name: "relu2_2/expand"
  type: "ReLU"
  bottom: "conv2_2/expand"
  top: "conv2_2/expand"
}
layer {
  name: "conv2_2/dwise"
  type: "DepthwiseConvolution"
  bottom: "conv2_2/expand"
  top: "conv2_2/dwise"
  param {
    lr_mult: 1
    decay_mult: 1
  }
  convolution_param {
    num_output: 96
    bias_term: false
    pad: 1
    kernel_size: 3
    group: 96
    stride: 2
    weight_filler {
      type: "msra"
    }
  }
}
layer {
  name: "conv2_2/dwise/bn"
  type: "BatchNorm"
  bottom: "conv2_2/dwise"
  top: "conv2_2/dwise"
  batch_norm_param {
    use_global_stats: true
    eps: 1e-05
  }
}
layer {
  name: "conv2_2/dwise/scale"
  type: "Scale"
  bottom: "conv2_2/dwise"
  top: "conv2_2/dwise"
  param {
    lr_mult: 1
    decay_mult: 0
  }
  param {
    lr_mult: 1
    decay_mult: 0
  }
  scale_param {
    bias_term: true
  }
}
layer {
  name: "relu2_2/dwise"
  type: "ReLU"
  bottom: "conv2_2/dwise"
  top: "conv2_2/dwise"
}
layer {
  name: "conv2_2/linear"
  type: "Convolution"
  bottom: "conv2_2/dwise"
  top: "conv2_2/linear"
  param {
    lr_mult: 1
    decay_mult: 1
  }
  convolution_param {
    num_output: 24
    bias_term: false
    kernel_size: 1
    weight_filler {
      type: "msra"
    }
  }
}
layer {
  name: "conv2_2/linear/bn"
  type: "BatchNorm"
  bottom: "conv2_2/linear"
  top: "conv2_2/linear"
  batch_norm_param {
    use_global_stats: true
    eps: 1e-05
  }
}
layer {
  name: "conv2_2/linear/scale"
  type: "Scale"
  bottom: "conv2_2/linear"
  top: "conv2_2/linear"
  param {
    lr_mult: 1
    decay_mult: 0
  }
  param {
    lr_mult: 1
    decay_mult: 0
  }
  scale_param {
    bias_term: true
  }
}
layer {
  name: "conv3_1/expand"
  type: "Convolution"
  bottom: "conv2_2/linear"
  top: "conv3_1/expand"
  param {
    lr_mult: 1
    decay_mult: 1
  }
  convolution_param {
    num_output: 144
    bias_term: false
    kernel_size: 1
    weight_filler {
      type: "msra"
    }
  }
}
layer {
  name: "conv3_1/expand/bn"
  type: "BatchNorm"
  bottom: "conv3_1/expand"
  top: "conv3_1/expand"
  batch_norm_param {
    use_global_stats: true
    eps: 1e-05
  }
}
layer {
  name: "conv3_1/expand/scale"
  type: "Scale"
  bottom: "conv3_1/expand"
  top: "conv3_1/expand"
  param {
    lr_mult: 1
    decay_mult: 0
  }
  param {
    lr_mult: 1
    decay_mult: 0
  }
  scale_param {
    bias_term: true
  }
}
layer {
  name: "relu3_1/expand"
  type: "ReLU"
  bottom: "conv3_1/expand"
  top: "conv3_1/expand"
}
layer {
  name: "conv3_1/dwise"
  type: "DepthwiseConvolution"
  bottom: "conv3_1/expand"
  top: "conv3_1/dwise"
  param {
    lr_mult: 1
    decay_mult: 1
  }
  convolution_param {
    num_output: 144
    bias_term: false
    pad: 1
    kernel_size: 3
    group: 144
    stride: 1
    weight_filler {
      type: "msra"
    }
  }
}
layer {
  name: "conv3_1/dwise/bn"
  type: "BatchNorm"
  bottom: "conv3_1/dwise"
  top: "conv3_1/dwise"
  batch_norm_param {
    use_global_stats: true
    eps: 1e-05
  }
}
layer {
  name: "conv3_1/dwise/scale"
  type: "Scale"
  bottom: "conv3_1/dwise"
  top: "conv3_1/dwise"
  param {
    lr_mult: 1
    decay_mult: 0
  }
  param {
    lr_mult: 1
    decay_mult: 0
  }
  scale_param {
    bias_term: true
  }
}
layer {
  name: "relu3_1/dwise"
  type: "ReLU"
  bottom: "conv3_1/dwise"
  top: "conv3_1/dwise"
}
layer {
  name: "conv3_1/linear"
  type: "Convolution"
  bottom: "conv3_1/dwise"
  top: "conv3_1/linear"
  param {
    lr_mult: 1
    decay_mult: 1
  }
  convolution_param {
    num_output: 24
    bias_term: false
    kernel_size: 1
    weight_filler {
      type: "msra"
    }
  }
}
layer {
  name: "conv3_1/linear/bn"
  type: "BatchNorm"
  bottom: "conv3_1/linear"
  top: "conv3_1/linear"
  batch_norm_param {
    use_global_stats: true
    eps: 1e-05
  }
}
layer {
  name: "conv3_1/linear/scale"
  type: "Scale"
  bottom: "conv3_1/linear"
  top: "conv3_1/linear"
  param {
    lr_mult: 1
    decay_mult: 0
  }
  param {
    lr_mult: 1
    decay_mult: 0
  }
  scale_param {
    bias_term: true
  }
}
layer {
  name: "block_3_1"
  type: "Eltwise"
  bottom: "conv2_2/linear"
  bottom: "conv3_1/linear"
  top: "block_3_1"
}
layer {
  name: "conv3_2/expand"
  type: "Convolution"
  bottom: "block_3_1"
  top: "conv3_2/expand"
  param {
    lr_mult: 1
    decay_mult: 1
  }
  convolution_param {
    num_output: 144
    bias_term: false
    kernel_size: 1
    weight_filler {
      type: "msra"
    }
  }
}
layer {
  name: "conv3_2/expand/bn"
  type: "BatchNorm"
  bottom: "conv3_2/expand"
  top: "conv3_2/expand"
  batch_norm_param {
    use_global_stats: true
    eps: 1e-05
  }
}
layer {
  name: "conv3_2/expand/scale"
  type: "Scale"
  bottom: "conv3_2/expand"
  top: "conv3_2/expand"
  param {
    lr_mult: 1
    decay_mult: 0
  }
  param {
    lr_mult: 1
    decay_mult: 0
  }
  scale_param {
    bias_term: true
  }
}
layer {
  name: "relu3_2/expand"
  type: "ReLU"
  bottom: "conv3_2/expand"
  top: "conv3_2/expand"
}
layer {
  name: "conv3_2/dwise"
  type: "DepthwiseConvolution"
  bottom: "conv3_2/expand"
  top: "conv3_2/dwise"
  param {
    lr_mult: 1
    decay_mult: 1
  }
  convolution_param {
    num_output: 144
    bias_term: false
    pad: 1
    kernel_size: 3
    group: 144
    stride: 2
    weight_filler {
      type: "msra"
    }
  }
}
layer {
  name: "conv3_2/dwise/bn"
  type: "BatchNorm"
  bottom: "conv3_2/dwise"
  top: "conv3_2/dwise"
  batch_norm_param {
    use_global_stats: true
    eps: 1e-05
  }
}
layer {
  name: "conv3_2/dwise/scale"
  type: "Scale"
  bottom: "conv3_2/dwise"
  top: "conv3_2/dwise"
  param {
    lr_mult: 1
    decay_mult: 0
  }
  param {
    lr_mult: 1
    decay_mult: 0
  }
  scale_param {
    bias_term: true
  }
}
layer {
  name: "relu3_2/dwise"
  type: "ReLU"
  bottom: "conv3_2/dwise"
  top: "conv3_2/dwise"
}
layer {
  name: "conv3_2/linear"
  type: "Convolution"
  bottom: "conv3_2/dwise"
  top: "conv3_2/linear"
  param {
    lr_mult: 1
    decay_mult: 1
  }
  convolution_param {
    num_output: 32
    bias_term: false
    kernel_size: 1
    weight_filler {
      type: "msra"
    }
  }
}
layer {
  name: "conv3_2/linear/bn"
  type: "BatchNorm"
  bottom: "conv3_2/linear"
  top: "conv3_2/linear"
  batch_norm_param {
    use_global_stats: true
    eps: 1e-05
  }
}
layer {
  name: "conv3_2/linear/scale"
  type: "Scale"
  bottom: "conv3_2/linear"
  top: "conv3_2/linear"
  param {
    lr_mult: 1
    decay_mult: 0
  }
  param {
    lr_mult: 1
    decay_mult: 0
  }
  scale_param {
    bias_term: true
  }
}
layer {
  name: "conv4_1/expand"
  type: "Convolution"
  bottom: "conv3_2/linear"
  top: "conv4_1/expand"
  param {
    lr_mult: 1
    decay_mult: 1
  }
  convolution_param {
    num_output: 192
    bias_term: false
    kernel_size: 1
    weight_filler {
      type: "msra"
    }
  }
}
layer {
  name: "conv4_1/expand/bn"
  type: "BatchNorm"
  bottom: "conv4_1/expand"
  top: "conv4_1/expand"
  batch_norm_param {
    use_global_stats: true
    eps: 1e-05
  }
}
layer {
  name: "conv4_1/expand/scale"
  type: "Scale"
  bottom: "conv4_1/expand"
  top: "conv4_1/expand"
  param {
    lr_mult: 1
    decay_mult: 0
  }
  param {
    lr_mult: 1
    decay_mult: 0
  }
  scale_param {
    bias_term: true
  }
}
layer {
  name: "relu4_1/expand"
  type: "ReLU"
  bottom: "conv4_1/expand"
  top: "conv4_1/expand"
}
layer {
  name: "conv4_1/dwise"
  type: "DepthwiseConvolution"
  bottom: "conv4_1/expand"
  top: "conv4_1/dwise"
  param {
    lr_mult: 1
    decay_mult: 1
  }
  convolution_param {
    num_output: 192
    bias_term: false
    pad: 1
    kernel_size: 3
    group: 192
    stride: 1
    weight_filler {
      type: "msra"
    }
  }
}
layer {
  name: "conv4_1/dwise/bn"
  type: "BatchNorm"
  bottom: "conv4_1/dwise"
  top: "conv4_1/dwise"
  batch_norm_param {
    use_global_stats: true
    eps: 1e-05
  }
}
layer {
  name: "conv4_1/dwise/scale"
  type: "Scale"
  bottom: "conv4_1/dwise"
  top: "conv4_1/dwise"
  param {
    lr_mult: 1
    decay_mult: 0
  }
  param {
    lr_mult: 1
    decay_mult: 0
  }
  scale_param {
    bias_term: true
  }
}
layer {
  name: "relu4_1/dwise"
  type: "ReLU"
  bottom: "conv4_1/dwise"
  top: "conv4_1/dwise"
}
layer {
  name: "conv4_1/linear"
  type: "Convolution"
  bottom: "conv4_1/dwise"
  top: "conv4_1/linear"
  param {
    lr_mult: 1
    decay_mult: 1
  }
  convolution_param {
    num_output: 32
    bias_term: false
    kernel_size: 1
    weight_filler {
      type: "msra"
    }
  }
}
layer {
  name: "conv4_1/linear/bn"
  type: "BatchNorm"
  bottom: "conv4_1/linear"
  top: "conv4_1/linear"
  batch_norm_param {
    use_global_stats: true
    eps: 1e-05
  }
}
layer {
  name: "conv4_1/linear/scale"
  type: "Scale"
  bottom: "conv4_1/linear"
  top: "conv4_1/linear"
  param {
    lr_mult: 1
    decay_mult: 0
  }
  param {
    lr_mult: 1
    decay_mult: 0
  }
  scale_param {
    bias_term: true
  }
}
layer {
  name: "block_4_1"
  type: "Eltwise"
  bottom: "conv3_2/linear"
  bottom: "conv4_1/linear"
  top: "block_4_1"
}
layer {
  name: "conv4_2/expand"
  type: "Convolution"
  bottom: "block_4_1"
  top: "conv4_2/expand"
  param {
    lr_mult: 1
    decay_mult: 1
  }
  convolution_param {
    num_output: 192
    bias_term: false
    kernel_size: 1
    weight_filler {
      type: "msra"
    }
  }
}
layer {
  name: "conv4_2/expand/bn"
  type: "BatchNorm"
  bottom: "conv4_2/expand"
  top: "conv4_2/expand"
  batch_norm_param {
    use_global_stats: true
    eps: 1e-05
  }
}
layer {
  name: "conv4_2/expand/scale"
  type: "Scale"
  bottom: "conv4_2/expand"
  top: "conv4_2/expand"
  param {
    lr_mult: 1
    decay_mult: 0
  }
  param {
    lr_mult: 1
    decay_mult: 0
  }
  scale_param {
    bias_term: true
  }
}
layer {
  name: "relu4_2/expand"
  type: "ReLU"
  bottom: "conv4_2/expand"
  top: "conv4_2/expand"
}
layer {
  name: "conv4_2/dwise"
  type: "DepthwiseConvolution"
  bottom: "conv4_2/expand"
  top: "conv4_2/dwise"
  param {
    lr_mult: 1
    decay_mult: 1
  }
  convolution_param {
    num_output: 192
    bias_term: false
    pad: 1
    kernel_size: 3
    group: 192
    stride: 1
    weight_filler {
      type: "msra"
    }
  }
}
layer {
  name: "conv4_2/dwise/bn"
  type: "BatchNorm"
  bottom: "conv4_2/dwise"
  top: "conv4_2/dwise"
  batch_norm_param {
    use_global_stats: true
    eps: 1e-05
  }
}
layer {
  name: "conv4_2/dwise/scale"
  type: "Scale"
  bottom: "conv4_2/dwise"
  top: "conv4_2/dwise"
  param {
    lr_mult: 1
    decay_mult: 0
  }
  param {
    lr_mult: 1
    decay_mult: 0
  }
  scale_param {
    bias_term: true
  }
}
layer {
  name: "relu4_2/dwise"
  type: "ReLU"
  bottom: "conv4_2/dwise"
  top: "conv4_2/dwise"
}
layer {
  name: "conv4_2/linear"
  type: "Convolution"
  bottom: "conv4_2/dwise"
  top: "conv4_2/linear"
  param {
    lr_mult: 1
    decay_mult: 1
  }
  convolution_param {
    num_output: 32
    bias_term: false
    kernel_size: 1
    weight_filler {
      type: "msra"
    }
  }
}
layer {
  name: "conv4_2/linear/bn"
  type: "BatchNorm"
  bottom: "conv4_2/linear"
  top: "conv4_2/linear"
  batch_norm_param {
    use_global_stats: true
    eps: 1e-05
  }
}
layer {
  name: "conv4_2/linear/scale"
  type: "Scale"
  bottom: "conv4_2/linear"
  top: "conv4_2/linear"
  param {
    lr_mult: 1
    decay_mult: 0
  }
  param {
    lr_mult: 1
    decay_mult: 0
  }
  scale_param {
    bias_term: true
  }
}
layer {
  name: "block_4_2"
  type: "Eltwise"
  bottom: "block_4_1"
  bottom: "conv4_2/linear"
  top: "block_4_2"
}
layer {
  name: "conv4_3/expand"
  type: "Convolution"
  bottom: "block_4_2"
  top: "conv4_3/expand"
  param {
    lr_mult: 1
    decay_mult: 1
  }
  convolution_param {
    num_output: 192
    bias_term: false
    kernel_size: 1
    weight_filler {
      type: "msra"
    }
  }
}
layer {
  name: "conv4_3/expand/bn"
  type: "BatchNorm"
  bottom: "conv4_3/expand"
  top: "conv4_3/expand"
  batch_norm_param {
    use_global_stats: true
    eps: 1e-05
  }
}
layer {
  name: "conv4_3/expand/scale"
  type: "Scale"
  bottom: "conv4_3/expand"
  top: "conv4_3/expand"
  param {
    lr_mult: 1
    decay_mult: 0
  }
  param {
    lr_mult: 1
    decay_mult: 0
  }
  scale_param {
    bias_term: true
  }
}
layer {
  name: "relu4_3/expand"
  type: "ReLU"
  bottom: "conv4_3/expand"
  top: "conv4_3/expand"
}
layer {
  name: "conv4_3/dwise"
  type: "DepthwiseConvolution"
  bottom: "conv4_3/expand"
  top: "conv4_3/dwise"
  param {
    lr_mult: 1
    decay_mult: 1
  }
  convolution_param {
    num_output: 192
    bias_term: false
    pad: 1
    kernel_size: 3
    group: 192
    stride: 1
    weight_filler {
      type: "msra"
    }
  }
}
layer {
  name: "conv4_3/dwise/bn"
  type: "BatchNorm"
  bottom: "conv4_3/dwise"
  top: "conv4_3/dwise"
  batch_norm_param {
    use_global_stats: true
    eps: 1e-05
  }
}
layer {
  name: "conv4_3/dwise/scale"
  type: "Scale"
  bottom: "conv4_3/dwise"
  top: "conv4_3/dwise"
  param {
    lr_mult: 1
    decay_mult: 0
  }
  param {
    lr_mult: 1
    decay_mult: 0
  }
  scale_param {
    bias_term: true
  }
}
layer {
  name: "relu4_3/dwise"
  type: "ReLU"
  bottom: "conv4_3/dwise"
  top: "conv4_3/dwise"
}
layer {
  name: "conv4_3/linear"
  type: "Convolution"
  bottom: "conv4_3/dwise"
  top: "conv4_3/linear"
  param {
    lr_mult: 1
    decay_mult: 1
  }
  convolution_param {
    num_output: 64
    bias_term: false
    kernel_size: 1
    weight_filler {
      type: "msra"
    }
  }
}
layer {
  name: "conv4_3/linear/bn"
  type: "BatchNorm"
  bottom: "conv4_3/linear"
  top: "conv4_3/linear"
  batch_norm_param {
    use_global_stats: true
    eps: 1e-05
  }
}
layer {
  name: "conv4_3/linear/scale"
  type: "Scale"
  bottom: "conv4_3/linear"
  top: "conv4_3/linear"
  param {
    lr_mult: 1
    decay_mult: 0
  }
  param {
    lr_mult: 1
    decay_mult: 0
  }
  scale_param {
    bias_term: true
  }
}
layer {
  name: "conv4_4/expand"
  type: "Convolution"
  bottom: "conv4_3/linear"
  top: "conv4_4/expand"
  param {
    lr_mult: 1
    decay_mult: 1
  }
  convolution_param {
    num_output: 384
    bias_term: false
    kernel_size: 1
    weight_filler {
      type: "msra"
    }
  }
}
layer {
  name: "conv4_4/expand/bn"
  type: "BatchNorm"
  bottom: "conv4_4/expand"
  top: "conv4_4/expand"
  batch_norm_param {
    use_global_stats: true
    eps: 1e-05
  }
}
layer {
  name: "conv4_4/expand/scale"
  type: "Scale"
  bottom: "conv4_4/expand"
  top: "conv4_4/expand"
  param {
    lr_mult: 1
    decay_mult: 0
  }
  param {
    lr_mult: 1
    decay_mult: 0
  }
  scale_param {
    bias_term: true
  }
}
layer {
  name: "relu4_4/expand"
  type: "ReLU"
  bottom: "conv4_4/expand"
  top: "conv4_4/expand"
}
layer {
  name: "conv4_4/dwise"
  type: "DepthwiseConvolution"
  bottom: "conv4_4/expand"
  top: "conv4_4/dwise"
  param {
    lr_mult: 1
    decay_mult: 1
  }
  convolution_param {
    num_output: 384
    bias_term: false
    pad: 1
    kernel_size: 3
    group: 384
    stride: 1
    weight_filler {
      type: "msra"
    }
  }
}
layer {
  name: "conv4_4/dwise/bn"
  type: "BatchNorm"
  bottom: "conv4_4/dwise"
  top: "conv4_4/dwise"
  batch_norm_param {
    use_global_stats: true
    eps: 1e-05
  }
}
layer {
  name: "conv4_4/dwise/scale"
  type: "Scale"
  bottom: "conv4_4/dwise"
  top: "conv4_4/dwise"
  param {
    lr_mult: 1
    decay_mult: 0
  }
  param {
    lr_mult: 1
    decay_mult: 0
  }
  scale_param {
    bias_term: true
  }
}
layer {
  name: "relu4_4/dwise"
  type: "ReLU"
  bottom: "conv4_4/dwise"
  top: "conv4_4/dwise"
}
layer {
  name: "conv4_4/linear"
  type: "Convolution"
  bottom: "conv4_4/dwise"
  top: "conv4_4/linear"
  param {
    lr_mult: 1
    decay_mult: 1
  }
  convolution_param {
    num_output: 64
    bias_term: false
    kernel_size: 1
    weight_filler {
      type: "msra"
    }
  }
}
layer {
  name: "conv4_4/linear/bn"
  type: "BatchNorm"
  bottom: "conv4_4/linear"
  top: "conv4_4/linear"
  batch_norm_param {
    use_global_stats: true
    eps: 1e-05
  }
}
layer {
  name: "conv4_4/linear/scale"
  type: "Scale"
  bottom: "conv4_4/linear"
  top: "conv4_4/linear"
  param {
    lr_mult: 1
    decay_mult: 0
  }
  param {
    lr_mult: 1
    decay_mult: 0
  }
  scale_param {
    bias_term: true
  }
}
layer {
  name: "block_4_4"
  type: "Eltwise"
  bottom: "conv4_3/linear"
  bottom: "conv4_4/linear"
  top: "block_4_4"
}
layer {
  name: "conv4_5/expand"
  type: "Convolution"
  bottom: "block_4_4"
  top: "conv4_5/expand"
  param {
    lr_mult: 1
    decay_mult: 1
  }
  convolution_param {
    num_output: 384
    bias_term: false
    kernel_size: 1
    weight_filler {
      type: "msra"
    }
  }
}
layer {
  name: "conv4_5/expand/bn"
  type: "BatchNorm"
  bottom: "conv4_5/expand"
  top: "conv4_5/expand"
  batch_norm_param {
    use_global_stats: true
    eps: 1e-05
  }
}
layer {
  name: "conv4_5/expand/scale"
  type: "Scale"
  bottom: "conv4_5/expand"
  top: "conv4_5/expand"
  param {
    lr_mult: 1
    decay_mult: 0
  }
  param {
    lr_mult: 1
    decay_mult: 0
  }
  scale_param {
    bias_term: true
  }
}
layer {
  name: "relu4_5/expand"
  type: "ReLU"
  bottom: "conv4_5/expand"
  top: "conv4_5/expand"
}
layer {
  name: "conv4_5/dwise"
  type: "DepthwiseConvolution"
  bottom: "conv4_5/expand"
  top: "conv4_5/dwise"
  param {
    lr_mult: 1
    decay_mult: 1
  }
  convolution_param {
    num_output: 384
    bias_term: false
    pad: 1
    kernel_size: 3
    group: 384
    stride: 1
    weight_filler {
      type: "msra"
    }
  }
}
layer {
  name: "conv4_5/dwise/bn"
  type: "BatchNorm"
  bottom: "conv4_5/dwise"
  top: "conv4_5/dwise"
  batch_norm_param {
    use_global_stats: true
    eps: 1e-05
  }
}
layer {
  name: "conv4_5/dwise/scale"
  type: "Scale"
  bottom: "conv4_5/dwise"
  top: "conv4_5/dwise"
  param {
    lr_mult: 1
    decay_mult: 0
  }
  param {
    lr_mult: 1
    decay_mult: 0
  }
  scale_param {
    bias_term: true
  }
}
layer {
  name: "relu4_5/dwise"
  type: "ReLU"
  bottom: "conv4_5/dwise"
  top: "conv4_5/dwise"
}
layer {
  name: "conv4_5/linear"
  type: "Convolution"
  bottom: "conv4_5/dwise"
  top: "conv4_5/linear"
  param {
    lr_mult: 1
    decay_mult: 1
  }
  convolution_param {
    num_output: 64
    bias_term: false
    kernel_size: 1
    weight_filler {
      type: "msra"
    }
  }
}
layer {
  name: "conv4_5/linear/bn"
  type: "BatchNorm"
  bottom: "conv4_5/linear"
  top: "conv4_5/linear"
  batch_norm_param {
    use_global_stats: true
    eps: 1e-05
  }
}
layer {
  name: "conv4_5/linear/scale"
  type: "Scale"
  bottom: "conv4_5/linear"
  top: "conv4_5/linear"
  param {
    lr_mult: 1
    decay_mult: 0
  }
  param {
    lr_mult: 1
    decay_mult: 0
  }
  scale_param {
    bias_term: true
  }
}
layer {
  name: "block_4_5"
  type: "Eltwise"
  bottom: "block_4_4"
  bottom: "conv4_5/linear"
  top: "block_4_5"
}
layer {
  name: "conv4_6/expand"
  type: "Convolution"
  bottom: "block_4_5"
  top: "conv4_6/expand"
  param {
    lr_mult: 1
    decay_mult: 1
  }
  convolution_param {
    num_output: 384
    bias_term: false
    kernel_size: 1
    weight_filler {
      type: "msra"
    }
  }
}
layer {
  name: "conv4_6/expand/bn"
  type: "BatchNorm"
  bottom: "conv4_6/expand"
  top: "conv4_6/expand"
  batch_norm_param {
    use_global_stats: true
    eps: 1e-05
  }
}
layer {
  name: "conv4_6/expand/scale"
  type: "Scale"
  bottom: "conv4_6/expand"
  top: "conv4_6/expand"
  param {
    lr_mult: 1
    decay_mult: 0
  }
  param {
    lr_mult: 1
    decay_mult: 0
  }
  scale_param {
    bias_term: true
  }
}
layer {
  name: "relu4_6/expand"
  type: "ReLU"
  bottom: "conv4_6/expand"
  top: "conv4_6/expand"
}
layer {
  name: "conv4_6/dwise"
  type: "DepthwiseConvolution"
  bottom: "conv4_6/expand"
  top: "conv4_6/dwise"
  param {
    lr_mult: 1
    decay_mult: 1
  }
  convolution_param {
    num_output: 384
    bias_term: false
    pad: 1
    kernel_size: 3
    group: 384
    stride: 1
    weight_filler {
      type: "msra"
    }
  }
}
layer {
  name: "conv4_6/dwise/bn"
  type: "BatchNorm"
  bottom: "conv4_6/dwise"
  top: "conv4_6/dwise"
  batch_norm_param {
    use_global_stats: true
    eps: 1e-05
  }
}
layer {
  name: "conv4_6/dwise/scale"
  type: "Scale"
  bottom: "conv4_6/dwise"
  top: "conv4_6/dwise"
  param {
    lr_mult: 1
    decay_mult: 0
  }
  param {
    lr_mult: 1
    decay_mult: 0
  }
  scale_param {
    bias_term: true
  }
}
layer {
  name: "relu4_6/dwise"
  type: "ReLU"
  bottom: "conv4_6/dwise"
  top: "conv4_6/dwise"
}
layer {
  name: "conv4_6/linear"
  type: "Convolution"
  bottom: "conv4_6/dwise"
  top: "conv4_6/linear"
  param {
    lr_mult: 1
    decay_mult: 1
  }
  convolution_param {
    num_output: 64
    bias_term: false
    kernel_size: 1
    weight_filler {
      type: "msra"
    }
  }
}
layer {
  name: "conv4_6/linear/bn"
  type: "BatchNorm"
  bottom: "conv4_6/linear"
  top: "conv4_6/linear"
  batch_norm_param {
    use_global_stats: true
    eps: 1e-05
  }
}
layer {
  name: "conv4_6/linear/scale"
  type: "Scale"
  bottom: "conv4_6/linear"
  top: "conv4_6/linear"
  param {
    lr_mult: 1
    decay_mult: 0
  }
  param {
    lr_mult: 1
    decay_mult: 0
  }
  scale_param {
    bias_term: true
  }
}
layer {
  name: "block_4_6"
  type: "Eltwise"
  bottom: "block_4_5"
  bottom: "conv4_6/linear"
  top: "block_4_6"
}
layer {
  name: "conv4_7/expand"
  type: "Convolution"
  bottom: "block_4_6"
  top: "conv4_7/expand"
  param {
    lr_mult: 1
    decay_mult: 1
  }
  convolution_param {
    num_output: 384
    bias_term: false
    kernel_size: 1
    weight_filler {
      type: "msra"
    }
  }
}
layer {
  name: "conv4_7/expand/bn"
  type: "BatchNorm"
  bottom: "conv4_7/expand"
  top: "conv4_7/expand"
  batch_norm_param {
    use_global_stats: true
    eps: 1e-05
  }
}
layer {
  name: "conv4_7/expand/scale"
  type: "Scale"
  bottom: "conv4_7/expand"
  top: "conv4_7/expand"
  param {
    lr_mult: 1
    decay_mult: 0
  }
  param {
    lr_mult: 1
    decay_mult: 0
  }
  scale_param {
    bias_term: true
  }
}
layer {
  name: "relu4_7/expand"
  type: "ReLU"
  bottom: "conv4_7/expand"
  top: "conv4_7/expand"
}
layer {
  name: "conv4_7/dwise"
  type: "DepthwiseConvolution"
  bottom: "conv4_7/expand"
  top: "conv4_7/dwise"
  param {
    lr_mult: 1
    decay_mult: 1
  }
  convolution_param {
    num_output: 384
    bias_term: false
    pad: 1
    kernel_size: 3
    group: 384
    stride: 2
    weight_filler {
      type: "msra"
    }
  }
}
layer {
  name: "conv4_7/dwise/bn"
  type: "BatchNorm"
  bottom: "conv4_7/dwise"
  top: "conv4_7/dwise"
  batch_norm_param {
    use_global_stats: true
    eps: 1e-05
  }
}
layer {
  name: "conv4_7/dwise/scale"
  type: "Scale"
  bottom: "conv4_7/dwise"
  top: "conv4_7/dwise"
  param {
    lr_mult: 1
    decay_mult: 0
  }
  param {
    lr_mult: 1
    decay_mult: 0
  }
  scale_param {
    bias_term: true
  }
}
layer {
  name: "relu4_7/dwise"
  type: "ReLU"
  bottom: "conv4_7/dwise"
  top: "conv4_7/dwise"
}
layer {
  name: "conv4_7/linear"
  type: "Convolution"
  bottom: "conv4_7/dwise"
  top: "conv4_7/linear"
  param {
    lr_mult: 1
    decay_mult: 1
  }
  convolution_param {
    num_output: 96
    bias_term: false
    kernel_size: 1
    weight_filler {
      type: "msra"
    }
  }
}
layer {
  name: "conv4_7/linear/bn"
  type: "BatchNorm"
  bottom: "conv4_7/linear"
  top: "conv4_7/linear"
  batch_norm_param {
    use_global_stats: true
    eps: 1e-05
  }
}
layer {
  name: "conv4_7/linear/scale"
  type: "Scale"
  bottom: "conv4_7/linear"
  top: "conv4_7/linear"
  param {
    lr_mult: 1
    decay_
I0927 20:47:41.705008 30323 layer_factory.hpp:77] Creating layer data
I0927 20:47:41.705114 30323 net.cpp:100] Creating Layer data
I0927 20:47:41.705123 30323 net.cpp:408] data -> data
I0927 20:47:41.705147 30323 net.cpp:408] data -> label
I0927 20:47:41.705801 30331 db_lmdb.cpp:35] Opened lmdb examples/GTSDB/GTSDB_trainval_lmdb
I0927 20:47:41.718034 30323 annotated_data_layer.cpp:62] output data size: 1,3,300,510
I0927 20:47:41.720690 30323 net.cpp:150] Setting up data
I0927 20:47:41.720710 30323 net.cpp:157] Top shape: 1 3 300 510 (459000)
I0927 20:47:41.720715 30323 net.cpp:157] Top shape: 1 1 3 8 (24)
I0927 20:47:41.720717 30323 net.cpp:165] Memory required for data: 1836096
I0927 20:47:41.720727 30323 layer_factory.hpp:77] Creating layer data_data_0_split
I0927 20:47:41.720738 30323 net.cpp:100] Creating Layer data_data_0_split
I0927 20:47:41.720743 30323 net.cpp:434] data_data_0_split <- data
I0927 20:47:41.720755 30323 net.cpp:408] data_data_0_split -> data_data_0_split_0
I0927 20:47:41.720764 30323 net.cpp:408] data_data_0_split -> data_data_0_split_1
I0927 20:47:41.720770 30323 net.cpp:408] data_data_0_split -> data_data_0_split_2
I0927 20:47:41.720778 30323 net.cpp:408] data_data_0_split -> data_data_0_split_3
I0927 20:47:41.720783 30323 net.cpp:408] data_data_0_split -> data_data_0_split_4
I0927 20:47:41.720790 30323 net.cpp:408] data_data_0_split -> data_data_0_split_5
I0927 20:47:41.720795 30323 net.cpp:408] data_data_0_split -> data_data_0_split_6
I0927 20:47:41.720865 30323 net.cpp:150] Setting up data_data_0_split
I0927 20:47:41.720871 30323 net.cpp:157] Top shape: 1 3 300 510 (459000)
I0927 20:47:41.720876 30323 net.cpp:157] Top shape: 1 3 300 510 (459000)
I0927 20:47:41.720880 30323 net.cpp:157] Top shape: 1 3 300 510 (459000)
I0927 20:47:41.720885 30323 net.cpp:157] Top shape: 1 3 300 510 (459000)
I0927 20:47:41.720890 30323 net.cpp:157] Top shape: 1 3 300 510 (459000)
I0927 20:47:41.720894 30323 net.cpp:157] Top shape: 1 3 300 510 (459000)
I0927 20:47:41.720898 30323 net.cpp:157] Top shape: 1 3 300 510 (459000)
I0927 20:47:41.720901 30323 net.cpp:165] Memory required for data: 14688096
I0927 20:47:41.720904 30323 layer_factory.hpp:77] Creating layer conv1
I0927 20:47:41.720916 30323 net.cpp:100] Creating Layer conv1
I0927 20:47:41.720921 30323 net.cpp:434] conv1 <- data_data_0_split_0
I0927 20:47:41.720926 30323 net.cpp:408] conv1 -> conv1
I0927 20:47:42.039811 30323 net.cpp:150] Setting up conv1
I0927 20:47:42.039834 30323 net.cpp:157] Top shape: 1 32 150 255 (1224000)
I0927 20:47:42.039836 30323 net.cpp:165] Memory required for data: 19584096
I0927 20:47:42.039856 30323 layer_factory.hpp:77] Creating layer conv1/bn
I0927 20:47:42.039866 30323 net.cpp:100] Creating Layer conv1/bn
I0927 20:47:42.039870 30323 net.cpp:434] conv1/bn <- conv1
I0927 20:47:42.039875 30323 net.cpp:395] conv1/bn -> conv1 (in-place)
I0927 20:47:42.040459 30323 net.cpp:150] Setting up conv1/bn
I0927 20:47:42.040467 30323 net.cpp:157] Top shape: 1 32 150 255 (1224000)
I0927 20:47:42.040470 30323 net.cpp:165] Memory required for data: 24480096
I0927 20:47:42.040482 30323 layer_factory.hpp:77] Creating layer conv1/scale
I0927 20:47:42.040489 30323 net.cpp:100] Creating Layer conv1/scale
I0927 20:47:42.040493 30323 net.cpp:434] conv1/scale <- conv1
I0927 20:47:42.040498 30323 net.cpp:395] conv1/scale -> conv1 (in-place)
I0927 20:47:42.040529 30323 layer_factory.hpp:77] Creating layer conv1/scale
I0927 20:47:42.040621 30323 net.cpp:150] Setting up conv1/scale
I0927 20:47:42.040627 30323 net.cpp:157] Top shape: 1 32 150 255 (1224000)
I0927 20:47:42.040630 30323 net.cpp:165] Memory required for data: 29376096
I0927 20:47:42.040637 30323 layer_factory.hpp:77] Creating layer relu1
I0927 20:47:42.040642 30323 net.cpp:100] Creating Layer relu1
I0927 20:47:42.040645 30323 net.cpp:434] relu1 <- conv1
I0927 20:47:42.040650 30323 net.cpp:395] relu1 -> conv1 (in-place)
I0927 20:47:42.040894 30323 net.cpp:150] Setting up relu1
I0927 20:47:42.040901 30323 net.cpp:157] Top shape: 1 32 150 255 (1224000)
I0927 20:47:42.040904 30323 net.cpp:165] Memory required for data: 34272096
I0927 20:47:42.040908 30323 layer_factory.hpp:77] Creating layer conv2_1/expand
I0927 20:47:42.040915 30323 net.cpp:100] Creating Layer conv2_1/expand
I0927 20:47:42.040918 30323 net.cpp:434] conv2_1/expand <- conv1
I0927 20:47:42.040923 30323 net.cpp:408] conv2_1/expand -> conv2_1/expand
I0927 20:47:42.041923 30323 net.cpp:150] Setting up conv2_1/expand
I0927 20:47:42.041930 30323 net.cpp:157] Top shape: 1 32 150 255 (1224000)
I0927 20:47:42.041934 30323 net.cpp:165] Memory required for data: 39168096
I0927 20:47:42.041939 30323 layer_factory.hpp:77] Creating layer conv2_1/expand/bn
I0927 20:47:42.041945 30323 net.cpp:100] Creating Layer conv2_1/expand/bn
I0927 20:47:42.041949 30323 net.cpp:434] conv2_1/expand/bn <- conv2_1/expand
I0927 20:47:42.041954 30323 net.cpp:395] conv2_1/expand/bn -> conv2_1/expand (in-place)
I0927 20:47:42.042078 30323 net.cpp:150] Setting up conv2_1/expand/bn
I0927 20:47:42.042084 30323 net.cpp:157] Top shape: 1 32 150 255 (1224000)
I0927 20:47:42.042088 30323 net.cpp:165] Memory required for data: 44064096
I0927 20:47:42.042095 30323 layer_factory.hpp:77] Creating layer conv2_1/expand/scale
I0927 20:47:42.042102 30323 net.cpp:100] Creating Layer conv2_1/expand/scale
I0927 20:47:42.042106 30323 net.cpp:434] conv2_1/expand/scale <- conv2_1/expand
I0927 20:47:42.042110 30323 net.cpp:395] conv2_1/expand/scale -> conv2_1/expand (in-place)
I0927 20:47:42.042137 30323 layer_factory.hpp:77] Creating layer conv2_1/expand/scale
I0927 20:47:42.042237 30323 net.cpp:150] Setting up conv2_1/expand/scale
I0927 20:47:42.042243 30323 net.cpp:157] Top shape: 1 32 150 255 (1224000)
I0927 20:47:42.042244 30323 net.cpp:165] Memory required for data: 48960096
I0927 20:47:42.042248 30323 layer_factory.hpp:77] Creating layer relu2_1/expand
I0927 20:47:42.042250 30323 net.cpp:100] Creating Layer relu2_1/expand
I0927 20:47:42.042253 30323 net.cpp:434] relu2_1/expand <- conv2_1/expand
I0927 20:47:42.042256 30323 net.cpp:395] relu2_1/expand -> conv2_1/expand (in-place)
I0927 20:47:42.042475 30323 net.cpp:150] Setting up relu2_1/expand
I0927 20:47:42.042480 30323 net.cpp:157] Top shape: 1 32 150 255 (1224000)
I0927 20:47:42.042482 30323 net.cpp:165] Memory required for data: 53856096
I0927 20:47:42.042484 30323 layer_factory.hpp:77] Creating layer conv2_1/dwise
I0927 20:47:42.042490 30323 net.cpp:100] Creating Layer conv2_1/dwise
I0927 20:47:42.042491 30323 net.cpp:434] conv2_1/dwise <- conv2_1/expand
I0927 20:47:42.042495 30323 net.cpp:408] conv2_1/dwise -> conv2_1/dwise
I0927 20:47:42.042608 30323 net.cpp:150] Setting up conv2_1/dwise
I0927 20:47:42.042611 30323 net.cpp:157] Top shape: 1 32 150 255 (1224000)
I0927 20:47:42.042614 30323 net.cpp:165] Memory required for data: 58752096
I0927 20:47:42.042618 30323 layer_factory.hpp:77] Creating layer conv2_1/dwise/bn
I0927 20:47:42.042621 30323 net.cpp:100] Creating Layer conv2_1/dwise/bn
I0927 20:47:42.042624 30323 net.cpp:434] conv2_1/dwise/bn <- conv2_1/dwise
I0927 20:47:42.042626 30323 net.cpp:395] conv2_1/dwise/bn -> conv2_1/dwise (in-place)
I0927 20:47:42.042742 30323 net.cpp:150] Setting up conv2_1/dwise/bn
I0927 20:47:42.042747 30323 net.cpp:157] Top shape: 1 32 150 255 (1224000)
I0927 20:47:42.042748 30323 net.cpp:165] Memory required for data: 63648096
I0927 20:47:42.042752 30323 layer_factory.hpp:77] Creating layer conv2_1/dwise/scale
I0927 20:47:42.042757 30323 net.cpp:100] Creating Layer conv2_1/dwise/scale
I0927 20:47:42.042759 30323 net.cpp:434] conv2_1/dwise/scale <- conv2_1/dwise
I0927 20:47:42.042762 30323 net.cpp:395] conv2_1/dwise/scale -> conv2_1/dwise (in-place)
I0927 20:47:42.042783 30323 layer_factory.hpp:77] Creating layer conv2_1/dwise/scale
I0927 20:47:42.042865 30323 net.cpp:150] Setting up conv2_1/dwise/scale
I0927 20:47:42.042868 30323 net.cpp:157] Top shape: 1 32 150 255 (1224000)
I0927 20:47:42.042870 30323 net.cpp:165] Memory required for data: 68544096
I0927 20:47:42.042876 30323 layer_factory.hpp:77] Creating layer relu2_1/dwise
I0927 20:47:42.042884 30323 net.cpp:100] Creating Layer relu2_1/dwise
I0927 20:47:42.042886 30323 net.cpp:434] relu2_1/dwise <- conv2_1/dwise
I0927 20:47:42.042889 30323 net.cpp:395] relu2_1/dwise -> conv2_1/dwise (in-place)
I0927 20:47:42.043112 30323 net.cpp:150] Setting up relu2_1/dwise
I0927 20:47:42.043118 30323 net.cpp:157] Top shape: 1 32 150 255 (1224000)
I0927 20:47:42.043120 30323 net.cpp:165] Memory required for data: 73440096
I0927 20:47:42.043123 30323 layer_factory.hpp:77] Creating layer conv2_1/linear
I0927 20:47:42.043126 30323 net.cpp:100] Creating Layer conv2_1/linear
I0927 20:47:42.043129 30323 net.cpp:434] conv2_1/linear <- conv2_1/dwise
I0927 20:47:42.043131 30323 net.cpp:408] conv2_1/linear -> conv2_1/linear
I0927 20:47:42.044191 30323 net.cpp:150] Setting up conv2_1/linear
I0927 20:47:42.044198 30323 net.cpp:157] Top shape: 1 16 150 255 (612000)
I0927 20:47:42.044200 30323 net.cpp:165] Memory required for data: 75888096
I0927 20:47:42.044204 30323 layer_factory.hpp:77] Creating layer conv2_1/linear/bn
I0927 20:47:42.044209 30323 net.cpp:100] Creating Layer conv2_1/linear/bn
I0927 20:47:42.044211 30323 net.cpp:434] conv2_1/linear/bn <- conv2_1/linear
I0927 20:47:42.044219 30323 net.cpp:395] conv2_1/linear/bn -> conv2_1/linear (in-place)
I0927 20:47:42.044348 30323 net.cpp:150] Setting up conv2_1/linear/bn
I0927 20:47:42.044353 30323 net.cpp:157] Top shape: 1 16 150 255 (612000)
I0927 20:47:42.044354 30323 net.cpp:165] Memory required for data: 78336096
I0927 20:47:42.044358 30323 layer_factory.hpp:77] Creating layer conv2_1/linear/scale
I0927 20:47:42.044374 30323 net.cpp:100] Creating Layer conv2_1/linear/scale
I0927 20:47:42.044378 30323 net.cpp:434] conv2_1/linear/scale <- conv2_1/linear
I0927 20:47:42.044380 30323 net.cpp:395] conv2_1/linear/scale -> conv2_1/linear (in-place)
I0927 20:47:42.044405 30323 layer_factory.hpp:77] Creating layer conv2_1/linear/scale
I0927 20:47:42.044490 30323 net.cpp:150] Setting up conv2_1/linear/scale
I0927 20:47:42.044495 30323 net.cpp:157] Top shape: 1 16 150 255 (612000)
I0927 20:47:42.044497 30323 net.cpp:165] Memory required for data: 80784096
I0927 20:47:42.044502 30323 layer_factory.hpp:77] Creating layer conv2_2/expand
I0927 20:47:42.044507 30323 net.cpp:100] Creating Layer conv2_2/expand
I0927 20:47:42.044509 30323 net.cpp:434] conv2_2/expand <- conv2_1/linear
I0927 20:47:42.044513 30323 net.cpp:408] conv2_2/expand -> conv2_2/expand
I0927 20:47:42.046087 30323 net.cpp:150] Setting up conv2_2/expand
I0927 20:47:42.046097 30323 net.cpp:157] Top shape: 1 96 150 255 (3672000)
I0927 20:47:42.046098 30323 net.cpp:165] Memory required for data: 95472096
I0927 20:47:42.046103 30323 layer_factory.hpp:77] Creating layer conv2_2/expand/bn
I0927 20:47:42.046108 30323 net.cpp:100] Creating Layer conv2_2/expand/bn
I0927 20:47:42.046109 30323 net.cpp:434] conv2_2/expand/bn <- conv2_2/expand
I0927 20:47:42.046113 30323 net.cpp:395] conv2_2/expand/bn -> conv2_2/expand (in-place)
I0927 20:47:42.046247 30323 net.cpp:150] Setting up conv2_2/expand/bn
I0927 20:47:42.046252 30323 net.cpp:157] Top shape: 1 96 150 255 (3672000)
I0927 20:47:42.046253 30323 net.cpp:165] Memory required for data: 110160096
I0927 20:47:42.046257 30323 layer_factory.hpp:77] Creating layer conv2_2/expand/scale
I0927 20:47:42.046262 30323 net.cpp:100] Creating Layer conv2_2/expand/scale
I0927 20:47:42.046264 30323 net.cpp:434] conv2_2/expand/scale <- conv2_2/expand
I0927 20:47:42.046267 30323 net.cpp:395] conv2_2/expand/scale -> conv2_2/expand (in-place)
I0927 20:47:42.046290 30323 layer_factory.hpp:77] Creating layer conv2_2/expand/scale
I0927 20:47:42.046803 30323 net.cpp:150] Setting up conv2_2/expand/scale
I0927 20:47:42.046810 30323 net.cpp:157] Top shape: 1 96 150 255 (3672000)
I0927 20:47:42.046813 30323 net.cpp:165] Memory required for data: 124848096
I0927 20:47:42.046816 30323 layer_factory.hpp:77] Creating layer relu2_2/expand
I0927 20:47:42.046820 30323 net.cpp:100] Creating Layer relu2_2/expand
I0927 20:47:42.046823 30323 net.cpp:434] relu2_2/expand <- conv2_2/expand
I0927 20:47:42.046826 30323 net.cpp:395] relu2_2/expand -> conv2_2/expand (in-place)
I0927 20:47:42.047099 30323 net.cpp:150] Setting up relu2_2/expand
I0927 20:47:42.047106 30323 net.cpp:157] Top shape: 1 96 150 255 (3672000)
I0927 20:47:42.047107 30323 net.cpp:165] Memory required for data: 139536096
I0927 20:47:42.047109 30323 layer_factory.hpp:77] Creating layer conv2_2/dwise
I0927 20:47:42.047116 30323 net.cpp:100] Creating Layer conv2_2/dwise
I0927 20:47:42.047117 30323 net.cpp:434] conv2_2/dwise <- conv2_2/expand
I0927 20:47:42.047122 30323 net.cpp:408] conv2_2/dwise -> conv2_2/dwise
I0927 20:47:42.047261 30323 net.cpp:150] Setting up conv2_2/dwise
I0927 20:47:42.047266 30323 net.cpp:157] Top shape: 1 96 75 128 (921600)
I0927 20:47:42.047268 30323 net.cpp:165] Memory required for data: 143222496
I0927 20:47:42.047272 30323 layer_factory.hpp:77] Creating layer conv2_2/dwise/bn
I0927 20:47:42.047276 30323 net.cpp:100] Creating Layer conv2_2/dwise/bn
I0927 20:47:42.047279 30323 net.cpp:434] conv2_2/dwise/bn <- conv2_2/dwise
I0927 20:47:42.047281 30323 net.cpp:395] conv2_2/dwise/bn -> conv2_2/dwise (in-place)
I0927 20:47:42.047817 30323 net.cpp:150] Setting up conv2_2/dwise/bn
I0927 20:47:42.047823 30323 net.cpp:157] Top shape: 1 96 75 128 (921600)
I0927 20:47:42.047825 30323 net.cpp:165] Memory required for data: 146908896
I0927 20:47:42.047833 30323 layer_factory.hpp:77] Creating layer conv2_2/dwise/scale
I0927 20:47:42.047839 30323 net.cpp:100] Creating Layer conv2_2/dwise/scale
I0927 20:47:42.047842 30323 net.cpp:434] conv2_2/dwise/scale <- conv2_2/dwise
I0927 20:47:42.047854 30323 net.cpp:395] conv2_2/dwise/scale -> conv2_2/dwise (in-place)
I0927 20:47:42.047883 30323 layer_factory.hpp:77] Creating layer conv2_2/dwise/scale
I0927 20:47:42.047952 30323 net.cpp:150] Setting up conv2_2/dwise/scale
I0927 20:47:42.047956 30323 net.cpp:157] Top shape: 1 96 75 128 (921600)
I0927 20:47:42.047958 30323 net.cpp:165] Memory required for data: 150595296
I0927 20:47:42.047961 30323 layer_factory.hpp:77] Creating layer relu2_2/dwise
I0927 20:47:42.047966 30323 net.cpp:100] Creating Layer relu2_2/dwise
I0927 20:47:42.047967 30323 net.cpp:434] relu2_2/dwise <- conv2_2/dwise
I0927 20:47:42.047971 30323 net.cpp:395] relu2_2/dwise -> conv2_2/dwise (in-place)
I0927 20:47:42.048353 30323 net.cpp:150] Setting up relu2_2/dwise
I0927 20:47:42.048362 30323 net.cpp:157] Top shape: 1 96 75 128 (921600)
I0927 20:47:42.048363 30323 net.cpp:165] Memory required for data: 154281696
I0927 20:47:42.048365 30323 layer_factory.hpp:77] Creating layer conv2_2/linear
I0927 20:47:42.048372 30323 net.cpp:100] Creating Layer conv2_2/linear
I0927 20:47:42.048374 30323 net.cpp:434] conv2_2/linear <- conv2_2/dwise
I0927 20:47:42.048377 30323 net.cpp:408] conv2_2/linear -> conv2_2/linear
I0927 20:47:42.049527 30323 net.cpp:150] Setting up conv2_2/linear
I0927 20:47:42.049535 30323 net.cpp:157] Top shape: 1 24 75 128 (230400)
I0927 20:47:42.049537 30323 net.cpp:165] Memory required for data: 155203296
I0927 20:47:42.049540 30323 layer_factory.hpp:77] Creating layer conv2_2/linear/bn
I0927 20:47:42.049546 30323 net.cpp:100] Creating Layer conv2_2/linear/bn
I0927 20:47:42.049548 30323 net.cpp:434] conv2_2/linear/bn <- conv2_2/linear
I0927 20:47:42.049552 30323 net.cpp:395] conv2_2/linear/bn -> conv2_2/linear (in-place)
I0927 20:47:42.049679 30323 net.cpp:150] Setting up conv2_2/linear/bn
I0927 20:47:42.049682 30323 net.cpp:157] Top shape: 1 24 75 128 (230400)
I0927 20:47:42.049685 30323 net.cpp:165] Memory required for data: 156124896
I0927 20:47:42.049688 30323 layer_factory.hpp:77] Creating layer conv2_2/linear/scale
I0927 20:47:42.049693 30323 net.cpp:100] Creating Layer conv2_2/linear/scale
I0927 20:47:42.049695 30323 net.cpp:434] conv2_2/linear/scale <- conv2_2/linear
I0927 20:47:42.049698 30323 net.cpp:395] conv2_2/linear/scale -> conv2_2/linear (in-place)
I0927 20:47:42.049721 30323 layer_factory.hpp:77] Creating layer conv2_2/linear/scale
I0927 20:47:42.049789 30323 net.cpp:150] Setting up conv2_2/linear/scale
I0927 20:47:42.049793 30323 net.cpp:157] Top shape: 1 24 75 128 (230400)
I0927 20:47:42.049795 30323 net.cpp:165] Memory required for data: 157046496
I0927 20:47:42.049799 30323 layer_factory.hpp:77] Creating layer conv2_2/linear_conv2_2/linear/scale_0_split
I0927 20:47:42.049804 30323 net.cpp:100] Creating Layer conv2_2/linear_conv2_2/linear/scale_0_split
I0927 20:47:42.049806 30323 net.cpp:434] conv2_2/linear_conv2_2/linear/scale_0_split <- conv2_2/linear
I0927 20:47:42.049810 30323 net.cpp:408] conv2_2/linear_conv2_2/linear/scale_0_split -> conv2_2/linear_conv2_2/linear/scale_0_split_0
I0927 20:47:42.049816 30323 net.cpp:408] conv2_2/linear_conv2_2/linear/scale_0_split -> conv2_2/linear_conv2_2/linear/scale_0_split_1
I0927 20:47:42.049839 30323 net.cpp:150] Setting up conv2_2/linear_conv2_2/linear/scale_0_split
I0927 20:47:42.049842 30323 net.cpp:157] Top shape: 1 24 75 128 (230400)
I0927 20:47:42.049845 30323 net.cpp:157] Top shape: 1 24 75 128 (230400)
I0927 20:47:42.049847 30323 net.cpp:165] Memory required for data: 158889696
I0927 20:47:42.049849 30323 layer_factory.hpp:77] Creating layer conv3_1/expand
I0927 20:47:42.049854 30323 net.cpp:100] Creating Layer conv3_1/expand
I0927 20:47:42.049856 30323 net.cpp:434] conv3_1/expand <- conv2_2/linear_conv2_2/linear/scale_0_split_0
I0927 20:47:42.049860 30323 net.cpp:408] conv3_1/expand -> conv3_1/expand
I0927 20:47:42.050902 30323 net.cpp:150] Setting up conv3_1/expand
I0927 20:47:42.050910 30323 net.cpp:157] Top shape: 1 144 75 128 (1382400)
I0927 20:47:42.050912 30323 net.cpp:165] Memory required for data: 164419296
I0927 20:47:42.050925 30323 layer_factory.hpp:77] Creating layer conv3_1/expand/bn
I0927 20:47:42.050930 30323 net.cpp:100] Creating Layer conv3_1/expand/bn
I0927 20:47:42.050931 30323 net.cpp:434] conv3_1/expand/bn <- conv3_1/expand
I0927 20:47:42.050935 30323 net.cpp:395] conv3_1/expand/bn -> conv3_1/expand (in-place)
I0927 20:47:42.051059 30323 net.cpp:150] Setting up conv3_1/expand/bn
I0927 20:47:42.051064 30323 net.cpp:157] Top shape: 1 144 75 128 (1382400)
I0927 20:47:42.051065 30323 net.cpp:165] Memory required for data: 169948896
I0927 20:47:42.051069 30323 layer_factory.hpp:77] Creating layer conv3_1/expand/scale
I0927 20:47:42.051074 30323 net.cpp:100] Creating Layer conv3_1/expand/scale
I0927 20:47:42.051075 30323 net.cpp:434] conv3_1/expand/scale <- conv3_1/expand
I0927 20:47:42.051079 30323 net.cpp:395] conv3_1/expand/scale -> conv3_1/expand (in-place)
I0927 20:47:42.051102 30323 layer_factory.hpp:77] Creating layer conv3_1/expand/scale
I0927 20:47:42.051172 30323 net.cpp:150] Setting up conv3_1/expand/scale
I0927 20:47:42.051177 30323 net.cpp:157] Top shape: 1 144 75 128 (1382400)
I0927 20:47:42.051178 30323 net.cpp:165] Memory required for data: 175478496
I0927 20:47:42.051182 30323 layer_factory.hpp:77] Creating layer relu3_1/expand
I0927 20:47:42.051189 30323 net.cpp:100] Creating Layer relu3_1/expand
I0927 20:47:42.051192 30323 net.cpp:434] relu3_1/expand <- conv3_1/expand
I0927 20:47:42.051194 30323 net.cpp:395] relu3_1/expand -> conv3_1/expand (in-place)
I0927 20:47:42.051458 30323 net.cpp:150] Setting up relu3_1/expand
I0927 20:47:42.051465 30323 net.cpp:157] Top shape: 1 144 75 128 (1382400)
I0927 20:47:42.051466 30323 net.cpp:165] Memory required for data: 181008096
I0927 20:47:42.051468 30323 layer_factory.hpp:77] Creating layer conv3_1/dwise
I0927 20:47:42.051473 30323 net.cpp:100] Creating Layer conv3_1/dwise
I0927 20:47:42.051476 30323 net.cpp:434] conv3_1/dwise <- conv3_1/expand
I0927 20:47:42.051481 30323 net.cpp:408] conv3_1/dwise -> conv3_1/dwise
I0927 20:47:42.051609 30323 net.cpp:150] Setting up conv3_1/dwise
I0927 20:47:42.051612 30323 net.cpp:157] Top shape: 1 144 75 128 (1382400)
I0927 20:47:42.051615 30323 net.cpp:165] Memory required for data: 186537696
I0927 20:47:42.051617 30323 layer_factory.hpp:77] Creating layer conv3_1/dwise/bn
I0927 20:47:42.051621 30323 net.cpp:100] Creating Layer conv3_1/dwise/bn
I0927 20:47:42.051623 30323 net.cpp:434] conv3_1/dwise/bn <- conv3_1/dwise
I0927 20:47:42.051626 30323 net.cpp:395] conv3_1/dwise/bn -> conv3_1/dwise (in-place)
I0927 20:47:42.051743 30323 net.cpp:150] Setting up conv3_1/dwise/bn
I0927 20:47:42.051746 30323 net.cpp:157] Top shape: 1 144 75 128 (1382400)
I0927 20:47:42.051748 30323 net.cpp:165] Memory required for data: 192067296
I0927 20:47:42.051753 30323 layer_factory.hpp:77] Creating layer conv3_1/dwise/scale
I0927 20:47:42.051756 30323 net.cpp:100] Creating Layer conv3_1/dwise/scale
I0927 20:47:42.051759 30323 net.cpp:434] conv3_1/dwise/scale <- conv3_1/dwise
I0927 20:47:42.051760 30323 net.cpp:395] conv3_1/dwise/scale -> conv3_1/dwise (in-place)
I0927 20:47:42.051784 30323 layer_factory.hpp:77] Creating layer conv3_1/dwise/scale
I0927 20:47:42.051853 30323 net.cpp:150] Setting up conv3_1/dwise/scale
I0927 20:47:42.051857 30323 net.cpp:157] Top shape: 1 144 75 128 (1382400)
I0927 20:47:42.051861 30323 net.cpp:165] Memory required for data: 197596896
I0927 20:47:42.051863 30323 layer_factory.hpp:77] Creating layer relu3_1/dwise
I0927 20:47:42.051867 30323 net.cpp:100] Creating Layer relu3_1/dwise
I0927 20:47:42.051869 30323 net.cpp:434] relu3_1/dwise <- conv3_1/dwise
I0927 20:47:42.051872 30323 net.cpp:395] relu3_1/dwise -> conv3_1/dwise (in-place)
I0927 20:47:42.052240 30323 net.cpp:150] Setting up relu3_1/dwise
I0927 20:47:42.052247 30323 net.cpp:157] Top shape: 1 144 75 128 (1382400)
I0927 20:47:42.052248 30323 net.cpp:165] Memory required for data: 203126496
I0927 20:47:42.052250 30323 layer_factory.hpp:77] Creating layer conv3_1/linear
I0927 20:47:42.052256 30323 net.cpp:100] Creating Layer conv3_1/linear
I0927 20:47:42.052259 30323 net.cpp:434] conv3_1/linear <- conv3_1/dwise
I0927 20:47:42.052270 30323 net.cpp:408] conv3_1/linear -> conv3_1/linear
I0927 20:47:42.053320 30323 net.cpp:150] Setting up conv3_1/linear
I0927 20:47:42.053328 30323 net.cpp:157] Top shape: 1 24 75 128 (230400)
I0927 20:47:42.053330 30323 net.cpp:165] Memory required for data: 204048096
I0927 20:47:42.053334 30323 layer_factory.hpp:77] Creating layer conv3_1/linear/bn
I0927 20:47:42.053337 30323 net.cpp:100] Creating Layer conv3_1/linear/bn
I0927 20:47:42.053340 30323 net.cpp:434] conv3_1/linear/bn <- conv3_1/linear
I0927 20:47:42.053344 30323 net.cpp:395] conv3_1/linear/bn -> conv3_1/linear (in-place)
I0927 20:47:42.053469 30323 net.cpp:150] Setting up conv3_1/linear/bn
I0927 20:47:42.053473 30323 net.cpp:157] Top shape: 1 24 75 128 (230400)
I0927 20:47:42.053475 30323 net.cpp:165] Memory required for data: 204969696
I0927 20:47:42.053480 30323 layer_factory.hpp:77] Creating layer conv3_1/linear/scale
I0927 20:47:42.053483 30323 net.cpp:100] Creating Layer conv3_1/linear/scale
I0927 20:47:42.053485 30323 net.cpp:434] conv3_1/linear/scale <- conv3_1/linear
I0927 20:47:42.053489 30323 net.cpp:395] conv3_1/linear/scale -> conv3_1/linear (in-place)
I0927 20:47:42.053512 30323 layer_factory.hpp:77] Creating layer conv3_1/linear/scale
I0927 20:47:42.053584 30323 net.cpp:150] Setting up conv3_1/linear/scale
I0927 20:47:42.053588 30323 net.cpp:157] Top shape: 1 24 75 128 (230400)
I0927 20:47:42.053591 30323 net.cpp:165] Memory required for data: 205891296
I0927 20:47:42.053594 30323 layer_factory.hpp:77] Creating layer block_3_1
I0927 20:47:42.053598 30323 net.cpp:100] Creating Layer block_3_1
I0927 20:47:42.053601 30323 net.cpp:434] block_3_1 <- conv2_2/linear_conv2_2/linear/scale_0_split_1
I0927 20:47:42.053602 30323 net.cpp:434] block_3_1 <- conv3_1/linear
I0927 20:47:42.053607 30323 net.cpp:408] block_3_1 -> block_3_1
I0927 20:47:42.053623 30323 net.cpp:150] Setting up block_3_1
I0927 20:47:42.053627 30323 net.cpp:157] Top shape: 1 24 75 128 (230400)
I0927 20:47:42.053629 30323 net.cpp:165] Memory required for data: 206812896
I0927 20:47:42.053632 30323 layer_factory.hpp:77] Creating layer conv3_2/expand
I0927 20:47:42.053637 30323 net.cpp:100] Creating Layer conv3_2/expand
I0927 20:47:42.053639 30323 net.cpp:434] conv3_2/expand <- block_3_1
I0927 20:47:42.053642 30323 net.cpp:408] conv3_2/expand -> conv3_2/expand
I0927 20:47:42.054710 30323 net.cpp:150] Setting up conv3_2/expand
I0927 20:47:42.054718 30323 net.cpp:157] Top shape: 1 144 75 128 (1382400)
I0927 20:47:42.054719 30323 net.cpp:165] Memory required for data: 212342496
I0927 20:47:42.054723 30323 layer_factory.hpp:77] Creating layer conv3_2/expand/bn
I0927 20:47:42.054728 30323 net.cpp:100] Creating Layer conv3_2/expand/bn
I0927 20:47:42.054730 30323 net.cpp:434] conv3_2/expand/bn <- conv3_2/expand
I0927 20:47:42.054733 30323 net.cpp:395] conv3_2/expand/bn -> conv3_2/expand (in-place)
I0927 20:47:42.054858 30323 net.cpp:150] Setting up conv3_2/expand/bn
I0927 20:47:42.054862 30323 net.cpp:157] Top shape: 1 144 75 128 (1382400)
I0927 20:47:42.054864 30323 net.cpp:165] Memory required for data: 217872096
I0927 20:47:42.054868 30323 layer_factory.hpp:77] Creating layer conv3_2/expand/scale
I0927 20:47:42.054872 30323 net.cpp:100] Creating Layer conv3_2/expand/scale
I0927 20:47:42.054874 30323 net.cpp:434] conv3_2/expand/scale <- conv3_2/expand
I0927 20:47:42.054877 30323 net.cpp:395] conv3_2/expand/scale -> conv3_2/expand (in-place)
I0927 20:47:42.054904 30323 layer_factory.hpp:77] Creating layer conv3_2/expand/scale
I0927 20:47:42.054975 30323 net.cpp:150] Setting up conv3_2/expand/scale
I0927 20:47:42.054978 30323 net.cpp:157] Top shape: 1 144 75 128 (1382400)
I0927 20:47:42.054981 30323 net.cpp:165] Memory required for data: 223401696
I0927 20:47:42.054989 30323 layer_factory.hpp:77] Creating layer relu3_2/expand
I0927 20:47:42.054994 30323 net.cpp:100] Creating Layer relu3_2/expand
I0927 20:47:42.054996 30323 net.cpp:434] relu3_2/expand <- conv3_2/expand
I0927 20:47:42.054999 30323 net.cpp:395] relu3_2/expand -> conv3_2/expand (in-place)
I0927 20:47:42.055375 30323 net.cpp:150] Setting up relu3_2/expand
I0927 20:47:42.055382 30323 net.cpp:157] Top shape: 1 144 75 128 (1382400)
I0927 20:47:42.055384 30323 net.cpp:165] Memory required for data: 228931296
I0927 20:47:42.055387 30323 layer_factory.hpp:77] Creating layer conv3_2/dwise
I0927 20:47:42.055392 30323 net.cpp:100] Creating Layer conv3_2/dwise
I0927 20:47:42.055394 30323 net.cpp:434] conv3_2/dwise <- conv3_2/expand
I0927 20:47:42.055398 30323 net.cpp:408] conv3_2/dwise -> conv3_2/dwise
I0927 20:47:42.055531 30323 net.cpp:150] Setting up conv3_2/dwise
I0927 20:47:42.055534 30323 net.cpp:157] Top shape: 1 144 38 64 (350208)
I0927 20:47:42.055536 30323 net.cpp:165] Memory required for data: 230332128
I0927 20:47:42.055539 30323 layer_factory.hpp:77] Creating layer conv3_2/dwise/bn
I0927 20:47:42.055544 30323 net.cpp:100] Creating Layer conv3_2/dwise/bn
I0927 20:47:42.055546 30323 net.cpp:434] conv3_2/dwise/bn <- conv3_2/dwise
I0927 20:47:42.055549 30323 net.cpp:395] conv3_2/dwise/bn -> conv3_2/dwise (in-place)
I0927 20:47:42.055671 30323 net.cpp:150] Setting up conv3_2/dwise/bn
I0927 20:47:42.055675 30323 net.cpp:157] Top shape: 1 144 38 64 (350208)
I0927 20:47:42.055676 30323 net.cpp:165] Memory required for data: 231732960
I0927 20:47:42.055680 30323 layer_factory.hpp:77] Creating layer conv3_2/dwise/scale
I0927 20:47:42.055685 30323 net.cpp:100] Creating Layer conv3_2/dwise/scale
I0927 20:47:42.055688 30323 net.cpp:434] conv3_2/dwise/scale <- conv3_2/dwise
I0927 20:47:42.055691 30323 net.cpp:395] conv3_2/dwise/scale -> conv3_2/dwise (in-place)
I0927 20:47:42.055716 30323 layer_factory.hpp:77] Creating layer conv3_2/dwise/scale
I0927 20:47:42.055781 30323 net.cpp:150] Setting up conv3_2/dwise/scale
I0927 20:47:42.055785 30323 net.cpp:157] Top shape: 1 144 38 64 (350208)
I0927 20:47:42.055788 30323 net.cpp:165] Memory required for data: 233133792
I0927 20:47:42.055790 30323 layer_factory.hpp:77] Creating layer relu3_2/dwise
I0927 20:47:42.055794 30323 net.cpp:100] Creating Layer relu3_2/dwise
I0927 20:47:42.055797 30323 net.cpp:434] relu3_2/dwise <- conv3_2/dwise
I0927 20:47:42.055800 30323 net.cpp:395] relu3_2/dwise -> conv3_2/dwise (in-place)
I0927 20:47:42.056066 30323 net.cpp:150] Setting up relu3_2/dwise
I0927 20:47:42.056072 30323 net.cpp:157] Top shape: 1 144 38 64 (350208)
I0927 20:47:42.056074 30323 net.cpp:165] Memory required for data: 234534624
I0927 20:47:42.056077 30323 layer_factory.hpp:77] Creating layer conv3_2/linear
I0927 20:47:42.056082 30323 net.cpp:100] Creating Layer conv3_2/linear
I0927 20:47:42.056084 30323 net.cpp:434] conv3_2/linear <- conv3_2/dwise
I0927 20:47:42.056087 30323 net.cpp:408] conv3_2/linear -> conv3_2/linear
I0927 20:47:42.057144 30323 net.cpp:150] Setting up conv3_2/linear
I0927 20:47:42.057152 30323 net.cpp:157] Top shape: 1 32 38 64 (77824)
I0927 20:47:42.057153 30323 net.cpp:165] Memory required for data: 234845920
I0927 20:47:42.057157 30323 layer_factory.hpp:77] Creating layer conv3_2/linear/bn
I0927 20:47:42.057163 30323 net.cpp:100] Creating Layer conv3_2/linear/bn
I0927 20:47:42.057165 30323 net.cpp:434] conv3_2/linear/bn <- conv3_2/linear
I0927 20:47:42.057168 30323 net.cpp:395] conv3_2/linear/bn -> conv3_2/linear (in-place)
I0927 20:47:42.057296 30323 net.cpp:150] Setting up conv3_2/linear/bn
I0927 20:47:42.057299 30323 net.cpp:157] Top shape: 1 32 38 64 (77824)
I0927 20:47:42.057301 30323 net.cpp:165] Memory required for data: 235157216
I0927 20:47:42.057305 30323 layer_factory.hpp:77] Creating layer conv3_2/linear/scale
I0927 20:47:42.057309 30323 net.cpp:100] Creating Layer conv3_2/linear/scale
I0927 20:47:42.057312 30323 net.cpp:434] conv3_2/linear/scale <- conv3_2/linear
I0927 20:47:42.057314 30323 net.cpp:395] conv3_2/linear/scale -> conv3_2/linear (in-place)
I0927 20:47:42.057339 30323 layer_factory.hpp:77] Creating layer conv3_2/linear/scale
I0927 20:47:42.057409 30323 net.cpp:150] Setting up conv3_2/linear/scale
I0927 20:47:42.057412 30323 net.cpp:157] Top shape: 1 32 38 64 (77824)
I0927 20:47:42.057415 30323 net.cpp:165] Memory required for data: 235468512
I0927 20:47:42.057426 30323 layer_factory.hpp:77] Creating layer conv3_2/linear_conv3_2/linear/scale_0_split
I0927 20:47:42.057430 30323 net.cpp:100] Creating Layer conv3_2/linear_conv3_2/linear/scale_0_split
I0927 20:47:42.057432 30323 net.cpp:434] conv3_2/linear_conv3_2/linear/scale_0_split <- conv3_2/linear
I0927 20:47:42.057436 30323 net.cpp:408] conv3_2/linear_conv3_2/linear/scale_0_split -> conv3_2/linear_conv3_2/linear/scale_0_split_0
I0927 20:47:42.057440 30323 net.cpp:408] conv3_2/linear_conv3_2/linear/scale_0_split -> conv3_2/linear_conv3_2/linear/scale_0_split_1
I0927 20:47:42.057463 30323 net.cpp:150] Setting up conv3_2/linear_conv3_2/linear/scale_0_split
I0927 20:47:42.057468 30323 net.cpp:157] Top shape: 1 32 38 64 (77824)
I0927 20:47:42.057471 30323 net.cpp:157] Top shape: 1 32 38 64 (77824)
I0927 20:47:42.057472 30323 net.cpp:165] Memory required for data: 236091104
I0927 20:47:42.057474 30323 layer_factory.hpp:77] Creating layer conv4_1/expand
I0927 20:47:42.057478 30323 net.cpp:100] Creating Layer conv4_1/expand
I0927 20:47:42.057480 30323 net.cpp:434] conv4_1/expand <- conv3_2/linear_conv3_2/linear/scale_0_split_0
I0927 20:47:42.057484 30323 net.cpp:408] conv4_1/expand -> conv4_1/expand
I0927 20:47:42.058544 30323 net.cpp:150] Setting up conv4_1/expand
I0927 20:47:42.058552 30323 net.cpp:157] Top shape: 1 192 38 64 (466944)
I0927 20:47:42.058554 30323 net.cpp:165] Memory required for data: 237958880
I0927 20:47:42.058558 30323 layer_factory.hpp:77] Creating layer conv4_1/expand/bn
I0927 20:47:42.058562 30323 net.cpp:100] Creating Layer conv4_1/expand/bn
I0927 20:47:42.058564 30323 net.cpp:434] conv4_1/expand/bn <- conv4_1/expand
I0927 20:47:42.058568 30323 net.cpp:395] conv4_1/expand/bn -> conv4_1/expand (in-place)
I0927 20:47:42.058696 30323 net.cpp:150] Setting up conv4_1/expand/bn
I0927 20:47:42.058699 30323 net.cpp:157] Top shape: 1 192 38 64 (466944)
I0927 20:47:42.058701 30323 net.cpp:165] Memory required for data: 239826656
I0927 20:47:42.058706 30323 layer_factory.hpp:77] Creating layer conv4_1/expand/scale
I0927 20:47:42.058710 30323 net.cpp:100] Creating Layer conv4_1/expand/scale
I0927 20:47:42.058712 30323 net.cpp:434] conv4_1/expand/scale <- conv4_1/expand
I0927 20:47:42.058715 30323 net.cpp:395] conv4_1/expand/scale -> conv4_1/expand (in-place)
I0927 20:47:42.058739 30323 layer_factory.hpp:77] Creating layer conv4_1/expand/scale
I0927 20:47:42.058809 30323 net.cpp:150] Setting up conv4_1/expand/scale
I0927 20:47:42.058814 30323 net.cpp:157] Top shape: 1 192 38 64 (466944)
I0927 20:47:42.058815 30323 net.cpp:165] Memory required for data: 241694432
I0927 20:47:42.058818 30323 layer_factory.hpp:77] Creating layer relu4_1/expand
I0927 20:47:42.058822 30323 net.cpp:100] Creating Layer relu4_1/expand
I0927 20:47:42.058823 30323 net.cpp:434] relu4_1/expand <- conv4_1/expand
I0927 20:47:42.058826 30323 net.cpp:395] relu4_1/expand -> conv4_1/expand (in-place)
I0927 20:47:42.059212 30323 net.cpp:150] Setting up relu4_1/expand
I0927 20:47:42.059219 30323 net.cpp:157] Top shape: 1 192 38 64 (466944)
I0927 20:47:42.059222 30323 net.cpp:165] Memory required for data: 243562208
I0927 20:47:42.059224 30323 layer_factory.hpp:77] Creating layer conv4_1/dwise
I0927 20:47:42.059229 30323 net.cpp:100] Creating Layer conv4_1/dwise
I0927 20:47:42.059232 30323 net.cpp:434] conv4_1/dwise <- conv4_1/expand
I0927 20:47:42.059237 30323 net.cpp:408] conv4_1/dwise -> conv4_1/dwise
I0927 20:47:42.059372 30323 net.cpp:150] Setting up conv4_1/dwise
I0927 20:47:42.059376 30323 net.cpp:157] Top shape: 1 192 38 64 (466944)
I0927 20:47:42.059378 30323 net.cpp:165] Memory required for data: 245429984
I0927 20:47:42.059381 30323 layer_factory.hpp:77] Creating layer conv4_1/dwise/bn
I0927 20:47:42.059386 30323 net.cpp:100] Creating Layer conv4_1/dwise/bn
I0927 20:47:42.059387 30323 net.cpp:434] conv4_1/dwise/bn <- conv4_1/dwise
I0927 20:47:42.059391 30323 net.cpp:395] conv4_1/dwise/bn -> conv4_1/dwise (in-place)
I0927 20:47:42.059515 30323 net.cpp:150] Setting up conv4_1/dwise/bn
I0927 20:47:42.059525 30323 net.cpp:157] Top shape: 1 192 38 64 (466944)
I0927 20:47:42.059527 30323 net.cpp:165] Memory required for data: 247297760
I0927 20:47:42.059531 30323 layer_factory.hpp:77] Creating layer conv4_1/dwise/scale
I0927 20:47:42.059535 30323 net.cpp:100] Creating Layer conv4_1/dwise/scale
I0927 20:47:42.059538 30323 net.cpp:434] conv4_1/dwise/scale <- conv4_1/dwise
I0927 20:47:42.059541 30323 net.cpp:395] conv4_1/dwise/scale -> conv4_1/dwise (in-place)
I0927 20:47:42.059567 30323 layer_factory.hpp:77] Creating layer conv4_1/dwise/scale
I0927 20:47:42.059635 30323 net.cpp:150] Setting up conv4_1/dwise/scale
I0927 20:47:42.059639 30323 net.cpp:157] Top shape: 1 192 38 64 (466944)
I0927 20:47:42.059641 30323 net.cpp:165] Memory required for data: 249165536
I0927 20:47:42.059645 30323 layer_factory.hpp:77] Creating layer relu4_1/dwise
I0927 20:47:42.059649 30323 net.cpp:100] Creating Layer relu4_1/dwise
I0927 20:47:42.059651 30323 net.cpp:434] relu4_1/dwise <- conv4_1/dwise
I0927 20:47:42.059653 30323 net.cpp:395] relu4_1/dwise -> conv4_1/dwise (in-place)
I0927 20:47:42.059921 30323 net.cpp:150] Setting up relu4_1/dwise
I0927 20:47:42.059926 30323 net.cpp:157] Top shape: 1 192 38 64 (466944)
I0927 20:47:42.059928 30323 net.cpp:165] Memory required for data: 251033312
I0927 20:47:42.059931 30323 layer_factory.hpp:77] Creating layer conv4_1/linear
I0927 20:47:42.059936 30323 net.cpp:100] Creating Layer conv4_1/linear
I0927 20:47:42.059937 30323 net.cpp:434] conv4_1/linear <- conv4_1/dwise
I0927 20:47:42.059942 30323 net.cpp:408] conv4_1/linear -> conv4_1/linear
I0927 20:47:42.061030 30323 net.cpp:150] Setting up conv4_1/linear
I0927 20:47:42.061038 30323 net.cpp:157] Top shape: 1 32 38 64 (77824)
I0927 20:47:42.061040 30323 net.cpp:165] Memory required for data: 251344608
I0927 20:47:42.061043 30323 layer_factory.hpp:77] Creating layer conv4_1/linear/bn
I0927 20:47:42.061048 30323 net.cpp:100] Creating Layer conv4_1/linear/bn
I0927 20:47:42.061051 30323 net.cpp:434] conv4_1/linear/bn <- conv4_1/linear
I0927 20:47:42.061054 30323 net.cpp:395] conv4_1/linear/bn -> conv4_1/linear (in-place)
I0927 20:47:42.061180 30323 net.cpp:150] Setting up conv4_1/linear/bn
I0927 20:47:42.061185 30323 net.cpp:157] Top shape: 1 32 38 64 (77824)
I0927 20:47:42.061187 30323 net.cpp:165] Memory required for data: 251655904
I0927 20:47:42.061192 30323 layer_factory.hpp:77] Creating layer conv4_1/linear/scale
I0927 20:47:42.061194 30323 net.cpp:100] Creating Layer conv4_1/linear/scale
I0927 20:47:42.061197 30323 net.cpp:434] conv4_1/linear/scale <- conv4_1/linear
I0927 20:47:42.061199 30323 net.cpp:395] conv4_1/linear/scale -> conv4_1/linear (in-place)
I0927 20:47:42.061223 30323 layer_factory.hpp:77] Creating layer conv4_1/linear/scale
I0927 20:47:42.061291 30323 net.cpp:150] Setting up conv4_1/linear/scale
I0927 20:47:42.061296 30323 net.cpp:157] Top shape: 1 32 38 64 (77824)
I0927 20:47:42.061298 30323 net.cpp:165] Memory required for data: 251967200
I0927 20:47:42.061302 30323 layer_factory.hpp:77] Creating layer block_4_1
I0927 20:47:42.061311 30323 net.cpp:100] Creating Layer block_4_1
I0927 20:47:42.061313 30323 net.cpp:434] block_4_1 <- conv3_2/linear_conv3_2/linear/scale_0_split_1
I0927 20:47:42.061316 30323 net.cpp:434] block_4_1 <- conv4_1/linear
I0927 20:47:42.061319 30323 net.cpp:408] block_4_1 -> block_4_1
I0927 20:47:42.061334 30323 net.cpp:150] Setting up block_4_1
I0927 20:47:42.061337 30323 net.cpp:157] Top shape: 1 32 38 64 (77824)
I0927 20:47:42.061341 30323 net.cpp:165] Memory required for data: 252278496
I0927 20:47:42.061342 30323 layer_factory.hpp:77] Creating layer block_4_1_block_4_1_0_split
I0927 20:47:42.061345 30323 net.cpp:100] Creating Layer block_4_1_block_4_1_0_split
I0927 20:47:42.061347 30323 net.cpp:434] block_4_1_block_4_1_0_split <- block_4_1
I0927 20:47:42.061350 30323 net.cpp:408] block_4_1_block_4_1_0_split -> block_4_1_block_4_1_0_split_0
I0927 20:47:42.061353 30323 net.cpp:408] block_4_1_block_4_1_0_split -> block_4_1_block_4_1_0_split_1
I0927 20:47:42.061381 30323 net.cpp:150] Setting up block_4_1_block_4_1_0_split
I0927 20:47:42.061393 30323 net.cpp:157] Top shape: 1 32 38 64 (77824)
I0927 20:47:42.061396 30323 net.cpp:157] Top shape: 1 32 38 64 (77824)
I0927 20:47:42.061398 30323 net.cpp:165] Memory required for data: 252901088
I0927 20:47:42.061400 30323 layer_factory.hpp:77] Creating layer conv4_2/expand
I0927 20:47:42.061405 30323 net.cpp:100] Creating Layer conv4_2/expand
I0927 20:47:42.061408 30323 net.cpp:434] conv4_2/expand <- block_4_1_block_4_1_0_split_0
I0927 20:47:42.061411 30323 net.cpp:408] conv4_2/expand -> conv4_2/expand
I0927 20:47:42.062580 30323 net.cpp:150] Setting up conv4_2/expand
I0927 20:47:42.062587 30323 net.cpp:157] Top shape: 1 192 38 64 (466944)
I0927 20:47:42.062590 30323 net.cpp:165] Memory required for data: 254768864
I0927 20:47:42.062593 30323 layer_factory.hpp:77] Creating layer conv4_2/expand/bn
I0927 20:47:42.062598 30323 net.cpp:100] Creating Layer conv4_2/expand/bn
I0927 20:47:42.062602 30323 net.cpp:434] conv4_2/expand/bn <- conv4_2/expand
I0927 20:47:42.062604 30323 net.cpp:395] conv4_2/expand/bn -> conv4_2/expand (in-place)
I0927 20:47:42.062731 30323 net.cpp:150] Setting up conv4_2/expand/bn
I0927 20:47:42.062736 30323 net.cpp:157] Top shape: 1 192 38 64 (466944)
I0927 20:47:42.062736 30323 net.cpp:165] Memory required for data: 256636640
I0927 20:47:42.062741 30323 layer_factory.hpp:77] Creating layer conv4_2/expand/scale
I0927 20:47:42.062746 30323 net.cpp:100] Creating Layer conv4_2/expand/scale
I0927 20:47:42.062747 30323 net.cpp:434] conv4_2/expand/scale <- conv4_2/expand
I0927 20:47:42.062750 30323 net.cpp:395] conv4_2/expand/scale -> conv4_2/expand (in-place)
I0927 20:47:42.062777 30323 layer_factory.hpp:77] Creating layer conv4_2/expand/scale
I0927 20:47:42.062845 30323 net.cpp:150] Setting up conv4_2/expand/scale
I0927 20:47:42.062849 30323 net.cpp:157] Top shape: 1 192 38 64 (466944)
I0927 20:47:42.062852 30323 net.cpp:165] Memory required for data: 258504416
I0927 20:47:42.062855 30323 layer_factory.hpp:77] Creating layer relu4_2/expand
I0927 20:47:42.062860 30323 net.cpp:100] Creating Layer relu4_2/expand
I0927 20:47:42.062862 30323 net.cpp:434] relu4_2/expand <- conv4_2/expand
I0927 20:47:42.062865 30323 net.cpp:395] relu4_2/expand -> conv4_2/expand (in-place)
I0927 20:47:42.063138 30323 net.cpp:150] Setting up relu4_2/expand
I0927 20:47:42.063144 30323 net.cpp:157] Top shape: 1 192 38 64 (466944)
I0927 20:47:42.063146 30323 net.cpp:165] Memory required for data: 260372192
I0927 20:47:42.063148 30323 layer_factory.hpp:77] Creating layer conv4_2/dwise
I0927 20:47:42.063153 30323 net.cpp:100] Creating Layer conv4_2/dwise
I0927 20:47:42.063156 30323 net.cpp:434] conv4_2/dwise <- conv4_2/expand
I0927 20:47:42.063159 30323 net.cpp:408] conv4_2/dwise -> conv4_2/dwise
I0927 20:47:42.063297 30323 net.cpp:150] Setting up conv4_2/dwise
I0927 20:47:42.063302 30323 net.cpp:157] Top shape: 1 192 38 64 (466944)
I0927 20:47:42.063303 30323 net.cpp:165] Memory required for data: 262239968
I0927 20:47:42.063307 30323 layer_factory.hpp:77] Creating layer conv4_2/dwise/bn
I0927 20:47:42.063309 30323 net.cpp:100] Creating Layer conv4_2/dwise/bn
I0927 20:47:42.063313 30323 net.cpp:434] conv4_2/dwise/bn <- conv4_2/dwise
I0927 20:47:42.063315 30323 net.cpp:395] conv4_2/dwise/bn -> conv4_2/dwise (in-place)
I0927 20:47:42.063441 30323 net.cpp:150] Setting up conv4_2/dwise/bn
I0927 20:47:42.063444 30323 net.cpp:157] Top shape: 1 192 38 64 (466944)
I0927 20:47:42.063446 30323 net.cpp:165] Memory required for data: 264107744
I0927 20:47:42.063450 30323 layer_factory.hpp:77] Creating layer conv4_2/dwise/scale
I0927 20:47:42.063453 30323 net.cpp:100] Creating Layer conv4_2/dwise/scale
I0927 20:47:42.063455 30323 net.cpp:434] conv4_2/dwise/scale <- conv4_2/dwise
I0927 20:47:42.063459 30323 net.cpp:395] conv4_2/dwise/scale -> conv4_2/dwise (in-place)
I0927 20:47:42.063482 30323 layer_factory.hpp:77] Creating layer conv4_2/dwise/scale
I0927 20:47:42.063550 30323 net.cpp:150] Setting up conv4_2/dwise/scale
I0927 20:47:42.063555 30323 net.cpp:157] Top shape: 1 192 38 64 (466944)
I0927 20:47:42.063563 30323 net.cpp:165] Memory required for data: 265975520
I0927 20:47:42.063567 30323 layer_factory.hpp:77] Creating layer relu4_2/dwise
I0927 20:47:42.063570 30323 net.cpp:100] Creating Layer relu4_2/dwise
I0927 20:47:42.063572 30323 net.cpp:434] relu4_2/dwise <- conv4_2/dwise
I0927 20:47:42.063575 30323 net.cpp:395] relu4_2/dwise -> conv4_2/dwise (in-place)
I0927 20:47:42.063843 30323 net.cpp:150] Setting up relu4_2/dwise
I0927 20:47:42.063848 30323 net.cpp:157] Top shape: 1 192 38 64 (466944)
I0927 20:47:42.063850 30323 net.cpp:165] Memory required for data: 267843296
I0927 20:47:42.063853 30323 layer_factory.hpp:77] Creating layer conv4_2/linear
I0927 20:47:42.063858 30323 net.cpp:100] Creating Layer conv4_2/linear
I0927 20:47:42.063860 30323 net.cpp:434] conv4_2/linear <- conv4_2/dwise
I0927 20:47:42.063863 30323 net.cpp:408] conv4_2/linear -> conv4_2/linear
I0927 20:47:42.065037 30323 net.cpp:150] Setting up conv4_2/linear
I0927 20:47:42.065044 30323 net.cpp:157] Top shape: 1 32 38 64 (77824)
I0927 20:47:42.065047 30323 net.cpp:165] Memory required for data: 268154592
I0927 20:47:42.065049 30323 layer_factory.hpp:77] Creating layer conv4_2/linear/bn
I0927 20:47:42.065055 30323 net.cpp:100] Creating Layer conv4_2/linear/bn
I0927 20:47:42.065058 30323 net.cpp:434] conv4_2/linear/bn <- conv4_2/linear
I0927 20:47:42.065062 30323 net.cpp:395] conv4_2/linear/bn -> conv4_2/linear (in-place)
I0927 20:47:42.065191 30323 net.cpp:150] Setting up conv4_2/linear/bn
I0927 20:47:42.065194 30323 net.cpp:157] Top shape: 1 32 38 64 (77824)
I0927 20:47:42.065196 30323 net.cpp:165] Memory required for data: 268465888
I0927 20:47:42.065201 30323 layer_factory.hpp:77] Creating layer conv4_2/linear/scale
I0927 20:47:42.065204 30323 net.cpp:100] Creating Layer conv4_2/linear/scale
I0927 20:47:42.065207 30323 net.cpp:434] conv4_2/linear/scale <- conv4_2/linear
I0927 20:47:42.065209 30323 net.cpp:395] conv4_2/linear/scale -> conv4_2/linear (in-place)
I0927 20:47:42.065233 30323 layer_factory.hpp:77] Creating layer conv4_2/linear/scale
I0927 20:47:42.065304 30323 net.cpp:150] Setting up conv4_2/linear/scale
I0927 20:47:42.065307 30323 net.cpp:157] Top shape: 1 32 38 64 (77824)
I0927 20:47:42.065310 30323 net.cpp:165] Memory required for data: 268777184
I0927 20:47:42.065312 30323 layer_factory.hpp:77] Creating layer block_4_2
I0927 20:47:42.065316 30323 net.cpp:100] Creating Layer block_4_2
I0927 20:47:42.065320 30323 net.cpp:434] block_4_2 <- block_4_1_block_4_1_0_split_1
I0927 20:47:42.065321 30323 net.cpp:434] block_4_2 <- conv4_2/linear
I0927 20:47:42.065325 30323 net.cpp:408] block_4_2 -> block_4_2
I0927 20:47:42.065340 30323 net.cpp:150] Setting up block_4_2
I0927 20:47:42.065343 30323 net.cpp:157] Top shape: 1 32 38 64 (77824)
I0927 20:47:42.065346 30323 net.cpp:165] Memory required for data: 269088480
I0927 20:47:42.065346 30323 layer_factory.hpp:77] Creating layer conv4_3/expand
I0927 20:47:42.065351 30323 net.cpp:100] Creating Layer conv4_3/expand
I0927 20:47:42.065354 30323 net.cpp:434] conv4_3/expand <- block_4_2
I0927 20:47:42.065356 30323 net.cpp:408] conv4_3/expand -> conv4_3/expand
I0927 20:47:42.066539 30323 net.cpp:150] Setting up conv4_3/expand
I0927 20:47:42.066545 30323 net.cpp:157] Top shape: 1 192 38 64 (466944)
I0927 20:47:42.066548 30323 net.cpp:165] Memory required for data: 270956256
I0927 20:47:42.066551 30323 layer_factory.hpp:77] Creating layer conv4_3/expand/bn
I0927 20:47:42.066555 30323 net.cpp:100] Creating Layer conv4_3/expand/bn
I0927 20:47:42.066558 30323 net.cpp:434] conv4_3/expand/bn <- conv4_3/expand
I0927 20:47:42.066562 30323 net.cpp:395] conv4_3/expand/bn -> conv4_3/expand (in-place)
I0927 20:47:42.066690 30323 net.cpp:150] Setting up conv4_3/expand/bn
I0927 20:47:42.066694 30323 net.cpp:157] Top shape: 1 192 38 64 (466944)
I0927 20:47:42.066696 30323 net.cpp:165] Memory required for data: 272824032
I0927 20:47:42.066701 30323 layer_factory.hpp:77] Creating layer conv4_3/expand/scale
I0927 20:47:42.066704 30323 net.cpp:100] Creating Layer conv4_3/expand/scale
I0927 20:47:42.066707 30323 net.cpp:434] conv4_3/expand/scale <- conv4_3/expand
I0927 20:47:42.066717 30323 net.cpp:395] conv4_3/expand/scale -> conv4_3/expand (in-place)
I0927 20:47:42.066743 30323 layer_factory.hpp:77] Creating layer conv4_3/expand/scale
I0927 20:47:42.066815 30323 net.cpp:150] Setting up conv4_3/expand/scale
I0927 20:47:42.066819 30323 net.cpp:157] Top shape: 1 192 38 64 (466944)
I0927 20:47:42.066821 30323 net.cpp:165] Memory required for data: 274691808
I0927 20:47:42.066825 30323 layer_factory.hpp:77] Creating layer relu4_3/expand
I0927 20:47:42.066829 30323 net.cpp:100] Creating Layer relu4_3/expand
I0927 20:47:42.066830 30323 net.cpp:434] relu4_3/expand <- conv4_3/expand
I0927 20:47:42.066834 30323 net.cpp:395] relu4_3/expand -> conv4_3/expand (in-place)
I0927 20:47:42.067108 30323 net.cpp:150] Setting up relu4_3/expand
I0927 20:47:42.067114 30323 net.cpp:157] Top shape: 1 192 38 64 (466944)
I0927 20:47:42.067116 30323 net.cpp:165] Memory required for data: 276559584
I0927 20:47:42.067118 30323 layer_factory.hpp:77] Creating layer conv4_3/dwise
I0927 20:47:42.067123 30323 net.cpp:100] Creating Layer conv4_3/dwise
I0927 20:47:42.067126 30323 net.cpp:434] conv4_3/dwise <- conv4_3/expand
I0927 20:47:42.067129 30323 net.cpp:408] conv4_3/dwise -> conv4_3/dwise
I0927 20:47:42.067268 30323 net.cpp:150] Setting up conv4_3/dwise
I0927 20:47:42.067273 30323 net.cpp:157] Top shape: 1 192 38 64 (466944)
I0927 20:47:42.067276 30323 net.cpp:165] Memory required for data: 278427360
I0927 20:47:42.067278 30323 layer_factory.hpp:77] Creating layer conv4_3/dwise/bn
I0927 20:47:42.067282 30323 net.cpp:100] Creating Layer conv4_3/dwise/bn
I0927 20:47:42.067284 30323 net.cpp:434] conv4_3/dwise/bn <- conv4_3/dwise
I0927 20:47:42.067288 30323 net.cpp:395] conv4_3/dwise/bn -> conv4_3/dwise (in-place)
I0927 20:47:42.067415 30323 net.cpp:150] Setting up conv4_3/dwise/bn
I0927 20:47:42.067420 30323 net.cpp:157] Top shape: 1 192 38 64 (466944)
I0927 20:47:42.067422 30323 net.cpp:165] Memory required for data: 280295136
I0927 20:47:42.067426 30323 layer_factory.hpp:77] Creating layer conv4_3/dwise/scale
I0927 20:47:42.067430 30323 net.cpp:100] Creating Layer conv4_3/dwise/scale
I0927 20:47:42.067432 30323 net.cpp:434] conv4_3/dwise/scale <- conv4_3/dwise
I0927 20:47:42.067435 30323 net.cpp:395] conv4_3/dwise/scale -> conv4_3/dwise (in-place)
I0927 20:47:42.067458 30323 layer_factory.hpp:77] Creating layer conv4_3/dwise/scale
I0927 20:47:42.067530 30323 net.cpp:150] Setting up conv4_3/dwise/scale
I0927 20:47:42.067534 30323 net.cpp:157] Top shape: 1 192 38 64 (466944)
I0927 20:47:42.067538 30323 net.cpp:165] Memory required for data: 282162912
I0927 20:47:42.067540 30323 layer_factory.hpp:77] Creating layer relu4_3/dwise
I0927 20:47:42.067544 30323 net.cpp:100] Creating Layer relu4_3/dwise
I0927 20:47:42.067546 30323 net.cpp:434] relu4_3/dwise <- conv4_3/dwise
I0927 20:47:42.067549 30323 net.cpp:395] relu4_3/dwise -> conv4_3/dwise (in-place)
I0927 20:47:42.067814 30323 net.cpp:150] Setting up relu4_3/dwise
I0927 20:47:42.067821 30323 net.cpp:157] Top shape: 1 192 38 64 (466944)
I0927 20:47:42.067822 30323 net.cpp:165] Memory required for data: 284030688
I0927 20:47:42.067826 30323 layer_factory.hpp:77] Creating layer conv4_3/linear
I0927 20:47:42.067831 30323 net.cpp:100] Creating Layer conv4_3/linear
I0927 20:47:42.067832 30323 net.cpp:434] conv4_3/linear <- conv4_3/dwise
I0927 20:47:42.067836 30323 net.cpp:408] conv4_3/linear -> conv4_3/linear
I0927 20:47:42.069058 30323 net.cpp:150] Setting up conv4_3/linear
I0927 20:47:42.069066 30323 net.cpp:157] Top shape: 1 64 38 64 (155648)
I0927 20:47:42.069067 30323 net.cpp:165] Memory required for data: 284653280
I0927 20:47:42.069070 30323 layer_factory.hpp:77] Creating layer conv4_3/linear/bn
I0927 20:47:42.069077 30323 net.cpp:100] Creating Layer conv4_3/linear/bn
I0927 20:47:42.069078 30323 net.cpp:434] conv4_3/linear/bn <- conv4_3/linear
I0927 20:47:42.069082 30323 net.cpp:395] conv4_3/linear/bn -> conv4_3/linear (in-place)
I0927 20:47:42.069211 30323 net.cpp:150] Setting up conv4_3/linear/bn
I0927 20:47:42.069216 30323 net.cpp:157] Top shape: 1 64 38 64 (155648)
I0927 20:47:42.069226 30323 net.cpp:165] Memory required for data: 285275872
I0927 20:47:42.069237 30323 layer_factory.hpp:77] Creating layer conv4_3/linear/scale
I0927 20:47:42.069242 30323 net.cpp:100] Creating Layer conv4_3/linear/scale
I0927 20:47:42.069245 30323 net.cpp:434] conv4_3/linear/scale <- conv4_3/linear
I0927 20:47:42.069247 30323 net.cpp:395] conv4_3/linear/scale -> conv4_3/linear (in-place)
I0927 20:47:42.069274 30323 layer_factory.hpp:77] Creating layer conv4_3/linear/scale
I0927 20:47:42.069346 30323 net.cpp:150] Setting up conv4_3/linear/scale
I0927 20:47:42.069350 30323 net.cpp:157] Top shape: 1 64 38 64 (155648)
I0927 20:47:42.069352 30323 net.cpp:165] Memory required for data: 285898464
I0927 20:47:42.069355 30323 layer_factory.hpp:77] Creating layer conv4_3/linear_conv4_3/linear/scale_0_split
I0927 20:47:42.069360 30323 net.cpp:100] Creating Layer conv4_3/linear_conv4_3/linear/scale_0_split
I0927 20:47:42.069363 30323 net.cpp:434] conv4_3/linear_conv4_3/linear/scale_0_split <- conv4_3/linear
I0927 20:47:42.069366 30323 net.cpp:408] conv4_3/linear_conv4_3/linear/scale_0_split -> conv4_3/linear_conv4_3/linear/scale_0_split_0
I0927 20:47:42.069370 30323 net.cpp:408] conv4_3/linear_conv4_3/linear/scale_0_split -> conv4_3/linear_conv4_3/linear/scale_0_split_1
I0927 20:47:42.069394 30323 net.cpp:150] Setting up conv4_3/linear_conv4_3/linear/scale_0_split
I0927 20:47:42.069398 30323 net.cpp:157] Top shape: 1 64 38 64 (155648)
I0927 20:47:42.069401 30323 net.cpp:157] Top shape: 1 64 38 64 (155648)
I0927 20:47:42.069403 30323 net.cpp:165] Memory required for data: 287143648
I0927 20:47:42.069406 30323 layer_factory.hpp:77] Creating layer conv4_4/expand
I0927 20:47:42.069409 30323 net.cpp:100] Creating Layer conv4_4/expand
I0927 20:47:42.069411 30323 net.cpp:434] conv4_4/expand <- conv4_3/linear_conv4_3/linear/scale_0_split_0
I0927 20:47:42.069416 30323 net.cpp:408] conv4_4/expand -> conv4_4/expand
I0927 20:47:42.070607 30323 net.cpp:150] Setting up conv4_4/expand
I0927 20:47:42.070614 30323 net.cpp:157] Top shape: 1 384 38 64 (933888)
I0927 20:47:42.070617 30323 net.cpp:165] Memory required for data: 290879200
I0927 20:47:42.070621 30323 layer_factory.hpp:77] Creating layer conv4_4/expand/bn
I0927 20:47:42.070626 30323 net.cpp:100] Creating Layer conv4_4/expand/bn
I0927 20:47:42.070628 30323 net.cpp:434] conv4_4/expand/bn <- conv4_4/expand
I0927 20:47:42.070631 30323 net.cpp:395] conv4_4/expand/bn -> conv4_4/expand (in-place)
I0927 20:47:42.070767 30323 net.cpp:150] Setting up conv4_4/expand/bn
I0927 20:47:42.070771 30323 net.cpp:157] Top shape: 1 384 38 64 (933888)
I0927 20:47:42.070773 30323 net.cpp:165] Memory required for data: 294614752
I0927 20:47:42.070777 30323 layer_factory.hpp:77] Creating layer conv4_4/expand/scale
I0927 20:47:42.070781 30323 net.cpp:100] Creating Layer conv4_4/expand/scale
I0927 20:47:42.070783 30323 net.cpp:434] conv4_4/expand/scale <- conv4_4/expand
I0927 20:47:42.070787 30323 net.cpp:395] conv4_4/expand/scale -> conv4_4/expand (in-place)
I0927 20:47:42.070809 30323 layer_factory.hpp:77] Creating layer conv4_4/expand/scale
I0927 20:47:42.070886 30323 net.cpp:150] Setting up conv4_4/expand/scale
I0927 20:47:42.070890 30323 net.cpp:157] Top shape: 1 384 38 64 (933888)
I0927 20:47:42.070894 30323 net.cpp:165] Memory required for data: 298350304
I0927 20:47:42.070896 30323 layer_factory.hpp:77] Creating layer relu4_4/expand
I0927 20:47:42.070900 30323 net.cpp:100] Creating Layer relu4_4/expand
I0927 20:47:42.070901 30323 net.cpp:434] relu4_4/expand <- conv4_4/expand
I0927 20:47:42.070905 30323 net.cpp:395] relu4_4/expand -> conv4_4/expand (in-place)
I0927 20:47:42.071177 30323 net.cpp:150] Setting up relu4_4/expand
I0927 20:47:42.071183 30323 net.cpp:157] Top shape: 1 384 38 64 (933888)
I0927 20:47:42.071185 30323 net.cpp:165] Memory required for data: 302085856
I0927 20:47:42.071188 30323 layer_factory.hpp:77] Creating layer conv4_4/dwise
I0927 20:47:42.071192 30323 net.cpp:100] Creating Layer conv4_4/dwise
I0927 20:47:42.071194 30323 net.cpp:434] conv4_4/dwise <- conv4_4/expand
I0927 20:47:42.071205 30323 net.cpp:408] conv4_4/dwise -> conv4_4/dwise
I0927 20:47:42.071358 30323 net.cpp:150] Setting up conv4_4/dwise
I0927 20:47:42.071362 30323 net.cpp:157] Top shape: 1 384 38 64 (933888)
I0927 20:47:42.071365 30323 net.cpp:165] Memory required for data: 305821408
I0927 20:47:42.071368 30323 layer_factory.hpp:77] Creating layer conv4_4/dwise/bn
I0927 20:47:42.071373 30323 net.cpp:100] Creating Layer conv4_4/dwise/bn
I0927 20:47:42.071375 30323 net.cpp:434] conv4_4/dwise/bn <- conv4_4/dwise
I0927 20:47:42.071377 30323 net.cpp:395] conv4_4/dwise/bn -> conv4_4/dwise (in-place)
I0927 20:47:42.071501 30323 net.cpp:150] Setting up conv4_4/dwise/bn
I0927 20:47:42.071504 30323 net.cpp:157] Top shape: 1 384 38 64 (933888)
I0927 20:47:42.071506 30323 net.cpp:165] Memory required for data: 309556960
I0927 20:47:42.071511 30323 layer_factory.hpp:77] Creating layer conv4_4/dwise/scale
I0927 20:47:42.071516 30323 net.cpp:100] Creating Layer conv4_4/dwise/scale
I0927 20:47:42.071517 30323 net.cpp:434] conv4_4/dwise/scale <- conv4_4/dwise
I0927 20:47:42.071521 30323 net.cpp:395] conv4_4/dwise/scale -> conv4_4/dwise (in-place)
I0927 20:47:42.071543 30323 layer_factory.hpp:77] Creating layer conv4_4/dwise/scale
I0927 20:47:42.071612 30323 net.cpp:150] Setting up conv4_4/dwise/scale
I0927 20:47:42.071617 30323 net.cpp:157] Top shape: 1 384 38 64 (933888)
I0927 20:47:42.071619 30323 net.cpp:165] Memory required for data: 313292512
I0927 20:47:42.071622 30323 layer_factory.hpp:77] Creating layer relu4_4/dwise
I0927 20:47:42.071626 30323 net.cpp:100] Creating Layer relu4_4/dwise
I0927 20:47:42.071627 30323 net.cpp:434] relu4_4/dwise <- conv4_4/dwise
I0927 20:47:42.071632 30323 net.cpp:395] relu4_4/dwise -> conv4_4/dwise (in-place)
I0927 20:47:42.072010 30323 net.cpp:150] Setting up relu4_4/dwise
I0927 20:47:42.072016 30323 net.cpp:157] Top shape: 1 384 38 64 (933888)
I0927 20:47:42.072018 30323 net.cpp:165] Memory required for data: 317028064
I0927 20:47:42.072021 30323 layer_factory.hpp:77] Creating layer conv4_4/linear
I0927 20:47:42.072026 30323 net.cpp:100] Creating Layer conv4_4/linear
I0927 20:47:42.072028 30323 net.cpp:434] conv4_4/linear <- conv4_4/dwise
I0927 20:47:42.072032 30323 net.cpp:408] conv4_4/linear -> conv4_4/linear
I0927 20:47:42.073314 30323 net.cpp:150] Setting up conv4_4/linear
I0927 20:47:42.073323 30323 net.cpp:157] Top shape: 1 64 38 64 (155648)
I0927 20:47:42.073325 30323 net.cpp:165] Memory required for data: 317650656
I0927 20:47:42.073328 30323 layer_factory.hpp:77] Creating layer conv4_4/linear/bn
I0927 20:47:42.073333 30323 net.cpp:100] Creating Layer conv4_4/linear/bn
I0927 20:47:42.073334 30323 net.cpp:434] conv4_4/linear/bn <- conv4_4/linear
I0927 20:47:42.073338 30323 net.cpp:395] conv4_4/linear/bn -> conv4_4/linear (in-place)
I0927 20:47:42.073473 30323 net.cpp:150] Setting up conv4_4/linear/bn
I0927 20:47:42.073478 30323 net.cpp:157] Top shape: 1 64 38 64 (155648)
I0927 20:47:42.073479 30323 net.cpp:165] Memory required for data: 318273248
I0927 20:47:42.073483 30323 layer_factory.hpp:77] Creating layer conv4_4/linear/scale
I0927 20:47:42.073487 30323 net.cpp:100] Creating Layer conv4_4/linear/scale
I0927 20:47:42.073490 30323 net.cpp:434] conv4_4/linear/scale <- conv4_4/linear
I0927 20:47:42.073493 30323 net.cpp:395] conv4_4/linear/scale -> conv4_4/linear (in-place)
I0927 20:47:42.073519 30323 layer_factory.hpp:77] Creating layer conv4_4/linear/scale
I0927 20:47:42.073592 30323 net.cpp:150] Setting up conv4_4/linear/scale
I0927 20:47:42.073596 30323 net.cpp:157] Top shape: 1 64 38 64 (155648)
I0927 20:47:42.073598 30323 net.cpp:165] Memory required for data: 318895840
I0927 20:47:42.073601 30323 layer_factory.hpp:77] Creating layer block_4_4
I0927 20:47:42.073604 30323 net.cpp:100] Creating Layer block_4_4
I0927 20:47:42.073606 30323 net.cpp:434] block_4_4 <- conv4_3/linear_conv4_3/linear/scale_0_split_1
I0927 20:47:42.073608 30323 net.cpp:434] block_4_4 <- conv4_4/linear
I0927 20:47:42.073612 30323 net.cpp:408] block_4_4 -> block_4_4
I0927 20:47:42.073637 30323 net.cpp:150] Setting up block_4_4
I0927 20:47:42.073640 30323 net.cpp:157] Top shape: 1 64 38 64 (155648)
I0927 20:47:42.073642 30323 net.cpp:165] Memory required for data: 319518432
I0927 20:47:42.073644 30323 layer_factory.hpp:77] Creating layer block_4_4_block_4_4_0_split
I0927 20:47:42.073647 30323 net.cpp:100] Creating Layer block_4_4_block_4_4_0_split
I0927 20:47:42.073649 30323 net.cpp:434] block_4_4_block_4_4_0_split <- block_4_4
I0927 20:47:42.073652 30323 net.cpp:408] block_4_4_block_4_4_0_split -> block_4_4_block_4_4_0_split_0
I0927 20:47:42.073657 30323 net.cpp:408] block_4_4_block_4_4_0_split -> block_4_4_block_4_4_0_split_1
I0927 20:47:42.073680 30323 net.cpp:150] Setting up block_4_4_block_4_4_0_split
I0927 20:47:42.073684 30323 net.cpp:157] Top shape: 1 64 38 64 (155648)
I0927 20:47:42.073686 30323 net.cpp:157] Top shape: 1 64 38 64 (155648)
I0927 20:47:42.073688 30323 net.cpp:165] Memory required for data: 320763616
I0927 20:47:42.073690 30323 layer_factory.hpp:77] Creating layer conv4_5/expand
I0927 20:47:42.073695 30323 net.cpp:100] Creating Layer conv4_5/expand
I0927 20:47:42.073698 30323 net.cpp:434] conv4_5/expand <- block_4_4_block_4_4_0_split_0
I0927 20:47:42.073700 30323 net.cpp:408] conv4_5/expand -> conv4_5/expand
I0927 20:47:42.074913 30323 net.cpp:150] Setting up conv4_5/expand
I0927 20:47:42.074921 30323 net.cpp:157] Top shape: 1 384 38 64 (933888)
I0927 20:47:42.074923 30323 net.cpp:165] Memory required for data: 324499168
I0927 20:47:42.074928 30323 layer_factory.hpp:77] Creating layer conv4_5/expand/bn
I0927 20:47:42.074931 30323 net.cpp:100] Creating Layer conv4_5/expand/bn
I0927 20:47:42.074934 30323 net.cpp:434] conv4_5/expand/bn <- conv4_5/expand
I0927 20:47:42.074939 30323 net.cpp:395] conv4_5/expand/bn -> conv4_5/expand (in-place)
I0927 20:47:42.075068 30323 net.cpp:150] Setting up conv4_5/expand/bn
I0927 20:47:42.075073 30323 net.cpp:157] Top shape: 1 384 38 64 (933888)
I0927 20:47:42.075075 30323 net.cpp:165] Memory required for data: 328234720
I0927 20:47:42.075079 30323 layer_factory.hpp:77] Creating layer conv4_5/expand/scale
I0927 20:47:42.075083 30323 net.cpp:100] Creating Layer conv4_5/expand/scale
I0927 20:47:42.075086 30323 net.cpp:434] conv4_5/expand/scale <- conv4_5/expand
I0927 20:47:42.075089 30323 net.cpp:395] conv4_5/expand/scale -> conv4_5/expand (in-place)
I0927 20:47:42.075112 30323 layer_factory.hpp:77] Creating layer conv4_5/expand/scale
I0927 20:47:42.075183 30323 net.cpp:150] Setting up conv4_5/expand/scale
I0927 20:47:42.075187 30323 net.cpp:157] Top shape: 1 384 38 64 (933888)
I0927 20:47:42.075191 30323 net.cpp:165] Memory required for data: 331970272
I0927 20:47:42.075193 30323 layer_factory.hpp:77] Creating layer relu4_5/expand
I0927 20:47:42.075196 30323 net.cpp:100] Creating Layer relu4_5/expand
I0927 20:47:42.075198 30323 net.cpp:434] relu4_5/expand <- conv4_5/expand
I0927 20:47:42.075202 30323 net.cpp:395] relu4_5/expand -> conv4_5/expand (in-place)
I0927 20:47:42.075474 30323 net.cpp:150] Setting up relu4_5/expand
I0927 20:47:42.075479 30323 net.cpp:157] Top shape: 1 384 38 64 (933888)
I0927 20:47:42.075480 30323 net.cpp:165] Memory required for data: 335705824
I0927 20:47:42.075484 30323 layer_factory.hpp:77] Creating layer conv4_5/dwise
I0927 20:47:42.075489 30323 net.cpp:100] Creating Layer conv4_5/dwise
I0927 20:47:42.075490 30323 net.cpp:434] conv4_5/dwise <- conv4_5/expand
I0927 20:47:42.075495 30323 net.cpp:408] conv4_5/dwise -> conv4_5/dwise
I0927 20:47:42.075646 30323 net.cpp:150] Setting up conv4_5/dwise
I0927 20:47:42.075651 30323 net.cpp:157] Top shape: 1 384 38 64 (933888)
I0927 20:47:42.075654 30323 net.cpp:165] Memory required for data: 339441376
I0927 20:47:42.075656 30323 layer_factory.hpp:77] Creating layer conv4_5/dwise/bn
I0927 20:47:42.075660 30323 net.cpp:100] Creating Layer conv4_5/dwise/bn
I0927 20:47:42.075662 30323 net.cpp:434] conv4_5/dwise/bn <- conv4_5/dwise
I0927 20:47:42.075666 30323 net.cpp:395] conv4_5/dwise/bn -> conv4_5/dwise (in-place)
I0927 20:47:42.075791 30323 net.cpp:150] Setting up conv4_5/dwise/bn
I0927 20:47:42.075803 30323 net.cpp:157] Top shape: 1 384 38 64 (933888)
I0927 20:47:42.075804 30323 net.cpp:165] Memory required for data: 343176928
I0927 20:47:42.075809 30323 layer_factory.hpp:77] Creating layer conv4_5/dwise/scale
I0927 20:47:42.075812 30323 net.cpp:100] Creating Layer conv4_5/dwise/scale
I0927 20:47:42.075815 30323 net.cpp:434] conv4_5/dwise/scale <- conv4_5/dwise
I0927 20:47:42.075817 30323 net.cpp:395] conv4_5/dwise/scale -> conv4_5/dwise (in-place)
I0927 20:47:42.075840 30323 layer_factory.hpp:77] Creating layer conv4_5/dwise/scale
I0927 20:47:42.075909 30323 net.cpp:150] Setting up conv4_5/dwise/scale
I0927 20:47:42.075914 30323 net.cpp:157] Top shape: 1 384 38 64 (933888)
I0927 20:47:42.075917 30323 net.cpp:165] Memory required for data: 346912480
I0927 20:47:42.075919 30323 layer_factory.hpp:77] Creating layer relu4_5/dwise
I0927 20:47:42.075923 30323 net.cpp:100] Creating Layer relu4_5/dwise
I0927 20:47:42.075927 30323 net.cpp:434] relu4_5/dwise <- conv4_5/dwise
I0927 20:47:42.075928 30323 net.cpp:395] relu4_5/dwise -> conv4_5/dwise (in-place)
I0927 20:47:42.076303 30323 net.cpp:150] Setting up relu4_5/dwise
I0927 20:47:42.076310 30323 net.cpp:157] Top shape: 1 384 38 64 (933888)
I0927 20:47:42.076313 30323 net.cpp:165] Memory required for data: 350648032
I0927 20:47:42.076314 30323 layer_factory.hpp:77] Creating layer conv4_5/linear
I0927 20:47:42.076319 30323 net.cpp:100] Creating Layer conv4_5/linear
I0927 20:47:42.076323 30323 net.cpp:434] conv4_5/linear <- conv4_5/dwise
I0927 20:47:42.076326 30323 net.cpp:408] conv4_5/linear -> conv4_5/linear
I0927 20:47:42.077518 30323 net.cpp:150] Setting up conv4_5/linear
I0927 20:47:42.077525 30323 net.cpp:157] Top shape: 1 64 38 64 (155648)
I0927 20:47:42.077527 30323 net.cpp:165] Memory required for data: 351270624
I0927 20:47:42.077531 30323 layer_factory.hpp:77] Creating layer conv4_5/linear/bn
I0927 20:47:42.077536 30323 net.cpp:100] Creating Layer conv4_5/linear/bn
I0927 20:47:42.077538 30323 net.cpp:434] conv4_5/linear/bn <- conv4_5/linear
I0927 20:47:42.077540 30323 net.cpp:395] conv4_5/linear/bn -> conv4_5/linear (in-place)
I0927 20:47:42.077675 30323 net.cpp:150] Setting up conv4_5/linear/bn
I0927 20:47:42.077679 30323 net.cpp:157] Top shape: 1 64 38 64 (155648)
I0927 20:47:42.077682 30323 net.cpp:165] Memory required for data: 351893216
I0927 20:47:42.077685 30323 layer_factory.hpp:77] Creating layer conv4_5/linear/scale
I0927 20:47:42.077689 30323 net.cpp:100] Creating Layer conv4_5/linear/scale
I0927 20:47:42.077692 30323 net.cpp:434] conv4_5/linear/scale <- conv4_5/linear
I0927 20:47:42.077694 30323 net.cpp:395] conv4_5/linear/scale -> conv4_5/linear (in-place)
I0927 20:47:42.077721 30323 layer_factory.hpp:77] Creating layer conv4_5/linear/scale
I0927 20:47:42.077796 30323 net.cpp:150] Setting up conv4_5/linear/scale
I0927 20:47:42.077800 30323 net.cpp:157] Top shape: 1 64 38 64 (155648)
I0927 20:47:42.077802 30323 net.cpp:165] Memory required for data: 352515808
I0927 20:47:42.077805 30323 layer_factory.hpp:77] Creating layer block_4_5
I0927 20:47:42.077813 30323 net.cpp:100] Creating Layer block_4_5
I0927 20:47:42.077814 30323 net.cpp:434] block_4_5 <- block_4_4_block_4_4_0_split_1
I0927 20:47:42.077817 30323 net.cpp:434] block_4_5 <- conv4_5/linear
I0927 20:47:42.077821 30323 net.cpp:408] block_4_5 -> block_4_5
I0927 20:47:42.077836 30323 net.cpp:150] Setting up block_4_5
I0927 20:47:42.077841 30323 net.cpp:157] Top shape: 1 64 38 64 (155648)
I0927 20:47:42.077841 30323 net.cpp:165] Memory required for data: 353138400
I0927 20:47:42.077843 30323 layer_factory.hpp:77] Creating layer block_4_5_block_4_5_0_split
I0927 20:47:42.077847 30323 net.cpp:100] Creating Layer block_4_5_block_4_5_0_split
I0927 20:47:42.077849 30323 net.cpp:434] block_4_5_block_4_5_0_split <- block_4_5
I0927 20:47:42.077852 30323 net.cpp:408] block_4_5_block_4_5_0_split -> block_4_5_block_4_5_0_split_0
I0927 20:47:42.077857 30323 net.cpp:408] block_4_5_block_4_5_0_split -> block_4_5_block_4_5_0_split_1
I0927 20:47:42.077879 30323 net.cpp:150] Setting up block_4_5_block_4_5_0_split
I0927 20:47:42.077889 30323 net.cpp:157] Top shape: 1 64 38 64 (155648)
I0927 20:47:42.077893 30323 net.cpp:157] Top shape: 1 64 38 64 (155648)
I0927 20:47:42.077893 30323 net.cpp:165] Memory required for data: 354383584
I0927 20:47:42.077896 30323 layer_factory.hpp:77] Creating layer conv4_6/expand
I0927 20:47:42.077901 30323 net.cpp:100] Creating Layer conv4_6/expand
I0927 20:47:42.077904 30323 net.cpp:434] conv4_6/expand <- block_4_5_block_4_5_0_split_0
I0927 20:47:42.077908 30323 net.cpp:408] conv4_6/expand -> conv4_6/expand
I0927 20:47:42.079109 30323 net.cpp:150] Setting up conv4_6/expand
I0927 20:47:42.079116 30323 net.cpp:157] Top shape: 1 384 38 64 (933888)
I0927 20:47:42.079118 30323 net.cpp:165] Memory required for data: 358119136
I0927 20:47:42.079121 30323 layer_factory.hpp:77] Creating layer conv4_6/expand/bn
I0927 20:47:42.079125 30323 net.cpp:100] Creating Layer conv4_6/expand/bn
I0927 20:47:42.079129 30323 net.cpp:434] conv4_6/expand/bn <- conv4_6/expand
I0927 20:47:42.079131 30323 net.cpp:395] conv4_6/expand/bn -> conv4_6/expand (in-place)
I0927 20:47:42.079264 30323 net.cpp:150] Setting up conv4_6/expand/bn
I0927 20:47:42.079268 30323 net.cpp:157] Top shape: 1 384 38 64 (933888)
I0927 20:47:42.079272 30323 net.cpp:165] Memory required for data: 361854688
I0927 20:47:42.079275 30323 layer_factory.hpp:77] Creating layer conv4_6/expand/scale
I0927 20:47:42.079279 30323 net.cpp:100] Creating Layer conv4_6/expand/scale
I0927 20:47:42.079282 30323 net.cpp:434] conv4_6/expand/scale <- conv4_6/expand
I0927 20:47:42.079285 30323 net.cpp:395] conv4_6/expand/scale -> conv4_6/expand (in-place)
I0927 20:47:42.079308 30323 layer_factory.hpp:77] Creating layer conv4_6/expand/scale
I0927 20:47:42.079380 30323 net.cpp:150] Setting up conv4_6/expand/scale
I0927 20:47:42.079385 30323 net.cpp:157] Top shape: 1 384 38 64 (933888)
I0927 20:47:42.079386 30323 net.cpp:165] Memory required for data: 365590240
I0927 20:47:42.079390 30323 layer_factory.hpp:77] Creating layer relu4_6/expand
I0927 20:47:42.079393 30323 net.cpp:100] Creating Layer relu4_6/expand
I0927 20:47:42.079396 30323 net.cpp:434] relu4_6/expand <- conv4_6/expand
I0927 20:47:42.079398 30323 net.cpp:395] relu4_6/expand -> conv4_6/expand (in-place)
I0927 20:47:42.079794 30323 net.cpp:150] Setting up relu4_6/expand
I0927 20:47:42.079802 30323 net.cpp:157] Top shape: 1 384 38 64 (933888)
I0927 20:47:42.079803 30323 net.cpp:165] Memory required for data: 369325792
I0927 20:47:42.079807 30323 layer_factory.hpp:77] Creating layer conv4_6/dwise
I0927 20:47:42.079811 30323 net.cpp:100] Creating Layer conv4_6/dwise
I0927 20:47:42.079813 30323 net.cpp:434] conv4_6/dwise <- conv4_6/expand
I0927 20:47:42.079816 30323 net.cpp:408] conv4_6/dwise -> conv4_6/dwise
I0927 20:47:42.079973 30323 net.cpp:150] Setting up conv4_6/dwise
I0927 20:47:42.079977 30323 net.cpp:157] Top shape: 1 384 38 64 (933888)
I0927 20:47:42.079979 30323 net.cpp:165] Memory required for data: 373061344
I0927 20:47:42.079982 30323 layer_factory.hpp:77] Creating layer conv4_6/dwise/bn
I0927 20:47:42.079987 30323 net.cpp:100] Creating Layer conv4_6/dwise/bn
I0927 20:47:42.079989 30323 net.cpp:434] conv4_6/dwise/bn <- conv4_6/dwise
I0927 20:47:42.079993 30323 net.cpp:395] conv4_6/dwise/bn -> conv4_6/dwise (in-place)
I0927 20:47:42.080119 30323 net.cpp:150] Setting up conv4_6/dwise/bn
I0927 20:47:42.080123 30323 net.cpp:157] Top shape: 1 384 38 64 (933888)
I0927 20:47:42.080126 30323 net.cpp:165] Memory required for data: 376796896
I0927 20:47:42.080129 30323 layer_factory.hpp:77] Creating layer conv4_6/dwise/scale
I0927 20:47:42.080132 30323 net.cpp:100] Creating Layer conv4_6/dwise/scale
I0927 20:47:42.080134 30323 net.cpp:434] conv4_6/dwise/scale <- conv4_6/dwise
I0927 20:47:42.080138 30323 net.cpp:395] conv4_6/dwise/scale -> conv4_6/dwise (in-place)
I0927 20:47:42.080160 30323 layer_factory.hpp:77] Creating layer conv4_6/dwise/scale
I0927 20:47:42.080232 30323 net.cpp:150] Setting up conv4_6/dwise/scale
I0927 20:47:42.080237 30323 net.cpp:157] Top shape: 1 384 38 64 (933888)
I0927 20:47:42.080245 30323 net.cpp:165] Memory required for data: 380532448
I0927 20:47:42.080250 30323 layer_factory.hpp:77] Creating layer relu4_6/dwise
I0927 20:47:42.080252 30323 net.cpp:100] Creating Layer relu4_6/dwise
I0927 20:47:42.080255 30323 net.cpp:434] relu4_6/dwise <- conv4_6/dwise
I0927 20:47:42.080258 30323 net.cpp:395] relu4_6/dwise -> conv4_6/dwise (in-place)
I0927 20:47:42.080529 30323 net.cpp:150] Setting up relu4_6/dwise
I0927 20:47:42.080534 30323 net.cpp:157] Top shape: 1 384 38 64 (933888)
I0927 20:47:42.080538 30323 net.cpp:165] Memory required for data: 384268000
I0927 20:47:42.080539 30323 layer_factory.hpp:77] Creating layer conv4_6/linear
I0927 20:47:42.080544 30323 net.cpp:100] Creating Layer conv4_6/linear
I0927 20:47:42.080546 30323 net.cpp:434] conv4_6/linear <- conv4_6/dwise
I0927 20:47:42.080550 30323 net.cpp:408] conv4_6/linear -> conv4_6/linear
I0927 20:47:42.081743 30323 net.cpp:150] Setting up conv4_6/linear
I0927 20:47:42.081750 30323 net.cpp:157] Top shape: 1 64 38 64 (155648)
I0927 20:47:42.081753 30323 net.cpp:165] Memory required for data: 384890592
I0927 20:47:42.081756 30323 layer_factory.hpp:77] Creating layer conv4_6/linear/bn
I0927 20:47:42.081761 30323 net.cpp:100] Creating Layer conv4_6/linear/bn
I0927 20:47:42.081763 30323 net.cpp:434] conv4_6/linear/bn <- conv4_6/linear
I0927 20:47:42.081766 30323 net.cpp:395] conv4_6/linear/bn -> conv4_6/linear (in-place)
I0927 20:47:42.081903 30323 net.cpp:150] Setting up conv4_6/linear/bn
I0927 20:47:42.081907 30323 net.cpp:157] Top shape: 1 64 38 64 (155648)
I0927 20:47:42.081909 30323 net.cpp:165] Memory required for data: 385513184
I0927 20:47:42.081913 30323 layer_factory.hpp:77] Creating layer conv4_6/linear/scale
I0927 20:47:42.081918 30323 net.cpp:100] Creating Layer conv4_6/linear/scale
I0927 20:47:42.081919 30323 net.cpp:434] conv4_6/linear/scale <- conv4_6/linear
I0927 20:47:42.081921 30323 net.cpp:395] conv4_6/linear/scale -> conv4_6/linear (in-place)
I0927 20:47:42.081948 30323 layer_factory.hpp:77] Creating layer conv4_6/linear/scale
I0927 20:47:42.082022 30323 net.cpp:150] Setting up conv4_6/linear/scale
I0927 20:47:42.082026 30323 net.cpp:157] Top shape: 1 64 38 64 (155648)
I0927 20:47:42.082028 30323 net.cpp:165] Memory required for data: 386135776
I0927 20:47:42.082031 30323 layer_factory.hpp:77] Creating layer block_4_6
I0927 20:47:42.082036 30323 net.cpp:100] Creating Layer block_4_6
I0927 20:47:42.082038 30323 net.cpp:434] block_4_6 <- block_4_5_block_4_5_0_split_1
I0927 20:47:42.082041 30323 net.cpp:434] block_4_6 <- conv4_6/linear
I0927 20:47:42.082042 30323 net.cpp:408] block_4_6 -> block_4_6
I0927 20:47:42.082059 30323 net.cpp:150] Setting up block_4_6
I0927 20:47:42.082062 30323 net.cpp:157] Top shape: 1 64 38 64 (155648)
I0927 20:47:42.082065 30323 net.cpp:165] Memory required for data: 386758368
I0927 20:47:42.082067 30323 layer_factory.hpp:77] Creating layer conv4_7/expand
I0927 20:47:42.082082 30323 net.cpp:100] Creating Layer conv4_7/expand
I0927 20:47:42.082083 30323 net.cpp:434] conv4_7/expand <- block_4_6
I0927 20:47:42.082087 30323 net.cpp:408] conv4_7/expand -> conv4_7/expand
I0927 20:47:42.083282 30323 net.cpp:150] Setting up conv4_7/expand
I0927 20:47:42.083290 30323 net.cpp:157] Top shape: 1 384 38 64 (933888)
I0927 20:47:42.083293 30323 net.cpp:165] Memory required for data: 390493920
I0927 20:47:42.083297 30323 layer_factory.hpp:77] Creating layer conv4_7/expand/bn
I0927 20:47:42.083300 30323 net.cpp:100] Creating Layer conv4_7/expand/bn
I0927 20:47:42.083303 30323 net.cpp:434] conv4_7/expand/bn <- conv4_7/expand
I0927 20:47:42.083307 30323 net.cpp:395] conv4_7/expand/bn -> conv4_7/expand (in-place)
I0927 20:47:42.083439 30323 net.cpp:150] Setting up conv4_7/expand/bn
I0927 20:47:42.083443 30323 net.cpp:157] Top shape: 1 384 38 64 (933888)
I0927 20:47:42.083446 30323 net.cpp:165] Memory required for data: 394229472
I0927 20:47:42.083451 30323 layer_factory.hpp:77] Creating layer conv4_7/expand/scale
I0927 20:47:42.083453 30323 net.cpp:100] Creating Layer conv4_7/expand/scale
I0927 20:47:42.083462 30323 net.cpp:434] conv4_7/expand/scale <- conv4_7/expand
I0927 20:47:42.083467 30323 net.cpp:395] conv4_7/expand/scale -> conv4_7/expand (in-place)
I0927 20:47:42.083490 30323 layer_factory.hpp:77] Creating layer conv4_7/expand/scale
I0927 20:47:42.083561 30323 net.cpp:150] Setting up conv4_7/expand/scale
I0927 20:47:42.083565 30323 net.cpp:157] Top shape: 1 384 38 64 (933888)
I0927 20:47:42.083568 30323 net.cpp:165] Memory required for data: 397965024
I0927 20:47:42.083571 30323 layer_factory.hpp:77] Creating layer relu4_7/expand
I0927 20:47:42.083575 30323 net.cpp:100] Creating Layer relu4_7/expand
I0927 20:47:42.083576 30323 net.cpp:434] relu4_7/expand <- conv4_7/expand
I0927 20:47:42.083580 30323 net.cpp:395] relu4_7/expand -> conv4_7/expand (in-place)
I0927 20:47:42.083956 30323 net.cpp:150] Setting up relu4_7/expand
I0927 20:47:42.083962 30323 net.cpp:157] Top shape: 1 384 38 64 (933888)
I0927 20:47:42.083964 30323 net.cpp:165] Memory required for data: 401700576
I0927 20:47:42.083966 30323 layer_factory.hpp:77] Creating layer conv4_7/dwise
I0927 20:47:42.083971 30323 net.cpp:100] Creating Layer conv4_7/dwise
I0927 20:47:42.083973 30323 net.cpp:434] conv4_7/dwise <- conv4_7/expand
I0927 20:47:42.083977 30323 net.cpp:408] conv4_7/dwise -> conv4_7/dwise
I0927 20:47:42.084133 30323 net.cpp:150] Setting up conv4_7/dwise
I0927 20:47:42.084138 30323 net.cpp:157] Top shape: 1 384 19 32 (233472)
I0927 20:47:42.084139 30323 net.cpp:165] Memory required for data: 402634464
I0927 20:47:42.084142 30323 layer_factory.hpp:77] Creating layer conv4_7/dwise/bn
I0927 20:47:42.084146 30323 net.cpp:100] Creating Layer conv4_7/dwise/bn
I0927 20:47:42.084149 30323 net.cpp:434] conv4_7/dwise/bn <- conv4_7/dwise
I0927 20:47:42.084152 30323 net.cpp:395] conv4_7/dwise/bn -> conv4_7/dwise (in-place)
I0927 20:47:42.084280 30323 net.cpp:150] Setting up conv4_7/dwise/bn
I0927 20:47:42.084285 30323 net.cpp:157] Top shape: 1 384 19 32 (233472)
I0927 20:47:42.084286 30323 net.cpp:165] Memory required for data: 403568352
I0927 20:47:42.084290 30323 layer_factory.hpp:77] Creating layer conv4_7/dwise/scale
I0927 20:47:42.084293 30323 net.cpp:100] Creating Layer conv4_7/dwise/scale
I0927 20:47:42.084296 30323 net.cpp:434] conv4_7/dwise/scale <- conv4_7/dwise
I0927 20:47:42.084300 30323 net.cpp:395] conv4_7/dwise/scale -> conv4_7/dwise (in-place)
I0927 20:47:42.084326 30323 layer_factory.hpp:77] Creating layer conv4_7/dwise/scale
I0927 20:47:42.084403 30323 net.cpp:150] Setting up conv4_7/dwise/scale
I0927 20:47:42.084406 30323 net.cpp:157] Top shape: 1 384 19 32 (233472)
I0927 20:47:42.084408 30323 net.cpp:165] Memory required for data: 404502240
I0927 20:47:42.084411 30323 layer_factory.hpp:77] Creating layer relu4_7/dwise
I0927 20:47:42.084414 30323 net.cpp:100] Creating Layer relu4_7/dwise
I0927 20:47:42.084416 30323 net.cpp:434] relu4_7/dwise <- conv4_7/dwise
I0927 20:47:42.084419 30323 net.cpp:395] relu4_7/dwise -> conv4_7/dwise (in-place)
I0927 20:47:42.084688 30323 net.cpp:150] Setting up relu4_7/dwise
I0927 20:47:42.084694 30323 net.cpp:157] Top shape: 1 384 19 32 (233472)
I0927 20:47:42.084697 30323 net.cpp:165] Memory required for data: 405436128
I0927 20:47:42.084699 30323 layer_factory.hpp:77] Creating layer conv4_7/linear
I0927 20:47:42.084703 30323 net.cpp:100] Creating Layer conv4_7/linear
I0927 20:47:42.084705 30323 net.cpp:434] conv4_7/linear <- conv4_7/dwise
I0927 20:47:42.084709 30323 net.cpp:408] conv4_7/linear -> conv4_7/linear
I0927 20:47:42.085984 30323 net.cpp:150] Setting up conv4_7/linear
I0927 20:47:42.085991 30323 net.cpp:157] Top shape: 1 96 19 32 (58368)
I0927 20:47:42.085994 30323 net.cpp:165] Memory required for data: 405669600
I0927 20:47:42.085997 30323 layer_factory.hpp:77] Creating layer conv4_7/linear/bn
I0927 20:47:42.086002 30323 net.cpp:100] Creating Layer conv4_7/linear/bn
I0927 20:47:42.086005 30323 net.cpp:434] conv4_7/linear/bn <- conv4_7/linear
I0927 20:47:42.086009 30323 net.cpp:395] conv4_7/linear/bn -> conv4_7/linear (in-place)
I0927 20:47:42.086150 30323 net.cpp:150] Setting up conv4_7/linear/bn
I0927 20:47:42.086160 30323 net.cpp:157] Top shape: 1 96 19 32 (58368)
I0927 20:47:42.086163 30323 net.cpp:165] Memory required for data: 405903072
I0927 20:47:42.086166 30323 layer_factory.hpp:77] Creating layer conv4_7/linear/scale
I0927 20:47:42.086170 30323 net.cpp:100] Creating Layer conv4_7/linear/scale
I0927 20:47:42.086172 30323 net.cpp:434] conv4_7/linear/scale <- conv4_7/linear
I0927 20:47:42.086175 30323 net.cpp:395] conv4_7/linear/scale -> conv4_7/linear (in-place)
I0927 20:47:42.086205 30323 layer_factory.hpp:77] Creating layer conv4_7/linear/scale
I0927 20:47:42.086288 30323 net.cpp:150] Setting up conv4_7/linear/scale
I0927 20:47:42.086292 30323 net.cpp:157] Top shape: 1 96 19 32 (58368)
I0927 20:47:42.086294 30323 net.cpp:165] Memory required for data: 406136544
I0927 20:47:42.086297 30323 layer_factory.hpp:77] Creating layer conv4_7/linear_conv4_7/linear/scale_0_split
I0927 20:47:42.086302 30323 net.cpp:100] Creating Layer conv4_7/linear_conv4_7/linear/scale_0_split
I0927 20:47:42.086303 30323 net.cpp:434] conv4_7/linear_conv4_7/linear/scale_0_split <- conv4_7/linear
I0927 20:47:42.086308 30323 net.cpp:408] conv4_7/linear_conv4_7/linear/scale_0_split -> conv4_7/linear_conv4_7/linear/scale_0_split_0
I0927 20:47:42.086313 30323 net.cpp:408] conv4_7/linear_conv4_7/linear/scale_0_split -> conv4_7/linear_conv4_7/linear/scale_0_split_1
I0927 20:47:42.086338 30323 net.cpp:150] Setting up conv4_7/linear_conv4_7/linear/scale_0_split
I0927 20:47:42.086341 30323 net.cpp:157] Top shape: 1 96 19 32 (58368)
I0927 20:47:42.086344 30323 net.cpp:157] Top shape: 1 96 19 32 (58368)
I0927 20:47:42.086345 30323 net.cpp:165] Memory required for data: 406603488
I0927 20:47:42.086347 30323 layer_factory.hpp:77] Creating layer conv5_1/expand
I0927 20:47:42.086351 30323 net.cpp:100] Creating Layer conv5_1/expand
I0927 20:47:42.086354 30323 net.cpp:434] conv5_1/expand <- conv4_7/linear_conv4_7/linear/scale_0_split_0
I0927 20:47:42.086356 30323 net.cpp:408] conv5_1/expand -> conv5_1/expand
I0927 20:47:42.087846 30323 net.cpp:150] Setting up conv5_1/expand
I0927 20:47:42.087853 30323 net.cpp:157] Top shape: 1 576 19 32 (350208)
I0927 20:47:42.087855 30323 net.cpp:165] Memory required for data: 408004320
I0927 20:47:42.087858 30323 layer_factory.hpp:77] Creating layer conv5_1/expand/bn
I0927 20:47:42.087863 30323 net.cpp:100] Creating Layer conv5_1/expand/bn
I0927 20:47:42.087867 30323 net.cpp:434] conv5_1/expand/bn <- conv5_1/expand
I0927 20:47:42.087869 30323 net.cpp:395] conv5_1/expand/bn -> conv5_1/expand (in-place)
I0927 20:47:42.088012 30323 net.cpp:150] Setting up conv5_1/expand/bn
I0927 20:47:42.088017 30323 net.cpp:157] Top shape: 1 576 19 32 (350208)
I0927 20:47:42.088018 30323 net.cpp:165] Memory required for data: 409405152
I0927 20:47:42.088022 30323 layer_factory.hpp:77] Creating layer conv5_1/expand/scale
I0927 20:47:42.088027 30323 net.cpp:100] Creating Layer conv5_1/expand/scale
I0927 20:47:42.088029 30323 net.cpp:434] conv5_1/expand/scale <- conv5_1/expand
I0927 20:47:42.088032 30323 net.cpp:395] conv5_1/expand/scale -> conv5_1/expand (in-place)
I0927 20:47:42.088058 30323 layer_factory.hpp:77] Creating layer conv5_1/expand/scale
I0927 20:47:42.088145 30323 net.cpp:150] Setting up conv5_1/expand/scale
I0927 20:47:42.088148 30323 net.cpp:157] Top shape: 1 576 19 32 (350208)
I0927 20:47:42.088150 30323 net.cpp:165] Memory required for data: 410805984
I0927 20:47:42.088153 30323 layer_factory.hpp:77] Creating layer relu5_1/expand
I0927 20:47:42.088157 30323 net.cpp:100] Creating Layer relu5_1/expand
I0927 20:47:42.088160 30323 net.cpp:434] relu5_1/expand <- conv5_1/expand
I0927 20:47:42.088163 30323 net.cpp:395] relu5_1/expand -> conv5_1/expand (in-place)
I0927 20:47:42.088438 30323 net.cpp:150] Setting up relu5_1/expand
I0927 20:47:42.088444 30323 net.cpp:157] Top shape: 1 576 19 32 (350208)
I0927 20:47:42.088446 30323 net.cpp:165] Memory required for data: 412206816
I0927 20:47:42.088449 30323 layer_factory.hpp:77] Creating layer conv5_1/dwise
I0927 20:47:42.088452 30323 net.cpp:100] Creating Layer conv5_1/dwise
I0927 20:47:42.088461 30323 net.cpp:434] conv5_1/dwise <- conv5_1/expand
I0927 20:47:42.088466 30323 net.cpp:408] conv5_1/dwise -> conv5_1/dwise
I0927 20:47:42.088637 30323 net.cpp:150] Setting up conv5_1/dwise
I0927 20:47:42.088644 30323 net.cpp:157] Top shape: 1 576 19 32 (350208)
I0927 20:47:42.088645 30323 net.cpp:165] Memory required for data: 413607648
I0927 20:47:42.088649 30323 layer_factory.hpp:77] Creating layer conv5_1/dwise/bn
I0927 20:47:42.088654 30323 net.cpp:100] Creating Layer conv5_1/dwise/bn
I0927 20:47:42.088655 30323 net.cpp:434] conv5_1/dwise/bn <- conv5_1/dwise
I0927 20:47:42.088659 30323 net.cpp:395] conv5_1/dwise/bn -> conv5_1/dwise (in-place)
I0927 20:47:42.088796 30323 net.cpp:150] Setting up conv5_1/dwise/bn
I0927 20:47:42.088800 30323 net.cpp:157] Top shape: 1 576 19 32 (350208)
I0927 20:47:42.088802 30323 net.cpp:165] Memory required for data: 415008480
I0927 20:47:42.088806 30323 layer_factory.hpp:77] Creating layer conv5_1/dwise/scale
I0927 20:47:42.088810 30323 net.cpp:100] Creating Layer conv5_1/dwise/scale
I0927 20:47:42.088812 30323 net.cpp:434] conv5_1/dwise/scale <- conv5_1/dwise
I0927 20:47:42.088815 30323 net.cpp:395] conv5_1/dwise/scale -> conv5_1/dwise (in-place)
I0927 20:47:42.088841 30323 layer_factory.hpp:77] Creating layer conv5_1/dwise/scale
I0927 20:47:42.088922 30323 net.cpp:150] Setting up conv5_1/dwise/scale
I0927 20:47:42.088927 30323 net.cpp:157] Top shape: 1 576 19 32 (350208)
I0927 20:47:42.088927 30323 net.cpp:165] Memory required for data: 416409312
I0927 20:47:42.088930 30323 layer_factory.hpp:77] Creating layer relu5_1/dwise
I0927 20:47:42.088934 30323 net.cpp:100] Creating Layer relu5_1/dwise
I0927 20:47:42.088937 30323 net.cpp:434] relu5_1/dwise <- conv5_1/dwise
I0927 20:47:42.088938 30323 net.cpp:395] relu5_1/dwise -> conv5_1/dwise (in-place)
I0927 20:47:42.089213 30323 net.cpp:150] Setting up relu5_1/dwise
I0927 20:47:42.089220 30323 net.cpp:157] Top shape: 1 576 19 32 (350208)
I0927 20:47:42.089221 30323 net.cpp:165] Memory required for data: 417810144
I0927 20:47:42.089223 30323 layer_factory.hpp:77] Creating layer conv5_1/linear
I0927 20:47:42.089228 30323 net.cpp:100] Creating Layer conv5_1/linear
I0927 20:47:42.089231 30323 net.cpp:434] conv5_1/linear <- conv5_1/dwise
I0927 20:47:42.089236 30323 net.cpp:408] conv5_1/linear -> conv5_1/linear
I0927 20:47:42.090782 30323 net.cpp:150] Setting up conv5_1/linear
I0927 20:47:42.090790 30323 net.cpp:157] Top shape: 1 96 19 32 (58368)
I0927 20:47:42.090791 30323 net.cpp:165] Memory required for data: 418043616
I0927 20:47:42.090795 30323 layer_factory.hpp:77] Creating layer conv5_1/linear/bn
I0927 20:47:42.090801 30323 net.cpp:100] Creating Layer conv5_1/linear/bn
I0927 20:47:42.090803 30323 net.cpp:434] conv5_1/linear/bn <- conv5_1/linear
I0927 20:47:42.090806 30323 net.cpp:395] conv5_1/linear/bn -> conv5_1/linear (in-place)
I0927 20:47:42.090952 30323 net.cpp:150] Setting up conv5_1/linear/bn
I0927 20:47:42.090957 30323 net.cpp:157] Top shape: 1 96 19 32 (58368)
I0927 20:47:42.090958 30323 net.cpp:165] Memory required for data: 418277088
I0927 20:47:42.090963 30323 layer_factory.hpp:77] Creating layer conv5_1/linear/scale
I0927 20:47:42.090966 30323 net.cpp:100] Creating Layer conv5_1/linear/scale
I0927 20:47:42.090968 30323 net.cpp:434] conv5_1/linear/scale <- conv5_1/linear
I0927 20:47:42.090972 30323 net.cpp:395] conv5_1/linear/scale -> conv5_1/linear (in-place)
I0927 20:47:42.090998 30323 layer_factory.hpp:77] Creating layer conv5_1/linear/scale
I0927 20:47:42.091080 30323 net.cpp:150] Setting up conv5_1/linear/scale
I0927 20:47:42.091084 30323 net.cpp:157] Top shape: 1 96 19 32 (58368)
I0927 20:47:42.091085 30323 net.cpp:165] Memory required for data: 418510560
I0927 20:47:42.091089 30323 layer_factory.hpp:77] Creating layer block_5_1
I0927 20:47:42.091094 30323 net.cpp:100] Creating Layer block_5_1
I0927 20:47:42.091096 30323 net.cpp:434] block_5_1 <- conv4_7/linear_conv4_7/linear/scale_0_split_1
I0927 20:47:42.091099 30323 net.cpp:434] block_5_1 <- conv5_1/linear
I0927 20:47:42.091102 30323 net.cpp:408] block_5_1 -> block_5_1
I0927 20:47:42.091127 30323 net.cpp:150] Setting up block_5_1
I0927 20:47:42.091130 30323 net.cpp:157] Top shape: 1 96 19 32 (58368)
I0927 20:47:42.091132 30323 net.cpp:165] Memory required for data: 418744032
I0927 20:47:42.091135 30323 layer_factory.hpp:77] Creating layer block_5_1_block_5_1_0_split
I0927 20:47:42.091137 30323 net.cpp:100] Creating Layer block_5_1_block_5_1_0_split
I0927 20:47:42.091140 30323 net.cpp:434] block_5_1_block_5_1_0_split <- block_5_1
I0927 20:47:42.091142 30323 net.cpp:408] block_5_1_block_5_1_0_split -> block_5_1_block_5_1_0_split_0
I0927 20:47:42.091147 30323 net.cpp:408] block_5_1_block_5_1_0_split -> block_5_1_block_5_1_0_split_1
I0927 20:47:42.091171 30323 net.cpp:150] Setting up block_5_1_block_5_1_0_split
I0927 20:47:42.091176 30323 net.cpp:157] Top shape: 1 96 19 32 (58368)
I0927 20:47:42.091177 30323 net.cpp:157] Top shape: 1 96 19 32 (58368)
I0927 20:47:42.091181 30323 net.cpp:165] Memory required for data: 419210976
I0927 20:47:42.091181 30323 layer_factory.hpp:77] Creating layer conv5_2/expand
I0927 20:47:42.091186 30323 net.cpp:100] Creating Layer conv5_2/expand
I0927 20:47:42.091188 30323 net.cpp:434] conv5_2/expand <- block_5_1_block_5_1_0_split_0
I0927 20:47:42.091192 30323 net.cpp:408] conv5_2/expand -> conv5_2/expand
I0927 20:47:42.092664 30323 net.cpp:150] Setting up conv5_2/expand
I0927 20:47:42.092671 30323 net.cpp:157] Top shape: 1 576 19 32 (350208)
I0927 20:47:42.092674 30323 net.cpp:165] Memory required for data: 420611808
I0927 20:47:42.092677 30323 layer_factory.hpp:77] Creating layer conv5_2/expand/bn
I0927 20:47:42.092681 30323 net.cpp:100] Creating Layer conv5_2/expand/bn
I0927 20:47:42.092684 30323 net.cpp:434] conv5_2/expand/bn <- conv5_2/expand
I0927 20:47:42.092689 30323 net.cpp:395] conv5_2/expand/bn -> conv5_2/expand (in-place)
I0927 20:47:42.092833 30323 net.cpp:150] Setting up conv5_2/expand/bn
I0927 20:47:42.092838 30323 net.cpp:157] Top shape: 1 576 19 32 (350208)
I0927 20:47:42.092839 30323 net.cpp:165] Memory required for data: 422012640
I0927 20:47:42.092844 30323 layer_factory.hpp:77] Creating layer conv5_2/expand/scale
I0927 20:47:42.092849 30323 net.cpp:100] Creating Layer conv5_2/expand/scale
I0927 20:47:42.092850 30323 net.cpp:434] conv5_2/expand/scale <- conv5_2/expand
I0927 20:47:42.092854 30323 net.cpp:395] conv5_2/expand/scale -> conv5_2/expand (in-place)
I0927 20:47:42.092880 30323 layer_factory.hpp:77] Creating layer conv5_2/expand/scale
I0927 20:47:42.092962 30323 net.cpp:150] Setting up conv5_2/expand/scale
I0927 20:47:42.092965 30323 net.cpp:157] Top shape: 1 576 19 32 (350208)
I0927 20:47:42.092967 30323 net.cpp:165] Memory required for data: 423413472
I0927 20:47:42.092970 30323 layer_factory.hpp:77] Creating layer relu5_2/expand
I0927 20:47:42.092973 30323 net.cpp:100] Creating Layer relu5_2/expand
I0927 20:47:42.092975 30323 net.cpp:434] relu5_2/expand <- conv5_2/expand
I0927 20:47:42.092978 30323 net.cpp:395] relu5_2/expand -> conv5_2/expand (in-place)
I0927 20:47:42.093252 30323 net.cpp:150] Setting up relu5_2/expand
I0927 20:47:42.093258 30323 net.cpp:157] Top shape: 1 576 19 32 (350208)
I0927 20:47:42.093261 30323 net.cpp:165] Memory required for data: 424814304
I0927 20:47:42.093263 30323 layer_factory.hpp:77] Creating layer conv5_2/dwise
I0927 20:47:42.093266 30323 net.cpp:100] Creating Layer conv5_2/dwise
I0927 20:47:42.093269 30323 net.cpp:434] conv5_2/dwise <- conv5_2/expand
I0927 20:47:42.093272 30323 net.cpp:408] conv5_2/dwise -> conv5_2/dwise
I0927 20:47:42.093444 30323 net.cpp:150] Setting up conv5_2/dwise
I0927 20:47:42.093448 30323 net.cpp:157] Top shape: 1 576 19 32 (350208)
I0927 20:47:42.093451 30323 net.cpp:165] Memory required for data: 426215136
I0927 20:47:42.093453 30323 layer_factory.hpp:77] Creating layer conv5_2/dwise/bn
I0927 20:47:42.093457 30323 net.cpp:100] Creating Layer conv5_2/dwise/bn
I0927 20:47:42.093459 30323 net.cpp:434] conv5_2/dwise/bn <- conv5_2/dwise
I0927 20:47:42.093462 30323 net.cpp:395] conv5_2/dwise/bn -> conv5_2/dwise (in-place)
I0927 20:47:42.093601 30323 net.cpp:150] Setting up conv5_2/dwise/bn
I0927 20:47:42.093611 30323 net.cpp:157] Top shape: 1 576 19 32 (350208)
I0927 20:47:42.093613 30323 net.cpp:165] Memory required for data: 427615968
I0927 20:47:42.093618 30323 layer_factory.hpp:77] Creating layer conv5_2/dwise/scale
I0927 20:47:42.093621 30323 net.cpp:100] Creating Layer conv5_2/dwise/scale
I0927 20:47:42.093624 30323 net.cpp:434] conv5_2/dwise/scale <- conv5_2/dwise
I0927 20:47:42.093628 30323 net.cpp:395] conv5_2/dwise/scale -> conv5_2/dwise (in-place)
I0927 20:47:42.093657 30323 layer_factory.hpp:77] Creating layer conv5_2/dwise/scale
I0927 20:47:42.093739 30323 net.cpp:150] Setting up conv5_2/dwise/scale
I0927 20:47:42.093742 30323 net.cpp:157] Top shape: 1 576 19 32 (350208)
I0927 20:47:42.093744 30323 net.cpp:165] Memory required for data: 429016800
I0927 20:47:42.093749 30323 layer_factory.hpp:77] Creating layer relu5_2/dwise
I0927 20:47:42.093751 30323 net.cpp:100] Creating Layer relu5_2/dwise
I0927 20:47:42.093753 30323 net.cpp:434] relu5_2/dwise <- conv5_2/dwise
I0927 20:47:42.093756 30323 net.cpp:395] relu5_2/dwise -> conv5_2/dwise (in-place)
I0927 20:47:42.094137 30323 net.cpp:150] Setting up relu5_2/dwise
I0927 20:47:42.094143 30323 net.cpp:157] Top shape: 1 576 19 32 (350208)
I0927 20:47:42.094146 30323 net.cpp:165] Memory required for data: 430417632
I0927 20:47:42.094148 30323 layer_factory.hpp:77] Creating layer conv5_2/linear
I0927 20:47:42.094153 30323 net.cpp:100] Creating Layer conv5_2/linear
I0927 20:47:42.094156 30323 net.cpp:434] conv5_2/linear <- conv5_2/dwise
I0927 20:47:42.094161 30323 net.cpp:408] conv5_2/linear -> conv5_2/linear
I0927 20:47:42.095554 30323 net.cpp:150] Setting up conv5_2/linear
I0927 20:47:42.095561 30323 net.cpp:157] Top shape: 1 96 19 32 (58368)
I0927 20:47:42.095563 30323 net.cpp:165] Memory required for data: 430651104
I0927 20:47:42.095566 30323 layer_factory.hpp:77] Creating layer conv5_2/linear/bn
I0927 20:47:42.095571 30323 net.cpp:100] Creating Layer conv5_2/linear/bn
I0927 20:47:42.095576 30323 net.cpp:434] conv5_2/linear/bn <- conv5_2/linear
I0927 20:47:42.095578 30323 net.cpp:395] conv5_2/linear/bn -> conv5_2/linear (in-place)
I0927 20:47:42.095719 30323 net.cpp:150] Setting up conv5_2/linear/bn
I0927 20:47:42.095722 30323 net.cpp:157] Top shape: 1 96 19 32 (58368)
I0927 20:47:42.095724 30323 net.cpp:165] Memory required for data: 430884576
I0927 20:47:42.095728 30323 layer_factory.hpp:77] Creating layer conv5_2/linear/scale
I0927 20:47:42.095732 30323 net.cpp:100] Creating Layer conv5_2/linear/scale
I0927 20:47:42.095734 30323 net.cpp:434] conv5_2/linear/scale <- conv5_2/linear
I0927 20:47:42.095737 30323 net.cpp:395] conv5_2/linear/scale -> conv5_2/linear (in-place)
I0927 20:47:42.095763 30323 layer_factory.hpp:77] Creating layer conv5_2/linear/scale
I0927 20:47:42.095846 30323 net.cpp:150] Setting up conv5_2/linear/scale
I0927 20:47:42.095850 30323 net.cpp:157] Top shape: 1 96 19 32 (58368)
I0927 20:47:42.095852 30323 net.cpp:165] Memory required for data: 431118048
I0927 20:47:42.095856 30323 layer_factory.hpp:77] Creating layer block_5_2
I0927 20:47:42.095860 30323 net.cpp:100] Creating Layer block_5_2
I0927 20:47:42.095862 30323 net.cpp:434] block_5_2 <- block_5_1_block_5_1_0_split_1
I0927 20:47:42.095865 30323 net.cpp:434] block_5_2 <- conv5_2/linear
I0927 20:47:42.095870 30323 net.cpp:408] block_5_2 -> block_5_2
I0927 20:47:42.095885 30323 net.cpp:150] Setting up block_5_2
I0927 20:47:42.095888 30323 net.cpp:157] Top shape: 1 96 19 32 (58368)
I0927 20:47:42.095891 30323 net.cpp:165] Memory required for data: 431351520
I0927 20:47:42.095893 30323 layer_factory.hpp:77] Creating layer conv5_3/expand
I0927 20:47:42.095897 30323 net.cpp:100] Creating Layer conv5_3/expand
I0927 20:47:42.095901 30323 net.cpp:434] conv5_3/expand <- block_5_2
I0927 20:47:42.095903 30323 net.cpp:408] conv5_3/expand -> conv5_3/expand
I0927 20:47:42.097738 30323 net.cpp:150] Setting up conv5_3/expand
I0927 20:47:42.097746 30323 net.cpp:157] Top shape: 1 576 19 32 (350208)
I0927 20:47:42.097748 30323 net.cpp:165] Memory required for data: 432752352
I0927 20:47:42.097759 30323 layer_factory.hpp:77] Creating layer conv5_3/expand/bn
I0927 20:47:42.097765 30323 net.cpp:100] Creating Layer conv5_3/expand/bn
I0927 20:47:42.097769 30323 net.cpp:434] conv5_3/expand/bn <- conv5_3/expand
I0927 20:47:42.097771 30323 net.cpp:395] conv5_3/expand/bn -> conv5_3/expand (in-place)
I0927 20:47:42.097918 30323 net.cpp:150] Setting up conv5_3/expand/bn
I0927 20:47:42.097921 30323 net.cpp:157] Top shape: 1 576 19 32 (350208)
I0927 20:47:42.097923 30323 net.cpp:165] Memory required for data: 434153184
I0927 20:47:42.097928 30323 layer_factory.hpp:77] Creating layer conv5_3/expand/scale
I0927 20:47:42.097932 30323 net.cpp:100] Creating Layer conv5_3/expand/scale
I0927 20:47:42.097934 30323 net.cpp:434] conv5_3/expand/scale <- conv5_3/expand
I0927 20:47:42.097936 30323 net.cpp:395] conv5_3/expand/scale -> conv5_3/expand (in-place)
I0927 20:47:42.097965 30323 layer_factory.hpp:77] Creating layer conv5_3/expand/scale
I0927 20:47:42.098048 30323 net.cpp:150] Setting up conv5_3/expand/scale
I0927 20:47:42.098052 30323 net.cpp:157] Top shape: 1 576 19 32 (350208)
I0927 20:47:42.098055 30323 net.cpp:165] Memory required for data: 435554016
I0927 20:47:42.098058 30323 layer_factory.hpp:77] Creating layer relu5_3/expand
I0927 20:47:42.098062 30323 net.cpp:100] Creating Layer relu5_3/expand
I0927 20:47:42.098064 30323 net.cpp:434] relu5_3/expand <- conv5_3/expand
I0927 20:47:42.098067 30323 net.cpp:395] relu5_3/expand -> conv5_3/expand (in-place)
I0927 20:47:42.098343 30323 net.cpp:150] Setting up relu5_3/expand
I0927 20:47:42.098350 30323 net.cpp:157] Top shape: 1 576 19 32 (350208)
I0927 20:47:42.098351 30323 net.cpp:165] Memory required for data: 436954848
I0927 20:47:42.098354 30323 layer_factory.hpp:77] Creating layer conv5_3/expand_relu5_3/expand_0_split
I0927 20:47:42.098358 30323 net.cpp:100] Creating Layer conv5_3/expand_relu5_3/expand_0_split
I0927 20:47:42.098361 30323 net.cpp:434] conv5_3/expand_relu5_3/expand_0_split <- conv5_3/expand
I0927 20:47:42.098364 30323 net.cpp:408] conv5_3/expand_relu5_3/expand_0_split -> conv5_3/expand_relu5_3/expand_0_split_0
I0927 20:47:42.098369 30323 net.cpp:408] conv5_3/expand_relu5_3/expand_0_split -> conv5_3/expand_relu5_3/expand_0_split_1
I0927 20:47:42.098397 30323 net.cpp:150] Setting up conv5_3/expand_relu5_3/expand_0_split
I0927 20:47:42.098402 30323 net.cpp:157] Top shape: 1 576 19 32 (350208)
I0927 20:47:42.098404 30323 net.cpp:157] Top shape: 1 576 19 32 (350208)
I0927 20:47:42.098407 30323 net.cpp:165] Memory required for data: 439756512
I0927 20:47:42.098408 30323 layer_factory.hpp:77] Creating layer conv5_3/dwise
I0927 20:47:42.098413 30323 net.cpp:100] Creating Layer conv5_3/dwise
I0927 20:47:42.098417 30323 net.cpp:434] conv5_3/dwise <- conv5_3/expand_relu5_3/expand_0_split_0
I0927 20:47:42.098419 30323 net.cpp:408] conv5_3/dwise -> conv5_3/dwise
I0927 20:47:42.098588 30323 net.cpp:150] Setting up conv5_3/dwise
I0927 20:47:42.098592 30323 net.cpp:157] Top shape: 1 576 10 16 (92160)
I0927 20:47:42.098594 30323 net.cpp:165] Memory required for data: 440125152
I0927 20:47:42.098598 30323 layer_factory.hpp:77] Creating layer conv5_3/dwise/bn
I0927 20:47:42.098600 30323 net.cpp:100] Creating Layer conv5_3/dwise/bn
I0927 20:47:42.098603 30323 net.cpp:434] conv5_3/dwise/bn <- conv5_3/dwise
I0927 20:47:42.098605 30323 net.cpp:395] conv5_3/dwise/bn -> conv5_3/dwise (in-place)
I0927 20:47:42.098743 30323 net.cpp:150] Setting up conv5_3/dwise/bn
I0927 20:47:42.098747 30323 net.cpp:157] Top shape: 1 576 10 16 (92160)
I0927 20:47:42.098749 30323 net.cpp:165] Memory required for data: 440493792
I0927 20:47:42.098753 30323 layer_factory.hpp:77] Creating layer conv5_3/dwise/scale
I0927 20:47:42.098757 30323 net.cpp:100] Creating Layer conv5_3/dwise/scale
I0927 20:47:42.098759 30323 net.cpp:434] conv5_3/dwise/scale <- conv5_3/dwise
I0927 20:47:42.098762 30323 net.cpp:395] conv5_3/dwise/scale -> conv5_3/dwise (in-place)
I0927 20:47:42.098789 30323 layer_factory.hpp:77] Creating layer conv5_3/dwise/scale
I0927 20:47:42.098870 30323 net.cpp:150] Setting up conv5_3/dwise/scale
I0927 20:47:42.098883 30323 net.cpp:157] Top shape: 1 576 10 16 (92160)
I0927 20:47:42.098886 30323 net.cpp:165] Memory required for data: 440862432
I0927 20:47:42.098891 30323 layer_factory.hpp:77] Creating layer relu5_3/dwise
I0927 20:47:42.098893 30323 net.cpp:100] Creating Layer relu5_3/dwise
I0927 20:47:42.098896 30323 net.cpp:434] relu5_3/dwise <- conv5_3/dwise
I0927 20:47:42.098899 30323 net.cpp:395] relu5_3/dwise -> conv5_3/dwise (in-place)
I0927 20:47:42.099280 30323 net.cpp:150] Setting up relu5_3/dwise
I0927 20:47:42.099287 30323 net.cpp:157] Top shape: 1 576 10 16 (92160)
I0927 20:47:42.099288 30323 net.cpp:165] Memory required for data: 441231072
I0927 20:47:42.099292 30323 layer_factory.hpp:77] Creating layer conv5_3/linear
I0927 20:47:42.099297 30323 net.cpp:100] Creating Layer conv5_3/linear
I0927 20:47:42.099298 30323 net.cpp:434] conv5_3/linear <- conv5_3/dwise
I0927 20:47:42.099303 30323 net.cpp:408] conv5_3/linear -> conv5_3/linear
I0927 20:47:42.101433 30323 net.cpp:150] Setting up conv5_3/linear
I0927 20:47:42.101441 30323 net.cpp:157] Top shape: 1 160 10 16 (25600)
I0927 20:47:42.101444 30323 net.cpp:165] Memory required for data: 441333472
I0927 20:47:42.101446 30323 layer_factory.hpp:77] Creating layer conv5_3/linear/bn
I0927 20:47:42.101451 30323 net.cpp:100] Creating Layer conv5_3/linear/bn
I0927 20:47:42.101454 30323 net.cpp:434] conv5_3/linear/bn <- conv5_3/linear
I0927 20:47:42.101457 30323 net.cpp:395] conv5_3/linear/bn -> conv5_3/linear (in-place)
I0927 20:47:42.101603 30323 net.cpp:150] Setting up conv5_3/linear/bn
I0927 20:47:42.101608 30323 net.cpp:157] Top shape: 1 160 10 16 (25600)
I0927 20:47:42.101608 30323 net.cpp:165] Memory required for data: 441435872
I0927 20:47:42.101613 30323 layer_factory.hpp:77] Creating layer conv5_3/linear/scale
I0927 20:47:42.101616 30323 net.cpp:100] Creating Layer conv5_3/linear/scale
I0927 20:47:42.101619 30323 net.cpp:434] conv5_3/linear/scale <- conv5_3/linear
I0927 20:47:42.101622 30323 net.cpp:395] conv5_3/linear/scale -> conv5_3/linear (in-place)
I0927 20:47:42.101649 30323 layer_factory.hpp:77] Creating layer conv5_3/linear/scale
I0927 20:47:42.101729 30323 net.cpp:150] Setting up conv5_3/linear/scale
I0927 20:47:42.101733 30323 net.cpp:157] Top shape: 1 160 10 16 (25600)
I0927 20:47:42.101735 30323 net.cpp:165] Memory required for data: 441538272
I0927 20:47:42.101753 30323 layer_factory.hpp:77] Creating layer conv5_3/linear_conv5_3/linear/scale_0_split
I0927 20:47:42.101758 30323 net.cpp:100] Creating Layer conv5_3/linear_conv5_3/linear/scale_0_split
I0927 20:47:42.101759 30323 net.cpp:434] conv5_3/linear_conv5_3/linear/scale_0_split <- conv5_3/linear
I0927 20:47:42.101763 30323 net.cpp:408] conv5_3/linear_conv5_3/linear/scale_0_split -> conv5_3/linear_conv5_3/linear/scale_0_split_0
I0927 20:47:42.101766 30323 net.cpp:408] conv5_3/linear_conv5_3/linear/scale_0_split -> conv5_3/linear_conv5_3/linear/scale_0_split_1
I0927 20:47:42.101794 30323 net.cpp:150] Setting up conv5_3/linear_conv5_3/linear/scale_0_split
I0927 20:47:42.101797 30323 net.cpp:157] Top shape: 1 160 10 16 (25600)
I0927 20:47:42.101799 30323 net.cpp:157] Top shape: 1 160 10 16 (25600)
I0927 20:47:42.101801 30323 net.cpp:165] Memory required for data: 441743072
I0927 20:47:42.101804 30323 layer_factory.hpp:77] Creating layer conv6_1/expand
I0927 20:47:42.101807 30323 net.cpp:100] Creating Layer conv6_1/expand
I0927 20:47:42.101809 30323 net.cpp:434] conv6_1/expand <- conv5_3/linear_conv5_3/linear/scale_0_split_0
I0927 20:47:42.101814 30323 net.cpp:408] conv6_1/expand -> conv6_1/expand
I0927 20:47:42.103761 30323 net.cpp:150] Setting up conv6_1/expand
I0927 20:47:42.103770 30323 net.cpp:157] Top shape: 1 960 10 16 (153600)
I0927 20:47:42.103771 30323 net.cpp:165] Memory required for data: 442357472
I0927 20:47:42.103775 30323 layer_factory.hpp:77] Creating layer conv6_1/expand/bn
I0927 20:47:42.103780 30323 net.cpp:100] Creating Layer conv6_1/expand/bn
I0927 20:47:42.103782 30323 net.cpp:434] conv6_1/expand/bn <- conv6_1/expand
I0927 20:47:42.103793 30323 net.cpp:395] conv6_1/expand/bn -> conv6_1/expand (in-place)
I0927 20:47:42.103940 30323 net.cpp:150] Setting up conv6_1/expand/bn
I0927 20:47:42.103945 30323 net.cpp:157] Top shape: 1 960 10 16 (153600)
I0927 20:47:42.103947 30323 net.cpp:165] Memory required for data: 442971872
I0927 20:47:42.103951 30323 layer_factory.hpp:77] Creating layer conv6_1/expand/scale
I0927 20:47:42.103955 30323 net.cpp:100] Creating Layer conv6_1/expand/scale
I0927 20:47:42.103956 30323 net.cpp:434] conv6_1/expand/scale <- conv6_1/expand
I0927 20:47:42.103960 30323 net.cpp:395] conv6_1/expand/scale -> conv6_1/expand (in-place)
I0927 20:47:42.103989 30323 layer_factory.hpp:77] Creating layer conv6_1/expand/scale
I0927 20:47:42.104071 30323 net.cpp:150] Setting up conv6_1/expand/scale
I0927 20:47:42.104075 30323 net.cpp:157] Top shape: 1 960 10 16 (153600)
I0927 20:47:42.104077 30323 net.cpp:165] Memory required for data: 443586272
I0927 20:47:42.104081 30323 layer_factory.hpp:77] Creating layer relu6_1/expand
I0927 20:47:42.104084 30323 net.cpp:100] Creating Layer relu6_1/expand
I0927 20:47:42.104086 30323 net.cpp:434] relu6_1/expand <- conv6_1/expand
I0927 20:47:42.104090 30323 net.cpp:395] relu6_1/expand -> conv6_1/expand (in-place)
I0927 20:47:42.104475 30323 net.cpp:150] Setting up relu6_1/expand
I0927 20:47:42.104481 30323 net.cpp:157] Top shape: 1 960 10 16 (153600)
I0927 20:47:42.104482 30323 net.cpp:165] Memory required for data: 444200672
I0927 20:47:42.104485 30323 layer_factory.hpp:77] Creating layer conv6_1/dwise
I0927 20:47:42.104490 30323 net.cpp:100] Creating Layer conv6_1/dwise
I0927 20:47:42.104492 30323 net.cpp:434] conv6_1/dwise <- conv6_1/expand
I0927 20:47:42.104496 30323 net.cpp:408] conv6_1/dwise -> conv6_1/dwise
I0927 20:47:42.104694 30323 net.cpp:150] Setting up conv6_1/dwise
I0927 20:47:42.104698 30323 net.cpp:157] Top shape: 1 960 10 16 (153600)
I0927 20:47:42.104701 30323 net.cpp:165] Memory required for data: 444815072
I0927 20:47:42.104703 30323 layer_factory.hpp:77] Creating layer conv6_1/dwise/bn
I0927 20:47:42.104708 30323 net.cpp:100] Creating Layer conv6_1/dwise/bn
I0927 20:47:42.104710 30323 net.cpp:434] conv6_1/dwise/bn <- conv6_1/dwise
I0927 20:47:42.104713 30323 net.cpp:395] conv6_1/dwise/bn -> conv6_1/dwise (in-place)
I0927 20:47:42.104856 30323 net.cpp:150] Setting up conv6_1/dwise/bn
I0927 20:47:42.104859 30323 net.cpp:157] Top shape: 1 960 10 16 (153600)
I0927 20:47:42.104861 30323 net.cpp:165] Memory required for data: 445429472
I0927 20:47:42.104864 30323 layer_factory.hpp:77] Creating layer conv6_1/dwise/scale
I0927 20:47:42.104868 30323 net.cpp:100] Creating Layer conv6_1/dwise/scale
I0927 20:47:42.104871 30323 net.cpp:434] conv6_1/dwise/scale <- conv6_1/dwise
I0927 20:47:42.104873 30323 net.cpp:395] conv6_1/dwise/scale -> conv6_1/dwise (in-place)
I0927 20:47:42.104900 30323 layer_factory.hpp:77] Creating layer conv6_1/dwise/scale
I0927 20:47:42.104982 30323 net.cpp:150] Setting up conv6_1/dwise/scale
I0927 20:47:42.104986 30323 net.cpp:157] Top shape: 1 960 10 16 (153600)
I0927 20:47:42.104988 30323 net.cpp:165] Memory required for data: 446043872
I0927 20:47:42.104991 30323 layer_factory.hpp:77] Creating layer relu6_1/dwise
I0927 20:47:42.104995 30323 net.cpp:100] Creating Layer relu6_1/dwise
I0927 20:47:42.104997 30323 net.cpp:434] relu6_1/dwise <- conv6_1/dwise
I0927 20:47:42.105000 30323 net.cpp:395] relu6_1/dwise -> conv6_1/dwise (in-place)
I0927 20:47:42.105278 30323 net.cpp:150] Setting up relu6_1/dwise
I0927 20:47:42.105283 30323 net.cpp:157] Top shape: 1 960 10 16 (153600)
I0927 20:47:42.105285 30323 net.cpp:165] Memory required for data: 446658272
I0927 20:47:42.105288 30323 layer_factory.hpp:77] Creating layer conv6_1/linear
I0927 20:47:42.105291 30323 net.cpp:100] Creating Layer conv6_1/linear
I0927 20:47:42.105294 30323 net.cpp:434] conv6_1/linear <- conv6_1/dwise
I0927 20:47:42.105298 30323 net.cpp:408] conv6_1/linear -> conv6_1/linear
I0927 20:47:42.107254 30323 net.cpp:150] Setting up conv6_1/linear
I0927 20:47:42.107262 30323 net.cpp:157] Top shape: 1 160 10 16 (25600)
I0927 20:47:42.107271 30323 net.cpp:165] Memory required for data: 446760672
I0927 20:47:42.107275 30323 layer_factory.hpp:77] Creating layer conv6_1/linear/bn
I0927 20:47:42.107280 30323 net.cpp:100] Creating Layer conv6_1/linear/bn
I0927 20:47:42.107283 30323 net.cpp:434] conv6_1/linear/bn <- conv6_1/linear
I0927 20:47:42.107286 30323 net.cpp:395] conv6_1/linear/bn -> conv6_1/linear (in-place)
I0927 20:47:42.107431 30323 net.cpp:150] Setting up conv6_1/linear/bn
I0927 20:47:42.107435 30323 net.cpp:157] Top shape: 1 160 10 16 (25600)
I0927 20:47:42.107436 30323 net.cpp:165] Memory required for data: 446863072
I0927 20:47:42.107440 30323 layer_factory.hpp:77] Creating layer conv6_1/linear/scale
I0927 20:47:42.107445 30323 net.cpp:100] Creating Layer conv6_1/linear/scale
I0927 20:47:42.107447 30323 net.cpp:434] conv6_1/linear/scale <- conv6_1/linear
I0927 20:47:42.107450 30323 net.cpp:395] conv6_1/linear/scale -> conv6_1/linear (in-place)
I0927 20:47:42.107475 30323 layer_factory.hpp:77] Creating layer conv6_1/linear/scale
I0927 20:47:42.107555 30323 net.cpp:150] Setting up conv6_1/linear/scale
I0927 20:47:42.107559 30323 net.cpp:157] Top shape: 1 160 10 16 (25600)
I0927 20:47:42.107560 30323 net.cpp:165] Memory required for data: 446965472
I0927 20:47:42.107563 30323 layer_factory.hpp:77] Creating layer block_6_1
I0927 20:47:42.107568 30323 net.cpp:100] Creating Layer block_6_1
I0927 20:47:42.107570 30323 net.cpp:434] block_6_1 <- conv5_3/linear_conv5_3/linear/scale_0_split_1
I0927 20:47:42.107573 30323 net.cpp:434] block_6_1 <- conv6_1/linear
I0927 20:47:42.107575 30323 net.cpp:408] block_6_1 -> block_6_1
I0927 20:47:42.107594 30323 net.cpp:150] Setting up block_6_1
I0927 20:47:42.107596 30323 net.cpp:157] Top shape: 1 160 10 16 (25600)
I0927 20:47:42.107599 30323 net.cpp:165] Memory required for data: 447067872
I0927 20:47:42.107600 30323 layer_factory.hpp:77] Creating layer block_6_1_block_6_1_0_split
I0927 20:47:42.107604 30323 net.cpp:100] Creating Layer block_6_1_block_6_1_0_split
I0927 20:47:42.107605 30323 net.cpp:434] block_6_1_block_6_1_0_split <- block_6_1
I0927 20:47:42.107609 30323 net.cpp:408] block_6_1_block_6_1_0_split -> block_6_1_block_6_1_0_split_0
I0927 20:47:42.107611 30323 net.cpp:408] block_6_1_block_6_1_0_split -> block_6_1_block_6_1_0_split_1
I0927 20:47:42.107636 30323 net.cpp:150] Setting up block_6_1_block_6_1_0_split
I0927 20:47:42.107640 30323 net.cpp:157] Top shape: 1 160 10 16 (25600)
I0927 20:47:42.107642 30323 net.cpp:157] Top shape: 1 160 10 16 (25600)
I0927 20:47:42.107645 30323 net.cpp:165] Memory required for data: 447272672
I0927 20:47:42.107646 30323 layer_factory.hpp:77] Creating layer conv6_2/expand
I0927 20:47:42.107650 30323 net.cpp:100] Creating Layer conv6_2/expand
I0927 20:47:42.107653 30323 net.cpp:434] conv6_2/expand <- block_6_1_block_6_1_0_split_0
I0927 20:47:42.107656 30323 net.cpp:408] conv6_2/expand -> conv6_2/expand
I0927 20:47:42.110040 30323 net.cpp:150] Setting up conv6_2/expand
I0927 20:47:42.110047 30323 net.cpp:157] Top shape: 1 960 10 16 (153600)
I0927 20:47:42.110049 30323 net.cpp:165] Memory required for data: 447887072
I0927 20:47:42.110052 30323 layer_factory.hpp:77] Creating layer conv6_2/expand/bn
I0927 20:47:42.110059 30323 net.cpp:100] Creating Layer conv6_2/expand/bn
I0927 20:47:42.110060 30323 net.cpp:434] conv6_2/expand/bn <- conv6_2/expand
I0927 20:47:42.110064 30323 net.cpp:395] conv6_2/expand/bn -> conv6_2/expand (in-place)
I0927 20:47:42.110213 30323 net.cpp:150] Setting up conv6_2/expand/bn
I0927 20:47:42.110219 30323 net.cpp:157] Top shape: 1 960 10 16 (153600)
I0927 20:47:42.110219 30323 net.cpp:165] Memory required for data: 448501472
I0927 20:47:42.110224 30323 layer_factory.hpp:77] Creating layer conv6_2/expand/scale
I0927 20:47:42.110229 30323 net.cpp:100] Creating Layer conv6_2/expand/scale
I0927 20:47:42.110230 30323 net.cpp:434] conv6_2/expand/scale <- conv6_2/expand
I0927 20:47:42.110232 30323 net.cpp:395] conv6_2/expand/scale -> conv6_2/expand (in-place)
I0927 20:47:42.110262 30323 layer_factory.hpp:77] Creating layer conv6_2/expand/scale
I0927 20:47:42.110355 30323 net.cpp:150] Setting up conv6_2/expand/scale
I0927 20:47:42.110360 30323 net.cpp:157] Top shape: 1 960 10 16 (153600)
I0927 20:47:42.110363 30323 net.cpp:165] Memory required for data: 449115872
I0927 20:47:42.110366 30323 layer_factory.hpp:77] Creating layer relu6_2/expand
I0927 20:47:42.110370 30323 net.cpp:100] Creating Layer relu6_2/expand
I0927 20:47:42.110373 30323 net.cpp:434] relu6_2/expand <- conv6_2/expand
I0927 20:47:42.110376 30323 net.cpp:395] relu6_2/expand -> conv6_2/expand (in-place)
I0927 20:47:42.110757 30323 net.cpp:150] Setting up relu6_2/expand
I0927 20:47:42.110764 30323 net.cpp:157] Top shape: 1 960 10 16 (153600)
I0927 20:47:42.110766 30323 net.cpp:165] Memory required for data: 449730272
I0927 20:47:42.110769 30323 layer_factory.hpp:77] Creating layer conv6_2/dwise
I0927 20:47:42.110774 30323 net.cpp:100] Creating Layer conv6_2/dwise
I0927 20:47:42.110776 30323 net.cpp:434] conv6_2/dwise <- conv6_2/expand
I0927 20:47:42.110780 30323 net.cpp:408] conv6_2/dwise -> conv6_2/dwise
I0927 20:47:42.110986 30323 net.cpp:150] Setting up conv6_2/dwise
I0927 20:47:42.110991 30323 net.cpp:157] Top shape: 1 960 10 16 (153600)
I0927 20:47:42.110992 30323 net.cpp:165] Memory required for data: 450344672
I0927 20:47:42.110996 30323 layer_factory.hpp:77] Creating layer conv6_2/dwise/bn
I0927 20:47:42.111001 30323 net.cpp:100] Creating Layer conv6_2/dwise/bn
I0927 20:47:42.111003 30323 net.cpp:434] conv6_2/dwise/bn <- conv6_2/dwise
I0927 20:47:42.111006 30323 net.cpp:395] conv6_2/dwise/bn -> conv6_2/dwise (in-place)
I0927 20:47:42.111150 30323 net.cpp:150] Setting up conv6_2/dwise/bn
I0927 20:47:42.111153 30323 net.cpp:157] Top shape: 1 960 10 16 (153600)
I0927 20:47:42.111155 30323 net.cpp:165] Memory required for data: 450959072
I0927 20:47:42.111160 30323 layer_factory.hpp:77] Creating layer conv6_2/dwise/scale
I0927 20:47:42.111162 30323 net.cpp:100] Creating Layer conv6_2/dwise/scale
I0927 20:47:42.111166 30323 net.cpp:434] conv6_2/dwise/scale <- conv6_2/dwise
I0927 20:47:42.111168 30323 net.cpp:395] conv6_2/dwise/scale -> conv6_2/dwise (in-place)
I0927 20:47:42.111196 30323 layer_factory.hpp:77] Creating layer conv6_2/dwise/scale
I0927 20:47:42.111279 30323 net.cpp:150] Setting up conv6_2/dwise/scale
I0927 20:47:42.111282 30323 net.cpp:157] Top shape: 1 960 10 16 (153600)
I0927 20:47:42.111284 30323 net.cpp:165] Memory required for data: 451573472
I0927 20:47:42.111287 30323 layer_factory.hpp:77] Creating layer relu6_2/dwise
I0927 20:47:42.111290 30323 net.cpp:100] Creating Layer relu6_2/dwise
I0927 20:47:42.111294 30323 net.cpp:434] relu6_2/dwise <- conv6_2/dwise
I0927 20:47:42.111295 30323 net.cpp:395] relu6_2/dwise -> conv6_2/dwise (in-place)
I0927 20:47:42.111573 30323 net.cpp:150] Setting up relu6_2/dwise
I0927 20:47:42.111579 30323 net.cpp:157] Top shape: 1 960 10 16 (153600)
I0927 20:47:42.111582 30323 net.cpp:165] Memory required for data: 452187872
I0927 20:47:42.111583 30323 layer_factory.hpp:77] Creating layer conv6_2/linear
I0927 20:47:42.111588 30323 net.cpp:100] Creating Layer conv6_2/linear
I0927 20:47:42.111591 30323 net.cpp:434] conv6_2/linear <- conv6_2/dwise
I0927 20:47:42.111595 30323 net.cpp:408] conv6_2/linear -> conv6_2/linear
I0927 20:47:42.113538 30323 net.cpp:150] Setting up conv6_2/linear
I0927 20:47:42.113544 30323 net.cpp:157] Top shape: 1 160 10 16 (25600)
I0927 20:47:42.113546 30323 net.cpp:165] Memory required for data: 452290272
I0927 20:47:42.113550 30323 layer_factory.hpp:77] Creating layer conv6_2/linear/bn
I0927 20:47:42.113554 30323 net.cpp:100] Creating Layer conv6_2/linear/bn
I0927 20:47:42.113556 30323 net.cpp:434] conv6_2/linear/bn <- conv6_2/linear
I0927 20:47:42.113560 30323 net.cpp:395] conv6_2/linear/bn -> conv6_2/linear (in-place)
I0927 20:47:42.113704 30323 net.cpp:150] Setting up conv6_2/linear/bn
I0927 20:47:42.113708 30323 net.cpp:157] Top shape: 1 160 10 16 (25600)
I0927 20:47:42.113709 30323 net.cpp:165] Memory required for data: 452392672
I0927 20:47:42.113713 30323 layer_factory.hpp:77] Creating layer conv6_2/linear/scale
I0927 20:47:42.113726 30323 net.cpp:100] Creating Layer conv6_2/linear/scale
I0927 20:47:42.113729 30323 net.cpp:434] conv6_2/linear/scale <- conv6_2/linear
I0927 20:47:42.113732 30323 net.cpp:395] conv6_2/linear/scale -> conv6_2/linear (in-place)
I0927 20:47:42.113760 30323 layer_factory.hpp:77] Creating layer conv6_2/linear/scale
I0927 20:47:42.113842 30323 net.cpp:150] Setting up conv6_2/linear/scale
I0927 20:47:42.113845 30323 net.cpp:157] Top shape: 1 160 10 16 (25600)
I0927 20:47:42.113847 30323 net.cpp:165] Memory required for data: 452495072
I0927 20:47:42.113850 30323 layer_factory.hpp:77] Creating layer block_6_2
I0927 20:47:42.113854 30323 net.cpp:100] Creating Layer block_6_2
I0927 20:47:42.113857 30323 net.cpp:434] block_6_2 <- block_6_1_block_6_1_0_split_1
I0927 20:47:42.113859 30323 net.cpp:434] block_6_2 <- conv6_2/linear
I0927 20:47:42.113863 30323 net.cpp:408] block_6_2 -> block_6_2
I0927 20:47:42.113880 30323 net.cpp:150] Setting up block_6_2
I0927 20:47:42.113883 30323 net.cpp:157] Top shape: 1 160 10 16 (25600)
I0927 20:47:42.113885 30323 net.cpp:165] Memory required for data: 452597472
I0927 20:47:42.113886 30323 layer_factory.hpp:77] Creating layer conv6_3/expand
I0927 20:47:42.113891 30323 net.cpp:100] Creating Layer conv6_3/expand
I0927 20:47:42.113893 30323 net.cpp:434] conv6_3/expand <- block_6_2
I0927 20:47:42.113896 30323 net.cpp:408] conv6_3/expand -> conv6_3/expand
I0927 20:47:42.115947 30323 net.cpp:150] Setting up conv6_3/expand
I0927 20:47:42.115955 30323 net.cpp:157] Top shape: 1 960 10 16 (153600)
I0927 20:47:42.115957 30323 net.cpp:165] Memory required for data: 453211872
I0927 20:47:42.115960 30323 layer_factory.hpp:77] Creating layer conv6_3/expand/bn
I0927 20:47:42.115965 30323 net.cpp:100] Creating Layer conv6_3/expand/bn
I0927 20:47:42.115968 30323 net.cpp:434] conv6_3/expand/bn <- conv6_3/expand
I0927 20:47:42.115972 30323 net.cpp:395] conv6_3/expand/bn -> conv6_3/expand (in-place)
I0927 20:47:42.116119 30323 net.cpp:150] Setting up conv6_3/expand/bn
I0927 20:47:42.116123 30323 net.cpp:157] Top shape: 1 960 10 16 (153600)
I0927 20:47:42.116125 30323 net.cpp:165] Memory required for data: 453826272
I0927 20:47:42.116129 30323 layer_factory.hpp:77] Creating layer conv6_3/expand/scale
I0927 20:47:42.116133 30323 net.cpp:100] Creating Layer conv6_3/expand/scale
I0927 20:47:42.116135 30323 net.cpp:434] conv6_3/expand/scale <- conv6_3/expand
I0927 20:47:42.116139 30323 net.cpp:395] conv6_3/expand/scale -> conv6_3/expand (in-place)
I0927 20:47:42.116169 30323 layer_factory.hpp:77] Creating layer conv6_3/expand/scale
I0927 20:47:42.116255 30323 net.cpp:150] Setting up conv6_3/expand/scale
I0927 20:47:42.116258 30323 net.cpp:157] Top shape: 1 960 10 16 (153600)
I0927 20:47:42.116261 30323 net.cpp:165] Memory required for data: 454440672
I0927 20:47:42.116264 30323 layer_factory.hpp:77] Creating layer relu6_3/expand
I0927 20:47:42.116267 30323 net.cpp:100] Creating Layer relu6_3/expand
I0927 20:47:42.116269 30323 net.cpp:434] relu6_3/expand <- conv6_3/expand
I0927 20:47:42.116273 30323 net.cpp:395] relu6_3/expand -> conv6_3/expand (in-place)
I0927 20:47:42.116554 30323 net.cpp:150] Setting up relu6_3/expand
I0927 20:47:42.116559 30323 net.cpp:157] Top shape: 1 960 10 16 (153600)
I0927 20:47:42.116560 30323 net.cpp:165] Memory required for data: 455055072
I0927 20:47:42.116564 30323 layer_factory.hpp:77] Creating layer conv6_3/dwise
I0927 20:47:42.116569 30323 net.cpp:100] Creating Layer conv6_3/dwise
I0927 20:47:42.116570 30323 net.cpp:434] conv6_3/dwise <- conv6_3/expand
I0927 20:47:42.116575 30323 net.cpp:408] conv6_3/dwise -> conv6_3/dwise
I0927 20:47:42.116770 30323 net.cpp:150] Setting up conv6_3/dwise
I0927 20:47:42.116775 30323 net.cpp:157] Top shape: 1 960 10 16 (153600)
I0927 20:47:42.116776 30323 net.cpp:165] Memory required for data: 455669472
I0927 20:47:42.116780 30323 layer_factory.hpp:77] Creating layer conv6_3/dwise/bn
I0927 20:47:42.116783 30323 net.cpp:100] Creating Layer conv6_3/dwise/bn
I0927 20:47:42.116786 30323 net.cpp:434] conv6_3/dwise/bn <- conv6_3/dwise
I0927 20:47:42.116796 30323 net.cpp:395] conv6_3/dwise/bn -> conv6_3/dwise (in-place)
I0927 20:47:42.116942 30323 net.cpp:150] Setting up conv6_3/dwise/bn
I0927 20:47:42.116946 30323 net.cpp:157] Top shape: 1 960 10 16 (153600)
I0927 20:47:42.116948 30323 net.cpp:165] Memory required for data: 456283872
I0927 20:47:42.116952 30323 layer_factory.hpp:77] Creating layer conv6_3/dwise/scale
I0927 20:47:42.116956 30323 net.cpp:100] Creating Layer conv6_3/dwise/scale
I0927 20:47:42.116958 30323 net.cpp:434] conv6_3/dwise/scale <- conv6_3/dwise
I0927 20:47:42.116961 30323 net.cpp:395] conv6_3/dwise/scale -> conv6_3/dwise (in-place)
I0927 20:47:42.116987 30323 layer_factory.hpp:77] Creating layer conv6_3/dwise/scale
I0927 20:47:42.117070 30323 net.cpp:150] Setting up conv6_3/dwise/scale
I0927 20:47:42.117074 30323 net.cpp:157] Top shape: 1 960 10 16 (153600)
I0927 20:47:42.117076 30323 net.cpp:165] Memory required for data: 456898272
I0927 20:47:42.117079 30323 layer_factory.hpp:77] Creating layer relu6_3/dwise
I0927 20:47:42.117084 30323 net.cpp:100] Creating Layer relu6_3/dwise
I0927 20:47:42.117085 30323 net.cpp:434] relu6_3/dwise <- conv6_3/dwise
I0927 20:47:42.117089 30323 net.cpp:395] relu6_3/dwise -> conv6_3/dwise (in-place)
I0927 20:47:42.117364 30323 net.cpp:150] Setting up relu6_3/dwise
I0927 20:47:42.117369 30323 net.cpp:157] Top shape: 1 960 10 16 (153600)
I0927 20:47:42.117373 30323 net.cpp:165] Memory required for data: 457512672
I0927 20:47:42.117375 30323 layer_factory.hpp:77] Creating layer conv6_3/linear
I0927 20:47:42.117379 30323 net.cpp:100] Creating Layer conv6_3/linear
I0927 20:47:42.117382 30323 net.cpp:434] conv6_3/linear <- conv6_3/dwise
I0927 20:47:42.117386 30323 net.cpp:408] conv6_3/linear -> conv6_3/linear
I0927 20:47:42.120745 30323 net.cpp:150] Setting up conv6_3/linear
I0927 20:47:42.120754 30323 net.cpp:157] Top shape: 1 320 10 16 (51200)
I0927 20:47:42.120756 30323 net.cpp:165] Memory required for data: 457717472
…
I0927 20:47:42.268656 30323 net.cpp:395] conv6_3/dwise/bn -> conv6_3/dwise (in-place)
I0927 20:47:42.268793 30323 net.cpp:150] Setting up conv6_3/dwise/bn
I0927 20:47:42.268797 30323 net.cpp:157] Top shape: 1 960 10 16 (153600)
I0927 20:47:42.268800 30323 net.cpp:165] Memory required for data: 456283808
I0927 20:47:42.268805 30323 layer_factory.hpp:77] Creating layer conv6_3/dwise/scale
I0927 20:47:42.268807 30323 net.cpp:100] Creating Layer conv6_3/dwise/scale
I0927 20:47:42.268810 30323 net.cpp:434] conv6_3/dwise/scale <- conv6_3/dwise
I0927 20:47:42.268813 30323 net.cpp:395] conv6_3/dwise/scale -> conv6_3/dwise (in-place)
I0927 20:47:42.268844 30323 layer_factory.hpp:77] Creating layer conv6_3/dwise/scale
I0927 20:47:42.268921 30323 net.cpp:150] Setting up conv6_3/dwise/scale
I0927 20:47:42.268925 30323 net.cpp:157] Top shape: 1 960 10 16 (153600)
I0927 20:47:42.268929 30323 net.cpp:165] Memory required for data: 456898208
I0927 20:47:42.268931 30323 layer_factory.hpp:77] Creating layer relu6_3/dwise
I0927 20:47:42.268934 30323 net.cpp:100] Creating Layer relu6_3/dwise
I0927 20:47:42.268936 30323 net.cpp:434] relu6_3/dwise <- conv6_3/dwise
I0927 20:47:42.268939 30323 net.cpp:395] relu6_3/dwise -> conv6_3/dwise (in-place)
I0927 20:47:42.269348 30323 net.cpp:150] Setting up relu6_3/dwise
I0927 20:47:42.269356 30323 net.cpp:157] Top shape: 1 960 10 16 (153600)
I0927 20:47:42.269356 30323 net.cpp:165] Memory required for data: 457512608
I0927 20:47:42.269359 30323 layer_factory.hpp:77] Creating layer conv6_3/linear
I0927 20:47:42.269366 30323 net.cpp:100] Creating Layer conv6_3/linear
I0927 20:47:42.269367 30323 net.cpp:434] conv6_3/linear <- conv6_3/dwise
I0927 20:47:42.269371 30323 net.cpp:408] conv6_3/linear -> conv6_3/linear
I0927 20:47:42.272629 30323 net.cpp:150] Setting up conv6_3/linear
I0927 20:47:42.272637 30323 net.cpp:157] Top shape: 1 320 10 16 (51200)
I0927 20:47:42.272639 30323 net.cpp:165] Memory required for data: 457717408
I0927 20:47:42.272642 30323 layer_factory.hpp:77] Creating layer conv6_3/linear/bn
I0927 20:47:42.272647 30323 net.cpp:100] Creating Layer conv6_3/linear/bn
I0927 20:47:42.272650 30323 net.cpp:434] conv6_3/linear/bn <- conv6_3/linear
I0927 20:47:42.272653 30323 net.cpp:395] conv6_3/linear/bn -> conv6_3/linear (in-place)
I0927 20:47:42.272794 30323 net.cpp:150] Setting up conv6_3/linear/bn
I0927 20:47:42.272799 30323 net.cpp:157] Top shape: 1 320 10 16 (51200)
I0927 20:47:42.272800 30323 net.cpp:165] Memory required for data: 457922208
I0927 20:47:42.272804 30323 layer_factory.hpp:77] Creating layer conv6_3/linear/scale
I0927 20:47:42.272809 30323 net.cpp:100] Creating Layer conv6_3/linear/scale
I0927 20:47:42.272811 30323 net.cpp:434] conv6_3/linear/scale <- conv6_3/linear
I0927 20:47:42.272814 30323 net.cpp:395] conv6_3/linear/scale -> conv6_3/linear (in-place)
I0927 20:47:42.272845 30323 layer_factory.hpp:77] Creating layer conv6_3/linear/scale
I0927 20:47:42.272922 30323 net.cpp:150] Setting up conv6_3/linear/scale
I0927 20:47:42.272927 30323 net.cpp:157] Top shape: 1 320 10 16 (51200)
I0927 20:47:42.272928 30323 net.cpp:165] Memory required for data: 458127008
I0927 20:47:42.272931 30323 layer_factory.hpp:77] Creating layer conv6_4
I0927 20:47:42.272938 30323 net.cpp:100] Creating Layer conv6_4
I0927 20:47:42.272940 30323 net.cpp:434] conv6_4 <- conv6_3/linear
I0927 20:47:42.272943 30323 net.cpp:408] conv6_4 -> conv6_4
I0927 20:47:42.276759 30323 net.cpp:150] Setting up conv6_4
I0927 20:47:42.276768 30323 net.cpp:157] Top shape: 1 1280 10 16 (204800)
I0927 20:47:42.276770 30323 net.cpp:165] Memory required for data: 458946208
I0927 20:47:42.276774 30323 layer_factory.hpp:77] Creating layer conv6_4/bn
I0927 20:47:42.276778 30323 net.cpp:100] Creating Layer conv6_4/bn
I0927 20:47:42.276782 30323 net.cpp:434] conv6_4/bn <- conv6_4
I0927 20:47:42.276785 30323 net.cpp:395] conv6_4/bn -> conv6_4 (in-place)
I0927 20:47:42.276918 30323 net.cpp:150] Setting up conv6_4/bn
I0927 20:47:42.276922 30323 net.cpp:157] Top shape: 1 1280 10 16 (204800)
I0927 20:47:42.276924 30323 net.cpp:165] Memory required for data: 459765408
I0927 20:47:42.276928 30323 layer_factory.hpp:77] Creating layer conv6_4/scale
I0927 20:47:42.276932 30323 net.cpp:100] Creating Layer conv6_4/scale
I0927 20:47:42.276934 30323 net.cpp:434] conv6_4/scale <- conv6_4
I0927 20:47:42.276937 30323 net.cpp:395] conv6_4/scale -> conv6_4 (in-place)
I0927 20:47:42.276964 30323 layer_factory.hpp:77] Creating layer conv6_4/scale
I0927 20:47:42.277037 30323 net.cpp:150] Setting up conv6_4/scale
I0927 20:47:42.277041 30323 net.cpp:157] Top shape: 1 1280 10 16 (204800)
I0927 20:47:42.277043 30323 net.cpp:165] Memory required for data: 460584608
I0927 20:47:42.277047 30323 layer_factory.hpp:77] Creating layer relu6_4
I0927 20:47:42.277050 30323 net.cpp:100] Creating Layer relu6_4
I0927 20:47:42.277052 30323 net.cpp:434] relu6_4 <- conv6_4
I0927 20:47:42.277055 30323 net.cpp:395] relu6_4 -> conv6_4 (in-place)
I0927 20:47:42.277338 30323 net.cpp:150] Setting up relu6_4
I0927 20:47:42.277343 30323 net.cpp:157] Top shape: 1 1280 10 16 (204800)
I0927 20:47:42.277345 30323 net.cpp:165] Memory required for data: 461403808
I0927 20:47:42.277348 30323 layer_factory.hpp:77] Creating layer conv6_4_relu6_4_0_split
I0927 20:47:42.277354 30323 net.cpp:100] Creating Layer conv6_4_relu6_4_0_split
I0927 20:47:42.277355 30323 net.cpp:434] conv6_4_relu6_4_0_split <- conv6_4
I0927 20:47:42.277359 30323 net.cpp:408] conv6_4_relu6_4_0_split -> conv6_4_relu6_4_0_split_0
I0927 20:47:42.277362 30323 net.cpp:408] conv6_4_relu6_4_0_split -> conv6_4_relu6_4_0_split_1
I0927 20:47:42.277367 30323 net.cpp:408] conv6_4_relu6_4_0_split -> conv6_4_relu6_4_0_split_2
I0927 20:47:42.277370 30323 net.cpp:408] conv6_4_relu6_4_0_split -> conv6_4_relu6_4_0_split_3
I0927 20:47:42.277421 30323 net.cpp:150] Setting up conv6_4_relu6_4_0_split
I0927 20:47:42.277426 30323 net.cpp:157] Top shape: 1 1280 10 16 (204800)
I0927 20:47:42.277429 30323 net.cpp:157] Top shape: 1 1280 10 16 (204800)
I0927 20:47:42.277431 30323 net.cpp:157] Top shape: 1 1280 10 16 (204800)
I0927 20:47:42.277434 30323 net.cpp:157] Top shape: 1 1280 10 16 (204800)
I0927 20:47:42.277436 30323 net.cpp:165] Memory required for data: 464680608
I0927 20:47:42.277437 30323 layer_factory.hpp:77] Creating layer ssd1_1
I0927 20:47:42.277443 30323 net.cpp:100] Creating Layer ssd1_1
I0927 20:47:42.277446 30323 net.cpp:434] ssd1_1 <- conv6_4_relu6_4_0_split_0
I0927 20:47:42.277448 30323 net.cpp:408] ssd1_1 -> ssd1_1
I0927 20:47:42.280161 30323 net.cpp:150] Setting up ssd1_1
I0927 20:47:42.280169 30323 net.cpp:157] Top shape: 1 256 10 16 (40960)
I0927 20:47:42.280171 30323 net.cpp:165] Memory required for data: 464844448
I0927 20:47:42.280175 30323 layer_factory.hpp:77] Creating layer ssd1_1_relu
I0927 20:47:42.280180 30323 net.cpp:100] Creating Layer ssd1_1_relu
I0927 20:47:42.280184 30323 net.cpp:434] ssd1_1_relu <- ssd1_1
I0927 20:47:42.280186 30323 net.cpp:395] ssd1_1_relu -> ssd1_1 (in-place)
I0927 20:47:42.280472 30323 net.cpp:150] Setting up ssd1_1_relu
I0927 20:47:42.280479 30323 net.cpp:157] Top shape: 1 256 10 16 (40960)
I0927 20:47:42.280481 30323 net.cpp:165] Memory required for data: 465008288
I0927 20:47:42.280483 30323 layer_factory.hpp:77] Creating layer ssd1_2
I0927 20:47:42.280489 30323 net.cpp:100] Creating Layer ssd1_2
I0927 20:47:42.280491 30323 net.cpp:434] ssd1_2 <- ssd1_1
I0927 20:47:42.280495 30323 net.cpp:408] ssd1_2 -> ssd1_2
I0927 20:47:42.286347 30323 net.cpp:150] Setting up ssd1_2
I0927 20:47:42.286360 30323 net.cpp:157] Top shape: 1 512 5 8 (20480)
I0927 20:47:42.286362 30323 net.cpp:165] Memory required for data: 465090208
I0927 20:47:42.286368 30323 layer_factory.hpp:77] Creating layer ssd1_2_relu
I0927 20:47:42.286373 30323 net.cpp:100] Creating Layer ssd1_2_relu
I0927 20:47:42.286376 30323 net.cpp:434] ssd1_2_relu <- ssd1_2
I0927 20:47:42.286381 30323 net.cpp:395] ssd1_2_relu -> ssd1_2 (in-place)
I0927 20:47:42.286782 30323 net.cpp:150] Setting up ssd1_2_relu
I0927 20:47:42.286788 30323 net.cpp:157] Top shape: 1 512 5 8 (20480)
I0927 20:47:42.286792 30323 net.cpp:165] Memory required for data: 465172128
I0927 20:47:42.286793 30323 layer_factory.hpp:77] Creating layer ssd1_2_ssd1_2_relu_0_split
I0927 20:47:42.286798 30323 net.cpp:100] Creating Layer ssd1_2_ssd1_2_relu_0_split
I0927 20:47:42.286800 30323 net.cpp:434] ssd1_2_ssd1_2_relu_0_split <- ssd1_2
I0927 20:47:42.286804 30323 net.cpp:408] ssd1_2_ssd1_2_relu_0_split -> ssd1_2_ssd1_2_relu_0_split_0
I0927 20:47:42.286809 30323 net.cpp:408] ssd1_2_ssd1_2_relu_0_split -> ssd1_2_ssd1_2_relu_0_split_1
I0927 20:47:42.286814 30323 net.cpp:408] ssd1_2_ssd1_2_relu_0_split -> ssd1_2_ssd1_2_relu_0_split_2
I0927 20:47:42.286818 30323 net.cpp:408] ssd1_2_ssd1_2_relu_0_split -> ssd1_2_ssd1_2_relu_0_split_3
I0927 20:47:42.286861 30323 net.cpp:150] Setting up ssd1_2_ssd1_2_relu_0_split
I0927 20:47:42.286865 30323 net.cpp:157] Top shape: 1 512 5 8 (20480)
I0927 20:47:42.286869 30323 net.cpp:157] Top shape: 1 512 5 8 (20480)
I0927 20:47:42.286870 30323 net.cpp:157] Top shape: 1 512 5 8 (20480)
I0927 20:47:42.286873 30323 net.cpp:157] Top shape: 1 512 5 8 (20480)
I0927 20:47:42.286875 30323 net.cpp:165] Memory required for data: 465499808
I0927 20:47:42.286877 30323 layer_factory.hpp:77] Creating layer ssd2_1
I0927 20:47:42.286891 30323 net.cpp:100] Creating Layer ssd2_1
I0927 20:47:42.286895 30323 net.cpp:434] ssd2_1 <- ssd1_2_ssd1_2_relu_0_split_0
I0927 20:47:42.286898 30323 net.cpp:408] ssd2_1 -> ssd2_1
I0927 20:47:42.288244 30323 net.cpp:150] Setting up ssd2_1
I0927 20:47:42.288251 30323 net.cpp:157] Top shape: 1 128 5 8 (5120)
I0927 20:47:42.288254 30323 net.cpp:165] Memory required for data: 465520288
I0927 20:47:42.288259 30323 layer_factory.hpp:77] Creating layer ssd2_1_relu
I0927 20:47:42.288261 30323 net.cpp:100] Creating Layer ssd2_1_relu
I0927 20:47:42.288264 30323 net.cpp:434] ssd2_1_relu <- ssd2_1
I0927 20:47:42.288278 30323 net.cpp:395] ssd2_1_relu -> ssd2_1 (in-place)
I0927 20:47:42.288570 30323 net.cpp:150] Setting up ssd2_1_relu
I0927 20:47:42.288576 30323 net.cpp:157] Top shape: 1 128 5 8 (5120)
I0927 20:47:42.288578 30323 net.cpp:165] Memory required for data: 465540768
I0927 20:47:42.288580 30323 layer_factory.hpp:77] Creating layer ssd2_2
I0927 20:47:42.288586 30323 net.cpp:100] Creating Layer ssd2_2
I0927 20:47:42.288589 30323 net.cpp:434] ssd2_2 <- ssd2_1
I0927 20:47:42.288592 30323 net.cpp:408] ssd2_2 -> ssd2_2
I0927 20:47:42.291124 30323 net.cpp:150] Setting up ssd2_2
I0927 20:47:42.291134 30323 net.cpp:157] Top shape: 1 256 3 4 (3072)
I0927 20:47:42.291136 30323 net.cpp:165] Memory required for data: 465553056
I0927 20:47:42.291141 30323 layer_factory.hpp:77] Creating layer ssd2_2_relu
I0927 20:47:42.291144 30323 net.cpp:100] Creating Layer ssd2_2_relu
I0927 20:47:42.291147 30323 net.cpp:434] ssd2_2_relu <- ssd2_2
I0927 20:47:42.291152 30323 net.cpp:395] ssd2_2_relu -> ssd2_2 (in-place)
I0927 20:47:42.291553 30323 net.cpp:150] Setting up ssd2_2_relu
I0927 20:47:42.291560 30323 net.cpp:157] Top shape: 1 256 3 4 (3072)
I0927 20:47:42.291563 30323 net.cpp:165] Memory required for data: 465565344
I0927 20:47:42.291565 30323 layer_factory.hpp:77] Creating layer ssd2_2_ssd2_2_relu_0_split
I0927 20:47:42.291569 30323 net.cpp:100] Creating Layer ssd2_2_ssd2_2_relu_0_split
I0927 20:47:42.291573 30323 net.cpp:434] ssd2_2_ssd2_2_relu_0_split <- ssd2_2
I0927 20:47:42.291576 30323 net.cpp:408] ssd2_2_ssd2_2_relu_0_split -> ssd2_2_ssd2_2_relu_0_split_0
I0927 20:47:42.291581 30323 net.cpp:408] ssd2_2_ssd2_2_relu_0_split -> ssd2_2_ssd2_2_relu_0_split_1
I0927 20:47:42.291585 30323 net.cpp:408] ssd2_2_ssd2_2_relu_0_split -> ssd2_2_ssd2_2_relu_0_split_2
I0927 20:47:42.291589 30323 net.cpp:408] ssd2_2_ssd2_2_relu_0_split -> ssd2_2_ssd2_2_relu_0_split_3
I0927 20:47:42.291632 30323 net.cpp:150] Setting up ssd2_2_ssd2_2_relu_0_split
I0927 20:47:42.291636 30323 net.cpp:157] Top shape: 1 256 3 4 (3072)
I0927 20:47:42.291640 30323 net.cpp:157] Top shape: 1 256 3 4 (3072)
I0927 20:47:42.291641 30323 net.cpp:157] Top shape: 1 256 3 4 (3072)
I0927 20:47:42.291644 30323 net.cpp:157] Top shape: 1 256 3 4 (3072)
I0927 20:47:42.291646 30323 net.cpp:165] Memory required for data: 465614496
I0927 20:47:42.291647 30323 layer_factory.hpp:77] Creating layer ssd3_1
I0927 20:47:42.291653 30323 net.cpp:100] Creating Layer ssd3_1
I0927 20:47:42.291656 30323 net.cpp:434] ssd3_1 <- ssd2_2_ssd2_2_relu_0_split_0
I0927 20:47:42.291661 30323 net.cpp:408] ssd3_1 -> ssd3_1
I0927 20:47:42.292912 30323 net.cpp:150] Setting up ssd3_1
I0927 20:47:42.292918 30323 net.cpp:157] Top shape: 1 128 3 4 (1536)
I0927 20:47:42.292922 30323 net.cpp:165] Memory required for data: 465620640
I0927 20:47:42.292925 30323 layer_factory.hpp:77] Creating layer ssd3_1_relu
I0927 20:47:42.292929 30323 net.cpp:100] Creating Layer ssd3_1_relu
I0927 20:47:42.292932 30323 net.cpp:434] ssd3_1_relu <- ssd3_1
I0927 20:47:42.292935 30323 net.cpp:395] ssd3_1_relu -> ssd3_1 (in-place)
I0927 20:47:42.293222 30323 net.cpp:150] Setting up ssd3_1_relu
I0927 20:47:42.293227 30323 net.cpp:157] Top shape: 1 128 3 4 (1536)
I0927 20:47:42.293231 30323 net.cpp:165] Memory required for data: 465626784
I0927 20:47:42.293232 30323 layer_factory.hpp:77] Creating layer ssd3_2
I0927 20:47:42.293237 30323 net.cpp:100] Creating Layer ssd3_2
I0927 20:47:42.293241 30323 net.cpp:434] ssd3_2 <- ssd3_1
I0927 20:47:42.293244 30323 net.cpp:408] ssd3_2 -> ssd3_2
I0927 20:47:42.295877 30323 net.cpp:150] Setting up ssd3_2
I0927 20:47:42.295886 30323 net.cpp:157] Top shape: 1 256 2 2 (1024)
I0927 20:47:42.295887 30323 net.cpp:165] Memory required for data: 465630880
I0927 20:47:42.295892 30323 layer_factory.hpp:77] Creating layer ssd3_2_relu
I0927 20:47:42.295897 30323 net.cpp:100] Creating Layer ssd3_2_relu
I0927 20:47:42.295899 30323 net.cpp:434] ssd3_2_relu <- ssd3_2
I0927 20:47:42.295902 30323 net.cpp:395] ssd3_2_relu -> ssd3_2 (in-place)
I0927 20:47:42.296190 30323 net.cpp:150] Setting up ssd3_2_relu
I0927 20:47:42.296205 30323 net.cpp:157] Top shape: 1 256 2 2 (1024)
I0927 20:47:42.296206 30323 net.cpp:165] Memory required for data: 465634976
I0927 20:47:42.296208 30323 layer_factory.hpp:77] Creating layer ssd3_2_ssd3_2_relu_0_split
I0927 20:47:42.296212 30323 net.cpp:100] Creating Layer ssd3_2_ssd3_2_relu_0_split
I0927 20:47:42.296216 30323 net.cpp:434] ssd3_2_ssd3_2_relu_0_split <- ssd3_2
I0927 20:47:42.296219 30323 net.cpp:408] ssd3_2_ssd3_2_relu_0_split -> ssd3_2_ssd3_2_relu_0_split_0
I0927 20:47:42.296223 30323 net.cpp:408] ssd3_2_ssd3_2_relu_0_split -> ssd3_2_ssd3_2_relu_0_split_1
I0927 20:47:42.296227 30323 net.cpp:408] ssd3_2_ssd3_2_relu_0_split -> ssd3_2_ssd3_2_relu_0_split_2
I0927 20:47:42.296231 30323 net.cpp:408] ssd3_2_ssd3_2_relu_0_split -> ssd3_2_ssd3_2_relu_0_split_3
I0927 20:47:42.296274 30323 net.cpp:150] Setting up ssd3_2_ssd3_2_relu_0_split
I0927 20:47:42.296278 30323 net.cpp:157] Top shape: 1 256 2 2 (1024)
I0927 20:47:42.296281 30323 net.cpp:157] Top shape: 1 256 2 2 (1024)
I0927 20:47:42.296284 30323 net.cpp:157] Top shape: 1 256 2 2 (1024)
I0927 20:47:42.296286 30323 net.cpp:157] Top shape: 1 256 2 2 (1024)
I0927 20:47:42.296288 30323 net.cpp:165] Memory required for data: 465651360
I0927 20:47:42.296290 30323 layer_factory.hpp:77] Creating layer ssd4_1
I0927 20:47:42.296295 30323 net.cpp:100] Creating Layer ssd4_1
I0927 20:47:42.296298 30323 net.cpp:434] ssd4_1 <- ssd3_2_ssd3_2_relu_0_split_0
I0927 20:47:42.296303 30323 net.cpp:408] ssd4_1 -> ssd4_1
I0927 20:47:42.297564 30323 net.cpp:150] Setting up ssd4_1
I0927 20:47:42.297571 30323 net.cpp:157] Top shape: 1 128 2 2 (512)
I0927 20:47:42.297574 30323 net.cpp:165] Memory required for data: 465653408
I0927 20:47:42.297577 30323 layer_factory.hpp:77] Creating layer ssd4_1_relu
I0927 20:47:42.297582 30323 net.cpp:100] Creating Layer ssd4_1_relu
I0927 20:47:42.297585 30323 net.cpp:434] ssd4_1_relu <- ssd4_1
I0927 20:47:42.297588 30323 net.cpp:395] ssd4_1_relu -> ssd4_1 (in-place)
I0927 20:47:42.297871 30323 net.cpp:150] Setting up ssd4_1_relu
I0927 20:47:42.297876 30323 net.cpp:157] Top shape: 1 128 2 2 (512)
I0927 20:47:42.297878 30323 net.cpp:165] Memory required for data: 465655456
I0927 20:47:42.297881 30323 layer_factory.hpp:77] Creating layer ssd4_2
I0927 20:47:42.297886 30323 net.cpp:100] Creating Layer ssd4_2
I0927 20:47:42.297889 30323 net.cpp:434] ssd4_2 <- ssd4_1
I0927 20:47:42.297894 30323 net.cpp:408] ssd4_2 -> ssd4_2
I0927 20:47:42.300635 30323 net.cpp:150] Setting up ssd4_2
I0927 20:47:42.300643 30323 net.cpp:157] Top shape: 1 256 1 1 (256)
I0927 20:47:42.300645 30323 net.cpp:165] Memory required for data: 465656480
I0927 20:47:42.300650 30323 layer_factory.hpp:77] Creating layer ssd4_2_relu
I0927 20:47:42.300655 30323 net.cpp:100] Creating Layer ssd4_2_relu
I0927 20:47:42.300657 30323 net.cpp:434] ssd4_2_relu <- ssd4_2
I0927 20:47:42.300660 30323 net.cpp:395] ssd4_2_relu -> ssd4_2 (in-place)
I0927 20:47:42.300956 30323 net.cpp:150] Setting up ssd4_2_relu
I0927 20:47:42.300962 30323 net.cpp:157] Top shape: 1 256 1 1 (256)
I0927 20:47:42.300963 30323 net.cpp:165] Memory required for data: 465657504
I0927 20:47:42.300966 30323 layer_factory.hpp:77] Creating layer ssd4_2_ssd4_2_relu_0_split
I0927 20:47:42.300969 30323 net.cpp:100] Creating Layer ssd4_2_ssd4_2_relu_0_split
I0927 20:47:42.300972 30323 net.cpp:434] ssd4_2_ssd4_2_relu_0_split <- ssd4_2
I0927 20:47:42.300976 30323 net.cpp:408] ssd4_2_ssd4_2_relu_0_split -> ssd4_2_ssd4_2_relu_0_split_0
I0927 20:47:42.300981 30323 net.cpp:408] ssd4_2_ssd4_2_relu_0_split -> ssd4_2_ssd4_2_relu_0_split_1
I0927 20:47:42.300984 30323 net.cpp:408] ssd4_2_ssd4_2_relu_0_split -> ssd4_2_ssd4_2_relu_0_split_2
I0927 20:47:42.301021 30323 net.cpp:150] Setting up ssd4_2_ssd4_2_relu_0_split
I0927 20:47:42.301024 30323 net.cpp:157] Top shape: 1 256 1 1 (256)
I0927 20:47:42.301028 30323 net.cpp:157] Top shape: 1 256 1 1 (256)
I0927 20:47:42.301029 30323 net.cpp:157] Top shape: 1 256 1 1 (256)
I0927 20:47:42.301031 30323 net.cpp:165] Memory required for data: 465660576
I0927 20:47:42.301043 30323 layer_factory.hpp:77] Creating layer conv5_3/expand_norm
I0927 20:47:42.301048 30323 net.cpp:100] Creating Layer conv5_3/expand_norm
I0927 20:47:42.301051 30323 net.cpp:434] conv5_3/expand_norm <- conv5_3/expand_relu5_3/expand_0_split_1
I0927 20:47:42.301055 30323 net.cpp:408] conv5_3/expand_norm -> conv5_3/expand_norm
I0927 20:47:42.301187 30323 net.cpp:150] Setting up conv5_3/expand_norm
I0927 20:47:42.301192 30323 net.cpp:157] Top shape: 1 576 19 32 (350208)
I0927 20:47:42.301194 30323 net.cpp:165] Memory required for data: 467061408
I0927 20:47:42.301198 30323 layer_factory.hpp:77] Creating layer conv5_3/expand_norm_conv5_3/expand_norm_0_split
I0927 20:47:42.301203 30323 net.cpp:100] Creating Layer conv5_3/expand_norm_conv5_3/expand_norm_0_split
I0927 20:47:42.301204 30323 net.cpp:434] conv5_3/expand_norm_conv5_3/expand_norm_0_split <- conv5_3/expand_norm
I0927 20:47:42.301208 30323 net.cpp:408] conv5_3/expand_norm_conv5_3/expand_norm_0_split -> conv5_3/expand_norm_conv5_3/expand_norm_0_split_0
I0927 20:47:42.301213 30323 net.cpp:408] conv5_3/expand_norm_conv5_3/expand_norm_0_split -> conv5_3/expand_norm_conv5_3/expand_norm_0_split_1
I0927 20:47:42.301215 30323 net.cpp:408] conv5_3/expand_norm_conv5_3/expand_norm_0_split -> conv5_3/expand_norm_conv5_3/expand_norm_0_split_2
I0927 20:47:42.301245 30323 net.cpp:150] Setting up conv5_3/expand_norm_conv5_3/expand_norm_0_split
I0927 20:47:42.301249 30323 net.cpp:157] Top shape: 1 576 19 32 (350208)
I0927 20:47:42.301252 30323 net.cpp:157] Top shape: 1 576 19 32 (350208)
I0927 20:47:42.301255 30323 net.cpp:157] Top shape: 1 576 19 32 (350208)
I0927 20:47:42.301256 30323 net.cpp:165] Memory required for data: 471263904
I0927 20:47:42.301259 30323 layer_factory.hpp:77] Creating layer conv5_3/expand_norm_mbox_loc
I0927 20:47:42.301264 30323 net.cpp:100] Creating Layer conv5_3/expand_norm_mbox_loc
I0927 20:47:42.301265 30323 net.cpp:434] conv5_3/expand_norm_mbox_loc <- conv5_3/expand_norm_conv5_3/expand_norm_0_split_0
I0927 20:47:42.301270 30323 net.cpp:408] conv5_3/expand_norm_mbox_loc -> conv5_3/expand_norm_mbox_loc
I0927 20:47:42.302676 30323 net.cpp:150] Setting up conv5_3/expand_norm_mbox_loc
I0927 20:47:42.302685 30323 net.cpp:157] Top shape: 1 8 19 32 (4864)
I0927 20:47:42.302686 30323 net.cpp:165] Memory required for data: 471283360
I0927 20:47:42.302690 30323 layer_factory.hpp:77] Creating layer conv5_3/expand_norm_mbox_loc_perm
I0927 20:47:42.302696 30323 net.cpp:100] Creating Layer conv5_3/expand_norm_mbox_loc_perm
I0927 20:47:42.302700 30323 net.cpp:434] conv5_3/expand_norm_mbox_loc_perm <- conv5_3/expand_norm_mbox_loc
I0927 20:47:42.302702 30323 net.cpp:408] conv5_3/expand_norm_mbox_loc_perm -> conv5_3/expand_norm_mbox_loc_perm
I0927 20:47:42.302773 30323 net.cpp:150] Setting up conv5_3/expand_norm_mbox_loc_perm
I0927 20:47:42.302776 30323 net.cpp:157] Top shape: 1 19 32 8 (4864)
I0927 20:47:42.302779 30323 net.cpp:165] Memory required for data: 471302816
I0927 20:47:42.302781 30323 layer_factory.hpp:77] Creating layer conv5_3/expand_norm_mbox_loc_flat
I0927 20:47:42.302784 30323 net.cpp:100] Creating Layer conv5_3/expand_norm_mbox_loc_flat
I0927 20:47:42.302786 30323 net.cpp:434] conv5_3/expand_norm_mbox_loc_flat <- conv5_3/expand_norm_mbox_loc_perm
I0927 20:47:42.302790 30323 net.cpp:408] conv5_3/expand_norm_mbox_loc_flat -> conv5_3/expand_norm_mbox_loc_flat
I0927 20:47:42.302806 30323 net.cpp:150] Setting up conv5_3/expand_norm_mbox_loc_flat
I0927 20:47:42.302809 30323 net.cpp:157] Top shape: 1 4864 (4864)
I0927 20:47:42.302811 30323 net.cpp:165] Memory required for data: 471322272
I0927 20:47:42.302814 30323 layer_factory.hpp:77] Creating layer conv5_3/expand_norm_mbox_conf
I0927 20:47:42.302819 30323 net.cpp:100] Creating Layer conv5_3/expand_norm_mbox_conf
I0927 20:47:42.302821 30323 net.cpp:434] conv5_3/expand_norm_mbox_conf <- conv5_3/expand_norm_conv5_3/expand_norm_0_split_1
I0927 20:47:42.302825 30323 net.cpp:408] conv5_3/expand_norm_mbox_conf -> conv5_3/expand_norm_mbox_conf
I0927 20:47:42.304383 30323 net.cpp:150] Setting up conv5_3/expand_norm_mbox_conf
I0927 20:47:42.304399 30323 net.cpp:157] Top shape: 1 10 19 32 (6080)
I0927 20:47:42.304401 30323 net.cpp:165] Memory required for data: 471346592
I0927 20:47:42.304406 30323 layer_factory.hpp:77] Creating layer conv5_3/expand_norm_mbox_conf_perm
I0927 20:47:42.304411 30323 net.cpp:100] Creating Layer conv5_3/expand_norm_mbox_conf_perm
I0927 20:47:42.304414 30323 net.cpp:434] conv5_3/expand_norm_mbox_conf_perm <- conv5_3/expand_norm_mbox_conf
I0927 20:47:42.304417 30323 net.cpp:408] conv5_3/expand_norm_mbox_conf_perm -> conv5_3/expand_norm_mbox_conf_perm
I0927 20:47:42.304488 30323 net.cpp:150] Setting up conv5_3/expand_norm_mbox_conf_perm
I0927 20:47:42.304492 30323 net.cpp:157] Top shape: 1 19 32 10 (6080)
I0927 20:47:42.304494 30323 net.cpp:165] Memory required for data: 471370912
I0927 20:47:42.304497 30323 layer_factory.hpp:77] Creating layer conv5_3/expand_norm_mbox_conf_flat
I0927 20:47:42.304499 30323 net.cpp:100] Creating Layer conv5_3/expand_norm_mbox_conf_flat
I0927 20:47:42.304502 30323 net.cpp:434] conv5_3/expand_norm_mbox_conf_flat <- conv5_3/expand_norm_mbox_conf_perm
I0927 20:47:42.304507 30323 net.cpp:408] conv5_3/expand_norm_mbox_conf_flat -> conv5_3/expand_norm_mbox_conf_flat
I0927 20:47:42.304522 30323 net.cpp:150] Setting up conv5_3/expand_norm_mbox_conf_flat
I0927 20:47:42.304524 30323 net.cpp:157] Top shape: 1 6080 (6080)
I0927 20:47:42.304527 30323 net.cpp:165] Memory required for data: 471395232
I0927 20:47:42.304529 30323 layer_factory.hpp:77] Creating layer conv5_3/expand_norm_mbox_priorbox
I0927 20:47:42.304533 30323 net.cpp:100] Creating Layer conv5_3/expand_norm_mbox_priorbox
I0927 20:47:42.304534 30323 net.cpp:434] conv5_3/expand_norm_mbox_priorbox <- conv5_3/expand_norm_conv5_3/expand_norm_0_split_2
I0927 20:47:42.304538 30323 net.cpp:434] conv5_3/expand_norm_mbox_priorbox <- data_data_0_split_1
I0927 20:47:42.304541 30323 net.cpp:408] conv5_3/expand_norm_mbox_priorbox -> conv5_3/expand_norm_mbox_priorbox
I0927 20:47:42.304559 30323 net.cpp:150] Setting up conv5_3/expand_norm_mbox_priorbox
I0927 20:47:42.304563 30323 net.cpp:157] Top shape: 1 2 4864 (9728)
I0927 20:47:42.304564 30323 net.cpp:165] Memory required for data: 471434144
I0927 20:47:42.304566 30323 layer_factory.hpp:77] Creating layer conv6_4_mbox_loc
I0927 20:47:42.304571 30323 net.cpp:100] Creating Layer conv6_4_mbox_loc
I0927 20:47:42.304574 30323 net.cpp:434] conv6_4_mbox_loc <- conv6_4_relu6_4_0_split_1
I0927 20:47:42.304579 30323 net.cpp:408] conv6_4_mbox_loc -> conv6_4_mbox_loc
I0927 20:47:42.306143 30323 net.cpp:150] Setting up conv6_4_mbox_loc
I0927 20:47:42.306150 30323 net.cpp:157] Top shape: 1 8 10 16 (1280)
I0927 20:47:42.306152 30323 net.cpp:165] Memory required for data: 471439264
I0927 20:47:42.306157 30323 layer_factory.hpp:77] Creating layer conv6_4_mbox_loc_perm
I0927 20:47:42.306162 30323 net.cpp:100] Creating Layer conv6_4_mbox_loc_perm
I0927 20:47:42.306165 30323 net.cpp:434] conv6_4_mbox_loc_perm <- conv6_4_mbox_loc
I0927 20:47:42.306169 30323 net.cpp:408] conv6_4_mbox_loc_perm -> conv6_4_mbox_loc_perm
I0927 20:47:42.306241 30323 net.cpp:150] Setting up conv6_4_mbox_loc_perm
I0927 20:47:42.306244 30323 net.cpp:157] Top shape: 1 10 16 8 (1280)
I0927 20:47:42.306246 30323 net.cpp:165] Memory required for data: 471444384
I0927 20:47:42.306247 30323 layer_factory.hpp:77] Creating layer conv6_4_mbox_loc_flat
I0927 20:47:42.306252 30323 net.cpp:100] Creating Layer conv6_4_mbox_loc_flat
I0927 20:47:42.306253 30323 net.cpp:434] conv6_4_mbox_loc_flat <- conv6_4_mbox_loc_perm
I0927 20:47:42.306257 30323 net.cpp:408] conv6_4_mbox_loc_flat -> conv6_4_mbox_loc_flat
I0927 20:47:42.306272 30323 net.cpp:150] Setting up conv6_4_mbox_loc_flat
I0927 20:47:42.306274 30323 net.cpp:157] Top shape: 1 1280 (1280)
I0927 20:47:42.306277 30323 net.cpp:165] Memory required for data: 471449504
I0927 20:47:42.306277 30323 layer_factory.hpp:77] Creating layer conv6_4_mbox_conf
I0927 20:47:42.306283 30323 net.cpp:100] Creating Layer conv6_4_mbox_conf
I0927 20:47:42.306286 30323 net.cpp:434] conv6_4_mbox_conf <- conv6_4_relu6_4_0_split_2
I0927 20:47:42.306298 30323 net.cpp:408] conv6_4_mbox_conf -> conv6_4_mbox_conf
I0927 20:47:42.307948 30323 net.cpp:150] Setting up conv6_4_mbox_conf
I0927 20:47:42.307956 30323 net.cpp:157] Top shape: 1 10 10 16 (1600)
I0927 20:47:42.307960 30323 net.cpp:165] Memory required for data: 471455904
I0927 20:47:42.307963 30323 layer_factory.hpp:77] Creating layer conv6_4_mbox_conf_perm
I0927 20:47:42.307967 30323 net.cpp:100] Creating Layer conv6_4_mbox_conf_perm
I0927 20:47:42.307971 30323 net.cpp:434] conv6_4_mbox_conf_perm <- conv6_4_mbox_conf
I0927 20:47:42.307976 30323 net.cpp:408] conv6_4_mbox_conf_perm -> conv6_4_mbox_conf_perm
I0927 20:47:42.308046 30323 net.cpp:150] Setting up conv6_4_mbox_conf_perm
I0927 20:47:42.308049 30323 net.cpp:157] Top shape: 1 10 16 10 (1600)
I0927 20:47:42.308051 30323 net.cpp:165] Memory required for data: 471462304
I0927 20:47:42.308053 30323 layer_factory.hpp:77] Creating layer conv6_4_mbox_conf_flat
I0927 20:47:42.308058 30323 net.cpp:100] Creating Layer conv6_4_mbox_conf_flat
I0927 20:47:42.308059 30323 net.cpp:434] conv6_4_mbox_conf_flat <- conv6_4_mbox_conf_perm
I0927 20:47:42.308063 30323 net.cpp:408] conv6_4_mbox_conf_flat -> conv6_4_mbox_conf_flat
I0927 20:47:42.308079 30323 net.cpp:150] Setting up conv6_4_mbox_conf_flat
I0927 20:47:42.308081 30323 net.cpp:157] Top shape: 1 1600 (1600)
I0927 20:47:42.308084 30323 net.cpp:165] Memory required for data: 471468704
I0927 20:47:42.308084 30323 layer_factory.hpp:77] Creating layer conv6_4_mbox_priorbox
I0927 20:47:42.308089 30323 net.cpp:100] Creating Layer conv6_4_mbox_priorbox
I0927 20:47:42.308091 30323 net.cpp:434] conv6_4_mbox_priorbox <- conv6_4_relu6_4_0_split_3
I0927 20:47:42.308094 30323 net.cpp:434] conv6_4_mbox_priorbox <- data_data_0_split_2
I0927 20:47:42.308097 30323 net.cpp:408] conv6_4_mbox_priorbox -> conv6_4_mbox_priorbox
I0927 20:47:42.308113 30323 net.cpp:150] Setting up conv6_4_mbox_priorbox
I0927 20:47:42.308117 30323 net.cpp:157] Top shape: 1 2 1280 (2560)
I0927 20:47:42.308118 30323 net.cpp:165] Memory required for data: 471478944
I0927 20:47:42.308120 30323 layer_factory.hpp:77] Creating layer ssd1_2_mbox_loc
I0927 20:47:42.308126 30323 net.cpp:100] Creating Layer ssd1_2_mbox_loc
I0927 20:47:42.308130 30323 net.cpp:434] ssd1_2_mbox_loc <- ssd1_2_ssd1_2_relu_0_split_1
I0927 20:47:42.308132 30323 net.cpp:408] ssd1_2_mbox_loc -> ssd1_2_mbox_loc
I0927 20:47:42.309522 30323 net.cpp:150] Setting up ssd1_2_mbox_loc
I0927 20:47:42.309530 30323 net.cpp:157] Top shape: 1 8 5 8 (320)
I0927 20:47:42.309531 30323 net.cpp:165] Memory required for data: 471480224
I0927 20:47:42.309535 30323 layer_factory.hpp:77] Creating layer ssd1_2_mbox_loc_perm
I0927 20:47:42.309561 30323 net.cpp:100] Creating Layer ssd1_2_mbox_loc_perm
I0927 20:47:42.309564 30323 net.cpp:434] ssd1_2_mbox_loc_perm <- ssd1_2_mbox_loc
I0927 20:47:42.309568 30323 net.cpp:408] ssd1_2_mbox_loc_perm -> ssd1_2_mbox_loc_perm
I0927 20:47:42.309638 30323 net.cpp:150] Setting up ssd1_2_mbox_loc_perm
I0927 20:47:42.309641 30323 net.cpp:157] Top shape: 1 5 8 8 (320)
I0927 20:47:42.309643 30323 net.cpp:165] Memory required for data: 471481504
I0927 20:47:42.309646 30323 layer_factory.hpp:77] Creating layer ssd1_2_mbox_loc_flat
I0927 20:47:42.309649 30323 net.cpp:100] Creating Layer ssd1_2_mbox_loc_flat
I0927 20:47:42.309651 30323 net.cpp:434] ssd1_2_mbox_loc_flat <- ssd1_2_mbox_loc_perm
I0927 20:47:42.309654 30323 net.cpp:408] ssd1_2_mbox_loc_flat -> ssd1_2_mbox_loc_flat
I0927 20:47:42.309671 30323 net.cpp:150] Setting up ssd1_2_mbox_loc_flat
I0927 20:47:42.309674 30323 net.cpp:157] Top shape: 1 320 (320)
I0927 20:47:42.309676 30323 net.cpp:165] Memory required for data: 471482784
I0927 20:47:42.309677 30323 layer_factory.hpp:77] Creating layer ssd1_2_mbox_conf
I0927 20:47:42.309684 30323 net.cpp:100] Creating Layer ssd1_2_mbox_conf
I0927 20:47:42.309685 30323 net.cpp:434] ssd1_2_mbox_conf <- ssd1_2_ssd1_2_relu_0_split_2
I0927 20:47:42.309689 30323 net.cpp:408] ssd1_2_mbox_conf -> ssd1_2_mbox_conf
I0927 20:47:42.311110 30323 net.cpp:150] Setting up ssd1_2_mbox_conf
I0927 20:47:42.311125 30323 net.cpp:157] Top shape: 1 10 5 8 (400)
I0927 20:47:42.311127 30323 net.cpp:165] Memory required for data: 471484384
I0927 20:47:42.311131 30323 layer_factory.hpp:77] Creating layer ssd1_2_mbox_conf_perm
I0927 20:47:42.311136 30323 net.cpp:100] Creating Layer ssd1_2_mbox_conf_perm
I0927 20:47:42.311139 30323 net.cpp:434] ssd1_2_mbox_conf_perm <- ssd1_2_mbox_conf
I0927 20:47:42.311143 30323 net.cpp:408] ssd1_2_mbox_conf_perm -> ssd1_2_mbox_conf_perm
I0927 20:47:42.311214 30323 net.cpp:150] Setting up ssd1_2_mbox_conf_perm
I0927 20:47:42.311218 30323 net.cpp:157] Top shape: 1 5 8 10 (400)
I0927 20:47:42.311220 30323 net.cpp:165] Memory required for data: 471485984
I0927 20:47:42.311223 30323 layer_factory.hpp:77] Creating layer ssd1_2_mbox_conf_flat
I0927 20:47:42.311225 30323 net.cpp:100] Creating Layer ssd1_2_mbox_conf_flat
I0927 20:47:42.311228 30323 net.cpp:434] ssd1_2_mbox_conf_flat <- ssd1_2_mbox_conf_perm
I0927 20:47:42.311233 30323 net.cpp:408] ssd1_2_mbox_conf_flat -> ssd1_2_mbox_conf_flat
I0927 20:47:42.311249 30323 net.cpp:150] Setting up ssd1_2_mbox_conf_flat
I0927 20:47:42.311251 30323 net.cpp:157] Top shape: 1 400 (400)
I0927 20:47:42.311254 30323 net.cpp:165] Memory required for data: 471487584
I0927 20:47:42.311255 30323 layer_factory.hpp:77] Creating layer ssd1_2_mbox_priorbox
I0927 20:47:42.311259 30323 net.cpp:100] Creating Layer ssd1_2_mbox_priorbox
I0927 20:47:42.311264 30323 net.cpp:434] ssd1_2_mbox_priorbox <- ssd1_2_ssd1_2_relu_0_split_3
I0927 20:47:42.311267 30323 net.cpp:434] ssd1_2_mbox_priorbox <- data_data_0_split_3
I0927 20:47:42.311271 30323 net.cpp:408] ssd1_2_mbox_priorbox -> ssd1_2_mbox_priorbox
I0927 20:47:42.311287 30323 net.cpp:150] Setting up ssd1_2_mbox_priorbox
I0927 20:47:42.311291 30323 net.cpp:157] Top shape: 1 2 320 (640)
I0927 20:47:42.311292 30323 net.cpp:165] Memory required for data: 471490144
I0927 20:47:42.311295 30323 layer_factory.hpp:77] Creating layer ssd2_2_mbox_loc
I0927 20:47:42.311300 30323 net.cpp:100] Creating Layer ssd2_2_mbox_loc
I0927 20:47:42.311302 30323 net.cpp:434] ssd2_2_mbox_loc <- ssd2_2_ssd2_2_relu_0_split_1
I0927 20:47:42.311306 30323 net.cpp:408] ssd2_2_mbox_loc -> ssd2_2_mbox_loc
I0927 20:47:42.312638 30323 net.cpp:150] Setting up ssd2_2_mbox_loc
I0927 20:47:42.312644 30323 net.cpp:157] Top shape: 1 8 3 4 (96)
I0927 20:47:42.312646 30323 net.cpp:165] Memory required for data: 471490528
I0927 20:47:42.312649 30323 layer_factory.hpp:77] Creating layer ssd2_2_mbox_loc_perm
I0927 20:47:42.312654 30323 net.cpp:100] Creating Layer ssd2_2_mbox_loc_perm
I0927 20:47:42.312657 30323 net.cpp:434] ssd2_2_mbox_loc_perm <- ssd2_2_mbox_loc
I0927 20:47:42.312661 30323 net.cpp:408] ssd2_2_mbox_loc_perm -> ssd2_2_mbox_loc_perm
I0927 20:47:42.312729 30323 net.cpp:150] Setting up ssd2_2_mbox_loc_perm
I0927 20:47:42.312733 30323 net.cpp:157] Top shape: 1 3 4 8 (96)
I0927 20:47:42.312736 30323 net.cpp:165] Memory required for data: 471490912
I0927 20:47:42.312736 30323 layer_factory.hpp:77] Creating layer ssd2_2_mbox_loc_flat
I0927 20:47:42.312739 30323 net.cpp:100] Creating Layer ssd2_2_mbox_loc_flat
I0927 20:47:42.312742 30323 net.cpp:434] ssd2_2_mbox_loc_flat <- ssd2_2_mbox_loc_perm
I0927 20:47:42.312747 30323 net.cpp:408] ssd2_2_mbox_loc_flat -> ssd2_2_mbox_loc_flat
I0927 20:47:42.312762 30323 net.cpp:150] Setting up ssd2_2_mbox_loc_flat
I0927 20:47:42.312764 30323 net.cpp:157] Top shape: 1 96 (96)
I0927 20:47:42.312767 30323 net.cpp:165] Memory required for data: 471491296
I0927 20:47:42.312768 30323 layer_factory.hpp:77] Creating layer ssd2_2_mbox_conf
I0927 20:47:42.312773 30323 net.cpp:100] Creating Layer ssd2_2_mbox_conf
I0927 20:47:42.312777 30323 net.cpp:434] ssd2_2_mbox_conf <- ssd2_2_ssd2_2_relu_0_split_2
I0927 20:47:42.312780 30323 net.cpp:408] ssd2_2_mbox_conf -> ssd2_2_mbox_conf
I0927 20:47:42.314007 30323 net.cpp:150] Setting up ssd2_2_mbox_conf
I0927 20:47:42.314014 30323 net.cpp:157] Top shape: 1 10 3 4 (120)
I0927 20:47:42.314016 30323 net.cpp:165] Memory required for data: 471491776
I0927 20:47:42.314020 30323 layer_factory.hpp:77] Creating layer ssd2_2_mbox_conf_perm
I0927 20:47:42.314031 30323 net.cpp:100] Creating Layer ssd2_2_mbox_conf_perm
I0927 20:47:42.314034 30323 net.cpp:434] ssd2_2_mbox_conf_perm <- ssd2_2_mbox_conf
I0927 20:47:42.314038 30323 net.cpp:408] ssd2_2_mbox_conf_perm -> ssd2_2_mbox_conf_perm
I0927 20:47:42.314107 30323 net.cpp:150] Setting up ssd2_2_mbox_conf_perm
I0927 20:47:42.314111 30323 net.cpp:157] Top shape: 1 3 4 10 (120)
I0927 20:47:42.314115 30323 net.cpp:165] Memory required for data: 471492256
I0927 20:47:42.314116 30323 layer_factory.hpp:77] Creating layer ssd2_2_mbox_conf_flat
I0927 20:47:42.314119 30323 net.cpp:100] Creating Layer ssd2_2_mbox_conf_flat
I0927 20:47:42.314121 30323 net.cpp:434] ssd2_2_mbox_conf_flat <- ssd2_2_mbox_conf_perm
I0927 20:47:42.314126 30323 net.cpp:408] ssd2_2_mbox_conf_flat -> ssd2_2_mbox_conf_flat
I0927 20:47:42.314141 30323 net.cpp:150] Setting up ssd2_2_mbox_conf_flat
I0927 20:47:42.314144 30323 net.cpp:157] Top shape: 1 120 (120)
I0927 20:47:42.314146 30323 net.cpp:165] Memory required for data: 471492736
I0927 20:47:42.314147 30323 layer_factory.hpp:77] Creating layer ssd2_2_mbox_priorbox
I0927 20:47:42.314152 30323 net.cpp:100] Creating Layer ssd2_2_mbox_priorbox
I0927 20:47:42.314154 30323 net.cpp:434] ssd2_2_mbox_priorbox <- ssd2_2_ssd2_2_relu_0_split_3
I0927 20:47:42.314157 30323 net.cpp:434] ssd2_2_mbox_priorbox <- data_data_0_split_4
I0927 20:47:42.314160 30323 net.cpp:408] ssd2_2_mbox_priorbox -> ssd2_2_mbox_priorbox
I0927 20:47:42.314177 30323 net.cpp:150] Setting up ssd2_2_mbox_priorbox
I0927 20:47:42.314180 30323 net.cpp:157] Top shape: 1 2 96 (192)
I0927 20:47:42.314182 30323 net.cpp:165] Memory required for data: 471493504
I0927 20:47:42.314183 30323 layer_factory.hpp:77] Creating layer ssd3_2_mbox_loc
I0927 20:47:42.314188 30323 net.cpp:100] Creating Layer ssd3_2_mbox_loc
I0927 20:47:42.314191 30323 net.cpp:434] ssd3_2_mbox_loc <- ssd3_2_ssd3_2_relu_0_split_1
I0927 20:47:42.314195 30323 net.cpp:408] ssd3_2_mbox_loc -> ssd3_2_mbox_loc
I0927 20:47:42.315418 30323 net.cpp:150] Setting up ssd3_2_mbox_loc
I0927 20:47:42.315426 30323 net.cpp:157] Top shape: 1 8 2 2 (32)
I0927 20:47:42.315428 30323 net.cpp:165] Memory required for data: 471493632
I0927 20:47:42.315433 30323 layer_factory.hpp:77] Creating layer ssd3_2_mbox_loc_perm
I0927 20:47:42.315438 30323 net.cpp:100] Creating Layer ssd3_2_mbox_loc_perm
I0927 20:47:42.315440 30323 net.cpp:434] ssd3_2_mbox_loc_perm <- ssd3_2_mbox_loc
I0927 20:47:42.315444 30323 net.cpp:408] ssd3_2_mbox_loc_perm -> ssd3_2_mbox_loc_perm
I0927 20:47:42.315510 30323 net.cpp:150] Setting up ssd3_2_mbox_loc_perm
I0927 20:47:42.315513 30323 net.cpp:157] Top shape: 1 2 2 8 (32)
I0927 20:47:42.315515 30323 net.cpp:165] Memory required for data: 471493760
I0927 20:47:42.315517 30323 layer_factory.hpp:77] Creating layer ssd3_2_mbox_loc_flat
I0927 20:47:42.315521 30323 net.cpp:100] Creating Layer ssd3_2_mbox_loc_flat
I0927 20:47:42.315523 30323 net.cpp:434] ssd3_2_mbox_loc_flat <- ssd3_2_mbox_loc_perm
I0927 20:47:42.315526 30323 net.cpp:408] ssd3_2_mbox_loc_flat -> ssd3_2_mbox_loc_flat
I0927 20:47:42.315541 30323 net.cpp:150] Setting up ssd3_2_mbox_loc_flat
I0927 20:47:42.315546 30323 net.cpp:157] Top shape: 1 32 (32)
I0927 20:47:42.315546 30323 net.cpp:165] Memory required for data: 471493888
I0927 20:47:42.315548 30323 layer_factory.hpp:77] Creating layer ssd3_2_mbox_conf
I0927 20:47:42.315554 30323 net.cpp:100] Creating Layer ssd3_2_mbox_conf
I0927 20:47:42.315557 30323 net.cpp:434] ssd3_2_mbox_conf <- ssd3_2_ssd3_2_relu_0_split_2
I0927 20:47:42.315562 30323 net.cpp:408] ssd3_2_mbox_conf -> ssd3_2_mbox_conf
I0927 20:47:42.316792 30323 net.cpp:150] Setting up ssd3_2_mbox_conf
I0927 20:47:42.316799 30323 net.cpp:157] Top shape: 1 10 2 2 (40)
I0927 20:47:42.316802 30323 net.cpp:165] Memory required for data: 471494048
I0927 20:47:42.316805 30323 layer_factory.hpp:77] Creating layer ssd3_2_mbox_conf_perm
I0927 20:47:42.316809 30323 net.cpp:100] Creating Layer ssd3_2_mbox_conf_perm
I0927 20:47:42.316812 30323 net.cpp:434] ssd3_2_mbox_conf_perm <- ssd3_2_mbox_conf
I0927 20:47:42.316823 30323 net.cpp:408] ssd3_2_mbox_conf_perm -> ssd3_2_mbox_conf_perm
I0927 20:47:42.316891 30323 net.cpp:150] Setting up ssd3_2_mbox_conf_perm
I0927 20:47:42.316895 30323 net.cpp:157] Top shape: 1 2 2 10 (40)
I0927 20:47:42.316897 30323 net.cpp:165] Memory required for data: 471494208
I0927 20:47:42.316900 30323 layer_factory.hpp:77] Creating layer ssd3_2_mbox_conf_flat
I0927 20:47:42.316902 30323 net.cpp:100] Creating Layer ssd3_2_mbox_conf_flat
I0927 20:47:42.316905 30323 net.cpp:434] ssd3_2_mbox_conf_flat <- ssd3_2_mbox_conf_perm
I0927 20:47:42.316908 30323 net.cpp:408] ssd3_2_mbox_conf_flat -> ssd3_2_mbox_conf_flat
I0927 20:47:42.316923 30323 net.cpp:150] Setting up ssd3_2_mbox_conf_flat
I0927 20:47:42.316926 30323 net.cpp:157] Top shape: 1 40 (40)
I0927 20:47:42.316928 30323 net.cpp:165] Memory required for data: 471494368
I0927 20:47:42.316931 30323 layer_factory.hpp:77] Creating layer ssd3_2_mbox_priorbox
I0927 20:47:42.316933 30323 net.cpp:100] Creating Layer ssd3_2_mbox_priorbox
I0927 20:47:42.316936 30323 net.cpp:434] ssd3_2_mbox_priorbox <- ssd3_2_ssd3_2_relu_0_split_3
I0927 20:47:42.316938 30323 net.cpp:434] ssd3_2_mbox_priorbox <- data_data_0_split_5
I0927 20:47:42.316942 30323 net.cpp:408] ssd3_2_mbox_priorbox -> ssd3_2_mbox_priorbox
I0927 20:47:42.316958 30323 net.cpp:150] Setting up ssd3_2_mbox_priorbox
I0927 20:47:42.316962 30323 net.cpp:157] Top shape: 1 2 32 (64)
I0927 20:47:42.316963 30323 net.cpp:165] Memory required for data: 471494624
I0927 20:47:42.316965 30323 layer_factory.hpp:77] Creating layer ssd4_2_mbox_loc
I0927 20:47:42.316970 30323 net.cpp:100] Creating Layer ssd4_2_mbox_loc
I0927 20:47:42.316973 30323 net.cpp:434] ssd4_2_mbox_loc <- ssd4_2_ssd4_2_relu_0_split_0
I0927 20:47:42.316977 30323 net.cpp:408] ssd4_2_mbox_loc -> ssd4_2_mbox_loc
I0927 20:47:42.318202 30323 net.cpp:150] Setting up ssd4_2_mbox_loc
I0927 20:47:42.318208 30323 net.cpp:157] Top shape: 1 8 1 1 (8)
I0927 20:47:42.318210 30323 net.cpp:165] Memory required for data: 471494656
I0927 20:47:42.318214 30323 layer_factory.hpp:77] Creating layer ssd4_2_mbox_loc_perm
I0927 20:47:42.318219 30323 net.cpp:100] Creating Layer ssd4_2_mbox_loc_perm
I0927 20:47:42.318222 30323 net.cpp:434] ssd4_2_mbox_loc_perm <- ssd4_2_mbox_loc
I0927 20:47:42.318226 30323 net.cpp:408] ssd4_2_mbox_loc_perm -> ssd4_2_mbox_loc_perm
I0927 20:47:42.318295 30323 net.cpp:150] Setting up ssd4_2_mbox_loc_perm
I0927 20:47:42.318300 30323 net.cpp:157] Top shape: 1 1 1 8 (8)
I0927 20:47:42.318300 30323 net.cpp:165] Memory required for data: 471494688
I0927 20:47:42.318302 30323 layer_factory.hpp:77] Creating layer ssd4_2_mbox_loc_flat
I0927 20:47:42.318305 30323 net.cpp:100] Creating Layer ssd4_2_mbox_loc_flat
I0927 20:47:42.318308 30323 net.cpp:434] ssd4_2_mbox_loc_flat <- ssd4_2_mbox_loc_perm
I0927 20:47:42.318311 30323 net.cpp:408] ssd4_2_mbox_loc_flat -> ssd4_2_mbox_loc_flat
I0927 20:47:42.318326 30323 net.cpp:150] Setting up ssd4_2_mbox_loc_flat
I0927 20:47:42.318331 30323 net.cpp:157] Top shape: 1 8 (8)
I0927 20:47:42.318332 30323 net.cpp:165] Memory required for data: 471494720
I0927 20:47:42.318334 30323 layer_factory.hpp:77] Creating layer ssd4_2_mbox_conf
I0927 20:47:42.318339 30323 net.cpp:100] Creating Layer ssd4_2_mbox_conf
I0927 20:47:42.318341 30323 net.cpp:434] ssd4_2_mbox_conf <- ssd4_2_ssd4_2_relu_0_split_1
I0927 20:47:42.318346 30323 net.cpp:408] ssd4_2_mbox_conf -> ssd4_2_mbox_conf
I0927 20:47:42.319708 30323 net.cpp:150] Setting up ssd4_2_mbox_conf
I0927 20:47:42.319715 30323 net.cpp:157] Top shape: 1 10 1 1 (10)
I0927 20:47:42.319717 30323 net.cpp:165] Memory required for data: 471494760
I0927 20:47:42.319721 30323 layer_factory.hpp:77] Creating layer ssd4_2_mbox_conf_perm
I0927 20:47:42.319726 30323 net.cpp:100] Creating Layer ssd4_2_mbox_conf_perm
I0927 20:47:42.319730 30323 net.cpp:434] ssd4_2_mbox_conf_perm <- ssd4_2_mbox_conf
I0927 20:47:42.319732 30323 net.cpp:408] ssd4_2_mbox_conf_perm -> ssd4_2_mbox_conf_perm
I0927 20:47:42.319799 30323 net.cpp:150] Setting up ssd4_2_mbox_conf_perm
I0927 20:47:42.319810 30323 net.cpp:157] Top shape: 1 1 1 10 (10)
I0927 20:47:42.319813 30323 net.cpp:165] Memory required for data: 471494800
I0927 20:47:42.319814 30323 layer_factory.hpp:77] Creating layer ssd4_2_mbox_conf_flat
I0927 20:47:42.319818 30323 net.cpp:100] Creating Layer ssd4_2_mbox_conf_flat
I0927 20:47:42.319821 30323 net.cpp:434] ssd4_2_mbox_conf_flat <- ssd4_2_mbox_conf_perm
I0927 20:47:42.319824 30323 net.cpp:408] ssd4_2_mbox_conf_flat -> ssd4_2_mbox_conf_flat
I0927 20:47:42.319840 30323 net.cpp:150] Setting up ssd4_2_mbox_conf_flat
I0927 20:47:42.319844 30323 net.cpp:157] Top shape: 1 10 (10)
I0927 20:47:42.319845 30323 net.cpp:165] Memory required for data: 471494840
I0927 20:47:42.319847 30323 layer_factory.hpp:77] Creating layer ssd4_2_mbox_priorbox
I0927 20:47:42.319851 30323 net.cpp:100] Creating Layer ssd4_2_mbox_priorbox
I0927 20:47:42.319854 30323 net.cpp:434] ssd4_2_mbox_priorbox <- ssd4_2_ssd4_2_relu_0_split_2
I0927 20:47:42.319856 30323 net.cpp:434] ssd4_2_mbox_priorbox <- data_data_0_split_6
I0927 20:47:42.319859 30323 net.cpp:408] ssd4_2_mbox_priorbox -> ssd4_2_mbox_priorbox
I0927 20:47:42.319876 30323 net.cpp:150] Setting up ssd4_2_mbox_priorbox
I0927 20:47:42.319880 30323 net.cpp:157] Top shape: 1 2 8 (16)
I0927 20:47:42.319881 30323 net.cpp:165] Memory required for data: 471494904
I0927 20:47:42.319882 30323 layer_factory.hpp:77] Creating layer mbox_loc
I0927 20:47:42.319887 30323 net.cpp:100] Creating Layer mbox_loc
I0927 20:47:42.319890 30323 net.cpp:434] mbox_loc <- conv5_3/expand_norm_mbox_loc_flat
I0927 20:47:42.319893 30323 net.cpp:434] mbox_loc <- conv6_4_mbox_loc_flat
I0927 20:47:42.319896 30323 net.cpp:434] mbox_loc <- ssd1_2_mbox_loc_flat
I0927 20:47:42.319900 30323 net.cpp:434] mbox_loc <- ssd2_2_mbox_loc_flat
I0927 20:47:42.319902 30323 net.cpp:434] mbox_loc <- ssd3_2_mbox_loc_flat
I0927 20:47:42.319905 30323 net.cpp:434] mbox_loc <- ssd4_2_mbox_loc_flat
I0927 20:47:42.319907 30323 net.cpp:408] mbox_loc -> mbox_loc
I0927 20:47:42.319923 30323 net.cpp:150] Setting up mbox_loc
I0927 20:47:42.319927 30323 net.cpp:157] Top shape: 1 6600 (6600)
I0927 20:47:42.319928 30323 net.cpp:165] Memory required for data: 471521304
I0927 20:47:42.319931 30323 layer_factory.hpp:77] Creating layer mbox_conf
I0927 20:47:42.319933 30323 net.cpp:100] Creating Layer mbox_conf
I0927 20:47:42.319936 30323 net.cpp:434] mbox_conf <- conv5_3/expand_norm_mbox_conf_flat
I0927 20:47:42.319938 30323 net.cpp:434] mbox_conf <- conv6_4_mbox_conf_flat
I0927 20:47:42.319941 30323 net.cpp:434] mbox_conf <- ssd1_2_mbox_conf_flat
I0927 20:47:42.319943 30323 net.cpp:434] mbox_conf <- ssd2_2_mbox_conf_flat
I0927 20:47:42.319947 30323 net.cpp:434] mbox_conf <- ssd3_2_mbox_conf_flat
I0927 20:47:42.319948 30323 net.cpp:434] mbox_conf <- ssd4_2_mbox_conf_flat
I0927 20:47:42.319952 30323 net.cpp:408] mbox_conf -> mbox_conf
I0927 20:47:42.319967 30323 net.cpp:150] Setting up mbox_conf
I0927 20:47:42.319970 30323 net.cpp:157] Top shape: 1 8250 (8250)
I0927 20:47:42.319972 30323 net.cpp:165] Memory required for data: 471554304
I0927 20:47:42.319973 30323 layer_factory.hpp:77] Creating layer mbox_priorbox
I0927 20:47:42.319975 30323 net.cpp:100] Creating Layer mbox_priorbox
I0927 20:47:42.319978 30323 net.cpp:434] mbox_priorbox <- conv5_3/expand_norm_mbox_priorbox
I0927 20:47:42.319981 30323 net.cpp:434] mbox_priorbox <- conv6_4_mbox_priorbox
I0927 20:47:42.319984 30323 net.cpp:434] mbox_priorbox <- ssd1_2_mbox_priorbox
I0927 20:47:42.319986 30323 net.cpp:434] mbox_priorbox <- ssd2_2_mbox_priorbox
I0927 20:47:42.319988 30323 net.cpp:434] mbox_priorbox <- ssd3_2_mbox_priorbox
I0927 20:47:42.319990 30323 net.cpp:434] mbox_priorbox <- ssd4_2_mbox_priorbox
I0927 20:47:42.319993 30323 net.cpp:408] mbox_priorbox -> mbox_priorbox
I0927 20:47:42.320008 30323 net.cpp:150] Setting up mbox_priorbox
I0927 20:47:42.320011 30323 net.cpp:157] Top shape: 1 2 6600 (13200)
I0927 20:47:42.320013 30323 net.cpp:165] Memory required for data: 471607104
I0927 20:47:42.320014 30323 layer_factory.hpp:77] Creating layer mbox_conf_reshape
I0927 20:47:42.320024 30323 net.cpp:100] Creating Layer mbox_conf_reshape
I0927 20:47:42.320027 30323 net.cpp:434] mbox_conf_reshape <- mbox_conf
I0927 20:47:42.320030 30323 net.cpp:408] mbox_conf_reshape -> mbox_conf_reshape
I0927 20:47:42.320051 30323 net.cpp:150] Setting up mbox_conf_reshape
I0927 20:47:42.320055 30323 net.cpp:157] Top shape: 1 1650 5 (8250)
I0927 20:47:42.320057 30323 net.cpp:165] Memory required for data: 471640104
I0927 20:47:42.320058 30323 layer_factory.hpp:77] Creating layer mbox_conf_softmax
I0927 20:47:42.320062 30323 net.cpp:100] Creating Layer mbox_conf_softmax
I0927 20:47:42.320065 30323 net.cpp:434] mbox_conf_softmax <- mbox_conf_reshape
I0927 20:47:42.320068 30323 net.cpp:408] mbox_conf_softmax -> mbox_conf_softmax
I0927 20:47:42.320405 30323 net.cpp:150] Setting up mbox_conf_softmax
I0927 20:47:42.320410 30323 net.cpp:157] Top shape: 1 1650 5 (8250)
I0927 20:47:42.320412 30323 net.cpp:165] Memory required for data: 471673104
I0927 20:47:42.320415 30323 layer_factory.hpp:77] Creating layer mbox_conf_flatten
I0927 20:47:42.320418 30323 net.cpp:100] Creating Layer mbox_conf_flatten
I0927 20:47:42.320420 30323 net.cpp:434] mbox_conf_flatten <- mbox_conf_softmax
I0927 20:47:42.320423 30323 net.cpp:408] mbox_conf_flatten -> mbox_conf_flatten
I0927 20:47:42.320439 30323 net.cpp:150] Setting up mbox_conf_flatten
I0927 20:47:42.320443 30323 net.cpp:157] Top shape: 1 8250 (8250)
I0927 20:47:42.320444 30323 net.cpp:165] Memory required for data: 471706104
I0927 20:47:42.320446 30323 layer_factory.hpp:77] Creating layer detection_out
I0927 20:47:42.320453 30323 net.cpp:100] Creating Layer detection_out
I0927 20:47:42.320456 30323 net.cpp:434] detection_out <- mbox_loc
I0927 20:47:42.320458 30323 net.cpp:434] detection_out <- mbox_conf_flatten
I0927 20:47:42.320461 30323 net.cpp:434] detection_out <- mbox_priorbox
I0927 20:47:42.320464 30323 net.cpp:408] detection_out -> detection_out
W0927 20:47:42.320487 30323 detection_output_layer.cpp:49] Failed to create directory: /home/zhongyilin/Documents/data/GTSDBdevkit/results/GTSDB/SSD_510x300_100_40_6_True_1/Main
I0927 20:47:42.320802 30323 net.cpp:150] Setting up detection_out
I0927 20:47:42.320808 30323 net.cpp:157] Top shape: 1 1 1 7 (7)
I0927 20:47:42.320811 30323 net.cpp:165] Memory required for data: 471706132
I0927 20:47:42.320812 30323 layer_factory.hpp:77] Creating layer detection_eval
I0927 20:47:42.320816 30323 net.cpp:100] Creating Layer detection_eval
I0927 20:47:42.320819 30323 net.cpp:434] detection_eval <- detection_out
I0927 20:47:42.320822 30323 net.cpp:434] detection_eval <- label
I0927 20:47:42.320827 30323 net.cpp:408] detection_eval -> detection_eval
I0927 20:47:42.320901 30323 net.cpp:150] Setting up detection_eval
I0927 20:47:42.320905 30323 net.cpp:157] Top shape: 1 1 5 5 (25)
I0927 20:47:42.320909 30323 net.cpp:165] Memory required for data: 471706232
I0927 20:47:42.320909 30323 net.cpp:228] detection_eval does not need backward computation.
I0927 20:47:42.320912 30323 net.cpp:228] detection_out does not need backward computation.
I0927 20:47:42.320914 30323 net.cpp:228] mbox_conf_flatten does not need backward computation.
I0927 20:47:42.320917 30323 net.cpp:228] mbox_conf_softmax does not need backward computation.
…
