…
      sampler {
        min_scale: 0.3
        max_scale: 1
        min_aspect_ratio: 0.5
        max_aspect_ratio: 2
      }
      sample_constraint {
        min_jaccard_overlap: 0.9
      }
      max_sample: 1
      max_trials: 50
    }
    batch_sampler {
      sampler {
        min_scale: 0.3
        max_scale: 1
        min_aspect_ratio: 0.5
        max_aspect_ratio: 2
      }
      sample_constraint {
        max_jaccard_overlap: 1
      }
      max_sample: 1
      max_trials: 50
    }
    label_map_file: "data/GTSDB/labelmap_GTSDB.prototxt"
  }
}
layer {
  name: "conv1"
  type: "Convolution"
  bottom: "data"
  top: "conv1"
  param {
    lr_mult: 1
    decay_mult: 1
  }
  convolution_param {
    num_output: 32
    bias_term: false
    pad: 1
    kernel_size: 3
    stride: 2
    weight_filler {
      type: "msra"
    }
  }
}
layer {
  name: "conv1/bn"
  type: "BatchNorm"
  bottom: "conv1"
  top: "conv1"
  batch_norm_param {
    use_global_stats: true
    eps: 1e-05
  }
}
layer {
  name: "conv1/scale"
  type: "Scale"
  bottom: "conv1"
  top: "conv1"
  param {
    lr_mult: 1
    decay_mult: 0
  }
  param {
    lr_mult: 1
    decay_mult: 0
  }
  scale_param {
    bias_term: true
  }
}
layer {
  name: "relu1"
  type: "ReLU"
  bottom: "conv1"
  top: "conv1"
}
layer {
  name: "conv2_1/expand"
  type: "Convolution"
  bottom: "conv1"
  top: "conv2_1/expand"
  param {
    lr_mult: 1
    decay_mult: 1
  }
  convolution_param {
    num_output: 32
    bias_term: false
    kernel_size: 1
    weight_filler {
      type: "msra"
    }
  }
}
layer {
  name: "conv2_1/expand/bn"
  type: "BatchNorm"
  bottom: "conv2_1/expand"
  top: "conv2_1/expand"
  batch_norm_param {
    use_global_stats: true
    eps: 1e-05
  }
}
layer {
  name: "conv2_1/expand/scale"
  type: "Scale"
  bottom: "conv2_1/expand"
  top: "conv2_1/expand"
  param {
    lr_mult: 1
    decay_mult: 0
  }
  param {
    lr_mult: 1
    decay_mult: 0
  }
  scale_param {
    bias_term: true
  }
}
layer {
  name: "relu2_1/expand"
  type: "ReLU"
  bottom: "conv2_1/expand"
  top: "conv2_1/expand"
}
layer {
  name: "conv2_1/dwise"
  type: "DepthwiseConvolution"
  bottom: "conv2_1/expand"
  top: "conv2_1/dwise"
  param {
    lr_mult: 1
    decay_mult: 1
  }
  convolution_param {
    num_output: 32
    bias_term: false
    pad: 1
    kernel_size: 3
    group: 32
    stride: 1
    weight_filler {
      type: "msra"
    }
  }
}
layer {
  name: "conv2_1/dwise/bn"
  type: "BatchNorm"
  bottom: "conv2_1/dwise"
  top: "conv2_1/dwise"
  batch_norm_param {
    use_global_stats: true
    eps: 1e-05
  }
}
layer {
  name: "conv2_1/dwise/scale"
  type: "Scale"
  bottom: "conv2_1/dwise"
  top: "conv2_1/dwise"
  param {
    lr_mult: 1
    decay_mult: 0
  }
  param {
    lr_mult: 1
    decay_mult: 0
  }
  scale_param {
    bias_term: true
  }
}
layer {
  name: "relu2_1/dwise"
  type: "ReLU"
  bottom: "conv2_1/dwise"
  top: "conv2_1/dwise"
}
layer {
  name: "conv2_1/linear"
  type: "Convolution"
  bottom: "conv2_1/dwise"
  top: "conv2_1/linear"
  param {
    lr_mult: 1
    decay_mult: 1
  }
  convolution_param {
    num_output: 16
    bias_term: false
    kernel_size: 1
    weight_filler {
      type: "msra"
    }
  }
}
layer {
  name: "conv2_1/linear/bn"
  type: "BatchNorm"
  bottom: "conv2_1/linear"
  top: "conv2_1/linear"
  batch_norm_param {
    use_global_stats: true
    eps: 1e-05
  }
}
layer {
  name: "conv2_1/linear/scale"
  type: "Scale"
  bottom: "conv2_1/linear"
  top: "conv2_1/linear"
  param {
    lr_mult: 1
    decay_mult: 0
  }
  param {
    lr_mult: 1
    decay_mult: 0
  }
  scale_param {
    bias_term: true
  }
}
layer {
  name: "conv2_2/expand"
  type: "Convolution"
  bottom: "conv2_1/linear"
  top: "conv2_2/expand"
  param {
    lr_mult: 1
    decay_mult: 1
  }
  convolution_param {
    num_output: 96
    bias_term: false
    kernel_size: 1
    weight_filler {
      type: "msra"
    }
  }
}
layer {
  name: "conv2_2/expand/bn"
  type: "BatchNorm"
  bottom: "conv2_2/expand"
  top: "conv2_2/expand"
  batch_norm_param {
    use_global_stats: true
    eps: 1e-05
  }
}
layer {
  name: "conv2_2/expand/scale"
  type: "Scale"
  bottom: "conv2_2/expand"
  top: "conv2_2/expand"
  param {
    lr_mult: 1
    decay_mult: 0
  }
  param {
    lr_mult: 1
    decay_mult: 0
  }
  scale_param {
    bias_term: true
  }
}
layer {
  name: "relu2_2/expand"
  type: "ReLU"
  bottom: "conv2_2/expand"
  top: "conv2_2/expand"
}
layer {
  name: "conv2_2/dwise"
  type: "DepthwiseConvolution"
  bottom: "conv2_2/expand"
  top: "conv2_2/dwise"
  param {
    lr_mult: 1
    decay_mult: 1
  }
  convolution_param {
    num_output: 96
    bias_term: false
    pad: 1
    kernel_size: 3
    group: 96
    stride: 2
    weight_filler {
      type: "msra"
    }
  }
}
layer {
  name: "conv2_2/dwise/bn"
  type: "BatchNorm"
  bottom: "conv2_2/dwise"
  top: "conv2_2/dwise"
  batch_norm_param {
    use_global_stats: true
    eps: 1e-05
  }
}
layer {
  name: "conv2_2/dwise/scale"
  type: "Scale"
  bottom: "conv2_2/dwise"
  top: "conv2_2/dwise"
  param {
    lr_mult: 1
    decay_mult: 0
  }
  param {
    lr_mult: 1
    decay_mult: 0
  }
  scale_param {
    bias_term: true
  }
}
layer {
  name: "relu2_2/dwise"
  type: "ReLU"
  bottom: "conv2_2/dwise"
  top: "conv2_2/dwise"
}
layer {
  name: "conv2_2/linear"
  type: "Convolution"
  bottom: "conv2_2/dwise"
  top: "conv2_2/linear"
  param {
    lr_mult: 1
    decay_mult: 1
  }
  convolution_param {
    num_output: 24
    bias_term: false
    kernel_size: 1
    weight_filler {
      type: "msra"
    }
  }
}
layer {
  name: "conv2_2/linear/bn"
  type: "BatchNorm"
  bottom: "conv2_2/linear"
  top: "conv2_2/linear"
  batch_norm_param {
    use_global_stats: true
    eps: 1e-05
  }
}
layer {
  name: "conv2_2/linear/scale"
  type: "Scale"
  bottom: "conv2_2/linear"
  top: "conv2_2/linear"
  param {
    lr_mult: 1
    decay_mult: 0
  }
  param {
    lr_mult: 1
    decay_mult: 0
  }
  scale_param {
    bias_term: true
  }
}
layer {
  name: "conv3_1/expand"
  type: "Convolution"
  bottom: "conv2_2/linear"
  top: "conv3_1/expand"
  param {
    lr_mult: 1
    decay_mult: 1
  }
  convolution_param {
    num_output: 144
    bias_term: false
    kernel_size: 1
    weight_filler {
      type: "msra"
    }
  }
}
layer {
  name: "conv3_1/expand/bn"
  type: "BatchNorm"
  bottom: "conv3_1/expand"
  top: "conv3_1/expand"
  batch_norm_param {
    use_global_stats: true
    eps: 1e-05
  }
}
layer {
  name: "conv3_1/expand/scale"
  type: "Scale"
  bottom: "conv3_1/expand"
  top: "conv3_1/expand"
  param {
    lr_mult: 1
    decay_mult: 0
  }
  param {
    lr_mult: 1
    decay_mult: 0
  }
  scale_param {
    bias_term: true
  }
}
layer {
  name: "relu3_1/expand"
  type: "ReLU"
  bottom: "conv3_1/expand"
  top: "conv3_1/expand"
}
layer {
  name: "conv3_1/dwise"
  type: "DepthwiseConvolution"
  bottom: "conv3_1/expand"
  top: "conv3_1/dwise"
  param {
    lr_mult: 1
    decay_mult: 1
  }
  convolution_param {
    num_output: 144
    bias_term: false
    pad: 1
    kernel_size: 3
    group: 144
    stride: 1
    weight_filler {
      type: "msra"
    }
  }
}
layer {
  name: "conv3_1/dwise/bn"
  type: "BatchNorm"
  bottom: "conv3_1/dwise"
  top: "conv3_1/dwise"
  batch_norm_param {
    use_global_stats: true
    eps: 1e-05
  }
}
layer {
  name: "conv3_1/dwise/scale"
  type: "Scale"
  bottom: "conv3_1/dwise"
  top: "conv3_1/dwise"
  param {
    lr_mult: 1
    decay_mult: 0
  }
  param {
    lr_mult: 1
    decay_mult: 0
  }
  scale_param {
    bias_term: true
  }
}
layer {
  name: "relu3_1/dwise"
  type: "ReLU"
  bottom: "conv3_1/dwise"
  top: "conv3_1/dwise"
}
layer {
  name: "conv3_1/linear"
  type: "Convolution"
  bottom: "conv3_1/dwise"
  top: "conv3_1/linear"
  param {
    lr_mult: 1
    decay_mult: 1
  }
  convolution_param {
    num_output: 24
    bias_term: false
    kernel_size: 1
    weight_filler {
      type: "msra"
    }
  }
}
layer {
  name: "conv3_1/linear/bn"
  type: "BatchNorm"
  bottom: "conv3_1/linear"
  top: "conv3_1/linear"
  batch_norm_param {
    use_global_stats: true
    eps: 1e-05
  }
}
layer {
  name: "conv3_1/linear/scale"
  type: "Scale"
  bottom: "conv3_1/linear"
  top: "conv3_1/linear"
  param {
    lr_mult: 1
    decay_mult: 0
  }
  param {
    lr_mult: 1
    decay_mult: 0
  }
  scale_param {
    bias_term: true
  }
}
layer {
  name: "block_3_1"
  type: "Eltwise"
  bottom: "conv2_2/linear"
  bottom: "conv3_1/linear"
  top: "block_3_1"
}
layer {
  name: "conv3_2/expand"
  type: "Convolution"
  bottom: "block_3_1"
  top: "conv3_2/expand"
  param {
    lr_mult: 1
    decay_mult: 1
  }
  convolution_param {
    num_output: 144
    bias_term: false
    kernel_size: 1
    weight_filler {
      type: "msra"
    }
  }
}
layer {
  name: "conv3_2/expand/bn"
  type: "BatchNorm"
  bottom: "conv3_2/expand"
  top: "conv3_2/expand"
  batch_norm_param {
    use_global_stats: true
    eps: 1e-05
  }
}
layer {
  name: "conv3_2/expand/scale"
  type: "Scale"
  bottom: "conv3_2/expand"
  top: "conv3_2/expand"
  param {
    lr_mult: 1
    decay_mult: 0
  }
  param {
    lr_mult: 1
    decay_mult: 0
  }
  scale_param {
    bias_term: true
  }
}
layer {
  name: "relu3_2/expand"
  type: "ReLU"
  bottom: "conv3_2/expand"
  top: "conv3_2/expand"
}
layer {
  name: "conv3_2/dwise"
  type: "DepthwiseConvolution"
  bottom: "conv3_2/expand"
  top: "conv3_2/dwise"
  param {
    lr_mult: 1
    decay_mult: 1
  }
  convolution_param {
    num_output: 144
    bias_term: false
    pad: 1
    kernel_size: 3
    group: 144
    stride: 2
    weight_filler {
      type: "msra"
    }
  }
}
layer {
  name: "conv3_2/dwise/bn"
  type: "BatchNorm"
  bottom: "conv3_2/dwise"
  top: "conv3_2/dwise"
  batch_norm_param {
    use_global_stats: true
    eps: 1e-05
  }
}
layer {
  name: "conv3_2/dwise/scale"
  type: "Scale"
  bottom: "conv3_2/dwise"
  top: "conv3_2/dwise"
  param {
    lr_mult: 1
    decay_mult: 0
  }
  param {
    lr_mult: 1
    decay_mult: 0
  }
  scale_param {
    bias_term: true
  }
}
layer {
  name: "relu3_2/dwise"
  type: "ReLU"
  bottom: "conv3_2/dwise"
  top: "conv3_2/dwise"
}
layer {
  name: "conv3_2/linear"
  type: "Convolution"
  bottom: "conv3_2/dwise"
  top: "conv3_2/linear"
  param {
    lr_mult: 1
    decay_mult: 1
  }
  convolution_param {
    num_output: 32
    bias_term: false
    kernel_size: 1
    weight_filler {
      type: "msra"
    }
  }
}
layer {
  name: "conv3_2/linear/bn"
  type: "BatchNorm"
  bottom: "conv3_2/linear"
  top: "conv3_2/linear"
  batch_norm_param {
    use_global_stats: true
    eps: 1e-05
  }
}
layer {
  name: "conv3_2/linear/scale"
  type: "Scale"
  bottom: "conv3_2/linear"
  top: "conv3_2/linear"
  param {
    lr_mult: 1
    decay_mult: 0
  }
  param {
    lr_mult: 1
    decay_mult: 0
  }
  scale_param {
    bias_term: true
  }
}
layer {
  name: "conv4_1/expand"
  type: "Convolution"
  bottom: "conv3_2/linear"
  top: "conv4_1/expand"
  param {
    lr_mult: 1
    decay_mult: 1
  }
  convolution_param {
    num_output: 192
    bias_term: false
    kernel_size: 1
    weight_filler {
      type: "msra"
    }
  }
}
layer {
  name: "conv4_1/expand/bn"
  type: "BatchNorm"
  bottom: "conv4_1/expand"
  top: "conv4_1/expand"
  batch_norm_param {
    use_global_stats: true
    eps: 1e-05
  }
}
layer {
  name: "conv4_1/expand/scale"
  type: "Scale"
  bottom: "conv4_1/expand"
  top: "conv4_1/expand"
  param {
    lr_mult: 1
    decay_mult: 0
  }
  param {
    lr_mult: 1
    decay_mult: 0
  }
  scale_param {
    bias_term: true
  }
}
layer {
  name: "relu4_1/expand"
  type: "ReLU"
  bottom: "conv4_1/expand"
  top: "conv4_1/expand"
}
layer {
  name: "conv4_1/dwise"
  type: "DepthwiseConvolution"
  bottom: "conv4_1/expand"
  top: "conv4_1/dwise"
  param {
    lr_mult: 1
    decay_mult: 1
  }
  convolution_param {
    num_output: 192
    bias_term: false
    pad: 1
    kernel_size: 3
    group: 192
    stride: 1
    weight_filler {
      type: "msra"
    }
  }
}
layer {
  name: "conv4_1/dwise/bn"
  type: "BatchNorm"
  bottom: "conv4_1/dwise"
  top: "conv4_1/dwise"
  batch_norm_param {
    use_global_stats: true
    eps: 1e-05
  }
}
layer {
  name: "conv4_1/dwise/scale"
  type: "Scale"
  bottom: "conv4_1/dwise"
  top: "conv4_1/dwise"
  param {
    lr_mult: 1
    decay_mult: 0
  }
  param {
    lr_mult: 1
    decay_mult: 0
  }
  scale_param {
    bias_term: true
  }
}
layer {
  name: "relu4_1/dwise"
  type: "ReLU"
  bottom: "conv4_1/dwise"
  top: "conv4_1/dwise"
}
layer {
  name: "conv4_1/linear"
  type: "Convolution"
  bottom: "conv4_1/dwise"
  top: "conv4_1/linear"
  param {
    lr_mult: 1
    decay_mult: 1
  }
  convolution_param {
    num_output: 32
    bias_term: false
    kernel_size: 1
    weight_filler {
      type: "msra"
    }
  }
}
layer {
  name: "conv4_1/linear/bn"
  type: "BatchNorm"
  bottom: "conv4_1/linear"
  top: "conv4_1/linear"
  batch_norm_param {
    use_global_stats: true
    eps: 1e-05
  }
}
layer {
  name: "conv4_1/linear/scale"
  type: "Scale"
  bottom: "conv4_1/linear"
  top: "conv4_1/linear"
  param {
    lr_mult: 1
    decay_mult: 0
  }
  param {
    lr_mult: 1
    decay_mult: 0
  }
  scale_param {
    bias_term: true
  }
}
layer {
  name: "block_4_1"
  type: "Eltwise"
  bottom: "conv3_2/linear"
  bottom: "conv4_1/linear"
  top: "block_4_1"
}
layer {
  name: "conv4_2/expand"
  type: "Convolution"
  bottom: "block_4_1"
  top: "conv4_2/expand"
  param {
    lr_mult: 1
    decay_mult: 1
  }
  convolution_param {
    num_output: 192
    bias_term: false
    kernel_size: 1
    weight_filler {
      type: "msra"
    }
  }
}
layer {
  name: "conv4_2/expand/bn"
  type: "BatchNorm"
  bottom: "conv4_2/expand"
  top: "conv4_2/expand"
  batch_norm_param {
    use_global_stats: true
    eps: 1e-05
  }
}
layer {
  name: "conv4_2/expand/scale"
  type: "Scale"
  bottom: "conv4_2/expand"
  top: "conv4_2/expand"
  param {
    lr_mult: 1
    decay_mult: 0
  }
  param {
    lr_mult: 1
    decay_mult: 0
  }
  scale_param {
    bias_term: true
  }
}
layer {
  name: "relu4_2/expand"
  type: "ReLU"
  bottom: "conv4_2/expand"
  top: "conv4_2/expand"
}
layer {
  name: "conv4_2/dwise"
  type: "DepthwiseConvolution"
  bottom: "conv4_2/expand"
  top: "conv4_2/dwise"
  param {
    lr_mult: 1
    decay_mult: 1
  }
  convolution_param {
    num_output: 192
    bias_term: false
    pad: 1
    kernel_size: 3
    group: 192
    stride: 1
    weight_filler {
      type: "msra"
    }
  }
}
layer {
  name: "conv4_2/dwise/bn"
  type: "BatchNorm"
  bottom: "conv4_2/dwise"
  top: "conv4_2/dwise"
  batch_norm_param {
    use_global_stats: true
    eps: 1e-05
  }
}
layer {
  name: "conv4_2/dwise/scale"
  type: "Scale"
  bottom: "conv4_2/dwise"
  top: "conv4_2/dwise"
  param {
    lr_mult: 1
    decay_mult: 0
  }
  param {
    lr_mult: 1
    decay_mult: 0
  }
  scale_param {
    bias_term: true
  }
}
layer {
  name: "relu4_2/dwise"
  type: "ReLU"
  bottom: "conv4_2/dwise"
  top: "conv4_2/dwise"
}
layer {
  name: "conv4_2/linear"
  type: "Convolution"
  bottom: "conv4_2/dwise"
  top: "conv4_2/linear"
  param {
    lr_mult: 1
    decay_mult: 1
  }
  convolution_param {
    num_output: 32
    bias_term: false
    kernel_size: 1
    weight_filler {
      type: "msra"
    }
  }
}
layer {
  name: "conv4_2/linear/bn"
  type: "BatchNorm"
  bottom: "conv4_2/linear"
  top: "conv4_2/linear"
  batch_norm_param {
    use_global_stats: true
    eps: 1e-05
  }
}
layer {
  name: "conv4_2/linear/scale"
  type: "Scale"
  bottom: "conv4_2/linear"
  top: "conv4_2/linear"
  param {
    lr_mult: 1
    decay_mult: 0
  }
  param {
    lr_mult: 1
    decay_mult: 0
  }
  scale_param {
    bias_term: true
  }
}
layer {
  name: "block_4_2"
  type: "Eltwise"
  bottom: "block_4_1"
  bottom: "conv4_2/linear"
  top: "block_4_2"
}
layer {
  name: "conv4_3/expand"
  type: "Convolution"
  bottom: "block_4_2"
  top: "conv4_3/expand"
  param {
    lr_mult: 1
    decay_mult: 1
  }
  convolution_param {
    num_output: 192
    bias_term: false
    kernel_size: 1
    weight_filler {
      type: "msra"
    }
  }
}
layer {
  name: "conv4_3/expand/bn"
  type: "BatchNorm"
  bottom: "conv4_3/expand"
  top: "conv4_3/expand"
  batch_norm_param {
    use_global_stats: true
    eps: 1e-05
  }
}
layer {
  name: "conv4_3/expand/scale"
  type: "Scale"
  bottom: "conv4_3/expand"
  top: "conv4_3/expand"
  param {
    lr_mult: 1
    decay_mult: 0
  }
  param {
    lr_mult: 1
    decay_mult: 0
  }
  scale_param {
    bias_term: true
  }
}
layer {
  name: "relu4_3/expand"
  type: "ReLU"
  bottom: "conv4_3/expand"
  top: "conv4_3/expand"
}
layer {
  name: "conv4_3/dwise"
  type: "DepthwiseConvolution"
  bottom: "conv4_3/expand"
  top: "conv4_3/dwise"
  param {
    lr_mult: 1
    decay_mult: 1
  }
  convolution_param {
    num_output: 192
    bias_term: false
    pad: 1
    kernel_size: 3
    group: 192
    stride: 1
    weight_filler {
      type: "msra"
    }
  }
}
layer {
  name: "conv4_3/dwise/bn"
  type: "BatchNorm"
  bottom: "conv4_3/dwise"
  top: "conv4_3/dwise"
  batch_norm_param {
    use_global_stats: true
    eps: 1e-05
  }
}
layer {
  name: "conv4_3/dwise/scale"
  type: "Scale"
  bottom: "conv4_3/dwise"
  top: "conv4_3/dwise"
  param {
    lr_mult: 1
    decay_mult: 0
  }
  param {
    lr_mult: 1
    decay_mult: 0
  }
  scale_param {
    bias_term: true
  }
}
layer {
  name: "relu4_3/dwise"
  type: "ReLU"
  bottom: "conv4_3/dwise"
  top: "conv4_3/dwise"
}
layer {
  name: "conv4_3/linear"
  type: "Convolution"
  bottom: "conv4_3/dwise"
  top: "conv4_3/linear"
  param {
    lr_mult: 1
    decay_mult: 1
  }
  convolution_param {
    num_output: 64
    bias_term: false
    kernel_size: 1
    weight_filler {
      type: "msra"
    }
  }
}
layer {
  name: "conv4_3/linear/bn"
  type: "BatchNorm"
  bottom: "conv4_3/linear"
  top: "conv4_3/linear"
  batch_norm_param {
    use_global_stats: true
    eps: 1e-05
  }
}
layer {
  name: "conv4_3/linear/scale"
  type: "Scale"
  bottom: "conv4_3/linear"
  top: "conv4_3/linear"
  param {
    lr_mult: 1
    decay_mult: 0
  }
  param {
    lr_mult: 1
    decay_mult: 0
  }
  scale_param {
    bias_term: true
  }
}
layer {
  name: "conv4_4/expand"
  type: "Convolution"
  bottom: "conv4_3/linear"
  top: "conv4_4/expand"
  param {
    lr_mult: 1
    decay_mult: 1
  }
  convolution_param {
    num_output: 384
    bias_term: false
    kernel_size: 1
    weight_filler {
      type: "msra"
    }
  }
}
layer {
  name: "conv4_4/expand/bn"
  type: "BatchNorm"
  bottom: "conv4_4/expand"
  top: "conv4_4/expand"
  batch_norm_param {
    use_global_stats: true
    eps: 1e-05
  }
}
layer {
  name: "conv4_4/expand/scale"
  type: "Scale"
  bottom: "conv4_4/expand"
  top: "conv4_4/expand"
  param {
    lr_mult: 1
    decay_mult: 0
  }
  param {
    lr_mult: 1
    decay_mult: 0
  }
  scale_param {
    bias_term: true
  }
}
layer {
  name: "relu4_4/expand"
  type: "ReLU"
  bottom: "conv4_4/expand"
  top: "conv4_4/expand"
}
layer {
  name: "conv4_4/dwise"
  type: "DepthwiseConvolution"
  bottom: "conv4_4/expand"
  top: "conv4_4/dwise"
  param {
    lr_mult: 1
    decay_mult: 1
  }
  convolution_param {
    num_output: 384
    bias_term: false
    pad: 1
    kernel_size: 3
    group: 384
    stride: 1
    weight_filler {
      type: "msra"
    }
  }
}
layer {
  name: "conv4_4/dwise/bn"
  type: "BatchNorm"
  bottom: "conv4_4/dwise"
  top: "conv4_4/dwise"
  batch_norm_param {
    use_global_stats: true
    eps: 1e-05
  }
}
layer {
  name: "conv4_4/dwise/scale"
  type: "Scale"
  bottom: "conv4_4/dwise"
  top: "conv4_4/dwise"
  param {
    lr_mult: 1
    decay_mult: 0
  }
  param {
    lr_mult: 1
    decay_mult: 0
  }
  scale_param {
    bias_term: true
  }
}
layer {
  name: "relu4_4/dwise"
  type: "ReLU"
  bottom: "conv4_4/dwise"
  top: "conv4_4/dwise"
}
layer {
  name: "conv4_4/linear"
  type: "Convolution"
  bottom: "conv4_4/dwise"
  top: "conv4_4/linear"
  param {
    lr_mult: 1
    decay_mult: 1
  }
  convolution_param {
    num_output: 64
    bias_term: false
    kernel_size: 1
    weight_filler {
      type: "msra"
    }
  }
}
layer {
  name: "conv4_4/linear/bn"
  type: "BatchNorm"
  bottom: "conv4_4/linear"
  top: "conv4_4/linear"
  batch_norm_param {
    use_global_stats: true
    eps: 1e-05
  }
}
layer {
  name: "conv4_4/linear/scale"
  type: "Scale"
  bottom: "conv4_4/linear"
  top: "conv4_4/linear"
  param {
    lr_mult: 1
    decay_mult: 0
  }
  param {
    lr_mult: 1
    decay_mult: 0
  }
  scale_param {
    bias_term: true
  }
}
layer {
  name: "block_4_4"
  type: "Eltwise"
  bottom: "conv4_3/linear"
  bottom: "conv4_4/linear"
  top: "block_4_4"
}
layer {
  name: "conv4_5/expand"
  type: "Convolution"
  bottom: "block_4_4"
  top: "conv4_5/expand"
  param {
    lr_mult: 1
    decay_mult: 1
  }
  convolution_param {
    num_output: 384
    bias_term: false
    kernel_size: 1
    weight_filler {
      type: "msra"
    }
  }
}
layer {
  name: "conv4_5/expand/bn"
  type: "BatchNorm"
  bottom: "conv4_5/expand"
  top: "conv4_5/expand"
  batch_norm_param {
    use_global_stats: true
    eps: 1e-05
  }
}
layer {
  name: "conv4_5/expand/scale"
  type: "Scale"
  bottom: "conv4_5/expand"
  top: "conv4_5/expand"
  param {
    lr_mult: 1
    decay_mult: 0
  }
  param {
    lr_mult: 1
    decay_mult: 0
  }
  scale_param {
    bias_term: true
  }
}
layer {
  name: "relu4_5/expand"
  type: "ReLU"
  bottom: "conv4_5/expand"
  top: "conv4_5/expand"
}
layer {
  name: "conv4_5/dwise"
  type: "DepthwiseConvolution"
  bottom: "conv4_5/expand"
  top: "conv4_5/dwise"
  param {
    lr_mult: 1
    decay_mult: 1
  }
  convolution_param {
    num_output: 384
    bias_term: false
    pad: 1
    kernel_size: 3
    group: 384
    stride: 1
    weight_filler {
      type: "msra"
    }
  }
}
layer {
  name: "conv4_5/dwise/bn"
  type: "BatchNorm"
  bottom: "conv4_5/dwise"
  top: "conv4_5/dwise"
  batch_norm_param {
    use_global_stats: true
    eps: 1e-05
  }
}
layer {
  name: "conv4_5/dwise/scale"
  type: "Scale"
  bottom: "conv4_5/dwise"
  top: "conv4_5/dwise"
  param {
    lr_mult: 1
    decay_mult: 0
  }
  param {
    lr_mult: 1
    decay_mult: 0
  }
  scale_param {
    bias_term: true
  }
}
layer {
  name: "relu4_5/dwise"
  type: "ReLU"
  bottom: "conv4_5/dwise"
  top: "conv4_5/dwise"
}
layer {
  name: "conv4_5/linear"
  type: "Convolution"
  bottom: "conv4_5/dwise"
  top: "conv4_5/linear"
  param {
    lr_mult: 1
    decay_mult: 1
  }
  convolution_param {
    num_output: 64
    bias_term: false
    kernel_size: 1
    weight_filler {
      type: "msra"
    }
  }
}
layer {
  name: "conv4_5/linear/bn"
  type: "BatchNorm"
  bottom: "conv4_5/linear"
  top: "conv4_5/linear"
  batch_norm_param {
    use_global_stats: true
    eps: 1e-05
  }
}
layer {
  name: "conv4_5/linear/scale"
  type: "Scale"
  bottom: "conv4_5/linear"
  top: "conv4_5/linear"
  param {
    lr_mult: 1
    decay_mult: 0
  }
  param {
    lr_mult: 1
    decay_mult: 0
  }
  scale_param {
    bias_term: true
  }
}
layer {
  name: "block_4_5"
  type: "Eltwise"
  bottom: "block_4_4"
  bottom: "conv4_5/linear"
  top: "block_4_5"
}
layer {
  name: "conv4_6/expand"
  type: "Convolution"
  bottom: "block_4_5"
  top: "conv4_6/expand"
  param {
    lr_mult: 1
    decay_mult: 1
  }
  convolution_param {
    num_output: 384
    bias_term: false
    kernel_size: 1
    weight_filler {
      type: "msra"
    }
  }
}
layer {
  name: "conv4_6/expand/bn"
  type: "BatchNorm"
  bottom: "conv4_6/expand"
  top: "conv4_6/expand"
  batch_norm_param {
    use_global_stats: true
    eps: 1e-05
  }
}
layer {
  name: "conv4_6/expand/scale"
  type: "Scale"
  bottom: "conv4_6/expand"
  top: "conv4_6/expand"
  param {
    lr_mult: 1
    decay_mult: 0
  }
  param {
    lr_mult: 1
    decay_mult: 0
  }
  scale_param {
    bias_term: true
  }
}
layer {
  name: "relu4_6/expand"
  type: "ReLU"
  bottom: "conv4_6/expand"
  top: "conv4_6/expand"
}
layer {
  name: "conv4_6/dwise"
  type: "DepthwiseConvolution"
  bottom: "conv4_6/expand"
  top: "conv4_6/dwise"
  param {
    lr_mult: 1
    decay_mult: 1
  }
  convolution_param {
    num_output: 384
    bias_term: false
    pad: 1
    kernel_size: 3
    group: 384
    stride: 1
    weight_filler {
      type: "msra"
    }
  }
}
layer {
  name: "conv4_6/dwise/bn"
  type: "BatchNorm"
  bottom: "conv4_6/dwise"
  top: "conv4_6/dwise"
  batch_norm_param {
    use_global_stats: true
    eps: 1e-05
  }
}
layer {
  name: "conv4_6/dwise/scale"
  type: "Scale"
  bottom: "conv4_6/dwise"
  top: "conv4_6/dwise"
  param {
    lr_mult: 1
    decay_mult: 0
  }
  param {
    lr_mult: 1
    decay_mult: 0
  }
  scale_param {
    bias_term: true
  }
}
layer {
  name: "relu4_6/dwise"
  type: "ReLU"
  bottom: "conv4_6/dwise"
  top: "conv4_6/dwise"
}
layer {
  name: "conv4_6/linear"
  type: "Convolution"
  bottom: "conv4_6/dwise"
  top: "conv4_6/linear"
  param {
    lr_mult: 1
    decay_mult: 1
  }
  convolution_param {
    num_output: 64
    bias_term: false
    kernel_size: 1
    weight_filler {
      type: "msra"
    }
  }
}
layer {
  name: "conv4_6/linear/bn"
  type: "BatchNorm"
  bottom: "conv4_6/linear"
  top: "conv4_6/linear"
  batch_norm_param {
    use_global_stats: true
    eps: 1e-05
  }
}
layer {
  name: "conv4_6/linear/scale"
  type: "Scale"
  bottom: "conv4_6/linear"
  top: "conv4_6/linear"
  param {
    lr_mult: 1
    decay_mult: 0
  }
  param {
    lr_mult: 1
    decay_mult: 0
  }
  scale_param {
    bias_term: true
  }
}
layer {
  name: "block_4_6"
  type: "Eltwise"
  bottom: "block_4_5"
  bottom: "conv4_6/linear"
  top: "block_4_6"
}
layer {
  name: "conv4_7/expand"
  type: "Convolution"
  bottom: "block_4_6"
  top: "conv4_7/expand"
  param {
    lr_mult: 1
    decay_mult: 1
  }
  convolution_param {
    num_output: 384
    bias_term: false
    kernel_size: 1
    weight_filler {
      type: "msra"
    }
  }
}
layer {
  name: "conv4_7/expand/bn"
  type: "BatchNorm"
  bottom: "conv4_7/expand"
  top: "conv4_7/expand"
  batch_norm_param {
    use_global_stats: true
    eps: 1e-05
  }
}
layer {
  name: "conv4_7/expand/scale"
  type: "Scale"
  bottom: "conv4_7/expand"
  top: "conv4_7/expand"
  param {
    lr_mult: 1
    decay_mult: 0
  }
  param {
    lr_mult: 1
    decay_mult: 0
  }
  scale_param {
    bias_term: true
  }
}
layer {
  name: "relu4_7/expand"
  type: "ReLU"
  bottom: "conv4_7/expand"
  top: "conv4_7/expand"
}
layer {
  name: "conv4_7/dwise"
  type: "DepthwiseConvolution"
  bottom: "conv4_7/expand"
  top: "conv4_7/dwise"
  param {
    lr_mult: 1
    decay_mult: 1
  }
  convolution_param {
    num_output: 384
    bias_term: false
    pad: 1
    kernel_size: 3
    group: 384
    stride: 2
    weight_filler {
      type: "msra"
    }
  }
}
layer {
  name: "conv4_7/dwise/bn"
  type: "BatchNorm"
  bottom: "conv4_7/dwise"
  top: "conv4_7/dwise"
  batch_norm_param {
    use_global_stats: true
    eps: 1e-05
  }
}
layer {
  name: "conv4_7/dwise/scale"
  type: "Scale"
  bottom: "conv4_7/dwise"
  top: "conv4_7/dwise"
  param {
    lr_mult: 1
    decay_mult: 0
  }
  param {
    lr_mult: 1
    decay_mult: 0
  }
  scale_param {
    bias_term: true
  }
}
layer {
  name: "relu4_7/dwise"
  type: "ReLU"
  bottom: "conv4_7/dwise"
  top: "conv4_7/dwise"
}
layer {
  name: "conv4_7/linear"
  type: "Convolution"
  bottom: "conv4_7/dwise"
  top: "conv4_7/linear"
  param {
    lr_mult: 1
    decay_mult: 1
  }
  convolution_param {
    num_output: 96
    bias_term: false
    kernel_size: 1
    weight_filler {
      type: "msra"
    }
  }
}
layer {
  name: "conv4_7/linear/bn"
  type: "BatchNorm"
  bottom: "conv4_7/linear"
  top: "conv4_7/linear"
  batch_norm_param {
    use_global_stats: true
    eps: 1e-05
  }
}
layer {
  name: "conv4_7/linear/scale"
  type: "Scale"
  bottom: "conv4_7/linear"
  top: "conv4_7/linear"
  param {
    lr_mult: 1
    decay_
I0930 10:54:30.251209 29063 layer_factory.hpp:77] Creating layer data
I0930 10:54:30.251310 29063 net.cpp:100] Creating Layer data
I0930 10:54:30.251317 29063 net.cpp:408] data -> data
I0930 10:54:30.251340 29063 net.cpp:408] data -> label
I0930 10:54:30.251843 29071 db_lmdb.cpp:35] Opened lmdb examples/GTSDB/GTSDB_trainval_lmdb
I0930 10:54:30.264328 29063 annotated_data_layer.cpp:62] output data size: 1,3,300,510
I0930 10:54:30.267206 29063 net.cpp:150] Setting up data
I0930 10:54:30.267236 29063 net.cpp:157] Top shape: 1 3 300 510 (459000)
I0930 10:54:30.267241 29063 net.cpp:157] Top shape: 1 1 3 8 (24)
I0930 10:54:30.267242 29063 net.cpp:165] Memory required for data: 1836096
I0930 10:54:30.267249 29063 layer_factory.hpp:77] Creating layer data_data_0_split
I0930 10:54:30.267257 29063 net.cpp:100] Creating Layer data_data_0_split
I0930 10:54:30.267261 29063 net.cpp:434] data_data_0_split <- data
I0930 10:54:30.267271 29063 net.cpp:408] data_data_0_split -> data_data_0_split_0
I0930 10:54:30.267279 29063 net.cpp:408] data_data_0_split -> data_data_0_split_1
I0930 10:54:30.267284 29063 net.cpp:408] data_data_0_split -> data_data_0_split_2
I0930 10:54:30.267288 29063 net.cpp:408] data_data_0_split -> data_data_0_split_3
I0930 10:54:30.267292 29063 net.cpp:408] data_data_0_split -> data_data_0_split_4
I0930 10:54:30.267297 29063 net.cpp:408] data_data_0_split -> data_data_0_split_5
I0930 10:54:30.267299 29063 net.cpp:408] data_data_0_split -> data_data_0_split_6
I0930 10:54:30.267371 29063 net.cpp:150] Setting up data_data_0_split
I0930 10:54:30.267376 29063 net.cpp:157] Top shape: 1 3 300 510 (459000)
I0930 10:54:30.267379 29063 net.cpp:157] Top shape: 1 3 300 510 (459000)
I0930 10:54:30.267381 29063 net.cpp:157] Top shape: 1 3 300 510 (459000)
I0930 10:54:30.267385 29063 net.cpp:157] Top shape: 1 3 300 510 (459000)
I0930 10:54:30.267387 29063 net.cpp:157] Top shape: 1 3 300 510 (459000)
I0930 10:54:30.267390 29063 net.cpp:157] Top shape: 1 3 300 510 (459000)
I0930 10:54:30.267393 29063 net.cpp:157] Top shape: 1 3 300 510 (459000)
I0930 10:54:30.267396 29063 net.cpp:165] Memory required for data: 14688096
I0930 10:54:30.267398 29063 layer_factory.hpp:77] Creating layer conv1
I0930 10:54:30.267412 29063 net.cpp:100] Creating Layer conv1
I0930 10:54:30.267416 29063 net.cpp:434] conv1 <- data_data_0_split_0
I0930 10:54:30.267419 29063 net.cpp:408] conv1 -> conv1
I0930 10:54:30.582643 29063 net.cpp:150] Setting up conv1
I0930 10:54:30.582661 29063 net.cpp:157] Top shape: 1 32 150 255 (1224000)
I0930 10:54:30.582664 29063 net.cpp:165] Memory required for data: 19584096
I0930 10:54:30.582679 29063 layer_factory.hpp:77] Creating layer conv1/bn
I0930 10:54:30.582690 29063 net.cpp:100] Creating Layer conv1/bn
I0930 10:54:30.582691 29063 net.cpp:434] conv1/bn <- conv1
I0930 10:54:30.582695 29063 net.cpp:395] conv1/bn -> conv1 (in-place)
I0930 10:54:30.583266 29063 net.cpp:150] Setting up conv1/bn
I0930 10:54:30.583274 29063 net.cpp:157] Top shape: 1 32 150 255 (1224000)
I0930 10:54:30.583276 29063 net.cpp:165] Memory required for data: 24480096
I0930 10:54:30.583283 29063 layer_factory.hpp:77] Creating layer conv1/scale
I0930 10:54:30.583289 29063 net.cpp:100] Creating Layer conv1/scale
I0930 10:54:30.583292 29063 net.cpp:434] conv1/scale <- conv1
I0930 10:54:30.583294 29063 net.cpp:395] conv1/scale -> conv1 (in-place)
I0930 10:54:30.583320 29063 layer_factory.hpp:77] Creating layer conv1/scale
I0930 10:54:30.583403 29063 net.cpp:150] Setting up conv1/scale
I0930 10:54:30.583408 29063 net.cpp:157] Top shape: 1 32 150 255 (1224000)
I0930 10:54:30.583410 29063 net.cpp:165] Memory required for data: 29376096
I0930 10:54:30.583415 29063 layer_factory.hpp:77] Creating layer relu1
I0930 10:54:30.583417 29063 net.cpp:100] Creating Layer relu1
I0930 10:54:30.583420 29063 net.cpp:434] relu1 <- conv1
I0930 10:54:30.583421 29063 net.cpp:395] relu1 -> conv1 (in-place)
I0930 10:54:30.583653 29063 net.cpp:150] Setting up relu1
I0930 10:54:30.583658 29063 net.cpp:157] Top shape: 1 32 150 255 (1224000)
I0930 10:54:30.583660 29063 net.cpp:165] Memory required for data: 34272096
I0930 10:54:30.583663 29063 layer_factory.hpp:77] Creating layer conv2_1/expand
I0930 10:54:30.583668 29063 net.cpp:100] Creating Layer conv2_1/expand
I0930 10:54:30.583669 29063 net.cpp:434] conv2_1/expand <- conv1
I0930 10:54:30.583673 29063 net.cpp:408] conv2_1/expand -> conv2_1/expand
I0930 10:54:30.584642 29063 net.cpp:150] Setting up conv2_1/expand
I0930 10:54:30.584650 29063 net.cpp:157] Top shape: 1 32 150 255 (1224000)
I0930 10:54:30.584651 29063 net.cpp:165] Memory required for data: 39168096
I0930 10:54:30.584655 29063 layer_factory.hpp:77] Creating layer conv2_1/expand/bn
I0930 10:54:30.584659 29063 net.cpp:100] Creating Layer conv2_1/expand/bn
I0930 10:54:30.584661 29063 net.cpp:434] conv2_1/expand/bn <- conv2_1/expand
I0930 10:54:30.584663 29063 net.cpp:395] conv2_1/expand/bn -> conv2_1/expand (in-place)
I0930 10:54:30.584779 29063 net.cpp:150] Setting up conv2_1/expand/bn
I0930 10:54:30.584784 29063 net.cpp:157] Top shape: 1 32 150 255 (1224000)
I0930 10:54:30.584785 29063 net.cpp:165] Memory required for data: 44064096
I0930 10:54:30.584790 29063 layer_factory.hpp:77] Creating layer conv2_1/expand/scale
I0930 10:54:30.584794 29063 net.cpp:100] Creating Layer conv2_1/expand/scale
I0930 10:54:30.584796 29063 net.cpp:434] conv2_1/expand/scale <- conv2_1/expand
I0930 10:54:30.584800 29063 net.cpp:395] conv2_1/expand/scale -> conv2_1/expand (in-place)
I0930 10:54:30.584820 29063 layer_factory.hpp:77] Creating layer conv2_1/expand/scale
I0930 10:54:30.584913 29063 net.cpp:150] Setting up conv2_1/expand/scale
I0930 10:54:30.584918 29063 net.cpp:157] Top shape: 1 32 150 255 (1224000)
I0930 10:54:30.584919 29063 net.cpp:165] Memory required for data: 48960096
I0930 10:54:30.584923 29063 layer_factory.hpp:77] Creating layer relu2_1/expand
I0930 10:54:30.584925 29063 net.cpp:100] Creating Layer relu2_1/expand
I0930 10:54:30.584928 29063 net.cpp:434] relu2_1/expand <- conv2_1/expand
I0930 10:54:30.584929 29063 net.cpp:395] relu2_1/expand -> conv2_1/expand (in-place)
I0930 10:54:30.585184 29063 net.cpp:150] Setting up relu2_1/expand
I0930 10:54:30.585189 29063 net.cpp:157] Top shape: 1 32 150 255 (1224000)
I0930 10:54:30.585191 29063 net.cpp:165] Memory required for data: 53856096
I0930 10:54:30.585193 29063 layer_factory.hpp:77] Creating layer conv2_1/dwise
I0930 10:54:30.585197 29063 net.cpp:100] Creating Layer conv2_1/dwise
I0930 10:54:30.585199 29063 net.cpp:434] conv2_1/dwise <- conv2_1/expand
I0930 10:54:30.585202 29063 net.cpp:408] conv2_1/dwise -> conv2_1/dwise
I0930 10:54:30.585319 29063 net.cpp:150] Setting up conv2_1/dwise
I0930 10:54:30.585324 29063 net.cpp:157] Top shape: 1 32 150 255 (1224000)
I0930 10:54:30.585325 29063 net.cpp:165] Memory required for data: 58752096
I0930 10:54:30.585327 29063 layer_factory.hpp:77] Creating layer conv2_1/dwise/bn
I0930 10:54:30.585331 29063 net.cpp:100] Creating Layer conv2_1/dwise/bn
I0930 10:54:30.585333 29063 net.cpp:434] conv2_1/dwise/bn <- conv2_1/dwise
I0930 10:54:30.585335 29063 net.cpp:395] conv2_1/dwise/bn -> conv2_1/dwise (in-place)
I0930 10:54:30.585455 29063 net.cpp:150] Setting up conv2_1/dwise/bn
I0930 10:54:30.585458 29063 net.cpp:157] Top shape: 1 32 150 255 (1224000)
I0930 10:54:30.585460 29063 net.cpp:165] Memory required for data: 63648096
I0930 10:54:30.585464 29063 layer_factory.hpp:77] Creating layer conv2_1/dwise/scale
I0930 10:54:30.585466 29063 net.cpp:100] Creating Layer conv2_1/dwise/scale
I0930 10:54:30.585469 29063 net.cpp:434] conv2_1/dwise/scale <- conv2_1/dwise
I0930 10:54:30.585471 29063 net.cpp:395] conv2_1/dwise/scale -> conv2_1/dwise (in-place)
I0930 10:54:30.585492 29063 layer_factory.hpp:77] Creating layer conv2_1/dwise/scale
I0930 10:54:30.585577 29063 net.cpp:150] Setting up conv2_1/dwise/scale
I0930 10:54:30.585580 29063 net.cpp:157] Top shape: 1 32 150 255 (1224000)
I0930 10:54:30.585582 29063 net.cpp:165] Memory required for data: 68544096
I0930 10:54:30.585588 29063 layer_factory.hpp:77] Creating layer relu2_1/dwise
I0930 10:54:30.585592 29063 net.cpp:100] Creating Layer relu2_1/dwise
I0930 10:54:30.585593 29063 net.cpp:434] relu2_1/dwise <- conv2_1/dwise
I0930 10:54:30.585597 29063 net.cpp:395] relu2_1/dwise -> conv2_1/dwise (in-place)
I0930 10:54:30.585856 29063 net.cpp:150] Setting up relu2_1/dwise
I0930 10:54:30.585862 29063 net.cpp:157] Top shape: 1 32 150 255 (1224000)
I0930 10:54:30.585865 29063 net.cpp:165] Memory required for data: 73440096
I0930 10:54:30.585866 29063 layer_factory.hpp:77] Creating layer conv2_1/linear
I0930 10:54:30.585871 29063 net.cpp:100] Creating Layer conv2_1/linear
I0930 10:54:30.585873 29063 net.cpp:434] conv2_1/linear <- conv2_1/dwise
I0930 10:54:30.585876 29063 net.cpp:408] conv2_1/linear -> conv2_1/linear
I0930 10:54:30.586973 29063 net.cpp:150] Setting up conv2_1/linear
I0930 10:54:30.586980 29063 net.cpp:157] Top shape: 1 16 150 255 (612000)
I0930 10:54:30.586982 29063 net.cpp:165] Memory required for data: 75888096
I0930 10:54:30.586985 29063 layer_factory.hpp:77] Creating layer conv2_1/linear/bn
I0930 10:54:30.586989 29063 net.cpp:100] Creating Layer conv2_1/linear/bn
I0930 10:54:30.586992 29063 net.cpp:434] conv2_1/linear/bn <- conv2_1/linear
I0930 10:54:30.586994 29063 net.cpp:395] conv2_1/linear/bn -> conv2_1/linear (in-place)
I0930 10:54:30.587119 29063 net.cpp:150] Setting up conv2_1/linear/bn
I0930 10:54:30.587123 29063 net.cpp:157] Top shape: 1 16 150 255 (612000)
I0930 10:54:30.587126 29063 net.cpp:165] Memory required for data: 78336096
I0930 10:54:30.587129 29063 layer_factory.hpp:77] Creating layer conv2_1/linear/scale
I0930 10:54:30.587141 29063 net.cpp:100] Creating Layer conv2_1/linear/scale
I0930 10:54:30.587143 29063 net.cpp:434] conv2_1/linear/scale <- conv2_1/linear
I0930 10:54:30.587146 29063 net.cpp:395] conv2_1/linear/scale -> conv2_1/linear (in-place)
I0930 10:54:30.587170 29063 layer_factory.hpp:77] Creating layer conv2_1/linear/scale
I0930 10:54:30.587260 29063 net.cpp:150] Setting up conv2_1/linear/scale
I0930 10:54:30.587265 29063 net.cpp:157] Top shape: 1 16 150 255 (612000)
I0930 10:54:30.587266 29063 net.cpp:165] Memory required for data: 80784096
I0930 10:54:30.587270 29063 layer_factory.hpp:77] Creating layer conv2_2/expand
I0930 10:54:30.587273 29063 net.cpp:100] Creating Layer conv2_2/expand
I0930 10:54:30.587275 29063 net.cpp:434] conv2_2/expand <- conv2_1/linear
I0930 10:54:30.587278 29063 net.cpp:408] conv2_2/expand -> conv2_2/expand
I0930 10:54:30.588819 29063 net.cpp:150] Setting up conv2_2/expand
I0930 10:54:30.588825 29063 net.cpp:157] Top shape: 1 96 150 255 (3672000)
I0930 10:54:30.588829 29063 net.cpp:165] Memory required for data: 95472096
I0930 10:54:30.588831 29063 layer_factory.hpp:77] Creating layer conv2_2/expand/bn
I0930 10:54:30.588835 29063 net.cpp:100] Creating Layer conv2_2/expand/bn
I0930 10:54:30.588837 29063 net.cpp:434] conv2_2/expand/bn <- conv2_2/expand
I0930 10:54:30.588841 29063 net.cpp:395] conv2_2/expand/bn -> conv2_2/expand (in-place)
I0930 10:54:30.588971 29063 net.cpp:150] Setting up conv2_2/expand/bn
I0930 10:54:30.588975 29063 net.cpp:157] Top shape: 1 96 150 255 (3672000)
I0930 10:54:30.588977 29063 net.cpp:165] Memory required for data: 110160096
I0930 10:54:30.588981 29063 layer_factory.hpp:77] Creating layer conv2_2/expand/scale
I0930 10:54:30.588984 29063 net.cpp:100] Creating Layer conv2_2/expand/scale
I0930 10:54:30.588986 29063 net.cpp:434] conv2_2/expand/scale <- conv2_2/expand
I0930 10:54:30.588989 29063 net.cpp:395] conv2_2/expand/scale -> conv2_2/expand (in-place)
I0930 10:54:30.589012 29063 layer_factory.hpp:77] Creating layer conv2_2/expand/scale
I0930 10:54:30.589514 29063 net.cpp:150] Setting up conv2_2/expand/scale
I0930 10:54:30.589520 29063 net.cpp:157] Top shape: 1 96 150 255 (3672000)
I0930 10:54:30.589522 29063 net.cpp:165] Memory required for data: 124848096
I0930 10:54:30.589526 29063 layer_factory.hpp:77] Creating layer relu2_2/expand
I0930 10:54:30.589530 29063 net.cpp:100] Creating Layer relu2_2/expand
I0930 10:54:30.589532 29063 net.cpp:434] relu2_2/expand <- conv2_2/expand
I0930 10:54:30.589534 29063 net.cpp:395] relu2_2/expand -> conv2_2/expand (in-place)
I0930 10:54:30.589799 29063 net.cpp:150] Setting up relu2_2/expand
I0930 10:54:30.589805 29063 net.cpp:157] Top shape: 1 96 150 255 (3672000)
I0930 10:54:30.589807 29063 net.cpp:165] Memory required for data: 139536096
I0930 10:54:30.589809 29063 layer_factory.hpp:77] Creating layer conv2_2/dwise
I0930 10:54:30.589814 29063 net.cpp:100] Creating Layer conv2_2/dwise
I0930 10:54:30.589817 29063 net.cpp:434] conv2_2/dwise <- conv2_2/expand
I0930 10:54:30.589818 29063 net.cpp:408] conv2_2/dwise -> conv2_2/dwise
I0930 10:54:30.589942 29063 net.cpp:150] Setting up conv2_2/dwise
I0930 10:54:30.589947 29063 net.cpp:157] Top shape: 1 96 75 128 (921600)
I0930 10:54:30.589948 29063 net.cpp:165] Memory required for data: 143222496
I0930 10:54:30.589951 29063 layer_factory.hpp:77] Creating layer conv2_2/dwise/bn
I0930 10:54:30.589954 29063 net.cpp:100] Creating Layer conv2_2/dwise/bn
I0930 10:54:30.589957 29063 net.cpp:434] conv2_2/dwise/bn <- conv2_2/dwise
I0930 10:54:30.589959 29063 net.cpp:395] conv2_2/dwise/bn -> conv2_2/dwise (in-place)
I0930 10:54:30.590485 29063 net.cpp:150] Setting up conv2_2/dwise/bn
I0930 10:54:30.590492 29063 net.cpp:157] Top shape: 1 96 75 128 (921600)
I0930 10:54:30.590493 29063 net.cpp:165] Memory required for data: 146908896
I0930 10:54:30.590500 29063 layer_factory.hpp:77] Creating layer conv2_2/dwise/scale
I0930 10:54:30.590505 29063 net.cpp:100] Creating Layer conv2_2/dwise/scale
I0930 10:54:30.590507 29063 net.cpp:434] conv2_2/dwise/scale <- conv2_2/dwise
I0930 10:54:30.590519 29063 net.cpp:395] conv2_2/dwise/scale -> conv2_2/dwise (in-place)
I0930 10:54:30.590544 29063 layer_factory.hpp:77] Creating layer conv2_2/dwise/scale
I0930 10:54:30.590612 29063 net.cpp:150] Setting up conv2_2/dwise/scale
I0930 10:54:30.590616 29063 net.cpp:157] Top shape: 1 96 75 128 (921600)
I0930 10:54:30.590618 29063 net.cpp:165] Memory required for data: 150595296
I0930 10:54:30.590621 29063 layer_factory.hpp:77] Creating layer relu2_2/dwise
I0930 10:54:30.590625 29063 net.cpp:100] Creating Layer relu2_2/dwise
I0930 10:54:30.590626 29063 net.cpp:434] relu2_2/dwise <- conv2_2/dwise
I0930 10:54:30.590629 29063 net.cpp:395] relu2_2/dwise -> conv2_2/dwise (in-place)
I0930 10:54:30.590996 29063 net.cpp:150] Setting up relu2_2/dwise
I0930 10:54:30.591002 29063 net.cpp:157] Top shape: 1 96 75 128 (921600)
I0930 10:54:30.591003 29063 net.cpp:165] Memory required for data: 154281696
I0930 10:54:30.591006 29063 layer_factory.hpp:77] Creating layer conv2_2/linear
I0930 10:54:30.591012 29063 net.cpp:100] Creating Layer conv2_2/linear
I0930 10:54:30.591013 29063 net.cpp:434] conv2_2/linear <- conv2_2/dwise
I0930 10:54:30.591017 29063 net.cpp:408] conv2_2/linear -> conv2_2/linear
I0930 10:54:30.592154 29063 net.cpp:150] Setting up conv2_2/linear
I0930 10:54:30.592161 29063 net.cpp:157] Top shape: 1 24 75 128 (230400)
I0930 10:54:30.592162 29063 net.cpp:165] Memory required for data: 155203296
I0930 10:54:30.592166 29063 layer_factory.hpp:77] Creating layer conv2_2/linear/bn
I0930 10:54:30.592170 29063 net.cpp:100] Creating Layer conv2_2/linear/bn
I0930 10:54:30.592171 29063 net.cpp:434] conv2_2/linear/bn <- conv2_2/linear
I0930 10:54:30.592175 29063 net.cpp:395] conv2_2/linear/bn -> conv2_2/linear (in-place)
I0930 10:54:30.592298 29063 net.cpp:150] Setting up conv2_2/linear/bn
I0930 10:54:30.592301 29063 net.cpp:157] Top shape: 1 24 75 128 (230400)
I0930 10:54:30.592303 29063 net.cpp:165] Memory required for data: 156124896
I0930 10:54:30.592306 29063 layer_factory.hpp:77] Creating layer conv2_2/linear/scale
I0930 10:54:30.592309 29063 net.cpp:100] Creating Layer conv2_2/linear/scale
I0930 10:54:30.592311 29063 net.cpp:434] conv2_2/linear/scale <- conv2_2/linear
I0930 10:54:30.592314 29063 net.cpp:395] conv2_2/linear/scale -> conv2_2/linear (in-place)
I0930 10:54:30.592336 29063 layer_factory.hpp:77] Creating layer conv2_2/linear/scale
I0930 10:54:30.592403 29063 net.cpp:150] Setting up conv2_2/linear/scale
I0930 10:54:30.592406 29063 net.cpp:157] Top shape: 1 24 75 128 (230400)
I0930 10:54:30.592408 29063 net.cpp:165] Memory required for data: 157046496
I0930 10:54:30.592411 29063 layer_factory.hpp:77] Creating layer conv2_2/linear_conv2_2/linear/scale_0_split
I0930 10:54:30.592414 29063 net.cpp:100] Creating Layer conv2_2/linear_conv2_2/linear/scale_0_split
I0930 10:54:30.592417 29063 net.cpp:434] conv2_2/linear_conv2_2/linear/scale_0_split <- conv2_2/linear
I0930 10:54:30.592420 29063 net.cpp:408] conv2_2/linear_conv2_2/linear/scale_0_split -> conv2_2/linear_conv2_2/linear/scale_0_split_0
I0930 10:54:30.592425 29063 net.cpp:408] conv2_2/linear_conv2_2/linear/scale_0_split -> conv2_2/linear_conv2_2/linear/scale_0_split_1
I0930 10:54:30.592447 29063 net.cpp:150] Setting up conv2_2/linear_conv2_2/linear/scale_0_split
I0930 10:54:30.592452 29063 net.cpp:157] Top shape: 1 24 75 128 (230400)
I0930 10:54:30.592453 29063 net.cpp:157] Top shape: 1 24 75 128 (230400)
I0930 10:54:30.592455 29063 net.cpp:165] Memory required for data: 158889696
I0930 10:54:30.592456 29063 layer_factory.hpp:77] Creating layer conv3_1/expand
I0930 10:54:30.592461 29063 net.cpp:100] Creating Layer conv3_1/expand
I0930 10:54:30.592463 29063 net.cpp:434] conv3_1/expand <- conv2_2/linear_conv2_2/linear/scale_0_split_0
I0930 10:54:30.592466 29063 net.cpp:408] conv3_1/expand -> conv3_1/expand
I0930 10:54:30.593488 29063 net.cpp:150] Setting up conv3_1/expand
I0930 10:54:30.593495 29063 net.cpp:157] Top shape: 1 144 75 128 (1382400)
I0930 10:54:30.593498 29063 net.cpp:165] Memory required for data: 164419296
I0930 10:54:30.593502 29063 layer_factory.hpp:77] Creating layer conv3_1/expand/bn
I0930 10:54:30.593513 29063 net.cpp:100] Creating Layer conv3_1/expand/bn
I0930 10:54:30.593515 29063 net.cpp:434] conv3_1/expand/bn <- conv3_1/expand
I0930 10:54:30.593518 29063 net.cpp:395] conv3_1/expand/bn -> conv3_1/expand (in-place)
I0930 10:54:30.593638 29063 net.cpp:150] Setting up conv3_1/expand/bn
I0930 10:54:30.593642 29063 net.cpp:157] Top shape: 1 144 75 128 (1382400)
I0930 10:54:30.593644 29063 net.cpp:165] Memory required for data: 169948896
I0930 10:54:30.593648 29063 layer_factory.hpp:77] Creating layer conv3_1/expand/scale
I0930 10:54:30.593653 29063 net.cpp:100] Creating Layer conv3_1/expand/scale
I0930 10:54:30.593655 29063 net.cpp:434] conv3_1/expand/scale <- conv3_1/expand
I0930 10:54:30.593658 29063 net.cpp:395] conv3_1/expand/scale -> conv3_1/expand (in-place)
I0930 10:54:30.593683 29063 layer_factory.hpp:77] Creating layer conv3_1/expand/scale
I0930 10:54:30.593749 29063 net.cpp:150] Setting up conv3_1/expand/scale
I0930 10:54:30.593753 29063 net.cpp:157] Top shape: 1 144 75 128 (1382400)
I0930 10:54:30.593755 29063 net.cpp:165] Memory required for data: 175478496
I0930 10:54:30.593758 29063 layer_factory.hpp:77] Creating layer relu3_1/expand
I0930 10:54:30.593766 29063 net.cpp:100] Creating Layer relu3_1/expand
I0930 10:54:30.593768 29063 net.cpp:434] relu3_1/expand <- conv3_1/expand
I0930 10:54:30.593771 29063 net.cpp:395] relu3_1/expand -> conv3_1/expand (in-place)
I0930 10:54:30.594030 29063 net.cpp:150] Setting up relu3_1/expand
I0930 10:54:30.594036 29063 net.cpp:157] Top shape: 1 144 75 128 (1382400)
I0930 10:54:30.594038 29063 net.cpp:165] Memory required for data: 181008096
I0930 10:54:30.594040 29063 layer_factory.hpp:77] Creating layer conv3_1/dwise
I0930 10:54:30.594045 29063 net.cpp:100] Creating Layer conv3_1/dwise
I0930 10:54:30.594048 29063 net.cpp:434] conv3_1/dwise <- conv3_1/expand
I0930 10:54:30.594050 29063 net.cpp:408] conv3_1/dwise -> conv3_1/dwise
I0930 10:54:30.594177 29063 net.cpp:150] Setting up conv3_1/dwise
I0930 10:54:30.594182 29063 net.cpp:157] Top shape: 1 144 75 128 (1382400)
I0930 10:54:30.594183 29063 net.cpp:165] Memory required for data: 186537696
I0930 10:54:30.594187 29063 layer_factory.hpp:77] Creating layer conv3_1/dwise/bn
I0930 10:54:30.594190 29063 net.cpp:100] Creating Layer conv3_1/dwise/bn
I0930 10:54:30.594192 29063 net.cpp:434] conv3_1/dwise/bn <- conv3_1/dwise
I0930 10:54:30.594195 29063 net.cpp:395] conv3_1/dwise/bn -> conv3_1/dwise (in-place)
I0930 10:54:30.594332 29063 net.cpp:150] Setting up conv3_1/dwise/bn
I0930 10:54:30.594337 29063 net.cpp:157] Top shape: 1 144 75 128 (1382400)
I0930 10:54:30.594341 29063 net.cpp:165] Memory required for data: 192067296
I0930 10:54:30.594347 29063 layer_factory.hpp:77] Creating layer conv3_1/dwise/scale
I0930 10:54:30.594353 29063 net.cpp:100] Creating Layer conv3_1/dwise/scale
I0930 10:54:30.594358 29063 net.cpp:434] conv3_1/dwise/scale <- conv3_1/dwise
I0930 10:54:30.594362 29063 net.cpp:395] conv3_1/dwise/scale -> conv3_1/dwise (in-place)
I0930 10:54:30.594388 29063 layer_factory.hpp:77] Creating layer conv3_1/dwise/scale
I0930 10:54:30.594460 29063 net.cpp:150] Setting up conv3_1/dwise/scale
I0930 10:54:30.594465 29063 net.cpp:157] Top shape: 1 144 75 128 (1382400)
I0930 10:54:30.594467 29063 net.cpp:165] Memory required for data: 197596896
I0930 10:54:30.594472 29063 layer_factory.hpp:77] Creating layer relu3_1/dwise
I0930 10:54:30.594476 29063 net.cpp:100] Creating Layer relu3_1/dwise
I0930 10:54:30.594480 29063 net.cpp:434] relu3_1/dwise <- conv3_1/dwise
I0930 10:54:30.594483 29063 net.cpp:395] relu3_1/dwise -> conv3_1/dwise (in-place)
I0930 10:54:30.594869 29063 net.cpp:150] Setting up relu3_1/dwise
I0930 10:54:30.594877 29063 net.cpp:157] Top shape: 1 144 75 128 (1382400)
I0930 10:54:30.594879 29063 net.cpp:165] Memory required for data: 203126496
I0930 10:54:30.594882 29063 layer_factory.hpp:77] Creating layer conv3_1/linear
I0930 10:54:30.594887 29063 net.cpp:100] Creating Layer conv3_1/linear
I0930 10:54:30.594888 29063 net.cpp:434] conv3_1/linear <- conv3_1/dwise
I0930 10:54:30.594899 29063 net.cpp:408] conv3_1/linear -> conv3_1/linear
I0930 10:54:30.595979 29063 net.cpp:150] Setting up conv3_1/linear
I0930 10:54:30.595988 29063 net.cpp:157] Top shape: 1 24 75 128 (230400)
I0930 10:54:30.595990 29063 net.cpp:165] Memory required for data: 204048096
I0930 10:54:30.595993 29063 layer_factory.hpp:77] Creating layer conv3_1/linear/bn
I0930 10:54:30.595999 29063 net.cpp:100] Creating Layer conv3_1/linear/bn
I0930 10:54:30.596002 29063 net.cpp:434] conv3_1/linear/bn <- conv3_1/linear
I0930 10:54:30.596009 29063 net.cpp:395] conv3_1/linear/bn -> conv3_1/linear (in-place)
I0930 10:54:30.596151 29063 net.cpp:150] Setting up conv3_1/linear/bn
I0930 10:54:30.596156 29063 net.cpp:157] Top shape: 1 24 75 128 (230400)
I0930 10:54:30.596158 29063 net.cpp:165] Memory required for data: 204969696
I0930 10:54:30.596163 29063 layer_factory.hpp:77] Creating layer conv3_1/linear/scale
I0930 10:54:30.596165 29063 net.cpp:100] Creating Layer conv3_1/linear/scale
I0930 10:54:30.596168 29063 net.cpp:434] conv3_1/linear/scale <- conv3_1/linear
I0930 10:54:30.596170 29063 net.cpp:395] conv3_1/linear/scale -> conv3_1/linear (in-place)
I0930 10:54:30.596194 29063 layer_factory.hpp:77] Creating layer conv3_1/linear/scale
I0930 10:54:30.596264 29063 net.cpp:150] Setting up conv3_1/linear/scale
I0930 10:54:30.596267 29063 net.cpp:157] Top shape: 1 24 75 128 (230400)
I0930 10:54:30.596269 29063 net.cpp:165] Memory required for data: 205891296
I0930 10:54:30.596272 29063 layer_factory.hpp:77] Creating layer block_3_1
I0930 10:54:30.596276 29063 net.cpp:100] Creating Layer block_3_1
I0930 10:54:30.596277 29063 net.cpp:434] block_3_1 <- conv2_2/linear_conv2_2/linear/scale_0_split_1
I0930 10:54:30.596279 29063 net.cpp:434] block_3_1 <- conv3_1/linear
I0930 10:54:30.596283 29063 net.cpp:408] block_3_1 -> block_3_1
I0930 10:54:30.596298 29063 net.cpp:150] Setting up block_3_1
I0930 10:54:30.596302 29063 net.cpp:157] Top shape: 1 24 75 128 (230400)
I0930 10:54:30.596304 29063 net.cpp:165] Memory required for data: 206812896
I0930 10:54:30.596307 29063 layer_factory.hpp:77] Creating layer conv3_2/expand
I0930 10:54:30.596309 29063 net.cpp:100] Creating Layer conv3_2/expand
I0930 10:54:30.596312 29063 net.cpp:434] conv3_2/expand <- block_3_1
I0930 10:54:30.596314 29063 net.cpp:408] conv3_2/expand -> conv3_2/expand
I0930 10:54:30.597393 29063 net.cpp:150] Setting up conv3_2/expand
I0930 10:54:30.597400 29063 net.cpp:157] Top shape: 1 144 75 128 (1382400)
I0930 10:54:30.597403 29063 net.cpp:165] Memory required for data: 212342496
I0930 10:54:30.597406 29063 layer_factory.hpp:77] Creating layer conv3_2/expand/bn
I0930 10:54:30.597411 29063 net.cpp:100] Creating Layer conv3_2/expand/bn
I0930 10:54:30.597414 29063 net.cpp:434] conv3_2/expand/bn <- conv3_2/expand
I0930 10:54:30.597417 29063 net.cpp:395] conv3_2/expand/bn -> conv3_2/expand (in-place)
I0930 10:54:30.597537 29063 net.cpp:150] Setting up conv3_2/expand/bn
I0930 10:54:30.597542 29063 net.cpp:157] Top shape: 1 144 75 128 (1382400)
I0930 10:54:30.597543 29063 net.cpp:165] Memory required for data: 217872096
I0930 10:54:30.597546 29063 layer_factory.hpp:77] Creating layer conv3_2/expand/scale
I0930 10:54:30.597551 29063 net.cpp:100] Creating Layer conv3_2/expand/scale
I0930 10:54:30.597553 29063 net.cpp:434] conv3_2/expand/scale <- conv3_2/expand
I0930 10:54:30.597555 29063 net.cpp:395] conv3_2/expand/scale -> conv3_2/expand (in-place)
I0930 10:54:30.597579 29063 layer_factory.hpp:77] Creating layer conv3_2/expand/scale
I0930 10:54:30.597645 29063 net.cpp:150] Setting up conv3_2/expand/scale
I0930 10:54:30.597649 29063 net.cpp:157] Top shape: 1 144 75 128 (1382400)
I0930 10:54:30.597651 29063 net.cpp:165] Memory required for data: 223401696
I0930 10:54:30.597659 29063 layer_factory.hpp:77] Creating layer relu3_2/expand
I0930 10:54:30.597663 29063 net.cpp:100] Creating Layer relu3_2/expand
I0930 10:54:30.597666 29063 net.cpp:434] relu3_2/expand <- conv3_2/expand
I0930 10:54:30.597667 29063 net.cpp:395] relu3_2/expand -> conv3_2/expand (in-place)
I0930 10:54:30.598038 29063 net.cpp:150] Setting up relu3_2/expand
I0930 10:54:30.598044 29063 net.cpp:157] Top shape: 1 144 75 128 (1382400)
I0930 10:54:30.598047 29063 net.cpp:165] Memory required for data: 228931296
I0930 10:54:30.598048 29063 layer_factory.hpp:77] Creating layer conv3_2/dwise
I0930 10:54:30.598053 29063 net.cpp:100] Creating Layer conv3_2/dwise
I0930 10:54:30.598057 29063 net.cpp:434] conv3_2/dwise <- conv3_2/expand
I0930 10:54:30.598059 29063 net.cpp:408] conv3_2/dwise -> conv3_2/dwise
I0930 10:54:30.598187 29063 net.cpp:150] Setting up conv3_2/dwise
I0930 10:54:30.598191 29063 net.cpp:157] Top shape: 1 144 38 64 (350208)
I0930 10:54:30.598193 29063 net.cpp:165] Memory required for data: 230332128
I0930 10:54:30.598196 29063 layer_factory.hpp:77] Creating layer conv3_2/dwise/bn
I0930 10:54:30.598199 29063 net.cpp:100] Creating Layer conv3_2/dwise/bn
I0930 10:54:30.598201 29063 net.cpp:434] conv3_2/dwise/bn <- conv3_2/dwise
I0930 10:54:30.598204 29063 net.cpp:395] conv3_2/dwise/bn -> conv3_2/dwise (in-place)
I0930 10:54:30.598323 29063 net.cpp:150] Setting up conv3_2/dwise/bn
I0930 10:54:30.598327 29063 net.cpp:157] Top shape: 1 144 38 64 (350208)
I0930 10:54:30.598328 29063 net.cpp:165] Memory required for data: 231732960
I0930 10:54:30.598332 29063 layer_factory.hpp:77] Creating layer conv3_2/dwise/scale
I0930 10:54:30.598336 29063 net.cpp:100] Creating Layer conv3_2/dwise/scale
I0930 10:54:30.598340 29063 net.cpp:434] conv3_2/dwise/scale <- conv3_2/dwise
I0930 10:54:30.598342 29063 net.cpp:395] conv3_2/dwise/scale -> conv3_2/dwise (in-place)
I0930 10:54:30.598364 29063 layer_factory.hpp:77] Creating layer conv3_2/dwise/scale
I0930 10:54:30.598429 29063 net.cpp:150] Setting up conv3_2/dwise/scale
I0930 10:54:30.598433 29063 net.cpp:157] Top shape: 1 144 38 64 (350208)
I0930 10:54:30.598434 29063 net.cpp:165] Memory required for data: 233133792
I0930 10:54:30.598438 29063 layer_factory.hpp:77] Creating layer relu3_2/dwise
I0930 10:54:30.598441 29063 net.cpp:100] Creating Layer relu3_2/dwise
I0930 10:54:30.598443 29063 net.cpp:434] relu3_2/dwise <- conv3_2/dwise
I0930 10:54:30.598445 29063 net.cpp:395] relu3_2/dwise -> conv3_2/dwise (in-place)
I0930 10:54:30.598708 29063 net.cpp:150] Setting up relu3_2/dwise
I0930 10:54:30.598713 29063 net.cpp:157] Top shape: 1 144 38 64 (350208)
I0930 10:54:30.598716 29063 net.cpp:165] Memory required for data: 234534624
I0930 10:54:30.598718 29063 layer_factory.hpp:77] Creating layer conv3_2/linear
I0930 10:54:30.598723 29063 net.cpp:100] Creating Layer conv3_2/linear
I0930 10:54:30.598726 29063 net.cpp:434] conv3_2/linear <- conv3_2/dwise
I0930 10:54:30.598728 29063 net.cpp:408] conv3_2/linear -> conv3_2/linear
I0930 10:54:30.599779 29063 net.cpp:150] Setting up conv3_2/linear
I0930 10:54:30.599786 29063 net.cpp:157] Top shape: 1 32 38 64 (77824)
I0930 10:54:30.599787 29063 net.cpp:165] Memory required for data: 234845920
I0930 10:54:30.599792 29063 layer_factory.hpp:77] Creating layer conv3_2/linear/bn
I0930 10:54:30.599795 29063 net.cpp:100] Creating Layer conv3_2/linear/bn
I0930 10:54:30.599798 29063 net.cpp:434] conv3_2/linear/bn <- conv3_2/linear
I0930 10:54:30.599802 29063 net.cpp:395] conv3_2/linear/bn -> conv3_2/linear (in-place)
I0930 10:54:30.599925 29063 net.cpp:150] Setting up conv3_2/linear/bn
I0930 10:54:30.599930 29063 net.cpp:157] Top shape: 1 32 38 64 (77824)
I0930 10:54:30.599931 29063 net.cpp:165] Memory required for data: 235157216
I0930 10:54:30.599934 29063 layer_factory.hpp:77] Creating layer conv3_2/linear/scale
I0930 10:54:30.599939 29063 net.cpp:100] Creating Layer conv3_2/linear/scale
I0930 10:54:30.599942 29063 net.cpp:434] conv3_2/linear/scale <- conv3_2/linear
I0930 10:54:30.599946 29063 net.cpp:395] conv3_2/linear/scale -> conv3_2/linear (in-place)
I0930 10:54:30.599968 29063 layer_factory.hpp:77] Creating layer conv3_2/linear/scale
I0930 10:54:30.600034 29063 net.cpp:150] Setting up conv3_2/linear/scale
I0930 10:54:30.600039 29063 net.cpp:157] Top shape: 1 32 38 64 (77824)
I0930 10:54:30.600040 29063 net.cpp:165] Memory required for data: 235468512
I0930 10:54:30.600051 29063 layer_factory.hpp:77] Creating layer conv3_2/linear_conv3_2/linear/scale_0_split
I0930 10:54:30.600055 29063 net.cpp:100] Creating Layer conv3_2/linear_conv3_2/linear/scale_0_split
I0930 10:54:30.600057 29063 net.cpp:434] conv3_2/linear_conv3_2/linear/scale_0_split <- conv3_2/linear
I0930 10:54:30.600060 29063 net.cpp:408] conv3_2/linear_conv3_2/linear/scale_0_split -> conv3_2/linear_conv3_2/linear/scale_0_split_0
I0930 10:54:30.600064 29063 net.cpp:408] conv3_2/linear_conv3_2/linear/scale_0_split -> conv3_2/linear_conv3_2/linear/scale_0_split_1
I0930 10:54:30.600086 29063 net.cpp:150] Setting up conv3_2/linear_conv3_2/linear/scale_0_split
I0930 10:54:30.600090 29063 net.cpp:157] Top shape: 1 32 38 64 (77824)
I0930 10:54:30.600093 29063 net.cpp:157] Top shape: 1 32 38 64 (77824)
I0930 10:54:30.600095 29063 net.cpp:165] Memory required for data: 236091104
I0930 10:54:30.600097 29063 layer_factory.hpp:77] Creating layer conv4_1/expand
I0930 10:54:30.600101 29063 net.cpp:100] Creating Layer conv4_1/expand
I0930 10:54:30.600105 29063 net.cpp:434] conv4_1/expand <- conv3_2/linear_conv3_2/linear/scale_0_split_0
I0930 10:54:30.600107 29063 net.cpp:408] conv4_1/expand -> conv4_1/expand
I0930 10:54:30.601150 29063 net.cpp:150] Setting up conv4_1/expand
I0930 10:54:30.601155 29063 net.cpp:157] Top shape: 1 192 38 64 (466944)
I0930 10:54:30.601158 29063 net.cpp:165] Memory required for data: 237958880
I0930 10:54:30.601161 29063 layer_factory.hpp:77] Creating layer conv4_1/expand/bn
I0930 10:54:30.601166 29063 net.cpp:100] Creating Layer conv4_1/expand/bn
I0930 10:54:30.601168 29063 net.cpp:434] conv4_1/expand/bn <- conv4_1/expand
I0930 10:54:30.601172 29063 net.cpp:395] conv4_1/expand/bn -> conv4_1/expand (in-place)
I0930 10:54:30.601295 29063 net.cpp:150] Setting up conv4_1/expand/bn
I0930 10:54:30.601300 29063 net.cpp:157] Top shape: 1 192 38 64 (466944)
I0930 10:54:30.601301 29063 net.cpp:165] Memory required for data: 239826656
I0930 10:54:30.601305 29063 layer_factory.hpp:77] Creating layer conv4_1/expand/scale
I0930 10:54:30.601310 29063 net.cpp:100] Creating Layer conv4_1/expand/scale
I0930 10:54:30.601311 29063 net.cpp:434] conv4_1/expand/scale <- conv4_1/expand
I0930 10:54:30.601315 29063 net.cpp:395] conv4_1/expand/scale -> conv4_1/expand (in-place)
I0930 10:54:30.601338 29063 layer_factory.hpp:77] Creating layer conv4_1/expand/scale
I0930 10:54:30.601406 29063 net.cpp:150] Setting up conv4_1/expand/scale
I0930 10:54:30.601410 29063 net.cpp:157] Top shape: 1 192 38 64 (466944)
I0930 10:54:30.601413 29063 net.cpp:165] Memory required for data: 241694432
I0930 10:54:30.601416 29063 layer_factory.hpp:77] Creating layer relu4_1/expand
I0930 10:54:30.601419 29063 net.cpp:100] Creating Layer relu4_1/expand
I0930 10:54:30.601423 29063 net.cpp:434] relu4_1/expand <- conv4_1/expand
I0930 10:54:30.601424 29063 net.cpp:395] relu4_1/expand -> conv4_1/expand (in-place)
I0930 10:54:30.601797 29063 net.cpp:150] Setting up relu4_1/expand
I0930 10:54:30.601804 29063 net.cpp:157] Top shape: 1 192 38 64 (466944)
I0930 10:54:30.601806 29063 net.cpp:165] Memory required for data: 243562208
I0930 10:54:30.601809 29063 layer_factory.hpp:77] Creating layer conv4_1/dwise
I0930 10:54:30.601814 29063 net.cpp:100] Creating Layer conv4_1/dwise
I0930 10:54:30.601816 29063 net.cpp:434] conv4_1/dwise <- conv4_1/expand
I0930 10:54:30.601819 29063 net.cpp:408] conv4_1/dwise -> conv4_1/dwise
I0930 10:54:30.601953 29063 net.cpp:150] Setting up conv4_1/dwise
I0930 10:54:30.601956 29063 net.cpp:157] Top shape: 1 192 38 64 (466944)
I0930 10:54:30.601958 29063 net.cpp:165] Memory required for data: 245429984
I0930 10:54:30.601961 29063 layer_factory.hpp:77] Creating layer conv4_1/dwise/bn
I0930 10:54:30.601965 29063 net.cpp:100] Creating Layer conv4_1/dwise/bn
I0930 10:54:30.601969 29063 net.cpp:434] conv4_1/dwise/bn <- conv4_1/dwise
I0930 10:54:30.601972 29063 net.cpp:395] conv4_1/dwise/bn -> conv4_1/dwise (in-place)
I0930 10:54:30.602092 29063 net.cpp:150] Setting up conv4_1/dwise/bn
I0930 10:54:30.602097 29063 net.cpp:157] Top shape: 1 192 38 64 (466944)
I0930 10:54:30.602104 29063 net.cpp:165] Memory required for data: 247297760
I0930 10:54:30.602109 29063 layer_factory.hpp:77] Creating layer conv4_1/dwise/scale
I0930 10:54:30.602113 29063 net.cpp:100] Creating Layer conv4_1/dwise/scale
I0930 10:54:30.602116 29063 net.cpp:434] conv4_1/dwise/scale <- conv4_1/dwise
I0930 10:54:30.602118 29063 net.cpp:395] conv4_1/dwise/scale -> conv4_1/dwise (in-place)
I0930 10:54:30.602144 29063 layer_factory.hpp:77] Creating layer conv4_1/dwise/scale
I0930 10:54:30.602210 29063 net.cpp:150] Setting up conv4_1/dwise/scale
I0930 10:54:30.602213 29063 net.cpp:157] Top shape: 1 192 38 64 (466944)
I0930 10:54:30.602216 29063 net.cpp:165] Memory required for data: 249165536
I0930 10:54:30.602219 29063 layer_factory.hpp:77] Creating layer relu4_1/dwise
I0930 10:54:30.602222 29063 net.cpp:100] Creating Layer relu4_1/dwise
I0930 10:54:30.602226 29063 net.cpp:434] relu4_1/dwise <- conv4_1/dwise
I0930 10:54:30.602228 29063 net.cpp:395] relu4_1/dwise -> conv4_1/dwise (in-place)
I0930 10:54:30.602490 29063 net.cpp:150] Setting up relu4_1/dwise
I0930 10:54:30.602495 29063 net.cpp:157] Top shape: 1 192 38 64 (466944)
I0930 10:54:30.602497 29063 net.cpp:165] Memory required for data: 251033312
I0930 10:54:30.602499 29063 layer_factory.hpp:77] Creating layer conv4_1/linear
I0930 10:54:30.602506 29063 net.cpp:100] Creating Layer conv4_1/linear
I0930 10:54:30.602509 29063 net.cpp:434] conv4_1/linear <- conv4_1/dwise
I0930 10:54:30.602512 29063 net.cpp:408] conv4_1/linear -> conv4_1/linear
I0930 10:54:30.603583 29063 net.cpp:150] Setting up conv4_1/linear
I0930 10:54:30.603590 29063 net.cpp:157] Top shape: 1 32 38 64 (77824)
I0930 10:54:30.603593 29063 net.cpp:165] Memory required for data: 251344608
I0930 10:54:30.603596 29063 layer_factory.hpp:77] Creating layer conv4_1/linear/bn
I0930 10:54:30.603601 29063 net.cpp:100] Creating Layer conv4_1/linear/bn
I0930 10:54:30.603605 29063 net.cpp:434] conv4_1/linear/bn <- conv4_1/linear
I0930 10:54:30.603607 29063 net.cpp:395] conv4_1/linear/bn -> conv4_1/linear (in-place)
I0930 10:54:30.603729 29063 net.cpp:150] Setting up conv4_1/linear/bn
I0930 10:54:30.603732 29063 net.cpp:157] Top shape: 1 32 38 64 (77824)
I0930 10:54:30.603735 29063 net.cpp:165] Memory required for data: 251655904
I0930 10:54:30.603739 29063 layer_factory.hpp:77] Creating layer conv4_1/linear/scale
I0930 10:54:30.603744 29063 net.cpp:100] Creating Layer conv4_1/linear/scale
I0930 10:54:30.603745 29063 net.cpp:434] conv4_1/linear/scale <- conv4_1/linear
I0930 10:54:30.603749 29063 net.cpp:395] conv4_1/linear/scale -> conv4_1/linear (in-place)
I0930 10:54:30.603772 29063 layer_factory.hpp:77] Creating layer conv4_1/linear/scale
I0930 10:54:30.603839 29063 net.cpp:150] Setting up conv4_1/linear/scale
I0930 10:54:30.603842 29063 net.cpp:157] Top shape: 1 32 38 64 (77824)
I0930 10:54:30.603845 29063 net.cpp:165] Memory required for data: 251967200
I0930 10:54:30.603848 29063 layer_factory.hpp:77] Creating layer block_4_1
I0930 10:54:30.603857 29063 net.cpp:100] Creating Layer block_4_1
I0930 10:54:30.603860 29063 net.cpp:434] block_4_1 <- conv3_2/linear_conv3_2/linear/scale_0_split_1
I0930 10:54:30.603863 29063 net.cpp:434] block_4_1 <- conv4_1/linear
I0930 10:54:30.603868 29063 net.cpp:408] block_4_1 -> block_4_1
I0930 10:54:30.603881 29063 net.cpp:150] Setting up block_4_1
I0930 10:54:30.603885 29063 net.cpp:157] Top shape: 1 32 38 64 (77824)
I0930 10:54:30.603888 29063 net.cpp:165] Memory required for data: 252278496
I0930 10:54:30.603889 29063 layer_factory.hpp:77] Creating layer block_4_1_block_4_1_0_split
I0930 10:54:30.603893 29063 net.cpp:100] Creating Layer block_4_1_block_4_1_0_split
I0930 10:54:30.603896 29063 net.cpp:434] block_4_1_block_4_1_0_split <- block_4_1
I0930 10:54:30.603899 29063 net.cpp:408] block_4_1_block_4_1_0_split -> block_4_1_block_4_1_0_split_0
I0930 10:54:30.603904 29063 net.cpp:408] block_4_1_block_4_1_0_split -> block_4_1_block_4_1_0_split_1
I0930 10:54:30.603927 29063 net.cpp:150] Setting up block_4_1_block_4_1_0_split
I0930 10:54:30.603938 29063 net.cpp:157] Top shape: 1 32 38 64 (77824)
I0930 10:54:30.603941 29063 net.cpp:157] Top shape: 1 32 38 64 (77824)
I0930 10:54:30.603943 29063 net.cpp:165] Memory required for data: 252901088
I0930 10:54:30.603945 29063 layer_factory.hpp:77] Creating layer conv4_2/expand
I0930 10:54:30.603950 29063 net.cpp:100] Creating Layer conv4_2/expand
I0930 10:54:30.603953 29063 net.cpp:434] conv4_2/expand <- block_4_1_block_4_1_0_split_0
I0930 10:54:30.603956 29063 net.cpp:408] conv4_2/expand -> conv4_2/expand
I0930 10:54:30.605099 29063 net.cpp:150] Setting up conv4_2/expand
I0930 10:54:30.605106 29063 net.cpp:157] Top shape: 1 192 38 64 (466944)
I0930 10:54:30.605109 29063 net.cpp:165] Memory required for data: 254768864
I0930 10:54:30.605113 29063 layer_factory.hpp:77] Creating layer conv4_2/expand/bn
I0930 10:54:30.605118 29063 net.cpp:100] Creating Layer conv4_2/expand/bn
I0930 10:54:30.605119 29063 net.cpp:434] conv4_2/expand/bn <- conv4_2/expand
I0930 10:54:30.605123 29063 net.cpp:395] conv4_2/expand/bn -> conv4_2/expand (in-place)
I0930 10:54:30.605244 29063 net.cpp:150] Setting up conv4_2/expand/bn
I0930 10:54:30.605248 29063 net.cpp:157] Top shape: 1 192 38 64 (466944)
I0930 10:54:30.605250 29063 net.cpp:165] Memory required for data: 256636640
I0930 10:54:30.605254 29063 layer_factory.hpp:77] Creating layer conv4_2/expand/scale
I0930 10:54:30.605258 29063 net.cpp:100] Creating Layer conv4_2/expand/scale
I0930 10:54:30.605262 29063 net.cpp:434] conv4_2/expand/scale <- conv4_2/expand
I0930 10:54:30.605263 29063 net.cpp:395] conv4_2/expand/scale -> conv4_2/expand (in-place)
I0930 10:54:30.605288 29063 layer_factory.hpp:77] Creating layer conv4_2/expand/scale
I0930 10:54:30.605356 29063 net.cpp:150] Setting up conv4_2/expand/scale
I0930 10:54:30.605360 29063 net.cpp:157] Top shape: 1 192 38 64 (466944)
I0930 10:54:30.605362 29063 net.cpp:165] Memory required for data: 258504416
I0930 10:54:30.605365 29063 layer_factory.hpp:77] Creating layer relu4_2/expand
I0930 10:54:30.605368 29063 net.cpp:100] Creating Layer relu4_2/expand
I0930 10:54:30.605370 29063 net.cpp:434] relu4_2/expand <- conv4_2/expand
I0930 10:54:30.605373 29063 net.cpp:395] relu4_2/expand -> conv4_2/expand (in-place)
I0930 10:54:30.605639 29063 net.cpp:150] Setting up relu4_2/expand
I0930 10:54:30.605645 29063 net.cpp:157] Top shape: 1 192 38 64 (466944)
I0930 10:54:30.605648 29063 net.cpp:165] Memory required for data: 260372192
I0930 10:54:30.605649 29063 layer_factory.hpp:77] Creating layer conv4_2/dwise
I0930 10:54:30.605654 29063 net.cpp:100] Creating Layer conv4_2/dwise
I0930 10:54:30.605655 29063 net.cpp:434] conv4_2/dwise <- conv4_2/expand
I0930 10:54:30.605659 29063 net.cpp:408] conv4_2/dwise -> conv4_2/dwise
I0930 10:54:30.605794 29063 net.cpp:150] Setting up conv4_2/dwise
I0930 10:54:30.605799 29063 net.cpp:157] Top shape: 1 192 38 64 (466944)
I0930 10:54:30.605800 29063 net.cpp:165] Memory required for data: 262239968
I0930 10:54:30.605804 29063 layer_factory.hpp:77] Creating layer conv4_2/dwise/bn
I0930 10:54:30.605808 29063 net.cpp:100] Creating Layer conv4_2/dwise/bn
I0930 10:54:30.605809 29063 net.cpp:434] conv4_2/dwise/bn <- conv4_2/dwise
I0930 10:54:30.605813 29063 net.cpp:395] conv4_2/dwise/bn -> conv4_2/dwise (in-place)
I0930 10:54:30.605932 29063 net.cpp:150] Setting up conv4_2/dwise/bn
I0930 10:54:30.605937 29063 net.cpp:157] Top shape: 1 192 38 64 (466944)
I0930 10:54:30.605938 29063 net.cpp:165] Memory required for data: 264107744
I0930 10:54:30.605942 29063 layer_factory.hpp:77] Creating layer conv4_2/dwise/scale
I0930 10:54:30.605944 29063 net.cpp:100] Creating Layer conv4_2/dwise/scale
I0930 10:54:30.605947 29063 net.cpp:434] conv4_2/dwise/scale <- conv4_2/dwise
I0930 10:54:30.605949 29063 net.cpp:395] conv4_2/dwise/scale -> conv4_2/dwise (in-place)
I0930 10:54:30.605971 29063 layer_factory.hpp:77] Creating layer conv4_2/dwise/scale
I0930 10:54:30.606037 29063 net.cpp:150] Setting up conv4_2/dwise/scale
I0930 10:54:30.606041 29063 net.cpp:157] Top shape: 1 192 38 64 (466944)
I0930 10:54:30.606043 29063 net.cpp:165] Memory required for data: 265975520
I0930 10:54:30.606053 29063 layer_factory.hpp:77] Creating layer relu4_2/dwise
I0930 10:54:30.606057 29063 net.cpp:100] Creating Layer relu4_2/dwise
I0930 10:54:30.606060 29063 net.cpp:434] relu4_2/dwise <- conv4_2/dwise
I0930 10:54:30.606063 29063 net.cpp:395] relu4_2/dwise -> conv4_2/dwise (in-place)
I0930 10:54:30.606326 29063 net.cpp:150] Setting up relu4_2/dwise
I0930 10:54:30.606333 29063 net.cpp:157] Top shape: 1 192 38 64 (466944)
I0930 10:54:30.606334 29063 net.cpp:165] Memory required for data: 267843296
I0930 10:54:30.606336 29063 layer_factory.hpp:77] Creating layer conv4_2/linear
I0930 10:54:30.606341 29063 net.cpp:100] Creating Layer conv4_2/linear
I0930 10:54:30.606344 29063 net.cpp:434] conv4_2/linear <- conv4_2/dwise
I0930 10:54:30.606348 29063 net.cpp:408] conv4_2/linear -> conv4_2/linear
I0930 10:54:30.607527 29063 net.cpp:150] Setting up conv4_2/linear
I0930 10:54:30.607533 29063 net.cpp:157] Top shape: 1 32 38 64 (77824)
I0930 10:54:30.607535 29063 net.cpp:165] Memory required for data: 268154592
I0930 10:54:30.607539 29063 layer_factory.hpp:77] Creating layer conv4_2/linear/bn
I0930 10:54:30.607544 29063 net.cpp:100] Creating Layer conv4_2/linear/bn
I0930 10:54:30.607547 29063 net.cpp:434] conv4_2/linear/bn <- conv4_2/linear
I0930 10:54:30.607549 29063 net.cpp:395] conv4_2/linear/bn -> conv4_2/linear (in-place)
I0930 10:54:30.607676 29063 net.cpp:150] Setting up conv4_2/linear/bn
I0930 10:54:30.607679 29063 net.cpp:157] Top shape: 1 32 38 64 (77824)
I0930 10:54:30.607681 29063 net.cpp:165] Memory required for data: 268465888
I0930 10:54:30.607686 29063 layer_factory.hpp:77] Creating layer conv4_2/linear/scale
I0930 10:54:30.607689 29063 net.cpp:100] Creating Layer conv4_2/linear/scale
I0930 10:54:30.607692 29063 net.cpp:434] conv4_2/linear/scale <- conv4_2/linear
I0930 10:54:30.607694 29063 net.cpp:395] conv4_2/linear/scale -> conv4_2/linear (in-place)
I0930 10:54:30.607718 29063 layer_factory.hpp:77] Creating layer conv4_2/linear/scale
I0930 10:54:30.607787 29063 net.cpp:150] Setting up conv4_2/linear/scale
I0930 10:54:30.607791 29063 net.cpp:157] Top shape: 1 32 38 64 (77824)
I0930 10:54:30.607794 29063 net.cpp:165] Memory required for data: 268777184
I0930 10:54:30.607796 29063 layer_factory.hpp:77] Creating layer block_4_2
I0930 10:54:30.607801 29063 net.cpp:100] Creating Layer block_4_2
I0930 10:54:30.607803 29063 net.cpp:434] block_4_2 <- block_4_1_block_4_1_0_split_1
I0930 10:54:30.607807 29063 net.cpp:434] block_4_2 <- conv4_2/linear
I0930 10:54:30.607810 29063 net.cpp:408] block_4_2 -> block_4_2
I0930 10:54:30.607825 29063 net.cpp:150] Setting up block_4_2
I0930 10:54:30.607828 29063 net.cpp:157] Top shape: 1 32 38 64 (77824)
I0930 10:54:30.607831 29063 net.cpp:165] Memory required for data: 269088480
I0930 10:54:30.607832 29063 layer_factory.hpp:77] Creating layer conv4_3/expand
I0930 10:54:30.607837 29063 net.cpp:100] Creating Layer conv4_3/expand
I0930 10:54:30.607841 29063 net.cpp:434] conv4_3/expand <- block_4_2
I0930 10:54:30.607843 29063 net.cpp:408] conv4_3/expand -> conv4_3/expand
I0930 10:54:30.609019 29063 net.cpp:150] Setting up conv4_3/expand
I0930 10:54:30.609025 29063 net.cpp:157] Top shape: 1 192 38 64 (466944)
I0930 10:54:30.609027 29063 net.cpp:165] Memory required for data: 270956256
I0930 10:54:30.609030 29063 layer_factory.hpp:77] Creating layer conv4_3/expand/bn
I0930 10:54:30.609035 29063 net.cpp:100] Creating Layer conv4_3/expand/bn
I0930 10:54:30.609038 29063 net.cpp:434] conv4_3/expand/bn <- conv4_3/expand
I0930 10:54:30.609040 29063 net.cpp:395] conv4_3/expand/bn -> conv4_3/expand (in-place)
I0930 10:54:30.609165 29063 net.cpp:150] Setting up conv4_3/expand/bn
I0930 10:54:30.609169 29063 net.cpp:157] Top shape: 1 192 38 64 (466944)
I0930 10:54:30.609170 29063 net.cpp:165] Memory required for data: 272824032
I0930 10:54:30.609174 29063 layer_factory.hpp:77] Creating layer conv4_3/expand/scale
I0930 10:54:30.609179 29063 net.cpp:100] Creating Layer conv4_3/expand/scale
I0930 10:54:30.609180 29063 net.cpp:434] conv4_3/expand/scale <- conv4_3/expand
I0930 10:54:30.609191 29063 net.cpp:395] conv4_3/expand/scale -> conv4_3/expand (in-place)
I0930 10:54:30.609216 29063 layer_factory.hpp:77] Creating layer conv4_3/expand/scale
I0930 10:54:30.609287 29063 net.cpp:150] Setting up conv4_3/expand/scale
I0930 10:54:30.609292 29063 net.cpp:157] Top shape: 1 192 38 64 (466944)
I0930 10:54:30.609292 29063 net.cpp:165] Memory required for data: 274691808
I0930 10:54:30.609297 29063 layer_factory.hpp:77] Creating layer relu4_3/expand
I0930 10:54:30.609299 29063 net.cpp:100] Creating Layer relu4_3/expand
I0930 10:54:30.609302 29063 net.cpp:434] relu4_3/expand <- conv4_3/expand
I0930 10:54:30.609303 29063 net.cpp:395] relu4_3/expand -> conv4_3/expand (in-place)
I0930 10:54:30.609572 29063 net.cpp:150] Setting up relu4_3/expand
I0930 10:54:30.609578 29063 net.cpp:157] Top shape: 1 192 38 64 (466944)
I0930 10:54:30.609580 29063 net.cpp:165] Memory required for data: 276559584
I0930 10:54:30.609581 29063 layer_factory.hpp:77] Creating layer conv4_3/dwise
I0930 10:54:30.609586 29063 net.cpp:100] Creating Layer conv4_3/dwise
I0930 10:54:30.609588 29063 net.cpp:434] conv4_3/dwise <- conv4_3/expand
I0930 10:54:30.609592 29063 net.cpp:408] conv4_3/dwise -> conv4_3/dwise
I0930 10:54:30.609730 29063 net.cpp:150] Setting up conv4_3/dwise
I0930 10:54:30.609733 29063 net.cpp:157] Top shape: 1 192 38 64 (466944)
I0930 10:54:30.609735 29063 net.cpp:165] Memory required for data: 278427360
I0930 10:54:30.609738 29063 layer_factory.hpp:77] Creating layer conv4_3/dwise/bn
I0930 10:54:30.609741 29063 net.cpp:100] Creating Layer conv4_3/dwise/bn
I0930 10:54:30.609743 29063 net.cpp:434] conv4_3/dwise/bn <- conv4_3/dwise
I0930 10:54:30.609746 29063 net.cpp:395] conv4_3/dwise/bn -> conv4_3/dwise (in-place)
I0930 10:54:30.609874 29063 net.cpp:150] Setting up conv4_3/dwise/bn
I0930 10:54:30.609877 29063 net.cpp:157] Top shape: 1 192 38 64 (466944)
I0930 10:54:30.609879 29063 net.cpp:165] Memory required for data: 280295136
I0930 10:54:30.609882 29063 layer_factory.hpp:77] Creating layer conv4_3/dwise/scale
I0930 10:54:30.609885 29063 net.cpp:100] Creating Layer conv4_3/dwise/scale
I0930 10:54:30.609887 29063 net.cpp:434] conv4_3/dwise/scale <- conv4_3/dwise
I0930 10:54:30.609890 29063 net.cpp:395] conv4_3/dwise/scale -> conv4_3/dwise (in-place)
I0930 10:54:30.609915 29063 layer_factory.hpp:77] Creating layer conv4_3/dwise/scale
I0930 10:54:30.609983 29063 net.cpp:150] Setting up conv4_3/dwise/scale
I0930 10:54:30.609987 29063 net.cpp:157] Top shape: 1 192 38 64 (466944)
I0930 10:54:30.609989 29063 net.cpp:165] Memory required for data: 282162912
I0930 10:54:30.609992 29063 layer_factory.hpp:77] Creating layer relu4_3/dwise
I0930 10:54:30.609995 29063 net.cpp:100] Creating Layer relu4_3/dwise
I0930 10:54:30.609997 29063 net.cpp:434] relu4_3/dwise <- conv4_3/dwise
I0930 10:54:30.609999 29063 net.cpp:395] relu4_3/dwise -> conv4_3/dwise (in-place)
I0930 10:54:30.610286 29063 net.cpp:150] Setting up relu4_3/dwise
I0930 10:54:30.610292 29063 net.cpp:157] Top shape: 1 192 38 64 (466944)
I0930 10:54:30.610293 29063 net.cpp:165] Memory required for data: 284030688
I0930 10:54:30.610296 29063 layer_factory.hpp:77] Creating layer conv4_3/linear
I0930 10:54:30.610301 29063 net.cpp:100] Creating Layer conv4_3/linear
I0930 10:54:30.610304 29063 net.cpp:434] conv4_3/linear <- conv4_3/dwise
I0930 10:54:30.610308 29063 net.cpp:408] conv4_3/linear -> conv4_3/linear
I0930 10:54:30.611644 29063 net.cpp:150] Setting up conv4_3/linear
I0930 10:54:30.611652 29063 net.cpp:157] Top shape: 1 64 38 64 (155648)
I0930 10:54:30.611654 29063 net.cpp:165] Memory required for data: 284653280
I0930 10:54:30.611658 29063 layer_factory.hpp:77] Creating layer conv4_3/linear/bn
I0930 10:54:30.611663 29063 net.cpp:100] Creating Layer conv4_3/linear/bn
I0930 10:54:30.611666 29063 net.cpp:434] conv4_3/linear/bn <- conv4_3/linear
I0930 10:54:30.611670 29063 net.cpp:395] conv4_3/linear/bn -> conv4_3/linear (in-place)
I0930 10:54:30.611799 29063 net.cpp:150] Setting up conv4_3/linear/bn
I0930 10:54:30.611804 29063 net.cpp:157] Top shape: 1 64 38 64 (155648)
I0930 10:54:30.611812 29063 net.cpp:165] Memory required for data: 285275872
I0930 10:54:30.611825 29063 layer_factory.hpp:77] Creating layer conv4_3/linear/scale
I0930 10:54:30.611830 29063 net.cpp:100] Creating Layer conv4_3/linear/scale
I0930 10:54:30.611832 29063 net.cpp:434] conv4_3/linear/scale <- conv4_3/linear
I0930 10:54:30.611835 29063 net.cpp:395] conv4_3/linear/scale -> conv4_3/linear (in-place)
I0930 10:54:30.611862 29063 layer_factory.hpp:77] Creating layer conv4_3/linear/scale
I0930 10:54:30.611932 29063 net.cpp:150] Setting up conv4_3/linear/scale
I0930 10:54:30.611937 29063 net.cpp:157] Top shape: 1 64 38 64 (155648)
I0930 10:54:30.611938 29063 net.cpp:165] Memory required for data: 285898464
I0930 10:54:30.611941 29063 layer_factory.hpp:77] Creating layer conv4_3/linear_conv4_3/linear/scale_0_split
I0930 10:54:30.611945 29063 net.cpp:100] Creating Layer conv4_3/linear_conv4_3/linear/scale_0_split
I0930 10:54:30.611946 29063 net.cpp:434] conv4_3/linear_conv4_3/linear/scale_0_split <- conv4_3/linear
I0930 10:54:30.611951 29063 net.cpp:408] conv4_3/linear_conv4_3/linear/scale_0_split -> conv4_3/linear_conv4_3/linear/scale_0_split_0
I0930 10:54:30.611955 29063 net.cpp:408] conv4_3/linear_conv4_3/linear/scale_0_split -> conv4_3/linear_conv4_3/linear/scale_0_split_1
I0930 10:54:30.611979 29063 net.cpp:150] Setting up conv4_3/linear_conv4_3/linear/scale_0_split
I0930 10:54:30.611984 29063 net.cpp:157] Top shape: 1 64 38 64 (155648)
I0930 10:54:30.611987 29063 net.cpp:157] Top shape: 1 64 38 64 (155648)
I0930 10:54:30.611990 29063 net.cpp:165] Memory required for data: 287143648
I0930 10:54:30.611994 29063 layer_factory.hpp:77] Creating layer conv4_4/expand
I0930 10:54:30.612001 29063 net.cpp:100] Creating Layer conv4_4/expand
I0930 10:54:30.612005 29063 net.cpp:434] conv4_4/expand <- conv4_3/linear_conv4_3/linear/scale_0_split_0
I0930 10:54:30.612011 29063 net.cpp:408] conv4_4/expand -> conv4_4/expand
I0930 10:54:30.613260 29063 net.cpp:150] Setting up conv4_4/expand
I0930 10:54:30.613267 29063 net.cpp:157] Top shape: 1 384 38 64 (933888)
I0930 10:54:30.613270 29063 net.cpp:165] Memory required for data: 290879200
I0930 10:54:30.613273 29063 layer_factory.hpp:77] Creating layer conv4_4/expand/bn
I0930 10:54:30.613278 29063 net.cpp:100] Creating Layer conv4_4/expand/bn
I0930 10:54:30.613281 29063 net.cpp:434] conv4_4/expand/bn <- conv4_4/expand
I0930 10:54:30.613286 29063 net.cpp:395] conv4_4/expand/bn -> conv4_4/expand (in-place)
I0930 10:54:30.613422 29063 net.cpp:150] Setting up conv4_4/expand/bn
I0930 10:54:30.613426 29063 net.cpp:157] Top shape: 1 384 38 64 (933888)
I0930 10:54:30.613427 29063 net.cpp:165] Memory required for data: 294614752
I0930 10:54:30.613432 29063 layer_factory.hpp:77] Creating layer conv4_4/expand/scale
I0930 10:54:30.613436 29063 net.cpp:100] Creating Layer conv4_4/expand/scale
I0930 10:54:30.613438 29063 net.cpp:434] conv4_4/expand/scale <- conv4_4/expand
I0930 10:54:30.613441 29063 net.cpp:395] conv4_4/expand/scale -> conv4_4/expand (in-place)
I0930 10:54:30.613466 29063 layer_factory.hpp:77] Creating layer conv4_4/expand/scale
I0930 10:54:30.613534 29063 net.cpp:150] Setting up conv4_4/expand/scale
I0930 10:54:30.613538 29063 net.cpp:157] Top shape: 1 384 38 64 (933888)
I0930 10:54:30.613539 29063 net.cpp:165] Memory required for data: 298350304
I0930 10:54:30.613544 29063 layer_factory.hpp:77] Creating layer relu4_4/expand
I0930 10:54:30.613548 29063 net.cpp:100] Creating Layer relu4_4/expand
I0930 10:54:30.613550 29063 net.cpp:434] relu4_4/expand <- conv4_4/expand
I0930 10:54:30.613554 29063 net.cpp:395] relu4_4/expand -> conv4_4/expand (in-place)
I0930 10:54:30.613823 29063 net.cpp:150] Setting up relu4_4/expand
I0930 10:54:30.613829 29063 net.cpp:157] Top shape: 1 384 38 64 (933888)
I0930 10:54:30.613831 29063 net.cpp:165] Memory required for data: 302085856
I0930 10:54:30.613833 29063 layer_factory.hpp:77] Creating layer conv4_4/dwise
I0930 10:54:30.613839 29063 net.cpp:100] Creating Layer conv4_4/dwise
I0930 10:54:30.613842 29063 net.cpp:434] conv4_4/dwise <- conv4_4/expand
I0930 10:54:30.613853 29063 net.cpp:408] conv4_4/dwise -> conv4_4/dwise
I0930 10:54:30.614003 29063 net.cpp:150] Setting up conv4_4/dwise
I0930 10:54:30.614008 29063 net.cpp:157] Top shape: 1 384 38 64 (933888)
I0930 10:54:30.614011 29063 net.cpp:165] Memory required for data: 305821408
I0930 10:54:30.614013 29063 layer_factory.hpp:77] Creating layer conv4_4/dwise/bn
I0930 10:54:30.614017 29063 net.cpp:100] Creating Layer conv4_4/dwise/bn
I0930 10:54:30.614020 29063 net.cpp:434] conv4_4/dwise/bn <- conv4_4/dwise
I0930 10:54:30.614023 29063 net.cpp:395] conv4_4/dwise/bn -> conv4_4/dwise (in-place)
I0930 10:54:30.614145 29063 net.cpp:150] Setting up conv4_4/dwise/bn
I0930 10:54:30.614148 29063 net.cpp:157] Top shape: 1 384 38 64 (933888)
I0930 10:54:30.614151 29063 net.cpp:165] Memory required for data: 309556960
I0930 10:54:30.614156 29063 layer_factory.hpp:77] Creating layer conv4_4/dwise/scale
I0930 10:54:30.614159 29063 net.cpp:100] Creating Layer conv4_4/dwise/scale
I0930 10:54:30.614161 29063 net.cpp:434] conv4_4/dwise/scale <- conv4_4/dwise
I0930 10:54:30.614164 29063 net.cpp:395] conv4_4/dwise/scale -> conv4_4/dwise (in-place)
I0930 10:54:30.614187 29063 layer_factory.hpp:77] Creating layer conv4_4/dwise/scale
I0930 10:54:30.614253 29063 net.cpp:150] Setting up conv4_4/dwise/scale
I0930 10:54:30.614259 29063 net.cpp:157] Top shape: 1 384 38 64 (933888)
I0930 10:54:30.614260 29063 net.cpp:165] Memory required for data: 313292512
I0930 10:54:30.614264 29063 layer_factory.hpp:77] Creating layer relu4_4/dwise
I0930 10:54:30.614266 29063 net.cpp:100] Creating Layer relu4_4/dwise
I0930 10:54:30.614269 29063 net.cpp:434] relu4_4/dwise <- conv4_4/dwise
I0930 10:54:30.614271 29063 net.cpp:395] relu4_4/dwise -> conv4_4/dwise (in-place)
I0930 10:54:30.614642 29063 net.cpp:150] Setting up relu4_4/dwise
I0930 10:54:30.614650 29063 net.cpp:157] Top shape: 1 384 38 64 (933888)
I0930 10:54:30.614651 29063 net.cpp:165] Memory required for data: 317028064
I0930 10:54:30.614653 29063 layer_factory.hpp:77] Creating layer conv4_4/linear
I0930 10:54:30.614658 29063 net.cpp:100] Creating Layer conv4_4/linear
I0930 10:54:30.614661 29063 net.cpp:434] conv4_4/linear <- conv4_4/dwise
I0930 10:54:30.614665 29063 net.cpp:408] conv4_4/linear -> conv4_4/linear
I0930 10:54:30.615883 29063 net.cpp:150] Setting up conv4_4/linear
I0930 10:54:30.615890 29063 net.cpp:157] Top shape: 1 64 38 64 (155648)
I0930 10:54:30.615893 29063 net.cpp:165] Memory required for data: 317650656
I0930 10:54:30.615896 29063 layer_factory.hpp:77] Creating layer conv4_4/linear/bn
I0930 10:54:30.615901 29063 net.cpp:100] Creating Layer conv4_4/linear/bn
I0930 10:54:30.615903 29063 net.cpp:434] conv4_4/linear/bn <- conv4_4/linear
I0930 10:54:30.615907 29063 net.cpp:395] conv4_4/linear/bn -> conv4_4/linear (in-place)
I0930 10:54:30.616039 29063 net.cpp:150] Setting up conv4_4/linear/bn
I0930 10:54:30.616042 29063 net.cpp:157] Top shape: 1 64 38 64 (155648)
I0930 10:54:30.616044 29063 net.cpp:165] Memory required for data: 318273248
I0930 10:54:30.616048 29063 layer_factory.hpp:77] Creating layer conv4_4/linear/scale
I0930 10:54:30.616052 29063 net.cpp:100] Creating Layer conv4_4/linear/scale
I0930 10:54:30.616055 29063 net.cpp:434] conv4_4/linear/scale <- conv4_4/linear
I0930 10:54:30.616057 29063 net.cpp:395] conv4_4/linear/scale -> conv4_4/linear (in-place)
I0930 10:54:30.616083 29063 layer_factory.hpp:77] Creating layer conv4_4/linear/scale
I0930 10:54:30.616154 29063 net.cpp:150] Setting up conv4_4/linear/scale
I0930 10:54:30.616158 29063 net.cpp:157] Top shape: 1 64 38 64 (155648)
I0930 10:54:30.616159 29063 net.cpp:165] Memory required for data: 318895840
I0930 10:54:30.616163 29063 layer_factory.hpp:77] Creating layer block_4_4
I0930 10:54:30.616168 29063 net.cpp:100] Creating Layer block_4_4
I0930 10:54:30.616169 29063 net.cpp:434] block_4_4 <- conv4_3/linear_conv4_3/linear/scale_0_split_1
I0930 10:54:30.616171 29063 net.cpp:434] block_4_4 <- conv4_4/linear
I0930 10:54:30.616175 29063 net.cpp:408] block_4_4 -> block_4_4
I0930 10:54:30.616199 29063 net.cpp:150] Setting up block_4_4
I0930 10:54:30.616202 29063 net.cpp:157] Top shape: 1 64 38 64 (155648)
I0930 10:54:30.616204 29063 net.cpp:165] Memory required for data: 319518432
I0930 10:54:30.616206 29063 layer_factory.hpp:77] Creating layer block_4_4_block_4_4_0_split
I0930 10:54:30.616209 29063 net.cpp:100] Creating Layer block_4_4_block_4_4_0_split
I0930 10:54:30.616212 29063 net.cpp:434] block_4_4_block_4_4_0_split <- block_4_4
I0930 10:54:30.616214 29063 net.cpp:408] block_4_4_block_4_4_0_split -> block_4_4_block_4_4_0_split_0
I0930 10:54:30.616219 29063 net.cpp:408] block_4_4_block_4_4_0_split -> block_4_4_block_4_4_0_split_1
I0930 10:54:30.616241 29063 net.cpp:150] Setting up block_4_4_block_4_4_0_split
I0930 10:54:30.616245 29063 net.cpp:157] Top shape: 1 64 38 64 (155648)
I0930 10:54:30.616246 29063 net.cpp:157] Top shape: 1 64 38 64 (155648)
I0930 10:54:30.616250 29063 net.cpp:165] Memory required for data: 320763616
I0930 10:54:30.616250 29063 layer_factory.hpp:77] Creating layer conv4_5/expand
I0930 10:54:30.616255 29063 net.cpp:100] Creating Layer conv4_5/expand
I0930 10:54:30.616257 29063 net.cpp:434] conv4_5/expand <- block_4_4_block_4_4_0_split_0
I0930 10:54:30.616261 29063 net.cpp:408] conv4_5/expand -> conv4_5/expand
I0930 10:54:30.617436 29063 net.cpp:150] Setting up conv4_5/expand
I0930 10:54:30.617444 29063 net.cpp:157] Top shape: 1 384 38 64 (933888)
I0930 10:54:30.617445 29063 net.cpp:165] Memory required for data: 324499168
I0930 10:54:30.617449 29063 layer_factory.hpp:77] Creating layer conv4_5/expand/bn
I0930 10:54:30.617453 29063 net.cpp:100] Creating Layer conv4_5/expand/bn
I0930 10:54:30.617456 29063 net.cpp:434] conv4_5/expand/bn <- conv4_5/expand
I0930 10:54:30.617460 29063 net.cpp:395] conv4_5/expand/bn -> conv4_5/expand (in-place)
I0930 10:54:30.617588 29063 net.cpp:150] Setting up conv4_5/expand/bn
I0930 10:54:30.617592 29063 net.cpp:157] Top shape: 1 384 38 64 (933888)
I0930 10:54:30.617594 29063 net.cpp:165] Memory required for data: 328234720
I0930 10:54:30.617599 29063 layer_factory.hpp:77] Creating layer conv4_5/expand/scale
I0930 10:54:30.617602 29063 net.cpp:100] Creating Layer conv4_5/expand/scale
I0930 10:54:30.617604 29063 net.cpp:434] conv4_5/expand/scale <- conv4_5/expand
I0930 10:54:30.617607 29063 net.cpp:395] conv4_5/expand/scale -> conv4_5/expand (in-place)
I0930 10:54:30.617630 29063 layer_factory.hpp:77] Creating layer conv4_5/expand/scale
I0930 10:54:30.617698 29063 net.cpp:150] Setting up conv4_5/expand/scale
I0930 10:54:30.617702 29063 net.cpp:157] Top shape: 1 384 38 64 (933888)
I0930 10:54:30.617703 29063 net.cpp:165] Memory required for data: 331970272
I0930 10:54:30.617707 29063 layer_factory.hpp:77] Creating layer relu4_5/expand
I0930 10:54:30.617712 29063 net.cpp:100] Creating Layer relu4_5/expand
I0930 10:54:30.617713 29063 net.cpp:434] relu4_5/expand <- conv4_5/expand
I0930 10:54:30.617717 29063 net.cpp:395] relu4_5/expand -> conv4_5/expand (in-place)
I0930 10:54:30.617983 29063 net.cpp:150] Setting up relu4_5/expand
I0930 10:54:30.617990 29063 net.cpp:157] Top shape: 1 384 38 64 (933888)
I0930 10:54:30.617991 29063 net.cpp:165] Memory required for data: 335705824
I0930 10:54:30.617993 29063 layer_factory.hpp:77] Creating layer conv4_5/dwise
I0930 10:54:30.617997 29063 net.cpp:100] Creating Layer conv4_5/dwise
I0930 10:54:30.618000 29063 net.cpp:434] conv4_5/dwise <- conv4_5/expand
I0930 10:54:30.618003 29063 net.cpp:408] conv4_5/dwise -> conv4_5/dwise
I0930 10:54:30.618222 29063 net.cpp:150] Setting up conv4_5/dwise
I0930 10:54:30.618230 29063 net.cpp:157] Top shape: 1 384 38 64 (933888)
I0930 10:54:30.618235 29063 net.cpp:165] Memory required for data: 339441376
I0930 10:54:30.618240 29063 layer_factory.hpp:77] Creating layer conv4_5/dwise/bn
I0930 10:54:30.618245 29063 net.cpp:100] Creating Layer conv4_5/dwise/bn
I0930 10:54:30.618250 29063 net.cpp:434] conv4_5/dwise/bn <- conv4_5/dwise
I0930 10:54:30.618257 29063 net.cpp:395] conv4_5/dwise/bn -> conv4_5/dwise (in-place)
I0930 10:54:30.618468 29063 net.cpp:150] Setting up conv4_5/dwise/bn
I0930 10:54:30.618484 29063 net.cpp:157] Top shape: 1 384 38 64 (933888)
I0930 10:54:30.618489 29063 net.cpp:165] Memory required for data: 343176928
I0930 10:54:30.618497 29063 layer_factory.hpp:77] Creating layer conv4_5/dwise/scale
I0930 10:54:30.618505 29063 net.cpp:100] Creating Layer conv4_5/dwise/scale
I0930 10:54:30.618508 29063 net.cpp:434] conv4_5/dwise/scale <- conv4_5/dwise
I0930 10:54:30.618513 29063 net.cpp:395] conv4_5/dwise/scale -> conv4_5/dwise (in-place)
I0930 10:54:30.618552 29063 layer_factory.hpp:77] Creating layer conv4_5/dwise/scale
I0930 10:54:30.618671 29063 net.cpp:150] Setting up conv4_5/dwise/scale
I0930 10:54:30.618677 29063 net.cpp:157] Top shape: 1 384 38 64 (933888)
I0930 10:54:30.618682 29063 net.cpp:165] Memory required for data: 346912480
I0930 10:54:30.618688 29063 layer_factory.hpp:77] Creating layer relu4_5/dwise
I0930 10:54:30.618693 29063 net.cpp:100] Creating Layer relu4_5/dwise
I0930 10:54:30.618697 29063 net.cpp:434] relu4_5/dwise <- conv4_5/dwise
I0930 10:54:30.618705 29063 net.cpp:395] relu4_5/dwise -> conv4_5/dwise (in-place)
I0930 10:54:30.619340 29063 net.cpp:150] Setting up relu4_5/dwise
I0930 10:54:30.619351 29063 net.cpp:157] Top shape: 1 384 38 64 (933888)
I0930 10:54:30.619357 29063 net.cpp:165] Memory required for data: 350648032
I0930 10:54:30.619360 29063 layer_factory.hpp:77] Creating layer conv4_5/linear
I0930 10:54:30.619371 29063 net.cpp:100] Creating Layer conv4_5/linear
I0930 10:54:30.619376 29063 net.cpp:434] conv4_5/linear <- conv4_5/dwise
I0930 10:54:30.619382 29063 net.cpp:408] conv4_5/linear -> conv4_5/linear
I0930 10:54:30.621150 29063 net.cpp:150] Setting up conv4_5/linear
I0930 10:54:30.621162 29063 net.cpp:157] Top shape: 1 64 38 64 (155648)
I0930 10:54:30.621163 29063 net.cpp:165] Memory required for data: 351270624
I0930 10:54:30.621170 29063 layer_factory.hpp:77] Creating layer conv4_5/linear/bn
I0930 10:54:30.621178 29063 net.cpp:100] Creating Layer conv4_5/linear/bn
I0930 10:54:30.621182 29063 net.cpp:434] conv4_5/linear/bn <- conv4_5/linear
I0930 10:54:30.621186 29063 net.cpp:395] conv4_5/linear/bn -> conv4_5/linear (in-place)
I0930 10:54:30.621323 29063 net.cpp:150] Setting up conv4_5/linear/bn
I0930 10:54:30.621327 29063 net.cpp:157] Top shape: 1 64 38 64 (155648)
I0930 10:54:30.621330 29063 net.cpp:165] Memory required for data: 351893216
I0930 10:54:30.621333 29063 layer_factory.hpp:77] Creating layer conv4_5/linear/scale
I0930 10:54:30.621337 29063 net.cpp:100] Creating Layer conv4_5/linear/scale
I0930 10:54:30.621340 29063 net.cpp:434] conv4_5/linear/scale <- conv4_5/linear
I0930 10:54:30.621342 29063 net.cpp:395] conv4_5/linear/scale -> conv4_5/linear (in-place)
I0930 10:54:30.621368 29063 layer_factory.hpp:77] Creating layer conv4_5/linear/scale
I0930 10:54:30.621444 29063 net.cpp:150] Setting up conv4_5/linear/scale
I0930 10:54:30.621448 29063 net.cpp:157] Top shape: 1 64 38 64 (155648)
I0930 10:54:30.621449 29063 net.cpp:165] Memory required for data: 352515808
I0930 10:54:30.621453 29063 layer_factory.hpp:77] Creating layer block_4_5
I0930 10:54:30.621456 29063 net.cpp:100] Creating Layer block_4_5
I0930 10:54:30.621459 29063 net.cpp:434] block_4_5 <- block_4_4_block_4_4_0_split_1
I0930 10:54:30.621462 29063 net.cpp:434] block_4_5 <- conv4_5/linear
I0930 10:54:30.621464 29063 net.cpp:408] block_4_5 -> block_4_5
I0930 10:54:30.621480 29063 net.cpp:150] Setting up block_4_5
I0930 10:54:30.621484 29063 net.cpp:157] Top shape: 1 64 38 64 (155648)
I0930 10:54:30.621486 29063 net.cpp:165] Memory required for data: 353138400
I0930 10:54:30.621487 29063 layer_factory.hpp:77] Creating layer block_4_5_block_4_5_0_split
I0930 10:54:30.621490 29063 net.cpp:100] Creating Layer block_4_5_block_4_5_0_split
I0930 10:54:30.621492 29063 net.cpp:434] block_4_5_block_4_5_0_split <- block_4_5
I0930 10:54:30.621495 29063 net.cpp:408] block_4_5_block_4_5_0_split -> block_4_5_block_4_5_0_split_0
I0930 10:54:30.621498 29063 net.cpp:408] block_4_5_block_4_5_0_split -> block_4_5_block_4_5_0_split_1
I0930 10:54:30.621521 29063 net.cpp:150] Setting up block_4_5_block_4_5_0_split
I0930 10:54:30.621533 29063 net.cpp:157] Top shape: 1 64 38 64 (155648)
I0930 10:54:30.621537 29063 net.cpp:157] Top shape: 1 64 38 64 (155648)
I0930 10:54:30.621538 29063 net.cpp:165] Memory required for data: 354383584
I0930 10:54:30.621541 29063 layer_factory.hpp:77] Creating layer conv4_6/expand
I0930 10:54:30.621546 29063 net.cpp:100] Creating Layer conv4_6/expand
I0930 10:54:30.621548 29063 net.cpp:434] conv4_6/expand <- block_4_5_block_4_5_0_split_0
I0930 10:54:30.621551 29063 net.cpp:408] conv4_6/expand -> conv4_6/expand
I0930 10:54:30.622763 29063 net.cpp:150] Setting up conv4_6/expand
I0930 10:54:30.622771 29063 net.cpp:157] Top shape: 1 384 38 64 (933888)
I0930 10:54:30.622773 29063 net.cpp:165] Memory required for data: 358119136
I0930 10:54:30.622776 29063 layer_factory.hpp:77] Creating layer conv4_6/expand/bn
I0930 10:54:30.622781 29063 net.cpp:100] Creating Layer conv4_6/expand/bn
I0930 10:54:30.622782 29063 net.cpp:434] conv4_6/expand/bn <- conv4_6/expand
I0930 10:54:30.622786 29063 net.cpp:395] conv4_6/expand/bn -> conv4_6/expand (in-place)
I0930 10:54:30.622917 29063 net.cpp:150] Setting up conv4_6/expand/bn
I0930 10:54:30.622921 29063 net.cpp:157] Top shape: 1 384 38 64 (933888)
I0930 10:54:30.622923 29063 net.cpp:165] Memory required for data: 361854688
I0930 10:54:30.622927 29063 layer_factory.hpp:77] Creating layer conv4_6/expand/scale
I0930 10:54:30.622931 29063 net.cpp:100] Creating Layer conv4_6/expand/scale
I0930 10:54:30.622932 29063 net.cpp:434] conv4_6/expand/scale <- conv4_6/expand
I0930 10:54:30.622936 29063 net.cpp:395] conv4_6/expand/scale -> conv4_6/expand (in-place)
I0930 10:54:30.622958 29063 layer_factory.hpp:77] Creating layer conv4_6/expand/scale
I0930 10:54:30.623028 29063 net.cpp:150] Setting up conv4_6/expand/scale
I0930 10:54:30.623033 29063 net.cpp:157] Top shape: 1 384 38 64 (933888)
I0930 10:54:30.623034 29063 net.cpp:165] Memory required for data: 365590240
I0930 10:54:30.623037 29063 layer_factory.hpp:77] Creating layer relu4_6/expand
I0930 10:54:30.623041 29063 net.cpp:100] Creating Layer relu4_6/expand
I0930 10:54:30.623042 29063 net.cpp:434] relu4_6/expand <- conv4_6/expand
I0930 10:54:30.623045 29063 net.cpp:395] relu4_6/expand -> conv4_6/expand (in-place)
I0930 10:54:30.623442 29063 net.cpp:150] Setting up relu4_6/expand
I0930 10:54:30.623450 29063 net.cpp:157] Top shape: 1 384 38 64 (933888)
I0930 10:54:30.623450 29063 net.cpp:165] Memory required for data: 369325792
I0930 10:54:30.623452 29063 layer_factory.hpp:77] Creating layer conv4_6/dwise
I0930 10:54:30.623458 29063 net.cpp:100] Creating Layer conv4_6/dwise
I0930 10:54:30.623461 29063 net.cpp:434] conv4_6/dwise <- conv4_6/expand
I0930 10:54:30.623464 29063 net.cpp:408] conv4_6/dwise -> conv4_6/dwise
I0930 10:54:30.623627 29063 net.cpp:150] Setting up conv4_6/dwise
I0930 10:54:30.623634 29063 net.cpp:157] Top shape: 1 384 38 64 (933888)
I0930 10:54:30.623637 29063 net.cpp:165] Memory required for data: 373061344
I0930 10:54:30.623641 29063 layer_factory.hpp:77] Creating layer conv4_6/dwise/bn
I0930 10:54:30.623659 29063 net.cpp:100] Creating Layer conv4_6/dwise/bn
I0930 10:54:30.623664 29063 net.cpp:434] conv4_6/dwise/bn <- conv4_6/dwise
I0930 10:54:30.623670 29063 net.cpp:395] conv4_6/dwise/bn -> conv4_6/dwise (in-place)
I0930 10:54:30.623802 29063 net.cpp:150] Setting up conv4_6/dwise/bn
I0930 10:54:30.623806 29063 net.cpp:157] Top shape: 1 384 38 64 (933888)
I0930 10:54:30.623809 29063 net.cpp:165] Memory required for data: 376796896
I0930 10:54:30.623813 29063 layer_factory.hpp:77] Creating layer conv4_6/dwise/scale
I0930 10:54:30.623817 29063 net.cpp:100] Creating Layer conv4_6/dwise/scale
I0930 10:54:30.623818 29063 net.cpp:434] conv4_6/dwise/scale <- conv4_6/dwise
I0930 10:54:30.623821 29063 net.cpp:395] conv4_6/dwise/scale -> conv4_6/dwise (in-place)
I0930 10:54:30.623844 29063 layer_factory.hpp:77] Creating layer conv4_6/dwise/scale
I0930 10:54:30.623914 29063 net.cpp:150] Setting up conv4_6/dwise/scale
I0930 10:54:30.623917 29063 net.cpp:157] Top shape: 1 384 38 64 (933888)
I0930 10:54:30.623926 29063 net.cpp:165] Memory required for data: 380532448
I0930 10:54:30.623930 29063 layer_factory.hpp:77] Creating layer relu4_6/dwise
I0930 10:54:30.623934 29063 net.cpp:100] Creating Layer relu4_6/dwise
I0930 10:54:30.623937 29063 net.cpp:434] relu4_6/dwise <- conv4_6/dwise
I0930 10:54:30.623940 29063 net.cpp:395] relu4_6/dwise -> conv4_6/dwise (in-place)
I0930 10:54:30.624209 29063 net.cpp:150] Setting up relu4_6/dwise
I0930 10:54:30.624214 29063 net.cpp:157] Top shape: 1 384 38 64 (933888)
I0930 10:54:30.624217 29063 net.cpp:165] Memory required for data: 384268000
I0930 10:54:30.624219 29063 layer_factory.hpp:77] Creating layer conv4_6/linear
I0930 10:54:30.624224 29063 net.cpp:100] Creating Layer conv4_6/linear
I0930 10:54:30.624227 29063 net.cpp:434] conv4_6/linear <- conv4_6/dwise
I0930 10:54:30.624230 29063 net.cpp:408] conv4_6/linear -> conv4_6/linear
I0930 10:54:30.625422 29063 net.cpp:150] Setting up conv4_6/linear
I0930 10:54:30.625429 29063 net.cpp:157] Top shape: 1 64 38 64 (155648)
I0930 10:54:30.625432 29063 net.cpp:165] Memory required for data: 384890592
I0930 10:54:30.625434 29063 layer_factory.hpp:77] Creating layer conv4_6/linear/bn
I0930 10:54:30.625439 29063 net.cpp:100] Creating Layer conv4_6/linear/bn
I0930 10:54:30.625442 29063 net.cpp:434] conv4_6/linear/bn <- conv4_6/linear
I0930 10:54:30.625445 29063 net.cpp:395] conv4_6/linear/bn -> conv4_6/linear (in-place)
I0930 10:54:30.625581 29063 net.cpp:150] Setting up conv4_6/linear/bn
I0930 10:54:30.625584 29063 net.cpp:157] Top shape: 1 64 38 64 (155648)
I0930 10:54:30.625586 29063 net.cpp:165] Memory required for data: 385513184
I0930 10:54:30.625591 29063 layer_factory.hpp:77] Creating layer conv4_6/linear/scale
I0930 10:54:30.625594 29063 net.cpp:100] Creating Layer conv4_6/linear/scale
I0930 10:54:30.625597 29063 net.cpp:434] conv4_6/linear/scale <- conv4_6/linear
I0930 10:54:30.625598 29063 net.cpp:395] conv4_6/linear/scale -> conv4_6/linear (in-place)
I0930 10:54:30.625624 29063 layer_factory.hpp:77] Creating layer conv4_6/linear/scale
I0930 10:54:30.625697 29063 net.cpp:150] Setting up conv4_6/linear/scale
I0930 10:54:30.625701 29063 net.cpp:157] Top shape: 1 64 38 64 (155648)
I0930 10:54:30.625703 29063 net.cpp:165] Memory required for data: 386135776
I0930 10:54:30.625706 29063 layer_factory.hpp:77] Creating layer block_4_6
I0930 10:54:30.625710 29063 net.cpp:100] Creating Layer block_4_6
I0930 10:54:30.625712 29063 net.cpp:434] block_4_6 <- block_4_5_block_4_5_0_split_1
I0930 10:54:30.625715 29063 net.cpp:434] block_4_6 <- conv4_6/linear
I0930 10:54:30.625720 29063 net.cpp:408] block_4_6 -> block_4_6
I0930 10:54:30.625736 29063 net.cpp:150] Setting up block_4_6
I0930 10:54:30.625739 29063 net.cpp:157] Top shape: 1 64 38 64 (155648)
I0930 10:54:30.625741 29063 net.cpp:165] Memory required for data: 386758368
I0930 10:54:30.625743 29063 layer_factory.hpp:77] Creating layer conv4_7/expand
I0930 10:54:30.625757 29063 net.cpp:100] Creating Layer conv4_7/expand
I0930 10:54:30.625761 29063 net.cpp:434] conv4_7/expand <- block_4_6
I0930 10:54:30.625763 29063 net.cpp:408] conv4_7/expand -> conv4_7/expand
I0930 10:54:30.626956 29063 net.cpp:150] Setting up conv4_7/expand
I0930 10:54:30.626963 29063 net.cpp:157] Top shape: 1 384 38 64 (933888)
I0930 10:54:30.626965 29063 net.cpp:165] Memory required for data: 390493920
I0930 10:54:30.626968 29063 layer_factory.hpp:77] Creating layer conv4_7/expand/bn
I0930 10:54:30.626973 29063 net.cpp:100] Creating Layer conv4_7/expand/bn
I0930 10:54:30.626976 29063 net.cpp:434] conv4_7/expand/bn <- conv4_7/expand
I0930 10:54:30.626979 29063 net.cpp:395] conv4_7/expand/bn -> conv4_7/expand (in-place)
I0930 10:54:30.627107 29063 net.cpp:150] Setting up conv4_7/expand/bn
I0930 10:54:30.627112 29063 net.cpp:157] Top shape: 1 384 38 64 (933888)
I0930 10:54:30.627113 29063 net.cpp:165] Memory required for data: 394229472
I0930 10:54:30.627117 29063 layer_factory.hpp:77] Creating layer conv4_7/expand/scale
I0930 10:54:30.627122 29063 net.cpp:100] Creating Layer conv4_7/expand/scale
I0930 10:54:30.627132 29063 net.cpp:434] conv4_7/expand/scale <- conv4_7/expand
I0930 10:54:30.627136 29063 net.cpp:395] conv4_7/expand/scale -> conv4_7/expand (in-place)
I0930 10:54:30.627161 29063 layer_factory.hpp:77] Creating layer conv4_7/expand/scale
I0930 10:54:30.627236 29063 net.cpp:150] Setting up conv4_7/expand/scale
I0930 10:54:30.627240 29063 net.cpp:157] Top shape: 1 384 38 64 (933888)
I0930 10:54:30.627243 29063 net.cpp:165] Memory required for data: 397965024
I0930 10:54:30.627245 29063 layer_factory.hpp:77] Creating layer relu4_7/expand
I0930 10:54:30.627250 29063 net.cpp:100] Creating Layer relu4_7/expand
I0930 10:54:30.627254 29063 net.cpp:434] relu4_7/expand <- conv4_7/expand
I0930 10:54:30.627255 29063 net.cpp:395] relu4_7/expand -> conv4_7/expand (in-place)
I0930 10:54:30.627631 29063 net.cpp:150] Setting up relu4_7/expand
I0930 10:54:30.627637 29063 net.cpp:157] Top shape: 1 384 38 64 (933888)
I0930 10:54:30.627640 29063 net.cpp:165] Memory required for data: 401700576
I0930 10:54:30.627642 29063 layer_factory.hpp:77] Creating layer conv4_7/dwise
I0930 10:54:30.627647 29063 net.cpp:100] Creating Layer conv4_7/dwise
I0930 10:54:30.627650 29063 net.cpp:434] conv4_7/dwise <- conv4_7/expand
I0930 10:54:30.627652 29063 net.cpp:408] conv4_7/dwise -> conv4_7/dwise
I0930 10:54:30.627810 29063 net.cpp:150] Setting up conv4_7/dwise
I0930 10:54:30.627813 29063 net.cpp:157] Top shape: 1 384 19 32 (233472)
I0930 10:54:30.627815 29063 net.cpp:165] Memory required for data: 402634464
I0930 10:54:30.627818 29063 layer_factory.hpp:77] Creating layer conv4_7/dwise/bn
I0930 10:54:30.627821 29063 net.cpp:100] Creating Layer conv4_7/dwise/bn
I0930 10:54:30.627823 29063 net.cpp:434] conv4_7/dwise/bn <- conv4_7/dwise
I0930 10:54:30.627826 29063 net.cpp:395] conv4_7/dwise/bn -> conv4_7/dwise (in-place)
I0930 10:54:30.627949 29063 net.cpp:150] Setting up conv4_7/dwise/bn
I0930 10:54:30.627954 29063 net.cpp:157] Top shape: 1 384 19 32 (233472)
I0930 10:54:30.627954 29063 net.cpp:165] Memory required for data: 403568352
I0930 10:54:30.627959 29063 layer_factory.hpp:77] Creating layer conv4_7/dwise/scale
I0930 10:54:30.627962 29063 net.cpp:100] Creating Layer conv4_7/dwise/scale
I0930 10:54:30.627965 29063 net.cpp:434] conv4_7/dwise/scale <- conv4_7/dwise
I0930 10:54:30.627967 29063 net.cpp:395] conv4_7/dwise/scale -> conv4_7/dwise (in-place)
I0930 10:54:30.627996 29063 layer_factory.hpp:77] Creating layer conv4_7/dwise/scale
I0930 10:54:30.628072 29063 net.cpp:150] Setting up conv4_7/dwise/scale
I0930 10:54:30.628077 29063 net.cpp:157] Top shape: 1 384 19 32 (233472)
I0930 10:54:30.628078 29063 net.cpp:165] Memory required for data: 404502240
I0930 10:54:30.628082 29063 layer_factory.hpp:77] Creating layer relu4_7/dwise
I0930 10:54:30.628084 29063 net.cpp:100] Creating Layer relu4_7/dwise
I0930 10:54:30.628087 29063 net.cpp:434] relu4_7/dwise <- conv4_7/dwise
I0930 10:54:30.628090 29063 net.cpp:395] relu4_7/dwise -> conv4_7/dwise (in-place)
I0930 10:54:30.628358 29063 net.cpp:150] Setting up relu4_7/dwise
I0930 10:54:30.628365 29063 net.cpp:157] Top shape: 1 384 19 32 (233472)
I0930 10:54:30.628365 29063 net.cpp:165] Memory required for data: 405436128
I0930 10:54:30.628368 29063 layer_factory.hpp:77] Creating layer conv4_7/linear
I0930 10:54:30.628373 29063 net.cpp:100] Creating Layer conv4_7/linear
I0930 10:54:30.628376 29063 net.cpp:434] conv4_7/linear <- conv4_7/dwise
I0930 10:54:30.628379 29063 net.cpp:408] conv4_7/linear -> conv4_7/linear
I0930 10:54:30.629639 29063 net.cpp:150] Setting up conv4_7/linear
I0930 10:54:30.629647 29063 net.cpp:157] Top shape: 1 96 19 32 (58368)
I0930 10:54:30.629648 29063 net.cpp:165] Memory required for data: 405669600
I0930 10:54:30.629652 29063 layer_factory.hpp:77] Creating layer conv4_7/linear/bn
I0930 10:54:30.629657 29063 net.cpp:100] Creating Layer conv4_7/linear/bn
I0930 10:54:30.629659 29063 net.cpp:434] conv4_7/linear/bn <- conv4_7/linear
I0930 10:54:30.629663 29063 net.cpp:395] conv4_7/linear/bn -> conv4_7/linear (in-place)
I0930 10:54:30.629804 29063 net.cpp:150] Setting up conv4_7/linear/bn
I0930 10:54:30.629817 29063 net.cpp:157] Top shape: 1 96 19 32 (58368)
I0930 10:54:30.629819 29063 net.cpp:165] Memory required for data: 405903072
I0930 10:54:30.629823 29063 layer_factory.hpp:77] Creating layer conv4_7/linear/scale
I0930 10:54:30.629827 29063 net.cpp:100] Creating Layer conv4_7/linear/scale
I0930 10:54:30.629828 29063 net.cpp:434] conv4_7/linear/scale <- conv4_7/linear
I0930 10:54:30.629832 29063 net.cpp:395] conv4_7/linear/scale -> conv4_7/linear (in-place)
I0930 10:54:30.629859 29063 layer_factory.hpp:77] Creating layer conv4_7/linear/scale
I0930 10:54:30.629940 29063 net.cpp:150] Setting up conv4_7/linear/scale
I0930 10:54:30.629945 29063 net.cpp:157] Top shape: 1 96 19 32 (58368)
I0930 10:54:30.629946 29063 net.cpp:165] Memory required for data: 406136544
I0930 10:54:30.629950 29063 layer_factory.hpp:77] Creating layer conv4_7/linear_conv4_7/linear/scale_0_split
I0930 10:54:30.629953 29063 net.cpp:100] Creating Layer conv4_7/linear_conv4_7/linear/scale_0_split
I0930 10:54:30.629956 29063 net.cpp:434] conv4_7/linear_conv4_7/linear/scale_0_split <- conv4_7/linear
I0930 10:54:30.629961 29063 net.cpp:408] conv4_7/linear_conv4_7/linear/scale_0_split -> conv4_7/linear_conv4_7/linear/scale_0_split_0
I0930 10:54:30.629964 29063 net.cpp:408] conv4_7/linear_conv4_7/linear/scale_0_split -> conv4_7/linear_conv4_7/linear/scale_0_split_1
I0930 10:54:30.629989 29063 net.cpp:150] Setting up conv4_7/linear_conv4_7/linear/scale_0_split
I0930 10:54:30.629992 29063 net.cpp:157] Top shape: 1 96 19 32 (58368)
I0930 10:54:30.629995 29063 net.cpp:157] Top shape: 1 96 19 32 (58368)
I0930 10:54:30.629997 29063 net.cpp:165] Memory required for data: 406603488
I0930 10:54:30.629999 29063 layer_factory.hpp:77] Creating layer conv5_1/expand
I0930 10:54:30.630002 29063 net.cpp:100] Creating Layer conv5_1/expand
I0930 10:54:30.630005 29063 net.cpp:434] conv5_1/expand <- conv4_7/linear_conv4_7/linear/scale_0_split_0
I0930 10:54:30.630008 29063 net.cpp:408] conv5_1/expand -> conv5_1/expand
I0930 10:54:30.631492 29063 net.cpp:150] Setting up conv5_1/expand
I0930 10:54:30.631500 29063 net.cpp:157] Top shape: 1 576 19 32 (350208)
I0930 10:54:30.631501 29063 net.cpp:165] Memory required for data: 408004320
I0930 10:54:30.631505 29063 layer_factory.hpp:77] Creating layer conv5_1/expand/bn
I0930 10:54:30.631508 29063 net.cpp:100] Creating Layer conv5_1/expand/bn
I0930 10:54:30.631511 29063 net.cpp:434] conv5_1/expand/bn <- conv5_1/expand
I0930 10:54:30.631515 29063 net.cpp:395] conv5_1/expand/bn -> conv5_1/expand (in-place)
I0930 10:54:30.631656 29063 net.cpp:150] Setting up conv5_1/expand/bn
I0930 10:54:30.631660 29063 net.cpp:157] Top shape: 1 576 19 32 (350208)
I0930 10:54:30.631661 29063 net.cpp:165] Memory required for data: 409405152
I0930 10:54:30.631666 29063 layer_factory.hpp:77] Creating layer conv5_1/expand/scale
I0930 10:54:30.631670 29063 net.cpp:100] Creating Layer conv5_1/expand/scale
I0930 10:54:30.631672 29063 net.cpp:434] conv5_1/expand/scale <- conv5_1/expand
I0930 10:54:30.631675 29063 net.cpp:395] conv5_1/expand/scale -> conv5_1/expand (in-place)
I0930 10:54:30.631701 29063 layer_factory.hpp:77] Creating layer conv5_1/expand/scale
I0930 10:54:30.631783 29063 net.cpp:150] Setting up conv5_1/expand/scale
I0930 10:54:30.631786 29063 net.cpp:157] Top shape: 1 576 19 32 (350208)
I0930 10:54:30.631789 29063 net.cpp:165] Memory required for data: 410805984
I0930 10:54:30.631793 29063 layer_factory.hpp:77] Creating layer relu5_1/expand
I0930 10:54:30.631796 29063 net.cpp:100] Creating Layer relu5_1/expand
I0930 10:54:30.631798 29063 net.cpp:434] relu5_1/expand <- conv5_1/expand
I0930 10:54:30.631800 29063 net.cpp:395] relu5_1/expand -> conv5_1/expand (in-place)
I0930 10:54:30.632073 29063 net.cpp:150] Setting up relu5_1/expand
I0930 10:54:30.632079 29063 net.cpp:157] Top shape: 1 576 19 32 (350208)
I0930 10:54:30.632081 29063 net.cpp:165] Memory required for data: 412206816
I0930 10:54:30.632083 29063 layer_factory.hpp:77] Creating layer conv5_1/dwise
I0930 10:54:30.632087 29063 net.cpp:100] Creating Layer conv5_1/dwise
I0930 10:54:30.632097 29063 net.cpp:434] conv5_1/dwise <- conv5_1/expand
I0930 10:54:30.632100 29063 net.cpp:408] conv5_1/dwise -> conv5_1/dwise
I0930 10:54:30.632270 29063 net.cpp:150] Setting up conv5_1/dwise
I0930 10:54:30.632275 29063 net.cpp:157] Top shape: 1 576 19 32 (350208)
I0930 10:54:30.632278 29063 net.cpp:165] Memory required for data: 413607648
I0930 10:54:30.632282 29063 layer_factory.hpp:77] Creating layer conv5_1/dwise/bn
I0930 10:54:30.632284 29063 net.cpp:100] Creating Layer conv5_1/dwise/bn
I0930 10:54:30.632287 29063 net.cpp:434] conv5_1/dwise/bn <- conv5_1/dwise
I0930 10:54:30.632289 29063 net.cpp:395] conv5_1/dwise/bn -> conv5_1/dwise (in-place)
I0930 10:54:30.632424 29063 net.cpp:150] Setting up conv5_1/dwise/bn
I0930 10:54:30.632428 29063 net.cpp:157] Top shape: 1 576 19 32 (350208)
I0930 10:54:30.632429 29063 net.cpp:165] Memory required for data: 415008480
I0930 10:54:30.632434 29063 layer_factory.hpp:77] Creating layer conv5_1/dwise/scale
I0930 10:54:30.632438 29063 net.cpp:100] Creating Layer conv5_1/dwise/scale
I0930 10:54:30.632441 29063 net.cpp:434] conv5_1/dwise/scale <- conv5_1/dwise
I0930 10:54:30.632442 29063 net.cpp:395] conv5_1/dwise/scale -> conv5_1/dwise (in-place)
I0930 10:54:30.632468 29063 layer_factory.hpp:77] Creating layer conv5_1/dwise/scale
I0930 10:54:30.632547 29063 net.cpp:150] Setting up conv5_1/dwise/scale
I0930 10:54:30.632551 29063 net.cpp:157] Top shape: 1 576 19 32 (350208)
I0930 10:54:30.632552 29063 net.cpp:165] Memory required for data: 416409312
I0930 10:54:30.632555 29063 layer_factory.hpp:77] Creating layer relu5_1/dwise
I0930 10:54:30.632560 29063 net.cpp:100] Creating Layer relu5_1/dwise
I0930 10:54:30.632561 29063 net.cpp:434] relu5_1/dwise <- conv5_1/dwise
I0930 10:54:30.632563 29063 net.cpp:395] relu5_1/dwise -> conv5_1/dwise (in-place)
I0930 10:54:30.632833 29063 net.cpp:150] Setting up relu5_1/dwise
I0930 10:54:30.632839 29063 net.cpp:157] Top shape: 1 576 19 32 (350208)
I0930 10:54:30.632841 29063 net.cpp:165] Memory required for data: 417810144
I0930 10:54:30.632843 29063 layer_factory.hpp:77] Creating layer conv5_1/linear
I0930 10:54:30.632848 29063 net.cpp:100] Creating Layer conv5_1/linear
I0930 10:54:30.632851 29063 net.cpp:434] conv5_1/linear <- conv5_1/dwise
I0930 10:54:30.632854 29063 net.cpp:408] conv5_1/linear -> conv5_1/linear
I0930 10:54:30.634387 29063 net.cpp:150] Setting up conv5_1/linear
I0930 10:54:30.634395 29063 net.cpp:157] Top shape: 1 96 19 32 (58368)
I0930 10:54:30.634397 29063 net.cpp:165] Memory required for data: 418043616
I0930 10:54:30.634400 29063 layer_factory.hpp:77] Creating layer conv5_1/linear/bn
I0930 10:54:30.634405 29063 net.cpp:100] Creating Layer conv5_1/linear/bn
I0930 10:54:30.634407 29063 net.cpp:434] conv5_1/linear/bn <- conv5_1/linear
I0930 10:54:30.634410 29063 net.cpp:395] conv5_1/linear/bn -> conv5_1/linear (in-place)
I0930 10:54:30.634552 29063 net.cpp:150] Setting up conv5_1/linear/bn
I0930 10:54:30.634554 29063 net.cpp:157] Top shape: 1 96 19 32 (58368)
I0930 10:54:30.634557 29063 net.cpp:165] Memory required for data: 418277088
I0930 10:54:30.634560 29063 layer_factory.hpp:77] Creating layer conv5_1/linear/scale
I0930 10:54:30.634564 29063 net.cpp:100] Creating Layer conv5_1/linear/scale
I0930 10:54:30.634567 29063 net.cpp:434] conv5_1/linear/scale <- conv5_1/linear
I0930 10:54:30.634569 29063 net.cpp:395] conv5_1/linear/scale -> conv5_1/linear (in-place)
I0930 10:54:30.634596 29063 layer_factory.hpp:77] Creating layer conv5_1/linear/scale
I0930 10:54:30.634677 29063 net.cpp:150] Setting up conv5_1/linear/scale
I0930 10:54:30.634681 29063 net.cpp:157] Top shape: 1 96 19 32 (58368)
I0930 10:54:30.634683 29063 net.cpp:165] Memory required for data: 418510560
I0930 10:54:30.634686 29063 layer_factory.hpp:77] Creating layer block_5_1
I0930 10:54:30.634690 29063 net.cpp:100] Creating Layer block_5_1
I0930 10:54:30.634691 29063 net.cpp:434] block_5_1 <- conv4_7/linear_conv4_7/linear/scale_0_split_1
I0930 10:54:30.634694 29063 net.cpp:434] block_5_1 <- conv5_1/linear
I0930 10:54:30.634698 29063 net.cpp:408] block_5_1 -> block_5_1
I0930 10:54:30.634722 29063 net.cpp:150] Setting up block_5_1
I0930 10:54:30.634727 29063 net.cpp:157] Top shape: 1 96 19 32 (58368)
I0930 10:54:30.634728 29063 net.cpp:165] Memory required for data: 418744032
I0930 10:54:30.634732 29063 layer_factory.hpp:77] Creating layer block_5_1_block_5_1_0_split
I0930 10:54:30.634734 29063 net.cpp:100] Creating Layer block_5_1_block_5_1_0_split
I0930 10:54:30.634735 29063 net.cpp:434] block_5_1_block_5_1_0_split <- block_5_1
I0930 10:54:30.634739 29063 net.cpp:408] block_5_1_block_5_1_0_split -> block_5_1_block_5_1_0_split_0
I0930 10:54:30.634743 29063 net.cpp:408] block_5_1_block_5_1_0_split -> block_5_1_block_5_1_0_split_1
I0930 10:54:30.634769 29063 net.cpp:150] Setting up block_5_1_block_5_1_0_split
I0930 10:54:30.634773 29063 net.cpp:157] Top shape: 1 96 19 32 (58368)
I0930 10:54:30.634775 29063 net.cpp:157] Top shape: 1 96 19 32 (58368)
I0930 10:54:30.634778 29063 net.cpp:165] Memory required for data: 419210976
I0930 10:54:30.634779 29063 layer_factory.hpp:77] Creating layer conv5_2/expand
I0930 10:54:30.634783 29063 net.cpp:100] Creating Layer conv5_2/expand
I0930 10:54:30.634785 29063 net.cpp:434] conv5_2/expand <- block_5_1_block_5_1_0_split_0
I0930 10:54:30.634789 29063 net.cpp:408] conv5_2/expand -> conv5_2/expand
I0930 10:54:30.636247 29063 net.cpp:150] Setting up conv5_2/expand
I0930 10:54:30.636255 29063 net.cpp:157] Top shape: 1 576 19 32 (350208)
I0930 10:54:30.636257 29063 net.cpp:165] Memory required for data: 420611808
I0930 10:54:30.636260 29063 layer_factory.hpp:77] Creating layer conv5_2/expand/bn
I0930 10:54:30.636265 29063 net.cpp:100] Creating Layer conv5_2/expand/bn
I0930 10:54:30.636267 29063 net.cpp:434] conv5_2/expand/bn <- conv5_2/expand
I0930 10:54:30.636270 29063 net.cpp:395] conv5_2/expand/bn -> conv5_2/expand (in-place)
I0930 10:54:30.636415 29063 net.cpp:150] Setting up conv5_2/expand/bn
I0930 10:54:30.636417 29063 net.cpp:157] Top shape: 1 576 19 32 (350208)
I0930 10:54:30.636420 29063 net.cpp:165] Memory required for data: 422012640
I0930 10:54:30.636423 29063 layer_factory.hpp:77] Creating layer conv5_2/expand/scale
I0930 10:54:30.636428 29063 net.cpp:100] Creating Layer conv5_2/expand/scale
I0930 10:54:30.636430 29063 net.cpp:434] conv5_2/expand/scale <- conv5_2/expand
I0930 10:54:30.636433 29063 net.cpp:395] conv5_2/expand/scale -> conv5_2/expand (in-place)
I0930 10:54:30.636459 29063 layer_factory.hpp:77] Creating layer conv5_2/expand/scale
I0930 10:54:30.636539 29063 net.cpp:150] Setting up conv5_2/expand/scale
I0930 10:54:30.636543 29063 net.cpp:157] Top shape: 1 576 19 32 (350208)
I0930 10:54:30.636545 29063 net.cpp:165] Memory required for data: 423413472
I0930 10:54:30.636548 29063 layer_factory.hpp:77] Creating layer relu5_2/expand
I0930 10:54:30.636553 29063 net.cpp:100] Creating Layer relu5_2/expand
I0930 10:54:30.636554 29063 net.cpp:434] relu5_2/expand <- conv5_2/expand
I0930 10:54:30.636557 29063 net.cpp:395] relu5_2/expand -> conv5_2/expand (in-place)
I0930 10:54:30.636829 29063 net.cpp:150] Setting up relu5_2/expand
I0930 10:54:30.636834 29063 net.cpp:157] Top shape: 1 576 19 32 (350208)
I0930 10:54:30.636837 29063 net.cpp:165] Memory required for data: 424814304
I0930 10:54:30.636838 29063 layer_factory.hpp:77] Creating layer conv5_2/dwise
I0930 10:54:30.636843 29063 net.cpp:100] Creating Layer conv5_2/dwise
I0930 10:54:30.636845 29063 net.cpp:434] conv5_2/dwise <- conv5_2/expand
I0930 10:54:30.636849 29063 net.cpp:408] conv5_2/dwise -> conv5_2/dwise
I0930 10:54:30.637019 29063 net.cpp:150] Setting up conv5_2/dwise
I0930 10:54:30.637023 29063 net.cpp:157] Top shape: 1 576 19 32 (350208)
I0930 10:54:30.637025 29063 net.cpp:165] Memory required for data: 426215136
I0930 10:54:30.637028 29063 layer_factory.hpp:77] Creating layer conv5_2/dwise/bn
I0930 10:54:30.637032 29063 net.cpp:100] Creating Layer conv5_2/dwise/bn
I0930 10:54:30.637033 29063 net.cpp:434] conv5_2/dwise/bn <- conv5_2/dwise
I0930 10:54:30.637037 29063 net.cpp:395] conv5_2/dwise/bn -> conv5_2/dwise (in-place)
I0930 10:54:30.637172 29063 net.cpp:150] Setting up conv5_2/dwise/bn
I0930 10:54:30.637183 29063 net.cpp:157] Top shape: 1 576 19 32 (350208)
I0930 10:54:30.637185 29063 net.cpp:165] Memory required for data: 427615968
I0930 10:54:30.637190 29063 layer_factory.hpp:77] Creating layer conv5_2/dwise/scale
I0930 10:54:30.637193 29063 net.cpp:100] Creating Layer conv5_2/dwise/scale
I0930 10:54:30.637195 29063 net.cpp:434] conv5_2/dwise/scale <- conv5_2/dwise
I0930 10:54:30.637198 29063 net.cpp:395] conv5_2/dwise/scale -> conv5_2/dwise (in-place)
I0930 10:54:30.637226 29063 layer_factory.hpp:77] Creating layer conv5_2/dwise/scale
I0930 10:54:30.637307 29063 net.cpp:150] Setting up conv5_2/dwise/scale
I0930 10:54:30.637311 29063 net.cpp:157] Top shape: 1 576 19 32 (350208)
I0930 10:54:30.637312 29063 net.cpp:165] Memory required for data: 429016800
I0930 10:54:30.637316 29063 layer_factory.hpp:77] Creating layer relu5_2/dwise
I0930 10:54:30.637320 29063 net.cpp:100] Creating Layer relu5_2/dwise
I0930 10:54:30.637321 29063 net.cpp:434] relu5_2/dwise <- conv5_2/dwise
I0930 10:54:30.637325 29063 net.cpp:395] relu5_2/dwise -> conv5_2/dwise (in-place)
I0930 10:54:30.637697 29063 net.cpp:150] Setting up relu5_2/dwise
I0930 10:54:30.637703 29063 net.cpp:157] Top shape: 1 576 19 32 (350208)
I0930 10:54:30.637706 29063 net.cpp:165] Memory required for data: 430417632
I0930 10:54:30.637707 29063 layer_factory.hpp:77] Creating layer conv5_2/linear
I0930 10:54:30.637713 29063 net.cpp:100] Creating Layer conv5_2/linear
I0930 10:54:30.637715 29063 net.cpp:434] conv5_2/linear <- conv5_2/dwise
I0930 10:54:30.637719 29063 net.cpp:408] conv5_2/linear -> conv5_2/linear
I0930 10:54:30.639086 29063 net.cpp:150] Setting up conv5_2/linear
I0930 10:54:30.639093 29063 net.cpp:157] Top shape: 1 96 19 32 (58368)
I0930 10:54:30.639096 29063 net.cpp:165] Memory required for data: 430651104
I0930 10:54:30.639099 29063 layer_factory.hpp:77] Creating layer conv5_2/linear/bn
I0930 10:54:30.639103 29063 net.cpp:100] Creating Layer conv5_2/linear/bn
I0930 10:54:30.639106 29063 net.cpp:434] conv5_2/linear/bn <- conv5_2/linear
I0930 10:54:30.639111 29063 net.cpp:395] conv5_2/linear/bn -> conv5_2/linear (in-place)
I0930 10:54:30.639256 29063 net.cpp:150] Setting up conv5_2/linear/bn
I0930 10:54:30.639261 29063 net.cpp:157] Top shape: 1 96 19 32 (58368)
I0930 10:54:30.639262 29063 net.cpp:165] Memory required for data: 430884576
I0930 10:54:30.639266 29063 layer_factory.hpp:77] Creating layer conv5_2/linear/scale
I0930 10:54:30.639269 29063 net.cpp:100] Creating Layer conv5_2/linear/scale
I0930 10:54:30.639271 29063 net.cpp:434] conv5_2/linear/scale <- conv5_2/linear
I0930 10:54:30.639274 29063 net.cpp:395] conv5_2/linear/scale -> conv5_2/linear (in-place)
I0930 10:54:30.639302 29063 layer_factory.hpp:77] Creating layer conv5_2/linear/scale
I0930 10:54:30.639382 29063 net.cpp:150] Setting up conv5_2/linear/scale
I0930 10:54:30.639386 29063 net.cpp:157] Top shape: 1 96 19 32 (58368)
I0930 10:54:30.639389 29063 net.cpp:165] Memory required for data: 431118048
I0930 10:54:30.639391 29063 layer_factory.hpp:77] Creating layer block_5_2
I0930 10:54:30.639394 29063 net.cpp:100] Creating Layer block_5_2
I0930 10:54:30.639396 29063 net.cpp:434] block_5_2 <- block_5_1_block_5_1_0_split_1
I0930 10:54:30.639400 29063 net.cpp:434] block_5_2 <- conv5_2/linear
I0930 10:54:30.639403 29063 net.cpp:408] block_5_2 -> block_5_2
I0930 10:54:30.639418 29063 net.cpp:150] Setting up block_5_2
I0930 10:54:30.639423 29063 net.cpp:157] Top shape: 1 96 19 32 (58368)
I0930 10:54:30.639425 29063 net.cpp:165] Memory required for data: 431351520
I0930 10:54:30.639427 29063 layer_factory.hpp:77] Creating layer conv5_3/expand
I0930 10:54:30.639431 29063 net.cpp:100] Creating Layer conv5_3/expand
I0930 10:54:30.639433 29063 net.cpp:434] conv5_3/expand <- block_5_2
I0930 10:54:30.639437 29063 net.cpp:408] conv5_3/expand -> conv5_3/expand
I0930 10:54:30.641258 29063 net.cpp:150] Setting up conv5_3/expand
I0930 10:54:30.641265 29063 net.cpp:157] Top shape: 1 576 19 32 (350208)
I0930 10:54:30.641268 29063 net.cpp:165] Memory required for data: 432752352
I0930 10:54:30.641280 29063 layer_factory.hpp:77] Creating layer conv5_3/expand/bn
I0930 10:54:30.641286 29063 net.cpp:100] Creating Layer conv5_3/expand/bn
I0930 10:54:30.641288 29063 net.cpp:434] conv5_3/expand/bn <- conv5_3/expand
I0930 10:54:30.641291 29063 net.cpp:395] conv5_3/expand/bn -> conv5_3/expand (in-place)
I0930 10:54:30.641438 29063 net.cpp:150] Setting up conv5_3/expand/bn
I0930 10:54:30.641441 29063 net.cpp:157] Top shape: 1 576 19 32 (350208)
I0930 10:54:30.641443 29063 net.cpp:165] Memory required for data: 434153184
I0930 10:54:30.641446 29063 layer_factory.hpp:77] Creating layer conv5_3/expand/scale
I0930 10:54:30.641450 29063 net.cpp:100] Creating Layer conv5_3/expand/scale
I0930 10:54:30.641453 29063 net.cpp:434] conv5_3/expand/scale <- conv5_3/expand
I0930 10:54:30.641455 29063 net.cpp:395] conv5_3/expand/scale -> conv5_3/expand (in-place)
I0930 10:54:30.641482 29063 layer_factory.hpp:77] Creating layer conv5_3/expand/scale
I0930 10:54:30.641564 29063 net.cpp:150] Setting up conv5_3/expand/scale
I0930 10:54:30.641568 29063 net.cpp:157] Top shape: 1 576 19 32 (350208)
I0930 10:54:30.641571 29063 net.cpp:165] Memory required for data: 435554016
I0930 10:54:30.641573 29063 layer_factory.hpp:77] Creating layer relu5_3/expand
I0930 10:54:30.641577 29063 net.cpp:100] Creating Layer relu5_3/expand
I0930 10:54:30.641578 29063 net.cpp:434] relu5_3/expand <- conv5_3/expand
I0930 10:54:30.641582 29063 net.cpp:395] relu5_3/expand -> conv5_3/expand (in-place)
I0930 10:54:30.641856 29063 net.cpp:150] Setting up relu5_3/expand
I0930 10:54:30.641861 29063 net.cpp:157] Top shape: 1 576 19 32 (350208)
I0930 10:54:30.641863 29063 net.cpp:165] Memory required for data: 436954848
I0930 10:54:30.641865 29063 layer_factory.hpp:77] Creating layer conv5_3/expand_relu5_3/expand_0_split
I0930 10:54:30.641870 29063 net.cpp:100] Creating Layer conv5_3/expand_relu5_3/expand_0_split
I0930 10:54:30.641872 29063 net.cpp:434] conv5_3/expand_relu5_3/expand_0_split <- conv5_3/expand
I0930 10:54:30.641875 29063 net.cpp:408] conv5_3/expand_relu5_3/expand_0_split -> conv5_3/expand_relu5_3/expand_0_split_0
I0930 10:54:30.641880 29063 net.cpp:408] conv5_3/expand_relu5_3/expand_0_split -> conv5_3/expand_relu5_3/expand_0_split_1
I0930 10:54:30.641908 29063 net.cpp:150] Setting up conv5_3/expand_relu5_3/expand_0_split
I0930 10:54:30.641911 29063 net.cpp:157] Top shape: 1 576 19 32 (350208)
I0930 10:54:30.641914 29063 net.cpp:157] Top shape: 1 576 19 32 (350208)
I0930 10:54:30.641916 29063 net.cpp:165] Memory required for data: 439756512
I0930 10:54:30.641917 29063 layer_factory.hpp:77] Creating layer conv5_3/dwise
I0930 10:54:30.641922 29063 net.cpp:100] Creating Layer conv5_3/dwise
I0930 10:54:30.641924 29063 net.cpp:434] conv5_3/dwise <- conv5_3/expand_relu5_3/expand_0_split_0
I0930 10:54:30.641928 29063 net.cpp:408] conv5_3/dwise -> conv5_3/dwise
I0930 10:54:30.642096 29063 net.cpp:150] Setting up conv5_3/dwise
I0930 10:54:30.642101 29063 net.cpp:157] Top shape: 1 576 10 16 (92160)
I0930 10:54:30.642102 29063 net.cpp:165] Memory required for data: 440125152
I0930 10:54:30.642104 29063 layer_factory.hpp:77] Creating layer conv5_3/dwise/bn
I0930 10:54:30.642108 29063 net.cpp:100] Creating Layer conv5_3/dwise/bn
I0930 10:54:30.642112 29063 net.cpp:434] conv5_3/dwise/bn <- conv5_3/dwise
I0930 10:54:30.642114 29063 net.cpp:395] conv5_3/dwise/bn -> conv5_3/dwise (in-place)
I0930 10:54:30.642251 29063 net.cpp:150] Setting up conv5_3/dwise/bn
I0930 10:54:30.642254 29063 net.cpp:157] Top shape: 1 576 10 16 (92160)
I0930 10:54:30.642257 29063 net.cpp:165] Memory required for data: 440493792
I0930 10:54:30.642261 29063 layer_factory.hpp:77] Creating layer conv5_3/dwise/scale
I0930 10:54:30.642264 29063 net.cpp:100] Creating Layer conv5_3/dwise/scale
I0930 10:54:30.642266 29063 net.cpp:434] conv5_3/dwise/scale <- conv5_3/dwise
I0930 10:54:30.642271 29063 net.cpp:395] conv5_3/dwise/scale -> conv5_3/dwise (in-place)
I0930 10:54:30.642297 29063 layer_factory.hpp:77] Creating layer conv5_3/dwise/scale
I0930 10:54:30.642375 29063 net.cpp:150] Setting up conv5_3/dwise/scale
I0930 10:54:30.642385 29063 net.cpp:157] Top shape: 1 576 10 16 (92160)
I0930 10:54:30.642388 29063 net.cpp:165] Memory required for data: 440862432
I0930 10:54:30.642391 29063 layer_factory.hpp:77] Creating layer relu5_3/dwise
I0930 10:54:30.642395 29063 net.cpp:100] Creating Layer relu5_3/dwise
I0930 10:54:30.642397 29063 net.cpp:434] relu5_3/dwise <- conv5_3/dwise
I0930 10:54:30.642401 29063 net.cpp:395] relu5_3/dwise -> conv5_3/dwise (in-place)
I0930 10:54:30.642779 29063 net.cpp:150] Setting up relu5_3/dwise
I0930 10:54:30.642786 29063 net.cpp:157] Top shape: 1 576 10 16 (92160)
I0930 10:54:30.642787 29063 net.cpp:165] Memory required for data: 441231072
I0930 10:54:30.642791 29063 layer_factory.hpp:77] Creating layer conv5_3/linear
I0930 10:54:30.642796 29063 net.cpp:100] Creating Layer conv5_3/linear
I0930 10:54:30.642798 29063 net.cpp:434] conv5_3/linear <- conv5_3/dwise
I0930 10:54:30.642802 29063 net.cpp:408] conv5_3/linear -> conv5_3/linear
I0930 10:54:30.645133 29063 net.cpp:150] Setting up conv5_3/linear
I0930 10:54:30.645143 29063 net.cpp:157] Top shape: 1 160 10 16 (25600)
I0930 10:54:30.645145 29063 net.cpp:165] Memory required for data: 441333472
I0930 10:54:30.645149 29063 layer_factory.hpp:77] Creating layer conv5_3/linear/bn
I0930 10:54:30.645156 29063 net.cpp:100] Creating Layer conv5_3/linear/bn
I0930 10:54:30.645160 29063 net.cpp:434] conv5_3/linear/bn <- conv5_3/linear
I0930 10:54:30.645164 29063 net.cpp:395] conv5_3/linear/bn -> conv5_3/linear (in-place)
I0930 10:54:30.645308 29063 net.cpp:150] Setting up conv5_3/linear/bn
I0930 10:54:30.645313 29063 net.cpp:157] Top shape: 1 160 10 16 (25600)
I0930 10:54:30.645314 29063 net.cpp:165] Memory required for data: 441435872
I0930 10:54:30.645318 29063 layer_factory.hpp:77] Creating layer conv5_3/linear/scale
I0930 10:54:30.645323 29063 net.cpp:100] Creating Layer conv5_3/linear/scale
I0930 10:54:30.645325 29063 net.cpp:434] conv5_3/linear/scale <- conv5_3/linear
I0930 10:54:30.645328 29063 net.cpp:395] conv5_3/linear/scale -> conv5_3/linear (in-place)
I0930 10:54:30.645354 29063 layer_factory.hpp:77] Creating layer conv5_3/linear/scale
I0930 10:54:30.645432 29063 net.cpp:150] Setting up conv5_3/linear/scale
I0930 10:54:30.645437 29063 net.cpp:157] Top shape: 1 160 10 16 (25600)
I0930 10:54:30.645438 29063 net.cpp:165] Memory required for data: 441538272
I0930 10:54:30.645459 29063 layer_factory.hpp:77] Creating layer conv5_3/linear_conv5_3/linear/scale_0_split
I0930 10:54:30.645465 29063 net.cpp:100] Creating Layer conv5_3/linear_conv5_3/linear/scale_0_split
I0930 10:54:30.645469 29063 net.cpp:434] conv5_3/linear_conv5_3/linear/scale_0_split <- conv5_3/linear
I0930 10:54:30.645473 29063 net.cpp:408] conv5_3/linear_conv5_3/linear/scale_0_split -> conv5_3/linear_conv5_3/linear/scale_0_split_0
I0930 10:54:30.645478 29063 net.cpp:408] conv5_3/linear_conv5_3/linear/scale_0_split -> conv5_3/linear_conv5_3/linear/scale_0_split_1
I0930 10:54:30.645506 29063 net.cpp:150] Setting up conv5_3/linear_conv5_3/linear/scale_0_split
I0930 10:54:30.645511 29063 net.cpp:157] Top shape: 1 160 10 16 (25600)
I0930 10:54:30.645514 29063 net.cpp:157] Top shape: 1 160 10 16 (25600)
I0930 10:54:30.645516 29063 net.cpp:165] Memory required for data: 441743072
I0930 10:54:30.645519 29063 layer_factory.hpp:77] Creating layer conv6_1/expand
I0930 10:54:30.645527 29063 net.cpp:100] Creating Layer conv6_1/expand
I0930 10:54:30.645530 29063 net.cpp:434] conv6_1/expand <- conv5_3/linear_conv5_3/linear/scale_0_split_0
I0930 10:54:30.645537 29063 net.cpp:408] conv6_1/expand -> conv6_1/expand
I0930 10:54:30.647559 29063 net.cpp:150] Setting up conv6_1/expand
I0930 10:54:30.647568 29063 net.cpp:157] Top shape: 1 960 10 16 (153600)
I0930 10:54:30.647570 29063 net.cpp:165] Memory required for data: 442357472
I0930 10:54:30.647574 29063 layer_factory.hpp:77] Creating layer conv6_1/expand/bn
I0930 10:54:30.647580 29063 net.cpp:100] Creating Layer conv6_1/expand/bn
I0930 10:54:30.647584 29063 net.cpp:434] conv6_1/expand/bn <- conv6_1/expand
I0930 10:54:30.647598 29063 net.cpp:395] conv6_1/expand/bn -> conv6_1/expand (in-place)
I0930 10:54:30.647748 29063 net.cpp:150] Setting up conv6_1/expand/bn
I0930 10:54:30.647753 29063 net.cpp:157] Top shape: 1 960 10 16 (153600)
I0930 10:54:30.647755 29063 net.cpp:165] Memory required for data: 442971872
I0930 10:54:30.647759 29063 layer_factory.hpp:77] Creating layer conv6_1/expand/scale
I0930 10:54:30.647763 29063 net.cpp:100] Creating Layer conv6_1/expand/scale
I0930 10:54:30.647765 29063 net.cpp:434] conv6_1/expand/scale <- conv6_1/expand
I0930 10:54:30.647768 29063 net.cpp:395] conv6_1/expand/scale -> conv6_1/expand (in-place)
I0930 10:54:30.647799 29063 layer_factory.hpp:77] Creating layer conv6_1/expand/scale
I0930 10:54:30.647878 29063 net.cpp:150] Setting up conv6_1/expand/scale
I0930 10:54:30.647882 29063 net.cpp:157] Top shape: 1 960 10 16 (153600)
I0930 10:54:30.647884 29063 net.cpp:165] Memory required for data: 443586272
I0930 10:54:30.647888 29063 layer_factory.hpp:77] Creating layer relu6_1/expand
I0930 10:54:30.647891 29063 net.cpp:100] Creating Layer relu6_1/expand
I0930 10:54:30.647893 29063 net.cpp:434] relu6_1/expand <- conv6_1/expand
I0930 10:54:30.647897 29063 net.cpp:395] relu6_1/expand -> conv6_1/expand (in-place)
I0930 10:54:30.648283 29063 net.cpp:150] Setting up relu6_1/expand
I0930 10:54:30.648288 29063 net.cpp:157] Top shape: 1 960 10 16 (153600)
I0930 10:54:30.648290 29063 net.cpp:165] Memory required for data: 444200672
I0930 10:54:30.648293 29063 layer_factory.hpp:77] Creating layer conv6_1/dwise
I0930 10:54:30.648298 29063 net.cpp:100] Creating Layer conv6_1/dwise
I0930 10:54:30.648300 29063 net.cpp:434] conv6_1/dwise <- conv6_1/expand
I0930 10:54:30.648303 29063 net.cpp:408] conv6_1/dwise -> conv6_1/dwise
I0930 10:54:30.648502 29063 net.cpp:150] Setting up conv6_1/dwise
I0930 10:54:30.648506 29063 net.cpp:157] Top shape: 1 960 10 16 (153600)
I0930 10:54:30.648509 29063 net.cpp:165] Memory required for data: 444815072
I0930 10:54:30.648511 29063 layer_factory.hpp:77] Creating layer conv6_1/dwise/bn
I0930 10:54:30.648515 29063 net.cpp:100] Creating Layer conv6_1/dwise/bn
I0930 10:54:30.648519 29063 net.cpp:434] conv6_1/dwise/bn <- conv6_1/dwise
I0930 10:54:30.648521 29063 net.cpp:395] conv6_1/dwise/bn -> conv6_1/dwise (in-place)
I0930 10:54:30.648661 29063 net.cpp:150] Setting up conv6_1/dwise/bn
I0930 10:54:30.648664 29063 net.cpp:157] Top shape: 1 960 10 16 (153600)
I0930 10:54:30.648667 29063 net.cpp:165] Memory required for data: 445429472
I0930 10:54:30.648671 29063 layer_factory.hpp:77] Creating layer conv6_1/dwise/scale
I0930 10:54:30.648674 29063 net.cpp:100] Creating Layer conv6_1/dwise/scale
I0930 10:54:30.648676 29063 net.cpp:434] conv6_1/dwise/scale <- conv6_1/dwise
I0930 10:54:30.648679 29063 net.cpp:395] conv6_1/dwise/scale -> conv6_1/dwise (in-place)
I0930 10:54:30.648706 29063 layer_factory.hpp:77] Creating layer conv6_1/dwise/scale
I0930 10:54:30.648787 29063 net.cpp:150] Setting up conv6_1/dwise/scale
I0930 10:54:30.648792 29063 net.cpp:157] Top shape: 1 960 10 16 (153600)
I0930 10:54:30.648793 29063 net.cpp:165] Memory required for data: 446043872
I0930 10:54:30.648797 29063 layer_factory.hpp:77] Creating layer relu6_1/dwise
I0930 10:54:30.648800 29063 net.cpp:100] Creating Layer relu6_1/dwise
I0930 10:54:30.648802 29063 net.cpp:434] relu6_1/dwise <- conv6_1/dwise
I0930 10:54:30.648805 29063 net.cpp:395] relu6_1/dwise -> conv6_1/dwise (in-place)
I0930 10:54:30.649077 29063 net.cpp:150] Setting up relu6_1/dwise
I0930 10:54:30.649082 29063 net.cpp:157] Top shape: 1 960 10 16 (153600)
I0930 10:54:30.649085 29063 net.cpp:165] Memory required for data: 446658272
I0930 10:54:30.649086 29063 layer_factory.hpp:77] Creating layer conv6_1/linear
I0930 10:54:30.649091 29063 net.cpp:100] Creating Layer conv6_1/linear
I0930 10:54:30.649093 29063 net.cpp:434] conv6_1/linear <- conv6_1/dwise
I0930 10:54:30.649097 29063 net.cpp:408] conv6_1/linear -> conv6_1/linear
I0930 10:54:30.651038 29063 net.cpp:150] Setting up conv6_1/linear
I0930 10:54:30.651046 29063 net.cpp:157] Top shape: 1 160 10 16 (25600)
I0930 10:54:30.651055 29063 net.cpp:165] Memory required for data: 446760672
I0930 10:54:30.651058 29063 layer_factory.hpp:77] Creating layer conv6_1/linear/bn
I0930 10:54:30.651064 29063 net.cpp:100] Creating Layer conv6_1/linear/bn
I0930 10:54:30.651067 29063 net.cpp:434] conv6_1/linear/bn <- conv6_1/linear
I0930 10:54:30.651070 29063 net.cpp:395] conv6_1/linear/bn -> conv6_1/linear (in-place)
I0930 10:54:30.651209 29063 net.cpp:150] Setting up conv6_1/linear/bn
I0930 10:54:30.651218 29063 net.cpp:157] Top shape: 1 160 10 16 (25600)
I0930 10:54:30.651219 29063 net.cpp:165] Memory required for data: 446863072
I0930 10:54:30.651223 29063 layer_factory.hpp:77] Creating layer conv6_1/linear/scale
I0930 10:54:30.651227 29063 net.cpp:100] Creating Layer conv6_1/linear/scale
I0930 10:54:30.651230 29063 net.cpp:434] conv6_1/linear/scale <- conv6_1/linear
I0930 10:54:30.651232 29063 net.cpp:395] conv6_1/linear/scale -> conv6_1/linear (in-place)
I0930 10:54:30.651258 29063 layer_factory.hpp:77] Creating layer conv6_1/linear/scale
I0930 10:54:30.651336 29063 net.cpp:150] Setting up conv6_1/linear/scale
I0930 10:54:30.651341 29063 net.cpp:157] Top shape: 1 160 10 16 (25600)
I0930 10:54:30.651343 29063 net.cpp:165] Memory required for data: 446965472
I0930 10:54:30.651346 29063 layer_factory.hpp:77] Creating layer block_6_1
I0930 10:54:30.651350 29063 net.cpp:100] Creating Layer block_6_1
I0930 10:54:30.651353 29063 net.cpp:434] block_6_1 <- conv5_3/linear_conv5_3/linear/scale_0_split_1
I0930 10:54:30.651355 29063 net.cpp:434] block_6_1 <- conv6_1/linear
I0930 10:54:30.651358 29063 net.cpp:408] block_6_1 -> block_6_1
I0930 10:54:30.651376 29063 net.cpp:150] Setting up block_6_1
I0930 10:54:30.651379 29063 net.cpp:157] Top shape: 1 160 10 16 (25600)
I0930 10:54:30.651382 29063 net.cpp:165] Memory required for data: 447067872
I0930 10:54:30.651383 29063 layer_factory.hpp:77] Creating layer block_6_1_block_6_1_0_split
I0930 10:54:30.651386 29063 net.cpp:100] Creating Layer block_6_1_block_6_1_0_split
I0930 10:54:30.651388 29063 net.cpp:434] block_6_1_block_6_1_0_split <- block_6_1
I0930 10:54:30.651391 29063 net.cpp:408] block_6_1_block_6_1_0_split -> block_6_1_block_6_1_0_split_0
I0930 10:54:30.651396 29063 net.cpp:408] block_6_1_block_6_1_0_split -> block_6_1_block_6_1_0_split_1
I0930 10:54:30.651420 29063 net.cpp:150] Setting up block_6_1_block_6_1_0_split
I0930 10:54:30.651424 29063 net.cpp:157] Top shape: 1 160 10 16 (25600)
I0930 10:54:30.651427 29063 net.cpp:157] Top shape: 1 160 10 16 (25600)
I0930 10:54:30.651428 29063 net.cpp:165] Memory required for data: 447272672
I0930 10:54:30.651430 29063 layer_factory.hpp:77] Creating layer conv6_2/expand
I0930 10:54:30.651435 29063 net.cpp:100] Creating Layer conv6_2/expand
I0930 10:54:30.651437 29063 net.cpp:434] conv6_2/expand <- block_6_1_block_6_1_0_split_0
I0930 10:54:30.651440 29063 net.cpp:408] conv6_2/expand -> conv6_2/expand
I0930 10:54:30.653815 29063 net.cpp:150] Setting up conv6_2/expand
I0930 10:54:30.653822 29063 net.cpp:157] Top shape: 1 960 10 16 (153600)
I0930 10:54:30.653825 29063 net.cpp:165] Memory required for data: 447887072
I0930 10:54:30.653827 29063 layer_factory.hpp:77] Creating layer conv6_2/expand/bn
I0930 10:54:30.653832 29063 net.cpp:100] Creating Layer conv6_2/expand/bn
I0930 10:54:30.653836 29063 net.cpp:434] conv6_2/expand/bn <- conv6_2/expand
I0930 10:54:30.653838 29063 net.cpp:395] conv6_2/expand/bn -> conv6_2/expand (in-place)
I0930 10:54:30.653988 29063 net.cpp:150] Setting up conv6_2/expand/bn
I0930 10:54:30.653992 29063 net.cpp:157] Top shape: 1 960 10 16 (153600)
I0930 10:54:30.653995 29063 net.cpp:165] Memory required for data: 448501472
I0930 10:54:30.654000 29063 layer_factory.hpp:77] Creating layer conv6_2/expand/scale
I0930 10:54:30.654002 29063 net.cpp:100] Creating Layer conv6_2/expand/scale
I0930 10:54:30.654004 29063 net.cpp:434] conv6_2/expand/scale <- conv6_2/expand
I0930 10:54:30.654007 29063 net.cpp:395] conv6_2/expand/scale -> conv6_2/expand (in-place)
I0930 10:54:30.654036 29063 layer_factory.hpp:77] Creating layer conv6_2/expand/scale
I0930 10:54:30.654127 29063 net.cpp:150] Setting up conv6_2/expand/scale
I0930 10:54:30.654131 29063 net.cpp:157] Top shape: 1 960 10 16 (153600)
I0930 10:54:30.654134 29063 net.cpp:165] Memory required for data: 449115872
I0930 10:54:30.654137 29063 layer_factory.hpp:77] Creating layer relu6_2/expand
I0930 10:54:30.654140 29063 net.cpp:100] Creating Layer relu6_2/expand
I0930 10:54:30.654142 29063 net.cpp:434] relu6_2/expand <- conv6_2/expand
I0930 10:54:30.654146 29063 net.cpp:395] relu6_2/expand -> conv6_2/expand (in-place)
I0930 10:54:30.654520 29063 net.cpp:150] Setting up relu6_2/expand
I0930 10:54:30.654526 29063 net.cpp:157] Top shape: 1 960 10 16 (153600)
I0930 10:54:30.654527 29063 net.cpp:165] Memory required for data: 449730272
I0930 10:54:30.654531 29063 layer_factory.hpp:77] Creating layer conv6_2/dwise
I0930 10:54:30.654536 29063 net.cpp:100] Creating Layer conv6_2/dwise
I0930 10:54:30.654538 29063 net.cpp:434] conv6_2/dwise <- conv6_2/expand
I0930 10:54:30.654541 29063 net.cpp:408] conv6_2/dwise -> conv6_2/dwise
I0930 10:54:30.654742 29063 net.cpp:150] Setting up conv6_2/dwise
I0930 10:54:30.654745 29063 net.cpp:157] Top shape: 1 960 10 16 (153600)
I0930 10:54:30.654747 29063 net.cpp:165] Memory required for data: 450344672
I0930 10:54:30.654750 29063 layer_factory.hpp:77] Creating layer conv6_2/dwise/bn
I0930 10:54:30.654754 29063 net.cpp:100] Creating Layer conv6_2/dwise/bn
I0930 10:54:30.654757 29063 net.cpp:434] conv6_2/dwise/bn <- conv6_2/dwise
I0930 10:54:30.654758 29063 net.cpp:395] conv6_2/dwise/bn -> conv6_2/dwise (in-place)
I0930 10:54:30.654898 29063 net.cpp:150] Setting up conv6_2/dwise/bn
I0930 10:54:30.654902 29063 net.cpp:157] Top shape: 1 960 10 16 (153600)
I0930 10:54:30.654904 29063 net.cpp:165] Memory required for data: 450959072
I0930 10:54:30.654908 29063 layer_factory.hpp:77] Creating layer conv6_2/dwise/scale
I0930 10:54:30.654912 29063 net.cpp:100] Creating Layer conv6_2/dwise/scale
I0930 10:54:30.654914 29063 net.cpp:434] conv6_2/dwise/scale <- conv6_2/dwise
I0930 10:54:30.654917 29063 net.cpp:395] conv6_2/dwise/scale -> conv6_2/dwise (in-place)
I0930 10:54:30.654944 29063 layer_factory.hpp:77] Creating layer conv6_2/dwise/scale
I0930 10:54:30.655026 29063 net.cpp:150] Setting up conv6_2/dwise/scale
I0930 10:54:30.655030 29063 net.cpp:157] Top shape: 1 960 10 16 (153600)
I0930 10:54:30.655032 29063 net.cpp:165] Memory required for data: 451573472
I0930 10:54:30.655035 29063 layer_factory.hpp:77] Creating layer relu6_2/dwise
I0930 10:54:30.655038 29063 net.cpp:100] Creating Layer relu6_2/dwise
I0930 10:54:30.655041 29063 net.cpp:434] relu6_2/dwise <- conv6_2/dwise
I0930 10:54:30.655045 29063 net.cpp:395] relu6_2/dwise -> conv6_2/dwise (in-place)
I0930 10:54:30.655325 29063 net.cpp:150] Setting up relu6_2/dwise
I0930 10:54:30.655331 29063 net.cpp:157] Top shape: 1 960 10 16 (153600)
I0930 10:54:30.655333 29063 net.cpp:165] Memory required for data: 452187872
I0930 10:54:30.655335 29063 layer_factory.hpp:77] Creating layer conv6_2/linear
I0930 10:54:30.655340 29063 net.cpp:100] Creating Layer conv6_2/linear
I0930 10:54:30.655344 29063 net.cpp:434] conv6_2/linear <- conv6_2/dwise
I0930 10:54:30.655347 29063 net.cpp:408] conv6_2/linear -> conv6_2/linear
I0930 10:54:30.657305 29063 net.cpp:150] Setting up conv6_2/linear
I0930 10:54:30.657312 29063 net.cpp:157] Top shape: 1 160 10 16 (25600)
I0930 10:54:30.657315 29063 net.cpp:165] Memory required for data: 452290272
I0930 10:54:30.657318 29063 layer_factory.hpp:77] Creating layer conv6_2/linear/bn
I0930 10:54:30.657322 29063 net.cpp:100] Creating Layer conv6_2/linear/bn
I0930 10:54:30.657325 29063 net.cpp:434] conv6_2/linear/bn <- conv6_2/linear
I0930 10:54:30.657328 29063 net.cpp:395] conv6_2/linear/bn -> conv6_2/linear (in-place)
I0930 10:54:30.657469 29063 net.cpp:150] Setting up conv6_2/linear/bn
I0930 10:54:30.657474 29063 net.cpp:157] Top shape: 1 160 10 16 (25600)
I0930 10:54:30.657475 29063 net.cpp:165] Memory required for data: 452392672
I0930 10:54:30.657479 29063 layer_factory.hpp:77] Creating layer conv6_2/linear/scale
I0930 10:54:30.657491 29063 net.cpp:100] Creating Layer conv6_2/linear/scale
I0930 10:54:30.657493 29063 net.cpp:434] conv6_2/linear/scale <- conv6_2/linear
I0930 10:54:30.657496 29063 net.cpp:395] conv6_2/linear/scale -> conv6_2/linear (in-place)
I0930 10:54:30.657522 29063 layer_factory.hpp:77] Creating layer conv6_2/linear/scale
I0930 10:54:30.657603 29063 net.cpp:150] Setting up conv6_2/linear/scale
I0930 10:54:30.657608 29063 net.cpp:157] Top shape: 1 160 10 16 (25600)
I0930 10:54:30.657608 29063 net.cpp:165] Memory required for data: 452495072
I0930 10:54:30.657611 29063 layer_factory.hpp:77] Creating layer block_6_2
I0930 10:54:30.657615 29063 net.cpp:100] Creating Layer block_6_2
I0930 10:54:30.657618 29063 net.cpp:434] block_6_2 <- block_6_1_block_6_1_0_split_1
I0930 10:54:30.657620 29063 net.cpp:434] block_6_2 <- conv6_2/linear
I0930 10:54:30.657622 29063 net.cpp:408] block_6_2 -> block_6_2
I0930 10:54:30.657639 29063 net.cpp:150] Setting up block_6_2
I0930 10:54:30.657642 29063 net.cpp:157] Top shape: 1 160 10 16 (25600)
I0930 10:54:30.657644 29063 net.cpp:165] Memory required for data: 452597472
I0930 10:54:30.657645 29063 layer_factory.hpp:77] Creating layer conv6_3/expand
I0930 10:54:30.657649 29063 net.cpp:100] Creating Layer conv6_3/expand
I0930 10:54:30.657651 29063 net.cpp:434] conv6_3/expand <- block_6_2
I0930 10:54:30.657655 29063 net.cpp:408] conv6_3/expand -> conv6_3/expand
I0930 10:54:30.659693 29063 net.cpp:150] Setting up conv6_3/expand
I0930 10:54:30.659699 29063 net.cpp:157] Top shape: 1 960 10 16 (153600)
I0930 10:54:30.659701 29063 net.cpp:165] Memory required for data: 453211872
I0930 10:54:30.659704 29063 layer_factory.hpp:77] Creating layer conv6_3/expand/bn
I0930 10:54:30.659708 29063 net.cpp:100] Creating Layer conv6_3/expand/bn
I0930 10:54:30.659710 29063 net.cpp:434] conv6_3/expand/bn <- conv6_3/expand
I0930 10:54:30.659713 29063 net.cpp:395] conv6_3/expand/bn -> conv6_3/expand (in-place)
I0930 10:54:30.659859 29063 net.cpp:150] Setting up conv6_3/expand/bn
I0930 10:54:30.659863 29063 net.cpp:157] Top shape: 1 960 10 16 (153600)
I0930 10:54:30.659865 29063 net.cpp:165] Memory required for data: 453826272
I0930 10:54:30.659869 29063 layer_factory.hpp:77] Creating layer conv6_3/expand/scale
I0930 10:54:30.659873 29063 net.cpp:100] Creating Layer conv6_3/expand/scale
I0930 10:54:30.659874 29063 net.cpp:434] conv6_3/expand/scale <- conv6_3/expand
I0930 10:54:30.659878 29063 net.cpp:395] conv6_3/expand/scale -> conv6_3/expand (in-place)
I0930 10:54:30.659905 29063 layer_factory.hpp:77] Creating layer conv6_3/expand/scale
I0930 10:54:30.659989 29063 net.cpp:150] Setting up conv6_3/expand/scale
I0930 10:54:30.659993 29063 net.cpp:157] Top shape: 1 960 10 16 (153600)
I0930 10:54:30.659994 29063 net.cpp:165] Memory required for data: 454440672
I0930 10:54:30.659998 29063 layer_factory.hpp:77] Creating layer relu6_3/expand
I0930 10:54:30.660001 29063 net.cpp:100] Creating Layer relu6_3/expand
I0930 10:54:30.660003 29063 net.cpp:434] relu6_3/expand <- conv6_3/expand
I0930 10:54:30.660006 29063 net.cpp:395] relu6_3/expand -> conv6_3/expand (in-place)
I0930 10:54:30.660279 29063 net.cpp:150] Setting up relu6_3/expand
I0930 10:54:30.660285 29063 net.cpp:157] Top shape: 1 960 10 16 (153600)
I0930 10:54:30.660287 29063 net.cpp:165] Memory required for data: 455055072
I0930 10:54:30.660290 29063 layer_factory.hpp:77] Creating layer conv6_3/dwise
I0930 10:54:30.660293 29063 net.cpp:100] Creating Layer conv6_3/dwise
I0930 10:54:30.660295 29063 net.cpp:434] conv6_3/dwise <- conv6_3/expand
I0930 10:54:30.660298 29063 net.cpp:408] conv6_3/dwise -> conv6_3/dwise
I0930 10:54:30.660492 29063 net.cpp:150] Setting up conv6_3/dwise
I0930 10:54:30.660497 29063 net.cpp:157] Top shape: 1 960 10 16 (153600)
I0930 10:54:30.660498 29063 net.cpp:165] Memory required for data: 455669472
I0930 10:54:30.660501 29063 layer_factory.hpp:77] Creating layer conv6_3/dwise/bn
I0930 10:54:30.660506 29063 net.cpp:100] Creating Layer conv6_3/dwise/bn
I0930 10:54:30.660507 29063 net.cpp:434] conv6_3/dwise/bn <- conv6_3/dwise
I0930 10:54:30.660516 29063 net.cpp:395] conv6_3/dwise/bn -> conv6_3/dwise (in-place)
I0930 10:54:30.660660 29063 net.cpp:150] Setting up conv6_3/dwise/bn
I0930 10:54:30.660663 29063 net.cpp:157] Top shape: 1 960 10 16 (153600)
I0930 10:54:30.660665 29063 net.cpp:165] Memory required for data: 456283872
I0930 10:54:30.660670 29063 layer_factory.hpp:77] Creating layer conv6_3/dwise/scale
I0930 10:54:30.660673 29063 net.cpp:100] Creating Layer conv6_3/dwise/scale
I0930 10:54:30.660675 29063 net.cpp:434] conv6_3/dwise/scale <- conv6_3/dwise
I0930 10:54:30.660677 29063 net.cpp:395] conv6_3/dwise/scale -> conv6_3/dwise (in-place)
I0930 10:54:30.660703 29063 layer_factory.hpp:77] Creating layer conv6_3/dwise/scale
I0930 10:54:30.660785 29063 net.cpp:150] Setting up conv6_3/dwise/scale
I0930 10:54:30.660789 29063 net.cpp:157] Top shape: 1 960 10 16 (153600)
I0930 10:54:30.660791 29063 net.cpp:165] Memory required for data: 456898272
I0930 10:54:30.660794 29063 layer_factory.hpp:77] Creating layer relu6_3/dwise
I0930 10:54:30.660797 29063 net.cpp:100] Creating Layer relu6_3/dwise
I0930 10:54:30.660799 29063 net.cpp:434] relu6_3/dwise <- conv6_3/dwise
I0930 10:54:30.660801 29063 net.cpp:395] relu6_3/dwise -> conv6_3/dwise (in-place)
I0930 10:54:30.661082 29063 net.cpp:150] Setting up relu6_3/dwise
I0930 10:54:30.661087 29063 net.cpp:157] Top shape: 1 960 10 16 (153600)
I0930 10:54:30.661088 29063 net.cpp:165] Memory required for data: 457512672
I0930 10:54:30.661090 29063 layer_factory.hpp:77] Creating layer conv6_3/linear
I0930 10:54:30.661095 29063 net.cpp:100] Creating Layer conv6_3/linear
I0930 10:54:30.661098 29063 net.cpp:434] conv6_3/linear <- conv6_3/dwise
I0930 10:54:30.661100 29063 net.cpp:408] conv6_3/linear -> conv6_3/linear
I0930 10:54:30.664455 29063 net.cpp:150] Setting up conv6_3/linear
I0930 10:54:30.664463 29063 net.cpp:157] Top shape: 1 320 10 16 (51200)
I0930 10:54:30.664465 29063 net.cpp:165] Memory required for data: 457717472
…
I0930 10:54:30.815084 29063 net.cpp:395] conv6_3/dwise/bn -> conv6_3/dwise (in-place)
I0930 10:54:30.815261 29063 net.cpp:150] Setting up conv6_3/dwise/bn
I0930 10:54:30.815266 29063 net.cpp:157] Top shape: 1 960 10 16 (153600)
I0930 10:54:30.815270 29063 net.cpp:165] Memory required for data: 456283808
I0930 10:54:30.815276 29063 layer_factory.hpp:77] Creating layer conv6_3/dwise/scale
I0930 10:54:30.815282 29063 net.cpp:100] Creating Layer conv6_3/dwise/scale
I0930 10:54:30.815284 29063 net.cpp:434] conv6_3/dwise/scale <- conv6_3/dwise
I0930 10:54:30.815289 29063 net.cpp:395] conv6_3/dwise/scale -> conv6_3/dwise (in-place)
I0930 10:54:30.815330 29063 layer_factory.hpp:77] Creating layer conv6_3/dwise/scale
I0930 10:54:30.815412 29063 net.cpp:150] Setting up conv6_3/dwise/scale
I0930 10:54:30.815418 29063 net.cpp:157] Top shape: 1 960 10 16 (153600)
I0930 10:54:30.815420 29063 net.cpp:165] Memory required for data: 456898208
I0930 10:54:30.815425 29063 layer_factory.hpp:77] Creating layer relu6_3/dwise
I0930 10:54:30.815429 29063 net.cpp:100] Creating Layer relu6_3/dwise
I0930 10:54:30.815433 29063 net.cpp:434] relu6_3/dwise <- conv6_3/dwise
I0930 10:54:30.815436 29063 net.cpp:395] relu6_3/dwise -> conv6_3/dwise (in-place)
I0930 10:54:30.815953 29063 net.cpp:150] Setting up relu6_3/dwise
I0930 10:54:30.815961 29063 net.cpp:157] Top shape: 1 960 10 16 (153600)
I0930 10:54:30.815965 29063 net.cpp:165] Memory required for data: 457512608
I0930 10:54:30.815969 29063 layer_factory.hpp:77] Creating layer conv6_3/linear
I0930 10:54:30.815979 29063 net.cpp:100] Creating Layer conv6_3/linear
I0930 10:54:30.815982 29063 net.cpp:434] conv6_3/linear <- conv6_3/dwise
I0930 10:54:30.815989 29063 net.cpp:408] conv6_3/linear -> conv6_3/linear
I0930 10:54:30.819581 29063 net.cpp:150] Setting up conv6_3/linear
I0930 10:54:30.819597 29063 net.cpp:157] Top shape: 1 320 10 16 (51200)
I0930 10:54:30.819599 29063 net.cpp:165] Memory required for data: 457717408
I0930 10:54:30.819605 29063 layer_factory.hpp:77] Creating layer conv6_3/linear/bn
I0930 10:54:30.819614 29063 net.cpp:100] Creating Layer conv6_3/linear/bn
I0930 10:54:30.819618 29063 net.cpp:434] conv6_3/linear/bn <- conv6_3/linear
I0930 10:54:30.819623 29063 net.cpp:395] conv6_3/linear/bn -> conv6_3/linear (in-place)
I0930 10:54:30.819777 29063 net.cpp:150] Setting up conv6_3/linear/bn
I0930 10:54:30.819782 29063 net.cpp:157] Top shape: 1 320 10 16 (51200)
I0930 10:54:30.819782 29063 net.cpp:165] Memory required for data: 457922208
I0930 10:54:30.819787 29063 layer_factory.hpp:77] Creating layer conv6_3/linear/scale
I0930 10:54:30.819792 29063 net.cpp:100] Creating Layer conv6_3/linear/scale
I0930 10:54:30.819794 29063 net.cpp:434] conv6_3/linear/scale <- conv6_3/linear
I0930 10:54:30.819797 29063 net.cpp:395] conv6_3/linear/scale -> conv6_3/linear (in-place)
I0930 10:54:30.819830 29063 layer_factory.hpp:77] Creating layer conv6_3/linear/scale
I0930 10:54:30.819908 29063 net.cpp:150] Setting up conv6_3/linear/scale
I0930 10:54:30.819913 29063 net.cpp:157] Top shape: 1 320 10 16 (51200)
I0930 10:54:30.819916 29063 net.cpp:165] Memory required for data: 458127008
I0930 10:54:30.819919 29063 layer_factory.hpp:77] Creating layer conv6_4
I0930 10:54:30.819924 29063 net.cpp:100] Creating Layer conv6_4
I0930 10:54:30.819927 29063 net.cpp:434] conv6_4 <- conv6_3/linear
I0930 10:54:30.819931 29063 net.cpp:408] conv6_4 -> conv6_4
I0930 10:54:30.823860 29063 net.cpp:150] Setting up conv6_4
I0930 10:54:30.823873 29063 net.cpp:157] Top shape: 1 1280 10 16 (204800)
I0930 10:54:30.823875 29063 net.cpp:165] Memory required for data: 458946208
I0930 10:54:30.823880 29063 layer_factory.hpp:77] Creating layer conv6_4/bn
I0930 10:54:30.823886 29063 net.cpp:100] Creating Layer conv6_4/bn
I0930 10:54:30.823889 29063 net.cpp:434] conv6_4/bn <- conv6_4
I0930 10:54:30.823894 29063 net.cpp:395] conv6_4/bn -> conv6_4 (in-place)
I0930 10:54:30.824033 29063 net.cpp:150] Setting up conv6_4/bn
I0930 10:54:30.824036 29063 net.cpp:157] Top shape: 1 1280 10 16 (204800)
I0930 10:54:30.824038 29063 net.cpp:165] Memory required for data: 459765408
I0930 10:54:30.824043 29063 layer_factory.hpp:77] Creating layer conv6_4/scale
I0930 10:54:30.824048 29063 net.cpp:100] Creating Layer conv6_4/scale
I0930 10:54:30.824049 29063 net.cpp:434] conv6_4/scale <- conv6_4
I0930 10:54:30.824051 29063 net.cpp:395] conv6_4/scale -> conv6_4 (in-place)
I0930 10:54:30.824079 29063 layer_factory.hpp:77] Creating layer conv6_4/scale
I0930 10:54:30.824154 29063 net.cpp:150] Setting up conv6_4/scale
I0930 10:54:30.824157 29063 net.cpp:157] Top shape: 1 1280 10 16 (204800)
I0930 10:54:30.824159 29063 net.cpp:165] Memory required for data: 460584608
I0930 10:54:30.824162 29063 layer_factory.hpp:77] Creating layer relu6_4
I0930 10:54:30.824167 29063 net.cpp:100] Creating Layer relu6_4
I0930 10:54:30.824169 29063 net.cpp:434] relu6_4 <- conv6_4
I0930 10:54:30.824172 29063 net.cpp:395] relu6_4 -> conv6_4 (in-place)
I0930 10:54:30.824453 29063 net.cpp:150] Setting up relu6_4
I0930 10:54:30.824460 29063 net.cpp:157] Top shape: 1 1280 10 16 (204800)
I0930 10:54:30.824461 29063 net.cpp:165] Memory required for data: 461403808
I0930 10:54:30.824463 29063 layer_factory.hpp:77] Creating layer conv6_4_relu6_4_0_split
I0930 10:54:30.824466 29063 net.cpp:100] Creating Layer conv6_4_relu6_4_0_split
I0930 10:54:30.824470 29063 net.cpp:434] conv6_4_relu6_4_0_split <- conv6_4
I0930 10:54:30.824473 29063 net.cpp:408] conv6_4_relu6_4_0_split -> conv6_4_relu6_4_0_split_0
I0930 10:54:30.824478 29063 net.cpp:408] conv6_4_relu6_4_0_split -> conv6_4_relu6_4_0_split_1
I0930 10:54:30.824482 29063 net.cpp:408] conv6_4_relu6_4_0_split -> conv6_4_relu6_4_0_split_2
I0930 10:54:30.824486 29063 net.cpp:408] conv6_4_relu6_4_0_split -> conv6_4_relu6_4_0_split_3
I0930 10:54:30.824529 29063 net.cpp:150] Setting up conv6_4_relu6_4_0_split
I0930 10:54:30.824542 29063 net.cpp:157] Top shape: 1 1280 10 16 (204800)
I0930 10:54:30.824546 29063 net.cpp:157] Top shape: 1 1280 10 16 (204800)
I0930 10:54:30.824551 29063 net.cpp:157] Top shape: 1 1280 10 16 (204800)
I0930 10:54:30.824555 29063 net.cpp:157] Top shape: 1 1280 10 16 (204800)
I0930 10:54:30.824558 29063 net.cpp:165] Memory required for data: 464680608
I0930 10:54:30.824560 29063 layer_factory.hpp:77] Creating layer ssd1_1
I0930 10:54:30.824569 29063 net.cpp:100] Creating Layer ssd1_1
I0930 10:54:30.824573 29063 net.cpp:434] ssd1_1 <- conv6_4_relu6_4_0_split_0
I0930 10:54:30.824578 29063 net.cpp:408] ssd1_1 -> ssd1_1
I0930 10:54:30.827352 29063 net.cpp:150] Setting up ssd1_1
I0930 10:54:30.827363 29063 net.cpp:157] Top shape: 1 256 10 16 (40960)
I0930 10:54:30.827364 29063 net.cpp:165] Memory required for data: 464844448
I0930 10:54:30.827369 29063 layer_factory.hpp:77] Creating layer ssd1_1_relu
I0930 10:54:30.827374 29063 net.cpp:100] Creating Layer ssd1_1_relu
I0930 10:54:30.827378 29063 net.cpp:434] ssd1_1_relu <- ssd1_1
I0930 10:54:30.827383 29063 net.cpp:395] ssd1_1_relu -> ssd1_1 (in-place)
I0930 10:54:30.827670 29063 net.cpp:150] Setting up ssd1_1_relu
I0930 10:54:30.827677 29063 net.cpp:157] Top shape: 1 256 10 16 (40960)
I0930 10:54:30.827679 29063 net.cpp:165] Memory required for data: 465008288
I0930 10:54:30.827684 29063 layer_factory.hpp:77] Creating layer ssd1_2
I0930 10:54:30.827693 29063 net.cpp:100] Creating Layer ssd1_2
I0930 10:54:30.827697 29063 net.cpp:434] ssd1_2 <- ssd1_1
I0930 10:54:30.827700 29063 net.cpp:408] ssd1_2 -> ssd1_2
I0930 10:54:30.833551 29063 net.cpp:150] Setting up ssd1_2
I0930 10:54:30.833566 29063 net.cpp:157] Top shape: 1 512 5 8 (20480)
I0930 10:54:30.833568 29063 net.cpp:165] Memory required for data: 465090208
I0930 10:54:30.833575 29063 layer_factory.hpp:77] Creating layer ssd1_2_relu
I0930 10:54:30.833582 29063 net.cpp:100] Creating Layer ssd1_2_relu
I0930 10:54:30.833585 29063 net.cpp:434] ssd1_2_relu <- ssd1_2
I0930 10:54:30.833591 29063 net.cpp:395] ssd1_2_relu -> ssd1_2 (in-place)
I0930 10:54:30.833993 29063 net.cpp:150] Setting up ssd1_2_relu
I0930 10:54:30.834000 29063 net.cpp:157] Top shape: 1 512 5 8 (20480)
I0930 10:54:30.834003 29063 net.cpp:165] Memory required for data: 465172128
I0930 10:54:30.834007 29063 layer_factory.hpp:77] Creating layer ssd1_2_ssd1_2_relu_0_split
I0930 10:54:30.834014 29063 net.cpp:100] Creating Layer ssd1_2_ssd1_2_relu_0_split
I0930 10:54:30.834017 29063 net.cpp:434] ssd1_2_ssd1_2_relu_0_split <- ssd1_2
I0930 10:54:30.834022 29063 net.cpp:408] ssd1_2_ssd1_2_relu_0_split -> ssd1_2_ssd1_2_relu_0_split_0
I0930 10:54:30.834028 29063 net.cpp:408] ssd1_2_ssd1_2_relu_0_split -> ssd1_2_ssd1_2_relu_0_split_1
I0930 10:54:30.834033 29063 net.cpp:408] ssd1_2_ssd1_2_relu_0_split -> ssd1_2_ssd1_2_relu_0_split_2
I0930 10:54:30.834038 29063 net.cpp:408] ssd1_2_ssd1_2_relu_0_split -> ssd1_2_ssd1_2_relu_0_split_3
I0930 10:54:30.834084 29063 net.cpp:150] Setting up ssd1_2_ssd1_2_relu_0_split
I0930 10:54:30.834089 29063 net.cpp:157] Top shape: 1 512 5 8 (20480)
I0930 10:54:30.834094 29063 net.cpp:157] Top shape: 1 512 5 8 (20480)
I0930 10:54:30.834097 29063 net.cpp:157] Top shape: 1 512 5 8 (20480)
I0930 10:54:30.834101 29063 net.cpp:157] Top shape: 1 512 5 8 (20480)
I0930 10:54:30.834105 29063 net.cpp:165] Memory required for data: 465499808
I0930 10:54:30.834108 29063 layer_factory.hpp:77] Creating layer ssd2_1
I0930 10:54:30.834115 29063 net.cpp:100] Creating Layer ssd2_1
I0930 10:54:30.834118 29063 net.cpp:434] ssd2_1 <- ssd1_2_ssd1_2_relu_0_split_0
I0930 10:54:30.834123 29063 net.cpp:408] ssd2_1 -> ssd2_1
I0930 10:54:30.835474 29063 net.cpp:150] Setting up ssd2_1
I0930 10:54:30.835481 29063 net.cpp:157] Top shape: 1 128 5 8 (5120)
I0930 10:54:30.835484 29063 net.cpp:165] Memory required for data: 465520288
I0930 10:54:30.835487 29063 layer_factory.hpp:77] Creating layer ssd2_1_relu
I0930 10:54:30.835492 29063 net.cpp:100] Creating Layer ssd2_1_relu
I0930 10:54:30.835494 29063 net.cpp:434] ssd2_1_relu <- ssd2_1
I0930 10:54:30.835510 29063 net.cpp:395] ssd2_1_relu -> ssd2_1 (in-place)
I0930 10:54:30.835798 29063 net.cpp:150] Setting up ssd2_1_relu
I0930 10:54:30.835804 29063 net.cpp:157] Top shape: 1 128 5 8 (5120)
I0930 10:54:30.835808 29063 net.cpp:165] Memory required for data: 465540768
I0930 10:54:30.835811 29063 layer_factory.hpp:77] Creating layer ssd2_2
I0930 10:54:30.835820 29063 net.cpp:100] Creating Layer ssd2_2
I0930 10:54:30.835824 29063 net.cpp:434] ssd2_2 <- ssd2_1
I0930 10:54:30.835829 29063 net.cpp:408] ssd2_2 -> ssd2_2
I0930 10:54:30.838348 29063 net.cpp:150] Setting up ssd2_2
I0930 10:54:30.838356 29063 net.cpp:157] Top shape: 1 256 3 4 (3072)
I0930 10:54:30.838359 29063 net.cpp:165] Memory required for data: 465553056
I0930 10:54:30.838366 29063 layer_factory.hpp:77] Creating layer ssd2_2_relu
I0930 10:54:30.838371 29063 net.cpp:100] Creating Layer ssd2_2_relu
I0930 10:54:30.838374 29063 net.cpp:434] ssd2_2_relu <- ssd2_2
I0930 10:54:30.838377 29063 net.cpp:395] ssd2_2_relu -> ssd2_2 (in-place)
I0930 10:54:30.838775 29063 net.cpp:150] Setting up ssd2_2_relu
I0930 10:54:30.838783 29063 net.cpp:157] Top shape: 1 256 3 4 (3072)
I0930 10:54:30.838784 29063 net.cpp:165] Memory required for data: 465565344
I0930 10:54:30.838786 29063 layer_factory.hpp:77] Creating layer ssd2_2_ssd2_2_relu_0_split
I0930 10:54:30.838791 29063 net.cpp:100] Creating Layer ssd2_2_ssd2_2_relu_0_split
I0930 10:54:30.838795 29063 net.cpp:434] ssd2_2_ssd2_2_relu_0_split <- ssd2_2
I0930 10:54:30.838800 29063 net.cpp:408] ssd2_2_ssd2_2_relu_0_split -> ssd2_2_ssd2_2_relu_0_split_0
I0930 10:54:30.838806 29063 net.cpp:408] ssd2_2_ssd2_2_relu_0_split -> ssd2_2_ssd2_2_relu_0_split_1
I0930 10:54:30.838812 29063 net.cpp:408] ssd2_2_ssd2_2_relu_0_split -> ssd2_2_ssd2_2_relu_0_split_2
I0930 10:54:30.838819 29063 net.cpp:408] ssd2_2_ssd2_2_relu_0_split -> ssd2_2_ssd2_2_relu_0_split_3
I0930 10:54:30.838862 29063 net.cpp:150] Setting up ssd2_2_ssd2_2_relu_0_split
I0930 10:54:30.838866 29063 net.cpp:157] Top shape: 1 256 3 4 (3072)
I0930 10:54:30.838871 29063 net.cpp:157] Top shape: 1 256 3 4 (3072)
I0930 10:54:30.838872 29063 net.cpp:157] Top shape: 1 256 3 4 (3072)
I0930 10:54:30.838874 29063 net.cpp:157] Top shape: 1 256 3 4 (3072)
I0930 10:54:30.838877 29063 net.cpp:165] Memory required for data: 465614496
I0930 10:54:30.838881 29063 layer_factory.hpp:77] Creating layer ssd3_1
I0930 10:54:30.838888 29063 net.cpp:100] Creating Layer ssd3_1
I0930 10:54:30.838891 29063 net.cpp:434] ssd3_1 <- ssd2_2_ssd2_2_relu_0_split_0
I0930 10:54:30.838896 29063 net.cpp:408] ssd3_1 -> ssd3_1
I0930 10:54:30.840143 29063 net.cpp:150] Setting up ssd3_1
I0930 10:54:30.840150 29063 net.cpp:157] Top shape: 1 128 3 4 (1536)
I0930 10:54:30.840154 29063 net.cpp:165] Memory required for data: 465620640
I0930 10:54:30.840160 29063 layer_factory.hpp:77] Creating layer ssd3_1_relu
I0930 10:54:30.840165 29063 net.cpp:100] Creating Layer ssd3_1_relu
I0930 10:54:30.840169 29063 net.cpp:434] ssd3_1_relu <- ssd3_1
I0930 10:54:30.840174 29063 net.cpp:395] ssd3_1_relu -> ssd3_1 (in-place)
I0930 10:54:30.840459 29063 net.cpp:150] Setting up ssd3_1_relu
I0930 10:54:30.840466 29063 net.cpp:157] Top shape: 1 128 3 4 (1536)
I0930 10:54:30.840468 29063 net.cpp:165] Memory required for data: 465626784
I0930 10:54:30.840471 29063 layer_factory.hpp:77] Creating layer ssd3_2
I0930 10:54:30.840477 29063 net.cpp:100] Creating Layer ssd3_2
I0930 10:54:30.840481 29063 net.cpp:434] ssd3_2 <- ssd3_1
I0930 10:54:30.840487 29063 net.cpp:408] ssd3_2 -> ssd3_2
I0930 10:54:30.843101 29063 net.cpp:150] Setting up ssd3_2
I0930 10:54:30.843108 29063 net.cpp:157] Top shape: 1 256 2 2 (1024)
I0930 10:54:30.843111 29063 net.cpp:165] Memory required for data: 465630880
I0930 10:54:30.843118 29063 layer_factory.hpp:77] Creating layer ssd3_2_relu
I0930 10:54:30.843125 29063 net.cpp:100] Creating Layer ssd3_2_relu
I0930 10:54:30.843128 29063 net.cpp:434] ssd3_2_relu <- ssd3_2
I0930 10:54:30.843133 29063 net.cpp:395] ssd3_2_relu -> ssd3_2 (in-place)
I0930 10:54:30.843430 29063 net.cpp:150] Setting up ssd3_2_relu
I0930 10:54:30.843446 29063 net.cpp:157] Top shape: 1 256 2 2 (1024)
I0930 10:54:30.843449 29063 net.cpp:165] Memory required for data: 465634976
I0930 10:54:30.843452 29063 layer_factory.hpp:77] Creating layer ssd3_2_ssd3_2_relu_0_split
I0930 10:54:30.843458 29063 net.cpp:100] Creating Layer ssd3_2_ssd3_2_relu_0_split
I0930 10:54:30.843461 29063 net.cpp:434] ssd3_2_ssd3_2_relu_0_split <- ssd3_2
I0930 10:54:30.843466 29063 net.cpp:408] ssd3_2_ssd3_2_relu_0_split -> ssd3_2_ssd3_2_relu_0_split_0
I0930 10:54:30.843472 29063 net.cpp:408] ssd3_2_ssd3_2_relu_0_split -> ssd3_2_ssd3_2_relu_0_split_1
I0930 10:54:30.843477 29063 net.cpp:408] ssd3_2_ssd3_2_relu_0_split -> ssd3_2_ssd3_2_relu_0_split_2
I0930 10:54:30.843483 29063 net.cpp:408] ssd3_2_ssd3_2_relu_0_split -> ssd3_2_ssd3_2_relu_0_split_3
I0930 10:54:30.843528 29063 net.cpp:150] Setting up ssd3_2_ssd3_2_relu_0_split
I0930 10:54:30.843533 29063 net.cpp:157] Top shape: 1 256 2 2 (1024)
I0930 10:54:30.843536 29063 net.cpp:157] Top shape: 1 256 2 2 (1024)
I0930 10:54:30.843540 29063 net.cpp:157] Top shape: 1 256 2 2 (1024)
I0930 10:54:30.843544 29063 net.cpp:157] Top shape: 1 256 2 2 (1024)
I0930 10:54:30.843547 29063 net.cpp:165] Memory required for data: 465651360
I0930 10:54:30.843550 29063 layer_factory.hpp:77] Creating layer ssd4_1
I0930 10:54:30.843557 29063 net.cpp:100] Creating Layer ssd4_1
I0930 10:54:30.843560 29063 net.cpp:434] ssd4_1 <- ssd3_2_ssd3_2_relu_0_split_0
I0930 10:54:30.843565 29063 net.cpp:408] ssd4_1 -> ssd4_1
I0930 10:54:30.844913 29063 net.cpp:150] Setting up ssd4_1
I0930 10:54:30.844923 29063 net.cpp:157] Top shape: 1 128 2 2 (512)
I0930 10:54:30.844924 29063 net.cpp:165] Memory required for data: 465653408
I0930 10:54:30.844930 29063 layer_factory.hpp:77] Creating layer ssd4_1_relu
I0930 10:54:30.844938 29063 net.cpp:100] Creating Layer ssd4_1_relu
I0930 10:54:30.844940 29063 net.cpp:434] ssd4_1_relu <- ssd4_1
I0930 10:54:30.844944 29063 net.cpp:395] ssd4_1_relu -> ssd4_1 (in-place)
I0930 10:54:30.845229 29063 net.cpp:150] Setting up ssd4_1_relu
I0930 10:54:30.845237 29063 net.cpp:157] Top shape: 1 128 2 2 (512)
I0930 10:54:30.845240 29063 net.cpp:165] Memory required for data: 465655456
I0930 10:54:30.845242 29063 layer_factory.hpp:77] Creating layer ssd4_2
I0930 10:54:30.845250 29063 net.cpp:100] Creating Layer ssd4_2
I0930 10:54:30.845252 29063 net.cpp:434] ssd4_2 <- ssd4_1
I0930 10:54:30.845257 29063 net.cpp:408] ssd4_2 -> ssd4_2
I0930 10:54:30.848145 29063 net.cpp:150] Setting up ssd4_2
I0930 10:54:30.848156 29063 net.cpp:157] Top shape: 1 256 1 1 (256)
I0930 10:54:30.848158 29063 net.cpp:165] Memory required for data: 465656480
I0930 10:54:30.848165 29063 layer_factory.hpp:77] Creating layer ssd4_2_relu
I0930 10:54:30.848171 29063 net.cpp:100] Creating Layer ssd4_2_relu
I0930 10:54:30.848176 29063 net.cpp:434] ssd4_2_relu <- ssd4_2
I0930 10:54:30.848181 29063 net.cpp:395] ssd4_2_relu -> ssd4_2 (in-place)
I0930 10:54:30.848479 29063 net.cpp:150] Setting up ssd4_2_relu
I0930 10:54:30.848485 29063 net.cpp:157] Top shape: 1 256 1 1 (256)
I0930 10:54:30.848489 29063 net.cpp:165] Memory required for data: 465657504
I0930 10:54:30.848491 29063 layer_factory.hpp:77] Creating layer ssd4_2_ssd4_2_relu_0_split
I0930 10:54:30.848498 29063 net.cpp:100] Creating Layer ssd4_2_ssd4_2_relu_0_split
I0930 10:54:30.848501 29063 net.cpp:434] ssd4_2_ssd4_2_relu_0_split <- ssd4_2
I0930 10:54:30.848506 29063 net.cpp:408] ssd4_2_ssd4_2_relu_0_split -> ssd4_2_ssd4_2_relu_0_split_0
I0930 10:54:30.848512 29063 net.cpp:408] ssd4_2_ssd4_2_relu_0_split -> ssd4_2_ssd4_2_relu_0_split_1
I0930 10:54:30.848517 29063 net.cpp:408] ssd4_2_ssd4_2_relu_0_split -> ssd4_2_ssd4_2_relu_0_split_2
I0930 10:54:30.848556 29063 net.cpp:150] Setting up ssd4_2_ssd4_2_relu_0_split
I0930 10:54:30.848559 29063 net.cpp:157] Top shape: 1 256 1 1 (256)
I0930 10:54:30.848563 29063 net.cpp:157] Top shape: 1 256 1 1 (256)
I0930 10:54:30.848567 29063 net.cpp:157] Top shape: 1 256 1 1 (256)
I0930 10:54:30.848570 29063 net.cpp:165] Memory required for data: 465660576
I0930 10:54:30.848572 29063 layer_factory.hpp:77] Creating layer conv5_3/expand_norm
I0930 10:54:30.848588 29063 net.cpp:100] Creating Layer conv5_3/expand_norm
I0930 10:54:30.848592 29063 net.cpp:434] conv5_3/expand_norm <- conv5_3/expand_relu5_3/expand_0_split_1
I0930 10:54:30.848599 29063 net.cpp:408] conv5_3/expand_norm -> conv5_3/expand_norm
I0930 10:54:30.848732 29063 net.cpp:150] Setting up conv5_3/expand_norm
I0930 10:54:30.848737 29063 net.cpp:157] Top shape: 1 576 19 32 (350208)
I0930 10:54:30.848740 29063 net.cpp:165] Memory required for data: 467061408
I0930 10:54:30.848745 29063 layer_factory.hpp:77] Creating layer conv5_3/expand_norm_conv5_3/expand_norm_0_split
I0930 10:54:30.848750 29063 net.cpp:100] Creating Layer conv5_3/expand_norm_conv5_3/expand_norm_0_split
I0930 10:54:30.848753 29063 net.cpp:434] conv5_3/expand_norm_conv5_3/expand_norm_0_split <- conv5_3/expand_norm
I0930 10:54:30.848757 29063 net.cpp:408] conv5_3/expand_norm_conv5_3/expand_norm_0_split -> conv5_3/expand_norm_conv5_3/expand_norm_0_split_0
I0930 10:54:30.848764 29063 net.cpp:408] conv5_3/expand_norm_conv5_3/expand_norm_0_split -> conv5_3/expand_norm_conv5_3/expand_norm_0_split_1
I0930 10:54:30.848769 29063 net.cpp:408] conv5_3/expand_norm_conv5_3/expand_norm_0_split -> conv5_3/expand_norm_conv5_3/expand_norm_0_split_2
I0930 10:54:30.848800 29063 net.cpp:150] Setting up conv5_3/expand_norm_conv5_3/expand_norm_0_split
I0930 10:54:30.848804 29063 net.cpp:157] Top shape: 1 576 19 32 (350208)
I0930 10:54:30.848809 29063 net.cpp:157] Top shape: 1 576 19 32 (350208)
I0930 10:54:30.848812 29063 net.cpp:157] Top shape: 1 576 19 32 (350208)
I0930 10:54:30.848815 29063 net.cpp:165] Memory required for data: 471263904
I0930 10:54:30.848817 29063 layer_factory.hpp:77] Creating layer conv5_3/expand_norm_mbox_loc
I0930 10:54:30.848826 29063 net.cpp:100] Creating Layer conv5_3/expand_norm_mbox_loc
I0930 10:54:30.848829 29063 net.cpp:434] conv5_3/expand_norm_mbox_loc <- conv5_3/expand_norm_conv5_3/expand_norm_0_split_0
I0930 10:54:30.848834 29063 net.cpp:408] conv5_3/expand_norm_mbox_loc -> conv5_3/expand_norm_mbox_loc
I0930 10:54:30.850225 29063 net.cpp:150] Setting up conv5_3/expand_norm_mbox_loc
I0930 10:54:30.850232 29063 net.cpp:157] Top shape: 1 8 19 32 (4864)
I0930 10:54:30.850236 29063 net.cpp:165] Memory required for data: 471283360
I0930 10:54:30.850242 29063 layer_factory.hpp:77] Creating layer conv5_3/expand_norm_mbox_loc_perm
I0930 10:54:30.850248 29063 net.cpp:100] Creating Layer conv5_3/expand_norm_mbox_loc_perm
I0930 10:54:30.850251 29063 net.cpp:434] conv5_3/expand_norm_mbox_loc_perm <- conv5_3/expand_norm_mbox_loc
I0930 10:54:30.850257 29063 net.cpp:408] conv5_3/expand_norm_mbox_loc_perm -> conv5_3/expand_norm_mbox_loc_perm
I0930 10:54:30.850327 29063 net.cpp:150] Setting up conv5_3/expand_norm_mbox_loc_perm
I0930 10:54:30.850332 29063 net.cpp:157] Top shape: 1 19 32 8 (4864)
I0930 10:54:30.850335 29063 net.cpp:165] Memory required for data: 471302816
I0930 10:54:30.850337 29063 layer_factory.hpp:77] Creating layer conv5_3/expand_norm_mbox_loc_flat
I0930 10:54:30.850342 29063 net.cpp:100] Creating Layer conv5_3/expand_norm_mbox_loc_flat
I0930 10:54:30.850347 29063 net.cpp:434] conv5_3/expand_norm_mbox_loc_flat <- conv5_3/expand_norm_mbox_loc_perm
I0930 10:54:30.850352 29063 net.cpp:408] conv5_3/expand_norm_mbox_loc_flat -> conv5_3/expand_norm_mbox_loc_flat
I0930 10:54:30.850369 29063 net.cpp:150] Setting up conv5_3/expand_norm_mbox_loc_flat
I0930 10:54:30.850373 29063 net.cpp:157] Top shape: 1 4864 (4864)
I0930 10:54:30.850375 29063 net.cpp:165] Memory required for data: 471322272
I0930 10:54:30.850379 29063 layer_factory.hpp:77] Creating layer conv5_3/expand_norm_mbox_conf
I0930 10:54:30.850386 29063 net.cpp:100] Creating Layer conv5_3/expand_norm_mbox_conf
I0930 10:54:30.850389 29063 net.cpp:434] conv5_3/expand_norm_mbox_conf <- conv5_3/expand_norm_conv5_3/expand_norm_0_split_1
I0930 10:54:30.850395 29063 net.cpp:408] conv5_3/expand_norm_mbox_conf -> conv5_3/expand_norm_mbox_conf
I0930 10:54:30.851938 29063 net.cpp:150] Setting up conv5_3/expand_norm_mbox_conf
I0930 10:54:30.851953 29063 net.cpp:157] Top shape: 1 10 19 32 (6080)
I0930 10:54:30.851956 29063 net.cpp:165] Memory required for data: 471346592
I0930 10:54:30.851964 29063 layer_factory.hpp:77] Creating layer conv5_3/expand_norm_mbox_conf_perm
I0930 10:54:30.851970 29063 net.cpp:100] Creating Layer conv5_3/expand_norm_mbox_conf_perm
I0930 10:54:30.851974 29063 net.cpp:434] conv5_3/expand_norm_mbox_conf_perm <- conv5_3/expand_norm_mbox_conf
I0930 10:54:30.851979 29063 net.cpp:408] conv5_3/expand_norm_mbox_conf_perm -> conv5_3/expand_norm_mbox_conf_perm
I0930 10:54:30.852048 29063 net.cpp:150] Setting up conv5_3/expand_norm_mbox_conf_perm
I0930 10:54:30.852053 29063 net.cpp:157] Top shape: 1 19 32 10 (6080)
I0930 10:54:30.852054 29063 net.cpp:165] Memory required for data: 471370912
I0930 10:54:30.852056 29063 layer_factory.hpp:77] Creating layer conv5_3/expand_norm_mbox_conf_flat
I0930 10:54:30.852059 29063 net.cpp:100] Creating Layer conv5_3/expand_norm_mbox_conf_flat
I0930 10:54:30.852062 29063 net.cpp:434] conv5_3/expand_norm_mbox_conf_flat <- conv5_3/expand_norm_mbox_conf_perm
I0930 10:54:30.852066 29063 net.cpp:408] conv5_3/expand_norm_mbox_conf_flat -> conv5_3/expand_norm_mbox_conf_flat
I0930 10:54:30.852080 29063 net.cpp:150] Setting up conv5_3/expand_norm_mbox_conf_flat
I0930 10:54:30.852084 29063 net.cpp:157] Top shape: 1 6080 (6080)
I0930 10:54:30.852087 29063 net.cpp:165] Memory required for data: 471395232
I0930 10:54:30.852087 29063 layer_factory.hpp:77] Creating layer conv5_3/expand_norm_mbox_priorbox
I0930 10:54:30.852092 29063 net.cpp:100] Creating Layer conv5_3/expand_norm_mbox_priorbox
I0930 10:54:30.852095 29063 net.cpp:434] conv5_3/expand_norm_mbox_priorbox <- conv5_3/expand_norm_conv5_3/expand_norm_0_split_2
I0930 10:54:30.852100 29063 net.cpp:434] conv5_3/expand_norm_mbox_priorbox <- data_data_0_split_1
I0930 10:54:30.852107 29063 net.cpp:408] conv5_3/expand_norm_mbox_priorbox -> conv5_3/expand_norm_mbox_priorbox
I0930 10:54:30.852125 29063 net.cpp:150] Setting up conv5_3/expand_norm_mbox_priorbox
I0930 10:54:30.852128 29063 net.cpp:157] Top shape: 1 2 4864 (9728)
I0930 10:54:30.852133 29063 net.cpp:165] Memory required for data: 471434144
I0930 10:54:30.852134 29063 layer_factory.hpp:77] Creating layer conv6_4_mbox_loc
I0930 10:54:30.852143 29063 net.cpp:100] Creating Layer conv6_4_mbox_loc
I0930 10:54:30.852145 29063 net.cpp:434] conv6_4_mbox_loc <- conv6_4_relu6_4_0_split_1
I0930 10:54:30.852149 29063 net.cpp:408] conv6_4_mbox_loc -> conv6_4_mbox_loc
I0930 10:54:30.853698 29063 net.cpp:150] Setting up conv6_4_mbox_loc
I0930 10:54:30.853708 29063 net.cpp:157] Top shape: 1 8 10 16 (1280)
I0930 10:54:30.853709 29063 net.cpp:165] Memory required for data: 471439264
I0930 10:54:30.853714 29063 layer_factory.hpp:77] Creating layer conv6_4_mbox_loc_perm
I0930 10:54:30.853718 29063 net.cpp:100] Creating Layer conv6_4_mbox_loc_perm
I0930 10:54:30.853721 29063 net.cpp:434] conv6_4_mbox_loc_perm <- conv6_4_mbox_loc
I0930 10:54:30.853725 29063 net.cpp:408] conv6_4_mbox_loc_perm -> conv6_4_mbox_loc_perm
I0930 10:54:30.853798 29063 net.cpp:150] Setting up conv6_4_mbox_loc_perm
I0930 10:54:30.853802 29063 net.cpp:157] Top shape: 1 10 16 8 (1280)
I0930 10:54:30.853806 29063 net.cpp:165] Memory required for data: 471444384
I0930 10:54:30.853808 29063 layer_factory.hpp:77] Creating layer conv6_4_mbox_loc_flat
I0930 10:54:30.853813 29063 net.cpp:100] Creating Layer conv6_4_mbox_loc_flat
I0930 10:54:30.853816 29063 net.cpp:434] conv6_4_mbox_loc_flat <- conv6_4_mbox_loc_perm
I0930 10:54:30.853819 29063 net.cpp:408] conv6_4_mbox_loc_flat -> conv6_4_mbox_loc_flat
I0930 10:54:30.853834 29063 net.cpp:150] Setting up conv6_4_mbox_loc_flat
I0930 10:54:30.853840 29063 net.cpp:157] Top shape: 1 1280 (1280)
I0930 10:54:30.853842 29063 net.cpp:165] Memory required for data: 471449504
I0930 10:54:30.853843 29063 layer_factory.hpp:77] Creating layer conv6_4_mbox_conf
I0930 10:54:30.853848 29063 net.cpp:100] Creating Layer conv6_4_mbox_conf
I0930 10:54:30.853852 29063 net.cpp:434] conv6_4_mbox_conf <- conv6_4_relu6_4_0_split_2
I0930 10:54:30.853866 29063 net.cpp:408] conv6_4_mbox_conf -> conv6_4_mbox_conf
I0930 10:54:30.855512 29063 net.cpp:150] Setting up conv6_4_mbox_conf
I0930 10:54:30.855520 29063 net.cpp:157] Top shape: 1 10 10 16 (1600)
I0930 10:54:30.855522 29063 net.cpp:165] Memory required for data: 471455904
I0930 10:54:30.855530 29063 layer_factory.hpp:77] Creating layer conv6_4_mbox_conf_perm
I0930 10:54:30.855535 29063 net.cpp:100] Creating Layer conv6_4_mbox_conf_perm
I0930 10:54:30.855540 29063 net.cpp:434] conv6_4_mbox_conf_perm <- conv6_4_mbox_conf
I0930 10:54:30.855545 29063 net.cpp:408] conv6_4_mbox_conf_perm -> conv6_4_mbox_conf_perm
I0930 10:54:30.855618 29063 net.cpp:150] Setting up conv6_4_mbox_conf_perm
I0930 10:54:30.855621 29063 net.cpp:157] Top shape: 1 10 16 10 (1600)
I0930 10:54:30.855623 29063 net.cpp:165] Memory required for data: 471462304
I0930 10:54:30.855625 29063 layer_factory.hpp:77] Creating layer conv6_4_mbox_conf_flat
I0930 10:54:30.855629 29063 net.cpp:100] Creating Layer conv6_4_mbox_conf_flat
I0930 10:54:30.855633 29063 net.cpp:434] conv6_4_mbox_conf_flat <- conv6_4_mbox_conf_perm
I0930 10:54:30.855636 29063 net.cpp:408] conv6_4_mbox_conf_flat -> conv6_4_mbox_conf_flat
I0930 10:54:30.855655 29063 net.cpp:150] Setting up conv6_4_mbox_conf_flat
I0930 10:54:30.855659 29063 net.cpp:157] Top shape: 1 1600 (1600)
I0930 10:54:30.855662 29063 net.cpp:165] Memory required for data: 471468704
I0930 10:54:30.855664 29063 layer_factory.hpp:77] Creating layer conv6_4_mbox_priorbox
I0930 10:54:30.855671 29063 net.cpp:100] Creating Layer conv6_4_mbox_priorbox
I0930 10:54:30.855675 29063 net.cpp:434] conv6_4_mbox_priorbox <- conv6_4_relu6_4_0_split_3
I0930 10:54:30.855679 29063 net.cpp:434] conv6_4_mbox_priorbox <- data_data_0_split_2
I0930 10:54:30.855684 29063 net.cpp:408] conv6_4_mbox_priorbox -> conv6_4_mbox_priorbox
I0930 10:54:30.855702 29063 net.cpp:150] Setting up conv6_4_mbox_priorbox
I0930 10:54:30.855706 29063 net.cpp:157] Top shape: 1 2 1280 (2560)
I0930 10:54:30.855710 29063 net.cpp:165] Memory required for data: 471478944
I0930 10:54:30.855711 29063 layer_factory.hpp:77] Creating layer ssd1_2_mbox_loc
I0930 10:54:30.855720 29063 net.cpp:100] Creating Layer ssd1_2_mbox_loc
I0930 10:54:30.855722 29063 net.cpp:434] ssd1_2_mbox_loc <- ssd1_2_ssd1_2_relu_0_split_1
I0930 10:54:30.855727 29063 net.cpp:408] ssd1_2_mbox_loc -> ssd1_2_mbox_loc
I0930 10:54:30.857146 29063 net.cpp:150] Setting up ssd1_2_mbox_loc
I0930 10:54:30.857152 29063 net.cpp:157] Top shape: 1 8 5 8 (320)
I0930 10:54:30.857154 29063 net.cpp:165] Memory required for data: 471480224
I0930 10:54:30.857158 29063 layer_factory.hpp:77] Creating layer ssd1_2_mbox_loc_perm
I0930 10:54:30.857184 29063 net.cpp:100] Creating Layer ssd1_2_mbox_loc_perm
I0930 10:54:30.857188 29063 net.cpp:434] ssd1_2_mbox_loc_perm <- ssd1_2_mbox_loc
I0930 10:54:30.857192 29063 net.cpp:408] ssd1_2_mbox_loc_perm -> ssd1_2_mbox_loc_perm
I0930 10:54:30.857260 29063 net.cpp:150] Setting up ssd1_2_mbox_loc_perm
I0930 10:54:30.857264 29063 net.cpp:157] Top shape: 1 5 8 8 (320)
I0930 10:54:30.857266 29063 net.cpp:165] Memory required for data: 471481504
I0930 10:54:30.857269 29063 layer_factory.hpp:77] Creating layer ssd1_2_mbox_loc_flat
I0930 10:54:30.857272 29063 net.cpp:100] Creating Layer ssd1_2_mbox_loc_flat
I0930 10:54:30.857275 29063 net.cpp:434] ssd1_2_mbox_loc_flat <- ssd1_2_mbox_loc_perm
I0930 10:54:30.857278 29063 net.cpp:408] ssd1_2_mbox_loc_flat -> ssd1_2_mbox_loc_flat
I0930 10:54:30.857292 29063 net.cpp:150] Setting up ssd1_2_mbox_loc_flat
I0930 10:54:30.857295 29063 net.cpp:157] Top shape: 1 320 (320)
I0930 10:54:30.857296 29063 net.cpp:165] Memory required for data: 471482784
I0930 10:54:30.857300 29063 layer_factory.hpp:77] Creating layer ssd1_2_mbox_conf
I0930 10:54:30.857304 29063 net.cpp:100] Creating Layer ssd1_2_mbox_conf
I0930 10:54:30.857307 29063 net.cpp:434] ssd1_2_mbox_conf <- ssd1_2_ssd1_2_relu_0_split_2
I0930 10:54:30.857311 29063 net.cpp:408] ssd1_2_mbox_conf -> ssd1_2_mbox_conf
I0930 10:54:30.858708 29063 net.cpp:150] Setting up ssd1_2_mbox_conf
I0930 10:54:30.858723 29063 net.cpp:157] Top shape: 1 10 5 8 (400)
I0930 10:54:30.858726 29063 net.cpp:165] Memory required for data: 471484384
I0930 10:54:30.858729 29063 layer_factory.hpp:77] Creating layer ssd1_2_mbox_conf_perm
I0930 10:54:30.858734 29063 net.cpp:100] Creating Layer ssd1_2_mbox_conf_perm
I0930 10:54:30.858737 29063 net.cpp:434] ssd1_2_mbox_conf_perm <- ssd1_2_mbox_conf
I0930 10:54:30.858741 29063 net.cpp:408] ssd1_2_mbox_conf_perm -> ssd1_2_mbox_conf_perm
I0930 10:54:30.858809 29063 net.cpp:150] Setting up ssd1_2_mbox_conf_perm
I0930 10:54:30.858814 29063 net.cpp:157] Top shape: 1 5 8 10 (400)
I0930 10:54:30.858816 29063 net.cpp:165] Memory required for data: 471485984
I0930 10:54:30.858817 29063 layer_factory.hpp:77] Creating layer ssd1_2_mbox_conf_flat
I0930 10:54:30.858820 29063 net.cpp:100] Creating Layer ssd1_2_mbox_conf_flat
I0930 10:54:30.858822 29063 net.cpp:434] ssd1_2_mbox_conf_flat <- ssd1_2_mbox_conf_perm
I0930 10:54:30.858826 29063 net.cpp:408] ssd1_2_mbox_conf_flat -> ssd1_2_mbox_conf_flat
I0930 10:54:30.858845 29063 net.cpp:150] Setting up ssd1_2_mbox_conf_flat
I0930 10:54:30.858850 29063 net.cpp:157] Top shape: 1 400 (400)
I0930 10:54:30.858853 29063 net.cpp:165] Memory required for data: 471487584
I0930 10:54:30.858857 29063 layer_factory.hpp:77] Creating layer ssd1_2_mbox_priorbox
I0930 10:54:30.858862 29063 net.cpp:100] Creating Layer ssd1_2_mbox_priorbox
I0930 10:54:30.858865 29063 net.cpp:434] ssd1_2_mbox_priorbox <- ssd1_2_ssd1_2_relu_0_split_3
I0930 10:54:30.858870 29063 net.cpp:434] ssd1_2_mbox_priorbox <- data_data_0_split_3
I0930 10:54:30.858875 29063 net.cpp:408] ssd1_2_mbox_priorbox -> ssd1_2_mbox_priorbox
I0930 10:54:30.858891 29063 net.cpp:150] Setting up ssd1_2_mbox_priorbox
I0930 10:54:30.858896 29063 net.cpp:157] Top shape: 1 2 320 (640)
I0930 10:54:30.858897 29063 net.cpp:165] Memory required for data: 471490144
I0930 10:54:30.858899 29063 layer_factory.hpp:77] Creating layer ssd2_2_mbox_loc
I0930 10:54:30.858906 29063 net.cpp:100] Creating Layer ssd2_2_mbox_loc
I0930 10:54:30.858907 29063 net.cpp:434] ssd2_2_mbox_loc <- ssd2_2_ssd2_2_relu_0_split_1
I0930 10:54:30.858911 29063 net.cpp:408] ssd2_2_mbox_loc -> ssd2_2_mbox_loc
I0930 10:54:30.860240 29063 net.cpp:150] Setting up ssd2_2_mbox_loc
I0930 10:54:30.860247 29063 net.cpp:157] Top shape: 1 8 3 4 (96)
I0930 10:54:30.860249 29063 net.cpp:165] Memory required for data: 471490528
I0930 10:54:30.860254 29063 layer_factory.hpp:77] Creating layer ssd2_2_mbox_loc_perm
I0930 10:54:30.860258 29063 net.cpp:100] Creating Layer ssd2_2_mbox_loc_perm
I0930 10:54:30.860261 29063 net.cpp:434] ssd2_2_mbox_loc_perm <- ssd2_2_mbox_loc
I0930 10:54:30.860265 29063 net.cpp:408] ssd2_2_mbox_loc_perm -> ssd2_2_mbox_loc_perm
I0930 10:54:30.860332 29063 net.cpp:150] Setting up ssd2_2_mbox_loc_perm
I0930 10:54:30.860335 29063 net.cpp:157] Top shape: 1 3 4 8 (96)
I0930 10:54:30.860337 29063 net.cpp:165] Memory required for data: 471490912
I0930 10:54:30.860339 29063 layer_factory.hpp:77] Creating layer ssd2_2_mbox_loc_flat
I0930 10:54:30.860343 29063 net.cpp:100] Creating Layer ssd2_2_mbox_loc_flat
I0930 10:54:30.860347 29063 net.cpp:434] ssd2_2_mbox_loc_flat <- ssd2_2_mbox_loc_perm
I0930 10:54:30.860348 29063 net.cpp:408] ssd2_2_mbox_loc_flat -> ssd2_2_mbox_loc_flat
I0930 10:54:30.860363 29063 net.cpp:150] Setting up ssd2_2_mbox_loc_flat
I0930 10:54:30.860366 29063 net.cpp:157] Top shape: 1 96 (96)
I0930 10:54:30.860368 29063 net.cpp:165] Memory required for data: 471491296
I0930 10:54:30.860370 29063 layer_factory.hpp:77] Creating layer ssd2_2_mbox_conf
I0930 10:54:30.860376 29063 net.cpp:100] Creating Layer ssd2_2_mbox_conf
I0930 10:54:30.860380 29063 net.cpp:434] ssd2_2_mbox_conf <- ssd2_2_ssd2_2_relu_0_split_2
I0930 10:54:30.860385 29063 net.cpp:408] ssd2_2_mbox_conf -> ssd2_2_mbox_conf
I0930 10:54:30.861603 29063 net.cpp:150] Setting up ssd2_2_mbox_conf
I0930 10:54:30.861610 29063 net.cpp:157] Top shape: 1 10 3 4 (120)
I0930 10:54:30.861614 29063 net.cpp:165] Memory required for data: 471491776
I0930 10:54:30.861619 29063 layer_factory.hpp:77] Creating layer ssd2_2_mbox_conf_perm
I0930 10:54:30.861631 29063 net.cpp:100] Creating Layer ssd2_2_mbox_conf_perm
I0930 10:54:30.861634 29063 net.cpp:434] ssd2_2_mbox_conf_perm <- ssd2_2_mbox_conf
I0930 10:54:30.861639 29063 net.cpp:408] ssd2_2_mbox_conf_perm -> ssd2_2_mbox_conf_perm
I0930 10:54:30.861706 29063 net.cpp:150] Setting up ssd2_2_mbox_conf_perm
I0930 10:54:30.861711 29063 net.cpp:157] Top shape: 1 3 4 10 (120)
I0930 10:54:30.861713 29063 net.cpp:165] Memory required for data: 471492256
I0930 10:54:30.861716 29063 layer_factory.hpp:77] Creating layer ssd2_2_mbox_conf_flat
I0930 10:54:30.861718 29063 net.cpp:100] Creating Layer ssd2_2_mbox_conf_flat
I0930 10:54:30.861722 29063 net.cpp:434] ssd2_2_mbox_conf_flat <- ssd2_2_mbox_conf_perm
I0930 10:54:30.861728 29063 net.cpp:408] ssd2_2_mbox_conf_flat -> ssd2_2_mbox_conf_flat
I0930 10:54:30.861744 29063 net.cpp:150] Setting up ssd2_2_mbox_conf_flat
I0930 10:54:30.861747 29063 net.cpp:157] Top shape: 1 120 (120)
I0930 10:54:30.861750 29063 net.cpp:165] Memory required for data: 471492736
I0930 10:54:30.861752 29063 layer_factory.hpp:77] Creating layer ssd2_2_mbox_priorbox
I0930 10:54:30.861757 29063 net.cpp:100] Creating Layer ssd2_2_mbox_priorbox
I0930 10:54:30.861760 29063 net.cpp:434] ssd2_2_mbox_priorbox <- ssd2_2_ssd2_2_relu_0_split_3
I0930 10:54:30.861763 29063 net.cpp:434] ssd2_2_mbox_priorbox <- data_data_0_split_4
I0930 10:54:30.861768 29063 net.cpp:408] ssd2_2_mbox_priorbox -> ssd2_2_mbox_priorbox
I0930 10:54:30.861784 29063 net.cpp:150] Setting up ssd2_2_mbox_priorbox
I0930 10:54:30.861788 29063 net.cpp:157] Top shape: 1 2 96 (192)
I0930 10:54:30.861788 29063 net.cpp:165] Memory required for data: 471493504
I0930 10:54:30.861791 29063 layer_factory.hpp:77] Creating layer ssd3_2_mbox_loc
I0930 10:54:30.861798 29063 net.cpp:100] Creating Layer ssd3_2_mbox_loc
I0930 10:54:30.861800 29063 net.cpp:434] ssd3_2_mbox_loc <- ssd3_2_ssd3_2_relu_0_split_1
I0930 10:54:30.861805 29063 net.cpp:408] ssd3_2_mbox_loc -> ssd3_2_mbox_loc
I0930 10:54:30.863019 29063 net.cpp:150] Setting up ssd3_2_mbox_loc
I0930 10:54:30.863026 29063 net.cpp:157] Top shape: 1 8 2 2 (32)
I0930 10:54:30.863029 29063 net.cpp:165] Memory required for data: 471493632
I0930 10:54:30.863034 29063 layer_factory.hpp:77] Creating layer ssd3_2_mbox_loc_perm
I0930 10:54:30.863039 29063 net.cpp:100] Creating Layer ssd3_2_mbox_loc_perm
I0930 10:54:30.863044 29063 net.cpp:434] ssd3_2_mbox_loc_perm <- ssd3_2_mbox_loc
I0930 10:54:30.863049 29063 net.cpp:408] ssd3_2_mbox_loc_perm -> ssd3_2_mbox_loc_perm
I0930 10:54:30.863117 29063 net.cpp:150] Setting up ssd3_2_mbox_loc_perm
I0930 10:54:30.863122 29063 net.cpp:157] Top shape: 1 2 2 8 (32)
I0930 10:54:30.863124 29063 net.cpp:165] Memory required for data: 471493760
I0930 10:54:30.863128 29063 layer_factory.hpp:77] Creating layer ssd3_2_mbox_loc_flat
I0930 10:54:30.863132 29063 net.cpp:100] Creating Layer ssd3_2_mbox_loc_flat
I0930 10:54:30.863135 29063 net.cpp:434] ssd3_2_mbox_loc_flat <- ssd3_2_mbox_loc_perm
I0930 10:54:30.863139 29063 net.cpp:408] ssd3_2_mbox_loc_flat -> ssd3_2_mbox_loc_flat
I0930 10:54:30.863154 29063 net.cpp:150] Setting up ssd3_2_mbox_loc_flat
I0930 10:54:30.863157 29063 net.cpp:157] Top shape: 1 32 (32)
I0930 10:54:30.863159 29063 net.cpp:165] Memory required for data: 471493888
I0930 10:54:30.863162 29063 layer_factory.hpp:77] Creating layer ssd3_2_mbox_conf
I0930 10:54:30.863169 29063 net.cpp:100] Creating Layer ssd3_2_mbox_conf
I0930 10:54:30.863173 29063 net.cpp:434] ssd3_2_mbox_conf <- ssd3_2_ssd3_2_relu_0_split_2
I0930 10:54:30.863178 29063 net.cpp:408] ssd3_2_mbox_conf -> ssd3_2_mbox_conf
I0930 10:54:30.864405 29063 net.cpp:150] Setting up ssd3_2_mbox_conf
I0930 10:54:30.864413 29063 net.cpp:157] Top shape: 1 10 2 2 (40)
I0930 10:54:30.864415 29063 net.cpp:165] Memory required for data: 471494048
I0930 10:54:30.864420 29063 layer_factory.hpp:77] Creating layer ssd3_2_mbox_conf_perm
I0930 10:54:30.864424 29063 net.cpp:100] Creating Layer ssd3_2_mbox_conf_perm
I0930 10:54:30.864426 29063 net.cpp:434] ssd3_2_mbox_conf_perm <- ssd3_2_mbox_conf
I0930 10:54:30.864439 29063 net.cpp:408] ssd3_2_mbox_conf_perm -> ssd3_2_mbox_conf_perm
I0930 10:54:30.864506 29063 net.cpp:150] Setting up ssd3_2_mbox_conf_perm
I0930 10:54:30.864511 29063 net.cpp:157] Top shape: 1 2 2 10 (40)
I0930 10:54:30.864511 29063 net.cpp:165] Memory required for data: 471494208
I0930 10:54:30.864513 29063 layer_factory.hpp:77] Creating layer ssd3_2_mbox_conf_flat
I0930 10:54:30.864517 29063 net.cpp:100] Creating Layer ssd3_2_mbox_conf_flat
I0930 10:54:30.864521 29063 net.cpp:434] ssd3_2_mbox_conf_flat <- ssd3_2_mbox_conf_perm
I0930 10:54:30.864527 29063 net.cpp:408] ssd3_2_mbox_conf_flat -> ssd3_2_mbox_conf_flat
I0930 10:54:30.864544 29063 net.cpp:150] Setting up ssd3_2_mbox_conf_flat
I0930 10:54:30.864547 29063 net.cpp:157] Top shape: 1 40 (40)
I0930 10:54:30.864550 29063 net.cpp:165] Memory required for data: 471494368
I0930 10:54:30.864553 29063 layer_factory.hpp:77] Creating layer ssd3_2_mbox_priorbox
I0930 10:54:30.864559 29063 net.cpp:100] Creating Layer ssd3_2_mbox_priorbox
I0930 10:54:30.864562 29063 net.cpp:434] ssd3_2_mbox_priorbox <- ssd3_2_ssd3_2_relu_0_split_3
I0930 10:54:30.864565 29063 net.cpp:434] ssd3_2_mbox_priorbox <- data_data_0_split_5
I0930 10:54:30.864568 29063 net.cpp:408] ssd3_2_mbox_priorbox -> ssd3_2_mbox_priorbox
I0930 10:54:30.864586 29063 net.cpp:150] Setting up ssd3_2_mbox_priorbox
I0930 10:54:30.864590 29063 net.cpp:157] Top shape: 1 2 32 (64)
I0930 10:54:30.864593 29063 net.cpp:165] Memory required for data: 471494624
I0930 10:54:30.864595 29063 layer_factory.hpp:77] Creating layer ssd4_2_mbox_loc
I0930 10:54:30.864603 29063 net.cpp:100] Creating Layer ssd4_2_mbox_loc
I0930 10:54:30.864605 29063 net.cpp:434] ssd4_2_mbox_loc <- ssd4_2_ssd4_2_relu_0_split_0
I0930 10:54:30.864609 29063 net.cpp:408] ssd4_2_mbox_loc -> ssd4_2_mbox_loc
I0930 10:54:30.865828 29063 net.cpp:150] Setting up ssd4_2_mbox_loc
I0930 10:54:30.865835 29063 net.cpp:157] Top shape: 1 8 1 1 (8)
I0930 10:54:30.865837 29063 net.cpp:165] Memory required for data: 471494656
I0930 10:54:30.865842 29063 layer_factory.hpp:77] Creating layer ssd4_2_mbox_loc_perm
I0930 10:54:30.865846 29063 net.cpp:100] Creating Layer ssd4_2_mbox_loc_perm
I0930 10:54:30.865849 29063 net.cpp:434] ssd4_2_mbox_loc_perm <- ssd4_2_mbox_loc
I0930 10:54:30.865852 29063 net.cpp:408] ssd4_2_mbox_loc_perm -> ssd4_2_mbox_loc_perm
I0930 10:54:30.865923 29063 net.cpp:150] Setting up ssd4_2_mbox_loc_perm
I0930 10:54:30.865927 29063 net.cpp:157] Top shape: 1 1 1 8 (8)
I0930 10:54:30.865929 29063 net.cpp:165] Memory required for data: 471494688
I0930 10:54:30.865933 29063 layer_factory.hpp:77] Creating layer ssd4_2_mbox_loc_flat
I0930 10:54:30.865938 29063 net.cpp:100] Creating Layer ssd4_2_mbox_loc_flat
I0930 10:54:30.865942 29063 net.cpp:434] ssd4_2_mbox_loc_flat <- ssd4_2_mbox_loc_perm
I0930 10:54:30.865947 29063 net.cpp:408] ssd4_2_mbox_loc_flat -> ssd4_2_mbox_loc_flat
I0930 10:54:30.865963 29063 net.cpp:150] Setting up ssd4_2_mbox_loc_flat
I0930 10:54:30.865967 29063 net.cpp:157] Top shape: 1 8 (8)
I0930 10:54:30.865968 29063 net.cpp:165] Memory required for data: 471494720
I0930 10:54:30.865969 29063 layer_factory.hpp:77] Creating layer ssd4_2_mbox_conf
I0930 10:54:30.865974 29063 net.cpp:100] Creating Layer ssd4_2_mbox_conf
I0930 10:54:30.865978 29063 net.cpp:434] ssd4_2_mbox_conf <- ssd4_2_ssd4_2_relu_0_split_1
I0930 10:54:30.865981 29063 net.cpp:408] ssd4_2_mbox_conf -> ssd4_2_mbox_conf
I0930 10:54:30.867342 29063 net.cpp:150] Setting up ssd4_2_mbox_conf
I0930 10:54:30.867349 29063 net.cpp:157] Top shape: 1 10 1 1 (10)
I0930 10:54:30.867352 29063 net.cpp:165] Memory required for data: 471494760
I0930 10:54:30.867355 29063 layer_factory.hpp:77] Creating layer ssd4_2_mbox_conf_perm
I0930 10:54:30.867362 29063 net.cpp:100] Creating Layer ssd4_2_mbox_conf_perm
I0930 10:54:30.867367 29063 net.cpp:434] ssd4_2_mbox_conf_perm <- ssd4_2_mbox_conf
I0930 10:54:30.867372 29063 net.cpp:408] ssd4_2_mbox_conf_perm -> ssd4_2_mbox_conf_perm
I0930 10:54:30.867441 29063 net.cpp:150] Setting up ssd4_2_mbox_conf_perm
I0930 10:54:30.867452 29063 net.cpp:157] Top shape: 1 1 1 10 (10)
I0930 10:54:30.867455 29063 net.cpp:165] Memory required for data: 471494800
I0930 10:54:30.867456 29063 layer_factory.hpp:77] Creating layer ssd4_2_mbox_conf_flat
I0930 10:54:30.867460 29063 net.cpp:100] Creating Layer ssd4_2_mbox_conf_flat
I0930 10:54:30.867461 29063 net.cpp:434] ssd4_2_mbox_conf_flat <- ssd4_2_mbox_conf_perm
I0930 10:54:30.867465 29063 net.cpp:408] ssd4_2_mbox_conf_flat -> ssd4_2_mbox_conf_flat
I0930 10:54:30.867482 29063 net.cpp:150] Setting up ssd4_2_mbox_conf_flat
I0930 10:54:30.867487 29063 net.cpp:157] Top shape: 1 10 (10)
I0930 10:54:30.867491 29063 net.cpp:165] Memory required for data: 471494840
I0930 10:54:30.867492 29063 layer_factory.hpp:77] Creating layer ssd4_2_mbox_priorbox
I0930 10:54:30.867498 29063 net.cpp:100] Creating Layer ssd4_2_mbox_priorbox
I0930 10:54:30.867502 29063 net.cpp:434] ssd4_2_mbox_priorbox <- ssd4_2_ssd4_2_relu_0_split_2
I0930 10:54:30.867506 29063 net.cpp:434] ssd4_2_mbox_priorbox <- data_data_0_split_6
I0930 10:54:30.867511 29063 net.cpp:408] ssd4_2_mbox_priorbox -> ssd4_2_mbox_priorbox
I0930 10:54:30.867529 29063 net.cpp:150] Setting up ssd4_2_mbox_priorbox
I0930 10:54:30.867532 29063 net.cpp:157] Top shape: 1 2 8 (16)
I0930 10:54:30.867534 29063 net.cpp:165] Memory required for data: 471494904
I0930 10:54:30.867535 29063 layer_factory.hpp:77] Creating layer mbox_loc
I0930 10:54:30.867539 29063 net.cpp:100] Creating Layer mbox_loc
I0930 10:54:30.867543 29063 net.cpp:434] mbox_loc <- conv5_3/expand_norm_mbox_loc_flat
I0930 10:54:30.867548 29063 net.cpp:434] mbox_loc <- conv6_4_mbox_loc_flat
I0930 10:54:30.867552 29063 net.cpp:434] mbox_loc <- ssd1_2_mbox_loc_flat
I0930 10:54:30.867557 29063 net.cpp:434] mbox_loc <- ssd2_2_mbox_loc_flat
I0930 10:54:30.867560 29063 net.cpp:434] mbox_loc <- ssd3_2_mbox_loc_flat
I0930 10:54:30.867564 29063 net.cpp:434] mbox_loc <- ssd4_2_mbox_loc_flat
I0930 10:54:30.867570 29063 net.cpp:408] mbox_loc -> mbox_loc
I0930 10:54:30.867588 29063 net.cpp:150] Setting up mbox_loc
I0930 10:54:30.867592 29063 net.cpp:157] Top shape: 1 6600 (6600)
I0930 10:54:30.867595 29063 net.cpp:165] Memory required for data: 471521304
I0930 10:54:30.867597 29063 layer_factory.hpp:77] Creating layer mbox_conf
I0930 10:54:30.867602 29063 net.cpp:100] Creating Layer mbox_conf
I0930 10:54:30.867606 29063 net.cpp:434] mbox_conf <- conv5_3/expand_norm_mbox_conf_flat
I0930 10:54:30.867610 29063 net.cpp:434] mbox_conf <- conv6_4_mbox_conf_flat
I0930 10:54:30.867614 29063 net.cpp:434] mbox_conf <- ssd1_2_mbox_conf_flat
I0930 10:54:30.867619 29063 net.cpp:434] mbox_conf <- ssd2_2_mbox_conf_flat
I0930 10:54:30.867622 29063 net.cpp:434] mbox_conf <- ssd3_2_mbox_conf_flat
I0930 10:54:30.867625 29063 net.cpp:434] mbox_conf <- ssd4_2_mbox_conf_flat
I0930 10:54:30.867630 29063 net.cpp:408] mbox_conf -> mbox_conf
I0930 10:54:30.867648 29063 net.cpp:150] Setting up mbox_conf
I0930 10:54:30.867652 29063 net.cpp:157] Top shape: 1 8250 (8250)
I0930 10:54:30.867655 29063 net.cpp:165] Memory required for data: 471554304
I0930 10:54:30.867657 29063 layer_factory.hpp:77] Creating layer mbox_priorbox
I0930 10:54:30.867661 29063 net.cpp:100] Creating Layer mbox_priorbox
I0930 10:54:30.867666 29063 net.cpp:434] mbox_priorbox <- conv5_3/expand_norm_mbox_priorbox
I0930 10:54:30.867667 29063 net.cpp:434] mbox_priorbox <- conv6_4_mbox_priorbox
I0930 10:54:30.867671 29063 net.cpp:434] mbox_priorbox <- ssd1_2_mbox_priorbox
I0930 10:54:30.867674 29063 net.cpp:434] mbox_priorbox <- ssd2_2_mbox_priorbox
I0930 10:54:30.867677 29063 net.cpp:434] mbox_priorbox <- ssd3_2_mbox_priorbox
I0930 10:54:30.867681 29063 net.cpp:434] mbox_priorbox <- ssd4_2_mbox_priorbox
I0930 10:54:30.867686 29063 net.cpp:408] mbox_priorbox -> mbox_priorbox
I0930 10:54:30.867704 29063 net.cpp:150] Setting up mbox_priorbox
I0930 10:54:30.867707 29063 net.cpp:157] Top shape: 1 2 6600 (13200)
I0930 10:54:30.867710 29063 net.cpp:165] Memory required for data: 471607104
I0930 10:54:30.867712 29063 layer_factory.hpp:77] Creating layer mbox_conf_reshape
I0930 10:54:30.867715 29063 net.cpp:100] Creating Layer mbox_conf_reshape
I0930 10:54:30.867723 29063 net.cpp:434] mbox_conf_reshape <- mbox_conf
I0930 10:54:30.867730 29063 net.cpp:408] mbox_conf_reshape -> mbox_conf_reshape
I0930 10:54:30.867754 29063 net.cpp:150] Setting up mbox_conf_reshape
I0930 10:54:30.867758 29063 net.cpp:157] Top shape: 1 1650 5 (8250)
I0930 10:54:30.867761 29063 net.cpp:165] Memory required for data: 471640104
I0930 10:54:30.867764 29063 layer_factory.hpp:77] Creating layer mbox_conf_softmax
I0930 10:54:30.867769 29063 net.cpp:100] Creating Layer mbox_conf_softmax
I0930 10:54:30.867771 29063 net.cpp:434] mbox_conf_softmax <- mbox_conf_reshape
I0930 10:54:30.867775 29063 net.cpp:408] mbox_conf_softmax -> mbox_conf_softmax
I0930 10:54:30.868111 29063 net.cpp:150] Setting up mbox_conf_softmax
I0930 10:54:30.868118 29063 net.cpp:157] Top shape: 1 1650 5 (8250)
I0930 10:54:30.868119 29063 net.cpp:165] Memory required for data: 471673104
I0930 10:54:30.868121 29063 layer_factory.hpp:77] Creating layer mbox_conf_flatten
I0930 10:54:30.868124 29063 net.cpp:100] Creating Layer mbox_conf_flatten
I0930 10:54:30.868127 29063 net.cpp:434] mbox_conf_flatten <- mbox_conf_softmax
I0930 10:54:30.868130 29063 net.cpp:408] mbox_conf_flatten -> mbox_conf_flatten
I0930 10:54:30.868146 29063 net.cpp:150] Setting up mbox_conf_flatten
I0930 10:54:30.868149 29063 net.cpp:157] Top shape: 1 8250 (8250)
I0930 10:54:30.868151 29063 net.cpp:165] Memory required for data: 471706104
I0930 10:54:30.868154 29063 layer_factory.hpp:77] Creating layer detection_out
I0930 10:54:30.868160 29063 net.cpp:100] Creating Layer detection_out
I0930 10:54:30.868163 29063 net.cpp:434] detection_out <- mbox_loc
I0930 10:54:30.868166 29063 net.cpp:434] detection_out <- mbox_conf_flatten
I0930 10:54:30.868168 29063 net.cpp:434] detection_out <- mbox_priorbox
I0930 10:54:30.868171 29063 net.cpp:408] detection_out -> detection_out
W0930 10:54:30.868196 29063 detection_output_layer.cpp:49] Failed to create directory: /home/zhongyilin/Documents/data/GTSDBdevkit/results/GTSDB/SSD_510x300_100_40_6_True_1/Main
I0930 10:54:30.868489 29063 net.cpp:150] Setting up detection_out
I0930 10:54:30.868496 29063 net.cpp:157] Top shape: 1 1 1 7 (7)
I0930 10:54:30.868499 29063 net.cpp:165] Memory required for data: 471706132
I0930 10:54:30.868502 29063 layer_factory.hpp:77] Creating layer detection_eval
I0930 10:54:30.868508 29063 net.cpp:100] Creating Layer detection_eval
I0930 10:54:30.868511 29063 net.cpp:434] detection_eval <- detection_out
I0930 10:54:30.868513 29063 net.cpp:434] detection_eval <- label
I0930 10:54:30.868516 29063 net.cpp:408] detection_eval -> detection_eval
I0930 10:54:30.868592 29063 net.cpp:150] Setting up detection_eval
I0930 10:54:30.868598 29063 net.cpp:157] Top shape: 1 1 5 5 (25)
I0930 10:54:30.868602 29063 net.cpp:165] Memory required for data: 471706232
I0930 10:54:30.868603 29063 net.cpp:228] detection_eval does not need backward computation.
I0930 10:54:30.868607 29063 net.cpp:228] detection_out does not need backward computation.
I0930 10:54:30.868611 29063 net.cpp:228] mbox_conf_flatten does not need backward computation.
I0930 10:54:30.868613 29063 net.cpp:228] mbox_conf_softmax does not need backward computation.
…
