…
      sampler {
        min_scale: 0.3
        max_scale: 1
        min_aspect_ratio: 0.5
        max_aspect_ratio: 2
      }
      sample_constraint {
        min_jaccard_overlap: 0.9
      }
      max_sample: 1
      max_trials: 50
    }
    batch_sampler {
      sampler {
        min_scale: 0.3
        max_scale: 1
        min_aspect_ratio: 0.5
        max_aspect_ratio: 2
      }
      sample_constraint {
        max_jaccard_overlap: 1
      }
      max_sample: 1
      max_trials: 50
    }
    label_map_file: "data/GTSDB/labelmap_GTSDB.prototxt"
  }
}
layer {
  name: "conv1_1"
  type: "Convolution"
  bottom: "data"
  top: "conv1_1"
  param {
    lr_mult: 1
    decay_mult: 1
  }
  param {
    lr_mult: 2
    decay_mult: 0
  }
  convolution_param {
    num_output: 64
    pad: 1
    kernel_size: 3
    weight_filler {
      type: "xavier"
    }
    bias_filler {
      type: "constant"
      value: 0
    }
  }
}
layer {
  name: "relu1_1"
  type: "ReLU"
  bottom: "conv1_1"
  top: "conv1_1"
}
layer {
  name: "conv1_2"
  type: "Convolution"
  bottom: "conv1_1"
  top: "conv1_2"
  param {
    lr_mult: 1
    decay_mult: 1
  }
  param {
    lr_mult: 2
    decay_mult: 0
  }
  convolution_param {
    num_output: 64
    pad: 1
    kernel_size: 3
    weight_filler {
      type: "xavier"
    }
    bias_filler {
      type: "constant"
      value: 0
    }
  }
}
layer {
  name: "relu1_2"
  type: "ReLU"
  bottom: "conv1_2"
  top: "conv1_2"
}
layer {
  name: "pool1"
  type: "Pooling"
  bottom: "conv1_2"
  top: "pool1"
  pooling_param {
    pool: MAX
    kernel_size: 2
    stride: 2
  }
}
layer {
  name: "conv2_1"
  type: "Convolution"
  bottom: "pool1"
  top: "conv2_1"
  param {
    lr_mult: 1
    decay_mult: 1
  }
  param {
    lr_mult: 2
    decay_mult: 0
  }
  convolution_param {
    num_output: 128
    pad: 1
    kernel_size: 3
    weight_filler {
      type: "xavier"
    }
    bias_filler {
      type: "constant"
      value: 0
    }
  }
}
layer {
  name: "relu2_1"
  type: "ReLU"
  bottom: "conv2_1"
  top: "conv2_1"
}
layer {
  name: "conv2_2"
  type: "Convolution"
  bottom: "conv2_1"
  top: "conv2_2"
  param {
    lr_mult: 1
    decay_mult: 1
  }
  param {
    lr_mult: 2
    decay_mult: 0
  }
  convolution_param {
    num_output: 128
    pad: 1
    kernel_size: 3
    weight_filler {
      type: "xavier"
    }
    bias_filler {
      type: "constant"
      value: 0
    }
  }
}
layer {
  name: "relu2_2"
  type: "ReLU"
  bottom: "conv2_2"
  top: "conv2_2"
}
layer {
  name: "pool2"
  type: "Pooling"
  bottom: "conv2_2"
  top: "pool2"
  pooling_param {
    pool: MAX
    kernel_size: 2
    stride: 2
  }
}
layer {
  name: "conv3_1"
  type: "Convolution"
  bottom: "pool2"
  top: "conv3_1"
  param {
    lr_mult: 1
    decay_mult: 1
  }
  param {
    lr_mult: 2
    decay_mult: 0
  }
  convolution_param {
    num_output: 256
    pad: 1
    kernel_size: 3
    weight_filler {
      type: "xavier"
    }
    bias_filler {
      type: "constant"
      value: 0
    }
  }
}
layer {
  name: "relu3_1"
  type: "ReLU"
  bottom: "conv3_1"
  top: "conv3_1"
}
layer {
  name: "conv3_2"
  type: "Convolution"
  bottom: "conv3_1"
  top: "conv3_2"
  param {
    lr_mult: 1
    decay_mult: 1
  }
  param {
    lr_mult: 2
    decay_mult: 0
  }
  convolution_param {
    num_output: 256
    pad: 1
    kernel_size: 3
    weight_filler {
      type: "xavier"
    }
    bias_filler {
      type: "constant"
      value: 0
    }
  }
}
layer {
  name: "relu3_2"
  type: "ReLU"
  bottom: "conv3_2"
  top: "conv3_2"
}
layer {
  name: "conv3_3"
  type: "Convolution"
  bottom: "conv3_2"
  top: "conv3_3"
  param {
    lr_mult: 1
    decay_mult: 1
  }
  param {
    lr_mult: 2
    decay_mult: 0
  }
  convolution_param {
    num_output: 256
    pad: 1
    kernel_size: 3
    weight_filler {
      type: "xavier"
    }
    bias_filler {
      type: "constant"
      value: 0
    }
  }
}
layer {
  name: "relu3_3"
  type: "ReLU"
  bottom: "conv3_3"
  top: "conv3_3"
}
layer {
  name: "pool3"
  type: "Pooling"
  bottom: "conv3_3"
  top: "pool3"
  pooling_param {
    pool: MAX
    kernel_size: 2
    stride: 2
  }
}
layer {
  name: "conv4_1"
  type: "Convolution"
  bottom: "pool3"
  top: "conv4_1"
  param {
    lr_mult: 1
    decay_mult: 1
  }
  param {
    lr_mult: 2
    decay_mult: 0
  }
  convolution_param {
    num_output: 512
    pad: 1
    kernel_size: 3
    weight_filler {
      type: "xavier"
    }
    bias_filler {
      type: "constant"
      value: 0
    }
  }
}
layer {
  name: "relu4_1"
  type: "ReLU"
  bottom: "conv4_1"
  top: "conv4_1"
}
layer {
  name: "conv4_2"
  type: "Convolution"
  bottom: "conv4_1"
  top: "conv4_2"
  param {
    lr_mult: 1
    decay_mult: 1
  }
  param {
    lr_mult: 2
    decay_mult: 0
  }
  convolution_param {
    num_output: 512
    pad: 1
    kernel_size: 3
    weight_filler {
      type: "xavier"
    }
    bias_filler {
      type: "constant"
      value: 0
    }
  }
}
layer {
  name: "relu4_2"
  type: "ReLU"
  bottom: "conv4_2"
  top: "conv4_2"
}
layer {
  name: "conv4_3"
  type: "Convolution"
  bottom: "conv4_2"
  top: "conv4_3"
  param {
    lr_mult: 1
    decay_mult: 1
  }
  param {
    lr_mult: 2
    decay_mult: 0
  }
  convolution_param {
    num_output: 512
    pad: 1
    kernel_size: 3
    weight_filler {
      type: "xavier"
    }
    bias_filler {
      type: "constant"
      value: 0
    }
  }
}
layer {
  name: "relu4_3"
  type: "ReLU"
  bottom: "conv4_3"
  top: "conv4_3"
}
layer {
  name: "pool4"
  type: "Pooling"
  bottom: "conv4_3"
  top: "pool4"
  pooling_param {
    pool: MAX
    kernel_size: 2
    stride: 2
  }
}
layer {
  name: "conv5_1"
  type: "Convolution"
  bottom: "pool4"
  top: "conv5_1"
  param {
    lr_mult: 1
    decay_mult: 1
  }
  param {
    lr_mult: 2
    decay_mult: 0
  }
  convolution_param {
    num_output: 512
    pad: 1
    kernel_size: 3
    weight_filler {
      type: "xavier"
    }
    bias_filler {
      type: "constant"
      value: 0
    }
    dilation: 1
  }
}
layer {
  name: "relu5_1"
  type: "ReLU"
  bottom: "conv5_1"
  top: "conv5_1"
}
layer {
  name: "conv5_2"
  type: "Convolution"
  bottom: "conv5_1"
  top: "conv5_2"
  param {
    lr_mult: 1
    decay_mult: 1
  }
  param {
    lr_mult: 2
    decay_mult: 0
  }
  convolution_param {
    num_output: 512
    pad: 1
    kernel_size: 3
    weight_filler {
      type: "xavier"
    }
    bias_filler {
      type: "constant"
      value: 0
    }
    dilation: 1
  }
}
layer {
  name: "relu5_2"
  type: "ReLU"
  bottom: "conv5_2"
  top: "conv5_2"
}
layer {
  name: "conv5_3"
  type: "Convolution"
  bottom: "conv5_2"
  top: "conv5_3"
  param {
    lr_mult: 1
    decay_mult: 1
  }
  param {
    lr_mult: 2
    decay_mult: 0
  }
  convolution_param {
    num_output: 512
    pad: 1
    kernel_size: 3
    weight_filler {
      type: "xavier"
    }
    bias_filler {
      type: "constant"
      value: 0
    }
    dilation: 1
  }
}
layer {
  name: "relu5_3"
  type: "ReLU"
  bottom: "conv5_3"
  top: "conv5_3"
}
layer {
  name: "pool5"
  type: "Pooling"
  bottom: "conv5_3"
  top: "pool5"
  pooling_param {
    pool: MAX
    kernel_size: 3
    stride: 1
    pad: 1
  }
}
layer {
  name: "fc6"
  type: "Convolution"
  bottom: "pool5"
  top: "fc6"
  param {
    lr_mult: 1
    decay_mult: 1
  }
  param {
    lr_mult: 2
    decay_mult: 0
  }
  convolution_param {
    num_output: 1024
    pad: 6
    kernel_size: 3
    weight_filler {
      type: "xavier"
    }
    bias_filler {
      type: "constant"
      value: 0
    }
    dilation: 6
  }
}
layer {
  name: "relu6"
  type: "ReLU"
  bottom: "fc6"
  top: "fc6"
}
layer {
  name: "fc7"
  type: "Convolution"
  bottom: "fc6"
  top: "fc7"
  param {
    lr_mult: 1
    decay_mult: 1
  }
  param {
    lr_mult: 2
    decay_mult: 0
  }
  convolution_param {
    num_output: 1024
    kernel_size: 1
    weight_filler {
      type: "xavier"
    }
    bias_filler {
      type: "constant"
      value: 0
    }
  }
}
layer {
  name: "relu7"
  type: "ReLU"
  bottom: "fc7"
  top: "fc7"
}
layer {
  name: "ssd1_1"
  type: "Convolution"
  bottom: "fc7"
  top: "ssd1_1"
  param {
    lr_mult: 1
    decay_mult: 1
  }
  param {
    lr_mult: 2
    decay_mult: 0
  }
  convolution_param {
    num_output: 256
    pad: 0
    kernel_size: 1
    stride: 1
    weight_filler {
      type: "xavier"
    }
    bias_filler {
      type: "constant"
      value: 0
    }
  }
}
layer {
  name: "ssd1_1_relu"
  type: "ReLU"
  bottom: "ssd1_1"
  top: "ssd1_1"
}
layer {
  name: "ssd1_2"
  type: "Convolution"
  bottom: "ssd1_1"
  top: "ssd1_2"
  param {
    lr_mult: 1
    decay_mult: 1
  }
  param {
    lr_mult: 2
    decay_mult: 0
  }
  convolution_param {
    num_output: 512
    pad: 1
    kernel_size: 3
    stride: 2
    weight_filler {
      type: "xavier"
    }
    bias_filler {
      type: "constant"
      value: 0
    }
  }
}
layer {
  name: "ssd1_2_relu"
  type: "ReLU"
  bottom: "ssd1_2"
  top: "ssd1_2"
}
layer {
  name: "ssd2_1"
  type: "Convolution"
  bottom: "ssd1_2"
  top: "ssd2_1"
  param {
    lr_mult: 1
    decay_mult: 1
  }
  param {
    lr_mult: 2
    decay_mult: 0
  }
  convolution_param {
    num_output: 128
    pad: 0
    kernel_size: 1
    stride: 1
    weight_filler {
      type: "xavier"
    }
    bias_filler {
      type: "constant"
      value: 0
    }
  }
}
layer {
  name: "ssd2_1_relu"
  type: "ReLU"
  bottom: "ssd2_1"
  top: "ssd2_1"
}
layer {
  name: "ssd2_2"
  type: "Convolution"
  bottom: "ssd2_1"
  top: "ssd2_2"
  param {
    lr_mult: 1
    decay_mult: 1
  }
  param {
    lr_mult: 2
    decay_mult: 0
  }
  convolution_param {
    num_output: 256
    pad: 1
    kernel_size: 3
    stride: 2
    weight_filler {
      type: "xavier"
    }
    bias_filler {
      type: "constant"
      value: 0
    }
  }
}
layer {
  name: "ssd2_2_relu"
  type: "ReLU"
  bottom: "ssd2_2"
  top: "ssd2_2"
}
layer {
  name: "ssd3_1"
  type: "Convolution"
  bottom: "ssd2_2"
  top: "ssd3_1"
  param {
    lr_mult: 1
    decay_mult: 1
  }
  param {
    lr_mult: 2
    decay_mult: 0
  }
  convolution_param {
    num_output: 128
    pad: 0
    kernel_size: 1
    stride: 1
    weight_filler {
      type: "xavier"
    }
    bias_filler {
      type: "constant"
      value: 0
    }
  }
}
layer {
  name: "ssd3_1_relu"
  type: "ReLU"
  bottom: "ssd3_1"
  top: "ssd3_1"
}
layer {
  name: "ssd3_2"
  type: "Convolution"
  bottom: "ssd3_1"
  top: "ssd3_2"
  param {
    lr_mult: 1
    decay_mult: 1
  }
  param {
    lr_mult: 2
    decay_mult: 0
  }
  convolution_param {
    num_output: 256
    pad: 0
    kernel_size: 3
    stride: 1
    weight_filler {
      type: "xavier"
    }
    bias_filler {
      type: "constant"
      value: 0
    }
  }
}
layer {
  name: "ssd3_2_relu"
  type: "ReLU"
  bottom: "ssd3_2"
  top: "ssd3_2"
}
layer {
  name: "ssd4_1"
  type: "Convolution"
  bottom: "ssd3_2"
  top: "ssd4_1"
  param {
    lr_mult: 1
    decay_mult: 1
  }
  param {
    lr_mult: 2
    decay_mult: 0
  }
  convolution_param {
    num_output: 128
    pad: 0
    kernel_size: 1
    stride: 1
    weight_filler {
      type: "xavier"
    }
    bias_filler {
      type: "constant"
      value: 0
    }
  }
}
layer {
  name: "ssd4_1_relu"
  type: "ReLU"
  bottom: "ssd4_1"
  top: "ssd4_1"
}
layer {
  name: "ssd4_2"
  type: "Convolution"
  bottom: "ssd4_1"
  top: "ssd4_2"
  param {
    lr_mult: 1
    decay_mult: 1
  }
  param {
    lr_mult: 2
    decay_mult: 0
  }
  convolution_param {
    num_output: 256
    pad: 0
    kernel_size: 3
    stride: 1
    weight_filler {
      type: "xavier"
    }
    bias_filler {
      type: "constant"
      value: 0
    }
  }
}
layer {
  name: "ssd4_2_relu"
  type: "ReLU"
  bottom: "ssd4_2"
  top: "ssd4_2"
}
layer {
  name: "conv4_3_norm"
  type: "Normalize"
  bottom: "conv4_3"
  top: "conv4_3_norm"
  norm_param {
    across_spatial: false
    scale_filler {
      type: "constant"
      value: 20
    }
    channel_shared: false
  }
}
layer {
  name: "conv4_3_norm_mbox_loc"
  type: "Convolution"
  bottom: "conv4_3_norm"
  top: "conv4_3_norm_mbox_loc"
  param {
    lr_mult: 1
    decay_mult: 1
  }
  param {
    lr_mult: 2
    decay_mult: 0
  }
  convolution_param {
    num_output: 8
    pad: 1
    kernel_size: 3
    stride: 1
    weight_filler {
      type: "xavier"
    }
    bias_filler {
      type: "constant"
      value: 0
    }
  }
}
layer {
  name: "conv4_3_norm_mbox_loc_perm"
  type: "Permute"
  bottom: "conv4_3_norm_mbox_loc"
  top: "conv4_3_norm_mbox_loc_perm"
  permute_param {
    order: 0
    order: 2
    order: 3
    order: 1
  }
}
layer {
  name: "conv4_3_norm_mbox_loc_flat"
  type: "Flatten"
  bottom: "conv4_3_norm_mbox_loc_perm"
  top: "conv4_3_norm_mbox_loc_flat"
  flatten_param {
    axis: 1
  }
}
layer {
  name: "conv4_3_norm_mbox_conf"
  type: "Convolution"
  bottom: "conv4_3_norm"
  top: "conv4_3_norm_mbox_conf"
  param {
    lr_mult: 1
    decay_mult: 1
  }
  param {
    lr_mult: 2
    decay_mult: 0
  }
  convolution_param {
    num_output: 10
    pad: 1
    kernel_size: 3
    stride: 1
    weight_filler {
      type: "xavier"
    }
    bias_filler {
      type: "constant"
      value: 0
    }
  }
}
layer {
  name: "conv4_3_norm_mbox_conf_perm"
  type: "Permute"
  bottom: "conv4_3_norm_mbox_conf"
  top: "conv4_3_norm_mbox_conf_perm"
  permute_param {
    order: 0
    order: 2
    order: 3
    order: 1
  }
}
layer {
  name: "conv4_3_norm_mbox_conf_flat"
  type: "Flatten"
  bottom: "conv4_3_norm_mbox_conf_perm"
  top: "conv4_3_norm_mbox_conf_flat"
  flatten_param {
    axis: 1
  }
}
layer {
  name: "conv4_3_norm_mbox_priorbox"
  type: "PriorBox"
  bottom: "conv4_3_norm"
  bottom: "data"
  top: "conv4_3_norm_mbox_priorbox"
  prior_box_param {
    min_size: 15
    max_size: 30
    clip: false
    variance: 0.1
    variance: 0.1
    variance: 0.2
    variance: 0.2
    step: 8
    offset: 0.5
  }
}
layer {
  name: "fc7_mbox_loc"
  type: "Convolution"
  bottom: "fc7"
  top: "fc7_mbox_loc"
  param {
    lr_mult: 1
    decay_mult: 1
  }
  param {
    lr_mult: 2
    decay_mult: 0
  }
  convolution_param {
    num_output: 8
    pad: 1
    kernel_size: 3
    stride: 1
    weight_filler {
      type: "xavier"
    }
    bias_filler {
      type: "constant"
      value: 0
    }
  }
}
layer {
  name: "fc7_mbox_loc_perm"
  type: "Permute"
  bottom: "fc7_mbox_loc"
  top: "fc7_mbox_loc_perm"
  permute_param {
    order: 0
    order: 2
    order: 3
    order: 1
  }
}
layer {
  name: "fc7_mbox_loc_flat"
  type: "Flatten"
  bottom: "fc7_mbox_loc_perm"
  top: "fc7_mbox_loc_flat"
  flatten_param {
    axis: 1
  }
}
layer {
  name: "fc7_mbox_conf"
  type: "Convolution"
  bottom: "fc7"
  top: "fc7_mbox_conf"
  param {
    lr_mult: 1
    decay_mult: 1
  }
  param {
    lr_mult: 2
    decay_mult: 0
  }
  convolution_param {
    num_output: 10
    pad: 1
    kernel_size: 3
    stride: 1
    weight_filler {
      type: "xavier"
    }
    bias_filler {
      type: "constant"
      value: 0
    }
  }
}
layer {
  name: "fc7_mbox_conf_perm"
  type: "Permute"
  bottom: "fc7_mbox_conf"
  top: "fc7_mbox_conf_perm"
  permute_param {
    order: 0
    order: 2
    order: 3
    order: 1
  }
}
layer {
  name: "fc7_mbox_conf_flat"
  type: "Flatten"
  bottom: "fc7_mbox_conf_perm"
  top: "fc7_mbox_conf_flat"
  flatten_param {
    axis: 1
  }
}
layer {
  name: "fc7_mbox_priorbox"
  type: "PriorBox"
  bottom: "fc7"
  bottom: "data"
  top: "fc7_mbox_priorbox"
  prior_box_param {
    min_size: 30
    max_size: 60
    clip: false
    variance: 0.1
    variance: 0.1
    variance: 0.2
    variance: 0.2
    step: 16
    offset: 0.5
  }
}
layer {
  name: "ssd1_2_mbox_loc"
  type: "Convolution"
  bottom: "ssd1_2"
  top: "ssd1_2_mbox_loc"
  param {
    lr_mult: 1
    decay_mult: 1
  }
  param {
    lr_mult: 2
    decay_mult: 0
  }
  convolution_param {
    num_output: 8
    pad: 1
    kernel_size: 3
    stride: 1
    weight_filler {
      type: "xavier"
    }
    bias_filler {
      type: "constant"
      value: 0
    }
  }
}
layer {
  name: "ssd1_2_mbox_loc_perm"
  type: "Permute"
  bottom: "ssd1_2_mbox_loc"
  top: "ssd1_2_mbox_loc_perm"
  permute_param {
    order: 0
    order: 2
    order: 3
    order: 1
  }
}
layer {
  name: "ssd1_2_mbox_loc_flat"
  type: "Flatten"
  bottom: "ssd1_2_mbox_loc_perm"
  top: "ssd1_2_mbox_loc_flat"
  flatten_param {
    axis: 1
  }
}
layer {
  name: "ssd1_2_mbox_conf"
  type: "Convolution"
  bottom: "ssd1_2"
  top: "ssd1_2_mbox_conf"
  param {
    lr_mult: 1
    decay_mult: 1
  }
  param {
    lr_mult: 2
    decay_mult: 0
  }
  convolution_param {
    num_output: 10
    pad: 1
    kernel_size: 3
    stride: 1
    weight_filler {
      type: "xavier"
    }
    bias_filler {
      type: "constant"
      value: 0
    }
  }
}
layer {
  name: "ssd1_2_mbox_conf_perm"
  type: "Permute"
  bottom: "ssd1_2_mbox_conf"
  top: "ssd1_2_mbox_conf_perm"
  permute_param {
    order: 0
    order: 2
    order: 3
    order: 1
  }
}
layer {
  name: "ssd1_2_mbox_conf_flat"
  type: "Flatten"
  bottom: "ssd1_2_mbox_conf_perm"
  top: "ssd1_2_mbox_conf_flat"
  flatten_param {
    axis: 1
  }
}
layer {
  name: "ssd1_2_mbox_priorbox"
  type: "PriorBox"
  bottom: "ssd1_2"
  bottom: "data"
  top: "ssd1_2_mbox_priorbox"
  prior_box_param {
    min_size: 60
    max_size: 90
    clip: false
    variance: 0.1
    variance: 0.1
    variance: 0.2
    variance: 0.2
    step: 32
    offset: 0.5
  }
}
layer {
  name: "ssd2_2_mbox_loc"
  type: "Convolution"
  bottom: "ssd2_2"
  top: "ssd2_2_mbox_loc"
  param {
    lr_mult: 1
    decay_mult: 1
  }
  param {
    lr_mult: 2
    decay_mult: 0
  }
  convolution_param {
    num_output: 8
    pad: 1
    kernel_size: 3
    stride: 1
    weight_filler {
      type: "xavier"
    }
    bias_filler {
      type: "constant"
      value: 0
    }
  }
}
layer {
  name: "ssd2_2_mbox_loc_perm"
  type: "Permute"
  bottom: "ssd2_2_mbox_loc"
  top: "ssd2_2_mbox_loc_perm"
  permute_param {
    order: 0
    order: 2
    order: 3
    order: 1
  }
}
layer {
  name: "ssd2_2_mbox_loc_flat"
  type: "Flatten"
  bottom: "ssd2_2_mbox_loc_perm"
  top: "ssd2_2_mbox_loc_flat"
  flatten_param {
    axis: 1
  }
}
layer {
  name: "ssd2_2_mbox_conf"
  type: "Convolution"
  bottom: "ssd2_2"
  top: "ssd2_2_mbox_conf"
  param {
    lr_mult: 1
    decay_mult: 1
  }
  param {
    lr_mult: 2
    decay_mult: 0
  }
  convolution_param {
    num_output: 10
    pad: 1
    kernel_size: 3
    stride: 1
    weight_filler {
      type: "xavier"
    }
    bias_filler {
      type: "constant"
      value: 0
    }
  }
}
layer {
  name: "ssd2_2_mbox_conf_perm"
  type: "Permute"
  bottom: "ssd2_2_mbox_conf"
  top: "ssd2_2_mbox_conf_perm"
  permute_param {
    order: 0
    order: 2
    order: 3
    order: 1
  }
}
layer {
  name: "ssd2_2_mbox_conf_flat"
  type: "Flatten"
  bottom: "ssd2_2_mbox_conf_perm"
  top: "ssd2_2_mbox_conf_flat"
  flatten_param {
    axis: 1
  }
}
layer {
  name: "ssd2_2_mbox_priorbox"
  type: "PriorBox"
  bottom: "ssd2_2"
  bottom: "data"
  top: "ssd2_2_mbox_priorbox"
  prior_box_param {
    min_size: 90
    max_size: 120
    clip: false
    variance: 0.1
    variance: 0.1
    variance: 0.2
    variance: 0.2
    step: 64
    offset: 0.5
  }
}
layer {
  name: "ssd3_2_mbox_loc"
  type: "Convolution"
  bottom: "ssd3_2"
  top: "ssd3_2_mbox_loc"
  param {
    lr_mult: 1
    decay_mult: 1
  }
  param {
    lr_mult: 2
    decay_mult: 0
  }
  convolution_param {
    num_output: 8
    pad: 1
    kernel_size: 3
    stride: 1
    weight_filler {
      type: "xavier"
    }
    bias_filler {
      type: "constant"
      value: 0
    }
  }
}
layer {
  name: "ssd3_2_mbox_loc_perm"
  type: "Permute"
  bottom: "ssd3_2_mbox_loc"
  top: "ssd3_2_mbox_loc_perm"
  permute_param {
    order: 0
    order: 2
    order: 3
    order: 1
  }
}
layer {
  name: "ssd3_2_mbox_loc_flat"
  type: "Flatten"
  bottom: "ssd3_2_mbox_loc_perm"
  top: "ssd3_2_mbox_loc_flat"
  flatten_param {
    axis: 1
  }
}
layer {
  name: "ssd3_2_mbox_conf"
  type: "Convolution"
  bottom: "ssd3_2"
  top: "ssd3_2_mbox_conf"
  param {
    lr_mult: 1
    decay_mult: 1
  }
  param {
    lr_mult: 2
    decay_mult: 0
  }
  convolution_param {
    num_output: 10
    pad: 1
    kernel_size: 3
    stride: 1
    weight_filler {
      type: "xavier"
    }
    bias_filler {
      type: "constant"
      value: 0
    }
  }
}
layer {
  name: "ssd3_2_mbox_conf_perm"
  type: "Permute"
  bottom: "ssd3_2_mbox_conf"
  top: "ssd3_2_mbox_conf_perm"
  permute_param {
    order: 0
    order: 2
    order: 3
    order: 1
  }
}
layer {
  name: "ssd3_2_mbox_conf_flat"
  type: "Flatten"
  bottom: "ssd3_2_mbox_conf_perm"
  top: "ssd3_2_mbox_conf_flat"
  flatten_param {
    axis: 1
  }
}
layer {
  name: "ssd3_2_mbox_priorbox"
  type: "PriorBox"
  bottom: "ssd3_2"
  bottom: "data"
  top: "ssd3_2_mbox_priorbox"
  prior_box_param {
    min_size: 120
    max_size: 150
    clip: false
    variance: 0.1
    variance: 0.1
    variance: 0.2
    variance: 0.2
    step: 100
    offset: 0.5
  }
}
layer {
  name: "ssd4_2_mbox_loc"
  type: "Convolution"
  bottom: "ssd4_2"
  top: "ssd4_2_mbox_loc"
  param {
    lr_mult: 1
    decay_mult: 1
  }
  param {
    lr_mult: 2
    decay_mult: 0
  }
  convolution_param {
    num_output: 8
    pad: 1
    kernel_size: 3
    stride: 1
    weight_filler {
      type: "xavier"
    }
    bias_filler {
      type: "constant"
      value: 0
    }
  }
}
layer {
  name: "ssd4_2_mbox_loc_perm"
  type: "Permute"
  bottom: "ssd4_2_mbox_loc"
  top: "ssd4_2_mbox_loc_perm"
  permute_param {
    order: 0
    order: 2
    order: 3
    order: 1
  }
}
layer {
  name: "ssd4_2_mbox_loc_flat"
  type: "Flatten"
  bottom: "ssd4_2_mbox_loc_perm"
  top: "ssd4_2_mbox_loc_flat"
  flatten_param {
    axis: 1
  }
}
layer {
  name: "ssd4_2_mbox_conf"
  type: "Convolution"
  bottom: "ssd4_2"
  top: "ssd4_2_mbox_conf"
  param {
    lr_mult: 1
    decay_mult: 1
  }
  param {
    lr_mult: 2
    decay_mult: 0
  }
  convolution_param {
    num_output: 10
    pad: 1
    kernel_size: 3
    stride: 1
    weight_filler {
      type: "xavier"
    }
    bias_filler {
      type: "constant"
      value: 0
    }
  }
}
layer {
  name: "ssd4_2_mbox_conf_perm"
  type: "Permute"
  bottom: "ssd4_2_mbox_conf"
  top: "ssd4_2_mbox_conf_perm"
  permute_param {
    order: 0
    order: 2
    order: 3
    order: 1
  }
}
layer {
  name: "ssd4_2_mbox_conf_flat"
  type: "Flatten"
  bottom: "ssd4_2_mbox_conf_perm"
  top: "ssd4_2_mbox_conf_flat"
  flatten_param {
    axis: 1
  }
}
layer {
  name: "ssd4_2_mbox_priorbox"
  type: "PriorBox"
  bottom: "ssd4_2"
  bottom: "data"
  top: "ssd4_2_mbox_priorbox"
  prior_box_param {
    min_size: 150
    max_size: 180
    clip: false
    variance: 0.1
    variance: 0.1
    variance: 0.2
    variance: 0.2
    step: 300
    offset: 0.5
  }
}
layer {
  name: "mbox_loc"
  type: "Concat"
  bottom: "conv4_3_norm_mbox_loc_flat"
  bottom: "fc7_mbox_loc_flat"
  bottom: "ssd1_2_mbox_loc_flat"
  bottom: "ssd2_2_mbox_loc_flat"
  bottom: "ssd3_2_mbox_loc_flat"
  bottom: "ssd4_2_mbox_loc_flat"
  top: "mbox_loc"
  concat_param {
    axis: 1
  }
}
layer {
  name: "mbox_conf"
  type: "Concat"
  bottom: "conv4_3_norm_mbox_conf_flat"
  bottom: "fc7_mbox_conf_flat"
  bottom: "ssd1_2_mbox_conf_flat"
  bottom: "ssd2_2_mbox_conf_flat"
  bottom: "ssd3_2_mbox_conf_flat"
  bottom: "ssd4_2_mbox_conf_flat"
  top: "mbox_conf"
  concat_param {
    axis: 1
  }
}
layer {
  name: "mbox_priorbox"
  type: "Concat"
  bottom: "conv4_3_norm_mbox_priorbox"
  bottom: "fc7_mbox_priorbox"
  bottom: "ssd1_2_mbox_priorbox"
  bottom: "ssd2_2_mbox_priorbox"
  bottom: "ssd3_2_mbox_priorbox"
  bottom: "ssd4_2_mbox_priorbox"
  top: "mbox_priorbox"
  concat_param {
    axis: 2
  }
}
layer {
  name: "mbox_loss"
  type: "MultiBoxLoss"
  bottom: "mbox_loc"
  bottom: "mbox_conf"
  bottom: "mbox_priorbox"
  bottom: "label"
  top: "mbox_loss"
  include {
    phase: TRAIN
  }
  propagate_down: true
  propagate_down: true
  propagate_down: false
  propagate_down: false
  loss_param {
    normalization: VALID
  }
  multibox_loss_param {
    loc_loss_type: SMOOTH_L1
    conf_loss_type: SOFTMAX
    loc_weight: 1
    num_classes: 5
    share_location: true
    match_type: PER_PREDICTION
    overlap_threshold: 0.5
    use_prior_for_matching: true
    background_label_id: 0
    use_difficult_gt: true
    neg_pos_ratio: 3
    neg_overlap: 0.5
    code_type: CENTER_SIZE
    ignore_cross_boundary_bbox: false
    mining_type: MAX_NEGATIVE
  }
}
I1209 18:28:58.738852  3521 layer_factory.hpp:77] Creating layer data
I1209 18:28:58.738960  3521 net.cpp:100] Creating Layer data
I1209 18:28:58.738970  3521 net.cpp:408] data -> data
I1209 18:28:58.738996  3521 net.cpp:408] data -> label
I1209 18:28:58.739866  3529 db_lmdb.cpp:35] Opened lmdb examples/GTSDB/GTSDB_trainval_lmdb
I1209 18:28:58.757275  3521 annotated_data_layer.cpp:62] output data size: 2,3,300,510
I1209 18:28:58.762030  3521 net.cpp:150] Setting up data
I1209 18:28:58.762049  3521 net.cpp:157] Top shape: 2 3 300 510 (918000)
I1209 18:28:58.762053  3521 net.cpp:157] Top shape: 1 1 3 8 (24)
I1209 18:28:58.762055  3521 net.cpp:165] Memory required for data: 3672096
I1209 18:28:58.762061  3521 layer_factory.hpp:77] Creating layer data_data_0_split
I1209 18:28:58.762070  3521 net.cpp:100] Creating Layer data_data_0_split
I1209 18:28:58.762073  3521 net.cpp:434] data_data_0_split <- data
I1209 18:28:58.762084  3521 net.cpp:408] data_data_0_split -> data_data_0_split_0
I1209 18:28:58.762100  3521 net.cpp:408] data_data_0_split -> data_data_0_split_1
I1209 18:28:58.762105  3521 net.cpp:408] data_data_0_split -> data_data_0_split_2
I1209 18:28:58.762111  3521 net.cpp:408] data_data_0_split -> data_data_0_split_3
I1209 18:28:58.762116  3521 net.cpp:408] data_data_0_split -> data_data_0_split_4
I1209 18:28:58.762120  3521 net.cpp:408] data_data_0_split -> data_data_0_split_5
I1209 18:28:58.762125  3521 net.cpp:408] data_data_0_split -> data_data_0_split_6
I1209 18:28:58.762183  3521 net.cpp:150] Setting up data_data_0_split
I1209 18:28:58.762188  3521 net.cpp:157] Top shape: 2 3 300 510 (918000)
I1209 18:28:58.762190  3521 net.cpp:157] Top shape: 2 3 300 510 (918000)
I1209 18:28:58.762193  3521 net.cpp:157] Top shape: 2 3 300 510 (918000)
I1209 18:28:58.762195  3521 net.cpp:157] Top shape: 2 3 300 510 (918000)
I1209 18:28:58.762198  3521 net.cpp:157] Top shape: 2 3 300 510 (918000)
I1209 18:28:58.762200  3521 net.cpp:157] Top shape: 2 3 300 510 (918000)
I1209 18:28:58.762203  3521 net.cpp:157] Top shape: 2 3 300 510 (918000)
I1209 18:28:58.762204  3521 net.cpp:165] Memory required for data: 29376096
I1209 18:28:58.762207  3521 layer_factory.hpp:77] Creating layer conv1_1
I1209 18:28:58.762218  3521 net.cpp:100] Creating Layer conv1_1
I1209 18:28:58.762221  3521 net.cpp:434] conv1_1 <- data_data_0_split_0
I1209 18:28:58.762225  3521 net.cpp:408] conv1_1 -> conv1_1
I1209 18:28:59.124055  3521 net.cpp:150] Setting up conv1_1
I1209 18:28:59.124073  3521 net.cpp:157] Top shape: 2 64 300 510 (19584000)
I1209 18:28:59.124076  3521 net.cpp:165] Memory required for data: 107712096
I1209 18:28:59.124094  3521 layer_factory.hpp:77] Creating layer relu1_1
I1209 18:28:59.124101  3521 net.cpp:100] Creating Layer relu1_1
I1209 18:28:59.124104  3521 net.cpp:434] relu1_1 <- conv1_1
I1209 18:28:59.124107  3521 net.cpp:395] relu1_1 -> conv1_1 (in-place)
I1209 18:28:59.124402  3521 net.cpp:150] Setting up relu1_1
I1209 18:28:59.124408  3521 net.cpp:157] Top shape: 2 64 300 510 (19584000)
I1209 18:28:59.124410  3521 net.cpp:165] Memory required for data: 186048096
I1209 18:28:59.124413  3521 layer_factory.hpp:77] Creating layer conv1_2
I1209 18:28:59.124419  3521 net.cpp:100] Creating Layer conv1_2
I1209 18:28:59.124423  3521 net.cpp:434] conv1_2 <- conv1_1
I1209 18:28:59.124425  3521 net.cpp:408] conv1_2 -> conv1_2
I1209 18:28:59.126435  3521 net.cpp:150] Setting up conv1_2
I1209 18:28:59.126444  3521 net.cpp:157] Top shape: 2 64 300 510 (19584000)
I1209 18:28:59.126447  3521 net.cpp:165] Memory required for data: 264384096
I1209 18:28:59.126453  3521 layer_factory.hpp:77] Creating layer relu1_2
I1209 18:28:59.126457  3521 net.cpp:100] Creating Layer relu1_2
I1209 18:28:59.126459  3521 net.cpp:434] relu1_2 <- conv1_2
I1209 18:28:59.126462  3521 net.cpp:395] relu1_2 -> conv1_2 (in-place)
I1209 18:28:59.126772  3521 net.cpp:150] Setting up relu1_2
I1209 18:28:59.126777  3521 net.cpp:157] Top shape: 2 64 300 510 (19584000)
I1209 18:28:59.126778  3521 net.cpp:165] Memory required for data: 342720096
I1209 18:28:59.126781  3521 layer_factory.hpp:77] Creating layer pool1
I1209 18:28:59.126785  3521 net.cpp:100] Creating Layer pool1
I1209 18:28:59.126787  3521 net.cpp:434] pool1 <- conv1_2
I1209 18:28:59.126791  3521 net.cpp:408] pool1 -> pool1
I1209 18:28:59.126823  3521 net.cpp:150] Setting up pool1
I1209 18:28:59.126827  3521 net.cpp:157] Top shape: 2 64 150 255 (4896000)
I1209 18:28:59.126828  3521 net.cpp:165] Memory required for data: 362304096
I1209 18:28:59.126832  3521 layer_factory.hpp:77] Creating layer conv2_1
I1209 18:28:59.126837  3521 net.cpp:100] Creating Layer conv2_1
I1209 18:28:59.126839  3521 net.cpp:434] conv2_1 <- pool1
I1209 18:28:59.126843  3521 net.cpp:408] conv2_1 -> conv2_1
I1209 18:28:59.128518  3521 net.cpp:150] Setting up conv2_1
I1209 18:28:59.128526  3521 net.cpp:157] Top shape: 2 128 150 255 (9792000)
I1209 18:28:59.128528  3521 net.cpp:165] Memory required for data: 401472096
I1209 18:28:59.128535  3521 layer_factory.hpp:77] Creating layer relu2_1
I1209 18:28:59.128540  3521 net.cpp:100] Creating Layer relu2_1
I1209 18:28:59.128553  3521 net.cpp:434] relu2_1 <- conv2_1
I1209 18:28:59.128556  3521 net.cpp:395] relu2_1 -> conv2_1 (in-place)
I1209 18:28:59.129030  3521 net.cpp:150] Setting up relu2_1
I1209 18:28:59.129037  3521 net.cpp:157] Top shape: 2 128 150 255 (9792000)
I1209 18:28:59.129040  3521 net.cpp:165] Memory required for data: 440640096
I1209 18:28:59.129042  3521 layer_factory.hpp:77] Creating layer conv2_2
I1209 18:28:59.129047  3521 net.cpp:100] Creating Layer conv2_2
I1209 18:28:59.129050  3521 net.cpp:434] conv2_2 <- conv2_1
I1209 18:28:59.129055  3521 net.cpp:408] conv2_2 -> conv2_2
I1209 18:28:59.131466  3521 net.cpp:150] Setting up conv2_2
I1209 18:28:59.131475  3521 net.cpp:157] Top shape: 2 128 150 255 (9792000)
I1209 18:28:59.131477  3521 net.cpp:165] Memory required for data: 479808096
I1209 18:28:59.131481  3521 layer_factory.hpp:77] Creating layer relu2_2
I1209 18:28:59.131486  3521 net.cpp:100] Creating Layer relu2_2
I1209 18:28:59.131489  3521 net.cpp:434] relu2_2 <- conv2_2
I1209 18:28:59.131491  3521 net.cpp:395] relu2_2 -> conv2_2 (in-place)
I1209 18:28:59.131976  3521 net.cpp:150] Setting up relu2_2
I1209 18:28:59.131983  3521 net.cpp:157] Top shape: 2 128 150 255 (9792000)
I1209 18:28:59.131985  3521 net.cpp:165] Memory required for data: 518976096
I1209 18:28:59.131988  3521 layer_factory.hpp:77] Creating layer pool2
I1209 18:28:59.131992  3521 net.cpp:100] Creating Layer pool2
I1209 18:28:59.131994  3521 net.cpp:434] pool2 <- conv2_2
I1209 18:28:59.131997  3521 net.cpp:408] pool2 -> pool2
I1209 18:28:59.132026  3521 net.cpp:150] Setting up pool2
I1209 18:28:59.132030  3521 net.cpp:157] Top shape: 2 128 75 128 (2457600)
I1209 18:28:59.132032  3521 net.cpp:165] Memory required for data: 528806496
I1209 18:28:59.132035  3521 layer_factory.hpp:77] Creating layer conv3_1
I1209 18:28:59.132042  3521 net.cpp:100] Creating Layer conv3_1
I1209 18:28:59.132045  3521 net.cpp:434] conv3_1 <- pool2
I1209 18:28:59.132048  3521 net.cpp:408] conv3_1 -> conv3_1
I1209 18:28:59.134874  3521 net.cpp:150] Setting up conv3_1
I1209 18:28:59.134884  3521 net.cpp:157] Top shape: 2 256 75 128 (4915200)
I1209 18:28:59.134887  3521 net.cpp:165] Memory required for data: 548467296
I1209 18:28:59.134896  3521 layer_factory.hpp:77] Creating layer relu3_1
I1209 18:28:59.134901  3521 net.cpp:100] Creating Layer relu3_1
I1209 18:28:59.134903  3521 net.cpp:434] relu3_1 <- conv3_1
I1209 18:28:59.134907  3521 net.cpp:395] relu3_1 -> conv3_1 (in-place)
I1209 18:28:59.135262  3521 net.cpp:150] Setting up relu3_1
I1209 18:28:59.135267  3521 net.cpp:157] Top shape: 2 256 75 128 (4915200)
I1209 18:28:59.135269  3521 net.cpp:165] Memory required for data: 568128096
I1209 18:28:59.135272  3521 layer_factory.hpp:77] Creating layer conv3_2
I1209 18:28:59.135277  3521 net.cpp:100] Creating Layer conv3_2
I1209 18:28:59.135279  3521 net.cpp:434] conv3_2 <- conv3_1
I1209 18:28:59.135283  3521 net.cpp:408] conv3_2 -> conv3_2
I1209 18:28:59.139276  3521 net.cpp:150] Setting up conv3_2
I1209 18:28:59.139286  3521 net.cpp:157] Top shape: 2 256 75 128 (4915200)
I1209 18:28:59.139288  3521 net.cpp:165] Memory required for data: 587788896
I1209 18:28:59.139292  3521 layer_factory.hpp:77] Creating layer relu3_2
I1209 18:28:59.139297  3521 net.cpp:100] Creating Layer relu3_2
I1209 18:28:59.139300  3521 net.cpp:434] relu3_2 <- conv3_2
I1209 18:28:59.139303  3521 net.cpp:395] relu3_2 -> conv3_2 (in-place)
I1209 18:28:59.139629  3521 net.cpp:150] Setting up relu3_2
I1209 18:28:59.139636  3521 net.cpp:157] Top shape: 2 256 75 128 (4915200)
I1209 18:28:59.139638  3521 net.cpp:165] Memory required for data: 607449696
I1209 18:28:59.139641  3521 layer_factory.hpp:77] Creating layer conv3_3
I1209 18:28:59.139647  3521 net.cpp:100] Creating Layer conv3_3
I1209 18:28:59.139649  3521 net.cpp:434] conv3_3 <- conv3_2
I1209 18:28:59.139653  3521 net.cpp:408] conv3_3 -> conv3_3
I1209 18:28:59.143513  3521 net.cpp:150] Setting up conv3_3
I1209 18:28:59.143523  3521 net.cpp:157] Top shape: 2 256 75 128 (4915200)
I1209 18:28:59.143525  3521 net.cpp:165] Memory required for data: 627110496
I1209 18:28:59.143543  3521 layer_factory.hpp:77] Creating layer relu3_3
I1209 18:28:59.143548  3521 net.cpp:100] Creating Layer relu3_3
I1209 18:28:59.143550  3521 net.cpp:434] relu3_3 <- conv3_3
I1209 18:28:59.143554  3521 net.cpp:395] relu3_3 -> conv3_3 (in-place)
I1209 18:28:59.144050  3521 net.cpp:150] Setting up relu3_3
I1209 18:28:59.144057  3521 net.cpp:157] Top shape: 2 256 75 128 (4915200)
I1209 18:28:59.144058  3521 net.cpp:165] Memory required for data: 646771296
I1209 18:28:59.144060  3521 layer_factory.hpp:77] Creating layer pool3
I1209 18:28:59.144064  3521 net.cpp:100] Creating Layer pool3
I1209 18:28:59.144067  3521 net.cpp:434] pool3 <- conv3_3
I1209 18:28:59.144070  3521 net.cpp:408] pool3 -> pool3
I1209 18:28:59.144098  3521 net.cpp:150] Setting up pool3
I1209 18:28:59.144101  3521 net.cpp:157] Top shape: 2 256 38 64 (1245184)
I1209 18:28:59.144104  3521 net.cpp:165] Memory required for data: 651752032
I1209 18:28:59.144105  3521 layer_factory.hpp:77] Creating layer conv4_1
I1209 18:28:59.144111  3521 net.cpp:100] Creating Layer conv4_1
I1209 18:28:59.144114  3521 net.cpp:434] conv4_1 <- pool3
I1209 18:28:59.144120  3521 net.cpp:408] conv4_1 -> conv4_1
I1209 18:28:59.150656  3521 net.cpp:150] Setting up conv4_1
I1209 18:28:59.150673  3521 net.cpp:157] Top shape: 2 512 38 64 (2490368)
I1209 18:28:59.150676  3521 net.cpp:165] Memory required for data: 661713504
I1209 18:28:59.150682  3521 layer_factory.hpp:77] Creating layer relu4_1
I1209 18:28:59.150687  3521 net.cpp:100] Creating Layer relu4_1
I1209 18:28:59.150691  3521 net.cpp:434] relu4_1 <- conv4_1
I1209 18:28:59.150694  3521 net.cpp:395] relu4_1 -> conv4_1 (in-place)
I1209 18:28:59.151021  3521 net.cpp:150] Setting up relu4_1
I1209 18:28:59.151026  3521 net.cpp:157] Top shape: 2 512 38 64 (2490368)
I1209 18:28:59.151027  3521 net.cpp:165] Memory required for data: 671674976
I1209 18:28:59.151031  3521 layer_factory.hpp:77] Creating layer conv4_2
I1209 18:28:59.151036  3521 net.cpp:100] Creating Layer conv4_2
I1209 18:28:59.151038  3521 net.cpp:434] conv4_2 <- conv4_1
I1209 18:28:59.151042  3521 net.cpp:408] conv4_2 -> conv4_2
I1209 18:28:59.162315  3521 net.cpp:150] Setting up conv4_2
I1209 18:28:59.162329  3521 net.cpp:157] Top shape: 2 512 38 64 (2490368)
I1209 18:28:59.162333  3521 net.cpp:165] Memory required for data: 681636448
I1209 18:28:59.162343  3521 layer_factory.hpp:77] Creating layer relu4_2
I1209 18:28:59.162348  3521 net.cpp:100] Creating Layer relu4_2
I1209 18:28:59.162351  3521 net.cpp:434] relu4_2 <- conv4_2
I1209 18:28:59.162355  3521 net.cpp:395] relu4_2 -> conv4_2 (in-place)
I1209 18:28:59.162679  3521 net.cpp:150] Setting up relu4_2
I1209 18:28:59.162685  3521 net.cpp:157] Top shape: 2 512 38 64 (2490368)
I1209 18:28:59.162688  3521 net.cpp:165] Memory required for data: 691597920
I1209 18:28:59.162689  3521 layer_factory.hpp:77] Creating layer conv4_3
I1209 18:28:59.162695  3521 net.cpp:100] Creating Layer conv4_3
I1209 18:28:59.162698  3521 net.cpp:434] conv4_3 <- conv4_2
I1209 18:28:59.162701  3521 net.cpp:408] conv4_3 -> conv4_3
I1209 18:28:59.173188  3521 net.cpp:150] Setting up conv4_3
I1209 18:28:59.173205  3521 net.cpp:157] Top shape: 2 512 38 64 (2490368)
I1209 18:28:59.173208  3521 net.cpp:165] Memory required for data: 701559392
I1209 18:28:59.173214  3521 layer_factory.hpp:77] Creating layer relu4_3
I1209 18:28:59.173220  3521 net.cpp:100] Creating Layer relu4_3
I1209 18:28:59.173223  3521 net.cpp:434] relu4_3 <- conv4_3
I1209 18:28:59.173228  3521 net.cpp:395] relu4_3 -> conv4_3 (in-place)
I1209 18:28:59.173749  3521 net.cpp:150] Setting up relu4_3
I1209 18:28:59.173758  3521 net.cpp:157] Top shape: 2 512 38 64 (2490368)
I1209 18:28:59.173760  3521 net.cpp:165] Memory required for data: 711520864
I1209 18:28:59.173763  3521 layer_factory.hpp:77] Creating layer conv4_3_relu4_3_0_split
I1209 18:28:59.173768  3521 net.cpp:100] Creating Layer conv4_3_relu4_3_0_split
I1209 18:28:59.173771  3521 net.cpp:434] conv4_3_relu4_3_0_split <- conv4_3
I1209 18:28:59.173775  3521 net.cpp:408] conv4_3_relu4_3_0_split -> conv4_3_relu4_3_0_split_0
I1209 18:28:59.173792  3521 net.cpp:408] conv4_3_relu4_3_0_split -> conv4_3_relu4_3_0_split_1
I1209 18:28:59.173822  3521 net.cpp:150] Setting up conv4_3_relu4_3_0_split
I1209 18:28:59.173826  3521 net.cpp:157] Top shape: 2 512 38 64 (2490368)
I1209 18:28:59.173830  3521 net.cpp:157] Top shape: 2 512 38 64 (2490368)
I1209 18:28:59.173832  3521 net.cpp:165] Memory required for data: 731443808
I1209 18:28:59.173835  3521 layer_factory.hpp:77] Creating layer pool4
I1209 18:28:59.173837  3521 net.cpp:100] Creating Layer pool4
I1209 18:28:59.173840  3521 net.cpp:434] pool4 <- conv4_3_relu4_3_0_split_0
I1209 18:28:59.173843  3521 net.cpp:408] pool4 -> pool4
I1209 18:28:59.173868  3521 net.cpp:150] Setting up pool4
I1209 18:28:59.173872  3521 net.cpp:157] Top shape: 2 512 19 32 (622592)
I1209 18:28:59.173874  3521 net.cpp:165] Memory required for data: 733934176
I1209 18:28:59.173877  3521 layer_factory.hpp:77] Creating layer conv5_1
I1209 18:28:59.173887  3521 net.cpp:100] Creating Layer conv5_1
I1209 18:28:59.173890  3521 net.cpp:434] conv5_1 <- pool4
I1209 18:28:59.173895  3521 net.cpp:408] conv5_1 -> conv5_1
I1209 18:28:59.184798  3521 net.cpp:150] Setting up conv5_1
I1209 18:28:59.184813  3521 net.cpp:157] Top shape: 2 512 19 32 (622592)
I1209 18:28:59.184814  3521 net.cpp:165] Memory required for data: 736424544
I1209 18:28:59.184820  3521 layer_factory.hpp:77] Creating layer relu5_1
I1209 18:28:59.184826  3521 net.cpp:100] Creating Layer relu5_1
I1209 18:28:59.184829  3521 net.cpp:434] relu5_1 <- conv5_1
I1209 18:28:59.184832  3521 net.cpp:395] relu5_1 -> conv5_1 (in-place)
I1209 18:28:59.185205  3521 net.cpp:150] Setting up relu5_1
I1209 18:28:59.185211  3521 net.cpp:157] Top shape: 2 512 19 32 (622592)
I1209 18:28:59.185214  3521 net.cpp:165] Memory required for data: 738914912
I1209 18:28:59.185215  3521 layer_factory.hpp:77] Creating layer conv5_2
I1209 18:28:59.185221  3521 net.cpp:100] Creating Layer conv5_2
I1209 18:28:59.185225  3521 net.cpp:434] conv5_2 <- conv5_1
I1209 18:28:59.185228  3521 net.cpp:408] conv5_2 -> conv5_2
I1209 18:28:59.195863  3521 net.cpp:150] Setting up conv5_2
I1209 18:28:59.195878  3521 net.cpp:157] Top shape: 2 512 19 32 (622592)
I1209 18:28:59.195879  3521 net.cpp:165] Memory required for data: 741405280
I1209 18:28:59.195885  3521 layer_factory.hpp:77] Creating layer relu5_2
I1209 18:28:59.195893  3521 net.cpp:100] Creating Layer relu5_2
I1209 18:28:59.195894  3521 net.cpp:434] relu5_2 <- conv5_2
I1209 18:28:59.195899  3521 net.cpp:395] relu5_2 -> conv5_2 (in-place)
I1209 18:28:59.196228  3521 net.cpp:150] Setting up relu5_2
I1209 18:28:59.196233  3521 net.cpp:157] Top shape: 2 512 19 32 (622592)
I1209 18:28:59.196236  3521 net.cpp:165] Memory required for data: 743895648
I1209 18:28:59.196239  3521 layer_factory.hpp:77] Creating layer conv5_3
I1209 18:28:59.196245  3521 net.cpp:100] Creating Layer conv5_3
I1209 18:28:59.196247  3521 net.cpp:434] conv5_3 <- conv5_2
I1209 18:28:59.196250  3521 net.cpp:408] conv5_3 -> conv5_3
I1209 18:28:59.206743  3521 net.cpp:150] Setting up conv5_3
I1209 18:28:59.206758  3521 net.cpp:157] Top shape: 2 512 19 32 (622592)
I1209 18:28:59.206760  3521 net.cpp:165] Memory required for data: 746386016
I1209 18:28:59.206766  3521 layer_factory.hpp:77] Creating layer relu5_3
I1209 18:28:59.206776  3521 net.cpp:100] Creating Layer relu5_3
I1209 18:28:59.206779  3521 net.cpp:434] relu5_3 <- conv5_3
I1209 18:28:59.206782  3521 net.cpp:395] relu5_3 -> conv5_3 (in-place)
I1209 18:28:59.207306  3521 net.cpp:150] Setting up relu5_3
I1209 18:28:59.207314  3521 net.cpp:157] Top shape: 2 512 19 32 (622592)
I1209 18:28:59.207316  3521 net.cpp:165] Memory required for data: 748876384
I1209 18:28:59.207319  3521 layer_factory.hpp:77] Creating layer pool5
I1209 18:28:59.207322  3521 net.cpp:100] Creating Layer pool5
I1209 18:28:59.207324  3521 net.cpp:434] pool5 <- conv5_3
I1209 18:28:59.207329  3521 net.cpp:408] pool5 -> pool5
I1209 18:28:59.207360  3521 net.cpp:150] Setting up pool5
I1209 18:28:59.207365  3521 net.cpp:157] Top shape: 2 512 19 32 (622592)
I1209 18:28:59.207376  3521 net.cpp:165] Memory required for data: 751366752
I1209 18:28:59.207378  3521 layer_factory.hpp:77] Creating layer fc6
I1209 18:28:59.207386  3521 net.cpp:100] Creating Layer fc6
I1209 18:28:59.207387  3521 net.cpp:434] fc6 <- pool5
I1209 18:28:59.207391  3521 net.cpp:408] fc6 -> fc6
I1209 18:28:59.225294  3521 net.cpp:150] Setting up fc6
I1209 18:28:59.225309  3521 net.cpp:157] Top shape: 2 1024 19 32 (1245184)
I1209 18:28:59.225311  3521 net.cpp:165] Memory required for data: 756347488
I1209 18:28:59.225317  3521 layer_factory.hpp:77] Creating layer relu6
I1209 18:28:59.225323  3521 net.cpp:100] Creating Layer relu6
I1209 18:28:59.225327  3521 net.cpp:434] relu6 <- fc6
I1209 18:28:59.225329  3521 net.cpp:395] relu6 -> fc6 (in-place)
I1209 18:28:59.225718  3521 net.cpp:150] Setting up relu6
I1209 18:28:59.225723  3521 net.cpp:157] Top shape: 2 1024 19 32 (1245184)
I1209 18:28:59.225726  3521 net.cpp:165] Memory required for data: 761328224
I1209 18:28:59.225728  3521 layer_factory.hpp:77] Creating layer fc7
I1209 18:28:59.225734  3521 net.cpp:100] Creating Layer fc7
I1209 18:28:59.225738  3521 net.cpp:434] fc7 <- fc6
I1209 18:28:59.225740  3521 net.cpp:408] fc7 -> fc7
I1209 18:28:59.231884  3521 net.cpp:150] Setting up fc7
I1209 18:28:59.231901  3521 net.cpp:157] Top shape: 2 1024 19 32 (1245184)
I1209 18:28:59.231904  3521 net.cpp:165] Memory required for data: 766308960
I1209 18:28:59.231914  3521 layer_factory.hpp:77] Creating layer relu7
I1209 18:28:59.231921  3521 net.cpp:100] Creating Layer relu7
I1209 18:28:59.231925  3521 net.cpp:434] relu7 <- fc7
I1209 18:28:59.231931  3521 net.cpp:395] relu7 -> fc7 (in-place)
I1209 18:28:59.232342  3521 net.cpp:150] Setting up relu7
I1209 18:28:59.232348  3521 net.cpp:157] Top shape: 2 1024 19 32 (1245184)
I1209 18:28:59.232352  3521 net.cpp:165] Memory required for data: 771289696
I1209 18:28:59.232354  3521 layer_factory.hpp:77] Creating layer fc7_relu7_0_split
I1209 18:28:59.232362  3521 net.cpp:100] Creating Layer fc7_relu7_0_split
I1209 18:28:59.232365  3521 net.cpp:434] fc7_relu7_0_split <- fc7
I1209 18:28:59.232372  3521 net.cpp:408] fc7_relu7_0_split -> fc7_relu7_0_split_0
I1209 18:28:59.232378  3521 net.cpp:408] fc7_relu7_0_split -> fc7_relu7_0_split_1
I1209 18:28:59.232391  3521 net.cpp:408] fc7_relu7_0_split -> fc7_relu7_0_split_2
I1209 18:28:59.232398  3521 net.cpp:408] fc7_relu7_0_split -> fc7_relu7_0_split_3
I1209 18:28:59.232465  3521 net.cpp:150] Setting up fc7_relu7_0_split
I1209 18:28:59.232470  3521 net.cpp:157] Top shape: 2 1024 19 32 (1245184)
I1209 18:28:59.232475  3521 net.cpp:157] Top shape: 2 1024 19 32 (1245184)
I1209 18:28:59.232481  3521 net.cpp:157] Top shape: 2 1024 19 32 (1245184)
I1209 18:28:59.232484  3521 net.cpp:157] Top shape: 2 1024 19 32 (1245184)
I1209 18:28:59.232487  3521 net.cpp:165] Memory required for data: 791212640
I1209 18:28:59.232491  3521 layer_factory.hpp:77] Creating layer ssd1_1
I1209 18:28:59.232501  3521 net.cpp:100] Creating Layer ssd1_1
I1209 18:28:59.232504  3521 net.cpp:434] ssd1_1 <- fc7_relu7_0_split_0
I1209 18:28:59.232511  3521 net.cpp:408] ssd1_1 -> ssd1_1
I1209 18:28:59.235414  3521 net.cpp:150] Setting up ssd1_1
I1209 18:28:59.235429  3521 net.cpp:157] Top shape: 2 256 19 32 (311296)
I1209 18:28:59.235431  3521 net.cpp:165] Memory required for data: 792457824
I1209 18:28:59.235440  3521 layer_factory.hpp:77] Creating layer ssd1_1_relu
I1209 18:28:59.235446  3521 net.cpp:100] Creating Layer ssd1_1_relu
I1209 18:28:59.235451  3521 net.cpp:434] ssd1_1_relu <- ssd1_1
I1209 18:28:59.235457  3521 net.cpp:395] ssd1_1_relu -> ssd1_1 (in-place)
I1209 18:28:59.236055  3521 net.cpp:150] Setting up ssd1_1_relu
I1209 18:28:59.236063  3521 net.cpp:157] Top shape: 2 256 19 32 (311296)
I1209 18:28:59.236068  3521 net.cpp:165] Memory required for data: 793703008
I1209 18:28:59.236070  3521 layer_factory.hpp:77] Creating layer ssd1_2
I1209 18:28:59.236080  3521 net.cpp:100] Creating Layer ssd1_2
I1209 18:28:59.236084  3521 net.cpp:434] ssd1_2 <- ssd1_1
I1209 18:28:59.236110  3521 net.cpp:408] ssd1_2 -> ssd1_2
I1209 18:28:59.242511  3521 net.cpp:150] Setting up ssd1_2
I1209 18:28:59.242527  3521 net.cpp:157] Top shape: 2 512 10 16 (163840)
I1209 18:28:59.242529  3521 net.cpp:165] Memory required for data: 794358368
I1209 18:28:59.242544  3521 layer_factory.hpp:77] Creating layer ssd1_2_relu
I1209 18:28:59.242553  3521 net.cpp:100] Creating Layer ssd1_2_relu
I1209 18:28:59.242559  3521 net.cpp:434] ssd1_2_relu <- ssd1_2
I1209 18:28:59.242565  3521 net.cpp:395] ssd1_2_relu -> ssd1_2 (in-place)
I1209 18:28:59.242913  3521 net.cpp:150] Setting up ssd1_2_relu
I1209 18:28:59.242919  3521 net.cpp:157] Top shape: 2 512 10 16 (163840)
I1209 18:28:59.242923  3521 net.cpp:165] Memory required for data: 795013728
I1209 18:28:59.242925  3521 layer_factory.hpp:77] Creating layer ssd1_2_ssd1_2_relu_0_split
I1209 18:28:59.242933  3521 net.cpp:100] Creating Layer ssd1_2_ssd1_2_relu_0_split
I1209 18:28:59.242935  3521 net.cpp:434] ssd1_2_ssd1_2_relu_0_split <- ssd1_2
I1209 18:28:59.242940  3521 net.cpp:408] ssd1_2_ssd1_2_relu_0_split -> ssd1_2_ssd1_2_relu_0_split_0
I1209 18:28:59.242949  3521 net.cpp:408] ssd1_2_ssd1_2_relu_0_split -> ssd1_2_ssd1_2_relu_0_split_1
I1209 18:28:59.242954  3521 net.cpp:408] ssd1_2_ssd1_2_relu_0_split -> ssd1_2_ssd1_2_relu_0_split_2
I1209 18:28:59.242959  3521 net.cpp:408] ssd1_2_ssd1_2_relu_0_split -> ssd1_2_ssd1_2_relu_0_split_3
I1209 18:28:59.243013  3521 net.cpp:150] Setting up ssd1_2_ssd1_2_relu_0_split
I1209 18:28:59.243018  3521 net.cpp:157] Top shape: 2 512 10 16 (163840)
I1209 18:28:59.243024  3521 net.cpp:157] Top shape: 2 512 10 16 (163840)
I1209 18:28:59.243028  3521 net.cpp:157] Top shape: 2 512 10 16 (163840)
I1209 18:28:59.243033  3521 net.cpp:157] Top shape: 2 512 10 16 (163840)
I1209 18:28:59.243036  3521 net.cpp:165] Memory required for data: 797635168
I1209 18:28:59.243039  3521 layer_factory.hpp:77] Creating layer ssd2_1
I1209 18:28:59.243048  3521 net.cpp:100] Creating Layer ssd2_1
I1209 18:28:59.243052  3521 net.cpp:434] ssd2_1 <- ssd1_2_ssd1_2_relu_0_split_0
I1209 18:28:59.243058  3521 net.cpp:408] ssd2_1 -> ssd2_1
I1209 18:28:59.244858  3521 net.cpp:150] Setting up ssd2_1
I1209 18:28:59.244866  3521 net.cpp:157] Top shape: 2 128 10 16 (40960)
I1209 18:28:59.244869  3521 net.cpp:165] Memory required for data: 797799008
I1209 18:28:59.244875  3521 layer_factory.hpp:77] Creating layer ssd2_1_relu
I1209 18:28:59.244881  3521 net.cpp:100] Creating Layer ssd2_1_relu
I1209 18:28:59.244885  3521 net.cpp:434] ssd2_1_relu <- ssd2_1
I1209 18:28:59.244890  3521 net.cpp:395] ssd2_1_relu -> ssd2_1 (in-place)
I1209 18:28:59.245220  3521 net.cpp:150] Setting up ssd2_1_relu
I1209 18:28:59.245227  3521 net.cpp:157] Top shape: 2 128 10 16 (40960)
I1209 18:28:59.245230  3521 net.cpp:165] Memory required for data: 797962848
I1209 18:28:59.245234  3521 layer_factory.hpp:77] Creating layer ssd2_2
I1209 18:28:59.245241  3521 net.cpp:100] Creating Layer ssd2_2
I1209 18:28:59.245245  3521 net.cpp:434] ssd2_2 <- ssd2_1
I1209 18:28:59.245250  3521 net.cpp:408] ssd2_2 -> ssd2_2
I1209 18:28:59.248049  3521 net.cpp:150] Setting up ssd2_2
I1209 18:28:59.248059  3521 net.cpp:157] Top shape: 2 256 5 8 (20480)
I1209 18:28:59.248061  3521 net.cpp:165] Memory required for data: 798044768
I1209 18:28:59.248067  3521 layer_factory.hpp:77] Creating layer ssd2_2_relu
I1209 18:28:59.248075  3521 net.cpp:100] Creating Layer ssd2_2_relu
I1209 18:28:59.248078  3521 net.cpp:434] ssd2_2_relu <- ssd2_2
I1209 18:28:59.248085  3521 net.cpp:395] ssd2_2_relu -> ssd2_2 (in-place)
I1209 18:28:59.248608  3521 net.cpp:150] Setting up ssd2_2_relu
I1209 18:28:59.248617  3521 net.cpp:157] Top shape: 2 256 5 8 (20480)
I1209 18:28:59.248620  3521 net.cpp:165] Memory required for data: 798126688
I1209 18:28:59.248625  3521 layer_factory.hpp:77] Creating layer ssd2_2_ssd2_2_relu_0_split
I1209 18:28:59.248631  3521 net.cpp:100] Creating Layer ssd2_2_ssd2_2_relu_0_split
I1209 18:28:59.248634  3521 net.cpp:434] ssd2_2_ssd2_2_relu_0_split <- ssd2_2
I1209 18:28:59.248641  3521 net.cpp:408] ssd2_2_ssd2_2_relu_0_split -> ssd2_2_ssd2_2_relu_0_split_0
I1209 18:28:59.248656  3521 net.cpp:408] ssd2_2_ssd2_2_relu_0_split -> ssd2_2_ssd2_2_relu_0_split_1
I1209 18:28:59.248662  3521 net.cpp:408] ssd2_2_ssd2_2_relu_0_split -> ssd2_2_ssd2_2_relu_0_split_2
I1209 18:28:59.248668  3521 net.cpp:408] ssd2_2_ssd2_2_relu_0_split -> ssd2_2_ssd2_2_relu_0_split_3
I1209 18:28:59.248718  3521 net.cpp:150] Setting up ssd2_2_ssd2_2_relu_0_split
I1209 18:28:59.248724  3521 net.cpp:157] Top shape: 2 256 5 8 (20480)
I1209 18:28:59.248729  3521 net.cpp:157] Top shape: 2 256 5 8 (20480)
I1209 18:28:59.248733  3521 net.cpp:157] Top shape: 2 256 5 8 (20480)
I1209 18:28:59.248739  3521 net.cpp:157] Top shape: 2 256 5 8 (20480)
I1209 18:28:59.248741  3521 net.cpp:165] Memory required for data: 798454368
I1209 18:28:59.248744  3521 layer_factory.hpp:77] Creating layer ssd3_1
I1209 18:28:59.248754  3521 net.cpp:100] Creating Layer ssd3_1
I1209 18:28:59.248756  3521 net.cpp:434] ssd3_1 <- ssd2_2_ssd2_2_relu_0_split_0
I1209 18:28:59.248764  3521 net.cpp:408] ssd3_1 -> ssd3_1
I1209 18:28:59.250217  3521 net.cpp:150] Setting up ssd3_1
I1209 18:28:59.250226  3521 net.cpp:157] Top shape: 2 128 5 8 (10240)
I1209 18:28:59.250228  3521 net.cpp:165] Memory required for data: 798495328
I1209 18:28:59.250234  3521 layer_factory.hpp:77] Creating layer ssd3_1_relu
I1209 18:28:59.250241  3521 net.cpp:100] Creating Layer ssd3_1_relu
I1209 18:28:59.250243  3521 net.cpp:434] ssd3_1_relu <- ssd3_1
I1209 18:28:59.250249  3521 net.cpp:395] ssd3_1_relu -> ssd3_1 (in-place)
I1209 18:28:59.250579  3521 net.cpp:150] Setting up ssd3_1_relu
I1209 18:28:59.250586  3521 net.cpp:157] Top shape: 2 128 5 8 (10240)
I1209 18:28:59.250588  3521 net.cpp:165] Memory required for data: 798536288
I1209 18:28:59.250592  3521 layer_factory.hpp:77] Creating layer ssd3_2
I1209 18:28:59.250602  3521 net.cpp:100] Creating Layer ssd3_2
I1209 18:28:59.250604  3521 net.cpp:434] ssd3_2 <- ssd3_1
I1209 18:28:59.250610  3521 net.cpp:408] ssd3_2 -> ssd3_2
I1209 18:28:59.253765  3521 net.cpp:150] Setting up ssd3_2
I1209 18:28:59.253775  3521 net.cpp:157] Top shape: 2 256 3 6 (9216)
I1209 18:28:59.253778  3521 net.cpp:165] Memory required for data: 798573152
I1209 18:28:59.253784  3521 layer_factory.hpp:77] Creating layer ssd3_2_relu
I1209 18:28:59.253792  3521 net.cpp:100] Creating Layer ssd3_2_relu
I1209 18:28:59.253796  3521 net.cpp:434] ssd3_2_relu <- ssd3_2
I1209 18:28:59.253800  3521 net.cpp:395] ssd3_2_relu -> ssd3_2 (in-place)
I1209 18:28:59.254137  3521 net.cpp:150] Setting up ssd3_2_relu
I1209 18:28:59.254143  3521 net.cpp:157] Top shape: 2 256 3 6 (9216)
I1209 18:28:59.254148  3521 net.cpp:165] Memory required for data: 798610016
I1209 18:28:59.254150  3521 layer_factory.hpp:77] Creating layer ssd3_2_ssd3_2_relu_0_split
I1209 18:28:59.254156  3521 net.cpp:100] Creating Layer ssd3_2_ssd3_2_relu_0_split
I1209 18:28:59.254160  3521 net.cpp:434] ssd3_2_ssd3_2_relu_0_split <- ssd3_2
I1209 18:28:59.254168  3521 net.cpp:408] ssd3_2_ssd3_2_relu_0_split -> ssd3_2_ssd3_2_relu_0_split_0
I1209 18:28:59.254173  3521 net.cpp:408] ssd3_2_ssd3_2_relu_0_split -> ssd3_2_ssd3_2_relu_0_split_1
I1209 18:28:59.254179  3521 net.cpp:408] ssd3_2_ssd3_2_relu_0_split -> ssd3_2_ssd3_2_relu_0_split_2
I1209 18:28:59.254184  3521 net.cpp:408] ssd3_2_ssd3_2_relu_0_split -> ssd3_2_ssd3_2_relu_0_split_3
I1209 18:28:59.254232  3521 net.cpp:150] Setting up ssd3_2_ssd3_2_relu_0_split
I1209 18:28:59.254237  3521 net.cpp:157] Top shape: 2 256 3 6 (9216)
I1209 18:28:59.254242  3521 net.cpp:157] Top shape: 2 256 3 6 (9216)
I1209 18:28:59.254246  3521 net.cpp:157] Top shape: 2 256 3 6 (9216)
I1209 18:28:59.254251  3521 net.cpp:157] Top shape: 2 256 3 6 (9216)
I1209 18:28:59.254254  3521 net.cpp:165] Memory required for data: 798757472
I1209 18:28:59.254257  3521 layer_factory.hpp:77] Creating layer ssd4_1
I1209 18:28:59.254266  3521 net.cpp:100] Creating Layer ssd4_1
I1209 18:28:59.254269  3521 net.cpp:434] ssd4_1 <- ssd3_2_ssd3_2_relu_0_split_0
I1209 18:28:59.254276  3521 net.cpp:408] ssd4_1 -> ssd4_1
I1209 18:28:59.255748  3521 net.cpp:150] Setting up ssd4_1
I1209 18:28:59.255764  3521 net.cpp:157] Top shape: 2 128 3 6 (4608)
I1209 18:28:59.255769  3521 net.cpp:165] Memory required for data: 798775904
I1209 18:28:59.255774  3521 layer_factory.hpp:77] Creating layer ssd4_1_relu
I1209 18:28:59.255779  3521 net.cpp:100] Creating Layer ssd4_1_relu
I1209 18:28:59.255784  3521 net.cpp:434] ssd4_1_relu <- ssd4_1
I1209 18:28:59.255791  3521 net.cpp:395] ssd4_1_relu -> ssd4_1 (in-place)
I1209 18:28:59.256306  3521 net.cpp:150] Setting up ssd4_1_relu
I1209 18:28:59.256314  3521 net.cpp:157] Top shape: 2 128 3 6 (4608)
I1209 18:28:59.256317  3521 net.cpp:165] Memory required for data: 798794336
I1209 18:28:59.256320  3521 layer_factory.hpp:77] Creating layer ssd4_2
I1209 18:28:59.256328  3521 net.cpp:100] Creating Layer ssd4_2
I1209 18:28:59.256332  3521 net.cpp:434] ssd4_2 <- ssd4_1
I1209 18:28:59.256338  3521 net.cpp:408] ssd4_2 -> ssd4_2
I1209 18:28:59.259337  3521 net.cpp:150] Setting up ssd4_2
I1209 18:28:59.259346  3521 net.cpp:157] Top shape: 2 256 1 4 (2048)
I1209 18:28:59.259349  3521 net.cpp:165] Memory required for data: 798802528
I1209 18:28:59.259356  3521 layer_factory.hpp:77] Creating layer ssd4_2_relu
I1209 18:28:59.259364  3521 net.cpp:100] Creating Layer ssd4_2_relu
I1209 18:28:59.259368  3521 net.cpp:434] ssd4_2_relu <- ssd4_2
I1209 18:28:59.259373  3521 net.cpp:395] ssd4_2_relu -> ssd4_2 (in-place)
I1209 18:28:59.259902  3521 net.cpp:150] Setting up ssd4_2_relu
I1209 18:28:59.259912  3521 net.cpp:157] Top shape: 2 256 1 4 (2048)
I1209 18:28:59.259914  3521 net.cpp:165] Memory required for data: 798810720
I1209 18:28:59.259917  3521 layer_factory.hpp:77] Creating layer ssd4_2_ssd4_2_relu_0_split
I1209 18:28:59.259923  3521 net.cpp:100] Creating Layer ssd4_2_ssd4_2_relu_0_split
I1209 18:28:59.259927  3521 net.cpp:434] ssd4_2_ssd4_2_relu_0_split <- ssd4_2
I1209 18:28:59.259933  3521 net.cpp:408] ssd4_2_ssd4_2_relu_0_split -> ssd4_2_ssd4_2_relu_0_split_0
I1209 18:28:59.259940  3521 net.cpp:408] ssd4_2_ssd4_2_relu_0_split -> ssd4_2_ssd4_2_relu_0_split_1
I1209 18:28:59.259946  3521 net.cpp:408] ssd4_2_ssd4_2_relu_0_split -> ssd4_2_ssd4_2_relu_0_split_2
I1209 18:28:59.259989  3521 net.cpp:150] Setting up ssd4_2_ssd4_2_relu_0_split
I1209 18:28:59.259994  3521 net.cpp:157] Top shape: 2 256 1 4 (2048)
I1209 18:28:59.259999  3521 net.cpp:157] Top shape: 2 256 1 4 (2048)
I1209 18:28:59.260002  3521 net.cpp:157] Top shape: 2 256 1 4 (2048)
I1209 18:28:59.260006  3521 net.cpp:165] Memory required for data: 798835296
I1209 18:28:59.260010  3521 layer_factory.hpp:77] Creating layer conv4_3_norm
I1209 18:28:59.260015  3521 net.cpp:100] Creating Layer conv4_3_norm
I1209 18:28:59.260020  3521 net.cpp:434] conv4_3_norm <- conv4_3_relu4_3_0_split_1
I1209 18:28:59.260025  3521 net.cpp:408] conv4_3_norm -> conv4_3_norm
I1209 18:28:59.260133  3521 net.cpp:150] Setting up conv4_3_norm
I1209 18:28:59.260138  3521 net.cpp:157] Top shape: 2 512 38 64 (2490368)
I1209 18:28:59.260140  3521 net.cpp:165] Memory required for data: 808796768
I1209 18:28:59.260145  3521 layer_factory.hpp:77] Creating layer conv4_3_norm_conv4_3_norm_0_split
I1209 18:28:59.260151  3521 net.cpp:100] Creating Layer conv4_3_norm_conv4_3_norm_0_split
I1209 18:28:59.260154  3521 net.cpp:434] conv4_3_norm_conv4_3_norm_0_split <- conv4_3_norm
I1209 18:28:59.260159  3521 net.cpp:408] conv4_3_norm_conv4_3_norm_0_split -> conv4_3_norm_conv4_3_norm_0_split_0
I1209 18:28:59.260165  3521 net.cpp:408] conv4_3_norm_conv4_3_norm_0_split -> conv4_3_norm_conv4_3_norm_0_split_1
I1209 18:28:59.260171  3521 net.cpp:408] conv4_3_norm_conv4_3_norm_0_split -> conv4_3_norm_conv4_3_norm_0_split_2
I1209 18:28:59.260205  3521 net.cpp:150] Setting up conv4_3_norm_conv4_3_norm_0_split
I1209 18:28:59.260210  3521 net.cpp:157] Top shape: 2 512 38 64 (2490368)
I1209 18:28:59.260215  3521 net.cpp:157] Top shape: 2 512 38 64 (2490368)
I1209 18:28:59.260219  3521 net.cpp:157] Top shape: 2 512 38 64 (2490368)
I1209 18:28:59.260222  3521 net.cpp:165] Memory required for data: 838681184
I1209 18:28:59.260226  3521 layer_factory.hpp:77] Creating layer conv4_3_norm_mbox_loc
I1209 18:28:59.260241  3521 net.cpp:100] Creating Layer conv4_3_norm_mbox_loc
I1209 18:28:59.260244  3521 net.cpp:434] conv4_3_norm_mbox_loc <- conv4_3_norm_conv4_3_norm_0_split_0
I1209 18:28:59.260251  3521 net.cpp:408] conv4_3_norm_mbox_loc -> conv4_3_norm_mbox_loc
I1209 18:28:59.261940  3521 net.cpp:150] Setting up conv4_3_norm_mbox_loc
I1209 18:28:59.261947  3521 net.cpp:157] Top shape: 2 8 38 64 (38912)
I1209 18:28:59.261950  3521 net.cpp:165] Memory required for data: 838836832
I1209 18:28:59.261956  3521 layer_factory.hpp:77] Creating layer conv4_3_norm_mbox_loc_perm
I1209 18:28:59.261965  3521 net.cpp:100] Creating Layer conv4_3_norm_mbox_loc_perm
I1209 18:28:59.261968  3521 net.cpp:434] conv4_3_norm_mbox_loc_perm <- conv4_3_norm_mbox_loc
I1209 18:28:59.261973  3521 net.cpp:408] conv4_3_norm_mbox_loc_perm -> conv4_3_norm_mbox_loc_perm
I1209 18:28:59.262050  3521 net.cpp:150] Setting up conv4_3_norm_mbox_loc_perm
I1209 18:28:59.262056  3521 net.cpp:157] Top shape: 2 38 64 8 (38912)
I1209 18:28:59.262059  3521 net.cpp:165] Memory required for data: 838992480
I1209 18:28:59.262063  3521 layer_factory.hpp:77] Creating layer conv4_3_norm_mbox_loc_flat
I1209 18:28:59.262068  3521 net.cpp:100] Creating Layer conv4_3_norm_mbox_loc_flat
I1209 18:28:59.262071  3521 net.cpp:434] conv4_3_norm_mbox_loc_flat <- conv4_3_norm_mbox_loc_perm
I1209 18:28:59.262076  3521 net.cpp:408] conv4_3_norm_mbox_loc_flat -> conv4_3_norm_mbox_loc_flat
I1209 18:28:59.262104  3521 net.cpp:150] Setting up conv4_3_norm_mbox_loc_flat
I1209 18:28:59.262110  3521 net.cpp:157] Top shape: 2 19456 (38912)
I1209 18:28:59.262114  3521 net.cpp:165] Memory required for data: 839148128
I1209 18:28:59.262116  3521 layer_factory.hpp:77] Creating layer conv4_3_norm_mbox_conf
I1209 18:28:59.262130  3521 net.cpp:100] Creating Layer conv4_3_norm_mbox_conf
I1209 18:28:59.262132  3521 net.cpp:434] conv4_3_norm_mbox_conf <- conv4_3_norm_conv4_3_norm_0_split_1
I1209 18:28:59.262137  3521 net.cpp:408] conv4_3_norm_mbox_conf -> conv4_3_norm_mbox_conf
I1209 18:28:59.263881  3521 net.cpp:150] Setting up conv4_3_norm_mbox_conf
I1209 18:28:59.263890  3521 net.cpp:157] Top shape: 2 10 38 64 (48640)
I1209 18:28:59.263893  3521 net.cpp:165] Memory required for data: 839342688
I1209 18:28:59.263900  3521 layer_factory.hpp:77] Creating layer conv4_3_norm_mbox_conf_perm
I1209 18:28:59.263906  3521 net.cpp:100] Creating Layer conv4_3_norm_mbox_conf_perm
I1209 18:28:59.263911  3521 net.cpp:434] conv4_3_norm_mbox_conf_perm <- conv4_3_norm_mbox_conf
I1209 18:28:59.263917  3521 net.cpp:408] conv4_3_norm_mbox_conf_perm -> conv4_3_norm_mbox_conf_perm
I1209 18:28:59.263993  3521 net.cpp:150] Setting up conv4_3_norm_mbox_conf_perm
I1209 18:28:59.263999  3521 net.cpp:157] Top shape: 2 38 64 10 (48640)
I1209 18:28:59.264001  3521 net.cpp:165] Memory required for data: 839537248
I1209 18:28:59.264004  3521 layer_factory.hpp:77] Creating layer conv4_3_norm_mbox_conf_flat
I1209 18:28:59.264010  3521 net.cpp:100] Creating Layer conv4_3_norm_mbox_conf_flat
I1209 18:28:59.264014  3521 net.cpp:434] conv4_3_norm_mbox_conf_flat <- conv4_3_norm_mbox_conf_perm
I1209 18:28:59.264019  3521 net.cpp:408] conv4_3_norm_mbox_conf_flat -> conv4_3_norm_mbox_conf_flat
I1209 18:28:59.264039  3521 net.cpp:150] Setting up conv4_3_norm_mbox_conf_flat
I1209 18:28:59.264044  3521 net.cpp:157] Top shape: 2 24320 (48640)
I1209 18:28:59.264046  3521 net.cpp:165] Memory required for data: 839731808
I1209 18:28:59.264050  3521 layer_factory.hpp:77] Creating layer conv4_3_norm_mbox_priorbox
I1209 18:28:59.264056  3521 net.cpp:100] Creating Layer conv4_3_norm_mbox_priorbox
I1209 18:28:59.264060  3521 net.cpp:434] conv4_3_norm_mbox_priorbox <- conv4_3_norm_conv4_3_norm_0_split_2
I1209 18:28:59.264063  3521 net.cpp:434] conv4_3_norm_mbox_priorbox <- data_data_0_split_1
I1209 18:28:59.264070  3521 net.cpp:408] conv4_3_norm_mbox_priorbox -> conv4_3_norm_mbox_priorbox
I1209 18:28:59.264092  3521 net.cpp:150] Setting up conv4_3_norm_mbox_priorbox
I1209 18:28:59.264096  3521 net.cpp:157] Top shape: 1 2 19456 (38912)
I1209 18:28:59.264107  3521 net.cpp:165] Memory required for data: 839887456
I1209 18:28:59.264111  3521 layer_factory.hpp:77] Creating layer fc7_mbox_loc
I1209 18:28:59.264117  3521 net.cpp:100] Creating Layer fc7_mbox_loc
I1209 18:28:59.264122  3521 net.cpp:434] fc7_mbox_loc <- fc7_relu7_0_split_1
I1209 18:28:59.264128  3521 net.cpp:408] fc7_mbox_loc -> fc7_mbox_loc
I1209 18:28:59.265923  3521 net.cpp:150] Setting up fc7_mbox_loc
I1209 18:28:59.265933  3521 net.cpp:157] Top shape: 2 8 19 32 (9728)
I1209 18:28:59.265935  3521 net.cpp:165] Memory required for data: 839926368
I1209 18:28:59.265942  3521 layer_factory.hpp:77] Creating layer fc7_mbox_loc_perm
I1209 18:28:59.265949  3521 net.cpp:100] Creating Layer fc7_mbox_loc_perm
I1209 18:28:59.265952  3521 net.cpp:434] fc7_mbox_loc_perm <- fc7_mbox_loc
I1209 18:28:59.265959  3521 net.cpp:408] fc7_mbox_loc_perm -> fc7_mbox_loc_perm
I1209 18:28:59.266034  3521 net.cpp:150] Setting up fc7_mbox_loc_perm
I1209 18:28:59.266039  3521 net.cpp:157] Top shape: 2 19 32 8 (9728)
I1209 18:28:59.266042  3521 net.cpp:165] Memory required for data: 839965280
I1209 18:28:59.266046  3521 layer_factory.hpp:77] Creating layer fc7_mbox_loc_flat
I1209 18:28:59.266050  3521 net.cpp:100] Creating Layer fc7_mbox_loc_flat
I1209 18:28:59.266054  3521 net.cpp:434] fc7_mbox_loc_flat <- fc7_mbox_loc_perm
I1209 18:28:59.266060  3521 net.cpp:408] fc7_mbox_loc_flat -> fc7_mbox_loc_flat
I1209 18:28:59.266078  3521 net.cpp:150] Setting up fc7_mbox_loc_flat
I1209 18:28:59.266084  3521 net.cpp:157] Top shape: 2 4864 (9728)
I1209 18:28:59.266088  3521 net.cpp:165] Memory required for data: 840004192
I1209 18:28:59.266090  3521 layer_factory.hpp:77] Creating layer fc7_mbox_conf
I1209 18:28:59.266098  3521 net.cpp:100] Creating Layer fc7_mbox_conf
I1209 18:28:59.266103  3521 net.cpp:434] fc7_mbox_conf <- fc7_relu7_0_split_2
I1209 18:28:59.266108  3521 net.cpp:408] fc7_mbox_conf -> fc7_mbox_conf
I1209 18:28:59.268242  3521 net.cpp:150] Setting up fc7_mbox_conf
I1209 18:28:59.268250  3521 net.cpp:157] Top shape: 2 10 19 32 (12160)
I1209 18:28:59.268254  3521 net.cpp:165] Memory required for data: 840052832
I1209 18:28:59.268260  3521 layer_factory.hpp:77] Creating layer fc7_mbox_conf_perm
I1209 18:28:59.268267  3521 net.cpp:100] Creating Layer fc7_mbox_conf_perm
I1209 18:28:59.268271  3521 net.cpp:434] fc7_mbox_conf_perm <- fc7_mbox_conf
I1209 18:28:59.268277  3521 net.cpp:408] fc7_mbox_conf_perm -> fc7_mbox_conf_perm
I1209 18:28:59.268355  3521 net.cpp:150] Setting up fc7_mbox_conf_perm
I1209 18:28:59.268360  3521 net.cpp:157] Top shape: 2 19 32 10 (12160)
I1209 18:28:59.268362  3521 net.cpp:165] Memory required for data: 840101472
I1209 18:28:59.268366  3521 layer_factory.hpp:77] Creating layer fc7_mbox_conf_flat
I1209 18:28:59.268373  3521 net.cpp:100] Creating Layer fc7_mbox_conf_flat
I1209 18:28:59.268375  3521 net.cpp:434] fc7_mbox_conf_flat <- fc7_mbox_conf_perm
I1209 18:28:59.268381  3521 net.cpp:408] fc7_mbox_conf_flat -> fc7_mbox_conf_flat
I1209 18:28:59.268400  3521 net.cpp:150] Setting up fc7_mbox_conf_flat
I1209 18:28:59.268404  3521 net.cpp:157] Top shape: 2 6080 (12160)
I1209 18:28:59.268407  3521 net.cpp:165] Memory required for data: 840150112
I1209 18:28:59.268411  3521 layer_factory.hpp:77] Creating layer fc7_mbox_priorbox
I1209 18:28:59.268419  3521 net.cpp:100] Creating Layer fc7_mbox_priorbox
I1209 18:28:59.268421  3521 net.cpp:434] fc7_mbox_priorbox <- fc7_relu7_0_split_3
I1209 18:28:59.268425  3521 net.cpp:434] fc7_mbox_priorbox <- data_data_0_split_2
I1209 18:28:59.268431  3521 net.cpp:408] fc7_mbox_priorbox -> fc7_mbox_priorbox
I1209 18:28:59.268452  3521 net.cpp:150] Setting up fc7_mbox_priorbox
I1209 18:28:59.268456  3521 net.cpp:157] Top shape: 1 2 4864 (9728)
I1209 18:28:59.268460  3521 net.cpp:165] Memory required for data: 840189024
I1209 18:28:59.268462  3521 layer_factory.hpp:77] Creating layer ssd1_2_mbox_loc
I1209 18:28:59.268471  3521 net.cpp:100] Creating Layer ssd1_2_mbox_loc
I1209 18:28:59.268476  3521 net.cpp:434] ssd1_2_mbox_loc <- ssd1_2_ssd1_2_relu_0_split_1
I1209 18:28:59.268489  3521 net.cpp:408] ssd1_2_mbox_loc -> ssd1_2_mbox_loc
I1209 18:28:59.270195  3521 net.cpp:150] Setting up ssd1_2_mbox_loc
I1209 18:28:59.270205  3521 net.cpp:157] Top shape: 2 8 10 16 (2560)
I1209 18:28:59.270208  3521 net.cpp:165] Memory required for data: 840199264
I1209 18:28:59.270215  3521 layer_factory.hpp:77] Creating layer ssd1_2_mbox_loc_perm
I1209 18:28:59.270220  3521 net.cpp:100] Creating Layer ssd1_2_mbox_loc_perm
I1209 18:28:59.270225  3521 net.cpp:434] ssd1_2_mbox_loc_perm <- ssd1_2_mbox_loc
I1209 18:28:59.270231  3521 net.cpp:408] ssd1_2_mbox_loc_perm -> ssd1_2_mbox_loc_perm
I1209 18:28:59.270309  3521 net.cpp:150] Setting up ssd1_2_mbox_loc_perm
I1209 18:28:59.270314  3521 net.cpp:157] Top shape: 2 10 16 8 (2560)
I1209 18:28:59.270318  3521 net.cpp:165] Memory required for data: 840209504
I1209 18:28:59.270320  3521 layer_factory.hpp:77] Creating layer ssd1_2_mbox_loc_flat
I1209 18:28:59.270325  3521 net.cpp:100] Creating Layer ssd1_2_mbox_loc_flat
I1209 18:28:59.270329  3521 net.cpp:434] ssd1_2_mbox_loc_flat <- ssd1_2_mbox_loc_perm
I1209 18:28:59.270335  3521 net.cpp:408] ssd1_2_mbox_loc_flat -> ssd1_2_mbox_loc_flat
I1209 18:28:59.270354  3521 net.cpp:150] Setting up ssd1_2_mbox_loc_flat
I1209 18:28:59.270360  3521 net.cpp:157] Top shape: 2 1280 (2560)
I1209 18:28:59.270362  3521 net.cpp:165] Memory required for data: 840219744
I1209 18:28:59.270366  3521 layer_factory.hpp:77] Creating layer ssd1_2_mbox_conf
I1209 18:28:59.270375  3521 net.cpp:100] Creating Layer ssd1_2_mbox_conf
I1209 18:28:59.270377  3521 net.cpp:434] ssd1_2_mbox_conf <- ssd1_2_ssd1_2_relu_0_split_2
I1209 18:28:59.270385  3521 net.cpp:408] ssd1_2_mbox_conf -> ssd1_2_mbox_conf
I1209 18:28:59.272151  3521 net.cpp:150] Setting up ssd1_2_mbox_conf
I1209 18:28:59.272161  3521 net.cpp:157] Top shape: 2 10 10 16 (3200)
I1209 18:28:59.272163  3521 net.cpp:165] Memory required for data: 840232544
I1209 18:28:59.272169  3521 layer_factory.hpp:77] Creating layer ssd1_2_mbox_conf_perm
I1209 18:28:59.272176  3521 net.cpp:100] Creating Layer ssd1_2_mbox_conf_perm
I1209 18:28:59.272181  3521 net.cpp:434] ssd1_2_mbox_conf_perm <- ssd1_2_mbox_conf
I1209 18:28:59.272188  3521 net.cpp:408] ssd1_2_mbox_conf_perm -> ssd1_2_mbox_conf_perm
I1209 18:28:59.272269  3521 net.cpp:150] Setting up ssd1_2_mbox_conf_perm
I1209 18:28:59.272274  3521 net.cpp:157] Top shape: 2 10 16 10 (3200)
I1209 18:28:59.272276  3521 net.cpp:165] Memory required for data: 840245344
I1209 18:28:59.272279  3521 layer_factory.hpp:77] Creating layer ssd1_2_mbox_conf_flat
I1209 18:28:59.272285  3521 net.cpp:100] Creating Layer ssd1_2_mbox_conf_flat
I1209 18:28:59.272290  3521 net.cpp:434] ssd1_2_mbox_conf_flat <- ssd1_2_mbox_conf_perm
I1209 18:28:59.272295  3521 net.cpp:408] ssd1_2_mbox_conf_flat -> ssd1_2_mbox_conf_flat
I1209 18:28:59.272315  3521 net.cpp:150] Setting up ssd1_2_mbox_conf_flat
I1209 18:28:59.272320  3521 net.cpp:157] Top shape: 2 1600 (3200)
I1209 18:28:59.272323  3521 net.cpp:165] Memory required for data: 840258144
I1209 18:28:59.272326  3521 layer_factory.hpp:77] Creating layer ssd1_2_mbox_priorbox
I1209 18:28:59.272332  3521 net.cpp:100] Creating Layer ssd1_2_mbox_priorbox
I1209 18:28:59.272336  3521 net.cpp:434] ssd1_2_mbox_priorbox <- ssd1_2_ssd1_2_relu_0_split_3
I1209 18:28:59.272341  3521 net.cpp:434] ssd1_2_mbox_priorbox <- data_data_0_split_3
I1209 18:28:59.272347  3521 net.cpp:408] ssd1_2_mbox_priorbox -> ssd1_2_mbox_priorbox
I1209 18:28:59.272368  3521 net.cpp:150] Setting up ssd1_2_mbox_priorbox
I1209 18:28:59.272373  3521 net.cpp:157] Top shape: 1 2 1280 (2560)
I1209 18:28:59.272377  3521 net.cpp:165] Memory required for data: 840268384
I1209 18:28:59.272379  3521 layer_factory.hpp:77] Creating layer ssd2_2_mbox_loc
I1209 18:28:59.272388  3521 net.cpp:100] Creating Layer ssd2_2_mbox_loc
I1209 18:28:59.272392  3521 net.cpp:434] ssd2_2_mbox_loc <- ssd2_2_ssd2_2_relu_0_split_1
I1209 18:28:59.272398  3521 net.cpp:408] ssd2_2_mbox_loc -> ssd2_2_mbox_loc
I1209 18:28:59.274240  3521 net.cpp:150] Setting up ssd2_2_mbox_loc
I1209 18:28:59.274256  3521 net.cpp:157] Top shape: 2 8 5 8 (640)
I1209 18:28:59.274260  3521 net.cpp:165] Memory required for data: 840270944
I1209 18:28:59.274266  3521 layer_factory.hpp:77] Creating layer ssd2_2_mbox_loc_perm
I1209 18:28:59.274274  3521 net.cpp:100] Creating Layer ssd2_2_mbox_loc_perm
I1209 18:28:59.274277  3521 net.cpp:434] ssd2_2_mbox_loc_perm <- ssd2_2_mbox_loc
I1209 18:28:59.274282  3521 net.cpp:408] ssd2_2_mbox_loc_perm -> ssd2_2_mbox_loc_perm
I1209 18:28:59.274363  3521 net.cpp:150] Setting up ssd2_2_mbox_loc_perm
I1209 18:28:59.274369  3521 net.cpp:157] Top shape: 2 5 8 8 (640)
I1209 18:28:59.274371  3521 net.cpp:165] Memory required for data: 840273504
I1209 18:28:59.274374  3521 layer_factory.hpp:77] Creating layer ssd2_2_mbox_loc_flat
I1209 18:28:59.274380  3521 net.cpp:100] Creating Layer ssd2_2_mbox_loc_flat
I1209 18:28:59.274384  3521 net.cpp:434] ssd2_2_mbox_loc_flat <- ssd2_2_mbox_loc_perm
I1209 18:28:59.274389  3521 net.cpp:408] ssd2_2_mbox_loc_flat -> ssd2_2_mbox_loc_flat
I1209 18:28:59.274408  3521 net.cpp:150] Setting up ssd2_2_mbox_loc_flat
I1209 18:28:59.274413  3521 net.cpp:157] Top shape: 2 320 (640)
I1209 18:28:59.274416  3521 net.cpp:165] Memory required for data: 840276064
I1209 18:28:59.274418  3521 layer_factory.hpp:77] Creating layer ssd2_2_mbox_conf
I1209 18:28:59.274427  3521 net.cpp:100] Creating Layer ssd2_2_mbox_conf
I1209 18:28:59.274430  3521 net.cpp:434] ssd2_2_mbox_conf <- ssd2_2_ssd2_2_relu_0_split_2
I1209 18:28:59.274437  3521 net.cpp:408] ssd2_2_mbox_conf -> ssd2_2_mbox_conf
I1209 18:28:59.276126  3521 net.cpp:150] Setting up ssd2_2_mbox_conf
I1209 18:28:59.276134  3521 net.cpp:157] Top shape: 2 10 5 8 (800)
I1209 18:28:59.276139  3521 net.cpp:165] Memory required for data: 840279264
I1209 18:28:59.276144  3521 layer_factory.hpp:77] Creating layer ssd2_2_mbox_conf_perm
I1209 18:28:59.276151  3521 net.cpp:100] Creating Layer ssd2_2_mbox_conf_perm
I1209 18:28:59.276155  3521 net.cpp:434] ssd2_2_mbox_conf_perm <- ssd2_2_mbox_conf
I1209 18:28:59.276161  3521 net.cpp:408] ssd2_2_mbox_conf_perm -> ssd2_2_mbox_conf_perm
I1209 18:28:59.276240  3521 net.cpp:150] Setting up ssd2_2_mbox_conf_perm
I1209 18:28:59.276245  3521 net.cpp:157] Top shape: 2 5 8 10 (800)
I1209 18:28:59.276248  3521 net.cpp:165] Memory required for data: 840282464
I1209 18:28:59.276252  3521 layer_factory.hpp:77] Creating layer ssd2_2_mbox_conf_flat
I1209 18:28:59.276257  3521 net.cpp:100] Creating Layer ssd2_2_mbox_conf_flat
I1209 18:28:59.276262  3521 net.cpp:434] ssd2_2_mbox_conf_flat <- ssd2_2_mbox_conf_perm
I1209 18:28:59.276266  3521 net.cpp:408] ssd2_2_mbox_conf_flat -> ssd2_2_mbox_conf_flat
I1209 18:28:59.276286  3521 net.cpp:150] Setting up ssd2_2_mbox_conf_flat
I1209 18:28:59.276290  3521 net.cpp:157] Top shape: 2 400 (800)
I1209 18:28:59.276293  3521 net.cpp:165] Memory required for data: 840285664
I1209 18:28:59.276296  3521 layer_factory.hpp:77] Creating layer ssd2_2_mbox_priorbox
I1209 18:28:59.276304  3521 net.cpp:100] Creating Layer ssd2_2_mbox_priorbox
I1209 18:28:59.276306  3521 net.cpp:434] ssd2_2_mbox_priorbox <- ssd2_2_ssd2_2_relu_0_split_3
I1209 18:28:59.276310  3521 net.cpp:434] ssd2_2_mbox_priorbox <- data_data_0_split_4
I1209 18:28:59.276319  3521 net.cpp:408] ssd2_2_mbox_priorbox -> ssd2_2_mbox_priorbox
I1209 18:28:59.276338  3521 net.cpp:150] Setting up ssd2_2_mbox_priorbox
I1209 18:28:59.276342  3521 net.cpp:157] Top shape: 1 2 320 (640)
I1209 18:28:59.276345  3521 net.cpp:165] Memory required for data: 840288224
I1209 18:28:59.276347  3521 layer_factory.hpp:77] Creating layer ssd3_2_mbox_loc
I1209 18:28:59.276357  3521 net.cpp:100] Creating Layer ssd3_2_mbox_loc
I1209 18:28:59.276360  3521 net.cpp:434] ssd3_2_mbox_loc <- ssd3_2_ssd3_2_relu_0_split_1
I1209 18:28:59.276366  3521 net.cpp:408] ssd3_2_mbox_loc -> ssd3_2_mbox_loc
I1209 18:28:59.277845  3521 net.cpp:150] Setting up ssd3_2_mbox_loc
I1209 18:28:59.277853  3521 net.cpp:157] Top shape: 2 8 3 6 (288)
I1209 18:28:59.277856  3521 net.cpp:165] Memory required for data: 840289376
I1209 18:28:59.277870  3521 layer_factory.hpp:77] Creating layer ssd3_2_mbox_loc_perm
I1209 18:28:59.277884  3521 net.cpp:100] Creating Layer ssd3_2_mbox_loc_perm
I1209 18:28:59.277887  3521 net.cpp:434] ssd3_2_mbox_loc_perm <- ssd3_2_mbox_loc
I1209 18:28:59.277894  3521 net.cpp:408] ssd3_2_mbox_loc_perm -> ssd3_2_mbox_loc_perm
I1209 18:28:59.277971  3521 net.cpp:150] Setting up ssd3_2_mbox_loc_perm
I1209 18:28:59.277976  3521 net.cpp:157] Top shape: 2 3 6 8 (288)
I1209 18:28:59.277981  3521 net.cpp:165] Memory required for data: 840290528
I1209 18:28:59.277983  3521 layer_factory.hpp:77] Creating layer ssd3_2_mbox_loc_flat
I1209 18:28:59.277987  3521 net.cpp:100] Creating Layer ssd3_2_mbox_loc_flat
I1209 18:28:59.277992  3521 net.cpp:434] ssd3_2_mbox_loc_flat <- ssd3_2_mbox_loc_perm
I1209 18:28:59.277998  3521 net.cpp:408] ssd3_2_mbox_loc_flat -> ssd3_2_mbox_loc_flat
I1209 18:28:59.278018  3521 net.cpp:150] Setting up ssd3_2_mbox_loc_flat
I1209 18:28:59.278023  3521 net.cpp:157] Top shape: 2 144 (288)
I1209 18:28:59.278025  3521 net.cpp:165] Memory required for data: 840291680
I1209 18:28:59.278029  3521 layer_factory.hpp:77] Creating layer ssd3_2_mbox_conf
I1209 18:28:59.278036  3521 net.cpp:100] Creating Layer ssd3_2_mbox_conf
I1209 18:28:59.278040  3521 net.cpp:434] ssd3_2_mbox_conf <- ssd3_2_ssd3_2_relu_0_split_2
I1209 18:28:59.278046  3521 net.cpp:408] ssd3_2_mbox_conf -> ssd3_2_mbox_conf
I1209 18:28:59.279908  3521 net.cpp:150] Setting up ssd3_2_mbox_conf
I1209 18:28:59.279917  3521 net.cpp:157] Top shape: 2 10 3 6 (360)
I1209 18:28:59.279919  3521 net.cpp:165] Memory required for data: 840293120
I1209 18:28:59.279925  3521 layer_factory.hpp:77] Creating layer ssd3_2_mbox_conf_perm
I1209 18:28:59.279932  3521 net.cpp:100] Creating Layer ssd3_2_mbox_conf_perm
I1209 18:28:59.279937  3521 net.cpp:434] ssd3_2_mbox_conf_perm <- ssd3_2_mbox_conf
I1209 18:28:59.279942  3521 net.cpp:408] ssd3_2_mbox_conf_perm -> ssd3_2_mbox_conf_perm
I1209 18:28:59.280019  3521 net.cpp:150] Setting up ssd3_2_mbox_conf_perm
I1209 18:28:59.280025  3521 net.cpp:157] Top shape: 2 3 6 10 (360)
I1209 18:28:59.280027  3521 net.cpp:165] Memory required for data: 840294560
I1209 18:28:59.280030  3521 layer_factory.hpp:77] Creating layer ssd3_2_mbox_conf_flat
I1209 18:28:59.280036  3521 net.cpp:100] Creating Layer ssd3_2_mbox_conf_flat
I1209 18:28:59.280041  3521 net.cpp:434] ssd3_2_mbox_conf_flat <- ssd3_2_mbox_conf_perm
I1209 18:28:59.280045  3521 net.cpp:408] ssd3_2_mbox_conf_flat -> ssd3_2_mbox_conf_flat
I1209 18:28:59.280066  3521 net.cpp:150] Setting up ssd3_2_mbox_conf_flat
I1209 18:28:59.280071  3521 net.cpp:157] Top shape: 2 180 (360)
I1209 18:28:59.280074  3521 net.cpp:165] Memory required for data: 840296000
I1209 18:28:59.280077  3521 layer_factory.hpp:77] Creating layer ssd3_2_mbox_priorbox
I1209 18:28:59.280084  3521 net.cpp:100] Creating Layer ssd3_2_mbox_priorbox
I1209 18:28:59.280087  3521 net.cpp:434] ssd3_2_mbox_priorbox <- ssd3_2_ssd3_2_relu_0_split_3
I1209 18:28:59.280093  3521 net.cpp:434] ssd3_2_mbox_priorbox <- data_data_0_split_5
I1209 18:28:59.280098  3521 net.cpp:408] ssd3_2_mbox_priorbox -> ssd3_2_mbox_priorbox
I1209 18:28:59.280120  3521 net.cpp:150] Setting up ssd3_2_mbox_priorbox
I1209 18:28:59.280124  3521 net.cpp:157] Top shape: 1 2 144 (288)
I1209 18:28:59.280128  3521 net.cpp:165] Memory required for data: 840297152
I1209 18:28:59.280131  3521 layer_factory.hpp:77] Creating layer ssd4_2_mbox_loc
I1209 18:28:59.280138  3521 net.cpp:100] Creating Layer ssd4_2_mbox_loc
I1209 18:28:59.280141  3521 net.cpp:434] ssd4_2_mbox_loc <- ssd4_2_ssd4_2_relu_0_split_0
I1209 18:28:59.280148  3521 net.cpp:408] ssd4_2_mbox_loc -> ssd4_2_mbox_loc
I1209 18:28:59.281632  3521 net.cpp:150] Setting up ssd4_2_mbox_loc
I1209 18:28:59.281639  3521 net.cpp:157] Top shape: 2 8 1 4 (64)
I1209 18:28:59.281642  3521 net.cpp:165] Memory required for data: 840297408
I1209 18:28:59.281649  3521 layer_factory.hpp:77] Creating layer ssd4_2_mbox_loc_perm
I1209 18:28:59.281656  3521 net.cpp:100] Creating Layer ssd4_2_mbox_loc_perm
I1209 18:28:59.281661  3521 net.cpp:434] ssd4_2_mbox_loc_perm <- ssd4_2_mbox_loc
I1209 18:28:59.281672  3521 net.cpp:408] ssd4_2_mbox_loc_perm -> ssd4_2_mbox_loc_perm
I1209 18:28:59.281750  3521 net.cpp:150] Setting up ssd4_2_mbox_loc_perm
I1209 18:28:59.281755  3521 net.cpp:157] Top shape: 2 1 4 8 (64)
I1209 18:28:59.281757  3521 net.cpp:165] Memory required for data: 840297664
I1209 18:28:59.281760  3521 layer_factory.hpp:77] Creating layer ssd4_2_mbox_loc_flat
I1209 18:28:59.281769  3521 net.cpp:100] Creating Layer ssd4_2_mbox_loc_flat
I1209 18:28:59.281771  3521 net.cpp:434] ssd4_2_mbox_loc_flat <- ssd4_2_mbox_loc_perm
I1209 18:28:59.281776  3521 net.cpp:408] ssd4_2_mbox_loc_flat -> ssd4_2_mbox_loc_flat
I1209 18:28:59.281796  3521 net.cpp:150] Setting up ssd4_2_mbox_loc_flat
I1209 18:28:59.281801  3521 net.cpp:157] Top shape: 2 32 (64)
I1209 18:28:59.281803  3521 net.cpp:165] Memory required for data: 840297920
I1209 18:28:59.281806  3521 layer_factory.hpp:77] Creating layer ssd4_2_mbox_conf
I1209 18:28:59.281813  3521 net.cpp:100] Creating Layer ssd4_2_mbox_conf
I1209 18:28:59.281817  3521 net.cpp:434] ssd4_2_mbox_conf <- ssd4_2_ssd4_2_relu_0_split_1
I1209 18:28:59.281823  3521 net.cpp:408] ssd4_2_mbox_conf -> ssd4_2_mbox_conf
I1209 18:28:59.283857  3521 net.cpp:150] Setting up ssd4_2_mbox_conf
I1209 18:28:59.283866  3521 net.cpp:157] Top shape: 2 10 1 4 (80)
I1209 18:28:59.283869  3521 net.cpp:165] Memory required for data: 840298240
I1209 18:28:59.283875  3521 layer_factory.hpp:77] Creating layer ssd4_2_mbox_conf_perm
I1209 18:28:59.283882  3521 net.cpp:100] Creating Layer ssd4_2_mbox_conf_perm
I1209 18:28:59.283886  3521 net.cpp:434] ssd4_2_mbox_conf_perm <- ssd4_2_mbox_conf
I1209 18:28:59.283893  3521 net.cpp:408] ssd4_2_mbox_conf_perm -> ssd4_2_mbox_conf_perm
I1209 18:28:59.283973  3521 net.cpp:150] Setting up ssd4_2_mbox_conf_perm
I1209 18:28:59.283978  3521 net.cpp:157] Top shape: 2 1 4 10 (80)
I1209 18:28:59.283982  3521 net.cpp:165] Memory required for data: 840298560
I1209 18:28:59.283985  3521 layer_factory.hpp:77] Creating layer ssd4_2_mbox_conf_flat
I1209 18:28:59.283990  3521 net.cpp:100] Creating Layer ssd4_2_mbox_conf_flat
I1209 18:28:59.283994  3521 net.cpp:434] ssd4_2_mbox_conf_flat <- ssd4_2_mbox_conf_perm
I1209 18:28:59.283999  3521 net.cpp:408] ssd4_2_mbox_conf_flat -> ssd4_2_mbox_conf_flat
I1209 18:28:59.284019  3521 net.cpp:150] Setting up ssd4_2_mbox_conf_flat
I1209 18:28:59.284024  3521 net.cpp:157] Top shape: 2 40 (80)
I1209 18:28:59.284026  3521 net.cpp:165] Memory required for data: 840298880
I1209 18:28:59.284029  3521 layer_factory.hpp:77] Creating layer ssd4_2_mbox_priorbox
I1209 18:28:59.284035  3521 net.cpp:100] Creating Layer ssd4_2_mbox_priorbox
I1209 18:28:59.284039  3521 net.cpp:434] ssd4_2_mbox_priorbox <- ssd4_2_ssd4_2_relu_0_split_2
I1209 18:28:59.284044  3521 net.cpp:434] ssd4_2_mbox_priorbox <- data_data_0_split_6
I1209 18:28:59.284050  3521 net.cpp:408] ssd4_2_mbox_priorbox -> ssd4_2_mbox_priorbox
I1209 18:28:59.284071  3521 net.cpp:150] Setting up ssd4_2_mbox_priorbox
I1209 18:28:59.284076  3521 net.cpp:157] Top shape: 1 2 32 (64)
I1209 18:28:59.284078  3521 net.cpp:165] Memory required for data: 840299136
I1209 18:28:59.284081  3521 layer_factory.hpp:77] Creating layer mbox_loc
I1209 18:28:59.284088  3521 net.cpp:100] Creating Layer mbox_loc
I1209 18:28:59.284092  3521 net.cpp:434] mbox_loc <- conv4_3_norm_mbox_loc_flat
I1209 18:28:59.284097  3521 net.cpp:434] mbox_loc <- fc7_mbox_loc_flat
I1209 18:28:59.284101  3521 net.cpp:434] mbox_loc <- ssd1_2_mbox_loc_flat
I1209 18:28:59.284106  3521 net.cpp:434] mbox_loc <- ssd2_2_mbox_loc_flat
I1209 18:28:59.284111  3521 net.cpp:434] mbox_loc <- ssd3_2_mbox_loc_flat
I1209 18:28:59.284114  3521 net.cpp:434] mbox_loc <- ssd4_2_mbox_loc_flat
I1209 18:28:59.284121  3521 net.cpp:408] mbox_loc -> mbox_loc
I1209 18:28:59.284142  3521 net.cpp:150] Setting up mbox_loc
I1209 18:28:59.284147  3521 net.cpp:157] Top shape: 2 26096 (52192)
I1209 18:28:59.284150  3521 net.cpp:165] Memory required for data: 840507904
I1209 18:28:59.284153  3521 layer_factory.hpp:77] Creating layer mbox_conf
I1209 18:28:59.284168  3521 net.cpp:100] Creating Layer mbox_conf
I1209 18:28:59.284171  3521 net.cpp:434] mbox_conf <- conv4_3_norm_mbox_conf_flat
I1209 18:28:59.284175  3521 net.cpp:434] mbox_conf <- fc7_mbox_conf_flat
I1209 18:28:59.284180  3521 net.cpp:434] mbox_conf <- ssd1_2_mbox_conf_flat
I1209 18:28:59.284185  3521 net.cpp:434] mbox_conf <- ssd2_2_mbox_conf_flat
I1209 18:28:59.284189  3521 net.cpp:434] mbox_conf <- ssd3_2_mbox_conf_flat
I1209 18:28:59.284193  3521 net.cpp:434] mbox_conf <- ssd4_2_mbox_conf_flat
I1209 18:28:59.284198  3521 net.cpp:408] mbox_conf -> mbox_conf
I1209 18:28:59.284219  3521 net.cpp:150] Setting up mbox_conf
I1209 18:28:59.284224  3521 net.cpp:157] Top shape: 2 32620 (65240)
I1209 18:28:59.284225  3521 net.cpp:165] Memory required for data: 840768864
I1209 18:28:59.284229  3521 layer_factory.hpp:77] Creating layer mbox_priorbox
I1209 18:28:59.284235  3521 net.cpp:100] Creating Layer mbox_priorbox
I1209 18:28:59.284238  3521 net.cpp:434] mbox_priorbox <- conv4_3_norm_mbox_priorbox
I1209 18:28:59.284242  3521 net.cpp:434] mbox_priorbox <- fc7_mbox_priorbox
I1209 18:28:59.284246  3521 net.cpp:434] mbox_priorbox <- ssd1_2_mbox_priorbox
I1209 18:28:59.284251  3521 net.cpp:434] mbox_priorbox <- ssd2_2_mbox_priorbox
I1209 18:28:59.284255  3521 net.cpp:434] mbox_priorbox <- ssd3_2_mbox_priorbox
I1209 18:28:59.284258  3521 net.cpp:434] mbox_priorbox <- ssd4_2_mbox_priorbox
I1209 18:28:59.284263  3521 net.cpp:408] mbox_priorbox -> mbox_priorbox
I1209 18:28:59.284282  3521 net.cpp:150] Setting up mbox_priorbox
I1209 18:28:59.284287  3521 net.cpp:157] Top shape: 1 2 26096 (52192)
I1209 18:28:59.284289  3521 net.cpp:165] Memory required for data: 840977632
I1209 18:28:59.284293  3521 layer_factory.hpp:77] Creating layer mbox_loss
I1209 18:28:59.284302  3521 net.cpp:100] Creating Layer mbox_loss
I1209 18:28:59.284305  3521 net.cpp:434] mbox_loss <- mbox_loc
I1209 18:28:59.284309  3521 net.cpp:434] mbox_loss <- mbox_conf
I1209 18:28:59.284312  3521 net.cpp:434] mbox_loss <- mbox_priorbox
…
state {
  phase: TEST
}
layer {
  name: "data"
  type: "AnnotatedData"
  top: "data"
  top: "label"
  include {
    phase: TEST
  }
  transform_param {
    mean_value: 125
    mean_value: 127
    mean_value: 130
    resize_param {
      prob: 1
      resize_mode: WARP
      height: 300
      width: 510
      interp_mode: LINEAR
    }
  }
  data_param {
    source: "examples/GTSDB/GTSDB_test_lmdb"
    batch_size: 1
    backend: LMDB
  }
  annotated_data_param {
    batch_sampler {
    }
    label_map_file: "data/GTSDB/labelmap_GTSDB.prototxt"
  }
}
layer {
  name: "conv1_1"
  type: "Convolution"
  bottom: "data"
  top: "conv1_1"
  param {
    lr_mult: 1
    decay_mult: 1
  }
  param {
    lr_mult: 2
    decay_mult: 0
  }
  convolution_param {
    num_output: 64
    pad: 1
    kernel_size: 3
    weight_filler {
      type: "xavier"
    }
    bias_filler {
      type: "constant"
      value: 0
    }
  }
}
layer {
  name: "relu1_1"
  type: "ReLU"
  bottom: "conv1_1"
  top: "conv1_1"
}
layer {
  name: "conv1_2"
  type: "Convolution"
  bottom: "conv1_1"
  top: "conv1_2"
  param {
    lr_mult: 1
    decay_mult: 1
  }
  param {
    lr_mult: 2
    decay_mult: 0
  }
  convolution_param {
    num_output: 64
    pad: 1
    kernel_size: 3
    weight_filler {
      type: "xavier"
    }
    bias_filler {
      type: "constant"
      value: 0
    }
  }
}
layer {
  name: "relu1_2"
  type: "ReLU"
  bottom: "conv1_2"
  top: "conv1_2"
}
layer {
  name: "pool1"
  type: "Pooling"
  bottom: "conv1_2"
  top: "pool1"
  pooling_param {
    pool: MAX
    kernel_size: 2
    stride: 2
  }
}
layer {
  name: "conv2_1"
  type: "Convolution"
  bottom: "pool1"
  top: "conv2_1"
  param {
    lr_mult: 1
    decay_mult: 1
  }
  param {
    lr_mult: 2
    decay_mult: 0
  }
  convolution_param {
    num_output: 128
    pad: 1
    kernel_size: 3
    weight_filler {
      type: "xavier"
    }
    bias_filler {
      type: "constant"
      value: 0
    }
  }
}
layer {
  name: "relu2_1"
  type: "ReLU"
  bottom: "conv2_1"
  top: "conv2_1"
}
layer {
  name: "conv2_2"
  type: "Convolution"
  bottom: "conv2_1"
  top: "conv2_2"
  param {
    lr_mult: 1
    decay_mult: 1
  }
  param {
    lr_mult: 2
    decay_mult: 0
  }
  convolution_param {
    num_output: 128
    pad: 1
    kernel_size: 3
    weight_filler {
      type: "xavier"
    }
    bias_filler {
      type: "constant"
      value: 0
    }
  }
}
layer {
  name: "relu2_2"
  type: "ReLU"
  bottom: "conv2_2"
  top: "conv2_2"
}
layer {
  name: "pool2"
  type: "Pooling"
  bottom: "conv2_2"
  top: "pool2"
  pooling_param {
    pool: MAX
    kernel_size: 2
    stride: 2
  }
}
layer {
  name: "conv3_1"
  type: "Convolution"
  bottom: "pool2"
  top: "conv3_1"
  param {
    lr_mult: 1
    decay_mult: 1
  }
  param {
    lr_mult: 2
    decay_mult: 0
  }
  convolution_param {
    num_output: 256
    pad: 1
    kernel_size: 3
    weight_filler {
      type: "xavier"
    }
    bias_filler {
      type: "constant"
      value: 0
    }
  }
}
layer {
  name: "relu3_1"
  type: "ReLU"
  bottom: "conv3_1"
  top: "conv3_1"
}
layer {
  name: "conv3_2"
  type: "Convolution"
  bottom: "conv3_1"
  top: "conv3_2"
  param {
    lr_mult: 1
    decay_mult: 1
  }
  param {
    lr_mult: 2
    decay_mult: 0
  }
  convolution_param {
    num_output: 256
    pad: 1
    kernel_size: 3
    weight_filler {
      type: "xavier"
    }
    bias_filler {
      type: "constant"
      value: 0
    }
  }
}
layer {
  name: "relu3_2"
  type: "ReLU"
  bottom: "conv3_2"
  top: "conv3_2"
}
layer {
  name: "conv3_3"
  type: "Convolution"
  bottom: "conv3_2"
  top: "conv3_3"
  param {
    lr_mult: 1
    decay_mult: 1
  }
  param {
    lr_mult: 2
    decay_mult: 0
  }
  convolution_param {
    num_output: 256
    pad: 1
    kernel_size: 3
    weight_filler {
      type: "xavier"
    }
    bias_filler {
      type: "constant"
      value: 0
    }
  }
}
layer {
  name: "relu3_3"
  type: "ReLU"
  bottom: "conv3_3"
  top: "conv3_3"
}
layer {
  name: "pool3"
  type: "Pooling"
  bottom: "conv3_3"
  top: "pool3"
  pooling_param {
    pool: MAX
    kernel_size: 2
    stride: 2
  }
}
layer {
  name: "conv4_1"
  type: "Convolution"
  bottom: "pool3"
  top: "conv4_1"
  param {
    lr_mult: 1
    decay_mult: 1
  }
  param {
    lr_mult: 2
    decay_mult: 0
  }
  convolution_param {
    num_output: 512
    pad: 1
    kernel_size: 3
    weight_filler {
      type: "xavier"
    }
    bias_filler {
      type: "constant"
      value: 0
    }
  }
}
layer {
  name: "relu4_1"
  type: "ReLU"
  bottom: "conv4_1"
  top: "conv4_1"
}
layer {
  name: "conv4_2"
  type: "Convolution"
  bottom: "conv4_1"
  top: "conv4_2"
  param {
    lr_mult: 1
    decay_mult: 1
  }
  param {
    lr_mult: 2
    decay_mult: 0
  }
  convolution_param {
    num_output: 512
    pad: 1
    kernel_size: 3
    weight_filler {
      type: "xavier"
    }
    bias_filler {
      type: "constant"
      value: 0
    }
  }
}
layer {
  name: "relu4_2"
  type: "ReLU"
  bottom: "conv4_2"
  top: "conv4_2"
}
layer {
  name: "conv4_3"
  type: "Convolution"
  bottom: "conv4_2"
  top: "conv4_3"
  param {
    lr_mult: 1
    decay_mult: 1
  }
  param {
    lr_mult: 2
    decay_mult: 0
  }
  convolution_param {
    num_output: 512
    pad: 1
    kernel_size: 3
    weight_filler {
      type: "xavier"
    }
    bias_filler {
      type: "constant"
      value: 0
    }
  }
}
layer {
  name: "relu4_3"
  type: "ReLU"
  bottom: "conv4_3"
  top: "conv4_3"
}
layer {
  name: "pool4"
  type: "Pooling"
  bottom: "conv4_3"
  top: "pool4"
  pooling_param {
    pool: MAX
    kernel_size: 2
    stride: 2
  }
}
layer {
  name: "conv5_1"
  type: "Convolution"
  bottom: "pool4"
  top: "conv5_1"
  param {
    lr_mult: 1
    decay_mult: 1
  }
  param {
    lr_mult: 2
    decay_mult: 0
  }
  convolution_param {
    num_output: 512
    pad: 1
    kernel_size: 3
    weight_filler {
      type: "xavier"
    }
    bias_filler {
      type: "constant"
      value: 0
    }
    dilation: 1
  }
}
layer {
  name: "relu5_1"
  type: "ReLU"
  bottom: "conv5_1"
  top: "conv5_1"
}
layer {
  name: "conv5_2"
  type: "Convolution"
  bottom: "conv5_1"
  top: "conv5_2"
  param {
    lr_mult: 1
    decay_mult: 1
  }
  param {
    lr_mult: 2
    decay_mult: 0
  }
  convolution_param {
    num_output: 512
    pad: 1
    kernel_size: 3
    weight_filler {
      type: "xavier"
    }
    bias_filler {
      type: "constant"
      value: 0
    }
    dilation: 1
  }
}
layer {
  name: "relu5_2"
  type: "ReLU"
  bottom: "conv5_2"
  top: "conv5_2"
}
layer {
  name: "conv5_3"
  type: "Convolution"
  bottom: "conv5_2"
  top: "conv5_3"
  param {
    lr_mult: 1
    decay_mult: 1
  }
  param {
    lr_mult: 2
    decay_mult: 0
  }
  convolution_param {
    num_output: 512
    pad: 1
    kernel_size: 3
    weight_filler {
      type: "xavier"
    }
    bias_filler {
      type: "constant"
      value: 0
    }
    dilation: 1
  }
}
layer {
  name: "relu5_3"
  type: "ReLU"
  bottom: "conv5_3"
  top: "conv5_3"
}
layer {
  name: "pool5"
  type: "Pooling"
  bottom: "conv5_3"
  top: "pool5"
  pooling_param {
    pool: MAX
    kernel_size: 3
    stride: 1
    pad: 1
  }
}
layer {
  name: "fc6"
  type: "Convolution"
  bottom: "pool5"
  top: "fc6"
  param {
    lr_mult: 1
    decay_mult: 1
  }
  param {
    lr_mult: 2
    decay_mult: 0
  }
  convolution_param {
    num_output: 1024
    pad: 6
    kernel_size: 3
    weight_filler {
      type: "xavier"
    }
    bias_filler {
      type: "constant"
      value: 0
    }
    dilation: 6
  }
}
layer {
  name: "relu6"
  type: "ReLU"
  bottom: "fc6"
  top: "fc6"
}
layer {
  name: "fc7"
  type: "Convolution"
  bottom: "fc6"
  top: "fc7"
  param {
    lr_mult: 1
    decay_mult: 1
  }
  param {
    lr_mult: 2
    decay_mult: 0
  }
  convolution_param {
    num_output: 1024
    kernel_size: 1
    weight_filler {
      type: "xavier"
    }
    bias_filler {
      type: "constant"
      value: 0
    }
  }
}
layer {
  name: "relu7"
  type: "ReLU"
  bottom: "fc7"
  top: "fc7"
}
layer {
  name: "ssd1_1"
  type: "Convolution"
  bottom: "fc7"
  top: "ssd1_1"
  param {
    lr_mult: 1
    decay_mult: 1
  }
  param {
    lr_mult: 2
    decay_mult: 0
  }
  convolution_param {
    num_output: 256
    pad: 0
    kernel_size: 1
    stride: 1
    weight_filler {
      type: "xavier"
    }
    bias_filler {
      type: "constant"
      value: 0
    }
  }
}
layer {
  name: "ssd1_1_relu"
  type: "ReLU"
  bottom: "ssd1_1"
  top: "ssd1_1"
}
layer {
  name: "ssd1_2"
  type: "Convolution"
  bottom: "ssd1_1"
  top: "ssd1_2"
  param {
    lr_mult: 1
    decay_mult: 1
  }
  param {
    lr_mult: 2
    decay_mult: 0
  }
  convolution_param {
    num_output: 512
    pad: 1
    kernel_size: 3
    stride: 2
    weight_filler {
      type: "xavier"
    }
    bias_filler {
      type: "constant"
      value: 0
    }
  }
}
layer {
  name: "ssd1_2_relu"
  type: "ReLU"
  bottom: "ssd1_2"
  top: "ssd1_2"
}
layer {
  name: "ssd2_1"
  type: "Convolution"
  bottom: "ssd1_2"
  top: "ssd2_1"
  param {
    lr_mult: 1
    decay_mult: 1
  }
  param {
    lr_mult: 2
    decay_mult: 0
  }
  convolution_param {
    num_output: 128
    pad: 0
    kernel_size: 1
    stride: 1
    weight_filler {
      type: "xavier"
    }
    bias_filler {
      type: "constant"
      value: 0
    }
  }
}
layer {
  name: "ssd2_1_relu"
  type: "ReLU"
  bottom: "ssd2_1"
  top: "ssd2_1"
}
layer {
  name: "ssd2_2"
  type: "Convolution"
  bottom: "ssd2_1"
  top: "ssd2_2"
  param {
    lr_mult: 1
    decay_mult: 1
  }
  param {
    lr_mult: 2
    decay_mult: 0
  }
  convolution_param {
    num_output: 256
    pad: 1
    kernel_size: 3
    stride: 2
    weight_filler {
      type: "xavier"
    }
    bias_filler {
      type: "constant"
      value: 0
    }
  }
}
layer {
  name: "ssd2_2_relu"
  type: "ReLU"
  bottom: "ssd2_2"
  top: "ssd2_2"
}
layer {
  name: "ssd3_1"
  type: "Convolution"
  bottom: "ssd2_2"
  top: "ssd3_1"
  param {
    lr_mult: 1
    decay_mult: 1
  }
  param {
    lr_mult: 2
    decay_mult: 0
  }
  convolution_param {
    num_output: 128
    pad: 0
    kernel_size: 1
    stride: 1
    weight_filler {
      type: "xavier"
    }
    bias_filler {
      type: "constant"
      value: 0
    }
  }
}
layer {
  name: "ssd3_1_relu"
  type: "ReLU"
  bottom: "ssd3_1"
  top: "ssd3_1"
}
layer {
  name: "ssd3_2"
  type: "Convolution"
  bottom: "ssd3_1"
  top: "ssd3_2"
  param {
    lr_mult: 1
    decay_mult: 1
  }
  param {
    lr_mult: 2
    decay_mult: 0
  }
  convolution_param {
    num_output: 256
    pad: 0
    kernel_size: 3
    stride: 1
    weight_filler {
      type: "xavier"
    }
    bias_filler {
      type: "constant"
      value: 0
    }
  }
}
layer {
  name: "ssd3_2_relu"
  type: "ReLU"
  bottom: "ssd3_2"
  top: "ssd3_2"
}
layer {
  name: "ssd4_1"
  type: "Convolution"
  bottom: "ssd3_2"
  top: "ssd4_1"
  param {
    lr_mult: 1
    decay_mult: 1
  }
  param {
    lr_mult: 2
    decay_mult: 0
  }
  convolution_param {
    num_output: 128
    pad: 0
    kernel_size: 1
    stride: 1
    weight_filler {
      type: "xavier"
    }
    bias_filler {
      type: "constant"
      value: 0
    }
  }
}
layer {
  name: "ssd4_1_relu"
  type: "ReLU"
  bottom: "ssd4_1"
  top: "ssd4_1"
}
layer {
  name: "ssd4_2"
  type: "Convolution"
  bottom: "ssd4_1"
  top: "ssd4_2"
  param {
    lr_mult: 1
    decay_mult: 1
  }
  param {
    lr_mult: 2
    decay_mult: 0
  }
  convolution_param {
    num_output: 256
    pad: 0
    kernel_size: 3
    stride: 1
    weight_filler {
      type: "xavier"
    }
    bias_filler {
      type: "constant"
      value: 0
    }
  }
}
layer {
  name: "ssd4_2_relu"
  type: "ReLU"
  bottom: "ssd4_2"
  top: "ssd4_2"
}
layer {
  name: "conv4_3_norm"
  type: "Normalize"
  bottom: "conv4_3"
  top: "conv4_3_norm"
  norm_param {
    across_spatial: false
    scale_filler {
      type: "constant"
      value: 20
    }
    channel_shared: false
  }
}
layer {
  name: "conv4_3_norm_mbox_loc"
  type: "Convolution"
  bottom: "conv4_3_norm"
  top: "conv4_3_norm_mbox_loc"
  param {
    lr_mult: 1
    decay_mult: 1
  }
  param {
    lr_mult: 2
    decay_mult: 0
  }
  convolution_param {
    num_output: 8
    pad: 1
    kernel_size: 3
    stride: 1
    weight_filler {
      type: "xavier"
    }
    bias_filler {
      type: "constant"
      value: 0
    }
  }
}
layer {
  name: "conv4_3_norm_mbox_loc_perm"
  type: "Permute"
  bottom: "conv4_3_norm_mbox_loc"
  top: "conv4_3_norm_mbox_loc_perm"
  permute_param {
    order: 0
    order: 2
    order: 3
    order: 1
  }
}
layer {
  name: "conv4_3_norm_mbox_loc_flat"
  type: "Flatten"
  bottom: "conv4_3_norm_mbox_loc_perm"
  top: "conv4_3_norm_mbox_loc_flat"
  flatten_param {
    axis: 1
  }
}
layer {
  name: "conv4_3_norm_mbox_conf"
  type: "Convolution"
  bottom: "conv4_3_norm"
  top: "conv4_3_norm_mbox_conf"
  param {
    lr_mult: 1
    decay_mult: 1
  }
  param {
    lr_mult: 2
    decay_mult: 0
  }
  convolution_param {
    num_output: 10
    pad: 1
    kernel_size: 3
    stride: 1
    weight_filler {
      type: "xavier"
    }
    bias_filler {
      type: "constant"
      value: 0
    }
  }
}
layer {
  name: "conv4_3_norm_mbox_conf_perm"
  type: "Permute"
  bottom: "conv4_3_norm_mbox_conf"
  top: "conv4_3_norm_mbox_conf_perm"
  permute_param {
    order: 0
    order: 2
    order: 3
    order: 1
  }
}
layer {
  name: "conv4_3_norm_mbox_conf_flat"
  type: "Flatten"
  bottom: "conv4_3_norm_mbox_conf_perm"
  top: "conv4_3_norm_mbox_conf_flat"
  flatten_param {
    axis: 1
  }
}
layer {
  name: "conv4_3_norm_mbox_priorbox"
  type: "PriorBox"
  bottom: "conv4_3_norm"
  bottom: "data"
  top: "conv4_3_norm_mbox_priorbox"
  prior_box_param {
    min_size: 15
    max_size: 30
    clip: false
    variance: 0.1
    variance: 0.1
    variance: 0.2
    variance: 0.2
    step: 8
    offset: 0.5
  }
}
layer {
  name: "fc7_mbox_loc"
  type: "Convolution"
  bottom: "fc7"
  top: "fc7_mbox_loc"
  param {
    lr_mult: 1
    decay_mult: 1
  }
  param {
    lr_mult: 2
    decay_mult: 0
  }
  convolution_param {
    num_output: 8
    pad: 1
    kernel_size: 3
    stride: 1
    weight_filler {
      type: "xavier"
    }
    bias_filler {
      type: "constant"
      value: 0
    }
  }
}
layer {
  name: "fc7_mbox_loc_perm"
  type: "Permute"
  bottom: "fc7_mbox_loc"
  top: "fc7_mbox_loc_perm"
  permute_param {
    order: 0
    order: 2
    order: 3
    order: 1
  }
}
layer {
  name: "fc7_mbox_loc_flat"
  type: "Flatten"
  bottom: "fc7_mbox_loc_perm"
  top: "fc7_mbox_loc_flat"
  flatten_param {
    axis: 1
  }
}
layer {
  name: "fc7_mbox_conf"
  type: "Convolution"
  bottom: "fc7"
  top: "fc7_mbox_conf"
  param {
    lr_mult: 1
    decay_mult: 1
  }
  param {
    lr_mult: 2
    decay_mult: 0
  }
  convolution_param {
    num_output: 10
    pad: 1
    kernel_size: 3
    stride: 1
    weight_filler {
      type: "xavier"
    }
    bias_filler {
      type: "constant"
      value: 0
    }
  }
}
layer {
  name: "fc7_mbox_conf_perm"
  type: "Permute"
  bottom: "fc7_mbox_conf"
  top: "fc7_mbox_conf_perm"
  permute_param {
    order: 0
    order: 2
    order: 3
    order: 1
  }
}
layer {
  name: "fc7_mbox_conf_flat"
  type: "Flatten"
  bottom: "fc7_mbox_conf_perm"
  top: "fc7_mbox_conf_flat"
  flatten_param {
    axis: 1
  }
}
layer {
  name: "fc7_mbox_priorbox"
  type: "PriorBox"
  bottom: "fc7"
  bottom: "data"
  top: "fc7_mbox_priorbox"
  prior_box_param {
    min_size: 30
    max_size: 60
    clip: false
    variance: 0.1
    variance: 0.1
    variance: 0.2
    variance: 0.2
    step: 16
    offset: 0.5
  }
}
layer {
  name: "ssd1_2_mbox_loc"
  type: "Convolution"
  bottom: "ssd1_2"
  top: "ssd1_2_mbox_loc"
  param {
    lr_mult: 1
    decay_mult: 1
  }
  param {
    lr_mult: 2
    decay_mult: 0
  }
  convolution_param {
    num_output: 8
    pad: 1
    kernel_size: 3
    stride: 1
    weight_filler {
      type: "xavier"
    }
    bias_filler {
      type: "constant"
      value: 0
    }
  }
}
layer {
  name: "ssd1_2_mbox_loc_perm"
  type: "Permute"
  bottom: "ssd1_2_mbox_loc"
  top: "ssd1_2_mbox_loc_perm"
  permute_param {
    order: 0
    order: 2
    order: 3
    order: 1
  }
}
layer {
  name: "ssd1_2_mbox_loc_flat"
  type: "Flatten"
  bottom: "ssd1_2_mbox_loc_perm"
  top: "ssd1_2_mbox_loc_flat"
  flatten_param {
    axis: 1
  }
}
layer {
  name: "ssd1_2_mbox_conf"
  type: "Convolution"
  bottom: "ssd1_2"
  top: "ssd1_2_mbox_conf"
  param {
    lr_mult: 1
    decay_mult: 1
  }
  param {
    lr_mult: 2
    decay_mult: 0
  }
  convolution_param {
    num_output: 10
    pad: 1
    kernel_size: 3
    stride: 1
    weight_filler {
      type: "xavier"
    }
    bias_filler {
      type: "constant"
      value: 0
    }
  }
}
layer {
  name: "ssd1_2_mbox_conf_perm"
  type: "Permute"
  bottom: "ssd1_2_mbox_conf"
  top: "ssd1_2_mbox_conf_perm"
  permute_param {
    order: 0
    order: 2
    order: 3
    order: 1
  }
}
layer {
  name: "ssd1_2_mbox_conf_flat"
  type: "Flatten"
  bottom: "ssd1_2_mbox_conf_perm"
  top: "ssd1_2_mbox_conf_flat"
  flatten_param {
    axis: 1
  }
}
layer {
  name: "ssd1_2_mbox_priorbox"
  type: "PriorBox"
  bottom: "ssd1_2"
  bottom: "data"
  top: "ssd1_2_mbox_priorbox"
  prior_box_param {
    min_size: 60
    max_size: 90
    clip: false
    variance: 0.1
    variance: 0.1
    variance: 0.2
    variance: 0.2
    step: 32
    offset: 0.5
  }
}
layer {
  name: "ssd2_2_mbox_loc"
  type: "Convolution"
  bottom: "ssd2_2"
  top: "ssd2_2_mbox_loc"
  param {
    lr_mult: 1
    decay_mult: 1
  }
  param {
    lr_mult: 2
    decay_mult: 0
  }
  convolution_param {
    num_output: 8
    pad: 1
    kernel_size: 3
    stride: 1
    weight_filler {
      type: "xavier"
    }
    bias_filler {
      type: "constant"
      value: 0
    }
  }
}
layer {
  name: "ssd2_2_mbox_loc_perm"
  type: "Permute"
  bottom: "ssd2_2_mbox_loc"
  top: "ssd2_2_mbox_loc_perm"
  permute_param {
    order: 0
    order: 2
    order: 3
    order: 1
  }
}
layer {
  name: "ssd2_2_mbox_loc_flat"
  type: "Flatten"
  bottom: "ssd2_2_mbox_loc_perm"
  top: "ssd2_2_mbox_loc_flat"
  flatten_param {
    axis: 1
  }
}
layer {
  name: "ssd2_2_mbox_conf"
  type: "Convolution"
  bottom: "ssd2_2"
  top: "ssd2_2_mbox_conf"
  param {
    lr_mult: 1
    decay_mult: 1
  }
  param {
    lr_mult: 2
    decay_mult: 0
  }
  convolution_param {
    num_output: 10
    pad: 1
    kernel_size: 3
    stride: 1
    weight_filler {
      type: "xavier"
    }
    bias_filler {
      type: "constant"
      value: 0
    }
  }
}
layer {
  name: "ssd2_2_mbox_conf_perm"
  type: "Permute"
  bottom: "ssd2_2_mbox_conf"
  top: "ssd2_2_mbox_conf_perm"
  permute_param {
    order: 0
    order: 2
    order: 3
    order: 1
  }
}
layer {
  name: "ssd2_2_mbox_conf_flat"
  type: "Flatten"
  bottom: "ssd2_2_mbox_conf_perm"
  top: "ssd2_2_mbox_conf_flat"
  flatten_param {
    axis: 1
  }
}
layer {
  name: "ssd2_2_mbox_priorbox"
  type: "PriorBox"
  bottom: "ssd2_2"
  bottom: "data"
  top: "ssd2_2_mbox_priorbox"
  prior_box_param {
    min_size: 90
    max_size: 120
    clip: false
    variance: 0.1
    variance: 0.1
    variance: 0.2
    variance: 0.2
    step: 64
    offset: 0.5
  }
}
layer {
  name: "ssd3_2_mbox_loc"
  type: "Convolution"
  bottom: "ssd3_2"
  top: "ssd3_2_mbox_loc"
  param {
    lr_mult: 1
    decay_mult: 1
  }
  param {
    lr_mult: 2
    decay_mult: 0
  }
  convolution_param {
    num_output: 8
    pad: 1
    kernel_size: 3
    stride: 1
    weight_filler {
      type: "xavier"
    }
    bias_filler {
      type: "constant"
      value: 0
    }
  }
}
layer {
  name: "ssd3_2_mbox_loc_perm"
  type: "Permute"
  bottom: "ssd3_2_mbox_loc"
  top: "ssd3_2_mbox_loc_perm"
  permute_param {
    order: 0
    order: 2
    order: 3
    order: 1
  }
}
layer {
  name: "ssd3_2_mbox_loc_flat"
  type: "Flatten"
  bottom: "ssd3_2_mbox_loc_perm"
  top: "ssd3_2_mbox_loc_flat"
  flatten_param {
    axis: 1
  }
}
layer {
  name: "ssd3_2_mbox_conf"
  type: "Convolution"
  bottom: "ssd3_2"
  top: "ssd3_2_mbox_conf"
  param {
    lr_mult: 1
    decay_mult: 1
  }
  param {
    lr_mult: 2
    decay_mult: 0
  }
  convolution_param {
    num_output: 10
    pad: 1
    kernel_size: 3
    stride: 1
    weight_filler {
      type: "xavier"
    }
    bias_filler {
      type: "constant"
      value: 0
    }
  }
}
layer {
  name: "ssd3_2_mbox_conf_perm"
  type: "Permute"
  bottom: "ssd3_2_mbox_conf"
  top: "ssd3_2_mbox_conf_perm"
  permute_param {
    order: 0
    order: 2
    order: 3
    order: 1
  }
}
layer {
  name: "ssd3_2_mbox_conf_flat"
  type: "Flatten"
  bottom: "ssd3_2_mbox_conf_perm"
  top: "ssd3_2_mbox_conf_flat"
  flatten_param {
    axis: 1
  }
}
layer {
  name: "ssd3_2_mbox_priorbox"
  type: "PriorBox"
  bottom: "ssd3_2"
  bottom: "data"
  top: "ssd3_2_mbox_priorbox"
  prior_box_param {
    min_size: 120
    max_size: 150
    clip: false
    variance: 0.1
    variance: 0.1
    variance: 0.2
    variance: 0.2
    step: 100
    offset: 0.5
  }
}
layer {
  name: "ssd4_2_mbox_loc"
  type: "Convolution"
  bottom: "ssd4_2"
  top: "ssd4_2_mbox_loc"
  param {
    lr_mult: 1
    decay_mult: 1
  }
  param {
    lr_mult: 2
    decay_mult: 0
  }
  convolution_param {
    num_output: 8
    pad: 1
    kernel_size: 3
    stride: 1
    weight_filler {
      type: "xavier"
    }
    bias_filler {
      type: "constant"
      value: 0
    }
  }
}
layer {
  name: "ssd4_2_mbox_loc_perm"
  type: "Permute"
  bottom: "ssd4_2_mbox_loc"
  top: "ssd4_2_mbox_loc_perm"
  permute_param {
    order: 0
    order: 2
    order: 3
    order: 1
  }
}
layer {
  name: "ssd4_2_mbox_loc_flat"
  type: "Flatten"
  bottom: "ssd4_2_mbox_loc_perm"
  top: "ssd4_2_mbox_loc_flat"
  flatten_param {
    axis: 1
  }
}
layer {
  name: "ssd4_2_mbox_conf"
  type: "Convolution"
  bottom: "ssd4_2"
  top: "ssd4_2_mbox_conf"
  param {
    lr_mult: 1
    decay_mult: 1
  }
  param {
    lr_mult: 2
    decay_mult: 0
  }
  convolution_param {
    num_output: 10
    pad: 1
    kernel_size: 3
    stride: 1
    weight_filler {
      type: "xavier"
    }
    bias_filler {
      type: "constant"
      value: 0
    }
  }
}
layer {
  name: "ssd4_2_mbox_conf_perm"
  type: "Permute"
  bottom: "ssd4_2_mbox_conf"
  top: "ssd4_2_mbox_conf_perm"
  permute_param {
    order: 0
    order: 2
    order: 3
    order: 1
  }
}
layer {
  name: "ssd4_2_mbox_conf_flat"
  type: "Flatten"
  bottom: "ssd4_2_mbox_conf_perm"
  top: "ssd4_2_mbox_conf_flat"
  flatten_param {
    axis: 1
  }
}
layer {
  name: "ssd4_2_mbox_priorbox"
  type: "PriorBox"
  bottom: "ssd4_2"
  bottom: "data"
  top: "ssd4_2_mbox_priorbox"
  prior_box_param {
    min_size: 150
    max_size: 180
    clip: false
    variance: 0.1
    variance: 0.1
    variance: 0.2
    variance: 0.2
    step: 300
    offset: 0.5
  }
}
layer {
  name: "mbox_loc"
  type: "Concat"
  bottom: "conv4_3_norm_mbox_loc_flat"
  bottom: "fc7_mbox_loc_flat"
  bottom: "ssd1_2_mbox_loc_flat"
  bottom: "ssd2_2_mbox_loc_flat"
  bottom: "ssd3_2_mbox_loc_flat"
  bottom: "ssd4_2_mbox_loc_flat"
  top: "mbox_loc"
  concat_param {
    axis: 1
  }
}
layer {
  name: "mbox_conf"
  type: "Concat"
  bottom: "conv4_3_norm_mbox_conf_flat"
  bottom: "fc7_mbox_conf_flat"
  bottom: "ssd1_2_mbox_conf_flat"
  bottom: "ssd2_2_mbox_conf_flat"
  bottom: "ssd3_2_mbox_conf_flat"
  bottom: "ssd4_2_mbox_conf_flat"
  top: "mbox_conf"
  concat_param {
    axis: 1
  }
}
layer {
  name: "mbox_priorbox"
  type: "Concat"
  bottom: "conv4_3_norm_mbox_priorbox"
  bottom: "fc7_mbox_priorbox"
  bottom: "ssd1_2_mbox_priorbox"
  bottom: "ssd2_2_mbox_priorbox"
  bottom: "ssd3_2_mbox_priorbox"
  bottom: "ssd4_2_mbox_priorbox"
  top: "mbox_priorbox"
  concat_param {
    axis: 2
  }
}
layer {
  name: "mbox_conf_reshape"
  type: "Reshape"
  bottom: "mbox_conf"
  top: "mbox_conf_reshape"
  reshape_param {
    shape {
      dim: 0
      dim: -1
      dim: 5
    }
  }
}
layer {
  name: "mbox_conf_softmax"
  type: "Softmax"
  bottom: "mbox_conf_reshape"
  top: "mbox_conf_softmax"
  softmax_param {
    axis: 2
  }
}
layer {
  name: "mbox_conf_flatten"
  type: "Flatten"
  bottom: "mbox_conf_softmax"
  top: "mbox_conf_flatten"
  flatten_param {
    axis: 1
  }
}
layer {
  name: "detection_out"
  type: "DetectionOutput"
  bottom: "mbox_loc"
  bottom: "mbox_conf_flatten"
  bottom: "mbox_priorbox"
  top: "detection_out"
  include {
    phase: TEST
  }
  detection_output_param {
    num_classes: 5
    share_location: true
    background_label_id: 0
    nms_param {
      nms_threshold: 0.45
      top_k: 100
    }
    save_output_param {
      output_directory: "/home/zhongyilin/Documents/data/GTSDBdevkit/results/GTSDB/SSD_510x300_100_40_Square_score/Main"
      output_name_prefix: "comp4_det_test_"
      output_format: "VOC"
      label_map_file: "data/GTSDB/labelmap_GTSDB.prototxt"
      name_size_file: "data/GTSDB/test_name_size.txt"
      num_test_image: 153
    }
    code_type: CENTER_SIZE
    keep_top_k: 40
    confidence_threshold: 0.01
  }
}
layer {
  name: "detection_eval"
  type: "DetectionEvaluate"
  bottom: "detection_out"
  bottom: "label"
  top: "detection_eval"
  include {
    phase: TEST
  }
  detection_evaluate_param {
    num_classes: 5
    background_label_id: 0
    overlap_threshold: 0.5
    evaluate_difficult_gt: false
    name_size_file: "data/GTSDB/test_name_size.txt"
  }
}
I1209 18:28:59.286864  3521 layer_factory.hpp:77] Creating layer data
I1209 18:28:59.286900  3521 net.cpp:100] Creating Layer data
I1209 18:28:59.286906  3521 net.cpp:408] data -> data
I1209 18:28:59.286913  3521 net.cpp:408] data -> label
I1209 18:28:59.287408  3538 db_lmdb.cpp:35] Opened lmdb examples/GTSDB/GTSDB_test_lmdb
I1209 18:28:59.297520  3521 annotated_data_layer.cpp:62] output data size: 1,3,300,510
I1209 18:28:59.300858  3521 net.cpp:150] Setting up data
I1209 18:28:59.300873  3521 net.cpp:157] Top shape: 1 3 300 510 (459000)
I1209 18:28:59.300879  3521 net.cpp:157] Top shape: 1 1 1 8 (8)
I1209 18:28:59.300881  3521 net.cpp:165] Memory required for data: 1836032
I1209 18:28:59.300886  3521 layer_factory.hpp:77] Creating layer data_data_0_split
I1209 18:28:59.300896  3521 net.cpp:100] Creating Layer data_data_0_split
I1209 18:28:59.300901  3521 net.cpp:434] data_data_0_split <- data
I1209 18:28:59.300906  3521 net.cpp:408] data_data_0_split -> data_data_0_split_0
I1209 18:28:59.300915  3521 net.cpp:408] data_data_0_split -> data_data_0_split_1
I1209 18:28:59.300921  3521 net.cpp:408] data_data_0_split -> data_data_0_split_2
I1209 18:28:59.300930  3521 net.cpp:408] data_data_0_split -> data_data_0_split_3
I1209 18:28:59.300935  3521 net.cpp:408] data_data_0_split -> data_data_0_split_4
I1209 18:28:59.300941  3521 net.cpp:408] data_data_0_split -> data_data_0_split_5
I1209 18:28:59.300947  3521 net.cpp:408] data_data_0_split -> data_data_0_split_6
I1209 18:28:59.301033  3521 net.cpp:150] Setting up data_data_0_split
I1209 18:28:59.301038  3521 net.cpp:157] Top shape: 1 3 300 510 (459000)
I1209 18:28:59.301043  3521 net.cpp:157] Top shape: 1 3 300 510 (459000)
I1209 18:28:59.301048  3521 net.cpp:157] Top shape: 1 3 300 510 (459000)
I1209 18:28:59.301053  3521 net.cpp:157] Top shape: 1 3 300 510 (459000)
I1209 18:28:59.301057  3521 net.cpp:157] Top shape: 1 3 300 510 (459000)
I1209 18:28:59.301061  3521 net.cpp:157] Top shape: 1 3 300 510 (459000)
I1209 18:28:59.301066  3521 net.cpp:157] Top shape: 1 3 300 510 (459000)
I1209 18:28:59.301070  3521 net.cpp:165] Memory required for data: 14688032
I1209 18:28:59.301074  3521 layer_factory.hpp:77] Creating layer conv1_1
I1209 18:28:59.301084  3521 net.cpp:100] Creating Layer conv1_1
I1209 18:28:59.301086  3521 net.cpp:434] conv1_1 <- data_data_0_split_0
I1209 18:28:59.301093  3521 net.cpp:408] conv1_1 -> conv1_1
I1209 18:28:59.302745  3521 net.cpp:150] Setting up conv1_1
I1209 18:28:59.302753  3521 net.cpp:157] Top shape: 1 64 300 510 (9792000)
I1209 18:28:59.302757  3521 net.cpp:165] Memory required for data: 53856032
I1209 18:28:59.302767  3521 layer_factory.hpp:77] Creating layer relu1_1
I1209 18:28:59.302773  3521 net.cpp:100] Creating Layer relu1_1
I1209 18:28:59.302776  3521 net.cpp:434] relu1_1 <- conv1_1
I1209 18:28:59.302781  3521 net.cpp:395] relu1_1 -> conv1_1 (in-place)
I1209 18:28:59.303107  3521 net.cpp:150] Setting up relu1_1
I1209 18:28:59.303114  3521 net.cpp:157] Top shape: 1 64 300 510 (9792000)
I1209 18:28:59.303117  3521 net.cpp:165] Memory required for data: 93024032
I1209 18:28:59.303120  3521 layer_factory.hpp:77] Creating layer conv1_2
I1209 18:28:59.303129  3521 net.cpp:100] Creating Layer conv1_2
I1209 18:28:59.303133  3521 net.cpp:434] conv1_2 <- conv1_1
I1209 18:28:59.303138  3521 net.cpp:408] conv1_2 -> conv1_2
I1209 18:28:59.304805  3521 net.cpp:150] Setting up conv1_2
I1209 18:28:59.304814  3521 net.cpp:157] Top shape: 1 64 300 510 (9792000)
I1209 18:28:59.304817  3521 net.cpp:165] Memory required for data: 132192032
I1209 18:28:59.304826  3521 layer_factory.hpp:77] Creating layer relu1_2
I1209 18:28:59.304841  3521 net.cpp:100] Creating Layer relu1_2
I1209 18:28:59.304846  3521 net.cpp:434] relu1_2 <- conv1_2
I1209 18:28:59.304849  3521 net.cpp:395] relu1_2 -> conv1_2 (in-place)
I1209 18:28:59.305153  3521 net.cpp:150] Setting up relu1_2
I1209 18:28:59.305160  3521 net.cpp:157] Top shape: 1 64 300 510 (9792000)
I1209 18:28:59.305163  3521 net.cpp:165] Memory required for data: 171360032
I1209 18:28:59.305166  3521 layer_factory.hpp:77] Creating layer pool1
I1209 18:28:59.305172  3521 net.cpp:100] Creating Layer pool1
I1209 18:28:59.305176  3521 net.cpp:434] pool1 <- conv1_2
I1209 18:28:59.305181  3521 net.cpp:408] pool1 -> pool1
I1209 18:28:59.305217  3521 net.cpp:150] Setting up pool1
I1209 18:28:59.305220  3521 net.cpp:157] Top shape: 1 64 150 255 (2448000)
I1209 18:28:59.305223  3521 net.cpp:165] Memory required for data: 181152032
I1209 18:28:59.305227  3521 layer_factory.hpp:77] Creating layer conv2_1
I1209 18:28:59.305234  3521 net.cpp:100] Creating Layer conv2_1
I1209 18:28:59.305238  3521 net.cpp:434] conv2_1 <- pool1
I1209 18:28:59.305243  3521 net.cpp:408] conv2_1 -> conv2_1
I1209 18:28:59.306968  3521 net.cpp:150] Setting up conv2_1
I1209 18:28:59.306977  3521 net.cpp:157] Top shape: 1 128 150 255 (4896000)
I1209 18:28:59.306979  3521 net.cpp:165] Memory required for data: 200736032
I1209 18:28:59.306988  3521 layer_factory.hpp:77] Creating layer relu2_1
I1209 18:28:59.307000  3521 net.cpp:100] Creating Layer relu2_1
I1209 18:28:59.307004  3521 net.cpp:434] relu2_1 <- conv2_1
I1209 18:28:59.307008  3521 net.cpp:395] relu2_1 -> conv2_1 (in-place)
I1209 18:28:59.307509  3521 net.cpp:150] Setting up relu2_1
I1209 18:28:59.307518  3521 net.cpp:157] Top shape: 1 128 150 255 (4896000)
I1209 18:28:59.307519  3521 net.cpp:165] Memory required for data: 220320032
I1209 18:28:59.307523  3521 layer_factory.hpp:77] Creating layer conv2_2
I1209 18:28:59.307530  3521 net.cpp:100] Creating Layer conv2_2
I1209 18:28:59.307533  3521 net.cpp:434] conv2_2 <- conv2_1
I1209 18:28:59.307539  3521 net.cpp:408] conv2_2 -> conv2_2
I1209 18:28:59.309615  3521 net.cpp:150] Setting up conv2_2
I1209 18:28:59.309623  3521 net.cpp:157] Top shape: 1 128 150 255 (4896000)
I1209 18:28:59.309628  3521 net.cpp:165] Memory required for data: 239904032
I1209 18:28:59.309633  3521 layer_factory.hpp:77] Creating layer relu2_2
I1209 18:28:59.309640  3521 net.cpp:100] Creating Layer relu2_2
I1209 18:28:59.309644  3521 net.cpp:434] relu2_2 <- conv2_2
I1209 18:28:59.309649  3521 net.cpp:395] relu2_2 -> conv2_2 (in-place)
I1209 18:28:59.310009  3521 net.cpp:150] Setting up relu2_2
I1209 18:28:59.310016  3521 net.cpp:157] Top shape: 1 128 150 255 (4896000)
I1209 18:28:59.310019  3521 net.cpp:165] Memory required for data: 259488032
I1209 18:28:59.310024  3521 layer_factory.hpp:77] Creating layer pool2
I1209 18:28:59.310029  3521 net.cpp:100] Creating Layer pool2
I1209 18:28:59.310031  3521 net.cpp:434] pool2 <- conv2_2
I1209 18:28:59.310039  3521 net.cpp:408] pool2 -> pool2
I1209 18:28:59.310075  3521 net.cpp:150] Setting up pool2
I1209 18:28:59.310081  3521 net.cpp:157] Top shape: 1 128 75 128 (1228800)
I1209 18:28:59.310083  3521 net.cpp:165] Memory required for data: 264403232
I1209 18:28:59.310086  3521 layer_factory.hpp:77] Creating layer conv3_1
I1209 18:28:59.310094  3521 net.cpp:100] Creating Layer conv3_1
I1209 18:28:59.310097  3521 net.cpp:434] conv3_1 <- pool2
I1209 18:28:59.310103  3521 net.cpp:408] conv3_1 -> conv3_1
I1209 18:28:59.313665  3521 net.cpp:150] Setting up conv3_1
I1209 18:28:59.313676  3521 net.cpp:157] Top shape: 1 256 75 128 (2457600)
I1209 18:28:59.313679  3521 net.cpp:165] Memory required for data: 274233632
I1209 18:28:59.313691  3521 layer_factory.hpp:77] Creating layer relu3_1
I1209 18:28:59.313699  3521 net.cpp:100] Creating Layer relu3_1
I1209 18:28:59.313702  3521 net.cpp:434] relu3_1 <- conv3_1
I1209 18:28:59.313707  3521 net.cpp:395] relu3_1 -> conv3_1 (in-place)
I1209 18:28:59.314065  3521 net.cpp:150] Setting up relu3_1
I1209 18:28:59.314071  3521 net.cpp:157] Top shape: 1 256 75 128 (2457600)
I1209 18:28:59.314085  3521 net.cpp:165] Memory required for data: 284064032
I1209 18:28:59.314090  3521 layer_factory.hpp:77] Creating layer conv3_2
I1209 18:28:59.314098  3521 net.cpp:100] Creating Layer conv3_2
I1209 18:28:59.314101  3521 net.cpp:434] conv3_2 <- conv3_1
I1209 18:28:59.314110  3521 net.cpp:408] conv3_2 -> conv3_2
I1209 18:28:59.318378  3521 net.cpp:150] Setting up conv3_2
I1209 18:28:59.318393  3521 net.cpp:157] Top shape: 1 256 75 128 (2457600)
I1209 18:28:59.318397  3521 net.cpp:165] Memory required for data: 293894432
I1209 18:28:59.318404  3521 layer_factory.hpp:77] Creating layer relu3_2
I1209 18:28:59.318415  3521 net.cpp:100] Creating Layer relu3_2
I1209 18:28:59.318419  3521 net.cpp:434] relu3_2 <- conv3_2
I1209 18:28:59.318425  3521 net.cpp:395] relu3_2 -> conv3_2 (in-place)
I1209 18:28:59.318974  3521 net.cpp:150] Setting up relu3_2
I1209 18:28:59.318980  3521 net.cpp:157] Top shape: 1 256 75 128 (2457600)
I1209 18:28:59.318984  3521 net.cpp:165] Memory required for data: 303724832
I1209 18:28:59.318986  3521 layer_factory.hpp:77] Creating layer conv3_3
I1209 18:28:59.319003  3521 net.cpp:100] Creating Layer conv3_3
I1209 18:28:59.319006  3521 net.cpp:434] conv3_3 <- conv3_2
I1209 18:28:59.319013  3521 net.cpp:408] conv3_3 -> conv3_3
I1209 18:28:59.323127  3521 net.cpp:150] Setting up conv3_3
I1209 18:28:59.323143  3521 net.cpp:157] Top shape: 1 256 75 128 (2457600)
I1209 18:28:59.323145  3521 net.cpp:165] Memory required for data: 313555232
I1209 18:28:59.323153  3521 layer_factory.hpp:77] Creating layer relu3_3
I1209 18:28:59.323163  3521 net.cpp:100] Creating Layer relu3_3
I1209 18:28:59.323166  3521 net.cpp:434] relu3_3 <- conv3_3
I1209 18:28:59.323173  3521 net.cpp:395] relu3_3 -> conv3_3 (in-place)
I1209 18:28:59.323554  3521 net.cpp:150] Setting up relu3_3
I1209 18:28:59.323561  3521 net.cpp:157] Top shape: 1 256 75 128 (2457600)
I1209 18:28:59.323565  3521 net.cpp:165] Memory required for data: 323385632
I1209 18:28:59.323568  3521 layer_factory.hpp:77] Creating layer pool3
I1209 18:28:59.323575  3521 net.cpp:100] Creating Layer pool3
I1209 18:28:59.323578  3521 net.cpp:434] pool3 <- conv3_3
I1209 18:28:59.323585  3521 net.cpp:408] pool3 -> pool3
I1209 18:28:59.323624  3521 net.cpp:150] Setting up pool3
I1209 18:28:59.323631  3521 net.cpp:157] Top shape: 1 256 38 64 (622592)
I1209 18:28:59.323633  3521 net.cpp:165] Memory required for data: 325876000
I1209 18:28:59.323637  3521 layer_factory.hpp:77] Creating layer conv4_1
I1209 18:28:59.323647  3521 net.cpp:100] Creating Layer conv4_1
I1209 18:28:59.323649  3521 net.cpp:434] conv4_1 <- pool3
I1209 18:28:59.323657  3521 net.cpp:408] conv4_1 -> conv4_1
I1209 18:28:59.330049  3521 net.cpp:150] Setting up conv4_1
I1209 18:28:59.330063  3521 net.cpp:157] Top shape: 1 512 38 64 (1245184)
I1209 18:28:59.330066  3521 net.cpp:165] Memory required for data: 330856736
I1209 18:28:59.330073  3521 layer_factory.hpp:77] Creating layer relu4_1
I1209 18:28:59.330081  3521 net.cpp:100] Creating Layer relu4_1
I1209 18:28:59.330085  3521 net.cpp:434] relu4_1 <- conv4_1
I1209 18:28:59.330092  3521 net.cpp:395] relu4_1 -> conv4_1 (in-place)
I1209 18:28:59.330451  3521 net.cpp:150] Setting up relu4_1
I1209 18:28:59.330457  3521 net.cpp:157] Top shape: 1 512 38 64 (1245184)
I1209 18:28:59.330461  3521 net.cpp:165] Memory required for data: 335837472
I1209 18:28:59.330463  3521 layer_factory.hpp:77] Creating layer conv4_2
I1209 18:28:59.330472  3521 net.cpp:100] Creating Layer conv4_2
I1209 18:28:59.330476  3521 net.cpp:434] conv4_2 <- conv4_1
I1209 18:28:59.330482  3521 net.cpp:408] conv4_2 -> conv4_2
I1209 18:28:59.341233  3521 net.cpp:150] Setting up conv4_2
I1209 18:28:59.341248  3521 net.cpp:157] Top shape: 1 512 38 64 (1245184)
I1209 18:28:59.341250  3521 net.cpp:165] Memory required for data: 340818208
I1209 18:28:59.341264  3521 layer_factory.hpp:77] Creating layer relu4_2
I1209 18:28:59.341274  3521 net.cpp:100] Creating Layer relu4_2
I1209 18:28:59.341277  3521 net.cpp:434] relu4_2 <- conv4_2
I1209 18:28:59.341284  3521 net.cpp:395] relu4_2 -> conv4_2 (in-place)
I1209 18:28:59.341886  3521 net.cpp:150] Setting up relu4_2
I1209 18:28:59.341892  3521 net.cpp:157] Top shape: 1 512 38 64 (1245184)
I1209 18:28:59.341895  3521 net.cpp:165] Memory required for data: 345798944
I1209 18:28:59.341899  3521 layer_factory.hpp:77] Creating layer conv4_3
I1209 18:28:59.341908  3521 net.cpp:100] Creating Layer conv4_3
I1209 18:28:59.341912  3521 net.cpp:434] conv4_3 <- conv4_2
I1209 18:28:59.341918  3521 net.cpp:408] conv4_3 -> conv4_3
I1209 18:28:59.352581  3521 net.cpp:150] Setting up conv4_3
I1209 18:28:59.352596  3521 net.cpp:157] Top shape: 1 512 38 64 (1245184)
I1209 18:28:59.352598  3521 net.cpp:165] Memory required for data: 350779680
I1209 18:28:59.352607  3521 layer_factory.hpp:77] Creating layer relu4_3
I1209 18:28:59.352614  3521 net.cpp:100] Creating Layer relu4_3
I1209 18:28:59.352618  3521 net.cpp:434] relu4_3 <- conv4_3
I1209 18:28:59.352625  3521 net.cpp:395] relu4_3 -> conv4_3 (in-place)
I1209 18:28:59.353209  3521 net.cpp:150] Setting up relu4_3
I1209 18:28:59.353216  3521 net.cpp:157] Top shape: 1 512 38 64 (1245184)
I1209 18:28:59.353219  3521 net.cpp:165] Memory required for data: 355760416
I1209 18:28:59.353224  3521 layer_factory.hpp:77] Creating layer conv4_3_relu4_3_0_split
I1209 18:28:59.353230  3521 net.cpp:100] Creating Layer conv4_3_relu4_3_0_split
I1209 18:28:59.353235  3521 net.cpp:434] conv4_3_relu4_3_0_split <- conv4_3
I1209 18:28:59.353240  3521 net.cpp:408] conv4_3_relu4_3_0_split -> conv4_3_relu4_3_0_split_0
I1209 18:28:59.353247  3521 net.cpp:408] conv4_3_relu4_3_0_split -> conv4_3_relu4_3_0_split_1
I1209 18:28:59.353283  3521 net.cpp:150] Setting up conv4_3_relu4_3_0_split
I1209 18:28:59.353288  3521 net.cpp:157] Top shape: 1 512 38 64 (1245184)
I1209 18:28:59.353293  3521 net.cpp:157] Top shape: 1 512 38 64 (1245184)
I1209 18:28:59.353296  3521 net.cpp:165] Memory required for data: 365721888
I1209 18:28:59.353299  3521 layer_factory.hpp:77] Creating layer pool4
I1209 18:28:59.353307  3521 net.cpp:100] Creating Layer pool4
I1209 18:28:59.353309  3521 net.cpp:434] pool4 <- conv4_3_relu4_3_0_split_0
I1209 18:28:59.353314  3521 net.cpp:408] pool4 -> pool4
I1209 18:28:59.353348  3521 net.cpp:150] Setting up pool4
I1209 18:28:59.353353  3521 net.cpp:157] Top shape: 1 512 19 32 (311296)
I1209 18:28:59.353355  3521 net.cpp:165] Memory required for data: 366967072
I1209 18:28:59.353358  3521 layer_factory.hpp:77] Creating layer conv5_1
I1209 18:28:59.353368  3521 net.cpp:100] Creating Layer conv5_1
I1209 18:28:59.353370  3521 net.cpp:434] conv5_1 <- pool4
I1209 18:28:59.353376  3521 net.cpp:408] conv5_1 -> conv5_1
I1209 18:28:59.364243  3521 net.cpp:150] Setting up conv5_1
I1209 18:28:59.364261  3521 net.cpp:157] Top shape: 1 512 19 32 (311296)
I1209 18:28:59.364264  3521 net.cpp:165] Memory required for data: 368212256
I1209 18:28:59.364274  3521 layer_factory.hpp:77] Creating layer relu5_1
I1209 18:28:59.364282  3521 net.cpp:100] Creating Layer relu5_1
I1209 18:28:59.364286  3521 net.cpp:434] relu5_1 <- conv5_1
I1209 18:28:59.364295  3521 net.cpp:395] relu5_1 -> conv5_1 (in-place)
I1209 18:28:59.364666  3521 net.cpp:150] Setting up relu5_1
I1209 18:28:59.364672  3521 net.cpp:157] Top shape: 1 512 19 32 (311296)
I1209 18:28:59.364675  3521 net.cpp:165] Memory required for data: 369457440
I1209 18:28:59.364679  3521 layer_factory.hpp:77] Creating layer conv5_2
I1209 18:28:59.364689  3521 net.cpp:100] Creating Layer conv5_2
I1209 18:28:59.364692  3521 net.cpp:434] conv5_2 <- conv5_1
I1209 18:28:59.364698  3521 net.cpp:408] conv5_2 -> conv5_2
I1209 18:28:59.375689  3521 net.cpp:150] Setting up conv5_2
I1209 18:28:59.375705  3521 net.cpp:157] Top shape: 1 512 19 32 (311296)
I1209 18:28:59.375707  3521 net.cpp:165] Memory required for data: 370702624
I1209 18:28:59.375715  3521 layer_factory.hpp:77] Creating layer relu5_2
I1209 18:28:59.375722  3521 net.cpp:100] Creating Layer relu5_2
I1209 18:28:59.375727  3521 net.cpp:434] relu5_2 <- conv5_2
I1209 18:28:59.375732  3521 net.cpp:395] relu5_2 -> conv5_2 (in-place)
I1209 18:28:59.376089  3521 net.cpp:150] Setting up relu5_2
I1209 18:28:59.376106  3521 net.cpp:157] Top shape: 1 512 19 32 (311296)
I1209 18:28:59.376108  3521 net.cpp:165] Memory required for data: 371947808
I1209 18:28:59.376112  3521 layer_factory.hpp:77] Creating layer conv5_3
I1209 18:28:59.376121  3521 net.cpp:100] Creating Layer conv5_3
I1209 18:28:59.376125  3521 net.cpp:434] conv5_3 <- conv5_2
I1209 18:28:59.376132  3521 net.cpp:408] conv5_3 -> conv5_3
I1209 18:28:59.387126  3521 net.cpp:150] Setting up conv5_3
I1209 18:28:59.387141  3521 net.cpp:157] Top shape: 1 512 19 32 (311296)
I1209 18:28:59.387145  3521 net.cpp:165] Memory required for data: 373192992
I1209 18:28:59.387153  3521 layer_factory.hpp:77] Creating layer relu5_3
I1209 18:28:59.387164  3521 net.cpp:100] Creating Layer relu5_3
I1209 18:28:59.387168  3521 net.cpp:434] relu5_3 <- conv5_3
I1209 18:28:59.387174  3521 net.cpp:395] relu5_3 -> conv5_3 (in-place)
I1209 18:28:59.387742  3521 net.cpp:150] Setting up relu5_3
I1209 18:28:59.387749  3521 net.cpp:157] Top shape: 1 512 19 32 (311296)
I1209 18:28:59.387751  3521 net.cpp:165] Memory required for data: 374438176
I1209 18:28:59.387755  3521 layer_factory.hpp:77] Creating layer pool5
I1209 18:28:59.387764  3521 net.cpp:100] Creating Layer pool5
I1209 18:28:59.387768  3521 net.cpp:434] pool5 <- conv5_3
I1209 18:28:59.387773  3521 net.cpp:408] pool5 -> pool5
I1209 18:28:59.387812  3521 net.cpp:150] Setting up pool5
I1209 18:28:59.387818  3521 net.cpp:157] Top shape: 1 512 19 32 (311296)
I1209 18:28:59.387821  3521 net.cpp:165] Memory required for data: 375683360
I1209 18:28:59.387823  3521 layer_factory.hpp:77] Creating layer fc6
I1209 18:28:59.387832  3521 net.cpp:100] Creating Layer fc6
I1209 18:28:59.387836  3521 net.cpp:434] fc6 <- pool5
I1209 18:28:59.387842  3521 net.cpp:408] fc6 -> fc6
I1209 18:28:59.405895  3521 net.cpp:150] Setting up fc6
I1209 18:28:59.405915  3521 net.cpp:157] Top shape: 1 1024 19 32 (622592)
I1209 18:28:59.405917  3521 net.cpp:165] Memory required for data: 378173728
I1209 18:28:59.405925  3521 layer_factory.hpp:77] Creating layer relu6
I1209 18:28:59.405933  3521 net.cpp:100] Creating Layer relu6
I1209 18:28:59.405938  3521 net.cpp:434] relu6 <- fc6
I1209 18:28:59.405944  3521 net.cpp:395] relu6 -> fc6 (in-place)
I1209 18:28:59.406358  3521 net.cpp:150] Setting up relu6
I1209 18:28:59.406365  3521 net.cpp:157] Top shape: 1 1024 19 32 (622592)
I1209 18:28:59.406368  3521 net.cpp:165] Memory required for data: 380664096
I1209 18:28:59.406373  3521 layer_factory.hpp:77] Creating layer fc7
I1209 18:28:59.406381  3521 net.cpp:100] Creating Layer fc7
I1209 18:28:59.406384  3521 net.cpp:434] fc7 <- fc6
I1209 18:28:59.406390  3521 net.cpp:408] fc7 -> fc7
I1209 18:28:59.412145  3521 net.cpp:150] Setting up fc7
I1209 18:28:59.412160  3521 net.cpp:157] Top shape: 1 1024 19 32 (622592)
I1209 18:28:59.412163  3521 net.cpp:165] Memory required for data: 383154464
I1209 18:28:59.412169  3521 layer_factory.hpp:77] Creating layer relu7
I1209 18:28:59.412178  3521 net.cpp:100] Creating Layer relu7
I1209 18:28:59.412183  3521 net.cpp:434] relu7 <- fc7
I1209 18:28:59.412189  3521 net.cpp:395] relu7 -> fc7 (in-place)
I1209 18:28:59.412766  3521 net.cpp:150] Setting up relu7
I1209 18:28:59.412776  3521 net.cpp:157] Top shape: 1 1024 19 32 (622592)
I1209 18:28:59.412780  3521 net.cpp:165] Memory required for data: 385644832
I1209 18:28:59.412783  3521 layer_factory.hpp:77] Creating layer fc7_relu7_0_split
I1209 18:28:59.412789  3521 net.cpp:100] Creating Layer fc7_relu7_0_split
I1209 18:28:59.412793  3521 net.cpp:434] fc7_relu7_0_split <- fc7
I1209 18:28:59.412799  3521 net.cpp:408] fc7_relu7_0_split -> fc7_relu7_0_split_0
I1209 18:28:59.412806  3521 net.cpp:408] fc7_relu7_0_split -> fc7_relu7_0_split_1
I1209 18:28:59.412817  3521 net.cpp:408] fc7_relu7_0_split -> fc7_relu7_0_split_2
I1209 18:28:59.412822  3521 net.cpp:408] fc7_relu7_0_split -> fc7_relu7_0_split_3
I1209 18:28:59.412881  3521 net.cpp:150] Setting up fc7_relu7_0_split
I1209 18:28:59.412887  3521 net.cpp:157] Top shape: 1 1024 19 32 (622592)
I1209 18:28:59.412904  3521 net.cpp:157] Top shape: 1 1024 19 32 (622592)
I1209 18:28:59.412909  3521 net.cpp:157] Top shape: 1 1024 19 32 (622592)
I1209 18:28:59.412912  3521 net.cpp:157] Top shape: 1 1024 19 32 (622592)
I1209 18:28:59.412915  3521 net.cpp:165] Memory required for data: 395606304
I1209 18:28:59.412919  3521 layer_factory.hpp:77] Creating layer ssd1_1
I1209 18:28:59.412928  3521 net.cpp:100] Creating Layer ssd1_1
I1209 18:28:59.412931  3521 net.cpp:434] ssd1_1 <- fc7_relu7_0_split_0
I1209 18:28:59.412938  3521 net.cpp:408] ssd1_1 -> ssd1_1
I1209 18:28:59.415855  3521 net.cpp:150] Setting up ssd1_1
I1209 18:28:59.415865  3521 net.cpp:157] Top shape: 1 256 19 32 (155648)
I1209 18:28:59.415869  3521 net.cpp:165] Memory required for data: 396228896
I1209 18:28:59.415875  3521 layer_factory.hpp:77] Creating layer ssd1_1_relu
I1209 18:28:59.415882  3521 net.cpp:100] Creating Layer ssd1_1_relu
I1209 18:28:59.415886  3521 net.cpp:434] ssd1_1_relu <- ssd1_1
I1209 18:28:59.415894  3521 net.cpp:395] ssd1_1_relu -> ssd1_1 (in-place)
I1209 18:28:59.416249  3521 net.cpp:150] Setting up ssd1_1_relu
I1209 18:28:59.416256  3521 net.cpp:157] Top shape: 1 256 19 32 (155648)
I1209 18:28:59.416258  3521 net.cpp:165] Memory required for data: 396851488
I1209 18:28:59.416262  3521 layer_factory.hpp:77] Creating layer ssd1_2
I1209 18:28:59.416272  3521 net.cpp:100] Creating Layer ssd1_2
I1209 18:28:59.416275  3521 net.cpp:434] ssd1_2 <- ssd1_1
I1209 18:28:59.416281  3521 net.cpp:408] ssd1_2 -> ssd1_2
I1209 18:28:59.422914  3521 net.cpp:150] Setting up ssd1_2
I1209 18:28:59.422930  3521 net.cpp:157] Top shape: 1 512 10 16 (81920)
I1209 18:28:59.422933  3521 net.cpp:165] Memory required for data: 397179168
I1209 18:28:59.422950  3521 layer_factory.hpp:77] Creating layer ssd1_2_relu
I1209 18:28:59.422958  3521 net.cpp:100] Creating Layer ssd1_2_relu
I1209 18:28:59.422962  3521 net.cpp:434] ssd1_2_relu <- ssd1_2
I1209 18:28:59.422968  3521 net.cpp:395] ssd1_2_relu -> ssd1_2 (in-place)
I1209 18:28:59.423346  3521 net.cpp:150] Setting up ssd1_2_relu
I1209 18:28:59.423354  3521 net.cpp:157] Top shape: 1 512 10 16 (81920)
I1209 18:28:59.423357  3521 net.cpp:165] Memory required for data: 397506848
I1209 18:28:59.423360  3521 layer_factory.hpp:77] Creating layer ssd1_2_ssd1_2_relu_0_split
I1209 18:28:59.423367  3521 net.cpp:100] Creating Layer ssd1_2_ssd1_2_relu_0_split
I1209 18:28:59.423372  3521 net.cpp:434] ssd1_2_ssd1_2_relu_0_split <- ssd1_2
I1209 18:28:59.423375  3521 net.cpp:408] ssd1_2_ssd1_2_relu_0_split -> ssd1_2_ssd1_2_relu_0_split_0
I1209 18:28:59.423382  3521 net.cpp:408] ssd1_2_ssd1_2_relu_0_split -> ssd1_2_ssd1_2_relu_0_split_1
I1209 18:28:59.423388  3521 net.cpp:408] ssd1_2_ssd1_2_relu_0_split -> ssd1_2_ssd1_2_relu_0_split_2
I1209 18:28:59.423394  3521 net.cpp:408] ssd1_2_ssd1_2_relu_0_split -> ssd1_2_ssd1_2_relu_0_split_3
I1209 18:28:59.423455  3521 net.cpp:150] Setting up ssd1_2_ssd1_2_relu_0_split
I1209 18:28:59.423460  3521 net.cpp:157] Top shape: 1 512 10 16 (81920)
I1209 18:28:59.423465  3521 net.cpp:157] Top shape: 1 512 10 16 (81920)
I1209 18:28:59.423470  3521 net.cpp:157] Top shape: 1 512 10 16 (81920)
I1209 18:28:59.423473  3521 net.cpp:157] Top shape: 1 512 10 16 (81920)
I1209 18:28:59.423476  3521 net.cpp:165] Memory required for data: 398817568
I1209 18:28:59.423480  3521 layer_factory.hpp:77] Creating layer ssd2_1
I1209 18:28:59.423490  3521 net.cpp:100] Creating Layer ssd2_1
I1209 18:28:59.423492  3521 net.cpp:434] ssd2_1 <- ssd1_2_ssd1_2_relu_0_split_0
I1209 18:28:59.423498  3521 net.cpp:408] ssd2_1 -> ssd2_1
I1209 18:28:59.425231  3521 net.cpp:150] Setting up ssd2_1
I1209 18:28:59.425240  3521 net.cpp:157] Top shape: 1 128 10 16 (20480)
I1209 18:28:59.425242  3521 net.cpp:165] Memory required for data: 398899488
I1209 18:28:59.425249  3521 layer_factory.hpp:77] Creating layer ssd2_1_relu
I1209 18:28:59.425254  3521 net.cpp:100] Creating Layer ssd2_1_relu
I1209 18:28:59.425259  3521 net.cpp:434] ssd2_1_relu <- ssd2_1
I1209 18:28:59.425264  3521 net.cpp:395] ssd2_1_relu -> ssd2_1 (in-place)
I1209 18:28:59.425829  3521 net.cpp:150] Setting up ssd2_1_relu
I1209 18:28:59.425845  3521 net.cpp:157] Top shape: 1 128 10 16 (20480)
I1209 18:28:59.425848  3521 net.cpp:165] Memory required for data: 398981408
I1209 18:28:59.425853  3521 layer_factory.hpp:77] Creating layer ssd2_2
I1209 18:28:59.425861  3521 net.cpp:100] Creating Layer ssd2_2
I1209 18:28:59.425865  3521 net.cpp:434] ssd2_2 <- ssd2_1
I1209 18:28:59.425873  3521 net.cpp:408] ssd2_2 -> ssd2_2
I1209 18:28:59.429003  3521 net.cpp:150] Setting up ssd2_2
I1209 18:28:59.429014  3521 net.cpp:157] Top shape: 1 256 5 8 (10240)
I1209 18:28:59.429018  3521 net.cpp:165] Memory required for data: 399022368
I1209 18:28:59.429024  3521 layer_factory.hpp:77] Creating layer ssd2_2_relu
I1209 18:28:59.429031  3521 net.cpp:100] Creating Layer ssd2_2_relu
I1209 18:28:59.429035  3521 net.cpp:434] ssd2_2_relu <- ssd2_2
I1209 18:28:59.429042  3521 net.cpp:395] ssd2_2_relu -> ssd2_2 (in-place)
I1209 18:28:59.429628  3521 net.cpp:150] Setting up ssd2_2_relu
I1209 18:28:59.429636  3521 net.cpp:157] Top shape: 1 256 5 8 (10240)
I1209 18:28:59.429638  3521 net.cpp:165] Memory required for data: 399063328
I1209 18:28:59.429641  3521 layer_factory.hpp:77] Creating layer ssd2_2_ssd2_2_relu_0_split
I1209 18:28:59.429649  3521 net.cpp:100] Creating Layer ssd2_2_ssd2_2_relu_0_split
I1209 18:28:59.429653  3521 net.cpp:434] ssd2_2_ssd2_2_relu_0_split <- ssd2_2
I1209 18:28:59.429658  3521 net.cpp:408] ssd2_2_ssd2_2_relu_0_split -> ssd2_2_ssd2_2_relu_0_split_0
I1209 18:28:59.429666  3521 net.cpp:408] ssd2_2_ssd2_2_relu_0_split -> ssd2_2_ssd2_2_relu_0_split_1
I1209 18:28:59.429672  3521 net.cpp:408] ssd2_2_ssd2_2_relu_0_split -> ssd2_2_ssd2_2_relu_0_split_2
I1209 18:28:59.429678  3521 net.cpp:408] ssd2_2_ssd2_2_relu_0_split -> ssd2_2_ssd2_2_relu_0_split_3
I1209 18:28:59.429740  3521 net.cpp:150] Setting up ssd2_2_ssd2_2_relu_0_split
I1209 18:28:59.429745  3521 net.cpp:157] Top shape: 1 256 5 8 (10240)
I1209 18:28:59.429750  3521 net.cpp:157] Top shape: 1 256 5 8 (10240)
I1209 18:28:59.429754  3521 net.cpp:157] Top shape: 1 256 5 8 (10240)
I1209 18:28:59.429759  3521 net.cpp:157] Top shape: 1 256 5 8 (10240)
I1209 18:28:59.429761  3521 net.cpp:165] Memory required for data: 399227168
I1209 18:28:59.429765  3521 layer_factory.hpp:77] Creating layer ssd3_1
I1209 18:28:59.429775  3521 net.cpp:100] Creating Layer ssd3_1
I1209 18:28:59.429778  3521 net.cpp:434] ssd3_1 <- ssd2_2_ssd2_2_relu_0_split_0
I1209 18:28:59.429783  3521 net.cpp:408] ssd3_1 -> ssd3_1
I1209 18:28:59.431413  3521 net.cpp:150] Setting up ssd3_1
I1209 18:28:59.431421  3521 net.cpp:157] Top shape: 1 128 5 8 (5120)
I1209 18:28:59.431424  3521 net.cpp:165] Memory required for data: 399247648
I1209 18:28:59.431430  3521 layer_factory.hpp:77] Creating layer ssd3_1_relu
I1209 18:28:59.431437  3521 net.cpp:100] Creating Layer ssd3_1_relu
I1209 18:28:59.431442  3521 net.cpp:434] ssd3_1_relu <- ssd3_1
I1209 18:28:59.431447  3521 net.cpp:395] ssd3_1_relu -> ssd3_1 (in-place)
I1209 18:28:59.431803  3521 net.cpp:150] Setting up ssd3_1_relu
I1209 18:28:59.431813  3521 net.cpp:157] Top shape: 1 128 5 8 (5120)
I1209 18:28:59.431816  3521 net.cpp:165] Memory required for data: 399268128
I1209 18:28:59.431819  3521 layer_factory.hpp:77] Creating layer ssd3_2
I1209 18:28:59.431826  3521 net.cpp:100] Creating Layer ssd3_2
I1209 18:28:59.431829  3521 net.cpp:434] ssd3_2 <- ssd3_1
I1209 18:28:59.431836  3521 net.cpp:408] ssd3_2 -> ssd3_2
I1209 18:28:59.435246  3521 net.cpp:150] Setting up ssd3_2
I1209 18:28:59.435256  3521 net.cpp:157] Top shape: 1 256 3 6 (4608)
I1209 18:28:59.435259  3521 net.cpp:165] Memory required for data: 399286560
I1209 18:28:59.435266  3521 layer_factory.hpp:77] Creating layer ssd3_2_relu
I1209 18:28:59.435272  3521 net.cpp:100] Creating Layer ssd3_2_relu
I1209 18:28:59.435277  3521 net.cpp:434] ssd3_2_relu <- ssd3_2
I1209 18:28:59.435283  3521 net.cpp:395] ssd3_2_relu -> ssd3_2 (in-place)
I1209 18:28:59.435655  3521 net.cpp:150] Setting up ssd3_2_relu
I1209 18:28:59.435662  3521 net.cpp:157] Top shape: 1 256 3 6 (4608)
I1209 18:28:59.435664  3521 net.cpp:165] Memory required for data: 399304992
I1209 18:28:59.435678  3521 layer_factory.hpp:77] Creating layer ssd3_2_ssd3_2_relu_0_split
I1209 18:28:59.435685  3521 net.cpp:100] Creating Layer ssd3_2_ssd3_2_relu_0_split
I1209 18:28:59.435688  3521 net.cpp:434] ssd3_2_ssd3_2_relu_0_split <- ssd3_2
I1209 18:28:59.435693  3521 net.cpp:408] ssd3_2_ssd3_2_relu_0_split -> ssd3_2_ssd3_2_relu_0_split_0
I1209 18:28:59.435700  3521 net.cpp:408] ssd3_2_ssd3_2_relu_0_split -> ssd3_2_ssd3_2_relu_0_split_1
I1209 18:28:59.435706  3521 net.cpp:408] ssd3_2_ssd3_2_relu_0_split -> ssd3_2_ssd3_2_relu_0_split_2
I1209 18:28:59.435712  3521 net.cpp:408] ssd3_2_ssd3_2_relu_0_split -> ssd3_2_ssd3_2_relu_0_split_3
I1209 18:28:59.435773  3521 net.cpp:150] Setting up ssd3_2_ssd3_2_relu_0_split
I1209 18:28:59.435780  3521 net.cpp:157] Top shape: 1 256 3 6 (4608)
I1209 18:28:59.435786  3521 net.cpp:157] Top shape: 1 256 3 6 (4608)
I1209 18:28:59.435789  3521 net.cpp:157] Top shape: 1 256 3 6 (4608)
I1209 18:28:59.435793  3521 net.cpp:157] Top shape: 1 256 3 6 (4608)
I1209 18:28:59.435796  3521 net.cpp:165] Memory required for data: 399378720
I1209 18:28:59.435799  3521 layer_factory.hpp:77] Creating layer ssd4_1
I1209 18:28:59.435808  3521 net.cpp:100] Creating Layer ssd4_1
I1209 18:28:59.435811  3521 net.cpp:434] ssd4_1 <- ssd3_2_ssd3_2_relu_0_split_0
I1209 18:28:59.435817  3521 net.cpp:408] ssd4_1 -> ssd4_1
I1209 18:28:59.437458  3521 net.cpp:150] Setting up ssd4_1
I1209 18:28:59.437466  3521 net.cpp:157] Top shape: 1 128 3 6 (2304)
I1209 18:28:59.437469  3521 net.cpp:165] Memory required for data: 399387936
I1209 18:28:59.437475  3521 layer_factory.hpp:77] Creating layer ssd4_1_relu
I1209 18:28:59.437482  3521 net.cpp:100] Creating Layer ssd4_1_relu
I1209 18:28:59.437486  3521 net.cpp:434] ssd4_1_relu <- ssd4_1
I1209 18:28:59.437490  3521 net.cpp:395] ssd4_1_relu -> ssd4_1 (in-place)
I1209 18:28:59.438067  3521 net.cpp:150] Setting up ssd4_1_relu
I1209 18:28:59.438076  3521 net.cpp:157] Top shape: 1 128 3 6 (2304)
I1209 18:28:59.438079  3521 net.cpp:165] Memory required for data: 399397152
I1209 18:28:59.438082  3521 layer_factory.hpp:77] Creating layer ssd4_2
I1209 18:28:59.438091  3521 net.cpp:100] Creating Layer ssd4_2
I1209 18:28:59.438094  3521 net.cpp:434] ssd4_2 <- ssd4_1
I1209 18:28:59.438102  3521 net.cpp:408] ssd4_2 -> ssd4_2
I1209 18:28:59.441319  3521 net.cpp:150] Setting up ssd4_2
I1209 18:28:59.441330  3521 net.cpp:157] Top shape: 1 256 1 4 (1024)
I1209 18:28:59.441334  3521 net.cpp:165] Memory required for data: 399401248
I1209 18:28:59.441340  3521 layer_factory.hpp:77] Creating layer ssd4_2_relu
I1209 18:28:59.441346  3521 net.cpp:100] Creating Layer ssd4_2_relu
I1209 18:28:59.441351  3521 net.cpp:434] ssd4_2_relu <- ssd4_2
I1209 18:28:59.441357  3521 net.cpp:395] ssd4_2_relu -> ssd4_2 (in-place)
I1209 18:28:59.441731  3521 net.cpp:150] Setting up ssd4_2_relu
I1209 18:28:59.441737  3521 net.cpp:157] Top shape: 1 256 1 4 (1024)
I1209 18:28:59.441740  3521 net.cpp:165] Memory required for data: 399405344
I1209 18:28:59.441745  3521 layer_factory.hpp:77] Creating layer ssd4_2_ssd4_2_relu_0_split
I1209 18:28:59.441751  3521 net.cpp:100] Creating Layer ssd4_2_ssd4_2_relu_0_split
I1209 18:28:59.441754  3521 net.cpp:434] ssd4_2_ssd4_2_relu_0_split <- ssd4_2
I1209 18:28:59.441759  3521 net.cpp:408] ssd4_2_ssd4_2_relu_0_split -> ssd4_2_ssd4_2_relu_0_split_0
I1209 18:28:59.441766  3521 net.cpp:408] ssd4_2_ssd4_2_relu_0_split -> ssd4_2_ssd4_2_relu_0_split_1
I1209 18:28:59.441773  3521 net.cpp:408] ssd4_2_ssd4_2_relu_0_split -> ssd4_2_ssd4_2_relu_0_split_2
I1209 18:28:59.441823  3521 net.cpp:150] Setting up ssd4_2_ssd4_2_relu_0_split
I1209 18:28:59.441828  3521 net.cpp:157] Top shape: 1 256 1 4 (1024)
I1209 18:28:59.441833  3521 net.cpp:157] Top shape: 1 256 1 4 (1024)
I1209 18:28:59.441838  3521 net.cpp:157] Top shape: 1 256 1 4 (1024)
I1209 18:28:59.441840  3521 net.cpp:165] Memory required for data: 399417632
I1209 18:28:59.441843  3521 layer_factory.hpp:77] Creating layer conv4_3_norm
I1209 18:28:59.441851  3521 net.cpp:100] Creating Layer conv4_3_norm
I1209 18:28:59.441864  3521 net.cpp:434] conv4_3_norm <- conv4_3_relu4_3_0_split_1
I1209 18:28:59.441870  3521 net.cpp:408] conv4_3_norm -> conv4_3_norm
I1209 18:28:59.442008  3521 net.cpp:150] Setting up conv4_3_norm
I1209 18:28:59.442014  3521 net.cpp:157] Top shape: 1 512 38 64 (1245184)
I1209 18:28:59.442016  3521 net.cpp:165] Memory required for data: 404398368
I1209 18:28:59.442023  3521 layer_factory.hpp:77] Creating layer conv4_3_norm_conv4_3_norm_0_split
I1209 18:28:59.442028  3521 net.cpp:100] Creating Layer conv4_3_norm_conv4_3_norm_0_split
I1209 18:28:59.442031  3521 net.cpp:434] conv4_3_norm_conv4_3_norm_0_split <- conv4_3_norm
I1209 18:28:59.442036  3521 net.cpp:408] conv4_3_norm_conv4_3_norm_0_split -> conv4_3_norm_conv4_3_norm_0_split_0
I1209 18:28:59.442042  3521 net.cpp:408] conv4_3_norm_conv4_3_norm_0_split -> conv4_3_norm_conv4_3_norm_0_split_1
I1209 18:28:59.442049  3521 net.cpp:408] conv4_3_norm_conv4_3_norm_0_split -> conv4_3_norm_conv4_3_norm_0_split_2
I1209 18:28:59.442091  3521 net.cpp:150] Setting up conv4_3_norm_conv4_3_norm_0_split
I1209 18:28:59.442096  3521 net.cpp:157] Top shape: 1 512 38 64 (1245184)
I1209 18:28:59.442101  3521 net.cpp:157] Top shape: 1 512 38 64 (1245184)
I1209 18:28:59.442104  3521 net.cpp:157] Top shape: 1 512 38 64 (1245184)
I1209 18:28:59.442108  3521 net.cpp:165] Memory required for data: 419340576
I1209 18:28:59.442111  3521 layer_factory.hpp:77] Creating layer conv4_3_norm_mbox_loc
I1209 18:28:59.442119  3521 net.cpp:100] Creating Layer conv4_3_norm_mbox_loc
I1209 18:28:59.442122  3521 net.cpp:434] conv4_3_norm_mbox_loc <- conv4_3_norm_conv4_3_norm_0_split_0
I1209 18:28:59.442128  3521 net.cpp:408] conv4_3_norm_mbox_loc -> conv4_3_norm_mbox_loc
I1209 18:28:59.444214  3521 net.cpp:150] Setting up conv4_3_norm_mbox_loc
I1209 18:28:59.444223  3521 net.cpp:157] Top shape: 1 8 38 64 (19456)
I1209 18:28:59.444226  3521 net.cpp:165] Memory required for data: 419418400
I1209 18:28:59.444233  3521 layer_factory.hpp:77] Creating layer conv4_3_norm_mbox_loc_perm
I1209 18:28:59.444241  3521 net.cpp:100] Creating Layer conv4_3_norm_mbox_loc_perm
I1209 18:28:59.444244  3521 net.cpp:434] conv4_3_norm_mbox_loc_perm <- conv4_3_norm_mbox_loc
I1209 18:28:59.444252  3521 net.cpp:408] conv4_3_norm_mbox_loc_perm -> conv4_3_norm_mbox_loc_perm
I1209 18:28:59.444347  3521 net.cpp:150] Setting up conv4_3_norm_mbox_loc_perm
I1209 18:28:59.444352  3521 net.cpp:157] Top shape: 1 38 64 8 (19456)
I1209 18:28:59.444355  3521 net.cpp:165] Memory required for data: 419496224
I1209 18:28:59.444358  3521 layer_factory.hpp:77] Creating layer conv4_3_norm_mbox_loc_flat
I1209 18:28:59.444365  3521 net.cpp:100] Creating Layer conv4_3_norm_mbox_loc_flat
I1209 18:28:59.444368  3521 net.cpp:434] conv4_3_norm_mbox_loc_flat <- conv4_3_norm_mbox_loc_perm
I1209 18:28:59.444375  3521 net.cpp:408] conv4_3_norm_mbox_loc_flat -> conv4_3_norm_mbox_loc_flat
I1209 18:28:59.444403  3521 net.cpp:150] Setting up conv4_3_norm_mbox_loc_flat
I1209 18:28:59.444409  3521 net.cpp:157] Top shape: 1 19456 (19456)
I1209 18:28:59.444412  3521 net.cpp:165] Memory required for data: 419574048
I1209 18:28:59.444416  3521 layer_factory.hpp:77] Creating layer conv4_3_norm_mbox_conf
I1209 18:28:59.444428  3521 net.cpp:100] Creating Layer conv4_3_norm_mbox_conf
I1209 18:28:59.444432  3521 net.cpp:434] conv4_3_norm_mbox_conf <- conv4_3_norm_conv4_3_norm_0_split_1
I1209 18:28:59.444437  3521 net.cpp:408] conv4_3_norm_mbox_conf -> conv4_3_norm_mbox_conf
I1209 18:28:59.446337  3521 net.cpp:150] Setting up conv4_3_norm_mbox_conf
I1209 18:28:59.446346  3521 net.cpp:157] Top shape: 1 10 38 64 (24320)
I1209 18:28:59.446349  3521 net.cpp:165] Memory required for data: 419671328
I1209 18:28:59.446355  3521 layer_factory.hpp:77] Creating layer conv4_3_norm_mbox_conf_perm
I1209 18:28:59.446362  3521 net.cpp:100] Creating Layer conv4_3_norm_mbox_conf_perm
I1209 18:28:59.446368  3521 net.cpp:434] conv4_3_norm_mbox_conf_perm <- conv4_3_norm_mbox_conf
I1209 18:28:59.446374  3521 net.cpp:408] conv4_3_norm_mbox_conf_perm -> conv4_3_norm_mbox_conf_perm
I1209 18:28:59.446480  3521 net.cpp:150] Setting up conv4_3_norm_mbox_conf_perm
I1209 18:28:59.446485  3521 net.cpp:157] Top shape: 1 38 64 10 (24320)
I1209 18:28:59.446487  3521 net.cpp:165] Memory required for data: 419768608
I1209 18:28:59.446491  3521 layer_factory.hpp:77] Creating layer conv4_3_norm_mbox_conf_flat
I1209 18:28:59.446496  3521 net.cpp:100] Creating Layer conv4_3_norm_mbox_conf_flat
I1209 18:28:59.446501  3521 net.cpp:434] conv4_3_norm_mbox_conf_flat <- conv4_3_norm_mbox_conf_perm
I1209 18:28:59.446506  3521 net.cpp:408] conv4_3_norm_mbox_conf_flat -> conv4_3_norm_mbox_conf_flat
I1209 18:28:59.446528  3521 net.cpp:150] Setting up conv4_3_norm_mbox_conf_flat
I1209 18:28:59.446533  3521 net.cpp:157] Top shape: 1 24320 (24320)
I1209 18:28:59.446537  3521 net.cpp:165] Memory required for data: 419865888
I1209 18:28:59.446539  3521 layer_factory.hpp:77] Creating layer conv4_3_norm_mbox_priorbox
I1209 18:28:59.446545  3521 net.cpp:100] Creating Layer conv4_3_norm_mbox_priorbox
I1209 18:28:59.446549  3521 net.cpp:434] conv4_3_norm_mbox_priorbox <- conv4_3_norm_conv4_3_norm_0_split_2
I1209 18:28:59.446553  3521 net.cpp:434] conv4_3_norm_mbox_priorbox <- data_data_0_split_1
I1209 18:28:59.446560  3521 net.cpp:408] conv4_3_norm_mbox_priorbox -> conv4_3_norm_mbox_priorbox
I1209 18:28:59.446585  3521 net.cpp:150] Setting up conv4_3_norm_mbox_priorbox
I1209 18:28:59.446590  3521 net.cpp:157] Top shape: 1 2 19456 (38912)
I1209 18:28:59.446593  3521 net.cpp:165] Memory required for data: 420021536
I1209 18:28:59.446595  3521 layer_factory.hpp:77] Creating layer fc7_mbox_loc
I1209 18:28:59.446604  3521 net.cpp:100] Creating Layer fc7_mbox_loc
I1209 18:28:59.446607  3521 net.cpp:434] fc7_mbox_loc <- fc7_relu7_0_split_1
I1209 18:28:59.446612  3521 net.cpp:408] fc7_mbox_loc -> fc7_mbox_loc
I1209 18:28:59.449097  3521 net.cpp:150] Setting up fc7_mbox_loc
I1209 18:28:59.449116  3521 net.cpp:157] Top shape: 1 8 19 32 (4864)
I1209 18:28:59.449118  3521 net.cpp:165] Memory required for data: 420040992
I1209 18:28:59.449127  3521 layer_factory.hpp:77] Creating layer fc7_mbox_loc_perm
I1209 18:28:59.449138  3521 net.cpp:100] Creating Layer fc7_mbox_loc_perm
I1209 18:28:59.449143  3521 net.cpp:434] fc7_mbox_loc_perm <- fc7_mbox_loc
I1209 18:28:59.449151  3521 net.cpp:408] fc7_mbox_loc_perm -> fc7_mbox_loc_perm
I1209 18:28:59.449254  3521 net.cpp:150] Setting up fc7_mbox_loc_perm
I1209 18:28:59.449260  3521 net.cpp:157] Top shape: 1 19 32 8 (4864)
I1209 18:28:59.449262  3521 net.cpp:165] Memory required for data: 420060448
I1209 18:28:59.449266  3521 layer_factory.hpp:77] Creating layer fc7_mbox_loc_flat
I1209 18:28:59.449272  3521 net.cpp:100] Creating Layer fc7_mbox_loc_flat
I1209 18:28:59.449276  3521 net.cpp:434] fc7_mbox_loc_flat <- fc7_mbox_loc_perm
I1209 18:28:59.449280  3521 net.cpp:408] fc7_mbox_loc_flat -> fc7_mbox_loc_flat
I1209 18:28:59.449306  3521 net.cpp:150] Setting up fc7_mbox_loc_flat
I1209 18:28:59.449311  3521 net.cpp:157] Top shape: 1 4864 (4864)
I1209 18:28:59.449312  3521 net.cpp:165] Memory required for data: 420079904
I1209 18:28:59.449316  3521 layer_factory.hpp:77] Creating layer fc7_mbox_conf
I1209 18:28:59.449324  3521 net.cpp:100] Creating Layer fc7_mbox_conf
I1209 18:28:59.449328  3521 net.cpp:434] fc7_mbox_conf <- fc7_relu7_0_split_2
I1209 18:28:59.449335  3521 net.cpp:408] fc7_mbox_conf -> fc7_mbox_conf
I1209 18:28:59.451642  3521 net.cpp:150] Setting up fc7_mbox_conf
I1209 18:28:59.451651  3521 net.cpp:157] Top shape: 1 10 19 32 (6080)
I1209 18:28:59.451655  3521 net.cpp:165] Memory required for data: 420104224
I1209 18:28:59.451661  3521 layer_factory.hpp:77] Creating layer fc7_mbox_conf_perm
I1209 18:28:59.451669  3521 net.cpp:100] Creating Layer fc7_mbox_conf_perm
I1209 18:28:59.451673  3521 net.cpp:434] fc7_mbox_conf_perm <- fc7_mbox_conf
I1209 18:28:59.451679  3521 net.cpp:408] fc7_mbox_conf_perm -> fc7_mbox_conf_perm
I1209 18:28:59.451776  3521 net.cpp:150] Setting up fc7_mbox_conf_perm
I1209 18:28:59.451781  3521 net.cpp:157] Top shape: 1 19 32 10 (6080)
I1209 18:28:59.451795  3521 net.cpp:165] Memory required for data: 420128544
I1209 18:28:59.451799  3521 layer_factory.hpp:77] Creating layer fc7_mbox_conf_flat
I1209 18:28:59.451803  3521 net.cpp:100] Creating Layer fc7_mbox_conf_flat
I1209 18:28:59.451807  3521 net.cpp:434] fc7_mbox_conf_flat <- fc7_mbox_conf_perm
I1209 18:28:59.451813  3521 net.cpp:408] fc7_mbox_conf_flat -> fc7_mbox_conf_flat
I1209 18:28:59.451836  3521 net.cpp:150] Setting up fc7_mbox_conf_flat
I1209 18:28:59.451843  3521 net.cpp:157] Top shape: 1 6080 (6080)
I1209 18:28:59.451846  3521 net.cpp:165] Memory required for data: 420152864
I1209 18:28:59.451849  3521 layer_factory.hpp:77] Creating layer fc7_mbox_priorbox
I1209 18:28:59.451856  3521 net.cpp:100] Creating Layer fc7_mbox_priorbox
I1209 18:28:59.451859  3521 net.cpp:434] fc7_mbox_priorbox <- fc7_relu7_0_split_3
I1209 18:28:59.451864  3521 net.cpp:434] fc7_mbox_priorbox <- data_data_0_split_2
I1209 18:28:59.451870  3521 net.cpp:408] fc7_mbox_priorbox -> fc7_mbox_priorbox
I1209 18:28:59.451894  3521 net.cpp:150] Setting up fc7_mbox_priorbox
I1209 18:28:59.451900  3521 net.cpp:157] Top shape: 1 2 4864 (9728)
I1209 18:28:59.451902  3521 net.cpp:165] Memory required for data: 420191776
I1209 18:28:59.451906  3521 layer_factory.hpp:77] Creating layer ssd1_2_mbox_loc
I1209 18:28:59.451913  3521 net.cpp:100] Creating Layer ssd1_2_mbox_loc
I1209 18:28:59.451917  3521 net.cpp:434] ssd1_2_mbox_loc <- ssd1_2_ssd1_2_relu_0_split_1
I1209 18:28:59.451922  3521 net.cpp:408] ssd1_2_mbox_loc -> ssd1_2_mbox_loc
I1209 18:28:59.453814  3521 net.cpp:150] Setting up ssd1_2_mbox_loc
I1209 18:28:59.453822  3521 net.cpp:157] Top shape: 1 8 10 16 (1280)
I1209 18:28:59.453826  3521 net.cpp:165] Memory required for data: 420196896
I1209 18:28:59.453832  3521 layer_factory.hpp:77] Creating layer ssd1_2_mbox_loc_perm
I1209 18:28:59.453838  3521 net.cpp:100] Creating Layer ssd1_2_mbox_loc_perm
I1209 18:28:59.453843  3521 net.cpp:434] ssd1_2_mbox_loc_perm <- ssd1_2_mbox_loc
I1209 18:28:59.453850  3521 net.cpp:408] ssd1_2_mbox_loc_perm -> ssd1_2_mbox_loc_perm
I1209 18:28:59.453951  3521 net.cpp:150] Setting up ssd1_2_mbox_loc_perm
I1209 18:28:59.453958  3521 net.cpp:157] Top shape: 1 10 16 8 (1280)
I1209 18:28:59.453959  3521 net.cpp:165] Memory required for data: 420202016
I1209 18:28:59.453963  3521 layer_factory.hpp:77] Creating layer ssd1_2_mbox_loc_flat
I1209 18:28:59.453969  3521 net.cpp:100] Creating Layer ssd1_2_mbox_loc_flat
I1209 18:28:59.453974  3521 net.cpp:434] ssd1_2_mbox_loc_flat <- ssd1_2_mbox_loc_perm
I1209 18:28:59.453979  3521 net.cpp:408] ssd1_2_mbox_loc_flat -> ssd1_2_mbox_loc_flat
I1209 18:28:59.454000  3521 net.cpp:150] Setting up ssd1_2_mbox_loc_flat
I1209 18:28:59.454005  3521 net.cpp:157] Top shape: 1 1280 (1280)
I1209 18:28:59.454008  3521 net.cpp:165] Memory required for data: 420207136
I1209 18:28:59.454011  3521 layer_factory.hpp:77] Creating layer ssd1_2_mbox_conf
I1209 18:28:59.454020  3521 net.cpp:100] Creating Layer ssd1_2_mbox_conf
I1209 18:28:59.454023  3521 net.cpp:434] ssd1_2_mbox_conf <- ssd1_2_ssd1_2_relu_0_split_2
I1209 18:28:59.454030  3521 net.cpp:408] ssd1_2_mbox_conf -> ssd1_2_mbox_conf
I1209 18:28:59.455940  3521 net.cpp:150] Setting up ssd1_2_mbox_conf
I1209 18:28:59.455948  3521 net.cpp:157] Top shape: 1 10 10 16 (1600)
I1209 18:28:59.455951  3521 net.cpp:165] Memory required for data: 420213536
I1209 18:28:59.455958  3521 layer_factory.hpp:77] Creating layer ssd1_2_mbox_conf_perm
I1209 18:28:59.455965  3521 net.cpp:100] Creating Layer ssd1_2_mbox_conf_perm
I1209 18:28:59.455970  3521 net.cpp:434] ssd1_2_mbox_conf_perm <- ssd1_2_mbox_conf
I1209 18:28:59.455974  3521 net.cpp:408] ssd1_2_mbox_conf_perm -> ssd1_2_mbox_conf_perm
I1209 18:28:59.456073  3521 net.cpp:150] Setting up ssd1_2_mbox_conf_perm
I1209 18:28:59.456079  3521 net.cpp:157] Top shape: 1 10 16 10 (1600)
I1209 18:28:59.456080  3521 net.cpp:165] Memory required for data: 420219936
I1209 18:28:59.456084  3521 layer_factory.hpp:77] Creating layer ssd1_2_mbox_conf_flat
I1209 18:28:59.456089  3521 net.cpp:100] Creating Layer ssd1_2_mbox_conf_flat
I1209 18:28:59.456100  3521 net.cpp:434] ssd1_2_mbox_conf_flat <- ssd1_2_mbox_conf_perm
I1209 18:28:59.456106  3521 net.cpp:408] ssd1_2_mbox_conf_flat -> ssd1_2_mbox_conf_flat
I1209 18:28:59.456130  3521 net.cpp:150] Setting up ssd1_2_mbox_conf_flat
I1209 18:28:59.456135  3521 net.cpp:157] Top shape: 1 1600 (1600)
I1209 18:28:59.456138  3521 net.cpp:165] Memory required for data: 420226336
I1209 18:28:59.456140  3521 layer_factory.hpp:77] Creating layer ssd1_2_mbox_priorbox
I1209 18:28:59.456146  3521 net.cpp:100] Creating Layer ssd1_2_mbox_priorbox
I1209 18:28:59.456151  3521 net.cpp:434] ssd1_2_mbox_priorbox <- ssd1_2_ssd1_2_relu_0_split_3
I1209 18:28:59.456156  3521 net.cpp:434] ssd1_2_mbox_priorbox <- data_data_0_split_3
I1209 18:28:59.456161  3521 net.cpp:408] ssd1_2_mbox_priorbox -> ssd1_2_mbox_priorbox
I1209 18:28:59.456185  3521 net.cpp:150] Setting up ssd1_2_mbox_priorbox
I1209 18:28:59.456192  3521 net.cpp:157] Top shape: 1 2 1280 (2560)
I1209 18:28:59.456193  3521 net.cpp:165] Memory required for data: 420236576
I1209 18:28:59.456197  3521 layer_factory.hpp:77] Creating layer ssd2_2_mbox_loc
I1209 18:28:59.456204  3521 net.cpp:100] Creating Layer ssd2_2_mbox_loc
I1209 18:28:59.456208  3521 net.cpp:434] ssd2_2_mbox_loc <- ssd2_2_ssd2_2_relu_0_split_1
I1209 18:28:59.456213  3521 net.cpp:408] ssd2_2_mbox_loc -> ssd2_2_mbox_loc
I1209 18:28:59.457818  3521 net.cpp:150] Setting up ssd2_2_mbox_loc
I1209 18:28:59.457825  3521 net.cpp:157] Top shape: 1 8 5 8 (320)
I1209 18:28:59.457828  3521 net.cpp:165] Memory required for data: 420237856
I1209 18:28:59.457834  3521 layer_factory.hpp:77] Creating layer ssd2_2_mbox_loc_perm
I1209 18:28:59.457841  3521 net.cpp:100] Creating Layer ssd2_2_mbox_loc_perm
I1209 18:28:59.457845  3521 net.cpp:434] ssd2_2_mbox_loc_perm <- ssd2_2_mbox_loc
I1209 18:28:59.457851  3521 net.cpp:408] ssd2_2_mbox_loc_perm -> ssd2_2_mbox_loc_perm
I1209 18:28:59.457947  3521 net.cpp:150] Setting up ssd2_2_mbox_loc_perm
I1209 18:28:59.457952  3521 net.cpp:157] Top shape: 1 5 8 8 (320)
I1209 18:28:59.457955  3521 net.cpp:165] Memory required for data: 420239136
I1209 18:28:59.457958  3521 layer_factory.hpp:77] Creating layer ssd2_2_mbox_loc_flat
I1209 18:28:59.457965  3521 net.cpp:100] Creating Layer ssd2_2_mbox_loc_flat
I1209 18:28:59.457969  3521 net.cpp:434] ssd2_2_mbox_loc_flat <- ssd2_2_mbox_loc_perm
I1209 18:28:59.457973  3521 net.cpp:408] ssd2_2_mbox_loc_flat -> ssd2_2_mbox_loc_flat
I1209 18:28:59.457996  3521 net.cpp:150] Setting up ssd2_2_mbox_loc_flat
I1209 18:28:59.458001  3521 net.cpp:157] Top shape: 1 320 (320)
I1209 18:28:59.458003  3521 net.cpp:165] Memory required for data: 420240416
I1209 18:28:59.458006  3521 layer_factory.hpp:77] Creating layer ssd2_2_mbox_conf
I1209 18:28:59.458015  3521 net.cpp:100] Creating Layer ssd2_2_mbox_conf
I1209 18:28:59.458019  3521 net.cpp:434] ssd2_2_mbox_conf <- ssd2_2_ssd2_2_relu_0_split_2
I1209 18:28:59.458025  3521 net.cpp:408] ssd2_2_mbox_conf -> ssd2_2_mbox_conf
I1209 18:28:59.460074  3521 net.cpp:150] Setting up ssd2_2_mbox_conf
I1209 18:28:59.460083  3521 net.cpp:157] Top shape: 1 10 5 8 (400)
I1209 18:28:59.460085  3521 net.cpp:165] Memory required for data: 420242016
I1209 18:28:59.460091  3521 layer_factory.hpp:77] Creating layer ssd2_2_mbox_conf_perm
I1209 18:28:59.460098  3521 net.cpp:100] Creating Layer ssd2_2_mbox_conf_perm
I1209 18:28:59.460103  3521 net.cpp:434] ssd2_2_mbox_conf_perm <- ssd2_2_mbox_conf
I1209 18:28:59.460109  3521 net.cpp:408] ssd2_2_mbox_conf_perm -> ssd2_2_mbox_conf_perm
I1209 18:28:59.460206  3521 net.cpp:150] Setting up ssd2_2_mbox_conf_perm
I1209 18:28:59.460211  3521 net.cpp:157] Top shape: 1 5 8 10 (400)
I1209 18:28:59.460213  3521 net.cpp:165] Memory required for data: 420243616
I1209 18:28:59.460216  3521 layer_factory.hpp:77] Creating layer ssd2_2_mbox_conf_flat
I1209 18:28:59.460222  3521 net.cpp:100] Creating Layer ssd2_2_mbox_conf_flat
I1209 18:28:59.460225  3521 net.cpp:434] ssd2_2_mbox_conf_flat <- ssd2_2_mbox_conf_perm
I1209 18:28:59.460233  3521 net.cpp:408] ssd2_2_mbox_conf_flat -> ssd2_2_mbox_conf_flat
I1209 18:28:59.460263  3521 net.cpp:150] Setting up ssd2_2_mbox_conf_flat
I1209 18:28:59.460268  3521 net.cpp:157] Top shape: 1 400 (400)
I1209 18:28:59.460271  3521 net.cpp:165] Memory required for data: 420245216
I1209 18:28:59.460274  3521 layer_factory.hpp:77] Creating layer ssd2_2_mbox_priorbox
I1209 18:28:59.460281  3521 net.cpp:100] Creating Layer ssd2_2_mbox_priorbox
I1209 18:28:59.460284  3521 net.cpp:434] ssd2_2_mbox_priorbox <- ssd2_2_ssd2_2_relu_0_split_3
I1209 18:28:59.460289  3521 net.cpp:434] ssd2_2_mbox_priorbox <- data_data_0_split_4
I1209 18:28:59.460295  3521 net.cpp:408] ssd2_2_mbox_priorbox -> ssd2_2_mbox_priorbox
I1209 18:28:59.460319  3521 net.cpp:150] Setting up ssd2_2_mbox_priorbox
I1209 18:28:59.460324  3521 net.cpp:157] Top shape: 1 2 320 (640)
I1209 18:28:59.460326  3521 net.cpp:165] Memory required for data: 420247776
I1209 18:28:59.460330  3521 layer_factory.hpp:77] Creating layer ssd3_2_mbox_loc
I1209 18:28:59.460340  3521 net.cpp:100] Creating Layer ssd3_2_mbox_loc
I1209 18:28:59.460342  3521 net.cpp:434] ssd3_2_mbox_loc <- ssd3_2_ssd3_2_relu_0_split_1
I1209 18:28:59.460347  3521 net.cpp:408] ssd3_2_mbox_loc -> ssd3_2_mbox_loc
I1209 18:28:59.461946  3521 net.cpp:150] Setting up ssd3_2_mbox_loc
I1209 18:28:59.461956  3521 net.cpp:157] Top shape: 1 8 3 6 (144)
I1209 18:28:59.461958  3521 net.cpp:165] Memory required for data: 420248352
I1209 18:28:59.461971  3521 layer_factory.hpp:77] Creating layer ssd3_2_mbox_loc_perm
I1209 18:28:59.461978  3521 net.cpp:100] Creating Layer ssd3_2_mbox_loc_perm
I1209 18:28:59.461982  3521 net.cpp:434] ssd3_2_mbox_loc_perm <- ssd3_2_mbox_loc
I1209 18:28:59.461987  3521 net.cpp:408] ssd3_2_mbox_loc_perm -> ssd3_2_mbox_loc_perm
I1209 18:28:59.462082  3521 net.cpp:150] Setting up ssd3_2_mbox_loc_perm
I1209 18:28:59.462088  3521 net.cpp:157] Top shape: 1 3 6 8 (144)
I1209 18:28:59.462090  3521 net.cpp:165] Memory required for data: 420248928
I1209 18:28:59.462093  3521 layer_factory.hpp:77] Creating layer ssd3_2_mbox_loc_flat
I1209 18:28:59.462100  3521 net.cpp:100] Creating Layer ssd3_2_mbox_loc_flat
I1209 18:28:59.462103  3521 net.cpp:434] ssd3_2_mbox_loc_flat <- ssd3_2_mbox_loc_perm
I1209 18:28:59.462108  3521 net.cpp:408] ssd3_2_mbox_loc_flat -> ssd3_2_mbox_loc_flat
I1209 18:28:59.462131  3521 net.cpp:150] Setting up ssd3_2_mbox_loc_flat
I1209 18:28:59.462136  3521 net.cpp:157] Top shape: 1 144 (144)
I1209 18:28:59.462139  3521 net.cpp:165] Memory required for data: 420249504
I1209 18:28:59.462142  3521 layer_factory.hpp:77] Creating layer ssd3_2_mbox_conf
I1209 18:28:59.462149  3521 net.cpp:100] Creating Layer ssd3_2_mbox_conf
I1209 18:28:59.462152  3521 net.cpp:434] ssd3_2_mbox_conf <- ssd3_2_ssd3_2_relu_0_split_2
I1209 18:28:59.462159  3521 net.cpp:408] ssd3_2_mbox_conf -> ssd3_2_mbox_conf
I1209 18:28:59.463834  3521 net.cpp:150] Setting up ssd3_2_mbox_conf
I1209 18:28:59.463841  3521 net.cpp:157] Top shape: 1 10 3 6 (180)
I1209 18:28:59.463845  3521 net.cpp:165] Memory required for data: 420250224
I1209 18:28:59.463851  3521 layer_factory.hpp:77] Creating layer ssd3_2_mbox_conf_perm
I1209 18:28:59.463860  3521 net.cpp:100] Creating Layer ssd3_2_mbox_conf_perm
I1209 18:28:59.463862  3521 net.cpp:434] ssd3_2_mbox_conf_perm <- ssd3_2_mbox_conf
I1209 18:28:59.463867  3521 net.cpp:408] ssd3_2_mbox_conf_perm -> ssd3_2_mbox_conf_perm
I1209 18:28:59.463963  3521 net.cpp:150] Setting up ssd3_2_mbox_conf_perm
I1209 18:28:59.463968  3521 net.cpp:157] Top shape: 1 3 6 10 (180)
I1209 18:28:59.463971  3521 net.cpp:165] Memory required for data: 420250944
I1209 18:28:59.463975  3521 layer_factory.hpp:77] Creating layer ssd3_2_mbox_conf_flat
I1209 18:28:59.463982  3521 net.cpp:100] Creating Layer ssd3_2_mbox_conf_flat
I1209 18:28:59.463986  3521 net.cpp:434] ssd3_2_mbox_conf_flat <- ssd3_2_mbox_conf_perm
I1209 18:28:59.463990  3521 net.cpp:408] ssd3_2_mbox_conf_flat -> ssd3_2_mbox_conf_flat
I1209 18:28:59.464015  3521 net.cpp:150] Setting up ssd3_2_mbox_conf_flat
I1209 18:28:59.464020  3521 net.cpp:157] Top shape: 1 180 (180)
I1209 18:28:59.464021  3521 net.cpp:165] Memory required for data: 420251664
I1209 18:28:59.464032  3521 layer_factory.hpp:77] Creating layer ssd3_2_mbox_priorbox
I1209 18:28:59.464038  3521 net.cpp:100] Creating Layer ssd3_2_mbox_priorbox
I1209 18:28:59.464042  3521 net.cpp:434] ssd3_2_mbox_priorbox <- ssd3_2_ssd3_2_relu_0_split_3
I1209 18:28:59.464047  3521 net.cpp:434] ssd3_2_mbox_priorbox <- data_data_0_split_5
I1209 18:28:59.464052  3521 net.cpp:408] ssd3_2_mbox_priorbox -> ssd3_2_mbox_priorbox
I1209 18:28:59.464078  3521 net.cpp:150] Setting up ssd3_2_mbox_priorbox
I1209 18:28:59.464083  3521 net.cpp:157] Top shape: 1 2 144 (288)
I1209 18:28:59.464087  3521 net.cpp:165] Memory required for data: 420252816
I1209 18:28:59.464089  3521 layer_factory.hpp:77] Creating layer ssd4_2_mbox_loc
I1209 18:28:59.464097  3521 net.cpp:100] Creating Layer ssd4_2_mbox_loc
I1209 18:28:59.464102  3521 net.cpp:434] ssd4_2_mbox_loc <- ssd4_2_ssd4_2_relu_0_split_0
I1209 18:28:59.464107  3521 net.cpp:408] ssd4_2_mbox_loc -> ssd4_2_mbox_loc
I1209 18:28:59.466521  3521 net.cpp:150] Setting up ssd4_2_mbox_loc
I1209 18:28:59.466531  3521 net.cpp:157] Top shape: 1 8 1 4 (32)
I1209 18:28:59.466534  3521 net.cpp:165] Memory required for data: 420252944
I1209 18:28:59.466542  3521 layer_factory.hpp:77] Creating layer ssd4_2_mbox_loc_perm
I1209 18:28:59.466548  3521 net.cpp:100] Creating Layer ssd4_2_mbox_loc_perm
I1209 18:28:59.466552  3521 net.cpp:434] ssd4_2_mbox_loc_perm <- ssd4_2_mbox_loc
I1209 18:28:59.466559  3521 net.cpp:408] ssd4_2_mbox_loc_perm -> ssd4_2_mbox_loc_perm
I1209 18:28:59.466655  3521 net.cpp:150] Setting up ssd4_2_mbox_loc_perm
I1209 18:28:59.466660  3521 net.cpp:157] Top shape: 1 1 4 8 (32)
I1209 18:28:59.466663  3521 net.cpp:165] Memory required for data: 420253072
I1209 18:28:59.466667  3521 layer_factory.hpp:77] Creating layer ssd4_2_mbox_loc_flat
I1209 18:28:59.466672  3521 net.cpp:100] Creating Layer ssd4_2_mbox_loc_flat
I1209 18:28:59.466676  3521 net.cpp:434] ssd4_2_mbox_loc_flat <- ssd4_2_mbox_loc_perm
I1209 18:28:59.466681  3521 net.cpp:408] ssd4_2_mbox_loc_flat -> ssd4_2_mbox_loc_flat
I1209 18:28:59.466704  3521 net.cpp:150] Setting up ssd4_2_mbox_loc_flat
I1209 18:28:59.466709  3521 net.cpp:157] Top shape: 1 32 (32)
I1209 18:28:59.466712  3521 net.cpp:165] Memory required for data: 420253200
I1209 18:28:59.466715  3521 layer_factory.hpp:77] Creating layer ssd4_2_mbox_conf
I1209 18:28:59.466724  3521 net.cpp:100] Creating Layer ssd4_2_mbox_conf
I1209 18:28:59.466727  3521 net.cpp:434] ssd4_2_mbox_conf <- ssd4_2_ssd4_2_relu_0_split_1
I1209 18:28:59.466733  3521 net.cpp:408] ssd4_2_mbox_conf -> ssd4_2_mbox_conf
I1209 18:28:59.468369  3521 net.cpp:150] Setting up ssd4_2_mbox_conf
I1209 18:28:59.468379  3521 net.cpp:157] Top shape: 1 10 1 4 (40)
I1209 18:28:59.468381  3521 net.cpp:165] Memory required for data: 420253360
I1209 18:28:59.468387  3521 layer_factory.hpp:77] Creating layer ssd4_2_mbox_conf_perm
I1209 18:28:59.468394  3521 net.cpp:100] Creating Layer ssd4_2_mbox_conf_perm
I1209 18:28:59.468400  3521 net.cpp:434] ssd4_2_mbox_conf_perm <- ssd4_2_mbox_conf
I1209 18:28:59.468405  3521 net.cpp:408] ssd4_2_mbox_conf_perm -> ssd4_2_mbox_conf_perm
I1209 18:28:59.468499  3521 net.cpp:150] Setting up ssd4_2_mbox_conf_perm
I1209 18:28:59.468505  3521 net.cpp:157] Top shape: 1 1 4 10 (40)
I1209 18:28:59.468509  3521 net.cpp:165] Memory required for data: 420253520
I1209 18:28:59.468511  3521 layer_factory.hpp:77] Creating layer ssd4_2_mbox_conf_flat
I1209 18:28:59.468516  3521 net.cpp:100] Creating Layer ssd4_2_mbox_conf_flat
I1209 18:28:59.468520  3521 net.cpp:434] ssd4_2_mbox_conf_flat <- ssd4_2_mbox_conf_perm
I1209 18:28:59.468526  3521 net.cpp:408] ssd4_2_mbox_conf_flat -> ssd4_2_mbox_conf_flat
I1209 18:28:59.468549  3521 net.cpp:150] Setting up ssd4_2_mbox_conf_flat
I1209 18:28:59.468554  3521 net.cpp:157] Top shape: 1 40 (40)
I1209 18:28:59.468557  3521 net.cpp:165] Memory required for data: 420253680
I1209 18:28:59.468560  3521 layer_factory.hpp:77] Creating layer ssd4_2_mbox_priorbox
I1209 18:28:59.468566  3521 net.cpp:100] Creating Layer ssd4_2_mbox_priorbox
I1209 18:28:59.468577  3521 net.cpp:434] ssd4_2_mbox_priorbox <- ssd4_2_ssd4_2_relu_0_split_2
I1209 18:28:59.468582  3521 net.cpp:434] ssd4_2_mbox_priorbox <- data_data_0_split_6
I1209 18:28:59.468590  3521 net.cpp:408] ssd4_2_mbox_priorbox -> ssd4_2_mbox_priorbox
I1209 18:28:59.468614  3521 net.cpp:150] Setting up ssd4_2_mbox_priorbox
I1209 18:28:59.468618  3521 net.cpp:157] Top shape: 1 2 32 (64)
I1209 18:28:59.468621  3521 net.cpp:165] Memory required for data: 420253936
I1209 18:28:59.468626  3521 layer_factory.hpp:77] Creating layer mbox_loc
I1209 18:28:59.468631  3521 net.cpp:100] Creating Layer mbox_loc
I1209 18:28:59.468634  3521 net.cpp:434] mbox_loc <- conv4_3_norm_mbox_loc_flat
I1209 18:28:59.468638  3521 net.cpp:434] mbox_loc <- fc7_mbox_loc_flat
I1209 18:28:59.468643  3521 net.cpp:434] mbox_loc <- ssd1_2_mbox_loc_flat
I1209 18:28:59.468647  3521 net.cpp:434] mbox_loc <- ssd2_2_mbox_loc_flat
I1209 18:28:59.468652  3521 net.cpp:434] mbox_loc <- ssd3_2_mbox_loc_flat
I1209 18:28:59.468655  3521 net.cpp:434] mbox_loc <- ssd4_2_mbox_loc_flat
I1209 18:28:59.468662  3521 net.cpp:408] mbox_loc -> mbox_loc
I1209 18:28:59.468685  3521 net.cpp:150] Setting up mbox_loc
I1209 18:28:59.468689  3521 net.cpp:157] Top shape: 1 26096 (26096)
I1209 18:28:59.468693  3521 net.cpp:165] Memory required for data: 420358320
I1209 18:28:59.468695  3521 layer_factory.hpp:77] Creating layer mbox_conf
I1209 18:28:59.468700  3521 net.cpp:100] Creating Layer mbox_conf
I1209 18:28:59.468703  3521 net.cpp:434] mbox_conf <- conv4_3_norm_mbox_conf_flat
I1209 18:28:59.468708  3521 net.cpp:434] mbox_conf <- fc7_mbox_conf_flat
I1209 18:28:59.468713  3521 net.cpp:434] mbox_conf <- ssd1_2_mbox_conf_flat
I1209 18:28:59.468716  3521 net.cpp:434] mbox_conf <- ssd2_2_mbox_conf_flat
I1209 18:28:59.468720  3521 net.cpp:434] mbox_conf <- ssd3_2_mbox_conf_flat
I1209 18:28:59.468724  3521 net.cpp:434] mbox_conf <- ssd4_2_mbox_conf_flat
I1209 18:28:59.468730  3521 net.cpp:408] mbox_conf -> mbox_conf
I1209 18:28:59.468753  3521 net.cpp:150] Setting up mbox_conf
I1209 18:28:59.468757  3521 net.cpp:157] Top shape: 1 32620 (32620)
I1209 18:28:59.468760  3521 net.cpp:165] Memory required for data: 420488800
I1209 18:28:59.468763  3521 layer_factory.hpp:77] Creating layer mbox_priorbox
I1209 18:28:59.468768  3521 net.cpp:100] Creating Layer mbox_priorbox
I1209 18:28:59.468771  3521 net.cpp:434] mbox_priorbox <- conv4_3_norm_mbox_priorbox
I1209 18:28:59.468775  3521 net.cpp:434] mbox_priorbox <- fc7_mbox_priorbox
I1209 18:28:59.468780  3521 net.cpp:434] mbox_priorbox <- ssd1_2_mbox_priorbox
I1209 18:28:59.468785  3521 net.cpp:434] mbox_priorbox <- ssd2_2_mbox_priorbox
I1209 18:28:59.468788  3521 net.cpp:434] mbox_priorbox <- ssd3_2_mbox_priorbox
I1209 18:28:59.468792  3521 net.cpp:434] mbox_priorbox <- ssd4_2_mbox_priorbox
I1209 18:28:59.468797  3521 net.cpp:408] mbox_priorbox -> mbox_priorbox
I1209 18:28:59.468821  3521 net.cpp:150] Setting up mbox_priorbox
I1209 18:28:59.468824  3521 net.cpp:157] Top shape: 1 2 26096 (52192)
I1209 18:28:59.468827  3521 net.cpp:165] Memory required for data: 420697568
I1209 18:28:59.468830  3521 layer_factory.hpp:77] Creating layer mbox_conf_reshape
I1209 18:28:59.468837  3521 net.cpp:100] Creating Layer mbox_conf_reshape
I1209 18:28:59.468839  3521 net.cpp:434] mbox_conf_reshape <- mbox_conf
I1209 18:28:59.468845  3521 net.cpp:408] mbox_conf_reshape -> mbox_conf_reshape
I1209 18:28:59.468874  3521 net.cpp:150] Setting up mbox_conf_reshape
I1209 18:28:59.468878  3521 net.cpp:157] Top shape: 1 6524 5 (32620)
I1209 18:28:59.468881  3521 net.cpp:165] Memory required for data: 420828048
I1209 18:28:59.468884  3521 layer_factory.hpp:77] Creating layer mbox_conf_softmax
I1209 18:28:59.468890  3521 net.cpp:100] Creating Layer mbox_conf_softmax
I1209 18:28:59.468894  3521 net.cpp:434] mbox_conf_softmax <- mbox_conf_reshape
I1209 18:28:59.468899  3521 net.cpp:408] mbox_conf_softmax -> mbox_conf_softmax
I1209 18:28:59.469316  3521 net.cpp:150] Setting up mbox_conf_softmax
I1209 18:28:59.469321  3521 net.cpp:157] Top shape: 1 6524 5 (32620)
I1209 18:28:59.469331  3521 net.cpp:165] Memory required for data: 420958528
I1209 18:28:59.469333  3521 layer_factory.hpp:77] Creating layer mbox_conf_flatten
I1209 18:28:59.469339  3521 net.cpp:100] Creating Layer mbox_conf_flatten
I1209 18:28:59.469343  3521 net.cpp:434] mbox_conf_flatten <- mbox_conf_softmax
I1209 18:28:59.469348  3521 net.cpp:408] mbox_conf_flatten -> mbox_conf_flatten
I1209 18:28:59.469372  3521 net.cpp:150] Setting up mbox_conf_flatten
I1209 18:28:59.469377  3521 net.cpp:157] Top shape: 1 32620 (32620)
I1209 18:28:59.469379  3521 net.cpp:165] Memory required for data: 421089008
I1209 18:28:59.469383  3521 layer_factory.hpp:77] Creating layer detection_out
I1209 18:28:59.469393  3521 net.cpp:100] Creating Layer detection_out
I1209 18:28:59.469396  3521 net.cpp:434] detection_out <- mbox_loc
I1209 18:28:59.469400  3521 net.cpp:434] detection_out <- mbox_conf_flatten
I1209 18:28:59.469404  3521 net.cpp:434] detection_out <- mbox_priorbox
I1209 18:28:59.469411  3521 net.cpp:408] detection_out -> detection_out
W1209 18:28:59.469432  3521 detection_output_layer.cpp:49] Failed to create directory: /home/zhongyilin/Documents/data/GTSDBdevkit/results/GTSDB/SSD_510x300_100_40_Square_score/Main
I1209 18:28:59.469745  3521 net.cpp:150] Setting up detection_out
I1209 18:28:59.469753  3521 net.cpp:157] Top shape: 1 1 1 7 (7)
I1209 18:28:59.469755  3521 net.cpp:165] Memory required for data: 421089036
I1209 18:28:59.469758  3521 layer_factory.hpp:77] Creating layer detection_eval
I1209 18:28:59.469764  3521 net.cpp:100] Creating Layer detection_eval
I1209 18:28:59.469769  3521 net.cpp:434] detection_eval <- detection_out
I1209 18:28:59.469772  3521 net.cpp:434] detection_eval <- label
I1209 18:28:59.469777  3521 net.cpp:408] detection_eval -> detection_eval
I1209 18:28:59.469864  3521 net.cpp:150] Setting up detection_eval
I1209 18:28:59.469871  3521 net.cpp:157] Top shape: 1 1 5 5 (25)
I1209 18:28:59.469872  3521 net.cpp:165] Memory required for data: 421089136
I1209 18:28:59.469875  3521 net.cpp:228] detection_eval does not need backward computation.
I1209 18:28:59.469879  3521 net.cpp:228] detection_out does not need backward computation.
I1209 18:28:59.469884  3521 net.cpp:228] mbox_conf_flatten does not need backward computation.
I1209 18:28:59.469888  3521 net.cpp:228] mbox_conf_softmax does not need backward computation.
…
