…
      sampler {
        min_scale: 0.3
        max_scale: 1
        min_aspect_ratio: 0.5
        max_aspect_ratio: 2
      }
      sample_constraint {
        min_jaccard_overlap: 0.9
      }
      max_sample: 1
      max_trials: 50
    }
    batch_sampler {
      sampler {
        min_scale: 0.3
        max_scale: 1
        min_aspect_ratio: 0.5
        max_aspect_ratio: 2
      }
      sample_constraint {
        max_jaccard_overlap: 1
      }
      max_sample: 1
      max_trials: 50
    }
    label_map_file: "data/GTSDB/labelmap_GTSDB.prototxt"
  }
}
layer {
  name: "conv1_1"
  type: "Convolution"
  bottom: "data"
  top: "conv1_1"
  param {
    lr_mult: 1
    decay_mult: 1
  }
  param {
    lr_mult: 2
    decay_mult: 0
  }
  convolution_param {
    num_output: 64
    pad: 1
    kernel_size: 3
    weight_filler {
      type: "xavier"
    }
    bias_filler {
      type: "constant"
      value: 0
    }
  }
}
layer {
  name: "relu1_1"
  type: "ReLU"
  bottom: "conv1_1"
  top: "conv1_1"
}
layer {
  name: "conv1_2"
  type: "Convolution"
  bottom: "conv1_1"
  top: "conv1_2"
  param {
    lr_mult: 1
    decay_mult: 1
  }
  param {
    lr_mult: 2
    decay_mult: 0
  }
  convolution_param {
    num_output: 64
    pad: 1
    kernel_size: 3
    weight_filler {
      type: "xavier"
    }
    bias_filler {
      type: "constant"
      value: 0
    }
  }
}
layer {
  name: "relu1_2"
  type: "ReLU"
  bottom: "conv1_2"
  top: "conv1_2"
}
layer {
  name: "pool1"
  type: "Pooling"
  bottom: "conv1_2"
  top: "pool1"
  pooling_param {
    pool: MAX
    kernel_size: 2
    stride: 2
  }
}
layer {
  name: "conv2_1"
  type: "Convolution"
  bottom: "pool1"
  top: "conv2_1"
  param {
    lr_mult: 1
    decay_mult: 1
  }
  param {
    lr_mult: 2
    decay_mult: 0
  }
  convolution_param {
    num_output: 128
    pad: 1
    kernel_size: 3
    weight_filler {
      type: "xavier"
    }
    bias_filler {
      type: "constant"
      value: 0
    }
  }
}
layer {
  name: "relu2_1"
  type: "ReLU"
  bottom: "conv2_1"
  top: "conv2_1"
}
layer {
  name: "conv2_2"
  type: "Convolution"
  bottom: "conv2_1"
  top: "conv2_2"
  param {
    lr_mult: 1
    decay_mult: 1
  }
  param {
    lr_mult: 2
    decay_mult: 0
  }
  convolution_param {
    num_output: 128
    pad: 1
    kernel_size: 3
    weight_filler {
      type: "xavier"
    }
    bias_filler {
      type: "constant"
      value: 0
    }
  }
}
layer {
  name: "relu2_2"
  type: "ReLU"
  bottom: "conv2_2"
  top: "conv2_2"
}
layer {
  name: "pool2"
  type: "Pooling"
  bottom: "conv2_2"
  top: "pool2"
  pooling_param {
    pool: MAX
    kernel_size: 2
    stride: 2
  }
}
layer {
  name: "conv3_1"
  type: "Convolution"
  bottom: "pool2"
  top: "conv3_1"
  param {
    lr_mult: 1
    decay_mult: 1
  }
  param {
    lr_mult: 2
    decay_mult: 0
  }
  convolution_param {
    num_output: 256
    pad: 1
    kernel_size: 3
    weight_filler {
      type: "xavier"
    }
    bias_filler {
      type: "constant"
      value: 0
    }
  }
}
layer {
  name: "relu3_1"
  type: "ReLU"
  bottom: "conv3_1"
  top: "conv3_1"
}
layer {
  name: "conv3_2"
  type: "Convolution"
  bottom: "conv3_1"
  top: "conv3_2"
  param {
    lr_mult: 1
    decay_mult: 1
  }
  param {
    lr_mult: 2
    decay_mult: 0
  }
  convolution_param {
    num_output: 256
    pad: 1
    kernel_size: 3
    weight_filler {
      type: "xavier"
    }
    bias_filler {
      type: "constant"
      value: 0
    }
  }
}
layer {
  name: "relu3_2"
  type: "ReLU"
  bottom: "conv3_2"
  top: "conv3_2"
}
layer {
  name: "conv3_3"
  type: "Convolution"
  bottom: "conv3_2"
  top: "conv3_3"
  param {
    lr_mult: 1
    decay_mult: 1
  }
  param {
    lr_mult: 2
    decay_mult: 0
  }
  convolution_param {
    num_output: 256
    pad: 1
    kernel_size: 3
    weight_filler {
      type: "xavier"
    }
    bias_filler {
      type: "constant"
      value: 0
    }
  }
}
layer {
  name: "relu3_3"
  type: "ReLU"
  bottom: "conv3_3"
  top: "conv3_3"
}
layer {
  name: "pool3"
  type: "Pooling"
  bottom: "conv3_3"
  top: "pool3"
  pooling_param {
    pool: MAX
    kernel_size: 2
    stride: 2
  }
}
layer {
  name: "conv4_1"
  type: "Convolution"
  bottom: "pool3"
  top: "conv4_1"
  param {
    lr_mult: 1
    decay_mult: 1
  }
  param {
    lr_mult: 2
    decay_mult: 0
  }
  convolution_param {
    num_output: 512
    pad: 1
    kernel_size: 3
    weight_filler {
      type: "xavier"
    }
    bias_filler {
      type: "constant"
      value: 0
    }
  }
}
layer {
  name: "relu4_1"
  type: "ReLU"
  bottom: "conv4_1"
  top: "conv4_1"
}
layer {
  name: "conv4_2"
  type: "Convolution"
  bottom: "conv4_1"
  top: "conv4_2"
  param {
    lr_mult: 1
    decay_mult: 1
  }
  param {
    lr_mult: 2
    decay_mult: 0
  }
  convolution_param {
    num_output: 512
    pad: 1
    kernel_size: 3
    weight_filler {
      type: "xavier"
    }
    bias_filler {
      type: "constant"
      value: 0
    }
  }
}
layer {
  name: "relu4_2"
  type: "ReLU"
  bottom: "conv4_2"
  top: "conv4_2"
}
layer {
  name: "conv4_3"
  type: "Convolution"
  bottom: "conv4_2"
  top: "conv4_3"
  param {
    lr_mult: 1
    decay_mult: 1
  }
  param {
    lr_mult: 2
    decay_mult: 0
  }
  convolution_param {
    num_output: 512
    pad: 1
    kernel_size: 3
    weight_filler {
      type: "xavier"
    }
    bias_filler {
      type: "constant"
      value: 0
    }
  }
}
layer {
  name: "relu4_3"
  type: "ReLU"
  bottom: "conv4_3"
  top: "conv4_3"
}
layer {
  name: "pool4"
  type: "Pooling"
  bottom: "conv4_3"
  top: "pool4"
  pooling_param {
    pool: MAX
    kernel_size: 2
    stride: 2
  }
}
layer {
  name: "conv5_1"
  type: "Convolution"
  bottom: "pool4"
  top: "conv5_1"
  param {
    lr_mult: 1
    decay_mult: 1
  }
  param {
    lr_mult: 2
    decay_mult: 0
  }
  convolution_param {
    num_output: 512
    pad: 1
    kernel_size: 3
    weight_filler {
      type: "xavier"
    }
    bias_filler {
      type: "constant"
      value: 0
    }
    dilation: 1
  }
}
layer {
  name: "relu5_1"
  type: "ReLU"
  bottom: "conv5_1"
  top: "conv5_1"
}
layer {
  name: "conv5_2"
  type: "Convolution"
  bottom: "conv5_1"
  top: "conv5_2"
  param {
    lr_mult: 1
    decay_mult: 1
  }
  param {
    lr_mult: 2
    decay_mult: 0
  }
  convolution_param {
    num_output: 512
    pad: 1
    kernel_size: 3
    weight_filler {
      type: "xavier"
    }
    bias_filler {
      type: "constant"
      value: 0
    }
    dilation: 1
  }
}
layer {
  name: "relu5_2"
  type: "ReLU"
  bottom: "conv5_2"
  top: "conv5_2"
}
layer {
  name: "conv5_3"
  type: "Convolution"
  bottom: "conv5_2"
  top: "conv5_3"
  param {
    lr_mult: 1
    decay_mult: 1
  }
  param {
    lr_mult: 2
    decay_mult: 0
  }
  convolution_param {
    num_output: 512
    pad: 1
    kernel_size: 3
    weight_filler {
      type: "xavier"
    }
    bias_filler {
      type: "constant"
      value: 0
    }
    dilation: 1
  }
}
layer {
  name: "relu5_3"
  type: "ReLU"
  bottom: "conv5_3"
  top: "conv5_3"
}
layer {
  name: "pool5"
  type: "Pooling"
  bottom: "conv5_3"
  top: "pool5"
  pooling_param {
    pool: MAX
    kernel_size: 3
    stride: 1
    pad: 1
  }
}
layer {
  name: "fc6"
  type: "Convolution"
  bottom: "pool5"
  top: "fc6"
  param {
    lr_mult: 1
    decay_mult: 1
  }
  param {
    lr_mult: 2
    decay_mult: 0
  }
  convolution_param {
    num_output: 1024
    pad: 6
    kernel_size: 3
    weight_filler {
      type: "xavier"
    }
    bias_filler {
      type: "constant"
      value: 0
    }
    dilation: 6
  }
}
layer {
  name: "relu6"
  type: "ReLU"
  bottom: "fc6"
  top: "fc6"
}
layer {
  name: "fc7"
  type: "Convolution"
  bottom: "fc6"
  top: "fc7"
  param {
    lr_mult: 1
    decay_mult: 1
  }
  param {
    lr_mult: 2
    decay_mult: 0
  }
  convolution_param {
    num_output: 1024
    kernel_size: 1
    weight_filler {
      type: "xavier"
    }
    bias_filler {
      type: "constant"
      value: 0
    }
  }
}
layer {
  name: "relu7"
  type: "ReLU"
  bottom: "fc7"
  top: "fc7"
}
layer {
  name: "ssd1_1"
  type: "Convolution"
  bottom: "fc7"
  top: "ssd1_1"
  param {
    lr_mult: 1
    decay_mult: 1
  }
  param {
    lr_mult: 2
    decay_mult: 0
  }
  convolution_param {
    num_output: 256
    pad: 0
    kernel_size: 1
    stride: 1
    weight_filler {
      type: "xavier"
    }
    bias_filler {
      type: "constant"
      value: 0
    }
  }
}
layer {
  name: "ssd1_1_relu"
  type: "ReLU"
  bottom: "ssd1_1"
  top: "ssd1_1"
}
layer {
  name: "ssd1_2"
  type: "Convolution"
  bottom: "ssd1_1"
  top: "ssd1_2"
  param {
    lr_mult: 1
    decay_mult: 1
  }
  param {
    lr_mult: 2
    decay_mult: 0
  }
  convolution_param {
    num_output: 512
    pad: 1
    kernel_size: 3
    stride: 2
    weight_filler {
      type: "xavier"
    }
    bias_filler {
      type: "constant"
      value: 0
    }
  }
}
layer {
  name: "ssd1_2_relu"
  type: "ReLU"
  bottom: "ssd1_2"
  top: "ssd1_2"
}
layer {
  name: "ssd2_1"
  type: "Convolution"
  bottom: "ssd1_2"
  top: "ssd2_1"
  param {
    lr_mult: 1
    decay_mult: 1
  }
  param {
    lr_mult: 2
    decay_mult: 0
  }
  convolution_param {
    num_output: 128
    pad: 0
    kernel_size: 1
    stride: 1
    weight_filler {
      type: "xavier"
    }
    bias_filler {
      type: "constant"
      value: 0
    }
  }
}
layer {
  name: "ssd2_1_relu"
  type: "ReLU"
  bottom: "ssd2_1"
  top: "ssd2_1"
}
layer {
  name: "ssd2_2"
  type: "Convolution"
  bottom: "ssd2_1"
  top: "ssd2_2"
  param {
    lr_mult: 1
    decay_mult: 1
  }
  param {
    lr_mult: 2
    decay_mult: 0
  }
  convolution_param {
    num_output: 256
    pad: 1
    kernel_size: 3
    stride: 2
    weight_filler {
      type: "xavier"
    }
    bias_filler {
      type: "constant"
      value: 0
    }
  }
}
layer {
  name: "ssd2_2_relu"
  type: "ReLU"
  bottom: "ssd2_2"
  top: "ssd2_2"
}
layer {
  name: "ssd3_1"
  type: "Convolution"
  bottom: "ssd2_2"
  top: "ssd3_1"
  param {
    lr_mult: 1
    decay_mult: 1
  }
  param {
    lr_mult: 2
    decay_mult: 0
  }
  convolution_param {
    num_output: 128
    pad: 0
    kernel_size: 1
    stride: 1
    weight_filler {
      type: "xavier"
    }
    bias_filler {
      type: "constant"
      value: 0
    }
  }
}
layer {
  name: "ssd3_1_relu"
  type: "ReLU"
  bottom: "ssd3_1"
  top: "ssd3_1"
}
layer {
  name: "ssd3_2"
  type: "Convolution"
  bottom: "ssd3_1"
  top: "ssd3_2"
  param {
    lr_mult: 1
    decay_mult: 1
  }
  param {
    lr_mult: 2
    decay_mult: 0
  }
  convolution_param {
    num_output: 256
    pad: 0
    kernel_size: 3
    stride: 1
    weight_filler {
      type: "xavier"
    }
    bias_filler {
      type: "constant"
      value: 0
    }
  }
}
layer {
  name: "ssd3_2_relu"
  type: "ReLU"
  bottom: "ssd3_2"
  top: "ssd3_2"
}
layer {
  name: "ssd4_1"
  type: "Convolution"
  bottom: "ssd3_2"
  top: "ssd4_1"
  param {
    lr_mult: 1
    decay_mult: 1
  }
  param {
    lr_mult: 2
    decay_mult: 0
  }
  convolution_param {
    num_output: 128
    pad: 0
    kernel_size: 1
    stride: 1
    weight_filler {
      type: "xavier"
    }
    bias_filler {
      type: "constant"
      value: 0
    }
  }
}
layer {
  name: "ssd4_1_relu"
  type: "ReLU"
  bottom: "ssd4_1"
  top: "ssd4_1"
}
layer {
  name: "ssd4_2"
  type: "Convolution"
  bottom: "ssd4_1"
  top: "ssd4_2"
  param {
    lr_mult: 1
    decay_mult: 1
  }
  param {
    lr_mult: 2
    decay_mult: 0
  }
  convolution_param {
    num_output: 256
    pad: 0
    kernel_size: 3
    stride: 1
    weight_filler {
      type: "xavier"
    }
    bias_filler {
      type: "constant"
      value: 0
    }
  }
}
layer {
  name: "ssd4_2_relu"
  type: "ReLU"
  bottom: "ssd4_2"
  top: "ssd4_2"
}
layer {
  name: "conv4_3_norm"
  type: "Normalize"
  bottom: "conv4_3"
  top: "conv4_3_norm"
  norm_param {
    across_spatial: false
    scale_filler {
      type: "constant"
      value: 20
    }
    channel_shared: false
  }
}
layer {
  name: "conv4_3_norm_mbox_loc"
  type: "Convolution"
  bottom: "conv4_3_norm"
  top: "conv4_3_norm_mbox_loc"
  param {
    lr_mult: 1
    decay_mult: 1
  }
  param {
    lr_mult: 2
    decay_mult: 0
  }
  convolution_param {
    num_output: 8
    pad: 1
    kernel_size: 3
    stride: 1
    weight_filler {
      type: "xavier"
    }
    bias_filler {
      type: "constant"
      value: 0
    }
  }
}
layer {
  name: "conv4_3_norm_mbox_loc_perm"
  type: "Permute"
  bottom: "conv4_3_norm_mbox_loc"
  top: "conv4_3_norm_mbox_loc_perm"
  permute_param {
    order: 0
    order: 2
    order: 3
    order: 1
  }
}
layer {
  name: "conv4_3_norm_mbox_loc_flat"
  type: "Flatten"
  bottom: "conv4_3_norm_mbox_loc_perm"
  top: "conv4_3_norm_mbox_loc_flat"
  flatten_param {
    axis: 1
  }
}
layer {
  name: "conv4_3_norm_mbox_conf"
  type: "Convolution"
  bottom: "conv4_3_norm"
  top: "conv4_3_norm_mbox_conf"
  param {
    lr_mult: 1
    decay_mult: 1
  }
  param {
    lr_mult: 2
    decay_mult: 0
  }
  convolution_param {
    num_output: 10
    pad: 1
    kernel_size: 3
    stride: 1
    weight_filler {
      type: "xavier"
    }
    bias_filler {
      type: "constant"
      value: 0
    }
  }
}
layer {
  name: "conv4_3_norm_mbox_conf_perm"
  type: "Permute"
  bottom: "conv4_3_norm_mbox_conf"
  top: "conv4_3_norm_mbox_conf_perm"
  permute_param {
    order: 0
    order: 2
    order: 3
    order: 1
  }
}
layer {
  name: "conv4_3_norm_mbox_conf_flat"
  type: "Flatten"
  bottom: "conv4_3_norm_mbox_conf_perm"
  top: "conv4_3_norm_mbox_conf_flat"
  flatten_param {
    axis: 1
  }
}
layer {
  name: "conv4_3_norm_mbox_priorbox"
  type: "PriorBox"
  bottom: "conv4_3_norm"
  bottom: "data"
  top: "conv4_3_norm_mbox_priorbox"
  prior_box_param {
    min_size: 15
    max_size: 30
    clip: false
    variance: 0.1
    variance: 0.1
    variance: 0.2
    variance: 0.2
    step: 8
    offset: 0.5
  }
}
layer {
  name: "fc7_mbox_loc"
  type: "Convolution"
  bottom: "fc7"
  top: "fc7_mbox_loc"
  param {
    lr_mult: 1
    decay_mult: 1
  }
  param {
    lr_mult: 2
    decay_mult: 0
  }
  convolution_param {
    num_output: 8
    pad: 1
    kernel_size: 3
    stride: 1
    weight_filler {
      type: "xavier"
    }
    bias_filler {
      type: "constant"
      value: 0
    }
  }
}
layer {
  name: "fc7_mbox_loc_perm"
  type: "Permute"
  bottom: "fc7_mbox_loc"
  top: "fc7_mbox_loc_perm"
  permute_param {
    order: 0
    order: 2
    order: 3
    order: 1
  }
}
layer {
  name: "fc7_mbox_loc_flat"
  type: "Flatten"
  bottom: "fc7_mbox_loc_perm"
  top: "fc7_mbox_loc_flat"
  flatten_param {
    axis: 1
  }
}
layer {
  name: "fc7_mbox_conf"
  type: "Convolution"
  bottom: "fc7"
  top: "fc7_mbox_conf"
  param {
    lr_mult: 1
    decay_mult: 1
  }
  param {
    lr_mult: 2
    decay_mult: 0
  }
  convolution_param {
    num_output: 10
    pad: 1
    kernel_size: 3
    stride: 1
    weight_filler {
      type: "xavier"
    }
    bias_filler {
      type: "constant"
      value: 0
    }
  }
}
layer {
  name: "fc7_mbox_conf_perm"
  type: "Permute"
  bottom: "fc7_mbox_conf"
  top: "fc7_mbox_conf_perm"
  permute_param {
    order: 0
    order: 2
    order: 3
    order: 1
  }
}
layer {
  name: "fc7_mbox_conf_flat"
  type: "Flatten"
  bottom: "fc7_mbox_conf_perm"
  top: "fc7_mbox_conf_flat"
  flatten_param {
    axis: 1
  }
}
layer {
  name: "fc7_mbox_priorbox"
  type: "PriorBox"
  bottom: "fc7"
  bottom: "data"
  top: "fc7_mbox_priorbox"
  prior_box_param {
    min_size: 30
    max_size: 60
    clip: false
    variance: 0.1
    variance: 0.1
    variance: 0.2
    variance: 0.2
    step: 16
    offset: 0.5
  }
}
layer {
  name: "ssd1_2_mbox_loc"
  type: "Convolution"
  bottom: "ssd1_2"
  top: "ssd1_2_mbox_loc"
  param {
    lr_mult: 1
    decay_mult: 1
  }
  param {
    lr_mult: 2
    decay_mult: 0
  }
  convolution_param {
    num_output: 8
    pad: 1
    kernel_size: 3
    stride: 1
    weight_filler {
      type: "xavier"
    }
    bias_filler {
      type: "constant"
      value: 0
    }
  }
}
layer {
  name: "ssd1_2_mbox_loc_perm"
  type: "Permute"
  bottom: "ssd1_2_mbox_loc"
  top: "ssd1_2_mbox_loc_perm"
  permute_param {
    order: 0
    order: 2
    order: 3
    order: 1
  }
}
layer {
  name: "ssd1_2_mbox_loc_flat"
  type: "Flatten"
  bottom: "ssd1_2_mbox_loc_perm"
  top: "ssd1_2_mbox_loc_flat"
  flatten_param {
    axis: 1
  }
}
layer {
  name: "ssd1_2_mbox_conf"
  type: "Convolution"
  bottom: "ssd1_2"
  top: "ssd1_2_mbox_conf"
  param {
    lr_mult: 1
    decay_mult: 1
  }
  param {
    lr_mult: 2
    decay_mult: 0
  }
  convolution_param {
    num_output: 10
    pad: 1
    kernel_size: 3
    stride: 1
    weight_filler {
      type: "xavier"
    }
    bias_filler {
      type: "constant"
      value: 0
    }
  }
}
layer {
  name: "ssd1_2_mbox_conf_perm"
  type: "Permute"
  bottom: "ssd1_2_mbox_conf"
  top: "ssd1_2_mbox_conf_perm"
  permute_param {
    order: 0
    order: 2
    order: 3
    order: 1
  }
}
layer {
  name: "ssd1_2_mbox_conf_flat"
  type: "Flatten"
  bottom: "ssd1_2_mbox_conf_perm"
  top: "ssd1_2_mbox_conf_flat"
  flatten_param {
    axis: 1
  }
}
layer {
  name: "ssd1_2_mbox_priorbox"
  type: "PriorBox"
  bottom: "ssd1_2"
  bottom: "data"
  top: "ssd1_2_mbox_priorbox"
  prior_box_param {
    min_size: 60
    max_size: 90
    clip: false
    variance: 0.1
    variance: 0.1
    variance: 0.2
    variance: 0.2
    step: 32
    offset: 0.5
  }
}
layer {
  name: "ssd2_2_mbox_loc"
  type: "Convolution"
  bottom: "ssd2_2"
  top: "ssd2_2_mbox_loc"
  param {
    lr_mult: 1
    decay_mult: 1
  }
  param {
    lr_mult: 2
    decay_mult: 0
  }
  convolution_param {
    num_output: 8
    pad: 1
    kernel_size: 3
    stride: 1
    weight_filler {
      type: "xavier"
    }
    bias_filler {
      type: "constant"
      value: 0
    }
  }
}
layer {
  name: "ssd2_2_mbox_loc_perm"
  type: "Permute"
  bottom: "ssd2_2_mbox_loc"
  top: "ssd2_2_mbox_loc_perm"
  permute_param {
    order: 0
    order: 2
    order: 3
    order: 1
  }
}
layer {
  name: "ssd2_2_mbox_loc_flat"
  type: "Flatten"
  bottom: "ssd2_2_mbox_loc_perm"
  top: "ssd2_2_mbox_loc_flat"
  flatten_param {
    axis: 1
  }
}
layer {
  name: "ssd2_2_mbox_conf"
  type: "Convolution"
  bottom: "ssd2_2"
  top: "ssd2_2_mbox_conf"
  param {
    lr_mult: 1
    decay_mult: 1
  }
  param {
    lr_mult: 2
    decay_mult: 0
  }
  convolution_param {
    num_output: 10
    pad: 1
    kernel_size: 3
    stride: 1
    weight_filler {
      type: "xavier"
    }
    bias_filler {
      type: "constant"
      value: 0
    }
  }
}
layer {
  name: "ssd2_2_mbox_conf_perm"
  type: "Permute"
  bottom: "ssd2_2_mbox_conf"
  top: "ssd2_2_mbox_conf_perm"
  permute_param {
    order: 0
    order: 2
    order: 3
    order: 1
  }
}
layer {
  name: "ssd2_2_mbox_conf_flat"
  type: "Flatten"
  bottom: "ssd2_2_mbox_conf_perm"
  top: "ssd2_2_mbox_conf_flat"
  flatten_param {
    axis: 1
  }
}
layer {
  name: "ssd2_2_mbox_priorbox"
  type: "PriorBox"
  bottom: "ssd2_2"
  bottom: "data"
  top: "ssd2_2_mbox_priorbox"
  prior_box_param {
    min_size: 90
    max_size: 120
    clip: false
    variance: 0.1
    variance: 0.1
    variance: 0.2
    variance: 0.2
    step: 64
    offset: 0.5
  }
}
layer {
  name: "ssd3_2_mbox_loc"
  type: "Convolution"
  bottom: "ssd3_2"
  top: "ssd3_2_mbox_loc"
  param {
    lr_mult: 1
    decay_mult: 1
  }
  param {
    lr_mult: 2
    decay_mult: 0
  }
  convolution_param {
    num_output: 8
    pad: 1
    kernel_size: 3
    stride: 1
    weight_filler {
      type: "xavier"
    }
    bias_filler {
      type: "constant"
      value: 0
    }
  }
}
layer {
  name: "ssd3_2_mbox_loc_perm"
  type: "Permute"
  bottom: "ssd3_2_mbox_loc"
  top: "ssd3_2_mbox_loc_perm"
  permute_param {
    order: 0
    order: 2
    order: 3
    order: 1
  }
}
layer {
  name: "ssd3_2_mbox_loc_flat"
  type: "Flatten"
  bottom: "ssd3_2_mbox_loc_perm"
  top: "ssd3_2_mbox_loc_flat"
  flatten_param {
    axis: 1
  }
}
layer {
  name: "ssd3_2_mbox_conf"
  type: "Convolution"
  bottom: "ssd3_2"
  top: "ssd3_2_mbox_conf"
  param {
    lr_mult: 1
    decay_mult: 1
  }
  param {
    lr_mult: 2
    decay_mult: 0
  }
  convolution_param {
    num_output: 10
    pad: 1
    kernel_size: 3
    stride: 1
    weight_filler {
      type: "xavier"
    }
    bias_filler {
      type: "constant"
      value: 0
    }
  }
}
layer {
  name: "ssd3_2_mbox_conf_perm"
  type: "Permute"
  bottom: "ssd3_2_mbox_conf"
  top: "ssd3_2_mbox_conf_perm"
  permute_param {
    order: 0
    order: 2
    order: 3
    order: 1
  }
}
layer {
  name: "ssd3_2_mbox_conf_flat"
  type: "Flatten"
  bottom: "ssd3_2_mbox_conf_perm"
  top: "ssd3_2_mbox_conf_flat"
  flatten_param {
    axis: 1
  }
}
layer {
  name: "ssd3_2_mbox_priorbox"
  type: "PriorBox"
  bottom: "ssd3_2"
  bottom: "data"
  top: "ssd3_2_mbox_priorbox"
  prior_box_param {
    min_size: 120
    max_size: 150
    clip: false
    variance: 0.1
    variance: 0.1
    variance: 0.2
    variance: 0.2
    step: 100
    offset: 0.5
  }
}
layer {
  name: "ssd4_2_mbox_loc"
  type: "Convolution"
  bottom: "ssd4_2"
  top: "ssd4_2_mbox_loc"
  param {
    lr_mult: 1
    decay_mult: 1
  }
  param {
    lr_mult: 2
    decay_mult: 0
  }
  convolution_param {
    num_output: 8
    pad: 1
    kernel_size: 3
    stride: 1
    weight_filler {
      type: "xavier"
    }
    bias_filler {
      type: "constant"
      value: 0
    }
  }
}
layer {
  name: "ssd4_2_mbox_loc_perm"
  type: "Permute"
  bottom: "ssd4_2_mbox_loc"
  top: "ssd4_2_mbox_loc_perm"
  permute_param {
    order: 0
    order: 2
    order: 3
    order: 1
  }
}
layer {
  name: "ssd4_2_mbox_loc_flat"
  type: "Flatten"
  bottom: "ssd4_2_mbox_loc_perm"
  top: "ssd4_2_mbox_loc_flat"
  flatten_param {
    axis: 1
  }
}
layer {
  name: "ssd4_2_mbox_conf"
  type: "Convolution"
  bottom: "ssd4_2"
  top: "ssd4_2_mbox_conf"
  param {
    lr_mult: 1
    decay_mult: 1
  }
  param {
    lr_mult: 2
    decay_mult: 0
  }
  convolution_param {
    num_output: 10
    pad: 1
    kernel_size: 3
    stride: 1
    weight_filler {
      type: "xavier"
    }
    bias_filler {
      type: "constant"
      value: 0
    }
  }
}
layer {
  name: "ssd4_2_mbox_conf_perm"
  type: "Permute"
  bottom: "ssd4_2_mbox_conf"
  top: "ssd4_2_mbox_conf_perm"
  permute_param {
    order: 0
    order: 2
    order: 3
    order: 1
  }
}
layer {
  name: "ssd4_2_mbox_conf_flat"
  type: "Flatten"
  bottom: "ssd4_2_mbox_conf_perm"
  top: "ssd4_2_mbox_conf_flat"
  flatten_param {
    axis: 1
  }
}
layer {
  name: "ssd4_2_mbox_priorbox"
  type: "PriorBox"
  bottom: "ssd4_2"
  bottom: "data"
  top: "ssd4_2_mbox_priorbox"
  prior_box_param {
    min_size: 150
    max_size: 180
    clip: false
    variance: 0.1
    variance: 0.1
    variance: 0.2
    variance: 0.2
    step: 300
    offset: 0.5
  }
}
layer {
  name: "mbox_loc"
  type: "Concat"
  bottom: "conv4_3_norm_mbox_loc_flat"
  bottom: "fc7_mbox_loc_flat"
  bottom: "ssd1_2_mbox_loc_flat"
  bottom: "ssd2_2_mbox_loc_flat"
  bottom: "ssd3_2_mbox_loc_flat"
  bottom: "ssd4_2_mbox_loc_flat"
  top: "mbox_loc"
  concat_param {
    axis: 1
  }
}
layer {
  name: "mbox_conf"
  type: "Concat"
  bottom: "conv4_3_norm_mbox_conf_flat"
  bottom: "fc7_mbox_conf_flat"
  bottom: "ssd1_2_mbox_conf_flat"
  bottom: "ssd2_2_mbox_conf_flat"
  bottom: "ssd3_2_mbox_conf_flat"
  bottom: "ssd4_2_mbox_conf_flat"
  top: "mbox_conf"
  concat_param {
    axis: 1
  }
}
layer {
  name: "mbox_priorbox"
  type: "Concat"
  bottom: "conv4_3_norm_mbox_priorbox"
  bottom: "fc7_mbox_priorbox"
  bottom: "ssd1_2_mbox_priorbox"
  bottom: "ssd2_2_mbox_priorbox"
  bottom: "ssd3_2_mbox_priorbox"
  bottom: "ssd4_2_mbox_priorbox"
  top: "mbox_priorbox"
  concat_param {
    axis: 2
  }
}
layer {
  name: "mbox_loss"
  type: "MultiBoxLoss"
  bottom: "mbox_loc"
  bottom: "mbox_conf"
  bottom: "mbox_priorbox"
  bottom: "label"
  top: "mbox_loss"
  include {
    phase: TRAIN
  }
  propagate_down: true
  propagate_down: true
  propagate_down: false
  propagate_down: false
  loss_param {
    normalization: VALID
  }
  multibox_loss_param {
    loc_loss_type: SMOOTH_L1
    conf_loss_type: SOFTMAX
    loc_weight: 1
    num_classes: 5
    share_location: true
    match_type: PER_PREDICTION
    overlap_threshold: 0.5
    use_prior_for_matching: true
    background_label_id: 0
    use_difficult_gt: true
    neg_pos_ratio: 3
    neg_overlap: 0.5
    code_type: CENTER_SIZE
    ignore_cross_boundary_bbox: false
    mining_type: MAX_NEGATIVE
  }
}
I0906 23:00:46.604943  4807 layer_factory.hpp:77] Creating layer data
I0906 23:00:46.605032  4807 net.cpp:100] Creating Layer data
I0906 23:00:46.605039  4807 net.cpp:408] data -> data
I0906 23:00:46.605057  4807 net.cpp:408] data -> label
I0906 23:00:46.605700  4818 db_lmdb.cpp:35] Opened lmdb examples/GTSDB/GTSDB_trainval_lmdb
I0906 23:00:46.619911  4807 annotated_data_layer.cpp:62] output data size: 1,3,300,510
I0906 23:00:46.622532  4807 net.cpp:150] Setting up data
I0906 23:00:46.622547  4807 net.cpp:157] Top shape: 1 3 300 510 (459000)
I0906 23:00:46.622550  4807 net.cpp:157] Top shape: 1 1 3 8 (24)
I0906 23:00:46.622552  4807 net.cpp:165] Memory required for data: 1836096
I0906 23:00:46.622558  4807 layer_factory.hpp:77] Creating layer data_data_0_split
I0906 23:00:46.622568  4807 net.cpp:100] Creating Layer data_data_0_split
I0906 23:00:46.622573  4807 net.cpp:434] data_data_0_split <- data
I0906 23:00:46.622582  4807 net.cpp:408] data_data_0_split -> data_data_0_split_0
I0906 23:00:46.622601  4807 net.cpp:408] data_data_0_split -> data_data_0_split_1
I0906 23:00:46.622604  4807 net.cpp:408] data_data_0_split -> data_data_0_split_2
I0906 23:00:46.622609  4807 net.cpp:408] data_data_0_split -> data_data_0_split_3
I0906 23:00:46.622613  4807 net.cpp:408] data_data_0_split -> data_data_0_split_4
I0906 23:00:46.622617  4807 net.cpp:408] data_data_0_split -> data_data_0_split_5
I0906 23:00:46.622622  4807 net.cpp:408] data_data_0_split -> data_data_0_split_6
I0906 23:00:46.622676  4807 net.cpp:150] Setting up data_data_0_split
I0906 23:00:46.622680  4807 net.cpp:157] Top shape: 1 3 300 510 (459000)
I0906 23:00:46.622683  4807 net.cpp:157] Top shape: 1 3 300 510 (459000)
I0906 23:00:46.622685  4807 net.cpp:157] Top shape: 1 3 300 510 (459000)
I0906 23:00:46.622687  4807 net.cpp:157] Top shape: 1 3 300 510 (459000)
I0906 23:00:46.622690  4807 net.cpp:157] Top shape: 1 3 300 510 (459000)
I0906 23:00:46.622692  4807 net.cpp:157] Top shape: 1 3 300 510 (459000)
I0906 23:00:46.622694  4807 net.cpp:157] Top shape: 1 3 300 510 (459000)
I0906 23:00:46.622696  4807 net.cpp:165] Memory required for data: 14688096
I0906 23:00:46.622699  4807 layer_factory.hpp:77] Creating layer conv1_1
I0906 23:00:46.622709  4807 net.cpp:100] Creating Layer conv1_1
I0906 23:00:46.622711  4807 net.cpp:434] conv1_1 <- data_data_0_split_0
I0906 23:00:46.622716  4807 net.cpp:408] conv1_1 -> conv1_1
I0906 23:00:46.944384  4807 net.cpp:150] Setting up conv1_1
I0906 23:00:46.944403  4807 net.cpp:157] Top shape: 1 64 300 510 (9792000)
I0906 23:00:46.944406  4807 net.cpp:165] Memory required for data: 53856096
I0906 23:00:46.944427  4807 layer_factory.hpp:77] Creating layer relu1_1
I0906 23:00:46.944434  4807 net.cpp:100] Creating Layer relu1_1
I0906 23:00:46.944438  4807 net.cpp:434] relu1_1 <- conv1_1
I0906 23:00:46.944443  4807 net.cpp:395] relu1_1 -> conv1_1 (in-place)
I0906 23:00:46.944715  4807 net.cpp:150] Setting up relu1_1
I0906 23:00:46.944721  4807 net.cpp:157] Top shape: 1 64 300 510 (9792000)
I0906 23:00:46.944725  4807 net.cpp:165] Memory required for data: 93024096
I0906 23:00:46.944727  4807 layer_factory.hpp:77] Creating layer conv1_2
I0906 23:00:46.944738  4807 net.cpp:100] Creating Layer conv1_2
I0906 23:00:46.944741  4807 net.cpp:434] conv1_2 <- conv1_1
I0906 23:00:46.944746  4807 net.cpp:408] conv1_2 -> conv1_2
I0906 23:00:46.946631  4807 net.cpp:150] Setting up conv1_2
I0906 23:00:46.946642  4807 net.cpp:157] Top shape: 1 64 300 510 (9792000)
I0906 23:00:46.946645  4807 net.cpp:165] Memory required for data: 132192096
I0906 23:00:46.946653  4807 layer_factory.hpp:77] Creating layer relu1_2
I0906 23:00:46.946660  4807 net.cpp:100] Creating Layer relu1_2
I0906 23:00:46.946662  4807 net.cpp:434] relu1_2 <- conv1_2
I0906 23:00:46.946666  4807 net.cpp:395] relu1_2 -> conv1_2 (in-place)
I0906 23:00:46.946910  4807 net.cpp:150] Setting up relu1_2
I0906 23:00:46.946918  4807 net.cpp:157] Top shape: 1 64 300 510 (9792000)
I0906 23:00:46.946920  4807 net.cpp:165] Memory required for data: 171360096
I0906 23:00:46.946923  4807 layer_factory.hpp:77] Creating layer pool1
I0906 23:00:46.946928  4807 net.cpp:100] Creating Layer pool1
I0906 23:00:46.946931  4807 net.cpp:434] pool1 <- conv1_2
I0906 23:00:46.946935  4807 net.cpp:408] pool1 -> pool1
I0906 23:00:46.946975  4807 net.cpp:150] Setting up pool1
I0906 23:00:46.946980  4807 net.cpp:157] Top shape: 1 64 150 255 (2448000)
I0906 23:00:46.946982  4807 net.cpp:165] Memory required for data: 181152096
I0906 23:00:46.946985  4807 layer_factory.hpp:77] Creating layer conv2_1
I0906 23:00:46.946992  4807 net.cpp:100] Creating Layer conv2_1
I0906 23:00:46.946995  4807 net.cpp:434] conv2_1 <- pool1
I0906 23:00:46.947000  4807 net.cpp:408] conv2_1 -> conv2_1
I0906 23:00:46.948596  4807 net.cpp:150] Setting up conv2_1
I0906 23:00:46.948606  4807 net.cpp:157] Top shape: 1 128 150 255 (4896000)
I0906 23:00:46.948608  4807 net.cpp:165] Memory required for data: 200736096
I0906 23:00:46.948616  4807 layer_factory.hpp:77] Creating layer relu2_1
I0906 23:00:46.948622  4807 net.cpp:100] Creating Layer relu2_1
I0906 23:00:46.948640  4807 net.cpp:434] relu2_1 <- conv2_1
I0906 23:00:46.948644  4807 net.cpp:395] relu2_1 -> conv2_1 (in-place)
I0906 23:00:46.948892  4807 net.cpp:150] Setting up relu2_1
I0906 23:00:46.948899  4807 net.cpp:157] Top shape: 1 128 150 255 (4896000)
I0906 23:00:46.948902  4807 net.cpp:165] Memory required for data: 220320096
I0906 23:00:46.948905  4807 layer_factory.hpp:77] Creating layer conv2_2
I0906 23:00:46.948912  4807 net.cpp:100] Creating Layer conv2_2
I0906 23:00:46.948916  4807 net.cpp:434] conv2_2 <- conv2_1
I0906 23:00:46.948920  4807 net.cpp:408] conv2_2 -> conv2_2
I0906 23:00:46.951508  4807 net.cpp:150] Setting up conv2_2
I0906 23:00:46.951517  4807 net.cpp:157] Top shape: 1 128 150 255 (4896000)
I0906 23:00:46.951520  4807 net.cpp:165] Memory required for data: 239904096
I0906 23:00:46.951526  4807 layer_factory.hpp:77] Creating layer relu2_2
I0906 23:00:46.951531  4807 net.cpp:100] Creating Layer relu2_2
I0906 23:00:46.951534  4807 net.cpp:434] relu2_2 <- conv2_2
I0906 23:00:46.951539  4807 net.cpp:395] relu2_2 -> conv2_2 (in-place)
I0906 23:00:46.951907  4807 net.cpp:150] Setting up relu2_2
I0906 23:00:46.951915  4807 net.cpp:157] Top shape: 1 128 150 255 (4896000)
I0906 23:00:46.951917  4807 net.cpp:165] Memory required for data: 259488096
I0906 23:00:46.951921  4807 layer_factory.hpp:77] Creating layer pool2
I0906 23:00:46.951926  4807 net.cpp:100] Creating Layer pool2
I0906 23:00:46.951928  4807 net.cpp:434] pool2 <- conv2_2
I0906 23:00:46.951932  4807 net.cpp:408] pool2 -> pool2
I0906 23:00:46.951966  4807 net.cpp:150] Setting up pool2
I0906 23:00:46.951972  4807 net.cpp:157] Top shape: 1 128 75 128 (1228800)
I0906 23:00:46.951973  4807 net.cpp:165] Memory required for data: 264403296
I0906 23:00:46.951977  4807 layer_factory.hpp:77] Creating layer conv3_1
I0906 23:00:46.951983  4807 net.cpp:100] Creating Layer conv3_1
I0906 23:00:46.951987  4807 net.cpp:434] conv3_1 <- pool2
I0906 23:00:46.951990  4807 net.cpp:408] conv3_1 -> conv3_1
I0906 23:00:46.955639  4807 net.cpp:150] Setting up conv3_1
I0906 23:00:46.955651  4807 net.cpp:157] Top shape: 1 256 75 128 (2457600)
I0906 23:00:46.955653  4807 net.cpp:165] Memory required for data: 274233696
I0906 23:00:46.955662  4807 layer_factory.hpp:77] Creating layer relu3_1
I0906 23:00:46.955667  4807 net.cpp:100] Creating Layer relu3_1
I0906 23:00:46.955672  4807 net.cpp:434] relu3_1 <- conv3_1
I0906 23:00:46.955675  4807 net.cpp:395] relu3_1 -> conv3_1 (in-place)
I0906 23:00:46.955929  4807 net.cpp:150] Setting up relu3_1
I0906 23:00:46.955935  4807 net.cpp:157] Top shape: 1 256 75 128 (2457600)
I0906 23:00:46.955938  4807 net.cpp:165] Memory required for data: 284064096
I0906 23:00:46.955941  4807 layer_factory.hpp:77] Creating layer conv3_2
I0906 23:00:46.955948  4807 net.cpp:100] Creating Layer conv3_2
I0906 23:00:46.955951  4807 net.cpp:434] conv3_2 <- conv3_1
I0906 23:00:46.955957  4807 net.cpp:408] conv3_2 -> conv3_2
I0906 23:00:46.961189  4807 net.cpp:150] Setting up conv3_2
I0906 23:00:46.961199  4807 net.cpp:157] Top shape: 1 256 75 128 (2457600)
I0906 23:00:46.961201  4807 net.cpp:165] Memory required for data: 293894496
I0906 23:00:46.961208  4807 layer_factory.hpp:77] Creating layer relu3_2
I0906 23:00:46.961215  4807 net.cpp:100] Creating Layer relu3_2
I0906 23:00:46.961216  4807 net.cpp:434] relu3_2 <- conv3_2
I0906 23:00:46.961220  4807 net.cpp:395] relu3_2 -> conv3_2 (in-place)
I0906 23:00:46.961467  4807 net.cpp:150] Setting up relu3_2
I0906 23:00:46.961473  4807 net.cpp:157] Top shape: 1 256 75 128 (2457600)
I0906 23:00:46.961475  4807 net.cpp:165] Memory required for data: 303724896
I0906 23:00:46.961478  4807 layer_factory.hpp:77] Creating layer conv3_3
I0906 23:00:46.961488  4807 net.cpp:100] Creating Layer conv3_3
I0906 23:00:46.961490  4807 net.cpp:434] conv3_3 <- conv3_2
I0906 23:00:46.961495  4807 net.cpp:408] conv3_3 -> conv3_3
I0906 23:00:46.966769  4807 net.cpp:150] Setting up conv3_3
I0906 23:00:46.966781  4807 net.cpp:157] Top shape: 1 256 75 128 (2457600)
I0906 23:00:46.966784  4807 net.cpp:165] Memory required for data: 313555296
I0906 23:00:46.966805  4807 layer_factory.hpp:77] Creating layer relu3_3
I0906 23:00:46.966810  4807 net.cpp:100] Creating Layer relu3_3
I0906 23:00:46.966814  4807 net.cpp:434] relu3_3 <- conv3_3
I0906 23:00:46.966820  4807 net.cpp:395] relu3_3 -> conv3_3 (in-place)
I0906 23:00:46.967067  4807 net.cpp:150] Setting up relu3_3
I0906 23:00:46.967074  4807 net.cpp:157] Top shape: 1 256 75 128 (2457600)
I0906 23:00:46.967077  4807 net.cpp:165] Memory required for data: 323385696
I0906 23:00:46.967080  4807 layer_factory.hpp:77] Creating layer pool3
I0906 23:00:46.967085  4807 net.cpp:100] Creating Layer pool3
I0906 23:00:46.967088  4807 net.cpp:434] pool3 <- conv3_3
I0906 23:00:46.967093  4807 net.cpp:408] pool3 -> pool3
I0906 23:00:46.967126  4807 net.cpp:150] Setting up pool3
I0906 23:00:46.967131  4807 net.cpp:157] Top shape: 1 256 38 64 (622592)
I0906 23:00:46.967133  4807 net.cpp:165] Memory required for data: 325876064
I0906 23:00:46.967136  4807 layer_factory.hpp:77] Creating layer conv4_1
I0906 23:00:46.967144  4807 net.cpp:100] Creating Layer conv4_1
I0906 23:00:46.967146  4807 net.cpp:434] conv4_1 <- pool3
I0906 23:00:46.967150  4807 net.cpp:408] conv4_1 -> conv4_1
I0906 23:00:46.975874  4807 net.cpp:150] Setting up conv4_1
I0906 23:00:46.975911  4807 net.cpp:157] Top shape: 1 512 38 64 (1245184)
I0906 23:00:46.975919  4807 net.cpp:165] Memory required for data: 330856800
I0906 23:00:46.975931  4807 layer_factory.hpp:77] Creating layer relu4_1
I0906 23:00:46.975944  4807 net.cpp:100] Creating Layer relu4_1
I0906 23:00:46.975951  4807 net.cpp:434] relu4_1 <- conv4_1
I0906 23:00:46.975960  4807 net.cpp:395] relu4_1 -> conv4_1 (in-place)
I0906 23:00:46.976271  4807 net.cpp:150] Setting up relu4_1
I0906 23:00:46.976286  4807 net.cpp:157] Top shape: 1 512 38 64 (1245184)
I0906 23:00:46.976294  4807 net.cpp:165] Memory required for data: 335837536
I0906 23:00:46.976301  4807 layer_factory.hpp:77] Creating layer conv4_2
I0906 23:00:46.976313  4807 net.cpp:100] Creating Layer conv4_2
I0906 23:00:46.976321  4807 net.cpp:434] conv4_2 <- conv4_1
I0906 23:00:46.976330  4807 net.cpp:408] conv4_2 -> conv4_2
I0906 23:00:46.990695  4807 net.cpp:150] Setting up conv4_2
I0906 23:00:46.990737  4807 net.cpp:157] Top shape: 1 512 38 64 (1245184)
I0906 23:00:46.990746  4807 net.cpp:165] Memory required for data: 340818272
I0906 23:00:46.990764  4807 layer_factory.hpp:77] Creating layer relu4_2
I0906 23:00:46.990777  4807 net.cpp:100] Creating Layer relu4_2
I0906 23:00:46.990787  4807 net.cpp:434] relu4_2 <- conv4_2
I0906 23:00:46.990797  4807 net.cpp:395] relu4_2 -> conv4_2 (in-place)
I0906 23:00:46.991228  4807 net.cpp:150] Setting up relu4_2
I0906 23:00:46.991242  4807 net.cpp:157] Top shape: 1 512 38 64 (1245184)
I0906 23:00:46.991250  4807 net.cpp:165] Memory required for data: 345799008
I0906 23:00:46.991257  4807 layer_factory.hpp:77] Creating layer conv4_3
I0906 23:00:46.991271  4807 net.cpp:100] Creating Layer conv4_3
I0906 23:00:46.991277  4807 net.cpp:434] conv4_3 <- conv4_2
I0906 23:00:46.991288  4807 net.cpp:408] conv4_3 -> conv4_3
I0906 23:00:47.005384  4807 net.cpp:150] Setting up conv4_3
I0906 23:00:47.005424  4807 net.cpp:157] Top shape: 1 512 38 64 (1245184)
I0906 23:00:47.005431  4807 net.cpp:165] Memory required for data: 350779744
I0906 23:00:47.005442  4807 layer_factory.hpp:77] Creating layer relu4_3
I0906 23:00:47.005455  4807 net.cpp:100] Creating Layer relu4_3
I0906 23:00:47.005465  4807 net.cpp:434] relu4_3 <- conv4_3
I0906 23:00:47.005472  4807 net.cpp:395] relu4_3 -> conv4_3 (in-place)
I0906 23:00:47.005725  4807 net.cpp:150] Setting up relu4_3
I0906 23:00:47.005738  4807 net.cpp:157] Top shape: 1 512 38 64 (1245184)
I0906 23:00:47.005745  4807 net.cpp:165] Memory required for data: 355760480
I0906 23:00:47.005753  4807 layer_factory.hpp:77] Creating layer conv4_3_relu4_3_0_split
I0906 23:00:47.005761  4807 net.cpp:100] Creating Layer conv4_3_relu4_3_0_split
I0906 23:00:47.005769  4807 net.cpp:434] conv4_3_relu4_3_0_split <- conv4_3
I0906 23:00:47.005782  4807 net.cpp:408] conv4_3_relu4_3_0_split -> conv4_3_relu4_3_0_split_0
I0906 23:00:47.005800  4807 net.cpp:408] conv4_3_relu4_3_0_split -> conv4_3_relu4_3_0_split_1
I0906 23:00:47.005838  4807 net.cpp:150] Setting up conv4_3_relu4_3_0_split
I0906 23:00:47.005849  4807 net.cpp:157] Top shape: 1 512 38 64 (1245184)
I0906 23:00:47.005857  4807 net.cpp:157] Top shape: 1 512 38 64 (1245184)
I0906 23:00:47.005863  4807 net.cpp:165] Memory required for data: 365721952
I0906 23:00:47.005870  4807 layer_factory.hpp:77] Creating layer pool4
I0906 23:00:47.005880  4807 net.cpp:100] Creating Layer pool4
I0906 23:00:47.005887  4807 net.cpp:434] pool4 <- conv4_3_relu4_3_0_split_0
I0906 23:00:47.005897  4807 net.cpp:408] pool4 -> pool4
I0906 23:00:47.005931  4807 net.cpp:150] Setting up pool4
I0906 23:00:47.005941  4807 net.cpp:157] Top shape: 1 512 19 32 (311296)
I0906 23:00:47.005949  4807 net.cpp:165] Memory required for data: 366967136
I0906 23:00:47.005955  4807 layer_factory.hpp:77] Creating layer conv5_1
I0906 23:00:47.005967  4807 net.cpp:100] Creating Layer conv5_1
I0906 23:00:47.005975  4807 net.cpp:434] conv5_1 <- pool4
I0906 23:00:47.005986  4807 net.cpp:408] conv5_1 -> conv5_1
I0906 23:00:47.020340  4807 net.cpp:150] Setting up conv5_1
I0906 23:00:47.020378  4807 net.cpp:157] Top shape: 1 512 19 32 (311296)
I0906 23:00:47.020386  4807 net.cpp:165] Memory required for data: 368212320
I0906 23:00:47.020398  4807 layer_factory.hpp:77] Creating layer relu5_1
I0906 23:00:47.020411  4807 net.cpp:100] Creating Layer relu5_1
I0906 23:00:47.020418  4807 net.cpp:434] relu5_1 <- conv5_1
I0906 23:00:47.020427  4807 net.cpp:395] relu5_1 -> conv5_1 (in-place)
I0906 23:00:47.020684  4807 net.cpp:150] Setting up relu5_1
I0906 23:00:47.020696  4807 net.cpp:157] Top shape: 1 512 19 32 (311296)
I0906 23:00:47.020704  4807 net.cpp:165] Memory required for data: 369457504
I0906 23:00:47.020711  4807 layer_factory.hpp:77] Creating layer conv5_2
I0906 23:00:47.020725  4807 net.cpp:100] Creating Layer conv5_2
I0906 23:00:47.020731  4807 net.cpp:434] conv5_2 <- conv5_1
I0906 23:00:47.020741  4807 net.cpp:408] conv5_2 -> conv5_2
I0906 23:00:47.035524  4807 net.cpp:150] Setting up conv5_2
I0906 23:00:47.035563  4807 net.cpp:157] Top shape: 1 512 19 32 (311296)
I0906 23:00:47.035571  4807 net.cpp:165] Memory required for data: 370702688
I0906 23:00:47.035583  4807 layer_factory.hpp:77] Creating layer relu5_2
I0906 23:00:47.035595  4807 net.cpp:100] Creating Layer relu5_2
I0906 23:00:47.035604  4807 net.cpp:434] relu5_2 <- conv5_2
I0906 23:00:47.035614  4807 net.cpp:395] relu5_2 -> conv5_2 (in-place)
I0906 23:00:47.035897  4807 net.cpp:150] Setting up relu5_2
I0906 23:00:47.035910  4807 net.cpp:157] Top shape: 1 512 19 32 (311296)
I0906 23:00:47.035918  4807 net.cpp:165] Memory required for data: 371947872
I0906 23:00:47.035926  4807 layer_factory.hpp:77] Creating layer conv5_3
I0906 23:00:47.035940  4807 net.cpp:100] Creating Layer conv5_3
I0906 23:00:47.035948  4807 net.cpp:434] conv5_3 <- conv5_2
I0906 23:00:47.035959  4807 net.cpp:408] conv5_3 -> conv5_3
I0906 23:00:47.053541  4807 net.cpp:150] Setting up conv5_3
I0906 23:00:47.053561  4807 net.cpp:157] Top shape: 1 512 19 32 (311296)
I0906 23:00:47.053565  4807 net.cpp:165] Memory required for data: 373193056
I0906 23:00:47.053572  4807 layer_factory.hpp:77] Creating layer relu5_3
I0906 23:00:47.053584  4807 net.cpp:100] Creating Layer relu5_3
I0906 23:00:47.053588  4807 net.cpp:434] relu5_3 <- conv5_3
I0906 23:00:47.053593  4807 net.cpp:395] relu5_3 -> conv5_3 (in-place)
I0906 23:00:47.054040  4807 net.cpp:150] Setting up relu5_3
I0906 23:00:47.054049  4807 net.cpp:157] Top shape: 1 512 19 32 (311296)
I0906 23:00:47.054052  4807 net.cpp:165] Memory required for data: 374438240
I0906 23:00:47.054056  4807 layer_factory.hpp:77] Creating layer pool5
I0906 23:00:47.054061  4807 net.cpp:100] Creating Layer pool5
I0906 23:00:47.054064  4807 net.cpp:434] pool5 <- conv5_3
I0906 23:00:47.054070  4807 net.cpp:408] pool5 -> pool5
I0906 23:00:47.054111  4807 net.cpp:150] Setting up pool5
I0906 23:00:47.054117  4807 net.cpp:157] Top shape: 1 512 19 32 (311296)
I0906 23:00:47.054131  4807 net.cpp:165] Memory required for data: 375683424
I0906 23:00:47.054134  4807 layer_factory.hpp:77] Creating layer fc6
I0906 23:00:47.054143  4807 net.cpp:100] Creating Layer fc6
I0906 23:00:47.054147  4807 net.cpp:434] fc6 <- pool5
I0906 23:00:47.054152  4807 net.cpp:408] fc6 -> fc6
I0906 23:00:47.086707  4807 net.cpp:150] Setting up fc6
I0906 23:00:47.086733  4807 net.cpp:157] Top shape: 1 1024 19 32 (622592)
I0906 23:00:47.086736  4807 net.cpp:165] Memory required for data: 378173792
I0906 23:00:47.086745  4807 layer_factory.hpp:77] Creating layer relu6
I0906 23:00:47.086753  4807 net.cpp:100] Creating Layer relu6
I0906 23:00:47.086757  4807 net.cpp:434] relu6 <- fc6
I0906 23:00:47.086764  4807 net.cpp:395] relu6 -> fc6 (in-place)
I0906 23:00:47.087139  4807 net.cpp:150] Setting up relu6
I0906 23:00:47.087147  4807 net.cpp:157] Top shape: 1 1024 19 32 (622592)
I0906 23:00:47.087150  4807 net.cpp:165] Memory required for data: 380664160
I0906 23:00:47.087154  4807 layer_factory.hpp:77] Creating layer fc7
I0906 23:00:47.087164  4807 net.cpp:100] Creating Layer fc7
I0906 23:00:47.087167  4807 net.cpp:434] fc7 <- fc6
I0906 23:00:47.087173  4807 net.cpp:408] fc7 -> fc7
I0906 23:00:47.095772  4807 net.cpp:150] Setting up fc7
I0906 23:00:47.095789  4807 net.cpp:157] Top shape: 1 1024 19 32 (622592)
I0906 23:00:47.095793  4807 net.cpp:165] Memory required for data: 383154528
I0906 23:00:47.095800  4807 layer_factory.hpp:77] Creating layer relu7
I0906 23:00:47.095808  4807 net.cpp:100] Creating Layer relu7
I0906 23:00:47.095811  4807 net.cpp:434] relu7 <- fc7
I0906 23:00:47.095818  4807 net.cpp:395] relu7 -> fc7 (in-place)
I0906 23:00:47.096138  4807 net.cpp:150] Setting up relu7
I0906 23:00:47.096145  4807 net.cpp:157] Top shape: 1 1024 19 32 (622592)
I0906 23:00:47.096148  4807 net.cpp:165] Memory required for data: 385644896
I0906 23:00:47.096151  4807 layer_factory.hpp:77] Creating layer fc7_relu7_0_split
I0906 23:00:47.096158  4807 net.cpp:100] Creating Layer fc7_relu7_0_split
I0906 23:00:47.096161  4807 net.cpp:434] fc7_relu7_0_split <- fc7
I0906 23:00:47.096166  4807 net.cpp:408] fc7_relu7_0_split -> fc7_relu7_0_split_0
I0906 23:00:47.096173  4807 net.cpp:408] fc7_relu7_0_split -> fc7_relu7_0_split_1
I0906 23:00:47.096182  4807 net.cpp:408] fc7_relu7_0_split -> fc7_relu7_0_split_2
I0906 23:00:47.096189  4807 net.cpp:408] fc7_relu7_0_split -> fc7_relu7_0_split_3
I0906 23:00:47.096251  4807 net.cpp:150] Setting up fc7_relu7_0_split
I0906 23:00:47.096256  4807 net.cpp:157] Top shape: 1 1024 19 32 (622592)
I0906 23:00:47.096261  4807 net.cpp:157] Top shape: 1 1024 19 32 (622592)
I0906 23:00:47.096266  4807 net.cpp:157] Top shape: 1 1024 19 32 (622592)
I0906 23:00:47.096269  4807 net.cpp:157] Top shape: 1 1024 19 32 (622592)
I0906 23:00:47.096271  4807 net.cpp:165] Memory required for data: 395606368
I0906 23:00:47.096274  4807 layer_factory.hpp:77] Creating layer ssd1_1
I0906 23:00:47.096284  4807 net.cpp:100] Creating Layer ssd1_1
I0906 23:00:47.096287  4807 net.cpp:434] ssd1_1 <- fc7_relu7_0_split_0
I0906 23:00:47.096292  4807 net.cpp:408] ssd1_1 -> ssd1_1
I0906 23:00:47.099825  4807 net.cpp:150] Setting up ssd1_1
I0906 23:00:47.099836  4807 net.cpp:157] Top shape: 1 256 19 32 (155648)
I0906 23:00:47.099838  4807 net.cpp:165] Memory required for data: 396228960
I0906 23:00:47.099844  4807 layer_factory.hpp:77] Creating layer ssd1_1_relu
I0906 23:00:47.099848  4807 net.cpp:100] Creating Layer ssd1_1_relu
I0906 23:00:47.099851  4807 net.cpp:434] ssd1_1_relu <- ssd1_1
I0906 23:00:47.099854  4807 net.cpp:395] ssd1_1_relu -> ssd1_1 (in-place)
I0906 23:00:47.100080  4807 net.cpp:150] Setting up ssd1_1_relu
I0906 23:00:47.100086  4807 net.cpp:157] Top shape: 1 256 19 32 (155648)
I0906 23:00:47.100088  4807 net.cpp:165] Memory required for data: 396851552
I0906 23:00:47.100090  4807 layer_factory.hpp:77] Creating layer ssd1_2
I0906 23:00:47.100096  4807 net.cpp:100] Creating Layer ssd1_2
I0906 23:00:47.100098  4807 net.cpp:434] ssd1_2 <- ssd1_1
I0906 23:00:47.100117  4807 net.cpp:408] ssd1_2 -> ssd1_2
I0906 23:00:47.105926  4807 net.cpp:150] Setting up ssd1_2
I0906 23:00:47.105942  4807 net.cpp:157] Top shape: 1 512 10 16 (81920)
I0906 23:00:47.105944  4807 net.cpp:165] Memory required for data: 397179232
I0906 23:00:47.105954  4807 layer_factory.hpp:77] Creating layer ssd1_2_relu
I0906 23:00:47.105959  4807 net.cpp:100] Creating Layer ssd1_2_relu
I0906 23:00:47.105962  4807 net.cpp:434] ssd1_2_relu <- ssd1_2
I0906 23:00:47.105965  4807 net.cpp:395] ssd1_2_relu -> ssd1_2 (in-place)
I0906 23:00:47.106289  4807 net.cpp:150] Setting up ssd1_2_relu
I0906 23:00:47.106297  4807 net.cpp:157] Top shape: 1 512 10 16 (81920)
I0906 23:00:47.106297  4807 net.cpp:165] Memory required for data: 397506912
I0906 23:00:47.106299  4807 layer_factory.hpp:77] Creating layer ssd1_2_ssd1_2_relu_0_split
I0906 23:00:47.106304  4807 net.cpp:100] Creating Layer ssd1_2_ssd1_2_relu_0_split
I0906 23:00:47.106307  4807 net.cpp:434] ssd1_2_ssd1_2_relu_0_split <- ssd1_2
I0906 23:00:47.106309  4807 net.cpp:408] ssd1_2_ssd1_2_relu_0_split -> ssd1_2_ssd1_2_relu_0_split_0
I0906 23:00:47.106314  4807 net.cpp:408] ssd1_2_ssd1_2_relu_0_split -> ssd1_2_ssd1_2_relu_0_split_1
I0906 23:00:47.106318  4807 net.cpp:408] ssd1_2_ssd1_2_relu_0_split -> ssd1_2_ssd1_2_relu_0_split_2
I0906 23:00:47.106321  4807 net.cpp:408] ssd1_2_ssd1_2_relu_0_split -> ssd1_2_ssd1_2_relu_0_split_3
I0906 23:00:47.106365  4807 net.cpp:150] Setting up ssd1_2_ssd1_2_relu_0_split
I0906 23:00:47.106370  4807 net.cpp:157] Top shape: 1 512 10 16 (81920)
I0906 23:00:47.106372  4807 net.cpp:157] Top shape: 1 512 10 16 (81920)
I0906 23:00:47.106374  4807 net.cpp:157] Top shape: 1 512 10 16 (81920)
I0906 23:00:47.106376  4807 net.cpp:157] Top shape: 1 512 10 16 (81920)
I0906 23:00:47.106379  4807 net.cpp:165] Memory required for data: 398817632
I0906 23:00:47.106380  4807 layer_factory.hpp:77] Creating layer ssd2_1
I0906 23:00:47.106386  4807 net.cpp:100] Creating Layer ssd2_1
I0906 23:00:47.106389  4807 net.cpp:434] ssd2_1 <- ssd1_2_ssd1_2_relu_0_split_0
I0906 23:00:47.106392  4807 net.cpp:408] ssd2_1 -> ssd2_1
I0906 23:00:47.107539  4807 net.cpp:150] Setting up ssd2_1
I0906 23:00:47.107547  4807 net.cpp:157] Top shape: 1 128 10 16 (20480)
I0906 23:00:47.107548  4807 net.cpp:165] Memory required for data: 398899552
I0906 23:00:47.107553  4807 layer_factory.hpp:77] Creating layer ssd2_1_relu
I0906 23:00:47.107555  4807 net.cpp:100] Creating Layer ssd2_1_relu
I0906 23:00:47.107558  4807 net.cpp:434] ssd2_1_relu <- ssd2_1
I0906 23:00:47.107561  4807 net.cpp:395] ssd2_1_relu -> ssd2_1 (in-place)
I0906 23:00:47.107777  4807 net.cpp:150] Setting up ssd2_1_relu
I0906 23:00:47.107784  4807 net.cpp:157] Top shape: 1 128 10 16 (20480)
I0906 23:00:47.107784  4807 net.cpp:165] Memory required for data: 398981472
I0906 23:00:47.107786  4807 layer_factory.hpp:77] Creating layer ssd2_2
I0906 23:00:47.107792  4807 net.cpp:100] Creating Layer ssd2_2
I0906 23:00:47.107795  4807 net.cpp:434] ssd2_2 <- ssd2_1
I0906 23:00:47.107798  4807 net.cpp:408] ssd2_2 -> ssd2_2
I0906 23:00:47.110091  4807 net.cpp:150] Setting up ssd2_2
I0906 23:00:47.110100  4807 net.cpp:157] Top shape: 1 256 5 8 (10240)
I0906 23:00:47.110101  4807 net.cpp:165] Memory required for data: 399022432
I0906 23:00:47.110105  4807 layer_factory.hpp:77] Creating layer ssd2_2_relu
I0906 23:00:47.110110  4807 net.cpp:100] Creating Layer ssd2_2_relu
I0906 23:00:47.110111  4807 net.cpp:434] ssd2_2_relu <- ssd2_2
I0906 23:00:47.110114  4807 net.cpp:395] ssd2_2_relu -> ssd2_2 (in-place)
I0906 23:00:47.110333  4807 net.cpp:150] Setting up ssd2_2_relu
I0906 23:00:47.110338  4807 net.cpp:157] Top shape: 1 256 5 8 (10240)
I0906 23:00:47.110340  4807 net.cpp:165] Memory required for data: 399063392
I0906 23:00:47.110342  4807 layer_factory.hpp:77] Creating layer ssd2_2_ssd2_2_relu_0_split
I0906 23:00:47.110345  4807 net.cpp:100] Creating Layer ssd2_2_ssd2_2_relu_0_split
I0906 23:00:47.110347  4807 net.cpp:434] ssd2_2_ssd2_2_relu_0_split <- ssd2_2
I0906 23:00:47.110352  4807 net.cpp:408] ssd2_2_ssd2_2_relu_0_split -> ssd2_2_ssd2_2_relu_0_split_0
I0906 23:00:47.110365  4807 net.cpp:408] ssd2_2_ssd2_2_relu_0_split -> ssd2_2_ssd2_2_relu_0_split_1
I0906 23:00:47.110369  4807 net.cpp:408] ssd2_2_ssd2_2_relu_0_split -> ssd2_2_ssd2_2_relu_0_split_2
I0906 23:00:47.110373  4807 net.cpp:408] ssd2_2_ssd2_2_relu_0_split -> ssd2_2_ssd2_2_relu_0_split_3
I0906 23:00:47.110417  4807 net.cpp:150] Setting up ssd2_2_ssd2_2_relu_0_split
I0906 23:00:47.110421  4807 net.cpp:157] Top shape: 1 256 5 8 (10240)
I0906 23:00:47.110424  4807 net.cpp:157] Top shape: 1 256 5 8 (10240)
I0906 23:00:47.110426  4807 net.cpp:157] Top shape: 1 256 5 8 (10240)
I0906 23:00:47.110429  4807 net.cpp:157] Top shape: 1 256 5 8 (10240)
I0906 23:00:47.110430  4807 net.cpp:165] Memory required for data: 399227232
I0906 23:00:47.110431  4807 layer_factory.hpp:77] Creating layer ssd3_1
I0906 23:00:47.110437  4807 net.cpp:100] Creating Layer ssd3_1
I0906 23:00:47.110440  4807 net.cpp:434] ssd3_1 <- ssd2_2_ssd2_2_relu_0_split_0
I0906 23:00:47.110443  4807 net.cpp:408] ssd3_1 -> ssd3_1
I0906 23:00:47.111493  4807 net.cpp:150] Setting up ssd3_1
I0906 23:00:47.111500  4807 net.cpp:157] Top shape: 1 128 5 8 (5120)
I0906 23:00:47.111501  4807 net.cpp:165] Memory required for data: 399247712
I0906 23:00:47.111506  4807 layer_factory.hpp:77] Creating layer ssd3_1_relu
I0906 23:00:47.111510  4807 net.cpp:100] Creating Layer ssd3_1_relu
I0906 23:00:47.111511  4807 net.cpp:434] ssd3_1_relu <- ssd3_1
I0906 23:00:47.111515  4807 net.cpp:395] ssd3_1_relu -> ssd3_1 (in-place)
I0906 23:00:47.111732  4807 net.cpp:150] Setting up ssd3_1_relu
I0906 23:00:47.111738  4807 net.cpp:157] Top shape: 1 128 5 8 (5120)
I0906 23:00:47.111740  4807 net.cpp:165] Memory required for data: 399268192
I0906 23:00:47.111742  4807 layer_factory.hpp:77] Creating layer ssd3_2
I0906 23:00:47.111747  4807 net.cpp:100] Creating Layer ssd3_2
I0906 23:00:47.111749  4807 net.cpp:434] ssd3_2 <- ssd3_1
I0906 23:00:47.111752  4807 net.cpp:408] ssd3_2 -> ssd3_2
I0906 23:00:47.114131  4807 net.cpp:150] Setting up ssd3_2
I0906 23:00:47.114140  4807 net.cpp:157] Top shape: 1 256 3 6 (4608)
I0906 23:00:47.114141  4807 net.cpp:165] Memory required for data: 399286624
I0906 23:00:47.114145  4807 layer_factory.hpp:77] Creating layer ssd3_2_relu
I0906 23:00:47.114150  4807 net.cpp:100] Creating Layer ssd3_2_relu
I0906 23:00:47.114152  4807 net.cpp:434] ssd3_2_relu <- ssd3_2
I0906 23:00:47.114156  4807 net.cpp:395] ssd3_2_relu -> ssd3_2 (in-place)
I0906 23:00:47.114379  4807 net.cpp:150] Setting up ssd3_2_relu
I0906 23:00:47.114385  4807 net.cpp:157] Top shape: 1 256 3 6 (4608)
I0906 23:00:47.114387  4807 net.cpp:165] Memory required for data: 399305056
I0906 23:00:47.114388  4807 layer_factory.hpp:77] Creating layer ssd3_2_ssd3_2_relu_0_split
I0906 23:00:47.114392  4807 net.cpp:100] Creating Layer ssd3_2_ssd3_2_relu_0_split
I0906 23:00:47.114394  4807 net.cpp:434] ssd3_2_ssd3_2_relu_0_split <- ssd3_2
I0906 23:00:47.114398  4807 net.cpp:408] ssd3_2_ssd3_2_relu_0_split -> ssd3_2_ssd3_2_relu_0_split_0
I0906 23:00:47.114403  4807 net.cpp:408] ssd3_2_ssd3_2_relu_0_split -> ssd3_2_ssd3_2_relu_0_split_1
I0906 23:00:47.114405  4807 net.cpp:408] ssd3_2_ssd3_2_relu_0_split -> ssd3_2_ssd3_2_relu_0_split_2
I0906 23:00:47.114408  4807 net.cpp:408] ssd3_2_ssd3_2_relu_0_split -> ssd3_2_ssd3_2_relu_0_split_3
I0906 23:00:47.114454  4807 net.cpp:150] Setting up ssd3_2_ssd3_2_relu_0_split
I0906 23:00:47.114457  4807 net.cpp:157] Top shape: 1 256 3 6 (4608)
I0906 23:00:47.114459  4807 net.cpp:157] Top shape: 1 256 3 6 (4608)
I0906 23:00:47.114461  4807 net.cpp:157] Top shape: 1 256 3 6 (4608)
I0906 23:00:47.114464  4807 net.cpp:157] Top shape: 1 256 3 6 (4608)
I0906 23:00:47.114465  4807 net.cpp:165] Memory required for data: 399378784
I0906 23:00:47.114467  4807 layer_factory.hpp:77] Creating layer ssd4_1
I0906 23:00:47.114472  4807 net.cpp:100] Creating Layer ssd4_1
I0906 23:00:47.114475  4807 net.cpp:434] ssd4_1 <- ssd3_2_ssd3_2_relu_0_split_0
I0906 23:00:47.114478  4807 net.cpp:408] ssd4_1 -> ssd4_1
I0906 23:00:47.115520  4807 net.cpp:150] Setting up ssd4_1
I0906 23:00:47.115535  4807 net.cpp:157] Top shape: 1 128 3 6 (2304)
I0906 23:00:47.115536  4807 net.cpp:165] Memory required for data: 399388000
I0906 23:00:47.115540  4807 layer_factory.hpp:77] Creating layer ssd4_1_relu
I0906 23:00:47.115545  4807 net.cpp:100] Creating Layer ssd4_1_relu
I0906 23:00:47.115546  4807 net.cpp:434] ssd4_1_relu <- ssd4_1
I0906 23:00:47.115550  4807 net.cpp:395] ssd4_1_relu -> ssd4_1 (in-place)
I0906 23:00:47.115870  4807 net.cpp:150] Setting up ssd4_1_relu
I0906 23:00:47.115877  4807 net.cpp:157] Top shape: 1 128 3 6 (2304)
I0906 23:00:47.115880  4807 net.cpp:165] Memory required for data: 399397216
I0906 23:00:47.115881  4807 layer_factory.hpp:77] Creating layer ssd4_2
I0906 23:00:47.115887  4807 net.cpp:100] Creating Layer ssd4_2
I0906 23:00:47.115890  4807 net.cpp:434] ssd4_2 <- ssd4_1
I0906 23:00:47.115893  4807 net.cpp:408] ssd4_2 -> ssd4_2
I0906 23:00:47.118322  4807 net.cpp:150] Setting up ssd4_2
I0906 23:00:47.118330  4807 net.cpp:157] Top shape: 1 256 1 4 (1024)
I0906 23:00:47.118332  4807 net.cpp:165] Memory required for data: 399401312
I0906 23:00:47.118336  4807 layer_factory.hpp:77] Creating layer ssd4_2_relu
I0906 23:00:47.118340  4807 net.cpp:100] Creating Layer ssd4_2_relu
I0906 23:00:47.118342  4807 net.cpp:434] ssd4_2_relu <- ssd4_2
I0906 23:00:47.118346  4807 net.cpp:395] ssd4_2_relu -> ssd4_2 (in-place)
I0906 23:00:47.118568  4807 net.cpp:150] Setting up ssd4_2_relu
I0906 23:00:47.118574  4807 net.cpp:157] Top shape: 1 256 1 4 (1024)
I0906 23:00:47.118575  4807 net.cpp:165] Memory required for data: 399405408
I0906 23:00:47.118577  4807 layer_factory.hpp:77] Creating layer ssd4_2_ssd4_2_relu_0_split
I0906 23:00:47.118582  4807 net.cpp:100] Creating Layer ssd4_2_ssd4_2_relu_0_split
I0906 23:00:47.118584  4807 net.cpp:434] ssd4_2_ssd4_2_relu_0_split <- ssd4_2
I0906 23:00:47.118587  4807 net.cpp:408] ssd4_2_ssd4_2_relu_0_split -> ssd4_2_ssd4_2_relu_0_split_0
I0906 23:00:47.118592  4807 net.cpp:408] ssd4_2_ssd4_2_relu_0_split -> ssd4_2_ssd4_2_relu_0_split_1
I0906 23:00:47.118595  4807 net.cpp:408] ssd4_2_ssd4_2_relu_0_split -> ssd4_2_ssd4_2_relu_0_split_2
I0906 23:00:47.118633  4807 net.cpp:150] Setting up ssd4_2_ssd4_2_relu_0_split
I0906 23:00:47.118636  4807 net.cpp:157] Top shape: 1 256 1 4 (1024)
I0906 23:00:47.118638  4807 net.cpp:157] Top shape: 1 256 1 4 (1024)
I0906 23:00:47.118640  4807 net.cpp:157] Top shape: 1 256 1 4 (1024)
I0906 23:00:47.118643  4807 net.cpp:165] Memory required for data: 399417696
I0906 23:00:47.118643  4807 layer_factory.hpp:77] Creating layer conv4_3_norm
I0906 23:00:47.118649  4807 net.cpp:100] Creating Layer conv4_3_norm
I0906 23:00:47.118650  4807 net.cpp:434] conv4_3_norm <- conv4_3_relu4_3_0_split_1
I0906 23:00:47.118654  4807 net.cpp:408] conv4_3_norm -> conv4_3_norm
I0906 23:00:47.118759  4807 net.cpp:150] Setting up conv4_3_norm
I0906 23:00:47.118763  4807 net.cpp:157] Top shape: 1 512 38 64 (1245184)
I0906 23:00:47.118765  4807 net.cpp:165] Memory required for data: 404398432
I0906 23:00:47.118768  4807 layer_factory.hpp:77] Creating layer conv4_3_norm_conv4_3_norm_0_split
I0906 23:00:47.118772  4807 net.cpp:100] Creating Layer conv4_3_norm_conv4_3_norm_0_split
I0906 23:00:47.118773  4807 net.cpp:434] conv4_3_norm_conv4_3_norm_0_split <- conv4_3_norm
I0906 23:00:47.118777  4807 net.cpp:408] conv4_3_norm_conv4_3_norm_0_split -> conv4_3_norm_conv4_3_norm_0_split_0
I0906 23:00:47.118780  4807 net.cpp:408] conv4_3_norm_conv4_3_norm_0_split -> conv4_3_norm_conv4_3_norm_0_split_1
I0906 23:00:47.118783  4807 net.cpp:408] conv4_3_norm_conv4_3_norm_0_split -> conv4_3_norm_conv4_3_norm_0_split_2
I0906 23:00:47.118814  4807 net.cpp:150] Setting up conv4_3_norm_conv4_3_norm_0_split
I0906 23:00:47.118818  4807 net.cpp:157] Top shape: 1 512 38 64 (1245184)
I0906 23:00:47.118820  4807 net.cpp:157] Top shape: 1 512 38 64 (1245184)
I0906 23:00:47.118822  4807 net.cpp:157] Top shape: 1 512 38 64 (1245184)
I0906 23:00:47.118824  4807 net.cpp:165] Memory required for data: 419340640
I0906 23:00:47.118825  4807 layer_factory.hpp:77] Creating layer conv4_3_norm_mbox_loc
I0906 23:00:47.118839  4807 net.cpp:100] Creating Layer conv4_3_norm_mbox_loc
I0906 23:00:47.118841  4807 net.cpp:434] conv4_3_norm_mbox_loc <- conv4_3_norm_conv4_3_norm_0_split_0
I0906 23:00:47.118846  4807 net.cpp:408] conv4_3_norm_mbox_loc -> conv4_3_norm_mbox_loc
I0906 23:00:47.120007  4807 net.cpp:150] Setting up conv4_3_norm_mbox_loc
I0906 23:00:47.120014  4807 net.cpp:157] Top shape: 1 8 38 64 (19456)
I0906 23:00:47.120016  4807 net.cpp:165] Memory required for data: 419418464
I0906 23:00:47.120020  4807 layer_factory.hpp:77] Creating layer conv4_3_norm_mbox_loc_perm
I0906 23:00:47.120024  4807 net.cpp:100] Creating Layer conv4_3_norm_mbox_loc_perm
I0906 23:00:47.120028  4807 net.cpp:434] conv4_3_norm_mbox_loc_perm <- conv4_3_norm_mbox_loc
I0906 23:00:47.120030  4807 net.cpp:408] conv4_3_norm_mbox_loc_perm -> conv4_3_norm_mbox_loc_perm
I0906 23:00:47.120106  4807 net.cpp:150] Setting up conv4_3_norm_mbox_loc_perm
I0906 23:00:47.120110  4807 net.cpp:157] Top shape: 1 38 64 8 (19456)
I0906 23:00:47.120112  4807 net.cpp:165] Memory required for data: 419496288
I0906 23:00:47.120115  4807 layer_factory.hpp:77] Creating layer conv4_3_norm_mbox_loc_flat
I0906 23:00:47.120117  4807 net.cpp:100] Creating Layer conv4_3_norm_mbox_loc_flat
I0906 23:00:47.120120  4807 net.cpp:434] conv4_3_norm_mbox_loc_flat <- conv4_3_norm_mbox_loc_perm
I0906 23:00:47.120123  4807 net.cpp:408] conv4_3_norm_mbox_loc_flat -> conv4_3_norm_mbox_loc_flat
I0906 23:00:47.120146  4807 net.cpp:150] Setting up conv4_3_norm_mbox_loc_flat
I0906 23:00:47.120149  4807 net.cpp:157] Top shape: 1 19456 (19456)
I0906 23:00:47.120151  4807 net.cpp:165] Memory required for data: 419574112
I0906 23:00:47.120153  4807 layer_factory.hpp:77] Creating layer conv4_3_norm_mbox_conf
I0906 23:00:47.120162  4807 net.cpp:100] Creating Layer conv4_3_norm_mbox_conf
I0906 23:00:47.120164  4807 net.cpp:434] conv4_3_norm_mbox_conf <- conv4_3_norm_conv4_3_norm_0_split_1
I0906 23:00:47.120167  4807 net.cpp:408] conv4_3_norm_mbox_conf -> conv4_3_norm_mbox_conf
I0906 23:00:47.121363  4807 net.cpp:150] Setting up conv4_3_norm_mbox_conf
I0906 23:00:47.121371  4807 net.cpp:157] Top shape: 1 10 38 64 (24320)
I0906 23:00:47.121372  4807 net.cpp:165] Memory required for data: 419671392
I0906 23:00:47.121376  4807 layer_factory.hpp:77] Creating layer conv4_3_norm_mbox_conf_perm
I0906 23:00:47.121381  4807 net.cpp:100] Creating Layer conv4_3_norm_mbox_conf_perm
I0906 23:00:47.121383  4807 net.cpp:434] conv4_3_norm_mbox_conf_perm <- conv4_3_norm_mbox_conf
I0906 23:00:47.121385  4807 net.cpp:408] conv4_3_norm_mbox_conf_perm -> conv4_3_norm_mbox_conf_perm
I0906 23:00:47.121459  4807 net.cpp:150] Setting up conv4_3_norm_mbox_conf_perm
I0906 23:00:47.121464  4807 net.cpp:157] Top shape: 1 38 64 10 (24320)
I0906 23:00:47.121465  4807 net.cpp:165] Memory required for data: 419768672
I0906 23:00:47.121467  4807 layer_factory.hpp:77] Creating layer conv4_3_norm_mbox_conf_flat
I0906 23:00:47.121470  4807 net.cpp:100] Creating Layer conv4_3_norm_mbox_conf_flat
I0906 23:00:47.121474  4807 net.cpp:434] conv4_3_norm_mbox_conf_flat <- conv4_3_norm_mbox_conf_perm
I0906 23:00:47.121476  4807 net.cpp:408] conv4_3_norm_mbox_conf_flat -> conv4_3_norm_mbox_conf_flat
I0906 23:00:47.121491  4807 net.cpp:150] Setting up conv4_3_norm_mbox_conf_flat
I0906 23:00:47.121495  4807 net.cpp:157] Top shape: 1 24320 (24320)
I0906 23:00:47.121498  4807 net.cpp:165] Memory required for data: 419865952
I0906 23:00:47.121500  4807 layer_factory.hpp:77] Creating layer conv4_3_norm_mbox_priorbox
I0906 23:00:47.121505  4807 net.cpp:100] Creating Layer conv4_3_norm_mbox_priorbox
I0906 23:00:47.121507  4807 net.cpp:434] conv4_3_norm_mbox_priorbox <- conv4_3_norm_conv4_3_norm_0_split_2
I0906 23:00:47.121511  4807 net.cpp:434] conv4_3_norm_mbox_priorbox <- data_data_0_split_1
I0906 23:00:47.121515  4807 net.cpp:408] conv4_3_norm_mbox_priorbox -> conv4_3_norm_mbox_priorbox
I0906 23:00:47.121533  4807 net.cpp:150] Setting up conv4_3_norm_mbox_priorbox
I0906 23:00:47.121537  4807 net.cpp:157] Top shape: 1 2 19456 (38912)
I0906 23:00:47.121546  4807 net.cpp:165] Memory required for data: 420021600
I0906 23:00:47.121548  4807 layer_factory.hpp:77] Creating layer fc7_mbox_loc
I0906 23:00:47.121554  4807 net.cpp:100] Creating Layer fc7_mbox_loc
I0906 23:00:47.121558  4807 net.cpp:434] fc7_mbox_loc <- fc7_relu7_0_split_1
I0906 23:00:47.121563  4807 net.cpp:408] fc7_mbox_loc -> fc7_mbox_loc
I0906 23:00:47.122834  4807 net.cpp:150] Setting up fc7_mbox_loc
I0906 23:00:47.122841  4807 net.cpp:157] Top shape: 1 8 19 32 (4864)
I0906 23:00:47.122843  4807 net.cpp:165] Memory required for data: 420041056
I0906 23:00:47.122848  4807 layer_factory.hpp:77] Creating layer fc7_mbox_loc_perm
I0906 23:00:47.122853  4807 net.cpp:100] Creating Layer fc7_mbox_loc_perm
I0906 23:00:47.122856  4807 net.cpp:434] fc7_mbox_loc_perm <- fc7_mbox_loc
I0906 23:00:47.122859  4807 net.cpp:408] fc7_mbox_loc_perm -> fc7_mbox_loc_perm
I0906 23:00:47.122936  4807 net.cpp:150] Setting up fc7_mbox_loc_perm
I0906 23:00:47.122939  4807 net.cpp:157] Top shape: 1 19 32 8 (4864)
I0906 23:00:47.122941  4807 net.cpp:165] Memory required for data: 420060512
I0906 23:00:47.122942  4807 layer_factory.hpp:77] Creating layer fc7_mbox_loc_flat
I0906 23:00:47.122947  4807 net.cpp:100] Creating Layer fc7_mbox_loc_flat
I0906 23:00:47.122949  4807 net.cpp:434] fc7_mbox_loc_flat <- fc7_mbox_loc_perm
I0906 23:00:47.122952  4807 net.cpp:408] fc7_mbox_loc_flat -> fc7_mbox_loc_flat
I0906 23:00:47.122969  4807 net.cpp:150] Setting up fc7_mbox_loc_flat
I0906 23:00:47.122972  4807 net.cpp:157] Top shape: 1 4864 (4864)
I0906 23:00:47.122974  4807 net.cpp:165] Memory required for data: 420079968
I0906 23:00:47.122977  4807 layer_factory.hpp:77] Creating layer fc7_mbox_conf
I0906 23:00:47.122982  4807 net.cpp:100] Creating Layer fc7_mbox_conf
I0906 23:00:47.122984  4807 net.cpp:434] fc7_mbox_conf <- fc7_relu7_0_split_2
I0906 23:00:47.122988  4807 net.cpp:408] fc7_mbox_conf -> fc7_mbox_conf
I0906 23:00:47.124341  4807 net.cpp:150] Setting up fc7_mbox_conf
I0906 23:00:47.124347  4807 net.cpp:157] Top shape: 1 10 19 32 (6080)
I0906 23:00:47.124351  4807 net.cpp:165] Memory required for data: 420104288
I0906 23:00:47.124354  4807 layer_factory.hpp:77] Creating layer fc7_mbox_conf_perm
I0906 23:00:47.124359  4807 net.cpp:100] Creating Layer fc7_mbox_conf_perm
I0906 23:00:47.124362  4807 net.cpp:434] fc7_mbox_conf_perm <- fc7_mbox_conf
I0906 23:00:47.124366  4807 net.cpp:408] fc7_mbox_conf_perm -> fc7_mbox_conf_perm
I0906 23:00:47.124441  4807 net.cpp:150] Setting up fc7_mbox_conf_perm
I0906 23:00:47.124444  4807 net.cpp:157] Top shape: 1 19 32 10 (6080)
I0906 23:00:47.124446  4807 net.cpp:165] Memory required for data: 420128608
I0906 23:00:47.124449  4807 layer_factory.hpp:77] Creating layer fc7_mbox_conf_flat
I0906 23:00:47.124452  4807 net.cpp:100] Creating Layer fc7_mbox_conf_flat
I0906 23:00:47.124455  4807 net.cpp:434] fc7_mbox_conf_flat <- fc7_mbox_conf_perm
I0906 23:00:47.124459  4807 net.cpp:408] fc7_mbox_conf_flat -> fc7_mbox_conf_flat
I0906 23:00:47.124475  4807 net.cpp:150] Setting up fc7_mbox_conf_flat
I0906 23:00:47.124478  4807 net.cpp:157] Top shape: 1 6080 (6080)
I0906 23:00:47.124480  4807 net.cpp:165] Memory required for data: 420152928
I0906 23:00:47.124481  4807 layer_factory.hpp:77] Creating layer fc7_mbox_priorbox
I0906 23:00:47.124487  4807 net.cpp:100] Creating Layer fc7_mbox_priorbox
I0906 23:00:47.124490  4807 net.cpp:434] fc7_mbox_priorbox <- fc7_relu7_0_split_3
I0906 23:00:47.124492  4807 net.cpp:434] fc7_mbox_priorbox <- data_data_0_split_2
I0906 23:00:47.124496  4807 net.cpp:408] fc7_mbox_priorbox -> fc7_mbox_priorbox
I0906 23:00:47.124512  4807 net.cpp:150] Setting up fc7_mbox_priorbox
I0906 23:00:47.124516  4807 net.cpp:157] Top shape: 1 2 4864 (9728)
I0906 23:00:47.124517  4807 net.cpp:165] Memory required for data: 420191840
I0906 23:00:47.124519  4807 layer_factory.hpp:77] Creating layer ssd1_2_mbox_loc
I0906 23:00:47.124526  4807 net.cpp:100] Creating Layer ssd1_2_mbox_loc
I0906 23:00:47.124528  4807 net.cpp:434] ssd1_2_mbox_loc <- ssd1_2_ssd1_2_relu_0_split_1
I0906 23:00:47.124539  4807 net.cpp:408] ssd1_2_mbox_loc -> ssd1_2_mbox_loc
I0906 23:00:47.125720  4807 net.cpp:150] Setting up ssd1_2_mbox_loc
I0906 23:00:47.125727  4807 net.cpp:157] Top shape: 1 8 10 16 (1280)
I0906 23:00:47.125730  4807 net.cpp:165] Memory required for data: 420196960
I0906 23:00:47.125735  4807 layer_factory.hpp:77] Creating layer ssd1_2_mbox_loc_perm
I0906 23:00:47.125738  4807 net.cpp:100] Creating Layer ssd1_2_mbox_loc_perm
I0906 23:00:47.125743  4807 net.cpp:434] ssd1_2_mbox_loc_perm <- ssd1_2_mbox_loc
I0906 23:00:47.125747  4807 net.cpp:408] ssd1_2_mbox_loc_perm -> ssd1_2_mbox_loc_perm
I0906 23:00:47.125823  4807 net.cpp:150] Setting up ssd1_2_mbox_loc_perm
I0906 23:00:47.125826  4807 net.cpp:157] Top shape: 1 10 16 8 (1280)
I0906 23:00:47.125828  4807 net.cpp:165] Memory required for data: 420202080
I0906 23:00:47.125830  4807 layer_factory.hpp:77] Creating layer ssd1_2_mbox_loc_flat
I0906 23:00:47.125833  4807 net.cpp:100] Creating Layer ssd1_2_mbox_loc_flat
I0906 23:00:47.125836  4807 net.cpp:434] ssd1_2_mbox_loc_flat <- ssd1_2_mbox_loc_perm
I0906 23:00:47.125841  4807 net.cpp:408] ssd1_2_mbox_loc_flat -> ssd1_2_mbox_loc_flat
I0906 23:00:47.125857  4807 net.cpp:150] Setting up ssd1_2_mbox_loc_flat
I0906 23:00:47.125861  4807 net.cpp:157] Top shape: 1 1280 (1280)
I0906 23:00:47.125864  4807 net.cpp:165] Memory required for data: 420207200
I0906 23:00:47.125865  4807 layer_factory.hpp:77] Creating layer ssd1_2_mbox_conf
I0906 23:00:47.125871  4807 net.cpp:100] Creating Layer ssd1_2_mbox_conf
I0906 23:00:47.125874  4807 net.cpp:434] ssd1_2_mbox_conf <- ssd1_2_ssd1_2_relu_0_split_2
I0906 23:00:47.125879  4807 net.cpp:408] ssd1_2_mbox_conf -> ssd1_2_mbox_conf
I0906 23:00:47.127070  4807 net.cpp:150] Setting up ssd1_2_mbox_conf
I0906 23:00:47.127077  4807 net.cpp:157] Top shape: 1 10 10 16 (1600)
I0906 23:00:47.127080  4807 net.cpp:165] Memory required for data: 420213600
I0906 23:00:47.127084  4807 layer_factory.hpp:77] Creating layer ssd1_2_mbox_conf_perm
I0906 23:00:47.127089  4807 net.cpp:100] Creating Layer ssd1_2_mbox_conf_perm
I0906 23:00:47.127091  4807 net.cpp:434] ssd1_2_mbox_conf_perm <- ssd1_2_mbox_conf
I0906 23:00:47.127094  4807 net.cpp:408] ssd1_2_mbox_conf_perm -> ssd1_2_mbox_conf_perm
I0906 23:00:47.127173  4807 net.cpp:150] Setting up ssd1_2_mbox_conf_perm
I0906 23:00:47.127177  4807 net.cpp:157] Top shape: 1 10 16 10 (1600)
I0906 23:00:47.127179  4807 net.cpp:165] Memory required for data: 420220000
I0906 23:00:47.127182  4807 layer_factory.hpp:77] Creating layer ssd1_2_mbox_conf_flat
I0906 23:00:47.127184  4807 net.cpp:100] Creating Layer ssd1_2_mbox_conf_flat
I0906 23:00:47.127188  4807 net.cpp:434] ssd1_2_mbox_conf_flat <- ssd1_2_mbox_conf_perm
I0906 23:00:47.127192  4807 net.cpp:408] ssd1_2_mbox_conf_flat -> ssd1_2_mbox_conf_flat
I0906 23:00:47.127208  4807 net.cpp:150] Setting up ssd1_2_mbox_conf_flat
I0906 23:00:47.127213  4807 net.cpp:157] Top shape: 1 1600 (1600)
I0906 23:00:47.127214  4807 net.cpp:165] Memory required for data: 420226400
I0906 23:00:47.127216  4807 layer_factory.hpp:77] Creating layer ssd1_2_mbox_priorbox
I0906 23:00:47.127220  4807 net.cpp:100] Creating Layer ssd1_2_mbox_priorbox
I0906 23:00:47.127223  4807 net.cpp:434] ssd1_2_mbox_priorbox <- ssd1_2_ssd1_2_relu_0_split_3
I0906 23:00:47.127226  4807 net.cpp:434] ssd1_2_mbox_priorbox <- data_data_0_split_3
I0906 23:00:47.127230  4807 net.cpp:408] ssd1_2_mbox_priorbox -> ssd1_2_mbox_priorbox
I0906 23:00:47.127249  4807 net.cpp:150] Setting up ssd1_2_mbox_priorbox
I0906 23:00:47.127251  4807 net.cpp:157] Top shape: 1 2 1280 (2560)
I0906 23:00:47.127254  4807 net.cpp:165] Memory required for data: 420236640
I0906 23:00:47.127256  4807 layer_factory.hpp:77] Creating layer ssd2_2_mbox_loc
I0906 23:00:47.127261  4807 net.cpp:100] Creating Layer ssd2_2_mbox_loc
I0906 23:00:47.127264  4807 net.cpp:434] ssd2_2_mbox_loc <- ssd2_2_ssd2_2_relu_0_split_1
I0906 23:00:47.127269  4807 net.cpp:408] ssd2_2_mbox_loc -> ssd2_2_mbox_loc
I0906 23:00:47.128197  4807 net.cpp:150] Setting up ssd2_2_mbox_loc
I0906 23:00:47.128204  4807 net.cpp:157] Top shape: 1 8 5 8 (320)
I0906 23:00:47.128213  4807 net.cpp:165] Memory required for data: 420237920
I0906 23:00:47.128218  4807 layer_factory.hpp:77] Creating layer ssd2_2_mbox_loc_perm
I0906 23:00:47.128222  4807 net.cpp:100] Creating Layer ssd2_2_mbox_loc_perm
I0906 23:00:47.128226  4807 net.cpp:434] ssd2_2_mbox_loc_perm <- ssd2_2_mbox_loc
I0906 23:00:47.128228  4807 net.cpp:408] ssd2_2_mbox_loc_perm -> ssd2_2_mbox_loc_perm
I0906 23:00:47.128304  4807 net.cpp:150] Setting up ssd2_2_mbox_loc_perm
I0906 23:00:47.128307  4807 net.cpp:157] Top shape: 1 5 8 8 (320)
I0906 23:00:47.128309  4807 net.cpp:165] Memory required for data: 420239200
I0906 23:00:47.128311  4807 layer_factory.hpp:77] Creating layer ssd2_2_mbox_loc_flat
I0906 23:00:47.128314  4807 net.cpp:100] Creating Layer ssd2_2_mbox_loc_flat
I0906 23:00:47.128317  4807 net.cpp:434] ssd2_2_mbox_loc_flat <- ssd2_2_mbox_loc_perm
I0906 23:00:47.128321  4807 net.cpp:408] ssd2_2_mbox_loc_flat -> ssd2_2_mbox_loc_flat
I0906 23:00:47.128338  4807 net.cpp:150] Setting up ssd2_2_mbox_loc_flat
I0906 23:00:47.128342  4807 net.cpp:157] Top shape: 1 320 (320)
I0906 23:00:47.128343  4807 net.cpp:165] Memory required for data: 420240480
I0906 23:00:47.128345  4807 layer_factory.hpp:77] Creating layer ssd2_2_mbox_conf
I0906 23:00:47.128350  4807 net.cpp:100] Creating Layer ssd2_2_mbox_conf
I0906 23:00:47.128353  4807 net.cpp:434] ssd2_2_mbox_conf <- ssd2_2_ssd2_2_relu_0_split_2
I0906 23:00:47.128357  4807 net.cpp:408] ssd2_2_mbox_conf -> ssd2_2_mbox_conf
I0906 23:00:47.129482  4807 net.cpp:150] Setting up ssd2_2_mbox_conf
I0906 23:00:47.129488  4807 net.cpp:157] Top shape: 1 10 5 8 (400)
I0906 23:00:47.129492  4807 net.cpp:165] Memory required for data: 420242080
I0906 23:00:47.129495  4807 layer_factory.hpp:77] Creating layer ssd2_2_mbox_conf_perm
I0906 23:00:47.129500  4807 net.cpp:100] Creating Layer ssd2_2_mbox_conf_perm
I0906 23:00:47.129503  4807 net.cpp:434] ssd2_2_mbox_conf_perm <- ssd2_2_mbox_conf
I0906 23:00:47.129508  4807 net.cpp:408] ssd2_2_mbox_conf_perm -> ssd2_2_mbox_conf_perm
I0906 23:00:47.129585  4807 net.cpp:150] Setting up ssd2_2_mbox_conf_perm
I0906 23:00:47.129588  4807 net.cpp:157] Top shape: 1 5 8 10 (400)
I0906 23:00:47.129590  4807 net.cpp:165] Memory required for data: 420243680
I0906 23:00:47.129593  4807 layer_factory.hpp:77] Creating layer ssd2_2_mbox_conf_flat
I0906 23:00:47.129597  4807 net.cpp:100] Creating Layer ssd2_2_mbox_conf_flat
I0906 23:00:47.129600  4807 net.cpp:434] ssd2_2_mbox_conf_flat <- ssd2_2_mbox_conf_perm
I0906 23:00:47.129602  4807 net.cpp:408] ssd2_2_mbox_conf_flat -> ssd2_2_mbox_conf_flat
I0906 23:00:47.129621  4807 net.cpp:150] Setting up ssd2_2_mbox_conf_flat
I0906 23:00:47.129624  4807 net.cpp:157] Top shape: 1 400 (400)
I0906 23:00:47.129626  4807 net.cpp:165] Memory required for data: 420245280
I0906 23:00:47.129627  4807 layer_factory.hpp:77] Creating layer ssd2_2_mbox_priorbox
I0906 23:00:47.129631  4807 net.cpp:100] Creating Layer ssd2_2_mbox_priorbox
I0906 23:00:47.129633  4807 net.cpp:434] ssd2_2_mbox_priorbox <- ssd2_2_ssd2_2_relu_0_split_3
I0906 23:00:47.129637  4807 net.cpp:434] ssd2_2_mbox_priorbox <- data_data_0_split_4
I0906 23:00:47.129639  4807 net.cpp:408] ssd2_2_mbox_priorbox -> ssd2_2_mbox_priorbox
I0906 23:00:47.129662  4807 net.cpp:150] Setting up ssd2_2_mbox_priorbox
I0906 23:00:47.129667  4807 net.cpp:157] Top shape: 1 2 320 (640)
I0906 23:00:47.129668  4807 net.cpp:165] Memory required for data: 420247840
I0906 23:00:47.129670  4807 layer_factory.hpp:77] Creating layer ssd3_2_mbox_loc
I0906 23:00:47.129676  4807 net.cpp:100] Creating Layer ssd3_2_mbox_loc
I0906 23:00:47.129679  4807 net.cpp:434] ssd3_2_mbox_loc <- ssd3_2_ssd3_2_relu_0_split_1
I0906 23:00:47.129683  4807 net.cpp:408] ssd3_2_mbox_loc -> ssd3_2_mbox_loc
I0906 23:00:47.130694  4807 net.cpp:150] Setting up ssd3_2_mbox_loc
I0906 23:00:47.130702  4807 net.cpp:157] Top shape: 1 8 3 6 (144)
I0906 23:00:47.130704  4807 net.cpp:165] Memory required for data: 420248416
I0906 23:00:47.130713  4807 layer_factory.hpp:77] Creating layer ssd3_2_mbox_loc_perm
I0906 23:00:47.130725  4807 net.cpp:100] Creating Layer ssd3_2_mbox_loc_perm
I0906 23:00:47.130728  4807 net.cpp:434] ssd3_2_mbox_loc_perm <- ssd3_2_mbox_loc
I0906 23:00:47.130733  4807 net.cpp:408] ssd3_2_mbox_loc_perm -> ssd3_2_mbox_loc_perm
I0906 23:00:47.130810  4807 net.cpp:150] Setting up ssd3_2_mbox_loc_perm
I0906 23:00:47.130813  4807 net.cpp:157] Top shape: 1 3 6 8 (144)
I0906 23:00:47.130815  4807 net.cpp:165] Memory required for data: 420248992
I0906 23:00:47.130817  4807 layer_factory.hpp:77] Creating layer ssd3_2_mbox_loc_flat
I0906 23:00:47.130820  4807 net.cpp:100] Creating Layer ssd3_2_mbox_loc_flat
I0906 23:00:47.130823  4807 net.cpp:434] ssd3_2_mbox_loc_flat <- ssd3_2_mbox_loc_perm
I0906 23:00:47.130827  4807 net.cpp:408] ssd3_2_mbox_loc_flat -> ssd3_2_mbox_loc_flat
I0906 23:00:47.130844  4807 net.cpp:150] Setting up ssd3_2_mbox_loc_flat
I0906 23:00:47.130847  4807 net.cpp:157] Top shape: 1 144 (144)
I0906 23:00:47.130848  4807 net.cpp:165] Memory required for data: 420249568
I0906 23:00:47.130851  4807 layer_factory.hpp:77] Creating layer ssd3_2_mbox_conf
I0906 23:00:47.130856  4807 net.cpp:100] Creating Layer ssd3_2_mbox_conf
I0906 23:00:47.130858  4807 net.cpp:434] ssd3_2_mbox_conf <- ssd3_2_ssd3_2_relu_0_split_2
I0906 23:00:47.130862  4807 net.cpp:408] ssd3_2_mbox_conf -> ssd3_2_mbox_conf
I0906 23:00:47.131888  4807 net.cpp:150] Setting up ssd3_2_mbox_conf
I0906 23:00:47.131896  4807 net.cpp:157] Top shape: 1 10 3 6 (180)
I0906 23:00:47.131897  4807 net.cpp:165] Memory required for data: 420250288
I0906 23:00:47.131901  4807 layer_factory.hpp:77] Creating layer ssd3_2_mbox_conf_perm
I0906 23:00:47.131906  4807 net.cpp:100] Creating Layer ssd3_2_mbox_conf_perm
I0906 23:00:47.131911  4807 net.cpp:434] ssd3_2_mbox_conf_perm <- ssd3_2_mbox_conf
I0906 23:00:47.131913  4807 net.cpp:408] ssd3_2_mbox_conf_perm -> ssd3_2_mbox_conf_perm
I0906 23:00:47.131988  4807 net.cpp:150] Setting up ssd3_2_mbox_conf_perm
I0906 23:00:47.131992  4807 net.cpp:157] Top shape: 1 3 6 10 (180)
I0906 23:00:47.131994  4807 net.cpp:165] Memory required for data: 420251008
I0906 23:00:47.131995  4807 layer_factory.hpp:77] Creating layer ssd3_2_mbox_conf_flat
I0906 23:00:47.131999  4807 net.cpp:100] Creating Layer ssd3_2_mbox_conf_flat
I0906 23:00:47.132001  4807 net.cpp:434] ssd3_2_mbox_conf_flat <- ssd3_2_mbox_conf_perm
I0906 23:00:47.132006  4807 net.cpp:408] ssd3_2_mbox_conf_flat -> ssd3_2_mbox_conf_flat
I0906 23:00:47.132025  4807 net.cpp:150] Setting up ssd3_2_mbox_conf_flat
I0906 23:00:47.132027  4807 net.cpp:157] Top shape: 1 180 (180)
I0906 23:00:47.132030  4807 net.cpp:165] Memory required for data: 420251728
I0906 23:00:47.132031  4807 layer_factory.hpp:77] Creating layer ssd3_2_mbox_priorbox
I0906 23:00:47.132035  4807 net.cpp:100] Creating Layer ssd3_2_mbox_priorbox
I0906 23:00:47.132037  4807 net.cpp:434] ssd3_2_mbox_priorbox <- ssd3_2_ssd3_2_relu_0_split_3
I0906 23:00:47.132040  4807 net.cpp:434] ssd3_2_mbox_priorbox <- data_data_0_split_5
I0906 23:00:47.132045  4807 net.cpp:408] ssd3_2_mbox_priorbox -> ssd3_2_mbox_priorbox
I0906 23:00:47.132063  4807 net.cpp:150] Setting up ssd3_2_mbox_priorbox
I0906 23:00:47.132066  4807 net.cpp:157] Top shape: 1 2 144 (288)
I0906 23:00:47.132069  4807 net.cpp:165] Memory required for data: 420252880
I0906 23:00:47.132071  4807 layer_factory.hpp:77] Creating layer ssd4_2_mbox_loc
I0906 23:00:47.132076  4807 net.cpp:100] Creating Layer ssd4_2_mbox_loc
I0906 23:00:47.132078  4807 net.cpp:434] ssd4_2_mbox_loc <- ssd4_2_ssd4_2_relu_0_split_0
I0906 23:00:47.132082  4807 net.cpp:408] ssd4_2_mbox_loc -> ssd4_2_mbox_loc
I0906 23:00:47.133193  4807 net.cpp:150] Setting up ssd4_2_mbox_loc
I0906 23:00:47.133200  4807 net.cpp:157] Top shape: 1 8 1 4 (32)
I0906 23:00:47.133203  4807 net.cpp:165] Memory required for data: 420253008
I0906 23:00:47.133208  4807 layer_factory.hpp:77] Creating layer ssd4_2_mbox_loc_perm
I0906 23:00:47.133213  4807 net.cpp:100] Creating Layer ssd4_2_mbox_loc_perm
I0906 23:00:47.133215  4807 net.cpp:434] ssd4_2_mbox_loc_perm <- ssd4_2_mbox_loc
I0906 23:00:47.133226  4807 net.cpp:408] ssd4_2_mbox_loc_perm -> ssd4_2_mbox_loc_perm
I0906 23:00:47.133301  4807 net.cpp:150] Setting up ssd4_2_mbox_loc_perm
I0906 23:00:47.133304  4807 net.cpp:157] Top shape: 1 1 4 8 (32)
I0906 23:00:47.133306  4807 net.cpp:165] Memory required for data: 420253136
I0906 23:00:47.133307  4807 layer_factory.hpp:77] Creating layer ssd4_2_mbox_loc_flat
I0906 23:00:47.133312  4807 net.cpp:100] Creating Layer ssd4_2_mbox_loc_flat
I0906 23:00:47.133316  4807 net.cpp:434] ssd4_2_mbox_loc_flat <- ssd4_2_mbox_loc_perm
I0906 23:00:47.133318  4807 net.cpp:408] ssd4_2_mbox_loc_flat -> ssd4_2_mbox_loc_flat
I0906 23:00:47.133334  4807 net.cpp:150] Setting up ssd4_2_mbox_loc_flat
I0906 23:00:47.133338  4807 net.cpp:157] Top shape: 1 32 (32)
I0906 23:00:47.133340  4807 net.cpp:165] Memory required for data: 420253264
I0906 23:00:47.133342  4807 layer_factory.hpp:77] Creating layer ssd4_2_mbox_conf
I0906 23:00:47.133347  4807 net.cpp:100] Creating Layer ssd4_2_mbox_conf
I0906 23:00:47.133349  4807 net.cpp:434] ssd4_2_mbox_conf <- ssd4_2_ssd4_2_relu_0_split_1
I0906 23:00:47.133354  4807 net.cpp:408] ssd4_2_mbox_conf -> ssd4_2_mbox_conf
I0906 23:00:47.134835  4807 net.cpp:150] Setting up ssd4_2_mbox_conf
I0906 23:00:47.134841  4807 net.cpp:157] Top shape: 1 10 1 4 (40)
I0906 23:00:47.134843  4807 net.cpp:165] Memory required for data: 420253424
I0906 23:00:47.134847  4807 layer_factory.hpp:77] Creating layer ssd4_2_mbox_conf_perm
I0906 23:00:47.134852  4807 net.cpp:100] Creating Layer ssd4_2_mbox_conf_perm
I0906 23:00:47.134855  4807 net.cpp:434] ssd4_2_mbox_conf_perm <- ssd4_2_mbox_conf
I0906 23:00:47.134858  4807 net.cpp:408] ssd4_2_mbox_conf_perm -> ssd4_2_mbox_conf_perm
I0906 23:00:47.134932  4807 net.cpp:150] Setting up ssd4_2_mbox_conf_perm
I0906 23:00:47.134937  4807 net.cpp:157] Top shape: 1 1 4 10 (40)
I0906 23:00:47.134938  4807 net.cpp:165] Memory required for data: 420253584
I0906 23:00:47.134941  4807 layer_factory.hpp:77] Creating layer ssd4_2_mbox_conf_flat
I0906 23:00:47.134946  4807 net.cpp:100] Creating Layer ssd4_2_mbox_conf_flat
I0906 23:00:47.134949  4807 net.cpp:434] ssd4_2_mbox_conf_flat <- ssd4_2_mbox_conf_perm
I0906 23:00:47.134951  4807 net.cpp:408] ssd4_2_mbox_conf_flat -> ssd4_2_mbox_conf_flat
I0906 23:00:47.134969  4807 net.cpp:150] Setting up ssd4_2_mbox_conf_flat
I0906 23:00:47.134973  4807 net.cpp:157] Top shape: 1 40 (40)
I0906 23:00:47.134974  4807 net.cpp:165] Memory required for data: 420253744
I0906 23:00:47.134976  4807 layer_factory.hpp:77] Creating layer ssd4_2_mbox_priorbox
I0906 23:00:47.134981  4807 net.cpp:100] Creating Layer ssd4_2_mbox_priorbox
I0906 23:00:47.134984  4807 net.cpp:434] ssd4_2_mbox_priorbox <- ssd4_2_ssd4_2_relu_0_split_2
I0906 23:00:47.134986  4807 net.cpp:434] ssd4_2_mbox_priorbox <- data_data_0_split_6
I0906 23:00:47.134991  4807 net.cpp:408] ssd4_2_mbox_priorbox -> ssd4_2_mbox_priorbox
I0906 23:00:47.135010  4807 net.cpp:150] Setting up ssd4_2_mbox_priorbox
I0906 23:00:47.135013  4807 net.cpp:157] Top shape: 1 2 32 (64)
I0906 23:00:47.135015  4807 net.cpp:165] Memory required for data: 420254000
I0906 23:00:47.135016  4807 layer_factory.hpp:77] Creating layer mbox_loc
I0906 23:00:47.135021  4807 net.cpp:100] Creating Layer mbox_loc
I0906 23:00:47.135025  4807 net.cpp:434] mbox_loc <- conv4_3_norm_mbox_loc_flat
I0906 23:00:47.135026  4807 net.cpp:434] mbox_loc <- fc7_mbox_loc_flat
I0906 23:00:47.135030  4807 net.cpp:434] mbox_loc <- ssd1_2_mbox_loc_flat
I0906 23:00:47.135033  4807 net.cpp:434] mbox_loc <- ssd2_2_mbox_loc_flat
I0906 23:00:47.135035  4807 net.cpp:434] mbox_loc <- ssd3_2_mbox_loc_flat
I0906 23:00:47.135038  4807 net.cpp:434] mbox_loc <- ssd4_2_mbox_loc_flat
I0906 23:00:47.135041  4807 net.cpp:408] mbox_loc -> mbox_loc
I0906 23:00:47.135062  4807 net.cpp:150] Setting up mbox_loc
I0906 23:00:47.135066  4807 net.cpp:157] Top shape: 1 26096 (26096)
I0906 23:00:47.135067  4807 net.cpp:165] Memory required for data: 420358384
I0906 23:00:47.135069  4807 layer_factory.hpp:77] Creating layer mbox_conf
I0906 23:00:47.135072  4807 net.cpp:100] Creating Layer mbox_conf
I0906 23:00:47.135082  4807 net.cpp:434] mbox_conf <- conv4_3_norm_mbox_conf_flat
I0906 23:00:47.135085  4807 net.cpp:434] mbox_conf <- fc7_mbox_conf_flat
I0906 23:00:47.135088  4807 net.cpp:434] mbox_conf <- ssd1_2_mbox_conf_flat
I0906 23:00:47.135092  4807 net.cpp:434] mbox_conf <- ssd2_2_mbox_conf_flat
I0906 23:00:47.135093  4807 net.cpp:434] mbox_conf <- ssd3_2_mbox_conf_flat
I0906 23:00:47.135095  4807 net.cpp:434] mbox_conf <- ssd4_2_mbox_conf_flat
I0906 23:00:47.135099  4807 net.cpp:408] mbox_conf -> mbox_conf
I0906 23:00:47.135116  4807 net.cpp:150] Setting up mbox_conf
I0906 23:00:47.135120  4807 net.cpp:157] Top shape: 1 32620 (32620)
I0906 23:00:47.135121  4807 net.cpp:165] Memory required for data: 420488864
I0906 23:00:47.135123  4807 layer_factory.hpp:77] Creating layer mbox_priorbox
I0906 23:00:47.135128  4807 net.cpp:100] Creating Layer mbox_priorbox
I0906 23:00:47.135129  4807 net.cpp:434] mbox_priorbox <- conv4_3_norm_mbox_priorbox
I0906 23:00:47.135133  4807 net.cpp:434] mbox_priorbox <- fc7_mbox_priorbox
I0906 23:00:47.135135  4807 net.cpp:434] mbox_priorbox <- ssd1_2_mbox_priorbox
I0906 23:00:47.135138  4807 net.cpp:434] mbox_priorbox <- ssd2_2_mbox_priorbox
I0906 23:00:47.135140  4807 net.cpp:434] mbox_priorbox <- ssd3_2_mbox_priorbox
I0906 23:00:47.135143  4807 net.cpp:434] mbox_priorbox <- ssd4_2_mbox_priorbox
I0906 23:00:47.135148  4807 net.cpp:408] mbox_priorbox -> mbox_priorbox
I0906 23:00:47.135165  4807 net.cpp:150] Setting up mbox_priorbox
I0906 23:00:47.135169  4807 net.cpp:157] Top shape: 1 2 26096 (52192)
I0906 23:00:47.135171  4807 net.cpp:165] Memory required for data: 420697632
I0906 23:00:47.135172  4807 layer_factory.hpp:77] Creating layer mbox_loss
I0906 23:00:47.135179  4807 net.cpp:100] Creating Layer mbox_loss
I0906 23:00:47.135182  4807 net.cpp:434] mbox_loss <- mbox_loc
I0906 23:00:47.135185  4807 net.cpp:434] mbox_loss <- mbox_conf
I0906 23:00:47.135186  4807 net.cpp:434] mbox_loss <- mbox_priorbox
…
state {
  phase: TEST
}
layer {
  name: "data"
  type: "AnnotatedData"
  top: "data"
  top: "label"
  include {
    phase: TEST
  }
  transform_param {
    mean_value: 125
    mean_value: 127
    mean_value: 130
    resize_param {
      prob: 1
      resize_mode: WARP
      height: 300
      width: 510
      interp_mode: LINEAR
    }
  }
  data_param {
    source: "examples/GTSDB/GTSDB_test_lmdb"
    batch_size: 4
    backend: LMDB
  }
  annotated_data_param {
    batch_sampler {
    }
    label_map_file: "data/GTSDB/labelmap_GTSDB.prototxt"
  }
}
layer {
  name: "conv1_1"
  type: "Convolution"
  bottom: "data"
  top: "conv1_1"
  param {
    lr_mult: 1
    decay_mult: 1
  }
  param {
    lr_mult: 2
    decay_mult: 0
  }
  convolution_param {
    num_output: 64
    pad: 1
    kernel_size: 3
    weight_filler {
      type: "xavier"
    }
    bias_filler {
      type: "constant"
      value: 0
    }
  }
}
layer {
  name: "relu1_1"
  type: "ReLU"
  bottom: "conv1_1"
  top: "conv1_1"
}
layer {
  name: "conv1_2"
  type: "Convolution"
  bottom: "conv1_1"
  top: "conv1_2"
  param {
    lr_mult: 1
    decay_mult: 1
  }
  param {
    lr_mult: 2
    decay_mult: 0
  }
  convolution_param {
    num_output: 64
    pad: 1
    kernel_size: 3
    weight_filler {
      type: "xavier"
    }
    bias_filler {
      type: "constant"
      value: 0
    }
  }
}
layer {
  name: "relu1_2"
  type: "ReLU"
  bottom: "conv1_2"
  top: "conv1_2"
}
layer {
  name: "pool1"
  type: "Pooling"
  bottom: "conv1_2"
  top: "pool1"
  pooling_param {
    pool: MAX
    kernel_size: 2
    stride: 2
  }
}
layer {
  name: "conv2_1"
  type: "Convolution"
  bottom: "pool1"
  top: "conv2_1"
  param {
    lr_mult: 1
    decay_mult: 1
  }
  param {
    lr_mult: 2
    decay_mult: 0
  }
  convolution_param {
    num_output: 128
    pad: 1
    kernel_size: 3
    weight_filler {
      type: "xavier"
    }
    bias_filler {
      type: "constant"
      value: 0
    }
  }
}
layer {
  name: "relu2_1"
  type: "ReLU"
  bottom: "conv2_1"
  top: "conv2_1"
}
layer {
  name: "conv2_2"
  type: "Convolution"
  bottom: "conv2_1"
  top: "conv2_2"
  param {
    lr_mult: 1
    decay_mult: 1
  }
  param {
    lr_mult: 2
    decay_mult: 0
  }
  convolution_param {
    num_output: 128
    pad: 1
    kernel_size: 3
    weight_filler {
      type: "xavier"
    }
    bias_filler {
      type: "constant"
      value: 0
    }
  }
}
layer {
  name: "relu2_2"
  type: "ReLU"
  bottom: "conv2_2"
  top: "conv2_2"
}
layer {
  name: "pool2"
  type: "Pooling"
  bottom: "conv2_2"
  top: "pool2"
  pooling_param {
    pool: MAX
    kernel_size: 2
    stride: 2
  }
}
layer {
  name: "conv3_1"
  type: "Convolution"
  bottom: "pool2"
  top: "conv3_1"
  param {
    lr_mult: 1
    decay_mult: 1
  }
  param {
    lr_mult: 2
    decay_mult: 0
  }
  convolution_param {
    num_output: 256
    pad: 1
    kernel_size: 3
    weight_filler {
      type: "xavier"
    }
    bias_filler {
      type: "constant"
      value: 0
    }
  }
}
layer {
  name: "relu3_1"
  type: "ReLU"
  bottom: "conv3_1"
  top: "conv3_1"
}
layer {
  name: "conv3_2"
  type: "Convolution"
  bottom: "conv3_1"
  top: "conv3_2"
  param {
    lr_mult: 1
    decay_mult: 1
  }
  param {
    lr_mult: 2
    decay_mult: 0
  }
  convolution_param {
    num_output: 256
    pad: 1
    kernel_size: 3
    weight_filler {
      type: "xavier"
    }
    bias_filler {
      type: "constant"
      value: 0
    }
  }
}
layer {
  name: "relu3_2"
  type: "ReLU"
  bottom: "conv3_2"
  top: "conv3_2"
}
layer {
  name: "conv3_3"
  type: "Convolution"
  bottom: "conv3_2"
  top: "conv3_3"
  param {
    lr_mult: 1
    decay_mult: 1
  }
  param {
    lr_mult: 2
    decay_mult: 0
  }
  convolution_param {
    num_output: 256
    pad: 1
    kernel_size: 3
    weight_filler {
      type: "xavier"
    }
    bias_filler {
      type: "constant"
      value: 0
    }
  }
}
layer {
  name: "relu3_3"
  type: "ReLU"
  bottom: "conv3_3"
  top: "conv3_3"
}
layer {
  name: "pool3"
  type: "Pooling"
  bottom: "conv3_3"
  top: "pool3"
  pooling_param {
    pool: MAX
    kernel_size: 2
    stride: 2
  }
}
layer {
  name: "conv4_1"
  type: "Convolution"
  bottom: "pool3"
  top: "conv4_1"
  param {
    lr_mult: 1
    decay_mult: 1
  }
  param {
    lr_mult: 2
    decay_mult: 0
  }
  convolution_param {
    num_output: 512
    pad: 1
    kernel_size: 3
    weight_filler {
      type: "xavier"
    }
    bias_filler {
      type: "constant"
      value: 0
    }
  }
}
layer {
  name: "relu4_1"
  type: "ReLU"
  bottom: "conv4_1"
  top: "conv4_1"
}
layer {
  name: "conv4_2"
  type: "Convolution"
  bottom: "conv4_1"
  top: "conv4_2"
  param {
    lr_mult: 1
    decay_mult: 1
  }
  param {
    lr_mult: 2
    decay_mult: 0
  }
  convolution_param {
    num_output: 512
    pad: 1
    kernel_size: 3
    weight_filler {
      type: "xavier"
    }
    bias_filler {
      type: "constant"
      value: 0
    }
  }
}
layer {
  name: "relu4_2"
  type: "ReLU"
  bottom: "conv4_2"
  top: "conv4_2"
}
layer {
  name: "conv4_3"
  type: "Convolution"
  bottom: "conv4_2"
  top: "conv4_3"
  param {
    lr_mult: 1
    decay_mult: 1
  }
  param {
    lr_mult: 2
    decay_mult: 0
  }
  convolution_param {
    num_output: 512
    pad: 1
    kernel_size: 3
    weight_filler {
      type: "xavier"
    }
    bias_filler {
      type: "constant"
      value: 0
    }
  }
}
layer {
  name: "relu4_3"
  type: "ReLU"
  bottom: "conv4_3"
  top: "conv4_3"
}
layer {
  name: "pool4"
  type: "Pooling"
  bottom: "conv4_3"
  top: "pool4"
  pooling_param {
    pool: MAX
    kernel_size: 2
    stride: 2
  }
}
layer {
  name: "conv5_1"
  type: "Convolution"
  bottom: "pool4"
  top: "conv5_1"
  param {
    lr_mult: 1
    decay_mult: 1
  }
  param {
    lr_mult: 2
    decay_mult: 0
  }
  convolution_param {
    num_output: 512
    pad: 1
    kernel_size: 3
    weight_filler {
      type: "xavier"
    }
    bias_filler {
      type: "constant"
      value: 0
    }
    dilation: 1
  }
}
layer {
  name: "relu5_1"
  type: "ReLU"
  bottom: "conv5_1"
  top: "conv5_1"
}
layer {
  name: "conv5_2"
  type: "Convolution"
  bottom: "conv5_1"
  top: "conv5_2"
  param {
    lr_mult: 1
    decay_mult: 1
  }
  param {
    lr_mult: 2
    decay_mult: 0
  }
  convolution_param {
    num_output: 512
    pad: 1
    kernel_size: 3
    weight_filler {
      type: "xavier"
    }
    bias_filler {
      type: "constant"
      value: 0
    }
    dilation: 1
  }
}
layer {
  name: "relu5_2"
  type: "ReLU"
  bottom: "conv5_2"
  top: "conv5_2"
}
layer {
  name: "conv5_3"
  type: "Convolution"
  bottom: "conv5_2"
  top: "conv5_3"
  param {
    lr_mult: 1
    decay_mult: 1
  }
  param {
    lr_mult: 2
    decay_mult: 0
  }
  convolution_param {
    num_output: 512
    pad: 1
    kernel_size: 3
    weight_filler {
      type: "xavier"
    }
    bias_filler {
      type: "constant"
      value: 0
    }
    dilation: 1
  }
}
layer {
  name: "relu5_3"
  type: "ReLU"
  bottom: "conv5_3"
  top: "conv5_3"
}
layer {
  name: "pool5"
  type: "Pooling"
  bottom: "conv5_3"
  top: "pool5"
  pooling_param {
    pool: MAX
    kernel_size: 3
    stride: 1
    pad: 1
  }
}
layer {
  name: "fc6"
  type: "Convolution"
  bottom: "pool5"
  top: "fc6"
  param {
    lr_mult: 1
    decay_mult: 1
  }
  param {
    lr_mult: 2
    decay_mult: 0
  }
  convolution_param {
    num_output: 1024
    pad: 6
    kernel_size: 3
    weight_filler {
      type: "xavier"
    }
    bias_filler {
      type: "constant"
      value: 0
    }
    dilation: 6
  }
}
layer {
  name: "relu6"
  type: "ReLU"
  bottom: "fc6"
  top: "fc6"
}
layer {
  name: "fc7"
  type: "Convolution"
  bottom: "fc6"
  top: "fc7"
  param {
    lr_mult: 1
    decay_mult: 1
  }
  param {
    lr_mult: 2
    decay_mult: 0
  }
  convolution_param {
    num_output: 1024
    kernel_size: 1
    weight_filler {
      type: "xavier"
    }
    bias_filler {
      type: "constant"
      value: 0
    }
  }
}
layer {
  name: "relu7"
  type: "ReLU"
  bottom: "fc7"
  top: "fc7"
}
layer {
  name: "ssd1_1"
  type: "Convolution"
  bottom: "fc7"
  top: "ssd1_1"
  param {
    lr_mult: 1
    decay_mult: 1
  }
  param {
    lr_mult: 2
    decay_mult: 0
  }
  convolution_param {
    num_output: 256
    pad: 0
    kernel_size: 1
    stride: 1
    weight_filler {
      type: "xavier"
    }
    bias_filler {
      type: "constant"
      value: 0
    }
  }
}
layer {
  name: "ssd1_1_relu"
  type: "ReLU"
  bottom: "ssd1_1"
  top: "ssd1_1"
}
layer {
  name: "ssd1_2"
  type: "Convolution"
  bottom: "ssd1_1"
  top: "ssd1_2"
  param {
    lr_mult: 1
    decay_mult: 1
  }
  param {
    lr_mult: 2
    decay_mult: 0
  }
  convolution_param {
    num_output: 512
    pad: 1
    kernel_size: 3
    stride: 2
    weight_filler {
      type: "xavier"
    }
    bias_filler {
      type: "constant"
      value: 0
    }
  }
}
layer {
  name: "ssd1_2_relu"
  type: "ReLU"
  bottom: "ssd1_2"
  top: "ssd1_2"
}
layer {
  name: "ssd2_1"
  type: "Convolution"
  bottom: "ssd1_2"
  top: "ssd2_1"
  param {
    lr_mult: 1
    decay_mult: 1
  }
  param {
    lr_mult: 2
    decay_mult: 0
  }
  convolution_param {
    num_output: 128
    pad: 0
    kernel_size: 1
    stride: 1
    weight_filler {
      type: "xavier"
    }
    bias_filler {
      type: "constant"
      value: 0
    }
  }
}
layer {
  name: "ssd2_1_relu"
  type: "ReLU"
  bottom: "ssd2_1"
  top: "ssd2_1"
}
layer {
  name: "ssd2_2"
  type: "Convolution"
  bottom: "ssd2_1"
  top: "ssd2_2"
  param {
    lr_mult: 1
    decay_mult: 1
  }
  param {
    lr_mult: 2
    decay_mult: 0
  }
  convolution_param {
    num_output: 256
    pad: 1
    kernel_size: 3
    stride: 2
    weight_filler {
      type: "xavier"
    }
    bias_filler {
      type: "constant"
      value: 0
    }
  }
}
layer {
  name: "ssd2_2_relu"
  type: "ReLU"
  bottom: "ssd2_2"
  top: "ssd2_2"
}
layer {
  name: "ssd3_1"
  type: "Convolution"
  bottom: "ssd2_2"
  top: "ssd3_1"
  param {
    lr_mult: 1
    decay_mult: 1
  }
  param {
    lr_mult: 2
    decay_mult: 0
  }
  convolution_param {
    num_output: 128
    pad: 0
    kernel_size: 1
    stride: 1
    weight_filler {
      type: "xavier"
    }
    bias_filler {
      type: "constant"
      value: 0
    }
  }
}
layer {
  name: "ssd3_1_relu"
  type: "ReLU"
  bottom: "ssd3_1"
  top: "ssd3_1"
}
layer {
  name: "ssd3_2"
  type: "Convolution"
  bottom: "ssd3_1"
  top: "ssd3_2"
  param {
    lr_mult: 1
    decay_mult: 1
  }
  param {
    lr_mult: 2
    decay_mult: 0
  }
  convolution_param {
    num_output: 256
    pad: 0
    kernel_size: 3
    stride: 1
    weight_filler {
      type: "xavier"
    }
    bias_filler {
      type: "constant"
      value: 0
    }
  }
}
layer {
  name: "ssd3_2_relu"
  type: "ReLU"
  bottom: "ssd3_2"
  top: "ssd3_2"
}
layer {
  name: "ssd4_1"
  type: "Convolution"
  bottom: "ssd3_2"
  top: "ssd4_1"
  param {
    lr_mult: 1
    decay_mult: 1
  }
  param {
    lr_mult: 2
    decay_mult: 0
  }
  convolution_param {
    num_output: 128
    pad: 0
    kernel_size: 1
    stride: 1
    weight_filler {
      type: "xavier"
    }
    bias_filler {
      type: "constant"
      value: 0
    }
  }
}
layer {
  name: "ssd4_1_relu"
  type: "ReLU"
  bottom: "ssd4_1"
  top: "ssd4_1"
}
layer {
  name: "ssd4_2"
  type: "Convolution"
  bottom: "ssd4_1"
  top: "ssd4_2"
  param {
    lr_mult: 1
    decay_mult: 1
  }
  param {
    lr_mult: 2
    decay_mult: 0
  }
  convolution_param {
    num_output: 256
    pad: 0
    kernel_size: 3
    stride: 1
    weight_filler {
      type: "xavier"
    }
    bias_filler {
      type: "constant"
      value: 0
    }
  }
}
layer {
  name: "ssd4_2_relu"
  type: "ReLU"
  bottom: "ssd4_2"
  top: "ssd4_2"
}
layer {
  name: "conv4_3_norm"
  type: "Normalize"
  bottom: "conv4_3"
  top: "conv4_3_norm"
  norm_param {
    across_spatial: false
    scale_filler {
      type: "constant"
      value: 20
    }
    channel_shared: false
  }
}
layer {
  name: "conv4_3_norm_mbox_loc"
  type: "Convolution"
  bottom: "conv4_3_norm"
  top: "conv4_3_norm_mbox_loc"
  param {
    lr_mult: 1
    decay_mult: 1
  }
  param {
    lr_mult: 2
    decay_mult: 0
  }
  convolution_param {
    num_output: 8
    pad: 1
    kernel_size: 3
    stride: 1
    weight_filler {
      type: "xavier"
    }
    bias_filler {
      type: "constant"
      value: 0
    }
  }
}
layer {
  name: "conv4_3_norm_mbox_loc_perm"
  type: "Permute"
  bottom: "conv4_3_norm_mbox_loc"
  top: "conv4_3_norm_mbox_loc_perm"
  permute_param {
    order: 0
    order: 2
    order: 3
    order: 1
  }
}
layer {
  name: "conv4_3_norm_mbox_loc_flat"
  type: "Flatten"
  bottom: "conv4_3_norm_mbox_loc_perm"
  top: "conv4_3_norm_mbox_loc_flat"
  flatten_param {
    axis: 1
  }
}
layer {
  name: "conv4_3_norm_mbox_conf"
  type: "Convolution"
  bottom: "conv4_3_norm"
  top: "conv4_3_norm_mbox_conf"
  param {
    lr_mult: 1
    decay_mult: 1
  }
  param {
    lr_mult: 2
    decay_mult: 0
  }
  convolution_param {
    num_output: 10
    pad: 1
    kernel_size: 3
    stride: 1
    weight_filler {
      type: "xavier"
    }
    bias_filler {
      type: "constant"
      value: 0
    }
  }
}
layer {
  name: "conv4_3_norm_mbox_conf_perm"
  type: "Permute"
  bottom: "conv4_3_norm_mbox_conf"
  top: "conv4_3_norm_mbox_conf_perm"
  permute_param {
    order: 0
    order: 2
    order: 3
    order: 1
  }
}
layer {
  name: "conv4_3_norm_mbox_conf_flat"
  type: "Flatten"
  bottom: "conv4_3_norm_mbox_conf_perm"
  top: "conv4_3_norm_mbox_conf_flat"
  flatten_param {
    axis: 1
  }
}
layer {
  name: "conv4_3_norm_mbox_priorbox"
  type: "PriorBox"
  bottom: "conv4_3_norm"
  bottom: "data"
  top: "conv4_3_norm_mbox_priorbox"
  prior_box_param {
    min_size: 15
    max_size: 30
    clip: false
    variance: 0.1
    variance: 0.1
    variance: 0.2
    variance: 0.2
    step: 8
    offset: 0.5
  }
}
layer {
  name: "fc7_mbox_loc"
  type: "Convolution"
  bottom: "fc7"
  top: "fc7_mbox_loc"
  param {
    lr_mult: 1
    decay_mult: 1
  }
  param {
    lr_mult: 2
    decay_mult: 0
  }
  convolution_param {
    num_output: 8
    pad: 1
    kernel_size: 3
    stride: 1
    weight_filler {
      type: "xavier"
    }
    bias_filler {
      type: "constant"
      value: 0
    }
  }
}
layer {
  name: "fc7_mbox_loc_perm"
  type: "Permute"
  bottom: "fc7_mbox_loc"
  top: "fc7_mbox_loc_perm"
  permute_param {
    order: 0
    order: 2
    order: 3
    order: 1
  }
}
layer {
  name: "fc7_mbox_loc_flat"
  type: "Flatten"
  bottom: "fc7_mbox_loc_perm"
  top: "fc7_mbox_loc_flat"
  flatten_param {
    axis: 1
  }
}
layer {
  name: "fc7_mbox_conf"
  type: "Convolution"
  bottom: "fc7"
  top: "fc7_mbox_conf"
  param {
    lr_mult: 1
    decay_mult: 1
  }
  param {
    lr_mult: 2
    decay_mult: 0
  }
  convolution_param {
    num_output: 10
    pad: 1
    kernel_size: 3
    stride: 1
    weight_filler {
      type: "xavier"
    }
    bias_filler {
      type: "constant"
      value: 0
    }
  }
}
layer {
  name: "fc7_mbox_conf_perm"
  type: "Permute"
  bottom: "fc7_mbox_conf"
  top: "fc7_mbox_conf_perm"
  permute_param {
    order: 0
    order: 2
    order: 3
    order: 1
  }
}
layer {
  name: "fc7_mbox_conf_flat"
  type: "Flatten"
  bottom: "fc7_mbox_conf_perm"
  top: "fc7_mbox_conf_flat"
  flatten_param {
    axis: 1
  }
}
layer {
  name: "fc7_mbox_priorbox"
  type: "PriorBox"
  bottom: "fc7"
  bottom: "data"
  top: "fc7_mbox_priorbox"
  prior_box_param {
    min_size: 30
    max_size: 60
    clip: false
    variance: 0.1
    variance: 0.1
    variance: 0.2
    variance: 0.2
    step: 16
    offset: 0.5
  }
}
layer {
  name: "ssd1_2_mbox_loc"
  type: "Convolution"
  bottom: "ssd1_2"
  top: "ssd1_2_mbox_loc"
  param {
    lr_mult: 1
    decay_mult: 1
  }
  param {
    lr_mult: 2
    decay_mult: 0
  }
  convolution_param {
    num_output: 8
    pad: 1
    kernel_size: 3
    stride: 1
    weight_filler {
      type: "xavier"
    }
    bias_filler {
      type: "constant"
      value: 0
    }
  }
}
layer {
  name: "ssd1_2_mbox_loc_perm"
  type: "Permute"
  bottom: "ssd1_2_mbox_loc"
  top: "ssd1_2_mbox_loc_perm"
  permute_param {
    order: 0
    order: 2
    order: 3
    order: 1
  }
}
layer {
  name: "ssd1_2_mbox_loc_flat"
  type: "Flatten"
  bottom: "ssd1_2_mbox_loc_perm"
  top: "ssd1_2_mbox_loc_flat"
  flatten_param {
    axis: 1
  }
}
layer {
  name: "ssd1_2_mbox_conf"
  type: "Convolution"
  bottom: "ssd1_2"
  top: "ssd1_2_mbox_conf"
  param {
    lr_mult: 1
    decay_mult: 1
  }
  param {
    lr_mult: 2
    decay_mult: 0
  }
  convolution_param {
    num_output: 10
    pad: 1
    kernel_size: 3
    stride: 1
    weight_filler {
      type: "xavier"
    }
    bias_filler {
      type: "constant"
      value: 0
    }
  }
}
layer {
  name: "ssd1_2_mbox_conf_perm"
  type: "Permute"
  bottom: "ssd1_2_mbox_conf"
  top: "ssd1_2_mbox_conf_perm"
  permute_param {
    order: 0
    order: 2
    order: 3
    order: 1
  }
}
layer {
  name: "ssd1_2_mbox_conf_flat"
  type: "Flatten"
  bottom: "ssd1_2_mbox_conf_perm"
  top: "ssd1_2_mbox_conf_flat"
  flatten_param {
    axis: 1
  }
}
layer {
  name: "ssd1_2_mbox_priorbox"
  type: "PriorBox"
  bottom: "ssd1_2"
  bottom: "data"
  top: "ssd1_2_mbox_priorbox"
  prior_box_param {
    min_size: 60
    max_size: 90
    clip: false
    variance: 0.1
    variance: 0.1
    variance: 0.2
    variance: 0.2
    step: 32
    offset: 0.5
  }
}
layer {
  name: "ssd2_2_mbox_loc"
  type: "Convolution"
  bottom: "ssd2_2"
  top: "ssd2_2_mbox_loc"
  param {
    lr_mult: 1
    decay_mult: 1
  }
  param {
    lr_mult: 2
    decay_mult: 0
  }
  convolution_param {
    num_output: 8
    pad: 1
    kernel_size: 3
    stride: 1
    weight_filler {
      type: "xavier"
    }
    bias_filler {
      type: "constant"
      value: 0
    }
  }
}
layer {
  name: "ssd2_2_mbox_loc_perm"
  type: "Permute"
  bottom: "ssd2_2_mbox_loc"
  top: "ssd2_2_mbox_loc_perm"
  permute_param {
    order: 0
    order: 2
    order: 3
    order: 1
  }
}
layer {
  name: "ssd2_2_mbox_loc_flat"
  type: "Flatten"
  bottom: "ssd2_2_mbox_loc_perm"
  top: "ssd2_2_mbox_loc_flat"
  flatten_param {
    axis: 1
  }
}
layer {
  name: "ssd2_2_mbox_conf"
  type: "Convolution"
  bottom: "ssd2_2"
  top: "ssd2_2_mbox_conf"
  param {
    lr_mult: 1
    decay_mult: 1
  }
  param {
    lr_mult: 2
    decay_mult: 0
  }
  convolution_param {
    num_output: 10
    pad: 1
    kernel_size: 3
    stride: 1
    weight_filler {
      type: "xavier"
    }
    bias_filler {
      type: "constant"
      value: 0
    }
  }
}
layer {
  name: "ssd2_2_mbox_conf_perm"
  type: "Permute"
  bottom: "ssd2_2_mbox_conf"
  top: "ssd2_2_mbox_conf_perm"
  permute_param {
    order: 0
    order: 2
    order: 3
    order: 1
  }
}
layer {
  name: "ssd2_2_mbox_conf_flat"
  type: "Flatten"
  bottom: "ssd2_2_mbox_conf_perm"
  top: "ssd2_2_mbox_conf_flat"
  flatten_param {
    axis: 1
  }
}
layer {
  name: "ssd2_2_mbox_priorbox"
  type: "PriorBox"
  bottom: "ssd2_2"
  bottom: "data"
  top: "ssd2_2_mbox_priorbox"
  prior_box_param {
    min_size: 90
    max_size: 120
    clip: false
    variance: 0.1
    variance: 0.1
    variance: 0.2
    variance: 0.2
    step: 64
    offset: 0.5
  }
}
layer {
  name: "ssd3_2_mbox_loc"
  type: "Convolution"
  bottom: "ssd3_2"
  top: "ssd3_2_mbox_loc"
  param {
    lr_mult: 1
    decay_mult: 1
  }
  param {
    lr_mult: 2
    decay_mult: 0
  }
  convolution_param {
    num_output: 8
    pad: 1
    kernel_size: 3
    stride: 1
    weight_filler {
      type: "xavier"
    }
    bias_filler {
      type: "constant"
      value: 0
    }
  }
}
layer {
  name: "ssd3_2_mbox_loc_perm"
  type: "Permute"
  bottom: "ssd3_2_mbox_loc"
  top: "ssd3_2_mbox_loc_perm"
  permute_param {
    order: 0
    order: 2
    order: 3
    order: 1
  }
}
layer {
  name: "ssd3_2_mbox_loc_flat"
  type: "Flatten"
  bottom: "ssd3_2_mbox_loc_perm"
  top: "ssd3_2_mbox_loc_flat"
  flatten_param {
    axis: 1
  }
}
layer {
  name: "ssd3_2_mbox_conf"
  type: "Convolution"
  bottom: "ssd3_2"
  top: "ssd3_2_mbox_conf"
  param {
    lr_mult: 1
    decay_mult: 1
  }
  param {
    lr_mult: 2
    decay_mult: 0
  }
  convolution_param {
    num_output: 10
    pad: 1
    kernel_size: 3
    stride: 1
    weight_filler {
      type: "xavier"
    }
    bias_filler {
      type: "constant"
      value: 0
    }
  }
}
layer {
  name: "ssd3_2_mbox_conf_perm"
  type: "Permute"
  bottom: "ssd3_2_mbox_conf"
  top: "ssd3_2_mbox_conf_perm"
  permute_param {
    order: 0
    order: 2
    order: 3
    order: 1
  }
}
layer {
  name: "ssd3_2_mbox_conf_flat"
  type: "Flatten"
  bottom: "ssd3_2_mbox_conf_perm"
  top: "ssd3_2_mbox_conf_flat"
  flatten_param {
    axis: 1
  }
}
layer {
  name: "ssd3_2_mbox_priorbox"
  type: "PriorBox"
  bottom: "ssd3_2"
  bottom: "data"
  top: "ssd3_2_mbox_priorbox"
  prior_box_param {
    min_size: 120
    max_size: 150
    clip: false
    variance: 0.1
    variance: 0.1
    variance: 0.2
    variance: 0.2
    step: 100
    offset: 0.5
  }
}
layer {
  name: "ssd4_2_mbox_loc"
  type: "Convolution"
  bottom: "ssd4_2"
  top: "ssd4_2_mbox_loc"
  param {
    lr_mult: 1
    decay_mult: 1
  }
  param {
    lr_mult: 2
    decay_mult: 0
  }
  convolution_param {
    num_output: 8
    pad: 1
    kernel_size: 3
    stride: 1
    weight_filler {
      type: "xavier"
    }
    bias_filler {
      type: "constant"
      value: 0
    }
  }
}
layer {
  name: "ssd4_2_mbox_loc_perm"
  type: "Permute"
  bottom: "ssd4_2_mbox_loc"
  top: "ssd4_2_mbox_loc_perm"
  permute_param {
    order: 0
    order: 2
    order: 3
    order: 1
  }
}
layer {
  name: "ssd4_2_mbox_loc_flat"
  type: "Flatten"
  bottom: "ssd4_2_mbox_loc_perm"
  top: "ssd4_2_mbox_loc_flat"
  flatten_param {
    axis: 1
  }
}
layer {
  name: "ssd4_2_mbox_conf"
  type: "Convolution"
  bottom: "ssd4_2"
  top: "ssd4_2_mbox_conf"
  param {
    lr_mult: 1
    decay_mult: 1
  }
  param {
    lr_mult: 2
    decay_mult: 0
  }
  convolution_param {
    num_output: 10
    pad: 1
    kernel_size: 3
    stride: 1
    weight_filler {
      type: "xavier"
    }
    bias_filler {
      type: "constant"
      value: 0
    }
  }
}
layer {
  name: "ssd4_2_mbox_conf_perm"
  type: "Permute"
  bottom: "ssd4_2_mbox_conf"
  top: "ssd4_2_mbox_conf_perm"
  permute_param {
    order: 0
    order: 2
    order: 3
    order: 1
  }
}
layer {
  name: "ssd4_2_mbox_conf_flat"
  type: "Flatten"
  bottom: "ssd4_2_mbox_conf_perm"
  top: "ssd4_2_mbox_conf_flat"
  flatten_param {
    axis: 1
  }
}
layer {
  name: "ssd4_2_mbox_priorbox"
  type: "PriorBox"
  bottom: "ssd4_2"
  bottom: "data"
  top: "ssd4_2_mbox_priorbox"
  prior_box_param {
    min_size: 150
    max_size: 180
    clip: false
    variance: 0.1
    variance: 0.1
    variance: 0.2
    variance: 0.2
    step: 300
    offset: 0.5
  }
}
layer {
  name: "mbox_loc"
  type: "Concat"
  bottom: "conv4_3_norm_mbox_loc_flat"
  bottom: "fc7_mbox_loc_flat"
  bottom: "ssd1_2_mbox_loc_flat"
  bottom: "ssd2_2_mbox_loc_flat"
  bottom: "ssd3_2_mbox_loc_flat"
  bottom: "ssd4_2_mbox_loc_flat"
  top: "mbox_loc"
  concat_param {
    axis: 1
  }
}
layer {
  name: "mbox_conf"
  type: "Concat"
  bottom: "conv4_3_norm_mbox_conf_flat"
  bottom: "fc7_mbox_conf_flat"
  bottom: "ssd1_2_mbox_conf_flat"
  bottom: "ssd2_2_mbox_conf_flat"
  bottom: "ssd3_2_mbox_conf_flat"
  bottom: "ssd4_2_mbox_conf_flat"
  top: "mbox_conf"
  concat_param {
    axis: 1
  }
}
layer {
  name: "mbox_priorbox"
  type: "Concat"
  bottom: "conv4_3_norm_mbox_priorbox"
  bottom: "fc7_mbox_priorbox"
  bottom: "ssd1_2_mbox_priorbox"
  bottom: "ssd2_2_mbox_priorbox"
  bottom: "ssd3_2_mbox_priorbox"
  bottom: "ssd4_2_mbox_priorbox"
  top: "mbox_priorbox"
  concat_param {
    axis: 2
  }
}
layer {
  name: "mbox_conf_reshape"
  type: "Reshape"
  bottom: "mbox_conf"
  top: "mbox_conf_reshape"
  reshape_param {
    shape {
      dim: 0
      dim: -1
      dim: 5
    }
  }
}
layer {
  name: "mbox_conf_softmax"
  type: "Softmax"
  bottom: "mbox_conf_reshape"
  top: "mbox_conf_softmax"
  softmax_param {
    axis: 2
  }
}
layer {
  name: "mbox_conf_flatten"
  type: "Flatten"
  bottom: "mbox_conf_softmax"
  top: "mbox_conf_flatten"
  flatten_param {
    axis: 1
  }
}
layer {
  name: "detection_out"
  type: "DetectionOutput"
  bottom: "mbox_loc"
  bottom: "mbox_conf_flatten"
  bottom: "mbox_priorbox"
  top: "detection_out"
  include {
    phase: TEST
  }
  detection_output_param {
    num_classes: 5
    share_location: true
    background_label_id: 0
    nms_param {
      nms_threshold: 0.45
      top_k: 100
    }
    save_output_param {
      output_directory: "/home/zhongyilin/Documents/data/GTSDBdevkit/results/GTSDB/SSD_510x300_100_40_6_True_score/Main"
      output_name_prefix: "comp4_det_test_"
      output_format: "VOC"
      label_map_file: "data/GTSDB/labelmap_GTSDB.prototxt"
      name_size_file: "data/GTSDB/test_name_size.txt"
      num_test_image: 153
    }
    code_type: CENTER_SIZE
    keep_top_k: 40
    confidence_threshold: 0.01
  }
}
layer {
  name: "detection_eval"
  type: "DetectionEvaluate"
  bottom: "detection_out"
  bottom: "label"
  top: "detection_eval"
  include {
    phase: TEST
  }
  detection_evaluate_param {
    num_classes: 5
    background_label_id: 0
    overlap_threshold: 0.5
    evaluate_difficult_gt: false
    name_size_file: "data/GTSDB/test_name_size.txt"
  }
}
I0906 23:00:47.137202  4807 layer_factory.hpp:77] Creating layer data
I0906 23:00:47.137235  4807 net.cpp:100] Creating Layer data
I0906 23:00:47.137240  4807 net.cpp:408] data -> data
I0906 23:00:47.137245  4807 net.cpp:408] data -> label
I0906 23:00:47.137832  4849 db_lmdb.cpp:35] Opened lmdb examples/GTSDB/GTSDB_test_lmdb
I0906 23:00:47.147786  4807 annotated_data_layer.cpp:62] output data size: 4,3,300,510
I0906 23:00:47.156009  4807 net.cpp:150] Setting up data
I0906 23:00:47.156025  4807 net.cpp:157] Top shape: 4 3 300 510 (1836000)
I0906 23:00:47.156030  4807 net.cpp:157] Top shape: 1 1 1 8 (8)
I0906 23:00:47.156031  4807 net.cpp:165] Memory required for data: 7344032
I0906 23:00:47.156035  4807 layer_factory.hpp:77] Creating layer data_data_0_split
I0906 23:00:47.156044  4807 net.cpp:100] Creating Layer data_data_0_split
I0906 23:00:47.156045  4807 net.cpp:434] data_data_0_split <- data
I0906 23:00:47.156050  4807 net.cpp:408] data_data_0_split -> data_data_0_split_0
I0906 23:00:47.156056  4807 net.cpp:408] data_data_0_split -> data_data_0_split_1
I0906 23:00:47.156060  4807 net.cpp:408] data_data_0_split -> data_data_0_split_2
I0906 23:00:47.156065  4807 net.cpp:408] data_data_0_split -> data_data_0_split_3
I0906 23:00:47.156069  4807 net.cpp:408] data_data_0_split -> data_data_0_split_4
I0906 23:00:47.156075  4807 net.cpp:408] data_data_0_split -> data_data_0_split_5
I0906 23:00:47.156078  4807 net.cpp:408] data_data_0_split -> data_data_0_split_6
I0906 23:00:47.156205  4807 net.cpp:150] Setting up data_data_0_split
I0906 23:00:47.156210  4807 net.cpp:157] Top shape: 4 3 300 510 (1836000)
I0906 23:00:47.156213  4807 net.cpp:157] Top shape: 4 3 300 510 (1836000)
I0906 23:00:47.156214  4807 net.cpp:157] Top shape: 4 3 300 510 (1836000)
I0906 23:00:47.156217  4807 net.cpp:157] Top shape: 4 3 300 510 (1836000)
I0906 23:00:47.156219  4807 net.cpp:157] Top shape: 4 3 300 510 (1836000)
I0906 23:00:47.156221  4807 net.cpp:157] Top shape: 4 3 300 510 (1836000)
I0906 23:00:47.156224  4807 net.cpp:157] Top shape: 4 3 300 510 (1836000)
I0906 23:00:47.156226  4807 net.cpp:165] Memory required for data: 58752032
I0906 23:00:47.156229  4807 layer_factory.hpp:77] Creating layer conv1_1
I0906 23:00:47.156235  4807 net.cpp:100] Creating Layer conv1_1
I0906 23:00:47.156237  4807 net.cpp:434] conv1_1 <- data_data_0_split_0
I0906 23:00:47.156242  4807 net.cpp:408] conv1_1 -> conv1_1
I0906 23:00:47.157348  4807 net.cpp:150] Setting up conv1_1
I0906 23:00:47.157356  4807 net.cpp:157] Top shape: 4 64 300 510 (39168000)
I0906 23:00:47.157357  4807 net.cpp:165] Memory required for data: 215424032
I0906 23:00:47.157364  4807 layer_factory.hpp:77] Creating layer relu1_1
I0906 23:00:47.157369  4807 net.cpp:100] Creating Layer relu1_1
I0906 23:00:47.157371  4807 net.cpp:434] relu1_1 <- conv1_1
I0906 23:00:47.157373  4807 net.cpp:395] relu1_1 -> conv1_1 (in-place)
I0906 23:00:47.157675  4807 net.cpp:150] Setting up relu1_1
I0906 23:00:47.157682  4807 net.cpp:157] Top shape: 4 64 300 510 (39168000)
I0906 23:00:47.157683  4807 net.cpp:165] Memory required for data: 372096032
I0906 23:00:47.157685  4807 layer_factory.hpp:77] Creating layer conv1_2
I0906 23:00:47.157692  4807 net.cpp:100] Creating Layer conv1_2
I0906 23:00:47.157694  4807 net.cpp:434] conv1_2 <- conv1_1
I0906 23:00:47.157698  4807 net.cpp:408] conv1_2 -> conv1_2
I0906 23:00:47.158777  4807 net.cpp:150] Setting up conv1_2
I0906 23:00:47.158784  4807 net.cpp:157] Top shape: 4 64 300 510 (39168000)
I0906 23:00:47.158787  4807 net.cpp:165] Memory required for data: 528768032
I0906 23:00:47.158792  4807 layer_factory.hpp:77] Creating layer relu1_2
I0906 23:00:47.158805  4807 net.cpp:100] Creating Layer relu1_2
I0906 23:00:47.158808  4807 net.cpp:434] relu1_2 <- conv1_2
I0906 23:00:47.158812  4807 net.cpp:395] relu1_2 -> conv1_2 (in-place)
I0906 23:00:47.159003  4807 net.cpp:150] Setting up relu1_2
I0906 23:00:47.159006  4807 net.cpp:157] Top shape: 4 64 300 510 (39168000)
I0906 23:00:47.159009  4807 net.cpp:165] Memory required for data: 685440032
I0906 23:00:47.159010  4807 layer_factory.hpp:77] Creating layer pool1
I0906 23:00:47.159014  4807 net.cpp:100] Creating Layer pool1
I0906 23:00:47.159016  4807 net.cpp:434] pool1 <- conv1_2
I0906 23:00:47.159020  4807 net.cpp:408] pool1 -> pool1
I0906 23:00:47.159049  4807 net.cpp:150] Setting up pool1
I0906 23:00:47.159054  4807 net.cpp:157] Top shape: 4 64 150 255 (9792000)
I0906 23:00:47.159054  4807 net.cpp:165] Memory required for data: 724608032
I0906 23:00:47.159056  4807 layer_factory.hpp:77] Creating layer conv2_1
I0906 23:00:47.159061  4807 net.cpp:100] Creating Layer conv2_1
I0906 23:00:47.159065  4807 net.cpp:434] conv2_1 <- pool1
I0906 23:00:47.159067  4807 net.cpp:408] conv2_1 -> conv2_1
I0906 23:00:47.160264  4807 net.cpp:150] Setting up conv2_1
I0906 23:00:47.160271  4807 net.cpp:157] Top shape: 4 128 150 255 (19584000)
I0906 23:00:47.160274  4807 net.cpp:165] Memory required for data: 802944032
I0906 23:00:47.160279  4807 layer_factory.hpp:77] Creating layer relu2_1
I0906 23:00:47.160284  4807 net.cpp:100] Creating Layer relu2_1
I0906 23:00:47.160285  4807 net.cpp:434] relu2_1 <- conv2_1
I0906 23:00:47.160289  4807 net.cpp:395] relu2_1 -> conv2_1 (in-place)
I0906 23:00:47.160482  4807 net.cpp:150] Setting up relu2_1
I0906 23:00:47.160487  4807 net.cpp:157] Top shape: 4 128 150 255 (19584000)
I0906 23:00:47.160490  4807 net.cpp:165] Memory required for data: 881280032
I0906 23:00:47.160491  4807 layer_factory.hpp:77] Creating layer conv2_2
I0906 23:00:47.160495  4807 net.cpp:100] Creating Layer conv2_2
I0906 23:00:47.160498  4807 net.cpp:434] conv2_2 <- conv2_1
I0906 23:00:47.160501  4807 net.cpp:408] conv2_2 -> conv2_2
I0906 23:00:47.161952  4807 net.cpp:150] Setting up conv2_2
I0906 23:00:47.161959  4807 net.cpp:157] Top shape: 4 128 150 255 (19584000)
I0906 23:00:47.161962  4807 net.cpp:165] Memory required for data: 959616032
I0906 23:00:47.161967  4807 layer_factory.hpp:77] Creating layer relu2_2
I0906 23:00:47.161970  4807 net.cpp:100] Creating Layer relu2_2
I0906 23:00:47.161972  4807 net.cpp:434] relu2_2 <- conv2_2
I0906 23:00:47.161976  4807 net.cpp:395] relu2_2 -> conv2_2 (in-place)
I0906 23:00:47.162206  4807 net.cpp:150] Setting up relu2_2
I0906 23:00:47.162211  4807 net.cpp:157] Top shape: 4 128 150 255 (19584000)
I0906 23:00:47.162214  4807 net.cpp:165] Memory required for data: 1037952032
I0906 23:00:47.162216  4807 layer_factory.hpp:77] Creating layer pool2
I0906 23:00:47.162220  4807 net.cpp:100] Creating Layer pool2
I0906 23:00:47.162222  4807 net.cpp:434] pool2 <- conv2_2
I0906 23:00:47.162225  4807 net.cpp:408] pool2 -> pool2
I0906 23:00:47.162261  4807 net.cpp:150] Setting up pool2
I0906 23:00:47.162263  4807 net.cpp:157] Top shape: 4 128 75 128 (4915200)
I0906 23:00:47.162266  4807 net.cpp:165] Memory required for data: 1057612832
I0906 23:00:47.162267  4807 layer_factory.hpp:77] Creating layer conv3_1
I0906 23:00:47.162273  4807 net.cpp:100] Creating Layer conv3_1
I0906 23:00:47.162276  4807 net.cpp:434] conv3_1 <- pool2
I0906 23:00:47.162279  4807 net.cpp:408] conv3_1 -> conv3_1
I0906 23:00:47.164837  4807 net.cpp:150] Setting up conv3_1
I0906 23:00:47.164851  4807 net.cpp:157] Top shape: 4 256 75 128 (9830400)
I0906 23:00:47.164854  4807 net.cpp:165] Memory required for data: 1096934432
I0906 23:00:47.164862  4807 layer_factory.hpp:77] Creating layer relu3_1
I0906 23:00:47.164868  4807 net.cpp:100] Creating Layer relu3_1
I0906 23:00:47.164872  4807 net.cpp:434] relu3_1 <- conv3_1
I0906 23:00:47.164875  4807 net.cpp:395] relu3_1 -> conv3_1 (in-place)
I0906 23:00:47.165210  4807 net.cpp:150] Setting up relu3_1
I0906 23:00:47.165216  4807 net.cpp:157] Top shape: 4 256 75 128 (9830400)
I0906 23:00:47.165230  4807 net.cpp:165] Memory required for data: 1136256032
I0906 23:00:47.165232  4807 layer_factory.hpp:77] Creating layer conv3_2
I0906 23:00:47.165240  4807 net.cpp:100] Creating Layer conv3_2
I0906 23:00:47.165241  4807 net.cpp:434] conv3_2 <- conv3_1
I0906 23:00:47.165246  4807 net.cpp:408] conv3_2 -> conv3_2
I0906 23:00:47.169055  4807 net.cpp:150] Setting up conv3_2
I0906 23:00:47.169065  4807 net.cpp:157] Top shape: 4 256 75 128 (9830400)
I0906 23:00:47.169067  4807 net.cpp:165] Memory required for data: 1175577632
I0906 23:00:47.169073  4807 layer_factory.hpp:77] Creating layer relu3_2
I0906 23:00:47.169078  4807 net.cpp:100] Creating Layer relu3_2
I0906 23:00:47.169081  4807 net.cpp:434] relu3_2 <- conv3_2
I0906 23:00:47.169085  4807 net.cpp:395] relu3_2 -> conv3_2 (in-place)
I0906 23:00:47.169425  4807 net.cpp:150] Setting up relu3_2
I0906 23:00:47.169431  4807 net.cpp:157] Top shape: 4 256 75 128 (9830400)
I0906 23:00:47.169432  4807 net.cpp:165] Memory required for data: 1214899232
I0906 23:00:47.169435  4807 layer_factory.hpp:77] Creating layer conv3_3
I0906 23:00:47.169443  4807 net.cpp:100] Creating Layer conv3_3
I0906 23:00:47.169446  4807 net.cpp:434] conv3_3 <- conv3_2
I0906 23:00:47.169450  4807 net.cpp:408] conv3_3 -> conv3_3
I0906 23:00:47.172873  4807 net.cpp:150] Setting up conv3_3
I0906 23:00:47.172883  4807 net.cpp:157] Top shape: 4 256 75 128 (9830400)
I0906 23:00:47.172885  4807 net.cpp:165] Memory required for data: 1254220832
I0906 23:00:47.172889  4807 layer_factory.hpp:77] Creating layer relu3_3
I0906 23:00:47.172894  4807 net.cpp:100] Creating Layer relu3_3
I0906 23:00:47.172897  4807 net.cpp:434] relu3_3 <- conv3_3
I0906 23:00:47.172901  4807 net.cpp:395] relu3_3 -> conv3_3 (in-place)
I0906 23:00:47.173135  4807 net.cpp:150] Setting up relu3_3
I0906 23:00:47.173140  4807 net.cpp:157] Top shape: 4 256 75 128 (9830400)
I0906 23:00:47.173141  4807 net.cpp:165] Memory required for data: 1293542432
I0906 23:00:47.173143  4807 layer_factory.hpp:77] Creating layer pool3
I0906 23:00:47.173147  4807 net.cpp:100] Creating Layer pool3
I0906 23:00:47.173151  4807 net.cpp:434] pool3 <- conv3_3
I0906 23:00:47.173153  4807 net.cpp:408] pool3 -> pool3
I0906 23:00:47.173187  4807 net.cpp:150] Setting up pool3
I0906 23:00:47.173190  4807 net.cpp:157] Top shape: 4 256 38 64 (2490368)
I0906 23:00:47.173192  4807 net.cpp:165] Memory required for data: 1303503904
I0906 23:00:47.173194  4807 layer_factory.hpp:77] Creating layer conv4_1
I0906 23:00:47.173199  4807 net.cpp:100] Creating Layer conv4_1
I0906 23:00:47.173202  4807 net.cpp:434] conv4_1 <- pool3
I0906 23:00:47.173207  4807 net.cpp:408] conv4_1 -> conv4_1
I0906 23:00:47.178997  4807 net.cpp:150] Setting up conv4_1
I0906 23:00:47.179014  4807 net.cpp:157] Top shape: 4 512 38 64 (4980736)
I0906 23:00:47.179016  4807 net.cpp:165] Memory required for data: 1323426848
I0906 23:00:47.179023  4807 layer_factory.hpp:77] Creating layer relu4_1
I0906 23:00:47.179029  4807 net.cpp:100] Creating Layer relu4_1
I0906 23:00:47.179031  4807 net.cpp:434] relu4_1 <- conv4_1
I0906 23:00:47.179035  4807 net.cpp:395] relu4_1 -> conv4_1 (in-place)
I0906 23:00:47.179272  4807 net.cpp:150] Setting up relu4_1
I0906 23:00:47.179278  4807 net.cpp:157] Top shape: 4 512 38 64 (4980736)
I0906 23:00:47.179280  4807 net.cpp:165] Memory required for data: 1343349792
I0906 23:00:47.179281  4807 layer_factory.hpp:77] Creating layer conv4_2
I0906 23:00:47.179288  4807 net.cpp:100] Creating Layer conv4_2
I0906 23:00:47.179291  4807 net.cpp:434] conv4_2 <- conv4_1
I0906 23:00:47.179296  4807 net.cpp:408] conv4_2 -> conv4_2
I0906 23:00:47.189396  4807 net.cpp:150] Setting up conv4_2
I0906 23:00:47.189414  4807 net.cpp:157] Top shape: 4 512 38 64 (4980736)
I0906 23:00:47.189416  4807 net.cpp:165] Memory required for data: 1363272736
I0906 23:00:47.189426  4807 layer_factory.hpp:77] Creating layer relu4_2
I0906 23:00:47.189432  4807 net.cpp:100] Creating Layer relu4_2
I0906 23:00:47.189435  4807 net.cpp:434] relu4_2 <- conv4_2
I0906 23:00:47.189440  4807 net.cpp:395] relu4_2 -> conv4_2 (in-place)
I0906 23:00:47.189687  4807 net.cpp:150] Setting up relu4_2
I0906 23:00:47.189692  4807 net.cpp:157] Top shape: 4 512 38 64 (4980736)
I0906 23:00:47.189693  4807 net.cpp:165] Memory required for data: 1383195680
I0906 23:00:47.189697  4807 layer_factory.hpp:77] Creating layer conv4_3
I0906 23:00:47.189703  4807 net.cpp:100] Creating Layer conv4_3
I0906 23:00:47.189705  4807 net.cpp:434] conv4_3 <- conv4_2
I0906 23:00:47.189709  4807 net.cpp:408] conv4_3 -> conv4_3
I0906 23:00:47.199761  4807 net.cpp:150] Setting up conv4_3
I0906 23:00:47.199776  4807 net.cpp:157] Top shape: 4 512 38 64 (4980736)
I0906 23:00:47.199779  4807 net.cpp:165] Memory required for data: 1403118624
I0906 23:00:47.199784  4807 layer_factory.hpp:77] Creating layer relu4_3
I0906 23:00:47.199790  4807 net.cpp:100] Creating Layer relu4_3
I0906 23:00:47.199795  4807 net.cpp:434] relu4_3 <- conv4_3
I0906 23:00:47.199797  4807 net.cpp:395] relu4_3 -> conv4_3 (in-place)
I0906 23:00:47.200140  4807 net.cpp:150] Setting up relu4_3
I0906 23:00:47.200148  4807 net.cpp:157] Top shape: 4 512 38 64 (4980736)
I0906 23:00:47.200150  4807 net.cpp:165] Memory required for data: 1423041568
I0906 23:00:47.200151  4807 layer_factory.hpp:77] Creating layer conv4_3_relu4_3_0_split
I0906 23:00:47.200155  4807 net.cpp:100] Creating Layer conv4_3_relu4_3_0_split
I0906 23:00:47.200158  4807 net.cpp:434] conv4_3_relu4_3_0_split <- conv4_3
I0906 23:00:47.200162  4807 net.cpp:408] conv4_3_relu4_3_0_split -> conv4_3_relu4_3_0_split_0
I0906 23:00:47.200166  4807 net.cpp:408] conv4_3_relu4_3_0_split -> conv4_3_relu4_3_0_split_1
I0906 23:00:47.200201  4807 net.cpp:150] Setting up conv4_3_relu4_3_0_split
I0906 23:00:47.200206  4807 net.cpp:157] Top shape: 4 512 38 64 (4980736)
I0906 23:00:47.200207  4807 net.cpp:157] Top shape: 4 512 38 64 (4980736)
I0906 23:00:47.200208  4807 net.cpp:165] Memory required for data: 1462887456
I0906 23:00:47.200211  4807 layer_factory.hpp:77] Creating layer pool4
I0906 23:00:47.200215  4807 net.cpp:100] Creating Layer pool4
I0906 23:00:47.200217  4807 net.cpp:434] pool4 <- conv4_3_relu4_3_0_split_0
I0906 23:00:47.200220  4807 net.cpp:408] pool4 -> pool4
I0906 23:00:47.200250  4807 net.cpp:150] Setting up pool4
I0906 23:00:47.200254  4807 net.cpp:157] Top shape: 4 512 19 32 (1245184)
I0906 23:00:47.200256  4807 net.cpp:165] Memory required for data: 1467868192
I0906 23:00:47.200258  4807 layer_factory.hpp:77] Creating layer conv5_1
I0906 23:00:47.200264  4807 net.cpp:100] Creating Layer conv5_1
I0906 23:00:47.200268  4807 net.cpp:434] conv5_1 <- pool4
I0906 23:00:47.200270  4807 net.cpp:408] conv5_1 -> conv5_1
I0906 23:00:47.210418  4807 net.cpp:150] Setting up conv5_1
I0906 23:00:47.210434  4807 net.cpp:157] Top shape: 4 512 19 32 (1245184)
I0906 23:00:47.210436  4807 net.cpp:165] Memory required for data: 1472848928
I0906 23:00:47.210443  4807 layer_factory.hpp:77] Creating layer relu5_1
I0906 23:00:47.210448  4807 net.cpp:100] Creating Layer relu5_1
I0906 23:00:47.210453  4807 net.cpp:434] relu5_1 <- conv5_1
I0906 23:00:47.210456  4807 net.cpp:395] relu5_1 -> conv5_1 (in-place)
I0906 23:00:47.210692  4807 net.cpp:150] Setting up relu5_1
I0906 23:00:47.210698  4807 net.cpp:157] Top shape: 4 512 19 32 (1245184)
I0906 23:00:47.210700  4807 net.cpp:165] Memory required for data: 1477829664
I0906 23:00:47.210702  4807 layer_factory.hpp:77] Creating layer conv5_2
I0906 23:00:47.210711  4807 net.cpp:100] Creating Layer conv5_2
I0906 23:00:47.210712  4807 net.cpp:434] conv5_2 <- conv5_1
I0906 23:00:47.210716  4807 net.cpp:408] conv5_2 -> conv5_2
I0906 23:00:47.220824  4807 net.cpp:150] Setting up conv5_2
I0906 23:00:47.220842  4807 net.cpp:157] Top shape: 4 512 19 32 (1245184)
I0906 23:00:47.220844  4807 net.cpp:165] Memory required for data: 1482810400
I0906 23:00:47.220850  4807 layer_factory.hpp:77] Creating layer relu5_2
I0906 23:00:47.220857  4807 net.cpp:100] Creating Layer relu5_2
I0906 23:00:47.220860  4807 net.cpp:434] relu5_2 <- conv5_2
I0906 23:00:47.220862  4807 net.cpp:395] relu5_2 -> conv5_2 (in-place)
I0906 23:00:47.221113  4807 net.cpp:150] Setting up relu5_2
I0906 23:00:47.221119  4807 net.cpp:157] Top shape: 4 512 19 32 (1245184)
I0906 23:00:47.221122  4807 net.cpp:165] Memory required for data: 1487791136
I0906 23:00:47.221123  4807 layer_factory.hpp:77] Creating layer conv5_3
I0906 23:00:47.221130  4807 net.cpp:100] Creating Layer conv5_3
I0906 23:00:47.221133  4807 net.cpp:434] conv5_3 <- conv5_2
I0906 23:00:47.221138  4807 net.cpp:408] conv5_3 -> conv5_3
I0906 23:00:47.231287  4807 net.cpp:150] Setting up conv5_3
I0906 23:00:47.231302  4807 net.cpp:157] Top shape: 4 512 19 32 (1245184)
I0906 23:00:47.231305  4807 net.cpp:165] Memory required for data: 1492771872
I0906 23:00:47.231312  4807 layer_factory.hpp:77] Creating layer relu5_3
I0906 23:00:47.231319  4807 net.cpp:100] Creating Layer relu5_3
I0906 23:00:47.231323  4807 net.cpp:434] relu5_3 <- conv5_3
I0906 23:00:47.231326  4807 net.cpp:395] relu5_3 -> conv5_3 (in-place)
I0906 23:00:47.231678  4807 net.cpp:150] Setting up relu5_3
I0906 23:00:47.231683  4807 net.cpp:157] Top shape: 4 512 19 32 (1245184)
I0906 23:00:47.231685  4807 net.cpp:165] Memory required for data: 1497752608
I0906 23:00:47.231688  4807 layer_factory.hpp:77] Creating layer pool5
I0906 23:00:47.231693  4807 net.cpp:100] Creating Layer pool5
I0906 23:00:47.231694  4807 net.cpp:434] pool5 <- conv5_3
I0906 23:00:47.231698  4807 net.cpp:408] pool5 -> pool5
I0906 23:00:47.231734  4807 net.cpp:150] Setting up pool5
I0906 23:00:47.231739  4807 net.cpp:157] Top shape: 4 512 19 32 (1245184)
I0906 23:00:47.231740  4807 net.cpp:165] Memory required for data: 1502733344
I0906 23:00:47.231742  4807 layer_factory.hpp:77] Creating layer fc6
I0906 23:00:47.231750  4807 net.cpp:100] Creating Layer fc6
I0906 23:00:47.231751  4807 net.cpp:434] fc6 <- pool5
I0906 23:00:47.231755  4807 net.cpp:408] fc6 -> fc6
I0906 23:00:47.249752  4807 net.cpp:150] Setting up fc6
I0906 23:00:47.249768  4807 net.cpp:157] Top shape: 4 1024 19 32 (2490368)
I0906 23:00:47.249770  4807 net.cpp:165] Memory required for data: 1512694816
I0906 23:00:47.249776  4807 layer_factory.hpp:77] Creating layer relu6
I0906 23:00:47.249781  4807 net.cpp:100] Creating Layer relu6
I0906 23:00:47.249785  4807 net.cpp:434] relu6 <- fc6
I0906 23:00:47.249789  4807 net.cpp:395] relu6 -> fc6 (in-place)
I0906 23:00:47.250229  4807 net.cpp:150] Setting up relu6
I0906 23:00:47.250236  4807 net.cpp:157] Top shape: 4 1024 19 32 (2490368)
I0906 23:00:47.250238  4807 net.cpp:165] Memory required for data: 1522656288
I0906 23:00:47.250241  4807 layer_factory.hpp:77] Creating layer fc7
I0906 23:00:47.250247  4807 net.cpp:100] Creating Layer fc7
I0906 23:00:47.250249  4807 net.cpp:434] fc7 <- fc6
I0906 23:00:47.250254  4807 net.cpp:408] fc7 -> fc7
I0906 23:00:47.255367  4807 net.cpp:150] Setting up fc7
I0906 23:00:47.255383  4807 net.cpp:157] Top shape: 4 1024 19 32 (2490368)
I0906 23:00:47.255385  4807 net.cpp:165] Memory required for data: 1532617760
I0906 23:00:47.255391  4807 layer_factory.hpp:77] Creating layer relu7
I0906 23:00:47.255398  4807 net.cpp:100] Creating Layer relu7
I0906 23:00:47.255400  4807 net.cpp:434] relu7 <- fc7
I0906 23:00:47.255404  4807 net.cpp:395] relu7 -> fc7 (in-place)
I0906 23:00:47.255643  4807 net.cpp:150] Setting up relu7
I0906 23:00:47.255648  4807 net.cpp:157] Top shape: 4 1024 19 32 (2490368)
I0906 23:00:47.255650  4807 net.cpp:165] Memory required for data: 1542579232
I0906 23:00:47.255652  4807 layer_factory.hpp:77] Creating layer fc7_relu7_0_split
I0906 23:00:47.255658  4807 net.cpp:100] Creating Layer fc7_relu7_0_split
I0906 23:00:47.255661  4807 net.cpp:434] fc7_relu7_0_split <- fc7
I0906 23:00:47.255663  4807 net.cpp:408] fc7_relu7_0_split -> fc7_relu7_0_split_0
I0906 23:00:47.255667  4807 net.cpp:408] fc7_relu7_0_split -> fc7_relu7_0_split_1
I0906 23:00:47.255676  4807 net.cpp:408] fc7_relu7_0_split -> fc7_relu7_0_split_2
I0906 23:00:47.255679  4807 net.cpp:408] fc7_relu7_0_split -> fc7_relu7_0_split_3
I0906 23:00:47.255734  4807 net.cpp:150] Setting up fc7_relu7_0_split
I0906 23:00:47.255738  4807 net.cpp:157] Top shape: 4 1024 19 32 (2490368)
I0906 23:00:47.255754  4807 net.cpp:157] Top shape: 4 1024 19 32 (2490368)
I0906 23:00:47.255759  4807 net.cpp:157] Top shape: 4 1024 19 32 (2490368)
I0906 23:00:47.255761  4807 net.cpp:157] Top shape: 4 1024 19 32 (2490368)
I0906 23:00:47.255764  4807 net.cpp:165] Memory required for data: 1582425120
I0906 23:00:47.255765  4807 layer_factory.hpp:77] Creating layer ssd1_1
I0906 23:00:47.255772  4807 net.cpp:100] Creating Layer ssd1_1
I0906 23:00:47.255775  4807 net.cpp:434] ssd1_1 <- fc7_relu7_0_split_0
I0906 23:00:47.255779  4807 net.cpp:408] ssd1_1 -> ssd1_1
I0906 23:00:47.258083  4807 net.cpp:150] Setting up ssd1_1
I0906 23:00:47.258091  4807 net.cpp:157] Top shape: 4 256 19 32 (622592)
I0906 23:00:47.258093  4807 net.cpp:165] Memory required for data: 1584915488
I0906 23:00:47.258097  4807 layer_factory.hpp:77] Creating layer ssd1_1_relu
I0906 23:00:47.258102  4807 net.cpp:100] Creating Layer ssd1_1_relu
I0906 23:00:47.258105  4807 net.cpp:434] ssd1_1_relu <- ssd1_1
I0906 23:00:47.258108  4807 net.cpp:395] ssd1_1_relu -> ssd1_1 (in-place)
I0906 23:00:47.258342  4807 net.cpp:150] Setting up ssd1_1_relu
I0906 23:00:47.258348  4807 net.cpp:157] Top shape: 4 256 19 32 (622592)
I0906 23:00:47.258350  4807 net.cpp:165] Memory required for data: 1587405856
I0906 23:00:47.258352  4807 layer_factory.hpp:77] Creating layer ssd1_2
I0906 23:00:47.258358  4807 net.cpp:100] Creating Layer ssd1_2
I0906 23:00:47.258361  4807 net.cpp:434] ssd1_2 <- ssd1_1
I0906 23:00:47.258364  4807 net.cpp:408] ssd1_2 -> ssd1_2
I0906 23:00:47.264081  4807 net.cpp:150] Setting up ssd1_2
I0906 23:00:47.264098  4807 net.cpp:157] Top shape: 4 512 10 16 (327680)
I0906 23:00:47.264101  4807 net.cpp:165] Memory required for data: 1588716576
I0906 23:00:47.264111  4807 layer_factory.hpp:77] Creating layer ssd1_2_relu
I0906 23:00:47.264117  4807 net.cpp:100] Creating Layer ssd1_2_relu
I0906 23:00:47.264122  4807 net.cpp:434] ssd1_2_relu <- ssd1_2
I0906 23:00:47.264127  4807 net.cpp:395] ssd1_2_relu -> ssd1_2 (in-place)
I0906 23:00:47.264367  4807 net.cpp:150] Setting up ssd1_2_relu
I0906 23:00:47.264374  4807 net.cpp:157] Top shape: 4 512 10 16 (327680)
I0906 23:00:47.264375  4807 net.cpp:165] Memory required for data: 1590027296
I0906 23:00:47.264379  4807 layer_factory.hpp:77] Creating layer ssd1_2_ssd1_2_relu_0_split
I0906 23:00:47.264382  4807 net.cpp:100] Creating Layer ssd1_2_ssd1_2_relu_0_split
I0906 23:00:47.264384  4807 net.cpp:434] ssd1_2_ssd1_2_relu_0_split <- ssd1_2
I0906 23:00:47.264389  4807 net.cpp:408] ssd1_2_ssd1_2_relu_0_split -> ssd1_2_ssd1_2_relu_0_split_0
I0906 23:00:47.264394  4807 net.cpp:408] ssd1_2_ssd1_2_relu_0_split -> ssd1_2_ssd1_2_relu_0_split_1
I0906 23:00:47.264396  4807 net.cpp:408] ssd1_2_ssd1_2_relu_0_split -> ssd1_2_ssd1_2_relu_0_split_2
I0906 23:00:47.264400  4807 net.cpp:408] ssd1_2_ssd1_2_relu_0_split -> ssd1_2_ssd1_2_relu_0_split_3
I0906 23:00:47.264456  4807 net.cpp:150] Setting up ssd1_2_ssd1_2_relu_0_split
I0906 23:00:47.264459  4807 net.cpp:157] Top shape: 4 512 10 16 (327680)
I0906 23:00:47.264462  4807 net.cpp:157] Top shape: 4 512 10 16 (327680)
I0906 23:00:47.264464  4807 net.cpp:157] Top shape: 4 512 10 16 (327680)
I0906 23:00:47.264467  4807 net.cpp:157] Top shape: 4 512 10 16 (327680)
I0906 23:00:47.264469  4807 net.cpp:165] Memory required for data: 1595270176
I0906 23:00:47.264472  4807 layer_factory.hpp:77] Creating layer ssd2_1
I0906 23:00:47.264477  4807 net.cpp:100] Creating Layer ssd2_1
I0906 23:00:47.264479  4807 net.cpp:434] ssd2_1 <- ssd1_2_ssd1_2_relu_0_split_0
I0906 23:00:47.264483  4807 net.cpp:408] ssd2_1 -> ssd2_1
I0906 23:00:47.265728  4807 net.cpp:150] Setting up ssd2_1
I0906 23:00:47.265734  4807 net.cpp:157] Top shape: 4 128 10 16 (81920)
I0906 23:00:47.265736  4807 net.cpp:165] Memory required for data: 1595597856
I0906 23:00:47.265741  4807 layer_factory.hpp:77] Creating layer ssd2_1_relu
I0906 23:00:47.265745  4807 net.cpp:100] Creating Layer ssd2_1_relu
I0906 23:00:47.265748  4807 net.cpp:434] ssd2_1_relu <- ssd2_1
I0906 23:00:47.265750  4807 net.cpp:395] ssd2_1_relu -> ssd2_1 (in-place)
I0906 23:00:47.265993  4807 net.cpp:150] Setting up ssd2_1_relu
I0906 23:00:47.265998  4807 net.cpp:157] Top shape: 4 128 10 16 (81920)
I0906 23:00:47.266000  4807 net.cpp:165] Memory required for data: 1595925536
I0906 23:00:47.266002  4807 layer_factory.hpp:77] Creating layer ssd2_2
I0906 23:00:47.266008  4807 net.cpp:100] Creating Layer ssd2_2
I0906 23:00:47.266011  4807 net.cpp:434] ssd2_2 <- ssd2_1
I0906 23:00:47.266016  4807 net.cpp:408] ssd2_2 -> ssd2_2
I0906 23:00:47.268621  4807 net.cpp:150] Setting up ssd2_2
I0906 23:00:47.268632  4807 net.cpp:157] Top shape: 4 256 5 8 (40960)
I0906 23:00:47.268633  4807 net.cpp:165] Memory required for data: 1596089376
I0906 23:00:47.268638  4807 layer_factory.hpp:77] Creating layer ssd2_2_relu
I0906 23:00:47.268643  4807 net.cpp:100] Creating Layer ssd2_2_relu
I0906 23:00:47.268646  4807 net.cpp:434] ssd2_2_relu <- ssd2_2
I0906 23:00:47.268649  4807 net.cpp:395] ssd2_2_relu -> ssd2_2 (in-place)
I0906 23:00:47.268990  4807 net.cpp:150] Setting up ssd2_2_relu
I0906 23:00:47.268996  4807 net.cpp:157] Top shape: 4 256 5 8 (40960)
I0906 23:00:47.268999  4807 net.cpp:165] Memory required for data: 1596253216
I0906 23:00:47.269001  4807 layer_factory.hpp:77] Creating layer ssd2_2_ssd2_2_relu_0_split
I0906 23:00:47.269006  4807 net.cpp:100] Creating Layer ssd2_2_ssd2_2_relu_0_split
I0906 23:00:47.269008  4807 net.cpp:434] ssd2_2_ssd2_2_relu_0_split <- ssd2_2
I0906 23:00:47.269012  4807 net.cpp:408] ssd2_2_ssd2_2_relu_0_split -> ssd2_2_ssd2_2_relu_0_split_0
I0906 23:00:47.269017  4807 net.cpp:408] ssd2_2_ssd2_2_relu_0_split -> ssd2_2_ssd2_2_relu_0_split_1
I0906 23:00:47.269021  4807 net.cpp:408] ssd2_2_ssd2_2_relu_0_split -> ssd2_2_ssd2_2_relu_0_split_2
I0906 23:00:47.269024  4807 net.cpp:408] ssd2_2_ssd2_2_relu_0_split -> ssd2_2_ssd2_2_relu_0_split_3
I0906 23:00:47.269083  4807 net.cpp:150] Setting up ssd2_2_ssd2_2_relu_0_split
I0906 23:00:47.269086  4807 net.cpp:157] Top shape: 4 256 5 8 (40960)
I0906 23:00:47.269089  4807 net.cpp:157] Top shape: 4 256 5 8 (40960)
I0906 23:00:47.269091  4807 net.cpp:157] Top shape: 4 256 5 8 (40960)
I0906 23:00:47.269094  4807 net.cpp:157] Top shape: 4 256 5 8 (40960)
I0906 23:00:47.269096  4807 net.cpp:165] Memory required for data: 1596908576
I0906 23:00:47.269098  4807 layer_factory.hpp:77] Creating layer ssd3_1
I0906 23:00:47.269104  4807 net.cpp:100] Creating Layer ssd3_1
I0906 23:00:47.269107  4807 net.cpp:434] ssd3_1 <- ssd2_2_ssd2_2_relu_0_split_0
I0906 23:00:47.269111  4807 net.cpp:408] ssd3_1 -> ssd3_1
I0906 23:00:47.270241  4807 net.cpp:150] Setting up ssd3_1
I0906 23:00:47.270247  4807 net.cpp:157] Top shape: 4 128 5 8 (20480)
I0906 23:00:47.270251  4807 net.cpp:165] Memory required for data: 1596990496
I0906 23:00:47.270256  4807 layer_factory.hpp:77] Creating layer ssd3_1_relu
I0906 23:00:47.270258  4807 net.cpp:100] Creating Layer ssd3_1_relu
I0906 23:00:47.270262  4807 net.cpp:434] ssd3_1_relu <- ssd3_1
I0906 23:00:47.270265  4807 net.cpp:395] ssd3_1_relu -> ssd3_1 (in-place)
I0906 23:00:47.270504  4807 net.cpp:150] Setting up ssd3_1_relu
I0906 23:00:47.270509  4807 net.cpp:157] Top shape: 4 128 5 8 (20480)
I0906 23:00:47.270511  4807 net.cpp:165] Memory required for data: 1597072416
I0906 23:00:47.270514  4807 layer_factory.hpp:77] Creating layer ssd3_2
I0906 23:00:47.270519  4807 net.cpp:100] Creating Layer ssd3_2
I0906 23:00:47.270521  4807 net.cpp:434] ssd3_2 <- ssd3_1
I0906 23:00:47.270525  4807 net.cpp:408] ssd3_2 -> ssd3_2
I0906 23:00:47.273079  4807 net.cpp:150] Setting up ssd3_2
I0906 23:00:47.273090  4807 net.cpp:157] Top shape: 4 256 3 6 (18432)
I0906 23:00:47.273092  4807 net.cpp:165] Memory required for data: 1597146144
I0906 23:00:47.273097  4807 layer_factory.hpp:77] Creating layer ssd3_2_relu
I0906 23:00:47.273102  4807 net.cpp:100] Creating Layer ssd3_2_relu
I0906 23:00:47.273104  4807 net.cpp:434] ssd3_2_relu <- ssd3_2
I0906 23:00:47.273108  4807 net.cpp:395] ssd3_2_relu -> ssd3_2 (in-place)
I0906 23:00:47.273345  4807 net.cpp:150] Setting up ssd3_2_relu
I0906 23:00:47.273351  4807 net.cpp:157] Top shape: 4 256 3 6 (18432)
I0906 23:00:47.273363  4807 net.cpp:165] Memory required for data: 1597219872
I0906 23:00:47.273366  4807 layer_factory.hpp:77] Creating layer ssd3_2_ssd3_2_relu_0_split
I0906 23:00:47.273370  4807 net.cpp:100] Creating Layer ssd3_2_ssd3_2_relu_0_split
I0906 23:00:47.273372  4807 net.cpp:434] ssd3_2_ssd3_2_relu_0_split <- ssd3_2
I0906 23:00:47.273377  4807 net.cpp:408] ssd3_2_ssd3_2_relu_0_split -> ssd3_2_ssd3_2_relu_0_split_0
I0906 23:00:47.273381  4807 net.cpp:408] ssd3_2_ssd3_2_relu_0_split -> ssd3_2_ssd3_2_relu_0_split_1
I0906 23:00:47.273385  4807 net.cpp:408] ssd3_2_ssd3_2_relu_0_split -> ssd3_2_ssd3_2_relu_0_split_2
I0906 23:00:47.273387  4807 net.cpp:408] ssd3_2_ssd3_2_relu_0_split -> ssd3_2_ssd3_2_relu_0_split_3
I0906 23:00:47.273443  4807 net.cpp:150] Setting up ssd3_2_ssd3_2_relu_0_split
I0906 23:00:47.273447  4807 net.cpp:157] Top shape: 4 256 3 6 (18432)
I0906 23:00:47.273449  4807 net.cpp:157] Top shape: 4 256 3 6 (18432)
I0906 23:00:47.273452  4807 net.cpp:157] Top shape: 4 256 3 6 (18432)
I0906 23:00:47.273454  4807 net.cpp:157] Top shape: 4 256 3 6 (18432)
I0906 23:00:47.273455  4807 net.cpp:165] Memory required for data: 1597514784
I0906 23:00:47.273458  4807 layer_factory.hpp:77] Creating layer ssd4_1
I0906 23:00:47.273463  4807 net.cpp:100] Creating Layer ssd4_1
I0906 23:00:47.273465  4807 net.cpp:434] ssd4_1 <- ssd3_2_ssd3_2_relu_0_split_0
I0906 23:00:47.273469  4807 net.cpp:408] ssd4_1 -> ssd4_1
I0906 23:00:47.274631  4807 net.cpp:150] Setting up ssd4_1
I0906 23:00:47.274638  4807 net.cpp:157] Top shape: 4 128 3 6 (9216)
I0906 23:00:47.274641  4807 net.cpp:165] Memory required for data: 1597551648
I0906 23:00:47.274644  4807 layer_factory.hpp:77] Creating layer ssd4_1_relu
I0906 23:00:47.274649  4807 net.cpp:100] Creating Layer ssd4_1_relu
I0906 23:00:47.274653  4807 net.cpp:434] ssd4_1_relu <- ssd4_1
I0906 23:00:47.274657  4807 net.cpp:395] ssd4_1_relu -> ssd4_1 (in-place)
I0906 23:00:47.274888  4807 net.cpp:150] Setting up ssd4_1_relu
I0906 23:00:47.274893  4807 net.cpp:157] Top shape: 4 128 3 6 (9216)
I0906 23:00:47.274894  4807 net.cpp:165] Memory required for data: 1597588512
I0906 23:00:47.274896  4807 layer_factory.hpp:77] Creating layer ssd4_2
I0906 23:00:47.274901  4807 net.cpp:100] Creating Layer ssd4_2
I0906 23:00:47.274904  4807 net.cpp:434] ssd4_2 <- ssd4_1
I0906 23:00:47.274909  4807 net.cpp:408] ssd4_2 -> ssd4_2
I0906 23:00:47.277395  4807 net.cpp:150] Setting up ssd4_2
I0906 23:00:47.277403  4807 net.cpp:157] Top shape: 4 256 1 4 (4096)
I0906 23:00:47.277405  4807 net.cpp:165] Memory required for data: 1597604896
I0906 23:00:47.277410  4807 layer_factory.hpp:77] Creating layer ssd4_2_relu
I0906 23:00:47.277415  4807 net.cpp:100] Creating Layer ssd4_2_relu
I0906 23:00:47.277422  4807 net.cpp:434] ssd4_2_relu <- ssd4_2
I0906 23:00:47.277426  4807 net.cpp:395] ssd4_2_relu -> ssd4_2 (in-place)
I0906 23:00:47.277766  4807 net.cpp:150] Setting up ssd4_2_relu
I0906 23:00:47.277772  4807 net.cpp:157] Top shape: 4 256 1 4 (4096)
I0906 23:00:47.277775  4807 net.cpp:165] Memory required for data: 1597621280
I0906 23:00:47.277777  4807 layer_factory.hpp:77] Creating layer ssd4_2_ssd4_2_relu_0_split
I0906 23:00:47.277782  4807 net.cpp:100] Creating Layer ssd4_2_ssd4_2_relu_0_split
I0906 23:00:47.277786  4807 net.cpp:434] ssd4_2_ssd4_2_relu_0_split <- ssd4_2
I0906 23:00:47.277788  4807 net.cpp:408] ssd4_2_ssd4_2_relu_0_split -> ssd4_2_ssd4_2_relu_0_split_0
I0906 23:00:47.277792  4807 net.cpp:408] ssd4_2_ssd4_2_relu_0_split -> ssd4_2_ssd4_2_relu_0_split_1
I0906 23:00:47.277797  4807 net.cpp:408] ssd4_2_ssd4_2_relu_0_split -> ssd4_2_ssd4_2_relu_0_split_2
I0906 23:00:47.277842  4807 net.cpp:150] Setting up ssd4_2_ssd4_2_relu_0_split
I0906 23:00:47.277846  4807 net.cpp:157] Top shape: 4 256 1 4 (4096)
I0906 23:00:47.277849  4807 net.cpp:157] Top shape: 4 256 1 4 (4096)
I0906 23:00:47.277853  4807 net.cpp:157] Top shape: 4 256 1 4 (4096)
I0906 23:00:47.277853  4807 net.cpp:165] Memory required for data: 1597670432
I0906 23:00:47.277855  4807 layer_factory.hpp:77] Creating layer conv4_3_norm
I0906 23:00:47.277868  4807 net.cpp:100] Creating Layer conv4_3_norm
I0906 23:00:47.277871  4807 net.cpp:434] conv4_3_norm <- conv4_3_relu4_3_0_split_1
I0906 23:00:47.277876  4807 net.cpp:408] conv4_3_norm -> conv4_3_norm
I0906 23:00:47.278010  4807 net.cpp:150] Setting up conv4_3_norm
I0906 23:00:47.278014  4807 net.cpp:157] Top shape: 4 512 38 64 (4980736)
I0906 23:00:47.278017  4807 net.cpp:165] Memory required for data: 1617593376
I0906 23:00:47.278020  4807 layer_factory.hpp:77] Creating layer conv4_3_norm_conv4_3_norm_0_split
I0906 23:00:47.278023  4807 net.cpp:100] Creating Layer conv4_3_norm_conv4_3_norm_0_split
I0906 23:00:47.278024  4807 net.cpp:434] conv4_3_norm_conv4_3_norm_0_split <- conv4_3_norm
I0906 23:00:47.278028  4807 net.cpp:408] conv4_3_norm_conv4_3_norm_0_split -> conv4_3_norm_conv4_3_norm_0_split_0
I0906 23:00:47.278033  4807 net.cpp:408] conv4_3_norm_conv4_3_norm_0_split -> conv4_3_norm_conv4_3_norm_0_split_1
I0906 23:00:47.278035  4807 net.cpp:408] conv4_3_norm_conv4_3_norm_0_split -> conv4_3_norm_conv4_3_norm_0_split_2
I0906 23:00:47.278074  4807 net.cpp:150] Setting up conv4_3_norm_conv4_3_norm_0_split
I0906 23:00:47.278079  4807 net.cpp:157] Top shape: 4 512 38 64 (4980736)
I0906 23:00:47.278081  4807 net.cpp:157] Top shape: 4 512 38 64 (4980736)
I0906 23:00:47.278084  4807 net.cpp:157] Top shape: 4 512 38 64 (4980736)
I0906 23:00:47.278085  4807 net.cpp:165] Memory required for data: 1677362208
I0906 23:00:47.278087  4807 layer_factory.hpp:77] Creating layer conv4_3_norm_mbox_loc
I0906 23:00:47.278093  4807 net.cpp:100] Creating Layer conv4_3_norm_mbox_loc
I0906 23:00:47.278095  4807 net.cpp:434] conv4_3_norm_mbox_loc <- conv4_3_norm_conv4_3_norm_0_split_0
I0906 23:00:47.278098  4807 net.cpp:408] conv4_3_norm_mbox_loc -> conv4_3_norm_mbox_loc
I0906 23:00:47.279232  4807 net.cpp:150] Setting up conv4_3_norm_mbox_loc
I0906 23:00:47.279239  4807 net.cpp:157] Top shape: 4 8 38 64 (77824)
I0906 23:00:47.279243  4807 net.cpp:165] Memory required for data: 1677673504
I0906 23:00:47.279248  4807 layer_factory.hpp:77] Creating layer conv4_3_norm_mbox_loc_perm
I0906 23:00:47.279255  4807 net.cpp:100] Creating Layer conv4_3_norm_mbox_loc_perm
I0906 23:00:47.279258  4807 net.cpp:434] conv4_3_norm_mbox_loc_perm <- conv4_3_norm_mbox_loc
I0906 23:00:47.279273  4807 net.cpp:408] conv4_3_norm_mbox_loc_perm -> conv4_3_norm_mbox_loc_perm
I0906 23:00:47.279374  4807 net.cpp:150] Setting up conv4_3_norm_mbox_loc_perm
I0906 23:00:47.279381  4807 net.cpp:157] Top shape: 4 38 64 8 (77824)
I0906 23:00:47.279383  4807 net.cpp:165] Memory required for data: 1677984800
I0906 23:00:47.279386  4807 layer_factory.hpp:77] Creating layer conv4_3_norm_mbox_loc_flat
I0906 23:00:47.279392  4807 net.cpp:100] Creating Layer conv4_3_norm_mbox_loc_flat
I0906 23:00:47.279395  4807 net.cpp:434] conv4_3_norm_mbox_loc_flat <- conv4_3_norm_mbox_loc_perm
I0906 23:00:47.279402  4807 net.cpp:408] conv4_3_norm_mbox_loc_flat -> conv4_3_norm_mbox_loc_flat
I0906 23:00:47.279433  4807 net.cpp:150] Setting up conv4_3_norm_mbox_loc_flat
I0906 23:00:47.279438  4807 net.cpp:157] Top shape: 4 19456 (77824)
I0906 23:00:47.279440  4807 net.cpp:165] Memory required for data: 1678296096
I0906 23:00:47.279443  4807 layer_factory.hpp:77] Creating layer conv4_3_norm_mbox_conf
I0906 23:00:47.279455  4807 net.cpp:100] Creating Layer conv4_3_norm_mbox_conf
I0906 23:00:47.279458  4807 net.cpp:434] conv4_3_norm_mbox_conf <- conv4_3_norm_conv4_3_norm_0_split_1
I0906 23:00:47.279464  4807 net.cpp:408] conv4_3_norm_mbox_conf -> conv4_3_norm_mbox_conf
I0906 23:00:47.280745  4807 net.cpp:150] Setting up conv4_3_norm_mbox_conf
I0906 23:00:47.280753  4807 net.cpp:157] Top shape: 4 10 38 64 (97280)
I0906 23:00:47.280756  4807 net.cpp:165] Memory required for data: 1678685216
I0906 23:00:47.280763  4807 layer_factory.hpp:77] Creating layer conv4_3_norm_mbox_conf_perm
I0906 23:00:47.280771  4807 net.cpp:100] Creating Layer conv4_3_norm_mbox_conf_perm
I0906 23:00:47.280774  4807 net.cpp:434] conv4_3_norm_mbox_conf_perm <- conv4_3_norm_mbox_conf
I0906 23:00:47.280787  4807 net.cpp:408] conv4_3_norm_mbox_conf_perm -> conv4_3_norm_mbox_conf_perm
I0906 23:00:47.280886  4807 net.cpp:150] Setting up conv4_3_norm_mbox_conf_perm
I0906 23:00:47.280891  4807 net.cpp:157] Top shape: 4 38 64 10 (97280)
I0906 23:00:47.280894  4807 net.cpp:165] Memory required for data: 1679074336
I0906 23:00:47.280896  4807 layer_factory.hpp:77] Creating layer conv4_3_norm_mbox_conf_flat
I0906 23:00:47.280903  4807 net.cpp:100] Creating Layer conv4_3_norm_mbox_conf_flat
I0906 23:00:47.280907  4807 net.cpp:434] conv4_3_norm_mbox_conf_flat <- conv4_3_norm_mbox_conf_perm
I0906 23:00:47.280912  4807 net.cpp:408] conv4_3_norm_mbox_conf_flat -> conv4_3_norm_mbox_conf_flat
I0906 23:00:47.280936  4807 net.cpp:150] Setting up conv4_3_norm_mbox_conf_flat
I0906 23:00:47.280941  4807 net.cpp:157] Top shape: 4 24320 (97280)
I0906 23:00:47.280942  4807 net.cpp:165] Memory required for data: 1679463456
I0906 23:00:47.280946  4807 layer_factory.hpp:77] Creating layer conv4_3_norm_mbox_priorbox
I0906 23:00:47.280951  4807 net.cpp:100] Creating Layer conv4_3_norm_mbox_priorbox
I0906 23:00:47.280956  4807 net.cpp:434] conv4_3_norm_mbox_priorbox <- conv4_3_norm_conv4_3_norm_0_split_2
I0906 23:00:47.280959  4807 net.cpp:434] conv4_3_norm_mbox_priorbox <- data_data_0_split_1
I0906 23:00:47.280964  4807 net.cpp:408] conv4_3_norm_mbox_priorbox -> conv4_3_norm_mbox_priorbox
I0906 23:00:47.280988  4807 net.cpp:150] Setting up conv4_3_norm_mbox_priorbox
I0906 23:00:47.280993  4807 net.cpp:157] Top shape: 1 2 19456 (38912)
I0906 23:00:47.280995  4807 net.cpp:165] Memory required for data: 1679619104
I0906 23:00:47.280999  4807 layer_factory.hpp:77] Creating layer fc7_mbox_loc
I0906 23:00:47.281006  4807 net.cpp:100] Creating Layer fc7_mbox_loc
I0906 23:00:47.281010  4807 net.cpp:434] fc7_mbox_loc <- fc7_relu7_0_split_1
I0906 23:00:47.281016  4807 net.cpp:408] fc7_mbox_loc -> fc7_mbox_loc
I0906 23:00:47.282402  4807 net.cpp:150] Setting up fc7_mbox_loc
I0906 23:00:47.282410  4807 net.cpp:157] Top shape: 4 8 19 32 (19456)
I0906 23:00:47.282413  4807 net.cpp:165] Memory required for data: 1679696928
I0906 23:00:47.282419  4807 layer_factory.hpp:77] Creating layer fc7_mbox_loc_perm
I0906 23:00:47.282426  4807 net.cpp:100] Creating Layer fc7_mbox_loc_perm
I0906 23:00:47.282430  4807 net.cpp:434] fc7_mbox_loc_perm <- fc7_mbox_loc
I0906 23:00:47.282436  4807 net.cpp:408] fc7_mbox_loc_perm -> fc7_mbox_loc_perm
I0906 23:00:47.282531  4807 net.cpp:150] Setting up fc7_mbox_loc_perm
I0906 23:00:47.282536  4807 net.cpp:157] Top shape: 4 19 32 8 (19456)
I0906 23:00:47.282539  4807 net.cpp:165] Memory required for data: 1679774752
I0906 23:00:47.282543  4807 layer_factory.hpp:77] Creating layer fc7_mbox_loc_flat
I0906 23:00:47.282549  4807 net.cpp:100] Creating Layer fc7_mbox_loc_flat
I0906 23:00:47.282552  4807 net.cpp:434] fc7_mbox_loc_flat <- fc7_mbox_loc_perm
I0906 23:00:47.282557  4807 net.cpp:408] fc7_mbox_loc_flat -> fc7_mbox_loc_flat
I0906 23:00:47.282579  4807 net.cpp:150] Setting up fc7_mbox_loc_flat
I0906 23:00:47.282584  4807 net.cpp:157] Top shape: 4 4864 (19456)
I0906 23:00:47.282586  4807 net.cpp:165] Memory required for data: 1679852576
I0906 23:00:47.282589  4807 layer_factory.hpp:77] Creating layer fc7_mbox_conf
I0906 23:00:47.282598  4807 net.cpp:100] Creating Layer fc7_mbox_conf
I0906 23:00:47.282601  4807 net.cpp:434] fc7_mbox_conf <- fc7_relu7_0_split_2
I0906 23:00:47.282608  4807 net.cpp:408] fc7_mbox_conf -> fc7_mbox_conf
I0906 23:00:47.284039  4807 net.cpp:150] Setting up fc7_mbox_conf
I0906 23:00:47.284047  4807 net.cpp:157] Top shape: 4 10 19 32 (24320)
I0906 23:00:47.284050  4807 net.cpp:165] Memory required for data: 1679949856
I0906 23:00:47.284056  4807 layer_factory.hpp:77] Creating layer fc7_mbox_conf_perm
I0906 23:00:47.284063  4807 net.cpp:100] Creating Layer fc7_mbox_conf_perm
I0906 23:00:47.284067  4807 net.cpp:434] fc7_mbox_conf_perm <- fc7_mbox_conf
I0906 23:00:47.284072  4807 net.cpp:408] fc7_mbox_conf_perm -> fc7_mbox_conf_perm
I0906 23:00:47.284169  4807 net.cpp:150] Setting up fc7_mbox_conf_perm
I0906 23:00:47.284183  4807 net.cpp:157] Top shape: 4 19 32 10 (24320)
I0906 23:00:47.284185  4807 net.cpp:165] Memory required for data: 1680047136
I0906 23:00:47.284189  4807 layer_factory.hpp:77] Creating layer fc7_mbox_conf_flat
I0906 23:00:47.284196  4807 net.cpp:100] Creating Layer fc7_mbox_conf_flat
I0906 23:00:47.284199  4807 net.cpp:434] fc7_mbox_conf_flat <- fc7_mbox_conf_perm
I0906 23:00:47.284204  4807 net.cpp:408] fc7_mbox_conf_flat -> fc7_mbox_conf_flat
I0906 23:00:47.284227  4807 net.cpp:150] Setting up fc7_mbox_conf_flat
I0906 23:00:47.284232  4807 net.cpp:157] Top shape: 4 6080 (24320)
I0906 23:00:47.284235  4807 net.cpp:165] Memory required for data: 1680144416
I0906 23:00:47.284237  4807 layer_factory.hpp:77] Creating layer fc7_mbox_priorbox
I0906 23:00:47.284243  4807 net.cpp:100] Creating Layer fc7_mbox_priorbox
I0906 23:00:47.284247  4807 net.cpp:434] fc7_mbox_priorbox <- fc7_relu7_0_split_3
I0906 23:00:47.284251  4807 net.cpp:434] fc7_mbox_priorbox <- data_data_0_split_2
I0906 23:00:47.284257  4807 net.cpp:408] fc7_mbox_priorbox -> fc7_mbox_priorbox
I0906 23:00:47.284281  4807 net.cpp:150] Setting up fc7_mbox_priorbox
I0906 23:00:47.284284  4807 net.cpp:157] Top shape: 1 2 4864 (9728)
I0906 23:00:47.284287  4807 net.cpp:165] Memory required for data: 1680183328
I0906 23:00:47.284291  4807 layer_factory.hpp:77] Creating layer ssd1_2_mbox_loc
I0906 23:00:47.284298  4807 net.cpp:100] Creating Layer ssd1_2_mbox_loc
I0906 23:00:47.284302  4807 net.cpp:434] ssd1_2_mbox_loc <- ssd1_2_ssd1_2_relu_0_split_1
I0906 23:00:47.284308  4807 net.cpp:408] ssd1_2_mbox_loc -> ssd1_2_mbox_loc
I0906 23:00:47.285557  4807 net.cpp:150] Setting up ssd1_2_mbox_loc
I0906 23:00:47.285565  4807 net.cpp:157] Top shape: 4 8 10 16 (5120)
I0906 23:00:47.285568  4807 net.cpp:165] Memory required for data: 1680203808
I0906 23:00:47.285575  4807 layer_factory.hpp:77] Creating layer ssd1_2_mbox_loc_perm
I0906 23:00:47.285581  4807 net.cpp:100] Creating Layer ssd1_2_mbox_loc_perm
I0906 23:00:47.285585  4807 net.cpp:434] ssd1_2_mbox_loc_perm <- ssd1_2_mbox_loc
I0906 23:00:47.285593  4807 net.cpp:408] ssd1_2_mbox_loc_perm -> ssd1_2_mbox_loc_perm
I0906 23:00:47.285688  4807 net.cpp:150] Setting up ssd1_2_mbox_loc_perm
I0906 23:00:47.285693  4807 net.cpp:157] Top shape: 4 10 16 8 (5120)
I0906 23:00:47.285696  4807 net.cpp:165] Memory required for data: 1680224288
I0906 23:00:47.285701  4807 layer_factory.hpp:77] Creating layer ssd1_2_mbox_loc_flat
I0906 23:00:47.285706  4807 net.cpp:100] Creating Layer ssd1_2_mbox_loc_flat
I0906 23:00:47.285708  4807 net.cpp:434] ssd1_2_mbox_loc_flat <- ssd1_2_mbox_loc_perm
I0906 23:00:47.285713  4807 net.cpp:408] ssd1_2_mbox_loc_flat -> ssd1_2_mbox_loc_flat
I0906 23:00:47.285737  4807 net.cpp:150] Setting up ssd1_2_mbox_loc_flat
I0906 23:00:47.285740  4807 net.cpp:157] Top shape: 4 1280 (5120)
I0906 23:00:47.285743  4807 net.cpp:165] Memory required for data: 1680244768
I0906 23:00:47.285746  4807 layer_factory.hpp:77] Creating layer ssd1_2_mbox_conf
I0906 23:00:47.285755  4807 net.cpp:100] Creating Layer ssd1_2_mbox_conf
I0906 23:00:47.285758  4807 net.cpp:434] ssd1_2_mbox_conf <- ssd1_2_ssd1_2_relu_0_split_2
I0906 23:00:47.285765  4807 net.cpp:408] ssd1_2_mbox_conf -> ssd1_2_mbox_conf
I0906 23:00:47.287042  4807 net.cpp:150] Setting up ssd1_2_mbox_conf
I0906 23:00:47.287051  4807 net.cpp:157] Top shape: 4 10 10 16 (6400)
I0906 23:00:47.287055  4807 net.cpp:165] Memory required for data: 1680270368
I0906 23:00:47.287060  4807 layer_factory.hpp:77] Creating layer ssd1_2_mbox_conf_perm
I0906 23:00:47.287066  4807 net.cpp:100] Creating Layer ssd1_2_mbox_conf_perm
I0906 23:00:47.287070  4807 net.cpp:434] ssd1_2_mbox_conf_perm <- ssd1_2_mbox_conf
I0906 23:00:47.287076  4807 net.cpp:408] ssd1_2_mbox_conf_perm -> ssd1_2_mbox_conf_perm
I0906 23:00:47.287173  4807 net.cpp:150] Setting up ssd1_2_mbox_conf_perm
I0906 23:00:47.287178  4807 net.cpp:157] Top shape: 4 10 16 10 (6400)
I0906 23:00:47.287183  4807 net.cpp:165] Memory required for data: 1680295968
I0906 23:00:47.287184  4807 layer_factory.hpp:77] Creating layer ssd1_2_mbox_conf_flat
I0906 23:00:47.287199  4807 net.cpp:100] Creating Layer ssd1_2_mbox_conf_flat
I0906 23:00:47.287202  4807 net.cpp:434] ssd1_2_mbox_conf_flat <- ssd1_2_mbox_conf_perm
I0906 23:00:47.287209  4807 net.cpp:408] ssd1_2_mbox_conf_flat -> ssd1_2_mbox_conf_flat
I0906 23:00:47.287230  4807 net.cpp:150] Setting up ssd1_2_mbox_conf_flat
I0906 23:00:47.287235  4807 net.cpp:157] Top shape: 4 1600 (6400)
I0906 23:00:47.287237  4807 net.cpp:165] Memory required for data: 1680321568
I0906 23:00:47.287241  4807 layer_factory.hpp:77] Creating layer ssd1_2_mbox_priorbox
I0906 23:00:47.287247  4807 net.cpp:100] Creating Layer ssd1_2_mbox_priorbox
I0906 23:00:47.287250  4807 net.cpp:434] ssd1_2_mbox_priorbox <- ssd1_2_ssd1_2_relu_0_split_3
I0906 23:00:47.287256  4807 net.cpp:434] ssd1_2_mbox_priorbox <- data_data_0_split_3
I0906 23:00:47.287261  4807 net.cpp:408] ssd1_2_mbox_priorbox -> ssd1_2_mbox_priorbox
I0906 23:00:47.287284  4807 net.cpp:150] Setting up ssd1_2_mbox_priorbox
I0906 23:00:47.287288  4807 net.cpp:157] Top shape: 1 2 1280 (2560)
I0906 23:00:47.287292  4807 net.cpp:165] Memory required for data: 1680331808
I0906 23:00:47.287294  4807 layer_factory.hpp:77] Creating layer ssd2_2_mbox_loc
I0906 23:00:47.287303  4807 net.cpp:100] Creating Layer ssd2_2_mbox_loc
I0906 23:00:47.287307  4807 net.cpp:434] ssd2_2_mbox_loc <- ssd2_2_ssd2_2_relu_0_split_1
I0906 23:00:47.287312  4807 net.cpp:408] ssd2_2_mbox_loc -> ssd2_2_mbox_loc
I0906 23:00:47.288530  4807 net.cpp:150] Setting up ssd2_2_mbox_loc
I0906 23:00:47.288538  4807 net.cpp:157] Top shape: 4 8 5 8 (1280)
I0906 23:00:47.288542  4807 net.cpp:165] Memory required for data: 1680336928
I0906 23:00:47.288547  4807 layer_factory.hpp:77] Creating layer ssd2_2_mbox_loc_perm
I0906 23:00:47.288554  4807 net.cpp:100] Creating Layer ssd2_2_mbox_loc_perm
I0906 23:00:47.288558  4807 net.cpp:434] ssd2_2_mbox_loc_perm <- ssd2_2_mbox_loc
I0906 23:00:47.288563  4807 net.cpp:408] ssd2_2_mbox_loc_perm -> ssd2_2_mbox_loc_perm
I0906 23:00:47.288661  4807 net.cpp:150] Setting up ssd2_2_mbox_loc_perm
I0906 23:00:47.288667  4807 net.cpp:157] Top shape: 4 5 8 8 (1280)
I0906 23:00:47.288669  4807 net.cpp:165] Memory required for data: 1680342048
I0906 23:00:47.288673  4807 layer_factory.hpp:77] Creating layer ssd2_2_mbox_loc_flat
I0906 23:00:47.288677  4807 net.cpp:100] Creating Layer ssd2_2_mbox_loc_flat
I0906 23:00:47.288682  4807 net.cpp:434] ssd2_2_mbox_loc_flat <- ssd2_2_mbox_loc_perm
I0906 23:00:47.288687  4807 net.cpp:408] ssd2_2_mbox_loc_flat -> ssd2_2_mbox_loc_flat
I0906 23:00:47.288710  4807 net.cpp:150] Setting up ssd2_2_mbox_loc_flat
I0906 23:00:47.288714  4807 net.cpp:157] Top shape: 4 320 (1280)
I0906 23:00:47.288717  4807 net.cpp:165] Memory required for data: 1680347168
I0906 23:00:47.288720  4807 layer_factory.hpp:77] Creating layer ssd2_2_mbox_conf
I0906 23:00:47.288728  4807 net.cpp:100] Creating Layer ssd2_2_mbox_conf
I0906 23:00:47.288731  4807 net.cpp:434] ssd2_2_mbox_conf <- ssd2_2_ssd2_2_relu_0_split_2
I0906 23:00:47.288738  4807 net.cpp:408] ssd2_2_mbox_conf -> ssd2_2_mbox_conf
I0906 23:00:47.289954  4807 net.cpp:150] Setting up ssd2_2_mbox_conf
I0906 23:00:47.289963  4807 net.cpp:157] Top shape: 4 10 5 8 (1600)
I0906 23:00:47.289964  4807 net.cpp:165] Memory required for data: 1680353568
I0906 23:00:47.289971  4807 layer_factory.hpp:77] Creating layer ssd2_2_mbox_conf_perm
I0906 23:00:47.289978  4807 net.cpp:100] Creating Layer ssd2_2_mbox_conf_perm
I0906 23:00:47.289981  4807 net.cpp:434] ssd2_2_mbox_conf_perm <- ssd2_2_mbox_conf
I0906 23:00:47.289988  4807 net.cpp:408] ssd2_2_mbox_conf_perm -> ssd2_2_mbox_conf_perm
I0906 23:00:47.290086  4807 net.cpp:150] Setting up ssd2_2_mbox_conf_perm
I0906 23:00:47.290092  4807 net.cpp:157] Top shape: 4 5 8 10 (1600)
I0906 23:00:47.290096  4807 net.cpp:165] Memory required for data: 1680359968
I0906 23:00:47.290098  4807 layer_factory.hpp:77] Creating layer ssd2_2_mbox_conf_flat
I0906 23:00:47.290104  4807 net.cpp:100] Creating Layer ssd2_2_mbox_conf_flat
I0906 23:00:47.290108  4807 net.cpp:434] ssd2_2_mbox_conf_flat <- ssd2_2_mbox_conf_perm
I0906 23:00:47.290122  4807 net.cpp:408] ssd2_2_mbox_conf_flat -> ssd2_2_mbox_conf_flat
I0906 23:00:47.290143  4807 net.cpp:150] Setting up ssd2_2_mbox_conf_flat
I0906 23:00:47.290149  4807 net.cpp:157] Top shape: 4 400 (1600)
I0906 23:00:47.290153  4807 net.cpp:165] Memory required for data: 1680366368
I0906 23:00:47.290155  4807 layer_factory.hpp:77] Creating layer ssd2_2_mbox_priorbox
I0906 23:00:47.290160  4807 net.cpp:100] Creating Layer ssd2_2_mbox_priorbox
I0906 23:00:47.290163  4807 net.cpp:434] ssd2_2_mbox_priorbox <- ssd2_2_ssd2_2_relu_0_split_3
I0906 23:00:47.290168  4807 net.cpp:434] ssd2_2_mbox_priorbox <- data_data_0_split_4
I0906 23:00:47.290174  4807 net.cpp:408] ssd2_2_mbox_priorbox -> ssd2_2_mbox_priorbox
I0906 23:00:47.290197  4807 net.cpp:150] Setting up ssd2_2_mbox_priorbox
I0906 23:00:47.290201  4807 net.cpp:157] Top shape: 1 2 320 (640)
I0906 23:00:47.290205  4807 net.cpp:165] Memory required for data: 1680368928
I0906 23:00:47.290207  4807 layer_factory.hpp:77] Creating layer ssd3_2_mbox_loc
I0906 23:00:47.290215  4807 net.cpp:100] Creating Layer ssd3_2_mbox_loc
I0906 23:00:47.290218  4807 net.cpp:434] ssd3_2_mbox_loc <- ssd3_2_ssd3_2_relu_0_split_1
I0906 23:00:47.290225  4807 net.cpp:408] ssd3_2_mbox_loc -> ssd3_2_mbox_loc
I0906 23:00:47.291546  4807 net.cpp:150] Setting up ssd3_2_mbox_loc
I0906 23:00:47.291554  4807 net.cpp:157] Top shape: 4 8 3 6 (576)
I0906 23:00:47.291558  4807 net.cpp:165] Memory required for data: 1680371232
I0906 23:00:47.291570  4807 layer_factory.hpp:77] Creating layer ssd3_2_mbox_loc_perm
I0906 23:00:47.291575  4807 net.cpp:100] Creating Layer ssd3_2_mbox_loc_perm
I0906 23:00:47.291579  4807 net.cpp:434] ssd3_2_mbox_loc_perm <- ssd3_2_mbox_loc
I0906 23:00:47.291586  4807 net.cpp:408] ssd3_2_mbox_loc_perm -> ssd3_2_mbox_loc_perm
I0906 23:00:47.291684  4807 net.cpp:150] Setting up ssd3_2_mbox_loc_perm
I0906 23:00:47.291689  4807 net.cpp:157] Top shape: 4 3 6 8 (576)
I0906 23:00:47.291692  4807 net.cpp:165] Memory required for data: 1680373536
I0906 23:00:47.291695  4807 layer_factory.hpp:77] Creating layer ssd3_2_mbox_loc_flat
I0906 23:00:47.291702  4807 net.cpp:100] Creating Layer ssd3_2_mbox_loc_flat
I0906 23:00:47.291704  4807 net.cpp:434] ssd3_2_mbox_loc_flat <- ssd3_2_mbox_loc_perm
I0906 23:00:47.291710  4807 net.cpp:408] ssd3_2_mbox_loc_flat -> ssd3_2_mbox_loc_flat
I0906 23:00:47.291733  4807 net.cpp:150] Setting up ssd3_2_mbox_loc_flat
I0906 23:00:47.291738  4807 net.cpp:157] Top shape: 4 144 (576)
I0906 23:00:47.291739  4807 net.cpp:165] Memory required for data: 1680375840
I0906 23:00:47.291743  4807 layer_factory.hpp:77] Creating layer ssd3_2_mbox_conf
I0906 23:00:47.291750  4807 net.cpp:100] Creating Layer ssd3_2_mbox_conf
I0906 23:00:47.291754  4807 net.cpp:434] ssd3_2_mbox_conf <- ssd3_2_ssd3_2_relu_0_split_2
I0906 23:00:47.291759  4807 net.cpp:408] ssd3_2_mbox_conf -> ssd3_2_mbox_conf
I0906 23:00:47.292984  4807 net.cpp:150] Setting up ssd3_2_mbox_conf
I0906 23:00:47.292991  4807 net.cpp:157] Top shape: 4 10 3 6 (720)
I0906 23:00:47.292994  4807 net.cpp:165] Memory required for data: 1680378720
I0906 23:00:47.292999  4807 layer_factory.hpp:77] Creating layer ssd3_2_mbox_conf_perm
I0906 23:00:47.293006  4807 net.cpp:100] Creating Layer ssd3_2_mbox_conf_perm
I0906 23:00:47.293010  4807 net.cpp:434] ssd3_2_mbox_conf_perm <- ssd3_2_mbox_conf
I0906 23:00:47.293016  4807 net.cpp:408] ssd3_2_mbox_conf_perm -> ssd3_2_mbox_conf_perm
I0906 23:00:47.293113  4807 net.cpp:150] Setting up ssd3_2_mbox_conf_perm
I0906 23:00:47.293119  4807 net.cpp:157] Top shape: 4 3 6 10 (720)
I0906 23:00:47.293123  4807 net.cpp:165] Memory required for data: 1680381600
I0906 23:00:47.293125  4807 layer_factory.hpp:77] Creating layer ssd3_2_mbox_conf_flat
I0906 23:00:47.293129  4807 net.cpp:100] Creating Layer ssd3_2_mbox_conf_flat
I0906 23:00:47.293133  4807 net.cpp:434] ssd3_2_mbox_conf_flat <- ssd3_2_mbox_conf_perm
I0906 23:00:47.293140  4807 net.cpp:408] ssd3_2_mbox_conf_flat -> ssd3_2_mbox_conf_flat
I0906 23:00:47.293164  4807 net.cpp:150] Setting up ssd3_2_mbox_conf_flat
I0906 23:00:47.293175  4807 net.cpp:157] Top shape: 4 180 (720)
I0906 23:00:47.293179  4807 net.cpp:165] Memory required for data: 1680384480
I0906 23:00:47.293182  4807 layer_factory.hpp:77] Creating layer ssd3_2_mbox_priorbox
I0906 23:00:47.293189  4807 net.cpp:100] Creating Layer ssd3_2_mbox_priorbox
I0906 23:00:47.293191  4807 net.cpp:434] ssd3_2_mbox_priorbox <- ssd3_2_ssd3_2_relu_0_split_3
I0906 23:00:47.293196  4807 net.cpp:434] ssd3_2_mbox_priorbox <- data_data_0_split_5
I0906 23:00:47.293203  4807 net.cpp:408] ssd3_2_mbox_priorbox -> ssd3_2_mbox_priorbox
I0906 23:00:47.293227  4807 net.cpp:150] Setting up ssd3_2_mbox_priorbox
I0906 23:00:47.293231  4807 net.cpp:157] Top shape: 1 2 144 (288)
I0906 23:00:47.293234  4807 net.cpp:165] Memory required for data: 1680385632
I0906 23:00:47.293237  4807 layer_factory.hpp:77] Creating layer ssd4_2_mbox_loc
I0906 23:00:47.293246  4807 net.cpp:100] Creating Layer ssd4_2_mbox_loc
I0906 23:00:47.293248  4807 net.cpp:434] ssd4_2_mbox_loc <- ssd4_2_ssd4_2_relu_0_split_0
I0906 23:00:47.293254  4807 net.cpp:408] ssd4_2_mbox_loc -> ssd4_2_mbox_loc
I0906 23:00:47.294824  4807 net.cpp:150] Setting up ssd4_2_mbox_loc
I0906 23:00:47.294833  4807 net.cpp:157] Top shape: 4 8 1 4 (128)
I0906 23:00:47.294836  4807 net.cpp:165] Memory required for data: 1680386144
I0906 23:00:47.294842  4807 layer_factory.hpp:77] Creating layer ssd4_2_mbox_loc_perm
I0906 23:00:47.294848  4807 net.cpp:100] Creating Layer ssd4_2_mbox_loc_perm
I0906 23:00:47.294852  4807 net.cpp:434] ssd4_2_mbox_loc_perm <- ssd4_2_mbox_loc
I0906 23:00:47.294858  4807 net.cpp:408] ssd4_2_mbox_loc_perm -> ssd4_2_mbox_loc_perm
I0906 23:00:47.294956  4807 net.cpp:150] Setting up ssd4_2_mbox_loc_perm
I0906 23:00:47.294961  4807 net.cpp:157] Top shape: 4 1 4 8 (128)
I0906 23:00:47.294965  4807 net.cpp:165] Memory required for data: 1680386656
I0906 23:00:47.294967  4807 layer_factory.hpp:77] Creating layer ssd4_2_mbox_loc_flat
I0906 23:00:47.294972  4807 net.cpp:100] Creating Layer ssd4_2_mbox_loc_flat
I0906 23:00:47.294980  4807 net.cpp:434] ssd4_2_mbox_loc_flat <- ssd4_2_mbox_loc_perm
I0906 23:00:47.294986  4807 net.cpp:408] ssd4_2_mbox_loc_flat -> ssd4_2_mbox_loc_flat
I0906 23:00:47.295009  4807 net.cpp:150] Setting up ssd4_2_mbox_loc_flat
I0906 23:00:47.295013  4807 net.cpp:157] Top shape: 4 32 (128)
I0906 23:00:47.295015  4807 net.cpp:165] Memory required for data: 1680387168
I0906 23:00:47.295019  4807 layer_factory.hpp:77] Creating layer ssd4_2_mbox_conf
I0906 23:00:47.295027  4807 net.cpp:100] Creating Layer ssd4_2_mbox_conf
I0906 23:00:47.295030  4807 net.cpp:434] ssd4_2_mbox_conf <- ssd4_2_ssd4_2_relu_0_split_1
I0906 23:00:47.295037  4807 net.cpp:408] ssd4_2_mbox_conf -> ssd4_2_mbox_conf
I0906 23:00:47.296170  4807 net.cpp:150] Setting up ssd4_2_mbox_conf
I0906 23:00:47.296178  4807 net.cpp:157] Top shape: 4 10 1 4 (160)
I0906 23:00:47.296181  4807 net.cpp:165] Memory required for data: 1680387808
I0906 23:00:47.296186  4807 layer_factory.hpp:77] Creating layer ssd4_2_mbox_conf_perm
I0906 23:00:47.296195  4807 net.cpp:100] Creating Layer ssd4_2_mbox_conf_perm
I0906 23:00:47.296198  4807 net.cpp:434] ssd4_2_mbox_conf_perm <- ssd4_2_mbox_conf
I0906 23:00:47.296203  4807 net.cpp:408] ssd4_2_mbox_conf_perm -> ssd4_2_mbox_conf_perm
I0906 23:00:47.296298  4807 net.cpp:150] Setting up ssd4_2_mbox_conf_perm
I0906 23:00:47.296303  4807 net.cpp:157] Top shape: 4 1 4 10 (160)
I0906 23:00:47.296306  4807 net.cpp:165] Memory required for data: 1680388448
I0906 23:00:47.296309  4807 layer_factory.hpp:77] Creating layer ssd4_2_mbox_conf_flat
I0906 23:00:47.296315  4807 net.cpp:100] Creating Layer ssd4_2_mbox_conf_flat
I0906 23:00:47.296319  4807 net.cpp:434] ssd4_2_mbox_conf_flat <- ssd4_2_mbox_conf_perm
I0906 23:00:47.296324  4807 net.cpp:408] ssd4_2_mbox_conf_flat -> ssd4_2_mbox_conf_flat
I0906 23:00:47.296347  4807 net.cpp:150] Setting up ssd4_2_mbox_conf_flat
I0906 23:00:47.296351  4807 net.cpp:157] Top shape: 4 40 (160)
I0906 23:00:47.296355  4807 net.cpp:165] Memory required for data: 1680389088
I0906 23:00:47.296368  4807 layer_factory.hpp:77] Creating layer ssd4_2_mbox_priorbox
I0906 23:00:47.296375  4807 net.cpp:100] Creating Layer ssd4_2_mbox_priorbox
I0906 23:00:47.296380  4807 net.cpp:434] ssd4_2_mbox_priorbox <- ssd4_2_ssd4_2_relu_0_split_2
I0906 23:00:47.296384  4807 net.cpp:434] ssd4_2_mbox_priorbox <- data_data_0_split_6
I0906 23:00:47.296389  4807 net.cpp:408] ssd4_2_mbox_priorbox -> ssd4_2_mbox_priorbox
I0906 23:00:47.296413  4807 net.cpp:150] Setting up ssd4_2_mbox_priorbox
I0906 23:00:47.296418  4807 net.cpp:157] Top shape: 1 2 32 (64)
I0906 23:00:47.296422  4807 net.cpp:165] Memory required for data: 1680389344
I0906 23:00:47.296424  4807 layer_factory.hpp:77] Creating layer mbox_loc
I0906 23:00:47.296432  4807 net.cpp:100] Creating Layer mbox_loc
I0906 23:00:47.296434  4807 net.cpp:434] mbox_loc <- conv4_3_norm_mbox_loc_flat
I0906 23:00:47.296439  4807 net.cpp:434] mbox_loc <- fc7_mbox_loc_flat
I0906 23:00:47.296444  4807 net.cpp:434] mbox_loc <- ssd1_2_mbox_loc_flat
I0906 23:00:47.296448  4807 net.cpp:434] mbox_loc <- ssd2_2_mbox_loc_flat
I0906 23:00:47.296452  4807 net.cpp:434] mbox_loc <- ssd3_2_mbox_loc_flat
I0906 23:00:47.296458  4807 net.cpp:434] mbox_loc <- ssd4_2_mbox_loc_flat
I0906 23:00:47.296463  4807 net.cpp:408] mbox_loc -> mbox_loc
I0906 23:00:47.296486  4807 net.cpp:150] Setting up mbox_loc
I0906 23:00:47.296490  4807 net.cpp:157] Top shape: 4 26096 (104384)
I0906 23:00:47.296494  4807 net.cpp:165] Memory required for data: 1680806880
I0906 23:00:47.296497  4807 layer_factory.hpp:77] Creating layer mbox_conf
I0906 23:00:47.296502  4807 net.cpp:100] Creating Layer mbox_conf
I0906 23:00:47.296506  4807 net.cpp:434] mbox_conf <- conv4_3_norm_mbox_conf_flat
I0906 23:00:47.296511  4807 net.cpp:434] mbox_conf <- fc7_mbox_conf_flat
I0906 23:00:47.296515  4807 net.cpp:434] mbox_conf <- ssd1_2_mbox_conf_flat
I0906 23:00:47.296520  4807 net.cpp:434] mbox_conf <- ssd2_2_mbox_conf_flat
I0906 23:00:47.296524  4807 net.cpp:434] mbox_conf <- ssd3_2_mbox_conf_flat
I0906 23:00:47.296528  4807 net.cpp:434] mbox_conf <- ssd4_2_mbox_conf_flat
I0906 23:00:47.296533  4807 net.cpp:408] mbox_conf -> mbox_conf
I0906 23:00:47.296556  4807 net.cpp:150] Setting up mbox_conf
I0906 23:00:47.296561  4807 net.cpp:157] Top shape: 4 32620 (130480)
I0906 23:00:47.296564  4807 net.cpp:165] Memory required for data: 1681328800
I0906 23:00:47.296567  4807 layer_factory.hpp:77] Creating layer mbox_priorbox
I0906 23:00:47.296571  4807 net.cpp:100] Creating Layer mbox_priorbox
I0906 23:00:47.296576  4807 net.cpp:434] mbox_priorbox <- conv4_3_norm_mbox_priorbox
I0906 23:00:47.296579  4807 net.cpp:434] mbox_priorbox <- fc7_mbox_priorbox
I0906 23:00:47.296584  4807 net.cpp:434] mbox_priorbox <- ssd1_2_mbox_priorbox
I0906 23:00:47.296588  4807 net.cpp:434] mbox_priorbox <- ssd2_2_mbox_priorbox
I0906 23:00:47.296591  4807 net.cpp:434] mbox_priorbox <- ssd3_2_mbox_priorbox
I0906 23:00:47.296595  4807 net.cpp:434] mbox_priorbox <- ssd4_2_mbox_priorbox
I0906 23:00:47.296602  4807 net.cpp:408] mbox_priorbox -> mbox_priorbox
I0906 23:00:47.296622  4807 net.cpp:150] Setting up mbox_priorbox
I0906 23:00:47.296627  4807 net.cpp:157] Top shape: 1 2 26096 (52192)
I0906 23:00:47.296630  4807 net.cpp:165] Memory required for data: 1681537568
I0906 23:00:47.296633  4807 layer_factory.hpp:77] Creating layer mbox_conf_reshape
I0906 23:00:47.296640  4807 net.cpp:100] Creating Layer mbox_conf_reshape
I0906 23:00:47.296643  4807 net.cpp:434] mbox_conf_reshape <- mbox_conf
I0906 23:00:47.296648  4807 net.cpp:408] mbox_conf_reshape -> mbox_conf_reshape
I0906 23:00:47.296675  4807 net.cpp:150] Setting up mbox_conf_reshape
I0906 23:00:47.296679  4807 net.cpp:157] Top shape: 4 6524 5 (130480)
I0906 23:00:47.296682  4807 net.cpp:165] Memory required for data: 1682059488
I0906 23:00:47.296686  4807 layer_factory.hpp:77] Creating layer mbox_conf_softmax
I0906 23:00:47.296690  4807 net.cpp:100] Creating Layer mbox_conf_softmax
I0906 23:00:47.296694  4807 net.cpp:434] mbox_conf_softmax <- mbox_conf_reshape
I0906 23:00:47.296700  4807 net.cpp:408] mbox_conf_softmax -> mbox_conf_softmax
I0906 23:00:47.297000  4807 net.cpp:150] Setting up mbox_conf_softmax
I0906 23:00:47.297008  4807 net.cpp:157] Top shape: 4 6524 5 (130480)
I0906 23:00:47.297009  4807 net.cpp:165] Memory required for data: 1682581408
I0906 23:00:47.297013  4807 layer_factory.hpp:77] Creating layer mbox_conf_flatten
I0906 23:00:47.297019  4807 net.cpp:100] Creating Layer mbox_conf_flatten
I0906 23:00:47.297024  4807 net.cpp:434] mbox_conf_flatten <- mbox_conf_softmax
I0906 23:00:47.297027  4807 net.cpp:408] mbox_conf_flatten -> mbox_conf_flatten
I0906 23:00:47.297051  4807 net.cpp:150] Setting up mbox_conf_flatten
I0906 23:00:47.297056  4807 net.cpp:157] Top shape: 4 32620 (130480)
I0906 23:00:47.297058  4807 net.cpp:165] Memory required for data: 1683103328
I0906 23:00:47.297061  4807 layer_factory.hpp:77] Creating layer detection_out
I0906 23:00:47.297075  4807 net.cpp:100] Creating Layer detection_out
I0906 23:00:47.297078  4807 net.cpp:434] detection_out <- mbox_loc
I0906 23:00:47.297082  4807 net.cpp:434] detection_out <- mbox_conf_flatten
I0906 23:00:47.297086  4807 net.cpp:434] detection_out <- mbox_priorbox
I0906 23:00:47.297092  4807 net.cpp:408] detection_out -> detection_out
W0906 23:00:47.297116  4807 detection_output_layer.cpp:49] Failed to create directory: /home/zhongyilin/Documents/data/GTSDBdevkit/results/GTSDB/SSD_510x300_100_40_6_True_score/Main
I0906 23:00:47.297421  4807 net.cpp:150] Setting up detection_out
I0906 23:00:47.297427  4807 net.cpp:157] Top shape: 1 1 1 7 (7)
I0906 23:00:47.297430  4807 net.cpp:165] Memory required for data: 1683103356
I0906 23:00:47.297433  4807 layer_factory.hpp:77] Creating layer detection_eval
I0906 23:00:47.297437  4807 net.cpp:100] Creating Layer detection_eval
I0906 23:00:47.297439  4807 net.cpp:434] detection_eval <- detection_out
I0906 23:00:47.297441  4807 net.cpp:434] detection_eval <- label
I0906 23:00:47.297446  4807 net.cpp:408] detection_eval -> detection_eval
I0906 23:00:47.297528  4807 net.cpp:150] Setting up detection_eval
I0906 23:00:47.297531  4807 net.cpp:157] Top shape: 1 1 5 5 (25)
I0906 23:00:47.297533  4807 net.cpp:165] Memory required for data: 1683103456
I0906 23:00:47.297535  4807 net.cpp:228] detection_eval does not need backward computation.
I0906 23:00:47.297538  4807 net.cpp:228] detection_out does not need backward computation.
I0906 23:00:47.297540  4807 net.cpp:228] mbox_conf_flatten does not need backward computation.
I0906 23:00:47.297543  4807 net.cpp:228] mbox_conf_softmax does not need backward computation.
…
