…
      sampler {
        min_scale: 0.3
        max_scale: 1
        min_aspect_ratio: 0.5
        max_aspect_ratio: 2
      }
      sample_constraint {
        min_jaccard_overlap: 0.9
      }
      max_sample: 1
      max_trials: 50
    }
    batch_sampler {
      sampler {
        min_scale: 0.3
        max_scale: 1
        min_aspect_ratio: 0.5
        max_aspect_ratio: 2
      }
      sample_constraint {
        max_jaccard_overlap: 1
      }
      max_sample: 1
      max_trials: 50
    }
    label_map_file: "data/GTSDB/labelmap_GTSDB.prototxt"
  }
}
layer {
  name: "conv1"
  type: "Convolution"
  bottom: "data"
  top: "conv1"
  param {
    lr_mult: 1
    decay_mult: 1
  }
  convolution_param {
    num_output: 32
    bias_term: false
    pad: 1
    kernel_size: 3
    stride: 2
    weight_filler {
      type: "msra"
    }
  }
}
layer {
  name: "conv1/bn"
  type: "BatchNorm"
  bottom: "conv1"
  top: "conv1"
  batch_norm_param {
    use_global_stats: true
    eps: 1e-05
  }
}
layer {
  name: "conv1/scale"
  type: "Scale"
  bottom: "conv1"
  top: "conv1"
  param {
    lr_mult: 1
    decay_mult: 0
  }
  param {
    lr_mult: 1
    decay_mult: 0
  }
  scale_param {
    bias_term: true
  }
}
layer {
  name: "relu1"
  type: "ReLU"
  bottom: "conv1"
  top: "conv1"
}
layer {
  name: "conv2_1/expand"
  type: "Convolution"
  bottom: "conv1"
  top: "conv2_1/expand"
  param {
    lr_mult: 1
    decay_mult: 1
  }
  convolution_param {
    num_output: 32
    bias_term: false
    kernel_size: 1
    weight_filler {
      type: "msra"
    }
  }
}
layer {
  name: "conv2_1/expand/bn"
  type: "BatchNorm"
  bottom: "conv2_1/expand"
  top: "conv2_1/expand"
  batch_norm_param {
    use_global_stats: true
    eps: 1e-05
  }
}
layer {
  name: "conv2_1/expand/scale"
  type: "Scale"
  bottom: "conv2_1/expand"
  top: "conv2_1/expand"
  param {
    lr_mult: 1
    decay_mult: 0
  }
  param {
    lr_mult: 1
    decay_mult: 0
  }
  scale_param {
    bias_term: true
  }
}
layer {
  name: "relu2_1/expand"
  type: "ReLU"
  bottom: "conv2_1/expand"
  top: "conv2_1/expand"
}
layer {
  name: "conv2_1/dwise"
  type: "DepthwiseConvolution"
  bottom: "conv2_1/expand"
  top: "conv2_1/dwise"
  param {
    lr_mult: 1
    decay_mult: 1
  }
  convolution_param {
    num_output: 32
    bias_term: false
    pad: 1
    kernel_size: 3
    group: 32
    stride: 1
    weight_filler {
      type: "msra"
    }
  }
}
layer {
  name: "conv2_1/dwise/bn"
  type: "BatchNorm"
  bottom: "conv2_1/dwise"
  top: "conv2_1/dwise"
  batch_norm_param {
    use_global_stats: true
    eps: 1e-05
  }
}
layer {
  name: "conv2_1/dwise/scale"
  type: "Scale"
  bottom: "conv2_1/dwise"
  top: "conv2_1/dwise"
  param {
    lr_mult: 1
    decay_mult: 0
  }
  param {
    lr_mult: 1
    decay_mult: 0
  }
  scale_param {
    bias_term: true
  }
}
layer {
  name: "relu2_1/dwise"
  type: "ReLU"
  bottom: "conv2_1/dwise"
  top: "conv2_1/dwise"
}
layer {
  name: "conv2_1/linear"
  type: "Convolution"
  bottom: "conv2_1/dwise"
  top: "conv2_1/linear"
  param {
    lr_mult: 1
    decay_mult: 1
  }
  convolution_param {
    num_output: 16
    bias_term: false
    kernel_size: 1
    weight_filler {
      type: "msra"
    }
  }
}
layer {
  name: "conv2_1/linear/bn"
  type: "BatchNorm"
  bottom: "conv2_1/linear"
  top: "conv2_1/linear"
  batch_norm_param {
    use_global_stats: true
    eps: 1e-05
  }
}
layer {
  name: "conv2_1/linear/scale"
  type: "Scale"
  bottom: "conv2_1/linear"
  top: "conv2_1/linear"
  param {
    lr_mult: 1
    decay_mult: 0
  }
  param {
    lr_mult: 1
    decay_mult: 0
  }
  scale_param {
    bias_term: true
  }
}
layer {
  name: "conv2_2/expand"
  type: "Convolution"
  bottom: "conv2_1/linear"
  top: "conv2_2/expand"
  param {
    lr_mult: 1
    decay_mult: 1
  }
  convolution_param {
    num_output: 96
    bias_term: false
    kernel_size: 1
    weight_filler {
      type: "msra"
    }
  }
}
layer {
  name: "conv2_2/expand/bn"
  type: "BatchNorm"
  bottom: "conv2_2/expand"
  top: "conv2_2/expand"
  batch_norm_param {
    use_global_stats: true
    eps: 1e-05
  }
}
layer {
  name: "conv2_2/expand/scale"
  type: "Scale"
  bottom: "conv2_2/expand"
  top: "conv2_2/expand"
  param {
    lr_mult: 1
    decay_mult: 0
  }
  param {
    lr_mult: 1
    decay_mult: 0
  }
  scale_param {
    bias_term: true
  }
}
layer {
  name: "relu2_2/expand"
  type: "ReLU"
  bottom: "conv2_2/expand"
  top: "conv2_2/expand"
}
layer {
  name: "conv2_2/dwise"
  type: "DepthwiseConvolution"
  bottom: "conv2_2/expand"
  top: "conv2_2/dwise"
  param {
    lr_mult: 1
    decay_mult: 1
  }
  convolution_param {
    num_output: 96
    bias_term: false
    pad: 1
    kernel_size: 3
    group: 96
    stride: 2
    weight_filler {
      type: "msra"
    }
  }
}
layer {
  name: "conv2_2/dwise/bn"
  type: "BatchNorm"
  bottom: "conv2_2/dwise"
  top: "conv2_2/dwise"
  batch_norm_param {
    use_global_stats: true
    eps: 1e-05
  }
}
layer {
  name: "conv2_2/dwise/scale"
  type: "Scale"
  bottom: "conv2_2/dwise"
  top: "conv2_2/dwise"
  param {
    lr_mult: 1
    decay_mult: 0
  }
  param {
    lr_mult: 1
    decay_mult: 0
  }
  scale_param {
    bias_term: true
  }
}
layer {
  name: "relu2_2/dwise"
  type: "ReLU"
  bottom: "conv2_2/dwise"
  top: "conv2_2/dwise"
}
layer {
  name: "conv2_2/linear"
  type: "Convolution"
  bottom: "conv2_2/dwise"
  top: "conv2_2/linear"
  param {
    lr_mult: 1
    decay_mult: 1
  }
  convolution_param {
    num_output: 24
    bias_term: false
    kernel_size: 1
    weight_filler {
      type: "msra"
    }
  }
}
layer {
  name: "conv2_2/linear/bn"
  type: "BatchNorm"
  bottom: "conv2_2/linear"
  top: "conv2_2/linear"
  batch_norm_param {
    use_global_stats: true
    eps: 1e-05
  }
}
layer {
  name: "conv2_2/linear/scale"
  type: "Scale"
  bottom: "conv2_2/linear"
  top: "conv2_2/linear"
  param {
    lr_mult: 1
    decay_mult: 0
  }
  param {
    lr_mult: 1
    decay_mult: 0
  }
  scale_param {
    bias_term: true
  }
}
layer {
  name: "conv3_1/expand"
  type: "Convolution"
  bottom: "conv2_2/linear"
  top: "conv3_1/expand"
  param {
    lr_mult: 1
    decay_mult: 1
  }
  convolution_param {
    num_output: 144
    bias_term: false
    kernel_size: 1
    weight_filler {
      type: "msra"
    }
  }
}
layer {
  name: "conv3_1/expand/bn"
  type: "BatchNorm"
  bottom: "conv3_1/expand"
  top: "conv3_1/expand"
  batch_norm_param {
    use_global_stats: true
    eps: 1e-05
  }
}
layer {
  name: "conv3_1/expand/scale"
  type: "Scale"
  bottom: "conv3_1/expand"
  top: "conv3_1/expand"
  param {
    lr_mult: 1
    decay_mult: 0
  }
  param {
    lr_mult: 1
    decay_mult: 0
  }
  scale_param {
    bias_term: true
  }
}
layer {
  name: "relu3_1/expand"
  type: "ReLU"
  bottom: "conv3_1/expand"
  top: "conv3_1/expand"
}
layer {
  name: "conv3_1/dwise"
  type: "DepthwiseConvolution"
  bottom: "conv3_1/expand"
  top: "conv3_1/dwise"
  param {
    lr_mult: 1
    decay_mult: 1
  }
  convolution_param {
    num_output: 144
    bias_term: false
    pad: 1
    kernel_size: 3
    group: 144
    stride: 1
    weight_filler {
      type: "msra"
    }
  }
}
layer {
  name: "conv3_1/dwise/bn"
  type: "BatchNorm"
  bottom: "conv3_1/dwise"
  top: "conv3_1/dwise"
  batch_norm_param {
    use_global_stats: true
    eps: 1e-05
  }
}
layer {
  name: "conv3_1/dwise/scale"
  type: "Scale"
  bottom: "conv3_1/dwise"
  top: "conv3_1/dwise"
  param {
    lr_mult: 1
    decay_mult: 0
  }
  param {
    lr_mult: 1
    decay_mult: 0
  }
  scale_param {
    bias_term: true
  }
}
layer {
  name: "relu3_1/dwise"
  type: "ReLU"
  bottom: "conv3_1/dwise"
  top: "conv3_1/dwise"
}
layer {
  name: "conv3_1/linear"
  type: "Convolution"
  bottom: "conv3_1/dwise"
  top: "conv3_1/linear"
  param {
    lr_mult: 1
    decay_mult: 1
  }
  convolution_param {
    num_output: 24
    bias_term: false
    kernel_size: 1
    weight_filler {
      type: "msra"
    }
  }
}
layer {
  name: "conv3_1/linear/bn"
  type: "BatchNorm"
  bottom: "conv3_1/linear"
  top: "conv3_1/linear"
  batch_norm_param {
    use_global_stats: true
    eps: 1e-05
  }
}
layer {
  name: "conv3_1/linear/scale"
  type: "Scale"
  bottom: "conv3_1/linear"
  top: "conv3_1/linear"
  param {
    lr_mult: 1
    decay_mult: 0
  }
  param {
    lr_mult: 1
    decay_mult: 0
  }
  scale_param {
    bias_term: true
  }
}
layer {
  name: "block_3_1"
  type: "Eltwise"
  bottom: "conv2_2/linear"
  bottom: "conv3_1/linear"
  top: "block_3_1"
}
layer {
  name: "conv3_2/expand"
  type: "Convolution"
  bottom: "block_3_1"
  top: "conv3_2/expand"
  param {
    lr_mult: 1
    decay_mult: 1
  }
  convolution_param {
    num_output: 144
    bias_term: false
    kernel_size: 1
    weight_filler {
      type: "msra"
    }
  }
}
layer {
  name: "conv3_2/expand/bn"
  type: "BatchNorm"
  bottom: "conv3_2/expand"
  top: "conv3_2/expand"
  batch_norm_param {
    use_global_stats: true
    eps: 1e-05
  }
}
layer {
  name: "conv3_2/expand/scale"
  type: "Scale"
  bottom: "conv3_2/expand"
  top: "conv3_2/expand"
  param {
    lr_mult: 1
    decay_mult: 0
  }
  param {
    lr_mult: 1
    decay_mult: 0
  }
  scale_param {
    bias_term: true
  }
}
layer {
  name: "relu3_2/expand"
  type: "ReLU"
  bottom: "conv3_2/expand"
  top: "conv3_2/expand"
}
layer {
  name: "conv3_2/dwise"
  type: "DepthwiseConvolution"
  bottom: "conv3_2/expand"
  top: "conv3_2/dwise"
  param {
    lr_mult: 1
    decay_mult: 1
  }
  convolution_param {
    num_output: 144
    bias_term: false
    pad: 1
    kernel_size: 3
    group: 144
    stride: 2
    weight_filler {
      type: "msra"
    }
  }
}
layer {
  name: "conv3_2/dwise/bn"
  type: "BatchNorm"
  bottom: "conv3_2/dwise"
  top: "conv3_2/dwise"
  batch_norm_param {
    use_global_stats: true
    eps: 1e-05
  }
}
layer {
  name: "conv3_2/dwise/scale"
  type: "Scale"
  bottom: "conv3_2/dwise"
  top: "conv3_2/dwise"
  param {
    lr_mult: 1
    decay_mult: 0
  }
  param {
    lr_mult: 1
    decay_mult: 0
  }
  scale_param {
    bias_term: true
  }
}
layer {
  name: "relu3_2/dwise"
  type: "ReLU"
  bottom: "conv3_2/dwise"
  top: "conv3_2/dwise"
}
layer {
  name: "conv3_2/linear"
  type: "Convolution"
  bottom: "conv3_2/dwise"
  top: "conv3_2/linear"
  param {
    lr_mult: 1
    decay_mult: 1
  }
  convolution_param {
    num_output: 32
    bias_term: false
    kernel_size: 1
    weight_filler {
      type: "msra"
    }
  }
}
layer {
  name: "conv3_2/linear/bn"
  type: "BatchNorm"
  bottom: "conv3_2/linear"
  top: "conv3_2/linear"
  batch_norm_param {
    use_global_stats: true
    eps: 1e-05
  }
}
layer {
  name: "conv3_2/linear/scale"
  type: "Scale"
  bottom: "conv3_2/linear"
  top: "conv3_2/linear"
  param {
    lr_mult: 1
    decay_mult: 0
  }
  param {
    lr_mult: 1
    decay_mult: 0
  }
  scale_param {
    bias_term: true
  }
}
layer {
  name: "conv4_1/expand"
  type: "Convolution"
  bottom: "conv3_2/linear"
  top: "conv4_1/expand"
  param {
    lr_mult: 1
    decay_mult: 1
  }
  convolution_param {
    num_output: 192
    bias_term: false
    kernel_size: 1
    weight_filler {
      type: "msra"
    }
  }
}
layer {
  name: "conv4_1/expand/bn"
  type: "BatchNorm"
  bottom: "conv4_1/expand"
  top: "conv4_1/expand"
  batch_norm_param {
    use_global_stats: true
    eps: 1e-05
  }
}
layer {
  name: "conv4_1/expand/scale"
  type: "Scale"
  bottom: "conv4_1/expand"
  top: "conv4_1/expand"
  param {
    lr_mult: 1
    decay_mult: 0
  }
  param {
    lr_mult: 1
    decay_mult: 0
  }
  scale_param {
    bias_term: true
  }
}
layer {
  name: "relu4_1/expand"
  type: "ReLU"
  bottom: "conv4_1/expand"
  top: "conv4_1/expand"
}
layer {
  name: "conv4_1/dwise"
  type: "DepthwiseConvolution"
  bottom: "conv4_1/expand"
  top: "conv4_1/dwise"
  param {
    lr_mult: 1
    decay_mult: 1
  }
  convolution_param {
    num_output: 192
    bias_term: false
    pad: 1
    kernel_size: 3
    group: 192
    stride: 1
    weight_filler {
      type: "msra"
    }
  }
}
layer {
  name: "conv4_1/dwise/bn"
  type: "BatchNorm"
  bottom: "conv4_1/dwise"
  top: "conv4_1/dwise"
  batch_norm_param {
    use_global_stats: true
    eps: 1e-05
  }
}
layer {
  name: "conv4_1/dwise/scale"
  type: "Scale"
  bottom: "conv4_1/dwise"
  top: "conv4_1/dwise"
  param {
    lr_mult: 1
    decay_mult: 0
  }
  param {
    lr_mult: 1
    decay_mult: 0
  }
  scale_param {
    bias_term: true
  }
}
layer {
  name: "relu4_1/dwise"
  type: "ReLU"
  bottom: "conv4_1/dwise"
  top: "conv4_1/dwise"
}
layer {
  name: "conv4_1/linear"
  type: "Convolution"
  bottom: "conv4_1/dwise"
  top: "conv4_1/linear"
  param {
    lr_mult: 1
    decay_mult: 1
  }
  convolution_param {
    num_output: 32
    bias_term: false
    kernel_size: 1
    weight_filler {
      type: "msra"
    }
  }
}
layer {
  name: "conv4_1/linear/bn"
  type: "BatchNorm"
  bottom: "conv4_1/linear"
  top: "conv4_1/linear"
  batch_norm_param {
    use_global_stats: true
    eps: 1e-05
  }
}
layer {
  name: "conv4_1/linear/scale"
  type: "Scale"
  bottom: "conv4_1/linear"
  top: "conv4_1/linear"
  param {
    lr_mult: 1
    decay_mult: 0
  }
  param {
    lr_mult: 1
    decay_mult: 0
  }
  scale_param {
    bias_term: true
  }
}
layer {
  name: "block_4_1"
  type: "Eltwise"
  bottom: "conv3_2/linear"
  bottom: "conv4_1/linear"
  top: "block_4_1"
}
layer {
  name: "conv4_2/expand"
  type: "Convolution"
  bottom: "block_4_1"
  top: "conv4_2/expand"
  param {
    lr_mult: 1
    decay_mult: 1
  }
  convolution_param {
    num_output: 192
    bias_term: false
    kernel_size: 1
    weight_filler {
      type: "msra"
    }
  }
}
layer {
  name: "conv4_2/expand/bn"
  type: "BatchNorm"
  bottom: "conv4_2/expand"
  top: "conv4_2/expand"
  batch_norm_param {
    use_global_stats: true
    eps: 1e-05
  }
}
layer {
  name: "conv4_2/expand/scale"
  type: "Scale"
  bottom: "conv4_2/expand"
  top: "conv4_2/expand"
  param {
    lr_mult: 1
    decay_mult: 0
  }
  param {
    lr_mult: 1
    decay_mult: 0
  }
  scale_param {
    bias_term: true
  }
}
layer {
  name: "relu4_2/expand"
  type: "ReLU"
  bottom: "conv4_2/expand"
  top: "conv4_2/expand"
}
layer {
  name: "conv4_2/dwise"
  type: "DepthwiseConvolution"
  bottom: "conv4_2/expand"
  top: "conv4_2/dwise"
  param {
    lr_mult: 1
    decay_mult: 1
  }
  convolution_param {
    num_output: 192
    bias_term: false
    pad: 1
    kernel_size: 3
    group: 192
    stride: 1
    weight_filler {
      type: "msra"
    }
  }
}
layer {
  name: "conv4_2/dwise/bn"
  type: "BatchNorm"
  bottom: "conv4_2/dwise"
  top: "conv4_2/dwise"
  batch_norm_param {
    use_global_stats: true
    eps: 1e-05
  }
}
layer {
  name: "conv4_2/dwise/scale"
  type: "Scale"
  bottom: "conv4_2/dwise"
  top: "conv4_2/dwise"
  param {
    lr_mult: 1
    decay_mult: 0
  }
  param {
    lr_mult: 1
    decay_mult: 0
  }
  scale_param {
    bias_term: true
  }
}
layer {
  name: "relu4_2/dwise"
  type: "ReLU"
  bottom: "conv4_2/dwise"
  top: "conv4_2/dwise"
}
layer {
  name: "conv4_2/linear"
  type: "Convolution"
  bottom: "conv4_2/dwise"
  top: "conv4_2/linear"
  param {
    lr_mult: 1
    decay_mult: 1
  }
  convolution_param {
    num_output: 32
    bias_term: false
    kernel_size: 1
    weight_filler {
      type: "msra"
    }
  }
}
layer {
  name: "conv4_2/linear/bn"
  type: "BatchNorm"
  bottom: "conv4_2/linear"
  top: "conv4_2/linear"
  batch_norm_param {
    use_global_stats: true
    eps: 1e-05
  }
}
layer {
  name: "conv4_2/linear/scale"
  type: "Scale"
  bottom: "conv4_2/linear"
  top: "conv4_2/linear"
  param {
    lr_mult: 1
    decay_mult: 0
  }
  param {
    lr_mult: 1
    decay_mult: 0
  }
  scale_param {
    bias_term: true
  }
}
layer {
  name: "block_4_2"
  type: "Eltwise"
  bottom: "block_4_1"
  bottom: "conv4_2/linear"
  top: "block_4_2"
}
layer {
  name: "conv4_3/expand"
  type: "Convolution"
  bottom: "block_4_2"
  top: "conv4_3/expand"
  param {
    lr_mult: 1
    decay_mult: 1
  }
  convolution_param {
    num_output: 192
    bias_term: false
    kernel_size: 1
    weight_filler {
      type: "msra"
    }
  }
}
layer {
  name: "conv4_3/expand/bn"
  type: "BatchNorm"
  bottom: "conv4_3/expand"
  top: "conv4_3/expand"
  batch_norm_param {
    use_global_stats: true
    eps: 1e-05
  }
}
layer {
  name: "conv4_3/expand/scale"
  type: "Scale"
  bottom: "conv4_3/expand"
  top: "conv4_3/expand"
  param {
    lr_mult: 1
    decay_mult: 0
  }
  param {
    lr_mult: 1
    decay_mult: 0
  }
  scale_param {
    bias_term: true
  }
}
layer {
  name: "relu4_3/expand"
  type: "ReLU"
  bottom: "conv4_3/expand"
  top: "conv4_3/expand"
}
layer {
  name: "conv4_3/dwise"
  type: "DepthwiseConvolution"
  bottom: "conv4_3/expand"
  top: "conv4_3/dwise"
  param {
    lr_mult: 1
    decay_mult: 1
  }
  convolution_param {
    num_output: 192
    bias_term: false
    pad: 1
    kernel_size: 3
    group: 192
    stride: 1
    weight_filler {
      type: "msra"
    }
  }
}
layer {
  name: "conv4_3/dwise/bn"
  type: "BatchNorm"
  bottom: "conv4_3/dwise"
  top: "conv4_3/dwise"
  batch_norm_param {
    use_global_stats: true
    eps: 1e-05
  }
}
layer {
  name: "conv4_3/dwise/scale"
  type: "Scale"
  bottom: "conv4_3/dwise"
  top: "conv4_3/dwise"
  param {
    lr_mult: 1
    decay_mult: 0
  }
  param {
    lr_mult: 1
    decay_mult: 0
  }
  scale_param {
    bias_term: true
  }
}
layer {
  name: "relu4_3/dwise"
  type: "ReLU"
  bottom: "conv4_3/dwise"
  top: "conv4_3/dwise"
}
layer {
  name: "conv4_3/linear"
  type: "Convolution"
  bottom: "conv4_3/dwise"
  top: "conv4_3/linear"
  param {
    lr_mult: 1
    decay_mult: 1
  }
  convolution_param {
    num_output: 64
    bias_term: false
    kernel_size: 1
    weight_filler {
      type: "msra"
    }
  }
}
layer {
  name: "conv4_3/linear/bn"
  type: "BatchNorm"
  bottom: "conv4_3/linear"
  top: "conv4_3/linear"
  batch_norm_param {
    use_global_stats: true
    eps: 1e-05
  }
}
layer {
  name: "conv4_3/linear/scale"
  type: "Scale"
  bottom: "conv4_3/linear"
  top: "conv4_3/linear"
  param {
    lr_mult: 1
    decay_mult: 0
  }
  param {
    lr_mult: 1
    decay_mult: 0
  }
  scale_param {
    bias_term: true
  }
}
layer {
  name: "conv4_4/expand"
  type: "Convolution"
  bottom: "conv4_3/linear"
  top: "conv4_4/expand"
  param {
    lr_mult: 1
    decay_mult: 1
  }
  convolution_param {
    num_output: 384
    bias_term: false
    kernel_size: 1
    weight_filler {
      type: "msra"
    }
  }
}
layer {
  name: "conv4_4/expand/bn"
  type: "BatchNorm"
  bottom: "conv4_4/expand"
  top: "conv4_4/expand"
  batch_norm_param {
    use_global_stats: true
    eps: 1e-05
  }
}
layer {
  name: "conv4_4/expand/scale"
  type: "Scale"
  bottom: "conv4_4/expand"
  top: "conv4_4/expand"
  param {
    lr_mult: 1
    decay_mult: 0
  }
  param {
    lr_mult: 1
    decay_mult: 0
  }
  scale_param {
    bias_term: true
  }
}
layer {
  name: "relu4_4/expand"
  type: "ReLU"
  bottom: "conv4_4/expand"
  top: "conv4_4/expand"
}
layer {
  name: "conv4_4/dwise"
  type: "DepthwiseConvolution"
  bottom: "conv4_4/expand"
  top: "conv4_4/dwise"
  param {
    lr_mult: 1
    decay_mult: 1
  }
  convolution_param {
    num_output: 384
    bias_term: false
    pad: 1
    kernel_size: 3
    group: 384
    stride: 1
    weight_filler {
      type: "msra"
    }
  }
}
layer {
  name: "conv4_4/dwise/bn"
  type: "BatchNorm"
  bottom: "conv4_4/dwise"
  top: "conv4_4/dwise"
  batch_norm_param {
    use_global_stats: true
    eps: 1e-05
  }
}
layer {
  name: "conv4_4/dwise/scale"
  type: "Scale"
  bottom: "conv4_4/dwise"
  top: "conv4_4/dwise"
  param {
    lr_mult: 1
    decay_mult: 0
  }
  param {
    lr_mult: 1
    decay_mult: 0
  }
  scale_param {
    bias_term: true
  }
}
layer {
  name: "relu4_4/dwise"
  type: "ReLU"
  bottom: "conv4_4/dwise"
  top: "conv4_4/dwise"
}
layer {
  name: "conv4_4/linear"
  type: "Convolution"
  bottom: "conv4_4/dwise"
  top: "conv4_4/linear"
  param {
    lr_mult: 1
    decay_mult: 1
  }
  convolution_param {
    num_output: 64
    bias_term: false
    kernel_size: 1
    weight_filler {
      type: "msra"
    }
  }
}
layer {
  name: "conv4_4/linear/bn"
  type: "BatchNorm"
  bottom: "conv4_4/linear"
  top: "conv4_4/linear"
  batch_norm_param {
    use_global_stats: true
    eps: 1e-05
  }
}
layer {
  name: "conv4_4/linear/scale"
  type: "Scale"
  bottom: "conv4_4/linear"
  top: "conv4_4/linear"
  param {
    lr_mult: 1
    decay_mult: 0
  }
  param {
    lr_mult: 1
    decay_mult: 0
  }
  scale_param {
    bias_term: true
  }
}
layer {
  name: "block_4_4"
  type: "Eltwise"
  bottom: "conv4_3/linear"
  bottom: "conv4_4/linear"
  top: "block_4_4"
}
layer {
  name: "conv4_5/expand"
  type: "Convolution"
  bottom: "block_4_4"
  top: "conv4_5/expand"
  param {
    lr_mult: 1
    decay_mult: 1
  }
  convolution_param {
    num_output: 384
    bias_term: false
    kernel_size: 1
    weight_filler {
      type: "msra"
    }
  }
}
layer {
  name: "conv4_5/expand/bn"
  type: "BatchNorm"
  bottom: "conv4_5/expand"
  top: "conv4_5/expand"
  batch_norm_param {
    use_global_stats: true
    eps: 1e-05
  }
}
layer {
  name: "conv4_5/expand/scale"
  type: "Scale"
  bottom: "conv4_5/expand"
  top: "conv4_5/expand"
  param {
    lr_mult: 1
    decay_mult: 0
  }
  param {
    lr_mult: 1
    decay_mult: 0
  }
  scale_param {
    bias_term: true
  }
}
layer {
  name: "relu4_5/expand"
  type: "ReLU"
  bottom: "conv4_5/expand"
  top: "conv4_5/expand"
}
layer {
  name: "conv4_5/dwise"
  type: "DepthwiseConvolution"
  bottom: "conv4_5/expand"
  top: "conv4_5/dwise"
  param {
    lr_mult: 1
    decay_mult: 1
  }
  convolution_param {
    num_output: 384
    bias_term: false
    pad: 1
    kernel_size: 3
    group: 384
    stride: 1
    weight_filler {
      type: "msra"
    }
  }
}
layer {
  name: "conv4_5/dwise/bn"
  type: "BatchNorm"
  bottom: "conv4_5/dwise"
  top: "conv4_5/dwise"
  batch_norm_param {
    use_global_stats: true
    eps: 1e-05
  }
}
layer {
  name: "conv4_5/dwise/scale"
  type: "Scale"
  bottom: "conv4_5/dwise"
  top: "conv4_5/dwise"
  param {
    lr_mult: 1
    decay_mult: 0
  }
  param {
    lr_mult: 1
    decay_mult: 0
  }
  scale_param {
    bias_term: true
  }
}
layer {
  name: "relu4_5/dwise"
  type: "ReLU"
  bottom: "conv4_5/dwise"
  top: "conv4_5/dwise"
}
layer {
  name: "conv4_5/linear"
  type: "Convolution"
  bottom: "conv4_5/dwise"
  top: "conv4_5/linear"
  param {
    lr_mult: 1
    decay_mult: 1
  }
  convolution_param {
    num_output: 64
    bias_term: false
    kernel_size: 1
    weight_filler {
      type: "msra"
    }
  }
}
layer {
  name: "conv4_5/linear/bn"
  type: "BatchNorm"
  bottom: "conv4_5/linear"
  top: "conv4_5/linear"
  batch_norm_param {
    use_global_stats: true
    eps: 1e-05
  }
}
layer {
  name: "conv4_5/linear/scale"
  type: "Scale"
  bottom: "conv4_5/linear"
  top: "conv4_5/linear"
  param {
    lr_mult: 1
    decay_mult: 0
  }
  param {
    lr_mult: 1
    decay_mult: 0
  }
  scale_param {
    bias_term: true
  }
}
layer {
  name: "block_4_5"
  type: "Eltwise"
  bottom: "block_4_4"
  bottom: "conv4_5/linear"
  top: "block_4_5"
}
layer {
  name: "conv4_6/expand"
  type: "Convolution"
  bottom: "block_4_5"
  top: "conv4_6/expand"
  param {
    lr_mult: 1
    decay_mult: 1
  }
  convolution_param {
    num_output: 384
    bias_term: false
    kernel_size: 1
    weight_filler {
      type: "msra"
    }
  }
}
layer {
  name: "conv4_6/expand/bn"
  type: "BatchNorm"
  bottom: "conv4_6/expand"
  top: "conv4_6/expand"
  batch_norm_param {
    use_global_stats: true
    eps: 1e-05
  }
}
layer {
  name: "conv4_6/expand/scale"
  type: "Scale"
  bottom: "conv4_6/expand"
  top: "conv4_6/expand"
  param {
    lr_mult: 1
    decay_mult: 0
  }
  param {
    lr_mult: 1
    decay_mult: 0
  }
  scale_param {
    bias_term: true
  }
}
layer {
  name: "relu4_6/expand"
  type: "ReLU"
  bottom: "conv4_6/expand"
  top: "conv4_6/expand"
}
layer {
  name: "conv4_6/dwise"
  type: "DepthwiseConvolution"
  bottom: "conv4_6/expand"
  top: "conv4_6/dwise"
  param {
    lr_mult: 1
    decay_mult: 1
  }
  convolution_param {
    num_output: 384
    bias_term: false
    pad: 1
    kernel_size: 3
    group: 384
    stride: 1
    weight_filler {
      type: "msra"
    }
  }
}
layer {
  name: "conv4_6/dwise/bn"
  type: "BatchNorm"
  bottom: "conv4_6/dwise"
  top: "conv4_6/dwise"
  batch_norm_param {
    use_global_stats: true
    eps: 1e-05
  }
}
layer {
  name: "conv4_6/dwise/scale"
  type: "Scale"
  bottom: "conv4_6/dwise"
  top: "conv4_6/dwise"
  param {
    lr_mult: 1
    decay_mult: 0
  }
  param {
    lr_mult: 1
    decay_mult: 0
  }
  scale_param {
    bias_term: true
  }
}
layer {
  name: "relu4_6/dwise"
  type: "ReLU"
  bottom: "conv4_6/dwise"
  top: "conv4_6/dwise"
}
layer {
  name: "conv4_6/linear"
  type: "Convolution"
  bottom: "conv4_6/dwise"
  top: "conv4_6/linear"
  param {
    lr_mult: 1
    decay_mult: 1
  }
  convolution_param {
    num_output: 64
    bias_term: false
    kernel_size: 1
    weight_filler {
      type: "msra"
    }
  }
}
layer {
  name: "conv4_6/linear/bn"
  type: "BatchNorm"
  bottom: "conv4_6/linear"
  top: "conv4_6/linear"
  batch_norm_param {
    use_global_stats: true
    eps: 1e-05
  }
}
layer {
  name: "conv4_6/linear/scale"
  type: "Scale"
  bottom: "conv4_6/linear"
  top: "conv4_6/linear"
  param {
    lr_mult: 1
    decay_mult: 0
  }
  param {
    lr_mult: 1
    decay_mult: 0
  }
  scale_param {
    bias_term: true
  }
}
layer {
  name: "block_4_6"
  type: "Eltwise"
  bottom: "block_4_5"
  bottom: "conv4_6/linear"
  top: "block_4_6"
}
layer {
  name: "conv4_7/expand"
  type: "Convolution"
  bottom: "block_4_6"
  top: "conv4_7/expand"
  param {
    lr_mult: 1
    decay_mult: 1
  }
  convolution_param {
    num_output: 384
    bias_term: false
    kernel_size: 1
    weight_filler {
      type: "msra"
    }
  }
}
layer {
  name: "conv4_7/expand/bn"
  type: "BatchNorm"
  bottom: "conv4_7/expand"
  top: "conv4_7/expand"
  batch_norm_param {
    use_global_stats: true
    eps: 1e-05
  }
}
layer {
  name: "conv4_7/expand/scale"
  type: "Scale"
  bottom: "conv4_7/expand"
  top: "conv4_7/expand"
  param {
    lr_mult: 1
    decay_mult: 0
  }
  param {
    lr_mult: 1
    decay_mult: 0
  }
  scale_param {
    bias_term: true
  }
}
layer {
  name: "relu4_7/expand"
  type: "ReLU"
  bottom: "conv4_7/expand"
  top: "conv4_7/expand"
}
layer {
  name: "conv4_7/dwise"
  type: "DepthwiseConvolution"
  bottom: "conv4_7/expand"
  top: "conv4_7/dwise"
  param {
    lr_mult: 1
    decay_mult: 1
  }
  convolution_param {
    num_output: 384
    bias_term: false
    pad: 1
    kernel_size: 3
    group: 384
    stride: 2
    weight_filler {
      type: "msra"
    }
  }
}
layer {
  name: "conv4_7/dwise/bn"
  type: "BatchNorm"
  bottom: "conv4_7/dwise"
  top: "conv4_7/dwise"
  batch_norm_param {
    use_global_stats: true
    eps: 1e-05
  }
}
layer {
  name: "conv4_7/dwise/scale"
  type: "Scale"
  bottom: "conv4_7/dwise"
  top: "conv4_7/dwise"
  param {
    lr_mult: 1
    decay_mult: 0
  }
  param {
    lr_mult: 1
    decay_mult: 0
  }
  scale_param {
    bias_term: true
  }
}
layer {
  name: "relu4_7/dwise"
  type: "ReLU"
  bottom: "conv4_7/dwise"
  top: "conv4_7/dwise"
}
layer {
  name: "conv4_7/linear"
  type: "Convolution"
  bottom: "conv4_7/dwise"
  top: "conv4_7/linear"
  param {
    lr_mult: 1
    decay_mult: 1
  }
  convolution_param {
    num_output: 96
    bias_term: false
    kernel_size: 1
    weight_filler {
      type: "msra"
    }
  }
}
layer {
  name: "conv4_7/linear/bn"
  type: "BatchNorm"
  bottom: "conv4_7/linear"
  top: "conv4_7/linear"
  batch_norm_param {
    use_global_stats: true
    eps: 1e-05
  }
}
layer {
  name: "conv4_7/linear/scale"
  type: "Scale"
  bottom: "conv4_7/linear"
  top: "conv4_7/linear"
  param {
    lr_mult: 1
    de
I1109 14:47:03.082073 16740 layer_factory.hpp:77] Creating layer data
I1109 14:47:03.082167 16740 net.cpp:100] Creating Layer data
I1109 14:47:03.082176 16740 net.cpp:408] data -> data
I1109 14:47:03.082201 16740 net.cpp:408] data -> label
I1109 14:47:03.082700 16748 db_lmdb.cpp:35] Opened lmdb examples/GTSDB/GTSDB_trainval_lmdb
I1109 14:47:03.096434 16740 annotated_data_layer.cpp:62] output data size: 2,3,300,510
I1109 14:47:03.100754 16740 net.cpp:150] Setting up data
I1109 14:47:03.100769 16740 net.cpp:157] Top shape: 2 3 300 510 (918000)
I1109 14:47:03.100772 16740 net.cpp:157] Top shape: 1 1 3 8 (24)
I1109 14:47:03.100775 16740 net.cpp:165] Memory required for data: 3672096
I1109 14:47:03.100781 16740 layer_factory.hpp:77] Creating layer data_data_0_split
I1109 14:47:03.100790 16740 net.cpp:100] Creating Layer data_data_0_split
I1109 14:47:03.100793 16740 net.cpp:434] data_data_0_split <- data
I1109 14:47:03.100805 16740 net.cpp:408] data_data_0_split -> data_data_0_split_0
I1109 14:47:03.100814 16740 net.cpp:408] data_data_0_split -> data_data_0_split_1
I1109 14:47:03.100819 16740 net.cpp:408] data_data_0_split -> data_data_0_split_2
I1109 14:47:03.100824 16740 net.cpp:408] data_data_0_split -> data_data_0_split_3
I1109 14:47:03.100831 16740 net.cpp:408] data_data_0_split -> data_data_0_split_4
I1109 14:47:03.100836 16740 net.cpp:408] data_data_0_split -> data_data_0_split_5
I1109 14:47:03.100839 16740 net.cpp:408] data_data_0_split -> data_data_0_split_6
I1109 14:47:03.100917 16740 net.cpp:150] Setting up data_data_0_split
I1109 14:47:03.100922 16740 net.cpp:157] Top shape: 2 3 300 510 (918000)
I1109 14:47:03.100925 16740 net.cpp:157] Top shape: 2 3 300 510 (918000)
I1109 14:47:03.100927 16740 net.cpp:157] Top shape: 2 3 300 510 (918000)
I1109 14:47:03.100930 16740 net.cpp:157] Top shape: 2 3 300 510 (918000)
I1109 14:47:03.100932 16740 net.cpp:157] Top shape: 2 3 300 510 (918000)
I1109 14:47:03.100935 16740 net.cpp:157] Top shape: 2 3 300 510 (918000)
I1109 14:47:03.100937 16740 net.cpp:157] Top shape: 2 3 300 510 (918000)
I1109 14:47:03.100939 16740 net.cpp:165] Memory required for data: 29376096
I1109 14:47:03.100941 16740 layer_factory.hpp:77] Creating layer conv1
I1109 14:47:03.100951 16740 net.cpp:100] Creating Layer conv1
I1109 14:47:03.100955 16740 net.cpp:434] conv1 <- data_data_0_split_0
I1109 14:47:03.100960 16740 net.cpp:408] conv1 -> conv1
I1109 14:47:03.448820 16740 net.cpp:150] Setting up conv1
I1109 14:47:03.448843 16740 net.cpp:157] Top shape: 2 32 150 255 (2448000)
I1109 14:47:03.448844 16740 net.cpp:165] Memory required for data: 39168096
I1109 14:47:03.448858 16740 layer_factory.hpp:77] Creating layer conv1/bn
I1109 14:47:03.448865 16740 net.cpp:100] Creating Layer conv1/bn
I1109 14:47:03.448869 16740 net.cpp:434] conv1/bn <- conv1
I1109 14:47:03.448873 16740 net.cpp:395] conv1/bn -> conv1 (in-place)
I1109 14:47:03.449465 16740 net.cpp:150] Setting up conv1/bn
I1109 14:47:03.449473 16740 net.cpp:157] Top shape: 2 32 150 255 (2448000)
I1109 14:47:03.449476 16740 net.cpp:165] Memory required for data: 48960096
I1109 14:47:03.449482 16740 layer_factory.hpp:77] Creating layer conv1/scale
I1109 14:47:03.449488 16740 net.cpp:100] Creating Layer conv1/scale
I1109 14:47:03.449491 16740 net.cpp:434] conv1/scale <- conv1
I1109 14:47:03.449494 16740 net.cpp:395] conv1/scale -> conv1 (in-place)
I1109 14:47:03.449529 16740 layer_factory.hpp:77] Creating layer conv1/scale
I1109 14:47:03.449621 16740 net.cpp:150] Setting up conv1/scale
I1109 14:47:03.449626 16740 net.cpp:157] Top shape: 2 32 150 255 (2448000)
I1109 14:47:03.449628 16740 net.cpp:165] Memory required for data: 58752096
I1109 14:47:03.449633 16740 layer_factory.hpp:77] Creating layer relu1
I1109 14:47:03.449637 16740 net.cpp:100] Creating Layer relu1
I1109 14:47:03.449640 16740 net.cpp:434] relu1 <- conv1
I1109 14:47:03.449641 16740 net.cpp:395] relu1 -> conv1 (in-place)
I1109 14:47:03.449880 16740 net.cpp:150] Setting up relu1
I1109 14:47:03.449887 16740 net.cpp:157] Top shape: 2 32 150 255 (2448000)
I1109 14:47:03.449888 16740 net.cpp:165] Memory required for data: 68544096
I1109 14:47:03.449890 16740 layer_factory.hpp:77] Creating layer conv2_1/expand
I1109 14:47:03.449896 16740 net.cpp:100] Creating Layer conv2_1/expand
I1109 14:47:03.449898 16740 net.cpp:434] conv2_1/expand <- conv1
I1109 14:47:03.449901 16740 net.cpp:408] conv2_1/expand -> conv2_1/expand
I1109 14:47:03.450956 16740 net.cpp:150] Setting up conv2_1/expand
I1109 14:47:03.450964 16740 net.cpp:157] Top shape: 2 32 150 255 (2448000)
I1109 14:47:03.450966 16740 net.cpp:165] Memory required for data: 78336096
I1109 14:47:03.450969 16740 layer_factory.hpp:77] Creating layer conv2_1/expand/bn
I1109 14:47:03.450974 16740 net.cpp:100] Creating Layer conv2_1/expand/bn
I1109 14:47:03.450978 16740 net.cpp:434] conv2_1/expand/bn <- conv2_1/expand
I1109 14:47:03.450981 16740 net.cpp:395] conv2_1/expand/bn -> conv2_1/expand (in-place)
I1109 14:47:03.451124 16740 net.cpp:150] Setting up conv2_1/expand/bn
I1109 14:47:03.451129 16740 net.cpp:157] Top shape: 2 32 150 255 (2448000)
I1109 14:47:03.451131 16740 net.cpp:165] Memory required for data: 88128096
I1109 14:47:03.451138 16740 layer_factory.hpp:77] Creating layer conv2_1/expand/scale
I1109 14:47:03.451143 16740 net.cpp:100] Creating Layer conv2_1/expand/scale
I1109 14:47:03.451145 16740 net.cpp:434] conv2_1/expand/scale <- conv2_1/expand
I1109 14:47:03.451148 16740 net.cpp:395] conv2_1/expand/scale -> conv2_1/expand (in-place)
I1109 14:47:03.451196 16740 layer_factory.hpp:77] Creating layer conv2_1/expand/scale
I1109 14:47:03.451292 16740 net.cpp:150] Setting up conv2_1/expand/scale
I1109 14:47:03.451297 16740 net.cpp:157] Top shape: 2 32 150 255 (2448000)
I1109 14:47:03.451299 16740 net.cpp:165] Memory required for data: 97920096
I1109 14:47:03.451303 16740 layer_factory.hpp:77] Creating layer relu2_1/expand
I1109 14:47:03.451305 16740 net.cpp:100] Creating Layer relu2_1/expand
I1109 14:47:03.451308 16740 net.cpp:434] relu2_1/expand <- conv2_1/expand
I1109 14:47:03.451311 16740 net.cpp:395] relu2_1/expand -> conv2_1/expand (in-place)
I1109 14:47:03.451586 16740 net.cpp:150] Setting up relu2_1/expand
I1109 14:47:03.451591 16740 net.cpp:157] Top shape: 2 32 150 255 (2448000)
I1109 14:47:03.451592 16740 net.cpp:165] Memory required for data: 107712096
I1109 14:47:03.451594 16740 layer_factory.hpp:77] Creating layer conv2_1/dwise
I1109 14:47:03.451601 16740 net.cpp:100] Creating Layer conv2_1/dwise
I1109 14:47:03.451602 16740 net.cpp:434] conv2_1/dwise <- conv2_1/expand
I1109 14:47:03.451606 16740 net.cpp:408] conv2_1/dwise -> conv2_1/dwise
I1109 14:47:03.451742 16740 net.cpp:150] Setting up conv2_1/dwise
I1109 14:47:03.451748 16740 net.cpp:157] Top shape: 2 32 150 255 (2448000)
I1109 14:47:03.451750 16740 net.cpp:165] Memory required for data: 117504096
I1109 14:47:03.451753 16740 layer_factory.hpp:77] Creating layer conv2_1/dwise/bn
I1109 14:47:03.451757 16740 net.cpp:100] Creating Layer conv2_1/dwise/bn
I1109 14:47:03.451759 16740 net.cpp:434] conv2_1/dwise/bn <- conv2_1/dwise
I1109 14:47:03.451762 16740 net.cpp:395] conv2_1/dwise/bn -> conv2_1/dwise (in-place)
I1109 14:47:03.451894 16740 net.cpp:150] Setting up conv2_1/dwise/bn
I1109 14:47:03.451900 16740 net.cpp:157] Top shape: 2 32 150 255 (2448000)
I1109 14:47:03.451900 16740 net.cpp:165] Memory required for data: 127296096
I1109 14:47:03.451905 16740 layer_factory.hpp:77] Creating layer conv2_1/dwise/scale
I1109 14:47:03.451910 16740 net.cpp:100] Creating Layer conv2_1/dwise/scale
I1109 14:47:03.451911 16740 net.cpp:434] conv2_1/dwise/scale <- conv2_1/dwise
I1109 14:47:03.451913 16740 net.cpp:395] conv2_1/dwise/scale -> conv2_1/dwise (in-place)
I1109 14:47:03.451942 16740 layer_factory.hpp:77] Creating layer conv2_1/dwise/scale
I1109 14:47:03.452036 16740 net.cpp:150] Setting up conv2_1/dwise/scale
I1109 14:47:03.452041 16740 net.cpp:157] Top shape: 2 32 150 255 (2448000)
I1109 14:47:03.452044 16740 net.cpp:165] Memory required for data: 137088096
I1109 14:47:03.452049 16740 layer_factory.hpp:77] Creating layer relu2_1/dwise
I1109 14:47:03.452052 16740 net.cpp:100] Creating Layer relu2_1/dwise
I1109 14:47:03.452054 16740 net.cpp:434] relu2_1/dwise <- conv2_1/dwise
I1109 14:47:03.452057 16740 net.cpp:395] relu2_1/dwise -> conv2_1/dwise (in-place)
I1109 14:47:03.452330 16740 net.cpp:150] Setting up relu2_1/dwise
I1109 14:47:03.452335 16740 net.cpp:157] Top shape: 2 32 150 255 (2448000)
I1109 14:47:03.452337 16740 net.cpp:165] Memory required for data: 146880096
I1109 14:47:03.452339 16740 layer_factory.hpp:77] Creating layer conv2_1/linear
I1109 14:47:03.452344 16740 net.cpp:100] Creating Layer conv2_1/linear
I1109 14:47:03.452347 16740 net.cpp:434] conv2_1/linear <- conv2_1/dwise
I1109 14:47:03.452350 16740 net.cpp:408] conv2_1/linear -> conv2_1/linear
I1109 14:47:03.454128 16740 net.cpp:150] Setting up conv2_1/linear
I1109 14:47:03.454138 16740 net.cpp:157] Top shape: 2 16 150 255 (1224000)
I1109 14:47:03.454140 16740 net.cpp:165] Memory required for data: 151776096
I1109 14:47:03.454145 16740 layer_factory.hpp:77] Creating layer conv2_1/linear/bn
I1109 14:47:03.454154 16740 net.cpp:100] Creating Layer conv2_1/linear/bn
I1109 14:47:03.454156 16740 net.cpp:434] conv2_1/linear/bn <- conv2_1/linear
I1109 14:47:03.454160 16740 net.cpp:395] conv2_1/linear/bn -> conv2_1/linear (in-place)
I1109 14:47:03.454301 16740 net.cpp:150] Setting up conv2_1/linear/bn
I1109 14:47:03.454305 16740 net.cpp:157] Top shape: 2 16 150 255 (1224000)
I1109 14:47:03.454308 16740 net.cpp:165] Memory required for data: 156672096
I1109 14:47:03.454325 16740 layer_factory.hpp:77] Creating layer conv2_1/linear/scale
I1109 14:47:03.454334 16740 net.cpp:100] Creating Layer conv2_1/linear/scale
I1109 14:47:03.454336 16740 net.cpp:434] conv2_1/linear/scale <- conv2_1/linear
I1109 14:47:03.454340 16740 net.cpp:395] conv2_1/linear/scale -> conv2_1/linear (in-place)
I1109 14:47:03.454367 16740 layer_factory.hpp:77] Creating layer conv2_1/linear/scale
I1109 14:47:03.454455 16740 net.cpp:150] Setting up conv2_1/linear/scale
I1109 14:47:03.454460 16740 net.cpp:157] Top shape: 2 16 150 255 (1224000)
I1109 14:47:03.454463 16740 net.cpp:165] Memory required for data: 161568096
I1109 14:47:03.454465 16740 layer_factory.hpp:77] Creating layer conv2_2/expand
I1109 14:47:03.454470 16740 net.cpp:100] Creating Layer conv2_2/expand
I1109 14:47:03.454473 16740 net.cpp:434] conv2_2/expand <- conv2_1/linear
I1109 14:47:03.454476 16740 net.cpp:408] conv2_2/expand -> conv2_2/expand
I1109 14:47:03.456022 16740 net.cpp:150] Setting up conv2_2/expand
I1109 14:47:03.456029 16740 net.cpp:157] Top shape: 2 96 150 255 (7344000)
I1109 14:47:03.456032 16740 net.cpp:165] Memory required for data: 190944096
I1109 14:47:03.456035 16740 layer_factory.hpp:77] Creating layer conv2_2/expand/bn
I1109 14:47:03.456040 16740 net.cpp:100] Creating Layer conv2_2/expand/bn
I1109 14:47:03.456043 16740 net.cpp:434] conv2_2/expand/bn <- conv2_2/expand
I1109 14:47:03.456046 16740 net.cpp:395] conv2_2/expand/bn -> conv2_2/expand (in-place)
I1109 14:47:03.456188 16740 net.cpp:150] Setting up conv2_2/expand/bn
I1109 14:47:03.456192 16740 net.cpp:157] Top shape: 2 96 150 255 (7344000)
I1109 14:47:03.456193 16740 net.cpp:165] Memory required for data: 220320096
I1109 14:47:03.456197 16740 layer_factory.hpp:77] Creating layer conv2_2/expand/scale
I1109 14:47:03.456202 16740 net.cpp:100] Creating Layer conv2_2/expand/scale
I1109 14:47:03.456204 16740 net.cpp:434] conv2_2/expand/scale <- conv2_2/expand
I1109 14:47:03.456207 16740 net.cpp:395] conv2_2/expand/scale -> conv2_2/expand (in-place)
I1109 14:47:03.456233 16740 layer_factory.hpp:77] Creating layer conv2_2/expand/scale
I1109 14:47:03.456748 16740 net.cpp:150] Setting up conv2_2/expand/scale
I1109 14:47:03.456754 16740 net.cpp:157] Top shape: 2 96 150 255 (7344000)
I1109 14:47:03.456756 16740 net.cpp:165] Memory required for data: 249696096
I1109 14:47:03.456760 16740 layer_factory.hpp:77] Creating layer relu2_2/expand
I1109 14:47:03.456765 16740 net.cpp:100] Creating Layer relu2_2/expand
I1109 14:47:03.456768 16740 net.cpp:434] relu2_2/expand <- conv2_2/expand
I1109 14:47:03.456770 16740 net.cpp:395] relu2_2/expand -> conv2_2/expand (in-place)
I1109 14:47:03.457037 16740 net.cpp:150] Setting up relu2_2/expand
I1109 14:47:03.457043 16740 net.cpp:157] Top shape: 2 96 150 255 (7344000)
I1109 14:47:03.457046 16740 net.cpp:165] Memory required for data: 279072096
I1109 14:47:03.457047 16740 layer_factory.hpp:77] Creating layer conv2_2/dwise
I1109 14:47:03.457051 16740 net.cpp:100] Creating Layer conv2_2/dwise
I1109 14:47:03.457054 16740 net.cpp:434] conv2_2/dwise <- conv2_2/expand
I1109 14:47:03.457058 16740 net.cpp:408] conv2_2/dwise -> conv2_2/dwise
I1109 14:47:03.457190 16740 net.cpp:150] Setting up conv2_2/dwise
I1109 14:47:03.457195 16740 net.cpp:157] Top shape: 2 96 75 128 (1843200)
I1109 14:47:03.457196 16740 net.cpp:165] Memory required for data: 286444896
I1109 14:47:03.457199 16740 layer_factory.hpp:77] Creating layer conv2_2/dwise/bn
I1109 14:47:03.457202 16740 net.cpp:100] Creating Layer conv2_2/dwise/bn
I1109 14:47:03.457206 16740 net.cpp:434] conv2_2/dwise/bn <- conv2_2/dwise
I1109 14:47:03.457208 16740 net.cpp:395] conv2_2/dwise/bn -> conv2_2/dwise (in-place)
I1109 14:47:03.457752 16740 net.cpp:150] Setting up conv2_2/dwise/bn
I1109 14:47:03.457759 16740 net.cpp:157] Top shape: 2 96 75 128 (1843200)
I1109 14:47:03.457761 16740 net.cpp:165] Memory required for data: 293817696
I1109 14:47:03.457770 16740 layer_factory.hpp:77] Creating layer conv2_2/dwise/scale
I1109 14:47:03.457775 16740 net.cpp:100] Creating Layer conv2_2/dwise/scale
I1109 14:47:03.457788 16740 net.cpp:434] conv2_2/dwise/scale <- conv2_2/dwise
I1109 14:47:03.457792 16740 net.cpp:395] conv2_2/dwise/scale -> conv2_2/dwise (in-place)
I1109 14:47:03.457820 16740 layer_factory.hpp:77] Creating layer conv2_2/dwise/scale
I1109 14:47:03.457895 16740 net.cpp:150] Setting up conv2_2/dwise/scale
I1109 14:47:03.457898 16740 net.cpp:157] Top shape: 2 96 75 128 (1843200)
I1109 14:47:03.457900 16740 net.cpp:165] Memory required for data: 301190496
I1109 14:47:03.457903 16740 layer_factory.hpp:77] Creating layer relu2_2/dwise
I1109 14:47:03.457906 16740 net.cpp:100] Creating Layer relu2_2/dwise
I1109 14:47:03.457909 16740 net.cpp:434] relu2_2/dwise <- conv2_2/dwise
I1109 14:47:03.457912 16740 net.cpp:395] relu2_2/dwise -> conv2_2/dwise (in-place)
I1109 14:47:03.458276 16740 net.cpp:150] Setting up relu2_2/dwise
I1109 14:47:03.458283 16740 net.cpp:157] Top shape: 2 96 75 128 (1843200)
I1109 14:47:03.458284 16740 net.cpp:165] Memory required for data: 308563296
I1109 14:47:03.458287 16740 layer_factory.hpp:77] Creating layer conv2_2/linear
I1109 14:47:03.458293 16740 net.cpp:100] Creating Layer conv2_2/linear
I1109 14:47:03.458297 16740 net.cpp:434] conv2_2/linear <- conv2_2/dwise
I1109 14:47:03.458299 16740 net.cpp:408] conv2_2/linear -> conv2_2/linear
I1109 14:47:03.460062 16740 net.cpp:150] Setting up conv2_2/linear
I1109 14:47:03.460072 16740 net.cpp:157] Top shape: 2 24 75 128 (460800)
I1109 14:47:03.460073 16740 net.cpp:165] Memory required for data: 310406496
I1109 14:47:03.460078 16740 layer_factory.hpp:77] Creating layer conv2_2/linear/bn
I1109 14:47:03.460083 16740 net.cpp:100] Creating Layer conv2_2/linear/bn
I1109 14:47:03.460084 16740 net.cpp:434] conv2_2/linear/bn <- conv2_2/linear
I1109 14:47:03.460088 16740 net.cpp:395] conv2_2/linear/bn -> conv2_2/linear (in-place)
I1109 14:47:03.460227 16740 net.cpp:150] Setting up conv2_2/linear/bn
I1109 14:47:03.460232 16740 net.cpp:157] Top shape: 2 24 75 128 (460800)
I1109 14:47:03.460234 16740 net.cpp:165] Memory required for data: 312249696
I1109 14:47:03.460242 16740 layer_factory.hpp:77] Creating layer conv2_2/linear/scale
I1109 14:47:03.460247 16740 net.cpp:100] Creating Layer conv2_2/linear/scale
I1109 14:47:03.460248 16740 net.cpp:434] conv2_2/linear/scale <- conv2_2/linear
I1109 14:47:03.460254 16740 net.cpp:395] conv2_2/linear/scale -> conv2_2/linear (in-place)
I1109 14:47:03.460289 16740 layer_factory.hpp:77] Creating layer conv2_2/linear/scale
I1109 14:47:03.460376 16740 net.cpp:150] Setting up conv2_2/linear/scale
I1109 14:47:03.460382 16740 net.cpp:157] Top shape: 2 24 75 128 (460800)
I1109 14:47:03.460386 16740 net.cpp:165] Memory required for data: 314092896
I1109 14:47:03.460391 16740 layer_factory.hpp:77] Creating layer conv2_2/linear_conv2_2/linear/scale_0_split
I1109 14:47:03.460397 16740 net.cpp:100] Creating Layer conv2_2/linear_conv2_2/linear/scale_0_split
I1109 14:47:03.460399 16740 net.cpp:434] conv2_2/linear_conv2_2/linear/scale_0_split <- conv2_2/linear
I1109 14:47:03.460405 16740 net.cpp:408] conv2_2/linear_conv2_2/linear/scale_0_split -> conv2_2/linear_conv2_2/linear/scale_0_split_0
I1109 14:47:03.460415 16740 net.cpp:408] conv2_2/linear_conv2_2/linear/scale_0_split -> conv2_2/linear_conv2_2/linear/scale_0_split_1
I1109 14:47:03.460448 16740 net.cpp:150] Setting up conv2_2/linear_conv2_2/linear/scale_0_split
I1109 14:47:03.460453 16740 net.cpp:157] Top shape: 2 24 75 128 (460800)
I1109 14:47:03.460454 16740 net.cpp:157] Top shape: 2 24 75 128 (460800)
I1109 14:47:03.460458 16740 net.cpp:165] Memory required for data: 317779296
I1109 14:47:03.460460 16740 layer_factory.hpp:77] Creating layer conv3_1/expand
I1109 14:47:03.460469 16740 net.cpp:100] Creating Layer conv3_1/expand
I1109 14:47:03.460472 16740 net.cpp:434] conv3_1/expand <- conv2_2/linear_conv2_2/linear/scale_0_split_0
I1109 14:47:03.460479 16740 net.cpp:408] conv3_1/expand -> conv3_1/expand
I1109 14:47:03.461558 16740 net.cpp:150] Setting up conv3_1/expand
I1109 14:47:03.461566 16740 net.cpp:157] Top shape: 2 144 75 128 (2764800)
I1109 14:47:03.461570 16740 net.cpp:165] Memory required for data: 328838496
I1109 14:47:03.461586 16740 layer_factory.hpp:77] Creating layer conv3_1/expand/bn
I1109 14:47:03.461594 16740 net.cpp:100] Creating Layer conv3_1/expand/bn
I1109 14:47:03.461597 16740 net.cpp:434] conv3_1/expand/bn <- conv3_1/expand
I1109 14:47:03.461603 16740 net.cpp:395] conv3_1/expand/bn -> conv3_1/expand (in-place)
I1109 14:47:03.461743 16740 net.cpp:150] Setting up conv3_1/expand/bn
I1109 14:47:03.461748 16740 net.cpp:157] Top shape: 2 144 75 128 (2764800)
I1109 14:47:03.461750 16740 net.cpp:165] Memory required for data: 339897696
I1109 14:47:03.461755 16740 layer_factory.hpp:77] Creating layer conv3_1/expand/scale
I1109 14:47:03.461760 16740 net.cpp:100] Creating Layer conv3_1/expand/scale
I1109 14:47:03.461761 16740 net.cpp:434] conv3_1/expand/scale <- conv3_1/expand
I1109 14:47:03.461763 16740 net.cpp:395] conv3_1/expand/scale -> conv3_1/expand (in-place)
I1109 14:47:03.461794 16740 layer_factory.hpp:77] Creating layer conv3_1/expand/scale
I1109 14:47:03.461877 16740 net.cpp:150] Setting up conv3_1/expand/scale
I1109 14:47:03.461882 16740 net.cpp:157] Top shape: 2 144 75 128 (2764800)
I1109 14:47:03.461884 16740 net.cpp:165] Memory required for data: 350956896
I1109 14:47:03.461886 16740 layer_factory.hpp:77] Creating layer relu3_1/expand
I1109 14:47:03.461894 16740 net.cpp:100] Creating Layer relu3_1/expand
I1109 14:47:03.461896 16740 net.cpp:434] relu3_1/expand <- conv3_1/expand
I1109 14:47:03.461899 16740 net.cpp:395] relu3_1/expand -> conv3_1/expand (in-place)
I1109 14:47:03.462177 16740 net.cpp:150] Setting up relu3_1/expand
I1109 14:47:03.462183 16740 net.cpp:157] Top shape: 2 144 75 128 (2764800)
I1109 14:47:03.462184 16740 net.cpp:165] Memory required for data: 362016096
I1109 14:47:03.462186 16740 layer_factory.hpp:77] Creating layer conv3_1/dwise
I1109 14:47:03.462191 16740 net.cpp:100] Creating Layer conv3_1/dwise
I1109 14:47:03.462193 16740 net.cpp:434] conv3_1/dwise <- conv3_1/expand
I1109 14:47:03.462198 16740 net.cpp:408] conv3_1/dwise -> conv3_1/dwise
I1109 14:47:03.462342 16740 net.cpp:150] Setting up conv3_1/dwise
I1109 14:47:03.462347 16740 net.cpp:157] Top shape: 2 144 75 128 (2764800)
I1109 14:47:03.462349 16740 net.cpp:165] Memory required for data: 373075296
I1109 14:47:03.462352 16740 layer_factory.hpp:77] Creating layer conv3_1/dwise/bn
I1109 14:47:03.462355 16740 net.cpp:100] Creating Layer conv3_1/dwise/bn
I1109 14:47:03.462357 16740 net.cpp:434] conv3_1/dwise/bn <- conv3_1/dwise
I1109 14:47:03.462360 16740 net.cpp:395] conv3_1/dwise/bn -> conv3_1/dwise (in-place)
I1109 14:47:03.462491 16740 net.cpp:150] Setting up conv3_1/dwise/bn
I1109 14:47:03.462494 16740 net.cpp:157] Top shape: 2 144 75 128 (2764800)
I1109 14:47:03.462496 16740 net.cpp:165] Memory required for data: 384134496
I1109 14:47:03.462501 16740 layer_factory.hpp:77] Creating layer conv3_1/dwise/scale
I1109 14:47:03.462504 16740 net.cpp:100] Creating Layer conv3_1/dwise/scale
I1109 14:47:03.462507 16740 net.cpp:434] conv3_1/dwise/scale <- conv3_1/dwise
I1109 14:47:03.462508 16740 net.cpp:395] conv3_1/dwise/scale -> conv3_1/dwise (in-place)
I1109 14:47:03.462532 16740 layer_factory.hpp:77] Creating layer conv3_1/dwise/scale
I1109 14:47:03.462618 16740 net.cpp:150] Setting up conv3_1/dwise/scale
I1109 14:47:03.462622 16740 net.cpp:157] Top shape: 2 144 75 128 (2764800)
I1109 14:47:03.462625 16740 net.cpp:165] Memory required for data: 395193696
I1109 14:47:03.462627 16740 layer_factory.hpp:77] Creating layer relu3_1/dwise
I1109 14:47:03.462631 16740 net.cpp:100] Creating Layer relu3_1/dwise
I1109 14:47:03.462633 16740 net.cpp:434] relu3_1/dwise <- conv3_1/dwise
I1109 14:47:03.462636 16740 net.cpp:395] relu3_1/dwise -> conv3_1/dwise (in-place)
I1109 14:47:03.463021 16740 net.cpp:150] Setting up relu3_1/dwise
I1109 14:47:03.463027 16740 net.cpp:157] Top shape: 2 144 75 128 (2764800)
I1109 14:47:03.463028 16740 net.cpp:165] Memory required for data: 406252896
I1109 14:47:03.463030 16740 layer_factory.hpp:77] Creating layer conv3_1/linear
I1109 14:47:03.463035 16740 net.cpp:100] Creating Layer conv3_1/linear
I1109 14:47:03.463045 16740 net.cpp:434] conv3_1/linear <- conv3_1/dwise
I1109 14:47:03.463048 16740 net.cpp:408] conv3_1/linear -> conv3_1/linear
I1109 14:47:03.464113 16740 net.cpp:150] Setting up conv3_1/linear
I1109 14:47:03.464121 16740 net.cpp:157] Top shape: 2 24 75 128 (460800)
I1109 14:47:03.464123 16740 net.cpp:165] Memory required for data: 408096096
I1109 14:47:03.464126 16740 layer_factory.hpp:77] Creating layer conv3_1/linear/bn
I1109 14:47:03.464130 16740 net.cpp:100] Creating Layer conv3_1/linear/bn
I1109 14:47:03.464133 16740 net.cpp:434] conv3_1/linear/bn <- conv3_1/linear
I1109 14:47:03.464134 16740 net.cpp:395] conv3_1/linear/bn -> conv3_1/linear (in-place)
I1109 14:47:03.464277 16740 net.cpp:150] Setting up conv3_1/linear/bn
I1109 14:47:03.464282 16740 net.cpp:157] Top shape: 2 24 75 128 (460800)
I1109 14:47:03.464284 16740 net.cpp:165] Memory required for data: 409939296
I1109 14:47:03.464287 16740 layer_factory.hpp:77] Creating layer conv3_1/linear/scale
I1109 14:47:03.464292 16740 net.cpp:100] Creating Layer conv3_1/linear/scale
I1109 14:47:03.464293 16740 net.cpp:434] conv3_1/linear/scale <- conv3_1/linear
I1109 14:47:03.464296 16740 net.cpp:395] conv3_1/linear/scale -> conv3_1/linear (in-place)
I1109 14:47:03.464321 16740 layer_factory.hpp:77] Creating layer conv3_1/linear/scale
I1109 14:47:03.464418 16740 net.cpp:150] Setting up conv3_1/linear/scale
I1109 14:47:03.464424 16740 net.cpp:157] Top shape: 2 24 75 128 (460800)
I1109 14:47:03.464427 16740 net.cpp:165] Memory required for data: 411782496
I1109 14:47:03.464432 16740 layer_factory.hpp:77] Creating layer block_3_1
I1109 14:47:03.464438 16740 net.cpp:100] Creating Layer block_3_1
I1109 14:47:03.464442 16740 net.cpp:434] block_3_1 <- conv2_2/linear_conv2_2/linear/scale_0_split_1
I1109 14:47:03.464447 16740 net.cpp:434] block_3_1 <- conv3_1/linear
I1109 14:47:03.464452 16740 net.cpp:408] block_3_1 -> block_3_1
I1109 14:47:03.464473 16740 net.cpp:150] Setting up block_3_1
I1109 14:47:03.464476 16740 net.cpp:157] Top shape: 2 24 75 128 (460800)
I1109 14:47:03.464478 16740 net.cpp:165] Memory required for data: 413625696
I1109 14:47:03.464479 16740 layer_factory.hpp:77] Creating layer conv3_2/expand
I1109 14:47:03.464484 16740 net.cpp:100] Creating Layer conv3_2/expand
I1109 14:47:03.464486 16740 net.cpp:434] conv3_2/expand <- block_3_1
I1109 14:47:03.464490 16740 net.cpp:408] conv3_2/expand -> conv3_2/expand
I1109 14:47:03.466394 16740 net.cpp:150] Setting up conv3_2/expand
I1109 14:47:03.466404 16740 net.cpp:157] Top shape: 2 144 75 128 (2764800)
I1109 14:47:03.466406 16740 net.cpp:165] Memory required for data: 424684896
I1109 14:47:03.466411 16740 layer_factory.hpp:77] Creating layer conv3_2/expand/bn
I1109 14:47:03.466416 16740 net.cpp:100] Creating Layer conv3_2/expand/bn
I1109 14:47:03.466418 16740 net.cpp:434] conv3_2/expand/bn <- conv3_2/expand
I1109 14:47:03.466423 16740 net.cpp:395] conv3_2/expand/bn -> conv3_2/expand (in-place)
I1109 14:47:03.466567 16740 net.cpp:150] Setting up conv3_2/expand/bn
I1109 14:47:03.466572 16740 net.cpp:157] Top shape: 2 144 75 128 (2764800)
I1109 14:47:03.466572 16740 net.cpp:165] Memory required for data: 435744096
I1109 14:47:03.466578 16740 layer_factory.hpp:77] Creating layer conv3_2/expand/scale
I1109 14:47:03.466581 16740 net.cpp:100] Creating Layer conv3_2/expand/scale
I1109 14:47:03.466583 16740 net.cpp:434] conv3_2/expand/scale <- conv3_2/expand
I1109 14:47:03.466585 16740 net.cpp:395] conv3_2/expand/scale -> conv3_2/expand (in-place)
I1109 14:47:03.466612 16740 layer_factory.hpp:77] Creating layer conv3_2/expand/scale
I1109 14:47:03.466701 16740 net.cpp:150] Setting up conv3_2/expand/scale
I1109 14:47:03.466706 16740 net.cpp:157] Top shape: 2 144 75 128 (2764800)
I1109 14:47:03.466707 16740 net.cpp:165] Memory required for data: 446803296
I1109 14:47:03.466717 16740 layer_factory.hpp:77] Creating layer relu3_2/expand
I1109 14:47:03.466719 16740 net.cpp:100] Creating Layer relu3_2/expand
I1109 14:47:03.466722 16740 net.cpp:434] relu3_2/expand <- conv3_2/expand
I1109 14:47:03.466733 16740 net.cpp:395] relu3_2/expand -> conv3_2/expand (in-place)
I1109 14:47:03.467109 16740 net.cpp:150] Setting up relu3_2/expand
I1109 14:47:03.467116 16740 net.cpp:157] Top shape: 2 144 75 128 (2764800)
I1109 14:47:03.467119 16740 net.cpp:165] Memory required for data: 457862496
I1109 14:47:03.467123 16740 layer_factory.hpp:77] Creating layer conv3_2/dwise
I1109 14:47:03.467129 16740 net.cpp:100] Creating Layer conv3_2/dwise
I1109 14:47:03.467133 16740 net.cpp:434] conv3_2/dwise <- conv3_2/expand
I1109 14:47:03.467136 16740 net.cpp:408] conv3_2/dwise -> conv3_2/dwise
I1109 14:47:03.467288 16740 net.cpp:150] Setting up conv3_2/dwise
I1109 14:47:03.467293 16740 net.cpp:157] Top shape: 2 144 38 64 (700416)
I1109 14:47:03.467295 16740 net.cpp:165] Memory required for data: 460664160
I1109 14:47:03.467298 16740 layer_factory.hpp:77] Creating layer conv3_2/dwise/bn
I1109 14:47:03.467303 16740 net.cpp:100] Creating Layer conv3_2/dwise/bn
I1109 14:47:03.467304 16740 net.cpp:434] conv3_2/dwise/bn <- conv3_2/dwise
I1109 14:47:03.467308 16740 net.cpp:395] conv3_2/dwise/bn -> conv3_2/dwise (in-place)
I1109 14:47:03.467442 16740 net.cpp:150] Setting up conv3_2/dwise/bn
I1109 14:47:03.467445 16740 net.cpp:157] Top shape: 2 144 38 64 (700416)
I1109 14:47:03.467447 16740 net.cpp:165] Memory required for data: 463465824
I1109 14:47:03.467452 16740 layer_factory.hpp:77] Creating layer conv3_2/dwise/scale
I1109 14:47:03.467455 16740 net.cpp:100] Creating Layer conv3_2/dwise/scale
I1109 14:47:03.467456 16740 net.cpp:434] conv3_2/dwise/scale <- conv3_2/dwise
I1109 14:47:03.467459 16740 net.cpp:395] conv3_2/dwise/scale -> conv3_2/dwise (in-place)
I1109 14:47:03.467489 16740 layer_factory.hpp:77] Creating layer conv3_2/dwise/scale
I1109 14:47:03.467567 16740 net.cpp:150] Setting up conv3_2/dwise/scale
I1109 14:47:03.467571 16740 net.cpp:157] Top shape: 2 144 38 64 (700416)
I1109 14:47:03.467573 16740 net.cpp:165] Memory required for data: 466267488
I1109 14:47:03.467576 16740 layer_factory.hpp:77] Creating layer relu3_2/dwise
I1109 14:47:03.467579 16740 net.cpp:100] Creating Layer relu3_2/dwise
I1109 14:47:03.467581 16740 net.cpp:434] relu3_2/dwise <- conv3_2/dwise
I1109 14:47:03.467584 16740 net.cpp:395] relu3_2/dwise -> conv3_2/dwise (in-place)
I1109 14:47:03.467857 16740 net.cpp:150] Setting up relu3_2/dwise
I1109 14:47:03.467864 16740 net.cpp:157] Top shape: 2 144 38 64 (700416)
I1109 14:47:03.467865 16740 net.cpp:165] Memory required for data: 469069152
I1109 14:47:03.467867 16740 layer_factory.hpp:77] Creating layer conv3_2/linear
I1109 14:47:03.467872 16740 net.cpp:100] Creating Layer conv3_2/linear
I1109 14:47:03.467875 16740 net.cpp:434] conv3_2/linear <- conv3_2/dwise
I1109 14:47:03.467877 16740 net.cpp:408] conv3_2/linear -> conv3_2/linear
I1109 14:47:03.468936 16740 net.cpp:150] Setting up conv3_2/linear
I1109 14:47:03.468945 16740 net.cpp:157] Top shape: 2 32 38 64 (155648)
I1109 14:47:03.468946 16740 net.cpp:165] Memory required for data: 469691744
I1109 14:47:03.468950 16740 layer_factory.hpp:77] Creating layer conv3_2/linear/bn
I1109 14:47:03.468953 16740 net.cpp:100] Creating Layer conv3_2/linear/bn
I1109 14:47:03.468955 16740 net.cpp:434] conv3_2/linear/bn <- conv3_2/linear
I1109 14:47:03.468958 16740 net.cpp:395] conv3_2/linear/bn -> conv3_2/linear (in-place)
I1109 14:47:03.469102 16740 net.cpp:150] Setting up conv3_2/linear/bn
I1109 14:47:03.469106 16740 net.cpp:157] Top shape: 2 32 38 64 (155648)
I1109 14:47:03.469108 16740 net.cpp:165] Memory required for data: 470314336
I1109 14:47:03.469112 16740 layer_factory.hpp:77] Creating layer conv3_2/linear/scale
I1109 14:47:03.469115 16740 net.cpp:100] Creating Layer conv3_2/linear/scale
I1109 14:47:03.469117 16740 net.cpp:434] conv3_2/linear/scale <- conv3_2/linear
I1109 14:47:03.469120 16740 net.cpp:395] conv3_2/linear/scale -> conv3_2/linear (in-place)
I1109 14:47:03.469146 16740 layer_factory.hpp:77] Creating layer conv3_2/linear/scale
I1109 14:47:03.469229 16740 net.cpp:150] Setting up conv3_2/linear/scale
I1109 14:47:03.469234 16740 net.cpp:157] Top shape: 2 32 38 64 (155648)
I1109 14:47:03.469244 16740 net.cpp:165] Memory required for data: 470936928
I1109 14:47:03.469247 16740 layer_factory.hpp:77] Creating layer conv3_2/linear_conv3_2/linear/scale_0_split
I1109 14:47:03.469251 16740 net.cpp:100] Creating Layer conv3_2/linear_conv3_2/linear/scale_0_split
I1109 14:47:03.469252 16740 net.cpp:434] conv3_2/linear_conv3_2/linear/scale_0_split <- conv3_2/linear
I1109 14:47:03.469256 16740 net.cpp:408] conv3_2/linear_conv3_2/linear/scale_0_split -> conv3_2/linear_conv3_2/linear/scale_0_split_0
I1109 14:47:03.469260 16740 net.cpp:408] conv3_2/linear_conv3_2/linear/scale_0_split -> conv3_2/linear_conv3_2/linear/scale_0_split_1
I1109 14:47:03.469286 16740 net.cpp:150] Setting up conv3_2/linear_conv3_2/linear/scale_0_split
I1109 14:47:03.469291 16740 net.cpp:157] Top shape: 2 32 38 64 (155648)
I1109 14:47:03.469295 16740 net.cpp:157] Top shape: 2 32 38 64 (155648)
I1109 14:47:03.469297 16740 net.cpp:165] Memory required for data: 472182112
I1109 14:47:03.469300 16740 layer_factory.hpp:77] Creating layer conv4_1/expand
I1109 14:47:03.469305 16740 net.cpp:100] Creating Layer conv4_1/expand
I1109 14:47:03.469306 16740 net.cpp:434] conv4_1/expand <- conv3_2/linear_conv3_2/linear/scale_0_split_0
I1109 14:47:03.469310 16740 net.cpp:408] conv4_1/expand -> conv4_1/expand
I1109 14:47:03.470371 16740 net.cpp:150] Setting up conv4_1/expand
I1109 14:47:03.470377 16740 net.cpp:157] Top shape: 2 192 38 64 (933888)
I1109 14:47:03.470379 16740 net.cpp:165] Memory required for data: 475917664
I1109 14:47:03.470382 16740 layer_factory.hpp:77] Creating layer conv4_1/expand/bn
I1109 14:47:03.470386 16740 net.cpp:100] Creating Layer conv4_1/expand/bn
I1109 14:47:03.470388 16740 net.cpp:434] conv4_1/expand/bn <- conv4_1/expand
I1109 14:47:03.470391 16740 net.cpp:395] conv4_1/expand/bn -> conv4_1/expand (in-place)
I1109 14:47:03.470532 16740 net.cpp:150] Setting up conv4_1/expand/bn
I1109 14:47:03.470538 16740 net.cpp:157] Top shape: 2 192 38 64 (933888)
I1109 14:47:03.470540 16740 net.cpp:165] Memory required for data: 479653216
I1109 14:47:03.470543 16740 layer_factory.hpp:77] Creating layer conv4_1/expand/scale
I1109 14:47:03.470547 16740 net.cpp:100] Creating Layer conv4_1/expand/scale
I1109 14:47:03.470549 16740 net.cpp:434] conv4_1/expand/scale <- conv4_1/expand
I1109 14:47:03.470551 16740 net.cpp:395] conv4_1/expand/scale -> conv4_1/expand (in-place)
I1109 14:47:03.470577 16740 layer_factory.hpp:77] Creating layer conv4_1/expand/scale
I1109 14:47:03.470662 16740 net.cpp:150] Setting up conv4_1/expand/scale
I1109 14:47:03.470667 16740 net.cpp:157] Top shape: 2 192 38 64 (933888)
I1109 14:47:03.470669 16740 net.cpp:165] Memory required for data: 483388768
I1109 14:47:03.470672 16740 layer_factory.hpp:77] Creating layer relu4_1/expand
I1109 14:47:03.470675 16740 net.cpp:100] Creating Layer relu4_1/expand
I1109 14:47:03.470677 16740 net.cpp:434] relu4_1/expand <- conv4_1/expand
I1109 14:47:03.470680 16740 net.cpp:395] relu4_1/expand -> conv4_1/expand (in-place)
I1109 14:47:03.471704 16740 net.cpp:150] Setting up relu4_1/expand
I1109 14:47:03.471711 16740 net.cpp:157] Top shape: 2 192 38 64 (933888)
I1109 14:47:03.471714 16740 net.cpp:165] Memory required for data: 487124320
I1109 14:47:03.471719 16740 layer_factory.hpp:77] Creating layer conv4_1/dwise
I1109 14:47:03.471727 16740 net.cpp:100] Creating Layer conv4_1/dwise
I1109 14:47:03.471729 16740 net.cpp:434] conv4_1/dwise <- conv4_1/expand
I1109 14:47:03.471735 16740 net.cpp:408] conv4_1/dwise -> conv4_1/dwise
I1109 14:47:03.471894 16740 net.cpp:150] Setting up conv4_1/dwise
I1109 14:47:03.471899 16740 net.cpp:157] Top shape: 2 192 38 64 (933888)
I1109 14:47:03.471900 16740 net.cpp:165] Memory required for data: 490859872
I1109 14:47:03.471904 16740 layer_factory.hpp:77] Creating layer conv4_1/dwise/bn
I1109 14:47:03.471906 16740 net.cpp:100] Creating Layer conv4_1/dwise/bn
I1109 14:47:03.471909 16740 net.cpp:434] conv4_1/dwise/bn <- conv4_1/dwise
I1109 14:47:03.471911 16740 net.cpp:395] conv4_1/dwise/bn -> conv4_1/dwise (in-place)
I1109 14:47:03.472052 16740 net.cpp:150] Setting up conv4_1/dwise/bn
I1109 14:47:03.472064 16740 net.cpp:157] Top shape: 2 192 38 64 (933888)
I1109 14:47:03.472065 16740 net.cpp:165] Memory required for data: 494595424
I1109 14:47:03.472069 16740 layer_factory.hpp:77] Creating layer conv4_1/dwise/scale
I1109 14:47:03.472074 16740 net.cpp:100] Creating Layer conv4_1/dwise/scale
I1109 14:47:03.472075 16740 net.cpp:434] conv4_1/dwise/scale <- conv4_1/dwise
I1109 14:47:03.472079 16740 net.cpp:395] conv4_1/dwise/scale -> conv4_1/dwise (in-place)
I1109 14:47:03.472105 16740 layer_factory.hpp:77] Creating layer conv4_1/dwise/scale
I1109 14:47:03.472190 16740 net.cpp:150] Setting up conv4_1/dwise/scale
I1109 14:47:03.472195 16740 net.cpp:157] Top shape: 2 192 38 64 (933888)
I1109 14:47:03.472198 16740 net.cpp:165] Memory required for data: 498330976
I1109 14:47:03.472200 16740 layer_factory.hpp:77] Creating layer relu4_1/dwise
I1109 14:47:03.472204 16740 net.cpp:100] Creating Layer relu4_1/dwise
I1109 14:47:03.472205 16740 net.cpp:434] relu4_1/dwise <- conv4_1/dwise
I1109 14:47:03.472208 16740 net.cpp:395] relu4_1/dwise -> conv4_1/dwise (in-place)
I1109 14:47:03.472486 16740 net.cpp:150] Setting up relu4_1/dwise
I1109 14:47:03.472492 16740 net.cpp:157] Top shape: 2 192 38 64 (933888)
I1109 14:47:03.472496 16740 net.cpp:165] Memory required for data: 502066528
I1109 14:47:03.472497 16740 layer_factory.hpp:77] Creating layer conv4_1/linear
I1109 14:47:03.472506 16740 net.cpp:100] Creating Layer conv4_1/linear
I1109 14:47:03.472509 16740 net.cpp:434] conv4_1/linear <- conv4_1/dwise
I1109 14:47:03.472514 16740 net.cpp:408] conv4_1/linear -> conv4_1/linear
I1109 14:47:03.473594 16740 net.cpp:150] Setting up conv4_1/linear
I1109 14:47:03.473601 16740 net.cpp:157] Top shape: 2 32 38 64 (155648)
I1109 14:47:03.473604 16740 net.cpp:165] Memory required for data: 502689120
I1109 14:47:03.473610 16740 layer_factory.hpp:77] Creating layer conv4_1/linear/bn
I1109 14:47:03.473618 16740 net.cpp:100] Creating Layer conv4_1/linear/bn
I1109 14:47:03.473621 16740 net.cpp:434] conv4_1/linear/bn <- conv4_1/linear
I1109 14:47:03.473628 16740 net.cpp:395] conv4_1/linear/bn -> conv4_1/linear (in-place)
I1109 14:47:03.473770 16740 net.cpp:150] Setting up conv4_1/linear/bn
I1109 14:47:03.473774 16740 net.cpp:157] Top shape: 2 32 38 64 (155648)
I1109 14:47:03.473778 16740 net.cpp:165] Memory required for data: 503311712
I1109 14:47:03.473785 16740 layer_factory.hpp:77] Creating layer conv4_1/linear/scale
I1109 14:47:03.473790 16740 net.cpp:100] Creating Layer conv4_1/linear/scale
I1109 14:47:03.473793 16740 net.cpp:434] conv4_1/linear/scale <- conv4_1/linear
I1109 14:47:03.473798 16740 net.cpp:395] conv4_1/linear/scale -> conv4_1/linear (in-place)
I1109 14:47:03.473831 16740 layer_factory.hpp:77] Creating layer conv4_1/linear/scale
I1109 14:47:03.473912 16740 net.cpp:150] Setting up conv4_1/linear/scale
I1109 14:47:03.473917 16740 net.cpp:157] Top shape: 2 32 38 64 (155648)
I1109 14:47:03.473919 16740 net.cpp:165] Memory required for data: 503934304
I1109 14:47:03.473927 16740 layer_factory.hpp:77] Creating layer block_4_1
I1109 14:47:03.473942 16740 net.cpp:100] Creating Layer block_4_1
I1109 14:47:03.473944 16740 net.cpp:434] block_4_1 <- conv3_2/linear_conv3_2/linear/scale_0_split_1
I1109 14:47:03.473948 16740 net.cpp:434] block_4_1 <- conv4_1/linear
I1109 14:47:03.473953 16740 net.cpp:408] block_4_1 -> block_4_1
I1109 14:47:03.473974 16740 net.cpp:150] Setting up block_4_1
I1109 14:47:03.473978 16740 net.cpp:157] Top shape: 2 32 38 64 (155648)
I1109 14:47:03.473981 16740 net.cpp:165] Memory required for data: 504556896
I1109 14:47:03.473985 16740 layer_factory.hpp:77] Creating layer block_4_1_block_4_1_0_split
I1109 14:47:03.473992 16740 net.cpp:100] Creating Layer block_4_1_block_4_1_0_split
I1109 14:47:03.473995 16740 net.cpp:434] block_4_1_block_4_1_0_split <- block_4_1
I1109 14:47:03.474001 16740 net.cpp:408] block_4_1_block_4_1_0_split -> block_4_1_block_4_1_0_split_0
I1109 14:47:03.474009 16740 net.cpp:408] block_4_1_block_4_1_0_split -> block_4_1_block_4_1_0_split_1
I1109 14:47:03.474050 16740 net.cpp:150] Setting up block_4_1_block_4_1_0_split
I1109 14:47:03.474054 16740 net.cpp:157] Top shape: 2 32 38 64 (155648)
I1109 14:47:03.474059 16740 net.cpp:157] Top shape: 2 32 38 64 (155648)
I1109 14:47:03.474062 16740 net.cpp:165] Memory required for data: 505802080
I1109 14:47:03.474066 16740 layer_factory.hpp:77] Creating layer conv4_2/expand
I1109 14:47:03.474074 16740 net.cpp:100] Creating Layer conv4_2/expand
I1109 14:47:03.474078 16740 net.cpp:434] conv4_2/expand <- block_4_1_block_4_1_0_split_0
I1109 14:47:03.474086 16740 net.cpp:408] conv4_2/expand -> conv4_2/expand
I1109 14:47:03.475294 16740 net.cpp:150] Setting up conv4_2/expand
I1109 14:47:03.475303 16740 net.cpp:157] Top shape: 2 192 38 64 (933888)
I1109 14:47:03.475306 16740 net.cpp:165] Memory required for data: 509537632
I1109 14:47:03.475312 16740 layer_factory.hpp:77] Creating layer conv4_2/expand/bn
I1109 14:47:03.475318 16740 net.cpp:100] Creating Layer conv4_2/expand/bn
I1109 14:47:03.475322 16740 net.cpp:434] conv4_2/expand/bn <- conv4_2/expand
I1109 14:47:03.475328 16740 net.cpp:395] conv4_2/expand/bn -> conv4_2/expand (in-place)
I1109 14:47:03.475517 16740 net.cpp:150] Setting up conv4_2/expand/bn
I1109 14:47:03.475522 16740 net.cpp:157] Top shape: 2 192 38 64 (933888)
I1109 14:47:03.475524 16740 net.cpp:165] Memory required for data: 513273184
I1109 14:47:03.475531 16740 layer_factory.hpp:77] Creating layer conv4_2/expand/scale
I1109 14:47:03.475538 16740 net.cpp:100] Creating Layer conv4_2/expand/scale
I1109 14:47:03.475540 16740 net.cpp:434] conv4_2/expand/scale <- conv4_2/expand
I1109 14:47:03.475545 16740 net.cpp:395] conv4_2/expand/scale -> conv4_2/expand (in-place)
I1109 14:47:03.475580 16740 layer_factory.hpp:77] Creating layer conv4_2/expand/scale
I1109 14:47:03.475682 16740 net.cpp:150] Setting up conv4_2/expand/scale
I1109 14:47:03.475688 16740 net.cpp:157] Top shape: 2 192 38 64 (933888)
I1109 14:47:03.475690 16740 net.cpp:165] Memory required for data: 517008736
I1109 14:47:03.475695 16740 layer_factory.hpp:77] Creating layer relu4_2/expand
I1109 14:47:03.475700 16740 net.cpp:100] Creating Layer relu4_2/expand
I1109 14:47:03.475704 16740 net.cpp:434] relu4_2/expand <- conv4_2/expand
I1109 14:47:03.475708 16740 net.cpp:395] relu4_2/expand -> conv4_2/expand (in-place)
I1109 14:47:03.476089 16740 net.cpp:150] Setting up relu4_2/expand
I1109 14:47:03.476097 16740 net.cpp:157] Top shape: 2 192 38 64 (933888)
I1109 14:47:03.476099 16740 net.cpp:165] Memory required for data: 520744288
I1109 14:47:03.476102 16740 layer_factory.hpp:77] Creating layer conv4_2/dwise
I1109 14:47:03.476109 16740 net.cpp:100] Creating Layer conv4_2/dwise
I1109 14:47:03.476112 16740 net.cpp:434] conv4_2/dwise <- conv4_2/expand
I1109 14:47:03.476117 16740 net.cpp:408] conv4_2/dwise -> conv4_2/dwise
I1109 14:47:03.476338 16740 net.cpp:150] Setting up conv4_2/dwise
I1109 14:47:03.476346 16740 net.cpp:157] Top shape: 2 192 38 64 (933888)
I1109 14:47:03.476348 16740 net.cpp:165] Memory required for data: 524479840
I1109 14:47:03.476353 16740 layer_factory.hpp:77] Creating layer conv4_2/dwise/bn
I1109 14:47:03.476358 16740 net.cpp:100] Creating Layer conv4_2/dwise/bn
I1109 14:47:03.476369 16740 net.cpp:434] conv4_2/dwise/bn <- conv4_2/dwise
I1109 14:47:03.476374 16740 net.cpp:395] conv4_2/dwise/bn -> conv4_2/dwise (in-place)
I1109 14:47:03.476567 16740 net.cpp:150] Setting up conv4_2/dwise/bn
I1109 14:47:03.476572 16740 net.cpp:157] Top shape: 2 192 38 64 (933888)
I1109 14:47:03.476575 16740 net.cpp:165] Memory required for data: 528215392
I1109 14:47:03.476581 16740 layer_factory.hpp:77] Creating layer conv4_2/dwise/scale
I1109 14:47:03.476588 16740 net.cpp:100] Creating Layer conv4_2/dwise/scale
I1109 14:47:03.476590 16740 net.cpp:434] conv4_2/dwise/scale <- conv4_2/dwise
I1109 14:47:03.476595 16740 net.cpp:395] conv4_2/dwise/scale -> conv4_2/dwise (in-place)
I1109 14:47:03.476634 16740 layer_factory.hpp:77] Creating layer conv4_2/dwise/scale
I1109 14:47:03.476737 16740 net.cpp:150] Setting up conv4_2/dwise/scale
I1109 14:47:03.476745 16740 net.cpp:157] Top shape: 2 192 38 64 (933888)
I1109 14:47:03.476761 16740 net.cpp:165] Memory required for data: 531950944
I1109 14:47:03.476768 16740 layer_factory.hpp:77] Creating layer relu4_2/dwise
I1109 14:47:03.476774 16740 net.cpp:100] Creating Layer relu4_2/dwise
I1109 14:47:03.476778 16740 net.cpp:434] relu4_2/dwise <- conv4_2/dwise
I1109 14:47:03.476781 16740 net.cpp:395] relu4_2/dwise -> conv4_2/dwise (in-place)
I1109 14:47:03.477192 16740 net.cpp:150] Setting up relu4_2/dwise
I1109 14:47:03.477201 16740 net.cpp:157] Top shape: 2 192 38 64 (933888)
I1109 14:47:03.477205 16740 net.cpp:165] Memory required for data: 535686496
I1109 14:47:03.477207 16740 layer_factory.hpp:77] Creating layer conv4_2/linear
I1109 14:47:03.477218 16740 net.cpp:100] Creating Layer conv4_2/linear
I1109 14:47:03.477222 16740 net.cpp:434] conv4_2/linear <- conv4_2/dwise
I1109 14:47:03.477228 16740 net.cpp:408] conv4_2/linear -> conv4_2/linear
I1109 14:47:03.479480 16740 net.cpp:150] Setting up conv4_2/linear
I1109 14:47:03.479496 16740 net.cpp:157] Top shape: 2 32 38 64 (155648)
I1109 14:47:03.479498 16740 net.cpp:165] Memory required for data: 536309088
I1109 14:47:03.479506 16740 layer_factory.hpp:77] Creating layer conv4_2/linear/bn
I1109 14:47:03.479514 16740 net.cpp:100] Creating Layer conv4_2/linear/bn
I1109 14:47:03.479518 16740 net.cpp:434] conv4_2/linear/bn <- conv4_2/linear
I1109 14:47:03.479523 16740 net.cpp:395] conv4_2/linear/bn -> conv4_2/linear (in-place)
I1109 14:47:03.479678 16740 net.cpp:150] Setting up conv4_2/linear/bn
I1109 14:47:03.479683 16740 net.cpp:157] Top shape: 2 32 38 64 (155648)
I1109 14:47:03.479686 16740 net.cpp:165] Memory required for data: 536931680
I1109 14:47:03.479691 16740 layer_factory.hpp:77] Creating layer conv4_2/linear/scale
I1109 14:47:03.479696 16740 net.cpp:100] Creating Layer conv4_2/linear/scale
I1109 14:47:03.479701 16740 net.cpp:434] conv4_2/linear/scale <- conv4_2/linear
I1109 14:47:03.479707 16740 net.cpp:395] conv4_2/linear/scale -> conv4_2/linear (in-place)
I1109 14:47:03.479743 16740 layer_factory.hpp:77] Creating layer conv4_2/linear/scale
I1109 14:47:03.479832 16740 net.cpp:150] Setting up conv4_2/linear/scale
I1109 14:47:03.479837 16740 net.cpp:157] Top shape: 2 32 38 64 (155648)
I1109 14:47:03.479840 16740 net.cpp:165] Memory required for data: 537554272
I1109 14:47:03.479842 16740 layer_factory.hpp:77] Creating layer block_4_2
I1109 14:47:03.479846 16740 net.cpp:100] Creating Layer block_4_2
I1109 14:47:03.479848 16740 net.cpp:434] block_4_2 <- block_4_1_block_4_1_0_split_1
I1109 14:47:03.479851 16740 net.cpp:434] block_4_2 <- conv4_2/linear
I1109 14:47:03.479856 16740 net.cpp:408] block_4_2 -> block_4_2
I1109 14:47:03.479874 16740 net.cpp:150] Setting up block_4_2
I1109 14:47:03.479879 16740 net.cpp:157] Top shape: 2 32 38 64 (155648)
I1109 14:47:03.479882 16740 net.cpp:165] Memory required for data: 538176864
I1109 14:47:03.479883 16740 layer_factory.hpp:77] Creating layer conv4_3/expand
I1109 14:47:03.479889 16740 net.cpp:100] Creating Layer conv4_3/expand
I1109 14:47:03.479892 16740 net.cpp:434] conv4_3/expand <- block_4_2
I1109 14:47:03.479895 16740 net.cpp:408] conv4_3/expand -> conv4_3/expand
I1109 14:47:03.481099 16740 net.cpp:150] Setting up conv4_3/expand
I1109 14:47:03.481107 16740 net.cpp:157] Top shape: 2 192 38 64 (933888)
I1109 14:47:03.481109 16740 net.cpp:165] Memory required for data: 541912416
I1109 14:47:03.481114 16740 layer_factory.hpp:77] Creating layer conv4_3/expand/bn
I1109 14:47:03.481122 16740 net.cpp:100] Creating Layer conv4_3/expand/bn
I1109 14:47:03.481124 16740 net.cpp:434] conv4_3/expand/bn <- conv4_3/expand
I1109 14:47:03.481129 16740 net.cpp:395] conv4_3/expand/bn -> conv4_3/expand (in-place)
I1109 14:47:03.481276 16740 net.cpp:150] Setting up conv4_3/expand/bn
I1109 14:47:03.481281 16740 net.cpp:157] Top shape: 2 192 38 64 (933888)
I1109 14:47:03.481282 16740 net.cpp:165] Memory required for data: 545647968
I1109 14:47:03.481289 16740 layer_factory.hpp:77] Creating layer conv4_3/expand/scale
I1109 14:47:03.481297 16740 net.cpp:100] Creating Layer conv4_3/expand/scale
I1109 14:47:03.481310 16740 net.cpp:434] conv4_3/expand/scale <- conv4_3/expand
I1109 14:47:03.481314 16740 net.cpp:395] conv4_3/expand/scale -> conv4_3/expand (in-place)
I1109 14:47:03.481348 16740 layer_factory.hpp:77] Creating layer conv4_3/expand/scale
I1109 14:47:03.481432 16740 net.cpp:150] Setting up conv4_3/expand/scale
I1109 14:47:03.481437 16740 net.cpp:157] Top shape: 2 192 38 64 (933888)
I1109 14:47:03.481439 16740 net.cpp:165] Memory required for data: 549383520
I1109 14:47:03.481444 16740 layer_factory.hpp:77] Creating layer relu4_3/expand
I1109 14:47:03.481451 16740 net.cpp:100] Creating Layer relu4_3/expand
I1109 14:47:03.481456 16740 net.cpp:434] relu4_3/expand <- conv4_3/expand
I1109 14:47:03.481461 16740 net.cpp:395] relu4_3/expand -> conv4_3/expand (in-place)
I1109 14:47:03.481737 16740 net.cpp:150] Setting up relu4_3/expand
I1109 14:47:03.481743 16740 net.cpp:157] Top shape: 2 192 38 64 (933888)
I1109 14:47:03.481746 16740 net.cpp:165] Memory required for data: 553119072
I1109 14:47:03.481750 16740 layer_factory.hpp:77] Creating layer conv4_3/dwise
I1109 14:47:03.481756 16740 net.cpp:100] Creating Layer conv4_3/dwise
I1109 14:47:03.481760 16740 net.cpp:434] conv4_3/dwise <- conv4_3/expand
I1109 14:47:03.481768 16740 net.cpp:408] conv4_3/dwise -> conv4_3/dwise
I1109 14:47:03.481921 16740 net.cpp:150] Setting up conv4_3/dwise
I1109 14:47:03.481926 16740 net.cpp:157] Top shape: 2 192 38 64 (933888)
I1109 14:47:03.481930 16740 net.cpp:165] Memory required for data: 556854624
I1109 14:47:03.481935 16740 layer_factory.hpp:77] Creating layer conv4_3/dwise/bn
I1109 14:47:03.481940 16740 net.cpp:100] Creating Layer conv4_3/dwise/bn
I1109 14:47:03.481943 16740 net.cpp:434] conv4_3/dwise/bn <- conv4_3/dwise
I1109 14:47:03.481950 16740 net.cpp:395] conv4_3/dwise/bn -> conv4_3/dwise (in-place)
I1109 14:47:03.482095 16740 net.cpp:150] Setting up conv4_3/dwise/bn
I1109 14:47:03.482098 16740 net.cpp:157] Top shape: 2 192 38 64 (933888)
I1109 14:47:03.482101 16740 net.cpp:165] Memory required for data: 560590176
I1109 14:47:03.482107 16740 layer_factory.hpp:77] Creating layer conv4_3/dwise/scale
I1109 14:47:03.482113 16740 net.cpp:100] Creating Layer conv4_3/dwise/scale
I1109 14:47:03.482116 16740 net.cpp:434] conv4_3/dwise/scale <- conv4_3/dwise
I1109 14:47:03.482122 16740 net.cpp:395] conv4_3/dwise/scale -> conv4_3/dwise (in-place)
I1109 14:47:03.482156 16740 layer_factory.hpp:77] Creating layer conv4_3/dwise/scale
I1109 14:47:03.482235 16740 net.cpp:150] Setting up conv4_3/dwise/scale
I1109 14:47:03.482239 16740 net.cpp:157] Top shape: 2 192 38 64 (933888)
I1109 14:47:03.482242 16740 net.cpp:165] Memory required for data: 564325728
I1109 14:47:03.482247 16740 layer_factory.hpp:77] Creating layer relu4_3/dwise
I1109 14:47:03.482252 16740 net.cpp:100] Creating Layer relu4_3/dwise
I1109 14:47:03.482256 16740 net.cpp:434] relu4_3/dwise <- conv4_3/dwise
I1109 14:47:03.482262 16740 net.cpp:395] relu4_3/dwise -> conv4_3/dwise (in-place)
I1109 14:47:03.482537 16740 net.cpp:150] Setting up relu4_3/dwise
I1109 14:47:03.482542 16740 net.cpp:157] Top shape: 2 192 38 64 (933888)
I1109 14:47:03.482545 16740 net.cpp:165] Memory required for data: 568061280
I1109 14:47:03.482547 16740 layer_factory.hpp:77] Creating layer conv4_3/linear
I1109 14:47:03.482556 16740 net.cpp:100] Creating Layer conv4_3/linear
I1109 14:47:03.482561 16740 net.cpp:434] conv4_3/linear <- conv4_3/dwise
I1109 14:47:03.482566 16740 net.cpp:408] conv4_3/linear -> conv4_3/linear
I1109 14:47:03.484447 16740 net.cpp:150] Setting up conv4_3/linear
I1109 14:47:03.484457 16740 net.cpp:157] Top shape: 2 64 38 64 (311296)
I1109 14:47:03.484458 16740 net.cpp:165] Memory required for data: 569306464
I1109 14:47:03.484464 16740 layer_factory.hpp:77] Creating layer conv4_3/linear/bn
I1109 14:47:03.484472 16740 net.cpp:100] Creating Layer conv4_3/linear/bn
I1109 14:47:03.484475 16740 net.cpp:434] conv4_3/linear/bn <- conv4_3/linear
I1109 14:47:03.484480 16740 net.cpp:395] conv4_3/linear/bn -> conv4_3/linear (in-place)
I1109 14:47:03.484632 16740 net.cpp:150] Setting up conv4_3/linear/bn
I1109 14:47:03.484644 16740 net.cpp:157] Top shape: 2 64 38 64 (311296)
I1109 14:47:03.484647 16740 net.cpp:165] Memory required for data: 570551648
I1109 14:47:03.484665 16740 layer_factory.hpp:77] Creating layer conv4_3/linear/scale
I1109 14:47:03.484673 16740 net.cpp:100] Creating Layer conv4_3/linear/scale
I1109 14:47:03.484675 16740 net.cpp:434] conv4_3/linear/scale <- conv4_3/linear
I1109 14:47:03.484679 16740 net.cpp:395] conv4_3/linear/scale -> conv4_3/linear (in-place)
I1109 14:47:03.484716 16740 layer_factory.hpp:77] Creating layer conv4_3/linear/scale
I1109 14:47:03.484800 16740 net.cpp:150] Setting up conv4_3/linear/scale
I1109 14:47:03.484805 16740 net.cpp:157] Top shape: 2 64 38 64 (311296)
I1109 14:47:03.484808 16740 net.cpp:165] Memory required for data: 571796832
I1109 14:47:03.484813 16740 layer_factory.hpp:77] Creating layer conv4_3/linear_conv4_3/linear/scale_0_split
I1109 14:47:03.484819 16740 net.cpp:100] Creating Layer conv4_3/linear_conv4_3/linear/scale_0_split
I1109 14:47:03.484823 16740 net.cpp:434] conv4_3/linear_conv4_3/linear/scale_0_split <- conv4_3/linear
I1109 14:47:03.484829 16740 net.cpp:408] conv4_3/linear_conv4_3/linear/scale_0_split -> conv4_3/linear_conv4_3/linear/scale_0_split_0
I1109 14:47:03.484838 16740 net.cpp:408] conv4_3/linear_conv4_3/linear/scale_0_split -> conv4_3/linear_conv4_3/linear/scale_0_split_1
I1109 14:47:03.484865 16740 net.cpp:150] Setting up conv4_3/linear_conv4_3/linear/scale_0_split
I1109 14:47:03.484870 16740 net.cpp:157] Top shape: 2 64 38 64 (311296)
I1109 14:47:03.484874 16740 net.cpp:157] Top shape: 2 64 38 64 (311296)
I1109 14:47:03.484877 16740 net.cpp:165] Memory required for data: 574287200
I1109 14:47:03.484879 16740 layer_factory.hpp:77] Creating layer conv4_4/expand
I1109 14:47:03.484884 16740 net.cpp:100] Creating Layer conv4_4/expand
I1109 14:47:03.484886 16740 net.cpp:434] conv4_4/expand <- conv4_3/linear_conv4_3/linear/scale_0_split_0
I1109 14:47:03.484890 16740 net.cpp:408] conv4_4/expand -> conv4_4/expand
I1109 14:47:03.486094 16740 net.cpp:150] Setting up conv4_4/expand
I1109 14:47:03.486101 16740 net.cpp:157] Top shape: 2 384 38 64 (1867776)
I1109 14:47:03.486104 16740 net.cpp:165] Memory required for data: 581758304
I1109 14:47:03.486107 16740 layer_factory.hpp:77] Creating layer conv4_4/expand/bn
I1109 14:47:03.486111 16740 net.cpp:100] Creating Layer conv4_4/expand/bn
I1109 14:47:03.486114 16740 net.cpp:434] conv4_4/expand/bn <- conv4_4/expand
I1109 14:47:03.486117 16740 net.cpp:395] conv4_4/expand/bn -> conv4_4/expand (in-place)
I1109 14:47:03.486269 16740 net.cpp:150] Setting up conv4_4/expand/bn
I1109 14:47:03.486274 16740 net.cpp:157] Top shape: 2 384 38 64 (1867776)
I1109 14:47:03.486275 16740 net.cpp:165] Memory required for data: 589229408
I1109 14:47:03.486279 16740 layer_factory.hpp:77] Creating layer conv4_4/expand/scale
I1109 14:47:03.486284 16740 net.cpp:100] Creating Layer conv4_4/expand/scale
I1109 14:47:03.486286 16740 net.cpp:434] conv4_4/expand/scale <- conv4_4/expand
I1109 14:47:03.486290 16740 net.cpp:395] conv4_4/expand/scale -> conv4_4/expand (in-place)
I1109 14:47:03.486320 16740 layer_factory.hpp:77] Creating layer conv4_4/expand/scale
I1109 14:47:03.486399 16740 net.cpp:150] Setting up conv4_4/expand/scale
I1109 14:47:03.486404 16740 net.cpp:157] Top shape: 2 384 38 64 (1867776)
I1109 14:47:03.486407 16740 net.cpp:165] Memory required for data: 596700512
I1109 14:47:03.486410 16740 layer_factory.hpp:77] Creating layer relu4_4/expand
I1109 14:47:03.486414 16740 net.cpp:100] Creating Layer relu4_4/expand
I1109 14:47:03.486416 16740 net.cpp:434] relu4_4/expand <- conv4_4/expand
I1109 14:47:03.486419 16740 net.cpp:395] relu4_4/expand -> conv4_4/expand (in-place)
I1109 14:47:03.486696 16740 net.cpp:150] Setting up relu4_4/expand
I1109 14:47:03.486703 16740 net.cpp:157] Top shape: 2 384 38 64 (1867776)
I1109 14:47:03.486706 16740 net.cpp:165] Memory required for data: 604171616
I1109 14:47:03.486707 16740 layer_factory.hpp:77] Creating layer conv4_4/dwise
I1109 14:47:03.486721 16740 net.cpp:100] Creating Layer conv4_4/dwise
I1109 14:47:03.486723 16740 net.cpp:434] conv4_4/dwise <- conv4_4/expand
I1109 14:47:03.486729 16740 net.cpp:408] conv4_4/dwise -> conv4_4/dwise
I1109 14:47:03.486896 16740 net.cpp:150] Setting up conv4_4/dwise
I1109 14:47:03.486901 16740 net.cpp:157] Top shape: 2 384 38 64 (1867776)
I1109 14:47:03.486904 16740 net.cpp:165] Memory required for data: 611642720
I1109 14:47:03.486907 16740 layer_factory.hpp:77] Creating layer conv4_4/dwise/bn
I1109 14:47:03.486912 16740 net.cpp:100] Creating Layer conv4_4/dwise/bn
I1109 14:47:03.486914 16740 net.cpp:434] conv4_4/dwise/bn <- conv4_4/dwise
I1109 14:47:03.486917 16740 net.cpp:395] conv4_4/dwise/bn -> conv4_4/dwise (in-place)
I1109 14:47:03.487054 16740 net.cpp:150] Setting up conv4_4/dwise/bn
I1109 14:47:03.487059 16740 net.cpp:157] Top shape: 2 384 38 64 (1867776)
I1109 14:47:03.487062 16740 net.cpp:165] Memory required for data: 619113824
I1109 14:47:03.487068 16740 layer_factory.hpp:77] Creating layer conv4_4/dwise/scale
I1109 14:47:03.487074 16740 net.cpp:100] Creating Layer conv4_4/dwise/scale
I1109 14:47:03.487077 16740 net.cpp:434] conv4_4/dwise/scale <- conv4_4/dwise
I1109 14:47:03.487083 16740 net.cpp:395] conv4_4/dwise/scale -> conv4_4/dwise (in-place)
I1109 14:47:03.487115 16740 layer_factory.hpp:77] Creating layer conv4_4/dwise/scale
I1109 14:47:03.487195 16740 net.cpp:150] Setting up conv4_4/dwise/scale
I1109 14:47:03.487200 16740 net.cpp:157] Top shape: 2 384 38 64 (1867776)
I1109 14:47:03.487201 16740 net.cpp:165] Memory required for data: 626584928
I1109 14:47:03.487207 16740 layer_factory.hpp:77] Creating layer relu4_4/dwise
I1109 14:47:03.487212 16740 net.cpp:100] Creating Layer relu4_4/dwise
I1109 14:47:03.487217 16740 net.cpp:434] relu4_4/dwise <- conv4_4/dwise
I1109 14:47:03.487222 16740 net.cpp:395] relu4_4/dwise -> conv4_4/dwise (in-place)
I1109 14:47:03.487604 16740 net.cpp:150] Setting up relu4_4/dwise
I1109 14:47:03.487612 16740 net.cpp:157] Top shape: 2 384 38 64 (1867776)
I1109 14:47:03.487614 16740 net.cpp:165] Memory required for data: 634056032
I1109 14:47:03.487617 16740 layer_factory.hpp:77] Creating layer conv4_4/linear
I1109 14:47:03.487627 16740 net.cpp:100] Creating Layer conv4_4/linear
I1109 14:47:03.487630 16740 net.cpp:434] conv4_4/linear <- conv4_4/dwise
I1109 14:47:03.487637 16740 net.cpp:408] conv4_4/linear -> conv4_4/linear
I1109 14:47:03.488831 16740 net.cpp:150] Setting up conv4_4/linear
I1109 14:47:03.488837 16740 net.cpp:157] Top shape: 2 64 38 64 (311296)
I1109 14:47:03.488839 16740 net.cpp:165] Memory required for data: 635301216
I1109 14:47:03.488843 16740 layer_factory.hpp:77] Creating layer conv4_4/linear/bn
I1109 14:47:03.488848 16740 net.cpp:100] Creating Layer conv4_4/linear/bn
I1109 14:47:03.488852 16740 net.cpp:434] conv4_4/linear/bn <- conv4_4/linear
I1109 14:47:03.488854 16740 net.cpp:395] conv4_4/linear/bn -> conv4_4/linear (in-place)
I1109 14:47:03.489003 16740 net.cpp:150] Setting up conv4_4/linear/bn
I1109 14:47:03.489007 16740 net.cpp:157] Top shape: 2 64 38 64 (311296)
I1109 14:47:03.489011 16740 net.cpp:165] Memory required for data: 636546400
I1109 14:47:03.489018 16740 layer_factory.hpp:77] Creating layer conv4_4/linear/scale
I1109 14:47:03.489024 16740 net.cpp:100] Creating Layer conv4_4/linear/scale
I1109 14:47:03.489028 16740 net.cpp:434] conv4_4/linear/scale <- conv4_4/linear
I1109 14:47:03.489033 16740 net.cpp:395] conv4_4/linear/scale -> conv4_4/linear (in-place)
I1109 14:47:03.489069 16740 layer_factory.hpp:77] Creating layer conv4_4/linear/scale
I1109 14:47:03.489153 16740 net.cpp:150] Setting up conv4_4/linear/scale
I1109 14:47:03.489158 16740 net.cpp:157] Top shape: 2 64 38 64 (311296)
I1109 14:47:03.489161 16740 net.cpp:165] Memory required for data: 637791584
I1109 14:47:03.489164 16740 layer_factory.hpp:77] Creating layer block_4_4
I1109 14:47:03.489167 16740 net.cpp:100] Creating Layer block_4_4
I1109 14:47:03.489171 16740 net.cpp:434] block_4_4 <- conv4_3/linear_conv4_3/linear/scale_0_split_1
I1109 14:47:03.489172 16740 net.cpp:434] block_4_4 <- conv4_4/linear
I1109 14:47:03.489186 16740 net.cpp:408] block_4_4 -> block_4_4
I1109 14:47:03.489204 16740 net.cpp:150] Setting up block_4_4
I1109 14:47:03.489208 16740 net.cpp:157] Top shape: 2 64 38 64 (311296)
I1109 14:47:03.489212 16740 net.cpp:165] Memory required for data: 639036768
I1109 14:47:03.489215 16740 layer_factory.hpp:77] Creating layer block_4_4_block_4_4_0_split
I1109 14:47:03.489220 16740 net.cpp:100] Creating Layer block_4_4_block_4_4_0_split
I1109 14:47:03.489223 16740 net.cpp:434] block_4_4_block_4_4_0_split <- block_4_4
I1109 14:47:03.489225 16740 net.cpp:408] block_4_4_block_4_4_0_split -> block_4_4_block_4_4_0_split_0
I1109 14:47:03.489229 16740 net.cpp:408] block_4_4_block_4_4_0_split -> block_4_4_block_4_4_0_split_1
I1109 14:47:03.489260 16740 net.cpp:150] Setting up block_4_4_block_4_4_0_split
I1109 14:47:03.489265 16740 net.cpp:157] Top shape: 2 64 38 64 (311296)
I1109 14:47:03.489269 16740 net.cpp:157] Top shape: 2 64 38 64 (311296)
I1109 14:47:03.489270 16740 net.cpp:165] Memory required for data: 641527136
I1109 14:47:03.489272 16740 layer_factory.hpp:77] Creating layer conv4_5/expand
I1109 14:47:03.489276 16740 net.cpp:100] Creating Layer conv4_5/expand
I1109 14:47:03.489279 16740 net.cpp:434] conv4_5/expand <- block_4_4_block_4_4_0_split_0
I1109 14:47:03.489284 16740 net.cpp:408] conv4_5/expand -> conv4_5/expand
I1109 14:47:03.491255 16740 net.cpp:150] Setting up conv4_5/expand
I1109 14:47:03.491262 16740 net.cpp:157] Top shape: 2 384 38 64 (1867776)
I1109 14:47:03.491264 16740 net.cpp:165] Memory required for data: 648998240
I1109 14:47:03.491269 16740 layer_factory.hpp:77] Creating layer conv4_5/expand/bn
I1109 14:47:03.491277 16740 net.cpp:100] Creating Layer conv4_5/expand/bn
I1109 14:47:03.491281 16740 net.cpp:434] conv4_5/expand/bn <- conv4_5/expand
I1109 14:47:03.491287 16740 net.cpp:395] conv4_5/expand/bn -> conv4_5/expand (in-place)
I1109 14:47:03.491438 16740 net.cpp:150] Setting up conv4_5/expand/bn
I1109 14:47:03.491443 16740 net.cpp:157] Top shape: 2 384 38 64 (1867776)
I1109 14:47:03.491444 16740 net.cpp:165] Memory required for data: 656469344
I1109 14:47:03.491448 16740 layer_factory.hpp:77] Creating layer conv4_5/expand/scale
I1109 14:47:03.491452 16740 net.cpp:100] Creating Layer conv4_5/expand/scale
I1109 14:47:03.491454 16740 net.cpp:434] conv4_5/expand/scale <- conv4_5/expand
I1109 14:47:03.491457 16740 net.cpp:395] conv4_5/expand/scale -> conv4_5/expand (in-place)
I1109 14:47:03.491488 16740 layer_factory.hpp:77] Creating layer conv4_5/expand/scale
I1109 14:47:03.491571 16740 net.cpp:150] Setting up conv4_5/expand/scale
I1109 14:47:03.491576 16740 net.cpp:157] Top shape: 2 384 38 64 (1867776)
I1109 14:47:03.491577 16740 net.cpp:165] Memory required for data: 663940448
I1109 14:47:03.491581 16740 layer_factory.hpp:77] Creating layer relu4_5/expand
I1109 14:47:03.491585 16740 net.cpp:100] Creating Layer relu4_5/expand
I1109 14:47:03.491586 16740 net.cpp:434] relu4_5/expand <- conv4_5/expand
I1109 14:47:03.491590 16740 net.cpp:395] relu4_5/expand -> conv4_5/expand (in-place)
I1109 14:47:03.491869 16740 net.cpp:150] Setting up relu4_5/expand
I1109 14:47:03.491875 16740 net.cpp:157] Top shape: 2 384 38 64 (1867776)
I1109 14:47:03.491878 16740 net.cpp:165] Memory required for data: 671411552
I1109 14:47:03.491880 16740 layer_factory.hpp:77] Creating layer conv4_5/dwise
I1109 14:47:03.491888 16740 net.cpp:100] Creating Layer conv4_5/dwise
I1109 14:47:03.491892 16740 net.cpp:434] conv4_5/dwise <- conv4_5/expand
I1109 14:47:03.491899 16740 net.cpp:408] conv4_5/dwise -> conv4_5/dwise
I1109 14:47:03.492065 16740 net.cpp:150] Setting up conv4_5/dwise
I1109 14:47:03.492070 16740 net.cpp:157] Top shape: 2 384 38 64 (1867776)
I1109 14:47:03.492074 16740 net.cpp:165] Memory required for data: 678882656
I1109 14:47:03.492077 16740 layer_factory.hpp:77] Creating layer conv4_5/dwise/bn
I1109 14:47:03.492082 16740 net.cpp:100] Creating Layer conv4_5/dwise/bn
I1109 14:47:03.492086 16740 net.cpp:434] conv4_5/dwise/bn <- conv4_5/dwise
I1109 14:47:03.492092 16740 net.cpp:395] conv4_5/dwise/bn -> conv4_5/dwise (in-place)
I1109 14:47:03.492244 16740 net.cpp:150] Setting up conv4_5/dwise/bn
I1109 14:47:03.492249 16740 net.cpp:157] Top shape: 2 384 38 64 (1867776)
I1109 14:47:03.492251 16740 net.cpp:165] Memory required for data: 686353760
I1109 14:47:03.492256 16740 layer_factory.hpp:77] Creating layer conv4_5/dwise/scale
I1109 14:47:03.492259 16740 net.cpp:100] Creating Layer conv4_5/dwise/scale
I1109 14:47:03.492262 16740 net.cpp:434] conv4_5/dwise/scale <- conv4_5/dwise
I1109 14:47:03.492265 16740 net.cpp:395] conv4_5/dwise/scale -> conv4_5/dwise (in-place)
I1109 14:47:03.492295 16740 layer_factory.hpp:77] Creating layer conv4_5/dwise/scale
I1109 14:47:03.492388 16740 net.cpp:150] Setting up conv4_5/dwise/scale
I1109 14:47:03.492393 16740 net.cpp:157] Top shape: 2 384 38 64 (1867776)
I1109 14:47:03.492394 16740 net.cpp:165] Memory required for data: 693824864
I1109 14:47:03.492400 16740 layer_factory.hpp:77] Creating layer relu4_5/dwise
I1109 14:47:03.492405 16740 net.cpp:100] Creating Layer relu4_5/dwise
I1109 14:47:03.492408 16740 net.cpp:434] relu4_5/dwise <- conv4_5/dwise
I1109 14:47:03.492414 16740 net.cpp:395] relu4_5/dwise -> conv4_5/dwise (in-place)
I1109 14:47:03.492796 16740 net.cpp:150] Setting up relu4_5/dwise
I1109 14:47:03.492803 16740 net.cpp:157] Top shape: 2 384 38 64 (1867776)
I1109 14:47:03.492806 16740 net.cpp:165] Memory required for data: 701295968
I1109 14:47:03.492810 16740 layer_factory.hpp:77] Creating layer conv4_5/linear
I1109 14:47:03.492818 16740 net.cpp:100] Creating Layer conv4_5/linear
I1109 14:47:03.492822 16740 net.cpp:434] conv4_5/linear <- conv4_5/dwise
I1109 14:47:03.492828 16740 net.cpp:408] conv4_5/linear -> conv4_5/linear
I1109 14:47:03.494029 16740 net.cpp:150] Setting up conv4_5/linear
I1109 14:47:03.494036 16740 net.cpp:157] Top shape: 2 64 38 64 (311296)
I1109 14:47:03.494038 16740 net.cpp:165] Memory required for data: 702541152
I1109 14:47:03.494043 16740 layer_factory.hpp:77] Creating layer conv4_5/linear/bn
I1109 14:47:03.494050 16740 net.cpp:100] Creating Layer conv4_5/linear/bn
I1109 14:47:03.494055 16740 net.cpp:434] conv4_5/linear/bn <- conv4_5/linear
I1109 14:47:03.494062 16740 net.cpp:395] conv4_5/linear/bn -> conv4_5/linear (in-place)
I1109 14:47:03.494211 16740 net.cpp:150] Setting up conv4_5/linear/bn
I1109 14:47:03.494215 16740 net.cpp:157] Top shape: 2 64 38 64 (311296)
I1109 14:47:03.494217 16740 net.cpp:165] Memory required for data: 703786336
I1109 14:47:03.494225 16740 layer_factory.hpp:77] Creating layer conv4_5/linear/scale
I1109 14:47:03.494231 16740 net.cpp:100] Creating Layer conv4_5/linear/scale
I1109 14:47:03.494235 16740 net.cpp:434] conv4_5/linear/scale <- conv4_5/linear
I1109 14:47:03.494240 16740 net.cpp:395] conv4_5/linear/scale -> conv4_5/linear (in-place)
I1109 14:47:03.494277 16740 layer_factory.hpp:77] Creating layer conv4_5/linear/scale
I1109 14:47:03.494360 16740 net.cpp:150] Setting up conv4_5/linear/scale
I1109 14:47:03.494365 16740 net.cpp:157] Top shape: 2 64 38 64 (311296)
I1109 14:47:03.494367 16740 net.cpp:165] Memory required for data: 705031520
I1109 14:47:03.494374 16740 layer_factory.hpp:77] Creating layer block_4_5
I1109 14:47:03.494380 16740 net.cpp:100] Creating Layer block_4_5
I1109 14:47:03.494385 16740 net.cpp:434] block_4_5 <- block_4_4_block_4_4_0_split_1
I1109 14:47:03.494390 16740 net.cpp:434] block_4_5 <- conv4_5/linear
I1109 14:47:03.494396 16740 net.cpp:408] block_4_5 -> block_4_5
I1109 14:47:03.494417 16740 net.cpp:150] Setting up block_4_5
I1109 14:47:03.494421 16740 net.cpp:157] Top shape: 2 64 38 64 (311296)
I1109 14:47:03.494423 16740 net.cpp:165] Memory required for data: 706276704
I1109 14:47:03.494426 16740 layer_factory.hpp:77] Creating layer block_4_5_block_4_5_0_split
I1109 14:47:03.494433 16740 net.cpp:100] Creating Layer block_4_5_block_4_5_0_split
I1109 14:47:03.494437 16740 net.cpp:434] block_4_5_block_4_5_0_split <- block_4_5
I1109 14:47:03.494442 16740 net.cpp:408] block_4_5_block_4_5_0_split -> block_4_5_block_4_5_0_split_0
I1109 14:47:03.494448 16740 net.cpp:408] block_4_5_block_4_5_0_split -> block_4_5_block_4_5_0_split_1
I1109 14:47:03.494490 16740 net.cpp:150] Setting up block_4_5_block_4_5_0_split
I1109 14:47:03.494494 16740 net.cpp:157] Top shape: 2 64 38 64 (311296)
I1109 14:47:03.494498 16740 net.cpp:157] Top shape: 2 64 38 64 (311296)
I1109 14:47:03.494501 16740 net.cpp:165] Memory required for data: 708767072
I1109 14:47:03.494505 16740 layer_factory.hpp:77] Creating layer conv4_6/expand
I1109 14:47:03.494513 16740 net.cpp:100] Creating Layer conv4_6/expand
I1109 14:47:03.494516 16740 net.cpp:434] conv4_6/expand <- block_4_5_block_4_5_0_split_0
I1109 14:47:03.494524 16740 net.cpp:408] conv4_6/expand -> conv4_6/expand
I1109 14:47:03.495738 16740 net.cpp:150] Setting up conv4_6/expand
I1109 14:47:03.495745 16740 net.cpp:157] Top shape: 2 384 38 64 (1867776)
I1109 14:47:03.495748 16740 net.cpp:165] Memory required for data: 716238176
I1109 14:47:03.495754 16740 layer_factory.hpp:77] Creating layer conv4_6/expand/bn
I1109 14:47:03.495760 16740 net.cpp:100] Creating Layer conv4_6/expand/bn
I1109 14:47:03.495764 16740 net.cpp:434] conv4_6/expand/bn <- conv4_6/expand
I1109 14:47:03.495770 16740 net.cpp:395] conv4_6/expand/bn -> conv4_6/expand (in-place)
I1109 14:47:03.495915 16740 net.cpp:150] Setting up conv4_6/expand/bn
I1109 14:47:03.495920 16740 net.cpp:157] Top shape: 2 384 38 64 (1867776)
I1109 14:47:03.495923 16740 net.cpp:165] Memory required for data: 723709280
I1109 14:47:03.495929 16740 layer_factory.hpp:77] Creating layer conv4_6/expand/scale
I1109 14:47:03.495934 16740 net.cpp:100] Creating Layer conv4_6/expand/scale
I1109 14:47:03.495939 16740 net.cpp:434] conv4_6/expand/scale <- conv4_6/expand
I1109 14:47:03.495945 16740 net.cpp:395] conv4_6/expand/scale -> conv4_6/expand (in-place)
I1109 14:47:03.495977 16740 layer_factory.hpp:77] Creating layer conv4_6/expand/scale
I1109 14:47:03.496057 16740 net.cpp:150] Setting up conv4_6/expand/scale
I1109 14:47:03.496062 16740 net.cpp:157] Top shape: 2 384 38 64 (1867776)
I1109 14:47:03.496065 16740 net.cpp:165] Memory required for data: 731180384
I1109 14:47:03.496070 16740 layer_factory.hpp:77] Creating layer relu4_6/expand
I1109 14:47:03.496078 16740 net.cpp:100] Creating Layer relu4_6/expand
I1109 14:47:03.496081 16740 net.cpp:434] relu4_6/expand <- conv4_6/expand
I1109 14:47:03.496086 16740 net.cpp:395] relu4_6/expand -> conv4_6/expand (in-place)
I1109 14:47:03.497174 16740 net.cpp:150] Setting up relu4_6/expand
I1109 14:47:03.497182 16740 net.cpp:157] Top shape: 2 384 38 64 (1867776)
I1109 14:47:03.497185 16740 net.cpp:165] Memory required for data: 738651488
I1109 14:47:03.497189 16740 layer_factory.hpp:77] Creating layer conv4_6/dwise
I1109 14:47:03.497195 16740 net.cpp:100] Creating Layer conv4_6/dwise
I1109 14:47:03.497200 16740 net.cpp:434] conv4_6/dwise <- conv4_6/expand
I1109 14:47:03.497207 16740 net.cpp:408] conv4_6/dwise -> conv4_6/dwise
I1109 14:47:03.497380 16740 net.cpp:150] Setting up conv4_6/dwise
I1109 14:47:03.497385 16740 net.cpp:157] Top shape: 2 384 38 64 (1867776)
I1109 14:47:03.497385 16740 net.cpp:165] Memory required for data: 746122592
I1109 14:47:03.497391 16740 layer_factory.hpp:77] Creating layer conv4_6/dwise/bn
I1109 14:47:03.497398 16740 net.cpp:100] Creating Layer conv4_6/dwise/bn
I1109 14:47:03.497402 16740 net.cpp:434] conv4_6/dwise/bn <- conv4_6/dwise
I1109 14:47:03.497407 16740 net.cpp:395] conv4_6/dwise/bn -> conv4_6/dwise (in-place)
I1109 14:47:03.497548 16740 net.cpp:150] Setting up conv4_6/dwise/bn
I1109 14:47:03.497553 16740 net.cpp:157] Top shape: 2 384 38 64 (1867776)
I1109 14:47:03.497556 16740 net.cpp:165] Memory required for data: 753593696
I1109 14:47:03.497562 16740 layer_factory.hpp:77] Creating layer conv4_6/dwise/scale
I1109 14:47:03.497570 16740 net.cpp:100] Creating Layer conv4_6/dwise/scale
I1109 14:47:03.497575 16740 net.cpp:434] conv4_6/dwise/scale <- conv4_6/dwise
I1109 14:47:03.497579 16740 net.cpp:395] conv4_6/dwise/scale -> conv4_6/dwise (in-place)
I1109 14:47:03.497613 16740 layer_factory.hpp:77] Creating layer conv4_6/dwise/scale
I1109 14:47:03.497694 16740 net.cpp:150] Setting up conv4_6/dwise/scale
I1109 14:47:03.497707 16740 net.cpp:157] Top shape: 2 384 38 64 (1867776)
I1109 14:47:03.497710 16740 net.cpp:165] Memory required for data: 761064800
I1109 14:47:03.497715 16740 layer_factory.hpp:77] Creating layer relu4_6/dwise
I1109 14:47:03.497720 16740 net.cpp:100] Creating Layer relu4_6/dwise
I1109 14:47:03.497725 16740 net.cpp:434] relu4_6/dwise <- conv4_6/dwise
I1109 14:47:03.497730 16740 net.cpp:395] relu4_6/dwise -> conv4_6/dwise (in-place)
I1109 14:47:03.498011 16740 net.cpp:150] Setting up relu4_6/dwise
I1109 14:47:03.498018 16740 net.cpp:157] Top shape: 2 384 38 64 (1867776)
I1109 14:47:03.498019 16740 net.cpp:165] Memory required for data: 768535904
I1109 14:47:03.498023 16740 layer_factory.hpp:77] Creating layer conv4_6/linear
I1109 14:47:03.498028 16740 net.cpp:100] Creating Layer conv4_6/linear
I1109 14:47:03.498030 16740 net.cpp:434] conv4_6/linear <- conv4_6/dwise
I1109 14:47:03.498034 16740 net.cpp:408] conv4_6/linear -> conv4_6/linear
I1109 14:47:03.499250 16740 net.cpp:150] Setting up conv4_6/linear
I1109 14:47:03.499258 16740 net.cpp:157] Top shape: 2 64 38 64 (311296)
I1109 14:47:03.499259 16740 net.cpp:165] Memory required for data: 769781088
I1109 14:47:03.499263 16740 layer_factory.hpp:77] Creating layer conv4_6/linear/bn
I1109 14:47:03.499267 16740 net.cpp:100] Creating Layer conv4_6/linear/bn
I1109 14:47:03.499269 16740 net.cpp:434] conv4_6/linear/bn <- conv4_6/linear
I1109 14:47:03.499274 16740 net.cpp:395] conv4_6/linear/bn -> conv4_6/linear (in-place)
I1109 14:47:03.499425 16740 net.cpp:150] Setting up conv4_6/linear/bn
I1109 14:47:03.499430 16740 net.cpp:157] Top shape: 2 64 38 64 (311296)
I1109 14:47:03.499433 16740 net.cpp:165] Memory required for data: 771026272
I1109 14:47:03.499438 16740 layer_factory.hpp:77] Creating layer conv4_6/linear/scale
I1109 14:47:03.499440 16740 net.cpp:100] Creating Layer conv4_6/linear/scale
I1109 14:47:03.499444 16740 net.cpp:434] conv4_6/linear/scale <- conv4_6/linear
I1109 14:47:03.499447 16740 net.cpp:395] conv4_6/linear/scale -> conv4_6/linear (in-place)
I1109 14:47:03.499481 16740 layer_factory.hpp:77] Creating layer conv4_6/linear/scale
I1109 14:47:03.499567 16740 net.cpp:150] Setting up conv4_6/linear/scale
I1109 14:47:03.499572 16740 net.cpp:157] Top shape: 2 64 38 64 (311296)
I1109 14:47:03.499574 16740 net.cpp:165] Memory required for data: 772271456
I1109 14:47:03.499577 16740 layer_factory.hpp:77] Creating layer block_4_6
I1109 14:47:03.499581 16740 net.cpp:100] Creating Layer block_4_6
I1109 14:47:03.499584 16740 net.cpp:434] block_4_6 <- block_4_5_block_4_5_0_split_1
I1109 14:47:03.499586 16740 net.cpp:434] block_4_6 <- conv4_6/linear
I1109 14:47:03.499590 16740 net.cpp:408] block_4_6 -> block_4_6
I1109 14:47:03.499611 16740 net.cpp:150] Setting up block_4_6
I1109 14:47:03.499616 16740 net.cpp:157] Top shape: 2 64 38 64 (311296)
I1109 14:47:03.499619 16740 net.cpp:165] Memory required for data: 773516640
I1109 14:47:03.499621 16740 layer_factory.hpp:77] Creating layer conv4_7/expand
I1109 14:47:03.499639 16740 net.cpp:100] Creating Layer conv4_7/expand
I1109 14:47:03.499642 16740 net.cpp:434] conv4_7/expand <- block_4_6
I1109 14:47:03.499646 16740 net.cpp:408] conv4_7/expand -> conv4_7/expand
I1109 14:47:03.500857 16740 net.cpp:150] Setting up conv4_7/expand
I1109 14:47:03.500865 16740 net.cpp:157] Top shape: 2 384 38 64 (1867776)
I1109 14:47:03.500867 16740 net.cpp:165] Memory required for data: 780987744
I1109 14:47:03.500872 16740 layer_factory.hpp:77] Creating layer conv4_7/expand/bn
I1109 14:47:03.500877 16740 net.cpp:100] Creating Layer conv4_7/expand/bn
I1109 14:47:03.500881 16740 net.cpp:434] conv4_7/expand/bn <- conv4_7/expand
I1109 14:47:03.500888 16740 net.cpp:395] conv4_7/expand/bn -> conv4_7/expand (in-place)
I1109 14:47:03.501035 16740 net.cpp:150] Setting up conv4_7/expand/bn
I1109 14:47:03.501039 16740 net.cpp:157] Top shape: 2 384 38 64 (1867776)
I1109 14:47:03.501041 16740 net.cpp:165] Memory required for data: 788458848
I1109 14:47:03.501049 16740 layer_factory.hpp:77] Creating layer conv4_7/expand/scale
I1109 14:47:03.501062 16740 net.cpp:100] Creating Layer conv4_7/expand/scale
I1109 14:47:03.501066 16740 net.cpp:434] conv4_7/expand/scale <- conv4_7/expand
I1109 14:47:03.501072 16740 net.cpp:395] conv4_7/expand/scale -> conv4_7/expand (in-place)
I1109 14:47:03.501106 16740 layer_factory.hpp:77] Creating layer conv4_7/expand/scale
I1109 14:47:03.501189 16740 net.cpp:150] Setting up conv4_7/expand/scale
I1109 14:47:03.501194 16740 net.cpp:157] Top shape: 2 384 38 64 (1867776)
I1109 14:47:03.501196 16740 net.cpp:165] Memory required for data: 795929952
I1109 14:47:03.501201 16740 layer_factory.hpp:77] Creating layer relu4_7/expand
I1109 14:47:03.501207 16740 net.cpp:100] Creating Layer relu4_7/expand
I1109 14:47:03.501211 16740 net.cpp:434] relu4_7/expand <- conv4_7/expand
I1109 14:47:03.501219 16740 net.cpp:395] relu4_7/expand -> conv4_7/expand (in-place)
I1109 14:47:03.501603 16740 net.cpp:150] Setting up relu4_7/expand
I1109 14:47:03.501610 16740 net.cpp:157] Top shape: 2 384 38 64 (1867776)
I1109 14:47:03.501613 16740 net.cpp:165] Memory required for data: 803401056
I1109 14:47:03.501616 16740 layer_factory.hpp:77] Creating layer conv4_7/dwise
I1109 14:47:03.501623 16740 net.cpp:100] Creating Layer conv4_7/dwise
I1109 14:47:03.501627 16740 net.cpp:434] conv4_7/dwise <- conv4_7/expand
I1109 14:47:03.501636 16740 net.cpp:408] conv4_7/dwise -> conv4_7/dwise
I1109 14:47:03.501803 16740 net.cpp:150] Setting up conv4_7/dwise
I1109 14:47:03.501808 16740 net.cpp:157] Top shape: 2 384 19 32 (466944)
I1109 14:47:03.501811 16740 net.cpp:165] Memory required for data: 805268832
I1109 14:47:03.501816 16740 layer_factory.hpp:77] Creating layer conv4_7/dwise/bn
I1109 14:47:03.501821 16740 net.cpp:100] Creating Layer conv4_7/dwise/bn
I1109 14:47:03.501824 16740 net.cpp:434] conv4_7/dwise/bn <- conv4_7/dwise
I1109 14:47:03.501829 16740 net.cpp:395] conv4_7/dwise/bn -> conv4_7/dwise (in-place)
I1109 14:47:03.501971 16740 net.cpp:150] Setting up conv4_7/dwise/bn
I1109 14:47:03.501976 16740 net.cpp:157] Top shape: 2 384 19 32 (466944)
I1109 14:47:03.501977 16740 net.cpp:165] Memory required for data: 807136608
I1109 14:47:03.501984 16740 layer_factory.hpp:77] Creating layer conv4_7/dwise/scale
I1109 14:47:03.501991 16740 net.cpp:100] Creating Layer conv4_7/dwise/scale
I1109 14:47:03.501994 16740 net.cpp:434] conv4_7/dwise/scale <- conv4_7/dwise
I1109 14:47:03.502001 16740 net.cpp:395] conv4_7/dwise/scale -> conv4_7/dwise (in-place)
I1109 14:47:03.502038 16740 layer_factory.hpp:77] Creating layer conv4_7/dwise/scale
I1109 14:47:03.502126 16740 net.cpp:150] Setting up conv4_7/dwise/scale
I1109 14:47:03.502131 16740 net.cpp:157] Top shape: 2 384 19 32 (466944)
I1109 14:47:03.502133 16740 net.cpp:165] Memory required for data: 809004384
I1109 14:47:03.502137 16740 layer_factory.hpp:77] Creating layer relu4_7/dwise
I1109 14:47:03.502140 16740 net.cpp:100] Creating Layer relu4_7/dwise
I1109 14:47:03.502142 16740 net.cpp:434] relu4_7/dwise <- conv4_7/dwise
I1109 14:47:03.502146 16740 net.cpp:395] relu4_7/dwise -> conv4_7/dwise (in-place)
I1109 14:47:03.502423 16740 net.cpp:150] Setting up relu4_7/dwise
I1109 14:47:03.502429 16740 net.cpp:157] Top shape: 2 384 19 32 (466944)
I1109 14:47:03.502430 16740 net.cpp:165] Memory required for data: 810872160
I1109 14:47:03.502432 16740 layer_factory.hpp:77] Creating layer conv4_7/linear
I1109 14:47:03.502439 16740 net.cpp:100] Creating Layer conv4_7/linear
I1109 14:47:03.502441 16740 net.cpp:434] conv4_7/linear <- conv4_7/dwise
I1109 14:47:03.502445 16740 net.cpp:408] conv4_7/linear -> conv4_7/linear
I1109 14:47:03.504839 16740 net.cpp:150] Setting up conv4_7/linear
I1109 14:47:03.504856 16740 net.cpp:157] Top shape: 2 96 19 32 (116736)
I1109 14:47:03.504858 16740 net.cpp:165] Memory required for data: 811339104
I1109 14:47:03.504864 16740 layer_factory.hpp:77] Creating layer conv4_7/linear/bn
I1109 14:47:03.504871 16740 net.cpp:100] Creating Layer conv4_7/linear/bn
I1109 14:47:03.504875 16740 net.cpp:434] conv4_7/linear/bn <- conv4_7/linear
I1109 14:47:03.504879 16740 net.cpp:395] conv4_7/linear/bn -> conv4_7/linear (in-place)
I1109 14:47:03.505060 16740 net.cpp:150] Setting up conv4_7/linear/bn
I1109 14:47:03.505065 16740 net.cpp:157] Top shape: 2 96 19 32 (116736)
I1109 14:47:03.505067 16740 net.cpp:165] Memory required for data: 811806048
I1109 14:47:03.505072 16740 layer_factory.hpp:77] Creating layer conv4_7/linear/scale
I1109 14:47:03.505077 16740 net.cpp:100] Creating Layer conv4_7/linear/scale
I1109 14:47:03.505079 16740 net.cpp:434] conv4_7/linear/scale <- conv4_7/linear
I1109 14:47:03.505084 16740 net.cpp:395] conv4_7/linear/scale -> conv4_7/linear (in-place)
I1109 14:47:03.505122 16740 layer_factory.hpp:77] Creating layer conv4_7/linear/scale
I1109 14:47:03.505218 16740 net.cpp:150] Setting up conv4_7/linear/scale
I1109 14:47:03.505223 16740 net.cpp:157] Top shape: 2 96 19 32 (116736)
I1109 14:47:03.505225 16740 net.cpp:165] Memory required for data: 812272992
I1109 14:47:03.505230 16740 layer_factory.hpp:77] Creating layer conv4_7/linear_conv4_7/linear/scale_0_split
I1109 14:47:03.505237 16740 net.cpp:100] Creating Layer conv4_7/linear_conv4_7/linear/scale_0_split
I1109 14:47:03.505241 16740 net.cpp:434] conv4_7/linear_conv4_7/linear/scale_0_split <- conv4_7/linear
I1109 14:47:03.505246 16740 net.cpp:408] conv4_7/linear_conv4_7/linear/scale_0_split -> conv4_7/linear_conv4_7/linear/scale_0_split_0
I1109 14:47:03.505254 16740 net.cpp:408] conv4_7/linear_conv4_7/linear/scale_0_split -> conv4_7/linear_conv4_7/linear/scale_0_split_1
I1109 14:47:03.505287 16740 net.cpp:150] Setting up conv4_7/linear_conv4_7/linear/scale_0_split
I1109 14:47:03.505291 16740 net.cpp:157] Top shape: 2 96 19 32 (116736)
I1109 14:47:03.505295 16740 net.cpp:157] Top shape: 2 96 19 32 (116736)
I1109 14:47:03.505297 16740 net.cpp:165] Memory required for data: 813206880
I1109 14:47:03.505300 16740 layer_factory.hpp:77] Creating layer conv5_1/expand
I1109 14:47:03.505306 16740 net.cpp:100] Creating Layer conv5_1/expand
I1109 14:47:03.505307 16740 net.cpp:434] conv5_1/expand <- conv4_7/linear_conv4_7/linear/scale_0_split_0
I1109 14:47:03.505311 16740 net.cpp:408] conv5_1/expand -> conv5_1/expand
I1109 14:47:03.506830 16740 net.cpp:150] Setting up conv5_1/expand
I1109 14:47:03.506837 16740 net.cpp:157] Top shape: 2 576 19 32 (700416)
I1109 14:47:03.506839 16740 net.cpp:165] Memory required for data: 816008544
I1109 14:47:03.506844 16740 layer_factory.hpp:77] Creating layer conv5_1/expand/bn
I1109 14:47:03.506848 16740 net.cpp:100] Creating Layer conv5_1/expand/bn
I1109 14:47:03.506850 16740 net.cpp:434] conv5_1/expand/bn <- conv5_1/expand
I1109 14:47:03.506855 16740 net.cpp:395] conv5_1/expand/bn -> conv5_1/expand (in-place)
I1109 14:47:03.507016 16740 net.cpp:150] Setting up conv5_1/expand/bn
I1109 14:47:03.507021 16740 net.cpp:157] Top shape: 2 576 19 32 (700416)
I1109 14:47:03.507023 16740 net.cpp:165] Memory required for data: 818810208
I1109 14:47:03.507027 16740 layer_factory.hpp:77] Creating layer conv5_1/expand/scale
I1109 14:47:03.507032 16740 net.cpp:100] Creating Layer conv5_1/expand/scale
I1109 14:47:03.507035 16740 net.cpp:434] conv5_1/expand/scale <- conv5_1/expand
I1109 14:47:03.507037 16740 net.cpp:395] conv5_1/expand/scale -> conv5_1/expand (in-place)
I1109 14:47:03.507073 16740 layer_factory.hpp:77] Creating layer conv5_1/expand/scale
I1109 14:47:03.507169 16740 net.cpp:150] Setting up conv5_1/expand/scale
I1109 14:47:03.507174 16740 net.cpp:157] Top shape: 2 576 19 32 (700416)
I1109 14:47:03.507176 16740 net.cpp:165] Memory required for data: 821611872
I1109 14:47:03.507181 16740 layer_factory.hpp:77] Creating layer relu5_1/expand
I1109 14:47:03.507187 16740 net.cpp:100] Creating Layer relu5_1/expand
I1109 14:47:03.507191 16740 net.cpp:434] relu5_1/expand <- conv5_1/expand
I1109 14:47:03.507196 16740 net.cpp:395] relu5_1/expand -> conv5_1/expand (in-place)
I1109 14:47:03.507480 16740 net.cpp:150] Setting up relu5_1/expand
I1109 14:47:03.507488 16740 net.cpp:157] Top shape: 2 576 19 32 (700416)
I1109 14:47:03.507490 16740 net.cpp:165] Memory required for data: 824413536
I1109 14:47:03.507493 16740 layer_factory.hpp:77] Creating layer conv5_1/dwise
I1109 14:47:03.507509 16740 net.cpp:100] Creating Layer conv5_1/dwise
I1109 14:47:03.507514 16740 net.cpp:434] conv5_1/dwise <- conv5_1/expand
I1109 14:47:03.507520 16740 net.cpp:408] conv5_1/dwise -> conv5_1/dwise
I1109 14:47:03.507704 16740 net.cpp:150] Setting up conv5_1/dwise
I1109 14:47:03.507709 16740 net.cpp:157] Top shape: 2 576 19 32 (700416)
I1109 14:47:03.507712 16740 net.cpp:165] Memory required for data: 827215200
I1109 14:47:03.507715 16740 layer_factory.hpp:77] Creating layer conv5_1/dwise/bn
I1109 14:47:03.507719 16740 net.cpp:100] Creating Layer conv5_1/dwise/bn
I1109 14:47:03.507721 16740 net.cpp:434] conv5_1/dwise/bn <- conv5_1/dwise
I1109 14:47:03.507725 16740 net.cpp:395] conv5_1/dwise/bn -> conv5_1/dwise (in-place)
I1109 14:47:03.507880 16740 net.cpp:150] Setting up conv5_1/dwise/bn
I1109 14:47:03.507885 16740 net.cpp:157] Top shape: 2 576 19 32 (700416)
I1109 14:47:03.507887 16740 net.cpp:165] Memory required for data: 830016864
I1109 14:47:03.507891 16740 layer_factory.hpp:77] Creating layer conv5_1/dwise/scale
I1109 14:47:03.507896 16740 net.cpp:100] Creating Layer conv5_1/dwise/scale
I1109 14:47:03.507899 16740 net.cpp:434] conv5_1/dwise/scale <- conv5_1/dwise
I1109 14:47:03.507901 16740 net.cpp:395] conv5_1/dwise/scale -> conv5_1/dwise (in-place)
I1109 14:47:03.507936 16740 layer_factory.hpp:77] Creating layer conv5_1/dwise/scale
I1109 14:47:03.508029 16740 net.cpp:150] Setting up conv5_1/dwise/scale
I1109 14:47:03.508034 16740 net.cpp:157] Top shape: 2 576 19 32 (700416)
I1109 14:47:03.508036 16740 net.cpp:165] Memory required for data: 832818528
I1109 14:47:03.508044 16740 layer_factory.hpp:77] Creating layer relu5_1/dwise
I1109 14:47:03.508049 16740 net.cpp:100] Creating Layer relu5_1/dwise
I1109 14:47:03.508052 16740 net.cpp:434] relu5_1/dwise <- conv5_1/dwise
I1109 14:47:03.508057 16740 net.cpp:395] relu5_1/dwise -> conv5_1/dwise (in-place)
I1109 14:47:03.508338 16740 net.cpp:150] Setting up relu5_1/dwise
I1109 14:47:03.508343 16740 net.cpp:157] Top shape: 2 576 19 32 (700416)
I1109 14:47:03.508347 16740 net.cpp:165] Memory required for data: 835620192
I1109 14:47:03.508349 16740 layer_factory.hpp:77] Creating layer conv5_1/linear
I1109 14:47:03.508358 16740 net.cpp:100] Creating Layer conv5_1/linear
I1109 14:47:03.508365 16740 net.cpp:434] conv5_1/linear <- conv5_1/dwise
I1109 14:47:03.508370 16740 net.cpp:408] conv5_1/linear -> conv5_1/linear
I1109 14:47:03.511389 16740 net.cpp:150] Setting up conv5_1/linear
I1109 14:47:03.511404 16740 net.cpp:157] Top shape: 2 96 19 32 (116736)
I1109 14:47:03.511406 16740 net.cpp:165] Memory required for data: 836087136
I1109 14:47:03.511412 16740 layer_factory.hpp:77] Creating layer conv5_1/linear/bn
I1109 14:47:03.511420 16740 net.cpp:100] Creating Layer conv5_1/linear/bn
I1109 14:47:03.511425 16740 net.cpp:434] conv5_1/linear/bn <- conv5_1/linear
I1109 14:47:03.511430 16740 net.cpp:395] conv5_1/linear/bn -> conv5_1/linear (in-place)
I1109 14:47:03.511646 16740 net.cpp:150] Setting up conv5_1/linear/bn
I1109 14:47:03.511656 16740 net.cpp:157] Top shape: 2 96 19 32 (116736)
I1109 14:47:03.511658 16740 net.cpp:165] Memory required for data: 836554080
I1109 14:47:03.511664 16740 layer_factory.hpp:77] Creating layer conv5_1/linear/scale
I1109 14:47:03.511672 16740 net.cpp:100] Creating Layer conv5_1/linear/scale
I1109 14:47:03.511675 16740 net.cpp:434] conv5_1/linear/scale <- conv5_1/linear
I1109 14:47:03.511680 16740 net.cpp:395] conv5_1/linear/scale -> conv5_1/linear (in-place)
I1109 14:47:03.511728 16740 layer_factory.hpp:77] Creating layer conv5_1/linear/scale
I1109 14:47:03.511864 16740 net.cpp:150] Setting up conv5_1/linear/scale
I1109 14:47:03.511873 16740 net.cpp:157] Top shape: 2 96 19 32 (116736)
I1109 14:47:03.511876 16740 net.cpp:165] Memory required for data: 837021024
I1109 14:47:03.511883 16740 layer_factory.hpp:77] Creating layer block_5_1
I1109 14:47:03.511888 16740 net.cpp:100] Creating Layer block_5_1
I1109 14:47:03.511893 16740 net.cpp:434] block_5_1 <- conv4_7/linear_conv4_7/linear/scale_0_split_1
I1109 14:47:03.511909 16740 net.cpp:434] block_5_1 <- conv5_1/linear
I1109 14:47:03.511915 16740 net.cpp:408] block_5_1 -> block_5_1
I1109 14:47:03.511940 16740 net.cpp:150] Setting up block_5_1
I1109 14:47:03.511946 16740 net.cpp:157] Top shape: 2 96 19 32 (116736)
I1109 14:47:03.511950 16740 net.cpp:165] Memory required for data: 837487968
I1109 14:47:03.511952 16740 layer_factory.hpp:77] Creating layer block_5_1_block_5_1_0_split
I1109 14:47:03.511956 16740 net.cpp:100] Creating Layer block_5_1_block_5_1_0_split
I1109 14:47:03.511960 16740 net.cpp:434] block_5_1_block_5_1_0_split <- block_5_1
I1109 14:47:03.511963 16740 net.cpp:408] block_5_1_block_5_1_0_split -> block_5_1_block_5_1_0_split_0
I1109 14:47:03.511967 16740 net.cpp:408] block_5_1_block_5_1_0_split -> block_5_1_block_5_1_0_split_1
I1109 14:47:03.511996 16740 net.cpp:150] Setting up block_5_1_block_5_1_0_split
I1109 14:47:03.511998 16740 net.cpp:157] Top shape: 2 96 19 32 (116736)
I1109 14:47:03.512001 16740 net.cpp:157] Top shape: 2 96 19 32 (116736)
I1109 14:47:03.512003 16740 net.cpp:165] Memory required for data: 838421856
I1109 14:47:03.512004 16740 layer_factory.hpp:77] Creating layer conv5_2/expand
I1109 14:47:03.512009 16740 net.cpp:100] Creating Layer conv5_2/expand
I1109 14:47:03.512012 16740 net.cpp:434] conv5_2/expand <- block_5_1_block_5_1_0_split_0
I1109 14:47:03.512015 16740 net.cpp:408] conv5_2/expand -> conv5_2/expand
I1109 14:47:03.513562 16740 net.cpp:150] Setting up conv5_2/expand
I1109 14:47:03.513571 16740 net.cpp:157] Top shape: 2 576 19 32 (700416)
I1109 14:47:03.513573 16740 net.cpp:165] Memory required for data: 841223520
I1109 14:47:03.513578 16740 layer_factory.hpp:77] Creating layer conv5_2/expand/bn
I1109 14:47:03.513584 16740 net.cpp:100] Creating Layer conv5_2/expand/bn
I1109 14:47:03.513588 16740 net.cpp:434] conv5_2/expand/bn <- conv5_2/expand
I1109 14:47:03.513595 16740 net.cpp:395] conv5_2/expand/bn -> conv5_2/expand (in-place)
I1109 14:47:03.513764 16740 net.cpp:150] Setting up conv5_2/expand/bn
I1109 14:47:03.513768 16740 net.cpp:157] Top shape: 2 576 19 32 (700416)
I1109 14:47:03.513770 16740 net.cpp:165] Memory required for data: 844025184
I1109 14:47:03.513777 16740 layer_factory.hpp:77] Creating layer conv5_2/expand/scale
I1109 14:47:03.513783 16740 net.cpp:100] Creating Layer conv5_2/expand/scale
I1109 14:47:03.513787 16740 net.cpp:434] conv5_2/expand/scale <- conv5_2/expand
I1109 14:47:03.513789 16740 net.cpp:395] conv5_2/expand/scale -> conv5_2/expand (in-place)
I1109 14:47:03.513830 16740 layer_factory.hpp:77] Creating layer conv5_2/expand/scale
I1109 14:47:03.513927 16740 net.cpp:150] Setting up conv5_2/expand/scale
I1109 14:47:03.513932 16740 net.cpp:157] Top shape: 2 576 19 32 (700416)
I1109 14:47:03.513934 16740 net.cpp:165] Memory required for data: 846826848
I1109 14:47:03.513940 16740 layer_factory.hpp:77] Creating layer relu5_2/expand
I1109 14:47:03.513945 16740 net.cpp:100] Creating Layer relu5_2/expand
I1109 14:47:03.513949 16740 net.cpp:434] relu5_2/expand <- conv5_2/expand
I1109 14:47:03.513955 16740 net.cpp:395] relu5_2/expand -> conv5_2/expand (in-place)
I1109 14:47:03.514245 16740 net.cpp:150] Setting up relu5_2/expand
I1109 14:47:03.514250 16740 net.cpp:157] Top shape: 2 576 19 32 (700416)
I1109 14:47:03.514252 16740 net.cpp:165] Memory required for data: 849628512
I1109 14:47:03.514256 16740 layer_factory.hpp:77] Creating layer conv5_2/dwise
I1109 14:47:03.514263 16740 net.cpp:100] Creating Layer conv5_2/dwise
I1109 14:47:03.514267 16740 net.cpp:434] conv5_2/dwise <- conv5_2/expand
I1109 14:47:03.514273 16740 net.cpp:408] conv5_2/dwise -> conv5_2/dwise
I1109 14:47:03.514467 16740 net.cpp:150] Setting up conv5_2/dwise
I1109 14:47:03.514472 16740 net.cpp:157] Top shape: 2 576 19 32 (700416)
I1109 14:47:03.514475 16740 net.cpp:165] Memory required for data: 852430176
I1109 14:47:03.514479 16740 layer_factory.hpp:77] Creating layer conv5_2/dwise/bn
I1109 14:47:03.514484 16740 net.cpp:100] Creating Layer conv5_2/dwise/bn
I1109 14:47:03.514489 16740 net.cpp:434] conv5_2/dwise/bn <- conv5_2/dwise
I1109 14:47:03.514506 16740 net.cpp:395] conv5_2/dwise/bn -> conv5_2/dwise (in-place)
I1109 14:47:03.514664 16740 net.cpp:150] Setting up conv5_2/dwise/bn
I1109 14:47:03.514669 16740 net.cpp:157] Top shape: 2 576 19 32 (700416)
I1109 14:47:03.514672 16740 net.cpp:165] Memory required for data: 855231840
I1109 14:47:03.514679 16740 layer_factory.hpp:77] Creating layer conv5_2/dwise/scale
I1109 14:47:03.514685 16740 net.cpp:100] Creating Layer conv5_2/dwise/scale
I1109 14:47:03.514689 16740 net.cpp:434] conv5_2/dwise/scale <- conv5_2/dwise
I1109 14:47:03.514694 16740 net.cpp:395] conv5_2/dwise/scale -> conv5_2/dwise (in-place)
I1109 14:47:03.514731 16740 layer_factory.hpp:77] Creating layer conv5_2/dwise/scale
I1109 14:47:03.514827 16740 net.cpp:150] Setting up conv5_2/dwise/scale
I1109 14:47:03.514832 16740 net.cpp:157] Top shape: 2 576 19 32 (700416)
I1109 14:47:03.514835 16740 net.cpp:165] Memory required for data: 858033504
I1109 14:47:03.514842 16740 layer_factory.hpp:77] Creating layer relu5_2/dwise
I1109 14:47:03.514847 16740 net.cpp:100] Creating Layer relu5_2/dwise
I1109 14:47:03.514849 16740 net.cpp:434] relu5_2/dwise <- conv5_2/dwise
I1109 14:47:03.514855 16740 net.cpp:395] relu5_2/dwise -> conv5_2/dwise (in-place)
I1109 14:47:03.515254 16740 net.cpp:150] Setting up relu5_2/dwise
I1109 14:47:03.515260 16740 net.cpp:157] Top shape: 2 576 19 32 (700416)
I1109 14:47:03.515264 16740 net.cpp:165] Memory required for data: 860835168
I1109 14:47:03.515266 16740 layer_factory.hpp:77] Creating layer conv5_2/linear
I1109 14:47:03.515275 16740 net.cpp:100] Creating Layer conv5_2/linear
I1109 14:47:03.515280 16740 net.cpp:434] conv5_2/linear <- conv5_2/dwise
I1109 14:47:03.515286 16740 net.cpp:408] conv5_2/linear -> conv5_2/linear
I1109 14:47:03.516696 16740 net.cpp:150] Setting up conv5_2/linear
I1109 14:47:03.516705 16740 net.cpp:157] Top shape: 2 96 19 32 (116736)
I1109 14:47:03.516706 16740 net.cpp:165] Memory required for data: 861302112
I1109 14:47:03.516710 16740 layer_factory.hpp:77] Creating layer conv5_2/linear/bn
I1109 14:47:03.516716 16740 net.cpp:100] Creating Layer conv5_2/linear/bn
I1109 14:47:03.516717 16740 net.cpp:434] conv5_2/linear/bn <- conv5_2/linear
I1109 14:47:03.516722 16740 net.cpp:395] conv5_2/linear/bn -> conv5_2/linear (in-place)
I1109 14:47:03.516885 16740 net.cpp:150] Setting up conv5_2/linear/bn
I1109 14:47:03.516890 16740 net.cpp:157] Top shape: 2 96 19 32 (116736)
I1109 14:47:03.516891 16740 net.cpp:165] Memory required for data: 861769056
I1109 14:47:03.516896 16740 layer_factory.hpp:77] Creating layer conv5_2/linear/scale
I1109 14:47:03.516901 16740 net.cpp:100] Creating Layer conv5_2/linear/scale
I1109 14:47:03.516903 16740 net.cpp:434] conv5_2/linear/scale <- conv5_2/linear
I1109 14:47:03.516906 16740 net.cpp:395] conv5_2/linear/scale -> conv5_2/linear (in-place)
I1109 14:47:03.516942 16740 layer_factory.hpp:77] Creating layer conv5_2/linear/scale
I1109 14:47:03.517041 16740 net.cpp:150] Setting up conv5_2/linear/scale
I1109 14:47:03.517046 16740 net.cpp:157] Top shape: 2 96 19 32 (116736)
I1109 14:47:03.517048 16740 net.cpp:165] Memory required for data: 862236000
I1109 14:47:03.517052 16740 layer_factory.hpp:77] Creating layer block_5_2
I1109 14:47:03.517056 16740 net.cpp:100] Creating Layer block_5_2
I1109 14:47:03.517060 16740 net.cpp:434] block_5_2 <- block_5_1_block_5_1_0_split_1
I1109 14:47:03.517062 16740 net.cpp:434] block_5_2 <- conv5_2/linear
I1109 14:47:03.517066 16740 net.cpp:408] block_5_2 -> block_5_2
I1109 14:47:03.517087 16740 net.cpp:150] Setting up block_5_2
I1109 14:47:03.517091 16740 net.cpp:157] Top shape: 2 96 19 32 (116736)
I1109 14:47:03.517093 16740 net.cpp:165] Memory required for data: 862702944
I1109 14:47:03.517096 16740 layer_factory.hpp:77] Creating layer conv5_3/expand
I1109 14:47:03.517101 16740 net.cpp:100] Creating Layer conv5_3/expand
I1109 14:47:03.517102 16740 net.cpp:434] conv5_3/expand <- block_5_2
I1109 14:47:03.517107 16740 net.cpp:408] conv5_3/expand -> conv5_3/expand
I1109 14:47:03.519703 16740 net.cpp:150] Setting up conv5_3/expand
I1109 14:47:03.519728 16740 net.cpp:157] Top shape: 2 576 19 32 (700416)
I1109 14:47:03.519731 16740 net.cpp:165] Memory required for data: 865504608
I1109 14:47:03.519735 16740 layer_factory.hpp:77] Creating layer conv5_3/expand/bn
I1109 14:47:03.519742 16740 net.cpp:100] Creating Layer conv5_3/expand/bn
I1109 14:47:03.519744 16740 net.cpp:434] conv5_3/expand/bn <- conv5_3/expand
I1109 14:47:03.519748 16740 net.cpp:395] conv5_3/expand/bn -> conv5_3/expand (in-place)
I1109 14:47:03.519922 16740 net.cpp:150] Setting up conv5_3/expand/bn
I1109 14:47:03.519927 16740 net.cpp:157] Top shape: 2 576 19 32 (700416)
I1109 14:47:03.519928 16740 net.cpp:165] Memory required for data: 868306272
I1109 14:47:03.519932 16740 layer_factory.hpp:77] Creating layer conv5_3/expand/scale
I1109 14:47:03.519937 16740 net.cpp:100] Creating Layer conv5_3/expand/scale
I1109 14:47:03.519939 16740 net.cpp:434] conv5_3/expand/scale <- conv5_3/expand
I1109 14:47:03.519942 16740 net.cpp:395] conv5_3/expand/scale -> conv5_3/expand (in-place)
I1109 14:47:03.519980 16740 layer_factory.hpp:77] Creating layer conv5_3/expand/scale
I1109 14:47:03.520079 16740 net.cpp:150] Setting up conv5_3/expand/scale
I1109 14:47:03.520084 16740 net.cpp:157] Top shape: 2 576 19 32 (700416)
I1109 14:47:03.520087 16740 net.cpp:165] Memory required for data: 871107936
I1109 14:47:03.520089 16740 layer_factory.hpp:77] Creating layer relu5_3/expand
I1109 14:47:03.520093 16740 net.cpp:100] Creating Layer relu5_3/expand
I1109 14:47:03.520095 16740 net.cpp:434] relu5_3/expand <- conv5_3/expand
I1109 14:47:03.520097 16740 net.cpp:395] relu5_3/expand -> conv5_3/expand (in-place)
I1109 14:47:03.520392 16740 net.cpp:150] Setting up relu5_3/expand
I1109 14:47:03.520398 16740 net.cpp:157] Top shape: 2 576 19 32 (700416)
I1109 14:47:03.520401 16740 net.cpp:165] Memory required for data: 873909600
I1109 14:47:03.520402 16740 layer_factory.hpp:77] Creating layer conv5_3/expand_relu5_3/expand_0_split
I1109 14:47:03.520406 16740 net.cpp:100] Creating Layer conv5_3/expand_relu5_3/expand_0_split
I1109 14:47:03.520408 16740 net.cpp:434] conv5_3/expand_relu5_3/expand_0_split <- conv5_3/expand
I1109 14:47:03.520411 16740 net.cpp:408] conv5_3/expand_relu5_3/expand_0_split -> conv5_3/expand_relu5_3/expand_0_split_0
I1109 14:47:03.520416 16740 net.cpp:408] conv5_3/expand_relu5_3/expand_0_split -> conv5_3/expand_relu5_3/expand_0_split_1
I1109 14:47:03.520421 16740 net.cpp:408] conv5_3/expand_relu5_3/expand_0_split -> conv5_3/expand_relu5_3/expand_0_split_2
I1109 14:47:03.520426 16740 net.cpp:408] conv5_3/expand_relu5_3/expand_0_split -> conv5_3/expand_relu5_3/expand_0_split_3
I1109 14:47:03.520483 16740 net.cpp:150] Setting up conv5_3/expand_relu5_3/expand_0_split
I1109 14:47:03.520488 16740 net.cpp:157] Top shape: 2 576 19 32 (700416)
I1109 14:47:03.520490 16740 net.cpp:157] Top shape: 2 576 19 32 (700416)
I1109 14:47:03.520494 16740 net.cpp:157] Top shape: 2 576 19 32 (700416)
I1109 14:47:03.520499 16740 net.cpp:157] Top shape: 2 576 19 32 (700416)
I1109 14:47:03.520503 16740 net.cpp:165] Memory required for data: 885116256
I1109 14:47:03.520506 16740 layer_factory.hpp:77] Creating layer conv5_3/dwise
I1109 14:47:03.520514 16740 net.cpp:100] Creating Layer conv5_3/dwise
I1109 14:47:03.520519 16740 net.cpp:434] conv5_3/dwise <- conv5_3/expand_relu5_3/expand_0_split_0
I1109 14:47:03.520525 16740 net.cpp:408] conv5_3/dwise -> conv5_3/dwise
I1109 14:47:03.520711 16740 net.cpp:150] Setting up conv5_3/dwise
I1109 14:47:03.520716 16740 net.cpp:157] Top shape: 2 576 10 16 (184320)
I1109 14:47:03.520720 16740 net.cpp:165] Memory required for data: 885853536
I1109 14:47:03.520723 16740 layer_factory.hpp:77] Creating layer conv5_3/dwise/bn
I1109 14:47:03.520730 16740 net.cpp:100] Creating Layer conv5_3/dwise/bn
I1109 14:47:03.520735 16740 net.cpp:434] conv5_3/dwise/bn <- conv5_3/dwise
I1109 14:47:03.520740 16740 net.cpp:395] conv5_3/dwise/bn -> conv5_3/dwise (in-place)
I1109 14:47:03.520897 16740 net.cpp:150] Setting up conv5_3/dwise/bn
I1109 14:47:03.520902 16740 net.cpp:157] Top shape: 2 576 10 16 (184320)
I1109 14:47:03.520913 16740 net.cpp:165] Memory required for data: 886590816
I1109 14:47:03.520921 16740 layer_factory.hpp:77] Creating layer conv5_3/dwise/scale
I1109 14:47:03.520928 16740 net.cpp:100] Creating Layer conv5_3/dwise/scale
I1109 14:47:03.520931 16740 net.cpp:434] conv5_3/dwise/scale <- conv5_3/dwise
I1109 14:47:03.520936 16740 net.cpp:395] conv5_3/dwise/scale -> conv5_3/dwise (in-place)
I1109 14:47:03.520975 16740 layer_factory.hpp:77] Creating layer conv5_3/dwise/scale
I1109 14:47:03.521070 16740 net.cpp:150] Setting up conv5_3/dwise/scale
I1109 14:47:03.521075 16740 net.cpp:157] Top shape: 2 576 10 16 (184320)
I1109 14:47:03.521077 16740 net.cpp:165] Memory required for data: 887328096
I1109 14:47:03.521085 16740 layer_factory.hpp:77] Creating layer relu5_3/dwise
I1109 14:47:03.521091 16740 net.cpp:100] Creating Layer relu5_3/dwise
I1109 14:47:03.521095 16740 net.cpp:434] relu5_3/dwise <- conv5_3/dwise
I1109 14:47:03.521100 16740 net.cpp:395] relu5_3/dwise -> conv5_3/dwise (in-place)
I1109 14:47:03.521502 16740 net.cpp:150] Setting up relu5_3/dwise
I1109 14:47:03.521508 16740 net.cpp:157] Top shape: 2 576 10 16 (184320)
I1109 14:47:03.521512 16740 net.cpp:165] Memory required for data: 888065376
I1109 14:47:03.521514 16740 layer_factory.hpp:77] Creating layer conv5_3/linear
I1109 14:47:03.521523 16740 net.cpp:100] Creating Layer conv5_3/linear
I1109 14:47:03.521528 16740 net.cpp:434] conv5_3/linear <- conv5_3/dwise
I1109 14:47:03.521534 16740 net.cpp:408] conv5_3/linear -> conv5_3/linear
I1109 14:47:03.524003 16740 net.cpp:150] Setting up conv5_3/linear
I1109 14:47:03.524013 16740 net.cpp:157] Top shape: 2 160 10 16 (51200)
I1109 14:47:03.524015 16740 net.cpp:165] Memory required for data: 888270176
I1109 14:47:03.524020 16740 layer_factory.hpp:77] Creating layer conv5_3/linear/bn
I1109 14:47:03.524026 16740 net.cpp:100] Creating Layer conv5_3/linear/bn
I1109 14:47:03.524030 16740 net.cpp:434] conv5_3/linear/bn <- conv5_3/linear
I1109 14:47:03.524037 16740 net.cpp:395] conv5_3/linear/bn -> conv5_3/linear (in-place)
I1109 14:47:03.524201 16740 net.cpp:150] Setting up conv5_3/linear/bn
I1109 14:47:03.524206 16740 net.cpp:157] Top shape: 2 160 10 16 (51200)
I1109 14:47:03.524209 16740 net.cpp:165] Memory required for data: 888474976
I1109 14:47:03.524215 16740 layer_factory.hpp:77] Creating layer conv5_3/linear/scale
I1109 14:47:03.524220 16740 net.cpp:100] Creating Layer conv5_3/linear/scale
I1109 14:47:03.524224 16740 net.cpp:434] conv5_3/linear/scale <- conv5_3/linear
I1109 14:47:03.524230 16740 net.cpp:395] conv5_3/linear/scale -> conv5_3/linear (in-place)
I1109 14:47:03.524267 16740 layer_factory.hpp:77] Creating layer conv5_3/linear/scale
I1109 14:47:03.524371 16740 net.cpp:150] Setting up conv5_3/linear/scale
I1109 14:47:03.524376 16740 net.cpp:157] Top shape: 2 160 10 16 (51200)
I1109 14:47:03.524379 16740 net.cpp:165] Memory required for data: 888679776
I1109 14:47:03.524400 16740 layer_factory.hpp:77] Creating layer conv5_3/linear_conv5_3/linear/scale_0_split
I1109 14:47:03.524405 16740 net.cpp:100] Creating Layer conv5_3/linear_conv5_3/linear/scale_0_split
I1109 14:47:03.524408 16740 net.cpp:434] conv5_3/linear_conv5_3/linear/scale_0_split <- conv5_3/linear
I1109 14:47:03.524415 16740 net.cpp:408] conv5_3/linear_conv5_3/linear/scale_0_split -> conv5_3/linear_conv5_3/linear/scale_0_split_0
I1109 14:47:03.524421 16740 net.cpp:408] conv5_3/linear_conv5_3/linear/scale_0_split -> conv5_3/linear_conv5_3/linear/scale_0_split_1
I1109 14:47:03.524457 16740 net.cpp:150] Setting up conv5_3/linear_conv5_3/linear/scale_0_split
I1109 14:47:03.524461 16740 net.cpp:157] Top shape: 2 160 10 16 (51200)
I1109 14:47:03.524466 16740 net.cpp:157] Top shape: 2 160 10 16 (51200)
I1109 14:47:03.524469 16740 net.cpp:165] Memory required for data: 889089376
I1109 14:47:03.524471 16740 layer_factory.hpp:77] Creating layer conv6_1/expand
I1109 14:47:03.524478 16740 net.cpp:100] Creating Layer conv6_1/expand
I1109 14:47:03.524483 16740 net.cpp:434] conv6_1/expand <- conv5_3/linear_conv5_3/linear/scale_0_split_0
I1109 14:47:03.524489 16740 net.cpp:408] conv6_1/expand -> conv6_1/expand
I1109 14:47:03.526453 16740 net.cpp:150] Setting up conv6_1/expand
I1109 14:47:03.526460 16740 net.cpp:157] Top shape: 2 960 10 16 (307200)
I1109 14:47:03.526463 16740 net.cpp:165] Memory required for data: 890318176
I1109 14:47:03.526468 16740 layer_factory.hpp:77] Creating layer conv6_1/expand/bn
I1109 14:47:03.526473 16740 net.cpp:100] Creating Layer conv6_1/expand/bn
I1109 14:47:03.526477 16740 net.cpp:434] conv6_1/expand/bn <- conv6_1/expand
I1109 14:47:03.526484 16740 net.cpp:395] conv6_1/expand/bn -> conv6_1/expand (in-place)
I1109 14:47:03.526651 16740 net.cpp:150] Setting up conv6_1/expand/bn
I1109 14:47:03.526656 16740 net.cpp:157] Top shape: 2 960 10 16 (307200)
I1109 14:47:03.526659 16740 net.cpp:165] Memory required for data: 891546976
I1109 14:47:03.526665 16740 layer_factory.hpp:77] Creating layer conv6_1/expand/scale
I1109 14:47:03.526674 16740 net.cpp:100] Creating Layer conv6_1/expand/scale
I1109 14:47:03.526677 16740 net.cpp:434] conv6_1/expand/scale <- conv6_1/expand
I1109 14:47:03.526682 16740 net.cpp:395] conv6_1/expand/scale -> conv6_1/expand (in-place)
I1109 14:47:03.526720 16740 layer_factory.hpp:77] Creating layer conv6_1/expand/scale
I1109 14:47:03.526818 16740 net.cpp:150] Setting up conv6_1/expand/scale
I1109 14:47:03.526823 16740 net.cpp:157] Top shape: 2 960 10 16 (307200)
I1109 14:47:03.526826 16740 net.cpp:165] Memory required for data: 892775776
I1109 14:47:03.526831 16740 layer_factory.hpp:77] Creating layer relu6_1/expand
I1109 14:47:03.526836 16740 net.cpp:100] Creating Layer relu6_1/expand
I1109 14:47:03.526840 16740 net.cpp:434] relu6_1/expand <- conv6_1/expand
I1109 14:47:03.526846 16740 net.cpp:395] relu6_1/expand -> conv6_1/expand (in-place)
I1109 14:47:03.529121 16740 net.cpp:150] Setting up relu6_1/expand
I1109 14:47:03.529139 16740 net.cpp:157] Top shape: 2 960 10 16 (307200)
I1109 14:47:03.529140 16740 net.cpp:165] Memory required for data: 894004576
I1109 14:47:03.529145 16740 layer_factory.hpp:77] Creating layer conv6_1/dwise
I1109 14:47:03.529157 16740 net.cpp:100] Creating Layer conv6_1/dwise
I1109 14:47:03.529162 16740 net.cpp:434] conv6_1/dwise <- conv6_1/expand
I1109 14:47:03.529170 16740 net.cpp:408] conv6_1/dwise -> conv6_1/dwise
I1109 14:47:03.529428 16740 net.cpp:150] Setting up conv6_1/dwise
I1109 14:47:03.529433 16740 net.cpp:157] Top shape: 2 960 10 16 (307200)
I1109 14:47:03.529434 16740 net.cpp:165] Memory required for data: 895233376
I1109 14:47:03.529440 16740 layer_factory.hpp:77] Creating layer conv6_1/dwise/bn
I1109 14:47:03.529449 16740 net.cpp:100] Creating Layer conv6_1/dwise/bn
I1109 14:47:03.529453 16740 net.cpp:434] conv6_1/dwise/bn <- conv6_1/dwise
I1109 14:47:03.529458 16740 net.cpp:395] conv6_1/dwise/bn -> conv6_1/dwise (in-place)
I1109 14:47:03.529633 16740 net.cpp:150] Setting up conv6_1/dwise/bn
I1109 14:47:03.529639 16740 net.cpp:157] Top shape: 2 960 10 16 (307200)
I1109 14:47:03.529640 16740 net.cpp:165] Memory required for data: 896462176
I1109 14:47:03.529644 16740 layer_factory.hpp:77] Creating layer conv6_1/dwise/scale
I1109 14:47:03.529649 16740 net.cpp:100] Creating Layer conv6_1/dwise/scale
I1109 14:47:03.529651 16740 net.cpp:434] conv6_1/dwise/scale <- conv6_1/dwise
I1109 14:47:03.529654 16740 net.cpp:395] conv6_1/dwise/scale -> conv6_1/dwise (in-place)
I1109 14:47:03.529690 16740 layer_factory.hpp:77] Creating layer conv6_1/dwise/scale
I1109 14:47:03.529778 16740 net.cpp:150] Setting up conv6_1/dwise/scale
I1109 14:47:03.529781 16740 net.cpp:157] Top shape: 2 960 10 16 (307200)
I1109 14:47:03.529783 16740 net.cpp:165] Memory required for data: 897690976
I1109 14:47:03.529786 16740 layer_factory.hpp:77] Creating layer relu6_1/dwise
I1109 14:47:03.529789 16740 net.cpp:100] Creating Layer relu6_1/dwise
I1109 14:47:03.529791 16740 net.cpp:434] relu6_1/dwise <- conv6_1/dwise
I1109 14:47:03.529793 16740 net.cpp:395] relu6_1/dwise -> conv6_1/dwise (in-place)
I1109 14:47:03.530119 16740 net.cpp:150] Setting up relu6_1/dwise
I1109 14:47:03.530124 16740 net.cpp:157] Top shape: 2 960 10 16 (307200)
I1109 14:47:03.530141 16740 net.cpp:165] Memory required for data: 898919776
I1109 14:47:03.530143 16740 layer_factory.hpp:77] Creating layer conv6_1/linear
I1109 14:47:03.530148 16740 net.cpp:100] Creating Layer conv6_1/linear
I1109 14:47:03.530150 16740 net.cpp:434] conv6_1/linear <- conv6_1/dwise
I1109 14:47:03.530153 16740 net.cpp:408] conv6_1/linear -> conv6_1/linear
I1109 14:47:03.532171 16740 net.cpp:150] Setting up conv6_1/linear
I1109 14:47:03.532178 16740 net.cpp:157] Top shape: 2 160 10 16 (51200)
I1109 14:47:03.532179 16740 net.cpp:165] Memory required for data: 899124576
I1109 14:47:03.532183 16740 layer_factory.hpp:77] Creating layer conv6_1/linear/bn
I1109 14:47:03.532186 16740 net.cpp:100] Creating Layer conv6_1/linear/bn
I1109 14:47:03.532188 16740 net.cpp:434] conv6_1/linear/bn <- conv6_1/linear
I1109 14:47:03.532192 16740 net.cpp:395] conv6_1/linear/bn -> conv6_1/linear (in-place)
I1109 14:47:03.532344 16740 net.cpp:150] Setting up conv6_1/linear/bn
I1109 14:47:03.532346 16740 net.cpp:157] Top shape: 2 160 10 16 (51200)
I1109 14:47:03.532348 16740 net.cpp:165] Memory required for data: 899329376
I1109 14:47:03.532352 16740 layer_factory.hpp:77] Creating layer conv6_1/linear/scale
I1109 14:47:03.532356 16740 net.cpp:100] Creating Layer conv6_1/linear/scale
I1109 14:47:03.532358 16740 net.cpp:434] conv6_1/linear/scale <- conv6_1/linear
I1109 14:47:03.532361 16740 net.cpp:395] conv6_1/linear/scale -> conv6_1/linear (in-place)
I1109 14:47:03.532402 16740 layer_factory.hpp:77] Creating layer conv6_1/linear/scale
I1109 14:47:03.532487 16740 net.cpp:150] Setting up conv6_1/linear/scale
I1109 14:47:03.532490 16740 net.cpp:157] Top shape: 2 160 10 16 (51200)
I1109 14:47:03.532491 16740 net.cpp:165] Memory required for data: 899534176
I1109 14:47:03.532495 16740 layer_factory.hpp:77] Creating layer block_6_1
I1109 14:47:03.532498 16740 net.cpp:100] Creating Layer block_6_1
I1109 14:47:03.532500 16740 net.cpp:434] block_6_1 <- conv5_3/linear_conv5_3/linear/scale_0_split_1
I1109 14:47:03.532503 16740 net.cpp:434] block_6_1 <- conv6_1/linear
I1109 14:47:03.532506 16740 net.cpp:408] block_6_1 -> block_6_1
I1109 14:47:03.532522 16740 net.cpp:150] Setting up block_6_1
I1109 14:47:03.532526 16740 net.cpp:157] Top shape: 2 160 10 16 (51200)
I1109 14:47:03.532526 16740 net.cpp:165] Memory required for data: 899738976
I1109 14:47:03.532528 16740 layer_factory.hpp:77] Creating layer block_6_1_block_6_1_0_split
I1109 14:47:03.532532 16740 net.cpp:100] Creating Layer block_6_1_block_6_1_0_split
I1109 14:47:03.532534 16740 net.cpp:434] block_6_1_block_6_1_0_split <- block_6_1
I1109 14:47:03.532536 16740 net.cpp:408] block_6_1_block_6_1_0_split -> block_6_1_block_6_1_0_split_0
I1109 14:47:03.532541 16740 net.cpp:408] block_6_1_block_6_1_0_split -> block_6_1_block_6_1_0_split_1
I1109 14:47:03.532567 16740 net.cpp:150] Setting up block_6_1_block_6_1_0_split
I1109 14:47:03.532569 16740 net.cpp:157] Top shape: 2 160 10 16 (51200)
I1109 14:47:03.532572 16740 net.cpp:157] Top shape: 2 160 10 16 (51200)
I1109 14:47:03.532572 16740 net.cpp:165] Memory required for data: 900148576
I1109 14:47:03.532574 16740 layer_factory.hpp:77] Creating layer conv6_2/expand
I1109 14:47:03.532580 16740 net.cpp:100] Creating Layer conv6_2/expand
I1109 14:47:03.532582 16740 net.cpp:434] conv6_2/expand <- block_6_1_block_6_1_0_split_0
I1109 14:47:03.532584 16740 net.cpp:408] conv6_2/expand -> conv6_2/expand
I1109 14:47:03.535059 16740 net.cpp:150] Setting up conv6_2/expand
I1109 14:47:03.535071 16740 net.cpp:157] Top shape: 2 960 10 16 (307200)
I1109 14:47:03.535073 16740 net.cpp:165] Memory required for data: 901377376
I1109 14:47:03.535078 16740 layer_factory.hpp:77] Creating layer conv6_2/expand/bn
I1109 14:47:03.535084 16740 net.cpp:100] Creating Layer conv6_2/expand/bn
I1109 14:47:03.535087 16740 net.cpp:434] conv6_2/expand/bn <- conv6_2/expand
I1109 14:47:03.535090 16740 net.cpp:395] conv6_2/expand/bn -> conv6_2/expand (in-place)
I1109 14:47:03.535259 16740 net.cpp:150] Setting up conv6_2/expand/bn
I1109 14:47:03.535264 16740 net.cpp:157] Top shape: 2 960 10 16 (307200)
I1109 14:47:03.535279 16740 net.cpp:165] Memory required for data: 902606176
I1109 14:47:03.535284 16740 layer_factory.hpp:77] Creating layer conv6_2/expand/scale
I1109 14:47:03.535287 16740 net.cpp:100] Creating Layer conv6_2/expand/scale
I1109 14:47:03.535290 16740 net.cpp:434] conv6_2/expand/scale <- conv6_2/expand
I1109 14:47:03.535292 16740 net.cpp:395] conv6_2/expand/scale -> conv6_2/expand (in-place)
I1109 14:47:03.535327 16740 layer_factory.hpp:77] Creating layer conv6_2/expand/scale
I1109 14:47:03.535416 16740 net.cpp:150] Setting up conv6_2/expand/scale
I1109 14:47:03.535419 16740 net.cpp:157] Top shape: 2 960 10 16 (307200)
I1109 14:47:03.535421 16740 net.cpp:165] Memory required for data: 903834976
I1109 14:47:03.535424 16740 layer_factory.hpp:77] Creating layer relu6_2/expand
I1109 14:47:03.535429 16740 net.cpp:100] Creating Layer relu6_2/expand
I1109 14:47:03.535430 16740 net.cpp:434] relu6_2/expand <- conv6_2/expand
I1109 14:47:03.535432 16740 net.cpp:395] relu6_2/expand -> conv6_2/expand (in-place)
I1109 14:47:03.535851 16740 net.cpp:150] Setting up relu6_2/expand
I1109 14:47:03.535858 16740 net.cpp:157] Top shape: 2 960 10 16 (307200)
I1109 14:47:03.535861 16740 net.cpp:165] Memory required for data: 905063776
I1109 14:47:03.535863 16740 layer_factory.hpp:77] Creating layer conv6_2/dwise
I1109 14:47:03.535871 16740 net.cpp:100] Creating Layer conv6_2/dwise
I1109 14:47:03.535874 16740 net.cpp:434] conv6_2/dwise <- conv6_2/expand
I1109 14:47:03.535881 16740 net.cpp:408] conv6_2/dwise -> conv6_2/dwise
I1109 14:47:03.536111 16740 net.cpp:150] Setting up conv6_2/dwise
I1109 14:47:03.536116 16740 net.cpp:157] Top shape: 2 960 10 16 (307200)
I1109 14:47:03.536118 16740 net.cpp:165] Memory required for data: 906292576
I1109 14:47:03.536123 16740 layer_factory.hpp:77] Creating layer conv6_2/dwise/bn
I1109 14:47:03.536129 16740 net.cpp:100] Creating Layer conv6_2/dwise/bn
I1109 14:47:03.536134 16740 net.cpp:434] conv6_2/dwise/bn <- conv6_2/dwise
I1109 14:47:03.536137 16740 net.cpp:395] conv6_2/dwise/bn -> conv6_2/dwise (in-place)
I1109 14:47:03.536305 16740 net.cpp:150] Setting up conv6_2/dwise/bn
I1109 14:47:03.536309 16740 net.cpp:157] Top shape: 2 960 10 16 (307200)
I1109 14:47:03.536311 16740 net.cpp:165] Memory required for data: 907521376
I1109 14:47:03.536316 16740 layer_factory.hpp:77] Creating layer conv6_2/dwise/scale
I1109 14:47:03.536322 16740 net.cpp:100] Creating Layer conv6_2/dwise/scale
I1109 14:47:03.536326 16740 net.cpp:434] conv6_2/dwise/scale <- conv6_2/dwise
I1109 14:47:03.536330 16740 net.cpp:395] conv6_2/dwise/scale -> conv6_2/dwise (in-place)
I1109 14:47:03.536381 16740 layer_factory.hpp:77] Creating layer conv6_2/dwise/scale
I1109 14:47:03.536484 16740 net.cpp:150] Setting up conv6_2/dwise/scale
I1109 14:47:03.536489 16740 net.cpp:157] Top shape: 2 960 10 16 (307200)
I1109 14:47:03.536490 16740 net.cpp:165] Memory required for data: 908750176
I1109 14:47:03.536495 16740 layer_factory.hpp:77] Creating layer relu6_2/dwise
I1109 14:47:03.536501 16740 net.cpp:100] Creating Layer relu6_2/dwise
I1109 14:47:03.536505 16740 net.cpp:434] relu6_2/dwise <- conv6_2/dwise
I1109 14:47:03.536510 16740 net.cpp:395] relu6_2/dwise -> conv6_2/dwise (in-place)
I1109 14:47:03.536833 16740 net.cpp:150] Setting up relu6_2/dwise
I1109 14:47:03.536840 16740 net.cpp:157] Top shape: 2 960 10 16 (307200)
I1109 14:47:03.536842 16740 net.cpp:165] Memory required for data: 909978976
I1109 14:47:03.536844 16740 layer_factory.hpp:77] Creating layer conv6_2/linear
I1109 14:47:03.536851 16740 net.cpp:100] Creating Layer conv6_2/linear
I1109 14:47:03.536856 16740 net.cpp:434] conv6_2/linear <- conv6_2/dwise
I1109 14:47:03.536864 16740 net.cpp:408] conv6_2/linear -> conv6_2/linear
I1109 14:47:03.539708 16740 net.cpp:150] Setting up conv6_2/linear
I1109 14:47:03.539721 16740 net.cpp:157] Top shape: 2 160 10 16 (51200)
I1109 14:47:03.539724 16740 net.cpp:165] Memory required for data: 910183776
I1109 14:47:03.539731 16740 layer_factory.hpp:77] Creating layer conv6_2/linear/bn
I1109 14:47:03.539739 16740 net.cpp:100] Creating Layer conv6_2/linear/bn
I1109 14:47:03.539755 16740 net.cpp:434] conv6_2/linear/bn <- conv6_2/linear
I1109 14:47:03.539762 16740 net.cpp:395] conv6_2/linear/bn -> conv6_2/linear (in-place)
I1109 14:47:03.539930 16740 net.cpp:150] Setting up conv6_2/linear/bn
I1109 14:47:03.539934 16740 net.cpp:157] Top shape: 2 160 10 16 (51200)
I1109 14:47:03.539937 16740 net.cpp:165] Memory required for data: 910388576
I1109 14:47:03.539943 16740 layer_factory.hpp:77] Creating layer conv6_2/linear/scale
I1109 14:47:03.539952 16740 net.cpp:100] Creating Layer conv6_2/linear/scale
I1109 14:47:03.539955 16740 net.cpp:434] conv6_2/linear/scale <- conv6_2/linear
I1109 14:47:03.539960 16740 net.cpp:395] conv6_2/linear/scale -> conv6_2/linear (in-place)
I1109 14:47:03.539999 16740 layer_factory.hpp:77] Creating layer conv6_2/linear/scale
I1109 14:47:03.540097 16740 net.cpp:150] Setting up conv6_2/linear/scale
I1109 14:47:03.540102 16740 net.cpp:157] Top shape: 2 160 10 16 (51200)
I1109 14:47:03.540105 16740 net.cpp:165] Memory required for data: 910593376
I1109 14:47:03.540112 16740 layer_factory.hpp:77] Creating layer block_6_2
I1109 14:47:03.540118 16740 net.cpp:100] Creating Layer block_6_2
I1109 14:47:03.540123 16740 net.cpp:434] block_6_2 <- block_6_1_block_6_1_0_split_1
I1109 14:47:03.540127 16740 net.cpp:434] block_6_2 <- conv6_2/linear
I1109 14:47:03.540133 16740 net.cpp:408] block_6_2 -> block_6_2
I1109 14:47:03.540158 16740 net.cpp:150] Setting up block_6_2
I1109 14:47:03.540163 16740 net.cpp:157] Top shape: 2 160 10 16 (51200)
I1109 14:47:03.540164 16740 net.cpp:165] Memory required for data: 910798176
I1109 14:47:03.540169 16740 layer_factory.hpp:77] Creating layer conv6_3/expand
I1109 14:47:03.540174 16740 net.cpp:100] Creating Layer conv6_3/expand
I1109 14:47:03.540179 16740 net.cpp:434] conv6_3/expand <- block_6_2
I1109 14:47:03.540184 16740 net.cpp:408] conv6_3/expand -> conv6_3/expand
I1109 14:47:03.542269 16740 net.cpp:150] Setting up conv6_3/expand
I1109 14:47:03.542277 16740 net.cpp:157] Top shape: 2 960 10 16 (307200)
I1109 14:47:03.542280 16740 net.cpp:165] Memory required for data: 912026976
I1109 14:47:03.542285 16740 layer_factory.hpp:77] Creating layer conv6_3/expand/bn
I1109 14:47:03.542292 16740 net.cpp:100] Creating Layer conv6_3/expand/bn
I1109 14:47:03.542299 16740 net.cpp:434] conv6_3/expand/bn <- conv6_3/expand
I1109 14:47:03.542304 16740 net.cpp:395] conv6_3/expand/bn -> conv6_3/expand (in-place)
I1109 14:47:03.542474 16740 net.cpp:150] Setting up conv6_3/expand/bn
I1109 14:47:03.542479 16740 net.cpp:157] Top shape: 2 960 10 16 (307200)
I1109 14:47:03.542480 16740 net.cpp:165] Memory required for data: 913255776
I1109 14:47:03.542486 16740 layer_factory.hpp:77] Creating layer conv6_3/expand/scale
I1109 14:47:03.542492 16740 net.cpp:100] Creating Layer conv6_3/expand/scale
I1109 14:47:03.542495 16740 net.cpp:434] conv6_3/expand/scale <- conv6_3/expand
I1109 14:47:03.542500 16740 net.cpp:395] conv6_3/expand/scale -> conv6_3/expand (in-place)
I1109 14:47:03.542543 16740 layer_factory.hpp:77] Creating layer conv6_3/expand/scale
I1109 14:47:03.542670 16740 net.cpp:150] Setting up conv6_3/expand/scale
I1109 14:47:03.542676 16740 net.cpp:157] Top shape: 2 960 10 16 (307200)
I1109 14:47:03.542680 16740 net.cpp:165] Memory required for data: 914484576
I1109 14:47:03.542685 16740 layer_factory.hpp:77] Creating layer relu6_3/expand
I1109 14:47:03.542690 16740 net.cpp:100] Creating Layer relu6_3/expand
I1109 14:47:03.542693 16740 net.cpp:434] relu6_3/expand <- conv6_3/expand
I1109 14:47:03.542698 16740 net.cpp:395] relu6_3/expand -> conv6_3/expand (in-place)
I1109 14:47:03.543083 16740 net.cpp:150] Setting up relu6_3/expand
I1109 14:47:03.543092 16740 net.cpp:157] Top shape: 2 960 10 16 (307200)
I1109 14:47:03.543094 16740 net.cpp:165] Memory required for data: 915713376
I1109 14:47:03.543097 16740 layer_factory.hpp:77] Creating layer conv6_3/dwise
I1109 14:47:03.543104 16740 net.cpp:100] Creating Layer conv6_3/dwise
I1109 14:47:03.543108 16740 net.cpp:434] conv6_3/dwise <- conv6_3/expand
I1109 14:47:03.543123 16740 net.cpp:408] conv6_3/dwise -> conv6_3/dwise
I1109 14:47:03.543437 16740 net.cpp:150] Setting up conv6_3/dwise
I1109 14:47:03.543443 16740 net.cpp:157] Top shape: 2 960 10 16 (307200)
I1109 14:47:03.543447 16740 net.cpp:165] Memory required for data: 916942176
I1109 14:47:03.543452 16740 layer_factory.hpp:77] Creating layer conv6_3/dwise/bn
I1109 14:47:03.543457 16740 net.cpp:100] Creating Layer conv6_3/dwise/bn
I1109 14:47:03.543462 16740 net.cpp:434] conv6_3/dwise/bn <- conv6_3/dwise
I1109 14:47:03.543465 16740 net.cpp:395] conv6_3/dwise/bn -> conv6_3/dwise (in-place)
I1109 14:47:03.543685 16740 net.cpp:150] Setting up conv6_3/dwise/bn
I1109 14:47:03.543691 16740 net.cpp:157] Top shape: 2 960 10 16 (307200)
I1109 14:47:03.543694 16740 net.cpp:165] Memory required for data: 918170976
I1109 14:47:03.543701 16740 layer_factory.hpp:77] Creating layer conv6_3/dwise/scale
I1109 14:47:03.543706 16740 net.cpp:100] Creating Layer conv6_3/dwise/scale
I1109 14:47:03.543710 16740 net.cpp:434] conv6_3/dwise/scale <- conv6_3/dwise
I1109 14:47:03.543715 16740 net.cpp:395] conv6_3/dwise/scale -> conv6_3/dwise (in-place)
I1109 14:47:03.543756 16740 layer_factory.hpp:77] Creating layer conv6_3/dwise/scale
I1109 14:47:03.543886 16740 net.cpp:150] Setting up conv6_3/dwise/scale
I1109 14:47:03.543892 16740 net.cpp:157] Top shape: 2 960 10 16 (307200)
I1109 14:47:03.543895 16740 net.cpp:165] Memory required for data: 919399776
I1109 14:47:03.543900 16740 layer_factory.hpp:77] Creating layer relu6_3/dwise
I1109 14:47:03.543905 16740 net.cpp:100] Creating Layer relu6_3/dwise
I1109 14:47:03.543910 16740 net.cpp:434] relu6_3/dwise <- conv6_3/dwise
I1109 14:47:03.543913 16740 net.cpp:395] relu6_3/dwise -> conv6_3/dwise (in-place)
I1109 14:47:03.544303 16740 net.cpp:150] Setting up relu6_3/dwise
I1109 14:47:03.544312 16740 net.cpp:157] Top shape: 2 960 10 16 (307200)
I1109 14:47:03.544315 16740 net.cpp:165] Memory required for data: 920628576
I1109 14:47:03.544318 16740 layer_factory.hpp:77] Creating layer conv6_3/linear
…
I1109 14:47:03.767596 16740 net.cpp:165] Memory required for data: 469236896
I1109 14:47:03.767601 16740 layer_factory.hpp:77] Creating layer relu10_2/dw
I1109 14:47:03.767607 16740 net.cpp:100] Creating Layer relu10_2/dw
I1109 14:47:03.767611 16740 net.cpp:434] relu10_2/dw <- conv10_2/dw
I1109 14:47:03.767614 16740 net.cpp:395] relu10_2/dw -> conv10_2/dw (in-place)
I1109 14:47:03.767913 16740 net.cpp:150] Setting up relu10_2/dw
I1109 14:47:03.767920 16740 net.cpp:157] Top shape: 1 128 1 1 (128)
I1109 14:47:03.767921 16740 net.cpp:165] Memory required for data: 469237408
I1109 14:47:03.767925 16740 layer_factory.hpp:77] Creating layer conv10_2/sep
I1109 14:47:03.767932 16740 net.cpp:100] Creating Layer conv10_2/sep
I1109 14:47:03.767935 16740 net.cpp:434] conv10_2/sep <- conv10_2/dw
I1109 14:47:03.767941 16740 net.cpp:408] conv10_2/sep -> conv10_2/sep
I1109 14:47:03.769424 16740 net.cpp:150] Setting up conv10_2/sep
I1109 14:47:03.769433 16740 net.cpp:157] Top shape: 1 256 1 1 (256)
I1109 14:47:03.769435 16740 net.cpp:165] Memory required for data: 469238432
I1109 14:47:03.769440 16740 layer_factory.hpp:77] Creating layer conv10_2/sep/bn
I1109 14:47:03.769448 16740 net.cpp:100] Creating Layer conv10_2/sep/bn
I1109 14:47:03.769459 16740 net.cpp:434] conv10_2/sep/bn <- conv10_2/sep
I1109 14:47:03.769464 16740 net.cpp:395] conv10_2/sep/bn -> conv10_2/sep (in-place)
I1109 14:47:03.769603 16740 net.cpp:150] Setting up conv10_2/sep/bn
I1109 14:47:03.769609 16740 net.cpp:157] Top shape: 1 256 1 1 (256)
I1109 14:47:03.769611 16740 net.cpp:165] Memory required for data: 469239456
I1109 14:47:03.769618 16740 layer_factory.hpp:77] Creating layer conv10_2/sep/scale
I1109 14:47:03.769623 16740 net.cpp:100] Creating Layer conv10_2/sep/scale
I1109 14:47:03.769628 16740 net.cpp:434] conv10_2/sep/scale <- conv10_2/sep
I1109 14:47:03.769631 16740 net.cpp:395] conv10_2/sep/scale -> conv10_2/sep (in-place)
I1109 14:47:03.769662 16740 layer_factory.hpp:77] Creating layer conv10_2/sep/scale
I1109 14:47:03.769742 16740 net.cpp:150] Setting up conv10_2/sep/scale
I1109 14:47:03.769747 16740 net.cpp:157] Top shape: 1 256 1 1 (256)
I1109 14:47:03.769749 16740 net.cpp:165] Memory required for data: 469240480
I1109 14:47:03.769754 16740 layer_factory.hpp:77] Creating layer relu10_2/sep
I1109 14:47:03.769759 16740 net.cpp:100] Creating Layer relu10_2/sep
I1109 14:47:03.769763 16740 net.cpp:434] relu10_2/sep <- conv10_2/sep
I1109 14:47:03.769767 16740 net.cpp:395] relu10_2/sep -> conv10_2/sep (in-place)
I1109 14:47:03.770066 16740 net.cpp:150] Setting up relu10_2/sep
I1109 14:47:03.770071 16740 net.cpp:157] Top shape: 1 256 1 1 (256)
I1109 14:47:03.770074 16740 net.cpp:165] Memory required for data: 469241504
I1109 14:47:03.770077 16740 layer_factory.hpp:77] Creating layer conv10_2/sep_relu10_2/sep_0_split
I1109 14:47:03.770083 16740 net.cpp:100] Creating Layer conv10_2/sep_relu10_2/sep_0_split
I1109 14:47:03.770087 16740 net.cpp:434] conv10_2/sep_relu10_2/sep_0_split <- conv10_2/sep
I1109 14:47:03.770092 16740 net.cpp:408] conv10_2/sep_relu10_2/sep_0_split -> conv10_2/sep_relu10_2/sep_0_split_0
I1109 14:47:03.770098 16740 net.cpp:408] conv10_2/sep_relu10_2/sep_0_split -> conv10_2/sep_relu10_2/sep_0_split_1
I1109 14:47:03.770105 16740 net.cpp:408] conv10_2/sep_relu10_2/sep_0_split -> conv10_2/sep_relu10_2/sep_0_split_2
I1109 14:47:03.770148 16740 net.cpp:150] Setting up conv10_2/sep_relu10_2/sep_0_split
I1109 14:47:03.770153 16740 net.cpp:157] Top shape: 1 256 1 1 (256)
I1109 14:47:03.770156 16740 net.cpp:157] Top shape: 1 256 1 1 (256)
I1109 14:47:03.770160 16740 net.cpp:157] Top shape: 1 256 1 1 (256)
I1109 14:47:03.770162 16740 net.cpp:165] Memory required for data: 469244576
I1109 14:47:03.770166 16740 layer_factory.hpp:77] Creating layer conv5_3/expand_mbox_loc
I1109 14:47:03.770174 16740 net.cpp:100] Creating Layer conv5_3/expand_mbox_loc
I1109 14:47:03.770177 16740 net.cpp:434] conv5_3/expand_mbox_loc <- conv5_3/expand_relu5_3/expand_0_split_1
I1109 14:47:03.770184 16740 net.cpp:408] conv5_3/expand_mbox_loc -> conv5_3/expand_mbox_loc
I1109 14:47:03.771715 16740 net.cpp:150] Setting up conv5_3/expand_mbox_loc
I1109 14:47:03.771723 16740 net.cpp:157] Top shape: 1 8 19 32 (4864)
I1109 14:47:03.771726 16740 net.cpp:165] Memory required for data: 469264032
I1109 14:47:03.771733 16740 layer_factory.hpp:77] Creating layer conv5_3/expand_mbox_loc_bn
I1109 14:47:03.771739 16740 net.cpp:100] Creating Layer conv5_3/expand_mbox_loc_bn
I1109 14:47:03.771744 16740 net.cpp:434] conv5_3/expand_mbox_loc_bn <- conv5_3/expand_mbox_loc
I1109 14:47:03.771747 16740 net.cpp:395] conv5_3/expand_mbox_loc_bn -> conv5_3/expand_mbox_loc (in-place)
I1109 14:47:03.771915 16740 net.cpp:150] Setting up conv5_3/expand_mbox_loc_bn
I1109 14:47:03.771921 16740 net.cpp:157] Top shape: 1 8 19 32 (4864)
I1109 14:47:03.771924 16740 net.cpp:165] Memory required for data: 469283488
I1109 14:47:03.771930 16740 layer_factory.hpp:77] Creating layer conv5_3/expand_mbox_loc_scale
I1109 14:47:03.771936 16740 net.cpp:100] Creating Layer conv5_3/expand_mbox_loc_scale
I1109 14:47:03.771940 16740 net.cpp:434] conv5_3/expand_mbox_loc_scale <- conv5_3/expand_mbox_loc
I1109 14:47:03.771946 16740 net.cpp:395] conv5_3/expand_mbox_loc_scale -> conv5_3/expand_mbox_loc (in-place)
I1109 14:47:03.771986 16740 layer_factory.hpp:77] Creating layer conv5_3/expand_mbox_loc_scale
I1109 14:47:03.772097 16740 net.cpp:150] Setting up conv5_3/expand_mbox_loc_scale
I1109 14:47:03.772104 16740 net.cpp:157] Top shape: 1 8 19 32 (4864)
I1109 14:47:03.772105 16740 net.cpp:165] Memory required for data: 469302944
I1109 14:47:03.772110 16740 layer_factory.hpp:77] Creating layer conv5_3/expand_mbox_loc_perm
I1109 14:47:03.772117 16740 net.cpp:100] Creating Layer conv5_3/expand_mbox_loc_perm
I1109 14:47:03.772121 16740 net.cpp:434] conv5_3/expand_mbox_loc_perm <- conv5_3/expand_mbox_loc
I1109 14:47:03.772126 16740 net.cpp:408] conv5_3/expand_mbox_loc_perm -> conv5_3/expand_mbox_loc_perm
I1109 14:47:03.772208 16740 net.cpp:150] Setting up conv5_3/expand_mbox_loc_perm
I1109 14:47:03.772214 16740 net.cpp:157] Top shape: 1 19 32 8 (4864)
I1109 14:47:03.772217 16740 net.cpp:165] Memory required for data: 469322400
I1109 14:47:03.772220 16740 layer_factory.hpp:77] Creating layer conv5_3/expand_mbox_loc_flat
I1109 14:47:03.772227 16740 net.cpp:100] Creating Layer conv5_3/expand_mbox_loc_flat
I1109 14:47:03.772229 16740 net.cpp:434] conv5_3/expand_mbox_loc_flat <- conv5_3/expand_mbox_loc_perm
I1109 14:47:03.772234 16740 net.cpp:408] conv5_3/expand_mbox_loc_flat -> conv5_3/expand_mbox_loc_flat
I1109 14:47:03.772253 16740 net.cpp:150] Setting up conv5_3/expand_mbox_loc_flat
I1109 14:47:03.772258 16740 net.cpp:157] Top shape: 1 4864 (4864)
I1109 14:47:03.772260 16740 net.cpp:165] Memory required for data: 469341856
I1109 14:47:03.772264 16740 layer_factory.hpp:77] Creating layer conv5_3/expand_mbox_conf
I1109 14:47:03.772271 16740 net.cpp:100] Creating Layer conv5_3/expand_mbox_conf
I1109 14:47:03.772274 16740 net.cpp:434] conv5_3/expand_mbox_conf <- conv5_3/expand_relu5_3/expand_0_split_2
I1109 14:47:03.772279 16740 net.cpp:408] conv5_3/expand_mbox_conf -> conv5_3/expand_mbox_conf
I1109 14:47:03.774947 16740 net.cpp:150] Setting up conv5_3/expand_mbox_conf
I1109 14:47:03.774962 16740 net.cpp:157] Top shape: 1 10 19 32 (6080)
I1109 14:47:03.774965 16740 net.cpp:165] Memory required for data: 469366176
I1109 14:47:03.774973 16740 layer_factory.hpp:77] Creating layer conv5_3/expand_mbox_conf_bn
I1109 14:47:03.774984 16740 net.cpp:100] Creating Layer conv5_3/expand_mbox_conf_bn
I1109 14:47:03.774989 16740 net.cpp:434] conv5_3/expand_mbox_conf_bn <- conv5_3/expand_mbox_conf
I1109 14:47:03.774994 16740 net.cpp:395] conv5_3/expand_mbox_conf_bn -> conv5_3/expand_mbox_conf (in-place)
I1109 14:47:03.775172 16740 net.cpp:150] Setting up conv5_3/expand_mbox_conf_bn
I1109 14:47:03.775178 16740 net.cpp:157] Top shape: 1 10 19 32 (6080)
I1109 14:47:03.775180 16740 net.cpp:165] Memory required for data: 469390496
I1109 14:47:03.775187 16740 layer_factory.hpp:77] Creating layer conv5_3/expand_mbox_conf_scale
I1109 14:47:03.775194 16740 net.cpp:100] Creating Layer conv5_3/expand_mbox_conf_scale
I1109 14:47:03.775198 16740 net.cpp:434] conv5_3/expand_mbox_conf_scale <- conv5_3/expand_mbox_conf
I1109 14:47:03.775205 16740 net.cpp:395] conv5_3/expand_mbox_conf_scale -> conv5_3/expand_mbox_conf (in-place)
I1109 14:47:03.775238 16740 layer_factory.hpp:77] Creating layer conv5_3/expand_mbox_conf_scale
I1109 14:47:03.775347 16740 net.cpp:150] Setting up conv5_3/expand_mbox_conf_scale
I1109 14:47:03.775353 16740 net.cpp:157] Top shape: 1 10 19 32 (6080)
I1109 14:47:03.775355 16740 net.cpp:165] Memory required for data: 469414816
I1109 14:47:03.775360 16740 layer_factory.hpp:77] Creating layer conv5_3/expand_mbox_conf_perm
I1109 14:47:03.775367 16740 net.cpp:100] Creating Layer conv5_3/expand_mbox_conf_perm
I1109 14:47:03.775372 16740 net.cpp:434] conv5_3/expand_mbox_conf_perm <- conv5_3/expand_mbox_conf
I1109 14:47:03.775377 16740 net.cpp:408] conv5_3/expand_mbox_conf_perm -> conv5_3/expand_mbox_conf_perm
I1109 14:47:03.775449 16740 net.cpp:150] Setting up conv5_3/expand_mbox_conf_perm
I1109 14:47:03.775454 16740 net.cpp:157] Top shape: 1 19 32 10 (6080)
I1109 14:47:03.775458 16740 net.cpp:165] Memory required for data: 469439136
I1109 14:47:03.775461 16740 layer_factory.hpp:77] Creating layer conv5_3/expand_mbox_conf_flat
I1109 14:47:03.775476 16740 net.cpp:100] Creating Layer conv5_3/expand_mbox_conf_flat
I1109 14:47:03.775480 16740 net.cpp:434] conv5_3/expand_mbox_conf_flat <- conv5_3/expand_mbox_conf_perm
I1109 14:47:03.775485 16740 net.cpp:408] conv5_3/expand_mbox_conf_flat -> conv5_3/expand_mbox_conf_flat
I1109 14:47:03.775506 16740 net.cpp:150] Setting up conv5_3/expand_mbox_conf_flat
I1109 14:47:03.775511 16740 net.cpp:157] Top shape: 1 6080 (6080)
I1109 14:47:03.775513 16740 net.cpp:165] Memory required for data: 469463456
I1109 14:47:03.775517 16740 layer_factory.hpp:77] Creating layer conv5_3/expand_mbox_priorbox
I1109 14:47:03.775523 16740 net.cpp:100] Creating Layer conv5_3/expand_mbox_priorbox
I1109 14:47:03.775527 16740 net.cpp:434] conv5_3/expand_mbox_priorbox <- conv5_3/expand_relu5_3/expand_0_split_3
I1109 14:47:03.775532 16740 net.cpp:434] conv5_3/expand_mbox_priorbox <- data_data_0_split_1
I1109 14:47:03.775538 16740 net.cpp:408] conv5_3/expand_mbox_priorbox -> conv5_3/expand_mbox_priorbox
I1109 14:47:03.775560 16740 net.cpp:150] Setting up conv5_3/expand_mbox_priorbox
I1109 14:47:03.775566 16740 net.cpp:157] Top shape: 1 2 4864 (9728)
I1109 14:47:03.775568 16740 net.cpp:165] Memory required for data: 469502368
I1109 14:47:03.775573 16740 layer_factory.hpp:77] Creating layer conv6_4_mbox_loc
I1109 14:47:03.775578 16740 net.cpp:100] Creating Layer conv6_4_mbox_loc
I1109 14:47:03.775583 16740 net.cpp:434] conv6_4_mbox_loc <- conv6_4_relu6_4_0_split_1
I1109 14:47:03.775589 16740 net.cpp:408] conv6_4_mbox_loc -> conv6_4_mbox_loc
I1109 14:47:03.777463 16740 net.cpp:150] Setting up conv6_4_mbox_loc
I1109 14:47:03.777473 16740 net.cpp:157] Top shape: 1 8 10 16 (1280)
I1109 14:47:03.777477 16740 net.cpp:165] Memory required for data: 469507488
I1109 14:47:03.777482 16740 layer_factory.hpp:77] Creating layer conv6_4_mbox_loc_bn
I1109 14:47:03.777489 16740 net.cpp:100] Creating Layer conv6_4_mbox_loc_bn
I1109 14:47:03.777493 16740 net.cpp:434] conv6_4_mbox_loc_bn <- conv6_4_mbox_loc
I1109 14:47:03.777499 16740 net.cpp:395] conv6_4_mbox_loc_bn -> conv6_4_mbox_loc (in-place)
I1109 14:47:03.777658 16740 net.cpp:150] Setting up conv6_4_mbox_loc_bn
I1109 14:47:03.777663 16740 net.cpp:157] Top shape: 1 8 10 16 (1280)
I1109 14:47:03.777667 16740 net.cpp:165] Memory required for data: 469512608
I1109 14:47:03.777674 16740 layer_factory.hpp:77] Creating layer conv6_4_mbox_loc_scale
I1109 14:47:03.777680 16740 net.cpp:100] Creating Layer conv6_4_mbox_loc_scale
I1109 14:47:03.777684 16740 net.cpp:434] conv6_4_mbox_loc_scale <- conv6_4_mbox_loc
I1109 14:47:03.777689 16740 net.cpp:395] conv6_4_mbox_loc_scale -> conv6_4_mbox_loc (in-place)
I1109 14:47:03.777721 16740 layer_factory.hpp:77] Creating layer conv6_4_mbox_loc_scale
I1109 14:47:03.777809 16740 net.cpp:150] Setting up conv6_4_mbox_loc_scale
I1109 14:47:03.777815 16740 net.cpp:157] Top shape: 1 8 10 16 (1280)
I1109 14:47:03.777818 16740 net.cpp:165] Memory required for data: 469517728
I1109 14:47:03.777824 16740 layer_factory.hpp:77] Creating layer conv6_4_mbox_loc_perm
I1109 14:47:03.777829 16740 net.cpp:100] Creating Layer conv6_4_mbox_loc_perm
I1109 14:47:03.777832 16740 net.cpp:434] conv6_4_mbox_loc_perm <- conv6_4_mbox_loc
I1109 14:47:03.777838 16740 net.cpp:408] conv6_4_mbox_loc_perm -> conv6_4_mbox_loc_perm
I1109 14:47:03.777909 16740 net.cpp:150] Setting up conv6_4_mbox_loc_perm
I1109 14:47:03.777914 16740 net.cpp:157] Top shape: 1 10 16 8 (1280)
I1109 14:47:03.777916 16740 net.cpp:165] Memory required for data: 469522848
I1109 14:47:03.777920 16740 layer_factory.hpp:77] Creating layer conv6_4_mbox_loc_flat
I1109 14:47:03.777925 16740 net.cpp:100] Creating Layer conv6_4_mbox_loc_flat
I1109 14:47:03.777928 16740 net.cpp:434] conv6_4_mbox_loc_flat <- conv6_4_mbox_loc_perm
I1109 14:47:03.777933 16740 net.cpp:408] conv6_4_mbox_loc_flat -> conv6_4_mbox_loc_flat
I1109 14:47:03.777952 16740 net.cpp:150] Setting up conv6_4_mbox_loc_flat
I1109 14:47:03.777956 16740 net.cpp:157] Top shape: 1 1280 (1280)
I1109 14:47:03.777968 16740 net.cpp:165] Memory required for data: 469527968
I1109 14:47:03.777971 16740 layer_factory.hpp:77] Creating layer conv6_4_mbox_conf
I1109 14:47:03.777979 16740 net.cpp:100] Creating Layer conv6_4_mbox_conf
I1109 14:47:03.777982 16740 net.cpp:434] conv6_4_mbox_conf <- conv6_4_relu6_4_0_split_2
I1109 14:47:03.777989 16740 net.cpp:408] conv6_4_mbox_conf -> conv6_4_mbox_conf
I1109 14:47:03.779940 16740 net.cpp:150] Setting up conv6_4_mbox_conf
I1109 14:47:03.779950 16740 net.cpp:157] Top shape: 1 10 10 16 (1600)
I1109 14:47:03.779953 16740 net.cpp:165] Memory required for data: 469534368
I1109 14:47:03.779958 16740 layer_factory.hpp:77] Creating layer conv6_4_mbox_conf_bn
I1109 14:47:03.779964 16740 net.cpp:100] Creating Layer conv6_4_mbox_conf_bn
I1109 14:47:03.779968 16740 net.cpp:434] conv6_4_mbox_conf_bn <- conv6_4_mbox_conf
I1109 14:47:03.779974 16740 net.cpp:395] conv6_4_mbox_conf_bn -> conv6_4_mbox_conf (in-place)
I1109 14:47:03.780133 16740 net.cpp:150] Setting up conv6_4_mbox_conf_bn
I1109 14:47:03.780138 16740 net.cpp:157] Top shape: 1 10 10 16 (1600)
I1109 14:47:03.780140 16740 net.cpp:165] Memory required for data: 469540768
I1109 14:47:03.780148 16740 layer_factory.hpp:77] Creating layer conv6_4_mbox_conf_scale
I1109 14:47:03.780153 16740 net.cpp:100] Creating Layer conv6_4_mbox_conf_scale
I1109 14:47:03.780156 16740 net.cpp:434] conv6_4_mbox_conf_scale <- conv6_4_mbox_conf
I1109 14:47:03.780162 16740 net.cpp:395] conv6_4_mbox_conf_scale -> conv6_4_mbox_conf (in-place)
I1109 14:47:03.780194 16740 layer_factory.hpp:77] Creating layer conv6_4_mbox_conf_scale
I1109 14:47:03.780282 16740 net.cpp:150] Setting up conv6_4_mbox_conf_scale
I1109 14:47:03.780287 16740 net.cpp:157] Top shape: 1 10 10 16 (1600)
I1109 14:47:03.780290 16740 net.cpp:165] Memory required for data: 469547168
I1109 14:47:03.780297 16740 layer_factory.hpp:77] Creating layer conv6_4_mbox_conf_perm
I1109 14:47:03.780303 16740 net.cpp:100] Creating Layer conv6_4_mbox_conf_perm
I1109 14:47:03.780306 16740 net.cpp:434] conv6_4_mbox_conf_perm <- conv6_4_mbox_conf
I1109 14:47:03.780313 16740 net.cpp:408] conv6_4_mbox_conf_perm -> conv6_4_mbox_conf_perm
I1109 14:47:03.780390 16740 net.cpp:150] Setting up conv6_4_mbox_conf_perm
I1109 14:47:03.780395 16740 net.cpp:157] Top shape: 1 10 16 10 (1600)
I1109 14:47:03.780398 16740 net.cpp:165] Memory required for data: 469553568
I1109 14:47:03.780401 16740 layer_factory.hpp:77] Creating layer conv6_4_mbox_conf_flat
I1109 14:47:03.780406 16740 net.cpp:100] Creating Layer conv6_4_mbox_conf_flat
I1109 14:47:03.780411 16740 net.cpp:434] conv6_4_mbox_conf_flat <- conv6_4_mbox_conf_perm
I1109 14:47:03.780414 16740 net.cpp:408] conv6_4_mbox_conf_flat -> conv6_4_mbox_conf_flat
I1109 14:47:03.780434 16740 net.cpp:150] Setting up conv6_4_mbox_conf_flat
I1109 14:47:03.780439 16740 net.cpp:157] Top shape: 1 1600 (1600)
I1109 14:47:03.780441 16740 net.cpp:165] Memory required for data: 469559968
I1109 14:47:03.780444 16740 layer_factory.hpp:77] Creating layer conv6_4_mbox_priorbox
I1109 14:47:03.780452 16740 net.cpp:100] Creating Layer conv6_4_mbox_priorbox
I1109 14:47:03.780454 16740 net.cpp:434] conv6_4_mbox_priorbox <- conv6_4_relu6_4_0_split_3
I1109 14:47:03.780459 16740 net.cpp:434] conv6_4_mbox_priorbox <- data_data_0_split_2
I1109 14:47:03.780464 16740 net.cpp:408] conv6_4_mbox_priorbox -> conv6_4_mbox_priorbox
I1109 14:47:03.780488 16740 net.cpp:150] Setting up conv6_4_mbox_priorbox
I1109 14:47:03.780491 16740 net.cpp:157] Top shape: 1 2 1280 (2560)
I1109 14:47:03.780494 16740 net.cpp:165] Memory required for data: 469570208
I1109 14:47:03.780496 16740 layer_factory.hpp:77] Creating layer conv7_2/sep_mbox_loc
I1109 14:47:03.780504 16740 net.cpp:100] Creating Layer conv7_2/sep_mbox_loc
I1109 14:47:03.780508 16740 net.cpp:434] conv7_2/sep_mbox_loc <- conv7_2/sep_relu7_2/sep_0_split_1
I1109 14:47:03.780514 16740 net.cpp:408] conv7_2/sep_mbox_loc -> conv7_2/sep_mbox_loc
I1109 14:47:03.783032 16740 net.cpp:150] Setting up conv7_2/sep_mbox_loc
I1109 14:47:03.783046 16740 net.cpp:157] Top shape: 1 8 5 8 (320)
I1109 14:47:03.783058 16740 net.cpp:165] Memory required for data: 469571488
I1109 14:47:03.783066 16740 layer_factory.hpp:77] Creating layer conv7_2/sep_mbox_loc_bn
I1109 14:47:03.783074 16740 net.cpp:100] Creating Layer conv7_2/sep_mbox_loc_bn
I1109 14:47:03.783078 16740 net.cpp:434] conv7_2/sep_mbox_loc_bn <- conv7_2/sep_mbox_loc
I1109 14:47:03.783087 16740 net.cpp:395] conv7_2/sep_mbox_loc_bn -> conv7_2/sep_mbox_loc (in-place)
I1109 14:47:03.783253 16740 net.cpp:150] Setting up conv7_2/sep_mbox_loc_bn
I1109 14:47:03.783259 16740 net.cpp:157] Top shape: 1 8 5 8 (320)
I1109 14:47:03.783262 16740 net.cpp:165] Memory required for data: 469572768
I1109 14:47:03.783268 16740 layer_factory.hpp:77] Creating layer conv7_2/sep_mbox_loc_scale
I1109 14:47:03.783275 16740 net.cpp:100] Creating Layer conv7_2/sep_mbox_loc_scale
I1109 14:47:03.783278 16740 net.cpp:434] conv7_2/sep_mbox_loc_scale <- conv7_2/sep_mbox_loc
I1109 14:47:03.783284 16740 net.cpp:395] conv7_2/sep_mbox_loc_scale -> conv7_2/sep_mbox_loc (in-place)
I1109 14:47:03.783316 16740 layer_factory.hpp:77] Creating layer conv7_2/sep_mbox_loc_scale
I1109 14:47:03.783409 16740 net.cpp:150] Setting up conv7_2/sep_mbox_loc_scale
I1109 14:47:03.783414 16740 net.cpp:157] Top shape: 1 8 5 8 (320)
I1109 14:47:03.783417 16740 net.cpp:165] Memory required for data: 469574048
I1109 14:47:03.783422 16740 layer_factory.hpp:77] Creating layer conv7_2/sep_mbox_loc_perm
I1109 14:47:03.783429 16740 net.cpp:100] Creating Layer conv7_2/sep_mbox_loc_perm
I1109 14:47:03.783432 16740 net.cpp:434] conv7_2/sep_mbox_loc_perm <- conv7_2/sep_mbox_loc
I1109 14:47:03.783437 16740 net.cpp:408] conv7_2/sep_mbox_loc_perm -> conv7_2/sep_mbox_loc_perm
I1109 14:47:03.783511 16740 net.cpp:150] Setting up conv7_2/sep_mbox_loc_perm
I1109 14:47:03.783515 16740 net.cpp:157] Top shape: 1 5 8 8 (320)
I1109 14:47:03.783519 16740 net.cpp:165] Memory required for data: 469575328
I1109 14:47:03.783521 16740 layer_factory.hpp:77] Creating layer conv7_2/sep_mbox_loc_flat
I1109 14:47:03.783529 16740 net.cpp:100] Creating Layer conv7_2/sep_mbox_loc_flat
I1109 14:47:03.783531 16740 net.cpp:434] conv7_2/sep_mbox_loc_flat <- conv7_2/sep_mbox_loc_perm
I1109 14:47:03.783535 16740 net.cpp:408] conv7_2/sep_mbox_loc_flat -> conv7_2/sep_mbox_loc_flat
I1109 14:47:03.783556 16740 net.cpp:150] Setting up conv7_2/sep_mbox_loc_flat
I1109 14:47:03.783560 16740 net.cpp:157] Top shape: 1 320 (320)
I1109 14:47:03.783562 16740 net.cpp:165] Memory required for data: 469576608
I1109 14:47:03.783565 16740 layer_factory.hpp:77] Creating layer conv7_2/sep_mbox_conf
I1109 14:47:03.783573 16740 net.cpp:100] Creating Layer conv7_2/sep_mbox_conf
I1109 14:47:03.783576 16740 net.cpp:434] conv7_2/sep_mbox_conf <- conv7_2/sep_relu7_2/sep_0_split_2
I1109 14:47:03.783582 16740 net.cpp:408] conv7_2/sep_mbox_conf -> conv7_2/sep_mbox_conf
I1109 14:47:03.785765 16740 net.cpp:150] Setting up conv7_2/sep_mbox_conf
I1109 14:47:03.785789 16740 net.cpp:157] Top shape: 1 10 5 8 (400)
I1109 14:47:03.785791 16740 net.cpp:165] Memory required for data: 469578208
I1109 14:47:03.785800 16740 layer_factory.hpp:77] Creating layer conv7_2/sep_mbox_conf_bn
I1109 14:47:03.785811 16740 net.cpp:100] Creating Layer conv7_2/sep_mbox_conf_bn
I1109 14:47:03.785818 16740 net.cpp:434] conv7_2/sep_mbox_conf_bn <- conv7_2/sep_mbox_conf
I1109 14:47:03.785825 16740 net.cpp:395] conv7_2/sep_mbox_conf_bn -> conv7_2/sep_mbox_conf (in-place)
I1109 14:47:03.786026 16740 net.cpp:150] Setting up conv7_2/sep_mbox_conf_bn
I1109 14:47:03.786033 16740 net.cpp:157] Top shape: 1 10 5 8 (400)
I1109 14:47:03.786036 16740 net.cpp:165] Memory required for data: 469579808
I1109 14:47:03.786043 16740 layer_factory.hpp:77] Creating layer conv7_2/sep_mbox_conf_scale
I1109 14:47:03.786051 16740 net.cpp:100] Creating Layer conv7_2/sep_mbox_conf_scale
I1109 14:47:03.786053 16740 net.cpp:434] conv7_2/sep_mbox_conf_scale <- conv7_2/sep_mbox_conf
I1109 14:47:03.786061 16740 net.cpp:395] conv7_2/sep_mbox_conf_scale -> conv7_2/sep_mbox_conf (in-place)
I1109 14:47:03.786101 16740 layer_factory.hpp:77] Creating layer conv7_2/sep_mbox_conf_scale
I1109 14:47:03.786213 16740 net.cpp:150] Setting up conv7_2/sep_mbox_conf_scale
I1109 14:47:03.786219 16740 net.cpp:157] Top shape: 1 10 5 8 (400)
I1109 14:47:03.786222 16740 net.cpp:165] Memory required for data: 469581408
I1109 14:47:03.786228 16740 layer_factory.hpp:77] Creating layer conv7_2/sep_mbox_conf_perm
I1109 14:47:03.786236 16740 net.cpp:100] Creating Layer conv7_2/sep_mbox_conf_perm
I1109 14:47:03.786238 16740 net.cpp:434] conv7_2/sep_mbox_conf_perm <- conv7_2/sep_mbox_conf
I1109 14:47:03.786247 16740 net.cpp:408] conv7_2/sep_mbox_conf_perm -> conv7_2/sep_mbox_conf_perm
I1109 14:47:03.786327 16740 net.cpp:150] Setting up conv7_2/sep_mbox_conf_perm
I1109 14:47:03.786332 16740 net.cpp:157] Top shape: 1 5 8 10 (400)
I1109 14:47:03.786334 16740 net.cpp:165] Memory required for data: 469583008
I1109 14:47:03.786337 16740 layer_factory.hpp:77] Creating layer conv7_2/sep_mbox_conf_flat
I1109 14:47:03.786342 16740 net.cpp:100] Creating Layer conv7_2/sep_mbox_conf_flat
I1109 14:47:03.786345 16740 net.cpp:434] conv7_2/sep_mbox_conf_flat <- conv7_2/sep_mbox_conf_perm
I1109 14:47:03.786351 16740 net.cpp:408] conv7_2/sep_mbox_conf_flat -> conv7_2/sep_mbox_conf_flat
I1109 14:47:03.786373 16740 net.cpp:150] Setting up conv7_2/sep_mbox_conf_flat
I1109 14:47:03.786379 16740 net.cpp:157] Top shape: 1 400 (400)
I1109 14:47:03.786382 16740 net.cpp:165] Memory required for data: 469584608
I1109 14:47:03.786384 16740 layer_factory.hpp:77] Creating layer conv7_2/sep_mbox_priorbox
I1109 14:47:03.786391 16740 net.cpp:100] Creating Layer conv7_2/sep_mbox_priorbox
I1109 14:47:03.786394 16740 net.cpp:434] conv7_2/sep_mbox_priorbox <- conv7_2/sep_relu7_2/sep_0_split_3
I1109 14:47:03.786398 16740 net.cpp:434] conv7_2/sep_mbox_priorbox <- data_data_0_split_3
I1109 14:47:03.786406 16740 net.cpp:408] conv7_2/sep_mbox_priorbox -> conv7_2/sep_mbox_priorbox
I1109 14:47:03.786435 16740 net.cpp:150] Setting up conv7_2/sep_mbox_priorbox
I1109 14:47:03.786439 16740 net.cpp:157] Top shape: 1 2 320 (640)
I1109 14:47:03.786442 16740 net.cpp:165] Memory required for data: 469587168
I1109 14:47:03.786444 16740 layer_factory.hpp:77] Creating layer conv8_2/sep_mbox_loc
I1109 14:47:03.786486 16740 net.cpp:100] Creating Layer conv8_2/sep_mbox_loc
I1109 14:47:03.786490 16740 net.cpp:434] conv8_2/sep_mbox_loc <- conv8_2/sep_relu8_2/sep_0_split_1
I1109 14:47:03.786495 16740 net.cpp:408] conv8_2/sep_mbox_loc -> conv8_2/sep_mbox_loc
I1109 14:47:03.788535 16740 net.cpp:150] Setting up conv8_2/sep_mbox_loc
I1109 14:47:03.788558 16740 net.cpp:157] Top shape: 1 8 3 4 (96)
I1109 14:47:03.788561 16740 net.cpp:165] Memory required for data: 469587552
I1109 14:47:03.788573 16740 layer_factory.hpp:77] Creating layer conv8_2/sep_mbox_loc_bn
I1109 14:47:03.788588 16740 net.cpp:100] Creating Layer conv8_2/sep_mbox_loc_bn
I1109 14:47:03.788594 16740 net.cpp:434] conv8_2/sep_mbox_loc_bn <- conv8_2/sep_mbox_loc
I1109 14:47:03.788600 16740 net.cpp:395] conv8_2/sep_mbox_loc_bn -> conv8_2/sep_mbox_loc (in-place)
I1109 14:47:03.788781 16740 net.cpp:150] Setting up conv8_2/sep_mbox_loc_bn
I1109 14:47:03.788786 16740 net.cpp:157] Top shape: 1 8 3 4 (96)
I1109 14:47:03.788789 16740 net.cpp:165] Memory required for data: 469587936
I1109 14:47:03.788796 16740 layer_factory.hpp:77] Creating layer conv8_2/sep_mbox_loc_scale
I1109 14:47:03.788803 16740 net.cpp:100] Creating Layer conv8_2/sep_mbox_loc_scale
I1109 14:47:03.788807 16740 net.cpp:434] conv8_2/sep_mbox_loc_scale <- conv8_2/sep_mbox_loc
I1109 14:47:03.788813 16740 net.cpp:395] conv8_2/sep_mbox_loc_scale -> conv8_2/sep_mbox_loc (in-place)
I1109 14:47:03.788848 16740 layer_factory.hpp:77] Creating layer conv8_2/sep_mbox_loc_scale
I1109 14:47:03.788944 16740 net.cpp:150] Setting up conv8_2/sep_mbox_loc_scale
I1109 14:47:03.788949 16740 net.cpp:157] Top shape: 1 8 3 4 (96)
I1109 14:47:03.788951 16740 net.cpp:165] Memory required for data: 469588320
I1109 14:47:03.788955 16740 layer_factory.hpp:77] Creating layer conv8_2/sep_mbox_loc_perm
I1109 14:47:03.788962 16740 net.cpp:100] Creating Layer conv8_2/sep_mbox_loc_perm
I1109 14:47:03.788975 16740 net.cpp:434] conv8_2/sep_mbox_loc_perm <- conv8_2/sep_mbox_loc
I1109 14:47:03.788983 16740 net.cpp:408] conv8_2/sep_mbox_loc_perm -> conv8_2/sep_mbox_loc_perm
I1109 14:47:03.789057 16740 net.cpp:150] Setting up conv8_2/sep_mbox_loc_perm
I1109 14:47:03.789062 16740 net.cpp:157] Top shape: 1 3 4 8 (96)
I1109 14:47:03.789063 16740 net.cpp:165] Memory required for data: 469588704
I1109 14:47:03.789067 16740 layer_factory.hpp:77] Creating layer conv8_2/sep_mbox_loc_flat
I1109 14:47:03.789072 16740 net.cpp:100] Creating Layer conv8_2/sep_mbox_loc_flat
I1109 14:47:03.789074 16740 net.cpp:434] conv8_2/sep_mbox_loc_flat <- conv8_2/sep_mbox_loc_perm
I1109 14:47:03.789080 16740 net.cpp:408] conv8_2/sep_mbox_loc_flat -> conv8_2/sep_mbox_loc_flat
I1109 14:47:03.789100 16740 net.cpp:150] Setting up conv8_2/sep_mbox_loc_flat
I1109 14:47:03.789104 16740 net.cpp:157] Top shape: 1 96 (96)
I1109 14:47:03.789108 16740 net.cpp:165] Memory required for data: 469589088
I1109 14:47:03.789109 16740 layer_factory.hpp:77] Creating layer conv8_2/sep_mbox_conf
I1109 14:47:03.789119 16740 net.cpp:100] Creating Layer conv8_2/sep_mbox_conf
I1109 14:47:03.789121 16740 net.cpp:434] conv8_2/sep_mbox_conf <- conv8_2/sep_relu8_2/sep_0_split_2
I1109 14:47:03.789126 16740 net.cpp:408] conv8_2/sep_mbox_conf -> conv8_2/sep_mbox_conf
I1109 14:47:03.791631 16740 net.cpp:150] Setting up conv8_2/sep_mbox_conf
I1109 14:47:03.791643 16740 net.cpp:157] Top shape: 1 10 3 4 (120)
I1109 14:47:03.791646 16740 net.cpp:165] Memory required for data: 469589568
I1109 14:47:03.791652 16740 layer_factory.hpp:77] Creating layer conv8_2/sep_mbox_conf_bn
I1109 14:47:03.791661 16740 net.cpp:100] Creating Layer conv8_2/sep_mbox_conf_bn
I1109 14:47:03.791666 16740 net.cpp:434] conv8_2/sep_mbox_conf_bn <- conv8_2/sep_mbox_conf
I1109 14:47:03.791671 16740 net.cpp:395] conv8_2/sep_mbox_conf_bn -> conv8_2/sep_mbox_conf (in-place)
I1109 14:47:03.791828 16740 net.cpp:150] Setting up conv8_2/sep_mbox_conf_bn
I1109 14:47:03.791833 16740 net.cpp:157] Top shape: 1 10 3 4 (120)
I1109 14:47:03.791836 16740 net.cpp:165] Memory required for data: 469590048
I1109 14:47:03.791842 16740 layer_factory.hpp:77] Creating layer conv8_2/sep_mbox_conf_scale
I1109 14:47:03.791848 16740 net.cpp:100] Creating Layer conv8_2/sep_mbox_conf_scale
I1109 14:47:03.791852 16740 net.cpp:434] conv8_2/sep_mbox_conf_scale <- conv8_2/sep_mbox_conf
I1109 14:47:03.791858 16740 net.cpp:395] conv8_2/sep_mbox_conf_scale -> conv8_2/sep_mbox_conf (in-place)
I1109 14:47:03.791889 16740 layer_factory.hpp:77] Creating layer conv8_2/sep_mbox_conf_scale
I1109 14:47:03.791980 16740 net.cpp:150] Setting up conv8_2/sep_mbox_conf_scale
I1109 14:47:03.791985 16740 net.cpp:157] Top shape: 1 10 3 4 (120)
I1109 14:47:03.791987 16740 net.cpp:165] Memory required for data: 469590528
I1109 14:47:03.791992 16740 layer_factory.hpp:77] Creating layer conv8_2/sep_mbox_conf_perm
I1109 14:47:03.791999 16740 net.cpp:100] Creating Layer conv8_2/sep_mbox_conf_perm
I1109 14:47:03.792002 16740 net.cpp:434] conv8_2/sep_mbox_conf_perm <- conv8_2/sep_mbox_conf
I1109 14:47:03.792008 16740 net.cpp:408] conv8_2/sep_mbox_conf_perm -> conv8_2/sep_mbox_conf_perm
I1109 14:47:03.792083 16740 net.cpp:150] Setting up conv8_2/sep_mbox_conf_perm
I1109 14:47:03.792086 16740 net.cpp:157] Top shape: 1 3 4 10 (120)
I1109 14:47:03.792089 16740 net.cpp:165] Memory required for data: 469591008
I1109 14:47:03.792093 16740 layer_factory.hpp:77] Creating layer conv8_2/sep_mbox_conf_flat
I1109 14:47:03.792098 16740 net.cpp:100] Creating Layer conv8_2/sep_mbox_conf_flat
I1109 14:47:03.792101 16740 net.cpp:434] conv8_2/sep_mbox_conf_flat <- conv8_2/sep_mbox_conf_perm
I1109 14:47:03.792105 16740 net.cpp:408] conv8_2/sep_mbox_conf_flat -> conv8_2/sep_mbox_conf_flat
I1109 14:47:03.792126 16740 net.cpp:150] Setting up conv8_2/sep_mbox_conf_flat
I1109 14:47:03.792131 16740 net.cpp:157] Top shape: 1 120 (120)
I1109 14:47:03.792134 16740 net.cpp:165] Memory required for data: 469591488
I1109 14:47:03.792135 16740 layer_factory.hpp:77] Creating layer conv8_2/sep_mbox_priorbox
I1109 14:47:03.792150 16740 net.cpp:100] Creating Layer conv8_2/sep_mbox_priorbox
I1109 14:47:03.792153 16740 net.cpp:434] conv8_2/sep_mbox_priorbox <- conv8_2/sep_relu8_2/sep_0_split_3
I1109 14:47:03.792158 16740 net.cpp:434] conv8_2/sep_mbox_priorbox <- data_data_0_split_4
I1109 14:47:03.792163 16740 net.cpp:408] conv8_2/sep_mbox_priorbox -> conv8_2/sep_mbox_priorbox
I1109 14:47:03.792188 16740 net.cpp:150] Setting up conv8_2/sep_mbox_priorbox
I1109 14:47:03.792192 16740 net.cpp:157] Top shape: 1 2 96 (192)
I1109 14:47:03.792196 16740 net.cpp:165] Memory required for data: 469592256
I1109 14:47:03.792197 16740 layer_factory.hpp:77] Creating layer conv9_2/sep_mbox_loc
I1109 14:47:03.792206 16740 net.cpp:100] Creating Layer conv9_2/sep_mbox_loc
I1109 14:47:03.792208 16740 net.cpp:434] conv9_2/sep_mbox_loc <- conv9_2/sep_relu9_2/sep_0_split_1
I1109 14:47:03.792214 16740 net.cpp:408] conv9_2/sep_mbox_loc -> conv9_2/sep_mbox_loc
I1109 14:47:03.794330 16740 net.cpp:150] Setting up conv9_2/sep_mbox_loc
I1109 14:47:03.794351 16740 net.cpp:157] Top shape: 1 8 2 2 (32)
I1109 14:47:03.794354 16740 net.cpp:165] Memory required for data: 469592384
I1109 14:47:03.794363 16740 layer_factory.hpp:77] Creating layer conv9_2/sep_mbox_loc_bn
I1109 14:47:03.794374 16740 net.cpp:100] Creating Layer conv9_2/sep_mbox_loc_bn
I1109 14:47:03.794381 16740 net.cpp:434] conv9_2/sep_mbox_loc_bn <- conv9_2/sep_mbox_loc
I1109 14:47:03.794389 16740 net.cpp:395] conv9_2/sep_mbox_loc_bn -> conv9_2/sep_mbox_loc (in-place)
I1109 14:47:03.794562 16740 net.cpp:150] Setting up conv9_2/sep_mbox_loc_bn
I1109 14:47:03.794569 16740 net.cpp:157] Top shape: 1 8 2 2 (32)
I1109 14:47:03.794570 16740 net.cpp:165] Memory required for data: 469592512
I1109 14:47:03.794577 16740 layer_factory.hpp:77] Creating layer conv9_2/sep_mbox_loc_scale
I1109 14:47:03.794584 16740 net.cpp:100] Creating Layer conv9_2/sep_mbox_loc_scale
I1109 14:47:03.794587 16740 net.cpp:434] conv9_2/sep_mbox_loc_scale <- conv9_2/sep_mbox_loc
I1109 14:47:03.794593 16740 net.cpp:395] conv9_2/sep_mbox_loc_scale -> conv9_2/sep_mbox_loc (in-place)
I1109 14:47:03.794628 16740 layer_factory.hpp:77] Creating layer conv9_2/sep_mbox_loc_scale
I1109 14:47:03.794721 16740 net.cpp:150] Setting up conv9_2/sep_mbox_loc_scale
I1109 14:47:03.794726 16740 net.cpp:157] Top shape: 1 8 2 2 (32)
I1109 14:47:03.794729 16740 net.cpp:165] Memory required for data: 469592640
I1109 14:47:03.794734 16740 layer_factory.hpp:77] Creating layer conv9_2/sep_mbox_loc_perm
I1109 14:47:03.794742 16740 net.cpp:100] Creating Layer conv9_2/sep_mbox_loc_perm
I1109 14:47:03.794745 16740 net.cpp:434] conv9_2/sep_mbox_loc_perm <- conv9_2/sep_mbox_loc
I1109 14:47:03.794750 16740 net.cpp:408] conv9_2/sep_mbox_loc_perm -> conv9_2/sep_mbox_loc_perm
I1109 14:47:03.794826 16740 net.cpp:150] Setting up conv9_2/sep_mbox_loc_perm
I1109 14:47:03.794829 16740 net.cpp:157] Top shape: 1 2 2 8 (32)
I1109 14:47:03.794832 16740 net.cpp:165] Memory required for data: 469592768
I1109 14:47:03.794836 16740 layer_factory.hpp:77] Creating layer conv9_2/sep_mbox_loc_flat
I1109 14:47:03.794842 16740 net.cpp:100] Creating Layer conv9_2/sep_mbox_loc_flat
I1109 14:47:03.794845 16740 net.cpp:434] conv9_2/sep_mbox_loc_flat <- conv9_2/sep_mbox_loc_perm
I1109 14:47:03.794849 16740 net.cpp:408] conv9_2/sep_mbox_loc_flat -> conv9_2/sep_mbox_loc_flat
I1109 14:47:03.794870 16740 net.cpp:150] Setting up conv9_2/sep_mbox_loc_flat
I1109 14:47:03.794875 16740 net.cpp:157] Top shape: 1 32 (32)
I1109 14:47:03.794878 16740 net.cpp:165] Memory required for data: 469592896
I1109 14:47:03.794880 16740 layer_factory.hpp:77] Creating layer conv9_2/sep_mbox_conf
I1109 14:47:03.794888 16740 net.cpp:100] Creating Layer conv9_2/sep_mbox_conf
I1109 14:47:03.794891 16740 net.cpp:434] conv9_2/sep_mbox_conf <- conv9_2/sep_relu9_2/sep_0_split_2
I1109 14:47:03.794898 16740 net.cpp:408] conv9_2/sep_mbox_conf -> conv9_2/sep_mbox_conf
I1109 14:47:03.796254 16740 net.cpp:150] Setting up conv9_2/sep_mbox_conf
I1109 14:47:03.796262 16740 net.cpp:157] Top shape: 1 10 2 2 (40)
I1109 14:47:03.796275 16740 net.cpp:165] Memory required for data: 469593056
I1109 14:47:03.796280 16740 layer_factory.hpp:77] Creating layer conv9_2/sep_mbox_conf_bn
I1109 14:47:03.796288 16740 net.cpp:100] Creating Layer conv9_2/sep_mbox_conf_bn
I1109 14:47:03.796291 16740 net.cpp:434] conv9_2/sep_mbox_conf_bn <- conv9_2/sep_mbox_conf
I1109 14:47:03.796298 16740 net.cpp:395] conv9_2/sep_mbox_conf_bn -> conv9_2/sep_mbox_conf (in-place)
I1109 14:47:03.796460 16740 net.cpp:150] Setting up conv9_2/sep_mbox_conf_bn
I1109 14:47:03.796466 16740 net.cpp:157] Top shape: 1 10 2 2 (40)
I1109 14:47:03.796469 16740 net.cpp:165] Memory required for data: 469593216
I1109 14:47:03.796475 16740 layer_factory.hpp:77] Creating layer conv9_2/sep_mbox_conf_scale
I1109 14:47:03.796483 16740 net.cpp:100] Creating Layer conv9_2/sep_mbox_conf_scale
I1109 14:47:03.796485 16740 net.cpp:434] conv9_2/sep_mbox_conf_scale <- conv9_2/sep_mbox_conf
I1109 14:47:03.796490 16740 net.cpp:395] conv9_2/sep_mbox_conf_scale -> conv9_2/sep_mbox_conf (in-place)
I1109 14:47:03.796524 16740 layer_factory.hpp:77] Creating layer conv9_2/sep_mbox_conf_scale
I1109 14:47:03.796612 16740 net.cpp:150] Setting up conv9_2/sep_mbox_conf_scale
I1109 14:47:03.796617 16740 net.cpp:157] Top shape: 1 10 2 2 (40)
I1109 14:47:03.796620 16740 net.cpp:165] Memory required for data: 469593376
I1109 14:47:03.796625 16740 layer_factory.hpp:77] Creating layer conv9_2/sep_mbox_conf_perm
I1109 14:47:03.796630 16740 net.cpp:100] Creating Layer conv9_2/sep_mbox_conf_perm
I1109 14:47:03.796634 16740 net.cpp:434] conv9_2/sep_mbox_conf_perm <- conv9_2/sep_mbox_conf
I1109 14:47:03.796640 16740 net.cpp:408] conv9_2/sep_mbox_conf_perm -> conv9_2/sep_mbox_conf_perm
I1109 14:47:03.796713 16740 net.cpp:150] Setting up conv9_2/sep_mbox_conf_perm
I1109 14:47:03.796717 16740 net.cpp:157] Top shape: 1 2 2 10 (40)
I1109 14:47:03.796720 16740 net.cpp:165] Memory required for data: 469593536
I1109 14:47:03.796723 16740 layer_factory.hpp:77] Creating layer conv9_2/sep_mbox_conf_flat
I1109 14:47:03.796730 16740 net.cpp:100] Creating Layer conv9_2/sep_mbox_conf_flat
I1109 14:47:03.796732 16740 net.cpp:434] conv9_2/sep_mbox_conf_flat <- conv9_2/sep_mbox_conf_perm
I1109 14:47:03.796738 16740 net.cpp:408] conv9_2/sep_mbox_conf_flat -> conv9_2/sep_mbox_conf_flat
I1109 14:47:03.796757 16740 net.cpp:150] Setting up conv9_2/sep_mbox_conf_flat
I1109 14:47:03.796761 16740 net.cpp:157] Top shape: 1 40 (40)
I1109 14:47:03.796763 16740 net.cpp:165] Memory required for data: 469593696
I1109 14:47:03.796766 16740 layer_factory.hpp:77] Creating layer conv9_2/sep_mbox_priorbox
I1109 14:47:03.796773 16740 net.cpp:100] Creating Layer conv9_2/sep_mbox_priorbox
I1109 14:47:03.796777 16740 net.cpp:434] conv9_2/sep_mbox_priorbox <- conv9_2/sep_relu9_2/sep_0_split_3
I1109 14:47:03.796780 16740 net.cpp:434] conv9_2/sep_mbox_priorbox <- data_data_0_split_5
I1109 14:47:03.796787 16740 net.cpp:408] conv9_2/sep_mbox_priorbox -> conv9_2/sep_mbox_priorbox
I1109 14:47:03.796809 16740 net.cpp:150] Setting up conv9_2/sep_mbox_priorbox
I1109 14:47:03.796813 16740 net.cpp:157] Top shape: 1 2 32 (64)
I1109 14:47:03.796815 16740 net.cpp:165] Memory required for data: 469593952
I1109 14:47:03.796818 16740 layer_factory.hpp:77] Creating layer conv10_2/sep_mbox_loc
I1109 14:47:03.796826 16740 net.cpp:100] Creating Layer conv10_2/sep_mbox_loc
I1109 14:47:03.796829 16740 net.cpp:434] conv10_2/sep_mbox_loc <- conv10_2/sep_relu10_2/sep_0_split_0
I1109 14:47:03.796836 16740 net.cpp:408] conv10_2/sep_mbox_loc -> conv10_2/sep_mbox_loc
I1109 14:47:03.798118 16740 net.cpp:150] Setting up conv10_2/sep_mbox_loc
I1109 14:47:03.798126 16740 net.cpp:157] Top shape: 1 8 1 1 (8)
I1109 14:47:03.798130 16740 net.cpp:165] Memory required for data: 469593984
I1109 14:47:03.798133 16740 layer_factory.hpp:77] Creating layer conv10_2/sep_mbox_loc_bn
I1109 14:47:03.798140 16740 net.cpp:100] Creating Layer conv10_2/sep_mbox_loc_bn
I1109 14:47:03.798143 16740 net.cpp:434] conv10_2/sep_mbox_loc_bn <- conv10_2/sep_mbox_loc
I1109 14:47:03.798149 16740 net.cpp:395] conv10_2/sep_mbox_loc_bn -> conv10_2/sep_mbox_loc (in-place)
I1109 14:47:03.798315 16740 net.cpp:150] Setting up conv10_2/sep_mbox_loc_bn
I1109 14:47:03.798319 16740 net.cpp:157] Top shape: 1 8 1 1 (8)
I1109 14:47:03.798322 16740 net.cpp:165] Memory required for data: 469594016
I1109 14:47:03.798328 16740 layer_factory.hpp:77] Creating layer conv10_2/sep_mbox_loc_scale
I1109 14:47:03.798336 16740 net.cpp:100] Creating Layer conv10_2/sep_mbox_loc_scale
I1109 14:47:03.798338 16740 net.cpp:434] conv10_2/sep_mbox_loc_scale <- conv10_2/sep_mbox_loc
I1109 14:47:03.798343 16740 net.cpp:395] conv10_2/sep_mbox_loc_scale -> conv10_2/sep_mbox_loc (in-place)
I1109 14:47:03.798375 16740 layer_factory.hpp:77] Creating layer conv10_2/sep_mbox_loc_scale
I1109 14:47:03.798465 16740 net.cpp:150] Setting up conv10_2/sep_mbox_loc_scale
I1109 14:47:03.798470 16740 net.cpp:157] Top shape: 1 8 1 1 (8)
I1109 14:47:03.798472 16740 net.cpp:165] Memory required for data: 469594048
I1109 14:47:03.798477 16740 layer_factory.hpp:77] Creating layer conv10_2/sep_mbox_loc_perm
I1109 14:47:03.798482 16740 net.cpp:100] Creating Layer conv10_2/sep_mbox_loc_perm
I1109 14:47:03.798485 16740 net.cpp:434] conv10_2/sep_mbox_loc_perm <- conv10_2/sep_mbox_loc
I1109 14:47:03.798492 16740 net.cpp:408] conv10_2/sep_mbox_loc_perm -> conv10_2/sep_mbox_loc_perm
I1109 14:47:03.798568 16740 net.cpp:150] Setting up conv10_2/sep_mbox_loc_perm
I1109 14:47:03.798573 16740 net.cpp:157] Top shape: 1 1 1 8 (8)
I1109 14:47:03.798575 16740 net.cpp:165] Memory required for data: 469594080
I1109 14:47:03.798578 16740 layer_factory.hpp:77] Creating layer conv10_2/sep_mbox_loc_flat
I1109 14:47:03.798583 16740 net.cpp:100] Creating Layer conv10_2/sep_mbox_loc_flat
I1109 14:47:03.798588 16740 net.cpp:434] conv10_2/sep_mbox_loc_flat <- conv10_2/sep_mbox_loc_perm
I1109 14:47:03.798593 16740 net.cpp:408] conv10_2/sep_mbox_loc_flat -> conv10_2/sep_mbox_loc_flat
I1109 14:47:03.798611 16740 net.cpp:150] Setting up conv10_2/sep_mbox_loc_flat
I1109 14:47:03.798615 16740 net.cpp:157] Top shape: 1 8 (8)
I1109 14:47:03.798619 16740 net.cpp:165] Memory required for data: 469594112
I1109 14:47:03.798620 16740 layer_factory.hpp:77] Creating layer conv10_2/sep_mbox_conf
I1109 14:47:03.798629 16740 net.cpp:100] Creating Layer conv10_2/sep_mbox_conf
I1109 14:47:03.798632 16740 net.cpp:434] conv10_2/sep_mbox_conf <- conv10_2/sep_relu10_2/sep_0_split_1
I1109 14:47:03.798637 16740 net.cpp:408] conv10_2/sep_mbox_conf -> conv10_2/sep_mbox_conf
I1109 14:47:03.801007 16740 net.cpp:150] Setting up conv10_2/sep_mbox_conf
I1109 14:47:03.801020 16740 net.cpp:157] Top shape: 1 10 1 1 (10)
I1109 14:47:03.801023 16740 net.cpp:165] Memory required for data: 469594152
I1109 14:47:03.801028 16740 layer_factory.hpp:77] Creating layer conv10_2/sep_mbox_conf_bn
I1109 14:47:03.801038 16740 net.cpp:100] Creating Layer conv10_2/sep_mbox_conf_bn
I1109 14:47:03.801040 16740 net.cpp:434] conv10_2/sep_mbox_conf_bn <- conv10_2/sep_mbox_conf
I1109 14:47:03.801046 16740 net.cpp:395] conv10_2/sep_mbox_conf_bn -> conv10_2/sep_mbox_conf (in-place)
I1109 14:47:03.801205 16740 net.cpp:150] Setting up conv10_2/sep_mbox_conf_bn
I1109 14:47:03.801210 16740 net.cpp:157] Top shape: 1 10 1 1 (10)
I1109 14:47:03.801213 16740 net.cpp:165] Memory required for data: 469594192
I1109 14:47:03.801220 16740 layer_factory.hpp:77] Creating layer conv10_2/sep_mbox_conf_scale
I1109 14:47:03.801228 16740 net.cpp:100] Creating Layer conv10_2/sep_mbox_conf_scale
I1109 14:47:03.801230 16740 net.cpp:434] conv10_2/sep_mbox_conf_scale <- conv10_2/sep_mbox_conf
I1109 14:47:03.801234 16740 net.cpp:395] conv10_2/sep_mbox_conf_scale -> conv10_2/sep_mbox_conf (in-place)
I1109 14:47:03.801267 16740 layer_factory.hpp:77] Creating layer conv10_2/sep_mbox_conf_scale
I1109 14:47:03.801357 16740 net.cpp:150] Setting up conv10_2/sep_mbox_conf_scale
I1109 14:47:03.801362 16740 net.cpp:157] Top shape: 1 10 1 1 (10)
I1109 14:47:03.801364 16740 net.cpp:165] Memory required for data: 469594232
I1109 14:47:03.801369 16740 layer_factory.hpp:77] Creating layer conv10_2/sep_mbox_conf_perm
I1109 14:47:03.801384 16740 net.cpp:100] Creating Layer conv10_2/sep_mbox_conf_perm
I1109 14:47:03.801388 16740 net.cpp:434] conv10_2/sep_mbox_conf_perm <- conv10_2/sep_mbox_conf
I1109 14:47:03.801393 16740 net.cpp:408] conv10_2/sep_mbox_conf_perm -> conv10_2/sep_mbox_conf_perm
I1109 14:47:03.801470 16740 net.cpp:150] Setting up conv10_2/sep_mbox_conf_perm
I1109 14:47:03.801475 16740 net.cpp:157] Top shape: 1 1 1 10 (10)
I1109 14:47:03.801476 16740 net.cpp:165] Memory required for data: 469594272
I1109 14:47:03.801479 16740 layer_factory.hpp:77] Creating layer conv10_2/sep_mbox_conf_flat
I1109 14:47:03.801486 16740 net.cpp:100] Creating Layer conv10_2/sep_mbox_conf_flat
I1109 14:47:03.801488 16740 net.cpp:434] conv10_2/sep_mbox_conf_flat <- conv10_2/sep_mbox_conf_perm
I1109 14:47:03.801493 16740 net.cpp:408] conv10_2/sep_mbox_conf_flat -> conv10_2/sep_mbox_conf_flat
I1109 14:47:03.801513 16740 net.cpp:150] Setting up conv10_2/sep_mbox_conf_flat
I1109 14:47:03.801518 16740 net.cpp:157] Top shape: 1 10 (10)
I1109 14:47:03.801520 16740 net.cpp:165] Memory required for data: 469594312
I1109 14:47:03.801523 16740 layer_factory.hpp:77] Creating layer conv10_2/sep_mbox_priorbox
I1109 14:47:03.801530 16740 net.cpp:100] Creating Layer conv10_2/sep_mbox_priorbox
I1109 14:47:03.801534 16740 net.cpp:434] conv10_2/sep_mbox_priorbox <- conv10_2/sep_relu10_2/sep_0_split_2
I1109 14:47:03.801539 16740 net.cpp:434] conv10_2/sep_mbox_priorbox <- data_data_0_split_6
I1109 14:47:03.801545 16740 net.cpp:408] conv10_2/sep_mbox_priorbox -> conv10_2/sep_mbox_priorbox
I1109 14:47:03.801569 16740 net.cpp:150] Setting up conv10_2/sep_mbox_priorbox
I1109 14:47:03.801574 16740 net.cpp:157] Top shape: 1 2 8 (16)
I1109 14:47:03.801576 16740 net.cpp:165] Memory required for data: 469594376
I1109 14:47:03.801579 16740 layer_factory.hpp:77] Creating layer mbox_loc
I1109 14:47:03.801584 16740 net.cpp:100] Creating Layer mbox_loc
I1109 14:47:03.801589 16740 net.cpp:434] mbox_loc <- conv5_3/expand_mbox_loc_flat
I1109 14:47:03.801594 16740 net.cpp:434] mbox_loc <- conv6_4_mbox_loc_flat
I1109 14:47:03.801599 16740 net.cpp:434] mbox_loc <- conv7_2/sep_mbox_loc_flat
I1109 14:47:03.801604 16740 net.cpp:434] mbox_loc <- conv8_2/sep_mbox_loc_flat
I1109 14:47:03.801609 16740 net.cpp:434] mbox_loc <- conv9_2/sep_mbox_loc_flat
I1109 14:47:03.801612 16740 net.cpp:434] mbox_loc <- conv10_2/sep_mbox_loc_flat
I1109 14:47:03.801617 16740 net.cpp:408] mbox_loc -> mbox_loc
I1109 14:47:03.801640 16740 net.cpp:150] Setting up mbox_loc
I1109 14:47:03.801645 16740 net.cpp:157] Top shape: 1 6600 (6600)
I1109 14:47:03.801646 16740 net.cpp:165] Memory required for data: 469620776
I1109 14:47:03.801650 16740 layer_factory.hpp:77] Creating layer mbox_conf
I1109 14:47:03.801656 16740 net.cpp:100] Creating Layer mbox_conf
I1109 14:47:03.801661 16740 net.cpp:434] mbox_conf <- conv5_3/expand_mbox_conf_flat
I1109 14:47:03.801664 16740 net.cpp:434] mbox_conf <- conv6_4_mbox_conf_flat
I1109 14:47:03.801668 16740 net.cpp:434] mbox_conf <- conv7_2/sep_mbox_conf_flat
I1109 14:47:03.801672 16740 net.cpp:434] mbox_conf <- conv8_2/sep_mbox_conf_flat
I1109 14:47:03.801677 16740 net.cpp:434] mbox_conf <- conv9_2/sep_mbox_conf_flat
I1109 14:47:03.801681 16740 net.cpp:434] mbox_conf <- conv10_2/sep_mbox_conf_flat
I1109 14:47:03.801687 16740 net.cpp:408] mbox_conf -> mbox_conf
I1109 14:47:03.801705 16740 net.cpp:150] Setting up mbox_conf
I1109 14:47:03.801708 16740 net.cpp:157] Top shape: 1 8250 (8250)
I1109 14:47:03.801709 16740 net.cpp:165] Memory required for data: 469653776
I1109 14:47:03.801712 16740 layer_factory.hpp:77] Creating layer mbox_priorbox
I1109 14:47:03.801714 16740 net.cpp:100] Creating Layer mbox_priorbox
I1109 14:47:03.801717 16740 net.cpp:434] mbox_priorbox <- conv5_3/expand_mbox_priorbox
I1109 14:47:03.801718 16740 net.cpp:434] mbox_priorbox <- conv6_4_mbox_priorbox
I1109 14:47:03.801720 16740 net.cpp:434] mbox_priorbox <- conv7_2/sep_mbox_priorbox
I1109 14:47:03.801723 16740 net.cpp:434] mbox_priorbox <- conv8_2/sep_mbox_priorbox
I1109 14:47:03.801724 16740 net.cpp:434] mbox_priorbox <- conv9_2/sep_mbox_priorbox
I1109 14:47:03.801733 16740 net.cpp:434] mbox_priorbox <- conv10_2/sep_mbox_priorbox
I1109 14:47:03.801736 16740 net.cpp:408] mbox_priorbox -> mbox_priorbox
I1109 14:47:03.801753 16740 net.cpp:150] Setting up mbox_priorbox
I1109 14:47:03.801755 16740 net.cpp:157] Top shape: 1 2 6600 (13200)
I1109 14:47:03.801756 16740 net.cpp:165] Memory required for data: 469706576
I1109 14:47:03.801759 16740 layer_factory.hpp:77] Creating layer mbox_conf_reshape
I1109 14:47:03.801761 16740 net.cpp:100] Creating Layer mbox_conf_reshape
I1109 14:47:03.801764 16740 net.cpp:434] mbox_conf_reshape <- mbox_conf
I1109 14:47:03.801766 16740 net.cpp:408] mbox_conf_reshape -> mbox_conf_reshape
I1109 14:47:03.801787 16740 net.cpp:150] Setting up mbox_conf_reshape
I1109 14:47:03.801790 16740 net.cpp:157] Top shape: 1 1650 5 (8250)
I1109 14:47:03.801792 16740 net.cpp:165] Memory required for data: 469739576
I1109 14:47:03.801793 16740 layer_factory.hpp:77] Creating layer mbox_conf_softmax
I1109 14:47:03.801797 16740 net.cpp:100] Creating Layer mbox_conf_softmax
I1109 14:47:03.801798 16740 net.cpp:434] mbox_conf_softmax <- mbox_conf_reshape
I1109 14:47:03.801801 16740 net.cpp:408] mbox_conf_softmax -> mbox_conf_softmax
I1109 14:47:03.802150 16740 net.cpp:150] Setting up mbox_conf_softmax
I1109 14:47:03.802155 16740 net.cpp:157] Top shape: 1 1650 5 (8250)
I1109 14:47:03.802155 16740 net.cpp:165] Memory required for data: 469772576
I1109 14:47:03.802157 16740 layer_factory.hpp:77] Creating layer mbox_conf_flatten
I1109 14:47:03.802160 16740 net.cpp:100] Creating Layer mbox_conf_flatten
I1109 14:47:03.802162 16740 net.cpp:434] mbox_conf_flatten <- mbox_conf_softmax
I1109 14:47:03.802165 16740 net.cpp:408] mbox_conf_flatten -> mbox_conf_flatten
I1109 14:47:03.802183 16740 net.cpp:150] Setting up mbox_conf_flatten
I1109 14:47:03.802186 16740 net.cpp:157] Top shape: 1 8250 (8250)
I1109 14:47:03.802187 16740 net.cpp:165] Memory required for data: 469805576
I1109 14:47:03.802188 16740 layer_factory.hpp:77] Creating layer detection_out
I1109 14:47:03.802199 16740 net.cpp:100] Creating Layer detection_out
I1109 14:47:03.802201 16740 net.cpp:434] detection_out <- mbox_loc
I1109 14:47:03.802204 16740 net.cpp:434] detection_out <- mbox_conf_flatten
I1109 14:47:03.802206 16740 net.cpp:434] detection_out <- mbox_priorbox
I1109 14:47:03.802211 16740 net.cpp:408] detection_out -> detection_out
W1109 14:47:03.802229 16740 detection_output_layer.cpp:49] Failed to create directory: /home/zhongyilin/Documents/data/GTSDBdevkit/results/GTSDB/SSDLite_510x300_100_40_Square_1/Main
I1109 14:47:03.802500 16740 net.cpp:150] Setting up detection_out
I1109 14:47:03.802505 16740 net.cpp:157] Top shape: 1 1 1 7 (7)
I1109 14:47:03.802506 16740 net.cpp:165] Memory required for data: 469805604
I1109 14:47:03.802508 16740 layer_factory.hpp:77] Creating layer detection_eval
I1109 14:47:03.802512 16740 net.cpp:100] Creating Layer detection_eval
I1109 14:47:03.802515 16740 net.cpp:434] detection_eval <- detection_out
I1109 14:47:03.802517 16740 net.cpp:434] detection_eval <- label
I1109 14:47:03.802520 16740 net.cpp:408] detection_eval -> detection_eval
I1109 14:47:03.802597 16740 net.cpp:150] Setting up detection_eval
I1109 14:47:03.802600 16740 net.cpp:157] Top shape: 1 1 5 5 (25)
I1109 14:47:03.802603 16740 net.cpp:165] Memory required for data: 469805704
I1109 14:47:03.802604 16740 net.cpp:228] detection_eval does not need backward computation.
I1109 14:47:03.802606 16740 net.cpp:228] detection_out does not need backward computation.
I1109 14:47:03.802608 16740 net.cpp:228] mbox_conf_flatten does not need backward computation.
I1109 14:47:03.802610 16740 net.cpp:228] mbox_conf_softmax does not need backward computation.
…
