…
      sampler {
        min_scale: 0.3
        max_scale: 1
        min_aspect_ratio: 0.5
        max_aspect_ratio: 2
      }
      sample_constraint {
        min_jaccard_overlap: 0.9
      }
      max_sample: 1
      max_trials: 50
    }
    batch_sampler {
      sampler {
        min_scale: 0.3
        max_scale: 1
        min_aspect_ratio: 0.5
        max_aspect_ratio: 2
      }
      sample_constraint {
        max_jaccard_overlap: 1
      }
      max_sample: 1
      max_trials: 50
    }
    label_map_file: "data/GTSDB/labelmap_GTSDB.prototxt"
  }
}
layer {
  name: "conv1"
  type: "Convolution"
  bottom: "data"
  top: "conv1"
  param {
    lr_mult: 1
    decay_mult: 1
  }
  convolution_param {
    num_output: 32
    bias_term: false
    pad: 1
    kernel_size: 3
    stride: 2
    weight_filler {
      type: "msra"
    }
  }
}
layer {
  name: "conv1/bn"
  type: "BatchNorm"
  bottom: "conv1"
  top: "conv1"
  batch_norm_param {
    use_global_stats: true
    eps: 1e-05
  }
}
layer {
  name: "conv1/scale"
  type: "Scale"
  bottom: "conv1"
  top: "conv1"
  param {
    lr_mult: 1
    decay_mult: 0
  }
  param {
    lr_mult: 1
    decay_mult: 0
  }
  scale_param {
    bias_term: true
  }
}
layer {
  name: "relu1"
  type: "ReLU"
  bottom: "conv1"
  top: "conv1"
}
layer {
  name: "conv2_1/expand"
  type: "Convolution"
  bottom: "conv1"
  top: "conv2_1/expand"
  param {
    lr_mult: 1
    decay_mult: 1
  }
  convolution_param {
    num_output: 32
    bias_term: false
    kernel_size: 1
    weight_filler {
      type: "msra"
    }
  }
}
layer {
  name: "conv2_1/expand/bn"
  type: "BatchNorm"
  bottom: "conv2_1/expand"
  top: "conv2_1/expand"
  batch_norm_param {
    use_global_stats: true
    eps: 1e-05
  }
}
layer {
  name: "conv2_1/expand/scale"
  type: "Scale"
  bottom: "conv2_1/expand"
  top: "conv2_1/expand"
  param {
    lr_mult: 1
    decay_mult: 0
  }
  param {
    lr_mult: 1
    decay_mult: 0
  }
  scale_param {
    bias_term: true
  }
}
layer {
  name: "relu2_1/expand"
  type: "ReLU"
  bottom: "conv2_1/expand"
  top: "conv2_1/expand"
}
layer {
  name: "conv2_1/dwise"
  type: "DepthwiseConvolution"
  bottom: "conv2_1/expand"
  top: "conv2_1/dwise"
  param {
    lr_mult: 1
    decay_mult: 1
  }
  convolution_param {
    num_output: 32
    bias_term: false
    pad: 1
    kernel_size: 3
    group: 32
    stride: 1
    weight_filler {
      type: "msra"
    }
  }
}
layer {
  name: "conv2_1/dwise/bn"
  type: "BatchNorm"
  bottom: "conv2_1/dwise"
  top: "conv2_1/dwise"
  batch_norm_param {
    use_global_stats: true
    eps: 1e-05
  }
}
layer {
  name: "conv2_1/dwise/scale"
  type: "Scale"
  bottom: "conv2_1/dwise"
  top: "conv2_1/dwise"
  param {
    lr_mult: 1
    decay_mult: 0
  }
  param {
    lr_mult: 1
    decay_mult: 0
  }
  scale_param {
    bias_term: true
  }
}
layer {
  name: "relu2_1/dwise"
  type: "ReLU"
  bottom: "conv2_1/dwise"
  top: "conv2_1/dwise"
}
layer {
  name: "conv2_1/linear"
  type: "Convolution"
  bottom: "conv2_1/dwise"
  top: "conv2_1/linear"
  param {
    lr_mult: 1
    decay_mult: 1
  }
  convolution_param {
    num_output: 16
    bias_term: false
    kernel_size: 1
    weight_filler {
      type: "msra"
    }
  }
}
layer {
  name: "conv2_1/linear/bn"
  type: "BatchNorm"
  bottom: "conv2_1/linear"
  top: "conv2_1/linear"
  batch_norm_param {
    use_global_stats: true
    eps: 1e-05
  }
}
layer {
  name: "conv2_1/linear/scale"
  type: "Scale"
  bottom: "conv2_1/linear"
  top: "conv2_1/linear"
  param {
    lr_mult: 1
    decay_mult: 0
  }
  param {
    lr_mult: 1
    decay_mult: 0
  }
  scale_param {
    bias_term: true
  }
}
layer {
  name: "conv2_2/expand"
  type: "Convolution"
  bottom: "conv2_1/linear"
  top: "conv2_2/expand"
  param {
    lr_mult: 1
    decay_mult: 1
  }
  convolution_param {
    num_output: 96
    bias_term: false
    kernel_size: 1
    weight_filler {
      type: "msra"
    }
  }
}
layer {
  name: "conv2_2/expand/bn"
  type: "BatchNorm"
  bottom: "conv2_2/expand"
  top: "conv2_2/expand"
  batch_norm_param {
    use_global_stats: true
    eps: 1e-05
  }
}
layer {
  name: "conv2_2/expand/scale"
  type: "Scale"
  bottom: "conv2_2/expand"
  top: "conv2_2/expand"
  param {
    lr_mult: 1
    decay_mult: 0
  }
  param {
    lr_mult: 1
    decay_mult: 0
  }
  scale_param {
    bias_term: true
  }
}
layer {
  name: "relu2_2/expand"
  type: "ReLU"
  bottom: "conv2_2/expand"
  top: "conv2_2/expand"
}
layer {
  name: "conv2_2/dwise"
  type: "DepthwiseConvolution"
  bottom: "conv2_2/expand"
  top: "conv2_2/dwise"
  param {
    lr_mult: 1
    decay_mult: 1
  }
  convolution_param {
    num_output: 96
    bias_term: false
    pad: 1
    kernel_size: 3
    group: 96
    stride: 2
    weight_filler {
      type: "msra"
    }
  }
}
layer {
  name: "conv2_2/dwise/bn"
  type: "BatchNorm"
  bottom: "conv2_2/dwise"
  top: "conv2_2/dwise"
  batch_norm_param {
    use_global_stats: true
    eps: 1e-05
  }
}
layer {
  name: "conv2_2/dwise/scale"
  type: "Scale"
  bottom: "conv2_2/dwise"
  top: "conv2_2/dwise"
  param {
    lr_mult: 1
    decay_mult: 0
  }
  param {
    lr_mult: 1
    decay_mult: 0
  }
  scale_param {
    bias_term: true
  }
}
layer {
  name: "relu2_2/dwise"
  type: "ReLU"
  bottom: "conv2_2/dwise"
  top: "conv2_2/dwise"
}
layer {
  name: "conv2_2/linear"
  type: "Convolution"
  bottom: "conv2_2/dwise"
  top: "conv2_2/linear"
  param {
    lr_mult: 1
    decay_mult: 1
  }
  convolution_param {
    num_output: 24
    bias_term: false
    kernel_size: 1
    weight_filler {
      type: "msra"
    }
  }
}
layer {
  name: "conv2_2/linear/bn"
  type: "BatchNorm"
  bottom: "conv2_2/linear"
  top: "conv2_2/linear"
  batch_norm_param {
    use_global_stats: true
    eps: 1e-05
  }
}
layer {
  name: "conv2_2/linear/scale"
  type: "Scale"
  bottom: "conv2_2/linear"
  top: "conv2_2/linear"
  param {
    lr_mult: 1
    decay_mult: 0
  }
  param {
    lr_mult: 1
    decay_mult: 0
  }
  scale_param {
    bias_term: true
  }
}
layer {
  name: "conv3_1/expand"
  type: "Convolution"
  bottom: "conv2_2/linear"
  top: "conv3_1/expand"
  param {
    lr_mult: 1
    decay_mult: 1
  }
  convolution_param {
    num_output: 144
    bias_term: false
    kernel_size: 1
    weight_filler {
      type: "msra"
    }
  }
}
layer {
  name: "conv3_1/expand/bn"
  type: "BatchNorm"
  bottom: "conv3_1/expand"
  top: "conv3_1/expand"
  batch_norm_param {
    use_global_stats: true
    eps: 1e-05
  }
}
layer {
  name: "conv3_1/expand/scale"
  type: "Scale"
  bottom: "conv3_1/expand"
  top: "conv3_1/expand"
  param {
    lr_mult: 1
    decay_mult: 0
  }
  param {
    lr_mult: 1
    decay_mult: 0
  }
  scale_param {
    bias_term: true
  }
}
layer {
  name: "relu3_1/expand"
  type: "ReLU"
  bottom: "conv3_1/expand"
  top: "conv3_1/expand"
}
layer {
  name: "conv3_1/dwise"
  type: "DepthwiseConvolution"
  bottom: "conv3_1/expand"
  top: "conv3_1/dwise"
  param {
    lr_mult: 1
    decay_mult: 1
  }
  convolution_param {
    num_output: 144
    bias_term: false
    pad: 1
    kernel_size: 3
    group: 144
    stride: 1
    weight_filler {
      type: "msra"
    }
  }
}
layer {
  name: "conv3_1/dwise/bn"
  type: "BatchNorm"
  bottom: "conv3_1/dwise"
  top: "conv3_1/dwise"
  batch_norm_param {
    use_global_stats: true
    eps: 1e-05
  }
}
layer {
  name: "conv3_1/dwise/scale"
  type: "Scale"
  bottom: "conv3_1/dwise"
  top: "conv3_1/dwise"
  param {
    lr_mult: 1
    decay_mult: 0
  }
  param {
    lr_mult: 1
    decay_mult: 0
  }
  scale_param {
    bias_term: true
  }
}
layer {
  name: "relu3_1/dwise"
  type: "ReLU"
  bottom: "conv3_1/dwise"
  top: "conv3_1/dwise"
}
layer {
  name: "conv3_1/linear"
  type: "Convolution"
  bottom: "conv3_1/dwise"
  top: "conv3_1/linear"
  param {
    lr_mult: 1
    decay_mult: 1
  }
  convolution_param {
    num_output: 24
    bias_term: false
    kernel_size: 1
    weight_filler {
      type: "msra"
    }
  }
}
layer {
  name: "conv3_1/linear/bn"
  type: "BatchNorm"
  bottom: "conv3_1/linear"
  top: "conv3_1/linear"
  batch_norm_param {
    use_global_stats: true
    eps: 1e-05
  }
}
layer {
  name: "conv3_1/linear/scale"
  type: "Scale"
  bottom: "conv3_1/linear"
  top: "conv3_1/linear"
  param {
    lr_mult: 1
    decay_mult: 0
  }
  param {
    lr_mult: 1
    decay_mult: 0
  }
  scale_param {
    bias_term: true
  }
}
layer {
  name: "block_3_1"
  type: "Eltwise"
  bottom: "conv2_2/linear"
  bottom: "conv3_1/linear"
  top: "block_3_1"
}
layer {
  name: "conv3_2/expand"
  type: "Convolution"
  bottom: "block_3_1"
  top: "conv3_2/expand"
  param {
    lr_mult: 1
    decay_mult: 1
  }
  convolution_param {
    num_output: 144
    bias_term: false
    kernel_size: 1
    weight_filler {
      type: "msra"
    }
  }
}
layer {
  name: "conv3_2/expand/bn"
  type: "BatchNorm"
  bottom: "conv3_2/expand"
  top: "conv3_2/expand"
  batch_norm_param {
    use_global_stats: true
    eps: 1e-05
  }
}
layer {
  name: "conv3_2/expand/scale"
  type: "Scale"
  bottom: "conv3_2/expand"
  top: "conv3_2/expand"
  param {
    lr_mult: 1
    decay_mult: 0
  }
  param {
    lr_mult: 1
    decay_mult: 0
  }
  scale_param {
    bias_term: true
  }
}
layer {
  name: "relu3_2/expand"
  type: "ReLU"
  bottom: "conv3_2/expand"
  top: "conv3_2/expand"
}
layer {
  name: "conv3_2/dwise"
  type: "DepthwiseConvolution"
  bottom: "conv3_2/expand"
  top: "conv3_2/dwise"
  param {
    lr_mult: 1
    decay_mult: 1
  }
  convolution_param {
    num_output: 144
    bias_term: false
    pad: 1
    kernel_size: 3
    group: 144
    stride: 2
    weight_filler {
      type: "msra"
    }
  }
}
layer {
  name: "conv3_2/dwise/bn"
  type: "BatchNorm"
  bottom: "conv3_2/dwise"
  top: "conv3_2/dwise"
  batch_norm_param {
    use_global_stats: true
    eps: 1e-05
  }
}
layer {
  name: "conv3_2/dwise/scale"
  type: "Scale"
  bottom: "conv3_2/dwise"
  top: "conv3_2/dwise"
  param {
    lr_mult: 1
    decay_mult: 0
  }
  param {
    lr_mult: 1
    decay_mult: 0
  }
  scale_param {
    bias_term: true
  }
}
layer {
  name: "relu3_2/dwise"
  type: "ReLU"
  bottom: "conv3_2/dwise"
  top: "conv3_2/dwise"
}
layer {
  name: "conv3_2/linear"
  type: "Convolution"
  bottom: "conv3_2/dwise"
  top: "conv3_2/linear"
  param {
    lr_mult: 1
    decay_mult: 1
  }
  convolution_param {
    num_output: 32
    bias_term: false
    kernel_size: 1
    weight_filler {
      type: "msra"
    }
  }
}
layer {
  name: "conv3_2/linear/bn"
  type: "BatchNorm"
  bottom: "conv3_2/linear"
  top: "conv3_2/linear"
  batch_norm_param {
    use_global_stats: true
    eps: 1e-05
  }
}
layer {
  name: "conv3_2/linear/scale"
  type: "Scale"
  bottom: "conv3_2/linear"
  top: "conv3_2/linear"
  param {
    lr_mult: 1
    decay_mult: 0
  }
  param {
    lr_mult: 1
    decay_mult: 0
  }
  scale_param {
    bias_term: true
  }
}
layer {
  name: "conv4_1/expand"
  type: "Convolution"
  bottom: "conv3_2/linear"
  top: "conv4_1/expand"
  param {
    lr_mult: 1
    decay_mult: 1
  }
  convolution_param {
    num_output: 192
    bias_term: false
    kernel_size: 1
    weight_filler {
      type: "msra"
    }
  }
}
layer {
  name: "conv4_1/expand/bn"
  type: "BatchNorm"
  bottom: "conv4_1/expand"
  top: "conv4_1/expand"
  batch_norm_param {
    use_global_stats: true
    eps: 1e-05
  }
}
layer {
  name: "conv4_1/expand/scale"
  type: "Scale"
  bottom: "conv4_1/expand"
  top: "conv4_1/expand"
  param {
    lr_mult: 1
    decay_mult: 0
  }
  param {
    lr_mult: 1
    decay_mult: 0
  }
  scale_param {
    bias_term: true
  }
}
layer {
  name: "relu4_1/expand"
  type: "ReLU"
  bottom: "conv4_1/expand"
  top: "conv4_1/expand"
}
layer {
  name: "conv4_1/dwise"
  type: "DepthwiseConvolution"
  bottom: "conv4_1/expand"
  top: "conv4_1/dwise"
  param {
    lr_mult: 1
    decay_mult: 1
  }
  convolution_param {
    num_output: 192
    bias_term: false
    pad: 1
    kernel_size: 3
    group: 192
    stride: 1
    weight_filler {
      type: "msra"
    }
  }
}
layer {
  name: "conv4_1/dwise/bn"
  type: "BatchNorm"
  bottom: "conv4_1/dwise"
  top: "conv4_1/dwise"
  batch_norm_param {
    use_global_stats: true
    eps: 1e-05
  }
}
layer {
  name: "conv4_1/dwise/scale"
  type: "Scale"
  bottom: "conv4_1/dwise"
  top: "conv4_1/dwise"
  param {
    lr_mult: 1
    decay_mult: 0
  }
  param {
    lr_mult: 1
    decay_mult: 0
  }
  scale_param {
    bias_term: true
  }
}
layer {
  name: "relu4_1/dwise"
  type: "ReLU"
  bottom: "conv4_1/dwise"
  top: "conv4_1/dwise"
}
layer {
  name: "conv4_1/linear"
  type: "Convolution"
  bottom: "conv4_1/dwise"
  top: "conv4_1/linear"
  param {
    lr_mult: 1
    decay_mult: 1
  }
  convolution_param {
    num_output: 32
    bias_term: false
    kernel_size: 1
    weight_filler {
      type: "msra"
    }
  }
}
layer {
  name: "conv4_1/linear/bn"
  type: "BatchNorm"
  bottom: "conv4_1/linear"
  top: "conv4_1/linear"
  batch_norm_param {
    use_global_stats: true
    eps: 1e-05
  }
}
layer {
  name: "conv4_1/linear/scale"
  type: "Scale"
  bottom: "conv4_1/linear"
  top: "conv4_1/linear"
  param {
    lr_mult: 1
    decay_mult: 0
  }
  param {
    lr_mult: 1
    decay_mult: 0
  }
  scale_param {
    bias_term: true
  }
}
layer {
  name: "block_4_1"
  type: "Eltwise"
  bottom: "conv3_2/linear"
  bottom: "conv4_1/linear"
  top: "block_4_1"
}
layer {
  name: "conv4_2/expand"
  type: "Convolution"
  bottom: "block_4_1"
  top: "conv4_2/expand"
  param {
    lr_mult: 1
    decay_mult: 1
  }
  convolution_param {
    num_output: 192
    bias_term: false
    kernel_size: 1
    weight_filler {
      type: "msra"
    }
  }
}
layer {
  name: "conv4_2/expand/bn"
  type: "BatchNorm"
  bottom: "conv4_2/expand"
  top: "conv4_2/expand"
  batch_norm_param {
    use_global_stats: true
    eps: 1e-05
  }
}
layer {
  name: "conv4_2/expand/scale"
  type: "Scale"
  bottom: "conv4_2/expand"
  top: "conv4_2/expand"
  param {
    lr_mult: 1
    decay_mult: 0
  }
  param {
    lr_mult: 1
    decay_mult: 0
  }
  scale_param {
    bias_term: true
  }
}
layer {
  name: "relu4_2/expand"
  type: "ReLU"
  bottom: "conv4_2/expand"
  top: "conv4_2/expand"
}
layer {
  name: "conv4_2/dwise"
  type: "DepthwiseConvolution"
  bottom: "conv4_2/expand"
  top: "conv4_2/dwise"
  param {
    lr_mult: 1
    decay_mult: 1
  }
  convolution_param {
    num_output: 192
    bias_term: false
    pad: 1
    kernel_size: 3
    group: 192
    stride: 1
    weight_filler {
      type: "msra"
    }
  }
}
layer {
  name: "conv4_2/dwise/bn"
  type: "BatchNorm"
  bottom: "conv4_2/dwise"
  top: "conv4_2/dwise"
  batch_norm_param {
    use_global_stats: true
    eps: 1e-05
  }
}
layer {
  name: "conv4_2/dwise/scale"
  type: "Scale"
  bottom: "conv4_2/dwise"
  top: "conv4_2/dwise"
  param {
    lr_mult: 1
    decay_mult: 0
  }
  param {
    lr_mult: 1
    decay_mult: 0
  }
  scale_param {
    bias_term: true
  }
}
layer {
  name: "relu4_2/dwise"
  type: "ReLU"
  bottom: "conv4_2/dwise"
  top: "conv4_2/dwise"
}
layer {
  name: "conv4_2/linear"
  type: "Convolution"
  bottom: "conv4_2/dwise"
  top: "conv4_2/linear"
  param {
    lr_mult: 1
    decay_mult: 1
  }
  convolution_param {
    num_output: 32
    bias_term: false
    kernel_size: 1
    weight_filler {
      type: "msra"
    }
  }
}
layer {
  name: "conv4_2/linear/bn"
  type: "BatchNorm"
  bottom: "conv4_2/linear"
  top: "conv4_2/linear"
  batch_norm_param {
    use_global_stats: true
    eps: 1e-05
  }
}
layer {
  name: "conv4_2/linear/scale"
  type: "Scale"
  bottom: "conv4_2/linear"
  top: "conv4_2/linear"
  param {
    lr_mult: 1
    decay_mult: 0
  }
  param {
    lr_mult: 1
    decay_mult: 0
  }
  scale_param {
    bias_term: true
  }
}
layer {
  name: "block_4_2"
  type: "Eltwise"
  bottom: "block_4_1"
  bottom: "conv4_2/linear"
  top: "block_4_2"
}
layer {
  name: "conv4_3/expand"
  type: "Convolution"
  bottom: "block_4_2"
  top: "conv4_3/expand"
  param {
    lr_mult: 1
    decay_mult: 1
  }
  convolution_param {
    num_output: 192
    bias_term: false
    kernel_size: 1
    weight_filler {
      type: "msra"
    }
  }
}
layer {
  name: "conv4_3/expand/bn"
  type: "BatchNorm"
  bottom: "conv4_3/expand"
  top: "conv4_3/expand"
  batch_norm_param {
    use_global_stats: true
    eps: 1e-05
  }
}
layer {
  name: "conv4_3/expand/scale"
  type: "Scale"
  bottom: "conv4_3/expand"
  top: "conv4_3/expand"
  param {
    lr_mult: 1
    decay_mult: 0
  }
  param {
    lr_mult: 1
    decay_mult: 0
  }
  scale_param {
    bias_term: true
  }
}
layer {
  name: "relu4_3/expand"
  type: "ReLU"
  bottom: "conv4_3/expand"
  top: "conv4_3/expand"
}
layer {
  name: "conv4_3/dwise"
  type: "DepthwiseConvolution"
  bottom: "conv4_3/expand"
  top: "conv4_3/dwise"
  param {
    lr_mult: 1
    decay_mult: 1
  }
  convolution_param {
    num_output: 192
    bias_term: false
    pad: 1
    kernel_size: 3
    group: 192
    stride: 1
    weight_filler {
      type: "msra"
    }
  }
}
layer {
  name: "conv4_3/dwise/bn"
  type: "BatchNorm"
  bottom: "conv4_3/dwise"
  top: "conv4_3/dwise"
  batch_norm_param {
    use_global_stats: true
    eps: 1e-05
  }
}
layer {
  name: "conv4_3/dwise/scale"
  type: "Scale"
  bottom: "conv4_3/dwise"
  top: "conv4_3/dwise"
  param {
    lr_mult: 1
    decay_mult: 0
  }
  param {
    lr_mult: 1
    decay_mult: 0
  }
  scale_param {
    bias_term: true
  }
}
layer {
  name: "relu4_3/dwise"
  type: "ReLU"
  bottom: "conv4_3/dwise"
  top: "conv4_3/dwise"
}
layer {
  name: "conv4_3/linear"
  type: "Convolution"
  bottom: "conv4_3/dwise"
  top: "conv4_3/linear"
  param {
    lr_mult: 1
    decay_mult: 1
  }
  convolution_param {
    num_output: 64
    bias_term: false
    kernel_size: 1
    weight_filler {
      type: "msra"
    }
  }
}
layer {
  name: "conv4_3/linear/bn"
  type: "BatchNorm"
  bottom: "conv4_3/linear"
  top: "conv4_3/linear"
  batch_norm_param {
    use_global_stats: true
    eps: 1e-05
  }
}
layer {
  name: "conv4_3/linear/scale"
  type: "Scale"
  bottom: "conv4_3/linear"
  top: "conv4_3/linear"
  param {
    lr_mult: 1
    decay_mult: 0
  }
  param {
    lr_mult: 1
    decay_mult: 0
  }
  scale_param {
    bias_term: true
  }
}
layer {
  name: "conv4_4/expand"
  type: "Convolution"
  bottom: "conv4_3/linear"
  top: "conv4_4/expand"
  param {
    lr_mult: 1
    decay_mult: 1
  }
  convolution_param {
    num_output: 384
    bias_term: false
    kernel_size: 1
    weight_filler {
      type: "msra"
    }
  }
}
layer {
  name: "conv4_4/expand/bn"
  type: "BatchNorm"
  bottom: "conv4_4/expand"
  top: "conv4_4/expand"
  batch_norm_param {
    use_global_stats: true
    eps: 1e-05
  }
}
layer {
  name: "conv4_4/expand/scale"
  type: "Scale"
  bottom: "conv4_4/expand"
  top: "conv4_4/expand"
  param {
    lr_mult: 1
    decay_mult: 0
  }
  param {
    lr_mult: 1
    decay_mult: 0
  }
  scale_param {
    bias_term: true
  }
}
layer {
  name: "relu4_4/expand"
  type: "ReLU"
  bottom: "conv4_4/expand"
  top: "conv4_4/expand"
}
layer {
  name: "conv4_4/dwise"
  type: "DepthwiseConvolution"
  bottom: "conv4_4/expand"
  top: "conv4_4/dwise"
  param {
    lr_mult: 1
    decay_mult: 1
  }
  convolution_param {
    num_output: 384
    bias_term: false
    pad: 1
    kernel_size: 3
    group: 384
    stride: 1
    weight_filler {
      type: "msra"
    }
  }
}
layer {
  name: "conv4_4/dwise/bn"
  type: "BatchNorm"
  bottom: "conv4_4/dwise"
  top: "conv4_4/dwise"
  batch_norm_param {
    use_global_stats: true
    eps: 1e-05
  }
}
layer {
  name: "conv4_4/dwise/scale"
  type: "Scale"
  bottom: "conv4_4/dwise"
  top: "conv4_4/dwise"
  param {
    lr_mult: 1
    decay_mult: 0
  }
  param {
    lr_mult: 1
    decay_mult: 0
  }
  scale_param {
    bias_term: true
  }
}
layer {
  name: "relu4_4/dwise"
  type: "ReLU"
  bottom: "conv4_4/dwise"
  top: "conv4_4/dwise"
}
layer {
  name: "conv4_4/linear"
  type: "Convolution"
  bottom: "conv4_4/dwise"
  top: "conv4_4/linear"
  param {
    lr_mult: 1
    decay_mult: 1
  }
  convolution_param {
    num_output: 64
    bias_term: false
    kernel_size: 1
    weight_filler {
      type: "msra"
    }
  }
}
layer {
  name: "conv4_4/linear/bn"
  type: "BatchNorm"
  bottom: "conv4_4/linear"
  top: "conv4_4/linear"
  batch_norm_param {
    use_global_stats: true
    eps: 1e-05
  }
}
layer {
  name: "conv4_4/linear/scale"
  type: "Scale"
  bottom: "conv4_4/linear"
  top: "conv4_4/linear"
  param {
    lr_mult: 1
    decay_mult: 0
  }
  param {
    lr_mult: 1
    decay_mult: 0
  }
  scale_param {
    bias_term: true
  }
}
layer {
  name: "block_4_4"
  type: "Eltwise"
  bottom: "conv4_3/linear"
  bottom: "conv4_4/linear"
  top: "block_4_4"
}
layer {
  name: "conv4_5/expand"
  type: "Convolution"
  bottom: "block_4_4"
  top: "conv4_5/expand"
  param {
    lr_mult: 1
    decay_mult: 1
  }
  convolution_param {
    num_output: 384
    bias_term: false
    kernel_size: 1
    weight_filler {
      type: "msra"
    }
  }
}
layer {
  name: "conv4_5/expand/bn"
  type: "BatchNorm"
  bottom: "conv4_5/expand"
  top: "conv4_5/expand"
  batch_norm_param {
    use_global_stats: true
    eps: 1e-05
  }
}
layer {
  name: "conv4_5/expand/scale"
  type: "Scale"
  bottom: "conv4_5/expand"
  top: "conv4_5/expand"
  param {
    lr_mult: 1
    decay_mult: 0
  }
  param {
    lr_mult: 1
    decay_mult: 0
  }
  scale_param {
    bias_term: true
  }
}
layer {
  name: "relu4_5/expand"
  type: "ReLU"
  bottom: "conv4_5/expand"
  top: "conv4_5/expand"
}
layer {
  name: "conv4_5/dwise"
  type: "DepthwiseConvolution"
  bottom: "conv4_5/expand"
  top: "conv4_5/dwise"
  param {
    lr_mult: 1
    decay_mult: 1
  }
  convolution_param {
    num_output: 384
    bias_term: false
    pad: 1
    kernel_size: 3
    group: 384
    stride: 1
    weight_filler {
      type: "msra"
    }
  }
}
layer {
  name: "conv4_5/dwise/bn"
  type: "BatchNorm"
  bottom: "conv4_5/dwise"
  top: "conv4_5/dwise"
  batch_norm_param {
    use_global_stats: true
    eps: 1e-05
  }
}
layer {
  name: "conv4_5/dwise/scale"
  type: "Scale"
  bottom: "conv4_5/dwise"
  top: "conv4_5/dwise"
  param {
    lr_mult: 1
    decay_mult: 0
  }
  param {
    lr_mult: 1
    decay_mult: 0
  }
  scale_param {
    bias_term: true
  }
}
layer {
  name: "relu4_5/dwise"
  type: "ReLU"
  bottom: "conv4_5/dwise"
  top: "conv4_5/dwise"
}
layer {
  name: "conv4_5/linear"
  type: "Convolution"
  bottom: "conv4_5/dwise"
  top: "conv4_5/linear"
  param {
    lr_mult: 1
    decay_mult: 1
  }
  convolution_param {
    num_output: 64
    bias_term: false
    kernel_size: 1
    weight_filler {
      type: "msra"
    }
  }
}
layer {
  name: "conv4_5/linear/bn"
  type: "BatchNorm"
  bottom: "conv4_5/linear"
  top: "conv4_5/linear"
  batch_norm_param {
    use_global_stats: true
    eps: 1e-05
  }
}
layer {
  name: "conv4_5/linear/scale"
  type: "Scale"
  bottom: "conv4_5/linear"
  top: "conv4_5/linear"
  param {
    lr_mult: 1
    decay_mult: 0
  }
  param {
    lr_mult: 1
    decay_mult: 0
  }
  scale_param {
    bias_term: true
  }
}
layer {
  name: "block_4_5"
  type: "Eltwise"
  bottom: "block_4_4"
  bottom: "conv4_5/linear"
  top: "block_4_5"
}
layer {
  name: "conv4_6/expand"
  type: "Convolution"
  bottom: "block_4_5"
  top: "conv4_6/expand"
  param {
    lr_mult: 1
    decay_mult: 1
  }
  convolution_param {
    num_output: 384
    bias_term: false
    kernel_size: 1
    weight_filler {
      type: "msra"
    }
  }
}
layer {
  name: "conv4_6/expand/bn"
  type: "BatchNorm"
  bottom: "conv4_6/expand"
  top: "conv4_6/expand"
  batch_norm_param {
    use_global_stats: true
    eps: 1e-05
  }
}
layer {
  name: "conv4_6/expand/scale"
  type: "Scale"
  bottom: "conv4_6/expand"
  top: "conv4_6/expand"
  param {
    lr_mult: 1
    decay_mult: 0
  }
  param {
    lr_mult: 1
    decay_mult: 0
  }
  scale_param {
    bias_term: true
  }
}
layer {
  name: "relu4_6/expand"
  type: "ReLU"
  bottom: "conv4_6/expand"
  top: "conv4_6/expand"
}
layer {
  name: "conv4_6/dwise"
  type: "DepthwiseConvolution"
  bottom: "conv4_6/expand"
  top: "conv4_6/dwise"
  param {
    lr_mult: 1
    decay_mult: 1
  }
  convolution_param {
    num_output: 384
    bias_term: false
    pad: 1
    kernel_size: 3
    group: 384
    stride: 1
    weight_filler {
      type: "msra"
    }
  }
}
layer {
  name: "conv4_6/dwise/bn"
  type: "BatchNorm"
  bottom: "conv4_6/dwise"
  top: "conv4_6/dwise"
  batch_norm_param {
    use_global_stats: true
    eps: 1e-05
  }
}
layer {
  name: "conv4_6/dwise/scale"
  type: "Scale"
  bottom: "conv4_6/dwise"
  top: "conv4_6/dwise"
  param {
    lr_mult: 1
    decay_mult: 0
  }
  param {
    lr_mult: 1
    decay_mult: 0
  }
  scale_param {
    bias_term: true
  }
}
layer {
  name: "relu4_6/dwise"
  type: "ReLU"
  bottom: "conv4_6/dwise"
  top: "conv4_6/dwise"
}
layer {
  name: "conv4_6/linear"
  type: "Convolution"
  bottom: "conv4_6/dwise"
  top: "conv4_6/linear"
  param {
    lr_mult: 1
    decay_mult: 1
  }
  convolution_param {
    num_output: 64
    bias_term: false
    kernel_size: 1
    weight_filler {
      type: "msra"
    }
  }
}
layer {
  name: "conv4_6/linear/bn"
  type: "BatchNorm"
  bottom: "conv4_6/linear"
  top: "conv4_6/linear"
  batch_norm_param {
    use_global_stats: true
    eps: 1e-05
  }
}
layer {
  name: "conv4_6/linear/scale"
  type: "Scale"
  bottom: "conv4_6/linear"
  top: "conv4_6/linear"
  param {
    lr_mult: 1
    decay_mult: 0
  }
  param {
    lr_mult: 1
    decay_mult: 0
  }
  scale_param {
    bias_term: true
  }
}
layer {
  name: "block_4_6"
  type: "Eltwise"
  bottom: "block_4_5"
  bottom: "conv4_6/linear"
  top: "block_4_6"
}
layer {
  name: "conv4_7/expand"
  type: "Convolution"
  bottom: "block_4_6"
  top: "conv4_7/expand"
  param {
    lr_mult: 1
    decay_mult: 1
  }
  convolution_param {
    num_output: 384
    bias_term: false
    kernel_size: 1
    weight_filler {
      type: "msra"
    }
  }
}
layer {
  name: "conv4_7/expand/bn"
  type: "BatchNorm"
  bottom: "conv4_7/expand"
  top: "conv4_7/expand"
  batch_norm_param {
    use_global_stats: true
    eps: 1e-05
  }
}
layer {
  name: "conv4_7/expand/scale"
  type: "Scale"
  bottom: "conv4_7/expand"
  top: "conv4_7/expand"
  param {
    lr_mult: 1
    decay_mult: 0
  }
  param {
    lr_mult: 1
    decay_mult: 0
  }
  scale_param {
    bias_term: true
  }
}
layer {
  name: "relu4_7/expand"
  type: "ReLU"
  bottom: "conv4_7/expand"
  top: "conv4_7/expand"
}
layer {
  name: "conv4_7/dwise"
  type: "DepthwiseConvolution"
  bottom: "conv4_7/expand"
  top: "conv4_7/dwise"
  param {
    lr_mult: 1
    decay_mult: 1
  }
  convolution_param {
    num_output: 384
    bias_term: false
    pad: 1
    kernel_size: 3
    group: 384
    stride: 2
    weight_filler {
      type: "msra"
    }
  }
}
layer {
  name: "conv4_7/dwise/bn"
  type: "BatchNorm"
  bottom: "conv4_7/dwise"
  top: "conv4_7/dwise"
  batch_norm_param {
    use_global_stats: true
    eps: 1e-05
  }
}
layer {
  name: "conv4_7/dwise/scale"
  type: "Scale"
  bottom: "conv4_7/dwise"
  top: "conv4_7/dwise"
  param {
    lr_mult: 1
    decay_mult: 0
  }
  param {
    lr_mult: 1
    decay_mult: 0
  }
  scale_param {
    bias_term: true
  }
}
layer {
  name: "relu4_7/dwise"
  type: "ReLU"
  bottom: "conv4_7/dwise"
  top: "conv4_7/dwise"
}
layer {
  name: "conv4_7/linear"
  type: "Convolution"
  bottom: "conv4_7/dwise"
  top: "conv4_7/linear"
  param {
    lr_mult: 1
    decay_mult: 1
  }
  convolution_param {
    num_output: 96
    bias_term: false
    kernel_size: 1
    weight_filler {
      type: "msra"
    }
  }
}
layer {
  name: "conv4_7/linear/bn"
  type: "BatchNorm"
  bottom: "conv4_7/linear"
  top: "conv4_7/linear"
  batch_norm_param {
    use_global_stats: true
    eps: 1e-05
  }
}
layer {
  name: "conv4_7/linear/scale"
  type: "Scale"
  bottom: "conv4_7/linear"
  top: "conv4_7/linear"
  param {
    lr_mult: 1
    de
I1218 22:59:36.953658 31988 layer_factory.hpp:77] Creating layer data
I1218 22:59:36.953753 31988 net.cpp:100] Creating Layer data
I1218 22:59:36.953760 31988 net.cpp:408] data -> data
I1218 22:59:36.953781 31988 net.cpp:408] data -> label
I1218 22:59:36.954330 31996 db_lmdb.cpp:35] Opened lmdb examples/GTSDB/GTSDB_trainval_lmdb
I1218 22:59:36.971771 31988 annotated_data_layer.cpp:62] output data size: 1,3,300,510
I1218 22:59:36.974758 31988 net.cpp:150] Setting up data
I1218 22:59:36.974773 31988 net.cpp:157] Top shape: 1 3 300 510 (459000)
I1218 22:59:36.974777 31988 net.cpp:157] Top shape: 1 1 3 8 (24)
I1218 22:59:36.974779 31988 net.cpp:165] Memory required for data: 1836096
I1218 22:59:36.974788 31988 layer_factory.hpp:77] Creating layer data_data_0_split
I1218 22:59:36.974797 31988 net.cpp:100] Creating Layer data_data_0_split
I1218 22:59:36.974802 31988 net.cpp:434] data_data_0_split <- data
I1218 22:59:36.974812 31988 net.cpp:408] data_data_0_split -> data_data_0_split_0
I1218 22:59:36.974820 31988 net.cpp:408] data_data_0_split -> data_data_0_split_1
I1218 22:59:36.974824 31988 net.cpp:408] data_data_0_split -> data_data_0_split_2
I1218 22:59:36.974829 31988 net.cpp:408] data_data_0_split -> data_data_0_split_3
I1218 22:59:36.974833 31988 net.cpp:408] data_data_0_split -> data_data_0_split_4
I1218 22:59:36.974838 31988 net.cpp:408] data_data_0_split -> data_data_0_split_5
I1218 22:59:36.974840 31988 net.cpp:408] data_data_0_split -> data_data_0_split_6
I1218 22:59:36.974916 31988 net.cpp:150] Setting up data_data_0_split
I1218 22:59:36.974920 31988 net.cpp:157] Top shape: 1 3 300 510 (459000)
I1218 22:59:36.974925 31988 net.cpp:157] Top shape: 1 3 300 510 (459000)
I1218 22:59:36.974927 31988 net.cpp:157] Top shape: 1 3 300 510 (459000)
I1218 22:59:36.974931 31988 net.cpp:157] Top shape: 1 3 300 510 (459000)
I1218 22:59:36.974933 31988 net.cpp:157] Top shape: 1 3 300 510 (459000)
I1218 22:59:36.974936 31988 net.cpp:157] Top shape: 1 3 300 510 (459000)
I1218 22:59:36.974939 31988 net.cpp:157] Top shape: 1 3 300 510 (459000)
I1218 22:59:36.974942 31988 net.cpp:165] Memory required for data: 14688096
I1218 22:59:36.974946 31988 layer_factory.hpp:77] Creating layer conv1
I1218 22:59:36.974961 31988 net.cpp:100] Creating Layer conv1
I1218 22:59:36.974966 31988 net.cpp:434] conv1 <- data_data_0_split_0
I1218 22:59:36.974972 31988 net.cpp:408] conv1 -> conv1
I1218 22:59:37.336395 31988 net.cpp:150] Setting up conv1
I1218 22:59:37.336411 31988 net.cpp:157] Top shape: 1 32 150 255 (1224000)
I1218 22:59:37.336413 31988 net.cpp:165] Memory required for data: 19584096
I1218 22:59:37.336431 31988 layer_factory.hpp:77] Creating layer conv1/bn
I1218 22:59:37.336441 31988 net.cpp:100] Creating Layer conv1/bn
I1218 22:59:37.336444 31988 net.cpp:434] conv1/bn <- conv1
I1218 22:59:37.336448 31988 net.cpp:395] conv1/bn -> conv1 (in-place)
I1218 22:59:37.337095 31988 net.cpp:150] Setting up conv1/bn
I1218 22:59:37.337103 31988 net.cpp:157] Top shape: 1 32 150 255 (1224000)
I1218 22:59:37.337105 31988 net.cpp:165] Memory required for data: 24480096
I1218 22:59:37.337114 31988 layer_factory.hpp:77] Creating layer conv1/scale
I1218 22:59:37.337121 31988 net.cpp:100] Creating Layer conv1/scale
I1218 22:59:37.337123 31988 net.cpp:434] conv1/scale <- conv1
I1218 22:59:37.337127 31988 net.cpp:395] conv1/scale -> conv1 (in-place)
I1218 22:59:37.337157 31988 layer_factory.hpp:77] Creating layer conv1/scale
I1218 22:59:37.337247 31988 net.cpp:150] Setting up conv1/scale
I1218 22:59:37.337251 31988 net.cpp:157] Top shape: 1 32 150 255 (1224000)
I1218 22:59:37.337254 31988 net.cpp:165] Memory required for data: 29376096
I1218 22:59:37.337258 31988 layer_factory.hpp:77] Creating layer relu1
I1218 22:59:37.337262 31988 net.cpp:100] Creating Layer relu1
I1218 22:59:37.337265 31988 net.cpp:434] relu1 <- conv1
I1218 22:59:37.337268 31988 net.cpp:395] relu1 -> conv1 (in-place)
I1218 22:59:37.337618 31988 net.cpp:150] Setting up relu1
I1218 22:59:37.337625 31988 net.cpp:157] Top shape: 1 32 150 255 (1224000)
I1218 22:59:37.337627 31988 net.cpp:165] Memory required for data: 34272096
I1218 22:59:37.337630 31988 layer_factory.hpp:77] Creating layer conv2_1/expand
I1218 22:59:37.337635 31988 net.cpp:100] Creating Layer conv2_1/expand
I1218 22:59:37.337638 31988 net.cpp:434] conv2_1/expand <- conv1
I1218 22:59:37.337641 31988 net.cpp:408] conv2_1/expand -> conv2_1/expand
I1218 22:59:37.339385 31988 net.cpp:150] Setting up conv2_1/expand
I1218 22:59:37.339402 31988 net.cpp:157] Top shape: 1 32 150 255 (1224000)
I1218 22:59:37.339406 31988 net.cpp:165] Memory required for data: 39168096
I1218 22:59:37.339414 31988 layer_factory.hpp:77] Creating layer conv2_1/expand/bn
I1218 22:59:37.339426 31988 net.cpp:100] Creating Layer conv2_1/expand/bn
I1218 22:59:37.339429 31988 net.cpp:434] conv2_1/expand/bn <- conv2_1/expand
I1218 22:59:37.339435 31988 net.cpp:395] conv2_1/expand/bn -> conv2_1/expand (in-place)
I1218 22:59:37.339630 31988 net.cpp:150] Setting up conv2_1/expand/bn
I1218 22:59:37.339653 31988 net.cpp:157] Top shape: 1 32 150 255 (1224000)
I1218 22:59:37.339663 31988 net.cpp:165] Memory required for data: 44064096
I1218 22:59:37.339674 31988 layer_factory.hpp:77] Creating layer conv2_1/expand/scale
I1218 22:59:37.339685 31988 net.cpp:100] Creating Layer conv2_1/expand/scale
I1218 22:59:37.339689 31988 net.cpp:434] conv2_1/expand/scale <- conv2_1/expand
I1218 22:59:37.339694 31988 net.cpp:395] conv2_1/expand/scale -> conv2_1/expand (in-place)
I1218 22:59:37.339735 31988 layer_factory.hpp:77] Creating layer conv2_1/expand/scale
I1218 22:59:37.339840 31988 net.cpp:150] Setting up conv2_1/expand/scale
I1218 22:59:37.339846 31988 net.cpp:157] Top shape: 1 32 150 255 (1224000)
I1218 22:59:37.339849 31988 net.cpp:165] Memory required for data: 48960096
I1218 22:59:37.339854 31988 layer_factory.hpp:77] Creating layer relu2_1/expand
I1218 22:59:37.339859 31988 net.cpp:100] Creating Layer relu2_1/expand
I1218 22:59:37.339862 31988 net.cpp:434] relu2_1/expand <- conv2_1/expand
I1218 22:59:37.339867 31988 net.cpp:395] relu2_1/expand -> conv2_1/expand (in-place)
I1218 22:59:37.340204 31988 net.cpp:150] Setting up relu2_1/expand
I1218 22:59:37.340210 31988 net.cpp:157] Top shape: 1 32 150 255 (1224000)
I1218 22:59:37.340214 31988 net.cpp:165] Memory required for data: 53856096
I1218 22:59:37.340217 31988 layer_factory.hpp:77] Creating layer conv2_1/dwise
I1218 22:59:37.340225 31988 net.cpp:100] Creating Layer conv2_1/dwise
I1218 22:59:37.340229 31988 net.cpp:434] conv2_1/dwise <- conv2_1/expand
I1218 22:59:37.340234 31988 net.cpp:408] conv2_1/dwise -> conv2_1/dwise
I1218 22:59:37.340358 31988 net.cpp:150] Setting up conv2_1/dwise
I1218 22:59:37.340363 31988 net.cpp:157] Top shape: 1 32 150 255 (1224000)
I1218 22:59:37.340366 31988 net.cpp:165] Memory required for data: 58752096
I1218 22:59:37.340370 31988 layer_factory.hpp:77] Creating layer conv2_1/dwise/bn
I1218 22:59:37.340378 31988 net.cpp:100] Creating Layer conv2_1/dwise/bn
I1218 22:59:37.340380 31988 net.cpp:434] conv2_1/dwise/bn <- conv2_1/dwise
I1218 22:59:37.340384 31988 net.cpp:395] conv2_1/dwise/bn -> conv2_1/dwise (in-place)
I1218 22:59:37.340509 31988 net.cpp:150] Setting up conv2_1/dwise/bn
I1218 22:59:37.340515 31988 net.cpp:157] Top shape: 1 32 150 255 (1224000)
I1218 22:59:37.340517 31988 net.cpp:165] Memory required for data: 63648096
I1218 22:59:37.340523 31988 layer_factory.hpp:77] Creating layer conv2_1/dwise/scale
I1218 22:59:37.340528 31988 net.cpp:100] Creating Layer conv2_1/dwise/scale
I1218 22:59:37.340531 31988 net.cpp:434] conv2_1/dwise/scale <- conv2_1/dwise
I1218 22:59:37.340535 31988 net.cpp:395] conv2_1/dwise/scale -> conv2_1/dwise (in-place)
I1218 22:59:37.340565 31988 layer_factory.hpp:77] Creating layer conv2_1/dwise/scale
I1218 22:59:37.340659 31988 net.cpp:150] Setting up conv2_1/dwise/scale
I1218 22:59:37.340665 31988 net.cpp:157] Top shape: 1 32 150 255 (1224000)
I1218 22:59:37.340667 31988 net.cpp:165] Memory required for data: 68544096
I1218 22:59:37.340675 31988 layer_factory.hpp:77] Creating layer relu2_1/dwise
I1218 22:59:37.340680 31988 net.cpp:100] Creating Layer relu2_1/dwise
I1218 22:59:37.340684 31988 net.cpp:434] relu2_1/dwise <- conv2_1/dwise
I1218 22:59:37.340688 31988 net.cpp:395] relu2_1/dwise -> conv2_1/dwise (in-place)
I1218 22:59:37.341373 31988 net.cpp:150] Setting up relu2_1/dwise
I1218 22:59:37.341383 31988 net.cpp:157] Top shape: 1 32 150 255 (1224000)
I1218 22:59:37.341387 31988 net.cpp:165] Memory required for data: 73440096
I1218 22:59:37.341390 31988 layer_factory.hpp:77] Creating layer conv2_1/linear
I1218 22:59:37.341400 31988 net.cpp:100] Creating Layer conv2_1/linear
I1218 22:59:37.341404 31988 net.cpp:434] conv2_1/linear <- conv2_1/dwise
I1218 22:59:37.341413 31988 net.cpp:408] conv2_1/linear -> conv2_1/linear
I1218 22:59:37.342785 31988 net.cpp:150] Setting up conv2_1/linear
I1218 22:59:37.342794 31988 net.cpp:157] Top shape: 1 16 150 255 (612000)
I1218 22:59:37.342797 31988 net.cpp:165] Memory required for data: 75888096
I1218 22:59:37.342803 31988 layer_factory.hpp:77] Creating layer conv2_1/linear/bn
I1218 22:59:37.342810 31988 net.cpp:100] Creating Layer conv2_1/linear/bn
I1218 22:59:37.342814 31988 net.cpp:434] conv2_1/linear/bn <- conv2_1/linear
I1218 22:59:37.342819 31988 net.cpp:395] conv2_1/linear/bn -> conv2_1/linear (in-place)
I1218 22:59:37.342957 31988 net.cpp:150] Setting up conv2_1/linear/bn
I1218 22:59:37.342963 31988 net.cpp:157] Top shape: 1 16 150 255 (612000)
I1218 22:59:37.342965 31988 net.cpp:165] Memory required for data: 78336096
I1218 22:59:37.342972 31988 layer_factory.hpp:77] Creating layer conv2_1/linear/scale
I1218 22:59:37.342993 31988 net.cpp:100] Creating Layer conv2_1/linear/scale
I1218 22:59:37.342998 31988 net.cpp:434] conv2_1/linear/scale <- conv2_1/linear
I1218 22:59:37.343003 31988 net.cpp:395] conv2_1/linear/scale -> conv2_1/linear (in-place)
I1218 22:59:37.343031 31988 layer_factory.hpp:77] Creating layer conv2_1/linear/scale
I1218 22:59:37.343124 31988 net.cpp:150] Setting up conv2_1/linear/scale
I1218 22:59:37.343130 31988 net.cpp:157] Top shape: 1 16 150 255 (612000)
I1218 22:59:37.343132 31988 net.cpp:165] Memory required for data: 80784096
I1218 22:59:37.343137 31988 layer_factory.hpp:77] Creating layer conv2_2/expand
I1218 22:59:37.343144 31988 net.cpp:100] Creating Layer conv2_2/expand
I1218 22:59:37.343148 31988 net.cpp:434] conv2_2/expand <- conv2_1/linear
I1218 22:59:37.343153 31988 net.cpp:408] conv2_2/expand -> conv2_2/expand
I1218 22:59:37.345124 31988 net.cpp:150] Setting up conv2_2/expand
I1218 22:59:37.345132 31988 net.cpp:157] Top shape: 1 96 150 255 (3672000)
I1218 22:59:37.345135 31988 net.cpp:165] Memory required for data: 95472096
I1218 22:59:37.345141 31988 layer_factory.hpp:77] Creating layer conv2_2/expand/bn
I1218 22:59:37.345149 31988 net.cpp:100] Creating Layer conv2_2/expand/bn
I1218 22:59:37.345151 31988 net.cpp:434] conv2_2/expand/bn <- conv2_2/expand
I1218 22:59:37.345157 31988 net.cpp:395] conv2_2/expand/bn -> conv2_2/expand (in-place)
I1218 22:59:37.345295 31988 net.cpp:150] Setting up conv2_2/expand/bn
I1218 22:59:37.345300 31988 net.cpp:157] Top shape: 1 96 150 255 (3672000)
I1218 22:59:37.345304 31988 net.cpp:165] Memory required for data: 110160096
I1218 22:59:37.345311 31988 layer_factory.hpp:77] Creating layer conv2_2/expand/scale
I1218 22:59:37.345317 31988 net.cpp:100] Creating Layer conv2_2/expand/scale
I1218 22:59:37.345320 31988 net.cpp:434] conv2_2/expand/scale <- conv2_2/expand
I1218 22:59:37.345324 31988 net.cpp:395] conv2_2/expand/scale -> conv2_2/expand (in-place)
I1218 22:59:37.345352 31988 layer_factory.hpp:77] Creating layer conv2_2/expand/scale
I1218 22:59:37.345930 31988 net.cpp:150] Setting up conv2_2/expand/scale
I1218 22:59:37.345937 31988 net.cpp:157] Top shape: 1 96 150 255 (3672000)
I1218 22:59:37.345940 31988 net.cpp:165] Memory required for data: 124848096
I1218 22:59:37.345947 31988 layer_factory.hpp:77] Creating layer relu2_2/expand
I1218 22:59:37.345952 31988 net.cpp:100] Creating Layer relu2_2/expand
I1218 22:59:37.345955 31988 net.cpp:434] relu2_2/expand <- conv2_2/expand
I1218 22:59:37.345962 31988 net.cpp:395] relu2_2/expand -> conv2_2/expand (in-place)
I1218 22:59:37.346460 31988 net.cpp:150] Setting up relu2_2/expand
I1218 22:59:37.346467 31988 net.cpp:157] Top shape: 1 96 150 255 (3672000)
I1218 22:59:37.346470 31988 net.cpp:165] Memory required for data: 139536096
I1218 22:59:37.346473 31988 layer_factory.hpp:77] Creating layer conv2_2/dwise
I1218 22:59:37.346482 31988 net.cpp:100] Creating Layer conv2_2/dwise
I1218 22:59:37.346485 31988 net.cpp:434] conv2_2/dwise <- conv2_2/expand
I1218 22:59:37.346491 31988 net.cpp:408] conv2_2/dwise -> conv2_2/dwise
I1218 22:59:37.346623 31988 net.cpp:150] Setting up conv2_2/dwise
I1218 22:59:37.346629 31988 net.cpp:157] Top shape: 1 96 75 128 (921600)
I1218 22:59:37.346632 31988 net.cpp:165] Memory required for data: 143222496
I1218 22:59:37.346635 31988 layer_factory.hpp:77] Creating layer conv2_2/dwise/bn
I1218 22:59:37.346642 31988 net.cpp:100] Creating Layer conv2_2/dwise/bn
I1218 22:59:37.346644 31988 net.cpp:434] conv2_2/dwise/bn <- conv2_2/dwise
I1218 22:59:37.346649 31988 net.cpp:395] conv2_2/dwise/bn -> conv2_2/dwise (in-place)
I1218 22:59:37.347257 31988 net.cpp:150] Setting up conv2_2/dwise/bn
I1218 22:59:37.347265 31988 net.cpp:157] Top shape: 1 96 75 128 (921600)
I1218 22:59:37.347267 31988 net.cpp:165] Memory required for data: 146908896
I1218 22:59:37.347280 31988 layer_factory.hpp:77] Creating layer conv2_2/dwise/scale
I1218 22:59:37.347285 31988 net.cpp:100] Creating Layer conv2_2/dwise/scale
I1218 22:59:37.347288 31988 net.cpp:434] conv2_2/dwise/scale <- conv2_2/dwise
I1218 22:59:37.347303 31988 net.cpp:395] conv2_2/dwise/scale -> conv2_2/dwise (in-place)
I1218 22:59:37.347335 31988 layer_factory.hpp:77] Creating layer conv2_2/dwise/scale
I1218 22:59:37.347410 31988 net.cpp:150] Setting up conv2_2/dwise/scale
I1218 22:59:37.347415 31988 net.cpp:157] Top shape: 1 96 75 128 (921600)
I1218 22:59:37.347419 31988 net.cpp:165] Memory required for data: 150595296
I1218 22:59:37.347424 31988 layer_factory.hpp:77] Creating layer relu2_2/dwise
I1218 22:59:37.347429 31988 net.cpp:100] Creating Layer relu2_2/dwise
I1218 22:59:37.347432 31988 net.cpp:434] relu2_2/dwise <- conv2_2/dwise
I1218 22:59:37.347437 31988 net.cpp:395] relu2_2/dwise -> conv2_2/dwise (in-place)
I1218 22:59:37.347767 31988 net.cpp:150] Setting up relu2_2/dwise
I1218 22:59:37.347774 31988 net.cpp:157] Top shape: 1 96 75 128 (921600)
I1218 22:59:37.347776 31988 net.cpp:165] Memory required for data: 154281696
I1218 22:59:37.347779 31988 layer_factory.hpp:77] Creating layer conv2_2/linear
I1218 22:59:37.347787 31988 net.cpp:100] Creating Layer conv2_2/linear
I1218 22:59:37.347790 31988 net.cpp:434] conv2_2/linear <- conv2_2/dwise
I1218 22:59:37.347795 31988 net.cpp:408] conv2_2/linear -> conv2_2/linear
I1218 22:59:37.349285 31988 net.cpp:150] Setting up conv2_2/linear
I1218 22:59:37.349292 31988 net.cpp:157] Top shape: 1 24 75 128 (230400)
I1218 22:59:37.349298 31988 net.cpp:165] Memory required for data: 155203296
I1218 22:59:37.349303 31988 layer_factory.hpp:77] Creating layer conv2_2/linear/bn
I1218 22:59:37.349310 31988 net.cpp:100] Creating Layer conv2_2/linear/bn
I1218 22:59:37.349314 31988 net.cpp:434] conv2_2/linear/bn <- conv2_2/linear
I1218 22:59:37.349320 31988 net.cpp:395] conv2_2/linear/bn -> conv2_2/linear (in-place)
I1218 22:59:37.349452 31988 net.cpp:150] Setting up conv2_2/linear/bn
I1218 22:59:37.349458 31988 net.cpp:157] Top shape: 1 24 75 128 (230400)
I1218 22:59:37.349462 31988 net.cpp:165] Memory required for data: 156124896
I1218 22:59:37.349468 31988 layer_factory.hpp:77] Creating layer conv2_2/linear/scale
I1218 22:59:37.349472 31988 net.cpp:100] Creating Layer conv2_2/linear/scale
I1218 22:59:37.349476 31988 net.cpp:434] conv2_2/linear/scale <- conv2_2/linear
I1218 22:59:37.349483 31988 net.cpp:395] conv2_2/linear/scale -> conv2_2/linear (in-place)
I1218 22:59:37.349510 31988 layer_factory.hpp:77] Creating layer conv2_2/linear/scale
I1218 22:59:37.349584 31988 net.cpp:150] Setting up conv2_2/linear/scale
I1218 22:59:37.349589 31988 net.cpp:157] Top shape: 1 24 75 128 (230400)
I1218 22:59:37.349592 31988 net.cpp:165] Memory required for data: 157046496
I1218 22:59:37.349597 31988 layer_factory.hpp:77] Creating layer conv2_2/linear_conv2_2/linear/scale_0_split
I1218 22:59:37.349602 31988 net.cpp:100] Creating Layer conv2_2/linear_conv2_2/linear/scale_0_split
I1218 22:59:37.349606 31988 net.cpp:434] conv2_2/linear_conv2_2/linear/scale_0_split <- conv2_2/linear
I1218 22:59:37.349611 31988 net.cpp:408] conv2_2/linear_conv2_2/linear/scale_0_split -> conv2_2/linear_conv2_2/linear/scale_0_split_0
I1218 22:59:37.349620 31988 net.cpp:408] conv2_2/linear_conv2_2/linear/scale_0_split -> conv2_2/linear_conv2_2/linear/scale_0_split_1
I1218 22:59:37.349645 31988 net.cpp:150] Setting up conv2_2/linear_conv2_2/linear/scale_0_split
I1218 22:59:37.349651 31988 net.cpp:157] Top shape: 1 24 75 128 (230400)
I1218 22:59:37.349655 31988 net.cpp:157] Top shape: 1 24 75 128 (230400)
I1218 22:59:37.349658 31988 net.cpp:165] Memory required for data: 158889696
I1218 22:59:37.349661 31988 layer_factory.hpp:77] Creating layer conv3_1/expand
I1218 22:59:37.349668 31988 net.cpp:100] Creating Layer conv3_1/expand
I1218 22:59:37.349670 31988 net.cpp:434] conv3_1/expand <- conv2_2/linear_conv2_2/linear/scale_0_split_0
I1218 22:59:37.349676 31988 net.cpp:408] conv3_1/expand -> conv3_1/expand
I1218 22:59:37.351133 31988 net.cpp:150] Setting up conv3_1/expand
I1218 22:59:37.351142 31988 net.cpp:157] Top shape: 1 144 75 128 (1382400)
I1218 22:59:37.351145 31988 net.cpp:165] Memory required for data: 164419296
I1218 22:59:37.351159 31988 layer_factory.hpp:77] Creating layer conv3_1/expand/bn
I1218 22:59:37.351166 31988 net.cpp:100] Creating Layer conv3_1/expand/bn
I1218 22:59:37.351171 31988 net.cpp:434] conv3_1/expand/bn <- conv3_1/expand
I1218 22:59:37.351174 31988 net.cpp:395] conv3_1/expand/bn -> conv3_1/expand (in-place)
I1218 22:59:37.351297 31988 net.cpp:150] Setting up conv3_1/expand/bn
I1218 22:59:37.351302 31988 net.cpp:157] Top shape: 1 144 75 128 (1382400)
I1218 22:59:37.351305 31988 net.cpp:165] Memory required for data: 169948896
I1218 22:59:37.351311 31988 layer_factory.hpp:77] Creating layer conv3_1/expand/scale
I1218 22:59:37.351317 31988 net.cpp:100] Creating Layer conv3_1/expand/scale
I1218 22:59:37.351321 31988 net.cpp:434] conv3_1/expand/scale <- conv3_1/expand
I1218 22:59:37.351325 31988 net.cpp:395] conv3_1/expand/scale -> conv3_1/expand (in-place)
I1218 22:59:37.351352 31988 layer_factory.hpp:77] Creating layer conv3_1/expand/scale
I1218 22:59:37.351425 31988 net.cpp:150] Setting up conv3_1/expand/scale
I1218 22:59:37.351431 31988 net.cpp:157] Top shape: 1 144 75 128 (1382400)
I1218 22:59:37.351434 31988 net.cpp:165] Memory required for data: 175478496
I1218 22:59:37.351440 31988 layer_factory.hpp:77] Creating layer relu3_1/expand
I1218 22:59:37.351449 31988 net.cpp:100] Creating Layer relu3_1/expand
I1218 22:59:37.351452 31988 net.cpp:434] relu3_1/expand <- conv3_1/expand
I1218 22:59:37.351456 31988 net.cpp:395] relu3_1/expand -> conv3_1/expand (in-place)
I1218 22:59:37.351773 31988 net.cpp:150] Setting up relu3_1/expand
I1218 22:59:37.351780 31988 net.cpp:157] Top shape: 1 144 75 128 (1382400)
I1218 22:59:37.351783 31988 net.cpp:165] Memory required for data: 181008096
I1218 22:59:37.351786 31988 layer_factory.hpp:77] Creating layer conv3_1/dwise
I1218 22:59:37.351792 31988 net.cpp:100] Creating Layer conv3_1/dwise
I1218 22:59:37.351795 31988 net.cpp:434] conv3_1/dwise <- conv3_1/expand
I1218 22:59:37.351801 31988 net.cpp:408] conv3_1/dwise -> conv3_1/dwise
I1218 22:59:37.351953 31988 net.cpp:150] Setting up conv3_1/dwise
I1218 22:59:37.351959 31988 net.cpp:157] Top shape: 1 144 75 128 (1382400)
I1218 22:59:37.351963 31988 net.cpp:165] Memory required for data: 186537696
I1218 22:59:37.351966 31988 layer_factory.hpp:77] Creating layer conv3_1/dwise/bn
I1218 22:59:37.351972 31988 net.cpp:100] Creating Layer conv3_1/dwise/bn
I1218 22:59:37.351976 31988 net.cpp:434] conv3_1/dwise/bn <- conv3_1/dwise
I1218 22:59:37.351980 31988 net.cpp:395] conv3_1/dwise/bn -> conv3_1/dwise (in-place)
I1218 22:59:37.352146 31988 net.cpp:150] Setting up conv3_1/dwise/bn
I1218 22:59:37.352154 31988 net.cpp:157] Top shape: 1 144 75 128 (1382400)
I1218 22:59:37.352155 31988 net.cpp:165] Memory required for data: 192067296
I1218 22:59:37.352159 31988 layer_factory.hpp:77] Creating layer conv3_1/dwise/scale
I1218 22:59:37.352164 31988 net.cpp:100] Creating Layer conv3_1/dwise/scale
I1218 22:59:37.352166 31988 net.cpp:434] conv3_1/dwise/scale <- conv3_1/dwise
I1218 22:59:37.352169 31988 net.cpp:395] conv3_1/dwise/scale -> conv3_1/dwise (in-place)
I1218 22:59:37.352193 31988 layer_factory.hpp:77] Creating layer conv3_1/dwise/scale
I1218 22:59:37.352275 31988 net.cpp:150] Setting up conv3_1/dwise/scale
I1218 22:59:37.352283 31988 net.cpp:157] Top shape: 1 144 75 128 (1382400)
I1218 22:59:37.352283 31988 net.cpp:165] Memory required for data: 197596896
I1218 22:59:37.352288 31988 layer_factory.hpp:77] Creating layer relu3_1/dwise
I1218 22:59:37.352290 31988 net.cpp:100] Creating Layer relu3_1/dwise
I1218 22:59:37.352293 31988 net.cpp:434] relu3_1/dwise <- conv3_1/dwise
I1218 22:59:37.352294 31988 net.cpp:395] relu3_1/dwise -> conv3_1/dwise (in-place)
I1218 22:59:37.352705 31988 net.cpp:150] Setting up relu3_1/dwise
I1218 22:59:37.352713 31988 net.cpp:157] Top shape: 1 144 75 128 (1382400)
I1218 22:59:37.352717 31988 net.cpp:165] Memory required for data: 203126496
I1218 22:59:37.352720 31988 layer_factory.hpp:77] Creating layer conv3_1/linear
I1218 22:59:37.352727 31988 net.cpp:100] Creating Layer conv3_1/linear
I1218 22:59:37.352739 31988 net.cpp:434] conv3_1/linear <- conv3_1/dwise
I1218 22:59:37.352744 31988 net.cpp:408] conv3_1/linear -> conv3_1/linear
I1218 22:59:37.354313 31988 net.cpp:150] Setting up conv3_1/linear
I1218 22:59:37.354321 31988 net.cpp:157] Top shape: 1 24 75 128 (230400)
I1218 22:59:37.354322 31988 net.cpp:165] Memory required for data: 204048096
I1218 22:59:37.354326 31988 layer_factory.hpp:77] Creating layer conv3_1/linear/bn
I1218 22:59:37.354331 31988 net.cpp:100] Creating Layer conv3_1/linear/bn
I1218 22:59:37.354333 31988 net.cpp:434] conv3_1/linear/bn <- conv3_1/linear
I1218 22:59:37.354336 31988 net.cpp:395] conv3_1/linear/bn -> conv3_1/linear (in-place)
I1218 22:59:37.354460 31988 net.cpp:150] Setting up conv3_1/linear/bn
I1218 22:59:37.354465 31988 net.cpp:157] Top shape: 1 24 75 128 (230400)
I1218 22:59:37.354466 31988 net.cpp:165] Memory required for data: 204969696
I1218 22:59:37.354470 31988 layer_factory.hpp:77] Creating layer conv3_1/linear/scale
I1218 22:59:37.354475 31988 net.cpp:100] Creating Layer conv3_1/linear/scale
I1218 22:59:37.354476 31988 net.cpp:434] conv3_1/linear/scale <- conv3_1/linear
I1218 22:59:37.354478 31988 net.cpp:395] conv3_1/linear/scale -> conv3_1/linear (in-place)
I1218 22:59:37.354502 31988 layer_factory.hpp:77] Creating layer conv3_1/linear/scale
I1218 22:59:37.354573 31988 net.cpp:150] Setting up conv3_1/linear/scale
I1218 22:59:37.354575 31988 net.cpp:157] Top shape: 1 24 75 128 (230400)
I1218 22:59:37.354578 31988 net.cpp:165] Memory required for data: 205891296
I1218 22:59:37.354580 31988 layer_factory.hpp:77] Creating layer block_3_1
I1218 22:59:37.354583 31988 net.cpp:100] Creating Layer block_3_1
I1218 22:59:37.354585 31988 net.cpp:434] block_3_1 <- conv2_2/linear_conv2_2/linear/scale_0_split_1
I1218 22:59:37.354588 31988 net.cpp:434] block_3_1 <- conv3_1/linear
I1218 22:59:37.354591 31988 net.cpp:408] block_3_1 -> block_3_1
I1218 22:59:37.354606 31988 net.cpp:150] Setting up block_3_1
I1218 22:59:37.354610 31988 net.cpp:157] Top shape: 1 24 75 128 (230400)
I1218 22:59:37.354611 31988 net.cpp:165] Memory required for data: 206812896
I1218 22:59:37.354614 31988 layer_factory.hpp:77] Creating layer conv3_2/expand
I1218 22:59:37.354619 31988 net.cpp:100] Creating Layer conv3_2/expand
I1218 22:59:37.354620 31988 net.cpp:434] conv3_2/expand <- block_3_1
I1218 22:59:37.354624 31988 net.cpp:408] conv3_2/expand -> conv3_2/expand
I1218 22:59:37.355949 31988 net.cpp:150] Setting up conv3_2/expand
I1218 22:59:37.355957 31988 net.cpp:157] Top shape: 1 144 75 128 (1382400)
I1218 22:59:37.355959 31988 net.cpp:165] Memory required for data: 212342496
I1218 22:59:37.355962 31988 layer_factory.hpp:77] Creating layer conv3_2/expand/bn
I1218 22:59:37.355967 31988 net.cpp:100] Creating Layer conv3_2/expand/bn
I1218 22:59:37.355970 31988 net.cpp:434] conv3_2/expand/bn <- conv3_2/expand
I1218 22:59:37.355973 31988 net.cpp:395] conv3_2/expand/bn -> conv3_2/expand (in-place)
I1218 22:59:37.356097 31988 net.cpp:150] Setting up conv3_2/expand/bn
I1218 22:59:37.356101 31988 net.cpp:157] Top shape: 1 144 75 128 (1382400)
I1218 22:59:37.356103 31988 net.cpp:165] Memory required for data: 217872096
I1218 22:59:37.356107 31988 layer_factory.hpp:77] Creating layer conv3_2/expand/scale
I1218 22:59:37.356112 31988 net.cpp:100] Creating Layer conv3_2/expand/scale
I1218 22:59:37.356113 31988 net.cpp:434] conv3_2/expand/scale <- conv3_2/expand
I1218 22:59:37.356117 31988 net.cpp:395] conv3_2/expand/scale -> conv3_2/expand (in-place)
I1218 22:59:37.356140 31988 layer_factory.hpp:77] Creating layer conv3_2/expand/scale
I1218 22:59:37.356209 31988 net.cpp:150] Setting up conv3_2/expand/scale
I1218 22:59:37.356214 31988 net.cpp:157] Top shape: 1 144 75 128 (1382400)
I1218 22:59:37.356216 31988 net.cpp:165] Memory required for data: 223401696
I1218 22:59:37.356225 31988 layer_factory.hpp:77] Creating layer relu3_2/expand
I1218 22:59:37.356228 31988 net.cpp:100] Creating Layer relu3_2/expand
I1218 22:59:37.356231 31988 net.cpp:434] relu3_2/expand <- conv3_2/expand
I1218 22:59:37.356235 31988 net.cpp:395] relu3_2/expand -> conv3_2/expand (in-place)
I1218 22:59:37.356559 31988 net.cpp:150] Setting up relu3_2/expand
I1218 22:59:37.356565 31988 net.cpp:157] Top shape: 1 144 75 128 (1382400)
I1218 22:59:37.356567 31988 net.cpp:165] Memory required for data: 228931296
I1218 22:59:37.356570 31988 layer_factory.hpp:77] Creating layer conv3_2/dwise
I1218 22:59:37.356575 31988 net.cpp:100] Creating Layer conv3_2/dwise
I1218 22:59:37.356577 31988 net.cpp:434] conv3_2/dwise <- conv3_2/expand
I1218 22:59:37.356580 31988 net.cpp:408] conv3_2/dwise -> conv3_2/dwise
I1218 22:59:37.356709 31988 net.cpp:150] Setting up conv3_2/dwise
I1218 22:59:37.356712 31988 net.cpp:157] Top shape: 1 144 38 64 (350208)
I1218 22:59:37.356714 31988 net.cpp:165] Memory required for data: 230332128
I1218 22:59:37.356717 31988 layer_factory.hpp:77] Creating layer conv3_2/dwise/bn
I1218 22:59:37.356721 31988 net.cpp:100] Creating Layer conv3_2/dwise/bn
I1218 22:59:37.356724 31988 net.cpp:434] conv3_2/dwise/bn <- conv3_2/dwise
I1218 22:59:37.356726 31988 net.cpp:395] conv3_2/dwise/bn -> conv3_2/dwise (in-place)
I1218 22:59:37.356845 31988 net.cpp:150] Setting up conv3_2/dwise/bn
I1218 22:59:37.356850 31988 net.cpp:157] Top shape: 1 144 38 64 (350208)
I1218 22:59:37.356851 31988 net.cpp:165] Memory required for data: 231732960
I1218 22:59:37.356855 31988 layer_factory.hpp:77] Creating layer conv3_2/dwise/scale
I1218 22:59:37.356859 31988 net.cpp:100] Creating Layer conv3_2/dwise/scale
I1218 22:59:37.356863 31988 net.cpp:434] conv3_2/dwise/scale <- conv3_2/dwise
I1218 22:59:37.356864 31988 net.cpp:395] conv3_2/dwise/scale -> conv3_2/dwise (in-place)
I1218 22:59:37.356887 31988 layer_factory.hpp:77] Creating layer conv3_2/dwise/scale
I1218 22:59:37.356951 31988 net.cpp:150] Setting up conv3_2/dwise/scale
I1218 22:59:37.356956 31988 net.cpp:157] Top shape: 1 144 38 64 (350208)
I1218 22:59:37.356957 31988 net.cpp:165] Memory required for data: 233133792
I1218 22:59:37.356961 31988 layer_factory.hpp:77] Creating layer relu3_2/dwise
I1218 22:59:37.356963 31988 net.cpp:100] Creating Layer relu3_2/dwise
I1218 22:59:37.356966 31988 net.cpp:434] relu3_2/dwise <- conv3_2/dwise
I1218 22:59:37.356969 31988 net.cpp:395] relu3_2/dwise -> conv3_2/dwise (in-place)
I1218 22:59:37.357465 31988 net.cpp:150] Setting up relu3_2/dwise
I1218 22:59:37.357472 31988 net.cpp:157] Top shape: 1 144 38 64 (350208)
I1218 22:59:37.357475 31988 net.cpp:165] Memory required for data: 234534624
I1218 22:59:37.357477 31988 layer_factory.hpp:77] Creating layer conv3_2/linear
I1218 22:59:37.357482 31988 net.cpp:100] Creating Layer conv3_2/linear
I1218 22:59:37.357484 31988 net.cpp:434] conv3_2/linear <- conv3_2/dwise
I1218 22:59:37.357489 31988 net.cpp:408] conv3_2/linear -> conv3_2/linear
I1218 22:59:37.358780 31988 net.cpp:150] Setting up conv3_2/linear
I1218 22:59:37.358788 31988 net.cpp:157] Top shape: 1 32 38 64 (77824)
I1218 22:59:37.358790 31988 net.cpp:165] Memory required for data: 234845920
I1218 22:59:37.358794 31988 layer_factory.hpp:77] Creating layer conv3_2/linear/bn
I1218 22:59:37.358798 31988 net.cpp:100] Creating Layer conv3_2/linear/bn
I1218 22:59:37.358801 31988 net.cpp:434] conv3_2/linear/bn <- conv3_2/linear
I1218 22:59:37.358804 31988 net.cpp:395] conv3_2/linear/bn -> conv3_2/linear (in-place)
I1218 22:59:37.358929 31988 net.cpp:150] Setting up conv3_2/linear/bn
I1218 22:59:37.358933 31988 net.cpp:157] Top shape: 1 32 38 64 (77824)
I1218 22:59:37.358935 31988 net.cpp:165] Memory required for data: 235157216
I1218 22:59:37.358939 31988 layer_factory.hpp:77] Creating layer conv3_2/linear/scale
I1218 22:59:37.358943 31988 net.cpp:100] Creating Layer conv3_2/linear/scale
I1218 22:59:37.358945 31988 net.cpp:434] conv3_2/linear/scale <- conv3_2/linear
I1218 22:59:37.358948 31988 net.cpp:395] conv3_2/linear/scale -> conv3_2/linear (in-place)
I1218 22:59:37.358973 31988 layer_factory.hpp:77] Creating layer conv3_2/linear/scale
I1218 22:59:37.359047 31988 net.cpp:150] Setting up conv3_2/linear/scale
I1218 22:59:37.359051 31988 net.cpp:157] Top shape: 1 32 38 64 (77824)
I1218 22:59:37.359061 31988 net.cpp:165] Memory required for data: 235468512
I1218 22:59:37.359066 31988 layer_factory.hpp:77] Creating layer conv3_2/linear_conv3_2/linear/scale_0_split
I1218 22:59:37.359068 31988 net.cpp:100] Creating Layer conv3_2/linear_conv3_2/linear/scale_0_split
I1218 22:59:37.359071 31988 net.cpp:434] conv3_2/linear_conv3_2/linear/scale_0_split <- conv3_2/linear
I1218 22:59:37.359074 31988 net.cpp:408] conv3_2/linear_conv3_2/linear/scale_0_split -> conv3_2/linear_conv3_2/linear/scale_0_split_0
I1218 22:59:37.359079 31988 net.cpp:408] conv3_2/linear_conv3_2/linear/scale_0_split -> conv3_2/linear_conv3_2/linear/scale_0_split_1
I1218 22:59:37.359104 31988 net.cpp:150] Setting up conv3_2/linear_conv3_2/linear/scale_0_split
I1218 22:59:37.359107 31988 net.cpp:157] Top shape: 1 32 38 64 (77824)
I1218 22:59:37.359110 31988 net.cpp:157] Top shape: 1 32 38 64 (77824)
I1218 22:59:37.359112 31988 net.cpp:165] Memory required for data: 236091104
I1218 22:59:37.359114 31988 layer_factory.hpp:77] Creating layer conv4_1/expand
I1218 22:59:37.359118 31988 net.cpp:100] Creating Layer conv4_1/expand
I1218 22:59:37.359120 31988 net.cpp:434] conv4_1/expand <- conv3_2/linear_conv3_2/linear/scale_0_split_0
I1218 22:59:37.359124 31988 net.cpp:408] conv4_1/expand -> conv4_1/expand
I1218 22:59:37.360432 31988 net.cpp:150] Setting up conv4_1/expand
I1218 22:59:37.360440 31988 net.cpp:157] Top shape: 1 192 38 64 (466944)
I1218 22:59:37.360441 31988 net.cpp:165] Memory required for data: 237958880
I1218 22:59:37.360445 31988 layer_factory.hpp:77] Creating layer conv4_1/expand/bn
I1218 22:59:37.360450 31988 net.cpp:100] Creating Layer conv4_1/expand/bn
I1218 22:59:37.360452 31988 net.cpp:434] conv4_1/expand/bn <- conv4_1/expand
I1218 22:59:37.360455 31988 net.cpp:395] conv4_1/expand/bn -> conv4_1/expand (in-place)
I1218 22:59:37.360579 31988 net.cpp:150] Setting up conv4_1/expand/bn
I1218 22:59:37.360582 31988 net.cpp:157] Top shape: 1 192 38 64 (466944)
I1218 22:59:37.360584 31988 net.cpp:165] Memory required for data: 239826656
I1218 22:59:37.360589 31988 layer_factory.hpp:77] Creating layer conv4_1/expand/scale
I1218 22:59:37.360591 31988 net.cpp:100] Creating Layer conv4_1/expand/scale
I1218 22:59:37.360594 31988 net.cpp:434] conv4_1/expand/scale <- conv4_1/expand
I1218 22:59:37.360597 31988 net.cpp:395] conv4_1/expand/scale -> conv4_1/expand (in-place)
I1218 22:59:37.360621 31988 layer_factory.hpp:77] Creating layer conv4_1/expand/scale
I1218 22:59:37.360688 31988 net.cpp:150] Setting up conv4_1/expand/scale
I1218 22:59:37.360692 31988 net.cpp:157] Top shape: 1 192 38 64 (466944)
I1218 22:59:37.360695 31988 net.cpp:165] Memory required for data: 241694432
I1218 22:59:37.360698 31988 layer_factory.hpp:77] Creating layer relu4_1/expand
I1218 22:59:37.360702 31988 net.cpp:100] Creating Layer relu4_1/expand
I1218 22:59:37.360705 31988 net.cpp:434] relu4_1/expand <- conv4_1/expand
I1218 22:59:37.360707 31988 net.cpp:395] relu4_1/expand -> conv4_1/expand (in-place)
I1218 22:59:37.361205 31988 net.cpp:150] Setting up relu4_1/expand
I1218 22:59:37.361213 31988 net.cpp:157] Top shape: 1 192 38 64 (466944)
I1218 22:59:37.361215 31988 net.cpp:165] Memory required for data: 243562208
I1218 22:59:37.361217 31988 layer_factory.hpp:77] Creating layer conv4_1/dwise
I1218 22:59:37.361222 31988 net.cpp:100] Creating Layer conv4_1/dwise
I1218 22:59:37.361225 31988 net.cpp:434] conv4_1/dwise <- conv4_1/expand
I1218 22:59:37.361229 31988 net.cpp:408] conv4_1/dwise -> conv4_1/dwise
I1218 22:59:37.361363 31988 net.cpp:150] Setting up conv4_1/dwise
I1218 22:59:37.361367 31988 net.cpp:157] Top shape: 1 192 38 64 (466944)
I1218 22:59:37.361371 31988 net.cpp:165] Memory required for data: 245429984
I1218 22:59:37.361373 31988 layer_factory.hpp:77] Creating layer conv4_1/dwise/bn
I1218 22:59:37.361377 31988 net.cpp:100] Creating Layer conv4_1/dwise/bn
I1218 22:59:37.361379 31988 net.cpp:434] conv4_1/dwise/bn <- conv4_1/dwise
I1218 22:59:37.361382 31988 net.cpp:395] conv4_1/dwise/bn -> conv4_1/dwise (in-place)
I1218 22:59:37.361508 31988 net.cpp:150] Setting up conv4_1/dwise/bn
I1218 22:59:37.361521 31988 net.cpp:157] Top shape: 1 192 38 64 (466944)
I1218 22:59:37.361522 31988 net.cpp:165] Memory required for data: 247297760
I1218 22:59:37.361526 31988 layer_factory.hpp:77] Creating layer conv4_1/dwise/scale
I1218 22:59:37.361531 31988 net.cpp:100] Creating Layer conv4_1/dwise/scale
I1218 22:59:37.361533 31988 net.cpp:434] conv4_1/dwise/scale <- conv4_1/dwise
I1218 22:59:37.361536 31988 net.cpp:395] conv4_1/dwise/scale -> conv4_1/dwise (in-place)
I1218 22:59:37.361559 31988 layer_factory.hpp:77] Creating layer conv4_1/dwise/scale
I1218 22:59:37.361627 31988 net.cpp:150] Setting up conv4_1/dwise/scale
I1218 22:59:37.361631 31988 net.cpp:157] Top shape: 1 192 38 64 (466944)
I1218 22:59:37.361634 31988 net.cpp:165] Memory required for data: 249165536
I1218 22:59:37.361637 31988 layer_factory.hpp:77] Creating layer relu4_1/dwise
I1218 22:59:37.361641 31988 net.cpp:100] Creating Layer relu4_1/dwise
I1218 22:59:37.361644 31988 net.cpp:434] relu4_1/dwise <- conv4_1/dwise
I1218 22:59:37.361646 31988 net.cpp:395] relu4_1/dwise -> conv4_1/dwise (in-place)
I1218 22:59:37.361968 31988 net.cpp:150] Setting up relu4_1/dwise
I1218 22:59:37.361974 31988 net.cpp:157] Top shape: 1 192 38 64 (466944)
I1218 22:59:37.361976 31988 net.cpp:165] Memory required for data: 251033312
I1218 22:59:37.361979 31988 layer_factory.hpp:77] Creating layer conv4_1/linear
I1218 22:59:37.361982 31988 net.cpp:100] Creating Layer conv4_1/linear
I1218 22:59:37.361985 31988 net.cpp:434] conv4_1/linear <- conv4_1/dwise
I1218 22:59:37.361989 31988 net.cpp:408] conv4_1/linear -> conv4_1/linear
I1218 22:59:37.363355 31988 net.cpp:150] Setting up conv4_1/linear
I1218 22:59:37.363364 31988 net.cpp:157] Top shape: 1 32 38 64 (77824)
I1218 22:59:37.363368 31988 net.cpp:165] Memory required for data: 251344608
I1218 22:59:37.363373 31988 layer_factory.hpp:77] Creating layer conv4_1/linear/bn
I1218 22:59:37.363379 31988 net.cpp:100] Creating Layer conv4_1/linear/bn
I1218 22:59:37.363382 31988 net.cpp:434] conv4_1/linear/bn <- conv4_1/linear
I1218 22:59:37.363389 31988 net.cpp:395] conv4_1/linear/bn -> conv4_1/linear (in-place)
I1218 22:59:37.363559 31988 net.cpp:150] Setting up conv4_1/linear/bn
I1218 22:59:37.363564 31988 net.cpp:157] Top shape: 1 32 38 64 (77824)
I1218 22:59:37.363565 31988 net.cpp:165] Memory required for data: 251655904
I1218 22:59:37.363570 31988 layer_factory.hpp:77] Creating layer conv4_1/linear/scale
I1218 22:59:37.363574 31988 net.cpp:100] Creating Layer conv4_1/linear/scale
I1218 22:59:37.363576 31988 net.cpp:434] conv4_1/linear/scale <- conv4_1/linear
I1218 22:59:37.363579 31988 net.cpp:395] conv4_1/linear/scale -> conv4_1/linear (in-place)
I1218 22:59:37.363605 31988 layer_factory.hpp:77] Creating layer conv4_1/linear/scale
I1218 22:59:37.363688 31988 net.cpp:150] Setting up conv4_1/linear/scale
I1218 22:59:37.363693 31988 net.cpp:157] Top shape: 1 32 38 64 (77824)
I1218 22:59:37.363695 31988 net.cpp:165] Memory required for data: 251967200
I1218 22:59:37.363699 31988 layer_factory.hpp:77] Creating layer block_4_1
I1218 22:59:37.363708 31988 net.cpp:100] Creating Layer block_4_1
I1218 22:59:37.363711 31988 net.cpp:434] block_4_1 <- conv3_2/linear_conv3_2/linear/scale_0_split_1
I1218 22:59:37.363714 31988 net.cpp:434] block_4_1 <- conv4_1/linear
I1218 22:59:37.363718 31988 net.cpp:408] block_4_1 -> block_4_1
I1218 22:59:37.363732 31988 net.cpp:150] Setting up block_4_1
I1218 22:59:37.363736 31988 net.cpp:157] Top shape: 1 32 38 64 (77824)
I1218 22:59:37.363737 31988 net.cpp:165] Memory required for data: 252278496
I1218 22:59:37.363740 31988 layer_factory.hpp:77] Creating layer block_4_1_block_4_1_0_split
I1218 22:59:37.363744 31988 net.cpp:100] Creating Layer block_4_1_block_4_1_0_split
I1218 22:59:37.363746 31988 net.cpp:434] block_4_1_block_4_1_0_split <- block_4_1
I1218 22:59:37.363749 31988 net.cpp:408] block_4_1_block_4_1_0_split -> block_4_1_block_4_1_0_split_0
I1218 22:59:37.363755 31988 net.cpp:408] block_4_1_block_4_1_0_split -> block_4_1_block_4_1_0_split_1
I1218 22:59:37.363793 31988 net.cpp:150] Setting up block_4_1_block_4_1_0_split
I1218 22:59:37.363808 31988 net.cpp:157] Top shape: 1 32 38 64 (77824)
I1218 22:59:37.363813 31988 net.cpp:157] Top shape: 1 32 38 64 (77824)
I1218 22:59:37.363817 31988 net.cpp:165] Memory required for data: 252901088
I1218 22:59:37.363821 31988 layer_factory.hpp:77] Creating layer conv4_2/expand
I1218 22:59:37.363827 31988 net.cpp:100] Creating Layer conv4_2/expand
I1218 22:59:37.363831 31988 net.cpp:434] conv4_2/expand <- block_4_1_block_4_1_0_split_0
I1218 22:59:37.363838 31988 net.cpp:408] conv4_2/expand -> conv4_2/expand
I1218 22:59:37.365473 31988 net.cpp:150] Setting up conv4_2/expand
I1218 22:59:37.365481 31988 net.cpp:157] Top shape: 1 192 38 64 (466944)
I1218 22:59:37.365483 31988 net.cpp:165] Memory required for data: 254768864
I1218 22:59:37.365487 31988 layer_factory.hpp:77] Creating layer conv4_2/expand/bn
I1218 22:59:37.365491 31988 net.cpp:100] Creating Layer conv4_2/expand/bn
I1218 22:59:37.365494 31988 net.cpp:434] conv4_2/expand/bn <- conv4_2/expand
I1218 22:59:37.365499 31988 net.cpp:395] conv4_2/expand/bn -> conv4_2/expand (in-place)
I1218 22:59:37.365622 31988 net.cpp:150] Setting up conv4_2/expand/bn
I1218 22:59:37.365625 31988 net.cpp:157] Top shape: 1 192 38 64 (466944)
I1218 22:59:37.365628 31988 net.cpp:165] Memory required for data: 256636640
I1218 22:59:37.365630 31988 layer_factory.hpp:77] Creating layer conv4_2/expand/scale
I1218 22:59:37.365634 31988 net.cpp:100] Creating Layer conv4_2/expand/scale
I1218 22:59:37.365636 31988 net.cpp:434] conv4_2/expand/scale <- conv4_2/expand
I1218 22:59:37.365638 31988 net.cpp:395] conv4_2/expand/scale -> conv4_2/expand (in-place)
I1218 22:59:37.365664 31988 layer_factory.hpp:77] Creating layer conv4_2/expand/scale
I1218 22:59:37.365732 31988 net.cpp:150] Setting up conv4_2/expand/scale
I1218 22:59:37.365736 31988 net.cpp:157] Top shape: 1 192 38 64 (466944)
I1218 22:59:37.365737 31988 net.cpp:165] Memory required for data: 258504416
I1218 22:59:37.365741 31988 layer_factory.hpp:77] Creating layer relu4_2/expand
I1218 22:59:37.365744 31988 net.cpp:100] Creating Layer relu4_2/expand
I1218 22:59:37.365747 31988 net.cpp:434] relu4_2/expand <- conv4_2/expand
I1218 22:59:37.365749 31988 net.cpp:395] relu4_2/expand -> conv4_2/expand (in-place)
I1218 22:59:37.366075 31988 net.cpp:150] Setting up relu4_2/expand
I1218 22:59:37.366081 31988 net.cpp:157] Top shape: 1 192 38 64 (466944)
I1218 22:59:37.366083 31988 net.cpp:165] Memory required for data: 260372192
I1218 22:59:37.366086 31988 layer_factory.hpp:77] Creating layer conv4_2/dwise
I1218 22:59:37.366089 31988 net.cpp:100] Creating Layer conv4_2/dwise
I1218 22:59:37.366092 31988 net.cpp:434] conv4_2/dwise <- conv4_2/expand
I1218 22:59:37.366096 31988 net.cpp:408] conv4_2/dwise -> conv4_2/dwise
I1218 22:59:37.366232 31988 net.cpp:150] Setting up conv4_2/dwise
I1218 22:59:37.366236 31988 net.cpp:157] Top shape: 1 192 38 64 (466944)
I1218 22:59:37.366238 31988 net.cpp:165] Memory required for data: 262239968
I1218 22:59:37.366241 31988 layer_factory.hpp:77] Creating layer conv4_2/dwise/bn
I1218 22:59:37.366245 31988 net.cpp:100] Creating Layer conv4_2/dwise/bn
I1218 22:59:37.366246 31988 net.cpp:434] conv4_2/dwise/bn <- conv4_2/dwise
I1218 22:59:37.366248 31988 net.cpp:395] conv4_2/dwise/bn -> conv4_2/dwise (in-place)
I1218 22:59:37.366369 31988 net.cpp:150] Setting up conv4_2/dwise/bn
I1218 22:59:37.366374 31988 net.cpp:157] Top shape: 1 192 38 64 (466944)
I1218 22:59:37.366375 31988 net.cpp:165] Memory required for data: 264107744
I1218 22:59:37.366379 31988 layer_factory.hpp:77] Creating layer conv4_2/dwise/scale
I1218 22:59:37.366384 31988 net.cpp:100] Creating Layer conv4_2/dwise/scale
I1218 22:59:37.366385 31988 net.cpp:434] conv4_2/dwise/scale <- conv4_2/dwise
I1218 22:59:37.366389 31988 net.cpp:395] conv4_2/dwise/scale -> conv4_2/dwise (in-place)
I1218 22:59:37.366413 31988 layer_factory.hpp:77] Creating layer conv4_2/dwise/scale
I1218 22:59:37.366482 31988 net.cpp:150] Setting up conv4_2/dwise/scale
I1218 22:59:37.366484 31988 net.cpp:157] Top shape: 1 192 38 64 (466944)
I1218 22:59:37.366494 31988 net.cpp:165] Memory required for data: 265975520
I1218 22:59:37.366498 31988 layer_factory.hpp:77] Creating layer relu4_2/dwise
I1218 22:59:37.366503 31988 net.cpp:100] Creating Layer relu4_2/dwise
I1218 22:59:37.366504 31988 net.cpp:434] relu4_2/dwise <- conv4_2/dwise
I1218 22:59:37.366506 31988 net.cpp:395] relu4_2/dwise -> conv4_2/dwise (in-place)
I1218 22:59:37.367008 31988 net.cpp:150] Setting up relu4_2/dwise
I1218 22:59:37.367015 31988 net.cpp:157] Top shape: 1 192 38 64 (466944)
I1218 22:59:37.367017 31988 net.cpp:165] Memory required for data: 267843296
I1218 22:59:37.367019 31988 layer_factory.hpp:77] Creating layer conv4_2/linear
I1218 22:59:37.367027 31988 net.cpp:100] Creating Layer conv4_2/linear
I1218 22:59:37.367028 31988 net.cpp:434] conv4_2/linear <- conv4_2/dwise
I1218 22:59:37.367033 31988 net.cpp:408] conv4_2/linear -> conv4_2/linear
I1218 22:59:37.368347 31988 net.cpp:150] Setting up conv4_2/linear
I1218 22:59:37.368355 31988 net.cpp:157] Top shape: 1 32 38 64 (77824)
I1218 22:59:37.368356 31988 net.cpp:165] Memory required for data: 268154592
I1218 22:59:37.368360 31988 layer_factory.hpp:77] Creating layer conv4_2/linear/bn
I1218 22:59:37.368366 31988 net.cpp:100] Creating Layer conv4_2/linear/bn
I1218 22:59:37.368368 31988 net.cpp:434] conv4_2/linear/bn <- conv4_2/linear
I1218 22:59:37.368372 31988 net.cpp:395] conv4_2/linear/bn -> conv4_2/linear (in-place)
I1218 22:59:37.368494 31988 net.cpp:150] Setting up conv4_2/linear/bn
I1218 22:59:37.368499 31988 net.cpp:157] Top shape: 1 32 38 64 (77824)
I1218 22:59:37.368500 31988 net.cpp:165] Memory required for data: 268465888
I1218 22:59:37.368505 31988 layer_factory.hpp:77] Creating layer conv4_2/linear/scale
I1218 22:59:37.368510 31988 net.cpp:100] Creating Layer conv4_2/linear/scale
I1218 22:59:37.368511 31988 net.cpp:434] conv4_2/linear/scale <- conv4_2/linear
I1218 22:59:37.368515 31988 net.cpp:395] conv4_2/linear/scale -> conv4_2/linear (in-place)
I1218 22:59:37.368540 31988 layer_factory.hpp:77] Creating layer conv4_2/linear/scale
I1218 22:59:37.368608 31988 net.cpp:150] Setting up conv4_2/linear/scale
I1218 22:59:37.368613 31988 net.cpp:157] Top shape: 1 32 38 64 (77824)
I1218 22:59:37.368614 31988 net.cpp:165] Memory required for data: 268777184
I1218 22:59:37.368618 31988 layer_factory.hpp:77] Creating layer block_4_2
I1218 22:59:37.368620 31988 net.cpp:100] Creating Layer block_4_2
I1218 22:59:37.368623 31988 net.cpp:434] block_4_2 <- block_4_1_block_4_1_0_split_1
I1218 22:59:37.368624 31988 net.cpp:434] block_4_2 <- conv4_2/linear
I1218 22:59:37.368628 31988 net.cpp:408] block_4_2 -> block_4_2
I1218 22:59:37.368643 31988 net.cpp:150] Setting up block_4_2
I1218 22:59:37.368646 31988 net.cpp:157] Top shape: 1 32 38 64 (77824)
I1218 22:59:37.368649 31988 net.cpp:165] Memory required for data: 269088480
I1218 22:59:37.368649 31988 layer_factory.hpp:77] Creating layer conv4_3/expand
I1218 22:59:37.368654 31988 net.cpp:100] Creating Layer conv4_3/expand
I1218 22:59:37.368656 31988 net.cpp:434] conv4_3/expand <- block_4_2
I1218 22:59:37.368659 31988 net.cpp:408] conv4_3/expand -> conv4_3/expand
I1218 22:59:37.370146 31988 net.cpp:150] Setting up conv4_3/expand
I1218 22:59:37.370152 31988 net.cpp:157] Top shape: 1 192 38 64 (466944)
I1218 22:59:37.370153 31988 net.cpp:165] Memory required for data: 270956256
I1218 22:59:37.370157 31988 layer_factory.hpp:77] Creating layer conv4_3/expand/bn
I1218 22:59:37.370162 31988 net.cpp:100] Creating Layer conv4_3/expand/bn
I1218 22:59:37.370164 31988 net.cpp:434] conv4_3/expand/bn <- conv4_3/expand
I1218 22:59:37.370167 31988 net.cpp:395] conv4_3/expand/bn -> conv4_3/expand (in-place)
I1218 22:59:37.370293 31988 net.cpp:150] Setting up conv4_3/expand/bn
I1218 22:59:37.370297 31988 net.cpp:157] Top shape: 1 192 38 64 (466944)
I1218 22:59:37.370298 31988 net.cpp:165] Memory required for data: 272824032
I1218 22:59:37.370302 31988 layer_factory.hpp:77] Creating layer conv4_3/expand/scale
I1218 22:59:37.370306 31988 net.cpp:100] Creating Layer conv4_3/expand/scale
I1218 22:59:37.370317 31988 net.cpp:434] conv4_3/expand/scale <- conv4_3/expand
I1218 22:59:37.370321 31988 net.cpp:395] conv4_3/expand/scale -> conv4_3/expand (in-place)
I1218 22:59:37.370347 31988 layer_factory.hpp:77] Creating layer conv4_3/expand/scale
I1218 22:59:37.370416 31988 net.cpp:150] Setting up conv4_3/expand/scale
I1218 22:59:37.370420 31988 net.cpp:157] Top shape: 1 192 38 64 (466944)
I1218 22:59:37.370422 31988 net.cpp:165] Memory required for data: 274691808
I1218 22:59:37.370425 31988 layer_factory.hpp:77] Creating layer relu4_3/expand
I1218 22:59:37.370429 31988 net.cpp:100] Creating Layer relu4_3/expand
I1218 22:59:37.370431 31988 net.cpp:434] relu4_3/expand <- conv4_3/expand
I1218 22:59:37.370434 31988 net.cpp:395] relu4_3/expand -> conv4_3/expand (in-place)
I1218 22:59:37.370932 31988 net.cpp:150] Setting up relu4_3/expand
I1218 22:59:37.370939 31988 net.cpp:157] Top shape: 1 192 38 64 (466944)
I1218 22:59:37.370940 31988 net.cpp:165] Memory required for data: 276559584
I1218 22:59:37.370942 31988 layer_factory.hpp:77] Creating layer conv4_3/dwise
I1218 22:59:37.370947 31988 net.cpp:100] Creating Layer conv4_3/dwise
I1218 22:59:37.370949 31988 net.cpp:434] conv4_3/dwise <- conv4_3/expand
I1218 22:59:37.370954 31988 net.cpp:408] conv4_3/dwise -> conv4_3/dwise
I1218 22:59:37.371098 31988 net.cpp:150] Setting up conv4_3/dwise
I1218 22:59:37.371103 31988 net.cpp:157] Top shape: 1 192 38 64 (466944)
I1218 22:59:37.371104 31988 net.cpp:165] Memory required for data: 278427360
I1218 22:59:37.371107 31988 layer_factory.hpp:77] Creating layer conv4_3/dwise/bn
I1218 22:59:37.371111 31988 net.cpp:100] Creating Layer conv4_3/dwise/bn
I1218 22:59:37.371114 31988 net.cpp:434] conv4_3/dwise/bn <- conv4_3/dwise
I1218 22:59:37.371116 31988 net.cpp:395] conv4_3/dwise/bn -> conv4_3/dwise (in-place)
I1218 22:59:37.371239 31988 net.cpp:150] Setting up conv4_3/dwise/bn
I1218 22:59:37.371243 31988 net.cpp:157] Top shape: 1 192 38 64 (466944)
I1218 22:59:37.371245 31988 net.cpp:165] Memory required for data: 280295136
I1218 22:59:37.371249 31988 layer_factory.hpp:77] Creating layer conv4_3/dwise/scale
I1218 22:59:37.371253 31988 net.cpp:100] Creating Layer conv4_3/dwise/scale
I1218 22:59:37.371253 31988 net.cpp:434] conv4_3/dwise/scale <- conv4_3/dwise
I1218 22:59:37.371256 31988 net.cpp:395] conv4_3/dwise/scale -> conv4_3/dwise (in-place)
I1218 22:59:37.371280 31988 layer_factory.hpp:77] Creating layer conv4_3/dwise/scale
I1218 22:59:37.371348 31988 net.cpp:150] Setting up conv4_3/dwise/scale
I1218 22:59:37.371351 31988 net.cpp:157] Top shape: 1 192 38 64 (466944)
I1218 22:59:37.371353 31988 net.cpp:165] Memory required for data: 282162912
I1218 22:59:37.371357 31988 layer_factory.hpp:77] Creating layer relu4_3/dwise
I1218 22:59:37.371361 31988 net.cpp:100] Creating Layer relu4_3/dwise
I1218 22:59:37.371362 31988 net.cpp:434] relu4_3/dwise <- conv4_3/dwise
I1218 22:59:37.371366 31988 net.cpp:395] relu4_3/dwise -> conv4_3/dwise (in-place)
I1218 22:59:37.371680 31988 net.cpp:150] Setting up relu4_3/dwise
I1218 22:59:37.371685 31988 net.cpp:157] Top shape: 1 192 38 64 (466944)
I1218 22:59:37.371687 31988 net.cpp:165] Memory required for data: 284030688
I1218 22:59:37.371690 31988 layer_factory.hpp:77] Creating layer conv4_3/linear
I1218 22:59:37.371693 31988 net.cpp:100] Creating Layer conv4_3/linear
I1218 22:59:37.371695 31988 net.cpp:434] conv4_3/linear <- conv4_3/dwise
I1218 22:59:37.371698 31988 net.cpp:408] conv4_3/linear -> conv4_3/linear
I1218 22:59:37.373044 31988 net.cpp:150] Setting up conv4_3/linear
I1218 22:59:37.373051 31988 net.cpp:157] Top shape: 1 64 38 64 (155648)
I1218 22:59:37.373052 31988 net.cpp:165] Memory required for data: 284653280
I1218 22:59:37.373056 31988 layer_factory.hpp:77] Creating layer conv4_3/linear/bn
I1218 22:59:37.373060 31988 net.cpp:100] Creating Layer conv4_3/linear/bn
I1218 22:59:37.373064 31988 net.cpp:434] conv4_3/linear/bn <- conv4_3/linear
I1218 22:59:37.373065 31988 net.cpp:395] conv4_3/linear/bn -> conv4_3/linear (in-place)
I1218 22:59:37.373191 31988 net.cpp:150] Setting up conv4_3/linear/bn
I1218 22:59:37.373203 31988 net.cpp:157] Top shape: 1 64 38 64 (155648)
I1218 22:59:37.373204 31988 net.cpp:165] Memory required for data: 285275872
I1218 22:59:37.373217 31988 layer_factory.hpp:77] Creating layer conv4_3/linear/scale
I1218 22:59:37.373222 31988 net.cpp:100] Creating Layer conv4_3/linear/scale
I1218 22:59:37.373224 31988 net.cpp:434] conv4_3/linear/scale <- conv4_3/linear
I1218 22:59:37.373227 31988 net.cpp:395] conv4_3/linear/scale -> conv4_3/linear (in-place)
I1218 22:59:37.373253 31988 layer_factory.hpp:77] Creating layer conv4_3/linear/scale
I1218 22:59:37.373322 31988 net.cpp:150] Setting up conv4_3/linear/scale
I1218 22:59:37.373327 31988 net.cpp:157] Top shape: 1 64 38 64 (155648)
I1218 22:59:37.373328 31988 net.cpp:165] Memory required for data: 285898464
I1218 22:59:37.373332 31988 layer_factory.hpp:77] Creating layer conv4_3/linear_conv4_3/linear/scale_0_split
I1218 22:59:37.373337 31988 net.cpp:100] Creating Layer conv4_3/linear_conv4_3/linear/scale_0_split
I1218 22:59:37.373338 31988 net.cpp:434] conv4_3/linear_conv4_3/linear/scale_0_split <- conv4_3/linear
I1218 22:59:37.373342 31988 net.cpp:408] conv4_3/linear_conv4_3/linear/scale_0_split -> conv4_3/linear_conv4_3/linear/scale_0_split_0
I1218 22:59:37.373347 31988 net.cpp:408] conv4_3/linear_conv4_3/linear/scale_0_split -> conv4_3/linear_conv4_3/linear/scale_0_split_1
I1218 22:59:37.373370 31988 net.cpp:150] Setting up conv4_3/linear_conv4_3/linear/scale_0_split
I1218 22:59:37.373374 31988 net.cpp:157] Top shape: 1 64 38 64 (155648)
I1218 22:59:37.373378 31988 net.cpp:157] Top shape: 1 64 38 64 (155648)
I1218 22:59:37.373378 31988 net.cpp:165] Memory required for data: 287143648
I1218 22:59:37.373380 31988 layer_factory.hpp:77] Creating layer conv4_4/expand
I1218 22:59:37.373384 31988 net.cpp:100] Creating Layer conv4_4/expand
I1218 22:59:37.373386 31988 net.cpp:434] conv4_4/expand <- conv4_3/linear_conv4_3/linear/scale_0_split_0
I1218 22:59:37.373390 31988 net.cpp:408] conv4_4/expand -> conv4_4/expand
I1218 22:59:37.375073 31988 net.cpp:150] Setting up conv4_4/expand
I1218 22:59:37.375082 31988 net.cpp:157] Top shape: 1 384 38 64 (933888)
I1218 22:59:37.375083 31988 net.cpp:165] Memory required for data: 290879200
I1218 22:59:37.375087 31988 layer_factory.hpp:77] Creating layer conv4_4/expand/bn
I1218 22:59:37.375092 31988 net.cpp:100] Creating Layer conv4_4/expand/bn
I1218 22:59:37.375093 31988 net.cpp:434] conv4_4/expand/bn <- conv4_4/expand
I1218 22:59:37.375098 31988 net.cpp:395] conv4_4/expand/bn -> conv4_4/expand (in-place)
I1218 22:59:37.375284 31988 net.cpp:150] Setting up conv4_4/expand/bn
I1218 22:59:37.375290 31988 net.cpp:157] Top shape: 1 384 38 64 (933888)
I1218 22:59:37.375291 31988 net.cpp:165] Memory required for data: 294614752
I1218 22:59:37.375296 31988 layer_factory.hpp:77] Creating layer conv4_4/expand/scale
I1218 22:59:37.375301 31988 net.cpp:100] Creating Layer conv4_4/expand/scale
I1218 22:59:37.375303 31988 net.cpp:434] conv4_4/expand/scale <- conv4_4/expand
I1218 22:59:37.375306 31988 net.cpp:395] conv4_4/expand/scale -> conv4_4/expand (in-place)
I1218 22:59:37.375331 31988 layer_factory.hpp:77] Creating layer conv4_4/expand/scale
I1218 22:59:37.375416 31988 net.cpp:150] Setting up conv4_4/expand/scale
I1218 22:59:37.375422 31988 net.cpp:157] Top shape: 1 384 38 64 (933888)
I1218 22:59:37.375423 31988 net.cpp:165] Memory required for data: 298350304
I1218 22:59:37.375427 31988 layer_factory.hpp:77] Creating layer relu4_4/expand
I1218 22:59:37.375430 31988 net.cpp:100] Creating Layer relu4_4/expand
I1218 22:59:37.375432 31988 net.cpp:434] relu4_4/expand <- conv4_4/expand
I1218 22:59:37.375435 31988 net.cpp:395] relu4_4/expand -> conv4_4/expand (in-place)
I1218 22:59:37.375845 31988 net.cpp:150] Setting up relu4_4/expand
I1218 22:59:37.375854 31988 net.cpp:157] Top shape: 1 384 38 64 (933888)
I1218 22:59:37.375859 31988 net.cpp:165] Memory required for data: 302085856
I1218 22:59:37.375861 31988 layer_factory.hpp:77] Creating layer conv4_4/dwise
I1218 22:59:37.375869 31988 net.cpp:100] Creating Layer conv4_4/dwise
I1218 22:59:37.375883 31988 net.cpp:434] conv4_4/dwise <- conv4_4/expand
I1218 22:59:37.375888 31988 net.cpp:408] conv4_4/dwise -> conv4_4/dwise
I1218 22:59:37.376080 31988 net.cpp:150] Setting up conv4_4/dwise
I1218 22:59:37.376087 31988 net.cpp:157] Top shape: 1 384 38 64 (933888)
I1218 22:59:37.376091 31988 net.cpp:165] Memory required for data: 305821408
I1218 22:59:37.376096 31988 layer_factory.hpp:77] Creating layer conv4_4/dwise/bn
I1218 22:59:37.376102 31988 net.cpp:100] Creating Layer conv4_4/dwise/bn
I1218 22:59:37.376107 31988 net.cpp:434] conv4_4/dwise/bn <- conv4_4/dwise
I1218 22:59:37.376112 31988 net.cpp:395] conv4_4/dwise/bn -> conv4_4/dwise (in-place)
I1218 22:59:37.376261 31988 net.cpp:150] Setting up conv4_4/dwise/bn
I1218 22:59:37.376267 31988 net.cpp:157] Top shape: 1 384 38 64 (933888)
I1218 22:59:37.376269 31988 net.cpp:165] Memory required for data: 309556960
I1218 22:59:37.376273 31988 layer_factory.hpp:77] Creating layer conv4_4/dwise/scale
I1218 22:59:37.376277 31988 net.cpp:100] Creating Layer conv4_4/dwise/scale
I1218 22:59:37.376279 31988 net.cpp:434] conv4_4/dwise/scale <- conv4_4/dwise
I1218 22:59:37.376286 31988 net.cpp:395] conv4_4/dwise/scale -> conv4_4/dwise (in-place)
I1218 22:59:37.376320 31988 layer_factory.hpp:77] Creating layer conv4_4/dwise/scale
I1218 22:59:37.376420 31988 net.cpp:150] Setting up conv4_4/dwise/scale
I1218 22:59:37.376425 31988 net.cpp:157] Top shape: 1 384 38 64 (933888)
I1218 22:59:37.376427 31988 net.cpp:165] Memory required for data: 313292512
I1218 22:59:37.376431 31988 layer_factory.hpp:77] Creating layer relu4_4/dwise
I1218 22:59:37.376435 31988 net.cpp:100] Creating Layer relu4_4/dwise
I1218 22:59:37.376438 31988 net.cpp:434] relu4_4/dwise <- conv4_4/dwise
I1218 22:59:37.376441 31988 net.cpp:395] relu4_4/dwise -> conv4_4/dwise (in-place)
I1218 22:59:37.376823 31988 net.cpp:150] Setting up relu4_4/dwise
I1218 22:59:37.376830 31988 net.cpp:157] Top shape: 1 384 38 64 (933888)
I1218 22:59:37.376832 31988 net.cpp:165] Memory required for data: 317028064
I1218 22:59:37.376834 31988 layer_factory.hpp:77] Creating layer conv4_4/linear
I1218 22:59:37.376839 31988 net.cpp:100] Creating Layer conv4_4/linear
I1218 22:59:37.376842 31988 net.cpp:434] conv4_4/linear <- conv4_4/dwise
I1218 22:59:37.376845 31988 net.cpp:408] conv4_4/linear -> conv4_4/linear
I1218 22:59:37.378533 31988 net.cpp:150] Setting up conv4_4/linear
I1218 22:59:37.378541 31988 net.cpp:157] Top shape: 1 64 38 64 (155648)
I1218 22:59:37.378543 31988 net.cpp:165] Memory required for data: 317650656
I1218 22:59:37.378546 31988 layer_factory.hpp:77] Creating layer conv4_4/linear/bn
I1218 22:59:37.378551 31988 net.cpp:100] Creating Layer conv4_4/linear/bn
I1218 22:59:37.378554 31988 net.cpp:434] conv4_4/linear/bn <- conv4_4/linear
I1218 22:59:37.378557 31988 net.cpp:395] conv4_4/linear/bn -> conv4_4/linear (in-place)
I1218 22:59:37.378688 31988 net.cpp:150] Setting up conv4_4/linear/bn
I1218 22:59:37.378692 31988 net.cpp:157] Top shape: 1 64 38 64 (155648)
I1218 22:59:37.378693 31988 net.cpp:165] Memory required for data: 318273248
I1218 22:59:37.378697 31988 layer_factory.hpp:77] Creating layer conv4_4/linear/scale
I1218 22:59:37.378700 31988 net.cpp:100] Creating Layer conv4_4/linear/scale
I1218 22:59:37.378702 31988 net.cpp:434] conv4_4/linear/scale <- conv4_4/linear
I1218 22:59:37.378705 31988 net.cpp:395] conv4_4/linear/scale -> conv4_4/linear (in-place)
I1218 22:59:37.378731 31988 layer_factory.hpp:77] Creating layer conv4_4/linear/scale
I1218 22:59:37.378800 31988 net.cpp:150] Setting up conv4_4/linear/scale
I1218 22:59:37.378805 31988 net.cpp:157] Top shape: 1 64 38 64 (155648)
I1218 22:59:37.378806 31988 net.cpp:165] Memory required for data: 318895840
I1218 22:59:37.378810 31988 layer_factory.hpp:77] Creating layer block_4_4
I1218 22:59:37.378813 31988 net.cpp:100] Creating Layer block_4_4
I1218 22:59:37.378815 31988 net.cpp:434] block_4_4 <- conv4_3/linear_conv4_3/linear/scale_0_split_1
I1218 22:59:37.378818 31988 net.cpp:434] block_4_4 <- conv4_4/linear
I1218 22:59:37.378820 31988 net.cpp:408] block_4_4 -> block_4_4
I1218 22:59:37.378844 31988 net.cpp:150] Setting up block_4_4
I1218 22:59:37.378849 31988 net.cpp:157] Top shape: 1 64 38 64 (155648)
I1218 22:59:37.378851 31988 net.cpp:165] Memory required for data: 319518432
I1218 22:59:37.378852 31988 layer_factory.hpp:77] Creating layer block_4_4_block_4_4_0_split
I1218 22:59:37.378857 31988 net.cpp:100] Creating Layer block_4_4_block_4_4_0_split
I1218 22:59:37.378860 31988 net.cpp:434] block_4_4_block_4_4_0_split <- block_4_4
I1218 22:59:37.378862 31988 net.cpp:408] block_4_4_block_4_4_0_split -> block_4_4_block_4_4_0_split_0
I1218 22:59:37.378866 31988 net.cpp:408] block_4_4_block_4_4_0_split -> block_4_4_block_4_4_0_split_1
I1218 22:59:37.378890 31988 net.cpp:150] Setting up block_4_4_block_4_4_0_split
I1218 22:59:37.378893 31988 net.cpp:157] Top shape: 1 64 38 64 (155648)
I1218 22:59:37.378895 31988 net.cpp:157] Top shape: 1 64 38 64 (155648)
I1218 22:59:37.378898 31988 net.cpp:165] Memory required for data: 320763616
I1218 22:59:37.378901 31988 layer_factory.hpp:77] Creating layer conv4_5/expand
I1218 22:59:37.378906 31988 net.cpp:100] Creating Layer conv4_5/expand
I1218 22:59:37.378907 31988 net.cpp:434] conv4_5/expand <- block_4_4_block_4_4_0_split_0
I1218 22:59:37.378911 31988 net.cpp:408] conv4_5/expand -> conv4_5/expand
I1218 22:59:37.380347 31988 net.cpp:150] Setting up conv4_5/expand
I1218 22:59:37.380354 31988 net.cpp:157] Top shape: 1 384 38 64 (933888)
I1218 22:59:37.380357 31988 net.cpp:165] Memory required for data: 324499168
I1218 22:59:37.380360 31988 layer_factory.hpp:77] Creating layer conv4_5/expand/bn
I1218 22:59:37.380364 31988 net.cpp:100] Creating Layer conv4_5/expand/bn
I1218 22:59:37.380367 31988 net.cpp:434] conv4_5/expand/bn <- conv4_5/expand
I1218 22:59:37.380370 31988 net.cpp:395] conv4_5/expand/bn -> conv4_5/expand (in-place)
I1218 22:59:37.380497 31988 net.cpp:150] Setting up conv4_5/expand/bn
I1218 22:59:37.380501 31988 net.cpp:157] Top shape: 1 384 38 64 (933888)
I1218 22:59:37.380504 31988 net.cpp:165] Memory required for data: 328234720
I1218 22:59:37.380507 31988 layer_factory.hpp:77] Creating layer conv4_5/expand/scale
I1218 22:59:37.380511 31988 net.cpp:100] Creating Layer conv4_5/expand/scale
I1218 22:59:37.380514 31988 net.cpp:434] conv4_5/expand/scale <- conv4_5/expand
I1218 22:59:37.380518 31988 net.cpp:395] conv4_5/expand/scale -> conv4_5/expand (in-place)
I1218 22:59:37.380542 31988 layer_factory.hpp:77] Creating layer conv4_5/expand/scale
I1218 22:59:37.380610 31988 net.cpp:150] Setting up conv4_5/expand/scale
I1218 22:59:37.380615 31988 net.cpp:157] Top shape: 1 384 38 64 (933888)
I1218 22:59:37.380617 31988 net.cpp:165] Memory required for data: 331970272
I1218 22:59:37.380621 31988 layer_factory.hpp:77] Creating layer relu4_5/expand
I1218 22:59:37.380625 31988 net.cpp:100] Creating Layer relu4_5/expand
I1218 22:59:37.380627 31988 net.cpp:434] relu4_5/expand <- conv4_5/expand
I1218 22:59:37.380630 31988 net.cpp:395] relu4_5/expand -> conv4_5/expand (in-place)
I1218 22:59:37.380954 31988 net.cpp:150] Setting up relu4_5/expand
I1218 22:59:37.380959 31988 net.cpp:157] Top shape: 1 384 38 64 (933888)
I1218 22:59:37.380961 31988 net.cpp:165] Memory required for data: 335705824
I1218 22:59:37.380964 31988 layer_factory.hpp:77] Creating layer conv4_5/dwise
I1218 22:59:37.380967 31988 net.cpp:100] Creating Layer conv4_5/dwise
I1218 22:59:37.380970 31988 net.cpp:434] conv4_5/dwise <- conv4_5/expand
I1218 22:59:37.380973 31988 net.cpp:408] conv4_5/dwise -> conv4_5/dwise
I1218 22:59:37.381127 31988 net.cpp:150] Setting up conv4_5/dwise
I1218 22:59:37.381131 31988 net.cpp:157] Top shape: 1 384 38 64 (933888)
I1218 22:59:37.381134 31988 net.cpp:165] Memory required for data: 339441376
I1218 22:59:37.381136 31988 layer_factory.hpp:77] Creating layer conv4_5/dwise/bn
I1218 22:59:37.381140 31988 net.cpp:100] Creating Layer conv4_5/dwise/bn
I1218 22:59:37.381142 31988 net.cpp:434] conv4_5/dwise/bn <- conv4_5/dwise
I1218 22:59:37.381145 31988 net.cpp:395] conv4_5/dwise/bn -> conv4_5/dwise (in-place)
I1218 22:59:37.381274 31988 net.cpp:150] Setting up conv4_5/dwise/bn
I1218 22:59:37.381279 31988 net.cpp:157] Top shape: 1 384 38 64 (933888)
I1218 22:59:37.381280 31988 net.cpp:165] Memory required for data: 343176928
I1218 22:59:37.381284 31988 layer_factory.hpp:77] Creating layer conv4_5/dwise/scale
I1218 22:59:37.381289 31988 net.cpp:100] Creating Layer conv4_5/dwise/scale
I1218 22:59:37.381291 31988 net.cpp:434] conv4_5/dwise/scale <- conv4_5/dwise
I1218 22:59:37.381294 31988 net.cpp:395] conv4_5/dwise/scale -> conv4_5/dwise (in-place)
I1218 22:59:37.381317 31988 layer_factory.hpp:77] Creating layer conv4_5/dwise/scale
I1218 22:59:37.381386 31988 net.cpp:150] Setting up conv4_5/dwise/scale
I1218 22:59:37.381389 31988 net.cpp:157] Top shape: 1 384 38 64 (933888)
I1218 22:59:37.381392 31988 net.cpp:165] Memory required for data: 346912480
I1218 22:59:37.381394 31988 layer_factory.hpp:77] Creating layer relu4_5/dwise
I1218 22:59:37.381398 31988 net.cpp:100] Creating Layer relu4_5/dwise
I1218 22:59:37.381402 31988 net.cpp:434] relu4_5/dwise <- conv4_5/dwise
I1218 22:59:37.381403 31988 net.cpp:395] relu4_5/dwise -> conv4_5/dwise (in-place)
I1218 22:59:37.381896 31988 net.cpp:150] Setting up relu4_5/dwise
I1218 22:59:37.381902 31988 net.cpp:157] Top shape: 1 384 38 64 (933888)
I1218 22:59:37.381906 31988 net.cpp:165] Memory required for data: 350648032
I1218 22:59:37.381907 31988 layer_factory.hpp:77] Creating layer conv4_5/linear
I1218 22:59:37.381912 31988 net.cpp:100] Creating Layer conv4_5/linear
I1218 22:59:37.381914 31988 net.cpp:434] conv4_5/linear <- conv4_5/dwise
I1218 22:59:37.381919 31988 net.cpp:408] conv4_5/linear -> conv4_5/linear
I1218 22:59:37.383357 31988 net.cpp:150] Setting up conv4_5/linear
I1218 22:59:37.383363 31988 net.cpp:157] Top shape: 1 64 38 64 (155648)
I1218 22:59:37.383365 31988 net.cpp:165] Memory required for data: 351270624
I1218 22:59:37.383368 31988 layer_factory.hpp:77] Creating layer conv4_5/linear/bn
I1218 22:59:37.383373 31988 net.cpp:100] Creating Layer conv4_5/linear/bn
I1218 22:59:37.383376 31988 net.cpp:434] conv4_5/linear/bn <- conv4_5/linear
I1218 22:59:37.383378 31988 net.cpp:395] conv4_5/linear/bn -> conv4_5/linear (in-place)
I1218 22:59:37.383509 31988 net.cpp:150] Setting up conv4_5/linear/bn
I1218 22:59:37.383513 31988 net.cpp:157] Top shape: 1 64 38 64 (155648)
I1218 22:59:37.383514 31988 net.cpp:165] Memory required for data: 351893216
I1218 22:59:37.383518 31988 layer_factory.hpp:77] Creating layer conv4_5/linear/scale
I1218 22:59:37.383522 31988 net.cpp:100] Creating Layer conv4_5/linear/scale
I1218 22:59:37.383524 31988 net.cpp:434] conv4_5/linear/scale <- conv4_5/linear
I1218 22:59:37.383527 31988 net.cpp:395] conv4_5/linear/scale -> conv4_5/linear (in-place)
I1218 22:59:37.383553 31988 layer_factory.hpp:77] Creating layer conv4_5/linear/scale
I1218 22:59:37.383625 31988 net.cpp:150] Setting up conv4_5/linear/scale
I1218 22:59:37.383628 31988 net.cpp:157] Top shape: 1 64 38 64 (155648)
I1218 22:59:37.383630 31988 net.cpp:165] Memory required for data: 352515808
I1218 22:59:37.383633 31988 layer_factory.hpp:77] Creating layer block_4_5
I1218 22:59:37.383637 31988 net.cpp:100] Creating Layer block_4_5
I1218 22:59:37.383641 31988 net.cpp:434] block_4_5 <- block_4_4_block_4_4_0_split_1
I1218 22:59:37.383642 31988 net.cpp:434] block_4_5 <- conv4_5/linear
I1218 22:59:37.383646 31988 net.cpp:408] block_4_5 -> block_4_5
I1218 22:59:37.383661 31988 net.cpp:150] Setting up block_4_5
I1218 22:59:37.383664 31988 net.cpp:157] Top shape: 1 64 38 64 (155648)
I1218 22:59:37.383666 31988 net.cpp:165] Memory required for data: 353138400
I1218 22:59:37.383668 31988 layer_factory.hpp:77] Creating layer block_4_5_block_4_5_0_split
I1218 22:59:37.383671 31988 net.cpp:100] Creating Layer block_4_5_block_4_5_0_split
I1218 22:59:37.383674 31988 net.cpp:434] block_4_5_block_4_5_0_split <- block_4_5
I1218 22:59:37.383677 31988 net.cpp:408] block_4_5_block_4_5_0_split -> block_4_5_block_4_5_0_split_0
I1218 22:59:37.383680 31988 net.cpp:408] block_4_5_block_4_5_0_split -> block_4_5_block_4_5_0_split_1
I1218 22:59:37.383711 31988 net.cpp:150] Setting up block_4_5_block_4_5_0_split
I1218 22:59:37.383715 31988 net.cpp:157] Top shape: 1 64 38 64 (155648)
I1218 22:59:37.383718 31988 net.cpp:157] Top shape: 1 64 38 64 (155648)
I1218 22:59:37.383720 31988 net.cpp:165] Memory required for data: 354383584
I1218 22:59:37.383723 31988 layer_factory.hpp:77] Creating layer conv4_6/expand
I1218 22:59:37.383728 31988 net.cpp:100] Creating Layer conv4_6/expand
I1218 22:59:37.383729 31988 net.cpp:434] conv4_6/expand <- block_4_5_block_4_5_0_split_0
I1218 22:59:37.383733 31988 net.cpp:408] conv4_6/expand -> conv4_6/expand
I1218 22:59:37.385156 31988 net.cpp:150] Setting up conv4_6/expand
I1218 22:59:37.385164 31988 net.cpp:157] Top shape: 1 384 38 64 (933888)
I1218 22:59:37.385165 31988 net.cpp:165] Memory required for data: 358119136
I1218 22:59:37.385169 31988 layer_factory.hpp:77] Creating layer conv4_6/expand/bn
I1218 22:59:37.385174 31988 net.cpp:100] Creating Layer conv4_6/expand/bn
I1218 22:59:37.385176 31988 net.cpp:434] conv4_6/expand/bn <- conv4_6/expand
I1218 22:59:37.385179 31988 net.cpp:395] conv4_6/expand/bn -> conv4_6/expand (in-place)
I1218 22:59:37.385306 31988 net.cpp:150] Setting up conv4_6/expand/bn
I1218 22:59:37.385310 31988 net.cpp:157] Top shape: 1 384 38 64 (933888)
I1218 22:59:37.385313 31988 net.cpp:165] Memory required for data: 361854688
I1218 22:59:37.385318 31988 layer_factory.hpp:77] Creating layer conv4_6/expand/scale
I1218 22:59:37.385321 31988 net.cpp:100] Creating Layer conv4_6/expand/scale
I1218 22:59:37.385324 31988 net.cpp:434] conv4_6/expand/scale <- conv4_6/expand
I1218 22:59:37.385327 31988 net.cpp:395] conv4_6/expand/scale -> conv4_6/expand (in-place)
I1218 22:59:37.385349 31988 layer_factory.hpp:77] Creating layer conv4_6/expand/scale
I1218 22:59:37.385417 31988 net.cpp:150] Setting up conv4_6/expand/scale
I1218 22:59:37.385421 31988 net.cpp:157] Top shape: 1 384 38 64 (933888)
I1218 22:59:37.385423 31988 net.cpp:165] Memory required for data: 365590240
I1218 22:59:37.385426 31988 layer_factory.hpp:77] Creating layer relu4_6/expand
I1218 22:59:37.385430 31988 net.cpp:100] Creating Layer relu4_6/expand
I1218 22:59:37.385432 31988 net.cpp:434] relu4_6/expand <- conv4_6/expand
I1218 22:59:37.385435 31988 net.cpp:395] relu4_6/expand -> conv4_6/expand (in-place)
I1218 22:59:37.385946 31988 net.cpp:150] Setting up relu4_6/expand
I1218 22:59:37.385952 31988 net.cpp:157] Top shape: 1 384 38 64 (933888)
I1218 22:59:37.385956 31988 net.cpp:165] Memory required for data: 369325792
I1218 22:59:37.385957 31988 layer_factory.hpp:77] Creating layer conv4_6/dwise
I1218 22:59:37.385962 31988 net.cpp:100] Creating Layer conv4_6/dwise
I1218 22:59:37.385965 31988 net.cpp:434] conv4_6/dwise <- conv4_6/expand
I1218 22:59:37.385969 31988 net.cpp:408] conv4_6/dwise -> conv4_6/dwise
I1218 22:59:37.386121 31988 net.cpp:150] Setting up conv4_6/dwise
I1218 22:59:37.386126 31988 net.cpp:157] Top shape: 1 384 38 64 (933888)
I1218 22:59:37.386127 31988 net.cpp:165] Memory required for data: 373061344
I1218 22:59:37.386132 31988 layer_factory.hpp:77] Creating layer conv4_6/dwise/bn
I1218 22:59:37.386135 31988 net.cpp:100] Creating Layer conv4_6/dwise/bn
I1218 22:59:37.386137 31988 net.cpp:434] conv4_6/dwise/bn <- conv4_6/dwise
I1218 22:59:37.386142 31988 net.cpp:395] conv4_6/dwise/bn -> conv4_6/dwise (in-place)
I1218 22:59:37.386265 31988 net.cpp:150] Setting up conv4_6/dwise/bn
I1218 22:59:37.386270 31988 net.cpp:157] Top shape: 1 384 38 64 (933888)
I1218 22:59:37.386271 31988 net.cpp:165] Memory required for data: 376796896
I1218 22:59:37.386276 31988 layer_factory.hpp:77] Creating layer conv4_6/dwise/scale
I1218 22:59:37.386279 31988 net.cpp:100] Creating Layer conv4_6/dwise/scale
I1218 22:59:37.386281 31988 net.cpp:434] conv4_6/dwise/scale <- conv4_6/dwise
I1218 22:59:37.386284 31988 net.cpp:395] conv4_6/dwise/scale -> conv4_6/dwise (in-place)
I1218 22:59:37.386307 31988 layer_factory.hpp:77] Creating layer conv4_6/dwise/scale
I1218 22:59:37.386376 31988 net.cpp:150] Setting up conv4_6/dwise/scale
I1218 22:59:37.386380 31988 net.cpp:157] Top shape: 1 384 38 64 (933888)
I1218 22:59:37.386390 31988 net.cpp:165] Memory required for data: 380532448
I1218 22:59:37.386394 31988 layer_factory.hpp:77] Creating layer relu4_6/dwise
I1218 22:59:37.386397 31988 net.cpp:100] Creating Layer relu4_6/dwise
I1218 22:59:37.386400 31988 net.cpp:434] relu4_6/dwise <- conv4_6/dwise
I1218 22:59:37.386404 31988 net.cpp:395] relu4_6/dwise -> conv4_6/dwise (in-place)
I1218 22:59:37.386726 31988 net.cpp:150] Setting up relu4_6/dwise
I1218 22:59:37.386732 31988 net.cpp:157] Top shape: 1 384 38 64 (933888)
I1218 22:59:37.386734 31988 net.cpp:165] Memory required for data: 384268000
I1218 22:59:37.386736 31988 layer_factory.hpp:77] Creating layer conv4_6/linear
I1218 22:59:37.386741 31988 net.cpp:100] Creating Layer conv4_6/linear
I1218 22:59:37.386744 31988 net.cpp:434] conv4_6/linear <- conv4_6/dwise
I1218 22:59:37.386749 31988 net.cpp:408] conv4_6/linear -> conv4_6/linear
I1218 22:59:37.388453 31988 net.cpp:150] Setting up conv4_6/linear
I1218 22:59:37.388463 31988 net.cpp:157] Top shape: 1 64 38 64 (155648)
I1218 22:59:37.388464 31988 net.cpp:165] Memory required for data: 384890592
I1218 22:59:37.388468 31988 layer_factory.hpp:77] Creating layer conv4_6/linear/bn
I1218 22:59:37.388473 31988 net.cpp:100] Creating Layer conv4_6/linear/bn
I1218 22:59:37.388476 31988 net.cpp:434] conv4_6/linear/bn <- conv4_6/linear
I1218 22:59:37.388480 31988 net.cpp:395] conv4_6/linear/bn -> conv4_6/linear (in-place)
I1218 22:59:37.388615 31988 net.cpp:150] Setting up conv4_6/linear/bn
I1218 22:59:37.388619 31988 net.cpp:157] Top shape: 1 64 38 64 (155648)
I1218 22:59:37.388620 31988 net.cpp:165] Memory required for data: 385513184
I1218 22:59:37.388625 31988 layer_factory.hpp:77] Creating layer conv4_6/linear/scale
I1218 22:59:37.388629 31988 net.cpp:100] Creating Layer conv4_6/linear/scale
I1218 22:59:37.388631 31988 net.cpp:434] conv4_6/linear/scale <- conv4_6/linear
I1218 22:59:37.388633 31988 net.cpp:395] conv4_6/linear/scale -> conv4_6/linear (in-place)
I1218 22:59:37.388660 31988 layer_factory.hpp:77] Creating layer conv4_6/linear/scale
I1218 22:59:37.388733 31988 net.cpp:150] Setting up conv4_6/linear/scale
I1218 22:59:37.388737 31988 net.cpp:157] Top shape: 1 64 38 64 (155648)
I1218 22:59:37.388739 31988 net.cpp:165] Memory required for data: 386135776
I1218 22:59:37.388742 31988 layer_factory.hpp:77] Creating layer block_4_6
I1218 22:59:37.388746 31988 net.cpp:100] Creating Layer block_4_6
I1218 22:59:37.388748 31988 net.cpp:434] block_4_6 <- block_4_5_block_4_5_0_split_1
I1218 22:59:37.388751 31988 net.cpp:434] block_4_6 <- conv4_6/linear
I1218 22:59:37.388753 31988 net.cpp:408] block_4_6 -> block_4_6
I1218 22:59:37.388768 31988 net.cpp:150] Setting up block_4_6
I1218 22:59:37.388772 31988 net.cpp:157] Top shape: 1 64 38 64 (155648)
I1218 22:59:37.388773 31988 net.cpp:165] Memory required for data: 386758368
I1218 22:59:37.388775 31988 layer_factory.hpp:77] Creating layer conv4_7/expand
I1218 22:59:37.388790 31988 net.cpp:100] Creating Layer conv4_7/expand
I1218 22:59:37.388792 31988 net.cpp:434] conv4_7/expand <- block_4_6
I1218 22:59:37.388795 31988 net.cpp:408] conv4_7/expand -> conv4_7/expand
I1218 22:59:37.390426 31988 net.cpp:150] Setting up conv4_7/expand
I1218 22:59:37.390434 31988 net.cpp:157] Top shape: 1 384 38 64 (933888)
I1218 22:59:37.390435 31988 net.cpp:165] Memory required for data: 390493920
I1218 22:59:37.390439 31988 layer_factory.hpp:77] Creating layer conv4_7/expand/bn
I1218 22:59:37.390445 31988 net.cpp:100] Creating Layer conv4_7/expand/bn
I1218 22:59:37.390449 31988 net.cpp:434] conv4_7/expand/bn <- conv4_7/expand
I1218 22:59:37.390451 31988 net.cpp:395] conv4_7/expand/bn -> conv4_7/expand (in-place)
I1218 22:59:37.390581 31988 net.cpp:150] Setting up conv4_7/expand/bn
I1218 22:59:37.390585 31988 net.cpp:157] Top shape: 1 384 38 64 (933888)
I1218 22:59:37.390588 31988 net.cpp:165] Memory required for data: 394229472
I1218 22:59:37.390591 31988 layer_factory.hpp:77] Creating layer conv4_7/expand/scale
I1218 22:59:37.390596 31988 net.cpp:100] Creating Layer conv4_7/expand/scale
I1218 22:59:37.390607 31988 net.cpp:434] conv4_7/expand/scale <- conv4_7/expand
I1218 22:59:37.390610 31988 net.cpp:395] conv4_7/expand/scale -> conv4_7/expand (in-place)
I1218 22:59:37.390635 31988 layer_factory.hpp:77] Creating layer conv4_7/expand/scale
I1218 22:59:37.390708 31988 net.cpp:150] Setting up conv4_7/expand/scale
I1218 22:59:37.390712 31988 net.cpp:157] Top shape: 1 384 38 64 (933888)
I1218 22:59:37.390714 31988 net.cpp:165] Memory required for data: 397965024
I1218 22:59:37.390718 31988 layer_factory.hpp:77] Creating layer relu4_7/expand
I1218 22:59:37.390722 31988 net.cpp:100] Creating Layer relu4_7/expand
I1218 22:59:37.390724 31988 net.cpp:434] relu4_7/expand <- conv4_7/expand
I1218 22:59:37.390727 31988 net.cpp:395] relu4_7/expand -> conv4_7/expand (in-place)
I1218 22:59:37.391060 31988 net.cpp:150] Setting up relu4_7/expand
I1218 22:59:37.391065 31988 net.cpp:157] Top shape: 1 384 38 64 (933888)
I1218 22:59:37.391068 31988 net.cpp:165] Memory required for data: 401700576
I1218 22:59:37.391070 31988 layer_factory.hpp:77] Creating layer conv4_7/dwise
I1218 22:59:37.391074 31988 net.cpp:100] Creating Layer conv4_7/dwise
I1218 22:59:37.391077 31988 net.cpp:434] conv4_7/dwise <- conv4_7/expand
I1218 22:59:37.391082 31988 net.cpp:408] conv4_7/dwise -> conv4_7/dwise
I1218 22:59:37.391233 31988 net.cpp:150] Setting up conv4_7/dwise
I1218 22:59:37.391238 31988 net.cpp:157] Top shape: 1 384 19 32 (233472)
I1218 22:59:37.391240 31988 net.cpp:165] Memory required for data: 402634464
I1218 22:59:37.391243 31988 layer_factory.hpp:77] Creating layer conv4_7/dwise/bn
I1218 22:59:37.391247 31988 net.cpp:100] Creating Layer conv4_7/dwise/bn
I1218 22:59:37.391249 31988 net.cpp:434] conv4_7/dwise/bn <- conv4_7/dwise
I1218 22:59:37.391252 31988 net.cpp:395] conv4_7/dwise/bn -> conv4_7/dwise (in-place)
I1218 22:59:37.391378 31988 net.cpp:150] Setting up conv4_7/dwise/bn
I1218 22:59:37.391382 31988 net.cpp:157] Top shape: 1 384 19 32 (233472)
I1218 22:59:37.391383 31988 net.cpp:165] Memory required for data: 403568352
I1218 22:59:37.391387 31988 layer_factory.hpp:77] Creating layer conv4_7/dwise/scale
I1218 22:59:37.391391 31988 net.cpp:100] Creating Layer conv4_7/dwise/scale
I1218 22:59:37.391393 31988 net.cpp:434] conv4_7/dwise/scale <- conv4_7/dwise
I1218 22:59:37.391396 31988 net.cpp:395] conv4_7/dwise/scale -> conv4_7/dwise (in-place)
I1218 22:59:37.391423 31988 layer_factory.hpp:77] Creating layer conv4_7/dwise/scale
I1218 22:59:37.391497 31988 net.cpp:150] Setting up conv4_7/dwise/scale
I1218 22:59:37.391502 31988 net.cpp:157] Top shape: 1 384 19 32 (233472)
I1218 22:59:37.391505 31988 net.cpp:165] Memory required for data: 404502240
I1218 22:59:37.391508 31988 layer_factory.hpp:77] Creating layer relu4_7/dwise
I1218 22:59:37.391511 31988 net.cpp:100] Creating Layer relu4_7/dwise
I1218 22:59:37.391515 31988 net.cpp:434] relu4_7/dwise <- conv4_7/dwise
I1218 22:59:37.391516 31988 net.cpp:395] relu4_7/dwise -> conv4_7/dwise (in-place)
I1218 22:59:37.392014 31988 net.cpp:150] Setting up relu4_7/dwise
I1218 22:59:37.392021 31988 net.cpp:157] Top shape: 1 384 19 32 (233472)
I1218 22:59:37.392024 31988 net.cpp:165] Memory required for data: 405436128
I1218 22:59:37.392025 31988 layer_factory.hpp:77] Creating layer conv4_7/linear
I1218 22:59:37.392030 31988 net.cpp:100] Creating Layer conv4_7/linear
I1218 22:59:37.392033 31988 net.cpp:434] conv4_7/linear <- conv4_7/dwise
I1218 22:59:37.392037 31988 net.cpp:408] conv4_7/linear -> conv4_7/linear
I1218 22:59:37.393563 31988 net.cpp:150] Setting up conv4_7/linear
I1218 22:59:37.393570 31988 net.cpp:157] Top shape: 1 96 19 32 (58368)
I1218 22:59:37.393573 31988 net.cpp:165] Memory required for data: 405669600
I1218 22:59:37.393577 31988 layer_factory.hpp:77] Creating layer conv4_7/linear/bn
I1218 22:59:37.393582 31988 net.cpp:100] Creating Layer conv4_7/linear/bn
I1218 22:59:37.393585 31988 net.cpp:434] conv4_7/linear/bn <- conv4_7/linear
I1218 22:59:37.393589 31988 net.cpp:395] conv4_7/linear/bn -> conv4_7/linear (in-place)
I1218 22:59:37.393728 31988 net.cpp:150] Setting up conv4_7/linear/bn
I1218 22:59:37.393740 31988 net.cpp:157] Top shape: 1 96 19 32 (58368)
I1218 22:59:37.393743 31988 net.cpp:165] Memory required for data: 405903072
I1218 22:59:37.393748 31988 layer_factory.hpp:77] Creating layer conv4_7/linear/scale
I1218 22:59:37.393751 31988 net.cpp:100] Creating Layer conv4_7/linear/scale
I1218 22:59:37.393754 31988 net.cpp:434] conv4_7/linear/scale <- conv4_7/linear
I1218 22:59:37.393757 31988 net.cpp:395] conv4_7/linear/scale -> conv4_7/linear (in-place)
I1218 22:59:37.393785 31988 layer_factory.hpp:77] Creating layer conv4_7/linear/scale
I1218 22:59:37.393867 31988 net.cpp:150] Setting up conv4_7/linear/scale
I1218 22:59:37.393870 31988 net.cpp:157] Top shape: 1 96 19 32 (58368)
I1218 22:59:37.393873 31988 net.cpp:165] Memory required for data: 406136544
I1218 22:59:37.393877 31988 layer_factory.hpp:77] Creating layer conv4_7/linear_conv4_7/linear/scale_0_split
I1218 22:59:37.393880 31988 net.cpp:100] Creating Layer conv4_7/linear_conv4_7/linear/scale_0_split
I1218 22:59:37.393882 31988 net.cpp:434] conv4_7/linear_conv4_7/linear/scale_0_split <- conv4_7/linear
I1218 22:59:37.393885 31988 net.cpp:408] conv4_7/linear_conv4_7/linear/scale_0_split -> conv4_7/linear_conv4_7/linear/scale_0_split_0
I1218 22:59:37.393891 31988 net.cpp:408] conv4_7/linear_conv4_7/linear/scale_0_split -> conv4_7/linear_conv4_7/linear/scale_0_split_1
I1218 22:59:37.393914 31988 net.cpp:150] Setting up conv4_7/linear_conv4_7/linear/scale_0_split
I1218 22:59:37.393918 31988 net.cpp:157] Top shape: 1 96 19 32 (58368)
I1218 22:59:37.393920 31988 net.cpp:157] Top shape: 1 96 19 32 (58368)
I1218 22:59:37.393923 31988 net.cpp:165] Memory required for data: 406603488
I1218 22:59:37.393924 31988 layer_factory.hpp:77] Creating layer conv5_1/expand
I1218 22:59:37.393929 31988 net.cpp:100] Creating Layer conv5_1/expand
I1218 22:59:37.393931 31988 net.cpp:434] conv5_1/expand <- conv4_7/linear_conv4_7/linear/scale_0_split_0
I1218 22:59:37.393935 31988 net.cpp:408] conv5_1/expand -> conv5_1/expand
I1218 22:59:37.395575 31988 net.cpp:150] Setting up conv5_1/expand
I1218 22:59:37.395581 31988 net.cpp:157] Top shape: 1 576 19 32 (350208)
I1218 22:59:37.395583 31988 net.cpp:165] Memory required for data: 408004320
I1218 22:59:37.395587 31988 layer_factory.hpp:77] Creating layer conv5_1/expand/bn
I1218 22:59:37.395592 31988 net.cpp:100] Creating Layer conv5_1/expand/bn
I1218 22:59:37.395596 31988 net.cpp:434] conv5_1/expand/bn <- conv5_1/expand
I1218 22:59:37.395598 31988 net.cpp:395] conv5_1/expand/bn -> conv5_1/expand (in-place)
I1218 22:59:37.395740 31988 net.cpp:150] Setting up conv5_1/expand/bn
I1218 22:59:37.395745 31988 net.cpp:157] Top shape: 1 576 19 32 (350208)
I1218 22:59:37.395746 31988 net.cpp:165] Memory required for data: 409405152
I1218 22:59:37.395750 31988 layer_factory.hpp:77] Creating layer conv5_1/expand/scale
I1218 22:59:37.395754 31988 net.cpp:100] Creating Layer conv5_1/expand/scale
I1218 22:59:37.395756 31988 net.cpp:434] conv5_1/expand/scale <- conv5_1/expand
I1218 22:59:37.395759 31988 net.cpp:395] conv5_1/expand/scale -> conv5_1/expand (in-place)
I1218 22:59:37.395786 31988 layer_factory.hpp:77] Creating layer conv5_1/expand/scale
I1218 22:59:37.395867 31988 net.cpp:150] Setting up conv5_1/expand/scale
I1218 22:59:37.395871 31988 net.cpp:157] Top shape: 1 576 19 32 (350208)
I1218 22:59:37.395874 31988 net.cpp:165] Memory required for data: 410805984
I1218 22:59:37.395876 31988 layer_factory.hpp:77] Creating layer relu5_1/expand
I1218 22:59:37.395880 31988 net.cpp:100] Creating Layer relu5_1/expand
I1218 22:59:37.395882 31988 net.cpp:434] relu5_1/expand <- conv5_1/expand
I1218 22:59:37.395884 31988 net.cpp:395] relu5_1/expand -> conv5_1/expand (in-place)
I1218 22:59:37.396389 31988 net.cpp:150] Setting up relu5_1/expand
I1218 22:59:37.396396 31988 net.cpp:157] Top shape: 1 576 19 32 (350208)
I1218 22:59:37.396399 31988 net.cpp:165] Memory required for data: 412206816
I1218 22:59:37.396401 31988 layer_factory.hpp:77] Creating layer conv5_1/dwise
I1218 22:59:37.396405 31988 net.cpp:100] Creating Layer conv5_1/dwise
I1218 22:59:37.396415 31988 net.cpp:434] conv5_1/dwise <- conv5_1/expand
I1218 22:59:37.396420 31988 net.cpp:408] conv5_1/dwise -> conv5_1/dwise
I1218 22:59:37.396590 31988 net.cpp:150] Setting up conv5_1/dwise
I1218 22:59:37.396595 31988 net.cpp:157] Top shape: 1 576 19 32 (350208)
I1218 22:59:37.396598 31988 net.cpp:165] Memory required for data: 413607648
I1218 22:59:37.396600 31988 layer_factory.hpp:77] Creating layer conv5_1/dwise/bn
I1218 22:59:37.396605 31988 net.cpp:100] Creating Layer conv5_1/dwise/bn
I1218 22:59:37.396607 31988 net.cpp:434] conv5_1/dwise/bn <- conv5_1/dwise
I1218 22:59:37.396610 31988 net.cpp:395] conv5_1/dwise/bn -> conv5_1/dwise (in-place)
I1218 22:59:37.396747 31988 net.cpp:150] Setting up conv5_1/dwise/bn
I1218 22:59:37.396751 31988 net.cpp:157] Top shape: 1 576 19 32 (350208)
I1218 22:59:37.396752 31988 net.cpp:165] Memory required for data: 415008480
I1218 22:59:37.396757 31988 layer_factory.hpp:77] Creating layer conv5_1/dwise/scale
I1218 22:59:37.396761 31988 net.cpp:100] Creating Layer conv5_1/dwise/scale
I1218 22:59:37.396764 31988 net.cpp:434] conv5_1/dwise/scale <- conv5_1/dwise
I1218 22:59:37.396766 31988 net.cpp:395] conv5_1/dwise/scale -> conv5_1/dwise (in-place)
I1218 22:59:37.396795 31988 layer_factory.hpp:77] Creating layer conv5_1/dwise/scale
I1218 22:59:37.396874 31988 net.cpp:150] Setting up conv5_1/dwise/scale
I1218 22:59:37.396878 31988 net.cpp:157] Top shape: 1 576 19 32 (350208)
I1218 22:59:37.396880 31988 net.cpp:165] Memory required for data: 416409312
I1218 22:59:37.396884 31988 layer_factory.hpp:77] Creating layer relu5_1/dwise
I1218 22:59:37.396888 31988 net.cpp:100] Creating Layer relu5_1/dwise
I1218 22:59:37.396889 31988 net.cpp:434] relu5_1/dwise <- conv5_1/dwise
I1218 22:59:37.396891 31988 net.cpp:395] relu5_1/dwise -> conv5_1/dwise (in-place)
I1218 22:59:37.397224 31988 net.cpp:150] Setting up relu5_1/dwise
I1218 22:59:37.397229 31988 net.cpp:157] Top shape: 1 576 19 32 (350208)
I1218 22:59:37.397233 31988 net.cpp:165] Memory required for data: 417810144
I1218 22:59:37.397234 31988 layer_factory.hpp:77] Creating layer conv5_1/linear
I1218 22:59:37.397239 31988 net.cpp:100] Creating Layer conv5_1/linear
I1218 22:59:37.397241 31988 net.cpp:434] conv5_1/linear <- conv5_1/dwise
I1218 22:59:37.397244 31988 net.cpp:408] conv5_1/linear -> conv5_1/linear
I1218 22:59:37.399139 31988 net.cpp:150] Setting up conv5_1/linear
I1218 22:59:37.399147 31988 net.cpp:157] Top shape: 1 96 19 32 (58368)
I1218 22:59:37.399150 31988 net.cpp:165] Memory required for data: 418043616
I1218 22:59:37.399154 31988 layer_factory.hpp:77] Creating layer conv5_1/linear/bn
I1218 22:59:37.399158 31988 net.cpp:100] Creating Layer conv5_1/linear/bn
I1218 22:59:37.399160 31988 net.cpp:434] conv5_1/linear/bn <- conv5_1/linear
I1218 22:59:37.399164 31988 net.cpp:395] conv5_1/linear/bn -> conv5_1/linear (in-place)
I1218 22:59:37.399341 31988 net.cpp:150] Setting up conv5_1/linear/bn
I1218 22:59:37.399348 31988 net.cpp:157] Top shape: 1 96 19 32 (58368)
I1218 22:59:37.399351 31988 net.cpp:165] Memory required for data: 418277088
I1218 22:59:37.399358 31988 layer_factory.hpp:77] Creating layer conv5_1/linear/scale
I1218 22:59:37.399364 31988 net.cpp:100] Creating Layer conv5_1/linear/scale
I1218 22:59:37.399368 31988 net.cpp:434] conv5_1/linear/scale <- conv5_1/linear
I1218 22:59:37.399371 31988 net.cpp:395] conv5_1/linear/scale -> conv5_1/linear (in-place)
I1218 22:59:37.399410 31988 layer_factory.hpp:77] Creating layer conv5_1/linear/scale
I1218 22:59:37.399504 31988 net.cpp:150] Setting up conv5_1/linear/scale
I1218 22:59:37.399508 31988 net.cpp:157] Top shape: 1 96 19 32 (58368)
I1218 22:59:37.399510 31988 net.cpp:165] Memory required for data: 418510560
I1218 22:59:37.399513 31988 layer_factory.hpp:77] Creating layer block_5_1
I1218 22:59:37.399518 31988 net.cpp:100] Creating Layer block_5_1
I1218 22:59:37.399520 31988 net.cpp:434] block_5_1 <- conv4_7/linear_conv4_7/linear/scale_0_split_1
I1218 22:59:37.399523 31988 net.cpp:434] block_5_1 <- conv5_1/linear
I1218 22:59:37.399535 31988 net.cpp:408] block_5_1 -> block_5_1
I1218 22:59:37.399554 31988 net.cpp:150] Setting up block_5_1
I1218 22:59:37.399557 31988 net.cpp:157] Top shape: 1 96 19 32 (58368)
I1218 22:59:37.399559 31988 net.cpp:165] Memory required for data: 418744032
I1218 22:59:37.399560 31988 layer_factory.hpp:77] Creating layer block_5_1_block_5_1_0_split
I1218 22:59:37.399564 31988 net.cpp:100] Creating Layer block_5_1_block_5_1_0_split
I1218 22:59:37.399566 31988 net.cpp:434] block_5_1_block_5_1_0_split <- block_5_1
I1218 22:59:37.399569 31988 net.cpp:408] block_5_1_block_5_1_0_split -> block_5_1_block_5_1_0_split_0
I1218 22:59:37.399574 31988 net.cpp:408] block_5_1_block_5_1_0_split -> block_5_1_block_5_1_0_split_1
I1218 22:59:37.399597 31988 net.cpp:150] Setting up block_5_1_block_5_1_0_split
I1218 22:59:37.399600 31988 net.cpp:157] Top shape: 1 96 19 32 (58368)
I1218 22:59:37.399603 31988 net.cpp:157] Top shape: 1 96 19 32 (58368)
I1218 22:59:37.399605 31988 net.cpp:165] Memory required for data: 419210976
I1218 22:59:37.399607 31988 layer_factory.hpp:77] Creating layer conv5_2/expand
I1218 22:59:37.399612 31988 net.cpp:100] Creating Layer conv5_2/expand
I1218 22:59:37.399614 31988 net.cpp:434] conv5_2/expand <- block_5_1_block_5_1_0_split_0
I1218 22:59:37.399618 31988 net.cpp:408] conv5_2/expand -> conv5_2/expand
I1218 22:59:37.401629 31988 net.cpp:150] Setting up conv5_2/expand
I1218 22:59:37.401638 31988 net.cpp:157] Top shape: 1 576 19 32 (350208)
I1218 22:59:37.401639 31988 net.cpp:165] Memory required for data: 420611808
I1218 22:59:37.401644 31988 layer_factory.hpp:77] Creating layer conv5_2/expand/bn
I1218 22:59:37.401648 31988 net.cpp:100] Creating Layer conv5_2/expand/bn
I1218 22:59:37.401652 31988 net.cpp:434] conv5_2/expand/bn <- conv5_2/expand
I1218 22:59:37.401656 31988 net.cpp:395] conv5_2/expand/bn -> conv5_2/expand (in-place)
I1218 22:59:37.401804 31988 net.cpp:150] Setting up conv5_2/expand/bn
I1218 22:59:37.401808 31988 net.cpp:157] Top shape: 1 576 19 32 (350208)
I1218 22:59:37.401810 31988 net.cpp:165] Memory required for data: 422012640
I1218 22:59:37.401814 31988 layer_factory.hpp:77] Creating layer conv5_2/expand/scale
I1218 22:59:37.401819 31988 net.cpp:100] Creating Layer conv5_2/expand/scale
I1218 22:59:37.401823 31988 net.cpp:434] conv5_2/expand/scale <- conv5_2/expand
I1218 22:59:37.401824 31988 net.cpp:395] conv5_2/expand/scale -> conv5_2/expand (in-place)
I1218 22:59:37.401851 31988 layer_factory.hpp:77] Creating layer conv5_2/expand/scale
I1218 22:59:37.401934 31988 net.cpp:150] Setting up conv5_2/expand/scale
I1218 22:59:37.401938 31988 net.cpp:157] Top shape: 1 576 19 32 (350208)
I1218 22:59:37.401940 31988 net.cpp:165] Memory required for data: 423413472
I1218 22:59:37.401943 31988 layer_factory.hpp:77] Creating layer relu5_2/expand
I1218 22:59:37.401947 31988 net.cpp:100] Creating Layer relu5_2/expand
I1218 22:59:37.401949 31988 net.cpp:434] relu5_2/expand <- conv5_2/expand
I1218 22:59:37.401952 31988 net.cpp:395] relu5_2/expand -> conv5_2/expand (in-place)
I1218 22:59:37.402290 31988 net.cpp:150] Setting up relu5_2/expand
I1218 22:59:37.402297 31988 net.cpp:157] Top shape: 1 576 19 32 (350208)
I1218 22:59:37.402298 31988 net.cpp:165] Memory required for data: 424814304
I1218 22:59:37.402300 31988 layer_factory.hpp:77] Creating layer conv5_2/dwise
I1218 22:59:37.402305 31988 net.cpp:100] Creating Layer conv5_2/dwise
I1218 22:59:37.402307 31988 net.cpp:434] conv5_2/dwise <- conv5_2/expand
I1218 22:59:37.402312 31988 net.cpp:408] conv5_2/dwise -> conv5_2/dwise
I1218 22:59:37.402487 31988 net.cpp:150] Setting up conv5_2/dwise
I1218 22:59:37.402492 31988 net.cpp:157] Top shape: 1 576 19 32 (350208)
I1218 22:59:37.402493 31988 net.cpp:165] Memory required for data: 426215136
I1218 22:59:37.402496 31988 layer_factory.hpp:77] Creating layer conv5_2/dwise/bn
I1218 22:59:37.402499 31988 net.cpp:100] Creating Layer conv5_2/dwise/bn
I1218 22:59:37.402503 31988 net.cpp:434] conv5_2/dwise/bn <- conv5_2/dwise
I1218 22:59:37.402505 31988 net.cpp:395] conv5_2/dwise/bn -> conv5_2/dwise (in-place)
I1218 22:59:37.402653 31988 net.cpp:150] Setting up conv5_2/dwise/bn
I1218 22:59:37.402657 31988 net.cpp:157] Top shape: 1 576 19 32 (350208)
I1218 22:59:37.402659 31988 net.cpp:165] Memory required for data: 427615968
I1218 22:59:37.402663 31988 layer_factory.hpp:77] Creating layer conv5_2/dwise/scale
I1218 22:59:37.402667 31988 net.cpp:100] Creating Layer conv5_2/dwise/scale
I1218 22:59:37.402669 31988 net.cpp:434] conv5_2/dwise/scale <- conv5_2/dwise
I1218 22:59:37.402673 31988 net.cpp:395] conv5_2/dwise/scale -> conv5_2/dwise (in-place)
I1218 22:59:37.402699 31988 layer_factory.hpp:77] Creating layer conv5_2/dwise/scale
I1218 22:59:37.402781 31988 net.cpp:150] Setting up conv5_2/dwise/scale
I1218 22:59:37.402786 31988 net.cpp:157] Top shape: 1 576 19 32 (350208)
I1218 22:59:37.402788 31988 net.cpp:165] Memory required for data: 429016800
I1218 22:59:37.402791 31988 layer_factory.hpp:77] Creating layer relu5_2/dwise
I1218 22:59:37.402796 31988 net.cpp:100] Creating Layer relu5_2/dwise
I1218 22:59:37.402798 31988 net.cpp:434] relu5_2/dwise <- conv5_2/dwise
I1218 22:59:37.402801 31988 net.cpp:395] relu5_2/dwise -> conv5_2/dwise (in-place)
I1218 22:59:37.403137 31988 net.cpp:150] Setting up relu5_2/dwise
I1218 22:59:37.403143 31988 net.cpp:157] Top shape: 1 576 19 32 (350208)
I1218 22:59:37.403144 31988 net.cpp:165] Memory required for data: 430417632
I1218 22:59:37.403146 31988 layer_factory.hpp:77] Creating layer conv5_2/linear
I1218 22:59:37.403152 31988 net.cpp:100] Creating Layer conv5_2/linear
I1218 22:59:37.403154 31988 net.cpp:434] conv5_2/linear <- conv5_2/dwise
I1218 22:59:37.403157 31988 net.cpp:408] conv5_2/linear -> conv5_2/linear
I1218 22:59:37.404969 31988 net.cpp:150] Setting up conv5_2/linear
I1218 22:59:37.404976 31988 net.cpp:157] Top shape: 1 96 19 32 (58368)
I1218 22:59:37.404978 31988 net.cpp:165] Memory required for data: 430651104
I1218 22:59:37.404983 31988 layer_factory.hpp:77] Creating layer conv5_2/linear/bn
I1218 22:59:37.404987 31988 net.cpp:100] Creating Layer conv5_2/linear/bn
I1218 22:59:37.404990 31988 net.cpp:434] conv5_2/linear/bn <- conv5_2/linear
I1218 22:59:37.404994 31988 net.cpp:395] conv5_2/linear/bn -> conv5_2/linear (in-place)
I1218 22:59:37.405136 31988 net.cpp:150] Setting up conv5_2/linear/bn
I1218 22:59:37.405139 31988 net.cpp:157] Top shape: 1 96 19 32 (58368)
I1218 22:59:37.405141 31988 net.cpp:165] Memory required for data: 430884576
I1218 22:59:37.405145 31988 layer_factory.hpp:77] Creating layer conv5_2/linear/scale
I1218 22:59:37.405149 31988 net.cpp:100] Creating Layer conv5_2/linear/scale
I1218 22:59:37.405151 31988 net.cpp:434] conv5_2/linear/scale <- conv5_2/linear
I1218 22:59:37.405155 31988 net.cpp:395] conv5_2/linear/scale -> conv5_2/linear (in-place)
I1218 22:59:37.405182 31988 layer_factory.hpp:77] Creating layer conv5_2/linear/scale
I1218 22:59:37.405266 31988 net.cpp:150] Setting up conv5_2/linear/scale
I1218 22:59:37.405269 31988 net.cpp:157] Top shape: 1 96 19 32 (58368)
I1218 22:59:37.405272 31988 net.cpp:165] Memory required for data: 431118048
I1218 22:59:37.405274 31988 layer_factory.hpp:77] Creating layer block_5_2
I1218 22:59:37.405278 31988 net.cpp:100] Creating Layer block_5_2
I1218 22:59:37.405282 31988 net.cpp:434] block_5_2 <- block_5_1_block_5_1_0_split_1
I1218 22:59:37.405284 31988 net.cpp:434] block_5_2 <- conv5_2/linear
I1218 22:59:37.405287 31988 net.cpp:408] block_5_2 -> block_5_2
I1218 22:59:37.405303 31988 net.cpp:150] Setting up block_5_2
I1218 22:59:37.405306 31988 net.cpp:157] Top shape: 1 96 19 32 (58368)
I1218 22:59:37.405309 31988 net.cpp:165] Memory required for data: 431351520
I1218 22:59:37.405311 31988 layer_factory.hpp:77] Creating layer conv5_3/expand
I1218 22:59:37.405315 31988 net.cpp:100] Creating Layer conv5_3/expand
I1218 22:59:37.405318 31988 net.cpp:434] conv5_3/expand <- block_5_2
I1218 22:59:37.405321 31988 net.cpp:408] conv5_3/expand -> conv5_3/expand
I1218 22:59:37.407508 31988 net.cpp:150] Setting up conv5_3/expand
I1218 22:59:37.407518 31988 net.cpp:157] Top shape: 1 576 19 32 (350208)
I1218 22:59:37.407521 31988 net.cpp:165] Memory required for data: 432752352
I1218 22:59:37.407538 31988 layer_factory.hpp:77] Creating layer conv5_3/expand/bn
I1218 22:59:37.407544 31988 net.cpp:100] Creating Layer conv5_3/expand/bn
I1218 22:59:37.407548 31988 net.cpp:434] conv5_3/expand/bn <- conv5_3/expand
I1218 22:59:37.407552 31988 net.cpp:395] conv5_3/expand/bn -> conv5_3/expand (in-place)
I1218 22:59:37.407699 31988 net.cpp:150] Setting up conv5_3/expand/bn
I1218 22:59:37.407703 31988 net.cpp:157] Top shape: 1 576 19 32 (350208)
I1218 22:59:37.407706 31988 net.cpp:165] Memory required for data: 434153184
I1218 22:59:37.407709 31988 layer_factory.hpp:77] Creating layer conv5_3/expand/scale
I1218 22:59:37.407714 31988 net.cpp:100] Creating Layer conv5_3/expand/scale
I1218 22:59:37.407716 31988 net.cpp:434] conv5_3/expand/scale <- conv5_3/expand
I1218 22:59:37.407719 31988 net.cpp:395] conv5_3/expand/scale -> conv5_3/expand (in-place)
I1218 22:59:37.407747 31988 layer_factory.hpp:77] Creating layer conv5_3/expand/scale
I1218 22:59:37.407831 31988 net.cpp:150] Setting up conv5_3/expand/scale
I1218 22:59:37.407835 31988 net.cpp:157] Top shape: 1 576 19 32 (350208)
I1218 22:59:37.407837 31988 net.cpp:165] Memory required for data: 435554016
I1218 22:59:37.407840 31988 layer_factory.hpp:77] Creating layer relu5_3/expand
I1218 22:59:37.407845 31988 net.cpp:100] Creating Layer relu5_3/expand
I1218 22:59:37.407846 31988 net.cpp:434] relu5_3/expand <- conv5_3/expand
I1218 22:59:37.407850 31988 net.cpp:395] relu5_3/expand -> conv5_3/expand (in-place)
I1218 22:59:37.408182 31988 net.cpp:150] Setting up relu5_3/expand
I1218 22:59:37.408188 31988 net.cpp:157] Top shape: 1 576 19 32 (350208)
I1218 22:59:37.408190 31988 net.cpp:165] Memory required for data: 436954848
I1218 22:59:37.408192 31988 layer_factory.hpp:77] Creating layer conv5_3/expand_relu5_3/expand_0_split
I1218 22:59:37.408196 31988 net.cpp:100] Creating Layer conv5_3/expand_relu5_3/expand_0_split
I1218 22:59:37.408200 31988 net.cpp:434] conv5_3/expand_relu5_3/expand_0_split <- conv5_3/expand
I1218 22:59:37.408203 31988 net.cpp:408] conv5_3/expand_relu5_3/expand_0_split -> conv5_3/expand_relu5_3/expand_0_split_0
I1218 22:59:37.408207 31988 net.cpp:408] conv5_3/expand_relu5_3/expand_0_split -> conv5_3/expand_relu5_3/expand_0_split_1
I1218 22:59:37.408211 31988 net.cpp:408] conv5_3/expand_relu5_3/expand_0_split -> conv5_3/expand_relu5_3/expand_0_split_2
I1218 22:59:37.408215 31988 net.cpp:408] conv5_3/expand_relu5_3/expand_0_split -> conv5_3/expand_relu5_3/expand_0_split_3
I1218 22:59:37.408262 31988 net.cpp:150] Setting up conv5_3/expand_relu5_3/expand_0_split
I1218 22:59:37.408265 31988 net.cpp:157] Top shape: 1 576 19 32 (350208)
I1218 22:59:37.408268 31988 net.cpp:157] Top shape: 1 576 19 32 (350208)
I1218 22:59:37.408272 31988 net.cpp:157] Top shape: 1 576 19 32 (350208)
I1218 22:59:37.408274 31988 net.cpp:157] Top shape: 1 576 19 32 (350208)
I1218 22:59:37.408277 31988 net.cpp:165] Memory required for data: 442558176
I1218 22:59:37.408277 31988 layer_factory.hpp:77] Creating layer conv5_3/dwise
I1218 22:59:37.408283 31988 net.cpp:100] Creating Layer conv5_3/dwise
I1218 22:59:37.408285 31988 net.cpp:434] conv5_3/dwise <- conv5_3/expand_relu5_3/expand_0_split_0
I1218 22:59:37.408289 31988 net.cpp:408] conv5_3/dwise -> conv5_3/dwise
I1218 22:59:37.408457 31988 net.cpp:150] Setting up conv5_3/dwise
I1218 22:59:37.408462 31988 net.cpp:157] Top shape: 1 576 10 16 (92160)
I1218 22:59:37.408464 31988 net.cpp:165] Memory required for data: 442926816
I1218 22:59:37.408466 31988 layer_factory.hpp:77] Creating layer conv5_3/dwise/bn
I1218 22:59:37.408469 31988 net.cpp:100] Creating Layer conv5_3/dwise/bn
I1218 22:59:37.408473 31988 net.cpp:434] conv5_3/dwise/bn <- conv5_3/dwise
I1218 22:59:37.408476 31988 net.cpp:395] conv5_3/dwise/bn -> conv5_3/dwise (in-place)
I1218 22:59:37.408613 31988 net.cpp:150] Setting up conv5_3/dwise/bn
I1218 22:59:37.408617 31988 net.cpp:157] Top shape: 1 576 10 16 (92160)
I1218 22:59:37.408619 31988 net.cpp:165] Memory required for data: 443295456
I1218 22:59:37.408632 31988 layer_factory.hpp:77] Creating layer conv5_3/dwise/scale
I1218 22:59:37.408635 31988 net.cpp:100] Creating Layer conv5_3/dwise/scale
I1218 22:59:37.408638 31988 net.cpp:434] conv5_3/dwise/scale <- conv5_3/dwise
I1218 22:59:37.408641 31988 net.cpp:395] conv5_3/dwise/scale -> conv5_3/dwise (in-place)
I1218 22:59:37.408668 31988 layer_factory.hpp:77] Creating layer conv5_3/dwise/scale
I1218 22:59:37.408751 31988 net.cpp:150] Setting up conv5_3/dwise/scale
I1218 22:59:37.408756 31988 net.cpp:157] Top shape: 1 576 10 16 (92160)
I1218 22:59:37.408757 31988 net.cpp:165] Memory required for data: 443664096
I1218 22:59:37.408761 31988 layer_factory.hpp:77] Creating layer relu5_3/dwise
I1218 22:59:37.408763 31988 net.cpp:100] Creating Layer relu5_3/dwise
I1218 22:59:37.408766 31988 net.cpp:434] relu5_3/dwise <- conv5_3/dwise
I1218 22:59:37.408771 31988 net.cpp:395] relu5_3/dwise -> conv5_3/dwise (in-place)
I1218 22:59:37.409281 31988 net.cpp:150] Setting up relu5_3/dwise
I1218 22:59:37.409287 31988 net.cpp:157] Top shape: 1 576 10 16 (92160)
I1218 22:59:37.409289 31988 net.cpp:165] Memory required for data: 444032736
I1218 22:59:37.409292 31988 layer_factory.hpp:77] Creating layer conv5_3/linear
I1218 22:59:37.409298 31988 net.cpp:100] Creating Layer conv5_3/linear
I1218 22:59:37.409301 31988 net.cpp:434] conv5_3/linear <- conv5_3/dwise
I1218 22:59:37.409304 31988 net.cpp:408] conv5_3/linear -> conv5_3/linear
I1218 22:59:37.412492 31988 net.cpp:150] Setting up conv5_3/linear
I1218 22:59:37.412505 31988 net.cpp:157] Top shape: 1 160 10 16 (25600)
I1218 22:59:37.412508 31988 net.cpp:165] Memory required for data: 444135136
I1218 22:59:37.412513 31988 layer_factory.hpp:77] Creating layer conv5_3/linear/bn
I1218 22:59:37.412519 31988 net.cpp:100] Creating Layer conv5_3/linear/bn
I1218 22:59:37.412523 31988 net.cpp:434] conv5_3/linear/bn <- conv5_3/linear
I1218 22:59:37.412528 31988 net.cpp:395] conv5_3/linear/bn -> conv5_3/linear (in-place)
I1218 22:59:37.412679 31988 net.cpp:150] Setting up conv5_3/linear/bn
I1218 22:59:37.412684 31988 net.cpp:157] Top shape: 1 160 10 16 (25600)
I1218 22:59:37.412686 31988 net.cpp:165] Memory required for data: 444237536
I1218 22:59:37.412690 31988 layer_factory.hpp:77] Creating layer conv5_3/linear/scale
I1218 22:59:37.412695 31988 net.cpp:100] Creating Layer conv5_3/linear/scale
I1218 22:59:37.412698 31988 net.cpp:434] conv5_3/linear/scale <- conv5_3/linear
I1218 22:59:37.412701 31988 net.cpp:395] conv5_3/linear/scale -> conv5_3/linear (in-place)
I1218 22:59:37.412727 31988 layer_factory.hpp:77] Creating layer conv5_3/linear/scale
I1218 22:59:37.412809 31988 net.cpp:150] Setting up conv5_3/linear/scale
I1218 22:59:37.412813 31988 net.cpp:157] Top shape: 1 160 10 16 (25600)
I1218 22:59:37.412816 31988 net.cpp:165] Memory required for data: 444339936
I1218 22:59:37.412832 31988 layer_factory.hpp:77] Creating layer conv5_3/linear_conv5_3/linear/scale_0_split
I1218 22:59:37.412837 31988 net.cpp:100] Creating Layer conv5_3/linear_conv5_3/linear/scale_0_split
I1218 22:59:37.412838 31988 net.cpp:434] conv5_3/linear_conv5_3/linear/scale_0_split <- conv5_3/linear
I1218 22:59:37.412842 31988 net.cpp:408] conv5_3/linear_conv5_3/linear/scale_0_split -> conv5_3/linear_conv5_3/linear/scale_0_split_0
I1218 22:59:37.412847 31988 net.cpp:408] conv5_3/linear_conv5_3/linear/scale_0_split -> conv5_3/linear_conv5_3/linear/scale_0_split_1
I1218 22:59:37.412873 31988 net.cpp:150] Setting up conv5_3/linear_conv5_3/linear/scale_0_split
I1218 22:59:37.412876 31988 net.cpp:157] Top shape: 1 160 10 16 (25600)
I1218 22:59:37.412879 31988 net.cpp:157] Top shape: 1 160 10 16 (25600)
I1218 22:59:37.412881 31988 net.cpp:165] Memory required for data: 444544736
I1218 22:59:37.412883 31988 layer_factory.hpp:77] Creating layer conv6_1/expand
I1218 22:59:37.412889 31988 net.cpp:100] Creating Layer conv6_1/expand
I1218 22:59:37.412891 31988 net.cpp:434] conv6_1/expand <- conv5_3/linear_conv5_3/linear/scale_0_split_0
I1218 22:59:37.412894 31988 net.cpp:408] conv6_1/expand -> conv6_1/expand
I1218 22:59:37.415133 31988 net.cpp:150] Setting up conv6_1/expand
I1218 22:59:37.415151 31988 net.cpp:157] Top shape: 1 960 10 16 (153600)
I1218 22:59:37.415153 31988 net.cpp:165] Memory required for data: 445159136
I1218 22:59:37.415156 31988 layer_factory.hpp:77] Creating layer conv6_1/expand/bn
I1218 22:59:37.415161 31988 net.cpp:100] Creating Layer conv6_1/expand/bn
I1218 22:59:37.415164 31988 net.cpp:434] conv6_1/expand/bn <- conv6_1/expand
I1218 22:59:37.415169 31988 net.cpp:395] conv6_1/expand/bn -> conv6_1/expand (in-place)
I1218 22:59:37.415318 31988 net.cpp:150] Setting up conv6_1/expand/bn
I1218 22:59:37.415321 31988 net.cpp:157] Top shape: 1 960 10 16 (153600)
I1218 22:59:37.415324 31988 net.cpp:165] Memory required for data: 445773536
I1218 22:59:37.415328 31988 layer_factory.hpp:77] Creating layer conv6_1/expand/scale
I1218 22:59:37.415333 31988 net.cpp:100] Creating Layer conv6_1/expand/scale
I1218 22:59:37.415335 31988 net.cpp:434] conv6_1/expand/scale <- conv6_1/expand
I1218 22:59:37.415338 31988 net.cpp:395] conv6_1/expand/scale -> conv6_1/expand (in-place)
I1218 22:59:37.415365 31988 layer_factory.hpp:77] Creating layer conv6_1/expand/scale
I1218 22:59:37.415447 31988 net.cpp:150] Setting up conv6_1/expand/scale
I1218 22:59:37.415452 31988 net.cpp:157] Top shape: 1 960 10 16 (153600)
I1218 22:59:37.415453 31988 net.cpp:165] Memory required for data: 446387936
I1218 22:59:37.415457 31988 layer_factory.hpp:77] Creating layer relu6_1/expand
I1218 22:59:37.415462 31988 net.cpp:100] Creating Layer relu6_1/expand
I1218 22:59:37.415463 31988 net.cpp:434] relu6_1/expand <- conv6_1/expand
I1218 22:59:37.415467 31988 net.cpp:395] relu6_1/expand -> conv6_1/expand (in-place)
I1218 22:59:37.415989 31988 net.cpp:150] Setting up relu6_1/expand
I1218 22:59:37.415997 31988 net.cpp:157] Top shape: 1 960 10 16 (153600)
I1218 22:59:37.415998 31988 net.cpp:165] Memory required for data: 447002336
I1218 22:59:37.416002 31988 layer_factory.hpp:77] Creating layer conv6_1/dwise
I1218 22:59:37.416007 31988 net.cpp:100] Creating Layer conv6_1/dwise
I1218 22:59:37.416009 31988 net.cpp:434] conv6_1/dwise <- conv6_1/expand
I1218 22:59:37.416013 31988 net.cpp:408] conv6_1/dwise -> conv6_1/dwise
I1218 22:59:37.416209 31988 net.cpp:150] Setting up conv6_1/dwise
I1218 22:59:37.416214 31988 net.cpp:157] Top shape: 1 960 10 16 (153600)
I1218 22:59:37.416216 31988 net.cpp:165] Memory required for data: 447616736
I1218 22:59:37.416219 31988 layer_factory.hpp:77] Creating layer conv6_1/dwise/bn
I1218 22:59:37.416224 31988 net.cpp:100] Creating Layer conv6_1/dwise/bn
I1218 22:59:37.416226 31988 net.cpp:434] conv6_1/dwise/bn <- conv6_1/dwise
I1218 22:59:37.416229 31988 net.cpp:395] conv6_1/dwise/bn -> conv6_1/dwise (in-place)
I1218 22:59:37.416368 31988 net.cpp:150] Setting up conv6_1/dwise/bn
I1218 22:59:37.416373 31988 net.cpp:157] Top shape: 1 960 10 16 (153600)
I1218 22:59:37.416374 31988 net.cpp:165] Memory required for data: 448231136
I1218 22:59:37.416378 31988 layer_factory.hpp:77] Creating layer conv6_1/dwise/scale
I1218 22:59:37.416383 31988 net.cpp:100] Creating Layer conv6_1/dwise/scale
I1218 22:59:37.416385 31988 net.cpp:434] conv6_1/dwise/scale <- conv6_1/dwise
I1218 22:59:37.416388 31988 net.cpp:395] conv6_1/dwise/scale -> conv6_1/dwise (in-place)
I1218 22:59:37.416415 31988 layer_factory.hpp:77] Creating layer conv6_1/dwise/scale
I1218 22:59:37.416496 31988 net.cpp:150] Setting up conv6_1/dwise/scale
I1218 22:59:37.416501 31988 net.cpp:157] Top shape: 1 960 10 16 (153600)
I1218 22:59:37.416503 31988 net.cpp:165] Memory required for data: 448845536
I1218 22:59:37.416507 31988 layer_factory.hpp:77] Creating layer relu6_1/dwise
I1218 22:59:37.416510 31988 net.cpp:100] Creating Layer relu6_1/dwise
I1218 22:59:37.416513 31988 net.cpp:434] relu6_1/dwise <- conv6_1/dwise
I1218 22:59:37.416515 31988 net.cpp:395] relu6_1/dwise -> conv6_1/dwise (in-place)
I1218 22:59:37.416849 31988 net.cpp:150] Setting up relu6_1/dwise
I1218 22:59:37.416855 31988 net.cpp:157] Top shape: 1 960 10 16 (153600)
I1218 22:59:37.416858 31988 net.cpp:165] Memory required for data: 449459936
I1218 22:59:37.416867 31988 layer_factory.hpp:77] Creating layer conv6_1/linear
I1218 22:59:37.416872 31988 net.cpp:100] Creating Layer conv6_1/linear
I1218 22:59:37.416875 31988 net.cpp:434] conv6_1/linear <- conv6_1/dwise
I1218 22:59:37.416879 31988 net.cpp:408] conv6_1/linear -> conv6_1/linear
I1218 22:59:37.419085 31988 net.cpp:150] Setting up conv6_1/linear
I1218 22:59:37.419091 31988 net.cpp:157] Top shape: 1 160 10 16 (25600)
I1218 22:59:37.419093 31988 net.cpp:165] Memory required for data: 449562336
I1218 22:59:37.419096 31988 layer_factory.hpp:77] Creating layer conv6_1/linear/bn
I1218 22:59:37.419101 31988 net.cpp:100] Creating Layer conv6_1/linear/bn
I1218 22:59:37.419104 31988 net.cpp:434] conv6_1/linear/bn <- conv6_1/linear
I1218 22:59:37.419107 31988 net.cpp:395] conv6_1/linear/bn -> conv6_1/linear (in-place)
I1218 22:59:37.419250 31988 net.cpp:150] Setting up conv6_1/linear/bn
I1218 22:59:37.419255 31988 net.cpp:157] Top shape: 1 160 10 16 (25600)
I1218 22:59:37.419256 31988 net.cpp:165] Memory required for data: 449664736
I1218 22:59:37.419260 31988 layer_factory.hpp:77] Creating layer conv6_1/linear/scale
I1218 22:59:37.419265 31988 net.cpp:100] Creating Layer conv6_1/linear/scale
I1218 22:59:37.419266 31988 net.cpp:434] conv6_1/linear/scale <- conv6_1/linear
I1218 22:59:37.419270 31988 net.cpp:395] conv6_1/linear/scale -> conv6_1/linear (in-place)
I1218 22:59:37.419296 31988 layer_factory.hpp:77] Creating layer conv6_1/linear/scale
I1218 22:59:37.419378 31988 net.cpp:150] Setting up conv6_1/linear/scale
I1218 22:59:37.419383 31988 net.cpp:157] Top shape: 1 160 10 16 (25600)
I1218 22:59:37.419385 31988 net.cpp:165] Memory required for data: 449767136
I1218 22:59:37.419389 31988 layer_factory.hpp:77] Creating layer block_6_1
I1218 22:59:37.419394 31988 net.cpp:100] Creating Layer block_6_1
I1218 22:59:37.419395 31988 net.cpp:434] block_6_1 <- conv5_3/linear_conv5_3/linear/scale_0_split_1
I1218 22:59:37.419399 31988 net.cpp:434] block_6_1 <- conv6_1/linear
I1218 22:59:37.419402 31988 net.cpp:408] block_6_1 -> block_6_1
I1218 22:59:37.419421 31988 net.cpp:150] Setting up block_6_1
I1218 22:59:37.419425 31988 net.cpp:157] Top shape: 1 160 10 16 (25600)
I1218 22:59:37.419426 31988 net.cpp:165] Memory required for data: 449869536
I1218 22:59:37.419428 31988 layer_factory.hpp:77] Creating layer block_6_1_block_6_1_0_split
I1218 22:59:37.419432 31988 net.cpp:100] Creating Layer block_6_1_block_6_1_0_split
I1218 22:59:37.419435 31988 net.cpp:434] block_6_1_block_6_1_0_split <- block_6_1
I1218 22:59:37.419437 31988 net.cpp:408] block_6_1_block_6_1_0_split -> block_6_1_block_6_1_0_split_0
I1218 22:59:37.419440 31988 net.cpp:408] block_6_1_block_6_1_0_split -> block_6_1_block_6_1_0_split_1
I1218 22:59:37.419466 31988 net.cpp:150] Setting up block_6_1_block_6_1_0_split
I1218 22:59:37.419469 31988 net.cpp:157] Top shape: 1 160 10 16 (25600)
I1218 22:59:37.419472 31988 net.cpp:157] Top shape: 1 160 10 16 (25600)
I1218 22:59:37.419473 31988 net.cpp:165] Memory required for data: 450074336
I1218 22:59:37.419476 31988 layer_factory.hpp:77] Creating layer conv6_2/expand
I1218 22:59:37.419481 31988 net.cpp:100] Creating Layer conv6_2/expand
I1218 22:59:37.419482 31988 net.cpp:434] conv6_2/expand <- block_6_1_block_6_1_0_split_0
I1218 22:59:37.419486 31988 net.cpp:408] conv6_2/expand -> conv6_2/expand
I1218 22:59:37.422433 31988 net.cpp:150] Setting up conv6_2/expand
I1218 22:59:37.422444 31988 net.cpp:157] Top shape: 1 960 10 16 (153600)
I1218 22:59:37.422446 31988 net.cpp:165] Memory required for data: 450688736
I1218 22:59:37.422452 31988 layer_factory.hpp:77] Creating layer conv6_2/expand/bn
I1218 22:59:37.422459 31988 net.cpp:100] Creating Layer conv6_2/expand/bn
I1218 22:59:37.422462 31988 net.cpp:434] conv6_2/expand/bn <- conv6_2/expand
I1218 22:59:37.422466 31988 net.cpp:395] conv6_2/expand/bn -> conv6_2/expand (in-place)
I1218 22:59:37.422643 31988 net.cpp:150] Setting up conv6_2/expand/bn
I1218 22:59:37.422650 31988 net.cpp:157] Top shape: 1 960 10 16 (153600)
I1218 22:59:37.422652 31988 net.cpp:165] Memory required for data: 451303136
I1218 22:59:37.422668 31988 layer_factory.hpp:77] Creating layer conv6_2/expand/scale
I1218 22:59:37.422674 31988 net.cpp:100] Creating Layer conv6_2/expand/scale
I1218 22:59:37.422677 31988 net.cpp:434] conv6_2/expand/scale <- conv6_2/expand
I1218 22:59:37.422682 31988 net.cpp:395] conv6_2/expand/scale -> conv6_2/expand (in-place)
I1218 22:59:37.422714 31988 layer_factory.hpp:77] Creating layer conv6_2/expand/scale
I1218 22:59:37.422827 31988 net.cpp:150] Setting up conv6_2/expand/scale
I1218 22:59:37.422834 31988 net.cpp:157] Top shape: 1 960 10 16 (153600)
I1218 22:59:37.422837 31988 net.cpp:165] Memory required for data: 451917536
I1218 22:59:37.422842 31988 layer_factory.hpp:77] Creating layer relu6_2/expand
I1218 22:59:37.422848 31988 net.cpp:100] Creating Layer relu6_2/expand
I1218 22:59:37.422852 31988 net.cpp:434] relu6_2/expand <- conv6_2/expand
I1218 22:59:37.422858 31988 net.cpp:395] relu6_2/expand -> conv6_2/expand (in-place)
I1218 22:59:37.423293 31988 net.cpp:150] Setting up relu6_2/expand
I1218 22:59:37.423300 31988 net.cpp:157] Top shape: 1 960 10 16 (153600)
I1218 22:59:37.423302 31988 net.cpp:165] Memory required for data: 452531936
I1218 22:59:37.423305 31988 layer_factory.hpp:77] Creating layer conv6_2/dwise
I1218 22:59:37.423310 31988 net.cpp:100] Creating Layer conv6_2/dwise
I1218 22:59:37.423312 31988 net.cpp:434] conv6_2/dwise <- conv6_2/expand
I1218 22:59:37.423317 31988 net.cpp:408] conv6_2/dwise -> conv6_2/dwise
I1218 22:59:37.423585 31988 net.cpp:150] Setting up conv6_2/dwise
I1218 22:59:37.423591 31988 net.cpp:157] Top shape: 1 960 10 16 (153600)
I1218 22:59:37.423593 31988 net.cpp:165] Memory required for data: 453146336
I1218 22:59:37.423596 31988 layer_factory.hpp:77] Creating layer conv6_2/dwise/bn
I1218 22:59:37.423602 31988 net.cpp:100] Creating Layer conv6_2/dwise/bn
I1218 22:59:37.423605 31988 net.cpp:434] conv6_2/dwise/bn <- conv6_2/dwise
I1218 22:59:37.423607 31988 net.cpp:395] conv6_2/dwise/bn -> conv6_2/dwise (in-place)
I1218 22:59:37.423805 31988 net.cpp:150] Setting up conv6_2/dwise/bn
I1218 22:59:37.423810 31988 net.cpp:157] Top shape: 1 960 10 16 (153600)
I1218 22:59:37.423812 31988 net.cpp:165] Memory required for data: 453760736
I1218 22:59:37.423816 31988 layer_factory.hpp:77] Creating layer conv6_2/dwise/scale
I1218 22:59:37.423821 31988 net.cpp:100] Creating Layer conv6_2/dwise/scale
I1218 22:59:37.423823 31988 net.cpp:434] conv6_2/dwise/scale <- conv6_2/dwise
I1218 22:59:37.423826 31988 net.cpp:395] conv6_2/dwise/scale -> conv6_2/dwise (in-place)
I1218 22:59:37.423856 31988 layer_factory.hpp:77] Creating layer conv6_2/dwise/scale
I1218 22:59:37.423940 31988 net.cpp:150] Setting up conv6_2/dwise/scale
I1218 22:59:37.423945 31988 net.cpp:157] Top shape: 1 960 10 16 (153600)
I1218 22:59:37.423947 31988 net.cpp:165] Memory required for data: 454375136
I1218 22:59:37.423950 31988 layer_factory.hpp:77] Creating layer relu6_2/dwise
I1218 22:59:37.423954 31988 net.cpp:100] Creating Layer relu6_2/dwise
I1218 22:59:37.423956 31988 net.cpp:434] relu6_2/dwise <- conv6_2/dwise
I1218 22:59:37.423959 31988 net.cpp:395] relu6_2/dwise -> conv6_2/dwise (in-place)
I1218 22:59:37.424499 31988 net.cpp:150] Setting up relu6_2/dwise
I1218 22:59:37.424506 31988 net.cpp:157] Top shape: 1 960 10 16 (153600)
I1218 22:59:37.424509 31988 net.cpp:165] Memory required for data: 454989536
I1218 22:59:37.424510 31988 layer_factory.hpp:77] Creating layer conv6_2/linear
I1218 22:59:37.424515 31988 net.cpp:100] Creating Layer conv6_2/linear
I1218 22:59:37.424520 31988 net.cpp:434] conv6_2/linear <- conv6_2/dwise
I1218 22:59:37.424522 31988 net.cpp:408] conv6_2/linear -> conv6_2/linear
I1218 22:59:37.426748 31988 net.cpp:150] Setting up conv6_2/linear
I1218 22:59:37.426755 31988 net.cpp:157] Top shape: 1 160 10 16 (25600)
I1218 22:59:37.426757 31988 net.cpp:165] Memory required for data: 455091936
I1218 22:59:37.426761 31988 layer_factory.hpp:77] Creating layer conv6_2/linear/bn
I1218 22:59:37.426767 31988 net.cpp:100] Creating Layer conv6_2/linear/bn
I1218 22:59:37.426770 31988 net.cpp:434] conv6_2/linear/bn <- conv6_2/linear
I1218 22:59:37.426784 31988 net.cpp:395] conv6_2/linear/bn -> conv6_2/linear (in-place)
I1218 22:59:37.426928 31988 net.cpp:150] Setting up conv6_2/linear/bn
I1218 22:59:37.426932 31988 net.cpp:157] Top shape: 1 160 10 16 (25600)
I1218 22:59:37.426934 31988 net.cpp:165] Memory required for data: 455194336
I1218 22:59:37.426939 31988 layer_factory.hpp:77] Creating layer conv6_2/linear/scale
I1218 22:59:37.426944 31988 net.cpp:100] Creating Layer conv6_2/linear/scale
I1218 22:59:37.426945 31988 net.cpp:434] conv6_2/linear/scale <- conv6_2/linear
I1218 22:59:37.426949 31988 net.cpp:395] conv6_2/linear/scale -> conv6_2/linear (in-place)
I1218 22:59:37.426975 31988 layer_factory.hpp:77] Creating layer conv6_2/linear/scale
I1218 22:59:37.427062 31988 net.cpp:150] Setting up conv6_2/linear/scale
I1218 22:59:37.427067 31988 net.cpp:157] Top shape: 1 160 10 16 (25600)
I1218 22:59:37.427068 31988 net.cpp:165] Memory required for data: 455296736
I1218 22:59:37.427073 31988 layer_factory.hpp:77] Creating layer block_6_2
I1218 22:59:37.427075 31988 net.cpp:100] Creating Layer block_6_2
I1218 22:59:37.427078 31988 net.cpp:434] block_6_2 <- block_6_1_block_6_1_0_split_1
I1218 22:59:37.427081 31988 net.cpp:434] block_6_2 <- conv6_2/linear
I1218 22:59:37.427084 31988 net.cpp:408] block_6_2 -> block_6_2
I1218 22:59:37.427101 31988 net.cpp:150] Setting up block_6_2
I1218 22:59:37.427105 31988 net.cpp:157] Top shape: 1 160 10 16 (25600)
I1218 22:59:37.427107 31988 net.cpp:165] Memory required for data: 455399136
I1218 22:59:37.427109 31988 layer_factory.hpp:77] Creating layer conv6_3/expand
I1218 22:59:37.427114 31988 net.cpp:100] Creating Layer conv6_3/expand
I1218 22:59:37.427115 31988 net.cpp:434] conv6_3/expand <- block_6_2
I1218 22:59:37.427119 31988 net.cpp:408] conv6_3/expand -> conv6_3/expand
I1218 22:59:37.429323 31988 net.cpp:150] Setting up conv6_3/expand
I1218 22:59:37.429332 31988 net.cpp:157] Top shape: 1 960 10 16 (153600)
I1218 22:59:37.429333 31988 net.cpp:165] Memory required for data: 456013536
I1218 22:59:37.429337 31988 layer_factory.hpp:77] Creating layer conv6_3/expand/bn
I1218 22:59:37.429342 31988 net.cpp:100] Creating Layer conv6_3/expand/bn
I1218 22:59:37.429344 31988 net.cpp:434] conv6_3/expand/bn <- conv6_3/expand
I1218 22:59:37.429348 31988 net.cpp:395] conv6_3/expand/bn -> conv6_3/expand (in-place)
I1218 22:59:37.429498 31988 net.cpp:150] Setting up conv6_3/expand/bn
I1218 22:59:37.429502 31988 net.cpp:157] Top shape: 1 960 10 16 (153600)
I1218 22:59:37.429504 31988 net.cpp:165] Memory required for data: 456627936
I1218 22:59:37.429508 31988 layer_factory.hpp:77] Creating layer conv6_3/expand/scale
I1218 22:59:37.429512 31988 net.cpp:100] Creating Layer conv6_3/expand/scale
I1218 22:59:37.429515 31988 net.cpp:434] conv6_3/expand/scale <- conv6_3/expand
I1218 22:59:37.429517 31988 net.cpp:395] conv6_3/expand/scale -> conv6_3/expand (in-place)
I1218 22:59:37.429548 31988 layer_factory.hpp:77] Creating layer conv6_3/expand/scale
I1218 22:59:37.429631 31988 net.cpp:150] Setting up conv6_3/expand/scale
I1218 22:59:37.429636 31988 net.cpp:157] Top shape: 1 960 10 16 (153600)
I1218 22:59:37.429638 31988 net.cpp:165] Memory required for data: 457242336
I1218 22:59:37.429641 31988 layer_factory.hpp:77] Creating layer relu6_3/expand
I1218 22:59:37.429644 31988 net.cpp:100] Creating Layer relu6_3/expand
I1218 22:59:37.429646 31988 net.cpp:434] relu6_3/expand <- conv6_3/expand
I1218 22:59:37.429649 31988 net.cpp:395] relu6_3/expand -> conv6_3/expand (in-place)
I1218 22:59:37.430168 31988 net.cpp:150] Setting up relu6_3/expand
I1218 22:59:37.430176 31988 net.cpp:157] Top shape: 1 960 10 16 (153600)
I1218 22:59:37.430177 31988 net.cpp:165] Memory required for data: 457856736
I1218 22:59:37.430181 31988 layer_factory.hpp:77] Creating layer conv6_3/dwise
I1218 22:59:37.430184 31988 net.cpp:100] Creating Layer conv6_3/dwise
I1218 22:59:37.430187 31988 net.cpp:434] conv6_3/dwise <- conv6_3/expand
I1218 22:59:37.430191 31988 net.cpp:408] conv6_3/dwise -> conv6_3/dwise
I1218 22:59:37.430394 31988 net.cpp:150] Setting up conv6_3/dwise
I1218 22:59:37.430409 31988 net.cpp:157] Top shape: 1 960 10 16 (153600)
I1218 22:59:37.430411 31988 net.cpp:165] Memory required for data: 458471136
I1218 22:59:37.430414 31988 layer_factory.hpp:77] Creating layer conv6_3/dwise/bn
I1218 22:59:37.430418 31988 net.cpp:100] Creating Layer conv6_3/dwise/bn
I1218 22:59:37.430421 31988 net.cpp:434] conv6_3/dwise/bn <- conv6_3/dwise
I1218 22:59:37.430424 31988 net.cpp:395] conv6_3/dwise/bn -> conv6_3/dwise (in-place)
I1218 22:59:37.430570 31988 net.cpp:150] Setting up conv6_3/dwise/bn
I1218 22:59:37.430574 31988 net.cpp:157] Top shape: 1 960 10 16 (153600)
I1218 22:59:37.430577 31988 net.cpp:165] Memory required for data: 459085536
I1218 22:59:37.430580 31988 layer_factory.hpp:77] Creating layer conv6_3/dwise/scale
I1218 22:59:37.430584 31988 net.cpp:100] Creating Layer conv6_3/dwise/scale
I1218 22:59:37.430586 31988 net.cpp:434] conv6_3/dwise/scale <- conv6_3/dwise
I1218 22:59:37.430590 31988 net.cpp:395] conv6_3/dwise/scale -> conv6_3/dwise (in-place)
I1218 22:59:37.430619 31988 layer_factory.hpp:77] Creating layer conv6_3/dwise/scale
I1218 22:59:37.430704 31988 net.cpp:150] Setting up conv6_3/dwise/scale
I1218 22:59:37.430708 31988 net.cpp:157] Top shape: 1 960 10 16 (153600)
I1218 22:59:37.430709 31988 net.cpp:165] Memory required for data: 459699936
I1218 22:59:37.430712 31988 layer_factory.hpp:77] Creating layer relu6_3/dwise
I1218 22:59:37.430716 31988 net.cpp:100] Creating Layer relu6_3/dwise
I1218 22:59:37.430718 31988 net.cpp:434] relu6_3/dwise <- conv6_3/dwise
I1218 22:59:37.430721 31988 net.cpp:395] relu6_3/dwise -> conv6_3/dwise (in-place)
I1218 22:59:37.431061 31988 net.cpp:150] Setting up relu6_3/dwise
I1218 22:59:37.431066 31988 net.cpp:157] Top shape: 1 960 10 16 (153600)
I1218 22:59:37.431068 31988 net.cpp:165] Memory required for data: 460314336
I1218 22:59:37.431071 31988 layer_factory.hpp:77] Creating layer conv6_3/linear
I1218 22:59:37.431074 31988 net.cpp:100] Creating Layer conv6_3/linear
…
I1218 22:59:37.620343 31988 net.cpp:165] Memory required for data: 461747872
I1218 22:59:37.620347 31988 layer_factory.hpp:77] Creating layer conv6_4/bn
I1218 22:59:37.620352 31988 net.cpp:100] Creating Layer conv6_4/bn
I1218 22:59:37.620355 31988 net.cpp:434] conv6_4/bn <- conv6_4
I1218 22:59:37.620359 31988 net.cpp:395] conv6_4/bn -> conv6_4 (in-place)
I1218 22:59:37.620493 31988 net.cpp:150] Setting up conv6_4/bn
I1218 22:59:37.620497 31988 net.cpp:157] Top shape: 1 1280 10 16 (204800)
I1218 22:59:37.620499 31988 net.cpp:165] Memory required for data: 462567072
I1218 22:59:37.620503 31988 layer_factory.hpp:77] Creating layer conv6_4/scale
I1218 22:59:37.620507 31988 net.cpp:100] Creating Layer conv6_4/scale
I1218 22:59:37.620510 31988 net.cpp:434] conv6_4/scale <- conv6_4
I1218 22:59:37.620513 31988 net.cpp:395] conv6_4/scale -> conv6_4 (in-place)
I1218 22:59:37.620540 31988 layer_factory.hpp:77] Creating layer conv6_4/scale
I1218 22:59:37.620612 31988 net.cpp:150] Setting up conv6_4/scale
I1218 22:59:37.620617 31988 net.cpp:157] Top shape: 1 1280 10 16 (204800)
I1218 22:59:37.620618 31988 net.cpp:165] Memory required for data: 463386272
I1218 22:59:37.620621 31988 layer_factory.hpp:77] Creating layer relu6_4
I1218 22:59:37.620625 31988 net.cpp:100] Creating Layer relu6_4
I1218 22:59:37.620627 31988 net.cpp:434] relu6_4 <- conv6_4
I1218 22:59:37.620630 31988 net.cpp:395] relu6_4 -> conv6_4 (in-place)
I1218 22:59:37.620982 31988 net.cpp:150] Setting up relu6_4
I1218 22:59:37.620987 31988 net.cpp:157] Top shape: 1 1280 10 16 (204800)
I1218 22:59:37.620990 31988 net.cpp:165] Memory required for data: 464205472
I1218 22:59:37.620992 31988 layer_factory.hpp:77] Creating layer conv6_4_relu6_4_0_split
I1218 22:59:37.620996 31988 net.cpp:100] Creating Layer conv6_4_relu6_4_0_split
I1218 22:59:37.620999 31988 net.cpp:434] conv6_4_relu6_4_0_split <- conv6_4
I1218 22:59:37.621003 31988 net.cpp:408] conv6_4_relu6_4_0_split -> conv6_4_relu6_4_0_split_0
I1218 22:59:37.621009 31988 net.cpp:408] conv6_4_relu6_4_0_split -> conv6_4_relu6_4_0_split_1
I1218 22:59:37.621013 31988 net.cpp:408] conv6_4_relu6_4_0_split -> conv6_4_relu6_4_0_split_2
I1218 22:59:37.621017 31988 net.cpp:408] conv6_4_relu6_4_0_split -> conv6_4_relu6_4_0_split_3
I1218 22:59:37.621058 31988 net.cpp:150] Setting up conv6_4_relu6_4_0_split
I1218 22:59:37.621062 31988 net.cpp:157] Top shape: 1 1280 10 16 (204800)
I1218 22:59:37.621064 31988 net.cpp:157] Top shape: 1 1280 10 16 (204800)
I1218 22:59:37.621068 31988 net.cpp:157] Top shape: 1 1280 10 16 (204800)
I1218 22:59:37.621070 31988 net.cpp:157] Top shape: 1 1280 10 16 (204800)
I1218 22:59:37.621073 31988 net.cpp:165] Memory required for data: 467482272
I1218 22:59:37.621073 31988 layer_factory.hpp:77] Creating layer conv7_1
I1218 22:59:37.621079 31988 net.cpp:100] Creating Layer conv7_1
I1218 22:59:37.621083 31988 net.cpp:434] conv7_1 <- conv6_4_relu6_4_0_split_0
I1218 22:59:37.621086 31988 net.cpp:408] conv7_1 -> conv7_1
I1218 22:59:37.624681 31988 net.cpp:150] Setting up conv7_1
I1218 22:59:37.624696 31988 net.cpp:157] Top shape: 1 256 10 16 (40960)
I1218 22:59:37.624697 31988 net.cpp:165] Memory required for data: 467646112
I1218 22:59:37.624704 31988 layer_factory.hpp:77] Creating layer conv7_1_relu
I1218 22:59:37.624711 31988 net.cpp:100] Creating Layer conv7_1_relu
I1218 22:59:37.624714 31988 net.cpp:434] conv7_1_relu <- conv7_1
I1218 22:59:37.624719 31988 net.cpp:395] conv7_1_relu -> conv7_1 (in-place)
I1218 22:59:37.625069 31988 net.cpp:150] Setting up conv7_1_relu
I1218 22:59:37.625075 31988 net.cpp:157] Top shape: 1 256 10 16 (40960)
I1218 22:59:37.625077 31988 net.cpp:165] Memory required for data: 467809952
I1218 22:59:37.625079 31988 layer_factory.hpp:77] Creating layer conv7_2/dw
I1218 22:59:37.625085 31988 net.cpp:100] Creating Layer conv7_2/dw
I1218 22:59:37.625088 31988 net.cpp:434] conv7_2/dw <- conv7_1
I1218 22:59:37.625092 31988 net.cpp:408] conv7_2/dw -> conv7_2/dw
I1218 22:59:37.625244 31988 net.cpp:150] Setting up conv7_2/dw
I1218 22:59:37.625248 31988 net.cpp:157] Top shape: 1 256 5 8 (10240)
I1218 22:59:37.625250 31988 net.cpp:165] Memory required for data: 467850912
I1218 22:59:37.625253 31988 layer_factory.hpp:77] Creating layer relu7_2/dw
I1218 22:59:37.625257 31988 net.cpp:100] Creating Layer relu7_2/dw
I1218 22:59:37.625258 31988 net.cpp:434] relu7_2/dw <- conv7_2/dw
I1218 22:59:37.625262 31988 net.cpp:395] relu7_2/dw -> conv7_2/dw (in-place)
I1218 22:59:37.625597 31988 net.cpp:150] Setting up relu7_2/dw
I1218 22:59:37.625604 31988 net.cpp:157] Top shape: 1 256 5 8 (10240)
I1218 22:59:37.625605 31988 net.cpp:165] Memory required for data: 467891872
I1218 22:59:37.625607 31988 layer_factory.hpp:77] Creating layer conv7_2/sep
I1218 22:59:37.625612 31988 net.cpp:100] Creating Layer conv7_2/sep
I1218 22:59:37.625614 31988 net.cpp:434] conv7_2/sep <- conv7_2/dw
I1218 22:59:37.625618 31988 net.cpp:408] conv7_2/sep -> conv7_2/sep
I1218 22:59:37.627974 31988 net.cpp:150] Setting up conv7_2/sep
I1218 22:59:37.627981 31988 net.cpp:157] Top shape: 1 512 5 8 (20480)
I1218 22:59:37.627985 31988 net.cpp:165] Memory required for data: 467973792
I1218 22:59:37.627987 31988 layer_factory.hpp:77] Creating layer relu7_2/sep
I1218 22:59:37.627990 31988 net.cpp:100] Creating Layer relu7_2/sep
I1218 22:59:37.627992 31988 net.cpp:434] relu7_2/sep <- conv7_2/sep
I1218 22:59:37.627996 31988 net.cpp:395] relu7_2/sep -> conv7_2/sep (in-place)
I1218 22:59:37.628340 31988 net.cpp:150] Setting up relu7_2/sep
I1218 22:59:37.628355 31988 net.cpp:157] Top shape: 1 512 5 8 (20480)
I1218 22:59:37.628355 31988 net.cpp:165] Memory required for data: 468055712
I1218 22:59:37.628358 31988 layer_factory.hpp:77] Creating layer conv7_2/sep_relu7_2/sep_0_split
I1218 22:59:37.628362 31988 net.cpp:100] Creating Layer conv7_2/sep_relu7_2/sep_0_split
I1218 22:59:37.628365 31988 net.cpp:434] conv7_2/sep_relu7_2/sep_0_split <- conv7_2/sep
I1218 22:59:37.628368 31988 net.cpp:408] conv7_2/sep_relu7_2/sep_0_split -> conv7_2/sep_relu7_2/sep_0_split_0
I1218 22:59:37.628372 31988 net.cpp:408] conv7_2/sep_relu7_2/sep_0_split -> conv7_2/sep_relu7_2/sep_0_split_1
I1218 22:59:37.628376 31988 net.cpp:408] conv7_2/sep_relu7_2/sep_0_split -> conv7_2/sep_relu7_2/sep_0_split_2
I1218 22:59:37.628379 31988 net.cpp:408] conv7_2/sep_relu7_2/sep_0_split -> conv7_2/sep_relu7_2/sep_0_split_3
I1218 22:59:37.628422 31988 net.cpp:150] Setting up conv7_2/sep_relu7_2/sep_0_split
I1218 22:59:37.628425 31988 net.cpp:157] Top shape: 1 512 5 8 (20480)
I1218 22:59:37.628427 31988 net.cpp:157] Top shape: 1 512 5 8 (20480)
I1218 22:59:37.628430 31988 net.cpp:157] Top shape: 1 512 5 8 (20480)
I1218 22:59:37.628432 31988 net.cpp:157] Top shape: 1 512 5 8 (20480)
I1218 22:59:37.628434 31988 net.cpp:165] Memory required for data: 468383392
I1218 22:59:37.628435 31988 layer_factory.hpp:77] Creating layer conv8_1
I1218 22:59:37.628440 31988 net.cpp:100] Creating Layer conv8_1
I1218 22:59:37.628443 31988 net.cpp:434] conv8_1 <- conv7_2/sep_relu7_2/sep_0_split_0
I1218 22:59:37.628448 31988 net.cpp:408] conv8_1 -> conv8_1
I1218 22:59:37.630625 31988 net.cpp:150] Setting up conv8_1
I1218 22:59:37.630632 31988 net.cpp:157] Top shape: 1 128 5 8 (5120)
I1218 22:59:37.630635 31988 net.cpp:165] Memory required for data: 468403872
I1218 22:59:37.630638 31988 layer_factory.hpp:77] Creating layer conv8_1_relu
I1218 22:59:37.630641 31988 net.cpp:100] Creating Layer conv8_1_relu
I1218 22:59:37.630643 31988 net.cpp:434] conv8_1_relu <- conv8_1
I1218 22:59:37.630647 31988 net.cpp:395] conv8_1_relu -> conv8_1 (in-place)
I1218 22:59:37.631204 31988 net.cpp:150] Setting up conv8_1_relu
I1218 22:59:37.631211 31988 net.cpp:157] Top shape: 1 128 5 8 (5120)
I1218 22:59:37.631213 31988 net.cpp:165] Memory required for data: 468424352
I1218 22:59:37.631216 31988 layer_factory.hpp:77] Creating layer conv8_2/dw
I1218 22:59:37.631220 31988 net.cpp:100] Creating Layer conv8_2/dw
I1218 22:59:37.631222 31988 net.cpp:434] conv8_2/dw <- conv8_1
I1218 22:59:37.631227 31988 net.cpp:408] conv8_2/dw -> conv8_2/dw
I1218 22:59:37.631372 31988 net.cpp:150] Setting up conv8_2/dw
I1218 22:59:37.631377 31988 net.cpp:157] Top shape: 1 128 3 4 (1536)
I1218 22:59:37.631378 31988 net.cpp:165] Memory required for data: 468430496
I1218 22:59:37.631381 31988 layer_factory.hpp:77] Creating layer relu8_2/dw
I1218 22:59:37.631386 31988 net.cpp:100] Creating Layer relu8_2/dw
I1218 22:59:37.631387 31988 net.cpp:434] relu8_2/dw <- conv8_2/dw
I1218 22:59:37.631389 31988 net.cpp:395] relu8_2/dw -> conv8_2/dw (in-place)
I1218 22:59:37.631733 31988 net.cpp:150] Setting up relu8_2/dw
I1218 22:59:37.631739 31988 net.cpp:157] Top shape: 1 128 3 4 (1536)
I1218 22:59:37.631742 31988 net.cpp:165] Memory required for data: 468436640
I1218 22:59:37.631743 31988 layer_factory.hpp:77] Creating layer conv8_2/sep
I1218 22:59:37.631748 31988 net.cpp:100] Creating Layer conv8_2/sep
I1218 22:59:37.631750 31988 net.cpp:434] conv8_2/sep <- conv8_2/dw
I1218 22:59:37.631754 31988 net.cpp:408] conv8_2/sep -> conv8_2/sep
I1218 22:59:37.633581 31988 net.cpp:150] Setting up conv8_2/sep
I1218 22:59:37.633589 31988 net.cpp:157] Top shape: 1 256 3 4 (3072)
I1218 22:59:37.633590 31988 net.cpp:165] Memory required for data: 468448928
I1218 22:59:37.633594 31988 layer_factory.hpp:77] Creating layer relu8_2/sep
I1218 22:59:37.633597 31988 net.cpp:100] Creating Layer relu8_2/sep
I1218 22:59:37.633599 31988 net.cpp:434] relu8_2/sep <- conv8_2/sep
I1218 22:59:37.633602 31988 net.cpp:395] relu8_2/sep -> conv8_2/sep (in-place)
I1218 22:59:37.633960 31988 net.cpp:150] Setting up relu8_2/sep
I1218 22:59:37.633965 31988 net.cpp:157] Top shape: 1 256 3 4 (3072)
I1218 22:59:37.633967 31988 net.cpp:165] Memory required for data: 468461216
I1218 22:59:37.633970 31988 layer_factory.hpp:77] Creating layer conv8_2/sep_relu8_2/sep_0_split
I1218 22:59:37.633973 31988 net.cpp:100] Creating Layer conv8_2/sep_relu8_2/sep_0_split
I1218 22:59:37.633975 31988 net.cpp:434] conv8_2/sep_relu8_2/sep_0_split <- conv8_2/sep
I1218 22:59:37.633980 31988 net.cpp:408] conv8_2/sep_relu8_2/sep_0_split -> conv8_2/sep_relu8_2/sep_0_split_0
I1218 22:59:37.633983 31988 net.cpp:408] conv8_2/sep_relu8_2/sep_0_split -> conv8_2/sep_relu8_2/sep_0_split_1
I1218 22:59:37.633987 31988 net.cpp:408] conv8_2/sep_relu8_2/sep_0_split -> conv8_2/sep_relu8_2/sep_0_split_2
I1218 22:59:37.633991 31988 net.cpp:408] conv8_2/sep_relu8_2/sep_0_split -> conv8_2/sep_relu8_2/sep_0_split_3
I1218 22:59:37.634033 31988 net.cpp:150] Setting up conv8_2/sep_relu8_2/sep_0_split
I1218 22:59:37.634037 31988 net.cpp:157] Top shape: 1 256 3 4 (3072)
I1218 22:59:37.634040 31988 net.cpp:157] Top shape: 1 256 3 4 (3072)
I1218 22:59:37.634042 31988 net.cpp:157] Top shape: 1 256 3 4 (3072)
I1218 22:59:37.634045 31988 net.cpp:157] Top shape: 1 256 3 4 (3072)
I1218 22:59:37.634047 31988 net.cpp:165] Memory required for data: 468510368
I1218 22:59:37.634049 31988 layer_factory.hpp:77] Creating layer conv9_1
I1218 22:59:37.634055 31988 net.cpp:100] Creating Layer conv9_1
I1218 22:59:37.634057 31988 net.cpp:434] conv9_1 <- conv8_2/sep_relu8_2/sep_0_split_0
I1218 22:59:37.634061 31988 net.cpp:408] conv9_1 -> conv9_1
I1218 22:59:37.635735 31988 net.cpp:150] Setting up conv9_1
I1218 22:59:37.635743 31988 net.cpp:157] Top shape: 1 128 3 4 (1536)
I1218 22:59:37.635746 31988 net.cpp:165] Memory required for data: 468516512
I1218 22:59:37.635749 31988 layer_factory.hpp:77] Creating layer conv9_1_relu
I1218 22:59:37.635754 31988 net.cpp:100] Creating Layer conv9_1_relu
I1218 22:59:37.635756 31988 net.cpp:434] conv9_1_relu <- conv9_1
I1218 22:59:37.635761 31988 net.cpp:395] conv9_1_relu -> conv9_1 (in-place)
I1218 22:59:37.636330 31988 net.cpp:150] Setting up conv9_1_relu
I1218 22:59:37.636337 31988 net.cpp:157] Top shape: 1 128 3 4 (1536)
I1218 22:59:37.636342 31988 net.cpp:165] Memory required for data: 468522656
I1218 22:59:37.636343 31988 layer_factory.hpp:77] Creating layer conv9_2/dw
I1218 22:59:37.636349 31988 net.cpp:100] Creating Layer conv9_2/dw
I1218 22:59:37.636353 31988 net.cpp:434] conv9_2/dw <- conv9_1
I1218 22:59:37.636356 31988 net.cpp:408] conv9_2/dw -> conv9_2/dw
I1218 22:59:37.636507 31988 net.cpp:150] Setting up conv9_2/dw
I1218 22:59:37.636510 31988 net.cpp:157] Top shape: 1 128 2 2 (512)
I1218 22:59:37.636512 31988 net.cpp:165] Memory required for data: 468524704
I1218 22:59:37.636515 31988 layer_factory.hpp:77] Creating layer relu9_2/dw
I1218 22:59:37.636519 31988 net.cpp:100] Creating Layer relu9_2/dw
I1218 22:59:37.636521 31988 net.cpp:434] relu9_2/dw <- conv9_2/dw
I1218 22:59:37.636524 31988 net.cpp:395] relu9_2/dw -> conv9_2/dw (in-place)
I1218 22:59:37.636865 31988 net.cpp:150] Setting up relu9_2/dw
I1218 22:59:37.636870 31988 net.cpp:157] Top shape: 1 128 2 2 (512)
I1218 22:59:37.636873 31988 net.cpp:165] Memory required for data: 468526752
I1218 22:59:37.636874 31988 layer_factory.hpp:77] Creating layer conv9_2/sep
I1218 22:59:37.636879 31988 net.cpp:100] Creating Layer conv9_2/sep
I1218 22:59:37.636883 31988 net.cpp:434] conv9_2/sep <- conv9_2/dw
I1218 22:59:37.636886 31988 net.cpp:408] conv9_2/sep -> conv9_2/sep
I1218 22:59:37.638461 31988 net.cpp:150] Setting up conv9_2/sep
I1218 22:59:37.638468 31988 net.cpp:157] Top shape: 1 256 2 2 (1024)
I1218 22:59:37.638471 31988 net.cpp:165] Memory required for data: 468530848
I1218 22:59:37.638474 31988 layer_factory.hpp:77] Creating layer relu9_2/sep
I1218 22:59:37.638479 31988 net.cpp:100] Creating Layer relu9_2/sep
I1218 22:59:37.638481 31988 net.cpp:434] relu9_2/sep <- conv9_2/sep
I1218 22:59:37.638485 31988 net.cpp:395] relu9_2/sep -> conv9_2/sep (in-place)
I1218 22:59:37.639052 31988 net.cpp:150] Setting up relu9_2/sep
I1218 22:59:37.639060 31988 net.cpp:157] Top shape: 1 256 2 2 (1024)
I1218 22:59:37.639061 31988 net.cpp:165] Memory required for data: 468534944
I1218 22:59:37.639065 31988 layer_factory.hpp:77] Creating layer conv9_2/sep_relu9_2/sep_0_split
I1218 22:59:37.639068 31988 net.cpp:100] Creating Layer conv9_2/sep_relu9_2/sep_0_split
I1218 22:59:37.639071 31988 net.cpp:434] conv9_2/sep_relu9_2/sep_0_split <- conv9_2/sep
I1218 22:59:37.639075 31988 net.cpp:408] conv9_2/sep_relu9_2/sep_0_split -> conv9_2/sep_relu9_2/sep_0_split_0
I1218 22:59:37.639081 31988 net.cpp:408] conv9_2/sep_relu9_2/sep_0_split -> conv9_2/sep_relu9_2/sep_0_split_1
I1218 22:59:37.639084 31988 net.cpp:408] conv9_2/sep_relu9_2/sep_0_split -> conv9_2/sep_relu9_2/sep_0_split_2
I1218 22:59:37.639089 31988 net.cpp:408] conv9_2/sep_relu9_2/sep_0_split -> conv9_2/sep_relu9_2/sep_0_split_3
I1218 22:59:37.639132 31988 net.cpp:150] Setting up conv9_2/sep_relu9_2/sep_0_split
I1218 22:59:37.639134 31988 net.cpp:157] Top shape: 1 256 2 2 (1024)
I1218 22:59:37.639137 31988 net.cpp:157] Top shape: 1 256 2 2 (1024)
I1218 22:59:37.639140 31988 net.cpp:157] Top shape: 1 256 2 2 (1024)
I1218 22:59:37.639143 31988 net.cpp:157] Top shape: 1 256 2 2 (1024)
I1218 22:59:37.639145 31988 net.cpp:165] Memory required for data: 468551328
I1218 22:59:37.639147 31988 layer_factory.hpp:77] Creating layer conv10_1
I1218 22:59:37.639153 31988 net.cpp:100] Creating Layer conv10_1
I1218 22:59:37.639155 31988 net.cpp:434] conv10_1 <- conv9_2/sep_relu9_2/sep_0_split_0
I1218 22:59:37.639160 31988 net.cpp:408] conv10_1 -> conv10_1
I1218 22:59:37.640650 31988 net.cpp:150] Setting up conv10_1
I1218 22:59:37.640658 31988 net.cpp:157] Top shape: 1 64 2 2 (256)
I1218 22:59:37.640660 31988 net.cpp:165] Memory required for data: 468552352
I1218 22:59:37.640663 31988 layer_factory.hpp:77] Creating layer conv10_1_relu
I1218 22:59:37.640668 31988 net.cpp:100] Creating Layer conv10_1_relu
I1218 22:59:37.640671 31988 net.cpp:434] conv10_1_relu <- conv10_1
I1218 22:59:37.640676 31988 net.cpp:395] conv10_1_relu -> conv10_1 (in-place)
I1218 22:59:37.641213 31988 net.cpp:150] Setting up conv10_1_relu
I1218 22:59:37.641221 31988 net.cpp:157] Top shape: 1 64 2 2 (256)
I1218 22:59:37.641222 31988 net.cpp:165] Memory required for data: 468553376
I1218 22:59:37.641224 31988 layer_factory.hpp:77] Creating layer conv10_2/dw
I1218 22:59:37.641229 31988 net.cpp:100] Creating Layer conv10_2/dw
I1218 22:59:37.641232 31988 net.cpp:434] conv10_2/dw <- conv10_1
I1218 22:59:37.641237 31988 net.cpp:408] conv10_2/dw -> conv10_2/dw
I1218 22:59:37.641387 31988 net.cpp:150] Setting up conv10_2/dw
I1218 22:59:37.641391 31988 net.cpp:157] Top shape: 1 64 1 1 (64)
I1218 22:59:37.641393 31988 net.cpp:165] Memory required for data: 468553632
I1218 22:59:37.641396 31988 layer_factory.hpp:77] Creating layer relu10_2/dw
I1218 22:59:37.641399 31988 net.cpp:100] Creating Layer relu10_2/dw
I1218 22:59:37.641402 31988 net.cpp:434] relu10_2/dw <- conv10_2/dw
I1218 22:59:37.641404 31988 net.cpp:395] relu10_2/dw -> conv10_2/dw (in-place)
I1218 22:59:37.641945 31988 net.cpp:150] Setting up relu10_2/dw
I1218 22:59:37.641952 31988 net.cpp:157] Top shape: 1 64 1 1 (64)
I1218 22:59:37.641953 31988 net.cpp:165] Memory required for data: 468553888
I1218 22:59:37.641955 31988 layer_factory.hpp:77] Creating layer conv10_2/sep
I1218 22:59:37.641961 31988 net.cpp:100] Creating Layer conv10_2/sep
I1218 22:59:37.641963 31988 net.cpp:434] conv10_2/sep <- conv10_2/dw
I1218 22:59:37.641968 31988 net.cpp:408] conv10_2/sep -> conv10_2/sep
I1218 22:59:37.643679 31988 net.cpp:150] Setting up conv10_2/sep
I1218 22:59:37.643687 31988 net.cpp:157] Top shape: 1 128 1 1 (128)
I1218 22:59:37.643688 31988 net.cpp:165] Memory required for data: 468554400
I1218 22:59:37.643692 31988 layer_factory.hpp:77] Creating layer relu10_2/sep
I1218 22:59:37.643695 31988 net.cpp:100] Creating Layer relu10_2/sep
I1218 22:59:37.643698 31988 net.cpp:434] relu10_2/sep <- conv10_2/sep
I1218 22:59:37.643700 31988 net.cpp:395] relu10_2/sep -> conv10_2/sep (in-place)
I1218 22:59:37.644263 31988 net.cpp:150] Setting up relu10_2/sep
I1218 22:59:37.644270 31988 net.cpp:157] Top shape: 1 128 1 1 (128)
I1218 22:59:37.644273 31988 net.cpp:165] Memory required for data: 468554912
I1218 22:59:37.644274 31988 layer_factory.hpp:77] Creating layer conv10_2/sep_relu10_2/sep_0_split
I1218 22:59:37.644279 31988 net.cpp:100] Creating Layer conv10_2/sep_relu10_2/sep_0_split
I1218 22:59:37.644280 31988 net.cpp:434] conv10_2/sep_relu10_2/sep_0_split <- conv10_2/sep
I1218 22:59:37.644284 31988 net.cpp:408] conv10_2/sep_relu10_2/sep_0_split -> conv10_2/sep_relu10_2/sep_0_split_0
I1218 22:59:37.644289 31988 net.cpp:408] conv10_2/sep_relu10_2/sep_0_split -> conv10_2/sep_relu10_2/sep_0_split_1
I1218 22:59:37.644291 31988 net.cpp:408] conv10_2/sep_relu10_2/sep_0_split -> conv10_2/sep_relu10_2/sep_0_split_2
I1218 22:59:37.644326 31988 net.cpp:150] Setting up conv10_2/sep_relu10_2/sep_0_split
I1218 22:59:37.644330 31988 net.cpp:157] Top shape: 1 128 1 1 (128)
I1218 22:59:37.644333 31988 net.cpp:157] Top shape: 1 128 1 1 (128)
I1218 22:59:37.644335 31988 net.cpp:157] Top shape: 1 128 1 1 (128)
I1218 22:59:37.644336 31988 net.cpp:165] Memory required for data: 468556448
I1218 22:59:37.644338 31988 layer_factory.hpp:77] Creating layer conv5_3/expand_mbox_loc
I1218 22:59:37.644343 31988 net.cpp:100] Creating Layer conv5_3/expand_mbox_loc
I1218 22:59:37.644346 31988 net.cpp:434] conv5_3/expand_mbox_loc <- conv5_3/expand_relu5_3/expand_0_split_1
I1218 22:59:37.644351 31988 net.cpp:408] conv5_3/expand_mbox_loc -> conv5_3/expand_mbox_loc
I1218 22:59:37.646148 31988 net.cpp:150] Setting up conv5_3/expand_mbox_loc
I1218 22:59:37.646155 31988 net.cpp:157] Top shape: 1 8 19 32 (4864)
I1218 22:59:37.646157 31988 net.cpp:165] Memory required for data: 468575904
I1218 22:59:37.646162 31988 layer_factory.hpp:77] Creating layer conv5_3/expand_mbox_loc_perm
I1218 22:59:37.646167 31988 net.cpp:100] Creating Layer conv5_3/expand_mbox_loc_perm
I1218 22:59:37.646169 31988 net.cpp:434] conv5_3/expand_mbox_loc_perm <- conv5_3/expand_mbox_loc
I1218 22:59:37.646173 31988 net.cpp:408] conv5_3/expand_mbox_loc_perm -> conv5_3/expand_mbox_loc_perm
I1218 22:59:37.646255 31988 net.cpp:150] Setting up conv5_3/expand_mbox_loc_perm
I1218 22:59:37.646260 31988 net.cpp:157] Top shape: 1 19 32 8 (4864)
I1218 22:59:37.646262 31988 net.cpp:165] Memory required for data: 468595360
I1218 22:59:37.646265 31988 layer_factory.hpp:77] Creating layer conv5_3/expand_mbox_loc_flat
I1218 22:59:37.646267 31988 net.cpp:100] Creating Layer conv5_3/expand_mbox_loc_flat
I1218 22:59:37.646270 31988 net.cpp:434] conv5_3/expand_mbox_loc_flat <- conv5_3/expand_mbox_loc_perm
I1218 22:59:37.646275 31988 net.cpp:408] conv5_3/expand_mbox_loc_flat -> conv5_3/expand_mbox_loc_flat
I1218 22:59:37.646289 31988 net.cpp:150] Setting up conv5_3/expand_mbox_loc_flat
I1218 22:59:37.646294 31988 net.cpp:157] Top shape: 1 4864 (4864)
I1218 22:59:37.646297 31988 net.cpp:165] Memory required for data: 468614816
I1218 22:59:37.646301 31988 layer_factory.hpp:77] Creating layer conv5_3/expand_mbox_conf
I1218 22:59:37.646309 31988 net.cpp:100] Creating Layer conv5_3/expand_mbox_conf
I1218 22:59:37.646313 31988 net.cpp:434] conv5_3/expand_mbox_conf <- conv5_3/expand_relu5_3/expand_0_split_2
I1218 22:59:37.646320 31988 net.cpp:408] conv5_3/expand_mbox_conf -> conv5_3/expand_mbox_conf
I1218 22:59:37.648288 31988 net.cpp:150] Setting up conv5_3/expand_mbox_conf
I1218 22:59:37.648298 31988 net.cpp:157] Top shape: 1 10 19 32 (6080)
I1218 22:59:37.648299 31988 net.cpp:165] Memory required for data: 468639136
I1218 22:59:37.648304 31988 layer_factory.hpp:77] Creating layer conv5_3/expand_mbox_conf_perm
I1218 22:59:37.648309 31988 net.cpp:100] Creating Layer conv5_3/expand_mbox_conf_perm
I1218 22:59:37.648313 31988 net.cpp:434] conv5_3/expand_mbox_conf_perm <- conv5_3/expand_mbox_conf
I1218 22:59:37.648316 31988 net.cpp:408] conv5_3/expand_mbox_conf_perm -> conv5_3/expand_mbox_conf_perm
I1218 22:59:37.648387 31988 net.cpp:150] Setting up conv5_3/expand_mbox_conf_perm
I1218 22:59:37.648399 31988 net.cpp:157] Top shape: 1 19 32 10 (6080)
I1218 22:59:37.648402 31988 net.cpp:165] Memory required for data: 468663456
I1218 22:59:37.648404 31988 layer_factory.hpp:77] Creating layer conv5_3/expand_mbox_conf_flat
I1218 22:59:37.648407 31988 net.cpp:100] Creating Layer conv5_3/expand_mbox_conf_flat
I1218 22:59:37.648411 31988 net.cpp:434] conv5_3/expand_mbox_conf_flat <- conv5_3/expand_mbox_conf_perm
I1218 22:59:37.648413 31988 net.cpp:408] conv5_3/expand_mbox_conf_flat -> conv5_3/expand_mbox_conf_flat
I1218 22:59:37.648429 31988 net.cpp:150] Setting up conv5_3/expand_mbox_conf_flat
I1218 22:59:37.648432 31988 net.cpp:157] Top shape: 1 6080 (6080)
I1218 22:59:37.648434 31988 net.cpp:165] Memory required for data: 468687776
I1218 22:59:37.648437 31988 layer_factory.hpp:77] Creating layer conv5_3/expand_mbox_priorbox
I1218 22:59:37.648439 31988 net.cpp:100] Creating Layer conv5_3/expand_mbox_priorbox
I1218 22:59:37.648442 31988 net.cpp:434] conv5_3/expand_mbox_priorbox <- conv5_3/expand_relu5_3/expand_0_split_3
I1218 22:59:37.648445 31988 net.cpp:434] conv5_3/expand_mbox_priorbox <- data_data_0_split_1
I1218 22:59:37.648450 31988 net.cpp:408] conv5_3/expand_mbox_priorbox -> conv5_3/expand_mbox_priorbox
I1218 22:59:37.648468 31988 net.cpp:150] Setting up conv5_3/expand_mbox_priorbox
I1218 22:59:37.648471 31988 net.cpp:157] Top shape: 1 2 4864 (9728)
I1218 22:59:37.648473 31988 net.cpp:165] Memory required for data: 468726688
I1218 22:59:37.648474 31988 layer_factory.hpp:77] Creating layer conv6_4_mbox_loc
I1218 22:59:37.648479 31988 net.cpp:100] Creating Layer conv6_4_mbox_loc
I1218 22:59:37.648483 31988 net.cpp:434] conv6_4_mbox_loc <- conv6_4_relu6_4_0_split_1
I1218 22:59:37.648488 31988 net.cpp:408] conv6_4_mbox_loc -> conv6_4_mbox_loc
I1218 22:59:37.650424 31988 net.cpp:150] Setting up conv6_4_mbox_loc
I1218 22:59:37.650430 31988 net.cpp:157] Top shape: 1 8 10 16 (1280)
I1218 22:59:37.650434 31988 net.cpp:165] Memory required for data: 468731808
I1218 22:59:37.650437 31988 layer_factory.hpp:77] Creating layer conv6_4_mbox_loc_perm
I1218 22:59:37.650442 31988 net.cpp:100] Creating Layer conv6_4_mbox_loc_perm
I1218 22:59:37.650445 31988 net.cpp:434] conv6_4_mbox_loc_perm <- conv6_4_mbox_loc
I1218 22:59:37.650449 31988 net.cpp:408] conv6_4_mbox_loc_perm -> conv6_4_mbox_loc_perm
I1218 22:59:37.650521 31988 net.cpp:150] Setting up conv6_4_mbox_loc_perm
I1218 22:59:37.650524 31988 net.cpp:157] Top shape: 1 10 16 8 (1280)
I1218 22:59:37.650527 31988 net.cpp:165] Memory required for data: 468736928
I1218 22:59:37.650528 31988 layer_factory.hpp:77] Creating layer conv6_4_mbox_loc_flat
I1218 22:59:37.650553 31988 net.cpp:100] Creating Layer conv6_4_mbox_loc_flat
I1218 22:59:37.650557 31988 net.cpp:434] conv6_4_mbox_loc_flat <- conv6_4_mbox_loc_perm
I1218 22:59:37.650559 31988 net.cpp:408] conv6_4_mbox_loc_flat -> conv6_4_mbox_loc_flat
I1218 22:59:37.650574 31988 net.cpp:150] Setting up conv6_4_mbox_loc_flat
I1218 22:59:37.650578 31988 net.cpp:157] Top shape: 1 1280 (1280)
I1218 22:59:37.650579 31988 net.cpp:165] Memory required for data: 468742048
I1218 22:59:37.650581 31988 layer_factory.hpp:77] Creating layer conv6_4_mbox_conf
I1218 22:59:37.650586 31988 net.cpp:100] Creating Layer conv6_4_mbox_conf
I1218 22:59:37.650589 31988 net.cpp:434] conv6_4_mbox_conf <- conv6_4_relu6_4_0_split_2
I1218 22:59:37.650593 31988 net.cpp:408] conv6_4_mbox_conf -> conv6_4_mbox_conf
I1218 22:59:37.652786 31988 net.cpp:150] Setting up conv6_4_mbox_conf
I1218 22:59:37.652794 31988 net.cpp:157] Top shape: 1 10 10 16 (1600)
I1218 22:59:37.652796 31988 net.cpp:165] Memory required for data: 468748448
I1218 22:59:37.652801 31988 layer_factory.hpp:77] Creating layer conv6_4_mbox_conf_perm
I1218 22:59:37.652806 31988 net.cpp:100] Creating Layer conv6_4_mbox_conf_perm
I1218 22:59:37.652808 31988 net.cpp:434] conv6_4_mbox_conf_perm <- conv6_4_mbox_conf
I1218 22:59:37.652812 31988 net.cpp:408] conv6_4_mbox_conf_perm -> conv6_4_mbox_conf_perm
I1218 22:59:37.652885 31988 net.cpp:150] Setting up conv6_4_mbox_conf_perm
I1218 22:59:37.652899 31988 net.cpp:157] Top shape: 1 10 16 10 (1600)
I1218 22:59:37.652900 31988 net.cpp:165] Memory required for data: 468754848
I1218 22:59:37.652902 31988 layer_factory.hpp:77] Creating layer conv6_4_mbox_conf_flat
I1218 22:59:37.652905 31988 net.cpp:100] Creating Layer conv6_4_mbox_conf_flat
I1218 22:59:37.652907 31988 net.cpp:434] conv6_4_mbox_conf_flat <- conv6_4_mbox_conf_perm
I1218 22:59:37.652911 31988 net.cpp:408] conv6_4_mbox_conf_flat -> conv6_4_mbox_conf_flat
I1218 22:59:37.652927 31988 net.cpp:150] Setting up conv6_4_mbox_conf_flat
I1218 22:59:37.652932 31988 net.cpp:157] Top shape: 1 1600 (1600)
I1218 22:59:37.652935 31988 net.cpp:165] Memory required for data: 468761248
I1218 22:59:37.652936 31988 layer_factory.hpp:77] Creating layer conv6_4_mbox_priorbox
I1218 22:59:37.652940 31988 net.cpp:100] Creating Layer conv6_4_mbox_priorbox
I1218 22:59:37.652941 31988 net.cpp:434] conv6_4_mbox_priorbox <- conv6_4_relu6_4_0_split_3
I1218 22:59:37.652945 31988 net.cpp:434] conv6_4_mbox_priorbox <- data_data_0_split_2
I1218 22:59:37.652948 31988 net.cpp:408] conv6_4_mbox_priorbox -> conv6_4_mbox_priorbox
I1218 22:59:37.652966 31988 net.cpp:150] Setting up conv6_4_mbox_priorbox
I1218 22:59:37.652968 31988 net.cpp:157] Top shape: 1 2 1280 (2560)
I1218 22:59:37.652971 31988 net.cpp:165] Memory required for data: 468771488
I1218 22:59:37.652972 31988 layer_factory.hpp:77] Creating layer conv7_2/sep_mbox_loc
I1218 22:59:37.652977 31988 net.cpp:100] Creating Layer conv7_2/sep_mbox_loc
I1218 22:59:37.652981 31988 net.cpp:434] conv7_2/sep_mbox_loc <- conv7_2/sep_relu7_2/sep_0_split_1
I1218 22:59:37.652983 31988 net.cpp:408] conv7_2/sep_mbox_loc -> conv7_2/sep_mbox_loc
I1218 22:59:37.654795 31988 net.cpp:150] Setting up conv7_2/sep_mbox_loc
I1218 22:59:37.654804 31988 net.cpp:157] Top shape: 1 8 5 8 (320)
I1218 22:59:37.654805 31988 net.cpp:165] Memory required for data: 468772768
I1218 22:59:37.654810 31988 layer_factory.hpp:77] Creating layer conv7_2/sep_mbox_loc_perm
I1218 22:59:37.654816 31988 net.cpp:100] Creating Layer conv7_2/sep_mbox_loc_perm
I1218 22:59:37.654819 31988 net.cpp:434] conv7_2/sep_mbox_loc_perm <- conv7_2/sep_mbox_loc
I1218 22:59:37.654824 31988 net.cpp:408] conv7_2/sep_mbox_loc_perm -> conv7_2/sep_mbox_loc_perm
I1218 22:59:37.654897 31988 net.cpp:150] Setting up conv7_2/sep_mbox_loc_perm
I1218 22:59:37.654901 31988 net.cpp:157] Top shape: 1 5 8 8 (320)
I1218 22:59:37.654903 31988 net.cpp:165] Memory required for data: 468774048
I1218 22:59:37.654904 31988 layer_factory.hpp:77] Creating layer conv7_2/sep_mbox_loc_flat
I1218 22:59:37.654907 31988 net.cpp:100] Creating Layer conv7_2/sep_mbox_loc_flat
I1218 22:59:37.654911 31988 net.cpp:434] conv7_2/sep_mbox_loc_flat <- conv7_2/sep_mbox_loc_perm
I1218 22:59:37.654914 31988 net.cpp:408] conv7_2/sep_mbox_loc_flat -> conv7_2/sep_mbox_loc_flat
I1218 22:59:37.654934 31988 net.cpp:150] Setting up conv7_2/sep_mbox_loc_flat
I1218 22:59:37.654937 31988 net.cpp:157] Top shape: 1 320 (320)
I1218 22:59:37.654940 31988 net.cpp:165] Memory required for data: 468775328
I1218 22:59:37.654942 31988 layer_factory.hpp:77] Creating layer conv7_2/sep_mbox_conf
I1218 22:59:37.654947 31988 net.cpp:100] Creating Layer conv7_2/sep_mbox_conf
I1218 22:59:37.654950 31988 net.cpp:434] conv7_2/sep_mbox_conf <- conv7_2/sep_relu7_2/sep_0_split_2
I1218 22:59:37.654954 31988 net.cpp:408] conv7_2/sep_mbox_conf -> conv7_2/sep_mbox_conf
I1218 22:59:37.656765 31988 net.cpp:150] Setting up conv7_2/sep_mbox_conf
I1218 22:59:37.656772 31988 net.cpp:157] Top shape: 1 10 5 8 (400)
I1218 22:59:37.656774 31988 net.cpp:165] Memory required for data: 468776928
I1218 22:59:37.656778 31988 layer_factory.hpp:77] Creating layer conv7_2/sep_mbox_conf_perm
I1218 22:59:37.656783 31988 net.cpp:100] Creating Layer conv7_2/sep_mbox_conf_perm
I1218 22:59:37.656786 31988 net.cpp:434] conv7_2/sep_mbox_conf_perm <- conv7_2/sep_mbox_conf
I1218 22:59:37.656790 31988 net.cpp:408] conv7_2/sep_mbox_conf_perm -> conv7_2/sep_mbox_conf_perm
I1218 22:59:37.656862 31988 net.cpp:150] Setting up conv7_2/sep_mbox_conf_perm
I1218 22:59:37.656874 31988 net.cpp:157] Top shape: 1 5 8 10 (400)
I1218 22:59:37.656877 31988 net.cpp:165] Memory required for data: 468778528
I1218 22:59:37.656878 31988 layer_factory.hpp:77] Creating layer conv7_2/sep_mbox_conf_flat
I1218 22:59:37.656883 31988 net.cpp:100] Creating Layer conv7_2/sep_mbox_conf_flat
I1218 22:59:37.656886 31988 net.cpp:434] conv7_2/sep_mbox_conf_flat <- conv7_2/sep_mbox_conf_perm
I1218 22:59:37.656889 31988 net.cpp:408] conv7_2/sep_mbox_conf_flat -> conv7_2/sep_mbox_conf_flat
I1218 22:59:37.656906 31988 net.cpp:150] Setting up conv7_2/sep_mbox_conf_flat
I1218 22:59:37.656910 31988 net.cpp:157] Top shape: 1 400 (400)
I1218 22:59:37.656911 31988 net.cpp:165] Memory required for data: 468780128
I1218 22:59:37.656913 31988 layer_factory.hpp:77] Creating layer conv7_2/sep_mbox_priorbox
I1218 22:59:37.656918 31988 net.cpp:100] Creating Layer conv7_2/sep_mbox_priorbox
I1218 22:59:37.656920 31988 net.cpp:434] conv7_2/sep_mbox_priorbox <- conv7_2/sep_relu7_2/sep_0_split_3
I1218 22:59:37.656924 31988 net.cpp:434] conv7_2/sep_mbox_priorbox <- data_data_0_split_3
I1218 22:59:37.656927 31988 net.cpp:408] conv7_2/sep_mbox_priorbox -> conv7_2/sep_mbox_priorbox
I1218 22:59:37.656944 31988 net.cpp:150] Setting up conv7_2/sep_mbox_priorbox
I1218 22:59:37.656949 31988 net.cpp:157] Top shape: 1 2 320 (640)
I1218 22:59:37.656950 31988 net.cpp:165] Memory required for data: 468782688
I1218 22:59:37.656951 31988 layer_factory.hpp:77] Creating layer conv8_2/sep_mbox_loc
I1218 22:59:37.656957 31988 net.cpp:100] Creating Layer conv8_2/sep_mbox_loc
I1218 22:59:37.656960 31988 net.cpp:434] conv8_2/sep_mbox_loc <- conv8_2/sep_relu8_2/sep_0_split_1
I1218 22:59:37.656965 31988 net.cpp:408] conv8_2/sep_mbox_loc -> conv8_2/sep_mbox_loc
I1218 22:59:37.658877 31988 net.cpp:150] Setting up conv8_2/sep_mbox_loc
I1218 22:59:37.658886 31988 net.cpp:157] Top shape: 1 8 3 4 (96)
I1218 22:59:37.658888 31988 net.cpp:165] Memory required for data: 468783072
I1218 22:59:37.658893 31988 layer_factory.hpp:77] Creating layer conv8_2/sep_mbox_loc_perm
I1218 22:59:37.658898 31988 net.cpp:100] Creating Layer conv8_2/sep_mbox_loc_perm
I1218 22:59:37.658901 31988 net.cpp:434] conv8_2/sep_mbox_loc_perm <- conv8_2/sep_mbox_loc
I1218 22:59:37.658906 31988 net.cpp:408] conv8_2/sep_mbox_loc_perm -> conv8_2/sep_mbox_loc_perm
I1218 22:59:37.658975 31988 net.cpp:150] Setting up conv8_2/sep_mbox_loc_perm
I1218 22:59:37.658979 31988 net.cpp:157] Top shape: 1 3 4 8 (96)
I1218 22:59:37.658982 31988 net.cpp:165] Memory required for data: 468783456
I1218 22:59:37.658983 31988 layer_factory.hpp:77] Creating layer conv8_2/sep_mbox_loc_flat
I1218 22:59:37.658987 31988 net.cpp:100] Creating Layer conv8_2/sep_mbox_loc_flat
I1218 22:59:37.658994 31988 net.cpp:434] conv8_2/sep_mbox_loc_flat <- conv8_2/sep_mbox_loc_perm
I1218 22:59:37.659000 31988 net.cpp:408] conv8_2/sep_mbox_loc_flat -> conv8_2/sep_mbox_loc_flat
I1218 22:59:37.659016 31988 net.cpp:150] Setting up conv8_2/sep_mbox_loc_flat
I1218 22:59:37.659021 31988 net.cpp:157] Top shape: 1 96 (96)
I1218 22:59:37.659024 31988 net.cpp:165] Memory required for data: 468783840
I1218 22:59:37.659024 31988 layer_factory.hpp:77] Creating layer conv8_2/sep_mbox_conf
I1218 22:59:37.659031 31988 net.cpp:100] Creating Layer conv8_2/sep_mbox_conf
I1218 22:59:37.659034 31988 net.cpp:434] conv8_2/sep_mbox_conf <- conv8_2/sep_relu8_2/sep_0_split_2
I1218 22:59:37.659037 31988 net.cpp:408] conv8_2/sep_mbox_conf -> conv8_2/sep_mbox_conf
I1218 22:59:37.660576 31988 net.cpp:150] Setting up conv8_2/sep_mbox_conf
I1218 22:59:37.660583 31988 net.cpp:157] Top shape: 1 10 3 4 (120)
I1218 22:59:37.660586 31988 net.cpp:165] Memory required for data: 468784320
I1218 22:59:37.660590 31988 layer_factory.hpp:77] Creating layer conv8_2/sep_mbox_conf_perm
I1218 22:59:37.660594 31988 net.cpp:100] Creating Layer conv8_2/sep_mbox_conf_perm
I1218 22:59:37.660598 31988 net.cpp:434] conv8_2/sep_mbox_conf_perm <- conv8_2/sep_mbox_conf
I1218 22:59:37.660603 31988 net.cpp:408] conv8_2/sep_mbox_conf_perm -> conv8_2/sep_mbox_conf_perm
I1218 22:59:37.660679 31988 net.cpp:150] Setting up conv8_2/sep_mbox_conf_perm
I1218 22:59:37.660684 31988 net.cpp:157] Top shape: 1 3 4 10 (120)
I1218 22:59:37.660687 31988 net.cpp:165] Memory required for data: 468784800
I1218 22:59:37.660689 31988 layer_factory.hpp:77] Creating layer conv8_2/sep_mbox_conf_flat
I1218 22:59:37.660692 31988 net.cpp:100] Creating Layer conv8_2/sep_mbox_conf_flat
I1218 22:59:37.660694 31988 net.cpp:434] conv8_2/sep_mbox_conf_flat <- conv8_2/sep_mbox_conf_perm
I1218 22:59:37.660699 31988 net.cpp:408] conv8_2/sep_mbox_conf_flat -> conv8_2/sep_mbox_conf_flat
I1218 22:59:37.660714 31988 net.cpp:150] Setting up conv8_2/sep_mbox_conf_flat
I1218 22:59:37.660718 31988 net.cpp:157] Top shape: 1 120 (120)
I1218 22:59:37.660720 31988 net.cpp:165] Memory required for data: 468785280
I1218 22:59:37.660723 31988 layer_factory.hpp:77] Creating layer conv8_2/sep_mbox_priorbox
I1218 22:59:37.660727 31988 net.cpp:100] Creating Layer conv8_2/sep_mbox_priorbox
I1218 22:59:37.660728 31988 net.cpp:434] conv8_2/sep_mbox_priorbox <- conv8_2/sep_relu8_2/sep_0_split_3
I1218 22:59:37.660732 31988 net.cpp:434] conv8_2/sep_mbox_priorbox <- data_data_0_split_4
I1218 22:59:37.660737 31988 net.cpp:408] conv8_2/sep_mbox_priorbox -> conv8_2/sep_mbox_priorbox
I1218 22:59:37.660753 31988 net.cpp:150] Setting up conv8_2/sep_mbox_priorbox
I1218 22:59:37.660756 31988 net.cpp:157] Top shape: 1 2 96 (192)
I1218 22:59:37.660758 31988 net.cpp:165] Memory required for data: 468786048
I1218 22:59:37.660760 31988 layer_factory.hpp:77] Creating layer conv9_2/sep_mbox_loc
I1218 22:59:37.660765 31988 net.cpp:100] Creating Layer conv9_2/sep_mbox_loc
I1218 22:59:37.660768 31988 net.cpp:434] conv9_2/sep_mbox_loc <- conv9_2/sep_relu9_2/sep_0_split_1
I1218 22:59:37.660771 31988 net.cpp:408] conv9_2/sep_mbox_loc -> conv9_2/sep_mbox_loc
I1218 22:59:37.662287 31988 net.cpp:150] Setting up conv9_2/sep_mbox_loc
I1218 22:59:37.662294 31988 net.cpp:157] Top shape: 1 8 2 2 (32)
I1218 22:59:37.662297 31988 net.cpp:165] Memory required for data: 468786176
I1218 22:59:37.662300 31988 layer_factory.hpp:77] Creating layer conv9_2/sep_mbox_loc_perm
I1218 22:59:37.662305 31988 net.cpp:100] Creating Layer conv9_2/sep_mbox_loc_perm
I1218 22:59:37.662308 31988 net.cpp:434] conv9_2/sep_mbox_loc_perm <- conv9_2/sep_mbox_loc
I1218 22:59:37.662312 31988 net.cpp:408] conv9_2/sep_mbox_loc_perm -> conv9_2/sep_mbox_loc_perm
I1218 22:59:37.662379 31988 net.cpp:150] Setting up conv9_2/sep_mbox_loc_perm
I1218 22:59:37.662382 31988 net.cpp:157] Top shape: 1 2 2 8 (32)
I1218 22:59:37.662384 31988 net.cpp:165] Memory required for data: 468786304
I1218 22:59:37.662386 31988 layer_factory.hpp:77] Creating layer conv9_2/sep_mbox_loc_flat
I1218 22:59:37.662389 31988 net.cpp:100] Creating Layer conv9_2/sep_mbox_loc_flat
I1218 22:59:37.662391 31988 net.cpp:434] conv9_2/sep_mbox_loc_flat <- conv9_2/sep_mbox_loc_perm
I1218 22:59:37.662395 31988 net.cpp:408] conv9_2/sep_mbox_loc_flat -> conv9_2/sep_mbox_loc_flat
I1218 22:59:37.662410 31988 net.cpp:150] Setting up conv9_2/sep_mbox_loc_flat
I1218 22:59:37.662413 31988 net.cpp:157] Top shape: 1 32 (32)
I1218 22:59:37.662415 31988 net.cpp:165] Memory required for data: 468786432
I1218 22:59:37.662417 31988 layer_factory.hpp:77] Creating layer conv9_2/sep_mbox_conf
I1218 22:59:37.662422 31988 net.cpp:100] Creating Layer conv9_2/sep_mbox_conf
I1218 22:59:37.662425 31988 net.cpp:434] conv9_2/sep_mbox_conf <- conv9_2/sep_relu9_2/sep_0_split_2
I1218 22:59:37.662430 31988 net.cpp:408] conv9_2/sep_mbox_conf -> conv9_2/sep_mbox_conf
I1218 22:59:37.664161 31988 net.cpp:150] Setting up conv9_2/sep_mbox_conf
I1218 22:59:37.664168 31988 net.cpp:157] Top shape: 1 10 2 2 (40)
I1218 22:59:37.664170 31988 net.cpp:165] Memory required for data: 468786592
I1218 22:59:37.664175 31988 layer_factory.hpp:77] Creating layer conv9_2/sep_mbox_conf_perm
I1218 22:59:37.664180 31988 net.cpp:100] Creating Layer conv9_2/sep_mbox_conf_perm
I1218 22:59:37.664181 31988 net.cpp:434] conv9_2/sep_mbox_conf_perm <- conv9_2/sep_mbox_conf
I1218 22:59:37.664186 31988 net.cpp:408] conv9_2/sep_mbox_conf_perm -> conv9_2/sep_mbox_conf_perm
I1218 22:59:37.664263 31988 net.cpp:150] Setting up conv9_2/sep_mbox_conf_perm
I1218 22:59:37.664266 31988 net.cpp:157] Top shape: 1 2 2 10 (40)
I1218 22:59:37.664268 31988 net.cpp:165] Memory required for data: 468786752
I1218 22:59:37.664269 31988 layer_factory.hpp:77] Creating layer conv9_2/sep_mbox_conf_flat
I1218 22:59:37.664273 31988 net.cpp:100] Creating Layer conv9_2/sep_mbox_conf_flat
I1218 22:59:37.664275 31988 net.cpp:434] conv9_2/sep_mbox_conf_flat <- conv9_2/sep_mbox_conf_perm
I1218 22:59:37.664279 31988 net.cpp:408] conv9_2/sep_mbox_conf_flat -> conv9_2/sep_mbox_conf_flat
I1218 22:59:37.664295 31988 net.cpp:150] Setting up conv9_2/sep_mbox_conf_flat
I1218 22:59:37.664299 31988 net.cpp:157] Top shape: 1 40 (40)
I1218 22:59:37.664300 31988 net.cpp:165] Memory required for data: 468786912
I1218 22:59:37.664301 31988 layer_factory.hpp:77] Creating layer conv9_2/sep_mbox_priorbox
I1218 22:59:37.664304 31988 net.cpp:100] Creating Layer conv9_2/sep_mbox_priorbox
I1218 22:59:37.664307 31988 net.cpp:434] conv9_2/sep_mbox_priorbox <- conv9_2/sep_relu9_2/sep_0_split_3
I1218 22:59:37.664310 31988 net.cpp:434] conv9_2/sep_mbox_priorbox <- data_data_0_split_5
I1218 22:59:37.664314 31988 net.cpp:408] conv9_2/sep_mbox_priorbox -> conv9_2/sep_mbox_priorbox
I1218 22:59:37.664331 31988 net.cpp:150] Setting up conv9_2/sep_mbox_priorbox
I1218 22:59:37.664335 31988 net.cpp:157] Top shape: 1 2 32 (64)
I1218 22:59:37.664336 31988 net.cpp:165] Memory required for data: 468787168
I1218 22:59:37.664338 31988 layer_factory.hpp:77] Creating layer conv10_2/sep_mbox_loc
I1218 22:59:37.664343 31988 net.cpp:100] Creating Layer conv10_2/sep_mbox_loc
I1218 22:59:37.664346 31988 net.cpp:434] conv10_2/sep_mbox_loc <- conv10_2/sep_relu10_2/sep_0_split_0
I1218 22:59:37.664350 31988 net.cpp:408] conv10_2/sep_mbox_loc -> conv10_2/sep_mbox_loc
I1218 22:59:37.665840 31988 net.cpp:150] Setting up conv10_2/sep_mbox_loc
I1218 22:59:37.665848 31988 net.cpp:157] Top shape: 1 8 1 1 (8)
I1218 22:59:37.665849 31988 net.cpp:165] Memory required for data: 468787200
I1218 22:59:37.665853 31988 layer_factory.hpp:77] Creating layer conv10_2/sep_mbox_loc_perm
I1218 22:59:37.665858 31988 net.cpp:100] Creating Layer conv10_2/sep_mbox_loc_perm
I1218 22:59:37.665860 31988 net.cpp:434] conv10_2/sep_mbox_loc_perm <- conv10_2/sep_mbox_loc
I1218 22:59:37.665864 31988 net.cpp:408] conv10_2/sep_mbox_loc_perm -> conv10_2/sep_mbox_loc_perm
I1218 22:59:37.665932 31988 net.cpp:150] Setting up conv10_2/sep_mbox_loc_perm
I1218 22:59:37.665936 31988 net.cpp:157] Top shape: 1 1 1 8 (8)
I1218 22:59:37.665937 31988 net.cpp:165] Memory required for data: 468787232
I1218 22:59:37.665940 31988 layer_factory.hpp:77] Creating layer conv10_2/sep_mbox_loc_flat
I1218 22:59:37.665944 31988 net.cpp:100] Creating Layer conv10_2/sep_mbox_loc_flat
I1218 22:59:37.665946 31988 net.cpp:434] conv10_2/sep_mbox_loc_flat <- conv10_2/sep_mbox_loc_perm
I1218 22:59:37.665949 31988 net.cpp:408] conv10_2/sep_mbox_loc_flat -> conv10_2/sep_mbox_loc_flat
I1218 22:59:37.665966 31988 net.cpp:150] Setting up conv10_2/sep_mbox_loc_flat
I1218 22:59:37.665968 31988 net.cpp:157] Top shape: 1 8 (8)
I1218 22:59:37.665971 31988 net.cpp:165] Memory required for data: 468787264
I1218 22:59:37.665971 31988 layer_factory.hpp:77] Creating layer conv10_2/sep_mbox_conf
I1218 22:59:37.665977 31988 net.cpp:100] Creating Layer conv10_2/sep_mbox_conf
I1218 22:59:37.665979 31988 net.cpp:434] conv10_2/sep_mbox_conf <- conv10_2/sep_relu10_2/sep_0_split_1
I1218 22:59:37.665984 31988 net.cpp:408] conv10_2/sep_mbox_conf -> conv10_2/sep_mbox_conf
I1218 22:59:37.667490 31988 net.cpp:150] Setting up conv10_2/sep_mbox_conf
I1218 22:59:37.667497 31988 net.cpp:157] Top shape: 1 10 1 1 (10)
I1218 22:59:37.667500 31988 net.cpp:165] Memory required for data: 468787304
I1218 22:59:37.667503 31988 layer_factory.hpp:77] Creating layer conv10_2/sep_mbox_conf_perm
I1218 22:59:37.667507 31988 net.cpp:100] Creating Layer conv10_2/sep_mbox_conf_perm
I1218 22:59:37.667511 31988 net.cpp:434] conv10_2/sep_mbox_conf_perm <- conv10_2/sep_mbox_conf
I1218 22:59:37.667523 31988 net.cpp:408] conv10_2/sep_mbox_conf_perm -> conv10_2/sep_mbox_conf_perm
I1218 22:59:37.667593 31988 net.cpp:150] Setting up conv10_2/sep_mbox_conf_perm
I1218 22:59:37.667598 31988 net.cpp:157] Top shape: 1 1 1 10 (10)
I1218 22:59:37.667599 31988 net.cpp:165] Memory required for data: 468787344
I1218 22:59:37.667601 31988 layer_factory.hpp:77] Creating layer conv10_2/sep_mbox_conf_flat
I1218 22:59:37.667604 31988 net.cpp:100] Creating Layer conv10_2/sep_mbox_conf_flat
I1218 22:59:37.667606 31988 net.cpp:434] conv10_2/sep_mbox_conf_flat <- conv10_2/sep_mbox_conf_perm
I1218 22:59:37.667610 31988 net.cpp:408] conv10_2/sep_mbox_conf_flat -> conv10_2/sep_mbox_conf_flat
I1218 22:59:37.667624 31988 net.cpp:150] Setting up conv10_2/sep_mbox_conf_flat
I1218 22:59:37.667629 31988 net.cpp:157] Top shape: 1 10 (10)
I1218 22:59:37.667630 31988 net.cpp:165] Memory required for data: 468787384
I1218 22:59:37.667632 31988 layer_factory.hpp:77] Creating layer conv10_2/sep_mbox_priorbox
I1218 22:59:37.667636 31988 net.cpp:100] Creating Layer conv10_2/sep_mbox_priorbox
I1218 22:59:37.667639 31988 net.cpp:434] conv10_2/sep_mbox_priorbox <- conv10_2/sep_relu10_2/sep_0_split_2
I1218 22:59:37.667641 31988 net.cpp:434] conv10_2/sep_mbox_priorbox <- data_data_0_split_6
I1218 22:59:37.667646 31988 net.cpp:408] conv10_2/sep_mbox_priorbox -> conv10_2/sep_mbox_priorbox
I1218 22:59:37.667663 31988 net.cpp:150] Setting up conv10_2/sep_mbox_priorbox
I1218 22:59:37.667666 31988 net.cpp:157] Top shape: 1 2 8 (16)
I1218 22:59:37.667668 31988 net.cpp:165] Memory required for data: 468787448
I1218 22:59:37.667670 31988 layer_factory.hpp:77] Creating layer mbox_loc
I1218 22:59:37.667673 31988 net.cpp:100] Creating Layer mbox_loc
I1218 22:59:37.667676 31988 net.cpp:434] mbox_loc <- conv5_3/expand_mbox_loc_flat
I1218 22:59:37.667678 31988 net.cpp:434] mbox_loc <- conv6_4_mbox_loc_flat
I1218 22:59:37.667682 31988 net.cpp:434] mbox_loc <- conv7_2/sep_mbox_loc_flat
I1218 22:59:37.667685 31988 net.cpp:434] mbox_loc <- conv8_2/sep_mbox_loc_flat
I1218 22:59:37.667687 31988 net.cpp:434] mbox_loc <- conv9_2/sep_mbox_loc_flat
I1218 22:59:37.667690 31988 net.cpp:434] mbox_loc <- conv10_2/sep_mbox_loc_flat
I1218 22:59:37.667695 31988 net.cpp:408] mbox_loc -> mbox_loc
I1218 22:59:37.667711 31988 net.cpp:150] Setting up mbox_loc
I1218 22:59:37.667713 31988 net.cpp:157] Top shape: 1 6600 (6600)
I1218 22:59:37.667716 31988 net.cpp:165] Memory required for data: 468813848
I1218 22:59:37.667717 31988 layer_factory.hpp:77] Creating layer mbox_conf
I1218 22:59:37.667721 31988 net.cpp:100] Creating Layer mbox_conf
I1218 22:59:37.667722 31988 net.cpp:434] mbox_conf <- conv5_3/expand_mbox_conf_flat
I1218 22:59:37.667726 31988 net.cpp:434] mbox_conf <- conv6_4_mbox_conf_flat
I1218 22:59:37.667729 31988 net.cpp:434] mbox_conf <- conv7_2/sep_mbox_conf_flat
I1218 22:59:37.667732 31988 net.cpp:434] mbox_conf <- conv8_2/sep_mbox_conf_flat
I1218 22:59:37.667734 31988 net.cpp:434] mbox_conf <- conv9_2/sep_mbox_conf_flat
I1218 22:59:37.667737 31988 net.cpp:434] mbox_conf <- conv10_2/sep_mbox_conf_flat
I1218 22:59:37.667740 31988 net.cpp:408] mbox_conf -> mbox_conf
I1218 22:59:37.667757 31988 net.cpp:150] Setting up mbox_conf
I1218 22:59:37.667759 31988 net.cpp:157] Top shape: 1 8250 (8250)
I1218 22:59:37.667760 31988 net.cpp:165] Memory required for data: 468846848
I1218 22:59:37.667763 31988 layer_factory.hpp:77] Creating layer mbox_priorbox
I1218 22:59:37.667765 31988 net.cpp:100] Creating Layer mbox_priorbox
I1218 22:59:37.667768 31988 net.cpp:434] mbox_priorbox <- conv5_3/expand_mbox_priorbox
I1218 22:59:37.667770 31988 net.cpp:434] mbox_priorbox <- conv6_4_mbox_priorbox
I1218 22:59:37.667773 31988 net.cpp:434] mbox_priorbox <- conv7_2/sep_mbox_priorbox
I1218 22:59:37.667775 31988 net.cpp:434] mbox_priorbox <- conv8_2/sep_mbox_priorbox
I1218 22:59:37.667778 31988 net.cpp:434] mbox_priorbox <- conv9_2/sep_mbox_priorbox
I1218 22:59:37.667779 31988 net.cpp:434] mbox_priorbox <- conv10_2/sep_mbox_priorbox
I1218 22:59:37.667789 31988 net.cpp:408] mbox_priorbox -> mbox_priorbox
I1218 22:59:37.667805 31988 net.cpp:150] Setting up mbox_priorbox
I1218 22:59:37.667809 31988 net.cpp:157] Top shape: 1 2 6600 (13200)
I1218 22:59:37.667811 31988 net.cpp:165] Memory required for data: 468899648
I1218 22:59:37.667814 31988 layer_factory.hpp:77] Creating layer mbox_conf_reshape
I1218 22:59:37.667817 31988 net.cpp:100] Creating Layer mbox_conf_reshape
I1218 22:59:37.667819 31988 net.cpp:434] mbox_conf_reshape <- mbox_conf
I1218 22:59:37.667822 31988 net.cpp:408] mbox_conf_reshape -> mbox_conf_reshape
I1218 22:59:37.667843 31988 net.cpp:150] Setting up mbox_conf_reshape
I1218 22:59:37.667847 31988 net.cpp:157] Top shape: 1 1650 5 (8250)
I1218 22:59:37.667848 31988 net.cpp:165] Memory required for data: 468932648
I1218 22:59:37.667850 31988 layer_factory.hpp:77] Creating layer mbox_conf_softmax
I1218 22:59:37.667855 31988 net.cpp:100] Creating Layer mbox_conf_softmax
I1218 22:59:37.667857 31988 net.cpp:434] mbox_conf_softmax <- mbox_conf_reshape
I1218 22:59:37.667861 31988 net.cpp:408] mbox_conf_softmax -> mbox_conf_softmax
I1218 22:59:37.668470 31988 net.cpp:150] Setting up mbox_conf_softmax
I1218 22:59:37.668478 31988 net.cpp:157] Top shape: 1 1650 5 (8250)
I1218 22:59:37.668480 31988 net.cpp:165] Memory required for data: 468965648
I1218 22:59:37.668483 31988 layer_factory.hpp:77] Creating layer mbox_conf_flatten
I1218 22:59:37.668486 31988 net.cpp:100] Creating Layer mbox_conf_flatten
I1218 22:59:37.668489 31988 net.cpp:434] mbox_conf_flatten <- mbox_conf_softmax
I1218 22:59:37.668493 31988 net.cpp:408] mbox_conf_flatten -> mbox_conf_flatten
I1218 22:59:37.668509 31988 net.cpp:150] Setting up mbox_conf_flatten
I1218 22:59:37.668512 31988 net.cpp:157] Top shape: 1 8250 (8250)
I1218 22:59:37.668515 31988 net.cpp:165] Memory required for data: 468998648
I1218 22:59:37.668516 31988 layer_factory.hpp:77] Creating layer detection_out
I1218 22:59:37.668527 31988 net.cpp:100] Creating Layer detection_out
I1218 22:59:37.668529 31988 net.cpp:434] detection_out <- mbox_loc
I1218 22:59:37.668532 31988 net.cpp:434] detection_out <- mbox_conf_flatten
I1218 22:59:37.668534 31988 net.cpp:434] detection_out <- mbox_priorbox
I1218 22:59:37.668540 31988 net.cpp:408] detection_out -> detection_out
W1218 22:59:37.668560 31988 detection_output_layer.cpp:49] Failed to create directory: /home/zhongyilin/Documents/data/GTSDBdevkit/results/GTSDB/SSDLite_510x300_100_40_Square_1/Main
I1218 22:59:37.668867 31988 net.cpp:150] Setting up detection_out
I1218 22:59:37.668874 31988 net.cpp:157] Top shape: 1 1 1 7 (7)
I1218 22:59:37.668875 31988 net.cpp:165] Memory required for data: 468998676
I1218 22:59:37.668877 31988 layer_factory.hpp:77] Creating layer detection_eval
I1218 22:59:37.668882 31988 net.cpp:100] Creating Layer detection_eval
I1218 22:59:37.668884 31988 net.cpp:434] detection_eval <- detection_out
I1218 22:59:37.668887 31988 net.cpp:434] detection_eval <- label
I1218 22:59:37.668890 31988 net.cpp:408] detection_eval -> detection_eval
I1218 22:59:37.668982 31988 net.cpp:150] Setting up detection_eval
I1218 22:59:37.668989 31988 net.cpp:157] Top shape: 1 1 5 5 (25)
I1218 22:59:37.668992 31988 net.cpp:165] Memory required for data: 468998776
I1218 22:59:37.668994 31988 net.cpp:228] detection_eval does not need backward computation.
I1218 22:59:37.668998 31988 net.cpp:228] detection_out does not need backward computation.
I1218 22:59:37.669003 31988 net.cpp:228] mbox_conf_flatten does not need backward computation.
I1218 22:59:37.669005 31988 net.cpp:228] mbox_conf_softmax does not need backward computation.
…
