…
      sampler {
        min_scale: 0.3
        max_scale: 1
        min_aspect_ratio: 0.5
        max_aspect_ratio: 2
      }
      sample_constraint {
        min_jaccard_overlap: 0.9
      }
      max_sample: 1
      max_trials: 50
    }
    batch_sampler {
      sampler {
        min_scale: 0.3
        max_scale: 1
        min_aspect_ratio: 0.5
        max_aspect_ratio: 2
      }
      sample_constraint {
        max_jaccard_overlap: 1
      }
      max_sample: 1
      max_trials: 50
    }
    label_map_file: "data/GTSDB/labelmap_GTSDB.prototxt"
  }
}
layer {
  name: "conv1"
  type: "Convolution"
  bottom: "data"
  top: "conv1"
  param {
    lr_mult: 1
    decay_mult: 1
  }
  convolution_param {
    num_output: 64
    bias_term: false
    pad: 3
    kernel_size: 7
    stride: 2
    weight_filler {
      type: "gaussian"
      std: 0.01
    }
  }
}
layer {
  name: "bn_conv1"
  type: "BatchNorm"
  bottom: "conv1"
  top: "conv1"
  batch_norm_param {
    moving_average_fraction: 0.999
    eps: 0.001
  }
}
layer {
  name: "scale_conv1"
  type: "Scale"
  bottom: "conv1"
  top: "conv1"
  param {
    lr_mult: 1
    decay_mult: 0
  }
  param {
    lr_mult: 1
    decay_mult: 0
  }
  scale_param {
    filler {
      type: "constant"
      value: 1
    }
    bias_term: true
    bias_filler {
      type: "constant"
      value: 0
    }
  }
}
layer {
  name: "conv1_relu"
  type: "ReLU"
  bottom: "conv1"
  top: "conv1"
}
layer {
  name: "pool1"
  type: "Pooling"
  bottom: "conv1"
  top: "pool1"
  pooling_param {
    pool: MAX
    kernel_size: 3
    stride: 2
  }
}
layer {
  name: "res2a_branch1"
  type: "Convolution"
  bottom: "pool1"
  top: "res2a_branch1"
  param {
    lr_mult: 1
    decay_mult: 1
  }
  convolution_param {
    num_output: 64
    bias_term: false
    pad: 0
    kernel_size: 1
    stride: 1
    weight_filler {
      type: "gaussian"
      std: 0.01
    }
  }
}
layer {
  name: "bn2a_branch1"
  type: "BatchNorm"
  bottom: "res2a_branch1"
  top: "res2a_branch1"
  batch_norm_param {
    moving_average_fraction: 0.999
    eps: 0.001
  }
}
layer {
  name: "scale2a_branch1"
  type: "Scale"
  bottom: "res2a_branch1"
  top: "res2a_branch1"
  param {
    lr_mult: 1
    decay_mult: 0
  }
  param {
    lr_mult: 1
    decay_mult: 0
  }
  scale_param {
    filler {
      type: "constant"
      value: 1
    }
    bias_term: true
    bias_filler {
      type: "constant"
      value: 0
    }
  }
}
layer {
  name: "res2a_branch2a"
  type: "Convolution"
  bottom: "pool1"
  top: "res2a_branch2a"
  param {
    lr_mult: 1
    decay_mult: 1
  }
  convolution_param {
    num_output: 64
    bias_term: false
    pad: 1
    kernel_size: 3
    stride: 1
    weight_filler {
      type: "gaussian"
      std: 0.01
    }
  }
}
layer {
  name: "bn2a_branch2a"
  type: "BatchNorm"
  bottom: "res2a_branch2a"
  top: "res2a_branch2a"
  batch_norm_param {
    moving_average_fraction: 0.999
    eps: 0.001
  }
}
layer {
  name: "scale2a_branch2a"
  type: "Scale"
  bottom: "res2a_branch2a"
  top: "res2a_branch2a"
  param {
    lr_mult: 1
    decay_mult: 0
  }
  param {
    lr_mult: 1
    decay_mult: 0
  }
  scale_param {
    filler {
      type: "constant"
      value: 1
    }
    bias_term: true
    bias_filler {
      type: "constant"
      value: 0
    }
  }
}
layer {
  name: "res2a_branch2a_relu"
  type: "ReLU"
  bottom: "res2a_branch2a"
  top: "res2a_branch2a"
}
layer {
  name: "res2a_branch2b"
  type: "Convolution"
  bottom: "res2a_branch2a"
  top: "res2a_branch2b"
  param {
    lr_mult: 1
    decay_mult: 1
  }
  convolution_param {
    num_output: 64
    bias_term: false
    pad: 1
    kernel_size: 3
    stride: 1
    weight_filler {
      type: "gaussian"
      std: 0.01
    }
  }
}
layer {
  name: "bn2a_branch2b"
  type: "BatchNorm"
  bottom: "res2a_branch2b"
  top: "res2a_branch2b"
  batch_norm_param {
    moving_average_fraction: 0.999
    eps: 0.001
  }
}
layer {
  name: "scale2a_branch2b"
  type: "Scale"
  bottom: "res2a_branch2b"
  top: "res2a_branch2b"
  param {
    lr_mult: 1
    decay_mult: 0
  }
  param {
    lr_mult: 1
    decay_mult: 0
  }
  scale_param {
    filler {
      type: "constant"
      value: 1
    }
    bias_term: true
    bias_filler {
      type: "constant"
      value: 0
    }
  }
}
layer {
  name: "res2a_branch2b_relu"
  type: "ReLU"
  bottom: "res2a_branch2b"
  top: "res2a_branch2b"
}
layer {
  name: "res2a"
  type: "Eltwise"
  bottom: "res2a_branch1"
  bottom: "res2a_branch2b"
  top: "res2a"
}
layer {
  name: "res2a_relu"
  type: "ReLU"
  bottom: "res2a"
  top: "res2a"
}
layer {
  name: "res2b_branch2a"
  type: "Convolution"
  bottom: "res2a"
  top: "res2b_branch2a"
  param {
    lr_mult: 1
    decay_mult: 1
  }
  convolution_param {
    num_output: 64
    bias_term: false
    pad: 1
    kernel_size: 3
    stride: 1
    weight_filler {
      type: "gaussian"
      std: 0.01
    }
  }
}
layer {
  name: "bn2b_branch2a"
  type: "BatchNorm"
  bottom: "res2b_branch2a"
  top: "res2b_branch2a"
  batch_norm_param {
    moving_average_fraction: 0.999
    eps: 0.001
  }
}
layer {
  name: "scale2b_branch2a"
  type: "Scale"
  bottom: "res2b_branch2a"
  top: "res2b_branch2a"
  param {
    lr_mult: 1
    decay_mult: 0
  }
  param {
    lr_mult: 1
    decay_mult: 0
  }
  scale_param {
    filler {
      type: "constant"
      value: 1
    }
    bias_term: true
    bias_filler {
      type: "constant"
      value: 0
    }
  }
}
layer {
  name: "res2b_branch2a_relu"
  type: "ReLU"
  bottom: "res2b_branch2a"
  top: "res2b_branch2a"
}
layer {
  name: "res2b_branch2b"
  type: "Convolution"
  bottom: "res2b_branch2a"
  top: "res2b_branch2b"
  param {
    lr_mult: 1
    decay_mult: 1
  }
  convolution_param {
    num_output: 64
    bias_term: false
    pad: 1
    kernel_size: 3
    stride: 1
    weight_filler {
      type: "gaussian"
      std: 0.01
    }
  }
}
layer {
  name: "bn2b_branch2b"
  type: "BatchNorm"
  bottom: "res2b_branch2b"
  top: "res2b_branch2b"
  batch_norm_param {
    moving_average_fraction: 0.999
    eps: 0.001
  }
}
layer {
  name: "scale2b_branch2b"
  type: "Scale"
  bottom: "res2b_branch2b"
  top: "res2b_branch2b"
  param {
    lr_mult: 1
    decay_mult: 0
  }
  param {
    lr_mult: 1
    decay_mult: 0
  }
  scale_param {
    filler {
      type: "constant"
      value: 1
    }
    bias_term: true
    bias_filler {
      type: "constant"
      value: 0
    }
  }
}
layer {
  name: "res2b_branch2b_relu"
  type: "ReLU"
  bottom: "res2b_branch2b"
  top: "res2b_branch2b"
}
layer {
  name: "res2b"
  type: "Eltwise"
  bottom: "res2a"
  bottom: "res2b_branch2b"
  top: "res2b"
}
layer {
  name: "res2b_relu"
  type: "ReLU"
  bottom: "res2b"
  top: "res2b"
}
layer {
  name: "res3a_branch1"
  type: "Convolution"
  bottom: "res2b"
  top: "res3a_branch1"
  param {
    lr_mult: 1
    decay_mult: 1
  }
  convolution_param {
    num_output: 128
    bias_term: false
    pad: 0
    kernel_size: 1
    stride: 2
    weight_filler {
      type: "gaussian"
      std: 0.01
    }
  }
}
layer {
  name: "bn3a_branch1"
  type: "BatchNorm"
  bottom: "res3a_branch1"
  top: "res3a_branch1"
  batch_norm_param {
    moving_average_fraction: 0.999
    eps: 0.001
  }
}
layer {
  name: "scale3a_branch1"
  type: "Scale"
  bottom: "res3a_branch1"
  top: "res3a_branch1"
  param {
    lr_mult: 1
    decay_mult: 0
  }
  param {
    lr_mult: 1
    decay_mult: 0
  }
  scale_param {
    filler {
      type: "constant"
      value: 1
    }
    bias_term: true
    bias_filler {
      type: "constant"
      value: 0
    }
  }
}
layer {
  name: "res3a_branch2a"
  type: "Convolution"
  bottom: "res2b"
  top: "res3a_branch2a"
  param {
    lr_mult: 1
    decay_mult: 1
  }
  convolution_param {
    num_output: 128
    bias_term: false
    pad: 1
    kernel_size: 3
    stride: 2
    weight_filler {
      type: "gaussian"
      std: 0.01
    }
  }
}
layer {
  name: "bn3a_branch2a"
  type: "BatchNorm"
  bottom: "res3a_branch2a"
  top: "res3a_branch2a"
  batch_norm_param {
    moving_average_fraction: 0.999
    eps: 0.001
  }
}
layer {
  name: "scale3a_branch2a"
  type: "Scale"
  bottom: "res3a_branch2a"
  top: "res3a_branch2a"
  param {
    lr_mult: 1
    decay_mult: 0
  }
  param {
    lr_mult: 1
    decay_mult: 0
  }
  scale_param {
    filler {
      type: "constant"
      value: 1
    }
    bias_term: true
    bias_filler {
      type: "constant"
      value: 0
    }
  }
}
layer {
  name: "res3a_branch2a_relu"
  type: "ReLU"
  bottom: "res3a_branch2a"
  top: "res3a_branch2a"
}
layer {
  name: "res3a_branch2b"
  type: "Convolution"
  bottom: "res3a_branch2a"
  top: "res3a_branch2b"
  param {
    lr_mult: 1
    decay_mult: 1
  }
  convolution_param {
    num_output: 128
    bias_term: false
    pad: 1
    kernel_size: 3
    stride: 1
    weight_filler {
      type: "gaussian"
      std: 0.01
    }
  }
}
layer {
  name: "bn3a_branch2b"
  type: "BatchNorm"
  bottom: "res3a_branch2b"
  top: "res3a_branch2b"
  batch_norm_param {
    moving_average_fraction: 0.999
    eps: 0.001
  }
}
layer {
  name: "scale3a_branch2b"
  type: "Scale"
  bottom: "res3a_branch2b"
  top: "res3a_branch2b"
  param {
    lr_mult: 1
    decay_mult: 0
  }
  param {
    lr_mult: 1
    decay_mult: 0
  }
  scale_param {
    filler {
      type: "constant"
      value: 1
    }
    bias_term: true
    bias_filler {
      type: "constant"
      value: 0
    }
  }
}
layer {
  name: "res3a_branch2b_relu"
  type: "ReLU"
  bottom: "res3a_branch2b"
  top: "res3a_branch2b"
}
layer {
  name: "res3a"
  type: "Eltwise"
  bottom: "res3a_branch1"
  bottom: "res3a_branch2b"
  top: "res3a"
}
layer {
  name: "res3a_relu"
  type: "ReLU"
  bottom: "res3a"
  top: "res3a"
}
layer {
  name: "res3b1_branch2a"
  type: "Convolution"
  bottom: "res3a"
  top: "res3b1_branch2a"
  param {
    lr_mult: 1
    decay_mult: 1
  }
  convolution_param {
    num_output: 128
    bias_term: false
    pad: 1
    kernel_size: 3
    stride: 1
    weight_filler {
      type: "gaussian"
      std: 0.01
    }
  }
}
layer {
  name: "bn3b1_branch2a"
  type: "BatchNorm"
  bottom: "res3b1_branch2a"
  top: "res3b1_branch2a"
  batch_norm_param {
    moving_average_fraction: 0.999
    eps: 0.001
  }
}
layer {
  name: "scale3b1_branch2a"
  type: "Scale"
  bottom: "res3b1_branch2a"
  top: "res3b1_branch2a"
  param {
    lr_mult: 1
    decay_mult: 0
  }
  param {
    lr_mult: 1
    decay_mult: 0
  }
  scale_param {
    filler {
      type: "constant"
      value: 1
    }
    bias_term: true
    bias_filler {
      type: "constant"
      value: 0
    }
  }
}
layer {
  name: "res3b1_branch2a_relu"
  type: "ReLU"
  bottom: "res3b1_branch2a"
  top: "res3b1_branch2a"
}
layer {
  name: "res3b1_branch2b"
  type: "Convolution"
  bottom: "res3b1_branch2a"
  top: "res3b1_branch2b"
  param {
    lr_mult: 1
    decay_mult: 1
  }
  convolution_param {
    num_output: 128
    bias_term: false
    pad: 1
    kernel_size: 3
    stride: 1
    weight_filler {
      type: "gaussian"
      std: 0.01
    }
  }
}
layer {
  name: "bn3b1_branch2b"
  type: "BatchNorm"
  bottom: "res3b1_branch2b"
  top: "res3b1_branch2b"
  batch_norm_param {
    moving_average_fraction: 0.999
    eps: 0.001
  }
}
layer {
  name: "scale3b1_branch2b"
  type: "Scale"
  bottom: "res3b1_branch2b"
  top: "res3b1_branch2b"
  param {
    lr_mult: 1
    decay_mult: 0
  }
  param {
    lr_mult: 1
    decay_mult: 0
  }
  scale_param {
    filler {
      type: "constant"
      value: 1
    }
    bias_term: true
    bias_filler {
      type: "constant"
      value: 0
    }
  }
}
layer {
  name: "res3b1_branch2b_relu"
  type: "ReLU"
  bottom: "res3b1_branch2b"
  top: "res3b1_branch2b"
}
layer {
  name: "res3b1"
  type: "Eltwise"
  bottom: "res3a"
  bottom: "res3b1_branch2b"
  top: "res3b1"
}
layer {
  name: "res3b1_relu"
  type: "ReLU"
  bottom: "res3b1"
  top: "res3b1"
}
layer {
  name: "res4a_branch1"
  type: "Convolution"
  bottom: "res3b1"
  top: "res4a_branch1"
  param {
    lr_mult: 1
    decay_mult: 1
  }
  convolution_param {
    num_output: 256
    bias_term: false
    pad: 0
    kernel_size: 1
    stride: 2
    weight_filler {
      type: "gaussian"
      std: 0.01
    }
  }
}
layer {
  name: "bn4a_branch1"
  type: "BatchNorm"
  bottom: "res4a_branch1"
  top: "res4a_branch1"
  batch_norm_param {
    moving_average_fraction: 0.999
    eps: 0.001
  }
}
layer {
  name: "scale4a_branch1"
  type: "Scale"
  bottom: "res4a_branch1"
  top: "res4a_branch1"
  param {
    lr_mult: 1
    decay_mult: 0
  }
  param {
    lr_mult: 1
    decay_mult: 0
  }
  scale_param {
    filler {
      type: "constant"
      value: 1
    }
    bias_term: true
    bias_filler {
      type: "constant"
      value: 0
    }
  }
}
layer {
  name: "res4a_branch2a"
  type: "Convolution"
  bottom: "res3b1"
  top: "res4a_branch2a"
  param {
    lr_mult: 1
    decay_mult: 1
  }
  convolution_param {
    num_output: 256
    bias_term: false
    pad: 1
    kernel_size: 3
    stride: 2
    weight_filler {
      type: "gaussian"
      std: 0.01
    }
  }
}
layer {
  name: "bn4a_branch2a"
  type: "BatchNorm"
  bottom: "res4a_branch2a"
  top: "res4a_branch2a"
  batch_norm_param {
    moving_average_fraction: 0.999
    eps: 0.001
  }
}
layer {
  name: "scale4a_branch2a"
  type: "Scale"
  bottom: "res4a_branch2a"
  top: "res4a_branch2a"
  param {
    lr_mult: 1
    decay_mult: 0
  }
  param {
    lr_mult: 1
    decay_mult: 0
  }
  scale_param {
    filler {
      type: "constant"
      value: 1
    }
    bias_term: true
    bias_filler {
      type: "constant"
      value: 0
    }
  }
}
layer {
  name: "res4a_branch2a_relu"
  type: "ReLU"
  bottom: "res4a_branch2a"
  top: "res4a_branch2a"
}
layer {
  name: "res4a_branch2b"
  type: "Convolution"
  bottom: "res4a_branch2a"
  top: "res4a_branch2b"
  param {
    lr_mult: 1
    decay_mult: 1
  }
  convolution_param {
    num_output: 256
    bias_term: false
    pad: 1
    kernel_size: 3
    stride: 1
    weight_filler {
      type: "gaussian"
      std: 0.01
    }
  }
}
layer {
  name: "bn4a_branch2b"
  type: "BatchNorm"
  bottom: "res4a_branch2b"
  top: "res4a_branch2b"
  batch_norm_param {
    moving_average_fraction: 0.999
    eps: 0.001
  }
}
layer {
  name: "scale4a_branch2b"
  type: "Scale"
  bottom: "res4a_branch2b"
  top: "res4a_branch2b"
  param {
    lr_mult: 1
    decay_mult: 0
  }
  param {
    lr_mult: 1
    decay_mult: 0
  }
  scale_param {
    filler {
      type: "constant"
      value: 1
    }
    bias_term: true
    bias_filler {
      type: "constant"
      value: 0
    }
  }
}
layer {
  name: "res4a_branch2b_relu"
  type: "ReLU"
  bottom: "res4a_branch2b"
  top: "res4a_branch2b"
}
layer {
  name: "res4a"
  type: "Eltwise"
  bottom: "res4a_branch1"
  bottom: "res4a_branch2b"
  top: "res4a"
}
layer {
  name: "res4a_relu"
  type: "ReLU"
  bottom: "res4a"
  top: "res4a"
}
layer {
  name: "res4b1_branch2a"
  type: "Convolution"
  bottom: "res4a"
  top: "res4b1_branch2a"
  param {
    lr_mult: 1
    decay_mult: 1
  }
  convolution_param {
    num_output: 256
    bias_term: false
    pad: 1
    kernel_size: 3
    stride: 1
    weight_filler {
      type: "gaussian"
      std: 0.01
    }
  }
}
layer {
  name: "bn4b1_branch2a"
  type: "BatchNorm"
  bottom: "res4b1_branch2a"
  top: "res4b1_branch2a"
  batch_norm_param {
    moving_average_fraction: 0.999
    eps: 0.001
  }
}
layer {
  name: "scale4b1_branch2a"
  type: "Scale"
  bottom: "res4b1_branch2a"
  top: "res4b1_branch2a"
  param {
    lr_mult: 1
    decay_mult: 0
  }
  param {
    lr_mult: 1
    decay_mult: 0
  }
  scale_param {
    filler {
      type: "constant"
      value: 1
    }
    bias_term: true
    bias_filler {
      type: "constant"
      value: 0
    }
  }
}
layer {
  name: "res4b1_branch2a_relu"
  type: "ReLU"
  bottom: "res4b1_branch2a"
  top: "res4b1_branch2a"
}
layer {
  name: "res4b1_branch2b"
  type: "Convolution"
  bottom: "res4b1_branch2a"
  top: "res4b1_branch2b"
  param {
    lr_mult: 1
    decay_mult: 1
  }
  convolution_param {
    num_output: 256
    bias_term: false
    pad: 1
    kernel_size: 3
    stride: 1
    weight_filler {
      type: "gaussian"
      std: 0.01
    }
  }
}
layer {
  name: "bn4b1_branch2b"
  type: "BatchNorm"
  bottom: "res4b1_branch2b"
  top: "res4b1_branch2b"
  batch_norm_param {
    moving_average_fraction: 0.999
    eps: 0.001
  }
}
layer {
  name: "scale4b1_branch2b"
  type: "Scale"
  bottom: "res4b1_branch2b"
  top: "res4b1_branch2b"
  param {
    lr_mult: 1
    decay_mult: 0
  }
  param {
    lr_mult: 1
    decay_mult: 0
  }
  scale_param {
    filler {
      type: "constant"
      value: 1
    }
    bias_term: true
    bias_filler {
      type: "constant"
      value: 0
    }
  }
}
layer {
  name: "res4b1_branch2b_relu"
  type: "ReLU"
  bottom: "res4b1_branch2b"
  top: "res4b1_branch2b"
}
layer {
  name: "res4b1"
  type: "Eltwise"
  bottom: "res4a"
  bottom: "res4b1_branch2b"
  top: "res4b1"
}
layer {
  name: "res4b1_relu"
  type: "ReLU"
  bottom: "res4b1"
  top: "res4b1"
}
layer {
  name: "res5a_branch1"
  type: "Convolution"
  bottom: "res4b1"
  top: "res5a_branch1"
  param {
    lr_mult: 1
    decay_mult: 1
  }
  convolution_param {
    num_output: 512
    bias_term: false
    pad: 0
    kernel_size: 1
    stride: 1
    weight_filler {
      type: "gaussian"
      std: 0.01
    }
  }
}
layer {
  name: "bn5a_branch1"
  type: "BatchNorm"
  bottom: "res5a_branch1"
  top: "res5a_branch1"
  batch_norm_param {
    moving_average_fraction: 0.999
    eps: 0.001
  }
}
layer {
  name: "scale5a_branch1"
  type: "Scale"
  bottom: "res5a_branch1"
  top: "res5a_branch1"
  param {
    lr_mult: 1
    decay_mult: 0
  }
  param {
    lr_mult: 1
    decay_mult: 0
  }
  scale_param {
    filler {
      type: "constant"
      value: 1
    }
    bias_term: true
    bias_filler {
      type: "constant"
      value: 0
    }
  }
}
layer {
  name: "res5a_branch2a"
  type: "Convolution"
  bottom: "res4b1"
  top: "res5a_branch2a"
  param {
    lr_mult: 1
    decay_mult: 1
  }
  convolution_param {
    num_output: 512
    bias_term: false
    pad: 1
    kernel_size: 3
    stride: 1
    weight_filler {
      type: "gaussian"
      std: 0.01
    }
  }
}
layer {
  name: "bn5a_branch2a"
  type: "BatchNorm"
  bottom: "res5a_branch2a"
  top: "res5a_branch2a"
  batch_norm_param {
    moving_average_fraction: 0.999
    eps: 0.001
  }
}
layer {
  name: "scale5a_branch2a"
  type: "Scale"
  bottom: "res5a_branch2a"
  top: "res5a_branch2a"
  param {
    lr_mult: 1
    decay_mult: 0
  }
  param {
    lr_mult: 1
    decay_mult: 0
  }
  scale_param {
    filler {
      type: "constant"
      value: 1
    }
    bias_term: true
    bias_filler {
      type: "constant"
      value: 0
    }
  }
}
layer {
  name: "res5a_branch2a_relu"
  type: "ReLU"
  bottom: "res5a_branch2a"
  top: "res5a_branch2a"
}
layer {
  name: "res5a_branch2b"
  type: "Convolution"
  bottom: "res5a_branch2a"
  top: "res5a_branch2b"
  param {
    lr_mult: 1
    decay_mult: 1
  }
  convolution_param {
    num_output: 512
    bias_term: false
    pad: 2
    kernel_size: 3
    stride: 1
    weight_filler {
      type: "gaussian"
      std: 0.01
    }
    dilation: 2
  }
}
layer {
  name: "bn5a_branch2b"
  type: "BatchNorm"
  bottom: "res5a_branch2b"
  top: "res5a_branch2b"
  batch_norm_param {
    moving_average_fraction: 0.999
    eps: 0.001
  }
}
layer {
  name: "scale5a_branch2b"
  type: "Scale"
  bottom: "res5a_branch2b"
  top: "res5a_branch2b"
  param {
    lr_mult: 1
    decay_mult: 0
  }
  param {
    lr_mult: 1
    decay_mult: 0
  }
  scale_param {
    filler {
      type: "constant"
      value: 1
    }
    bias_term: true
    bias_filler {
      type: "constant"
      value: 0
    }
  }
}
layer {
  name: "res5a_branch2b_relu"
  type: "ReLU"
  bottom: "res5a_branch2b"
  top: "res5a_branch2b"
}
layer {
  name: "res5a"
  type: "Eltwise"
  bottom: "res5a_branch1"
  bottom: "res5a_branch2b"
  top: "res5a"
}
layer {
  name: "res5a_relu"
  type: "ReLU"
  bottom: "res5a"
  top: "res5a"
}
layer {
  name: "res5b_branch2a"
  type: "Convolution"
  bottom: "res5a"
  top: "res5b_branch2a"
  param {
    lr_mult: 1
    decay_mult: 1
  }
  convolution_param {
    num_output: 512
    bias_term: false
    pad: 1
    kernel_size: 3
    stride: 1
    weight_filler {
      type: "gaussian"
      std: 0.01
    }
  }
}
layer {
  name: "bn5b_branch2a"
  type: "BatchNorm"
  bottom: "res5b_branch2a"
  top: "res5b_branch2a"
  batch_norm_param {
    moving_average_fraction: 0.999
    eps: 0.001
  }
}
layer {
  name: "scale5b_branch2a"
  type: "Scale"
  bottom: "res5b_branch2a"
  top: "res5b_branch2a"
  param {
    lr_mult: 1
    decay_mult: 0
  }
  param {
    lr_mult: 1
    decay_mult: 0
  }
  scale_param {
    filler {
      type: "constant"
      value: 1
    }
    bias_term: true
    bias_filler {
      type: "constant"
      value: 0
    }
  }
}
layer {
  name: "res5b_branch2a_relu"
  type: "ReLU"
  bottom: "res5b_branch2a"
  top: "res5b_branch2a"
}
layer {
  name: "res5b_branch2b"
  type: "Convolution"
  bottom: "res5b_branch2a"
  top: "res5b_branch2b"
  param {
    lr_mult: 1
    decay_mult: 1
  }
  convolution_param {
    num_output: 512
    bias_term: false
    pad: 2
    kernel_size: 3
    stride: 1
    weight_filler {
      type: "gaussian"
      std: 0.01
    }
    dilation: 2
  }
}
layer {
  name: "bn5b_branch2b"
  type: "BatchNorm"
  bottom: "res5b_branch2b"
  top: "res5b_branch2b"
  batch_norm_param {
    moving_average_fraction: 0.999
    eps: 0.001
  }
}
layer {
  name: "scale5b_branch2b"
  type: "Scale"
  bottom: "res5b_branch2b"
  top: "res5b_branch2b"
  param {
    lr_mult: 1
    decay_mult: 0
  }
  param {
    lr_mult: 1
    decay_mult: 0
  }
  scale_param {
    filler {
      type: "constant"
      value: 1
    }
    bias_term: true
    bias_filler {
      type: "constant"
      value: 0
    }
  }
}
layer {
  name: "res5b_branch2b_relu"
  type: "ReLU"
  bottom: "res5b_branch2b"
  top: "res5b_branch2b"
}
layer {
  name: "res5b"
  type: "Eltwise"
  bottom: "res5a"
  bottom: "res5b_branch2b"
  top: "res5b"
}
layer {
  name: "res5b_relu"
  type: "ReLU"
  bottom: "res5b"
  top: "res5b"
}
layer {
  name: "res5b_relu/conv1_1"
  type: "Convolution"
  bottom: "res5b"
  top: "res5b_relu/conv1_1"
  param {
    lr_mult: 1
    decay_mult: 1
  }
  convolution_param {
    num_output: 256
    bias_term: false
    pad: 0
    kernel_size: 1
    stride: 1
    weight_filler {
      type: "gaussian"
      std: 0.01
    }
  }
}
layer {
  name: "res5b_relu/conv1_1_bn"
  type: "BatchNorm"
  bottom: "res5b_relu/conv1_1"
  top: "res5b_relu/conv1_1"
  batch_norm_param {
    moving_average_fraction: 0.999
    eps: 0.001
  }
}
layer {
  name: "res5b_relu/conv1_1_scale"
  type: "Scale"
  bottom: "res5b_relu/conv1_1"
  top: "res5b_relu/conv1_1"
  param {
    lr_mult: 1
    decay_mult: 0
  }
  param {
    lr_mult: 1
    decay_mult: 0
  }
  scale_param {
    filler {
      type: "constant"
      value: 1
    }
    bias_term: true
    bias_filler {
      type: "constant"
      value: 0
    }
  }
}
layer {
  name: "res5b_relu/conv1_1_relu"
  type: "ReLU"
  bottom: "res5b_relu/conv1_1"
  top: "res5b_relu/conv1_1"
}
layer {
  name: "res5b_relu/conv1_2"
  type: "Convolution"
  bottom: "res5b_relu/conv1_1"
  top: "res5b_relu/conv1_2"
  param {
    lr_mult: 1
    decay_mult: 1
  }
  convolution_param {
    num_output: 512
    bias_term: false
    pad: 1
    kernel_size: 3
    stride: 2
    weight_filler {
      type: "gaussian"
      std: 0.01
    }
  }
}
layer {
  name: "res5b_relu/conv1_2_bn"
  type: "BatchNorm"
  bottom: "res5b_relu/conv1_2"
  top: "res5b_relu/conv1_2"
  batch_norm_param {
    moving_average_fraction: 0.999
    eps: 0.001
  }
}
layer {
  name: "res5b_relu/conv1_2_scale"
  type: "Scale"
  bottom: "res5b_relu/conv1_2"
  top: "res5b_relu/conv1_2"
  param {
    lr_mult: 1
    decay_mult: 0
  }
  param {
    lr_mult: 1
    decay_mult: 0
  }
  scale_param {
    filler {
      type: "constant"
      value: 1
    }
    bias_term: true
    bias_filler {
      type: "constant"
      value: 0
    }
  }
}
layer {
  name: "res5b_relu/conv1_2_relu"
  type: "ReLU"
  bottom: "res5b_relu/conv1_2"
  top: "res5b_relu/conv1_2"
}
layer {
  name: "res5b_relu/conv2_1"
  type: "Convolution"
  bottom: "res5b_relu/conv1_2"
  top: "res5b_relu/conv2_1"
  param {
    lr_mult: 1
    decay_mult: 1
  }
  convolution_param {
    num_output: 256
    bias_term: false
    pad: 0
    kernel_size: 1
    stride: 1
    weight_filler {
      type: "gaussian"
      std: 0.01
    }
  }
}
layer {
  name: "res5b_relu/conv2_1_bn"
  type: "BatchNorm"
  bottom: "res5b_relu/conv2_1"
  top: "res5b_relu/conv2_1"
  batch_norm_param {
    moving_average_fraction: 0.999
    eps: 0.001
  }
}
layer {
  name: "res5b_relu/conv2_1_scale"
  type: "Scale"
  bottom: "res5b_relu/conv2_1"
  top: "res5b_relu/conv2_1"
  param {
    lr_mult: 1
    decay_mult: 0
  }
  param {
    lr_mult: 1
    decay_mult: 0
  }
  scale_param {
    filler {
      type: "constant"
      value: 1
    }
    bias_term: true
    bias_filler {
      type: "constant"
      value: 0
    }
  }
}
layer {
  name: "res5b_relu/conv2_1_relu"
  type: "ReLU"
  bottom: "res5b_relu/conv2_1"
  top: "res5b_relu/conv2_1"
}
layer {
  name: "res5b_relu/conv2_2"
  type: "Convolution"
  bottom: "res5b_relu/conv2_1"
  top: "res5b_relu/conv2_2"
  param {
    lr_mult: 1
    decay_mult: 1
  }
  convolution_param {
    num_output: 512
    bias_term: false
    pad: 1
    kernel_size: 3
    stride: 2
    weight_filler {
      type: "gaussian"
      std: 0.01
    }
  }
}
layer {
  name: "res5b_relu/conv2_2_bn"
  type: "BatchNorm"
  bottom: "res5b_relu/conv2_2"
  top: "res5b_relu/conv2_2"
  batch_norm_param {
    moving_average_fraction: 0.999
    eps: 0.001
  }
}
layer {
  name: "res5b_relu/conv2_2_scale"
  type: "Scale"
  bottom: "res5b_relu/conv2_2"
  top: "res5b_relu/conv2_2"
  param {
    lr_mult: 1
    decay_mult: 0
  }
  param {
    lr_mult: 1
    decay_mult: 0
  }
  scale_param {
    filler {
      type: "constant"
      value: 1
    }
    bias_term: true
    bias_filler {
      type: "constant"
      value: 0
    }
  }
}
layer {
  name: "res5b_relu/conv2_2_relu"
  type: "ReLU"
  bottom: "res5b_relu/conv2_2"
  top: "res5b_relu/conv2_2"
}
layer {
  name: "res5b_relu/conv3_1"
  type: "Convolution"
  bottom: "res5b_relu/conv2_2"
  top: "res5b_relu/conv3_1"
  param {
    lr_mult: 1
    decay_mult: 1
  }
  convolution_param {
    num_output: 256
    bias_term: false
    pad: 0
    kernel_size: 1
    stride: 1
    weight_filler {
      type: "gaussian"
      std: 0.01
    }
  }
}
layer {
  name: "res5b_relu/conv3_1_bn"
  type: "BatchNorm"
  bottom: "res5b_relu/conv3_1"
  top: "res5b_relu/conv3_1"
  batch_norm_param {
    moving_average_fraction: 0.999
    eps: 0.001
  }
}
layer {
  name: "res5b_relu/conv3_1_scale"
  type: "Scale"
  bottom: "res5b_relu/conv3_1"
  top: "res5b_relu/conv3_1"
  param {
    lr_mult: 1
    decay_mult: 0
  }
  param {
    lr_mult: 1
    decay_mult: 0
  }
  scale_param {
    filler {
      type: "constant"
      value: 1
    }
    bias_term: true
    bias_filler {
      type: "constant"
      value: 0
    }
  }
}
layer {
  name: "res5b_relu/conv3_1_relu"
  type: "ReLU"
  bottom: "res5b_relu/conv3_1"
  top: "res5b_relu/conv3_1"
}
layer {
  name: "res5b_relu/conv3_2"
  type: "Convolution"
  bottom: "res5b_relu/conv3_1"
  top: "res5b_relu/conv3_2"
  param {
    lr_mult: 1
    decay_mult: 1
  }
  convolution_param {
    num_output: 512
    bias_term: false
    pad: 1
    kernel_size: 3
    stride: 2
    weight_filler {
      type: "gaussian"
      std: 0.01
    }
  }
}
layer {
  name: "res5b_relu/conv3_2_bn"
  type: "BatchNorm"
  bottom: "res5b_relu/conv3_2"
  top: "res5b_relu/conv3_2"
  batch_norm_param {
I0308 14:37:32.990208 27860 layer_factory.hpp:77] Creating layer data
I0308 14:37:32.990308 27860 net.cpp:100] Creating Layer data
I0308 14:37:32.990317 27860 net.cpp:408] data -> data
I0308 14:37:32.990342 27860 net.cpp:408] data -> label
I0308 14:37:32.990828 27868 db_lmdb.cpp:35] Opened lmdb examples/GTSDB/GTSDB_trainval_lmdb
I0308 14:37:33.008626 27860 annotated_data_layer.cpp:62] output data size: 2,3,300,510
I0308 14:37:33.013265 27860 net.cpp:150] Setting up data
I0308 14:37:33.013283 27860 net.cpp:157] Top shape: 2 3 300 510 (918000)
I0308 14:37:33.013286 27860 net.cpp:157] Top shape: 1 1 3 8 (24)
I0308 14:37:33.013288 27860 net.cpp:165] Memory required for data: 3672096
I0308 14:37:33.013295 27860 layer_factory.hpp:77] Creating layer data_data_0_split
I0308 14:37:33.013304 27860 net.cpp:100] Creating Layer data_data_0_split
I0308 14:37:33.013308 27860 net.cpp:434] data_data_0_split <- data
I0308 14:37:33.013320 27860 net.cpp:408] data_data_0_split -> data_data_0_split_0
I0308 14:37:33.013329 27860 net.cpp:408] data_data_0_split -> data_data_0_split_1
I0308 14:37:33.013335 27860 net.cpp:408] data_data_0_split -> data_data_0_split_2
I0308 14:37:33.013341 27860 net.cpp:408] data_data_0_split -> data_data_0_split_3
I0308 14:37:33.013345 27860 net.cpp:408] data_data_0_split -> data_data_0_split_4
I0308 14:37:33.013352 27860 net.cpp:408] data_data_0_split -> data_data_0_split_5
I0308 14:37:33.013357 27860 net.cpp:408] data_data_0_split -> data_data_0_split_6
I0308 14:37:33.013428 27860 net.cpp:150] Setting up data_data_0_split
I0308 14:37:33.013432 27860 net.cpp:157] Top shape: 2 3 300 510 (918000)
I0308 14:37:33.013437 27860 net.cpp:157] Top shape: 2 3 300 510 (918000)
I0308 14:37:33.013438 27860 net.cpp:157] Top shape: 2 3 300 510 (918000)
I0308 14:37:33.013442 27860 net.cpp:157] Top shape: 2 3 300 510 (918000)
I0308 14:37:33.013444 27860 net.cpp:157] Top shape: 2 3 300 510 (918000)
I0308 14:37:33.013447 27860 net.cpp:157] Top shape: 2 3 300 510 (918000)
I0308 14:37:33.013449 27860 net.cpp:157] Top shape: 2 3 300 510 (918000)
I0308 14:37:33.013453 27860 net.cpp:165] Memory required for data: 29376096
I0308 14:37:33.013454 27860 layer_factory.hpp:77] Creating layer conv1
I0308 14:37:33.013468 27860 net.cpp:100] Creating Layer conv1
I0308 14:37:33.013471 27860 net.cpp:434] conv1 <- data_data_0_split_0
I0308 14:37:33.013476 27860 net.cpp:408] conv1 -> conv1
I0308 14:37:33.358353 27860 net.cpp:150] Setting up conv1
I0308 14:37:33.358372 27860 net.cpp:157] Top shape: 2 64 150 255 (4896000)
I0308 14:37:33.358374 27860 net.cpp:165] Memory required for data: 48960096
I0308 14:37:33.358387 27860 layer_factory.hpp:77] Creating layer bn_conv1
I0308 14:37:33.358394 27860 net.cpp:100] Creating Layer bn_conv1
I0308 14:37:33.358397 27860 net.cpp:434] bn_conv1 <- conv1
I0308 14:37:33.358400 27860 net.cpp:395] bn_conv1 -> conv1 (in-place)
I0308 14:37:33.359016 27860 net.cpp:150] Setting up bn_conv1
I0308 14:37:33.359024 27860 net.cpp:157] Top shape: 2 64 150 255 (4896000)
I0308 14:37:33.359026 27860 net.cpp:165] Memory required for data: 68544096
I0308 14:37:33.359033 27860 layer_factory.hpp:77] Creating layer scale_conv1
I0308 14:37:33.359040 27860 net.cpp:100] Creating Layer scale_conv1
I0308 14:37:33.359042 27860 net.cpp:434] scale_conv1 <- conv1
I0308 14:37:33.359046 27860 net.cpp:395] scale_conv1 -> conv1 (in-place)
I0308 14:37:33.359073 27860 layer_factory.hpp:77] Creating layer scale_conv1
I0308 14:37:33.359163 27860 net.cpp:150] Setting up scale_conv1
I0308 14:37:33.359166 27860 net.cpp:157] Top shape: 2 64 150 255 (4896000)
I0308 14:37:33.359169 27860 net.cpp:165] Memory required for data: 88128096
I0308 14:37:33.359174 27860 layer_factory.hpp:77] Creating layer conv1_relu
I0308 14:37:33.359177 27860 net.cpp:100] Creating Layer conv1_relu
I0308 14:37:33.359179 27860 net.cpp:434] conv1_relu <- conv1
I0308 14:37:33.359182 27860 net.cpp:395] conv1_relu -> conv1 (in-place)
I0308 14:37:33.359514 27860 net.cpp:150] Setting up conv1_relu
I0308 14:37:33.359520 27860 net.cpp:157] Top shape: 2 64 150 255 (4896000)
I0308 14:37:33.359522 27860 net.cpp:165] Memory required for data: 107712096
I0308 14:37:33.359524 27860 layer_factory.hpp:77] Creating layer pool1
I0308 14:37:33.359529 27860 net.cpp:100] Creating Layer pool1
I0308 14:37:33.359529 27860 net.cpp:434] pool1 <- conv1
I0308 14:37:33.359534 27860 net.cpp:408] pool1 -> pool1
I0308 14:37:33.359570 27860 net.cpp:150] Setting up pool1
I0308 14:37:33.359573 27860 net.cpp:157] Top shape: 2 64 75 127 (1219200)
I0308 14:37:33.359575 27860 net.cpp:165] Memory required for data: 112588896
I0308 14:37:33.359576 27860 layer_factory.hpp:77] Creating layer pool1_pool1_0_split
I0308 14:37:33.359580 27860 net.cpp:100] Creating Layer pool1_pool1_0_split
I0308 14:37:33.359581 27860 net.cpp:434] pool1_pool1_0_split <- pool1
I0308 14:37:33.359586 27860 net.cpp:408] pool1_pool1_0_split -> pool1_pool1_0_split_0
I0308 14:37:33.359588 27860 net.cpp:408] pool1_pool1_0_split -> pool1_pool1_0_split_1
I0308 14:37:33.359619 27860 net.cpp:150] Setting up pool1_pool1_0_split
I0308 14:37:33.359625 27860 net.cpp:157] Top shape: 2 64 75 127 (1219200)
I0308 14:37:33.359627 27860 net.cpp:157] Top shape: 2 64 75 127 (1219200)
I0308 14:37:33.359629 27860 net.cpp:165] Memory required for data: 122342496
I0308 14:37:33.359632 27860 layer_factory.hpp:77] Creating layer res2a_branch1
I0308 14:37:33.359638 27860 net.cpp:100] Creating Layer res2a_branch1
I0308 14:37:33.359640 27860 net.cpp:434] res2a_branch1 <- pool1_pool1_0_split_0
I0308 14:37:33.359643 27860 net.cpp:408] res2a_branch1 -> res2a_branch1
I0308 14:37:33.361722 27860 net.cpp:150] Setting up res2a_branch1
I0308 14:37:33.361730 27860 net.cpp:157] Top shape: 2 64 75 127 (1219200)
I0308 14:37:33.361732 27860 net.cpp:165] Memory required for data: 127219296
I0308 14:37:33.361737 27860 layer_factory.hpp:77] Creating layer bn2a_branch1
I0308 14:37:33.361742 27860 net.cpp:100] Creating Layer bn2a_branch1
I0308 14:37:33.361743 27860 net.cpp:434] bn2a_branch1 <- res2a_branch1
I0308 14:37:33.361747 27860 net.cpp:395] bn2a_branch1 -> res2a_branch1 (in-place)
I0308 14:37:33.361869 27860 net.cpp:150] Setting up bn2a_branch1
I0308 14:37:33.361874 27860 net.cpp:157] Top shape: 2 64 75 127 (1219200)
I0308 14:37:33.361876 27860 net.cpp:165] Memory required for data: 132096096
I0308 14:37:33.361881 27860 layer_factory.hpp:77] Creating layer scale2a_branch1
I0308 14:37:33.361886 27860 net.cpp:100] Creating Layer scale2a_branch1
I0308 14:37:33.361887 27860 net.cpp:434] scale2a_branch1 <- res2a_branch1
I0308 14:37:33.361891 27860 net.cpp:395] scale2a_branch1 -> res2a_branch1 (in-place)
I0308 14:37:33.361917 27860 layer_factory.hpp:77] Creating layer scale2a_branch1
I0308 14:37:33.361994 27860 net.cpp:150] Setting up scale2a_branch1
I0308 14:37:33.361997 27860 net.cpp:157] Top shape: 2 64 75 127 (1219200)
I0308 14:37:33.362001 27860 net.cpp:165] Memory required for data: 136972896
I0308 14:37:33.362006 27860 layer_factory.hpp:77] Creating layer res2a_branch2a
I0308 14:37:33.362013 27860 net.cpp:100] Creating Layer res2a_branch2a
I0308 14:37:33.362016 27860 net.cpp:434] res2a_branch2a <- pool1_pool1_0_split_1
I0308 14:37:33.362020 27860 net.cpp:408] res2a_branch2a -> res2a_branch2a
I0308 14:37:33.363476 27860 net.cpp:150] Setting up res2a_branch2a
I0308 14:37:33.363482 27860 net.cpp:157] Top shape: 2 64 75 127 (1219200)
I0308 14:37:33.363487 27860 net.cpp:165] Memory required for data: 141849696
I0308 14:37:33.363492 27860 layer_factory.hpp:77] Creating layer bn2a_branch2a
I0308 14:37:33.363497 27860 net.cpp:100] Creating Layer bn2a_branch2a
I0308 14:37:33.363500 27860 net.cpp:434] bn2a_branch2a <- res2a_branch2a
I0308 14:37:33.363503 27860 net.cpp:395] bn2a_branch2a -> res2a_branch2a (in-place)
I0308 14:37:33.363631 27860 net.cpp:150] Setting up bn2a_branch2a
I0308 14:37:33.363636 27860 net.cpp:157] Top shape: 2 64 75 127 (1219200)
I0308 14:37:33.363637 27860 net.cpp:165] Memory required for data: 146726496
I0308 14:37:33.363642 27860 layer_factory.hpp:77] Creating layer scale2a_branch2a
I0308 14:37:33.363646 27860 net.cpp:100] Creating Layer scale2a_branch2a
I0308 14:37:33.363649 27860 net.cpp:434] scale2a_branch2a <- res2a_branch2a
I0308 14:37:33.363651 27860 net.cpp:395] scale2a_branch2a -> res2a_branch2a (in-place)
I0308 14:37:33.363677 27860 layer_factory.hpp:77] Creating layer scale2a_branch2a
I0308 14:37:33.363752 27860 net.cpp:150] Setting up scale2a_branch2a
I0308 14:37:33.363756 27860 net.cpp:157] Top shape: 2 64 75 127 (1219200)
I0308 14:37:33.363759 27860 net.cpp:165] Memory required for data: 151603296
I0308 14:37:33.363765 27860 layer_factory.hpp:77] Creating layer res2a_branch2a_relu
I0308 14:37:33.363768 27860 net.cpp:100] Creating Layer res2a_branch2a_relu
I0308 14:37:33.363770 27860 net.cpp:434] res2a_branch2a_relu <- res2a_branch2a
I0308 14:37:33.363773 27860 net.cpp:395] res2a_branch2a_relu -> res2a_branch2a (in-place)
I0308 14:37:33.364084 27860 net.cpp:150] Setting up res2a_branch2a_relu
I0308 14:37:33.364090 27860 net.cpp:157] Top shape: 2 64 75 127 (1219200)
I0308 14:37:33.364092 27860 net.cpp:165] Memory required for data: 156480096
I0308 14:37:33.364094 27860 layer_factory.hpp:77] Creating layer res2a_branch2b
I0308 14:37:33.364099 27860 net.cpp:100] Creating Layer res2a_branch2b
I0308 14:37:33.364102 27860 net.cpp:434] res2a_branch2b <- res2a_branch2a
I0308 14:37:33.364105 27860 net.cpp:408] res2a_branch2b -> res2a_branch2b
I0308 14:37:33.365871 27860 net.cpp:150] Setting up res2a_branch2b
I0308 14:37:33.365880 27860 net.cpp:157] Top shape: 2 64 75 127 (1219200)
I0308 14:37:33.365882 27860 net.cpp:165] Memory required for data: 161356896
I0308 14:37:33.365896 27860 layer_factory.hpp:77] Creating layer bn2a_branch2b
I0308 14:37:33.365902 27860 net.cpp:100] Creating Layer bn2a_branch2b
I0308 14:37:33.365906 27860 net.cpp:434] bn2a_branch2b <- res2a_branch2b
I0308 14:37:33.365908 27860 net.cpp:395] bn2a_branch2b -> res2a_branch2b (in-place)
I0308 14:37:33.366036 27860 net.cpp:150] Setting up bn2a_branch2b
I0308 14:37:33.366040 27860 net.cpp:157] Top shape: 2 64 75 127 (1219200)
I0308 14:37:33.366044 27860 net.cpp:165] Memory required for data: 166233696
I0308 14:37:33.366050 27860 layer_factory.hpp:77] Creating layer scale2a_branch2b
I0308 14:37:33.366056 27860 net.cpp:100] Creating Layer scale2a_branch2b
I0308 14:37:33.366060 27860 net.cpp:434] scale2a_branch2b <- res2a_branch2b
I0308 14:37:33.366065 27860 net.cpp:395] scale2a_branch2b -> res2a_branch2b (in-place)
I0308 14:37:33.366094 27860 layer_factory.hpp:77] Creating layer scale2a_branch2b
I0308 14:37:33.366173 27860 net.cpp:150] Setting up scale2a_branch2b
I0308 14:37:33.366178 27860 net.cpp:157] Top shape: 2 64 75 127 (1219200)
I0308 14:37:33.366181 27860 net.cpp:165] Memory required for data: 171110496
I0308 14:37:33.366186 27860 layer_factory.hpp:77] Creating layer res2a_branch2b_relu
I0308 14:37:33.366190 27860 net.cpp:100] Creating Layer res2a_branch2b_relu
I0308 14:37:33.366194 27860 net.cpp:434] res2a_branch2b_relu <- res2a_branch2b
I0308 14:37:33.366197 27860 net.cpp:395] res2a_branch2b_relu -> res2a_branch2b (in-place)
I0308 14:37:33.366516 27860 net.cpp:150] Setting up res2a_branch2b_relu
I0308 14:37:33.366523 27860 net.cpp:157] Top shape: 2 64 75 127 (1219200)
I0308 14:37:33.366525 27860 net.cpp:165] Memory required for data: 175987296
I0308 14:37:33.366529 27860 layer_factory.hpp:77] Creating layer res2a
I0308 14:37:33.366534 27860 net.cpp:100] Creating Layer res2a
I0308 14:37:33.366538 27860 net.cpp:434] res2a <- res2a_branch1
I0308 14:37:33.366540 27860 net.cpp:434] res2a <- res2a_branch2b
I0308 14:37:33.366547 27860 net.cpp:408] res2a -> res2a
I0308 14:37:33.366569 27860 net.cpp:150] Setting up res2a
I0308 14:37:33.366573 27860 net.cpp:157] Top shape: 2 64 75 127 (1219200)
I0308 14:37:33.366576 27860 net.cpp:165] Memory required for data: 180864096
I0308 14:37:33.366580 27860 layer_factory.hpp:77] Creating layer res2a_relu
I0308 14:37:33.366585 27860 net.cpp:100] Creating Layer res2a_relu
I0308 14:37:33.366587 27860 net.cpp:434] res2a_relu <- res2a
I0308 14:37:33.366591 27860 net.cpp:395] res2a_relu -> res2a (in-place)
I0308 14:37:33.367074 27860 net.cpp:150] Setting up res2a_relu
I0308 14:37:33.367080 27860 net.cpp:157] Top shape: 2 64 75 127 (1219200)
I0308 14:37:33.367084 27860 net.cpp:165] Memory required for data: 185740896
I0308 14:37:33.367085 27860 layer_factory.hpp:77] Creating layer res2a_res2a_relu_0_split
I0308 14:37:33.367089 27860 net.cpp:100] Creating Layer res2a_res2a_relu_0_split
I0308 14:37:33.367092 27860 net.cpp:434] res2a_res2a_relu_0_split <- res2a
I0308 14:37:33.367095 27860 net.cpp:408] res2a_res2a_relu_0_split -> res2a_res2a_relu_0_split_0
I0308 14:37:33.367100 27860 net.cpp:408] res2a_res2a_relu_0_split -> res2a_res2a_relu_0_split_1
I0308 14:37:33.367125 27860 net.cpp:150] Setting up res2a_res2a_relu_0_split
I0308 14:37:33.367130 27860 net.cpp:157] Top shape: 2 64 75 127 (1219200)
I0308 14:37:33.367131 27860 net.cpp:157] Top shape: 2 64 75 127 (1219200)
I0308 14:37:33.367133 27860 net.cpp:165] Memory required for data: 195494496
I0308 14:37:33.367136 27860 layer_factory.hpp:77] Creating layer res2b_branch2a
I0308 14:37:33.367141 27860 net.cpp:100] Creating Layer res2b_branch2a
I0308 14:37:33.367143 27860 net.cpp:434] res2b_branch2a <- res2a_res2a_relu_0_split_0
I0308 14:37:33.367147 27860 net.cpp:408] res2b_branch2a -> res2b_branch2a
I0308 14:37:33.368748 27860 net.cpp:150] Setting up res2b_branch2a
I0308 14:37:33.368757 27860 net.cpp:157] Top shape: 2 64 75 127 (1219200)
I0308 14:37:33.368759 27860 net.cpp:165] Memory required for data: 200371296
I0308 14:37:33.368762 27860 layer_factory.hpp:77] Creating layer bn2b_branch2a
I0308 14:37:33.368767 27860 net.cpp:100] Creating Layer bn2b_branch2a
I0308 14:37:33.368777 27860 net.cpp:434] bn2b_branch2a <- res2b_branch2a
I0308 14:37:33.368782 27860 net.cpp:395] bn2b_branch2a -> res2b_branch2a (in-place)
I0308 14:37:33.368909 27860 net.cpp:150] Setting up bn2b_branch2a
I0308 14:37:33.368913 27860 net.cpp:157] Top shape: 2 64 75 127 (1219200)
I0308 14:37:33.368916 27860 net.cpp:165] Memory required for data: 205248096
I0308 14:37:33.368919 27860 layer_factory.hpp:77] Creating layer scale2b_branch2a
I0308 14:37:33.368923 27860 net.cpp:100] Creating Layer scale2b_branch2a
I0308 14:37:33.368927 27860 net.cpp:434] scale2b_branch2a <- res2b_branch2a
I0308 14:37:33.368930 27860 net.cpp:395] scale2b_branch2a -> res2b_branch2a (in-place)
I0308 14:37:33.368954 27860 layer_factory.hpp:77] Creating layer scale2b_branch2a
I0308 14:37:33.369029 27860 net.cpp:150] Setting up scale2b_branch2a
I0308 14:37:33.369033 27860 net.cpp:157] Top shape: 2 64 75 127 (1219200)
I0308 14:37:33.369036 27860 net.cpp:165] Memory required for data: 210124896
I0308 14:37:33.369040 27860 layer_factory.hpp:77] Creating layer res2b_branch2a_relu
I0308 14:37:33.369043 27860 net.cpp:100] Creating Layer res2b_branch2a_relu
I0308 14:37:33.369045 27860 net.cpp:434] res2b_branch2a_relu <- res2b_branch2a
I0308 14:37:33.369048 27860 net.cpp:395] res2b_branch2a_relu -> res2b_branch2a (in-place)
I0308 14:37:33.369377 27860 net.cpp:150] Setting up res2b_branch2a_relu
I0308 14:37:33.369385 27860 net.cpp:157] Top shape: 2 64 75 127 (1219200)
I0308 14:37:33.369386 27860 net.cpp:165] Memory required for data: 215001696
I0308 14:37:33.369388 27860 layer_factory.hpp:77] Creating layer res2b_branch2b
I0308 14:37:33.369393 27860 net.cpp:100] Creating Layer res2b_branch2b
I0308 14:37:33.369396 27860 net.cpp:434] res2b_branch2b <- res2b_branch2a
I0308 14:37:33.369400 27860 net.cpp:408] res2b_branch2b -> res2b_branch2b
I0308 14:37:33.371215 27860 net.cpp:150] Setting up res2b_branch2b
I0308 14:37:33.371225 27860 net.cpp:157] Top shape: 2 64 75 127 (1219200)
I0308 14:37:33.371227 27860 net.cpp:165] Memory required for data: 219878496
I0308 14:37:33.371232 27860 layer_factory.hpp:77] Creating layer bn2b_branch2b
I0308 14:37:33.371238 27860 net.cpp:100] Creating Layer bn2b_branch2b
I0308 14:37:33.371240 27860 net.cpp:434] bn2b_branch2b <- res2b_branch2b
I0308 14:37:33.371243 27860 net.cpp:395] bn2b_branch2b -> res2b_branch2b (in-place)
I0308 14:37:33.371377 27860 net.cpp:150] Setting up bn2b_branch2b
I0308 14:37:33.371381 27860 net.cpp:157] Top shape: 2 64 75 127 (1219200)
I0308 14:37:33.371383 27860 net.cpp:165] Memory required for data: 224755296
I0308 14:37:33.371392 27860 layer_factory.hpp:77] Creating layer scale2b_branch2b
I0308 14:37:33.371397 27860 net.cpp:100] Creating Layer scale2b_branch2b
I0308 14:37:33.371399 27860 net.cpp:434] scale2b_branch2b <- res2b_branch2b
I0308 14:37:33.371403 27860 net.cpp:395] scale2b_branch2b -> res2b_branch2b (in-place)
I0308 14:37:33.371429 27860 layer_factory.hpp:77] Creating layer scale2b_branch2b
I0308 14:37:33.371506 27860 net.cpp:150] Setting up scale2b_branch2b
I0308 14:37:33.371510 27860 net.cpp:157] Top shape: 2 64 75 127 (1219200)
I0308 14:37:33.371511 27860 net.cpp:165] Memory required for data: 229632096
I0308 14:37:33.371515 27860 layer_factory.hpp:77] Creating layer res2b_branch2b_relu
I0308 14:37:33.371518 27860 net.cpp:100] Creating Layer res2b_branch2b_relu
I0308 14:37:33.371520 27860 net.cpp:434] res2b_branch2b_relu <- res2b_branch2b
I0308 14:37:33.371522 27860 net.cpp:395] res2b_branch2b_relu -> res2b_branch2b (in-place)
I0308 14:37:33.371852 27860 net.cpp:150] Setting up res2b_branch2b_relu
I0308 14:37:33.371858 27860 net.cpp:157] Top shape: 2 64 75 127 (1219200)
I0308 14:37:33.371861 27860 net.cpp:165] Memory required for data: 234508896
I0308 14:37:33.371865 27860 layer_factory.hpp:77] Creating layer res2b
I0308 14:37:33.371870 27860 net.cpp:100] Creating Layer res2b
I0308 14:37:33.371875 27860 net.cpp:434] res2b <- res2a_res2a_relu_0_split_1
I0308 14:37:33.371877 27860 net.cpp:434] res2b <- res2b_branch2b
I0308 14:37:33.371881 27860 net.cpp:408] res2b -> res2b
I0308 14:37:33.371911 27860 net.cpp:150] Setting up res2b
I0308 14:37:33.371914 27860 net.cpp:157] Top shape: 2 64 75 127 (1219200)
I0308 14:37:33.371917 27860 net.cpp:165] Memory required for data: 239385696
I0308 14:37:33.371919 27860 layer_factory.hpp:77] Creating layer res2b_relu
I0308 14:37:33.371922 27860 net.cpp:100] Creating Layer res2b_relu
I0308 14:37:33.371924 27860 net.cpp:434] res2b_relu <- res2b
I0308 14:37:33.371928 27860 net.cpp:395] res2b_relu -> res2b (in-place)
I0308 14:37:33.372248 27860 net.cpp:150] Setting up res2b_relu
I0308 14:37:33.372253 27860 net.cpp:157] Top shape: 2 64 75 127 (1219200)
I0308 14:37:33.372256 27860 net.cpp:165] Memory required for data: 244262496
I0308 14:37:33.372257 27860 layer_factory.hpp:77] Creating layer res2b_res2b_relu_0_split
I0308 14:37:33.372265 27860 net.cpp:100] Creating Layer res2b_res2b_relu_0_split
I0308 14:37:33.372268 27860 net.cpp:434] res2b_res2b_relu_0_split <- res2b
I0308 14:37:33.372272 27860 net.cpp:408] res2b_res2b_relu_0_split -> res2b_res2b_relu_0_split_0
I0308 14:37:33.372275 27860 net.cpp:408] res2b_res2b_relu_0_split -> res2b_res2b_relu_0_split_1
I0308 14:37:33.372301 27860 net.cpp:150] Setting up res2b_res2b_relu_0_split
I0308 14:37:33.372304 27860 net.cpp:157] Top shape: 2 64 75 127 (1219200)
I0308 14:37:33.372308 27860 net.cpp:157] Top shape: 2 64 75 127 (1219200)
I0308 14:37:33.372310 27860 net.cpp:165] Memory required for data: 254016096
I0308 14:37:33.372311 27860 layer_factory.hpp:77] Creating layer res3a_branch1
I0308 14:37:33.372318 27860 net.cpp:100] Creating Layer res3a_branch1
I0308 14:37:33.372319 27860 net.cpp:434] res3a_branch1 <- res2b_res2b_relu_0_split_0
I0308 14:37:33.372324 27860 net.cpp:408] res3a_branch1 -> res3a_branch1
I0308 14:37:33.373806 27860 net.cpp:150] Setting up res3a_branch1
I0308 14:37:33.373813 27860 net.cpp:157] Top shape: 2 128 38 64 (622592)
I0308 14:37:33.373816 27860 net.cpp:165] Memory required for data: 256506464
I0308 14:37:33.373821 27860 layer_factory.hpp:77] Creating layer bn3a_branch1
I0308 14:37:33.373827 27860 net.cpp:100] Creating Layer bn3a_branch1
I0308 14:37:33.373831 27860 net.cpp:434] bn3a_branch1 <- res3a_branch1
I0308 14:37:33.373837 27860 net.cpp:395] bn3a_branch1 -> res3a_branch1 (in-place)
I0308 14:37:33.373955 27860 net.cpp:150] Setting up bn3a_branch1
I0308 14:37:33.373958 27860 net.cpp:157] Top shape: 2 128 38 64 (622592)
I0308 14:37:33.373962 27860 net.cpp:165] Memory required for data: 258996832
I0308 14:37:33.373968 27860 layer_factory.hpp:77] Creating layer scale3a_branch1
I0308 14:37:33.373973 27860 net.cpp:100] Creating Layer scale3a_branch1
I0308 14:37:33.373977 27860 net.cpp:434] scale3a_branch1 <- res3a_branch1
I0308 14:37:33.373980 27860 net.cpp:395] scale3a_branch1 -> res3a_branch1 (in-place)
I0308 14:37:33.374008 27860 layer_factory.hpp:77] Creating layer scale3a_branch1
I0308 14:37:33.374073 27860 net.cpp:150] Setting up scale3a_branch1
I0308 14:37:33.374078 27860 net.cpp:157] Top shape: 2 128 38 64 (622592)
I0308 14:37:33.374080 27860 net.cpp:165] Memory required for data: 261487200
I0308 14:37:33.374085 27860 layer_factory.hpp:77] Creating layer res3a_branch2a
I0308 14:37:33.374091 27860 net.cpp:100] Creating Layer res3a_branch2a
I0308 14:37:33.374095 27860 net.cpp:434] res3a_branch2a <- res2b_res2b_relu_0_split_1
I0308 14:37:33.374099 27860 net.cpp:408] res3a_branch2a -> res3a_branch2a
I0308 14:37:33.376292 27860 net.cpp:150] Setting up res3a_branch2a
I0308 14:37:33.376300 27860 net.cpp:157] Top shape: 2 128 38 64 (622592)
I0308 14:37:33.376303 27860 net.cpp:165] Memory required for data: 263977568
I0308 14:37:33.376308 27860 layer_factory.hpp:77] Creating layer bn3a_branch2a
I0308 14:37:33.376314 27860 net.cpp:100] Creating Layer bn3a_branch2a
I0308 14:37:33.376319 27860 net.cpp:434] bn3a_branch2a <- res3a_branch2a
I0308 14:37:33.376324 27860 net.cpp:395] bn3a_branch2a -> res3a_branch2a (in-place)
I0308 14:37:33.376440 27860 net.cpp:150] Setting up bn3a_branch2a
I0308 14:37:33.376443 27860 net.cpp:157] Top shape: 2 128 38 64 (622592)
I0308 14:37:33.376456 27860 net.cpp:165] Memory required for data: 266467936
I0308 14:37:33.376459 27860 layer_factory.hpp:77] Creating layer scale3a_branch2a
I0308 14:37:33.376466 27860 net.cpp:100] Creating Layer scale3a_branch2a
I0308 14:37:33.376469 27860 net.cpp:434] scale3a_branch2a <- res3a_branch2a
I0308 14:37:33.376475 27860 net.cpp:395] scale3a_branch2a -> res3a_branch2a (in-place)
I0308 14:37:33.376502 27860 layer_factory.hpp:77] Creating layer scale3a_branch2a
I0308 14:37:33.376566 27860 net.cpp:150] Setting up scale3a_branch2a
I0308 14:37:33.376571 27860 net.cpp:157] Top shape: 2 128 38 64 (622592)
I0308 14:37:33.376574 27860 net.cpp:165] Memory required for data: 268958304
I0308 14:37:33.376579 27860 layer_factory.hpp:77] Creating layer res3a_branch2a_relu
I0308 14:37:33.376585 27860 net.cpp:100] Creating Layer res3a_branch2a_relu
I0308 14:37:33.376587 27860 net.cpp:434] res3a_branch2a_relu <- res3a_branch2a
I0308 14:37:33.376592 27860 net.cpp:395] res3a_branch2a_relu -> res3a_branch2a (in-place)
I0308 14:37:33.376919 27860 net.cpp:150] Setting up res3a_branch2a_relu
I0308 14:37:33.376924 27860 net.cpp:157] Top shape: 2 128 38 64 (622592)
I0308 14:37:33.376929 27860 net.cpp:165] Memory required for data: 271448672
I0308 14:37:33.376932 27860 layer_factory.hpp:77] Creating layer res3a_branch2b
I0308 14:37:33.376940 27860 net.cpp:100] Creating Layer res3a_branch2b
I0308 14:37:33.376942 27860 net.cpp:434] res3a_branch2b <- res3a_branch2a
I0308 14:37:33.376947 27860 net.cpp:408] res3a_branch2b -> res3a_branch2b
I0308 14:37:33.379343 27860 net.cpp:150] Setting up res3a_branch2b
I0308 14:37:33.379351 27860 net.cpp:157] Top shape: 2 128 38 64 (622592)
I0308 14:37:33.379354 27860 net.cpp:165] Memory required for data: 273939040
I0308 14:37:33.379356 27860 layer_factory.hpp:77] Creating layer bn3a_branch2b
I0308 14:37:33.379361 27860 net.cpp:100] Creating Layer bn3a_branch2b
I0308 14:37:33.379364 27860 net.cpp:434] bn3a_branch2b <- res3a_branch2b
I0308 14:37:33.379367 27860 net.cpp:395] bn3a_branch2b -> res3a_branch2b (in-place)
I0308 14:37:33.379490 27860 net.cpp:150] Setting up bn3a_branch2b
I0308 14:37:33.379495 27860 net.cpp:157] Top shape: 2 128 38 64 (622592)
I0308 14:37:33.379498 27860 net.cpp:165] Memory required for data: 276429408
I0308 14:37:33.379504 27860 layer_factory.hpp:77] Creating layer scale3a_branch2b
I0308 14:37:33.379509 27860 net.cpp:100] Creating Layer scale3a_branch2b
I0308 14:37:33.379513 27860 net.cpp:434] scale3a_branch2b <- res3a_branch2b
I0308 14:37:33.379518 27860 net.cpp:395] scale3a_branch2b -> res3a_branch2b (in-place)
I0308 14:37:33.379542 27860 layer_factory.hpp:77] Creating layer scale3a_branch2b
I0308 14:37:33.379609 27860 net.cpp:150] Setting up scale3a_branch2b
I0308 14:37:33.379614 27860 net.cpp:157] Top shape: 2 128 38 64 (622592)
I0308 14:37:33.379616 27860 net.cpp:165] Memory required for data: 278919776
I0308 14:37:33.379619 27860 layer_factory.hpp:77] Creating layer res3a_branch2b_relu
I0308 14:37:33.379622 27860 net.cpp:100] Creating Layer res3a_branch2b_relu
I0308 14:37:33.379626 27860 net.cpp:434] res3a_branch2b_relu <- res3a_branch2b
I0308 14:37:33.379628 27860 net.cpp:395] res3a_branch2b_relu -> res3a_branch2b (in-place)
I0308 14:37:33.379953 27860 net.cpp:150] Setting up res3a_branch2b_relu
I0308 14:37:33.379958 27860 net.cpp:157] Top shape: 2 128 38 64 (622592)
I0308 14:37:33.379961 27860 net.cpp:165] Memory required for data: 281410144
I0308 14:37:33.379963 27860 layer_factory.hpp:77] Creating layer res3a
I0308 14:37:33.379966 27860 net.cpp:100] Creating Layer res3a
I0308 14:37:33.379968 27860 net.cpp:434] res3a <- res3a_branch1
I0308 14:37:33.379972 27860 net.cpp:434] res3a <- res3a_branch2b
I0308 14:37:33.379976 27860 net.cpp:408] res3a -> res3a
I0308 14:37:33.379993 27860 net.cpp:150] Setting up res3a
I0308 14:37:33.379997 27860 net.cpp:157] Top shape: 2 128 38 64 (622592)
I0308 14:37:33.379999 27860 net.cpp:165] Memory required for data: 283900512
I0308 14:37:33.380000 27860 layer_factory.hpp:77] Creating layer res3a_relu
I0308 14:37:33.380003 27860 net.cpp:100] Creating Layer res3a_relu
I0308 14:37:33.380014 27860 net.cpp:434] res3a_relu <- res3a
I0308 14:37:33.380019 27860 net.cpp:395] res3a_relu -> res3a (in-place)
I0308 14:37:33.380336 27860 net.cpp:150] Setting up res3a_relu
I0308 14:37:33.380340 27860 net.cpp:157] Top shape: 2 128 38 64 (622592)
I0308 14:37:33.380342 27860 net.cpp:165] Memory required for data: 286390880
I0308 14:37:33.380345 27860 layer_factory.hpp:77] Creating layer res3a_res3a_relu_0_split
I0308 14:37:33.380349 27860 net.cpp:100] Creating Layer res3a_res3a_relu_0_split
I0308 14:37:33.380352 27860 net.cpp:434] res3a_res3a_relu_0_split <- res3a
I0308 14:37:33.380357 27860 net.cpp:408] res3a_res3a_relu_0_split -> res3a_res3a_relu_0_split_0
I0308 14:37:33.380362 27860 net.cpp:408] res3a_res3a_relu_0_split -> res3a_res3a_relu_0_split_1
I0308 14:37:33.380391 27860 net.cpp:150] Setting up res3a_res3a_relu_0_split
I0308 14:37:33.380395 27860 net.cpp:157] Top shape: 2 128 38 64 (622592)
I0308 14:37:33.380399 27860 net.cpp:157] Top shape: 2 128 38 64 (622592)
I0308 14:37:33.380403 27860 net.cpp:165] Memory required for data: 291371616
I0308 14:37:33.380405 27860 layer_factory.hpp:77] Creating layer res3b1_branch2a
I0308 14:37:33.380411 27860 net.cpp:100] Creating Layer res3b1_branch2a
I0308 14:37:33.380414 27860 net.cpp:434] res3b1_branch2a <- res3a_res3a_relu_0_split_0
I0308 14:37:33.380419 27860 net.cpp:408] res3b1_branch2a -> res3b1_branch2a
I0308 14:37:33.382833 27860 net.cpp:150] Setting up res3b1_branch2a
I0308 14:37:33.382843 27860 net.cpp:157] Top shape: 2 128 38 64 (622592)
I0308 14:37:33.382846 27860 net.cpp:165] Memory required for data: 293861984
I0308 14:37:33.382853 27860 layer_factory.hpp:77] Creating layer bn3b1_branch2a
I0308 14:37:33.382856 27860 net.cpp:100] Creating Layer bn3b1_branch2a
I0308 14:37:33.382859 27860 net.cpp:434] bn3b1_branch2a <- res3b1_branch2a
I0308 14:37:33.382863 27860 net.cpp:395] bn3b1_branch2a -> res3b1_branch2a (in-place)
I0308 14:37:33.382982 27860 net.cpp:150] Setting up bn3b1_branch2a
I0308 14:37:33.382987 27860 net.cpp:157] Top shape: 2 128 38 64 (622592)
I0308 14:37:33.382988 27860 net.cpp:165] Memory required for data: 296352352
I0308 14:37:33.382993 27860 layer_factory.hpp:77] Creating layer scale3b1_branch2a
I0308 14:37:33.382999 27860 net.cpp:100] Creating Layer scale3b1_branch2a
I0308 14:37:33.383002 27860 net.cpp:434] scale3b1_branch2a <- res3b1_branch2a
I0308 14:37:33.383006 27860 net.cpp:395] scale3b1_branch2a -> res3b1_branch2a (in-place)
I0308 14:37:33.383033 27860 layer_factory.hpp:77] Creating layer scale3b1_branch2a
I0308 14:37:33.383095 27860 net.cpp:150] Setting up scale3b1_branch2a
I0308 14:37:33.383098 27860 net.cpp:157] Top shape: 2 128 38 64 (622592)
I0308 14:37:33.383101 27860 net.cpp:165] Memory required for data: 298842720
I0308 14:37:33.383105 27860 layer_factory.hpp:77] Creating layer res3b1_branch2a_relu
I0308 14:37:33.383111 27860 net.cpp:100] Creating Layer res3b1_branch2a_relu
I0308 14:37:33.383114 27860 net.cpp:434] res3b1_branch2a_relu <- res3b1_branch2a
I0308 14:37:33.383118 27860 net.cpp:395] res3b1_branch2a_relu -> res3b1_branch2a (in-place)
I0308 14:37:33.383442 27860 net.cpp:150] Setting up res3b1_branch2a_relu
I0308 14:37:33.383447 27860 net.cpp:157] Top shape: 2 128 38 64 (622592)
I0308 14:37:33.383450 27860 net.cpp:165] Memory required for data: 301333088
I0308 14:37:33.383451 27860 layer_factory.hpp:77] Creating layer res3b1_branch2b
I0308 14:37:33.383457 27860 net.cpp:100] Creating Layer res3b1_branch2b
I0308 14:37:33.383460 27860 net.cpp:434] res3b1_branch2b <- res3b1_branch2a
I0308 14:37:33.383463 27860 net.cpp:408] res3b1_branch2b -> res3b1_branch2b
I0308 14:37:33.385764 27860 net.cpp:150] Setting up res3b1_branch2b
I0308 14:37:33.385772 27860 net.cpp:157] Top shape: 2 128 38 64 (622592)
I0308 14:37:33.385776 27860 net.cpp:165] Memory required for data: 303823456
I0308 14:37:33.385779 27860 layer_factory.hpp:77] Creating layer bn3b1_branch2b
I0308 14:37:33.385783 27860 net.cpp:100] Creating Layer bn3b1_branch2b
I0308 14:37:33.385785 27860 net.cpp:434] bn3b1_branch2b <- res3b1_branch2b
I0308 14:37:33.385798 27860 net.cpp:395] bn3b1_branch2b -> res3b1_branch2b (in-place)
I0308 14:37:33.385921 27860 net.cpp:150] Setting up bn3b1_branch2b
I0308 14:37:33.385926 27860 net.cpp:157] Top shape: 2 128 38 64 (622592)
I0308 14:37:33.385928 27860 net.cpp:165] Memory required for data: 306313824
I0308 14:37:33.385936 27860 layer_factory.hpp:77] Creating layer scale3b1_branch2b
I0308 14:37:33.385941 27860 net.cpp:100] Creating Layer scale3b1_branch2b
I0308 14:37:33.385943 27860 net.cpp:434] scale3b1_branch2b <- res3b1_branch2b
I0308 14:37:33.385948 27860 net.cpp:395] scale3b1_branch2b -> res3b1_branch2b (in-place)
I0308 14:37:33.385980 27860 layer_factory.hpp:77] Creating layer scale3b1_branch2b
I0308 14:37:33.386061 27860 net.cpp:150] Setting up scale3b1_branch2b
I0308 14:37:33.386067 27860 net.cpp:157] Top shape: 2 128 38 64 (622592)
I0308 14:37:33.386070 27860 net.cpp:165] Memory required for data: 308804192
I0308 14:37:33.386082 27860 layer_factory.hpp:77] Creating layer res3b1_branch2b_relu
I0308 14:37:33.386087 27860 net.cpp:100] Creating Layer res3b1_branch2b_relu
I0308 14:37:33.386091 27860 net.cpp:434] res3b1_branch2b_relu <- res3b1_branch2b
I0308 14:37:33.386096 27860 net.cpp:395] res3b1_branch2b_relu -> res3b1_branch2b (in-place)
I0308 14:37:33.386600 27860 net.cpp:150] Setting up res3b1_branch2b_relu
I0308 14:37:33.386608 27860 net.cpp:157] Top shape: 2 128 38 64 (622592)
I0308 14:37:33.386611 27860 net.cpp:165] Memory required for data: 311294560
I0308 14:37:33.386615 27860 layer_factory.hpp:77] Creating layer res3b1
I0308 14:37:33.386621 27860 net.cpp:100] Creating Layer res3b1
I0308 14:37:33.386626 27860 net.cpp:434] res3b1 <- res3a_res3a_relu_0_split_1
I0308 14:37:33.386629 27860 net.cpp:434] res3b1 <- res3b1_branch2b
I0308 14:37:33.386643 27860 net.cpp:408] res3b1 -> res3b1
I0308 14:37:33.386672 27860 net.cpp:150] Setting up res3b1
I0308 14:37:33.386678 27860 net.cpp:157] Top shape: 2 128 38 64 (622592)
I0308 14:37:33.386682 27860 net.cpp:165] Memory required for data: 313784928
I0308 14:37:33.386684 27860 layer_factory.hpp:77] Creating layer res3b1_relu
I0308 14:37:33.386689 27860 net.cpp:100] Creating Layer res3b1_relu
I0308 14:37:33.386693 27860 net.cpp:434] res3b1_relu <- res3b1
I0308 14:37:33.386696 27860 net.cpp:395] res3b1_relu -> res3b1 (in-place)
I0308 14:37:33.387022 27860 net.cpp:150] Setting up res3b1_relu
I0308 14:37:33.387030 27860 net.cpp:157] Top shape: 2 128 38 64 (622592)
I0308 14:37:33.387032 27860 net.cpp:165] Memory required for data: 316275296
I0308 14:37:33.387035 27860 layer_factory.hpp:77] Creating layer res3b1_res3b1_relu_0_split
I0308 14:37:33.387040 27860 net.cpp:100] Creating Layer res3b1_res3b1_relu_0_split
I0308 14:37:33.387044 27860 net.cpp:434] res3b1_res3b1_relu_0_split <- res3b1
I0308 14:37:33.387050 27860 net.cpp:408] res3b1_res3b1_relu_0_split -> res3b1_res3b1_relu_0_split_0
I0308 14:37:33.387056 27860 net.cpp:408] res3b1_res3b1_relu_0_split -> res3b1_res3b1_relu_0_split_1
I0308 14:37:33.387063 27860 net.cpp:408] res3b1_res3b1_relu_0_split -> res3b1_res3b1_relu_0_split_2
I0308 14:37:33.387069 27860 net.cpp:408] res3b1_res3b1_relu_0_split -> res3b1_res3b1_relu_0_split_3
I0308 14:37:33.387074 27860 net.cpp:408] res3b1_res3b1_relu_0_split -> res3b1_res3b1_relu_0_split_4
I0308 14:37:33.387126 27860 net.cpp:150] Setting up res3b1_res3b1_relu_0_split
I0308 14:37:33.387131 27860 net.cpp:157] Top shape: 2 128 38 64 (622592)
I0308 14:37:33.387136 27860 net.cpp:157] Top shape: 2 128 38 64 (622592)
I0308 14:37:33.387140 27860 net.cpp:157] Top shape: 2 128 38 64 (622592)
I0308 14:37:33.387145 27860 net.cpp:157] Top shape: 2 128 38 64 (622592)
I0308 14:37:33.387149 27860 net.cpp:157] Top shape: 2 128 38 64 (622592)
I0308 14:37:33.387152 27860 net.cpp:165] Memory required for data: 328727136
I0308 14:37:33.387156 27860 layer_factory.hpp:77] Creating layer res4a_branch1
I0308 14:37:33.387162 27860 net.cpp:100] Creating Layer res4a_branch1
I0308 14:37:33.387166 27860 net.cpp:434] res4a_branch1 <- res3b1_res3b1_relu_0_split_0
I0308 14:37:33.387172 27860 net.cpp:408] res4a_branch1 -> res4a_branch1
I0308 14:37:33.389250 27860 net.cpp:150] Setting up res4a_branch1
I0308 14:37:33.389276 27860 net.cpp:157] Top shape: 2 256 19 32 (311296)
I0308 14:37:33.389279 27860 net.cpp:165] Memory required for data: 329972320
I0308 14:37:33.389292 27860 layer_factory.hpp:77] Creating layer bn4a_branch1
I0308 14:37:33.389305 27860 net.cpp:100] Creating Layer bn4a_branch1
I0308 14:37:33.389314 27860 net.cpp:434] bn4a_branch1 <- res4a_branch1
I0308 14:37:33.389323 27860 net.cpp:395] bn4a_branch1 -> res4a_branch1 (in-place)
I0308 14:37:33.390034 27860 net.cpp:150] Setting up bn4a_branch1
I0308 14:37:33.390045 27860 net.cpp:157] Top shape: 2 256 19 32 (311296)
I0308 14:37:33.390048 27860 net.cpp:165] Memory required for data: 331217504
I0308 14:37:33.390058 27860 layer_factory.hpp:77] Creating layer scale4a_branch1
I0308 14:37:33.390069 27860 net.cpp:100] Creating Layer scale4a_branch1
I0308 14:37:33.390084 27860 net.cpp:434] scale4a_branch1 <- res4a_branch1
I0308 14:37:33.390097 27860 net.cpp:395] scale4a_branch1 -> res4a_branch1 (in-place)
I0308 14:37:33.390154 27860 layer_factory.hpp:77] Creating layer scale4a_branch1
I0308 14:37:33.390247 27860 net.cpp:150] Setting up scale4a_branch1
I0308 14:37:33.390254 27860 net.cpp:157] Top shape: 2 256 19 32 (311296)
I0308 14:37:33.390256 27860 net.cpp:165] Memory required for data: 332462688
I0308 14:37:33.390261 27860 layer_factory.hpp:77] Creating layer res4a_branch2a
I0308 14:37:33.390271 27860 net.cpp:100] Creating Layer res4a_branch2a
I0308 14:37:33.390276 27860 net.cpp:434] res4a_branch2a <- res3b1_res3b1_relu_0_split_1
I0308 14:37:33.390283 27860 net.cpp:408] res4a_branch2a -> res4a_branch2a
I0308 14:37:33.393909 27860 net.cpp:150] Setting up res4a_branch2a
I0308 14:37:33.393924 27860 net.cpp:157] Top shape: 2 256 19 32 (311296)
I0308 14:37:33.393926 27860 net.cpp:165] Memory required for data: 333707872
I0308 14:37:33.393934 27860 layer_factory.hpp:77] Creating layer bn4a_branch2a
I0308 14:37:33.393942 27860 net.cpp:100] Creating Layer bn4a_branch2a
I0308 14:37:33.393949 27860 net.cpp:434] bn4a_branch2a <- res4a_branch2a
I0308 14:37:33.393955 27860 net.cpp:395] bn4a_branch2a -> res4a_branch2a (in-place)
I0308 14:37:33.394090 27860 net.cpp:150] Setting up bn4a_branch2a
I0308 14:37:33.394095 27860 net.cpp:157] Top shape: 2 256 19 32 (311296)
I0308 14:37:33.394096 27860 net.cpp:165] Memory required for data: 334953056
I0308 14:37:33.394101 27860 layer_factory.hpp:77] Creating layer scale4a_branch2a
I0308 14:37:33.394105 27860 net.cpp:100] Creating Layer scale4a_branch2a
I0308 14:37:33.394107 27860 net.cpp:434] scale4a_branch2a <- res4a_branch2a
I0308 14:37:33.394110 27860 net.cpp:395] scale4a_branch2a -> res4a_branch2a (in-place)
I0308 14:37:33.394143 27860 layer_factory.hpp:77] Creating layer scale4a_branch2a
I0308 14:37:33.394222 27860 net.cpp:150] Setting up scale4a_branch2a
I0308 14:37:33.394227 27860 net.cpp:157] Top shape: 2 256 19 32 (311296)
I0308 14:37:33.394228 27860 net.cpp:165] Memory required for data: 336198240
I0308 14:37:33.394232 27860 layer_factory.hpp:77] Creating layer res4a_branch2a_relu
I0308 14:37:33.394242 27860 net.cpp:100] Creating Layer res4a_branch2a_relu
I0308 14:37:33.394243 27860 net.cpp:434] res4a_branch2a_relu <- res4a_branch2a
I0308 14:37:33.394246 27860 net.cpp:395] res4a_branch2a_relu -> res4a_branch2a (in-place)
I0308 14:37:33.394574 27860 net.cpp:150] Setting up res4a_branch2a_relu
I0308 14:37:33.394582 27860 net.cpp:157] Top shape: 2 256 19 32 (311296)
I0308 14:37:33.394582 27860 net.cpp:165] Memory required for data: 337443424
I0308 14:37:33.394585 27860 layer_factory.hpp:77] Creating layer res4a_branch2b
I0308 14:37:33.394590 27860 net.cpp:100] Creating Layer res4a_branch2b
I0308 14:37:33.394593 27860 net.cpp:434] res4a_branch2b <- res4a_branch2a
I0308 14:37:33.394596 27860 net.cpp:408] res4a_branch2b -> res4a_branch2b
I0308 14:37:33.400115 27860 net.cpp:150] Setting up res4a_branch2b
I0308 14:37:33.400125 27860 net.cpp:157] Top shape: 2 256 19 32 (311296)
I0308 14:37:33.400127 27860 net.cpp:165] Memory required for data: 338688608
I0308 14:37:33.400143 27860 layer_factory.hpp:77] Creating layer bn4a_branch2b
I0308 14:37:33.400151 27860 net.cpp:100] Creating Layer bn4a_branch2b
I0308 14:37:33.400153 27860 net.cpp:434] bn4a_branch2b <- res4a_branch2b
I0308 14:37:33.400157 27860 net.cpp:395] bn4a_branch2b -> res4a_branch2b (in-place)
I0308 14:37:33.400300 27860 net.cpp:150] Setting up bn4a_branch2b
I0308 14:37:33.400305 27860 net.cpp:157] Top shape: 2 256 19 32 (311296)
I0308 14:37:33.400306 27860 net.cpp:165] Memory required for data: 339933792
I0308 14:37:33.400310 27860 layer_factory.hpp:77] Creating layer scale4a_branch2b
I0308 14:37:33.400315 27860 net.cpp:100] Creating Layer scale4a_branch2b
I0308 14:37:33.400316 27860 net.cpp:434] scale4a_branch2b <- res4a_branch2b
I0308 14:37:33.400321 27860 net.cpp:395] scale4a_branch2b -> res4a_branch2b (in-place)
I0308 14:37:33.400347 27860 layer_factory.hpp:77] Creating layer scale4a_branch2b
I0308 14:37:33.400431 27860 net.cpp:150] Setting up scale4a_branch2b
I0308 14:37:33.400436 27860 net.cpp:157] Top shape: 2 256 19 32 (311296)
I0308 14:37:33.400439 27860 net.cpp:165] Memory required for data: 341178976
I0308 14:37:33.400441 27860 layer_factory.hpp:77] Creating layer res4a_branch2b_relu
I0308 14:37:33.400444 27860 net.cpp:100] Creating Layer res4a_branch2b_relu
I0308 14:37:33.400446 27860 net.cpp:434] res4a_branch2b_relu <- res4a_branch2b
I0308 14:37:33.400449 27860 net.cpp:395] res4a_branch2b_relu -> res4a_branch2b (in-place)
I0308 14:37:33.400784 27860 net.cpp:150] Setting up res4a_branch2b_relu
I0308 14:37:33.400789 27860 net.cpp:157] Top shape: 2 256 19 32 (311296)
I0308 14:37:33.400791 27860 net.cpp:165] Memory required for data: 342424160
I0308 14:37:33.400794 27860 layer_factory.hpp:77] Creating layer res4a
I0308 14:37:33.400797 27860 net.cpp:100] Creating Layer res4a
I0308 14:37:33.400799 27860 net.cpp:434] res4a <- res4a_branch1
I0308 14:37:33.400801 27860 net.cpp:434] res4a <- res4a_branch2b
I0308 14:37:33.400805 27860 net.cpp:408] res4a -> res4a
I0308 14:37:33.400825 27860 net.cpp:150] Setting up res4a
I0308 14:37:33.400827 27860 net.cpp:157] Top shape: 2 256 19 32 (311296)
I0308 14:37:33.400830 27860 net.cpp:165] Memory required for data: 343669344
I0308 14:37:33.400831 27860 layer_factory.hpp:77] Creating layer res4a_relu
I0308 14:37:33.400833 27860 net.cpp:100] Creating Layer res4a_relu
I0308 14:37:33.400836 27860 net.cpp:434] res4a_relu <- res4a
I0308 14:37:33.400841 27860 net.cpp:395] res4a_relu -> res4a (in-place)
I0308 14:37:33.401177 27860 net.cpp:150] Setting up res4a_relu
I0308 14:37:33.401183 27860 net.cpp:157] Top shape: 2 256 19 32 (311296)
I0308 14:37:33.401185 27860 net.cpp:165] Memory required for data: 344914528
I0308 14:37:33.401186 27860 layer_factory.hpp:77] Creating layer res4a_res4a_relu_0_split
I0308 14:37:33.401190 27860 net.cpp:100] Creating Layer res4a_res4a_relu_0_split
I0308 14:37:33.401192 27860 net.cpp:434] res4a_res4a_relu_0_split <- res4a
I0308 14:37:33.401196 27860 net.cpp:408] res4a_res4a_relu_0_split -> res4a_res4a_relu_0_split_0
I0308 14:37:33.401199 27860 net.cpp:408] res4a_res4a_relu_0_split -> res4a_res4a_relu_0_split_1
I0308 14:37:33.401227 27860 net.cpp:150] Setting up res4a_res4a_relu_0_split
I0308 14:37:33.401232 27860 net.cpp:157] Top shape: 2 256 19 32 (311296)
I0308 14:37:33.401237 27860 net.cpp:157] Top shape: 2 256 19 32 (311296)
I0308 14:37:33.401238 27860 net.cpp:165] Memory required for data: 347404896
I0308 14:37:33.401242 27860 layer_factory.hpp:77] Creating layer res4b1_branch2a
I0308 14:37:33.401248 27860 net.cpp:100] Creating Layer res4b1_branch2a
I0308 14:37:33.401250 27860 net.cpp:434] res4b1_branch2a <- res4a_res4a_relu_0_split_0
I0308 14:37:33.401255 27860 net.cpp:408] res4b1_branch2a -> res4b1_branch2a
I0308 14:37:33.406924 27860 net.cpp:150] Setting up res4b1_branch2a
I0308 14:37:33.406934 27860 net.cpp:157] Top shape: 2 256 19 32 (311296)
I0308 14:37:33.406935 27860 net.cpp:165] Memory required for data: 348650080
I0308 14:37:33.406940 27860 layer_factory.hpp:77] Creating layer bn4b1_branch2a
I0308 14:37:33.406945 27860 net.cpp:100] Creating Layer bn4b1_branch2a
I0308 14:37:33.406957 27860 net.cpp:434] bn4b1_branch2a <- res4b1_branch2a
I0308 14:37:33.406961 27860 net.cpp:395] bn4b1_branch2a -> res4b1_branch2a (in-place)
I0308 14:37:33.407101 27860 net.cpp:150] Setting up bn4b1_branch2a
I0308 14:37:33.407107 27860 net.cpp:157] Top shape: 2 256 19 32 (311296)
I0308 14:37:33.407109 27860 net.cpp:165] Memory required for data: 349895264
I0308 14:37:33.407114 27860 layer_factory.hpp:77] Creating layer scale4b1_branch2a
I0308 14:37:33.407117 27860 net.cpp:100] Creating Layer scale4b1_branch2a
I0308 14:37:33.407119 27860 net.cpp:434] scale4b1_branch2a <- res4b1_branch2a
I0308 14:37:33.407122 27860 net.cpp:395] scale4b1_branch2a -> res4b1_branch2a (in-place)
I0308 14:37:33.407156 27860 layer_factory.hpp:77] Creating layer scale4b1_branch2a
I0308 14:37:33.407236 27860 net.cpp:150] Setting up scale4b1_branch2a
I0308 14:37:33.407241 27860 net.cpp:157] Top shape: 2 256 19 32 (311296)
I0308 14:37:33.407243 27860 net.cpp:165] Memory required for data: 351140448
I0308 14:37:33.407246 27860 layer_factory.hpp:77] Creating layer res4b1_branch2a_relu
I0308 14:37:33.407249 27860 net.cpp:100] Creating Layer res4b1_branch2a_relu
I0308 14:37:33.407251 27860 net.cpp:434] res4b1_branch2a_relu <- res4b1_branch2a
I0308 14:37:33.407254 27860 net.cpp:395] res4b1_branch2a_relu -> res4b1_branch2a (in-place)
I0308 14:37:33.407588 27860 net.cpp:150] Setting up res4b1_branch2a_relu
I0308 14:37:33.407596 27860 net.cpp:157] Top shape: 2 256 19 32 (311296)
I0308 14:37:33.407598 27860 net.cpp:165] Memory required for data: 352385632
I0308 14:37:33.407603 27860 layer_factory.hpp:77] Creating layer res4b1_branch2b
I0308 14:37:33.407610 27860 net.cpp:100] Creating Layer res4b1_branch2b
I0308 14:37:33.407614 27860 net.cpp:434] res4b1_branch2b <- res4b1_branch2a
I0308 14:37:33.407620 27860 net.cpp:408] res4b1_branch2b -> res4b1_branch2b
I0308 14:37:33.412974 27860 net.cpp:150] Setting up res4b1_branch2b
I0308 14:37:33.412984 27860 net.cpp:157] Top shape: 2 256 19 32 (311296)
I0308 14:37:33.412986 27860 net.cpp:165] Memory required for data: 353630816
I0308 14:37:33.412992 27860 layer_factory.hpp:77] Creating layer bn4b1_branch2b
I0308 14:37:33.412997 27860 net.cpp:100] Creating Layer bn4b1_branch2b
I0308 14:37:33.412999 27860 net.cpp:434] bn4b1_branch2b <- res4b1_branch2b
I0308 14:37:33.413003 27860 net.cpp:395] bn4b1_branch2b -> res4b1_branch2b (in-place)
I0308 14:37:33.413148 27860 net.cpp:150] Setting up bn4b1_branch2b
I0308 14:37:33.413153 27860 net.cpp:157] Top shape: 2 256 19 32 (311296)
I0308 14:37:33.413156 27860 net.cpp:165] Memory required for data: 354876000
I0308 14:37:33.413159 27860 layer_factory.hpp:77] Creating layer scale4b1_branch2b
I0308 14:37:33.413163 27860 net.cpp:100] Creating Layer scale4b1_branch2b
I0308 14:37:33.413166 27860 net.cpp:434] scale4b1_branch2b <- res4b1_branch2b
I0308 14:37:33.413169 27860 net.cpp:395] scale4b1_branch2b -> res4b1_branch2b (in-place)
I0308 14:37:33.413203 27860 layer_factory.hpp:77] Creating layer scale4b1_branch2b
I0308 14:37:33.413282 27860 net.cpp:150] Setting up scale4b1_branch2b
I0308 14:37:33.413287 27860 net.cpp:157] Top shape: 2 256 19 32 (311296)
I0308 14:37:33.413290 27860 net.cpp:165] Memory required for data: 356121184
I0308 14:37:33.413292 27860 layer_factory.hpp:77] Creating layer res4b1_branch2b_relu
I0308 14:37:33.413295 27860 net.cpp:100] Creating Layer res4b1_branch2b_relu
I0308 14:37:33.413298 27860 net.cpp:434] res4b1_branch2b_relu <- res4b1_branch2b
I0308 14:37:33.413300 27860 net.cpp:395] res4b1_branch2b_relu -> res4b1_branch2b (in-place)
I0308 14:37:33.413863 27860 net.cpp:150] Setting up res4b1_branch2b_relu
I0308 14:37:33.413870 27860 net.cpp:157] Top shape: 2 256 19 32 (311296)
I0308 14:37:33.413873 27860 net.cpp:165] Memory required for data: 357366368
I0308 14:37:33.413877 27860 layer_factory.hpp:77] Creating layer res4b1
I0308 14:37:33.413882 27860 net.cpp:100] Creating Layer res4b1
I0308 14:37:33.413887 27860 net.cpp:434] res4b1 <- res4a_res4a_relu_0_split_1
I0308 14:37:33.413890 27860 net.cpp:434] res4b1 <- res4b1_branch2b
I0308 14:37:33.413908 27860 net.cpp:408] res4b1 -> res4b1
I0308 14:37:33.413928 27860 net.cpp:150] Setting up res4b1
I0308 14:37:33.413931 27860 net.cpp:157] Top shape: 2 256 19 32 (311296)
I0308 14:37:33.413933 27860 net.cpp:165] Memory required for data: 358611552
I0308 14:37:33.413935 27860 layer_factory.hpp:77] Creating layer res4b1_relu
I0308 14:37:33.413939 27860 net.cpp:100] Creating Layer res4b1_relu
I0308 14:37:33.413944 27860 net.cpp:434] res4b1_relu <- res4b1
I0308 14:37:33.413949 27860 net.cpp:395] res4b1_relu -> res4b1 (in-place)
I0308 14:37:33.414278 27860 net.cpp:150] Setting up res4b1_relu
I0308 14:37:33.414285 27860 net.cpp:157] Top shape: 2 256 19 32 (311296)
I0308 14:37:33.414288 27860 net.cpp:165] Memory required for data: 359856736
I0308 14:37:33.414292 27860 layer_factory.hpp:77] Creating layer res4b1_res4b1_relu_0_split
I0308 14:37:33.414297 27860 net.cpp:100] Creating Layer res4b1_res4b1_relu_0_split
I0308 14:37:33.414301 27860 net.cpp:434] res4b1_res4b1_relu_0_split <- res4b1
I0308 14:37:33.414306 27860 net.cpp:408] res4b1_res4b1_relu_0_split -> res4b1_res4b1_relu_0_split_0
I0308 14:37:33.414314 27860 net.cpp:408] res4b1_res4b1_relu_0_split -> res4b1_res4b1_relu_0_split_1
I0308 14:37:33.414348 27860 net.cpp:150] Setting up res4b1_res4b1_relu_0_split
I0308 14:37:33.414353 27860 net.cpp:157] Top shape: 2 256 19 32 (311296)
I0308 14:37:33.414357 27860 net.cpp:157] Top shape: 2 256 19 32 (311296)
I0308 14:37:33.414361 27860 net.cpp:165] Memory required for data: 362347104
I0308 14:37:33.414364 27860 layer_factory.hpp:77] Creating layer res5a_branch1
I0308 14:37:33.414373 27860 net.cpp:100] Creating Layer res5a_branch1
I0308 14:37:33.414378 27860 net.cpp:434] res5a_branch1 <- res4b1_res4b1_relu_0_split_0
I0308 14:37:33.414383 27860 net.cpp:408] res5a_branch1 -> res5a_branch1
I0308 14:37:33.416435 27860 net.cpp:150] Setting up res5a_branch1
I0308 14:37:33.416442 27860 net.cpp:157] Top shape: 2 512 19 32 (622592)
I0308 14:37:33.416446 27860 net.cpp:165] Memory required for data: 364837472
I0308 14:37:33.416452 27860 layer_factory.hpp:77] Creating layer bn5a_branch1
I0308 14:37:33.416460 27860 net.cpp:100] Creating Layer bn5a_branch1
I0308 14:37:33.416463 27860 net.cpp:434] bn5a_branch1 <- res5a_branch1
I0308 14:37:33.416468 27860 net.cpp:395] bn5a_branch1 -> res5a_branch1 (in-place)
I0308 14:37:33.416646 27860 net.cpp:150] Setting up bn5a_branch1
I0308 14:37:33.416651 27860 net.cpp:157] Top shape: 2 512 19 32 (622592)
I0308 14:37:33.416654 27860 net.cpp:165] Memory required for data: 367327840
I0308 14:37:33.416661 27860 layer_factory.hpp:77] Creating layer scale5a_branch1
I0308 14:37:33.416667 27860 net.cpp:100] Creating Layer scale5a_branch1
I0308 14:37:33.416671 27860 net.cpp:434] scale5a_branch1 <- res5a_branch1
I0308 14:37:33.416676 27860 net.cpp:395] scale5a_branch1 -> res5a_branch1 (in-place)
I0308 14:37:33.416712 27860 layer_factory.hpp:77] Creating layer scale5a_branch1
I0308 14:37:33.416808 27860 net.cpp:150] Setting up scale5a_branch1
I0308 14:37:33.416815 27860 net.cpp:157] Top shape: 2 512 19 32 (622592)
I0308 14:37:33.416818 27860 net.cpp:165] Memory required for data: 369818208
I0308 14:37:33.416824 27860 layer_factory.hpp:77] Creating layer res5a_branch2a
I0308 14:37:33.416831 27860 net.cpp:100] Creating Layer res5a_branch2a
I0308 14:37:33.416834 27860 net.cpp:434] res5a_branch2a <- res4b1_res4b1_relu_0_split_1
I0308 14:37:33.416841 27860 net.cpp:408] res5a_branch2a -> res5a_branch2a
I0308 14:37:33.426455 27860 net.cpp:150] Setting up res5a_branch2a
I0308 14:37:33.426470 27860 net.cpp:157] Top shape: 2 512 19 32 (622592)
I0308 14:37:33.426472 27860 net.cpp:165] Memory required for data: 372308576
I0308 14:37:33.426479 27860 layer_factory.hpp:77] Creating layer bn5a_branch2a
I0308 14:37:33.426488 27860 net.cpp:100] Creating Layer bn5a_branch2a
I0308 14:37:33.426493 27860 net.cpp:434] bn5a_branch2a <- res5a_branch2a
I0308 14:37:33.426498 27860 net.cpp:395] bn5a_branch2a -> res5a_branch2a (in-place)
I0308 14:37:33.426640 27860 net.cpp:150] Setting up bn5a_branch2a
I0308 14:37:33.426654 27860 net.cpp:157] Top shape: 2 512 19 32 (622592)
I0308 14:37:33.426656 27860 net.cpp:165] Memory required for data: 374798944
I0308 14:37:33.426661 27860 layer_factory.hpp:77] Creating layer scale5a_branch2a
I0308 14:37:33.426666 27860 net.cpp:100] Creating Layer scale5a_branch2a
I0308 14:37:33.426667 27860 net.cpp:434] scale5a_branch2a <- res5a_branch2a
I0308 14:37:33.426671 27860 net.cpp:395] scale5a_branch2a -> res5a_branch2a (in-place)
I0308 14:37:33.426699 27860 layer_factory.hpp:77] Creating layer scale5a_branch2a
I0308 14:37:33.426785 27860 net.cpp:150] Setting up scale5a_branch2a
I0308 14:37:33.426790 27860 net.cpp:157] Top shape: 2 512 19 32 (622592)
I0308 14:37:33.426791 27860 net.cpp:165] Memory required for data: 377289312
I0308 14:37:33.426795 27860 layer_factory.hpp:77] Creating layer res5a_branch2a_relu
I0308 14:37:33.426798 27860 net.cpp:100] Creating Layer res5a_branch2a_relu
I0308 14:37:33.426800 27860 net.cpp:434] res5a_branch2a_relu <- res5a_branch2a
I0308 14:37:33.426803 27860 net.cpp:395] res5a_branch2a_relu -> res5a_branch2a (in-place)
I0308 14:37:33.427134 27860 net.cpp:150] Setting up res5a_branch2a_relu
I0308 14:37:33.427141 27860 net.cpp:157] Top shape: 2 512 19 32 (622592)
I0308 14:37:33.427143 27860 net.cpp:165] Memory required for data: 379779680
I0308 14:37:33.427145 27860 layer_factory.hpp:77] Creating layer res5a_branch2b
I0308 14:37:33.427151 27860 net.cpp:100] Creating Layer res5a_branch2b
I0308 14:37:33.427153 27860 net.cpp:434] res5a_branch2b <- res5a_branch2a
I0308 14:37:33.427157 27860 net.cpp:408] res5a_branch2b -> res5a_branch2b
I0308 14:37:33.442085 27860 net.cpp:150] Setting up res5a_branch2b
I0308 14:37:33.442108 27860 net.cpp:157] Top shape: 2 512 19 32 (622592)
I0308 14:37:33.442111 27860 net.cpp:165] Memory required for data: 382270048
I0308 14:37:33.442118 27860 layer_factory.hpp:77] Creating layer bn5a_branch2b
I0308 14:37:33.442127 27860 net.cpp:100] Creating Layer bn5a_branch2b
I0308 14:37:33.442131 27860 net.cpp:434] bn5a_branch2b <- res5a_branch2b
I0308 14:37:33.442137 27860 net.cpp:395] bn5a_branch2b -> res5a_branch2b (in-place)
I0308 14:37:33.442317 27860 net.cpp:150] Setting up bn5a_branch2b
I0308 14:37:33.442322 27860 net.cpp:157] Top shape: 2 512 19 32 (622592)
I0308 14:37:33.442324 27860 net.cpp:165] Memory required for data: 384760416
I0308 14:37:33.442329 27860 layer_factory.hpp:77] Creating layer scale5a_branch2b
I0308 14:37:33.442337 27860 net.cpp:100] Creating Layer scale5a_branch2b
I0308 14:37:33.442338 27860 net.cpp:434] scale5a_branch2b <- res5a_branch2b
I0308 14:37:33.442340 27860 net.cpp:395] scale5a_branch2b -> res5a_branch2b (in-place)
I0308 14:37:33.442374 27860 layer_factory.hpp:77] Creating layer scale5a_branch2b
I0308 14:37:33.442462 27860 net.cpp:150] Setting up scale5a_branch2b
I0308 14:37:33.442467 27860 net.cpp:157] Top shape: 2 512 19 32 (622592)
I0308 14:37:33.442469 27860 net.cpp:165] Memory required for data: 387250784
I0308 14:37:33.442472 27860 layer_factory.hpp:77] Creating layer res5a_branch2b_relu
I0308 14:37:33.442476 27860 net.cpp:100] Creating Layer res5a_branch2b_relu
I0308 14:37:33.442479 27860 net.cpp:434] res5a_branch2b_relu <- res5a_branch2b
I0308 14:37:33.442482 27860 net.cpp:395] res5a_branch2b_relu -> res5a_branch2b (in-place)
I0308 14:37:33.443189 27860 net.cpp:150] Setting up res5a_branch2b_relu
I0308 14:37:33.443198 27860 net.cpp:157] Top shape: 2 512 19 32 (622592)
I0308 14:37:33.443200 27860 net.cpp:165] Memory required for data: 389741152
I0308 14:37:33.443202 27860 layer_factory.hpp:77] Creating layer res5a
I0308 14:37:33.443207 27860 net.cpp:100] Creating Layer res5a
I0308 14:37:33.443210 27860 net.cpp:434] res5a <- res5a_branch1
I0308 14:37:33.443212 27860 net.cpp:434] res5a <- res5a_branch2b
I0308 14:37:33.443215 27860 net.cpp:408] res5a -> res5a
I0308 14:37:33.443238 27860 net.cpp:150] Setting up res5a
I0308 14:37:33.443243 27860 net.cpp:157] Top shape: 2 512 19 32 (622592)
I0308 14:37:33.443243 27860 net.cpp:165] Memory required for data: 392231520
I0308 14:37:33.443245 27860 layer_factory.hpp:77] Creating layer res5a_relu
I0308 14:37:33.443260 27860 net.cpp:100] Creating Layer res5a_relu
I0308 14:37:33.443264 27860 net.cpp:434] res5a_relu <- res5a
I0308 14:37:33.443269 27860 net.cpp:395] res5a_relu -> res5a (in-place)
I0308 14:37:33.443631 27860 net.cpp:150] Setting up res5a_relu
I0308 14:37:33.443639 27860 net.cpp:157] Top shape: 2 512 19 32 (622592)
I0308 14:37:33.443640 27860 net.cpp:165] Memory required for data: 394721888
I0308 14:37:33.443642 27860 layer_factory.hpp:77] Creating layer res5a_res5a_relu_0_split
I0308 14:37:33.443647 27860 net.cpp:100] Creating Layer res5a_res5a_relu_0_split
I0308 14:37:33.443650 27860 net.cpp:434] res5a_res5a_relu_0_split <- res5a
I0308 14:37:33.443652 27860 net.cpp:408] res5a_res5a_relu_0_split -> res5a_res5a_relu_0_split_0
I0308 14:37:33.443656 27860 net.cpp:408] res5a_res5a_relu_0_split -> res5a_res5a_relu_0_split_1
I0308 14:37:33.443684 27860 net.cpp:150] Setting up res5a_res5a_relu_0_split
I0308 14:37:33.443688 27860 net.cpp:157] Top shape: 2 512 19 32 (622592)
I0308 14:37:33.443692 27860 net.cpp:157] Top shape: 2 512 19 32 (622592)
I0308 14:37:33.443694 27860 net.cpp:165] Memory required for data: 399702624
I0308 14:37:33.443696 27860 layer_factory.hpp:77] Creating layer res5b_branch2a
I0308 14:37:33.443706 27860 net.cpp:100] Creating Layer res5b_branch2a
I0308 14:37:33.443708 27860 net.cpp:434] res5b_branch2a <- res5a_res5a_relu_0_split_0
I0308 14:37:33.443713 27860 net.cpp:408] res5b_branch2a -> res5b_branch2a
I0308 14:37:33.460332 27860 net.cpp:150] Setting up res5b_branch2a
I0308 14:37:33.460346 27860 net.cpp:157] Top shape: 2 512 19 32 (622592)
I0308 14:37:33.460348 27860 net.cpp:165] Memory required for data: 402192992
I0308 14:37:33.460355 27860 layer_factory.hpp:77] Creating layer bn5b_branch2a
I0308 14:37:33.460361 27860 net.cpp:100] Creating Layer bn5b_branch2a
I0308 14:37:33.460364 27860 net.cpp:434] bn5b_branch2a <- res5b_branch2a
I0308 14:37:33.460368 27860 net.cpp:395] bn5b_branch2a -> res5b_branch2a (in-place)
I0308 14:37:33.460520 27860 net.cpp:150] Setting up bn5b_branch2a
I0308 14:37:33.460525 27860 net.cpp:157] Top shape: 2 512 19 32 (622592)
I0308 14:37:33.460526 27860 net.cpp:165] Memory required for data: 404683360
I0308 14:37:33.460531 27860 layer_factory.hpp:77] Creating layer scale5b_branch2a
I0308 14:37:33.460536 27860 net.cpp:100] Creating Layer scale5b_branch2a
I0308 14:37:33.460537 27860 net.cpp:434] scale5b_branch2a <- res5b_branch2a
I0308 14:37:33.460541 27860 net.cpp:395] scale5b_branch2a -> res5b_branch2a (in-place)
I0308 14:37:33.460570 27860 layer_factory.hpp:77] Creating layer scale5b_branch2a
I0308 14:37:33.460654 27860 net.cpp:150] Setting up scale5b_branch2a
I0308 14:37:33.460659 27860 net.cpp:157] Top shape: 2 512 19 32 (622592)
I0308 14:37:33.460661 27860 net.cpp:165] Memory required for data: 407173728
I0308 14:37:33.460664 27860 layer_factory.hpp:77] Creating layer res5b_branch2a_relu
I0308 14:37:33.460667 27860 net.cpp:100] Creating Layer res5b_branch2a_relu
I0308 14:37:33.460669 27860 net.cpp:434] res5b_branch2a_relu <- res5b_branch2a
I0308 14:37:33.460674 27860 net.cpp:395] res5b_branch2a_relu -> res5b_branch2a (in-place)
I0308 14:37:33.461213 27860 net.cpp:150] Setting up res5b_branch2a_relu
I0308 14:37:33.461220 27860 net.cpp:157] Top shape: 2 512 19 32 (622592)
I0308 14:37:33.461222 27860 net.cpp:165] Memory required for data: 409664096
I0308 14:37:33.461225 27860 layer_factory.hpp:77] Creating layer res5b_branch2b
I0308 14:37:33.461230 27860 net.cpp:100] Creating Layer res5b_branch2b
I0308 14:37:33.461233 27860 net.cpp:434] res5b_branch2b <- res5b_branch2a
I0308 14:37:33.461237 27860 net.cpp:408] res5b_branch2b -> res5b_branch2b
I0308 14:37:33.476125 27860 net.cpp:150] Setting up res5b_branch2b
I0308 14:37:33.476141 27860 net.cpp:157] Top shape: 2 512 19 32 (622592)
I0308 14:37:33.476143 27860 net.cpp:165] Memory required for data: 412154464
I0308 14:37:33.476150 27860 layer_factory.hpp:77] Creating layer bn5b_branch2b
I0308 14:37:33.476156 27860 net.cpp:100] Creating Layer bn5b_branch2b
I0308 14:37:33.476177 27860 net.cpp:434] bn5b_branch2b <- res5b_branch2b
I0308 14:37:33.476183 27860 net.cpp:395] bn5b_branch2b -> res5b_branch2b (in-place)
I0308 14:37:33.476338 27860 net.cpp:150] Setting up bn5b_branch2b
I0308 14:37:33.476342 27860 net.cpp:157] Top shape: 2 512 19 32 (622592)
I0308 14:37:33.476346 27860 net.cpp:165] Memory required for data: 414644832
I0308 14:37:33.476349 27860 layer_factory.hpp:77] Creating layer scale5b_branch2b
I0308 14:37:33.476354 27860 net.cpp:100] Creating Layer scale5b_branch2b
I0308 14:37:33.476356 27860 net.cpp:434] scale5b_branch2b <- res5b_branch2b
I0308 14:37:33.476359 27860 net.cpp:395] scale5b_branch2b -> res5b_branch2b (in-place)
I0308 14:37:33.476393 27860 layer_factory.hpp:77] Creating layer scale5b_branch2b
I0308 14:37:33.476475 27860 net.cpp:150] Setting up scale5b_branch2b
I0308 14:37:33.476480 27860 net.cpp:157] Top shape: 2 512 19 32 (622592)
I0308 14:37:33.476482 27860 net.cpp:165] Memory required for data: 417135200
I0308 14:37:33.476485 27860 layer_factory.hpp:77] Creating layer res5b_branch2b_relu
I0308 14:37:33.476488 27860 net.cpp:100] Creating Layer res5b_branch2b_relu
I0308 14:37:33.476490 27860 net.cpp:434] res5b_branch2b_relu <- res5b_branch2b
I0308 14:37:33.476493 27860 net.cpp:395] res5b_branch2b_relu -> res5b_branch2b (in-place)
I0308 14:37:33.476877 27860 net.cpp:150] Setting up res5b_branch2b_relu
I0308 14:37:33.476883 27860 net.cpp:157] Top shape: 2 512 19 32 (622592)
I0308 14:37:33.476884 27860 net.cpp:165] Memory required for data: 419625568
I0308 14:37:33.476887 27860 layer_factory.hpp:77] Creating layer res5b
I0308 14:37:33.476891 27860 net.cpp:100] Creating Layer res5b
I0308 14:37:33.476893 27860 net.cpp:434] res5b <- res5a_res5a_relu_0_split_1
I0308 14:37:33.476897 27860 net.cpp:434] res5b <- res5b_branch2b
I0308 14:37:33.476899 27860 net.cpp:408] res5b -> res5b
I0308 14:37:33.476917 27860 net.cpp:150] Setting up res5b
I0308 14:37:33.476922 27860 net.cpp:157] Top shape: 2 512 19 32 (622592)
I0308 14:37:33.476922 27860 net.cpp:165] Memory required for data: 422115936
I0308 14:37:33.476925 27860 layer_factory.hpp:77] Creating layer res5b_relu
I0308 14:37:33.476927 27860 net.cpp:100] Creating Layer res5b_relu
I0308 14:37:33.476929 27860 net.cpp:434] res5b_relu <- res5b
I0308 14:37:33.476933 27860 net.cpp:395] res5b_relu -> res5b (in-place)
I0308 14:37:33.477279 27860 net.cpp:150] Setting up res5b_relu
I0308 14:37:33.477284 27860 net.cpp:157] Top shape: 2 512 19 32 (622592)
I0308 14:37:33.477286 27860 net.cpp:165] Memory required for data: 424606304
I0308 14:37:33.477288 27860 layer_factory.hpp:77] Creating layer res5b_res5b_relu_0_split
I0308 14:37:33.477293 27860 net.cpp:100] Creating Layer res5b_res5b_relu_0_split
I0308 14:37:33.477295 27860 net.cpp:434] res5b_res5b_relu_0_split <- res5b
I0308 14:37:33.477298 27860 net.cpp:408] res5b_res5b_relu_0_split -> res5b_res5b_relu_0_split_0
I0308 14:37:33.477303 27860 net.cpp:408] res5b_res5b_relu_0_split -> res5b_res5b_relu_0_split_1
I0308 14:37:33.477306 27860 net.cpp:408] res5b_res5b_relu_0_split -> res5b_res5b_relu_0_split_2
I0308 14:37:33.477309 27860 net.cpp:408] res5b_res5b_relu_0_split -> res5b_res5b_relu_0_split_3
I0308 14:37:33.477361 27860 net.cpp:150] Setting up res5b_res5b_relu_0_split
I0308 14:37:33.477365 27860 net.cpp:157] Top shape: 2 512 19 32 (622592)
I0308 14:37:33.477368 27860 net.cpp:157] Top shape: 2 512 19 32 (622592)
I0308 14:37:33.477370 27860 net.cpp:157] Top shape: 2 512 19 32 (622592)
I0308 14:37:33.477372 27860 net.cpp:157] Top shape: 2 512 19 32 (622592)
I0308 14:37:33.477375 27860 net.cpp:165] Memory required for data: 434567776
I0308 14:37:33.477376 27860 layer_factory.hpp:77] Creating layer res5b_relu/conv1_1
I0308 14:37:33.477382 27860 net.cpp:100] Creating Layer res5b_relu/conv1_1
I0308 14:37:33.477385 27860 net.cpp:434] res5b_relu/conv1_1 <- res5b_res5b_relu_0_split_0
I0308 14:37:33.477387 27860 net.cpp:408] res5b_relu/conv1_1 -> res5b_relu/conv1_1
I0308 14:37:33.480204 27860 net.cpp:150] Setting up res5b_relu/conv1_1
I0308 14:37:33.480212 27860 net.cpp:157] Top shape: 2 256 19 32 (311296)
I0308 14:37:33.480221 27860 net.cpp:165] Memory required for data: 435812960
I0308 14:37:33.480226 27860 layer_factory.hpp:77] Creating layer res5b_relu/conv1_1_bn
I0308 14:37:33.480232 27860 net.cpp:100] Creating Layer res5b_relu/conv1_1_bn
I0308 14:37:33.480233 27860 net.cpp:434] res5b_relu/conv1_1_bn <- res5b_relu/conv1_1
I0308 14:37:33.480237 27860 net.cpp:395] res5b_relu/conv1_1_bn -> res5b_relu/conv1_1 (in-place)
I0308 14:37:33.480383 27860 net.cpp:150] Setting up res5b_relu/conv1_1_bn
I0308 14:37:33.480388 27860 net.cpp:157] Top shape: 2 256 19 32 (311296)
I0308 14:37:33.480391 27860 net.cpp:165] Memory required for data: 437058144
I0308 14:37:33.480402 27860 layer_factory.hpp:77] Creating layer res5b_relu/conv1_1_scale
I0308 14:37:33.480407 27860 net.cpp:100] Creating Layer res5b_relu/conv1_1_scale
I0308 14:37:33.480409 27860 net.cpp:434] res5b_relu/conv1_1_scale <- res5b_relu/conv1_1
I0308 14:37:33.480412 27860 net.cpp:395] res5b_relu/conv1_1_scale -> res5b_relu/conv1_1 (in-place)
I0308 14:37:33.480442 27860 layer_factory.hpp:77] Creating layer res5b_relu/conv1_1_scale
I0308 14:37:33.480530 27860 net.cpp:150] Setting up res5b_relu/conv1_1_scale
I0308 14:37:33.480535 27860 net.cpp:157] Top shape: 2 256 19 32 (311296)
I0308 14:37:33.480536 27860 net.cpp:165] Memory required for data: 438303328
I0308 14:37:33.480540 27860 layer_factory.hpp:77] Creating layer res5b_relu/conv1_1_relu
I0308 14:37:33.480543 27860 net.cpp:100] Creating Layer res5b_relu/conv1_1_relu
I0308 14:37:33.480545 27860 net.cpp:434] res5b_relu/conv1_1_relu <- res5b_relu/conv1_1
I0308 14:37:33.480548 27860 net.cpp:395] res5b_relu/conv1_1_relu -> res5b_relu/conv1_1 (in-place)
I0308 14:37:33.480890 27860 net.cpp:150] Setting up res5b_relu/conv1_1_relu
I0308 14:37:33.480896 27860 net.cpp:157] Top shape: 2 256 19 32 (311296)
I0308 14:37:33.480898 27860 net.cpp:165] Memory required for data: 439548512
I0308 14:37:33.480901 27860 layer_factory.hpp:77] Creating layer res5b_relu/conv1_2
I0308 14:37:33.480904 27860 net.cpp:100] Creating Layer res5b_relu/conv1_2
I0308 14:37:33.480906 27860 net.cpp:434] res5b_relu/conv1_2 <- res5b_relu/conv1_1
I0308 14:37:33.480911 27860 net.cpp:408] res5b_relu/conv1_2 -> res5b_relu/conv1_2
I0308 14:37:33.490507 27860 net.cpp:150] Setting up res5b_relu/conv1_2
I0308 14:37:33.490522 27860 net.cpp:157] Top shape: 2 512 10 16 (163840)
I0308 14:37:33.490525 27860 net.cpp:165] Memory required for data: 440203872
I0308 14:37:33.490531 27860 layer_factory.hpp:77] Creating layer res5b_relu/conv1_2_bn
I0308 14:37:33.490537 27860 net.cpp:100] Creating Layer res5b_relu/conv1_2_bn
I0308 14:37:33.490541 27860 net.cpp:434] res5b_relu/conv1_2_bn <- res5b_relu/conv1_2
I0308 14:37:33.490545 27860 net.cpp:395] res5b_relu/conv1_2_bn -> res5b_relu/conv1_2 (in-place)
I0308 14:37:33.490706 27860 net.cpp:150] Setting up res5b_relu/conv1_2_bn
I0308 14:37:33.490712 27860 net.cpp:157] Top shape: 2 512 10 16 (163840)
I0308 14:37:33.490713 27860 net.cpp:165] Memory required for data: 440859232
I0308 14:37:33.490717 27860 layer_factory.hpp:77] Creating layer res5b_relu/conv1_2_scale
I0308 14:37:33.490722 27860 net.cpp:100] Creating Layer res5b_relu/conv1_2_scale
I0308 14:37:33.490725 27860 net.cpp:434] res5b_relu/conv1_2_scale <- res5b_relu/conv1_2
I0308 14:37:33.490727 27860 net.cpp:395] res5b_relu/conv1_2_scale -> res5b_relu/conv1_2 (in-place)
I0308 14:37:33.490756 27860 layer_factory.hpp:77] Creating layer res5b_relu/conv1_2_scale
I0308 14:37:33.490849 27860 net.cpp:150] Setting up res5b_relu/conv1_2_scale
I0308 14:37:33.490854 27860 net.cpp:157] Top shape: 2 512 10 16 (163840)
I0308 14:37:33.490855 27860 net.cpp:165] Memory required for data: 441514592
I0308 14:37:33.490859 27860 layer_factory.hpp:77] Creating layer res5b_relu/conv1_2_relu
I0308 14:37:33.490862 27860 net.cpp:100] Creating Layer res5b_relu/conv1_2_relu
I0308 14:37:33.490864 27860 net.cpp:434] res5b_relu/conv1_2_relu <- res5b_relu/conv1_2
I0308 14:37:33.490866 27860 net.cpp:395] res5b_relu/conv1_2_relu -> res5b_relu/conv1_2 (in-place)
I0308 14:37:33.491396 27860 net.cpp:150] Setting up res5b_relu/conv1_2_relu
I0308 14:37:33.491412 27860 net.cpp:157] Top shape: 2 512 10 16 (163840)
I0308 14:37:33.491415 27860 net.cpp:165] Memory required for data: 442169952
I0308 14:37:33.491416 27860 layer_factory.hpp:77] Creating layer res5b_relu/conv1_2_res5b_relu/conv1_2_relu_0_split
I0308 14:37:33.491420 27860 net.cpp:100] Creating Layer res5b_relu/conv1_2_res5b_relu/conv1_2_relu_0_split
I0308 14:37:33.491422 27860 net.cpp:434] res5b_relu/conv1_2_res5b_relu/conv1_2_relu_0_split <- res5b_relu/conv1_2
I0308 14:37:33.491426 27860 net.cpp:408] res5b_relu/conv1_2_res5b_relu/conv1_2_relu_0_split -> res5b_relu/conv1_2_res5b_relu/conv1_2_relu_0_split_0
I0308 14:37:33.491437 27860 net.cpp:408] res5b_relu/conv1_2_res5b_relu/conv1_2_relu_0_split -> res5b_relu/conv1_2_res5b_relu/conv1_2_relu_0_split_1
I0308 14:37:33.491442 27860 net.cpp:408] res5b_relu/conv1_2_res5b_relu/conv1_2_relu_0_split -> res5b_relu/conv1_2_res5b_relu/conv1_2_relu_0_split_2
I0308 14:37:33.491448 27860 net.cpp:408] res5b_relu/conv1_2_res5b_relu/conv1_2_relu_0_split -> res5b_relu/conv1_2_res5b_relu/conv1_2_relu_0_split_3
I0308 14:37:33.491506 27860 net.cpp:150] Setting up res5b_relu/conv1_2_res5b_relu/conv1_2_relu_0_split
I0308 14:37:33.491511 27860 net.cpp:157] Top shape: 2 512 10 16 (163840)
I0308 14:37:33.491513 27860 net.cpp:157] Top shape: 2 512 10 16 (163840)
I0308 14:37:33.491516 27860 net.cpp:157] Top shape: 2 512 10 16 (163840)
I0308 14:37:33.491518 27860 net.cpp:157] Top shape: 2 512 10 16 (163840)
I0308 14:37:33.491519 27860 net.cpp:165] Memory required for data: 444791392
I0308 14:37:33.491521 27860 layer_factory.hpp:77] Creating layer res5b_relu/conv2_1
I0308 14:37:33.491528 27860 net.cpp:100] Creating Layer res5b_relu/conv2_1
I0308 14:37:33.491530 27860 net.cpp:434] res5b_relu/conv2_1 <- res5b_relu/conv1_2_res5b_relu/conv1_2_relu_0_split_0
I0308 14:37:33.491534 27860 net.cpp:408] res5b_relu/conv2_1 -> res5b_relu/conv2_1
I0308 14:37:33.493602 27860 net.cpp:150] Setting up res5b_relu/conv2_1
I0308 14:37:33.493610 27860 net.cpp:157] Top shape: 2 256 10 16 (81920)
I0308 14:37:33.493613 27860 net.cpp:165] Memory required for data: 445119072
I0308 14:37:33.493616 27860 layer_factory.hpp:77] Creating layer res5b_relu/conv2_1_bn
I0308 14:37:33.493619 27860 net.cpp:100] Creating Layer res5b_relu/conv2_1_bn
I0308 14:37:33.493623 27860 net.cpp:434] res5b_relu/conv2_1_bn <- res5b_relu/conv2_1
I0308 14:37:33.493625 27860 net.cpp:395] res5b_relu/conv2_1_bn -> res5b_relu/conv2_1 (in-place)
I0308 14:37:33.493770 27860 net.cpp:150] Setting up res5b_relu/conv2_1_bn
I0308 14:37:33.493775 27860 net.cpp:157] Top shape: 2 256 10 16 (81920)
I0308 14:37:33.493777 27860 net.cpp:165] Memory required for data: 445446752
I0308 14:37:33.493782 27860 layer_factory.hpp:77] Creating layer res5b_relu/conv2_1_scale
I0308 14:37:33.493784 27860 net.cpp:100] Creating Layer res5b_relu/conv2_1_scale
I0308 14:37:33.493786 27860 net.cpp:434] res5b_relu/conv2_1_scale <- res5b_relu/conv2_1
I0308 14:37:33.493790 27860 net.cpp:395] res5b_relu/conv2_1_scale -> res5b_relu/conv2_1 (in-place)
I0308 14:37:33.493816 27860 layer_factory.hpp:77] Creating layer res5b_relu/conv2_1_scale
I0308 14:37:33.493906 27860 net.cpp:150] Setting up res5b_relu/conv2_1_scale
I0308 14:37:33.493911 27860 net.cpp:157] Top shape: 2 256 10 16 (81920)
I0308 14:37:33.493912 27860 net.cpp:165] Memory required for data: 445774432
I0308 14:37:33.493916 27860 layer_factory.hpp:77] Creating layer res5b_relu/conv2_1_relu
I0308 14:37:33.493919 27860 net.cpp:100] Creating Layer res5b_relu/conv2_1_relu
I0308 14:37:33.493921 27860 net.cpp:434] res5b_relu/conv2_1_relu <- res5b_relu/conv2_1
I0308 14:37:33.493924 27860 net.cpp:395] res5b_relu/conv2_1_relu -> res5b_relu/conv2_1 (in-place)
I0308 14:37:33.494449 27860 net.cpp:150] Setting up res5b_relu/conv2_1_relu
I0308 14:37:33.494457 27860 net.cpp:157] Top shape: 2 256 10 16 (81920)
I0308 14:37:33.494458 27860 net.cpp:165] Memory required for data: 446102112
I0308 14:37:33.494460 27860 layer_factory.hpp:77] Creating layer res5b_relu/conv2_2
I0308 14:37:33.494467 27860 net.cpp:100] Creating Layer res5b_relu/conv2_2
I0308 14:37:33.494475 27860 net.cpp:434] res5b_relu/conv2_2 <- res5b_relu/conv2_1
I0308 14:37:33.494482 27860 net.cpp:408] res5b_relu/conv2_2 -> res5b_relu/conv2_2
I0308 14:37:33.503551 27860 net.cpp:150] Setting up res5b_relu/conv2_2
I0308 14:37:33.503566 27860 net.cpp:157] Top shape: 2 512 5 8 (40960)
I0308 14:37:33.503568 27860 net.cpp:165] Memory required for data: 446265952
I0308 14:37:33.503573 27860 layer_factory.hpp:77] Creating layer res5b_relu/conv2_2_bn
I0308 14:37:33.503581 27860 net.cpp:100] Creating Layer res5b_relu/conv2_2_bn
I0308 14:37:33.503583 27860 net.cpp:434] res5b_relu/conv2_2_bn <- res5b_relu/conv2_2
I0308 14:37:33.503588 27860 net.cpp:395] res5b_relu/conv2_2_bn -> res5b_relu/conv2_2 (in-place)
I0308 14:37:33.503756 27860 net.cpp:150] Setting up res5b_relu/conv2_2_bn
I0308 14:37:33.503760 27860 net.cpp:157] Top shape: 2 512 5 8 (40960)
I0308 14:37:33.503762 27860 net.cpp:165] Memory required for data: 446429792
I0308 14:37:33.503767 27860 layer_factory.hpp:77] Creating layer res5b_relu/conv2_2_scale
I0308 14:37:33.503770 27860 net.cpp:100] Creating Layer res5b_relu/conv2_2_scale
I0308 14:37:33.503773 27860 net.cpp:434] res5b_relu/conv2_2_scale <- res5b_relu/conv2_2
I0308 14:37:33.503777 27860 net.cpp:395] res5b_relu/conv2_2_scale -> res5b_relu/conv2_2 (in-place)
I0308 14:37:33.503804 27860 layer_factory.hpp:77] Creating layer res5b_relu/conv2_2_scale
I0308 14:37:33.503898 27860 net.cpp:150] Setting up res5b_relu/conv2_2_scale
I0308 14:37:33.503904 27860 net.cpp:157] Top shape: 2 512 5 8 (40960)
I0308 14:37:33.503906 27860 net.cpp:165] Memory required for data: 446593632
I0308 14:37:33.503909 27860 layer_factory.hpp:77] Creating layer res5b_relu/conv2_2_relu
I0308 14:37:33.503912 27860 net.cpp:100] Creating Layer res5b_relu/conv2_2_relu
I0308 14:37:33.503914 27860 net.cpp:434] res5b_relu/conv2_2_relu <- res5b_relu/conv2_2
I0308 14:37:33.503917 27860 net.cpp:395] res5b_relu/conv2_2_relu -> res5b_relu/conv2_2 (in-place)
I0308 14:37:33.504261 27860 net.cpp:150] Setting up res5b_relu/conv2_2_relu
I0308 14:37:33.504266 27860 net.cpp:157] Top shape: 2 512 5 8 (40960)
I0308 14:37:33.504269 27860 net.cpp:165] Memory required for data: 446757472
I0308 14:37:33.504271 27860 layer_factory.hpp:77] Creating layer res5b_relu/conv2_2_res5b_relu/conv2_2_relu_0_split
I0308 14:37:33.504274 27860 net.cpp:100] Creating Layer res5b_relu/conv2_2_res5b_relu/conv2_2_relu_0_split
I0308 14:37:33.504276 27860 net.cpp:434] res5b_relu/conv2_2_res5b_relu/conv2_2_relu_0_split <- res5b_relu/conv2_2
I0308 14:37:33.504281 27860 net.cpp:408] res5b_relu/conv2_2_res5b_relu/conv2_2_relu_0_split -> res5b_relu/conv2_2_res5b_relu/conv2_2_relu_0_split_0
I0308 14:37:33.504285 27860 net.cpp:408] res5b_relu/conv2_2_res5b_relu/conv2_2_relu_0_split -> res5b_relu/conv2_2_res5b_relu/conv2_2_relu_0_split_1
I0308 14:37:33.504289 27860 net.cpp:408] res5b_relu/conv2_2_res5b_relu/conv2_2_relu_0_split -> res5b_relu/conv2_2_res5b_relu/conv2_2_relu_0_split_2
I0308 14:37:33.504292 27860 net.cpp:408] res5b_relu/conv2_2_res5b_relu/conv2_2_relu_0_split -> res5b_relu/conv2_2_res5b_relu/conv2_2_relu_0_split_3
I0308 14:37:33.504348 27860 net.cpp:150] Setting up res5b_relu/conv2_2_res5b_relu/conv2_2_relu_0_split
I0308 14:37:33.504353 27860 net.cpp:157] Top shape: 2 512 5 8 (40960)
I0308 14:37:33.504354 27860 net.cpp:157] Top shape: 2 512 5 8 (40960)
I0308 14:37:33.504356 27860 net.cpp:157] Top shape: 2 512 5 8 (40960)
I0308 14:37:33.504359 27860 net.cpp:157] Top shape: 2 512 5 8 (40960)
I0308 14:37:33.504360 27860 net.cpp:165] Memory required for data: 447412832
I0308 14:37:33.504362 27860 layer_factory.hpp:77] Creating layer res5b_relu/conv3_1
I0308 14:37:33.504369 27860 net.cpp:100] Creating Layer res5b_relu/conv3_1
I0308 14:37:33.504370 27860 net.cpp:434] res5b_relu/conv3_1 <- res5b_relu/conv2_2_res5b_relu/conv2_2_relu_0_split_0
I0308 14:37:33.504374 27860 net.cpp:408] res5b_relu/conv3_1 -> res5b_relu/conv3_1
I0308 14:37:33.506737 27860 net.cpp:150] Setting up res5b_relu/conv3_1
I0308 14:37:33.506744 27860 net.cpp:157] Top shape: 2 256 5 8 (20480)
I0308 14:37:33.506757 27860 net.cpp:165] Memory required for data: 447494752
I0308 14:37:33.506760 27860 layer_factory.hpp:77] Creating layer res5b_relu/conv3_1_bn
I0308 14:37:33.506764 27860 net.cpp:100] Creating Layer res5b_relu/conv3_1_bn
I0308 14:37:33.506767 27860 net.cpp:434] res5b_relu/conv3_1_bn <- res5b_relu/conv3_1
I0308 14:37:33.506770 27860 net.cpp:395] res5b_relu/conv3_1_bn -> res5b_relu/conv3_1 (in-place)
I0308 14:37:33.506919 27860 net.cpp:150] Setting up res5b_relu/conv3_1_bn
I0308 14:37:33.506924 27860 net.cpp:157] Top shape: 2 256 5 8 (20480)
I0308 14:37:33.506925 27860 net.cpp:165] Memory required for data: 447576672
I0308 14:37:33.506930 27860 layer_factory.hpp:77] Creating layer res5b_relu/conv3_1_scale
I0308 14:37:33.506945 27860 net.cpp:100] Creating Layer res5b_relu/conv3_1_scale
I0308 14:37:33.506947 27860 net.cpp:434] res5b_relu/conv3_1_scale <- res5b_relu/conv3_1
I0308 14:37:33.506950 27860 net.cpp:395] res5b_relu/conv3_1_scale -> res5b_relu/conv3_1 (in-place)
I0308 14:37:33.506981 27860 layer_factory.hpp:77] Creating layer res5b_relu/conv3_1_scale
I0308 14:37:33.507071 27860 net.cpp:150] Setting up res5b_relu/conv3_1_scale
I0308 14:37:33.507074 27860 net.cpp:157] Top shape: 2 256 5 8 (20480)
I0308 14:37:33.507076 27860 net.cpp:165] Memory required for data: 447658592
I0308 14:37:33.507081 27860 layer_factory.hpp:77] Creating layer res5b_relu/conv3_1_relu
I0308 14:37:33.507083 27860 net.cpp:100] Creating Layer res5b_relu/conv3_1_relu
I0308 14:37:33.507086 27860 net.cpp:434] res5b_relu/conv3_1_relu <- res5b_relu/conv3_1
I0308 14:37:33.507087 27860 net.cpp:395] res5b_relu/conv3_1_relu -> res5b_relu/conv3_1 (in-place)
I0308 14:37:33.507423 27860 net.cpp:150] Setting up res5b_relu/conv3_1_relu
I0308 14:37:33.507429 27860 net.cpp:157] Top shape: 2 256 5 8 (20480)
I0308 14:37:33.507431 27860 net.cpp:165] Memory required for data: 447740512
I0308 14:37:33.507433 27860 layer_factory.hpp:77] Creating layer res5b_relu/conv3_2
I0308 14:37:33.507439 27860 net.cpp:100] Creating Layer res5b_relu/conv3_2
I0308 14:37:33.507441 27860 net.cpp:434] res5b_relu/conv3_2 <- res5b_relu/conv3_1
I0308 14:37:33.507445 27860 net.cpp:408] res5b_relu/conv3_2 -> res5b_relu/conv3_2
I0308 14:37:33.516868 27860 net.cpp:150] Setting up res5b_relu/conv3_2
I0308 14:37:33.516885 27860 net.cpp:157] Top shape: 2 512 3 4 (12288)
I0308 14:37:33.516887 27860 net.cpp:165] Memory required for data: 447789664
I0308 14:37:33.516894 27860 layer_factory.hpp:77] Creating layer res5b_relu/conv3_2_bn
I0308 14:37:33.516902 27860 net.cpp:100] Creating Layer res5b_relu/conv3_2_bn
I0308 14:37:33.516906 27860 net.cpp:434] res5b_relu/conv3_2_bn <- res5b_relu/conv3_2
I0308 14:37:33.516911 27860 net.cpp:395] res5b_relu/conv3_2_bn -> res5b_relu/conv3_2 (in-place)
I0308 14:37:33.517063 27860 net.cpp:150] Setting up res5b_relu/conv3_2_bn
I0308 14:37:33.517068 27860 net.cpp:157] Top shape: 2 512 3 4 (12288)
I0308 14:37:33.517071 27860 net.cpp:165] Memory required for data: 447838816
I0308 14:37:33.517078 27860 layer_factory.hpp:77] Creating layer res5b_relu/conv3_2_scale
I0308 14:37:33.517087 27860 net.cpp:100] Creating Layer res5b_relu/conv3_2_scale
I0308 14:37:33.517091 27860 net.cpp:434] res5b_relu/conv3_2_scale <- res5b_relu/conv3_2
I0308 14:37:33.517097 27860 net.cpp:395] res5b_relu/conv3_2_scale -> res5b_relu/conv3_2 (in-place)
I0308 14:37:33.517133 27860 layer_factory.hpp:77] Creating layer res5b_relu/conv3_2_scale
I0308 14:37:33.517222 27860 net.cpp:150] Setting up res5b_relu/conv3_2_scale
I0308 14:37:33.517227 27860 net.cpp:157] Top shape: 2 512 3 4 (12288)
I0308 14:37:33.517230 27860 net.cpp:165] Memory required for data: 447887968
I0308 14:37:33.517233 27860 layer_factory.hpp:77] Creating layer res5b_relu/conv3_2_relu
I0308 14:37:33.517237 27860 net.cpp:100] Creating Layer res5b_relu/conv3_2_relu
I0308 14:37:33.517240 27860 net.cpp:434] res5b_relu/conv3_2_relu <- res5b_relu/conv3_2
I0308 14:37:33.517244 27860 net.cpp:395] res5b_relu/conv3_2_relu -> res5b_relu/conv3_2 (in-place)
I0308 14:37:33.517796 27860 net.cpp:150] Setting up res5b_relu/conv3_2_relu
I0308 14:37:33.517812 27860 net.cpp:157] Top shape: 2 512 3 4 (12288)
I0308 14:37:33.517813 27860 net.cpp:165] Memory required for data: 447937120
I0308 14:37:33.517817 27860 layer_factory.hpp:77] Creating layer res5b_relu/conv3_2_res5b_relu/conv3_2_relu_0_split
I0308 14:37:33.517822 27860 net.cpp:100] Creating Layer res5b_relu/conv3_2_res5b_relu/conv3_2_relu_0_split
I0308 14:37:33.517827 27860 net.cpp:434] res5b_relu/conv3_2_res5b_relu/conv3_2_relu_0_split <- res5b_relu/conv3_2
I0308 14:37:33.517832 27860 net.cpp:408] res5b_relu/conv3_2_res5b_relu/conv3_2_relu_0_split -> res5b_relu/conv3_2_res5b_relu/conv3_2_relu_0_split_0
I0308 14:37:33.517843 27860 net.cpp:408] res5b_relu/conv3_2_res5b_relu/conv3_2_relu_0_split -> res5b_relu/conv3_2_res5b_relu/conv3_2_relu_0_split_1
I0308 14:37:33.517849 27860 net.cpp:408] res5b_relu/conv3_2_res5b_relu/conv3_2_relu_0_split -> res5b_relu/conv3_2_res5b_relu/conv3_2_relu_0_split_2
I0308 14:37:33.517855 27860 net.cpp:408] res5b_relu/conv3_2_res5b_relu/conv3_2_relu_0_split -> res5b_relu/conv3_2_res5b_relu/conv3_2_relu_0_split_3
I0308 14:37:33.517912 27860 net.cpp:150] Setting up res5b_relu/conv3_2_res5b_relu/conv3_2_relu_0_split
I0308 14:37:33.517917 27860 net.cpp:157] Top shape: 2 512 3 4 (12288)
I0308 14:37:33.517921 27860 net.cpp:157] Top shape: 2 512 3 4 (12288)
I0308 14:37:33.517925 27860 net.cpp:157] Top shape: 2 512 3 4 (12288)
I0308 14:37:33.517930 27860 net.cpp:157] Top shape: 2 512 3 4 (12288)
I0308 14:37:33.517935 27860 net.cpp:165] Memory required for data: 448133728
I0308 14:37:33.517937 27860 layer_factory.hpp:77] Creating layer pool6
I0308 14:37:33.517942 27860 net.cpp:100] Creating Layer pool6
I0308 14:37:33.517946 27860 net.cpp:434] pool6 <- res5b_relu/conv3_2_res5b_relu/conv3_2_relu_0_split_0
I0308 14:37:33.517954 27860 net.cpp:408] pool6 -> pool6
I0308 14:37:33.518322 27860 net.cpp:150] Setting up pool6
I0308 14:37:33.518328 27860 net.cpp:157] Top shape: 2 512 1 1 (1024)
I0308 14:37:33.518330 27860 net.cpp:165] Memory required for data: 448137824
I0308 14:37:33.518334 27860 layer_factory.hpp:77] Creating layer pool6_pool6_0_split
I0308 14:37:33.518342 27860 net.cpp:100] Creating Layer pool6_pool6_0_split
I0308 14:37:33.518345 27860 net.cpp:434] pool6_pool6_0_split <- pool6
I0308 14:37:33.518350 27860 net.cpp:408] pool6_pool6_0_split -> pool6_pool6_0_split_0
I0308 14:37:33.518358 27860 net.cpp:408] pool6_pool6_0_split -> pool6_pool6_0_split_1
I0308 14:37:33.518365 27860 net.cpp:408] pool6_pool6_0_split -> pool6_pool6_0_split_2
I0308 14:37:33.518409 27860 net.cpp:150] Setting up pool6_pool6_0_split
I0308 14:37:33.518414 27860 net.cpp:157] Top shape: 2 512 1 1 (1024)
I0308 14:37:33.518417 27860 net.cpp:157] Top shape: 2 512 1 1 (1024)
I0308 14:37:33.518420 27860 net.cpp:157] Top shape: 2 512 1 1 (1024)
I0308 14:37:33.518422 27860 net.cpp:165] Memory required for data: 448150112
I0308 14:37:33.518424 27860 layer_factory.hpp:77] Creating layer res3b1_relu_mbox_loc
I0308 14:37:33.518430 27860 net.cpp:100] Creating Layer res3b1_relu_mbox_loc
I0308 14:37:33.518434 27860 net.cpp:434] res3b1_relu_mbox_loc <- res3b1_res3b1_relu_0_split_2
I0308 14:37:33.518438 27860 net.cpp:408] res3b1_relu_mbox_loc -> res3b1_relu_mbox_loc
I0308 14:37:33.519891 27860 net.cpp:150] Setting up res3b1_relu_mbox_loc
I0308 14:37:33.519898 27860 net.cpp:157] Top shape: 2 4 38 64 (19456)
I0308 14:37:33.519901 27860 net.cpp:165] Memory required for data: 448227936
I0308 14:37:33.519906 27860 layer_factory.hpp:77] Creating layer res3b1_relu_mbox_loc_perm
I0308 14:37:33.519912 27860 net.cpp:100] Creating Layer res3b1_relu_mbox_loc_perm
I0308 14:37:33.519914 27860 net.cpp:434] res3b1_relu_mbox_loc_perm <- res3b1_relu_mbox_loc
I0308 14:37:33.519918 27860 net.cpp:408] res3b1_relu_mbox_loc_perm -> res3b1_relu_mbox_loc_perm
I0308 14:37:33.520000 27860 net.cpp:150] Setting up res3b1_relu_mbox_loc_perm
I0308 14:37:33.520005 27860 net.cpp:157] Top shape: 2 38 64 4 (19456)
I0308 14:37:33.520007 27860 net.cpp:165] Memory required for data: 448305760
I0308 14:37:33.520009 27860 layer_factory.hpp:77] Creating layer res3b1_relu_mbox_loc_flat
I0308 14:37:33.520022 27860 net.cpp:100] Creating Layer res3b1_relu_mbox_loc_flat
I0308 14:37:33.520025 27860 net.cpp:434] res3b1_relu_mbox_loc_flat <- res3b1_relu_mbox_loc_perm
I0308 14:37:33.520030 27860 net.cpp:408] res3b1_relu_mbox_loc_flat -> res3b1_relu_mbox_loc_flat
I0308 14:37:33.520053 27860 net.cpp:150] Setting up res3b1_relu_mbox_loc_flat
I0308 14:37:33.520058 27860 net.cpp:157] Top shape: 2 9728 (19456)
I0308 14:37:33.520061 27860 net.cpp:165] Memory required for data: 448383584
I0308 14:37:33.520064 27860 layer_factory.hpp:77] Creating layer res3b1_relu_mbox_conf
I0308 14:37:33.520072 27860 net.cpp:100] Creating Layer res3b1_relu_mbox_conf
I0308 14:37:33.520077 27860 net.cpp:434] res3b1_relu_mbox_conf <- res3b1_res3b1_relu_0_split_3
I0308 14:37:33.520084 27860 net.cpp:408] res3b1_relu_mbox_conf -> res3b1_relu_mbox_conf
I0308 14:37:33.521701 27860 net.cpp:150] Setting up res3b1_relu_mbox_conf
I0308 14:37:33.521708 27860 net.cpp:157] Top shape: 2 5 38 64 (24320)
I0308 14:37:33.521710 27860 net.cpp:165] Memory required for data: 448480864
I0308 14:37:33.521716 27860 layer_factory.hpp:77] Creating layer res3b1_relu_mbox_conf_perm
I0308 14:37:33.521724 27860 net.cpp:100] Creating Layer res3b1_relu_mbox_conf_perm
I0308 14:37:33.521728 27860 net.cpp:434] res3b1_relu_mbox_conf_perm <- res3b1_relu_mbox_conf
I0308 14:37:33.521734 27860 net.cpp:408] res3b1_relu_mbox_conf_perm -> res3b1_relu_mbox_conf_perm
I0308 14:37:33.521816 27860 net.cpp:150] Setting up res3b1_relu_mbox_conf_perm
I0308 14:37:33.521821 27860 net.cpp:157] Top shape: 2 38 64 5 (24320)
I0308 14:37:33.521823 27860 net.cpp:165] Memory required for data: 448578144
I0308 14:37:33.521826 27860 layer_factory.hpp:77] Creating layer res3b1_relu_mbox_conf_flat
I0308 14:37:33.521831 27860 net.cpp:100] Creating Layer res3b1_relu_mbox_conf_flat
I0308 14:37:33.521836 27860 net.cpp:434] res3b1_relu_mbox_conf_flat <- res3b1_relu_mbox_conf_perm
I0308 14:37:33.521842 27860 net.cpp:408] res3b1_relu_mbox_conf_flat -> res3b1_relu_mbox_conf_flat
I0308 14:37:33.521865 27860 net.cpp:150] Setting up res3b1_relu_mbox_conf_flat
I0308 14:37:33.521869 27860 net.cpp:157] Top shape: 2 12160 (24320)
I0308 14:37:33.521872 27860 net.cpp:165] Memory required for data: 448675424
I0308 14:37:33.521873 27860 layer_factory.hpp:77] Creating layer res3b1_relu_mbox_priorbox
I0308 14:37:33.521878 27860 net.cpp:100] Creating Layer res3b1_relu_mbox_priorbox
I0308 14:37:33.521880 27860 net.cpp:434] res3b1_relu_mbox_priorbox <- res3b1_res3b1_relu_0_split_4
I0308 14:37:33.521884 27860 net.cpp:434] res3b1_relu_mbox_priorbox <- data_data_0_split_1
I0308 14:37:33.521888 27860 net.cpp:408] res3b1_relu_mbox_priorbox -> res3b1_relu_mbox_priorbox
I0308 14:37:33.521914 27860 net.cpp:150] Setting up res3b1_relu_mbox_priorbox
I0308 14:37:33.521917 27860 net.cpp:157] Top shape: 1 2 9728 (19456)
I0308 14:37:33.521919 27860 net.cpp:165] Memory required for data: 448753248
I0308 14:37:33.521921 27860 layer_factory.hpp:77] Creating layer res5b_relu_mbox_loc
I0308 14:37:33.521926 27860 net.cpp:100] Creating Layer res5b_relu_mbox_loc
I0308 14:37:33.521929 27860 net.cpp:434] res5b_relu_mbox_loc <- res5b_res5b_relu_0_split_1
I0308 14:37:33.521934 27860 net.cpp:408] res5b_relu_mbox_loc -> res5b_relu_mbox_loc
I0308 14:37:33.523623 27860 net.cpp:150] Setting up res5b_relu_mbox_loc
I0308 14:37:33.523631 27860 net.cpp:157] Top shape: 2 8 19 32 (9728)
I0308 14:37:33.523633 27860 net.cpp:165] Memory required for data: 448792160
I0308 14:37:33.523638 27860 layer_factory.hpp:77] Creating layer res5b_relu_mbox_loc_perm
I0308 14:37:33.523643 27860 net.cpp:100] Creating Layer res5b_relu_mbox_loc_perm
I0308 14:37:33.523645 27860 net.cpp:434] res5b_relu_mbox_loc_perm <- res5b_relu_mbox_loc
I0308 14:37:33.523649 27860 net.cpp:408] res5b_relu_mbox_loc_perm -> res5b_relu_mbox_loc_perm
I0308 14:37:33.523733 27860 net.cpp:150] Setting up res5b_relu_mbox_loc_perm
I0308 14:37:33.523738 27860 net.cpp:157] Top shape: 2 19 32 8 (9728)
I0308 14:37:33.523741 27860 net.cpp:165] Memory required for data: 448831072
I0308 14:37:33.523751 27860 layer_factory.hpp:77] Creating layer res5b_relu_mbox_loc_flat
I0308 14:37:33.523756 27860 net.cpp:100] Creating Layer res5b_relu_mbox_loc_flat
I0308 14:37:33.523758 27860 net.cpp:434] res5b_relu_mbox_loc_flat <- res5b_relu_mbox_loc_perm
I0308 14:37:33.523761 27860 net.cpp:408] res5b_relu_mbox_loc_flat -> res5b_relu_mbox_loc_flat
I0308 14:37:33.523783 27860 net.cpp:150] Setting up res5b_relu_mbox_loc_flat
I0308 14:37:33.523788 27860 net.cpp:157] Top shape: 2 4864 (9728)
I0308 14:37:33.523790 27860 net.cpp:165] Memory required for data: 448869984
I0308 14:37:33.523792 27860 layer_factory.hpp:77] Creating layer res5b_relu_mbox_conf
I0308 14:37:33.523797 27860 net.cpp:100] Creating Layer res5b_relu_mbox_conf
I0308 14:37:33.523800 27860 net.cpp:434] res5b_relu_mbox_conf <- res5b_res5b_relu_0_split_2
I0308 14:37:33.523805 27860 net.cpp:408] res5b_relu_mbox_conf -> res5b_relu_mbox_conf
I0308 14:37:33.525540 27860 net.cpp:150] Setting up res5b_relu_mbox_conf
I0308 14:37:33.525547 27860 net.cpp:157] Top shape: 2 10 19 32 (12160)
I0308 14:37:33.525550 27860 net.cpp:165] Memory required for data: 448918624
I0308 14:37:33.525554 27860 layer_factory.hpp:77] Creating layer res5b_relu_mbox_conf_perm
I0308 14:37:33.525558 27860 net.cpp:100] Creating Layer res5b_relu_mbox_conf_perm
I0308 14:37:33.525562 27860 net.cpp:434] res5b_relu_mbox_conf_perm <- res5b_relu_mbox_conf
I0308 14:37:33.525565 27860 net.cpp:408] res5b_relu_mbox_conf_perm -> res5b_relu_mbox_conf_perm
I0308 14:37:33.525650 27860 net.cpp:150] Setting up res5b_relu_mbox_conf_perm
I0308 14:37:33.525655 27860 net.cpp:157] Top shape: 2 19 32 10 (12160)
I0308 14:37:33.525656 27860 net.cpp:165] Memory required for data: 448967264
I0308 14:37:33.525660 27860 layer_factory.hpp:77] Creating layer res5b_relu_mbox_conf_flat
I0308 14:37:33.525663 27860 net.cpp:100] Creating Layer res5b_relu_mbox_conf_flat
I0308 14:37:33.525666 27860 net.cpp:434] res5b_relu_mbox_conf_flat <- res5b_relu_mbox_conf_perm
I0308 14:37:33.525668 27860 net.cpp:408] res5b_relu_mbox_conf_flat -> res5b_relu_mbox_conf_flat
I0308 14:37:33.525689 27860 net.cpp:150] Setting up res5b_relu_mbox_conf_flat
I0308 14:37:33.525694 27860 net.cpp:157] Top shape: 2 6080 (12160)
I0308 14:37:33.525697 27860 net.cpp:165] Memory required for data: 449015904
I0308 14:37:33.525699 27860 layer_factory.hpp:77] Creating layer res5b_relu_mbox_priorbox
I0308 14:37:33.525704 27860 net.cpp:100] Creating Layer res5b_relu_mbox_priorbox
I0308 14:37:33.525707 27860 net.cpp:434] res5b_relu_mbox_priorbox <- res5b_res5b_relu_0_split_3
I0308 14:37:33.525709 27860 net.cpp:434] res5b_relu_mbox_priorbox <- data_data_0_split_2
I0308 14:37:33.525714 27860 net.cpp:408] res5b_relu_mbox_priorbox -> res5b_relu_mbox_priorbox
I0308 14:37:33.525737 27860 net.cpp:150] Setting up res5b_relu_mbox_priorbox
I0308 14:37:33.525740 27860 net.cpp:157] Top shape: 1 2 4864 (9728)
I0308 14:37:33.525743 27860 net.cpp:165] Memory required for data: 449054816
I0308 14:37:33.525745 27860 layer_factory.hpp:77] Creating layer res5b_relu/conv1_2_mbox_loc
I0308 14:37:33.525755 27860 net.cpp:100] Creating Layer res5b_relu/conv1_2_mbox_loc
I0308 14:37:33.525760 27860 net.cpp:434] res5b_relu/conv1_2_mbox_loc <- res5b_relu/conv1_2_res5b_relu/conv1_2_relu_0_split_1
I0308 14:37:33.525765 27860 net.cpp:408] res5b_relu/conv1_2_mbox_loc -> res5b_relu/conv1_2_mbox_loc
I0308 14:37:33.527829 27860 net.cpp:150] Setting up res5b_relu/conv1_2_mbox_loc
I0308 14:37:33.527837 27860 net.cpp:157] Top shape: 2 8 10 16 (2560)
I0308 14:37:33.527842 27860 net.cpp:165] Memory required for data: 449065056
I0308 14:37:33.527848 27860 layer_factory.hpp:77] Creating layer res5b_relu/conv1_2_mbox_loc_perm
I0308 14:37:33.527853 27860 net.cpp:100] Creating Layer res5b_relu/conv1_2_mbox_loc_perm
I0308 14:37:33.527858 27860 net.cpp:434] res5b_relu/conv1_2_mbox_loc_perm <- res5b_relu/conv1_2_mbox_loc
I0308 14:37:33.527863 27860 net.cpp:408] res5b_relu/conv1_2_mbox_loc_perm -> res5b_relu/conv1_2_mbox_loc_perm
I0308 14:37:33.527950 27860 net.cpp:150] Setting up res5b_relu/conv1_2_mbox_loc_perm
I0308 14:37:33.527962 27860 net.cpp:157] Top shape: 2 10 16 8 (2560)
I0308 14:37:33.527964 27860 net.cpp:165] Memory required for data: 449075296
I0308 14:37:33.527966 27860 layer_factory.hpp:77] Creating layer res5b_relu/conv1_2_mbox_loc_flat
I0308 14:37:33.527971 27860 net.cpp:100] Creating Layer res5b_relu/conv1_2_mbox_loc_flat
I0308 14:37:33.527972 27860 net.cpp:434] res5b_relu/conv1_2_mbox_loc_flat <- res5b_relu/conv1_2_mbox_loc_perm
I0308 14:37:33.527978 27860 net.cpp:408] res5b_relu/conv1_2_mbox_loc_flat -> res5b_relu/conv1_2_mbox_loc_flat
I0308 14:37:33.527998 27860 net.cpp:150] Setting up res5b_relu/conv1_2_mbox_loc_flat
I0308 14:37:33.528004 27860 net.cpp:157] Top shape: 2 1280 (2560)
I0308 14:37:33.528007 27860 net.cpp:165] Memory required for data: 449085536
I0308 14:37:33.528008 27860 layer_factory.hpp:77] Creating layer res5b_relu/conv1_2_mbox_conf
I0308 14:37:33.528014 27860 net.cpp:100] Creating Layer res5b_relu/conv1_2_mbox_conf
I0308 14:37:33.528017 27860 net.cpp:434] res5b_relu/conv1_2_mbox_conf <- res5b_relu/conv1_2_res5b_relu/conv1_2_relu_0_split_2
I0308 14:37:33.528021 27860 net.cpp:408] res5b_relu/conv1_2_mbox_conf -> res5b_relu/conv1_2_mbox_conf
I0308 14:37:33.529762 27860 net.cpp:150] Setting up res5b_relu/conv1_2_mbox_conf
I0308 14:37:33.529768 27860 net.cpp:157] Top shape: 2 10 10 16 (3200)
I0308 14:37:33.529772 27860 net.cpp:165] Memory required for data: 449098336
I0308 14:37:33.529775 27860 layer_factory.hpp:77] Creating layer res5b_relu/conv1_2_mbox_conf_perm
I0308 14:37:33.529780 27860 net.cpp:100] Creating Layer res5b_relu/conv1_2_mbox_conf_perm
I0308 14:37:33.529783 27860 net.cpp:434] res5b_relu/conv1_2_mbox_conf_perm <- res5b_relu/conv1_2_mbox_conf
I0308 14:37:33.529788 27860 net.cpp:408] res5b_relu/conv1_2_mbox_conf_perm -> res5b_relu/conv1_2_mbox_conf_perm
I0308 14:37:33.529873 27860 net.cpp:150] Setting up res5b_relu/conv1_2_mbox_conf_perm
I0308 14:37:33.529878 27860 net.cpp:157] Top shape: 2 10 16 10 (3200)
I0308 14:37:33.529881 27860 net.cpp:165] Memory required for data: 449111136
I0308 14:37:33.529883 27860 layer_factory.hpp:77] Creating layer res5b_relu/conv1_2_mbox_conf_flat
I0308 14:37:33.529887 27860 net.cpp:100] Creating Layer res5b_relu/conv1_2_mbox_conf_flat
I0308 14:37:33.529891 27860 net.cpp:434] res5b_relu/conv1_2_mbox_conf_flat <- res5b_relu/conv1_2_mbox_conf_perm
I0308 14:37:33.529892 27860 net.cpp:408] res5b_relu/conv1_2_mbox_conf_flat -> res5b_relu/conv1_2_mbox_conf_flat
I0308 14:37:33.529912 27860 net.cpp:150] Setting up res5b_relu/conv1_2_mbox_conf_flat
I0308 14:37:33.529917 27860 net.cpp:157] Top shape: 2 1600 (3200)
I0308 14:37:33.529922 27860 net.cpp:165] Memory required for data: 449123936
I0308 14:37:33.529922 27860 layer_factory.hpp:77] Creating layer res5b_relu/conv1_2_mbox_priorbox
I0308 14:37:33.529927 27860 net.cpp:100] Creating Layer res5b_relu/conv1_2_mbox_priorbox
I0308 14:37:33.529930 27860 net.cpp:434] res5b_relu/conv1_2_mbox_priorbox <- res5b_relu/conv1_2_res5b_relu/conv1_2_relu_0_split_3
I0308 14:37:33.529934 27860 net.cpp:434] res5b_relu/conv1_2_mbox_priorbox <- data_data_0_split_3
I0308 14:37:33.529938 27860 net.cpp:408] res5b_relu/conv1_2_mbox_priorbox -> res5b_relu/conv1_2_mbox_priorbox
I0308 14:37:33.529960 27860 net.cpp:150] Setting up res5b_relu/conv1_2_mbox_priorbox
I0308 14:37:33.529965 27860 net.cpp:157] Top shape: 1 2 1280 (2560)
I0308 14:37:33.529968 27860 net.cpp:165] Memory required for data: 449134176
I0308 14:37:33.529970 27860 layer_factory.hpp:77] Creating layer res5b_relu/conv2_2_mbox_loc
I0308 14:37:33.529979 27860 net.cpp:100] Creating Layer res5b_relu/conv2_2_mbox_loc
I0308 14:37:33.529983 27860 net.cpp:434] res5b_relu/conv2_2_mbox_loc <- res5b_relu/conv2_2_res5b_relu/conv2_2_relu_0_split_1
I0308 14:37:33.529991 27860 net.cpp:408] res5b_relu/conv2_2_mbox_loc -> res5b_relu/conv2_2_mbox_loc
I0308 14:37:33.531877 27860 net.cpp:150] Setting up res5b_relu/conv2_2_mbox_loc
I0308 14:37:33.531896 27860 net.cpp:157] Top shape: 2 8 5 8 (640)
I0308 14:37:33.531898 27860 net.cpp:165] Memory required for data: 449136736
I0308 14:37:33.531927 27860 layer_factory.hpp:77] Creating layer res5b_relu/conv2_2_mbox_loc_perm
I0308 14:37:33.531939 27860 net.cpp:100] Creating Layer res5b_relu/conv2_2_mbox_loc_perm
I0308 14:37:33.531945 27860 net.cpp:434] res5b_relu/conv2_2_mbox_loc_perm <- res5b_relu/conv2_2_mbox_loc
I0308 14:37:33.531955 27860 net.cpp:408] res5b_relu/conv2_2_mbox_loc_perm -> res5b_relu/conv2_2_mbox_loc_perm
I0308 14:37:33.532057 27860 net.cpp:150] Setting up res5b_relu/conv2_2_mbox_loc_perm
I0308 14:37:33.532063 27860 net.cpp:157] Top shape: 2 5 8 8 (640)
I0308 14:37:33.532064 27860 net.cpp:165] Memory required for data: 449139296
I0308 14:37:33.532068 27860 layer_factory.hpp:77] Creating layer res5b_relu/conv2_2_mbox_loc_flat
I0308 14:37:33.532075 27860 net.cpp:100] Creating Layer res5b_relu/conv2_2_mbox_loc_flat
I0308 14:37:33.532079 27860 net.cpp:434] res5b_relu/conv2_2_mbox_loc_flat <- res5b_relu/conv2_2_mbox_loc_perm
I0308 14:37:33.532085 27860 net.cpp:408] res5b_relu/conv2_2_mbox_loc_flat -> res5b_relu/conv2_2_mbox_loc_flat
I0308 14:37:33.532110 27860 net.cpp:150] Setting up res5b_relu/conv2_2_mbox_loc_flat
I0308 14:37:33.532115 27860 net.cpp:157] Top shape: 2 320 (640)
I0308 14:37:33.532117 27860 net.cpp:165] Memory required for data: 449141856
I0308 14:37:33.532120 27860 layer_factory.hpp:77] Creating layer res5b_relu/conv2_2_mbox_conf
I0308 14:37:33.532133 27860 net.cpp:100] Creating Layer res5b_relu/conv2_2_mbox_conf
I0308 14:37:33.532137 27860 net.cpp:434] res5b_relu/conv2_2_mbox_conf <- res5b_relu/conv2_2_res5b_relu/conv2_2_relu_0_split_2
I0308 14:37:33.532143 27860 net.cpp:408] res5b_relu/conv2_2_mbox_conf -> res5b_relu/conv2_2_mbox_conf
I0308 14:37:33.534759 27860 net.cpp:150] Setting up res5b_relu/conv2_2_mbox_conf
I0308 14:37:33.534775 27860 net.cpp:157] Top shape: 2 10 5 8 (800)
I0308 14:37:33.534776 27860 net.cpp:165] Memory required for data: 449145056
I0308 14:37:33.534785 27860 layer_factory.hpp:77] Creating layer res5b_relu/conv2_2_mbox_conf_perm
I0308 14:37:33.534793 27860 net.cpp:100] Creating Layer res5b_relu/conv2_2_mbox_conf_perm
I0308 14:37:33.534799 27860 net.cpp:434] res5b_relu/conv2_2_mbox_conf_perm <- res5b_relu/conv2_2_mbox_conf
I0308 14:37:33.534806 27860 net.cpp:408] res5b_relu/conv2_2_mbox_conf_perm -> res5b_relu/conv2_2_mbox_conf_perm
I0308 14:37:33.534898 27860 net.cpp:150] Setting up res5b_relu/conv2_2_mbox_conf_perm
I0308 14:37:33.534904 27860 net.cpp:157] Top shape: 2 5 8 10 (800)
I0308 14:37:33.534906 27860 net.cpp:165] Memory required for data: 449148256
I0308 14:37:33.534910 27860 layer_factory.hpp:77] Creating layer res5b_relu/conv2_2_mbox_conf_flat
I0308 14:37:33.534917 27860 net.cpp:100] Creating Layer res5b_relu/conv2_2_mbox_conf_flat
I0308 14:37:33.534921 27860 net.cpp:434] res5b_relu/conv2_2_mbox_conf_flat <- res5b_relu/conv2_2_mbox_conf_perm
I0308 14:37:33.534926 27860 net.cpp:408] res5b_relu/conv2_2_mbox_conf_flat -> res5b_relu/conv2_2_mbox_conf_flat
I0308 14:37:33.534951 27860 net.cpp:150] Setting up res5b_relu/conv2_2_mbox_conf_flat
I0308 14:37:33.534955 27860 net.cpp:157] Top shape: 2 400 (800)
I0308 14:37:33.534958 27860 net.cpp:165] Memory required for data: 449151456
I0308 14:37:33.534960 27860 layer_factory.hpp:77] Creating layer res5b_relu/conv2_2_mbox_priorbox
I0308 14:37:33.534968 27860 net.cpp:100] Creating Layer res5b_relu/conv2_2_mbox_priorbox
I0308 14:37:33.534972 27860 net.cpp:434] res5b_relu/conv2_2_mbox_priorbox <- res5b_relu/conv2_2_res5b_relu/conv2_2_relu_0_split_3
I0308 14:37:33.534977 27860 net.cpp:434] res5b_relu/conv2_2_mbox_priorbox <- data_data_0_split_4
I0308 14:37:33.534983 27860 net.cpp:408] res5b_relu/conv2_2_mbox_priorbox -> res5b_relu/conv2_2_mbox_priorbox
I0308 14:37:33.535012 27860 net.cpp:150] Setting up res5b_relu/conv2_2_mbox_priorbox
I0308 14:37:33.535017 27860 net.cpp:157] Top shape: 1 2 320 (640)
I0308 14:37:33.535020 27860 net.cpp:165] Memory required for data: 449154016
I0308 14:37:33.535023 27860 layer_factory.hpp:77] Creating layer res5b_relu/conv3_2_mbox_loc
I0308 14:37:33.535033 27860 net.cpp:100] Creating Layer res5b_relu/conv3_2_mbox_loc
I0308 14:37:33.535049 27860 net.cpp:434] res5b_relu/conv3_2_mbox_loc <- res5b_relu/conv3_2_res5b_relu/conv3_2_relu_0_split_1
I0308 14:37:33.535058 27860 net.cpp:408] res5b_relu/conv3_2_mbox_loc -> res5b_relu/conv3_2_mbox_loc
I0308 14:37:33.536804 27860 net.cpp:150] Setting up res5b_relu/conv3_2_mbox_loc
I0308 14:37:33.536813 27860 net.cpp:157] Top shape: 2 8 3 4 (192)
I0308 14:37:33.536816 27860 net.cpp:165] Memory required for data: 449154784
I0308 14:37:33.536823 27860 layer_factory.hpp:77] Creating layer res5b_relu/conv3_2_mbox_loc_perm
I0308 14:37:33.536829 27860 net.cpp:100] Creating Layer res5b_relu/conv3_2_mbox_loc_perm
I0308 14:37:33.536834 27860 net.cpp:434] res5b_relu/conv3_2_mbox_loc_perm <- res5b_relu/conv3_2_mbox_loc
I0308 14:37:33.536839 27860 net.cpp:408] res5b_relu/conv3_2_mbox_loc_perm -> res5b_relu/conv3_2_mbox_loc_perm
I0308 14:37:33.536921 27860 net.cpp:150] Setting up res5b_relu/conv3_2_mbox_loc_perm
I0308 14:37:33.536926 27860 net.cpp:157] Top shape: 2 3 4 8 (192)
I0308 14:37:33.536929 27860 net.cpp:165] Memory required for data: 449155552
I0308 14:37:33.536932 27860 layer_factory.hpp:77] Creating layer res5b_relu/conv3_2_mbox_loc_flat
I0308 14:37:33.536937 27860 net.cpp:100] Creating Layer res5b_relu/conv3_2_mbox_loc_flat
I0308 14:37:33.536940 27860 net.cpp:434] res5b_relu/conv3_2_mbox_loc_flat <- res5b_relu/conv3_2_mbox_loc_perm
I0308 14:37:33.536947 27860 net.cpp:408] res5b_relu/conv3_2_mbox_loc_flat -> res5b_relu/conv3_2_mbox_loc_flat
I0308 14:37:33.536967 27860 net.cpp:150] Setting up res5b_relu/conv3_2_mbox_loc_flat
I0308 14:37:33.536972 27860 net.cpp:157] Top shape: 2 96 (192)
I0308 14:37:33.536974 27860 net.cpp:165] Memory required for data: 449156320
I0308 14:37:33.536978 27860 layer_factory.hpp:77] Creating layer res5b_relu/conv3_2_mbox_conf
I0308 14:37:33.536988 27860 net.cpp:100] Creating Layer res5b_relu/conv3_2_mbox_conf
I0308 14:37:33.536990 27860 net.cpp:434] res5b_relu/conv3_2_mbox_conf <- res5b_relu/conv3_2_res5b_relu/conv3_2_relu_0_split_2
I0308 14:37:33.536995 27860 net.cpp:408] res5b_relu/conv3_2_mbox_conf -> res5b_relu/conv3_2_mbox_conf
I0308 14:37:33.538556 27860 net.cpp:150] Setting up res5b_relu/conv3_2_mbox_conf
I0308 14:37:33.538565 27860 net.cpp:157] Top shape: 2 10 3 4 (240)
I0308 14:37:33.538568 27860 net.cpp:165] Memory required for data: 449157280
I0308 14:37:33.538574 27860 layer_factory.hpp:77] Creating layer res5b_relu/conv3_2_mbox_conf_perm
I0308 14:37:33.538581 27860 net.cpp:100] Creating Layer res5b_relu/conv3_2_mbox_conf_perm
I0308 14:37:33.538585 27860 net.cpp:434] res5b_relu/conv3_2_mbox_conf_perm <- res5b_relu/conv3_2_mbox_conf
I0308 14:37:33.538590 27860 net.cpp:408] res5b_relu/conv3_2_mbox_conf_perm -> res5b_relu/conv3_2_mbox_conf_perm
I0308 14:37:33.538671 27860 net.cpp:150] Setting up res5b_relu/conv3_2_mbox_conf_perm
I0308 14:37:33.538676 27860 net.cpp:157] Top shape: 2 3 4 10 (240)
I0308 14:37:33.538678 27860 net.cpp:165] Memory required for data: 449158240
I0308 14:37:33.538681 27860 layer_factory.hpp:77] Creating layer res5b_relu/conv3_2_mbox_conf_flat
I0308 14:37:33.538686 27860 net.cpp:100] Creating Layer res5b_relu/conv3_2_mbox_conf_flat
I0308 14:37:33.538689 27860 net.cpp:434] res5b_relu/conv3_2_mbox_conf_flat <- res5b_relu/conv3_2_mbox_conf_perm
I0308 14:37:33.538695 27860 net.cpp:408] res5b_relu/conv3_2_mbox_conf_flat -> res5b_relu/conv3_2_mbox_conf_flat
I0308 14:37:33.538717 27860 net.cpp:150] Setting up res5b_relu/conv3_2_mbox_conf_flat
I0308 14:37:33.538722 27860 net.cpp:157] Top shape: 2 120 (240)
I0308 14:37:33.538725 27860 net.cpp:165] Memory required for data: 449159200
I0308 14:37:33.538727 27860 layer_factory.hpp:77] Creating layer res5b_relu/conv3_2_mbox_priorbox
I0308 14:37:33.538733 27860 net.cpp:100] Creating Layer res5b_relu/conv3_2_mbox_priorbox
I0308 14:37:33.538736 27860 net.cpp:434] res5b_relu/conv3_2_mbox_priorbox <- res5b_relu/conv3_2_res5b_relu/conv3_2_relu_0_split_3
I0308 14:37:33.538741 27860 net.cpp:434] res5b_relu/conv3_2_mbox_priorbox <- data_data_0_split_5
I0308 14:37:33.538748 27860 net.cpp:408] res5b_relu/conv3_2_mbox_priorbox -> res5b_relu/conv3_2_mbox_priorbox
I0308 14:37:33.538777 27860 net.cpp:150] Setting up res5b_relu/conv3_2_mbox_priorbox
I0308 14:37:33.538782 27860 net.cpp:157] Top shape: 1 2 96 (192)
I0308 14:37:33.538785 27860 net.cpp:165] Memory required for data: 449159968
I0308 14:37:33.538789 27860 layer_factory.hpp:77] Creating layer pool6_mbox_loc
I0308 14:37:33.538795 27860 net.cpp:100] Creating Layer pool6_mbox_loc
I0308 14:37:33.538799 27860 net.cpp:434] pool6_mbox_loc <- pool6_pool6_0_split_0
I0308 14:37:33.538805 27860 net.cpp:408] pool6_mbox_loc -> pool6_mbox_loc
I0308 14:37:33.540356 27860 net.cpp:150] Setting up pool6_mbox_loc
I0308 14:37:33.540364 27860 net.cpp:157] Top shape: 2 8 1 1 (16)
I0308 14:37:33.540367 27860 net.cpp:165] Memory required for data: 449160032
I0308 14:37:33.540374 27860 layer_factory.hpp:77] Creating layer pool6_mbox_loc_perm
I0308 14:37:33.540380 27860 net.cpp:100] Creating Layer pool6_mbox_loc_perm
I0308 14:37:33.540385 27860 net.cpp:434] pool6_mbox_loc_perm <- pool6_mbox_loc
I0308 14:37:33.540390 27860 net.cpp:408] pool6_mbox_loc_perm -> pool6_mbox_loc_perm
I0308 14:37:33.540469 27860 net.cpp:150] Setting up pool6_mbox_loc_perm
I0308 14:37:33.540474 27860 net.cpp:157] Top shape: 2 1 1 8 (16)
I0308 14:37:33.540477 27860 net.cpp:165] Memory required for data: 449160096
I0308 14:37:33.540479 27860 layer_factory.hpp:77] Creating layer pool6_mbox_loc_flat
I0308 14:37:33.540485 27860 net.cpp:100] Creating Layer pool6_mbox_loc_flat
I0308 14:37:33.540489 27860 net.cpp:434] pool6_mbox_loc_flat <- pool6_mbox_loc_perm
I0308 14:37:33.540493 27860 net.cpp:408] pool6_mbox_loc_flat -> pool6_mbox_loc_flat
I0308 14:37:33.540513 27860 net.cpp:150] Setting up pool6_mbox_loc_flat
I0308 14:37:33.540518 27860 net.cpp:157] Top shape: 2 8 (16)
I0308 14:37:33.540520 27860 net.cpp:165] Memory required for data: 449160160
I0308 14:37:33.540524 27860 layer_factory.hpp:77] Creating layer pool6_mbox_conf
I0308 14:37:33.540530 27860 net.cpp:100] Creating Layer pool6_mbox_conf
I0308 14:37:33.540534 27860 net.cpp:434] pool6_mbox_conf <- pool6_pool6_0_split_1
I0308 14:37:33.540540 27860 net.cpp:408] pool6_mbox_conf -> pool6_mbox_conf
I0308 14:37:33.542289 27860 net.cpp:150] Setting up pool6_mbox_conf
I0308 14:37:33.542296 27860 net.cpp:157] Top shape: 2 10 1 1 (20)
I0308 14:37:33.542299 27860 net.cpp:165] Memory required for data: 449160240
I0308 14:37:33.542305 27860 layer_factory.hpp:77] Creating layer pool6_mbox_conf_perm
I0308 14:37:33.542311 27860 net.cpp:100] Creating Layer pool6_mbox_conf_perm
I0308 14:37:33.542315 27860 net.cpp:434] pool6_mbox_conf_perm <- pool6_mbox_conf
I0308 14:37:33.542321 27860 net.cpp:408] pool6_mbox_conf_perm -> pool6_mbox_conf_perm
I0308 14:37:33.542403 27860 net.cpp:150] Setting up pool6_mbox_conf_perm
I0308 14:37:33.542409 27860 net.cpp:157] Top shape: 2 1 1 10 (20)
I0308 14:37:33.542412 27860 net.cpp:165] Memory required for data: 449160320
I0308 14:37:33.542415 27860 layer_factory.hpp:77] Creating layer pool6_mbox_conf_flat
I0308 14:37:33.542420 27860 net.cpp:100] Creating Layer pool6_mbox_conf_flat
I0308 14:37:33.542424 27860 net.cpp:434] pool6_mbox_conf_flat <- pool6_mbox_conf_perm
I0308 14:37:33.542428 27860 net.cpp:408] pool6_mbox_conf_flat -> pool6_mbox_conf_flat
I0308 14:37:33.542450 27860 net.cpp:150] Setting up pool6_mbox_conf_flat
I0308 14:37:33.542454 27860 net.cpp:157] Top shape: 2 10 (20)
I0308 14:37:33.542457 27860 net.cpp:165] Memory required for data: 449160400
I0308 14:37:33.542459 27860 layer_factory.hpp:77] Creating layer pool6_mbox_priorbox
I0308 14:37:33.542466 27860 net.cpp:100] Creating Layer pool6_mbox_priorbox
I0308 14:37:33.542469 27860 net.cpp:434] pool6_mbox_priorbox <- pool6_pool6_0_split_2
I0308 14:37:33.542474 27860 net.cpp:434] pool6_mbox_priorbox <- data_data_0_split_6
I0308 14:37:33.542479 27860 net.cpp:408] pool6_mbox_priorbox -> pool6_mbox_priorbox
I0308 14:37:33.542501 27860 net.cpp:150] Setting up pool6_mbox_priorbox
I0308 14:37:33.542506 27860 net.cpp:157] Top shape: 1 2 8 (16)
I0308 14:37:33.542510 27860 net.cpp:165] Memory required for data: 449160464
I0308 14:37:33.542520 27860 layer_factory.hpp:77] Creating layer mbox_loc
I0308 14:37:33.542527 27860 net.cpp:100] Creating Layer mbox_loc
I0308 14:37:33.542531 27860 net.cpp:434] mbox_loc <- res3b1_relu_mbox_loc_flat
I0308 14:37:33.542536 27860 net.cpp:434] mbox_loc <- res5b_relu_mbox_loc_flat
I0308 14:37:33.542539 27860 net.cpp:434] mbox_loc <- res5b_relu/conv1_2_mbox_loc_flat
I0308 14:37:33.542546 27860 net.cpp:434] mbox_loc <- res5b_relu/conv2_2_mbox_loc_flat
I0308 14:37:33.542549 27860 net.cpp:434] mbox_loc <- res5b_relu/conv3_2_mbox_loc_flat
I0308 14:37:33.542553 27860 net.cpp:434] mbox_loc <- pool6_mbox_loc_flat
I0308 14:37:33.542558 27860 net.cpp:408] mbox_loc -> mbox_loc
I0308 14:37:33.542583 27860 net.cpp:150] Setting up mbox_loc
I0308 14:37:33.542588 27860 net.cpp:157] Top shape: 2 16296 (32592)
I0308 14:37:33.542590 27860 net.cpp:165] Memory required for data: 449290832
I0308 14:37:33.542593 27860 layer_factory.hpp:77] Creating layer mbox_conf
I0308 14:37:33.542598 27860 net.cpp:100] Creating Layer mbox_conf
I0308 14:37:33.542603 27860 net.cpp:434] mbox_conf <- res3b1_relu_mbox_conf_flat
I0308 14:37:33.542606 27860 net.cpp:434] mbox_conf <- res5b_relu_mbox_conf_flat
I0308 14:37:33.542610 27860 net.cpp:434] mbox_conf <- res5b_relu/conv1_2_mbox_conf_flat
I0308 14:37:33.542615 27860 net.cpp:434] mbox_conf <- res5b_relu/conv2_2_mbox_conf_flat
I0308 14:37:33.542618 27860 net.cpp:434] mbox_conf <- res5b_relu/conv3_2_mbox_conf_flat
I0308 14:37:33.542623 27860 net.cpp:434] mbox_conf <- pool6_mbox_conf_flat
I0308 14:37:33.542629 27860 net.cpp:408] mbox_conf -> mbox_conf
I0308 14:37:33.542649 27860 net.cpp:150] Setting up mbox_conf
I0308 14:37:33.542654 27860 net.cpp:157] Top shape: 2 20370 (40740)
I0308 14:37:33.542655 27860 net.cpp:165] Memory required for data: 449453792
I0308 14:37:33.542659 27860 layer_factory.hpp:77] Creating layer mbox_priorbox
I0308 14:37:33.542663 27860 net.cpp:100] Creating Layer mbox_priorbox
I0308 14:37:33.542667 27860 net.cpp:434] mbox_priorbox <- res3b1_relu_mbox_priorbox
I0308 14:37:33.542671 27860 net.cpp:434] mbox_priorbox <- res5b_relu_mbox_priorbox
I0308 14:37:33.542675 27860 net.cpp:434] mbox_priorbox <- res5b_relu/conv1_2_mbox_priorbox
I0308 14:37:33.542680 27860 net.cpp:434] mbox_priorbox <- res5b_relu/conv2_2_mbox_priorbox
I0308 14:37:33.542683 27860 net.cpp:434] mbox_priorbox <- res5b_relu/conv3_2_mbox_priorbox
I0308 14:37:33.542687 27860 net.cpp:434] mbox_priorbox <- pool6_mbox_priorbox
I0308 14:37:33.542692 27860 net.cpp:408] mbox_priorbox -> mbox_priorbox
I0308 14:37:33.542726 27860 net.cpp:150] Setting up mbox_priorbox
I0308 14:37:33.542731 27860 net.cpp:157] Top shape: 1 2 16296 (32592)
I0308 14:37:33.542734 27860 net.cpp:165] Memory required for data: 449584160
I0308 14:37:33.542737 27860 layer_factory.hpp:77] Creating layer mbox_loss
I0308 14:37:33.542744 27860 net.cpp:100] Creating Layer mbox_loss
I0308 14:37:33.542747 27860 net.cpp:434] mbox_loss <- mbox_loc
I0308 14:37:33.542750 27860 net.cpp:434] mbox_loss <- mbox_conf
I0308 14:37:33.542754 27860 net.cpp:434] mbox_loss <- mbox_priorbox
…
name: "ResNet18_GTSDB_SSD_510x300_100_40_Square_1_test"
state {
  phase: TEST
}
layer {
  name: "data"
  type: "AnnotatedData"
  top: "data"
  top: "label"
  include {
    phase: TEST
  }
  transform_param {
    mean_value: 130
    mean_value: 127
    mean_value: 125
    resize_param {
      prob: 1
      resize_mode: WARP
      height: 300
      width: 510
      interp_mode: LINEAR
    }
  }
  data_param {
    source: "examples/GTSDB/GTSDB_test_lmdb"
    batch_size: 1
    backend: LMDB
  }
  annotated_data_param {
    batch_sampler {
    }
    label_map_file: "data/GTSDB/labelmap_GTSDB.prototxt"
  }
}
layer {
  name: "conv1"
  type: "Convolution"
  bottom: "data"
  top: "conv1"
  param {
    lr_mult: 1
    decay_mult: 1
  }
  convolution_param {
    num_output: 64
    bias_term: false
    pad: 3
    kernel_size: 7
    stride: 2
    weight_filler {
      type: "gaussian"
      std: 0.01
    }
  }
}
layer {
  name: "bn_conv1"
  type: "BatchNorm"
  bottom: "conv1"
  top: "conv1"
  batch_norm_param {
    moving_average_fraction: 0.999
    eps: 0.001
  }
}
layer {
  name: "scale_conv1"
  type: "Scale"
  bottom: "conv1"
  top: "conv1"
  param {
    lr_mult: 1
    decay_mult: 0
  }
  param {
    lr_mult: 1
    decay_mult: 0
  }
  scale_param {
    filler {
      type: "constant"
      value: 1
    }
    bias_term: true
    bias_filler {
      type: "constant"
      value: 0
    }
  }
}
layer {
  name: "conv1_relu"
  type: "ReLU"
  bottom: "conv1"
  top: "conv1"
}
layer {
  name: "pool1"
  type: "Pooling"
  bottom: "conv1"
  top: "pool1"
  pooling_param {
    pool: MAX
    kernel_size: 3
    stride: 2
  }
}
layer {
  name: "res2a_branch1"
  type: "Convolution"
  bottom: "pool1"
  top: "res2a_branch1"
  param {
    lr_mult: 1
    decay_mult: 1
  }
  convolution_param {
    num_output: 64
    bias_term: false
    pad: 0
    kernel_size: 1
    stride: 1
    weight_filler {
      type: "gaussian"
      std: 0.01
    }
  }
}
layer {
  name: "bn2a_branch1"
  type: "BatchNorm"
  bottom: "res2a_branch1"
  top: "res2a_branch1"
  batch_norm_param {
    moving_average_fraction: 0.999
    eps: 0.001
  }
}
layer {
  name: "scale2a_branch1"
  type: "Scale"
  bottom: "res2a_branch1"
  top: "res2a_branch1"
  param {
    lr_mult: 1
    decay_mult: 0
  }
  param {
    lr_mult: 1
    decay_mult: 0
  }
  scale_param {
    filler {
      type: "constant"
      value: 1
    }
    bias_term: true
    bias_filler {
      type: "constant"
      value: 0
    }
  }
}
layer {
  name: "res2a_branch2a"
  type: "Convolution"
  bottom: "pool1"
  top: "res2a_branch2a"
  param {
    lr_mult: 1
    decay_mult: 1
  }
  convolution_param {
    num_output: 64
    bias_term: false
    pad: 1
    kernel_size: 3
    stride: 1
    weight_filler {
      type: "gaussian"
      std: 0.01
    }
  }
}
layer {
  name: "bn2a_branch2a"
  type: "BatchNorm"
  bottom: "res2a_branch2a"
  top: "res2a_branch2a"
  batch_norm_param {
    moving_average_fraction: 0.999
    eps: 0.001
  }
}
layer {
  name: "scale2a_branch2a"
  type: "Scale"
  bottom: "res2a_branch2a"
  top: "res2a_branch2a"
  param {
    lr_mult: 1
    decay_mult: 0
  }
  param {
    lr_mult: 1
    decay_mult: 0
  }
  scale_param {
    filler {
      type: "constant"
      value: 1
    }
    bias_term: true
    bias_filler {
      type: "constant"
      value: 0
    }
  }
}
layer {
  name: "res2a_branch2a_relu"
  type: "ReLU"
  bottom: "res2a_branch2a"
  top: "res2a_branch2a"
}
layer {
  name: "res2a_branch2b"
  type: "Convolution"
  bottom: "res2a_branch2a"
  top: "res2a_branch2b"
  param {
    lr_mult: 1
    decay_mult: 1
  }
  convolution_param {
    num_output: 64
    bias_term: false
    pad: 1
    kernel_size: 3
    stride: 1
    weight_filler {
      type: "gaussian"
      std: 0.01
    }
  }
}
layer {
  name: "bn2a_branch2b"
  type: "BatchNorm"
  bottom: "res2a_branch2b"
  top: "res2a_branch2b"
  batch_norm_param {
    moving_average_fraction: 0.999
    eps: 0.001
  }
}
layer {
  name: "scale2a_branch2b"
  type: "Scale"
  bottom: "res2a_branch2b"
  top: "res2a_branch2b"
  param {
    lr_mult: 1
    decay_mult: 0
  }
  param {
    lr_mult: 1
    decay_mult: 0
  }
  scale_param {
    filler {
      type: "constant"
      value: 1
    }
    bias_term: true
    bias_filler {
      type: "constant"
      value: 0
    }
  }
}
layer {
  name: "res2a_branch2b_relu"
  type: "ReLU"
  bottom: "res2a_branch2b"
  top: "res2a_branch2b"
}
layer {
  name: "res2a"
  type: "Eltwise"
  bottom: "res2a_branch1"
  bottom: "res2a_branch2b"
  top: "res2a"
}
layer {
  name: "res2a_relu"
  type: "ReLU"
  bottom: "res2a"
  top: "res2a"
}
layer {
  name: "res2b_branch2a"
  type: "Convolution"
  bottom: "res2a"
  top: "res2b_branch2a"
  param {
    lr_mult: 1
    decay_mult: 1
  }
  convolution_param {
    num_output: 64
    bias_term: false
    pad: 1
    kernel_size: 3
    stride: 1
    weight_filler {
      type: "gaussian"
      std: 0.01
    }
  }
}
layer {
  name: "bn2b_branch2a"
  type: "BatchNorm"
  bottom: "res2b_branch2a"
  top: "res2b_branch2a"
  batch_norm_param {
    moving_average_fraction: 0.999
    eps: 0.001
  }
}
layer {
  name: "scale2b_branch2a"
  type: "Scale"
  bottom: "res2b_branch2a"
  top: "res2b_branch2a"
  param {
    lr_mult: 1
    decay_mult: 0
  }
  param {
    lr_mult: 1
    decay_mult: 0
  }
  scale_param {
    filler {
      type: "constant"
      value: 1
    }
    bias_term: true
    bias_filler {
      type: "constant"
      value: 0
    }
  }
}
layer {
  name: "res2b_branch2a_relu"
  type: "ReLU"
  bottom: "res2b_branch2a"
  top: "res2b_branch2a"
}
layer {
  name: "res2b_branch2b"
  type: "Convolution"
  bottom: "res2b_branch2a"
  top: "res2b_branch2b"
  param {
    lr_mult: 1
    decay_mult: 1
  }
  convolution_param {
    num_output: 64
    bias_term: false
    pad: 1
    kernel_size: 3
    stride: 1
    weight_filler {
      type: "gaussian"
      std: 0.01
    }
  }
}
layer {
  name: "bn2b_branch2b"
  type: "BatchNorm"
  bottom: "res2b_branch2b"
  top: "res2b_branch2b"
  batch_norm_param {
    moving_average_fraction: 0.999
    eps: 0.001
  }
}
layer {
  name: "scale2b_branch2b"
  type: "Scale"
  bottom: "res2b_branch2b"
  top: "res2b_branch2b"
  param {
    lr_mult: 1
    decay_mult: 0
  }
  param {
    lr_mult: 1
    decay_mult: 0
  }
  scale_param {
    filler {
      type: "constant"
      value: 1
    }
    bias_term: true
    bias_filler {
      type: "constant"
      value: 0
    }
  }
}
layer {
  name: "res2b_branch2b_relu"
  type: "ReLU"
  bottom: "res2b_branch2b"
  top: "res2b_branch2b"
}
layer {
  name: "res2b"
  type: "Eltwise"
  bottom: "res2a"
  bottom: "res2b_branch2b"
  top: "res2b"
}
layer {
  name: "res2b_relu"
  type: "ReLU"
  bottom: "res2b"
  top: "res2b"
}
layer {
  name: "res3a_branch1"
  type: "Convolution"
  bottom: "res2b"
  top: "res3a_branch1"
  param {
    lr_mult: 1
    decay_mult: 1
  }
  convolution_param {
    num_output: 128
    bias_term: false
    pad: 0
    kernel_size: 1
    stride: 2
    weight_filler {
      type: "gaussian"
      std: 0.01
    }
  }
}
layer {
  name: "bn3a_branch1"
  type: "BatchNorm"
  bottom: "res3a_branch1"
  top: "res3a_branch1"
  batch_norm_param {
    moving_average_fraction: 0.999
    eps: 0.001
  }
}
layer {
  name: "scale3a_branch1"
  type: "Scale"
  bottom: "res3a_branch1"
  top: "res3a_branch1"
  param {
    lr_mult: 1
    decay_mult: 0
  }
  param {
    lr_mult: 1
    decay_mult: 0
  }
  scale_param {
    filler {
      type: "constant"
      value: 1
    }
    bias_term: true
    bias_filler {
      type: "constant"
      value: 0
    }
  }
}
layer {
  name: "res3a_branch2a"
  type: "Convolution"
  bottom: "res2b"
  top: "res3a_branch2a"
  param {
    lr_mult: 1
    decay_mult: 1
  }
  convolution_param {
    num_output: 128
    bias_term: false
    pad: 1
    kernel_size: 3
    stride: 2
    weight_filler {
      type: "gaussian"
      std: 0.01
    }
  }
}
layer {
  name: "bn3a_branch2a"
  type: "BatchNorm"
  bottom: "res3a_branch2a"
  top: "res3a_branch2a"
  batch_norm_param {
    moving_average_fraction: 0.999
    eps: 0.001
  }
}
layer {
  name: "scale3a_branch2a"
  type: "Scale"
  bottom: "res3a_branch2a"
  top: "res3a_branch2a"
  param {
    lr_mult: 1
    decay_mult: 0
  }
  param {
    lr_mult: 1
    decay_mult: 0
  }
  scale_param {
    filler {
      type: "constant"
      value: 1
    }
    bias_term: true
    bias_filler {
      type: "constant"
      value: 0
    }
  }
}
layer {
  name: "res3a_branch2a_relu"
  type: "ReLU"
  bottom: "res3a_branch2a"
  top: "res3a_branch2a"
}
layer {
  name: "res3a_branch2b"
  type: "Convolution"
  bottom: "res3a_branch2a"
  top: "res3a_branch2b"
  param {
    lr_mult: 1
    decay_mult: 1
  }
  convolution_param {
    num_output: 128
    bias_term: false
    pad: 1
    kernel_size: 3
    stride: 1
    weight_filler {
      type: "gaussian"
      std: 0.01
    }
  }
}
layer {
  name: "bn3a_branch2b"
  type: "BatchNorm"
  bottom: "res3a_branch2b"
  top: "res3a_branch2b"
  batch_norm_param {
    moving_average_fraction: 0.999
    eps: 0.001
  }
}
layer {
  name: "scale3a_branch2b"
  type: "Scale"
  bottom: "res3a_branch2b"
  top: "res3a_branch2b"
  param {
    lr_mult: 1
    decay_mult: 0
  }
  param {
    lr_mult: 1
    decay_mult: 0
  }
  scale_param {
    filler {
      type: "constant"
      value: 1
    }
    bias_term: true
    bias_filler {
      type: "constant"
      value: 0
    }
  }
}
layer {
  name: "res3a_branch2b_relu"
  type: "ReLU"
  bottom: "res3a_branch2b"
  top: "res3a_branch2b"
}
layer {
  name: "res3a"
  type: "Eltwise"
  bottom: "res3a_branch1"
  bottom: "res3a_branch2b"
  top: "res3a"
}
layer {
  name: "res3a_relu"
  type: "ReLU"
  bottom: "res3a"
  top: "res3a"
}
layer {
  name: "res3b1_branch2a"
  type: "Convolution"
  bottom: "res3a"
  top: "res3b1_branch2a"
  param {
    lr_mult: 1
    decay_mult: 1
  }
  convolution_param {
    num_output: 128
    bias_term: false
    pad: 1
    kernel_size: 3
    stride: 1
    weight_filler {
      type: "gaussian"
      std: 0.01
    }
  }
}
layer {
  name: "bn3b1_branch2a"
  type: "BatchNorm"
  bottom: "res3b1_branch2a"
  top: "res3b1_branch2a"
  batch_norm_param {
    moving_average_fraction: 0.999
    eps: 0.001
  }
}
layer {
  name: "scale3b1_branch2a"
  type: "Scale"
  bottom: "res3b1_branch2a"
  top: "res3b1_branch2a"
  param {
    lr_mult: 1
    decay_mult: 0
  }
  param {
    lr_mult: 1
    decay_mult: 0
  }
  scale_param {
    filler {
      type: "constant"
      value: 1
    }
    bias_term: true
    bias_filler {
      type: "constant"
      value: 0
    }
  }
}
layer {
  name: "res3b1_branch2a_relu"
  type: "ReLU"
  bottom: "res3b1_branch2a"
  top: "res3b1_branch2a"
}
layer {
  name: "res3b1_branch2b"
  type: "Convolution"
  bottom: "res3b1_branch2a"
  top: "res3b1_branch2b"
  param {
    lr_mult: 1
    decay_mult: 1
  }
  convolution_param {
    num_output: 128
    bias_term: false
    pad: 1
    kernel_size: 3
    stride: 1
    weight_filler {
      type: "gaussian"
      std: 0.01
    }
  }
}
layer {
  name: "bn3b1_branch2b"
  type: "BatchNorm"
  bottom: "res3b1_branch2b"
  top: "res3b1_branch2b"
  batch_norm_param {
…
I0308 14:37:33.690578 27860 net.cpp:150] Setting up res5b_relu/conv1_1_scale
I0308 14:37:33.690593 27860 net.cpp:157] Top shape: 1 256 19 32 (155648)
I0308 14:37:33.690595 27860 net.cpp:165] Memory required for data: 219151648
I0308 14:37:33.690601 27860 layer_factory.hpp:77] Creating layer res5b_relu/conv1_1_relu
I0308 14:37:33.690606 27860 net.cpp:100] Creating Layer res5b_relu/conv1_1_relu
I0308 14:37:33.690610 27860 net.cpp:434] res5b_relu/conv1_1_relu <- res5b_relu/conv1_1
I0308 14:37:33.690615 27860 net.cpp:395] res5b_relu/conv1_1_relu -> res5b_relu/conv1_1 (in-place)
I0308 14:37:33.690984 27860 net.cpp:150] Setting up res5b_relu/conv1_1_relu
I0308 14:37:33.690990 27860 net.cpp:157] Top shape: 1 256 19 32 (155648)
I0308 14:37:33.690994 27860 net.cpp:165] Memory required for data: 219774240
I0308 14:37:33.690996 27860 layer_factory.hpp:77] Creating layer res5b_relu/conv1_2
I0308 14:37:33.691005 27860 net.cpp:100] Creating Layer res5b_relu/conv1_2
I0308 14:37:33.691009 27860 net.cpp:434] res5b_relu/conv1_2 <- res5b_relu/conv1_1
I0308 14:37:33.691015 27860 net.cpp:408] res5b_relu/conv1_2 -> res5b_relu/conv1_2
I0308 14:37:33.701239 27860 net.cpp:150] Setting up res5b_relu/conv1_2
I0308 14:37:33.701265 27860 net.cpp:157] Top shape: 1 512 10 16 (81920)
I0308 14:37:33.701268 27860 net.cpp:165] Memory required for data: 220101920
I0308 14:37:33.701277 27860 layer_factory.hpp:77] Creating layer res5b_relu/conv1_2_bn
I0308 14:37:33.701292 27860 net.cpp:100] Creating Layer res5b_relu/conv1_2_bn
I0308 14:37:33.701297 27860 net.cpp:434] res5b_relu/conv1_2_bn <- res5b_relu/conv1_2
I0308 14:37:33.701304 27860 net.cpp:395] res5b_relu/conv1_2_bn -> res5b_relu/conv1_2 (in-place)
I0308 14:37:33.701540 27860 net.cpp:150] Setting up res5b_relu/conv1_2_bn
I0308 14:37:33.701546 27860 net.cpp:157] Top shape: 1 512 10 16 (81920)
I0308 14:37:33.701550 27860 net.cpp:165] Memory required for data: 220429600
I0308 14:37:33.701557 27860 layer_factory.hpp:77] Creating layer res5b_relu/conv1_2_scale
I0308 14:37:33.701566 27860 net.cpp:100] Creating Layer res5b_relu/conv1_2_scale
I0308 14:37:33.701571 27860 net.cpp:434] res5b_relu/conv1_2_scale <- res5b_relu/conv1_2
I0308 14:37:33.701577 27860 net.cpp:395] res5b_relu/conv1_2_scale -> res5b_relu/conv1_2 (in-place)
I0308 14:37:33.701622 27860 layer_factory.hpp:77] Creating layer res5b_relu/conv1_2_scale
I0308 14:37:33.701737 27860 net.cpp:150] Setting up res5b_relu/conv1_2_scale
I0308 14:37:33.701745 27860 net.cpp:157] Top shape: 1 512 10 16 (81920)
I0308 14:37:33.701747 27860 net.cpp:165] Memory required for data: 220757280
I0308 14:37:33.701752 27860 layer_factory.hpp:77] Creating layer res5b_relu/conv1_2_relu
I0308 14:37:33.701758 27860 net.cpp:100] Creating Layer res5b_relu/conv1_2_relu
I0308 14:37:33.701761 27860 net.cpp:434] res5b_relu/conv1_2_relu <- res5b_relu/conv1_2
I0308 14:37:33.701768 27860 net.cpp:395] res5b_relu/conv1_2_relu -> res5b_relu/conv1_2 (in-place)
I0308 14:37:33.702184 27860 net.cpp:150] Setting up res5b_relu/conv1_2_relu
I0308 14:37:33.702193 27860 net.cpp:157] Top shape: 1 512 10 16 (81920)
I0308 14:37:33.702195 27860 net.cpp:165] Memory required for data: 221084960
I0308 14:37:33.702198 27860 layer_factory.hpp:77] Creating layer res5b_relu/conv1_2_res5b_relu/conv1_2_relu_0_split
I0308 14:37:33.702206 27860 net.cpp:100] Creating Layer res5b_relu/conv1_2_res5b_relu/conv1_2_relu_0_split
I0308 14:37:33.702210 27860 net.cpp:434] res5b_relu/conv1_2_res5b_relu/conv1_2_relu_0_split <- res5b_relu/conv1_2
I0308 14:37:33.702217 27860 net.cpp:408] res5b_relu/conv1_2_res5b_relu/conv1_2_relu_0_split -> res5b_relu/conv1_2_res5b_relu/conv1_2_relu_0_split_0
I0308 14:37:33.702237 27860 net.cpp:408] res5b_relu/conv1_2_res5b_relu/conv1_2_relu_0_split -> res5b_relu/conv1_2_res5b_relu/conv1_2_relu_0_split_1
I0308 14:37:33.702244 27860 net.cpp:408] res5b_relu/conv1_2_res5b_relu/conv1_2_relu_0_split -> res5b_relu/conv1_2_res5b_relu/conv1_2_relu_0_split_2
I0308 14:37:33.702248 27860 net.cpp:408] res5b_relu/conv1_2_res5b_relu/conv1_2_relu_0_split -> res5b_relu/conv1_2_res5b_relu/conv1_2_relu_0_split_3
I0308 14:37:33.702334 27860 net.cpp:150] Setting up res5b_relu/conv1_2_res5b_relu/conv1_2_relu_0_split
I0308 14:37:33.702339 27860 net.cpp:157] Top shape: 1 512 10 16 (81920)
I0308 14:37:33.702342 27860 net.cpp:157] Top shape: 1 512 10 16 (81920)
I0308 14:37:33.702344 27860 net.cpp:157] Top shape: 1 512 10 16 (81920)
I0308 14:37:33.702347 27860 net.cpp:157] Top shape: 1 512 10 16 (81920)
I0308 14:37:33.702348 27860 net.cpp:165] Memory required for data: 222395680
I0308 14:37:33.702350 27860 layer_factory.hpp:77] Creating layer res5b_relu/conv2_1
I0308 14:37:33.702358 27860 net.cpp:100] Creating Layer res5b_relu/conv2_1
I0308 14:37:33.702359 27860 net.cpp:434] res5b_relu/conv2_1 <- res5b_relu/conv1_2_res5b_relu/conv1_2_relu_0_split_0
I0308 14:37:33.702363 27860 net.cpp:408] res5b_relu/conv2_1 -> res5b_relu/conv2_1
I0308 14:37:33.704752 27860 net.cpp:150] Setting up res5b_relu/conv2_1
I0308 14:37:33.704766 27860 net.cpp:157] Top shape: 1 256 10 16 (40960)
I0308 14:37:33.704767 27860 net.cpp:165] Memory required for data: 222559520
I0308 14:37:33.704773 27860 layer_factory.hpp:77] Creating layer res5b_relu/conv2_1_bn
I0308 14:37:33.704780 27860 net.cpp:100] Creating Layer res5b_relu/conv2_1_bn
I0308 14:37:33.704783 27860 net.cpp:434] res5b_relu/conv2_1_bn <- res5b_relu/conv2_1
I0308 14:37:33.704788 27860 net.cpp:395] res5b_relu/conv2_1_bn -> res5b_relu/conv2_1 (in-place)
I0308 14:37:33.704977 27860 net.cpp:150] Setting up res5b_relu/conv2_1_bn
I0308 14:37:33.704982 27860 net.cpp:157] Top shape: 1 256 10 16 (40960)
I0308 14:37:33.704984 27860 net.cpp:165] Memory required for data: 222723360
I0308 14:37:33.704990 27860 layer_factory.hpp:77] Creating layer res5b_relu/conv2_1_scale
I0308 14:37:33.705000 27860 net.cpp:100] Creating Layer res5b_relu/conv2_1_scale
I0308 14:37:33.705004 27860 net.cpp:434] res5b_relu/conv2_1_scale <- res5b_relu/conv2_1
I0308 14:37:33.705009 27860 net.cpp:395] res5b_relu/conv2_1_scale -> res5b_relu/conv2_1 (in-place)
I0308 14:37:33.705051 27860 layer_factory.hpp:77] Creating layer res5b_relu/conv2_1_scale
I0308 14:37:33.705152 27860 net.cpp:150] Setting up res5b_relu/conv2_1_scale
I0308 14:37:33.705157 27860 net.cpp:157] Top shape: 1 256 10 16 (40960)
I0308 14:37:33.705159 27860 net.cpp:165] Memory required for data: 222887200
I0308 14:37:33.705165 27860 layer_factory.hpp:77] Creating layer res5b_relu/conv2_1_relu
I0308 14:37:33.705171 27860 net.cpp:100] Creating Layer res5b_relu/conv2_1_relu
I0308 14:37:33.705174 27860 net.cpp:434] res5b_relu/conv2_1_relu <- res5b_relu/conv2_1
I0308 14:37:33.705179 27860 net.cpp:395] res5b_relu/conv2_1_relu -> res5b_relu/conv2_1 (in-place)
I0308 14:37:33.705802 27860 net.cpp:150] Setting up res5b_relu/conv2_1_relu
I0308 14:37:33.705809 27860 net.cpp:157] Top shape: 1 256 10 16 (40960)
I0308 14:37:33.705811 27860 net.cpp:165] Memory required for data: 223051040
I0308 14:37:33.705813 27860 layer_factory.hpp:77] Creating layer res5b_relu/conv2_2
I0308 14:37:33.705819 27860 net.cpp:100] Creating Layer res5b_relu/conv2_2
I0308 14:37:33.705822 27860 net.cpp:434] res5b_relu/conv2_2 <- res5b_relu/conv2_1
I0308 14:37:33.705826 27860 net.cpp:408] res5b_relu/conv2_2 -> res5b_relu/conv2_2
I0308 14:37:33.714924 27860 net.cpp:150] Setting up res5b_relu/conv2_2
I0308 14:37:33.714941 27860 net.cpp:157] Top shape: 1 512 5 8 (20480)
I0308 14:37:33.714943 27860 net.cpp:165] Memory required for data: 223132960
I0308 14:37:33.714949 27860 layer_factory.hpp:77] Creating layer res5b_relu/conv2_2_bn
I0308 14:37:33.714957 27860 net.cpp:100] Creating Layer res5b_relu/conv2_2_bn
I0308 14:37:33.714962 27860 net.cpp:434] res5b_relu/conv2_2_bn <- res5b_relu/conv2_2
I0308 14:37:33.714965 27860 net.cpp:395] res5b_relu/conv2_2_bn -> res5b_relu/conv2_2 (in-place)
I0308 14:37:33.715150 27860 net.cpp:150] Setting up res5b_relu/conv2_2_bn
I0308 14:37:33.715154 27860 net.cpp:157] Top shape: 1 512 5 8 (20480)
I0308 14:37:33.715157 27860 net.cpp:165] Memory required for data: 223214880
I0308 14:37:33.715162 27860 layer_factory.hpp:77] Creating layer res5b_relu/conv2_2_scale
I0308 14:37:33.715165 27860 net.cpp:100] Creating Layer res5b_relu/conv2_2_scale
I0308 14:37:33.715179 27860 net.cpp:434] res5b_relu/conv2_2_scale <- res5b_relu/conv2_2
I0308 14:37:33.715183 27860 net.cpp:395] res5b_relu/conv2_2_scale -> res5b_relu/conv2_2 (in-place)
I0308 14:37:33.715215 27860 layer_factory.hpp:77] Creating layer res5b_relu/conv2_2_scale
I0308 14:37:33.715315 27860 net.cpp:150] Setting up res5b_relu/conv2_2_scale
I0308 14:37:33.715319 27860 net.cpp:157] Top shape: 1 512 5 8 (20480)
I0308 14:37:33.715322 27860 net.cpp:165] Memory required for data: 223296800
I0308 14:37:33.715324 27860 layer_factory.hpp:77] Creating layer res5b_relu/conv2_2_relu
I0308 14:37:33.715327 27860 net.cpp:100] Creating Layer res5b_relu/conv2_2_relu
I0308 14:37:33.715329 27860 net.cpp:434] res5b_relu/conv2_2_relu <- res5b_relu/conv2_2
I0308 14:37:33.715332 27860 net.cpp:395] res5b_relu/conv2_2_relu -> res5b_relu/conv2_2 (in-place)
I0308 14:37:33.716133 27860 net.cpp:150] Setting up res5b_relu/conv2_2_relu
I0308 14:37:33.716140 27860 net.cpp:157] Top shape: 1 512 5 8 (20480)
I0308 14:37:33.716142 27860 net.cpp:165] Memory required for data: 223378720
I0308 14:37:33.716145 27860 layer_factory.hpp:77] Creating layer res5b_relu/conv2_2_res5b_relu/conv2_2_relu_0_split
I0308 14:37:33.716148 27860 net.cpp:100] Creating Layer res5b_relu/conv2_2_res5b_relu/conv2_2_relu_0_split
I0308 14:37:33.716150 27860 net.cpp:434] res5b_relu/conv2_2_res5b_relu/conv2_2_relu_0_split <- res5b_relu/conv2_2
I0308 14:37:33.716156 27860 net.cpp:408] res5b_relu/conv2_2_res5b_relu/conv2_2_relu_0_split -> res5b_relu/conv2_2_res5b_relu/conv2_2_relu_0_split_0
I0308 14:37:33.716161 27860 net.cpp:408] res5b_relu/conv2_2_res5b_relu/conv2_2_relu_0_split -> res5b_relu/conv2_2_res5b_relu/conv2_2_relu_0_split_1
I0308 14:37:33.716164 27860 net.cpp:408] res5b_relu/conv2_2_res5b_relu/conv2_2_relu_0_split -> res5b_relu/conv2_2_res5b_relu/conv2_2_relu_0_split_2
I0308 14:37:33.716168 27860 net.cpp:408] res5b_relu/conv2_2_res5b_relu/conv2_2_relu_0_split -> res5b_relu/conv2_2_res5b_relu/conv2_2_relu_0_split_3
I0308 14:37:33.716231 27860 net.cpp:150] Setting up res5b_relu/conv2_2_res5b_relu/conv2_2_relu_0_split
I0308 14:37:33.716236 27860 net.cpp:157] Top shape: 1 512 5 8 (20480)
I0308 14:37:33.716239 27860 net.cpp:157] Top shape: 1 512 5 8 (20480)
I0308 14:37:33.716241 27860 net.cpp:157] Top shape: 1 512 5 8 (20480)
I0308 14:37:33.716243 27860 net.cpp:157] Top shape: 1 512 5 8 (20480)
I0308 14:37:33.716245 27860 net.cpp:165] Memory required for data: 223706400
I0308 14:37:33.716248 27860 layer_factory.hpp:77] Creating layer res5b_relu/conv3_1
I0308 14:37:33.716253 27860 net.cpp:100] Creating Layer res5b_relu/conv3_1
I0308 14:37:33.716255 27860 net.cpp:434] res5b_relu/conv3_1 <- res5b_relu/conv2_2_res5b_relu/conv2_2_relu_0_split_0
I0308 14:37:33.716259 27860 net.cpp:408] res5b_relu/conv3_1 -> res5b_relu/conv3_1
I0308 14:37:33.718562 27860 net.cpp:150] Setting up res5b_relu/conv3_1
I0308 14:37:33.718574 27860 net.cpp:157] Top shape: 1 256 5 8 (10240)
I0308 14:37:33.718575 27860 net.cpp:165] Memory required for data: 223747360
I0308 14:37:33.718580 27860 layer_factory.hpp:77] Creating layer res5b_relu/conv3_1_bn
I0308 14:37:33.718585 27860 net.cpp:100] Creating Layer res5b_relu/conv3_1_bn
I0308 14:37:33.718588 27860 net.cpp:434] res5b_relu/conv3_1_bn <- res5b_relu/conv3_1
I0308 14:37:33.718592 27860 net.cpp:395] res5b_relu/conv3_1_bn -> res5b_relu/conv3_1 (in-place)
I0308 14:37:33.718785 27860 net.cpp:150] Setting up res5b_relu/conv3_1_bn
I0308 14:37:33.718791 27860 net.cpp:157] Top shape: 1 256 5 8 (10240)
I0308 14:37:33.718792 27860 net.cpp:165] Memory required for data: 223788320
I0308 14:37:33.718796 27860 layer_factory.hpp:77] Creating layer res5b_relu/conv3_1_scale
I0308 14:37:33.718812 27860 net.cpp:100] Creating Layer res5b_relu/conv3_1_scale
I0308 14:37:33.718816 27860 net.cpp:434] res5b_relu/conv3_1_scale <- res5b_relu/conv3_1
I0308 14:37:33.718821 27860 net.cpp:395] res5b_relu/conv3_1_scale -> res5b_relu/conv3_1 (in-place)
I0308 14:37:33.718863 27860 layer_factory.hpp:77] Creating layer res5b_relu/conv3_1_scale
I0308 14:37:33.718983 27860 net.cpp:150] Setting up res5b_relu/conv3_1_scale
I0308 14:37:33.718988 27860 net.cpp:157] Top shape: 1 256 5 8 (10240)
I0308 14:37:33.718991 27860 net.cpp:165] Memory required for data: 223829280
I0308 14:37:33.718994 27860 layer_factory.hpp:77] Creating layer res5b_relu/conv3_1_relu
I0308 14:37:33.718997 27860 net.cpp:100] Creating Layer res5b_relu/conv3_1_relu
I0308 14:37:33.719000 27860 net.cpp:434] res5b_relu/conv3_1_relu <- res5b_relu/conv3_1
I0308 14:37:33.719002 27860 net.cpp:395] res5b_relu/conv3_1_relu -> res5b_relu/conv3_1 (in-place)
I0308 14:37:33.719373 27860 net.cpp:150] Setting up res5b_relu/conv3_1_relu
I0308 14:37:33.719380 27860 net.cpp:157] Top shape: 1 256 5 8 (10240)
I0308 14:37:33.719383 27860 net.cpp:165] Memory required for data: 223870240
I0308 14:37:33.719384 27860 layer_factory.hpp:77] Creating layer res5b_relu/conv3_2
I0308 14:37:33.719390 27860 net.cpp:100] Creating Layer res5b_relu/conv3_2
I0308 14:37:33.719393 27860 net.cpp:434] res5b_relu/conv3_2 <- res5b_relu/conv3_1
I0308 14:37:33.719398 27860 net.cpp:408] res5b_relu/conv3_2 -> res5b_relu/conv3_2
I0308 14:37:33.730042 27860 net.cpp:150] Setting up res5b_relu/conv3_2
I0308 14:37:33.730058 27860 net.cpp:157] Top shape: 1 512 3 4 (6144)
I0308 14:37:33.730060 27860 net.cpp:165] Memory required for data: 223894816
I0308 14:37:33.730067 27860 layer_factory.hpp:77] Creating layer res5b_relu/conv3_2_bn
I0308 14:37:33.730073 27860 net.cpp:100] Creating Layer res5b_relu/conv3_2_bn
I0308 14:37:33.730077 27860 net.cpp:434] res5b_relu/conv3_2_bn <- res5b_relu/conv3_2
I0308 14:37:33.730080 27860 net.cpp:395] res5b_relu/conv3_2_bn -> res5b_relu/conv3_2 (in-place)
I0308 14:37:33.730278 27860 net.cpp:150] Setting up res5b_relu/conv3_2_bn
I0308 14:37:33.730283 27860 net.cpp:157] Top shape: 1 512 3 4 (6144)
I0308 14:37:33.730285 27860 net.cpp:165] Memory required for data: 223919392
I0308 14:37:33.730289 27860 layer_factory.hpp:77] Creating layer res5b_relu/conv3_2_scale
I0308 14:37:33.730294 27860 net.cpp:100] Creating Layer res5b_relu/conv3_2_scale
I0308 14:37:33.730296 27860 net.cpp:434] res5b_relu/conv3_2_scale <- res5b_relu/conv3_2
I0308 14:37:33.730300 27860 net.cpp:395] res5b_relu/conv3_2_scale -> res5b_relu/conv3_2 (in-place)
I0308 14:37:33.730338 27860 layer_factory.hpp:77] Creating layer res5b_relu/conv3_2_scale
I0308 14:37:33.730451 27860 net.cpp:150] Setting up res5b_relu/conv3_2_scale
I0308 14:37:33.730456 27860 net.cpp:157] Top shape: 1 512 3 4 (6144)
I0308 14:37:33.730458 27860 net.cpp:165] Memory required for data: 223943968
I0308 14:37:33.730461 27860 layer_factory.hpp:77] Creating layer res5b_relu/conv3_2_relu
I0308 14:37:33.730465 27860 net.cpp:100] Creating Layer res5b_relu/conv3_2_relu
I0308 14:37:33.730468 27860 net.cpp:434] res5b_relu/conv3_2_relu <- res5b_relu/conv3_2
I0308 14:37:33.730470 27860 net.cpp:395] res5b_relu/conv3_2_relu -> res5b_relu/conv3_2 (in-place)
I0308 14:37:33.730834 27860 net.cpp:150] Setting up res5b_relu/conv3_2_relu
I0308 14:37:33.730840 27860 net.cpp:157] Top shape: 1 512 3 4 (6144)
I0308 14:37:33.730842 27860 net.cpp:165] Memory required for data: 223968544
I0308 14:37:33.730844 27860 layer_factory.hpp:77] Creating layer res5b_relu/conv3_2_res5b_relu/conv3_2_relu_0_split
I0308 14:37:33.730847 27860 net.cpp:100] Creating Layer res5b_relu/conv3_2_res5b_relu/conv3_2_relu_0_split
I0308 14:37:33.730849 27860 net.cpp:434] res5b_relu/conv3_2_res5b_relu/conv3_2_relu_0_split <- res5b_relu/conv3_2
I0308 14:37:33.730854 27860 net.cpp:408] res5b_relu/conv3_2_res5b_relu/conv3_2_relu_0_split -> res5b_relu/conv3_2_res5b_relu/conv3_2_relu_0_split_0
I0308 14:37:33.730859 27860 net.cpp:408] res5b_relu/conv3_2_res5b_relu/conv3_2_relu_0_split -> res5b_relu/conv3_2_res5b_relu/conv3_2_relu_0_split_1
I0308 14:37:33.730865 27860 net.cpp:408] res5b_relu/conv3_2_res5b_relu/conv3_2_relu_0_split -> res5b_relu/conv3_2_res5b_relu/conv3_2_relu_0_split_2
I0308 14:37:33.730870 27860 net.cpp:408] res5b_relu/conv3_2_res5b_relu/conv3_2_relu_0_split -> res5b_relu/conv3_2_res5b_relu/conv3_2_relu_0_split_3
I0308 14:37:33.730952 27860 net.cpp:150] Setting up res5b_relu/conv3_2_res5b_relu/conv3_2_relu_0_split
I0308 14:37:33.730958 27860 net.cpp:157] Top shape: 1 512 3 4 (6144)
I0308 14:37:33.730960 27860 net.cpp:157] Top shape: 1 512 3 4 (6144)
I0308 14:37:33.730963 27860 net.cpp:157] Top shape: 1 512 3 4 (6144)
I0308 14:37:33.730965 27860 net.cpp:157] Top shape: 1 512 3 4 (6144)
I0308 14:37:33.730967 27860 net.cpp:165] Memory required for data: 224066848
I0308 14:37:33.730968 27860 layer_factory.hpp:77] Creating layer pool6
I0308 14:37:33.730973 27860 net.cpp:100] Creating Layer pool6
I0308 14:37:33.730974 27860 net.cpp:434] pool6 <- res5b_relu/conv3_2_res5b_relu/conv3_2_relu_0_split_0
I0308 14:37:33.730978 27860 net.cpp:408] pool6 -> pool6
I0308 14:37:33.731355 27860 net.cpp:150] Setting up pool6
I0308 14:37:33.731361 27860 net.cpp:157] Top shape: 1 512 1 1 (512)
I0308 14:37:33.731364 27860 net.cpp:165] Memory required for data: 224068896
I0308 14:37:33.731365 27860 layer_factory.hpp:77] Creating layer pool6_pool6_0_split
I0308 14:37:33.731369 27860 net.cpp:100] Creating Layer pool6_pool6_0_split
I0308 14:37:33.731370 27860 net.cpp:434] pool6_pool6_0_split <- pool6
I0308 14:37:33.731375 27860 net.cpp:408] pool6_pool6_0_split -> pool6_pool6_0_split_0
I0308 14:37:33.731379 27860 net.cpp:408] pool6_pool6_0_split -> pool6_pool6_0_split_1
I0308 14:37:33.731382 27860 net.cpp:408] pool6_pool6_0_split -> pool6_pool6_0_split_2
I0308 14:37:33.731436 27860 net.cpp:150] Setting up pool6_pool6_0_split
I0308 14:37:33.731441 27860 net.cpp:157] Top shape: 1 512 1 1 (512)
I0308 14:37:33.731442 27860 net.cpp:157] Top shape: 1 512 1 1 (512)
I0308 14:37:33.731444 27860 net.cpp:157] Top shape: 1 512 1 1 (512)
I0308 14:37:33.731446 27860 net.cpp:165] Memory required for data: 224075040
I0308 14:37:33.731447 27860 layer_factory.hpp:77] Creating layer res3b1_relu_mbox_loc
I0308 14:37:33.731453 27860 net.cpp:100] Creating Layer res3b1_relu_mbox_loc
I0308 14:37:33.731456 27860 net.cpp:434] res3b1_relu_mbox_loc <- res3b1_res3b1_relu_0_split_2
I0308 14:37:33.731461 27860 net.cpp:408] res3b1_relu_mbox_loc -> res3b1_relu_mbox_loc
I0308 14:37:33.733253 27860 net.cpp:150] Setting up res3b1_relu_mbox_loc
I0308 14:37:33.733260 27860 net.cpp:157] Top shape: 1 4 38 64 (9728)
I0308 14:37:33.733263 27860 net.cpp:165] Memory required for data: 224113952
I0308 14:37:33.733270 27860 layer_factory.hpp:77] Creating layer res3b1_relu_mbox_loc_perm
I0308 14:37:33.733278 27860 net.cpp:100] Creating Layer res3b1_relu_mbox_loc_perm
I0308 14:37:33.733283 27860 net.cpp:434] res3b1_relu_mbox_loc_perm <- res3b1_relu_mbox_loc
I0308 14:37:33.733289 27860 net.cpp:408] res3b1_relu_mbox_loc_perm -> res3b1_relu_mbox_loc_perm
I0308 14:37:33.733394 27860 net.cpp:150] Setting up res3b1_relu_mbox_loc_perm
I0308 14:37:33.733400 27860 net.cpp:157] Top shape: 1 38 64 4 (9728)
I0308 14:37:33.733403 27860 net.cpp:165] Memory required for data: 224152864
I0308 14:37:33.733407 27860 layer_factory.hpp:77] Creating layer res3b1_relu_mbox_loc_flat
I0308 14:37:33.733412 27860 net.cpp:100] Creating Layer res3b1_relu_mbox_loc_flat
I0308 14:37:33.733415 27860 net.cpp:434] res3b1_relu_mbox_loc_flat <- res3b1_relu_mbox_loc_perm
I0308 14:37:33.733420 27860 net.cpp:408] res3b1_relu_mbox_loc_flat -> res3b1_relu_mbox_loc_flat
I0308 14:37:33.733444 27860 net.cpp:150] Setting up res3b1_relu_mbox_loc_flat
I0308 14:37:33.733448 27860 net.cpp:157] Top shape: 1 9728 (9728)
I0308 14:37:33.733450 27860 net.cpp:165] Memory required for data: 224191776
I0308 14:37:33.733453 27860 layer_factory.hpp:77] Creating layer res3b1_relu_mbox_conf
I0308 14:37:33.733459 27860 net.cpp:100] Creating Layer res3b1_relu_mbox_conf
I0308 14:37:33.733461 27860 net.cpp:434] res3b1_relu_mbox_conf <- res3b1_res3b1_relu_0_split_3
I0308 14:37:33.733466 27860 net.cpp:408] res3b1_relu_mbox_conf -> res3b1_relu_mbox_conf
I0308 14:37:33.735024 27860 net.cpp:150] Setting up res3b1_relu_mbox_conf
I0308 14:37:33.735031 27860 net.cpp:157] Top shape: 1 5 38 64 (12160)
I0308 14:37:33.735034 27860 net.cpp:165] Memory required for data: 224240416
I0308 14:37:33.735038 27860 layer_factory.hpp:77] Creating layer res3b1_relu_mbox_conf_perm
I0308 14:37:33.735051 27860 net.cpp:100] Creating Layer res3b1_relu_mbox_conf_perm
I0308 14:37:33.735054 27860 net.cpp:434] res3b1_relu_mbox_conf_perm <- res3b1_relu_mbox_conf
I0308 14:37:33.735059 27860 net.cpp:408] res3b1_relu_mbox_conf_perm -> res3b1_relu_mbox_conf_perm
I0308 14:37:33.735154 27860 net.cpp:150] Setting up res3b1_relu_mbox_conf_perm
I0308 14:37:33.735158 27860 net.cpp:157] Top shape: 1 38 64 5 (12160)
I0308 14:37:33.735160 27860 net.cpp:165] Memory required for data: 224289056
I0308 14:37:33.735162 27860 layer_factory.hpp:77] Creating layer res3b1_relu_mbox_conf_flat
I0308 14:37:33.735167 27860 net.cpp:100] Creating Layer res3b1_relu_mbox_conf_flat
I0308 14:37:33.735169 27860 net.cpp:434] res3b1_relu_mbox_conf_flat <- res3b1_relu_mbox_conf_perm
I0308 14:37:33.735172 27860 net.cpp:408] res3b1_relu_mbox_conf_flat -> res3b1_relu_mbox_conf_flat
I0308 14:37:33.735193 27860 net.cpp:150] Setting up res3b1_relu_mbox_conf_flat
I0308 14:37:33.735196 27860 net.cpp:157] Top shape: 1 12160 (12160)
I0308 14:37:33.735198 27860 net.cpp:165] Memory required for data: 224337696
I0308 14:37:33.735199 27860 layer_factory.hpp:77] Creating layer res3b1_relu_mbox_priorbox
I0308 14:37:33.735203 27860 net.cpp:100] Creating Layer res3b1_relu_mbox_priorbox
I0308 14:37:33.735206 27860 net.cpp:434] res3b1_relu_mbox_priorbox <- res3b1_res3b1_relu_0_split_4
I0308 14:37:33.735210 27860 net.cpp:434] res3b1_relu_mbox_priorbox <- data_data_0_split_1
I0308 14:37:33.735215 27860 net.cpp:408] res3b1_relu_mbox_priorbox -> res3b1_relu_mbox_priorbox
I0308 14:37:33.735245 27860 net.cpp:150] Setting up res3b1_relu_mbox_priorbox
I0308 14:37:33.735251 27860 net.cpp:157] Top shape: 1 2 9728 (19456)
I0308 14:37:33.735255 27860 net.cpp:165] Memory required for data: 224415520
I0308 14:37:33.735257 27860 layer_factory.hpp:77] Creating layer res5b_relu_mbox_loc
I0308 14:37:33.735265 27860 net.cpp:100] Creating Layer res5b_relu_mbox_loc
I0308 14:37:33.735270 27860 net.cpp:434] res5b_relu_mbox_loc <- res5b_res5b_relu_0_split_1
I0308 14:37:33.735275 27860 net.cpp:408] res5b_relu_mbox_loc -> res5b_relu_mbox_loc
I0308 14:37:33.737704 27860 net.cpp:150] Setting up res5b_relu_mbox_loc
I0308 14:37:33.737713 27860 net.cpp:157] Top shape: 1 8 19 32 (4864)
I0308 14:37:33.737715 27860 net.cpp:165] Memory required for data: 224434976
I0308 14:37:33.737720 27860 layer_factory.hpp:77] Creating layer res5b_relu_mbox_loc_perm
I0308 14:37:33.737725 27860 net.cpp:100] Creating Layer res5b_relu_mbox_loc_perm
I0308 14:37:33.737728 27860 net.cpp:434] res5b_relu_mbox_loc_perm <- res5b_relu_mbox_loc
I0308 14:37:33.737732 27860 net.cpp:408] res5b_relu_mbox_loc_perm -> res5b_relu_mbox_loc_perm
I0308 14:37:33.737833 27860 net.cpp:150] Setting up res5b_relu_mbox_loc_perm
I0308 14:37:33.737836 27860 net.cpp:157] Top shape: 1 19 32 8 (4864)
I0308 14:37:33.737838 27860 net.cpp:165] Memory required for data: 224454432
I0308 14:37:33.737840 27860 layer_factory.hpp:77] Creating layer res5b_relu_mbox_loc_flat
I0308 14:37:33.737843 27860 net.cpp:100] Creating Layer res5b_relu_mbox_loc_flat
I0308 14:37:33.737846 27860 net.cpp:434] res5b_relu_mbox_loc_flat <- res5b_relu_mbox_loc_perm
I0308 14:37:33.737849 27860 net.cpp:408] res5b_relu_mbox_loc_flat -> res5b_relu_mbox_loc_flat
I0308 14:37:33.737869 27860 net.cpp:150] Setting up res5b_relu_mbox_loc_flat
I0308 14:37:33.737872 27860 net.cpp:157] Top shape: 1 4864 (4864)
I0308 14:37:33.737874 27860 net.cpp:165] Memory required for data: 224473888
I0308 14:37:33.737876 27860 layer_factory.hpp:77] Creating layer res5b_relu_mbox_conf
I0308 14:37:33.737882 27860 net.cpp:100] Creating Layer res5b_relu_mbox_conf
I0308 14:37:33.737885 27860 net.cpp:434] res5b_relu_mbox_conf <- res5b_res5b_relu_0_split_2
I0308 14:37:33.737890 27860 net.cpp:408] res5b_relu_mbox_conf -> res5b_relu_mbox_conf
I0308 14:37:33.740010 27860 net.cpp:150] Setting up res5b_relu_mbox_conf
I0308 14:37:33.740017 27860 net.cpp:157] Top shape: 1 10 19 32 (6080)
I0308 14:37:33.740020 27860 net.cpp:165] Memory required for data: 224498208
I0308 14:37:33.740036 27860 layer_factory.hpp:77] Creating layer res5b_relu_mbox_conf_perm
I0308 14:37:33.740042 27860 net.cpp:100] Creating Layer res5b_relu_mbox_conf_perm
I0308 14:37:33.740046 27860 net.cpp:434] res5b_relu_mbox_conf_perm <- res5b_relu_mbox_conf
I0308 14:37:33.740048 27860 net.cpp:408] res5b_relu_mbox_conf_perm -> res5b_relu_mbox_conf_perm
I0308 14:37:33.740149 27860 net.cpp:150] Setting up res5b_relu_mbox_conf_perm
I0308 14:37:33.740154 27860 net.cpp:157] Top shape: 1 19 32 10 (6080)
I0308 14:37:33.740155 27860 net.cpp:165] Memory required for data: 224522528
I0308 14:37:33.740156 27860 layer_factory.hpp:77] Creating layer res5b_relu_mbox_conf_flat
I0308 14:37:33.740161 27860 net.cpp:100] Creating Layer res5b_relu_mbox_conf_flat
I0308 14:37:33.740164 27860 net.cpp:434] res5b_relu_mbox_conf_flat <- res5b_relu_mbox_conf_perm
I0308 14:37:33.740166 27860 net.cpp:408] res5b_relu_mbox_conf_flat -> res5b_relu_mbox_conf_flat
I0308 14:37:33.740187 27860 net.cpp:150] Setting up res5b_relu_mbox_conf_flat
I0308 14:37:33.740192 27860 net.cpp:157] Top shape: 1 6080 (6080)
I0308 14:37:33.740196 27860 net.cpp:165] Memory required for data: 224546848
I0308 14:37:33.740198 27860 layer_factory.hpp:77] Creating layer res5b_relu_mbox_priorbox
I0308 14:37:33.740207 27860 net.cpp:100] Creating Layer res5b_relu_mbox_priorbox
I0308 14:37:33.740211 27860 net.cpp:434] res5b_relu_mbox_priorbox <- res5b_res5b_relu_0_split_3
I0308 14:37:33.740214 27860 net.cpp:434] res5b_relu_mbox_priorbox <- data_data_0_split_2
I0308 14:37:33.740221 27860 net.cpp:408] res5b_relu_mbox_priorbox -> res5b_relu_mbox_priorbox
I0308 14:37:33.740247 27860 net.cpp:150] Setting up res5b_relu_mbox_priorbox
I0308 14:37:33.740252 27860 net.cpp:157] Top shape: 1 2 4864 (9728)
I0308 14:37:33.740254 27860 net.cpp:165] Memory required for data: 224585760
I0308 14:37:33.740257 27860 layer_factory.hpp:77] Creating layer res5b_relu/conv1_2_mbox_loc
I0308 14:37:33.740267 27860 net.cpp:100] Creating Layer res5b_relu/conv1_2_mbox_loc
I0308 14:37:33.740269 27860 net.cpp:434] res5b_relu/conv1_2_mbox_loc <- res5b_relu/conv1_2_res5b_relu/conv1_2_relu_0_split_1
I0308 14:37:33.740275 27860 net.cpp:408] res5b_relu/conv1_2_mbox_loc -> res5b_relu/conv1_2_mbox_loc
I0308 14:37:33.742225 27860 net.cpp:150] Setting up res5b_relu/conv1_2_mbox_loc
I0308 14:37:33.742235 27860 net.cpp:157] Top shape: 1 8 10 16 (1280)
I0308 14:37:33.742238 27860 net.cpp:165] Memory required for data: 224590880
I0308 14:37:33.742246 27860 layer_factory.hpp:77] Creating layer res5b_relu/conv1_2_mbox_loc_perm
I0308 14:37:33.742251 27860 net.cpp:100] Creating Layer res5b_relu/conv1_2_mbox_loc_perm
I0308 14:37:33.742256 27860 net.cpp:434] res5b_relu/conv1_2_mbox_loc_perm <- res5b_relu/conv1_2_mbox_loc
I0308 14:37:33.742262 27860 net.cpp:408] res5b_relu/conv1_2_mbox_loc_perm -> res5b_relu/conv1_2_mbox_loc_perm
I0308 14:37:33.742367 27860 net.cpp:150] Setting up res5b_relu/conv1_2_mbox_loc_perm
I0308 14:37:33.742372 27860 net.cpp:157] Top shape: 1 10 16 8 (1280)
I0308 14:37:33.742372 27860 net.cpp:165] Memory required for data: 224596000
I0308 14:37:33.742374 27860 layer_factory.hpp:77] Creating layer res5b_relu/conv1_2_mbox_loc_flat
I0308 14:37:33.742378 27860 net.cpp:100] Creating Layer res5b_relu/conv1_2_mbox_loc_flat
I0308 14:37:33.742380 27860 net.cpp:434] res5b_relu/conv1_2_mbox_loc_flat <- res5b_relu/conv1_2_mbox_loc_perm
I0308 14:37:33.742383 27860 net.cpp:408] res5b_relu/conv1_2_mbox_loc_flat -> res5b_relu/conv1_2_mbox_loc_flat
I0308 14:37:33.742403 27860 net.cpp:150] Setting up res5b_relu/conv1_2_mbox_loc_flat
I0308 14:37:33.742406 27860 net.cpp:157] Top shape: 1 1280 (1280)
I0308 14:37:33.742408 27860 net.cpp:165] Memory required for data: 224601120
I0308 14:37:33.742410 27860 layer_factory.hpp:77] Creating layer res5b_relu/conv1_2_mbox_conf
I0308 14:37:33.742415 27860 net.cpp:100] Creating Layer res5b_relu/conv1_2_mbox_conf
I0308 14:37:33.742419 27860 net.cpp:434] res5b_relu/conv1_2_mbox_conf <- res5b_relu/conv1_2_res5b_relu/conv1_2_relu_0_split_2
I0308 14:37:33.742422 27860 net.cpp:408] res5b_relu/conv1_2_mbox_conf -> res5b_relu/conv1_2_mbox_conf
I0308 14:37:33.744336 27860 net.cpp:150] Setting up res5b_relu/conv1_2_mbox_conf
I0308 14:37:33.744344 27860 net.cpp:157] Top shape: 1 10 10 16 (1600)
I0308 14:37:33.744346 27860 net.cpp:165] Memory required for data: 224607520
I0308 14:37:33.744350 27860 layer_factory.hpp:77] Creating layer res5b_relu/conv1_2_mbox_conf_perm
I0308 14:37:33.744356 27860 net.cpp:100] Creating Layer res5b_relu/conv1_2_mbox_conf_perm
I0308 14:37:33.744359 27860 net.cpp:434] res5b_relu/conv1_2_mbox_conf_perm <- res5b_relu/conv1_2_mbox_conf
I0308 14:37:33.744364 27860 net.cpp:408] res5b_relu/conv1_2_mbox_conf_perm -> res5b_relu/conv1_2_mbox_conf_perm
I0308 14:37:33.744463 27860 net.cpp:150] Setting up res5b_relu/conv1_2_mbox_conf_perm
I0308 14:37:33.744467 27860 net.cpp:157] Top shape: 1 10 16 10 (1600)
I0308 14:37:33.744468 27860 net.cpp:165] Memory required for data: 224613920
I0308 14:37:33.744472 27860 layer_factory.hpp:77] Creating layer res5b_relu/conv1_2_mbox_conf_flat
I0308 14:37:33.744477 27860 net.cpp:100] Creating Layer res5b_relu/conv1_2_mbox_conf_flat
I0308 14:37:33.744482 27860 net.cpp:434] res5b_relu/conv1_2_mbox_conf_flat <- res5b_relu/conv1_2_mbox_conf_perm
I0308 14:37:33.744484 27860 net.cpp:408] res5b_relu/conv1_2_mbox_conf_flat -> res5b_relu/conv1_2_mbox_conf_flat
I0308 14:37:33.744508 27860 net.cpp:150] Setting up res5b_relu/conv1_2_mbox_conf_flat
I0308 14:37:33.744513 27860 net.cpp:157] Top shape: 1 1600 (1600)
I0308 14:37:33.744514 27860 net.cpp:165] Memory required for data: 224620320
I0308 14:37:33.744518 27860 layer_factory.hpp:77] Creating layer res5b_relu/conv1_2_mbox_priorbox
I0308 14:37:33.744524 27860 net.cpp:100] Creating Layer res5b_relu/conv1_2_mbox_priorbox
I0308 14:37:33.744527 27860 net.cpp:434] res5b_relu/conv1_2_mbox_priorbox <- res5b_relu/conv1_2_res5b_relu/conv1_2_relu_0_split_3
I0308 14:37:33.744530 27860 net.cpp:434] res5b_relu/conv1_2_mbox_priorbox <- data_data_0_split_3
I0308 14:37:33.744534 27860 net.cpp:408] res5b_relu/conv1_2_mbox_priorbox -> res5b_relu/conv1_2_mbox_priorbox
I0308 14:37:33.744555 27860 net.cpp:150] Setting up res5b_relu/conv1_2_mbox_priorbox
I0308 14:37:33.744560 27860 net.cpp:157] Top shape: 1 2 1280 (2560)
I0308 14:37:33.744560 27860 net.cpp:165] Memory required for data: 224630560
I0308 14:37:33.744562 27860 layer_factory.hpp:77] Creating layer res5b_relu/conv2_2_mbox_loc
I0308 14:37:33.744567 27860 net.cpp:100] Creating Layer res5b_relu/conv2_2_mbox_loc
I0308 14:37:33.744570 27860 net.cpp:434] res5b_relu/conv2_2_mbox_loc <- res5b_relu/conv2_2_res5b_relu/conv2_2_relu_0_split_1
I0308 14:37:33.744575 27860 net.cpp:408] res5b_relu/conv2_2_mbox_loc -> res5b_relu/conv2_2_mbox_loc
I0308 14:37:33.747678 27860 net.cpp:150] Setting up res5b_relu/conv2_2_mbox_loc
I0308 14:37:33.747697 27860 net.cpp:157] Top shape: 1 8 5 8 (320)
I0308 14:37:33.747699 27860 net.cpp:165] Memory required for data: 224631840
I0308 14:37:33.747707 27860 layer_factory.hpp:77] Creating layer res5b_relu/conv2_2_mbox_loc_perm
I0308 14:37:33.747715 27860 net.cpp:100] Creating Layer res5b_relu/conv2_2_mbox_loc_perm
I0308 14:37:33.747720 27860 net.cpp:434] res5b_relu/conv2_2_mbox_loc_perm <- res5b_relu/conv2_2_mbox_loc
I0308 14:37:33.747726 27860 net.cpp:408] res5b_relu/conv2_2_mbox_loc_perm -> res5b_relu/conv2_2_mbox_loc_perm
I0308 14:37:33.747843 27860 net.cpp:150] Setting up res5b_relu/conv2_2_mbox_loc_perm
I0308 14:37:33.747848 27860 net.cpp:157] Top shape: 1 5 8 8 (320)
I0308 14:37:33.747849 27860 net.cpp:165] Memory required for data: 224633120
I0308 14:37:33.747851 27860 layer_factory.hpp:77] Creating layer res5b_relu/conv2_2_mbox_loc_flat
I0308 14:37:33.747855 27860 net.cpp:100] Creating Layer res5b_relu/conv2_2_mbox_loc_flat
I0308 14:37:33.747859 27860 net.cpp:434] res5b_relu/conv2_2_mbox_loc_flat <- res5b_relu/conv2_2_mbox_loc_perm
I0308 14:37:33.747862 27860 net.cpp:408] res5b_relu/conv2_2_mbox_loc_flat -> res5b_relu/conv2_2_mbox_loc_flat
I0308 14:37:33.747882 27860 net.cpp:150] Setting up res5b_relu/conv2_2_mbox_loc_flat
I0308 14:37:33.747897 27860 net.cpp:157] Top shape: 1 320 (320)
I0308 14:37:33.747900 27860 net.cpp:165] Memory required for data: 224634400
I0308 14:37:33.747901 27860 layer_factory.hpp:77] Creating layer res5b_relu/conv2_2_mbox_conf
I0308 14:37:33.747910 27860 net.cpp:100] Creating Layer res5b_relu/conv2_2_mbox_conf
I0308 14:37:33.747912 27860 net.cpp:434] res5b_relu/conv2_2_mbox_conf <- res5b_relu/conv2_2_res5b_relu/conv2_2_relu_0_split_2
I0308 14:37:33.747916 27860 net.cpp:408] res5b_relu/conv2_2_mbox_conf -> res5b_relu/conv2_2_mbox_conf
I0308 14:37:33.750190 27860 net.cpp:150] Setting up res5b_relu/conv2_2_mbox_conf
I0308 14:37:33.750198 27860 net.cpp:157] Top shape: 1 10 5 8 (400)
I0308 14:37:33.750200 27860 net.cpp:165] Memory required for data: 224636000
I0308 14:37:33.750205 27860 layer_factory.hpp:77] Creating layer res5b_relu/conv2_2_mbox_conf_perm
I0308 14:37:33.750211 27860 net.cpp:100] Creating Layer res5b_relu/conv2_2_mbox_conf_perm
I0308 14:37:33.750213 27860 net.cpp:434] res5b_relu/conv2_2_mbox_conf_perm <- res5b_relu/conv2_2_mbox_conf
I0308 14:37:33.750217 27860 net.cpp:408] res5b_relu/conv2_2_mbox_conf_perm -> res5b_relu/conv2_2_mbox_conf_perm
I0308 14:37:33.750326 27860 net.cpp:150] Setting up res5b_relu/conv2_2_mbox_conf_perm
I0308 14:37:33.750330 27860 net.cpp:157] Top shape: 1 5 8 10 (400)
I0308 14:37:33.750332 27860 net.cpp:165] Memory required for data: 224637600
I0308 14:37:33.750334 27860 layer_factory.hpp:77] Creating layer res5b_relu/conv2_2_mbox_conf_flat
I0308 14:37:33.750337 27860 net.cpp:100] Creating Layer res5b_relu/conv2_2_mbox_conf_flat
I0308 14:37:33.750340 27860 net.cpp:434] res5b_relu/conv2_2_mbox_conf_flat <- res5b_relu/conv2_2_mbox_conf_perm
I0308 14:37:33.750344 27860 net.cpp:408] res5b_relu/conv2_2_mbox_conf_flat -> res5b_relu/conv2_2_mbox_conf_flat
I0308 14:37:33.750365 27860 net.cpp:150] Setting up res5b_relu/conv2_2_mbox_conf_flat
I0308 14:37:33.750370 27860 net.cpp:157] Top shape: 1 400 (400)
I0308 14:37:33.750373 27860 net.cpp:165] Memory required for data: 224639200
I0308 14:37:33.750376 27860 layer_factory.hpp:77] Creating layer res5b_relu/conv2_2_mbox_priorbox
I0308 14:37:33.750382 27860 net.cpp:100] Creating Layer res5b_relu/conv2_2_mbox_priorbox
I0308 14:37:33.750385 27860 net.cpp:434] res5b_relu/conv2_2_mbox_priorbox <- res5b_relu/conv2_2_res5b_relu/conv2_2_relu_0_split_3
I0308 14:37:33.750388 27860 net.cpp:434] res5b_relu/conv2_2_mbox_priorbox <- data_data_0_split_4
I0308 14:37:33.750391 27860 net.cpp:408] res5b_relu/conv2_2_mbox_priorbox -> res5b_relu/conv2_2_mbox_priorbox
I0308 14:37:33.750414 27860 net.cpp:150] Setting up res5b_relu/conv2_2_mbox_priorbox
I0308 14:37:33.750418 27860 net.cpp:157] Top shape: 1 2 320 (640)
I0308 14:37:33.750421 27860 net.cpp:165] Memory required for data: 224641760
I0308 14:37:33.750422 27860 layer_factory.hpp:77] Creating layer res5b_relu/conv3_2_mbox_loc
I0308 14:37:33.750427 27860 net.cpp:100] Creating Layer res5b_relu/conv3_2_mbox_loc
I0308 14:37:33.750429 27860 net.cpp:434] res5b_relu/conv3_2_mbox_loc <- res5b_relu/conv3_2_res5b_relu/conv3_2_relu_0_split_1
I0308 14:37:33.750433 27860 net.cpp:408] res5b_relu/conv3_2_mbox_loc -> res5b_relu/conv3_2_mbox_loc
I0308 14:37:33.752126 27860 net.cpp:150] Setting up res5b_relu/conv3_2_mbox_loc
I0308 14:37:33.752135 27860 net.cpp:157] Top shape: 1 8 3 4 (96)
I0308 14:37:33.752135 27860 net.cpp:165] Memory required for data: 224642144
I0308 14:37:33.752140 27860 layer_factory.hpp:77] Creating layer res5b_relu/conv3_2_mbox_loc_perm
I0308 14:37:33.752143 27860 net.cpp:100] Creating Layer res5b_relu/conv3_2_mbox_loc_perm
I0308 14:37:33.752146 27860 net.cpp:434] res5b_relu/conv3_2_mbox_loc_perm <- res5b_relu/conv3_2_mbox_loc
I0308 14:37:33.752151 27860 net.cpp:408] res5b_relu/conv3_2_mbox_loc_perm -> res5b_relu/conv3_2_mbox_loc_perm
I0308 14:37:33.752252 27860 net.cpp:150] Setting up res5b_relu/conv3_2_mbox_loc_perm
I0308 14:37:33.752256 27860 net.cpp:157] Top shape: 1 3 4 8 (96)
I0308 14:37:33.752259 27860 net.cpp:165] Memory required for data: 224642528
I0308 14:37:33.752259 27860 layer_factory.hpp:77] Creating layer res5b_relu/conv3_2_mbox_loc_flat
I0308 14:37:33.752272 27860 net.cpp:100] Creating Layer res5b_relu/conv3_2_mbox_loc_flat
I0308 14:37:33.752275 27860 net.cpp:434] res5b_relu/conv3_2_mbox_loc_flat <- res5b_relu/conv3_2_mbox_loc_perm
I0308 14:37:33.752279 27860 net.cpp:408] res5b_relu/conv3_2_mbox_loc_flat -> res5b_relu/conv3_2_mbox_loc_flat
I0308 14:37:33.752302 27860 net.cpp:150] Setting up res5b_relu/conv3_2_mbox_loc_flat
I0308 14:37:33.752307 27860 net.cpp:157] Top shape: 1 96 (96)
I0308 14:37:33.752308 27860 net.cpp:165] Memory required for data: 224642912
I0308 14:37:33.752310 27860 layer_factory.hpp:77] Creating layer res5b_relu/conv3_2_mbox_conf
I0308 14:37:33.752315 27860 net.cpp:100] Creating Layer res5b_relu/conv3_2_mbox_conf
I0308 14:37:33.752317 27860 net.cpp:434] res5b_relu/conv3_2_mbox_conf <- res5b_relu/conv3_2_res5b_relu/conv3_2_relu_0_split_2
I0308 14:37:33.752321 27860 net.cpp:408] res5b_relu/conv3_2_mbox_conf -> res5b_relu/conv3_2_mbox_conf
I0308 14:37:33.754012 27860 net.cpp:150] Setting up res5b_relu/conv3_2_mbox_conf
I0308 14:37:33.754020 27860 net.cpp:157] Top shape: 1 10 3 4 (120)
I0308 14:37:33.754022 27860 net.cpp:165] Memory required for data: 224643392
I0308 14:37:33.754029 27860 layer_factory.hpp:77] Creating layer res5b_relu/conv3_2_mbox_conf_perm
I0308 14:37:33.754034 27860 net.cpp:100] Creating Layer res5b_relu/conv3_2_mbox_conf_perm
I0308 14:37:33.754038 27860 net.cpp:434] res5b_relu/conv3_2_mbox_conf_perm <- res5b_relu/conv3_2_mbox_conf
I0308 14:37:33.754043 27860 net.cpp:408] res5b_relu/conv3_2_mbox_conf_perm -> res5b_relu/conv3_2_mbox_conf_perm
I0308 14:37:33.754144 27860 net.cpp:150] Setting up res5b_relu/conv3_2_mbox_conf_perm
I0308 14:37:33.754148 27860 net.cpp:157] Top shape: 1 3 4 10 (120)
I0308 14:37:33.754149 27860 net.cpp:165] Memory required for data: 224643872
I0308 14:37:33.754153 27860 layer_factory.hpp:77] Creating layer res5b_relu/conv3_2_mbox_conf_flat
I0308 14:37:33.754158 27860 net.cpp:100] Creating Layer res5b_relu/conv3_2_mbox_conf_flat
I0308 14:37:33.754161 27860 net.cpp:434] res5b_relu/conv3_2_mbox_conf_flat <- res5b_relu/conv3_2_mbox_conf_perm
I0308 14:37:33.754165 27860 net.cpp:408] res5b_relu/conv3_2_mbox_conf_flat -> res5b_relu/conv3_2_mbox_conf_flat
I0308 14:37:33.754189 27860 net.cpp:150] Setting up res5b_relu/conv3_2_mbox_conf_flat
I0308 14:37:33.754192 27860 net.cpp:157] Top shape: 1 120 (120)
I0308 14:37:33.754194 27860 net.cpp:165] Memory required for data: 224644352
I0308 14:37:33.754196 27860 layer_factory.hpp:77] Creating layer res5b_relu/conv3_2_mbox_priorbox
I0308 14:37:33.754204 27860 net.cpp:100] Creating Layer res5b_relu/conv3_2_mbox_priorbox
I0308 14:37:33.754207 27860 net.cpp:434] res5b_relu/conv3_2_mbox_priorbox <- res5b_relu/conv3_2_res5b_relu/conv3_2_relu_0_split_3
I0308 14:37:33.754210 27860 net.cpp:434] res5b_relu/conv3_2_mbox_priorbox <- data_data_0_split_5
I0308 14:37:33.754215 27860 net.cpp:408] res5b_relu/conv3_2_mbox_priorbox -> res5b_relu/conv3_2_mbox_priorbox
I0308 14:37:33.754240 27860 net.cpp:150] Setting up res5b_relu/conv3_2_mbox_priorbox
I0308 14:37:33.754243 27860 net.cpp:157] Top shape: 1 2 96 (192)
I0308 14:37:33.754246 27860 net.cpp:165] Memory required for data: 224645120
I0308 14:37:33.754248 27860 layer_factory.hpp:77] Creating layer pool6_mbox_loc
I0308 14:37:33.754257 27860 net.cpp:100] Creating Layer pool6_mbox_loc
I0308 14:37:33.754261 27860 net.cpp:434] pool6_mbox_loc <- pool6_pool6_0_split_0
I0308 14:37:33.754266 27860 net.cpp:408] pool6_mbox_loc -> pool6_mbox_loc
I0308 14:37:33.756368 27860 net.cpp:150] Setting up pool6_mbox_loc
I0308 14:37:33.756378 27860 net.cpp:157] Top shape: 1 8 1 1 (8)
I0308 14:37:33.756381 27860 net.cpp:165] Memory required for data: 224645152
I0308 14:37:33.756388 27860 layer_factory.hpp:77] Creating layer pool6_mbox_loc_perm
I0308 14:37:33.756397 27860 net.cpp:100] Creating Layer pool6_mbox_loc_perm
I0308 14:37:33.756402 27860 net.cpp:434] pool6_mbox_loc_perm <- pool6_mbox_loc
I0308 14:37:33.756408 27860 net.cpp:408] pool6_mbox_loc_perm -> pool6_mbox_loc_perm
I0308 14:37:33.756526 27860 net.cpp:150] Setting up pool6_mbox_loc_perm
I0308 14:37:33.756532 27860 net.cpp:157] Top shape: 1 1 1 8 (8)
I0308 14:37:33.756536 27860 net.cpp:165] Memory required for data: 224645184
I0308 14:37:33.756539 27860 layer_factory.hpp:77] Creating layer pool6_mbox_loc_flat
I0308 14:37:33.756544 27860 net.cpp:100] Creating Layer pool6_mbox_loc_flat
I0308 14:37:33.756548 27860 net.cpp:434] pool6_mbox_loc_flat <- pool6_mbox_loc_perm
I0308 14:37:33.756551 27860 net.cpp:408] pool6_mbox_loc_flat -> pool6_mbox_loc_flat
I0308 14:37:33.756573 27860 net.cpp:150] Setting up pool6_mbox_loc_flat
I0308 14:37:33.756577 27860 net.cpp:157] Top shape: 1 8 (8)
I0308 14:37:33.756578 27860 net.cpp:165] Memory required for data: 224645216
I0308 14:37:33.756579 27860 layer_factory.hpp:77] Creating layer pool6_mbox_conf
I0308 14:37:33.756587 27860 net.cpp:100] Creating Layer pool6_mbox_conf
I0308 14:37:33.756588 27860 net.cpp:434] pool6_mbox_conf <- pool6_pool6_0_split_1
I0308 14:37:33.756592 27860 net.cpp:408] pool6_mbox_conf -> pool6_mbox_conf
I0308 14:37:33.758436 27860 net.cpp:150] Setting up pool6_mbox_conf
I0308 14:37:33.758446 27860 net.cpp:157] Top shape: 1 10 1 1 (10)
I0308 14:37:33.758448 27860 net.cpp:165] Memory required for data: 224645256
I0308 14:37:33.758453 27860 layer_factory.hpp:77] Creating layer pool6_mbox_conf_perm
I0308 14:37:33.758460 27860 net.cpp:100] Creating Layer pool6_mbox_conf_perm
I0308 14:37:33.758463 27860 net.cpp:434] pool6_mbox_conf_perm <- pool6_mbox_conf
I0308 14:37:33.758467 27860 net.cpp:408] pool6_mbox_conf_perm -> pool6_mbox_conf_perm
I0308 14:37:33.758565 27860 net.cpp:150] Setting up pool6_mbox_conf_perm
I0308 14:37:33.758569 27860 net.cpp:157] Top shape: 1 1 1 10 (10)
I0308 14:37:33.758571 27860 net.cpp:165] Memory required for data: 224645296
I0308 14:37:33.758574 27860 layer_factory.hpp:77] Creating layer pool6_mbox_conf_flat
I0308 14:37:33.758577 27860 net.cpp:100] Creating Layer pool6_mbox_conf_flat
I0308 14:37:33.758581 27860 net.cpp:434] pool6_mbox_conf_flat <- pool6_mbox_conf_perm
I0308 14:37:33.758586 27860 net.cpp:408] pool6_mbox_conf_flat -> pool6_mbox_conf_flat
I0308 14:37:33.758610 27860 net.cpp:150] Setting up pool6_mbox_conf_flat
I0308 14:37:33.758612 27860 net.cpp:157] Top shape: 1 10 (10)
I0308 14:37:33.758615 27860 net.cpp:165] Memory required for data: 224645336
I0308 14:37:33.758616 27860 layer_factory.hpp:77] Creating layer pool6_mbox_priorbox
I0308 14:37:33.758620 27860 net.cpp:100] Creating Layer pool6_mbox_priorbox
I0308 14:37:33.758623 27860 net.cpp:434] pool6_mbox_priorbox <- pool6_pool6_0_split_2
I0308 14:37:33.758625 27860 net.cpp:434] pool6_mbox_priorbox <- data_data_0_split_6
I0308 14:37:33.758630 27860 net.cpp:408] pool6_mbox_priorbox -> pool6_mbox_priorbox
I0308 14:37:33.758651 27860 net.cpp:150] Setting up pool6_mbox_priorbox
I0308 14:37:33.758654 27860 net.cpp:157] Top shape: 1 2 8 (16)
I0308 14:37:33.758656 27860 net.cpp:165] Memory required for data: 224645400
I0308 14:37:33.758658 27860 layer_factory.hpp:77] Creating layer mbox_loc
I0308 14:37:33.758662 27860 net.cpp:100] Creating Layer mbox_loc
I0308 14:37:33.758666 27860 net.cpp:434] mbox_loc <- res3b1_relu_mbox_loc_flat
I0308 14:37:33.758669 27860 net.cpp:434] mbox_loc <- res5b_relu_mbox_loc_flat
I0308 14:37:33.758672 27860 net.cpp:434] mbox_loc <- res5b_relu/conv1_2_mbox_loc_flat
I0308 14:37:33.758675 27860 net.cpp:434] mbox_loc <- res5b_relu/conv2_2_mbox_loc_flat
I0308 14:37:33.758678 27860 net.cpp:434] mbox_loc <- res5b_relu/conv3_2_mbox_loc_flat
I0308 14:37:33.758682 27860 net.cpp:434] mbox_loc <- pool6_mbox_loc_flat
I0308 14:37:33.758685 27860 net.cpp:408] mbox_loc -> mbox_loc
I0308 14:37:33.758707 27860 net.cpp:150] Setting up mbox_loc
I0308 14:37:33.758710 27860 net.cpp:157] Top shape: 1 16296 (16296)
I0308 14:37:33.758711 27860 net.cpp:165] Memory required for data: 224710584
I0308 14:37:33.758714 27860 layer_factory.hpp:77] Creating layer mbox_conf
I0308 14:37:33.758716 27860 net.cpp:100] Creating Layer mbox_conf
I0308 14:37:33.758718 27860 net.cpp:434] mbox_conf <- res3b1_relu_mbox_conf_flat
I0308 14:37:33.758730 27860 net.cpp:434] mbox_conf <- res5b_relu_mbox_conf_flat
I0308 14:37:33.758733 27860 net.cpp:434] mbox_conf <- res5b_relu/conv1_2_mbox_conf_flat
I0308 14:37:33.758735 27860 net.cpp:434] mbox_conf <- res5b_relu/conv2_2_mbox_conf_flat
I0308 14:37:33.758738 27860 net.cpp:434] mbox_conf <- res5b_relu/conv3_2_mbox_conf_flat
I0308 14:37:33.758740 27860 net.cpp:434] mbox_conf <- pool6_mbox_conf_flat
I0308 14:37:33.758744 27860 net.cpp:408] mbox_conf -> mbox_conf
I0308 14:37:33.758764 27860 net.cpp:150] Setting up mbox_conf
I0308 14:37:33.758767 27860 net.cpp:157] Top shape: 1 20370 (20370)
I0308 14:37:33.758769 27860 net.cpp:165] Memory required for data: 224792064
I0308 14:37:33.758771 27860 layer_factory.hpp:77] Creating layer mbox_priorbox
I0308 14:37:33.758774 27860 net.cpp:100] Creating Layer mbox_priorbox
I0308 14:37:33.758775 27860 net.cpp:434] mbox_priorbox <- res3b1_relu_mbox_priorbox
I0308 14:37:33.758779 27860 net.cpp:434] mbox_priorbox <- res5b_relu_mbox_priorbox
I0308 14:37:33.758780 27860 net.cpp:434] mbox_priorbox <- res5b_relu/conv1_2_mbox_priorbox
I0308 14:37:33.758782 27860 net.cpp:434] mbox_priorbox <- res5b_relu/conv2_2_mbox_priorbox
I0308 14:37:33.758785 27860 net.cpp:434] mbox_priorbox <- res5b_relu/conv3_2_mbox_priorbox
I0308 14:37:33.758786 27860 net.cpp:434] mbox_priorbox <- pool6_mbox_priorbox
I0308 14:37:33.758791 27860 net.cpp:408] mbox_priorbox -> mbox_priorbox
I0308 14:37:33.758822 27860 net.cpp:150] Setting up mbox_priorbox
I0308 14:37:33.758826 27860 net.cpp:157] Top shape: 1 2 16296 (32592)
I0308 14:37:33.758829 27860 net.cpp:165] Memory required for data: 224922432
I0308 14:37:33.758831 27860 layer_factory.hpp:77] Creating layer mbox_conf_reshape
I0308 14:37:33.758834 27860 net.cpp:100] Creating Layer mbox_conf_reshape
I0308 14:37:33.758836 27860 net.cpp:434] mbox_conf_reshape <- mbox_conf
I0308 14:37:33.758839 27860 net.cpp:408] mbox_conf_reshape -> mbox_conf_reshape
I0308 14:37:33.758864 27860 net.cpp:150] Setting up mbox_conf_reshape
I0308 14:37:33.758867 27860 net.cpp:157] Top shape: 1 4074 5 (20370)
I0308 14:37:33.758869 27860 net.cpp:165] Memory required for data: 225003912
I0308 14:37:33.758872 27860 layer_factory.hpp:77] Creating layer mbox_conf_softmax
I0308 14:37:33.758874 27860 net.cpp:100] Creating Layer mbox_conf_softmax
I0308 14:37:33.758877 27860 net.cpp:434] mbox_conf_softmax <- mbox_conf_reshape
I0308 14:37:33.758879 27860 net.cpp:408] mbox_conf_softmax -> mbox_conf_softmax
I0308 14:37:33.759296 27860 net.cpp:150] Setting up mbox_conf_softmax
I0308 14:37:33.759302 27860 net.cpp:157] Top shape: 1 4074 5 (20370)
I0308 14:37:33.759305 27860 net.cpp:165] Memory required for data: 225085392
I0308 14:37:33.759307 27860 layer_factory.hpp:77] Creating layer mbox_conf_flatten
I0308 14:37:33.759311 27860 net.cpp:100] Creating Layer mbox_conf_flatten
I0308 14:37:33.759313 27860 net.cpp:434] mbox_conf_flatten <- mbox_conf_softmax
I0308 14:37:33.759316 27860 net.cpp:408] mbox_conf_flatten -> mbox_conf_flatten
I0308 14:37:33.759336 27860 net.cpp:150] Setting up mbox_conf_flatten
I0308 14:37:33.759340 27860 net.cpp:157] Top shape: 1 20370 (20370)
I0308 14:37:33.759341 27860 net.cpp:165] Memory required for data: 225166872
I0308 14:37:33.759343 27860 layer_factory.hpp:77] Creating layer detection_out
I0308 14:37:33.759351 27860 net.cpp:100] Creating Layer detection_out
I0308 14:37:33.759354 27860 net.cpp:434] detection_out <- mbox_loc
I0308 14:37:33.759357 27860 net.cpp:434] detection_out <- mbox_conf_flatten
I0308 14:37:33.759359 27860 net.cpp:434] detection_out <- mbox_priorbox
I0308 14:37:33.759362 27860 net.cpp:408] detection_out -> detection_out
W0308 14:37:33.759382 27860 detection_output_layer.cpp:49] Failed to create directory: /home/zhongyilin/Documents/data/GTSDBdevkit/results/GTSDB/SSD_510x300_100_40_Square_1/Main
I0308 14:37:33.759657 27860 net.cpp:150] Setting up detection_out
I0308 14:37:33.759663 27860 net.cpp:157] Top shape: 1 1 1 7 (7)
I0308 14:37:33.759665 27860 net.cpp:165] Memory required for data: 225166900
I0308 14:37:33.759667 27860 layer_factory.hpp:77] Creating layer detection_eval
I0308 14:37:33.759680 27860 net.cpp:100] Creating Layer detection_eval
I0308 14:37:33.759682 27860 net.cpp:434] detection_eval <- detection_out
I0308 14:37:33.759685 27860 net.cpp:434] detection_eval <- label
I0308 14:37:33.759687 27860 net.cpp:408] detection_eval -> detection_eval
I0308 14:37:33.759773 27860 net.cpp:150] Setting up detection_eval
I0308 14:37:33.759778 27860 net.cpp:157] Top shape: 1 1 5 5 (25)
I0308 14:37:33.759778 27860 net.cpp:165] Memory required for data: 225167000
I0308 14:37:33.759781 27860 net.cpp:228] detection_eval does not need backward computation.
I0308 14:37:33.759785 27860 net.cpp:228] detection_out does not need backward computation.
I0308 14:37:33.759790 27860 net.cpp:228] mbox_conf_flatten does not need backward computation.
I0308 14:37:33.759794 27860 net.cpp:228] mbox_conf_softmax does not need backward computation.
…
