…
      sampler {
        min_scale: 0.3
        max_scale: 1
        min_aspect_ratio: 0.5
        max_aspect_ratio: 2
      }
      sample_constraint {
        min_jaccard_overlap: 0.9
      }
      max_sample: 1
      max_trials: 50
    }
    batch_sampler {
      sampler {
        min_scale: 0.3
        max_scale: 1
        min_aspect_ratio: 0.5
        max_aspect_ratio: 2
      }
      sample_constraint {
        max_jaccard_overlap: 1
      }
      max_sample: 1
      max_trials: 50
    }
    label_map_file: "data/GTSDB/labelmap_GTSDB.prototxt"
  }
}
layer {
  name: "conv1"
  type: "Convolution"
  bottom: "data"
  top: "conv1"
  param {
    lr_mult: 1
    decay_mult: 1
  }
  convolution_param {
    num_output: 32
    bias_term: false
    pad: 1
    kernel_size: 3
    stride: 2
    weight_filler {
      type: "msra"
    }
  }
}
layer {
  name: "conv1/bn"
  type: "BatchNorm"
  bottom: "conv1"
  top: "conv1"
  batch_norm_param {
    use_global_stats: true
    eps: 1e-05
  }
}
layer {
  name: "conv1/scale"
  type: "Scale"
  bottom: "conv1"
  top: "conv1"
  param {
    lr_mult: 1
    decay_mult: 0
  }
  param {
    lr_mult: 1
    decay_mult: 0
  }
  scale_param {
    filler {
      type: "constant"
      value: 1
    }
    bias_term: true
    bias_filler {
      type: "constant"
      value: 0
    }
  }
}
layer {
  name: "relu1"
  type: "ReLU"
  bottom: "conv1"
  top: "conv1"
}
layer {
  name: "conv2_1/dw"
  type: "DepthwiseConvolution"
  bottom: "conv1"
  top: "conv2_1/dw"
  param {
    lr_mult: 1
    decay_mult: 1
  }
  convolution_param {
    num_output: 32
    bias_term: false
    pad: 1
    kernel_size: 3
    group: 32
    stride: 1
    weight_filler {
      type: "msra"
    }
  }
}
layer {
  name: "conv2_1/dw/bn"
  type: "BatchNorm"
  bottom: "conv2_1/dw"
  top: "conv2_1/dw"
  batch_norm_param {
    use_global_stats: true
    eps: 1e-05
  }
}
layer {
  name: "conv2_1/dw/scale"
  type: "Scale"
  bottom: "conv2_1/dw"
  top: "conv2_1/dw"
  param {
    lr_mult: 1
    decay_mult: 0
  }
  param {
    lr_mult: 1
    decay_mult: 0
  }
  scale_param {
    filler {
      type: "constant"
      value: 1
    }
    bias_term: true
    bias_filler {
      type: "constant"
      value: 0
    }
  }
}
layer {
  name: "relu2_1/dw"
  type: "ReLU"
  bottom: "conv2_1/dw"
  top: "conv2_1/dw"
}
layer {
  name: "conv2_1/sep"
  type: "Convolution"
  bottom: "conv2_1/dw"
  top: "conv2_1/sep"
  param {
    lr_mult: 1
    decay_mult: 1
  }
  convolution_param {
    num_output: 64
    bias_term: false
    pad: 0
    kernel_size: 1
    stride: 1
    weight_filler {
      type: "msra"
    }
  }
}
layer {
  name: "conv2_1/sep/bn"
  type: "BatchNorm"
  bottom: "conv2_1/sep"
  top: "conv2_1/sep"
  batch_norm_param {
    use_global_stats: true
    eps: 1e-05
  }
}
layer {
  name: "conv2_1/sep/scale"
  type: "Scale"
  bottom: "conv2_1/sep"
  top: "conv2_1/sep"
  param {
    lr_mult: 1
    decay_mult: 0
  }
  param {
    lr_mult: 1
    decay_mult: 0
  }
  scale_param {
    filler {
      type: "constant"
      value: 1
    }
    bias_term: true
    bias_filler {
      type: "constant"
      value: 0
    }
  }
}
layer {
  name: "relu2_1/sep"
  type: "ReLU"
  bottom: "conv2_1/sep"
  top: "conv2_1/sep"
}
layer {
  name: "conv2_2/dw"
  type: "DepthwiseConvolution"
  bottom: "conv2_1/sep"
  top: "conv2_2/dw"
  param {
    lr_mult: 1
    decay_mult: 1
  }
  convolution_param {
    num_output: 64
    bias_term: false
    pad: 1
    kernel_size: 3
    group: 64
    stride: 2
    weight_filler {
      type: "msra"
    }
  }
}
layer {
  name: "conv2_2/dw/bn"
  type: "BatchNorm"
  bottom: "conv2_2/dw"
  top: "conv2_2/dw"
  batch_norm_param {
    use_global_stats: true
    eps: 1e-05
  }
}
layer {
  name: "conv2_2/dw/scale"
  type: "Scale"
  bottom: "conv2_2/dw"
  top: "conv2_2/dw"
  param {
    lr_mult: 1
    decay_mult: 0
  }
  param {
    lr_mult: 1
    decay_mult: 0
  }
  scale_param {
    filler {
      type: "constant"
      value: 1
    }
    bias_term: true
    bias_filler {
      type: "constant"
      value: 0
    }
  }
}
layer {
  name: "relu2_2/dw"
  type: "ReLU"
  bottom: "conv2_2/dw"
  top: "conv2_2/dw"
}
layer {
  name: "conv2_2/sep"
  type: "Convolution"
  bottom: "conv2_2/dw"
  top: "conv2_2/sep"
  param {
    lr_mult: 1
    decay_mult: 1
  }
  convolution_param {
    num_output: 128
    bias_term: false
    pad: 0
    kernel_size: 1
    stride: 1
    weight_filler {
      type: "msra"
    }
  }
}
layer {
  name: "conv2_2/sep/bn"
  type: "BatchNorm"
  bottom: "conv2_2/sep"
  top: "conv2_2/sep"
  batch_norm_param {
    use_global_stats: true
    eps: 1e-05
  }
}
layer {
  name: "conv2_2/sep/scale"
  type: "Scale"
  bottom: "conv2_2/sep"
  top: "conv2_2/sep"
  param {
    lr_mult: 1
    decay_mult: 0
  }
  param {
    lr_mult: 1
    decay_mult: 0
  }
  scale_param {
    filler {
      type: "constant"
      value: 1
    }
    bias_term: true
    bias_filler {
      type: "constant"
      value: 0
    }
  }
}
layer {
  name: "relu2_2/sep"
  type: "ReLU"
  bottom: "conv2_2/sep"
  top: "conv2_2/sep"
}
layer {
  name: "conv3_1/dw"
  type: "DepthwiseConvolution"
  bottom: "conv2_2/sep"
  top: "conv3_1/dw"
  param {
    lr_mult: 1
    decay_mult: 1
  }
  convolution_param {
    num_output: 128
    bias_term: false
    pad: 1
    kernel_size: 3
    group: 128
    stride: 1
    weight_filler {
      type: "msra"
    }
  }
}
layer {
  name: "conv3_1/dw/bn"
  type: "BatchNorm"
  bottom: "conv3_1/dw"
  top: "conv3_1/dw"
  batch_norm_param {
    use_global_stats: true
    eps: 1e-05
  }
}
layer {
  name: "conv3_1/dw/scale"
  type: "Scale"
  bottom: "conv3_1/dw"
  top: "conv3_1/dw"
  param {
    lr_mult: 1
    decay_mult: 0
  }
  param {
    lr_mult: 1
    decay_mult: 0
  }
  scale_param {
    filler {
      type: "constant"
      value: 1
    }
    bias_term: true
    bias_filler {
      type: "constant"
      value: 0
    }
  }
}
layer {
  name: "relu3_1/dw"
  type: "ReLU"
  bottom: "conv3_1/dw"
  top: "conv3_1/dw"
}
layer {
  name: "conv3_1/sep"
  type: "Convolution"
  bottom: "conv3_1/dw"
  top: "conv3_1/sep"
  param {
    lr_mult: 1
    decay_mult: 1
  }
  convolution_param {
    num_output: 128
    bias_term: false
    pad: 0
    kernel_size: 1
    stride: 1
    weight_filler {
      type: "msra"
    }
  }
}
layer {
  name: "conv3_1/sep/bn"
  type: "BatchNorm"
  bottom: "conv3_1/sep"
  top: "conv3_1/sep"
  batch_norm_param {
    use_global_stats: true
    eps: 1e-05
  }
}
layer {
  name: "conv3_1/sep/scale"
  type: "Scale"
  bottom: "conv3_1/sep"
  top: "conv3_1/sep"
  param {
    lr_mult: 1
    decay_mult: 0
  }
  param {
    lr_mult: 1
    decay_mult: 0
  }
  scale_param {
    filler {
      type: "constant"
      value: 1
    }
    bias_term: true
    bias_filler {
      type: "constant"
      value: 0
    }
  }
}
layer {
  name: "relu3_1/sep"
  type: "ReLU"
  bottom: "conv3_1/sep"
  top: "conv3_1/sep"
}
layer {
  name: "conv3_2/dw"
  type: "DepthwiseConvolution"
  bottom: "conv3_1/sep"
  top: "conv3_2/dw"
  param {
    lr_mult: 1
    decay_mult: 1
  }
  convolution_param {
    num_output: 128
    bias_term: false
    pad: 1
    kernel_size: 3
    group: 128
    stride: 2
    weight_filler {
      type: "msra"
    }
  }
}
layer {
  name: "conv3_2/dw/bn"
  type: "BatchNorm"
  bottom: "conv3_2/dw"
  top: "conv3_2/dw"
  batch_norm_param {
    use_global_stats: true
    eps: 1e-05
  }
}
layer {
  name: "conv3_2/dw/scale"
  type: "Scale"
  bottom: "conv3_2/dw"
  top: "conv3_2/dw"
  param {
    lr_mult: 1
    decay_mult: 0
  }
  param {
    lr_mult: 1
    decay_mult: 0
  }
  scale_param {
    filler {
      type: "constant"
      value: 1
    }
    bias_term: true
    bias_filler {
      type: "constant"
      value: 0
    }
  }
}
layer {
  name: "relu3_2/dw"
  type: "ReLU"
  bottom: "conv3_2/dw"
  top: "conv3_2/dw"
}
layer {
  name: "conv3_2/sep"
  type: "Convolution"
  bottom: "conv3_2/dw"
  top: "conv3_2/sep"
  param {
    lr_mult: 1
    decay_mult: 1
  }
  convolution_param {
    num_output: 256
    bias_term: false
    pad: 0
    kernel_size: 1
    stride: 1
    weight_filler {
      type: "msra"
    }
  }
}
layer {
  name: "conv3_2/sep/bn"
  type: "BatchNorm"
  bottom: "conv3_2/sep"
  top: "conv3_2/sep"
  batch_norm_param {
    use_global_stats: true
    eps: 1e-05
  }
}
layer {
  name: "conv3_2/sep/scale"
  type: "Scale"
  bottom: "conv3_2/sep"
  top: "conv3_2/sep"
  param {
    lr_mult: 1
    decay_mult: 0
  }
  param {
    lr_mult: 1
    decay_mult: 0
  }
  scale_param {
    filler {
      type: "constant"
      value: 1
    }
    bias_term: true
    bias_filler {
      type: "constant"
      value: 0
    }
  }
}
layer {
  name: "relu3_2/sep"
  type: "ReLU"
  bottom: "conv3_2/sep"
  top: "conv3_2/sep"
}
layer {
  name: "conv4_1/dw"
  type: "DepthwiseConvolution"
  bottom: "conv3_2/sep"
  top: "conv4_1/dw"
  param {
    lr_mult: 1
    decay_mult: 1
  }
  convolution_param {
    num_output: 256
    bias_term: false
    pad: 1
    kernel_size: 3
    group: 256
    stride: 1
    weight_filler {
      type: "msra"
    }
  }
}
layer {
  name: "conv4_1/dw/bn"
  type: "BatchNorm"
  bottom: "conv4_1/dw"
  top: "conv4_1/dw"
  batch_norm_param {
    use_global_stats: true
    eps: 1e-05
  }
}
layer {
  name: "conv4_1/dw/scale"
  type: "Scale"
  bottom: "conv4_1/dw"
  top: "conv4_1/dw"
  param {
    lr_mult: 1
    decay_mult: 0
  }
  param {
    lr_mult: 1
    decay_mult: 0
  }
  scale_param {
    filler {
      type: "constant"
      value: 1
    }
    bias_term: true
    bias_filler {
      type: "constant"
      value: 0
    }
  }
}
layer {
  name: "relu4_1/dw"
  type: "ReLU"
  bottom: "conv4_1/dw"
  top: "conv4_1/dw"
}
layer {
  name: "conv4_1/sep"
  type: "Convolution"
  bottom: "conv4_1/dw"
  top: "conv4_1/sep"
  param {
    lr_mult: 1
    decay_mult: 1
  }
  convolution_param {
    num_output: 256
    bias_term: false
    pad: 0
    kernel_size: 1
    stride: 1
    weight_filler {
      type: "msra"
    }
  }
}
layer {
  name: "conv4_1/sep/bn"
  type: "BatchNorm"
  bottom: "conv4_1/sep"
  top: "conv4_1/sep"
  batch_norm_param {
    use_global_stats: true
    eps: 1e-05
  }
}
layer {
  name: "conv4_1/sep/scale"
  type: "Scale"
  bottom: "conv4_1/sep"
  top: "conv4_1/sep"
  param {
    lr_mult: 1
    decay_mult: 0
  }
  param {
    lr_mult: 1
    decay_mult: 0
  }
  scale_param {
    filler {
      type: "constant"
      value: 1
    }
    bias_term: true
    bias_filler {
      type: "constant"
      value: 0
    }
  }
}
layer {
  name: "relu4_1/sep"
  type: "ReLU"
  bottom: "conv4_1/sep"
  top: "conv4_1/sep"
}
layer {
  name: "conv4_2/dw"
  type: "DepthwiseConvolution"
  bottom: "conv4_1/sep"
  top: "conv4_2/dw"
  param {
    lr_mult: 1
    decay_mult: 1
  }
  convolution_param {
    num_output: 256
    bias_term: false
    pad: 1
    kernel_size: 3
    group: 256
    stride: 2
    weight_filler {
      type: "msra"
    }
  }
}
layer {
  name: "conv4_2/dw/bn"
  type: "BatchNorm"
  bottom: "conv4_2/dw"
  top: "conv4_2/dw"
  batch_norm_param {
    use_global_stats: true
    eps: 1e-05
  }
}
layer {
  name: "conv4_2/dw/scale"
  type: "Scale"
  bottom: "conv4_2/dw"
  top: "conv4_2/dw"
  param {
    lr_mult: 1
    decay_mult: 0
  }
  param {
    lr_mult: 1
    decay_mult: 0
  }
  scale_param {
    filler {
      type: "constant"
      value: 1
    }
    bias_term: true
    bias_filler {
      type: "constant"
      value: 0
    }
  }
}
layer {
  name: "relu4_2/dw"
  type: "ReLU"
  bottom: "conv4_2/dw"
  top: "conv4_2/dw"
}
layer {
  name: "conv4_2/sep"
  type: "Convolution"
  bottom: "conv4_2/dw"
  top: "conv4_2/sep"
  param {
    lr_mult: 1
    decay_mult: 1
  }
  convolution_param {
    num_output: 512
    bias_term: false
    pad: 0
    kernel_size: 1
    stride: 1
    weight_filler {
      type: "msra"
    }
  }
}
layer {
  name: "conv4_2/sep/bn"
  type: "BatchNorm"
  bottom: "conv4_2/sep"
  top: "conv4_2/sep"
  batch_norm_param {
    use_global_stats: true
    eps: 1e-05
  }
}
layer {
  name: "conv4_2/sep/scale"
  type: "Scale"
  bottom: "conv4_2/sep"
  top: "conv4_2/sep"
  param {
    lr_mult: 1
    decay_mult: 0
  }
  param {
    lr_mult: 1
    decay_mult: 0
  }
  scale_param {
    filler {
      type: "constant"
      value: 1
    }
    bias_term: true
    bias_filler {
      type: "constant"
      value: 0
    }
  }
}
layer {
  name: "relu4_2/sep"
  type: "ReLU"
  bottom: "conv4_2/sep"
  top: "conv4_2/sep"
}
layer {
  name: "conv5_1/dw"
  type: "DepthwiseConvolution"
  bottom: "conv4_2/sep"
  top: "conv5_1/dw"
  param {
    lr_mult: 1
    decay_mult: 1
  }
  convolution_param {
    num_output: 512
    bias_term: false
    pad: 1
    kernel_size: 3
    group: 512
    stride: 1
    weight_filler {
      type: "msra"
    }
  }
}
layer {
  name: "conv5_1/dw/bn"
  type: "BatchNorm"
  bottom: "conv5_1/dw"
  top: "conv5_1/dw"
  batch_norm_param {
    use_global_stats: true
    eps: 1e-05
  }
}
layer {
  name: "conv5_1/dw/scale"
  type: "Scale"
  bottom: "conv5_1/dw"
  top: "conv5_1/dw"
  param {
    lr_mult: 1
    decay_mult: 0
  }
  param {
    lr_mult: 1
    decay_mult: 0
  }
  scale_param {
    filler {
      type: "constant"
      value: 1
    }
    bias_term: true
    bias_filler {
      type: "constant"
      value: 0
    }
  }
}
layer {
  name: "relu5_1/dw"
  type: "ReLU"
  bottom: "conv5_1/dw"
  top: "conv5_1/dw"
}
layer {
  name: "conv5_1/sep"
  type: "Convolution"
  bottom: "conv5_1/dw"
  top: "conv5_1/sep"
  param {
    lr_mult: 1
    decay_mult: 1
  }
  convolution_param {
    num_output: 512
    bias_term: false
    pad: 0
    kernel_size: 1
    stride: 1
    weight_filler {
      type: "msra"
    }
  }
}
layer {
  name: "conv5_1/sep/bn"
  type: "BatchNorm"
  bottom: "conv5_1/sep"
  top: "conv5_1/sep"
  batch_norm_param {
    use_global_stats: true
    eps: 1e-05
  }
}
layer {
  name: "conv5_1/sep/scale"
  type: "Scale"
  bottom: "conv5_1/sep"
  top: "conv5_1/sep"
  param {
    lr_mult: 1
    decay_mult: 0
  }
  param {
    lr_mult: 1
    decay_mult: 0
  }
  scale_param {
    filler {
      type: "constant"
      value: 1
    }
    bias_term: true
    bias_filler {
      type: "constant"
      value: 0
    }
  }
}
layer {
  name: "relu5_1/sep"
  type: "ReLU"
  bottom: "conv5_1/sep"
  top: "conv5_1/sep"
}
layer {
  name: "conv5_2/dw"
  type: "DepthwiseConvolution"
  bottom: "conv5_1/sep"
  top: "conv5_2/dw"
  param {
    lr_mult: 1
    decay_mult: 1
  }
  convolution_param {
    num_output: 512
    bias_term: false
    pad: 1
    kernel_size: 3
    group: 512
    stride: 1
    weight_filler {
      type: "msra"
    }
  }
}
layer {
  name: "conv5_2/dw/bn"
  type: "BatchNorm"
  bottom: "conv5_2/dw"
  top: "conv5_2/dw"
  batch_norm_param {
    use_global_stats: true
    eps: 1e-05
  }
}
layer {
  name: "conv5_2/dw/scale"
  type: "Scale"
  bottom: "conv5_2/dw"
  top: "conv5_2/dw"
  param {
    lr_mult: 1
    decay_mult: 0
  }
  param {
    lr_mult: 1
    decay_mult: 0
  }
  scale_param {
    filler {
      type: "constant"
      value: 1
    }
    bias_term: true
    bias_filler {
      type: "constant"
      value: 0
    }
  }
}
layer {
  name: "relu5_2/dw"
  type: "ReLU"
  bottom: "conv5_2/dw"
  top: "conv5_2/dw"
}
layer {
  name: "conv5_2/sep"
  type: "Convolution"
  bottom: "conv5_2/dw"
  top: "conv5_2/sep"
  param {
    lr_mult: 1
    decay_mult: 1
  }
  convolution_param {
    num_output: 512
    bias_term: false
    pad: 0
    kernel_size: 1
    stride: 1
    weight_filler {
      type: "msra"
    }
  }
}
layer {
  name: "conv5_2/sep/bn"
  type: "BatchNorm"
  bottom: "conv5_2/sep"
  top: "conv5_2/sep"
  batch_norm_param {
    use_global_stats: true
    eps: 1e-05
  }
}
layer {
  name: "conv5_2/sep/scale"
  type: "Scale"
  bottom: "conv5_2/sep"
  top: "conv5_2/sep"
  param {
    lr_mult: 1
    decay_mult: 0
  }
  param {
    lr_mult: 1
    decay_mult: 0
  }
  scale_param {
    filler {
      type: "constant"
      value: 1
    }
    bias_term: true
    bias_filler {
      type: "constant"
      value: 0
    }
  }
}
layer {
  name: "relu5_2/sep"
  type: "ReLU"
  bottom: "conv5_2/sep"
  top: "conv5_2/sep"
}
layer {
  name: "conv5_3/dw"
  type: "DepthwiseConvolution"
  bottom: "conv5_2/sep"
  top: "conv5_3/dw"
  param {
    lr_mult: 1
    decay_mult: 1
  }
  convolution_param {
    num_output: 512
    bias_term: false
    pad: 1
    kernel_size: 3
    group: 512
    stride: 1
    weight_filler {
      type: "msra"
    }
  }
}
layer {
  name: "conv5_3/dw/bn"
  type: "BatchNorm"
  bottom: "conv5_3/dw"
  top: "conv5_3/dw"
  batch_norm_param {
    use_global_stats: true
    eps: 1e-05
  }
}
layer {
  name: "conv5_3/dw/scale"
  type: "Scale"
  bottom: "conv5_3/dw"
  top: "conv5_3/dw"
  param {
    lr_mult: 1
    decay_mult: 0
  }
  param {
    lr_mult: 1
    decay_mult: 0
  }
  scale_param {
    filler {
      type: "constant"
      value: 1
    }
    bias_term: true
    bias_filler {
      type: "constant"
      value: 0
    }
  }
}
layer {
  name: "relu5_3/dw"
  type: "ReLU"
  bottom: "conv5_3/dw"
  top: "conv5_3/dw"
}
layer {
  name: "conv5_3/sep"
  type: "Convolution"
  bottom: "conv5_3/dw"
  top: "conv5_3/sep"
  param {
    lr_mult: 1
    decay_mult: 1
  }
  convolution_param {
    num_output: 512
    bias_term: false
    pad: 0
    kernel_size: 1
    stride: 1
    weight_filler {
      type: "msra"
    }
  }
}
layer {
  name: "conv5_3/sep/bn"
  type: "BatchNorm"
  bottom: "conv5_3/sep"
  top: "conv5_3/sep"
  batch_norm_param {
    use_global_stats: true
    eps: 1e-05
  }
}
layer {
  name: "conv5_3/sep/scale"
  type: "Scale"
  bottom: "conv5_3/sep"
  top: "conv5_3/sep"
  param {
    lr_mult: 1
    decay_mult: 0
  }
  param {
    lr_mult: 1
    decay_mult: 0
  }
  scale_param {
    filler {
      type: "constant"
      value: 1
    }
    bias_term: true
    bias_filler {
      type: "constant"
      value: 0
    }
  }
}
layer {
  name: "relu5_3/sep"
  type: "ReLU"
  bottom: "conv5_3/sep"
  top: "conv5_3/sep"
}
layer {
  name: "conv5_4/dw"
  type: "DepthwiseConvolution"
  bottom: "conv5_3/sep"
  top: "conv5_4/dw"
  param {
    lr_mult: 1
    decay_mult: 1
  }
  convolution_param {
    num_output: 512
    bias_term: false
    pad: 1
    kernel_size: 3
    group: 512
    stride: 1
    weight_filler {
      type: "msra"
    }
  }
}
layer {
  name: "conv5_4/dw/bn"
  type: "BatchNorm"
  bottom: "conv5_4/dw"
  top: "conv5_4/dw"
  batch_norm_param {
    use_global_stats: true
    eps: 1e-05
  }
}
layer {
  name: "conv5_4/dw/scale"
  type: "Scale"
  bottom: "conv5_4/dw"
  top: "conv5_4/dw"
  param {
    lr_mult: 1
    decay_mult: 0
  }
  param {
    lr_mult: 1
    decay_mult: 0
  }
  scale_param {
    filler {
      type: "constant"
      value: 1
    }
    bias_term: true
    bias_filler {
      type: "constant"
      value: 0
    }
  }
}
layer {
  name: "relu5_4/dw"
  type: "ReLU"
  bottom: "conv5_4/dw"
  top: "conv5_4/dw"
}
layer {
  name: "conv5_4/sep"
  type: "Convolution"
  bottom: "conv5_4/dw"
  top: "conv5_4/sep"
  param {
    lr_mult: 1
    decay_mult: 1
  }
  convolution_param {
    num_output: 512
    bias_term: false
    pad: 0
    kernel_size: 1
    stride: 1
    weight_filler {
      type: "msra"
    }
  }
}
layer {
  name: "conv5_4/sep/bn"
  type: "BatchNorm"
  bottom: "conv5_4/sep"
  top: "conv5_4/sep"
  batch_norm_param {
    use_global_stats: true
    eps: 1e-05
  }
}
layer {
  name: "conv5_4/sep/scale"
  type: "Scale"
  bottom: "conv5_4/sep"
  top: "conv5_4/sep"
  param {
    lr_mult: 1
    decay_mult: 0
  }
  param {
    lr_mult: 1
    decay_mult: 0
  }
  scale_param {
    filler {
      type: "constant"
      value: 1
    }
    bias_term: true
    bias_filler {
      type: "constant"
      value: 0
    }
  }
}
layer {
  name: "relu5_4/sep"
  type: "ReLU"
  bottom: "conv5_4/sep"
  top: "conv5_4/sep"
}
layer {
  name: "conv5_5/dw"
  type: "DepthwiseConvolution"
  bottom: "conv5_4/sep"
  top: "conv5_5/dw"
  param {
    lr_mult: 1
    decay_mult: 1
  }
  convolution_param {
    num_output: 512
    bias_term: false
    pad: 1
    kernel_size: 3
    group: 512
    stride: 1
    weight_filler {
      type: "msra"
    }
  }
}
layer {
  name: "conv5_5/dw/bn"
  type: "BatchNorm"
  bottom: "conv5_5/dw"
  top: "conv5_5/dw"
  batch_norm_param {
    use_global_stats: true
    eps: 1e-05
  }
}
layer {
  name: "conv5_5/dw/scale"
  type: "Scale"
  bottom: "conv5_5/dw"
  top: "conv5_5/dw"
  param {
    lr_mult: 1
    decay_mult: 0
  }
  param {
    lr_mult: 1
    decay_mult: 0
  }
  scale_param {
    filler {
      type: "constant"
      value: 1
    }
    bias_term: true
    bias_filler {
      type: "constant"
      value: 0
    }
  }
}
layer {
  name: "relu5_5/dw"
  type: "ReLU"
  bottom: "conv5_5/dw"
  top: "conv5_5/dw"
}
layer {
  name: "conv5_5/sep"
  type: "Convolution"
  bottom: "conv5_5/dw"
  top: "conv5_5/sep"
  param {
    lr_mult: 1
    decay_mult: 1
  }
  convolution_param {
    num_output: 512
    bias_term: false
    pad: 0
    kernel_size: 1
    stride: 1
    weight_filler {
      type: "msra"
    }
  }
}
layer {
  name: "conv5_5/sep/bn"
  type: "BatchNorm"
  bottom: "conv5_5/sep"
  top: "conv5_5/sep"
  batch_norm_param {
    use_global_stats: true
    eps: 1e-05
  }
}
layer {
  name: "conv5_5/sep/scale"
  type: "Scale"
  bottom: "conv5_5/sep"
  top: "conv5_5/sep"
  param {
    lr_mult: 1
    decay_mult: 0
  }
  param {
    lr_mult: 1
    decay_mult: 0
  }
  scale_param {
    filler {
      type: "constant"
      value: 1
    }
    bias_term: true
    bias_filler {
      type: "constant"
      value: 0
    }
  }
}
layer {
  name: "relu5_5/sep"
  type: "ReLU"
  bottom: "conv5_5/sep"
  top: "conv5_5/sep"
}
layer {
  name: "conv5_6/dw"
  type: "DepthwiseConvolution"
  bottom: "conv5_5/sep"
  top: "conv5_6/dw"
  param {
    lr_mult: 1
    decay_mult: 1
  }
  convolution_param {
    num_output: 512
    bias_term: false
    pad: 1
    kernel_size: 3
    group: 512
    stride: 2
    weight_filler {
      type: "msra"
    }
  }
}
layer {
  name: "conv5_6/dw/bn"
  type: "BatchNorm"
  bottom: "conv5_6/dw"
  top: "conv5_6/dw"
  batch_norm_param {
    use_global_stats: true
    eps: 1e-05
  }
}
layer {
  name: "conv5_6/dw/scale"
  type: "Scale"
  bottom: "conv5_6/dw"
  top: "conv5_6/dw"
  param {
    lr_mult: 1
    decay_mult: 0
  }
  param {
    lr_mult: 1
    decay_mult: 0
  }
  scale_param {
    filler {
      type: "constant"
      value: 1
    }
    bias_term: true
    bias_filler {
      type: "constant"
      value: 0
    }
  }
}
layer {
  name: "relu5_6/dw"
  type: "ReLU"
  bottom: "conv5_6/dw"
  top: "conv5_6/dw"
}
layer {
  name: "conv5_6/sep"
  type: "Convolution"
  bottom: "conv5_6/dw"
  top: "conv5_6/sep"
  param {
    lr_mult: 1
    decay_mult: 1
  }
  convolution_param {
    num_output: 1024
    bias_term: false
    pad: 0
    kernel_size: 1
    stride: 1
    weight_filler {
      type: "msra"
    }
  }
}
layer {
  name: "conv5_6/sep/bn"
  type: "BatchNorm"
  bottom: "conv5_6/sep"
  top: "conv5_6/sep"
  batch_norm_param {
    use_global_stats: true
    eps: 1e-05
  }
}
layer {
  name: "conv5_6/sep/scale"
  type: "Scale"
  bottom: "conv5_6/sep"
  top: "conv5_6/sep"
  param {
    lr_mult: 1
    decay_mult: 0
  }
  param {
    lr_mult: 1
    decay_mult: 0
  }
  scale_param {
    filler {
      type: "constant"
      value: 1
    }
    bias_term: true
    bias_filler {
      type: "constant"
      value: 0
    }
  }
}
layer {
  name: "relu5_6/sep"
  type: "ReLU"
  bottom: "conv5_6/sep"
  top: "conv5_6/sep"
}
layer {
  name: "conv6/dw"
  type: "DepthwiseConvolution"
  bottom: "conv5_6/sep"
  top: "conv6/dw"
  param {
    lr_mult: 1
    decay_mult: 1
  }
  convolution_param {
    num_output: 1024
    bias_term: false
    pad: 1
    kernel_size: 3
    group: 1024
    stride: 1
    weight_filler {
      type: "msra"
    }
  }
}
layer {
  name: "conv6/dw/bn"
  type: "BatchNorm"
  bottom: "conv6/dw"
  top: "conv6/dw"
  batch_norm_param {
    use_global_stats: true
    eps: 1e-05
  }
}
layer {
  name: "conv6/dw/scale"
  type: "Scale"
  bottom: "conv6/dw"
  top: "conv6/dw"
  param {
    lr_mult: 1
    decay_mult: 0
  }
  param {
    lr_mult: 1
    decay_mult: 0
  }
  scale_param {
    filler {
      type: "constant"
      value: 1
    }
    bias_term: true
    bias_filler {
      type: "constant"
      value: 0
    }
  }
}
layer {
  name: "relu6/dw"
  type: "ReLU"
  bottom: "conv6/dw"
  top: "conv6/dw"
}
layer {
  name: "conv6/sep"
  type: "Convolution"
  bottom: "conv6/dw"
  top: "conv6/sep"
  param {
    lr_mult: 1
    decay_mult: 1
  }
  convolution_param {
    num_output: 1024
    bias_term: false
    pad: 0
    kernel_size: 1
    stride: 1
    weight_filler {
      type: "msra"
    }
  }
}
layer {
  name: "conv6/sep/bn"
  type: "BatchNorm"
  bottom: "conv6/sep"
  top: "conv6/sep"
  batch_norm_param {
    use_global_stats: true
    eps: 1e-05
  }
}
layer {
  name: "conv6/sep/scale"
  type: "Scale"
  bottom: "conv6/sep"
  top: "conv6/sep"
  param {
    lr_mult: 1
    decay_mult: 0
  }
  param {
    lr_mult: 1
    decay_mult: 0
  }
  scale_param {
    filler {
      type: "constant"
      value: 1
    }
    bias_term: true
    bias_filler {
      type: "constant"
      value: 0
    }
  }
}
layer {
  name: "relu6/sep"
  type: "ReLU"
  bottom: "conv6/sep"
  top: "conv6/sep"
}
layer {
  name: "ssd1_1"
  type: "Convolution"
  bottom: "conv6/sep"
  top: "ssd1_1"
  param {
    lr_mult: 1
    decay_mult: 1
  }
  param {
    lr_mult: 2
    decay_mult: 0
  }
  convolution_param {
    num_output: 256
    pad: 0
    kernel_size: 1
    stride: 1
    weight_filler {
      type: "xavier"
    }
    bias_filler {
      type: "constant"
      value: 0
    }
  }
}
layer {
  name: "ssd1_1_relu"
  type: "ReLU"
  bottom: "ssd1_1"
  top: "ssd1_1"
}
layer {
  name: "ssd1_2"
  type: "Convolution"
  bottom: "ssd1_1"
  top: "ssd1_2"
  param {
    lr_mult: 1
    decay_mult: 1
  }
  param {
    lr_mult: 2
    decay_mult: 0
  }
  convolution_param {
    num_output: 512
    pad: 1
    kernel_size: 3
    stride: 2
    weight_filler {
      type: "xavier"
    }
    bias_filler {
      type: "constant"
      value: 0
    }
  }
}
layer {
  name: "ssd1_2_relu"
  type: "ReLU"
  bottom: "ssd1_2"
  top: "ssd1_2"
}
layer {
  name: "ssd2_1"
  type: "Convolution"
  bottom: "ssd1_2"
  top: "ssd2_1"
  param {
    lr_mult: 1
    decay_mult: 1
  }
  param {
    lr_mult: 2
    decay_mult: 0
  }
  convolution_param {
    num_output: 128
    pad: 0
    kernel_size: 1
    stride: 1
    weight_filler {
      type: "xavier"
    }
    bias_filler {
      type: "constant"
      value: 0
    }
  }
}
layer {
  name: "ssd2_1_relu"
  type: "ReLU"
  bottom: "ssd2_1"
  top: "ssd2_1"
}
layer {
  name: "ssd2_2"
  type: "Convolution"
  bottom: "ssd2_1"
  top: "ssd2_2"
  param {
    lr_mult: 1
    decay_mult: 1
  }
  param {
    lr_mult: 2
    decay_mult: 0
  }
  convolution_param {
    num_output: 256
    pad: 1
    kernel_size: 3
    stride: 2
    weight_filler {
      type: "xavier"
    }
    bias_filler {
      type: "constant"
      value: 0
    }
  }
}
layer {
  name: "ssd2_2_relu"
  type: "ReLU"
  bottom: "ssd2_2"
  top: "ssd2_2"
}
layer {
  name: "ssd3_1"
  type: "Convolution"
  bottom: "ssd2_2"
  top: "ssd3_1"
  param {
    lr_mult: 1
    decay_mult: 1
  }
  param {
    lr_mult: 2
    decay_mult: 0
  }
  convolution_param {
    num_output: 128
    pad: 0
    kernel_size: 1
    stride: 1
    weight_filler {
      type: "xavier"
    }
    bias_filler {
      type: "constant"
      value: 0
    }
  }
}
layer {
  name: "ssd3_1_relu"
  type: "ReLU"
  bottom: "ssd3_1"
  top: "ssd3_1"
}
layer {
  name: "ssd3_2"
  type: "Convolution"
  bottom: "ssd3_1"
  top: "ssd3_2"
  param {
    lr_mult: 1
    decay_mult: 1
  }
  param {
    lr_mult: 2
    d
I0929 13:08:07.436462 23239 layer_factory.hpp:77] Creating layer data
I0929 13:08:07.436569 23239 net.cpp:100] Creating Layer data
I0929 13:08:07.436578 23239 net.cpp:408] data -> data
I0929 13:08:07.436606 23239 net.cpp:408] data -> label
I0929 13:08:07.437136 23249 db_lmdb.cpp:35] Opened lmdb examples/GTSDB/GTSDB_trainval_lmdb
I0929 13:08:07.449753 23239 annotated_data_layer.cpp:62] output data size: 1,3,300,510
I0929 13:08:07.452448 23239 net.cpp:150] Setting up data
I0929 13:08:07.452467 23239 net.cpp:157] Top shape: 1 3 300 510 (459000)
I0929 13:08:07.452472 23239 net.cpp:157] Top shape: 1 1 3 8 (24)
I0929 13:08:07.452474 23239 net.cpp:165] Memory required for data: 1836096
I0929 13:08:07.452484 23239 layer_factory.hpp:77] Creating layer data_data_0_split
I0929 13:08:07.452495 23239 net.cpp:100] Creating Layer data_data_0_split
I0929 13:08:07.452499 23239 net.cpp:434] data_data_0_split <- data
I0929 13:08:07.452512 23239 net.cpp:408] data_data_0_split -> data_data_0_split_0
I0929 13:08:07.452522 23239 net.cpp:408] data_data_0_split -> data_data_0_split_1
I0929 13:08:07.452529 23239 net.cpp:408] data_data_0_split -> data_data_0_split_2
I0929 13:08:07.452536 23239 net.cpp:408] data_data_0_split -> data_data_0_split_3
I0929 13:08:07.452543 23239 net.cpp:408] data_data_0_split -> data_data_0_split_4
I0929 13:08:07.452550 23239 net.cpp:408] data_data_0_split -> data_data_0_split_5
I0929 13:08:07.452558 23239 net.cpp:408] data_data_0_split -> data_data_0_split_6
I0929 13:08:07.452627 23239 net.cpp:150] Setting up data_data_0_split
I0929 13:08:07.452633 23239 net.cpp:157] Top shape: 1 3 300 510 (459000)
I0929 13:08:07.452638 23239 net.cpp:157] Top shape: 1 3 300 510 (459000)
I0929 13:08:07.452643 23239 net.cpp:157] Top shape: 1 3 300 510 (459000)
I0929 13:08:07.452647 23239 net.cpp:157] Top shape: 1 3 300 510 (459000)
I0929 13:08:07.452652 23239 net.cpp:157] Top shape: 1 3 300 510 (459000)
I0929 13:08:07.452656 23239 net.cpp:157] Top shape: 1 3 300 510 (459000)
I0929 13:08:07.452661 23239 net.cpp:157] Top shape: 1 3 300 510 (459000)
I0929 13:08:07.452664 23239 net.cpp:165] Memory required for data: 14688096
I0929 13:08:07.452667 23239 layer_factory.hpp:77] Creating layer conv1
I0929 13:08:07.452679 23239 net.cpp:100] Creating Layer conv1
I0929 13:08:07.452682 23239 net.cpp:434] conv1 <- data_data_0_split_0
I0929 13:08:07.452689 23239 net.cpp:408] conv1 -> conv1
I0929 13:08:07.782954 23239 net.cpp:150] Setting up conv1
I0929 13:08:07.782975 23239 net.cpp:157] Top shape: 1 32 150 255 (1224000)
I0929 13:08:07.782979 23239 net.cpp:165] Memory required for data: 19584096
I0929 13:08:07.782997 23239 layer_factory.hpp:77] Creating layer conv1/bn
I0929 13:08:07.783007 23239 net.cpp:100] Creating Layer conv1/bn
I0929 13:08:07.783010 23239 net.cpp:434] conv1/bn <- conv1
I0929 13:08:07.783015 23239 net.cpp:395] conv1/bn -> conv1 (in-place)
I0929 13:08:07.783597 23239 net.cpp:150] Setting up conv1/bn
I0929 13:08:07.783604 23239 net.cpp:157] Top shape: 1 32 150 255 (1224000)
I0929 13:08:07.783607 23239 net.cpp:165] Memory required for data: 24480096
I0929 13:08:07.783615 23239 layer_factory.hpp:77] Creating layer conv1/scale
I0929 13:08:07.783622 23239 net.cpp:100] Creating Layer conv1/scale
I0929 13:08:07.783625 23239 net.cpp:434] conv1/scale <- conv1
I0929 13:08:07.783629 23239 net.cpp:395] conv1/scale -> conv1 (in-place)
I0929 13:08:07.783659 23239 layer_factory.hpp:77] Creating layer conv1/scale
I0929 13:08:07.783747 23239 net.cpp:150] Setting up conv1/scale
I0929 13:08:07.783752 23239 net.cpp:157] Top shape: 1 32 150 255 (1224000)
I0929 13:08:07.783754 23239 net.cpp:165] Memory required for data: 29376096
I0929 13:08:07.783759 23239 layer_factory.hpp:77] Creating layer relu1
I0929 13:08:07.783763 23239 net.cpp:100] Creating Layer relu1
I0929 13:08:07.783766 23239 net.cpp:434] relu1 <- conv1
I0929 13:08:07.783768 23239 net.cpp:395] relu1 -> conv1 (in-place)
I0929 13:08:07.784046 23239 net.cpp:150] Setting up relu1
I0929 13:08:07.784052 23239 net.cpp:157] Top shape: 1 32 150 255 (1224000)
I0929 13:08:07.784054 23239 net.cpp:165] Memory required for data: 34272096
I0929 13:08:07.784056 23239 layer_factory.hpp:77] Creating layer conv2_1/dw
I0929 13:08:07.784062 23239 net.cpp:100] Creating Layer conv2_1/dw
I0929 13:08:07.784065 23239 net.cpp:434] conv2_1/dw <- conv1
I0929 13:08:07.784068 23239 net.cpp:408] conv2_1/dw -> conv2_1/dw
I0929 13:08:07.784194 23239 net.cpp:150] Setting up conv2_1/dw
I0929 13:08:07.784199 23239 net.cpp:157] Top shape: 1 32 150 255 (1224000)
I0929 13:08:07.784201 23239 net.cpp:165] Memory required for data: 39168096
I0929 13:08:07.784204 23239 layer_factory.hpp:77] Creating layer conv2_1/dw/bn
I0929 13:08:07.784207 23239 net.cpp:100] Creating Layer conv2_1/dw/bn
I0929 13:08:07.784210 23239 net.cpp:434] conv2_1/dw/bn <- conv2_1/dw
I0929 13:08:07.784214 23239 net.cpp:395] conv2_1/dw/bn -> conv2_1/dw (in-place)
I0929 13:08:07.784332 23239 net.cpp:150] Setting up conv2_1/dw/bn
I0929 13:08:07.784337 23239 net.cpp:157] Top shape: 1 32 150 255 (1224000)
I0929 13:08:07.784338 23239 net.cpp:165] Memory required for data: 44064096
I0929 13:08:07.784344 23239 layer_factory.hpp:77] Creating layer conv2_1/dw/scale
I0929 13:08:07.784349 23239 net.cpp:100] Creating Layer conv2_1/dw/scale
I0929 13:08:07.784351 23239 net.cpp:434] conv2_1/dw/scale <- conv2_1/dw
I0929 13:08:07.784355 23239 net.cpp:395] conv2_1/dw/scale -> conv2_1/dw (in-place)
I0929 13:08:07.784377 23239 layer_factory.hpp:77] Creating layer conv2_1/dw/scale
I0929 13:08:07.784461 23239 net.cpp:150] Setting up conv2_1/dw/scale
I0929 13:08:07.784476 23239 net.cpp:157] Top shape: 1 32 150 255 (1224000)
I0929 13:08:07.784477 23239 net.cpp:165] Memory required for data: 48960096
I0929 13:08:07.784482 23239 layer_factory.hpp:77] Creating layer relu2_1/dw
I0929 13:08:07.784484 23239 net.cpp:100] Creating Layer relu2_1/dw
I0929 13:08:07.784485 23239 net.cpp:434] relu2_1/dw <- conv2_1/dw
I0929 13:08:07.784490 23239 net.cpp:395] relu2_1/dw -> conv2_1/dw (in-place)
I0929 13:08:07.784857 23239 net.cpp:150] Setting up relu2_1/dw
I0929 13:08:07.784864 23239 net.cpp:157] Top shape: 1 32 150 255 (1224000)
I0929 13:08:07.784867 23239 net.cpp:165] Memory required for data: 53856096
I0929 13:08:07.784868 23239 layer_factory.hpp:77] Creating layer conv2_1/sep
I0929 13:08:07.784874 23239 net.cpp:100] Creating Layer conv2_1/sep
I0929 13:08:07.784876 23239 net.cpp:434] conv2_1/sep <- conv2_1/dw
I0929 13:08:07.784880 23239 net.cpp:408] conv2_1/sep -> conv2_1/sep
I0929 13:08:07.786337 23239 net.cpp:150] Setting up conv2_1/sep
I0929 13:08:07.786345 23239 net.cpp:157] Top shape: 1 64 150 255 (2448000)
I0929 13:08:07.786347 23239 net.cpp:165] Memory required for data: 63648096
I0929 13:08:07.786351 23239 layer_factory.hpp:77] Creating layer conv2_1/sep/bn
I0929 13:08:07.786356 23239 net.cpp:100] Creating Layer conv2_1/sep/bn
I0929 13:08:07.786358 23239 net.cpp:434] conv2_1/sep/bn <- conv2_1/sep
I0929 13:08:07.786361 23239 net.cpp:395] conv2_1/sep/bn -> conv2_1/sep (in-place)
I0929 13:08:07.786486 23239 net.cpp:150] Setting up conv2_1/sep/bn
I0929 13:08:07.786490 23239 net.cpp:157] Top shape: 1 64 150 255 (2448000)
I0929 13:08:07.786492 23239 net.cpp:165] Memory required for data: 73440096
I0929 13:08:07.786496 23239 layer_factory.hpp:77] Creating layer conv2_1/sep/scale
I0929 13:08:07.786499 23239 net.cpp:100] Creating Layer conv2_1/sep/scale
I0929 13:08:07.786501 23239 net.cpp:434] conv2_1/sep/scale <- conv2_1/sep
I0929 13:08:07.786504 23239 net.cpp:395] conv2_1/sep/scale -> conv2_1/sep (in-place)
I0929 13:08:07.786527 23239 layer_factory.hpp:77] Creating layer conv2_1/sep/scale
I0929 13:08:07.786612 23239 net.cpp:150] Setting up conv2_1/sep/scale
I0929 13:08:07.786617 23239 net.cpp:157] Top shape: 1 64 150 255 (2448000)
I0929 13:08:07.786619 23239 net.cpp:165] Memory required for data: 83232096
I0929 13:08:07.786625 23239 layer_factory.hpp:77] Creating layer relu2_1/sep
I0929 13:08:07.786629 23239 net.cpp:100] Creating Layer relu2_1/sep
I0929 13:08:07.786633 23239 net.cpp:434] relu2_1/sep <- conv2_1/sep
I0929 13:08:07.786635 23239 net.cpp:395] relu2_1/sep -> conv2_1/sep (in-place)
I0929 13:08:07.786906 23239 net.cpp:150] Setting up relu2_1/sep
I0929 13:08:07.786911 23239 net.cpp:157] Top shape: 1 64 150 255 (2448000)
I0929 13:08:07.786914 23239 net.cpp:165] Memory required for data: 93024096
I0929 13:08:07.786916 23239 layer_factory.hpp:77] Creating layer conv2_2/dw
I0929 13:08:07.786921 23239 net.cpp:100] Creating Layer conv2_2/dw
I0929 13:08:07.786922 23239 net.cpp:434] conv2_2/dw <- conv2_1/sep
I0929 13:08:07.786926 23239 net.cpp:408] conv2_2/dw -> conv2_2/dw
I0929 13:08:07.787045 23239 net.cpp:150] Setting up conv2_2/dw
I0929 13:08:07.787050 23239 net.cpp:157] Top shape: 1 64 75 128 (614400)
I0929 13:08:07.787052 23239 net.cpp:165] Memory required for data: 95481696
I0929 13:08:07.787055 23239 layer_factory.hpp:77] Creating layer conv2_2/dw/bn
I0929 13:08:07.787058 23239 net.cpp:100] Creating Layer conv2_2/dw/bn
I0929 13:08:07.787060 23239 net.cpp:434] conv2_2/dw/bn <- conv2_2/dw
I0929 13:08:07.787062 23239 net.cpp:395] conv2_2/dw/bn -> conv2_2/dw (in-place)
I0929 13:08:07.787606 23239 net.cpp:150] Setting up conv2_2/dw/bn
I0929 13:08:07.787611 23239 net.cpp:157] Top shape: 1 64 75 128 (614400)
I0929 13:08:07.787613 23239 net.cpp:165] Memory required for data: 97939296
I0929 13:08:07.787618 23239 layer_factory.hpp:77] Creating layer conv2_2/dw/scale
I0929 13:08:07.787626 23239 net.cpp:100] Creating Layer conv2_2/dw/scale
I0929 13:08:07.787626 23239 net.cpp:434] conv2_2/dw/scale <- conv2_2/dw
I0929 13:08:07.787629 23239 net.cpp:395] conv2_2/dw/scale -> conv2_2/dw (in-place)
I0929 13:08:07.787665 23239 layer_factory.hpp:77] Creating layer conv2_2/dw/scale
I0929 13:08:07.787732 23239 net.cpp:150] Setting up conv2_2/dw/scale
I0929 13:08:07.787736 23239 net.cpp:157] Top shape: 1 64 75 128 (614400)
I0929 13:08:07.787739 23239 net.cpp:165] Memory required for data: 100396896
I0929 13:08:07.787741 23239 layer_factory.hpp:77] Creating layer relu2_2/dw
I0929 13:08:07.787745 23239 net.cpp:100] Creating Layer relu2_2/dw
I0929 13:08:07.787747 23239 net.cpp:434] relu2_2/dw <- conv2_2/dw
I0929 13:08:07.787750 23239 net.cpp:395] relu2_2/dw -> conv2_2/dw (in-place)
I0929 13:08:07.788111 23239 net.cpp:150] Setting up relu2_2/dw
I0929 13:08:07.788118 23239 net.cpp:157] Top shape: 1 64 75 128 (614400)
I0929 13:08:07.788120 23239 net.cpp:165] Memory required for data: 102854496
I0929 13:08:07.788122 23239 layer_factory.hpp:77] Creating layer conv2_2/sep
I0929 13:08:07.788128 23239 net.cpp:100] Creating Layer conv2_2/sep
I0929 13:08:07.788131 23239 net.cpp:434] conv2_2/sep <- conv2_2/dw
I0929 13:08:07.788134 23239 net.cpp:408] conv2_2/sep -> conv2_2/sep
I0929 13:08:07.789273 23239 net.cpp:150] Setting up conv2_2/sep
I0929 13:08:07.789279 23239 net.cpp:157] Top shape: 1 128 75 128 (1228800)
I0929 13:08:07.789283 23239 net.cpp:165] Memory required for data: 107769696
I0929 13:08:07.789285 23239 layer_factory.hpp:77] Creating layer conv2_2/sep/bn
I0929 13:08:07.789290 23239 net.cpp:100] Creating Layer conv2_2/sep/bn
I0929 13:08:07.789292 23239 net.cpp:434] conv2_2/sep/bn <- conv2_2/sep
I0929 13:08:07.789295 23239 net.cpp:395] conv2_2/sep/bn -> conv2_2/sep (in-place)
I0929 13:08:07.789410 23239 net.cpp:150] Setting up conv2_2/sep/bn
I0929 13:08:07.789414 23239 net.cpp:157] Top shape: 1 128 75 128 (1228800)
I0929 13:08:07.789417 23239 net.cpp:165] Memory required for data: 112684896
I0929 13:08:07.789422 23239 layer_factory.hpp:77] Creating layer conv2_2/sep/scale
I0929 13:08:07.789425 23239 net.cpp:100] Creating Layer conv2_2/sep/scale
I0929 13:08:07.789428 23239 net.cpp:434] conv2_2/sep/scale <- conv2_2/sep
I0929 13:08:07.789430 23239 net.cpp:395] conv2_2/sep/scale -> conv2_2/sep (in-place)
I0929 13:08:07.789453 23239 layer_factory.hpp:77] Creating layer conv2_2/sep/scale
I0929 13:08:07.789517 23239 net.cpp:150] Setting up conv2_2/sep/scale
I0929 13:08:07.789521 23239 net.cpp:157] Top shape: 1 128 75 128 (1228800)
I0929 13:08:07.789523 23239 net.cpp:165] Memory required for data: 117600096
I0929 13:08:07.789527 23239 layer_factory.hpp:77] Creating layer relu2_2/sep
I0929 13:08:07.789530 23239 net.cpp:100] Creating Layer relu2_2/sep
I0929 13:08:07.789532 23239 net.cpp:434] relu2_2/sep <- conv2_2/sep
I0929 13:08:07.789535 23239 net.cpp:395] relu2_2/sep -> conv2_2/sep (in-place)
I0929 13:08:07.789801 23239 net.cpp:150] Setting up relu2_2/sep
I0929 13:08:07.789808 23239 net.cpp:157] Top shape: 1 128 75 128 (1228800)
I0929 13:08:07.789810 23239 net.cpp:165] Memory required for data: 122515296
I0929 13:08:07.789811 23239 layer_factory.hpp:77] Creating layer conv3_1/dw
I0929 13:08:07.789816 23239 net.cpp:100] Creating Layer conv3_1/dw
I0929 13:08:07.789819 23239 net.cpp:434] conv3_1/dw <- conv2_2/sep
I0929 13:08:07.789822 23239 net.cpp:408] conv3_1/dw -> conv3_1/dw
I0929 13:08:07.789947 23239 net.cpp:150] Setting up conv3_1/dw
I0929 13:08:07.789950 23239 net.cpp:157] Top shape: 1 128 75 128 (1228800)
I0929 13:08:07.789952 23239 net.cpp:165] Memory required for data: 127430496
I0929 13:08:07.789955 23239 layer_factory.hpp:77] Creating layer conv3_1/dw/bn
I0929 13:08:07.789958 23239 net.cpp:100] Creating Layer conv3_1/dw/bn
I0929 13:08:07.789961 23239 net.cpp:434] conv3_1/dw/bn <- conv3_1/dw
I0929 13:08:07.789963 23239 net.cpp:395] conv3_1/dw/bn -> conv3_1/dw (in-place)
I0929 13:08:07.790069 23239 net.cpp:150] Setting up conv3_1/dw/bn
I0929 13:08:07.790073 23239 net.cpp:157] Top shape: 1 128 75 128 (1228800)
I0929 13:08:07.790076 23239 net.cpp:165] Memory required for data: 132345696
I0929 13:08:07.790082 23239 layer_factory.hpp:77] Creating layer conv3_1/dw/scale
I0929 13:08:07.790086 23239 net.cpp:100] Creating Layer conv3_1/dw/scale
I0929 13:08:07.790096 23239 net.cpp:434] conv3_1/dw/scale <- conv3_1/dw
I0929 13:08:07.790099 23239 net.cpp:395] conv3_1/dw/scale -> conv3_1/dw (in-place)
I0929 13:08:07.790124 23239 layer_factory.hpp:77] Creating layer conv3_1/dw/scale
I0929 13:08:07.790186 23239 net.cpp:150] Setting up conv3_1/dw/scale
I0929 13:08:07.790190 23239 net.cpp:157] Top shape: 1 128 75 128 (1228800)
I0929 13:08:07.790194 23239 net.cpp:165] Memory required for data: 137260896
I0929 13:08:07.790196 23239 layer_factory.hpp:77] Creating layer relu3_1/dw
I0929 13:08:07.790199 23239 net.cpp:100] Creating Layer relu3_1/dw
I0929 13:08:07.790201 23239 net.cpp:434] relu3_1/dw <- conv3_1/dw
I0929 13:08:07.790205 23239 net.cpp:395] relu3_1/dw -> conv3_1/dw (in-place)
I0929 13:08:07.790563 23239 net.cpp:150] Setting up relu3_1/dw
I0929 13:08:07.790570 23239 net.cpp:157] Top shape: 1 128 75 128 (1228800)
I0929 13:08:07.790573 23239 net.cpp:165] Memory required for data: 142176096
I0929 13:08:07.790575 23239 layer_factory.hpp:77] Creating layer conv3_1/sep
I0929 13:08:07.790580 23239 net.cpp:100] Creating Layer conv3_1/sep
I0929 13:08:07.790583 23239 net.cpp:434] conv3_1/sep <- conv3_1/dw
I0929 13:08:07.790586 23239 net.cpp:408] conv3_1/sep -> conv3_1/sep
I0929 13:08:07.791755 23239 net.cpp:150] Setting up conv3_1/sep
I0929 13:08:07.791764 23239 net.cpp:157] Top shape: 1 128 75 128 (1228800)
I0929 13:08:07.791764 23239 net.cpp:165] Memory required for data: 147091296
I0929 13:08:07.791769 23239 layer_factory.hpp:77] Creating layer conv3_1/sep/bn
I0929 13:08:07.791774 23239 net.cpp:100] Creating Layer conv3_1/sep/bn
I0929 13:08:07.791776 23239 net.cpp:434] conv3_1/sep/bn <- conv3_1/sep
I0929 13:08:07.791779 23239 net.cpp:395] conv3_1/sep/bn -> conv3_1/sep (in-place)
I0929 13:08:07.791893 23239 net.cpp:150] Setting up conv3_1/sep/bn
I0929 13:08:07.791896 23239 net.cpp:157] Top shape: 1 128 75 128 (1228800)
I0929 13:08:07.791898 23239 net.cpp:165] Memory required for data: 152006496
I0929 13:08:07.791903 23239 layer_factory.hpp:77] Creating layer conv3_1/sep/scale
I0929 13:08:07.791906 23239 net.cpp:100] Creating Layer conv3_1/sep/scale
I0929 13:08:07.791909 23239 net.cpp:434] conv3_1/sep/scale <- conv3_1/sep
I0929 13:08:07.791913 23239 net.cpp:395] conv3_1/sep/scale -> conv3_1/sep (in-place)
I0929 13:08:07.791934 23239 layer_factory.hpp:77] Creating layer conv3_1/sep/scale
I0929 13:08:07.791997 23239 net.cpp:150] Setting up conv3_1/sep/scale
I0929 13:08:07.792002 23239 net.cpp:157] Top shape: 1 128 75 128 (1228800)
I0929 13:08:07.792004 23239 net.cpp:165] Memory required for data: 156921696
I0929 13:08:07.792007 23239 layer_factory.hpp:77] Creating layer relu3_1/sep
I0929 13:08:07.792011 23239 net.cpp:100] Creating Layer relu3_1/sep
I0929 13:08:07.792013 23239 net.cpp:434] relu3_1/sep <- conv3_1/sep
I0929 13:08:07.792016 23239 net.cpp:395] relu3_1/sep -> conv3_1/sep (in-place)
I0929 13:08:07.792273 23239 net.cpp:150] Setting up relu3_1/sep
I0929 13:08:07.792279 23239 net.cpp:157] Top shape: 1 128 75 128 (1228800)
I0929 13:08:07.792281 23239 net.cpp:165] Memory required for data: 161836896
I0929 13:08:07.792284 23239 layer_factory.hpp:77] Creating layer conv3_2/dw
I0929 13:08:07.792289 23239 net.cpp:100] Creating Layer conv3_2/dw
I0929 13:08:07.792290 23239 net.cpp:434] conv3_2/dw <- conv3_1/sep
I0929 13:08:07.792294 23239 net.cpp:408] conv3_2/dw -> conv3_2/dw
I0929 13:08:07.792419 23239 net.cpp:150] Setting up conv3_2/dw
I0929 13:08:07.792424 23239 net.cpp:157] Top shape: 1 128 38 64 (311296)
I0929 13:08:07.792426 23239 net.cpp:165] Memory required for data: 163082080
I0929 13:08:07.792429 23239 layer_factory.hpp:77] Creating layer conv3_2/dw/bn
I0929 13:08:07.792433 23239 net.cpp:100] Creating Layer conv3_2/dw/bn
I0929 13:08:07.792434 23239 net.cpp:434] conv3_2/dw/bn <- conv3_2/dw
I0929 13:08:07.792438 23239 net.cpp:395] conv3_2/dw/bn -> conv3_2/dw (in-place)
I0929 13:08:07.792546 23239 net.cpp:150] Setting up conv3_2/dw/bn
I0929 13:08:07.792549 23239 net.cpp:157] Top shape: 1 128 38 64 (311296)
I0929 13:08:07.792551 23239 net.cpp:165] Memory required for data: 164327264
I0929 13:08:07.792562 23239 layer_factory.hpp:77] Creating layer conv3_2/dw/scale
I0929 13:08:07.792572 23239 net.cpp:100] Creating Layer conv3_2/dw/scale
I0929 13:08:07.792573 23239 net.cpp:434] conv3_2/dw/scale <- conv3_2/dw
I0929 13:08:07.792577 23239 net.cpp:395] conv3_2/dw/scale -> conv3_2/dw (in-place)
I0929 13:08:07.792599 23239 layer_factory.hpp:77] Creating layer conv3_2/dw/scale
I0929 13:08:07.792659 23239 net.cpp:150] Setting up conv3_2/dw/scale
I0929 13:08:07.792665 23239 net.cpp:157] Top shape: 1 128 38 64 (311296)
I0929 13:08:07.792666 23239 net.cpp:165] Memory required for data: 165572448
I0929 13:08:07.792670 23239 layer_factory.hpp:77] Creating layer relu3_2/dw
I0929 13:08:07.792672 23239 net.cpp:100] Creating Layer relu3_2/dw
I0929 13:08:07.792675 23239 net.cpp:434] relu3_2/dw <- conv3_2/dw
I0929 13:08:07.792677 23239 net.cpp:395] relu3_2/dw -> conv3_2/dw (in-place)
I0929 13:08:07.793068 23239 net.cpp:150] Setting up relu3_2/dw
I0929 13:08:07.793076 23239 net.cpp:157] Top shape: 1 128 38 64 (311296)
I0929 13:08:07.793078 23239 net.cpp:165] Memory required for data: 166817632
I0929 13:08:07.793081 23239 layer_factory.hpp:77] Creating layer conv3_2/sep
I0929 13:08:07.793085 23239 net.cpp:100] Creating Layer conv3_2/sep
I0929 13:08:07.793088 23239 net.cpp:434] conv3_2/sep <- conv3_2/dw
I0929 13:08:07.793092 23239 net.cpp:408] conv3_2/sep -> conv3_2/sep
I0929 13:08:07.794297 23239 net.cpp:150] Setting up conv3_2/sep
I0929 13:08:07.794304 23239 net.cpp:157] Top shape: 1 256 38 64 (622592)
I0929 13:08:07.794306 23239 net.cpp:165] Memory required for data: 169308000
I0929 13:08:07.794311 23239 layer_factory.hpp:77] Creating layer conv3_2/sep/bn
I0929 13:08:07.794315 23239 net.cpp:100] Creating Layer conv3_2/sep/bn
I0929 13:08:07.794317 23239 net.cpp:434] conv3_2/sep/bn <- conv3_2/sep
I0929 13:08:07.794322 23239 net.cpp:395] conv3_2/sep/bn -> conv3_2/sep (in-place)
I0929 13:08:07.794435 23239 net.cpp:150] Setting up conv3_2/sep/bn
I0929 13:08:07.794440 23239 net.cpp:157] Top shape: 1 256 38 64 (622592)
I0929 13:08:07.794441 23239 net.cpp:165] Memory required for data: 171798368
I0929 13:08:07.794445 23239 layer_factory.hpp:77] Creating layer conv3_2/sep/scale
I0929 13:08:07.794450 23239 net.cpp:100] Creating Layer conv3_2/sep/scale
I0929 13:08:07.794453 23239 net.cpp:434] conv3_2/sep/scale <- conv3_2/sep
I0929 13:08:07.794456 23239 net.cpp:395] conv3_2/sep/scale -> conv3_2/sep (in-place)
I0929 13:08:07.794477 23239 layer_factory.hpp:77] Creating layer conv3_2/sep/scale
I0929 13:08:07.794540 23239 net.cpp:150] Setting up conv3_2/sep/scale
I0929 13:08:07.794545 23239 net.cpp:157] Top shape: 1 256 38 64 (622592)
I0929 13:08:07.794548 23239 net.cpp:165] Memory required for data: 174288736
I0929 13:08:07.794550 23239 layer_factory.hpp:77] Creating layer relu3_2/sep
I0929 13:08:07.794554 23239 net.cpp:100] Creating Layer relu3_2/sep
I0929 13:08:07.794558 23239 net.cpp:434] relu3_2/sep <- conv3_2/sep
I0929 13:08:07.794560 23239 net.cpp:395] relu3_2/sep -> conv3_2/sep (in-place)
I0929 13:08:07.794829 23239 net.cpp:150] Setting up relu3_2/sep
I0929 13:08:07.794836 23239 net.cpp:157] Top shape: 1 256 38 64 (622592)
I0929 13:08:07.794837 23239 net.cpp:165] Memory required for data: 176779104
I0929 13:08:07.794839 23239 layer_factory.hpp:77] Creating layer conv4_1/dw
I0929 13:08:07.794844 23239 net.cpp:100] Creating Layer conv4_1/dw
I0929 13:08:07.794847 23239 net.cpp:434] conv4_1/dw <- conv3_2/sep
I0929 13:08:07.794852 23239 net.cpp:408] conv4_1/dw -> conv4_1/dw
I0929 13:08:07.794988 23239 net.cpp:150] Setting up conv4_1/dw
I0929 13:08:07.794993 23239 net.cpp:157] Top shape: 1 256 38 64 (622592)
I0929 13:08:07.794994 23239 net.cpp:165] Memory required for data: 179269472
I0929 13:08:07.794998 23239 layer_factory.hpp:77] Creating layer conv4_1/dw/bn
I0929 13:08:07.795001 23239 net.cpp:100] Creating Layer conv4_1/dw/bn
I0929 13:08:07.795003 23239 net.cpp:434] conv4_1/dw/bn <- conv4_1/dw
I0929 13:08:07.795007 23239 net.cpp:395] conv4_1/dw/bn -> conv4_1/dw (in-place)
I0929 13:08:07.795117 23239 net.cpp:150] Setting up conv4_1/dw/bn
I0929 13:08:07.795128 23239 net.cpp:157] Top shape: 1 256 38 64 (622592)
I0929 13:08:07.795130 23239 net.cpp:165] Memory required for data: 181759840
I0929 13:08:07.795135 23239 layer_factory.hpp:77] Creating layer conv4_1/dw/scale
I0929 13:08:07.795140 23239 net.cpp:100] Creating Layer conv4_1/dw/scale
I0929 13:08:07.795141 23239 net.cpp:434] conv4_1/dw/scale <- conv4_1/dw
I0929 13:08:07.795145 23239 net.cpp:395] conv4_1/dw/scale -> conv4_1/dw (in-place)
I0929 13:08:07.795167 23239 layer_factory.hpp:77] Creating layer conv4_1/dw/scale
I0929 13:08:07.795228 23239 net.cpp:150] Setting up conv4_1/dw/scale
I0929 13:08:07.795231 23239 net.cpp:157] Top shape: 1 256 38 64 (622592)
I0929 13:08:07.795233 23239 net.cpp:165] Memory required for data: 184250208
I0929 13:08:07.795236 23239 layer_factory.hpp:77] Creating layer relu4_1/dw
I0929 13:08:07.795239 23239 net.cpp:100] Creating Layer relu4_1/dw
I0929 13:08:07.795240 23239 net.cpp:434] relu4_1/dw <- conv4_1/dw
I0929 13:08:07.795243 23239 net.cpp:395] relu4_1/dw -> conv4_1/dw (in-place)
I0929 13:08:07.795663 23239 net.cpp:150] Setting up relu4_1/dw
I0929 13:08:07.795670 23239 net.cpp:157] Top shape: 1 256 38 64 (622592)
I0929 13:08:07.795671 23239 net.cpp:165] Memory required for data: 186740576
I0929 13:08:07.795673 23239 layer_factory.hpp:77] Creating layer conv4_1/sep
I0929 13:08:07.795680 23239 net.cpp:100] Creating Layer conv4_1/sep
I0929 13:08:07.795682 23239 net.cpp:434] conv4_1/sep <- conv4_1/dw
I0929 13:08:07.795687 23239 net.cpp:408] conv4_1/sep -> conv4_1/sep
I0929 13:08:07.797082 23239 net.cpp:150] Setting up conv4_1/sep
I0929 13:08:07.797091 23239 net.cpp:157] Top shape: 1 256 38 64 (622592)
I0929 13:08:07.797092 23239 net.cpp:165] Memory required for data: 189230944
I0929 13:08:07.797096 23239 layer_factory.hpp:77] Creating layer conv4_1/sep/bn
I0929 13:08:07.797099 23239 net.cpp:100] Creating Layer conv4_1/sep/bn
I0929 13:08:07.797101 23239 net.cpp:434] conv4_1/sep/bn <- conv4_1/sep
I0929 13:08:07.797106 23239 net.cpp:395] conv4_1/sep/bn -> conv4_1/sep (in-place)
I0929 13:08:07.797219 23239 net.cpp:150] Setting up conv4_1/sep/bn
I0929 13:08:07.797222 23239 net.cpp:157] Top shape: 1 256 38 64 (622592)
I0929 13:08:07.797224 23239 net.cpp:165] Memory required for data: 191721312
I0929 13:08:07.797228 23239 layer_factory.hpp:77] Creating layer conv4_1/sep/scale
I0929 13:08:07.797231 23239 net.cpp:100] Creating Layer conv4_1/sep/scale
I0929 13:08:07.797233 23239 net.cpp:434] conv4_1/sep/scale <- conv4_1/sep
I0929 13:08:07.797236 23239 net.cpp:395] conv4_1/sep/scale -> conv4_1/sep (in-place)
I0929 13:08:07.797258 23239 layer_factory.hpp:77] Creating layer conv4_1/sep/scale
I0929 13:08:07.797320 23239 net.cpp:150] Setting up conv4_1/sep/scale
I0929 13:08:07.797323 23239 net.cpp:157] Top shape: 1 256 38 64 (622592)
I0929 13:08:07.797325 23239 net.cpp:165] Memory required for data: 194211680
I0929 13:08:07.797335 23239 layer_factory.hpp:77] Creating layer relu4_1/sep
I0929 13:08:07.797338 23239 net.cpp:100] Creating Layer relu4_1/sep
I0929 13:08:07.797339 23239 net.cpp:434] relu4_1/sep <- conv4_1/sep
I0929 13:08:07.797343 23239 net.cpp:395] relu4_1/sep -> conv4_1/sep (in-place)
I0929 13:08:07.797606 23239 net.cpp:150] Setting up relu4_1/sep
I0929 13:08:07.797612 23239 net.cpp:157] Top shape: 1 256 38 64 (622592)
I0929 13:08:07.797613 23239 net.cpp:165] Memory required for data: 196702048
I0929 13:08:07.797616 23239 layer_factory.hpp:77] Creating layer conv4_2/dw
I0929 13:08:07.797621 23239 net.cpp:100] Creating Layer conv4_2/dw
I0929 13:08:07.797622 23239 net.cpp:434] conv4_2/dw <- conv4_1/sep
I0929 13:08:07.797626 23239 net.cpp:408] conv4_2/dw -> conv4_2/dw
I0929 13:08:07.797756 23239 net.cpp:150] Setting up conv4_2/dw
I0929 13:08:07.797761 23239 net.cpp:157] Top shape: 1 256 19 32 (155648)
I0929 13:08:07.797763 23239 net.cpp:165] Memory required for data: 197324640
I0929 13:08:07.797765 23239 layer_factory.hpp:77] Creating layer conv4_2/dw/bn
I0929 13:08:07.797768 23239 net.cpp:100] Creating Layer conv4_2/dw/bn
I0929 13:08:07.797778 23239 net.cpp:434] conv4_2/dw/bn <- conv4_2/dw
I0929 13:08:07.797781 23239 net.cpp:395] conv4_2/dw/bn -> conv4_2/dw (in-place)
I0929 13:08:07.797896 23239 net.cpp:150] Setting up conv4_2/dw/bn
I0929 13:08:07.797899 23239 net.cpp:157] Top shape: 1 256 19 32 (155648)
I0929 13:08:07.797901 23239 net.cpp:165] Memory required for data: 197947232
I0929 13:08:07.797905 23239 layer_factory.hpp:77] Creating layer conv4_2/dw/scale
I0929 13:08:07.797909 23239 net.cpp:100] Creating Layer conv4_2/dw/scale
I0929 13:08:07.797910 23239 net.cpp:434] conv4_2/dw/scale <- conv4_2/dw
I0929 13:08:07.797914 23239 net.cpp:395] conv4_2/dw/scale -> conv4_2/dw (in-place)
I0929 13:08:07.797936 23239 layer_factory.hpp:77] Creating layer conv4_2/dw/scale
I0929 13:08:07.798005 23239 net.cpp:150] Setting up conv4_2/dw/scale
I0929 13:08:07.798009 23239 net.cpp:157] Top shape: 1 256 19 32 (155648)
I0929 13:08:07.798012 23239 net.cpp:165] Memory required for data: 198569824
I0929 13:08:07.798014 23239 layer_factory.hpp:77] Creating layer relu4_2/dw
I0929 13:08:07.798017 23239 net.cpp:100] Creating Layer relu4_2/dw
I0929 13:08:07.798018 23239 net.cpp:434] relu4_2/dw <- conv4_2/dw
I0929 13:08:07.798022 23239 net.cpp:395] relu4_2/dw -> conv4_2/dw (in-place)
I0929 13:08:07.798404 23239 net.cpp:150] Setting up relu4_2/dw
I0929 13:08:07.798411 23239 net.cpp:157] Top shape: 1 256 19 32 (155648)
I0929 13:08:07.798413 23239 net.cpp:165] Memory required for data: 199192416
I0929 13:08:07.798416 23239 layer_factory.hpp:77] Creating layer conv4_2/sep
I0929 13:08:07.798421 23239 net.cpp:100] Creating Layer conv4_2/sep
I0929 13:08:07.798424 23239 net.cpp:434] conv4_2/sep <- conv4_2/dw
I0929 13:08:07.798427 23239 net.cpp:408] conv4_2/sep -> conv4_2/sep
I0929 13:08:07.800662 23239 net.cpp:150] Setting up conv4_2/sep
I0929 13:08:07.800670 23239 net.cpp:157] Top shape: 1 512 19 32 (311296)
I0929 13:08:07.800673 23239 net.cpp:165] Memory required for data: 200437600
I0929 13:08:07.800675 23239 layer_factory.hpp:77] Creating layer conv4_2/sep/bn
I0929 13:08:07.800680 23239 net.cpp:100] Creating Layer conv4_2/sep/bn
I0929 13:08:07.800683 23239 net.cpp:434] conv4_2/sep/bn <- conv4_2/sep
I0929 13:08:07.800685 23239 net.cpp:395] conv4_2/sep/bn -> conv4_2/sep (in-place)
I0929 13:08:07.800808 23239 net.cpp:150] Setting up conv4_2/sep/bn
I0929 13:08:07.800813 23239 net.cpp:157] Top shape: 1 512 19 32 (311296)
I0929 13:08:07.800814 23239 net.cpp:165] Memory required for data: 201682784
I0929 13:08:07.800818 23239 layer_factory.hpp:77] Creating layer conv4_2/sep/scale
I0929 13:08:07.800822 23239 net.cpp:100] Creating Layer conv4_2/sep/scale
I0929 13:08:07.800825 23239 net.cpp:434] conv4_2/sep/scale <- conv4_2/sep
I0929 13:08:07.800827 23239 net.cpp:395] conv4_2/sep/scale -> conv4_2/sep (in-place)
I0929 13:08:07.800853 23239 layer_factory.hpp:77] Creating layer conv4_2/sep/scale
I0929 13:08:07.800922 23239 net.cpp:150] Setting up conv4_2/sep/scale
I0929 13:08:07.800927 23239 net.cpp:157] Top shape: 1 512 19 32 (311296)
I0929 13:08:07.800928 23239 net.cpp:165] Memory required for data: 202927968
I0929 13:08:07.800932 23239 layer_factory.hpp:77] Creating layer relu4_2/sep
I0929 13:08:07.800935 23239 net.cpp:100] Creating Layer relu4_2/sep
I0929 13:08:07.800936 23239 net.cpp:434] relu4_2/sep <- conv4_2/sep
I0929 13:08:07.800940 23239 net.cpp:395] relu4_2/sep -> conv4_2/sep (in-place)
I0929 13:08:07.801204 23239 net.cpp:150] Setting up relu4_2/sep
I0929 13:08:07.801209 23239 net.cpp:157] Top shape: 1 512 19 32 (311296)
I0929 13:08:07.801213 23239 net.cpp:165] Memory required for data: 204173152
I0929 13:08:07.801214 23239 layer_factory.hpp:77] Creating layer conv5_1/dw
I0929 13:08:07.801219 23239 net.cpp:100] Creating Layer conv5_1/dw
I0929 13:08:07.801221 23239 net.cpp:434] conv5_1/dw <- conv4_2/sep
I0929 13:08:07.801224 23239 net.cpp:408] conv5_1/dw -> conv5_1/dw
I0929 13:08:07.801375 23239 net.cpp:150] Setting up conv5_1/dw
I0929 13:08:07.801379 23239 net.cpp:157] Top shape: 1 512 19 32 (311296)
I0929 13:08:07.801381 23239 net.cpp:165] Memory required for data: 205418336
I0929 13:08:07.801391 23239 layer_factory.hpp:77] Creating layer conv5_1/dw/bn
I0929 13:08:07.801394 23239 net.cpp:100] Creating Layer conv5_1/dw/bn
I0929 13:08:07.801396 23239 net.cpp:434] conv5_1/dw/bn <- conv5_1/dw
I0929 13:08:07.801399 23239 net.cpp:395] conv5_1/dw/bn -> conv5_1/dw (in-place)
I0929 13:08:07.801519 23239 net.cpp:150] Setting up conv5_1/dw/bn
I0929 13:08:07.801523 23239 net.cpp:157] Top shape: 1 512 19 32 (311296)
I0929 13:08:07.801524 23239 net.cpp:165] Memory required for data: 206663520
I0929 13:08:07.801528 23239 layer_factory.hpp:77] Creating layer conv5_1/dw/scale
I0929 13:08:07.801532 23239 net.cpp:100] Creating Layer conv5_1/dw/scale
I0929 13:08:07.801534 23239 net.cpp:434] conv5_1/dw/scale <- conv5_1/dw
I0929 13:08:07.801537 23239 net.cpp:395] conv5_1/dw/scale -> conv5_1/dw (in-place)
I0929 13:08:07.801561 23239 layer_factory.hpp:77] Creating layer conv5_1/dw/scale
I0929 13:08:07.801631 23239 net.cpp:150] Setting up conv5_1/dw/scale
I0929 13:08:07.801636 23239 net.cpp:157] Top shape: 1 512 19 32 (311296)
I0929 13:08:07.801638 23239 net.cpp:165] Memory required for data: 207908704
I0929 13:08:07.801641 23239 layer_factory.hpp:77] Creating layer relu5_1/dw
I0929 13:08:07.801645 23239 net.cpp:100] Creating Layer relu5_1/dw
I0929 13:08:07.801647 23239 net.cpp:434] relu5_1/dw <- conv5_1/dw
I0929 13:08:07.801650 23239 net.cpp:395] relu5_1/dw -> conv5_1/dw (in-place)
I0929 13:08:07.802014 23239 net.cpp:150] Setting up relu5_1/dw
I0929 13:08:07.802021 23239 net.cpp:157] Top shape: 1 512 19 32 (311296)
I0929 13:08:07.802023 23239 net.cpp:165] Memory required for data: 209153888
I0929 13:08:07.802026 23239 layer_factory.hpp:77] Creating layer conv5_1/sep
I0929 13:08:07.802032 23239 net.cpp:100] Creating Layer conv5_1/sep
I0929 13:08:07.802034 23239 net.cpp:434] conv5_1/sep <- conv5_1/dw
I0929 13:08:07.802038 23239 net.cpp:408] conv5_1/sep -> conv5_1/sep
I0929 13:08:07.804538 23239 net.cpp:150] Setting up conv5_1/sep
I0929 13:08:07.804545 23239 net.cpp:157] Top shape: 1 512 19 32 (311296)
I0929 13:08:07.804548 23239 net.cpp:165] Memory required for data: 210399072
I0929 13:08:07.804551 23239 layer_factory.hpp:77] Creating layer conv5_1/sep/bn
I0929 13:08:07.804555 23239 net.cpp:100] Creating Layer conv5_1/sep/bn
I0929 13:08:07.804558 23239 net.cpp:434] conv5_1/sep/bn <- conv5_1/sep
I0929 13:08:07.804561 23239 net.cpp:395] conv5_1/sep/bn -> conv5_1/sep (in-place)
I0929 13:08:07.804687 23239 net.cpp:150] Setting up conv5_1/sep/bn
I0929 13:08:07.804690 23239 net.cpp:157] Top shape: 1 512 19 32 (311296)
I0929 13:08:07.804692 23239 net.cpp:165] Memory required for data: 211644256
I0929 13:08:07.804697 23239 layer_factory.hpp:77] Creating layer conv5_1/sep/scale
I0929 13:08:07.804700 23239 net.cpp:100] Creating Layer conv5_1/sep/scale
I0929 13:08:07.804703 23239 net.cpp:434] conv5_1/sep/scale <- conv5_1/sep
I0929 13:08:07.804706 23239 net.cpp:395] conv5_1/sep/scale -> conv5_1/sep (in-place)
I0929 13:08:07.804731 23239 layer_factory.hpp:77] Creating layer conv5_1/sep/scale
I0929 13:08:07.804801 23239 net.cpp:150] Setting up conv5_1/sep/scale
I0929 13:08:07.804805 23239 net.cpp:157] Top shape: 1 512 19 32 (311296)
I0929 13:08:07.804807 23239 net.cpp:165] Memory required for data: 212889440
I0929 13:08:07.804811 23239 layer_factory.hpp:77] Creating layer relu5_1/sep
I0929 13:08:07.804816 23239 net.cpp:100] Creating Layer relu5_1/sep
I0929 13:08:07.804818 23239 net.cpp:434] relu5_1/sep <- conv5_1/sep
I0929 13:08:07.804821 23239 net.cpp:395] relu5_1/sep -> conv5_1/sep (in-place)
I0929 13:08:07.805088 23239 net.cpp:150] Setting up relu5_1/sep
I0929 13:08:07.805094 23239 net.cpp:157] Top shape: 1 512 19 32 (311296)
I0929 13:08:07.805096 23239 net.cpp:165] Memory required for data: 214134624
I0929 13:08:07.805099 23239 layer_factory.hpp:77] Creating layer conv5_2/dw
I0929 13:08:07.805104 23239 net.cpp:100] Creating Layer conv5_2/dw
I0929 13:08:07.805105 23239 net.cpp:434] conv5_2/dw <- conv5_1/sep
I0929 13:08:07.805109 23239 net.cpp:408] conv5_2/dw -> conv5_2/dw
I0929 13:08:07.805261 23239 net.cpp:150] Setting up conv5_2/dw
I0929 13:08:07.805274 23239 net.cpp:157] Top shape: 1 512 19 32 (311296)
I0929 13:08:07.805275 23239 net.cpp:165] Memory required for data: 215379808
I0929 13:08:07.805279 23239 layer_factory.hpp:77] Creating layer conv5_2/dw/bn
I0929 13:08:07.805282 23239 net.cpp:100] Creating Layer conv5_2/dw/bn
I0929 13:08:07.805285 23239 net.cpp:434] conv5_2/dw/bn <- conv5_2/dw
I0929 13:08:07.805289 23239 net.cpp:395] conv5_2/dw/bn -> conv5_2/dw (in-place)
I0929 13:08:07.805410 23239 net.cpp:150] Setting up conv5_2/dw/bn
I0929 13:08:07.805414 23239 net.cpp:157] Top shape: 1 512 19 32 (311296)
I0929 13:08:07.805418 23239 net.cpp:165] Memory required for data: 216624992
I0929 13:08:07.805420 23239 layer_factory.hpp:77] Creating layer conv5_2/dw/scale
I0929 13:08:07.805429 23239 net.cpp:100] Creating Layer conv5_2/dw/scale
I0929 13:08:07.805433 23239 net.cpp:434] conv5_2/dw/scale <- conv5_2/dw
I0929 13:08:07.805435 23239 net.cpp:395] conv5_2/dw/scale -> conv5_2/dw (in-place)
I0929 13:08:07.805460 23239 layer_factory.hpp:77] Creating layer conv5_2/dw/scale
I0929 13:08:07.805529 23239 net.cpp:150] Setting up conv5_2/dw/scale
I0929 13:08:07.805533 23239 net.cpp:157] Top shape: 1 512 19 32 (311296)
I0929 13:08:07.805536 23239 net.cpp:165] Memory required for data: 217870176
I0929 13:08:07.805538 23239 layer_factory.hpp:77] Creating layer relu5_2/dw
I0929 13:08:07.805542 23239 net.cpp:100] Creating Layer relu5_2/dw
I0929 13:08:07.805543 23239 net.cpp:434] relu5_2/dw <- conv5_2/dw
I0929 13:08:07.805547 23239 net.cpp:395] relu5_2/dw -> conv5_2/dw (in-place)
I0929 13:08:07.805913 23239 net.cpp:150] Setting up relu5_2/dw
I0929 13:08:07.805920 23239 net.cpp:157] Top shape: 1 512 19 32 (311296)
I0929 13:08:07.805922 23239 net.cpp:165] Memory required for data: 219115360
I0929 13:08:07.805925 23239 layer_factory.hpp:77] Creating layer conv5_2/sep
I0929 13:08:07.805930 23239 net.cpp:100] Creating Layer conv5_2/sep
I0929 13:08:07.805932 23239 net.cpp:434] conv5_2/sep <- conv5_2/dw
I0929 13:08:07.805936 23239 net.cpp:408] conv5_2/sep -> conv5_2/sep
I0929 13:08:07.808890 23239 net.cpp:150] Setting up conv5_2/sep
I0929 13:08:07.808900 23239 net.cpp:157] Top shape: 1 512 19 32 (311296)
I0929 13:08:07.808902 23239 net.cpp:165] Memory required for data: 220360544
I0929 13:08:07.808905 23239 layer_factory.hpp:77] Creating layer conv5_2/sep/bn
I0929 13:08:07.808910 23239 net.cpp:100] Creating Layer conv5_2/sep/bn
I0929 13:08:07.808912 23239 net.cpp:434] conv5_2/sep/bn <- conv5_2/sep
I0929 13:08:07.808917 23239 net.cpp:395] conv5_2/sep/bn -> conv5_2/sep (in-place)
I0929 13:08:07.809042 23239 net.cpp:150] Setting up conv5_2/sep/bn
I0929 13:08:07.809046 23239 net.cpp:157] Top shape: 1 512 19 32 (311296)
I0929 13:08:07.809048 23239 net.cpp:165] Memory required for data: 221605728
I0929 13:08:07.809052 23239 layer_factory.hpp:77] Creating layer conv5_2/sep/scale
I0929 13:08:07.809056 23239 net.cpp:100] Creating Layer conv5_2/sep/scale
I0929 13:08:07.809058 23239 net.cpp:434] conv5_2/sep/scale <- conv5_2/sep
I0929 13:08:07.809062 23239 net.cpp:395] conv5_2/sep/scale -> conv5_2/sep (in-place)
I0929 13:08:07.809087 23239 layer_factory.hpp:77] Creating layer conv5_2/sep/scale
I0929 13:08:07.809156 23239 net.cpp:150] Setting up conv5_2/sep/scale
I0929 13:08:07.809160 23239 net.cpp:157] Top shape: 1 512 19 32 (311296)
I0929 13:08:07.809161 23239 net.cpp:165] Memory required for data: 222850912
I0929 13:08:07.809165 23239 layer_factory.hpp:77] Creating layer relu5_2/sep
I0929 13:08:07.809167 23239 net.cpp:100] Creating Layer relu5_2/sep
I0929 13:08:07.809170 23239 net.cpp:434] relu5_2/sep <- conv5_2/sep
I0929 13:08:07.809172 23239 net.cpp:395] relu5_2/sep -> conv5_2/sep (in-place)
I0929 13:08:07.809465 23239 net.cpp:150] Setting up relu5_2/sep
I0929 13:08:07.809471 23239 net.cpp:157] Top shape: 1 512 19 32 (311296)
I0929 13:08:07.809473 23239 net.cpp:165] Memory required for data: 224096096
I0929 13:08:07.809475 23239 layer_factory.hpp:77] Creating layer conv5_3/dw
I0929 13:08:07.809479 23239 net.cpp:100] Creating Layer conv5_3/dw
I0929 13:08:07.809482 23239 net.cpp:434] conv5_3/dw <- conv5_2/sep
I0929 13:08:07.809495 23239 net.cpp:408] conv5_3/dw -> conv5_3/dw
I0929 13:08:07.809648 23239 net.cpp:150] Setting up conv5_3/dw
I0929 13:08:07.809653 23239 net.cpp:157] Top shape: 1 512 19 32 (311296)
I0929 13:08:07.809654 23239 net.cpp:165] Memory required for data: 225341280
I0929 13:08:07.809657 23239 layer_factory.hpp:77] Creating layer conv5_3/dw/bn
I0929 13:08:07.809660 23239 net.cpp:100] Creating Layer conv5_3/dw/bn
I0929 13:08:07.809662 23239 net.cpp:434] conv5_3/dw/bn <- conv5_3/dw
I0929 13:08:07.809665 23239 net.cpp:395] conv5_3/dw/bn -> conv5_3/dw (in-place)
I0929 13:08:07.809788 23239 net.cpp:150] Setting up conv5_3/dw/bn
I0929 13:08:07.809792 23239 net.cpp:157] Top shape: 1 512 19 32 (311296)
I0929 13:08:07.809794 23239 net.cpp:165] Memory required for data: 226586464
I0929 13:08:07.809798 23239 layer_factory.hpp:77] Creating layer conv5_3/dw/scale
I0929 13:08:07.809801 23239 net.cpp:100] Creating Layer conv5_3/dw/scale
I0929 13:08:07.809803 23239 net.cpp:434] conv5_3/dw/scale <- conv5_3/dw
I0929 13:08:07.809806 23239 net.cpp:395] conv5_3/dw/scale -> conv5_3/dw (in-place)
I0929 13:08:07.809830 23239 layer_factory.hpp:77] Creating layer conv5_3/dw/scale
I0929 13:08:07.809902 23239 net.cpp:150] Setting up conv5_3/dw/scale
I0929 13:08:07.809907 23239 net.cpp:157] Top shape: 1 512 19 32 (311296)
I0929 13:08:07.809908 23239 net.cpp:165] Memory required for data: 227831648
I0929 13:08:07.809911 23239 layer_factory.hpp:77] Creating layer relu5_3/dw
I0929 13:08:07.809914 23239 net.cpp:100] Creating Layer relu5_3/dw
I0929 13:08:07.809916 23239 net.cpp:434] relu5_3/dw <- conv5_3/dw
I0929 13:08:07.809921 23239 net.cpp:395] relu5_3/dw -> conv5_3/dw (in-place)
I0929 13:08:07.810297 23239 net.cpp:150] Setting up relu5_3/dw
I0929 13:08:07.810303 23239 net.cpp:157] Top shape: 1 512 19 32 (311296)
I0929 13:08:07.810305 23239 net.cpp:165] Memory required for data: 229076832
I0929 13:08:07.810307 23239 layer_factory.hpp:77] Creating layer conv5_3/sep
I0929 13:08:07.810313 23239 net.cpp:100] Creating Layer conv5_3/sep
I0929 13:08:07.810317 23239 net.cpp:434] conv5_3/sep <- conv5_3/dw
I0929 13:08:07.810320 23239 net.cpp:408] conv5_3/sep -> conv5_3/sep
I0929 13:08:07.812844 23239 net.cpp:150] Setting up conv5_3/sep
I0929 13:08:07.812853 23239 net.cpp:157] Top shape: 1 512 19 32 (311296)
I0929 13:08:07.812855 23239 net.cpp:165] Memory required for data: 230322016
I0929 13:08:07.812860 23239 layer_factory.hpp:77] Creating layer conv5_3/sep/bn
I0929 13:08:07.812865 23239 net.cpp:100] Creating Layer conv5_3/sep/bn
I0929 13:08:07.812868 23239 net.cpp:434] conv5_3/sep/bn <- conv5_3/sep
I0929 13:08:07.812872 23239 net.cpp:395] conv5_3/sep/bn -> conv5_3/sep (in-place)
I0929 13:08:07.813004 23239 net.cpp:150] Setting up conv5_3/sep/bn
I0929 13:08:07.813007 23239 net.cpp:157] Top shape: 1 512 19 32 (311296)
I0929 13:08:07.813009 23239 net.cpp:165] Memory required for data: 231567200
I0929 13:08:07.813014 23239 layer_factory.hpp:77] Creating layer conv5_3/sep/scale
I0929 13:08:07.813019 23239 net.cpp:100] Creating Layer conv5_3/sep/scale
I0929 13:08:07.813021 23239 net.cpp:434] conv5_3/sep/scale <- conv5_3/sep
I0929 13:08:07.813024 23239 net.cpp:395] conv5_3/sep/scale -> conv5_3/sep (in-place)
I0929 13:08:07.813051 23239 layer_factory.hpp:77] Creating layer conv5_3/sep/scale
I0929 13:08:07.813123 23239 net.cpp:150] Setting up conv5_3/sep/scale
I0929 13:08:07.813127 23239 net.cpp:157] Top shape: 1 512 19 32 (311296)
I0929 13:08:07.813129 23239 net.cpp:165] Memory required for data: 232812384
I0929 13:08:07.813133 23239 layer_factory.hpp:77] Creating layer relu5_3/sep
I0929 13:08:07.813136 23239 net.cpp:100] Creating Layer relu5_3/sep
I0929 13:08:07.813138 23239 net.cpp:434] relu5_3/sep <- conv5_3/sep
I0929 13:08:07.813141 23239 net.cpp:395] relu5_3/sep -> conv5_3/sep (in-place)
I0929 13:08:07.813410 23239 net.cpp:150] Setting up relu5_3/sep
I0929 13:08:07.813416 23239 net.cpp:157] Top shape: 1 512 19 32 (311296)
I0929 13:08:07.813418 23239 net.cpp:165] Memory required for data: 234057568
I0929 13:08:07.813421 23239 layer_factory.hpp:77] Creating layer conv5_4/dw
I0929 13:08:07.813433 23239 net.cpp:100] Creating Layer conv5_4/dw
I0929 13:08:07.813436 23239 net.cpp:434] conv5_4/dw <- conv5_3/sep
I0929 13:08:07.813441 23239 net.cpp:408] conv5_4/dw -> conv5_4/dw
I0929 13:08:07.813597 23239 net.cpp:150] Setting up conv5_4/dw
I0929 13:08:07.813602 23239 net.cpp:157] Top shape: 1 512 19 32 (311296)
I0929 13:08:07.813604 23239 net.cpp:165] Memory required for data: 235302752
I0929 13:08:07.813606 23239 layer_factory.hpp:77] Creating layer conv5_4/dw/bn
I0929 13:08:07.813611 23239 net.cpp:100] Creating Layer conv5_4/dw/bn
I0929 13:08:07.813613 23239 net.cpp:434] conv5_4/dw/bn <- conv5_4/dw
I0929 13:08:07.813616 23239 net.cpp:395] conv5_4/dw/bn -> conv5_4/dw (in-place)
I0929 13:08:07.813737 23239 net.cpp:150] Setting up conv5_4/dw/bn
I0929 13:08:07.813741 23239 net.cpp:157] Top shape: 1 512 19 32 (311296)
I0929 13:08:07.813743 23239 net.cpp:165] Memory required for data: 236547936
I0929 13:08:07.813746 23239 layer_factory.hpp:77] Creating layer conv5_4/dw/scale
I0929 13:08:07.813751 23239 net.cpp:100] Creating Layer conv5_4/dw/scale
I0929 13:08:07.813755 23239 net.cpp:434] conv5_4/dw/scale <- conv5_4/dw
I0929 13:08:07.813757 23239 net.cpp:395] conv5_4/dw/scale -> conv5_4/dw (in-place)
I0929 13:08:07.813782 23239 layer_factory.hpp:77] Creating layer conv5_4/dw/scale
I0929 13:08:07.813854 23239 net.cpp:150] Setting up conv5_4/dw/scale
I0929 13:08:07.813858 23239 net.cpp:157] Top shape: 1 512 19 32 (311296)
I0929 13:08:07.813861 23239 net.cpp:165] Memory required for data: 237793120
I0929 13:08:07.813864 23239 layer_factory.hpp:77] Creating layer relu5_4/dw
I0929 13:08:07.813868 23239 net.cpp:100] Creating Layer relu5_4/dw
I0929 13:08:07.813869 23239 net.cpp:434] relu5_4/dw <- conv5_4/dw
I0929 13:08:07.813874 23239 net.cpp:395] relu5_4/dw -> conv5_4/dw (in-place)
I0929 13:08:07.814143 23239 net.cpp:150] Setting up relu5_4/dw
I0929 13:08:07.814148 23239 net.cpp:157] Top shape: 1 512 19 32 (311296)
I0929 13:08:07.814152 23239 net.cpp:165] Memory required for data: 239038304
I0929 13:08:07.814153 23239 layer_factory.hpp:77] Creating layer conv5_4/sep
I0929 13:08:07.814159 23239 net.cpp:100] Creating Layer conv5_4/sep
I0929 13:08:07.814162 23239 net.cpp:434] conv5_4/sep <- conv5_4/dw
I0929 13:08:07.814165 23239 net.cpp:408] conv5_4/sep -> conv5_4/sep
I0929 13:08:07.817515 23239 net.cpp:150] Setting up conv5_4/sep
I0929 13:08:07.817531 23239 net.cpp:157] Top shape: 1 512 19 32 (311296)
I0929 13:08:07.817533 23239 net.cpp:165] Memory required for data: 240283488
I0929 13:08:07.817539 23239 layer_factory.hpp:77] Creating layer conv5_4/sep/bn
I0929 13:08:07.817548 23239 net.cpp:100] Creating Layer conv5_4/sep/bn
I0929 13:08:07.817550 23239 net.cpp:434] conv5_4/sep/bn <- conv5_4/sep
I0929 13:08:07.817554 23239 net.cpp:395] conv5_4/sep/bn -> conv5_4/sep (in-place)
I0929 13:08:07.817692 23239 net.cpp:150] Setting up conv5_4/sep/bn
I0929 13:08:07.817695 23239 net.cpp:157] Top shape: 1 512 19 32 (311296)
I0929 13:08:07.817698 23239 net.cpp:165] Memory required for data: 241528672
I0929 13:08:07.817701 23239 layer_factory.hpp:77] Creating layer conv5_4/sep/scale
I0929 13:08:07.817706 23239 net.cpp:100] Creating Layer conv5_4/sep/scale
I0929 13:08:07.817708 23239 net.cpp:434] conv5_4/sep/scale <- conv5_4/sep
I0929 13:08:07.817711 23239 net.cpp:395] conv5_4/sep/scale -> conv5_4/sep (in-place)
I0929 13:08:07.817739 23239 layer_factory.hpp:77] Creating layer conv5_4/sep/scale
I0929 13:08:07.817812 23239 net.cpp:150] Setting up conv5_4/sep/scale
I0929 13:08:07.817816 23239 net.cpp:157] Top shape: 1 512 19 32 (311296)
I0929 13:08:07.817818 23239 net.cpp:165] Memory required for data: 242773856
I0929 13:08:07.817821 23239 layer_factory.hpp:77] Creating layer relu5_4/sep
I0929 13:08:07.817824 23239 net.cpp:100] Creating Layer relu5_4/sep
I0929 13:08:07.817826 23239 net.cpp:434] relu5_4/sep <- conv5_4/sep
I0929 13:08:07.817828 23239 net.cpp:395] relu5_4/sep -> conv5_4/sep (in-place)
I0929 13:08:07.818099 23239 net.cpp:150] Setting up relu5_4/sep
I0929 13:08:07.818115 23239 net.cpp:157] Top shape: 1 512 19 32 (311296)
I0929 13:08:07.818117 23239 net.cpp:165] Memory required for data: 244019040
I0929 13:08:07.818120 23239 layer_factory.hpp:77] Creating layer conv5_5/dw
I0929 13:08:07.818125 23239 net.cpp:100] Creating Layer conv5_5/dw
I0929 13:08:07.818127 23239 net.cpp:434] conv5_5/dw <- conv5_4/sep
I0929 13:08:07.818131 23239 net.cpp:408] conv5_5/dw -> conv5_5/dw
I0929 13:08:07.818291 23239 net.cpp:150] Setting up conv5_5/dw
I0929 13:08:07.818296 23239 net.cpp:157] Top shape: 1 512 19 32 (311296)
I0929 13:08:07.818297 23239 net.cpp:165] Memory required for data: 245264224
I0929 13:08:07.818300 23239 layer_factory.hpp:77] Creating layer conv5_5/dw/bn
I0929 13:08:07.818303 23239 net.cpp:100] Creating Layer conv5_5/dw/bn
I0929 13:08:07.818305 23239 net.cpp:434] conv5_5/dw/bn <- conv5_5/dw
I0929 13:08:07.818307 23239 net.cpp:395] conv5_5/dw/bn -> conv5_5/dw (in-place)
I0929 13:08:07.818434 23239 net.cpp:150] Setting up conv5_5/dw/bn
I0929 13:08:07.818436 23239 net.cpp:157] Top shape: 1 512 19 32 (311296)
I0929 13:08:07.818439 23239 net.cpp:165] Memory required for data: 246509408
I0929 13:08:07.818451 23239 layer_factory.hpp:77] Creating layer conv5_5/dw/scale
I0929 13:08:07.818456 23239 net.cpp:100] Creating Layer conv5_5/dw/scale
I0929 13:08:07.818457 23239 net.cpp:434] conv5_5/dw/scale <- conv5_5/dw
I0929 13:08:07.818460 23239 net.cpp:395] conv5_5/dw/scale -> conv5_5/dw (in-place)
I0929 13:08:07.818487 23239 layer_factory.hpp:77] Creating layer conv5_5/dw/scale
I0929 13:08:07.818559 23239 net.cpp:150] Setting up conv5_5/dw/scale
I0929 13:08:07.818563 23239 net.cpp:157] Top shape: 1 512 19 32 (311296)
I0929 13:08:07.818565 23239 net.cpp:165] Memory required for data: 247754592
I0929 13:08:07.818568 23239 layer_factory.hpp:77] Creating layer relu5_5/dw
I0929 13:08:07.818572 23239 net.cpp:100] Creating Layer relu5_5/dw
I0929 13:08:07.818575 23239 net.cpp:434] relu5_5/dw <- conv5_5/dw
I0929 13:08:07.818578 23239 net.cpp:395] relu5_5/dw -> conv5_5/dw (in-place)
I0929 13:08:07.818851 23239 net.cpp:150] Setting up relu5_5/dw
I0929 13:08:07.818857 23239 net.cpp:157] Top shape: 1 512 19 32 (311296)
I0929 13:08:07.818861 23239 net.cpp:165] Memory required for data: 248999776
I0929 13:08:07.818861 23239 layer_factory.hpp:77] Creating layer conv5_5/sep
I0929 13:08:07.818867 23239 net.cpp:100] Creating Layer conv5_5/sep
I0929 13:08:07.818869 23239 net.cpp:434] conv5_5/sep <- conv5_5/dw
I0929 13:08:07.818873 23239 net.cpp:408] conv5_5/sep -> conv5_5/sep
I0929 13:08:07.821609 23239 net.cpp:150] Setting up conv5_5/sep
I0929 13:08:07.821617 23239 net.cpp:157] Top shape: 1 512 19 32 (311296)
I0929 13:08:07.821620 23239 net.cpp:165] Memory required for data: 250244960
I0929 13:08:07.821624 23239 layer_factory.hpp:77] Creating layer conv5_5/sep/bn
I0929 13:08:07.821629 23239 net.cpp:100] Creating Layer conv5_5/sep/bn
I0929 13:08:07.821631 23239 net.cpp:434] conv5_5/sep/bn <- conv5_5/sep
I0929 13:08:07.821635 23239 net.cpp:395] conv5_5/sep/bn -> conv5_5/sep (in-place)
I0929 13:08:07.821766 23239 net.cpp:150] Setting up conv5_5/sep/bn
I0929 13:08:07.821770 23239 net.cpp:157] Top shape: 1 512 19 32 (311296)
I0929 13:08:07.821772 23239 net.cpp:165] Memory required for data: 251490144
I0929 13:08:07.821776 23239 layer_factory.hpp:77] Creating layer conv5_5/sep/scale
I0929 13:08:07.821781 23239 net.cpp:100] Creating Layer conv5_5/sep/scale
I0929 13:08:07.821782 23239 net.cpp:434] conv5_5/sep/scale <- conv5_5/sep
I0929 13:08:07.821785 23239 net.cpp:395] conv5_5/sep/scale -> conv5_5/sep (in-place)
I0929 13:08:07.821811 23239 layer_factory.hpp:77] Creating layer conv5_5/sep/scale
I0929 13:08:07.821885 23239 net.cpp:150] Setting up conv5_5/sep/scale
I0929 13:08:07.821889 23239 net.cpp:157] Top shape: 1 512 19 32 (311296)
I0929 13:08:07.821890 23239 net.cpp:165] Memory required for data: 252735328
I0929 13:08:07.821894 23239 layer_factory.hpp:77] Creating layer relu5_5/sep
I0929 13:08:07.821898 23239 net.cpp:100] Creating Layer relu5_5/sep
I0929 13:08:07.821899 23239 net.cpp:434] relu5_5/sep <- conv5_5/sep
I0929 13:08:07.821911 23239 net.cpp:395] relu5_5/sep -> conv5_5/sep (in-place)
I0929 13:08:07.822185 23239 net.cpp:150] Setting up relu5_5/sep
I0929 13:08:07.822190 23239 net.cpp:157] Top shape: 1 512 19 32 (311296)
I0929 13:08:07.822191 23239 net.cpp:165] Memory required for data: 253980512
I0929 13:08:07.822193 23239 layer_factory.hpp:77] Creating layer conv5_5/sep_relu5_5/sep_0_split
I0929 13:08:07.822197 23239 net.cpp:100] Creating Layer conv5_5/sep_relu5_5/sep_0_split
I0929 13:08:07.822199 23239 net.cpp:434] conv5_5/sep_relu5_5/sep_0_split <- conv5_5/sep
I0929 13:08:07.822202 23239 net.cpp:408] conv5_5/sep_relu5_5/sep_0_split -> conv5_5/sep_relu5_5/sep_0_split_0
I0929 13:08:07.822209 23239 net.cpp:408] conv5_5/sep_relu5_5/sep_0_split -> conv5_5/sep_relu5_5/sep_0_split_1
I0929 13:08:07.822237 23239 net.cpp:150] Setting up conv5_5/sep_relu5_5/sep_0_split
I0929 13:08:07.822242 23239 net.cpp:157] Top shape: 1 512 19 32 (311296)
I0929 13:08:07.822243 23239 net.cpp:157] Top shape: 1 512 19 32 (311296)
I0929 13:08:07.822245 23239 net.cpp:165] Memory required for data: 256470880
I0929 13:08:07.822247 23239 layer_factory.hpp:77] Creating layer conv5_6/dw
I0929 13:08:07.822252 23239 net.cpp:100] Creating Layer conv5_6/dw
I0929 13:08:07.822253 23239 net.cpp:434] conv5_6/dw <- conv5_5/sep_relu5_5/sep_0_split_0
I0929 13:08:07.822257 23239 net.cpp:408] conv5_6/dw -> conv5_6/dw
I0929 13:08:07.822410 23239 net.cpp:150] Setting up conv5_6/dw
I0929 13:08:07.822414 23239 net.cpp:157] Top shape: 1 512 10 16 (81920)
I0929 13:08:07.822417 23239 net.cpp:165] Memory required for data: 256798560
I0929 13:08:07.822419 23239 layer_factory.hpp:77] Creating layer conv5_6/dw/bn
I0929 13:08:07.822422 23239 net.cpp:100] Creating Layer conv5_6/dw/bn
I0929 13:08:07.822424 23239 net.cpp:434] conv5_6/dw/bn <- conv5_6/dw
I0929 13:08:07.822427 23239 net.cpp:395] conv5_6/dw/bn -> conv5_6/dw (in-place)
I0929 13:08:07.822556 23239 net.cpp:150] Setting up conv5_6/dw/bn
I0929 13:08:07.822559 23239 net.cpp:157] Top shape: 1 512 10 16 (81920)
I0929 13:08:07.822561 23239 net.cpp:165] Memory required for data: 257126240
I0929 13:08:07.822566 23239 layer_factory.hpp:77] Creating layer conv5_6/dw/scale
I0929 13:08:07.822571 23239 net.cpp:100] Creating Layer conv5_6/dw/scale
I0929 13:08:07.822572 23239 net.cpp:434] conv5_6/dw/scale <- conv5_6/dw
I0929 13:08:07.822576 23239 net.cpp:395] conv5_6/dw/scale -> conv5_6/dw (in-place)
I0929 13:08:07.822598 23239 layer_factory.hpp:77] Creating layer conv5_6/dw/scale
I0929 13:08:07.822674 23239 net.cpp:150] Setting up conv5_6/dw/scale
I0929 13:08:07.822677 23239 net.cpp:157] Top shape: 1 512 10 16 (81920)
I0929 13:08:07.822679 23239 net.cpp:165] Memory required for data: 257453920
I0929 13:08:07.822682 23239 layer_factory.hpp:77] Creating layer relu5_6/dw
I0929 13:08:07.822686 23239 net.cpp:100] Creating Layer relu5_6/dw
I0929 13:08:07.822690 23239 net.cpp:434] relu5_6/dw <- conv5_6/dw
I0929 13:08:07.822691 23239 net.cpp:395] relu5_6/dw -> conv5_6/dw (in-place)
I0929 13:08:07.822968 23239 net.cpp:150] Setting up relu5_6/dw
I0929 13:08:07.822974 23239 net.cpp:157] Top shape: 1 512 10 16 (81920)
I0929 13:08:07.822978 23239 net.cpp:165] Memory required for data: 257781600
I0929 13:08:07.822979 23239 layer_factory.hpp:77] Creating layer conv5_6/sep
I0929 13:08:07.822984 23239 net.cpp:100] Creating Layer conv5_6/sep
I0929 13:08:07.822986 23239 net.cpp:434] conv5_6/sep <- conv5_6/dw
I0929 13:08:07.822990 23239 net.cpp:408] conv5_6/sep -> conv5_6/sep
I0929 13:08:07.827662 23239 net.cpp:150] Setting up conv5_6/sep
I0929 13:08:07.827673 23239 net.cpp:157] Top shape: 1 1024 10 16 (163840)
I0929 13:08:07.827675 23239 net.cpp:165] Memory required for data: 258436960
I0929 13:08:07.827679 23239 layer_factory.hpp:77] Creating layer conv5_6/sep/bn
I0929 13:08:07.827685 23239 net.cpp:100] Creating Layer conv5_6/sep/bn
I0929 13:08:07.827687 23239 net.cpp:434] conv5_6/sep/bn <- conv5_6/sep
I0929 13:08:07.827690 23239 net.cpp:395] conv5_6/sep/bn -> conv5_6/sep (in-place)
I0929 13:08:07.827828 23239 net.cpp:150] Setting up conv5_6/sep/bn
I0929 13:08:07.827842 23239 net.cpp:157] Top shape: 1 1024 10 16 (163840)
I0929 13:08:07.827843 23239 net.cpp:165] Memory required for data: 259092320
I0929 13:08:07.827847 23239 layer_factory.hpp:77] Creating layer conv5_6/sep/scale
I0929 13:08:07.827852 23239 net.cpp:100] Creating Layer conv5_6/sep/scale
I0929 13:08:07.827854 23239 net.cpp:434] conv5_6/sep/scale <- conv5_6/sep
I0929 13:08:07.827857 23239 net.cpp:395] conv5_6/sep/scale -> conv5_6/sep (in-place)
I0929 13:08:07.827883 23239 layer_factory.hpp:77] Creating layer conv5_6/sep/scale
I0929 13:08:07.827958 23239 net.cpp:150] Setting up conv5_6/sep/scale
I0929 13:08:07.827962 23239 net.cpp:157] Top shape: 1 1024 10 16 (163840)
I0929 13:08:07.827965 23239 net.cpp:165] Memory required for data: 259747680
I0929 13:08:07.827967 23239 layer_factory.hpp:77] Creating layer relu5_6/sep
I0929 13:08:07.827970 23239 net.cpp:100] Creating Layer relu5_6/sep
I0929 13:08:07.827972 23239 net.cpp:434] relu5_6/sep <- conv5_6/sep
I0929 13:08:07.827975 23239 net.cpp:395] relu5_6/sep -> conv5_6/sep (in-place)
I0929 13:08:07.828251 23239 net.cpp:150] Setting up relu5_6/sep
I0929 13:08:07.828256 23239 net.cpp:157] Top shape: 1 1024 10 16 (163840)
I0929 13:08:07.828258 23239 net.cpp:165] Memory required for data: 260403040
I0929 13:08:07.828260 23239 layer_factory.hpp:77] Creating layer conv6/dw
I0929 13:08:07.828264 23239 net.cpp:100] Creating Layer conv6/dw
I0929 13:08:07.828267 23239 net.cpp:434] conv6/dw <- conv5_6/sep
I0929 13:08:07.828270 23239 net.cpp:408] conv6/dw -> conv6/dw
I0929 13:08:07.828459 23239 net.cpp:150] Setting up conv6/dw
I0929 13:08:07.828462 23239 net.cpp:157] Top shape: 1 1024 10 16 (163840)
I0929 13:08:07.828464 23239 net.cpp:165] Memory required for data: 261058400
I0929 13:08:07.828467 23239 layer_factory.hpp:77] Creating layer conv6/dw/bn
I0929 13:08:07.828469 23239 net.cpp:100] Creating Layer conv6/dw/bn
I0929 13:08:07.828471 23239 net.cpp:434] conv6/dw/bn <- conv6/dw
I0929 13:08:07.828474 23239 net.cpp:395] conv6/dw/bn -> conv6/dw (in-place)
I0929 13:08:07.828601 23239 net.cpp:150] Setting up conv6/dw/bn
I0929 13:08:07.828605 23239 net.cpp:157] Top shape: 1 1024 10 16 (163840)
I0929 13:08:07.828606 23239 net.cpp:165] Memory required for data: 261713760
I0929 13:08:07.828611 23239 layer_factory.hpp:77] Creating layer conv6/dw/scale
I0929 13:08:07.828614 23239 net.cpp:100] Creating Layer conv6/dw/scale
I0929 13:08:07.828615 23239 net.cpp:434] conv6/dw/scale <- conv6/dw
I0929 13:08:07.828619 23239 net.cpp:395] conv6/dw/scale -> conv6/dw (in-place)
I0929 13:08:07.828641 23239 layer_factory.hpp:77] Creating layer conv6/dw/scale
I0929 13:08:07.828716 23239 net.cpp:150] Setting up conv6/dw/scale
I0929 13:08:07.828721 23239 net.cpp:157] Top shape: 1 1024 10 16 (163840)
I0929 13:08:07.828722 23239 net.cpp:165] Memory required for data: 262369120
I0929 13:08:07.828725 23239 layer_factory.hpp:77] Creating layer relu6/dw
I0929 13:08:07.828727 23239 net.cpp:100] Creating Layer relu6/dw
I0929 13:08:07.828729 23239 net.cpp:434] relu6/dw <- conv6/dw
I0929 13:08:07.828732 23239 net.cpp:395] relu6/dw -> conv6/dw (in-place)
I0929 13:08:07.829001 23239 net.cpp:150] Setting up relu6/dw
I0929 13:08:07.829007 23239 net.cpp:157] Top shape: 1 1024 10 16 (163840)
I0929 13:08:07.829008 23239 net.cpp:165] Memory required for data: 263024480
I0929 13:08:07.829010 23239 layer_factory.hpp:77] Creating layer conv6/sep
I0929 13:08:07.829015 23239 net.cpp:100] Creating Layer conv6/sep
I0929 13:08:07.829017 23239 net.cpp:434] conv6/sep <- conv6/dw
I0929 13:08:07.829020 23239 net.cpp:408] conv6/sep -> conv6/sep
I0929 13:08:07.836874 23239 net.cpp:150] Setting up conv6/sep
I0929 13:08:07.836887 23239 net.cpp:157] Top shape: 1 1024 10 16 (163840)
I0929 13:08:07.836889 23239 net.cpp:165] Memory required for data: 263679840
I0929 13:08:07.836894 23239 layer_factory.hpp:77] Creating layer conv6/sep/bn
I0929 13:08:07.836899 23239 net.cpp:100] Creating Layer conv6/sep/bn
I0929 13:08:07.836902 23239 net.cpp:434] conv6/sep/bn <- conv6/sep
I0929 13:08:07.836905 23239 net.cpp:395] conv6/sep/bn -> conv6/sep (in-place)
I0929 13:08:07.837056 23239 net.cpp:150] Setting up conv6/sep/bn
I0929 13:08:07.837061 23239 net.cpp:157] Top shape: 1 1024 10 16 (163840)
I0929 13:08:07.837064 23239 net.cpp:165] Memory required for data: 264335200
I0929 13:08:07.837066 23239 layer_factory.hpp:77] Creating layer conv6/sep/scale
I0929 13:08:07.837070 23239 net.cpp:100] Creating Layer conv6/sep/scale
I0929 13:08:07.837072 23239 net.cpp:434] conv6/sep/scale <- conv6/sep
I0929 13:08:07.837075 23239 net.cpp:395] conv6/sep/scale -> conv6/sep (in-place)
I0929 13:08:07.837100 23239 layer_factory.hpp:77] Creating layer conv6/sep/scale
I0929 13:08:07.837177 23239 net.cpp:150] Setting up conv6/sep/scale
I0929 13:08:07.837182 23239 net.cpp:157] Top shape: 1 1024 10 16 (163840)
I0929 13:08:07.837183 23239 net.cpp:165] Memory required for data: 264990560
I0929 13:08:07.837186 23239 layer_factory.hpp:77] Creating layer relu6/sep
I0929 13:08:07.837189 23239 net.cpp:100] Creating Layer relu6/sep
I0929 13:08:07.837190 23239 net.cpp:434] relu6/sep <- conv6/sep
I0929 13:08:07.837193 23239 net.cpp:395] relu6/sep -> conv6/sep (in-place)
I0929 13:08:07.837466 23239 net.cpp:150] Setting up relu6/sep
I0929 13:08:07.837473 23239 net.cpp:157] Top shape: 1 1024 10 16 (163840)
I0929 13:08:07.837476 23239 net.cpp:165] Memory required for data: 265645920
I0929 13:08:07.837477 23239 layer_factory.hpp:77] Creating layer conv6/sep_relu6/sep_0_split
I0929 13:08:07.837481 23239 net.cpp:100] Creating Layer conv6/sep_relu6/sep_0_split
I0929 13:08:07.837482 23239 net.cpp:434] conv6/sep_relu6/sep_0_split <- conv6/sep
I0929 13:08:07.837486 23239 net.cpp:408] conv6/sep_relu6/sep_0_split -> conv6/sep_relu6/sep_0_split_0
I0929 13:08:07.837491 23239 net.cpp:408] conv6/sep_relu6/sep_0_split -> conv6/sep_relu6/sep_0_split_1
I0929 13:08:07.837494 23239 net.cpp:408] conv6/sep_relu6/sep_0_split -> conv6/sep_relu6/sep_0_split_2
I0929 13:08:07.837498 23239 net.cpp:408] conv6/sep_relu6/sep_0_split -> conv6/sep_relu6/sep_0_split_3
I0929 13:08:07.837543 23239 net.cpp:150] Setting up conv6/sep_relu6/sep_0_split
I0929 13:08:07.837548 23239 net.cpp:157] Top shape: 1 1024 10 16 (163840)
I0929 13:08:07.837549 23239 net.cpp:157] Top shape: 1 1024 10 16 (163840)
I0929 13:08:07.837551 23239 net.cpp:157] Top shape: 1 1024 10 16 (163840)
I0929 13:08:07.837553 23239 net.cpp:157] Top shape: 1 1024 10 16 (163840)
I0929 13:08:07.837555 23239 net.cpp:165] Memory required for data: 268267360
I0929 13:08:07.837558 23239 layer_factory.hpp:77] Creating layer ssd1_1
I0929 13:08:07.837563 23239 net.cpp:100] Creating Layer ssd1_1
I0929 13:08:07.837564 23239 net.cpp:434] ssd1_1 <- conv6/sep_relu6/sep_0_split_0
I0929 13:08:07.837569 23239 net.cpp:408] ssd1_1 -> ssd1_1
I0929 13:08:07.840042 23239 net.cpp:150] Setting up ssd1_1
I0929 13:08:07.840051 23239 net.cpp:157] Top shape: 1 256 10 16 (40960)
I0929 13:08:07.840054 23239 net.cpp:165] Memory required for data: 268431200
I0929 13:08:07.840057 23239 layer_factory.hpp:77] Creating layer ssd1_1_relu
I0929 13:08:07.840061 23239 net.cpp:100] Creating Layer ssd1_1_relu
I0929 13:08:07.840064 23239 net.cpp:434] ssd1_1_relu <- ssd1_1
I0929 13:08:07.840066 23239 net.cpp:395] ssd1_1_relu -> ssd1_1 (in-place)
I0929 13:08:07.840451 23239 net.cpp:150] Setting up ssd1_1_relu
I0929 13:08:07.840458 23239 net.cpp:157] Top shape: 1 256 10 16 (40960)
I0929 13:08:07.840461 23239 net.cpp:165] Memory required for data: 268595040
I0929 13:08:07.840462 23239 layer_factory.hpp:77] Creating layer ssd1_2
I0929 13:08:07.840468 23239 net.cpp:100] Creating Layer ssd1_2
I0929 13:08:07.840471 23239 net.cpp:434] ssd1_2 <- ssd1_1
I0929 13:08:07.840474 23239 net.cpp:408] ssd1_2 -> ssd1_2
I0929 13:08:07.846217 23239 net.cpp:150] Setting up ssd1_2
I0929 13:08:07.846232 23239 net.cpp:157] Top shape: 1 512 5 8 (20480)
I0929 13:08:07.846235 23239 net.cpp:165] Memory required for data: 268676960
I0929 13:08:07.846240 23239 layer_factory.hpp:77] Creating layer ssd1_2_relu
I0929 13:08:07.846246 23239 net.cpp:100] Creating Layer ssd1_2_relu
I0929 13:08:07.846249 23239 net.cpp:434] ssd1_2_relu <- ssd1_2
I0929 13:08:07.846264 23239 net.cpp:395] ssd1_2_relu -> ssd1_2 (in-place)
I0929 13:08:07.846544 23239 net.cpp:150] Setting up ssd1_2_relu
I0929 13:08:07.846550 23239 net.cpp:157] Top shape: 1 512 5 8 (20480)
I0929 13:08:07.846552 23239 net.cpp:165] Memory required for data: 268758880
I0929 13:08:07.846554 23239 layer_factory.hpp:77] Creating layer ssd1_2_ssd1_2_relu_0_split
I0929 13:08:07.846560 23239 net.cpp:100] Creating Layer ssd1_2_ssd1_2_relu_0_split
I0929 13:08:07.846562 23239 net.cpp:434] ssd1_2_ssd1_2_relu_0_split <- ssd1_2
I0929 13:08:07.846566 23239 net.cpp:408] ssd1_2_ssd1_2_relu_0_split -> ssd1_2_ssd1_2_relu_0_split_0
I0929 13:08:07.846571 23239 net.cpp:408] ssd1_2_ssd1_2_relu_0_split -> ssd1_2_ssd1_2_relu_0_split_1
I0929 13:08:07.846575 23239 net.cpp:408] ssd1_2_ssd1_2_relu_0_split -> ssd1_2_ssd1_2_relu_0_split_2
I0929 13:08:07.846578 23239 net.cpp:408] ssd1_2_ssd1_2_relu_0_split -> ssd1_2_ssd1_2_relu_0_split_3
I0929 13:08:07.846623 23239 net.cpp:150] Setting up ssd1_2_ssd1_2_relu_0_split
I0929 13:08:07.846627 23239 net.cpp:157] Top shape: 1 512 5 8 (20480)
I0929 13:08:07.846630 23239 net.cpp:157] Top shape: 1 512 5 8 (20480)
I0929 13:08:07.846632 23239 net.cpp:157] Top shape: 1 512 5 8 (20480)
I0929 13:08:07.846634 23239 net.cpp:157] Top shape: 1 512 5 8 (20480)
I0929 13:08:07.846637 23239 net.cpp:165] Memory required for data: 269086560
I0929 13:08:07.846638 23239 layer_factory.hpp:77] Creating layer ssd2_1
I0929 13:08:07.846644 23239 net.cpp:100] Creating Layer ssd2_1
I0929 13:08:07.846647 23239 net.cpp:434] ssd2_1 <- ssd1_2_ssd1_2_relu_0_split_0
I0929 13:08:07.846650 23239 net.cpp:408] ssd2_1 -> ssd2_1
I0929 13:08:07.848058 23239 net.cpp:150] Setting up ssd2_1
I0929 13:08:07.848067 23239 net.cpp:157] Top shape: 1 128 5 8 (5120)
I0929 13:08:07.848069 23239 net.cpp:165] Memory required for data: 269107040
I0929 13:08:07.848074 23239 layer_factory.hpp:77] Creating layer ssd2_1_relu
I0929 13:08:07.848078 23239 net.cpp:100] Creating Layer ssd2_1_relu
I0929 13:08:07.848080 23239 net.cpp:434] ssd2_1_relu <- ssd2_1
I0929 13:08:07.848083 23239 net.cpp:395] ssd2_1_relu -> ssd2_1 (in-place)
I0929 13:08:07.848469 23239 net.cpp:150] Setting up ssd2_1_relu
I0929 13:08:07.848474 23239 net.cpp:157] Top shape: 1 128 5 8 (5120)
I0929 13:08:07.848477 23239 net.cpp:165] Memory required for data: 269127520
I0929 13:08:07.848479 23239 layer_factory.hpp:77] Creating layer ssd2_2
I0929 13:08:07.848485 23239 net.cpp:100] Creating Layer ssd2_2
I0929 13:08:07.848489 23239 net.cpp:434] ssd2_2 <- ssd2_1
I0929 13:08:07.848492 23239 net.cpp:408] ssd2_2 -> ssd2_2
I0929 13:08:07.850973 23239 net.cpp:150] Setting up ssd2_2
I0929 13:08:07.850982 23239 net.cpp:157] Top shape: 1 256 3 4 (3072)
I0929 13:08:07.850984 23239 net.cpp:165] Memory required for data: 269139808
I0929 13:08:07.850988 23239 layer_factory.hpp:77] Creating layer ssd2_2_relu
I0929 13:08:07.850993 23239 net.cpp:100] Creating Layer ssd2_2_relu
I0929 13:08:07.850996 23239 net.cpp:434] ssd2_2_relu <- ssd2_2
I0929 13:08:07.850999 23239 net.cpp:395] ssd2_2_relu -> ssd2_2 (in-place)
I0929 13:08:07.851274 23239 net.cpp:150] Setting up ssd2_2_relu
I0929 13:08:07.851279 23239 net.cpp:157] Top shape: 1 256 3 4 (3072)
I0929 13:08:07.851281 23239 net.cpp:165] Memory required for data: 269152096
I0929 13:08:07.851284 23239 layer_factory.hpp:77] Creating layer ssd2_2_ssd2_2_relu_0_split
I0929 13:08:07.851289 23239 net.cpp:100] Creating Layer ssd2_2_ssd2_2_relu_0_split
I0929 13:08:07.851291 23239 net.cpp:434] ssd2_2_ssd2_2_relu_0_split <- ssd2_2
I0929 13:08:07.851294 23239 net.cpp:408] ssd2_2_ssd2_2_relu_0_split -> ssd2_2_ssd2_2_relu_0_split_0
I0929 13:08:07.851300 23239 net.cpp:408] ssd2_2_ssd2_2_relu_0_split -> ssd2_2_ssd2_2_relu_0_split_1
I0929 13:08:07.851303 23239 net.cpp:408] ssd2_2_ssd2_2_relu_0_split -> ssd2_2_ssd2_2_relu_0_split_2
I0929 13:08:07.851307 23239 net.cpp:408] ssd2_2_ssd2_2_relu_0_split -> ssd2_2_ssd2_2_relu_0_split_3
I0929 13:08:07.851353 23239 net.cpp:150] Setting up ssd2_2_ssd2_2_relu_0_split
I0929 13:08:07.851357 23239 net.cpp:157] Top shape: 1 256 3 4 (3072)
I0929 13:08:07.851368 23239 net.cpp:157] Top shape: 1 256 3 4 (3072)
I0929 13:08:07.851372 23239 net.cpp:157] Top shape: 1 256 3 4 (3072)
I0929 13:08:07.851373 23239 net.cpp:157] Top shape: 1 256 3 4 (3072)
I0929 13:08:07.851375 23239 net.cpp:165] Memory required for data: 269201248
I0929 13:08:07.851377 23239 layer_factory.hpp:77] Creating layer ssd3_1
I0929 13:08:07.851383 23239 net.cpp:100] Creating Layer ssd3_1
I0929 13:08:07.851387 23239 net.cpp:434] ssd3_1 <- ssd2_2_ssd2_2_relu_0_split_0
I0929 13:08:07.851390 23239 net.cpp:408] ssd3_1 -> ssd3_1
I0929 13:08:07.853138 23239 net.cpp:150] Setting up ssd3_1
I0929 13:08:07.853147 23239 net.cpp:157] Top shape: 1 128 3 4 (1536)
I0929 13:08:07.853148 23239 net.cpp:165] Memory required for data: 269207392
I0929 13:08:07.853152 23239 layer_factory.hpp:77] Creating layer ssd3_1_relu
I0929 13:08:07.853157 23239 net.cpp:100] Creating Layer ssd3_1_relu
I0929 13:08:07.853159 23239 net.cpp:434] ssd3_1_relu <- ssd3_1
I0929 13:08:07.853163 23239 net.cpp:395] ssd3_1_relu -> ssd3_1 (in-place)
I0929 13:08:07.853440 23239 net.cpp:150] Setting up ssd3_1_relu
I0929 13:08:07.853444 23239 net.cpp:157] Top shape: 1 128 3 4 (1536)
I0929 13:08:07.853446 23239 net.cpp:165] Memory required for data: 269213536
I0929 13:08:07.853448 23239 layer_factory.hpp:77] Creating layer ssd3_2
I0929 13:08:07.853456 23239 net.cpp:100] Creating Layer ssd3_2
I0929 13:08:07.853458 23239 net.cpp:434] ssd3_2 <- ssd3_1
I0929 13:08:07.853462 23239 net.cpp:408] ssd3_2 -> ssd3_2
I0929 13:08:07.856019 23239 net.cpp:150] Setting up ssd3_2
I0929 13:08:07.856041 23239 net.cpp:157] Top shape: 1 256 2 2 (1024)
I0929 13:08:07.856043 23239 net.cpp:165] Memory required for data: 269217632
I0929 13:08:07.856052 23239 layer_factory.hpp:77] Creating layer ssd3_2_relu
I0929 13:08:07.856060 23239 net.cpp:100] Creating Layer ssd3_2_relu
I0929 13:08:07.856065 23239 net.cpp:434] ssd3_2_relu <- ssd3_2
I0929 13:08:07.856070 23239 net.cpp:395] ssd3_2_relu -> ssd3_2 (in-place)
I0929 13:08:07.856518 23239 net.cpp:150] Setting up ssd3_2_relu
I0929 13:08:07.856526 23239 net.cpp:157] Top shape: 1 256 2 2 (1024)
I0929 13:08:07.856528 23239 net.cpp:165] Memory required for data: 269221728
I0929 13:08:07.856530 23239 layer_factory.hpp:77] Creating layer ssd3_2_ssd3_2_relu_0_split
I0929 13:08:07.856536 23239 net.cpp:100] Creating Layer ssd3_2_ssd3_2_relu_0_split
I0929 13:08:07.856539 23239 net.cpp:434] ssd3_2_ssd3_2_relu_0_split <- ssd3_2
I0929 13:08:07.856544 23239 net.cpp:408] ssd3_2_ssd3_2_relu_0_split -> ssd3_2_ssd3_2_relu_0_split_0
I0929 13:08:07.856549 23239 net.cpp:408] ssd3_2_ssd3_2_relu_0_split -> ssd3_2_ssd3_2_relu_0_split_1
I0929 13:08:07.856552 23239 net.cpp:408] ssd3_2_ssd3_2_relu_0_split -> ssd3_2_ssd3_2_relu_0_split_2
I0929 13:08:07.856555 23239 net.cpp:408] ssd3_2_ssd3_2_relu_0_split -> ssd3_2_ssd3_2_relu_0_split_3
I0929 13:08:07.856609 23239 net.cpp:150] Setting up ssd3_2_ssd3_2_relu_0_split
I0929 13:08:07.856613 23239 net.cpp:157] Top shape: 1 256 2 2 (1024)
I0929 13:08:07.856616 23239 net.cpp:157] Top shape: 1 256 2 2 (1024)
I0929 13:08:07.856619 23239 net.cpp:157] Top shape: 1 256 2 2 (1024)
I0929 13:08:07.856622 23239 net.cpp:157] Top shape: 1 256 2 2 (1024)
I0929 13:08:07.856624 23239 net.cpp:165] Memory required for data: 269238112
I0929 13:08:07.856626 23239 layer_factory.hpp:77] Creating layer ssd4_1
I0929 13:08:07.856634 23239 net.cpp:100] Creating Layer ssd4_1
I0929 13:08:07.856637 23239 net.cpp:434] ssd4_1 <- ssd3_2_ssd3_2_relu_0_split_0
I0929 13:08:07.856642 23239 net.cpp:408] ssd4_1 -> ssd4_1
I0929 13:08:07.857995 23239 net.cpp:150] Setting up ssd4_1
I0929 13:08:07.858006 23239 net.cpp:157] Top shape: 1 128 2 2 (512)
I0929 13:08:07.858006 23239 net.cpp:165] Memory required for data: 269240160
I0929 13:08:07.858012 23239 layer_factory.hpp:77] Creating layer ssd4_1_relu
I0929 13:08:07.858028 23239 net.cpp:100] Creating Layer ssd4_1_relu
I0929 13:08:07.858031 23239 net.cpp:434] ssd4_1_relu <- ssd4_1
I0929 13:08:07.858034 23239 net.cpp:395] ssd4_1_relu -> ssd4_1 (in-place)
I0929 13:08:07.858314 23239 net.cpp:150] Setting up ssd4_1_relu
I0929 13:08:07.858330 23239 net.cpp:157] Top shape: 1 128 2 2 (512)
I0929 13:08:07.858331 23239 net.cpp:165] Memory required for data: 269242208
I0929 13:08:07.858333 23239 layer_factory.hpp:77] Creating layer ssd4_2
I0929 13:08:07.858340 23239 net.cpp:100] Creating Layer ssd4_2
I0929 13:08:07.858343 23239 net.cpp:434] ssd4_2 <- ssd4_1
I0929 13:08:07.858346 23239 net.cpp:408] ssd4_2 -> ssd4_2
I0929 13:08:07.860958 23239 net.cpp:150] Setting up ssd4_2
I0929 13:08:07.860970 23239 net.cpp:157] Top shape: 1 256 1 1 (256)
I0929 13:08:07.860971 23239 net.cpp:165] Memory required for data: 269243232
I0929 13:08:07.860975 23239 layer_factory.hpp:77] Creating layer ssd4_2_relu
I0929 13:08:07.860980 23239 net.cpp:100] Creating Layer ssd4_2_relu
I0929 13:08:07.860983 23239 net.cpp:434] ssd4_2_relu <- ssd4_2
I0929 13:08:07.860986 23239 net.cpp:395] ssd4_2_relu -> ssd4_2 (in-place)
I0929 13:08:07.861371 23239 net.cpp:150] Setting up ssd4_2_relu
I0929 13:08:07.861378 23239 net.cpp:157] Top shape: 1 256 1 1 (256)
I0929 13:08:07.861379 23239 net.cpp:165] Memory required for data: 269244256
I0929 13:08:07.861382 23239 layer_factory.hpp:77] Creating layer ssd4_2_ssd4_2_relu_0_split
I0929 13:08:07.861387 23239 net.cpp:100] Creating Layer ssd4_2_ssd4_2_relu_0_split
I0929 13:08:07.861388 23239 net.cpp:434] ssd4_2_ssd4_2_relu_0_split <- ssd4_2
I0929 13:08:07.861392 23239 net.cpp:408] ssd4_2_ssd4_2_relu_0_split -> ssd4_2_ssd4_2_relu_0_split_0
I0929 13:08:07.861397 23239 net.cpp:408] ssd4_2_ssd4_2_relu_0_split -> ssd4_2_ssd4_2_relu_0_split_1
I0929 13:08:07.861399 23239 net.cpp:408] ssd4_2_ssd4_2_relu_0_split -> ssd4_2_ssd4_2_relu_0_split_2
I0929 13:08:07.861444 23239 net.cpp:150] Setting up ssd4_2_ssd4_2_relu_0_split
I0929 13:08:07.861449 23239 net.cpp:157] Top shape: 1 256 1 1 (256)
I0929 13:08:07.861451 23239 net.cpp:157] Top shape: 1 256 1 1 (256)
I0929 13:08:07.861454 23239 net.cpp:157] Top shape: 1 256 1 1 (256)
I0929 13:08:07.861455 23239 net.cpp:165] Memory required for data: 269247328
I0929 13:08:07.861456 23239 layer_factory.hpp:77] Creating layer conv5_5/sep_norm
I0929 13:08:07.861461 23239 net.cpp:100] Creating Layer conv5_5/sep_norm
I0929 13:08:07.861464 23239 net.cpp:434] conv5_5/sep_norm <- conv5_5/sep_relu5_5/sep_0_split_1
I0929 13:08:07.861467 23239 net.cpp:408] conv5_5/sep_norm -> conv5_5/sep_norm
I0929 13:08:07.861584 23239 net.cpp:150] Setting up conv5_5/sep_norm
I0929 13:08:07.861589 23239 net.cpp:157] Top shape: 1 512 19 32 (311296)
I0929 13:08:07.861590 23239 net.cpp:165] Memory required for data: 270492512
I0929 13:08:07.861593 23239 layer_factory.hpp:77] Creating layer conv5_5/sep_norm_conv5_5/sep_norm_0_split
I0929 13:08:07.861596 23239 net.cpp:100] Creating Layer conv5_5/sep_norm_conv5_5/sep_norm_0_split
I0929 13:08:07.861599 23239 net.cpp:434] conv5_5/sep_norm_conv5_5/sep_norm_0_split <- conv5_5/sep_norm
I0929 13:08:07.861603 23239 net.cpp:408] conv5_5/sep_norm_conv5_5/sep_norm_0_split -> conv5_5/sep_norm_conv5_5/sep_norm_0_split_0
I0929 13:08:07.861606 23239 net.cpp:408] conv5_5/sep_norm_conv5_5/sep_norm_0_split -> conv5_5/sep_norm_conv5_5/sep_norm_0_split_1
I0929 13:08:07.861609 23239 net.cpp:408] conv5_5/sep_norm_conv5_5/sep_norm_0_split -> conv5_5/sep_norm_conv5_5/sep_norm_0_split_2
I0929 13:08:07.861642 23239 net.cpp:150] Setting up conv5_5/sep_norm_conv5_5/sep_norm_0_split
I0929 13:08:07.861646 23239 net.cpp:157] Top shape: 1 512 19 32 (311296)
I0929 13:08:07.861649 23239 net.cpp:157] Top shape: 1 512 19 32 (311296)
I0929 13:08:07.861650 23239 net.cpp:157] Top shape: 1 512 19 32 (311296)
I0929 13:08:07.861652 23239 net.cpp:165] Memory required for data: 274228064
I0929 13:08:07.861654 23239 layer_factory.hpp:77] Creating layer conv5_5/sep_norm_mbox_loc
I0929 13:08:07.861660 23239 net.cpp:100] Creating Layer conv5_5/sep_norm_mbox_loc
I0929 13:08:07.861661 23239 net.cpp:434] conv5_5/sep_norm_mbox_loc <- conv5_5/sep_norm_conv5_5/sep_norm_0_split_0
I0929 13:08:07.861665 23239 net.cpp:408] conv5_5/sep_norm_mbox_loc -> conv5_5/sep_norm_mbox_loc
I0929 13:08:07.863016 23239 net.cpp:150] Setting up conv5_5/sep_norm_mbox_loc
I0929 13:08:07.863034 23239 net.cpp:157] Top shape: 1 8 19 32 (4864)
I0929 13:08:07.863035 23239 net.cpp:165] Memory required for data: 274247520
I0929 13:08:07.863040 23239 layer_factory.hpp:77] Creating layer conv5_5/sep_norm_mbox_loc_perm
I0929 13:08:07.863046 23239 net.cpp:100] Creating Layer conv5_5/sep_norm_mbox_loc_perm
I0929 13:08:07.863049 23239 net.cpp:434] conv5_5/sep_norm_mbox_loc_perm <- conv5_5/sep_norm_mbox_loc
I0929 13:08:07.863052 23239 net.cpp:408] conv5_5/sep_norm_mbox_loc_perm -> conv5_5/sep_norm_mbox_loc_perm
I0929 13:08:07.863131 23239 net.cpp:150] Setting up conv5_5/sep_norm_mbox_loc_perm
I0929 13:08:07.863135 23239 net.cpp:157] Top shape: 1 19 32 8 (4864)
I0929 13:08:07.863137 23239 net.cpp:165] Memory required for data: 274266976
I0929 13:08:07.863139 23239 layer_factory.hpp:77] Creating layer conv5_5/sep_norm_mbox_loc_flat
I0929 13:08:07.863143 23239 net.cpp:100] Creating Layer conv5_5/sep_norm_mbox_loc_flat
I0929 13:08:07.863145 23239 net.cpp:434] conv5_5/sep_norm_mbox_loc_flat <- conv5_5/sep_norm_mbox_loc_perm
I0929 13:08:07.863147 23239 net.cpp:408] conv5_5/sep_norm_mbox_loc_flat -> conv5_5/sep_norm_mbox_loc_flat
I0929 13:08:07.863165 23239 net.cpp:150] Setting up conv5_5/sep_norm_mbox_loc_flat
I0929 13:08:07.863169 23239 net.cpp:157] Top shape: 1 4864 (4864)
I0929 13:08:07.863170 23239 net.cpp:165] Memory required for data: 274286432
I0929 13:08:07.863173 23239 layer_factory.hpp:77] Creating layer conv5_5/sep_norm_mbox_conf
I0929 13:08:07.863178 23239 net.cpp:100] Creating Layer conv5_5/sep_norm_mbox_conf
I0929 13:08:07.863180 23239 net.cpp:434] conv5_5/sep_norm_mbox_conf <- conv5_5/sep_norm_conv5_5/sep_norm_0_split_1
I0929 13:08:07.863184 23239 net.cpp:408] conv5_5/sep_norm_mbox_conf -> conv5_5/sep_norm_mbox_conf
I0929 13:08:07.864569 23239 net.cpp:150] Setting up conv5_5/sep_norm_mbox_conf
I0929 13:08:07.864578 23239 net.cpp:157] Top shape: 1 10 19 32 (6080)
I0929 13:08:07.864581 23239 net.cpp:165] Memory required for data: 274310752
I0929 13:08:07.864585 23239 layer_factory.hpp:77] Creating layer conv5_5/sep_norm_mbox_conf_perm
I0929 13:08:07.864589 23239 net.cpp:100] Creating Layer conv5_5/sep_norm_mbox_conf_perm
I0929 13:08:07.864591 23239 net.cpp:434] conv5_5/sep_norm_mbox_conf_perm <- conv5_5/sep_norm_mbox_conf
I0929 13:08:07.864596 23239 net.cpp:408] conv5_5/sep_norm_mbox_conf_perm -> conv5_5/sep_norm_mbox_conf_perm
I0929 13:08:07.864673 23239 net.cpp:150] Setting up conv5_5/sep_norm_mbox_conf_perm
I0929 13:08:07.864677 23239 net.cpp:157] Top shape: 1 19 32 10 (6080)
I0929 13:08:07.864679 23239 net.cpp:165] Memory required for data: 274335072
I0929 13:08:07.864681 23239 layer_factory.hpp:77] Creating layer conv5_5/sep_norm_mbox_conf_flat
I0929 13:08:07.864686 23239 net.cpp:100] Creating Layer conv5_5/sep_norm_mbox_conf_flat
I0929 13:08:07.864687 23239 net.cpp:434] conv5_5/sep_norm_mbox_conf_flat <- conv5_5/sep_norm_mbox_conf_perm
I0929 13:08:07.864691 23239 net.cpp:408] conv5_5/sep_norm_mbox_conf_flat -> conv5_5/sep_norm_mbox_conf_flat
I0929 13:08:07.864707 23239 net.cpp:150] Setting up conv5_5/sep_norm_mbox_conf_flat
I0929 13:08:07.864711 23239 net.cpp:157] Top shape: 1 6080 (6080)
I0929 13:08:07.864712 23239 net.cpp:165] Memory required for data: 274359392
I0929 13:08:07.864714 23239 layer_factory.hpp:77] Creating layer conv5_5/sep_norm_mbox_priorbox
I0929 13:08:07.864720 23239 net.cpp:100] Creating Layer conv5_5/sep_norm_mbox_priorbox
I0929 13:08:07.864722 23239 net.cpp:434] conv5_5/sep_norm_mbox_priorbox <- conv5_5/sep_norm_conv5_5/sep_norm_0_split_2
I0929 13:08:07.864725 23239 net.cpp:434] conv5_5/sep_norm_mbox_priorbox <- data_data_0_split_1
I0929 13:08:07.864729 23239 net.cpp:408] conv5_5/sep_norm_mbox_priorbox -> conv5_5/sep_norm_mbox_priorbox
I0929 13:08:07.864748 23239 net.cpp:150] Setting up conv5_5/sep_norm_mbox_priorbox
I0929 13:08:07.864753 23239 net.cpp:157] Top shape: 1 2 4864 (9728)
I0929 13:08:07.864753 23239 net.cpp:165] Memory required for data: 274398304
I0929 13:08:07.864755 23239 layer_factory.hpp:77] Creating layer conv6/sep_mbox_loc
I0929 13:08:07.864761 23239 net.cpp:100] Creating Layer conv6/sep_mbox_loc
I0929 13:08:07.864771 23239 net.cpp:434] conv6/sep_mbox_loc <- conv6/sep_relu6/sep_0_split_1
I0929 13:08:07.864776 23239 net.cpp:408] conv6/sep_mbox_loc -> conv6/sep_mbox_loc
I0929 13:08:07.866227 23239 net.cpp:150] Setting up conv6/sep_mbox_loc
I0929 13:08:07.866235 23239 net.cpp:157] Top shape: 1 8 10 16 (1280)
I0929 13:08:07.866237 23239 net.cpp:165] Memory required for data: 274403424
I0929 13:08:07.866241 23239 layer_factory.hpp:77] Creating layer conv6/sep_mbox_loc_perm
I0929 13:08:07.866246 23239 net.cpp:100] Creating Layer conv6/sep_mbox_loc_perm
I0929 13:08:07.866250 23239 net.cpp:434] conv6/sep_mbox_loc_perm <- conv6/sep_mbox_loc
I0929 13:08:07.866253 23239 net.cpp:408] conv6/sep_mbox_loc_perm -> conv6/sep_mbox_loc_perm
I0929 13:08:07.866331 23239 net.cpp:150] Setting up conv6/sep_mbox_loc_perm
I0929 13:08:07.866335 23239 net.cpp:157] Top shape: 1 10 16 8 (1280)
I0929 13:08:07.866338 23239 net.cpp:165] Memory required for data: 274408544
I0929 13:08:07.866339 23239 layer_factory.hpp:77] Creating layer conv6/sep_mbox_loc_flat
I0929 13:08:07.866343 23239 net.cpp:100] Creating Layer conv6/sep_mbox_loc_flat
I0929 13:08:07.866344 23239 net.cpp:434] conv6/sep_mbox_loc_flat <- conv6/sep_mbox_loc_perm
I0929 13:08:07.866348 23239 net.cpp:408] conv6/sep_mbox_loc_flat -> conv6/sep_mbox_loc_flat
I0929 13:08:07.866365 23239 net.cpp:150] Setting up conv6/sep_mbox_loc_flat
I0929 13:08:07.866369 23239 net.cpp:157] Top shape: 1 1280 (1280)
I0929 13:08:07.866370 23239 net.cpp:165] Memory required for data: 274413664
I0929 13:08:07.866372 23239 layer_factory.hpp:77] Creating layer conv6/sep_mbox_conf
I0929 13:08:07.866377 23239 net.cpp:100] Creating Layer conv6/sep_mbox_conf
I0929 13:08:07.866380 23239 net.cpp:434] conv6/sep_mbox_conf <- conv6/sep_relu6/sep_0_split_2
I0929 13:08:07.866384 23239 net.cpp:408] conv6/sep_mbox_conf -> conv6/sep_mbox_conf
I0929 13:08:07.868006 23239 net.cpp:150] Setting up conv6/sep_mbox_conf
I0929 13:08:07.868014 23239 net.cpp:157] Top shape: 1 10 10 16 (1600)
I0929 13:08:07.868016 23239 net.cpp:165] Memory required for data: 274420064
I0929 13:08:07.868021 23239 layer_factory.hpp:77] Creating layer conv6/sep_mbox_conf_perm
I0929 13:08:07.868026 23239 net.cpp:100] Creating Layer conv6/sep_mbox_conf_perm
I0929 13:08:07.868028 23239 net.cpp:434] conv6/sep_mbox_conf_perm <- conv6/sep_mbox_conf
I0929 13:08:07.868032 23239 net.cpp:408] conv6/sep_mbox_conf_perm -> conv6/sep_mbox_conf_perm
I0929 13:08:07.868111 23239 net.cpp:150] Setting up conv6/sep_mbox_conf_perm
I0929 13:08:07.868115 23239 net.cpp:157] Top shape: 1 10 16 10 (1600)
I0929 13:08:07.868118 23239 net.cpp:165] Memory required for data: 274426464
I0929 13:08:07.868119 23239 layer_factory.hpp:77] Creating layer conv6/sep_mbox_conf_flat
I0929 13:08:07.868122 23239 net.cpp:100] Creating Layer conv6/sep_mbox_conf_flat
I0929 13:08:07.868124 23239 net.cpp:434] conv6/sep_mbox_conf_flat <- conv6/sep_mbox_conf_perm
I0929 13:08:07.868129 23239 net.cpp:408] conv6/sep_mbox_conf_flat -> conv6/sep_mbox_conf_flat
I0929 13:08:07.868145 23239 net.cpp:150] Setting up conv6/sep_mbox_conf_flat
I0929 13:08:07.868149 23239 net.cpp:157] Top shape: 1 1600 (1600)
I0929 13:08:07.868151 23239 net.cpp:165] Memory required for data: 274432864
I0929 13:08:07.868154 23239 layer_factory.hpp:77] Creating layer conv6/sep_mbox_priorbox
I0929 13:08:07.868156 23239 net.cpp:100] Creating Layer conv6/sep_mbox_priorbox
I0929 13:08:07.868158 23239 net.cpp:434] conv6/sep_mbox_priorbox <- conv6/sep_relu6/sep_0_split_3
I0929 13:08:07.868161 23239 net.cpp:434] conv6/sep_mbox_priorbox <- data_data_0_split_2
I0929 13:08:07.868165 23239 net.cpp:408] conv6/sep_mbox_priorbox -> conv6/sep_mbox_priorbox
I0929 13:08:07.868185 23239 net.cpp:150] Setting up conv6/sep_mbox_priorbox
I0929 13:08:07.868187 23239 net.cpp:157] Top shape: 1 2 1280 (2560)
I0929 13:08:07.868191 23239 net.cpp:165] Memory required for data: 274443104
I0929 13:08:07.868192 23239 layer_factory.hpp:77] Creating layer ssd1_2_mbox_loc
I0929 13:08:07.868197 23239 net.cpp:100] Creating Layer ssd1_2_mbox_loc
I0929 13:08:07.868208 23239 net.cpp:434] ssd1_2_mbox_loc <- ssd1_2_ssd1_2_relu_0_split_1
I0929 13:08:07.868213 23239 net.cpp:408] ssd1_2_mbox_loc -> ssd1_2_mbox_loc
I0929 13:08:07.869567 23239 net.cpp:150] Setting up ssd1_2_mbox_loc
I0929 13:08:07.869575 23239 net.cpp:157] Top shape: 1 8 5 8 (320)
I0929 13:08:07.869576 23239 net.cpp:165] Memory required for data: 274444384
I0929 13:08:07.869581 23239 layer_factory.hpp:77] Creating layer ssd1_2_mbox_loc_perm
I0929 13:08:07.869585 23239 net.cpp:100] Creating Layer ssd1_2_mbox_loc_perm
I0929 13:08:07.869587 23239 net.cpp:434] ssd1_2_mbox_loc_perm <- ssd1_2_mbox_loc
I0929 13:08:07.869591 23239 net.cpp:408] ssd1_2_mbox_loc_perm -> ssd1_2_mbox_loc_perm
I0929 13:08:07.869673 23239 net.cpp:150] Setting up ssd1_2_mbox_loc_perm
I0929 13:08:07.869678 23239 net.cpp:157] Top shape: 1 5 8 8 (320)
I0929 13:08:07.869678 23239 net.cpp:165] Memory required for data: 274445664
I0929 13:08:07.869680 23239 layer_factory.hpp:77] Creating layer ssd1_2_mbox_loc_flat
I0929 13:08:07.869683 23239 net.cpp:100] Creating Layer ssd1_2_mbox_loc_flat
I0929 13:08:07.869686 23239 net.cpp:434] ssd1_2_mbox_loc_flat <- ssd1_2_mbox_loc_perm
I0929 13:08:07.869689 23239 net.cpp:408] ssd1_2_mbox_loc_flat -> ssd1_2_mbox_loc_flat
I0929 13:08:07.869705 23239 net.cpp:150] Setting up ssd1_2_mbox_loc_flat
I0929 13:08:07.869709 23239 net.cpp:157] Top shape: 1 320 (320)
I0929 13:08:07.869710 23239 net.cpp:165] Memory required for data: 274446944
I0929 13:08:07.869712 23239 layer_factory.hpp:77] Creating layer ssd1_2_mbox_conf
I0929 13:08:07.869719 23239 net.cpp:100] Creating Layer ssd1_2_mbox_conf
I0929 13:08:07.869721 23239 net.cpp:434] ssd1_2_mbox_conf <- ssd1_2_ssd1_2_relu_0_split_2
I0929 13:08:07.869725 23239 net.cpp:408] ssd1_2_mbox_conf -> ssd1_2_mbox_conf
I0929 13:08:07.871199 23239 net.cpp:150] Setting up ssd1_2_mbox_conf
I0929 13:08:07.871207 23239 net.cpp:157] Top shape: 1 10 5 8 (400)
I0929 13:08:07.871209 23239 net.cpp:165] Memory required for data: 274448544
I0929 13:08:07.871213 23239 layer_factory.hpp:77] Creating layer ssd1_2_mbox_conf_perm
I0929 13:08:07.871218 23239 net.cpp:100] Creating Layer ssd1_2_mbox_conf_perm
I0929 13:08:07.871220 23239 net.cpp:434] ssd1_2_mbox_conf_perm <- ssd1_2_mbox_conf
I0929 13:08:07.871224 23239 net.cpp:408] ssd1_2_mbox_conf_perm -> ssd1_2_mbox_conf_perm
I0929 13:08:07.871304 23239 net.cpp:150] Setting up ssd1_2_mbox_conf_perm
I0929 13:08:07.871307 23239 net.cpp:157] Top shape: 1 5 8 10 (400)
I0929 13:08:07.871310 23239 net.cpp:165] Memory required for data: 274450144
I0929 13:08:07.871312 23239 layer_factory.hpp:77] Creating layer ssd1_2_mbox_conf_flat
I0929 13:08:07.871315 23239 net.cpp:100] Creating Layer ssd1_2_mbox_conf_flat
I0929 13:08:07.871317 23239 net.cpp:434] ssd1_2_mbox_conf_flat <- ssd1_2_mbox_conf_perm
I0929 13:08:07.871320 23239 net.cpp:408] ssd1_2_mbox_conf_flat -> ssd1_2_mbox_conf_flat
I0929 13:08:07.871337 23239 net.cpp:150] Setting up ssd1_2_mbox_conf_flat
I0929 13:08:07.871341 23239 net.cpp:157] Top shape: 1 400 (400)
I0929 13:08:07.871342 23239 net.cpp:165] Memory required for data: 274451744
I0929 13:08:07.871345 23239 layer_factory.hpp:77] Creating layer ssd1_2_mbox_priorbox
I0929 13:08:07.871348 23239 net.cpp:100] Creating Layer ssd1_2_mbox_priorbox
I0929 13:08:07.871351 23239 net.cpp:434] ssd1_2_mbox_priorbox <- ssd1_2_ssd1_2_relu_0_split_3
I0929 13:08:07.871353 23239 net.cpp:434] ssd1_2_mbox_priorbox <- data_data_0_split_3
I0929 13:08:07.871356 23239 net.cpp:408] ssd1_2_mbox_priorbox -> ssd1_2_mbox_priorbox
I0929 13:08:07.871376 23239 net.cpp:150] Setting up ssd1_2_mbox_priorbox
I0929 13:08:07.871379 23239 net.cpp:157] Top shape: 1 2 320 (640)
I0929 13:08:07.871381 23239 net.cpp:165] Memory required for data: 274454304
I0929 13:08:07.871382 23239 layer_factory.hpp:77] Creating layer ssd2_2_mbox_loc
I0929 13:08:07.871388 23239 net.cpp:100] Creating Layer ssd2_2_mbox_loc
I0929 13:08:07.871390 23239 net.cpp:434] ssd2_2_mbox_loc <- ssd2_2_ssd2_2_relu_0_split_1
I0929 13:08:07.871394 23239 net.cpp:408] ssd2_2_mbox_loc -> ssd2_2_mbox_loc
I0929 13:08:07.872594 23239 net.cpp:150] Setting up ssd2_2_mbox_loc
I0929 13:08:07.872602 23239 net.cpp:157] Top shape: 1 8 3 4 (96)
I0929 13:08:07.872604 23239 net.cpp:165] Memory required for data: 274454688
I0929 13:08:07.872608 23239 layer_factory.hpp:77] Creating layer ssd2_2_mbox_loc_perm
I0929 13:08:07.872614 23239 net.cpp:100] Creating Layer ssd2_2_mbox_loc_perm
I0929 13:08:07.872617 23239 net.cpp:434] ssd2_2_mbox_loc_perm <- ssd2_2_mbox_loc
I0929 13:08:07.872620 23239 net.cpp:408] ssd2_2_mbox_loc_perm -> ssd2_2_mbox_loc_perm
I0929 13:08:07.872696 23239 net.cpp:150] Setting up ssd2_2_mbox_loc_perm
I0929 13:08:07.872700 23239 net.cpp:157] Top shape: 1 3 4 8 (96)
I0929 13:08:07.872704 23239 net.cpp:165] Memory required for data: 274455072
I0929 13:08:07.872705 23239 layer_factory.hpp:77] Creating layer ssd2_2_mbox_loc_flat
I0929 13:08:07.872709 23239 net.cpp:100] Creating Layer ssd2_2_mbox_loc_flat
I0929 13:08:07.872711 23239 net.cpp:434] ssd2_2_mbox_loc_flat <- ssd2_2_mbox_loc_perm
I0929 13:08:07.872714 23239 net.cpp:408] ssd2_2_mbox_loc_flat -> ssd2_2_mbox_loc_flat
I0929 13:08:07.872731 23239 net.cpp:150] Setting up ssd2_2_mbox_loc_flat
I0929 13:08:07.872735 23239 net.cpp:157] Top shape: 1 96 (96)
I0929 13:08:07.872736 23239 net.cpp:165] Memory required for data: 274455456
I0929 13:08:07.872738 23239 layer_factory.hpp:77] Creating layer ssd2_2_mbox_conf
I0929 13:08:07.872743 23239 net.cpp:100] Creating Layer ssd2_2_mbox_conf
I0929 13:08:07.872746 23239 net.cpp:434] ssd2_2_mbox_conf <- ssd2_2_ssd2_2_relu_0_split_2
I0929 13:08:07.872750 23239 net.cpp:408] ssd2_2_mbox_conf -> ssd2_2_mbox_conf
I0929 13:08:07.873950 23239 net.cpp:150] Setting up ssd2_2_mbox_conf
I0929 13:08:07.873958 23239 net.cpp:157] Top shape: 1 10 3 4 (120)
I0929 13:08:07.873960 23239 net.cpp:165] Memory required for data: 274455936
I0929 13:08:07.873963 23239 layer_factory.hpp:77] Creating layer ssd2_2_mbox_conf_perm
I0929 13:08:07.873970 23239 net.cpp:100] Creating Layer ssd2_2_mbox_conf_perm
I0929 13:08:07.873971 23239 net.cpp:434] ssd2_2_mbox_conf_perm <- ssd2_2_mbox_conf
I0929 13:08:07.873975 23239 net.cpp:408] ssd2_2_mbox_conf_perm -> ssd2_2_mbox_conf_perm
I0929 13:08:07.874053 23239 net.cpp:150] Setting up ssd2_2_mbox_conf_perm
I0929 13:08:07.874058 23239 net.cpp:157] Top shape: 1 3 4 10 (120)
I0929 13:08:07.874060 23239 net.cpp:165] Memory required for data: 274456416
I0929 13:08:07.874061 23239 layer_factory.hpp:77] Creating layer ssd2_2_mbox_conf_flat
I0929 13:08:07.874065 23239 net.cpp:100] Creating Layer ssd2_2_mbox_conf_flat
I0929 13:08:07.874068 23239 net.cpp:434] ssd2_2_mbox_conf_flat <- ssd2_2_mbox_conf_perm
I0929 13:08:07.874071 23239 net.cpp:408] ssd2_2_mbox_conf_flat -> ssd2_2_mbox_conf_flat
I0929 13:08:07.874090 23239 net.cpp:150] Setting up ssd2_2_mbox_conf_flat
I0929 13:08:07.874094 23239 net.cpp:157] Top shape: 1 120 (120)
I0929 13:08:07.874095 23239 net.cpp:165] Memory required for data: 274456896
I0929 13:08:07.874097 23239 layer_factory.hpp:77] Creating layer ssd2_2_mbox_priorbox
I0929 13:08:07.874101 23239 net.cpp:100] Creating Layer ssd2_2_mbox_priorbox
I0929 13:08:07.874104 23239 net.cpp:434] ssd2_2_mbox_priorbox <- ssd2_2_ssd2_2_relu_0_split_3
I0929 13:08:07.874109 23239 net.cpp:434] ssd2_2_mbox_priorbox <- data_data_0_split_4
I0929 13:08:07.874111 23239 net.cpp:408] ssd2_2_mbox_priorbox -> ssd2_2_mbox_priorbox
I0929 13:08:07.874130 23239 net.cpp:150] Setting up ssd2_2_mbox_priorbox
I0929 13:08:07.874132 23239 net.cpp:157] Top shape: 1 2 96 (192)
I0929 13:08:07.874135 23239 net.cpp:165] Memory required for data: 274457664
I0929 13:08:07.874136 23239 layer_factory.hpp:77] Creating layer ssd3_2_mbox_loc
I0929 13:08:07.874141 23239 net.cpp:100] Creating Layer ssd3_2_mbox_loc
I0929 13:08:07.874145 23239 net.cpp:434] ssd3_2_mbox_loc <- ssd3_2_ssd3_2_relu_0_split_1
I0929 13:08:07.874148 23239 net.cpp:408] ssd3_2_mbox_loc -> ssd3_2_mbox_loc
I0929 13:08:07.875473 23239 net.cpp:150] Setting up ssd3_2_mbox_loc
I0929 13:08:07.875481 23239 net.cpp:157] Top shape: 1 8 2 2 (32)
I0929 13:08:07.875483 23239 net.cpp:165] Memory required for data: 274457792
I0929 13:08:07.875497 23239 layer_factory.hpp:77] Creating layer ssd3_2_mbox_loc_perm
I0929 13:08:07.875504 23239 net.cpp:100] Creating Layer ssd3_2_mbox_loc_perm
I0929 13:08:07.875506 23239 net.cpp:434] ssd3_2_mbox_loc_perm <- ssd3_2_mbox_loc
I0929 13:08:07.875509 23239 net.cpp:408] ssd3_2_mbox_loc_perm -> ssd3_2_mbox_loc_perm
I0929 13:08:07.875587 23239 net.cpp:150] Setting up ssd3_2_mbox_loc_perm
I0929 13:08:07.875591 23239 net.cpp:157] Top shape: 1 2 2 8 (32)
I0929 13:08:07.875594 23239 net.cpp:165] Memory required for data: 274457920
I0929 13:08:07.875597 23239 layer_factory.hpp:77] Creating layer ssd3_2_mbox_loc_flat
I0929 13:08:07.875599 23239 net.cpp:100] Creating Layer ssd3_2_mbox_loc_flat
I0929 13:08:07.875602 23239 net.cpp:434] ssd3_2_mbox_loc_flat <- ssd3_2_mbox_loc_perm
I0929 13:08:07.875605 23239 net.cpp:408] ssd3_2_mbox_loc_flat -> ssd3_2_mbox_loc_flat
I0929 13:08:07.875622 23239 net.cpp:150] Setting up ssd3_2_mbox_loc_flat
I0929 13:08:07.875627 23239 net.cpp:157] Top shape: 1 32 (32)
I0929 13:08:07.875627 23239 net.cpp:165] Memory required for data: 274458048
I0929 13:08:07.875630 23239 layer_factory.hpp:77] Creating layer ssd3_2_mbox_conf
I0929 13:08:07.875635 23239 net.cpp:100] Creating Layer ssd3_2_mbox_conf
I0929 13:08:07.875638 23239 net.cpp:434] ssd3_2_mbox_conf <- ssd3_2_ssd3_2_relu_0_split_2
I0929 13:08:07.875643 23239 net.cpp:408] ssd3_2_mbox_conf -> ssd3_2_mbox_conf
I0929 13:08:07.876888 23239 net.cpp:150] Setting up ssd3_2_mbox_conf
I0929 13:08:07.876895 23239 net.cpp:157] Top shape: 1 10 2 2 (40)
I0929 13:08:07.876897 23239 net.cpp:165] Memory required for data: 274458208
I0929 13:08:07.876901 23239 layer_factory.hpp:77] Creating layer ssd3_2_mbox_conf_perm
I0929 13:08:07.876907 23239 net.cpp:100] Creating Layer ssd3_2_mbox_conf_perm
I0929 13:08:07.876910 23239 net.cpp:434] ssd3_2_mbox_conf_perm <- ssd3_2_mbox_conf
I0929 13:08:07.876914 23239 net.cpp:408] ssd3_2_mbox_conf_perm -> ssd3_2_mbox_conf_perm
I0929 13:08:07.876991 23239 net.cpp:150] Setting up ssd3_2_mbox_conf_perm
I0929 13:08:07.876996 23239 net.cpp:157] Top shape: 1 2 2 10 (40)
I0929 13:08:07.876998 23239 net.cpp:165] Memory required for data: 274458368
I0929 13:08:07.876999 23239 layer_factory.hpp:77] Creating layer ssd3_2_mbox_conf_flat
I0929 13:08:07.877003 23239 net.cpp:100] Creating Layer ssd3_2_mbox_conf_flat
I0929 13:08:07.877007 23239 net.cpp:434] ssd3_2_mbox_conf_flat <- ssd3_2_mbox_conf_perm
I0929 13:08:07.877010 23239 net.cpp:408] ssd3_2_mbox_conf_flat -> ssd3_2_mbox_conf_flat
I0929 13:08:07.877027 23239 net.cpp:150] Setting up ssd3_2_mbox_conf_flat
I0929 13:08:07.877030 23239 net.cpp:157] Top shape: 1 40 (40)
I0929 13:08:07.877032 23239 net.cpp:165] Memory required for data: 274458528
I0929 13:08:07.877034 23239 layer_factory.hpp:77] Creating layer ssd3_2_mbox_priorbox
I0929 13:08:07.877038 23239 net.cpp:100] Creating Layer ssd3_2_mbox_priorbox
I0929 13:08:07.877041 23239 net.cpp:434] ssd3_2_mbox_priorbox <- ssd3_2_ssd3_2_relu_0_split_3
I0929 13:08:07.877044 23239 net.cpp:434] ssd3_2_mbox_priorbox <- data_data_0_split_5
I0929 13:08:07.877048 23239 net.cpp:408] ssd3_2_mbox_priorbox -> ssd3_2_mbox_priorbox
I0929 13:08:07.877068 23239 net.cpp:150] Setting up ssd3_2_mbox_priorbox
I0929 13:08:07.877070 23239 net.cpp:157] Top shape: 1 2 32 (64)
I0929 13:08:07.877073 23239 net.cpp:165] Memory required for data: 274458784
I0929 13:08:07.877074 23239 layer_factory.hpp:77] Creating layer ssd4_2_mbox_loc
I0929 13:08:07.877080 23239 net.cpp:100] Creating Layer ssd4_2_mbox_loc
I0929 13:08:07.877082 23239 net.cpp:434] ssd4_2_mbox_loc <- ssd4_2_ssd4_2_relu_0_split_0
I0929 13:08:07.877087 23239 net.cpp:408] ssd4_2_mbox_loc -> ssd4_2_mbox_loc
I0929 13:08:07.878300 23239 net.cpp:150] Setting up ssd4_2_mbox_loc
I0929 13:08:07.878307 23239 net.cpp:157] Top shape: 1 8 1 1 (8)
I0929 13:08:07.878310 23239 net.cpp:165] Memory required for data: 274458816
I0929 13:08:07.878314 23239 layer_factory.hpp:77] Creating layer ssd4_2_mbox_loc_perm
I0929 13:08:07.878319 23239 net.cpp:100] Creating Layer ssd4_2_mbox_loc_perm
I0929 13:08:07.878330 23239 net.cpp:434] ssd4_2_mbox_loc_perm <- ssd4_2_mbox_loc
I0929 13:08:07.878334 23239 net.cpp:408] ssd4_2_mbox_loc_perm -> ssd4_2_mbox_loc_perm
I0929 13:08:07.878412 23239 net.cpp:150] Setting up ssd4_2_mbox_loc_perm
I0929 13:08:07.878417 23239 net.cpp:157] Top shape: 1 1 1 8 (8)
I0929 13:08:07.878419 23239 net.cpp:165] Memory required for data: 274458848
I0929 13:08:07.878422 23239 layer_factory.hpp:77] Creating layer ssd4_2_mbox_loc_flat
I0929 13:08:07.878424 23239 net.cpp:100] Creating Layer ssd4_2_mbox_loc_flat
I0929 13:08:07.878427 23239 net.cpp:434] ssd4_2_mbox_loc_flat <- ssd4_2_mbox_loc_perm
I0929 13:08:07.878430 23239 net.cpp:408] ssd4_2_mbox_loc_flat -> ssd4_2_mbox_loc_flat
I0929 13:08:07.878448 23239 net.cpp:150] Setting up ssd4_2_mbox_loc_flat
I0929 13:08:07.878451 23239 net.cpp:157] Top shape: 1 8 (8)
I0929 13:08:07.878453 23239 net.cpp:165] Memory required for data: 274458880
I0929 13:08:07.878454 23239 layer_factory.hpp:77] Creating layer ssd4_2_mbox_conf
I0929 13:08:07.878460 23239 net.cpp:100] Creating Layer ssd4_2_mbox_conf
I0929 13:08:07.878463 23239 net.cpp:434] ssd4_2_mbox_conf <- ssd4_2_ssd4_2_relu_0_split_1
I0929 13:08:07.878468 23239 net.cpp:408] ssd4_2_mbox_conf -> ssd4_2_mbox_conf
I0929 13:08:07.879703 23239 net.cpp:150] Setting up ssd4_2_mbox_conf
I0929 13:08:07.879711 23239 net.cpp:157] Top shape: 1 10 1 1 (10)
I0929 13:08:07.879714 23239 net.cpp:165] Memory required for data: 274458920
I0929 13:08:07.879719 23239 layer_factory.hpp:77] Creating layer ssd4_2_mbox_conf_perm
I0929 13:08:07.879724 23239 net.cpp:100] Creating Layer ssd4_2_mbox_conf_perm
I0929 13:08:07.879725 23239 net.cpp:434] ssd4_2_mbox_conf_perm <- ssd4_2_mbox_conf
I0929 13:08:07.879729 23239 net.cpp:408] ssd4_2_mbox_conf_perm -> ssd4_2_mbox_conf_perm
I0929 13:08:07.879807 23239 net.cpp:150] Setting up ssd4_2_mbox_conf_perm
I0929 13:08:07.879812 23239 net.cpp:157] Top shape: 1 1 1 10 (10)
I0929 13:08:07.879813 23239 net.cpp:165] Memory required for data: 274458960
I0929 13:08:07.879814 23239 layer_factory.hpp:77] Creating layer ssd4_2_mbox_conf_flat
I0929 13:08:07.879818 23239 net.cpp:100] Creating Layer ssd4_2_mbox_conf_flat
I0929 13:08:07.879822 23239 net.cpp:434] ssd4_2_mbox_conf_flat <- ssd4_2_mbox_conf_perm
I0929 13:08:07.879824 23239 net.cpp:408] ssd4_2_mbox_conf_flat -> ssd4_2_mbox_conf_flat
I0929 13:08:07.879842 23239 net.cpp:150] Setting up ssd4_2_mbox_conf_flat
I0929 13:08:07.879844 23239 net.cpp:157] Top shape: 1 10 (10)
I0929 13:08:07.879846 23239 net.cpp:165] Memory required for data: 274459000
I0929 13:08:07.879848 23239 layer_factory.hpp:77] Creating layer ssd4_2_mbox_priorbox
I0929 13:08:07.879853 23239 net.cpp:100] Creating Layer ssd4_2_mbox_priorbox
I0929 13:08:07.879855 23239 net.cpp:434] ssd4_2_mbox_priorbox <- ssd4_2_ssd4_2_relu_0_split_2
I0929 13:08:07.879858 23239 net.cpp:434] ssd4_2_mbox_priorbox <- data_data_0_split_6
I0929 13:08:07.879861 23239 net.cpp:408] ssd4_2_mbox_priorbox -> ssd4_2_mbox_priorbox
I0929 13:08:07.879878 23239 net.cpp:150] Setting up ssd4_2_mbox_priorbox
I0929 13:08:07.879882 23239 net.cpp:157] Top shape: 1 2 8 (16)
I0929 13:08:07.879884 23239 net.cpp:165] Memory required for data: 274459064
I0929 13:08:07.879886 23239 layer_factory.hpp:77] Creating layer mbox_loc
I0929 13:08:07.879890 23239 net.cpp:100] Creating Layer mbox_loc
I0929 13:08:07.879894 23239 net.cpp:434] mbox_loc <- conv5_5/sep_norm_mbox_loc_flat
I0929 13:08:07.879899 23239 net.cpp:434] mbox_loc <- conv6/sep_mbox_loc_flat
I0929 13:08:07.879901 23239 net.cpp:434] mbox_loc <- ssd1_2_mbox_loc_flat
I0929 13:08:07.879904 23239 net.cpp:434] mbox_loc <- ssd2_2_mbox_loc_flat
I0929 13:08:07.879907 23239 net.cpp:434] mbox_loc <- ssd3_2_mbox_loc_flat
I0929 13:08:07.879909 23239 net.cpp:434] mbox_loc <- ssd4_2_mbox_loc_flat
I0929 13:08:07.879912 23239 net.cpp:408] mbox_loc -> mbox_loc
I0929 13:08:07.879932 23239 net.cpp:150] Setting up mbox_loc
I0929 13:08:07.879935 23239 net.cpp:157] Top shape: 1 6600 (6600)
I0929 13:08:07.879938 23239 net.cpp:165] Memory required for data: 274485464
I0929 13:08:07.879940 23239 layer_factory.hpp:77] Creating layer mbox_conf
I0929 13:08:07.879951 23239 net.cpp:100] Creating Layer mbox_conf
I0929 13:08:07.879954 23239 net.cpp:434] mbox_conf <- conv5_5/sep_norm_mbox_conf_flat
I0929 13:08:07.879957 23239 net.cpp:434] mbox_conf <- conv6/sep_mbox_conf_flat
I0929 13:08:07.879961 23239 net.cpp:434] mbox_conf <- ssd1_2_mbox_conf_flat
I0929 13:08:07.879962 23239 net.cpp:434] mbox_conf <- ssd2_2_mbox_conf_flat
I0929 13:08:07.879966 23239 net.cpp:434] mbox_conf <- ssd3_2_mbox_conf_flat
I0929 13:08:07.879968 23239 net.cpp:434] mbox_conf <- ssd4_2_mbox_conf_flat
I0929 13:08:07.879971 23239 net.cpp:408] mbox_conf -> mbox_conf
I0929 13:08:07.879988 23239 net.cpp:150] Setting up mbox_conf
I0929 13:08:07.879992 23239 net.cpp:157] Top shape: 1 8250 (8250)
I0929 13:08:07.879994 23239 net.cpp:165] Memory required for data: 274518464
I0929 13:08:07.879995 23239 layer_factory.hpp:77] Creating layer mbox_priorbox
I0929 13:08:07.879998 23239 net.cpp:100] Creating Layer mbox_priorbox
I0929 13:08:07.880000 23239 net.cpp:434] mbox_priorbox <- conv5_5/sep_norm_mbox_priorbox
I0929 13:08:07.880003 23239 net.cpp:434] mbox_priorbox <- conv6/sep_mbox_priorbox
I0929 13:08:07.880005 23239 net.cpp:434] mbox_priorbox <- ssd1_2_mbox_priorbox
I0929 13:08:07.880007 23239 net.cpp:434] mbox_priorbox <- ssd2_2_mbox_priorbox
I0929 13:08:07.880009 23239 net.cpp:434] mbox_priorbox <- ssd3_2_mbox_priorbox
I0929 13:08:07.880012 23239 net.cpp:434] mbox_priorbox <- ssd4_2_mbox_priorbox
I0929 13:08:07.880014 23239 net.cpp:408] mbox_priorbox -> mbox_priorbox
I0929 13:08:07.880031 23239 net.cpp:150] Setting up mbox_priorbox
I0929 13:08:07.880034 23239 net.cpp:157] Top shape: 1 2 6600 (13200)
I0929 13:08:07.880038 23239 net.cpp:165] Memory required for data: 274571264
I0929 13:08:07.880038 23239 layer_factory.hpp:77] Creating layer mbox_loss
I0929 13:08:07.880044 23239 net.cpp:100] Creating Layer mbox_loss
I0929 13:08:07.880048 23239 net.cpp:434] mbox_loss <- mbox_loc
I0929 13:08:07.880050 23239 net.cpp:434] mbox_loss <- mbox_conf
I0929 13:08:07.880053 23239 net.cpp:434] mbox_loss <- mbox_priorbox
…
name: "MobileNet_GTSDB_SSD_510x300_100_40_6_True_1_test"
state {
  phase: TEST
}
layer {
  name: "data"
  type: "AnnotatedData"
  top: "data"
  top: "label"
  include {
    phase: TEST
  }
  transform_param {
    mean_value: 125
    mean_value: 127
    mean_value: 130
    resize_param {
      prob: 1
      resize_mode: WARP
      height: 300
      width: 510
      interp_mode: LINEAR
    }
  }
  data_param {
    source: "examples/GTSDB/GTSDB_test_lmdb"
    batch_size: 1
    backend: LMDB
  }
  annotated_data_param {
    batch_sampler {
    }
    label_map_file: "data/GTSDB/labelmap_GTSDB.prototxt"
  }
}
layer {
  name: "conv1"
  type: "Convolution"
  bottom: "data"
  top: "conv1"
  param {
    lr_mult: 1
    decay_mult: 1
  }
  convolution_param {
    num_output: 32
    bias_term: false
    pad: 1
    kernel_size: 3
    stride: 2
    weight_filler {
      type: "msra"
    }
  }
}
layer {
  name: "conv1/bn"
  type: "BatchNorm"
  bottom: "conv1"
  top: "conv1"
  batch_norm_param {
    use_global_stats: true
    eps: 1e-05
  }
}
layer {
  name: "conv1/scale"
  type: "Scale"
  bottom: "conv1"
  top: "conv1"
  param {
    lr_mult: 1
    decay_mult: 0
  }
  param {
    lr_mult: 1
    decay_mult: 0
  }
  scale_param {
    filler {
      type: "constant"
      value: 1
    }
    bias_term: true
    bias_filler {
      type: "constant"
      value: 0
    }
  }
}
layer {
  name: "relu1"
  type: "ReLU"
  bottom: "conv1"
  top: "conv1"
}
layer {
  name: "conv2_1/dw"
  type: "DepthwiseConvolution"
  bottom: "conv1"
  top: "conv2_1/dw"
  param {
    lr_mult: 1
    decay_mult: 1
  }
  convolution_param {
    num_output: 32
    bias_term: false
    pad: 1
    kernel_size: 3
    group: 32
    stride: 1
    weight_filler {
      type: "msra"
    }
  }
}
layer {
  name: "conv2_1/dw/bn"
  type: "BatchNorm"
  bottom: "conv2_1/dw"
  top: "conv2_1/dw"
  batch_norm_param {
    use_global_stats: true
    eps: 1e-05
  }
}
layer {
  name: "conv2_1/dw/scale"
  type: "Scale"
  bottom: "conv2_1/dw"
  top: "conv2_1/dw"
  param {
    lr_mult: 1
    decay_mult: 0
  }
  param {
    lr_mult: 1
    decay_mult: 0
  }
  scale_param {
    filler {
      type: "constant"
      value: 1
    }
    bias_term: true
    bias_filler {
      type: "constant"
      value: 0
    }
  }
}
layer {
  name: "relu2_1/dw"
  type: "ReLU"
  bottom: "conv2_1/dw"
  top: "conv2_1/dw"
}
layer {
  name: "conv2_1/sep"
  type: "Convolution"
  bottom: "conv2_1/dw"
  top: "conv2_1/sep"
  param {
    lr_mult: 1
    decay_mult: 1
  }
  convolution_param {
    num_output: 64
    bias_term: false
    pad: 0
    kernel_size: 1
    stride: 1
    weight_filler {
      type: "msra"
    }
  }
}
layer {
  name: "conv2_1/sep/bn"
  type: "BatchNorm"
  bottom: "conv2_1/sep"
  top: "conv2_1/sep"
  batch_norm_param {
    use_global_stats: true
    eps: 1e-05
  }
}
layer {
  name: "conv2_1/sep/scale"
  type: "Scale"
  bottom: "conv2_1/sep"
  top: "conv2_1/sep"
  param {
    lr_mult: 1
    decay_mult: 0
  }
  param {
    lr_mult: 1
    decay_mult: 0
  }
  scale_param {
    filler {
      type: "constant"
      value: 1
    }
    bias_term: true
    bias_filler {
      type: "constant"
      value: 0
    }
  }
}
layer {
  name: "relu2_1/sep"
  type: "ReLU"
  bottom: "conv2_1/sep"
  top: "conv2_1/sep"
}
layer {
  name: "conv2_2/dw"
  type: "DepthwiseConvolution"
  bottom: "conv2_1/sep"
  top: "conv2_2/dw"
  param {
    lr_mult: 1
    decay_mult: 1
  }
  convolution_param {
    num_output: 64
    bias_term: false
    pad: 1
    kernel_size: 3
    group: 64
    stride: 2
    weight_filler {
      type: "msra"
    }
  }
}
layer {
  name: "conv2_2/dw/bn"
  type: "BatchNorm"
  bottom: "conv2_2/dw"
  top: "conv2_2/dw"
  batch_norm_param {
    use_global_stats: true
    eps: 1e-05
  }
}
layer {
  name: "conv2_2/dw/scale"
  type: "Scale"
  bottom: "conv2_2/dw"
  top: "conv2_2/dw"
  param {
    lr_mult: 1
    decay_mult: 0
  }
  param {
    lr_mult: 1
    decay_mult: 0
  }
  scale_param {
    filler {
      type: "constant"
      value: 1
    }
    bias_term: true
    bias_filler {
      type: "constant"
      value: 0
    }
  }
}
layer {
  name: "relu2_2/dw"
  type: "ReLU"
  bottom: "conv2_2/dw"
  top: "conv2_2/dw"
}
layer {
  name: "conv2_2/sep"
  type: "Convolution"
  bottom: "conv2_2/dw"
  top: "conv2_2/sep"
  param {
    lr_mult: 1
    decay_mult: 1
  }
  convolution_param {
    num_output: 128
    bias_term: false
    pad: 0
    kernel_size: 1
    stride: 1
    weight_filler {
      type: "msra"
    }
  }
}
layer {
  name: "conv2_2/sep/bn"
  type: "BatchNorm"
  bottom: "conv2_2/sep"
  top: "conv2_2/sep"
  batch_norm_param {
    use_global_stats: true
    eps: 1e-05
  }
}
layer {
  name: "conv2_2/sep/scale"
  type: "Scale"
  bottom: "conv2_2/sep"
  top: "conv2_2/sep"
  param {
    lr_mult: 1
    decay_mult: 0
  }
  param {
    lr_mult: 1
    decay_mult: 0
  }
  scale_param {
    filler {
      type: "constant"
      value: 1
    }
    bias_term: true
    bias_filler {
      type: "constant"
      value: 0
    }
  }
}
layer {
  name: "relu2_2/sep"
  type: "ReLU"
  bottom: "conv2_2/sep"
  top: "conv2_2/sep"
}
layer {
  name: "conv3_1/dw"
  type: "DepthwiseConvolution"
  bottom: "conv2_2/sep"
  top: "conv3_1/dw"
  param {
    lr_mult: 1
    decay_mult: 1
  }
  convolution_param {
    num_output: 128
    bias_term: false
    pad: 1
    kernel_size: 3
    group: 128
    stride: 1
    weight_filler {
      type: "msra"
    }
  }
}
layer {
  name: "conv3_1/dw/bn"
  type: "BatchNorm"
  bottom: "conv3_1/dw"
  top: "conv3_1/dw"
  batch_norm_param {
    use_global_stats: true
    eps: 1e-05
  }
}
layer {
  name: "conv3_1/dw/scale"
  type: "Scale"
  bottom: "conv3_1/dw"
  top: "conv3_1/dw"
  param {
    lr_mult: 1
    decay_mult: 0
  }
  param {
    lr_mult: 1
    decay_mult: 0
  }
  scale_param {
    filler {
      type: "constant"
      value: 1
    }
    bias_term: true
    bias_filler {
      type: "constant"
      value: 0
    }
  }
}
layer {
  name: "relu3_1/dw"
  type: "ReLU"
  bottom: "conv3_1/dw"
  top: "conv3_1/dw"
}
layer {
  name: "conv3_1/sep"
  type: "Convolution"
  bottom: "conv3_1/dw"
  top: "conv3_1/sep"
  param {
    lr_mult: 1
    decay_mult: 1
  }
  convolution_param {
    num_output: 128
    bias_term: false
    pad: 0
    kernel_size: 1
    stride: 1
    weight_filler {
      type: "msra"
    }
  }
}
layer {
  name: "conv3_1/sep/bn"
  type: "BatchNorm"
  bottom: "conv3_1/sep"
  top: "conv3_1/sep"
  batch_norm_param {
    use_global_stats: true
    eps: 1e-05
  }
}
layer {
  name: "conv3_1/sep/scale"
  type: "Scale"
  bottom: "conv3_1/sep"
  top: "conv3_1/sep"
  param {
    lr_mult: 1
    decay_mult: 0
  }
  param {
    lr_mult: 1
    decay_mult: 0
  }
  scale_param {
    filler {
      type: "constant"
      value: 1
    }
    bias_term: true
    bias_filler {
      type: "constant"
      value: 0
    }
  }
}
layer {
  name: "relu3_1/sep"
  type: "ReLU"
  bottom: "conv3_1/sep"
  top: "conv3_1/sep"
}
layer {
  name: "conv3_2/dw"
  type: "DepthwiseConvolution"
  bottom: "conv3_1/sep"
  top: "conv3_2/dw"
  param {
    lr_mult: 1
    decay_mult: 1
  }
  convolution_param {
    num_output: 128
    bias_term: false
    pad: 1
    kernel_size: 3
    group: 128
    stride: 2
    weight_filler {
      type: "msra"
    }
  }
}
layer {
  name: "conv3_2/dw/bn"
  type: "BatchNorm"
  bottom: "conv3_2/dw"
  top: "conv3_2/dw"
  batch_norm_param {
    use_global_stats: true
    eps: 1e-05
  }
}
layer {
  name: "conv3_2/dw/scale"
  type: "Scale"
  bottom: "conv3_2/dw"
  top: "conv3_2/dw"
  param {
    lr_mult: 1
    decay_mult: 0
  }
  param {
    lr_mult: 1
    decay_mult: 0
  }
  scale_param {
    filler {
      type: "constant"
      value: 1
    }
    bias_term: true
    bias_filler {
      type: "constant"
      value: 0
    }
  }
}
layer {
  name: "relu3_2/dw"
  type: "ReLU"
  bottom: "conv3_2/dw"
  top: "conv3_2/dw"
}
layer {
  name: "conv3_2/sep"
  type: "Convolution"
  bottom: "conv3_2/dw"
  top: "conv3_2/sep"
  param {
    lr_mult: 1
    decay_mult: 1
  }
  convolution_param {
    num_output: 256
    bias_term: false
    pad: 0
    kernel_size: 1
    stride: 1
    weight_filler {
      type: "msra"
    }
  }
}
layer {
  name: "conv3_2/sep/bn"
  type: "BatchNorm"
  bottom: "conv3_2/sep"
  top: "conv3_2/sep"
  batch_norm_param {
    use_global_stats: true
    eps: 1e-05
  }
}
layer {
  name: "conv3_2/sep/scale"
  type: "Scale"
  bottom: "conv3_2/sep"
  top: "conv3_2/sep"
  param {
    lr_mult: 1
    decay_mult: 0
  }
  param {
    lr_mult: 1
    decay_mult: 0
  }
  scale_param {
    filler {
      type: "constant"
      value: 1
    }
    bias_term: true
    bias_filler {
      type: "constant"
      value: 0
    }
  }
}
layer {
  name: "relu3_2/sep"
  type: "ReLU"
  bottom: "conv3_2/sep"
  top: "conv3_2/sep"
}
layer {
  name: "conv4_1/dw"
  type: "DepthwiseConvolution"
  bottom: "conv3_2/sep"
  top: "conv4_1/dw"
  param {
    lr_mult: 1
    decay_mult: 1
  }
  convolution_param {
    num_output: 256
    bias_term: false
    pad: 1
    kernel_size: 3
    group: 256
    stride: 1
    weight_filler {
      type: "msra"
    }
  }
}
layer {
  name: "conv4_1/dw/bn"
  type: "BatchNorm"
  bottom: "conv4_1/dw"
  top: "conv4_1/dw"
  batch_norm_param {
    use_global_stats: true
    eps: 1e-05
  }
}
layer {
  name: "conv4_1/dw/scale"
  type: "Scale"
  bottom: "conv4_1/dw"
  top: "conv4_1/dw"
  param {
    lr_mult: 1
    decay_mult: 0
  }
  param {
    lr_mult: 1
    decay_mult: 0
  }
  scale_param {
    filler {
      type: "constant"
      value: 1
    }
    bias_term: true
    bias_filler {
      type: "constant"
      value: 0
    }
  }
}
layer {
  name: "relu4_1/dw"
  type: "ReLU"
  bottom: "conv4_1/dw"
  top: "conv4_1/dw"
}
layer {
  name: "conv4_1/sep"
  type: "Convolution"
  bottom: "conv4_1/dw"
  top: "conv4_1/sep"
  param {
    lr_mult: 1
    decay_mult: 1
  }
  convolution_param {
    num_output: 256
    bias_term: false
    pad: 0
    kernel_size: 1
    stride: 1
    weight_filler {
      type: "msra"
    }
  }
}
layer {
  name: "conv4_1/sep/bn"
  type: "BatchNorm"
  bottom: "conv4_1/sep"
  top: "conv4_1/sep"
  batch_norm_param {
    use_global_stats: true
    eps: 1e-05
  }
}
layer {
  name: "conv4_1/sep/scale"
  type: "Scale"
  bottom: "conv4_1/sep"
  top: "conv4_1/sep"
  param {
    lr_mult: 1
    decay_mult: 0
  }
  param {
    lr_mult: 1
    decay_mult: 0
  }
  scale_param {
    filler {
      type: "constant"
      value: 1
    }
    bias_term: true
    bias_filler {
      type: "constant"
      value: 0
    }
  }
}
layer {
  name: "relu4_1/sep"
  type: "ReLU"
  bottom: "conv4_1/sep"
  top: "conv4_1/sep"
}
layer {
  name: "conv4_2/dw"
  type: "DepthwiseConvolution"
  bottom: "conv4_1/sep"
  top: "conv4_2/dw"
  param {
    lr_mult: 1
    decay_mult: 1
  }
  convolution_param {
    num_output: 256
    bias_term: false
    pad: 1
    kernel_size: 3
    group: 256
    stride: 2
    weight_filler {
      type: "msra"
    }
  }
}
layer {
  name: "conv4_2/dw/bn"
  type: "BatchNorm"
  bottom: "conv4_2/dw"
  top: "conv4_2/dw"
  batch_norm_param {
    use_global_stats: true
    eps: 1e-05
  }
}
layer {
  name: "conv4_2/dw/scale"
  type: "Scale"
  bottom: "conv4_2/dw"
  top: "conv4_2/dw"
  param {
    lr_mult: 1
    decay_mult: 0
  }
  param {
    lr_mult: 1
    decay_mult: 0
  }
  scale_param {
    filler {
      type: "constant"
      value: 1
    }
    bias_term: true
    bias_filler {
      type: "constant"
      value: 0
    }
  }
}
layer {
  name: "relu4_2/dw"
  type: "ReLU"
  bottom: "conv4_2/dw"
  top: "conv4_2/dw"
}
layer {
  name: "conv4_2/sep"
  type: "Convolution"
  bottom: "conv4_2/dw"
  top: "conv4_2/sep"
  param {
    lr_mult: 1
    decay_mult: 1
  }
  convolution_param {
    num_output: 512
    bias_term: false
    pad: 0
    kernel_size: 1
    stride: 1
    weight_filler {
      type: "msra"
    }
  }
}
layer {
  name: "conv4_2/sep/bn"
  type: "BatchNorm"
  bottom: "conv4_2/sep"
  top: "conv4_2/sep"
  batch_norm_param {
    use_global_stats: true
    eps: 1e-05
  }
}
layer {
  name: "conv4_2/sep/scale"
  type: "Scale"
  bottom: "conv4_2/sep"
  top: "conv4_2/sep"
  param {
    lr_mult: 1
    decay_mult: 0
  }
  param {
    lr_mult: 1
    decay_mult: 0
  }
  scale_param {
    filler {
      type: "constant"
      value: 1
    }
    bias_term: true
    bias_filler {
      type: "constant"
      value: 0
    }
  }
}
layer {
  name: "relu4_2/sep"
  type: "ReLU"
  bottom: "conv4_2/sep"
  top: "conv4_2/sep"
}
layer {
  name: "conv5_1/dw"
  type: "DepthwiseConvolution"
  bottom: "conv4_2/sep"
  top: "conv5_1/dw"
  param {
    lr_mult: 1
    decay_mult: 1
  }
  convolution_param {
    num_output: 512
    bias_term: false
    pad: 1
    kernel_size: 3
    group: 512
    stride: 1
    weight_filler {
      type: "msra"
    }
  }
}
layer {
  name: "conv5_1/dw/bn"
  type: "BatchNorm"
  bottom: "conv5_1/dw"
  top: "conv5_1/dw"
  batch_norm_param {
    use_global_stats: true
    eps: 1e-05
  }
}
layer {
  name: "conv5_1/dw/scale"
  type: "Scale"
  bottom: "conv5_1/dw"
  top: "conv5_1/dw"
  param {
    lr_mult: 1
    decay_mult: 0
  }
  param {
    lr_mult: 1
    decay_mult: 0
  }
  scale_param {
    filler {
      type: "constant"
      value: 1
    }
    bias_term: true
    bias_filler {
      type: "constant"
      value: 0
    }
  }
}
layer {
  name: "relu5_1/dw"
  type: "ReLU"
  bottom: "conv5_1/dw"
  top: "conv5_1/dw"
}
layer {
  name: "conv5_1/sep"
  type: "Convolution"
  bottom: "conv5_1/dw"
  top: "conv5_1/sep"
  param {
    lr_mult: 1
    decay_mult: 1
  }
  convolution_param {
    num_output: 512
    bias_term: false
    pad: 0
    kernel_size: 1
    stride: 1
    weight_filler {
      type: "msra"
    }
  }
}
layer {
  name: "conv5_1/sep/bn"
  type: "BatchNorm"
  bottom: "conv5_1/sep"
  top: "conv5_1/sep"
  batch_norm_param {
    use_global_stats: true
    eps: 1e-05
  }
}
layer {
  name: "conv5_1/sep/scale"
  type: "Scale"
  bottom: "conv5_1/sep"
  top: "conv5_1/sep"
  param {
    lr_mult: 1
    decay_mult: 0
  }
  param {
    lr_mult: 1
    decay_mult: 0
  }
  scale_param {
    filler {
      type: "constant"
      value: 1
    }
    bias_term: true
    bias_filler {
      type: "constant"
      value: 0
    }
  }
}
layer {
  name: "relu5_1/sep"
  type: "ReLU"
  bottom: "conv5_1/sep"
  top: "conv5_1/sep"
}
layer {
  name: "conv5_2/dw"
  type: "DepthwiseConvolution"
  bottom: "conv5_1/sep"
  top: "conv5_2/dw"
  param {
    lr_mult: 1
    decay_mult: 1
  }
  convolution_param {
    num_output: 512
    bias_term: false
    pad: 1
    kernel_size: 3
    group: 512
    stride: 1
    weight_filler {
      type: "msra"
    }
  }
}
layer {
  name: "conv5_2/dw/bn"
  type: "BatchNorm"
  bottom: "conv5_2/dw"
  top: "conv5_2/dw"
  batch_norm_param {
    use_global_stats: true
    eps: 1e-05
  }
}
layer {
  name: "conv5_2/dw/scale"
  type: "Scale"
  bottom: "conv5_2/dw"
  top: "conv5_2/dw"
  param {
    lr_mult: 1
    decay_mult: 0
  }
  param {
    lr_mult: 1
    decay_mult: 0
  }
  scale_param {
    filler {
      type: "constant"
      value: 1
    }
    bias_term: true
    bias_filler {
      type: "constant"
      value: 0
    }
  }
}
layer {
  name: "relu5_2/dw"
  type: "ReLU"
  bottom: "conv5_2/dw"
  top: "conv5_2/dw"
}
layer {
  name: "conv5_2/sep"
  type: "Convolution"
  bottom: "conv5_2/dw"
  top: "conv5_2/sep"
  param {
    lr_mult: 1
    decay_mult: 1
  }
  convolution_param {
    num_output: 512
    bias_term: false
    pad: 0
    kernel_size: 1
    stride: 1
    weight_filler {
      type: "msra"
    }
  }
}
layer {
  name: "conv5_2/sep/bn"
  type: "BatchNorm"
  bottom: "conv5_2/sep"
  top: "conv5_2/sep"
  batch_norm_param {
    use_global_stats: true
    eps: 1e-05
  }
}
layer {
  name: "conv5_2/sep/scale"
  type: "Scale"
  bottom: "conv5_2/sep"
  top: "conv5_2/sep"
  param {
    lr_mult: 1
    decay_mult: 0
  }
  param {
    lr_mult: 1
    decay_mult: 0
  }
  scale_param {
    filler {
      type: "constant"
      value: 1
    }
    bias_term: true
    bias_filler {
      type: "constant"
      value: 0
    }
  }
}
layer {
  name: "relu5_2/sep"
  type: "ReLU"
  bottom: "conv5_2/sep"
  top: "conv5_2/sep"
}
layer {
  name: "conv5_3/dw"
  type: "DepthwiseConvolution"
  bottom: "conv5_2/sep"
  top: "conv5_3/dw"
  param {
    lr_mult: 1
    decay_mult: 1
  }
  convolution_param {
    num_output: 512
    bias_term: false
    pad: 1
    kernel_size: 3
    group: 512
    stride: 1
    weight_filler {
      type: "msra"
    }
  }
}
layer {
  name: "conv5_3/dw/bn"
  type: "BatchNorm"
  bottom: "conv5_3/dw"
  top: "conv5_3/dw"
  batch_norm_param {
    use_global_stats: true
    eps: 1e-05
  }
}
layer {
  name: "conv5_3/dw/scale"
  type: "Scale"
  bottom: "conv5_3/dw"
  top: "conv5_3/dw"
  param {
    lr_mult: 1
    decay_mult: 0
  }
  param {
    lr_mult: 1
    decay_mult: 0
  }
  scale_param {
    filler {
      type: "constant"
      value: 1
    }
    bias_term: true
    bias_filler {
      type: "constant"
      value: 0
    }
  }
}
layer {
  name: "relu5_3/dw"
  type: "ReLU"
  bottom: "conv5_3/dw"
  top: "conv5_3/dw"
}
layer {
  name: "conv5_3/sep"
  type: "Convolution"
  bottom: "conv5_3/dw"
  top: "conv5_3/sep"
  param {
    lr_mult: 1
    decay_mult: 1
  }
  convolution_param {
    num_output: 512
    bias_term: false
    pad: 0
    kernel_size: 1
    stride: 1
    weight_filler {
      type: "msra"
    }
  }
}
layer {
  name: "conv5_3/sep/bn"
  type: "BatchNorm"
  bottom: "conv5_3/sep"
  top: "conv5_3/sep"
  batch_norm_param {
    use_global_stats: true
    eps: 1e-05
  }
}
layer {
  name: "conv5_3/sep/scale"
  type: "Scale"
  bottom: "conv5_3/sep"
  top: "conv5_3/sep"
  param {
    lr_mult: 1
    decay_mult: 0
  }
  param {
    lr_mult: 1
    decay_mult: 0
  }
  scale_param {
    filler {
      type: "constant"
      value: 1
    }
    bias_term: true
    bias_filler {
      type: "constant"
      value: 0
    }
  }
}
layer {
  name: "relu5_3/sep"
  type: "ReLU"
  bottom: "conv5_3/sep"
  top: "conv5_3/sep"
}
layer {
  name: "conv5_4/dw"
  type: "DepthwiseConvolution"
  bottom: "conv5_3/sep"
  top: "conv5_4/dw"
  param {
    lr_mult: 1
    decay_mult: 1
  }
  convolution_param {
    num_output: 512
    bias_term: false
    pad: 1
    kernel_size: 3
    group: 512
    stride: 1
    weight_filler {
      type: "msra"
    }
  }
}
layer {
  name: "conv5_4/dw/bn"
  type: "BatchNorm"
  bottom: "conv5_4/dw"
  top: "conv5_4/dw"
  batch_norm_param {
    use_global_stats: true
    eps: 1e-05
  }
}
layer {
  name: "conv5_4/dw/scale"
  type: "Scale"
  bottom: "conv5_4/dw"
  top: "conv5_4/dw"
  param {
    lr_mult: 1
    decay_mult: 0
  }
  param {
    lr_mult: 1
    decay_mult: 0
  }
  scale_param {
    filler {
      type: "constant"
      value: 1
    }
    bias_term: true
    bias_filler {
      type: "constant"
      value: 0
    }
  }
}
layer {
  name: "relu5_4/dw"
  type: "ReLU"
  bottom: "conv5_4/dw"
  top: "conv5_4/dw"
}
layer {
  name: "conv5_4/sep"
  type: "Convolution"
  bottom: "conv5_4/dw"
  top: "conv5_4/sep"
  param {
    lr_mult: 1
    decay_mult: 1
  }
  convolution_param {
    num_output: 512
    bias_term: false
    pad: 0
    kernel_size: 1
    stride: 1
    weight_filler {
      type: "msra"
    }
  }
}
layer {
  name: "conv5_4/sep/bn"
  type: "BatchNorm"
  bottom: "conv5_4/sep"
  top: "conv5_4/sep"
  batch_norm_param {
    use_global_stats: true
    eps: 1e-05
  }
}
layer {
  name: "conv5_4/sep/scale"
  type: "Scale"
  bottom: "conv5_4/sep"
  top: "conv5_4/sep"
  param {
    lr_mult: 1
    decay_mult: 0
  }
  param {
    lr_mult: 1
    decay_mult: 0
  }
  scale_param {
    filler {
      type: "constant"
      value: 1
    }
    bias_term: true
    bias_filler {
      type: "constant"
      value: 0
    }
  }
}
layer {
  name: "relu5_4/sep"
  type: "ReLU"
  bottom: "conv5_4/sep"
  top: "conv5_4/sep"
}
layer {
  name: "conv5_5/dw"
  type: "DepthwiseConvolution"
  bottom: "conv5_4/sep"
  top: "conv5_5/dw"
  param {
    lr_mult: 1
    decay_mult: 1
  }
  convolution_param {
    num_output: 512
    bias_term: false
    pad: 1
    kernel_size: 3
    group: 512
    stride: 1
    weight_filler {
      type: "msra"
    }
  }
}
layer {
  name: "conv5_5/dw/bn"
  type: "BatchNorm"
  bottom: "conv5_5/dw"
  top: "conv5_5/dw"
  batch_norm_param {
    use_global_stats: true
    eps: 1e-05
  }
}
layer {
  name: "conv5_5/dw/scale"
  type: "Scale"
  bottom: "conv5_5/dw"
…
I0929 13:08:07.941175 23239 layer_factory.hpp:77] Creating layer conv5_6/sep/scale
I0929 13:08:07.941181 23239 net.cpp:100] Creating Layer conv5_6/sep/scale
I0929 13:08:07.941184 23239 net.cpp:434] conv5_6/sep/scale <- conv5_6/sep
I0929 13:08:07.941186 23239 net.cpp:395] conv5_6/sep/scale -> conv5_6/sep (in-place)
I0929 13:08:07.941218 23239 layer_factory.hpp:77] Creating layer conv5_6/sep/scale
I0929 13:08:07.941314 23239 net.cpp:150] Setting up conv5_6/sep/scale
I0929 13:08:07.941319 23239 net.cpp:157] Top shape: 1 1024 10 16 (163840)
I0929 13:08:07.941321 23239 net.cpp:165] Memory required for data: 259747616
I0929 13:08:07.941324 23239 layer_factory.hpp:77] Creating layer relu5_6/sep
I0929 13:08:07.941329 23239 net.cpp:100] Creating Layer relu5_6/sep
I0929 13:08:07.941330 23239 net.cpp:434] relu5_6/sep <- conv5_6/sep
I0929 13:08:07.941332 23239 net.cpp:395] relu5_6/sep -> conv5_6/sep (in-place)
I0929 13:08:07.941643 23239 net.cpp:150] Setting up relu5_6/sep
I0929 13:08:07.941651 23239 net.cpp:157] Top shape: 1 1024 10 16 (163840)
I0929 13:08:07.941653 23239 net.cpp:165] Memory required for data: 260402976
I0929 13:08:07.941655 23239 layer_factory.hpp:77] Creating layer conv6/dw
I0929 13:08:07.941660 23239 net.cpp:100] Creating Layer conv6/dw
I0929 13:08:07.941663 23239 net.cpp:434] conv6/dw <- conv5_6/sep
I0929 13:08:07.941666 23239 net.cpp:408] conv6/dw -> conv6/dw
I0929 13:08:07.941895 23239 net.cpp:150] Setting up conv6/dw
I0929 13:08:07.941900 23239 net.cpp:157] Top shape: 1 1024 10 16 (163840)
I0929 13:08:07.941902 23239 net.cpp:165] Memory required for data: 261058336
I0929 13:08:07.941905 23239 layer_factory.hpp:77] Creating layer conv6/dw/bn
I0929 13:08:07.941908 23239 net.cpp:100] Creating Layer conv6/dw/bn
I0929 13:08:07.941910 23239 net.cpp:434] conv6/dw/bn <- conv6/dw
I0929 13:08:07.941912 23239 net.cpp:395] conv6/dw/bn -> conv6/dw (in-place)
I0929 13:08:07.942073 23239 net.cpp:150] Setting up conv6/dw/bn
I0929 13:08:07.942077 23239 net.cpp:157] Top shape: 1 1024 10 16 (163840)
I0929 13:08:07.942080 23239 net.cpp:165] Memory required for data: 261713696
I0929 13:08:07.942083 23239 layer_factory.hpp:77] Creating layer conv6/dw/scale
I0929 13:08:07.942087 23239 net.cpp:100] Creating Layer conv6/dw/scale
I0929 13:08:07.942090 23239 net.cpp:434] conv6/dw/scale <- conv6/dw
I0929 13:08:07.942092 23239 net.cpp:395] conv6/dw/scale -> conv6/dw (in-place)
I0929 13:08:07.942121 23239 layer_factory.hpp:77] Creating layer conv6/dw/scale
I0929 13:08:07.942214 23239 net.cpp:150] Setting up conv6/dw/scale
I0929 13:08:07.942217 23239 net.cpp:157] Top shape: 1 1024 10 16 (163840)
I0929 13:08:07.942219 23239 net.cpp:165] Memory required for data: 262369056
I0929 13:08:07.942224 23239 layer_factory.hpp:77] Creating layer relu6/dw
I0929 13:08:07.942227 23239 net.cpp:100] Creating Layer relu6/dw
I0929 13:08:07.942229 23239 net.cpp:434] relu6/dw <- conv6/dw
I0929 13:08:07.942231 23239 net.cpp:395] relu6/dw -> conv6/dw (in-place)
I0929 13:08:07.942549 23239 net.cpp:150] Setting up relu6/dw
I0929 13:08:07.942555 23239 net.cpp:157] Top shape: 1 1024 10 16 (163840)
I0929 13:08:07.942557 23239 net.cpp:165] Memory required for data: 263024416
I0929 13:08:07.942559 23239 layer_factory.hpp:77] Creating layer conv6/sep
I0929 13:08:07.942564 23239 net.cpp:100] Creating Layer conv6/sep
I0929 13:08:07.942566 23239 net.cpp:434] conv6/sep <- conv6/dw
I0929 13:08:07.942570 23239 net.cpp:408] conv6/sep -> conv6/sep
I0929 13:08:07.951068 23239 net.cpp:150] Setting up conv6/sep
I0929 13:08:07.951083 23239 net.cpp:157] Top shape: 1 1024 10 16 (163840)
I0929 13:08:07.951086 23239 net.cpp:165] Memory required for data: 263679776
I0929 13:08:07.951092 23239 layer_factory.hpp:77] Creating layer conv6/sep/bn
I0929 13:08:07.951097 23239 net.cpp:100] Creating Layer conv6/sep/bn
I0929 13:08:07.951100 23239 net.cpp:434] conv6/sep/bn <- conv6/sep
I0929 13:08:07.951105 23239 net.cpp:395] conv6/sep/bn -> conv6/sep (in-place)
I0929 13:08:07.951285 23239 net.cpp:150] Setting up conv6/sep/bn
I0929 13:08:07.951289 23239 net.cpp:157] Top shape: 1 1024 10 16 (163840)
I0929 13:08:07.951292 23239 net.cpp:165] Memory required for data: 264335136
I0929 13:08:07.951295 23239 layer_factory.hpp:77] Creating layer conv6/sep/scale
I0929 13:08:07.951300 23239 net.cpp:100] Creating Layer conv6/sep/scale
I0929 13:08:07.951303 23239 net.cpp:434] conv6/sep/scale <- conv6/sep
I0929 13:08:07.951308 23239 net.cpp:395] conv6/sep/scale -> conv6/sep (in-place)
I0929 13:08:07.951337 23239 layer_factory.hpp:77] Creating layer conv6/sep/scale
I0929 13:08:07.951431 23239 net.cpp:150] Setting up conv6/sep/scale
I0929 13:08:07.951434 23239 net.cpp:157] Top shape: 1 1024 10 16 (163840)
I0929 13:08:07.951436 23239 net.cpp:165] Memory required for data: 264990496
I0929 13:08:07.951439 23239 layer_factory.hpp:77] Creating layer relu6/sep
I0929 13:08:07.951442 23239 net.cpp:100] Creating Layer relu6/sep
I0929 13:08:07.951444 23239 net.cpp:434] relu6/sep <- conv6/sep
I0929 13:08:07.951449 23239 net.cpp:395] relu6/sep -> conv6/sep (in-place)
I0929 13:08:07.951751 23239 net.cpp:150] Setting up relu6/sep
I0929 13:08:07.951757 23239 net.cpp:157] Top shape: 1 1024 10 16 (163840)
I0929 13:08:07.951758 23239 net.cpp:165] Memory required for data: 265645856
I0929 13:08:07.951761 23239 layer_factory.hpp:77] Creating layer conv6/sep_relu6/sep_0_split
I0929 13:08:07.951766 23239 net.cpp:100] Creating Layer conv6/sep_relu6/sep_0_split
I0929 13:08:07.951767 23239 net.cpp:434] conv6/sep_relu6/sep_0_split <- conv6/sep
I0929 13:08:07.951771 23239 net.cpp:408] conv6/sep_relu6/sep_0_split -> conv6/sep_relu6/sep_0_split_0
I0929 13:08:07.951776 23239 net.cpp:408] conv6/sep_relu6/sep_0_split -> conv6/sep_relu6/sep_0_split_1
I0929 13:08:07.951781 23239 net.cpp:408] conv6/sep_relu6/sep_0_split -> conv6/sep_relu6/sep_0_split_2
I0929 13:08:07.951784 23239 net.cpp:408] conv6/sep_relu6/sep_0_split -> conv6/sep_relu6/sep_0_split_3
I0929 13:08:07.951841 23239 net.cpp:150] Setting up conv6/sep_relu6/sep_0_split
I0929 13:08:07.951845 23239 net.cpp:157] Top shape: 1 1024 10 16 (163840)
I0929 13:08:07.951848 23239 net.cpp:157] Top shape: 1 1024 10 16 (163840)
I0929 13:08:07.951849 23239 net.cpp:157] Top shape: 1 1024 10 16 (163840)
I0929 13:08:07.951851 23239 net.cpp:157] Top shape: 1 1024 10 16 (163840)
I0929 13:08:07.951854 23239 net.cpp:165] Memory required for data: 268267296
I0929 13:08:07.951856 23239 layer_factory.hpp:77] Creating layer ssd1_1
I0929 13:08:07.951862 23239 net.cpp:100] Creating Layer ssd1_1
I0929 13:08:07.951865 23239 net.cpp:434] ssd1_1 <- conv6/sep_relu6/sep_0_split_0
I0929 13:08:07.951869 23239 net.cpp:408] ssd1_1 -> ssd1_1
I0929 13:08:07.954480 23239 net.cpp:150] Setting up ssd1_1
I0929 13:08:07.954490 23239 net.cpp:157] Top shape: 1 256 10 16 (40960)
I0929 13:08:07.954493 23239 net.cpp:165] Memory required for data: 268431136
I0929 13:08:07.954497 23239 layer_factory.hpp:77] Creating layer ssd1_1_relu
I0929 13:08:07.954501 23239 net.cpp:100] Creating Layer ssd1_1_relu
I0929 13:08:07.954515 23239 net.cpp:434] ssd1_1_relu <- ssd1_1
I0929 13:08:07.954520 23239 net.cpp:395] ssd1_1_relu -> ssd1_1 (in-place)
I0929 13:08:07.954932 23239 net.cpp:150] Setting up ssd1_1_relu
I0929 13:08:07.954939 23239 net.cpp:157] Top shape: 1 256 10 16 (40960)
I0929 13:08:07.954941 23239 net.cpp:165] Memory required for data: 268594976
I0929 13:08:07.954943 23239 layer_factory.hpp:77] Creating layer ssd1_2
I0929 13:08:07.954952 23239 net.cpp:100] Creating Layer ssd1_2
I0929 13:08:07.954953 23239 net.cpp:434] ssd1_2 <- ssd1_1
I0929 13:08:07.954958 23239 net.cpp:408] ssd1_2 -> ssd1_2
I0929 13:08:07.960878 23239 net.cpp:150] Setting up ssd1_2
I0929 13:08:07.960894 23239 net.cpp:157] Top shape: 1 512 5 8 (20480)
I0929 13:08:07.960896 23239 net.cpp:165] Memory required for data: 268676896
I0929 13:08:07.960903 23239 layer_factory.hpp:77] Creating layer ssd1_2_relu
I0929 13:08:07.960908 23239 net.cpp:100] Creating Layer ssd1_2_relu
I0929 13:08:07.960912 23239 net.cpp:434] ssd1_2_relu <- ssd1_2
I0929 13:08:07.960916 23239 net.cpp:395] ssd1_2_relu -> ssd1_2 (in-place)
I0929 13:08:07.961215 23239 net.cpp:150] Setting up ssd1_2_relu
I0929 13:08:07.961221 23239 net.cpp:157] Top shape: 1 512 5 8 (20480)
I0929 13:08:07.961225 23239 net.cpp:165] Memory required for data: 268758816
I0929 13:08:07.961226 23239 layer_factory.hpp:77] Creating layer ssd1_2_ssd1_2_relu_0_split
I0929 13:08:07.961231 23239 net.cpp:100] Creating Layer ssd1_2_ssd1_2_relu_0_split
I0929 13:08:07.961233 23239 net.cpp:434] ssd1_2_ssd1_2_relu_0_split <- ssd1_2
I0929 13:08:07.961237 23239 net.cpp:408] ssd1_2_ssd1_2_relu_0_split -> ssd1_2_ssd1_2_relu_0_split_0
I0929 13:08:07.961241 23239 net.cpp:408] ssd1_2_ssd1_2_relu_0_split -> ssd1_2_ssd1_2_relu_0_split_1
I0929 13:08:07.961246 23239 net.cpp:408] ssd1_2_ssd1_2_relu_0_split -> ssd1_2_ssd1_2_relu_0_split_2
I0929 13:08:07.961251 23239 net.cpp:408] ssd1_2_ssd1_2_relu_0_split -> ssd1_2_ssd1_2_relu_0_split_3
I0929 13:08:07.961307 23239 net.cpp:150] Setting up ssd1_2_ssd1_2_relu_0_split
I0929 13:08:07.961310 23239 net.cpp:157] Top shape: 1 512 5 8 (20480)
I0929 13:08:07.961313 23239 net.cpp:157] Top shape: 1 512 5 8 (20480)
I0929 13:08:07.961315 23239 net.cpp:157] Top shape: 1 512 5 8 (20480)
I0929 13:08:07.961318 23239 net.cpp:157] Top shape: 1 512 5 8 (20480)
I0929 13:08:07.961319 23239 net.cpp:165] Memory required for data: 269086496
I0929 13:08:07.961321 23239 layer_factory.hpp:77] Creating layer ssd2_1
I0929 13:08:07.961328 23239 net.cpp:100] Creating Layer ssd2_1
I0929 13:08:07.961331 23239 net.cpp:434] ssd2_1 <- ssd1_2_ssd1_2_relu_0_split_0
I0929 13:08:07.961334 23239 net.cpp:408] ssd2_1 -> ssd2_1
I0929 13:08:07.962762 23239 net.cpp:150] Setting up ssd2_1
I0929 13:08:07.962769 23239 net.cpp:157] Top shape: 1 128 5 8 (5120)
I0929 13:08:07.962771 23239 net.cpp:165] Memory required for data: 269106976
I0929 13:08:07.962775 23239 layer_factory.hpp:77] Creating layer ssd2_1_relu
I0929 13:08:07.962780 23239 net.cpp:100] Creating Layer ssd2_1_relu
I0929 13:08:07.962783 23239 net.cpp:434] ssd2_1_relu <- ssd2_1
I0929 13:08:07.962786 23239 net.cpp:395] ssd2_1_relu -> ssd2_1 (in-place)
I0929 13:08:07.963202 23239 net.cpp:150] Setting up ssd2_1_relu
I0929 13:08:07.963209 23239 net.cpp:157] Top shape: 1 128 5 8 (5120)
I0929 13:08:07.963212 23239 net.cpp:165] Memory required for data: 269127456
I0929 13:08:07.963213 23239 layer_factory.hpp:77] Creating layer ssd2_2
I0929 13:08:07.963220 23239 net.cpp:100] Creating Layer ssd2_2
I0929 13:08:07.963222 23239 net.cpp:434] ssd2_2 <- ssd2_1
I0929 13:08:07.963227 23239 net.cpp:408] ssd2_2 -> ssd2_2
I0929 13:08:07.966035 23239 net.cpp:150] Setting up ssd2_2
I0929 13:08:07.966045 23239 net.cpp:157] Top shape: 1 256 3 4 (3072)
I0929 13:08:07.966048 23239 net.cpp:165] Memory required for data: 269139744
I0929 13:08:07.966051 23239 layer_factory.hpp:77] Creating layer ssd2_2_relu
I0929 13:08:07.966058 23239 net.cpp:100] Creating Layer ssd2_2_relu
I0929 13:08:07.966060 23239 net.cpp:434] ssd2_2_relu <- ssd2_2
I0929 13:08:07.966063 23239 net.cpp:395] ssd2_2_relu -> ssd2_2 (in-place)
I0929 13:08:07.966372 23239 net.cpp:150] Setting up ssd2_2_relu
I0929 13:08:07.966378 23239 net.cpp:157] Top shape: 1 256 3 4 (3072)
I0929 13:08:07.966380 23239 net.cpp:165] Memory required for data: 269152032
I0929 13:08:07.966382 23239 layer_factory.hpp:77] Creating layer ssd2_2_ssd2_2_relu_0_split
I0929 13:08:07.966387 23239 net.cpp:100] Creating Layer ssd2_2_ssd2_2_relu_0_split
I0929 13:08:07.966389 23239 net.cpp:434] ssd2_2_ssd2_2_relu_0_split <- ssd2_2
I0929 13:08:07.966393 23239 net.cpp:408] ssd2_2_ssd2_2_relu_0_split -> ssd2_2_ssd2_2_relu_0_split_0
I0929 13:08:07.966398 23239 net.cpp:408] ssd2_2_ssd2_2_relu_0_split -> ssd2_2_ssd2_2_relu_0_split_1
I0929 13:08:07.966401 23239 net.cpp:408] ssd2_2_ssd2_2_relu_0_split -> ssd2_2_ssd2_2_relu_0_split_2
I0929 13:08:07.966406 23239 net.cpp:408] ssd2_2_ssd2_2_relu_0_split -> ssd2_2_ssd2_2_relu_0_split_3
I0929 13:08:07.966464 23239 net.cpp:150] Setting up ssd2_2_ssd2_2_relu_0_split
I0929 13:08:07.966466 23239 net.cpp:157] Top shape: 1 256 3 4 (3072)
I0929 13:08:07.966470 23239 net.cpp:157] Top shape: 1 256 3 4 (3072)
I0929 13:08:07.966471 23239 net.cpp:157] Top shape: 1 256 3 4 (3072)
I0929 13:08:07.966473 23239 net.cpp:157] Top shape: 1 256 3 4 (3072)
I0929 13:08:07.966475 23239 net.cpp:165] Memory required for data: 269201184
I0929 13:08:07.966477 23239 layer_factory.hpp:77] Creating layer ssd3_1
I0929 13:08:07.966483 23239 net.cpp:100] Creating Layer ssd3_1
I0929 13:08:07.966485 23239 net.cpp:434] ssd3_1 <- ssd2_2_ssd2_2_relu_0_split_0
I0929 13:08:07.966490 23239 net.cpp:408] ssd3_1 -> ssd3_1
I0929 13:08:07.967926 23239 net.cpp:150] Setting up ssd3_1
I0929 13:08:07.967934 23239 net.cpp:157] Top shape: 1 128 3 4 (1536)
I0929 13:08:07.967936 23239 net.cpp:165] Memory required for data: 269207328
I0929 13:08:07.967941 23239 layer_factory.hpp:77] Creating layer ssd3_1_relu
I0929 13:08:07.967944 23239 net.cpp:100] Creating Layer ssd3_1_relu
I0929 13:08:07.967947 23239 net.cpp:434] ssd3_1_relu <- ssd3_1
I0929 13:08:07.967950 23239 net.cpp:395] ssd3_1_relu -> ssd3_1 (in-place)
I0929 13:08:07.968246 23239 net.cpp:150] Setting up ssd3_1_relu
I0929 13:08:07.968251 23239 net.cpp:157] Top shape: 1 128 3 4 (1536)
I0929 13:08:07.968255 23239 net.cpp:165] Memory required for data: 269213472
I0929 13:08:07.968256 23239 layer_factory.hpp:77] Creating layer ssd3_2
I0929 13:08:07.968261 23239 net.cpp:100] Creating Layer ssd3_2
I0929 13:08:07.968264 23239 net.cpp:434] ssd3_2 <- ssd3_1
I0929 13:08:07.968269 23239 net.cpp:408] ssd3_2 -> ssd3_2
I0929 13:08:07.970868 23239 net.cpp:150] Setting up ssd3_2
I0929 13:08:07.970877 23239 net.cpp:157] Top shape: 1 256 2 2 (1024)
I0929 13:08:07.970892 23239 net.cpp:165] Memory required for data: 269217568
I0929 13:08:07.970898 23239 layer_factory.hpp:77] Creating layer ssd3_2_relu
I0929 13:08:07.970903 23239 net.cpp:100] Creating Layer ssd3_2_relu
I0929 13:08:07.970906 23239 net.cpp:434] ssd3_2_relu <- ssd3_2
I0929 13:08:07.970909 23239 net.cpp:395] ssd3_2_relu -> ssd3_2 (in-place)
I0929 13:08:07.971318 23239 net.cpp:150] Setting up ssd3_2_relu
I0929 13:08:07.971324 23239 net.cpp:157] Top shape: 1 256 2 2 (1024)
I0929 13:08:07.971328 23239 net.cpp:165] Memory required for data: 269221664
I0929 13:08:07.971329 23239 layer_factory.hpp:77] Creating layer ssd3_2_ssd3_2_relu_0_split
I0929 13:08:07.971334 23239 net.cpp:100] Creating Layer ssd3_2_ssd3_2_relu_0_split
I0929 13:08:07.971336 23239 net.cpp:434] ssd3_2_ssd3_2_relu_0_split <- ssd3_2
I0929 13:08:07.971340 23239 net.cpp:408] ssd3_2_ssd3_2_relu_0_split -> ssd3_2_ssd3_2_relu_0_split_0
I0929 13:08:07.971345 23239 net.cpp:408] ssd3_2_ssd3_2_relu_0_split -> ssd3_2_ssd3_2_relu_0_split_1
I0929 13:08:07.971349 23239 net.cpp:408] ssd3_2_ssd3_2_relu_0_split -> ssd3_2_ssd3_2_relu_0_split_2
I0929 13:08:07.971354 23239 net.cpp:408] ssd3_2_ssd3_2_relu_0_split -> ssd3_2_ssd3_2_relu_0_split_3
I0929 13:08:07.971410 23239 net.cpp:150] Setting up ssd3_2_ssd3_2_relu_0_split
I0929 13:08:07.971415 23239 net.cpp:157] Top shape: 1 256 2 2 (1024)
I0929 13:08:07.971416 23239 net.cpp:157] Top shape: 1 256 2 2 (1024)
I0929 13:08:07.971419 23239 net.cpp:157] Top shape: 1 256 2 2 (1024)
I0929 13:08:07.971431 23239 net.cpp:157] Top shape: 1 256 2 2 (1024)
I0929 13:08:07.971432 23239 net.cpp:165] Memory required for data: 269238048
I0929 13:08:07.971436 23239 layer_factory.hpp:77] Creating layer ssd4_1
I0929 13:08:07.971441 23239 net.cpp:100] Creating Layer ssd4_1
I0929 13:08:07.971444 23239 net.cpp:434] ssd4_1 <- ssd3_2_ssd3_2_relu_0_split_0
I0929 13:08:07.971448 23239 net.cpp:408] ssd4_1 -> ssd4_1
I0929 13:08:07.972874 23239 net.cpp:150] Setting up ssd4_1
I0929 13:08:07.972882 23239 net.cpp:157] Top shape: 1 128 2 2 (512)
I0929 13:08:07.972883 23239 net.cpp:165] Memory required for data: 269240096
I0929 13:08:07.972887 23239 layer_factory.hpp:77] Creating layer ssd4_1_relu
I0929 13:08:07.972901 23239 net.cpp:100] Creating Layer ssd4_1_relu
I0929 13:08:07.972904 23239 net.cpp:434] ssd4_1_relu <- ssd4_1
I0929 13:08:07.972908 23239 net.cpp:395] ssd4_1_relu -> ssd4_1 (in-place)
I0929 13:08:07.973208 23239 net.cpp:150] Setting up ssd4_1_relu
I0929 13:08:07.973214 23239 net.cpp:157] Top shape: 1 128 2 2 (512)
I0929 13:08:07.973217 23239 net.cpp:165] Memory required for data: 269242144
I0929 13:08:07.973218 23239 layer_factory.hpp:77] Creating layer ssd4_2
I0929 13:08:07.973224 23239 net.cpp:100] Creating Layer ssd4_2
I0929 13:08:07.973227 23239 net.cpp:434] ssd4_2 <- ssd4_1
I0929 13:08:07.973230 23239 net.cpp:408] ssd4_2 -> ssd4_2
I0929 13:08:07.976013 23239 net.cpp:150] Setting up ssd4_2
I0929 13:08:07.976025 23239 net.cpp:157] Top shape: 1 256 1 1 (256)
I0929 13:08:07.976028 23239 net.cpp:165] Memory required for data: 269243168
I0929 13:08:07.976033 23239 layer_factory.hpp:77] Creating layer ssd4_2_relu
I0929 13:08:07.976038 23239 net.cpp:100] Creating Layer ssd4_2_relu
I0929 13:08:07.976042 23239 net.cpp:434] ssd4_2_relu <- ssd4_2
I0929 13:08:07.976045 23239 net.cpp:395] ssd4_2_relu -> ssd4_2 (in-place)
I0929 13:08:07.976455 23239 net.cpp:150] Setting up ssd4_2_relu
I0929 13:08:07.976462 23239 net.cpp:157] Top shape: 1 256 1 1 (256)
I0929 13:08:07.976464 23239 net.cpp:165] Memory required for data: 269244192
I0929 13:08:07.976466 23239 layer_factory.hpp:77] Creating layer ssd4_2_ssd4_2_relu_0_split
I0929 13:08:07.976471 23239 net.cpp:100] Creating Layer ssd4_2_ssd4_2_relu_0_split
I0929 13:08:07.976475 23239 net.cpp:434] ssd4_2_ssd4_2_relu_0_split <- ssd4_2
I0929 13:08:07.976477 23239 net.cpp:408] ssd4_2_ssd4_2_relu_0_split -> ssd4_2_ssd4_2_relu_0_split_0
I0929 13:08:07.976482 23239 net.cpp:408] ssd4_2_ssd4_2_relu_0_split -> ssd4_2_ssd4_2_relu_0_split_1
I0929 13:08:07.976486 23239 net.cpp:408] ssd4_2_ssd4_2_relu_0_split -> ssd4_2_ssd4_2_relu_0_split_2
I0929 13:08:07.976542 23239 net.cpp:150] Setting up ssd4_2_ssd4_2_relu_0_split
I0929 13:08:07.976547 23239 net.cpp:157] Top shape: 1 256 1 1 (256)
I0929 13:08:07.976548 23239 net.cpp:157] Top shape: 1 256 1 1 (256)
I0929 13:08:07.976552 23239 net.cpp:157] Top shape: 1 256 1 1 (256)
I0929 13:08:07.976553 23239 net.cpp:165] Memory required for data: 269247264
I0929 13:08:07.976555 23239 layer_factory.hpp:77] Creating layer conv5_5/sep_norm
I0929 13:08:07.976560 23239 net.cpp:100] Creating Layer conv5_5/sep_norm
I0929 13:08:07.976562 23239 net.cpp:434] conv5_5/sep_norm <- conv5_5/sep_relu5_5/sep_0_split_1
I0929 13:08:07.976567 23239 net.cpp:408] conv5_5/sep_norm -> conv5_5/sep_norm
I0929 13:08:07.976704 23239 net.cpp:150] Setting up conv5_5/sep_norm
I0929 13:08:07.976709 23239 net.cpp:157] Top shape: 1 512 19 32 (311296)
I0929 13:08:07.976711 23239 net.cpp:165] Memory required for data: 270492448
I0929 13:08:07.976713 23239 layer_factory.hpp:77] Creating layer conv5_5/sep_norm_conv5_5/sep_norm_0_split
I0929 13:08:07.976717 23239 net.cpp:100] Creating Layer conv5_5/sep_norm_conv5_5/sep_norm_0_split
I0929 13:08:07.976721 23239 net.cpp:434] conv5_5/sep_norm_conv5_5/sep_norm_0_split <- conv5_5/sep_norm
I0929 13:08:07.976723 23239 net.cpp:408] conv5_5/sep_norm_conv5_5/sep_norm_0_split -> conv5_5/sep_norm_conv5_5/sep_norm_0_split_0
I0929 13:08:07.976728 23239 net.cpp:408] conv5_5/sep_norm_conv5_5/sep_norm_0_split -> conv5_5/sep_norm_conv5_5/sep_norm_0_split_1
I0929 13:08:07.976742 23239 net.cpp:408] conv5_5/sep_norm_conv5_5/sep_norm_0_split -> conv5_5/sep_norm_conv5_5/sep_norm_0_split_2
I0929 13:08:07.976785 23239 net.cpp:150] Setting up conv5_5/sep_norm_conv5_5/sep_norm_0_split
I0929 13:08:07.976789 23239 net.cpp:157] Top shape: 1 512 19 32 (311296)
I0929 13:08:07.976791 23239 net.cpp:157] Top shape: 1 512 19 32 (311296)
I0929 13:08:07.976794 23239 net.cpp:157] Top shape: 1 512 19 32 (311296)
I0929 13:08:07.976797 23239 net.cpp:165] Memory required for data: 274228000
I0929 13:08:07.976799 23239 layer_factory.hpp:77] Creating layer conv5_5/sep_norm_mbox_loc
I0929 13:08:07.976805 23239 net.cpp:100] Creating Layer conv5_5/sep_norm_mbox_loc
I0929 13:08:07.976807 23239 net.cpp:434] conv5_5/sep_norm_mbox_loc <- conv5_5/sep_norm_conv5_5/sep_norm_0_split_0
I0929 13:08:07.976812 23239 net.cpp:408] conv5_5/sep_norm_mbox_loc -> conv5_5/sep_norm_mbox_loc
I0929 13:08:07.978287 23239 net.cpp:150] Setting up conv5_5/sep_norm_mbox_loc
I0929 13:08:07.978294 23239 net.cpp:157] Top shape: 1 8 19 32 (4864)
I0929 13:08:07.978297 23239 net.cpp:165] Memory required for data: 274247456
I0929 13:08:07.978302 23239 layer_factory.hpp:77] Creating layer conv5_5/sep_norm_mbox_loc_perm
I0929 13:08:07.978307 23239 net.cpp:100] Creating Layer conv5_5/sep_norm_mbox_loc_perm
I0929 13:08:07.978309 23239 net.cpp:434] conv5_5/sep_norm_mbox_loc_perm <- conv5_5/sep_norm_mbox_loc
I0929 13:08:07.978313 23239 net.cpp:408] conv5_5/sep_norm_mbox_loc_perm -> conv5_5/sep_norm_mbox_loc_perm
I0929 13:08:07.978408 23239 net.cpp:150] Setting up conv5_5/sep_norm_mbox_loc_perm
I0929 13:08:07.978413 23239 net.cpp:157] Top shape: 1 19 32 8 (4864)
I0929 13:08:07.978415 23239 net.cpp:165] Memory required for data: 274266912
I0929 13:08:07.978416 23239 layer_factory.hpp:77] Creating layer conv5_5/sep_norm_mbox_loc_flat
I0929 13:08:07.978420 23239 net.cpp:100] Creating Layer conv5_5/sep_norm_mbox_loc_flat
I0929 13:08:07.978422 23239 net.cpp:434] conv5_5/sep_norm_mbox_loc_flat <- conv5_5/sep_norm_mbox_loc_perm
I0929 13:08:07.978426 23239 net.cpp:408] conv5_5/sep_norm_mbox_loc_flat -> conv5_5/sep_norm_mbox_loc_flat
I0929 13:08:07.978446 23239 net.cpp:150] Setting up conv5_5/sep_norm_mbox_loc_flat
I0929 13:08:07.978449 23239 net.cpp:157] Top shape: 1 4864 (4864)
I0929 13:08:07.978451 23239 net.cpp:165] Memory required for data: 274286368
I0929 13:08:07.978453 23239 layer_factory.hpp:77] Creating layer conv5_5/sep_norm_mbox_conf
I0929 13:08:07.978458 23239 net.cpp:100] Creating Layer conv5_5/sep_norm_mbox_conf
I0929 13:08:07.978461 23239 net.cpp:434] conv5_5/sep_norm_mbox_conf <- conv5_5/sep_norm_conv5_5/sep_norm_0_split_1
I0929 13:08:07.978466 23239 net.cpp:408] conv5_5/sep_norm_mbox_conf -> conv5_5/sep_norm_mbox_conf
I0929 13:08:07.979961 23239 net.cpp:150] Setting up conv5_5/sep_norm_mbox_conf
I0929 13:08:07.979969 23239 net.cpp:157] Top shape: 1 10 19 32 (6080)
I0929 13:08:07.979971 23239 net.cpp:165] Memory required for data: 274310688
I0929 13:08:07.979975 23239 layer_factory.hpp:77] Creating layer conv5_5/sep_norm_mbox_conf_perm
I0929 13:08:07.979980 23239 net.cpp:100] Creating Layer conv5_5/sep_norm_mbox_conf_perm
I0929 13:08:07.979984 23239 net.cpp:434] conv5_5/sep_norm_mbox_conf_perm <- conv5_5/sep_norm_mbox_conf
I0929 13:08:07.979987 23239 net.cpp:408] conv5_5/sep_norm_mbox_conf_perm -> conv5_5/sep_norm_mbox_conf_perm
I0929 13:08:07.980082 23239 net.cpp:150] Setting up conv5_5/sep_norm_mbox_conf_perm
I0929 13:08:07.980087 23239 net.cpp:157] Top shape: 1 19 32 10 (6080)
I0929 13:08:07.980088 23239 net.cpp:165] Memory required for data: 274335008
I0929 13:08:07.980092 23239 layer_factory.hpp:77] Creating layer conv5_5/sep_norm_mbox_conf_flat
I0929 13:08:07.980094 23239 net.cpp:100] Creating Layer conv5_5/sep_norm_mbox_conf_flat
I0929 13:08:07.980096 23239 net.cpp:434] conv5_5/sep_norm_mbox_conf_flat <- conv5_5/sep_norm_mbox_conf_perm
I0929 13:08:07.980099 23239 net.cpp:408] conv5_5/sep_norm_mbox_conf_flat -> conv5_5/sep_norm_mbox_conf_flat
I0929 13:08:07.980119 23239 net.cpp:150] Setting up conv5_5/sep_norm_mbox_conf_flat
I0929 13:08:07.980130 23239 net.cpp:157] Top shape: 1 6080 (6080)
I0929 13:08:07.980132 23239 net.cpp:165] Memory required for data: 274359328
I0929 13:08:07.980134 23239 layer_factory.hpp:77] Creating layer conv5_5/sep_norm_mbox_priorbox
I0929 13:08:07.980139 23239 net.cpp:100] Creating Layer conv5_5/sep_norm_mbox_priorbox
I0929 13:08:07.980142 23239 net.cpp:434] conv5_5/sep_norm_mbox_priorbox <- conv5_5/sep_norm_conv5_5/sep_norm_0_split_2
I0929 13:08:07.980144 23239 net.cpp:434] conv5_5/sep_norm_mbox_priorbox <- data_data_0_split_1
I0929 13:08:07.980147 23239 net.cpp:408] conv5_5/sep_norm_mbox_priorbox -> conv5_5/sep_norm_mbox_priorbox
I0929 13:08:07.980170 23239 net.cpp:150] Setting up conv5_5/sep_norm_mbox_priorbox
I0929 13:08:07.980173 23239 net.cpp:157] Top shape: 1 2 4864 (9728)
I0929 13:08:07.980175 23239 net.cpp:165] Memory required for data: 274398240
I0929 13:08:07.980176 23239 layer_factory.hpp:77] Creating layer conv6/sep_mbox_loc
I0929 13:08:07.980181 23239 net.cpp:100] Creating Layer conv6/sep_mbox_loc
I0929 13:08:07.980185 23239 net.cpp:434] conv6/sep_mbox_loc <- conv6/sep_relu6/sep_0_split_1
I0929 13:08:07.980188 23239 net.cpp:408] conv6/sep_mbox_loc -> conv6/sep_mbox_loc
I0929 13:08:07.981750 23239 net.cpp:150] Setting up conv6/sep_mbox_loc
I0929 13:08:07.981758 23239 net.cpp:157] Top shape: 1 8 10 16 (1280)
I0929 13:08:07.981760 23239 net.cpp:165] Memory required for data: 274403360
I0929 13:08:07.981765 23239 layer_factory.hpp:77] Creating layer conv6/sep_mbox_loc_perm
I0929 13:08:07.981768 23239 net.cpp:100] Creating Layer conv6/sep_mbox_loc_perm
I0929 13:08:07.981771 23239 net.cpp:434] conv6/sep_mbox_loc_perm <- conv6/sep_mbox_loc
I0929 13:08:07.981775 23239 net.cpp:408] conv6/sep_mbox_loc_perm -> conv6/sep_mbox_loc_perm
I0929 13:08:07.981871 23239 net.cpp:150] Setting up conv6/sep_mbox_loc_perm
I0929 13:08:07.981875 23239 net.cpp:157] Top shape: 1 10 16 8 (1280)
I0929 13:08:07.981878 23239 net.cpp:165] Memory required for data: 274408480
I0929 13:08:07.981879 23239 layer_factory.hpp:77] Creating layer conv6/sep_mbox_loc_flat
I0929 13:08:07.981884 23239 net.cpp:100] Creating Layer conv6/sep_mbox_loc_flat
I0929 13:08:07.981885 23239 net.cpp:434] conv6/sep_mbox_loc_flat <- conv6/sep_mbox_loc_perm
I0929 13:08:07.981889 23239 net.cpp:408] conv6/sep_mbox_loc_flat -> conv6/sep_mbox_loc_flat
I0929 13:08:07.981909 23239 net.cpp:150] Setting up conv6/sep_mbox_loc_flat
I0929 13:08:07.981912 23239 net.cpp:157] Top shape: 1 1280 (1280)
I0929 13:08:07.981914 23239 net.cpp:165] Memory required for data: 274413600
I0929 13:08:07.981916 23239 layer_factory.hpp:77] Creating layer conv6/sep_mbox_conf
I0929 13:08:07.981921 23239 net.cpp:100] Creating Layer conv6/sep_mbox_conf
I0929 13:08:07.981923 23239 net.cpp:434] conv6/sep_mbox_conf <- conv6/sep_relu6/sep_0_split_2
I0929 13:08:07.981927 23239 net.cpp:408] conv6/sep_mbox_conf -> conv6/sep_mbox_conf
I0929 13:08:07.983871 23239 net.cpp:150] Setting up conv6/sep_mbox_conf
I0929 13:08:07.983896 23239 net.cpp:157] Top shape: 1 10 10 16 (1600)
I0929 13:08:07.983899 23239 net.cpp:165] Memory required for data: 274420000
I0929 13:08:07.983909 23239 layer_factory.hpp:77] Creating layer conv6/sep_mbox_conf_perm
I0929 13:08:07.983922 23239 net.cpp:100] Creating Layer conv6/sep_mbox_conf_perm
I0929 13:08:07.983927 23239 net.cpp:434] conv6/sep_mbox_conf_perm <- conv6/sep_mbox_conf
I0929 13:08:07.983934 23239 net.cpp:408] conv6/sep_mbox_conf_perm -> conv6/sep_mbox_conf_perm
I0929 13:08:07.984042 23239 net.cpp:150] Setting up conv6/sep_mbox_conf_perm
I0929 13:08:07.984047 23239 net.cpp:157] Top shape: 1 10 16 10 (1600)
I0929 13:08:07.984050 23239 net.cpp:165] Memory required for data: 274426400
I0929 13:08:07.984051 23239 layer_factory.hpp:77] Creating layer conv6/sep_mbox_conf_flat
I0929 13:08:07.984055 23239 net.cpp:100] Creating Layer conv6/sep_mbox_conf_flat
I0929 13:08:07.984058 23239 net.cpp:434] conv6/sep_mbox_conf_flat <- conv6/sep_mbox_conf_perm
I0929 13:08:07.984062 23239 net.cpp:408] conv6/sep_mbox_conf_flat -> conv6/sep_mbox_conf_flat
I0929 13:08:07.984100 23239 net.cpp:150] Setting up conv6/sep_mbox_conf_flat
I0929 13:08:07.984105 23239 net.cpp:157] Top shape: 1 1600 (1600)
I0929 13:08:07.984107 23239 net.cpp:165] Memory required for data: 274432800
I0929 13:08:07.984109 23239 layer_factory.hpp:77] Creating layer conv6/sep_mbox_priorbox
I0929 13:08:07.984114 23239 net.cpp:100] Creating Layer conv6/sep_mbox_priorbox
I0929 13:08:07.984117 23239 net.cpp:434] conv6/sep_mbox_priorbox <- conv6/sep_relu6/sep_0_split_3
I0929 13:08:07.984120 23239 net.cpp:434] conv6/sep_mbox_priorbox <- data_data_0_split_2
I0929 13:08:07.984123 23239 net.cpp:408] conv6/sep_mbox_priorbox -> conv6/sep_mbox_priorbox
I0929 13:08:07.984149 23239 net.cpp:150] Setting up conv6/sep_mbox_priorbox
I0929 13:08:07.984153 23239 net.cpp:157] Top shape: 1 2 1280 (2560)
I0929 13:08:07.984156 23239 net.cpp:165] Memory required for data: 274443040
I0929 13:08:07.984158 23239 layer_factory.hpp:77] Creating layer ssd1_2_mbox_loc
I0929 13:08:07.984165 23239 net.cpp:100] Creating Layer ssd1_2_mbox_loc
I0929 13:08:07.984169 23239 net.cpp:434] ssd1_2_mbox_loc <- ssd1_2_ssd1_2_relu_0_split_1
I0929 13:08:07.984172 23239 net.cpp:408] ssd1_2_mbox_loc -> ssd1_2_mbox_loc
I0929 13:08:07.986199 23239 net.cpp:150] Setting up ssd1_2_mbox_loc
I0929 13:08:07.986209 23239 net.cpp:157] Top shape: 1 8 5 8 (320)
I0929 13:08:07.986212 23239 net.cpp:165] Memory required for data: 274444320
I0929 13:08:07.986217 23239 layer_factory.hpp:77] Creating layer ssd1_2_mbox_loc_perm
I0929 13:08:07.986222 23239 net.cpp:100] Creating Layer ssd1_2_mbox_loc_perm
I0929 13:08:07.986225 23239 net.cpp:434] ssd1_2_mbox_loc_perm <- ssd1_2_mbox_loc
I0929 13:08:07.986229 23239 net.cpp:408] ssd1_2_mbox_loc_perm -> ssd1_2_mbox_loc_perm
I0929 13:08:07.986330 23239 net.cpp:150] Setting up ssd1_2_mbox_loc_perm
I0929 13:08:07.986335 23239 net.cpp:157] Top shape: 1 5 8 8 (320)
I0929 13:08:07.986336 23239 net.cpp:165] Memory required for data: 274445600
I0929 13:08:07.986338 23239 layer_factory.hpp:77] Creating layer ssd1_2_mbox_loc_flat
I0929 13:08:07.986341 23239 net.cpp:100] Creating Layer ssd1_2_mbox_loc_flat
I0929 13:08:07.986344 23239 net.cpp:434] ssd1_2_mbox_loc_flat <- ssd1_2_mbox_loc_perm
I0929 13:08:07.986347 23239 net.cpp:408] ssd1_2_mbox_loc_flat -> ssd1_2_mbox_loc_flat
I0929 13:08:07.986367 23239 net.cpp:150] Setting up ssd1_2_mbox_loc_flat
I0929 13:08:07.986371 23239 net.cpp:157] Top shape: 1 320 (320)
I0929 13:08:07.986372 23239 net.cpp:165] Memory required for data: 274446880
I0929 13:08:07.986374 23239 layer_factory.hpp:77] Creating layer ssd1_2_mbox_conf
I0929 13:08:07.986380 23239 net.cpp:100] Creating Layer ssd1_2_mbox_conf
I0929 13:08:07.986383 23239 net.cpp:434] ssd1_2_mbox_conf <- ssd1_2_ssd1_2_relu_0_split_2
I0929 13:08:07.986387 23239 net.cpp:408] ssd1_2_mbox_conf -> ssd1_2_mbox_conf
I0929 13:08:07.987897 23239 net.cpp:150] Setting up ssd1_2_mbox_conf
I0929 13:08:07.987905 23239 net.cpp:157] Top shape: 1 10 5 8 (400)
I0929 13:08:07.987907 23239 net.cpp:165] Memory required for data: 274448480
I0929 13:08:07.987911 23239 layer_factory.hpp:77] Creating layer ssd1_2_mbox_conf_perm
I0929 13:08:07.987916 23239 net.cpp:100] Creating Layer ssd1_2_mbox_conf_perm
I0929 13:08:07.987920 23239 net.cpp:434] ssd1_2_mbox_conf_perm <- ssd1_2_mbox_conf
I0929 13:08:07.987923 23239 net.cpp:408] ssd1_2_mbox_conf_perm -> ssd1_2_mbox_conf_perm
I0929 13:08:07.988021 23239 net.cpp:150] Setting up ssd1_2_mbox_conf_perm
I0929 13:08:07.988025 23239 net.cpp:157] Top shape: 1 5 8 10 (400)
I0929 13:08:07.988026 23239 net.cpp:165] Memory required for data: 274450080
I0929 13:08:07.988029 23239 layer_factory.hpp:77] Creating layer ssd1_2_mbox_conf_flat
I0929 13:08:07.988032 23239 net.cpp:100] Creating Layer ssd1_2_mbox_conf_flat
I0929 13:08:07.988035 23239 net.cpp:434] ssd1_2_mbox_conf_flat <- ssd1_2_mbox_conf_perm
I0929 13:08:07.988039 23239 net.cpp:408] ssd1_2_mbox_conf_flat -> ssd1_2_mbox_conf_flat
I0929 13:08:07.988057 23239 net.cpp:150] Setting up ssd1_2_mbox_conf_flat
I0929 13:08:07.988061 23239 net.cpp:157] Top shape: 1 400 (400)
I0929 13:08:07.988062 23239 net.cpp:165] Memory required for data: 274451680
I0929 13:08:07.988075 23239 layer_factory.hpp:77] Creating layer ssd1_2_mbox_priorbox
I0929 13:08:07.988080 23239 net.cpp:100] Creating Layer ssd1_2_mbox_priorbox
I0929 13:08:07.988082 23239 net.cpp:434] ssd1_2_mbox_priorbox <- ssd1_2_ssd1_2_relu_0_split_3
I0929 13:08:07.988085 23239 net.cpp:434] ssd1_2_mbox_priorbox <- data_data_0_split_3
I0929 13:08:07.988088 23239 net.cpp:408] ssd1_2_mbox_priorbox -> ssd1_2_mbox_priorbox
I0929 13:08:07.988111 23239 net.cpp:150] Setting up ssd1_2_mbox_priorbox
I0929 13:08:07.988114 23239 net.cpp:157] Top shape: 1 2 320 (640)
I0929 13:08:07.988116 23239 net.cpp:165] Memory required for data: 274454240
I0929 13:08:07.988117 23239 layer_factory.hpp:77] Creating layer ssd2_2_mbox_loc
I0929 13:08:07.988123 23239 net.cpp:100] Creating Layer ssd2_2_mbox_loc
I0929 13:08:07.988126 23239 net.cpp:434] ssd2_2_mbox_loc <- ssd2_2_ssd2_2_relu_0_split_1
I0929 13:08:07.988131 23239 net.cpp:408] ssd2_2_mbox_loc -> ssd2_2_mbox_loc
I0929 13:08:07.989439 23239 net.cpp:150] Setting up ssd2_2_mbox_loc
I0929 13:08:07.989447 23239 net.cpp:157] Top shape: 1 8 3 4 (96)
I0929 13:08:07.989449 23239 net.cpp:165] Memory required for data: 274454624
I0929 13:08:07.989454 23239 layer_factory.hpp:77] Creating layer ssd2_2_mbox_loc_perm
I0929 13:08:07.989459 23239 net.cpp:100] Creating Layer ssd2_2_mbox_loc_perm
I0929 13:08:07.989461 23239 net.cpp:434] ssd2_2_mbox_loc_perm <- ssd2_2_mbox_loc
I0929 13:08:07.989464 23239 net.cpp:408] ssd2_2_mbox_loc_perm -> ssd2_2_mbox_loc_perm
I0929 13:08:07.989558 23239 net.cpp:150] Setting up ssd2_2_mbox_loc_perm
I0929 13:08:07.989562 23239 net.cpp:157] Top shape: 1 3 4 8 (96)
I0929 13:08:07.989565 23239 net.cpp:165] Memory required for data: 274455008
I0929 13:08:07.989567 23239 layer_factory.hpp:77] Creating layer ssd2_2_mbox_loc_flat
I0929 13:08:07.989570 23239 net.cpp:100] Creating Layer ssd2_2_mbox_loc_flat
I0929 13:08:07.989573 23239 net.cpp:434] ssd2_2_mbox_loc_flat <- ssd2_2_mbox_loc_perm
I0929 13:08:07.989575 23239 net.cpp:408] ssd2_2_mbox_loc_flat -> ssd2_2_mbox_loc_flat
I0929 13:08:07.989595 23239 net.cpp:150] Setting up ssd2_2_mbox_loc_flat
I0929 13:08:07.989598 23239 net.cpp:157] Top shape: 1 96 (96)
I0929 13:08:07.989600 23239 net.cpp:165] Memory required for data: 274455392
I0929 13:08:07.989603 23239 layer_factory.hpp:77] Creating layer ssd2_2_mbox_conf
I0929 13:08:07.989608 23239 net.cpp:100] Creating Layer ssd2_2_mbox_conf
I0929 13:08:07.989609 23239 net.cpp:434] ssd2_2_mbox_conf <- ssd2_2_ssd2_2_relu_0_split_2
I0929 13:08:07.989614 23239 net.cpp:408] ssd2_2_mbox_conf -> ssd2_2_mbox_conf
I0929 13:08:07.990924 23239 net.cpp:150] Setting up ssd2_2_mbox_conf
I0929 13:08:07.990931 23239 net.cpp:157] Top shape: 1 10 3 4 (120)
I0929 13:08:07.990933 23239 net.cpp:165] Memory required for data: 274455872
I0929 13:08:07.990937 23239 layer_factory.hpp:77] Creating layer ssd2_2_mbox_conf_perm
I0929 13:08:07.990943 23239 net.cpp:100] Creating Layer ssd2_2_mbox_conf_perm
I0929 13:08:07.990947 23239 net.cpp:434] ssd2_2_mbox_conf_perm <- ssd2_2_mbox_conf
I0929 13:08:07.990950 23239 net.cpp:408] ssd2_2_mbox_conf_perm -> ssd2_2_mbox_conf_perm
I0929 13:08:07.991044 23239 net.cpp:150] Setting up ssd2_2_mbox_conf_perm
I0929 13:08:07.991048 23239 net.cpp:157] Top shape: 1 3 4 10 (120)
I0929 13:08:07.991051 23239 net.cpp:165] Memory required for data: 274456352
I0929 13:08:07.991052 23239 layer_factory.hpp:77] Creating layer ssd2_2_mbox_conf_flat
I0929 13:08:07.991056 23239 net.cpp:100] Creating Layer ssd2_2_mbox_conf_flat
I0929 13:08:07.991058 23239 net.cpp:434] ssd2_2_mbox_conf_flat <- ssd2_2_mbox_conf_perm
I0929 13:08:07.991062 23239 net.cpp:408] ssd2_2_mbox_conf_flat -> ssd2_2_mbox_conf_flat
I0929 13:08:07.991082 23239 net.cpp:150] Setting up ssd2_2_mbox_conf_flat
I0929 13:08:07.991086 23239 net.cpp:157] Top shape: 1 120 (120)
I0929 13:08:07.991087 23239 net.cpp:165] Memory required for data: 274456832
I0929 13:08:07.991089 23239 layer_factory.hpp:77] Creating layer ssd2_2_mbox_priorbox
I0929 13:08:07.991093 23239 net.cpp:100] Creating Layer ssd2_2_mbox_priorbox
I0929 13:08:07.991104 23239 net.cpp:434] ssd2_2_mbox_priorbox <- ssd2_2_ssd2_2_relu_0_split_3
I0929 13:08:07.991107 23239 net.cpp:434] ssd2_2_mbox_priorbox <- data_data_0_split_4
I0929 13:08:07.991111 23239 net.cpp:408] ssd2_2_mbox_priorbox -> ssd2_2_mbox_priorbox
I0929 13:08:07.991133 23239 net.cpp:150] Setting up ssd2_2_mbox_priorbox
I0929 13:08:07.991137 23239 net.cpp:157] Top shape: 1 2 96 (192)
I0929 13:08:07.991138 23239 net.cpp:165] Memory required for data: 274457600
I0929 13:08:07.991140 23239 layer_factory.hpp:77] Creating layer ssd3_2_mbox_loc
I0929 13:08:07.991145 23239 net.cpp:100] Creating Layer ssd3_2_mbox_loc
I0929 13:08:07.991148 23239 net.cpp:434] ssd3_2_mbox_loc <- ssd3_2_ssd3_2_relu_0_split_1
I0929 13:08:07.991153 23239 net.cpp:408] ssd3_2_mbox_loc -> ssd3_2_mbox_loc
I0929 13:08:07.992565 23239 net.cpp:150] Setting up ssd3_2_mbox_loc
I0929 13:08:07.992573 23239 net.cpp:157] Top shape: 1 8 2 2 (32)
I0929 13:08:07.992573 23239 net.cpp:165] Memory required for data: 274457728
I0929 13:08:07.992578 23239 layer_factory.hpp:77] Creating layer ssd3_2_mbox_loc_perm
I0929 13:08:07.992583 23239 net.cpp:100] Creating Layer ssd3_2_mbox_loc_perm
I0929 13:08:07.992586 23239 net.cpp:434] ssd3_2_mbox_loc_perm <- ssd3_2_mbox_loc
I0929 13:08:07.992589 23239 net.cpp:408] ssd3_2_mbox_loc_perm -> ssd3_2_mbox_loc_perm
I0929 13:08:07.992682 23239 net.cpp:150] Setting up ssd3_2_mbox_loc_perm
I0929 13:08:07.992686 23239 net.cpp:157] Top shape: 1 2 2 8 (32)
I0929 13:08:07.992688 23239 net.cpp:165] Memory required for data: 274457856
I0929 13:08:07.992691 23239 layer_factory.hpp:77] Creating layer ssd3_2_mbox_loc_flat
I0929 13:08:07.992693 23239 net.cpp:100] Creating Layer ssd3_2_mbox_loc_flat
I0929 13:08:07.992697 23239 net.cpp:434] ssd3_2_mbox_loc_flat <- ssd3_2_mbox_loc_perm
I0929 13:08:07.992699 23239 net.cpp:408] ssd3_2_mbox_loc_flat -> ssd3_2_mbox_loc_flat
I0929 13:08:07.992719 23239 net.cpp:150] Setting up ssd3_2_mbox_loc_flat
I0929 13:08:07.992722 23239 net.cpp:157] Top shape: 1 32 (32)
I0929 13:08:07.992725 23239 net.cpp:165] Memory required for data: 274457984
I0929 13:08:07.992727 23239 layer_factory.hpp:77] Creating layer ssd3_2_mbox_conf
I0929 13:08:07.992733 23239 net.cpp:100] Creating Layer ssd3_2_mbox_conf
I0929 13:08:07.992734 23239 net.cpp:434] ssd3_2_mbox_conf <- ssd3_2_ssd3_2_relu_0_split_2
I0929 13:08:07.992739 23239 net.cpp:408] ssd3_2_mbox_conf -> ssd3_2_mbox_conf
I0929 13:08:07.994055 23239 net.cpp:150] Setting up ssd3_2_mbox_conf
I0929 13:08:07.994063 23239 net.cpp:157] Top shape: 1 10 2 2 (40)
I0929 13:08:07.994065 23239 net.cpp:165] Memory required for data: 274458144
I0929 13:08:07.994069 23239 layer_factory.hpp:77] Creating layer ssd3_2_mbox_conf_perm
I0929 13:08:07.994074 23239 net.cpp:100] Creating Layer ssd3_2_mbox_conf_perm
I0929 13:08:07.994077 23239 net.cpp:434] ssd3_2_mbox_conf_perm <- ssd3_2_mbox_conf
I0929 13:08:07.994081 23239 net.cpp:408] ssd3_2_mbox_conf_perm -> ssd3_2_mbox_conf_perm
I0929 13:08:07.994176 23239 net.cpp:150] Setting up ssd3_2_mbox_conf_perm
I0929 13:08:07.994180 23239 net.cpp:157] Top shape: 1 2 2 10 (40)
I0929 13:08:07.994181 23239 net.cpp:165] Memory required for data: 274458304
I0929 13:08:07.994184 23239 layer_factory.hpp:77] Creating layer ssd3_2_mbox_conf_flat
I0929 13:08:07.994187 23239 net.cpp:100] Creating Layer ssd3_2_mbox_conf_flat
I0929 13:08:07.994189 23239 net.cpp:434] ssd3_2_mbox_conf_flat <- ssd3_2_mbox_conf_perm
I0929 13:08:07.994192 23239 net.cpp:408] ssd3_2_mbox_conf_flat -> ssd3_2_mbox_conf_flat
I0929 13:08:07.994212 23239 net.cpp:150] Setting up ssd3_2_mbox_conf_flat
I0929 13:08:07.994216 23239 net.cpp:157] Top shape: 1 40 (40)
I0929 13:08:07.994217 23239 net.cpp:165] Memory required for data: 274458464
I0929 13:08:07.994220 23239 layer_factory.hpp:77] Creating layer ssd3_2_mbox_priorbox
I0929 13:08:07.994223 23239 net.cpp:100] Creating Layer ssd3_2_mbox_priorbox
I0929 13:08:07.994226 23239 net.cpp:434] ssd3_2_mbox_priorbox <- ssd3_2_ssd3_2_relu_0_split_3
I0929 13:08:07.994230 23239 net.cpp:434] ssd3_2_mbox_priorbox <- data_data_0_split_5
I0929 13:08:07.994241 23239 net.cpp:408] ssd3_2_mbox_priorbox -> ssd3_2_mbox_priorbox
I0929 13:08:07.994263 23239 net.cpp:150] Setting up ssd3_2_mbox_priorbox
I0929 13:08:07.994267 23239 net.cpp:157] Top shape: 1 2 32 (64)
I0929 13:08:07.994268 23239 net.cpp:165] Memory required for data: 274458720
I0929 13:08:07.994271 23239 layer_factory.hpp:77] Creating layer ssd4_2_mbox_loc
I0929 13:08:07.994277 23239 net.cpp:100] Creating Layer ssd4_2_mbox_loc
I0929 13:08:07.994279 23239 net.cpp:434] ssd4_2_mbox_loc <- ssd4_2_ssd4_2_relu_0_split_0
I0929 13:08:07.994283 23239 net.cpp:408] ssd4_2_mbox_loc -> ssd4_2_mbox_loc
I0929 13:08:07.995602 23239 net.cpp:150] Setting up ssd4_2_mbox_loc
I0929 13:08:07.995610 23239 net.cpp:157] Top shape: 1 8 1 1 (8)
I0929 13:08:07.995612 23239 net.cpp:165] Memory required for data: 274458752
I0929 13:08:07.995616 23239 layer_factory.hpp:77] Creating layer ssd4_2_mbox_loc_perm
I0929 13:08:07.995621 23239 net.cpp:100] Creating Layer ssd4_2_mbox_loc_perm
I0929 13:08:07.995623 23239 net.cpp:434] ssd4_2_mbox_loc_perm <- ssd4_2_mbox_loc
I0929 13:08:07.995627 23239 net.cpp:408] ssd4_2_mbox_loc_perm -> ssd4_2_mbox_loc_perm
I0929 13:08:07.995719 23239 net.cpp:150] Setting up ssd4_2_mbox_loc_perm
I0929 13:08:07.995723 23239 net.cpp:157] Top shape: 1 1 1 8 (8)
I0929 13:08:07.995725 23239 net.cpp:165] Memory required for data: 274458784
I0929 13:08:07.995728 23239 layer_factory.hpp:77] Creating layer ssd4_2_mbox_loc_flat
I0929 13:08:07.995730 23239 net.cpp:100] Creating Layer ssd4_2_mbox_loc_flat
I0929 13:08:07.995731 23239 net.cpp:434] ssd4_2_mbox_loc_flat <- ssd4_2_mbox_loc_perm
I0929 13:08:07.995735 23239 net.cpp:408] ssd4_2_mbox_loc_flat -> ssd4_2_mbox_loc_flat
I0929 13:08:07.995755 23239 net.cpp:150] Setting up ssd4_2_mbox_loc_flat
I0929 13:08:07.995759 23239 net.cpp:157] Top shape: 1 8 (8)
I0929 13:08:07.995760 23239 net.cpp:165] Memory required for data: 274458816
I0929 13:08:07.995762 23239 layer_factory.hpp:77] Creating layer ssd4_2_mbox_conf
I0929 13:08:07.995767 23239 net.cpp:100] Creating Layer ssd4_2_mbox_conf
I0929 13:08:07.995770 23239 net.cpp:434] ssd4_2_mbox_conf <- ssd4_2_ssd4_2_relu_0_split_1
I0929 13:08:07.995774 23239 net.cpp:408] ssd4_2_mbox_conf -> ssd4_2_mbox_conf
I0929 13:08:07.997097 23239 net.cpp:150] Setting up ssd4_2_mbox_conf
I0929 13:08:07.997103 23239 net.cpp:157] Top shape: 1 10 1 1 (10)
I0929 13:08:07.997105 23239 net.cpp:165] Memory required for data: 274458856
I0929 13:08:07.997109 23239 layer_factory.hpp:77] Creating layer ssd4_2_mbox_conf_perm
I0929 13:08:07.997114 23239 net.cpp:100] Creating Layer ssd4_2_mbox_conf_perm
I0929 13:08:07.997117 23239 net.cpp:434] ssd4_2_mbox_conf_perm <- ssd4_2_mbox_conf
I0929 13:08:07.997120 23239 net.cpp:408] ssd4_2_mbox_conf_perm -> ssd4_2_mbox_conf_perm
I0929 13:08:07.997213 23239 net.cpp:150] Setting up ssd4_2_mbox_conf_perm
I0929 13:08:07.997217 23239 net.cpp:157] Top shape: 1 1 1 10 (10)
I0929 13:08:07.997220 23239 net.cpp:165] Memory required for data: 274458896
I0929 13:08:07.997221 23239 layer_factory.hpp:77] Creating layer ssd4_2_mbox_conf_flat
I0929 13:08:07.997225 23239 net.cpp:100] Creating Layer ssd4_2_mbox_conf_flat
I0929 13:08:07.997226 23239 net.cpp:434] ssd4_2_mbox_conf_flat <- ssd4_2_mbox_conf_perm
I0929 13:08:07.997229 23239 net.cpp:408] ssd4_2_mbox_conf_flat -> ssd4_2_mbox_conf_flat
I0929 13:08:07.997251 23239 net.cpp:150] Setting up ssd4_2_mbox_conf_flat
I0929 13:08:07.997253 23239 net.cpp:157] Top shape: 1 10 (10)
I0929 13:08:07.997256 23239 net.cpp:165] Memory required for data: 274458936
I0929 13:08:07.997256 23239 layer_factory.hpp:77] Creating layer ssd4_2_mbox_priorbox
I0929 13:08:07.997261 23239 net.cpp:100] Creating Layer ssd4_2_mbox_priorbox
I0929 13:08:07.997263 23239 net.cpp:434] ssd4_2_mbox_priorbox <- ssd4_2_ssd4_2_relu_0_split_2
I0929 13:08:07.997265 23239 net.cpp:434] ssd4_2_mbox_priorbox <- data_data_0_split_6
I0929 13:08:07.997269 23239 net.cpp:408] ssd4_2_mbox_priorbox -> ssd4_2_mbox_priorbox
I0929 13:08:07.997290 23239 net.cpp:150] Setting up ssd4_2_mbox_priorbox
I0929 13:08:07.997303 23239 net.cpp:157] Top shape: 1 2 8 (16)
I0929 13:08:07.997304 23239 net.cpp:165] Memory required for data: 274459000
I0929 13:08:07.997306 23239 layer_factory.hpp:77] Creating layer mbox_loc
I0929 13:08:07.997310 23239 net.cpp:100] Creating Layer mbox_loc
I0929 13:08:07.997313 23239 net.cpp:434] mbox_loc <- conv5_5/sep_norm_mbox_loc_flat
I0929 13:08:07.997316 23239 net.cpp:434] mbox_loc <- conv6/sep_mbox_loc_flat
I0929 13:08:07.997319 23239 net.cpp:434] mbox_loc <- ssd1_2_mbox_loc_flat
I0929 13:08:07.997323 23239 net.cpp:434] mbox_loc <- ssd2_2_mbox_loc_flat
I0929 13:08:07.997326 23239 net.cpp:434] mbox_loc <- ssd3_2_mbox_loc_flat
I0929 13:08:07.997328 23239 net.cpp:434] mbox_loc <- ssd4_2_mbox_loc_flat
I0929 13:08:07.997331 23239 net.cpp:408] mbox_loc -> mbox_loc
I0929 13:08:07.997352 23239 net.cpp:150] Setting up mbox_loc
I0929 13:08:07.997356 23239 net.cpp:157] Top shape: 1 6600 (6600)
I0929 13:08:07.997357 23239 net.cpp:165] Memory required for data: 274485400
I0929 13:08:07.997359 23239 layer_factory.hpp:77] Creating layer mbox_conf
I0929 13:08:07.997362 23239 net.cpp:100] Creating Layer mbox_conf
I0929 13:08:07.997365 23239 net.cpp:434] mbox_conf <- conv5_5/sep_norm_mbox_conf_flat
I0929 13:08:07.997368 23239 net.cpp:434] mbox_conf <- conv6/sep_mbox_conf_flat
I0929 13:08:07.997370 23239 net.cpp:434] mbox_conf <- ssd1_2_mbox_conf_flat
I0929 13:08:07.997375 23239 net.cpp:434] mbox_conf <- ssd2_2_mbox_conf_flat
I0929 13:08:07.997376 23239 net.cpp:434] mbox_conf <- ssd3_2_mbox_conf_flat
I0929 13:08:07.997378 23239 net.cpp:434] mbox_conf <- ssd4_2_mbox_conf_flat
I0929 13:08:07.997381 23239 net.cpp:408] mbox_conf -> mbox_conf
I0929 13:08:07.997400 23239 net.cpp:150] Setting up mbox_conf
I0929 13:08:07.997404 23239 net.cpp:157] Top shape: 1 8250 (8250)
I0929 13:08:07.997406 23239 net.cpp:165] Memory required for data: 274518400
I0929 13:08:07.997407 23239 layer_factory.hpp:77] Creating layer mbox_priorbox
I0929 13:08:07.997411 23239 net.cpp:100] Creating Layer mbox_priorbox
I0929 13:08:07.997412 23239 net.cpp:434] mbox_priorbox <- conv5_5/sep_norm_mbox_priorbox
I0929 13:08:07.997414 23239 net.cpp:434] mbox_priorbox <- conv6/sep_mbox_priorbox
I0929 13:08:07.997416 23239 net.cpp:434] mbox_priorbox <- ssd1_2_mbox_priorbox
I0929 13:08:07.997419 23239 net.cpp:434] mbox_priorbox <- ssd2_2_mbox_priorbox
I0929 13:08:07.997421 23239 net.cpp:434] mbox_priorbox <- ssd3_2_mbox_priorbox
I0929 13:08:07.997423 23239 net.cpp:434] mbox_priorbox <- ssd4_2_mbox_priorbox
I0929 13:08:07.997426 23239 net.cpp:408] mbox_priorbox -> mbox_priorbox
I0929 13:08:07.997445 23239 net.cpp:150] Setting up mbox_priorbox
I0929 13:08:07.997448 23239 net.cpp:157] Top shape: 1 2 6600 (13200)
I0929 13:08:07.997450 23239 net.cpp:165] Memory required for data: 274571200
I0929 13:08:07.997452 23239 layer_factory.hpp:77] Creating layer mbox_conf_reshape
I0929 13:08:07.997457 23239 net.cpp:100] Creating Layer mbox_conf_reshape
I0929 13:08:07.997458 23239 net.cpp:434] mbox_conf_reshape <- mbox_conf
I0929 13:08:07.997462 23239 net.cpp:408] mbox_conf_reshape -> mbox_conf_reshape
I0929 13:08:07.997486 23239 net.cpp:150] Setting up mbox_conf_reshape
I0929 13:08:07.997490 23239 net.cpp:157] Top shape: 1 1650 5 (8250)
I0929 13:08:07.997493 23239 net.cpp:165] Memory required for data: 274604200
I0929 13:08:07.997493 23239 layer_factory.hpp:77] Creating layer mbox_conf_softmax
I0929 13:08:07.997498 23239 net.cpp:100] Creating Layer mbox_conf_softmax
I0929 13:08:07.997499 23239 net.cpp:434] mbox_conf_softmax <- mbox_conf_reshape
I0929 13:08:07.997503 23239 net.cpp:408] mbox_conf_softmax -> mbox_conf_softmax
I0929 13:08:07.997977 23239 net.cpp:150] Setting up mbox_conf_softmax
I0929 13:08:07.997983 23239 net.cpp:157] Top shape: 1 1650 5 (8250)
I0929 13:08:07.997987 23239 net.cpp:165] Memory required for data: 274637200
I0929 13:08:07.997988 23239 layer_factory.hpp:77] Creating layer mbox_conf_flatten
I0929 13:08:07.997992 23239 net.cpp:100] Creating Layer mbox_conf_flatten
I0929 13:08:07.997993 23239 net.cpp:434] mbox_conf_flatten <- mbox_conf_softmax
I0929 13:08:07.998004 23239 net.cpp:408] mbox_conf_flatten -> mbox_conf_flatten
I0929 13:08:07.998026 23239 net.cpp:150] Setting up mbox_conf_flatten
I0929 13:08:07.998029 23239 net.cpp:157] Top shape: 1 8250 (8250)
I0929 13:08:07.998031 23239 net.cpp:165] Memory required for data: 274670200
I0929 13:08:07.998034 23239 layer_factory.hpp:77] Creating layer detection_out
I0929 13:08:07.998041 23239 net.cpp:100] Creating Layer detection_out
I0929 13:08:07.998044 23239 net.cpp:434] detection_out <- mbox_loc
I0929 13:08:07.998045 23239 net.cpp:434] detection_out <- mbox_conf_flatten
I0929 13:08:07.998049 23239 net.cpp:434] detection_out <- mbox_priorbox
I0929 13:08:07.998052 23239 net.cpp:408] detection_out -> detection_out
W0929 13:08:07.998073 23239 detection_output_layer.cpp:49] Failed to create directory: /home/zhongyilin/Documents/data/GTSDBdevkit/results/GTSDB/SSD_510x300_100_40_6_True_1/Main
I0929 13:08:07.998390 23239 net.cpp:150] Setting up detection_out
I0929 13:08:07.998397 23239 net.cpp:157] Top shape: 1 1 1 7 (7)
I0929 13:08:07.998399 23239 net.cpp:165] Memory required for data: 274670228
I0929 13:08:07.998401 23239 layer_factory.hpp:77] Creating layer detection_eval
I0929 13:08:07.998405 23239 net.cpp:100] Creating Layer detection_eval
I0929 13:08:07.998409 23239 net.cpp:434] detection_eval <- detection_out
I0929 13:08:07.998411 23239 net.cpp:434] detection_eval <- label
I0929 13:08:07.998414 23239 net.cpp:408] detection_eval -> detection_eval
I0929 13:08:07.998499 23239 net.cpp:150] Setting up detection_eval
I0929 13:08:07.998503 23239 net.cpp:157] Top shape: 1 1 5 5 (25)
I0929 13:08:07.998507 23239 net.cpp:165] Memory required for data: 274670328
I0929 13:08:07.998508 23239 net.cpp:228] detection_eval does not need backward computation.
I0929 13:08:07.998510 23239 net.cpp:228] detection_out does not need backward computation.
I0929 13:08:07.998512 23239 net.cpp:228] mbox_conf_flatten does not need backward computation.
I0929 13:08:07.998517 23239 net.cpp:228] mbox_conf_softmax does not need backward computation.
…
