…
      sampler {
        min_scale: 0.3
        max_scale: 1
        min_aspect_ratio: 0.5
        max_aspect_ratio: 2
      }
      sample_constraint {
        min_jaccard_overlap: 0.9
      }
      max_sample: 1
      max_trials: 50
    }
    batch_sampler {
      sampler {
        min_scale: 0.3
        max_scale: 1
        min_aspect_ratio: 0.5
        max_aspect_ratio: 2
      }
      sample_constraint {
        max_jaccard_overlap: 1
      }
      max_sample: 1
      max_trials: 50
    }
    label_map_file: "data/GTSDB/labelmap_GTSDB.prototxt"
  }
}
layer {
  name: "conv1"
  type: "Convolution"
  bottom: "data"
  top: "conv1"
  param {
    lr_mult: 1
    decay_mult: 1
  }
  convolution_param {
    num_output: 32
    bias_term: false
    pad: 1
    kernel_size: 3
    stride: 2
    weight_filler {
      type: "msra"
    }
  }
}
layer {
  name: "conv1/bn"
  type: "BatchNorm"
  bottom: "conv1"
  top: "conv1"
  batch_norm_param {
    use_global_stats: true
    eps: 1e-05
  }
}
layer {
  name: "conv1/scale"
  type: "Scale"
  bottom: "conv1"
  top: "conv1"
  param {
    lr_mult: 1
    decay_mult: 0
  }
  param {
    lr_mult: 1
    decay_mult: 0
  }
  scale_param {
    filler {
      type: "constant"
      value: 1
    }
    bias_term: true
    bias_filler {
      type: "constant"
      value: 0
    }
  }
}
layer {
  name: "relu1"
  type: "ReLU"
  bottom: "conv1"
  top: "conv1"
}
layer {
  name: "conv2_1/dw"
  type: "Convolution"
  bottom: "conv1"
  top: "conv2_1/dw"
  param {
    lr_mult: 1
    decay_mult: 1
  }
  convolution_param {
    num_output: 32
    bias_term: false
    pad: 1
    kernel_size: 3
    group: 32
    stride: 1
    weight_filler {
      type: "msra"
    }
    engine: CAFFE
  }
}
layer {
  name: "conv2_1/dw/bn"
  type: "BatchNorm"
  bottom: "conv2_1/dw"
  top: "conv2_1/dw"
  batch_norm_param {
    use_global_stats: true
    eps: 1e-05
  }
}
layer {
  name: "conv2_1/dw/scale"
  type: "Scale"
  bottom: "conv2_1/dw"
  top: "conv2_1/dw"
  param {
    lr_mult: 1
    decay_mult: 0
  }
  param {
    lr_mult: 1
    decay_mult: 0
  }
  scale_param {
    filler {
      type: "constant"
      value: 1
    }
    bias_term: true
    bias_filler {
      type: "constant"
      value: 0
    }
  }
}
layer {
  name: "relu2_1/dw"
  type: "ReLU"
  bottom: "conv2_1/dw"
  top: "conv2_1/dw"
}
layer {
  name: "conv2_1/sep"
  type: "Convolution"
  bottom: "conv2_1/dw"
  top: "conv2_1/sep"
  param {
    lr_mult: 1
    decay_mult: 1
  }
  convolution_param {
    num_output: 64
    bias_term: false
    pad: 0
    kernel_size: 1
    stride: 1
    weight_filler {
      type: "msra"
    }
  }
}
layer {
  name: "conv2_1/sep/bn"
  type: "BatchNorm"
  bottom: "conv2_1/sep"
  top: "conv2_1/sep"
  batch_norm_param {
    use_global_stats: true
    eps: 1e-05
  }
}
layer {
  name: "conv2_1/sep/scale"
  type: "Scale"
  bottom: "conv2_1/sep"
  top: "conv2_1/sep"
  param {
    lr_mult: 1
    decay_mult: 0
  }
  param {
    lr_mult: 1
    decay_mult: 0
  }
  scale_param {
    filler {
      type: "constant"
      value: 1
    }
    bias_term: true
    bias_filler {
      type: "constant"
      value: 0
    }
  }
}
layer {
  name: "relu2_1/sep"
  type: "ReLU"
  bottom: "conv2_1/sep"
  top: "conv2_1/sep"
}
layer {
  name: "conv2_2/dw"
  type: "Convolution"
  bottom: "conv2_1/sep"
  top: "conv2_2/dw"
  param {
    lr_mult: 1
    decay_mult: 1
  }
  convolution_param {
    num_output: 64
    bias_term: false
    pad: 1
    kernel_size: 3
    group: 64
    stride: 2
    weight_filler {
      type: "msra"
    }
    engine: CAFFE
  }
}
layer {
  name: "conv2_2/dw/bn"
  type: "BatchNorm"
  bottom: "conv2_2/dw"
  top: "conv2_2/dw"
  batch_norm_param {
    use_global_stats: true
    eps: 1e-05
  }
}
layer {
  name: "conv2_2/dw/scale"
  type: "Scale"
  bottom: "conv2_2/dw"
  top: "conv2_2/dw"
  param {
    lr_mult: 1
    decay_mult: 0
  }
  param {
    lr_mult: 1
    decay_mult: 0
  }
  scale_param {
    filler {
      type: "constant"
      value: 1
    }
    bias_term: true
    bias_filler {
      type: "constant"
      value: 0
    }
  }
}
layer {
  name: "relu2_2/dw"
  type: "ReLU"
  bottom: "conv2_2/dw"
  top: "conv2_2/dw"
}
layer {
  name: "conv2_2/sep"
  type: "Convolution"
  bottom: "conv2_2/dw"
  top: "conv2_2/sep"
  param {
    lr_mult: 1
    decay_mult: 1
  }
  convolution_param {
    num_output: 128
    bias_term: false
    pad: 0
    kernel_size: 1
    stride: 1
    weight_filler {
      type: "msra"
    }
  }
}
layer {
  name: "conv2_2/sep/bn"
  type: "BatchNorm"
  bottom: "conv2_2/sep"
  top: "conv2_2/sep"
  batch_norm_param {
    use_global_stats: true
    eps: 1e-05
  }
}
layer {
  name: "conv2_2/sep/scale"
  type: "Scale"
  bottom: "conv2_2/sep"
  top: "conv2_2/sep"
  param {
    lr_mult: 1
    decay_mult: 0
  }
  param {
    lr_mult: 1
    decay_mult: 0
  }
  scale_param {
    filler {
      type: "constant"
      value: 1
    }
    bias_term: true
    bias_filler {
      type: "constant"
      value: 0
    }
  }
}
layer {
  name: "relu2_2/sep"
  type: "ReLU"
  bottom: "conv2_2/sep"
  top: "conv2_2/sep"
}
layer {
  name: "conv3_1/dw"
  type: "Convolution"
  bottom: "conv2_2/sep"
  top: "conv3_1/dw"
  param {
    lr_mult: 1
    decay_mult: 1
  }
  convolution_param {
    num_output: 128
    bias_term: false
    pad: 1
    kernel_size: 3
    group: 128
    stride: 1
    weight_filler {
      type: "msra"
    }
    engine: CAFFE
  }
}
layer {
  name: "conv3_1/dw/bn"
  type: "BatchNorm"
  bottom: "conv3_1/dw"
  top: "conv3_1/dw"
  batch_norm_param {
    use_global_stats: true
    eps: 1e-05
  }
}
layer {
  name: "conv3_1/dw/scale"
  type: "Scale"
  bottom: "conv3_1/dw"
  top: "conv3_1/dw"
  param {
    lr_mult: 1
    decay_mult: 0
  }
  param {
    lr_mult: 1
    decay_mult: 0
  }
  scale_param {
    filler {
      type: "constant"
      value: 1
    }
    bias_term: true
    bias_filler {
      type: "constant"
      value: 0
    }
  }
}
layer {
  name: "relu3_1/dw"
  type: "ReLU"
  bottom: "conv3_1/dw"
  top: "conv3_1/dw"
}
layer {
  name: "conv3_1/sep"
  type: "Convolution"
  bottom: "conv3_1/dw"
  top: "conv3_1/sep"
  param {
    lr_mult: 1
    decay_mult: 1
  }
  convolution_param {
    num_output: 128
    bias_term: false
    pad: 0
    kernel_size: 1
    stride: 1
    weight_filler {
      type: "msra"
    }
  }
}
layer {
  name: "conv3_1/sep/bn"
  type: "BatchNorm"
  bottom: "conv3_1/sep"
  top: "conv3_1/sep"
  batch_norm_param {
    use_global_stats: true
    eps: 1e-05
  }
}
layer {
  name: "conv3_1/sep/scale"
  type: "Scale"
  bottom: "conv3_1/sep"
  top: "conv3_1/sep"
  param {
    lr_mult: 1
    decay_mult: 0
  }
  param {
    lr_mult: 1
    decay_mult: 0
  }
  scale_param {
    filler {
      type: "constant"
      value: 1
    }
    bias_term: true
    bias_filler {
      type: "constant"
      value: 0
    }
  }
}
layer {
  name: "relu3_1/sep"
  type: "ReLU"
  bottom: "conv3_1/sep"
  top: "conv3_1/sep"
}
layer {
  name: "conv3_2/dw"
  type: "Convolution"
  bottom: "conv3_1/sep"
  top: "conv3_2/dw"
  param {
    lr_mult: 1
    decay_mult: 1
  }
  convolution_param {
    num_output: 128
    bias_term: false
    pad: 1
    kernel_size: 3
    group: 128
    stride: 2
    weight_filler {
      type: "msra"
    }
    engine: CAFFE
  }
}
layer {
  name: "conv3_2/dw/bn"
  type: "BatchNorm"
  bottom: "conv3_2/dw"
  top: "conv3_2/dw"
  batch_norm_param {
    use_global_stats: true
    eps: 1e-05
  }
}
layer {
  name: "conv3_2/dw/scale"
  type: "Scale"
  bottom: "conv3_2/dw"
  top: "conv3_2/dw"
  param {
    lr_mult: 1
    decay_mult: 0
  }
  param {
    lr_mult: 1
    decay_mult: 0
  }
  scale_param {
    filler {
      type: "constant"
      value: 1
    }
    bias_term: true
    bias_filler {
      type: "constant"
      value: 0
    }
  }
}
layer {
  name: "relu3_2/dw"
  type: "ReLU"
  bottom: "conv3_2/dw"
  top: "conv3_2/dw"
}
layer {
  name: "conv3_2/sep"
  type: "Convolution"
  bottom: "conv3_2/dw"
  top: "conv3_2/sep"
  param {
    lr_mult: 1
    decay_mult: 1
  }
  convolution_param {
    num_output: 256
    bias_term: false
    pad: 0
    kernel_size: 1
    stride: 1
    weight_filler {
      type: "msra"
    }
  }
}
layer {
  name: "conv3_2/sep/bn"
  type: "BatchNorm"
  bottom: "conv3_2/sep"
  top: "conv3_2/sep"
  batch_norm_param {
    use_global_stats: true
    eps: 1e-05
  }
}
layer {
  name: "conv3_2/sep/scale"
  type: "Scale"
  bottom: "conv3_2/sep"
  top: "conv3_2/sep"
  param {
    lr_mult: 1
    decay_mult: 0
  }
  param {
    lr_mult: 1
    decay_mult: 0
  }
  scale_param {
    filler {
      type: "constant"
      value: 1
    }
    bias_term: true
    bias_filler {
      type: "constant"
      value: 0
    }
  }
}
layer {
  name: "relu3_2/sep"
  type: "ReLU"
  bottom: "conv3_2/sep"
  top: "conv3_2/sep"
}
layer {
  name: "conv4_1/dw"
  type: "Convolution"
  bottom: "conv3_2/sep"
  top: "conv4_1/dw"
  param {
    lr_mult: 1
    decay_mult: 1
  }
  convolution_param {
    num_output: 256
    bias_term: false
    pad: 1
    kernel_size: 3
    group: 256
    stride: 1
    weight_filler {
      type: "msra"
    }
    engine: CAFFE
  }
}
layer {
  name: "conv4_1/dw/bn"
  type: "BatchNorm"
  bottom: "conv4_1/dw"
  top: "conv4_1/dw"
  batch_norm_param {
    use_global_stats: true
    eps: 1e-05
  }
}
layer {
  name: "conv4_1/dw/scale"
  type: "Scale"
  bottom: "conv4_1/dw"
  top: "conv4_1/dw"
  param {
    lr_mult: 1
    decay_mult: 0
  }
  param {
    lr_mult: 1
    decay_mult: 0
  }
  scale_param {
    filler {
      type: "constant"
      value: 1
    }
    bias_term: true
    bias_filler {
      type: "constant"
      value: 0
    }
  }
}
layer {
  name: "relu4_1/dw"
  type: "ReLU"
  bottom: "conv4_1/dw"
  top: "conv4_1/dw"
}
layer {
  name: "conv4_1/sep"
  type: "Convolution"
  bottom: "conv4_1/dw"
  top: "conv4_1/sep"
  param {
    lr_mult: 1
    decay_mult: 1
  }
  convolution_param {
    num_output: 256
    bias_term: false
    pad: 0
    kernel_size: 1
    stride: 1
    weight_filler {
      type: "msra"
    }
  }
}
layer {
  name: "conv4_1/sep/bn"
  type: "BatchNorm"
  bottom: "conv4_1/sep"
  top: "conv4_1/sep"
  batch_norm_param {
    use_global_stats: true
    eps: 1e-05
  }
}
layer {
  name: "conv4_1/sep/scale"
  type: "Scale"
  bottom: "conv4_1/sep"
  top: "conv4_1/sep"
  param {
    lr_mult: 1
    decay_mult: 0
  }
  param {
    lr_mult: 1
    decay_mult: 0
  }
  scale_param {
    filler {
      type: "constant"
      value: 1
    }
    bias_term: true
    bias_filler {
      type: "constant"
      value: 0
    }
  }
}
layer {
  name: "relu4_1/sep"
  type: "ReLU"
  bottom: "conv4_1/sep"
  top: "conv4_1/sep"
}
layer {
  name: "conv4_2/dw"
  type: "Convolution"
  bottom: "conv4_1/sep"
  top: "conv4_2/dw"
  param {
    lr_mult: 1
    decay_mult: 1
  }
  convolution_param {
    num_output: 256
    bias_term: false
    pad: 1
    kernel_size: 3
    group: 256
    stride: 2
    weight_filler {
      type: "msra"
    }
    engine: CAFFE
  }
}
layer {
  name: "conv4_2/dw/bn"
  type: "BatchNorm"
  bottom: "conv4_2/dw"
  top: "conv4_2/dw"
  batch_norm_param {
    use_global_stats: true
    eps: 1e-05
  }
}
layer {
  name: "conv4_2/dw/scale"
  type: "Scale"
  bottom: "conv4_2/dw"
  top: "conv4_2/dw"
  param {
    lr_mult: 1
    decay_mult: 0
  }
  param {
    lr_mult: 1
    decay_mult: 0
  }
  scale_param {
    filler {
      type: "constant"
      value: 1
    }
    bias_term: true
    bias_filler {
      type: "constant"
      value: 0
    }
  }
}
layer {
  name: "relu4_2/dw"
  type: "ReLU"
  bottom: "conv4_2/dw"
  top: "conv4_2/dw"
}
layer {
  name: "conv4_2/sep"
  type: "Convolution"
  bottom: "conv4_2/dw"
  top: "conv4_2/sep"
  param {
    lr_mult: 1
    decay_mult: 1
  }
  convolution_param {
    num_output: 512
    bias_term: false
    pad: 0
    kernel_size: 1
    stride: 1
    weight_filler {
      type: "msra"
    }
  }
}
layer {
  name: "conv4_2/sep/bn"
  type: "BatchNorm"
  bottom: "conv4_2/sep"
  top: "conv4_2/sep"
  batch_norm_param {
    use_global_stats: true
    eps: 1e-05
  }
}
layer {
  name: "conv4_2/sep/scale"
  type: "Scale"
  bottom: "conv4_2/sep"
  top: "conv4_2/sep"
  param {
    lr_mult: 1
    decay_mult: 0
  }
  param {
    lr_mult: 1
    decay_mult: 0
  }
  scale_param {
    filler {
      type: "constant"
      value: 1
    }
    bias_term: true
    bias_filler {
      type: "constant"
      value: 0
    }
  }
}
layer {
  name: "relu4_2/sep"
  type: "ReLU"
  bottom: "conv4_2/sep"
  top: "conv4_2/sep"
}
layer {
  name: "conv5_1/dw"
  type: "Convolution"
  bottom: "conv4_2/sep"
  top: "conv5_1/dw"
  param {
    lr_mult: 1
    decay_mult: 1
  }
  convolution_param {
    num_output: 512
    bias_term: false
    pad: 1
    kernel_size: 3
    group: 512
    stride: 1
    weight_filler {
      type: "msra"
    }
    engine: CAFFE
  }
}
layer {
  name: "conv5_1/dw/bn"
  type: "BatchNorm"
  bottom: "conv5_1/dw"
  top: "conv5_1/dw"
  batch_norm_param {
    use_global_stats: true
    eps: 1e-05
  }
}
layer {
  name: "conv5_1/dw/scale"
  type: "Scale"
  bottom: "conv5_1/dw"
  top: "conv5_1/dw"
  param {
    lr_mult: 1
    decay_mult: 0
  }
  param {
    lr_mult: 1
    decay_mult: 0
  }
  scale_param {
    filler {
      type: "constant"
      value: 1
    }
    bias_term: true
    bias_filler {
      type: "constant"
      value: 0
    }
  }
}
layer {
  name: "relu5_1/dw"
  type: "ReLU"
  bottom: "conv5_1/dw"
  top: "conv5_1/dw"
}
layer {
  name: "conv5_1/sep"
  type: "Convolution"
  bottom: "conv5_1/dw"
  top: "conv5_1/sep"
  param {
    lr_mult: 1
    decay_mult: 1
  }
  convolution_param {
    num_output: 512
    bias_term: false
    pad: 0
    kernel_size: 1
    stride: 1
    weight_filler {
      type: "msra"
    }
  }
}
layer {
  name: "conv5_1/sep/bn"
  type: "BatchNorm"
  bottom: "conv5_1/sep"
  top: "conv5_1/sep"
  batch_norm_param {
    use_global_stats: true
    eps: 1e-05
  }
}
layer {
  name: "conv5_1/sep/scale"
  type: "Scale"
  bottom: "conv5_1/sep"
  top: "conv5_1/sep"
  param {
    lr_mult: 1
    decay_mult: 0
  }
  param {
    lr_mult: 1
    decay_mult: 0
  }
  scale_param {
    filler {
      type: "constant"
      value: 1
    }
    bias_term: true
    bias_filler {
      type: "constant"
      value: 0
    }
  }
}
layer {
  name: "relu5_1/sep"
  type: "ReLU"
  bottom: "conv5_1/sep"
  top: "conv5_1/sep"
}
layer {
  name: "conv5_2/dw"
  type: "Convolution"
  bottom: "conv5_1/sep"
  top: "conv5_2/dw"
  param {
    lr_mult: 1
    decay_mult: 1
  }
  convolution_param {
    num_output: 512
    bias_term: false
    pad: 1
    kernel_size: 3
    group: 512
    stride: 1
    weight_filler {
      type: "msra"
    }
    engine: CAFFE
  }
}
layer {
  name: "conv5_2/dw/bn"
  type: "BatchNorm"
  bottom: "conv5_2/dw"
  top: "conv5_2/dw"
  batch_norm_param {
    use_global_stats: true
    eps: 1e-05
  }
}
layer {
  name: "conv5_2/dw/scale"
  type: "Scale"
  bottom: "conv5_2/dw"
  top: "conv5_2/dw"
  param {
    lr_mult: 1
    decay_mult: 0
  }
  param {
    lr_mult: 1
    decay_mult: 0
  }
  scale_param {
    filler {
      type: "constant"
      value: 1
    }
    bias_term: true
    bias_filler {
      type: "constant"
      value: 0
    }
  }
}
layer {
  name: "relu5_2/dw"
  type: "ReLU"
  bottom: "conv5_2/dw"
  top: "conv5_2/dw"
}
layer {
  name: "conv5_2/sep"
  type: "Convolution"
  bottom: "conv5_2/dw"
  top: "conv5_2/sep"
  param {
    lr_mult: 1
    decay_mult: 1
  }
  convolution_param {
    num_output: 512
    bias_term: false
    pad: 0
    kernel_size: 1
    stride: 1
    weight_filler {
      type: "msra"
    }
  }
}
layer {
  name: "conv5_2/sep/bn"
  type: "BatchNorm"
  bottom: "conv5_2/sep"
  top: "conv5_2/sep"
  batch_norm_param {
    use_global_stats: true
    eps: 1e-05
  }
}
layer {
  name: "conv5_2/sep/scale"
  type: "Scale"
  bottom: "conv5_2/sep"
  top: "conv5_2/sep"
  param {
    lr_mult: 1
    decay_mult: 0
  }
  param {
    lr_mult: 1
    decay_mult: 0
  }
  scale_param {
    filler {
      type: "constant"
      value: 1
    }
    bias_term: true
    bias_filler {
      type: "constant"
      value: 0
    }
  }
}
layer {
  name: "relu5_2/sep"
  type: "ReLU"
  bottom: "conv5_2/sep"
  top: "conv5_2/sep"
}
layer {
  name: "conv5_3/dw"
  type: "Convolution"
  bottom: "conv5_2/sep"
  top: "conv5_3/dw"
  param {
    lr_mult: 1
    decay_mult: 1
  }
  convolution_param {
    num_output: 512
    bias_term: false
    pad: 1
    kernel_size: 3
    group: 512
    stride: 1
    weight_filler {
      type: "msra"
    }
    engine: CAFFE
  }
}
layer {
  name: "conv5_3/dw/bn"
  type: "BatchNorm"
  bottom: "conv5_3/dw"
  top: "conv5_3/dw"
  batch_norm_param {
    use_global_stats: true
    eps: 1e-05
  }
}
layer {
  name: "conv5_3/dw/scale"
  type: "Scale"
  bottom: "conv5_3/dw"
  top: "conv5_3/dw"
  param {
    lr_mult: 1
    decay_mult: 0
  }
  param {
    lr_mult: 1
    decay_mult: 0
  }
  scale_param {
    filler {
      type: "constant"
      value: 1
    }
    bias_term: true
    bias_filler {
      type: "constant"
      value: 0
    }
  }
}
layer {
  name: "relu5_3/dw"
  type: "ReLU"
  bottom: "conv5_3/dw"
  top: "conv5_3/dw"
}
layer {
  name: "conv5_3/sep"
  type: "Convolution"
  bottom: "conv5_3/dw"
  top: "conv5_3/sep"
  param {
    lr_mult: 1
    decay_mult: 1
  }
  convolution_param {
    num_output: 512
    bias_term: false
    pad: 0
    kernel_size: 1
    stride: 1
    weight_filler {
      type: "msra"
    }
  }
}
layer {
  name: "conv5_3/sep/bn"
  type: "BatchNorm"
  bottom: "conv5_3/sep"
  top: "conv5_3/sep"
  batch_norm_param {
    use_global_stats: true
    eps: 1e-05
  }
}
layer {
  name: "conv5_3/sep/scale"
  type: "Scale"
  bottom: "conv5_3/sep"
  top: "conv5_3/sep"
  param {
    lr_mult: 1
    decay_mult: 0
  }
  param {
    lr_mult: 1
    decay_mult: 0
  }
  scale_param {
    filler {
      type: "constant"
      value: 1
    }
    bias_term: true
    bias_filler {
      type: "constant"
      value: 0
    }
  }
}
layer {
  name: "relu5_3/sep"
  type: "ReLU"
  bottom: "conv5_3/sep"
  top: "conv5_3/sep"
}
layer {
  name: "conv5_4/dw"
  type: "Convolution"
  bottom: "conv5_3/sep"
  top: "conv5_4/dw"
  param {
    lr_mult: 1
    decay_mult: 1
  }
  convolution_param {
    num_output: 512
    bias_term: false
    pad: 1
    kernel_size: 3
    group: 512
    stride: 1
    weight_filler {
      type: "msra"
    }
    engine: CAFFE
  }
}
layer {
  name: "conv5_4/dw/bn"
  type: "BatchNorm"
  bottom: "conv5_4/dw"
  top: "conv5_4/dw"
  batch_norm_param {
    use_global_stats: true
    eps: 1e-05
  }
}
layer {
  name: "conv5_4/dw/scale"
  type: "Scale"
  bottom: "conv5_4/dw"
  top: "conv5_4/dw"
  param {
    lr_mult: 1
    decay_mult: 0
  }
  param {
    lr_mult: 1
    decay_mult: 0
  }
  scale_param {
    filler {
      type: "constant"
      value: 1
    }
    bias_term: true
    bias_filler {
      type: "constant"
      value: 0
    }
  }
}
layer {
  name: "relu5_4/dw"
  type: "ReLU"
  bottom: "conv5_4/dw"
  top: "conv5_4/dw"
}
layer {
  name: "conv5_4/sep"
  type: "Convolution"
  bottom: "conv5_4/dw"
  top: "conv5_4/sep"
  param {
    lr_mult: 1
    decay_mult: 1
  }
  convolution_param {
    num_output: 512
    bias_term: false
    pad: 0
    kernel_size: 1
    stride: 1
    weight_filler {
      type: "msra"
    }
  }
}
layer {
  name: "conv5_4/sep/bn"
  type: "BatchNorm"
  bottom: "conv5_4/sep"
  top: "conv5_4/sep"
  batch_norm_param {
    use_global_stats: true
    eps: 1e-05
  }
}
layer {
  name: "conv5_4/sep/scale"
  type: "Scale"
  bottom: "conv5_4/sep"
  top: "conv5_4/sep"
  param {
    lr_mult: 1
    decay_mult: 0
  }
  param {
    lr_mult: 1
    decay_mult: 0
  }
  scale_param {
    filler {
      type: "constant"
      value: 1
    }
    bias_term: true
    bias_filler {
      type: "constant"
      value: 0
    }
  }
}
layer {
  name: "relu5_4/sep"
  type: "ReLU"
  bottom: "conv5_4/sep"
  top: "conv5_4/sep"
}
layer {
  name: "conv5_5/dw"
  type: "Convolution"
  bottom: "conv5_4/sep"
  top: "conv5_5/dw"
  param {
    lr_mult: 1
    decay_mult: 1
  }
  convolution_param {
    num_output: 512
    bias_term: false
    pad: 1
    kernel_size: 3
    group: 512
    stride: 1
    weight_filler {
      type: "msra"
    }
    engine: CAFFE
  }
}
layer {
  name: "conv5_5/dw/bn"
  type: "BatchNorm"
  bottom: "conv5_5/dw"
  top: "conv5_5/dw"
  batch_norm_param {
    use_global_stats: true
    eps: 1e-05
  }
}
layer {
  name: "conv5_5/dw/scale"
  type: "Scale"
  bottom: "conv5_5/dw"
  top: "conv5_5/dw"
  param {
    lr_mult: 1
    decay_mult: 0
  }
  param {
    lr_mult: 1
    decay_mult: 0
  }
  scale_param {
    filler {
      type: "constant"
      value: 1
    }
    bias_term: true
    bias_filler {
      type: "constant"
      value: 0
    }
  }
}
layer {
  name: "relu5_5/dw"
  type: "ReLU"
  bottom: "conv5_5/dw"
  top: "conv5_5/dw"
}
layer {
  name: "conv5_5/sep"
  type: "Convolution"
  bottom: "conv5_5/dw"
  top: "conv5_5/sep"
  param {
    lr_mult: 1
    decay_mult: 1
  }
  convolution_param {
    num_output: 512
    bias_term: false
    pad: 0
    kernel_size: 1
    stride: 1
    weight_filler {
      type: "msra"
    }
  }
}
layer {
  name: "conv5_5/sep/bn"
  type: "BatchNorm"
  bottom: "conv5_5/sep"
  top: "conv5_5/sep"
  batch_norm_param {
    use_global_stats: true
    eps: 1e-05
  }
}
layer {
  name: "conv5_5/sep/scale"
  type: "Scale"
  bottom: "conv5_5/sep"
  top: "conv5_5/sep"
  param {
    lr_mult: 1
    decay_mult: 0
  }
  param {
    lr_mult: 1
    decay_mult: 0
  }
  scale_param {
    filler {
      type: "constant"
      value: 1
    }
    bias_term: true
    bias_filler {
      type: "constant"
      value: 0
    }
  }
}
layer {
  name: "relu5_5/sep"
  type: "ReLU"
  bottom: "conv5_5/sep"
  top: "conv5_5/sep"
}
layer {
  name: "conv5_6/dw"
  type: "Convolution"
  bottom: "conv5_5/sep"
  top: "conv5_6/dw"
  param {
    lr_mult: 1
    decay_mult: 1
  }
  convolution_param {
    num_output: 512
    bias_term: false
    pad: 1
    kernel_size: 3
    group: 512
    stride: 2
    weight_filler {
      type: "msra"
    }
    engine: CAFFE
  }
}
layer {
  name: "conv5_6/dw/bn"
  type: "BatchNorm"
  bottom: "conv5_6/dw"
  top: "conv5_6/dw"
  batch_norm_param {
    use_global_stats: true
    eps: 1e-05
  }
}
layer {
  name: "conv5_6/dw/scale"
  type: "Scale"
  bottom: "conv5_6/dw"
  top: "conv5_6/dw"
  param {
    lr_mult: 1
    decay_mult: 0
  }
  param {
    lr_mult: 1
    decay_mult: 0
  }
  scale_param {
    filler {
      type: "constant"
      value: 1
    }
    bias_term: true
    bias_filler {
      type: "constant"
      value: 0
    }
  }
}
layer {
  name: "relu5_6/dw"
  type: "ReLU"
  bottom: "conv5_6/dw"
  top: "conv5_6/dw"
}
layer {
  name: "conv5_6/sep"
  type: "Convolution"
  bottom: "conv5_6/dw"
  top: "conv5_6/sep"
  param {
    lr_mult: 1
    decay_mult: 1
  }
  convolution_param {
    num_output: 1024
    bias_term: false
    pad: 0
    kernel_size: 1
    stride: 1
    weight_filler {
      type: "msra"
    }
  }
}
layer {
  name: "conv5_6/sep/bn"
  type: "BatchNorm"
  bottom: "conv5_6/sep"
  top: "conv5_6/sep"
  batch_norm_param {
    use_global_stats: true
    eps: 1e-05
  }
}
layer {
  name: "conv5_6/sep/scale"
  type: "Scale"
  bottom: "conv5_6/sep"
  top: "conv5_6/sep"
  param {
    lr_mult: 1
    decay_mult: 0
  }
  param {
    lr_mult: 1
    decay_mult: 0
  }
  scale_param {
    filler {
      type: "constant"
      value: 1
    }
    bias_term: true
    bias_filler {
      type: "constant"
      value: 0
    }
  }
}
layer {
  name: "relu5_6/sep"
  type: "ReLU"
  bottom: "conv5_6/sep"
  top: "conv5_6/sep"
}
layer {
  name: "conv6/dw"
  type: "Convolution"
  bottom: "conv5_6/sep"
  top: "conv6/dw"
  param {
    lr_mult: 1
    decay_mult: 1
  }
  convolution_param {
    num_output: 1024
    bias_term: false
    pad: 1
    kernel_size: 3
    group: 1024
    stride: 1
    weight_filler {
      type: "msra"
    }
    engine: CAFFE
  }
}
layer {
  name: "conv6/dw/bn"
  type: "BatchNorm"
  bottom: "conv6/dw"
  top: "conv6/dw"
  batch_norm_param {
    use_global_stats: true
    eps: 1e-05
  }
}
layer {
  name: "conv6/dw/scale"
  type: "Scale"
  bottom: "conv6/dw"
  top: "conv6/dw"
  param {
    lr_mult: 1
    decay_mult: 0
  }
  param {
    lr_mult: 1
    decay_mult: 0
  }
  scale_param {
    filler {
      type: "constant"
      value: 1
    }
    bias_term: true
    bias_filler {
      type: "constant"
      value: 0
    }
  }
}
layer {
  name: "relu6/dw"
  type: "ReLU"
  bottom: "conv6/dw"
  top: "conv6/dw"
}
layer {
  name: "conv6/sep"
  type: "Convolution"
  bottom: "conv6/dw"
  top: "conv6/sep"
  param {
    lr_mult: 1
    decay_mult: 1
  }
  convolution_param {
    num_output: 1024
    bias_term: false
    pad: 0
    kernel_size: 1
    stride: 1
    weight_filler {
      type: "msra"
    }
  }
}
layer {
  name: "conv6/sep/bn"
  type: "BatchNorm"
  bottom: "conv6/sep"
  top: "conv6/sep"
  batch_norm_param {
    use_global_stats: true
    eps: 1e-05
  }
}
layer {
  name: "conv6/sep/scale"
  type: "Scale"
  bottom: "conv6/sep"
  top: "conv6/sep"
  param {
    lr_mult: 1
    decay_mult: 0
  }
  param {
    lr_mult: 1
    decay_mult: 0
  }
  scale_param {
    filler {
      type: "constant"
      value: 1
    }
    bias_term: true
    bias_filler {
      type: "constant"
      value: 0
    }
  }
}
layer {
  name: "relu6/sep"
  type: "ReLU"
  bottom: "conv6/sep"
  top: "conv6/sep"
}
layer {
  name: "ssd1_1"
  type: "Convolution"
  bottom: "conv6/sep"
  top: "ssd1_1"
  param {
    lr_mult: 1
    decay_mult: 1
  }
  param {
    lr_mult: 2
    decay_mult: 0
  }
  convolution_param {
    num_output: 256
    pad: 0
    kernel_size: 1
    stride: 1
    weight_filler {
      type: "xavier"
    }
    bias_filler {
      type: "constant"
      value: 0
    }
  }
}
layer {
  name: "ssd1_1_relu"
  type: "ReLU"
  bottom: "ssd1_1"
  top: "ssd1_1"
}
layer {
  name: "ssd1_2"
  type: "Convolution"
  bottom: "ssd1_1"
  top: "ssd1_2"
  param {
    lr_mult: 1
    decay_mult: 1
  }
  param {
    lr_mult: 2
    decay_mult: 0
  }
  convolution_param {
    num_output: 512
    pad: 1
    kernel_size: 3
    stride: 2
    weight_filler {
      type: "xavier"
    }
    bias_filler {
      type: "constant"
      value: 0
    }
  }
}
layer {
  name: "ssd1_2_relu"
  type: "ReLU"
  bottom: "ssd1_2"
  top: "ssd1_2"
}
layer {
  name: "ssd2_1"
  type: "Convolution"
  bottom: "ssd1_2"
  top: "ssd2_1"
  param {
    lr_mult: 1
    decay_mult: 1
  }
  param {
    lr_mult: 2
    decay_mult: 0
  }
  convolution_param {
    num_output: 128
    pad: 0
    kernel_size: 1
    stride: 1
    weight_filler {
      type: "xavier"
    }
    bias_filler {
      type: "constant"
      value: 0
    }
  }
}
layer {
  name: "ssd2_1_relu"
  type: "ReLU"
  bottom: "ssd2_1"
  top: "ssd2_1"
}
layer {
  name: "ssd2_2"
  type: "Convolution"
  bottom: "ssd2_1"
  top: "ssd2_2"
  param {
    lr_mult: 1
    decay_mult: 1
  }
  param {
    lr_mult: 2
    decay_mult: 0
  }
  convolution_param {
    num_output: 256
    pad: 1
    kernel_size: 3
    stride: 2
    weight_filler {
      type: "xavier"
    }
    bias_filler {
      type: "constant"
      value: 0
    }
  }
}
layer {
  name: "ssd2_2_relu"
  type: "ReLU"
  bottom: "ssd2_2"
  top: "ssd2_2"
}
layer {
  name: "ssd3_1"
  type: "Convolution"
  bottom: "ssd2_2"
  top: "ssd3_1"
  param {
    lr_mult: 1
    decay_mult: 1
  }
  param {
    lr_mult: 2
    decay_mult: 0
  }
  convolution_param {
    num_output: 128
    pad: 0
    kernel_size: 1
    stride: 1
    weight_filler {
      type: "xavier"
    }
    bias_filler {
      type: "constant"
      value: 0
    }
  }
}
layer {
  name: "ssd3_1_relu"
  type: "ReLU"
  bottom: "ssd3_1"
  top: "ssd3_1"
}
layer {
  name: "ssd3_2"
  type: "Convolut
I1008 17:18:56.030475 21305 layer_factory.hpp:77] Creating layer data
I1008 17:18:56.030583 21305 net.cpp:100] Creating Layer data
I1008 17:18:56.030593 21305 net.cpp:408] data -> data
I1008 17:18:56.030618 21305 net.cpp:408] data -> label
I1008 17:18:56.031121 21313 db_lmdb.cpp:35] Opened lmdb examples/GTSDB/GTSDB_trainval_lmdb
I1008 17:18:56.043705 21305 annotated_data_layer.cpp:62] output data size: 2,3,300,510
I1008 17:18:56.047973 21305 net.cpp:150] Setting up data
I1008 17:18:56.047991 21305 net.cpp:157] Top shape: 2 3 300 510 (918000)
I1008 17:18:56.047996 21305 net.cpp:157] Top shape: 1 1 3 8 (24)
I1008 17:18:56.047997 21305 net.cpp:165] Memory required for data: 3672096
I1008 17:18:56.048007 21305 layer_factory.hpp:77] Creating layer data_data_0_split
I1008 17:18:56.048019 21305 net.cpp:100] Creating Layer data_data_0_split
I1008 17:18:56.048024 21305 net.cpp:434] data_data_0_split <- data
I1008 17:18:56.048035 21305 net.cpp:408] data_data_0_split -> data_data_0_split_0
I1008 17:18:56.048045 21305 net.cpp:408] data_data_0_split -> data_data_0_split_1
I1008 17:18:56.048051 21305 net.cpp:408] data_data_0_split -> data_data_0_split_2
I1008 17:18:56.048058 21305 net.cpp:408] data_data_0_split -> data_data_0_split_3
I1008 17:18:56.048063 21305 net.cpp:408] data_data_0_split -> data_data_0_split_4
I1008 17:18:56.048072 21305 net.cpp:408] data_data_0_split -> data_data_0_split_5
I1008 17:18:56.048079 21305 net.cpp:408] data_data_0_split -> data_data_0_split_6
I1008 17:18:56.048152 21305 net.cpp:150] Setting up data_data_0_split
I1008 17:18:56.048158 21305 net.cpp:157] Top shape: 2 3 300 510 (918000)
I1008 17:18:56.048163 21305 net.cpp:157] Top shape: 2 3 300 510 (918000)
I1008 17:18:56.048167 21305 net.cpp:157] Top shape: 2 3 300 510 (918000)
I1008 17:18:56.048172 21305 net.cpp:157] Top shape: 2 3 300 510 (918000)
I1008 17:18:56.048177 21305 net.cpp:157] Top shape: 2 3 300 510 (918000)
I1008 17:18:56.048182 21305 net.cpp:157] Top shape: 2 3 300 510 (918000)
I1008 17:18:56.048185 21305 net.cpp:157] Top shape: 2 3 300 510 (918000)
I1008 17:18:56.048188 21305 net.cpp:165] Memory required for data: 29376096
I1008 17:18:56.048192 21305 layer_factory.hpp:77] Creating layer conv1
I1008 17:18:56.048207 21305 net.cpp:100] Creating Layer conv1
I1008 17:18:56.048209 21305 net.cpp:434] conv1 <- data_data_0_split_0
I1008 17:18:56.048215 21305 net.cpp:408] conv1 -> conv1
I1008 17:18:56.374722 21305 net.cpp:150] Setting up conv1
I1008 17:18:56.374739 21305 net.cpp:157] Top shape: 2 32 150 255 (2448000)
I1008 17:18:56.374742 21305 net.cpp:165] Memory required for data: 39168096
I1008 17:18:56.374758 21305 layer_factory.hpp:77] Creating layer conv1/bn
I1008 17:18:56.374770 21305 net.cpp:100] Creating Layer conv1/bn
I1008 17:18:56.374774 21305 net.cpp:434] conv1/bn <- conv1
I1008 17:18:56.374779 21305 net.cpp:395] conv1/bn -> conv1 (in-place)
I1008 17:18:56.375375 21305 net.cpp:150] Setting up conv1/bn
I1008 17:18:56.375382 21305 net.cpp:157] Top shape: 2 32 150 255 (2448000)
I1008 17:18:56.375385 21305 net.cpp:165] Memory required for data: 48960096
I1008 17:18:56.375396 21305 layer_factory.hpp:77] Creating layer conv1/scale
I1008 17:18:56.375404 21305 net.cpp:100] Creating Layer conv1/scale
I1008 17:18:56.375407 21305 net.cpp:434] conv1/scale <- conv1
I1008 17:18:56.375412 21305 net.cpp:395] conv1/scale -> conv1 (in-place)
I1008 17:18:56.375447 21305 layer_factory.hpp:77] Creating layer conv1/scale
I1008 17:18:56.375540 21305 net.cpp:150] Setting up conv1/scale
I1008 17:18:56.375545 21305 net.cpp:157] Top shape: 2 32 150 255 (2448000)
I1008 17:18:56.375548 21305 net.cpp:165] Memory required for data: 58752096
I1008 17:18:56.375555 21305 layer_factory.hpp:77] Creating layer relu1
I1008 17:18:56.375560 21305 net.cpp:100] Creating Layer relu1
I1008 17:18:56.375562 21305 net.cpp:434] relu1 <- conv1
I1008 17:18:56.375567 21305 net.cpp:395] relu1 -> conv1 (in-place)
I1008 17:18:56.375811 21305 net.cpp:150] Setting up relu1
I1008 17:18:56.375818 21305 net.cpp:157] Top shape: 2 32 150 255 (2448000)
I1008 17:18:56.375820 21305 net.cpp:165] Memory required for data: 68544096
I1008 17:18:56.375823 21305 layer_factory.hpp:77] Creating layer conv2_1/dw
I1008 17:18:56.375831 21305 net.cpp:100] Creating Layer conv2_1/dw
I1008 17:18:56.375834 21305 net.cpp:434] conv2_1/dw <- conv1
I1008 17:18:56.375838 21305 net.cpp:408] conv2_1/dw -> conv2_1/dw
I1008 17:18:56.375963 21305 net.cpp:150] Setting up conv2_1/dw
I1008 17:18:56.375968 21305 net.cpp:157] Top shape: 2 32 150 255 (2448000)
I1008 17:18:56.375972 21305 net.cpp:165] Memory required for data: 78336096
I1008 17:18:56.375975 21305 layer_factory.hpp:77] Creating layer conv2_1/dw/bn
I1008 17:18:56.375982 21305 net.cpp:100] Creating Layer conv2_1/dw/bn
I1008 17:18:56.375984 21305 net.cpp:434] conv2_1/dw/bn <- conv2_1/dw
I1008 17:18:56.375988 21305 net.cpp:395] conv2_1/dw/bn -> conv2_1/dw (in-place)
I1008 17:18:56.376109 21305 net.cpp:150] Setting up conv2_1/dw/bn
I1008 17:18:56.376116 21305 net.cpp:157] Top shape: 2 32 150 255 (2448000)
I1008 17:18:56.376117 21305 net.cpp:165] Memory required for data: 88128096
I1008 17:18:56.376125 21305 layer_factory.hpp:77] Creating layer conv2_1/dw/scale
I1008 17:18:56.376132 21305 net.cpp:100] Creating Layer conv2_1/dw/scale
I1008 17:18:56.376137 21305 net.cpp:434] conv2_1/dw/scale <- conv2_1/dw
I1008 17:18:56.376140 21305 net.cpp:395] conv2_1/dw/scale -> conv2_1/dw (in-place)
I1008 17:18:56.376168 21305 layer_factory.hpp:77] Creating layer conv2_1/dw/scale
I1008 17:18:56.376253 21305 net.cpp:150] Setting up conv2_1/dw/scale
I1008 17:18:56.376268 21305 net.cpp:157] Top shape: 2 32 150 255 (2448000)
I1008 17:18:56.376271 21305 net.cpp:165] Memory required for data: 97920096
I1008 17:18:56.376276 21305 layer_factory.hpp:77] Creating layer relu2_1/dw
I1008 17:18:56.376281 21305 net.cpp:100] Creating Layer relu2_1/dw
I1008 17:18:56.376284 21305 net.cpp:434] relu2_1/dw <- conv2_1/dw
I1008 17:18:56.376287 21305 net.cpp:395] relu2_1/dw -> conv2_1/dw (in-place)
I1008 17:18:56.376618 21305 net.cpp:150] Setting up relu2_1/dw
I1008 17:18:56.376626 21305 net.cpp:157] Top shape: 2 32 150 255 (2448000)
I1008 17:18:56.376629 21305 net.cpp:165] Memory required for data: 107712096
I1008 17:18:56.376632 21305 layer_factory.hpp:77] Creating layer conv2_1/sep
I1008 17:18:56.376638 21305 net.cpp:100] Creating Layer conv2_1/sep
I1008 17:18:56.376642 21305 net.cpp:434] conv2_1/sep <- conv2_1/dw
I1008 17:18:56.376647 21305 net.cpp:408] conv2_1/sep -> conv2_1/sep
I1008 17:18:56.378094 21305 net.cpp:150] Setting up conv2_1/sep
I1008 17:18:56.378103 21305 net.cpp:157] Top shape: 2 64 150 255 (4896000)
I1008 17:18:56.378105 21305 net.cpp:165] Memory required for data: 127296096
I1008 17:18:56.378111 21305 layer_factory.hpp:77] Creating layer conv2_1/sep/bn
I1008 17:18:56.378118 21305 net.cpp:100] Creating Layer conv2_1/sep/bn
I1008 17:18:56.378123 21305 net.cpp:434] conv2_1/sep/bn <- conv2_1/sep
I1008 17:18:56.378127 21305 net.cpp:395] conv2_1/sep/bn -> conv2_1/sep (in-place)
I1008 17:18:56.378262 21305 net.cpp:150] Setting up conv2_1/sep/bn
I1008 17:18:56.378268 21305 net.cpp:157] Top shape: 2 64 150 255 (4896000)
I1008 17:18:56.378269 21305 net.cpp:165] Memory required for data: 146880096
I1008 17:18:56.378276 21305 layer_factory.hpp:77] Creating layer conv2_1/sep/scale
I1008 17:18:56.378283 21305 net.cpp:100] Creating Layer conv2_1/sep/scale
I1008 17:18:56.378286 21305 net.cpp:434] conv2_1/sep/scale <- conv2_1/sep
I1008 17:18:56.378291 21305 net.cpp:395] conv2_1/sep/scale -> conv2_1/sep (in-place)
I1008 17:18:56.378320 21305 layer_factory.hpp:77] Creating layer conv2_1/sep/scale
I1008 17:18:56.378414 21305 net.cpp:150] Setting up conv2_1/sep/scale
I1008 17:18:56.378419 21305 net.cpp:157] Top shape: 2 64 150 255 (4896000)
I1008 17:18:56.378422 21305 net.cpp:165] Memory required for data: 166464096
I1008 17:18:56.378430 21305 layer_factory.hpp:77] Creating layer relu2_1/sep
I1008 17:18:56.378434 21305 net.cpp:100] Creating Layer relu2_1/sep
I1008 17:18:56.378438 21305 net.cpp:434] relu2_1/sep <- conv2_1/sep
I1008 17:18:56.378443 21305 net.cpp:395] relu2_1/sep -> conv2_1/sep (in-place)
I1008 17:18:56.378710 21305 net.cpp:150] Setting up relu2_1/sep
I1008 17:18:56.378715 21305 net.cpp:157] Top shape: 2 64 150 255 (4896000)
I1008 17:18:56.378718 21305 net.cpp:165] Memory required for data: 186048096
I1008 17:18:56.378721 21305 layer_factory.hpp:77] Creating layer conv2_2/dw
I1008 17:18:56.378728 21305 net.cpp:100] Creating Layer conv2_2/dw
I1008 17:18:56.378732 21305 net.cpp:434] conv2_2/dw <- conv2_1/sep
I1008 17:18:56.378738 21305 net.cpp:408] conv2_2/dw -> conv2_2/dw
I1008 17:18:56.378866 21305 net.cpp:150] Setting up conv2_2/dw
I1008 17:18:56.378871 21305 net.cpp:157] Top shape: 2 64 75 128 (1228800)
I1008 17:18:56.378875 21305 net.cpp:165] Memory required for data: 190963296
I1008 17:18:56.378880 21305 layer_factory.hpp:77] Creating layer conv2_2/dw/bn
I1008 17:18:56.378885 21305 net.cpp:100] Creating Layer conv2_2/dw/bn
I1008 17:18:56.378888 21305 net.cpp:434] conv2_2/dw/bn <- conv2_2/dw
I1008 17:18:56.378893 21305 net.cpp:395] conv2_2/dw/bn -> conv2_2/dw (in-place)
I1008 17:18:56.379462 21305 net.cpp:150] Setting up conv2_2/dw/bn
I1008 17:18:56.379469 21305 net.cpp:157] Top shape: 2 64 75 128 (1228800)
I1008 17:18:56.379472 21305 net.cpp:165] Memory required for data: 195878496
I1008 17:18:56.379479 21305 layer_factory.hpp:77] Creating layer conv2_2/dw/scale
I1008 17:18:56.379489 21305 net.cpp:100] Creating Layer conv2_2/dw/scale
I1008 17:18:56.379492 21305 net.cpp:434] conv2_2/dw/scale <- conv2_2/dw
I1008 17:18:56.379498 21305 net.cpp:395] conv2_2/dw/scale -> conv2_2/dw (in-place)
I1008 17:18:56.379539 21305 layer_factory.hpp:77] Creating layer conv2_2/dw/scale
I1008 17:18:56.379611 21305 net.cpp:150] Setting up conv2_2/dw/scale
I1008 17:18:56.379616 21305 net.cpp:157] Top shape: 2 64 75 128 (1228800)
I1008 17:18:56.379619 21305 net.cpp:165] Memory required for data: 200793696
I1008 17:18:56.379626 21305 layer_factory.hpp:77] Creating layer relu2_2/dw
I1008 17:18:56.379631 21305 net.cpp:100] Creating Layer relu2_2/dw
I1008 17:18:56.379633 21305 net.cpp:434] relu2_2/dw <- conv2_2/dw
I1008 17:18:56.379638 21305 net.cpp:395] relu2_2/dw -> conv2_2/dw (in-place)
I1008 17:18:56.380635 21305 net.cpp:150] Setting up relu2_2/dw
I1008 17:18:56.380643 21305 net.cpp:157] Top shape: 2 64 75 128 (1228800)
I1008 17:18:56.380646 21305 net.cpp:165] Memory required for data: 205708896
I1008 17:18:56.380650 21305 layer_factory.hpp:77] Creating layer conv2_2/sep
I1008 17:18:56.380659 21305 net.cpp:100] Creating Layer conv2_2/sep
I1008 17:18:56.380662 21305 net.cpp:434] conv2_2/sep <- conv2_2/dw
I1008 17:18:56.380668 21305 net.cpp:408] conv2_2/sep -> conv2_2/sep
I1008 17:18:56.381853 21305 net.cpp:150] Setting up conv2_2/sep
I1008 17:18:56.381861 21305 net.cpp:157] Top shape: 2 128 75 128 (2457600)
I1008 17:18:56.381865 21305 net.cpp:165] Memory required for data: 215539296
I1008 17:18:56.381870 21305 layer_factory.hpp:77] Creating layer conv2_2/sep/bn
I1008 17:18:56.381876 21305 net.cpp:100] Creating Layer conv2_2/sep/bn
I1008 17:18:56.381880 21305 net.cpp:434] conv2_2/sep/bn <- conv2_2/sep
I1008 17:18:56.381886 21305 net.cpp:395] conv2_2/sep/bn -> conv2_2/sep (in-place)
I1008 17:18:56.382009 21305 net.cpp:150] Setting up conv2_2/sep/bn
I1008 17:18:56.382012 21305 net.cpp:157] Top shape: 2 128 75 128 (2457600)
I1008 17:18:56.382016 21305 net.cpp:165] Memory required for data: 225369696
I1008 17:18:56.382023 21305 layer_factory.hpp:77] Creating layer conv2_2/sep/scale
I1008 17:18:56.382031 21305 net.cpp:100] Creating Layer conv2_2/sep/scale
I1008 17:18:56.382035 21305 net.cpp:434] conv2_2/sep/scale <- conv2_2/sep
I1008 17:18:56.382040 21305 net.cpp:395] conv2_2/sep/scale -> conv2_2/sep (in-place)
I1008 17:18:56.382067 21305 layer_factory.hpp:77] Creating layer conv2_2/sep/scale
I1008 17:18:56.382138 21305 net.cpp:150] Setting up conv2_2/sep/scale
I1008 17:18:56.382143 21305 net.cpp:157] Top shape: 2 128 75 128 (2457600)
I1008 17:18:56.382146 21305 net.cpp:165] Memory required for data: 235200096
I1008 17:18:56.382153 21305 layer_factory.hpp:77] Creating layer relu2_2/sep
I1008 17:18:56.382156 21305 net.cpp:100] Creating Layer relu2_2/sep
I1008 17:18:56.382160 21305 net.cpp:434] relu2_2/sep <- conv2_2/sep
I1008 17:18:56.382165 21305 net.cpp:395] relu2_2/sep -> conv2_2/sep (in-place)
I1008 17:18:56.382441 21305 net.cpp:150] Setting up relu2_2/sep
I1008 17:18:56.382447 21305 net.cpp:157] Top shape: 2 128 75 128 (2457600)
I1008 17:18:56.382450 21305 net.cpp:165] Memory required for data: 245030496
I1008 17:18:56.382453 21305 layer_factory.hpp:77] Creating layer conv3_1/dw
I1008 17:18:56.382462 21305 net.cpp:100] Creating Layer conv3_1/dw
I1008 17:18:56.382464 21305 net.cpp:434] conv3_1/dw <- conv2_2/sep
I1008 17:18:56.382469 21305 net.cpp:408] conv3_1/dw -> conv3_1/dw
I1008 17:18:56.382601 21305 net.cpp:150] Setting up conv3_1/dw
I1008 17:18:56.382606 21305 net.cpp:157] Top shape: 2 128 75 128 (2457600)
I1008 17:18:56.382608 21305 net.cpp:165] Memory required for data: 254860896
I1008 17:18:56.382612 21305 layer_factory.hpp:77] Creating layer conv3_1/dw/bn
I1008 17:18:56.382618 21305 net.cpp:100] Creating Layer conv3_1/dw/bn
I1008 17:18:56.382622 21305 net.cpp:434] conv3_1/dw/bn <- conv3_1/dw
I1008 17:18:56.382627 21305 net.cpp:395] conv3_1/dw/bn -> conv3_1/dw (in-place)
I1008 17:18:56.382745 21305 net.cpp:150] Setting up conv3_1/dw/bn
I1008 17:18:56.382750 21305 net.cpp:157] Top shape: 2 128 75 128 (2457600)
I1008 17:18:56.382752 21305 net.cpp:165] Memory required for data: 264691296
I1008 17:18:56.382761 21305 layer_factory.hpp:77] Creating layer conv3_1/dw/scale
I1008 17:18:56.382767 21305 net.cpp:100] Creating Layer conv3_1/dw/scale
I1008 17:18:56.382778 21305 net.cpp:434] conv3_1/dw/scale <- conv3_1/dw
I1008 17:18:56.382783 21305 net.cpp:395] conv3_1/dw/scale -> conv3_1/dw (in-place)
I1008 17:18:56.382813 21305 layer_factory.hpp:77] Creating layer conv3_1/dw/scale
I1008 17:18:56.382882 21305 net.cpp:150] Setting up conv3_1/dw/scale
I1008 17:18:56.382889 21305 net.cpp:157] Top shape: 2 128 75 128 (2457600)
I1008 17:18:56.382890 21305 net.cpp:165] Memory required for data: 274521696
I1008 17:18:56.382895 21305 layer_factory.hpp:77] Creating layer relu3_1/dw
I1008 17:18:56.382901 21305 net.cpp:100] Creating Layer relu3_1/dw
I1008 17:18:56.382905 21305 net.cpp:434] relu3_1/dw <- conv3_1/dw
I1008 17:18:56.382910 21305 net.cpp:395] relu3_1/dw -> conv3_1/dw (in-place)
I1008 17:18:56.383282 21305 net.cpp:150] Setting up relu3_1/dw
I1008 17:18:56.383291 21305 net.cpp:157] Top shape: 2 128 75 128 (2457600)
I1008 17:18:56.383294 21305 net.cpp:165] Memory required for data: 284352096
I1008 17:18:56.383297 21305 layer_factory.hpp:77] Creating layer conv3_1/sep
I1008 17:18:56.383306 21305 net.cpp:100] Creating Layer conv3_1/sep
I1008 17:18:56.383308 21305 net.cpp:434] conv3_1/sep <- conv3_1/dw
I1008 17:18:56.383314 21305 net.cpp:408] conv3_1/sep -> conv3_1/sep
I1008 17:18:56.384433 21305 net.cpp:150] Setting up conv3_1/sep
I1008 17:18:56.384441 21305 net.cpp:157] Top shape: 2 128 75 128 (2457600)
I1008 17:18:56.384443 21305 net.cpp:165] Memory required for data: 294182496
I1008 17:18:56.384449 21305 layer_factory.hpp:77] Creating layer conv3_1/sep/bn
I1008 17:18:56.384456 21305 net.cpp:100] Creating Layer conv3_1/sep/bn
I1008 17:18:56.384460 21305 net.cpp:434] conv3_1/sep/bn <- conv3_1/sep
I1008 17:18:56.384464 21305 net.cpp:395] conv3_1/sep/bn -> conv3_1/sep (in-place)
I1008 17:18:56.384589 21305 net.cpp:150] Setting up conv3_1/sep/bn
I1008 17:18:56.384594 21305 net.cpp:157] Top shape: 2 128 75 128 (2457600)
I1008 17:18:56.384598 21305 net.cpp:165] Memory required for data: 304012896
I1008 17:18:56.384603 21305 layer_factory.hpp:77] Creating layer conv3_1/sep/scale
I1008 17:18:56.384610 21305 net.cpp:100] Creating Layer conv3_1/sep/scale
I1008 17:18:56.384613 21305 net.cpp:434] conv3_1/sep/scale <- conv3_1/sep
I1008 17:18:56.384618 21305 net.cpp:395] conv3_1/sep/scale -> conv3_1/sep (in-place)
I1008 17:18:56.384647 21305 layer_factory.hpp:77] Creating layer conv3_1/sep/scale
I1008 17:18:56.384717 21305 net.cpp:150] Setting up conv3_1/sep/scale
I1008 17:18:56.384722 21305 net.cpp:157] Top shape: 2 128 75 128 (2457600)
I1008 17:18:56.384726 21305 net.cpp:165] Memory required for data: 313843296
I1008 17:18:56.384730 21305 layer_factory.hpp:77] Creating layer relu3_1/sep
I1008 17:18:56.384735 21305 net.cpp:100] Creating Layer relu3_1/sep
I1008 17:18:56.384738 21305 net.cpp:434] relu3_1/sep <- conv3_1/sep
I1008 17:18:56.384743 21305 net.cpp:395] relu3_1/sep -> conv3_1/sep (in-place)
I1008 17:18:56.385010 21305 net.cpp:150] Setting up relu3_1/sep
I1008 17:18:56.385016 21305 net.cpp:157] Top shape: 2 128 75 128 (2457600)
I1008 17:18:56.385020 21305 net.cpp:165] Memory required for data: 323673696
I1008 17:18:56.385022 21305 layer_factory.hpp:77] Creating layer conv3_2/dw
I1008 17:18:56.385030 21305 net.cpp:100] Creating Layer conv3_2/dw
I1008 17:18:56.385033 21305 net.cpp:434] conv3_2/dw <- conv3_1/sep
I1008 17:18:56.385038 21305 net.cpp:408] conv3_2/dw -> conv3_2/dw
I1008 17:18:56.385169 21305 net.cpp:150] Setting up conv3_2/dw
I1008 17:18:56.385175 21305 net.cpp:157] Top shape: 2 128 38 64 (622592)
I1008 17:18:56.385179 21305 net.cpp:165] Memory required for data: 326164064
I1008 17:18:56.385183 21305 layer_factory.hpp:77] Creating layer conv3_2/dw/bn
I1008 17:18:56.385188 21305 net.cpp:100] Creating Layer conv3_2/dw/bn
I1008 17:18:56.385191 21305 net.cpp:434] conv3_2/dw/bn <- conv3_2/dw
I1008 17:18:56.385197 21305 net.cpp:395] conv3_2/dw/bn -> conv3_2/dw (in-place)
I1008 17:18:56.385314 21305 net.cpp:150] Setting up conv3_2/dw/bn
I1008 17:18:56.385319 21305 net.cpp:157] Top shape: 2 128 38 64 (622592)
I1008 17:18:56.385321 21305 net.cpp:165] Memory required for data: 328654432
I1008 17:18:56.385336 21305 layer_factory.hpp:77] Creating layer conv3_2/dw/scale
I1008 17:18:56.385345 21305 net.cpp:100] Creating Layer conv3_2/dw/scale
I1008 17:18:56.385349 21305 net.cpp:434] conv3_2/dw/scale <- conv3_2/dw
I1008 17:18:56.385352 21305 net.cpp:395] conv3_2/dw/scale -> conv3_2/dw (in-place)
I1008 17:18:56.385381 21305 layer_factory.hpp:77] Creating layer conv3_2/dw/scale
I1008 17:18:56.385447 21305 net.cpp:150] Setting up conv3_2/dw/scale
I1008 17:18:56.385452 21305 net.cpp:157] Top shape: 2 128 38 64 (622592)
I1008 17:18:56.385454 21305 net.cpp:165] Memory required for data: 331144800
I1008 17:18:56.385462 21305 layer_factory.hpp:77] Creating layer relu3_2/dw
I1008 17:18:56.385465 21305 net.cpp:100] Creating Layer relu3_2/dw
I1008 17:18:56.385468 21305 net.cpp:434] relu3_2/dw <- conv3_2/dw
I1008 17:18:56.385473 21305 net.cpp:395] relu3_2/dw -> conv3_2/dw (in-place)
I1008 17:18:56.386509 21305 net.cpp:150] Setting up relu3_2/dw
I1008 17:18:56.386519 21305 net.cpp:157] Top shape: 2 128 38 64 (622592)
I1008 17:18:56.386523 21305 net.cpp:165] Memory required for data: 333635168
I1008 17:18:56.386525 21305 layer_factory.hpp:77] Creating layer conv3_2/sep
I1008 17:18:56.386538 21305 net.cpp:100] Creating Layer conv3_2/sep
I1008 17:18:56.386540 21305 net.cpp:434] conv3_2/sep <- conv3_2/dw
I1008 17:18:56.386548 21305 net.cpp:408] conv3_2/sep -> conv3_2/sep
I1008 17:18:56.387995 21305 net.cpp:150] Setting up conv3_2/sep
I1008 17:18:56.388016 21305 net.cpp:157] Top shape: 2 256 38 64 (1245184)
I1008 17:18:56.388020 21305 net.cpp:165] Memory required for data: 338615904
I1008 17:18:56.388031 21305 layer_factory.hpp:77] Creating layer conv3_2/sep/bn
I1008 17:18:56.388041 21305 net.cpp:100] Creating Layer conv3_2/sep/bn
I1008 17:18:56.388047 21305 net.cpp:434] conv3_2/sep/bn <- conv3_2/sep
I1008 17:18:56.388056 21305 net.cpp:395] conv3_2/sep/bn -> conv3_2/sep (in-place)
I1008 17:18:56.388231 21305 net.cpp:150] Setting up conv3_2/sep/bn
I1008 17:18:56.388236 21305 net.cpp:157] Top shape: 2 256 38 64 (1245184)
I1008 17:18:56.388240 21305 net.cpp:165] Memory required for data: 343596640
I1008 17:18:56.388247 21305 layer_factory.hpp:77] Creating layer conv3_2/sep/scale
I1008 17:18:56.388255 21305 net.cpp:100] Creating Layer conv3_2/sep/scale
I1008 17:18:56.388259 21305 net.cpp:434] conv3_2/sep/scale <- conv3_2/sep
I1008 17:18:56.388265 21305 net.cpp:395] conv3_2/sep/scale -> conv3_2/sep (in-place)
I1008 17:18:56.388304 21305 layer_factory.hpp:77] Creating layer conv3_2/sep/scale
I1008 17:18:56.388397 21305 net.cpp:150] Setting up conv3_2/sep/scale
I1008 17:18:56.388403 21305 net.cpp:157] Top shape: 2 256 38 64 (1245184)
I1008 17:18:56.388407 21305 net.cpp:165] Memory required for data: 348577376
I1008 17:18:56.388412 21305 layer_factory.hpp:77] Creating layer relu3_2/sep
I1008 17:18:56.388418 21305 net.cpp:100] Creating Layer relu3_2/sep
I1008 17:18:56.388422 21305 net.cpp:434] relu3_2/sep <- conv3_2/sep
I1008 17:18:56.388427 21305 net.cpp:395] relu3_2/sep -> conv3_2/sep (in-place)
I1008 17:18:56.388818 21305 net.cpp:150] Setting up relu3_2/sep
I1008 17:18:56.388824 21305 net.cpp:157] Top shape: 2 256 38 64 (1245184)
I1008 17:18:56.388826 21305 net.cpp:165] Memory required for data: 353558112
I1008 17:18:56.388830 21305 layer_factory.hpp:77] Creating layer conv4_1/dw
I1008 17:18:56.388839 21305 net.cpp:100] Creating Layer conv4_1/dw
I1008 17:18:56.388844 21305 net.cpp:434] conv4_1/dw <- conv3_2/sep
I1008 17:18:56.388847 21305 net.cpp:408] conv4_1/dw -> conv4_1/dw
I1008 17:18:56.389045 21305 net.cpp:150] Setting up conv4_1/dw
I1008 17:18:56.389051 21305 net.cpp:157] Top shape: 2 256 38 64 (1245184)
I1008 17:18:56.389053 21305 net.cpp:165] Memory required for data: 358538848
I1008 17:18:56.389057 21305 layer_factory.hpp:77] Creating layer conv4_1/dw/bn
I1008 17:18:56.389063 21305 net.cpp:100] Creating Layer conv4_1/dw/bn
I1008 17:18:56.389067 21305 net.cpp:434] conv4_1/dw/bn <- conv4_1/dw
I1008 17:18:56.389071 21305 net.cpp:395] conv4_1/dw/bn -> conv4_1/dw (in-place)
I1008 17:18:56.389250 21305 net.cpp:150] Setting up conv4_1/dw/bn
I1008 17:18:56.389256 21305 net.cpp:157] Top shape: 2 256 38 64 (1245184)
I1008 17:18:56.389258 21305 net.cpp:165] Memory required for data: 363519584
I1008 17:18:56.389264 21305 layer_factory.hpp:77] Creating layer conv4_1/dw/scale
I1008 17:18:56.389271 21305 net.cpp:100] Creating Layer conv4_1/dw/scale
I1008 17:18:56.389273 21305 net.cpp:434] conv4_1/dw/scale <- conv4_1/dw
I1008 17:18:56.389278 21305 net.cpp:395] conv4_1/dw/scale -> conv4_1/dw (in-place)
I1008 17:18:56.389310 21305 layer_factory.hpp:77] Creating layer conv4_1/dw/scale
I1008 17:18:56.389398 21305 net.cpp:150] Setting up conv4_1/dw/scale
I1008 17:18:56.389403 21305 net.cpp:157] Top shape: 2 256 38 64 (1245184)
I1008 17:18:56.389405 21305 net.cpp:165] Memory required for data: 368500320
I1008 17:18:56.389410 21305 layer_factory.hpp:77] Creating layer relu4_1/dw
I1008 17:18:56.389415 21305 net.cpp:100] Creating Layer relu4_1/dw
I1008 17:18:56.389417 21305 net.cpp:434] relu4_1/dw <- conv4_1/dw
I1008 17:18:56.389420 21305 net.cpp:395] relu4_1/dw -> conv4_1/dw (in-place)
I1008 17:18:56.390009 21305 net.cpp:150] Setting up relu4_1/dw
I1008 17:18:56.390018 21305 net.cpp:157] Top shape: 2 256 38 64 (1245184)
I1008 17:18:56.390022 21305 net.cpp:165] Memory required for data: 373481056
I1008 17:18:56.390024 21305 layer_factory.hpp:77] Creating layer conv4_1/sep
I1008 17:18:56.390033 21305 net.cpp:100] Creating Layer conv4_1/sep
I1008 17:18:56.390035 21305 net.cpp:434] conv4_1/sep <- conv4_1/dw
I1008 17:18:56.390041 21305 net.cpp:408] conv4_1/sep -> conv4_1/sep
I1008 17:18:56.391984 21305 net.cpp:150] Setting up conv4_1/sep
I1008 17:18:56.391999 21305 net.cpp:157] Top shape: 2 256 38 64 (1245184)
I1008 17:18:56.392000 21305 net.cpp:165] Memory required for data: 378461792
I1008 17:18:56.392006 21305 layer_factory.hpp:77] Creating layer conv4_1/sep/bn
I1008 17:18:56.392014 21305 net.cpp:100] Creating Layer conv4_1/sep/bn
I1008 17:18:56.392016 21305 net.cpp:434] conv4_1/sep/bn <- conv4_1/sep
I1008 17:18:56.392020 21305 net.cpp:395] conv4_1/sep/bn -> conv4_1/sep (in-place)
I1008 17:18:56.392179 21305 net.cpp:150] Setting up conv4_1/sep/bn
I1008 17:18:56.392184 21305 net.cpp:157] Top shape: 2 256 38 64 (1245184)
I1008 17:18:56.392186 21305 net.cpp:165] Memory required for data: 383442528
I1008 17:18:56.392191 21305 layer_factory.hpp:77] Creating layer conv4_1/sep/scale
I1008 17:18:56.392197 21305 net.cpp:100] Creating Layer conv4_1/sep/scale
I1008 17:18:56.392199 21305 net.cpp:434] conv4_1/sep/scale <- conv4_1/sep
I1008 17:18:56.392202 21305 net.cpp:395] conv4_1/sep/scale -> conv4_1/sep (in-place)
I1008 17:18:56.392231 21305 layer_factory.hpp:77] Creating layer conv4_1/sep/scale
I1008 17:18:56.392297 21305 net.cpp:150] Setting up conv4_1/sep/scale
I1008 17:18:56.392302 21305 net.cpp:157] Top shape: 2 256 38 64 (1245184)
I1008 17:18:56.392303 21305 net.cpp:165] Memory required for data: 388423264
I1008 17:18:56.392313 21305 layer_factory.hpp:77] Creating layer relu4_1/sep
I1008 17:18:56.392318 21305 net.cpp:100] Creating Layer relu4_1/sep
I1008 17:18:56.392320 21305 net.cpp:434] relu4_1/sep <- conv4_1/sep
I1008 17:18:56.392323 21305 net.cpp:395] relu4_1/sep -> conv4_1/sep (in-place)
I1008 17:18:56.392596 21305 net.cpp:150] Setting up relu4_1/sep
I1008 17:18:56.392601 21305 net.cpp:157] Top shape: 2 256 38 64 (1245184)
I1008 17:18:56.392604 21305 net.cpp:165] Memory required for data: 393404000
I1008 17:18:56.392607 21305 layer_factory.hpp:77] Creating layer conv4_2/dw
I1008 17:18:56.392616 21305 net.cpp:100] Creating Layer conv4_2/dw
I1008 17:18:56.392619 21305 net.cpp:434] conv4_2/dw <- conv4_1/sep
I1008 17:18:56.392623 21305 net.cpp:408] conv4_2/dw -> conv4_2/dw
I1008 17:18:56.392765 21305 net.cpp:150] Setting up conv4_2/dw
I1008 17:18:56.392768 21305 net.cpp:157] Top shape: 2 256 19 32 (311296)
I1008 17:18:56.392771 21305 net.cpp:165] Memory required for data: 394649184
I1008 17:18:56.392774 21305 layer_factory.hpp:77] Creating layer conv4_2/dw/bn
I1008 17:18:56.392777 21305 net.cpp:100] Creating Layer conv4_2/dw/bn
I1008 17:18:56.392791 21305 net.cpp:434] conv4_2/dw/bn <- conv4_2/dw
I1008 17:18:56.392796 21305 net.cpp:395] conv4_2/dw/bn -> conv4_2/dw (in-place)
I1008 17:18:56.392918 21305 net.cpp:150] Setting up conv4_2/dw/bn
I1008 17:18:56.392922 21305 net.cpp:157] Top shape: 2 256 19 32 (311296)
I1008 17:18:56.392925 21305 net.cpp:165] Memory required for data: 395894368
I1008 17:18:56.392930 21305 layer_factory.hpp:77] Creating layer conv4_2/dw/scale
I1008 17:18:56.392933 21305 net.cpp:100] Creating Layer conv4_2/dw/scale
I1008 17:18:56.392935 21305 net.cpp:434] conv4_2/dw/scale <- conv4_2/dw
I1008 17:18:56.392938 21305 net.cpp:395] conv4_2/dw/scale -> conv4_2/dw (in-place)
I1008 17:18:56.392962 21305 layer_factory.hpp:77] Creating layer conv4_2/dw/scale
I1008 17:18:56.393035 21305 net.cpp:150] Setting up conv4_2/dw/scale
I1008 17:18:56.393038 21305 net.cpp:157] Top shape: 2 256 19 32 (311296)
I1008 17:18:56.393041 21305 net.cpp:165] Memory required for data: 397139552
I1008 17:18:56.393045 21305 layer_factory.hpp:77] Creating layer relu4_2/dw
I1008 17:18:56.393049 21305 net.cpp:100] Creating Layer relu4_2/dw
I1008 17:18:56.393050 21305 net.cpp:434] relu4_2/dw <- conv4_2/dw
I1008 17:18:56.393054 21305 net.cpp:395] relu4_2/dw -> conv4_2/dw (in-place)
I1008 17:18:56.394104 21305 net.cpp:150] Setting up relu4_2/dw
I1008 17:18:56.394112 21305 net.cpp:157] Top shape: 2 256 19 32 (311296)
I1008 17:18:56.394114 21305 net.cpp:165] Memory required for data: 398384736
I1008 17:18:56.394116 21305 layer_factory.hpp:77] Creating layer conv4_2/sep
I1008 17:18:56.394124 21305 net.cpp:100] Creating Layer conv4_2/sep
I1008 17:18:56.394125 21305 net.cpp:434] conv4_2/sep <- conv4_2/dw
I1008 17:18:56.394129 21305 net.cpp:408] conv4_2/sep -> conv4_2/sep
I1008 17:18:56.396385 21305 net.cpp:150] Setting up conv4_2/sep
I1008 17:18:56.396395 21305 net.cpp:157] Top shape: 2 512 19 32 (622592)
I1008 17:18:56.396397 21305 net.cpp:165] Memory required for data: 400875104
I1008 17:18:56.396402 21305 layer_factory.hpp:77] Creating layer conv4_2/sep/bn
I1008 17:18:56.396411 21305 net.cpp:100] Creating Layer conv4_2/sep/bn
I1008 17:18:56.396414 21305 net.cpp:434] conv4_2/sep/bn <- conv4_2/sep
I1008 17:18:56.396417 21305 net.cpp:395] conv4_2/sep/bn -> conv4_2/sep (in-place)
I1008 17:18:56.396589 21305 net.cpp:150] Setting up conv4_2/sep/bn
I1008 17:18:56.396595 21305 net.cpp:157] Top shape: 2 512 19 32 (622592)
I1008 17:18:56.396597 21305 net.cpp:165] Memory required for data: 403365472
I1008 17:18:56.396603 21305 layer_factory.hpp:77] Creating layer conv4_2/sep/scale
I1008 17:18:56.396610 21305 net.cpp:100] Creating Layer conv4_2/sep/scale
I1008 17:18:56.396613 21305 net.cpp:434] conv4_2/sep/scale <- conv4_2/sep
I1008 17:18:56.396618 21305 net.cpp:395] conv4_2/sep/scale -> conv4_2/sep (in-place)
I1008 17:18:56.396656 21305 layer_factory.hpp:77] Creating layer conv4_2/sep/scale
I1008 17:18:56.396751 21305 net.cpp:150] Setting up conv4_2/sep/scale
I1008 17:18:56.396756 21305 net.cpp:157] Top shape: 2 512 19 32 (622592)
I1008 17:18:56.396760 21305 net.cpp:165] Memory required for data: 405855840
I1008 17:18:56.396765 21305 layer_factory.hpp:77] Creating layer relu4_2/sep
I1008 17:18:56.396770 21305 net.cpp:100] Creating Layer relu4_2/sep
I1008 17:18:56.396773 21305 net.cpp:434] relu4_2/sep <- conv4_2/sep
I1008 17:18:56.396777 21305 net.cpp:395] relu4_2/sep -> conv4_2/sep (in-place)
I1008 17:18:56.397137 21305 net.cpp:150] Setting up relu4_2/sep
I1008 17:18:56.397145 21305 net.cpp:157] Top shape: 2 512 19 32 (622592)
I1008 17:18:56.397147 21305 net.cpp:165] Memory required for data: 408346208
I1008 17:18:56.397150 21305 layer_factory.hpp:77] Creating layer conv5_1/dw
I1008 17:18:56.397157 21305 net.cpp:100] Creating Layer conv5_1/dw
I1008 17:18:56.397161 21305 net.cpp:434] conv5_1/dw <- conv4_2/sep
I1008 17:18:56.397166 21305 net.cpp:408] conv5_1/dw -> conv5_1/dw
I1008 17:18:56.397387 21305 net.cpp:150] Setting up conv5_1/dw
I1008 17:18:56.397392 21305 net.cpp:157] Top shape: 2 512 19 32 (622592)
I1008 17:18:56.397394 21305 net.cpp:165] Memory required for data: 410836576
I1008 17:18:56.397411 21305 layer_factory.hpp:77] Creating layer conv5_1/dw/bn
I1008 17:18:56.397418 21305 net.cpp:100] Creating Layer conv5_1/dw/bn
I1008 17:18:56.397421 21305 net.cpp:434] conv5_1/dw/bn <- conv5_1/dw
I1008 17:18:56.397424 21305 net.cpp:395] conv5_1/dw/bn -> conv5_1/dw (in-place)
I1008 17:18:56.397593 21305 net.cpp:150] Setting up conv5_1/dw/bn
I1008 17:18:56.397598 21305 net.cpp:157] Top shape: 2 512 19 32 (622592)
I1008 17:18:56.397601 21305 net.cpp:165] Memory required for data: 413326944
I1008 17:18:56.397608 21305 layer_factory.hpp:77] Creating layer conv5_1/dw/scale
I1008 17:18:56.397614 21305 net.cpp:100] Creating Layer conv5_1/dw/scale
I1008 17:18:56.397617 21305 net.cpp:434] conv5_1/dw/scale <- conv5_1/dw
I1008 17:18:56.397621 21305 net.cpp:395] conv5_1/dw/scale -> conv5_1/dw (in-place)
I1008 17:18:56.397655 21305 layer_factory.hpp:77] Creating layer conv5_1/dw/scale
I1008 17:18:56.397749 21305 net.cpp:150] Setting up conv5_1/dw/scale
I1008 17:18:56.397755 21305 net.cpp:157] Top shape: 2 512 19 32 (622592)
I1008 17:18:56.397758 21305 net.cpp:165] Memory required for data: 415817312
I1008 17:18:56.397763 21305 layer_factory.hpp:77] Creating layer relu5_1/dw
I1008 17:18:56.397768 21305 net.cpp:100] Creating Layer relu5_1/dw
I1008 17:18:56.397771 21305 net.cpp:434] relu5_1/dw <- conv5_1/dw
I1008 17:18:56.397775 21305 net.cpp:395] relu5_1/dw -> conv5_1/dw (in-place)
I1008 17:18:56.398263 21305 net.cpp:150] Setting up relu5_1/dw
I1008 17:18:56.398272 21305 net.cpp:157] Top shape: 2 512 19 32 (622592)
I1008 17:18:56.398277 21305 net.cpp:165] Memory required for data: 418307680
I1008 17:18:56.398279 21305 layer_factory.hpp:77] Creating layer conv5_1/sep
I1008 17:18:56.398286 21305 net.cpp:100] Creating Layer conv5_1/sep
I1008 17:18:56.398289 21305 net.cpp:434] conv5_1/sep <- conv5_1/dw
I1008 17:18:56.398295 21305 net.cpp:408] conv5_1/sep -> conv5_1/sep
I1008 17:18:56.401540 21305 net.cpp:150] Setting up conv5_1/sep
I1008 17:18:56.401556 21305 net.cpp:157] Top shape: 2 512 19 32 (622592)
I1008 17:18:56.401558 21305 net.cpp:165] Memory required for data: 420798048
I1008 17:18:56.401564 21305 layer_factory.hpp:77] Creating layer conv5_1/sep/bn
I1008 17:18:56.401571 21305 net.cpp:100] Creating Layer conv5_1/sep/bn
I1008 17:18:56.401574 21305 net.cpp:434] conv5_1/sep/bn <- conv5_1/sep
I1008 17:18:56.401578 21305 net.cpp:395] conv5_1/sep/bn -> conv5_1/sep (in-place)
I1008 17:18:56.401712 21305 net.cpp:150] Setting up conv5_1/sep/bn
I1008 17:18:56.401716 21305 net.cpp:157] Top shape: 2 512 19 32 (622592)
I1008 17:18:56.401717 21305 net.cpp:165] Memory required for data: 423288416
I1008 17:18:56.401721 21305 layer_factory.hpp:77] Creating layer conv5_1/sep/scale
I1008 17:18:56.401726 21305 net.cpp:100] Creating Layer conv5_1/sep/scale
I1008 17:18:56.401728 21305 net.cpp:434] conv5_1/sep/scale <- conv5_1/sep
I1008 17:18:56.401731 21305 net.cpp:395] conv5_1/sep/scale -> conv5_1/sep (in-place)
I1008 17:18:56.401760 21305 layer_factory.hpp:77] Creating layer conv5_1/sep/scale
I1008 17:18:56.401831 21305 net.cpp:150] Setting up conv5_1/sep/scale
I1008 17:18:56.401836 21305 net.cpp:157] Top shape: 2 512 19 32 (622592)
I1008 17:18:56.401837 21305 net.cpp:165] Memory required for data: 425778784
I1008 17:18:56.401840 21305 layer_factory.hpp:77] Creating layer relu5_1/sep
I1008 17:18:56.401844 21305 net.cpp:100] Creating Layer relu5_1/sep
I1008 17:18:56.401845 21305 net.cpp:434] relu5_1/sep <- conv5_1/sep
I1008 17:18:56.401849 21305 net.cpp:395] relu5_1/sep -> conv5_1/sep (in-place)
I1008 17:18:56.402127 21305 net.cpp:150] Setting up relu5_1/sep
I1008 17:18:56.402132 21305 net.cpp:157] Top shape: 2 512 19 32 (622592)
I1008 17:18:56.402134 21305 net.cpp:165] Memory required for data: 428269152
I1008 17:18:56.402135 21305 layer_factory.hpp:77] Creating layer conv5_2/dw
I1008 17:18:56.402143 21305 net.cpp:100] Creating Layer conv5_2/dw
I1008 17:18:56.402145 21305 net.cpp:434] conv5_2/dw <- conv5_1/sep
I1008 17:18:56.402149 21305 net.cpp:408] conv5_2/dw -> conv5_2/dw
I1008 17:18:56.402304 21305 net.cpp:150] Setting up conv5_2/dw
I1008 17:18:56.402318 21305 net.cpp:157] Top shape: 2 512 19 32 (622592)
I1008 17:18:56.402321 21305 net.cpp:165] Memory required for data: 430759520
I1008 17:18:56.402323 21305 layer_factory.hpp:77] Creating layer conv5_2/dw/bn
I1008 17:18:56.402326 21305 net.cpp:100] Creating Layer conv5_2/dw/bn
I1008 17:18:56.402329 21305 net.cpp:434] conv5_2/dw/bn <- conv5_2/dw
I1008 17:18:56.402333 21305 net.cpp:395] conv5_2/dw/bn -> conv5_2/dw (in-place)
I1008 17:18:56.402458 21305 net.cpp:150] Setting up conv5_2/dw/bn
I1008 17:18:56.402462 21305 net.cpp:157] Top shape: 2 512 19 32 (622592)
I1008 17:18:56.402463 21305 net.cpp:165] Memory required for data: 433249888
I1008 17:18:56.402468 21305 layer_factory.hpp:77] Creating layer conv5_2/dw/scale
I1008 17:18:56.402477 21305 net.cpp:100] Creating Layer conv5_2/dw/scale
I1008 17:18:56.402479 21305 net.cpp:434] conv5_2/dw/scale <- conv5_2/dw
I1008 17:18:56.402482 21305 net.cpp:395] conv5_2/dw/scale -> conv5_2/dw (in-place)
I1008 17:18:56.402509 21305 layer_factory.hpp:77] Creating layer conv5_2/dw/scale
I1008 17:18:56.402580 21305 net.cpp:150] Setting up conv5_2/dw/scale
I1008 17:18:56.402583 21305 net.cpp:157] Top shape: 2 512 19 32 (622592)
I1008 17:18:56.402585 21305 net.cpp:165] Memory required for data: 435740256
I1008 17:18:56.402590 21305 layer_factory.hpp:77] Creating layer relu5_2/dw
I1008 17:18:56.402592 21305 net.cpp:100] Creating Layer relu5_2/dw
I1008 17:18:56.402595 21305 net.cpp:434] relu5_2/dw <- conv5_2/dw
I1008 17:18:56.402596 21305 net.cpp:395] relu5_2/dw -> conv5_2/dw (in-place)
I1008 17:18:56.402985 21305 net.cpp:150] Setting up relu5_2/dw
I1008 17:18:56.402992 21305 net.cpp:157] Top shape: 2 512 19 32 (622592)
I1008 17:18:56.402994 21305 net.cpp:165] Memory required for data: 438230624
I1008 17:18:56.402997 21305 layer_factory.hpp:77] Creating layer conv5_2/sep
I1008 17:18:56.403002 21305 net.cpp:100] Creating Layer conv5_2/sep
I1008 17:18:56.403005 21305 net.cpp:434] conv5_2/sep <- conv5_2/dw
I1008 17:18:56.403008 21305 net.cpp:408] conv5_2/sep -> conv5_2/sep
I1008 17:18:56.406667 21305 net.cpp:150] Setting up conv5_2/sep
I1008 17:18:56.406682 21305 net.cpp:157] Top shape: 2 512 19 32 (622592)
I1008 17:18:56.406683 21305 net.cpp:165] Memory required for data: 440720992
I1008 17:18:56.406688 21305 layer_factory.hpp:77] Creating layer conv5_2/sep/bn
I1008 17:18:56.406695 21305 net.cpp:100] Creating Layer conv5_2/sep/bn
I1008 17:18:56.406704 21305 net.cpp:434] conv5_2/sep/bn <- conv5_2/sep
I1008 17:18:56.406708 21305 net.cpp:395] conv5_2/sep/bn -> conv5_2/sep (in-place)
I1008 17:18:56.406843 21305 net.cpp:150] Setting up conv5_2/sep/bn
I1008 17:18:56.406847 21305 net.cpp:157] Top shape: 2 512 19 32 (622592)
I1008 17:18:56.406849 21305 net.cpp:165] Memory required for data: 443211360
I1008 17:18:56.406853 21305 layer_factory.hpp:77] Creating layer conv5_2/sep/scale
I1008 17:18:56.406858 21305 net.cpp:100] Creating Layer conv5_2/sep/scale
I1008 17:18:56.406862 21305 net.cpp:434] conv5_2/sep/scale <- conv5_2/sep
I1008 17:18:56.406864 21305 net.cpp:395] conv5_2/sep/scale -> conv5_2/sep (in-place)
I1008 17:18:56.406894 21305 layer_factory.hpp:77] Creating layer conv5_2/sep/scale
I1008 17:18:56.406968 21305 net.cpp:150] Setting up conv5_2/sep/scale
I1008 17:18:56.406973 21305 net.cpp:157] Top shape: 2 512 19 32 (622592)
I1008 17:18:56.406975 21305 net.cpp:165] Memory required for data: 445701728
I1008 17:18:56.406978 21305 layer_factory.hpp:77] Creating layer relu5_2/sep
I1008 17:18:56.406981 21305 net.cpp:100] Creating Layer relu5_2/sep
I1008 17:18:56.406983 21305 net.cpp:434] relu5_2/sep <- conv5_2/sep
I1008 17:18:56.406986 21305 net.cpp:395] relu5_2/sep -> conv5_2/sep (in-place)
I1008 17:18:56.407297 21305 net.cpp:150] Setting up relu5_2/sep
I1008 17:18:56.407304 21305 net.cpp:157] Top shape: 2 512 19 32 (622592)
I1008 17:18:56.407305 21305 net.cpp:165] Memory required for data: 448192096
I1008 17:18:56.407307 21305 layer_factory.hpp:77] Creating layer conv5_3/dw
I1008 17:18:56.407313 21305 net.cpp:100] Creating Layer conv5_3/dw
I1008 17:18:56.407325 21305 net.cpp:434] conv5_3/dw <- conv5_2/sep
I1008 17:18:56.407330 21305 net.cpp:408] conv5_3/dw -> conv5_3/dw
I1008 17:18:56.407495 21305 net.cpp:150] Setting up conv5_3/dw
I1008 17:18:56.407498 21305 net.cpp:157] Top shape: 2 512 19 32 (622592)
I1008 17:18:56.407500 21305 net.cpp:165] Memory required for data: 450682464
I1008 17:18:56.407503 21305 layer_factory.hpp:77] Creating layer conv5_3/dw/bn
I1008 17:18:56.407507 21305 net.cpp:100] Creating Layer conv5_3/dw/bn
I1008 17:18:56.407510 21305 net.cpp:434] conv5_3/dw/bn <- conv5_3/dw
I1008 17:18:56.407513 21305 net.cpp:395] conv5_3/dw/bn -> conv5_3/dw (in-place)
I1008 17:18:56.407640 21305 net.cpp:150] Setting up conv5_3/dw/bn
I1008 17:18:56.407644 21305 net.cpp:157] Top shape: 2 512 19 32 (622592)
I1008 17:18:56.407646 21305 net.cpp:165] Memory required for data: 453172832
I1008 17:18:56.407650 21305 layer_factory.hpp:77] Creating layer conv5_3/dw/scale
I1008 17:18:56.407655 21305 net.cpp:100] Creating Layer conv5_3/dw/scale
I1008 17:18:56.407657 21305 net.cpp:434] conv5_3/dw/scale <- conv5_3/dw
I1008 17:18:56.407660 21305 net.cpp:395] conv5_3/dw/scale -> conv5_3/dw (in-place)
I1008 17:18:56.407685 21305 layer_factory.hpp:77] Creating layer conv5_3/dw/scale
I1008 17:18:56.407757 21305 net.cpp:150] Setting up conv5_3/dw/scale
I1008 17:18:56.407761 21305 net.cpp:157] Top shape: 2 512 19 32 (622592)
I1008 17:18:56.407763 21305 net.cpp:165] Memory required for data: 455663200
I1008 17:18:56.407765 21305 layer_factory.hpp:77] Creating layer relu5_3/dw
I1008 17:18:56.407768 21305 net.cpp:100] Creating Layer relu5_3/dw
I1008 17:18:56.407771 21305 net.cpp:434] relu5_3/dw <- conv5_3/dw
I1008 17:18:56.407774 21305 net.cpp:395] relu5_3/dw -> conv5_3/dw (in-place)
I1008 17:18:56.408159 21305 net.cpp:150] Setting up relu5_3/dw
I1008 17:18:56.408165 21305 net.cpp:157] Top shape: 2 512 19 32 (622592)
I1008 17:18:56.408169 21305 net.cpp:165] Memory required for data: 458153568
I1008 17:18:56.408170 21305 layer_factory.hpp:77] Creating layer conv5_3/sep
I1008 17:18:56.408176 21305 net.cpp:100] Creating Layer conv5_3/sep
I1008 17:18:56.408179 21305 net.cpp:434] conv5_3/sep <- conv5_3/dw
I1008 17:18:56.408183 21305 net.cpp:408] conv5_3/sep -> conv5_3/sep
I1008 17:18:56.410699 21305 net.cpp:150] Setting up conv5_3/sep
I1008 17:18:56.410706 21305 net.cpp:157] Top shape: 2 512 19 32 (622592)
I1008 17:18:56.410707 21305 net.cpp:165] Memory required for data: 460643936
I1008 17:18:56.410712 21305 layer_factory.hpp:77] Creating layer conv5_3/sep/bn
I1008 17:18:56.410718 21305 net.cpp:100] Creating Layer conv5_3/sep/bn
I1008 17:18:56.410720 21305 net.cpp:434] conv5_3/sep/bn <- conv5_3/sep
I1008 17:18:56.410723 21305 net.cpp:395] conv5_3/sep/bn -> conv5_3/sep (in-place)
I1008 17:18:56.410858 21305 net.cpp:150] Setting up conv5_3/sep/bn
I1008 17:18:56.410862 21305 net.cpp:157] Top shape: 2 512 19 32 (622592)
I1008 17:18:56.410864 21305 net.cpp:165] Memory required for data: 463134304
I1008 17:18:56.410868 21305 layer_factory.hpp:77] Creating layer conv5_3/sep/scale
I1008 17:18:56.410873 21305 net.cpp:100] Creating Layer conv5_3/sep/scale
I1008 17:18:56.410876 21305 net.cpp:434] conv5_3/sep/scale <- conv5_3/sep
I1008 17:18:56.410877 21305 net.cpp:395] conv5_3/sep/scale -> conv5_3/sep (in-place)
I1008 17:18:56.410907 21305 layer_factory.hpp:77] Creating layer conv5_3/sep/scale
I1008 17:18:56.410979 21305 net.cpp:150] Setting up conv5_3/sep/scale
I1008 17:18:56.410982 21305 net.cpp:157] Top shape: 2 512 19 32 (622592)
I1008 17:18:56.410985 21305 net.cpp:165] Memory required for data: 465624672
I1008 17:18:56.410989 21305 layer_factory.hpp:77] Creating layer relu5_3/sep
I1008 17:18:56.410991 21305 net.cpp:100] Creating Layer relu5_3/sep
I1008 17:18:56.410993 21305 net.cpp:434] relu5_3/sep <- conv5_3/sep
I1008 17:18:56.410995 21305 net.cpp:395] relu5_3/sep -> conv5_3/sep (in-place)
I1008 17:18:56.411276 21305 net.cpp:150] Setting up relu5_3/sep
I1008 17:18:56.411283 21305 net.cpp:157] Top shape: 2 512 19 32 (622592)
I1008 17:18:56.411285 21305 net.cpp:165] Memory required for data: 468115040
I1008 17:18:56.411296 21305 layer_factory.hpp:77] Creating layer conv5_4/dw
I1008 17:18:56.411301 21305 net.cpp:100] Creating Layer conv5_4/dw
I1008 17:18:56.411304 21305 net.cpp:434] conv5_4/dw <- conv5_3/sep
I1008 17:18:56.411307 21305 net.cpp:408] conv5_4/dw -> conv5_4/dw
I1008 17:18:56.411468 21305 net.cpp:150] Setting up conv5_4/dw
I1008 17:18:56.411473 21305 net.cpp:157] Top shape: 2 512 19 32 (622592)
I1008 17:18:56.411474 21305 net.cpp:165] Memory required for data: 470605408
I1008 17:18:56.411478 21305 layer_factory.hpp:77] Creating layer conv5_4/dw/bn
I1008 17:18:56.411480 21305 net.cpp:100] Creating Layer conv5_4/dw/bn
I1008 17:18:56.411483 21305 net.cpp:434] conv5_4/dw/bn <- conv5_4/dw
I1008 17:18:56.411485 21305 net.cpp:395] conv5_4/dw/bn -> conv5_4/dw (in-place)
I1008 17:18:56.411609 21305 net.cpp:150] Setting up conv5_4/dw/bn
I1008 17:18:56.411613 21305 net.cpp:157] Top shape: 2 512 19 32 (622592)
I1008 17:18:56.411615 21305 net.cpp:165] Memory required for data: 473095776
I1008 17:18:56.411619 21305 layer_factory.hpp:77] Creating layer conv5_4/dw/scale
I1008 17:18:56.411623 21305 net.cpp:100] Creating Layer conv5_4/dw/scale
I1008 17:18:56.411625 21305 net.cpp:434] conv5_4/dw/scale <- conv5_4/dw
I1008 17:18:56.411628 21305 net.cpp:395] conv5_4/dw/scale -> conv5_4/dw (in-place)
I1008 17:18:56.411655 21305 layer_factory.hpp:77] Creating layer conv5_4/dw/scale
I1008 17:18:56.411726 21305 net.cpp:150] Setting up conv5_4/dw/scale
I1008 17:18:56.411729 21305 net.cpp:157] Top shape: 2 512 19 32 (622592)
I1008 17:18:56.411732 21305 net.cpp:165] Memory required for data: 475586144
I1008 17:18:56.411736 21305 layer_factory.hpp:77] Creating layer relu5_4/dw
I1008 17:18:56.411741 21305 net.cpp:100] Creating Layer relu5_4/dw
I1008 17:18:56.411742 21305 net.cpp:434] relu5_4/dw <- conv5_4/dw
I1008 17:18:56.411744 21305 net.cpp:395] relu5_4/dw -> conv5_4/dw (in-place)
I1008 17:18:56.412012 21305 net.cpp:150] Setting up relu5_4/dw
I1008 17:18:56.412019 21305 net.cpp:157] Top shape: 2 512 19 32 (622592)
I1008 17:18:56.412020 21305 net.cpp:165] Memory required for data: 478076512
I1008 17:18:56.412022 21305 layer_factory.hpp:77] Creating layer conv5_4/sep
I1008 17:18:56.412027 21305 net.cpp:100] Creating Layer conv5_4/sep
I1008 17:18:56.412030 21305 net.cpp:434] conv5_4/sep <- conv5_4/dw
I1008 17:18:56.412034 21305 net.cpp:408] conv5_4/sep -> conv5_4/sep
I1008 17:18:56.416399 21305 net.cpp:150] Setting up conv5_4/sep
I1008 17:18:56.416424 21305 net.cpp:157] Top shape: 2 512 19 32 (622592)
I1008 17:18:56.416426 21305 net.cpp:165] Memory required for data: 480566880
I1008 17:18:56.416435 21305 layer_factory.hpp:77] Creating layer conv5_4/sep/bn
I1008 17:18:56.416447 21305 net.cpp:100] Creating Layer conv5_4/sep/bn
I1008 17:18:56.416451 21305 net.cpp:434] conv5_4/sep/bn <- conv5_4/sep
I1008 17:18:56.416457 21305 net.cpp:395] conv5_4/sep/bn -> conv5_4/sep (in-place)
I1008 17:18:56.416607 21305 net.cpp:150] Setting up conv5_4/sep/bn
I1008 17:18:56.416611 21305 net.cpp:157] Top shape: 2 512 19 32 (622592)
I1008 17:18:56.416613 21305 net.cpp:165] Memory required for data: 483057248
I1008 17:18:56.416618 21305 layer_factory.hpp:77] Creating layer conv5_4/sep/scale
I1008 17:18:56.416625 21305 net.cpp:100] Creating Layer conv5_4/sep/scale
I1008 17:18:56.416627 21305 net.cpp:434] conv5_4/sep/scale <- conv5_4/sep
I1008 17:18:56.416630 21305 net.cpp:395] conv5_4/sep/scale -> conv5_4/sep (in-place)
I1008 17:18:56.416664 21305 layer_factory.hpp:77] Creating layer conv5_4/sep/scale
I1008 17:18:56.416741 21305 net.cpp:150] Setting up conv5_4/sep/scale
I1008 17:18:56.416745 21305 net.cpp:157] Top shape: 2 512 19 32 (622592)
I1008 17:18:56.416748 21305 net.cpp:165] Memory required for data: 485547616
I1008 17:18:56.416751 21305 layer_factory.hpp:77] Creating layer relu5_4/sep
I1008 17:18:56.416755 21305 net.cpp:100] Creating Layer relu5_4/sep
I1008 17:18:56.416757 21305 net.cpp:434] relu5_4/sep <- conv5_4/sep
I1008 17:18:56.416761 21305 net.cpp:395] relu5_4/sep -> conv5_4/sep (in-place)
I1008 17:18:56.417050 21305 net.cpp:150] Setting up relu5_4/sep
I1008 17:18:56.417065 21305 net.cpp:157] Top shape: 2 512 19 32 (622592)
I1008 17:18:56.417068 21305 net.cpp:165] Memory required for data: 488037984
I1008 17:18:56.417070 21305 layer_factory.hpp:77] Creating layer conv5_5/dw
I1008 17:18:56.417078 21305 net.cpp:100] Creating Layer conv5_5/dw
I1008 17:18:56.417080 21305 net.cpp:434] conv5_5/dw <- conv5_4/sep
I1008 17:18:56.417083 21305 net.cpp:408] conv5_5/dw -> conv5_5/dw
I1008 17:18:56.417254 21305 net.cpp:150] Setting up conv5_5/dw
I1008 17:18:56.417258 21305 net.cpp:157] Top shape: 2 512 19 32 (622592)
I1008 17:18:56.417259 21305 net.cpp:165] Memory required for data: 490528352
I1008 17:18:56.417263 21305 layer_factory.hpp:77] Creating layer conv5_5/dw/bn
I1008 17:18:56.417268 21305 net.cpp:100] Creating Layer conv5_5/dw/bn
I1008 17:18:56.417270 21305 net.cpp:434] conv5_5/dw/bn <- conv5_5/dw
I1008 17:18:56.417273 21305 net.cpp:395] conv5_5/dw/bn -> conv5_5/dw (in-place)
I1008 17:18:56.417403 21305 net.cpp:150] Setting up conv5_5/dw/bn
I1008 17:18:56.417407 21305 net.cpp:157] Top shape: 2 512 19 32 (622592)
I1008 17:18:56.417409 21305 net.cpp:165] Memory required for data: 493018720
I1008 17:18:56.417423 21305 layer_factory.hpp:77] Creating layer conv5_5/dw/scale
I1008 17:18:56.417428 21305 net.cpp:100] Creating Layer conv5_5/dw/scale
I1008 17:18:56.417431 21305 net.cpp:434] conv5_5/dw/scale <- conv5_5/dw
I1008 17:18:56.417434 21305 net.cpp:395] conv5_5/dw/scale -> conv5_5/dw (in-place)
I1008 17:18:56.417464 21305 layer_factory.hpp:77] Creating layer conv5_5/dw/scale
I1008 17:18:56.417537 21305 net.cpp:150] Setting up conv5_5/dw/scale
I1008 17:18:56.417541 21305 net.cpp:157] Top shape: 2 512 19 32 (622592)
I1008 17:18:56.417542 21305 net.cpp:165] Memory required for data: 495509088
I1008 17:18:56.417546 21305 layer_factory.hpp:77] Creating layer relu5_5/dw
I1008 17:18:56.417549 21305 net.cpp:100] Creating Layer relu5_5/dw
I1008 17:18:56.417551 21305 net.cpp:434] relu5_5/dw <- conv5_5/dw
I1008 17:18:56.417554 21305 net.cpp:395] relu5_5/dw -> conv5_5/dw (in-place)
I1008 17:18:56.417838 21305 net.cpp:150] Setting up relu5_5/dw
I1008 17:18:56.417845 21305 net.cpp:157] Top shape: 2 512 19 32 (622592)
I1008 17:18:56.417845 21305 net.cpp:165] Memory required for data: 497999456
I1008 17:18:56.417848 21305 layer_factory.hpp:77] Creating layer conv5_5/sep
I1008 17:18:56.417853 21305 net.cpp:100] Creating Layer conv5_5/sep
I1008 17:18:56.417855 21305 net.cpp:434] conv5_5/sep <- conv5_5/dw
I1008 17:18:56.417858 21305 net.cpp:408] conv5_5/sep -> conv5_5/sep
I1008 17:18:56.420616 21305 net.cpp:150] Setting up conv5_5/sep
I1008 17:18:56.420624 21305 net.cpp:157] Top shape: 2 512 19 32 (622592)
I1008 17:18:56.420626 21305 net.cpp:165] Memory required for data: 500489824
I1008 17:18:56.420629 21305 layer_factory.hpp:77] Creating layer conv5_5/sep/bn
I1008 17:18:56.420634 21305 net.cpp:100] Creating Layer conv5_5/sep/bn
I1008 17:18:56.420636 21305 net.cpp:434] conv5_5/sep/bn <- conv5_5/sep
I1008 17:18:56.420639 21305 net.cpp:395] conv5_5/sep/bn -> conv5_5/sep (in-place)
I1008 17:18:56.420773 21305 net.cpp:150] Setting up conv5_5/sep/bn
I1008 17:18:56.420776 21305 net.cpp:157] Top shape: 2 512 19 32 (622592)
I1008 17:18:56.420778 21305 net.cpp:165] Memory required for data: 502980192
I1008 17:18:56.420783 21305 layer_factory.hpp:77] Creating layer conv5_5/sep/scale
I1008 17:18:56.420786 21305 net.cpp:100] Creating Layer conv5_5/sep/scale
I1008 17:18:56.420789 21305 net.cpp:434] conv5_5/sep/scale <- conv5_5/sep
I1008 17:18:56.420792 21305 net.cpp:395] conv5_5/sep/scale -> conv5_5/sep (in-place)
I1008 17:18:56.420819 21305 layer_factory.hpp:77] Creating layer conv5_5/sep/scale
I1008 17:18:56.420893 21305 net.cpp:150] Setting up conv5_5/sep/scale
I1008 17:18:56.420897 21305 net.cpp:157] Top shape: 2 512 19 32 (622592)
I1008 17:18:56.420899 21305 net.cpp:165] Memory required for data: 505470560
I1008 17:18:56.420902 21305 layer_factory.hpp:77] Creating layer relu5_5/sep
I1008 17:18:56.420907 21305 net.cpp:100] Creating Layer relu5_5/sep
I1008 17:18:56.420909 21305 net.cpp:434] relu5_5/sep <- conv5_5/sep
I1008 17:18:56.420919 21305 net.cpp:395] relu5_5/sep -> conv5_5/sep (in-place)
I1008 17:18:56.421193 21305 net.cpp:150] Setting up relu5_5/sep
I1008 17:18:56.421198 21305 net.cpp:157] Top shape: 2 512 19 32 (622592)
I1008 17:18:56.421201 21305 net.cpp:165] Memory required for data: 507960928
I1008 17:18:56.421203 21305 layer_factory.hpp:77] Creating layer conv5_5/sep_relu5_5/sep_0_split
I1008 17:18:56.421206 21305 net.cpp:100] Creating Layer conv5_5/sep_relu5_5/sep_0_split
I1008 17:18:56.421209 21305 net.cpp:434] conv5_5/sep_relu5_5/sep_0_split <- conv5_5/sep
I1008 17:18:56.421212 21305 net.cpp:408] conv5_5/sep_relu5_5/sep_0_split -> conv5_5/sep_relu5_5/sep_0_split_0
I1008 17:18:56.421221 21305 net.cpp:408] conv5_5/sep_relu5_5/sep_0_split -> conv5_5/sep_relu5_5/sep_0_split_1
I1008 17:18:56.421248 21305 net.cpp:150] Setting up conv5_5/sep_relu5_5/sep_0_split
I1008 17:18:56.421252 21305 net.cpp:157] Top shape: 2 512 19 32 (622592)
I1008 17:18:56.421255 21305 net.cpp:157] Top shape: 2 512 19 32 (622592)
I1008 17:18:56.421257 21305 net.cpp:165] Memory required for data: 512941664
I1008 17:18:56.421259 21305 layer_factory.hpp:77] Creating layer conv5_6/dw
I1008 17:18:56.421263 21305 net.cpp:100] Creating Layer conv5_6/dw
I1008 17:18:56.421267 21305 net.cpp:434] conv5_6/dw <- conv5_5/sep_relu5_5/sep_0_split_0
I1008 17:18:56.421269 21305 net.cpp:408] conv5_6/dw -> conv5_6/dw
I1008 17:18:56.421423 21305 net.cpp:150] Setting up conv5_6/dw
I1008 17:18:56.421427 21305 net.cpp:157] Top shape: 2 512 10 16 (163840)
I1008 17:18:56.421429 21305 net.cpp:165] Memory required for data: 513597024
I1008 17:18:56.421432 21305 layer_factory.hpp:77] Creating layer conv5_6/dw/bn
I1008 17:18:56.421437 21305 net.cpp:100] Creating Layer conv5_6/dw/bn
I1008 17:18:56.421439 21305 net.cpp:434] conv5_6/dw/bn <- conv5_6/dw
I1008 17:18:56.421442 21305 net.cpp:395] conv5_6/dw/bn -> conv5_6/dw (in-place)
I1008 17:18:56.421574 21305 net.cpp:150] Setting up conv5_6/dw/bn
I1008 17:18:56.421577 21305 net.cpp:157] Top shape: 2 512 10 16 (163840)
I1008 17:18:56.421579 21305 net.cpp:165] Memory required for data: 514252384
I1008 17:18:56.421583 21305 layer_factory.hpp:77] Creating layer conv5_6/dw/scale
I1008 17:18:56.421587 21305 net.cpp:100] Creating Layer conv5_6/dw/scale
I1008 17:18:56.421591 21305 net.cpp:434] conv5_6/dw/scale <- conv5_6/dw
I1008 17:18:56.421592 21305 net.cpp:395] conv5_6/dw/scale -> conv5_6/dw (in-place)
I1008 17:18:56.421617 21305 layer_factory.hpp:77] Creating layer conv5_6/dw/scale
I1008 17:18:56.421690 21305 net.cpp:150] Setting up conv5_6/dw/scale
I1008 17:18:56.421694 21305 net.cpp:157] Top shape: 2 512 10 16 (163840)
I1008 17:18:56.421696 21305 net.cpp:165] Memory required for data: 514907744
I1008 17:18:56.421700 21305 layer_factory.hpp:77] Creating layer relu5_6/dw
I1008 17:18:56.421703 21305 net.cpp:100] Creating Layer relu5_6/dw
I1008 17:18:56.421705 21305 net.cpp:434] relu5_6/dw <- conv5_6/dw
I1008 17:18:56.421707 21305 net.cpp:395] relu5_6/dw -> conv5_6/dw (in-place)
I1008 17:18:56.421978 21305 net.cpp:150] Setting up relu5_6/dw
I1008 17:18:56.421983 21305 net.cpp:157] Top shape: 2 512 10 16 (163840)
I1008 17:18:56.421985 21305 net.cpp:165] Memory required for data: 515563104
I1008 17:18:56.421988 21305 layer_factory.hpp:77] Creating layer conv5_6/sep
I1008 17:18:56.421993 21305 net.cpp:100] Creating Layer conv5_6/sep
I1008 17:18:56.421994 21305 net.cpp:434] conv5_6/sep <- conv5_6/dw
I1008 17:18:56.421998 21305 net.cpp:408] conv5_6/sep -> conv5_6/sep
I1008 17:18:56.427284 21305 net.cpp:150] Setting up conv5_6/sep
I1008 17:18:56.427297 21305 net.cpp:157] Top shape: 2 1024 10 16 (327680)
I1008 17:18:56.427299 21305 net.cpp:165] Memory required for data: 516873824
I1008 17:18:56.427305 21305 layer_factory.hpp:77] Creating layer conv5_6/sep/bn
I1008 17:18:56.427311 21305 net.cpp:100] Creating Layer conv5_6/sep/bn
I1008 17:18:56.427314 21305 net.cpp:434] conv5_6/sep/bn <- conv5_6/sep
I1008 17:18:56.427318 21305 net.cpp:395] conv5_6/sep/bn -> conv5_6/sep (in-place)
I1008 17:18:56.427464 21305 net.cpp:150] Setting up conv5_6/sep/bn
I1008 17:18:56.427476 21305 net.cpp:157] Top shape: 2 1024 10 16 (327680)
I1008 17:18:56.427479 21305 net.cpp:165] Memory required for data: 518184544
I1008 17:18:56.427484 21305 layer_factory.hpp:77] Creating layer conv5_6/sep/scale
I1008 17:18:56.427487 21305 net.cpp:100] Creating Layer conv5_6/sep/scale
I1008 17:18:56.427490 21305 net.cpp:434] conv5_6/sep/scale <- conv5_6/sep
I1008 17:18:56.427495 21305 net.cpp:395] conv5_6/sep/scale -> conv5_6/sep (in-place)
I1008 17:18:56.427522 21305 layer_factory.hpp:77] Creating layer conv5_6/sep/scale
I1008 17:18:56.427600 21305 net.cpp:150] Setting up conv5_6/sep/scale
I1008 17:18:56.427604 21305 net.cpp:157] Top shape: 2 1024 10 16 (327680)
I1008 17:18:56.427608 21305 net.cpp:165] Memory required for data: 519495264
I1008 17:18:56.427610 21305 layer_factory.hpp:77] Creating layer relu5_6/sep
I1008 17:18:56.427613 21305 net.cpp:100] Creating Layer relu5_6/sep
I1008 17:18:56.427615 21305 net.cpp:434] relu5_6/sep <- conv5_6/sep
I1008 17:18:56.427619 21305 net.cpp:395] relu5_6/sep -> conv5_6/sep (in-place)
I1008 17:18:56.427898 21305 net.cpp:150] Setting up relu5_6/sep
I1008 17:18:56.427903 21305 net.cpp:157] Top shape: 2 1024 10 16 (327680)
I1008 17:18:56.427906 21305 net.cpp:165] Memory required for data: 520805984
I1008 17:18:56.427908 21305 layer_factory.hpp:77] Creating layer conv6/dw
I1008 17:18:56.427913 21305 net.cpp:100] Creating Layer conv6/dw
I1008 17:18:56.427917 21305 net.cpp:434] conv6/dw <- conv5_6/sep
I1008 17:18:56.427920 21305 net.cpp:408] conv6/dw -> conv6/dw
I1008 17:18:56.428113 21305 net.cpp:150] Setting up conv6/dw
I1008 17:18:56.428117 21305 net.cpp:157] Top shape: 2 1024 10 16 (327680)
I1008 17:18:56.428119 21305 net.cpp:165] Memory required for data: 522116704
I1008 17:18:56.428122 21305 layer_factory.hpp:77] Creating layer conv6/dw/bn
I1008 17:18:56.428126 21305 net.cpp:100] Creating Layer conv6/dw/bn
I1008 17:18:56.428129 21305 net.cpp:434] conv6/dw/bn <- conv6/dw
I1008 17:18:56.428131 21305 net.cpp:395] conv6/dw/bn -> conv6/dw (in-place)
I1008 17:18:56.428261 21305 net.cpp:150] Setting up conv6/dw/bn
I1008 17:18:56.428266 21305 net.cpp:157] Top shape: 2 1024 10 16 (327680)
I1008 17:18:56.428267 21305 net.cpp:165] Memory required for data: 523427424
I1008 17:18:56.428272 21305 layer_factory.hpp:77] Creating layer conv6/dw/scale
I1008 17:18:56.428275 21305 net.cpp:100] Creating Layer conv6/dw/scale
I1008 17:18:56.428278 21305 net.cpp:434] conv6/dw/scale <- conv6/dw
I1008 17:18:56.428280 21305 net.cpp:395] conv6/dw/scale -> conv6/dw (in-place)
I1008 17:18:56.428304 21305 layer_factory.hpp:77] Creating layer conv6/dw/scale
I1008 17:18:56.428381 21305 net.cpp:150] Setting up conv6/dw/scale
I1008 17:18:56.428385 21305 net.cpp:157] Top shape: 2 1024 10 16 (327680)
I1008 17:18:56.428388 21305 net.cpp:165] Memory required for data: 524738144
I1008 17:18:56.428391 21305 layer_factory.hpp:77] Creating layer relu6/dw
I1008 17:18:56.428395 21305 net.cpp:100] Creating Layer relu6/dw
I1008 17:18:56.428398 21305 net.cpp:434] relu6/dw <- conv6/dw
I1008 17:18:56.428401 21305 net.cpp:395] relu6/dw -> conv6/dw (in-place)
I1008 17:18:56.428678 21305 net.cpp:150] Setting up relu6/dw
I1008 17:18:56.428683 21305 net.cpp:157] Top shape: 2 1024 10 16 (327680)
I1008 17:18:56.428685 21305 net.cpp:165] Memory required for data: 526048864
I1008 17:18:56.428688 21305 layer_factory.hpp:77] Creating layer conv6/sep
I1008 17:18:56.428691 21305 net.cpp:100] Creating Layer conv6/sep
I1008 17:18:56.428694 21305 net.cpp:434] conv6/sep <- conv6/dw
I1008 17:18:56.428697 21305 net.cpp:408] conv6/sep -> conv6/sep
I1008 17:18:56.436663 21305 net.cpp:150] Setting up conv6/sep
I1008 17:18:56.436679 21305 net.cpp:157] Top shape: 2 1024 10 16 (327680)
I1008 17:18:56.436681 21305 net.cpp:165] Memory required for data: 527359584
I1008 17:18:56.436687 21305 layer_factory.hpp:77] Creating layer conv6/sep/bn
I1008 17:18:56.436694 21305 net.cpp:100] Creating Layer conv6/sep/bn
I1008 17:18:56.436697 21305 net.cpp:434] conv6/sep/bn <- conv6/sep
I1008 17:18:56.436700 21305 net.cpp:395] conv6/sep/bn -> conv6/sep (in-place)
I1008 17:18:56.436862 21305 net.cpp:150] Setting up conv6/sep/bn
I1008 17:18:56.436866 21305 net.cpp:157] Top shape: 2 1024 10 16 (327680)
I1008 17:18:56.436868 21305 net.cpp:165] Memory required for data: 528670304
I1008 17:18:56.436872 21305 layer_factory.hpp:77] Creating layer conv6/sep/scale
I1008 17:18:56.436878 21305 net.cpp:100] Creating Layer conv6/sep/scale
I1008 17:18:56.436880 21305 net.cpp:434] conv6/sep/scale <- conv6/sep
I1008 17:18:56.436883 21305 net.cpp:395] conv6/sep/scale -> conv6/sep (in-place)
I1008 17:18:56.436913 21305 layer_factory.hpp:77] Creating layer conv6/sep/scale
I1008 17:18:56.436991 21305 net.cpp:150] Setting up conv6/sep/scale
I1008 17:18:56.436995 21305 net.cpp:157] Top shape: 2 1024 10 16 (327680)
I1008 17:18:56.436997 21305 net.cpp:165] Memory required for data: 529981024
I1008 17:18:56.437000 21305 layer_factory.hpp:77] Creating layer relu6/sep
I1008 17:18:56.437005 21305 net.cpp:100] Creating Layer relu6/sep
I1008 17:18:56.437007 21305 net.cpp:434] relu6/sep <- conv6/sep
I1008 17:18:56.437011 21305 net.cpp:395] relu6/sep -> conv6/sep (in-place)
I1008 17:18:56.437288 21305 net.cpp:150] Setting up relu6/sep
I1008 17:18:56.437294 21305 net.cpp:157] Top shape: 2 1024 10 16 (327680)
I1008 17:18:56.437295 21305 net.cpp:165] Memory required for data: 531291744
I1008 17:18:56.437297 21305 layer_factory.hpp:77] Creating layer conv6/sep_relu6/sep_0_split
I1008 17:18:56.437301 21305 net.cpp:100] Creating Layer conv6/sep_relu6/sep_0_split
I1008 17:18:56.437304 21305 net.cpp:434] conv6/sep_relu6/sep_0_split <- conv6/sep
I1008 17:18:56.437309 21305 net.cpp:408] conv6/sep_relu6/sep_0_split -> conv6/sep_relu6/sep_0_split_0
I1008 17:18:56.437314 21305 net.cpp:408] conv6/sep_relu6/sep_0_split -> conv6/sep_relu6/sep_0_split_1
I1008 17:18:56.437317 21305 net.cpp:408] conv6/sep_relu6/sep_0_split -> conv6/sep_relu6/sep_0_split_2
I1008 17:18:56.437322 21305 net.cpp:408] conv6/sep_relu6/sep_0_split -> conv6/sep_relu6/sep_0_split_3
I1008 17:18:56.437368 21305 net.cpp:150] Setting up conv6/sep_relu6/sep_0_split
I1008 17:18:56.437372 21305 net.cpp:157] Top shape: 2 1024 10 16 (327680)
I1008 17:18:56.437376 21305 net.cpp:157] Top shape: 2 1024 10 16 (327680)
I1008 17:18:56.437378 21305 net.cpp:157] Top shape: 2 1024 10 16 (327680)
I1008 17:18:56.437381 21305 net.cpp:157] Top shape: 2 1024 10 16 (327680)
I1008 17:18:56.437383 21305 net.cpp:165] Memory required for data: 536534624
I1008 17:18:56.437386 21305 layer_factory.hpp:77] Creating layer ssd1_1
I1008 17:18:56.437391 21305 net.cpp:100] Creating Layer ssd1_1
I1008 17:18:56.437394 21305 net.cpp:434] ssd1_1 <- conv6/sep_relu6/sep_0_split_0
I1008 17:18:56.437398 21305 net.cpp:408] ssd1_1 -> ssd1_1
I1008 17:18:56.440516 21305 net.cpp:150] Setting up ssd1_1
I1008 17:18:56.440536 21305 net.cpp:157] Top shape: 2 256 10 16 (81920)
I1008 17:18:56.440538 21305 net.cpp:165] Memory required for data: 536862304
I1008 17:18:56.440551 21305 layer_factory.hpp:77] Creating layer ssd1_1_relu
I1008 17:18:56.440558 21305 net.cpp:100] Creating Layer ssd1_1_relu
I1008 17:18:56.440563 21305 net.cpp:434] ssd1_1_relu <- ssd1_1
I1008 17:18:56.440568 21305 net.cpp:395] ssd1_1_relu -> ssd1_1 (in-place)
I1008 17:18:56.441018 21305 net.cpp:150] Setting up ssd1_1_relu
I1008 17:18:56.441025 21305 net.cpp:157] Top shape: 2 256 10 16 (81920)
I1008 17:18:56.441027 21305 net.cpp:165] Memory required for data: 537189984
I1008 17:18:56.441030 21305 layer_factory.hpp:77] Creating layer ssd1_2
I1008 17:18:56.441040 21305 net.cpp:100] Creating Layer ssd1_2
I1008 17:18:56.441042 21305 net.cpp:434] ssd1_2 <- ssd1_1
I1008 17:18:56.441048 21305 net.cpp:408] ssd1_2 -> ssd1_2
I1008 17:18:56.447228 21305 net.cpp:150] Setting up ssd1_2
I1008 17:18:56.447244 21305 net.cpp:157] Top shape: 2 512 5 8 (40960)
I1008 17:18:56.447247 21305 net.cpp:165] Memory required for data: 537353824
I1008 17:18:56.447253 21305 layer_factory.hpp:77] Creating layer ssd1_2_relu
I1008 17:18:56.447258 21305 net.cpp:100] Creating Layer ssd1_2_relu
I1008 17:18:56.447263 21305 net.cpp:434] ssd1_2_relu <- ssd1_2
I1008 17:18:56.447276 21305 net.cpp:395] ssd1_2_relu -> ssd1_2 (in-place)
I1008 17:18:56.447564 21305 net.cpp:150] Setting up ssd1_2_relu
I1008 17:18:56.447571 21305 net.cpp:157] Top shape: 2 512 5 8 (40960)
I1008 17:18:56.447571 21305 net.cpp:165] Memory required for data: 537517664
I1008 17:18:56.447573 21305 layer_factory.hpp:77] Creating layer ssd1_2_ssd1_2_relu_0_split
I1008 17:18:56.447578 21305 net.cpp:100] Creating Layer ssd1_2_ssd1_2_relu_0_split
I1008 17:18:56.447582 21305 net.cpp:434] ssd1_2_ssd1_2_relu_0_split <- ssd1_2
I1008 17:18:56.447584 21305 net.cpp:408] ssd1_2_ssd1_2_relu_0_split -> ssd1_2_ssd1_2_relu_0_split_0
I1008 17:18:56.447588 21305 net.cpp:408] ssd1_2_ssd1_2_relu_0_split -> ssd1_2_ssd1_2_relu_0_split_1
I1008 17:18:56.447592 21305 net.cpp:408] ssd1_2_ssd1_2_relu_0_split -> ssd1_2_ssd1_2_relu_0_split_2
I1008 17:18:56.447597 21305 net.cpp:408] ssd1_2_ssd1_2_relu_0_split -> ssd1_2_ssd1_2_relu_0_split_3
I1008 17:18:56.447645 21305 net.cpp:150] Setting up ssd1_2_ssd1_2_relu_0_split
I1008 17:18:56.447649 21305 net.cpp:157] Top shape: 2 512 5 8 (40960)
I1008 17:18:56.447654 21305 net.cpp:157] Top shape: 2 512 5 8 (40960)
I1008 17:18:56.447655 21305 net.cpp:157] Top shape: 2 512 5 8 (40960)
I1008 17:18:56.447657 21305 net.cpp:157] Top shape: 2 512 5 8 (40960)
I1008 17:18:56.447659 21305 net.cpp:165] Memory required for data: 538173024
I1008 17:18:56.447660 21305 layer_factory.hpp:77] Creating layer ssd2_1
I1008 17:18:56.447667 21305 net.cpp:100] Creating Layer ssd2_1
I1008 17:18:56.447670 21305 net.cpp:434] ssd2_1 <- ssd1_2_ssd1_2_relu_0_split_0
I1008 17:18:56.447674 21305 net.cpp:408] ssd2_1 -> ssd2_1
I1008 17:18:56.449004 21305 net.cpp:150] Setting up ssd2_1
I1008 17:18:56.449010 21305 net.cpp:157] Top shape: 2 128 5 8 (10240)
I1008 17:18:56.449013 21305 net.cpp:165] Memory required for data: 538213984
I1008 17:18:56.449018 21305 layer_factory.hpp:77] Creating layer ssd2_1_relu
I1008 17:18:56.449021 21305 net.cpp:100] Creating Layer ssd2_1_relu
I1008 17:18:56.449024 21305 net.cpp:434] ssd2_1_relu <- ssd2_1
I1008 17:18:56.449026 21305 net.cpp:395] ssd2_1_relu -> ssd2_1 (in-place)
I1008 17:18:56.450089 21305 net.cpp:150] Setting up ssd2_1_relu
I1008 17:18:56.450098 21305 net.cpp:157] Top shape: 2 128 5 8 (10240)
I1008 17:18:56.450099 21305 net.cpp:165] Memory required for data: 538254944
I1008 17:18:56.450101 21305 layer_factory.hpp:77] Creating layer ssd2_2
I1008 17:18:56.450107 21305 net.cpp:100] Creating Layer ssd2_2
I1008 17:18:56.450111 21305 net.cpp:434] ssd2_2 <- ssd2_1
I1008 17:18:56.450115 21305 net.cpp:408] ssd2_2 -> ssd2_2
I1008 17:18:56.452620 21305 net.cpp:150] Setting up ssd2_2
I1008 17:18:56.452628 21305 net.cpp:157] Top shape: 2 256 3 4 (6144)
I1008 17:18:56.452631 21305 net.cpp:165] Memory required for data: 538279520
I1008 17:18:56.452636 21305 layer_factory.hpp:77] Creating layer ssd2_2_relu
I1008 17:18:56.452641 21305 net.cpp:100] Creating Layer ssd2_2_relu
I1008 17:18:56.452643 21305 net.cpp:434] ssd2_2_relu <- ssd2_2
I1008 17:18:56.452646 21305 net.cpp:395] ssd2_2_relu -> ssd2_2 (in-place)
I1008 17:18:56.452924 21305 net.cpp:150] Setting up ssd2_2_relu
I1008 17:18:56.452929 21305 net.cpp:157] Top shape: 2 256 3 4 (6144)
I1008 17:18:56.452931 21305 net.cpp:165] Memory required for data: 538304096
I1008 17:18:56.452934 21305 layer_factory.hpp:77] Creating layer ssd2_2_ssd2_2_relu_0_split
I1008 17:18:56.452937 21305 net.cpp:100] Creating Layer ssd2_2_ssd2_2_relu_0_split
I1008 17:18:56.452940 21305 net.cpp:434] ssd2_2_ssd2_2_relu_0_split <- ssd2_2
I1008 17:18:56.452944 21305 net.cpp:408] ssd2_2_ssd2_2_relu_0_split -> ssd2_2_ssd2_2_relu_0_split_0
I1008 17:18:56.452949 21305 net.cpp:408] ssd2_2_ssd2_2_relu_0_split -> ssd2_2_ssd2_2_relu_0_split_1
I1008 17:18:56.452952 21305 net.cpp:408] ssd2_2_ssd2_2_relu_0_split -> ssd2_2_ssd2_2_relu_0_split_2
I1008 17:18:56.452956 21305 net.cpp:408] ssd2_2_ssd2_2_relu_0_split -> ssd2_2_ssd2_2_relu_0_split_3
I1008 17:18:56.453006 21305 net.cpp:150] Setting up ssd2_2_ssd2_2_relu_0_split
I1008 17:18:56.453011 21305 net.cpp:157] Top shape: 2 256 3 4 (6144)
I1008 17:18:56.453022 21305 net.cpp:157] Top shape: 2 256 3 4 (6144)
I1008 17:18:56.453024 21305 net.cpp:157] Top shape: 2 256 3 4 (6144)
I1008 17:18:56.453027 21305 net.cpp:157] Top shape: 2 256 3 4 (6144)
I1008 17:18:56.453029 21305 net.cpp:165] Memory required for data: 538402400
I1008 17:18:56.453030 21305 layer_factory.hpp:77] Creating layer ssd3_1
I1008 17:18:56.453037 21305 net.cpp:100] Creating Layer ssd3_1
I1008 17:18:56.453040 21305 net.cpp:434] ssd3_1 <- ssd2_2_ssd2_2_relu_0_split_0
I1008 17:18:56.453045 21305 net.cpp:408] ssd3_1 -> ssd3_1
I1008 17:18:56.454828 21305 net.cpp:150] Setting up ssd3_1
I1008 17:18:56.454835 21305 net.cpp:157] Top shape: 2 128 3 4 (3072)
I1008 17:18:56.454836 21305 net.cpp:165] Memory required for data: 538414688
I1008 17:18:56.454841 21305 layer_factory.hpp:77] Creating layer ssd3_1_relu
I1008 17:18:56.454845 21305 net.cpp:100] Creating Layer ssd3_1_relu
I1008 17:18:56.454849 21305 net.cpp:434] ssd3_1_relu <- ssd3_1
I1008 17:18:56.454852 21305 net.cpp:395] ssd3_1_relu -> ssd3_1 (in-place)
I1008 17:18:56.455129 21305 net.cpp:150] Setting up ssd3_1_relu
I1008 17:18:56.455134 21305 net.cpp:157] Top shape: 2 128 3 4 (3072)
I1008 17:18:56.455137 21305 net.cpp:165] Memory required for data: 538426976
I1008 17:18:56.455140 21305 layer_factory.hpp:77] Creating layer ssd3_2
I1008 17:18:56.455147 21305 net.cpp:100] Creating Layer ssd3_2
I1008 17:18:56.455148 21305 net.cpp:434] ssd3_2 <- ssd3_1
I1008 17:18:56.455152 21305 net.cpp:408] ssd3_2 -> ssd3_2
I1008 17:18:56.458333 21305 net.cpp:150] Setting up ssd3_2
I1008 17:18:56.458346 21305 net.cpp:157] Top shape: 2 256 2 2 (2048)
I1008 17:18:56.458348 21305 net.cpp:165] Memory required for data: 538435168
I1008 17:18:56.458353 21305 layer_factory.hpp:77] Creating layer ssd3_2_relu
I1008 17:18:56.458358 21305 net.cpp:100] Creating Layer ssd3_2_relu
I1008 17:18:56.458360 21305 net.cpp:434] ssd3_2_relu <- ssd3_2
I1008 17:18:56.458364 21305 net.cpp:395] ssd3_2_relu -> ssd3_2 (in-place)
I1008 17:18:56.458751 21305 net.cpp:150] Setting up ssd3_2_relu
I1008 17:18:56.458757 21305 net.cpp:157] Top shape: 2 256 2 2 (2048)
I1008 17:18:56.458760 21305 net.cpp:165] Memory required for data: 538443360
I1008 17:18:56.458761 21305 layer_factory.hpp:77] Creating layer ssd3_2_ssd3_2_relu_0_split
I1008 17:18:56.458767 21305 net.cpp:100] Creating Layer ssd3_2_ssd3_2_relu_0_split
I1008 17:18:56.458770 21305 net.cpp:434] ssd3_2_ssd3_2_relu_0_split <- ssd3_2
I1008 17:18:56.458775 21305 net.cpp:408] ssd3_2_ssd3_2_relu_0_split -> ssd3_2_ssd3_2_relu_0_split_0
I1008 17:18:56.458779 21305 net.cpp:408] ssd3_2_ssd3_2_relu_0_split -> ssd3_2_ssd3_2_relu_0_split_1
I1008 17:18:56.458783 21305 net.cpp:408] ssd3_2_ssd3_2_relu_0_split -> ssd3_2_ssd3_2_relu_0_split_2
I1008 17:18:56.458786 21305 net.cpp:408] ssd3_2_ssd3_2_relu_0_split -> ssd3_2_ssd3_2_relu_0_split_3
I1008 17:18:56.458837 21305 net.cpp:150] Setting up ssd3_2_ssd3_2_relu_0_split
I1008 17:18:56.458842 21305 net.cpp:157] Top shape: 2 256 2 2 (2048)
I1008 17:18:56.458844 21305 net.cpp:157] Top shape: 2 256 2 2 (2048)
I1008 17:18:56.458847 21305 net.cpp:157] Top shape: 2 256 2 2 (2048)
I1008 17:18:56.458850 21305 net.cpp:157] Top shape: 2 256 2 2 (2048)
I1008 17:18:56.458853 21305 net.cpp:165] Memory required for data: 538476128
I1008 17:18:56.458854 21305 layer_factory.hpp:77] Creating layer ssd4_1
I1008 17:18:56.458860 21305 net.cpp:100] Creating Layer ssd4_1
I1008 17:18:56.458863 21305 net.cpp:434] ssd4_1 <- ssd3_2_ssd3_2_relu_0_split_0
I1008 17:18:56.458868 21305 net.cpp:408] ssd4_1 -> ssd4_1
I1008 17:18:56.460119 21305 net.cpp:150] Setting up ssd4_1
I1008 17:18:56.460127 21305 net.cpp:157] Top shape: 2 128 2 2 (1024)
I1008 17:18:56.460130 21305 net.cpp:165] Memory required for data: 538480224
I1008 17:18:56.460134 21305 layer_factory.hpp:77] Creating layer ssd4_1_relu
I1008 17:18:56.460146 21305 net.cpp:100] Creating Layer ssd4_1_relu
I1008 17:18:56.460150 21305 net.cpp:434] ssd4_1_relu <- ssd4_1
I1008 17:18:56.460152 21305 net.cpp:395] ssd4_1_relu -> ssd4_1 (in-place)
I1008 17:18:56.460433 21305 net.cpp:150] Setting up ssd4_1_relu
I1008 17:18:56.460449 21305 net.cpp:157] Top shape: 2 128 2 2 (1024)
I1008 17:18:56.460451 21305 net.cpp:165] Memory required for data: 538484320
I1008 17:18:56.460454 21305 layer_factory.hpp:77] Creating layer ssd4_2
I1008 17:18:56.460459 21305 net.cpp:100] Creating Layer ssd4_2
I1008 17:18:56.460461 21305 net.cpp:434] ssd4_2 <- ssd4_1
I1008 17:18:56.460465 21305 net.cpp:408] ssd4_2 -> ssd4_2
I1008 17:18:56.463028 21305 net.cpp:150] Setting up ssd4_2
I1008 17:18:56.463037 21305 net.cpp:157] Top shape: 2 256 1 1 (512)
I1008 17:18:56.463038 21305 net.cpp:165] Memory required for data: 538486368
I1008 17:18:56.463042 21305 layer_factory.hpp:77] Creating layer ssd4_2_relu
I1008 17:18:56.463047 21305 net.cpp:100] Creating Layer ssd4_2_relu
I1008 17:18:56.463049 21305 net.cpp:434] ssd4_2_relu <- ssd4_2
I1008 17:18:56.463052 21305 net.cpp:395] ssd4_2_relu -> ssd4_2 (in-place)
I1008 17:18:56.464143 21305 net.cpp:150] Setting up ssd4_2_relu
I1008 17:18:56.464151 21305 net.cpp:157] Top shape: 2 256 1 1 (512)
I1008 17:18:56.464154 21305 net.cpp:165] Memory required for data: 538488416
I1008 17:18:56.464155 21305 layer_factory.hpp:77] Creating layer ssd4_2_ssd4_2_relu_0_split
I1008 17:18:56.464160 21305 net.cpp:100] Creating Layer ssd4_2_ssd4_2_relu_0_split
I1008 17:18:56.464164 21305 net.cpp:434] ssd4_2_ssd4_2_relu_0_split <- ssd4_2
I1008 17:18:56.464166 21305 net.cpp:408] ssd4_2_ssd4_2_relu_0_split -> ssd4_2_ssd4_2_relu_0_split_0
I1008 17:18:56.464171 21305 net.cpp:408] ssd4_2_ssd4_2_relu_0_split -> ssd4_2_ssd4_2_relu_0_split_1
I1008 17:18:56.464175 21305 net.cpp:408] ssd4_2_ssd4_2_relu_0_split -> ssd4_2_ssd4_2_relu_0_split_2
I1008 17:18:56.464226 21305 net.cpp:150] Setting up ssd4_2_ssd4_2_relu_0_split
I1008 17:18:56.464228 21305 net.cpp:157] Top shape: 2 256 1 1 (512)
I1008 17:18:56.464231 21305 net.cpp:157] Top shape: 2 256 1 1 (512)
I1008 17:18:56.464233 21305 net.cpp:157] Top shape: 2 256 1 1 (512)
I1008 17:18:56.464236 21305 net.cpp:165] Memory required for data: 538494560
I1008 17:18:56.464238 21305 layer_factory.hpp:77] Creating layer conv5_5/sep_norm
I1008 17:18:56.464242 21305 net.cpp:100] Creating Layer conv5_5/sep_norm
I1008 17:18:56.464246 21305 net.cpp:434] conv5_5/sep_norm <- conv5_5/sep_relu5_5/sep_0_split_1
I1008 17:18:56.464248 21305 net.cpp:408] conv5_5/sep_norm -> conv5_5/sep_norm
I1008 17:18:56.464371 21305 net.cpp:150] Setting up conv5_5/sep_norm
I1008 17:18:56.464375 21305 net.cpp:157] Top shape: 2 512 19 32 (622592)
I1008 17:18:56.464377 21305 net.cpp:165] Memory required for data: 540984928
I1008 17:18:56.464380 21305 layer_factory.hpp:77] Creating layer conv5_5/sep_norm_conv5_5/sep_norm_0_split
I1008 17:18:56.464385 21305 net.cpp:100] Creating Layer conv5_5/sep_norm_conv5_5/sep_norm_0_split
I1008 17:18:56.464386 21305 net.cpp:434] conv5_5/sep_norm_conv5_5/sep_norm_0_split <- conv5_5/sep_norm
I1008 17:18:56.464390 21305 net.cpp:408] conv5_5/sep_norm_conv5_5/sep_norm_0_split -> conv5_5/sep_norm_conv5_5/sep_norm_0_split_0
I1008 17:18:56.464395 21305 net.cpp:408] conv5_5/sep_norm_conv5_5/sep_norm_0_split -> conv5_5/sep_norm_conv5_5/sep_norm_0_split_1
I1008 17:18:56.464398 21305 net.cpp:408] conv5_5/sep_norm_conv5_5/sep_norm_0_split -> conv5_5/sep_norm_conv5_5/sep_norm_0_split_2
I1008 17:18:56.464434 21305 net.cpp:150] Setting up conv5_5/sep_norm_conv5_5/sep_norm_0_split
I1008 17:18:56.464438 21305 net.cpp:157] Top shape: 2 512 19 32 (622592)
I1008 17:18:56.464442 21305 net.cpp:157] Top shape: 2 512 19 32 (622592)
I1008 17:18:56.464443 21305 net.cpp:157] Top shape: 2 512 19 32 (622592)
I1008 17:18:56.464445 21305 net.cpp:165] Memory required for data: 548456032
I1008 17:18:56.464447 21305 layer_factory.hpp:77] Creating layer conv5_5/sep_norm_mbox_loc
I1008 17:18:56.464452 21305 net.cpp:100] Creating Layer conv5_5/sep_norm_mbox_loc
I1008 17:18:56.464454 21305 net.cpp:434] conv5_5/sep_norm_mbox_loc <- conv5_5/sep_norm_conv5_5/sep_norm_0_split_0
I1008 17:18:56.464458 21305 net.cpp:408] conv5_5/sep_norm_mbox_loc -> conv5_5/sep_norm_mbox_loc
I1008 17:18:56.465828 21305 net.cpp:150] Setting up conv5_5/sep_norm_mbox_loc
I1008 17:18:56.465847 21305 net.cpp:157] Top shape: 2 8 19 32 (9728)
I1008 17:18:56.465850 21305 net.cpp:165] Memory required for data: 548494944
I1008 17:18:56.465854 21305 layer_factory.hpp:77] Creating layer conv5_5/sep_norm_mbox_loc_perm
I1008 17:18:56.465863 21305 net.cpp:100] Creating Layer conv5_5/sep_norm_mbox_loc_perm
I1008 17:18:56.465867 21305 net.cpp:434] conv5_5/sep_norm_mbox_loc_perm <- conv5_5/sep_norm_mbox_loc
I1008 17:18:56.465870 21305 net.cpp:408] conv5_5/sep_norm_mbox_loc_perm -> conv5_5/sep_norm_mbox_loc_perm
I1008 17:18:56.465955 21305 net.cpp:150] Setting up conv5_5/sep_norm_mbox_loc_perm
I1008 17:18:56.465960 21305 net.cpp:157] Top shape: 2 19 32 8 (9728)
I1008 17:18:56.465961 21305 net.cpp:165] Memory required for data: 548533856
I1008 17:18:56.465963 21305 layer_factory.hpp:77] Creating layer conv5_5/sep_norm_mbox_loc_flat
I1008 17:18:56.465967 21305 net.cpp:100] Creating Layer conv5_5/sep_norm_mbox_loc_flat
I1008 17:18:56.465970 21305 net.cpp:434] conv5_5/sep_norm_mbox_loc_flat <- conv5_5/sep_norm_mbox_loc_perm
I1008 17:18:56.465973 21305 net.cpp:408] conv5_5/sep_norm_mbox_loc_flat -> conv5_5/sep_norm_mbox_loc_flat
I1008 17:18:56.465991 21305 net.cpp:150] Setting up conv5_5/sep_norm_mbox_loc_flat
I1008 17:18:56.465994 21305 net.cpp:157] Top shape: 2 4864 (9728)
I1008 17:18:56.465996 21305 net.cpp:165] Memory required for data: 548572768
I1008 17:18:56.465998 21305 layer_factory.hpp:77] Creating layer conv5_5/sep_norm_mbox_conf
I1008 17:18:56.466004 21305 net.cpp:100] Creating Layer conv5_5/sep_norm_mbox_conf
I1008 17:18:56.466006 21305 net.cpp:434] conv5_5/sep_norm_mbox_conf <- conv5_5/sep_norm_conv5_5/sep_norm_0_split_1
I1008 17:18:56.466011 21305 net.cpp:408] conv5_5/sep_norm_mbox_conf -> conv5_5/sep_norm_mbox_conf
I1008 17:18:56.467542 21305 net.cpp:150] Setting up conv5_5/sep_norm_mbox_conf
I1008 17:18:56.467551 21305 net.cpp:157] Top shape: 2 10 19 32 (12160)
I1008 17:18:56.467553 21305 net.cpp:165] Memory required for data: 548621408
I1008 17:18:56.467558 21305 layer_factory.hpp:77] Creating layer conv5_5/sep_norm_mbox_conf_perm
I1008 17:18:56.467563 21305 net.cpp:100] Creating Layer conv5_5/sep_norm_mbox_conf_perm
I1008 17:18:56.467566 21305 net.cpp:434] conv5_5/sep_norm_mbox_conf_perm <- conv5_5/sep_norm_mbox_conf
I1008 17:18:56.467571 21305 net.cpp:408] conv5_5/sep_norm_mbox_conf_perm -> conv5_5/sep_norm_mbox_conf_perm
I1008 17:18:56.467653 21305 net.cpp:150] Setting up conv5_5/sep_norm_mbox_conf_perm
I1008 17:18:56.467656 21305 net.cpp:157] Top shape: 2 19 32 10 (12160)
I1008 17:18:56.467658 21305 net.cpp:165] Memory required for data: 548670048
I1008 17:18:56.467659 21305 layer_factory.hpp:77] Creating layer conv5_5/sep_norm_mbox_conf_flat
I1008 17:18:56.467664 21305 net.cpp:100] Creating Layer conv5_5/sep_norm_mbox_conf_flat
I1008 17:18:56.467666 21305 net.cpp:434] conv5_5/sep_norm_mbox_conf_flat <- conv5_5/sep_norm_mbox_conf_perm
I1008 17:18:56.467669 21305 net.cpp:408] conv5_5/sep_norm_mbox_conf_flat -> conv5_5/sep_norm_mbox_conf_flat
I1008 17:18:56.467685 21305 net.cpp:150] Setting up conv5_5/sep_norm_mbox_conf_flat
I1008 17:18:56.467689 21305 net.cpp:157] Top shape: 2 6080 (12160)
I1008 17:18:56.467691 21305 net.cpp:165] Memory required for data: 548718688
I1008 17:18:56.467694 21305 layer_factory.hpp:77] Creating layer conv5_5/sep_norm_mbox_priorbox
I1008 17:18:56.467698 21305 net.cpp:100] Creating Layer conv5_5/sep_norm_mbox_priorbox
I1008 17:18:56.467701 21305 net.cpp:434] conv5_5/sep_norm_mbox_priorbox <- conv5_5/sep_norm_conv5_5/sep_norm_0_split_2
I1008 17:18:56.467705 21305 net.cpp:434] conv5_5/sep_norm_mbox_priorbox <- data_data_0_split_1
I1008 17:18:56.467708 21305 net.cpp:408] conv5_5/sep_norm_mbox_priorbox -> conv5_5/sep_norm_mbox_priorbox
I1008 17:18:56.467728 21305 net.cpp:150] Setting up conv5_5/sep_norm_mbox_priorbox
I1008 17:18:56.467731 21305 net.cpp:157] Top shape: 1 2 4864 (9728)
I1008 17:18:56.467734 21305 net.cpp:165] Memory required for data: 548757600
I1008 17:18:56.467736 21305 layer_factory.hpp:77] Creating layer conv6/sep_mbox_loc
I1008 17:18:56.467749 21305 net.cpp:100] Creating Layer conv6/sep_mbox_loc
I1008 17:18:56.467752 21305 net.cpp:434] conv6/sep_mbox_loc <- conv6/sep_relu6/sep_0_split_1
I1008 17:18:56.467757 21305 net.cpp:408] conv6/sep_mbox_loc -> conv6/sep_mbox_loc
I1008 17:18:56.469266 21305 net.cpp:150] Setting up conv6/sep_mbox_loc
I1008 17:18:56.469275 21305 net.cpp:157] Top shape: 2 8 10 16 (2560)
I1008 17:18:56.469277 21305 net.cpp:165] Memory required for data: 548767840
I1008 17:18:56.469282 21305 layer_factory.hpp:77] Creating layer conv6/sep_mbox_loc_perm
I1008 17:18:56.469288 21305 net.cpp:100] Creating Layer conv6/sep_mbox_loc_perm
I1008 17:18:56.469291 21305 net.cpp:434] conv6/sep_mbox_loc_perm <- conv6/sep_mbox_loc
I1008 17:18:56.469296 21305 net.cpp:408] conv6/sep_mbox_loc_perm -> conv6/sep_mbox_loc_perm
I1008 17:18:56.469379 21305 net.cpp:150] Setting up conv6/sep_mbox_loc_perm
I1008 17:18:56.469383 21305 net.cpp:157] Top shape: 2 10 16 8 (2560)
I1008 17:18:56.469386 21305 net.cpp:165] Memory required for data: 548778080
I1008 17:18:56.469388 21305 layer_factory.hpp:77] Creating layer conv6/sep_mbox_loc_flat
I1008 17:18:56.469393 21305 net.cpp:100] Creating Layer conv6/sep_mbox_loc_flat
I1008 17:18:56.469394 21305 net.cpp:434] conv6/sep_mbox_loc_flat <- conv6/sep_mbox_loc_perm
I1008 17:18:56.469398 21305 net.cpp:408] conv6/sep_mbox_loc_flat -> conv6/sep_mbox_loc_flat
I1008 17:18:56.469415 21305 net.cpp:150] Setting up conv6/sep_mbox_loc_flat
I1008 17:18:56.469419 21305 net.cpp:157] Top shape: 2 1280 (2560)
I1008 17:18:56.469421 21305 net.cpp:165] Memory required for data: 548788320
I1008 17:18:56.469424 21305 layer_factory.hpp:77] Creating layer conv6/sep_mbox_conf
I1008 17:18:56.469429 21305 net.cpp:100] Creating Layer conv6/sep_mbox_conf
I1008 17:18:56.469431 21305 net.cpp:434] conv6/sep_mbox_conf <- conv6/sep_relu6/sep_0_split_2
I1008 17:18:56.469435 21305 net.cpp:408] conv6/sep_mbox_conf -> conv6/sep_mbox_conf
I1008 17:18:56.471853 21305 net.cpp:150] Setting up conv6/sep_mbox_conf
I1008 17:18:56.471865 21305 net.cpp:157] Top shape: 2 10 10 16 (3200)
I1008 17:18:56.471868 21305 net.cpp:165] Memory required for data: 548801120
I1008 17:18:56.471876 21305 layer_factory.hpp:77] Creating layer conv6/sep_mbox_conf_perm
I1008 17:18:56.471882 21305 net.cpp:100] Creating Layer conv6/sep_mbox_conf_perm
I1008 17:18:56.471887 21305 net.cpp:434] conv6/sep_mbox_conf_perm <- conv6/sep_mbox_conf
I1008 17:18:56.471894 21305 net.cpp:408] conv6/sep_mbox_conf_perm -> conv6/sep_mbox_conf_perm
I1008 17:18:56.471982 21305 net.cpp:150] Setting up conv6/sep_mbox_conf_perm
I1008 17:18:56.471985 21305 net.cpp:157] Top shape: 2 10 16 10 (3200)
I1008 17:18:56.471988 21305 net.cpp:165] Memory required for data: 548813920
I1008 17:18:56.471990 21305 layer_factory.hpp:77] Creating layer conv6/sep_mbox_conf_flat
I1008 17:18:56.471995 21305 net.cpp:100] Creating Layer conv6/sep_mbox_conf_flat
I1008 17:18:56.471999 21305 net.cpp:434] conv6/sep_mbox_conf_flat <- conv6/sep_mbox_conf_perm
I1008 17:18:56.472002 21305 net.cpp:408] conv6/sep_mbox_conf_flat -> conv6/sep_mbox_conf_flat
I1008 17:18:56.472023 21305 net.cpp:150] Setting up conv6/sep_mbox_conf_flat
I1008 17:18:56.472025 21305 net.cpp:157] Top shape: 2 1600 (3200)
I1008 17:18:56.472028 21305 net.cpp:165] Memory required for data: 548826720
I1008 17:18:56.472028 21305 layer_factory.hpp:77] Creating layer conv6/sep_mbox_priorbox
I1008 17:18:56.472034 21305 net.cpp:100] Creating Layer conv6/sep_mbox_priorbox
I1008 17:18:56.472036 21305 net.cpp:434] conv6/sep_mbox_priorbox <- conv6/sep_relu6/sep_0_split_3
I1008 17:18:56.472039 21305 net.cpp:434] conv6/sep_mbox_priorbox <- data_data_0_split_2
I1008 17:18:56.472043 21305 net.cpp:408] conv6/sep_mbox_priorbox -> conv6/sep_mbox_priorbox
I1008 17:18:56.472065 21305 net.cpp:150] Setting up conv6/sep_mbox_priorbox
I1008 17:18:56.472069 21305 net.cpp:157] Top shape: 1 2 1280 (2560)
I1008 17:18:56.472070 21305 net.cpp:165] Memory required for data: 548836960
I1008 17:18:56.472072 21305 layer_factory.hpp:77] Creating layer ssd1_2_mbox_loc
I1008 17:18:56.472091 21305 net.cpp:100] Creating Layer ssd1_2_mbox_loc
I1008 17:18:56.472095 21305 net.cpp:434] ssd1_2_mbox_loc <- ssd1_2_ssd1_2_relu_0_split_1
I1008 17:18:56.472100 21305 net.cpp:408] ssd1_2_mbox_loc -> ssd1_2_mbox_loc
I1008 17:18:56.473652 21305 net.cpp:150] Setting up ssd1_2_mbox_loc
I1008 17:18:56.473675 21305 net.cpp:157] Top shape: 2 8 5 8 (640)
I1008 17:18:56.473677 21305 net.cpp:165] Memory required for data: 548839520
I1008 17:18:56.473687 21305 layer_factory.hpp:77] Creating layer ssd1_2_mbox_loc_perm
I1008 17:18:56.473697 21305 net.cpp:100] Creating Layer ssd1_2_mbox_loc_perm
I1008 17:18:56.473701 21305 net.cpp:434] ssd1_2_mbox_loc_perm <- ssd1_2_mbox_loc
I1008 17:18:56.473708 21305 net.cpp:408] ssd1_2_mbox_loc_perm -> ssd1_2_mbox_loc_perm
I1008 17:18:56.473803 21305 net.cpp:150] Setting up ssd1_2_mbox_loc_perm
I1008 17:18:56.473806 21305 net.cpp:157] Top shape: 2 5 8 8 (640)
I1008 17:18:56.473809 21305 net.cpp:165] Memory required for data: 548842080
I1008 17:18:56.473810 21305 layer_factory.hpp:77] Creating layer ssd1_2_mbox_loc_flat
I1008 17:18:56.473816 21305 net.cpp:100] Creating Layer ssd1_2_mbox_loc_flat
I1008 17:18:56.473819 21305 net.cpp:434] ssd1_2_mbox_loc_flat <- ssd1_2_mbox_loc_perm
I1008 17:18:56.473822 21305 net.cpp:408] ssd1_2_mbox_loc_flat -> ssd1_2_mbox_loc_flat
I1008 17:18:56.473840 21305 net.cpp:150] Setting up ssd1_2_mbox_loc_flat
I1008 17:18:56.473843 21305 net.cpp:157] Top shape: 2 320 (640)
I1008 17:18:56.473845 21305 net.cpp:165] Memory required for data: 548844640
I1008 17:18:56.473847 21305 layer_factory.hpp:77] Creating layer ssd1_2_mbox_conf
I1008 17:18:56.473856 21305 net.cpp:100] Creating Layer ssd1_2_mbox_conf
I1008 17:18:56.473860 21305 net.cpp:434] ssd1_2_mbox_conf <- ssd1_2_ssd1_2_relu_0_split_2
I1008 17:18:56.473863 21305 net.cpp:408] ssd1_2_mbox_conf -> ssd1_2_mbox_conf
I1008 17:18:56.475538 21305 net.cpp:150] Setting up ssd1_2_mbox_conf
I1008 17:18:56.475553 21305 net.cpp:157] Top shape: 2 10 5 8 (800)
I1008 17:18:56.475554 21305 net.cpp:165] Memory required for data: 548847840
I1008 17:18:56.475561 21305 layer_factory.hpp:77] Creating layer ssd1_2_mbox_conf_perm
I1008 17:18:56.475569 21305 net.cpp:100] Creating Layer ssd1_2_mbox_conf_perm
I1008 17:18:56.475574 21305 net.cpp:434] ssd1_2_mbox_conf_perm <- ssd1_2_mbox_conf
I1008 17:18:56.475579 21305 net.cpp:408] ssd1_2_mbox_conf_perm -> ssd1_2_mbox_conf_perm
I1008 17:18:56.475667 21305 net.cpp:150] Setting up ssd1_2_mbox_conf_perm
I1008 17:18:56.475672 21305 net.cpp:157] Top shape: 2 5 8 10 (800)
I1008 17:18:56.475673 21305 net.cpp:165] Memory required for data: 548851040
I1008 17:18:56.475675 21305 layer_factory.hpp:77] Creating layer ssd1_2_mbox_conf_flat
I1008 17:18:56.475679 21305 net.cpp:100] Creating Layer ssd1_2_mbox_conf_flat
I1008 17:18:56.475682 21305 net.cpp:434] ssd1_2_mbox_conf_flat <- ssd1_2_mbox_conf_perm
I1008 17:18:56.475685 21305 net.cpp:408] ssd1_2_mbox_conf_flat -> ssd1_2_mbox_conf_flat
I1008 17:18:56.475703 21305 net.cpp:150] Setting up ssd1_2_mbox_conf_flat
I1008 17:18:56.475708 21305 net.cpp:157] Top shape: 2 400 (800)
I1008 17:18:56.475709 21305 net.cpp:165] Memory required for data: 548854240
I1008 17:18:56.475711 21305 layer_factory.hpp:77] Creating layer ssd1_2_mbox_priorbox
I1008 17:18:56.475715 21305 net.cpp:100] Creating Layer ssd1_2_mbox_priorbox
I1008 17:18:56.475718 21305 net.cpp:434] ssd1_2_mbox_priorbox <- ssd1_2_ssd1_2_relu_0_split_3
I1008 17:18:56.475721 21305 net.cpp:434] ssd1_2_mbox_priorbox <- data_data_0_split_3
I1008 17:18:56.475725 21305 net.cpp:408] ssd1_2_mbox_priorbox -> ssd1_2_mbox_priorbox
I1008 17:18:56.475745 21305 net.cpp:150] Setting up ssd1_2_mbox_priorbox
I1008 17:18:56.475749 21305 net.cpp:157] Top shape: 1 2 320 (640)
I1008 17:18:56.475752 21305 net.cpp:165] Memory required for data: 548856800
I1008 17:18:56.475754 21305 layer_factory.hpp:77] Creating layer ssd2_2_mbox_loc
I1008 17:18:56.475760 21305 net.cpp:100] Creating Layer ssd2_2_mbox_loc
I1008 17:18:56.475762 21305 net.cpp:434] ssd2_2_mbox_loc <- ssd2_2_ssd2_2_relu_0_split_1
I1008 17:18:56.475766 21305 net.cpp:408] ssd2_2_mbox_loc -> ssd2_2_mbox_loc
I1008 17:18:56.477726 21305 net.cpp:150] Setting up ssd2_2_mbox_loc
I1008 17:18:56.477735 21305 net.cpp:157] Top shape: 2 8 3 4 (192)
I1008 17:18:56.477736 21305 net.cpp:165] Memory required for data: 548857568
I1008 17:18:56.477741 21305 layer_factory.hpp:77] Creating layer ssd2_2_mbox_loc_perm
I1008 17:18:56.477746 21305 net.cpp:100] Creating Layer ssd2_2_mbox_loc_perm
I1008 17:18:56.477749 21305 net.cpp:434] ssd2_2_mbox_loc_perm <- ssd2_2_mbox_loc
I1008 17:18:56.477753 21305 net.cpp:408] ssd2_2_mbox_loc_perm -> ssd2_2_mbox_loc_perm
I1008 17:18:56.477835 21305 net.cpp:150] Setting up ssd2_2_mbox_loc_perm
I1008 17:18:56.477838 21305 net.cpp:157] Top shape: 2 3 4 8 (192)
I1008 17:18:56.477840 21305 net.cpp:165] Memory required for data: 548858336
I1008 17:18:56.477843 21305 layer_factory.hpp:77] Creating layer ssd2_2_mbox_loc_flat
I1008 17:18:56.477845 21305 net.cpp:100] Creating Layer ssd2_2_mbox_loc_flat
I1008 17:18:56.477849 21305 net.cpp:434] ssd2_2_mbox_loc_flat <- ssd2_2_mbox_loc_perm
I1008 17:18:56.477851 21305 net.cpp:408] ssd2_2_mbox_loc_flat -> ssd2_2_mbox_loc_flat
I1008 17:18:56.477869 21305 net.cpp:150] Setting up ssd2_2_mbox_loc_flat
I1008 17:18:56.477872 21305 net.cpp:157] Top shape: 2 96 (192)
I1008 17:18:56.477874 21305 net.cpp:165] Memory required for data: 548859104
I1008 17:18:56.477876 21305 layer_factory.hpp:77] Creating layer ssd2_2_mbox_conf
I1008 17:18:56.477881 21305 net.cpp:100] Creating Layer ssd2_2_mbox_conf
I1008 17:18:56.477885 21305 net.cpp:434] ssd2_2_mbox_conf <- ssd2_2_ssd2_2_relu_0_split_2
I1008 17:18:56.477888 21305 net.cpp:408] ssd2_2_mbox_conf -> ssd2_2_mbox_conf
I1008 17:18:56.479118 21305 net.cpp:150] Setting up ssd2_2_mbox_conf
I1008 17:18:56.479125 21305 net.cpp:157] Top shape: 2 10 3 4 (240)
I1008 17:18:56.479128 21305 net.cpp:165] Memory required for data: 548860064
I1008 17:18:56.479132 21305 layer_factory.hpp:77] Creating layer ssd2_2_mbox_conf_perm
I1008 17:18:56.479136 21305 net.cpp:100] Creating Layer ssd2_2_mbox_conf_perm
I1008 17:18:56.479138 21305 net.cpp:434] ssd2_2_mbox_conf_perm <- ssd2_2_mbox_conf
I1008 17:18:56.479142 21305 net.cpp:408] ssd2_2_mbox_conf_perm -> ssd2_2_mbox_conf_perm
I1008 17:18:56.479230 21305 net.cpp:150] Setting up ssd2_2_mbox_conf_perm
I1008 17:18:56.479235 21305 net.cpp:157] Top shape: 2 3 4 10 (240)
I1008 17:18:56.479236 21305 net.cpp:165] Memory required for data: 548861024
I1008 17:18:56.479238 21305 layer_factory.hpp:77] Creating layer ssd2_2_mbox_conf_flat
I1008 17:18:56.479243 21305 net.cpp:100] Creating Layer ssd2_2_mbox_conf_flat
I1008 17:18:56.479244 21305 net.cpp:434] ssd2_2_mbox_conf_flat <- ssd2_2_mbox_conf_perm
I1008 17:18:56.479249 21305 net.cpp:408] ssd2_2_mbox_conf_flat -> ssd2_2_mbox_conf_flat
I1008 17:18:56.479265 21305 net.cpp:150] Setting up ssd2_2_mbox_conf_flat
I1008 17:18:56.479269 21305 net.cpp:157] Top shape: 2 120 (240)
I1008 17:18:56.479269 21305 net.cpp:165] Memory required for data: 548861984
I1008 17:18:56.479271 21305 layer_factory.hpp:77] Creating layer ssd2_2_mbox_priorbox
I1008 17:18:56.479275 21305 net.cpp:100] Creating Layer ssd2_2_mbox_priorbox
I1008 17:18:56.479279 21305 net.cpp:434] ssd2_2_mbox_priorbox <- ssd2_2_ssd2_2_relu_0_split_3
I1008 17:18:56.479281 21305 net.cpp:434] ssd2_2_mbox_priorbox <- data_data_0_split_4
I1008 17:18:56.479285 21305 net.cpp:408] ssd2_2_mbox_priorbox -> ssd2_2_mbox_priorbox
I1008 17:18:56.479303 21305 net.cpp:150] Setting up ssd2_2_mbox_priorbox
I1008 17:18:56.479306 21305 net.cpp:157] Top shape: 1 2 96 (192)
I1008 17:18:56.479308 21305 net.cpp:165] Memory required for data: 548862752
I1008 17:18:56.479310 21305 layer_factory.hpp:77] Creating layer ssd3_2_mbox_loc
I1008 17:18:56.479316 21305 net.cpp:100] Creating Layer ssd3_2_mbox_loc
I1008 17:18:56.479320 21305 net.cpp:434] ssd3_2_mbox_loc <- ssd3_2_ssd3_2_relu_0_split_1
I1008 17:18:56.479322 21305 net.cpp:408] ssd3_2_mbox_loc -> ssd3_2_mbox_loc
I1008 17:18:56.480629 21305 net.cpp:150] Setting up ssd3_2_mbox_loc
I1008 17:18:56.480636 21305 net.cpp:157] Top shape: 2 8 2 2 (64)
I1008 17:18:56.480648 21305 net.cpp:165] Memory required for data: 548863008
I1008 17:18:56.480654 21305 layer_factory.hpp:77] Creating layer ssd3_2_mbox_loc_perm
I1008 17:18:56.480660 21305 net.cpp:100] Creating Layer ssd3_2_mbox_loc_perm
I1008 17:18:56.480664 21305 net.cpp:434] ssd3_2_mbox_loc_perm <- ssd3_2_mbox_loc
I1008 17:18:56.480666 21305 net.cpp:408] ssd3_2_mbox_loc_perm -> ssd3_2_mbox_loc_perm
I1008 17:18:56.480747 21305 net.cpp:150] Setting up ssd3_2_mbox_loc_perm
I1008 17:18:56.480751 21305 net.cpp:157] Top shape: 2 2 2 8 (64)
I1008 17:18:56.480753 21305 net.cpp:165] Memory required for data: 548863264
I1008 17:18:56.480756 21305 layer_factory.hpp:77] Creating layer ssd3_2_mbox_loc_flat
I1008 17:18:56.480758 21305 net.cpp:100] Creating Layer ssd3_2_mbox_loc_flat
I1008 17:18:56.480760 21305 net.cpp:434] ssd3_2_mbox_loc_flat <- ssd3_2_mbox_loc_perm
I1008 17:18:56.480764 21305 net.cpp:408] ssd3_2_mbox_loc_flat -> ssd3_2_mbox_loc_flat
I1008 17:18:56.480783 21305 net.cpp:150] Setting up ssd3_2_mbox_loc_flat
I1008 17:18:56.480787 21305 net.cpp:157] Top shape: 2 32 (64)
I1008 17:18:56.480788 21305 net.cpp:165] Memory required for data: 548863520
I1008 17:18:56.480790 21305 layer_factory.hpp:77] Creating layer ssd3_2_mbox_conf
I1008 17:18:56.480795 21305 net.cpp:100] Creating Layer ssd3_2_mbox_conf
I1008 17:18:56.480798 21305 net.cpp:434] ssd3_2_mbox_conf <- ssd3_2_ssd3_2_relu_0_split_2
I1008 17:18:56.480801 21305 net.cpp:408] ssd3_2_mbox_conf -> ssd3_2_mbox_conf
I1008 17:18:56.482756 21305 net.cpp:150] Setting up ssd3_2_mbox_conf
I1008 17:18:56.482764 21305 net.cpp:157] Top shape: 2 10 2 2 (80)
I1008 17:18:56.482766 21305 net.cpp:165] Memory required for data: 548863840
I1008 17:18:56.482770 21305 layer_factory.hpp:77] Creating layer ssd3_2_mbox_conf_perm
I1008 17:18:56.482775 21305 net.cpp:100] Creating Layer ssd3_2_mbox_conf_perm
I1008 17:18:56.482779 21305 net.cpp:434] ssd3_2_mbox_conf_perm <- ssd3_2_mbox_conf
I1008 17:18:56.482782 21305 net.cpp:408] ssd3_2_mbox_conf_perm -> ssd3_2_mbox_conf_perm
I1008 17:18:56.482864 21305 net.cpp:150] Setting up ssd3_2_mbox_conf_perm
I1008 17:18:56.482868 21305 net.cpp:157] Top shape: 2 2 2 10 (80)
I1008 17:18:56.482870 21305 net.cpp:165] Memory required for data: 548864160
I1008 17:18:56.482872 21305 layer_factory.hpp:77] Creating layer ssd3_2_mbox_conf_flat
I1008 17:18:56.482875 21305 net.cpp:100] Creating Layer ssd3_2_mbox_conf_flat
I1008 17:18:56.482878 21305 net.cpp:434] ssd3_2_mbox_conf_flat <- ssd3_2_mbox_conf_perm
I1008 17:18:56.482882 21305 net.cpp:408] ssd3_2_mbox_conf_flat -> ssd3_2_mbox_conf_flat
I1008 17:18:56.482899 21305 net.cpp:150] Setting up ssd3_2_mbox_conf_flat
I1008 17:18:56.482903 21305 net.cpp:157] Top shape: 2 40 (80)
I1008 17:18:56.482905 21305 net.cpp:165] Memory required for data: 548864480
I1008 17:18:56.482908 21305 layer_factory.hpp:77] Creating layer ssd3_2_mbox_priorbox
I1008 17:18:56.482911 21305 net.cpp:100] Creating Layer ssd3_2_mbox_priorbox
I1008 17:18:56.482914 21305 net.cpp:434] ssd3_2_mbox_priorbox <- ssd3_2_ssd3_2_relu_0_split_3
I1008 17:18:56.482918 21305 net.cpp:434] ssd3_2_mbox_priorbox <- data_data_0_split_5
I1008 17:18:56.482921 21305 net.cpp:408] ssd3_2_mbox_priorbox -> ssd3_2_mbox_priorbox
I1008 17:18:56.482939 21305 net.cpp:150] Setting up ssd3_2_mbox_priorbox
I1008 17:18:56.482942 21305 net.cpp:157] Top shape: 1 2 32 (64)
I1008 17:18:56.482945 21305 net.cpp:165] Memory required for data: 548864736
I1008 17:18:56.482946 21305 layer_factory.hpp:77] Creating layer ssd4_2_mbox_loc
I1008 17:18:56.482954 21305 net.cpp:100] Creating Layer ssd4_2_mbox_loc
I1008 17:18:56.482955 21305 net.cpp:434] ssd4_2_mbox_loc <- ssd4_2_ssd4_2_relu_0_split_0
I1008 17:18:56.482959 21305 net.cpp:408] ssd4_2_mbox_loc -> ssd4_2_mbox_loc
I1008 17:18:56.484190 21305 net.cpp:150] Setting up ssd4_2_mbox_loc
I1008 17:18:56.484199 21305 net.cpp:157] Top shape: 2 8 1 1 (16)
I1008 17:18:56.484200 21305 net.cpp:165] Memory required for data: 548864800
I1008 17:18:56.484205 21305 layer_factory.hpp:77] Creating layer ssd4_2_mbox_loc_perm
I1008 17:18:56.484210 21305 net.cpp:100] Creating Layer ssd4_2_mbox_loc_perm
I1008 17:18:56.484220 21305 net.cpp:434] ssd4_2_mbox_loc_perm <- ssd4_2_mbox_loc
I1008 17:18:56.484225 21305 net.cpp:408] ssd4_2_mbox_loc_perm -> ssd4_2_mbox_loc_perm
I1008 17:18:56.484308 21305 net.cpp:150] Setting up ssd4_2_mbox_loc_perm
I1008 17:18:56.484311 21305 net.cpp:157] Top shape: 2 1 1 8 (16)
I1008 17:18:56.484313 21305 net.cpp:165] Memory required for data: 548864864
I1008 17:18:56.484315 21305 layer_factory.hpp:77] Creating layer ssd4_2_mbox_loc_flat
I1008 17:18:56.484319 21305 net.cpp:100] Creating Layer ssd4_2_mbox_loc_flat
I1008 17:18:56.484323 21305 net.cpp:434] ssd4_2_mbox_loc_flat <- ssd4_2_mbox_loc_perm
I1008 17:18:56.484324 21305 net.cpp:408] ssd4_2_mbox_loc_flat -> ssd4_2_mbox_loc_flat
I1008 17:18:56.484342 21305 net.cpp:150] Setting up ssd4_2_mbox_loc_flat
I1008 17:18:56.484345 21305 net.cpp:157] Top shape: 2 8 (16)
I1008 17:18:56.484347 21305 net.cpp:165] Memory required for data: 548864928
I1008 17:18:56.484349 21305 layer_factory.hpp:77] Creating layer ssd4_2_mbox_conf
I1008 17:18:56.484354 21305 net.cpp:100] Creating Layer ssd4_2_mbox_conf
I1008 17:18:56.484356 21305 net.cpp:434] ssd4_2_mbox_conf <- ssd4_2_ssd4_2_relu_0_split_1
I1008 17:18:56.484360 21305 net.cpp:408] ssd4_2_mbox_conf -> ssd4_2_mbox_conf
I1008 17:18:56.485592 21305 net.cpp:150] Setting up ssd4_2_mbox_conf
I1008 17:18:56.485599 21305 net.cpp:157] Top shape: 2 10 1 1 (20)
I1008 17:18:56.485602 21305 net.cpp:165] Memory required for data: 548865008
I1008 17:18:56.485605 21305 layer_factory.hpp:77] Creating layer ssd4_2_mbox_conf_perm
I1008 17:18:56.485610 21305 net.cpp:100] Creating Layer ssd4_2_mbox_conf_perm
I1008 17:18:56.485613 21305 net.cpp:434] ssd4_2_mbox_conf_perm <- ssd4_2_mbox_conf
I1008 17:18:56.485616 21305 net.cpp:408] ssd4_2_mbox_conf_perm -> ssd4_2_mbox_conf_perm
I1008 17:18:56.485698 21305 net.cpp:150] Setting up ssd4_2_mbox_conf_perm
I1008 17:18:56.485702 21305 net.cpp:157] Top shape: 2 1 1 10 (20)
I1008 17:18:56.485703 21305 net.cpp:165] Memory required for data: 548865088
I1008 17:18:56.485705 21305 layer_factory.hpp:77] Creating layer ssd4_2_mbox_conf_flat
I1008 17:18:56.485708 21305 net.cpp:100] Creating Layer ssd4_2_mbox_conf_flat
I1008 17:18:56.485711 21305 net.cpp:434] ssd4_2_mbox_conf_flat <- ssd4_2_mbox_conf_perm
I1008 17:18:56.485714 21305 net.cpp:408] ssd4_2_mbox_conf_flat -> ssd4_2_mbox_conf_flat
I1008 17:18:56.485733 21305 net.cpp:150] Setting up ssd4_2_mbox_conf_flat
I1008 17:18:56.485735 21305 net.cpp:157] Top shape: 2 10 (20)
I1008 17:18:56.485738 21305 net.cpp:165] Memory required for data: 548865168
I1008 17:18:56.485738 21305 layer_factory.hpp:77] Creating layer ssd4_2_mbox_priorbox
I1008 17:18:56.485743 21305 net.cpp:100] Creating Layer ssd4_2_mbox_priorbox
I1008 17:18:56.485745 21305 net.cpp:434] ssd4_2_mbox_priorbox <- ssd4_2_ssd4_2_relu_0_split_2
I1008 17:18:56.485747 21305 net.cpp:434] ssd4_2_mbox_priorbox <- data_data_0_split_6
I1008 17:18:56.485751 21305 net.cpp:408] ssd4_2_mbox_priorbox -> ssd4_2_mbox_priorbox
I1008 17:18:56.485770 21305 net.cpp:150] Setting up ssd4_2_mbox_priorbox
I1008 17:18:56.485774 21305 net.cpp:157] Top shape: 1 2 8 (16)
I1008 17:18:56.485775 21305 net.cpp:165] Memory required for data: 548865232
I1008 17:18:56.485777 21305 layer_factory.hpp:77] Creating layer mbox_loc
I1008 17:18:56.485781 21305 net.cpp:100] Creating Layer mbox_loc
I1008 17:18:56.485785 21305 net.cpp:434] mbox_loc <- conv5_5/sep_norm_mbox_loc_flat
I1008 17:18:56.485787 21305 net.cpp:434] mbox_loc <- conv6/sep_mbox_loc_flat
I1008 17:18:56.485790 21305 net.cpp:434] mbox_loc <- ssd1_2_mbox_loc_flat
I1008 17:18:56.485795 21305 net.cpp:434] mbox_loc <- ssd2_2_mbox_loc_flat
I1008 17:18:56.485795 21305 net.cpp:434] mbox_loc <- ssd3_2_mbox_loc_flat
I1008 17:18:56.485798 21305 net.cpp:434] mbox_loc <- ssd4_2_mbox_loc_flat
I1008 17:18:56.485800 21305 net.cpp:408] mbox_loc -> mbox_loc
I1008 17:18:56.485822 21305 net.cpp:150] Setting up mbox_loc
I1008 17:18:56.485826 21305 net.cpp:157] Top shape: 2 6600 (13200)
I1008 17:18:56.485827 21305 net.cpp:165] Memory required for data: 548918032
I1008 17:18:56.485836 21305 layer_factory.hpp:77] Creating layer mbox_conf
I1008 17:18:56.485838 21305 net.cpp:100] Creating Layer mbox_conf
I1008 17:18:56.485841 21305 net.cpp:434] mbox_conf <- conv5_5/sep_norm_mbox_conf_flat
I1008 17:18:56.485844 21305 net.cpp:434] mbox_conf <- conv6/sep_mbox_conf_flat
I1008 17:18:56.485847 21305 net.cpp:434] mbox_conf <- ssd1_2_mbox_conf_flat
I1008 17:18:56.485851 21305 net.cpp:434] mbox_conf <- ssd2_2_mbox_conf_flat
I1008 17:18:56.485852 21305 net.cpp:434] mbox_conf <- ssd3_2_mbox_conf_flat
I1008 17:18:56.485854 21305 net.cpp:434] mbox_conf <- ssd4_2_mbox_conf_flat
I1008 17:18:56.485858 21305 net.cpp:408] mbox_conf -> mbox_conf
I1008 17:18:56.485877 21305 net.cpp:150] Setting up mbox_conf
I1008 17:18:56.485880 21305 net.cpp:157] Top shape: 2 8250 (16500)
I1008 17:18:56.485882 21305 net.cpp:165] Memory required for data: 548984032
I1008 17:18:56.485883 21305 layer_factory.hpp:77] Creating layer mbox_priorbox
I1008 17:18:56.485886 21305 net.cpp:100] Creating Layer mbox_priorbox
I1008 17:18:56.485888 21305 net.cpp:434] mbox_priorbox <- conv5_5/sep_norm_mbox_priorbox
I1008 17:18:56.485890 21305 net.cpp:434] mbox_priorbox <- conv6/sep_mbox_priorbox
I1008 17:18:56.485893 21305 net.cpp:434] mbox_priorbox <- ssd1_2_mbox_priorbox
I1008 17:18:56.485896 21305 net.cpp:434] mbox_priorbox <- ssd2_2_mbox_priorbox
I1008 17:18:56.485898 21305 net.cpp:434] mbox_priorbox <- ssd3_2_mbox_priorbox
I1008 17:18:56.485900 21305 net.cpp:434] mbox_priorbox <- ssd4_2_mbox_priorbox
I1008 17:18:56.485903 21305 net.cpp:408] mbox_priorbox -> mbox_priorbox
I1008 17:18:56.485921 21305 net.cpp:150] Setting up mbox_priorbox
I1008 17:18:56.485925 21305 net.cpp:157] Top shape: 1 2 6600 (13200)
I1008 17:18:56.485927 21305 net.cpp:165] Memory required for data: 549036832
I1008 17:18:56.485929 21305 layer_factory.hpp:77] Creating layer mbox_loss
I1008 17:18:56.485934 21305 net.cpp:100] Creating Layer mbox_loss
I1008 17:18:56.485937 21305 net.cpp:434] mbox_loss <- mbox_loc
I1008 17:18:56.485939 21305 net.cpp:434] mbox_loss <- mbox_conf
I1008 17:18:56.485941 21305 net.cpp:434] mbox_loss <- mbox_priorbox
…
name: "MobileNet_GTSDB_SSD_510x300_100_40_6_True_1_test"
state {
  phase: TEST
}
layer {
  name: "data"
  type: "AnnotatedData"
  top: "data"
  top: "label"
  include {
    phase: TEST
  }
  transform_param {
    mean_value: 130
    mean_value: 127
    mean_value: 125
    resize_param {
      prob: 1
      resize_mode: WARP
      height: 300
      width: 510
      interp_mode: LINEAR
    }
  }
  data_param {
    source: "examples/GTSDB/GTSDB_test_lmdb"
    batch_size: 1
    backend: LMDB
  }
  annotated_data_param {
    batch_sampler {
    }
    label_map_file: "data/GTSDB/labelmap_GTSDB.prototxt"
  }
}
layer {
  name: "conv1"
  type: "Convolution"
  bottom: "data"
  top: "conv1"
  param {
    lr_mult: 1
    decay_mult: 1
  }
  convolution_param {
    num_output: 32
    bias_term: false
    pad: 1
    kernel_size: 3
    stride: 2
    weight_filler {
      type: "msra"
    }
  }
}
layer {
  name: "conv1/bn"
  type: "BatchNorm"
  bottom: "conv1"
  top: "conv1"
  batch_norm_param {
    use_global_stats: true
    eps: 1e-05
  }
}
layer {
  name: "conv1/scale"
  type: "Scale"
  bottom: "conv1"
  top: "conv1"
  param {
    lr_mult: 1
    decay_mult: 0
  }
  param {
    lr_mult: 1
    decay_mult: 0
  }
  scale_param {
    filler {
      type: "constant"
      value: 1
    }
    bias_term: true
    bias_filler {
      type: "constant"
      value: 0
    }
  }
}
layer {
  name: "relu1"
  type: "ReLU"
  bottom: "conv1"
  top: "conv1"
}
layer {
  name: "conv2_1/dw"
  type: "Convolution"
  bottom: "conv1"
  top: "conv2_1/dw"
  param {
    lr_mult: 1
    decay_mult: 1
  }
  convolution_param {
    num_output: 32
    bias_term: false
    pad: 1
    kernel_size: 3
    group: 32
    stride: 1
    weight_filler {
      type: "msra"
    }
    engine: CAFFE
  }
}
layer {
  name: "conv2_1/dw/bn"
  type: "BatchNorm"
  bottom: "conv2_1/dw"
  top: "conv2_1/dw"
  batch_norm_param {
    use_global_stats: true
    eps: 1e-05
  }
}
layer {
  name: "conv2_1/dw/scale"
  type: "Scale"
  bottom: "conv2_1/dw"
  top: "conv2_1/dw"
  param {
    lr_mult: 1
    decay_mult: 0
  }
  param {
    lr_mult: 1
    decay_mult: 0
  }
  scale_param {
    filler {
      type: "constant"
      value: 1
    }
    bias_term: true
    bias_filler {
      type: "constant"
      value: 0
    }
  }
}
layer {
  name: "relu2_1/dw"
  type: "ReLU"
  bottom: "conv2_1/dw"
  top: "conv2_1/dw"
}
layer {
  name: "conv2_1/sep"
  type: "Convolution"
  bottom: "conv2_1/dw"
  top: "conv2_1/sep"
  param {
    lr_mult: 1
    decay_mult: 1
  }
  convolution_param {
    num_output: 64
    bias_term: false
    pad: 0
    kernel_size: 1
    stride: 1
    weight_filler {
      type: "msra"
    }
  }
}
layer {
  name: "conv2_1/sep/bn"
  type: "BatchNorm"
  bottom: "conv2_1/sep"
  top: "conv2_1/sep"
  batch_norm_param {
    use_global_stats: true
    eps: 1e-05
  }
}
layer {
  name: "conv2_1/sep/scale"
  type: "Scale"
  bottom: "conv2_1/sep"
  top: "conv2_1/sep"
  param {
    lr_mult: 1
    decay_mult: 0
  }
  param {
    lr_mult: 1
    decay_mult: 0
  }
  scale_param {
    filler {
      type: "constant"
      value: 1
    }
    bias_term: true
    bias_filler {
      type: "constant"
      value: 0
    }
  }
}
layer {
  name: "relu2_1/sep"
  type: "ReLU"
  bottom: "conv2_1/sep"
  top: "conv2_1/sep"
}
layer {
  name: "conv2_2/dw"
  type: "Convolution"
  bottom: "conv2_1/sep"
  top: "conv2_2/dw"
  param {
    lr_mult: 1
    decay_mult: 1
  }
  convolution_param {
    num_output: 64
    bias_term: false
    pad: 1
    kernel_size: 3
    group: 64
    stride: 2
    weight_filler {
      type: "msra"
    }
    engine: CAFFE
  }
}
layer {
  name: "conv2_2/dw/bn"
  type: "BatchNorm"
  bottom: "conv2_2/dw"
  top: "conv2_2/dw"
  batch_norm_param {
    use_global_stats: true
    eps: 1e-05
  }
}
layer {
  name: "conv2_2/dw/scale"
  type: "Scale"
  bottom: "conv2_2/dw"
  top: "conv2_2/dw"
  param {
    lr_mult: 1
    decay_mult: 0
  }
  param {
    lr_mult: 1
    decay_mult: 0
  }
  scale_param {
    filler {
      type: "constant"
      value: 1
    }
    bias_term: true
    bias_filler {
      type: "constant"
      value: 0
    }
  }
}
layer {
  name: "relu2_2/dw"
  type: "ReLU"
  bottom: "conv2_2/dw"
  top: "conv2_2/dw"
}
layer {
  name: "conv2_2/sep"
  type: "Convolution"
  bottom: "conv2_2/dw"
  top: "conv2_2/sep"
  param {
    lr_mult: 1
    decay_mult: 1
  }
  convolution_param {
    num_output: 128
    bias_term: false
    pad: 0
    kernel_size: 1
    stride: 1
    weight_filler {
      type: "msra"
    }
  }
}
layer {
  name: "conv2_2/sep/bn"
  type: "BatchNorm"
  bottom: "conv2_2/sep"
  top: "conv2_2/sep"
  batch_norm_param {
    use_global_stats: true
    eps: 1e-05
  }
}
layer {
  name: "conv2_2/sep/scale"
  type: "Scale"
  bottom: "conv2_2/sep"
  top: "conv2_2/sep"
  param {
    lr_mult: 1
    decay_mult: 0
  }
  param {
    lr_mult: 1
    decay_mult: 0
  }
  scale_param {
    filler {
      type: "constant"
      value: 1
    }
    bias_term: true
    bias_filler {
      type: "constant"
      value: 0
    }
  }
}
layer {
  name: "relu2_2/sep"
  type: "ReLU"
  bottom: "conv2_2/sep"
  top: "conv2_2/sep"
}
layer {
  name: "conv3_1/dw"
  type: "Convolution"
  bottom: "conv2_2/sep"
  top: "conv3_1/dw"
  param {
    lr_mult: 1
    decay_mult: 1
  }
  convolution_param {
    num_output: 128
    bias_term: false
    pad: 1
    kernel_size: 3
    group: 128
    stride: 1
    weight_filler {
      type: "msra"
    }
    engine: CAFFE
  }
}
layer {
  name: "conv3_1/dw/bn"
  type: "BatchNorm"
  bottom: "conv3_1/dw"
  top: "conv3_1/dw"
  batch_norm_param {
    use_global_stats: true
    eps: 1e-05
  }
}
layer {
  name: "conv3_1/dw/scale"
  type: "Scale"
  bottom: "conv3_1/dw"
  top: "conv3_1/dw"
  param {
    lr_mult: 1
    decay_mult: 0
  }
  param {
    lr_mult: 1
    decay_mult: 0
  }
  scale_param {
    filler {
      type: "constant"
      value: 1
    }
    bias_term: true
    bias_filler {
      type: "constant"
      value: 0
    }
  }
}
layer {
  name: "relu3_1/dw"
  type: "ReLU"
  bottom: "conv3_1/dw"
  top: "conv3_1/dw"
}
layer {
  name: "conv3_1/sep"
  type: "Convolution"
  bottom: "conv3_1/dw"
  top: "conv3_1/sep"
  param {
    lr_mult: 1
    decay_mult: 1
  }
  convolution_param {
    num_output: 128
    bias_term: false
    pad: 0
    kernel_size: 1
    stride: 1
    weight_filler {
      type: "msra"
    }
  }
}
layer {
  name: "conv3_1/sep/bn"
  type: "BatchNorm"
  bottom: "conv3_1/sep"
  top: "conv3_1/sep"
  batch_norm_param {
    use_global_stats: true
    eps: 1e-05
  }
}
layer {
  name: "conv3_1/sep/scale"
  type: "Scale"
  bottom: "conv3_1/sep"
  top: "conv3_1/sep"
  param {
    lr_mult: 1
    decay_mult: 0
  }
  param {
    lr_mult: 1
    decay_mult: 0
  }
  scale_param {
    filler {
      type: "constant"
      value: 1
    }
    bias_term: true
    bias_filler {
      type: "constant"
      value: 0
    }
  }
}
layer {
  name: "relu3_1/sep"
  type: "ReLU"
  bottom: "conv3_1/sep"
  top: "conv3_1/sep"
}
layer {
  name: "conv3_2/dw"
  type: "Convolution"
  bottom: "conv3_1/sep"
  top: "conv3_2/dw"
  param {
    lr_mult: 1
    decay_mult: 1
  }
  convolution_param {
    num_output: 128
    bias_term: false
    pad: 1
    kernel_size: 3
    group: 128
    stride: 2
    weight_filler {
      type: "msra"
    }
    engine: CAFFE
  }
}
layer {
  name: "conv3_2/dw/bn"
  type: "BatchNorm"
  bottom: "conv3_2/dw"
  top: "conv3_2/dw"
  batch_norm_param {
    use_global_stats: true
    eps: 1e-05
  }
}
layer {
  name: "conv3_2/dw/scale"
  type: "Scale"
  bottom: "conv3_2/dw"
  top: "conv3_2/dw"
  param {
    lr_mult: 1
    decay_mult: 0
  }
  param {
    lr_mult: 1
    decay_mult: 0
  }
  scale_param {
    filler {
      type: "constant"
      value: 1
    }
    bias_term: true
    bias_filler {
      type: "constant"
      value: 0
    }
  }
}
layer {
  name: "relu3_2/dw"
  type: "ReLU"
  bottom: "conv3_2/dw"
  top: "conv3_2/dw"
}
layer {
  name: "conv3_2/sep"
  type: "Convolution"
  bottom: "conv3_2/dw"
  top: "conv3_2/sep"
  param {
    lr_mult: 1
    decay_mult: 1
  }
  convolution_param {
    num_output: 256
    bias_term: false
    pad: 0
    kernel_size: 1
    stride: 1
    weight_filler {
      type: "msra"
    }
  }
}
layer {
  name: "conv3_2/sep/bn"
  type: "BatchNorm"
  bottom: "conv3_2/sep"
  top: "conv3_2/sep"
  batch_norm_param {
    use_global_stats: true
    eps: 1e-05
  }
}
layer {
  name: "conv3_2/sep/scale"
  type: "Scale"
  bottom: "conv3_2/sep"
  top: "conv3_2/sep"
  param {
    lr_mult: 1
    decay_mult: 0
  }
  param {
    lr_mult: 1
    decay_mult: 0
  }
  scale_param {
    filler {
      type: "constant"
      value: 1
    }
    bias_term: true
    bias_filler {
      type: "constant"
      value: 0
    }
  }
}
layer {
  name: "relu3_2/sep"
  type: "ReLU"
  bottom: "conv3_2/sep"
  top: "conv3_2/sep"
}
layer {
  name: "conv4_1/dw"
  type: "Convolution"
  bottom: "conv3_2/sep"
  top: "conv4_1/dw"
  param {
    lr_mult: 1
    decay_mult: 1
  }
  convolution_param {
    num_output: 256
    bias_term: false
    pad: 1
    kernel_size: 3
    group: 256
    stride: 1
    weight_filler {
      type: "msra"
    }
    engine: CAFFE
  }
}
layer {
  name: "conv4_1/dw/bn"
  type: "BatchNorm"
  bottom: "conv4_1/dw"
  top: "conv4_1/dw"
  batch_norm_param {
    use_global_stats: true
    eps: 1e-05
  }
}
layer {
  name: "conv4_1/dw/scale"
  type: "Scale"
  bottom: "conv4_1/dw"
  top: "conv4_1/dw"
  param {
    lr_mult: 1
    decay_mult: 0
  }
  param {
    lr_mult: 1
    decay_mult: 0
  }
  scale_param {
    filler {
      type: "constant"
      value: 1
    }
    bias_term: true
    bias_filler {
      type: "constant"
      value: 0
    }
  }
}
layer {
  name: "relu4_1/dw"
  type: "ReLU"
  bottom: "conv4_1/dw"
  top: "conv4_1/dw"
}
layer {
  name: "conv4_1/sep"
  type: "Convolution"
  bottom: "conv4_1/dw"
  top: "conv4_1/sep"
  param {
    lr_mult: 1
    decay_mult: 1
  }
  convolution_param {
    num_output: 256
    bias_term: false
    pad: 0
    kernel_size: 1
    stride: 1
    weight_filler {
      type: "msra"
    }
  }
}
layer {
  name: "conv4_1/sep/bn"
  type: "BatchNorm"
  bottom: "conv4_1/sep"
  top: "conv4_1/sep"
  batch_norm_param {
    use_global_stats: true
    eps: 1e-05
  }
}
layer {
  name: "conv4_1/sep/scale"
  type: "Scale"
  bottom: "conv4_1/sep"
  top: "conv4_1/sep"
  param {
    lr_mult: 1
    decay_mult: 0
  }
  param {
    lr_mult: 1
    decay_mult: 0
  }
  scale_param {
    filler {
      type: "constant"
      value: 1
    }
    bias_term: true
    bias_filler {
      type: "constant"
      value: 0
    }
  }
}
layer {
  name: "relu4_1/sep"
  type: "ReLU"
  bottom: "conv4_1/sep"
  top: "conv4_1/sep"
}
layer {
  name: "conv4_2/dw"
  type: "Convolution"
  bottom: "conv4_1/sep"
  top: "conv4_2/dw"
  param {
    lr_mult: 1
    decay_mult: 1
  }
  convolution_param {
    num_output: 256
    bias_term: false
    pad: 1
    kernel_size: 3
    group: 256
    stride: 2
    weight_filler {
      type: "msra"
    }
    engine: CAFFE
  }
}
layer {
  name: "conv4_2/dw/bn"
  type: "BatchNorm"
  bottom: "conv4_2/dw"
  top: "conv4_2/dw"
  batch_norm_param {
    use_global_stats: true
    eps: 1e-05
  }
}
layer {
  name: "conv4_2/dw/scale"
  type: "Scale"
  bottom: "conv4_2/dw"
  top: "conv4_2/dw"
  param {
    lr_mult: 1
    decay_mult: 0
  }
  param {
    lr_mult: 1
    decay_mult: 0
  }
  scale_param {
    filler {
      type: "constant"
      value: 1
    }
    bias_term: true
    bias_filler {
      type: "constant"
      value: 0
    }
  }
}
layer {
  name: "relu4_2/dw"
  type: "ReLU"
  bottom: "conv4_2/dw"
  top: "conv4_2/dw"
}
layer {
  name: "conv4_2/sep"
  type: "Convolution"
  bottom: "conv4_2/dw"
  top: "conv4_2/sep"
  param {
    lr_mult: 1
    decay_mult: 1
  }
  convolution_param {
    num_output: 512
    bias_term: false
    pad: 0
    kernel_size: 1
    stride: 1
    weight_filler {
      type: "msra"
    }
  }
}
layer {
  name: "conv4_2/sep/bn"
  type: "BatchNorm"
  bottom: "conv4_2/sep"
  top: "conv4_2/sep"
  batch_norm_param {
    use_global_stats: true
    eps: 1e-05
  }
}
layer {
  name: "conv4_2/sep/scale"
  type: "Scale"
  bottom: "conv4_2/sep"
  top: "conv4_2/sep"
  param {
    lr_mult: 1
    decay_mult: 0
  }
  param {
    lr_mult: 1
    decay_mult: 0
  }
  scale_param {
    filler {
      type: "constant"
      value: 1
    }
    bias_term: true
    bias_filler {
      type: "constant"
      value: 0
    }
  }
}
layer {
  name: "relu4_2/sep"
  type: "ReLU"
  bottom: "conv4_2/sep"
  top: "conv4_2/sep"
}
layer {
  name: "conv5_1/dw"
  type: "Convolution"
  bottom: "conv4_2/sep"
  top: "conv5_1/dw"
  param {
    lr_mult: 1
    decay_mult: 1
  }
  convolution_param {
    num_output: 512
    bias_term: false
    pad: 1
    kernel_size: 3
    group: 512
    stride: 1
    weight_filler {
      type: "msra"
    }
    engine: CAFFE
  }
}
layer {
  name: "conv5_1/dw/bn"
  type: "BatchNorm"
  bottom: "conv5_1/dw"
  top: "conv5_1/dw"
  batch_norm_param {
    use_global_stats: true
    eps: 1e-05
  }
}
layer {
  name: "conv5_1/dw/scale"
  type: "Scale"
  bottom: "conv5_1/dw"
  top: "conv5_1/dw"
  param {
    lr_mult: 1
    decay_mult: 0
  }
  param {
    lr_mult: 1
    decay_mult: 0
  }
  scale_param {
    filler {
      type: "constant"
      value: 1
    }
    bias_term: true
    bias_filler {
      type: "constant"
      value: 0
    }
  }
}
layer {
  name: "relu5_1/dw"
  type: "ReLU"
  bottom: "conv5_1/dw"
  top: "conv5_1/dw"
}
layer {
  name: "conv5_1/sep"
  type: "Convolution"
  bottom: "conv5_1/dw"
  top: "conv5_1/sep"
  param {
    lr_mult: 1
    decay_mult: 1
  }
  convolution_param {
    num_output: 512
    bias_term: false
    pad: 0
    kernel_size: 1
    stride: 1
    weight_filler {
      type: "msra"
    }
  }
}
layer {
  name: "conv5_1/sep/bn"
  type: "BatchNorm"
  bottom: "conv5_1/sep"
  top: "conv5_1/sep"
  batch_norm_param {
    use_global_stats: true
    eps: 1e-05
  }
}
layer {
  name: "conv5_1/sep/scale"
  type: "Scale"
  bottom: "conv5_1/sep"
  top: "conv5_1/sep"
  param {
    lr_mult: 1
    decay_mult: 0
  }
  param {
    lr_mult: 1
    decay_mult: 0
  }
  scale_param {
    filler {
      type: "constant"
      value: 1
    }
    bias_term: true
    bias_filler {
      type: "constant"
      value: 0
    }
  }
}
layer {
  name: "relu5_1/sep"
  type: "ReLU"
  bottom: "conv5_1/sep"
  top: "conv5_1/sep"
}
layer {
  name: "conv5_2/dw"
  type: "Convolution"
  bottom: "conv5_1/sep"
  top: "conv5_2/dw"
  param {
    lr_mult: 1
    decay_mult: 1
  }
  convolution_param {
    num_output: 512
    bias_term: false
    pad: 1
    kernel_size: 3
    group: 512
    stride: 1
    weight_filler {
      type: "msra"
    }
    engine: CAFFE
  }
}
layer {
  name: "conv5_2/dw/bn"
  type: "BatchNorm"
  bottom: "conv5_2/dw"
  top: "conv5_2/dw"
  batch_norm_param {
    use_global_stats: true
    eps: 1e-05
  }
}
layer {
  name: "conv5_2/dw/scale"
  type: "Scale"
  bottom: "conv5_2/dw"
  top: "conv5_2/dw"
  param {
    lr_mult: 1
    decay_mult: 0
  }
  param {
    lr_mult: 1
    decay_mult: 0
  }
  scale_param {
    filler {
      type: "constant"
      value: 1
    }
    bias_term: true
    bias_filler {
      type: "constant"
      value: 0
    }
  }
}
layer {
  name: "relu5_2/dw"
  type: "ReLU"
  bottom: "conv5_2/dw"
  top: "conv5_2/dw"
}
layer {
  name: "conv5_2/sep"
  type: "Convolution"
  bottom: "conv5_2/dw"
  top: "conv5_2/sep"
  param {
    lr_mult: 1
    decay_mult: 1
  }
  convolution_param {
    num_output: 512
    bias_term: false
    pad: 0
    kernel_size: 1
    stride: 1
    weight_filler {
      type: "msra"
    }
  }
}
layer {
  name: "conv5_2/sep/bn"
  type: "BatchNorm"
  bottom: "conv5_2/sep"
  top: "conv5_2/sep"
  batch_norm_param {
    use_global_stats: true
    eps: 1e-05
  }
}
layer {
  name: "conv5_2/sep/scale"
  type: "Scale"
  bottom: "conv5_2/sep"
  top: "conv5_2/sep"
  param {
    lr_mult: 1
    decay_mult: 0
  }
  param {
    lr_mult: 1
    decay_mult: 0
  }
  scale_param {
    filler {
      type: "constant"
      value: 1
    }
    bias_term: true
    bias_filler {
      type: "constant"
      value: 0
    }
  }
}
layer {
  name: "relu5_2/sep"
  type: "ReLU"
  bottom: "conv5_2/sep"
  top: "conv5_2/sep"
}
layer {
  name: "conv5_3/dw"
  type: "Convolution"
  bottom: "conv5_2/sep"
  top: "conv5_3/dw"
  param {
    lr_mult: 1
    decay_mult: 1
  }
  convolution_param {
    num_output: 512
    bias_term: false
    pad: 1
    kernel_size: 3
    group: 512
    stride: 1
    weight_filler {
      type: "msra"
    }
    engine: CAFFE
  }
}
layer {
  name: "conv5_3/dw/bn"
  type: "BatchNorm"
  bottom: "conv5_3/dw"
  top: "conv5_3/dw"
  batch_norm_param {
    use_global_stats: true
    eps: 1e-05
  }
}
layer {
  name: "conv5_3/dw/scale"
  type: "Scale"
  bottom: "conv5_3/dw"
  top: "conv5_3/dw"
  param {
    lr_mult: 1
    decay_mult: 0
  }
  param {
    lr_mult: 1
    decay_mult: 0
  }
  scale_param {
    filler {
      type: "constant"
      value: 1
    }
    bias_term: true
    bias_filler {
      type: "constant"
      value: 0
    }
  }
}
layer {
  name: "relu5_3/dw"
  type: "ReLU"
  bottom: "conv5_3/dw"
  top: "conv5_3/dw"
}
layer {
  name: "conv5_3/sep"
  type: "Convolution"
  bottom: "conv5_3/dw"
  top: "conv5_3/sep"
  param {
    lr_mult: 1
    decay_mult: 1
  }
  convolution_param {
    num_output: 512
    bias_term: false
    pad: 0
    kernel_size: 1
    stride: 1
    weight_filler {
      type: "msra"
    }
  }
}
layer {
  name: "conv5_3/sep/bn"
  type: "BatchNorm"
  bottom: "conv5_3/sep"
  top: "conv5_3/sep"
  batch_norm_param {
    use_global_stats: true
    eps: 1e-05
  }
}
layer {
  name: "conv5_3/sep/scale"
  type: "Scale"
  bottom: "conv5_3/sep"
  top: "conv5_3/sep"
  param {
    lr_mult: 1
    decay_mult: 0
  }
  param {
    lr_mult: 1
    decay_mult: 0
  }
  scale_param {
    filler {
      type: "constant"
      value: 1
    }
    bias_term: true
    bias_filler {
      type: "constant"
      value: 0
    }
  }
}
layer {
  name: "relu5_3/sep"
  type: "ReLU"
  bottom: "conv5_3/sep"
  top: "conv5_3/sep"
}
layer {
  name: "conv5_4/dw"
  type: "Convolution"
  bottom: "conv5_3/sep"
  top: "conv5_4/dw"
  param {
    lr_mult: 1
    decay_mult: 1
  }
  convolution_param {
    num_output: 512
    bias_term: false
    pad: 1
    kernel_size: 3
    group: 512
    stride: 1
    weight_filler {
      type: "msra"
    }
    engine: CAFFE
  }
}
layer {
  name: "conv5_4/dw/bn"
  type: "BatchNorm"
  bottom: "conv5_4/dw"
  top: "conv5_4/dw"
  batch_norm_param {
    use_global_stats: true
    eps: 1e-05
  }
}
layer {
  name: "conv5_4/dw/scale"
  type: "Scale"
  bottom: "conv5_4/dw"
  top: "conv5_4/dw"
  param {
    lr_mult: 1
    decay_mult: 0
  }
  param {
    lr_mult: 1
    decay_mult: 0
  }
  scale_param {
    filler {
      type: "constant"
      value: 1
    }
    bias_term: true
    bias_filler {
      type: "constant"
      value: 0
    }
  }
}
layer {
  name: "relu5_4/dw"
  type: "ReLU"
  bottom: "conv5_4/dw"
  top: "conv5_4/dw"
}
layer {
  name: "conv5_4/sep"
  type: "Convolution"
  bottom: "conv5_4/dw"
  top: "conv5_4/sep"
  param {
    lr_mult: 1
    decay_mult: 1
  }
  convolution_param {
    num_output: 512
    bias_term: false
    pad: 0
    kernel_size: 1
    stride: 1
    weight_filler {
      type: "msra"
    }
  }
}
layer {
  name: "conv5_4/sep/bn"
  type: "BatchNorm"
  bottom: "conv5_4/sep"
  top: "conv5_4/sep"
  batch_norm_param {
    use_global_stats: true
    eps: 1e-05
  }
}
layer {
  name: "conv5_4/sep/scale"
  type: "Scale"
  bottom: "conv5_4/sep"
  top: "conv5_4/sep"
  param {
    lr_mult: 1
    decay_mult: 0
  }
  param {
    lr_mult: 1
    decay_mult: 0
  }
  scale_param {
    filler {
      type: "constant"
      value: 1
    }
    bias_term: true
    bias_filler {
      type: "constant"
      value: 0
    }
  }
}
layer {
  name: "relu5_4/sep"
  type: "ReLU"
  bottom: "conv5_4/sep"
  top: "conv5_4/sep"
}
layer {
  name: "conv5_5/dw"
  type: "Convolution"
  bottom: "conv5_4/sep"
  top: "conv5_5/dw"
  param {
    lr_mult: 1
    decay_mult: 1
  }
  convolution_param {
    num_output: 512
    bias_term: false
    pad: 1
    kernel_size: 3
    group: 512
    stride: 1
    weight_filler {
      type: "msra"
    }
    engine: CAFFE
  }
}
layer {
  name: "conv5_5/dw/bn"
  type: "BatchNorm"
  bottom: "conv5_5/dw"
  top: "conv5_5/dw"
…
I1008 17:18:56.555004 21305 layer_factory.hpp:77] Creating layer conv5_6/sep/scale
I1008 17:18:56.555009 21305 net.cpp:100] Creating Layer conv5_6/sep/scale
I1008 17:18:56.555011 21305 net.cpp:434] conv5_6/sep/scale <- conv5_6/sep
I1008 17:18:56.555014 21305 net.cpp:395] conv5_6/sep/scale -> conv5_6/sep (in-place)
I1008 17:18:56.555050 21305 layer_factory.hpp:77] Creating layer conv5_6/sep/scale
I1008 17:18:56.555156 21305 net.cpp:150] Setting up conv5_6/sep/scale
I1008 17:18:56.555160 21305 net.cpp:157] Top shape: 1 1024 10 16 (163840)
I1008 17:18:56.555162 21305 net.cpp:165] Memory required for data: 259747616
I1008 17:18:56.555166 21305 layer_factory.hpp:77] Creating layer relu5_6/sep
I1008 17:18:56.555168 21305 net.cpp:100] Creating Layer relu5_6/sep
I1008 17:18:56.555181 21305 net.cpp:434] relu5_6/sep <- conv5_6/sep
I1008 17:18:56.555184 21305 net.cpp:395] relu5_6/sep -> conv5_6/sep (in-place)
I1008 17:18:56.555495 21305 net.cpp:150] Setting up relu5_6/sep
I1008 17:18:56.555500 21305 net.cpp:157] Top shape: 1 1024 10 16 (163840)
I1008 17:18:56.555501 21305 net.cpp:165] Memory required for data: 260402976
I1008 17:18:56.555503 21305 layer_factory.hpp:77] Creating layer conv6/dw
I1008 17:18:56.555510 21305 net.cpp:100] Creating Layer conv6/dw
I1008 17:18:56.555511 21305 net.cpp:434] conv6/dw <- conv5_6/sep
I1008 17:18:56.555516 21305 net.cpp:408] conv6/dw -> conv6/dw
I1008 17:18:56.555755 21305 net.cpp:150] Setting up conv6/dw
I1008 17:18:56.555759 21305 net.cpp:157] Top shape: 1 1024 10 16 (163840)
I1008 17:18:56.555761 21305 net.cpp:165] Memory required for data: 261058336
I1008 17:18:56.555764 21305 layer_factory.hpp:77] Creating layer conv6/dw/bn
I1008 17:18:56.555768 21305 net.cpp:100] Creating Layer conv6/dw/bn
I1008 17:18:56.555769 21305 net.cpp:434] conv6/dw/bn <- conv6/dw
I1008 17:18:56.555773 21305 net.cpp:395] conv6/dw/bn -> conv6/dw (in-place)
I1008 17:18:56.555943 21305 net.cpp:150] Setting up conv6/dw/bn
I1008 17:18:56.555946 21305 net.cpp:157] Top shape: 1 1024 10 16 (163840)
I1008 17:18:56.555948 21305 net.cpp:165] Memory required for data: 261713696
I1008 17:18:56.555951 21305 layer_factory.hpp:77] Creating layer conv6/dw/scale
I1008 17:18:56.555955 21305 net.cpp:100] Creating Layer conv6/dw/scale
I1008 17:18:56.555958 21305 net.cpp:434] conv6/dw/scale <- conv6/dw
I1008 17:18:56.555960 21305 net.cpp:395] conv6/dw/scale -> conv6/dw (in-place)
I1008 17:18:56.555994 21305 layer_factory.hpp:77] Creating layer conv6/dw/scale
I1008 17:18:56.556097 21305 net.cpp:150] Setting up conv6/dw/scale
I1008 17:18:56.556102 21305 net.cpp:157] Top shape: 1 1024 10 16 (163840)
I1008 17:18:56.556102 21305 net.cpp:165] Memory required for data: 262369056
I1008 17:18:56.556107 21305 layer_factory.hpp:77] Creating layer relu6/dw
I1008 17:18:56.556108 21305 net.cpp:100] Creating Layer relu6/dw
I1008 17:18:56.556110 21305 net.cpp:434] relu6/dw <- conv6/dw
I1008 17:18:56.556124 21305 net.cpp:395] relu6/dw -> conv6/dw (in-place)
I1008 17:18:56.556444 21305 net.cpp:150] Setting up relu6/dw
I1008 17:18:56.556452 21305 net.cpp:157] Top shape: 1 1024 10 16 (163840)
I1008 17:18:56.556454 21305 net.cpp:165] Memory required for data: 263024416
I1008 17:18:56.556457 21305 layer_factory.hpp:77] Creating layer conv6/sep
I1008 17:18:56.556466 21305 net.cpp:100] Creating Layer conv6/sep
I1008 17:18:56.556469 21305 net.cpp:434] conv6/sep <- conv6/dw
I1008 17:18:56.556473 21305 net.cpp:408] conv6/sep -> conv6/sep
I1008 17:18:56.564910 21305 net.cpp:150] Setting up conv6/sep
I1008 17:18:56.564925 21305 net.cpp:157] Top shape: 1 1024 10 16 (163840)
I1008 17:18:56.564927 21305 net.cpp:165] Memory required for data: 263679776
I1008 17:18:56.564932 21305 layer_factory.hpp:77] Creating layer conv6/sep/bn
I1008 17:18:56.564939 21305 net.cpp:100] Creating Layer conv6/sep/bn
I1008 17:18:56.564942 21305 net.cpp:434] conv6/sep/bn <- conv6/sep
I1008 17:18:56.564946 21305 net.cpp:395] conv6/sep/bn -> conv6/sep (in-place)
I1008 17:18:56.565143 21305 net.cpp:150] Setting up conv6/sep/bn
I1008 17:18:56.565148 21305 net.cpp:157] Top shape: 1 1024 10 16 (163840)
I1008 17:18:56.565150 21305 net.cpp:165] Memory required for data: 264335136
I1008 17:18:56.565155 21305 layer_factory.hpp:77] Creating layer conv6/sep/scale
I1008 17:18:56.565160 21305 net.cpp:100] Creating Layer conv6/sep/scale
I1008 17:18:56.565162 21305 net.cpp:434] conv6/sep/scale <- conv6/sep
I1008 17:18:56.565165 21305 net.cpp:395] conv6/sep/scale -> conv6/sep (in-place)
I1008 17:18:56.565201 21305 layer_factory.hpp:77] Creating layer conv6/sep/scale
I1008 17:18:56.565305 21305 net.cpp:150] Setting up conv6/sep/scale
I1008 17:18:56.565309 21305 net.cpp:157] Top shape: 1 1024 10 16 (163840)
I1008 17:18:56.565310 21305 net.cpp:165] Memory required for data: 264990496
I1008 17:18:56.565315 21305 layer_factory.hpp:77] Creating layer relu6/sep
I1008 17:18:56.565317 21305 net.cpp:100] Creating Layer relu6/sep
I1008 17:18:56.565320 21305 net.cpp:434] relu6/sep <- conv6/sep
I1008 17:18:56.565322 21305 net.cpp:395] relu6/sep -> conv6/sep (in-place)
I1008 17:18:56.565625 21305 net.cpp:150] Setting up relu6/sep
I1008 17:18:56.565630 21305 net.cpp:157] Top shape: 1 1024 10 16 (163840)
I1008 17:18:56.565631 21305 net.cpp:165] Memory required for data: 265645856
I1008 17:18:56.565634 21305 layer_factory.hpp:77] Creating layer conv6/sep_relu6/sep_0_split
I1008 17:18:56.565637 21305 net.cpp:100] Creating Layer conv6/sep_relu6/sep_0_split
I1008 17:18:56.565639 21305 net.cpp:434] conv6/sep_relu6/sep_0_split <- conv6/sep
I1008 17:18:56.565644 21305 net.cpp:408] conv6/sep_relu6/sep_0_split -> conv6/sep_relu6/sep_0_split_0
I1008 17:18:56.565647 21305 net.cpp:408] conv6/sep_relu6/sep_0_split -> conv6/sep_relu6/sep_0_split_1
I1008 17:18:56.565651 21305 net.cpp:408] conv6/sep_relu6/sep_0_split -> conv6/sep_relu6/sep_0_split_2
I1008 17:18:56.565655 21305 net.cpp:408] conv6/sep_relu6/sep_0_split -> conv6/sep_relu6/sep_0_split_3
I1008 17:18:56.565712 21305 net.cpp:150] Setting up conv6/sep_relu6/sep_0_split
I1008 17:18:56.565716 21305 net.cpp:157] Top shape: 1 1024 10 16 (163840)
I1008 17:18:56.565718 21305 net.cpp:157] Top shape: 1 1024 10 16 (163840)
I1008 17:18:56.565721 21305 net.cpp:157] Top shape: 1 1024 10 16 (163840)
I1008 17:18:56.565722 21305 net.cpp:157] Top shape: 1 1024 10 16 (163840)
I1008 17:18:56.565724 21305 net.cpp:165] Memory required for data: 268267296
I1008 17:18:56.565726 21305 layer_factory.hpp:77] Creating layer ssd1_1
I1008 17:18:56.565732 21305 net.cpp:100] Creating Layer ssd1_1
I1008 17:18:56.565734 21305 net.cpp:434] ssd1_1 <- conv6/sep_relu6/sep_0_split_0
I1008 17:18:56.565738 21305 net.cpp:408] ssd1_1 -> ssd1_1
I1008 17:18:56.568392 21305 net.cpp:150] Setting up ssd1_1
I1008 17:18:56.568403 21305 net.cpp:157] Top shape: 1 256 10 16 (40960)
I1008 17:18:56.568405 21305 net.cpp:165] Memory required for data: 268431136
I1008 17:18:56.568413 21305 layer_factory.hpp:77] Creating layer ssd1_1_relu
I1008 17:18:56.568418 21305 net.cpp:100] Creating Layer ssd1_1_relu
I1008 17:18:56.568436 21305 net.cpp:434] ssd1_1_relu <- ssd1_1
I1008 17:18:56.568441 21305 net.cpp:395] ssd1_1_relu -> ssd1_1 (in-place)
I1008 17:18:56.568876 21305 net.cpp:150] Setting up ssd1_1_relu
I1008 17:18:56.568883 21305 net.cpp:157] Top shape: 1 256 10 16 (40960)
I1008 17:18:56.568886 21305 net.cpp:165] Memory required for data: 268594976
I1008 17:18:56.568887 21305 layer_factory.hpp:77] Creating layer ssd1_2
I1008 17:18:56.568893 21305 net.cpp:100] Creating Layer ssd1_2
I1008 17:18:56.568895 21305 net.cpp:434] ssd1_2 <- ssd1_1
I1008 17:18:56.568899 21305 net.cpp:408] ssd1_2 -> ssd1_2
I1008 17:18:56.575695 21305 net.cpp:150] Setting up ssd1_2
I1008 17:18:56.575711 21305 net.cpp:157] Top shape: 1 512 5 8 (20480)
I1008 17:18:56.575713 21305 net.cpp:165] Memory required for data: 268676896
I1008 17:18:56.575719 21305 layer_factory.hpp:77] Creating layer ssd1_2_relu
I1008 17:18:56.575724 21305 net.cpp:100] Creating Layer ssd1_2_relu
I1008 17:18:56.575727 21305 net.cpp:434] ssd1_2_relu <- ssd1_2
I1008 17:18:56.575731 21305 net.cpp:395] ssd1_2_relu -> ssd1_2 (in-place)
I1008 17:18:56.576035 21305 net.cpp:150] Setting up ssd1_2_relu
I1008 17:18:56.576040 21305 net.cpp:157] Top shape: 1 512 5 8 (20480)
I1008 17:18:56.576042 21305 net.cpp:165] Memory required for data: 268758816
I1008 17:18:56.576045 21305 layer_factory.hpp:77] Creating layer ssd1_2_ssd1_2_relu_0_split
I1008 17:18:56.576047 21305 net.cpp:100] Creating Layer ssd1_2_ssd1_2_relu_0_split
I1008 17:18:56.576050 21305 net.cpp:434] ssd1_2_ssd1_2_relu_0_split <- ssd1_2
I1008 17:18:56.576053 21305 net.cpp:408] ssd1_2_ssd1_2_relu_0_split -> ssd1_2_ssd1_2_relu_0_split_0
I1008 17:18:56.576057 21305 net.cpp:408] ssd1_2_ssd1_2_relu_0_split -> ssd1_2_ssd1_2_relu_0_split_1
I1008 17:18:56.576061 21305 net.cpp:408] ssd1_2_ssd1_2_relu_0_split -> ssd1_2_ssd1_2_relu_0_split_2
I1008 17:18:56.576064 21305 net.cpp:408] ssd1_2_ssd1_2_relu_0_split -> ssd1_2_ssd1_2_relu_0_split_3
I1008 17:18:56.576124 21305 net.cpp:150] Setting up ssd1_2_ssd1_2_relu_0_split
I1008 17:18:56.576128 21305 net.cpp:157] Top shape: 1 512 5 8 (20480)
I1008 17:18:56.576130 21305 net.cpp:157] Top shape: 1 512 5 8 (20480)
I1008 17:18:56.576133 21305 net.cpp:157] Top shape: 1 512 5 8 (20480)
I1008 17:18:56.576134 21305 net.cpp:157] Top shape: 1 512 5 8 (20480)
I1008 17:18:56.576136 21305 net.cpp:165] Memory required for data: 269086496
I1008 17:18:56.576138 21305 layer_factory.hpp:77] Creating layer ssd2_1
I1008 17:18:56.576144 21305 net.cpp:100] Creating Layer ssd2_1
I1008 17:18:56.576148 21305 net.cpp:434] ssd2_1 <- ssd1_2_ssd1_2_relu_0_split_0
I1008 17:18:56.576150 21305 net.cpp:408] ssd2_1 -> ssd2_1
I1008 17:18:56.577620 21305 net.cpp:150] Setting up ssd2_1
I1008 17:18:56.577626 21305 net.cpp:157] Top shape: 1 128 5 8 (5120)
I1008 17:18:56.577628 21305 net.cpp:165] Memory required for data: 269106976
I1008 17:18:56.577632 21305 layer_factory.hpp:77] Creating layer ssd2_1_relu
I1008 17:18:56.577636 21305 net.cpp:100] Creating Layer ssd2_1_relu
I1008 17:18:56.577638 21305 net.cpp:434] ssd2_1_relu <- ssd2_1
I1008 17:18:56.577641 21305 net.cpp:395] ssd2_1_relu -> ssd2_1 (in-place)
I1008 17:18:56.578047 21305 net.cpp:150] Setting up ssd2_1_relu
I1008 17:18:56.578054 21305 net.cpp:157] Top shape: 1 128 5 8 (5120)
I1008 17:18:56.578055 21305 net.cpp:165] Memory required for data: 269127456
I1008 17:18:56.578058 21305 layer_factory.hpp:77] Creating layer ssd2_2
I1008 17:18:56.578063 21305 net.cpp:100] Creating Layer ssd2_2
I1008 17:18:56.578065 21305 net.cpp:434] ssd2_2 <- ssd2_1
I1008 17:18:56.578069 21305 net.cpp:408] ssd2_2 -> ssd2_2
I1008 17:18:56.581717 21305 net.cpp:150] Setting up ssd2_2
I1008 17:18:56.581730 21305 net.cpp:157] Top shape: 1 256 3 4 (3072)
I1008 17:18:56.581732 21305 net.cpp:165] Memory required for data: 269139744
I1008 17:18:56.581737 21305 layer_factory.hpp:77] Creating layer ssd2_2_relu
I1008 17:18:56.581744 21305 net.cpp:100] Creating Layer ssd2_2_relu
I1008 17:18:56.581746 21305 net.cpp:434] ssd2_2_relu <- ssd2_2
I1008 17:18:56.581750 21305 net.cpp:395] ssd2_2_relu -> ssd2_2 (in-place)
I1008 17:18:56.582077 21305 net.cpp:150] Setting up ssd2_2_relu
I1008 17:18:56.582083 21305 net.cpp:157] Top shape: 1 256 3 4 (3072)
I1008 17:18:56.582085 21305 net.cpp:165] Memory required for data: 269152032
I1008 17:18:56.582087 21305 layer_factory.hpp:77] Creating layer ssd2_2_ssd2_2_relu_0_split
I1008 17:18:56.582092 21305 net.cpp:100] Creating Layer ssd2_2_ssd2_2_relu_0_split
I1008 17:18:56.582094 21305 net.cpp:434] ssd2_2_ssd2_2_relu_0_split <- ssd2_2
I1008 17:18:56.582098 21305 net.cpp:408] ssd2_2_ssd2_2_relu_0_split -> ssd2_2_ssd2_2_relu_0_split_0
I1008 17:18:56.582101 21305 net.cpp:408] ssd2_2_ssd2_2_relu_0_split -> ssd2_2_ssd2_2_relu_0_split_1
I1008 17:18:56.582104 21305 net.cpp:408] ssd2_2_ssd2_2_relu_0_split -> ssd2_2_ssd2_2_relu_0_split_2
I1008 17:18:56.582109 21305 net.cpp:408] ssd2_2_ssd2_2_relu_0_split -> ssd2_2_ssd2_2_relu_0_split_3
I1008 17:18:56.582170 21305 net.cpp:150] Setting up ssd2_2_ssd2_2_relu_0_split
I1008 17:18:56.582173 21305 net.cpp:157] Top shape: 1 256 3 4 (3072)
I1008 17:18:56.582175 21305 net.cpp:157] Top shape: 1 256 3 4 (3072)
I1008 17:18:56.582178 21305 net.cpp:157] Top shape: 1 256 3 4 (3072)
I1008 17:18:56.582180 21305 net.cpp:157] Top shape: 1 256 3 4 (3072)
I1008 17:18:56.582181 21305 net.cpp:165] Memory required for data: 269201184
I1008 17:18:56.582183 21305 layer_factory.hpp:77] Creating layer ssd3_1
I1008 17:18:56.582190 21305 net.cpp:100] Creating Layer ssd3_1
I1008 17:18:56.582191 21305 net.cpp:434] ssd3_1 <- ssd2_2_ssd2_2_relu_0_split_0
I1008 17:18:56.582195 21305 net.cpp:408] ssd3_1 -> ssd3_1
I1008 17:18:56.583904 21305 net.cpp:150] Setting up ssd3_1
I1008 17:18:56.583912 21305 net.cpp:157] Top shape: 1 128 3 4 (1536)
I1008 17:18:56.583915 21305 net.cpp:165] Memory required for data: 269207328
I1008 17:18:56.583920 21305 layer_factory.hpp:77] Creating layer ssd3_1_relu
I1008 17:18:56.583923 21305 net.cpp:100] Creating Layer ssd3_1_relu
I1008 17:18:56.583926 21305 net.cpp:434] ssd3_1_relu <- ssd3_1
I1008 17:18:56.583930 21305 net.cpp:395] ssd3_1_relu -> ssd3_1 (in-place)
I1008 17:18:56.584239 21305 net.cpp:150] Setting up ssd3_1_relu
I1008 17:18:56.584244 21305 net.cpp:157] Top shape: 1 128 3 4 (1536)
I1008 17:18:56.584245 21305 net.cpp:165] Memory required for data: 269213472
I1008 17:18:56.584247 21305 layer_factory.hpp:77] Creating layer ssd3_2
I1008 17:18:56.584254 21305 net.cpp:100] Creating Layer ssd3_2
I1008 17:18:56.584255 21305 net.cpp:434] ssd3_2 <- ssd3_1
I1008 17:18:56.584259 21305 net.cpp:408] ssd3_2 -> ssd3_2
I1008 17:18:56.586992 21305 net.cpp:150] Setting up ssd3_2
I1008 17:18:56.587002 21305 net.cpp:157] Top shape: 1 256 2 2 (1024)
I1008 17:18:56.587005 21305 net.cpp:165] Memory required for data: 269217568
I1008 17:18:56.587010 21305 layer_factory.hpp:77] Creating layer ssd3_2_relu
I1008 17:18:56.587015 21305 net.cpp:100] Creating Layer ssd3_2_relu
I1008 17:18:56.587018 21305 net.cpp:434] ssd3_2_relu <- ssd3_2
I1008 17:18:56.587021 21305 net.cpp:395] ssd3_2_relu -> ssd3_2 (in-place)
I1008 17:18:56.587502 21305 net.cpp:150] Setting up ssd3_2_relu
I1008 17:18:56.587512 21305 net.cpp:157] Top shape: 1 256 2 2 (1024)
I1008 17:18:56.587513 21305 net.cpp:165] Memory required for data: 269221664
I1008 17:18:56.587515 21305 layer_factory.hpp:77] Creating layer ssd3_2_ssd3_2_relu_0_split
I1008 17:18:56.587522 21305 net.cpp:100] Creating Layer ssd3_2_ssd3_2_relu_0_split
I1008 17:18:56.587523 21305 net.cpp:434] ssd3_2_ssd3_2_relu_0_split <- ssd3_2
I1008 17:18:56.587527 21305 net.cpp:408] ssd3_2_ssd3_2_relu_0_split -> ssd3_2_ssd3_2_relu_0_split_0
I1008 17:18:56.587532 21305 net.cpp:408] ssd3_2_ssd3_2_relu_0_split -> ssd3_2_ssd3_2_relu_0_split_1
I1008 17:18:56.587535 21305 net.cpp:408] ssd3_2_ssd3_2_relu_0_split -> ssd3_2_ssd3_2_relu_0_split_2
I1008 17:18:56.587539 21305 net.cpp:408] ssd3_2_ssd3_2_relu_0_split -> ssd3_2_ssd3_2_relu_0_split_3
I1008 17:18:56.587602 21305 net.cpp:150] Setting up ssd3_2_ssd3_2_relu_0_split
I1008 17:18:56.587606 21305 net.cpp:157] Top shape: 1 256 2 2 (1024)
I1008 17:18:56.587610 21305 net.cpp:157] Top shape: 1 256 2 2 (1024)
I1008 17:18:56.587622 21305 net.cpp:157] Top shape: 1 256 2 2 (1024)
I1008 17:18:56.587625 21305 net.cpp:157] Top shape: 1 256 2 2 (1024)
I1008 17:18:56.587627 21305 net.cpp:165] Memory required for data: 269238048
I1008 17:18:56.587630 21305 layer_factory.hpp:77] Creating layer ssd4_1
I1008 17:18:56.587637 21305 net.cpp:100] Creating Layer ssd4_1
I1008 17:18:56.587641 21305 net.cpp:434] ssd4_1 <- ssd3_2_ssd3_2_relu_0_split_0
I1008 17:18:56.587646 21305 net.cpp:408] ssd4_1 -> ssd4_1
I1008 17:18:56.590412 21305 net.cpp:150] Setting up ssd4_1
I1008 17:18:56.590433 21305 net.cpp:157] Top shape: 1 128 2 2 (512)
I1008 17:18:56.590435 21305 net.cpp:165] Memory required for data: 269240096
I1008 17:18:56.590443 21305 layer_factory.hpp:77] Creating layer ssd4_1_relu
I1008 17:18:56.590462 21305 net.cpp:100] Creating Layer ssd4_1_relu
I1008 17:18:56.590466 21305 net.cpp:434] ssd4_1_relu <- ssd4_1
I1008 17:18:56.590471 21305 net.cpp:395] ssd4_1_relu -> ssd4_1 (in-place)
I1008 17:18:56.590792 21305 net.cpp:150] Setting up ssd4_1_relu
I1008 17:18:56.590798 21305 net.cpp:157] Top shape: 1 128 2 2 (512)
I1008 17:18:56.590801 21305 net.cpp:165] Memory required for data: 269242144
I1008 17:18:56.590803 21305 layer_factory.hpp:77] Creating layer ssd4_2
I1008 17:18:56.590812 21305 net.cpp:100] Creating Layer ssd4_2
I1008 17:18:56.590816 21305 net.cpp:434] ssd4_2 <- ssd4_1
I1008 17:18:56.590819 21305 net.cpp:408] ssd4_2 -> ssd4_2
I1008 17:18:56.593628 21305 net.cpp:150] Setting up ssd4_2
I1008 17:18:56.593638 21305 net.cpp:157] Top shape: 1 256 1 1 (256)
I1008 17:18:56.593641 21305 net.cpp:165] Memory required for data: 269243168
I1008 17:18:56.593648 21305 layer_factory.hpp:77] Creating layer ssd4_2_relu
I1008 17:18:56.593654 21305 net.cpp:100] Creating Layer ssd4_2_relu
I1008 17:18:56.593658 21305 net.cpp:434] ssd4_2_relu <- ssd4_2
I1008 17:18:56.593663 21305 net.cpp:395] ssd4_2_relu -> ssd4_2 (in-place)
I1008 17:18:56.594081 21305 net.cpp:150] Setting up ssd4_2_relu
I1008 17:18:56.594087 21305 net.cpp:157] Top shape: 1 256 1 1 (256)
I1008 17:18:56.594089 21305 net.cpp:165] Memory required for data: 269244192
I1008 17:18:56.594092 21305 layer_factory.hpp:77] Creating layer ssd4_2_ssd4_2_relu_0_split
I1008 17:18:56.594096 21305 net.cpp:100] Creating Layer ssd4_2_ssd4_2_relu_0_split
I1008 17:18:56.594099 21305 net.cpp:434] ssd4_2_ssd4_2_relu_0_split <- ssd4_2
I1008 17:18:56.594102 21305 net.cpp:408] ssd4_2_ssd4_2_relu_0_split -> ssd4_2_ssd4_2_relu_0_split_0
I1008 17:18:56.594107 21305 net.cpp:408] ssd4_2_ssd4_2_relu_0_split -> ssd4_2_ssd4_2_relu_0_split_1
I1008 17:18:56.594112 21305 net.cpp:408] ssd4_2_ssd4_2_relu_0_split -> ssd4_2_ssd4_2_relu_0_split_2
I1008 17:18:56.594172 21305 net.cpp:150] Setting up ssd4_2_ssd4_2_relu_0_split
I1008 17:18:56.594177 21305 net.cpp:157] Top shape: 1 256 1 1 (256)
I1008 17:18:56.594182 21305 net.cpp:157] Top shape: 1 256 1 1 (256)
I1008 17:18:56.594185 21305 net.cpp:157] Top shape: 1 256 1 1 (256)
I1008 17:18:56.594188 21305 net.cpp:165] Memory required for data: 269247264
I1008 17:18:56.594190 21305 layer_factory.hpp:77] Creating layer conv5_5/sep_norm
I1008 17:18:56.594197 21305 net.cpp:100] Creating Layer conv5_5/sep_norm
I1008 17:18:56.594200 21305 net.cpp:434] conv5_5/sep_norm <- conv5_5/sep_relu5_5/sep_0_split_1
I1008 17:18:56.594205 21305 net.cpp:408] conv5_5/sep_norm -> conv5_5/sep_norm
I1008 17:18:56.594362 21305 net.cpp:150] Setting up conv5_5/sep_norm
I1008 17:18:56.594367 21305 net.cpp:157] Top shape: 1 512 19 32 (311296)
I1008 17:18:56.594368 21305 net.cpp:165] Memory required for data: 270492448
I1008 17:18:56.594372 21305 layer_factory.hpp:77] Creating layer conv5_5/sep_norm_conv5_5/sep_norm_0_split
I1008 17:18:56.594375 21305 net.cpp:100] Creating Layer conv5_5/sep_norm_conv5_5/sep_norm_0_split
I1008 17:18:56.594378 21305 net.cpp:434] conv5_5/sep_norm_conv5_5/sep_norm_0_split <- conv5_5/sep_norm
I1008 17:18:56.594383 21305 net.cpp:408] conv5_5/sep_norm_conv5_5/sep_norm_0_split -> conv5_5/sep_norm_conv5_5/sep_norm_0_split_0
I1008 17:18:56.594386 21305 net.cpp:408] conv5_5/sep_norm_conv5_5/sep_norm_0_split -> conv5_5/sep_norm_conv5_5/sep_norm_0_split_1
I1008 17:18:56.594400 21305 net.cpp:408] conv5_5/sep_norm_conv5_5/sep_norm_0_split -> conv5_5/sep_norm_conv5_5/sep_norm_0_split_2
I1008 17:18:56.594446 21305 net.cpp:150] Setting up conv5_5/sep_norm_conv5_5/sep_norm_0_split
I1008 17:18:56.594449 21305 net.cpp:157] Top shape: 1 512 19 32 (311296)
I1008 17:18:56.594452 21305 net.cpp:157] Top shape: 1 512 19 32 (311296)
I1008 17:18:56.594455 21305 net.cpp:157] Top shape: 1 512 19 32 (311296)
I1008 17:18:56.594457 21305 net.cpp:165] Memory required for data: 274228000
I1008 17:18:56.594460 21305 layer_factory.hpp:77] Creating layer conv5_5/sep_norm_mbox_loc
I1008 17:18:56.594465 21305 net.cpp:100] Creating Layer conv5_5/sep_norm_mbox_loc
I1008 17:18:56.594468 21305 net.cpp:434] conv5_5/sep_norm_mbox_loc <- conv5_5/sep_norm_conv5_5/sep_norm_0_split_0
I1008 17:18:56.594473 21305 net.cpp:408] conv5_5/sep_norm_mbox_loc -> conv5_5/sep_norm_mbox_loc
I1008 17:18:56.596792 21305 net.cpp:150] Setting up conv5_5/sep_norm_mbox_loc
I1008 17:18:56.596802 21305 net.cpp:157] Top shape: 1 8 19 32 (4864)
I1008 17:18:56.596804 21305 net.cpp:165] Memory required for data: 274247456
I1008 17:18:56.596809 21305 layer_factory.hpp:77] Creating layer conv5_5/sep_norm_mbox_loc_perm
I1008 17:18:56.596814 21305 net.cpp:100] Creating Layer conv5_5/sep_norm_mbox_loc_perm
I1008 17:18:56.596818 21305 net.cpp:434] conv5_5/sep_norm_mbox_loc_perm <- conv5_5/sep_norm_mbox_loc
I1008 17:18:56.596822 21305 net.cpp:408] conv5_5/sep_norm_mbox_loc_perm -> conv5_5/sep_norm_mbox_loc_perm
I1008 17:18:56.596927 21305 net.cpp:150] Setting up conv5_5/sep_norm_mbox_loc_perm
I1008 17:18:56.596931 21305 net.cpp:157] Top shape: 1 19 32 8 (4864)
I1008 17:18:56.596933 21305 net.cpp:165] Memory required for data: 274266912
I1008 17:18:56.596935 21305 layer_factory.hpp:77] Creating layer conv5_5/sep_norm_mbox_loc_flat
I1008 17:18:56.596940 21305 net.cpp:100] Creating Layer conv5_5/sep_norm_mbox_loc_flat
I1008 17:18:56.596942 21305 net.cpp:434] conv5_5/sep_norm_mbox_loc_flat <- conv5_5/sep_norm_mbox_loc_perm
I1008 17:18:56.596946 21305 net.cpp:408] conv5_5/sep_norm_mbox_loc_flat -> conv5_5/sep_norm_mbox_loc_flat
I1008 17:18:56.596966 21305 net.cpp:150] Setting up conv5_5/sep_norm_mbox_loc_flat
I1008 17:18:56.596971 21305 net.cpp:157] Top shape: 1 4864 (4864)
I1008 17:18:56.596972 21305 net.cpp:165] Memory required for data: 274286368
I1008 17:18:56.596974 21305 layer_factory.hpp:77] Creating layer conv5_5/sep_norm_mbox_conf
I1008 17:18:56.596981 21305 net.cpp:100] Creating Layer conv5_5/sep_norm_mbox_conf
I1008 17:18:56.596983 21305 net.cpp:434] conv5_5/sep_norm_mbox_conf <- conv5_5/sep_norm_conv5_5/sep_norm_0_split_1
I1008 17:18:56.596987 21305 net.cpp:408] conv5_5/sep_norm_mbox_conf -> conv5_5/sep_norm_mbox_conf
I1008 17:18:56.598520 21305 net.cpp:150] Setting up conv5_5/sep_norm_mbox_conf
I1008 17:18:56.598527 21305 net.cpp:157] Top shape: 1 10 19 32 (6080)
I1008 17:18:56.598529 21305 net.cpp:165] Memory required for data: 274310688
I1008 17:18:56.598534 21305 layer_factory.hpp:77] Creating layer conv5_5/sep_norm_mbox_conf_perm
I1008 17:18:56.598539 21305 net.cpp:100] Creating Layer conv5_5/sep_norm_mbox_conf_perm
I1008 17:18:56.598541 21305 net.cpp:434] conv5_5/sep_norm_mbox_conf_perm <- conv5_5/sep_norm_mbox_conf
I1008 17:18:56.598546 21305 net.cpp:408] conv5_5/sep_norm_mbox_conf_perm -> conv5_5/sep_norm_mbox_conf_perm
I1008 17:18:56.598647 21305 net.cpp:150] Setting up conv5_5/sep_norm_mbox_conf_perm
I1008 17:18:56.598651 21305 net.cpp:157] Top shape: 1 19 32 10 (6080)
I1008 17:18:56.598654 21305 net.cpp:165] Memory required for data: 274335008
I1008 17:18:56.598656 21305 layer_factory.hpp:77] Creating layer conv5_5/sep_norm_mbox_conf_flat
I1008 17:18:56.598659 21305 net.cpp:100] Creating Layer conv5_5/sep_norm_mbox_conf_flat
I1008 17:18:56.598662 21305 net.cpp:434] conv5_5/sep_norm_mbox_conf_flat <- conv5_5/sep_norm_mbox_conf_perm
I1008 17:18:56.598665 21305 net.cpp:408] conv5_5/sep_norm_mbox_conf_flat -> conv5_5/sep_norm_mbox_conf_flat
I1008 17:18:56.598697 21305 net.cpp:150] Setting up conv5_5/sep_norm_mbox_conf_flat
I1008 17:18:56.598701 21305 net.cpp:157] Top shape: 1 6080 (6080)
I1008 17:18:56.598702 21305 net.cpp:165] Memory required for data: 274359328
I1008 17:18:56.598704 21305 layer_factory.hpp:77] Creating layer conv5_5/sep_norm_mbox_priorbox
I1008 17:18:56.598709 21305 net.cpp:100] Creating Layer conv5_5/sep_norm_mbox_priorbox
I1008 17:18:56.598712 21305 net.cpp:434] conv5_5/sep_norm_mbox_priorbox <- conv5_5/sep_norm_conv5_5/sep_norm_0_split_2
I1008 17:18:56.598716 21305 net.cpp:434] conv5_5/sep_norm_mbox_priorbox <- data_data_0_split_1
I1008 17:18:56.598719 21305 net.cpp:408] conv5_5/sep_norm_mbox_priorbox -> conv5_5/sep_norm_mbox_priorbox
I1008 17:18:56.598742 21305 net.cpp:150] Setting up conv5_5/sep_norm_mbox_priorbox
I1008 17:18:56.598745 21305 net.cpp:157] Top shape: 1 2 4864 (9728)
I1008 17:18:56.598747 21305 net.cpp:165] Memory required for data: 274398240
I1008 17:18:56.598749 21305 layer_factory.hpp:77] Creating layer conv6/sep_mbox_loc
I1008 17:18:56.598755 21305 net.cpp:100] Creating Layer conv6/sep_mbox_loc
I1008 17:18:56.598758 21305 net.cpp:434] conv6/sep_mbox_loc <- conv6/sep_relu6/sep_0_split_1
I1008 17:18:56.598762 21305 net.cpp:408] conv6/sep_mbox_loc -> conv6/sep_mbox_loc
I1008 17:18:56.600386 21305 net.cpp:150] Setting up conv6/sep_mbox_loc
I1008 17:18:56.600394 21305 net.cpp:157] Top shape: 1 8 10 16 (1280)
I1008 17:18:56.600395 21305 net.cpp:165] Memory required for data: 274403360
I1008 17:18:56.600400 21305 layer_factory.hpp:77] Creating layer conv6/sep_mbox_loc_perm
I1008 17:18:56.600405 21305 net.cpp:100] Creating Layer conv6/sep_mbox_loc_perm
I1008 17:18:56.600409 21305 net.cpp:434] conv6/sep_mbox_loc_perm <- conv6/sep_mbox_loc
I1008 17:18:56.600412 21305 net.cpp:408] conv6/sep_mbox_loc_perm -> conv6/sep_mbox_loc_perm
I1008 17:18:56.600519 21305 net.cpp:150] Setting up conv6/sep_mbox_loc_perm
I1008 17:18:56.600523 21305 net.cpp:157] Top shape: 1 10 16 8 (1280)
I1008 17:18:56.600525 21305 net.cpp:165] Memory required for data: 274408480
I1008 17:18:56.600528 21305 layer_factory.hpp:77] Creating layer conv6/sep_mbox_loc_flat
I1008 17:18:56.600530 21305 net.cpp:100] Creating Layer conv6/sep_mbox_loc_flat
I1008 17:18:56.600533 21305 net.cpp:434] conv6/sep_mbox_loc_flat <- conv6/sep_mbox_loc_perm
I1008 17:18:56.600538 21305 net.cpp:408] conv6/sep_mbox_loc_flat -> conv6/sep_mbox_loc_flat
I1008 17:18:56.600558 21305 net.cpp:150] Setting up conv6/sep_mbox_loc_flat
I1008 17:18:56.600560 21305 net.cpp:157] Top shape: 1 1280 (1280)
I1008 17:18:56.600563 21305 net.cpp:165] Memory required for data: 274413600
I1008 17:18:56.600565 21305 layer_factory.hpp:77] Creating layer conv6/sep_mbox_conf
I1008 17:18:56.600570 21305 net.cpp:100] Creating Layer conv6/sep_mbox_conf
I1008 17:18:56.600574 21305 net.cpp:434] conv6/sep_mbox_conf <- conv6/sep_relu6/sep_0_split_2
I1008 17:18:56.600577 21305 net.cpp:408] conv6/sep_mbox_conf -> conv6/sep_mbox_conf
I1008 17:18:56.603375 21305 net.cpp:150] Setting up conv6/sep_mbox_conf
I1008 17:18:56.603391 21305 net.cpp:157] Top shape: 1 10 10 16 (1600)
I1008 17:18:56.603392 21305 net.cpp:165] Memory required for data: 274420000
I1008 17:18:56.603400 21305 layer_factory.hpp:77] Creating layer conv6/sep_mbox_conf_perm
I1008 17:18:56.603408 21305 net.cpp:100] Creating Layer conv6/sep_mbox_conf_perm
I1008 17:18:56.603412 21305 net.cpp:434] conv6/sep_mbox_conf_perm <- conv6/sep_mbox_conf
I1008 17:18:56.603417 21305 net.cpp:408] conv6/sep_mbox_conf_perm -> conv6/sep_mbox_conf_perm
I1008 17:18:56.603528 21305 net.cpp:150] Setting up conv6/sep_mbox_conf_perm
I1008 17:18:56.603531 21305 net.cpp:157] Top shape: 1 10 16 10 (1600)
I1008 17:18:56.603533 21305 net.cpp:165] Memory required for data: 274426400
I1008 17:18:56.603535 21305 layer_factory.hpp:77] Creating layer conv6/sep_mbox_conf_flat
I1008 17:18:56.603539 21305 net.cpp:100] Creating Layer conv6/sep_mbox_conf_flat
I1008 17:18:56.603543 21305 net.cpp:434] conv6/sep_mbox_conf_flat <- conv6/sep_mbox_conf_perm
I1008 17:18:56.603545 21305 net.cpp:408] conv6/sep_mbox_conf_flat -> conv6/sep_mbox_conf_flat
I1008 17:18:56.603577 21305 net.cpp:150] Setting up conv6/sep_mbox_conf_flat
I1008 17:18:56.603581 21305 net.cpp:157] Top shape: 1 1600 (1600)
I1008 17:18:56.603583 21305 net.cpp:165] Memory required for data: 274432800
I1008 17:18:56.603585 21305 layer_factory.hpp:77] Creating layer conv6/sep_mbox_priorbox
I1008 17:18:56.603590 21305 net.cpp:100] Creating Layer conv6/sep_mbox_priorbox
I1008 17:18:56.603593 21305 net.cpp:434] conv6/sep_mbox_priorbox <- conv6/sep_relu6/sep_0_split_3
I1008 17:18:56.603595 21305 net.cpp:434] conv6/sep_mbox_priorbox <- data_data_0_split_2
I1008 17:18:56.603600 21305 net.cpp:408] conv6/sep_mbox_priorbox -> conv6/sep_mbox_priorbox
I1008 17:18:56.603623 21305 net.cpp:150] Setting up conv6/sep_mbox_priorbox
I1008 17:18:56.603626 21305 net.cpp:157] Top shape: 1 2 1280 (2560)
I1008 17:18:56.603629 21305 net.cpp:165] Memory required for data: 274443040
I1008 17:18:56.603631 21305 layer_factory.hpp:77] Creating layer ssd1_2_mbox_loc
I1008 17:18:56.603638 21305 net.cpp:100] Creating Layer ssd1_2_mbox_loc
I1008 17:18:56.603641 21305 net.cpp:434] ssd1_2_mbox_loc <- ssd1_2_ssd1_2_relu_0_split_1
I1008 17:18:56.603646 21305 net.cpp:408] ssd1_2_mbox_loc -> ssd1_2_mbox_loc
I1008 17:18:56.605628 21305 net.cpp:150] Setting up ssd1_2_mbox_loc
I1008 17:18:56.605636 21305 net.cpp:157] Top shape: 1 8 5 8 (320)
I1008 17:18:56.605638 21305 net.cpp:165] Memory required for data: 274444320
I1008 17:18:56.605643 21305 layer_factory.hpp:77] Creating layer ssd1_2_mbox_loc_perm
I1008 17:18:56.605648 21305 net.cpp:100] Creating Layer ssd1_2_mbox_loc_perm
I1008 17:18:56.605650 21305 net.cpp:434] ssd1_2_mbox_loc_perm <- ssd1_2_mbox_loc
I1008 17:18:56.605655 21305 net.cpp:408] ssd1_2_mbox_loc_perm -> ssd1_2_mbox_loc_perm
I1008 17:18:56.605762 21305 net.cpp:150] Setting up ssd1_2_mbox_loc_perm
I1008 17:18:56.605765 21305 net.cpp:157] Top shape: 1 5 8 8 (320)
I1008 17:18:56.605767 21305 net.cpp:165] Memory required for data: 274445600
I1008 17:18:56.605769 21305 layer_factory.hpp:77] Creating layer ssd1_2_mbox_loc_flat
I1008 17:18:56.605772 21305 net.cpp:100] Creating Layer ssd1_2_mbox_loc_flat
I1008 17:18:56.605775 21305 net.cpp:434] ssd1_2_mbox_loc_flat <- ssd1_2_mbox_loc_perm
I1008 17:18:56.605778 21305 net.cpp:408] ssd1_2_mbox_loc_flat -> ssd1_2_mbox_loc_flat
I1008 17:18:56.605799 21305 net.cpp:150] Setting up ssd1_2_mbox_loc_flat
I1008 17:18:56.605803 21305 net.cpp:157] Top shape: 1 320 (320)
I1008 17:18:56.605805 21305 net.cpp:165] Memory required for data: 274446880
I1008 17:18:56.605806 21305 layer_factory.hpp:77] Creating layer ssd1_2_mbox_conf
I1008 17:18:56.605813 21305 net.cpp:100] Creating Layer ssd1_2_mbox_conf
I1008 17:18:56.605815 21305 net.cpp:434] ssd1_2_mbox_conf <- ssd1_2_ssd1_2_relu_0_split_2
I1008 17:18:56.605819 21305 net.cpp:408] ssd1_2_mbox_conf -> ssd1_2_mbox_conf
I1008 17:18:56.607364 21305 net.cpp:150] Setting up ssd1_2_mbox_conf
I1008 17:18:56.607372 21305 net.cpp:157] Top shape: 1 10 5 8 (400)
I1008 17:18:56.607375 21305 net.cpp:165] Memory required for data: 274448480
I1008 17:18:56.607381 21305 layer_factory.hpp:77] Creating layer ssd1_2_mbox_conf_perm
I1008 17:18:56.607386 21305 net.cpp:100] Creating Layer ssd1_2_mbox_conf_perm
I1008 17:18:56.607389 21305 net.cpp:434] ssd1_2_mbox_conf_perm <- ssd1_2_mbox_conf
I1008 17:18:56.607394 21305 net.cpp:408] ssd1_2_mbox_conf_perm -> ssd1_2_mbox_conf_perm
I1008 17:18:56.607504 21305 net.cpp:150] Setting up ssd1_2_mbox_conf_perm
I1008 17:18:56.607508 21305 net.cpp:157] Top shape: 1 5 8 10 (400)
I1008 17:18:56.607511 21305 net.cpp:165] Memory required for data: 274450080
I1008 17:18:56.607514 21305 layer_factory.hpp:77] Creating layer ssd1_2_mbox_conf_flat
I1008 17:18:56.607518 21305 net.cpp:100] Creating Layer ssd1_2_mbox_conf_flat
I1008 17:18:56.607522 21305 net.cpp:434] ssd1_2_mbox_conf_flat <- ssd1_2_mbox_conf_perm
I1008 17:18:56.607527 21305 net.cpp:408] ssd1_2_mbox_conf_flat -> ssd1_2_mbox_conf_flat
I1008 17:18:56.607551 21305 net.cpp:150] Setting up ssd1_2_mbox_conf_flat
I1008 17:18:56.607555 21305 net.cpp:157] Top shape: 1 400 (400)
I1008 17:18:56.607566 21305 net.cpp:165] Memory required for data: 274451680
I1008 17:18:56.607569 21305 layer_factory.hpp:77] Creating layer ssd1_2_mbox_priorbox
I1008 17:18:56.607574 21305 net.cpp:100] Creating Layer ssd1_2_mbox_priorbox
I1008 17:18:56.607578 21305 net.cpp:434] ssd1_2_mbox_priorbox <- ssd1_2_ssd1_2_relu_0_split_3
I1008 17:18:56.607579 21305 net.cpp:434] ssd1_2_mbox_priorbox <- data_data_0_split_3
I1008 17:18:56.607583 21305 net.cpp:408] ssd1_2_mbox_priorbox -> ssd1_2_mbox_priorbox
I1008 17:18:56.607609 21305 net.cpp:150] Setting up ssd1_2_mbox_priorbox
I1008 17:18:56.607611 21305 net.cpp:157] Top shape: 1 2 320 (640)
I1008 17:18:56.607614 21305 net.cpp:165] Memory required for data: 274454240
I1008 17:18:56.607615 21305 layer_factory.hpp:77] Creating layer ssd2_2_mbox_loc
I1008 17:18:56.607621 21305 net.cpp:100] Creating Layer ssd2_2_mbox_loc
I1008 17:18:56.607625 21305 net.cpp:434] ssd2_2_mbox_loc <- ssd2_2_ssd2_2_relu_0_split_1
I1008 17:18:56.607628 21305 net.cpp:408] ssd2_2_mbox_loc -> ssd2_2_mbox_loc
I1008 17:18:56.608981 21305 net.cpp:150] Setting up ssd2_2_mbox_loc
I1008 17:18:56.608989 21305 net.cpp:157] Top shape: 1 8 3 4 (96)
I1008 17:18:56.608990 21305 net.cpp:165] Memory required for data: 274454624
I1008 17:18:56.608994 21305 layer_factory.hpp:77] Creating layer ssd2_2_mbox_loc_perm
I1008 17:18:56.609001 21305 net.cpp:100] Creating Layer ssd2_2_mbox_loc_perm
I1008 17:18:56.609005 21305 net.cpp:434] ssd2_2_mbox_loc_perm <- ssd2_2_mbox_loc
I1008 17:18:56.609011 21305 net.cpp:408] ssd2_2_mbox_loc_perm -> ssd2_2_mbox_loc_perm
I1008 17:18:56.609117 21305 net.cpp:150] Setting up ssd2_2_mbox_loc_perm
I1008 17:18:56.609122 21305 net.cpp:157] Top shape: 1 3 4 8 (96)
I1008 17:18:56.609125 21305 net.cpp:165] Memory required for data: 274455008
I1008 17:18:56.609127 21305 layer_factory.hpp:77] Creating layer ssd2_2_mbox_loc_flat
I1008 17:18:56.609133 21305 net.cpp:100] Creating Layer ssd2_2_mbox_loc_flat
I1008 17:18:56.609135 21305 net.cpp:434] ssd2_2_mbox_loc_flat <- ssd2_2_mbox_loc_perm
I1008 17:18:56.609141 21305 net.cpp:408] ssd2_2_mbox_loc_flat -> ssd2_2_mbox_loc_flat
I1008 17:18:56.609164 21305 net.cpp:150] Setting up ssd2_2_mbox_loc_flat
I1008 17:18:56.609170 21305 net.cpp:157] Top shape: 1 96 (96)
I1008 17:18:56.609174 21305 net.cpp:165] Memory required for data: 274455392
I1008 17:18:56.609175 21305 layer_factory.hpp:77] Creating layer ssd2_2_mbox_conf
I1008 17:18:56.609182 21305 net.cpp:100] Creating Layer ssd2_2_mbox_conf
I1008 17:18:56.609185 21305 net.cpp:434] ssd2_2_mbox_conf <- ssd2_2_ssd2_2_relu_0_split_2
I1008 17:18:56.609189 21305 net.cpp:408] ssd2_2_mbox_conf -> ssd2_2_mbox_conf
I1008 17:18:56.611394 21305 net.cpp:150] Setting up ssd2_2_mbox_conf
I1008 17:18:56.611404 21305 net.cpp:157] Top shape: 1 10 3 4 (120)
I1008 17:18:56.611405 21305 net.cpp:165] Memory required for data: 274455872
I1008 17:18:56.611410 21305 layer_factory.hpp:77] Creating layer ssd2_2_mbox_conf_perm
I1008 17:18:56.611416 21305 net.cpp:100] Creating Layer ssd2_2_mbox_conf_perm
I1008 17:18:56.611419 21305 net.cpp:434] ssd2_2_mbox_conf_perm <- ssd2_2_mbox_conf
I1008 17:18:56.611424 21305 net.cpp:408] ssd2_2_mbox_conf_perm -> ssd2_2_mbox_conf_perm
I1008 17:18:56.611531 21305 net.cpp:150] Setting up ssd2_2_mbox_conf_perm
I1008 17:18:56.611536 21305 net.cpp:157] Top shape: 1 3 4 10 (120)
I1008 17:18:56.611541 21305 net.cpp:165] Memory required for data: 274456352
I1008 17:18:56.611542 21305 layer_factory.hpp:77] Creating layer ssd2_2_mbox_conf_flat
I1008 17:18:56.611547 21305 net.cpp:100] Creating Layer ssd2_2_mbox_conf_flat
I1008 17:18:56.611552 21305 net.cpp:434] ssd2_2_mbox_conf_flat <- ssd2_2_mbox_conf_perm
I1008 17:18:56.611555 21305 net.cpp:408] ssd2_2_mbox_conf_flat -> ssd2_2_mbox_conf_flat
I1008 17:18:56.611579 21305 net.cpp:150] Setting up ssd2_2_mbox_conf_flat
I1008 17:18:56.611583 21305 net.cpp:157] Top shape: 1 120 (120)
I1008 17:18:56.611585 21305 net.cpp:165] Memory required for data: 274456832
I1008 17:18:56.611588 21305 layer_factory.hpp:77] Creating layer ssd2_2_mbox_priorbox
I1008 17:18:56.611600 21305 net.cpp:100] Creating Layer ssd2_2_mbox_priorbox
I1008 17:18:56.611603 21305 net.cpp:434] ssd2_2_mbox_priorbox <- ssd2_2_ssd2_2_relu_0_split_3
I1008 17:18:56.611606 21305 net.cpp:434] ssd2_2_mbox_priorbox <- data_data_0_split_4
I1008 17:18:56.611610 21305 net.cpp:408] ssd2_2_mbox_priorbox -> ssd2_2_mbox_priorbox
I1008 17:18:56.611634 21305 net.cpp:150] Setting up ssd2_2_mbox_priorbox
I1008 17:18:56.611639 21305 net.cpp:157] Top shape: 1 2 96 (192)
I1008 17:18:56.611640 21305 net.cpp:165] Memory required for data: 274457600
I1008 17:18:56.611642 21305 layer_factory.hpp:77] Creating layer ssd3_2_mbox_loc
I1008 17:18:56.611649 21305 net.cpp:100] Creating Layer ssd3_2_mbox_loc
I1008 17:18:56.611654 21305 net.cpp:434] ssd3_2_mbox_loc <- ssd3_2_ssd3_2_relu_0_split_1
I1008 17:18:56.611660 21305 net.cpp:408] ssd3_2_mbox_loc -> ssd3_2_mbox_loc
I1008 17:18:56.613129 21305 net.cpp:150] Setting up ssd3_2_mbox_loc
I1008 17:18:56.613137 21305 net.cpp:157] Top shape: 1 8 2 2 (32)
I1008 17:18:56.613140 21305 net.cpp:165] Memory required for data: 274457728
I1008 17:18:56.613147 21305 layer_factory.hpp:77] Creating layer ssd3_2_mbox_loc_perm
I1008 17:18:56.613153 21305 net.cpp:100] Creating Layer ssd3_2_mbox_loc_perm
I1008 17:18:56.613157 21305 net.cpp:434] ssd3_2_mbox_loc_perm <- ssd3_2_mbox_loc
I1008 17:18:56.613163 21305 net.cpp:408] ssd3_2_mbox_loc_perm -> ssd3_2_mbox_loc_perm
I1008 17:18:56.613270 21305 net.cpp:150] Setting up ssd3_2_mbox_loc_perm
I1008 17:18:56.613273 21305 net.cpp:157] Top shape: 1 2 2 8 (32)
I1008 17:18:56.613276 21305 net.cpp:165] Memory required for data: 274457856
I1008 17:18:56.613278 21305 layer_factory.hpp:77] Creating layer ssd3_2_mbox_loc_flat
I1008 17:18:56.613284 21305 net.cpp:100] Creating Layer ssd3_2_mbox_loc_flat
I1008 17:18:56.613287 21305 net.cpp:434] ssd3_2_mbox_loc_flat <- ssd3_2_mbox_loc_perm
I1008 17:18:56.613291 21305 net.cpp:408] ssd3_2_mbox_loc_flat -> ssd3_2_mbox_loc_flat
I1008 17:18:56.613313 21305 net.cpp:150] Setting up ssd3_2_mbox_loc_flat
I1008 17:18:56.613317 21305 net.cpp:157] Top shape: 1 32 (32)
I1008 17:18:56.613320 21305 net.cpp:165] Memory required for data: 274457984
I1008 17:18:56.613322 21305 layer_factory.hpp:77] Creating layer ssd3_2_mbox_conf
I1008 17:18:56.613332 21305 net.cpp:100] Creating Layer ssd3_2_mbox_conf
I1008 17:18:56.613334 21305 net.cpp:434] ssd3_2_mbox_conf <- ssd3_2_ssd3_2_relu_0_split_2
I1008 17:18:56.613338 21305 net.cpp:408] ssd3_2_mbox_conf -> ssd3_2_mbox_conf
I1008 17:18:56.614694 21305 net.cpp:150] Setting up ssd3_2_mbox_conf
I1008 17:18:56.614701 21305 net.cpp:157] Top shape: 1 10 2 2 (40)
I1008 17:18:56.614703 21305 net.cpp:165] Memory required for data: 274458144
I1008 17:18:56.614707 21305 layer_factory.hpp:77] Creating layer ssd3_2_mbox_conf_perm
I1008 17:18:56.614713 21305 net.cpp:100] Creating Layer ssd3_2_mbox_conf_perm
I1008 17:18:56.614717 21305 net.cpp:434] ssd3_2_mbox_conf_perm <- ssd3_2_mbox_conf
I1008 17:18:56.614723 21305 net.cpp:408] ssd3_2_mbox_conf_perm -> ssd3_2_mbox_conf_perm
I1008 17:18:56.614830 21305 net.cpp:150] Setting up ssd3_2_mbox_conf_perm
I1008 17:18:56.614835 21305 net.cpp:157] Top shape: 1 2 2 10 (40)
I1008 17:18:56.614837 21305 net.cpp:165] Memory required for data: 274458304
I1008 17:18:56.614841 21305 layer_factory.hpp:77] Creating layer ssd3_2_mbox_conf_flat
I1008 17:18:56.614845 21305 net.cpp:100] Creating Layer ssd3_2_mbox_conf_flat
I1008 17:18:56.614848 21305 net.cpp:434] ssd3_2_mbox_conf_flat <- ssd3_2_mbox_conf_perm
I1008 17:18:56.614851 21305 net.cpp:408] ssd3_2_mbox_conf_flat -> ssd3_2_mbox_conf_flat
I1008 17:18:56.614876 21305 net.cpp:150] Setting up ssd3_2_mbox_conf_flat
I1008 17:18:56.614881 21305 net.cpp:157] Top shape: 1 40 (40)
I1008 17:18:56.614882 21305 net.cpp:165] Memory required for data: 274458464
I1008 17:18:56.614886 21305 layer_factory.hpp:77] Creating layer ssd3_2_mbox_priorbox
I1008 17:18:56.614892 21305 net.cpp:100] Creating Layer ssd3_2_mbox_priorbox
I1008 17:18:56.614894 21305 net.cpp:434] ssd3_2_mbox_priorbox <- ssd3_2_ssd3_2_relu_0_split_3
I1008 17:18:56.614905 21305 net.cpp:434] ssd3_2_mbox_priorbox <- data_data_0_split_5
I1008 17:18:56.614912 21305 net.cpp:408] ssd3_2_mbox_priorbox -> ssd3_2_mbox_priorbox
I1008 17:18:56.614938 21305 net.cpp:150] Setting up ssd3_2_mbox_priorbox
I1008 17:18:56.614941 21305 net.cpp:157] Top shape: 1 2 32 (64)
I1008 17:18:56.614944 21305 net.cpp:165] Memory required for data: 274458720
I1008 17:18:56.614948 21305 layer_factory.hpp:77] Creating layer ssd4_2_mbox_loc
I1008 17:18:56.614954 21305 net.cpp:100] Creating Layer ssd4_2_mbox_loc
I1008 17:18:56.614959 21305 net.cpp:434] ssd4_2_mbox_loc <- ssd4_2_ssd4_2_relu_0_split_0
I1008 17:18:56.614962 21305 net.cpp:408] ssd4_2_mbox_loc -> ssd4_2_mbox_loc
I1008 17:18:56.617132 21305 net.cpp:150] Setting up ssd4_2_mbox_loc
I1008 17:18:56.617141 21305 net.cpp:157] Top shape: 1 8 1 1 (8)
I1008 17:18:56.617143 21305 net.cpp:165] Memory required for data: 274458752
I1008 17:18:56.617148 21305 layer_factory.hpp:77] Creating layer ssd4_2_mbox_loc_perm
I1008 17:18:56.617152 21305 net.cpp:100] Creating Layer ssd4_2_mbox_loc_perm
I1008 17:18:56.617156 21305 net.cpp:434] ssd4_2_mbox_loc_perm <- ssd4_2_mbox_loc
I1008 17:18:56.617161 21305 net.cpp:408] ssd4_2_mbox_loc_perm -> ssd4_2_mbox_loc_perm
I1008 17:18:56.617267 21305 net.cpp:150] Setting up ssd4_2_mbox_loc_perm
I1008 17:18:56.617271 21305 net.cpp:157] Top shape: 1 1 1 8 (8)
I1008 17:18:56.617274 21305 net.cpp:165] Memory required for data: 274458784
I1008 17:18:56.617277 21305 layer_factory.hpp:77] Creating layer ssd4_2_mbox_loc_flat
I1008 17:18:56.617282 21305 net.cpp:100] Creating Layer ssd4_2_mbox_loc_flat
I1008 17:18:56.617286 21305 net.cpp:434] ssd4_2_mbox_loc_flat <- ssd4_2_mbox_loc_perm
I1008 17:18:56.617292 21305 net.cpp:408] ssd4_2_mbox_loc_flat -> ssd4_2_mbox_loc_flat
I1008 17:18:56.617316 21305 net.cpp:150] Setting up ssd4_2_mbox_loc_flat
I1008 17:18:56.617318 21305 net.cpp:157] Top shape: 1 8 (8)
I1008 17:18:56.617321 21305 net.cpp:165] Memory required for data: 274458816
I1008 17:18:56.617326 21305 layer_factory.hpp:77] Creating layer ssd4_2_mbox_conf
I1008 17:18:56.617332 21305 net.cpp:100] Creating Layer ssd4_2_mbox_conf
I1008 17:18:56.617336 21305 net.cpp:434] ssd4_2_mbox_conf <- ssd4_2_ssd4_2_relu_0_split_1
I1008 17:18:56.617339 21305 net.cpp:408] ssd4_2_mbox_conf -> ssd4_2_mbox_conf
I1008 17:18:56.618711 21305 net.cpp:150] Setting up ssd4_2_mbox_conf
I1008 17:18:56.618718 21305 net.cpp:157] Top shape: 1 10 1 1 (10)
I1008 17:18:56.618721 21305 net.cpp:165] Memory required for data: 274458856
I1008 17:18:56.618727 21305 layer_factory.hpp:77] Creating layer ssd4_2_mbox_conf_perm
I1008 17:18:56.618732 21305 net.cpp:100] Creating Layer ssd4_2_mbox_conf_perm
I1008 17:18:56.618736 21305 net.cpp:434] ssd4_2_mbox_conf_perm <- ssd4_2_mbox_conf
I1008 17:18:56.618739 21305 net.cpp:408] ssd4_2_mbox_conf_perm -> ssd4_2_mbox_conf_perm
I1008 17:18:56.618844 21305 net.cpp:150] Setting up ssd4_2_mbox_conf_perm
I1008 17:18:56.618849 21305 net.cpp:157] Top shape: 1 1 1 10 (10)
I1008 17:18:56.618851 21305 net.cpp:165] Memory required for data: 274458896
I1008 17:18:56.618854 21305 layer_factory.hpp:77] Creating layer ssd4_2_mbox_conf_flat
I1008 17:18:56.618858 21305 net.cpp:100] Creating Layer ssd4_2_mbox_conf_flat
I1008 17:18:56.618862 21305 net.cpp:434] ssd4_2_mbox_conf_flat <- ssd4_2_mbox_conf_perm
I1008 17:18:56.618865 21305 net.cpp:408] ssd4_2_mbox_conf_flat -> ssd4_2_mbox_conf_flat
I1008 17:18:56.618886 21305 net.cpp:150] Setting up ssd4_2_mbox_conf_flat
I1008 17:18:56.618891 21305 net.cpp:157] Top shape: 1 10 (10)
I1008 17:18:56.618892 21305 net.cpp:165] Memory required for data: 274458936
I1008 17:18:56.618894 21305 layer_factory.hpp:77] Creating layer ssd4_2_mbox_priorbox
I1008 17:18:56.618898 21305 net.cpp:100] Creating Layer ssd4_2_mbox_priorbox
I1008 17:18:56.618901 21305 net.cpp:434] ssd4_2_mbox_priorbox <- ssd4_2_ssd4_2_relu_0_split_2
I1008 17:18:56.618904 21305 net.cpp:434] ssd4_2_mbox_priorbox <- data_data_0_split_6
I1008 17:18:56.618907 21305 net.cpp:408] ssd4_2_mbox_priorbox -> ssd4_2_mbox_priorbox
I1008 17:18:56.618933 21305 net.cpp:150] Setting up ssd4_2_mbox_priorbox
I1008 17:18:56.618947 21305 net.cpp:157] Top shape: 1 2 8 (16)
I1008 17:18:56.618949 21305 net.cpp:165] Memory required for data: 274459000
I1008 17:18:56.618952 21305 layer_factory.hpp:77] Creating layer mbox_loc
I1008 17:18:56.618957 21305 net.cpp:100] Creating Layer mbox_loc
I1008 17:18:56.618960 21305 net.cpp:434] mbox_loc <- conv5_5/sep_norm_mbox_loc_flat
I1008 17:18:56.618964 21305 net.cpp:434] mbox_loc <- conv6/sep_mbox_loc_flat
I1008 17:18:56.618968 21305 net.cpp:434] mbox_loc <- ssd1_2_mbox_loc_flat
I1008 17:18:56.618970 21305 net.cpp:434] mbox_loc <- ssd2_2_mbox_loc_flat
I1008 17:18:56.618973 21305 net.cpp:434] mbox_loc <- ssd3_2_mbox_loc_flat
I1008 17:18:56.618976 21305 net.cpp:434] mbox_loc <- ssd4_2_mbox_loc_flat
I1008 17:18:56.618980 21305 net.cpp:408] mbox_loc -> mbox_loc
I1008 17:18:56.619006 21305 net.cpp:150] Setting up mbox_loc
I1008 17:18:56.619009 21305 net.cpp:157] Top shape: 1 6600 (6600)
I1008 17:18:56.619014 21305 net.cpp:165] Memory required for data: 274485400
I1008 17:18:56.619015 21305 layer_factory.hpp:77] Creating layer mbox_conf
I1008 17:18:56.619019 21305 net.cpp:100] Creating Layer mbox_conf
I1008 17:18:56.619022 21305 net.cpp:434] mbox_conf <- conv5_5/sep_norm_mbox_conf_flat
I1008 17:18:56.619025 21305 net.cpp:434] mbox_conf <- conv6/sep_mbox_conf_flat
I1008 17:18:56.619029 21305 net.cpp:434] mbox_conf <- ssd1_2_mbox_conf_flat
I1008 17:18:56.619031 21305 net.cpp:434] mbox_conf <- ssd2_2_mbox_conf_flat
I1008 17:18:56.619035 21305 net.cpp:434] mbox_conf <- ssd3_2_mbox_conf_flat
I1008 17:18:56.619038 21305 net.cpp:434] mbox_conf <- ssd4_2_mbox_conf_flat
I1008 17:18:56.619042 21305 net.cpp:408] mbox_conf -> mbox_conf
I1008 17:18:56.619065 21305 net.cpp:150] Setting up mbox_conf
I1008 17:18:56.619068 21305 net.cpp:157] Top shape: 1 8250 (8250)
I1008 17:18:56.619071 21305 net.cpp:165] Memory required for data: 274518400
I1008 17:18:56.619072 21305 layer_factory.hpp:77] Creating layer mbox_priorbox
I1008 17:18:56.619076 21305 net.cpp:100] Creating Layer mbox_priorbox
I1008 17:18:56.619078 21305 net.cpp:434] mbox_priorbox <- conv5_5/sep_norm_mbox_priorbox
I1008 17:18:56.619082 21305 net.cpp:434] mbox_priorbox <- conv6/sep_mbox_priorbox
I1008 17:18:56.619086 21305 net.cpp:434] mbox_priorbox <- ssd1_2_mbox_priorbox
I1008 17:18:56.619088 21305 net.cpp:434] mbox_priorbox <- ssd2_2_mbox_priorbox
I1008 17:18:56.619091 21305 net.cpp:434] mbox_priorbox <- ssd3_2_mbox_priorbox
I1008 17:18:56.619093 21305 net.cpp:434] mbox_priorbox <- ssd4_2_mbox_priorbox
I1008 17:18:56.619097 21305 net.cpp:408] mbox_priorbox -> mbox_priorbox
I1008 17:18:56.619118 21305 net.cpp:150] Setting up mbox_priorbox
I1008 17:18:56.619122 21305 net.cpp:157] Top shape: 1 2 6600 (13200)
I1008 17:18:56.619123 21305 net.cpp:165] Memory required for data: 274571200
I1008 17:18:56.619125 21305 layer_factory.hpp:77] Creating layer mbox_conf_reshape
I1008 17:18:56.619130 21305 net.cpp:100] Creating Layer mbox_conf_reshape
I1008 17:18:56.619133 21305 net.cpp:434] mbox_conf_reshape <- mbox_conf
I1008 17:18:56.619138 21305 net.cpp:408] mbox_conf_reshape -> mbox_conf_reshape
I1008 17:18:56.619165 21305 net.cpp:150] Setting up mbox_conf_reshape
I1008 17:18:56.619168 21305 net.cpp:157] Top shape: 1 1650 5 (8250)
I1008 17:18:56.619174 21305 net.cpp:165] Memory required for data: 274604200
I1008 17:18:56.619177 21305 layer_factory.hpp:77] Creating layer mbox_conf_softmax
I1008 17:18:56.619182 21305 net.cpp:100] Creating Layer mbox_conf_softmax
I1008 17:18:56.619184 21305 net.cpp:434] mbox_conf_softmax <- mbox_conf_reshape
I1008 17:18:56.619187 21305 net.cpp:408] mbox_conf_softmax -> mbox_conf_softmax
I1008 17:18:56.619671 21305 net.cpp:150] Setting up mbox_conf_softmax
I1008 17:18:56.619678 21305 net.cpp:157] Top shape: 1 1650 5 (8250)
I1008 17:18:56.619679 21305 net.cpp:165] Memory required for data: 274637200
I1008 17:18:56.619681 21305 layer_factory.hpp:77] Creating layer mbox_conf_flatten
I1008 17:18:56.619685 21305 net.cpp:100] Creating Layer mbox_conf_flatten
I1008 17:18:56.619688 21305 net.cpp:434] mbox_conf_flatten <- mbox_conf_softmax
I1008 17:18:56.619699 21305 net.cpp:408] mbox_conf_flatten -> mbox_conf_flatten
I1008 17:18:56.619722 21305 net.cpp:150] Setting up mbox_conf_flatten
I1008 17:18:56.619726 21305 net.cpp:157] Top shape: 1 8250 (8250)
I1008 17:18:56.619729 21305 net.cpp:165] Memory required for data: 274670200
I1008 17:18:56.619730 21305 layer_factory.hpp:77] Creating layer detection_out
I1008 17:18:56.619740 21305 net.cpp:100] Creating Layer detection_out
I1008 17:18:56.619743 21305 net.cpp:434] detection_out <- mbox_loc
I1008 17:18:56.619746 21305 net.cpp:434] detection_out <- mbox_conf_flatten
I1008 17:18:56.619750 21305 net.cpp:434] detection_out <- mbox_priorbox
I1008 17:18:56.619753 21305 net.cpp:408] detection_out -> detection_out
W1008 17:18:56.619774 21305 detection_output_layer.cpp:49] Failed to create directory: /home/zhongyilin/Documents/data/GTSDBdevkit/results/GTSDB/SSD_510x300_100_40_6_True_1/Main
I1008 17:18:56.620059 21305 net.cpp:150] Setting up detection_out
I1008 17:18:56.620065 21305 net.cpp:157] Top shape: 1 1 1 7 (7)
I1008 17:18:56.620067 21305 net.cpp:165] Memory required for data: 274670228
I1008 17:18:56.620069 21305 layer_factory.hpp:77] Creating layer detection_eval
I1008 17:18:56.620074 21305 net.cpp:100] Creating Layer detection_eval
I1008 17:18:56.620076 21305 net.cpp:434] detection_eval <- detection_out
I1008 17:18:56.620079 21305 net.cpp:434] detection_eval <- label
I1008 17:18:56.620082 21305 net.cpp:408] detection_eval -> detection_eval
I1008 17:18:56.620172 21305 net.cpp:150] Setting up detection_eval
I1008 17:18:56.620177 21305 net.cpp:157] Top shape: 1 1 5 5 (25)
I1008 17:18:56.620178 21305 net.cpp:165] Memory required for data: 274670328
I1008 17:18:56.620180 21305 net.cpp:228] detection_eval does not need backward computation.
I1008 17:18:56.620182 21305 net.cpp:228] detection_out does not need backward computation.
I1008 17:18:56.620184 21305 net.cpp:228] mbox_conf_flatten does not need backward computation.
I1008 17:18:56.620187 21305 net.cpp:228] mbox_conf_softmax does not need backward computation.
…
