…
      sampler {
        min_scale: 0.3
        max_scale: 1
        min_aspect_ratio: 0.5
        max_aspect_ratio: 2
      }
      sample_constraint {
        min_jaccard_overlap: 0.9
      }
      max_sample: 1
      max_trials: 50
    }
    batch_sampler {
      sampler {
        min_scale: 0.3
        max_scale: 1
        min_aspect_ratio: 0.5
        max_aspect_ratio: 2
      }
      sample_constraint {
        max_jaccard_overlap: 1
      }
      max_sample: 1
      max_trials: 50
    }
    label_map_file: "data/GTSDB/labelmap_GTSDB.prototxt"
  }
}
layer {
  name: "conv1"
  type: "Convolution"
  bottom: "data"
  top: "conv1"
  param {
    lr_mult: 1
    decay_mult: 1
  }
  convolution_param {
    num_output: 32
    bias_term: false
    pad: 1
    kernel_size: 3
    stride: 2
    weight_filler {
      type: "msra"
    }
  }
}
layer {
  name: "conv1/bn"
  type: "BatchNorm"
  bottom: "conv1"
  top: "conv1"
  batch_norm_param {
    use_global_stats: true
    eps: 1e-05
  }
}
layer {
  name: "conv1/scale"
  type: "Scale"
  bottom: "conv1"
  top: "conv1"
  param {
    lr_mult: 1
    decay_mult: 0
  }
  param {
    lr_mult: 1
    decay_mult: 0
  }
  scale_param {
    filler {
      type: "constant"
      value: 1
    }
    bias_term: true
    bias_filler {
      type: "constant"
      value: 0
    }
  }
}
layer {
  name: "relu1"
  type: "ReLU"
  bottom: "conv1"
  top: "conv1"
}
layer {
  name: "conv2_1/dw"
  type: "Convolution"
  bottom: "conv1"
  top: "conv2_1/dw"
  param {
    lr_mult: 1
    decay_mult: 1
  }
  convolution_param {
    num_output: 32
    bias_term: false
    pad: 1
    kernel_size: 3
    group: 32
    stride: 1
    weight_filler {
      type: "msra"
    }
    engine: CAFFE
  }
}
layer {
  name: "conv2_1/dw/bn"
  type: "BatchNorm"
  bottom: "conv2_1/dw"
  top: "conv2_1/dw"
  batch_norm_param {
    use_global_stats: true
    eps: 1e-05
  }
}
layer {
  name: "conv2_1/dw/scale"
  type: "Scale"
  bottom: "conv2_1/dw"
  top: "conv2_1/dw"
  param {
    lr_mult: 1
    decay_mult: 0
  }
  param {
    lr_mult: 1
    decay_mult: 0
  }
  scale_param {
    filler {
      type: "constant"
      value: 1
    }
    bias_term: true
    bias_filler {
      type: "constant"
      value: 0
    }
  }
}
layer {
  name: "relu2_1/dw"
  type: "ReLU"
  bottom: "conv2_1/dw"
  top: "conv2_1/dw"
}
layer {
  name: "conv2_1/sep"
  type: "Convolution"
  bottom: "conv2_1/dw"
  top: "conv2_1/sep"
  param {
    lr_mult: 1
    decay_mult: 1
  }
  convolution_param {
    num_output: 64
    bias_term: false
    pad: 0
    kernel_size: 1
    stride: 1
    weight_filler {
      type: "msra"
    }
  }
}
layer {
  name: "conv2_1/sep/bn"
  type: "BatchNorm"
  bottom: "conv2_1/sep"
  top: "conv2_1/sep"
  batch_norm_param {
    use_global_stats: true
    eps: 1e-05
  }
}
layer {
  name: "conv2_1/sep/scale"
  type: "Scale"
  bottom: "conv2_1/sep"
  top: "conv2_1/sep"
  param {
    lr_mult: 1
    decay_mult: 0
  }
  param {
    lr_mult: 1
    decay_mult: 0
  }
  scale_param {
    filler {
      type: "constant"
      value: 1
    }
    bias_term: true
    bias_filler {
      type: "constant"
      value: 0
    }
  }
}
layer {
  name: "relu2_1/sep"
  type: "ReLU"
  bottom: "conv2_1/sep"
  top: "conv2_1/sep"
}
layer {
  name: "conv2_2/dw"
  type: "Convolution"
  bottom: "conv2_1/sep"
  top: "conv2_2/dw"
  param {
    lr_mult: 1
    decay_mult: 1
  }
  convolution_param {
    num_output: 64
    bias_term: false
    pad: 1
    kernel_size: 3
    group: 64
    stride: 2
    weight_filler {
      type: "msra"
    }
    engine: CAFFE
  }
}
layer {
  name: "conv2_2/dw/bn"
  type: "BatchNorm"
  bottom: "conv2_2/dw"
  top: "conv2_2/dw"
  batch_norm_param {
    use_global_stats: true
    eps: 1e-05
  }
}
layer {
  name: "conv2_2/dw/scale"
  type: "Scale"
  bottom: "conv2_2/dw"
  top: "conv2_2/dw"
  param {
    lr_mult: 1
    decay_mult: 0
  }
  param {
    lr_mult: 1
    decay_mult: 0
  }
  scale_param {
    filler {
      type: "constant"
      value: 1
    }
    bias_term: true
    bias_filler {
      type: "constant"
      value: 0
    }
  }
}
layer {
  name: "relu2_2/dw"
  type: "ReLU"
  bottom: "conv2_2/dw"
  top: "conv2_2/dw"
}
layer {
  name: "conv2_2/sep"
  type: "Convolution"
  bottom: "conv2_2/dw"
  top: "conv2_2/sep"
  param {
    lr_mult: 1
    decay_mult: 1
  }
  convolution_param {
    num_output: 128
    bias_term: false
    pad: 0
    kernel_size: 1
    stride: 1
    weight_filler {
      type: "msra"
    }
  }
}
layer {
  name: "conv2_2/sep/bn"
  type: "BatchNorm"
  bottom: "conv2_2/sep"
  top: "conv2_2/sep"
  batch_norm_param {
    use_global_stats: true
    eps: 1e-05
  }
}
layer {
  name: "conv2_2/sep/scale"
  type: "Scale"
  bottom: "conv2_2/sep"
  top: "conv2_2/sep"
  param {
    lr_mult: 1
    decay_mult: 0
  }
  param {
    lr_mult: 1
    decay_mult: 0
  }
  scale_param {
    filler {
      type: "constant"
      value: 1
    }
    bias_term: true
    bias_filler {
      type: "constant"
      value: 0
    }
  }
}
layer {
  name: "relu2_2/sep"
  type: "ReLU"
  bottom: "conv2_2/sep"
  top: "conv2_2/sep"
}
layer {
  name: "conv3_1/dw"
  type: "Convolution"
  bottom: "conv2_2/sep"
  top: "conv3_1/dw"
  param {
    lr_mult: 1
    decay_mult: 1
  }
  convolution_param {
    num_output: 128
    bias_term: false
    pad: 1
    kernel_size: 3
    group: 128
    stride: 1
    weight_filler {
      type: "msra"
    }
    engine: CAFFE
  }
}
layer {
  name: "conv3_1/dw/bn"
  type: "BatchNorm"
  bottom: "conv3_1/dw"
  top: "conv3_1/dw"
  batch_norm_param {
    use_global_stats: true
    eps: 1e-05
  }
}
layer {
  name: "conv3_1/dw/scale"
  type: "Scale"
  bottom: "conv3_1/dw"
  top: "conv3_1/dw"
  param {
    lr_mult: 1
    decay_mult: 0
  }
  param {
    lr_mult: 1
    decay_mult: 0
  }
  scale_param {
    filler {
      type: "constant"
      value: 1
    }
    bias_term: true
    bias_filler {
      type: "constant"
      value: 0
    }
  }
}
layer {
  name: "relu3_1/dw"
  type: "ReLU"
  bottom: "conv3_1/dw"
  top: "conv3_1/dw"
}
layer {
  name: "conv3_1/sep"
  type: "Convolution"
  bottom: "conv3_1/dw"
  top: "conv3_1/sep"
  param {
    lr_mult: 1
    decay_mult: 1
  }
  convolution_param {
    num_output: 128
    bias_term: false
    pad: 0
    kernel_size: 1
    stride: 1
    weight_filler {
      type: "msra"
    }
  }
}
layer {
  name: "conv3_1/sep/bn"
  type: "BatchNorm"
  bottom: "conv3_1/sep"
  top: "conv3_1/sep"
  batch_norm_param {
    use_global_stats: true
    eps: 1e-05
  }
}
layer {
  name: "conv3_1/sep/scale"
  type: "Scale"
  bottom: "conv3_1/sep"
  top: "conv3_1/sep"
  param {
    lr_mult: 1
    decay_mult: 0
  }
  param {
    lr_mult: 1
    decay_mult: 0
  }
  scale_param {
    filler {
      type: "constant"
      value: 1
    }
    bias_term: true
    bias_filler {
      type: "constant"
      value: 0
    }
  }
}
layer {
  name: "relu3_1/sep"
  type: "ReLU"
  bottom: "conv3_1/sep"
  top: "conv3_1/sep"
}
layer {
  name: "conv3_2/dw"
  type: "Convolution"
  bottom: "conv3_1/sep"
  top: "conv3_2/dw"
  param {
    lr_mult: 1
    decay_mult: 1
  }
  convolution_param {
    num_output: 128
    bias_term: false
    pad: 1
    kernel_size: 3
    group: 128
    stride: 2
    weight_filler {
      type: "msra"
    }
    engine: CAFFE
  }
}
layer {
  name: "conv3_2/dw/bn"
  type: "BatchNorm"
  bottom: "conv3_2/dw"
  top: "conv3_2/dw"
  batch_norm_param {
    use_global_stats: true
    eps: 1e-05
  }
}
layer {
  name: "conv3_2/dw/scale"
  type: "Scale"
  bottom: "conv3_2/dw"
  top: "conv3_2/dw"
  param {
    lr_mult: 1
    decay_mult: 0
  }
  param {
    lr_mult: 1
    decay_mult: 0
  }
  scale_param {
    filler {
      type: "constant"
      value: 1
    }
    bias_term: true
    bias_filler {
      type: "constant"
      value: 0
    }
  }
}
layer {
  name: "relu3_2/dw"
  type: "ReLU"
  bottom: "conv3_2/dw"
  top: "conv3_2/dw"
}
layer {
  name: "conv3_2/sep"
  type: "Convolution"
  bottom: "conv3_2/dw"
  top: "conv3_2/sep"
  param {
    lr_mult: 1
    decay_mult: 1
  }
  convolution_param {
    num_output: 256
    bias_term: false
    pad: 0
    kernel_size: 1
    stride: 1
    weight_filler {
      type: "msra"
    }
  }
}
layer {
  name: "conv3_2/sep/bn"
  type: "BatchNorm"
  bottom: "conv3_2/sep"
  top: "conv3_2/sep"
  batch_norm_param {
    use_global_stats: true
    eps: 1e-05
  }
}
layer {
  name: "conv3_2/sep/scale"
  type: "Scale"
  bottom: "conv3_2/sep"
  top: "conv3_2/sep"
  param {
    lr_mult: 1
    decay_mult: 0
  }
  param {
    lr_mult: 1
    decay_mult: 0
  }
  scale_param {
    filler {
      type: "constant"
      value: 1
    }
    bias_term: true
    bias_filler {
      type: "constant"
      value: 0
    }
  }
}
layer {
  name: "relu3_2/sep"
  type: "ReLU"
  bottom: "conv3_2/sep"
  top: "conv3_2/sep"
}
layer {
  name: "conv4_1/dw"
  type: "Convolution"
  bottom: "conv3_2/sep"
  top: "conv4_1/dw"
  param {
    lr_mult: 1
    decay_mult: 1
  }
  convolution_param {
    num_output: 256
    bias_term: false
    pad: 1
    kernel_size: 3
    group: 256
    stride: 1
    weight_filler {
      type: "msra"
    }
    engine: CAFFE
  }
}
layer {
  name: "conv4_1/dw/bn"
  type: "BatchNorm"
  bottom: "conv4_1/dw"
  top: "conv4_1/dw"
  batch_norm_param {
    use_global_stats: true
    eps: 1e-05
  }
}
layer {
  name: "conv4_1/dw/scale"
  type: "Scale"
  bottom: "conv4_1/dw"
  top: "conv4_1/dw"
  param {
    lr_mult: 1
    decay_mult: 0
  }
  param {
    lr_mult: 1
    decay_mult: 0
  }
  scale_param {
    filler {
      type: "constant"
      value: 1
    }
    bias_term: true
    bias_filler {
      type: "constant"
      value: 0
    }
  }
}
layer {
  name: "relu4_1/dw"
  type: "ReLU"
  bottom: "conv4_1/dw"
  top: "conv4_1/dw"
}
layer {
  name: "conv4_1/sep"
  type: "Convolution"
  bottom: "conv4_1/dw"
  top: "conv4_1/sep"
  param {
    lr_mult: 1
    decay_mult: 1
  }
  convolution_param {
    num_output: 256
    bias_term: false
    pad: 0
    kernel_size: 1
    stride: 1
    weight_filler {
      type: "msra"
    }
  }
}
layer {
  name: "conv4_1/sep/bn"
  type: "BatchNorm"
  bottom: "conv4_1/sep"
  top: "conv4_1/sep"
  batch_norm_param {
    use_global_stats: true
    eps: 1e-05
  }
}
layer {
  name: "conv4_1/sep/scale"
  type: "Scale"
  bottom: "conv4_1/sep"
  top: "conv4_1/sep"
  param {
    lr_mult: 1
    decay_mult: 0
  }
  param {
    lr_mult: 1
    decay_mult: 0
  }
  scale_param {
    filler {
      type: "constant"
      value: 1
    }
    bias_term: true
    bias_filler {
      type: "constant"
      value: 0
    }
  }
}
layer {
  name: "relu4_1/sep"
  type: "ReLU"
  bottom: "conv4_1/sep"
  top: "conv4_1/sep"
}
layer {
  name: "conv4_2/dw"
  type: "Convolution"
  bottom: "conv4_1/sep"
  top: "conv4_2/dw"
  param {
    lr_mult: 1
    decay_mult: 1
  }
  convolution_param {
    num_output: 256
    bias_term: false
    pad: 1
    kernel_size: 3
    group: 256
    stride: 2
    weight_filler {
      type: "msra"
    }
    engine: CAFFE
  }
}
layer {
  name: "conv4_2/dw/bn"
  type: "BatchNorm"
  bottom: "conv4_2/dw"
  top: "conv4_2/dw"
  batch_norm_param {
    use_global_stats: true
    eps: 1e-05
  }
}
layer {
  name: "conv4_2/dw/scale"
  type: "Scale"
  bottom: "conv4_2/dw"
  top: "conv4_2/dw"
  param {
    lr_mult: 1
    decay_mult: 0
  }
  param {
    lr_mult: 1
    decay_mult: 0
  }
  scale_param {
    filler {
      type: "constant"
      value: 1
    }
    bias_term: true
    bias_filler {
      type: "constant"
      value: 0
    }
  }
}
layer {
  name: "relu4_2/dw"
  type: "ReLU"
  bottom: "conv4_2/dw"
  top: "conv4_2/dw"
}
layer {
  name: "conv4_2/sep"
  type: "Convolution"
  bottom: "conv4_2/dw"
  top: "conv4_2/sep"
  param {
    lr_mult: 1
    decay_mult: 1
  }
  convolution_param {
    num_output: 512
    bias_term: false
    pad: 0
    kernel_size: 1
    stride: 1
    weight_filler {
      type: "msra"
    }
  }
}
layer {
  name: "conv4_2/sep/bn"
  type: "BatchNorm"
  bottom: "conv4_2/sep"
  top: "conv4_2/sep"
  batch_norm_param {
    use_global_stats: true
    eps: 1e-05
  }
}
layer {
  name: "conv4_2/sep/scale"
  type: "Scale"
  bottom: "conv4_2/sep"
  top: "conv4_2/sep"
  param {
    lr_mult: 1
    decay_mult: 0
  }
  param {
    lr_mult: 1
    decay_mult: 0
  }
  scale_param {
    filler {
      type: "constant"
      value: 1
    }
    bias_term: true
    bias_filler {
      type: "constant"
      value: 0
    }
  }
}
layer {
  name: "relu4_2/sep"
  type: "ReLU"
  bottom: "conv4_2/sep"
  top: "conv4_2/sep"
}
layer {
  name: "conv5_1/dw"
  type: "Convolution"
  bottom: "conv4_2/sep"
  top: "conv5_1/dw"
  param {
    lr_mult: 1
    decay_mult: 1
  }
  convolution_param {
    num_output: 512
    bias_term: false
    pad: 1
    kernel_size: 3
    group: 512
    stride: 1
    weight_filler {
      type: "msra"
    }
    engine: CAFFE
  }
}
layer {
  name: "conv5_1/dw/bn"
  type: "BatchNorm"
  bottom: "conv5_1/dw"
  top: "conv5_1/dw"
  batch_norm_param {
    use_global_stats: true
    eps: 1e-05
  }
}
layer {
  name: "conv5_1/dw/scale"
  type: "Scale"
  bottom: "conv5_1/dw"
  top: "conv5_1/dw"
  param {
    lr_mult: 1
    decay_mult: 0
  }
  param {
    lr_mult: 1
    decay_mult: 0
  }
  scale_param {
    filler {
      type: "constant"
      value: 1
    }
    bias_term: true
    bias_filler {
      type: "constant"
      value: 0
    }
  }
}
layer {
  name: "relu5_1/dw"
  type: "ReLU"
  bottom: "conv5_1/dw"
  top: "conv5_1/dw"
}
layer {
  name: "conv5_1/sep"
  type: "Convolution"
  bottom: "conv5_1/dw"
  top: "conv5_1/sep"
  param {
    lr_mult: 1
    decay_mult: 1
  }
  convolution_param {
    num_output: 512
    bias_term: false
    pad: 0
    kernel_size: 1
    stride: 1
    weight_filler {
      type: "msra"
    }
  }
}
layer {
  name: "conv5_1/sep/bn"
  type: "BatchNorm"
  bottom: "conv5_1/sep"
  top: "conv5_1/sep"
  batch_norm_param {
    use_global_stats: true
    eps: 1e-05
  }
}
layer {
  name: "conv5_1/sep/scale"
  type: "Scale"
  bottom: "conv5_1/sep"
  top: "conv5_1/sep"
  param {
    lr_mult: 1
    decay_mult: 0
  }
  param {
    lr_mult: 1
    decay_mult: 0
  }
  scale_param {
    filler {
      type: "constant"
      value: 1
    }
    bias_term: true
    bias_filler {
      type: "constant"
      value: 0
    }
  }
}
layer {
  name: "relu5_1/sep"
  type: "ReLU"
  bottom: "conv5_1/sep"
  top: "conv5_1/sep"
}
layer {
  name: "conv5_2/dw"
  type: "Convolution"
  bottom: "conv5_1/sep"
  top: "conv5_2/dw"
  param {
    lr_mult: 1
    decay_mult: 1
  }
  convolution_param {
    num_output: 512
    bias_term: false
    pad: 1
    kernel_size: 3
    group: 512
    stride: 1
    weight_filler {
      type: "msra"
    }
    engine: CAFFE
  }
}
layer {
  name: "conv5_2/dw/bn"
  type: "BatchNorm"
  bottom: "conv5_2/dw"
  top: "conv5_2/dw"
  batch_norm_param {
    use_global_stats: true
    eps: 1e-05
  }
}
layer {
  name: "conv5_2/dw/scale"
  type: "Scale"
  bottom: "conv5_2/dw"
  top: "conv5_2/dw"
  param {
    lr_mult: 1
    decay_mult: 0
  }
  param {
    lr_mult: 1
    decay_mult: 0
  }
  scale_param {
    filler {
      type: "constant"
      value: 1
    }
    bias_term: true
    bias_filler {
      type: "constant"
      value: 0
    }
  }
}
layer {
  name: "relu5_2/dw"
  type: "ReLU"
  bottom: "conv5_2/dw"
  top: "conv5_2/dw"
}
layer {
  name: "conv5_2/sep"
  type: "Convolution"
  bottom: "conv5_2/dw"
  top: "conv5_2/sep"
  param {
    lr_mult: 1
    decay_mult: 1
  }
  convolution_param {
    num_output: 512
    bias_term: false
    pad: 0
    kernel_size: 1
    stride: 1
    weight_filler {
      type: "msra"
    }
  }
}
layer {
  name: "conv5_2/sep/bn"
  type: "BatchNorm"
  bottom: "conv5_2/sep"
  top: "conv5_2/sep"
  batch_norm_param {
    use_global_stats: true
    eps: 1e-05
  }
}
layer {
  name: "conv5_2/sep/scale"
  type: "Scale"
  bottom: "conv5_2/sep"
  top: "conv5_2/sep"
  param {
    lr_mult: 1
    decay_mult: 0
  }
  param {
    lr_mult: 1
    decay_mult: 0
  }
  scale_param {
    filler {
      type: "constant"
      value: 1
    }
    bias_term: true
    bias_filler {
      type: "constant"
      value: 0
    }
  }
}
layer {
  name: "relu5_2/sep"
  type: "ReLU"
  bottom: "conv5_2/sep"
  top: "conv5_2/sep"
}
layer {
  name: "conv5_3/dw"
  type: "Convolution"
  bottom: "conv5_2/sep"
  top: "conv5_3/dw"
  param {
    lr_mult: 1
    decay_mult: 1
  }
  convolution_param {
    num_output: 512
    bias_term: false
    pad: 1
    kernel_size: 3
    group: 512
    stride: 1
    weight_filler {
      type: "msra"
    }
    engine: CAFFE
  }
}
layer {
  name: "conv5_3/dw/bn"
  type: "BatchNorm"
  bottom: "conv5_3/dw"
  top: "conv5_3/dw"
  batch_norm_param {
    use_global_stats: true
    eps: 1e-05
  }
}
layer {
  name: "conv5_3/dw/scale"
  type: "Scale"
  bottom: "conv5_3/dw"
  top: "conv5_3/dw"
  param {
    lr_mult: 1
    decay_mult: 0
  }
  param {
    lr_mult: 1
    decay_mult: 0
  }
  scale_param {
    filler {
      type: "constant"
      value: 1
    }
    bias_term: true
    bias_filler {
      type: "constant"
      value: 0
    }
  }
}
layer {
  name: "relu5_3/dw"
  type: "ReLU"
  bottom: "conv5_3/dw"
  top: "conv5_3/dw"
}
layer {
  name: "conv5_3/sep"
  type: "Convolution"
  bottom: "conv5_3/dw"
  top: "conv5_3/sep"
  param {
    lr_mult: 1
    decay_mult: 1
  }
  convolution_param {
    num_output: 512
    bias_term: false
    pad: 0
    kernel_size: 1
    stride: 1
    weight_filler {
      type: "msra"
    }
  }
}
layer {
  name: "conv5_3/sep/bn"
  type: "BatchNorm"
  bottom: "conv5_3/sep"
  top: "conv5_3/sep"
  batch_norm_param {
    use_global_stats: true
    eps: 1e-05
  }
}
layer {
  name: "conv5_3/sep/scale"
  type: "Scale"
  bottom: "conv5_3/sep"
  top: "conv5_3/sep"
  param {
    lr_mult: 1
    decay_mult: 0
  }
  param {
    lr_mult: 1
    decay_mult: 0
  }
  scale_param {
    filler {
      type: "constant"
      value: 1
    }
    bias_term: true
    bias_filler {
      type: "constant"
      value: 0
    }
  }
}
layer {
  name: "relu5_3/sep"
  type: "ReLU"
  bottom: "conv5_3/sep"
  top: "conv5_3/sep"
}
layer {
  name: "conv5_4/dw"
  type: "Convolution"
  bottom: "conv5_3/sep"
  top: "conv5_4/dw"
  param {
    lr_mult: 1
    decay_mult: 1
  }
  convolution_param {
    num_output: 512
    bias_term: false
    pad: 1
    kernel_size: 3
    group: 512
    stride: 1
    weight_filler {
      type: "msra"
    }
    engine: CAFFE
  }
}
layer {
  name: "conv5_4/dw/bn"
  type: "BatchNorm"
  bottom: "conv5_4/dw"
  top: "conv5_4/dw"
  batch_norm_param {
    use_global_stats: true
    eps: 1e-05
  }
}
layer {
  name: "conv5_4/dw/scale"
  type: "Scale"
  bottom: "conv5_4/dw"
  top: "conv5_4/dw"
  param {
    lr_mult: 1
    decay_mult: 0
  }
  param {
    lr_mult: 1
    decay_mult: 0
  }
  scale_param {
    filler {
      type: "constant"
      value: 1
    }
    bias_term: true
    bias_filler {
      type: "constant"
      value: 0
    }
  }
}
layer {
  name: "relu5_4/dw"
  type: "ReLU"
  bottom: "conv5_4/dw"
  top: "conv5_4/dw"
}
layer {
  name: "conv5_4/sep"
  type: "Convolution"
  bottom: "conv5_4/dw"
  top: "conv5_4/sep"
  param {
    lr_mult: 1
    decay_mult: 1
  }
  convolution_param {
    num_output: 512
    bias_term: false
    pad: 0
    kernel_size: 1
    stride: 1
    weight_filler {
      type: "msra"
    }
  }
}
layer {
  name: "conv5_4/sep/bn"
  type: "BatchNorm"
  bottom: "conv5_4/sep"
  top: "conv5_4/sep"
  batch_norm_param {
    use_global_stats: true
    eps: 1e-05
  }
}
layer {
  name: "conv5_4/sep/scale"
  type: "Scale"
  bottom: "conv5_4/sep"
  top: "conv5_4/sep"
  param {
    lr_mult: 1
    decay_mult: 0
  }
  param {
    lr_mult: 1
    decay_mult: 0
  }
  scale_param {
    filler {
      type: "constant"
      value: 1
    }
    bias_term: true
    bias_filler {
      type: "constant"
      value: 0
    }
  }
}
layer {
  name: "relu5_4/sep"
  type: "ReLU"
  bottom: "conv5_4/sep"
  top: "conv5_4/sep"
}
layer {
  name: "conv5_5/dw"
  type: "Convolution"
  bottom: "conv5_4/sep"
  top: "conv5_5/dw"
  param {
    lr_mult: 1
    decay_mult: 1
  }
  convolution_param {
    num_output: 512
    bias_term: false
    pad: 1
    kernel_size: 3
    group: 512
    stride: 1
    weight_filler {
      type: "msra"
    }
    engine: CAFFE
  }
}
layer {
  name: "conv5_5/dw/bn"
  type: "BatchNorm"
  bottom: "conv5_5/dw"
  top: "conv5_5/dw"
  batch_norm_param {
    use_global_stats: true
    eps: 1e-05
  }
}
layer {
  name: "conv5_5/dw/scale"
  type: "Scale"
  bottom: "conv5_5/dw"
  top: "conv5_5/dw"
  param {
    lr_mult: 1
    decay_mult: 0
  }
  param {
    lr_mult: 1
    decay_mult: 0
  }
  scale_param {
    filler {
      type: "constant"
      value: 1
    }
    bias_term: true
    bias_filler {
      type: "constant"
      value: 0
    }
  }
}
layer {
  name: "relu5_5/dw"
  type: "ReLU"
  bottom: "conv5_5/dw"
  top: "conv5_5/dw"
}
layer {
  name: "conv5_5/sep"
  type: "Convolution"
  bottom: "conv5_5/dw"
  top: "conv5_5/sep"
  param {
    lr_mult: 1
    decay_mult: 1
  }
  convolution_param {
    num_output: 512
    bias_term: false
    pad: 0
    kernel_size: 1
    stride: 1
    weight_filler {
      type: "msra"
    }
  }
}
layer {
  name: "conv5_5/sep/bn"
  type: "BatchNorm"
  bottom: "conv5_5/sep"
  top: "conv5_5/sep"
  batch_norm_param {
    use_global_stats: true
    eps: 1e-05
  }
}
layer {
  name: "conv5_5/sep/scale"
  type: "Scale"
  bottom: "conv5_5/sep"
  top: "conv5_5/sep"
  param {
    lr_mult: 1
    decay_mult: 0
  }
  param {
    lr_mult: 1
    decay_mult: 0
  }
  scale_param {
    filler {
      type: "constant"
      value: 1
    }
    bias_term: true
    bias_filler {
      type: "constant"
      value: 0
    }
  }
}
layer {
  name: "relu5_5/sep"
  type: "ReLU"
  bottom: "conv5_5/sep"
  top: "conv5_5/sep"
}
layer {
  name: "conv5_6/dw"
  type: "Convolution"
  bottom: "conv5_5/sep"
  top: "conv5_6/dw"
  param {
    lr_mult: 1
    decay_mult: 1
  }
  convolution_param {
    num_output: 512
    bias_term: false
    pad: 1
    kernel_size: 3
    group: 512
    stride: 2
    weight_filler {
      type: "msra"
    }
    engine: CAFFE
  }
}
layer {
  name: "conv5_6/dw/bn"
  type: "BatchNorm"
  bottom: "conv5_6/dw"
  top: "conv5_6/dw"
  batch_norm_param {
    use_global_stats: true
    eps: 1e-05
  }
}
layer {
  name: "conv5_6/dw/scale"
  type: "Scale"
  bottom: "conv5_6/dw"
  top: "conv5_6/dw"
  param {
    lr_mult: 1
    decay_mult: 0
  }
  param {
    lr_mult: 1
    decay_mult: 0
  }
  scale_param {
    filler {
      type: "constant"
      value: 1
    }
    bias_term: true
    bias_filler {
      type: "constant"
      value: 0
    }
  }
}
layer {
  name: "relu5_6/dw"
  type: "ReLU"
  bottom: "conv5_6/dw"
  top: "conv5_6/dw"
}
layer {
  name: "conv5_6/sep"
  type: "Convolution"
  bottom: "conv5_6/dw"
  top: "conv5_6/sep"
  param {
    lr_mult: 1
    decay_mult: 1
  }
  convolution_param {
    num_output: 1024
    bias_term: false
    pad: 0
    kernel_size: 1
    stride: 1
    weight_filler {
      type: "msra"
    }
  }
}
layer {
  name: "conv5_6/sep/bn"
  type: "BatchNorm"
  bottom: "conv5_6/sep"
  top: "conv5_6/sep"
  batch_norm_param {
    use_global_stats: true
    eps: 1e-05
  }
}
layer {
  name: "conv5_6/sep/scale"
  type: "Scale"
  bottom: "conv5_6/sep"
  top: "conv5_6/sep"
  param {
    lr_mult: 1
    decay_mult: 0
  }
  param {
    lr_mult: 1
    decay_mult: 0
  }
  scale_param {
    filler {
      type: "constant"
      value: 1
    }
    bias_term: true
    bias_filler {
      type: "constant"
      value: 0
    }
  }
}
layer {
  name: "relu5_6/sep"
  type: "ReLU"
  bottom: "conv5_6/sep"
  top: "conv5_6/sep"
}
layer {
  name: "conv6/dw"
  type: "Convolution"
  bottom: "conv5_6/sep"
  top: "conv6/dw"
  param {
    lr_mult: 1
    decay_mult: 1
  }
  convolution_param {
    num_output: 1024
    bias_term: false
    pad: 1
    kernel_size: 3
    group: 1024
    stride: 1
    weight_filler {
      type: "msra"
    }
    engine: CAFFE
  }
}
layer {
  name: "conv6/dw/bn"
  type: "BatchNorm"
  bottom: "conv6/dw"
  top: "conv6/dw"
  batch_norm_param {
    use_global_stats: true
    eps: 1e-05
  }
}
layer {
  name: "conv6/dw/scale"
  type: "Scale"
  bottom: "conv6/dw"
  top: "conv6/dw"
  param {
    lr_mult: 1
    decay_mult: 0
  }
  param {
    lr_mult: 1
    decay_mult: 0
  }
  scale_param {
    filler {
      type: "constant"
      value: 1
    }
    bias_term: true
    bias_filler {
      type: "constant"
      value: 0
    }
  }
}
layer {
  name: "relu6/dw"
  type: "ReLU"
  bottom: "conv6/dw"
  top: "conv6/dw"
}
layer {
  name: "conv6/sep"
  type: "Convolution"
  bottom: "conv6/dw"
  top: "conv6/sep"
  param {
    lr_mult: 1
    decay_mult: 1
  }
  convolution_param {
    num_output: 1024
    bias_term: false
    pad: 0
    kernel_size: 1
    stride: 1
    weight_filler {
      type: "msra"
    }
  }
}
layer {
  name: "conv6/sep/bn"
  type: "BatchNorm"
  bottom: "conv6/sep"
  top: "conv6/sep"
  batch_norm_param {
    use_global_stats: true
    eps: 1e-05
  }
}
layer {
  name: "conv6/sep/scale"
  type: "Scale"
  bottom: "conv6/sep"
  top: "conv6/sep"
  param {
    lr_mult: 1
    decay_mult: 0
  }
  param {
    lr_mult: 1
    decay_mult: 0
  }
  scale_param {
    filler {
      type: "constant"
      value: 1
    }
    bias_term: true
    bias_filler {
      type: "constant"
      value: 0
    }
  }
}
layer {
  name: "relu6/sep"
  type: "ReLU"
  bottom: "conv6/sep"
  top: "conv6/sep"
}
layer {
  name: "ssd1_1"
  type: "Convolution"
  bottom: "conv6/sep"
  top: "ssd1_1"
  param {
    lr_mult: 1
    decay_mult: 1
  }
  param {
    lr_mult: 2
    decay_mult: 0
  }
  convolution_param {
    num_output: 256
    pad: 0
    kernel_size: 1
    stride: 1
    weight_filler {
      type: "xavier"
    }
    bias_filler {
      type: "constant"
      value: 0
    }
  }
}
layer {
  name: "ssd1_1_relu"
  type: "ReLU"
  bottom: "ssd1_1"
  top: "ssd1_1"
}
layer {
  name: "ssd1_2"
  type: "Convolution"
  bottom: "ssd1_1"
  top: "ssd1_2"
  param {
    lr_mult: 1
    decay_mult: 1
  }
  param {
    lr_mult: 2
    decay_mult: 0
  }
  convolution_param {
    num_output: 512
    pad: 1
    kernel_size: 3
    stride: 2
    weight_filler {
      type: "xavier"
    }
    bias_filler {
      type: "constant"
      value: 0
    }
  }
}
layer {
  name: "ssd1_2_relu"
  type: "ReLU"
  bottom: "ssd1_2"
  top: "ssd1_2"
}
layer {
  name: "ssd2_1"
  type: "Convolution"
  bottom: "ssd1_2"
  top: "ssd2_1"
  param {
    lr_mult: 1
    decay_mult: 1
  }
  param {
    lr_mult: 2
    decay_mult: 0
  }
  convolution_param {
    num_output: 128
    pad: 0
    kernel_size: 1
    stride: 1
    weight_filler {
      type: "xavier"
    }
    bias_filler {
      type: "constant"
      value: 0
    }
  }
}
layer {
  name: "ssd2_1_relu"
  type: "ReLU"
  bottom: "ssd2_1"
  top: "ssd2_1"
}
layer {
  name: "ssd2_2"
  type: "Convolution"
  bottom: "ssd2_1"
  top: "ssd2_2"
  param {
    lr_mult: 1
    decay_mult: 1
  }
  param {
    lr_mult: 2
    decay_mult: 0
  }
  convolution_param {
    num_output: 256
    pad: 1
    kernel_size: 3
    stride: 2
    weight_filler {
      type: "xavier"
    }
    bias_filler {
      type: "constant"
      value: 0
    }
  }
}
layer {
  name: "ssd2_2_relu"
  type: "ReLU"
  bottom: "ssd2_2"
  top: "ssd2_2"
}
layer {
  name: "ssd3_1"
  type: "Convolution"
  bottom: "ssd2_2"
  top: "ssd3_1"
  param {
    lr_mult: 1
    decay_mult: 1
  }
  param {
    lr_mult: 2
    decay_mult: 0
  }
  convolution_param {
    num_output: 128
    pad: 0
    kernel_size: 1
    stride: 1
    weight_filler {
      type: "xavier"
    }
    bias_filler {
      type: "constant"
      value: 0
    }
  }
}
layer {
  name: "ssd3_1_relu"
  type: "ReLU"
  bottom: "ssd3_1"
  top: "ssd3_1"
}
layer {
  name: "ssd3_2"
  type: "Convolut
I0927 20:45:50.961241 30272 layer_factory.hpp:77] Creating layer data
I0927 20:45:50.961345 30272 net.cpp:100] Creating Layer data
I0927 20:45:50.961355 30272 net.cpp:408] data -> data
I0927 20:45:50.961381 30272 net.cpp:408] data -> label
I0927 20:45:50.961949 30280 db_lmdb.cpp:35] Opened lmdb examples/GTSDB/GTSDB_trainval_lmdb
I0927 20:45:50.974169 30272 annotated_data_layer.cpp:62] output data size: 1,3,300,510
I0927 20:45:50.976801 30272 net.cpp:150] Setting up data
I0927 20:45:50.976821 30272 net.cpp:157] Top shape: 1 3 300 510 (459000)
I0927 20:45:50.976825 30272 net.cpp:157] Top shape: 1 1 3 8 (24)
I0927 20:45:50.976827 30272 net.cpp:165] Memory required for data: 1836096
I0927 20:45:50.976837 30272 layer_factory.hpp:77] Creating layer data_data_0_split
I0927 20:45:50.976850 30272 net.cpp:100] Creating Layer data_data_0_split
I0927 20:45:50.976853 30272 net.cpp:434] data_data_0_split <- data
I0927 20:45:50.976866 30272 net.cpp:408] data_data_0_split -> data_data_0_split_0
I0927 20:45:50.976878 30272 net.cpp:408] data_data_0_split -> data_data_0_split_1
I0927 20:45:50.976886 30272 net.cpp:408] data_data_0_split -> data_data_0_split_2
I0927 20:45:50.976892 30272 net.cpp:408] data_data_0_split -> data_data_0_split_3
I0927 20:45:50.976899 30272 net.cpp:408] data_data_0_split -> data_data_0_split_4
I0927 20:45:50.976907 30272 net.cpp:408] data_data_0_split -> data_data_0_split_5
I0927 20:45:50.976912 30272 net.cpp:408] data_data_0_split -> data_data_0_split_6
I0927 20:45:50.976984 30272 net.cpp:150] Setting up data_data_0_split
I0927 20:45:50.976990 30272 net.cpp:157] Top shape: 1 3 300 510 (459000)
I0927 20:45:50.976995 30272 net.cpp:157] Top shape: 1 3 300 510 (459000)
I0927 20:45:50.977000 30272 net.cpp:157] Top shape: 1 3 300 510 (459000)
I0927 20:45:50.977005 30272 net.cpp:157] Top shape: 1 3 300 510 (459000)
I0927 20:45:50.977008 30272 net.cpp:157] Top shape: 1 3 300 510 (459000)
I0927 20:45:50.977013 30272 net.cpp:157] Top shape: 1 3 300 510 (459000)
I0927 20:45:50.977018 30272 net.cpp:157] Top shape: 1 3 300 510 (459000)
I0927 20:45:50.977021 30272 net.cpp:165] Memory required for data: 14688096
I0927 20:45:50.977025 30272 layer_factory.hpp:77] Creating layer conv1
I0927 20:45:50.977037 30272 net.cpp:100] Creating Layer conv1
I0927 20:45:50.977041 30272 net.cpp:434] conv1 <- data_data_0_split_0
I0927 20:45:50.977046 30272 net.cpp:408] conv1 -> conv1
I0927 20:45:51.299204 30272 net.cpp:150] Setting up conv1
I0927 20:45:51.299221 30272 net.cpp:157] Top shape: 1 32 150 255 (1224000)
I0927 20:45:51.299223 30272 net.cpp:165] Memory required for data: 19584096
I0927 20:45:51.299239 30272 layer_factory.hpp:77] Creating layer conv1/bn
I0927 20:45:51.299247 30272 net.cpp:100] Creating Layer conv1/bn
I0927 20:45:51.299250 30272 net.cpp:434] conv1/bn <- conv1
I0927 20:45:51.299254 30272 net.cpp:395] conv1/bn -> conv1 (in-place)
I0927 20:45:51.299829 30272 net.cpp:150] Setting up conv1/bn
I0927 20:45:51.299835 30272 net.cpp:157] Top shape: 1 32 150 255 (1224000)
I0927 20:45:51.299839 30272 net.cpp:165] Memory required for data: 24480096
I0927 20:45:51.299845 30272 layer_factory.hpp:77] Creating layer conv1/scale
I0927 20:45:51.299852 30272 net.cpp:100] Creating Layer conv1/scale
I0927 20:45:51.299854 30272 net.cpp:434] conv1/scale <- conv1
I0927 20:45:51.299860 30272 net.cpp:395] conv1/scale -> conv1 (in-place)
I0927 20:45:51.299887 30272 layer_factory.hpp:77] Creating layer conv1/scale
I0927 20:45:51.299978 30272 net.cpp:150] Setting up conv1/scale
I0927 20:45:51.299981 30272 net.cpp:157] Top shape: 1 32 150 255 (1224000)
I0927 20:45:51.299983 30272 net.cpp:165] Memory required for data: 29376096
I0927 20:45:51.299988 30272 layer_factory.hpp:77] Creating layer relu1
I0927 20:45:51.299990 30272 net.cpp:100] Creating Layer relu1
I0927 20:45:51.299993 30272 net.cpp:434] relu1 <- conv1
I0927 20:45:51.299996 30272 net.cpp:395] relu1 -> conv1 (in-place)
I0927 20:45:51.300273 30272 net.cpp:150] Setting up relu1
I0927 20:45:51.300278 30272 net.cpp:157] Top shape: 1 32 150 255 (1224000)
I0927 20:45:51.300281 30272 net.cpp:165] Memory required for data: 34272096
I0927 20:45:51.300283 30272 layer_factory.hpp:77] Creating layer conv2_1/dw
I0927 20:45:51.300289 30272 net.cpp:100] Creating Layer conv2_1/dw
I0927 20:45:51.300292 30272 net.cpp:434] conv2_1/dw <- conv1
I0927 20:45:51.300295 30272 net.cpp:408] conv2_1/dw -> conv2_1/dw
I0927 20:45:51.300420 30272 net.cpp:150] Setting up conv2_1/dw
I0927 20:45:51.300423 30272 net.cpp:157] Top shape: 1 32 150 255 (1224000)
I0927 20:45:51.300426 30272 net.cpp:165] Memory required for data: 39168096
I0927 20:45:51.300427 30272 layer_factory.hpp:77] Creating layer conv2_1/dw/bn
I0927 20:45:51.300431 30272 net.cpp:100] Creating Layer conv2_1/dw/bn
I0927 20:45:51.300433 30272 net.cpp:434] conv2_1/dw/bn <- conv2_1/dw
I0927 20:45:51.300436 30272 net.cpp:395] conv2_1/dw/bn -> conv2_1/dw (in-place)
I0927 20:45:51.300554 30272 net.cpp:150] Setting up conv2_1/dw/bn
I0927 20:45:51.300559 30272 net.cpp:157] Top shape: 1 32 150 255 (1224000)
I0927 20:45:51.300560 30272 net.cpp:165] Memory required for data: 44064096
I0927 20:45:51.300565 30272 layer_factory.hpp:77] Creating layer conv2_1/dw/scale
I0927 20:45:51.300570 30272 net.cpp:100] Creating Layer conv2_1/dw/scale
I0927 20:45:51.300572 30272 net.cpp:434] conv2_1/dw/scale <- conv2_1/dw
I0927 20:45:51.300575 30272 net.cpp:395] conv2_1/dw/scale -> conv2_1/dw (in-place)
I0927 20:45:51.300596 30272 layer_factory.hpp:77] Creating layer conv2_1/dw/scale
I0927 20:45:51.300679 30272 net.cpp:150] Setting up conv2_1/dw/scale
I0927 20:45:51.300694 30272 net.cpp:157] Top shape: 1 32 150 255 (1224000)
I0927 20:45:51.300695 30272 net.cpp:165] Memory required for data: 48960096
I0927 20:45:51.300699 30272 layer_factory.hpp:77] Creating layer relu2_1/dw
I0927 20:45:51.300703 30272 net.cpp:100] Creating Layer relu2_1/dw
I0927 20:45:51.300704 30272 net.cpp:434] relu2_1/dw <- conv2_1/dw
I0927 20:45:51.300706 30272 net.cpp:395] relu2_1/dw -> conv2_1/dw (in-place)
I0927 20:45:51.301074 30272 net.cpp:150] Setting up relu2_1/dw
I0927 20:45:51.301080 30272 net.cpp:157] Top shape: 1 32 150 255 (1224000)
I0927 20:45:51.301082 30272 net.cpp:165] Memory required for data: 53856096
I0927 20:45:51.301084 30272 layer_factory.hpp:77] Creating layer conv2_1/sep
I0927 20:45:51.301090 30272 net.cpp:100] Creating Layer conv2_1/sep
I0927 20:45:51.301091 30272 net.cpp:434] conv2_1/sep <- conv2_1/dw
I0927 20:45:51.301095 30272 net.cpp:408] conv2_1/sep -> conv2_1/sep
I0927 20:45:51.302559 30272 net.cpp:150] Setting up conv2_1/sep
I0927 20:45:51.302567 30272 net.cpp:157] Top shape: 1 64 150 255 (2448000)
I0927 20:45:51.302568 30272 net.cpp:165] Memory required for data: 63648096
I0927 20:45:51.302572 30272 layer_factory.hpp:77] Creating layer conv2_1/sep/bn
I0927 20:45:51.302577 30272 net.cpp:100] Creating Layer conv2_1/sep/bn
I0927 20:45:51.302578 30272 net.cpp:434] conv2_1/sep/bn <- conv2_1/sep
I0927 20:45:51.302580 30272 net.cpp:395] conv2_1/sep/bn -> conv2_1/sep (in-place)
I0927 20:45:51.302708 30272 net.cpp:150] Setting up conv2_1/sep/bn
I0927 20:45:51.302712 30272 net.cpp:157] Top shape: 1 64 150 255 (2448000)
I0927 20:45:51.302714 30272 net.cpp:165] Memory required for data: 73440096
I0927 20:45:51.302718 30272 layer_factory.hpp:77] Creating layer conv2_1/sep/scale
I0927 20:45:51.302721 30272 net.cpp:100] Creating Layer conv2_1/sep/scale
I0927 20:45:51.302723 30272 net.cpp:434] conv2_1/sep/scale <- conv2_1/sep
I0927 20:45:51.302726 30272 net.cpp:395] conv2_1/sep/scale -> conv2_1/sep (in-place)
I0927 20:45:51.302748 30272 layer_factory.hpp:77] Creating layer conv2_1/sep/scale
I0927 20:45:51.302836 30272 net.cpp:150] Setting up conv2_1/sep/scale
I0927 20:45:51.302839 30272 net.cpp:157] Top shape: 1 64 150 255 (2448000)
I0927 20:45:51.302841 30272 net.cpp:165] Memory required for data: 83232096
I0927 20:45:51.302848 30272 layer_factory.hpp:77] Creating layer relu2_1/sep
I0927 20:45:51.302851 30272 net.cpp:100] Creating Layer relu2_1/sep
I0927 20:45:51.302852 30272 net.cpp:434] relu2_1/sep <- conv2_1/sep
I0927 20:45:51.302855 30272 net.cpp:395] relu2_1/sep -> conv2_1/sep (in-place)
I0927 20:45:51.303122 30272 net.cpp:150] Setting up relu2_1/sep
I0927 20:45:51.303128 30272 net.cpp:157] Top shape: 1 64 150 255 (2448000)
I0927 20:45:51.303130 30272 net.cpp:165] Memory required for data: 93024096
I0927 20:45:51.303131 30272 layer_factory.hpp:77] Creating layer conv2_2/dw
I0927 20:45:51.303136 30272 net.cpp:100] Creating Layer conv2_2/dw
I0927 20:45:51.303138 30272 net.cpp:434] conv2_2/dw <- conv2_1/sep
I0927 20:45:51.303143 30272 net.cpp:408] conv2_2/dw -> conv2_2/dw
I0927 20:45:51.303264 30272 net.cpp:150] Setting up conv2_2/dw
I0927 20:45:51.303268 30272 net.cpp:157] Top shape: 1 64 75 128 (614400)
I0927 20:45:51.303270 30272 net.cpp:165] Memory required for data: 95481696
I0927 20:45:51.303273 30272 layer_factory.hpp:77] Creating layer conv2_2/dw/bn
I0927 20:45:51.303275 30272 net.cpp:100] Creating Layer conv2_2/dw/bn
I0927 20:45:51.303277 30272 net.cpp:434] conv2_2/dw/bn <- conv2_2/dw
I0927 20:45:51.303280 30272 net.cpp:395] conv2_2/dw/bn -> conv2_2/dw (in-place)
I0927 20:45:51.303818 30272 net.cpp:150] Setting up conv2_2/dw/bn
I0927 20:45:51.303824 30272 net.cpp:157] Top shape: 1 64 75 128 (614400)
I0927 20:45:51.303827 30272 net.cpp:165] Memory required for data: 97939296
I0927 20:45:51.303831 30272 layer_factory.hpp:77] Creating layer conv2_2/dw/scale
I0927 20:45:51.303838 30272 net.cpp:100] Creating Layer conv2_2/dw/scale
I0927 20:45:51.303839 30272 net.cpp:434] conv2_2/dw/scale <- conv2_2/dw
I0927 20:45:51.303843 30272 net.cpp:395] conv2_2/dw/scale -> conv2_2/dw (in-place)
I0927 20:45:51.303879 30272 layer_factory.hpp:77] Creating layer conv2_2/dw/scale
I0927 20:45:51.303946 30272 net.cpp:150] Setting up conv2_2/dw/scale
I0927 20:45:51.303949 30272 net.cpp:157] Top shape: 1 64 75 128 (614400)
I0927 20:45:51.303951 30272 net.cpp:165] Memory required for data: 100396896
I0927 20:45:51.303956 30272 layer_factory.hpp:77] Creating layer relu2_2/dw
I0927 20:45:51.303957 30272 net.cpp:100] Creating Layer relu2_2/dw
I0927 20:45:51.303959 30272 net.cpp:434] relu2_2/dw <- conv2_2/dw
I0927 20:45:51.303961 30272 net.cpp:395] relu2_2/dw -> conv2_2/dw (in-place)
I0927 20:45:51.304327 30272 net.cpp:150] Setting up relu2_2/dw
I0927 20:45:51.304333 30272 net.cpp:157] Top shape: 1 64 75 128 (614400)
I0927 20:45:51.304335 30272 net.cpp:165] Memory required for data: 102854496
I0927 20:45:51.304337 30272 layer_factory.hpp:77] Creating layer conv2_2/sep
I0927 20:45:51.304343 30272 net.cpp:100] Creating Layer conv2_2/sep
I0927 20:45:51.304344 30272 net.cpp:434] conv2_2/sep <- conv2_2/dw
I0927 20:45:51.304348 30272 net.cpp:408] conv2_2/sep -> conv2_2/sep
I0927 20:45:51.305491 30272 net.cpp:150] Setting up conv2_2/sep
I0927 20:45:51.305498 30272 net.cpp:157] Top shape: 1 128 75 128 (1228800)
I0927 20:45:51.305500 30272 net.cpp:165] Memory required for data: 107769696
I0927 20:45:51.305503 30272 layer_factory.hpp:77] Creating layer conv2_2/sep/bn
I0927 20:45:51.305507 30272 net.cpp:100] Creating Layer conv2_2/sep/bn
I0927 20:45:51.305510 30272 net.cpp:434] conv2_2/sep/bn <- conv2_2/sep
I0927 20:45:51.305512 30272 net.cpp:395] conv2_2/sep/bn -> conv2_2/sep (in-place)
I0927 20:45:51.305629 30272 net.cpp:150] Setting up conv2_2/sep/bn
I0927 20:45:51.305634 30272 net.cpp:157] Top shape: 1 128 75 128 (1228800)
I0927 20:45:51.305635 30272 net.cpp:165] Memory required for data: 112684896
I0927 20:45:51.305639 30272 layer_factory.hpp:77] Creating layer conv2_2/sep/scale
I0927 20:45:51.305644 30272 net.cpp:100] Creating Layer conv2_2/sep/scale
I0927 20:45:51.305644 30272 net.cpp:434] conv2_2/sep/scale <- conv2_2/sep
I0927 20:45:51.305647 30272 net.cpp:395] conv2_2/sep/scale -> conv2_2/sep (in-place)
I0927 20:45:51.305670 30272 layer_factory.hpp:77] Creating layer conv2_2/sep/scale
I0927 20:45:51.305737 30272 net.cpp:150] Setting up conv2_2/sep/scale
I0927 20:45:51.305740 30272 net.cpp:157] Top shape: 1 128 75 128 (1228800)
I0927 20:45:51.305742 30272 net.cpp:165] Memory required for data: 117600096
I0927 20:45:51.305745 30272 layer_factory.hpp:77] Creating layer relu2_2/sep
I0927 20:45:51.305748 30272 net.cpp:100] Creating Layer relu2_2/sep
I0927 20:45:51.305749 30272 net.cpp:434] relu2_2/sep <- conv2_2/sep
I0927 20:45:51.305753 30272 net.cpp:395] relu2_2/sep -> conv2_2/sep (in-place)
I0927 20:45:51.306016 30272 net.cpp:150] Setting up relu2_2/sep
I0927 20:45:51.306022 30272 net.cpp:157] Top shape: 1 128 75 128 (1228800)
I0927 20:45:51.306023 30272 net.cpp:165] Memory required for data: 122515296
I0927 20:45:51.306025 30272 layer_factory.hpp:77] Creating layer conv3_1/dw
I0927 20:45:51.306030 30272 net.cpp:100] Creating Layer conv3_1/dw
I0927 20:45:51.306031 30272 net.cpp:434] conv3_1/dw <- conv2_2/sep
I0927 20:45:51.306035 30272 net.cpp:408] conv3_1/dw -> conv3_1/dw
I0927 20:45:51.306161 30272 net.cpp:150] Setting up conv3_1/dw
I0927 20:45:51.306165 30272 net.cpp:157] Top shape: 1 128 75 128 (1228800)
I0927 20:45:51.306167 30272 net.cpp:165] Memory required for data: 127430496
I0927 20:45:51.306170 30272 layer_factory.hpp:77] Creating layer conv3_1/dw/bn
I0927 20:45:51.306174 30272 net.cpp:100] Creating Layer conv3_1/dw/bn
I0927 20:45:51.306175 30272 net.cpp:434] conv3_1/dw/bn <- conv3_1/dw
I0927 20:45:51.306177 30272 net.cpp:395] conv3_1/dw/bn -> conv3_1/dw (in-place)
I0927 20:45:51.306286 30272 net.cpp:150] Setting up conv3_1/dw/bn
I0927 20:45:51.306290 30272 net.cpp:157] Top shape: 1 128 75 128 (1228800)
I0927 20:45:51.306293 30272 net.cpp:165] Memory required for data: 132345696
I0927 20:45:51.306298 30272 layer_factory.hpp:77] Creating layer conv3_1/dw/scale
I0927 20:45:51.306303 30272 net.cpp:100] Creating Layer conv3_1/dw/scale
I0927 20:45:51.306310 30272 net.cpp:434] conv3_1/dw/scale <- conv3_1/dw
I0927 20:45:51.306314 30272 net.cpp:395] conv3_1/dw/scale -> conv3_1/dw (in-place)
I0927 20:45:51.306337 30272 layer_factory.hpp:77] Creating layer conv3_1/dw/scale
I0927 20:45:51.306401 30272 net.cpp:150] Setting up conv3_1/dw/scale
I0927 20:45:51.306406 30272 net.cpp:157] Top shape: 1 128 75 128 (1228800)
I0927 20:45:51.306407 30272 net.cpp:165] Memory required for data: 137260896
I0927 20:45:51.306411 30272 layer_factory.hpp:77] Creating layer relu3_1/dw
I0927 20:45:51.306413 30272 net.cpp:100] Creating Layer relu3_1/dw
I0927 20:45:51.306416 30272 net.cpp:434] relu3_1/dw <- conv3_1/dw
I0927 20:45:51.306417 30272 net.cpp:395] relu3_1/dw -> conv3_1/dw (in-place)
I0927 20:45:51.306778 30272 net.cpp:150] Setting up relu3_1/dw
I0927 20:45:51.306785 30272 net.cpp:157] Top shape: 1 128 75 128 (1228800)
I0927 20:45:51.306787 30272 net.cpp:165] Memory required for data: 142176096
I0927 20:45:51.306789 30272 layer_factory.hpp:77] Creating layer conv3_1/sep
I0927 20:45:51.306794 30272 net.cpp:100] Creating Layer conv3_1/sep
I0927 20:45:51.306797 30272 net.cpp:434] conv3_1/sep <- conv3_1/dw
I0927 20:45:51.306800 30272 net.cpp:408] conv3_1/sep -> conv3_1/sep
I0927 20:45:51.307896 30272 net.cpp:150] Setting up conv3_1/sep
I0927 20:45:51.307904 30272 net.cpp:157] Top shape: 1 128 75 128 (1228800)
I0927 20:45:51.307905 30272 net.cpp:165] Memory required for data: 147091296
I0927 20:45:51.307909 30272 layer_factory.hpp:77] Creating layer conv3_1/sep/bn
I0927 20:45:51.307912 30272 net.cpp:100] Creating Layer conv3_1/sep/bn
I0927 20:45:51.307914 30272 net.cpp:434] conv3_1/sep/bn <- conv3_1/sep
I0927 20:45:51.307917 30272 net.cpp:395] conv3_1/sep/bn -> conv3_1/sep (in-place)
I0927 20:45:51.308032 30272 net.cpp:150] Setting up conv3_1/sep/bn
I0927 20:45:51.308037 30272 net.cpp:157] Top shape: 1 128 75 128 (1228800)
I0927 20:45:51.308038 30272 net.cpp:165] Memory required for data: 152006496
I0927 20:45:51.308043 30272 layer_factory.hpp:77] Creating layer conv3_1/sep/scale
I0927 20:45:51.308046 30272 net.cpp:100] Creating Layer conv3_1/sep/scale
I0927 20:45:51.308048 30272 net.cpp:434] conv3_1/sep/scale <- conv3_1/sep
I0927 20:45:51.308050 30272 net.cpp:395] conv3_1/sep/scale -> conv3_1/sep (in-place)
I0927 20:45:51.308073 30272 layer_factory.hpp:77] Creating layer conv3_1/sep/scale
I0927 20:45:51.308138 30272 net.cpp:150] Setting up conv3_1/sep/scale
I0927 20:45:51.308141 30272 net.cpp:157] Top shape: 1 128 75 128 (1228800)
I0927 20:45:51.308143 30272 net.cpp:165] Memory required for data: 156921696
I0927 20:45:51.308146 30272 layer_factory.hpp:77] Creating layer relu3_1/sep
I0927 20:45:51.308149 30272 net.cpp:100] Creating Layer relu3_1/sep
I0927 20:45:51.308151 30272 net.cpp:434] relu3_1/sep <- conv3_1/sep
I0927 20:45:51.308153 30272 net.cpp:395] relu3_1/sep -> conv3_1/sep (in-place)
I0927 20:45:51.308408 30272 net.cpp:150] Setting up relu3_1/sep
I0927 20:45:51.308413 30272 net.cpp:157] Top shape: 1 128 75 128 (1228800)
I0927 20:45:51.308414 30272 net.cpp:165] Memory required for data: 161836896
I0927 20:45:51.308416 30272 layer_factory.hpp:77] Creating layer conv3_2/dw
I0927 20:45:51.308421 30272 net.cpp:100] Creating Layer conv3_2/dw
I0927 20:45:51.308424 30272 net.cpp:434] conv3_2/dw <- conv3_1/sep
I0927 20:45:51.308429 30272 net.cpp:408] conv3_2/dw -> conv3_2/dw
I0927 20:45:51.308552 30272 net.cpp:150] Setting up conv3_2/dw
I0927 20:45:51.308557 30272 net.cpp:157] Top shape: 1 128 38 64 (311296)
I0927 20:45:51.308558 30272 net.cpp:165] Memory required for data: 163082080
I0927 20:45:51.308562 30272 layer_factory.hpp:77] Creating layer conv3_2/dw/bn
I0927 20:45:51.308564 30272 net.cpp:100] Creating Layer conv3_2/dw/bn
I0927 20:45:51.308567 30272 net.cpp:434] conv3_2/dw/bn <- conv3_2/dw
I0927 20:45:51.308569 30272 net.cpp:395] conv3_2/dw/bn -> conv3_2/dw (in-place)
I0927 20:45:51.308677 30272 net.cpp:150] Setting up conv3_2/dw/bn
I0927 20:45:51.308681 30272 net.cpp:157] Top shape: 1 128 38 64 (311296)
I0927 20:45:51.308682 30272 net.cpp:165] Memory required for data: 164327264
I0927 20:45:51.308693 30272 layer_factory.hpp:77] Creating layer conv3_2/dw/scale
I0927 20:45:51.308699 30272 net.cpp:100] Creating Layer conv3_2/dw/scale
I0927 20:45:51.308701 30272 net.cpp:434] conv3_2/dw/scale <- conv3_2/dw
I0927 20:45:51.308704 30272 net.cpp:395] conv3_2/dw/scale -> conv3_2/dw (in-place)
I0927 20:45:51.308727 30272 layer_factory.hpp:77] Creating layer conv3_2/dw/scale
I0927 20:45:51.308789 30272 net.cpp:150] Setting up conv3_2/dw/scale
I0927 20:45:51.308791 30272 net.cpp:157] Top shape: 1 128 38 64 (311296)
I0927 20:45:51.308794 30272 net.cpp:165] Memory required for data: 165572448
I0927 20:45:51.308796 30272 layer_factory.hpp:77] Creating layer relu3_2/dw
I0927 20:45:51.308799 30272 net.cpp:100] Creating Layer relu3_2/dw
I0927 20:45:51.308800 30272 net.cpp:434] relu3_2/dw <- conv3_2/dw
I0927 20:45:51.308804 30272 net.cpp:395] relu3_2/dw -> conv3_2/dw (in-place)
I0927 20:45:51.309196 30272 net.cpp:150] Setting up relu3_2/dw
I0927 20:45:51.309203 30272 net.cpp:157] Top shape: 1 128 38 64 (311296)
I0927 20:45:51.309206 30272 net.cpp:165] Memory required for data: 166817632
I0927 20:45:51.309207 30272 layer_factory.hpp:77] Creating layer conv3_2/sep
I0927 20:45:51.309214 30272 net.cpp:100] Creating Layer conv3_2/sep
I0927 20:45:51.309216 30272 net.cpp:434] conv3_2/sep <- conv3_2/dw
I0927 20:45:51.309221 30272 net.cpp:408] conv3_2/sep -> conv3_2/sep
I0927 20:45:51.310411 30272 net.cpp:150] Setting up conv3_2/sep
I0927 20:45:51.310418 30272 net.cpp:157] Top shape: 1 256 38 64 (622592)
I0927 20:45:51.310420 30272 net.cpp:165] Memory required for data: 169308000
I0927 20:45:51.310423 30272 layer_factory.hpp:77] Creating layer conv3_2/sep/bn
I0927 20:45:51.310428 30272 net.cpp:100] Creating Layer conv3_2/sep/bn
I0927 20:45:51.310431 30272 net.cpp:434] conv3_2/sep/bn <- conv3_2/sep
I0927 20:45:51.310434 30272 net.cpp:395] conv3_2/sep/bn -> conv3_2/sep (in-place)
I0927 20:45:51.310549 30272 net.cpp:150] Setting up conv3_2/sep/bn
I0927 20:45:51.310552 30272 net.cpp:157] Top shape: 1 256 38 64 (622592)
I0927 20:45:51.310555 30272 net.cpp:165] Memory required for data: 171798368
I0927 20:45:51.310559 30272 layer_factory.hpp:77] Creating layer conv3_2/sep/scale
I0927 20:45:51.310564 30272 net.cpp:100] Creating Layer conv3_2/sep/scale
I0927 20:45:51.310566 30272 net.cpp:434] conv3_2/sep/scale <- conv3_2/sep
I0927 20:45:51.310570 30272 net.cpp:395] conv3_2/sep/scale -> conv3_2/sep (in-place)
I0927 20:45:51.310592 30272 layer_factory.hpp:77] Creating layer conv3_2/sep/scale
I0927 20:45:51.310655 30272 net.cpp:150] Setting up conv3_2/sep/scale
I0927 20:45:51.310658 30272 net.cpp:157] Top shape: 1 256 38 64 (622592)
I0927 20:45:51.310662 30272 net.cpp:165] Memory required for data: 174288736
I0927 20:45:51.310664 30272 layer_factory.hpp:77] Creating layer relu3_2/sep
I0927 20:45:51.310668 30272 net.cpp:100] Creating Layer relu3_2/sep
I0927 20:45:51.310670 30272 net.cpp:434] relu3_2/sep <- conv3_2/sep
I0927 20:45:51.310674 30272 net.cpp:395] relu3_2/sep -> conv3_2/sep (in-place)
I0927 20:45:51.310946 30272 net.cpp:150] Setting up relu3_2/sep
I0927 20:45:51.310951 30272 net.cpp:157] Top shape: 1 256 38 64 (622592)
I0927 20:45:51.310953 30272 net.cpp:165] Memory required for data: 176779104
I0927 20:45:51.310956 30272 layer_factory.hpp:77] Creating layer conv4_1/dw
I0927 20:45:51.310962 30272 net.cpp:100] Creating Layer conv4_1/dw
I0927 20:45:51.310964 30272 net.cpp:434] conv4_1/dw <- conv3_2/sep
I0927 20:45:51.310968 30272 net.cpp:408] conv4_1/dw -> conv4_1/dw
I0927 20:45:51.311101 30272 net.cpp:150] Setting up conv4_1/dw
I0927 20:45:51.311105 30272 net.cpp:157] Top shape: 1 256 38 64 (622592)
I0927 20:45:51.311107 30272 net.cpp:165] Memory required for data: 179269472
I0927 20:45:51.311110 30272 layer_factory.hpp:77] Creating layer conv4_1/dw/bn
I0927 20:45:51.311115 30272 net.cpp:100] Creating Layer conv4_1/dw/bn
I0927 20:45:51.311116 30272 net.cpp:434] conv4_1/dw/bn <- conv4_1/dw
I0927 20:45:51.311120 30272 net.cpp:395] conv4_1/dw/bn -> conv4_1/dw (in-place)
I0927 20:45:51.311239 30272 net.cpp:150] Setting up conv4_1/dw/bn
I0927 20:45:51.311244 30272 net.cpp:157] Top shape: 1 256 38 64 (622592)
I0927 20:45:51.311245 30272 net.cpp:165] Memory required for data: 181759840
I0927 20:45:51.311249 30272 layer_factory.hpp:77] Creating layer conv4_1/dw/scale
I0927 20:45:51.311252 30272 net.cpp:100] Creating Layer conv4_1/dw/scale
I0927 20:45:51.311255 30272 net.cpp:434] conv4_1/dw/scale <- conv4_1/dw
I0927 20:45:51.311259 30272 net.cpp:395] conv4_1/dw/scale -> conv4_1/dw (in-place)
I0927 20:45:51.311280 30272 layer_factory.hpp:77] Creating layer conv4_1/dw/scale
I0927 20:45:51.311341 30272 net.cpp:150] Setting up conv4_1/dw/scale
I0927 20:45:51.311344 30272 net.cpp:157] Top shape: 1 256 38 64 (622592)
I0927 20:45:51.311347 30272 net.cpp:165] Memory required for data: 184250208
I0927 20:45:51.311349 30272 layer_factory.hpp:77] Creating layer relu4_1/dw
I0927 20:45:51.311352 30272 net.cpp:100] Creating Layer relu4_1/dw
I0927 20:45:51.311355 30272 net.cpp:434] relu4_1/dw <- conv4_1/dw
I0927 20:45:51.311358 30272 net.cpp:395] relu4_1/dw -> conv4_1/dw (in-place)
I0927 20:45:51.311719 30272 net.cpp:150] Setting up relu4_1/dw
I0927 20:45:51.311725 30272 net.cpp:157] Top shape: 1 256 38 64 (622592)
I0927 20:45:51.311728 30272 net.cpp:165] Memory required for data: 186740576
I0927 20:45:51.311730 30272 layer_factory.hpp:77] Creating layer conv4_1/sep
I0927 20:45:51.311734 30272 net.cpp:100] Creating Layer conv4_1/sep
I0927 20:45:51.311736 30272 net.cpp:434] conv4_1/sep <- conv4_1/dw
I0927 20:45:51.311741 30272 net.cpp:408] conv4_1/sep -> conv4_1/sep
I0927 20:45:51.313117 30272 net.cpp:150] Setting up conv4_1/sep
I0927 20:45:51.313124 30272 net.cpp:157] Top shape: 1 256 38 64 (622592)
I0927 20:45:51.313127 30272 net.cpp:165] Memory required for data: 189230944
I0927 20:45:51.313130 30272 layer_factory.hpp:77] Creating layer conv4_1/sep/bn
I0927 20:45:51.313134 30272 net.cpp:100] Creating Layer conv4_1/sep/bn
I0927 20:45:51.313136 30272 net.cpp:434] conv4_1/sep/bn <- conv4_1/sep
I0927 20:45:51.313139 30272 net.cpp:395] conv4_1/sep/bn -> conv4_1/sep (in-place)
I0927 20:45:51.313256 30272 net.cpp:150] Setting up conv4_1/sep/bn
I0927 20:45:51.313259 30272 net.cpp:157] Top shape: 1 256 38 64 (622592)
I0927 20:45:51.313261 30272 net.cpp:165] Memory required for data: 191721312
I0927 20:45:51.313266 30272 layer_factory.hpp:77] Creating layer conv4_1/sep/scale
I0927 20:45:51.313271 30272 net.cpp:100] Creating Layer conv4_1/sep/scale
I0927 20:45:51.313271 30272 net.cpp:434] conv4_1/sep/scale <- conv4_1/sep
I0927 20:45:51.313274 30272 net.cpp:395] conv4_1/sep/scale -> conv4_1/sep (in-place)
I0927 20:45:51.313297 30272 layer_factory.hpp:77] Creating layer conv4_1/sep/scale
I0927 20:45:51.313359 30272 net.cpp:150] Setting up conv4_1/sep/scale
I0927 20:45:51.313362 30272 net.cpp:157] Top shape: 1 256 38 64 (622592)
I0927 20:45:51.313364 30272 net.cpp:165] Memory required for data: 194211680
I0927 20:45:51.313374 30272 layer_factory.hpp:77] Creating layer relu4_1/sep
I0927 20:45:51.313377 30272 net.cpp:100] Creating Layer relu4_1/sep
I0927 20:45:51.313380 30272 net.cpp:434] relu4_1/sep <- conv4_1/sep
I0927 20:45:51.313382 30272 net.cpp:395] relu4_1/sep -> conv4_1/sep (in-place)
I0927 20:45:51.313647 30272 net.cpp:150] Setting up relu4_1/sep
I0927 20:45:51.313652 30272 net.cpp:157] Top shape: 1 256 38 64 (622592)
I0927 20:45:51.313655 30272 net.cpp:165] Memory required for data: 196702048
I0927 20:45:51.313657 30272 layer_factory.hpp:77] Creating layer conv4_2/dw
I0927 20:45:51.313661 30272 net.cpp:100] Creating Layer conv4_2/dw
I0927 20:45:51.313664 30272 net.cpp:434] conv4_2/dw <- conv4_1/sep
I0927 20:45:51.313668 30272 net.cpp:408] conv4_2/dw -> conv4_2/dw
I0927 20:45:51.313802 30272 net.cpp:150] Setting up conv4_2/dw
I0927 20:45:51.313805 30272 net.cpp:157] Top shape: 1 256 19 32 (155648)
I0927 20:45:51.313808 30272 net.cpp:165] Memory required for data: 197324640
I0927 20:45:51.313810 30272 layer_factory.hpp:77] Creating layer conv4_2/dw/bn
I0927 20:45:51.313813 30272 net.cpp:100] Creating Layer conv4_2/dw/bn
I0927 20:45:51.313822 30272 net.cpp:434] conv4_2/dw/bn <- conv4_2/dw
I0927 20:45:51.313825 30272 net.cpp:395] conv4_2/dw/bn -> conv4_2/dw (in-place)
I0927 20:45:51.313942 30272 net.cpp:150] Setting up conv4_2/dw/bn
I0927 20:45:51.313946 30272 net.cpp:157] Top shape: 1 256 19 32 (155648)
I0927 20:45:51.313948 30272 net.cpp:165] Memory required for data: 197947232
I0927 20:45:51.313952 30272 layer_factory.hpp:77] Creating layer conv4_2/dw/scale
I0927 20:45:51.313956 30272 net.cpp:100] Creating Layer conv4_2/dw/scale
I0927 20:45:51.313957 30272 net.cpp:434] conv4_2/dw/scale <- conv4_2/dw
I0927 20:45:51.313961 30272 net.cpp:395] conv4_2/dw/scale -> conv4_2/dw (in-place)
I0927 20:45:51.313983 30272 layer_factory.hpp:77] Creating layer conv4_2/dw/scale
I0927 20:45:51.314054 30272 net.cpp:150] Setting up conv4_2/dw/scale
I0927 20:45:51.314059 30272 net.cpp:157] Top shape: 1 256 19 32 (155648)
I0927 20:45:51.314060 30272 net.cpp:165] Memory required for data: 198569824
I0927 20:45:51.314064 30272 layer_factory.hpp:77] Creating layer relu4_2/dw
I0927 20:45:51.314067 30272 net.cpp:100] Creating Layer relu4_2/dw
I0927 20:45:51.314069 30272 net.cpp:434] relu4_2/dw <- conv4_2/dw
I0927 20:45:51.314071 30272 net.cpp:395] relu4_2/dw -> conv4_2/dw (in-place)
I0927 20:45:51.314447 30272 net.cpp:150] Setting up relu4_2/dw
I0927 20:45:51.314453 30272 net.cpp:157] Top shape: 1 256 19 32 (155648)
I0927 20:45:51.314455 30272 net.cpp:165] Memory required for data: 199192416
I0927 20:45:51.314457 30272 layer_factory.hpp:77] Creating layer conv4_2/sep
I0927 20:45:51.314462 30272 net.cpp:100] Creating Layer conv4_2/sep
I0927 20:45:51.314465 30272 net.cpp:434] conv4_2/sep <- conv4_2/dw
I0927 20:45:51.314468 30272 net.cpp:408] conv4_2/sep -> conv4_2/sep
I0927 20:45:51.316669 30272 net.cpp:150] Setting up conv4_2/sep
I0927 20:45:51.316678 30272 net.cpp:157] Top shape: 1 512 19 32 (311296)
I0927 20:45:51.316679 30272 net.cpp:165] Memory required for data: 200437600
I0927 20:45:51.316684 30272 layer_factory.hpp:77] Creating layer conv4_2/sep/bn
I0927 20:45:51.316687 30272 net.cpp:100] Creating Layer conv4_2/sep/bn
I0927 20:45:51.316689 30272 net.cpp:434] conv4_2/sep/bn <- conv4_2/sep
I0927 20:45:51.316692 30272 net.cpp:395] conv4_2/sep/bn -> conv4_2/sep (in-place)
I0927 20:45:51.316815 30272 net.cpp:150] Setting up conv4_2/sep/bn
I0927 20:45:51.316819 30272 net.cpp:157] Top shape: 1 512 19 32 (311296)
I0927 20:45:51.316821 30272 net.cpp:165] Memory required for data: 201682784
I0927 20:45:51.316825 30272 layer_factory.hpp:77] Creating layer conv4_2/sep/scale
I0927 20:45:51.316829 30272 net.cpp:100] Creating Layer conv4_2/sep/scale
I0927 20:45:51.316830 30272 net.cpp:434] conv4_2/sep/scale <- conv4_2/sep
I0927 20:45:51.316833 30272 net.cpp:395] conv4_2/sep/scale -> conv4_2/sep (in-place)
I0927 20:45:51.316859 30272 layer_factory.hpp:77] Creating layer conv4_2/sep/scale
I0927 20:45:51.316928 30272 net.cpp:150] Setting up conv4_2/sep/scale
I0927 20:45:51.316932 30272 net.cpp:157] Top shape: 1 512 19 32 (311296)
I0927 20:45:51.316934 30272 net.cpp:165] Memory required for data: 202927968
I0927 20:45:51.316937 30272 layer_factory.hpp:77] Creating layer relu4_2/sep
I0927 20:45:51.316941 30272 net.cpp:100] Creating Layer relu4_2/sep
I0927 20:45:51.316942 30272 net.cpp:434] relu4_2/sep <- conv4_2/sep
I0927 20:45:51.316946 30272 net.cpp:395] relu4_2/sep -> conv4_2/sep (in-place)
I0927 20:45:51.317207 30272 net.cpp:150] Setting up relu4_2/sep
I0927 20:45:51.317214 30272 net.cpp:157] Top shape: 1 512 19 32 (311296)
I0927 20:45:51.317214 30272 net.cpp:165] Memory required for data: 204173152
I0927 20:45:51.317217 30272 layer_factory.hpp:77] Creating layer conv5_1/dw
I0927 20:45:51.317222 30272 net.cpp:100] Creating Layer conv5_1/dw
I0927 20:45:51.317224 30272 net.cpp:434] conv5_1/dw <- conv4_2/sep
I0927 20:45:51.317227 30272 net.cpp:408] conv5_1/dw -> conv5_1/dw
I0927 20:45:51.317380 30272 net.cpp:150] Setting up conv5_1/dw
I0927 20:45:51.317384 30272 net.cpp:157] Top shape: 1 512 19 32 (311296)
I0927 20:45:51.317385 30272 net.cpp:165] Memory required for data: 205418336
I0927 20:45:51.317396 30272 layer_factory.hpp:77] Creating layer conv5_1/dw/bn
I0927 20:45:51.317399 30272 net.cpp:100] Creating Layer conv5_1/dw/bn
I0927 20:45:51.317401 30272 net.cpp:434] conv5_1/dw/bn <- conv5_1/dw
I0927 20:45:51.317404 30272 net.cpp:395] conv5_1/dw/bn -> conv5_1/dw (in-place)
I0927 20:45:51.317523 30272 net.cpp:150] Setting up conv5_1/dw/bn
I0927 20:45:51.317528 30272 net.cpp:157] Top shape: 1 512 19 32 (311296)
I0927 20:45:51.317528 30272 net.cpp:165] Memory required for data: 206663520
I0927 20:45:51.317533 30272 layer_factory.hpp:77] Creating layer conv5_1/dw/scale
I0927 20:45:51.317536 30272 net.cpp:100] Creating Layer conv5_1/dw/scale
I0927 20:45:51.317538 30272 net.cpp:434] conv5_1/dw/scale <- conv5_1/dw
I0927 20:45:51.317540 30272 net.cpp:395] conv5_1/dw/scale -> conv5_1/dw (in-place)
I0927 20:45:51.317564 30272 layer_factory.hpp:77] Creating layer conv5_1/dw/scale
I0927 20:45:51.317632 30272 net.cpp:150] Setting up conv5_1/dw/scale
I0927 20:45:51.317637 30272 net.cpp:157] Top shape: 1 512 19 32 (311296)
I0927 20:45:51.317638 30272 net.cpp:165] Memory required for data: 207908704
I0927 20:45:51.317641 30272 layer_factory.hpp:77] Creating layer relu5_1/dw
I0927 20:45:51.317644 30272 net.cpp:100] Creating Layer relu5_1/dw
I0927 20:45:51.317646 30272 net.cpp:434] relu5_1/dw <- conv5_1/dw
I0927 20:45:51.317648 30272 net.cpp:395] relu5_1/dw -> conv5_1/dw (in-place)
I0927 20:45:51.318011 30272 net.cpp:150] Setting up relu5_1/dw
I0927 20:45:51.318017 30272 net.cpp:157] Top shape: 1 512 19 32 (311296)
I0927 20:45:51.318020 30272 net.cpp:165] Memory required for data: 209153888
I0927 20:45:51.318022 30272 layer_factory.hpp:77] Creating layer conv5_1/sep
I0927 20:45:51.318027 30272 net.cpp:100] Creating Layer conv5_1/sep
I0927 20:45:51.318030 30272 net.cpp:434] conv5_1/sep <- conv5_1/dw
I0927 20:45:51.318034 30272 net.cpp:408] conv5_1/sep -> conv5_1/sep
I0927 20:45:51.320509 30272 net.cpp:150] Setting up conv5_1/sep
I0927 20:45:51.320516 30272 net.cpp:157] Top shape: 1 512 19 32 (311296)
I0927 20:45:51.320518 30272 net.cpp:165] Memory required for data: 210399072
I0927 20:45:51.320521 30272 layer_factory.hpp:77] Creating layer conv5_1/sep/bn
I0927 20:45:51.320525 30272 net.cpp:100] Creating Layer conv5_1/sep/bn
I0927 20:45:51.320528 30272 net.cpp:434] conv5_1/sep/bn <- conv5_1/sep
I0927 20:45:51.320530 30272 net.cpp:395] conv5_1/sep/bn -> conv5_1/sep (in-place)
I0927 20:45:51.320654 30272 net.cpp:150] Setting up conv5_1/sep/bn
I0927 20:45:51.320657 30272 net.cpp:157] Top shape: 1 512 19 32 (311296)
I0927 20:45:51.320659 30272 net.cpp:165] Memory required for data: 211644256
I0927 20:45:51.320663 30272 layer_factory.hpp:77] Creating layer conv5_1/sep/scale
I0927 20:45:51.320667 30272 net.cpp:100] Creating Layer conv5_1/sep/scale
I0927 20:45:51.320668 30272 net.cpp:434] conv5_1/sep/scale <- conv5_1/sep
I0927 20:45:51.320672 30272 net.cpp:395] conv5_1/sep/scale -> conv5_1/sep (in-place)
I0927 20:45:51.320695 30272 layer_factory.hpp:77] Creating layer conv5_1/sep/scale
I0927 20:45:51.320766 30272 net.cpp:150] Setting up conv5_1/sep/scale
I0927 20:45:51.320770 30272 net.cpp:157] Top shape: 1 512 19 32 (311296)
I0927 20:45:51.320772 30272 net.cpp:165] Memory required for data: 212889440
I0927 20:45:51.320775 30272 layer_factory.hpp:77] Creating layer relu5_1/sep
I0927 20:45:51.320778 30272 net.cpp:100] Creating Layer relu5_1/sep
I0927 20:45:51.320780 30272 net.cpp:434] relu5_1/sep <- conv5_1/sep
I0927 20:45:51.320782 30272 net.cpp:395] relu5_1/sep -> conv5_1/sep (in-place)
I0927 20:45:51.321045 30272 net.cpp:150] Setting up relu5_1/sep
I0927 20:45:51.321051 30272 net.cpp:157] Top shape: 1 512 19 32 (311296)
I0927 20:45:51.321053 30272 net.cpp:165] Memory required for data: 214134624
I0927 20:45:51.321054 30272 layer_factory.hpp:77] Creating layer conv5_2/dw
I0927 20:45:51.321060 30272 net.cpp:100] Creating Layer conv5_2/dw
I0927 20:45:51.321063 30272 net.cpp:434] conv5_2/dw <- conv5_1/sep
I0927 20:45:51.321065 30272 net.cpp:408] conv5_2/dw -> conv5_2/dw
I0927 20:45:51.321213 30272 net.cpp:150] Setting up conv5_2/dw
I0927 20:45:51.321224 30272 net.cpp:157] Top shape: 1 512 19 32 (311296)
I0927 20:45:51.321226 30272 net.cpp:165] Memory required for data: 215379808
I0927 20:45:51.321229 30272 layer_factory.hpp:77] Creating layer conv5_2/dw/bn
I0927 20:45:51.321233 30272 net.cpp:100] Creating Layer conv5_2/dw/bn
I0927 20:45:51.321234 30272 net.cpp:434] conv5_2/dw/bn <- conv5_2/dw
I0927 20:45:51.321238 30272 net.cpp:395] conv5_2/dw/bn -> conv5_2/dw (in-place)
I0927 20:45:51.321358 30272 net.cpp:150] Setting up conv5_2/dw/bn
I0927 20:45:51.321362 30272 net.cpp:157] Top shape: 1 512 19 32 (311296)
I0927 20:45:51.321363 30272 net.cpp:165] Memory required for data: 216624992
I0927 20:45:51.321367 30272 layer_factory.hpp:77] Creating layer conv5_2/dw/scale
I0927 20:45:51.321375 30272 net.cpp:100] Creating Layer conv5_2/dw/scale
I0927 20:45:51.321378 30272 net.cpp:434] conv5_2/dw/scale <- conv5_2/dw
I0927 20:45:51.321382 30272 net.cpp:395] conv5_2/dw/scale -> conv5_2/dw (in-place)
I0927 20:45:51.321405 30272 layer_factory.hpp:77] Creating layer conv5_2/dw/scale
I0927 20:45:51.321473 30272 net.cpp:150] Setting up conv5_2/dw/scale
I0927 20:45:51.321477 30272 net.cpp:157] Top shape: 1 512 19 32 (311296)
I0927 20:45:51.321478 30272 net.cpp:165] Memory required for data: 217870176
I0927 20:45:51.321482 30272 layer_factory.hpp:77] Creating layer relu5_2/dw
I0927 20:45:51.321485 30272 net.cpp:100] Creating Layer relu5_2/dw
I0927 20:45:51.321486 30272 net.cpp:434] relu5_2/dw <- conv5_2/dw
I0927 20:45:51.321488 30272 net.cpp:395] relu5_2/dw -> conv5_2/dw (in-place)
I0927 20:45:51.321853 30272 net.cpp:150] Setting up relu5_2/dw
I0927 20:45:51.321859 30272 net.cpp:157] Top shape: 1 512 19 32 (311296)
I0927 20:45:51.321861 30272 net.cpp:165] Memory required for data: 219115360
I0927 20:45:51.321862 30272 layer_factory.hpp:77] Creating layer conv5_2/sep
I0927 20:45:51.321868 30272 net.cpp:100] Creating Layer conv5_2/sep
I0927 20:45:51.321871 30272 net.cpp:434] conv5_2/sep <- conv5_2/dw
I0927 20:45:51.321873 30272 net.cpp:408] conv5_2/sep -> conv5_2/sep
I0927 20:45:51.324815 30272 net.cpp:150] Setting up conv5_2/sep
I0927 20:45:51.324823 30272 net.cpp:157] Top shape: 1 512 19 32 (311296)
I0927 20:45:51.324826 30272 net.cpp:165] Memory required for data: 220360544
I0927 20:45:51.324829 30272 layer_factory.hpp:77] Creating layer conv5_2/sep/bn
I0927 20:45:51.324832 30272 net.cpp:100] Creating Layer conv5_2/sep/bn
I0927 20:45:51.324836 30272 net.cpp:434] conv5_2/sep/bn <- conv5_2/sep
I0927 20:45:51.324838 30272 net.cpp:395] conv5_2/sep/bn -> conv5_2/sep (in-place)
I0927 20:45:51.324965 30272 net.cpp:150] Setting up conv5_2/sep/bn
I0927 20:45:51.324970 30272 net.cpp:157] Top shape: 1 512 19 32 (311296)
I0927 20:45:51.324971 30272 net.cpp:165] Memory required for data: 221605728
I0927 20:45:51.324975 30272 layer_factory.hpp:77] Creating layer conv5_2/sep/scale
I0927 20:45:51.324978 30272 net.cpp:100] Creating Layer conv5_2/sep/scale
I0927 20:45:51.324980 30272 net.cpp:434] conv5_2/sep/scale <- conv5_2/sep
I0927 20:45:51.324983 30272 net.cpp:395] conv5_2/sep/scale -> conv5_2/sep (in-place)
I0927 20:45:51.325008 30272 layer_factory.hpp:77] Creating layer conv5_2/sep/scale
I0927 20:45:51.325079 30272 net.cpp:150] Setting up conv5_2/sep/scale
I0927 20:45:51.325083 30272 net.cpp:157] Top shape: 1 512 19 32 (311296)
I0927 20:45:51.325085 30272 net.cpp:165] Memory required for data: 222850912
I0927 20:45:51.325088 30272 layer_factory.hpp:77] Creating layer relu5_2/sep
I0927 20:45:51.325091 30272 net.cpp:100] Creating Layer relu5_2/sep
I0927 20:45:51.325093 30272 net.cpp:434] relu5_2/sep <- conv5_2/sep
I0927 20:45:51.325095 30272 net.cpp:395] relu5_2/sep -> conv5_2/sep (in-place)
I0927 20:45:51.325386 30272 net.cpp:150] Setting up relu5_2/sep
I0927 20:45:51.325390 30272 net.cpp:157] Top shape: 1 512 19 32 (311296)
I0927 20:45:51.325393 30272 net.cpp:165] Memory required for data: 224096096
I0927 20:45:51.325395 30272 layer_factory.hpp:77] Creating layer conv5_3/dw
I0927 20:45:51.325402 30272 net.cpp:100] Creating Layer conv5_3/dw
I0927 20:45:51.325404 30272 net.cpp:434] conv5_3/dw <- conv5_2/sep
I0927 20:45:51.325415 30272 net.cpp:408] conv5_3/dw -> conv5_3/dw
I0927 20:45:51.325569 30272 net.cpp:150] Setting up conv5_3/dw
I0927 20:45:51.325573 30272 net.cpp:157] Top shape: 1 512 19 32 (311296)
I0927 20:45:51.325575 30272 net.cpp:165] Memory required for data: 225341280
I0927 20:45:51.325578 30272 layer_factory.hpp:77] Creating layer conv5_3/dw/bn
I0927 20:45:51.325582 30272 net.cpp:100] Creating Layer conv5_3/dw/bn
I0927 20:45:51.325583 30272 net.cpp:434] conv5_3/dw/bn <- conv5_3/dw
I0927 20:45:51.325587 30272 net.cpp:395] conv5_3/dw/bn -> conv5_3/dw (in-place)
I0927 20:45:51.325708 30272 net.cpp:150] Setting up conv5_3/dw/bn
I0927 20:45:51.325712 30272 net.cpp:157] Top shape: 1 512 19 32 (311296)
I0927 20:45:51.325713 30272 net.cpp:165] Memory required for data: 226586464
I0927 20:45:51.325717 30272 layer_factory.hpp:77] Creating layer conv5_3/dw/scale
I0927 20:45:51.325721 30272 net.cpp:100] Creating Layer conv5_3/dw/scale
I0927 20:45:51.325722 30272 net.cpp:434] conv5_3/dw/scale <- conv5_3/dw
I0927 20:45:51.325726 30272 net.cpp:395] conv5_3/dw/scale -> conv5_3/dw (in-place)
I0927 20:45:51.325749 30272 layer_factory.hpp:77] Creating layer conv5_3/dw/scale
I0927 20:45:51.325819 30272 net.cpp:150] Setting up conv5_3/dw/scale
I0927 20:45:51.325824 30272 net.cpp:157] Top shape: 1 512 19 32 (311296)
I0927 20:45:51.325825 30272 net.cpp:165] Memory required for data: 227831648
I0927 20:45:51.325829 30272 layer_factory.hpp:77] Creating layer relu5_3/dw
I0927 20:45:51.325831 30272 net.cpp:100] Creating Layer relu5_3/dw
I0927 20:45:51.325834 30272 net.cpp:434] relu5_3/dw <- conv5_3/dw
I0927 20:45:51.325835 30272 net.cpp:395] relu5_3/dw -> conv5_3/dw (in-place)
I0927 20:45:51.326196 30272 net.cpp:150] Setting up relu5_3/dw
I0927 20:45:51.326203 30272 net.cpp:157] Top shape: 1 512 19 32 (311296)
I0927 20:45:51.326205 30272 net.cpp:165] Memory required for data: 229076832
I0927 20:45:51.326208 30272 layer_factory.hpp:77] Creating layer conv5_3/sep
I0927 20:45:51.326213 30272 net.cpp:100] Creating Layer conv5_3/sep
I0927 20:45:51.326215 30272 net.cpp:434] conv5_3/sep <- conv5_3/dw
I0927 20:45:51.326220 30272 net.cpp:408] conv5_3/sep -> conv5_3/sep
I0927 20:45:51.328702 30272 net.cpp:150] Setting up conv5_3/sep
I0927 20:45:51.328709 30272 net.cpp:157] Top shape: 1 512 19 32 (311296)
I0927 20:45:51.328711 30272 net.cpp:165] Memory required for data: 230322016
I0927 20:45:51.328716 30272 layer_factory.hpp:77] Creating layer conv5_3/sep/bn
I0927 20:45:51.328719 30272 net.cpp:100] Creating Layer conv5_3/sep/bn
I0927 20:45:51.328722 30272 net.cpp:434] conv5_3/sep/bn <- conv5_3/sep
I0927 20:45:51.328724 30272 net.cpp:395] conv5_3/sep/bn -> conv5_3/sep (in-place)
I0927 20:45:51.328850 30272 net.cpp:150] Setting up conv5_3/sep/bn
I0927 20:45:51.328855 30272 net.cpp:157] Top shape: 1 512 19 32 (311296)
I0927 20:45:51.328856 30272 net.cpp:165] Memory required for data: 231567200
I0927 20:45:51.328860 30272 layer_factory.hpp:77] Creating layer conv5_3/sep/scale
I0927 20:45:51.328864 30272 net.cpp:100] Creating Layer conv5_3/sep/scale
I0927 20:45:51.328866 30272 net.cpp:434] conv5_3/sep/scale <- conv5_3/sep
I0927 20:45:51.328868 30272 net.cpp:395] conv5_3/sep/scale -> conv5_3/sep (in-place)
I0927 20:45:51.328893 30272 layer_factory.hpp:77] Creating layer conv5_3/sep/scale
I0927 20:45:51.328965 30272 net.cpp:150] Setting up conv5_3/sep/scale
I0927 20:45:51.328969 30272 net.cpp:157] Top shape: 1 512 19 32 (311296)
I0927 20:45:51.328971 30272 net.cpp:165] Memory required for data: 232812384
I0927 20:45:51.328974 30272 layer_factory.hpp:77] Creating layer relu5_3/sep
I0927 20:45:51.328977 30272 net.cpp:100] Creating Layer relu5_3/sep
I0927 20:45:51.328979 30272 net.cpp:434] relu5_3/sep <- conv5_3/sep
I0927 20:45:51.328981 30272 net.cpp:395] relu5_3/sep -> conv5_3/sep (in-place)
I0927 20:45:51.329246 30272 net.cpp:150] Setting up relu5_3/sep
I0927 20:45:51.329252 30272 net.cpp:157] Top shape: 1 512 19 32 (311296)
I0927 20:45:51.329253 30272 net.cpp:165] Memory required for data: 234057568
I0927 20:45:51.329262 30272 layer_factory.hpp:77] Creating layer conv5_4/dw
I0927 20:45:51.329267 30272 net.cpp:100] Creating Layer conv5_4/dw
I0927 20:45:51.329270 30272 net.cpp:434] conv5_4/dw <- conv5_3/sep
I0927 20:45:51.329273 30272 net.cpp:408] conv5_4/dw -> conv5_4/dw
I0927 20:45:51.329427 30272 net.cpp:150] Setting up conv5_4/dw
I0927 20:45:51.329432 30272 net.cpp:157] Top shape: 1 512 19 32 (311296)
I0927 20:45:51.329433 30272 net.cpp:165] Memory required for data: 235302752
I0927 20:45:51.329437 30272 layer_factory.hpp:77] Creating layer conv5_4/dw/bn
I0927 20:45:51.329439 30272 net.cpp:100] Creating Layer conv5_4/dw/bn
I0927 20:45:51.329442 30272 net.cpp:434] conv5_4/dw/bn <- conv5_4/dw
I0927 20:45:51.329444 30272 net.cpp:395] conv5_4/dw/bn -> conv5_4/dw (in-place)
I0927 20:45:51.329565 30272 net.cpp:150] Setting up conv5_4/dw/bn
I0927 20:45:51.329568 30272 net.cpp:157] Top shape: 1 512 19 32 (311296)
I0927 20:45:51.329571 30272 net.cpp:165] Memory required for data: 236547936
I0927 20:45:51.329574 30272 layer_factory.hpp:77] Creating layer conv5_4/dw/scale
I0927 20:45:51.329578 30272 net.cpp:100] Creating Layer conv5_4/dw/scale
I0927 20:45:51.329579 30272 net.cpp:434] conv5_4/dw/scale <- conv5_4/dw
I0927 20:45:51.329582 30272 net.cpp:395] conv5_4/dw/scale -> conv5_4/dw (in-place)
I0927 20:45:51.329607 30272 layer_factory.hpp:77] Creating layer conv5_4/dw/scale
I0927 20:45:51.329677 30272 net.cpp:150] Setting up conv5_4/dw/scale
I0927 20:45:51.329680 30272 net.cpp:157] Top shape: 1 512 19 32 (311296)
I0927 20:45:51.329682 30272 net.cpp:165] Memory required for data: 237793120
I0927 20:45:51.329685 30272 layer_factory.hpp:77] Creating layer relu5_4/dw
I0927 20:45:51.329689 30272 net.cpp:100] Creating Layer relu5_4/dw
I0927 20:45:51.329690 30272 net.cpp:434] relu5_4/dw <- conv5_4/dw
I0927 20:45:51.329694 30272 net.cpp:395] relu5_4/dw -> conv5_4/dw (in-place)
I0927 20:45:51.329952 30272 net.cpp:150] Setting up relu5_4/dw
I0927 20:45:51.329957 30272 net.cpp:157] Top shape: 1 512 19 32 (311296)
I0927 20:45:51.329958 30272 net.cpp:165] Memory required for data: 239038304
I0927 20:45:51.329960 30272 layer_factory.hpp:77] Creating layer conv5_4/sep
I0927 20:45:51.329965 30272 net.cpp:100] Creating Layer conv5_4/sep
I0927 20:45:51.329967 30272 net.cpp:434] conv5_4/sep <- conv5_4/dw
I0927 20:45:51.329970 30272 net.cpp:408] conv5_4/sep -> conv5_4/sep
I0927 20:45:51.333009 30272 net.cpp:150] Setting up conv5_4/sep
I0927 20:45:51.333017 30272 net.cpp:157] Top shape: 1 512 19 32 (311296)
I0927 20:45:51.333019 30272 net.cpp:165] Memory required for data: 240283488
I0927 20:45:51.333022 30272 layer_factory.hpp:77] Creating layer conv5_4/sep/bn
I0927 20:45:51.333027 30272 net.cpp:100] Creating Layer conv5_4/sep/bn
I0927 20:45:51.333029 30272 net.cpp:434] conv5_4/sep/bn <- conv5_4/sep
I0927 20:45:51.333032 30272 net.cpp:395] conv5_4/sep/bn -> conv5_4/sep (in-place)
I0927 20:45:51.333160 30272 net.cpp:150] Setting up conv5_4/sep/bn
I0927 20:45:51.333164 30272 net.cpp:157] Top shape: 1 512 19 32 (311296)
I0927 20:45:51.333166 30272 net.cpp:165] Memory required for data: 241528672
I0927 20:45:51.333170 30272 layer_factory.hpp:77] Creating layer conv5_4/sep/scale
I0927 20:45:51.333174 30272 net.cpp:100] Creating Layer conv5_4/sep/scale
I0927 20:45:51.333176 30272 net.cpp:434] conv5_4/sep/scale <- conv5_4/sep
I0927 20:45:51.333178 30272 net.cpp:395] conv5_4/sep/scale -> conv5_4/sep (in-place)
I0927 20:45:51.333204 30272 layer_factory.hpp:77] Creating layer conv5_4/sep/scale
I0927 20:45:51.333276 30272 net.cpp:150] Setting up conv5_4/sep/scale
I0927 20:45:51.333281 30272 net.cpp:157] Top shape: 1 512 19 32 (311296)
I0927 20:45:51.333282 30272 net.cpp:165] Memory required for data: 242773856
I0927 20:45:51.333286 30272 layer_factory.hpp:77] Creating layer relu5_4/sep
I0927 20:45:51.333288 30272 net.cpp:100] Creating Layer relu5_4/sep
I0927 20:45:51.333289 30272 net.cpp:434] relu5_4/sep <- conv5_4/sep
I0927 20:45:51.333292 30272 net.cpp:395] relu5_4/sep -> conv5_4/sep (in-place)
I0927 20:45:51.333559 30272 net.cpp:150] Setting up relu5_4/sep
I0927 20:45:51.333571 30272 net.cpp:157] Top shape: 1 512 19 32 (311296)
I0927 20:45:51.333573 30272 net.cpp:165] Memory required for data: 244019040
I0927 20:45:51.333576 30272 layer_factory.hpp:77] Creating layer conv5_5/dw
I0927 20:45:51.333581 30272 net.cpp:100] Creating Layer conv5_5/dw
I0927 20:45:51.333583 30272 net.cpp:434] conv5_5/dw <- conv5_4/sep
I0927 20:45:51.333586 30272 net.cpp:408] conv5_5/dw -> conv5_5/dw
I0927 20:45:51.333741 30272 net.cpp:150] Setting up conv5_5/dw
I0927 20:45:51.333745 30272 net.cpp:157] Top shape: 1 512 19 32 (311296)
I0927 20:45:51.333747 30272 net.cpp:165] Memory required for data: 245264224
I0927 20:45:51.333750 30272 layer_factory.hpp:77] Creating layer conv5_5/dw/bn
I0927 20:45:51.333753 30272 net.cpp:100] Creating Layer conv5_5/dw/bn
I0927 20:45:51.333755 30272 net.cpp:434] conv5_5/dw/bn <- conv5_5/dw
I0927 20:45:51.333757 30272 net.cpp:395] conv5_5/dw/bn -> conv5_5/dw (in-place)
I0927 20:45:51.333880 30272 net.cpp:150] Setting up conv5_5/dw/bn
I0927 20:45:51.333884 30272 net.cpp:157] Top shape: 1 512 19 32 (311296)
I0927 20:45:51.333885 30272 net.cpp:165] Memory required for data: 246509408
I0927 20:45:51.333899 30272 layer_factory.hpp:77] Creating layer conv5_5/dw/scale
I0927 20:45:51.333902 30272 net.cpp:100] Creating Layer conv5_5/dw/scale
I0927 20:45:51.333905 30272 net.cpp:434] conv5_5/dw/scale <- conv5_5/dw
I0927 20:45:51.333909 30272 net.cpp:395] conv5_5/dw/scale -> conv5_5/dw (in-place)
I0927 20:45:51.333935 30272 layer_factory.hpp:77] Creating layer conv5_5/dw/scale
I0927 20:45:51.334005 30272 net.cpp:150] Setting up conv5_5/dw/scale
I0927 20:45:51.334010 30272 net.cpp:157] Top shape: 1 512 19 32 (311296)
I0927 20:45:51.334012 30272 net.cpp:165] Memory required for data: 247754592
I0927 20:45:51.334015 30272 layer_factory.hpp:77] Creating layer relu5_5/dw
I0927 20:45:51.334018 30272 net.cpp:100] Creating Layer relu5_5/dw
I0927 20:45:51.334020 30272 net.cpp:434] relu5_5/dw <- conv5_5/dw
I0927 20:45:51.334022 30272 net.cpp:395] relu5_5/dw -> conv5_5/dw (in-place)
I0927 20:45:51.334288 30272 net.cpp:150] Setting up relu5_5/dw
I0927 20:45:51.334295 30272 net.cpp:157] Top shape: 1 512 19 32 (311296)
I0927 20:45:51.334296 30272 net.cpp:165] Memory required for data: 248999776
I0927 20:45:51.334298 30272 layer_factory.hpp:77] Creating layer conv5_5/sep
I0927 20:45:51.334303 30272 net.cpp:100] Creating Layer conv5_5/sep
I0927 20:45:51.334306 30272 net.cpp:434] conv5_5/sep <- conv5_5/dw
I0927 20:45:51.334309 30272 net.cpp:408] conv5_5/sep -> conv5_5/sep
I0927 20:45:51.337000 30272 net.cpp:150] Setting up conv5_5/sep
I0927 20:45:51.337007 30272 net.cpp:157] Top shape: 1 512 19 32 (311296)
I0927 20:45:51.337009 30272 net.cpp:165] Memory required for data: 250244960
I0927 20:45:51.337013 30272 layer_factory.hpp:77] Creating layer conv5_5/sep/bn
I0927 20:45:51.337016 30272 net.cpp:100] Creating Layer conv5_5/sep/bn
I0927 20:45:51.337018 30272 net.cpp:434] conv5_5/sep/bn <- conv5_5/sep
I0927 20:45:51.337021 30272 net.cpp:395] conv5_5/sep/bn -> conv5_5/sep (in-place)
I0927 20:45:51.337149 30272 net.cpp:150] Setting up conv5_5/sep/bn
I0927 20:45:51.337153 30272 net.cpp:157] Top shape: 1 512 19 32 (311296)
I0927 20:45:51.337154 30272 net.cpp:165] Memory required for data: 251490144
I0927 20:45:51.337158 30272 layer_factory.hpp:77] Creating layer conv5_5/sep/scale
I0927 20:45:51.337162 30272 net.cpp:100] Creating Layer conv5_5/sep/scale
I0927 20:45:51.337164 30272 net.cpp:434] conv5_5/sep/scale <- conv5_5/sep
I0927 20:45:51.337167 30272 net.cpp:395] conv5_5/sep/scale -> conv5_5/sep (in-place)
I0927 20:45:51.337193 30272 layer_factory.hpp:77] Creating layer conv5_5/sep/scale
I0927 20:45:51.337265 30272 net.cpp:150] Setting up conv5_5/sep/scale
I0927 20:45:51.337267 30272 net.cpp:157] Top shape: 1 512 19 32 (311296)
I0927 20:45:51.337270 30272 net.cpp:165] Memory required for data: 252735328
I0927 20:45:51.337272 30272 layer_factory.hpp:77] Creating layer relu5_5/sep
I0927 20:45:51.337275 30272 net.cpp:100] Creating Layer relu5_5/sep
I0927 20:45:51.337276 30272 net.cpp:434] relu5_5/sep <- conv5_5/sep
I0927 20:45:51.337287 30272 net.cpp:395] relu5_5/sep -> conv5_5/sep (in-place)
I0927 20:45:51.337553 30272 net.cpp:150] Setting up relu5_5/sep
I0927 20:45:51.337560 30272 net.cpp:157] Top shape: 1 512 19 32 (311296)
I0927 20:45:51.337563 30272 net.cpp:165] Memory required for data: 253980512
I0927 20:45:51.337563 30272 layer_factory.hpp:77] Creating layer conv5_5/sep_relu5_5/sep_0_split
I0927 20:45:51.337566 30272 net.cpp:100] Creating Layer conv5_5/sep_relu5_5/sep_0_split
I0927 20:45:51.337569 30272 net.cpp:434] conv5_5/sep_relu5_5/sep_0_split <- conv5_5/sep
I0927 20:45:51.337572 30272 net.cpp:408] conv5_5/sep_relu5_5/sep_0_split -> conv5_5/sep_relu5_5/sep_0_split_0
I0927 20:45:51.337579 30272 net.cpp:408] conv5_5/sep_relu5_5/sep_0_split -> conv5_5/sep_relu5_5/sep_0_split_1
I0927 20:45:51.337605 30272 net.cpp:150] Setting up conv5_5/sep_relu5_5/sep_0_split
I0927 20:45:51.337610 30272 net.cpp:157] Top shape: 1 512 19 32 (311296)
I0927 20:45:51.337612 30272 net.cpp:157] Top shape: 1 512 19 32 (311296)
I0927 20:45:51.337613 30272 net.cpp:165] Memory required for data: 256470880
I0927 20:45:51.337615 30272 layer_factory.hpp:77] Creating layer conv5_6/dw
I0927 20:45:51.337620 30272 net.cpp:100] Creating Layer conv5_6/dw
I0927 20:45:51.337622 30272 net.cpp:434] conv5_6/dw <- conv5_5/sep_relu5_5/sep_0_split_0
I0927 20:45:51.337625 30272 net.cpp:408] conv5_6/dw -> conv5_6/dw
I0927 20:45:51.337775 30272 net.cpp:150] Setting up conv5_6/dw
I0927 20:45:51.337779 30272 net.cpp:157] Top shape: 1 512 10 16 (81920)
I0927 20:45:51.337781 30272 net.cpp:165] Memory required for data: 256798560
I0927 20:45:51.337785 30272 layer_factory.hpp:77] Creating layer conv5_6/dw/bn
I0927 20:45:51.337787 30272 net.cpp:100] Creating Layer conv5_6/dw/bn
I0927 20:45:51.337790 30272 net.cpp:434] conv5_6/dw/bn <- conv5_6/dw
I0927 20:45:51.337792 30272 net.cpp:395] conv5_6/dw/bn -> conv5_6/dw (in-place)
I0927 20:45:51.337921 30272 net.cpp:150] Setting up conv5_6/dw/bn
I0927 20:45:51.337924 30272 net.cpp:157] Top shape: 1 512 10 16 (81920)
I0927 20:45:51.337926 30272 net.cpp:165] Memory required for data: 257126240
I0927 20:45:51.337930 30272 layer_factory.hpp:77] Creating layer conv5_6/dw/scale
I0927 20:45:51.337934 30272 net.cpp:100] Creating Layer conv5_6/dw/scale
I0927 20:45:51.337935 30272 net.cpp:434] conv5_6/dw/scale <- conv5_6/dw
I0927 20:45:51.337939 30272 net.cpp:395] conv5_6/dw/scale -> conv5_6/dw (in-place)
I0927 20:45:51.337961 30272 layer_factory.hpp:77] Creating layer conv5_6/dw/scale
I0927 20:45:51.338034 30272 net.cpp:150] Setting up conv5_6/dw/scale
I0927 20:45:51.338038 30272 net.cpp:157] Top shape: 1 512 10 16 (81920)
I0927 20:45:51.338040 30272 net.cpp:165] Memory required for data: 257453920
I0927 20:45:51.338043 30272 layer_factory.hpp:77] Creating layer relu5_6/dw
I0927 20:45:51.338047 30272 net.cpp:100] Creating Layer relu5_6/dw
I0927 20:45:51.338047 30272 net.cpp:434] relu5_6/dw <- conv5_6/dw
I0927 20:45:51.338050 30272 net.cpp:395] relu5_6/dw -> conv5_6/dw (in-place)
I0927 20:45:51.338315 30272 net.cpp:150] Setting up relu5_6/dw
I0927 20:45:51.338320 30272 net.cpp:157] Top shape: 1 512 10 16 (81920)
I0927 20:45:51.338323 30272 net.cpp:165] Memory required for data: 257781600
I0927 20:45:51.338325 30272 layer_factory.hpp:77] Creating layer conv5_6/sep
I0927 20:45:51.338330 30272 net.cpp:100] Creating Layer conv5_6/sep
I0927 20:45:51.338332 30272 net.cpp:434] conv5_6/sep <- conv5_6/dw
I0927 20:45:51.338335 30272 net.cpp:408] conv5_6/sep -> conv5_6/sep
I0927 20:45:51.342931 30272 net.cpp:150] Setting up conv5_6/sep
I0927 20:45:51.342938 30272 net.cpp:157] Top shape: 1 1024 10 16 (163840)
I0927 20:45:51.342941 30272 net.cpp:165] Memory required for data: 258436960
I0927 20:45:51.342943 30272 layer_factory.hpp:77] Creating layer conv5_6/sep/bn
I0927 20:45:51.342949 30272 net.cpp:100] Creating Layer conv5_6/sep/bn
I0927 20:45:51.342952 30272 net.cpp:434] conv5_6/sep/bn <- conv5_6/sep
I0927 20:45:51.342953 30272 net.cpp:395] conv5_6/sep/bn -> conv5_6/sep (in-place)
I0927 20:45:51.343087 30272 net.cpp:150] Setting up conv5_6/sep/bn
I0927 20:45:51.343099 30272 net.cpp:157] Top shape: 1 1024 10 16 (163840)
I0927 20:45:51.343101 30272 net.cpp:165] Memory required for data: 259092320
I0927 20:45:51.343106 30272 layer_factory.hpp:77] Creating layer conv5_6/sep/scale
I0927 20:45:51.343108 30272 net.cpp:100] Creating Layer conv5_6/sep/scale
I0927 20:45:51.343111 30272 net.cpp:434] conv5_6/sep/scale <- conv5_6/sep
I0927 20:45:51.343113 30272 net.cpp:395] conv5_6/sep/scale -> conv5_6/sep (in-place)
I0927 20:45:51.343138 30272 layer_factory.hpp:77] Creating layer conv5_6/sep/scale
I0927 20:45:51.343214 30272 net.cpp:150] Setting up conv5_6/sep/scale
I0927 20:45:51.343219 30272 net.cpp:157] Top shape: 1 1024 10 16 (163840)
I0927 20:45:51.343221 30272 net.cpp:165] Memory required for data: 259747680
I0927 20:45:51.343225 30272 layer_factory.hpp:77] Creating layer relu5_6/sep
I0927 20:45:51.343226 30272 net.cpp:100] Creating Layer relu5_6/sep
I0927 20:45:51.343228 30272 net.cpp:434] relu5_6/sep <- conv5_6/sep
I0927 20:45:51.343231 30272 net.cpp:395] relu5_6/sep -> conv5_6/sep (in-place)
I0927 20:45:51.343502 30272 net.cpp:150] Setting up relu5_6/sep
I0927 20:45:51.343508 30272 net.cpp:157] Top shape: 1 1024 10 16 (163840)
I0927 20:45:51.343510 30272 net.cpp:165] Memory required for data: 260403040
I0927 20:45:51.343511 30272 layer_factory.hpp:77] Creating layer conv6/dw
I0927 20:45:51.343516 30272 net.cpp:100] Creating Layer conv6/dw
I0927 20:45:51.343518 30272 net.cpp:434] conv6/dw <- conv5_6/sep
I0927 20:45:51.343521 30272 net.cpp:408] conv6/dw -> conv6/dw
I0927 20:45:51.343708 30272 net.cpp:150] Setting up conv6/dw
I0927 20:45:51.343711 30272 net.cpp:157] Top shape: 1 1024 10 16 (163840)
I0927 20:45:51.343713 30272 net.cpp:165] Memory required for data: 261058400
I0927 20:45:51.343716 30272 layer_factory.hpp:77] Creating layer conv6/dw/bn
I0927 20:45:51.343719 30272 net.cpp:100] Creating Layer conv6/dw/bn
I0927 20:45:51.343721 30272 net.cpp:434] conv6/dw/bn <- conv6/dw
I0927 20:45:51.343724 30272 net.cpp:395] conv6/dw/bn -> conv6/dw (in-place)
I0927 20:45:51.343848 30272 net.cpp:150] Setting up conv6/dw/bn
I0927 20:45:51.343852 30272 net.cpp:157] Top shape: 1 1024 10 16 (163840)
I0927 20:45:51.343853 30272 net.cpp:165] Memory required for data: 261713760
I0927 20:45:51.343856 30272 layer_factory.hpp:77] Creating layer conv6/dw/scale
I0927 20:45:51.343861 30272 net.cpp:100] Creating Layer conv6/dw/scale
I0927 20:45:51.343863 30272 net.cpp:434] conv6/dw/scale <- conv6/dw
I0927 20:45:51.343865 30272 net.cpp:395] conv6/dw/scale -> conv6/dw (in-place)
I0927 20:45:51.343888 30272 layer_factory.hpp:77] Creating layer conv6/dw/scale
I0927 20:45:51.343961 30272 net.cpp:150] Setting up conv6/dw/scale
I0927 20:45:51.343966 30272 net.cpp:157] Top shape: 1 1024 10 16 (163840)
I0927 20:45:51.343967 30272 net.cpp:165] Memory required for data: 262369120
I0927 20:45:51.343971 30272 layer_factory.hpp:77] Creating layer relu6/dw
I0927 20:45:51.343973 30272 net.cpp:100] Creating Layer relu6/dw
I0927 20:45:51.343974 30272 net.cpp:434] relu6/dw <- conv6/dw
I0927 20:45:51.343977 30272 net.cpp:395] relu6/dw -> conv6/dw (in-place)
I0927 20:45:51.344244 30272 net.cpp:150] Setting up relu6/dw
I0927 20:45:51.344250 30272 net.cpp:157] Top shape: 1 1024 10 16 (163840)
I0927 20:45:51.344251 30272 net.cpp:165] Memory required for data: 263024480
I0927 20:45:51.344254 30272 layer_factory.hpp:77] Creating layer conv6/sep
I0927 20:45:51.344257 30272 net.cpp:100] Creating Layer conv6/sep
I0927 20:45:51.344260 30272 net.cpp:434] conv6/sep <- conv6/dw
I0927 20:45:51.344264 30272 net.cpp:408] conv6/sep -> conv6/sep
I0927 20:45:51.352152 30272 net.cpp:150] Setting up conv6/sep
I0927 20:45:51.352164 30272 net.cpp:157] Top shape: 1 1024 10 16 (163840)
I0927 20:45:51.352166 30272 net.cpp:165] Memory required for data: 263679840
I0927 20:45:51.352170 30272 layer_factory.hpp:77] Creating layer conv6/sep/bn
I0927 20:45:51.352176 30272 net.cpp:100] Creating Layer conv6/sep/bn
I0927 20:45:51.352178 30272 net.cpp:434] conv6/sep/bn <- conv6/sep
I0927 20:45:51.352182 30272 net.cpp:395] conv6/sep/bn -> conv6/sep (in-place)
I0927 20:45:51.352332 30272 net.cpp:150] Setting up conv6/sep/bn
I0927 20:45:51.352336 30272 net.cpp:157] Top shape: 1 1024 10 16 (163840)
I0927 20:45:51.352337 30272 net.cpp:165] Memory required for data: 264335200
I0927 20:45:51.352342 30272 layer_factory.hpp:77] Creating layer conv6/sep/scale
I0927 20:45:51.352347 30272 net.cpp:100] Creating Layer conv6/sep/scale
I0927 20:45:51.352349 30272 net.cpp:434] conv6/sep/scale <- conv6/sep
I0927 20:45:51.352351 30272 net.cpp:395] conv6/sep/scale -> conv6/sep (in-place)
I0927 20:45:51.352376 30272 layer_factory.hpp:77] Creating layer conv6/sep/scale
I0927 20:45:51.352452 30272 net.cpp:150] Setting up conv6/sep/scale
I0927 20:45:51.352455 30272 net.cpp:157] Top shape: 1 1024 10 16 (163840)
I0927 20:45:51.352457 30272 net.cpp:165] Memory required for data: 264990560
I0927 20:45:51.352460 30272 layer_factory.hpp:77] Creating layer relu6/sep
I0927 20:45:51.352463 30272 net.cpp:100] Creating Layer relu6/sep
I0927 20:45:51.352465 30272 net.cpp:434] relu6/sep <- conv6/sep
I0927 20:45:51.352468 30272 net.cpp:395] relu6/sep -> conv6/sep (in-place)
I0927 20:45:51.352744 30272 net.cpp:150] Setting up relu6/sep
I0927 20:45:51.352749 30272 net.cpp:157] Top shape: 1 1024 10 16 (163840)
I0927 20:45:51.352751 30272 net.cpp:165] Memory required for data: 265645920
I0927 20:45:51.352753 30272 layer_factory.hpp:77] Creating layer conv6/sep_relu6/sep_0_split
I0927 20:45:51.352757 30272 net.cpp:100] Creating Layer conv6/sep_relu6/sep_0_split
I0927 20:45:51.352759 30272 net.cpp:434] conv6/sep_relu6/sep_0_split <- conv6/sep
I0927 20:45:51.352762 30272 net.cpp:408] conv6/sep_relu6/sep_0_split -> conv6/sep_relu6/sep_0_split_0
I0927 20:45:51.352766 30272 net.cpp:408] conv6/sep_relu6/sep_0_split -> conv6/sep_relu6/sep_0_split_1
I0927 20:45:51.352771 30272 net.cpp:408] conv6/sep_relu6/sep_0_split -> conv6/sep_relu6/sep_0_split_2
I0927 20:45:51.352773 30272 net.cpp:408] conv6/sep_relu6/sep_0_split -> conv6/sep_relu6/sep_0_split_3
I0927 20:45:51.352819 30272 net.cpp:150] Setting up conv6/sep_relu6/sep_0_split
I0927 20:45:51.352823 30272 net.cpp:157] Top shape: 1 1024 10 16 (163840)
I0927 20:45:51.352826 30272 net.cpp:157] Top shape: 1 1024 10 16 (163840)
I0927 20:45:51.352828 30272 net.cpp:157] Top shape: 1 1024 10 16 (163840)
I0927 20:45:51.352830 30272 net.cpp:157] Top shape: 1 1024 10 16 (163840)
I0927 20:45:51.352831 30272 net.cpp:165] Memory required for data: 268267360
I0927 20:45:51.352833 30272 layer_factory.hpp:77] Creating layer ssd1_1
I0927 20:45:51.352839 30272 net.cpp:100] Creating Layer ssd1_1
I0927 20:45:51.352841 30272 net.cpp:434] ssd1_1 <- conv6/sep_relu6/sep_0_split_0
I0927 20:45:51.352845 30272 net.cpp:408] ssd1_1 -> ssd1_1
I0927 20:45:51.355298 30272 net.cpp:150] Setting up ssd1_1
I0927 20:45:51.355307 30272 net.cpp:157] Top shape: 1 256 10 16 (40960)
I0927 20:45:51.355309 30272 net.cpp:165] Memory required for data: 268431200
I0927 20:45:51.355314 30272 layer_factory.hpp:77] Creating layer ssd1_1_relu
I0927 20:45:51.355317 30272 net.cpp:100] Creating Layer ssd1_1_relu
I0927 20:45:51.355319 30272 net.cpp:434] ssd1_1_relu <- ssd1_1
I0927 20:45:51.355322 30272 net.cpp:395] ssd1_1_relu -> ssd1_1 (in-place)
I0927 20:45:51.355707 30272 net.cpp:150] Setting up ssd1_1_relu
I0927 20:45:51.355715 30272 net.cpp:157] Top shape: 1 256 10 16 (40960)
I0927 20:45:51.355715 30272 net.cpp:165] Memory required for data: 268595040
I0927 20:45:51.355717 30272 layer_factory.hpp:77] Creating layer ssd1_2
I0927 20:45:51.355723 30272 net.cpp:100] Creating Layer ssd1_2
I0927 20:45:51.355726 30272 net.cpp:434] ssd1_2 <- ssd1_1
I0927 20:45:51.355729 30272 net.cpp:408] ssd1_2 -> ssd1_2
I0927 20:45:51.361362 30272 net.cpp:150] Setting up ssd1_2
I0927 20:45:51.361376 30272 net.cpp:157] Top shape: 1 512 5 8 (20480)
I0927 20:45:51.361377 30272 net.cpp:165] Memory required for data: 268676960
I0927 20:45:51.361383 30272 layer_factory.hpp:77] Creating layer ssd1_2_relu
I0927 20:45:51.361387 30272 net.cpp:100] Creating Layer ssd1_2_relu
I0927 20:45:51.361390 30272 net.cpp:434] ssd1_2_relu <- ssd1_2
I0927 20:45:51.361407 30272 net.cpp:395] ssd1_2_relu -> ssd1_2 (in-place)
I0927 20:45:51.361683 30272 net.cpp:150] Setting up ssd1_2_relu
I0927 20:45:51.361690 30272 net.cpp:157] Top shape: 1 512 5 8 (20480)
I0927 20:45:51.361691 30272 net.cpp:165] Memory required for data: 268758880
I0927 20:45:51.361693 30272 layer_factory.hpp:77] Creating layer ssd1_2_ssd1_2_relu_0_split
I0927 20:45:51.361697 30272 net.cpp:100] Creating Layer ssd1_2_ssd1_2_relu_0_split
I0927 20:45:51.361698 30272 net.cpp:434] ssd1_2_ssd1_2_relu_0_split <- ssd1_2
I0927 20:45:51.361702 30272 net.cpp:408] ssd1_2_ssd1_2_relu_0_split -> ssd1_2_ssd1_2_relu_0_split_0
I0927 20:45:51.361707 30272 net.cpp:408] ssd1_2_ssd1_2_relu_0_split -> ssd1_2_ssd1_2_relu_0_split_1
I0927 20:45:51.361711 30272 net.cpp:408] ssd1_2_ssd1_2_relu_0_split -> ssd1_2_ssd1_2_relu_0_split_2
I0927 20:45:51.361713 30272 net.cpp:408] ssd1_2_ssd1_2_relu_0_split -> ssd1_2_ssd1_2_relu_0_split_3
I0927 20:45:51.361759 30272 net.cpp:150] Setting up ssd1_2_ssd1_2_relu_0_split
I0927 20:45:51.361763 30272 net.cpp:157] Top shape: 1 512 5 8 (20480)
I0927 20:45:51.361765 30272 net.cpp:157] Top shape: 1 512 5 8 (20480)
I0927 20:45:51.361768 30272 net.cpp:157] Top shape: 1 512 5 8 (20480)
I0927 20:45:51.361769 30272 net.cpp:157] Top shape: 1 512 5 8 (20480)
I0927 20:45:51.361771 30272 net.cpp:165] Memory required for data: 269086560
I0927 20:45:51.361773 30272 layer_factory.hpp:77] Creating layer ssd2_1
I0927 20:45:51.361778 30272 net.cpp:100] Creating Layer ssd2_1
I0927 20:45:51.361780 30272 net.cpp:434] ssd2_1 <- ssd1_2_ssd1_2_relu_0_split_0
I0927 20:45:51.361784 30272 net.cpp:408] ssd2_1 -> ssd2_1
I0927 20:45:51.363188 30272 net.cpp:150] Setting up ssd2_1
I0927 20:45:51.363195 30272 net.cpp:157] Top shape: 1 128 5 8 (5120)
I0927 20:45:51.363198 30272 net.cpp:165] Memory required for data: 269107040
I0927 20:45:51.363203 30272 layer_factory.hpp:77] Creating layer ssd2_1_relu
I0927 20:45:51.363205 30272 net.cpp:100] Creating Layer ssd2_1_relu
I0927 20:45:51.363209 30272 net.cpp:434] ssd2_1_relu <- ssd2_1
I0927 20:45:51.363210 30272 net.cpp:395] ssd2_1_relu -> ssd2_1 (in-place)
I0927 20:45:51.363597 30272 net.cpp:150] Setting up ssd2_1_relu
I0927 20:45:51.363603 30272 net.cpp:157] Top shape: 1 128 5 8 (5120)
I0927 20:45:51.363605 30272 net.cpp:165] Memory required for data: 269127520
I0927 20:45:51.363607 30272 layer_factory.hpp:77] Creating layer ssd2_2
I0927 20:45:51.363613 30272 net.cpp:100] Creating Layer ssd2_2
I0927 20:45:51.363615 30272 net.cpp:434] ssd2_2 <- ssd2_1
I0927 20:45:51.363618 30272 net.cpp:408] ssd2_2 -> ssd2_2
I0927 20:45:51.366086 30272 net.cpp:150] Setting up ssd2_2
I0927 20:45:51.366094 30272 net.cpp:157] Top shape: 1 256 3 4 (3072)
I0927 20:45:51.366096 30272 net.cpp:165] Memory required for data: 269139808
I0927 20:45:51.366101 30272 layer_factory.hpp:77] Creating layer ssd2_2_relu
I0927 20:45:51.366106 30272 net.cpp:100] Creating Layer ssd2_2_relu
I0927 20:45:51.366107 30272 net.cpp:434] ssd2_2_relu <- ssd2_2
I0927 20:45:51.366111 30272 net.cpp:395] ssd2_2_relu -> ssd2_2 (in-place)
I0927 20:45:51.366386 30272 net.cpp:150] Setting up ssd2_2_relu
I0927 20:45:51.366391 30272 net.cpp:157] Top shape: 1 256 3 4 (3072)
I0927 20:45:51.366394 30272 net.cpp:165] Memory required for data: 269152096
I0927 20:45:51.366395 30272 layer_factory.hpp:77] Creating layer ssd2_2_ssd2_2_relu_0_split
I0927 20:45:51.366400 30272 net.cpp:100] Creating Layer ssd2_2_ssd2_2_relu_0_split
I0927 20:45:51.366401 30272 net.cpp:434] ssd2_2_ssd2_2_relu_0_split <- ssd2_2
I0927 20:45:51.366405 30272 net.cpp:408] ssd2_2_ssd2_2_relu_0_split -> ssd2_2_ssd2_2_relu_0_split_0
I0927 20:45:51.366408 30272 net.cpp:408] ssd2_2_ssd2_2_relu_0_split -> ssd2_2_ssd2_2_relu_0_split_1
I0927 20:45:51.366412 30272 net.cpp:408] ssd2_2_ssd2_2_relu_0_split -> ssd2_2_ssd2_2_relu_0_split_2
I0927 20:45:51.366415 30272 net.cpp:408] ssd2_2_ssd2_2_relu_0_split -> ssd2_2_ssd2_2_relu_0_split_3
I0927 20:45:51.366462 30272 net.cpp:150] Setting up ssd2_2_ssd2_2_relu_0_split
I0927 20:45:51.366466 30272 net.cpp:157] Top shape: 1 256 3 4 (3072)
I0927 20:45:51.366477 30272 net.cpp:157] Top shape: 1 256 3 4 (3072)
I0927 20:45:51.366478 30272 net.cpp:157] Top shape: 1 256 3 4 (3072)
I0927 20:45:51.366482 30272 net.cpp:157] Top shape: 1 256 3 4 (3072)
I0927 20:45:51.366482 30272 net.cpp:165] Memory required for data: 269201248
I0927 20:45:51.366484 30272 layer_factory.hpp:77] Creating layer ssd3_1
I0927 20:45:51.366490 30272 net.cpp:100] Creating Layer ssd3_1
I0927 20:45:51.366492 30272 net.cpp:434] ssd3_1 <- ssd2_2_ssd2_2_relu_0_split_0
I0927 20:45:51.366497 30272 net.cpp:408] ssd3_1 -> ssd3_1
I0927 20:45:51.368240 30272 net.cpp:150] Setting up ssd3_1
I0927 20:45:51.368248 30272 net.cpp:157] Top shape: 1 128 3 4 (1536)
I0927 20:45:51.368250 30272 net.cpp:165] Memory required for data: 269207392
I0927 20:45:51.368255 30272 layer_factory.hpp:77] Creating layer ssd3_1_relu
I0927 20:45:51.368258 30272 net.cpp:100] Creating Layer ssd3_1_relu
I0927 20:45:51.368260 30272 net.cpp:434] ssd3_1_relu <- ssd3_1
I0927 20:45:51.368263 30272 net.cpp:395] ssd3_1_relu -> ssd3_1 (in-place)
I0927 20:45:51.368538 30272 net.cpp:150] Setting up ssd3_1_relu
I0927 20:45:51.368544 30272 net.cpp:157] Top shape: 1 128 3 4 (1536)
I0927 20:45:51.368546 30272 net.cpp:165] Memory required for data: 269213536
I0927 20:45:51.368548 30272 layer_factory.hpp:77] Creating layer ssd3_2
I0927 20:45:51.368553 30272 net.cpp:100] Creating Layer ssd3_2
I0927 20:45:51.368556 30272 net.cpp:434] ssd3_2 <- ssd3_1
I0927 20:45:51.368559 30272 net.cpp:408] ssd3_2 -> ssd3_2
I0927 20:45:51.371021 30272 net.cpp:150] Setting up ssd3_2
I0927 20:45:51.371028 30272 net.cpp:157] Top shape: 1 256 2 2 (1024)
I0927 20:45:51.371031 30272 net.cpp:165] Memory required for data: 269217632
I0927 20:45:51.371034 30272 layer_factory.hpp:77] Creating layer ssd3_2_relu
I0927 20:45:51.371037 30272 net.cpp:100] Creating Layer ssd3_2_relu
I0927 20:45:51.371039 30272 net.cpp:434] ssd3_2_relu <- ssd3_2
I0927 20:45:51.371043 30272 net.cpp:395] ssd3_2_relu -> ssd3_2 (in-place)
I0927 20:45:51.371418 30272 net.cpp:150] Setting up ssd3_2_relu
I0927 20:45:51.371425 30272 net.cpp:157] Top shape: 1 256 2 2 (1024)
I0927 20:45:51.371428 30272 net.cpp:165] Memory required for data: 269221728
I0927 20:45:51.371429 30272 layer_factory.hpp:77] Creating layer ssd3_2_ssd3_2_relu_0_split
I0927 20:45:51.371433 30272 net.cpp:100] Creating Layer ssd3_2_ssd3_2_relu_0_split
I0927 20:45:51.371435 30272 net.cpp:434] ssd3_2_ssd3_2_relu_0_split <- ssd3_2
I0927 20:45:51.371438 30272 net.cpp:408] ssd3_2_ssd3_2_relu_0_split -> ssd3_2_ssd3_2_relu_0_split_0
I0927 20:45:51.371443 30272 net.cpp:408] ssd3_2_ssd3_2_relu_0_split -> ssd3_2_ssd3_2_relu_0_split_1
I0927 20:45:51.371446 30272 net.cpp:408] ssd3_2_ssd3_2_relu_0_split -> ssd3_2_ssd3_2_relu_0_split_2
I0927 20:45:51.371450 30272 net.cpp:408] ssd3_2_ssd3_2_relu_0_split -> ssd3_2_ssd3_2_relu_0_split_3
I0927 20:45:51.371497 30272 net.cpp:150] Setting up ssd3_2_ssd3_2_relu_0_split
I0927 20:45:51.371501 30272 net.cpp:157] Top shape: 1 256 2 2 (1024)
I0927 20:45:51.371503 30272 net.cpp:157] Top shape: 1 256 2 2 (1024)
I0927 20:45:51.371506 30272 net.cpp:157] Top shape: 1 256 2 2 (1024)
I0927 20:45:51.371508 30272 net.cpp:157] Top shape: 1 256 2 2 (1024)
I0927 20:45:51.371510 30272 net.cpp:165] Memory required for data: 269238112
I0927 20:45:51.371511 30272 layer_factory.hpp:77] Creating layer ssd4_1
I0927 20:45:51.371517 30272 net.cpp:100] Creating Layer ssd4_1
I0927 20:45:51.371520 30272 net.cpp:434] ssd4_1 <- ssd3_2_ssd3_2_relu_0_split_0
I0927 20:45:51.371522 30272 net.cpp:408] ssd4_1 -> ssd4_1
I0927 20:45:51.372750 30272 net.cpp:150] Setting up ssd4_1
I0927 20:45:51.372757 30272 net.cpp:157] Top shape: 1 128 2 2 (512)
I0927 20:45:51.372758 30272 net.cpp:165] Memory required for data: 269240160
I0927 20:45:51.372762 30272 layer_factory.hpp:77] Creating layer ssd4_1_relu
I0927 20:45:51.372774 30272 net.cpp:100] Creating Layer ssd4_1_relu
I0927 20:45:51.372777 30272 net.cpp:434] ssd4_1_relu <- ssd4_1
I0927 20:45:51.372781 30272 net.cpp:395] ssd4_1_relu -> ssd4_1 (in-place)
I0927 20:45:51.373055 30272 net.cpp:150] Setting up ssd4_1_relu
I0927 20:45:51.373070 30272 net.cpp:157] Top shape: 1 128 2 2 (512)
I0927 20:45:51.373071 30272 net.cpp:165] Memory required for data: 269242208
I0927 20:45:51.373073 30272 layer_factory.hpp:77] Creating layer ssd4_2
I0927 20:45:51.373078 30272 net.cpp:100] Creating Layer ssd4_2
I0927 20:45:51.373080 30272 net.cpp:434] ssd4_2 <- ssd4_1
I0927 20:45:51.373085 30272 net.cpp:408] ssd4_2 -> ssd4_2
I0927 20:45:51.375630 30272 net.cpp:150] Setting up ssd4_2
I0927 20:45:51.375638 30272 net.cpp:157] Top shape: 1 256 1 1 (256)
I0927 20:45:51.375640 30272 net.cpp:165] Memory required for data: 269243232
I0927 20:45:51.375644 30272 layer_factory.hpp:77] Creating layer ssd4_2_relu
I0927 20:45:51.375648 30272 net.cpp:100] Creating Layer ssd4_2_relu
I0927 20:45:51.375650 30272 net.cpp:434] ssd4_2_relu <- ssd4_2
I0927 20:45:51.375653 30272 net.cpp:395] ssd4_2_relu -> ssd4_2 (in-place)
I0927 20:45:51.376031 30272 net.cpp:150] Setting up ssd4_2_relu
I0927 20:45:51.376037 30272 net.cpp:157] Top shape: 1 256 1 1 (256)
I0927 20:45:51.376039 30272 net.cpp:165] Memory required for data: 269244256
I0927 20:45:51.376041 30272 layer_factory.hpp:77] Creating layer ssd4_2_ssd4_2_relu_0_split
I0927 20:45:51.376045 30272 net.cpp:100] Creating Layer ssd4_2_ssd4_2_relu_0_split
I0927 20:45:51.376047 30272 net.cpp:434] ssd4_2_ssd4_2_relu_0_split <- ssd4_2
I0927 20:45:51.376050 30272 net.cpp:408] ssd4_2_ssd4_2_relu_0_split -> ssd4_2_ssd4_2_relu_0_split_0
I0927 20:45:51.376055 30272 net.cpp:408] ssd4_2_ssd4_2_relu_0_split -> ssd4_2_ssd4_2_relu_0_split_1
I0927 20:45:51.376060 30272 net.cpp:408] ssd4_2_ssd4_2_relu_0_split -> ssd4_2_ssd4_2_relu_0_split_2
I0927 20:45:51.376103 30272 net.cpp:150] Setting up ssd4_2_ssd4_2_relu_0_split
I0927 20:45:51.376106 30272 net.cpp:157] Top shape: 1 256 1 1 (256)
I0927 20:45:51.376109 30272 net.cpp:157] Top shape: 1 256 1 1 (256)
I0927 20:45:51.376112 30272 net.cpp:157] Top shape: 1 256 1 1 (256)
I0927 20:45:51.376113 30272 net.cpp:165] Memory required for data: 269247328
I0927 20:45:51.376116 30272 layer_factory.hpp:77] Creating layer conv5_5/sep_norm
I0927 20:45:51.376119 30272 net.cpp:100] Creating Layer conv5_5/sep_norm
I0927 20:45:51.376121 30272 net.cpp:434] conv5_5/sep_norm <- conv5_5/sep_relu5_5/sep_0_split_1
I0927 20:45:51.376124 30272 net.cpp:408] conv5_5/sep_norm -> conv5_5/sep_norm
I0927 20:45:51.376240 30272 net.cpp:150] Setting up conv5_5/sep_norm
I0927 20:45:51.376245 30272 net.cpp:157] Top shape: 1 512 19 32 (311296)
I0927 20:45:51.376247 30272 net.cpp:165] Memory required for data: 270492512
I0927 20:45:51.376250 30272 layer_factory.hpp:77] Creating layer conv5_5/sep_norm_conv5_5/sep_norm_0_split
I0927 20:45:51.376252 30272 net.cpp:100] Creating Layer conv5_5/sep_norm_conv5_5/sep_norm_0_split
I0927 20:45:51.376255 30272 net.cpp:434] conv5_5/sep_norm_conv5_5/sep_norm_0_split <- conv5_5/sep_norm
I0927 20:45:51.376258 30272 net.cpp:408] conv5_5/sep_norm_conv5_5/sep_norm_0_split -> conv5_5/sep_norm_conv5_5/sep_norm_0_split_0
I0927 20:45:51.376262 30272 net.cpp:408] conv5_5/sep_norm_conv5_5/sep_norm_0_split -> conv5_5/sep_norm_conv5_5/sep_norm_0_split_1
I0927 20:45:51.376266 30272 net.cpp:408] conv5_5/sep_norm_conv5_5/sep_norm_0_split -> conv5_5/sep_norm_conv5_5/sep_norm_0_split_2
I0927 20:45:51.376298 30272 net.cpp:150] Setting up conv5_5/sep_norm_conv5_5/sep_norm_0_split
I0927 20:45:51.376302 30272 net.cpp:157] Top shape: 1 512 19 32 (311296)
I0927 20:45:51.376304 30272 net.cpp:157] Top shape: 1 512 19 32 (311296)
I0927 20:45:51.376307 30272 net.cpp:157] Top shape: 1 512 19 32 (311296)
I0927 20:45:51.376307 30272 net.cpp:165] Memory required for data: 274228064
I0927 20:45:51.376309 30272 layer_factory.hpp:77] Creating layer conv5_5/sep_norm_mbox_loc
I0927 20:45:51.376315 30272 net.cpp:100] Creating Layer conv5_5/sep_norm_mbox_loc
I0927 20:45:51.376317 30272 net.cpp:434] conv5_5/sep_norm_mbox_loc <- conv5_5/sep_norm_conv5_5/sep_norm_0_split_0
I0927 20:45:51.376322 30272 net.cpp:408] conv5_5/sep_norm_mbox_loc -> conv5_5/sep_norm_mbox_loc
I0927 20:45:51.377648 30272 net.cpp:150] Setting up conv5_5/sep_norm_mbox_loc
I0927 20:45:51.377663 30272 net.cpp:157] Top shape: 1 8 19 32 (4864)
I0927 20:45:51.377665 30272 net.cpp:165] Memory required for data: 274247520
I0927 20:45:51.377669 30272 layer_factory.hpp:77] Creating layer conv5_5/sep_norm_mbox_loc_perm
I0927 20:45:51.377673 30272 net.cpp:100] Creating Layer conv5_5/sep_norm_mbox_loc_perm
I0927 20:45:51.377676 30272 net.cpp:434] conv5_5/sep_norm_mbox_loc_perm <- conv5_5/sep_norm_mbox_loc
I0927 20:45:51.377681 30272 net.cpp:408] conv5_5/sep_norm_mbox_loc_perm -> conv5_5/sep_norm_mbox_loc_perm
I0927 20:45:51.377758 30272 net.cpp:150] Setting up conv5_5/sep_norm_mbox_loc_perm
I0927 20:45:51.377763 30272 net.cpp:157] Top shape: 1 19 32 8 (4864)
I0927 20:45:51.377764 30272 net.cpp:165] Memory required for data: 274266976
I0927 20:45:51.377766 30272 layer_factory.hpp:77] Creating layer conv5_5/sep_norm_mbox_loc_flat
I0927 20:45:51.377769 30272 net.cpp:100] Creating Layer conv5_5/sep_norm_mbox_loc_flat
I0927 20:45:51.377773 30272 net.cpp:434] conv5_5/sep_norm_mbox_loc_flat <- conv5_5/sep_norm_mbox_loc_perm
I0927 20:45:51.377775 30272 net.cpp:408] conv5_5/sep_norm_mbox_loc_flat -> conv5_5/sep_norm_mbox_loc_flat
I0927 20:45:51.377791 30272 net.cpp:150] Setting up conv5_5/sep_norm_mbox_loc_flat
I0927 20:45:51.377796 30272 net.cpp:157] Top shape: 1 4864 (4864)
I0927 20:45:51.377799 30272 net.cpp:165] Memory required for data: 274286432
I0927 20:45:51.377800 30272 layer_factory.hpp:77] Creating layer conv5_5/sep_norm_mbox_conf
I0927 20:45:51.377805 30272 net.cpp:100] Creating Layer conv5_5/sep_norm_mbox_conf
I0927 20:45:51.377807 30272 net.cpp:434] conv5_5/sep_norm_mbox_conf <- conv5_5/sep_norm_conv5_5/sep_norm_0_split_1
I0927 20:45:51.377812 30272 net.cpp:408] conv5_5/sep_norm_mbox_conf -> conv5_5/sep_norm_mbox_conf
I0927 20:45:51.379179 30272 net.cpp:150] Setting up conv5_5/sep_norm_mbox_conf
I0927 20:45:51.379185 30272 net.cpp:157] Top shape: 1 10 19 32 (6080)
I0927 20:45:51.379187 30272 net.cpp:165] Memory required for data: 274310752
I0927 20:45:51.379192 30272 layer_factory.hpp:77] Creating layer conv5_5/sep_norm_mbox_conf_perm
I0927 20:45:51.379196 30272 net.cpp:100] Creating Layer conv5_5/sep_norm_mbox_conf_perm
I0927 20:45:51.379199 30272 net.cpp:434] conv5_5/sep_norm_mbox_conf_perm <- conv5_5/sep_norm_mbox_conf
I0927 20:45:51.379202 30272 net.cpp:408] conv5_5/sep_norm_mbox_conf_perm -> conv5_5/sep_norm_mbox_conf_perm
I0927 20:45:51.379277 30272 net.cpp:150] Setting up conv5_5/sep_norm_mbox_conf_perm
I0927 20:45:51.379281 30272 net.cpp:157] Top shape: 1 19 32 10 (6080)
I0927 20:45:51.379283 30272 net.cpp:165] Memory required for data: 274335072
I0927 20:45:51.379284 30272 layer_factory.hpp:77] Creating layer conv5_5/sep_norm_mbox_conf_flat
I0927 20:45:51.379288 30272 net.cpp:100] Creating Layer conv5_5/sep_norm_mbox_conf_flat
I0927 20:45:51.379290 30272 net.cpp:434] conv5_5/sep_norm_mbox_conf_flat <- conv5_5/sep_norm_mbox_conf_perm
I0927 20:45:51.379293 30272 net.cpp:408] conv5_5/sep_norm_mbox_conf_flat -> conv5_5/sep_norm_mbox_conf_flat
I0927 20:45:51.379309 30272 net.cpp:150] Setting up conv5_5/sep_norm_mbox_conf_flat
I0927 20:45:51.379312 30272 net.cpp:157] Top shape: 1 6080 (6080)
I0927 20:45:51.379314 30272 net.cpp:165] Memory required for data: 274359392
I0927 20:45:51.379317 30272 layer_factory.hpp:77] Creating layer conv5_5/sep_norm_mbox_priorbox
I0927 20:45:51.379321 30272 net.cpp:100] Creating Layer conv5_5/sep_norm_mbox_priorbox
I0927 20:45:51.379323 30272 net.cpp:434] conv5_5/sep_norm_mbox_priorbox <- conv5_5/sep_norm_conv5_5/sep_norm_0_split_2
I0927 20:45:51.379326 30272 net.cpp:434] conv5_5/sep_norm_mbox_priorbox <- data_data_0_split_1
I0927 20:45:51.379330 30272 net.cpp:408] conv5_5/sep_norm_mbox_priorbox -> conv5_5/sep_norm_mbox_priorbox
I0927 20:45:51.379349 30272 net.cpp:150] Setting up conv5_5/sep_norm_mbox_priorbox
I0927 20:45:51.379354 30272 net.cpp:157] Top shape: 1 2 4864 (9728)
I0927 20:45:51.379355 30272 net.cpp:165] Memory required for data: 274398304
I0927 20:45:51.379356 30272 layer_factory.hpp:77] Creating layer conv6/sep_mbox_loc
I0927 20:45:51.379369 30272 net.cpp:100] Creating Layer conv6/sep_mbox_loc
I0927 20:45:51.379374 30272 net.cpp:434] conv6/sep_mbox_loc <- conv6/sep_relu6/sep_0_split_1
I0927 20:45:51.379376 30272 net.cpp:408] conv6/sep_mbox_loc -> conv6/sep_mbox_loc
I0927 20:45:51.380815 30272 net.cpp:150] Setting up conv6/sep_mbox_loc
I0927 20:45:51.380821 30272 net.cpp:157] Top shape: 1 8 10 16 (1280)
I0927 20:45:51.380825 30272 net.cpp:165] Memory required for data: 274403424
I0927 20:45:51.380828 30272 layer_factory.hpp:77] Creating layer conv6/sep_mbox_loc_perm
I0927 20:45:51.380834 30272 net.cpp:100] Creating Layer conv6/sep_mbox_loc_perm
I0927 20:45:51.380837 30272 net.cpp:434] conv6/sep_mbox_loc_perm <- conv6/sep_mbox_loc
I0927 20:45:51.380841 30272 net.cpp:408] conv6/sep_mbox_loc_perm -> conv6/sep_mbox_loc_perm
I0927 20:45:51.380918 30272 net.cpp:150] Setting up conv6/sep_mbox_loc_perm
I0927 20:45:51.380923 30272 net.cpp:157] Top shape: 1 10 16 8 (1280)
I0927 20:45:51.380925 30272 net.cpp:165] Memory required for data: 274408544
I0927 20:45:51.380928 30272 layer_factory.hpp:77] Creating layer conv6/sep_mbox_loc_flat
I0927 20:45:51.380930 30272 net.cpp:100] Creating Layer conv6/sep_mbox_loc_flat
I0927 20:45:51.380933 30272 net.cpp:434] conv6/sep_mbox_loc_flat <- conv6/sep_mbox_loc_perm
I0927 20:45:51.380936 30272 net.cpp:408] conv6/sep_mbox_loc_flat -> conv6/sep_mbox_loc_flat
I0927 20:45:51.380952 30272 net.cpp:150] Setting up conv6/sep_mbox_loc_flat
I0927 20:45:51.380956 30272 net.cpp:157] Top shape: 1 1280 (1280)
I0927 20:45:51.380959 30272 net.cpp:165] Memory required for data: 274413664
I0927 20:45:51.380960 30272 layer_factory.hpp:77] Creating layer conv6/sep_mbox_conf
I0927 20:45:51.380965 30272 net.cpp:100] Creating Layer conv6/sep_mbox_conf
I0927 20:45:51.380969 30272 net.cpp:434] conv6/sep_mbox_conf <- conv6/sep_relu6/sep_0_split_2
I0927 20:45:51.380971 30272 net.cpp:408] conv6/sep_mbox_conf -> conv6/sep_mbox_conf
I0927 20:45:51.382581 30272 net.cpp:150] Setting up conv6/sep_mbox_conf
I0927 20:45:51.382588 30272 net.cpp:157] Top shape: 1 10 10 16 (1600)
I0927 20:45:51.382591 30272 net.cpp:165] Memory required for data: 274420064
I0927 20:45:51.382594 30272 layer_factory.hpp:77] Creating layer conv6/sep_mbox_conf_perm
I0927 20:45:51.382599 30272 net.cpp:100] Creating Layer conv6/sep_mbox_conf_perm
I0927 20:45:51.382602 30272 net.cpp:434] conv6/sep_mbox_conf_perm <- conv6/sep_mbox_conf
I0927 20:45:51.382606 30272 net.cpp:408] conv6/sep_mbox_conf_perm -> conv6/sep_mbox_conf_perm
I0927 20:45:51.382685 30272 net.cpp:150] Setting up conv6/sep_mbox_conf_perm
I0927 20:45:51.382689 30272 net.cpp:157] Top shape: 1 10 16 10 (1600)
I0927 20:45:51.382692 30272 net.cpp:165] Memory required for data: 274426464
I0927 20:45:51.382694 30272 layer_factory.hpp:77] Creating layer conv6/sep_mbox_conf_flat
I0927 20:45:51.382696 30272 net.cpp:100] Creating Layer conv6/sep_mbox_conf_flat
I0927 20:45:51.382699 30272 net.cpp:434] conv6/sep_mbox_conf_flat <- conv6/sep_mbox_conf_perm
I0927 20:45:51.382704 30272 net.cpp:408] conv6/sep_mbox_conf_flat -> conv6/sep_mbox_conf_flat
I0927 20:45:51.382719 30272 net.cpp:150] Setting up conv6/sep_mbox_conf_flat
I0927 20:45:51.382724 30272 net.cpp:157] Top shape: 1 1600 (1600)
I0927 20:45:51.382725 30272 net.cpp:165] Memory required for data: 274432864
I0927 20:45:51.382727 30272 layer_factory.hpp:77] Creating layer conv6/sep_mbox_priorbox
I0927 20:45:51.382731 30272 net.cpp:100] Creating Layer conv6/sep_mbox_priorbox
I0927 20:45:51.382733 30272 net.cpp:434] conv6/sep_mbox_priorbox <- conv6/sep_relu6/sep_0_split_3
I0927 20:45:51.382736 30272 net.cpp:434] conv6/sep_mbox_priorbox <- data_data_0_split_2
I0927 20:45:51.382740 30272 net.cpp:408] conv6/sep_mbox_priorbox -> conv6/sep_mbox_priorbox
I0927 20:45:51.382757 30272 net.cpp:150] Setting up conv6/sep_mbox_priorbox
I0927 20:45:51.382762 30272 net.cpp:157] Top shape: 1 2 1280 (2560)
I0927 20:45:51.382764 30272 net.cpp:165] Memory required for data: 274443104
I0927 20:45:51.382766 30272 layer_factory.hpp:77] Creating layer ssd1_2_mbox_loc
I0927 20:45:51.382771 30272 net.cpp:100] Creating Layer ssd1_2_mbox_loc
I0927 20:45:51.382781 30272 net.cpp:434] ssd1_2_mbox_loc <- ssd1_2_ssd1_2_relu_0_split_1
I0927 20:45:51.382786 30272 net.cpp:408] ssd1_2_mbox_loc -> ssd1_2_mbox_loc
I0927 20:45:51.384136 30272 net.cpp:150] Setting up ssd1_2_mbox_loc
I0927 20:45:51.384145 30272 net.cpp:157] Top shape: 1 8 5 8 (320)
I0927 20:45:51.384146 30272 net.cpp:165] Memory required for data: 274444384
I0927 20:45:51.384151 30272 layer_factory.hpp:77] Creating layer ssd1_2_mbox_loc_perm
I0927 20:45:51.384156 30272 net.cpp:100] Creating Layer ssd1_2_mbox_loc_perm
I0927 20:45:51.384158 30272 net.cpp:434] ssd1_2_mbox_loc_perm <- ssd1_2_mbox_loc
I0927 20:45:51.384162 30272 net.cpp:408] ssd1_2_mbox_loc_perm -> ssd1_2_mbox_loc_perm
I0927 20:45:51.384240 30272 net.cpp:150] Setting up ssd1_2_mbox_loc_perm
I0927 20:45:51.384245 30272 net.cpp:157] Top shape: 1 5 8 8 (320)
I0927 20:45:51.384248 30272 net.cpp:165] Memory required for data: 274445664
I0927 20:45:51.384248 30272 layer_factory.hpp:77] Creating layer ssd1_2_mbox_loc_flat
I0927 20:45:51.384253 30272 net.cpp:100] Creating Layer ssd1_2_mbox_loc_flat
I0927 20:45:51.384255 30272 net.cpp:434] ssd1_2_mbox_loc_flat <- ssd1_2_mbox_loc_perm
I0927 20:45:51.384258 30272 net.cpp:408] ssd1_2_mbox_loc_flat -> ssd1_2_mbox_loc_flat
I0927 20:45:51.384274 30272 net.cpp:150] Setting up ssd1_2_mbox_loc_flat
I0927 20:45:51.384277 30272 net.cpp:157] Top shape: 1 320 (320)
I0927 20:45:51.384280 30272 net.cpp:165] Memory required for data: 274446944
I0927 20:45:51.384281 30272 layer_factory.hpp:77] Creating layer ssd1_2_mbox_conf
I0927 20:45:51.384289 30272 net.cpp:100] Creating Layer ssd1_2_mbox_conf
I0927 20:45:51.384290 30272 net.cpp:434] ssd1_2_mbox_conf <- ssd1_2_ssd1_2_relu_0_split_2
I0927 20:45:51.384294 30272 net.cpp:408] ssd1_2_mbox_conf -> ssd1_2_mbox_conf
I0927 20:45:51.385758 30272 net.cpp:150] Setting up ssd1_2_mbox_conf
I0927 20:45:51.385766 30272 net.cpp:157] Top shape: 1 10 5 8 (400)
I0927 20:45:51.385768 30272 net.cpp:165] Memory required for data: 274448544
I0927 20:45:51.385772 30272 layer_factory.hpp:77] Creating layer ssd1_2_mbox_conf_perm
I0927 20:45:51.385777 30272 net.cpp:100] Creating Layer ssd1_2_mbox_conf_perm
I0927 20:45:51.385779 30272 net.cpp:434] ssd1_2_mbox_conf_perm <- ssd1_2_mbox_conf
I0927 20:45:51.385783 30272 net.cpp:408] ssd1_2_mbox_conf_perm -> ssd1_2_mbox_conf_perm
I0927 20:45:51.385865 30272 net.cpp:150] Setting up ssd1_2_mbox_conf_perm
I0927 20:45:51.385869 30272 net.cpp:157] Top shape: 1 5 8 10 (400)
I0927 20:45:51.385871 30272 net.cpp:165] Memory required for data: 274450144
I0927 20:45:51.385874 30272 layer_factory.hpp:77] Creating layer ssd1_2_mbox_conf_flat
I0927 20:45:51.385876 30272 net.cpp:100] Creating Layer ssd1_2_mbox_conf_flat
I0927 20:45:51.385879 30272 net.cpp:434] ssd1_2_mbox_conf_flat <- ssd1_2_mbox_conf_perm
I0927 20:45:51.385882 30272 net.cpp:408] ssd1_2_mbox_conf_flat -> ssd1_2_mbox_conf_flat
I0927 20:45:51.385900 30272 net.cpp:150] Setting up ssd1_2_mbox_conf_flat
I0927 20:45:51.385903 30272 net.cpp:157] Top shape: 1 400 (400)
I0927 20:45:51.385905 30272 net.cpp:165] Memory required for data: 274451744
I0927 20:45:51.385907 30272 layer_factory.hpp:77] Creating layer ssd1_2_mbox_priorbox
I0927 20:45:51.385910 30272 net.cpp:100] Creating Layer ssd1_2_mbox_priorbox
I0927 20:45:51.385913 30272 net.cpp:434] ssd1_2_mbox_priorbox <- ssd1_2_ssd1_2_relu_0_split_3
I0927 20:45:51.385915 30272 net.cpp:434] ssd1_2_mbox_priorbox <- data_data_0_split_3
I0927 20:45:51.385921 30272 net.cpp:408] ssd1_2_mbox_priorbox -> ssd1_2_mbox_priorbox
I0927 20:45:51.385938 30272 net.cpp:150] Setting up ssd1_2_mbox_priorbox
I0927 20:45:51.385942 30272 net.cpp:157] Top shape: 1 2 320 (640)
I0927 20:45:51.385944 30272 net.cpp:165] Memory required for data: 274454304
I0927 20:45:51.385946 30272 layer_factory.hpp:77] Creating layer ssd2_2_mbox_loc
I0927 20:45:51.385951 30272 net.cpp:100] Creating Layer ssd2_2_mbox_loc
I0927 20:45:51.385954 30272 net.cpp:434] ssd2_2_mbox_loc <- ssd2_2_ssd2_2_relu_0_split_1
I0927 20:45:51.385957 30272 net.cpp:408] ssd2_2_mbox_loc -> ssd2_2_mbox_loc
I0927 20:45:51.387153 30272 net.cpp:150] Setting up ssd2_2_mbox_loc
I0927 20:45:51.387161 30272 net.cpp:157] Top shape: 1 8 3 4 (96)
I0927 20:45:51.387163 30272 net.cpp:165] Memory required for data: 274454688
I0927 20:45:51.387166 30272 layer_factory.hpp:77] Creating layer ssd2_2_mbox_loc_perm
I0927 20:45:51.387171 30272 net.cpp:100] Creating Layer ssd2_2_mbox_loc_perm
I0927 20:45:51.387173 30272 net.cpp:434] ssd2_2_mbox_loc_perm <- ssd2_2_mbox_loc
I0927 20:45:51.387178 30272 net.cpp:408] ssd2_2_mbox_loc_perm -> ssd2_2_mbox_loc_perm
I0927 20:45:51.387255 30272 net.cpp:150] Setting up ssd2_2_mbox_loc_perm
I0927 20:45:51.387259 30272 net.cpp:157] Top shape: 1 3 4 8 (96)
I0927 20:45:51.387261 30272 net.cpp:165] Memory required for data: 274455072
I0927 20:45:51.387264 30272 layer_factory.hpp:77] Creating layer ssd2_2_mbox_loc_flat
I0927 20:45:51.387266 30272 net.cpp:100] Creating Layer ssd2_2_mbox_loc_flat
I0927 20:45:51.387269 30272 net.cpp:434] ssd2_2_mbox_loc_flat <- ssd2_2_mbox_loc_perm
I0927 20:45:51.387274 30272 net.cpp:408] ssd2_2_mbox_loc_flat -> ssd2_2_mbox_loc_flat
I0927 20:45:51.387290 30272 net.cpp:150] Setting up ssd2_2_mbox_loc_flat
I0927 20:45:51.387295 30272 net.cpp:157] Top shape: 1 96 (96)
I0927 20:45:51.387295 30272 net.cpp:165] Memory required for data: 274455456
I0927 20:45:51.387297 30272 layer_factory.hpp:77] Creating layer ssd2_2_mbox_conf
I0927 20:45:51.387302 30272 net.cpp:100] Creating Layer ssd2_2_mbox_conf
I0927 20:45:51.387305 30272 net.cpp:434] ssd2_2_mbox_conf <- ssd2_2_ssd2_2_relu_0_split_2
I0927 20:45:51.387310 30272 net.cpp:408] ssd2_2_mbox_conf -> ssd2_2_mbox_conf
I0927 20:45:51.388490 30272 net.cpp:150] Setting up ssd2_2_mbox_conf
I0927 20:45:51.388497 30272 net.cpp:157] Top shape: 1 10 3 4 (120)
I0927 20:45:51.388500 30272 net.cpp:165] Memory required for data: 274455936
I0927 20:45:51.388504 30272 layer_factory.hpp:77] Creating layer ssd2_2_mbox_conf_perm
I0927 20:45:51.388507 30272 net.cpp:100] Creating Layer ssd2_2_mbox_conf_perm
I0927 20:45:51.388511 30272 net.cpp:434] ssd2_2_mbox_conf_perm <- ssd2_2_mbox_conf
I0927 20:45:51.388514 30272 net.cpp:408] ssd2_2_mbox_conf_perm -> ssd2_2_mbox_conf_perm
I0927 20:45:51.388593 30272 net.cpp:150] Setting up ssd2_2_mbox_conf_perm
I0927 20:45:51.388597 30272 net.cpp:157] Top shape: 1 3 4 10 (120)
I0927 20:45:51.388599 30272 net.cpp:165] Memory required for data: 274456416
I0927 20:45:51.388602 30272 layer_factory.hpp:77] Creating layer ssd2_2_mbox_conf_flat
I0927 20:45:51.388604 30272 net.cpp:100] Creating Layer ssd2_2_mbox_conf_flat
I0927 20:45:51.388607 30272 net.cpp:434] ssd2_2_mbox_conf_flat <- ssd2_2_mbox_conf_perm
I0927 20:45:51.388612 30272 net.cpp:408] ssd2_2_mbox_conf_flat -> ssd2_2_mbox_conf_flat
I0927 20:45:51.388628 30272 net.cpp:150] Setting up ssd2_2_mbox_conf_flat
I0927 20:45:51.388631 30272 net.cpp:157] Top shape: 1 120 (120)
I0927 20:45:51.388633 30272 net.cpp:165] Memory required for data: 274456896
I0927 20:45:51.388635 30272 layer_factory.hpp:77] Creating layer ssd2_2_mbox_priorbox
I0927 20:45:51.388639 30272 net.cpp:100] Creating Layer ssd2_2_mbox_priorbox
I0927 20:45:51.388643 30272 net.cpp:434] ssd2_2_mbox_priorbox <- ssd2_2_ssd2_2_relu_0_split_3
I0927 20:45:51.388644 30272 net.cpp:434] ssd2_2_mbox_priorbox <- data_data_0_split_4
I0927 20:45:51.388649 30272 net.cpp:408] ssd2_2_mbox_priorbox -> ssd2_2_mbox_priorbox
I0927 20:45:51.388667 30272 net.cpp:150] Setting up ssd2_2_mbox_priorbox
I0927 20:45:51.388671 30272 net.cpp:157] Top shape: 1 2 96 (192)
I0927 20:45:51.388674 30272 net.cpp:165] Memory required for data: 274457664
I0927 20:45:51.388676 30272 layer_factory.hpp:77] Creating layer ssd3_2_mbox_loc
I0927 20:45:51.388681 30272 net.cpp:100] Creating Layer ssd3_2_mbox_loc
I0927 20:45:51.388684 30272 net.cpp:434] ssd3_2_mbox_loc <- ssd3_2_ssd3_2_relu_0_split_1
I0927 20:45:51.388689 30272 net.cpp:408] ssd3_2_mbox_loc -> ssd3_2_mbox_loc
I0927 20:45:51.389966 30272 net.cpp:150] Setting up ssd3_2_mbox_loc
I0927 20:45:51.389972 30272 net.cpp:157] Top shape: 1 8 2 2 (32)
I0927 20:45:51.389974 30272 net.cpp:165] Memory required for data: 274457792
I0927 20:45:51.389986 30272 layer_factory.hpp:77] Creating layer ssd3_2_mbox_loc_perm
I0927 20:45:51.389991 30272 net.cpp:100] Creating Layer ssd3_2_mbox_loc_perm
I0927 20:45:51.389993 30272 net.cpp:434] ssd3_2_mbox_loc_perm <- ssd3_2_mbox_loc
I0927 20:45:51.389997 30272 net.cpp:408] ssd3_2_mbox_loc_perm -> ssd3_2_mbox_loc_perm
I0927 20:45:51.390074 30272 net.cpp:150] Setting up ssd3_2_mbox_loc_perm
I0927 20:45:51.390077 30272 net.cpp:157] Top shape: 1 2 2 8 (32)
I0927 20:45:51.390079 30272 net.cpp:165] Memory required for data: 274457920
I0927 20:45:51.390081 30272 layer_factory.hpp:77] Creating layer ssd3_2_mbox_loc_flat
I0927 20:45:51.390084 30272 net.cpp:100] Creating Layer ssd3_2_mbox_loc_flat
I0927 20:45:51.390087 30272 net.cpp:434] ssd3_2_mbox_loc_flat <- ssd3_2_mbox_loc_perm
I0927 20:45:51.390090 30272 net.cpp:408] ssd3_2_mbox_loc_flat -> ssd3_2_mbox_loc_flat
I0927 20:45:51.390107 30272 net.cpp:150] Setting up ssd3_2_mbox_loc_flat
I0927 20:45:51.390111 30272 net.cpp:157] Top shape: 1 32 (32)
I0927 20:45:51.390113 30272 net.cpp:165] Memory required for data: 274458048
I0927 20:45:51.390115 30272 layer_factory.hpp:77] Creating layer ssd3_2_mbox_conf
I0927 20:45:51.390120 30272 net.cpp:100] Creating Layer ssd3_2_mbox_conf
I0927 20:45:51.390122 30272 net.cpp:434] ssd3_2_mbox_conf <- ssd3_2_ssd3_2_relu_0_split_2
I0927 20:45:51.390127 30272 net.cpp:408] ssd3_2_mbox_conf -> ssd3_2_mbox_conf
I0927 20:45:51.391326 30272 net.cpp:150] Setting up ssd3_2_mbox_conf
I0927 20:45:51.391333 30272 net.cpp:157] Top shape: 1 10 2 2 (40)
I0927 20:45:51.391336 30272 net.cpp:165] Memory required for data: 274458208
I0927 20:45:51.391340 30272 layer_factory.hpp:77] Creating layer ssd3_2_mbox_conf_perm
I0927 20:45:51.391345 30272 net.cpp:100] Creating Layer ssd3_2_mbox_conf_perm
I0927 20:45:51.391348 30272 net.cpp:434] ssd3_2_mbox_conf_perm <- ssd3_2_mbox_conf
I0927 20:45:51.391351 30272 net.cpp:408] ssd3_2_mbox_conf_perm -> ssd3_2_mbox_conf_perm
I0927 20:45:51.391427 30272 net.cpp:150] Setting up ssd3_2_mbox_conf_perm
I0927 20:45:51.391432 30272 net.cpp:157] Top shape: 1 2 2 10 (40)
I0927 20:45:51.391433 30272 net.cpp:165] Memory required for data: 274458368
I0927 20:45:51.391435 30272 layer_factory.hpp:77] Creating layer ssd3_2_mbox_conf_flat
I0927 20:45:51.391438 30272 net.cpp:100] Creating Layer ssd3_2_mbox_conf_flat
I0927 20:45:51.391441 30272 net.cpp:434] ssd3_2_mbox_conf_flat <- ssd3_2_mbox_conf_perm
I0927 20:45:51.391444 30272 net.cpp:408] ssd3_2_mbox_conf_flat -> ssd3_2_mbox_conf_flat
I0927 20:45:51.391463 30272 net.cpp:150] Setting up ssd3_2_mbox_conf_flat
I0927 20:45:51.391465 30272 net.cpp:157] Top shape: 1 40 (40)
I0927 20:45:51.391468 30272 net.cpp:165] Memory required for data: 274458528
I0927 20:45:51.391469 30272 layer_factory.hpp:77] Creating layer ssd3_2_mbox_priorbox
I0927 20:45:51.391472 30272 net.cpp:100] Creating Layer ssd3_2_mbox_priorbox
I0927 20:45:51.391475 30272 net.cpp:434] ssd3_2_mbox_priorbox <- ssd3_2_ssd3_2_relu_0_split_3
I0927 20:45:51.391477 30272 net.cpp:434] ssd3_2_mbox_priorbox <- data_data_0_split_5
I0927 20:45:51.391482 30272 net.cpp:408] ssd3_2_mbox_priorbox -> ssd3_2_mbox_priorbox
I0927 20:45:51.391500 30272 net.cpp:150] Setting up ssd3_2_mbox_priorbox
I0927 20:45:51.391505 30272 net.cpp:157] Top shape: 1 2 32 (64)
I0927 20:45:51.391505 30272 net.cpp:165] Memory required for data: 274458784
I0927 20:45:51.391507 30272 layer_factory.hpp:77] Creating layer ssd4_2_mbox_loc
I0927 20:45:51.391512 30272 net.cpp:100] Creating Layer ssd4_2_mbox_loc
I0927 20:45:51.391515 30272 net.cpp:434] ssd4_2_mbox_loc <- ssd4_2_ssd4_2_relu_0_split_0
I0927 20:45:51.391518 30272 net.cpp:408] ssd4_2_mbox_loc -> ssd4_2_mbox_loc
I0927 20:45:51.392707 30272 net.cpp:150] Setting up ssd4_2_mbox_loc
I0927 20:45:51.392714 30272 net.cpp:157] Top shape: 1 8 1 1 (8)
I0927 20:45:51.392717 30272 net.cpp:165] Memory required for data: 274458816
I0927 20:45:51.392721 30272 layer_factory.hpp:77] Creating layer ssd4_2_mbox_loc_perm
I0927 20:45:51.392726 30272 net.cpp:100] Creating Layer ssd4_2_mbox_loc_perm
I0927 20:45:51.392736 30272 net.cpp:434] ssd4_2_mbox_loc_perm <- ssd4_2_mbox_loc
I0927 20:45:51.392741 30272 net.cpp:408] ssd4_2_mbox_loc_perm -> ssd4_2_mbox_loc_perm
I0927 20:45:51.392819 30272 net.cpp:150] Setting up ssd4_2_mbox_loc_perm
I0927 20:45:51.392823 30272 net.cpp:157] Top shape: 1 1 1 8 (8)
I0927 20:45:51.392825 30272 net.cpp:165] Memory required for data: 274458848
I0927 20:45:51.392827 30272 layer_factory.hpp:77] Creating layer ssd4_2_mbox_loc_flat
I0927 20:45:51.392830 30272 net.cpp:100] Creating Layer ssd4_2_mbox_loc_flat
I0927 20:45:51.392832 30272 net.cpp:434] ssd4_2_mbox_loc_flat <- ssd4_2_mbox_loc_perm
I0927 20:45:51.392837 30272 net.cpp:408] ssd4_2_mbox_loc_flat -> ssd4_2_mbox_loc_flat
I0927 20:45:51.392853 30272 net.cpp:150] Setting up ssd4_2_mbox_loc_flat
I0927 20:45:51.392858 30272 net.cpp:157] Top shape: 1 8 (8)
I0927 20:45:51.392859 30272 net.cpp:165] Memory required for data: 274458880
I0927 20:45:51.392860 30272 layer_factory.hpp:77] Creating layer ssd4_2_mbox_conf
I0927 20:45:51.392868 30272 net.cpp:100] Creating Layer ssd4_2_mbox_conf
I0927 20:45:51.392869 30272 net.cpp:434] ssd4_2_mbox_conf <- ssd4_2_ssd4_2_relu_0_split_1
I0927 20:45:51.392874 30272 net.cpp:408] ssd4_2_mbox_conf -> ssd4_2_mbox_conf
I0927 20:45:51.394088 30272 net.cpp:150] Setting up ssd4_2_mbox_conf
I0927 20:45:51.394094 30272 net.cpp:157] Top shape: 1 10 1 1 (10)
I0927 20:45:51.394096 30272 net.cpp:165] Memory required for data: 274458920
I0927 20:45:51.394100 30272 layer_factory.hpp:77] Creating layer ssd4_2_mbox_conf_perm
I0927 20:45:51.394105 30272 net.cpp:100] Creating Layer ssd4_2_mbox_conf_perm
I0927 20:45:51.394109 30272 net.cpp:434] ssd4_2_mbox_conf_perm <- ssd4_2_mbox_conf
I0927 20:45:51.394111 30272 net.cpp:408] ssd4_2_mbox_conf_perm -> ssd4_2_mbox_conf_perm
I0927 20:45:51.394187 30272 net.cpp:150] Setting up ssd4_2_mbox_conf_perm
I0927 20:45:51.394191 30272 net.cpp:157] Top shape: 1 1 1 10 (10)
I0927 20:45:51.394194 30272 net.cpp:165] Memory required for data: 274458960
I0927 20:45:51.394196 30272 layer_factory.hpp:77] Creating layer ssd4_2_mbox_conf_flat
I0927 20:45:51.394199 30272 net.cpp:100] Creating Layer ssd4_2_mbox_conf_flat
I0927 20:45:51.394201 30272 net.cpp:434] ssd4_2_mbox_conf_flat <- ssd4_2_mbox_conf_perm
I0927 20:45:51.394206 30272 net.cpp:408] ssd4_2_mbox_conf_flat -> ssd4_2_mbox_conf_flat
I0927 20:45:51.394222 30272 net.cpp:150] Setting up ssd4_2_mbox_conf_flat
I0927 20:45:51.394225 30272 net.cpp:157] Top shape: 1 10 (10)
I0927 20:45:51.394227 30272 net.cpp:165] Memory required for data: 274459000
I0927 20:45:51.394229 30272 layer_factory.hpp:77] Creating layer ssd4_2_mbox_priorbox
I0927 20:45:51.394233 30272 net.cpp:100] Creating Layer ssd4_2_mbox_priorbox
I0927 20:45:51.394237 30272 net.cpp:434] ssd4_2_mbox_priorbox <- ssd4_2_ssd4_2_relu_0_split_2
I0927 20:45:51.394238 30272 net.cpp:434] ssd4_2_mbox_priorbox <- data_data_0_split_6
I0927 20:45:51.394243 30272 net.cpp:408] ssd4_2_mbox_priorbox -> ssd4_2_mbox_priorbox
I0927 20:45:51.394260 30272 net.cpp:150] Setting up ssd4_2_mbox_priorbox
I0927 20:45:51.394264 30272 net.cpp:157] Top shape: 1 2 8 (16)
I0927 20:45:51.394265 30272 net.cpp:165] Memory required for data: 274459064
I0927 20:45:51.394268 30272 layer_factory.hpp:77] Creating layer mbox_loc
I0927 20:45:51.394273 30272 net.cpp:100] Creating Layer mbox_loc
I0927 20:45:51.394276 30272 net.cpp:434] mbox_loc <- conv5_5/sep_norm_mbox_loc_flat
I0927 20:45:51.394279 30272 net.cpp:434] mbox_loc <- conv6/sep_mbox_loc_flat
I0927 20:45:51.394282 30272 net.cpp:434] mbox_loc <- ssd1_2_mbox_loc_flat
I0927 20:45:51.394284 30272 net.cpp:434] mbox_loc <- ssd2_2_mbox_loc_flat
I0927 20:45:51.394287 30272 net.cpp:434] mbox_loc <- ssd3_2_mbox_loc_flat
I0927 20:45:51.394289 30272 net.cpp:434] mbox_loc <- ssd4_2_mbox_loc_flat
I0927 20:45:51.394294 30272 net.cpp:408] mbox_loc -> mbox_loc
I0927 20:45:51.394313 30272 net.cpp:150] Setting up mbox_loc
I0927 20:45:51.394316 30272 net.cpp:157] Top shape: 1 6600 (6600)
I0927 20:45:51.394318 30272 net.cpp:165] Memory required for data: 274485464
I0927 20:45:51.394327 30272 layer_factory.hpp:77] Creating layer mbox_conf
I0927 20:45:51.394330 30272 net.cpp:100] Creating Layer mbox_conf
I0927 20:45:51.394332 30272 net.cpp:434] mbox_conf <- conv5_5/sep_norm_mbox_conf_flat
I0927 20:45:51.394335 30272 net.cpp:434] mbox_conf <- conv6/sep_mbox_conf_flat
I0927 20:45:51.394338 30272 net.cpp:434] mbox_conf <- ssd1_2_mbox_conf_flat
I0927 20:45:51.394340 30272 net.cpp:434] mbox_conf <- ssd2_2_mbox_conf_flat
I0927 20:45:51.394342 30272 net.cpp:434] mbox_conf <- ssd3_2_mbox_conf_flat
I0927 20:45:51.394345 30272 net.cpp:434] mbox_conf <- ssd4_2_mbox_conf_flat
I0927 20:45:51.394348 30272 net.cpp:408] mbox_conf -> mbox_conf
I0927 20:45:51.394366 30272 net.cpp:150] Setting up mbox_conf
I0927 20:45:51.394369 30272 net.cpp:157] Top shape: 1 8250 (8250)
I0927 20:45:51.394371 30272 net.cpp:165] Memory required for data: 274518464
I0927 20:45:51.394373 30272 layer_factory.hpp:77] Creating layer mbox_priorbox
I0927 20:45:51.394376 30272 net.cpp:100] Creating Layer mbox_priorbox
I0927 20:45:51.394379 30272 net.cpp:434] mbox_priorbox <- conv5_5/sep_norm_mbox_priorbox
I0927 20:45:51.394381 30272 net.cpp:434] mbox_priorbox <- conv6/sep_mbox_priorbox
I0927 20:45:51.394384 30272 net.cpp:434] mbox_priorbox <- ssd1_2_mbox_priorbox
I0927 20:45:51.394387 30272 net.cpp:434] mbox_priorbox <- ssd2_2_mbox_priorbox
I0927 20:45:51.394388 30272 net.cpp:434] mbox_priorbox <- ssd3_2_mbox_priorbox
I0927 20:45:51.394390 30272 net.cpp:434] mbox_priorbox <- ssd4_2_mbox_priorbox
I0927 20:45:51.394395 30272 net.cpp:408] mbox_priorbox -> mbox_priorbox
I0927 20:45:51.394412 30272 net.cpp:150] Setting up mbox_priorbox
I0927 20:45:51.394415 30272 net.cpp:157] Top shape: 1 2 6600 (13200)
I0927 20:45:51.394418 30272 net.cpp:165] Memory required for data: 274571264
I0927 20:45:51.394420 30272 layer_factory.hpp:77] Creating layer mbox_loss
I0927 20:45:51.394425 30272 net.cpp:100] Creating Layer mbox_loss
I0927 20:45:51.394428 30272 net.cpp:434] mbox_loss <- mbox_loc
I0927 20:45:51.394429 30272 net.cpp:434] mbox_loss <- mbox_conf
I0927 20:45:51.394433 30272 net.cpp:434] mbox_loss <- mbox_priorbox
…
name: "MobileNet_GTSDB_SSD_510x300_100_40_6_True_1_test"
state {
  phase: TEST
}
layer {
  name: "data"
  type: "AnnotatedData"
  top: "data"
  top: "label"
  include {
    phase: TEST
  }
  transform_param {
    mean_value: 125
    mean_value: 127
    mean_value: 130
    resize_param {
      prob: 1
      resize_mode: WARP
      height: 300
      width: 510
      interp_mode: LINEAR
    }
  }
  data_param {
    source: "examples/GTSDB/GTSDB_test_lmdb"
    batch_size: 1
    backend: LMDB
  }
  annotated_data_param {
    batch_sampler {
    }
    label_map_file: "data/GTSDB/labelmap_GTSDB.prototxt"
  }
}
layer {
  name: "conv1"
  type: "Convolution"
  bottom: "data"
  top: "conv1"
  param {
    lr_mult: 1
    decay_mult: 1
  }
  convolution_param {
    num_output: 32
    bias_term: false
    pad: 1
    kernel_size: 3
    stride: 2
    weight_filler {
      type: "msra"
    }
  }
}
layer {
  name: "conv1/bn"
  type: "BatchNorm"
  bottom: "conv1"
  top: "conv1"
  batch_norm_param {
    use_global_stats: true
    eps: 1e-05
  }
}
layer {
  name: "conv1/scale"
  type: "Scale"
  bottom: "conv1"
  top: "conv1"
  param {
    lr_mult: 1
    decay_mult: 0
  }
  param {
    lr_mult: 1
    decay_mult: 0
  }
  scale_param {
    filler {
      type: "constant"
      value: 1
    }
    bias_term: true
    bias_filler {
      type: "constant"
      value: 0
    }
  }
}
layer {
  name: "relu1"
  type: "ReLU"
  bottom: "conv1"
  top: "conv1"
}
layer {
  name: "conv2_1/dw"
  type: "Convolution"
  bottom: "conv1"
  top: "conv2_1/dw"
  param {
    lr_mult: 1
    decay_mult: 1
  }
  convolution_param {
    num_output: 32
    bias_term: false
    pad: 1
    kernel_size: 3
    group: 32
    stride: 1
    weight_filler {
      type: "msra"
    }
    engine: CAFFE
  }
}
layer {
  name: "conv2_1/dw/bn"
  type: "BatchNorm"
  bottom: "conv2_1/dw"
  top: "conv2_1/dw"
  batch_norm_param {
    use_global_stats: true
    eps: 1e-05
  }
}
layer {
  name: "conv2_1/dw/scale"
  type: "Scale"
  bottom: "conv2_1/dw"
  top: "conv2_1/dw"
  param {
    lr_mult: 1
    decay_mult: 0
  }
  param {
    lr_mult: 1
    decay_mult: 0
  }
  scale_param {
    filler {
      type: "constant"
      value: 1
    }
    bias_term: true
    bias_filler {
      type: "constant"
      value: 0
    }
  }
}
layer {
  name: "relu2_1/dw"
  type: "ReLU"
  bottom: "conv2_1/dw"
  top: "conv2_1/dw"
}
layer {
  name: "conv2_1/sep"
  type: "Convolution"
  bottom: "conv2_1/dw"
  top: "conv2_1/sep"
  param {
    lr_mult: 1
    decay_mult: 1
  }
  convolution_param {
    num_output: 64
    bias_term: false
    pad: 0
    kernel_size: 1
    stride: 1
    weight_filler {
      type: "msra"
    }
  }
}
layer {
  name: "conv2_1/sep/bn"
  type: "BatchNorm"
  bottom: "conv2_1/sep"
  top: "conv2_1/sep"
  batch_norm_param {
    use_global_stats: true
    eps: 1e-05
  }
}
layer {
  name: "conv2_1/sep/scale"
  type: "Scale"
  bottom: "conv2_1/sep"
  top: "conv2_1/sep"
  param {
    lr_mult: 1
    decay_mult: 0
  }
  param {
    lr_mult: 1
    decay_mult: 0
  }
  scale_param {
    filler {
      type: "constant"
      value: 1
    }
    bias_term: true
    bias_filler {
      type: "constant"
      value: 0
    }
  }
}
layer {
  name: "relu2_1/sep"
  type: "ReLU"
  bottom: "conv2_1/sep"
  top: "conv2_1/sep"
}
layer {
  name: "conv2_2/dw"
  type: "Convolution"
  bottom: "conv2_1/sep"
  top: "conv2_2/dw"
  param {
    lr_mult: 1
    decay_mult: 1
  }
  convolution_param {
    num_output: 64
    bias_term: false
    pad: 1
    kernel_size: 3
    group: 64
    stride: 2
    weight_filler {
      type: "msra"
    }
    engine: CAFFE
  }
}
layer {
  name: "conv2_2/dw/bn"
  type: "BatchNorm"
  bottom: "conv2_2/dw"
  top: "conv2_2/dw"
  batch_norm_param {
    use_global_stats: true
    eps: 1e-05
  }
}
layer {
  name: "conv2_2/dw/scale"
  type: "Scale"
  bottom: "conv2_2/dw"
  top: "conv2_2/dw"
  param {
    lr_mult: 1
    decay_mult: 0
  }
  param {
    lr_mult: 1
    decay_mult: 0
  }
  scale_param {
    filler {
      type: "constant"
      value: 1
    }
    bias_term: true
    bias_filler {
      type: "constant"
      value: 0
    }
  }
}
layer {
  name: "relu2_2/dw"
  type: "ReLU"
  bottom: "conv2_2/dw"
  top: "conv2_2/dw"
}
layer {
  name: "conv2_2/sep"
  type: "Convolution"
  bottom: "conv2_2/dw"
  top: "conv2_2/sep"
  param {
    lr_mult: 1
    decay_mult: 1
  }
  convolution_param {
    num_output: 128
    bias_term: false
    pad: 0
    kernel_size: 1
    stride: 1
    weight_filler {
      type: "msra"
    }
  }
}
layer {
  name: "conv2_2/sep/bn"
  type: "BatchNorm"
  bottom: "conv2_2/sep"
  top: "conv2_2/sep"
  batch_norm_param {
    use_global_stats: true
    eps: 1e-05
  }
}
layer {
  name: "conv2_2/sep/scale"
  type: "Scale"
  bottom: "conv2_2/sep"
  top: "conv2_2/sep"
  param {
    lr_mult: 1
    decay_mult: 0
  }
  param {
    lr_mult: 1
    decay_mult: 0
  }
  scale_param {
    filler {
      type: "constant"
      value: 1
    }
    bias_term: true
    bias_filler {
      type: "constant"
      value: 0
    }
  }
}
layer {
  name: "relu2_2/sep"
  type: "ReLU"
  bottom: "conv2_2/sep"
  top: "conv2_2/sep"
}
layer {
  name: "conv3_1/dw"
  type: "Convolution"
  bottom: "conv2_2/sep"
  top: "conv3_1/dw"
  param {
    lr_mult: 1
    decay_mult: 1
  }
  convolution_param {
    num_output: 128
    bias_term: false
    pad: 1
    kernel_size: 3
    group: 128
    stride: 1
    weight_filler {
      type: "msra"
    }
    engine: CAFFE
  }
}
layer {
  name: "conv3_1/dw/bn"
  type: "BatchNorm"
  bottom: "conv3_1/dw"
  top: "conv3_1/dw"
  batch_norm_param {
    use_global_stats: true
    eps: 1e-05
  }
}
layer {
  name: "conv3_1/dw/scale"
  type: "Scale"
  bottom: "conv3_1/dw"
  top: "conv3_1/dw"
  param {
    lr_mult: 1
    decay_mult: 0
  }
  param {
    lr_mult: 1
    decay_mult: 0
  }
  scale_param {
    filler {
      type: "constant"
      value: 1
    }
    bias_term: true
    bias_filler {
      type: "constant"
      value: 0
    }
  }
}
layer {
  name: "relu3_1/dw"
  type: "ReLU"
  bottom: "conv3_1/dw"
  top: "conv3_1/dw"
}
layer {
  name: "conv3_1/sep"
  type: "Convolution"
  bottom: "conv3_1/dw"
  top: "conv3_1/sep"
  param {
    lr_mult: 1
    decay_mult: 1
  }
  convolution_param {
    num_output: 128
    bias_term: false
    pad: 0
    kernel_size: 1
    stride: 1
    weight_filler {
      type: "msra"
    }
  }
}
layer {
  name: "conv3_1/sep/bn"
  type: "BatchNorm"
  bottom: "conv3_1/sep"
  top: "conv3_1/sep"
  batch_norm_param {
    use_global_stats: true
    eps: 1e-05
  }
}
layer {
  name: "conv3_1/sep/scale"
  type: "Scale"
  bottom: "conv3_1/sep"
  top: "conv3_1/sep"
  param {
    lr_mult: 1
    decay_mult: 0
  }
  param {
    lr_mult: 1
    decay_mult: 0
  }
  scale_param {
    filler {
      type: "constant"
      value: 1
    }
    bias_term: true
    bias_filler {
      type: "constant"
      value: 0
    }
  }
}
layer {
  name: "relu3_1/sep"
  type: "ReLU"
  bottom: "conv3_1/sep"
  top: "conv3_1/sep"
}
layer {
  name: "conv3_2/dw"
  type: "Convolution"
  bottom: "conv3_1/sep"
  top: "conv3_2/dw"
  param {
    lr_mult: 1
    decay_mult: 1
  }
  convolution_param {
    num_output: 128
    bias_term: false
    pad: 1
    kernel_size: 3
    group: 128
    stride: 2
    weight_filler {
      type: "msra"
    }
    engine: CAFFE
  }
}
layer {
  name: "conv3_2/dw/bn"
  type: "BatchNorm"
  bottom: "conv3_2/dw"
  top: "conv3_2/dw"
  batch_norm_param {
    use_global_stats: true
    eps: 1e-05
  }
}
layer {
  name: "conv3_2/dw/scale"
  type: "Scale"
  bottom: "conv3_2/dw"
  top: "conv3_2/dw"
  param {
    lr_mult: 1
    decay_mult: 0
  }
  param {
    lr_mult: 1
    decay_mult: 0
  }
  scale_param {
    filler {
      type: "constant"
      value: 1
    }
    bias_term: true
    bias_filler {
      type: "constant"
      value: 0
    }
  }
}
layer {
  name: "relu3_2/dw"
  type: "ReLU"
  bottom: "conv3_2/dw"
  top: "conv3_2/dw"
}
layer {
  name: "conv3_2/sep"
  type: "Convolution"
  bottom: "conv3_2/dw"
  top: "conv3_2/sep"
  param {
    lr_mult: 1
    decay_mult: 1
  }
  convolution_param {
    num_output: 256
    bias_term: false
    pad: 0
    kernel_size: 1
    stride: 1
    weight_filler {
      type: "msra"
    }
  }
}
layer {
  name: "conv3_2/sep/bn"
  type: "BatchNorm"
  bottom: "conv3_2/sep"
  top: "conv3_2/sep"
  batch_norm_param {
    use_global_stats: true
    eps: 1e-05
  }
}
layer {
  name: "conv3_2/sep/scale"
  type: "Scale"
  bottom: "conv3_2/sep"
  top: "conv3_2/sep"
  param {
    lr_mult: 1
    decay_mult: 0
  }
  param {
    lr_mult: 1
    decay_mult: 0
  }
  scale_param {
    filler {
      type: "constant"
      value: 1
    }
    bias_term: true
    bias_filler {
      type: "constant"
      value: 0
    }
  }
}
layer {
  name: "relu3_2/sep"
  type: "ReLU"
  bottom: "conv3_2/sep"
  top: "conv3_2/sep"
}
layer {
  name: "conv4_1/dw"
  type: "Convolution"
  bottom: "conv3_2/sep"
  top: "conv4_1/dw"
  param {
    lr_mult: 1
    decay_mult: 1
  }
  convolution_param {
    num_output: 256
    bias_term: false
    pad: 1
    kernel_size: 3
    group: 256
    stride: 1
    weight_filler {
      type: "msra"
    }
    engine: CAFFE
  }
}
layer {
  name: "conv4_1/dw/bn"
  type: "BatchNorm"
  bottom: "conv4_1/dw"
  top: "conv4_1/dw"
  batch_norm_param {
    use_global_stats: true
    eps: 1e-05
  }
}
layer {
  name: "conv4_1/dw/scale"
  type: "Scale"
  bottom: "conv4_1/dw"
  top: "conv4_1/dw"
  param {
    lr_mult: 1
    decay_mult: 0
  }
  param {
    lr_mult: 1
    decay_mult: 0
  }
  scale_param {
    filler {
      type: "constant"
      value: 1
    }
    bias_term: true
    bias_filler {
      type: "constant"
      value: 0
    }
  }
}
layer {
  name: "relu4_1/dw"
  type: "ReLU"
  bottom: "conv4_1/dw"
  top: "conv4_1/dw"
}
layer {
  name: "conv4_1/sep"
  type: "Convolution"
  bottom: "conv4_1/dw"
  top: "conv4_1/sep"
  param {
    lr_mult: 1
    decay_mult: 1
  }
  convolution_param {
    num_output: 256
    bias_term: false
    pad: 0
    kernel_size: 1
    stride: 1
    weight_filler {
      type: "msra"
    }
  }
}
layer {
  name: "conv4_1/sep/bn"
  type: "BatchNorm"
  bottom: "conv4_1/sep"
  top: "conv4_1/sep"
  batch_norm_param {
    use_global_stats: true
    eps: 1e-05
  }
}
layer {
  name: "conv4_1/sep/scale"
  type: "Scale"
  bottom: "conv4_1/sep"
  top: "conv4_1/sep"
  param {
    lr_mult: 1
    decay_mult: 0
  }
  param {
    lr_mult: 1
    decay_mult: 0
  }
  scale_param {
    filler {
      type: "constant"
      value: 1
    }
    bias_term: true
    bias_filler {
      type: "constant"
      value: 0
    }
  }
}
layer {
  name: "relu4_1/sep"
  type: "ReLU"
  bottom: "conv4_1/sep"
  top: "conv4_1/sep"
}
layer {
  name: "conv4_2/dw"
  type: "Convolution"
  bottom: "conv4_1/sep"
  top: "conv4_2/dw"
  param {
    lr_mult: 1
    decay_mult: 1
  }
  convolution_param {
    num_output: 256
    bias_term: false
    pad: 1
    kernel_size: 3
    group: 256
    stride: 2
    weight_filler {
      type: "msra"
    }
    engine: CAFFE
  }
}
layer {
  name: "conv4_2/dw/bn"
  type: "BatchNorm"
  bottom: "conv4_2/dw"
  top: "conv4_2/dw"
  batch_norm_param {
    use_global_stats: true
    eps: 1e-05
  }
}
layer {
  name: "conv4_2/dw/scale"
  type: "Scale"
  bottom: "conv4_2/dw"
  top: "conv4_2/dw"
  param {
    lr_mult: 1
    decay_mult: 0
  }
  param {
    lr_mult: 1
    decay_mult: 0
  }
  scale_param {
    filler {
      type: "constant"
      value: 1
    }
    bias_term: true
    bias_filler {
      type: "constant"
      value: 0
    }
  }
}
layer {
  name: "relu4_2/dw"
  type: "ReLU"
  bottom: "conv4_2/dw"
  top: "conv4_2/dw"
}
layer {
  name: "conv4_2/sep"
  type: "Convolution"
  bottom: "conv4_2/dw"
  top: "conv4_2/sep"
  param {
    lr_mult: 1
    decay_mult: 1
  }
  convolution_param {
    num_output: 512
    bias_term: false
    pad: 0
    kernel_size: 1
    stride: 1
    weight_filler {
      type: "msra"
    }
  }
}
layer {
  name: "conv4_2/sep/bn"
  type: "BatchNorm"
  bottom: "conv4_2/sep"
  top: "conv4_2/sep"
  batch_norm_param {
    use_global_stats: true
    eps: 1e-05
  }
}
layer {
  name: "conv4_2/sep/scale"
  type: "Scale"
  bottom: "conv4_2/sep"
  top: "conv4_2/sep"
  param {
    lr_mult: 1
    decay_mult: 0
  }
  param {
    lr_mult: 1
    decay_mult: 0
  }
  scale_param {
    filler {
      type: "constant"
      value: 1
    }
    bias_term: true
    bias_filler {
      type: "constant"
      value: 0
    }
  }
}
layer {
  name: "relu4_2/sep"
  type: "ReLU"
  bottom: "conv4_2/sep"
  top: "conv4_2/sep"
}
layer {
  name: "conv5_1/dw"
  type: "Convolution"
  bottom: "conv4_2/sep"
  top: "conv5_1/dw"
  param {
    lr_mult: 1
    decay_mult: 1
  }
  convolution_param {
    num_output: 512
    bias_term: false
    pad: 1
    kernel_size: 3
    group: 512
    stride: 1
    weight_filler {
      type: "msra"
    }
    engine: CAFFE
  }
}
layer {
  name: "conv5_1/dw/bn"
  type: "BatchNorm"
  bottom: "conv5_1/dw"
  top: "conv5_1/dw"
  batch_norm_param {
    use_global_stats: true
    eps: 1e-05
  }
}
layer {
  name: "conv5_1/dw/scale"
  type: "Scale"
  bottom: "conv5_1/dw"
  top: "conv5_1/dw"
  param {
    lr_mult: 1
    decay_mult: 0
  }
  param {
    lr_mult: 1
    decay_mult: 0
  }
  scale_param {
    filler {
      type: "constant"
      value: 1
    }
    bias_term: true
    bias_filler {
      type: "constant"
      value: 0
    }
  }
}
layer {
  name: "relu5_1/dw"
  type: "ReLU"
  bottom: "conv5_1/dw"
  top: "conv5_1/dw"
}
layer {
  name: "conv5_1/sep"
  type: "Convolution"
  bottom: "conv5_1/dw"
  top: "conv5_1/sep"
  param {
    lr_mult: 1
    decay_mult: 1
  }
  convolution_param {
    num_output: 512
    bias_term: false
    pad: 0
    kernel_size: 1
    stride: 1
    weight_filler {
      type: "msra"
    }
  }
}
layer {
  name: "conv5_1/sep/bn"
  type: "BatchNorm"
  bottom: "conv5_1/sep"
  top: "conv5_1/sep"
  batch_norm_param {
    use_global_stats: true
    eps: 1e-05
  }
}
layer {
  name: "conv5_1/sep/scale"
  type: "Scale"
  bottom: "conv5_1/sep"
  top: "conv5_1/sep"
  param {
    lr_mult: 1
    decay_mult: 0
  }
  param {
    lr_mult: 1
    decay_mult: 0
  }
  scale_param {
    filler {
      type: "constant"
      value: 1
    }
    bias_term: true
    bias_filler {
      type: "constant"
      value: 0
    }
  }
}
layer {
  name: "relu5_1/sep"
  type: "ReLU"
  bottom: "conv5_1/sep"
  top: "conv5_1/sep"
}
layer {
  name: "conv5_2/dw"
  type: "Convolution"
  bottom: "conv5_1/sep"
  top: "conv5_2/dw"
  param {
    lr_mult: 1
    decay_mult: 1
  }
  convolution_param {
    num_output: 512
    bias_term: false
    pad: 1
    kernel_size: 3
    group: 512
    stride: 1
    weight_filler {
      type: "msra"
    }
    engine: CAFFE
  }
}
layer {
  name: "conv5_2/dw/bn"
  type: "BatchNorm"
  bottom: "conv5_2/dw"
  top: "conv5_2/dw"
  batch_norm_param {
    use_global_stats: true
    eps: 1e-05
  }
}
layer {
  name: "conv5_2/dw/scale"
  type: "Scale"
  bottom: "conv5_2/dw"
  top: "conv5_2/dw"
  param {
    lr_mult: 1
    decay_mult: 0
  }
  param {
    lr_mult: 1
    decay_mult: 0
  }
  scale_param {
    filler {
      type: "constant"
      value: 1
    }
    bias_term: true
    bias_filler {
      type: "constant"
      value: 0
    }
  }
}
layer {
  name: "relu5_2/dw"
  type: "ReLU"
  bottom: "conv5_2/dw"
  top: "conv5_2/dw"
}
layer {
  name: "conv5_2/sep"
  type: "Convolution"
  bottom: "conv5_2/dw"
  top: "conv5_2/sep"
  param {
    lr_mult: 1
    decay_mult: 1
  }
  convolution_param {
    num_output: 512
    bias_term: false
    pad: 0
    kernel_size: 1
    stride: 1
    weight_filler {
      type: "msra"
    }
  }
}
layer {
  name: "conv5_2/sep/bn"
  type: "BatchNorm"
  bottom: "conv5_2/sep"
  top: "conv5_2/sep"
  batch_norm_param {
    use_global_stats: true
    eps: 1e-05
  }
}
layer {
  name: "conv5_2/sep/scale"
  type: "Scale"
  bottom: "conv5_2/sep"
  top: "conv5_2/sep"
  param {
    lr_mult: 1
    decay_mult: 0
  }
  param {
    lr_mult: 1
    decay_mult: 0
  }
  scale_param {
    filler {
      type: "constant"
      value: 1
    }
    bias_term: true
    bias_filler {
      type: "constant"
      value: 0
    }
  }
}
layer {
  name: "relu5_2/sep"
  type: "ReLU"
  bottom: "conv5_2/sep"
  top: "conv5_2/sep"
}
layer {
  name: "conv5_3/dw"
  type: "Convolution"
  bottom: "conv5_2/sep"
  top: "conv5_3/dw"
  param {
    lr_mult: 1
    decay_mult: 1
  }
  convolution_param {
    num_output: 512
    bias_term: false
    pad: 1
    kernel_size: 3
    group: 512
    stride: 1
    weight_filler {
      type: "msra"
    }
    engine: CAFFE
  }
}
layer {
  name: "conv5_3/dw/bn"
  type: "BatchNorm"
  bottom: "conv5_3/dw"
  top: "conv5_3/dw"
  batch_norm_param {
    use_global_stats: true
    eps: 1e-05
  }
}
layer {
  name: "conv5_3/dw/scale"
  type: "Scale"
  bottom: "conv5_3/dw"
  top: "conv5_3/dw"
  param {
    lr_mult: 1
    decay_mult: 0
  }
  param {
    lr_mult: 1
    decay_mult: 0
  }
  scale_param {
    filler {
      type: "constant"
      value: 1
    }
    bias_term: true
    bias_filler {
      type: "constant"
      value: 0
    }
  }
}
layer {
  name: "relu5_3/dw"
  type: "ReLU"
  bottom: "conv5_3/dw"
  top: "conv5_3/dw"
}
layer {
  name: "conv5_3/sep"
  type: "Convolution"
  bottom: "conv5_3/dw"
  top: "conv5_3/sep"
  param {
    lr_mult: 1
    decay_mult: 1
  }
  convolution_param {
    num_output: 512
    bias_term: false
    pad: 0
    kernel_size: 1
    stride: 1
    weight_filler {
      type: "msra"
    }
  }
}
layer {
  name: "conv5_3/sep/bn"
  type: "BatchNorm"
  bottom: "conv5_3/sep"
  top: "conv5_3/sep"
  batch_norm_param {
    use_global_stats: true
    eps: 1e-05
  }
}
layer {
  name: "conv5_3/sep/scale"
  type: "Scale"
  bottom: "conv5_3/sep"
  top: "conv5_3/sep"
  param {
    lr_mult: 1
    decay_mult: 0
  }
  param {
    lr_mult: 1
    decay_mult: 0
  }
  scale_param {
    filler {
      type: "constant"
      value: 1
    }
    bias_term: true
    bias_filler {
      type: "constant"
      value: 0
    }
  }
}
layer {
  name: "relu5_3/sep"
  type: "ReLU"
  bottom: "conv5_3/sep"
  top: "conv5_3/sep"
}
layer {
  name: "conv5_4/dw"
  type: "Convolution"
  bottom: "conv5_3/sep"
  top: "conv5_4/dw"
  param {
    lr_mult: 1
    decay_mult: 1
  }
  convolution_param {
    num_output: 512
    bias_term: false
    pad: 1
    kernel_size: 3
    group: 512
    stride: 1
    weight_filler {
      type: "msra"
    }
    engine: CAFFE
  }
}
layer {
  name: "conv5_4/dw/bn"
  type: "BatchNorm"
  bottom: "conv5_4/dw"
  top: "conv5_4/dw"
  batch_norm_param {
    use_global_stats: true
    eps: 1e-05
  }
}
layer {
  name: "conv5_4/dw/scale"
  type: "Scale"
  bottom: "conv5_4/dw"
  top: "conv5_4/dw"
  param {
    lr_mult: 1
    decay_mult: 0
  }
  param {
    lr_mult: 1
    decay_mult: 0
  }
  scale_param {
    filler {
      type: "constant"
      value: 1
    }
    bias_term: true
    bias_filler {
      type: "constant"
      value: 0
    }
  }
}
layer {
  name: "relu5_4/dw"
  type: "ReLU"
  bottom: "conv5_4/dw"
  top: "conv5_4/dw"
}
layer {
  name: "conv5_4/sep"
  type: "Convolution"
  bottom: "conv5_4/dw"
  top: "conv5_4/sep"
  param {
    lr_mult: 1
    decay_mult: 1
  }
  convolution_param {
    num_output: 512
    bias_term: false
    pad: 0
    kernel_size: 1
    stride: 1
    weight_filler {
      type: "msra"
    }
  }
}
layer {
  name: "conv5_4/sep/bn"
  type: "BatchNorm"
  bottom: "conv5_4/sep"
  top: "conv5_4/sep"
  batch_norm_param {
    use_global_stats: true
    eps: 1e-05
  }
}
layer {
  name: "conv5_4/sep/scale"
  type: "Scale"
  bottom: "conv5_4/sep"
  top: "conv5_4/sep"
  param {
    lr_mult: 1
    decay_mult: 0
  }
  param {
    lr_mult: 1
    decay_mult: 0
  }
  scale_param {
    filler {
      type: "constant"
      value: 1
    }
    bias_term: true
    bias_filler {
      type: "constant"
      value: 0
    }
  }
}
layer {
  name: "relu5_4/sep"
  type: "ReLU"
  bottom: "conv5_4/sep"
  top: "conv5_4/sep"
}
layer {
  name: "conv5_5/dw"
  type: "Convolution"
  bottom: "conv5_4/sep"
  top: "conv5_5/dw"
  param {
    lr_mult: 1
    decay_mult: 1
  }
  convolution_param {
    num_output: 512
    bias_term: false
    pad: 1
    kernel_size: 3
    group: 512
    stride: 1
    weight_filler {
      type: "msra"
    }
    engine: CAFFE
  }
}
layer {
  name: "conv5_5/dw/bn"
  type: "BatchNorm"
  bottom: "conv5_5/dw"
  top: "conv5_5/dw"
  batch_norm_param {
    use_global_stats: true
…
I0927 20:45:51.454174 30272 layer_factory.hpp:77] Creating layer conv5_6/sep/scale
I0927 20:45:51.454179 30272 net.cpp:100] Creating Layer conv5_6/sep/scale
I0927 20:45:51.454180 30272 net.cpp:434] conv5_6/sep/scale <- conv5_6/sep
I0927 20:45:51.454183 30272 net.cpp:395] conv5_6/sep/scale -> conv5_6/sep (in-place)
I0927 20:45:51.454213 30272 layer_factory.hpp:77] Creating layer conv5_6/sep/scale
I0927 20:45:51.454308 30272 net.cpp:150] Setting up conv5_6/sep/scale
I0927 20:45:51.454313 30272 net.cpp:157] Top shape: 1 1024 10 16 (163840)
I0927 20:45:51.454313 30272 net.cpp:165] Memory required for data: 259747616
I0927 20:45:51.454318 30272 layer_factory.hpp:77] Creating layer relu5_6/sep
I0927 20:45:51.454320 30272 net.cpp:100] Creating Layer relu5_6/sep
I0927 20:45:51.454324 30272 net.cpp:434] relu5_6/sep <- conv5_6/sep
I0927 20:45:51.454325 30272 net.cpp:395] relu5_6/sep -> conv5_6/sep (in-place)
I0927 20:45:51.454620 30272 net.cpp:150] Setting up relu5_6/sep
I0927 20:45:51.454625 30272 net.cpp:157] Top shape: 1 1024 10 16 (163840)
I0927 20:45:51.454627 30272 net.cpp:165] Memory required for data: 260402976
I0927 20:45:51.454629 30272 layer_factory.hpp:77] Creating layer conv6/dw
I0927 20:45:51.454635 30272 net.cpp:100] Creating Layer conv6/dw
I0927 20:45:51.454638 30272 net.cpp:434] conv6/dw <- conv5_6/sep
I0927 20:45:51.454641 30272 net.cpp:408] conv6/dw -> conv6/dw
I0927 20:45:51.454860 30272 net.cpp:150] Setting up conv6/dw
I0927 20:45:51.454864 30272 net.cpp:157] Top shape: 1 1024 10 16 (163840)
I0927 20:45:51.454866 30272 net.cpp:165] Memory required for data: 261058336
I0927 20:45:51.454869 30272 layer_factory.hpp:77] Creating layer conv6/dw/bn
I0927 20:45:51.454874 30272 net.cpp:100] Creating Layer conv6/dw/bn
I0927 20:45:51.454876 30272 net.cpp:434] conv6/dw/bn <- conv6/dw
I0927 20:45:51.454883 30272 net.cpp:395] conv6/dw/bn -> conv6/dw (in-place)
I0927 20:45:51.455063 30272 net.cpp:150] Setting up conv6/dw/bn
I0927 20:45:51.455070 30272 net.cpp:157] Top shape: 1 1024 10 16 (163840)
I0927 20:45:51.455075 30272 net.cpp:165] Memory required for data: 261713696
I0927 20:45:51.455080 30272 layer_factory.hpp:77] Creating layer conv6/dw/scale
I0927 20:45:51.455087 30272 net.cpp:100] Creating Layer conv6/dw/scale
I0927 20:45:51.455091 30272 net.cpp:434] conv6/dw/scale <- conv6/dw
I0927 20:45:51.455097 30272 net.cpp:395] conv6/dw/scale -> conv6/dw (in-place)
I0927 20:45:51.455140 30272 layer_factory.hpp:77] Creating layer conv6/dw/scale
I0927 20:45:51.455253 30272 net.cpp:150] Setting up conv6/dw/scale
I0927 20:45:51.455258 30272 net.cpp:157] Top shape: 1 1024 10 16 (163840)
I0927 20:45:51.455261 30272 net.cpp:165] Memory required for data: 262369056
I0927 20:45:51.455265 30272 layer_factory.hpp:77] Creating layer relu6/dw
I0927 20:45:51.455269 30272 net.cpp:100] Creating Layer relu6/dw
I0927 20:45:51.455271 30272 net.cpp:434] relu6/dw <- conv6/dw
I0927 20:45:51.455274 30272 net.cpp:395] relu6/dw -> conv6/dw (in-place)
I0927 20:45:51.455580 30272 net.cpp:150] Setting up relu6/dw
I0927 20:45:51.455586 30272 net.cpp:157] Top shape: 1 1024 10 16 (163840)
I0927 20:45:51.455590 30272 net.cpp:165] Memory required for data: 263024416
I0927 20:45:51.455591 30272 layer_factory.hpp:77] Creating layer conv6/sep
I0927 20:45:51.455596 30272 net.cpp:100] Creating Layer conv6/sep
I0927 20:45:51.455598 30272 net.cpp:434] conv6/sep <- conv6/dw
I0927 20:45:51.455602 30272 net.cpp:408] conv6/sep -> conv6/sep
I0927 20:45:51.464431 30272 net.cpp:150] Setting up conv6/sep
I0927 20:45:51.464447 30272 net.cpp:157] Top shape: 1 1024 10 16 (163840)
I0927 20:45:51.464448 30272 net.cpp:165] Memory required for data: 263679776
I0927 20:45:51.464454 30272 layer_factory.hpp:77] Creating layer conv6/sep/bn
I0927 20:45:51.464462 30272 net.cpp:100] Creating Layer conv6/sep/bn
I0927 20:45:51.464465 30272 net.cpp:434] conv6/sep/bn <- conv6/sep
I0927 20:45:51.464468 30272 net.cpp:395] conv6/sep/bn -> conv6/sep (in-place)
I0927 20:45:51.464639 30272 net.cpp:150] Setting up conv6/sep/bn
I0927 20:45:51.464644 30272 net.cpp:157] Top shape: 1 1024 10 16 (163840)
I0927 20:45:51.464646 30272 net.cpp:165] Memory required for data: 264335136
I0927 20:45:51.464650 30272 layer_factory.hpp:77] Creating layer conv6/sep/scale
I0927 20:45:51.464655 30272 net.cpp:100] Creating Layer conv6/sep/scale
I0927 20:45:51.464658 30272 net.cpp:434] conv6/sep/scale <- conv6/sep
I0927 20:45:51.464661 30272 net.cpp:395] conv6/sep/scale -> conv6/sep (in-place)
I0927 20:45:51.464692 30272 layer_factory.hpp:77] Creating layer conv6/sep/scale
I0927 20:45:51.464783 30272 net.cpp:150] Setting up conv6/sep/scale
I0927 20:45:51.464788 30272 net.cpp:157] Top shape: 1 1024 10 16 (163840)
I0927 20:45:51.464790 30272 net.cpp:165] Memory required for data: 264990496
I0927 20:45:51.464793 30272 layer_factory.hpp:77] Creating layer relu6/sep
I0927 20:45:51.464797 30272 net.cpp:100] Creating Layer relu6/sep
I0927 20:45:51.464800 30272 net.cpp:434] relu6/sep <- conv6/sep
I0927 20:45:51.464802 30272 net.cpp:395] relu6/sep -> conv6/sep (in-place)
I0927 20:45:51.465102 30272 net.cpp:150] Setting up relu6/sep
I0927 20:45:51.465108 30272 net.cpp:157] Top shape: 1 1024 10 16 (163840)
I0927 20:45:51.465111 30272 net.cpp:165] Memory required for data: 265645856
I0927 20:45:51.465113 30272 layer_factory.hpp:77] Creating layer conv6/sep_relu6/sep_0_split
I0927 20:45:51.465116 30272 net.cpp:100] Creating Layer conv6/sep_relu6/sep_0_split
I0927 20:45:51.465118 30272 net.cpp:434] conv6/sep_relu6/sep_0_split <- conv6/sep
I0927 20:45:51.465122 30272 net.cpp:408] conv6/sep_relu6/sep_0_split -> conv6/sep_relu6/sep_0_split_0
I0927 20:45:51.465127 30272 net.cpp:408] conv6/sep_relu6/sep_0_split -> conv6/sep_relu6/sep_0_split_1
I0927 20:45:51.465131 30272 net.cpp:408] conv6/sep_relu6/sep_0_split -> conv6/sep_relu6/sep_0_split_2
I0927 20:45:51.465135 30272 net.cpp:408] conv6/sep_relu6/sep_0_split -> conv6/sep_relu6/sep_0_split_3
I0927 20:45:51.465188 30272 net.cpp:150] Setting up conv6/sep_relu6/sep_0_split
I0927 20:45:51.465193 30272 net.cpp:157] Top shape: 1 1024 10 16 (163840)
I0927 20:45:51.465194 30272 net.cpp:157] Top shape: 1 1024 10 16 (163840)
I0927 20:45:51.465198 30272 net.cpp:157] Top shape: 1 1024 10 16 (163840)
I0927 20:45:51.465199 30272 net.cpp:157] Top shape: 1 1024 10 16 (163840)
I0927 20:45:51.465201 30272 net.cpp:165] Memory required for data: 268267296
I0927 20:45:51.465204 30272 layer_factory.hpp:77] Creating layer ssd1_1
I0927 20:45:51.465209 30272 net.cpp:100] Creating Layer ssd1_1
I0927 20:45:51.465212 30272 net.cpp:434] ssd1_1 <- conv6/sep_relu6/sep_0_split_0
I0927 20:45:51.465216 30272 net.cpp:408] ssd1_1 -> ssd1_1
I0927 20:45:51.467818 30272 net.cpp:150] Setting up ssd1_1
I0927 20:45:51.467828 30272 net.cpp:157] Top shape: 1 256 10 16 (40960)
I0927 20:45:51.467829 30272 net.cpp:165] Memory required for data: 268431136
I0927 20:45:51.467834 30272 layer_factory.hpp:77] Creating layer ssd1_1_relu
I0927 20:45:51.467839 30272 net.cpp:100] Creating Layer ssd1_1_relu
I0927 20:45:51.467852 30272 net.cpp:434] ssd1_1_relu <- ssd1_1
I0927 20:45:51.467857 30272 net.cpp:395] ssd1_1_relu -> ssd1_1 (in-place)
I0927 20:45:51.468262 30272 net.cpp:150] Setting up ssd1_1_relu
I0927 20:45:51.468269 30272 net.cpp:157] Top shape: 1 256 10 16 (40960)
I0927 20:45:51.468271 30272 net.cpp:165] Memory required for data: 268594976
I0927 20:45:51.468274 30272 layer_factory.hpp:77] Creating layer ssd1_2
I0927 20:45:51.468281 30272 net.cpp:100] Creating Layer ssd1_2
I0927 20:45:51.468282 30272 net.cpp:434] ssd1_2 <- ssd1_1
I0927 20:45:51.468286 30272 net.cpp:408] ssd1_2 -> ssd1_2
I0927 20:45:51.474160 30272 net.cpp:150] Setting up ssd1_2
I0927 20:45:51.474177 30272 net.cpp:157] Top shape: 1 512 5 8 (20480)
I0927 20:45:51.474179 30272 net.cpp:165] Memory required for data: 268676896
I0927 20:45:51.474186 30272 layer_factory.hpp:77] Creating layer ssd1_2_relu
I0927 20:45:51.474192 30272 net.cpp:100] Creating Layer ssd1_2_relu
I0927 20:45:51.474196 30272 net.cpp:434] ssd1_2_relu <- ssd1_2
I0927 20:45:51.474200 30272 net.cpp:395] ssd1_2_relu -> ssd1_2 (in-place)
I0927 20:45:51.474501 30272 net.cpp:150] Setting up ssd1_2_relu
I0927 20:45:51.474508 30272 net.cpp:157] Top shape: 1 512 5 8 (20480)
I0927 20:45:51.474509 30272 net.cpp:165] Memory required for data: 268758816
I0927 20:45:51.474510 30272 layer_factory.hpp:77] Creating layer ssd1_2_ssd1_2_relu_0_split
I0927 20:45:51.474514 30272 net.cpp:100] Creating Layer ssd1_2_ssd1_2_relu_0_split
I0927 20:45:51.474516 30272 net.cpp:434] ssd1_2_ssd1_2_relu_0_split <- ssd1_2
I0927 20:45:51.474520 30272 net.cpp:408] ssd1_2_ssd1_2_relu_0_split -> ssd1_2_ssd1_2_relu_0_split_0
I0927 20:45:51.474525 30272 net.cpp:408] ssd1_2_ssd1_2_relu_0_split -> ssd1_2_ssd1_2_relu_0_split_1
I0927 20:45:51.474530 30272 net.cpp:408] ssd1_2_ssd1_2_relu_0_split -> ssd1_2_ssd1_2_relu_0_split_2
I0927 20:45:51.474534 30272 net.cpp:408] ssd1_2_ssd1_2_relu_0_split -> ssd1_2_ssd1_2_relu_0_split_3
I0927 20:45:51.474588 30272 net.cpp:150] Setting up ssd1_2_ssd1_2_relu_0_split
I0927 20:45:51.474592 30272 net.cpp:157] Top shape: 1 512 5 8 (20480)
I0927 20:45:51.474594 30272 net.cpp:157] Top shape: 1 512 5 8 (20480)
I0927 20:45:51.474597 30272 net.cpp:157] Top shape: 1 512 5 8 (20480)
I0927 20:45:51.474599 30272 net.cpp:157] Top shape: 1 512 5 8 (20480)
I0927 20:45:51.474601 30272 net.cpp:165] Memory required for data: 269086496
I0927 20:45:51.474602 30272 layer_factory.hpp:77] Creating layer ssd2_1
I0927 20:45:51.474609 30272 net.cpp:100] Creating Layer ssd2_1
I0927 20:45:51.474611 30272 net.cpp:434] ssd2_1 <- ssd1_2_ssd1_2_relu_0_split_0
I0927 20:45:51.474615 30272 net.cpp:408] ssd2_1 -> ssd2_1
I0927 20:45:51.476052 30272 net.cpp:150] Setting up ssd2_1
I0927 20:45:51.476059 30272 net.cpp:157] Top shape: 1 128 5 8 (5120)
I0927 20:45:51.476061 30272 net.cpp:165] Memory required for data: 269106976
I0927 20:45:51.476065 30272 layer_factory.hpp:77] Creating layer ssd2_1_relu
I0927 20:45:51.476068 30272 net.cpp:100] Creating Layer ssd2_1_relu
I0927 20:45:51.476071 30272 net.cpp:434] ssd2_1_relu <- ssd2_1
I0927 20:45:51.476075 30272 net.cpp:395] ssd2_1_relu -> ssd2_1 (in-place)
I0927 20:45:51.476482 30272 net.cpp:150] Setting up ssd2_1_relu
I0927 20:45:51.476490 30272 net.cpp:157] Top shape: 1 128 5 8 (5120)
I0927 20:45:51.476492 30272 net.cpp:165] Memory required for data: 269127456
I0927 20:45:51.476495 30272 layer_factory.hpp:77] Creating layer ssd2_2
I0927 20:45:51.476500 30272 net.cpp:100] Creating Layer ssd2_2
I0927 20:45:51.476502 30272 net.cpp:434] ssd2_2 <- ssd2_1
I0927 20:45:51.476506 30272 net.cpp:408] ssd2_2 -> ssd2_2
I0927 20:45:51.479301 30272 net.cpp:150] Setting up ssd2_2
I0927 20:45:51.479310 30272 net.cpp:157] Top shape: 1 256 3 4 (3072)
I0927 20:45:51.479312 30272 net.cpp:165] Memory required for data: 269139744
I0927 20:45:51.479317 30272 layer_factory.hpp:77] Creating layer ssd2_2_relu
I0927 20:45:51.479321 30272 net.cpp:100] Creating Layer ssd2_2_relu
I0927 20:45:51.479323 30272 net.cpp:434] ssd2_2_relu <- ssd2_2
I0927 20:45:51.479327 30272 net.cpp:395] ssd2_2_relu -> ssd2_2 (in-place)
I0927 20:45:51.479635 30272 net.cpp:150] Setting up ssd2_2_relu
I0927 20:45:51.479640 30272 net.cpp:157] Top shape: 1 256 3 4 (3072)
I0927 20:45:51.479642 30272 net.cpp:165] Memory required for data: 269152032
I0927 20:45:51.479645 30272 layer_factory.hpp:77] Creating layer ssd2_2_ssd2_2_relu_0_split
I0927 20:45:51.479648 30272 net.cpp:100] Creating Layer ssd2_2_ssd2_2_relu_0_split
I0927 20:45:51.479651 30272 net.cpp:434] ssd2_2_ssd2_2_relu_0_split <- ssd2_2
I0927 20:45:51.479655 30272 net.cpp:408] ssd2_2_ssd2_2_relu_0_split -> ssd2_2_ssd2_2_relu_0_split_0
I0927 20:45:51.479660 30272 net.cpp:408] ssd2_2_ssd2_2_relu_0_split -> ssd2_2_ssd2_2_relu_0_split_1
I0927 20:45:51.479665 30272 net.cpp:408] ssd2_2_ssd2_2_relu_0_split -> ssd2_2_ssd2_2_relu_0_split_2
I0927 20:45:51.479668 30272 net.cpp:408] ssd2_2_ssd2_2_relu_0_split -> ssd2_2_ssd2_2_relu_0_split_3
I0927 20:45:51.479724 30272 net.cpp:150] Setting up ssd2_2_ssd2_2_relu_0_split
I0927 20:45:51.479728 30272 net.cpp:157] Top shape: 1 256 3 4 (3072)
I0927 20:45:51.479732 30272 net.cpp:157] Top shape: 1 256 3 4 (3072)
I0927 20:45:51.479733 30272 net.cpp:157] Top shape: 1 256 3 4 (3072)
I0927 20:45:51.479737 30272 net.cpp:157] Top shape: 1 256 3 4 (3072)
I0927 20:45:51.479737 30272 net.cpp:165] Memory required for data: 269201184
I0927 20:45:51.479739 30272 layer_factory.hpp:77] Creating layer ssd3_1
I0927 20:45:51.479745 30272 net.cpp:100] Creating Layer ssd3_1
I0927 20:45:51.479748 30272 net.cpp:434] ssd3_1 <- ssd2_2_ssd2_2_relu_0_split_0
I0927 20:45:51.479751 30272 net.cpp:408] ssd3_1 -> ssd3_1
I0927 20:45:51.481175 30272 net.cpp:150] Setting up ssd3_1
I0927 20:45:51.481182 30272 net.cpp:157] Top shape: 1 128 3 4 (1536)
I0927 20:45:51.481184 30272 net.cpp:165] Memory required for data: 269207328
I0927 20:45:51.481189 30272 layer_factory.hpp:77] Creating layer ssd3_1_relu
I0927 20:45:51.481192 30272 net.cpp:100] Creating Layer ssd3_1_relu
I0927 20:45:51.481195 30272 net.cpp:434] ssd3_1_relu <- ssd3_1
I0927 20:45:51.481199 30272 net.cpp:395] ssd3_1_relu -> ssd3_1 (in-place)
I0927 20:45:51.481492 30272 net.cpp:150] Setting up ssd3_1_relu
I0927 20:45:51.481498 30272 net.cpp:157] Top shape: 1 128 3 4 (1536)
I0927 20:45:51.481498 30272 net.cpp:165] Memory required for data: 269213472
I0927 20:45:51.481500 30272 layer_factory.hpp:77] Creating layer ssd3_2
I0927 20:45:51.481506 30272 net.cpp:100] Creating Layer ssd3_2
I0927 20:45:51.481509 30272 net.cpp:434] ssd3_2 <- ssd3_1
I0927 20:45:51.481513 30272 net.cpp:408] ssd3_2 -> ssd3_2
I0927 20:45:51.484112 30272 net.cpp:150] Setting up ssd3_2
I0927 20:45:51.484120 30272 net.cpp:157] Top shape: 1 256 2 2 (1024)
I0927 20:45:51.484122 30272 net.cpp:165] Memory required for data: 269217568
I0927 20:45:51.484127 30272 layer_factory.hpp:77] Creating layer ssd3_2_relu
I0927 20:45:51.484130 30272 net.cpp:100] Creating Layer ssd3_2_relu
I0927 20:45:51.484133 30272 net.cpp:434] ssd3_2_relu <- ssd3_2
I0927 20:45:51.484136 30272 net.cpp:395] ssd3_2_relu -> ssd3_2 (in-place)
I0927 20:45:51.484539 30272 net.cpp:150] Setting up ssd3_2_relu
I0927 20:45:51.484546 30272 net.cpp:157] Top shape: 1 256 2 2 (1024)
I0927 20:45:51.484547 30272 net.cpp:165] Memory required for data: 269221664
I0927 20:45:51.484550 30272 layer_factory.hpp:77] Creating layer ssd3_2_ssd3_2_relu_0_split
I0927 20:45:51.484555 30272 net.cpp:100] Creating Layer ssd3_2_ssd3_2_relu_0_split
I0927 20:45:51.484556 30272 net.cpp:434] ssd3_2_ssd3_2_relu_0_split <- ssd3_2
I0927 20:45:51.484560 30272 net.cpp:408] ssd3_2_ssd3_2_relu_0_split -> ssd3_2_ssd3_2_relu_0_split_0
I0927 20:45:51.484565 30272 net.cpp:408] ssd3_2_ssd3_2_relu_0_split -> ssd3_2_ssd3_2_relu_0_split_1
I0927 20:45:51.484570 30272 net.cpp:408] ssd3_2_ssd3_2_relu_0_split -> ssd3_2_ssd3_2_relu_0_split_2
I0927 20:45:51.484573 30272 net.cpp:408] ssd3_2_ssd3_2_relu_0_split -> ssd3_2_ssd3_2_relu_0_split_3
I0927 20:45:51.484629 30272 net.cpp:150] Setting up ssd3_2_ssd3_2_relu_0_split
I0927 20:45:51.484634 30272 net.cpp:157] Top shape: 1 256 2 2 (1024)
I0927 20:45:51.484637 30272 net.cpp:157] Top shape: 1 256 2 2 (1024)
I0927 20:45:51.484638 30272 net.cpp:157] Top shape: 1 256 2 2 (1024)
I0927 20:45:51.484650 30272 net.cpp:157] Top shape: 1 256 2 2 (1024)
I0927 20:45:51.484653 30272 net.cpp:165] Memory required for data: 269238048
I0927 20:45:51.484655 30272 layer_factory.hpp:77] Creating layer ssd4_1
I0927 20:45:51.484660 30272 net.cpp:100] Creating Layer ssd4_1
I0927 20:45:51.484663 30272 net.cpp:434] ssd4_1 <- ssd3_2_ssd3_2_relu_0_split_0
I0927 20:45:51.484668 30272 net.cpp:408] ssd4_1 -> ssd4_1
I0927 20:45:51.486083 30272 net.cpp:150] Setting up ssd4_1
I0927 20:45:51.486090 30272 net.cpp:157] Top shape: 1 128 2 2 (512)
I0927 20:45:51.486093 30272 net.cpp:165] Memory required for data: 269240096
I0927 20:45:51.486096 30272 layer_factory.hpp:77] Creating layer ssd4_1_relu
I0927 20:45:51.486110 30272 net.cpp:100] Creating Layer ssd4_1_relu
I0927 20:45:51.486114 30272 net.cpp:434] ssd4_1_relu <- ssd4_1
I0927 20:45:51.486115 30272 net.cpp:395] ssd4_1_relu -> ssd4_1 (in-place)
I0927 20:45:51.486418 30272 net.cpp:150] Setting up ssd4_1_relu
I0927 20:45:51.486423 30272 net.cpp:157] Top shape: 1 128 2 2 (512)
I0927 20:45:51.486424 30272 net.cpp:165] Memory required for data: 269242144
I0927 20:45:51.486428 30272 layer_factory.hpp:77] Creating layer ssd4_2
I0927 20:45:51.486433 30272 net.cpp:100] Creating Layer ssd4_2
I0927 20:45:51.486436 30272 net.cpp:434] ssd4_2 <- ssd4_1
I0927 20:45:51.486439 30272 net.cpp:408] ssd4_2 -> ssd4_2
I0927 20:45:51.489305 30272 net.cpp:150] Setting up ssd4_2
I0927 20:45:51.489315 30272 net.cpp:157] Top shape: 1 256 1 1 (256)
I0927 20:45:51.489317 30272 net.cpp:165] Memory required for data: 269243168
I0927 20:45:51.489321 30272 layer_factory.hpp:77] Creating layer ssd4_2_relu
I0927 20:45:51.489326 30272 net.cpp:100] Creating Layer ssd4_2_relu
I0927 20:45:51.489328 30272 net.cpp:434] ssd4_2_relu <- ssd4_2
I0927 20:45:51.489332 30272 net.cpp:395] ssd4_2_relu -> ssd4_2 (in-place)
I0927 20:45:51.489735 30272 net.cpp:150] Setting up ssd4_2_relu
I0927 20:45:51.489742 30272 net.cpp:157] Top shape: 1 256 1 1 (256)
I0927 20:45:51.489744 30272 net.cpp:165] Memory required for data: 269244192
I0927 20:45:51.489747 30272 layer_factory.hpp:77] Creating layer ssd4_2_ssd4_2_relu_0_split
I0927 20:45:51.489749 30272 net.cpp:100] Creating Layer ssd4_2_ssd4_2_relu_0_split
I0927 20:45:51.489753 30272 net.cpp:434] ssd4_2_ssd4_2_relu_0_split <- ssd4_2
I0927 20:45:51.489756 30272 net.cpp:408] ssd4_2_ssd4_2_relu_0_split -> ssd4_2_ssd4_2_relu_0_split_0
I0927 20:45:51.489761 30272 net.cpp:408] ssd4_2_ssd4_2_relu_0_split -> ssd4_2_ssd4_2_relu_0_split_1
I0927 20:45:51.489765 30272 net.cpp:408] ssd4_2_ssd4_2_relu_0_split -> ssd4_2_ssd4_2_relu_0_split_2
I0927 20:45:51.489817 30272 net.cpp:150] Setting up ssd4_2_ssd4_2_relu_0_split
I0927 20:45:51.489821 30272 net.cpp:157] Top shape: 1 256 1 1 (256)
I0927 20:45:51.489825 30272 net.cpp:157] Top shape: 1 256 1 1 (256)
I0927 20:45:51.489826 30272 net.cpp:157] Top shape: 1 256 1 1 (256)
I0927 20:45:51.489828 30272 net.cpp:165] Memory required for data: 269247264
I0927 20:45:51.489830 30272 layer_factory.hpp:77] Creating layer conv5_5/sep_norm
I0927 20:45:51.489835 30272 net.cpp:100] Creating Layer conv5_5/sep_norm
I0927 20:45:51.489837 30272 net.cpp:434] conv5_5/sep_norm <- conv5_5/sep_relu5_5/sep_0_split_1
I0927 20:45:51.489840 30272 net.cpp:408] conv5_5/sep_norm -> conv5_5/sep_norm
I0927 20:45:51.489979 30272 net.cpp:150] Setting up conv5_5/sep_norm
I0927 20:45:51.489982 30272 net.cpp:157] Top shape: 1 512 19 32 (311296)
I0927 20:45:51.489984 30272 net.cpp:165] Memory required for data: 270492448
I0927 20:45:51.489987 30272 layer_factory.hpp:77] Creating layer conv5_5/sep_norm_conv5_5/sep_norm_0_split
I0927 20:45:51.489991 30272 net.cpp:100] Creating Layer conv5_5/sep_norm_conv5_5/sep_norm_0_split
I0927 20:45:51.489995 30272 net.cpp:434] conv5_5/sep_norm_conv5_5/sep_norm_0_split <- conv5_5/sep_norm
I0927 20:45:51.489997 30272 net.cpp:408] conv5_5/sep_norm_conv5_5/sep_norm_0_split -> conv5_5/sep_norm_conv5_5/sep_norm_0_split_0
I0927 20:45:51.490002 30272 net.cpp:408] conv5_5/sep_norm_conv5_5/sep_norm_0_split -> conv5_5/sep_norm_conv5_5/sep_norm_0_split_1
I0927 20:45:51.490016 30272 net.cpp:408] conv5_5/sep_norm_conv5_5/sep_norm_0_split -> conv5_5/sep_norm_conv5_5/sep_norm_0_split_2
I0927 20:45:51.490056 30272 net.cpp:150] Setting up conv5_5/sep_norm_conv5_5/sep_norm_0_split
I0927 20:45:51.490061 30272 net.cpp:157] Top shape: 1 512 19 32 (311296)
I0927 20:45:51.490062 30272 net.cpp:157] Top shape: 1 512 19 32 (311296)
I0927 20:45:51.490065 30272 net.cpp:157] Top shape: 1 512 19 32 (311296)
I0927 20:45:51.490067 30272 net.cpp:165] Memory required for data: 274228000
I0927 20:45:51.490069 30272 layer_factory.hpp:77] Creating layer conv5_5/sep_norm_mbox_loc
I0927 20:45:51.490074 30272 net.cpp:100] Creating Layer conv5_5/sep_norm_mbox_loc
I0927 20:45:51.490077 30272 net.cpp:434] conv5_5/sep_norm_mbox_loc <- conv5_5/sep_norm_conv5_5/sep_norm_0_split_0
I0927 20:45:51.490082 30272 net.cpp:408] conv5_5/sep_norm_mbox_loc -> conv5_5/sep_norm_mbox_loc
I0927 20:45:51.491518 30272 net.cpp:150] Setting up conv5_5/sep_norm_mbox_loc
I0927 20:45:51.491525 30272 net.cpp:157] Top shape: 1 8 19 32 (4864)
I0927 20:45:51.491528 30272 net.cpp:165] Memory required for data: 274247456
I0927 20:45:51.491533 30272 layer_factory.hpp:77] Creating layer conv5_5/sep_norm_mbox_loc_perm
I0927 20:45:51.491536 30272 net.cpp:100] Creating Layer conv5_5/sep_norm_mbox_loc_perm
I0927 20:45:51.491539 30272 net.cpp:434] conv5_5/sep_norm_mbox_loc_perm <- conv5_5/sep_norm_mbox_loc
I0927 20:45:51.491544 30272 net.cpp:408] conv5_5/sep_norm_mbox_loc_perm -> conv5_5/sep_norm_mbox_loc_perm
I0927 20:45:51.491634 30272 net.cpp:150] Setting up conv5_5/sep_norm_mbox_loc_perm
I0927 20:45:51.491638 30272 net.cpp:157] Top shape: 1 19 32 8 (4864)
I0927 20:45:51.491641 30272 net.cpp:165] Memory required for data: 274266912
I0927 20:45:51.491643 30272 layer_factory.hpp:77] Creating layer conv5_5/sep_norm_mbox_loc_flat
I0927 20:45:51.491647 30272 net.cpp:100] Creating Layer conv5_5/sep_norm_mbox_loc_flat
I0927 20:45:51.491649 30272 net.cpp:434] conv5_5/sep_norm_mbox_loc_flat <- conv5_5/sep_norm_mbox_loc_perm
I0927 20:45:51.491652 30272 net.cpp:408] conv5_5/sep_norm_mbox_loc_flat -> conv5_5/sep_norm_mbox_loc_flat
I0927 20:45:51.491672 30272 net.cpp:150] Setting up conv5_5/sep_norm_mbox_loc_flat
I0927 20:45:51.491675 30272 net.cpp:157] Top shape: 1 4864 (4864)
I0927 20:45:51.491677 30272 net.cpp:165] Memory required for data: 274286368
I0927 20:45:51.491678 30272 layer_factory.hpp:77] Creating layer conv5_5/sep_norm_mbox_conf
I0927 20:45:51.491684 30272 net.cpp:100] Creating Layer conv5_5/sep_norm_mbox_conf
I0927 20:45:51.491686 30272 net.cpp:434] conv5_5/sep_norm_mbox_conf <- conv5_5/sep_norm_conv5_5/sep_norm_0_split_1
I0927 20:45:51.491690 30272 net.cpp:408] conv5_5/sep_norm_mbox_conf -> conv5_5/sep_norm_mbox_conf
I0927 20:45:51.493154 30272 net.cpp:150] Setting up conv5_5/sep_norm_mbox_conf
I0927 20:45:51.493161 30272 net.cpp:157] Top shape: 1 10 19 32 (6080)
I0927 20:45:51.493165 30272 net.cpp:165] Memory required for data: 274310688
I0927 20:45:51.493168 30272 layer_factory.hpp:77] Creating layer conv5_5/sep_norm_mbox_conf_perm
I0927 20:45:51.493172 30272 net.cpp:100] Creating Layer conv5_5/sep_norm_mbox_conf_perm
I0927 20:45:51.493176 30272 net.cpp:434] conv5_5/sep_norm_mbox_conf_perm <- conv5_5/sep_norm_mbox_conf
I0927 20:45:51.493180 30272 net.cpp:408] conv5_5/sep_norm_mbox_conf_perm -> conv5_5/sep_norm_mbox_conf_perm
I0927 20:45:51.493271 30272 net.cpp:150] Setting up conv5_5/sep_norm_mbox_conf_perm
I0927 20:45:51.493274 30272 net.cpp:157] Top shape: 1 19 32 10 (6080)
I0927 20:45:51.493276 30272 net.cpp:165] Memory required for data: 274335008
I0927 20:45:51.493278 30272 layer_factory.hpp:77] Creating layer conv5_5/sep_norm_mbox_conf_flat
I0927 20:45:51.493281 30272 net.cpp:100] Creating Layer conv5_5/sep_norm_mbox_conf_flat
I0927 20:45:51.493284 30272 net.cpp:434] conv5_5/sep_norm_mbox_conf_flat <- conv5_5/sep_norm_mbox_conf_perm
I0927 20:45:51.493288 30272 net.cpp:408] conv5_5/sep_norm_mbox_conf_flat -> conv5_5/sep_norm_mbox_conf_flat
I0927 20:45:51.493306 30272 net.cpp:150] Setting up conv5_5/sep_norm_mbox_conf_flat
I0927 20:45:51.493317 30272 net.cpp:157] Top shape: 1 6080 (6080)
I0927 20:45:51.493320 30272 net.cpp:165] Memory required for data: 274359328
I0927 20:45:51.493322 30272 layer_factory.hpp:77] Creating layer conv5_5/sep_norm_mbox_priorbox
I0927 20:45:51.493326 30272 net.cpp:100] Creating Layer conv5_5/sep_norm_mbox_priorbox
I0927 20:45:51.493330 30272 net.cpp:434] conv5_5/sep_norm_mbox_priorbox <- conv5_5/sep_norm_conv5_5/sep_norm_0_split_2
I0927 20:45:51.493332 30272 net.cpp:434] conv5_5/sep_norm_mbox_priorbox <- data_data_0_split_1
I0927 20:45:51.493335 30272 net.cpp:408] conv5_5/sep_norm_mbox_priorbox -> conv5_5/sep_norm_mbox_priorbox
I0927 20:45:51.493355 30272 net.cpp:150] Setting up conv5_5/sep_norm_mbox_priorbox
I0927 20:45:51.493360 30272 net.cpp:157] Top shape: 1 2 4864 (9728)
I0927 20:45:51.493361 30272 net.cpp:165] Memory required for data: 274398240
I0927 20:45:51.493363 30272 layer_factory.hpp:77] Creating layer conv6/sep_mbox_loc
I0927 20:45:51.493368 30272 net.cpp:100] Creating Layer conv6/sep_mbox_loc
I0927 20:45:51.493371 30272 net.cpp:434] conv6/sep_mbox_loc <- conv6/sep_relu6/sep_0_split_1
I0927 20:45:51.493376 30272 net.cpp:408] conv6/sep_mbox_loc -> conv6/sep_mbox_loc
I0927 20:45:51.494918 30272 net.cpp:150] Setting up conv6/sep_mbox_loc
I0927 20:45:51.494926 30272 net.cpp:157] Top shape: 1 8 10 16 (1280)
I0927 20:45:51.494928 30272 net.cpp:165] Memory required for data: 274403360
I0927 20:45:51.494932 30272 layer_factory.hpp:77] Creating layer conv6/sep_mbox_loc_perm
I0927 20:45:51.494938 30272 net.cpp:100] Creating Layer conv6/sep_mbox_loc_perm
I0927 20:45:51.494940 30272 net.cpp:434] conv6/sep_mbox_loc_perm <- conv6/sep_mbox_loc
I0927 20:45:51.494943 30272 net.cpp:408] conv6/sep_mbox_loc_perm -> conv6/sep_mbox_loc_perm
I0927 20:45:51.495038 30272 net.cpp:150] Setting up conv6/sep_mbox_loc_perm
I0927 20:45:51.495041 30272 net.cpp:157] Top shape: 1 10 16 8 (1280)
I0927 20:45:51.495043 30272 net.cpp:165] Memory required for data: 274408480
I0927 20:45:51.495045 30272 layer_factory.hpp:77] Creating layer conv6/sep_mbox_loc_flat
I0927 20:45:51.495049 30272 net.cpp:100] Creating Layer conv6/sep_mbox_loc_flat
I0927 20:45:51.495051 30272 net.cpp:434] conv6/sep_mbox_loc_flat <- conv6/sep_mbox_loc_perm
I0927 20:45:51.495054 30272 net.cpp:408] conv6/sep_mbox_loc_flat -> conv6/sep_mbox_loc_flat
I0927 20:45:51.495072 30272 net.cpp:150] Setting up conv6/sep_mbox_loc_flat
I0927 20:45:51.495076 30272 net.cpp:157] Top shape: 1 1280 (1280)
I0927 20:45:51.495079 30272 net.cpp:165] Memory required for data: 274413600
I0927 20:45:51.495080 30272 layer_factory.hpp:77] Creating layer conv6/sep_mbox_conf
I0927 20:45:51.495085 30272 net.cpp:100] Creating Layer conv6/sep_mbox_conf
I0927 20:45:51.495088 30272 net.cpp:434] conv6/sep_mbox_conf <- conv6/sep_relu6/sep_0_split_2
I0927 20:45:51.495092 30272 net.cpp:408] conv6/sep_mbox_conf -> conv6/sep_mbox_conf
I0927 20:45:51.496811 30272 net.cpp:150] Setting up conv6/sep_mbox_conf
I0927 20:45:51.496819 30272 net.cpp:157] Top shape: 1 10 10 16 (1600)
I0927 20:45:51.496820 30272 net.cpp:165] Memory required for data: 274420000
I0927 20:45:51.496825 30272 layer_factory.hpp:77] Creating layer conv6/sep_mbox_conf_perm
I0927 20:45:51.496830 30272 net.cpp:100] Creating Layer conv6/sep_mbox_conf_perm
I0927 20:45:51.496832 30272 net.cpp:434] conv6/sep_mbox_conf_perm <- conv6/sep_mbox_conf
I0927 20:45:51.496837 30272 net.cpp:408] conv6/sep_mbox_conf_perm -> conv6/sep_mbox_conf_perm
I0927 20:45:51.496933 30272 net.cpp:150] Setting up conv6/sep_mbox_conf_perm
I0927 20:45:51.496937 30272 net.cpp:157] Top shape: 1 10 16 10 (1600)
I0927 20:45:51.496939 30272 net.cpp:165] Memory required for data: 274426400
I0927 20:45:51.496942 30272 layer_factory.hpp:77] Creating layer conv6/sep_mbox_conf_flat
I0927 20:45:51.496945 30272 net.cpp:100] Creating Layer conv6/sep_mbox_conf_flat
I0927 20:45:51.496948 30272 net.cpp:434] conv6/sep_mbox_conf_flat <- conv6/sep_mbox_conf_perm
I0927 20:45:51.496950 30272 net.cpp:408] conv6/sep_mbox_conf_flat -> conv6/sep_mbox_conf_flat
I0927 20:45:51.496979 30272 net.cpp:150] Setting up conv6/sep_mbox_conf_flat
I0927 20:45:51.496984 30272 net.cpp:157] Top shape: 1 1600 (1600)
I0927 20:45:51.496984 30272 net.cpp:165] Memory required for data: 274432800
I0927 20:45:51.496986 30272 layer_factory.hpp:77] Creating layer conv6/sep_mbox_priorbox
I0927 20:45:51.496990 30272 net.cpp:100] Creating Layer conv6/sep_mbox_priorbox
I0927 20:45:51.496994 30272 net.cpp:434] conv6/sep_mbox_priorbox <- conv6/sep_relu6/sep_0_split_3
I0927 20:45:51.496996 30272 net.cpp:434] conv6/sep_mbox_priorbox <- data_data_0_split_2
I0927 20:45:51.496999 30272 net.cpp:408] conv6/sep_mbox_priorbox -> conv6/sep_mbox_priorbox
I0927 20:45:51.497018 30272 net.cpp:150] Setting up conv6/sep_mbox_priorbox
I0927 20:45:51.497022 30272 net.cpp:157] Top shape: 1 2 1280 (2560)
I0927 20:45:51.497023 30272 net.cpp:165] Memory required for data: 274443040
I0927 20:45:51.497025 30272 layer_factory.hpp:77] Creating layer ssd1_2_mbox_loc
I0927 20:45:51.497031 30272 net.cpp:100] Creating Layer ssd1_2_mbox_loc
I0927 20:45:51.497035 30272 net.cpp:434] ssd1_2_mbox_loc <- ssd1_2_ssd1_2_relu_0_split_1
I0927 20:45:51.497038 30272 net.cpp:408] ssd1_2_mbox_loc -> ssd1_2_mbox_loc
I0927 20:45:51.498924 30272 net.cpp:150] Setting up ssd1_2_mbox_loc
I0927 20:45:51.498931 30272 net.cpp:157] Top shape: 1 8 5 8 (320)
I0927 20:45:51.498934 30272 net.cpp:165] Memory required for data: 274444320
I0927 20:45:51.498939 30272 layer_factory.hpp:77] Creating layer ssd1_2_mbox_loc_perm
I0927 20:45:51.498942 30272 net.cpp:100] Creating Layer ssd1_2_mbox_loc_perm
I0927 20:45:51.498945 30272 net.cpp:434] ssd1_2_mbox_loc_perm <- ssd1_2_mbox_loc
I0927 20:45:51.498950 30272 net.cpp:408] ssd1_2_mbox_loc_perm -> ssd1_2_mbox_loc_perm
I0927 20:45:51.499048 30272 net.cpp:150] Setting up ssd1_2_mbox_loc_perm
I0927 20:45:51.499053 30272 net.cpp:157] Top shape: 1 5 8 8 (320)
I0927 20:45:51.499054 30272 net.cpp:165] Memory required for data: 274445600
I0927 20:45:51.499056 30272 layer_factory.hpp:77] Creating layer ssd1_2_mbox_loc_flat
I0927 20:45:51.499059 30272 net.cpp:100] Creating Layer ssd1_2_mbox_loc_flat
I0927 20:45:51.499061 30272 net.cpp:434] ssd1_2_mbox_loc_flat <- ssd1_2_mbox_loc_perm
I0927 20:45:51.499065 30272 net.cpp:408] ssd1_2_mbox_loc_flat -> ssd1_2_mbox_loc_flat
I0927 20:45:51.499083 30272 net.cpp:150] Setting up ssd1_2_mbox_loc_flat
I0927 20:45:51.499088 30272 net.cpp:157] Top shape: 1 320 (320)
I0927 20:45:51.499089 30272 net.cpp:165] Memory required for data: 274446880
I0927 20:45:51.499090 30272 layer_factory.hpp:77] Creating layer ssd1_2_mbox_conf
I0927 20:45:51.499096 30272 net.cpp:100] Creating Layer ssd1_2_mbox_conf
I0927 20:45:51.499099 30272 net.cpp:434] ssd1_2_mbox_conf <- ssd1_2_ssd1_2_relu_0_split_2
I0927 20:45:51.499104 30272 net.cpp:408] ssd1_2_mbox_conf -> ssd1_2_mbox_conf
I0927 20:45:51.500578 30272 net.cpp:150] Setting up ssd1_2_mbox_conf
I0927 20:45:51.500586 30272 net.cpp:157] Top shape: 1 10 5 8 (400)
I0927 20:45:51.500588 30272 net.cpp:165] Memory required for data: 274448480
I0927 20:45:51.500592 30272 layer_factory.hpp:77] Creating layer ssd1_2_mbox_conf_perm
I0927 20:45:51.500597 30272 net.cpp:100] Creating Layer ssd1_2_mbox_conf_perm
I0927 20:45:51.500600 30272 net.cpp:434] ssd1_2_mbox_conf_perm <- ssd1_2_mbox_conf
I0927 20:45:51.500603 30272 net.cpp:408] ssd1_2_mbox_conf_perm -> ssd1_2_mbox_conf_perm
I0927 20:45:51.500697 30272 net.cpp:150] Setting up ssd1_2_mbox_conf_perm
I0927 20:45:51.500701 30272 net.cpp:157] Top shape: 1 5 8 10 (400)
I0927 20:45:51.500705 30272 net.cpp:165] Memory required for data: 274450080
I0927 20:45:51.500705 30272 layer_factory.hpp:77] Creating layer ssd1_2_mbox_conf_flat
I0927 20:45:51.500708 30272 net.cpp:100] Creating Layer ssd1_2_mbox_conf_flat
I0927 20:45:51.500710 30272 net.cpp:434] ssd1_2_mbox_conf_flat <- ssd1_2_mbox_conf_perm
I0927 20:45:51.500715 30272 net.cpp:408] ssd1_2_mbox_conf_flat -> ssd1_2_mbox_conf_flat
I0927 20:45:51.500735 30272 net.cpp:150] Setting up ssd1_2_mbox_conf_flat
I0927 20:45:51.500737 30272 net.cpp:157] Top shape: 1 400 (400)
I0927 20:45:51.500747 30272 net.cpp:165] Memory required for data: 274451680
I0927 20:45:51.500751 30272 layer_factory.hpp:77] Creating layer ssd1_2_mbox_priorbox
I0927 20:45:51.500753 30272 net.cpp:100] Creating Layer ssd1_2_mbox_priorbox
I0927 20:45:51.500756 30272 net.cpp:434] ssd1_2_mbox_priorbox <- ssd1_2_ssd1_2_relu_0_split_3
I0927 20:45:51.500758 30272 net.cpp:434] ssd1_2_mbox_priorbox <- data_data_0_split_3
I0927 20:45:51.500763 30272 net.cpp:408] ssd1_2_mbox_priorbox -> ssd1_2_mbox_priorbox
I0927 20:45:51.500785 30272 net.cpp:150] Setting up ssd1_2_mbox_priorbox
I0927 20:45:51.500789 30272 net.cpp:157] Top shape: 1 2 320 (640)
I0927 20:45:51.500790 30272 net.cpp:165] Memory required for data: 274454240
I0927 20:45:51.500792 30272 layer_factory.hpp:77] Creating layer ssd2_2_mbox_loc
I0927 20:45:51.500797 30272 net.cpp:100] Creating Layer ssd2_2_mbox_loc
I0927 20:45:51.500800 30272 net.cpp:434] ssd2_2_mbox_loc <- ssd2_2_ssd2_2_relu_0_split_1
I0927 20:45:51.500803 30272 net.cpp:408] ssd2_2_mbox_loc -> ssd2_2_mbox_loc
I0927 20:45:51.502097 30272 net.cpp:150] Setting up ssd2_2_mbox_loc
I0927 20:45:51.502104 30272 net.cpp:157] Top shape: 1 8 3 4 (96)
I0927 20:45:51.502106 30272 net.cpp:165] Memory required for data: 274454624
I0927 20:45:51.502110 30272 layer_factory.hpp:77] Creating layer ssd2_2_mbox_loc_perm
I0927 20:45:51.502115 30272 net.cpp:100] Creating Layer ssd2_2_mbox_loc_perm
I0927 20:45:51.502117 30272 net.cpp:434] ssd2_2_mbox_loc_perm <- ssd2_2_mbox_loc
I0927 20:45:51.502120 30272 net.cpp:408] ssd2_2_mbox_loc_perm -> ssd2_2_mbox_loc_perm
I0927 20:45:51.502214 30272 net.cpp:150] Setting up ssd2_2_mbox_loc_perm
I0927 20:45:51.502218 30272 net.cpp:157] Top shape: 1 3 4 8 (96)
I0927 20:45:51.502219 30272 net.cpp:165] Memory required for data: 274455008
I0927 20:45:51.502221 30272 layer_factory.hpp:77] Creating layer ssd2_2_mbox_loc_flat
I0927 20:45:51.502224 30272 net.cpp:100] Creating Layer ssd2_2_mbox_loc_flat
I0927 20:45:51.502226 30272 net.cpp:434] ssd2_2_mbox_loc_flat <- ssd2_2_mbox_loc_perm
I0927 20:45:51.502230 30272 net.cpp:408] ssd2_2_mbox_loc_flat -> ssd2_2_mbox_loc_flat
I0927 20:45:51.502249 30272 net.cpp:150] Setting up ssd2_2_mbox_loc_flat
I0927 20:45:51.502252 30272 net.cpp:157] Top shape: 1 96 (96)
I0927 20:45:51.502255 30272 net.cpp:165] Memory required for data: 274455392
I0927 20:45:51.502256 30272 layer_factory.hpp:77] Creating layer ssd2_2_mbox_conf
I0927 20:45:51.502261 30272 net.cpp:100] Creating Layer ssd2_2_mbox_conf
I0927 20:45:51.502264 30272 net.cpp:434] ssd2_2_mbox_conf <- ssd2_2_ssd2_2_relu_0_split_2
I0927 20:45:51.502269 30272 net.cpp:408] ssd2_2_mbox_conf -> ssd2_2_mbox_conf
I0927 20:45:51.503558 30272 net.cpp:150] Setting up ssd2_2_mbox_conf
I0927 20:45:51.503566 30272 net.cpp:157] Top shape: 1 10 3 4 (120)
I0927 20:45:51.503567 30272 net.cpp:165] Memory required for data: 274455872
I0927 20:45:51.503572 30272 layer_factory.hpp:77] Creating layer ssd2_2_mbox_conf_perm
I0927 20:45:51.503577 30272 net.cpp:100] Creating Layer ssd2_2_mbox_conf_perm
I0927 20:45:51.503581 30272 net.cpp:434] ssd2_2_mbox_conf_perm <- ssd2_2_mbox_conf
I0927 20:45:51.503583 30272 net.cpp:408] ssd2_2_mbox_conf_perm -> ssd2_2_mbox_conf_perm
I0927 20:45:51.503679 30272 net.cpp:150] Setting up ssd2_2_mbox_conf_perm
I0927 20:45:51.503682 30272 net.cpp:157] Top shape: 1 3 4 10 (120)
I0927 20:45:51.503684 30272 net.cpp:165] Memory required for data: 274456352
I0927 20:45:51.503685 30272 layer_factory.hpp:77] Creating layer ssd2_2_mbox_conf_flat
I0927 20:45:51.503690 30272 net.cpp:100] Creating Layer ssd2_2_mbox_conf_flat
I0927 20:45:51.503692 30272 net.cpp:434] ssd2_2_mbox_conf_flat <- ssd2_2_mbox_conf_perm
I0927 20:45:51.503695 30272 net.cpp:408] ssd2_2_mbox_conf_flat -> ssd2_2_mbox_conf_flat
I0927 20:45:51.503715 30272 net.cpp:150] Setting up ssd2_2_mbox_conf_flat
I0927 20:45:51.503718 30272 net.cpp:157] Top shape: 1 120 (120)
I0927 20:45:51.503720 30272 net.cpp:165] Memory required for data: 274456832
I0927 20:45:51.503721 30272 layer_factory.hpp:77] Creating layer ssd2_2_mbox_priorbox
I0927 20:45:51.503726 30272 net.cpp:100] Creating Layer ssd2_2_mbox_priorbox
I0927 20:45:51.503736 30272 net.cpp:434] ssd2_2_mbox_priorbox <- ssd2_2_ssd2_2_relu_0_split_3
I0927 20:45:51.503739 30272 net.cpp:434] ssd2_2_mbox_priorbox <- data_data_0_split_4
I0927 20:45:51.503743 30272 net.cpp:408] ssd2_2_mbox_priorbox -> ssd2_2_mbox_priorbox
I0927 20:45:51.503763 30272 net.cpp:150] Setting up ssd2_2_mbox_priorbox
I0927 20:45:51.503767 30272 net.cpp:157] Top shape: 1 2 96 (192)
I0927 20:45:51.503769 30272 net.cpp:165] Memory required for data: 274457600
I0927 20:45:51.503772 30272 layer_factory.hpp:77] Creating layer ssd3_2_mbox_loc
I0927 20:45:51.503777 30272 net.cpp:100] Creating Layer ssd3_2_mbox_loc
I0927 20:45:51.503779 30272 net.cpp:434] ssd3_2_mbox_loc <- ssd3_2_ssd3_2_relu_0_split_1
I0927 20:45:51.503783 30272 net.cpp:408] ssd3_2_mbox_loc -> ssd3_2_mbox_loc
I0927 20:45:51.505173 30272 net.cpp:150] Setting up ssd3_2_mbox_loc
I0927 20:45:51.505180 30272 net.cpp:157] Top shape: 1 8 2 2 (32)
I0927 20:45:51.505182 30272 net.cpp:165] Memory required for data: 274457728
I0927 20:45:51.505187 30272 layer_factory.hpp:77] Creating layer ssd3_2_mbox_loc_perm
I0927 20:45:51.505192 30272 net.cpp:100] Creating Layer ssd3_2_mbox_loc_perm
I0927 20:45:51.505193 30272 net.cpp:434] ssd3_2_mbox_loc_perm <- ssd3_2_mbox_loc
I0927 20:45:51.505198 30272 net.cpp:408] ssd3_2_mbox_loc_perm -> ssd3_2_mbox_loc_perm
I0927 20:45:51.505291 30272 net.cpp:150] Setting up ssd3_2_mbox_loc_perm
I0927 20:45:51.505295 30272 net.cpp:157] Top shape: 1 2 2 8 (32)
I0927 20:45:51.505296 30272 net.cpp:165] Memory required for data: 274457856
I0927 20:45:51.505298 30272 layer_factory.hpp:77] Creating layer ssd3_2_mbox_loc_flat
I0927 20:45:51.505301 30272 net.cpp:100] Creating Layer ssd3_2_mbox_loc_flat
I0927 20:45:51.505306 30272 net.cpp:434] ssd3_2_mbox_loc_flat <- ssd3_2_mbox_loc_perm
I0927 20:45:51.505307 30272 net.cpp:408] ssd3_2_mbox_loc_flat -> ssd3_2_mbox_loc_flat
I0927 20:45:51.505327 30272 net.cpp:150] Setting up ssd3_2_mbox_loc_flat
I0927 20:45:51.505331 30272 net.cpp:157] Top shape: 1 32 (32)
I0927 20:45:51.505332 30272 net.cpp:165] Memory required for data: 274457984
I0927 20:45:51.505334 30272 layer_factory.hpp:77] Creating layer ssd3_2_mbox_conf
I0927 20:45:51.505339 30272 net.cpp:100] Creating Layer ssd3_2_mbox_conf
I0927 20:45:51.505342 30272 net.cpp:434] ssd3_2_mbox_conf <- ssd3_2_ssd3_2_relu_0_split_2
I0927 20:45:51.505347 30272 net.cpp:408] ssd3_2_mbox_conf -> ssd3_2_mbox_conf
I0927 20:45:51.506640 30272 net.cpp:150] Setting up ssd3_2_mbox_conf
I0927 20:45:51.506649 30272 net.cpp:157] Top shape: 1 10 2 2 (40)
I0927 20:45:51.506650 30272 net.cpp:165] Memory required for data: 274458144
I0927 20:45:51.506654 30272 layer_factory.hpp:77] Creating layer ssd3_2_mbox_conf_perm
I0927 20:45:51.506659 30272 net.cpp:100] Creating Layer ssd3_2_mbox_conf_perm
I0927 20:45:51.506662 30272 net.cpp:434] ssd3_2_mbox_conf_perm <- ssd3_2_mbox_conf
I0927 20:45:51.506665 30272 net.cpp:408] ssd3_2_mbox_conf_perm -> ssd3_2_mbox_conf_perm
I0927 20:45:51.506758 30272 net.cpp:150] Setting up ssd3_2_mbox_conf_perm
I0927 20:45:51.506762 30272 net.cpp:157] Top shape: 1 2 2 10 (40)
I0927 20:45:51.506765 30272 net.cpp:165] Memory required for data: 274458304
I0927 20:45:51.506767 30272 layer_factory.hpp:77] Creating layer ssd3_2_mbox_conf_flat
I0927 20:45:51.506770 30272 net.cpp:100] Creating Layer ssd3_2_mbox_conf_flat
I0927 20:45:51.506772 30272 net.cpp:434] ssd3_2_mbox_conf_flat <- ssd3_2_mbox_conf_perm
I0927 20:45:51.506775 30272 net.cpp:408] ssd3_2_mbox_conf_flat -> ssd3_2_mbox_conf_flat
I0927 20:45:51.506794 30272 net.cpp:150] Setting up ssd3_2_mbox_conf_flat
I0927 20:45:51.506798 30272 net.cpp:157] Top shape: 1 40 (40)
I0927 20:45:51.506799 30272 net.cpp:165] Memory required for data: 274458464
I0927 20:45:51.506801 30272 layer_factory.hpp:77] Creating layer ssd3_2_mbox_priorbox
I0927 20:45:51.506805 30272 net.cpp:100] Creating Layer ssd3_2_mbox_priorbox
I0927 20:45:51.506808 30272 net.cpp:434] ssd3_2_mbox_priorbox <- ssd3_2_ssd3_2_relu_0_split_3
I0927 20:45:51.506811 30272 net.cpp:434] ssd3_2_mbox_priorbox <- data_data_0_split_5
I0927 20:45:51.506821 30272 net.cpp:408] ssd3_2_mbox_priorbox -> ssd3_2_mbox_priorbox
I0927 20:45:51.506844 30272 net.cpp:150] Setting up ssd3_2_mbox_priorbox
I0927 20:45:51.506847 30272 net.cpp:157] Top shape: 1 2 32 (64)
I0927 20:45:51.506848 30272 net.cpp:165] Memory required for data: 274458720
I0927 20:45:51.506851 30272 layer_factory.hpp:77] Creating layer ssd4_2_mbox_loc
I0927 20:45:51.506856 30272 net.cpp:100] Creating Layer ssd4_2_mbox_loc
I0927 20:45:51.506858 30272 net.cpp:434] ssd4_2_mbox_loc <- ssd4_2_ssd4_2_relu_0_split_0
I0927 20:45:51.506863 30272 net.cpp:408] ssd4_2_mbox_loc -> ssd4_2_mbox_loc
I0927 20:45:51.508167 30272 net.cpp:150] Setting up ssd4_2_mbox_loc
I0927 20:45:51.508173 30272 net.cpp:157] Top shape: 1 8 1 1 (8)
I0927 20:45:51.508175 30272 net.cpp:165] Memory required for data: 274458752
I0927 20:45:51.508179 30272 layer_factory.hpp:77] Creating layer ssd4_2_mbox_loc_perm
I0927 20:45:51.508183 30272 net.cpp:100] Creating Layer ssd4_2_mbox_loc_perm
I0927 20:45:51.508186 30272 net.cpp:434] ssd4_2_mbox_loc_perm <- ssd4_2_mbox_loc
I0927 20:45:51.508191 30272 net.cpp:408] ssd4_2_mbox_loc_perm -> ssd4_2_mbox_loc_perm
I0927 20:45:51.508285 30272 net.cpp:150] Setting up ssd4_2_mbox_loc_perm
I0927 20:45:51.508288 30272 net.cpp:157] Top shape: 1 1 1 8 (8)
I0927 20:45:51.508289 30272 net.cpp:165] Memory required for data: 274458784
I0927 20:45:51.508291 30272 layer_factory.hpp:77] Creating layer ssd4_2_mbox_loc_flat
I0927 20:45:51.508294 30272 net.cpp:100] Creating Layer ssd4_2_mbox_loc_flat
I0927 20:45:51.508297 30272 net.cpp:434] ssd4_2_mbox_loc_flat <- ssd4_2_mbox_loc_perm
I0927 20:45:51.508301 30272 net.cpp:408] ssd4_2_mbox_loc_flat -> ssd4_2_mbox_loc_flat
I0927 20:45:51.508321 30272 net.cpp:150] Setting up ssd4_2_mbox_loc_flat
I0927 20:45:51.508323 30272 net.cpp:157] Top shape: 1 8 (8)
I0927 20:45:51.508327 30272 net.cpp:165] Memory required for data: 274458816
I0927 20:45:51.508328 30272 layer_factory.hpp:77] Creating layer ssd4_2_mbox_conf
I0927 20:45:51.508333 30272 net.cpp:100] Creating Layer ssd4_2_mbox_conf
I0927 20:45:51.508335 30272 net.cpp:434] ssd4_2_mbox_conf <- ssd4_2_ssd4_2_relu_0_split_1
I0927 20:45:51.508340 30272 net.cpp:408] ssd4_2_mbox_conf -> ssd4_2_mbox_conf
I0927 20:45:51.509644 30272 net.cpp:150] Setting up ssd4_2_mbox_conf
I0927 20:45:51.509650 30272 net.cpp:157] Top shape: 1 10 1 1 (10)
I0927 20:45:51.509654 30272 net.cpp:165] Memory required for data: 274458856
I0927 20:45:51.509657 30272 layer_factory.hpp:77] Creating layer ssd4_2_mbox_conf_perm
I0927 20:45:51.509661 30272 net.cpp:100] Creating Layer ssd4_2_mbox_conf_perm
I0927 20:45:51.509665 30272 net.cpp:434] ssd4_2_mbox_conf_perm <- ssd4_2_mbox_conf
I0927 20:45:51.509668 30272 net.cpp:408] ssd4_2_mbox_conf_perm -> ssd4_2_mbox_conf_perm
I0927 20:45:51.509763 30272 net.cpp:150] Setting up ssd4_2_mbox_conf_perm
I0927 20:45:51.509768 30272 net.cpp:157] Top shape: 1 1 1 10 (10)
I0927 20:45:51.509768 30272 net.cpp:165] Memory required for data: 274458896
I0927 20:45:51.509770 30272 layer_factory.hpp:77] Creating layer ssd4_2_mbox_conf_flat
I0927 20:45:51.509774 30272 net.cpp:100] Creating Layer ssd4_2_mbox_conf_flat
I0927 20:45:51.509776 30272 net.cpp:434] ssd4_2_mbox_conf_flat <- ssd4_2_mbox_conf_perm
I0927 20:45:51.509780 30272 net.cpp:408] ssd4_2_mbox_conf_flat -> ssd4_2_mbox_conf_flat
I0927 20:45:51.509799 30272 net.cpp:150] Setting up ssd4_2_mbox_conf_flat
I0927 20:45:51.509804 30272 net.cpp:157] Top shape: 1 10 (10)
I0927 20:45:51.509805 30272 net.cpp:165] Memory required for data: 274458936
I0927 20:45:51.509806 30272 layer_factory.hpp:77] Creating layer ssd4_2_mbox_priorbox
I0927 20:45:51.509810 30272 net.cpp:100] Creating Layer ssd4_2_mbox_priorbox
I0927 20:45:51.509812 30272 net.cpp:434] ssd4_2_mbox_priorbox <- ssd4_2_ssd4_2_relu_0_split_2
I0927 20:45:51.509815 30272 net.cpp:434] ssd4_2_mbox_priorbox <- data_data_0_split_6
I0927 20:45:51.509819 30272 net.cpp:408] ssd4_2_mbox_priorbox -> ssd4_2_mbox_priorbox
I0927 20:45:51.509840 30272 net.cpp:150] Setting up ssd4_2_mbox_priorbox
I0927 20:45:51.509851 30272 net.cpp:157] Top shape: 1 2 8 (16)
I0927 20:45:51.509852 30272 net.cpp:165] Memory required for data: 274459000
I0927 20:45:51.509855 30272 layer_factory.hpp:77] Creating layer mbox_loc
I0927 20:45:51.509858 30272 net.cpp:100] Creating Layer mbox_loc
I0927 20:45:51.509861 30272 net.cpp:434] mbox_loc <- conv5_5/sep_norm_mbox_loc_flat
I0927 20:45:51.509865 30272 net.cpp:434] mbox_loc <- conv6/sep_mbox_loc_flat
I0927 20:45:51.509867 30272 net.cpp:434] mbox_loc <- ssd1_2_mbox_loc_flat
I0927 20:45:51.509871 30272 net.cpp:434] mbox_loc <- ssd2_2_mbox_loc_flat
I0927 20:45:51.509873 30272 net.cpp:434] mbox_loc <- ssd3_2_mbox_loc_flat
I0927 20:45:51.509876 30272 net.cpp:434] mbox_loc <- ssd4_2_mbox_loc_flat
I0927 20:45:51.509879 30272 net.cpp:408] mbox_loc -> mbox_loc
I0927 20:45:51.509901 30272 net.cpp:150] Setting up mbox_loc
I0927 20:45:51.509904 30272 net.cpp:157] Top shape: 1 6600 (6600)
I0927 20:45:51.509905 30272 net.cpp:165] Memory required for data: 274485400
I0927 20:45:51.509907 30272 layer_factory.hpp:77] Creating layer mbox_conf
I0927 20:45:51.509910 30272 net.cpp:100] Creating Layer mbox_conf
I0927 20:45:51.509912 30272 net.cpp:434] mbox_conf <- conv5_5/sep_norm_mbox_conf_flat
I0927 20:45:51.509915 30272 net.cpp:434] mbox_conf <- conv6/sep_mbox_conf_flat
I0927 20:45:51.509918 30272 net.cpp:434] mbox_conf <- ssd1_2_mbox_conf_flat
I0927 20:45:51.509920 30272 net.cpp:434] mbox_conf <- ssd2_2_mbox_conf_flat
I0927 20:45:51.509923 30272 net.cpp:434] mbox_conf <- ssd3_2_mbox_conf_flat
I0927 20:45:51.509925 30272 net.cpp:434] mbox_conf <- ssd4_2_mbox_conf_flat
I0927 20:45:51.509928 30272 net.cpp:408] mbox_conf -> mbox_conf
I0927 20:45:51.509946 30272 net.cpp:150] Setting up mbox_conf
I0927 20:45:51.509950 30272 net.cpp:157] Top shape: 1 8250 (8250)
I0927 20:45:51.509951 30272 net.cpp:165] Memory required for data: 274518400
I0927 20:45:51.509953 30272 layer_factory.hpp:77] Creating layer mbox_priorbox
I0927 20:45:51.509956 30272 net.cpp:100] Creating Layer mbox_priorbox
I0927 20:45:51.509959 30272 net.cpp:434] mbox_priorbox <- conv5_5/sep_norm_mbox_priorbox
I0927 20:45:51.509961 30272 net.cpp:434] mbox_priorbox <- conv6/sep_mbox_priorbox
I0927 20:45:51.509964 30272 net.cpp:434] mbox_priorbox <- ssd1_2_mbox_priorbox
I0927 20:45:51.509966 30272 net.cpp:434] mbox_priorbox <- ssd2_2_mbox_priorbox
I0927 20:45:51.509968 30272 net.cpp:434] mbox_priorbox <- ssd3_2_mbox_priorbox
I0927 20:45:51.509970 30272 net.cpp:434] mbox_priorbox <- ssd4_2_mbox_priorbox
I0927 20:45:51.509974 30272 net.cpp:408] mbox_priorbox -> mbox_priorbox
I0927 20:45:51.509991 30272 net.cpp:150] Setting up mbox_priorbox
I0927 20:45:51.509995 30272 net.cpp:157] Top shape: 1 2 6600 (13200)
I0927 20:45:51.509996 30272 net.cpp:165] Memory required for data: 274571200
I0927 20:45:51.509999 30272 layer_factory.hpp:77] Creating layer mbox_conf_reshape
I0927 20:45:51.510001 30272 net.cpp:100] Creating Layer mbox_conf_reshape
I0927 20:45:51.510004 30272 net.cpp:434] mbox_conf_reshape <- mbox_conf
I0927 20:45:51.510008 30272 net.cpp:408] mbox_conf_reshape -> mbox_conf_reshape
I0927 20:45:51.510033 30272 net.cpp:150] Setting up mbox_conf_reshape
I0927 20:45:51.510037 30272 net.cpp:157] Top shape: 1 1650 5 (8250)
I0927 20:45:51.510040 30272 net.cpp:165] Memory required for data: 274604200
I0927 20:45:51.510041 30272 layer_factory.hpp:77] Creating layer mbox_conf_softmax
I0927 20:45:51.510044 30272 net.cpp:100] Creating Layer mbox_conf_softmax
I0927 20:45:51.510046 30272 net.cpp:434] mbox_conf_softmax <- mbox_conf_reshape
I0927 20:45:51.510051 30272 net.cpp:408] mbox_conf_softmax -> mbox_conf_softmax
I0927 20:45:51.510516 30272 net.cpp:150] Setting up mbox_conf_softmax
I0927 20:45:51.510524 30272 net.cpp:157] Top shape: 1 1650 5 (8250)
I0927 20:45:51.510525 30272 net.cpp:165] Memory required for data: 274637200
I0927 20:45:51.510527 30272 layer_factory.hpp:77] Creating layer mbox_conf_flatten
I0927 20:45:51.510531 30272 net.cpp:100] Creating Layer mbox_conf_flatten
I0927 20:45:51.510535 30272 net.cpp:434] mbox_conf_flatten <- mbox_conf_softmax
I0927 20:45:51.510545 30272 net.cpp:408] mbox_conf_flatten -> mbox_conf_flatten
I0927 20:45:51.510565 30272 net.cpp:150] Setting up mbox_conf_flatten
I0927 20:45:51.510570 30272 net.cpp:157] Top shape: 1 8250 (8250)
I0927 20:45:51.510571 30272 net.cpp:165] Memory required for data: 274670200
I0927 20:45:51.510572 30272 layer_factory.hpp:77] Creating layer detection_out
I0927 20:45:51.510586 30272 net.cpp:100] Creating Layer detection_out
I0927 20:45:51.510587 30272 net.cpp:434] detection_out <- mbox_loc
I0927 20:45:51.510589 30272 net.cpp:434] detection_out <- mbox_conf_flatten
I0927 20:45:51.510592 30272 net.cpp:434] detection_out <- mbox_priorbox
I0927 20:45:51.510596 30272 net.cpp:408] detection_out -> detection_out
W0927 20:45:51.510618 30272 detection_output_layer.cpp:49] Failed to create directory: /home/zhongyilin/Documents/data/GTSDBdevkit/results/GTSDB/SSD_510x300_100_40_6_True_1/Main
I0927 20:45:51.510943 30272 net.cpp:150] Setting up detection_out
I0927 20:45:51.510949 30272 net.cpp:157] Top shape: 1 1 1 7 (7)
I0927 20:45:51.510952 30272 net.cpp:165] Memory required for data: 274670228
I0927 20:45:51.510954 30272 layer_factory.hpp:77] Creating layer detection_eval
I0927 20:45:51.510958 30272 net.cpp:100] Creating Layer detection_eval
I0927 20:45:51.510962 30272 net.cpp:434] detection_eval <- detection_out
I0927 20:45:51.510964 30272 net.cpp:434] detection_eval <- label
I0927 20:45:51.510968 30272 net.cpp:408] detection_eval -> detection_eval
I0927 20:45:51.511051 30272 net.cpp:150] Setting up detection_eval
I0927 20:45:51.511055 30272 net.cpp:157] Top shape: 1 1 5 5 (25)
I0927 20:45:51.511059 30272 net.cpp:165] Memory required for data: 274670328
I0927 20:45:51.511060 30272 net.cpp:228] detection_eval does not need backward computation.
I0927 20:45:51.511062 30272 net.cpp:228] detection_out does not need backward computation.
I0927 20:45:51.511065 30272 net.cpp:228] mbox_conf_flatten does not need backward computation.
I0927 20:45:51.511066 30272 net.cpp:228] mbox_conf_softmax does not need backward computation.
…
