…
      sampler {
        min_scale: 0.3
        max_scale: 1
        min_aspect_ratio: 0.5
        max_aspect_ratio: 2
      }
      sample_constraint {
        min_jaccard_overlap: 0.9
      }
      max_sample: 1
      max_trials: 50
    }
    batch_sampler {
      sampler {
        min_scale: 0.3
        max_scale: 1
        min_aspect_ratio: 0.5
        max_aspect_ratio: 2
      }
      sample_constraint {
        max_jaccard_overlap: 1
      }
      max_sample: 1
      max_trials: 50
    }
    label_map_file: "data/VOC0712/labelmap_voc.prototxt"
  }
}
layer {
  name: "conv1_1"
  type: "Convolution"
  bottom: "data"
  top: "conv1_1"
  param {
    lr_mult: 1
    decay_mult: 1
  }
  param {
    lr_mult: 2
    decay_mult: 0
  }
  convolution_param {
    num_output: 64
    pad: 1
    kernel_size: 3
    weight_filler {
      type: "xavier"
    }
    bias_filler {
      type: "constant"
      value: 0
    }
  }
}
layer {
  name: "relu1_1"
  type: "ReLU"
  bottom: "conv1_1"
  top: "conv1_1"
}
layer {
  name: "conv1_2"
  type: "Convolution"
  bottom: "conv1_1"
  top: "conv1_2"
  param {
    lr_mult: 1
    decay_mult: 1
  }
  param {
    lr_mult: 2
    decay_mult: 0
  }
  convolution_param {
    num_output: 64
    pad: 1
    kernel_size: 3
    weight_filler {
      type: "xavier"
    }
    bias_filler {
      type: "constant"
      value: 0
    }
  }
}
layer {
  name: "relu1_2"
  type: "ReLU"
  bottom: "conv1_2"
  top: "conv1_2"
}
layer {
  name: "pool1"
  type: "Pooling"
  bottom: "conv1_2"
  top: "pool1"
  pooling_param {
    pool: MAX
    kernel_size: 2
    stride: 2
  }
}
layer {
  name: "conv2_1"
  type: "Convolution"
  bottom: "pool1"
  top: "conv2_1"
  param {
    lr_mult: 1
    decay_mult: 1
  }
  param {
    lr_mult: 2
    decay_mult: 0
  }
  convolution_param {
    num_output: 128
    pad: 1
    kernel_size: 3
    weight_filler {
      type: "xavier"
    }
    bias_filler {
      type: "constant"
      value: 0
    }
  }
}
layer {
  name: "relu2_1"
  type: "ReLU"
  bottom: "conv2_1"
  top: "conv2_1"
}
layer {
  name: "conv2_2"
  type: "Convolution"
  bottom: "conv2_1"
  top: "conv2_2"
  param {
    lr_mult: 1
    decay_mult: 1
  }
  param {
    lr_mult: 2
    decay_mult: 0
  }
  convolution_param {
    num_output: 128
    pad: 1
    kernel_size: 3
    weight_filler {
      type: "xavier"
    }
    bias_filler {
      type: "constant"
      value: 0
    }
  }
}
layer {
  name: "relu2_2"
  type: "ReLU"
  bottom: "conv2_2"
  top: "conv2_2"
}
layer {
  name: "pool2"
  type: "Pooling"
  bottom: "conv2_2"
  top: "pool2"
  pooling_param {
    pool: MAX
    kernel_size: 2
    stride: 2
  }
}
layer {
  name: "conv3_1"
  type: "Convolution"
  bottom: "pool2"
  top: "conv3_1"
  param {
    lr_mult: 1
    decay_mult: 1
  }
  param {
    lr_mult: 2
    decay_mult: 0
  }
  convolution_param {
    num_output: 256
    pad: 1
    kernel_size: 3
    weight_filler {
      type: "xavier"
    }
    bias_filler {
      type: "constant"
      value: 0
    }
  }
}
layer {
  name: "relu3_1"
  type: "ReLU"
  bottom: "conv3_1"
  top: "conv3_1"
}
layer {
  name: "conv3_2"
  type: "Convolution"
  bottom: "conv3_1"
  top: "conv3_2"
  param {
    lr_mult: 1
    decay_mult: 1
  }
  param {
    lr_mult: 2
    decay_mult: 0
  }
  convolution_param {
    num_output: 256
    pad: 1
    kernel_size: 3
    weight_filler {
      type: "xavier"
    }
    bias_filler {
      type: "constant"
      value: 0
    }
  }
}
layer {
  name: "relu3_2"
  type: "ReLU"
  bottom: "conv3_2"
  top: "conv3_2"
}
layer {
  name: "conv3_3"
  type: "Convolution"
  bottom: "conv3_2"
  top: "conv3_3"
  param {
    lr_mult: 1
    decay_mult: 1
  }
  param {
    lr_mult: 2
    decay_mult: 0
  }
  convolution_param {
    num_output: 256
    pad: 1
    kernel_size: 3
    weight_filler {
      type: "xavier"
    }
    bias_filler {
      type: "constant"
      value: 0
    }
  }
}
layer {
  name: "relu3_3"
  type: "ReLU"
  bottom: "conv3_3"
  top: "conv3_3"
}
layer {
  name: "pool3"
  type: "Pooling"
  bottom: "conv3_3"
  top: "pool3"
  pooling_param {
    pool: MAX
    kernel_size: 2
    stride: 2
  }
}
layer {
  name: "conv4_1"
  type: "Convolution"
  bottom: "pool3"
  top: "conv4_1"
  param {
    lr_mult: 1
    decay_mult: 1
  }
  param {
    lr_mult: 2
    decay_mult: 0
  }
  convolution_param {
    num_output: 512
    pad: 1
    kernel_size: 3
    weight_filler {
      type: "xavier"
    }
    bias_filler {
      type: "constant"
      value: 0
    }
  }
}
layer {
  name: "relu4_1"
  type: "ReLU"
  bottom: "conv4_1"
  top: "conv4_1"
}
layer {
  name: "conv4_2"
  type: "Convolution"
  bottom: "conv4_1"
  top: "conv4_2"
  param {
    lr_mult: 1
    decay_mult: 1
  }
  param {
    lr_mult: 2
    decay_mult: 0
  }
  convolution_param {
    num_output: 512
    pad: 1
    kernel_size: 3
    weight_filler {
      type: "xavier"
    }
    bias_filler {
      type: "constant"
      value: 0
    }
  }
}
layer {
  name: "relu4_2"
  type: "ReLU"
  bottom: "conv4_2"
  top: "conv4_2"
}
layer {
  name: "conv4_3"
  type: "Convolution"
  bottom: "conv4_2"
  top: "conv4_3"
  param {
    lr_mult: 1
    decay_mult: 1
  }
  param {
    lr_mult: 2
    decay_mult: 0
  }
  convolution_param {
    num_output: 512
    pad: 1
    kernel_size: 3
    weight_filler {
      type: "xavier"
    }
    bias_filler {
      type: "constant"
      value: 0
    }
  }
}
layer {
  name: "relu4_3"
  type: "ReLU"
  bottom: "conv4_3"
  top: "conv4_3"
}
layer {
  name: "pool4"
  type: "Pooling"
  bottom: "conv4_3"
  top: "pool4"
  pooling_param {
    pool: MAX
    kernel_size: 2
    stride: 2
  }
}
layer {
  name: "conv5_1"
  type: "Convolution"
  bottom: "pool4"
  top: "conv5_1"
  param {
    lr_mult: 1
    decay_mult: 1
  }
  param {
    lr_mult: 2
    decay_mult: 0
  }
  convolution_param {
    num_output: 512
    pad: 1
    kernel_size: 3
    weight_filler {
      type: "xavier"
    }
    bias_filler {
      type: "constant"
      value: 0
    }
    dilation: 1
  }
}
layer {
  name: "relu5_1"
  type: "ReLU"
  bottom: "conv5_1"
  top: "conv5_1"
}
layer {
  name: "conv5_2"
  type: "Convolution"
  bottom: "conv5_1"
  top: "conv5_2"
  param {
    lr_mult: 1
    decay_mult: 1
  }
  param {
    lr_mult: 2
    decay_mult: 0
  }
  convolution_param {
    num_output: 512
    pad: 1
    kernel_size: 3
    weight_filler {
      type: "xavier"
    }
    bias_filler {
      type: "constant"
      value: 0
    }
    dilation: 1
  }
}
layer {
  name: "relu5_2"
  type: "ReLU"
  bottom: "conv5_2"
  top: "conv5_2"
}
layer {
  name: "conv5_3"
  type: "Convolution"
  bottom: "conv5_2"
  top: "conv5_3"
  param {
    lr_mult: 1
    decay_mult: 1
  }
  param {
    lr_mult: 2
    decay_mult: 0
  }
  convolution_param {
    num_output: 512
    pad: 1
    kernel_size: 3
    weight_filler {
      type: "xavier"
    }
    bias_filler {
      type: "constant"
      value: 0
    }
    dilation: 1
  }
}
layer {
  name: "relu5_3"
  type: "ReLU"
  bottom: "conv5_3"
  top: "conv5_3"
}
layer {
  name: "pool5"
  type: "Pooling"
  bottom: "conv5_3"
  top: "pool5"
  pooling_param {
    pool: MAX
    kernel_size: 3
    stride: 1
    pad: 1
  }
}
layer {
  name: "fc6"
  type: "Convolution"
  bottom: "pool5"
  top: "fc6"
  param {
    lr_mult: 1
    decay_mult: 1
  }
  param {
    lr_mult: 2
    decay_mult: 0
  }
  convolution_param {
    num_output: 1024
    pad: 6
    kernel_size: 3
    weight_filler {
      type: "xavier"
    }
    bias_filler {
      type: "constant"
      value: 0
    }
    dilation: 6
  }
}
layer {
  name: "relu6"
  type: "ReLU"
  bottom: "fc6"
  top: "fc6"
}
layer {
  name: "fc7"
  type: "Convolution"
  bottom: "fc6"
  top: "fc7"
  param {
    lr_mult: 1
    decay_mult: 1
  }
  param {
    lr_mult: 2
    decay_mult: 0
  }
  convolution_param {
    num_output: 1024
    kernel_size: 1
    weight_filler {
      type: "xavier"
    }
    bias_filler {
      type: "constant"
      value: 0
    }
  }
}
layer {
  name: "relu7"
  type: "ReLU"
  bottom: "fc7"
  top: "fc7"
}
layer {
  name: "conv6_1"
  type: "Convolution"
  bottom: "fc7"
  top: "conv6_1"
  param {
    lr_mult: 1
    decay_mult: 1
  }
  param {
    lr_mult: 2
    decay_mult: 0
  }
  convolution_param {
    num_output: 256
    pad: 0
    kernel_size: 1
    stride: 1
    weight_filler {
      type: "xavier"
    }
    bias_filler {
      type: "constant"
      value: 0
    }
  }
}
layer {
  name: "conv6_1_relu"
  type: "ReLU"
  bottom: "conv6_1"
  top: "conv6_1"
}
layer {
  name: "conv6_2"
  type: "Convolution"
  bottom: "conv6_1"
  top: "conv6_2"
  param {
    lr_mult: 1
    decay_mult: 1
  }
  param {
    lr_mult: 2
    decay_mult: 0
  }
  convolution_param {
    num_output: 512
    pad: 1
    kernel_size: 3
    stride: 2
    weight_filler {
      type: "xavier"
    }
    bias_filler {
      type: "constant"
      value: 0
    }
  }
}
layer {
  name: "conv6_2_relu"
  type: "ReLU"
  bottom: "conv6_2"
  top: "conv6_2"
}
layer {
  name: "conv7_1"
  type: "Convolution"
  bottom: "conv6_2"
  top: "conv7_1"
  param {
    lr_mult: 1
    decay_mult: 1
  }
  param {
    lr_mult: 2
    decay_mult: 0
  }
  convolution_param {
    num_output: 128
    pad: 0
    kernel_size: 1
    stride: 1
    weight_filler {
      type: "xavier"
    }
    bias_filler {
      type: "constant"
      value: 0
    }
  }
}
layer {
  name: "conv7_1_relu"
  type: "ReLU"
  bottom: "conv7_1"
  top: "conv7_1"
}
layer {
  name: "conv7_2"
  type: "Convolution"
  bottom: "conv7_1"
  top: "conv7_2"
  param {
    lr_mult: 1
    decay_mult: 1
  }
  param {
    lr_mult: 2
    decay_mult: 0
  }
  convolution_param {
    num_output: 256
    pad: 1
    kernel_size: 3
    stride: 2
    weight_filler {
      type: "xavier"
    }
    bias_filler {
      type: "constant"
      value: 0
    }
  }
}
layer {
  name: "conv7_2_relu"
  type: "ReLU"
  bottom: "conv7_2"
  top: "conv7_2"
}
layer {
  name: "conv8_1"
  type: "Convolution"
  bottom: "conv7_2"
  top: "conv8_1"
  param {
    lr_mult: 1
    decay_mult: 1
  }
  param {
    lr_mult: 2
    decay_mult: 0
  }
  convolution_param {
    num_output: 128
    pad: 0
    kernel_size: 1
    stride: 1
    weight_filler {
      type: "xavier"
    }
    bias_filler {
      type: "constant"
      value: 0
    }
  }
}
layer {
  name: "conv8_1_relu"
  type: "ReLU"
  bottom: "conv8_1"
  top: "conv8_1"
}
layer {
  name: "conv8_2"
  type: "Convolution"
  bottom: "conv8_1"
  top: "conv8_2"
  param {
    lr_mult: 1
    decay_mult: 1
  }
  param {
    lr_mult: 2
    decay_mult: 0
  }
  convolution_param {
    num_output: 256
    pad: 0
    kernel_size: 3
    stride: 1
    weight_filler {
      type: "xavier"
    }
    bias_filler {
      type: "constant"
      value: 0
    }
  }
}
layer {
  name: "conv8_2_relu"
  type: "ReLU"
  bottom: "conv8_2"
  top: "conv8_2"
}
layer {
  name: "conv9_1"
  type: "Convolution"
  bottom: "conv8_2"
  top: "conv9_1"
  param {
    lr_mult: 1
    decay_mult: 1
  }
  param {
    lr_mult: 2
    decay_mult: 0
  }
  convolution_param {
    num_output: 128
    pad: 0
    kernel_size: 1
    stride: 1
    weight_filler {
      type: "xavier"
    }
    bias_filler {
      type: "constant"
      value: 0
    }
  }
}
layer {
  name: "conv9_1_relu"
  type: "ReLU"
  bottom: "conv9_1"
  top: "conv9_1"
}
layer {
  name: "conv9_2"
  type: "Convolution"
  bottom: "conv9_1"
  top: "conv9_2"
  param {
    lr_mult: 1
    decay_mult: 1
  }
  param {
    lr_mult: 2
    decay_mult: 0
  }
  convolution_param {
    num_output: 256
    pad: 0
    kernel_size: 3
    stride: 1
    weight_filler {
      type: "xavier"
    }
    bias_filler {
      type: "constant"
      value: 0
    }
  }
}
layer {
  name: "conv9_2_relu"
  type: "ReLU"
  bottom: "conv9_2"
  top: "conv9_2"
}
layer {
  name: "conv4_3_norm"
  type: "Normalize"
  bottom: "conv4_3"
  top: "conv4_3_norm"
  norm_param {
    across_spatial: false
    scale_filler {
      type: "constant"
      value: 20
    }
    channel_shared: false
  }
}
layer {
  name: "conv4_3_norm_mbox_loc"
  type: "Convolution"
  bottom: "conv4_3_norm"
  top: "conv4_3_norm_mbox_loc"
  param {
    lr_mult: 1
    decay_mult: 1
  }
  param {
    lr_mult: 2
    decay_mult: 0
  }
  convolution_param {
    num_output: 16
    pad: 1
    kernel_size: 3
    stride: 1
    weight_filler {
      type: "xavier"
    }
    bias_filler {
      type: "constant"
      value: 0
    }
  }
}
layer {
  name: "conv4_3_norm_mbox_loc_perm"
  type: "Permute"
  bottom: "conv4_3_norm_mbox_loc"
  top: "conv4_3_norm_mbox_loc_perm"
  permute_param {
    order: 0
    order: 2
    order: 3
    order: 1
  }
}
layer {
  name: "conv4_3_norm_mbox_loc_flat"
  type: "Flatten"
  bottom: "conv4_3_norm_mbox_loc_perm"
  top: "conv4_3_norm_mbox_loc_flat"
  flatten_param {
    axis: 1
  }
}
layer {
  name: "conv4_3_norm_mbox_conf"
  type: "Convolution"
  bottom: "conv4_3_norm"
  top: "conv4_3_norm_mbox_conf"
  param {
    lr_mult: 1
    decay_mult: 1
  }
  param {
    lr_mult: 2
    decay_mult: 0
  }
  convolution_param {
    num_output: 84
    pad: 1
    kernel_size: 3
    stride: 1
    weight_filler {
      type: "xavier"
    }
    bias_filler {
      type: "constant"
      value: 0
    }
  }
}
layer {
  name: "conv4_3_norm_mbox_conf_perm"
  type: "Permute"
  bottom: "conv4_3_norm_mbox_conf"
  top: "conv4_3_norm_mbox_conf_perm"
  permute_param {
    order: 0
    order: 2
    order: 3
    order: 1
  }
}
layer {
  name: "conv4_3_norm_mbox_conf_flat"
  type: "Flatten"
  bottom: "conv4_3_norm_mbox_conf_perm"
  top: "conv4_3_norm_mbox_conf_flat"
  flatten_param {
    axis: 1
  }
}
layer {
  name: "conv4_3_norm_mbox_priorbox"
  type: "PriorBox"
  bottom: "conv4_3_norm"
  bottom: "data"
  top: "conv4_3_norm_mbox_priorbox"
  prior_box_param {
    min_size: 30
    max_size: 60
    aspect_ratio: 2
    flip: true
    clip: false
    variance: 0.1
    variance: 0.1
    variance: 0.2
    variance: 0.2
    step: 8
    offset: 0.5
  }
}
layer {
  name: "fc7_mbox_loc"
  type: "Convolution"
  bottom: "fc7"
  top: "fc7_mbox_loc"
  param {
    lr_mult: 1
    decay_mult: 1
  }
  param {
    lr_mult: 2
    decay_mult: 0
  }
  convolution_param {
    num_output: 24
    pad: 1
    kernel_size: 3
    stride: 1
    weight_filler {
      type: "xavier"
    }
    bias_filler {
      type: "constant"
      value: 0
    }
  }
}
layer {
  name: "fc7_mbox_loc_perm"
  type: "Permute"
  bottom: "fc7_mbox_loc"
  top: "fc7_mbox_loc_perm"
  permute_param {
    order: 0
    order: 2
    order: 3
    order: 1
  }
}
layer {
  name: "fc7_mbox_loc_flat"
  type: "Flatten"
  bottom: "fc7_mbox_loc_perm"
  top: "fc7_mbox_loc_flat"
  flatten_param {
    axis: 1
  }
}
layer {
  name: "fc7_mbox_conf"
  type: "Convolution"
  bottom: "fc7"
  top: "fc7_mbox_conf"
  param {
    lr_mult: 1
    decay_mult: 1
  }
  param {
    lr_mult: 2
    decay_mult: 0
  }
  convolution_param {
    num_output: 126
    pad: 1
    kernel_size: 3
    stride: 1
    weight_filler {
      type: "xavier"
    }
    bias_filler {
      type: "constant"
      value: 0
    }
  }
}
layer {
  name: "fc7_mbox_conf_perm"
  type: "Permute"
  bottom: "fc7_mbox_conf"
  top: "fc7_mbox_conf_perm"
  permute_param {
    order: 0
    order: 2
    order: 3
    order: 1
  }
}
layer {
  name: "fc7_mbox_conf_flat"
  type: "Flatten"
  bottom: "fc7_mbox_conf_perm"
  top: "fc7_mbox_conf_flat"
  flatten_param {
    axis: 1
  }
}
layer {
  name: "fc7_mbox_priorbox"
  type: "PriorBox"
  bottom: "fc7"
  bottom: "data"
  top: "fc7_mbox_priorbox"
  prior_box_param {
    min_size: 60
    max_size: 111
    aspect_ratio: 2
    aspect_ratio: 3
    flip: true
    clip: false
    variance: 0.1
    variance: 0.1
    variance: 0.2
    variance: 0.2
    step: 16
    offset: 0.5
  }
}
layer {
  name: "conv6_2_mbox_loc"
  type: "Convolution"
  bottom: "conv6_2"
  top: "conv6_2_mbox_loc"
  param {
    lr_mult: 1
    decay_mult: 1
  }
  param {
    lr_mult: 2
    decay_mult: 0
  }
  convolution_param {
    num_output: 24
    pad: 1
    kernel_size: 3
    stride: 1
    weight_filler {
      type: "xavier"
    }
    bias_filler {
      type: "constant"
      value: 0
    }
  }
}
layer {
  name: "conv6_2_mbox_loc_perm"
  type: "Permute"
  bottom: "conv6_2_mbox_loc"
  top: "conv6_2_mbox_loc_perm"
  permute_param {
    order: 0
    order: 2
    order: 3
    order: 1
  }
}
layer {
  name: "conv6_2_mbox_loc_flat"
  type: "Flatten"
  bottom: "conv6_2_mbox_loc_perm"
  top: "conv6_2_mbox_loc_flat"
  flatten_param {
    axis: 1
  }
}
layer {
  name: "conv6_2_mbox_conf"
  type: "Convolution"
  bottom: "conv6_2"
  top: "conv6_2_mbox_conf"
  param {
    lr_mult: 1
    decay_mult: 1
  }
  param {
    lr_mult: 2
    decay_mult: 0
  }
  convolution_param {
    num_output: 126
    pad: 1
    kernel_size: 3
    stride: 1
    weight_filler {
      type: "xavier"
    }
    bias_filler {
      type: "constant"
      value: 0
    }
  }
}
layer {
  name: "conv6_2_mbox_conf_perm"
  type: "Permute"
  bottom: "conv6_2_mbox_conf"
  top: "conv6_2_mbox_conf_perm"
  permute_param {
    order: 0
    order: 2
    order: 3
    order: 1
  }
}
layer {
  name: "conv6_2_mbox_conf_flat"
  type: "Flatten"
  bottom: "conv6_2_mbox_conf_perm"
  top: "conv6_2_mbox_conf_flat"
  flatten_param {
    axis: 1
  }
}
layer {
  name: "conv6_2_mbox_priorbox"
  type: "PriorBox"
  bottom: "conv6_2"
  bottom: "data"
  top: "conv6_2_mbox_priorbox"
  prior_box_param {
    min_size: 111
    max_size: 162
    aspect_ratio: 2
    aspect_ratio: 3
    flip: true
    clip: false
    variance: 0.1
    variance: 0.1
    variance: 0.2
    variance: 0.2
    step: 32
    offset: 0.5
  }
}
layer {
  name: "conv7_2_mbox_loc"
  type: "Convolution"
  bottom: "conv7_2"
  top: "conv7_2_mbox_loc"
  param {
    lr_mult: 1
    decay_mult: 1
  }
  param {
    lr_mult: 2
    decay_mult: 0
  }
  convolution_param {
    num_output: 24
    pad: 1
    kernel_size: 3
    stride: 1
    weight_filler {
      type: "xavier"
    }
    bias_filler {
      type: "constant"
      value: 0
    }
  }
}
layer {
  name: "conv7_2_mbox_loc_perm"
  type: "Permute"
  bottom: "conv7_2_mbox_loc"
  top: "conv7_2_mbox_loc_perm"
  permute_param {
    order: 0
    order: 2
    order: 3
    order: 1
  }
}
layer {
  name: "conv7_2_mbox_loc_flat"
  type: "Flatten"
  bottom: "conv7_2_mbox_loc_perm"
  top: "conv7_2_mbox_loc_flat"
  flatten_param {
    axis: 1
  }
}
layer {
  name: "conv7_2_mbox_conf"
  type: "Convolution"
  bottom: "conv7_2"
  top: "conv7_2_mbox_conf"
  param {
    lr_mult: 1
    decay_mult: 1
  }
  param {
    lr_mult: 2
    decay_mult: 0
  }
  convolution_param {
    num_output: 126
    pad: 1
    kernel_size: 3
    stride: 1
    weight_filler {
      type: "xavier"
    }
    bias_filler {
      type: "constant"
      value: 0
    }
  }
}
layer {
  name: "conv7_2_mbox_conf_perm"
  type: "Permute"
  bottom: "conv7_2_mbox_conf"
  top: "conv7_2_mbox_conf_perm"
  permute_param {
    order: 0
    order: 2
    order: 3
    order: 1
  }
}
layer {
  name: "conv7_2_mbox_conf_flat"
  type: "Flatten"
  bottom: "conv7_2_mbox_conf_perm"
  top: "conv7_2_mbox_conf_flat"
  flatten_param {
    axis: 1
  }
}
layer {
  name: "conv7_2_mbox_priorbox"
  type: "PriorBox"
  bottom: "conv7_2"
  bottom: "data"
  top: "conv7_2_mbox_priorbox"
  prior_box_param {
    min_size: 162
    max_size: 213
    aspect_ratio: 2
    aspect_ratio: 3
    flip: true
    clip: false
    variance: 0.1
    variance: 0.1
    variance: 0.2
    variance: 0.2
    step: 64
    offset: 0.5
  }
}
layer {
  name: "conv8_2_mbox_loc"
  type: "Convolution"
  bottom: "conv8_2"
  top: "conv8_2_mbox_loc"
  param {
    lr_mult: 1
    decay_mult: 1
  }
  param {
    lr_mult: 2
    decay_mult: 0
  }
  convolution_param {
    num_output: 16
    pad: 1
    kernel_size: 3
    stride: 1
    weight_filler {
      type: "xavier"
    }
    bias_filler {
      type: "constant"
      value: 0
    }
  }
}
layer {
  name: "conv8_2_mbox_loc_perm"
  type: "Permute"
  bottom: "conv8_2_mbox_loc"
  top: "conv8_2_mbox_loc_perm"
  permute_param {
    order: 0
    order: 2
    order: 3
    order: 1
  }
}
layer {
  name: "conv8_2_mbox_loc_flat"
  type: "Flatten"
  bottom: "conv8_2_mbox_loc_perm"
  top: "conv8_2_mbox_loc_flat"
  flatten_param {
    axis: 1
  }
}
layer {
  name: "conv8_2_mbox_conf"
  type: "Convolution"
  bottom: "conv8_2"
  top: "conv8_2_mbox_conf"
  param {
    lr_mult: 1
    decay_mult: 1
  }
  param {
    lr_mult: 2
    decay_mult: 0
  }
  convolution_param {
    num_output: 84
    pad: 1
    kernel_size: 3
    stride: 1
    weight_filler {
      type: "xavier"
    }
    bias_filler {
      type: "constant"
      value: 0
    }
  }
}
layer {
  name: "conv8_2_mbox_conf_perm"
  type: "Permute"
  bottom: "conv8_2_mbox_conf"
  top: "conv8_2_mbox_conf_perm"
  permute_param {
    order: 0
    order: 2
    order: 3
    order: 1
  }
}
layer {
  name: "conv8_2_mbox_conf_flat"
  type: "Flatten"
  bottom: "conv8_2_mbox_conf_perm"
  top: "conv8_2_mbox_conf_flat"
  flatten_param {
    axis: 1
  }
}
layer {
  name: "conv8_2_mbox_priorbox"
  type: "PriorBox"
  bottom: "conv8_2"
  bottom: "data"
  top: "conv8_2_mbox_priorbox"
  prior_box_param {
    min_size: 213
    max_size: 264
    aspect_ratio: 2
    flip: true
    clip: false
    variance: 0.1
    variance: 0.1
    variance: 0.2
    variance: 0.2
    step: 100
    offset: 0.5
  }
}
layer {
  name: "conv9_2_mbox_loc"
  type: "Convolution"
  bottom: "conv9_2"
  top: "conv9_2_mbox_loc"
  param {
    lr_mult: 1
    decay_mult: 1
  }
  param {
    lr_mult: 2
    decay_mult: 0
  }
  convolution_param {
    num_output: 16
    pad: 1
    kernel_size: 3
    stride: 1
    weight_filler {
      type: "xavier"
    }
    bias_filler {
      type: "constant"
      value: 0
    }
  }
}
layer {
  name: "conv9_2_mbox_loc_perm"
  type: "Permute"
  bottom: "conv9_2_mbox_loc"
  top: "conv9_2_mbox_loc_perm"
  permute_param {
    order: 0
    order: 2
    order: 3
    order: 1
  }
}
layer {
  name: "conv9_2_mbox_loc_flat"
  type: "Flatten"
  bottom: "conv9_2_mbox_loc_perm"
  top: "conv9_2_mbox_loc_flat"
  flatten_param {
    axis: 1
  }
}
layer {
  name: "conv9_2_mbox_conf"
  type: "Convolution"
  bottom: "conv9_2"
  top: "conv9_2_mbox_conf"
  param {
    lr_mult: 1
    decay_mult: 1
  }
  param {
    lr_mult: 2
    decay_mult: 0
  }
  convolution_param {
    num_output: 84
    pad: 1
    kernel_size: 3
    stride: 1
    weight_filler {
      type: "xavier"
    }
    bias_filler {
      type: "constant"
      value: 0
    }
  }
}
layer {
  name: "conv9_2_mbox_conf_perm"
  type: "Permute"
  bottom: "conv9_2_mbox_conf"
  top: "conv9_2_mbox_conf_perm"
  permute_param {
    order: 0
    order: 2
    order: 3
    order: 1
  }
}
layer {
  name: "conv9_2_mbox_conf_flat"
  type: "Flatten"
  bottom: "conv9_2_mbox_conf_perm"
  top: "conv9_2_mbox_conf_flat"
  flatten_param {
    axis: 1
  }
}
layer {
  name: "conv9_2_mbox_priorbox"
  type: "PriorBox"
  bottom: "conv9_2"
  bottom: "data"
  top: "conv9_2_mbox_priorbox"
  prior_box_param {
    min_size: 264
    max_size: 315
    aspect_ratio: 2
    flip: true
    clip: false
    variance: 0.1
    variance: 0.1
    variance: 0.2
    variance: 0.2
    step: 300
    offset: 0.5
  }
}
layer {
  name: "mbox_loc"
  type: "Concat"
  bottom: "conv4_3_norm_mbox_loc_flat"
  bottom: "fc7_mbox_loc_flat"
  bottom: "conv6_2_mbox_loc_flat"
  bottom: "conv7_2_mbox_loc_flat"
  bottom: "conv8_2_mbox_loc_flat"
  bottom: "conv9_2_mbox_loc_flat"
  top: "mbox_loc"
  concat_param {
    axis: 1
  }
}
layer {
  name: "mbox_conf"
  type: "Concat"
  bottom: "conv4_3_norm_mbox_conf_flat"
  bottom: "fc7_mbox_conf_flat"
  bottom: "conv6_2_mbox_conf_flat"
  bottom: "conv7_2_mbox_conf_flat"
  bottom: "conv8_2_mbox_conf_flat"
  bottom: "conv9_2_mbox_conf_flat"
  top: "mbox_conf"
  concat_param {
    axis: 1
  }
}
layer {
  name: "mbox_priorbox"
  type: "Concat"
  bottom: "conv4_3_norm_mbox_priorbox"
  bottom: "fc7_mbox_priorbox"
  bottom: "conv6_2_mbox_priorbox"
  bottom: "conv7_2_mbox_priorbox"
  bottom: "conv8_2_mbox_priorbox"
  bottom: "conv9_2_mbox_priorbox"
  top: "mbox_priorbox"
  concat_param {
    axis: 2
  }
}
layer {
  name: "mbox_loss"
  type: "MultiBoxLoss"
  bottom: "mbox_loc"
  bottom: "mbox_conf"
  bottom: "mbox_priorbox"
  bottom: "label"
  top: "mbox_loss"
  include {
    phase: TRAIN
  }
  propagate_down: true
  propagate_down: true
  propagate_down: false
  propagate_down: false
  loss_param {
    normalization: VALID
  }
  multibox_loss_param {
    loc_loss_type: SMOOTH_L1
    conf_loss_type: SOFTMAX
    loc_weight: 1
    num_classes: 21
    share_location: true
    match_type: PER_PREDICTION
    overlap_threshold: 0.5
    use_prior_for_matching: true
    background_label_id: 0
    use_difficult_gt: true
    neg_pos_ratio: 3
    neg_overlap: 0.5
    code_type: CENTER_SIZE
    ignore_cross_boundary_bbox: false
    mining_type: MAX_NEGATIVE
  }
}
I0923 01:29:37.225548 22405 layer_factory.hpp:77] Creating layer data
I0923 01:29:37.226676 22405 net.cpp:100] Creating Layer data
I0923 01:29:37.226698 22405 net.cpp:408] data -> data
I0923 01:29:37.226742 22405 net.cpp:408] data -> label
I0923 01:29:37.228327 22414 db_lmdb.cpp:35] Opened lmdb examples/VOC0712/VOC0712_trainval_lmdb
I0923 01:29:37.263195 22405 annotated_data_layer.cpp:62] output data size: 4,3,300,300
I0923 01:29:37.270223 22405 net.cpp:150] Setting up data
I0923 01:29:37.270247 22405 net.cpp:157] Top shape: 4 3 300 300 (1080000)
I0923 01:29:37.270254 22405 net.cpp:157] Top shape: 1 1 1 8 (8)
I0923 01:29:37.270257 22405 net.cpp:165] Memory required for data: 4320032
I0923 01:29:37.270290 22405 layer_factory.hpp:77] Creating layer data_data_0_split
I0923 01:29:37.270309 22405 net.cpp:100] Creating Layer data_data_0_split
I0923 01:29:37.270316 22405 net.cpp:434] data_data_0_split <- data
I0923 01:29:37.270334 22405 net.cpp:408] data_data_0_split -> data_data_0_split_0
I0923 01:29:37.270346 22405 net.cpp:408] data_data_0_split -> data_data_0_split_1
I0923 01:29:37.270359 22405 net.cpp:408] data_data_0_split -> data_data_0_split_2
I0923 01:29:37.270371 22405 net.cpp:408] data_data_0_split -> data_data_0_split_3
I0923 01:29:37.270383 22405 net.cpp:408] data_data_0_split -> data_data_0_split_4
I0923 01:29:37.270395 22405 net.cpp:408] data_data_0_split -> data_data_0_split_5
I0923 01:29:37.270407 22405 net.cpp:408] data_data_0_split -> data_data_0_split_6
I0923 01:29:37.270520 22405 net.cpp:150] Setting up data_data_0_split
I0923 01:29:37.270530 22405 net.cpp:157] Top shape: 4 3 300 300 (1080000)
I0923 01:29:37.270539 22405 net.cpp:157] Top shape: 4 3 300 300 (1080000)
I0923 01:29:37.270546 22405 net.cpp:157] Top shape: 4 3 300 300 (1080000)
I0923 01:29:37.270555 22405 net.cpp:157] Top shape: 4 3 300 300 (1080000)
I0923 01:29:37.270562 22405 net.cpp:157] Top shape: 4 3 300 300 (1080000)
I0923 01:29:37.270570 22405 net.cpp:157] Top shape: 4 3 300 300 (1080000)
I0923 01:29:37.270577 22405 net.cpp:157] Top shape: 4 3 300 300 (1080000)
I0923 01:29:37.270584 22405 net.cpp:165] Memory required for data: 34560032
I0923 01:29:37.270588 22405 layer_factory.hpp:77] Creating layer conv1_1
I0923 01:29:37.270608 22405 net.cpp:100] Creating Layer conv1_1
I0923 01:29:37.270613 22405 net.cpp:434] conv1_1 <- data_data_0_split_0
I0923 01:29:37.270622 22405 net.cpp:408] conv1_1 -> conv1_1
I0923 01:29:37.926064 22405 net.cpp:150] Setting up conv1_1
I0923 01:29:37.926080 22405 net.cpp:157] Top shape: 4 64 300 300 (23040000)
I0923 01:29:37.926082 22405 net.cpp:165] Memory required for data: 126720032
I0923 01:29:37.926096 22405 layer_factory.hpp:77] Creating layer relu1_1
I0923 01:29:37.926103 22405 net.cpp:100] Creating Layer relu1_1
I0923 01:29:37.926106 22405 net.cpp:434] relu1_1 <- conv1_1
I0923 01:29:37.926110 22405 net.cpp:395] relu1_1 -> conv1_1 (in-place)
I0923 01:29:37.926470 22405 net.cpp:150] Setting up relu1_1
I0923 01:29:37.926476 22405 net.cpp:157] Top shape: 4 64 300 300 (23040000)
I0923 01:29:37.926478 22405 net.cpp:165] Memory required for data: 218880032
I0923 01:29:37.926481 22405 layer_factory.hpp:77] Creating layer conv1_2
I0923 01:29:37.926488 22405 net.cpp:100] Creating Layer conv1_2
I0923 01:29:37.926491 22405 net.cpp:434] conv1_2 <- conv1_1
I0923 01:29:37.926493 22405 net.cpp:408] conv1_2 -> conv1_2
I0923 01:29:37.928169 22405 net.cpp:150] Setting up conv1_2
I0923 01:29:37.928177 22405 net.cpp:157] Top shape: 4 64 300 300 (23040000)
I0923 01:29:37.928179 22405 net.cpp:165] Memory required for data: 311040032
I0923 01:29:37.928185 22405 layer_factory.hpp:77] Creating layer relu1_2
I0923 01:29:37.928189 22405 net.cpp:100] Creating Layer relu1_2
I0923 01:29:37.928191 22405 net.cpp:434] relu1_2 <- conv1_2
I0923 01:29:37.928195 22405 net.cpp:395] relu1_2 -> conv1_2 (in-place)
I0923 01:29:37.928454 22405 net.cpp:150] Setting up relu1_2
I0923 01:29:37.928460 22405 net.cpp:157] Top shape: 4 64 300 300 (23040000)
I0923 01:29:37.928462 22405 net.cpp:165] Memory required for data: 403200032
I0923 01:29:37.928464 22405 layer_factory.hpp:77] Creating layer pool1
I0923 01:29:37.928469 22405 net.cpp:100] Creating Layer pool1
I0923 01:29:37.928470 22405 net.cpp:434] pool1 <- conv1_2
I0923 01:29:37.928473 22405 net.cpp:408] pool1 -> pool1
I0923 01:29:37.928519 22405 net.cpp:150] Setting up pool1
I0923 01:29:37.928524 22405 net.cpp:157] Top shape: 4 64 150 150 (5760000)
I0923 01:29:37.928525 22405 net.cpp:165] Memory required for data: 426240032
I0923 01:29:37.928527 22405 layer_factory.hpp:77] Creating layer conv2_1
I0923 01:29:37.928534 22405 net.cpp:100] Creating Layer conv2_1
I0923 01:29:37.928536 22405 net.cpp:434] conv2_1 <- pool1
I0923 01:29:37.928542 22405 net.cpp:408] conv2_1 -> conv2_1
I0923 01:29:37.930070 22405 net.cpp:150] Setting up conv2_1
I0923 01:29:37.930078 22405 net.cpp:157] Top shape: 4 128 150 150 (11520000)
I0923 01:29:37.930079 22405 net.cpp:165] Memory required for data: 472320032
I0923 01:29:37.930085 22405 layer_factory.hpp:77] Creating layer relu2_1
I0923 01:29:37.930089 22405 net.cpp:100] Creating Layer relu2_1
I0923 01:29:37.930091 22405 net.cpp:434] relu2_1 <- conv2_1
I0923 01:29:37.930094 22405 net.cpp:395] relu2_1 -> conv2_1 (in-place)
I0923 01:29:37.930452 22405 net.cpp:150] Setting up relu2_1
I0923 01:29:37.930459 22405 net.cpp:157] Top shape: 4 128 150 150 (11520000)
I0923 01:29:37.930460 22405 net.cpp:165] Memory required for data: 518400032
I0923 01:29:37.930462 22405 layer_factory.hpp:77] Creating layer conv2_2
I0923 01:29:37.930469 22405 net.cpp:100] Creating Layer conv2_2
I0923 01:29:37.930470 22405 net.cpp:434] conv2_2 <- conv2_1
I0923 01:29:37.930474 22405 net.cpp:408] conv2_2 -> conv2_2
I0923 01:29:37.932059 22405 net.cpp:150] Setting up conv2_2
I0923 01:29:37.932066 22405 net.cpp:157] Top shape: 4 128 150 150 (11520000)
I0923 01:29:37.932068 22405 net.cpp:165] Memory required for data: 564480032
I0923 01:29:37.932072 22405 layer_factory.hpp:77] Creating layer relu2_2
I0923 01:29:37.932075 22405 net.cpp:100] Creating Layer relu2_2
I0923 01:29:37.932077 22405 net.cpp:434] relu2_2 <- conv2_2
I0923 01:29:37.932080 22405 net.cpp:395] relu2_2 -> conv2_2 (in-place)
I0923 01:29:37.932348 22405 net.cpp:150] Setting up relu2_2
I0923 01:29:37.932354 22405 net.cpp:157] Top shape: 4 128 150 150 (11520000)
I0923 01:29:37.932355 22405 net.cpp:165] Memory required for data: 610560032
I0923 01:29:37.932358 22405 layer_factory.hpp:77] Creating layer pool2
I0923 01:29:37.932361 22405 net.cpp:100] Creating Layer pool2
I0923 01:29:37.932363 22405 net.cpp:434] pool2 <- conv2_2
I0923 01:29:37.932366 22405 net.cpp:408] pool2 -> pool2
I0923 01:29:37.932394 22405 net.cpp:150] Setting up pool2
I0923 01:29:37.932397 22405 net.cpp:157] Top shape: 4 128 75 75 (2880000)
I0923 01:29:37.932399 22405 net.cpp:165] Memory required for data: 622080032
I0923 01:29:37.932401 22405 layer_factory.hpp:77] Creating layer conv3_1
I0923 01:29:37.932407 22405 net.cpp:100] Creating Layer conv3_1
I0923 01:29:37.932410 22405 net.cpp:434] conv3_1 <- pool2
I0923 01:29:37.932413 22405 net.cpp:408] conv3_1 -> conv3_1
I0923 01:29:37.935281 22405 net.cpp:150] Setting up conv3_1
I0923 01:29:37.935292 22405 net.cpp:157] Top shape: 4 256 75 75 (5760000)
I0923 01:29:37.935294 22405 net.cpp:165] Memory required for data: 645120032
I0923 01:29:37.935302 22405 layer_factory.hpp:77] Creating layer relu3_1
I0923 01:29:37.935307 22405 net.cpp:100] Creating Layer relu3_1
I0923 01:29:37.935308 22405 net.cpp:434] relu3_1 <- conv3_1
I0923 01:29:37.935312 22405 net.cpp:395] relu3_1 -> conv3_1 (in-place)
I0923 01:29:37.935699 22405 net.cpp:150] Setting up relu3_1
I0923 01:29:37.935708 22405 net.cpp:157] Top shape: 4 256 75 75 (5760000)
I0923 01:29:37.935709 22405 net.cpp:165] Memory required for data: 668160032
I0923 01:29:37.935711 22405 layer_factory.hpp:77] Creating layer conv3_2
I0923 01:29:37.935717 22405 net.cpp:100] Creating Layer conv3_2
I0923 01:29:37.935719 22405 net.cpp:434] conv3_2 <- conv3_1
I0923 01:29:37.935722 22405 net.cpp:408] conv3_2 -> conv3_2
I0923 01:29:37.939143 22405 net.cpp:150] Setting up conv3_2
I0923 01:29:37.939152 22405 net.cpp:157] Top shape: 4 256 75 75 (5760000)
I0923 01:29:37.939153 22405 net.cpp:165] Memory required for data: 691200032
I0923 01:29:37.939158 22405 layer_factory.hpp:77] Creating layer relu3_2
I0923 01:29:37.939162 22405 net.cpp:100] Creating Layer relu3_2
I0923 01:29:37.939163 22405 net.cpp:434] relu3_2 <- conv3_2
I0923 01:29:37.939167 22405 net.cpp:395] relu3_2 -> conv3_2 (in-place)
I0923 01:29:37.939436 22405 net.cpp:150] Setting up relu3_2
I0923 01:29:37.939442 22405 net.cpp:157] Top shape: 4 256 75 75 (5760000)
I0923 01:29:37.939445 22405 net.cpp:165] Memory required for data: 714240032
I0923 01:29:37.939446 22405 layer_factory.hpp:77] Creating layer conv3_3
I0923 01:29:37.939462 22405 net.cpp:100] Creating Layer conv3_3
I0923 01:29:37.939465 22405 net.cpp:434] conv3_3 <- conv3_2
I0923 01:29:37.939469 22405 net.cpp:408] conv3_3 -> conv3_3
I0923 01:29:37.943006 22405 net.cpp:150] Setting up conv3_3
I0923 01:29:37.943015 22405 net.cpp:157] Top shape: 4 256 75 75 (5760000)
I0923 01:29:37.943017 22405 net.cpp:165] Memory required for data: 737280032
I0923 01:29:37.943022 22405 layer_factory.hpp:77] Creating layer relu3_3
I0923 01:29:37.943027 22405 net.cpp:100] Creating Layer relu3_3
I0923 01:29:37.943028 22405 net.cpp:434] relu3_3 <- conv3_3
I0923 01:29:37.943032 22405 net.cpp:395] relu3_3 -> conv3_3 (in-place)
I0923 01:29:37.943298 22405 net.cpp:150] Setting up relu3_3
I0923 01:29:37.943305 22405 net.cpp:157] Top shape: 4 256 75 75 (5760000)
I0923 01:29:37.943306 22405 net.cpp:165] Memory required for data: 760320032
I0923 01:29:37.943308 22405 layer_factory.hpp:77] Creating layer pool3
I0923 01:29:37.943312 22405 net.cpp:100] Creating Layer pool3
I0923 01:29:37.943315 22405 net.cpp:434] pool3 <- conv3_3
I0923 01:29:37.943317 22405 net.cpp:408] pool3 -> pool3
I0923 01:29:37.943346 22405 net.cpp:150] Setting up pool3
I0923 01:29:37.943351 22405 net.cpp:157] Top shape: 4 256 38 38 (1478656)
I0923 01:29:37.943352 22405 net.cpp:165] Memory required for data: 766234656
I0923 01:29:37.943354 22405 layer_factory.hpp:77] Creating layer conv4_1
I0923 01:29:37.943359 22405 net.cpp:100] Creating Layer conv4_1
I0923 01:29:37.943361 22405 net.cpp:434] conv4_1 <- pool3
I0923 01:29:37.943364 22405 net.cpp:408] conv4_1 -> conv4_1
I0923 01:29:37.949522 22405 net.cpp:150] Setting up conv4_1
I0923 01:29:37.949537 22405 net.cpp:157] Top shape: 4 512 38 38 (2957312)
I0923 01:29:37.949539 22405 net.cpp:165] Memory required for data: 778063904
I0923 01:29:37.949545 22405 layer_factory.hpp:77] Creating layer relu4_1
I0923 01:29:37.949551 22405 net.cpp:100] Creating Layer relu4_1
I0923 01:29:37.949554 22405 net.cpp:434] relu4_1 <- conv4_1
I0923 01:29:37.949558 22405 net.cpp:395] relu4_1 -> conv4_1 (in-place)
I0923 01:29:37.949924 22405 net.cpp:150] Setting up relu4_1
I0923 01:29:37.949930 22405 net.cpp:157] Top shape: 4 512 38 38 (2957312)
I0923 01:29:37.949932 22405 net.cpp:165] Memory required for data: 789893152
I0923 01:29:37.949934 22405 layer_factory.hpp:77] Creating layer conv4_2
I0923 01:29:37.949941 22405 net.cpp:100] Creating Layer conv4_2
I0923 01:29:37.949944 22405 net.cpp:434] conv4_2 <- conv4_1
I0923 01:29:37.949947 22405 net.cpp:408] conv4_2 -> conv4_2
I0923 01:29:37.960021 22405 net.cpp:150] Setting up conv4_2
I0923 01:29:37.960038 22405 net.cpp:157] Top shape: 4 512 38 38 (2957312)
I0923 01:29:37.960041 22405 net.cpp:165] Memory required for data: 801722400
I0923 01:29:37.960049 22405 layer_factory.hpp:77] Creating layer relu4_2
I0923 01:29:37.960057 22405 net.cpp:100] Creating Layer relu4_2
I0923 01:29:37.960059 22405 net.cpp:434] relu4_2 <- conv4_2
I0923 01:29:37.960063 22405 net.cpp:395] relu4_2 -> conv4_2 (in-place)
I0923 01:29:37.960340 22405 net.cpp:150] Setting up relu4_2
I0923 01:29:37.960345 22405 net.cpp:157] Top shape: 4 512 38 38 (2957312)
I0923 01:29:37.960346 22405 net.cpp:165] Memory required for data: 813551648
I0923 01:29:37.960348 22405 layer_factory.hpp:77] Creating layer conv4_3
I0923 01:29:37.960355 22405 net.cpp:100] Creating Layer conv4_3
I0923 01:29:37.960357 22405 net.cpp:434] conv4_3 <- conv4_2
I0923 01:29:37.960361 22405 net.cpp:408] conv4_3 -> conv4_3
I0923 01:29:37.970489 22405 net.cpp:150] Setting up conv4_3
I0923 01:29:37.970504 22405 net.cpp:157] Top shape: 4 512 38 38 (2957312)
I0923 01:29:37.970506 22405 net.cpp:165] Memory required for data: 825380896
I0923 01:29:37.970511 22405 layer_factory.hpp:77] Creating layer relu4_3
I0923 01:29:37.970517 22405 net.cpp:100] Creating Layer relu4_3
I0923 01:29:37.970520 22405 net.cpp:434] relu4_3 <- conv4_3
I0923 01:29:37.970523 22405 net.cpp:395] relu4_3 -> conv4_3 (in-place)
I0923 01:29:37.970911 22405 net.cpp:150] Setting up relu4_3
I0923 01:29:37.970918 22405 net.cpp:157] Top shape: 4 512 38 38 (2957312)
I0923 01:29:37.970928 22405 net.cpp:165] Memory required for data: 837210144
I0923 01:29:37.970930 22405 layer_factory.hpp:77] Creating layer conv4_3_relu4_3_0_split
I0923 01:29:37.970937 22405 net.cpp:100] Creating Layer conv4_3_relu4_3_0_split
I0923 01:29:37.970938 22405 net.cpp:434] conv4_3_relu4_3_0_split <- conv4_3
I0923 01:29:37.970942 22405 net.cpp:408] conv4_3_relu4_3_0_split -> conv4_3_relu4_3_0_split_0
I0923 01:29:37.970948 22405 net.cpp:408] conv4_3_relu4_3_0_split -> conv4_3_relu4_3_0_split_1
I0923 01:29:37.970981 22405 net.cpp:150] Setting up conv4_3_relu4_3_0_split
I0923 01:29:37.970985 22405 net.cpp:157] Top shape: 4 512 38 38 (2957312)
I0923 01:29:37.970988 22405 net.cpp:157] Top shape: 4 512 38 38 (2957312)
I0923 01:29:37.970989 22405 net.cpp:165] Memory required for data: 860868640
I0923 01:29:37.970991 22405 layer_factory.hpp:77] Creating layer pool4
I0923 01:29:37.970996 22405 net.cpp:100] Creating Layer pool4
I0923 01:29:37.970999 22405 net.cpp:434] pool4 <- conv4_3_relu4_3_0_split_0
I0923 01:29:37.971004 22405 net.cpp:408] pool4 -> pool4
I0923 01:29:37.971033 22405 net.cpp:150] Setting up pool4
I0923 01:29:37.971036 22405 net.cpp:157] Top shape: 4 512 19 19 (739328)
I0923 01:29:37.971038 22405 net.cpp:165] Memory required for data: 863825952
I0923 01:29:37.971040 22405 layer_factory.hpp:77] Creating layer conv5_1
I0923 01:29:37.971046 22405 net.cpp:100] Creating Layer conv5_1
I0923 01:29:37.971048 22405 net.cpp:434] conv5_1 <- pool4
I0923 01:29:37.971052 22405 net.cpp:408] conv5_1 -> conv5_1
I0923 01:29:37.981293 22405 net.cpp:150] Setting up conv5_1
I0923 01:29:37.981310 22405 net.cpp:157] Top shape: 4 512 19 19 (739328)
I0923 01:29:37.981312 22405 net.cpp:165] Memory required for data: 866783264
I0923 01:29:37.981318 22405 layer_factory.hpp:77] Creating layer relu5_1
I0923 01:29:37.981324 22405 net.cpp:100] Creating Layer relu5_1
I0923 01:29:37.981328 22405 net.cpp:434] relu5_1 <- conv5_1
I0923 01:29:37.981333 22405 net.cpp:395] relu5_1 -> conv5_1 (in-place)
I0923 01:29:37.981652 22405 net.cpp:150] Setting up relu5_1
I0923 01:29:37.981657 22405 net.cpp:157] Top shape: 4 512 19 19 (739328)
I0923 01:29:37.981659 22405 net.cpp:165] Memory required for data: 869740576
I0923 01:29:37.981662 22405 layer_factory.hpp:77] Creating layer conv5_2
I0923 01:29:37.981667 22405 net.cpp:100] Creating Layer conv5_2
I0923 01:29:37.981672 22405 net.cpp:434] conv5_2 <- conv5_1
I0923 01:29:37.981674 22405 net.cpp:408] conv5_2 -> conv5_2
I0923 01:29:37.991888 22405 net.cpp:150] Setting up conv5_2
I0923 01:29:37.991905 22405 net.cpp:157] Top shape: 4 512 19 19 (739328)
I0923 01:29:37.991909 22405 net.cpp:165] Memory required for data: 872697888
I0923 01:29:37.991914 22405 layer_factory.hpp:77] Creating layer relu5_2
I0923 01:29:37.991919 22405 net.cpp:100] Creating Layer relu5_2
I0923 01:29:37.991922 22405 net.cpp:434] relu5_2 <- conv5_2
I0923 01:29:37.991926 22405 net.cpp:395] relu5_2 -> conv5_2 (in-place)
I0923 01:29:37.992204 22405 net.cpp:150] Setting up relu5_2
I0923 01:29:37.992210 22405 net.cpp:157] Top shape: 4 512 19 19 (739328)
I0923 01:29:37.992213 22405 net.cpp:165] Memory required for data: 875655200
I0923 01:29:37.992215 22405 layer_factory.hpp:77] Creating layer conv5_3
I0923 01:29:37.992221 22405 net.cpp:100] Creating Layer conv5_3
I0923 01:29:37.992223 22405 net.cpp:434] conv5_3 <- conv5_2
I0923 01:29:37.992228 22405 net.cpp:408] conv5_3 -> conv5_3
I0923 01:29:38.002357 22405 net.cpp:150] Setting up conv5_3
I0923 01:29:38.002374 22405 net.cpp:157] Top shape: 4 512 19 19 (739328)
I0923 01:29:38.002377 22405 net.cpp:165] Memory required for data: 878612512
I0923 01:29:38.002382 22405 layer_factory.hpp:77] Creating layer relu5_3
I0923 01:29:38.002393 22405 net.cpp:100] Creating Layer relu5_3
I0923 01:29:38.002395 22405 net.cpp:434] relu5_3 <- conv5_3
I0923 01:29:38.002399 22405 net.cpp:395] relu5_3 -> conv5_3 (in-place)
I0923 01:29:38.002776 22405 net.cpp:150] Setting up relu5_3
I0923 01:29:38.002784 22405 net.cpp:157] Top shape: 4 512 19 19 (739328)
I0923 01:29:38.002785 22405 net.cpp:165] Memory required for data: 881569824
I0923 01:29:38.002796 22405 layer_factory.hpp:77] Creating layer pool5
I0923 01:29:38.002801 22405 net.cpp:100] Creating Layer pool5
I0923 01:29:38.002804 22405 net.cpp:434] pool5 <- conv5_3
I0923 01:29:38.002807 22405 net.cpp:408] pool5 -> pool5
I0923 01:29:38.002840 22405 net.cpp:150] Setting up pool5
I0923 01:29:38.002845 22405 net.cpp:157] Top shape: 4 512 19 19 (739328)
I0923 01:29:38.002846 22405 net.cpp:165] Memory required for data: 884527136
I0923 01:29:38.002848 22405 layer_factory.hpp:77] Creating layer fc6
I0923 01:29:38.002854 22405 net.cpp:100] Creating Layer fc6
I0923 01:29:38.002856 22405 net.cpp:434] fc6 <- pool5
I0923 01:29:38.002861 22405 net.cpp:408] fc6 -> fc6
I0923 01:29:38.020722 22405 net.cpp:150] Setting up fc6
I0923 01:29:38.020738 22405 net.cpp:157] Top shape: 4 1024 19 19 (1478656)
I0923 01:29:38.020740 22405 net.cpp:165] Memory required for data: 890441760
I0923 01:29:38.020746 22405 layer_factory.hpp:77] Creating layer relu6
I0923 01:29:38.020752 22405 net.cpp:100] Creating Layer relu6
I0923 01:29:38.020754 22405 net.cpp:434] relu6 <- fc6
I0923 01:29:38.020759 22405 net.cpp:395] relu6 -> fc6 (in-place)
I0923 01:29:38.021090 22405 net.cpp:150] Setting up relu6
I0923 01:29:38.021096 22405 net.cpp:157] Top shape: 4 1024 19 19 (1478656)
I0923 01:29:38.021098 22405 net.cpp:165] Memory required for data: 896356384
I0923 01:29:38.021100 22405 layer_factory.hpp:77] Creating layer fc7
I0923 01:29:38.021106 22405 net.cpp:100] Creating Layer fc7
I0923 01:29:38.021108 22405 net.cpp:434] fc7 <- fc6
I0923 01:29:38.021112 22405 net.cpp:408] fc7 -> fc7
I0923 01:29:38.026302 22405 net.cpp:150] Setting up fc7
I0923 01:29:38.026314 22405 net.cpp:157] Top shape: 4 1024 19 19 (1478656)
I0923 01:29:38.026316 22405 net.cpp:165] Memory required for data: 902271008
I0923 01:29:38.026321 22405 layer_factory.hpp:77] Creating layer relu7
I0923 01:29:38.026327 22405 net.cpp:100] Creating Layer relu7
I0923 01:29:38.026329 22405 net.cpp:434] relu7 <- fc7
I0923 01:29:38.026334 22405 net.cpp:395] relu7 -> fc7 (in-place)
I0923 01:29:38.026607 22405 net.cpp:150] Setting up relu7
I0923 01:29:38.026613 22405 net.cpp:157] Top shape: 4 1024 19 19 (1478656)
I0923 01:29:38.026615 22405 net.cpp:165] Memory required for data: 908185632
I0923 01:29:38.026618 22405 layer_factory.hpp:77] Creating layer fc7_relu7_0_split
I0923 01:29:38.026623 22405 net.cpp:100] Creating Layer fc7_relu7_0_split
I0923 01:29:38.026623 22405 net.cpp:434] fc7_relu7_0_split <- fc7
I0923 01:29:38.026628 22405 net.cpp:408] fc7_relu7_0_split -> fc7_relu7_0_split_0
I0923 01:29:38.026631 22405 net.cpp:408] fc7_relu7_0_split -> fc7_relu7_0_split_1
I0923 01:29:38.026639 22405 net.cpp:408] fc7_relu7_0_split -> fc7_relu7_0_split_2
I0923 01:29:38.026646 22405 net.cpp:408] fc7_relu7_0_split -> fc7_relu7_0_split_3
I0923 01:29:38.026695 22405 net.cpp:150] Setting up fc7_relu7_0_split
I0923 01:29:38.026698 22405 net.cpp:157] Top shape: 4 1024 19 19 (1478656)
I0923 01:29:38.026701 22405 net.cpp:157] Top shape: 4 1024 19 19 (1478656)
I0923 01:29:38.026713 22405 net.cpp:157] Top shape: 4 1024 19 19 (1478656)
I0923 01:29:38.026715 22405 net.cpp:157] Top shape: 4 1024 19 19 (1478656)
I0923 01:29:38.026717 22405 net.cpp:165] Memory required for data: 931844128
I0923 01:29:38.026720 22405 layer_factory.hpp:77] Creating layer conv6_1
I0923 01:29:38.026726 22405 net.cpp:100] Creating Layer conv6_1
I0923 01:29:38.026728 22405 net.cpp:434] conv6_1 <- fc7_relu7_0_split_0
I0923 01:29:38.026736 22405 net.cpp:408] conv6_1 -> conv6_1
I0923 01:29:38.029278 22405 net.cpp:150] Setting up conv6_1
I0923 01:29:38.029286 22405 net.cpp:157] Top shape: 4 256 19 19 (369664)
I0923 01:29:38.029289 22405 net.cpp:165] Memory required for data: 933322784
I0923 01:29:38.029294 22405 layer_factory.hpp:77] Creating layer conv6_1_relu
I0923 01:29:38.029296 22405 net.cpp:100] Creating Layer conv6_1_relu
I0923 01:29:38.029299 22405 net.cpp:434] conv6_1_relu <- conv6_1
I0923 01:29:38.029301 22405 net.cpp:395] conv6_1_relu -> conv6_1 (in-place)
I0923 01:29:38.029573 22405 net.cpp:150] Setting up conv6_1_relu
I0923 01:29:38.029585 22405 net.cpp:157] Top shape: 4 256 19 19 (369664)
I0923 01:29:38.029587 22405 net.cpp:165] Memory required for data: 934801440
I0923 01:29:38.029589 22405 layer_factory.hpp:77] Creating layer conv6_2
I0923 01:29:38.029595 22405 net.cpp:100] Creating Layer conv6_2
I0923 01:29:38.029597 22405 net.cpp:434] conv6_2 <- conv6_1
I0923 01:29:38.029601 22405 net.cpp:408] conv6_2 -> conv6_2
I0923 01:29:38.035305 22405 net.cpp:150] Setting up conv6_2
I0923 01:29:38.035320 22405 net.cpp:157] Top shape: 4 512 10 10 (204800)
I0923 01:29:38.035322 22405 net.cpp:165] Memory required for data: 935620640
I0923 01:29:38.035331 22405 layer_factory.hpp:77] Creating layer conv6_2_relu
I0923 01:29:38.035336 22405 net.cpp:100] Creating Layer conv6_2_relu
I0923 01:29:38.035339 22405 net.cpp:434] conv6_2_relu <- conv6_2
I0923 01:29:38.035344 22405 net.cpp:395] conv6_2_relu -> conv6_2 (in-place)
I0923 01:29:38.035730 22405 net.cpp:150] Setting up conv6_2_relu
I0923 01:29:38.035737 22405 net.cpp:157] Top shape: 4 512 10 10 (204800)
I0923 01:29:38.035739 22405 net.cpp:165] Memory required for data: 936439840
I0923 01:29:38.035742 22405 layer_factory.hpp:77] Creating layer conv6_2_conv6_2_relu_0_split
I0923 01:29:38.035746 22405 net.cpp:100] Creating Layer conv6_2_conv6_2_relu_0_split
I0923 01:29:38.035748 22405 net.cpp:434] conv6_2_conv6_2_relu_0_split <- conv6_2
I0923 01:29:38.035751 22405 net.cpp:408] conv6_2_conv6_2_relu_0_split -> conv6_2_conv6_2_relu_0_split_0
I0923 01:29:38.035756 22405 net.cpp:408] conv6_2_conv6_2_relu_0_split -> conv6_2_conv6_2_relu_0_split_1
I0923 01:29:38.035760 22405 net.cpp:408] conv6_2_conv6_2_relu_0_split -> conv6_2_conv6_2_relu_0_split_2
I0923 01:29:38.035764 22405 net.cpp:408] conv6_2_conv6_2_relu_0_split -> conv6_2_conv6_2_relu_0_split_3
I0923 01:29:38.035812 22405 net.cpp:150] Setting up conv6_2_conv6_2_relu_0_split
I0923 01:29:38.035817 22405 net.cpp:157] Top shape: 4 512 10 10 (204800)
I0923 01:29:38.035820 22405 net.cpp:157] Top shape: 4 512 10 10 (204800)
I0923 01:29:38.035821 22405 net.cpp:157] Top shape: 4 512 10 10 (204800)
I0923 01:29:38.035825 22405 net.cpp:157] Top shape: 4 512 10 10 (204800)
I0923 01:29:38.035825 22405 net.cpp:165] Memory required for data: 939716640
I0923 01:29:38.035827 22405 layer_factory.hpp:77] Creating layer conv7_1
I0923 01:29:38.035833 22405 net.cpp:100] Creating Layer conv7_1
I0923 01:29:38.035835 22405 net.cpp:434] conv7_1 <- conv6_2_conv6_2_relu_0_split_0
I0923 01:29:38.035840 22405 net.cpp:408] conv7_1 -> conv7_1
I0923 01:29:38.037178 22405 net.cpp:150] Setting up conv7_1
I0923 01:29:38.037184 22405 net.cpp:157] Top shape: 4 128 10 10 (51200)
I0923 01:29:38.037186 22405 net.cpp:165] Memory required for data: 939921440
I0923 01:29:38.037189 22405 layer_factory.hpp:77] Creating layer conv7_1_relu
I0923 01:29:38.037194 22405 net.cpp:100] Creating Layer conv7_1_relu
I0923 01:29:38.037195 22405 net.cpp:434] conv7_1_relu <- conv7_1
I0923 01:29:38.037199 22405 net.cpp:395] conv7_1_relu -> conv7_1 (in-place)
I0923 01:29:38.037469 22405 net.cpp:150] Setting up conv7_1_relu
I0923 01:29:38.037475 22405 net.cpp:157] Top shape: 4 128 10 10 (51200)
I0923 01:29:38.037477 22405 net.cpp:165] Memory required for data: 940126240
I0923 01:29:38.037479 22405 layer_factory.hpp:77] Creating layer conv7_2
I0923 01:29:38.037484 22405 net.cpp:100] Creating Layer conv7_2
I0923 01:29:38.037487 22405 net.cpp:434] conv7_2 <- conv7_1
I0923 01:29:38.037490 22405 net.cpp:408] conv7_2 -> conv7_2
I0923 01:29:38.039933 22405 net.cpp:150] Setting up conv7_2
I0923 01:29:38.039942 22405 net.cpp:157] Top shape: 4 256 5 5 (25600)
I0923 01:29:38.039942 22405 net.cpp:165] Memory required for data: 940228640
I0923 01:29:38.039947 22405 layer_factory.hpp:77] Creating layer conv7_2_relu
I0923 01:29:38.039952 22405 net.cpp:100] Creating Layer conv7_2_relu
I0923 01:29:38.039953 22405 net.cpp:434] conv7_2_relu <- conv7_2
I0923 01:29:38.039957 22405 net.cpp:395] conv7_2_relu -> conv7_2 (in-place)
I0923 01:29:38.040324 22405 net.cpp:150] Setting up conv7_2_relu
I0923 01:29:38.040331 22405 net.cpp:157] Top shape: 4 256 5 5 (25600)
I0923 01:29:38.040341 22405 net.cpp:165] Memory required for data: 940331040
I0923 01:29:38.040343 22405 layer_factory.hpp:77] Creating layer conv7_2_conv7_2_relu_0_split
I0923 01:29:38.040347 22405 net.cpp:100] Creating Layer conv7_2_conv7_2_relu_0_split
I0923 01:29:38.040349 22405 net.cpp:434] conv7_2_conv7_2_relu_0_split <- conv7_2
I0923 01:29:38.040354 22405 net.cpp:408] conv7_2_conv7_2_relu_0_split -> conv7_2_conv7_2_relu_0_split_0
I0923 01:29:38.040359 22405 net.cpp:408] conv7_2_conv7_2_relu_0_split -> conv7_2_conv7_2_relu_0_split_1
I0923 01:29:38.040364 22405 net.cpp:408] conv7_2_conv7_2_relu_0_split -> conv7_2_conv7_2_relu_0_split_2
I0923 01:29:38.040371 22405 net.cpp:408] conv7_2_conv7_2_relu_0_split -> conv7_2_conv7_2_relu_0_split_3
I0923 01:29:38.040421 22405 net.cpp:150] Setting up conv7_2_conv7_2_relu_0_split
I0923 01:29:38.040424 22405 net.cpp:157] Top shape: 4 256 5 5 (25600)
I0923 01:29:38.040426 22405 net.cpp:157] Top shape: 4 256 5 5 (25600)
I0923 01:29:38.040429 22405 net.cpp:157] Top shape: 4 256 5 5 (25600)
I0923 01:29:38.040431 22405 net.cpp:157] Top shape: 4 256 5 5 (25600)
I0923 01:29:38.040433 22405 net.cpp:165] Memory required for data: 940740640
I0923 01:29:38.040434 22405 layer_factory.hpp:77] Creating layer conv8_1
I0923 01:29:38.040441 22405 net.cpp:100] Creating Layer conv8_1
I0923 01:29:38.040442 22405 net.cpp:434] conv8_1 <- conv7_2_conv7_2_relu_0_split_0
I0923 01:29:38.040447 22405 net.cpp:408] conv8_1 -> conv8_1
I0923 01:29:38.041641 22405 net.cpp:150] Setting up conv8_1
I0923 01:29:38.041648 22405 net.cpp:157] Top shape: 4 128 5 5 (12800)
I0923 01:29:38.041651 22405 net.cpp:165] Memory required for data: 940791840
I0923 01:29:38.041654 22405 layer_factory.hpp:77] Creating layer conv8_1_relu
I0923 01:29:38.041657 22405 net.cpp:100] Creating Layer conv8_1_relu
I0923 01:29:38.041659 22405 net.cpp:434] conv8_1_relu <- conv8_1
I0923 01:29:38.041662 22405 net.cpp:395] conv8_1_relu -> conv8_1 (in-place)
I0923 01:29:38.041932 22405 net.cpp:150] Setting up conv8_1_relu
I0923 01:29:38.041939 22405 net.cpp:157] Top shape: 4 128 5 5 (12800)
I0923 01:29:38.041940 22405 net.cpp:165] Memory required for data: 940843040
I0923 01:29:38.041941 22405 layer_factory.hpp:77] Creating layer conv8_2
I0923 01:29:38.041947 22405 net.cpp:100] Creating Layer conv8_2
I0923 01:29:38.041949 22405 net.cpp:434] conv8_2 <- conv8_1
I0923 01:29:38.041954 22405 net.cpp:408] conv8_2 -> conv8_2
I0923 01:29:38.044620 22405 net.cpp:150] Setting up conv8_2
I0923 01:29:38.044627 22405 net.cpp:157] Top shape: 4 256 3 3 (9216)
I0923 01:29:38.044628 22405 net.cpp:165] Memory required for data: 940879904
I0923 01:29:38.044633 22405 layer_factory.hpp:77] Creating layer conv8_2_relu
I0923 01:29:38.044637 22405 net.cpp:100] Creating Layer conv8_2_relu
I0923 01:29:38.044639 22405 net.cpp:434] conv8_2_relu <- conv8_2
I0923 01:29:38.044642 22405 net.cpp:395] conv8_2_relu -> conv8_2 (in-place)
I0923 01:29:38.044917 22405 net.cpp:150] Setting up conv8_2_relu
I0923 01:29:38.044924 22405 net.cpp:157] Top shape: 4 256 3 3 (9216)
I0923 01:29:38.044925 22405 net.cpp:165] Memory required for data: 940916768
I0923 01:29:38.044927 22405 layer_factory.hpp:77] Creating layer conv8_2_conv8_2_relu_0_split
I0923 01:29:38.044931 22405 net.cpp:100] Creating Layer conv8_2_conv8_2_relu_0_split
I0923 01:29:38.044934 22405 net.cpp:434] conv8_2_conv8_2_relu_0_split <- conv8_2
I0923 01:29:38.044937 22405 net.cpp:408] conv8_2_conv8_2_relu_0_split -> conv8_2_conv8_2_relu_0_split_0
I0923 01:29:38.044941 22405 net.cpp:408] conv8_2_conv8_2_relu_0_split -> conv8_2_conv8_2_relu_0_split_1
I0923 01:29:38.044945 22405 net.cpp:408] conv8_2_conv8_2_relu_0_split -> conv8_2_conv8_2_relu_0_split_2
I0923 01:29:38.044948 22405 net.cpp:408] conv8_2_conv8_2_relu_0_split -> conv8_2_conv8_2_relu_0_split_3
I0923 01:29:38.044997 22405 net.cpp:150] Setting up conv8_2_conv8_2_relu_0_split
I0923 01:29:38.045001 22405 net.cpp:157] Top shape: 4 256 3 3 (9216)
I0923 01:29:38.045004 22405 net.cpp:157] Top shape: 4 256 3 3 (9216)
I0923 01:29:38.045006 22405 net.cpp:157] Top shape: 4 256 3 3 (9216)
I0923 01:29:38.045015 22405 net.cpp:157] Top shape: 4 256 3 3 (9216)
I0923 01:29:38.045017 22405 net.cpp:165] Memory required for data: 941064224
I0923 01:29:38.045018 22405 layer_factory.hpp:77] Creating layer conv9_1
I0923 01:29:38.045024 22405 net.cpp:100] Creating Layer conv9_1
I0923 01:29:38.045027 22405 net.cpp:434] conv9_1 <- conv8_2_conv8_2_relu_0_split_0
I0923 01:29:38.045033 22405 net.cpp:408] conv9_1 -> conv9_1
I0923 01:29:38.046231 22405 net.cpp:150] Setting up conv9_1
I0923 01:29:38.046238 22405 net.cpp:157] Top shape: 4 128 3 3 (4608)
I0923 01:29:38.046241 22405 net.cpp:165] Memory required for data: 941082656
I0923 01:29:38.046244 22405 layer_factory.hpp:77] Creating layer conv9_1_relu
I0923 01:29:38.046247 22405 net.cpp:100] Creating Layer conv9_1_relu
I0923 01:29:38.046249 22405 net.cpp:434] conv9_1_relu <- conv9_1
I0923 01:29:38.046253 22405 net.cpp:395] conv9_1_relu -> conv9_1 (in-place)
I0923 01:29:38.046623 22405 net.cpp:150] Setting up conv9_1_relu
I0923 01:29:38.046630 22405 net.cpp:157] Top shape: 4 128 3 3 (4608)
I0923 01:29:38.046633 22405 net.cpp:165] Memory required for data: 941101088
I0923 01:29:38.046634 22405 layer_factory.hpp:77] Creating layer conv9_2
I0923 01:29:38.046639 22405 net.cpp:100] Creating Layer conv9_2
I0923 01:29:38.046643 22405 net.cpp:434] conv9_2 <- conv9_1
I0923 01:29:38.046646 22405 net.cpp:408] conv9_2 -> conv9_2
I0923 01:29:38.049196 22405 net.cpp:150] Setting up conv9_2
I0923 01:29:38.049204 22405 net.cpp:157] Top shape: 4 256 1 1 (1024)
I0923 01:29:38.049206 22405 net.cpp:165] Memory required for data: 941105184
I0923 01:29:38.049211 22405 layer_factory.hpp:77] Creating layer conv9_2_relu
I0923 01:29:38.049216 22405 net.cpp:100] Creating Layer conv9_2_relu
I0923 01:29:38.049217 22405 net.cpp:434] conv9_2_relu <- conv9_2
I0923 01:29:38.049221 22405 net.cpp:395] conv9_2_relu -> conv9_2 (in-place)
I0923 01:29:38.049501 22405 net.cpp:150] Setting up conv9_2_relu
I0923 01:29:38.049507 22405 net.cpp:157] Top shape: 4 256 1 1 (1024)
I0923 01:29:38.049510 22405 net.cpp:165] Memory required for data: 941109280
I0923 01:29:38.049511 22405 layer_factory.hpp:77] Creating layer conv9_2_conv9_2_relu_0_split
I0923 01:29:38.049515 22405 net.cpp:100] Creating Layer conv9_2_conv9_2_relu_0_split
I0923 01:29:38.049517 22405 net.cpp:434] conv9_2_conv9_2_relu_0_split <- conv9_2
I0923 01:29:38.049520 22405 net.cpp:408] conv9_2_conv9_2_relu_0_split -> conv9_2_conv9_2_relu_0_split_0
I0923 01:29:38.049525 22405 net.cpp:408] conv9_2_conv9_2_relu_0_split -> conv9_2_conv9_2_relu_0_split_1
I0923 01:29:38.049528 22405 net.cpp:408] conv9_2_conv9_2_relu_0_split -> conv9_2_conv9_2_relu_0_split_2
I0923 01:29:38.049569 22405 net.cpp:150] Setting up conv9_2_conv9_2_relu_0_split
I0923 01:29:38.049573 22405 net.cpp:157] Top shape: 4 256 1 1 (1024)
I0923 01:29:38.049576 22405 net.cpp:157] Top shape: 4 256 1 1 (1024)
I0923 01:29:38.049577 22405 net.cpp:157] Top shape: 4 256 1 1 (1024)
I0923 01:29:38.049579 22405 net.cpp:165] Memory required for data: 941121568
I0923 01:29:38.049582 22405 layer_factory.hpp:77] Creating layer conv4_3_norm
I0923 01:29:38.049587 22405 net.cpp:100] Creating Layer conv4_3_norm
I0923 01:29:38.049592 22405 net.cpp:434] conv4_3_norm <- conv4_3_relu4_3_0_split_1
I0923 01:29:38.049597 22405 net.cpp:408] conv4_3_norm -> conv4_3_norm
I0923 01:29:38.049716 22405 net.cpp:150] Setting up conv4_3_norm
I0923 01:29:38.049721 22405 net.cpp:157] Top shape: 4 512 38 38 (2957312)
I0923 01:29:38.049722 22405 net.cpp:165] Memory required for data: 952950816
I0923 01:29:38.049726 22405 layer_factory.hpp:77] Creating layer conv4_3_norm_conv4_3_norm_0_split
I0923 01:29:38.049729 22405 net.cpp:100] Creating Layer conv4_3_norm_conv4_3_norm_0_split
I0923 01:29:38.049731 22405 net.cpp:434] conv4_3_norm_conv4_3_norm_0_split <- conv4_3_norm
I0923 01:29:38.049734 22405 net.cpp:408] conv4_3_norm_conv4_3_norm_0_split -> conv4_3_norm_conv4_3_norm_0_split_0
I0923 01:29:38.049738 22405 net.cpp:408] conv4_3_norm_conv4_3_norm_0_split -> conv4_3_norm_conv4_3_norm_0_split_1
I0923 01:29:38.049749 22405 net.cpp:408] conv4_3_norm_conv4_3_norm_0_split -> conv4_3_norm_conv4_3_norm_0_split_2
I0923 01:29:38.049787 22405 net.cpp:150] Setting up conv4_3_norm_conv4_3_norm_0_split
I0923 01:29:38.049790 22405 net.cpp:157] Top shape: 4 512 38 38 (2957312)
I0923 01:29:38.049793 22405 net.cpp:157] Top shape: 4 512 38 38 (2957312)
I0923 01:29:38.049795 22405 net.cpp:157] Top shape: 4 512 38 38 (2957312)
I0923 01:29:38.049798 22405 net.cpp:165] Memory required for data: 988438560
I0923 01:29:38.049798 22405 layer_factory.hpp:77] Creating layer conv4_3_norm_mbox_loc
I0923 01:29:38.049803 22405 net.cpp:100] Creating Layer conv4_3_norm_mbox_loc
I0923 01:29:38.049805 22405 net.cpp:434] conv4_3_norm_mbox_loc <- conv4_3_norm_conv4_3_norm_0_split_0
I0923 01:29:38.049809 22405 net.cpp:408] conv4_3_norm_mbox_loc -> conv4_3_norm_mbox_loc
I0923 01:29:38.051234 22405 net.cpp:150] Setting up conv4_3_norm_mbox_loc
I0923 01:29:38.051240 22405 net.cpp:157] Top shape: 4 16 38 38 (92416)
I0923 01:29:38.051242 22405 net.cpp:165] Memory required for data: 988808224
I0923 01:29:38.051246 22405 layer_factory.hpp:77] Creating layer conv4_3_norm_mbox_loc_perm
I0923 01:29:38.051251 22405 net.cpp:100] Creating Layer conv4_3_norm_mbox_loc_perm
I0923 01:29:38.051254 22405 net.cpp:434] conv4_3_norm_mbox_loc_perm <- conv4_3_norm_mbox_loc
I0923 01:29:38.051257 22405 net.cpp:408] conv4_3_norm_mbox_loc_perm -> conv4_3_norm_mbox_loc_perm
I0923 01:29:38.051334 22405 net.cpp:150] Setting up conv4_3_norm_mbox_loc_perm
I0923 01:29:38.051339 22405 net.cpp:157] Top shape: 4 38 38 16 (92416)
I0923 01:29:38.051340 22405 net.cpp:165] Memory required for data: 989177888
I0923 01:29:38.051342 22405 layer_factory.hpp:77] Creating layer conv4_3_norm_mbox_loc_flat
I0923 01:29:38.051347 22405 net.cpp:100] Creating Layer conv4_3_norm_mbox_loc_flat
I0923 01:29:38.051348 22405 net.cpp:434] conv4_3_norm_mbox_loc_flat <- conv4_3_norm_mbox_loc_perm
I0923 01:29:38.051352 22405 net.cpp:408] conv4_3_norm_mbox_loc_flat -> conv4_3_norm_mbox_loc_flat
I0923 01:29:38.051378 22405 net.cpp:150] Setting up conv4_3_norm_mbox_loc_flat
I0923 01:29:38.051383 22405 net.cpp:157] Top shape: 4 23104 (92416)
I0923 01:29:38.051383 22405 net.cpp:165] Memory required for data: 989547552
I0923 01:29:38.051385 22405 layer_factory.hpp:77] Creating layer conv4_3_norm_mbox_conf
I0923 01:29:38.051394 22405 net.cpp:100] Creating Layer conv4_3_norm_mbox_conf
I0923 01:29:38.051396 22405 net.cpp:434] conv4_3_norm_mbox_conf <- conv4_3_norm_conv4_3_norm_0_split_1
I0923 01:29:38.051399 22405 net.cpp:408] conv4_3_norm_mbox_conf -> conv4_3_norm_mbox_conf
I0923 01:29:38.054344 22405 net.cpp:150] Setting up conv4_3_norm_mbox_conf
I0923 01:29:38.054352 22405 net.cpp:157] Top shape: 4 84 38 38 (485184)
I0923 01:29:38.054355 22405 net.cpp:165] Memory required for data: 991488288
I0923 01:29:38.054359 22405 layer_factory.hpp:77] Creating layer conv4_3_norm_mbox_conf_perm
I0923 01:29:38.054364 22405 net.cpp:100] Creating Layer conv4_3_norm_mbox_conf_perm
I0923 01:29:38.054366 22405 net.cpp:434] conv4_3_norm_mbox_conf_perm <- conv4_3_norm_mbox_conf
I0923 01:29:38.054369 22405 net.cpp:408] conv4_3_norm_mbox_conf_perm -> conv4_3_norm_mbox_conf_perm
I0923 01:29:38.054448 22405 net.cpp:150] Setting up conv4_3_norm_mbox_conf_perm
I0923 01:29:38.054453 22405 net.cpp:157] Top shape: 4 38 38 84 (485184)
I0923 01:29:38.054455 22405 net.cpp:165] Memory required for data: 993429024
I0923 01:29:38.054456 22405 layer_factory.hpp:77] Creating layer conv4_3_norm_mbox_conf_flat
I0923 01:29:38.054461 22405 net.cpp:100] Creating Layer conv4_3_norm_mbox_conf_flat
I0923 01:29:38.054463 22405 net.cpp:434] conv4_3_norm_mbox_conf_flat <- conv4_3_norm_mbox_conf_perm
I0923 01:29:38.054466 22405 net.cpp:408] conv4_3_norm_mbox_conf_flat -> conv4_3_norm_mbox_conf_flat
I0923 01:29:38.054483 22405 net.cpp:150] Setting up conv4_3_norm_mbox_conf_flat
I0923 01:29:38.054487 22405 net.cpp:157] Top shape: 4 121296 (485184)
I0923 01:29:38.054489 22405 net.cpp:165] Memory required for data: 995369760
I0923 01:29:38.054491 22405 layer_factory.hpp:77] Creating layer conv4_3_norm_mbox_priorbox
I0923 01:29:38.054504 22405 net.cpp:100] Creating Layer conv4_3_norm_mbox_priorbox
I0923 01:29:38.054507 22405 net.cpp:434] conv4_3_norm_mbox_priorbox <- conv4_3_norm_conv4_3_norm_0_split_2
I0923 01:29:38.054510 22405 net.cpp:434] conv4_3_norm_mbox_priorbox <- data_data_0_split_1
I0923 01:29:38.054515 22405 net.cpp:408] conv4_3_norm_mbox_priorbox -> conv4_3_norm_mbox_priorbox
I0923 01:29:38.054544 22405 net.cpp:150] Setting up conv4_3_norm_mbox_priorbox
I0923 01:29:38.054548 22405 net.cpp:157] Top shape: 1 2 23104 (46208)
I0923 01:29:38.054553 22405 net.cpp:165] Memory required for data: 995554592
I0923 01:29:38.054554 22405 layer_factory.hpp:77] Creating layer fc7_mbox_loc
I0923 01:29:38.054563 22405 net.cpp:100] Creating Layer fc7_mbox_loc
I0923 01:29:38.054566 22405 net.cpp:434] fc7_mbox_loc <- fc7_relu7_0_split_1
I0923 01:29:38.054572 22405 net.cpp:408] fc7_mbox_loc -> fc7_mbox_loc
I0923 01:29:38.056485 22405 net.cpp:150] Setting up fc7_mbox_loc
I0923 01:29:38.056493 22405 net.cpp:157] Top shape: 4 24 19 19 (34656)
I0923 01:29:38.056495 22405 net.cpp:165] Memory required for data: 995693216
I0923 01:29:38.056500 22405 layer_factory.hpp:77] Creating layer fc7_mbox_loc_perm
I0923 01:29:38.056505 22405 net.cpp:100] Creating Layer fc7_mbox_loc_perm
I0923 01:29:38.056510 22405 net.cpp:434] fc7_mbox_loc_perm <- fc7_mbox_loc
I0923 01:29:38.056517 22405 net.cpp:408] fc7_mbox_loc_perm -> fc7_mbox_loc_perm
I0923 01:29:38.056593 22405 net.cpp:150] Setting up fc7_mbox_loc_perm
I0923 01:29:38.056597 22405 net.cpp:157] Top shape: 4 19 19 24 (34656)
I0923 01:29:38.056601 22405 net.cpp:165] Memory required for data: 995831840
I0923 01:29:38.056604 22405 layer_factory.hpp:77] Creating layer fc7_mbox_loc_flat
I0923 01:29:38.056609 22405 net.cpp:100] Creating Layer fc7_mbox_loc_flat
I0923 01:29:38.056612 22405 net.cpp:434] fc7_mbox_loc_flat <- fc7_mbox_loc_perm
I0923 01:29:38.056617 22405 net.cpp:408] fc7_mbox_loc_flat -> fc7_mbox_loc_flat
I0923 01:29:38.056635 22405 net.cpp:150] Setting up fc7_mbox_loc_flat
I0923 01:29:38.056638 22405 net.cpp:157] Top shape: 4 8664 (34656)
I0923 01:29:38.056640 22405 net.cpp:165] Memory required for data: 995970464
I0923 01:29:38.056643 22405 layer_factory.hpp:77] Creating layer fc7_mbox_conf
I0923 01:29:38.056650 22405 net.cpp:100] Creating Layer fc7_mbox_conf
I0923 01:29:38.056654 22405 net.cpp:434] fc7_mbox_conf <- fc7_relu7_0_split_2
I0923 01:29:38.056659 22405 net.cpp:408] fc7_mbox_conf -> fc7_mbox_conf
I0923 01:29:38.062407 22405 net.cpp:150] Setting up fc7_mbox_conf
I0923 01:29:38.062420 22405 net.cpp:157] Top shape: 4 126 19 19 (181944)
I0923 01:29:38.062422 22405 net.cpp:165] Memory required for data: 996698240
I0923 01:29:38.062428 22405 layer_factory.hpp:77] Creating layer fc7_mbox_conf_perm
I0923 01:29:38.062436 22405 net.cpp:100] Creating Layer fc7_mbox_conf_perm
I0923 01:29:38.062439 22405 net.cpp:434] fc7_mbox_conf_perm <- fc7_mbox_conf
I0923 01:29:38.062444 22405 net.cpp:408] fc7_mbox_conf_perm -> fc7_mbox_conf_perm
I0923 01:29:38.062530 22405 net.cpp:150] Setting up fc7_mbox_conf_perm
I0923 01:29:38.062535 22405 net.cpp:157] Top shape: 4 19 19 126 (181944)
I0923 01:29:38.062537 22405 net.cpp:165] Memory required for data: 997426016
I0923 01:29:38.062539 22405 layer_factory.hpp:77] Creating layer fc7_mbox_conf_flat
I0923 01:29:38.062546 22405 net.cpp:100] Creating Layer fc7_mbox_conf_flat
I0923 01:29:38.062548 22405 net.cpp:434] fc7_mbox_conf_flat <- fc7_mbox_conf_perm
I0923 01:29:38.062553 22405 net.cpp:408] fc7_mbox_conf_flat -> fc7_mbox_conf_flat
I0923 01:29:38.062573 22405 net.cpp:150] Setting up fc7_mbox_conf_flat
I0923 01:29:38.062577 22405 net.cpp:157] Top shape: 4 45486 (181944)
I0923 01:29:38.062580 22405 net.cpp:165] Memory required for data: 998153792
I0923 01:29:38.062584 22405 layer_factory.hpp:77] Creating layer fc7_mbox_priorbox
I0923 01:29:38.062589 22405 net.cpp:100] Creating Layer fc7_mbox_priorbox
I0923 01:29:38.062592 22405 net.cpp:434] fc7_mbox_priorbox <- fc7_relu7_0_split_3
I0923 01:29:38.062595 22405 net.cpp:434] fc7_mbox_priorbox <- data_data_0_split_2
I0923 01:29:38.062609 22405 net.cpp:408] fc7_mbox_priorbox -> fc7_mbox_priorbox
I0923 01:29:38.062631 22405 net.cpp:150] Setting up fc7_mbox_priorbox
I0923 01:29:38.062635 22405 net.cpp:157] Top shape: 1 2 8664 (17328)
I0923 01:29:38.062638 22405 net.cpp:165] Memory required for data: 998223104
I0923 01:29:38.062642 22405 layer_factory.hpp:77] Creating layer conv6_2_mbox_loc
I0923 01:29:38.062650 22405 net.cpp:100] Creating Layer conv6_2_mbox_loc
I0923 01:29:38.062654 22405 net.cpp:434] conv6_2_mbox_loc <- conv6_2_conv6_2_relu_0_split_1
I0923 01:29:38.062659 22405 net.cpp:408] conv6_2_mbox_loc -> conv6_2_mbox_loc
I0923 01:29:38.064250 22405 net.cpp:150] Setting up conv6_2_mbox_loc
I0923 01:29:38.064260 22405 net.cpp:157] Top shape: 4 24 10 10 (9600)
I0923 01:29:38.064265 22405 net.cpp:165] Memory required for data: 998261504
I0923 01:29:38.064270 22405 layer_factory.hpp:77] Creating layer conv6_2_mbox_loc_perm
I0923 01:29:38.064275 22405 net.cpp:100] Creating Layer conv6_2_mbox_loc_perm
I0923 01:29:38.064280 22405 net.cpp:434] conv6_2_mbox_loc_perm <- conv6_2_mbox_loc
I0923 01:29:38.064285 22405 net.cpp:408] conv6_2_mbox_loc_perm -> conv6_2_mbox_loc_perm
I0923 01:29:38.064363 22405 net.cpp:150] Setting up conv6_2_mbox_loc_perm
I0923 01:29:38.064369 22405 net.cpp:157] Top shape: 4 10 10 24 (9600)
I0923 01:29:38.064371 22405 net.cpp:165] Memory required for data: 998299904
I0923 01:29:38.064373 22405 layer_factory.hpp:77] Creating layer conv6_2_mbox_loc_flat
I0923 01:29:38.064376 22405 net.cpp:100] Creating Layer conv6_2_mbox_loc_flat
I0923 01:29:38.064378 22405 net.cpp:434] conv6_2_mbox_loc_flat <- conv6_2_mbox_loc_perm
I0923 01:29:38.064383 22405 net.cpp:408] conv6_2_mbox_loc_flat -> conv6_2_mbox_loc_flat
I0923 01:29:38.064400 22405 net.cpp:150] Setting up conv6_2_mbox_loc_flat
I0923 01:29:38.064405 22405 net.cpp:157] Top shape: 4 2400 (9600)
I0923 01:29:38.064409 22405 net.cpp:165] Memory required for data: 998338304
I0923 01:29:38.064411 22405 layer_factory.hpp:77] Creating layer conv6_2_mbox_conf
I0923 01:29:38.064417 22405 net.cpp:100] Creating Layer conv6_2_mbox_conf
I0923 01:29:38.064420 22405 net.cpp:434] conv6_2_mbox_conf <- conv6_2_conv6_2_relu_0_split_2
I0923 01:29:38.064425 22405 net.cpp:408] conv6_2_mbox_conf -> conv6_2_mbox_conf
I0923 01:29:38.068027 22405 net.cpp:150] Setting up conv6_2_mbox_conf
I0923 01:29:38.068037 22405 net.cpp:157] Top shape: 4 126 10 10 (50400)
I0923 01:29:38.068038 22405 net.cpp:165] Memory required for data: 998539904
I0923 01:29:38.068042 22405 layer_factory.hpp:77] Creating layer conv6_2_mbox_conf_perm
I0923 01:29:38.068048 22405 net.cpp:100] Creating Layer conv6_2_mbox_conf_perm
I0923 01:29:38.068051 22405 net.cpp:434] conv6_2_mbox_conf_perm <- conv6_2_mbox_conf
I0923 01:29:38.068055 22405 net.cpp:408] conv6_2_mbox_conf_perm -> conv6_2_mbox_conf_perm
I0923 01:29:38.068136 22405 net.cpp:150] Setting up conv6_2_mbox_conf_perm
I0923 01:29:38.068140 22405 net.cpp:157] Top shape: 4 10 10 126 (50400)
I0923 01:29:38.068141 22405 net.cpp:165] Memory required for data: 998741504
I0923 01:29:38.068143 22405 layer_factory.hpp:77] Creating layer conv6_2_mbox_conf_flat
I0923 01:29:38.068150 22405 net.cpp:100] Creating Layer conv6_2_mbox_conf_flat
I0923 01:29:38.068153 22405 net.cpp:434] conv6_2_mbox_conf_flat <- conv6_2_mbox_conf_perm
I0923 01:29:38.068158 22405 net.cpp:408] conv6_2_mbox_conf_flat -> conv6_2_mbox_conf_flat
I0923 01:29:38.068178 22405 net.cpp:150] Setting up conv6_2_mbox_conf_flat
I0923 01:29:38.068182 22405 net.cpp:157] Top shape: 4 12600 (50400)
I0923 01:29:38.068186 22405 net.cpp:165] Memory required for data: 998943104
I0923 01:29:38.068188 22405 layer_factory.hpp:77] Creating layer conv6_2_mbox_priorbox
I0923 01:29:38.068195 22405 net.cpp:100] Creating Layer conv6_2_mbox_priorbox
I0923 01:29:38.068198 22405 net.cpp:434] conv6_2_mbox_priorbox <- conv6_2_conv6_2_relu_0_split_3
I0923 01:29:38.068202 22405 net.cpp:434] conv6_2_mbox_priorbox <- data_data_0_split_3
I0923 01:29:38.068207 22405 net.cpp:408] conv6_2_mbox_priorbox -> conv6_2_mbox_priorbox
I0923 01:29:38.068233 22405 net.cpp:150] Setting up conv6_2_mbox_priorbox
I0923 01:29:38.068238 22405 net.cpp:157] Top shape: 1 2 2400 (4800)
I0923 01:29:38.068240 22405 net.cpp:165] Memory required for data: 998962304
I0923 01:29:38.068241 22405 layer_factory.hpp:77] Creating layer conv7_2_mbox_loc
I0923 01:29:38.068249 22405 net.cpp:100] Creating Layer conv7_2_mbox_loc
I0923 01:29:38.068253 22405 net.cpp:434] conv7_2_mbox_loc <- conv7_2_conv7_2_relu_0_split_1
I0923 01:29:38.068259 22405 net.cpp:408] conv7_2_mbox_loc -> conv7_2_mbox_loc
I0923 01:29:38.069658 22405 net.cpp:150] Setting up conv7_2_mbox_loc
I0923 01:29:38.069665 22405 net.cpp:157] Top shape: 4 24 5 5 (2400)
I0923 01:29:38.069669 22405 net.cpp:165] Memory required for data: 998971904
I0923 01:29:38.069675 22405 layer_factory.hpp:77] Creating layer conv7_2_mbox_loc_perm
I0923 01:29:38.069680 22405 net.cpp:100] Creating Layer conv7_2_mbox_loc_perm
I0923 01:29:38.069684 22405 net.cpp:434] conv7_2_mbox_loc_perm <- conv7_2_mbox_loc
I0923 01:29:38.069687 22405 net.cpp:408] conv7_2_mbox_loc_perm -> conv7_2_mbox_loc_perm
I0923 01:29:38.069766 22405 net.cpp:150] Setting up conv7_2_mbox_loc_perm
I0923 01:29:38.069770 22405 net.cpp:157] Top shape: 4 5 5 24 (2400)
I0923 01:29:38.069772 22405 net.cpp:165] Memory required for data: 998981504
I0923 01:29:38.069774 22405 layer_factory.hpp:77] Creating layer conv7_2_mbox_loc_flat
I0923 01:29:38.069777 22405 net.cpp:100] Creating Layer conv7_2_mbox_loc_flat
I0923 01:29:38.069780 22405 net.cpp:434] conv7_2_mbox_loc_flat <- conv7_2_mbox_loc_perm
I0923 01:29:38.069784 22405 net.cpp:408] conv7_2_mbox_loc_flat -> conv7_2_mbox_loc_flat
I0923 01:29:38.069803 22405 net.cpp:150] Setting up conv7_2_mbox_loc_flat
I0923 01:29:38.069808 22405 net.cpp:157] Top shape: 4 600 (2400)
I0923 01:29:38.069810 22405 net.cpp:165] Memory required for data: 998991104
I0923 01:29:38.069813 22405 layer_factory.hpp:77] Creating layer conv7_2_mbox_conf
I0923 01:29:38.069821 22405 net.cpp:100] Creating Layer conv7_2_mbox_conf
I0923 01:29:38.069825 22405 net.cpp:434] conv7_2_mbox_conf <- conv7_2_conv7_2_relu_0_split_2
I0923 01:29:38.069830 22405 net.cpp:408] conv7_2_mbox_conf -> conv7_2_mbox_conf
I0923 01:29:38.072403 22405 net.cpp:150] Setting up conv7_2_mbox_conf
I0923 01:29:38.072412 22405 net.cpp:157] Top shape: 4 126 5 5 (12600)
I0923 01:29:38.072414 22405 net.cpp:165] Memory required for data: 999041504
I0923 01:29:38.072418 22405 layer_factory.hpp:77] Creating layer conv7_2_mbox_conf_perm
I0923 01:29:38.072423 22405 net.cpp:100] Creating Layer conv7_2_mbox_conf_perm
I0923 01:29:38.072427 22405 net.cpp:434] conv7_2_mbox_conf_perm <- conv7_2_mbox_conf
I0923 01:29:38.072430 22405 net.cpp:408] conv7_2_mbox_conf_perm -> conv7_2_mbox_conf_perm
I0923 01:29:38.072510 22405 net.cpp:150] Setting up conv7_2_mbox_conf_perm
I0923 01:29:38.072513 22405 net.cpp:157] Top shape: 4 5 5 126 (12600)
I0923 01:29:38.072515 22405 net.cpp:165] Memory required for data: 999091904
I0923 01:29:38.072518 22405 layer_factory.hpp:77] Creating layer conv7_2_mbox_conf_flat
I0923 01:29:38.072525 22405 net.cpp:100] Creating Layer conv7_2_mbox_conf_flat
I0923 01:29:38.072528 22405 net.cpp:434] conv7_2_mbox_conf_flat <- conv7_2_mbox_conf_perm
I0923 01:29:38.072533 22405 net.cpp:408] conv7_2_mbox_conf_flat -> conv7_2_mbox_conf_flat
I0923 01:29:38.072551 22405 net.cpp:150] Setting up conv7_2_mbox_conf_flat
I0923 01:29:38.072554 22405 net.cpp:157] Top shape: 4 3150 (12600)
I0923 01:29:38.072556 22405 net.cpp:165] Memory required for data: 999142304
I0923 01:29:38.072558 22405 layer_factory.hpp:77] Creating layer conv7_2_mbox_priorbox
I0923 01:29:38.072564 22405 net.cpp:100] Creating Layer conv7_2_mbox_priorbox
I0923 01:29:38.072568 22405 net.cpp:434] conv7_2_mbox_priorbox <- conv7_2_conv7_2_relu_0_split_3
I0923 01:29:38.072573 22405 net.cpp:434] conv7_2_mbox_priorbox <- data_data_0_split_4
I0923 01:29:38.072579 22405 net.cpp:408] conv7_2_mbox_priorbox -> conv7_2_mbox_priorbox
I0923 01:29:38.072599 22405 net.cpp:150] Setting up conv7_2_mbox_priorbox
I0923 01:29:38.072602 22405 net.cpp:157] Top shape: 1 2 600 (1200)
I0923 01:29:38.072613 22405 net.cpp:165] Memory required for data: 999147104
I0923 01:29:38.072615 22405 layer_factory.hpp:77] Creating layer conv8_2_mbox_loc
I0923 01:29:38.072623 22405 net.cpp:100] Creating Layer conv8_2_mbox_loc
I0923 01:29:38.072625 22405 net.cpp:434] conv8_2_mbox_loc <- conv8_2_conv8_2_relu_0_split_1
I0923 01:29:38.072629 22405 net.cpp:408] conv8_2_mbox_loc -> conv8_2_mbox_loc
I0923 01:29:38.073894 22405 net.cpp:150] Setting up conv8_2_mbox_loc
I0923 01:29:38.073901 22405 net.cpp:157] Top shape: 4 16 3 3 (576)
I0923 01:29:38.073904 22405 net.cpp:165] Memory required for data: 999149408
I0923 01:29:38.073915 22405 layer_factory.hpp:77] Creating layer conv8_2_mbox_loc_perm
I0923 01:29:38.073920 22405 net.cpp:100] Creating Layer conv8_2_mbox_loc_perm
I0923 01:29:38.073923 22405 net.cpp:434] conv8_2_mbox_loc_perm <- conv8_2_mbox_loc
I0923 01:29:38.073927 22405 net.cpp:408] conv8_2_mbox_loc_perm -> conv8_2_mbox_loc_perm
I0923 01:29:38.074007 22405 net.cpp:150] Setting up conv8_2_mbox_loc_perm
I0923 01:29:38.074012 22405 net.cpp:157] Top shape: 4 3 3 16 (576)
I0923 01:29:38.074014 22405 net.cpp:165] Memory required for data: 999151712
I0923 01:29:38.074018 22405 layer_factory.hpp:77] Creating layer conv8_2_mbox_loc_flat
I0923 01:29:38.074023 22405 net.cpp:100] Creating Layer conv8_2_mbox_loc_flat
I0923 01:29:38.074026 22405 net.cpp:434] conv8_2_mbox_loc_flat <- conv8_2_mbox_loc_perm
I0923 01:29:38.074031 22405 net.cpp:408] conv8_2_mbox_loc_flat -> conv8_2_mbox_loc_flat
I0923 01:29:38.074049 22405 net.cpp:150] Setting up conv8_2_mbox_loc_flat
I0923 01:29:38.074054 22405 net.cpp:157] Top shape: 4 144 (576)
I0923 01:29:38.074054 22405 net.cpp:165] Memory required for data: 999154016
I0923 01:29:38.074056 22405 layer_factory.hpp:77] Creating layer conv8_2_mbox_conf
I0923 01:29:38.074064 22405 net.cpp:100] Creating Layer conv8_2_mbox_conf
I0923 01:29:38.074067 22405 net.cpp:434] conv8_2_mbox_conf <- conv8_2_conv8_2_relu_0_split_2
I0923 01:29:38.074074 22405 net.cpp:408] conv8_2_mbox_conf -> conv8_2_mbox_conf
I0923 01:29:38.075901 22405 net.cpp:150] Setting up conv8_2_mbox_conf
I0923 01:29:38.075908 22405 net.cpp:157] Top shape: 4 84 3 3 (3024)
I0923 01:29:38.075911 22405 net.cpp:165] Memory required for data: 999166112
I0923 01:29:38.075914 22405 layer_factory.hpp:77] Creating layer conv8_2_mbox_conf_perm
I0923 01:29:38.075919 22405 net.cpp:100] Creating Layer conv8_2_mbox_conf_perm
I0923 01:29:38.075922 22405 net.cpp:434] conv8_2_mbox_conf_perm <- conv8_2_mbox_conf
I0923 01:29:38.075925 22405 net.cpp:408] conv8_2_mbox_conf_perm -> conv8_2_mbox_conf_perm
I0923 01:29:38.076005 22405 net.cpp:150] Setting up conv8_2_mbox_conf_perm
I0923 01:29:38.076009 22405 net.cpp:157] Top shape: 4 3 3 84 (3024)
I0923 01:29:38.076011 22405 net.cpp:165] Memory required for data: 999178208
I0923 01:29:38.076014 22405 layer_factory.hpp:77] Creating layer conv8_2_mbox_conf_flat
I0923 01:29:38.076017 22405 net.cpp:100] Creating Layer conv8_2_mbox_conf_flat
I0923 01:29:38.076020 22405 net.cpp:434] conv8_2_mbox_conf_flat <- conv8_2_mbox_conf_perm
I0923 01:29:38.076022 22405 net.cpp:408] conv8_2_mbox_conf_flat -> conv8_2_mbox_conf_flat
I0923 01:29:38.076038 22405 net.cpp:150] Setting up conv8_2_mbox_conf_flat
I0923 01:29:38.076042 22405 net.cpp:157] Top shape: 4 756 (3024)
I0923 01:29:38.076045 22405 net.cpp:165] Memory required for data: 999190304
I0923 01:29:38.076045 22405 layer_factory.hpp:77] Creating layer conv8_2_mbox_priorbox
I0923 01:29:38.076050 22405 net.cpp:100] Creating Layer conv8_2_mbox_priorbox
I0923 01:29:38.076053 22405 net.cpp:434] conv8_2_mbox_priorbox <- conv8_2_conv8_2_relu_0_split_3
I0923 01:29:38.076056 22405 net.cpp:434] conv8_2_mbox_priorbox <- data_data_0_split_5
I0923 01:29:38.076058 22405 net.cpp:408] conv8_2_mbox_priorbox -> conv8_2_mbox_priorbox
I0923 01:29:38.076081 22405 net.cpp:150] Setting up conv8_2_mbox_priorbox
I0923 01:29:38.076084 22405 net.cpp:157] Top shape: 1 2 144 (288)
I0923 01:29:38.076087 22405 net.cpp:165] Memory required for data: 999191456
I0923 01:29:38.076097 22405 layer_factory.hpp:77] Creating layer conv9_2_mbox_loc
I0923 01:29:38.076104 22405 net.cpp:100] Creating Layer conv9_2_mbox_loc
I0923 01:29:38.076108 22405 net.cpp:434] conv9_2_mbox_loc <- conv9_2_conv9_2_relu_0_split_0
I0923 01:29:38.076114 22405 net.cpp:408] conv9_2_mbox_loc -> conv9_2_mbox_loc
I0923 01:29:38.077459 22405 net.cpp:150] Setting up conv9_2_mbox_loc
I0923 01:29:38.077466 22405 net.cpp:157] Top shape: 4 16 1 1 (64)
I0923 01:29:38.077468 22405 net.cpp:165] Memory required for data: 999191712
I0923 01:29:38.077472 22405 layer_factory.hpp:77] Creating layer conv9_2_mbox_loc_perm
I0923 01:29:38.077477 22405 net.cpp:100] Creating Layer conv9_2_mbox_loc_perm
I0923 01:29:38.077481 22405 net.cpp:434] conv9_2_mbox_loc_perm <- conv9_2_mbox_loc
I0923 01:29:38.077484 22405 net.cpp:408] conv9_2_mbox_loc_perm -> conv9_2_mbox_loc_perm
I0923 01:29:38.077560 22405 net.cpp:150] Setting up conv9_2_mbox_loc_perm
I0923 01:29:38.077564 22405 net.cpp:157] Top shape: 4 1 1 16 (64)
I0923 01:29:38.077566 22405 net.cpp:165] Memory required for data: 999191968
I0923 01:29:38.077569 22405 layer_factory.hpp:77] Creating layer conv9_2_mbox_loc_flat
I0923 01:29:38.077572 22405 net.cpp:100] Creating Layer conv9_2_mbox_loc_flat
I0923 01:29:38.077574 22405 net.cpp:434] conv9_2_mbox_loc_flat <- conv9_2_mbox_loc_perm
I0923 01:29:38.077577 22405 net.cpp:408] conv9_2_mbox_loc_flat -> conv9_2_mbox_loc_flat
I0923 01:29:38.077595 22405 net.cpp:150] Setting up conv9_2_mbox_loc_flat
I0923 01:29:38.077599 22405 net.cpp:157] Top shape: 4 16 (64)
I0923 01:29:38.077600 22405 net.cpp:165] Memory required for data: 999192224
I0923 01:29:38.077602 22405 layer_factory.hpp:77] Creating layer conv9_2_mbox_conf
I0923 01:29:38.077607 22405 net.cpp:100] Creating Layer conv9_2_mbox_conf
I0923 01:29:38.077610 22405 net.cpp:434] conv9_2_mbox_conf <- conv9_2_conv9_2_relu_0_split_1
I0923 01:29:38.077615 22405 net.cpp:408] conv9_2_mbox_conf -> conv9_2_mbox_conf
I0923 01:29:38.079524 22405 net.cpp:150] Setting up conv9_2_mbox_conf
I0923 01:29:38.079531 22405 net.cpp:157] Top shape: 4 84 1 1 (336)
I0923 01:29:38.079533 22405 net.cpp:165] Memory required for data: 999193568
I0923 01:29:38.079537 22405 layer_factory.hpp:77] Creating layer conv9_2_mbox_conf_perm
I0923 01:29:38.079542 22405 net.cpp:100] Creating Layer conv9_2_mbox_conf_perm
I0923 01:29:38.079545 22405 net.cpp:434] conv9_2_mbox_conf_perm <- conv9_2_mbox_conf
I0923 01:29:38.079550 22405 net.cpp:408] conv9_2_mbox_conf_perm -> conv9_2_mbox_conf_perm
I0923 01:29:38.079630 22405 net.cpp:150] Setting up conv9_2_mbox_conf_perm
I0923 01:29:38.079635 22405 net.cpp:157] Top shape: 4 1 1 84 (336)
I0923 01:29:38.079638 22405 net.cpp:165] Memory required for data: 999194912
I0923 01:29:38.079640 22405 layer_factory.hpp:77] Creating layer conv9_2_mbox_conf_flat
I0923 01:29:38.079643 22405 net.cpp:100] Creating Layer conv9_2_mbox_conf_flat
I0923 01:29:38.079646 22405 net.cpp:434] conv9_2_mbox_conf_flat <- conv9_2_mbox_conf_perm
I0923 01:29:38.079651 22405 net.cpp:408] conv9_2_mbox_conf_flat -> conv9_2_mbox_conf_flat
I0923 01:29:38.079671 22405 net.cpp:150] Setting up conv9_2_mbox_conf_flat
I0923 01:29:38.079675 22405 net.cpp:157] Top shape: 4 84 (336)
I0923 01:29:38.079677 22405 net.cpp:165] Memory required for data: 999196256
I0923 01:29:38.079680 22405 layer_factory.hpp:77] Creating layer conv9_2_mbox_priorbox
I0923 01:29:38.079686 22405 net.cpp:100] Creating Layer conv9_2_mbox_priorbox
I0923 01:29:38.079689 22405 net.cpp:434] conv9_2_mbox_priorbox <- conv9_2_conv9_2_relu_0_split_2
I0923 01:29:38.079691 22405 net.cpp:434] conv9_2_mbox_priorbox <- data_data_0_split_6
I0923 01:29:38.079697 22405 net.cpp:408] conv9_2_mbox_priorbox -> conv9_2_mbox_priorbox
I0923 01:29:38.079718 22405 net.cpp:150] Setting up conv9_2_mbox_priorbox
I0923 01:29:38.079722 22405 net.cpp:157] Top shape: 1 2 16 (32)
I0923 01:29:38.079725 22405 net.cpp:165] Memory required for data: 999196384
I0923 01:29:38.079728 22405 layer_factory.hpp:77] Creating layer mbox_loc
I0923 01:29:38.079733 22405 net.cpp:100] Creating Layer mbox_loc
I0923 01:29:38.079742 22405 net.cpp:434] mbox_loc <- conv4_3_norm_mbox_loc_flat
I0923 01:29:38.079746 22405 net.cpp:434] mbox_loc <- fc7_mbox_loc_flat
I0923 01:29:38.079751 22405 net.cpp:434] mbox_loc <- conv6_2_mbox_loc_flat
I0923 01:29:38.079754 22405 net.cpp:434] mbox_loc <- conv7_2_mbox_loc_flat
I0923 01:29:38.079758 22405 net.cpp:434] mbox_loc <- conv8_2_mbox_loc_flat
I0923 01:29:38.079761 22405 net.cpp:434] mbox_loc <- conv9_2_mbox_loc_flat
I0923 01:29:38.079767 22405 net.cpp:408] mbox_loc -> mbox_loc
I0923 01:29:38.079790 22405 net.cpp:150] Setting up mbox_loc
I0923 01:29:38.079794 22405 net.cpp:157] Top shape: 4 34928 (139712)
I0923 01:29:38.079797 22405 net.cpp:165] Memory required for data: 999755232
I0923 01:29:38.079802 22405 layer_factory.hpp:77] Creating layer mbox_conf
I0923 01:29:38.079804 22405 net.cpp:100] Creating Layer mbox_conf
I0923 01:29:38.079808 22405 net.cpp:434] mbox_conf <- conv4_3_norm_mbox_conf_flat
I0923 01:29:38.079811 22405 net.cpp:434] mbox_conf <- fc7_mbox_conf_flat
I0923 01:29:38.079815 22405 net.cpp:434] mbox_conf <- conv6_2_mbox_conf_flat
I0923 01:29:38.079818 22405 net.cpp:434] mbox_conf <- conv7_2_mbox_conf_flat
I0923 01:29:38.079821 22405 net.cpp:434] mbox_conf <- conv8_2_mbox_conf_flat
I0923 01:29:38.079824 22405 net.cpp:434] mbox_conf <- conv9_2_mbox_conf_flat
I0923 01:29:38.079829 22405 net.cpp:408] mbox_conf -> mbox_conf
I0923 01:29:38.079849 22405 net.cpp:150] Setting up mbox_conf
I0923 01:29:38.079852 22405 net.cpp:157] Top shape: 4 183372 (733488)
I0923 01:29:38.079855 22405 net.cpp:165] Memory required for data: 1002689184
I0923 01:29:38.079859 22405 layer_factory.hpp:77] Creating layer mbox_priorbox
I0923 01:29:38.079864 22405 net.cpp:100] Creating Layer mbox_priorbox
I0923 01:29:38.079866 22405 net.cpp:434] mbox_priorbox <- conv4_3_norm_mbox_priorbox
I0923 01:29:38.079869 22405 net.cpp:434] mbox_priorbox <- fc7_mbox_priorbox
I0923 01:29:38.079872 22405 net.cpp:434] mbox_priorbox <- conv6_2_mbox_priorbox
I0923 01:29:38.079875 22405 net.cpp:434] mbox_priorbox <- conv7_2_mbox_priorbox
I0923 01:29:38.079879 22405 net.cpp:434] mbox_priorbox <- conv8_2_mbox_priorbox
I0923 01:29:38.079880 22405 net.cpp:434] mbox_priorbox <- conv9_2_mbox_priorbox
I0923 01:29:38.079885 22405 net.cpp:408] mbox_priorbox -> mbox_priorbox
I0923 01:29:38.079905 22405 net.cpp:150] Setting up mbox_priorbox
I0923 01:29:38.079907 22405 net.cpp:157] Top shape: 1 2 34928 (69856)
I0923 01:29:38.079910 22405 net.cpp:165] Memory required for data: 1002968608
I0923 01:29:38.079915 22405 layer_factory.hpp:77] Creating layer mbox_loss
I0923 01:29:38.079922 22405 net.cpp:100] Creating Layer mbox_loss
I0923 01:29:38.079924 22405 net.cpp:434] mbox_loss <- mbox_loc
I0923 01:29:38.079927 22405 net.cpp:434] mbox_loss <- mbox_conf
I0923 01:29:38.079931 22405 net.cpp:434] mbox_loss <- mbox_priorbox
…
state {
  phase: TEST
}
layer {
  name: "data"
  type: "AnnotatedData"
  top: "data"
  top: "label"
  include {
    phase: TEST
  }
  transform_param {
    mean_value: 104
    mean_value: 117
    mean_value: 123
    resize_param {
      prob: 1
      resize_mode: WARP
      height: 300
      width: 300
      interp_mode: LINEAR
    }
  }
  data_param {
    source: "examples/VOC0712/VOC0712_test_lmdb"
    batch_size: 8
    backend: LMDB
  }
  annotated_data_param {
    batch_sampler {
    }
    label_map_file: "data/VOC0712/labelmap_voc.prototxt"
  }
}
layer {
  name: "conv1_1"
  type: "Convolution"
  bottom: "data"
  top: "conv1_1"
  param {
    lr_mult: 1
    decay_mult: 1
  }
  param {
    lr_mult: 2
    decay_mult: 0
  }
  convolution_param {
    num_output: 64
    pad: 1
    kernel_size: 3
    weight_filler {
      type: "xavier"
    }
    bias_filler {
      type: "constant"
      value: 0
    }
  }
}
layer {
  name: "relu1_1"
  type: "ReLU"
  bottom: "conv1_1"
  top: "conv1_1"
}
layer {
  name: "conv1_2"
  type: "Convolution"
  bottom: "conv1_1"
  top: "conv1_2"
  param {
    lr_mult: 1
    decay_mult: 1
  }
  param {
    lr_mult: 2
    decay_mult: 0
  }
  convolution_param {
    num_output: 64
    pad: 1
    kernel_size: 3
    weight_filler {
      type: "xavier"
    }
    bias_filler {
      type: "constant"
      value: 0
    }
  }
}
layer {
  name: "relu1_2"
  type: "ReLU"
  bottom: "conv1_2"
  top: "conv1_2"
}
layer {
  name: "pool1"
  type: "Pooling"
  bottom: "conv1_2"
  top: "pool1"
  pooling_param {
    pool: MAX
    kernel_size: 2
    stride: 2
  }
}
layer {
  name: "conv2_1"
  type: "Convolution"
  bottom: "pool1"
  top: "conv2_1"
  param {
    lr_mult: 1
    decay_mult: 1
  }
  param {
    lr_mult: 2
    decay_mult: 0
  }
  convolution_param {
    num_output: 128
    pad: 1
    kernel_size: 3
    weight_filler {
      type: "xavier"
    }
    bias_filler {
      type: "constant"
      value: 0
    }
  }
}
layer {
  name: "relu2_1"
  type: "ReLU"
  bottom: "conv2_1"
  top: "conv2_1"
}
layer {
  name: "conv2_2"
  type: "Convolution"
  bottom: "conv2_1"
  top: "conv2_2"
  param {
    lr_mult: 1
    decay_mult: 1
  }
  param {
    lr_mult: 2
    decay_mult: 0
  }
  convolution_param {
    num_output: 128
    pad: 1
    kernel_size: 3
    weight_filler {
      type: "xavier"
    }
    bias_filler {
      type: "constant"
      value: 0
    }
  }
}
layer {
  name: "relu2_2"
  type: "ReLU"
  bottom: "conv2_2"
  top: "conv2_2"
}
layer {
  name: "pool2"
  type: "Pooling"
  bottom: "conv2_2"
  top: "pool2"
  pooling_param {
    pool: MAX
    kernel_size: 2
    stride: 2
  }
}
layer {
  name: "conv3_1"
  type: "Convolution"
  bottom: "pool2"
  top: "conv3_1"
  param {
    lr_mult: 1
    decay_mult: 1
  }
  param {
    lr_mult: 2
    decay_mult: 0
  }
  convolution_param {
    num_output: 256
    pad: 1
    kernel_size: 3
    weight_filler {
      type: "xavier"
    }
    bias_filler {
      type: "constant"
      value: 0
    }
  }
}
layer {
  name: "relu3_1"
  type: "ReLU"
  bottom: "conv3_1"
  top: "conv3_1"
}
layer {
  name: "conv3_2"
  type: "Convolution"
  bottom: "conv3_1"
  top: "conv3_2"
  param {
    lr_mult: 1
    decay_mult: 1
  }
  param {
    lr_mult: 2
    decay_mult: 0
  }
  convolution_param {
    num_output: 256
    pad: 1
    kernel_size: 3
    weight_filler {
      type: "xavier"
    }
    bias_filler {
      type: "constant"
      value: 0
    }
  }
}
layer {
  name: "relu3_2"
  type: "ReLU"
  bottom: "conv3_2"
  top: "conv3_2"
}
layer {
  name: "conv3_3"
  type: "Convolution"
  bottom: "conv3_2"
  top: "conv3_3"
  param {
    lr_mult: 1
    decay_mult: 1
  }
  param {
    lr_mult: 2
    decay_mult: 0
  }
  convolution_param {
    num_output: 256
    pad: 1
    kernel_size: 3
    weight_filler {
      type: "xavier"
    }
    bias_filler {
      type: "constant"
      value: 0
    }
  }
}
layer {
  name: "relu3_3"
  type: "ReLU"
  bottom: "conv3_3"
  top: "conv3_3"
}
layer {
  name: "pool3"
  type: "Pooling"
  bottom: "conv3_3"
  top: "pool3"
  pooling_param {
    pool: MAX
    kernel_size: 2
    stride: 2
  }
}
layer {
  name: "conv4_1"
  type: "Convolution"
  bottom: "pool3"
  top: "conv4_1"
  param {
    lr_mult: 1
    decay_mult: 1
  }
  param {
    lr_mult: 2
    decay_mult: 0
  }
  convolution_param {
    num_output: 512
    pad: 1
    kernel_size: 3
    weight_filler {
      type: "xavier"
    }
    bias_filler {
      type: "constant"
      value: 0
    }
  }
}
layer {
  name: "relu4_1"
  type: "ReLU"
  bottom: "conv4_1"
  top: "conv4_1"
}
layer {
  name: "conv4_2"
  type: "Convolution"
  bottom: "conv4_1"
  top: "conv4_2"
  param {
    lr_mult: 1
    decay_mult: 1
  }
  param {
    lr_mult: 2
    decay_mult: 0
  }
  convolution_param {
    num_output: 512
    pad: 1
    kernel_size: 3
    weight_filler {
      type: "xavier"
    }
    bias_filler {
      type: "constant"
      value: 0
    }
  }
}
layer {
  name: "relu4_2"
  type: "ReLU"
  bottom: "conv4_2"
  top: "conv4_2"
}
layer {
  name: "conv4_3"
  type: "Convolution"
  bottom: "conv4_2"
  top: "conv4_3"
  param {
    lr_mult: 1
    decay_mult: 1
  }
  param {
    lr_mult: 2
    decay_mult: 0
  }
  convolution_param {
    num_output: 512
    pad: 1
    kernel_size: 3
    weight_filler {
      type: "xavier"
    }
    bias_filler {
      type: "constant"
      value: 0
    }
  }
}
layer {
  name: "relu4_3"
  type: "ReLU"
  bottom: "conv4_3"
  top: "conv4_3"
}
layer {
  name: "pool4"
  type: "Pooling"
  bottom: "conv4_3"
  top: "pool4"
  pooling_param {
    pool: MAX
    kernel_size: 2
    stride: 2
  }
}
layer {
  name: "conv5_1"
  type: "Convolution"
  bottom: "pool4"
  top: "conv5_1"
  param {
    lr_mult: 1
    decay_mult: 1
  }
  param {
    lr_mult: 2
    decay_mult: 0
  }
  convolution_param {
    num_output: 512
    pad: 1
    kernel_size: 3
    weight_filler {
      type: "xavier"
    }
    bias_filler {
      type: "constant"
      value: 0
    }
    dilation: 1
  }
}
layer {
  name: "relu5_1"
  type: "ReLU"
  bottom: "conv5_1"
  top: "conv5_1"
}
layer {
  name: "conv5_2"
  type: "Convolution"
  bottom: "conv5_1"
  top: "conv5_2"
  param {
    lr_mult: 1
    decay_mult: 1
  }
  param {
    lr_mult: 2
    decay_mult: 0
  }
  convolution_param {
    num_output: 512
    pad: 1
    kernel_size: 3
    weight_filler {
      type: "xavier"
    }
    bias_filler {
      type: "constant"
      value: 0
    }
    dilation: 1
  }
}
layer {
  name: "relu5_2"
  type: "ReLU"
  bottom: "conv5_2"
  top: "conv5_2"
}
layer {
  name: "conv5_3"
  type: "Convolution"
  bottom: "conv5_2"
  top: "conv5_3"
  param {
    lr_mult: 1
    decay_mult: 1
  }
  param {
    lr_mult: 2
    decay_mult: 0
  }
  convolution_param {
    num_output: 512
    pad: 1
    kernel_size: 3
    weight_filler {
      type: "xavier"
    }
    bias_filler {
      type: "constant"
      value: 0
    }
    dilation: 1
  }
}
layer {
  name: "relu5_3"
  type: "ReLU"
  bottom: "conv5_3"
  top: "conv5_3"
}
layer {
  name: "pool5"
  type: "Pooling"
  bottom: "conv5_3"
  top: "pool5"
  pooling_param {
    pool: MAX
    kernel_size: 3
    stride: 1
    pad: 1
  }
}
layer {
  name: "fc6"
  type: "Convolution"
  bottom: "pool5"
  top: "fc6"
  param {
    lr_mult: 1
    decay_mult: 1
  }
  param {
    lr_mult: 2
    decay_mult: 0
  }
  convolution_param {
    num_output: 1024
    pad: 6
    kernel_size: 3
    weight_filler {
      type: "xavier"
    }
    bias_filler {
      type: "constant"
      value: 0
    }
    dilation: 6
  }
}
layer {
  name: "relu6"
  type: "ReLU"
  bottom: "fc6"
  top: "fc6"
}
layer {
  name: "fc7"
  type: "Convolution"
  bottom: "fc6"
  top: "fc7"
  param {
    lr_mult: 1
    decay_mult: 1
  }
  param {
    lr_mult: 2
    decay_mult: 0
  }
  convolution_param {
    num_output: 1024
    kernel_size: 1
    weight_filler {
      type: "xavier"
    }
    bias_filler {
      type: "constant"
      value: 0
    }
  }
}
layer {
  name: "relu7"
  type: "ReLU"
  bottom: "fc7"
  top: "fc7"
}
layer {
  name: "conv6_1"
  type: "Convolution"
  bottom: "fc7"
  top: "conv6_1"
  param {
    lr_mult: 1
    decay_mult: 1
  }
  param {
    lr_mult: 2
    decay_mult: 0
  }
  convolution_param {
    num_output: 256
    pad: 0
    kernel_size: 1
    stride: 1
    weight_filler {
      type: "xavier"
    }
    bias_filler {
      type: "constant"
      value: 0
    }
  }
}
layer {
  name: "conv6_1_relu"
  type: "ReLU"
  bottom: "conv6_1"
  top: "conv6_1"
}
layer {
  name: "conv6_2"
  type: "Convolution"
  bottom: "conv6_1"
  top: "conv6_2"
  param {
    lr_mult: 1
    decay_mult: 1
  }
  param {
    lr_mult: 2
    decay_mult: 0
  }
  convolution_param {
    num_output: 512
    pad: 1
    kernel_size: 3
    stride: 2
    weight_filler {
      type: "xavier"
    }
    bias_filler {
      type: "constant"
      value: 0
    }
  }
}
layer {
  name: "conv6_2_relu"
  type: "ReLU"
  bottom: "conv6_2"
  top: "conv6_2"
}
layer {
  name: "conv7_1"
  type: "Convolution"
  bottom: "conv6_2"
  top: "conv7_1"
  param {
    lr_mult: 1
    decay_mult: 1
  }
  param {
    lr_mult: 2
    decay_mult: 0
  }
  convolution_param {
    num_output: 128
    pad: 0
    kernel_size: 1
    stride: 1
    weight_filler {
      type: "xavier"
    }
    bias_filler {
      type: "constant"
      value: 0
    }
  }
}
layer {
  name: "conv7_1_relu"
  type: "ReLU"
  bottom: "conv7_1"
  top: "conv7_1"
}
layer {
  name: "conv7_2"
  type: "Convolution"
  bottom: "conv7_1"
  top: "conv7_2"
  param {
    lr_mult: 1
    decay_mult: 1
  }
  param {
    lr_mult: 2
    decay_mult: 0
  }
  convolution_param {
    num_output: 256
    pad: 1
    kernel_size: 3
    stride: 2
    weight_filler {
      type: "xavier"
    }
    bias_filler {
      type: "constant"
      value: 0
    }
  }
}
layer {
  name: "conv7_2_relu"
  type: "ReLU"
  bottom: "conv7_2"
  top: "conv7_2"
}
layer {
  name: "conv8_1"
  type: "Convolution"
  bottom: "conv7_2"
  top: "conv8_1"
  param {
    lr_mult: 1
    decay_mult: 1
  }
  param {
    lr_mult: 2
    decay_mult: 0
  }
  convolution_param {
    num_output: 128
    pad: 0
    kernel_size: 1
    stride: 1
    weight_filler {
      type: "xavier"
    }
    bias_filler {
      type: "constant"
      value: 0
    }
  }
}
layer {
  name: "conv8_1_relu"
  type: "ReLU"
  bottom: "conv8_1"
  top: "conv8_1"
}
layer {
  name: "conv8_2"
  type: "Convolution"
  bottom: "conv8_1"
  top: "conv8_2"
  param {
    lr_mult: 1
    decay_mult: 1
  }
  param {
    lr_mult: 2
    decay_mult: 0
  }
  convolution_param {
    num_output: 256
    pad: 0
    kernel_size: 3
    stride: 1
    weight_filler {
      type: "xavier"
    }
    bias_filler {
      type: "constant"
      value: 0
    }
  }
}
layer {
  name: "conv8_2_relu"
  type: "ReLU"
  bottom: "conv8_2"
  top: "conv8_2"
}
layer {
  name: "conv9_1"
  type: "Convolution"
  bottom: "conv8_2"
  top: "conv9_1"
  param {
    lr_mult: 1
    decay_mult: 1
  }
  param {
    lr_mult: 2
    decay_mult: 0
  }
  convolution_param {
    num_output: 128
    pad: 0
    kernel_size: 1
    stride: 1
    weight_filler {
      type: "xavier"
    }
    bias_filler {
      type: "constant"
      value: 0
    }
  }
}
layer {
  name: "conv9_1_relu"
  type: "ReLU"
  bottom: "conv9_1"
  top: "conv9_1"
}
layer {
  name: "conv9_2"
  type: "Convolution"
  bottom: "conv9_1"
  top: "conv9_2"
  param {
    lr_mult: 1
    decay_mult: 1
  }
  param {
    lr_mult: 2
    decay_mult: 0
  }
  convolution_param {
    num_output: 256
    pad: 0
    kernel_size: 3
    stride: 1
    weight_filler {
      type: "xavier"
    }
    bias_filler {
      type: "constant"
      value: 0
    }
  }
}
layer {
  name: "conv9_2_relu"
  type: "ReLU"
  bottom: "conv9_2"
  top: "conv9_2"
}
layer {
  name: "conv4_3_norm"
  type: "Normalize"
  bottom: "conv4_3"
  top: "conv4_3_norm"
  norm_param {
    across_spatial: false
    scale_filler {
      type: "constant"
      value: 20
    }
    channel_shared: false
  }
}
layer {
  name: "conv4_3_norm_mbox_loc"
  type: "Convolution"
  bottom: "conv4_3_norm"
  top: "conv4_3_norm_mbox_loc"
  param {
    lr_mult: 1
    decay_mult: 1
  }
  param {
    lr_mult: 2
    decay_mult: 0
  }
  convolution_param {
    num_output: 16
    pad: 1
    kernel_size: 3
    stride: 1
    weight_filler {
      type: "xavier"
    }
    bias_filler {
      type: "constant"
      value: 0
    }
  }
}
layer {
  name: "conv4_3_norm_mbox_loc_perm"
  type: "Permute"
  bottom: "conv4_3_norm_mbox_loc"
  top: "conv4_3_norm_mbox_loc_perm"
  permute_param {
    order: 0
    order: 2
    order: 3
    order: 1
  }
}
layer {
  name: "conv4_3_norm_mbox_loc_flat"
  type: "Flatten"
  bottom: "conv4_3_norm_mbox_loc_perm"
  top: "conv4_3_norm_mbox_loc_flat"
  flatten_param {
    axis: 1
  }
}
layer {
  name: "conv4_3_norm_mbox_conf"
  type: "Convolution"
  bottom: "conv4_3_norm"
  top: "conv4_3_norm_mbox_conf"
  param {
    lr_mult: 1
    decay_mult: 1
  }
  param {
    lr_mult: 2
    decay_mult: 0
  }
  convolution_param {
    num_output: 84
    pad: 1
    kernel_size: 3
    stride: 1
    weight_filler {
      type: "xavier"
    }
    bias_filler {
      type: "constant"
      value: 0
    }
  }
}
layer {
  name: "conv4_3_norm_mbox_conf_perm"
  type: "Permute"
  bottom: "conv4_3_norm_mbox_conf"
  top: "conv4_3_norm_mbox_conf_perm"
  permute_param {
    order: 0
    order: 2
    order: 3
    order: 1
  }
}
layer {
  name: "conv4_3_norm_mbox_conf_flat"
  type: "Flatten"
  bottom: "conv4_3_norm_mbox_conf_perm"
  top: "conv4_3_norm_mbox_conf_flat"
  flatten_param {
    axis: 1
  }
}
layer {
  name: "conv4_3_norm_mbox_priorbox"
  type: "PriorBox"
  bottom: "conv4_3_norm"
  bottom: "data"
  top: "conv4_3_norm_mbox_priorbox"
  prior_box_param {
    min_size: 30
    max_size: 60
    aspect_ratio: 2
    flip: true
    clip: false
    variance: 0.1
    variance: 0.1
    variance: 0.2
    variance: 0.2
    step: 8
    offset: 0.5
  }
}
layer {
  name: "fc7_mbox_loc"
  type: "Convolution"
  bottom: "fc7"
  top: "fc7_mbox_loc"
  param {
    lr_mult: 1
    decay_mult: 1
  }
  param {
    lr_mult: 2
    decay_mult: 0
  }
  convolution_param {
    num_output: 24
    pad: 1
    kernel_size: 3
    stride: 1
    weight_filler {
      type: "xavier"
    }
    bias_filler {
      type: "constant"
      value: 0
    }
  }
}
layer {
  name: "fc7_mbox_loc_perm"
  type: "Permute"
  bottom: "fc7_mbox_loc"
  top: "fc7_mbox_loc_perm"
  permute_param {
    order: 0
    order: 2
    order: 3
    order: 1
  }
}
layer {
  name: "fc7_mbox_loc_flat"
  type: "Flatten"
  bottom: "fc7_mbox_loc_perm"
  top: "fc7_mbox_loc_flat"
  flatten_param {
    axis: 1
  }
}
layer {
  name: "fc7_mbox_conf"
  type: "Convolution"
  bottom: "fc7"
  top: "fc7_mbox_conf"
  param {
    lr_mult: 1
    decay_mult: 1
  }
  param {
    lr_mult: 2
    decay_mult: 0
  }
  convolution_param {
    num_output: 126
    pad: 1
    kernel_size: 3
    stride: 1
    weight_filler {
      type: "xavier"
    }
    bias_filler {
      type: "constant"
      value: 0
    }
  }
}
layer {
  name: "fc7_mbox_conf_perm"
  type: "Permute"
  bottom: "fc7_mbox_conf"
  top: "fc7_mbox_conf_perm"
  permute_param {
    order: 0
    order: 2
    order: 3
    order: 1
  }
}
layer {
  name: "fc7_mbox_conf_flat"
  type: "Flatten"
  bottom: "fc7_mbox_conf_perm"
  top: "fc7_mbox_conf_flat"
  flatten_param {
    axis: 1
  }
}
layer {
  name: "fc7_mbox_priorbox"
  type: "PriorBox"
  bottom: "fc7"
  bottom: "data"
  top: "fc7_mbox_priorbox"
  prior_box_param {
    min_size: 60
    max_size: 111
    aspect_ratio: 2
    aspect_ratio: 3
    flip: true
    clip: false
    variance: 0.1
    variance: 0.1
    variance: 0.2
    variance: 0.2
    step: 16
    offset: 0.5
  }
}
layer {
  name: "conv6_2_mbox_loc"
  type: "Convolution"
  bottom: "conv6_2"
  top: "conv6_2_mbox_loc"
  param {
    lr_mult: 1
    decay_mult: 1
  }
  param {
    lr_mult: 2
    decay_mult: 0
  }
  convolution_param {
    num_output: 24
    pad: 1
    kernel_size: 3
    stride: 1
    weight_filler {
      type: "xavier"
    }
    bias_filler {
      type: "constant"
      value: 0
    }
  }
}
layer {
  name: "conv6_2_mbox_loc_perm"
  type: "Permute"
  bottom: "conv6_2_mbox_loc"
  top: "conv6_2_mbox_loc_perm"
  permute_param {
    order: 0
    order: 2
    order: 3
    order: 1
  }
}
layer {
  name: "conv6_2_mbox_loc_flat"
  type: "Flatten"
  bottom: "conv6_2_mbox_loc_perm"
  top: "conv6_2_mbox_loc_flat"
  flatten_param {
    axis: 1
  }
}
layer {
  name: "conv6_2_mbox_conf"
  type: "Convolution"
  bottom: "conv6_2"
  top: "conv6_2_mbox_conf"
  param {
    lr_mult: 1
    decay_mult: 1
  }
  param {
    lr_mult: 2
    decay_mult: 0
  }
  convolution_param {
    num_output: 126
    pad: 1
    kernel_size: 3
    stride: 1
    weight_filler {
      type: "xavier"
    }
    bias_filler {
      type: "constant"
      value: 0
    }
  }
}
layer {
  name: "conv6_2_mbox_conf_perm"
  type: "Permute"
  bottom: "conv6_2_mbox_conf"
  top: "conv6_2_mbox_conf_perm"
  permute_param {
    order: 0
    order: 2
    order: 3
    order: 1
  }
}
layer {
  name: "conv6_2_mbox_conf_flat"
  type: "Flatten"
  bottom: "conv6_2_mbox_conf_perm"
  top: "conv6_2_mbox_conf_flat"
  flatten_param {
    axis: 1
  }
}
layer {
  name: "conv6_2_mbox_priorbox"
  type: "PriorBox"
  bottom: "conv6_2"
  bottom: "data"
  top: "conv6_2_mbox_priorbox"
  prior_box_param {
    min_size: 111
    max_size: 162
    aspect_ratio: 2
    aspect_ratio: 3
    flip: true
    clip: false
    variance: 0.1
    variance: 0.1
    variance: 0.2
    variance: 0.2
    step: 32
    offset: 0.5
  }
}
layer {
  name: "conv7_2_mbox_loc"
  type: "Convolution"
  bottom: "conv7_2"
  top: "conv7_2_mbox_loc"
  param {
    lr_mult: 1
    decay_mult: 1
  }
  param {
    lr_mult: 2
    decay_mult: 0
  }
  convolution_param {
    num_output: 24
    pad: 1
    kernel_size: 3
    stride: 1
    weight_filler {
      type: "xavier"
    }
    bias_filler {
      type: "constant"
      value: 0
    }
  }
}
layer {
  name: "conv7_2_mbox_loc_perm"
  type: "Permute"
  bottom: "conv7_2_mbox_loc"
  top: "conv7_2_mbox_loc_perm"
  permute_param {
    order: 0
    order: 2
    order: 3
    order: 1
  }
}
layer {
  name: "conv7_2_mbox_loc_flat"
  type: "Flatten"
  bottom: "conv7_2_mbox_loc_perm"
  top: "conv7_2_mbox_loc_flat"
  flatten_param {
    axis: 1
  }
}
layer {
  name: "conv7_2_mbox_conf"
  type: "Convolution"
  bottom: "conv7_2"
  top: "conv7_2_mbox_conf"
  param {
    lr_mult: 1
    decay_mult: 1
  }
  param {
    lr_mult: 2
    decay_mult: 0
  }
  convolution_param {
    num_output: 126
    pad: 1
    kernel_size: 3
    stride: 1
    weight_filler {
      type: "xavier"
    }
    bias_filler {
      type: "constant"
      value: 0
    }
  }
}
layer {
  name: "conv7_2_mbox_conf_perm"
  type: "Permute"
  bottom: "conv7_2_mbox_conf"
  top: "conv7_2_mbox_conf_perm"
  permute_param {
    order: 0
    order: 2
    order: 3
    order: 1
  }
}
layer {
  name: "conv7_2_mbox_conf_flat"
  type: "Flatten"
  bottom: "conv7_2_mbox_conf_perm"
  top: "conv7_2_mbox_conf_flat"
  flatten_param {
    axis: 1
  }
}
layer {
  name: "conv7_2_mbox_priorbox"
  type: "PriorBox"
  bottom: "conv7_2"
  bottom: "data"
  top: "conv7_2_mbox_priorbox"
  prior_box_param {
    min_size: 162
    max_size: 213
    aspect_ratio: 2
    aspect_ratio: 3
    flip: true
    clip: false
    variance: 0.1
    variance: 0.1
    variance: 0.2
    variance: 0.2
    step: 64
    offset: 0.5
  }
}
layer {
  name: "conv8_2_mbox_loc"
  type: "Convolution"
  bottom: "conv8_2"
  top: "conv8_2_mbox_loc"
  param {
    lr_mult: 1
    decay_mult: 1
  }
  param {
    lr_mult: 2
    decay_mult: 0
  }
  convolution_param {
    num_output: 16
    pad: 1
    kernel_size: 3
    stride: 1
    weight_filler {
      type: "xavier"
    }
    bias_filler {
      type: "constant"
      value: 0
    }
  }
}
layer {
  name: "conv8_2_mbox_loc_perm"
  type: "Permute"
  bottom: "conv8_2_mbox_loc"
  top: "conv8_2_mbox_loc_perm"
  permute_param {
    order: 0
    order: 2
    order: 3
    order: 1
  }
}
layer {
  name: "conv8_2_mbox_loc_flat"
  type: "Flatten"
  bottom: "conv8_2_mbox_loc_perm"
  top: "conv8_2_mbox_loc_flat"
  flatten_param {
    axis: 1
  }
}
layer {
  name: "conv8_2_mbox_conf"
  type: "Convolution"
  bottom: "conv8_2"
  top: "conv8_2_mbox_conf"
  param {
    lr_mult: 1
    decay_mult: 1
  }
  param {
    lr_mult: 2
    decay_mult: 0
  }
  convolution_param {
    num_output: 84
    pad: 1
    kernel_size: 3
    stride: 1
    weight_filler {
      type: "xavier"
    }
    bias_filler {
      type: "constant"
      value: 0
    }
  }
}
layer {
  name: "conv8_2_mbox_conf_perm"
  type: "Permute"
  bottom: "conv8_2_mbox_conf"
  top: "conv8_2_mbox_conf_perm"
  permute_param {
    order: 0
    order: 2
    order: 3
    order: 1
  }
}
layer {
  name: "conv8_2_mbox_conf_flat"
  type: "Flatten"
  bottom: "conv8_2_mbox_conf_perm"
  top: "conv8_2_mbox_conf_flat"
  flatten_param {
    axis: 1
  }
}
layer {
  name: "conv8_2_mbox_priorbox"
  type: "PriorBox"
  bottom: "conv8_2"
  bottom: "data"
  top: "conv8_2_mbox_priorbox"
  prior_box_param {
    min_size: 213
    max_size: 264
    aspect_ratio: 2
    flip: true
    clip: false
    variance: 0.1
    variance: 0.1
    variance: 0.2
    variance: 0.2
    step: 100
    offset: 0.5
  }
}
layer {
  name: "conv9_2_mbox_loc"
  type: "Convolution"
  bottom: "conv9_2"
  top: "conv9_2_mbox_loc"
  param {
    lr_mult: 1
    decay_mult: 1
  }
  param {
    lr_mult: 2
    decay_mult: 0
  }
  convolution_param {
    num_output: 16
    pad: 1
    kernel_size: 3
    stride: 1
    weight_filler {
      type: "xavier"
    }
    bias_filler {
      type: "constant"
      value: 0
    }
  }
}
layer {
  name: "conv9_2_mbox_loc_perm"
  type: "Permute"
  bottom: "conv9_2_mbox_loc"
  top: "conv9_2_mbox_loc_perm"
  permute_param {
    order: 0
    order: 2
    order: 3
    order: 1
  }
}
layer {
  name: "conv9_2_mbox_loc_flat"
  type: "Flatten"
  bottom: "conv9_2_mbox_loc_perm"
  top: "conv9_2_mbox_loc_flat"
  flatten_param {
    axis: 1
  }
}
layer {
  name: "conv9_2_mbox_conf"
  type: "Convolution"
  bottom: "conv9_2"
  top: "conv9_2_mbox_conf"
  param {
    lr_mult: 1
    decay_mult: 1
  }
  param {
    lr_mult: 2
    decay_mult: 0
  }
  convolution_param {
    num_output: 84
    pad: 1
    kernel_size: 3
    stride: 1
    weight_filler {
      type: "xavier"
    }
    bias_filler {
      type: "constant"
      value: 0
    }
  }
}
layer {
  name: "conv9_2_mbox_conf_perm"
  type: "Permute"
  bottom: "conv9_2_mbox_conf"
  top: "conv9_2_mbox_conf_perm"
  permute_param {
    order: 0
    order: 2
    order: 3
    order: 1
  }
}
layer {
  name: "conv9_2_mbox_conf_flat"
  type: "Flatten"
  bottom: "conv9_2_mbox_conf_perm"
  top: "conv9_2_mbox_conf_flat"
  flatten_param {
    axis: 1
  }
}
layer {
  name: "conv9_2_mbox_priorbox"
  type: "PriorBox"
  bottom: "conv9_2"
  bottom: "data"
  top: "conv9_2_mbox_priorbox"
  prior_box_param {
    min_size: 264
    max_size: 315
    aspect_ratio: 2
    flip: true
    clip: false
    variance: 0.1
    variance: 0.1
    variance: 0.2
    variance: 0.2
    step: 300
    offset: 0.5
  }
}
layer {
  name: "mbox_loc"
  type: "Concat"
  bottom: "conv4_3_norm_mbox_loc_flat"
  bottom: "fc7_mbox_loc_flat"
  bottom: "conv6_2_mbox_loc_flat"
  bottom: "conv7_2_mbox_loc_flat"
  bottom: "conv8_2_mbox_loc_flat"
  bottom: "conv9_2_mbox_loc_flat"
  top: "mbox_loc"
  concat_param {
    axis: 1
  }
}
layer {
  name: "mbox_conf"
  type: "Concat"
  bottom: "conv4_3_norm_mbox_conf_flat"
  bottom: "fc7_mbox_conf_flat"
  bottom: "conv6_2_mbox_conf_flat"
  bottom: "conv7_2_mbox_conf_flat"
  bottom: "conv8_2_mbox_conf_flat"
  bottom: "conv9_2_mbox_conf_flat"
  top: "mbox_conf"
  concat_param {
    axis: 1
  }
}
layer {
  name: "mbox_priorbox"
  type: "Concat"
  bottom: "conv4_3_norm_mbox_priorbox"
  bottom: "fc7_mbox_priorbox"
  bottom: "conv6_2_mbox_priorbox"
  bottom: "conv7_2_mbox_priorbox"
  bottom: "conv8_2_mbox_priorbox"
  bottom: "conv9_2_mbox_priorbox"
  top: "mbox_priorbox"
  concat_param {
    axis: 2
  }
}
layer {
  name: "mbox_conf_reshape"
  type: "Reshape"
  bottom: "mbox_conf"
  top: "mbox_conf_reshape"
  reshape_param {
    shape {
      dim: 0
      dim: -1
      dim: 21
    }
  }
}
layer {
  name: "mbox_conf_softmax"
  type: "Softmax"
  bottom: "mbox_conf_reshape"
  top: "mbox_conf_softmax"
  softmax_param {
    axis: 2
  }
}
layer {
  name: "mbox_conf_flatten"
  type: "Flatten"
  bottom: "mbox_conf_softmax"
  top: "mbox_conf_flatten"
  flatten_param {
    axis: 1
  }
}
layer {
  name: "detection_out"
  type: "DetectionOutput"
  bottom: "mbox_loc"
  bottom: "mbox_conf_flatten"
  bottom: "mbox_priorbox"
  top: "detection_out"
  include {
    phase: TEST
  }
  detection_output_param {
    num_classes: 21
    share_location: true
    background_label_id: 0
    nms_param {
      nms_threshold: 0.45
      top_k: 400
    }
    save_output_param {
      output_directory: "/home/zhongyilin/data/VOCdevkit/results/VOC2007/SSD_300x300/Main"
      output_name_prefix: "comp4_det_test_"
      output_format: "VOC"
      label_map_file: "data/VOC0712/labelmap_voc.prototxt"
      name_size_file: "data/VOC0712/test_name_size.txt"
      num_test_image: 4952
    }
    code_type: CENTER_SIZE
    keep_top_k: 200
    confidence_threshold: 0.01
  }
}
layer {
  name: "detection_eval"
  type: "DetectionEvaluate"
  bottom: "detection_out"
  bottom: "label"
  top: "detection_eval"
  include {
    phase: TEST
  }
  detection_evaluate_param {
    num_classes: 21
    background_label_id: 0
    overlap_threshold: 0.5
    evaluate_difficult_gt: false
    name_size_file: "data/VOC0712/test_name_size.txt"
  }
}
I0923 01:29:38.082109 22405 layer_factory.hpp:77] Creating layer data
I0923 01:29:38.082152 22405 net.cpp:100] Creating Layer data
I0923 01:29:38.082157 22405 net.cpp:408] data -> data
I0923 01:29:38.082165 22405 net.cpp:408] data -> label
I0923 01:29:38.083308 22424 db_lmdb.cpp:35] Opened lmdb examples/VOC0712/VOC0712_test_lmdb
I0923 01:29:38.085572 22405 annotated_data_layer.cpp:62] output data size: 8,3,300,300
I0923 01:29:38.095355 22405 net.cpp:150] Setting up data
I0923 01:29:38.095369 22405 net.cpp:157] Top shape: 8 3 300 300 (2160000)
I0923 01:29:38.095373 22405 net.cpp:157] Top shape: 1 1 2 8 (16)
I0923 01:29:38.095376 22405 net.cpp:165] Memory required for data: 8640064
I0923 01:29:38.095381 22405 layer_factory.hpp:77] Creating layer data_data_0_split
I0923 01:29:38.095391 22405 net.cpp:100] Creating Layer data_data_0_split
I0923 01:29:38.095394 22405 net.cpp:434] data_data_0_split <- data
I0923 01:29:38.095398 22405 net.cpp:408] data_data_0_split -> data_data_0_split_0
I0923 01:29:38.095405 22405 net.cpp:408] data_data_0_split -> data_data_0_split_1
I0923 01:29:38.095409 22405 net.cpp:408] data_data_0_split -> data_data_0_split_2
I0923 01:29:38.095414 22405 net.cpp:408] data_data_0_split -> data_data_0_split_3
I0923 01:29:38.095418 22405 net.cpp:408] data_data_0_split -> data_data_0_split_4
I0923 01:29:38.095422 22405 net.cpp:408] data_data_0_split -> data_data_0_split_5
I0923 01:29:38.095427 22405 net.cpp:408] data_data_0_split -> data_data_0_split_6
I0923 01:29:38.095531 22405 net.cpp:150] Setting up data_data_0_split
I0923 01:29:38.095536 22405 net.cpp:157] Top shape: 8 3 300 300 (2160000)
I0923 01:29:38.095540 22405 net.cpp:157] Top shape: 8 3 300 300 (2160000)
I0923 01:29:38.095541 22405 net.cpp:157] Top shape: 8 3 300 300 (2160000)
I0923 01:29:38.095543 22405 net.cpp:157] Top shape: 8 3 300 300 (2160000)
I0923 01:29:38.095547 22405 net.cpp:157] Top shape: 8 3 300 300 (2160000)
I0923 01:29:38.095549 22405 net.cpp:157] Top shape: 8 3 300 300 (2160000)
I0923 01:29:38.095551 22405 net.cpp:157] Top shape: 8 3 300 300 (2160000)
I0923 01:29:38.095553 22405 net.cpp:165] Memory required for data: 69120064
I0923 01:29:38.095556 22405 layer_factory.hpp:77] Creating layer conv1_1
I0923 01:29:38.095562 22405 net.cpp:100] Creating Layer conv1_1
I0923 01:29:38.095566 22405 net.cpp:434] conv1_1 <- data_data_0_split_0
I0923 01:29:38.095583 22405 net.cpp:408] conv1_1 -> conv1_1
I0923 01:29:38.096823 22405 net.cpp:150] Setting up conv1_1
I0923 01:29:38.096830 22405 net.cpp:157] Top shape: 8 64 300 300 (46080000)
I0923 01:29:38.096832 22405 net.cpp:165] Memory required for data: 253440064
I0923 01:29:38.096840 22405 layer_factory.hpp:77] Creating layer relu1_1
I0923 01:29:38.096845 22405 net.cpp:100] Creating Layer relu1_1
I0923 01:29:38.096848 22405 net.cpp:434] relu1_1 <- conv1_1
I0923 01:29:38.096850 22405 net.cpp:395] relu1_1 -> conv1_1 (in-place)
I0923 01:29:38.097239 22405 net.cpp:150] Setting up relu1_1
I0923 01:29:38.097246 22405 net.cpp:157] Top shape: 8 64 300 300 (46080000)
I0923 01:29:38.097249 22405 net.cpp:165] Memory required for data: 437760064
I0923 01:29:38.097251 22405 layer_factory.hpp:77] Creating layer conv1_2
I0923 01:29:38.097257 22405 net.cpp:100] Creating Layer conv1_2
I0923 01:29:38.097260 22405 net.cpp:434] conv1_2 <- conv1_1
I0923 01:29:38.097265 22405 net.cpp:408] conv1_2 -> conv1_2
I0923 01:29:38.099774 22405 net.cpp:150] Setting up conv1_2
I0923 01:29:38.099781 22405 net.cpp:157] Top shape: 8 64 300 300 (46080000)
I0923 01:29:38.099783 22405 net.cpp:165] Memory required for data: 622080064
I0923 01:29:38.099789 22405 layer_factory.hpp:77] Creating layer relu1_2
I0923 01:29:38.099793 22405 net.cpp:100] Creating Layer relu1_2
I0923 01:29:38.099795 22405 net.cpp:434] relu1_2 <- conv1_2
I0923 01:29:38.099799 22405 net.cpp:395] relu1_2 -> conv1_2 (in-place)
I0923 01:29:38.100082 22405 net.cpp:150] Setting up relu1_2
I0923 01:29:38.100087 22405 net.cpp:157] Top shape: 8 64 300 300 (46080000)
I0923 01:29:38.100090 22405 net.cpp:165] Memory required for data: 806400064
I0923 01:29:38.100091 22405 layer_factory.hpp:77] Creating layer pool1
I0923 01:29:38.100096 22405 net.cpp:100] Creating Layer pool1
I0923 01:29:38.100098 22405 net.cpp:434] pool1 <- conv1_2
I0923 01:29:38.100101 22405 net.cpp:408] pool1 -> pool1
I0923 01:29:38.100134 22405 net.cpp:150] Setting up pool1
I0923 01:29:38.100138 22405 net.cpp:157] Top shape: 8 64 150 150 (11520000)
I0923 01:29:38.100141 22405 net.cpp:165] Memory required for data: 852480064
I0923 01:29:38.100142 22405 layer_factory.hpp:77] Creating layer conv2_1
I0923 01:29:38.100147 22405 net.cpp:100] Creating Layer conv2_1
I0923 01:29:38.100149 22405 net.cpp:434] conv2_1 <- pool1
I0923 01:29:38.100153 22405 net.cpp:408] conv2_1 -> conv2_1
I0923 01:29:38.101626 22405 net.cpp:150] Setting up conv2_1
I0923 01:29:38.101634 22405 net.cpp:157] Top shape: 8 128 150 150 (23040000)
I0923 01:29:38.101636 22405 net.cpp:165] Memory required for data: 944640064
I0923 01:29:38.101641 22405 layer_factory.hpp:77] Creating layer relu2_1
I0923 01:29:38.101647 22405 net.cpp:100] Creating Layer relu2_1
I0923 01:29:38.101649 22405 net.cpp:434] relu2_1 <- conv2_1
I0923 01:29:38.101652 22405 net.cpp:395] relu2_1 -> conv2_1 (in-place)
I0923 01:29:38.101930 22405 net.cpp:150] Setting up relu2_1
I0923 01:29:38.101935 22405 net.cpp:157] Top shape: 8 128 150 150 (23040000)
I0923 01:29:38.101938 22405 net.cpp:165] Memory required for data: 1036800064
I0923 01:29:38.101939 22405 layer_factory.hpp:77] Creating layer conv2_2
I0923 01:29:38.101945 22405 net.cpp:100] Creating Layer conv2_2
I0923 01:29:38.101948 22405 net.cpp:434] conv2_2 <- conv2_1
I0923 01:29:38.101951 22405 net.cpp:408] conv2_2 -> conv2_2
I0923 01:29:38.103663 22405 net.cpp:150] Setting up conv2_2
I0923 01:29:38.103672 22405 net.cpp:157] Top shape: 8 128 150 150 (23040000)
I0923 01:29:38.103673 22405 net.cpp:165] Memory required for data: 1128960064
I0923 01:29:38.103677 22405 layer_factory.hpp:77] Creating layer relu2_2
I0923 01:29:38.103682 22405 net.cpp:100] Creating Layer relu2_2
I0923 01:29:38.103683 22405 net.cpp:434] relu2_2 <- conv2_2
I0923 01:29:38.103687 22405 net.cpp:395] relu2_2 -> conv2_2 (in-place)
I0923 01:29:38.104073 22405 net.cpp:150] Setting up relu2_2
I0923 01:29:38.104079 22405 net.cpp:157] Top shape: 8 128 150 150 (23040000)
I0923 01:29:38.104081 22405 net.cpp:165] Memory required for data: 1221120064
I0923 01:29:38.104084 22405 layer_factory.hpp:77] Creating layer pool2
I0923 01:29:38.104094 22405 net.cpp:100] Creating Layer pool2
I0923 01:29:38.104097 22405 net.cpp:434] pool2 <- conv2_2
I0923 01:29:38.104101 22405 net.cpp:408] pool2 -> pool2
I0923 01:29:38.104135 22405 net.cpp:150] Setting up pool2
I0923 01:29:38.104138 22405 net.cpp:157] Top shape: 8 128 75 75 (5760000)
I0923 01:29:38.104140 22405 net.cpp:165] Memory required for data: 1244160064
I0923 01:29:38.104142 22405 layer_factory.hpp:77] Creating layer conv3_1
I0923 01:29:38.104148 22405 net.cpp:100] Creating Layer conv3_1
I0923 01:29:38.104151 22405 net.cpp:434] conv3_1 <- pool2
I0923 01:29:38.104156 22405 net.cpp:408] conv3_1 -> conv3_1
I0923 01:29:38.106815 22405 net.cpp:150] Setting up conv3_1
I0923 01:29:38.106825 22405 net.cpp:157] Top shape: 8 256 75 75 (11520000)
I0923 01:29:38.106827 22405 net.cpp:165] Memory required for data: 1290240064
I0923 01:29:38.106834 22405 layer_factory.hpp:77] Creating layer relu3_1
I0923 01:29:38.106842 22405 net.cpp:100] Creating Layer relu3_1
I0923 01:29:38.106843 22405 net.cpp:434] relu3_1 <- conv3_1
I0923 01:29:38.106847 22405 net.cpp:395] relu3_1 -> conv3_1 (in-place)
I0923 01:29:38.107137 22405 net.cpp:150] Setting up relu3_1
I0923 01:29:38.107143 22405 net.cpp:157] Top shape: 8 256 75 75 (11520000)
I0923 01:29:38.107146 22405 net.cpp:165] Memory required for data: 1336320064
I0923 01:29:38.107148 22405 layer_factory.hpp:77] Creating layer conv3_2
I0923 01:29:38.107154 22405 net.cpp:100] Creating Layer conv3_2
I0923 01:29:38.107156 22405 net.cpp:434] conv3_2 <- conv3_1
I0923 01:29:38.107161 22405 net.cpp:408] conv3_2 -> conv3_2
I0923 01:29:38.110839 22405 net.cpp:150] Setting up conv3_2
I0923 01:29:38.110854 22405 net.cpp:157] Top shape: 8 256 75 75 (11520000)
I0923 01:29:38.110857 22405 net.cpp:165] Memory required for data: 1382400064
I0923 01:29:38.110862 22405 layer_factory.hpp:77] Creating layer relu3_2
I0923 01:29:38.110867 22405 net.cpp:100] Creating Layer relu3_2
I0923 01:29:38.110870 22405 net.cpp:434] relu3_2 <- conv3_2
I0923 01:29:38.110874 22405 net.cpp:395] relu3_2 -> conv3_2 (in-place)
I0923 01:29:38.111264 22405 net.cpp:150] Setting up relu3_2
I0923 01:29:38.111270 22405 net.cpp:157] Top shape: 8 256 75 75 (11520000)
I0923 01:29:38.111274 22405 net.cpp:165] Memory required for data: 1428480064
I0923 01:29:38.111275 22405 layer_factory.hpp:77] Creating layer conv3_3
I0923 01:29:38.111284 22405 net.cpp:100] Creating Layer conv3_3
I0923 01:29:38.111286 22405 net.cpp:434] conv3_3 <- conv3_2
I0923 01:29:38.111290 22405 net.cpp:408] conv3_3 -> conv3_3
I0923 01:29:38.114925 22405 net.cpp:150] Setting up conv3_3
I0923 01:29:38.114938 22405 net.cpp:157] Top shape: 8 256 75 75 (11520000)
I0923 01:29:38.114939 22405 net.cpp:165] Memory required for data: 1474560064
I0923 01:29:38.114944 22405 layer_factory.hpp:77] Creating layer relu3_3
I0923 01:29:38.114949 22405 net.cpp:100] Creating Layer relu3_3
I0923 01:29:38.114951 22405 net.cpp:434] relu3_3 <- conv3_3
I0923 01:29:38.114955 22405 net.cpp:395] relu3_3 -> conv3_3 (in-place)
I0923 01:29:38.115247 22405 net.cpp:150] Setting up relu3_3
I0923 01:29:38.115252 22405 net.cpp:157] Top shape: 8 256 75 75 (11520000)
I0923 01:29:38.115253 22405 net.cpp:165] Memory required for data: 1520640064
I0923 01:29:38.115255 22405 layer_factory.hpp:77] Creating layer pool3
I0923 01:29:38.115260 22405 net.cpp:100] Creating Layer pool3
I0923 01:29:38.115263 22405 net.cpp:434] pool3 <- conv3_3
I0923 01:29:38.115267 22405 net.cpp:408] pool3 -> pool3
I0923 01:29:38.115303 22405 net.cpp:150] Setting up pool3
I0923 01:29:38.115306 22405 net.cpp:157] Top shape: 8 256 38 38 (2957312)
I0923 01:29:38.115309 22405 net.cpp:165] Memory required for data: 1532469312
I0923 01:29:38.115309 22405 layer_factory.hpp:77] Creating layer conv4_1
I0923 01:29:38.115316 22405 net.cpp:100] Creating Layer conv4_1
I0923 01:29:38.115319 22405 net.cpp:434] conv4_1 <- pool3
I0923 01:29:38.115322 22405 net.cpp:408] conv4_1 -> conv4_1
I0923 01:29:38.121353 22405 net.cpp:150] Setting up conv4_1
I0923 01:29:38.121369 22405 net.cpp:157] Top shape: 8 512 38 38 (5914624)
I0923 01:29:38.121381 22405 net.cpp:165] Memory required for data: 1556127808
I0923 01:29:38.121387 22405 layer_factory.hpp:77] Creating layer relu4_1
I0923 01:29:38.121393 22405 net.cpp:100] Creating Layer relu4_1
I0923 01:29:38.121397 22405 net.cpp:434] relu4_1 <- conv4_1
I0923 01:29:38.121402 22405 net.cpp:395] relu4_1 -> conv4_1 (in-place)
I0923 01:29:38.121695 22405 net.cpp:150] Setting up relu4_1
I0923 01:29:38.121701 22405 net.cpp:157] Top shape: 8 512 38 38 (5914624)
I0923 01:29:38.121703 22405 net.cpp:165] Memory required for data: 1579786304
I0923 01:29:38.121706 22405 layer_factory.hpp:77] Creating layer conv4_2
I0923 01:29:38.121712 22405 net.cpp:100] Creating Layer conv4_2
I0923 01:29:38.121716 22405 net.cpp:434] conv4_2 <- conv4_1
I0923 01:29:38.121719 22405 net.cpp:408] conv4_2 -> conv4_2
I0923 01:29:38.132046 22405 net.cpp:150] Setting up conv4_2
I0923 01:29:38.132061 22405 net.cpp:157] Top shape: 8 512 38 38 (5914624)
I0923 01:29:38.132063 22405 net.cpp:165] Memory required for data: 1603444800
I0923 01:29:38.132073 22405 layer_factory.hpp:77] Creating layer relu4_2
I0923 01:29:38.132079 22405 net.cpp:100] Creating Layer relu4_2
I0923 01:29:38.132081 22405 net.cpp:434] relu4_2 <- conv4_2
I0923 01:29:38.132086 22405 net.cpp:395] relu4_2 -> conv4_2 (in-place)
I0923 01:29:38.132489 22405 net.cpp:150] Setting up relu4_2
I0923 01:29:38.132496 22405 net.cpp:157] Top shape: 8 512 38 38 (5914624)
I0923 01:29:38.132499 22405 net.cpp:165] Memory required for data: 1627103296
I0923 01:29:38.132501 22405 layer_factory.hpp:77] Creating layer conv4_3
I0923 01:29:38.132508 22405 net.cpp:100] Creating Layer conv4_3
I0923 01:29:38.132511 22405 net.cpp:434] conv4_3 <- conv4_2
I0923 01:29:38.132515 22405 net.cpp:408] conv4_3 -> conv4_3
I0923 01:29:38.142853 22405 net.cpp:150] Setting up conv4_3
I0923 01:29:38.142869 22405 net.cpp:157] Top shape: 8 512 38 38 (5914624)
I0923 01:29:38.142873 22405 net.cpp:165] Memory required for data: 1650761792
I0923 01:29:38.142879 22405 layer_factory.hpp:77] Creating layer relu4_3
I0923 01:29:38.142884 22405 net.cpp:100] Creating Layer relu4_3
I0923 01:29:38.142886 22405 net.cpp:434] relu4_3 <- conv4_3
I0923 01:29:38.142891 22405 net.cpp:395] relu4_3 -> conv4_3 (in-place)
I0923 01:29:38.143190 22405 net.cpp:150] Setting up relu4_3
I0923 01:29:38.143195 22405 net.cpp:157] Top shape: 8 512 38 38 (5914624)
I0923 01:29:38.143198 22405 net.cpp:165] Memory required for data: 1674420288
I0923 01:29:38.143199 22405 layer_factory.hpp:77] Creating layer conv4_3_relu4_3_0_split
I0923 01:29:38.143204 22405 net.cpp:100] Creating Layer conv4_3_relu4_3_0_split
I0923 01:29:38.143206 22405 net.cpp:434] conv4_3_relu4_3_0_split <- conv4_3
I0923 01:29:38.143209 22405 net.cpp:408] conv4_3_relu4_3_0_split -> conv4_3_relu4_3_0_split_0
I0923 01:29:38.143214 22405 net.cpp:408] conv4_3_relu4_3_0_split -> conv4_3_relu4_3_0_split_1
I0923 01:29:38.143246 22405 net.cpp:150] Setting up conv4_3_relu4_3_0_split
I0923 01:29:38.143250 22405 net.cpp:157] Top shape: 8 512 38 38 (5914624)
I0923 01:29:38.143252 22405 net.cpp:157] Top shape: 8 512 38 38 (5914624)
I0923 01:29:38.143254 22405 net.cpp:165] Memory required for data: 1721737280
I0923 01:29:38.143256 22405 layer_factory.hpp:77] Creating layer pool4
I0923 01:29:38.143260 22405 net.cpp:100] Creating Layer pool4
I0923 01:29:38.143262 22405 net.cpp:434] pool4 <- conv4_3_relu4_3_0_split_0
I0923 01:29:38.143266 22405 net.cpp:408] pool4 -> pool4
I0923 01:29:38.143296 22405 net.cpp:150] Setting up pool4
I0923 01:29:38.143299 22405 net.cpp:157] Top shape: 8 512 19 19 (1478656)
I0923 01:29:38.143301 22405 net.cpp:165] Memory required for data: 1727651904
I0923 01:29:38.143303 22405 layer_factory.hpp:77] Creating layer conv5_1
I0923 01:29:38.143309 22405 net.cpp:100] Creating Layer conv5_1
I0923 01:29:38.143311 22405 net.cpp:434] conv5_1 <- pool4
I0923 01:29:38.143316 22405 net.cpp:408] conv5_1 -> conv5_1
I0923 01:29:38.153944 22405 net.cpp:150] Setting up conv5_1
I0923 01:29:38.153961 22405 net.cpp:157] Top shape: 8 512 19 19 (1478656)
I0923 01:29:38.153975 22405 net.cpp:165] Memory required for data: 1733566528
I0923 01:29:38.153981 22405 layer_factory.hpp:77] Creating layer relu5_1
I0923 01:29:38.153987 22405 net.cpp:100] Creating Layer relu5_1
I0923 01:29:38.153990 22405 net.cpp:434] relu5_1 <- conv5_1
I0923 01:29:38.153995 22405 net.cpp:395] relu5_1 -> conv5_1 (in-place)
I0923 01:29:38.154399 22405 net.cpp:150] Setting up relu5_1
I0923 01:29:38.154407 22405 net.cpp:157] Top shape: 8 512 19 19 (1478656)
I0923 01:29:38.154409 22405 net.cpp:165] Memory required for data: 1739481152
I0923 01:29:38.154412 22405 layer_factory.hpp:77] Creating layer conv5_2
I0923 01:29:38.154418 22405 net.cpp:100] Creating Layer conv5_2
I0923 01:29:38.154422 22405 net.cpp:434] conv5_2 <- conv5_1
I0923 01:29:38.154425 22405 net.cpp:408] conv5_2 -> conv5_2
I0923 01:29:38.164813 22405 net.cpp:150] Setting up conv5_2
I0923 01:29:38.164827 22405 net.cpp:157] Top shape: 8 512 19 19 (1478656)
I0923 01:29:38.164829 22405 net.cpp:165] Memory required for data: 1745395776
I0923 01:29:38.164836 22405 layer_factory.hpp:77] Creating layer relu5_2
I0923 01:29:38.164842 22405 net.cpp:100] Creating Layer relu5_2
I0923 01:29:38.164845 22405 net.cpp:434] relu5_2 <- conv5_2
I0923 01:29:38.164850 22405 net.cpp:395] relu5_2 -> conv5_2 (in-place)
I0923 01:29:38.165143 22405 net.cpp:150] Setting up relu5_2
I0923 01:29:38.165149 22405 net.cpp:157] Top shape: 8 512 19 19 (1478656)
I0923 01:29:38.165153 22405 net.cpp:165] Memory required for data: 1751310400
I0923 01:29:38.165154 22405 layer_factory.hpp:77] Creating layer conv5_3
I0923 01:29:38.165160 22405 net.cpp:100] Creating Layer conv5_3
I0923 01:29:38.165163 22405 net.cpp:434] conv5_3 <- conv5_2
I0923 01:29:38.165168 22405 net.cpp:408] conv5_3 -> conv5_3
I0923 01:29:38.175621 22405 net.cpp:150] Setting up conv5_3
I0923 01:29:38.175635 22405 net.cpp:157] Top shape: 8 512 19 19 (1478656)
I0923 01:29:38.175637 22405 net.cpp:165] Memory required for data: 1757225024
I0923 01:29:38.175644 22405 layer_factory.hpp:77] Creating layer relu5_3
I0923 01:29:38.175655 22405 net.cpp:100] Creating Layer relu5_3
I0923 01:29:38.175658 22405 net.cpp:434] relu5_3 <- conv5_3
I0923 01:29:38.175662 22405 net.cpp:395] relu5_3 -> conv5_3 (in-place)
I0923 01:29:38.175956 22405 net.cpp:150] Setting up relu5_3
I0923 01:29:38.175961 22405 net.cpp:157] Top shape: 8 512 19 19 (1478656)
I0923 01:29:38.175963 22405 net.cpp:165] Memory required for data: 1763139648
I0923 01:29:38.175966 22405 layer_factory.hpp:77] Creating layer pool5
I0923 01:29:38.175971 22405 net.cpp:100] Creating Layer pool5
I0923 01:29:38.175972 22405 net.cpp:434] pool5 <- conv5_3
I0923 01:29:38.175976 22405 net.cpp:408] pool5 -> pool5
I0923 01:29:38.176010 22405 net.cpp:150] Setting up pool5
I0923 01:29:38.176014 22405 net.cpp:157] Top shape: 8 512 19 19 (1478656)
I0923 01:29:38.176017 22405 net.cpp:165] Memory required for data: 1769054272
I0923 01:29:38.176018 22405 layer_factory.hpp:77] Creating layer fc6
I0923 01:29:38.176025 22405 net.cpp:100] Creating Layer fc6
I0923 01:29:38.176028 22405 net.cpp:434] fc6 <- pool5
I0923 01:29:38.176031 22405 net.cpp:408] fc6 -> fc6
I0923 01:29:38.194022 22405 net.cpp:150] Setting up fc6
I0923 01:29:38.194037 22405 net.cpp:157] Top shape: 8 1024 19 19 (2957312)
I0923 01:29:38.194039 22405 net.cpp:165] Memory required for data: 1780883520
I0923 01:29:38.194046 22405 layer_factory.hpp:77] Creating layer relu6
I0923 01:29:38.194051 22405 net.cpp:100] Creating Layer relu6
I0923 01:29:38.194054 22405 net.cpp:434] relu6 <- fc6
I0923 01:29:38.194058 22405 net.cpp:395] relu6 -> fc6 (in-place)
I0923 01:29:38.194403 22405 net.cpp:150] Setting up relu6
I0923 01:29:38.194409 22405 net.cpp:157] Top shape: 8 1024 19 19 (2957312)
I0923 01:29:38.194412 22405 net.cpp:165] Memory required for data: 1792712768
I0923 01:29:38.194414 22405 layer_factory.hpp:77] Creating layer fc7
I0923 01:29:38.194422 22405 net.cpp:100] Creating Layer fc7
I0923 01:29:38.194423 22405 net.cpp:434] fc7 <- fc6
I0923 01:29:38.194427 22405 net.cpp:408] fc7 -> fc7
I0923 01:29:38.199918 22405 net.cpp:150] Setting up fc7
I0923 01:29:38.199945 22405 net.cpp:157] Top shape: 8 1024 19 19 (2957312)
I0923 01:29:38.199947 22405 net.cpp:165] Memory required for data: 1804542016
I0923 01:29:38.199952 22405 layer_factory.hpp:77] Creating layer relu7
I0923 01:29:38.199959 22405 net.cpp:100] Creating Layer relu7
I0923 01:29:38.199961 22405 net.cpp:434] relu7 <- fc7
I0923 01:29:38.199965 22405 net.cpp:395] relu7 -> fc7 (in-place)
I0923 01:29:38.200258 22405 net.cpp:150] Setting up relu7
I0923 01:29:38.200263 22405 net.cpp:157] Top shape: 8 1024 19 19 (2957312)
I0923 01:29:38.200265 22405 net.cpp:165] Memory required for data: 1816371264
I0923 01:29:38.200268 22405 layer_factory.hpp:77] Creating layer fc7_relu7_0_split
I0923 01:29:38.200273 22405 net.cpp:100] Creating Layer fc7_relu7_0_split
I0923 01:29:38.200274 22405 net.cpp:434] fc7_relu7_0_split <- fc7
I0923 01:29:38.200278 22405 net.cpp:408] fc7_relu7_0_split -> fc7_relu7_0_split_0
I0923 01:29:38.200282 22405 net.cpp:408] fc7_relu7_0_split -> fc7_relu7_0_split_1
I0923 01:29:38.200291 22405 net.cpp:408] fc7_relu7_0_split -> fc7_relu7_0_split_2
I0923 01:29:38.200295 22405 net.cpp:408] fc7_relu7_0_split -> fc7_relu7_0_split_3
I0923 01:29:38.200352 22405 net.cpp:150] Setting up fc7_relu7_0_split
I0923 01:29:38.200356 22405 net.cpp:157] Top shape: 8 1024 19 19 (2957312)
I0923 01:29:38.200359 22405 net.cpp:157] Top shape: 8 1024 19 19 (2957312)
I0923 01:29:38.200362 22405 net.cpp:157] Top shape: 8 1024 19 19 (2957312)
I0923 01:29:38.200364 22405 net.cpp:157] Top shape: 8 1024 19 19 (2957312)
I0923 01:29:38.200367 22405 net.cpp:165] Memory required for data: 1863688256
I0923 01:29:38.200368 22405 layer_factory.hpp:77] Creating layer conv6_1
I0923 01:29:38.200374 22405 net.cpp:100] Creating Layer conv6_1
I0923 01:29:38.200377 22405 net.cpp:434] conv6_1 <- fc7_relu7_0_split_0
I0923 01:29:38.200381 22405 net.cpp:408] conv6_1 -> conv6_1
I0923 01:29:38.203423 22405 net.cpp:150] Setting up conv6_1
I0923 01:29:38.203430 22405 net.cpp:157] Top shape: 8 256 19 19 (739328)
I0923 01:29:38.203433 22405 net.cpp:165] Memory required for data: 1866645568
I0923 01:29:38.203438 22405 layer_factory.hpp:77] Creating layer conv6_1_relu
I0923 01:29:38.203442 22405 net.cpp:100] Creating Layer conv6_1_relu
I0923 01:29:38.203445 22405 net.cpp:434] conv6_1_relu <- conv6_1
I0923 01:29:38.203449 22405 net.cpp:395] conv6_1_relu -> conv6_1 (in-place)
I0923 01:29:38.203860 22405 net.cpp:150] Setting up conv6_1_relu
I0923 01:29:38.203866 22405 net.cpp:157] Top shape: 8 256 19 19 (739328)
I0923 01:29:38.203868 22405 net.cpp:165] Memory required for data: 1869602880
I0923 01:29:38.203871 22405 layer_factory.hpp:77] Creating layer conv6_2
I0923 01:29:38.203877 22405 net.cpp:100] Creating Layer conv6_2
I0923 01:29:38.203881 22405 net.cpp:434] conv6_2 <- conv6_1
I0923 01:29:38.203884 22405 net.cpp:408] conv6_2 -> conv6_2
I0923 01:29:38.211199 22405 net.cpp:150] Setting up conv6_2
I0923 01:29:38.211215 22405 net.cpp:157] Top shape: 8 512 10 10 (409600)
I0923 01:29:38.211217 22405 net.cpp:165] Memory required for data: 1871241280
I0923 01:29:38.211230 22405 layer_factory.hpp:77] Creating layer conv6_2_relu
I0923 01:29:38.211236 22405 net.cpp:100] Creating Layer conv6_2_relu
I0923 01:29:38.211239 22405 net.cpp:434] conv6_2_relu <- conv6_2
I0923 01:29:38.211243 22405 net.cpp:395] conv6_2_relu -> conv6_2 (in-place)
I0923 01:29:38.211547 22405 net.cpp:150] Setting up conv6_2_relu
I0923 01:29:38.211553 22405 net.cpp:157] Top shape: 8 512 10 10 (409600)
I0923 01:29:38.211556 22405 net.cpp:165] Memory required for data: 1872879680
I0923 01:29:38.211557 22405 layer_factory.hpp:77] Creating layer conv6_2_conv6_2_relu_0_split
I0923 01:29:38.211562 22405 net.cpp:100] Creating Layer conv6_2_conv6_2_relu_0_split
I0923 01:29:38.211565 22405 net.cpp:434] conv6_2_conv6_2_relu_0_split <- conv6_2
I0923 01:29:38.211567 22405 net.cpp:408] conv6_2_conv6_2_relu_0_split -> conv6_2_conv6_2_relu_0_split_0
I0923 01:29:38.211582 22405 net.cpp:408] conv6_2_conv6_2_relu_0_split -> conv6_2_conv6_2_relu_0_split_1
I0923 01:29:38.211586 22405 net.cpp:408] conv6_2_conv6_2_relu_0_split -> conv6_2_conv6_2_relu_0_split_2
I0923 01:29:38.211602 22405 net.cpp:408] conv6_2_conv6_2_relu_0_split -> conv6_2_conv6_2_relu_0_split_3
I0923 01:29:38.211668 22405 net.cpp:150] Setting up conv6_2_conv6_2_relu_0_split
I0923 01:29:38.211673 22405 net.cpp:157] Top shape: 8 512 10 10 (409600)
I0923 01:29:38.211675 22405 net.cpp:157] Top shape: 8 512 10 10 (409600)
I0923 01:29:38.211678 22405 net.cpp:157] Top shape: 8 512 10 10 (409600)
I0923 01:29:38.211679 22405 net.cpp:157] Top shape: 8 512 10 10 (409600)
I0923 01:29:38.211681 22405 net.cpp:165] Memory required for data: 1879433280
I0923 01:29:38.211683 22405 layer_factory.hpp:77] Creating layer conv7_1
I0923 01:29:38.211690 22405 net.cpp:100] Creating Layer conv7_1
I0923 01:29:38.211693 22405 net.cpp:434] conv7_1 <- conv6_2_conv6_2_relu_0_split_0
I0923 01:29:38.211696 22405 net.cpp:408] conv7_1 -> conv7_1
I0923 01:29:38.213143 22405 net.cpp:150] Setting up conv7_1
I0923 01:29:38.213150 22405 net.cpp:157] Top shape: 8 128 10 10 (102400)
I0923 01:29:38.213152 22405 net.cpp:165] Memory required for data: 1879842880
I0923 01:29:38.213157 22405 layer_factory.hpp:77] Creating layer conv7_1_relu
I0923 01:29:38.213160 22405 net.cpp:100] Creating Layer conv7_1_relu
I0923 01:29:38.213162 22405 net.cpp:434] conv7_1_relu <- conv7_1
I0923 01:29:38.213165 22405 net.cpp:395] conv7_1_relu -> conv7_1 (in-place)
I0923 01:29:38.213565 22405 net.cpp:150] Setting up conv7_1_relu
I0923 01:29:38.213572 22405 net.cpp:157] Top shape: 8 128 10 10 (102400)
I0923 01:29:38.213574 22405 net.cpp:165] Memory required for data: 1880252480
I0923 01:29:38.213575 22405 layer_factory.hpp:77] Creating layer conv7_2
I0923 01:29:38.213582 22405 net.cpp:100] Creating Layer conv7_2
I0923 01:29:38.213583 22405 net.cpp:434] conv7_2 <- conv7_1
I0923 01:29:38.213587 22405 net.cpp:408] conv7_2 -> conv7_2
I0923 01:29:38.216207 22405 net.cpp:150] Setting up conv7_2
I0923 01:29:38.216217 22405 net.cpp:157] Top shape: 8 256 5 5 (51200)
I0923 01:29:38.216219 22405 net.cpp:165] Memory required for data: 1880457280
I0923 01:29:38.216223 22405 layer_factory.hpp:77] Creating layer conv7_2_relu
I0923 01:29:38.216228 22405 net.cpp:100] Creating Layer conv7_2_relu
I0923 01:29:38.216230 22405 net.cpp:434] conv7_2_relu <- conv7_2
I0923 01:29:38.216233 22405 net.cpp:395] conv7_2_relu -> conv7_2 (in-place)
I0923 01:29:38.216532 22405 net.cpp:150] Setting up conv7_2_relu
I0923 01:29:38.216537 22405 net.cpp:157] Top shape: 8 256 5 5 (51200)
I0923 01:29:38.216539 22405 net.cpp:165] Memory required for data: 1880662080
I0923 01:29:38.216542 22405 layer_factory.hpp:77] Creating layer conv7_2_conv7_2_relu_0_split
I0923 01:29:38.216545 22405 net.cpp:100] Creating Layer conv7_2_conv7_2_relu_0_split
I0923 01:29:38.216547 22405 net.cpp:434] conv7_2_conv7_2_relu_0_split <- conv7_2
I0923 01:29:38.216552 22405 net.cpp:408] conv7_2_conv7_2_relu_0_split -> conv7_2_conv7_2_relu_0_split_0
I0923 01:29:38.216555 22405 net.cpp:408] conv7_2_conv7_2_relu_0_split -> conv7_2_conv7_2_relu_0_split_1
I0923 01:29:38.216559 22405 net.cpp:408] conv7_2_conv7_2_relu_0_split -> conv7_2_conv7_2_relu_0_split_2
I0923 01:29:38.216563 22405 net.cpp:408] conv7_2_conv7_2_relu_0_split -> conv7_2_conv7_2_relu_0_split_3
I0923 01:29:38.216624 22405 net.cpp:150] Setting up conv7_2_conv7_2_relu_0_split
I0923 01:29:38.216627 22405 net.cpp:157] Top shape: 8 256 5 5 (51200)
I0923 01:29:38.216629 22405 net.cpp:157] Top shape: 8 256 5 5 (51200)
I0923 01:29:38.216631 22405 net.cpp:157] Top shape: 8 256 5 5 (51200)
I0923 01:29:38.216634 22405 net.cpp:157] Top shape: 8 256 5 5 (51200)
I0923 01:29:38.216635 22405 net.cpp:165] Memory required for data: 1881481280
I0923 01:29:38.216637 22405 layer_factory.hpp:77] Creating layer conv8_1
I0923 01:29:38.216644 22405 net.cpp:100] Creating Layer conv8_1
I0923 01:29:38.216645 22405 net.cpp:434] conv8_1 <- conv7_2_conv7_2_relu_0_split_0
I0923 01:29:38.216650 22405 net.cpp:408] conv8_1 -> conv8_1
I0923 01:29:38.218112 22405 net.cpp:150] Setting up conv8_1
I0923 01:29:38.218120 22405 net.cpp:157] Top shape: 8 128 5 5 (25600)
I0923 01:29:38.218129 22405 net.cpp:165] Memory required for data: 1881583680
I0923 01:29:38.218134 22405 layer_factory.hpp:77] Creating layer conv8_1_relu
I0923 01:29:38.218139 22405 net.cpp:100] Creating Layer conv8_1_relu
I0923 01:29:38.218142 22405 net.cpp:434] conv8_1_relu <- conv8_1
I0923 01:29:38.218144 22405 net.cpp:395] conv8_1_relu -> conv8_1 (in-place)
I0923 01:29:38.218446 22405 net.cpp:150] Setting up conv8_1_relu
I0923 01:29:38.218451 22405 net.cpp:157] Top shape: 8 128 5 5 (25600)
I0923 01:29:38.218452 22405 net.cpp:165] Memory required for data: 1881686080
I0923 01:29:38.218454 22405 layer_factory.hpp:77] Creating layer conv8_2
I0923 01:29:38.218459 22405 net.cpp:100] Creating Layer conv8_2
I0923 01:29:38.218461 22405 net.cpp:434] conv8_2 <- conv8_1
I0923 01:29:38.218466 22405 net.cpp:408] conv8_2 -> conv8_2
I0923 01:29:38.221196 22405 net.cpp:150] Setting up conv8_2
I0923 01:29:38.221206 22405 net.cpp:157] Top shape: 8 256 3 3 (18432)
I0923 01:29:38.221209 22405 net.cpp:165] Memory required for data: 1881759808
I0923 01:29:38.221213 22405 layer_factory.hpp:77] Creating layer conv8_2_relu
I0923 01:29:38.221217 22405 net.cpp:100] Creating Layer conv8_2_relu
I0923 01:29:38.221220 22405 net.cpp:434] conv8_2_relu <- conv8_2
I0923 01:29:38.221223 22405 net.cpp:395] conv8_2_relu -> conv8_2 (in-place)
I0923 01:29:38.221627 22405 net.cpp:150] Setting up conv8_2_relu
I0923 01:29:38.221634 22405 net.cpp:157] Top shape: 8 256 3 3 (18432)
I0923 01:29:38.221637 22405 net.cpp:165] Memory required for data: 1881833536
I0923 01:29:38.221638 22405 layer_factory.hpp:77] Creating layer conv8_2_conv8_2_relu_0_split
I0923 01:29:38.221643 22405 net.cpp:100] Creating Layer conv8_2_conv8_2_relu_0_split
I0923 01:29:38.221645 22405 net.cpp:434] conv8_2_conv8_2_relu_0_split <- conv8_2
I0923 01:29:38.221648 22405 net.cpp:408] conv8_2_conv8_2_relu_0_split -> conv8_2_conv8_2_relu_0_split_0
I0923 01:29:38.221652 22405 net.cpp:408] conv8_2_conv8_2_relu_0_split -> conv8_2_conv8_2_relu_0_split_1
I0923 01:29:38.221657 22405 net.cpp:408] conv8_2_conv8_2_relu_0_split -> conv8_2_conv8_2_relu_0_split_2
I0923 01:29:38.221662 22405 net.cpp:408] conv8_2_conv8_2_relu_0_split -> conv8_2_conv8_2_relu_0_split_3
I0923 01:29:38.221724 22405 net.cpp:150] Setting up conv8_2_conv8_2_relu_0_split
I0923 01:29:38.221729 22405 net.cpp:157] Top shape: 8 256 3 3 (18432)
I0923 01:29:38.221730 22405 net.cpp:157] Top shape: 8 256 3 3 (18432)
I0923 01:29:38.221734 22405 net.cpp:157] Top shape: 8 256 3 3 (18432)
I0923 01:29:38.221735 22405 net.cpp:157] Top shape: 8 256 3 3 (18432)
I0923 01:29:38.221737 22405 net.cpp:165] Memory required for data: 1882128448
I0923 01:29:38.221738 22405 layer_factory.hpp:77] Creating layer conv9_1
I0923 01:29:38.221745 22405 net.cpp:100] Creating Layer conv9_1
I0923 01:29:38.221747 22405 net.cpp:434] conv9_1 <- conv8_2_conv8_2_relu_0_split_0
I0923 01:29:38.221750 22405 net.cpp:408] conv9_1 -> conv9_1
I0923 01:29:38.223553 22405 net.cpp:150] Setting up conv9_1
I0923 01:29:38.223561 22405 net.cpp:157] Top shape: 8 128 3 3 (9216)
I0923 01:29:38.223562 22405 net.cpp:165] Memory required for data: 1882165312
I0923 01:29:38.223567 22405 layer_factory.hpp:77] Creating layer conv9_1_relu
I0923 01:29:38.223577 22405 net.cpp:100] Creating Layer conv9_1_relu
I0923 01:29:38.223580 22405 net.cpp:434] conv9_1_relu <- conv9_1
I0923 01:29:38.223584 22405 net.cpp:395] conv9_1_relu -> conv9_1 (in-place)
I0923 01:29:38.223881 22405 net.cpp:150] Setting up conv9_1_relu
I0923 01:29:38.223887 22405 net.cpp:157] Top shape: 8 128 3 3 (9216)
I0923 01:29:38.223888 22405 net.cpp:165] Memory required for data: 1882202176
I0923 01:29:38.223891 22405 layer_factory.hpp:77] Creating layer conv9_2
I0923 01:29:38.223896 22405 net.cpp:100] Creating Layer conv9_2
I0923 01:29:38.223898 22405 net.cpp:434] conv9_2 <- conv9_1
I0923 01:29:38.223903 22405 net.cpp:408] conv9_2 -> conv9_2
I0923 01:29:38.226616 22405 net.cpp:150] Setting up conv9_2
I0923 01:29:38.226626 22405 net.cpp:157] Top shape: 8 256 1 1 (2048)
I0923 01:29:38.226629 22405 net.cpp:165] Memory required for data: 1882210368
I0923 01:29:38.226644 22405 layer_factory.hpp:77] Creating layer conv9_2_relu
I0923 01:29:38.226649 22405 net.cpp:100] Creating Layer conv9_2_relu
I0923 01:29:38.226650 22405 net.cpp:434] conv9_2_relu <- conv9_2
I0923 01:29:38.226656 22405 net.cpp:395] conv9_2_relu -> conv9_2 (in-place)
I0923 01:29:38.227063 22405 net.cpp:150] Setting up conv9_2_relu
I0923 01:29:38.227071 22405 net.cpp:157] Top shape: 8 256 1 1 (2048)
I0923 01:29:38.227072 22405 net.cpp:165] Memory required for data: 1882218560
I0923 01:29:38.227074 22405 layer_factory.hpp:77] Creating layer conv9_2_conv9_2_relu_0_split
I0923 01:29:38.227078 22405 net.cpp:100] Creating Layer conv9_2_conv9_2_relu_0_split
I0923 01:29:38.227080 22405 net.cpp:434] conv9_2_conv9_2_relu_0_split <- conv9_2
I0923 01:29:38.227083 22405 net.cpp:408] conv9_2_conv9_2_relu_0_split -> conv9_2_conv9_2_relu_0_split_0
I0923 01:29:38.227088 22405 net.cpp:408] conv9_2_conv9_2_relu_0_split -> conv9_2_conv9_2_relu_0_split_1
I0923 01:29:38.227092 22405 net.cpp:408] conv9_2_conv9_2_relu_0_split -> conv9_2_conv9_2_relu_0_split_2
I0923 01:29:38.227144 22405 net.cpp:150] Setting up conv9_2_conv9_2_relu_0_split
I0923 01:29:38.227149 22405 net.cpp:157] Top shape: 8 256 1 1 (2048)
I0923 01:29:38.227151 22405 net.cpp:157] Top shape: 8 256 1 1 (2048)
I0923 01:29:38.227154 22405 net.cpp:157] Top shape: 8 256 1 1 (2048)
I0923 01:29:38.227154 22405 net.cpp:165] Memory required for data: 1882243136
I0923 01:29:38.227156 22405 layer_factory.hpp:77] Creating layer conv4_3_norm
I0923 01:29:38.227160 22405 net.cpp:100] Creating Layer conv4_3_norm
I0923 01:29:38.227162 22405 net.cpp:434] conv4_3_norm <- conv4_3_relu4_3_0_split_1
I0923 01:29:38.227166 22405 net.cpp:408] conv4_3_norm -> conv4_3_norm
I0923 01:29:38.227314 22405 net.cpp:150] Setting up conv4_3_norm
I0923 01:29:38.227319 22405 net.cpp:157] Top shape: 8 512 38 38 (5914624)
I0923 01:29:38.227320 22405 net.cpp:165] Memory required for data: 1905901632
I0923 01:29:38.227324 22405 layer_factory.hpp:77] Creating layer conv4_3_norm_conv4_3_norm_0_split
I0923 01:29:38.227326 22405 net.cpp:100] Creating Layer conv4_3_norm_conv4_3_norm_0_split
I0923 01:29:38.227329 22405 net.cpp:434] conv4_3_norm_conv4_3_norm_0_split <- conv4_3_norm
I0923 01:29:38.227332 22405 net.cpp:408] conv4_3_norm_conv4_3_norm_0_split -> conv4_3_norm_conv4_3_norm_0_split_0
I0923 01:29:38.227335 22405 net.cpp:408] conv4_3_norm_conv4_3_norm_0_split -> conv4_3_norm_conv4_3_norm_0_split_1
I0923 01:29:38.227339 22405 net.cpp:408] conv4_3_norm_conv4_3_norm_0_split -> conv4_3_norm_conv4_3_norm_0_split_2
I0923 01:29:38.227383 22405 net.cpp:150] Setting up conv4_3_norm_conv4_3_norm_0_split
I0923 01:29:38.227387 22405 net.cpp:157] Top shape: 8 512 38 38 (5914624)
I0923 01:29:38.227389 22405 net.cpp:157] Top shape: 8 512 38 38 (5914624)
I0923 01:29:38.227391 22405 net.cpp:157] Top shape: 8 512 38 38 (5914624)
I0923 01:29:38.227393 22405 net.cpp:165] Memory required for data: 1976877120
I0923 01:29:38.227396 22405 layer_factory.hpp:77] Creating layer conv4_3_norm_mbox_loc
I0923 01:29:38.227401 22405 net.cpp:100] Creating Layer conv4_3_norm_mbox_loc
I0923 01:29:38.227402 22405 net.cpp:434] conv4_3_norm_mbox_loc <- conv4_3_norm_conv4_3_norm_0_split_0
I0923 01:29:38.227406 22405 net.cpp:408] conv4_3_norm_mbox_loc -> conv4_3_norm_mbox_loc
I0923 01:29:38.228967 22405 net.cpp:150] Setting up conv4_3_norm_mbox_loc
I0923 01:29:38.228974 22405 net.cpp:157] Top shape: 8 16 38 38 (184832)
I0923 01:29:38.228976 22405 net.cpp:165] Memory required for data: 1977616448
I0923 01:29:38.228981 22405 layer_factory.hpp:77] Creating layer conv4_3_norm_mbox_loc_perm
I0923 01:29:38.228986 22405 net.cpp:100] Creating Layer conv4_3_norm_mbox_loc_perm
I0923 01:29:38.228987 22405 net.cpp:434] conv4_3_norm_mbox_loc_perm <- conv4_3_norm_mbox_loc
I0923 01:29:38.228991 22405 net.cpp:408] conv4_3_norm_mbox_loc_perm -> conv4_3_norm_mbox_loc_perm
I0923 01:29:38.229089 22405 net.cpp:150] Setting up conv4_3_norm_mbox_loc_perm
I0923 01:29:38.229092 22405 net.cpp:157] Top shape: 8 38 38 16 (184832)
I0923 01:29:38.229094 22405 net.cpp:165] Memory required for data: 1978355776
I0923 01:29:38.229102 22405 layer_factory.hpp:77] Creating layer conv4_3_norm_mbox_loc_flat
I0923 01:29:38.229106 22405 net.cpp:100] Creating Layer conv4_3_norm_mbox_loc_flat
I0923 01:29:38.229109 22405 net.cpp:434] conv4_3_norm_mbox_loc_flat <- conv4_3_norm_mbox_loc_perm
I0923 01:29:38.229111 22405 net.cpp:408] conv4_3_norm_mbox_loc_flat -> conv4_3_norm_mbox_loc_flat
I0923 01:29:38.229140 22405 net.cpp:150] Setting up conv4_3_norm_mbox_loc_flat
I0923 01:29:38.229144 22405 net.cpp:157] Top shape: 8 23104 (184832)
I0923 01:29:38.229146 22405 net.cpp:165] Memory required for data: 1979095104
I0923 01:29:38.229147 22405 layer_factory.hpp:77] Creating layer conv4_3_norm_mbox_conf
I0923 01:29:38.229156 22405 net.cpp:100] Creating Layer conv4_3_norm_mbox_conf
I0923 01:29:38.229158 22405 net.cpp:434] conv4_3_norm_mbox_conf <- conv4_3_norm_conv4_3_norm_0_split_1
I0923 01:29:38.229161 22405 net.cpp:408] conv4_3_norm_mbox_conf -> conv4_3_norm_mbox_conf
I0923 01:29:38.232197 22405 net.cpp:150] Setting up conv4_3_norm_mbox_conf
I0923 01:29:38.232206 22405 net.cpp:157] Top shape: 8 84 38 38 (970368)
I0923 01:29:38.232208 22405 net.cpp:165] Memory required for data: 1982976576
I0923 01:29:38.232213 22405 layer_factory.hpp:77] Creating layer conv4_3_norm_mbox_conf_perm
I0923 01:29:38.232218 22405 net.cpp:100] Creating Layer conv4_3_norm_mbox_conf_perm
I0923 01:29:38.232220 22405 net.cpp:434] conv4_3_norm_mbox_conf_perm <- conv4_3_norm_mbox_conf
I0923 01:29:38.232225 22405 net.cpp:408] conv4_3_norm_mbox_conf_perm -> conv4_3_norm_mbox_conf_perm
I0923 01:29:38.232326 22405 net.cpp:150] Setting up conv4_3_norm_mbox_conf_perm
I0923 01:29:38.232331 22405 net.cpp:157] Top shape: 8 38 38 84 (970368)
I0923 01:29:38.232332 22405 net.cpp:165] Memory required for data: 1986858048
I0923 01:29:38.232334 22405 layer_factory.hpp:77] Creating layer conv4_3_norm_mbox_conf_flat
I0923 01:29:38.232337 22405 net.cpp:100] Creating Layer conv4_3_norm_mbox_conf_flat
I0923 01:29:38.232339 22405 net.cpp:434] conv4_3_norm_mbox_conf_flat <- conv4_3_norm_mbox_conf_perm
I0923 01:29:38.232343 22405 net.cpp:408] conv4_3_norm_mbox_conf_flat -> conv4_3_norm_mbox_conf_flat
I0923 01:29:38.232364 22405 net.cpp:150] Setting up conv4_3_norm_mbox_conf_flat
I0923 01:29:38.232368 22405 net.cpp:157] Top shape: 8 121296 (970368)
I0923 01:29:38.232369 22405 net.cpp:165] Memory required for data: 1990739520
I0923 01:29:38.232372 22405 layer_factory.hpp:77] Creating layer conv4_3_norm_mbox_priorbox
I0923 01:29:38.232378 22405 net.cpp:100] Creating Layer conv4_3_norm_mbox_priorbox
I0923 01:29:38.232380 22405 net.cpp:434] conv4_3_norm_mbox_priorbox <- conv4_3_norm_conv4_3_norm_0_split_2
I0923 01:29:38.232383 22405 net.cpp:434] conv4_3_norm_mbox_priorbox <- data_data_0_split_1
I0923 01:29:38.232388 22405 net.cpp:408] conv4_3_norm_mbox_priorbox -> conv4_3_norm_mbox_priorbox
I0923 01:29:38.232414 22405 net.cpp:150] Setting up conv4_3_norm_mbox_priorbox
I0923 01:29:38.232417 22405 net.cpp:157] Top shape: 1 2 23104 (46208)
I0923 01:29:38.232419 22405 net.cpp:165] Memory required for data: 1990924352
I0923 01:29:38.232420 22405 layer_factory.hpp:77] Creating layer fc7_mbox_loc
I0923 01:29:38.232426 22405 net.cpp:100] Creating Layer fc7_mbox_loc
I0923 01:29:38.232429 22405 net.cpp:434] fc7_mbox_loc <- fc7_relu7_0_split_1
I0923 01:29:38.232434 22405 net.cpp:408] fc7_mbox_loc -> fc7_mbox_loc
I0923 01:29:38.234637 22405 net.cpp:150] Setting up fc7_mbox_loc
I0923 01:29:38.234645 22405 net.cpp:157] Top shape: 8 24 19 19 (69312)
I0923 01:29:38.234649 22405 net.cpp:165] Memory required for data: 1991201600
I0923 01:29:38.234655 22405 layer_factory.hpp:77] Creating layer fc7_mbox_loc_perm
I0923 01:29:38.234663 22405 net.cpp:100] Creating Layer fc7_mbox_loc_perm
I0923 01:29:38.234666 22405 net.cpp:434] fc7_mbox_loc_perm <- fc7_mbox_loc
I0923 01:29:38.234671 22405 net.cpp:408] fc7_mbox_loc_perm -> fc7_mbox_loc_perm
I0923 01:29:38.234771 22405 net.cpp:150] Setting up fc7_mbox_loc_perm
I0923 01:29:38.234776 22405 net.cpp:157] Top shape: 8 19 19 24 (69312)
I0923 01:29:38.234787 22405 net.cpp:165] Memory required for data: 1991478848
I0923 01:29:38.234791 22405 layer_factory.hpp:77] Creating layer fc7_mbox_loc_flat
I0923 01:29:38.234798 22405 net.cpp:100] Creating Layer fc7_mbox_loc_flat
I0923 01:29:38.234802 22405 net.cpp:434] fc7_mbox_loc_flat <- fc7_mbox_loc_perm
I0923 01:29:38.234805 22405 net.cpp:408] fc7_mbox_loc_flat -> fc7_mbox_loc_flat
I0923 01:29:38.234828 22405 net.cpp:150] Setting up fc7_mbox_loc_flat
I0923 01:29:38.234833 22405 net.cpp:157] Top shape: 8 8664 (69312)
I0923 01:29:38.234835 22405 net.cpp:165] Memory required for data: 1991756096
I0923 01:29:38.234838 22405 layer_factory.hpp:77] Creating layer fc7_mbox_conf
I0923 01:29:38.234848 22405 net.cpp:100] Creating Layer fc7_mbox_conf
I0923 01:29:38.234850 22405 net.cpp:434] fc7_mbox_conf <- fc7_relu7_0_split_2
I0923 01:29:38.234854 22405 net.cpp:408] fc7_mbox_conf -> fc7_mbox_conf
I0923 01:29:38.240870 22405 net.cpp:150] Setting up fc7_mbox_conf
I0923 01:29:38.240886 22405 net.cpp:157] Top shape: 8 126 19 19 (363888)
I0923 01:29:38.240888 22405 net.cpp:165] Memory required for data: 1993211648
I0923 01:29:38.240897 22405 layer_factory.hpp:77] Creating layer fc7_mbox_conf_perm
I0923 01:29:38.240906 22405 net.cpp:100] Creating Layer fc7_mbox_conf_perm
I0923 01:29:38.240911 22405 net.cpp:434] fc7_mbox_conf_perm <- fc7_mbox_conf
I0923 01:29:38.240916 22405 net.cpp:408] fc7_mbox_conf_perm -> fc7_mbox_conf_perm
I0923 01:29:38.241015 22405 net.cpp:150] Setting up fc7_mbox_conf_perm
I0923 01:29:38.241019 22405 net.cpp:157] Top shape: 8 19 19 126 (363888)
I0923 01:29:38.241022 22405 net.cpp:165] Memory required for data: 1994667200
I0923 01:29:38.241024 22405 layer_factory.hpp:77] Creating layer fc7_mbox_conf_flat
I0923 01:29:38.241029 22405 net.cpp:100] Creating Layer fc7_mbox_conf_flat
I0923 01:29:38.241032 22405 net.cpp:434] fc7_mbox_conf_flat <- fc7_mbox_conf_perm
I0923 01:29:38.241039 22405 net.cpp:408] fc7_mbox_conf_flat -> fc7_mbox_conf_flat
I0923 01:29:38.241061 22405 net.cpp:150] Setting up fc7_mbox_conf_flat
I0923 01:29:38.241066 22405 net.cpp:157] Top shape: 8 45486 (363888)
I0923 01:29:38.241070 22405 net.cpp:165] Memory required for data: 1996122752
I0923 01:29:38.241072 22405 layer_factory.hpp:77] Creating layer fc7_mbox_priorbox
I0923 01:29:38.241077 22405 net.cpp:100] Creating Layer fc7_mbox_priorbox
I0923 01:29:38.241081 22405 net.cpp:434] fc7_mbox_priorbox <- fc7_relu7_0_split_3
I0923 01:29:38.241084 22405 net.cpp:434] fc7_mbox_priorbox <- data_data_0_split_2
I0923 01:29:38.241089 22405 net.cpp:408] fc7_mbox_priorbox -> fc7_mbox_priorbox
I0923 01:29:38.241113 22405 net.cpp:150] Setting up fc7_mbox_priorbox
I0923 01:29:38.241118 22405 net.cpp:157] Top shape: 1 2 8664 (17328)
I0923 01:29:38.241122 22405 net.cpp:165] Memory required for data: 1996192064
I0923 01:29:38.241124 22405 layer_factory.hpp:77] Creating layer conv6_2_mbox_loc
I0923 01:29:38.241133 22405 net.cpp:100] Creating Layer conv6_2_mbox_loc
I0923 01:29:38.241137 22405 net.cpp:434] conv6_2_mbox_loc <- conv6_2_conv6_2_relu_0_split_1
I0923 01:29:38.241142 22405 net.cpp:408] conv6_2_mbox_loc -> conv6_2_mbox_loc
I0923 01:29:38.242838 22405 net.cpp:150] Setting up conv6_2_mbox_loc
I0923 01:29:38.242846 22405 net.cpp:157] Top shape: 8 24 10 10 (19200)
I0923 01:29:38.242848 22405 net.cpp:165] Memory required for data: 1996268864
I0923 01:29:38.242852 22405 layer_factory.hpp:77] Creating layer conv6_2_mbox_loc_perm
I0923 01:29:38.242857 22405 net.cpp:100] Creating Layer conv6_2_mbox_loc_perm
I0923 01:29:38.242861 22405 net.cpp:434] conv6_2_mbox_loc_perm <- conv6_2_mbox_loc
I0923 01:29:38.242864 22405 net.cpp:408] conv6_2_mbox_loc_perm -> conv6_2_mbox_loc_perm
I0923 01:29:38.242969 22405 net.cpp:150] Setting up conv6_2_mbox_loc_perm
I0923 01:29:38.242974 22405 net.cpp:157] Top shape: 8 10 10 24 (19200)
I0923 01:29:38.242976 22405 net.cpp:165] Memory required for data: 1996345664
I0923 01:29:38.242980 22405 layer_factory.hpp:77] Creating layer conv6_2_mbox_loc_flat
I0923 01:29:38.242983 22405 net.cpp:100] Creating Layer conv6_2_mbox_loc_flat
I0923 01:29:38.242996 22405 net.cpp:434] conv6_2_mbox_loc_flat <- conv6_2_mbox_loc_perm
I0923 01:29:38.243002 22405 net.cpp:408] conv6_2_mbox_loc_flat -> conv6_2_mbox_loc_flat
I0923 01:29:38.243024 22405 net.cpp:150] Setting up conv6_2_mbox_loc_flat
I0923 01:29:38.243028 22405 net.cpp:157] Top shape: 8 2400 (19200)
I0923 01:29:38.243032 22405 net.cpp:165] Memory required for data: 1996422464
I0923 01:29:38.243034 22405 layer_factory.hpp:77] Creating layer conv6_2_mbox_conf
I0923 01:29:38.243041 22405 net.cpp:100] Creating Layer conv6_2_mbox_conf
I0923 01:29:38.243044 22405 net.cpp:434] conv6_2_mbox_conf <- conv6_2_conv6_2_relu_0_split_2
I0923 01:29:38.243052 22405 net.cpp:408] conv6_2_mbox_conf -> conv6_2_mbox_conf
I0923 01:29:38.246757 22405 net.cpp:150] Setting up conv6_2_mbox_conf
I0923 01:29:38.246769 22405 net.cpp:157] Top shape: 8 126 10 10 (100800)
I0923 01:29:38.246771 22405 net.cpp:165] Memory required for data: 1996825664
I0923 01:29:38.246779 22405 layer_factory.hpp:77] Creating layer conv6_2_mbox_conf_perm
I0923 01:29:38.246786 22405 net.cpp:100] Creating Layer conv6_2_mbox_conf_perm
I0923 01:29:38.246789 22405 net.cpp:434] conv6_2_mbox_conf_perm <- conv6_2_mbox_conf
I0923 01:29:38.246794 22405 net.cpp:408] conv6_2_mbox_conf_perm -> conv6_2_mbox_conf_perm
I0923 01:29:38.246899 22405 net.cpp:150] Setting up conv6_2_mbox_conf_perm
I0923 01:29:38.246903 22405 net.cpp:157] Top shape: 8 10 10 126 (100800)
I0923 01:29:38.246906 22405 net.cpp:165] Memory required for data: 1997228864
I0923 01:29:38.246907 22405 layer_factory.hpp:77] Creating layer conv6_2_mbox_conf_flat
I0923 01:29:38.246912 22405 net.cpp:100] Creating Layer conv6_2_mbox_conf_flat
I0923 01:29:38.246915 22405 net.cpp:434] conv6_2_mbox_conf_flat <- conv6_2_mbox_conf_perm
I0923 01:29:38.246917 22405 net.cpp:408] conv6_2_mbox_conf_flat -> conv6_2_mbox_conf_flat
I0923 01:29:38.246937 22405 net.cpp:150] Setting up conv6_2_mbox_conf_flat
I0923 01:29:38.246942 22405 net.cpp:157] Top shape: 8 12600 (100800)
I0923 01:29:38.246943 22405 net.cpp:165] Memory required for data: 1997632064
I0923 01:29:38.246944 22405 layer_factory.hpp:77] Creating layer conv6_2_mbox_priorbox
I0923 01:29:38.246949 22405 net.cpp:100] Creating Layer conv6_2_mbox_priorbox
I0923 01:29:38.246953 22405 net.cpp:434] conv6_2_mbox_priorbox <- conv6_2_conv6_2_relu_0_split_3
I0923 01:29:38.246955 22405 net.cpp:434] conv6_2_mbox_priorbox <- data_data_0_split_3
I0923 01:29:38.246958 22405 net.cpp:408] conv6_2_mbox_priorbox -> conv6_2_mbox_priorbox
I0923 01:29:38.246980 22405 net.cpp:150] Setting up conv6_2_mbox_priorbox
I0923 01:29:38.246984 22405 net.cpp:157] Top shape: 1 2 2400 (4800)
I0923 01:29:38.246985 22405 net.cpp:165] Memory required for data: 1997651264
I0923 01:29:38.246987 22405 layer_factory.hpp:77] Creating layer conv7_2_mbox_loc
I0923 01:29:38.246994 22405 net.cpp:100] Creating Layer conv7_2_mbox_loc
I0923 01:29:38.246996 22405 net.cpp:434] conv7_2_mbox_loc <- conv7_2_conv7_2_relu_0_split_1
I0923 01:29:38.247001 22405 net.cpp:408] conv7_2_mbox_loc -> conv7_2_mbox_loc
I0923 01:29:38.248450 22405 net.cpp:150] Setting up conv7_2_mbox_loc
I0923 01:29:38.248456 22405 net.cpp:157] Top shape: 8 24 5 5 (4800)
I0923 01:29:38.248459 22405 net.cpp:165] Memory required for data: 1997670464
I0923 01:29:38.248463 22405 layer_factory.hpp:77] Creating layer conv7_2_mbox_loc_perm
I0923 01:29:38.248467 22405 net.cpp:100] Creating Layer conv7_2_mbox_loc_perm
I0923 01:29:38.248471 22405 net.cpp:434] conv7_2_mbox_loc_perm <- conv7_2_mbox_loc
I0923 01:29:38.248477 22405 net.cpp:408] conv7_2_mbox_loc_perm -> conv7_2_mbox_loc_perm
I0923 01:29:38.248579 22405 net.cpp:150] Setting up conv7_2_mbox_loc_perm
I0923 01:29:38.248582 22405 net.cpp:157] Top shape: 8 5 5 24 (4800)
I0923 01:29:38.248585 22405 net.cpp:165] Memory required for data: 1997689664
I0923 01:29:38.248589 22405 layer_factory.hpp:77] Creating layer conv7_2_mbox_loc_flat
I0923 01:29:38.248594 22405 net.cpp:100] Creating Layer conv7_2_mbox_loc_flat
I0923 01:29:38.248596 22405 net.cpp:434] conv7_2_mbox_loc_flat <- conv7_2_mbox_loc_perm
I0923 01:29:38.248611 22405 net.cpp:408] conv7_2_mbox_loc_flat -> conv7_2_mbox_loc_flat
I0923 01:29:38.248636 22405 net.cpp:150] Setting up conv7_2_mbox_loc_flat
I0923 01:29:38.248641 22405 net.cpp:157] Top shape: 8 600 (4800)
I0923 01:29:38.248643 22405 net.cpp:165] Memory required for data: 1997708864
I0923 01:29:38.248646 22405 layer_factory.hpp:77] Creating layer conv7_2_mbox_conf
I0923 01:29:38.248654 22405 net.cpp:100] Creating Layer conv7_2_mbox_conf
I0923 01:29:38.248657 22405 net.cpp:434] conv7_2_mbox_conf <- conv7_2_conv7_2_relu_0_split_2
I0923 01:29:38.248663 22405 net.cpp:408] conv7_2_mbox_conf -> conv7_2_mbox_conf
I0923 01:29:38.251360 22405 net.cpp:150] Setting up conv7_2_mbox_conf
I0923 01:29:38.251371 22405 net.cpp:157] Top shape: 8 126 5 5 (25200)
I0923 01:29:38.251374 22405 net.cpp:165] Memory required for data: 1997809664
I0923 01:29:38.251379 22405 layer_factory.hpp:77] Creating layer conv7_2_mbox_conf_perm
I0923 01:29:38.251384 22405 net.cpp:100] Creating Layer conv7_2_mbox_conf_perm
I0923 01:29:38.251389 22405 net.cpp:434] conv7_2_mbox_conf_perm <- conv7_2_mbox_conf
I0923 01:29:38.251394 22405 net.cpp:408] conv7_2_mbox_conf_perm -> conv7_2_mbox_conf_perm
I0923 01:29:38.251502 22405 net.cpp:150] Setting up conv7_2_mbox_conf_perm
I0923 01:29:38.251505 22405 net.cpp:157] Top shape: 8 5 5 126 (25200)
I0923 01:29:38.251507 22405 net.cpp:165] Memory required for data: 1997910464
I0923 01:29:38.251509 22405 layer_factory.hpp:77] Creating layer conv7_2_mbox_conf_flat
I0923 01:29:38.251513 22405 net.cpp:100] Creating Layer conv7_2_mbox_conf_flat
I0923 01:29:38.251516 22405 net.cpp:434] conv7_2_mbox_conf_flat <- conv7_2_mbox_conf_perm
I0923 01:29:38.251520 22405 net.cpp:408] conv7_2_mbox_conf_flat -> conv7_2_mbox_conf_flat
I0923 01:29:38.251547 22405 net.cpp:150] Setting up conv7_2_mbox_conf_flat
I0923 01:29:38.251551 22405 net.cpp:157] Top shape: 8 3150 (25200)
I0923 01:29:38.251554 22405 net.cpp:165] Memory required for data: 1998011264
I0923 01:29:38.251555 22405 layer_factory.hpp:77] Creating layer conv7_2_mbox_priorbox
I0923 01:29:38.251560 22405 net.cpp:100] Creating Layer conv7_2_mbox_priorbox
I0923 01:29:38.251564 22405 net.cpp:434] conv7_2_mbox_priorbox <- conv7_2_conv7_2_relu_0_split_3
I0923 01:29:38.251566 22405 net.cpp:434] conv7_2_mbox_priorbox <- data_data_0_split_4
I0923 01:29:38.251576 22405 net.cpp:408] conv7_2_mbox_priorbox -> conv7_2_mbox_priorbox
I0923 01:29:38.251624 22405 net.cpp:150] Setting up conv7_2_mbox_priorbox
I0923 01:29:38.251629 22405 net.cpp:157] Top shape: 1 2 600 (1200)
I0923 01:29:38.251631 22405 net.cpp:165] Memory required for data: 1998016064
I0923 01:29:38.251633 22405 layer_factory.hpp:77] Creating layer conv8_2_mbox_loc
I0923 01:29:38.251639 22405 net.cpp:100] Creating Layer conv8_2_mbox_loc
I0923 01:29:38.251642 22405 net.cpp:434] conv8_2_mbox_loc <- conv8_2_conv8_2_relu_0_split_1
I0923 01:29:38.251646 22405 net.cpp:408] conv8_2_mbox_loc -> conv8_2_mbox_loc
I0923 01:29:38.254083 22405 net.cpp:150] Setting up conv8_2_mbox_loc
I0923 01:29:38.254091 22405 net.cpp:157] Top shape: 8 16 3 3 (1152)
I0923 01:29:38.254093 22405 net.cpp:165] Memory required for data: 1998020672
I0923 01:29:38.254106 22405 layer_factory.hpp:77] Creating layer conv8_2_mbox_loc_perm
I0923 01:29:38.254112 22405 net.cpp:100] Creating Layer conv8_2_mbox_loc_perm
I0923 01:29:38.254115 22405 net.cpp:434] conv8_2_mbox_loc_perm <- conv8_2_mbox_loc
I0923 01:29:38.254122 22405 net.cpp:408] conv8_2_mbox_loc_perm -> conv8_2_mbox_loc_perm
I0923 01:29:38.254221 22405 net.cpp:150] Setting up conv8_2_mbox_loc_perm
I0923 01:29:38.254225 22405 net.cpp:157] Top shape: 8 3 3 16 (1152)
I0923 01:29:38.254228 22405 net.cpp:165] Memory required for data: 1998025280
I0923 01:29:38.254231 22405 layer_factory.hpp:77] Creating layer conv8_2_mbox_loc_flat
I0923 01:29:38.254237 22405 net.cpp:100] Creating Layer conv8_2_mbox_loc_flat
I0923 01:29:38.254241 22405 net.cpp:434] conv8_2_mbox_loc_flat <- conv8_2_mbox_loc_perm
I0923 01:29:38.254245 22405 net.cpp:408] conv8_2_mbox_loc_flat -> conv8_2_mbox_loc_flat
I0923 01:29:38.254266 22405 net.cpp:150] Setting up conv8_2_mbox_loc_flat
I0923 01:29:38.254276 22405 net.cpp:157] Top shape: 8 144 (1152)
I0923 01:29:38.254279 22405 net.cpp:165] Memory required for data: 1998029888
I0923 01:29:38.254281 22405 layer_factory.hpp:77] Creating layer conv8_2_mbox_conf
I0923 01:29:38.254287 22405 net.cpp:100] Creating Layer conv8_2_mbox_conf
I0923 01:29:38.254289 22405 net.cpp:434] conv8_2_mbox_conf <- conv8_2_conv8_2_relu_0_split_2
I0923 01:29:38.254294 22405 net.cpp:408] conv8_2_mbox_conf -> conv8_2_mbox_conf
I0923 01:29:38.256260 22405 net.cpp:150] Setting up conv8_2_mbox_conf
I0923 01:29:38.256268 22405 net.cpp:157] Top shape: 8 84 3 3 (6048)
I0923 01:29:38.256269 22405 net.cpp:165] Memory required for data: 1998054080
I0923 01:29:38.256273 22405 layer_factory.hpp:77] Creating layer conv8_2_mbox_conf_perm
I0923 01:29:38.256278 22405 net.cpp:100] Creating Layer conv8_2_mbox_conf_perm
I0923 01:29:38.256281 22405 net.cpp:434] conv8_2_mbox_conf_perm <- conv8_2_mbox_conf
I0923 01:29:38.256284 22405 net.cpp:408] conv8_2_mbox_conf_perm -> conv8_2_mbox_conf_perm
I0923 01:29:38.256386 22405 net.cpp:150] Setting up conv8_2_mbox_conf_perm
I0923 01:29:38.256391 22405 net.cpp:157] Top shape: 8 3 3 84 (6048)
I0923 01:29:38.256392 22405 net.cpp:165] Memory required for data: 1998078272
I0923 01:29:38.256393 22405 layer_factory.hpp:77] Creating layer conv8_2_mbox_conf_flat
I0923 01:29:38.256399 22405 net.cpp:100] Creating Layer conv8_2_mbox_conf_flat
I0923 01:29:38.256402 22405 net.cpp:434] conv8_2_mbox_conf_flat <- conv8_2_mbox_conf_perm
I0923 01:29:38.256407 22405 net.cpp:408] conv8_2_mbox_conf_flat -> conv8_2_mbox_conf_flat
I0923 01:29:38.256429 22405 net.cpp:150] Setting up conv8_2_mbox_conf_flat
I0923 01:29:38.256433 22405 net.cpp:157] Top shape: 8 756 (6048)
I0923 01:29:38.256435 22405 net.cpp:165] Memory required for data: 1998102464
I0923 01:29:38.256438 22405 layer_factory.hpp:77] Creating layer conv8_2_mbox_priorbox
I0923 01:29:38.256441 22405 net.cpp:100] Creating Layer conv8_2_mbox_priorbox
I0923 01:29:38.256445 22405 net.cpp:434] conv8_2_mbox_priorbox <- conv8_2_conv8_2_relu_0_split_3
I0923 01:29:38.256449 22405 net.cpp:434] conv8_2_mbox_priorbox <- data_data_0_split_5
I0923 01:29:38.256458 22405 net.cpp:408] conv8_2_mbox_priorbox -> conv8_2_mbox_priorbox
I0923 01:29:38.256480 22405 net.cpp:150] Setting up conv8_2_mbox_priorbox
I0923 01:29:38.256484 22405 net.cpp:157] Top shape: 1 2 144 (288)
I0923 01:29:38.256489 22405 net.cpp:165] Memory required for data: 1998103616
I0923 01:29:38.256490 22405 layer_factory.hpp:77] Creating layer conv9_2_mbox_loc
I0923 01:29:38.256497 22405 net.cpp:100] Creating Layer conv9_2_mbox_loc
I0923 01:29:38.256500 22405 net.cpp:434] conv9_2_mbox_loc <- conv9_2_conv9_2_relu_0_split_0
I0923 01:29:38.256505 22405 net.cpp:408] conv9_2_mbox_loc -> conv9_2_mbox_loc
I0923 01:29:38.257987 22405 net.cpp:150] Setting up conv9_2_mbox_loc
I0923 01:29:38.257993 22405 net.cpp:157] Top shape: 8 16 1 1 (128)
I0923 01:29:38.257994 22405 net.cpp:165] Memory required for data: 1998104128
I0923 01:29:38.257999 22405 layer_factory.hpp:77] Creating layer conv9_2_mbox_loc_perm
I0923 01:29:38.258003 22405 net.cpp:100] Creating Layer conv9_2_mbox_loc_perm
I0923 01:29:38.258007 22405 net.cpp:434] conv9_2_mbox_loc_perm <- conv9_2_mbox_loc
I0923 01:29:38.258009 22405 net.cpp:408] conv9_2_mbox_loc_perm -> conv9_2_mbox_loc_perm
I0923 01:29:38.258110 22405 net.cpp:150] Setting up conv9_2_mbox_loc_perm
I0923 01:29:38.258113 22405 net.cpp:157] Top shape: 8 1 1 16 (128)
I0923 01:29:38.258114 22405 net.cpp:165] Memory required for data: 1998104640
I0923 01:29:38.258116 22405 layer_factory.hpp:77] Creating layer conv9_2_mbox_loc_flat
I0923 01:29:38.258119 22405 net.cpp:100] Creating Layer conv9_2_mbox_loc_flat
I0923 01:29:38.258122 22405 net.cpp:434] conv9_2_mbox_loc_flat <- conv9_2_mbox_loc_perm
I0923 01:29:38.258128 22405 net.cpp:408] conv9_2_mbox_loc_flat -> conv9_2_mbox_loc_flat
I0923 01:29:38.258150 22405 net.cpp:150] Setting up conv9_2_mbox_loc_flat
I0923 01:29:38.258154 22405 net.cpp:157] Top shape: 8 16 (128)
I0923 01:29:38.258162 22405 net.cpp:165] Memory required for data: 1998105152
I0923 01:29:38.258164 22405 layer_factory.hpp:77] Creating layer conv9_2_mbox_conf
I0923 01:29:38.258169 22405 net.cpp:100] Creating Layer conv9_2_mbox_conf
I0923 01:29:38.258172 22405 net.cpp:434] conv9_2_mbox_conf <- conv9_2_conv9_2_relu_0_split_1
I0923 01:29:38.258177 22405 net.cpp:408] conv9_2_mbox_conf -> conv9_2_mbox_conf
I0923 01:29:38.260149 22405 net.cpp:150] Setting up conv9_2_mbox_conf
I0923 01:29:38.260156 22405 net.cpp:157] Top shape: 8 84 1 1 (672)
I0923 01:29:38.260160 22405 net.cpp:165] Memory required for data: 1998107840
I0923 01:29:38.260166 22405 layer_factory.hpp:77] Creating layer conv9_2_mbox_conf_perm
I0923 01:29:38.260171 22405 net.cpp:100] Creating Layer conv9_2_mbox_conf_perm
I0923 01:29:38.260175 22405 net.cpp:434] conv9_2_mbox_conf_perm <- conv9_2_mbox_conf
I0923 01:29:38.260181 22405 net.cpp:408] conv9_2_mbox_conf_perm -> conv9_2_mbox_conf_perm
I0923 01:29:38.260284 22405 net.cpp:150] Setting up conv9_2_mbox_conf_perm
I0923 01:29:38.260288 22405 net.cpp:157] Top shape: 8 1 1 84 (672)
I0923 01:29:38.260291 22405 net.cpp:165] Memory required for data: 1998110528
I0923 01:29:38.260295 22405 layer_factory.hpp:77] Creating layer conv9_2_mbox_conf_flat
I0923 01:29:38.260300 22405 net.cpp:100] Creating Layer conv9_2_mbox_conf_flat
I0923 01:29:38.260303 22405 net.cpp:434] conv9_2_mbox_conf_flat <- conv9_2_mbox_conf_perm
I0923 01:29:38.260306 22405 net.cpp:408] conv9_2_mbox_conf_flat -> conv9_2_mbox_conf_flat
I0923 01:29:38.260329 22405 net.cpp:150] Setting up conv9_2_mbox_conf_flat
I0923 01:29:38.260331 22405 net.cpp:157] Top shape: 8 84 (672)
I0923 01:29:38.260334 22405 net.cpp:165] Memory required for data: 1998113216
I0923 01:29:38.260334 22405 layer_factory.hpp:77] Creating layer conv9_2_mbox_priorbox
I0923 01:29:38.260339 22405 net.cpp:100] Creating Layer conv9_2_mbox_priorbox
I0923 01:29:38.260341 22405 net.cpp:434] conv9_2_mbox_priorbox <- conv9_2_conv9_2_relu_0_split_2
I0923 01:29:38.260344 22405 net.cpp:434] conv9_2_mbox_priorbox <- data_data_0_split_6
I0923 01:29:38.260347 22405 net.cpp:408] conv9_2_mbox_priorbox -> conv9_2_mbox_priorbox
I0923 01:29:38.260371 22405 net.cpp:150] Setting up conv9_2_mbox_priorbox
I0923 01:29:38.260375 22405 net.cpp:157] Top shape: 1 2 16 (32)
I0923 01:29:38.260378 22405 net.cpp:165] Memory required for data: 1998113344
I0923 01:29:38.260381 22405 layer_factory.hpp:77] Creating layer mbox_loc
I0923 01:29:38.260388 22405 net.cpp:100] Creating Layer mbox_loc
I0923 01:29:38.260392 22405 net.cpp:434] mbox_loc <- conv4_3_norm_mbox_loc_flat
I0923 01:29:38.260396 22405 net.cpp:434] mbox_loc <- fc7_mbox_loc_flat
I0923 01:29:38.260401 22405 net.cpp:434] mbox_loc <- conv6_2_mbox_loc_flat
I0923 01:29:38.260406 22405 net.cpp:434] mbox_loc <- conv7_2_mbox_loc_flat
I0923 01:29:38.260409 22405 net.cpp:434] mbox_loc <- conv8_2_mbox_loc_flat
I0923 01:29:38.260413 22405 net.cpp:434] mbox_loc <- conv9_2_mbox_loc_flat
I0923 01:29:38.260418 22405 net.cpp:408] mbox_loc -> mbox_loc
I0923 01:29:38.260442 22405 net.cpp:150] Setting up mbox_loc
I0923 01:29:38.260445 22405 net.cpp:157] Top shape: 8 34928 (279424)
I0923 01:29:38.260448 22405 net.cpp:165] Memory required for data: 1999231040
I0923 01:29:38.260452 22405 layer_factory.hpp:77] Creating layer mbox_conf
I0923 01:29:38.260457 22405 net.cpp:100] Creating Layer mbox_conf
I0923 01:29:38.260460 22405 net.cpp:434] mbox_conf <- conv4_3_norm_mbox_conf_flat
I0923 01:29:38.260464 22405 net.cpp:434] mbox_conf <- fc7_mbox_conf_flat
I0923 01:29:38.260468 22405 net.cpp:434] mbox_conf <- conv6_2_mbox_conf_flat
I0923 01:29:38.260473 22405 net.cpp:434] mbox_conf <- conv7_2_mbox_conf_flat
I0923 01:29:38.260475 22405 net.cpp:434] mbox_conf <- conv8_2_mbox_conf_flat
I0923 01:29:38.260478 22405 net.cpp:434] mbox_conf <- conv9_2_mbox_conf_flat
I0923 01:29:38.260481 22405 net.cpp:408] mbox_conf -> mbox_conf
I0923 01:29:38.260501 22405 net.cpp:150] Setting up mbox_conf
I0923 01:29:38.260505 22405 net.cpp:157] Top shape: 8 183372 (1466976)
I0923 01:29:38.260507 22405 net.cpp:165] Memory required for data: 2005098944
I0923 01:29:38.260515 22405 layer_factory.hpp:77] Creating layer mbox_priorbox
I0923 01:29:38.260519 22405 net.cpp:100] Creating Layer mbox_priorbox
I0923 01:29:38.260521 22405 net.cpp:434] mbox_priorbox <- conv4_3_norm_mbox_priorbox
I0923 01:29:38.260524 22405 net.cpp:434] mbox_priorbox <- fc7_mbox_priorbox
I0923 01:29:38.260526 22405 net.cpp:434] mbox_priorbox <- conv6_2_mbox_priorbox
I0923 01:29:38.260529 22405 net.cpp:434] mbox_priorbox <- conv7_2_mbox_priorbox
I0923 01:29:38.260530 22405 net.cpp:434] mbox_priorbox <- conv8_2_mbox_priorbox
I0923 01:29:38.260532 22405 net.cpp:434] mbox_priorbox <- conv9_2_mbox_priorbox
I0923 01:29:38.260535 22405 net.cpp:408] mbox_priorbox -> mbox_priorbox
I0923 01:29:38.260555 22405 net.cpp:150] Setting up mbox_priorbox
I0923 01:29:38.260558 22405 net.cpp:157] Top shape: 1 2 34928 (69856)
I0923 01:29:38.260560 22405 net.cpp:165] Memory required for data: 2005378368
I0923 01:29:38.260561 22405 layer_factory.hpp:77] Creating layer mbox_conf_reshape
I0923 01:29:38.260566 22405 net.cpp:100] Creating Layer mbox_conf_reshape
I0923 01:29:38.260570 22405 net.cpp:434] mbox_conf_reshape <- mbox_conf
I0923 01:29:38.260572 22405 net.cpp:408] mbox_conf_reshape -> mbox_conf_reshape
I0923 01:29:38.260597 22405 net.cpp:150] Setting up mbox_conf_reshape
I0923 01:29:38.260601 22405 net.cpp:157] Top shape: 8 8732 21 (1466976)
I0923 01:29:38.260603 22405 net.cpp:165] Memory required for data: 2011246272
I0923 01:29:38.260604 22405 layer_factory.hpp:77] Creating layer mbox_conf_softmax
I0923 01:29:38.260608 22405 net.cpp:100] Creating Layer mbox_conf_softmax
I0923 01:29:38.260612 22405 net.cpp:434] mbox_conf_softmax <- mbox_conf_reshape
I0923 01:29:38.260614 22405 net.cpp:408] mbox_conf_softmax -> mbox_conf_softmax
I0923 01:29:38.261085 22405 net.cpp:150] Setting up mbox_conf_softmax
I0923 01:29:38.261092 22405 net.cpp:157] Top shape: 8 8732 21 (1466976)
I0923 01:29:38.261095 22405 net.cpp:165] Memory required for data: 2017114176
I0923 01:29:38.261096 22405 layer_factory.hpp:77] Creating layer mbox_conf_flatten
I0923 01:29:38.261101 22405 net.cpp:100] Creating Layer mbox_conf_flatten
I0923 01:29:38.261103 22405 net.cpp:434] mbox_conf_flatten <- mbox_conf_softmax
I0923 01:29:38.261106 22405 net.cpp:408] mbox_conf_flatten -> mbox_conf_flatten
I0923 01:29:38.261132 22405 net.cpp:150] Setting up mbox_conf_flatten
I0923 01:29:38.261135 22405 net.cpp:157] Top shape: 8 183372 (1466976)
I0923 01:29:38.261137 22405 net.cpp:165] Memory required for data: 2022982080
I0923 01:29:38.261142 22405 layer_factory.hpp:77] Creating layer detection_out
I0923 01:29:38.261281 22405 net.cpp:100] Creating Layer detection_out
I0923 01:29:38.261284 22405 net.cpp:434] detection_out <- mbox_loc
I0923 01:29:38.261287 22405 net.cpp:434] detection_out <- mbox_conf_flatten
I0923 01:29:38.261291 22405 net.cpp:434] detection_out <- mbox_priorbox
I0923 01:29:38.261299 22405 net.cpp:408] detection_out -> detection_out
W0923 01:29:38.261842 22405 detection_output_layer.cpp:49] Failed to create directory: /home/zhongyilin/data/VOCdevkit/results/VOC2007/SSD_300x300/Main
I0923 01:29:38.263864 22405 net.cpp:150] Setting up detection_out
I0923 01:29:38.263870 22405 net.cpp:157] Top shape: 1 1 1 7 (7)
I0923 01:29:38.263873 22405 net.cpp:165] Memory required for data: 2022982108
I0923 01:29:38.263876 22405 layer_factory.hpp:77] Creating layer detection_eval
I0923 01:29:38.263882 22405 net.cpp:100] Creating Layer detection_eval
I0923 01:29:38.263886 22405 net.cpp:434] detection_eval <- detection_out
I0923 01:29:38.263891 22405 net.cpp:434] detection_eval <- label
I0923 01:29:38.263896 22405 net.cpp:408] detection_eval -> detection_eval
I0923 01:29:38.265054 22405 net.cpp:150] Setting up detection_eval
I0923 01:29:38.265059 22405 net.cpp:157] Top shape: 1 1 21 5 (105)
I0923 01:29:38.265064 22405 net.cpp:165] Memory required for data: 2022982528
I0923 01:29:38.265066 22405 net.cpp:228] detection_eval does not need backward computation.
I0923 01:29:38.265069 22405 net.cpp:228] detection_out does not need backward computation.
I0923 01:29:38.265079 22405 net.cpp:228] mbox_conf_flatten does not need backward computation.
I0923 01:29:38.265082 22405 net.cpp:228] mbox_conf_softmax does not need backward computation.
…
